…
I0510 00:27:42.408473 28326 caffe.cpp:134] Use GPU with device ID 0
I0510 00:27:42.809691 28326 net.cpp:253] The NetState phase (1) differed from the phase (0) specified by a rule in layer data
I0510 00:27:42.811305 28326 net.cpp:42] Initializing net from parameters: 
name: "GoogleNet"
state {
  phase: TEST
}
layer {
  name: "data"
  type: "Data"
  top: "data"
  top: "label"
  include {
    phase: TEST
  }
  transform_param {
    mirror: false
    crop_size: 224
    mean_value: 104
    mean_value: 117
    mean_value: 123
  }
  data_param {
    source: "val_lmdb"
    batch_size: 32
    backend: LMDB
  }
}
layer {
  name: "conv1/7x7_s2"
  type: "Convolution"
  bottom: "data"
  top: "conv1/7x7_s2"
  param {
    lr_mult: 1
    decay_mult: 1
  }
  param {
    lr_mult: 2
    decay_mult: 0
  }
  convolution_param {
    num_output: 64
    pad: 3
    kernel_size: 7
    stride: 2
    weight_filler {
      type: "xavier"
      std: 0.1
    }
    bias_filler {
      type: "constant"
      value: 0.2
    }
  }
}
layer {
  name: "conv1/relu_7x7"
  type: "ReLU"
  bottom: "conv1/7x7_s2"
  top: "conv1/7x7_s2"
}
layer {
  name: "pool1/3x3_s2"
  type: "Pooling"
  bottom: "conv1/7x7_s2"
  top: "pool1/3x3_s2"
  pooling_param {
    pool: MAX
    kernel_size: 3
    stride: 2
  }
}
layer {
  name: "pool1/norm1"
  type: "LRN"
  bottom: "pool1/3x3_s2"
  top: "pool1/norm1"
  lrn_param {
    local_size: 5
    alpha: 0.0001
    beta: 0.75
  }
}
layer {
  name: "conv2/3x3_reduce"
  type: "Convolution"
  bottom: "pool1/norm1"
  top: "conv2/3x3_reduce"
  param {
    lr_mult: 1
    decay_mult: 1
  }
  param {
    lr_mult: 2
    decay_mult: 0
  }
  convolution_param {
    num_output: 64
    kernel_size: 1
    weight_filler {
      type: "xavier"
      std: 0.1
    }
    bias_filler {
      type: "constant"
      value: 0.2
    }
  }
}
layer {
  name: "conv2/relu_3x3_reduce"
  type: "ReLU"
  bottom: "conv2/3x3_reduce"
  top: "conv2/3x3_reduce"
}
layer {
  name: "conv2/3x3"
  type: "Convolution"
  bottom: "conv2/3x3_reduce"
  top: "conv2/3x3"
  param {
    lr_mult: 1
    decay_mult: 1
  }
  param {
    lr_mult: 2
    decay_mult: 0
  }
  convolution_param {
    num_output: 192
    pad: 1
    kernel_size: 3
    weight_filler {
      type: "xavier"
      std: 0.03
    }
    bias_filler {
      type: "constant"
      value: 0.2
    }
  }
}
layer {
  name: "conv2/relu_3x3"
  type: "ReLU"
  bottom: "conv2/3x3"
  top: "conv2/3x3"
}
layer {
  name: "conv2/norm2"
  type: "LRN"
  bottom: "conv2/3x3"
  top: "conv2/norm2"
  lrn_param {
    local_size: 5
    alpha: 0.0001
    beta: 0.75
  }
}
layer {
  name: "pool2/3x3_s2"
  type: "Pooling"
  bottom: "conv2/norm2"
  top: "pool2/3x3_s2"
  pooling_param {
    pool: MAX
    kernel_size: 3
    stride: 2
  }
}
layer {
  name: "inception_3a/1x1"
  type: "Convolution"
  bottom: "pool2/3x3_s2"
  top: "inception_3a/1x1"
  param {
    lr_mult: 1
    decay_mult: 1
  }
  param {
    lr_mult: 2
    decay_mult: 0
  }
  convolution_param {
    num_output: 64
    kernel_size: 1
    weight_filler {
      type: "xavier"
      std: 0.03
    }
    bias_filler {
      type: "constant"
      value: 0.2
    }
  }
}
layer {
  name: "inception_3a/relu_1x1"
  type: "ReLU"
  bottom: "inception_3a/1x1"
  top: "inception_3a/1x1"
}
layer {
  name: "inception_3a/3x3_reduce"
  type: "Convolution"
  bottom: "pool2/3x3_s2"
  top: "inception_3a/3x3_reduce"
  param {
    lr_mult: 1
    decay_mult: 1
  }
  param {
    lr_mult: 2
    decay_mult: 0
  }
  convolution_param {
    num_output: 96
    kernel_size: 1
    weight_filler {
      type: "xavier"
      std: 0.09
    }
    bias_filler {
      type: "constant"
      value: 0.2
    }
  }
}
layer {
  name: "inception_3a/relu_3x3_reduce"
  type: "ReLU"
  bottom: "inception_3a/3x3_reduce"
  top: "inception_3a/3x3_reduce"
}
layer {
  name: "inception_3a/3x3"
  type: "Convolution"
  bottom: "inception_3a/3x3_reduce"
  top: "inception_3a/3x3"
  param {
    lr_mult: 1
    decay_mult: 1
  }
  param {
    lr_mult: 2
    decay_mult: 0
  }
  convolution_param {
    num_output: 128
    pad: 1
    kernel_size: 3
    weight_filler {
      type: "xavier"
      std: 0.03
    }
    bias_filler {
      type: "constant"
      value: 0.2
    }
  }
}
layer {
  name: "inception_3a/relu_3x3"
  type: "ReLU"
  bottom: "inception_3a/3x3"
  top: "inception_3a/3x3"
}
layer {
  name: "inception_3a/5x5_reduce"
  type: "Convolution"
  bottom: "pool2/3x3_s2"
  top: "inception_3a/5x5_reduce"
  param {
    lr_mult: 1
    decay_mult: 1
  }
  param {
    lr_mult: 2
    decay_mult: 0
  }
  convolution_param {
    num_output: 16
    kernel_size: 1
    weight_filler {
      type: "xavier"
      std: 0.2
    }
    bias_filler {
      type: "constant"
      value: 0.2
    }
  }
}
layer {
  name: "inception_3a/relu_5x5_reduce"
  type: "ReLU"
  bottom: "inception_3a/5x5_reduce"
  top: "inception_3a/5x5_reduce"
}
layer {
  name: "inception_3a/5x5"
  type: "Convolution"
  bottom: "inception_3a/5x5_reduce"
  top: "inception_3a/5x5"
  param {
    lr_mult: 1
    decay_mult: 1
  }
  param {
    lr_mult: 2
    decay_mult: 0
  }
  convolution_param {
    num_output: 32
    pad: 2
    kernel_size: 5
    weight_filler {
      type: "xavier"
      std: 0.03
    }
    bias_filler {
      type: "constant"
      value: 0.2
    }
  }
}
layer {
  name: "inception_3a/relu_5x5"
  type: "ReLU"
  bottom: "inception_3a/5x5"
  top: "inception_3a/5x5"
}
layer {
  name: "inception_3a/pool"
  type: "Pooling"
  bottom: "pool2/3x3_s2"
  top: "inception_3a/pool"
  pooling_param {
    pool: MAX
    kernel_size: 3
    stride: 1
    pad: 1
  }
}
layer {
  name: "inception_3a/pool_proj"
  type: "Convolution"
  bottom: "inception_3a/pool"
  top: "inception_3a/pool_proj"
  param {
    lr_mult: 1
    decay_mult: 1
  }
  param {
    lr_mult: 2
    decay_mult: 0
  }
  convolution_param {
    num_output: 32
    kernel_size: 1
    weight_filler {
      type: "xavier"
      std: 0.1
    }
    bias_filler {
      type: "constant"
      value: 0.2
    }
  }
}
layer {
  name: "inception_3a/relu_pool_proj"
  type: "ReLU"
  bottom: "inception_3a/pool_proj"
  top: "inception_3a/pool_proj"
}
layer {
  name: "inception_3a/output"
  type: "Concat"
  bottom: "inception_3a/1x1"
  bottom: "inception_3a/3x3"
  bottom: "inception_3a/5x5"
  bottom: "inception_3a/pool_proj"
  top: "inception_3a/output"
}
layer {
  name: "inception_3b/1x1"
  type: "Convolution"
  bottom: "inception_3a/output"
  top: "inception_3b/1x1"
  param {
    lr_mult: 1
    decay_mult: 1
  }
  param {
    lr_mult: 2
    decay_mult: 0
  }
  convolution_param {
    num_output: 128
    kernel_size: 1
    weight_filler {
      type: "xavier"
      std: 0.03
    }
    bias_filler {
      type: "constant"
      value: 0.2
    }
  }
}
layer {
  name: "inception_3b/relu_1x1"
  type: "ReLU"
  bottom: "inception_3b/1x1"
  top: "inception_3b/1x1"
}
layer {
  name: "inception_3b/3x3_reduce"
  type: "Convolution"
  bottom: "inception_3a/output"
  top: "inception_3b/3x3_reduce"
  param {
    lr_mult: 1
    decay_mult: 1
  }
  param {
    lr_mult: 2
    decay_mult: 0
  }
  convolution_param {
    num_output: 128
    kernel_size: 1
    weight_filler {
      type: "xavier"
      std: 0.09
    }
    bias_filler {
      type: "constant"
      value: 0.2
    }
  }
}
layer {
  name: "inception_3b/relu_3x3_reduce"
  type: "ReLU"
  bottom: "inception_3b/3x3_reduce"
  top: "inception_3b/3x3_reduce"
}
layer {
  name: "inception_3b/3x3"
  type: "Convolution"
  bottom: "inception_3b/3x3_reduce"
  top: "inception_3b/3x3"
  param {
    lr_mult: 1
    decay_mult: 1
  }
  param {
    lr_mult: 2
    decay_mult: 0
  }
  convolution_param {
    num_output: 192
    pad: 1
    kernel_size: 3
    weight_filler {
      type: "xavier"
      std: 0.03
    }
    bias_filler {
      type: "constant"
      value: 0.2
    }
  }
}
layer {
  name: "inception_3b/relu_3x3"
  type: "ReLU"
  bottom: "inception_3b/3x3"
  top: "inception_3b/3x3"
}
layer {
  name: "inception_3b/5x5_reduce"
  type: "Convolution"
  bottom: "inception_3a/output"
  top: "inception_3b/5x5_reduce"
  param {
    lr_mult: 1
    decay_mult: 1
  }
  param {
    lr_mult: 2
    decay_mult: 0
  }
  convolution_param {
    num_output: 32
    kernel_size: 1
    weight_filler {
      type: "xavier"
      std: 0.2
    }
    bias_filler {
      type: "constant"
      value: 0.2
    }
  }
}
layer {
  name: "inception_3b/relu_5x5_reduce"
  type: "ReLU"
  bottom: "inception_3b/5x5_reduce"
  top: "inception_3b/5x5_reduce"
}
layer {
  name: "inception_3b/5x5"
  type: "Convolution"
  bottom: "inception_3b/5x5_reduce"
  top: "inception_3b/5x5"
  param {
    lr_mult: 1
    decay_mult: 1
  }
  param {
    lr_mult: 2
    decay_mult: 0
  }
  convolution_param {
    num_output: 96
    pad: 2
    kernel_size: 5
    weight_filler {
      type: "xavier"
      std: 0.03
    }
    bias_filler {
      type: "constant"
      value: 0.2
    }
  }
}
layer {
  name: "inception_3b/relu_5x5"
  type: "ReLU"
  bottom: "inception_3b/5x5"
  top: "inception_3b/5x5"
}
layer {
  name: "inception_3b/pool"
  type: "Pooling"
  bottom: "inception_3a/output"
  top: "inception_3b/pool"
  pooling_param {
    pool: MAX
    kernel_size: 3
    stride: 1
    pad: 1
  }
}
layer {
  name: "inception_3b/pool_proj"
  type: "Convolution"
  bottom: "inception_3b/pool"
  top: "inception_3b/pool_proj"
  param {
    lr_mult: 1
    decay_mult: 1
  }
  param {
    lr_mult: 2
    decay_mult: 0
  }
  convolution_param {
    num_output: 64
    kernel_size: 1
    weight_filler {
      type: "xavier"
      std: 0.1
    }
    bias_filler {
      type: "constant"
      value: 0.2
    }
  }
}
layer {
  name: "inception_3b/relu_pool_proj"
  type: "ReLU"
  bottom: "inception_3b/pool_proj"
  top: "inception_3b/pool_proj"
}
layer {
  name: "inception_3b/output"
  type: "Concat"
  bottom: "inception_3b/1x1"
  bottom: "inception_3b/3x3"
  bottom: "inception_3b/5x5"
  bottom: "inception_3b/pool_proj"
  top: "inception_3b/output"
}
layer {
  name: "pool3/3x3_s2"
  type: "Pooling"
  bottom: "inception_3b/output"
  top: "pool3/3x3_s2"
  pooling_param {
    pool: MAX
    kernel_size: 3
    stride: 2
  }
}
layer {
  name: "inception_4a/1x1"
  type: "Convolution"
  bottom: "pool3/3x3_s2"
  top: "inception_4a/1x1"
  param {
    lr_mult: 1
    decay_mult: 1
  }
  param {
    lr_mult: 2
    decay_mult: 0
  }
  convolution_param {
    num_output: 192
    kernel_size: 1
    weight_filler {
      type: "xavier"
      std: 0.03
    }
    bias_filler {
      type: "constant"
      value: 0.2
    }
  }
}
layer {
  name: "inception_4a/relu_1x1"
  type: "ReLU"
  bottom: "inception_4a/1x1"
  top: "inception_4a/1x1"
}
layer {
  name: "inception_4a/3x3_reduce"
  type: "Convolution"
  bottom: "pool3/3x3_s2"
  top: "inception_4a/3x3_reduce"
  param {
    lr_mult: 1
    decay_mult: 1
  }
  param {
    lr_mult: 2
    decay_mult: 0
  }
  convolution_param {
    num_output: 96
    kernel_size: 1
    weight_filler {
      type: "xavier"
      std: 0.09
    }
    bias_filler {
      type: "constant"
      value: 0.2
    }
  }
}
layer {
  name: "inception_4a/relu_3x3_reduce"
  type: "ReLU"
  bottom: "inception_4a/3x3_reduce"
  top: "inception_4a/3x3_reduce"
}
layer {
  name: "inception_4a/3x3"
  type: "Convolution"
  bottom: "inception_4a/3x3_reduce"
  top: "inception_4a/3x3"
  param {
    lr_mult: 1
    decay_mult: 1
  }
  param {
    lr_mult: 2
    decay_mult: 0
  }
  convolution_param {
    num_output: 208
    pad: 1
    kernel_size: 3
    weight_filler {
      type: "xavier"
      std: 0.03
    }
    bias_filler {
      type: "constant"
      value: 0.2
    }
  }
}
layer {
  name: "inception_4a/relu_3x3"
  type: "ReLU"
  bottom: "inception_4a/3x3"
  top: "inception_4a/3x3"
}
layer {
  name: "inception_4a/5x5_reduce"
  type: "Convolution"
  bottom: "pool3/3x3_s2"
  top: "inception_4a/5x5_reduce"
  param {
    lr_mult: 1
    decay_mult: 1
  }
  param {
    lr_mult: 2
    decay_mult: 0
  }
  convolution_param {
    num_output: 16
    kernel_size: 1
    weight_filler {
      type: "xavier"
      std: 0.2
    }
    bias_filler {
      type: "constant"
      value: 0.2
    }
  }
}
layer {
  name: "inception_4a/relu_5x5_reduce"
  type: "ReLU"
  bottom: "inception_4a/5x5_reduce"
  top: "inception_4a/5x5_reduce"
}
layer {
  name: "inception_4a/5x5"
  type: "Convolution"
  bottom: "inception_4a/5x5_reduce"
  top: "inception_4a/5x5"
  param {
    lr_mult: 1
    decay_mult: 1
  }
  param {
    lr_mult: 2
    decay_mult: 0
  }
  convolution_param {
    num_output: 48
    pad: 2
    kernel_size: 5
    weight_filler {
      type: "xavier"
      std: 0.03
    }
    bias_filler {
      type: "constant"
      value: 0.2
    }
  }
}
layer {
  name: "inception_4a/relu_5x5"
  type: "ReLU"
  bottom: "inception_4a/5x5"
  top: "inception_4a/5x5"
}
layer {
  name: "inception_4a/pool"
  type: "Pooling"
  bottom: "pool3/3x3_s2"
  top: "inception_4a/pool"
  pooling_param {
    pool: MAX
    kernel_size: 3
    stride: 1
    pad: 1
  }
}
layer {
  name: "inception_4a/pool_proj"
  type: "Convolution"
  bottom: "inception_4a/pool"
  top: "inception_4a/pool_proj"
  param {
    lr_mult: 1
    decay_mult: 1
  }
  param {
    lr_mult: 2
    decay_mult: 0
  }
  convolution_param {
    num_output: 64
    kernel_size: 1
    weight_filler {
      type: "xavier"
      std: 0.1
    }
    bias_filler {
      type: "constant"
      value: 0.2
    }
  }
}
layer {
  name: "inception_4a/relu_pool_proj"
  type: "ReLU"
  bottom: "inception_4a/pool_proj"
  top: "inception_4a/pool_proj"
}
layer {
  name: "inception_4a/output"
  type: "Concat"
  bottom: "inception_4a/1x1"
  bottom: "inception_4a/3x3"
  bottom: "inception_4a/5x5"
  bottom: "inception_4a/pool_proj"
  top: "inception_4a/output"
}
layer {
  name: "loss1/ave_pool"
  type: "Pooling"
  bottom: "inception_4a/output"
  top: "loss1/ave_pool"
  pooling_param {
    pool: AVE
    kernel_size: 5
    stride: 3
  }
}
layer {
  name: "loss1/conv"
  type: "Convolution"
  bottom: "loss1/ave_pool"
  top: "loss1/conv"
  param {
    lr_mult: 1
    decay_mult: 1
  }
  param {
    lr_mult: 2
    decay_mult: 0
  }
  convolution_param {
    num_output: 128
    kernel_size: 1
    weight_filler {
      type: "xavier"
      std: 0.08
    }
    bias_filler {
      type: "constant"
      value: 0.2
    }
  }
}
layer {
  name: "loss1/relu_conv"
  type: "ReLU"
  bottom: "loss1/conv"
  top: "loss1/conv"
}
layer {
  name: "loss1/fc"
  type: "InnerProduct"
  bottom: "loss1/conv"
  top: "loss1/fc"
  param {
    lr_mult: 1
    decay_mult: 1
  }
  param {
    lr_mult: 2
    decay_mult: 0
  }
  inner_product_param {
    num_output: 1024
    weight_filler {
      type: "xavier"
      std: 0.02
    }
    bias_filler {
      type: "constant"
      value: 0.2
    }
  }
}
layer {
  name: "loss1/relu_fc"
  type: "ReLU"
  bottom: "loss1/fc"
  top: "loss1/fc"
}
layer {
  name: "loss1/drop_fc"
  type: "Dropout"
  bottom: "loss1/fc"
  top: "loss1/fc"
  dropout_param {
    dropout_ratio: 0.7
  }
}
layer {
  name: "loss1/classifier"
  type: "InnerProduct"
  bottom: "loss1/fc"
  top: "loss1/classifier"
  param {
    lr_mult: 1
    decay_mult: 1
  }
  param {
    lr_mult: 2
    decay_mult: 0
  }
  inner_product_param {
    num_output: 2
    weight_filler {
      type: "xavier"
      std: 0.0009765625
    }
    bias_filler {
      type: "constant"
      value: 0
    }
  }
}
layer {
  name: "loss1/loss"
  type: "SoftmaxWithLoss"
  bottom: "loss1/classifier"
  bottom: "label"
  top: "loss1/loss1"
  loss_weight: 0.3
}
layer {
  name: "loss1/top-1"
  type: "Accuracy"
  bottom: "loss1/classifier"
  bottom: "label"
  top: "loss1/top-1"
  include {
    phase: TEST
  }
}
layer {
  name: "inception_4b/1x1"
  type: "Convolution"
  bottom: "inception_4a/output"
  top: "inception_4b/1x1"
  param {
    lr_mult: 1
    decay_mult: 1
  }
  param {
    lr_mult: 2
    decay_mult: 0
  }
  convolution_param {
    num_output: 160
    kernel_size: 1
    weight_filler {
      type: "xavier"
      std: 0.03
    }
    bias_filler {
      type: "constant"
      value: 0.2
    }
  }
}
layer {
  name: "inception_4b/relu_1x1"
  type: "ReLU"
  bottom: "inception_4b/1x1"
  top: "inception_4b/1x1"
}
layer {
  name: "inception_4b/3x3_reduce"
  type: "Convolution"
  bottom: "inception_4a/output"
  top: "inception_4b/3x3_reduce"
  param {
    lr_mult: 1
    decay_mult: 1
  }
  param {
    lr_mult: 2
    decay_mult: 0
  }
  convolution_param {
    num_output: 112
    kernel_size: 1
    weight_filler {
      type: "xavier"
      std: 0.09
    }
    bias_filler {
      type: "constant"
      value: 0.2
    }
  }
}
layer {
  name: "inception_4b/relu_3x3_reduce"
  type: "ReLU"
  bottom: "inception_4b/3x3_reduce"
  top: "inception_4b/3x3_reduce"
}
layer {
  name: "inception_4b/3x3"
  type: "Convolution"
  bottom: "inception_4b/3x3_reduce"
  top: "inception_4b/3x3"
  param {
    lr_mult: 1
    decay_mult: 1
  }
  param {
    lr_mult: 2
    decay_mult: 0
  }
  convolution_param {
    num_output: 224
    pad: 1
    kernel_size: 3
    weight_filler {
      type: "xavier"
      std: 0.03
    }
    bias_filler {
      type: "constant"
      value: 0.2
    }
  }
}
layer {
  name: "inception_4b/relu_3x3"
  type: "ReLU"
  bottom: "inception_4b/3x3"
  top: "inception_4b/3x3"
}
layer {
  name: "inception_4b/5x5_reduce"
  type: "Convolution"
  bottom: "inception_4a/output"
  top: "inception_4b/5x5_reduce"
  param {
    lr_mult: 1
    decay_mult: 1
  }
  param {
    lr_mult: 2
    decay_mult: 0
  }
  convolution_param {
    num_output: 24
    kernel_size: 1
    weight_filler {
      type: "xavier"
      std: 0.2
    }
    bias_filler {
      type: "constant"
      value: 0.2
    }
  }
}
layer {
  name: "inception_4b/relu_5x5_reduce"
  type: "ReLU"
  bottom: "inception_4b/5x5_reduce"
  top: "inception_4b/5x5_reduce"
}
layer {
  name: "inception_4b/5x5"
  type: "Convolution"
  bottom: "inception_4b/5x5_reduce"
  top: "inception_4b/5x5"
  param {
    lr_mult: 1
    decay_mult: 1
  }
  param {
    lr_mult: 2
    decay_mult: 0
  }
  convolution_param {
    num_output: 64
    pad: 2
    kernel_size: 5
    weight_filler {
      type: "xavier"
      std: 0.03
    }
    bias_filler {
      type: "constant"
      value: 0.2
    }
  }
}
layer {
  name: "inception_4b/relu_5x5"
  type: "ReLU"
  bottom: "inception_4b/5x5"
  top: "inception_4b/5x5"
}
layer {
  name: "inception_4b/pool"
  type: "Pooling"
  bottom: "inception_4a/output"
  top: "inception_4b/pool"
  pooling_param {
    pool: MAX
    kernel_size: 3
    stride: 1
    pad: 1
  }
}
layer {
  name: "inception_4b/pool_proj"
  type: "Convolution"
  bottom: "inception_4b/pool"
  top: "inception_4b/pool_proj"
  param {
    lr_mult: 1
    decay_mult: 1
  }
  param {
    lr_mult: 2
    decay_mult: 0
  }
  convolution_param {
    num_output: 64
    kernel_size: 1
    weight_filler {
      type: "xavier"
      std: 0.1
    }
    bias_filler {
      type: "constant"
      value: 0.2
    }
  }
}
layer {
  name: "inception_4b/relu_pool_proj"
  type: "ReLU"
  bottom: "inception_4b/pool_proj"
  top: "inception_4b/pool_proj"
}
layer {
  name: "inception_4b/output"
  type: "Concat"
  bottom: "inception_4b/1x1"
  bottom: "inception_4b/3x3"
  bottom: "inception_4b/5x5"
  bottom: "inception_4b/pool_proj"
  top: "inception_4b/output"
}
layer {
  name: "inception_4c/1x1"
  type: "Convolution"
  bottom: "inception_4b/output"
  top: "inception_4c/1x1"
  param {
    lr_mult: 1
    decay_mult: 1
  }
  param {
    lr_mult: 2
    decay_mult: 0
  }
  convolution_param {
    num_output: 128
    kernel_size: 1
    weight_filler {
      type: "xavier"
      std: 0.03
    }
    bias_filler {
      type: "constant"
      value: 0.2
    }
  }
}
layer {
  name: "inception_4c/relu_1x1"
  type: "ReLU"
  bottom: "inception_4c/1x1"
  top: "inception_4c/1x1"
}
layer {
  name: "inception_4c/3x3_reduce"
  type: "Convolution"
  bottom: "inception_4b/output"
  top: "inception_4c/3x3_reduce"
  param {
    lr_mult: 1
    decay_mult: 1
  }
  param {
    lr_mult: 2
    decay_mult: 0
  }
  convolution_param {
    num_output: 128
    kernel_size: 1
    weight_filler {
      type: "xavier"
      std: 0.09
    }
    bias_filler {
      type: "constant"
      value: 0.2
    }
  }
}
layer {
  name: "inception_4c/relu_3x3_reduce"
  type: "ReLU"
  bottom: "inception_4c/3x3_reduce"
  top: "inception_4c/3x3_reduce"
}
layer {
  name: "inception_4c/3x3"
  type: "Convolution"
  bottom: "inception_4c/3x3_reduce"
  top: "inception_4c/3x3"
  param {
    lr_mult: 1
    decay_mult: 1
  }
  param {
    lr_mult: 2
    decay_mult: 0
  }
  convolution_param {
    num_output: 256
    pad: 1
    kernel_size: 3
    weight_filler {
      type: "xavier"
      std: 0.03
    }
    bias_filler {
      type: "constant"
      value: 0.2
    }
  }
}
layer {
  name: "inception_4c/relu_3x3"
  type: "ReLU"
  bottom: "inception_4c/3x3"
  top: "inception_4c/3x3"
}
layer {
  name: "inception_4c/5x5_reduce"
  type: "Convolution"
  bottom: "inception_4b/output"
  top: "inception_4c/5x5_reduce"
  param {
    lr_mult: 1
    decay_mult: 1
  }
  param {
    lr_mult: 2
    decay_mult: 0
  }
  convolution_param {
    num_output: 24
    kernel_size: 1
    weight_filler {
      type: "xavier"
      std: 0.2
    }
    bias_filler {
      type: "constant"
      value: 0.2
    }
  }
}
layer {
  name: "inception_4c/relu_5x5_reduce"
  type: "ReLU"
  bottom: "inception_4c/5x5_reduce"
  top: "inception_4c/5x5_reduce"
}
layer {
  name: "inception_4c/5x5"
  type: "Convolution"
  bottom: "inception_4c/5x5_reduce"
  top: "inception_4c/5x5"
  param {
    lr_mult: 1
    decay_mult: 1
  }
  param {
    lr_mult: 2
    decay_mult: 0
  }
  convolution_param {
    num_output: 64
    pad: 2
    kernel_size: 5
    weight_filler {
      type: "xavier"
      std: 0.03
    }
    bias_filler {
      type: "constant"
      value: 0.2
    }
  }
}
layer {
  name: "inception_4c/relu_5x5"
  type: "ReLU"
  bottom: "inception_4c/5x5"
  top: "inception_4c/5x5"
}
layer {
  name: "inception_4c/pool"
  type: "Pooling"
  bottom: "inception_4b/output"
  top: "inception_4c/pool"
  pooling_param {
    pool: MAX
    kernel_size: 3
    stride: 1
    pad: 1
  }
}
layer {
  name: "inception_4c/pool_proj"
  type: "Convolution"
  bottom: "inception_4c/pool"
  top: "inception_4c/pool_proj"
  param {
    lr_mult: 1
    decay_mult: 1
  }
  param {
    lr_mult: 2
    decay_mult: 0
  }
  convolution_param {
    num_output: 64
    kernel_size: 1
    weight_filler {
      type: "xavier"
      std: 0.1
    }
    bias_filler {
      type: "constant"
      value: 0.2
    }
  }
}
layer {
  name: "inception_4c/relu_pool_proj"
  type: "ReLU"
  bottom: "inception_4c/pool_proj"
  top: "inception_4c/pool_proj"
}
layer {
  name: "inception_4c/output"
  type: "Concat"
  bottom: "inception_4c/1x1"
  bottom: "inception_4c/3x3"
  bottom: "inception_4c/5x5"
  bottom: "inception_4c/pool_proj"
  top: "inception_4c/output"
}
layer {
  name: "inception_4d/1x1"
  type: "Convolution"
  bottom: "inception_4c/output"
  top: "inception_4d/1x1"
  param {
    lr_mult: 1
    decay_mult: 1
  }
  param {
    lr_mult: 2
    decay_mult: 0
  }
  convolution_param {
    num_output: 112
    kernel_size: 1
    weight_filler {
      type: "xavier"
      std: 0.03
    }
    bias_filler {
      type: "constant"
      value: 0.2
    }
  }
}
layer {
  name: "inception_4d/relu_1x1"
  type: "ReLU"
  bottom: "inception_4d/1x1"
  top: "inception_4d/1x1"
}
layer {
  name: "inception_4d/3x3_reduce"
  type: "Convolution"
  bottom: "inception_4c/output"
  top: "inception_4d/3x3_reduce"
  param {
    lr_mult: 1
    decay_mult: 1
  }
  param {
    lr_mult: 2
    decay_mult: 0
  }
  convolution_param {
    num_output: 144
    kernel_size: 1
    weight_filler {
      type: "xavier"
      std: 0.09
    }
    bias_filler {
      type: "constant"
      value: 0.2
    }
  }
}
layer {
  name: "inception_4d/relu_3x3_reduce"
  type: "ReLU"
  bottom: "inception_4d/3x3_reduce"
  top: "inception_4d/3x3_reduce"
}
layer {
  name: "inception_4d/3x3"
  type: "Convolution"
  bottom: "inception_4d/3x3_reduce"
  top: "inception_4d/3x3"
  param {
    lr_mult: 1
    decay_mult: 1
  }
  param {
    lr_mult: 2
    decay_mult: 0
  }
  convolution_param {
    num_output: 288
    pad: 1
    kernel_size: 3
    weight_filler {
      type: "xavier"
      std: 0.03
    }
    bias_filler {
      type: "constant"
      value: 0.2
    }
  }
}
layer {
  name: "inception_4d/relu_3x3"
  type: "ReLU"
  bottom: "inception_4d/3x3"
  top: "inception_4d/3x3"
}
layer {
  name: "inception_4d/5x5_reduce"
  type: "Convolution"
  bottom: "inception_4c/output"
  top: "inception_4d/5x5_reduce"
  param {
    lr_mult: 1
    decay_mult: 1
  }
  param {
    lr_mult: 2
    decay_mult: 0
  }
  convolution_param {
    num_output: 32
    kernel_size: 1
    weight_filler {
      type: "xavier"
      std: 0.2
    }
    bias_filler {
      type: "constant"
      value: 0.2
    }
  }
}
layer {
  name: "inception_4d/relu_5x5_reduce"
  type: "ReLU"
  bottom: "inception_4d/5x5_reduce"
  top: "inception_4d/5x5_reduce"
}
layer {
  name: "inception_4d/5x5"
  type: "Convolution"
  bottom: "inception_4d/5x5_reduce"
  top: "inception_4d/5x5"
  param {
    lr_mult: 1
    decay_mult: 1
  }
  param {
    lr_mult: 2
    decay_mult: 0
  }
  convolution_param {
    num_output: 64
    pad: 2
    kernel_size: 5
    weight_filler {
      type: "xavier"
      std: 0.03
    }
    bias_filler {
      type: "constant"
      value: 0.2
    }
  }
}
layer {
  name: "inception_4d/relu_5x5"
  type: "ReLU"
  bottom: "inception_4d/5x5"
  top: "inception_4d/5x5"
}
layer {
  name: "inception_4d/pool"
  type: "Pooling"
  bottom: "inception_4c/output"
  top: "inception_4d/pool"
  pooling_param {
    pool: MAX
    kernel_size: 3
    stride: 1
    pad: 1
  }
}
layer {
  name: "inception_4d/pool_proj"
  type: "Convolution"
  bottom: "inception_4d/pool"
  top: "inception_4d/pool_proj"
  param {
    lr_mult: 1
    decay_mult: 1
  }
  param {
    lr_mult: 2
    decay_mult: 0
  }
  convolution_param {
    num_output: 64
    kernel_size: 1
    weight_filler {
      type: "xavier"
      std: 0.1
    }
    bias_filler {
      type: "constant"
      value: 0.2
    }
  }
}
layer {
  name: "inception_4d/relu_pool_proj"
  type: "ReLU"
  bottom: "inception_4d/pool_proj"
  top: "inception_4d/pool_proj"
}
layer {
  name: "inception_4d/output"
  type: "Concat"
  bottom: "inception_4d/1x1"
  bottom: "inception_4d/3x3"
  bottom: "inception_4d/5x5"
  bottom: "inception_4d/pool_proj"
  top: "inception_4d/output"
}
layer {
  name: "loss2/ave_pool"
  type: "Pooling"
  bottom: "inception_4d/output"
  top: "loss2/ave_pool"
  pooling_param {
    pool: AVE
    kernel_size: 5
    stride: 3
  }
}
layer {
  name: "loss2/conv"
  type: "Convolution"
  bottom: "loss2/ave_pool"
  top: "loss2/conv"
  param {
    lr_mult: 1
    decay_mult: 1
  }
  param {
    lr_mult: 2
    decay_mult: 0
  }
  convolution_param {
    num_output: 128
    kernel_size: 1
    weight_filler {
      type: "xavier"
      std: 0.08
    }
    bias_filler {
      type: "constant"
      value: 0.2
    }
  }
}
layer {
  name: "loss2/relu_conv"
  type: "ReLU"
  bottom: "loss2/conv"
  top: "loss2/conv"
}
layer {
  name: "loss2/fc"
  type: "InnerProduct"
  bottom: "loss2/conv"
  top: "loss2/fc"
  param {
    lr_mult: 1
    decay_mult: 1
  }
  param {
    lr_mult: 2
    decay_mult: 0
  }
  inner_product_param {
    num_output: 1024
    weight_filler {
      type: "xavier"
      std: 0.02
    }
    bias_filler {
      type: "constant"
      value: 0.2
    }
  }
}
layer {
  name: "loss2/relu_fc"
  type: "ReLU"
  bottom: "loss2/fc"
  top: "loss2/fc"
}
layer {
  name: "loss2/drop_fc"
  type: "Dropout"
  bottom: "loss2/fc"
  top: "loss2/fc"
  dropout_param {
    dropout_ratio: 0.7
  }
}
layer {
  name: "loss2/classifier"
  type: "InnerProduct"
  bottom: "loss2/fc"
  top: "loss2/classifier"
  param {
    lr_mult: 1
    decay_mult: 1
  }
  param {
    lr_mult: 2
    decay_mult: 0
  }
  inner_product_param {
    num_output: 2
    weight_filler {
      type: "xavier"
      std: 0.0009765625
    }
    bias_filler {
      type: "constant"
      value: 0
    }
  }
}
layer {
  name: "loss2/loss"
  type: "SoftmaxWithLoss"
  bottom: "loss2/classifier"
  bottom: "label"
  top: "loss2/loss1"
  loss_weight: 0.3
}
layer {
  name: "loss2/top-1"
  type: "Accuracy"
  bottom: "loss2/classifier"
  bottom: "label"
  top: "loss2/top-1"
  include {
    phase: TEST
  }
}
layer {
  name: "inception_4e/1x1"
  type: "Convolution"
  bottom: "inception_4d/output"
  top: "inception_4e/1x1"
  param {
    lr_mult: 1
    decay_mult: 1
  }
  param {
    lr_mult: 2
    decay_mult: 0
  }
  convolution_param {
    num_output: 256
    kernel_size: 1
    weight_filler {
      type: "xavier"
      std: 0.03
    }
    bias_filler {
      type: "constant"
      value: 0.2
    }
  }
}
layer {
  name: "inception_4e/relu_1x1"
  type: "ReLU"
  bottom: "inception_4e/1x1"
  top: "inception_4e/1x1"
}
layer {
  name: "inception_4e/3x3_reduce"
  type: "Convolution"
  bottom: "inception_4d/output"
  top: "inception_4e/3x3_reduce"
  param {
    lr_mult: 1
    decay_mult: 1
  }
  param {
    lr_mult: 2
    decay_mult: 0
  }
  convolution_param {
    num_output: 160
    kernel_size: 1
    weight_filler {
      type: "xavier"
      std: 0.09
    }
    bias_filler {
      type: "constant"
      value: 0.2
    }
  }
}
layer {
  name: "inception_4e/relu_3x3_reduce"
  type: "ReLU"
  bottom: "inception_4e/3x3_reduce"
  top: "inception_4e/3x3_reduce"
}
layer {
  name: "inception_4e/3x3"
  type: "Convolution"
  bottom: "inception_4e/3x3_reduce"
  top: "inception_4e/3x3"
  param {
    lr_mult: 1
    decay_mult: 1
  }
  param {
    lr_mult: 2
    decay_mult: 0
  }
  convolution_param {
    num_output: 320
    pad: 1
    kernel_size: 3
    weight_filler {
      type: "xavier"
      std: 0.03
    }
    bias_filler {
      type: "constant"
      value: 0.2
    }
  }
}
layer {
  name: "inception_4e/relu_3x3"
  type: "ReLU"
  bottom: "inception_4e/3x3"
  top: "inception_4e/3x3"
}
layer {
  name: "inception_4e/5x5_reduce"
  type: "Convolution"
  bottom: "inception_4d/output"
  top: "inception_4e/5x5_reduce"
  param {
    lr_mult: 1
    decay_mult: 1
  }
  param {
   
I0510 00:27:42.816294 28326 layer_factory.hpp:74] Creating layer data
I0510 00:27:42.816324 28326 net.cpp:76] Creating Layer data
I0510 00:27:42.816337 28326 net.cpp:334] data -> data
I0510 00:27:42.816367 28326 net.cpp:334] data -> label
I0510 00:27:42.816387 28326 net.cpp:105] Setting up data
I0510 00:27:42.816484 28326 db.cpp:34] Opened lmdb val_lmdb
I0510 00:27:42.816794 28326 data_layer.cpp:67] output data size: 32,3,224,224
I0510 00:27:42.823858 28326 net.cpp:112] Top shape: 32 3 224 224 (4816896)
I0510 00:27:42.823871 28326 net.cpp:112] Top shape: 32 1 1 1 (32)
I0510 00:27:42.823879 28326 layer_factory.hpp:74] Creating layer label_data_1_split
I0510 00:27:42.823892 28326 net.cpp:76] Creating Layer label_data_1_split
I0510 00:27:42.823900 28326 net.cpp:372] label_data_1_split <- label
I0510 00:27:42.823916 28326 net.cpp:334] label_data_1_split -> label_data_1_split_0
I0510 00:27:42.823933 28326 net.cpp:334] label_data_1_split -> label_data_1_split_1
I0510 00:27:42.823942 28326 net.cpp:334] label_data_1_split -> label_data_1_split_2
I0510 00:27:42.823951 28326 net.cpp:334] label_data_1_split -> label_data_1_split_3
I0510 00:27:42.823959 28326 net.cpp:334] label_data_1_split -> label_data_1_split_4
I0510 00:27:42.823967 28326 net.cpp:334] label_data_1_split -> label_data_1_split_5
I0510 00:27:42.823976 28326 net.cpp:105] Setting up label_data_1_split
I0510 00:27:42.823984 28326 net.cpp:112] Top shape: 32 1 1 1 (32)
I0510 00:27:42.823990 28326 net.cpp:112] Top shape: 32 1 1 1 (32)
I0510 00:27:42.823995 28326 net.cpp:112] Top shape: 32 1 1 1 (32)
I0510 00:27:42.824000 28326 net.cpp:112] Top shape: 32 1 1 1 (32)
I0510 00:27:42.824005 28326 net.cpp:112] Top shape: 32 1 1 1 (32)
I0510 00:27:42.824010 28326 net.cpp:112] Top shape: 32 1 1 1 (32)
I0510 00:27:42.824015 28326 layer_factory.hpp:74] Creating layer conv1/7x7_s2
I0510 00:27:42.824029 28326 net.cpp:76] Creating Layer conv1/7x7_s2
I0510 00:27:42.824035 28326 net.cpp:372] conv1/7x7_s2 <- data
I0510 00:27:42.824043 28326 net.cpp:334] conv1/7x7_s2 -> conv1/7x7_s2
I0510 00:27:42.824059 28326 net.cpp:105] Setting up conv1/7x7_s2
I0510 00:27:42.824635 28326 net.cpp:112] Top shape: 32 64 112 112 (25690112)
I0510 00:27:42.824658 28326 layer_factory.hpp:74] Creating layer conv1/relu_7x7
I0510 00:27:42.824668 28326 net.cpp:76] Creating Layer conv1/relu_7x7
I0510 00:27:42.824674 28326 net.cpp:372] conv1/relu_7x7 <- conv1/7x7_s2
I0510 00:27:42.824682 28326 net.cpp:323] conv1/relu_7x7 -> conv1/7x7_s2 (in-place)
I0510 00:27:42.824690 28326 net.cpp:105] Setting up conv1/relu_7x7
I0510 00:27:42.824698 28326 net.cpp:112] Top shape: 32 64 112 112 (25690112)
I0510 00:27:42.824704 28326 layer_factory.hpp:74] Creating layer pool1/3x3_s2
I0510 00:27:42.824733 28326 net.cpp:76] Creating Layer pool1/3x3_s2
I0510 00:27:42.824739 28326 net.cpp:372] pool1/3x3_s2 <- conv1/7x7_s2
I0510 00:27:42.824748 28326 net.cpp:334] pool1/3x3_s2 -> pool1/3x3_s2
I0510 00:27:42.824759 28326 net.cpp:105] Setting up pool1/3x3_s2
I0510 00:27:42.824774 28326 net.cpp:112] Top shape: 32 64 56 56 (6422528)
I0510 00:27:42.824780 28326 layer_factory.hpp:74] Creating layer pool1/norm1
I0510 00:27:42.824790 28326 net.cpp:76] Creating Layer pool1/norm1
I0510 00:27:42.824795 28326 net.cpp:372] pool1/norm1 <- pool1/3x3_s2
I0510 00:27:42.824803 28326 net.cpp:334] pool1/norm1 -> pool1/norm1
I0510 00:27:42.824813 28326 net.cpp:105] Setting up pool1/norm1
I0510 00:27:42.824820 28326 net.cpp:112] Top shape: 32 64 56 56 (6422528)
I0510 00:27:42.824826 28326 layer_factory.hpp:74] Creating layer conv2/3x3_reduce
I0510 00:27:42.824833 28326 net.cpp:76] Creating Layer conv2/3x3_reduce
I0510 00:27:42.824839 28326 net.cpp:372] conv2/3x3_reduce <- pool1/norm1
I0510 00:27:42.824846 28326 net.cpp:334] conv2/3x3_reduce -> conv2/3x3_reduce
I0510 00:27:42.824856 28326 net.cpp:105] Setting up conv2/3x3_reduce
I0510 00:27:42.824897 28326 net.cpp:112] Top shape: 32 64 56 56 (6422528)
I0510 00:27:42.824908 28326 layer_factory.hpp:74] Creating layer conv2/relu_3x3_reduce
I0510 00:27:42.824915 28326 net.cpp:76] Creating Layer conv2/relu_3x3_reduce
I0510 00:27:42.824921 28326 net.cpp:372] conv2/relu_3x3_reduce <- conv2/3x3_reduce
I0510 00:27:42.824928 28326 net.cpp:323] conv2/relu_3x3_reduce -> conv2/3x3_reduce (in-place)
I0510 00:27:42.824934 28326 net.cpp:105] Setting up conv2/relu_3x3_reduce
I0510 00:27:42.824940 28326 net.cpp:112] Top shape: 32 64 56 56 (6422528)
I0510 00:27:42.824945 28326 layer_factory.hpp:74] Creating layer conv2/3x3
I0510 00:27:42.824954 28326 net.cpp:76] Creating Layer conv2/3x3
I0510 00:27:42.824959 28326 net.cpp:372] conv2/3x3 <- conv2/3x3_reduce
I0510 00:27:42.824967 28326 net.cpp:334] conv2/3x3 -> conv2/3x3
I0510 00:27:42.824975 28326 net.cpp:105] Setting up conv2/3x3
I0510 00:27:42.825888 28326 net.cpp:112] Top shape: 32 192 56 56 (19267584)
I0510 00:27:42.825912 28326 layer_factory.hpp:74] Creating layer conv2/relu_3x3
I0510 00:27:42.825924 28326 net.cpp:76] Creating Layer conv2/relu_3x3
I0510 00:27:42.825932 28326 net.cpp:372] conv2/relu_3x3 <- conv2/3x3
I0510 00:27:42.825939 28326 net.cpp:323] conv2/relu_3x3 -> conv2/3x3 (in-place)
I0510 00:27:42.825948 28326 net.cpp:105] Setting up conv2/relu_3x3
I0510 00:27:42.825953 28326 net.cpp:112] Top shape: 32 192 56 56 (19267584)
I0510 00:27:42.825959 28326 layer_factory.hpp:74] Creating layer conv2/norm2
I0510 00:27:42.825968 28326 net.cpp:76] Creating Layer conv2/norm2
I0510 00:27:42.825973 28326 net.cpp:372] conv2/norm2 <- conv2/3x3
I0510 00:27:42.825983 28326 net.cpp:334] conv2/norm2 -> conv2/norm2
I0510 00:27:42.825991 28326 net.cpp:105] Setting up conv2/norm2
I0510 00:27:42.825997 28326 net.cpp:112] Top shape: 32 192 56 56 (19267584)
I0510 00:27:42.826004 28326 layer_factory.hpp:74] Creating layer pool2/3x3_s2
I0510 00:27:42.826010 28326 net.cpp:76] Creating Layer pool2/3x3_s2
I0510 00:27:42.826016 28326 net.cpp:372] pool2/3x3_s2 <- conv2/norm2
I0510 00:27:42.826025 28326 net.cpp:334] pool2/3x3_s2 -> pool2/3x3_s2
I0510 00:27:42.826033 28326 net.cpp:105] Setting up pool2/3x3_s2
I0510 00:27:42.826040 28326 net.cpp:112] Top shape: 32 192 28 28 (4816896)
I0510 00:27:42.826046 28326 layer_factory.hpp:74] Creating layer pool2/3x3_s2_pool2/3x3_s2_0_split
I0510 00:27:42.826053 28326 net.cpp:76] Creating Layer pool2/3x3_s2_pool2/3x3_s2_0_split
I0510 00:27:42.826058 28326 net.cpp:372] pool2/3x3_s2_pool2/3x3_s2_0_split <- pool2/3x3_s2
I0510 00:27:42.826066 28326 net.cpp:334] pool2/3x3_s2_pool2/3x3_s2_0_split -> pool2/3x3_s2_pool2/3x3_s2_0_split_0
I0510 00:27:42.826074 28326 net.cpp:334] pool2/3x3_s2_pool2/3x3_s2_0_split -> pool2/3x3_s2_pool2/3x3_s2_0_split_1
I0510 00:27:42.826087 28326 net.cpp:334] pool2/3x3_s2_pool2/3x3_s2_0_split -> pool2/3x3_s2_pool2/3x3_s2_0_split_2
I0510 00:27:42.826122 28326 net.cpp:334] pool2/3x3_s2_pool2/3x3_s2_0_split -> pool2/3x3_s2_pool2/3x3_s2_0_split_3
I0510 00:27:42.826131 28326 net.cpp:105] Setting up pool2/3x3_s2_pool2/3x3_s2_0_split
I0510 00:27:42.826138 28326 net.cpp:112] Top shape: 32 192 28 28 (4816896)
I0510 00:27:42.826143 28326 net.cpp:112] Top shape: 32 192 28 28 (4816896)
I0510 00:27:42.826149 28326 net.cpp:112] Top shape: 32 192 28 28 (4816896)
I0510 00:27:42.826153 28326 net.cpp:112] Top shape: 32 192 28 28 (4816896)
I0510 00:27:42.826159 28326 layer_factory.hpp:74] Creating layer inception_3a/1x1
I0510 00:27:42.826180 28326 net.cpp:76] Creating Layer inception_3a/1x1
I0510 00:27:42.826187 28326 net.cpp:372] inception_3a/1x1 <- pool2/3x3_s2_pool2/3x3_s2_0_split_0
I0510 00:27:42.826195 28326 net.cpp:334] inception_3a/1x1 -> inception_3a/1x1
I0510 00:27:42.826205 28326 net.cpp:105] Setting up inception_3a/1x1
I0510 00:27:42.826421 28326 net.cpp:112] Top shape: 32 64 28 28 (1605632)
I0510 00:27:42.826442 28326 layer_factory.hpp:74] Creating layer inception_3a/relu_1x1
I0510 00:27:42.826452 28326 net.cpp:76] Creating Layer inception_3a/relu_1x1
I0510 00:27:42.826457 28326 net.cpp:372] inception_3a/relu_1x1 <- inception_3a/1x1
I0510 00:27:42.826469 28326 net.cpp:323] inception_3a/relu_1x1 -> inception_3a/1x1 (in-place)
I0510 00:27:42.826478 28326 net.cpp:105] Setting up inception_3a/relu_1x1
I0510 00:27:42.826484 28326 net.cpp:112] Top shape: 32 64 28 28 (1605632)
I0510 00:27:42.826489 28326 layer_factory.hpp:74] Creating layer inception_3a/3x3_reduce
I0510 00:27:42.826498 28326 net.cpp:76] Creating Layer inception_3a/3x3_reduce
I0510 00:27:42.826503 28326 net.cpp:372] inception_3a/3x3_reduce <- pool2/3x3_s2_pool2/3x3_s2_0_split_1
I0510 00:27:42.826515 28326 net.cpp:334] inception_3a/3x3_reduce -> inception_3a/3x3_reduce
I0510 00:27:42.826525 28326 net.cpp:105] Setting up inception_3a/3x3_reduce
I0510 00:27:42.826798 28326 net.cpp:112] Top shape: 32 96 28 28 (2408448)
I0510 00:27:42.826817 28326 layer_factory.hpp:74] Creating layer inception_3a/relu_3x3_reduce
I0510 00:27:42.826828 28326 net.cpp:76] Creating Layer inception_3a/relu_3x3_reduce
I0510 00:27:42.826834 28326 net.cpp:372] inception_3a/relu_3x3_reduce <- inception_3a/3x3_reduce
I0510 00:27:42.826844 28326 net.cpp:323] inception_3a/relu_3x3_reduce -> inception_3a/3x3_reduce (in-place)
I0510 00:27:42.826853 28326 net.cpp:105] Setting up inception_3a/relu_3x3_reduce
I0510 00:27:42.826859 28326 net.cpp:112] Top shape: 32 96 28 28 (2408448)
I0510 00:27:42.826864 28326 layer_factory.hpp:74] Creating layer inception_3a/3x3
I0510 00:27:42.826872 28326 net.cpp:76] Creating Layer inception_3a/3x3
I0510 00:27:42.826879 28326 net.cpp:372] inception_3a/3x3 <- inception_3a/3x3_reduce
I0510 00:27:42.826889 28326 net.cpp:334] inception_3a/3x3 -> inception_3a/3x3
I0510 00:27:42.826897 28326 net.cpp:105] Setting up inception_3a/3x3
I0510 00:27:42.827877 28326 net.cpp:112] Top shape: 32 128 28 28 (3211264)
I0510 00:27:42.827894 28326 layer_factory.hpp:74] Creating layer inception_3a/relu_3x3
I0510 00:27:42.827903 28326 net.cpp:76] Creating Layer inception_3a/relu_3x3
I0510 00:27:42.827909 28326 net.cpp:372] inception_3a/relu_3x3 <- inception_3a/3x3
I0510 00:27:42.827916 28326 net.cpp:323] inception_3a/relu_3x3 -> inception_3a/3x3 (in-place)
I0510 00:27:42.827924 28326 net.cpp:105] Setting up inception_3a/relu_3x3
I0510 00:27:42.827929 28326 net.cpp:112] Top shape: 32 128 28 28 (3211264)
I0510 00:27:42.827935 28326 layer_factory.hpp:74] Creating layer inception_3a/5x5_reduce
I0510 00:27:42.827945 28326 net.cpp:76] Creating Layer inception_3a/5x5_reduce
I0510 00:27:42.827951 28326 net.cpp:372] inception_3a/5x5_reduce <- pool2/3x3_s2_pool2/3x3_s2_0_split_2
I0510 00:27:42.827962 28326 net.cpp:334] inception_3a/5x5_reduce -> inception_3a/5x5_reduce
I0510 00:27:42.827971 28326 net.cpp:105] Setting up inception_3a/5x5_reduce
I0510 00:27:42.828012 28326 net.cpp:112] Top shape: 32 16 28 28 (401408)
I0510 00:27:42.828024 28326 layer_factory.hpp:74] Creating layer inception_3a/relu_5x5_reduce
I0510 00:27:42.828032 28326 net.cpp:76] Creating Layer inception_3a/relu_5x5_reduce
I0510 00:27:42.828054 28326 net.cpp:372] inception_3a/relu_5x5_reduce <- inception_3a/5x5_reduce
I0510 00:27:42.828063 28326 net.cpp:323] inception_3a/relu_5x5_reduce -> inception_3a/5x5_reduce (in-place)
I0510 00:27:42.828071 28326 net.cpp:105] Setting up inception_3a/relu_5x5_reduce
I0510 00:27:42.828076 28326 net.cpp:112] Top shape: 32 16 28 28 (401408)
I0510 00:27:42.828083 28326 layer_factory.hpp:74] Creating layer inception_3a/5x5
I0510 00:27:42.828090 28326 net.cpp:76] Creating Layer inception_3a/5x5
I0510 00:27:42.828095 28326 net.cpp:372] inception_3a/5x5 <- inception_3a/5x5_reduce
I0510 00:27:42.828106 28326 net.cpp:334] inception_3a/5x5 -> inception_3a/5x5
I0510 00:27:42.828115 28326 net.cpp:105] Setting up inception_3a/5x5
I0510 00:27:42.828443 28326 net.cpp:112] Top shape: 32 32 28 28 (802816)
I0510 00:27:42.828474 28326 layer_factory.hpp:74] Creating layer inception_3a/relu_5x5
I0510 00:27:42.828486 28326 net.cpp:76] Creating Layer inception_3a/relu_5x5
I0510 00:27:42.828496 28326 net.cpp:372] inception_3a/relu_5x5 <- inception_3a/5x5
I0510 00:27:42.828513 28326 net.cpp:323] inception_3a/relu_5x5 -> inception_3a/5x5 (in-place)
I0510 00:27:42.828527 28326 net.cpp:105] Setting up inception_3a/relu_5x5
I0510 00:27:42.828536 28326 net.cpp:112] Top shape: 32 32 28 28 (802816)
I0510 00:27:42.828547 28326 layer_factory.hpp:74] Creating layer inception_3a/pool
I0510 00:27:42.828557 28326 net.cpp:76] Creating Layer inception_3a/pool
I0510 00:27:42.828567 28326 net.cpp:372] inception_3a/pool <- pool2/3x3_s2_pool2/3x3_s2_0_split_3
I0510 00:27:42.828579 28326 net.cpp:334] inception_3a/pool -> inception_3a/pool
I0510 00:27:42.828593 28326 net.cpp:105] Setting up inception_3a/pool
I0510 00:27:42.828604 28326 net.cpp:112] Top shape: 32 192 28 28 (4816896)
I0510 00:27:42.828613 28326 layer_factory.hpp:74] Creating layer inception_3a/pool_proj
I0510 00:27:42.828629 28326 net.cpp:76] Creating Layer inception_3a/pool_proj
I0510 00:27:42.828639 28326 net.cpp:372] inception_3a/pool_proj <- inception_3a/pool
I0510 00:27:42.828654 28326 net.cpp:334] inception_3a/pool_proj -> inception_3a/pool_proj
I0510 00:27:42.828668 28326 net.cpp:105] Setting up inception_3a/pool_proj
I0510 00:27:42.828786 28326 net.cpp:112] Top shape: 32 32 28 28 (802816)
I0510 00:27:42.828812 28326 layer_factory.hpp:74] Creating layer inception_3a/relu_pool_proj
I0510 00:27:42.828821 28326 net.cpp:76] Creating Layer inception_3a/relu_pool_proj
I0510 00:27:42.828829 28326 net.cpp:372] inception_3a/relu_pool_proj <- inception_3a/pool_proj
I0510 00:27:42.828836 28326 net.cpp:323] inception_3a/relu_pool_proj -> inception_3a/pool_proj (in-place)
I0510 00:27:42.828845 28326 net.cpp:105] Setting up inception_3a/relu_pool_proj
I0510 00:27:42.828850 28326 net.cpp:112] Top shape: 32 32 28 28 (802816)
I0510 00:27:42.828856 28326 layer_factory.hpp:74] Creating layer inception_3a/output
I0510 00:27:42.828868 28326 net.cpp:76] Creating Layer inception_3a/output
I0510 00:27:42.828874 28326 net.cpp:372] inception_3a/output <- inception_3a/1x1
I0510 00:27:42.828881 28326 net.cpp:372] inception_3a/output <- inception_3a/3x3
I0510 00:27:42.828887 28326 net.cpp:372] inception_3a/output <- inception_3a/5x5
I0510 00:27:42.828893 28326 net.cpp:372] inception_3a/output <- inception_3a/pool_proj
I0510 00:27:42.828901 28326 net.cpp:334] inception_3a/output -> inception_3a/output
I0510 00:27:42.828909 28326 net.cpp:105] Setting up inception_3a/output
I0510 00:27:42.828922 28326 net.cpp:112] Top shape: 32 256 28 28 (6422528)
I0510 00:27:42.828928 28326 layer_factory.hpp:74] Creating layer inception_3a/output_inception_3a/output_0_split
I0510 00:27:42.828935 28326 net.cpp:76] Creating Layer inception_3a/output_inception_3a/output_0_split
I0510 00:27:42.828941 28326 net.cpp:372] inception_3a/output_inception_3a/output_0_split <- inception_3a/output
I0510 00:27:42.828948 28326 net.cpp:334] inception_3a/output_inception_3a/output_0_split -> inception_3a/output_inception_3a/output_0_split_0
I0510 00:27:42.828960 28326 net.cpp:334] inception_3a/output_inception_3a/output_0_split -> inception_3a/output_inception_3a/output_0_split_1
I0510 00:27:42.828981 28326 net.cpp:334] inception_3a/output_inception_3a/output_0_split -> inception_3a/output_inception_3a/output_0_split_2
I0510 00:27:42.828991 28326 net.cpp:334] inception_3a/output_inception_3a/output_0_split -> inception_3a/output_inception_3a/output_0_split_3
I0510 00:27:42.828999 28326 net.cpp:105] Setting up inception_3a/output_inception_3a/output_0_split
I0510 00:27:42.829006 28326 net.cpp:112] Top shape: 32 256 28 28 (6422528)
I0510 00:27:42.829011 28326 net.cpp:112] Top shape: 32 256 28 28 (6422528)
I0510 00:27:42.829016 28326 net.cpp:112] Top shape: 32 256 28 28 (6422528)
I0510 00:27:42.829021 28326 net.cpp:112] Top shape: 32 256 28 28 (6422528)
I0510 00:27:42.829026 28326 layer_factory.hpp:74] Creating layer inception_3b/1x1
I0510 00:27:42.829037 28326 net.cpp:76] Creating Layer inception_3b/1x1
I0510 00:27:42.829043 28326 net.cpp:372] inception_3b/1x1 <- inception_3a/output_inception_3a/output_0_split_0
I0510 00:27:42.829052 28326 net.cpp:334] inception_3b/1x1 -> inception_3b/1x1
I0510 00:27:42.829061 28326 net.cpp:105] Setting up inception_3b/1x1
I0510 00:27:42.829429 28326 net.cpp:112] Top shape: 32 128 28 28 (3211264)
I0510 00:27:42.829447 28326 layer_factory.hpp:74] Creating layer inception_3b/relu_1x1
I0510 00:27:42.829459 28326 net.cpp:76] Creating Layer inception_3b/relu_1x1
I0510 00:27:42.829466 28326 net.cpp:372] inception_3b/relu_1x1 <- inception_3b/1x1
I0510 00:27:42.829474 28326 net.cpp:323] inception_3b/relu_1x1 -> inception_3b/1x1 (in-place)
I0510 00:27:42.829483 28326 net.cpp:105] Setting up inception_3b/relu_1x1
I0510 00:27:42.829488 28326 net.cpp:112] Top shape: 32 128 28 28 (3211264)
I0510 00:27:42.829493 28326 layer_factory.hpp:74] Creating layer inception_3b/3x3_reduce
I0510 00:27:42.829501 28326 net.cpp:76] Creating Layer inception_3b/3x3_reduce
I0510 00:27:42.829512 28326 net.cpp:372] inception_3b/3x3_reduce <- inception_3a/output_inception_3a/output_0_split_1
I0510 00:27:42.829521 28326 net.cpp:334] inception_3b/3x3_reduce -> inception_3b/3x3_reduce
I0510 00:27:42.829535 28326 net.cpp:105] Setting up inception_3b/3x3_reduce
I0510 00:27:42.829886 28326 net.cpp:112] Top shape: 32 128 28 28 (3211264)
I0510 00:27:42.829902 28326 layer_factory.hpp:74] Creating layer inception_3b/relu_3x3_reduce
I0510 00:27:42.829913 28326 net.cpp:76] Creating Layer inception_3b/relu_3x3_reduce
I0510 00:27:42.829921 28326 net.cpp:372] inception_3b/relu_3x3_reduce <- inception_3b/3x3_reduce
I0510 00:27:42.829928 28326 net.cpp:323] inception_3b/relu_3x3_reduce -> inception_3b/3x3_reduce (in-place)
I0510 00:27:42.829936 28326 net.cpp:105] Setting up inception_3b/relu_3x3_reduce
I0510 00:27:42.829942 28326 net.cpp:112] Top shape: 32 128 28 28 (3211264)
I0510 00:27:42.829947 28326 layer_factory.hpp:74] Creating layer inception_3b/3x3
I0510 00:27:42.829960 28326 net.cpp:76] Creating Layer inception_3b/3x3
I0510 00:27:42.829967 28326 net.cpp:372] inception_3b/3x3 <- inception_3b/3x3_reduce
I0510 00:27:42.829979 28326 net.cpp:334] inception_3b/3x3 -> inception_3b/3x3
I0510 00:27:42.829993 28326 net.cpp:105] Setting up inception_3b/3x3
I0510 00:27:42.831914 28326 net.cpp:112] Top shape: 32 192 28 28 (4816896)
I0510 00:27:42.831934 28326 layer_factory.hpp:74] Creating layer inception_3b/relu_3x3
I0510 00:27:42.831943 28326 net.cpp:76] Creating Layer inception_3b/relu_3x3
I0510 00:27:42.831950 28326 net.cpp:372] inception_3b/relu_3x3 <- inception_3b/3x3
I0510 00:27:42.831959 28326 net.cpp:323] inception_3b/relu_3x3 -> inception_3b/3x3 (in-place)
I0510 00:27:42.831969 28326 net.cpp:105] Setting up inception_3b/relu_3x3
I0510 00:27:42.831975 28326 net.cpp:112] Top shape: 32 192 28 28 (4816896)
I0510 00:27:42.831981 28326 layer_factory.hpp:74] Creating layer inception_3b/5x5_reduce
I0510 00:27:42.831990 28326 net.cpp:76] Creating Layer inception_3b/5x5_reduce
I0510 00:27:42.831996 28326 net.cpp:372] inception_3b/5x5_reduce <- inception_3a/output_inception_3a/output_0_split_2
I0510 00:27:42.832005 28326 net.cpp:334] inception_3b/5x5_reduce -> inception_3b/5x5_reduce
I0510 00:27:42.832031 28326 net.cpp:105] Setting up inception_3b/5x5_reduce
I0510 00:27:42.832128 28326 net.cpp:112] Top shape: 32 32 28 28 (802816)
I0510 00:27:42.832139 28326 layer_factory.hpp:74] Creating layer inception_3b/relu_5x5_reduce
I0510 00:27:42.832149 28326 net.cpp:76] Creating Layer inception_3b/relu_5x5_reduce
I0510 00:27:42.832155 28326 net.cpp:372] inception_3b/relu_5x5_reduce <- inception_3b/5x5_reduce
I0510 00:27:42.832162 28326 net.cpp:323] inception_3b/relu_5x5_reduce -> inception_3b/5x5_reduce (in-place)
I0510 00:27:42.832170 28326 net.cpp:105] Setting up inception_3b/relu_5x5_reduce
I0510 00:27:42.832176 28326 net.cpp:112] Top shape: 32 32 28 28 (802816)
I0510 00:27:42.832181 28326 layer_factory.hpp:74] Creating layer inception_3b/5x5
I0510 00:27:42.832192 28326 net.cpp:76] Creating Layer inception_3b/5x5
I0510 00:27:42.832197 28326 net.cpp:372] inception_3b/5x5 <- inception_3b/5x5_reduce
I0510 00:27:42.832206 28326 net.cpp:334] inception_3b/5x5 -> inception_3b/5x5
I0510 00:27:42.832214 28326 net.cpp:105] Setting up inception_3b/5x5
I0510 00:27:42.832893 28326 net.cpp:112] Top shape: 32 96 28 28 (2408448)
I0510 00:27:42.832909 28326 layer_factory.hpp:74] Creating layer inception_3b/relu_5x5
I0510 00:27:42.832918 28326 net.cpp:76] Creating Layer inception_3b/relu_5x5
I0510 00:27:42.832924 28326 net.cpp:372] inception_3b/relu_5x5 <- inception_3b/5x5
I0510 00:27:42.832933 28326 net.cpp:323] inception_3b/relu_5x5 -> inception_3b/5x5 (in-place)
I0510 00:27:42.832942 28326 net.cpp:105] Setting up inception_3b/relu_5x5
I0510 00:27:42.832947 28326 net.cpp:112] Top shape: 32 96 28 28 (2408448)
I0510 00:27:42.832953 28326 layer_factory.hpp:74] Creating layer inception_3b/pool
I0510 00:27:42.832962 28326 net.cpp:76] Creating Layer inception_3b/pool
I0510 00:27:42.832967 28326 net.cpp:372] inception_3b/pool <- inception_3a/output_inception_3a/output_0_split_3
I0510 00:27:42.832975 28326 net.cpp:334] inception_3b/pool -> inception_3b/pool
I0510 00:27:42.832983 28326 net.cpp:105] Setting up inception_3b/pool
I0510 00:27:42.832991 28326 net.cpp:112] Top shape: 32 256 28 28 (6422528)
I0510 00:27:42.832998 28326 layer_factory.hpp:74] Creating layer inception_3b/pool_proj
I0510 00:27:42.833008 28326 net.cpp:76] Creating Layer inception_3b/pool_proj
I0510 00:27:42.833014 28326 net.cpp:372] inception_3b/pool_proj <- inception_3b/pool
I0510 00:27:42.833021 28326 net.cpp:334] inception_3b/pool_proj -> inception_3b/pool_proj
I0510 00:27:42.833030 28326 net.cpp:105] Setting up inception_3b/pool_proj
I0510 00:27:42.833178 28326 net.cpp:112] Top shape: 32 64 28 28 (1605632)
I0510 00:27:42.833189 28326 layer_factory.hpp:74] Creating layer inception_3b/relu_pool_proj
I0510 00:27:42.833200 28326 net.cpp:76] Creating Layer inception_3b/relu_pool_proj
I0510 00:27:42.833207 28326 net.cpp:372] inception_3b/relu_pool_proj <- inception_3b/pool_proj
I0510 00:27:42.833214 28326 net.cpp:323] inception_3b/relu_pool_proj -> inception_3b/pool_proj (in-place)
I0510 00:27:42.833222 28326 net.cpp:105] Setting up inception_3b/relu_pool_proj
I0510 00:27:42.833228 28326 net.cpp:112] Top shape: 32 64 28 28 (1605632)
I0510 00:27:42.833233 28326 layer_factory.hpp:74] Creating layer inception_3b/output
I0510 00:27:42.833245 28326 net.cpp:76] Creating Layer inception_3b/output
I0510 00:27:42.833258 28326 net.cpp:372] inception_3b/output <- inception_3b/1x1
I0510 00:27:42.833266 28326 net.cpp:372] inception_3b/output <- inception_3b/3x3
I0510 00:27:42.833286 28326 net.cpp:372] inception_3b/output <- inception_3b/5x5
I0510 00:27:42.833292 28326 net.cpp:372] inception_3b/output <- inception_3b/pool_proj
I0510 00:27:42.833300 28326 net.cpp:334] inception_3b/output -> inception_3b/output
I0510 00:27:42.833309 28326 net.cpp:105] Setting up inception_3b/output
I0510 00:27:42.833317 28326 net.cpp:112] Top shape: 32 480 28 28 (12042240)
I0510 00:27:42.833323 28326 layer_factory.hpp:74] Creating layer pool3/3x3_s2
I0510 00:27:42.833329 28326 net.cpp:76] Creating Layer pool3/3x3_s2
I0510 00:27:42.833335 28326 net.cpp:372] pool3/3x3_s2 <- inception_3b/output
I0510 00:27:42.833359 28326 net.cpp:334] pool3/3x3_s2 -> pool3/3x3_s2
I0510 00:27:42.833369 28326 net.cpp:105] Setting up pool3/3x3_s2
I0510 00:27:42.833376 28326 net.cpp:112] Top shape: 32 480 14 14 (3010560)
I0510 00:27:42.833381 28326 layer_factory.hpp:74] Creating layer pool3/3x3_s2_pool3/3x3_s2_0_split
I0510 00:27:42.833395 28326 net.cpp:76] Creating Layer pool3/3x3_s2_pool3/3x3_s2_0_split
I0510 00:27:42.833401 28326 net.cpp:372] pool3/3x3_s2_pool3/3x3_s2_0_split <- pool3/3x3_s2
I0510 00:27:42.833410 28326 net.cpp:334] pool3/3x3_s2_pool3/3x3_s2_0_split -> pool3/3x3_s2_pool3/3x3_s2_0_split_0
I0510 00:27:42.833417 28326 net.cpp:334] pool3/3x3_s2_pool3/3x3_s2_0_split -> pool3/3x3_s2_pool3/3x3_s2_0_split_1
I0510 00:27:42.833428 28326 net.cpp:334] pool3/3x3_s2_pool3/3x3_s2_0_split -> pool3/3x3_s2_pool3/3x3_s2_0_split_2
I0510 00:27:42.833437 28326 net.cpp:334] pool3/3x3_s2_pool3/3x3_s2_0_split -> pool3/3x3_s2_pool3/3x3_s2_0_split_3
I0510 00:27:42.833446 28326 net.cpp:105] Setting up pool3/3x3_s2_pool3/3x3_s2_0_split
I0510 00:27:42.833451 28326 net.cpp:112] Top shape: 32 480 14 14 (3010560)
I0510 00:27:42.833457 28326 net.cpp:112] Top shape: 32 480 14 14 (3010560)
I0510 00:27:42.833462 28326 net.cpp:112] Top shape: 32 480 14 14 (3010560)
I0510 00:27:42.833467 28326 net.cpp:112] Top shape: 32 480 14 14 (3010560)
I0510 00:27:42.833472 28326 layer_factory.hpp:74] Creating layer inception_4a/1x1
I0510 00:27:42.833480 28326 net.cpp:76] Creating Layer inception_4a/1x1
I0510 00:27:42.833487 28326 net.cpp:372] inception_4a/1x1 <- pool3/3x3_s2_pool3/3x3_s2_0_split_0
I0510 00:27:42.833498 28326 net.cpp:334] inception_4a/1x1 -> inception_4a/1x1
I0510 00:27:42.833508 28326 net.cpp:105] Setting up inception_4a/1x1
I0510 00:27:42.834309 28326 net.cpp:112] Top shape: 32 192 14 14 (1204224)
I0510 00:27:42.834326 28326 layer_factory.hpp:74] Creating layer inception_4a/relu_1x1
I0510 00:27:42.834333 28326 net.cpp:76] Creating Layer inception_4a/relu_1x1
I0510 00:27:42.834362 28326 net.cpp:372] inception_4a/relu_1x1 <- inception_4a/1x1
I0510 00:27:42.834370 28326 net.cpp:323] inception_4a/relu_1x1 -> inception_4a/1x1 (in-place)
I0510 00:27:42.834378 28326 net.cpp:105] Setting up inception_4a/relu_1x1
I0510 00:27:42.834384 28326 net.cpp:112] Top shape: 32 192 14 14 (1204224)
I0510 00:27:42.834389 28326 layer_factory.hpp:74] Creating layer inception_4a/3x3_reduce
I0510 00:27:42.834401 28326 net.cpp:76] Creating Layer inception_4a/3x3_reduce
I0510 00:27:42.834408 28326 net.cpp:372] inception_4a/3x3_reduce <- pool3/3x3_s2_pool3/3x3_s2_0_split_1
I0510 00:27:42.834419 28326 net.cpp:334] inception_4a/3x3_reduce -> inception_4a/3x3_reduce
I0510 00:27:42.834429 28326 net.cpp:105] Setting up inception_4a/3x3_reduce
I0510 00:27:42.834832 28326 net.cpp:112] Top shape: 32 96 14 14 (602112)
I0510 00:27:42.834856 28326 layer_factory.hpp:74] Creating layer inception_4a/relu_3x3_reduce
I0510 00:27:42.834867 28326 net.cpp:76] Creating Layer inception_4a/relu_3x3_reduce
I0510 00:27:42.834873 28326 net.cpp:372] inception_4a/relu_3x3_reduce <- inception_4a/3x3_reduce
I0510 00:27:42.834882 28326 net.cpp:323] inception_4a/relu_3x3_reduce -> inception_4a/3x3_reduce (in-place)
I0510 00:27:42.834889 28326 net.cpp:105] Setting up inception_4a/relu_3x3_reduce
I0510 00:27:42.834895 28326 net.cpp:112] Top shape: 32 96 14 14 (602112)
I0510 00:27:42.834900 28326 layer_factory.hpp:74] Creating layer inception_4a/3x3
I0510 00:27:42.834908 28326 net.cpp:76] Creating Layer inception_4a/3x3
I0510 00:27:42.834914 28326 net.cpp:372] inception_4a/3x3 <- inception_4a/3x3_reduce
I0510 00:27:42.834924 28326 net.cpp:334] inception_4a/3x3 -> inception_4a/3x3
I0510 00:27:42.834933 28326 net.cpp:105] Setting up inception_4a/3x3
I0510 00:27:42.836485 28326 net.cpp:112] Top shape: 32 208 14 14 (1304576)
I0510 00:27:42.836503 28326 layer_factory.hpp:74] Creating layer inception_4a/relu_3x3
I0510 00:27:42.836513 28326 net.cpp:76] Creating Layer inception_4a/relu_3x3
I0510 00:27:42.836519 28326 net.cpp:372] inception_4a/relu_3x3 <- inception_4a/3x3
I0510 00:27:42.836554 28326 net.cpp:323] inception_4a/relu_3x3 -> inception_4a/3x3 (in-place)
I0510 00:27:42.836565 28326 net.cpp:105] Setting up inception_4a/relu_3x3
I0510 00:27:42.836570 28326 net.cpp:112] Top shape: 32 208 14 14 (1304576)
I0510 00:27:42.836575 28326 layer_factory.hpp:74] Creating layer inception_4a/5x5_reduce
I0510 00:27:42.836585 28326 net.cpp:76] Creating Layer inception_4a/5x5_reduce
I0510 00:27:42.836591 28326 net.cpp:372] inception_4a/5x5_reduce <- pool3/3x3_s2_pool3/3x3_s2_0_split_2
I0510 00:27:42.836599 28326 net.cpp:334] inception_4a/5x5_reduce -> inception_4a/5x5_reduce
I0510 00:27:42.836607 28326 net.cpp:105] Setting up inception_4a/5x5_reduce
I0510 00:27:42.836686 28326 net.cpp:112] Top shape: 32 16 14 14 (100352)
I0510 00:27:42.836696 28326 layer_factory.hpp:74] Creating layer inception_4a/relu_5x5_reduce
I0510 00:27:42.836704 28326 net.cpp:76] Creating Layer inception_4a/relu_5x5_reduce
I0510 00:27:42.836710 28326 net.cpp:372] inception_4a/relu_5x5_reduce <- inception_4a/5x5_reduce
I0510 00:27:42.836719 28326 net.cpp:323] inception_4a/relu_5x5_reduce -> inception_4a/5x5_reduce (in-place)
I0510 00:27:42.836727 28326 net.cpp:105] Setting up inception_4a/relu_5x5_reduce
I0510 00:27:42.836733 28326 net.cpp:112] Top shape: 32 16 14 14 (100352)
I0510 00:27:42.836738 28326 layer_factory.hpp:74] Creating layer inception_4a/5x5
I0510 00:27:42.836746 28326 net.cpp:76] Creating Layer inception_4a/5x5
I0510 00:27:42.836752 28326 net.cpp:372] inception_4a/5x5 <- inception_4a/5x5_reduce
I0510 00:27:42.836762 28326 net.cpp:334] inception_4a/5x5 -> inception_4a/5x5
I0510 00:27:42.836771 28326 net.cpp:105] Setting up inception_4a/5x5
I0510 00:27:42.836947 28326 net.cpp:112] Top shape: 32 48 14 14 (301056)
I0510 00:27:42.836958 28326 layer_factory.hpp:74] Creating layer inception_4a/relu_5x5
I0510 00:27:42.836966 28326 net.cpp:76] Creating Layer inception_4a/relu_5x5
I0510 00:27:42.837702 28326 net.cpp:372] inception_4a/relu_5x5 <- inception_4a/5x5
I0510 00:27:42.837718 28326 net.cpp:323] inception_4a/relu_5x5 -> inception_4a/5x5 (in-place)
I0510 00:27:42.837728 28326 net.cpp:105] Setting up inception_4a/relu_5x5
I0510 00:27:42.837741 28326 net.cpp:112] Top shape: 32 48 14 14 (301056)
I0510 00:27:42.837748 28326 layer_factory.hpp:74] Creating layer inception_4a/pool
I0510 00:27:42.837756 28326 net.cpp:76] Creating Layer inception_4a/pool
I0510 00:27:42.837762 28326 net.cpp:372] inception_4a/pool <- pool3/3x3_s2_pool3/3x3_s2_0_split_3
I0510 00:27:42.837771 28326 net.cpp:334] inception_4a/pool -> inception_4a/pool
I0510 00:27:42.837784 28326 net.cpp:105] Setting up inception_4a/pool
I0510 00:27:42.837791 28326 net.cpp:112] Top shape: 32 480 14 14 (3010560)
I0510 00:27:42.837797 28326 layer_factory.hpp:74] Creating layer inception_4a/pool_proj
I0510 00:27:42.837806 28326 net.cpp:76] Creating Layer inception_4a/pool_proj
I0510 00:27:42.837812 28326 net.cpp:372] inception_4a/pool_proj <- inception_4a/pool
I0510 00:27:42.837822 28326 net.cpp:334] inception_4a/pool_proj -> inception_4a/pool_proj
I0510 00:27:42.837832 28326 net.cpp:105] Setting up inception_4a/pool_proj
I0510 00:27:42.838106 28326 net.cpp:112] Top shape: 32 64 14 14 (401408)
I0510 00:27:42.838121 28326 layer_factory.hpp:74] Creating layer inception_4a/relu_pool_proj
I0510 00:27:42.838129 28326 net.cpp:76] Creating Layer inception_4a/relu_pool_proj
I0510 00:27:42.838135 28326 net.cpp:372] inception_4a/relu_pool_proj <- inception_4a/pool_proj
I0510 00:27:42.838142 28326 net.cpp:323] inception_4a/relu_pool_proj -> inception_4a/pool_proj (in-place)
I0510 00:27:42.838150 28326 net.cpp:105] Setting up inception_4a/relu_pool_proj
I0510 00:27:42.838155 28326 net.cpp:112] Top shape: 32 64 14 14 (401408)
I0510 00:27:42.838161 28326 layer_factory.hpp:74] Creating layer inception_4a/output
I0510 00:27:42.838168 28326 net.cpp:76] Creating Layer inception_4a/output
I0510 00:27:42.838174 28326 net.cpp:372] inception_4a/output <- inception_4a/1x1
I0510 00:27:42.838181 28326 net.cpp:372] inception_4a/output <- inception_4a/3x3
I0510 00:27:42.838187 28326 net.cpp:372] inception_4a/output <- inception_4a/5x5
I0510 00:27:42.838207 28326 net.cpp:372] inception_4a/output <- inception_4a/pool_proj
I0510 00:27:42.838220 28326 net.cpp:334] inception_4a/output -> inception_4a/output
I0510 00:27:42.838230 28326 net.cpp:105] Setting up inception_4a/output
I0510 00:27:42.838237 28326 net.cpp:112] Top shape: 32 512 14 14 (3211264)
I0510 00:27:42.838243 28326 layer_factory.hpp:74] Creating layer inception_4a/output_inception_4a/output_0_split
I0510 00:27:42.838251 28326 net.cpp:76] Creating Layer inception_4a/output_inception_4a/output_0_split
I0510 00:27:42.838256 28326 net.cpp:372] inception_4a/output_inception_4a/output_0_split <- inception_4a/output
I0510 00:27:42.838264 28326 net.cpp:334] inception_4a/output_inception_4a/output_0_split -> inception_4a/output_inception_4a/output_0_split_0
I0510 00:27:42.838289 28326 net.cpp:334] inception_4a/output_inception_4a/output_0_split -> inception_4a/output_inception_4a/output_0_split_1
I0510 00:27:42.838300 28326 net.cpp:334] inception_4a/output_inception_4a/output_0_split -> inception_4a/output_inception_4a/output_0_split_2
I0510 00:27:42.838310 28326 net.cpp:334] inception_4a/output_inception_4a/output_0_split -> inception_4a/output_inception_4a/output_0_split_3
I0510 00:27:42.838318 28326 net.cpp:334] inception_4a/output_inception_4a/output_0_split -> inception_4a/output_inception_4a/output_0_split_4
I0510 00:27:42.838326 28326 net.cpp:105] Setting up inception_4a/output_inception_4a/output_0_split
I0510 00:27:42.838333 28326 net.cpp:112] Top shape: 32 512 14 14 (3211264)
I0510 00:27:42.838431 28326 net.cpp:112] Top shape: 32 512 14 14 (3211264)
I0510 00:27:42.838445 28326 net.cpp:112] Top shape: 32 512 14 14 (3211264)
I0510 00:27:42.838454 28326 net.cpp:112] Top shape: 32 512 14 14 (3211264)
I0510 00:27:42.838461 28326 net.cpp:112] Top shape: 32 512 14 14 (3211264)
I0510 00:27:42.838471 28326 layer_factory.hpp:74] Creating layer loss1/ave_pool
I0510 00:27:42.838485 28326 net.cpp:76] Creating Layer loss1/ave_pool
I0510 00:27:42.838497 28326 net.cpp:372] loss1/ave_pool <- inception_4a/output_inception_4a/output_0_split_0
I0510 00:27:42.838527 28326 net.cpp:334] loss1/ave_pool -> loss1/ave_pool
I0510 00:27:42.838541 28326 net.cpp:105] Setting up loss1/ave_pool
I0510 00:27:42.838549 28326 net.cpp:112] Top shape: 32 512 4 4 (262144)
I0510 00:27:42.838556 28326 layer_factory.hpp:74] Creating layer loss1/conv
I0510 00:27:42.838565 28326 net.cpp:76] Creating Layer loss1/conv
I0510 00:27:42.838572 28326 net.cpp:372] loss1/conv <- loss1/ave_pool
I0510 00:27:42.838582 28326 net.cpp:334] loss1/conv -> loss1/conv
I0510 00:27:42.838592 28326 net.cpp:105] Setting up loss1/conv
I0510 00:27:42.839167 28326 net.cpp:112] Top shape: 32 128 4 4 (65536)
I0510 00:27:42.839184 28326 layer_factory.hpp:74] Creating layer loss1/relu_conv
I0510 00:27:42.839195 28326 net.cpp:76] Creating Layer loss1/relu_conv
I0510 00:27:42.839202 28326 net.cpp:372] loss1/relu_conv <- loss1/conv
I0510 00:27:42.839210 28326 net.cpp:323] loss1/relu_conv -> loss1/conv (in-place)
I0510 00:27:42.839217 28326 net.cpp:105] Setting up loss1/relu_conv
I0510 00:27:42.839222 28326 net.cpp:112] Top shape: 32 128 4 4 (65536)
I0510 00:27:42.839228 28326 layer_factory.hpp:74] Creating layer loss1/fc
I0510 00:27:42.839244 28326 net.cpp:76] Creating Layer loss1/fc
I0510 00:27:42.839251 28326 net.cpp:372] loss1/fc <- loss1/conv
I0510 00:27:42.839257 28326 net.cpp:334] loss1/fc -> loss1/fc
I0510 00:27:42.839293 28326 net.cpp:105] Setting up loss1/fc
I0510 00:27:42.856851 28326 net.cpp:112] Top shape: 32 1024 1 1 (32768)
I0510 00:27:42.856895 28326 layer_factory.hpp:74] Creating layer loss1/relu_fc
I0510 00:27:42.856912 28326 net.cpp:76] Creating Layer loss1/relu_fc
I0510 00:27:42.856921 28326 net.cpp:372] loss1/relu_fc <- loss1/fc
I0510 00:27:42.856931 28326 net.cpp:323] loss1/relu_fc -> loss1/fc (in-place)
I0510 00:27:42.856942 28326 net.cpp:105] Setting up loss1/relu_fc
I0510 00:27:42.856948 28326 net.cpp:112] Top shape: 32 1024 1 1 (32768)
I0510 00:27:42.856955 28326 layer_factory.hpp:74] Creating layer loss1/drop_fc
I0510 00:27:42.857017 28326 net.cpp:76] Creating Layer loss1/drop_fc
I0510 00:27:42.857024 28326 net.cpp:372] loss1/drop_fc <- loss1/fc
I0510 00:27:42.857033 28326 net.cpp:323] loss1/drop_fc -> loss1/fc (in-place)
I0510 00:27:42.857043 28326 net.cpp:105] Setting up loss1/drop_fc
I0510 00:27:42.857053 28326 net.cpp:112] Top shape: 32 1024 1 1 (32768)
I0510 00:27:42.857061 28326 layer_factory.hpp:74] Creating layer loss1/classifier
I0510 00:27:42.857074 28326 net.cpp:76] Creating Layer loss1/classifier
I0510 00:27:42.857080 28326 net.cpp:372] loss1/classifier <- loss1/fc
I0510 00:27:42.857089 28326 net.cpp:334] loss1/classifier -> loss1/classifier
I0510 00:27:42.857098 28326 net.cpp:105] Setting up loss1/classifier
I0510 00:27:42.857133 28326 net.cpp:112] Top shape: 32 2 1 1 (64)
I0510 00:27:42.857144 28326 layer_factory.hpp:74] Creating layer loss1/classifier_loss1/classifier_0_split
I0510 00:27:42.857152 28326 net.cpp:76] Creating Layer loss1/classifier_loss1/classifier_0_split
I0510 00:27:42.857158 28326 net.cpp:372] loss1/classifier_loss1/classifier_0_split <- loss1/classifier
I0510 00:27:42.857166 28326 net.cpp:334] loss1/classifier_loss1/classifier_0_split -> loss1/classifier_loss1/classifier_0_split_0
I0510 00:27:42.857175 28326 net.cpp:334] loss1/classifier_loss1/classifier_0_split -> loss1/classifier_loss1/classifier_0_split_1
I0510 00:27:42.857183 28326 net.cpp:105] Setting up loss1/classifier_loss1/classifier_0_split
I0510 00:27:42.857190 28326 net.cpp:112] Top shape: 32 2 1 1 (64)
I0510 00:27:42.857195 28326 net.cpp:112] Top shape: 32 2 1 1 (64)
I0510 00:27:42.857200 28326 layer_factory.hpp:74] Creating layer loss1/loss
I0510 00:27:42.857214 28326 net.cpp:76] Creating Layer loss1/loss
I0510 00:27:42.857221 28326 net.cpp:372] loss1/loss <- loss1/classifier_loss1/classifier_0_split_0
I0510 00:27:42.857228 28326 net.cpp:372] loss1/loss <- label_data_1_split_0
I0510 00:27:42.857236 28326 net.cpp:334] loss1/loss -> loss1/loss1
I0510 00:27:42.857247 28326 net.cpp:105] Setting up loss1/loss
I0510 00:27:42.857259 28326 layer_factory.hpp:74] Creating layer loss1/loss
I0510 00:27:42.857311 28326 net.cpp:112] Top shape: 1 1 1 1 (1)
I0510 00:27:42.857321 28326 net.cpp:118]     with loss weight 0.3
I0510 00:27:42.857358 28326 layer_factory.hpp:74] Creating layer loss1/top-1
I0510 00:27:42.857369 28326 net.cpp:76] Creating Layer loss1/top-1
I0510 00:27:42.857379 28326 net.cpp:372] loss1/top-1 <- loss1/classifier_loss1/classifier_0_split_1
I0510 00:27:42.857386 28326 net.cpp:372] loss1/top-1 <- label_data_1_split_1
I0510 00:27:42.857398 28326 net.cpp:334] loss1/top-1 -> loss1/top-1
I0510 00:27:42.857415 28326 net.cpp:105] Setting up loss1/top-1
I0510 00:27:42.857424 28326 net.cpp:112] Top shape: 1 1 1 1 (1)
I0510 00:27:42.857430 28326 layer_factory.hpp:74] Creating layer inception_4b/1x1
I0510 00:27:42.857441 28326 net.cpp:76] Creating Layer inception_4b/1x1
I0510 00:27:42.857447 28326 net.cpp:372] inception_4b/1x1 <- inception_4a/output_inception_4a/output_0_split_1
I0510 00:27:42.857458 28326 net.cpp:334] inception_4b/1x1 -> inception_4b/1x1
I0510 00:27:42.857468 28326 net.cpp:105] Setting up inception_4b/1x1
I0510 00:27:42.858146 28326 net.cpp:112] Top shape: 32 160 14 14 (1003520)
I0510 00:27:42.858161 28326 layer_factory.hpp:74] Creating layer inception_4b/relu_1x1
I0510 00:27:42.858170 28326 net.cpp:76] Creating Layer inception_4b/relu_1x1
I0510 00:27:42.858175 28326 net.cpp:372] inception_4b/relu_1x1 <- inception_4b/1x1
I0510 00:27:42.858182 28326 net.cpp:323] inception_4b/relu_1x1 -> inception_4b/1x1 (in-place)
I0510 00:27:42.858191 28326 net.cpp:105] Setting up inception_4b/relu_1x1
I0510 00:27:42.858196 28326 net.cpp:112] Top shape: 32 160 14 14 (1003520)
I0510 00:27:42.858201 28326 layer_factory.hpp:74] Creating layer inception_4b/3x3_reduce
I0510 00:27:42.858211 28326 net.cpp:76] Creating Layer inception_4b/3x3_reduce
I0510 00:27:42.858218 28326 net.cpp:372] inception_4b/3x3_reduce <- inception_4a/output_inception_4a/output_0_split_2
I0510 00:27:42.858228 28326 net.cpp:334] inception_4b/3x3_reduce -> inception_4b/3x3_reduce
I0510 00:27:42.858252 28326 net.cpp:105] Setting up inception_4b/3x3_reduce
I0510 00:27:42.858768 28326 net.cpp:112] Top shape: 32 112 14 14 (702464)
I0510 00:27:42.858783 28326 layer_factory.hpp:74] Creating layer inception_4b/relu_3x3_reduce
I0510 00:27:42.858794 28326 net.cpp:76] Creating Layer inception_4b/relu_3x3_reduce
I0510 00:27:42.858801 28326 net.cpp:372] inception_4b/relu_3x3_reduce <- inception_4b/3x3_reduce
I0510 00:27:42.858808 28326 net.cpp:323] inception_4b/relu_3x3_reduce -> inception_4b/3x3_reduce (in-place)
I0510 00:27:42.858816 28326 net.cpp:105] Setting up inception_4b/relu_3x3_reduce
I0510 00:27:42.858821 28326 net.cpp:112] Top shape: 32 112 14 14 (702464)
I0510 00:27:42.858827 28326 layer_factory.hpp:74] Creating layer inception_4b/3x3
I0510 00:27:42.858837 28326 net.cpp:76] Creating Layer inception_4b/3x3
I0510 00:27:42.858844 28326 net.cpp:372] inception_4b/3x3 <- inception_4b/3x3_reduce
I0510 00:27:42.858851 28326 net.cpp:334] inception_4b/3x3 -> inception_4b/3x3
I0510 00:27:42.858860 28326 net.cpp:105] Setting up inception_4b/3x3
I0510 00:27:42.860749 28326 net.cpp:112] Top shape: 32 224 14 14 (1404928)
I0510 00:27:42.860769 28326 layer_factory.hpp:74] Creating layer inception_4b/relu_3x3
I0510 00:27:42.860779 28326 net.cpp:76] Creating Layer inception_4b/relu_3x3
I0510 00:27:42.860785 28326 net.cpp:372] inception_4b/relu_3x3 <- inception_4b/3x3
I0510 00:27:42.860795 28326 net.cpp:323] inception_4b/relu_3x3 -> inception_4b/3x3 (in-place)
I0510 00:27:42.860805 28326 net.cpp:105] Setting up inception_4b/relu_3x3
I0510 00:27:42.860810 28326 net.cpp:112] Top shape: 32 224 14 14 (1404928)
I0510 00:27:42.860816 28326 layer_factory.hpp:74] Creating layer inception_4b/5x5_reduce
I0510 00:27:42.860824 28326 net.cpp:76] Creating Layer inception_4b/5x5_reduce
I0510 00:27:42.860831 28326 net.cpp:372] inception_4b/5x5_reduce <- inception_4a/output_inception_4a/output_0_split_3
I0510 00:27:42.860843 28326 net.cpp:334] inception_4b/5x5_reduce -> inception_4b/5x5_reduce
I0510 00:27:42.860853 28326 net.cpp:105] Setting up inception_4b/5x5_reduce
I0510 00:27:42.860966 28326 net.cpp:112] Top shape: 32 24 14 14 (150528)
I0510 00:27:42.860977 28326 layer_factory.hpp:74] Creating layer inception_4b/relu_5x5_reduce
I0510 00:27:42.860987 28326 net.cpp:76] Creating Layer inception_4b/relu_5x5_reduce
I0510 00:27:42.860993 28326 net.cpp:372] inception_4b/relu_5x5_reduce <- inception_4b/5x5_reduce
I0510 00:27:42.861001 28326 net.cpp:323] inception_4b/relu_5x5_reduce -> inception_4b/5x5_reduce (in-place)
I0510 00:27:42.861007 28326 net.cpp:105] Setting up inception_4b/relu_5x5_reduce
I0510 00:27:42.861013 28326 net.cpp:112] Top shape: 32 24 14 14 (150528)
I0510 00:27:42.861019 28326 layer_factory.hpp:74] Creating layer inception_4b/5x5
I0510 00:27:42.861030 28326 net.cpp:76] Creating Layer inception_4b/5x5
I0510 00:27:42.861037 28326 net.cpp:372] inception_4b/5x5 <- inception_4b/5x5_reduce
I0510 00:27:42.861043 28326 net.cpp:334] inception_4b/5x5 -> inception_4b/5x5
I0510 00:27:42.861052 28326 net.cpp:105] Setting up inception_4b/5x5
I0510 00:27:42.861395 28326 net.cpp:112] Top shape: 32 64 14 14 (401408)
I0510 00:27:42.861409 28326 layer_factory.hpp:74] Creating layer inception_4b/relu_5x5
I0510 00:27:42.861416 28326 net.cpp:76] Creating Layer inception_4b/relu_5x5
I0510 00:27:42.861423 28326 net.cpp:372] inception_4b/relu_5x5 <- inception_4b/5x5
I0510 00:27:42.861433 28326 net.cpp:323] inception_4b/relu_5x5 -> inception_4b/5x5 (in-place)
I0510 00:27:42.861440 28326 net.cpp:105] Setting up inception_4b/relu_5x5
I0510 00:27:42.861449 28326 net.cpp:112] Top shape: 32 64 14 14 (401408)
I0510 00:27:42.861454 28326 layer_factory.hpp:74] Creating layer inception_4b/pool
I0510 00:27:42.861464 28326 net.cpp:76] Creating Layer inception_4b/pool
I0510 00:27:42.861469 28326 net.cpp:372] inception_4b/pool <- inception_4a/output_inception_4a/output_0_split_4
I0510 00:27:42.861476 28326 net.cpp:334] inception_4b/pool -> inception_4b/pool
I0510 00:27:42.861487 28326 net.cpp:105] Setting up inception_4b/pool
I0510 00:27:42.861518 28326 net.cpp:112] Top shape: 32 512 14 14 (3211264)
I0510 00:27:42.861526 28326 layer_factory.hpp:74] Creating layer inception_4b/pool_proj
I0510 00:27:42.861534 28326 net.cpp:76] Creating Layer inception_4b/pool_proj
I0510 00:27:42.861541 28326 net.cpp:372] inception_4b/pool_proj <- inception_4b/pool
I0510 00:27:42.861552 28326 net.cpp:334] inception_4b/pool_proj -> inception_4b/pool_proj
I0510 00:27:42.861560 28326 net.cpp:105] Setting up inception_4b/pool_proj
I0510 00:27:42.861841 28326 net.cpp:112] Top shape: 32 64 14 14 (401408)
I0510 00:27:42.861856 28326 layer_factory.hpp:74] Creating layer inception_4b/relu_pool_proj
I0510 00:27:42.861887 28326 net.cpp:76] Creating Layer inception_4b/relu_pool_proj
I0510 00:27:42.861896 28326 net.cpp:372] inception_4b/relu_pool_proj <- inception_4b/pool_proj
I0510 00:27:42.861903 28326 net.cpp:323] inception_4b/relu_pool_proj -> inception_4b/pool_proj (in-place)
I0510 00:27:42.861912 28326 net.cpp:105] Setting up inception_4b/relu_pool_proj
I0510 00:27:42.861917 28326 net.cpp:112] Top shape: 32 64 14 14 (401408)
I0510 00:27:42.861922 28326 layer_factory.hpp:74] Creating layer inception_4b/output
I0510 00:27:42.861930 28326 net.cpp:76] Creating Layer inception_4b/output
I0510 00:27:42.861935 28326 net.cpp:372] inception_4b/output <- inception_4b/1x1
I0510 00:27:42.861943 28326 net.cpp:372] inception_4b/output <- inception_4b/3x3
I0510 00:27:42.861948 28326 net.cpp:372] inception_4b/output <- inception_4b/5x5
I0510 00:27:42.861954 28326 net.cpp:372] inception_4b/output <- inception_4b/pool_proj
I0510 00:27:42.861964 28326 net.cpp:334] inception_4b/output -> inception_4b/output
I0510 00:27:42.861974 28326 net.cpp:105] Setting up inception_4b/output
I0510 00:27:42.861980 28326 net.cpp:112] Top shape: 32 512 14 14 (3211264)
I0510 00:27:42.861985 28326 layer_factory.hpp:74] Creating layer inception_4b/output_inception_4b/output_0_split
I0510 00:27:42.861994 28326 net.cpp:76] Creating Layer inception_4b/output_inception_4b/output_0_split
I0510 00:27:42.861999 28326 net.cpp:372] inception_4b/output_inception_4b/output_0_split <- inception_4b/output
I0510 00:27:42.862016 28326 net.cpp:334] inception_4b/output_inception_4b/output_0_split -> inception_4b/output_inception_4b/output_0_split_0
I0510 00:27:42.862025 28326 net.cpp:334] inception_4b/output_inception_4b/output_0_split -> inception_4b/output_inception_4b/output_0_split_1
I0510 00:27:42.862037 28326 net.cpp:334] inception_4b/output_inception_4b/output_0_split -> inception_4b/output_inception_4b/output_0_split_2
I0510 00:27:42.862046 28326 net.cpp:334] inception_4b/output_inception_4b/output_0_split -> inception_4b/output_inception_4b/output_0_split_3
I0510 00:27:42.862054 28326 net.cpp:105] Setting up inception_4b/output_inception_4b/output_0_split
I0510 00:27:42.862061 28326 net.cpp:112] Top shape: 32 512 14 14 (3211264)
I0510 00:27:42.862066 28326 net.cpp:112] Top shape: 32 512 14 14 (3211264)
I0510 00:27:42.862071 28326 net.cpp:112] Top shape: 32 512 14 14 (3211264)
I0510 00:27:42.862076 28326 net.cpp:112] Top shape: 32 512 14 14 (3211264)
I0510 00:27:42.862082 28326 layer_factory.hpp:74] Creating layer inception_4c/1x1
I0510 00:27:42.862089 28326 net.cpp:76] Creating Layer inception_4c/1x1
I0510 00:27:42.862095 28326 net.cpp:372] inception_4c/1x1 <- inception_4b/output_inception_4b/output_0_split_0
I0510 00:27:42.862105 28326 net.cpp:334] inception_4c/1x1 -> inception_4c/1x1
I0510 00:27:42.862114 28326 net.cpp:105] Setting up inception_4c/1x1
I0510 00:27:42.862680 28326 net.cpp:112] Top shape: 32 128 14 14 (802816)
I0510 00:27:42.862694 28326 layer_factory.hpp:74] Creating layer inception_4c/relu_1x1
I0510 00:27:42.862702 28326 net.cpp:76] Creating Layer inception_4c/relu_1x1
I0510 00:27:42.862707 28326 net.cpp:372] inception_4c/relu_1x1 <- inception_4c/1x1
I0510 00:27:42.862715 28326 net.cpp:323] inception_4c/relu_1x1 -> inception_4c/1x1 (in-place)
I0510 00:27:42.862722 28326 net.cpp:105] Setting up inception_4c/relu_1x1
I0510 00:27:42.862727 28326 net.cpp:112] Top shape: 32 128 14 14 (802816)
I0510 00:27:42.862746 28326 layer_factory.hpp:74] Creating layer inception_4c/3x3_reduce
I0510 00:27:42.862759 28326 net.cpp:76] Creating Layer inception_4c/3x3_reduce
I0510 00:27:42.862766 28326 net.cpp:372] inception_4c/3x3_reduce <- inception_4b/output_inception_4b/output_0_split_1
I0510 00:27:42.862776 28326 net.cpp:334] inception_4c/3x3_reduce -> inception_4c/3x3_reduce
I0510 00:27:42.862785 28326 net.cpp:105] Setting up inception_4c/3x3_reduce
I0510 00:27:42.863350 28326 net.cpp:112] Top shape: 32 128 14 14 (802816)
I0510 00:27:42.863364 28326 layer_factory.hpp:74] Creating layer inception_4c/relu_3x3_reduce
I0510 00:27:42.864099 28326 net.cpp:76] Creating Layer inception_4c/relu_3x3_reduce
I0510 00:27:42.864112 28326 net.cpp:372] inception_4c/relu_3x3_reduce <- inception_4c/3x3_reduce
I0510 00:27:42.864121 28326 net.cpp:323] inception_4c/relu_3x3_reduce -> inception_4c/3x3_reduce (in-place)
I0510 00:27:42.864131 28326 net.cpp:105] Setting up inception_4c/relu_3x3_reduce
I0510 00:27:42.864137 28326 net.cpp:112] Top shape: 32 128 14 14 (802816)
I0510 00:27:42.864145 28326 layer_factory.hpp:74] Creating layer inception_4c/3x3
I0510 00:27:42.864156 28326 net.cpp:76] Creating Layer inception_4c/3x3
I0510 00:27:42.864162 28326 net.cpp:372] inception_4c/3x3 <- inception_4c/3x3_reduce
I0510 00:27:42.864171 28326 net.cpp:334] inception_4c/3x3 -> inception_4c/3x3
I0510 00:27:42.864181 28326 net.cpp:105] Setting up inception_4c/3x3
I0510 00:27:42.866957 28326 net.cpp:112] Top shape: 32 256 14 14 (1605632)
I0510 00:27:42.866993 28326 layer_factory.hpp:74] Creating layer inception_4c/relu_3x3
I0510 00:27:42.867004 28326 net.cpp:76] Creating Layer inception_4c/relu_3x3
I0510 00:27:42.867012 28326 net.cpp:372] inception_4c/relu_3x3 <- inception_4c/3x3
I0510 00:27:42.867019 28326 net.cpp:323] inception_4c/relu_3x3 -> inception_4c/3x3 (in-place)
I0510 00:27:42.867027 28326 net.cpp:105] Setting up inception_4c/relu_3x3
I0510 00:27:42.867033 28326 net.cpp:112] Top shape: 32 256 14 14 (1605632)
I0510 00:27:42.867039 28326 layer_factory.hpp:74] Creating layer inception_4c/5x5_reduce
I0510 00:27:42.867050 28326 net.cpp:76] Creating Layer inception_4c/5x5_reduce
I0510 00:27:42.867056 28326 net.cpp:372] inception_4c/5x5_reduce <- inception_4b/output_inception_4b/output_0_split_2
I0510 00:27:42.867065 28326 net.cpp:334] inception_4c/5x5_reduce -> inception_4c/5x5_reduce
I0510 00:27:42.867075 28326 net.cpp:105] Setting up inception_4c/5x5_reduce
I0510 00:27:42.867187 28326 net.cpp:112] Top shape: 32 24 14 14 (150528)
I0510 00:27:42.867198 28326 layer_factory.hpp:74] Creating layer inception_4c/relu_5x5_reduce
I0510 00:27:42.867207 28326 net.cpp:76] Creating Layer inception_4c/relu_5x5_reduce
I0510 00:27:42.867213 28326 net.cpp:372] inception_4c/relu_5x5_reduce <- inception_4c/5x5_reduce
I0510 00:27:42.867240 28326 net.cpp:323] inception_4c/relu_5x5_reduce -> inception_4c/5x5_reduce (in-place)
I0510 00:27:42.867251 28326 net.cpp:105] Setting up inception_4c/relu_5x5_reduce
I0510 00:27:42.867257 28326 net.cpp:112] Top shape: 32 24 14 14 (150528)
I0510 00:27:42.867262 28326 layer_factory.hpp:74] Creating layer inception_4c/5x5
I0510 00:27:42.867271 28326 net.cpp:76] Creating Layer inception_4c/5x5
I0510 00:27:42.867277 28326 net.cpp:372] inception_4c/5x5 <- inception_4c/5x5_reduce
I0510 00:27:42.867287 28326 net.cpp:334] inception_4c/5x5 -> inception_4c/5x5
I0510 00:27:42.867296 28326 net.cpp:105] Setting up inception_4c/5x5
I0510 00:27:42.867626 28326 net.cpp:112] Top shape: 32 64 14 14 (401408)
I0510 00:27:42.867638 28326 layer_factory.hpp:74] Creating layer inception_4c/relu_5x5
I0510 00:27:42.867650 28326 net.cpp:76] Creating Layer inception_4c/relu_5x5
I0510 00:27:42.867655 28326 net.cpp:372] inception_4c/relu_5x5 <- inception_4c/5x5
I0510 00:27:42.867662 28326 net.cpp:323] inception_4c/relu_5x5 -> inception_4c/5x5 (in-place)
I0510 00:27:42.867671 28326 net.cpp:105] Setting up inception_4c/relu_5x5
I0510 00:27:42.867676 28326 net.cpp:112] Top shape: 32 64 14 14 (401408)
I0510 00:27:42.867681 28326 layer_factory.hpp:74] Creating layer inception_4c/pool
I0510 00:27:42.867722 28326 net.cpp:76] Creating Layer inception_4c/pool
I0510 00:27:42.867736 28326 net.cpp:372] inception_4c/pool <- inception_4b/output_inception_4b/output_0_split_3
I0510 00:27:42.867756 28326 net.cpp:334] inception_4c/pool -> inception_4c/pool
I0510 00:27:42.867769 28326 net.cpp:105] Setting up inception_4c/pool
I0510 00:27:42.867775 28326 net.cpp:112] Top shape: 32 512 14 14 (3211264)
I0510 00:27:42.867781 28326 layer_factory.hpp:74] Creating layer inception_4c/pool_proj
I0510 00:27:42.867791 28326 net.cpp:76] Creating Layer inception_4c/pool_proj
I0510 00:27:42.867797 28326 net.cpp:372] inception_4c/pool_proj <- inception_4c/pool
I0510 00:27:42.867807 28326 net.cpp:334] inception_4c/pool_proj -> inception_4c/pool_proj
I0510 00:27:42.867817 28326 net.cpp:105] Setting up inception_4c/pool_proj
I0510 00:27:42.868124 28326 net.cpp:112] Top shape: 32 64 14 14 (401408)
I0510 00:27:42.868139 28326 layer_factory.hpp:74] Creating layer inception_4c/relu_pool_proj
I0510 00:27:42.868149 28326 net.cpp:76] Creating Layer inception_4c/relu_pool_proj
I0510 00:27:42.868155 28326 net.cpp:372] inception_4c/relu_pool_proj <- inception_4c/pool_proj
I0510 00:27:42.868161 28326 net.cpp:323] inception_4c/relu_pool_proj -> inception_4c/pool_proj (in-place)
I0510 00:27:42.868170 28326 net.cpp:105] Setting up inception_4c/relu_pool_proj
I0510 00:27:42.868175 28326 net.cpp:112] Top shape: 32 64 14 14 (401408)
I0510 00:27:42.868180 28326 layer_factory.hpp:74] Creating layer inception_4c/output
I0510 00:27:42.868191 28326 net.cpp:76] Creating Layer inception_4c/output
I0510 00:27:42.868197 28326 net.cpp:372] inception_4c/output <- inception_4c/1x1
I0510 00:27:42.868206 28326 net.cpp:372] inception_4c/output <- inception_4c/3x3
I0510 00:27:42.868218 28326 net.cpp:372] inception_4c/output <- inception_4c/5x5
I0510 00:27:42.868229 28326 net.cpp:372] inception_4c/output <- inception_4c/pool_proj
I0510 00:27:42.868238 28326 net.cpp:334] inception_4c/output -> inception_4c/output
I0510 00:27:42.868247 28326 net.cpp:105] Setting up inception_4c/output
I0510 00:27:42.868254 28326 net.cpp:112] Top shape: 32 512 14 14 (3211264)
I0510 00:27:42.868259 28326 layer_factory.hpp:74] Creating layer inception_4c/output_inception_4c/output_0_split
I0510 00:27:42.868268 28326 net.cpp:76] Creating Layer inception_4c/output_inception_4c/output_0_split
I0510 00:27:42.868288 28326 net.cpp:372] inception_4c/output_inception_4c/output_0_split <- inception_4c/output
I0510 00:27:42.868299 28326 net.cpp:334] inception_4c/output_inception_4c/output_0_split -> inception_4c/output_inception_4c/output_0_split_0
I0510 00:27:42.868310 28326 net.cpp:334] inception_4c/output_inception_4c/output_0_split -> inception_4c/output_inception_4c/output_0_split_1
I0510 00:27:42.868319 28326 net.cpp:334] inception_4c/output_inception_4c/output_0_split -> inception_4c/output_inception_4c/output_0_split_2
I0510 00:27:42.868329 28326 net.cpp:334] inception_4c/output_inception_4c/output_0_split -> inception_4c/output_inception_4c/output_0_split_3
I0510 00:27:42.868336 28326 net.cpp:105] Setting up inception_4c/output_inception_4c/output_0_split
I0510 00:27:42.868343 28326 net.cpp:112] Top shape: 32 512 14 14 (3211264)
I0510 00:27:42.868348 28326 net.cpp:112] Top shape: 32 512 14 14 (3211264)
I0510 00:27:42.868353 28326 net.cpp:112] Top shape: 32 512 14 14 (3211264)
I0510 00:27:42.868358 28326 net.cpp:112] Top shape: 32 512 14 14 (3211264)
I0510 00:27:42.868365 28326 layer_factory.hpp:74] Creating layer inception_4d/1x1
I0510 00:27:42.868376 28326 net.cpp:76] Creating Layer inception_4d/1x1
I0510 00:27:42.868381 28326 net.cpp:372] inception_4d/1x1 <- inception_4c/output_inception_4c/output_0_split_0
I0510 00:27:42.868389 28326 net.cpp:334] inception_4d/1x1 -> inception_4d/1x1
I0510 00:27:42.868398 28326 net.cpp:105] Setting up inception_4d/1x1
I0510 00:27:42.868882 28326 net.cpp:112] Top shape: 32 112 14 14 (702464)
I0510 00:27:42.868896 28326 layer_factory.hpp:74] Creating layer inception_4d/relu_1x1
I0510 00:27:42.868904 28326 net.cpp:76] Creating Layer inception_4d/relu_1x1
I0510 00:27:42.868947 28326 net.cpp:372] inception_4d/relu_1x1 <- inception_4d/1x1
I0510 00:27:42.868959 28326 net.cpp:323] inception_4d/relu_1x1 -> inception_4d/1x1 (in-place)
I0510 00:27:42.868973 28326 net.cpp:105] Setting up inception_4d/relu_1x1
I0510 00:27:42.868978 28326 net.cpp:112] Top shape: 32 112 14 14 (702464)
I0510 00:27:42.868983 28326 layer_factory.hpp:74] Creating layer inception_4d/3x3_reduce
I0510 00:27:42.868993 28326 net.cpp:76] Creating Layer inception_4d/3x3_reduce
I0510 00:27:42.868999 28326 net.cpp:372] inception_4d/3x3_reduce <- inception_4c/output_inception_4c/output_0_split_1
I0510 00:27:42.869009 28326 net.cpp:334] inception_4d/3x3_reduce -> inception_4d/3x3_reduce
I0510 00:27:42.869017 28326 net.cpp:105] Setting up inception_4d/3x3_reduce
I0510 00:27:42.869652 28326 net.cpp:112] Top shape: 32 144 14 14 (903168)
I0510 00:27:42.869664 28326 layer_factory.hpp:74] Creating layer inception_4d/relu_3x3_reduce
I0510 00:27:42.869673 28326 net.cpp:76] Creating Layer inception_4d/relu_3x3_reduce
I0510 00:27:42.869678 28326 net.cpp:372] inception_4d/relu_3x3_reduce <- inception_4d/3x3_reduce
I0510 00:27:42.869688 28326 net.cpp:323] inception_4d/relu_3x3_reduce -> inception_4d/3x3_reduce (in-place)
I0510 00:27:42.869696 28326 net.cpp:105] Setting up inception_4d/relu_3x3_reduce
I0510 00:27:42.869703 28326 net.cpp:112] Top shape: 32 144 14 14 (903168)
I0510 00:27:42.869709 28326 layer_factory.hpp:74] Creating layer inception_4d/3x3
I0510 00:27:42.869716 28326 net.cpp:76] Creating Layer inception_4d/3x3
I0510 00:27:42.869721 28326 net.cpp:372] inception_4d/3x3 <- inception_4d/3x3_reduce
I0510 00:27:42.869729 28326 net.cpp:334] inception_4d/3x3 -> inception_4d/3x3
I0510 00:27:42.869738 28326 net.cpp:105] Setting up inception_4d/3x3
I0510 00:27:42.872839 28326 net.cpp:112] Top shape: 32 288 14 14 (1806336)
I0510 00:27:42.872854 28326 layer_factory.hpp:74] Creating layer inception_4d/relu_3x3
I0510 00:27:42.872864 28326 net.cpp:76] Creating Layer inception_4d/relu_3x3
I0510 00:27:42.872869 28326 net.cpp:372] inception_4d/relu_3x3 <- inception_4d/3x3
I0510 00:27:42.872876 28326 net.cpp:323] inception_4d/relu_3x3 -> inception_4d/3x3 (in-place)
I0510 00:27:42.872884 28326 net.cpp:105] Setting up inception_4d/relu_3x3
I0510 00:27:42.872889 28326 net.cpp:112] Top shape: 32 288 14 14 (1806336)
I0510 00:27:42.872895 28326 layer_factory.hpp:74] Creating layer inception_4d/5x5_reduce
I0510 00:27:42.872905 28326 net.cpp:76] Creating Layer inception_4d/5x5_reduce
I0510 00:27:42.872911 28326 net.cpp:372] inception_4d/5x5_reduce <- inception_4c/output_inception_4c/output_0_split_2
I0510 00:27:42.872920 28326 net.cpp:334] inception_4d/5x5_reduce -> inception_4d/5x5_reduce
I0510 00:27:42.872927 28326 net.cpp:105] Setting up inception_4d/5x5_reduce
I0510 00:27:42.873075 28326 net.cpp:112] Top shape: 32 32 14 14 (200704)
I0510 00:27:42.873085 28326 layer_factory.hpp:74] Creating layer inception_4d/relu_5x5_reduce
I0510 00:27:42.873093 28326 net.cpp:76] Creating Layer inception_4d/relu_5x5_reduce
I0510 00:27:42.873101 28326 net.cpp:372] inception_4d/relu_5x5_reduce <- inception_4d/5x5_reduce
I0510 00:27:42.873108 28326 net.cpp:323] inception_4d/relu_5x5_reduce -> inception_4d/5x5_reduce (in-place)
I0510 00:27:42.873117 28326 net.cpp:105] Setting up inception_4d/relu_5x5_reduce
I0510 00:27:42.873123 28326 net.cpp:112] Top shape: 32 32 14 14 (200704)
I0510 00:27:42.873129 28326 layer_factory.hpp:74] Creating layer inception_4d/5x5
I0510 00:27:42.873137 28326 net.cpp:76] Creating Layer inception_4d/5x5
I0510 00:27:42.873142 28326 net.cpp:372] inception_4d/5x5 <- inception_4d/5x5_reduce
I0510 00:27:42.873152 28326 net.cpp:334] inception_4d/5x5 -> inception_4d/5x5
I0510 00:27:42.873162 28326 net.cpp:105] Setting up inception_4d/5x5
I0510 00:27:42.873615 28326 net.cpp:112] Top shape: 32 64 14 14 (401408)
I0510 00:27:42.873627 28326 layer_factory.hpp:74] Creating layer inception_4d/relu_5x5
I0510 00:27:42.873635 28326 net.cpp:76] Creating Layer inception_4d/relu_5x5
I0510 00:27:42.874351 28326 net.cpp:372] inception_4d/relu_5x5 <- inception_4d/5x5
I0510 00:27:42.874378 28326 net.cpp:323] inception_4d/relu_5x5 -> inception_4d/5x5 (in-place)
I0510 00:27:42.874387 28326 net.cpp:105] Setting up inception_4d/relu_5x5
I0510 00:27:42.874392 28326 net.cpp:112] Top shape: 32 64 14 14 (401408)
I0510 00:27:42.874398 28326 layer_factory.hpp:74] Creating layer inception_4d/pool
I0510 00:27:42.874407 28326 net.cpp:76] Creating Layer inception_4d/pool
I0510 00:27:42.874411 28326 net.cpp:372] inception_4d/pool <- inception_4c/output_inception_4c/output_0_split_3
I0510 00:27:42.874423 28326 net.cpp:334] inception_4d/pool -> inception_4d/pool
I0510 00:27:42.874431 28326 net.cpp:105] Setting up inception_4d/pool
I0510 00:27:42.874439 28326 net.cpp:112] Top shape: 32 512 14 14 (3211264)
I0510 00:27:42.874444 28326 layer_factory.hpp:74] Creating layer inception_4d/pool_proj
I0510 00:27:42.874455 28326 net.cpp:76] Creating Layer inception_4d/pool_proj
I0510 00:27:42.874460 28326 net.cpp:372] inception_4d/pool_proj <- inception_4d/pool
I0510 00:27:42.874469 28326 net.cpp:334] inception_4d/pool_proj -> inception_4d/pool_proj
I0510 00:27:42.874477 28326 net.cpp:105] Setting up inception_4d/pool_proj
I0510 00:27:42.874758 28326 net.cpp:112] Top shape: 32 64 14 14 (401408)
I0510 00:27:42.874769 28326 layer_factory.hpp:74] Creating layer inception_4d/relu_pool_proj
I0510 00:27:42.874778 28326 net.cpp:76] Creating Layer inception_4d/relu_pool_proj
I0510 00:27:42.874783 28326 net.cpp:372] inception_4d/relu_pool_proj <- inception_4d/pool_proj
I0510 00:27:42.874795 28326 net.cpp:323] inception_4d/relu_pool_proj -> inception_4d/pool_proj (in-place)
I0510 00:27:42.874804 28326 net.cpp:105] Setting up inception_4d/relu_pool_proj
I0510 00:27:42.874809 28326 net.cpp:112] Top shape: 32 64 14 14 (401408)
I0510 00:27:42.874814 28326 layer_factory.hpp:74] Creating layer inception_4d/output
I0510 00:27:42.874822 28326 net.cpp:76] Creating Layer inception_4d/output
I0510 00:27:42.874827 28326 net.cpp:372] inception_4d/output <- inception_4d/1x1
I0510 00:27:42.874833 28326 net.cpp:372] inception_4d/output <- inception_4d/3x3
I0510 00:27:42.874840 28326 net.cpp:372] inception_4d/output <- inception_4d/5x5
I0510 00:27:42.874845 28326 net.cpp:372] inception_4d/output <- inception_4d/pool_proj
I0510 00:27:42.874853 28326 net.cpp:334] inception_4d/output -> inception_4d/output
I0510 00:27:42.874861 28326 net.cpp:105] Setting up inception_4d/output
I0510 00:27:42.874867 28326 net.cpp:112] Top shape: 32 528 14 14 (3311616)
I0510 00:27:42.874873 28326 layer_factory.hpp:74] Creating layer inception_4d/output_inception_4d/output_0_split
I0510 00:27:42.874881 28326 net.cpp:76] Creating Layer inception_4d/output_inception_4d/output_0_split
I0510 00:27:42.874886 28326 net.cpp:372] inception_4d/output_inception_4d/output_0_split <- inception_4d/output
I0510 00:27:42.874897 28326 net.cpp:334] inception_4d/output_inception_4d/output_0_split -> inception_4d/output_inception_4d/output_0_split_0
I0510 00:27:42.874907 28326 net.cpp:334] inception_4d/output_inception_4d/output_0_split -> inception_4d/output_inception_4d/output_0_split_1
I0510 00:27:42.874915 28326 net.cpp:334] inception_4d/output_inception_4d/output_0_split -> inception_4d/output_inception_4d/output_0_split_2
I0510 00:27:42.874924 28326 net.cpp:334] inception_4d/output_inception_4d/output_0_split -> inception_4d/output_inception_4d/output_0_split_3
I0510 00:27:42.874933 28326 net.cpp:334] inception_4d/output_inception_4d/output_0_split -> inception_4d/output_inception_4d/output_0_split_4
I0510 00:27:42.874940 28326 net.cpp:105] Setting up inception_4d/output_inception_4d/output_0_split
I0510 00:27:42.874948 28326 net.cpp:112] Top shape: 32 528 14 14 (3311616)
I0510 00:27:42.874954 28326 net.cpp:112] Top shape: 32 528 14 14 (3311616)
I0510 00:27:42.874959 28326 net.cpp:112] Top shape: 32 528 14 14 (3311616)
I0510 00:27:42.874964 28326 net.cpp:112] Top shape: 32 528 14 14 (3311616)
I0510 00:27:42.875020 28326 net.cpp:112] Top shape: 32 528 14 14 (3311616)
I0510 00:27:42.875027 28326 layer_factory.hpp:74] Creating layer loss2/ave_pool
I0510 00:27:42.875044 28326 net.cpp:76] Creating Layer loss2/ave_pool
I0510 00:27:42.875051 28326 net.cpp:372] loss2/ave_pool <- inception_4d/output_inception_4d/output_0_split_0
I0510 00:27:42.875059 28326 net.cpp:334] loss2/ave_pool -> loss2/ave_pool
I0510 00:27:42.875068 28326 net.cpp:105] Setting up loss2/ave_pool
I0510 00:27:42.875074 28326 net.cpp:112] Top shape: 32 528 4 4 (270336)
I0510 00:27:42.875080 28326 layer_factory.hpp:74] Creating layer loss2/conv
I0510 00:27:42.875092 28326 net.cpp:76] Creating Layer loss2/conv
I0510 00:27:42.875099 28326 net.cpp:372] loss2/conv <- loss2/ave_pool
I0510 00:27:42.875108 28326 net.cpp:334] loss2/conv -> loss2/conv
I0510 00:27:42.875118 28326 net.cpp:105] Setting up loss2/conv
I0510 00:27:42.875694 28326 net.cpp:112] Top shape: 32 128 4 4 (65536)
I0510 00:27:42.875711 28326 layer_factory.hpp:74] Creating layer loss2/relu_conv
I0510 00:27:42.875720 28326 net.cpp:76] Creating Layer loss2/relu_conv
I0510 00:27:42.875725 28326 net.cpp:372] loss2/relu_conv <- loss2/conv
I0510 00:27:42.875738 28326 net.cpp:323] loss2/relu_conv -> loss2/conv (in-place)
I0510 00:27:42.875746 28326 net.cpp:105] Setting up loss2/relu_conv
I0510 00:27:42.875752 28326 net.cpp:112] Top shape: 32 128 4 4 (65536)
I0510 00:27:42.875757 28326 layer_factory.hpp:74] Creating layer loss2/fc
I0510 00:27:42.875767 28326 net.cpp:76] Creating Layer loss2/fc
I0510 00:27:42.875772 28326 net.cpp:372] loss2/fc <- loss2/conv
I0510 00:27:42.875782 28326 net.cpp:334] loss2/fc -> loss2/fc
I0510 00:27:42.875792 28326 net.cpp:105] Setting up loss2/fc
I0510 00:27:42.893082 28326 net.cpp:112] Top shape: 32 1024 1 1 (32768)
I0510 00:27:42.893110 28326 layer_factory.hpp:74] Creating layer loss2/relu_fc
I0510 00:27:42.893122 28326 net.cpp:76] Creating Layer loss2/relu_fc
I0510 00:27:42.893129 28326 net.cpp:372] loss2/relu_fc <- loss2/fc
I0510 00:27:42.893138 28326 net.cpp:323] loss2/relu_fc -> loss2/fc (in-place)
I0510 00:27:42.893149 28326 net.cpp:105] Setting up loss2/relu_fc
I0510 00:27:42.893156 28326 net.cpp:112] Top shape: 32 1024 1 1 (32768)
I0510 00:27:42.893162 28326 layer_factory.hpp:74] Creating layer loss2/drop_fc
I0510 00:27:42.893172 28326 net.cpp:76] Creating Layer loss2/drop_fc
I0510 00:27:42.893178 28326 net.cpp:372] loss2/drop_fc <- loss2/fc
I0510 00:27:42.893185 28326 net.cpp:323] loss2/drop_fc -> loss2/fc (in-place)
I0510 00:27:42.893193 28326 net.cpp:105] Setting up loss2/drop_fc
I0510 00:27:42.893199 28326 net.cpp:112] Top shape: 32 1024 1 1 (32768)
I0510 00:27:42.893205 28326 layer_factory.hpp:74] Creating layer loss2/classifier
I0510 00:27:42.893216 28326 net.cpp:76] Creating Layer loss2/classifier
I0510 00:27:42.893223 28326 net.cpp:372] loss2/classifier <- loss2/fc
I0510 00:27:42.893230 28326 net.cpp:334] loss2/classifier -> loss2/classifier
I0510 00:27:42.893240 28326 net.cpp:105] Setting up loss2/classifier
I0510 00:27:42.893286 28326 net.cpp:112] Top shape: 32 2 1 1 (64)
I0510 00:27:42.893298 28326 layer_factory.hpp:74] Creating layer loss2/classifier_loss2/classifier_0_split
I0510 00:27:42.893308 28326 net.cpp:76] Creating Layer loss2/classifier_loss2/classifier_0_split
I0510 00:27:42.893316 28326 net.cpp:372] loss2/classifier_loss2/classifier_0_split <- loss2/classifier
I0510 00:27:42.893323 28326 net.cpp:334] loss2/classifier_loss2/classifier_0_split -> loss2/classifier_loss2/classifier_0_split_0
I0510 00:27:42.893332 28326 net.cpp:334] loss2/classifier_loss2/classifier_0_split -> loss2/classifier_loss2/classifier_0_split_1
I0510 00:27:42.893342 28326 net.cpp:105] Setting up loss2/classifier_loss2/classifier_0_split
I0510 00:27:42.893347 28326 net.cpp:112] Top shape: 32 2 1 1 (64)
I0510 00:27:42.893352 28326 net.cpp:112] Top shape: 32 2 1 1 (64)
I0510 00:27:42.893358 28326 layer_factory.hpp:74] Creating layer loss2/loss
I0510 00:27:42.893368 28326 net.cpp:76] Creating Layer loss2/loss
I0510 00:27:42.893374 28326 net.cpp:372] loss2/loss <- loss2/classifier_loss2/classifier_0_split_0
I0510 00:27:42.893381 28326 net.cpp:372] loss2/loss <- label_data_1_split_2
I0510 00:27:42.893388 28326 net.cpp:334] loss2/loss -> loss2/loss1
I0510 00:27:42.893419 28326 net.cpp:105] Setting up loss2/loss
I0510 00:27:42.893429 28326 layer_factory.hpp:74] Creating layer loss2/loss
I0510 00:27:42.893443 28326 net.cpp:112] Top shape: 1 1 1 1 (1)
I0510 00:27:42.893450 28326 net.cpp:118]     with loss weight 0.3
I0510 00:27:42.893467 28326 layer_factory.hpp:74] Creating layer loss2/top-1
I0510 00:27:42.893476 28326 net.cpp:76] Creating Layer loss2/top-1
I0510 00:27:42.893482 28326 net.cpp:372] loss2/top-1 <- loss2/classifier_loss2/classifier_0_split_1
I0510 00:27:42.893488 28326 net.cpp:372] loss2/top-1 <- label_data_1_split_3
I0510 00:27:42.893496 28326 net.cpp:334] loss2/top-1 -> loss2/top-1
I0510 00:27:42.893506 28326 net.cpp:105] Setting up loss2/top-1
I0510 00:27:42.893512 28326 net.cpp:112] Top shape: 1 1 1 1 (1)
I0510 00:27:42.893517 28326 layer_factory.hpp:74] Creating layer inception_4e/1x1
I0510 00:27:42.893527 28326 net.cpp:76] Creating Layer inception_4e/1x1
I0510 00:27:42.893533 28326 net.cpp:372] inception_4e/1x1 <- inception_4d/output_inception_4d/output_0_split_1
I0510 00:27:42.893544 28326 net.cpp:334] inception_4e/1x1 -> inception_4e/1x1
I0510 00:27:42.893553 28326 net.cpp:105] Setting up inception_4e/1x1
I0510 00:27:42.894767 28326 net.cpp:112] Top shape: 32 256 14 14 (1605632)
I0510 00:27:42.894783 28326 layer_factory.hpp:74] Creating layer inception_4e/relu_1x1
I0510 00:27:42.894793 28326 net.cpp:76] Creating Layer inception_4e/relu_1x1
I0510 00:27:42.894798 28326 net.cpp:372] inception_4e/relu_1x1 <- inception_4e/1x1
I0510 00:27:42.894806 28326 net.cpp:323] inception_4e/relu_1x1 -> inception_4e/1x1 (in-place)
I0510 00:27:42.894814 28326 net.cpp:105] Setting up inception_4e/relu_1x1
I0510 00:27:42.894820 28326 net.cpp:112] Top shape: 32 256 14 14 (1605632)
I0510 00:27:42.894825 28326 layer_factory.hpp:74] Creating layer inception_4e/3x3_reduce
I0510 00:27:42.894836 28326 net.cpp:76] Creating Layer inception_4e/3x3_reduce
I0510 00:27:42.894843 28326 net.cpp:372] inception_4e/3x3_reduce <- inception_4d/output_inception_4d/output_0_split_2
I0510 00:27:42.894855 28326 net.cpp:334] inception_4e/3x3_reduce -> inception_4e/3x3_reduce
I0510 00:27:42.894865 28326 net.cpp:105] Setting up inception_4e/3x3_reduce
I0510 00:27:42.895620 28326 net.cpp:112] Top shape: 32 160 14 14 (1003520)
I0510 00:27:42.895637 28326 layer_factory.hpp:74] Creating layer inception_4e/relu_3x3_reduce
I0510 00:27:42.895645 28326 net.cpp:76] Creating Layer inception_4e/relu_3x3_reduce
I0510 00:27:42.895651 28326 net.cpp:372] inception_4e/relu_3x3_reduce <- inception_4e/3x3_reduce
I0510 00:27:42.895658 28326 net.cpp:323] inception_4e/relu_3x3_reduce -> inception_4e/3x3_reduce (in-place)
I0510 00:27:42.895666 28326 net.cpp:105] Setting up inception_4e/relu_3x3_reduce
I0510 00:27:42.895673 28326 net.cpp:112] Top shape: 32 160 14 14 (1003520)
I0510 00:27:42.895678 28326 layer_factory.hpp:74] Creating layer inception_4e/3x3
I0510 00:27:42.895709 28326 net.cpp:76] Creating Layer inception_4e/3x3
I0510 00:27:42.895717 28326 net.cpp:372] inception_4e/3x3 <- inception_4e/3x3_reduce
I0510 00:27:42.895728 28326 net.cpp:334] inception_4e/3x3 -> inception_4e/3x3
I0510 00:27:42.895737 28326 net.cpp:105] Setting up inception_4e/3x3
I0510 00:27:42.899667 28326 net.cpp:112] Top shape: 32 320 14 14 (2007040)
I0510 00:27:42.899688 28326 layer_factory.hpp:74] Creating layer inception_4e/relu_3x3
I0510 00:27:42.899696 28326 net.cpp:76] Creating Layer inception_4e/relu_3x3
I0510 00:27:42.899703 28326 net.cpp:372] inception_4e/relu_3x3 <- inception_4e/3x3
I0510 00:27:42.899713 28326 net.cpp:323] inception_4e/relu_3x3 -> inception_4e/3x3 (in-place)
I0510 00:27:42.899721 28326 net.cpp:105] Setting up inception_4e/relu_3x3
I0510 00:27:42.899726 28326 net.cpp:112] Top shape: 32 320 14 14 (2007040)
I0510 00:27:42.899732 28326 layer_factory.hpp:74] Creating layer inception_4e/5x5_reduce
I0510 00:27:42.899741 28326 net.cpp:76] Creating Layer inception_4e/5x5_reduce
I0510 00:27:42.899747 28326 net.cpp:372] inception_4e/5x5_reduce <- inception_4d/output_inception_4d/output_0_split_3
I0510 00:27:42.899775 28326 net.cpp:334] inception_4e/5x5_reduce -> inception_4e/5x5_reduce
I0510 00:27:42.899785 28326 net.cpp:105] Setting up inception_4e/5x5_reduce
I0510 00:27:42.899935 28326 net.cpp:112] Top shape: 32 32 14 14 (200704)
I0510 00:27:42.899947 28326 layer_factory.hpp:74] Creating layer inception_4e/relu_5x5_reduce
I0510 00:27:42.899955 28326 net.cpp:76] Creating Layer inception_4e/relu_5x5_reduce
I0510 00:27:42.899961 28326 net.cpp:372] inception_4e/relu_5x5_reduce <- inception_4e/5x5_reduce
I0510 00:27:42.899968 28326 net.cpp:323] inception_4e/relu_5x5_reduce -> inception_4e/5x5_reduce (in-place)
I0510 00:27:42.899976 28326 net.cpp:105] Setting up inception_4e/relu_5x5_reduce
I0510 00:27:42.899981 28326 net.cpp:112] Top shape: 32 32 14 14 (200704)
I0510 00:27:42.899986 28326 layer_factory.hpp:74] Creating layer inception_4e/5x5
I0510 00:27:42.899996 28326 net.cpp:76] Creating Layer inception_4e/5x5
I0510 00:27:42.900001 28326 net.cpp:372] inception_4e/5x5 <- inception_4e/5x5_reduce
I0510 00:27:42.900013 28326 net.cpp:334] inception_4e/5x5 -> inception_4e/5x5
I0510 00:27:42.900023 28326 net.cpp:105] Setting up inception_4e/5x5
I0510 00:27:42.900895 28326 net.cpp:112] Top shape: 32 128 14 14 (802816)
I0510 00:27:42.900909 28326 layer_factory.hpp:74] Creating layer inception_4e/relu_5x5
I0510 00:27:42.900918 28326 net.cpp:76] Creating Layer inception_4e/relu_5x5
I0510 00:27:42.900923 28326 net.cpp:372] inception_4e/relu_5x5 <- inception_4e/5x5
I0510 00:27:42.900933 28326 net.cpp:323] inception_4e/relu_5x5 -> inception_4e/5x5 (in-place)
I0510 00:27:42.900940 28326 net.cpp:105] Setting up inception_4e/relu_5x5
I0510 00:27:42.900949 28326 net.cpp:112] Top shape: 32 128 14 14 (802816)
I0510 00:27:42.900954 28326 layer_factory.hpp:74] Creating layer inception_4e/pool
I0510 00:27:42.900962 28326 net.cpp:76] Creating Layer inception_4e/pool
I0510 00:27:42.900969 28326 net.cpp:372] inception_4e/pool <- inception_4d/output_inception_4d/output_0_split_4
I0510 00:27:42.900976 28326 net.cpp:334] inception_4e/pool -> inception_4e/pool
I0510 00:27:42.900985 28326 net.cpp:105] Setting up inception_4e/pool
I0510 00:27:42.900995 28326 net.cpp:112] Top shape: 32 528 14 14 (3311616)
I0510 00:27:42.901000 28326 layer_factory.hpp:74] Creating layer inception_4e/pool_proj
I0510 00:27:42.901010 28326 net.cpp:76] Creating Layer inception_4e/pool_proj
I0510 00:27:42.901015 28326 net.cpp:372] inception_4e/pool_proj <- inception_4e/pool
I0510 00:27:42.901026 28326 net.cpp:334] inception_4e/pool_proj -> inception_4e/pool_proj
I0510 00:27:42.901036 28326 net.cpp:105] Setting up inception_4e/pool_proj
I0510 00:27:42.901621 28326 net.cpp:112] Top shape: 32 128 14 14 (802816)
I0510 00:27:42.901636 28326 layer_factory.hpp:74] Creating layer inception_4e/relu_pool_proj
I0510 00:27:42.901644 28326 net.cpp:76] Creating Layer inception_4e/relu_pool_proj
I0510 00:27:42.901650 28326 net.cpp:372] inception_4e/relu_pool_proj <- inception_4e/pool_proj
I0510 00:27:42.901657 28326 net.cpp:323] inception_4e/relu_pool_proj -> inception_4e/pool_proj (in-place)
I0510 00:27:42.901665 28326 net.cpp:105] Setting up inception_4e/relu_pool_proj
I0510 00:27:42.901671 28326 net.cpp:112] Top shape: 32 128 14 14 (802816)
I0510 00:27:42.901676 28326 layer_factory.hpp:74] Creating layer inception_4e/output
I0510 00:27:42.901684 28326 net.cpp:76] Creating Layer inception_4e/output
I0510 00:27:42.901690 28326 net.cpp:372] inception_4e/output <- inception_4e/1x1
I0510 00:27:42.901696 28326 net.cpp:372] inception_4e/output <- inception_4e/3x3
I0510 00:27:42.901702 28326 net.cpp:372] inception_4e/output <- inception_4e/5x5
I0510 00:27:42.901708 28326 net.cpp:372] inception_4e/output <- inception_4e/pool_proj
I0510 00:27:42.901718 28326 net.cpp:334] inception_4e/output -> inception_4e/output
I0510 00:27:42.901727 28326 net.cpp:105] Setting up inception_4e/output
I0510 00:27:42.901733 28326 net.cpp:112] Top shape: 32 832 14 14 (5218304)
I0510 00:27:42.901739 28326 layer_factory.hpp:74] Creating layer pool4/3x3_s2
I0510 00:27:42.901747 28326 net.cpp:76] Creating Layer pool4/3x3_s2
I0510 00:27:42.901773 28326 net.cpp:372] pool4/3x3_s2 <- inception_4e/output
I0510 00:27:42.901784 28326 net.cpp:334] pool4/3x3_s2 -> pool4/3x3_s2
I0510 00:27:42.901793 28326 net.cpp:105] Setting up pool4/3x3_s2
I0510 00:27:42.901800 28326 net.cpp:112] Top shape: 32 832 7 7 (1304576)
I0510 00:27:42.901806 28326 layer_factory.hpp:74] Creating layer pool4/3x3_s2_pool4/3x3_s2_0_split
I0510 00:27:42.901813 28326 net.cpp:76] Creating Layer pool4/3x3_s2_pool4/3x3_s2_0_split
I0510 00:27:42.901819 28326 net.cpp:372] pool4/3x3_s2_pool4/3x3_s2_0_split <- pool4/3x3_s2
I0510 00:27:42.901826 28326 net.cpp:334] pool4/3x3_s2_pool4/3x3_s2_0_split -> pool4/3x3_s2_pool4/3x3_s2_0_split_0
I0510 00:27:42.901835 28326 net.cpp:334] pool4/3x3_s2_pool4/3x3_s2_0_split -> pool4/3x3_s2_pool4/3x3_s2_0_split_1
I0510 00:27:42.901844 28326 net.cpp:334] pool4/3x3_s2_pool4/3x3_s2_0_split -> pool4/3x3_s2_pool4/3x3_s2_0_split_2
I0510 00:27:42.901855 28326 net.cpp:334] pool4/3x3_s2_pool4/3x3_s2_0_split -> pool4/3x3_s2_pool4/3x3_s2_0_split_3
I0510 00:27:42.901864 28326 net.cpp:105] Setting up pool4/3x3_s2_pool4/3x3_s2_0_split
I0510 00:27:42.901870 28326 net.cpp:112] Top shape: 32 832 7 7 (1304576)
I0510 00:27:42.901875 28326 net.cpp:112] Top shape: 32 832 7 7 (1304576)
I0510 00:27:42.901880 28326 net.cpp:112] Top shape: 32 832 7 7 (1304576)
I0510 00:27:42.901885 28326 net.cpp:112] Top shape: 32 832 7 7 (1304576)
I0510 00:27:42.901890 28326 layer_factory.hpp:74] Creating layer inception_5a/1x1
I0510 00:27:42.901898 28326 net.cpp:76] Creating Layer inception_5a/1x1
I0510 00:27:42.901904 28326 net.cpp:372] inception_5a/1x1 <- pool4/3x3_s2_pool4/3x3_s2_0_split_0
I0510 00:27:42.901914 28326 net.cpp:334] inception_5a/1x1 -> inception_5a/1x1
I0510 00:27:42.901924 28326 net.cpp:105] Setting up inception_5a/1x1
I0510 00:27:42.903782 28326 net.cpp:112] Top shape: 32 256 7 7 (401408)
I0510 00:27:42.903798 28326 layer_factory.hpp:74] Creating layer inception_5a/relu_1x1
I0510 00:27:42.903807 28326 net.cpp:76] Creating Layer inception_5a/relu_1x1
I0510 00:27:42.903831 28326 net.cpp:372] inception_5a/relu_1x1 <- inception_5a/1x1
I0510 00:27:42.903843 28326 net.cpp:323] inception_5a/relu_1x1 -> inception_5a/1x1 (in-place)
I0510 00:27:42.903852 28326 net.cpp:105] Setting up inception_5a/relu_1x1
I0510 00:27:42.903858 28326 net.cpp:112] Top shape: 32 256 7 7 (401408)
I0510 00:27:42.903863 28326 layer_factory.hpp:74] Creating layer inception_5a/3x3_reduce
I0510 00:27:42.903872 28326 net.cpp:76] Creating Layer inception_5a/3x3_reduce
I0510 00:27:42.903878 28326 net.cpp:372] inception_5a/3x3_reduce <- pool4/3x3_s2_pool4/3x3_s2_0_split_1
I0510 00:27:42.903887 28326 net.cpp:334] inception_5a/3x3_reduce -> inception_5a/3x3_reduce
I0510 00:27:42.903895 28326 net.cpp:105] Setting up inception_5a/3x3_reduce
I0510 00:27:42.905020 28326 net.cpp:112] Top shape: 32 160 7 7 (250880)
I0510 00:27:42.905035 28326 layer_factory.hpp:74] Creating layer inception_5a/relu_3x3_reduce
I0510 00:27:42.905045 28326 net.cpp:76] Creating Layer inception_5a/relu_3x3_reduce
I0510 00:27:42.905051 28326 net.cpp:372] inception_5a/relu_3x3_reduce <- inception_5a/3x3_reduce
I0510 00:27:42.905058 28326 net.cpp:323] inception_5a/relu_3x3_reduce -> inception_5a/3x3_reduce (in-place)
I0510 00:27:42.905066 28326 net.cpp:105] Setting up inception_5a/relu_3x3_reduce
I0510 00:27:42.905071 28326 net.cpp:112] Top shape: 32 160 7 7 (250880)
I0510 00:27:42.905077 28326 layer_factory.hpp:74] Creating layer inception_5a/3x3
I0510 00:27:42.905086 28326 net.cpp:76] Creating Layer inception_5a/3x3
I0510 00:27:42.905092 28326 net.cpp:372] inception_5a/3x3 <- inception_5a/3x3_reduce
I0510 00:27:42.905102 28326 net.cpp:334] inception_5a/3x3 -> inception_5a/3x3
I0510 00:27:42.905112 28326 net.cpp:105] Setting up inception_5a/3x3
I0510 00:27:42.909061 28326 net.cpp:112] Top shape: 32 320 7 7 (501760)
I0510 00:27:42.909078 28326 layer_factory.hpp:74] Creating layer inception_5a/relu_3x3
I0510 00:27:42.909087 28326 net.cpp:76] Creating Layer inception_5a/relu_3x3
I0510 00:27:42.909095 28326 net.cpp:372] inception_5a/relu_3x3 <- inception_5a/3x3
I0510 00:27:42.909116 28326 net.cpp:323] inception_5a/relu_3x3 -> inception_5a/3x3 (in-place)
I0510 00:27:42.909126 28326 net.cpp:105] Setting up inception_5a/relu_3x3
I0510 00:27:42.909132 28326 net.cpp:112] Top shape: 32 320 7 7 (501760)
I0510 00:27:42.909137 28326 layer_factory.hpp:74] Creating layer inception_5a/5x5_reduce
I0510 00:27:42.909148 28326 net.cpp:76] Creating Layer inception_5a/5x5_reduce
I0510 00:27:42.909155 28326 net.cpp:372] inception_5a/5x5_reduce <- pool4/3x3_s2_pool4/3x3_s2_0_split_2
I0510 00:27:42.909165 28326 net.cpp:334] inception_5a/5x5_reduce -> inception_5a/5x5_reduce
I0510 00:27:42.909175 28326 net.cpp:105] Setting up inception_5a/5x5_reduce
I0510 00:27:42.909430 28326 net.cpp:112] Top shape: 32 32 7 7 (50176)
I0510 00:27:42.909442 28326 layer_factory.hpp:74] Creating layer inception_5a/relu_5x5_reduce
I0510 00:27:42.909451 28326 net.cpp:76] Creating Layer inception_5a/relu_5x5_reduce
I0510 00:27:42.909456 28326 net.cpp:372] inception_5a/relu_5x5_reduce <- inception_5a/5x5_reduce
I0510 00:27:42.909466 28326 net.cpp:323] inception_5a/relu_5x5_reduce -> inception_5a/5x5_reduce (in-place)
I0510 00:27:42.909474 28326 net.cpp:105] Setting up inception_5a/relu_5x5_reduce
I0510 00:27:42.909479 28326 net.cpp:112] Top shape: 32 32 7 7 (50176)
I0510 00:27:42.909485 28326 layer_factory.hpp:74] Creating layer inception_5a/5x5
I0510 00:27:42.909493 28326 net.cpp:76] Creating Layer inception_5a/5x5
I0510 00:27:42.909499 28326 net.cpp:372] inception_5a/5x5 <- inception_5a/5x5_reduce
I0510 00:27:42.909509 28326 net.cpp:334] inception_5a/5x5 -> inception_5a/5x5
I0510 00:27:42.909518 28326 net.cpp:105] Setting up inception_5a/5x5
I0510 00:27:42.910416 28326 net.cpp:112] Top shape: 32 128 7 7 (200704)
I0510 00:27:42.910433 28326 layer_factory.hpp:74] Creating layer inception_5a/relu_5x5
I0510 00:27:42.910442 28326 net.cpp:76] Creating Layer inception_5a/relu_5x5
I0510 00:27:42.911173 28326 net.cpp:372] inception_5a/relu_5x5 <- inception_5a/5x5
I0510 00:27:42.911185 28326 net.cpp:323] inception_5a/relu_5x5 -> inception_5a/5x5 (in-place)
I0510 00:27:42.911195 28326 net.cpp:105] Setting up inception_5a/relu_5x5
I0510 00:27:42.911201 28326 net.cpp:112] Top shape: 32 128 7 7 (200704)
I0510 00:27:42.911206 28326 layer_factory.hpp:74] Creating layer inception_5a/pool
I0510 00:27:42.911214 28326 net.cpp:76] Creating Layer inception_5a/pool
I0510 00:27:42.911221 28326 net.cpp:372] inception_5a/pool <- pool4/3x3_s2_pool4/3x3_s2_0_split_3
I0510 00:27:42.911231 28326 net.cpp:334] inception_5a/pool -> inception_5a/pool
I0510 00:27:42.911258 28326 net.cpp:105] Setting up inception_5a/pool
I0510 00:27:42.911267 28326 net.cpp:112] Top shape: 32 832 7 7 (1304576)
I0510 00:27:42.911273 28326 layer_factory.hpp:74] Creating layer inception_5a/pool_proj
I0510 00:27:42.911283 28326 net.cpp:76] Creating Layer inception_5a/pool_proj
I0510 00:27:42.911288 28326 net.cpp:372] inception_5a/pool_proj <- inception_5a/pool
I0510 00:27:42.911299 28326 net.cpp:334] inception_5a/pool_proj -> inception_5a/pool_proj
I0510 00:27:42.911319 28326 net.cpp:105] Setting up inception_5a/pool_proj
I0510 00:27:42.912210 28326 net.cpp:112] Top shape: 32 128 7 7 (200704)
I0510 00:27:42.912225 28326 layer_factory.hpp:74] Creating layer inception_5a/relu_pool_proj
I0510 00:27:42.912235 28326 net.cpp:76] Creating Layer inception_5a/relu_pool_proj
I0510 00:27:42.912241 28326 net.cpp:372] inception_5a/relu_pool_proj <- inception_5a/pool_proj
I0510 00:27:42.912248 28326 net.cpp:323] inception_5a/relu_pool_proj -> inception_5a/pool_proj (in-place)
I0510 00:27:42.912256 28326 net.cpp:105] Setting up inception_5a/relu_pool_proj
I0510 00:27:42.912262 28326 net.cpp:112] Top shape: 32 128 7 7 (200704)
I0510 00:27:42.912267 28326 layer_factory.hpp:74] Creating layer inception_5a/output
I0510 00:27:42.912288 28326 net.cpp:76] Creating Layer inception_5a/output
I0510 00:27:42.912294 28326 net.cpp:372] inception_5a/output <- inception_5a/1x1
I0510 00:27:42.912302 28326 net.cpp:372] inception_5a/output <- inception_5a/3x3
I0510 00:27:42.912307 28326 net.cpp:372] inception_5a/output <- inception_5a/5x5
I0510 00:27:42.912328 28326 net.cpp:372] inception_5a/output <- inception_5a/pool_proj
I0510 00:27:42.912338 28326 net.cpp:334] inception_5a/output -> inception_5a/output
I0510 00:27:42.912345 28326 net.cpp:105] Setting up inception_5a/output
I0510 00:27:42.912353 28326 net.cpp:112] Top shape: 32 832 7 7 (1304576)
I0510 00:27:42.912358 28326 layer_factory.hpp:74] Creating layer inception_5a/output_inception_5a/output_0_split
I0510 00:27:42.912369 28326 net.cpp:76] Creating Layer inception_5a/output_inception_5a/output_0_split
I0510 00:27:42.912374 28326 net.cpp:372] inception_5a/output_inception_5a/output_0_split <- inception_5a/output
I0510 00:27:42.912382 28326 net.cpp:334] inception_5a/output_inception_5a/output_0_split -> inception_5a/output_inception_5a/output_0_split_0
I0510 00:27:42.912391 28326 net.cpp:334] inception_5a/output_inception_5a/output_0_split -> inception_5a/output_inception_5a/output_0_split_1
I0510 00:27:42.912400 28326 net.cpp:334] inception_5a/output_inception_5a/output_0_split -> inception_5a/output_inception_5a/output_0_split_2
I0510 00:27:42.912411 28326 net.cpp:334] inception_5a/output_inception_5a/output_0_split -> inception_5a/output_inception_5a/output_0_split_3
I0510 00:27:42.912420 28326 net.cpp:105] Setting up inception_5a/output_inception_5a/output_0_split
I0510 00:27:42.912431 28326 net.cpp:112] Top shape: 32 832 7 7 (1304576)
I0510 00:27:42.912436 28326 net.cpp:112] Top shape: 32 832 7 7 (1304576)
I0510 00:27:42.912441 28326 net.cpp:112] Top shape: 32 832 7 7 (1304576)
I0510 00:27:42.912446 28326 net.cpp:112] Top shape: 32 832 7 7 (1304576)
I0510 00:27:42.912451 28326 layer_factory.hpp:74] Creating layer inception_5b/1x1
I0510 00:27:42.912459 28326 net.cpp:76] Creating Layer inception_5b/1x1
I0510 00:27:42.912466 28326 net.cpp:372] inception_5b/1x1 <- inception_5a/output_inception_5a/output_0_split_0
I0510 00:27:42.912477 28326 net.cpp:334] inception_5b/1x1 -> inception_5b/1x1
I0510 00:27:42.912485 28326 net.cpp:105] Setting up inception_5b/1x1
I0510 00:27:42.915156 28326 net.cpp:112] Top shape: 32 384 7 7 (602112)
I0510 00:27:42.915174 28326 layer_factory.hpp:74] Creating layer inception_5b/relu_1x1
I0510 00:27:42.915184 28326 net.cpp:76] Creating Layer inception_5b/relu_1x1
I0510 00:27:42.915189 28326 net.cpp:372] inception_5b/relu_1x1 <- inception_5b/1x1
I0510 00:27:42.915199 28326 net.cpp:323] inception_5b/relu_1x1 -> inception_5b/1x1 (in-place)
I0510 00:27:42.915208 28326 net.cpp:105] Setting up inception_5b/relu_1x1
I0510 00:27:42.915213 28326 net.cpp:112] Top shape: 32 384 7 7 (602112)
I0510 00:27:42.915220 28326 layer_factory.hpp:74] Creating layer inception_5b/3x3_reduce
I0510 00:27:42.915230 28326 net.cpp:76] Creating Layer inception_5b/3x3_reduce
I0510 00:27:42.915237 28326 net.cpp:372] inception_5b/3x3_reduce <- inception_5a/output_inception_5a/output_0_split_1
I0510 00:27:42.915247 28326 net.cpp:334] inception_5b/3x3_reduce -> inception_5b/3x3_reduce
I0510 00:27:42.915256 28326 net.cpp:105] Setting up inception_5b/3x3_reduce
I0510 00:27:42.916628 28326 net.cpp:112] Top shape: 32 192 7 7 (301056)
I0510 00:27:42.916645 28326 layer_factory.hpp:74] Creating layer inception_5b/relu_3x3_reduce
I0510 00:27:42.916656 28326 net.cpp:76] Creating Layer inception_5b/relu_3x3_reduce
I0510 00:27:42.916662 28326 net.cpp:372] inception_5b/relu_3x3_reduce <- inception_5b/3x3_reduce
I0510 00:27:42.916669 28326 net.cpp:323] inception_5b/relu_3x3_reduce -> inception_5b/3x3_reduce (in-place)
I0510 00:27:42.916677 28326 net.cpp:105] Setting up inception_5b/relu_3x3_reduce
I0510 00:27:42.916683 28326 net.cpp:112] Top shape: 32 192 7 7 (301056)
I0510 00:27:42.916688 28326 layer_factory.hpp:74] Creating layer inception_5b/3x3
I0510 00:27:42.916699 28326 net.cpp:76] Creating Layer inception_5b/3x3
I0510 00:27:42.916705 28326 net.cpp:372] inception_5b/3x3 <- inception_5b/3x3_reduce
I0510 00:27:42.916713 28326 net.cpp:334] inception_5b/3x3 -> inception_5b/3x3
I0510 00:27:42.916721 28326 net.cpp:105] Setting up inception_5b/3x3
I0510 00:27:42.922977 28326 net.cpp:112] Top shape: 32 384 7 7 (602112)
I0510 00:27:42.923012 28326 layer_factory.hpp:74] Creating layer inception_5b/relu_3x3
I0510 00:27:42.923023 28326 net.cpp:76] Creating Layer inception_5b/relu_3x3
I0510 00:27:42.923030 28326 net.cpp:372] inception_5b/relu_3x3 <- inception_5b/3x3
I0510 00:27:42.923038 28326 net.cpp:323] inception_5b/relu_3x3 -> inception_5b/3x3 (in-place)
I0510 00:27:42.923046 28326 net.cpp:105] Setting up inception_5b/relu_3x3
I0510 00:27:42.923053 28326 net.cpp:112] Top shape: 32 384 7 7 (602112)
I0510 00:27:42.923058 28326 layer_factory.hpp:74] Creating layer inception_5b/5x5_reduce
I0510 00:27:42.923068 28326 net.cpp:76] Creating Layer inception_5b/5x5_reduce
I0510 00:27:42.923074 28326 net.cpp:372] inception_5b/5x5_reduce <- inception_5a/output_inception_5a/output_0_split_2
I0510 00:27:42.923084 28326 net.cpp:334] inception_5b/5x5_reduce -> inception_5b/5x5_reduce
I0510 00:27:42.923094 28326 net.cpp:105] Setting up inception_5b/5x5_reduce
I0510 00:27:42.923446 28326 net.cpp:112] Top shape: 32 48 7 7 (75264)
I0510 00:27:42.923461 28326 layer_factory.hpp:74] Creating layer inception_5b/relu_5x5_reduce
I0510 00:27:42.923470 28326 net.cpp:76] Creating Layer inception_5b/relu_5x5_reduce
I0510 00:27:42.923476 28326 net.cpp:372] inception_5b/relu_5x5_reduce <- inception_5b/5x5_reduce
I0510 00:27:42.923483 28326 net.cpp:323] inception_5b/relu_5x5_reduce -> inception_5b/5x5_reduce (in-place)
I0510 00:27:42.923491 28326 net.cpp:105] Setting up inception_5b/relu_5x5_reduce
I0510 00:27:42.923496 28326 net.cpp:112] Top shape: 32 48 7 7 (75264)
I0510 00:27:42.923502 28326 layer_factory.hpp:74] Creating layer inception_5b/5x5
I0510 00:27:42.923511 28326 net.cpp:76] Creating Layer inception_5b/5x5
I0510 00:27:42.923516 28326 net.cpp:372] inception_5b/5x5 <- inception_5b/5x5_reduce
I0510 00:27:42.923527 28326 net.cpp:334] inception_5b/5x5 -> inception_5b/5x5
I0510 00:27:42.923535 28326 net.cpp:105] Setting up inception_5b/5x5
I0510 00:27:42.924856 28326 net.cpp:112] Top shape: 32 128 7 7 (200704)
I0510 00:27:42.924878 28326 layer_factory.hpp:74] Creating layer inception_5b/relu_5x5
I0510 00:27:42.924888 28326 net.cpp:76] Creating Layer inception_5b/relu_5x5
I0510 00:27:42.924896 28326 net.cpp:372] inception_5b/relu_5x5 <- inception_5b/5x5
I0510 00:27:42.924903 28326 net.cpp:323] inception_5b/relu_5x5 -> inception_5b/5x5 (in-place)
I0510 00:27:42.924912 28326 net.cpp:105] Setting up inception_5b/relu_5x5
I0510 00:27:42.924918 28326 net.cpp:112] Top shape: 32 128 7 7 (200704)
I0510 00:27:42.924924 28326 layer_factory.hpp:74] Creating layer inception_5b/pool
I0510 00:27:42.924937 28326 net.cpp:76] Creating Layer inception_5b/pool
I0510 00:27:42.924943 28326 net.cpp:372] inception_5b/pool <- inception_5a/output_inception_5a/output_0_split_3
I0510 00:27:42.924952 28326 net.cpp:334] inception_5b/pool -> inception_5b/pool
I0510 00:27:42.924960 28326 net.cpp:105] Setting up inception_5b/pool
I0510 00:27:42.924968 28326 net.cpp:112] Top shape: 32 832 7 7 (1304576)
I0510 00:27:42.924973 28326 layer_factory.hpp:74] Creating layer inception_5b/pool_proj
I0510 00:27:42.924984 28326 net.cpp:76] Creating Layer inception_5b/pool_proj
I0510 00:27:42.924990 28326 net.cpp:372] inception_5b/pool_proj <- inception_5b/pool
I0510 00:27:42.924999 28326 net.cpp:334] inception_5b/pool_proj -> inception_5b/pool_proj
I0510 00:27:42.925009 28326 net.cpp:105] Setting up inception_5b/pool_proj
I0510 00:27:42.925931 28326 net.cpp:112] Top shape: 32 128 7 7 (200704)
I0510 00:27:42.925946 28326 layer_factory.hpp:74] Creating layer inception_5b/relu_pool_proj
I0510 00:27:42.925954 28326 net.cpp:76] Creating Layer inception_5b/relu_pool_proj
I0510 00:27:42.925961 28326 net.cpp:372] inception_5b/relu_pool_proj <- inception_5b/pool_proj
I0510 00:27:42.925971 28326 net.cpp:323] inception_5b/relu_pool_proj -> inception_5b/pool_proj (in-place)
I0510 00:27:42.925978 28326 net.cpp:105] Setting up inception_5b/relu_pool_proj
I0510 00:27:42.925984 28326 net.cpp:112] Top shape: 32 128 7 7 (200704)
I0510 00:27:42.925990 28326 layer_factory.hpp:74] Creating layer inception_5b/output
I0510 00:27:42.926015 28326 net.cpp:76] Creating Layer inception_5b/output
I0510 00:27:42.926023 28326 net.cpp:372] inception_5b/output <- inception_5b/1x1
I0510 00:27:42.926029 28326 net.cpp:372] inception_5b/output <- inception_5b/3x3
I0510 00:27:42.926035 28326 net.cpp:372] inception_5b/output <- inception_5b/5x5
I0510 00:27:42.926041 28326 net.cpp:372] inception_5b/output <- inception_5b/pool_proj
I0510 00:27:42.926049 28326 net.cpp:334] inception_5b/output -> inception_5b/output
I0510 00:27:42.926058 28326 net.cpp:105] Setting up inception_5b/output
I0510 00:27:42.926067 28326 net.cpp:112] Top shape: 32 1024 7 7 (1605632)
I0510 00:27:42.926074 28326 layer_factory.hpp:74] Creating layer pool5/7x7_s1
I0510 00:27:42.926081 28326 net.cpp:76] Creating Layer pool5/7x7_s1
I0510 00:27:42.926087 28326 net.cpp:372] pool5/7x7_s1 <- inception_5b/output
I0510 00:27:42.926100 28326 net.cpp:334] pool5/7x7_s1 -> pool5/7x7_s1
I0510 00:27:42.926110 28326 net.cpp:105] Setting up pool5/7x7_s1
I0510 00:27:42.926116 28326 net.cpp:112] Top shape: 32 1024 1 1 (32768)
I0510 00:27:42.926122 28326 layer_factory.hpp:74] Creating layer pool5/drop_7x7_s1
I0510 00:27:42.926131 28326 net.cpp:76] Creating Layer pool5/drop_7x7_s1
I0510 00:27:42.926136 28326 net.cpp:372] pool5/drop_7x7_s1 <- pool5/7x7_s1
I0510 00:27:42.926143 28326 net.cpp:323] pool5/drop_7x7_s1 -> pool5/7x7_s1 (in-place)
I0510 00:27:42.926156 28326 net.cpp:105] Setting up pool5/drop_7x7_s1
I0510 00:27:42.926162 28326 net.cpp:112] Top shape: 32 1024 1 1 (32768)
I0510 00:27:42.926167 28326 layer_factory.hpp:74] Creating layer loss3/classifier
I0510 00:27:42.926177 28326 net.cpp:76] Creating Layer loss3/classifier
I0510 00:27:42.926182 28326 net.cpp:372] loss3/classifier <- pool5/7x7_s1
I0510 00:27:42.926190 28326 net.cpp:334] loss3/classifier -> loss3/classifier
I0510 00:27:42.926199 28326 net.cpp:105] Setting up loss3/classifier
I0510 00:27:42.926234 28326 net.cpp:112] Top shape: 32 2 1 1 (64)
I0510 00:27:42.926244 28326 layer_factory.hpp:74] Creating layer loss3/classifier_loss3/classifier_0_split
I0510 00:27:42.926251 28326 net.cpp:76] Creating Layer loss3/classifier_loss3/classifier_0_split
I0510 00:27:42.926257 28326 net.cpp:372] loss3/classifier_loss3/classifier_0_split <- loss3/classifier
I0510 00:27:42.926265 28326 net.cpp:334] loss3/classifier_loss3/classifier_0_split -> loss3/classifier_loss3/classifier_0_split_0
I0510 00:27:42.926288 28326 net.cpp:334] loss3/classifier_loss3/classifier_0_split -> loss3/classifier_loss3/classifier_0_split_1
I0510 00:27:42.926298 28326 net.cpp:105] Setting up loss3/classifier_loss3/classifier_0_split
I0510 00:27:42.926304 28326 net.cpp:112] Top shape: 32 2 1 1 (64)
I0510 00:27:42.926311 28326 net.cpp:112] Top shape: 32 2 1 1 (64)
I0510 00:27:42.926316 28326 layer_factory.hpp:74] Creating layer loss3/loss3
I0510 00:27:42.926323 28326 net.cpp:76] Creating Layer loss3/loss3
I0510 00:27:42.926329 28326 net.cpp:372] loss3/loss3 <- loss3/classifier_loss3/classifier_0_split_0
I0510 00:27:42.926336 28326 net.cpp:372] loss3/loss3 <- label_data_1_split_4
I0510 00:27:42.926343 28326 net.cpp:334] loss3/loss3 -> loss3/loss3
I0510 00:27:42.926352 28326 net.cpp:105] Setting up loss3/loss3
I0510 00:27:42.926358 28326 layer_factory.hpp:74] Creating layer loss3/loss3
I0510 00:27:42.926373 28326 net.cpp:112] Top shape: 1 1 1 1 (1)
I0510 00:27:42.926379 28326 net.cpp:118]     with loss weight 1
I0510 00:27:42.926398 28326 layer_factory.hpp:74] Creating layer loss3/top-1
I0510 00:27:42.926408 28326 net.cpp:76] Creating Layer loss3/top-1
I0510 00:27:42.926414 28326 net.cpp:372] loss3/top-1 <- loss3/classifier_loss3/classifier_0_split_1
I0510 00:27:42.926420 28326 net.cpp:372] loss3/top-1 <- label_data_1_split_5
I0510 00:27:42.926427 28326 net.cpp:334] loss3/top-1 -> loss3/top-1
I0510 00:27:42.926436 28326 net.cpp:105] Setting up loss3/top-1
I0510 00:27:42.926442 28326 net.cpp:112] Top shape: 1 1 1 1 (1)
I0510 00:27:42.926447 28326 net.cpp:165] loss3/top-1 does not need backward computation.
I0510 00:27:42.926452 28326 net.cpp:163] loss3/loss3 needs backward computation.
I0510 00:27:42.926471 28326 net.cpp:163] loss3/classifier_loss3/classifier_0_split needs backward computation.
I0510 00:27:42.926477 28326 net.cpp:163] loss3/classifier needs backward computation.
I0510 00:27:42.926483 28326 net.cpp:163] pool5/drop_7x7_s1 needs backward computation.
…
