…
I0511 06:34:28.449043  8175 net.cpp:253] The NetState phase (0) differed from the phase (1) specified by a rule in layer loss3/top-1
I0511 06:34:28.450387  8175 net.cpp:42] Initializing net from parameters: 
name: "GoogleNet"
state {
  phase: TRAIN
}
layer {
  name: "data"
  type: "Data"
  top: "data"
  top: "label"
  include {
    phase: TRAIN
  }
  transform_param {
    mirror: true
    crop_size: 224
    mean_value: 104
    mean_value: 117
    mean_value: 123
  }
  data_param {
    source: "train_lmdb"
    batch_size: 32
    backend: LMDB
  }
}
layer {
  name: "conv1/7x7_s2"
  type: "Convolution"
  bottom: "data"
  top: "conv1/7x7_s2"
  param {
    lr_mult: 1
    decay_mult: 1
  }
  param {
    lr_mult: 2
    decay_mult: 0
  }
  convolution_param {
    num_output: 64
    pad: 3
    kernel_size: 7
    stride: 2
    weight_filler {
      type: "xavier"
      std: 0.1
    }
    bias_filler {
      type: "constant"
      value: 0.2
    }
  }
}
layer {
  name: "conv1/relu_7x7"
  type: "ReLU"
  bottom: "conv1/7x7_s2"
  top: "conv1/7x7_s2"
}
layer {
  name: "pool1/3x3_s2"
  type: "Pooling"
  bottom: "conv1/7x7_s2"
  top: "pool1/3x3_s2"
  pooling_param {
    pool: MAX
    kernel_size: 3
    stride: 2
  }
}
layer {
  name: "pool1/norm1"
  type: "LRN"
  bottom: "pool1/3x3_s2"
  top: "pool1/norm1"
  lrn_param {
    local_size: 5
    alpha: 0.0001
    beta: 0.75
  }
}
layer {
  name: "conv2/3x3_reduce"
  type: "Convolution"
  bottom: "pool1/norm1"
  top: "conv2/3x3_reduce"
  param {
    lr_mult: 1
    decay_mult: 1
  }
  param {
    lr_mult: 2
    decay_mult: 0
  }
  convolution_param {
    num_output: 64
    kernel_size: 1
    weight_filler {
      type: "xavier"
      std: 0.1
    }
    bias_filler {
      type: "constant"
      value: 0.2
    }
  }
}
layer {
  name: "conv2/relu_3x3_reduce"
  type: "ReLU"
  bottom: "conv2/3x3_reduce"
  top: "conv2/3x3_reduce"
}
layer {
  name: "conv2/3x3"
  type: "Convolution"
  bottom: "conv2/3x3_reduce"
  top: "conv2/3x3"
  param {
    lr_mult: 1
    decay_mult: 1
  }
  param {
    lr_mult: 2
    decay_mult: 0
  }
  convolution_param {
    num_output: 192
    pad: 1
    kernel_size: 3
    weight_filler {
      type: "xavier"
      std: 0.03
    }
    bias_filler {
      type: "constant"
      value: 0.2
    }
  }
}
layer {
  name: "conv2/relu_3x3"
  type: "ReLU"
  bottom: "conv2/3x3"
  top: "conv2/3x3"
}
layer {
  name: "conv2/norm2"
  type: "LRN"
  bottom: "conv2/3x3"
  top: "conv2/norm2"
  lrn_param {
    local_size: 5
    alpha: 0.0001
    beta: 0.75
  }
}
layer {
  name: "pool2/3x3_s2"
  type: "Pooling"
  bottom: "conv2/norm2"
  top: "pool2/3x3_s2"
  pooling_param {
    pool: MAX
    kernel_size: 3
    stride: 2
  }
}
layer {
  name: "inception_3a/1x1"
  type: "Convolution"
  bottom: "pool2/3x3_s2"
  top: "inception_3a/1x1"
  param {
    lr_mult: 1
    decay_mult: 1
  }
  param {
    lr_mult: 2
    decay_mult: 0
  }
  convolution_param {
    num_output: 64
    kernel_size: 1
    weight_filler {
      type: "xavier"
      std: 0.03
    }
    bias_filler {
      type: "constant"
      value: 0.2
    }
  }
}
layer {
  name: "inception_3a/relu_1x1"
  type: "ReLU"
  bottom: "inception_3a/1x1"
  top: "inception_3a/1x1"
}
layer {
  name: "inception_3a/3x3_reduce"
  type: "Convolution"
  bottom: "pool2/3x3_s2"
  top: "inception_3a/3x3_reduce"
  param {
    lr_mult: 1
    decay_mult: 1
  }
  param {
    lr_mult: 2
    decay_mult: 0
  }
  convolution_param {
    num_output: 96
    kernel_size: 1
    weight_filler {
      type: "xavier"
      std: 0.09
    }
    bias_filler {
      type: "constant"
      value: 0.2
    }
  }
}
layer {
  name: "inception_3a/relu_3x3_reduce"
  type: "ReLU"
  bottom: "inception_3a/3x3_reduce"
  top: "inception_3a/3x3_reduce"
}
layer {
  name: "inception_3a/3x3"
  type: "Convolution"
  bottom: "inception_3a/3x3_reduce"
  top: "inception_3a/3x3"
  param {
    lr_mult: 1
    decay_mult: 1
  }
  param {
    lr_mult: 2
    decay_mult: 0
  }
  convolution_param {
    num_output: 128
    pad: 1
    kernel_size: 3
    weight_filler {
      type: "xavier"
      std: 0.03
    }
    bias_filler {
      type: "constant"
      value: 0.2
    }
  }
}
layer {
  name: "inception_3a/relu_3x3"
  type: "ReLU"
  bottom: "inception_3a/3x3"
  top: "inception_3a/3x3"
}
layer {
  name: "inception_3a/5x5_reduce"
  type: "Convolution"
  bottom: "pool2/3x3_s2"
  top: "inception_3a/5x5_reduce"
  param {
    lr_mult: 1
    decay_mult: 1
  }
  param {
    lr_mult: 2
    decay_mult: 0
  }
  convolution_param {
    num_output: 16
    kernel_size: 1
    weight_filler {
      type: "xavier"
      std: 0.2
    }
    bias_filler {
      type: "constant"
      value: 0.2
    }
  }
}
layer {
  name: "inception_3a/relu_5x5_reduce"
  type: "ReLU"
  bottom: "inception_3a/5x5_reduce"
  top: "inception_3a/5x5_reduce"
}
layer {
  name: "inception_3a/5x5"
  type: "Convolution"
  bottom: "inception_3a/5x5_reduce"
  top: "inception_3a/5x5"
  param {
    lr_mult: 1
    decay_mult: 1
  }
  param {
    lr_mult: 2
    decay_mult: 0
  }
  convolution_param {
    num_output: 32
    pad: 2
    kernel_size: 5
    weight_filler {
      type: "xavier"
      std: 0.03
    }
    bias_filler {
      type: "constant"
      value: 0.2
    }
  }
}
layer {
  name: "inception_3a/relu_5x5"
  type: "ReLU"
  bottom: "inception_3a/5x5"
  top: "inception_3a/5x5"
}
layer {
  name: "inception_3a/pool"
  type: "Pooling"
  bottom: "pool2/3x3_s2"
  top: "inception_3a/pool"
  pooling_param {
    pool: MAX
    kernel_size: 3
    stride: 1
    pad: 1
  }
}
layer {
  name: "inception_3a/pool_proj"
  type: "Convolution"
  bottom: "inception_3a/pool"
  top: "inception_3a/pool_proj"
  param {
    lr_mult: 1
    decay_mult: 1
  }
  param {
    lr_mult: 2
    decay_mult: 0
  }
  convolution_param {
    num_output: 32
    kernel_size: 1
    weight_filler {
      type: "xavier"
      std: 0.1
    }
    bias_filler {
      type: "constant"
      value: 0.2
    }
  }
}
layer {
  name: "inception_3a/relu_pool_proj"
  type: "ReLU"
  bottom: "inception_3a/pool_proj"
  top: "inception_3a/pool_proj"
}
layer {
  name: "inception_3a/output"
  type: "Concat"
  bottom: "inception_3a/1x1"
  bottom: "inception_3a/3x3"
  bottom: "inception_3a/5x5"
  bottom: "inception_3a/pool_proj"
  top: "inception_3a/output"
}
layer {
  name: "inception_3b/1x1"
  type: "Convolution"
  bottom: "inception_3a/output"
  top: "inception_3b/1x1"
  param {
    lr_mult: 1
    decay_mult: 1
  }
  param {
    lr_mult: 2
    decay_mult: 0
  }
  convolution_param {
    num_output: 128
    kernel_size: 1
    weight_filler {
      type: "xavier"
      std: 0.03
    }
    bias_filler {
      type: "constant"
      value: 0.2
    }
  }
}
layer {
  name: "inception_3b/relu_1x1"
  type: "ReLU"
  bottom: "inception_3b/1x1"
  top: "inception_3b/1x1"
}
layer {
  name: "inception_3b/3x3_reduce"
  type: "Convolution"
  bottom: "inception_3a/output"
  top: "inception_3b/3x3_reduce"
  param {
    lr_mult: 1
    decay_mult: 1
  }
  param {
    lr_mult: 2
    decay_mult: 0
  }
  convolution_param {
    num_output: 128
    kernel_size: 1
    weight_filler {
      type: "xavier"
      std: 0.09
    }
    bias_filler {
      type: "constant"
      value: 0.2
    }
  }
}
layer {
  name: "inception_3b/relu_3x3_reduce"
  type: "ReLU"
  bottom: "inception_3b/3x3_reduce"
  top: "inception_3b/3x3_reduce"
}
layer {
  name: "inception_3b/3x3"
  type: "Convolution"
  bottom: "inception_3b/3x3_reduce"
  top: "inception_3b/3x3"
  param {
    lr_mult: 1
    decay_mult: 1
  }
  param {
    lr_mult: 2
    decay_mult: 0
  }
  convolution_param {
    num_output: 192
    pad: 1
    kernel_size: 3
    weight_filler {
      type: "xavier"
      std: 0.03
    }
    bias_filler {
      type: "constant"
      value: 0.2
    }
  }
}
layer {
  name: "inception_3b/relu_3x3"
  type: "ReLU"
  bottom: "inception_3b/3x3"
  top: "inception_3b/3x3"
}
layer {
  name: "inception_3b/5x5_reduce"
  type: "Convolution"
  bottom: "inception_3a/output"
  top: "inception_3b/5x5_reduce"
  param {
    lr_mult: 1
    decay_mult: 1
  }
  param {
    lr_mult: 2
    decay_mult: 0
  }
  convolution_param {
    num_output: 32
    kernel_size: 1
    weight_filler {
      type: "xavier"
      std: 0.2
    }
    bias_filler {
      type: "constant"
      value: 0.2
    }
  }
}
layer {
  name: "inception_3b/relu_5x5_reduce"
  type: "ReLU"
  bottom: "inception_3b/5x5_reduce"
  top: "inception_3b/5x5_reduce"
}
layer {
  name: "inception_3b/5x5"
  type: "Convolution"
  bottom: "inception_3b/5x5_reduce"
  top: "inception_3b/5x5"
  param {
    lr_mult: 1
    decay_mult: 1
  }
  param {
    lr_mult: 2
    decay_mult: 0
  }
  convolution_param {
    num_output: 96
    pad: 2
    kernel_size: 5
    weight_filler {
      type: "xavier"
      std: 0.03
    }
    bias_filler {
      type: "constant"
      value: 0.2
    }
  }
}
layer {
  name: "inception_3b/relu_5x5"
  type: "ReLU"
  bottom: "inception_3b/5x5"
  top: "inception_3b/5x5"
}
layer {
  name: "inception_3b/pool"
  type: "Pooling"
  bottom: "inception_3a/output"
  top: "inception_3b/pool"
  pooling_param {
    pool: MAX
    kernel_size: 3
    stride: 1
    pad: 1
  }
}
layer {
  name: "inception_3b/pool_proj"
  type: "Convolution"
  bottom: "inception_3b/pool"
  top: "inception_3b/pool_proj"
  param {
    lr_mult: 1
    decay_mult: 1
  }
  param {
    lr_mult: 2
    decay_mult: 0
  }
  convolution_param {
    num_output: 64
    kernel_size: 1
    weight_filler {
      type: "xavier"
      std: 0.1
    }
    bias_filler {
      type: "constant"
      value: 0.2
    }
  }
}
layer {
  name: "inception_3b/relu_pool_proj"
  type: "ReLU"
  bottom: "inception_3b/pool_proj"
  top: "inception_3b/pool_proj"
}
layer {
  name: "inception_3b/output"
  type: "Concat"
  bottom: "inception_3b/1x1"
  bottom: "inception_3b/3x3"
  bottom: "inception_3b/5x5"
  bottom: "inception_3b/pool_proj"
  top: "inception_3b/output"
}
layer {
  name: "pool3/3x3_s2"
  type: "Pooling"
  bottom: "inception_3b/output"
  top: "pool3/3x3_s2"
  pooling_param {
    pool: MAX
    kernel_size: 3
    stride: 2
  }
}
layer {
  name: "inception_4a/1x1"
  type: "Convolution"
  bottom: "pool3/3x3_s2"
  top: "inception_4a/1x1"
  param {
    lr_mult: 1
    decay_mult: 1
  }
  param {
    lr_mult: 2
    decay_mult: 0
  }
  convolution_param {
    num_output: 192
    kernel_size: 1
    weight_filler {
      type: "xavier"
      std: 0.03
    }
    bias_filler {
      type: "constant"
      value: 0.2
    }
  }
}
layer {
  name: "inception_4a/relu_1x1"
  type: "ReLU"
  bottom: "inception_4a/1x1"
  top: "inception_4a/1x1"
}
layer {
  name: "inception_4a/3x3_reduce"
  type: "Convolution"
  bottom: "pool3/3x3_s2"
  top: "inception_4a/3x3_reduce"
  param {
    lr_mult: 1
    decay_mult: 1
  }
  param {
    lr_mult: 2
    decay_mult: 0
  }
  convolution_param {
    num_output: 96
    kernel_size: 1
    weight_filler {
      type: "xavier"
      std: 0.09
    }
    bias_filler {
      type: "constant"
      value: 0.2
    }
  }
}
layer {
  name: "inception_4a/relu_3x3_reduce"
  type: "ReLU"
  bottom: "inception_4a/3x3_reduce"
  top: "inception_4a/3x3_reduce"
}
layer {
  name: "inception_4a/3x3"
  type: "Convolution"
  bottom: "inception_4a/3x3_reduce"
  top: "inception_4a/3x3"
  param {
    lr_mult: 1
    decay_mult: 1
  }
  param {
    lr_mult: 2
    decay_mult: 0
  }
  convolution_param {
    num_output: 208
    pad: 1
    kernel_size: 3
    weight_filler {
      type: "xavier"
      std: 0.03
    }
    bias_filler {
      type: "constant"
      value: 0.2
    }
  }
}
layer {
  name: "inception_4a/relu_3x3"
  type: "ReLU"
  bottom: "inception_4a/3x3"
  top: "inception_4a/3x3"
}
layer {
  name: "inception_4a/5x5_reduce"
  type: "Convolution"
  bottom: "pool3/3x3_s2"
  top: "inception_4a/5x5_reduce"
  param {
    lr_mult: 1
    decay_mult: 1
  }
  param {
    lr_mult: 2
    decay_mult: 0
  }
  convolution_param {
    num_output: 16
    kernel_size: 1
    weight_filler {
      type: "xavier"
      std: 0.2
    }
    bias_filler {
      type: "constant"
      value: 0.2
    }
  }
}
layer {
  name: "inception_4a/relu_5x5_reduce"
  type: "ReLU"
  bottom: "inception_4a/5x5_reduce"
  top: "inception_4a/5x5_reduce"
}
layer {
  name: "inception_4a/5x5"
  type: "Convolution"
  bottom: "inception_4a/5x5_reduce"
  top: "inception_4a/5x5"
  param {
    lr_mult: 1
    decay_mult: 1
  }
  param {
    lr_mult: 2
    decay_mult: 0
  }
  convolution_param {
    num_output: 48
    pad: 2
    kernel_size: 5
    weight_filler {
      type: "xavier"
      std: 0.03
    }
    bias_filler {
      type: "constant"
      value: 0.2
    }
  }
}
layer {
  name: "inception_4a/relu_5x5"
  type: "ReLU"
  bottom: "inception_4a/5x5"
  top: "inception_4a/5x5"
}
layer {
  name: "inception_4a/pool"
  type: "Pooling"
  bottom: "pool3/3x3_s2"
  top: "inception_4a/pool"
  pooling_param {
    pool: MAX
    kernel_size: 3
    stride: 1
    pad: 1
  }
}
layer {
  name: "inception_4a/pool_proj"
  type: "Convolution"
  bottom: "inception_4a/pool"
  top: "inception_4a/pool_proj"
  param {
    lr_mult: 1
    decay_mult: 1
  }
  param {
    lr_mult: 2
    decay_mult: 0
  }
  convolution_param {
    num_output: 64
    kernel_size: 1
    weight_filler {
      type: "xavier"
      std: 0.1
    }
    bias_filler {
      type: "constant"
      value: 0.2
    }
  }
}
layer {
  name: "inception_4a/relu_pool_proj"
  type: "ReLU"
  bottom: "inception_4a/pool_proj"
  top: "inception_4a/pool_proj"
}
layer {
  name: "inception_4a/output"
  type: "Concat"
  bottom: "inception_4a/1x1"
  bottom: "inception_4a/3x3"
  bottom: "inception_4a/5x5"
  bottom: "inception_4a/pool_proj"
  top: "inception_4a/output"
}
layer {
  name: "loss1/ave_pool"
  type: "Pooling"
  bottom: "inception_4a/output"
  top: "loss1/ave_pool"
  pooling_param {
    pool: AVE
    kernel_size: 5
    stride: 3
  }
}
layer {
  name: "loss1/conv"
  type: "Convolution"
  bottom: "loss1/ave_pool"
  top: "loss1/conv"
  param {
    lr_mult: 1
    decay_mult: 1
  }
  param {
    lr_mult: 2
    decay_mult: 0
  }
  convolution_param {
    num_output: 128
    kernel_size: 1
    weight_filler {
      type: "xavier"
      std: 0.08
    }
    bias_filler {
      type: "constant"
      value: 0.2
    }
  }
}
layer {
  name: "loss1/relu_conv"
  type: "ReLU"
  bottom: "loss1/conv"
  top: "loss1/conv"
}
layer {
  name: "loss1/fc"
  type: "InnerProduct"
  bottom: "loss1/conv"
  top: "loss1/fc"
  param {
    lr_mult: 1
    decay_mult: 1
  }
  param {
    lr_mult: 2
    decay_mult: 0
  }
  inner_product_param {
    num_output: 1024
    weight_filler {
      type: "xavier"
      std: 0.02
    }
    bias_filler {
      type: "constant"
      value: 0.2
    }
  }
}
layer {
  name: "loss1/relu_fc"
  type: "ReLU"
  bottom: "loss1/fc"
  top: "loss1/fc"
}
layer {
  name: "loss1/drop_fc"
  type: "Dropout"
  bottom: "loss1/fc"
  top: "loss1/fc"
  dropout_param {
    dropout_ratio: 0.7
  }
}
layer {
  name: "loss1/classifier"
  type: "InnerProduct"
  bottom: "loss1/fc"
  top: "loss1/classifier"
  param {
    lr_mult: 1
    decay_mult: 1
  }
  param {
    lr_mult: 2
    decay_mult: 0
  }
  inner_product_param {
    num_output: 2
    weight_filler {
      type: "xavier"
      std: 0.0009765625
    }
    bias_filler {
      type: "constant"
      value: 0
    }
  }
}
layer {
  name: "loss1/loss"
  type: "SoftmaxWithLoss"
  bottom: "loss1/classifier"
  bottom: "label"
  top: "loss1/loss1"
  loss_weight: 0.3
}
layer {
  name: "inception_4b/1x1"
  type: "Convolution"
  bottom: "inception_4a/output"
  top: "inception_4b/1x1"
  param {
    lr_mult: 1
    decay_mult: 1
  }
  param {
    lr_mult: 2
    decay_mult: 0
  }
  convolution_param {
    num_output: 160
    kernel_size: 1
    weight_filler {
      type: "xavier"
      std: 0.03
    }
    bias_filler {
      type: "constant"
      value: 0.2
    }
  }
}
layer {
  name: "inception_4b/relu_1x1"
  type: "ReLU"
  bottom: "inception_4b/1x1"
  top: "inception_4b/1x1"
}
layer {
  name: "inception_4b/3x3_reduce"
  type: "Convolution"
  bottom: "inception_4a/output"
  top: "inception_4b/3x3_reduce"
  param {
    lr_mult: 1
    decay_mult: 1
  }
  param {
    lr_mult: 2
    decay_mult: 0
  }
  convolution_param {
    num_output: 112
    kernel_size: 1
    weight_filler {
      type: "xavier"
      std: 0.09
    }
    bias_filler {
      type: "constant"
      value: 0.2
    }
  }
}
layer {
  name: "inception_4b/relu_3x3_reduce"
  type: "ReLU"
  bottom: "inception_4b/3x3_reduce"
  top: "inception_4b/3x3_reduce"
}
layer {
  name: "inception_4b/3x3"
  type: "Convolution"
  bottom: "inception_4b/3x3_reduce"
  top: "inception_4b/3x3"
  param {
    lr_mult: 1
    decay_mult: 1
  }
  param {
    lr_mult: 2
    decay_mult: 0
  }
  convolution_param {
    num_output: 224
    pad: 1
    kernel_size: 3
    weight_filler {
      type: "xavier"
      std: 0.03
    }
    bias_filler {
      type: "constant"
      value: 0.2
    }
  }
}
layer {
  name: "inception_4b/relu_3x3"
  type: "ReLU"
  bottom: "inception_4b/3x3"
  top: "inception_4b/3x3"
}
layer {
  name: "inception_4b/5x5_reduce"
  type: "Convolution"
  bottom: "inception_4a/output"
  top: "inception_4b/5x5_reduce"
  param {
    lr_mult: 1
    decay_mult: 1
  }
  param {
    lr_mult: 2
    decay_mult: 0
  }
  convolution_param {
    num_output: 24
    kernel_size: 1
    weight_filler {
      type: "xavier"
      std: 0.2
    }
    bias_filler {
      type: "constant"
      value: 0.2
    }
  }
}
layer {
  name: "inception_4b/relu_5x5_reduce"
  type: "ReLU"
  bottom: "inception_4b/5x5_reduce"
  top: "inception_4b/5x5_reduce"
}
layer {
  name: "inception_4b/5x5"
  type: "Convolution"
  bottom: "inception_4b/5x5_reduce"
  top: "inception_4b/5x5"
  param {
    lr_mult: 1
    decay_mult: 1
  }
  param {
    lr_mult: 2
    decay_mult: 0
  }
  convolution_param {
    num_output: 64
    pad: 2
    kernel_size: 5
    weight_filler {
      type: "xavier"
      std: 0.03
    }
    bias_filler {
      type: "constant"
      value: 0.2
    }
  }
}
layer {
  name: "inception_4b/relu_5x5"
  type: "ReLU"
  bottom: "inception_4b/5x5"
  top: "inception_4b/5x5"
}
layer {
  name: "inception_4b/pool"
  type: "Pooling"
  bottom: "inception_4a/output"
  top: "inception_4b/pool"
  pooling_param {
    pool: MAX
    kernel_size: 3
    stride: 1
    pad: 1
  }
}
layer {
  name: "inception_4b/pool_proj"
  type: "Convolution"
  bottom: "inception_4b/pool"
  top: "inception_4b/pool_proj"
  param {
    lr_mult: 1
    decay_mult: 1
  }
  param {
    lr_mult: 2
    decay_mult: 0
  }
  convolution_param {
    num_output: 64
    kernel_size: 1
    weight_filler {
      type: "xavier"
      std: 0.1
    }
    bias_filler {
      type: "constant"
      value: 0.2
    }
  }
}
layer {
  name: "inception_4b/relu_pool_proj"
  type: "ReLU"
  bottom: "inception_4b/pool_proj"
  top: "inception_4b/pool_proj"
}
layer {
  name: "inception_4b/output"
  type: "Concat"
  bottom: "inception_4b/1x1"
  bottom: "inception_4b/3x3"
  bottom: "inception_4b/5x5"
  bottom: "inception_4b/pool_proj"
  top: "inception_4b/output"
}
layer {
  name: "inception_4c/1x1"
  type: "Convolution"
  bottom: "inception_4b/output"
  top: "inception_4c/1x1"
  param {
    lr_mult: 1
    decay_mult: 1
  }
  param {
    lr_mult: 2
    decay_mult: 0
  }
  convolution_param {
    num_output: 128
    kernel_size: 1
    weight_filler {
      type: "xavier"
      std: 0.03
    }
    bias_filler {
      type: "constant"
      value: 0.2
    }
  }
}
layer {
  name: "inception_4c/relu_1x1"
  type: "ReLU"
  bottom: "inception_4c/1x1"
  top: "inception_4c/1x1"
}
layer {
  name: "inception_4c/3x3_reduce"
  type: "Convolution"
  bottom: "inception_4b/output"
  top: "inception_4c/3x3_reduce"
  param {
    lr_mult: 1
    decay_mult: 1
  }
  param {
    lr_mult: 2
    decay_mult: 0
  }
  convolution_param {
    num_output: 128
    kernel_size: 1
    weight_filler {
      type: "xavier"
      std: 0.09
    }
    bias_filler {
      type: "constant"
      value: 0.2
    }
  }
}
layer {
  name: "inception_4c/relu_3x3_reduce"
  type: "ReLU"
  bottom: "inception_4c/3x3_reduce"
  top: "inception_4c/3x3_reduce"
}
layer {
  name: "inception_4c/3x3"
  type: "Convolution"
  bottom: "inception_4c/3x3_reduce"
  top: "inception_4c/3x3"
  param {
    lr_mult: 1
    decay_mult: 1
  }
  param {
    lr_mult: 2
    decay_mult: 0
  }
  convolution_param {
    num_output: 256
    pad: 1
    kernel_size: 3
    weight_filler {
      type: "xavier"
      std: 0.03
    }
    bias_filler {
      type: "constant"
      value: 0.2
    }
  }
}
layer {
  name: "inception_4c/relu_3x3"
  type: "ReLU"
  bottom: "inception_4c/3x3"
  top: "inception_4c/3x3"
}
layer {
  name: "inception_4c/5x5_reduce"
  type: "Convolution"
  bottom: "inception_4b/output"
  top: "inception_4c/5x5_reduce"
  param {
    lr_mult: 1
    decay_mult: 1
  }
  param {
    lr_mult: 2
    decay_mult: 0
  }
  convolution_param {
    num_output: 24
    kernel_size: 1
    weight_filler {
      type: "xavier"
      std: 0.2
    }
    bias_filler {
      type: "constant"
      value: 0.2
    }
  }
}
layer {
  name: "inception_4c/relu_5x5_reduce"
  type: "ReLU"
  bottom: "inception_4c/5x5_reduce"
  top: "inception_4c/5x5_reduce"
}
layer {
  name: "inception_4c/5x5"
  type: "Convolution"
  bottom: "inception_4c/5x5_reduce"
  top: "inception_4c/5x5"
  param {
    lr_mult: 1
    decay_mult: 1
  }
  param {
    lr_mult: 2
    decay_mult: 0
  }
  convolution_param {
    num_output: 64
    pad: 2
    kernel_size: 5
    weight_filler {
      type: "xavier"
      std: 0.03
    }
    bias_filler {
      type: "constant"
      value: 0.2
    }
  }
}
layer {
  name: "inception_4c/relu_5x5"
  type: "ReLU"
  bottom: "inception_4c/5x5"
  top: "inception_4c/5x5"
}
layer {
  name: "inception_4c/pool"
  type: "Pooling"
  bottom: "inception_4b/output"
  top: "inception_4c/pool"
  pooling_param {
    pool: MAX
    kernel_size: 3
    stride: 1
    pad: 1
  }
}
layer {
  name: "inception_4c/pool_proj"
  type: "Convolution"
  bottom: "inception_4c/pool"
  top: "inception_4c/pool_proj"
  param {
    lr_mult: 1
    decay_mult: 1
  }
  param {
    lr_mult: 2
    decay_mult: 0
  }
  convolution_param {
    num_output: 64
    kernel_size: 1
    weight_filler {
      type: "xavier"
      std: 0.1
    }
    bias_filler {
      type: "constant"
      value: 0.2
    }
  }
}
layer {
  name: "inception_4c/relu_pool_proj"
  type: "ReLU"
  bottom: "inception_4c/pool_proj"
  top: "inception_4c/pool_proj"
}
layer {
  name: "inception_4c/output"
  type: "Concat"
  bottom: "inception_4c/1x1"
  bottom: "inception_4c/3x3"
  bottom: "inception_4c/5x5"
  bottom: "inception_4c/pool_proj"
  top: "inception_4c/output"
}
layer {
  name: "inception_4d/1x1"
  type: "Convolution"
  bottom: "inception_4c/output"
  top: "inception_4d/1x1"
  param {
    lr_mult: 1
    decay_mult: 1
  }
  param {
    lr_mult: 2
    decay_mult: 0
  }
  convolution_param {
    num_output: 112
    kernel_size: 1
    weight_filler {
      type: "xavier"
      std: 0.03
    }
    bias_filler {
      type: "constant"
      value: 0.2
    }
  }
}
layer {
  name: "inception_4d/relu_1x1"
  type: "ReLU"
  bottom: "inception_4d/1x1"
  top: "inception_4d/1x1"
}
layer {
  name: "inception_4d/3x3_reduce"
  type: "Convolution"
  bottom: "inception_4c/output"
  top: "inception_4d/3x3_reduce"
  param {
    lr_mult: 1
    decay_mult: 1
  }
  param {
    lr_mult: 2
    decay_mult: 0
  }
  convolution_param {
    num_output: 144
    kernel_size: 1
    weight_filler {
      type: "xavier"
      std: 0.09
    }
    bias_filler {
      type: "constant"
      value: 0.2
    }
  }
}
layer {
  name: "inception_4d/relu_3x3_reduce"
  type: "ReLU"
  bottom: "inception_4d/3x3_reduce"
  top: "inception_4d/3x3_reduce"
}
layer {
  name: "inception_4d/3x3"
  type: "Convolution"
  bottom: "inception_4d/3x3_reduce"
  top: "inception_4d/3x3"
  param {
    lr_mult: 1
    decay_mult: 1
  }
  param {
    lr_mult: 2
    decay_mult: 0
  }
  convolution_param {
    num_output: 288
    pad: 1
    kernel_size: 3
    weight_filler {
      type: "xavier"
      std: 0.03
    }
    bias_filler {
      type: "constant"
      value: 0.2
    }
  }
}
layer {
  name: "inception_4d/relu_3x3"
  type: "ReLU"
  bottom: "inception_4d/3x3"
  top: "inception_4d/3x3"
}
layer {
  name: "inception_4d/5x5_reduce"
  type: "Convolution"
  bottom: "inception_4c/output"
  top: "inception_4d/5x5_reduce"
  param {
    lr_mult: 1
    decay_mult: 1
  }
  param {
    lr_mult: 2
    decay_mult: 0
  }
  convolution_param {
    num_output: 32
    kernel_size: 1
    weight_filler {
      type: "xavier"
      std: 0.2
    }
    bias_filler {
      type: "constant"
      value: 0.2
    }
  }
}
layer {
  name: "inception_4d/relu_5x5_reduce"
  type: "ReLU"
  bottom: "inception_4d/5x5_reduce"
  top: "inception_4d/5x5_reduce"
}
layer {
  name: "inception_4d/5x5"
  type: "Convolution"
  bottom: "inception_4d/5x5_reduce"
  top: "inception_4d/5x5"
  param {
    lr_mult: 1
    decay_mult: 1
  }
  param {
    lr_mult: 2
    decay_mult: 0
  }
  convolution_param {
    num_output: 64
    pad: 2
    kernel_size: 5
    weight_filler {
      type: "xavier"
      std: 0.03
    }
    bias_filler {
      type: "constant"
      value: 0.2
    }
  }
}
layer {
  name: "inception_4d/relu_5x5"
  type: "ReLU"
  bottom: "inception_4d/5x5"
  top: "inception_4d/5x5"
}
layer {
  name: "inception_4d/pool"
  type: "Pooling"
  bottom: "inception_4c/output"
  top: "inception_4d/pool"
  pooling_param {
    pool: MAX
    kernel_size: 3
    stride: 1
    pad: 1
  }
}
layer {
  name: "inception_4d/pool_proj"
  type: "Convolution"
  bottom: "inception_4d/pool"
  top: "inception_4d/pool_proj"
  param {
    lr_mult: 1
    decay_mult: 1
  }
  param {
    lr_mult: 2
    decay_mult: 0
  }
  convolution_param {
    num_output: 64
    kernel_size: 1
    weight_filler {
      type: "xavier"
      std: 0.1
    }
    bias_filler {
      type: "constant"
      value: 0.2
    }
  }
}
layer {
  name: "inception_4d/relu_pool_proj"
  type: "ReLU"
  bottom: "inception_4d/pool_proj"
  top: "inception_4d/pool_proj"
}
layer {
  name: "inception_4d/output"
  type: "Concat"
  bottom: "inception_4d/1x1"
  bottom: "inception_4d/3x3"
  bottom: "inception_4d/5x5"
  bottom: "inception_4d/pool_proj"
  top: "inception_4d/output"
}
layer {
  name: "loss2/ave_pool"
  type: "Pooling"
  bottom: "inception_4d/output"
  top: "loss2/ave_pool"
  pooling_param {
    pool: AVE
    kernel_size: 5
    stride: 3
  }
}
layer {
  name: "loss2/conv"
  type: "Convolution"
  bottom: "loss2/ave_pool"
  top: "loss2/conv"
  param {
    lr_mult: 1
    decay_mult: 1
  }
  param {
    lr_mult: 2
    decay_mult: 0
  }
  convolution_param {
    num_output: 128
    kernel_size: 1
    weight_filler {
      type: "xavier"
      std: 0.08
    }
    bias_filler {
      type: "constant"
      value: 0.2
    }
  }
}
layer {
  name: "loss2/relu_conv"
  type: "ReLU"
  bottom: "loss2/conv"
  top: "loss2/conv"
}
layer {
  name: "loss2/fc"
  type: "InnerProduct"
  bottom: "loss2/conv"
  top: "loss2/fc"
  param {
    lr_mult: 1
    decay_mult: 1
  }
  param {
    lr_mult: 2
    decay_mult: 0
  }
  inner_product_param {
    num_output: 1024
    weight_filler {
      type: "xavier"
      std: 0.02
    }
    bias_filler {
      type: "constant"
      value: 0.2
    }
  }
}
layer {
  name: "loss2/relu_fc"
  type: "ReLU"
  bottom: "loss2/fc"
  top: "loss2/fc"
}
layer {
  name: "loss2/drop_fc"
  type: "Dropout"
  bottom: "loss2/fc"
  top: "loss2/fc"
  dropout_param {
    dropout_ratio: 0.7
  }
}
layer {
  name: "loss2/classifier"
  type: "InnerProduct"
  bottom: "loss2/fc"
  top: "loss2/classifier"
  param {
    lr_mult: 1
    decay_mult: 1
  }
  param {
    lr_mult: 2
    decay_mult: 0
  }
  inner_product_param {
    num_output: 2
    weight_filler {
      type: "xavier"
      std: 0.0009765625
    }
    bias_filler {
      type: "constant"
      value: 0
    }
  }
}
layer {
  name: "loss2/loss"
  type: "SoftmaxWithLoss"
  bottom: "loss2/classifier"
  bottom: "label"
  top: "loss2/loss1"
  loss_weight: 0.3
}
layer {
  name: "inception_4e/1x1"
  type: "Convolution"
  bottom: "inception_4d/output"
  top: "inception_4e/1x1"
  param {
    lr_mult: 1
    decay_mult: 1
  }
  param {
    lr_mult: 2
    decay_mult: 0
  }
  convolution_param {
    num_output: 256
    kernel_size: 1
    weight_filler {
      type: "xavier"
      std: 0.03
    }
    bias_filler {
      type: "constant"
      value: 0.2
    }
  }
}
layer {
  name: "inception_4e/relu_1x1"
  type: "ReLU"
  bottom: "inception_4e/1x1"
  top: "inception_4e/1x1"
}
layer {
  name: "inception_4e/3x3_reduce"
  type: "Convolution"
  bottom: "inception_4d/output"
  top: "inception_4e/3x3_reduce"
  param {
    lr_mult: 1
    decay_mult: 1
  }
  param {
    lr_mult: 2
    decay_mult: 0
  }
  convolution_param {
    num_output: 160
    kernel_size: 1
    weight_filler {
      type: "xavier"
      std: 0.09
    }
    bias_filler {
      type: "constant"
      value: 0.2
    }
  }
}
layer {
  name: "inception_4e/relu_3x3_reduce"
  type: "ReLU"
  bottom: "inception_4e/3x3_reduce"
  top: "inception_4e/3x3_reduce"
}
layer {
  name: "inception_4e/3x3"
  type: "Convolution"
  bottom: "inception_4e/3x3_reduce"
  top: "inception_4e/3x3"
  param {
    lr_mult: 1
    decay_mult: 1
  }
  param {
    lr_mult: 2
    decay_mult: 0
  }
  convolution_param {
    num_output: 320
    pad: 1
    kernel_size: 3
    weight_filler {
      type: "xavier"
      std: 0.03
    }
    bias_filler {
      type: "constant"
      value: 0.2
    }
  }
}
layer {
  name: "inception_4e/relu_3x3"
  type: "ReLU"
  bottom: "inception_4e/3x3"
  top: "inception_4e/3x3"
}
layer {
  name: "inception_4e/5x5_reduce"
  type: "Convolution"
  bottom: "inception_4d/output"
  top: "inception_4e/5x5_reduce"
  param {
    lr_mult: 1
    decay_mult: 1
  }
  param {
    lr_mult: 2
    decay_mult: 0
  }
  convolution_param {
    num_output: 32
    kernel_size: 1
    weight_filler {
      type: "xavier"
      std: 0.2
    }
    bias_filler {
      type: "constant"
      value: 0.2
    }
  }
}
layer {
  name: "inception_4e/relu_5x5_reduce"
  type: "ReLU"
  bottom: "
I0511 06:34:28.455550  8175 layer_factory.hpp:74] Creating layer data
I0511 06:34:28.455581  8175 net.cpp:76] Creating Layer data
I0511 06:34:28.455595  8175 net.cpp:334] data -> data
I0511 06:34:28.455624  8175 net.cpp:334] data -> label
I0511 06:34:28.455644  8175 net.cpp:105] Setting up data
I0511 06:34:28.455754  8175 db.cpp:34] Opened lmdb train_lmdb
I0511 06:34:28.456055  8175 data_layer.cpp:67] output data size: 32,3,224,224
I0511 06:34:28.462828  8175 net.cpp:112] Top shape: 32 3 224 224 (4816896)
I0511 06:34:28.462854  8175 net.cpp:112] Top shape: 32 1 1 1 (32)
I0511 06:34:28.462865  8175 layer_factory.hpp:74] Creating layer label_data_1_split
I0511 06:34:28.462882  8175 net.cpp:76] Creating Layer label_data_1_split
I0511 06:34:28.462890  8175 net.cpp:372] label_data_1_split <- label
I0511 06:34:28.462920  8175 net.cpp:334] label_data_1_split -> label_data_1_split_0
I0511 06:34:28.462936  8175 net.cpp:334] label_data_1_split -> label_data_1_split_1
I0511 06:34:28.462945  8175 net.cpp:334] label_data_1_split -> label_data_1_split_2
I0511 06:34:28.462955  8175 net.cpp:105] Setting up label_data_1_split
I0511 06:34:28.462965  8175 net.cpp:112] Top shape: 32 1 1 1 (32)
I0511 06:34:28.462970  8175 net.cpp:112] Top shape: 32 1 1 1 (32)
I0511 06:34:28.462975  8175 net.cpp:112] Top shape: 32 1 1 1 (32)
I0511 06:34:28.462981  8175 layer_factory.hpp:74] Creating layer conv1/7x7_s2
I0511 06:34:28.462997  8175 net.cpp:76] Creating Layer conv1/7x7_s2
I0511 06:34:28.463003  8175 net.cpp:372] conv1/7x7_s2 <- data
I0511 06:34:28.463012  8175 net.cpp:334] conv1/7x7_s2 -> conv1/7x7_s2
I0511 06:34:28.463024  8175 net.cpp:105] Setting up conv1/7x7_s2
I0511 06:34:28.463143  8175 net.cpp:112] Top shape: 32 64 112 112 (25690112)
I0511 06:34:28.463196  8175 layer_factory.hpp:74] Creating layer conv1/relu_7x7
I0511 06:34:28.463207  8175 net.cpp:76] Creating Layer conv1/relu_7x7
I0511 06:34:28.463213  8175 net.cpp:372] conv1/relu_7x7 <- conv1/7x7_s2
I0511 06:34:28.463222  8175 net.cpp:323] conv1/relu_7x7 -> conv1/7x7_s2 (in-place)
I0511 06:34:28.463230  8175 net.cpp:105] Setting up conv1/relu_7x7
I0511 06:34:28.463238  8175 net.cpp:112] Top shape: 32 64 112 112 (25690112)
I0511 06:34:28.463244  8175 layer_factory.hpp:74] Creating layer pool1/3x3_s2
I0511 06:34:28.463255  8175 net.cpp:76] Creating Layer pool1/3x3_s2
I0511 06:34:28.463260  8175 net.cpp:372] pool1/3x3_s2 <- conv1/7x7_s2
I0511 06:34:28.463268  8175 net.cpp:334] pool1/3x3_s2 -> pool1/3x3_s2
I0511 06:34:28.463299  8175 net.cpp:105] Setting up pool1/3x3_s2
I0511 06:34:28.463312  8175 net.cpp:112] Top shape: 32 64 56 56 (6422528)
I0511 06:34:28.463320  8175 layer_factory.hpp:74] Creating layer pool1/norm1
I0511 06:34:28.463330  8175 net.cpp:76] Creating Layer pool1/norm1
I0511 06:34:28.463336  8175 net.cpp:372] pool1/norm1 <- pool1/3x3_s2
I0511 06:34:28.463345  8175 net.cpp:334] pool1/norm1 -> pool1/norm1
I0511 06:34:28.463354  8175 net.cpp:105] Setting up pool1/norm1
I0511 06:34:28.463361  8175 net.cpp:112] Top shape: 32 64 56 56 (6422528)
I0511 06:34:28.463366  8175 layer_factory.hpp:74] Creating layer conv2/3x3_reduce
I0511 06:34:28.463376  8175 net.cpp:76] Creating Layer conv2/3x3_reduce
I0511 06:34:28.463382  8175 net.cpp:372] conv2/3x3_reduce <- pool1/norm1
I0511 06:34:28.463389  8175 net.cpp:334] conv2/3x3_reduce -> conv2/3x3_reduce
I0511 06:34:28.463399  8175 net.cpp:105] Setting up conv2/3x3_reduce
I0511 06:34:28.463445  8175 net.cpp:112] Top shape: 32 64 56 56 (6422528)
I0511 06:34:28.463459  8175 layer_factory.hpp:74] Creating layer conv2/relu_3x3_reduce
I0511 06:34:28.463466  8175 net.cpp:76] Creating Layer conv2/relu_3x3_reduce
I0511 06:34:28.463472  8175 net.cpp:372] conv2/relu_3x3_reduce <- conv2/3x3_reduce
I0511 06:34:28.463480  8175 net.cpp:323] conv2/relu_3x3_reduce -> conv2/3x3_reduce (in-place)
I0511 06:34:28.463487  8175 net.cpp:105] Setting up conv2/relu_3x3_reduce
I0511 06:34:28.463493  8175 net.cpp:112] Top shape: 32 64 56 56 (6422528)
I0511 06:34:28.463498  8175 layer_factory.hpp:74] Creating layer conv2/3x3
I0511 06:34:28.463508  8175 net.cpp:76] Creating Layer conv2/3x3
I0511 06:34:28.463513  8175 net.cpp:372] conv2/3x3 <- conv2/3x3_reduce
I0511 06:34:28.463522  8175 net.cpp:334] conv2/3x3 -> conv2/3x3
I0511 06:34:28.463531  8175 net.cpp:105] Setting up conv2/3x3
I0511 06:34:28.464747  8175 net.cpp:112] Top shape: 32 192 56 56 (19267584)
I0511 06:34:28.464776  8175 layer_factory.hpp:74] Creating layer conv2/relu_3x3
I0511 06:34:28.464787  8175 net.cpp:76] Creating Layer conv2/relu_3x3
I0511 06:34:28.464792  8175 net.cpp:372] conv2/relu_3x3 <- conv2/3x3
I0511 06:34:28.464800  8175 net.cpp:323] conv2/relu_3x3 -> conv2/3x3 (in-place)
I0511 06:34:28.464810  8175 net.cpp:105] Setting up conv2/relu_3x3
I0511 06:34:28.464823  8175 net.cpp:112] Top shape: 32 192 56 56 (19267584)
I0511 06:34:28.464833  8175 layer_factory.hpp:74] Creating layer conv2/norm2
I0511 06:34:28.464884  8175 net.cpp:76] Creating Layer conv2/norm2
I0511 06:34:28.464900  8175 net.cpp:372] conv2/norm2 <- conv2/3x3
I0511 06:34:28.464910  8175 net.cpp:334] conv2/norm2 -> conv2/norm2
I0511 06:34:28.464920  8175 net.cpp:105] Setting up conv2/norm2
I0511 06:34:28.464926  8175 net.cpp:112] Top shape: 32 192 56 56 (19267584)
I0511 06:34:28.464931  8175 layer_factory.hpp:74] Creating layer pool2/3x3_s2
I0511 06:34:28.464946  8175 net.cpp:76] Creating Layer pool2/3x3_s2
I0511 06:34:28.464952  8175 net.cpp:372] pool2/3x3_s2 <- conv2/norm2
I0511 06:34:28.464959  8175 net.cpp:334] pool2/3x3_s2 -> pool2/3x3_s2
I0511 06:34:28.464968  8175 net.cpp:105] Setting up pool2/3x3_s2
I0511 06:34:28.464975  8175 net.cpp:112] Top shape: 32 192 28 28 (4816896)
I0511 06:34:28.464980  8175 layer_factory.hpp:74] Creating layer pool2/3x3_s2_pool2/3x3_s2_0_split
I0511 06:34:28.464988  8175 net.cpp:76] Creating Layer pool2/3x3_s2_pool2/3x3_s2_0_split
I0511 06:34:28.465010  8175 net.cpp:372] pool2/3x3_s2_pool2/3x3_s2_0_split <- pool2/3x3_s2
I0511 06:34:28.465021  8175 net.cpp:334] pool2/3x3_s2_pool2/3x3_s2_0_split -> pool2/3x3_s2_pool2/3x3_s2_0_split_0
I0511 06:34:28.465031  8175 net.cpp:334] pool2/3x3_s2_pool2/3x3_s2_0_split -> pool2/3x3_s2_pool2/3x3_s2_0_split_1
I0511 06:34:28.465040  8175 net.cpp:334] pool2/3x3_s2_pool2/3x3_s2_0_split -> pool2/3x3_s2_pool2/3x3_s2_0_split_2
I0511 06:34:28.465049  8175 net.cpp:334] pool2/3x3_s2_pool2/3x3_s2_0_split -> pool2/3x3_s2_pool2/3x3_s2_0_split_3
I0511 06:34:28.465056  8175 net.cpp:105] Setting up pool2/3x3_s2_pool2/3x3_s2_0_split
I0511 06:34:28.465064  8175 net.cpp:112] Top shape: 32 192 28 28 (4816896)
I0511 06:34:28.465068  8175 net.cpp:112] Top shape: 32 192 28 28 (4816896)
I0511 06:34:28.465073  8175 net.cpp:112] Top shape: 32 192 28 28 (4816896)
I0511 06:34:28.465077  8175 net.cpp:112] Top shape: 32 192 28 28 (4816896)
I0511 06:34:28.465083  8175 layer_factory.hpp:74] Creating layer inception_3a/1x1
I0511 06:34:28.465095  8175 net.cpp:76] Creating Layer inception_3a/1x1
I0511 06:34:28.465101  8175 net.cpp:372] inception_3a/1x1 <- pool2/3x3_s2_pool2/3x3_s2_0_split_0
I0511 06:34:28.465108  8175 net.cpp:334] inception_3a/1x1 -> inception_3a/1x1
I0511 06:34:28.465118  8175 net.cpp:105] Setting up inception_3a/1x1
I0511 06:34:28.465339  8175 net.cpp:112] Top shape: 32 64 28 28 (1605632)
I0511 06:34:28.465360  8175 layer_factory.hpp:74] Creating layer inception_3a/relu_1x1
I0511 06:34:28.465373  8175 net.cpp:76] Creating Layer inception_3a/relu_1x1
I0511 06:34:28.465379  8175 net.cpp:372] inception_3a/relu_1x1 <- inception_3a/1x1
I0511 06:34:28.465389  8175 net.cpp:323] inception_3a/relu_1x1 -> inception_3a/1x1 (in-place)
I0511 06:34:28.465396  8175 net.cpp:105] Setting up inception_3a/relu_1x1
I0511 06:34:28.465402  8175 net.cpp:112] Top shape: 32 64 28 28 (1605632)
I0511 06:34:28.465409  8175 layer_factory.hpp:74] Creating layer inception_3a/3x3_reduce
I0511 06:34:28.465420  8175 net.cpp:76] Creating Layer inception_3a/3x3_reduce
I0511 06:34:28.465425  8175 net.cpp:372] inception_3a/3x3_reduce <- pool2/3x3_s2_pool2/3x3_s2_0_split_1
I0511 06:34:28.465435  8175 net.cpp:334] inception_3a/3x3_reduce -> inception_3a/3x3_reduce
I0511 06:34:28.465443  8175 net.cpp:105] Setting up inception_3a/3x3_reduce
I0511 06:34:28.465615  8175 net.cpp:112] Top shape: 32 96 28 28 (2408448)
I0511 06:34:28.465631  8175 layer_factory.hpp:74] Creating layer inception_3a/relu_3x3_reduce
I0511 06:34:28.465646  8175 net.cpp:76] Creating Layer inception_3a/relu_3x3_reduce
I0511 06:34:28.465652  8175 net.cpp:372] inception_3a/relu_3x3_reduce <- inception_3a/3x3_reduce
I0511 06:34:28.465661  8175 net.cpp:323] inception_3a/relu_3x3_reduce -> inception_3a/3x3_reduce (in-place)
I0511 06:34:28.465672  8175 net.cpp:105] Setting up inception_3a/relu_3x3_reduce
I0511 06:34:28.465683  8175 net.cpp:112] Top shape: 32 96 28 28 (2408448)
I0511 06:34:28.465694  8175 layer_factory.hpp:74] Creating layer inception_3a/3x3
I0511 06:34:28.465716  8175 net.cpp:76] Creating Layer inception_3a/3x3
I0511 06:34:28.465729  8175 net.cpp:372] inception_3a/3x3 <- inception_3a/3x3_reduce
I0511 06:34:28.465746  8175 net.cpp:334] inception_3a/3x3 -> inception_3a/3x3
I0511 06:34:28.465765  8175 net.cpp:105] Setting up inception_3a/3x3
I0511 06:34:28.467030  8175 net.cpp:112] Top shape: 32 128 28 28 (3211264)
I0511 06:34:28.467059  8175 layer_factory.hpp:74] Creating layer inception_3a/relu_3x3
I0511 06:34:28.467074  8175 net.cpp:76] Creating Layer inception_3a/relu_3x3
I0511 06:34:28.467082  8175 net.cpp:372] inception_3a/relu_3x3 <- inception_3a/3x3
I0511 06:34:28.467092  8175 net.cpp:323] inception_3a/relu_3x3 -> inception_3a/3x3 (in-place)
I0511 06:34:28.467102  8175 net.cpp:105] Setting up inception_3a/relu_3x3
I0511 06:34:28.467108  8175 net.cpp:112] Top shape: 32 128 28 28 (3211264)
I0511 06:34:28.467113  8175 layer_factory.hpp:74] Creating layer inception_3a/5x5_reduce
I0511 06:34:28.467123  8175 net.cpp:76] Creating Layer inception_3a/5x5_reduce
I0511 06:34:28.467146  8175 net.cpp:372] inception_3a/5x5_reduce <- pool2/3x3_s2_pool2/3x3_s2_0_split_2
I0511 06:34:28.467159  8175 net.cpp:334] inception_3a/5x5_reduce -> inception_3a/5x5_reduce
I0511 06:34:28.467170  8175 net.cpp:105] Setting up inception_3a/5x5_reduce
I0511 06:34:28.467213  8175 net.cpp:112] Top shape: 32 16 28 28 (401408)
I0511 06:34:28.467223  8175 layer_factory.hpp:74] Creating layer inception_3a/relu_5x5_reduce
I0511 06:34:28.467231  8175 net.cpp:76] Creating Layer inception_3a/relu_5x5_reduce
I0511 06:34:28.467237  8175 net.cpp:372] inception_3a/relu_5x5_reduce <- inception_3a/5x5_reduce
I0511 06:34:28.467244  8175 net.cpp:323] inception_3a/relu_5x5_reduce -> inception_3a/5x5_reduce (in-place)
I0511 06:34:28.467252  8175 net.cpp:105] Setting up inception_3a/relu_5x5_reduce
I0511 06:34:28.467257  8175 net.cpp:112] Top shape: 32 16 28 28 (401408)
I0511 06:34:28.467262  8175 layer_factory.hpp:74] Creating layer inception_3a/5x5
I0511 06:34:28.467290  8175 net.cpp:76] Creating Layer inception_3a/5x5
I0511 06:34:28.467298  8175 net.cpp:372] inception_3a/5x5 <- inception_3a/5x5_reduce
I0511 06:34:28.467310  8175 net.cpp:334] inception_3a/5x5 -> inception_3a/5x5
I0511 06:34:28.467320  8175 net.cpp:105] Setting up inception_3a/5x5
I0511 06:34:28.467478  8175 net.cpp:112] Top shape: 32 32 28 28 (802816)
I0511 06:34:28.467504  8175 layer_factory.hpp:74] Creating layer inception_3a/relu_5x5
I0511 06:34:28.467519  8175 net.cpp:76] Creating Layer inception_3a/relu_5x5
I0511 06:34:28.467526  8175 net.cpp:372] inception_3a/relu_5x5 <- inception_3a/5x5
I0511 06:34:28.467535  8175 net.cpp:323] inception_3a/relu_5x5 -> inception_3a/5x5 (in-place)
I0511 06:34:28.467543  8175 net.cpp:105] Setting up inception_3a/relu_5x5
I0511 06:34:28.467550  8175 net.cpp:112] Top shape: 32 32 28 28 (802816)
I0511 06:34:28.467555  8175 layer_factory.hpp:74] Creating layer inception_3a/pool
I0511 06:34:28.467562  8175 net.cpp:76] Creating Layer inception_3a/pool
I0511 06:34:28.467568  8175 net.cpp:372] inception_3a/pool <- pool2/3x3_s2_pool2/3x3_s2_0_split_3
I0511 06:34:28.467587  8175 net.cpp:334] inception_3a/pool -> inception_3a/pool
I0511 06:34:28.467598  8175 net.cpp:105] Setting up inception_3a/pool
I0511 06:34:28.467605  8175 net.cpp:112] Top shape: 32 192 28 28 (4816896)
I0511 06:34:28.467612  8175 layer_factory.hpp:74] Creating layer inception_3a/pool_proj
I0511 06:34:28.467622  8175 net.cpp:76] Creating Layer inception_3a/pool_proj
I0511 06:34:28.467627  8175 net.cpp:372] inception_3a/pool_proj <- inception_3a/pool
I0511 06:34:28.467646  8175 net.cpp:334] inception_3a/pool_proj -> inception_3a/pool_proj
I0511 06:34:28.467664  8175 net.cpp:105] Setting up inception_3a/pool_proj
I0511 06:34:28.467804  8175 net.cpp:112] Top shape: 32 32 28 28 (802816)
I0511 06:34:28.467823  8175 layer_factory.hpp:74] Creating layer inception_3a/relu_pool_proj
I0511 06:34:28.467833  8175 net.cpp:76] Creating Layer inception_3a/relu_pool_proj
I0511 06:34:28.467839  8175 net.cpp:372] inception_3a/relu_pool_proj <- inception_3a/pool_proj
I0511 06:34:28.467846  8175 net.cpp:323] inception_3a/relu_pool_proj -> inception_3a/pool_proj (in-place)
I0511 06:34:28.467855  8175 net.cpp:105] Setting up inception_3a/relu_pool_proj
I0511 06:34:28.467860  8175 net.cpp:112] Top shape: 32 32 28 28 (802816)
I0511 06:34:28.467866  8175 layer_factory.hpp:74] Creating layer inception_3a/output
I0511 06:34:28.467876  8175 net.cpp:76] Creating Layer inception_3a/output
I0511 06:34:28.467882  8175 net.cpp:372] inception_3a/output <- inception_3a/1x1
I0511 06:34:28.467890  8175 net.cpp:372] inception_3a/output <- inception_3a/3x3
I0511 06:34:28.467895  8175 net.cpp:372] inception_3a/output <- inception_3a/5x5
I0511 06:34:28.467901  8175 net.cpp:372] inception_3a/output <- inception_3a/pool_proj
I0511 06:34:28.467908  8175 net.cpp:334] inception_3a/output -> inception_3a/output
I0511 06:34:28.467916  8175 net.cpp:105] Setting up inception_3a/output
I0511 06:34:28.467924  8175 net.cpp:112] Top shape: 32 256 28 28 (6422528)
I0511 06:34:28.467931  8175 layer_factory.hpp:74] Creating layer inception_3a/output_inception_3a/output_0_split
I0511 06:34:28.467952  8175 net.cpp:76] Creating Layer inception_3a/output_inception_3a/output_0_split
I0511 06:34:28.467962  8175 net.cpp:372] inception_3a/output_inception_3a/output_0_split <- inception_3a/output
I0511 06:34:28.467977  8175 net.cpp:334] inception_3a/output_inception_3a/output_0_split -> inception_3a/output_inception_3a/output_0_split_0
I0511 06:34:28.467986  8175 net.cpp:334] inception_3a/output_inception_3a/output_0_split -> inception_3a/output_inception_3a/output_0_split_1
I0511 06:34:28.467996  8175 net.cpp:334] inception_3a/output_inception_3a/output_0_split -> inception_3a/output_inception_3a/output_0_split_2
I0511 06:34:28.468005  8175 net.cpp:334] inception_3a/output_inception_3a/output_0_split -> inception_3a/output_inception_3a/output_0_split_3
I0511 06:34:28.468013  8175 net.cpp:105] Setting up inception_3a/output_inception_3a/output_0_split
I0511 06:34:28.468019  8175 net.cpp:112] Top shape: 32 256 28 28 (6422528)
I0511 06:34:28.468025  8175 net.cpp:112] Top shape: 32 256 28 28 (6422528)
I0511 06:34:28.468030  8175 net.cpp:112] Top shape: 32 256 28 28 (6422528)
I0511 06:34:28.468034  8175 net.cpp:112] Top shape: 32 256 28 28 (6422528)
I0511 06:34:28.468040  8175 layer_factory.hpp:74] Creating layer inception_3b/1x1
I0511 06:34:28.468053  8175 net.cpp:76] Creating Layer inception_3b/1x1
I0511 06:34:28.468060  8175 net.cpp:372] inception_3b/1x1 <- inception_3a/output_inception_3a/output_0_split_0
I0511 06:34:28.468070  8175 net.cpp:334] inception_3b/1x1 -> inception_3b/1x1
I0511 06:34:28.468080  8175 net.cpp:105] Setting up inception_3b/1x1
I0511 06:34:28.468559  8175 net.cpp:112] Top shape: 32 128 28 28 (3211264)
I0511 06:34:28.468579  8175 layer_factory.hpp:74] Creating layer inception_3b/relu_1x1
I0511 06:34:28.468587  8175 net.cpp:76] Creating Layer inception_3b/relu_1x1
I0511 06:34:28.468595  8175 net.cpp:372] inception_3b/relu_1x1 <- inception_3b/1x1
I0511 06:34:28.468602  8175 net.cpp:323] inception_3b/relu_1x1 -> inception_3b/1x1 (in-place)
I0511 06:34:28.468611  8175 net.cpp:105] Setting up inception_3b/relu_1x1
I0511 06:34:28.468616  8175 net.cpp:112] Top shape: 32 128 28 28 (3211264)
I0511 06:34:28.468622  8175 layer_factory.hpp:74] Creating layer inception_3b/3x3_reduce
I0511 06:34:28.468633  8175 net.cpp:76] Creating Layer inception_3b/3x3_reduce
I0511 06:34:28.468639  8175 net.cpp:372] inception_3b/3x3_reduce <- inception_3a/output_inception_3a/output_0_split_1
I0511 06:34:28.468648  8175 net.cpp:334] inception_3b/3x3_reduce -> inception_3b/3x3_reduce
I0511 06:34:28.468657  8175 net.cpp:105] Setting up inception_3b/3x3_reduce
I0511 06:34:28.469180  8175 net.cpp:112] Top shape: 32 128 28 28 (3211264)
I0511 06:34:28.469204  8175 layer_factory.hpp:74] Creating layer inception_3b/relu_3x3_reduce
I0511 06:34:28.469225  8175 net.cpp:76] Creating Layer inception_3b/relu_3x3_reduce
I0511 06:34:28.469239  8175 net.cpp:372] inception_3b/relu_3x3_reduce <- inception_3b/3x3_reduce
I0511 06:34:28.469254  8175 net.cpp:323] inception_3b/relu_3x3_reduce -> inception_3b/3x3_reduce (in-place)
I0511 06:34:28.469269  8175 net.cpp:105] Setting up inception_3b/relu_3x3_reduce
I0511 06:34:28.469280  8175 net.cpp:112] Top shape: 32 128 28 28 (3211264)
I0511 06:34:28.469291  8175 layer_factory.hpp:74] Creating layer inception_3b/3x3
I0511 06:34:28.469331  8175 net.cpp:76] Creating Layer inception_3b/3x3
I0511 06:34:28.469343  8175 net.cpp:372] inception_3b/3x3 <- inception_3b/3x3_reduce
I0511 06:34:28.469358  8175 net.cpp:334] inception_3b/3x3 -> inception_3b/3x3
I0511 06:34:28.469377  8175 net.cpp:105] Setting up inception_3b/3x3
I0511 06:34:28.471658  8175 net.cpp:112] Top shape: 32 192 28 28 (4816896)
I0511 06:34:28.471681  8175 layer_factory.hpp:74] Creating layer inception_3b/relu_3x3
I0511 06:34:28.471693  8175 net.cpp:76] Creating Layer inception_3b/relu_3x3
I0511 06:34:28.471699  8175 net.cpp:372] inception_3b/relu_3x3 <- inception_3b/3x3
I0511 06:34:28.471707  8175 net.cpp:323] inception_3b/relu_3x3 -> inception_3b/3x3 (in-place)
I0511 06:34:28.471743  8175 net.cpp:105] Setting up inception_3b/relu_3x3
I0511 06:34:28.471750  8175 net.cpp:112] Top shape: 32 192 28 28 (4816896)
I0511 06:34:28.471756  8175 layer_factory.hpp:74] Creating layer inception_3b/5x5_reduce
I0511 06:34:28.471767  8175 net.cpp:76] Creating Layer inception_3b/5x5_reduce
I0511 06:34:28.471774  8175 net.cpp:372] inception_3b/5x5_reduce <- inception_3a/output_inception_3a/output_0_split_2
I0511 06:34:28.471783  8175 net.cpp:334] inception_3b/5x5_reduce -> inception_3b/5x5_reduce
I0511 06:34:28.471792  8175 net.cpp:105] Setting up inception_3b/5x5_reduce
I0511 06:34:28.471873  8175 net.cpp:112] Top shape: 32 32 28 28 (802816)
I0511 06:34:28.471884  8175 layer_factory.hpp:74] Creating layer inception_3b/relu_5x5_reduce
I0511 06:34:28.471891  8175 net.cpp:76] Creating Layer inception_3b/relu_5x5_reduce
I0511 06:34:28.471897  8175 net.cpp:372] inception_3b/relu_5x5_reduce <- inception_3b/5x5_reduce
I0511 06:34:28.471906  8175 net.cpp:323] inception_3b/relu_5x5_reduce -> inception_3b/5x5_reduce (in-place)
I0511 06:34:28.471915  8175 net.cpp:105] Setting up inception_3b/relu_5x5_reduce
I0511 06:34:28.471920  8175 net.cpp:112] Top shape: 32 32 28 28 (802816)
I0511 06:34:28.471925  8175 layer_factory.hpp:74] Creating layer inception_3b/5x5
I0511 06:34:28.471933  8175 net.cpp:76] Creating Layer inception_3b/5x5
I0511 06:34:28.471940  8175 net.cpp:372] inception_3b/5x5 <- inception_3b/5x5_reduce
I0511 06:34:28.471951  8175 net.cpp:334] inception_3b/5x5 -> inception_3b/5x5
I0511 06:34:28.471963  8175 net.cpp:105] Setting up inception_3b/5x5
I0511 06:34:28.472666  8175 net.cpp:112] Top shape: 32 96 28 28 (2408448)
I0511 06:34:28.472681  8175 layer_factory.hpp:74] Creating layer inception_3b/relu_5x5
I0511 06:34:28.472692  8175 net.cpp:76] Creating Layer inception_3b/relu_5x5
I0511 06:34:28.472699  8175 net.cpp:372] inception_3b/relu_5x5 <- inception_3b/5x5
I0511 06:34:28.472707  8175 net.cpp:323] inception_3b/relu_5x5 -> inception_3b/5x5 (in-place)
I0511 06:34:28.472715  8175 net.cpp:105] Setting up inception_3b/relu_5x5
I0511 06:34:28.472720  8175 net.cpp:112] Top shape: 32 96 28 28 (2408448)
I0511 06:34:28.472726  8175 layer_factory.hpp:74] Creating layer inception_3b/pool
I0511 06:34:28.472734  8175 net.cpp:76] Creating Layer inception_3b/pool
I0511 06:34:28.472740  8175 net.cpp:372] inception_3b/pool <- inception_3a/output_inception_3a/output_0_split_3
I0511 06:34:28.472750  8175 net.cpp:334] inception_3b/pool -> inception_3b/pool
I0511 06:34:28.472759  8175 net.cpp:105] Setting up inception_3b/pool
I0511 06:34:28.472767  8175 net.cpp:112] Top shape: 32 256 28 28 (6422528)
I0511 06:34:28.472772  8175 layer_factory.hpp:74] Creating layer inception_3b/pool_proj
I0511 06:34:28.472782  8175 net.cpp:76] Creating Layer inception_3b/pool_proj
I0511 06:34:28.472787  8175 net.cpp:372] inception_3b/pool_proj <- inception_3b/pool
I0511 06:34:28.472797  8175 net.cpp:334] inception_3b/pool_proj -> inception_3b/pool_proj
I0511 06:34:28.472806  8175 net.cpp:105] Setting up inception_3b/pool_proj
I0511 06:34:28.472965  8175 net.cpp:112] Top shape: 32 64 28 28 (1605632)
I0511 06:34:28.472977  8175 layer_factory.hpp:74] Creating layer inception_3b/relu_pool_proj
I0511 06:34:28.472986  8175 net.cpp:76] Creating Layer inception_3b/relu_pool_proj
I0511 06:34:28.472992  8175 net.cpp:372] inception_3b/relu_pool_proj <- inception_3b/pool_proj
I0511 06:34:28.473001  8175 net.cpp:323] inception_3b/relu_pool_proj -> inception_3b/pool_proj (in-place)
I0511 06:34:28.473011  8175 net.cpp:105] Setting up inception_3b/relu_pool_proj
I0511 06:34:28.473016  8175 net.cpp:112] Top shape: 32 64 28 28 (1605632)
I0511 06:34:28.473021  8175 layer_factory.hpp:74] Creating layer inception_3b/output
I0511 06:34:28.473028  8175 net.cpp:76] Creating Layer inception_3b/output
I0511 06:34:28.473034  8175 net.cpp:372] inception_3b/output <- inception_3b/1x1
I0511 06:34:28.473044  8175 net.cpp:372] inception_3b/output <- inception_3b/3x3
I0511 06:34:28.473052  8175 net.cpp:372] inception_3b/output <- inception_3b/5x5
I0511 06:34:28.473075  8175 net.cpp:372] inception_3b/output <- inception_3b/pool_proj
I0511 06:34:28.473084  8175 net.cpp:334] inception_3b/output -> inception_3b/output
I0511 06:34:28.473093  8175 net.cpp:105] Setting up inception_3b/output
I0511 06:34:28.473100  8175 net.cpp:112] Top shape: 32 480 28 28 (12042240)
I0511 06:34:28.473106  8175 layer_factory.hpp:74] Creating layer pool3/3x3_s2
I0511 06:34:28.473114  8175 net.cpp:76] Creating Layer pool3/3x3_s2
I0511 06:34:28.473119  8175 net.cpp:372] pool3/3x3_s2 <- inception_3b/output
I0511 06:34:28.473130  8175 net.cpp:334] pool3/3x3_s2 -> pool3/3x3_s2
I0511 06:34:28.473139  8175 net.cpp:105] Setting up pool3/3x3_s2
I0511 06:34:28.473145  8175 net.cpp:112] Top shape: 32 480 14 14 (3010560)
I0511 06:34:28.473151  8175 layer_factory.hpp:74] Creating layer pool3/3x3_s2_pool3/3x3_s2_0_split
I0511 06:34:28.473158  8175 net.cpp:76] Creating Layer pool3/3x3_s2_pool3/3x3_s2_0_split
I0511 06:34:28.473165  8175 net.cpp:372] pool3/3x3_s2_pool3/3x3_s2_0_split <- pool3/3x3_s2
I0511 06:34:28.473175  8175 net.cpp:334] pool3/3x3_s2_pool3/3x3_s2_0_split -> pool3/3x3_s2_pool3/3x3_s2_0_split_0
I0511 06:34:28.473183  8175 net.cpp:334] pool3/3x3_s2_pool3/3x3_s2_0_split -> pool3/3x3_s2_pool3/3x3_s2_0_split_1
I0511 06:34:28.473192  8175 net.cpp:334] pool3/3x3_s2_pool3/3x3_s2_0_split -> pool3/3x3_s2_pool3/3x3_s2_0_split_2
I0511 06:34:28.473201  8175 net.cpp:334] pool3/3x3_s2_pool3/3x3_s2_0_split -> pool3/3x3_s2_pool3/3x3_s2_0_split_3
I0511 06:34:28.473208  8175 net.cpp:105] Setting up pool3/3x3_s2_pool3/3x3_s2_0_split
I0511 06:34:28.473215  8175 net.cpp:112] Top shape: 32 480 14 14 (3010560)
I0511 06:34:28.473220  8175 net.cpp:112] Top shape: 32 480 14 14 (3010560)
I0511 06:34:28.473225  8175 net.cpp:112] Top shape: 32 480 14 14 (3010560)
I0511 06:34:28.473230  8175 net.cpp:112] Top shape: 32 480 14 14 (3010560)
I0511 06:34:28.473237  8175 layer_factory.hpp:74] Creating layer inception_4a/1x1
I0511 06:34:28.473247  8175 net.cpp:76] Creating Layer inception_4a/1x1
I0511 06:34:28.473253  8175 net.cpp:372] inception_4a/1x1 <- pool3/3x3_s2_pool3/3x3_s2_0_split_0
I0511 06:34:28.473261  8175 net.cpp:334] inception_4a/1x1 -> inception_4a/1x1
I0511 06:34:28.473283  8175 net.cpp:105] Setting up inception_4a/1x1
I0511 06:34:28.474129  8175 net.cpp:112] Top shape: 32 192 14 14 (1204224)
I0511 06:34:28.474148  8175 layer_factory.hpp:74] Creating layer inception_4a/relu_1x1
I0511 06:34:28.474156  8175 net.cpp:76] Creating Layer inception_4a/relu_1x1
I0511 06:34:28.474185  8175 net.cpp:372] inception_4a/relu_1x1 <- inception_4a/1x1
I0511 06:34:28.474196  8175 net.cpp:323] inception_4a/relu_1x1 -> inception_4a/1x1 (in-place)
I0511 06:34:28.474206  8175 net.cpp:105] Setting up inception_4a/relu_1x1
I0511 06:34:28.474211  8175 net.cpp:112] Top shape: 32 192 14 14 (1204224)
I0511 06:34:28.474217  8175 layer_factory.hpp:74] Creating layer inception_4a/3x3_reduce
I0511 06:34:28.474226  8175 net.cpp:76] Creating Layer inception_4a/3x3_reduce
I0511 06:34:28.474234  8175 net.cpp:372] inception_4a/3x3_reduce <- pool3/3x3_s2_pool3/3x3_s2_0_split_1
I0511 06:34:28.474243  8175 net.cpp:334] inception_4a/3x3_reduce -> inception_4a/3x3_reduce
I0511 06:34:28.474252  8175 net.cpp:105] Setting up inception_4a/3x3_reduce
I0511 06:34:28.474696  8175 net.cpp:112] Top shape: 32 96 14 14 (602112)
I0511 06:34:28.474720  8175 layer_factory.hpp:74] Creating layer inception_4a/relu_3x3_reduce
I0511 06:34:28.474730  8175 net.cpp:76] Creating Layer inception_4a/relu_3x3_reduce
I0511 06:34:28.474735  8175 net.cpp:372] inception_4a/relu_3x3_reduce <- inception_4a/3x3_reduce
I0511 06:34:28.474743  8175 net.cpp:323] inception_4a/relu_3x3_reduce -> inception_4a/3x3_reduce (in-place)
I0511 06:34:28.474752  8175 net.cpp:105] Setting up inception_4a/relu_3x3_reduce
I0511 06:34:28.474757  8175 net.cpp:112] Top shape: 32 96 14 14 (602112)
I0511 06:34:28.474763  8175 layer_factory.hpp:74] Creating layer inception_4a/3x3
I0511 06:34:28.474771  8175 net.cpp:76] Creating Layer inception_4a/3x3
I0511 06:34:28.474776  8175 net.cpp:372] inception_4a/3x3 <- inception_4a/3x3_reduce
I0511 06:34:28.474807  8175 net.cpp:334] inception_4a/3x3 -> inception_4a/3x3
I0511 06:34:28.474818  8175 net.cpp:105] Setting up inception_4a/3x3
I0511 06:34:28.476397  8175 net.cpp:112] Top shape: 32 208 14 14 (1304576)
I0511 06:34:28.476416  8175 layer_factory.hpp:74] Creating layer inception_4a/relu_3x3
I0511 06:34:28.476429  8175 net.cpp:76] Creating Layer inception_4a/relu_3x3
I0511 06:34:28.476436  8175 net.cpp:372] inception_4a/relu_3x3 <- inception_4a/3x3
I0511 06:34:28.476444  8175 net.cpp:323] inception_4a/relu_3x3 -> inception_4a/3x3 (in-place)
I0511 06:34:28.476452  8175 net.cpp:105] Setting up inception_4a/relu_3x3
I0511 06:34:28.476457  8175 net.cpp:112] Top shape: 32 208 14 14 (1304576)
I0511 06:34:28.476464  8175 layer_factory.hpp:74] Creating layer inception_4a/5x5_reduce
I0511 06:34:28.476471  8175 net.cpp:76] Creating Layer inception_4a/5x5_reduce
I0511 06:34:28.476477  8175 net.cpp:372] inception_4a/5x5_reduce <- pool3/3x3_s2_pool3/3x3_s2_0_split_2
I0511 06:34:28.476488  8175 net.cpp:334] inception_4a/5x5_reduce -> inception_4a/5x5_reduce
I0511 06:34:28.476497  8175 net.cpp:105] Setting up inception_4a/5x5_reduce
I0511 06:34:28.476572  8175 net.cpp:112] Top shape: 32 16 14 14 (100352)
I0511 06:34:28.476583  8175 layer_factory.hpp:74] Creating layer inception_4a/relu_5x5_reduce
I0511 06:34:28.476593  8175 net.cpp:76] Creating Layer inception_4a/relu_5x5_reduce
I0511 06:34:28.476599  8175 net.cpp:372] inception_4a/relu_5x5_reduce <- inception_4a/5x5_reduce
I0511 06:34:28.476606  8175 net.cpp:323] inception_4a/relu_5x5_reduce -> inception_4a/5x5_reduce (in-place)
I0511 06:34:28.476613  8175 net.cpp:105] Setting up inception_4a/relu_5x5_reduce
I0511 06:34:28.476619  8175 net.cpp:112] Top shape: 32 16 14 14 (100352)
I0511 06:34:28.476624  8175 layer_factory.hpp:74] Creating layer inception_4a/5x5
I0511 06:34:28.476634  8175 net.cpp:76] Creating Layer inception_4a/5x5
I0511 06:34:28.476640  8175 net.cpp:372] inception_4a/5x5 <- inception_4a/5x5_reduce
I0511 06:34:28.476649  8175 net.cpp:334] inception_4a/5x5 -> inception_4a/5x5
I0511 06:34:28.476656  8175 net.cpp:105] Setting up inception_4a/5x5
I0511 06:34:28.476876  8175 net.cpp:112] Top shape: 32 48 14 14 (301056)
I0511 06:34:28.476903  8175 layer_factory.hpp:74] Creating layer inception_4a/relu_5x5
I0511 06:34:28.476924  8175 net.cpp:76] Creating Layer inception_4a/relu_5x5
I0511 06:34:28.477557  8175 net.cpp:372] inception_4a/relu_5x5 <- inception_4a/5x5
I0511 06:34:28.477573  8175 net.cpp:323] inception_4a/relu_5x5 -> inception_4a/5x5 (in-place)
I0511 06:34:28.477583  8175 net.cpp:105] Setting up inception_4a/relu_5x5
I0511 06:34:28.477589  8175 net.cpp:112] Top shape: 32 48 14 14 (301056)
I0511 06:34:28.477596  8175 layer_factory.hpp:74] Creating layer inception_4a/pool
I0511 06:34:28.477607  8175 net.cpp:76] Creating Layer inception_4a/pool
I0511 06:34:28.477614  8175 net.cpp:372] inception_4a/pool <- pool3/3x3_s2_pool3/3x3_s2_0_split_3
I0511 06:34:28.477627  8175 net.cpp:334] inception_4a/pool -> inception_4a/pool
I0511 06:34:28.477643  8175 net.cpp:105] Setting up inception_4a/pool
I0511 06:34:28.477656  8175 net.cpp:112] Top shape: 32 480 14 14 (3010560)
I0511 06:34:28.477666  8175 layer_factory.hpp:74] Creating layer inception_4a/pool_proj
I0511 06:34:28.477676  8175 net.cpp:76] Creating Layer inception_4a/pool_proj
I0511 06:34:28.477682  8175 net.cpp:372] inception_4a/pool_proj <- inception_4a/pool
I0511 06:34:28.477694  8175 net.cpp:334] inception_4a/pool_proj -> inception_4a/pool_proj
I0511 06:34:28.477705  8175 net.cpp:105] Setting up inception_4a/pool_proj
I0511 06:34:28.478029  8175 net.cpp:112] Top shape: 32 64 14 14 (401408)
I0511 06:34:28.478052  8175 layer_factory.hpp:74] Creating layer inception_4a/relu_pool_proj
I0511 06:34:28.478068  8175 net.cpp:76] Creating Layer inception_4a/relu_pool_proj
I0511 06:34:28.478081  8175 net.cpp:372] inception_4a/relu_pool_proj <- inception_4a/pool_proj
I0511 06:34:28.478096  8175 net.cpp:323] inception_4a/relu_pool_proj -> inception_4a/pool_proj (in-place)
I0511 06:34:28.478137  8175 net.cpp:105] Setting up inception_4a/relu_pool_proj
I0511 06:34:28.478154  8175 net.cpp:112] Top shape: 32 64 14 14 (401408)
I0511 06:34:28.478168  8175 layer_factory.hpp:74] Creating layer inception_4a/output
I0511 06:34:28.478186  8175 net.cpp:76] Creating Layer inception_4a/output
I0511 06:34:28.478193  8175 net.cpp:372] inception_4a/output <- inception_4a/1x1
I0511 06:34:28.478201  8175 net.cpp:372] inception_4a/output <- inception_4a/3x3
I0511 06:34:28.478209  8175 net.cpp:372] inception_4a/output <- inception_4a/5x5
I0511 06:34:28.478214  8175 net.cpp:372] inception_4a/output <- inception_4a/pool_proj
I0511 06:34:28.478230  8175 net.cpp:334] inception_4a/output -> inception_4a/output
I0511 06:34:28.478241  8175 net.cpp:105] Setting up inception_4a/output
I0511 06:34:28.478248  8175 net.cpp:112] Top shape: 32 512 14 14 (3211264)
I0511 06:34:28.478253  8175 layer_factory.hpp:74] Creating layer inception_4a/output_inception_4a/output_0_split
I0511 06:34:28.478262  8175 net.cpp:76] Creating Layer inception_4a/output_inception_4a/output_0_split
I0511 06:34:28.478268  8175 net.cpp:372] inception_4a/output_inception_4a/output_0_split <- inception_4a/output
I0511 06:34:28.478293  8175 net.cpp:334] inception_4a/output_inception_4a/output_0_split -> inception_4a/output_inception_4a/output_0_split_0
I0511 06:34:28.478304  8175 net.cpp:334] inception_4a/output_inception_4a/output_0_split -> inception_4a/output_inception_4a/output_0_split_1
I0511 06:34:28.478314  8175 net.cpp:334] inception_4a/output_inception_4a/output_0_split -> inception_4a/output_inception_4a/output_0_split_2
I0511 06:34:28.478323  8175 net.cpp:334] inception_4a/output_inception_4a/output_0_split -> inception_4a/output_inception_4a/output_0_split_3
I0511 06:34:28.478332  8175 net.cpp:334] inception_4a/output_inception_4a/output_0_split -> inception_4a/output_inception_4a/output_0_split_4
I0511 06:34:28.478340  8175 net.cpp:105] Setting up inception_4a/output_inception_4a/output_0_split
I0511 06:34:28.478348  8175 net.cpp:112] Top shape: 32 512 14 14 (3211264)
I0511 06:34:28.478353  8175 net.cpp:112] Top shape: 32 512 14 14 (3211264)
I0511 06:34:28.478358  8175 net.cpp:112] Top shape: 32 512 14 14 (3211264)
I0511 06:34:28.478363  8175 net.cpp:112] Top shape: 32 512 14 14 (3211264)
I0511 06:34:28.478368  8175 net.cpp:112] Top shape: 32 512 14 14 (3211264)
I0511 06:34:28.478373  8175 layer_factory.hpp:74] Creating layer loss1/ave_pool
I0511 06:34:28.478382  8175 net.cpp:76] Creating Layer loss1/ave_pool
I0511 06:34:28.478389  8175 net.cpp:372] loss1/ave_pool <- inception_4a/output_inception_4a/output_0_split_0
I0511 06:34:28.478396  8175 net.cpp:334] loss1/ave_pool -> loss1/ave_pool
I0511 06:34:28.478404  8175 net.cpp:105] Setting up loss1/ave_pool
I0511 06:34:28.478410  8175 net.cpp:112] Top shape: 32 512 4 4 (262144)
I0511 06:34:28.478416  8175 layer_factory.hpp:74] Creating layer loss1/conv
I0511 06:34:28.478427  8175 net.cpp:76] Creating Layer loss1/conv
I0511 06:34:28.478433  8175 net.cpp:372] loss1/conv <- loss1/ave_pool
I0511 06:34:28.478440  8175 net.cpp:334] loss1/conv -> loss1/conv
I0511 06:34:28.478449  8175 net.cpp:105] Setting up loss1/conv
I0511 06:34:28.479126  8175 net.cpp:112] Top shape: 32 128 4 4 (65536)
I0511 06:34:28.479145  8175 layer_factory.hpp:74] Creating layer loss1/relu_conv
I0511 06:34:28.479157  8175 net.cpp:76] Creating Layer loss1/relu_conv
I0511 06:34:28.479171  8175 net.cpp:372] loss1/relu_conv <- loss1/conv
I0511 06:34:28.479185  8175 net.cpp:323] loss1/relu_conv -> loss1/conv (in-place)
I0511 06:34:28.479195  8175 net.cpp:105] Setting up loss1/relu_conv
I0511 06:34:28.479202  8175 net.cpp:112] Top shape: 32 128 4 4 (65536)
I0511 06:34:28.479207  8175 layer_factory.hpp:74] Creating layer loss1/fc
I0511 06:34:28.479224  8175 net.cpp:76] Creating Layer loss1/fc
I0511 06:34:28.479236  8175 net.cpp:372] loss1/fc <- loss1/conv
I0511 06:34:28.479250  8175 net.cpp:334] loss1/fc -> loss1/fc
I0511 06:34:28.479287  8175 net.cpp:105] Setting up loss1/fc
I0511 06:34:28.502092  8175 net.cpp:112] Top shape: 32 1024 1 1 (32768)
I0511 06:34:28.502177  8175 layer_factory.hpp:74] Creating layer loss1/relu_fc
I0511 06:34:28.502192  8175 net.cpp:76] Creating Layer loss1/relu_fc
I0511 06:34:28.502200  8175 net.cpp:372] loss1/relu_fc <- loss1/fc
I0511 06:34:28.502210  8175 net.cpp:323] loss1/relu_fc -> loss1/fc (in-place)
I0511 06:34:28.502224  8175 net.cpp:105] Setting up loss1/relu_fc
I0511 06:34:28.502230  8175 net.cpp:112] Top shape: 32 1024 1 1 (32768)
I0511 06:34:28.502266  8175 layer_factory.hpp:74] Creating layer loss1/drop_fc
I0511 06:34:28.502291  8175 net.cpp:76] Creating Layer loss1/drop_fc
I0511 06:34:28.502298  8175 net.cpp:372] loss1/drop_fc <- loss1/fc
I0511 06:34:28.502310  8175 net.cpp:323] loss1/drop_fc -> loss1/fc (in-place)
I0511 06:34:28.502321  8175 net.cpp:105] Setting up loss1/drop_fc
I0511 06:34:28.502331  8175 net.cpp:112] Top shape: 32 1024 1 1 (32768)
I0511 06:34:28.502337  8175 layer_factory.hpp:74] Creating layer loss1/classifier
I0511 06:34:28.502347  8175 net.cpp:76] Creating Layer loss1/classifier
I0511 06:34:28.502353  8175 net.cpp:372] loss1/classifier <- loss1/fc
I0511 06:34:28.502363  8175 net.cpp:334] loss1/classifier -> loss1/classifier
I0511 06:34:28.502373  8175 net.cpp:105] Setting up loss1/classifier
I0511 06:34:28.502409  8175 net.cpp:112] Top shape: 32 2 1 1 (64)
I0511 06:34:28.502420  8175 layer_factory.hpp:74] Creating layer loss1/loss
I0511 06:34:28.502431  8175 net.cpp:76] Creating Layer loss1/loss
I0511 06:34:28.502439  8175 net.cpp:372] loss1/loss <- loss1/classifier
I0511 06:34:28.502445  8175 net.cpp:372] loss1/loss <- label_data_1_split_0
I0511 06:34:28.502455  8175 net.cpp:334] loss1/loss -> loss1/loss1
I0511 06:34:28.502467  8175 net.cpp:105] Setting up loss1/loss
I0511 06:34:28.502478  8175 layer_factory.hpp:74] Creating layer loss1/loss
I0511 06:34:28.502499  8175 net.cpp:112] Top shape: 1 1 1 1 (1)
I0511 06:34:28.502506  8175 net.cpp:118]     with loss weight 0.3
I0511 06:34:28.502540  8175 layer_factory.hpp:74] Creating layer inception_4b/1x1
I0511 06:34:28.502552  8175 net.cpp:76] Creating Layer inception_4b/1x1
I0511 06:34:28.502558  8175 net.cpp:372] inception_4b/1x1 <- inception_4a/output_inception_4a/output_0_split_1
I0511 06:34:28.502570  8175 net.cpp:334] inception_4b/1x1 -> inception_4b/1x1
I0511 06:34:28.502580  8175 net.cpp:105] Setting up inception_4b/1x1
I0511 06:34:28.503263  8175 net.cpp:112] Top shape: 32 160 14 14 (1003520)
I0511 06:34:28.503296  8175 layer_factory.hpp:74] Creating layer inception_4b/relu_1x1
I0511 06:34:28.503306  8175 net.cpp:76] Creating Layer inception_4b/relu_1x1
I0511 06:34:28.503312  8175 net.cpp:372] inception_4b/relu_1x1 <- inception_4b/1x1
I0511 06:34:28.503320  8175 net.cpp:323] inception_4b/relu_1x1 -> inception_4b/1x1 (in-place)
I0511 06:34:28.503329  8175 net.cpp:105] Setting up inception_4b/relu_1x1
I0511 06:34:28.503334  8175 net.cpp:112] Top shape: 32 160 14 14 (1003520)
I0511 06:34:28.503340  8175 layer_factory.hpp:74] Creating layer inception_4b/3x3_reduce
I0511 06:34:28.503351  8175 net.cpp:76] Creating Layer inception_4b/3x3_reduce
I0511 06:34:28.503357  8175 net.cpp:372] inception_4b/3x3_reduce <- inception_4a/output_inception_4a/output_0_split_2
I0511 06:34:28.503367  8175 net.cpp:334] inception_4b/3x3_reduce -> inception_4b/3x3_reduce
I0511 06:34:28.503377  8175 net.cpp:105] Setting up inception_4b/3x3_reduce
I0511 06:34:28.503886  8175 net.cpp:112] Top shape: 32 112 14 14 (702464)
I0511 06:34:28.503901  8175 layer_factory.hpp:74] Creating layer inception_4b/relu_3x3_reduce
I0511 06:34:28.503911  8175 net.cpp:76] Creating Layer inception_4b/relu_3x3_reduce
I0511 06:34:28.503918  8175 net.cpp:372] inception_4b/relu_3x3_reduce <- inception_4b/3x3_reduce
I0511 06:34:28.503926  8175 net.cpp:323] inception_4b/relu_3x3_reduce -> inception_4b/3x3_reduce (in-place)
I0511 06:34:28.503934  8175 net.cpp:105] Setting up inception_4b/relu_3x3_reduce
I0511 06:34:28.503939  8175 net.cpp:112] Top shape: 32 112 14 14 (702464)
I0511 06:34:28.503945  8175 layer_factory.hpp:74] Creating layer inception_4b/3x3
I0511 06:34:28.503957  8175 net.cpp:76] Creating Layer inception_4b/3x3
I0511 06:34:28.503975  8175 net.cpp:372] inception_4b/3x3 <- inception_4b/3x3_reduce
I0511 06:34:28.503985  8175 net.cpp:334] inception_4b/3x3 -> inception_4b/3x3
I0511 06:34:28.503994  8175 net.cpp:105] Setting up inception_4b/3x3
I0511 06:34:28.505899  8175 net.cpp:112] Top shape: 32 224 14 14 (1404928)
I0511 06:34:28.505915  8175 layer_factory.hpp:74] Creating layer inception_4b/relu_3x3
I0511 06:34:28.505924  8175 net.cpp:76] Creating Layer inception_4b/relu_3x3
I0511 06:34:28.505930  8175 net.cpp:372] inception_4b/relu_3x3 <- inception_4b/3x3
I0511 06:34:28.505941  8175 net.cpp:323] inception_4b/relu_3x3 -> inception_4b/3x3 (in-place)
I0511 06:34:28.505949  8175 net.cpp:105] Setting up inception_4b/relu_3x3
I0511 06:34:28.505955  8175 net.cpp:112] Top shape: 32 224 14 14 (1404928)
I0511 06:34:28.505961  8175 layer_factory.hpp:74] Creating layer inception_4b/5x5_reduce
I0511 06:34:28.505970  8175 net.cpp:76] Creating Layer inception_4b/5x5_reduce
I0511 06:34:28.505975  8175 net.cpp:372] inception_4b/5x5_reduce <- inception_4a/output_inception_4a/output_0_split_3
I0511 06:34:28.505985  8175 net.cpp:334] inception_4b/5x5_reduce -> inception_4b/5x5_reduce
I0511 06:34:28.505995  8175 net.cpp:105] Setting up inception_4b/5x5_reduce
I0511 06:34:28.506108  8175 net.cpp:112] Top shape: 32 24 14 14 (150528)
I0511 06:34:28.506119  8175 layer_factory.hpp:74] Creating layer inception_4b/relu_5x5_reduce
I0511 06:34:28.506125  8175 net.cpp:76] Creating Layer inception_4b/relu_5x5_reduce
I0511 06:34:28.506131  8175 net.cpp:372] inception_4b/relu_5x5_reduce <- inception_4b/5x5_reduce
I0511 06:34:28.506139  8175 net.cpp:323] inception_4b/relu_5x5_reduce -> inception_4b/5x5_reduce (in-place)
I0511 06:34:28.506146  8175 net.cpp:105] Setting up inception_4b/relu_5x5_reduce
I0511 06:34:28.506152  8175 net.cpp:112] Top shape: 32 24 14 14 (150528)
I0511 06:34:28.506157  8175 layer_factory.hpp:74] Creating layer inception_4b/5x5
I0511 06:34:28.506170  8175 net.cpp:76] Creating Layer inception_4b/5x5
I0511 06:34:28.506175  8175 net.cpp:372] inception_4b/5x5 <- inception_4b/5x5_reduce
I0511 06:34:28.506183  8175 net.cpp:334] inception_4b/5x5 -> inception_4b/5x5
I0511 06:34:28.506192  8175 net.cpp:105] Setting up inception_4b/5x5
I0511 06:34:28.506532  8175 net.cpp:112] Top shape: 32 64 14 14 (401408)
I0511 06:34:28.506546  8175 layer_factory.hpp:74] Creating layer inception_4b/relu_5x5
I0511 06:34:28.506553  8175 net.cpp:76] Creating Layer inception_4b/relu_5x5
I0511 06:34:28.506562  8175 net.cpp:372] inception_4b/relu_5x5 <- inception_4b/5x5
I0511 06:34:28.506572  8175 net.cpp:323] inception_4b/relu_5x5 -> inception_4b/5x5 (in-place)
I0511 06:34:28.506582  8175 net.cpp:105] Setting up inception_4b/relu_5x5
I0511 06:34:28.506587  8175 net.cpp:112] Top shape: 32 64 14 14 (401408)
I0511 06:34:28.506592  8175 layer_factory.hpp:74] Creating layer inception_4b/pool
I0511 06:34:28.506600  8175 net.cpp:76] Creating Layer inception_4b/pool
I0511 06:34:28.506606  8175 net.cpp:372] inception_4b/pool <- inception_4a/output_inception_4a/output_0_split_4
I0511 06:34:28.506614  8175 net.cpp:334] inception_4b/pool -> inception_4b/pool
I0511 06:34:28.506652  8175 net.cpp:105] Setting up inception_4b/pool
I0511 06:34:28.506662  8175 net.cpp:112] Top shape: 32 512 14 14 (3211264)
I0511 06:34:28.506669  8175 layer_factory.hpp:74] Creating layer inception_4b/pool_proj
I0511 06:34:28.506681  8175 net.cpp:76] Creating Layer inception_4b/pool_proj
I0511 06:34:28.506687  8175 net.cpp:372] inception_4b/pool_proj <- inception_4b/pool
I0511 06:34:28.506697  8175 net.cpp:334] inception_4b/pool_proj -> inception_4b/pool_proj
I0511 06:34:28.506707  8175 net.cpp:105] Setting up inception_4b/pool_proj
I0511 06:34:28.506994  8175 net.cpp:112] Top shape: 32 64 14 14 (401408)
I0511 06:34:28.507007  8175 layer_factory.hpp:74] Creating layer inception_4b/relu_pool_proj
I0511 06:34:28.507017  8175 net.cpp:76] Creating Layer inception_4b/relu_pool_proj
I0511 06:34:28.507025  8175 net.cpp:372] inception_4b/relu_pool_proj <- inception_4b/pool_proj
I0511 06:34:28.507046  8175 net.cpp:323] inception_4b/relu_pool_proj -> inception_4b/pool_proj (in-place)
I0511 06:34:28.507055  8175 net.cpp:105] Setting up inception_4b/relu_pool_proj
I0511 06:34:28.507061  8175 net.cpp:112] Top shape: 32 64 14 14 (401408)
I0511 06:34:28.507066  8175 layer_factory.hpp:74] Creating layer inception_4b/output
I0511 06:34:28.507074  8175 net.cpp:76] Creating Layer inception_4b/output
I0511 06:34:28.507079  8175 net.cpp:372] inception_4b/output <- inception_4b/1x1
I0511 06:34:28.507086  8175 net.cpp:372] inception_4b/output <- inception_4b/3x3
I0511 06:34:28.507092  8175 net.cpp:372] inception_4b/output <- inception_4b/5x5
I0511 06:34:28.507098  8175 net.cpp:372] inception_4b/output <- inception_4b/pool_proj
I0511 06:34:28.507112  8175 net.cpp:334] inception_4b/output -> inception_4b/output
I0511 06:34:28.507119  8175 net.cpp:105] Setting up inception_4b/output
I0511 06:34:28.507127  8175 net.cpp:112] Top shape: 32 512 14 14 (3211264)
I0511 06:34:28.507132  8175 layer_factory.hpp:74] Creating layer inception_4b/output_inception_4b/output_0_split
I0511 06:34:28.507139  8175 net.cpp:76] Creating Layer inception_4b/output_inception_4b/output_0_split
I0511 06:34:28.507145  8175 net.cpp:372] inception_4b/output_inception_4b/output_0_split <- inception_4b/output
I0511 06:34:28.507153  8175 net.cpp:334] inception_4b/output_inception_4b/output_0_split -> inception_4b/output_inception_4b/output_0_split_0
I0511 06:34:28.507161  8175 net.cpp:334] inception_4b/output_inception_4b/output_0_split -> inception_4b/output_inception_4b/output_0_split_1
I0511 06:34:28.507171  8175 net.cpp:334] inception_4b/output_inception_4b/output_0_split -> inception_4b/output_inception_4b/output_0_split_2
I0511 06:34:28.507180  8175 net.cpp:334] inception_4b/output_inception_4b/output_0_split -> inception_4b/output_inception_4b/output_0_split_3
I0511 06:34:28.507187  8175 net.cpp:105] Setting up inception_4b/output_inception_4b/output_0_split
I0511 06:34:28.507194  8175 net.cpp:112] Top shape: 32 512 14 14 (3211264)
I0511 06:34:28.507200  8175 net.cpp:112] Top shape: 32 512 14 14 (3211264)
I0511 06:34:28.507205  8175 net.cpp:112] Top shape: 32 512 14 14 (3211264)
I0511 06:34:28.507210  8175 net.cpp:112] Top shape: 32 512 14 14 (3211264)
I0511 06:34:28.507215  8175 layer_factory.hpp:74] Creating layer inception_4c/1x1
I0511 06:34:28.507225  8175 net.cpp:76] Creating Layer inception_4c/1x1
I0511 06:34:28.507231  8175 net.cpp:372] inception_4c/1x1 <- inception_4b/output_inception_4b/output_0_split_0
I0511 06:34:28.508031  8175 net.cpp:334] inception_4c/1x1 -> inception_4c/1x1
I0511 06:34:28.508044  8175 net.cpp:105] Setting up inception_4c/1x1
I0511 06:34:28.508610  8175 net.cpp:112] Top shape: 32 128 14 14 (802816)
I0511 06:34:28.508625  8175 layer_factory.hpp:74] Creating layer inception_4c/relu_1x1
I0511 06:34:28.508633  8175 net.cpp:76] Creating Layer inception_4c/relu_1x1
I0511 06:34:28.508641  8175 net.cpp:372] inception_4c/relu_1x1 <- inception_4c/1x1
I0511 06:34:28.508651  8175 net.cpp:323] inception_4c/relu_1x1 -> inception_4c/1x1 (in-place)
I0511 06:34:28.508658  8175 net.cpp:105] Setting up inception_4c/relu_1x1
I0511 06:34:28.508664  8175 net.cpp:112] Top shape: 32 128 14 14 (802816)
I0511 06:34:28.508671  8175 layer_factory.hpp:74] Creating layer inception_4c/3x3_reduce
I0511 06:34:28.508679  8175 net.cpp:76] Creating Layer inception_4c/3x3_reduce
I0511 06:34:28.508684  8175 net.cpp:372] inception_4c/3x3_reduce <- inception_4b/output_inception_4b/output_0_split_1
I0511 06:34:28.508692  8175 net.cpp:334] inception_4c/3x3_reduce -> inception_4c/3x3_reduce
I0511 06:34:28.508702  8175 net.cpp:105] Setting up inception_4c/3x3_reduce
I0511 06:34:28.509255  8175 net.cpp:112] Top shape: 32 128 14 14 (802816)
I0511 06:34:28.509284  8175 layer_factory.hpp:74] Creating layer inception_4c/relu_3x3_reduce
I0511 06:34:28.509294  8175 net.cpp:76] Creating Layer inception_4c/relu_3x3_reduce
I0511 06:34:28.509300  8175 net.cpp:372] inception_4c/relu_3x3_reduce <- inception_4c/3x3_reduce
I0511 06:34:28.509307  8175 net.cpp:323] inception_4c/relu_3x3_reduce -> inception_4c/3x3_reduce (in-place)
I0511 06:34:28.509333  8175 net.cpp:105] Setting up inception_4c/relu_3x3_reduce
I0511 06:34:28.509340  8175 net.cpp:112] Top shape: 32 128 14 14 (802816)
I0511 06:34:28.509346  8175 layer_factory.hpp:74] Creating layer inception_4c/3x3
I0511 06:34:28.509354  8175 net.cpp:76] Creating Layer inception_4c/3x3
I0511 06:34:28.509359  8175 net.cpp:372] inception_4c/3x3 <- inception_4c/3x3_reduce
I0511 06:34:28.509371  8175 net.cpp:334] inception_4c/3x3 -> inception_4c/3x3
I0511 06:34:28.509379  8175 net.cpp:105] Setting up inception_4c/3x3
I0511 06:34:28.511853  8175 net.cpp:112] Top shape: 32 256 14 14 (1605632)
I0511 06:34:28.511891  8175 layer_factory.hpp:74] Creating layer inception_4c/relu_3x3
I0511 06:34:28.511903  8175 net.cpp:76] Creating Layer inception_4c/relu_3x3
I0511 06:34:28.511909  8175 net.cpp:372] inception_4c/relu_3x3 <- inception_4c/3x3
I0511 06:34:28.511917  8175 net.cpp:323] inception_4c/relu_3x3 -> inception_4c/3x3 (in-place)
I0511 06:34:28.511926  8175 net.cpp:105] Setting up inception_4c/relu_3x3
I0511 06:34:28.511931  8175 net.cpp:112] Top shape: 32 256 14 14 (1605632)
I0511 06:34:28.511937  8175 layer_factory.hpp:74] Creating layer inception_4c/5x5_reduce
I0511 06:34:28.511948  8175 net.cpp:76] Creating Layer inception_4c/5x5_reduce
I0511 06:34:28.511955  8175 net.cpp:372] inception_4c/5x5_reduce <- inception_4b/output_inception_4b/output_0_split_2
I0511 06:34:28.511963  8175 net.cpp:334] inception_4c/5x5_reduce -> inception_4c/5x5_reduce
I0511 06:34:28.511973  8175 net.cpp:105] Setting up inception_4c/5x5_reduce
I0511 06:34:28.512089  8175 net.cpp:112] Top shape: 32 24 14 14 (150528)
I0511 06:34:28.512100  8175 layer_factory.hpp:74] Creating layer inception_4c/relu_5x5_reduce
I0511 06:34:28.512107  8175 net.cpp:76] Creating Layer inception_4c/relu_5x5_reduce
I0511 06:34:28.512114  8175 net.cpp:372] inception_4c/relu_5x5_reduce <- inception_4c/5x5_reduce
I0511 06:34:28.512120  8175 net.cpp:323] inception_4c/relu_5x5_reduce -> inception_4c/5x5_reduce (in-place)
I0511 06:34:28.512128  8175 net.cpp:105] Setting up inception_4c/relu_5x5_reduce
I0511 06:34:28.512135  8175 net.cpp:112] Top shape: 32 24 14 14 (150528)
I0511 06:34:28.512140  8175 layer_factory.hpp:74] Creating layer inception_4c/5x5
I0511 06:34:28.512153  8175 net.cpp:76] Creating Layer inception_4c/5x5
I0511 06:34:28.512161  8175 net.cpp:372] inception_4c/5x5 <- inception_4c/5x5_reduce
I0511 06:34:28.512171  8175 net.cpp:334] inception_4c/5x5 -> inception_4c/5x5
I0511 06:34:28.512179  8175 net.cpp:105] Setting up inception_4c/5x5
I0511 06:34:28.512526  8175 net.cpp:112] Top shape: 32 64 14 14 (401408)
I0511 06:34:28.512542  8175 layer_factory.hpp:74] Creating layer inception_4c/relu_5x5
I0511 06:34:28.512550  8175 net.cpp:76] Creating Layer inception_4c/relu_5x5
I0511 06:34:28.512557  8175 net.cpp:372] inception_4c/relu_5x5 <- inception_4c/5x5
I0511 06:34:28.512563  8175 net.cpp:323] inception_4c/relu_5x5 -> inception_4c/5x5 (in-place)
I0511 06:34:28.512572  8175 net.cpp:105] Setting up inception_4c/relu_5x5
I0511 06:34:28.512578  8175 net.cpp:112] Top shape: 32 64 14 14 (401408)
I0511 06:34:28.512583  8175 layer_factory.hpp:74] Creating layer inception_4c/pool
I0511 06:34:28.512590  8175 net.cpp:76] Creating Layer inception_4c/pool
I0511 06:34:28.512596  8175 net.cpp:372] inception_4c/pool <- inception_4b/output_inception_4b/output_0_split_3
I0511 06:34:28.512604  8175 net.cpp:334] inception_4c/pool -> inception_4c/pool
I0511 06:34:28.512617  8175 net.cpp:105] Setting up inception_4c/pool
I0511 06:34:28.512626  8175 net.cpp:112] Top shape: 32 512 14 14 (3211264)
I0511 06:34:28.512631  8175 layer_factory.hpp:74] Creating layer inception_4c/pool_proj
I0511 06:34:28.512640  8175 net.cpp:76] Creating Layer inception_4c/pool_proj
I0511 06:34:28.512646  8175 net.cpp:372] inception_4c/pool_proj <- inception_4c/pool
I0511 06:34:28.512656  8175 net.cpp:334] inception_4c/pool_proj -> inception_4c/pool_proj
I0511 06:34:28.512666  8175 net.cpp:105] Setting up inception_4c/pool_proj
I0511 06:34:28.512970  8175 net.cpp:112] Top shape: 32 64 14 14 (401408)
I0511 06:34:28.512984  8175 layer_factory.hpp:74] Creating layer inception_4c/relu_pool_proj
I0511 06:34:28.512995  8175 net.cpp:76] Creating Layer inception_4c/relu_pool_proj
I0511 06:34:28.513000  8175 net.cpp:372] inception_4c/relu_pool_proj <- inception_4c/pool_proj
I0511 06:34:28.513008  8175 net.cpp:323] inception_4c/relu_pool_proj -> inception_4c/pool_proj (in-place)
I0511 06:34:28.513016  8175 net.cpp:105] Setting up inception_4c/relu_pool_proj
I0511 06:34:28.513021  8175 net.cpp:112] Top shape: 32 64 14 14 (401408)
I0511 06:34:28.513027  8175 layer_factory.hpp:74] Creating layer inception_4c/output
I0511 06:34:28.513037  8175 net.cpp:76] Creating Layer inception_4c/output
I0511 06:34:28.513046  8175 net.cpp:372] inception_4c/output <- inception_4c/1x1
I0511 06:34:28.513052  8175 net.cpp:372] inception_4c/output <- inception_4c/3x3
I0511 06:34:28.513058  8175 net.cpp:372] inception_4c/output <- inception_4c/5x5
I0511 06:34:28.513064  8175 net.cpp:372] inception_4c/output <- inception_4c/pool_proj
I0511 06:34:28.513072  8175 net.cpp:334] inception_4c/output -> inception_4c/output
I0511 06:34:28.513080  8175 net.cpp:105] Setting up inception_4c/output
I0511 06:34:28.513087  8175 net.cpp:112] Top shape: 32 512 14 14 (3211264)
I0511 06:34:28.513092  8175 layer_factory.hpp:74] Creating layer inception_4c/output_inception_4c/output_0_split
I0511 06:34:28.513121  8175 net.cpp:76] Creating Layer inception_4c/output_inception_4c/output_0_split
I0511 06:34:28.513129  8175 net.cpp:372] inception_4c/output_inception_4c/output_0_split <- inception_4c/output
I0511 06:34:28.513137  8175 net.cpp:334] inception_4c/output_inception_4c/output_0_split -> inception_4c/output_inception_4c/output_0_split_0
I0511 06:34:28.513150  8175 net.cpp:334] inception_4c/output_inception_4c/output_0_split -> inception_4c/output_inception_4c/output_0_split_1
I0511 06:34:28.513160  8175 net.cpp:334] inception_4c/output_inception_4c/output_0_split -> inception_4c/output_inception_4c/output_0_split_2
I0511 06:34:28.513170  8175 net.cpp:334] inception_4c/output_inception_4c/output_0_split -> inception_4c/output_inception_4c/output_0_split_3
I0511 06:34:28.513176  8175 net.cpp:105] Setting up inception_4c/output_inception_4c/output_0_split
I0511 06:34:28.513183  8175 net.cpp:112] Top shape: 32 512 14 14 (3211264)
I0511 06:34:28.513200  8175 net.cpp:112] Top shape: 32 512 14 14 (3211264)
I0511 06:34:28.513206  8175 net.cpp:112] Top shape: 32 512 14 14 (3211264)
I0511 06:34:28.513211  8175 net.cpp:112] Top shape: 32 512 14 14 (3211264)
I0511 06:34:28.513216  8175 layer_factory.hpp:74] Creating layer inception_4d/1x1
I0511 06:34:28.513227  8175 net.cpp:76] Creating Layer inception_4d/1x1
I0511 06:34:28.513233  8175 net.cpp:372] inception_4d/1x1 <- inception_4c/output_inception_4c/output_0_split_0
I0511 06:34:28.513242  8175 net.cpp:334] inception_4d/1x1 -> inception_4d/1x1
I0511 06:34:28.513250  8175 net.cpp:105] Setting up inception_4d/1x1
I0511 06:34:28.513748  8175 net.cpp:112] Top shape: 32 112 14 14 (702464)
I0511 06:34:28.513762  8175 layer_factory.hpp:74] Creating layer inception_4d/relu_1x1
I0511 06:34:28.513770  8175 net.cpp:76] Creating Layer inception_4d/relu_1x1
I0511 06:34:28.513775  8175 net.cpp:372] inception_4d/relu_1x1 <- inception_4d/1x1
I0511 06:34:28.513785  8175 net.cpp:323] inception_4d/relu_1x1 -> inception_4d/1x1 (in-place)
I0511 06:34:28.513793  8175 net.cpp:105] Setting up inception_4d/relu_1x1
I0511 06:34:28.513798  8175 net.cpp:112] Top shape: 32 112 14 14 (702464)
I0511 06:34:28.513804  8175 layer_factory.hpp:74] Creating layer inception_4d/3x3_reduce
I0511 06:34:28.513813  8175 net.cpp:76] Creating Layer inception_4d/3x3_reduce
I0511 06:34:28.513818  8175 net.cpp:372] inception_4d/3x3_reduce <- inception_4c/output_inception_4c/output_0_split_1
I0511 06:34:28.513828  8175 net.cpp:334] inception_4d/3x3_reduce -> inception_4d/3x3_reduce
I0511 06:34:28.513838  8175 net.cpp:105] Setting up inception_4d/3x3_reduce
I0511 06:34:28.514474  8175 net.cpp:112] Top shape: 32 144 14 14 (903168)
I0511 06:34:28.514503  8175 layer_factory.hpp:74] Creating layer inception_4d/relu_3x3_reduce
I0511 06:34:28.514513  8175 net.cpp:76] Creating Layer inception_4d/relu_3x3_reduce
I0511 06:34:28.514518  8175 net.cpp:372] inception_4d/relu_3x3_reduce <- inception_4d/3x3_reduce
I0511 06:34:28.514525  8175 net.cpp:323] inception_4d/relu_3x3_reduce -> inception_4d/3x3_reduce (in-place)
I0511 06:34:28.514533  8175 net.cpp:105] Setting up inception_4d/relu_3x3_reduce
I0511 06:34:28.514539  8175 net.cpp:112] Top shape: 32 144 14 14 (903168)
I0511 06:34:28.514544  8175 layer_factory.hpp:74] Creating layer inception_4d/3x3
I0511 06:34:28.514555  8175 net.cpp:76] Creating Layer inception_4d/3x3
I0511 06:34:28.514561  8175 net.cpp:372] inception_4d/3x3 <- inception_4d/3x3_reduce
I0511 06:34:28.514569  8175 net.cpp:334] inception_4d/3x3 -> inception_4d/3x3
I0511 06:34:28.514580  8175 net.cpp:105] Setting up inception_4d/3x3
I0511 06:34:28.517693  8175 net.cpp:112] Top shape: 32 288 14 14 (1806336)
I0511 06:34:28.517714  8175 layer_factory.hpp:74] Creating layer inception_4d/relu_3x3
I0511 06:34:28.517724  8175 net.cpp:76] Creating Layer inception_4d/relu_3x3
I0511 06:34:28.517730  8175 net.cpp:372] inception_4d/relu_3x3 <- inception_4d/3x3
I0511 06:34:28.517738  8175 net.cpp:323] inception_4d/relu_3x3 -> inception_4d/3x3 (in-place)
I0511 06:34:28.517747  8175 net.cpp:105] Setting up inception_4d/relu_3x3
I0511 06:34:28.518509  8175 net.cpp:112] Top shape: 32 288 14 14 (1806336)
I0511 06:34:28.518524  8175 layer_factory.hpp:74] Creating layer inception_4d/5x5_reduce
I0511 06:34:28.518543  8175 net.cpp:76] Creating Layer inception_4d/5x5_reduce
I0511 06:34:28.518555  8175 net.cpp:372] inception_4d/5x5_reduce <- inception_4c/output_inception_4c/output_0_split_2
I0511 06:34:28.518573  8175 net.cpp:334] inception_4d/5x5_reduce -> inception_4d/5x5_reduce
I0511 06:34:28.518585  8175 net.cpp:105] Setting up inception_4d/5x5_reduce
I0511 06:34:28.518746  8175 net.cpp:112] Top shape: 32 32 14 14 (200704)
I0511 06:34:28.518766  8175 layer_factory.hpp:74] Creating layer inception_4d/relu_5x5_reduce
I0511 06:34:28.518777  8175 net.cpp:76] Creating Layer inception_4d/relu_5x5_reduce
I0511 06:34:28.518784  8175 net.cpp:372] inception_4d/relu_5x5_reduce <- inception_4d/5x5_reduce
I0511 06:34:28.518800  8175 net.cpp:323] inception_4d/relu_5x5_reduce -> inception_4d/5x5_reduce (in-place)
I0511 06:34:28.518820  8175 net.cpp:105] Setting up inception_4d/relu_5x5_reduce
I0511 06:34:28.518832  8175 net.cpp:112] Top shape: 32 32 14 14 (200704)
I0511 06:34:28.518844  8175 layer_factory.hpp:74] Creating layer inception_4d/5x5
I0511 06:34:28.518862  8175 net.cpp:76] Creating Layer inception_4d/5x5
I0511 06:34:28.518874  8175 net.cpp:372] inception_4d/5x5 <- inception_4d/5x5_reduce
I0511 06:34:28.518895  8175 net.cpp:334] inception_4d/5x5 -> inception_4d/5x5
I0511 06:34:28.518909  8175 net.cpp:105] Setting up inception_4d/5x5
I0511 06:34:28.519397  8175 net.cpp:112] Top shape: 32 64 14 14 (401408)
I0511 06:34:28.519420  8175 layer_factory.hpp:74] Creating layer inception_4d/relu_5x5
I0511 06:34:28.519435  8175 net.cpp:76] Creating Layer inception_4d/relu_5x5
I0511 06:34:28.519448  8175 net.cpp:372] inception_4d/relu_5x5 <- inception_4d/5x5
I0511 06:34:28.519462  8175 net.cpp:323] inception_4d/relu_5x5 -> inception_4d/5x5 (in-place)
I0511 06:34:28.519479  8175 net.cpp:105] Setting up inception_4d/relu_5x5
I0511 06:34:28.519491  8175 net.cpp:112] Top shape: 32 64 14 14 (401408)
I0511 06:34:28.519502  8175 layer_factory.hpp:74] Creating layer inception_4d/pool
I0511 06:34:28.519533  8175 net.cpp:76] Creating Layer inception_4d/pool
I0511 06:34:28.519546  8175 net.cpp:372] inception_4d/pool <- inception_4c/output_inception_4c/output_0_split_3
I0511 06:34:28.519559  8175 net.cpp:334] inception_4d/pool -> inception_4d/pool
I0511 06:34:28.519575  8175 net.cpp:105] Setting up inception_4d/pool
I0511 06:34:28.519585  8175 net.cpp:112] Top shape: 32 512 14 14 (3211264)
I0511 06:34:28.519592  8175 layer_factory.hpp:74] Creating layer inception_4d/pool_proj
I0511 06:34:28.519630  8175 net.cpp:76] Creating Layer inception_4d/pool_proj
I0511 06:34:28.519641  8175 net.cpp:372] inception_4d/pool_proj <- inception_4d/pool
I0511 06:34:28.519660  8175 net.cpp:334] inception_4d/pool_proj -> inception_4d/pool_proj
I0511 06:34:28.519680  8175 net.cpp:105] Setting up inception_4d/pool_proj
I0511 06:34:28.519999  8175 net.cpp:112] Top shape: 32 64 14 14 (401408)
I0511 06:34:28.520015  8175 layer_factory.hpp:74] Creating layer inception_4d/relu_pool_proj
I0511 06:34:28.520022  8175 net.cpp:76] Creating Layer inception_4d/relu_pool_proj
I0511 06:34:28.520028  8175 net.cpp:372] inception_4d/relu_pool_proj <- inception_4d/pool_proj
I0511 06:34:28.520036  8175 net.cpp:323] inception_4d/relu_pool_proj -> inception_4d/pool_proj (in-place)
I0511 06:34:28.520045  8175 net.cpp:105] Setting up inception_4d/relu_pool_proj
I0511 06:34:28.520051  8175 net.cpp:112] Top shape: 32 64 14 14 (401408)
I0511 06:34:28.520056  8175 layer_factory.hpp:74] Creating layer inception_4d/output
I0511 06:34:28.520066  8175 net.cpp:76] Creating Layer inception_4d/output
I0511 06:34:28.520071  8175 net.cpp:372] inception_4d/output <- inception_4d/1x1
I0511 06:34:28.520078  8175 net.cpp:372] inception_4d/output <- inception_4d/3x3
I0511 06:34:28.520084  8175 net.cpp:372] inception_4d/output <- inception_4d/5x5
I0511 06:34:28.520090  8175 net.cpp:372] inception_4d/output <- inception_4d/pool_proj
I0511 06:34:28.520098  8175 net.cpp:334] inception_4d/output -> inception_4d/output
I0511 06:34:28.520107  8175 net.cpp:105] Setting up inception_4d/output
I0511 06:34:28.520112  8175 net.cpp:112] Top shape: 32 528 14 14 (3311616)
I0511 06:34:28.520118  8175 layer_factory.hpp:74] Creating layer inception_4d/output_inception_4d/output_0_split
I0511 06:34:28.520126  8175 net.cpp:76] Creating Layer inception_4d/output_inception_4d/output_0_split
I0511 06:34:28.520131  8175 net.cpp:372] inception_4d/output_inception_4d/output_0_split <- inception_4d/output
I0511 06:34:28.520141  8175 net.cpp:334] inception_4d/output_inception_4d/output_0_split -> inception_4d/output_inception_4d/output_0_split_0
I0511 06:34:28.520150  8175 net.cpp:334] inception_4d/output_inception_4d/output_0_split -> inception_4d/output_inception_4d/output_0_split_1
I0511 06:34:28.520160  8175 net.cpp:334] inception_4d/output_inception_4d/output_0_split -> inception_4d/output_inception_4d/output_0_split_2
I0511 06:34:28.520169  8175 net.cpp:334] inception_4d/output_inception_4d/output_0_split -> inception_4d/output_inception_4d/output_0_split_3
I0511 06:34:28.520177  8175 net.cpp:334] inception_4d/output_inception_4d/output_0_split -> inception_4d/output_inception_4d/output_0_split_4
I0511 06:34:28.520185  8175 net.cpp:105] Setting up inception_4d/output_inception_4d/output_0_split
I0511 06:34:28.520192  8175 net.cpp:112] Top shape: 32 528 14 14 (3311616)
I0511 06:34:28.520198  8175 net.cpp:112] Top shape: 32 528 14 14 (3311616)
I0511 06:34:28.520202  8175 net.cpp:112] Top shape: 32 528 14 14 (3311616)
I0511 06:34:28.520207  8175 net.cpp:112] Top shape: 32 528 14 14 (3311616)
I0511 06:34:28.520212  8175 net.cpp:112] Top shape: 32 528 14 14 (3311616)
I0511 06:34:28.520218  8175 layer_factory.hpp:74] Creating layer loss2/ave_pool
I0511 06:34:28.520227  8175 net.cpp:76] Creating Layer loss2/ave_pool
I0511 06:34:28.520233  8175 net.cpp:372] loss2/ave_pool <- inception_4d/output_inception_4d/output_0_split_0
I0511 06:34:28.520242  8175 net.cpp:334] loss2/ave_pool -> loss2/ave_pool
I0511 06:34:28.520251  8175 net.cpp:105] Setting up loss2/ave_pool
I0511 06:34:28.520256  8175 net.cpp:112] Top shape: 32 528 4 4 (270336)
I0511 06:34:28.520262  8175 layer_factory.hpp:74] Creating layer loss2/conv
I0511 06:34:28.520289  8175 net.cpp:76] Creating Layer loss2/conv
I0511 06:34:28.520298  8175 net.cpp:372] loss2/conv <- loss2/ave_pool
I0511 06:34:28.520306  8175 net.cpp:334] loss2/conv -> loss2/conv
I0511 06:34:28.520315  8175 net.cpp:105] Setting up loss2/conv
I0511 06:34:28.520889  8175 net.cpp:112] Top shape: 32 128 4 4 (65536)
I0511 06:34:28.520902  8175 layer_factory.hpp:74] Creating layer loss2/relu_conv
I0511 06:34:28.520925  8175 net.cpp:76] Creating Layer loss2/relu_conv
I0511 06:34:28.520931  8175 net.cpp:372] loss2/relu_conv <- loss2/conv
I0511 06:34:28.520941  8175 net.cpp:323] loss2/relu_conv -> loss2/conv (in-place)
I0511 06:34:28.520949  8175 net.cpp:105] Setting up loss2/relu_conv
I0511 06:34:28.520956  8175 net.cpp:112] Top shape: 32 128 4 4 (65536)
I0511 06:34:28.520961  8175 layer_factory.hpp:74] Creating layer loss2/fc
I0511 06:34:28.520970  8175 net.cpp:76] Creating Layer loss2/fc
I0511 06:34:28.520977  8175 net.cpp:372] loss2/fc <- loss2/conv
I0511 06:34:28.520983  8175 net.cpp:334] loss2/fc -> loss2/fc
I0511 06:34:28.520992  8175 net.cpp:105] Setting up loss2/fc
I0511 06:34:28.538609  8175 net.cpp:112] Top shape: 32 1024 1 1 (32768)
I0511 06:34:28.538661  8175 layer_factory.hpp:74] Creating layer loss2/relu_fc
I0511 06:34:28.538676  8175 net.cpp:76] Creating Layer loss2/relu_fc
I0511 06:34:28.538686  8175 net.cpp:372] loss2/relu_fc <- loss2/fc
I0511 06:34:28.538697  8175 net.cpp:323] loss2/relu_fc -> loss2/fc (in-place)
I0511 06:34:28.538712  8175 net.cpp:105] Setting up loss2/relu_fc
I0511 06:34:28.538717  8175 net.cpp:112] Top shape: 32 1024 1 1 (32768)
I0511 06:34:28.538723  8175 layer_factory.hpp:74] Creating layer loss2/drop_fc
I0511 06:34:28.538733  8175 net.cpp:76] Creating Layer loss2/drop_fc
I0511 06:34:28.538738  8175 net.cpp:372] loss2/drop_fc <- loss2/fc
I0511 06:34:28.538745  8175 net.cpp:323] loss2/drop_fc -> loss2/fc (in-place)
I0511 06:34:28.538753  8175 net.cpp:105] Setting up loss2/drop_fc
I0511 06:34:28.538759  8175 net.cpp:112] Top shape: 32 1024 1 1 (32768)
I0511 06:34:28.538765  8175 layer_factory.hpp:74] Creating layer loss2/classifier
I0511 06:34:28.538775  8175 net.cpp:76] Creating Layer loss2/classifier
I0511 06:34:28.538780  8175 net.cpp:372] loss2/classifier <- loss2/fc
I0511 06:34:28.538791  8175 net.cpp:334] loss2/classifier -> loss2/classifier
I0511 06:34:28.538802  8175 net.cpp:105] Setting up loss2/classifier
I0511 06:34:28.538836  8175 net.cpp:112] Top shape: 32 2 1 1 (64)
I0511 06:34:28.538846  8175 layer_factory.hpp:74] Creating layer loss2/loss
I0511 06:34:28.538856  8175 net.cpp:76] Creating Layer loss2/loss
I0511 06:34:28.538863  8175 net.cpp:372] loss2/loss <- loss2/classifier
I0511 06:34:28.538871  8175 net.cpp:372] loss2/loss <- label_data_1_split_1
I0511 06:34:28.538878  8175 net.cpp:334] loss2/loss -> loss2/loss1
I0511 06:34:28.538887  8175 net.cpp:105] Setting up loss2/loss
I0511 06:34:28.538895  8175 layer_factory.hpp:74] Creating layer loss2/loss
I0511 06:34:28.538910  8175 net.cpp:112] Top shape: 1 1 1 1 (1)
I0511 06:34:28.538918  8175 net.cpp:118]     with loss weight 0.3
I0511 06:34:28.538934  8175 layer_factory.hpp:74] Creating layer inception_4e/1x1
I0511 06:34:28.538947  8175 net.cpp:76] Creating Layer inception_4e/1x1
I0511 06:34:28.538954  8175 net.cpp:372] inception_4e/1x1 <- inception_4d/output_inception_4d/output_0_split_1
I0511 06:34:28.538964  8175 net.cpp:334] inception_4e/1x1 -> inception_4e/1x1
I0511 06:34:28.538972  8175 net.cpp:105] Setting up inception_4e/1x1
I0511 06:34:28.540156  8175 net.cpp:112] Top shape: 32 256 14 14 (1605632)
I0511 06:34:28.540176  8175 layer_factory.hpp:74] Creating layer inception_4e/relu_1x1
I0511 06:34:28.540185  8175 net.cpp:76] Creating Layer inception_4e/relu_1x1
I0511 06:34:28.540192  8175 net.cpp:372] inception_4e/relu_1x1 <- inception_4e/1x1
I0511 06:34:28.540199  8175 net.cpp:323] inception_4e/relu_1x1 -> inception_4e/1x1 (in-place)
I0511 06:34:28.540207  8175 net.cpp:105] Setting up inception_4e/relu_1x1
I0511 06:34:28.540212  8175 net.cpp:112] Top shape: 32 256 14 14 (1605632)
I0511 06:34:28.540218  8175 layer_factory.hpp:74] Creating layer inception_4e/3x3_reduce
I0511 06:34:28.540226  8175 net.cpp:76] Creating Layer inception_4e/3x3_reduce
I0511 06:34:28.540232  8175 net.cpp:372] inception_4e/3x3_reduce <- inception_4d/output_inception_4d/output_0_split_2
I0511 06:34:28.540253  8175 net.cpp:334] inception_4e/3x3_reduce -> inception_4e/3x3_reduce
I0511 06:34:28.540308  8175 net.cpp:105] Setting up inception_4e/3x3_reduce
I0511 06:34:28.541023  8175 net.cpp:112] Top shape: 32 160 14 14 (1003520)
I0511 06:34:28.541038  8175 layer_factory.hpp:74] Creating layer inception_4e/relu_3x3_reduce
I0511 06:34:28.541045  8175 net.cpp:76] Creating Layer inception_4e/relu_3x3_reduce
I0511 06:34:28.541052  8175 net.cpp:372] inception_4e/relu_3x3_reduce <- inception_4e/3x3_reduce
I0511 06:34:28.541061  8175 net.cpp:323] inception_4e/relu_3x3_reduce -> inception_4e/3x3_reduce (in-place)
I0511 06:34:28.541069  8175 net.cpp:105] Setting up inception_4e/relu_3x3_reduce
I0511 06:34:28.541074  8175 net.cpp:112] Top shape: 32 160 14 14 (1003520)
I0511 06:34:28.541080  8175 layer_factory.hpp:74] Creating layer inception_4e/3x3
I0511 06:34:28.541088  8175 net.cpp:76] Creating Layer inception_4e/3x3
I0511 06:34:28.541095  8175 net.cpp:372] inception_4e/3x3 <- inception_4e/3x3_reduce
I0511 06:34:28.541105  8175 net.cpp:334] inception_4e/3x3 -> inception_4e/3x3
I0511 06:34:28.541117  8175 net.cpp:105] Setting up inception_4e/3x3
I0511 06:34:28.544952  8175 net.cpp:112] Top shape: 32 320 14 14 (2007040)
I0511 06:34:28.544972  8175 layer_factory.hpp:74] Creating layer inception_4e/relu_3x3
I0511 06:34:28.544981  8175 net.cpp:76] Creating Layer inception_4e/relu_3x3
I0511 06:34:28.544987  8175 net.cpp:372] inception_4e/relu_3x3 <- inception_4e/3x3
I0511 06:34:28.545003  8175 net.cpp:323] inception_4e/relu_3x3 -> inception_4e/3x3 (in-place)
I0511 06:34:28.545012  8175 net.cpp:105] Setting up inception_4e/relu_3x3
I0511 06:34:28.545017  8175 net.cpp:112] Top shape: 32 320 14 14 (2007040)
I0511 06:34:28.545023  8175 layer_factory.hpp:74] Creating layer inception_4e/5x5_reduce
I0511 06:34:28.545032  8175 net.cpp:76] Creating Layer inception_4e/5x5_reduce
I0511 06:34:28.545038  8175 net.cpp:372] inception_4e/5x5_reduce <- inception_4d/output_inception_4d/output_0_split_3
I0511 06:34:28.545048  8175 net.cpp:334] inception_4e/5x5_reduce -> inception_4e/5x5_reduce
I0511 06:34:28.545058  8175 net.cpp:105] Setting up inception_4e/5x5_reduce
I0511 06:34:28.545204  8175 net.cpp:112] Top shape: 32 32 14 14 (200704)
I0511 06:34:28.545218  8175 layer_factory.hpp:74] Creating layer inception_4e/relu_5x5_reduce
I0511 06:34:28.545228  8175 net.cpp:76] Creating Layer inception_4e/relu_5x5_reduce
I0511 06:34:28.545233  8175 net.cpp:372] inception_4e/relu_5x5_reduce <- inception_4e/5x5_reduce
I0511 06:34:28.545240  8175 net.cpp:323] inception_4e/relu_5x5_reduce -> inception_4e/5x5_reduce (in-place)
I0511 06:34:28.545248  8175 net.cpp:105] Setting up inception_4e/relu_5x5_reduce
I0511 06:34:28.545253  8175 net.cpp:112] Top shape: 32 32 14 14 (200704)
I0511 06:34:28.545259  8175 layer_factory.hpp:74] Creating layer inception_4e/5x5
I0511 06:34:28.545300  8175 net.cpp:76] Creating Layer inception_4e/5x5
I0511 06:34:28.545308  8175 net.cpp:372] inception_4e/5x5 <- inception_4e/5x5_reduce
I0511 06:34:28.545317  8175 net.cpp:334] inception_4e/5x5 -> inception_4e/5x5
I0511 06:34:28.545326  8175 net.cpp:105] Setting up inception_4e/5x5
I0511 06:34:28.546187  8175 net.cpp:112] Top shape: 32 128 14 14 (802816)
I0511 06:34:28.546202  8175 layer_factory.hpp:74] Creating layer inception_4e/relu_5x5
I0511 06:34:28.546211  8175 net.cpp:76] Creating Layer inception_4e/relu_5x5
I0511 06:34:28.546217  8175 net.cpp:372] inception_4e/relu_5x5 <- inception_4e/5x5
I0511 06:34:28.546224  8175 net.cpp:323] inception_4e/relu_5x5 -> inception_4e/5x5 (in-place)
I0511 06:34:28.546232  8175 net.cpp:105] Setting up inception_4e/relu_5x5
I0511 06:34:28.546237  8175 net.cpp:112] Top shape: 32 128 14 14 (802816)
I0511 06:34:28.546243  8175 layer_factory.hpp:74] Creating layer inception_4e/pool
I0511 06:34:28.546252  8175 net.cpp:76] Creating Layer inception_4e/pool
I0511 06:34:28.546257  8175 net.cpp:372] inception_4e/pool <- inception_4d/output_inception_4d/output_0_split_4
I0511 06:34:28.546267  8175 net.cpp:334] inception_4e/pool -> inception_4e/pool
I0511 06:34:28.546289  8175 net.cpp:105] Setting up inception_4e/pool
I0511 06:34:28.546298  8175 net.cpp:112] Top shape: 32 528 14 14 (3311616)
I0511 06:34:28.546325  8175 layer_factory.hpp:74] Creating layer inception_4e/pool_proj
I0511 06:34:28.546335  8175 net.cpp:76] Creating Layer inception_4e/pool_proj
I0511 06:34:28.546344  8175 net.cpp:372] inception_4e/pool_proj <- inception_4e/pool
I0511 06:34:28.546353  8175 net.cpp:334] inception_4e/pool_proj -> inception_4e/pool_proj
I0511 06:34:28.546362  8175 net.cpp:105] Setting up inception_4e/pool_proj
I0511 06:34:28.546938  8175 net.cpp:112] Top shape: 32 128 14 14 (802816)
I0511 06:34:28.546952  8175 layer_factory.hpp:74] Creating layer inception_4e/relu_pool_proj
I0511 06:34:28.546960  8175 net.cpp:76] Creating Layer inception_4e/relu_pool_proj
I0511 06:34:28.546967  8175 net.cpp:372] inception_4e/relu_pool_proj <- inception_4e/pool_proj
I0511 06:34:28.546977  8175 net.cpp:323] inception_4e/relu_pool_proj -> inception_4e/pool_proj (in-place)
I0511 06:34:28.546984  8175 net.cpp:105] Setting up inception_4e/relu_pool_proj
I0511 06:34:28.546990  8175 net.cpp:112] Top shape: 32 128 14 14 (802816)
I0511 06:34:28.546995  8175 layer_factory.hpp:74] Creating layer inception_4e/output
I0511 06:34:28.547003  8175 net.cpp:76] Creating Layer inception_4e/output
I0511 06:34:28.547009  8175 net.cpp:372] inception_4e/output <- inception_4e/1x1
I0511 06:34:28.547016  8175 net.cpp:372] inception_4e/output <- inception_4e/3x3
I0511 06:34:28.547022  8175 net.cpp:372] inception_4e/output <- inception_4e/5x5
I0511 06:34:28.547029  8175 net.cpp:372] inception_4e/output <- inception_4e/pool_proj
I0511 06:34:28.547037  8175 net.cpp:334] inception_4e/output -> inception_4e/output
I0511 06:34:28.547046  8175 net.cpp:105] Setting up inception_4e/output
I0511 06:34:28.547054  8175 net.cpp:112] Top shape: 32 832 14 14 (5218304)
I0511 06:34:28.547060  8175 layer_factory.hpp:74] Creating layer pool4/3x3_s2
I0511 06:34:28.547066  8175 net.cpp:76] Creating Layer pool4/3x3_s2
I0511 06:34:28.547097  8175 net.cpp:372] pool4/3x3_s2 <- inception_4e/output
I0511 06:34:28.547111  8175 net.cpp:334] pool4/3x3_s2 -> pool4/3x3_s2
I0511 06:34:28.547121  8175 net.cpp:105] Setting up pool4/3x3_s2
I0511 06:34:28.547127  8175 net.cpp:112] Top shape: 32 832 7 7 (1304576)
I0511 06:34:28.547133  8175 layer_factory.hpp:74] Creating layer pool4/3x3_s2_pool4/3x3_s2_0_split
I0511 06:34:28.547140  8175 net.cpp:76] Creating Layer pool4/3x3_s2_pool4/3x3_s2_0_split
I0511 06:34:28.547147  8175 net.cpp:372] pool4/3x3_s2_pool4/3x3_s2_0_split <- pool4/3x3_s2
I0511 06:34:28.547155  8175 net.cpp:334] pool4/3x3_s2_pool4/3x3_s2_0_split -> pool4/3x3_s2_pool4/3x3_s2_0_split_0
I0511 06:34:28.547164  8175 net.cpp:334] pool4/3x3_s2_pool4/3x3_s2_0_split -> pool4/3x3_s2_pool4/3x3_s2_0_split_1
I0511 06:34:28.547173  8175 net.cpp:334] pool4/3x3_s2_pool4/3x3_s2_0_split -> pool4/3x3_s2_pool4/3x3_s2_0_split_2
I0511 06:34:28.547181  8175 net.cpp:334] pool4/3x3_s2_pool4/3x3_s2_0_split -> pool4/3x3_s2_pool4/3x3_s2_0_split_3
I0511 06:34:28.547188  8175 net.cpp:105] Setting up pool4/3x3_s2_pool4/3x3_s2_0_split
I0511 06:34:28.547195  8175 net.cpp:112] Top shape: 32 832 7 7 (1304576)
I0511 06:34:28.547200  8175 net.cpp:112] Top shape: 32 832 7 7 (1304576)
I0511 06:34:28.547205  8175 net.cpp:112] Top shape: 32 832 7 7 (1304576)
I0511 06:34:28.547210  8175 net.cpp:112] Top shape: 32 832 7 7 (1304576)
I0511 06:34:28.547215  8175 layer_factory.hpp:74] Creating layer inception_5a/1x1
I0511 06:34:28.547225  8175 net.cpp:76] Creating Layer inception_5a/1x1
I0511 06:34:28.547232  8175 net.cpp:372] inception_5a/1x1 <- pool4/3x3_s2_pool4/3x3_s2_0_split_0
I0511 06:34:28.547240  8175 net.cpp:334] inception_5a/1x1 -> inception_5a/1x1
I0511 06:34:28.547250  8175 net.cpp:105] Setting up inception_5a/1x1
I0511 06:34:28.549031  8175 net.cpp:112] Top shape: 32 256 7 7 (401408)
I0511 06:34:28.549047  8175 layer_factory.hpp:74] Creating layer inception_5a/relu_1x1
I0511 06:34:28.549056  8175 net.cpp:76] Creating Layer inception_5a/relu_1x1
I0511 06:34:28.549062  8175 net.cpp:372] inception_5a/relu_1x1 <- inception_5a/1x1
I0511 06:34:28.549070  8175 net.cpp:323] inception_5a/relu_1x1 -> inception_5a/1x1 (in-place)
I0511 06:34:28.549093  8175 net.cpp:105] Setting up inception_5a/relu_1x1
I0511 06:34:28.549099  8175 net.cpp:112] Top shape: 32 256 7 7 (401408)
I0511 06:34:28.549105  8175 layer_factory.hpp:74] Creating layer inception_5a/3x3_reduce
I0511 06:34:28.549113  8175 net.cpp:76] Creating Layer inception_5a/3x3_reduce
I0511 06:34:28.549119  8175 net.cpp:372] inception_5a/3x3_reduce <- pool4/3x3_s2_pool4/3x3_s2_0_split_1
I0511 06:34:28.549134  8175 net.cpp:334] inception_5a/3x3_reduce -> inception_5a/3x3_reduce
I0511 06:34:28.549145  8175 net.cpp:105] Setting up inception_5a/3x3_reduce
I0511 06:34:28.550281  8175 net.cpp:112] Top shape: 32 160 7 7 (250880)
I0511 06:34:28.550297  8175 layer_factory.hpp:74] Creating layer inception_5a/relu_3x3_reduce
I0511 06:34:28.550307  8175 net.cpp:76] Creating Layer inception_5a/relu_3x3_reduce
I0511 06:34:28.550314  8175 net.cpp:372] inception_5a/relu_3x3_reduce <- inception_5a/3x3_reduce
I0511 06:34:28.550321  8175 net.cpp:323] inception_5a/relu_3x3_reduce -> inception_5a/3x3_reduce (in-place)
I0511 06:34:28.550329  8175 net.cpp:105] Setting up inception_5a/relu_3x3_reduce
I0511 06:34:28.550335  8175 net.cpp:112] Top shape: 32 160 7 7 (250880)
I0511 06:34:28.550340  8175 layer_factory.hpp:74] Creating layer inception_5a/3x3
I0511 06:34:28.550351  8175 net.cpp:76] Creating Layer inception_5a/3x3
I0511 06:34:28.550356  8175 net.cpp:372] inception_5a/3x3 <- inception_5a/3x3_reduce
I0511 06:34:28.550364  8175 net.cpp:334] inception_5a/3x3 -> inception_5a/3x3
I0511 06:34:28.550374  8175 net.cpp:105] Setting up inception_5a/3x3
I0511 06:34:28.554208  8175 net.cpp:112] Top shape: 32 320 7 7 (501760)
I0511 06:34:28.554226  8175 layer_factory.hpp:74] Creating layer inception_5a/relu_3x3
I0511 06:34:28.554237  8175 net.cpp:76] Creating Layer inception_5a/relu_3x3
I0511 06:34:28.554963  8175 net.cpp:372] inception_5a/relu_3x3 <- inception_5a/3x3
I0511 06:34:28.554976  8175 net.cpp:323] inception_5a/relu_3x3 -> inception_5a/3x3 (in-place)
I0511 06:34:28.554987  8175 net.cpp:105] Setting up inception_5a/relu_3x3
I0511 06:34:28.554993  8175 net.cpp:112] Top shape: 32 320 7 7 (501760)
I0511 06:34:28.554998  8175 layer_factory.hpp:74] Creating layer inception_5a/5x5_reduce
I0511 06:34:28.555008  8175 net.cpp:76] Creating Layer inception_5a/5x5_reduce
I0511 06:34:28.555014  8175 net.cpp:372] inception_5a/5x5_reduce <- pool4/3x3_s2_pool4/3x3_s2_0_split_2
I0511 06:34:28.555027  8175 net.cpp:334] inception_5a/5x5_reduce -> inception_5a/5x5_reduce
I0511 06:34:28.555037  8175 net.cpp:105] Setting up inception_5a/5x5_reduce
I0511 06:34:28.555284  8175 net.cpp:112] Top shape: 32 32 7 7 (50176)
I0511 06:34:28.555300  8175 layer_factory.hpp:74] Creating layer inception_5a/relu_5x5_reduce
I0511 06:34:28.555310  8175 net.cpp:76] Creating Layer inception_5a/relu_5x5_reduce
I0511 06:34:28.555315  8175 net.cpp:372] inception_5a/relu_5x5_reduce <- inception_5a/5x5_reduce
I0511 06:34:28.555322  8175 net.cpp:323] inception_5a/relu_5x5_reduce -> inception_5a/5x5_reduce (in-place)
I0511 06:34:28.555330  8175 net.cpp:105] Setting up inception_5a/relu_5x5_reduce
I0511 06:34:28.555336  8175 net.cpp:112] Top shape: 32 32 7 7 (50176)
I0511 06:34:28.555341  8175 layer_factory.hpp:74] Creating layer inception_5a/5x5
I0511 06:34:28.555349  8175 net.cpp:76] Creating Layer inception_5a/5x5
I0511 06:34:28.555356  8175 net.cpp:372] inception_5a/5x5 <- inception_5a/5x5_reduce
I0511 06:34:28.555366  8175 net.cpp:334] inception_5a/5x5 -> inception_5a/5x5
I0511 06:34:28.555378  8175 net.cpp:105] Setting up inception_5a/5x5
I0511 06:34:28.556234  8175 net.cpp:112] Top shape: 32 128 7 7 (200704)
I0511 06:34:28.556248  8175 layer_factory.hpp:74] Creating layer inception_5a/relu_5x5
I0511 06:34:28.556257  8175 net.cpp:76] Creating Layer inception_5a/relu_5x5
I0511 06:34:28.556263  8175 net.cpp:372] inception_5a/relu_5x5 <- inception_5a/5x5
I0511 06:34:28.556282  8175 net.cpp:323] inception_5a/relu_5x5 -> inception_5a/5x5 (in-place)
I0511 06:34:28.556291  8175 net.cpp:105] Setting up inception_5a/relu_5x5
I0511 06:34:28.556324  8175 net.cpp:112] Top shape: 32 128 7 7 (200704)
I0511 06:34:28.556331  8175 layer_factory.hpp:74] Creating layer inception_5a/pool
I0511 06:34:28.556344  8175 net.cpp:76] Creating Layer inception_5a/pool
I0511 06:34:28.556350  8175 net.cpp:372] inception_5a/pool <- pool4/3x3_s2_pool4/3x3_s2_0_split_3
I0511 06:34:28.556359  8175 net.cpp:334] inception_5a/pool -> inception_5a/pool
I0511 06:34:28.556367  8175 net.cpp:105] Setting up inception_5a/pool
I0511 06:34:28.556375  8175 net.cpp:112] Top shape: 32 832 7 7 (1304576)
I0511 06:34:28.556381  8175 layer_factory.hpp:74] Creating layer inception_5a/pool_proj
I0511 06:34:28.556393  8175 net.cpp:76] Creating Layer inception_5a/pool_proj
I0511 06:34:28.556399  8175 net.cpp:372] inception_5a/pool_proj <- inception_5a/pool
I0511 06:34:28.556407  8175 net.cpp:334] inception_5a/pool_proj -> inception_5a/pool_proj
I0511 06:34:28.556416  8175 net.cpp:105] Setting up inception_5a/pool_proj
I0511 06:34:28.557322  8175 net.cpp:112] Top shape: 32 128 7 7 (200704)
I0511 06:34:28.557337  8175 layer_factory.hpp:74] Creating layer inception_5a/relu_pool_proj
I0511 06:34:28.557345  8175 net.cpp:76] Creating Layer inception_5a/relu_pool_proj
I0511 06:34:28.557351  8175 net.cpp:372] inception_5a/relu_pool_proj <- inception_5a/pool_proj
I0511 06:34:28.557360  8175 net.cpp:323] inception_5a/relu_pool_proj -> inception_5a/pool_proj (in-place)
I0511 06:34:28.557368  8175 net.cpp:105] Setting up inception_5a/relu_pool_proj
I0511 06:34:28.557374  8175 net.cpp:112] Top shape: 32 128 7 7 (200704)
I0511 06:34:28.557380  8175 layer_factory.hpp:74] Creating layer inception_5a/output
I0511 06:34:28.557389  8175 net.cpp:76] Creating Layer inception_5a/output
I0511 06:34:28.557394  8175 net.cpp:372] inception_5a/output <- inception_5a/1x1
I0511 06:34:28.557400  8175 net.cpp:372] inception_5a/output <- inception_5a/3x3
I0511 06:34:28.557406  8175 net.cpp:372] inception_5a/output <- inception_5a/5x5
I0511 06:34:28.557412  8175 net.cpp:372] inception_5a/output <- inception_5a/pool_proj
I0511 06:34:28.557420  8175 net.cpp:334] inception_5a/output -> inception_5a/output
I0511 06:34:28.557428  8175 net.cpp:105] Setting up inception_5a/output
I0511 06:34:28.557435  8175 net.cpp:112] Top shape: 32 832 7 7 (1304576)
I0511 06:34:28.557440  8175 layer_factory.hpp:74] Creating layer inception_5a/output_inception_5a/output_0_split
I0511 06:34:28.557447  8175 net.cpp:76] Creating Layer inception_5a/output_inception_5a/output_0_split
I0511 06:34:28.557453  8175 net.cpp:372] inception_5a/output_inception_5a/output_0_split <- inception_5a/output
I0511 06:34:28.557463  8175 net.cpp:334] inception_5a/output_inception_5a/output_0_split -> inception_5a/output_inception_5a/output_0_split_0
I0511 06:34:28.557476  8175 net.cpp:334] inception_5a/output_inception_5a/output_0_split -> inception_5a/output_inception_5a/output_0_split_1
I0511 06:34:28.557485  8175 net.cpp:334] inception_5a/output_inception_5a/output_0_split -> inception_5a/output_inception_5a/output_0_split_2
I0511 06:34:28.557494  8175 net.cpp:334] inception_5a/output_inception_5a/output_0_split -> inception_5a/output_inception_5a/output_0_split_3
I0511 06:34:28.557502  8175 net.cpp:105] Setting up inception_5a/output_inception_5a/output_0_split
I0511 06:34:28.557509  8175 net.cpp:112] Top shape: 32 832 7 7 (1304576)
I0511 06:34:28.557514  8175 net.cpp:112] Top shape: 32 832 7 7 (1304576)
I0511 06:34:28.557519  8175 net.cpp:112] Top shape: 32 832 7 7 (1304576)
I0511 06:34:28.557526  8175 net.cpp:112] Top shape: 32 832 7 7 (1304576)
I0511 06:34:28.557531  8175 layer_factory.hpp:74] Creating layer inception_5b/1x1
I0511 06:34:28.557543  8175 net.cpp:76] Creating Layer inception_5b/1x1
I0511 06:34:28.557548  8175 net.cpp:372] inception_5b/1x1 <- inception_5a/output_inception_5a/output_0_split_0
I0511 06:34:28.557556  8175 net.cpp:334] inception_5b/1x1 -> inception_5b/1x1
I0511 06:34:28.557565  8175 net.cpp:105] Setting up inception_5b/1x1
I0511 06:34:28.560245  8175 net.cpp:112] Top shape: 32 384 7 7 (602112)
I0511 06:34:28.560266  8175 layer_factory.hpp:74] Creating layer inception_5b/relu_1x1
I0511 06:34:28.560307  8175 net.cpp:76] Creating Layer inception_5b/relu_1x1
I0511 06:34:28.560317  8175 net.cpp:372] inception_5b/relu_1x1 <- inception_5b/1x1
I0511 06:34:28.560324  8175 net.cpp:323] inception_5b/relu_1x1 -> inception_5b/1x1 (in-place)
I0511 06:34:28.560333  8175 net.cpp:105] Setting up inception_5b/relu_1x1
I0511 06:34:28.560338  8175 net.cpp:112] Top shape: 32 384 7 7 (602112)
I0511 06:34:28.560343  8175 layer_factory.hpp:74] Creating layer inception_5b/3x3_reduce
I0511 06:34:28.560355  8175 net.cpp:76] Creating Layer inception_5b/3x3_reduce
I0511 06:34:28.560361  8175 net.cpp:372] inception_5b/3x3_reduce <- inception_5a/output_inception_5a/output_0_split_1
I0511 06:34:28.560370  8175 net.cpp:334] inception_5b/3x3_reduce -> inception_5b/3x3_reduce
I0511 06:34:28.560380  8175 net.cpp:105] Setting up inception_5b/3x3_reduce
I0511 06:34:28.561734  8175 net.cpp:112] Top shape: 32 192 7 7 (301056)
I0511 06:34:28.561749  8175 layer_factory.hpp:74] Creating layer inception_5b/relu_3x3_reduce
I0511 06:34:28.561758  8175 net.cpp:76] Creating Layer inception_5b/relu_3x3_reduce
I0511 06:34:28.561765  8175 net.cpp:372] inception_5b/relu_3x3_reduce <- inception_5b/3x3_reduce
I0511 06:34:28.561774  8175 net.cpp:323] inception_5b/relu_3x3_reduce -> inception_5b/3x3_reduce (in-place)
I0511 06:34:28.561784  8175 net.cpp:105] Setting up inception_5b/relu_3x3_reduce
I0511 06:34:28.561789  8175 net.cpp:112] Top shape: 32 192 7 7 (301056)
I0511 06:34:28.561794  8175 layer_factory.hpp:74] Creating layer inception_5b/3x3
I0511 06:34:28.561803  8175 net.cpp:76] Creating Layer inception_5b/3x3
I0511 06:34:28.561810  8175 net.cpp:372] inception_5b/3x3 <- inception_5b/3x3_reduce
I0511 06:34:28.561821  8175 net.cpp:334] inception_5b/3x3 -> inception_5b/3x3
I0511 06:34:28.561851  8175 net.cpp:105] Setting up inception_5b/3x3
I0511 06:34:28.567389  8175 net.cpp:112] Top shape: 32 384 7 7 (602112)
I0511 06:34:28.567423  8175 layer_factory.hpp:74] Creating layer inception_5b/relu_3x3
I0511 06:34:28.567436  8175 net.cpp:76] Creating Layer inception_5b/relu_3x3
I0511 06:34:28.567445  8175 net.cpp:372] inception_5b/relu_3x3 <- inception_5b/3x3
I0511 06:34:28.567453  8175 net.cpp:323] inception_5b/relu_3x3 -> inception_5b/3x3 (in-place)
I0511 06:34:28.567464  8175 net.cpp:105] Setting up inception_5b/relu_3x3
I0511 06:34:28.567471  8175 net.cpp:112] Top shape: 32 384 7 7 (602112)
I0511 06:34:28.567476  8175 layer_factory.hpp:74] Creating layer inception_5b/5x5_reduce
I0511 06:34:28.567488  8175 net.cpp:76] Creating Layer inception_5b/5x5_reduce
I0511 06:34:28.567495  8175 net.cpp:372] inception_5b/5x5_reduce <- inception_5a/output_inception_5a/output_0_split_2
I0511 06:34:28.567504  8175 net.cpp:334] inception_5b/5x5_reduce -> inception_5b/5x5_reduce
I0511 06:34:28.567514  8175 net.cpp:105] Setting up inception_5b/5x5_reduce
I0511 06:34:28.567870  8175 net.cpp:112] Top shape: 32 48 7 7 (75264)
I0511 06:34:28.567885  8175 layer_factory.hpp:74] Creating layer inception_5b/relu_5x5_reduce
I0511 06:34:28.567894  8175 net.cpp:76] Creating Layer inception_5b/relu_5x5_reduce
I0511 06:34:28.567900  8175 net.cpp:372] inception_5b/relu_5x5_reduce <- inception_5b/5x5_reduce
I0511 06:34:28.567909  8175 net.cpp:323] inception_5b/relu_5x5_reduce -> inception_5b/5x5_reduce (in-place)
I0511 06:34:28.567919  8175 net.cpp:105] Setting up inception_5b/relu_5x5_reduce
I0511 06:34:28.567924  8175 net.cpp:112] Top shape: 32 48 7 7 (75264)
I0511 06:34:28.567930  8175 layer_factory.hpp:74] Creating layer inception_5b/5x5
I0511 06:34:28.567939  8175 net.cpp:76] Creating Layer inception_5b/5x5
I0511 06:34:28.567945  8175 net.cpp:372] inception_5b/5x5 <- inception_5b/5x5_reduce
I0511 06:34:28.567951  8175 net.cpp:334] inception_5b/5x5 -> inception_5b/5x5
I0511 06:34:28.567961  8175 net.cpp:105] Setting up inception_5b/5x5
I0511 06:34:28.569279  8175 net.cpp:112] Top shape: 32 128 7 7 (200704)
I0511 06:34:28.569295  8175 layer_factory.hpp:74] Creating layer inception_5b/relu_5x5
I0511 06:34:28.569303  8175 net.cpp:76] Creating Layer inception_5b/relu_5x5
I0511 06:34:28.569341  8175 net.cpp:372] inception_5b/relu_5x5 <- inception_5b/5x5
I0511 06:34:28.569352  8175 net.cpp:323] inception_5b/relu_5x5 -> inception_5b/5x5 (in-place)
I0511 06:34:28.569361  8175 net.cpp:105] Setting up inception_5b/relu_5x5
I0511 06:34:28.569367  8175 net.cpp:112] Top shape: 32 128 7 7 (200704)
I0511 06:34:28.569372  8175 layer_factory.hpp:74] Creating layer inception_5b/pool
I0511 06:34:28.569381  8175 net.cpp:76] Creating Layer inception_5b/pool
I0511 06:34:28.569387  8175 net.cpp:372] inception_5b/pool <- inception_5a/output_inception_5a/output_0_split_3
I0511 06:34:28.569396  8175 net.cpp:334] inception_5b/pool -> inception_5b/pool
I0511 06:34:28.569403  8175 net.cpp:105] Setting up inception_5b/pool
I0511 06:34:28.569412  8175 net.cpp:112] Top shape: 32 832 7 7 (1304576)
I0511 06:34:28.569418  8175 layer_factory.hpp:74] Creating layer inception_5b/pool_proj
I0511 06:34:28.569429  8175 net.cpp:76] Creating Layer inception_5b/pool_proj
I0511 06:34:28.569435  8175 net.cpp:372] inception_5b/pool_proj <- inception_5b/pool
I0511 06:34:28.569447  8175 net.cpp:334] inception_5b/pool_proj -> inception_5b/pool_proj
I0511 06:34:28.569455  8175 net.cpp:105] Setting up inception_5b/pool_proj
I0511 06:34:28.570422  8175 net.cpp:112] Top shape: 32 128 7 7 (200704)
I0511 06:34:28.570440  8175 layer_factory.hpp:74] Creating layer inception_5b/relu_pool_proj
I0511 06:34:28.570448  8175 net.cpp:76] Creating Layer inception_5b/relu_pool_proj
I0511 06:34:28.570456  8175 net.cpp:372] inception_5b/relu_pool_proj <- inception_5b/pool_proj
I0511 06:34:28.570466  8175 net.cpp:323] inception_5b/relu_pool_proj -> inception_5b/pool_proj (in-place)
I0511 06:34:28.570474  8175 net.cpp:105] Setting up inception_5b/relu_pool_proj
I0511 06:34:28.570479  8175 net.cpp:112] Top shape: 32 128 7 7 (200704)
I0511 06:34:28.570485  8175 layer_factory.hpp:74] Creating layer inception_5b/output
I0511 06:34:28.570493  8175 net.cpp:76] Creating Layer inception_5b/output
I0511 06:34:28.570499  8175 net.cpp:372] inception_5b/output <- inception_5b/1x1
I0511 06:34:28.570507  8175 net.cpp:372] inception_5b/output <- inception_5b/3x3
I0511 06:34:28.570513  8175 net.cpp:372] inception_5b/output <- inception_5b/5x5
I0511 06:34:28.570519  8175 net.cpp:372] inception_5b/output <- inception_5b/pool_proj
I0511 06:34:28.570528  8175 net.cpp:334] inception_5b/output -> inception_5b/output
I0511 06:34:28.570538  8175 net.cpp:105] Setting up inception_5b/output
I0511 06:34:28.570544  8175 net.cpp:112] Top shape: 32 1024 7 7 (1605632)
I0511 06:34:28.570549  8175 layer_factory.hpp:74] Creating layer pool5/7x7_s1
I0511 06:34:28.570557  8175 net.cpp:76] Creating Layer pool5/7x7_s1
I0511 06:34:28.570562  8175 net.cpp:372] pool5/7x7_s1 <- inception_5b/output
I0511 06:34:28.570571  8175 net.cpp:334] pool5/7x7_s1 -> pool5/7x7_s1
I0511 06:34:28.570580  8175 net.cpp:105] Setting up pool5/7x7_s1
I0511 06:34:28.570586  8175 net.cpp:112] Top shape: 32 1024 1 1 (32768)
I0511 06:34:28.570591  8175 layer_factory.hpp:74] Creating layer pool5/drop_7x7_s1
I0511 06:34:28.570600  8175 net.cpp:76] Creating Layer pool5/drop_7x7_s1
I0511 06:34:28.570606  8175 net.cpp:372] pool5/drop_7x7_s1 <- pool5/7x7_s1
I0511 06:34:28.570616  8175 net.cpp:323] pool5/drop_7x7_s1 -> pool5/7x7_s1 (in-place)
I0511 06:34:28.570623  8175 net.cpp:105] Setting up pool5/drop_7x7_s1
I0511 06:34:28.570631  8175 net.cpp:112] Top shape: 32 1024 1 1 (32768)
I0511 06:34:28.570636  8175 layer_factory.hpp:74] Creating layer loss3/classifier
I0511 06:34:28.570646  8175 net.cpp:76] Creating Layer loss3/classifier
I0511 06:34:28.570652  8175 net.cpp:372] loss3/classifier <- pool5/7x7_s1
I0511 06:34:28.570660  8175 net.cpp:334] loss3/classifier -> loss3/classifier
I0511 06:34:28.570670  8175 net.cpp:105] Setting up loss3/classifier
I0511 06:34:28.570703  8175 net.cpp:112] Top shape: 32 2 1 1 (64)
I0511 06:34:28.570713  8175 layer_factory.hpp:74] Creating layer loss3/loss3
I0511 06:34:28.570720  8175 net.cpp:76] Creating Layer loss3/loss3
I0511 06:34:28.570726  8175 net.cpp:372] loss3/loss3 <- loss3/classifier
I0511 06:34:28.570749  8175 net.cpp:372] loss3/loss3 <- label_data_1_split_2
I0511 06:34:28.570760  8175 net.cpp:334] loss3/loss3 -> loss3/loss3
I0511 06:34:28.570770  8175 net.cpp:105] Setting up loss3/loss3
I0511 06:34:28.570777  8175 layer_factory.hpp:74] Creating layer loss3/loss3
I0511 06:34:28.570793  8175 net.cpp:112] Top shape: 1 1 1 1 (1)
I0511 06:34:28.570799  8175 net.cpp:118]     with loss weight 1
I0511 06:34:28.570817  8175 net.cpp:163] loss3/loss3 needs backward computation.
I0511 06:34:28.570823  8175 net.cpp:163] loss3/classifier needs backward computation.
I0511 06:34:28.570855  8175 net.cpp:163] pool5/drop_7x7_s1 needs backward computation.
I0511 06:34:28.570863  8175 net.cpp:163] pool5/7x7_s1 needs backward computation.
…
I0511 06:34:28.579224  8175 solver.cpp:154] Creating test net (#0) specified by net file: ../../train_val.prototxt
I0511 06:34:28.579481  8175 net.cpp:253] The NetState phase (1) differed from the phase (0) specified by a rule in layer data
I0511 06:34:28.580875  8175 net.cpp:42] Initializing net from parameters: 
name: "GoogleNet"
state {
  phase: TEST
}
layer {
  name: "data"
  type: "Data"
  top: "data"
  top: "label"
  include {
    phase: TEST
  }
  transform_param {
    mirror: false
    crop_size: 224
    mean_value: 104
    mean_value: 117
    mean_value: 123
  }
  data_param {
    source: "val_lmdb"
    batch_size: 32
    backend: LMDB
  }
}
layer {
  name: "conv1/7x7_s2"
  type: "Convolution"
  bottom: "data"
  top: "conv1/7x7_s2"
  param {
    lr_mult: 1
    decay_mult: 1
  }
  param {
    lr_mult: 2
    decay_mult: 0
  }
  convolution_param {
    num_output: 64
    pad: 3
    kernel_size: 7
    stride: 2
    weight_filler {
      type: "xavier"
      std: 0.1
    }
    bias_filler {
      type: "constant"
      value: 0.2
    }
  }
}
layer {
  name: "conv1/relu_7x7"
  type: "ReLU"
  bottom: "conv1/7x7_s2"
  top: "conv1/7x7_s2"
}
layer {
  name: "pool1/3x3_s2"
  type: "Pooling"
  bottom: "conv1/7x7_s2"
  top: "pool1/3x3_s2"
  pooling_param {
    pool: MAX
    kernel_size: 3
    stride: 2
  }
}
layer {
  name: "pool1/norm1"
  type: "LRN"
  bottom: "pool1/3x3_s2"
  top: "pool1/norm1"
  lrn_param {
    local_size: 5
    alpha: 0.0001
    beta: 0.75
  }
}
layer {
  name: "conv2/3x3_reduce"
  type: "Convolution"
  bottom: "pool1/norm1"
  top: "conv2/3x3_reduce"
  param {
    lr_mult: 1
    decay_mult: 1
  }
  param {
    lr_mult: 2
    decay_mult: 0
  }
  convolution_param {
    num_output: 64
    kernel_size: 1
    weight_filler {
      type: "xavier"
      std: 0.1
    }
    bias_filler {
      type: "constant"
      value: 0.2
    }
  }
}
layer {
  name: "conv2/relu_3x3_reduce"
  type: "ReLU"
  bottom: "conv2/3x3_reduce"
  top: "conv2/3x3_reduce"
}
layer {
  name: "conv2/3x3"
  type: "Convolution"
  bottom: "conv2/3x3_reduce"
  top: "conv2/3x3"
  param {
    lr_mult: 1
    decay_mult: 1
  }
  param {
    lr_mult: 2
    decay_mult: 0
  }
  convolution_param {
    num_output: 192
    pad: 1
    kernel_size: 3
    weight_filler {
      type: "xavier"
      std: 0.03
    }
    bias_filler {
      type: "constant"
      value: 0.2
    }
  }
}
layer {
  name: "conv2/relu_3x3"
  type: "ReLU"
  bottom: "conv2/3x3"
  top: "conv2/3x3"
}
layer {
  name: "conv2/norm2"
  type: "LRN"
  bottom: "conv2/3x3"
  top: "conv2/norm2"
  lrn_param {
    local_size: 5
    alpha: 0.0001
    beta: 0.75
  }
}
layer {
  name: "pool2/3x3_s2"
  type: "Pooling"
  bottom: "conv2/norm2"
  top: "pool2/3x3_s2"
  pooling_param {
    pool: MAX
    kernel_size: 3
    stride: 2
  }
}
layer {
  name: "inception_3a/1x1"
  type: "Convolution"
  bottom: "pool2/3x3_s2"
  top: "inception_3a/1x1"
  param {
    lr_mult: 1
    decay_mult: 1
  }
  param {
    lr_mult: 2
    decay_mult: 0
  }
  convolution_param {
    num_output: 64
    kernel_size: 1
    weight_filler {
      type: "xavier"
      std: 0.03
    }
    bias_filler {
      type: "constant"
      value: 0.2
    }
  }
}
layer {
  name: "inception_3a/relu_1x1"
  type: "ReLU"
  bottom: "inception_3a/1x1"
  top: "inception_3a/1x1"
}
layer {
  name: "inception_3a/3x3_reduce"
  type: "Convolution"
  bottom: "pool2/3x3_s2"
  top: "inception_3a/3x3_reduce"
  param {
    lr_mult: 1
    decay_mult: 1
  }
  param {
    lr_mult: 2
    decay_mult: 0
  }
  convolution_param {
    num_output: 96
    kernel_size: 1
    weight_filler {
      type: "xavier"
      std: 0.09
    }
    bias_filler {
      type: "constant"
      value: 0.2
    }
  }
}
layer {
  name: "inception_3a/relu_3x3_reduce"
  type: "ReLU"
  bottom: "inception_3a/3x3_reduce"
  top: "inception_3a/3x3_reduce"
}
layer {
  name: "inception_3a/3x3"
  type: "Convolution"
  bottom: "inception_3a/3x3_reduce"
  top: "inception_3a/3x3"
  param {
    lr_mult: 1
    decay_mult: 1
  }
  param {
    lr_mult: 2
    decay_mult: 0
  }
  convolution_param {
    num_output: 128
    pad: 1
    kernel_size: 3
    weight_filler {
      type: "xavier"
      std: 0.03
    }
    bias_filler {
      type: "constant"
      value: 0.2
    }
  }
}
layer {
  name: "inception_3a/relu_3x3"
  type: "ReLU"
  bottom: "inception_3a/3x3"
  top: "inception_3a/3x3"
}
layer {
  name: "inception_3a/5x5_reduce"
  type: "Convolution"
  bottom: "pool2/3x3_s2"
  top: "inception_3a/5x5_reduce"
  param {
    lr_mult: 1
    decay_mult: 1
  }
  param {
    lr_mult: 2
    decay_mult: 0
  }
  convolution_param {
    num_output: 16
    kernel_size: 1
    weight_filler {
      type: "xavier"
      std: 0.2
    }
    bias_filler {
      type: "constant"
      value: 0.2
    }
  }
}
layer {
  name: "inception_3a/relu_5x5_reduce"
  type: "ReLU"
  bottom: "inception_3a/5x5_reduce"
  top: "inception_3a/5x5_reduce"
}
layer {
  name: "inception_3a/5x5"
  type: "Convolution"
  bottom: "inception_3a/5x5_reduce"
  top: "inception_3a/5x5"
  param {
    lr_mult: 1
    decay_mult: 1
  }
  param {
    lr_mult: 2
    decay_mult: 0
  }
  convolution_param {
    num_output: 32
    pad: 2
    kernel_size: 5
    weight_filler {
      type: "xavier"
      std: 0.03
    }
    bias_filler {
      type: "constant"
      value: 0.2
    }
  }
}
layer {
  name: "inception_3a/relu_5x5"
  type: "ReLU"
  bottom: "inception_3a/5x5"
  top: "inception_3a/5x5"
}
layer {
  name: "inception_3a/pool"
  type: "Pooling"
  bottom: "pool2/3x3_s2"
  top: "inception_3a/pool"
  pooling_param {
    pool: MAX
    kernel_size: 3
    stride: 1
    pad: 1
  }
}
layer {
  name: "inception_3a/pool_proj"
  type: "Convolution"
  bottom: "inception_3a/pool"
  top: "inception_3a/pool_proj"
  param {
    lr_mult: 1
    decay_mult: 1
  }
  param {
    lr_mult: 2
    decay_mult: 0
  }
  convolution_param {
    num_output: 32
    kernel_size: 1
    weight_filler {
      type: "xavier"
      std: 0.1
    }
    bias_filler {
      type: "constant"
      value: 0.2
    }
  }
}
layer {
  name: "inception_3a/relu_pool_proj"
  type: "ReLU"
  bottom: "inception_3a/pool_proj"
  top: "inception_3a/pool_proj"
}
layer {
  name: "inception_3a/output"
  type: "Concat"
  bottom: "inception_3a/1x1"
  bottom: "inception_3a/3x3"
  bottom: "inception_3a/5x5"
  bottom: "inception_3a/pool_proj"
  top: "inception_3a/output"
}
layer {
  name: "inception_3b/1x1"
  type: "Convolution"
  bottom: "inception_3a/output"
  top: "inception_3b/1x1"
  param {
    lr_mult: 1
    decay_mult: 1
  }
  param {
    lr_mult: 2
    decay_mult: 0
  }
  convolution_param {
    num_output: 128
    kernel_size: 1
    weight_filler {
      type: "xavier"
      std: 0.03
    }
    bias_filler {
      type: "constant"
      value: 0.2
    }
  }
}
layer {
  name: "inception_3b/relu_1x1"
  type: "ReLU"
  bottom: "inception_3b/1x1"
  top: "inception_3b/1x1"
}
layer {
  name: "inception_3b/3x3_reduce"
  type: "Convolution"
  bottom: "inception_3a/output"
  top: "inception_3b/3x3_reduce"
  param {
    lr_mult: 1
    decay_mult: 1
  }
  param {
    lr_mult: 2
    decay_mult: 0
  }
  convolution_param {
    num_output: 128
    kernel_size: 1
    weight_filler {
      type: "xavier"
      std: 0.09
    }
    bias_filler {
      type: "constant"
      value: 0.2
    }
  }
}
layer {
  name: "inception_3b/relu_3x3_reduce"
  type: "ReLU"
  bottom: "inception_3b/3x3_reduce"
  top: "inception_3b/3x3_reduce"
}
layer {
  name: "inception_3b/3x3"
  type: "Convolution"
  bottom: "inception_3b/3x3_reduce"
  top: "inception_3b/3x3"
  param {
    lr_mult: 1
    decay_mult: 1
  }
  param {
    lr_mult: 2
    decay_mult: 0
  }
  convolution_param {
    num_output: 192
    pad: 1
    kernel_size: 3
    weight_filler {
      type: "xavier"
      std: 0.03
    }
    bias_filler {
      type: "constant"
      value: 0.2
    }
  }
}
layer {
  name: "inception_3b/relu_3x3"
  type: "ReLU"
  bottom: "inception_3b/3x3"
  top: "inception_3b/3x3"
}
layer {
  name: "inception_3b/5x5_reduce"
  type: "Convolution"
  bottom: "inception_3a/output"
  top: "inception_3b/5x5_reduce"
  param {
    lr_mult: 1
    decay_mult: 1
  }
  param {
    lr_mult: 2
    decay_mult: 0
  }
  convolution_param {
    num_output: 32
    kernel_size: 1
    weight_filler {
      type: "xavier"
      std: 0.2
    }
    bias_filler {
      type: "constant"
      value: 0.2
    }
  }
}
layer {
  name: "inception_3b/relu_5x5_reduce"
  type: "ReLU"
  bottom: "inception_3b/5x5_reduce"
  top: "inception_3b/5x5_reduce"
}
layer {
  name: "inception_3b/5x5"
  type: "Convolution"
  bottom: "inception_3b/5x5_reduce"
  top: "inception_3b/5x5"
  param {
    lr_mult: 1
    decay_mult: 1
  }
  param {
    lr_mult: 2
    decay_mult: 0
  }
  convolution_param {
    num_output: 96
    pad: 2
    kernel_size: 5
    weight_filler {
      type: "xavier"
      std: 0.03
    }
    bias_filler {
      type: "constant"
      value: 0.2
    }
  }
}
layer {
  name: "inception_3b/relu_5x5"
  type: "ReLU"
  bottom: "inception_3b/5x5"
  top: "inception_3b/5x5"
}
layer {
  name: "inception_3b/pool"
  type: "Pooling"
  bottom: "inception_3a/output"
  top: "inception_3b/pool"
  pooling_param {
    pool: MAX
    kernel_size: 3
    stride: 1
    pad: 1
  }
}
layer {
  name: "inception_3b/pool_proj"
  type: "Convolution"
  bottom: "inception_3b/pool"
  top: "inception_3b/pool_proj"
  param {
    lr_mult: 1
    decay_mult: 1
  }
  param {
    lr_mult: 2
    decay_mult: 0
  }
  convolution_param {
    num_output: 64
    kernel_size: 1
    weight_filler {
      type: "xavier"
      std: 0.1
    }
    bias_filler {
      type: "constant"
      value: 0.2
    }
  }
}
layer {
  name: "inception_3b/relu_pool_proj"
  type: "ReLU"
  bottom: "inception_3b/pool_proj"
  top: "inception_3b/pool_proj"
}
layer {
  name: "inception_3b/output"
  type: "Concat"
  bottom: "inception_3b/1x1"
  bottom: "inception_3b/3x3"
  bottom: "inception_3b/5x5"
  bottom: "inception_3b/pool_proj"
  top: "inception_3b/output"
}
layer {
  name: "pool3/3x3_s2"
  type: "Pooling"
  bottom: "inception_3b/output"
  top: "pool3/3x3_s2"
  pooling_param {
    pool: MAX
    kernel_size: 3
    stride: 2
  }
}
layer {
  name: "inception_4a/1x1"
  type: "Convolution"
  bottom: "pool3/3x3_s2"
  top: "inception_4a/1x1"
  param {
    lr_mult: 1
    decay_mult: 1
  }
  param {
    lr_mult: 2
    decay_mult: 0
  }
  convolution_param {
    num_output: 192
    kernel_size: 1
    weight_filler {
      type: "xavier"
      std: 0.03
    }
    bias_filler {
      type: "constant"
      value: 0.2
    }
  }
}
layer {
  name: "inception_4a/relu_1x1"
  type: "ReLU"
  bottom: "inception_4a/1x1"
  top: "inception_4a/1x1"
}
layer {
  name: "inception_4a/3x3_reduce"
  type: "Convolution"
  bottom: "pool3/3x3_s2"
  top: "inception_4a/3x3_reduce"
  param {
    lr_mult: 1
    decay_mult: 1
  }
  param {
    lr_mult: 2
    decay_mult: 0
  }
  convolution_param {
    num_output: 96
    kernel_size: 1
    weight_filler {
      type: "xavier"
      std: 0.09
    }
    bias_filler {
      type: "constant"
      value: 0.2
    }
  }
}
layer {
  name: "inception_4a/relu_3x3_reduce"
  type: "ReLU"
  bottom: "inception_4a/3x3_reduce"
  top: "inception_4a/3x3_reduce"
}
layer {
  name: "inception_4a/3x3"
  type: "Convolution"
  bottom: "inception_4a/3x3_reduce"
  top: "inception_4a/3x3"
  param {
    lr_mult: 1
    decay_mult: 1
  }
  param {
    lr_mult: 2
    decay_mult: 0
  }
  convolution_param {
    num_output: 208
    pad: 1
    kernel_size: 3
    weight_filler {
      type: "xavier"
      std: 0.03
    }
    bias_filler {
      type: "constant"
      value: 0.2
    }
  }
}
layer {
  name: "inception_4a/relu_3x3"
  type: "ReLU"
  bottom: "inception_4a/3x3"
  top: "inception_4a/3x3"
}
layer {
  name: "inception_4a/5x5_reduce"
  type: "Convolution"
  bottom: "pool3/3x3_s2"
  top: "inception_4a/5x5_reduce"
  param {
    lr_mult: 1
    decay_mult: 1
  }
  param {
    lr_mult: 2
    decay_mult: 0
  }
  convolution_param {
    num_output: 16
    kernel_size: 1
    weight_filler {
      type: "xavier"
      std: 0.2
    }
    bias_filler {
      type: "constant"
      value: 0.2
    }
  }
}
layer {
  name: "inception_4a/relu_5x5_reduce"
  type: "ReLU"
  bottom: "inception_4a/5x5_reduce"
  top: "inception_4a/5x5_reduce"
}
layer {
  name: "inception_4a/5x5"
  type: "Convolution"
  bottom: "inception_4a/5x5_reduce"
  top: "inception_4a/5x5"
  param {
    lr_mult: 1
    decay_mult: 1
  }
  param {
    lr_mult: 2
    decay_mult: 0
  }
  convolution_param {
    num_output: 48
    pad: 2
    kernel_size: 5
    weight_filler {
      type: "xavier"
      std: 0.03
    }
    bias_filler {
      type: "constant"
      value: 0.2
    }
  }
}
layer {
  name: "inception_4a/relu_5x5"
  type: "ReLU"
  bottom: "inception_4a/5x5"
  top: "inception_4a/5x5"
}
layer {
  name: "inception_4a/pool"
  type: "Pooling"
  bottom: "pool3/3x3_s2"
  top: "inception_4a/pool"
  pooling_param {
    pool: MAX
    kernel_size: 3
    stride: 1
    pad: 1
  }
}
layer {
  name: "inception_4a/pool_proj"
  type: "Convolution"
  bottom: "inception_4a/pool"
  top: "inception_4a/pool_proj"
  param {
    lr_mult: 1
    decay_mult: 1
  }
  param {
    lr_mult: 2
    decay_mult: 0
  }
  convolution_param {
    num_output: 64
    kernel_size: 1
    weight_filler {
      type: "xavier"
      std: 0.1
    }
    bias_filler {
      type: "constant"
      value: 0.2
    }
  }
}
layer {
  name: "inception_4a/relu_pool_proj"
  type: "ReLU"
  bottom: "inception_4a/pool_proj"
  top: "inception_4a/pool_proj"
}
layer {
  name: "inception_4a/output"
  type: "Concat"
  bottom: "inception_4a/1x1"
  bottom: "inception_4a/3x3"
  bottom: "inception_4a/5x5"
  bottom: "inception_4a/pool_proj"
  top: "inception_4a/output"
}
layer {
  name: "loss1/ave_pool"
  type: "Pooling"
  bottom: "inception_4a/output"
  top: "loss1/ave_pool"
  pooling_param {
    pool: AVE
    kernel_size: 5
    stride: 3
  }
}
layer {
  name: "loss1/conv"
  type: "Convolution"
  bottom: "loss1/ave_pool"
  top: "loss1/conv"
  param {
    lr_mult: 1
    decay_mult: 1
  }
  param {
    lr_mult: 2
    decay_mult: 0
  }
  convolution_param {
    num_output: 128
    kernel_size: 1
    weight_filler {
      type: "xavier"
      std: 0.08
    }
    bias_filler {
      type: "constant"
      value: 0.2
    }
  }
}
layer {
  name: "loss1/relu_conv"
  type: "ReLU"
  bottom: "loss1/conv"
  top: "loss1/conv"
}
layer {
  name: "loss1/fc"
  type: "InnerProduct"
  bottom: "loss1/conv"
  top: "loss1/fc"
  param {
    lr_mult: 1
    decay_mult: 1
  }
  param {
    lr_mult: 2
    decay_mult: 0
  }
  inner_product_param {
    num_output: 1024
    weight_filler {
      type: "xavier"
      std: 0.02
    }
    bias_filler {
      type: "constant"
      value: 0.2
    }
  }
}
layer {
  name: "loss1/relu_fc"
  type: "ReLU"
  bottom: "loss1/fc"
  top: "loss1/fc"
}
layer {
  name: "loss1/drop_fc"
  type: "Dropout"
  bottom: "loss1/fc"
  top: "loss1/fc"
  dropout_param {
    dropout_ratio: 0.7
  }
}
layer {
  name: "loss1/classifier"
  type: "InnerProduct"
  bottom: "loss1/fc"
  top: "loss1/classifier"
  param {
    lr_mult: 1
    decay_mult: 1
  }
  param {
    lr_mult: 2
    decay_mult: 0
  }
  inner_product_param {
    num_output: 2
    weight_filler {
      type: "xavier"
      std: 0.0009765625
    }
    bias_filler {
      type: "constant"
      value: 0
    }
  }
}
layer {
  name: "loss1/loss"
  type: "SoftmaxWithLoss"
  bottom: "loss1/classifier"
  bottom: "label"
  top: "loss1/loss1"
  loss_weight: 0.3
}
layer {
  name: "loss1/top-1"
  type: "Accuracy"
  bottom: "loss1/classifier"
  bottom: "label"
  top: "loss1/top-1"
  include {
    phase: TEST
  }
}
layer {
  name: "inception_4b/1x1"
  type: "Convolution"
  bottom: "inception_4a/output"
  top: "inception_4b/1x1"
  param {
    lr_mult: 1
    decay_mult: 1
  }
  param {
    lr_mult: 2
    decay_mult: 0
  }
  convolution_param {
    num_output: 160
    kernel_size: 1
    weight_filler {
      type: "xavier"
      std: 0.03
    }
    bias_filler {
      type: "constant"
      value: 0.2
    }
  }
}
layer {
  name: "inception_4b/relu_1x1"
  type: "ReLU"
  bottom: "inception_4b/1x1"
  top: "inception_4b/1x1"
}
layer {
  name: "inception_4b/3x3_reduce"
  type: "Convolution"
  bottom: "inception_4a/output"
  top: "inception_4b/3x3_reduce"
  param {
    lr_mult: 1
    decay_mult: 1
  }
  param {
    lr_mult: 2
    decay_mult: 0
  }
  convolution_param {
    num_output: 112
    kernel_size: 1
    weight_filler {
      type: "xavier"
      std: 0.09
    }
    bias_filler {
      type: "constant"
      value: 0.2
    }
  }
}
layer {
  name: "inception_4b/relu_3x3_reduce"
  type: "ReLU"
  bottom: "inception_4b/3x3_reduce"
  top: "inception_4b/3x3_reduce"
}
layer {
  name: "inception_4b/3x3"
  type: "Convolution"
  bottom: "inception_4b/3x3_reduce"
  top: "inception_4b/3x3"
  param {
    lr_mult: 1
    decay_mult: 1
  }
  param {
    lr_mult: 2
    decay_mult: 0
  }
  convolution_param {
    num_output: 224
    pad: 1
    kernel_size: 3
    weight_filler {
      type: "xavier"
      std: 0.03
    }
    bias_filler {
      type: "constant"
      value: 0.2
    }
  }
}
layer {
  name: "inception_4b/relu_3x3"
  type: "ReLU"
  bottom: "inception_4b/3x3"
  top: "inception_4b/3x3"
}
layer {
  name: "inception_4b/5x5_reduce"
  type: "Convolution"
  bottom: "inception_4a/output"
  top: "inception_4b/5x5_reduce"
  param {
    lr_mult: 1
    decay_mult: 1
  }
  param {
    lr_mult: 2
    decay_mult: 0
  }
  convolution_param {
    num_output: 24
    kernel_size: 1
    weight_filler {
      type: "xavier"
      std: 0.2
    }
    bias_filler {
      type: "constant"
      value: 0.2
    }
  }
}
layer {
  name: "inception_4b/relu_5x5_reduce"
  type: "ReLU"
  bottom: "inception_4b/5x5_reduce"
  top: "inception_4b/5x5_reduce"
}
layer {
  name: "inception_4b/5x5"
  type: "Convolution"
  bottom: "inception_4b/5x5_reduce"
  top: "inception_4b/5x5"
  param {
    lr_mult: 1
    decay_mult: 1
  }
  param {
    lr_mult: 2
    decay_mult: 0
  }
  convolution_param {
    num_output: 64
    pad: 2
    kernel_size: 5
    weight_filler {
      type: "xavier"
      std: 0.03
    }
    bias_filler {
      type: "constant"
      value: 0.2
    }
  }
}
layer {
  name: "inception_4b/relu_5x5"
  type: "ReLU"
  bottom: "inception_4b/5x5"
  top: "inception_4b/5x5"
}
layer {
  name: "inception_4b/pool"
  type: "Pooling"
  bottom: "inception_4a/output"
  top: "inception_4b/pool"
  pooling_param {
    pool: MAX
    kernel_size: 3
    stride: 1
    pad: 1
  }
}
layer {
  name: "inception_4b/pool_proj"
  type: "Convolution"
  bottom: "inception_4b/pool"
  top: "inception_4b/pool_proj"
  param {
    lr_mult: 1
    decay_mult: 1
  }
  param {
    lr_mult: 2
    decay_mult: 0
  }
  convolution_param {
    num_output: 64
    kernel_size: 1
    weight_filler {
      type: "xavier"
      std: 0.1
    }
    bias_filler {
      type: "constant"
      value: 0.2
    }
  }
}
layer {
  name: "inception_4b/relu_pool_proj"
  type: "ReLU"
  bottom: "inception_4b/pool_proj"
  top: "inception_4b/pool_proj"
}
layer {
  name: "inception_4b/output"
  type: "Concat"
  bottom: "inception_4b/1x1"
  bottom: "inception_4b/3x3"
  bottom: "inception_4b/5x5"
  bottom: "inception_4b/pool_proj"
  top: "inception_4b/output"
}
layer {
  name: "inception_4c/1x1"
  type: "Convolution"
  bottom: "inception_4b/output"
  top: "inception_4c/1x1"
  param {
    lr_mult: 1
    decay_mult: 1
  }
  param {
    lr_mult: 2
    decay_mult: 0
  }
  convolution_param {
    num_output: 128
    kernel_size: 1
    weight_filler {
      type: "xavier"
      std: 0.03
    }
    bias_filler {
      type: "constant"
      value: 0.2
    }
  }
}
layer {
  name: "inception_4c/relu_1x1"
  type: "ReLU"
  bottom: "inception_4c/1x1"
  top: "inception_4c/1x1"
}
layer {
  name: "inception_4c/3x3_reduce"
  type: "Convolution"
  bottom: "inception_4b/output"
  top: "inception_4c/3x3_reduce"
  param {
    lr_mult: 1
    decay_mult: 1
  }
  param {
    lr_mult: 2
    decay_mult: 0
  }
  convolution_param {
    num_output: 128
    kernel_size: 1
    weight_filler {
      type: "xavier"
      std: 0.09
    }
    bias_filler {
      type: "constant"
      value: 0.2
    }
  }
}
layer {
  name: "inception_4c/relu_3x3_reduce"
  type: "ReLU"
  bottom: "inception_4c/3x3_reduce"
  top: "inception_4c/3x3_reduce"
}
layer {
  name: "inception_4c/3x3"
  type: "Convolution"
  bottom: "inception_4c/3x3_reduce"
  top: "inception_4c/3x3"
  param {
    lr_mult: 1
    decay_mult: 1
  }
  param {
    lr_mult: 2
    decay_mult: 0
  }
  convolution_param {
    num_output: 256
    pad: 1
    kernel_size: 3
    weight_filler {
      type: "xavier"
      std: 0.03
    }
    bias_filler {
      type: "constant"
      value: 0.2
    }
  }
}
layer {
  name: "inception_4c/relu_3x3"
  type: "ReLU"
  bottom: "inception_4c/3x3"
  top: "inception_4c/3x3"
}
layer {
  name: "inception_4c/5x5_reduce"
  type: "Convolution"
  bottom: "inception_4b/output"
  top: "inception_4c/5x5_reduce"
  param {
    lr_mult: 1
    decay_mult: 1
  }
  param {
    lr_mult: 2
    decay_mult: 0
  }
  convolution_param {
    num_output: 24
    kernel_size: 1
    weight_filler {
      type: "xavier"
      std: 0.2
    }
    bias_filler {
      type: "constant"
      value: 0.2
    }
  }
}
layer {
  name: "inception_4c/relu_5x5_reduce"
  type: "ReLU"
  bottom: "inception_4c/5x5_reduce"
  top: "inception_4c/5x5_reduce"
}
layer {
  name: "inception_4c/5x5"
  type: "Convolution"
  bottom: "inception_4c/5x5_reduce"
  top: "inception_4c/5x5"
  param {
    lr_mult: 1
    decay_mult: 1
  }
  param {
    lr_mult: 2
    decay_mult: 0
  }
  convolution_param {
    num_output: 64
    pad: 2
    kernel_size: 5
    weight_filler {
      type: "xavier"
      std: 0.03
    }
    bias_filler {
      type: "constant"
      value: 0.2
    }
  }
}
layer {
  name: "inception_4c/relu_5x5"
  type: "ReLU"
  bottom: "inception_4c/5x5"
  top: "inception_4c/5x5"
}
layer {
  name: "inception_4c/pool"
  type: "Pooling"
  bottom: "inception_4b/output"
  top: "inception_4c/pool"
  pooling_param {
    pool: MAX
    kernel_size: 3
    stride: 1
    pad: 1
  }
}
layer {
  name: "inception_4c/pool_proj"
  type: "Convolution"
  bottom: "inception_4c/pool"
  top: "inception_4c/pool_proj"
  param {
    lr_mult: 1
    decay_mult: 1
  }
  param {
    lr_mult: 2
    decay_mult: 0
  }
  convolution_param {
    num_output: 64
    kernel_size: 1
    weight_filler {
      type: "xavier"
      std: 0.1
    }
    bias_filler {
      type: "constant"
      value: 0.2
    }
  }
}
layer {
  name: "inception_4c/relu_pool_proj"
  type: "ReLU"
  bottom: "inception_4c/pool_proj"
  top: "inception_4c/pool_proj"
}
layer {
  name: "inception_4c/output"
  type: "Concat"
  bottom: "inception_4c/1x1"
  bottom: "inception_4c/3x3"
  bottom: "inception_4c/5x5"
  bottom: "inception_4c/pool_proj"
  top: "inception_4c/output"
}
layer {
  name: "inception_4d/1x1"
  type: "Convolution"
  bottom: "inception_4c/output"
  top: "inception_4d/1x1"
  param {
    lr_mult: 1
    decay_mult: 1
  }
  param {
    lr_mult: 2
    decay_mult: 0
  }
  convolution_param {
    num_output: 112
    kernel_size: 1
    weight_filler {
      type: "xavier"
      std: 0.03
    }
    bias_filler {
      type: "constant"
      value: 0.2
    }
  }
}
layer {
  name: "inception_4d/relu_1x1"
  type: "ReLU"
  bottom: "inception_4d/1x1"
  top: "inception_4d/1x1"
}
layer {
  name: "inception_4d/3x3_reduce"
  type: "Convolution"
  bottom: "inception_4c/output"
  top: "inception_4d/3x3_reduce"
  param {
    lr_mult: 1
    decay_mult: 1
  }
  param {
    lr_mult: 2
    decay_mult: 0
  }
  convolution_param {
    num_output: 144
    kernel_size: 1
    weight_filler {
      type: "xavier"
      std: 0.09
    }
    bias_filler {
      type: "constant"
      value: 0.2
    }
  }
}
layer {
  name: "inception_4d/relu_3x3_reduce"
  type: "ReLU"
  bottom: "inception_4d/3x3_reduce"
  top: "inception_4d/3x3_reduce"
}
layer {
  name: "inception_4d/3x3"
  type: "Convolution"
  bottom: "inception_4d/3x3_reduce"
  top: "inception_4d/3x3"
  param {
    lr_mult: 1
    decay_mult: 1
  }
  param {
    lr_mult: 2
    decay_mult: 0
  }
  convolution_param {
    num_output: 288
    pad: 1
    kernel_size: 3
    weight_filler {
      type: "xavier"
      std: 0.03
    }
    bias_filler {
      type: "constant"
      value: 0.2
    }
  }
}
layer {
  name: "inception_4d/relu_3x3"
  type: "ReLU"
  bottom: "inception_4d/3x3"
  top: "inception_4d/3x3"
}
layer {
  name: "inception_4d/5x5_reduce"
  type: "Convolution"
  bottom: "inception_4c/output"
  top: "inception_4d/5x5_reduce"
  param {
    lr_mult: 1
    decay_mult: 1
  }
  param {
    lr_mult: 2
    decay_mult: 0
  }
  convolution_param {
    num_output: 32
    kernel_size: 1
    weight_filler {
      type: "xavier"
      std: 0.2
    }
    bias_filler {
      type: "constant"
      value: 0.2
    }
  }
}
layer {
  name: "inception_4d/relu_5x5_reduce"
  type: "ReLU"
  bottom: "inception_4d/5x5_reduce"
  top: "inception_4d/5x5_reduce"
}
layer {
  name: "inception_4d/5x5"
  type: "Convolution"
  bottom: "inception_4d/5x5_reduce"
  top: "inception_4d/5x5"
  param {
    lr_mult: 1
    decay_mult: 1
  }
  param {
    lr_mult: 2
    decay_mult: 0
  }
  convolution_param {
    num_output: 64
    pad: 2
    kernel_size: 5
    weight_filler {
      type: "xavier"
      std: 0.03
    }
    bias_filler {
      type: "constant"
      value: 0.2
    }
  }
}
layer {
  name: "inception_4d/relu_5x5"
  type: "ReLU"
  bottom: "inception_4d/5x5"
  top: "inception_4d/5x5"
}
layer {
  name: "inception_4d/pool"
  type: "Pooling"
  bottom: "inception_4c/output"
  top: "inception_4d/pool"
  pooling_param {
    pool: MAX
    kernel_size: 3
    stride: 1
    pad: 1
  }
}
layer {
  name: "inception_4d/pool_proj"
  type: "Convolution"
  bottom: "inception_4d/pool"
  top: "inception_4d/pool_proj"
  param {
    lr_mult: 1
    decay_mult: 1
  }
  param {
    lr_mult: 2
    decay_mult: 0
  }
  convolution_param {
    num_output: 64
    kernel_size: 1
    weight_filler {
      type: "xavier"
      std: 0.1
    }
    bias_filler {
      type: "constant"
      value: 0.2
    }
  }
}
layer {
  name: "inception_4d/relu_pool_proj"
  type: "ReLU"
  bottom: "inception_4d/pool_proj"
  top: "inception_4d/pool_proj"
}
layer {
  name: "inception_4d/output"
  type: "Concat"
  bottom: "inception_4d/1x1"
  bottom: "inception_4d/3x3"
  bottom: "inception_4d/5x5"
  bottom: "inception_4d/pool_proj"
  top: "inception_4d/output"
}
layer {
  name: "loss2/ave_pool"
  type: "Pooling"
  bottom: "inception_4d/output"
  top: "loss2/ave_pool"
  pooling_param {
    pool: AVE
    kernel_size: 5
    stride: 3
  }
}
layer {
  name: "loss2/conv"
  type: "Convolution"
  bottom: "loss2/ave_pool"
  top: "loss2/conv"
  param {
    lr_mult: 1
    decay_mult: 1
  }
  param {
    lr_mult: 2
    decay_mult: 0
  }
  convolution_param {
    num_output: 128
    kernel_size: 1
    weight_filler {
      type: "xavier"
      std: 0.08
    }
    bias_filler {
      type: "constant"
      value: 0.2
    }
  }
}
layer {
  name: "loss2/relu_conv"
  type: "ReLU"
  bottom: "loss2/conv"
  top: "loss2/conv"
}
layer {
  name: "loss2/fc"
  type: "InnerProduct"
…
I0511 06:34:28.632132  8175 net.cpp:112] Top shape: 32 128 14 14 (802816)
I0511 06:34:28.632144  8175 layer_factory.hpp:74] Creating layer inception_4c/relu_1x1
I0511 06:34:28.632158  8175 net.cpp:76] Creating Layer inception_4c/relu_1x1
I0511 06:34:28.632165  8175 net.cpp:372] inception_4c/relu_1x1 <- inception_4c/1x1
I0511 06:34:28.632174  8175 net.cpp:323] inception_4c/relu_1x1 -> inception_4c/1x1 (in-place)
I0511 06:34:28.632182  8175 net.cpp:105] Setting up inception_4c/relu_1x1
I0511 06:34:28.632189  8175 net.cpp:112] Top shape: 32 128 14 14 (802816)
I0511 06:34:28.632206  8175 layer_factory.hpp:74] Creating layer inception_4c/3x3_reduce
I0511 06:34:28.632216  8175 net.cpp:76] Creating Layer inception_4c/3x3_reduce
I0511 06:34:28.632222  8175 net.cpp:372] inception_4c/3x3_reduce <- inception_4b/output_inception_4b/output_0_split_1
I0511 06:34:28.632230  8175 net.cpp:334] inception_4c/3x3_reduce -> inception_4c/3x3_reduce
I0511 06:34:28.632239  8175 net.cpp:105] Setting up inception_4c/3x3_reduce
I0511 06:34:28.632809  8175 net.cpp:112] Top shape: 32 128 14 14 (802816)
I0511 06:34:28.632824  8175 layer_factory.hpp:74] Creating layer inception_4c/relu_3x3_reduce
I0511 06:34:28.632833  8175 net.cpp:76] Creating Layer inception_4c/relu_3x3_reduce
I0511 06:34:28.632838  8175 net.cpp:372] inception_4c/relu_3x3_reduce <- inception_4c/3x3_reduce
I0511 06:34:28.632845  8175 net.cpp:323] inception_4c/relu_3x3_reduce -> inception_4c/3x3_reduce (in-place)
I0511 06:34:28.632853  8175 net.cpp:105] Setting up inception_4c/relu_3x3_reduce
I0511 06:34:28.632859  8175 net.cpp:112] Top shape: 32 128 14 14 (802816)
I0511 06:34:28.632864  8175 layer_factory.hpp:74] Creating layer inception_4c/3x3
I0511 06:34:28.632875  8175 net.cpp:76] Creating Layer inception_4c/3x3
I0511 06:34:28.632881  8175 net.cpp:372] inception_4c/3x3 <- inception_4c/3x3_reduce
I0511 06:34:28.632889  8175 net.cpp:334] inception_4c/3x3 -> inception_4c/3x3
I0511 06:34:28.632897  8175 net.cpp:105] Setting up inception_4c/3x3
I0511 06:34:28.635359  8175 net.cpp:112] Top shape: 32 256 14 14 (1605632)
I0511 06:34:28.635390  8175 layer_factory.hpp:74] Creating layer inception_4c/relu_3x3
I0511 06:34:28.635398  8175 net.cpp:76] Creating Layer inception_4c/relu_3x3
I0511 06:34:28.636180  8175 net.cpp:372] inception_4c/relu_3x3 <- inception_4c/3x3
I0511 06:34:28.636198  8175 net.cpp:323] inception_4c/relu_3x3 -> inception_4c/3x3 (in-place)
I0511 06:34:28.636210  8175 net.cpp:105] Setting up inception_4c/relu_3x3
I0511 06:34:28.636216  8175 net.cpp:112] Top shape: 32 256 14 14 (1605632)
I0511 06:34:28.636222  8175 layer_factory.hpp:74] Creating layer inception_4c/5x5_reduce
I0511 06:34:28.636239  8175 net.cpp:76] Creating Layer inception_4c/5x5_reduce
I0511 06:34:28.636246  8175 net.cpp:372] inception_4c/5x5_reduce <- inception_4b/output_inception_4b/output_0_split_2
I0511 06:34:28.636255  8175 net.cpp:334] inception_4c/5x5_reduce -> inception_4c/5x5_reduce
I0511 06:34:28.636266  8175 net.cpp:105] Setting up inception_4c/5x5_reduce
I0511 06:34:28.636394  8175 net.cpp:112] Top shape: 32 24 14 14 (150528)
I0511 06:34:28.636409  8175 layer_factory.hpp:74] Creating layer inception_4c/relu_5x5_reduce
I0511 06:34:28.636417  8175 net.cpp:76] Creating Layer inception_4c/relu_5x5_reduce
I0511 06:34:28.636425  8175 net.cpp:372] inception_4c/relu_5x5_reduce <- inception_4c/5x5_reduce
I0511 06:34:28.636431  8175 net.cpp:323] inception_4c/relu_5x5_reduce -> inception_4c/5x5_reduce (in-place)
I0511 06:34:28.636440  8175 net.cpp:105] Setting up inception_4c/relu_5x5_reduce
I0511 06:34:28.636447  8175 net.cpp:112] Top shape: 32 24 14 14 (150528)
I0511 06:34:28.636458  8175 layer_factory.hpp:74] Creating layer inception_4c/5x5
I0511 06:34:28.636476  8175 net.cpp:76] Creating Layer inception_4c/5x5
I0511 06:34:28.636487  8175 net.cpp:372] inception_4c/5x5 <- inception_4c/5x5_reduce
I0511 06:34:28.636499  8175 net.cpp:334] inception_4c/5x5 -> inception_4c/5x5
I0511 06:34:28.636509  8175 net.cpp:105] Setting up inception_4c/5x5
I0511 06:34:28.636844  8175 net.cpp:112] Top shape: 32 64 14 14 (401408)
I0511 06:34:28.636859  8175 layer_factory.hpp:74] Creating layer inception_4c/relu_5x5
I0511 06:34:28.636868  8175 net.cpp:76] Creating Layer inception_4c/relu_5x5
I0511 06:34:28.636874  8175 net.cpp:372] inception_4c/relu_5x5 <- inception_4c/5x5
I0511 06:34:28.636881  8175 net.cpp:323] inception_4c/relu_5x5 -> inception_4c/5x5 (in-place)
I0511 06:34:28.636889  8175 net.cpp:105] Setting up inception_4c/relu_5x5
I0511 06:34:28.636894  8175 net.cpp:112] Top shape: 32 64 14 14 (401408)
I0511 06:34:28.636900  8175 layer_factory.hpp:74] Creating layer inception_4c/pool
I0511 06:34:28.636934  8175 net.cpp:76] Creating Layer inception_4c/pool
I0511 06:34:28.636940  8175 net.cpp:372] inception_4c/pool <- inception_4b/output_inception_4b/output_0_split_3
I0511 06:34:28.636951  8175 net.cpp:334] inception_4c/pool -> inception_4c/pool
I0511 06:34:28.636960  8175 net.cpp:105] Setting up inception_4c/pool
I0511 06:34:28.636968  8175 net.cpp:112] Top shape: 32 512 14 14 (3211264)
I0511 06:34:28.636975  8175 layer_factory.hpp:74] Creating layer inception_4c/pool_proj
I0511 06:34:28.636983  8175 net.cpp:76] Creating Layer inception_4c/pool_proj
I0511 06:34:28.636989  8175 net.cpp:372] inception_4c/pool_proj <- inception_4c/pool
I0511 06:34:28.636999  8175 net.cpp:334] inception_4c/pool_proj -> inception_4c/pool_proj
I0511 06:34:28.637008  8175 net.cpp:105] Setting up inception_4c/pool_proj
I0511 06:34:28.637312  8175 net.cpp:112] Top shape: 32 64 14 14 (401408)
I0511 06:34:28.637326  8175 layer_factory.hpp:74] Creating layer inception_4c/relu_pool_proj
I0511 06:34:28.637336  8175 net.cpp:76] Creating Layer inception_4c/relu_pool_proj
I0511 06:34:28.637341  8175 net.cpp:372] inception_4c/relu_pool_proj <- inception_4c/pool_proj
I0511 06:34:28.637348  8175 net.cpp:323] inception_4c/relu_pool_proj -> inception_4c/pool_proj (in-place)
I0511 06:34:28.637356  8175 net.cpp:105] Setting up inception_4c/relu_pool_proj
I0511 06:34:28.637362  8175 net.cpp:112] Top shape: 32 64 14 14 (401408)
I0511 06:34:28.637367  8175 layer_factory.hpp:74] Creating layer inception_4c/output
I0511 06:34:28.637377  8175 net.cpp:76] Creating Layer inception_4c/output
I0511 06:34:28.637383  8175 net.cpp:372] inception_4c/output <- inception_4c/1x1
I0511 06:34:28.637390  8175 net.cpp:372] inception_4c/output <- inception_4c/3x3
I0511 06:34:28.637397  8175 net.cpp:372] inception_4c/output <- inception_4c/5x5
I0511 06:34:28.637403  8175 net.cpp:372] inception_4c/output <- inception_4c/pool_proj
I0511 06:34:28.637410  8175 net.cpp:334] inception_4c/output -> inception_4c/output
I0511 06:34:28.637418  8175 net.cpp:105] Setting up inception_4c/output
I0511 06:34:28.637425  8175 net.cpp:112] Top shape: 32 512 14 14 (3211264)
I0511 06:34:28.637430  8175 layer_factory.hpp:74] Creating layer inception_4c/output_inception_4c/output_0_split
I0511 06:34:28.637439  8175 net.cpp:76] Creating Layer inception_4c/output_inception_4c/output_0_split
I0511 06:34:28.637444  8175 net.cpp:372] inception_4c/output_inception_4c/output_0_split <- inception_4c/output
I0511 06:34:28.637452  8175 net.cpp:334] inception_4c/output_inception_4c/output_0_split -> inception_4c/output_inception_4c/output_0_split_0
I0511 06:34:28.637464  8175 net.cpp:334] inception_4c/output_inception_4c/output_0_split -> inception_4c/output_inception_4c/output_0_split_1
I0511 06:34:28.637473  8175 net.cpp:334] inception_4c/output_inception_4c/output_0_split -> inception_4c/output_inception_4c/output_0_split_2
I0511 06:34:28.637483  8175 net.cpp:334] inception_4c/output_inception_4c/output_0_split -> inception_4c/output_inception_4c/output_0_split_3
I0511 06:34:28.637491  8175 net.cpp:105] Setting up inception_4c/output_inception_4c/output_0_split
I0511 06:34:28.637498  8175 net.cpp:112] Top shape: 32 512 14 14 (3211264)
I0511 06:34:28.637503  8175 net.cpp:112] Top shape: 32 512 14 14 (3211264)
I0511 06:34:28.637508  8175 net.cpp:112] Top shape: 32 512 14 14 (3211264)
I0511 06:34:28.637513  8175 net.cpp:112] Top shape: 32 512 14 14 (3211264)
I0511 06:34:28.637518  8175 layer_factory.hpp:74] Creating layer inception_4d/1x1
I0511 06:34:28.637531  8175 net.cpp:76] Creating Layer inception_4d/1x1
I0511 06:34:28.637537  8175 net.cpp:372] inception_4d/1x1 <- inception_4c/output_inception_4c/output_0_split_0
I0511 06:34:28.637548  8175 net.cpp:334] inception_4d/1x1 -> inception_4d/1x1
I0511 06:34:28.637557  8175 net.cpp:105] Setting up inception_4d/1x1
I0511 06:34:28.638038  8175 net.cpp:112] Top shape: 32 112 14 14 (702464)
I0511 06:34:28.638052  8175 layer_factory.hpp:74] Creating layer inception_4d/relu_1x1
I0511 06:34:28.638062  8175 net.cpp:76] Creating Layer inception_4d/relu_1x1
I0511 06:34:28.638082  8175 net.cpp:372] inception_4d/relu_1x1 <- inception_4d/1x1
I0511 06:34:28.638090  8175 net.cpp:323] inception_4d/relu_1x1 -> inception_4d/1x1 (in-place)
I0511 06:34:28.638098  8175 net.cpp:105] Setting up inception_4d/relu_1x1
I0511 06:34:28.638104  8175 net.cpp:112] Top shape: 32 112 14 14 (702464)
I0511 06:34:28.638109  8175 layer_factory.hpp:74] Creating layer inception_4d/3x3_reduce
I0511 06:34:28.638120  8175 net.cpp:76] Creating Layer inception_4d/3x3_reduce
I0511 06:34:28.638128  8175 net.cpp:372] inception_4d/3x3_reduce <- inception_4c/output_inception_4c/output_0_split_1
I0511 06:34:28.638139  8175 net.cpp:334] inception_4d/3x3_reduce -> inception_4d/3x3_reduce
I0511 06:34:28.638149  8175 net.cpp:105] Setting up inception_4d/3x3_reduce
I0511 06:34:28.638784  8175 net.cpp:112] Top shape: 32 144 14 14 (903168)
I0511 06:34:28.638798  8175 layer_factory.hpp:74] Creating layer inception_4d/relu_3x3_reduce
I0511 06:34:28.638808  8175 net.cpp:76] Creating Layer inception_4d/relu_3x3_reduce
I0511 06:34:28.638813  8175 net.cpp:372] inception_4d/relu_3x3_reduce <- inception_4d/3x3_reduce
I0511 06:34:28.638820  8175 net.cpp:323] inception_4d/relu_3x3_reduce -> inception_4d/3x3_reduce (in-place)
I0511 06:34:28.638828  8175 net.cpp:105] Setting up inception_4d/relu_3x3_reduce
I0511 06:34:28.638834  8175 net.cpp:112] Top shape: 32 144 14 14 (903168)
I0511 06:34:28.638839  8175 layer_factory.hpp:74] Creating layer inception_4d/3x3
I0511 06:34:28.638854  8175 net.cpp:76] Creating Layer inception_4d/3x3
I0511 06:34:28.638860  8175 net.cpp:372] inception_4d/3x3 <- inception_4d/3x3_reduce
I0511 06:34:28.638870  8175 net.cpp:334] inception_4d/3x3 -> inception_4d/3x3
I0511 06:34:28.638880  8175 net.cpp:105] Setting up inception_4d/3x3
I0511 06:34:28.642015  8175 net.cpp:112] Top shape: 32 288 14 14 (1806336)
I0511 06:34:28.642038  8175 layer_factory.hpp:74] Creating layer inception_4d/relu_3x3
I0511 06:34:28.642047  8175 net.cpp:76] Creating Layer inception_4d/relu_3x3
I0511 06:34:28.642055  8175 net.cpp:372] inception_4d/relu_3x3 <- inception_4d/3x3
I0511 06:34:28.642063  8175 net.cpp:323] inception_4d/relu_3x3 -> inception_4d/3x3 (in-place)
I0511 06:34:28.642072  8175 net.cpp:105] Setting up inception_4d/relu_3x3
I0511 06:34:28.642077  8175 net.cpp:112] Top shape: 32 288 14 14 (1806336)
I0511 06:34:28.642083  8175 layer_factory.hpp:74] Creating layer inception_4d/5x5_reduce
I0511 06:34:28.642096  8175 net.cpp:76] Creating Layer inception_4d/5x5_reduce
I0511 06:34:28.642102  8175 net.cpp:372] inception_4d/5x5_reduce <- inception_4c/output_inception_4c/output_0_split_2
I0511 06:34:28.642109  8175 net.cpp:334] inception_4d/5x5_reduce -> inception_4d/5x5_reduce
I0511 06:34:28.642122  8175 net.cpp:105] Setting up inception_4d/5x5_reduce
I0511 06:34:28.642280  8175 net.cpp:112] Top shape: 32 32 14 14 (200704)
I0511 06:34:28.642293  8175 layer_factory.hpp:74] Creating layer inception_4d/relu_5x5_reduce
I0511 06:34:28.642302  8175 net.cpp:76] Creating Layer inception_4d/relu_5x5_reduce
I0511 06:34:28.642308  8175 net.cpp:372] inception_4d/relu_5x5_reduce <- inception_4d/5x5_reduce
I0511 06:34:28.642318  8175 net.cpp:323] inception_4d/relu_5x5_reduce -> inception_4d/5x5_reduce (in-place)
I0511 06:34:28.642331  8175 net.cpp:105] Setting up inception_4d/relu_5x5_reduce
I0511 06:34:28.642338  8175 net.cpp:112] Top shape: 32 32 14 14 (200704)
I0511 06:34:28.642343  8175 layer_factory.hpp:74] Creating layer inception_4d/5x5
I0511 06:34:28.642351  8175 net.cpp:76] Creating Layer inception_4d/5x5
I0511 06:34:28.642357  8175 net.cpp:372] inception_4d/5x5 <- inception_4d/5x5_reduce
I0511 06:34:28.642367  8175 net.cpp:334] inception_4d/5x5 -> inception_4d/5x5
I0511 06:34:28.642376  8175 net.cpp:105] Setting up inception_4d/5x5
I0511 06:34:28.642814  8175 net.cpp:112] Top shape: 32 64 14 14 (401408)
I0511 06:34:28.642828  8175 layer_factory.hpp:74] Creating layer inception_4d/relu_5x5
I0511 06:34:28.642838  8175 net.cpp:76] Creating Layer inception_4d/relu_5x5
I0511 06:34:28.642845  8175 net.cpp:372] inception_4d/relu_5x5 <- inception_4d/5x5
I0511 06:34:28.642874  8175 net.cpp:323] inception_4d/relu_5x5 -> inception_4d/5x5 (in-place)
I0511 06:34:28.642884  8175 net.cpp:105] Setting up inception_4d/relu_5x5
I0511 06:34:28.642889  8175 net.cpp:112] Top shape: 32 64 14 14 (401408)
I0511 06:34:28.642894  8175 layer_factory.hpp:74] Creating layer inception_4d/pool
I0511 06:34:28.642905  8175 net.cpp:76] Creating Layer inception_4d/pool
I0511 06:34:28.642911  8175 net.cpp:372] inception_4d/pool <- inception_4c/output_inception_4c/output_0_split_3
I0511 06:34:28.642920  8175 net.cpp:334] inception_4d/pool -> inception_4d/pool
I0511 06:34:28.642927  8175 net.cpp:105] Setting up inception_4d/pool
I0511 06:34:28.642935  8175 net.cpp:112] Top shape: 32 512 14 14 (3211264)
I0511 06:34:28.642941  8175 layer_factory.hpp:74] Creating layer inception_4d/pool_proj
I0511 06:34:28.642951  8175 net.cpp:76] Creating Layer inception_4d/pool_proj
I0511 06:34:28.642956  8175 net.cpp:372] inception_4d/pool_proj <- inception_4d/pool
I0511 06:34:28.642967  8175 net.cpp:334] inception_4d/pool_proj -> inception_4d/pool_proj
I0511 06:34:28.642976  8175 net.cpp:105] Setting up inception_4d/pool_proj
I0511 06:34:28.643262  8175 net.cpp:112] Top shape: 32 64 14 14 (401408)
I0511 06:34:28.643290  8175 layer_factory.hpp:74] Creating layer inception_4d/relu_pool_proj
I0511 06:34:28.643299  8175 net.cpp:76] Creating Layer inception_4d/relu_pool_proj
I0511 06:34:28.643306  8175 net.cpp:372] inception_4d/relu_pool_proj <- inception_4d/pool_proj
I0511 06:34:28.643313  8175 net.cpp:323] inception_4d/relu_pool_proj -> inception_4d/pool_proj (in-place)
I0511 06:34:28.643321  8175 net.cpp:105] Setting up inception_4d/relu_pool_proj
I0511 06:34:28.644026  8175 net.cpp:112] Top shape: 32 64 14 14 (401408)
I0511 06:34:28.644033  8175 layer_factory.hpp:74] Creating layer inception_4d/output
I0511 06:34:28.644045  8175 net.cpp:76] Creating Layer inception_4d/output
I0511 06:34:28.644052  8175 net.cpp:372] inception_4d/output <- inception_4d/1x1
I0511 06:34:28.644059  8175 net.cpp:372] inception_4d/output <- inception_4d/3x3
I0511 06:34:28.644067  8175 net.cpp:372] inception_4d/output <- inception_4d/5x5
I0511 06:34:28.644073  8175 net.cpp:372] inception_4d/output <- inception_4d/pool_proj
I0511 06:34:28.644080  8175 net.cpp:334] inception_4d/output -> inception_4d/output
I0511 06:34:28.644089  8175 net.cpp:105] Setting up inception_4d/output
I0511 06:34:28.644095  8175 net.cpp:112] Top shape: 32 528 14 14 (3311616)
I0511 06:34:28.644101  8175 layer_factory.hpp:74] Creating layer inception_4d/output_inception_4d/output_0_split
I0511 06:34:28.644110  8175 net.cpp:76] Creating Layer inception_4d/output_inception_4d/output_0_split
I0511 06:34:28.644117  8175 net.cpp:372] inception_4d/output_inception_4d/output_0_split <- inception_4d/output
I0511 06:34:28.644125  8175 net.cpp:334] inception_4d/output_inception_4d/output_0_split -> inception_4d/output_inception_4d/output_0_split_0
I0511 06:34:28.644134  8175 net.cpp:334] inception_4d/output_inception_4d/output_0_split -> inception_4d/output_inception_4d/output_0_split_1
I0511 06:34:28.644143  8175 net.cpp:334] inception_4d/output_inception_4d/output_0_split -> inception_4d/output_inception_4d/output_0_split_2
I0511 06:34:28.644153  8175 net.cpp:334] inception_4d/output_inception_4d/output_0_split -> inception_4d/output_inception_4d/output_0_split_3
I0511 06:34:28.644161  8175 net.cpp:334] inception_4d/output_inception_4d/output_0_split -> inception_4d/output_inception_4d/output_0_split_4
I0511 06:34:28.644170  8175 net.cpp:105] Setting up inception_4d/output_inception_4d/output_0_split
I0511 06:34:28.644177  8175 net.cpp:112] Top shape: 32 528 14 14 (3311616)
I0511 06:34:28.644182  8175 net.cpp:112] Top shape: 32 528 14 14 (3311616)
I0511 06:34:28.644187  8175 net.cpp:112] Top shape: 32 528 14 14 (3311616)
I0511 06:34:28.644192  8175 net.cpp:112] Top shape: 32 528 14 14 (3311616)
I0511 06:34:28.644197  8175 net.cpp:112] Top shape: 32 528 14 14 (3311616)
I0511 06:34:28.644202  8175 layer_factory.hpp:74] Creating layer loss2/ave_pool
I0511 06:34:28.644227  8175 net.cpp:76] Creating Layer loss2/ave_pool
I0511 06:34:28.644233  8175 net.cpp:372] loss2/ave_pool <- inception_4d/output_inception_4d/output_0_split_0
I0511 06:34:28.644243  8175 net.cpp:334] loss2/ave_pool -> loss2/ave_pool
I0511 06:34:28.644250  8175 net.cpp:105] Setting up loss2/ave_pool
I0511 06:34:28.644258  8175 net.cpp:112] Top shape: 32 528 4 4 (270336)
I0511 06:34:28.644263  8175 layer_factory.hpp:74] Creating layer loss2/conv
I0511 06:34:28.644285  8175 net.cpp:76] Creating Layer loss2/conv
I0511 06:34:28.644294  8175 net.cpp:372] loss2/conv <- loss2/ave_pool
I0511 06:34:28.644302  8175 net.cpp:334] loss2/conv -> loss2/conv
I0511 06:34:28.644311  8175 net.cpp:105] Setting up loss2/conv
I0511 06:34:28.644881  8175 net.cpp:112] Top shape: 32 128 4 4 (65536)
I0511 06:34:28.644896  8175 layer_factory.hpp:74] Creating layer loss2/relu_conv
I0511 06:34:28.644903  8175 net.cpp:76] Creating Layer loss2/relu_conv
I0511 06:34:28.644909  8175 net.cpp:372] loss2/relu_conv <- loss2/conv
I0511 06:34:28.644919  8175 net.cpp:323] loss2/relu_conv -> loss2/conv (in-place)
I0511 06:34:28.644928  8175 net.cpp:105] Setting up loss2/relu_conv
I0511 06:34:28.644934  8175 net.cpp:112] Top shape: 32 128 4 4 (65536)
I0511 06:34:28.644939  8175 layer_factory.hpp:74] Creating layer loss2/fc
I0511 06:34:28.644948  8175 net.cpp:76] Creating Layer loss2/fc
I0511 06:34:28.644953  8175 net.cpp:372] loss2/fc <- loss2/conv
I0511 06:34:28.644961  8175 net.cpp:334] loss2/fc -> loss2/fc
I0511 06:34:28.644970  8175 net.cpp:105] Setting up loss2/fc
I0511 06:34:28.662750  8175 net.cpp:112] Top shape: 32 1024 1 1 (32768)
I0511 06:34:28.662801  8175 layer_factory.hpp:74] Creating layer loss2/relu_fc
I0511 06:34:28.662816  8175 net.cpp:76] Creating Layer loss2/relu_fc
I0511 06:34:28.662824  8175 net.cpp:372] loss2/relu_fc <- loss2/fc
I0511 06:34:28.662837  8175 net.cpp:323] loss2/relu_fc -> loss2/fc (in-place)
I0511 06:34:28.662848  8175 net.cpp:105] Setting up loss2/relu_fc
I0511 06:34:28.662854  8175 net.cpp:112] Top shape: 32 1024 1 1 (32768)
I0511 06:34:28.662860  8175 layer_factory.hpp:74] Creating layer loss2/drop_fc
I0511 06:34:28.662870  8175 net.cpp:76] Creating Layer loss2/drop_fc
I0511 06:34:28.662875  8175 net.cpp:372] loss2/drop_fc <- loss2/fc
I0511 06:34:28.662886  8175 net.cpp:323] loss2/drop_fc -> loss2/fc (in-place)
I0511 06:34:28.662895  8175 net.cpp:105] Setting up loss2/drop_fc
I0511 06:34:28.662902  8175 net.cpp:112] Top shape: 32 1024 1 1 (32768)
I0511 06:34:28.662909  8175 layer_factory.hpp:74] Creating layer loss2/classifier
I0511 06:34:28.662919  8175 net.cpp:76] Creating Layer loss2/classifier
I0511 06:34:28.662925  8175 net.cpp:372] loss2/classifier <- loss2/fc
I0511 06:34:28.662938  8175 net.cpp:334] loss2/classifier -> loss2/classifier
I0511 06:34:28.662950  8175 net.cpp:105] Setting up loss2/classifier
I0511 06:34:28.662982  8175 net.cpp:112] Top shape: 32 2 1 1 (64)
I0511 06:34:28.662993  8175 layer_factory.hpp:74] Creating layer loss2/classifier_loss2/classifier_0_split
I0511 06:34:28.663003  8175 net.cpp:76] Creating Layer loss2/classifier_loss2/classifier_0_split
I0511 06:34:28.663009  8175 net.cpp:372] loss2/classifier_loss2/classifier_0_split <- loss2/classifier
I0511 06:34:28.663017  8175 net.cpp:334] loss2/classifier_loss2/classifier_0_split -> loss2/classifier_loss2/classifier_0_split_0
I0511 06:34:28.663027  8175 net.cpp:334] loss2/classifier_loss2/classifier_0_split -> loss2/classifier_loss2/classifier_0_split_1
I0511 06:34:28.663035  8175 net.cpp:105] Setting up loss2/classifier_loss2/classifier_0_split
I0511 06:34:28.663043  8175 net.cpp:112] Top shape: 32 2 1 1 (64)
I0511 06:34:28.663048  8175 net.cpp:112] Top shape: 32 2 1 1 (64)
I0511 06:34:28.663053  8175 layer_factory.hpp:74] Creating layer loss2/loss
I0511 06:34:28.663064  8175 net.cpp:76] Creating Layer loss2/loss
I0511 06:34:28.663069  8175 net.cpp:372] loss2/loss <- loss2/classifier_loss2/classifier_0_split_0
I0511 06:34:28.663076  8175 net.cpp:372] loss2/loss <- label_data_1_split_2
I0511 06:34:28.663084  8175 net.cpp:334] loss2/loss -> loss2/loss1
I0511 06:34:28.663127  8175 net.cpp:105] Setting up loss2/loss
I0511 06:34:28.663136  8175 layer_factory.hpp:74] Creating layer loss2/loss
I0511 06:34:28.663152  8175 net.cpp:112] Top shape: 1 1 1 1 (1)
I0511 06:34:28.663158  8175 net.cpp:118]     with loss weight 0.3
I0511 06:34:28.663177  8175 layer_factory.hpp:74] Creating layer loss2/top-1
I0511 06:34:28.663184  8175 net.cpp:76] Creating Layer loss2/top-1
I0511 06:34:28.663190  8175 net.cpp:372] loss2/top-1 <- loss2/classifier_loss2/classifier_0_split_1
I0511 06:34:28.663197  8175 net.cpp:372] loss2/top-1 <- label_data_1_split_3
I0511 06:34:28.663208  8175 net.cpp:334] loss2/top-1 -> loss2/top-1
I0511 06:34:28.663216  8175 net.cpp:105] Setting up loss2/top-1
I0511 06:34:28.663223  8175 net.cpp:112] Top shape: 1 1 1 1 (1)
I0511 06:34:28.663228  8175 layer_factory.hpp:74] Creating layer inception_4e/1x1
I0511 06:34:28.663239  8175 net.cpp:76] Creating Layer inception_4e/1x1
I0511 06:34:28.663245  8175 net.cpp:372] inception_4e/1x1 <- inception_4d/output_inception_4d/output_0_split_1
I0511 06:34:28.663254  8175 net.cpp:334] inception_4e/1x1 -> inception_4e/1x1
I0511 06:34:28.663264  8175 net.cpp:105] Setting up inception_4e/1x1
I0511 06:34:28.664444  8175 net.cpp:112] Top shape: 32 256 14 14 (1605632)
I0511 06:34:28.664463  8175 layer_factory.hpp:74] Creating layer inception_4e/relu_1x1
I0511 06:34:28.664471  8175 net.cpp:76] Creating Layer inception_4e/relu_1x1
I0511 06:34:28.664477  8175 net.cpp:372] inception_4e/relu_1x1 <- inception_4e/1x1
I0511 06:34:28.664486  8175 net.cpp:323] inception_4e/relu_1x1 -> inception_4e/1x1 (in-place)
I0511 06:34:28.664495  8175 net.cpp:105] Setting up inception_4e/relu_1x1
I0511 06:34:28.664501  8175 net.cpp:112] Top shape: 32 256 14 14 (1605632)
I0511 06:34:28.664506  8175 layer_factory.hpp:74] Creating layer inception_4e/3x3_reduce
I0511 06:34:28.664515  8175 net.cpp:76] Creating Layer inception_4e/3x3_reduce
I0511 06:34:28.664520  8175 net.cpp:372] inception_4e/3x3_reduce <- inception_4d/output_inception_4d/output_0_split_2
I0511 06:34:28.664530  8175 net.cpp:334] inception_4e/3x3_reduce -> inception_4e/3x3_reduce
I0511 06:34:28.664541  8175 net.cpp:105] Setting up inception_4e/3x3_reduce
I0511 06:34:28.665254  8175 net.cpp:112] Top shape: 32 160 14 14 (1003520)
I0511 06:34:28.665268  8175 layer_factory.hpp:74] Creating layer inception_4e/relu_3x3_reduce
I0511 06:34:28.665292  8175 net.cpp:76] Creating Layer inception_4e/relu_3x3_reduce
I0511 06:34:28.665298  8175 net.cpp:372] inception_4e/relu_3x3_reduce <- inception_4e/3x3_reduce
I0511 06:34:28.665307  8175 net.cpp:323] inception_4e/relu_3x3_reduce -> inception_4e/3x3_reduce (in-place)
I0511 06:34:28.665314  8175 net.cpp:105] Setting up inception_4e/relu_3x3_reduce
I0511 06:34:28.665319  8175 net.cpp:112] Top shape: 32 160 14 14 (1003520)
I0511 06:34:28.665325  8175 layer_factory.hpp:74] Creating layer inception_4e/3x3
I0511 06:34:28.665357  8175 net.cpp:76] Creating Layer inception_4e/3x3
I0511 06:34:28.665365  8175 net.cpp:372] inception_4e/3x3 <- inception_4e/3x3_reduce
I0511 06:34:28.665374  8175 net.cpp:334] inception_4e/3x3 -> inception_4e/3x3
I0511 06:34:28.665382  8175 net.cpp:105] Setting up inception_4e/3x3
I0511 06:34:28.669256  8175 net.cpp:112] Top shape: 32 320 14 14 (2007040)
I0511 06:34:28.669287  8175 layer_factory.hpp:74] Creating layer inception_4e/relu_3x3
I0511 06:34:28.669297  8175 net.cpp:76] Creating Layer inception_4e/relu_3x3
I0511 06:34:28.669304  8175 net.cpp:372] inception_4e/relu_3x3 <- inception_4e/3x3
I0511 06:34:28.669314  8175 net.cpp:323] inception_4e/relu_3x3 -> inception_4e/3x3 (in-place)
I0511 06:34:28.669323  8175 net.cpp:105] Setting up inception_4e/relu_3x3
I0511 06:34:28.669329  8175 net.cpp:112] Top shape: 32 320 14 14 (2007040)
I0511 06:34:28.669335  8175 layer_factory.hpp:74] Creating layer inception_4e/5x5_reduce
I0511 06:34:28.669344  8175 net.cpp:76] Creating Layer inception_4e/5x5_reduce
I0511 06:34:28.669349  8175 net.cpp:372] inception_4e/5x5_reduce <- inception_4d/output_inception_4d/output_0_split_3
I0511 06:34:28.669380  8175 net.cpp:334] inception_4e/5x5_reduce -> inception_4e/5x5_reduce
I0511 06:34:28.669391  8175 net.cpp:105] Setting up inception_4e/5x5_reduce
I0511 06:34:28.669538  8175 net.cpp:112] Top shape: 32 32 14 14 (200704)
I0511 06:34:28.669549  8175 layer_factory.hpp:74] Creating layer inception_4e/relu_5x5_reduce
I0511 06:34:28.669559  8175 net.cpp:76] Creating Layer inception_4e/relu_5x5_reduce
I0511 06:34:28.669566  8175 net.cpp:372] inception_4e/relu_5x5_reduce <- inception_4e/5x5_reduce
I0511 06:34:28.669574  8175 net.cpp:323] inception_4e/relu_5x5_reduce -> inception_4e/5x5_reduce (in-place)
I0511 06:34:28.669581  8175 net.cpp:105] Setting up inception_4e/relu_5x5_reduce
I0511 06:34:28.669587  8175 net.cpp:112] Top shape: 32 32 14 14 (200704)
I0511 06:34:28.669592  8175 layer_factory.hpp:74] Creating layer inception_4e/5x5
I0511 06:34:28.669603  8175 net.cpp:76] Creating Layer inception_4e/5x5
I0511 06:34:28.669610  8175 net.cpp:372] inception_4e/5x5 <- inception_4e/5x5_reduce
I0511 06:34:28.669617  8175 net.cpp:334] inception_4e/5x5 -> inception_4e/5x5
I0511 06:34:28.669626  8175 net.cpp:105] Setting up inception_4e/5x5
I0511 06:34:28.670500  8175 net.cpp:112] Top shape: 32 128 14 14 (802816)
I0511 06:34:28.670514  8175 layer_factory.hpp:74] Creating layer inception_4e/relu_5x5
I0511 06:34:28.670522  8175 net.cpp:76] Creating Layer inception_4e/relu_5x5
I0511 06:34:28.670529  8175 net.cpp:372] inception_4e/relu_5x5 <- inception_4e/5x5
I0511 06:34:28.670538  8175 net.cpp:323] inception_4e/relu_5x5 -> inception_4e/5x5 (in-place)
I0511 06:34:28.670547  8175 net.cpp:105] Setting up inception_4e/relu_5x5
I0511 06:34:28.670552  8175 net.cpp:112] Top shape: 32 128 14 14 (802816)
I0511 06:34:28.670558  8175 layer_factory.hpp:74] Creating layer inception_4e/pool
I0511 06:34:28.670567  8175 net.cpp:76] Creating Layer inception_4e/pool
I0511 06:34:28.670572  8175 net.cpp:372] inception_4e/pool <- inception_4d/output_inception_4d/output_0_split_4
I0511 06:34:28.670580  8175 net.cpp:334] inception_4e/pool -> inception_4e/pool
I0511 06:34:28.670589  8175 net.cpp:105] Setting up inception_4e/pool
I0511 06:34:28.670598  8175 net.cpp:112] Top shape: 32 528 14 14 (3311616)
I0511 06:34:28.670603  8175 layer_factory.hpp:74] Creating layer inception_4e/pool_proj
I0511 06:34:28.670614  8175 net.cpp:76] Creating Layer inception_4e/pool_proj
I0511 06:34:28.670621  8175 net.cpp:372] inception_4e/pool_proj <- inception_4e/pool
I0511 06:34:28.670630  8175 net.cpp:334] inception_4e/pool_proj -> inception_4e/pool_proj
I0511 06:34:28.670640  8175 net.cpp:105] Setting up inception_4e/pool_proj
I0511 06:34:28.671214  8175 net.cpp:112] Top shape: 32 128 14 14 (802816)
I0511 06:34:28.671228  8175 layer_factory.hpp:74] Creating layer inception_4e/relu_pool_proj
I0511 06:34:28.671238  8175 net.cpp:76] Creating Layer inception_4e/relu_pool_proj
I0511 06:34:28.671246  8175 net.cpp:372] inception_4e/relu_pool_proj <- inception_4e/pool_proj
I0511 06:34:28.671252  8175 net.cpp:323] inception_4e/relu_pool_proj -> inception_4e/pool_proj (in-place)
I0511 06:34:28.671260  8175 net.cpp:105] Setting up inception_4e/relu_pool_proj
I0511 06:34:28.671267  8175 net.cpp:112] Top shape: 32 128 14 14 (802816)
I0511 06:34:28.671288  8175 layer_factory.hpp:74] Creating layer inception_4e/output
I0511 06:34:28.671300  8175 net.cpp:76] Creating Layer inception_4e/output
I0511 06:34:28.671308  8175 net.cpp:372] inception_4e/output <- inception_4e/1x1
I0511 06:34:28.671314  8175 net.cpp:372] inception_4e/output <- inception_4e/3x3
I0511 06:34:28.671321  8175 net.cpp:372] inception_4e/output <- inception_4e/5x5
I0511 06:34:28.671327  8175 net.cpp:372] inception_4e/output <- inception_4e/pool_proj
I0511 06:34:28.671335  8175 net.cpp:334] inception_4e/output -> inception_4e/output
I0511 06:34:28.671344  8175 net.cpp:105] Setting up inception_4e/output
I0511 06:34:28.671350  8175 net.cpp:112] Top shape: 32 832 14 14 (5218304)
I0511 06:34:28.671355  8175 layer_factory.hpp:74] Creating layer pool4/3x3_s2
I0511 06:34:28.671363  8175 net.cpp:76] Creating Layer pool4/3x3_s2
I0511 06:34:28.671409  8175 net.cpp:372] pool4/3x3_s2 <- inception_4e/output
I0511 06:34:28.671421  8175 net.cpp:334] pool4/3x3_s2 -> pool4/3x3_s2
I0511 06:34:28.671429  8175 net.cpp:105] Setting up pool4/3x3_s2
I0511 06:34:28.671435  8175 net.cpp:112] Top shape: 32 832 7 7 (1304576)
I0511 06:34:28.671442  8175 layer_factory.hpp:74] Creating layer pool4/3x3_s2_pool4/3x3_s2_0_split
I0511 06:34:28.671452  8175 net.cpp:76] Creating Layer pool4/3x3_s2_pool4/3x3_s2_0_split
I0511 06:34:28.671458  8175 net.cpp:372] pool4/3x3_s2_pool4/3x3_s2_0_split <- pool4/3x3_s2
I0511 06:34:28.671465  8175 net.cpp:334] pool4/3x3_s2_pool4/3x3_s2_0_split -> pool4/3x3_s2_pool4/3x3_s2_0_split_0
I0511 06:34:28.671474  8175 net.cpp:334] pool4/3x3_s2_pool4/3x3_s2_0_split -> pool4/3x3_s2_pool4/3x3_s2_0_split_1
I0511 06:34:28.671485  8175 net.cpp:334] pool4/3x3_s2_pool4/3x3_s2_0_split -> pool4/3x3_s2_pool4/3x3_s2_0_split_2
I0511 06:34:28.671494  8175 net.cpp:334] pool4/3x3_s2_pool4/3x3_s2_0_split -> pool4/3x3_s2_pool4/3x3_s2_0_split_3
I0511 06:34:28.671502  8175 net.cpp:105] Setting up pool4/3x3_s2_pool4/3x3_s2_0_split
I0511 06:34:28.671509  8175 net.cpp:112] Top shape: 32 832 7 7 (1304576)
I0511 06:34:28.671514  8175 net.cpp:112] Top shape: 32 832 7 7 (1304576)
I0511 06:34:28.671519  8175 net.cpp:112] Top shape: 32 832 7 7 (1304576)
I0511 06:34:28.671524  8175 net.cpp:112] Top shape: 32 832 7 7 (1304576)
I0511 06:34:28.671530  8175 layer_factory.hpp:74] Creating layer inception_5a/1x1
I0511 06:34:28.671537  8175 net.cpp:76] Creating Layer inception_5a/1x1
I0511 06:34:28.671543  8175 net.cpp:372] inception_5a/1x1 <- pool4/3x3_s2_pool4/3x3_s2_0_split_0
I0511 06:34:28.671553  8175 net.cpp:334] inception_5a/1x1 -> inception_5a/1x1
I0511 06:34:28.671563  8175 net.cpp:105] Setting up inception_5a/1x1
I0511 06:34:28.673375  8175 net.cpp:112] Top shape: 32 256 7 7 (401408)
I0511 06:34:28.673393  8175 layer_factory.hpp:74] Creating layer inception_5a/relu_1x1
I0511 06:34:28.673403  8175 net.cpp:76] Creating Layer inception_5a/relu_1x1
I0511 06:34:28.673409  8175 net.cpp:372] inception_5a/relu_1x1 <- inception_5a/1x1
I0511 06:34:28.673416  8175 net.cpp:323] inception_5a/relu_1x1 -> inception_5a/1x1 (in-place)
I0511 06:34:28.673425  8175 net.cpp:105] Setting up inception_5a/relu_1x1
I0511 06:34:28.673430  8175 net.cpp:112] Top shape: 32 256 7 7 (401408)
I0511 06:34:28.673436  8175 layer_factory.hpp:74] Creating layer inception_5a/3x3_reduce
I0511 06:34:28.673447  8175 net.cpp:76] Creating Layer inception_5a/3x3_reduce
I0511 06:34:28.673454  8175 net.cpp:372] inception_5a/3x3_reduce <- pool4/3x3_s2_pool4/3x3_s2_0_split_1
I0511 06:34:28.673465  8175 net.cpp:334] inception_5a/3x3_reduce -> inception_5a/3x3_reduce
I0511 06:34:28.673475  8175 net.cpp:105] Setting up inception_5a/3x3_reduce
I0511 06:34:28.674641  8175 net.cpp:112] Top shape: 32 160 7 7 (250880)
I0511 06:34:28.674666  8175 layer_factory.hpp:74] Creating layer inception_5a/relu_3x3_reduce
I0511 06:34:28.674684  8175 net.cpp:76] Creating Layer inception_5a/relu_3x3_reduce
I0511 06:34:28.674695  8175 net.cpp:372] inception_5a/relu_3x3_reduce <- inception_5a/3x3_reduce
I0511 06:34:28.674713  8175 net.cpp:323] inception_5a/relu_3x3_reduce -> inception_5a/3x3_reduce (in-place)
I0511 06:34:28.674727  8175 net.cpp:105] Setting up inception_5a/relu_3x3_reduce
I0511 06:34:28.674733  8175 net.cpp:112] Top shape: 32 160 7 7 (250880)
I0511 06:34:28.674739  8175 layer_factory.hpp:74] Creating layer inception_5a/3x3
I0511 06:34:28.674748  8175 net.cpp:76] Creating Layer inception_5a/3x3
I0511 06:34:28.674754  8175 net.cpp:372] inception_5a/3x3 <- inception_5a/3x3_reduce
I0511 06:34:28.674764  8175 net.cpp:334] inception_5a/3x3 -> inception_5a/3x3
I0511 06:34:28.674774  8175 net.cpp:105] Setting up inception_5a/3x3
I0511 06:34:28.678612  8175 net.cpp:112] Top shape: 32 320 7 7 (501760)
I0511 06:34:28.678634  8175 layer_factory.hpp:74] Creating layer inception_5a/relu_3x3
I0511 06:34:28.678643  8175 net.cpp:76] Creating Layer inception_5a/relu_3x3
I0511 06:34:28.679431  8175 net.cpp:372] inception_5a/relu_3x3 <- inception_5a/3x3
I0511 06:34:28.679471  8175 net.cpp:323] inception_5a/relu_3x3 -> inception_5a/3x3 (in-place)
I0511 06:34:28.679482  8175 net.cpp:105] Setting up inception_5a/relu_3x3
I0511 06:34:28.679488  8175 net.cpp:112] Top shape: 32 320 7 7 (501760)
I0511 06:34:28.679496  8175 layer_factory.hpp:74] Creating layer inception_5a/5x5_reduce
I0511 06:34:28.679504  8175 net.cpp:76] Creating Layer inception_5a/5x5_reduce
I0511 06:34:28.679510  8175 net.cpp:372] inception_5a/5x5_reduce <- pool4/3x3_s2_pool4/3x3_s2_0_split_2
I0511 06:34:28.679519  8175 net.cpp:334] inception_5a/5x5_reduce -> inception_5a/5x5_reduce
I0511 06:34:28.679529  8175 net.cpp:105] Setting up inception_5a/5x5_reduce
I0511 06:34:28.679760  8175 net.cpp:112] Top shape: 32 32 7 7 (50176)
I0511 06:34:28.679774  8175 layer_factory.hpp:74] Creating layer inception_5a/relu_5x5_reduce
I0511 06:34:28.679781  8175 net.cpp:76] Creating Layer inception_5a/relu_5x5_reduce
I0511 06:34:28.679787  8175 net.cpp:372] inception_5a/relu_5x5_reduce <- inception_5a/5x5_reduce
I0511 06:34:28.679800  8175 net.cpp:323] inception_5a/relu_5x5_reduce -> inception_5a/5x5_reduce (in-place)
I0511 06:34:28.679808  8175 net.cpp:105] Setting up inception_5a/relu_5x5_reduce
I0511 06:34:28.679813  8175 net.cpp:112] Top shape: 32 32 7 7 (50176)
I0511 06:34:28.679819  8175 layer_factory.hpp:74] Creating layer inception_5a/5x5
I0511 06:34:28.679827  8175 net.cpp:76] Creating Layer inception_5a/5x5
I0511 06:34:28.679833  8175 net.cpp:372] inception_5a/5x5 <- inception_5a/5x5_reduce
I0511 06:34:28.679843  8175 net.cpp:334] inception_5a/5x5 -> inception_5a/5x5
I0511 06:34:28.679852  8175 net.cpp:105] Setting up inception_5a/5x5
I0511 06:34:28.680721  8175 net.cpp:112] Top shape: 32 128 7 7 (200704)
I0511 06:34:28.680737  8175 layer_factory.hpp:74] Creating layer inception_5a/relu_5x5
I0511 06:34:28.680747  8175 net.cpp:76] Creating Layer inception_5a/relu_5x5
I0511 06:34:28.680752  8175 net.cpp:372] inception_5a/relu_5x5 <- inception_5a/5x5
I0511 06:34:28.680759  8175 net.cpp:323] inception_5a/relu_5x5 -> inception_5a/5x5 (in-place)
I0511 06:34:28.680768  8175 net.cpp:105] Setting up inception_5a/relu_5x5
I0511 06:34:28.680773  8175 net.cpp:112] Top shape: 32 128 7 7 (200704)
I0511 06:34:28.680778  8175 layer_factory.hpp:74] Creating layer inception_5a/pool
I0511 06:34:28.680788  8175 net.cpp:76] Creating Layer inception_5a/pool
I0511 06:34:28.680794  8175 net.cpp:372] inception_5a/pool <- pool4/3x3_s2_pool4/3x3_s2_0_split_3
I0511 06:34:28.680804  8175 net.cpp:334] inception_5a/pool -> inception_5a/pool
I0511 06:34:28.680832  8175 net.cpp:105] Setting up inception_5a/pool
I0511 06:34:28.680845  8175 net.cpp:112] Top shape: 32 832 7 7 (1304576)
I0511 06:34:28.680850  8175 layer_factory.hpp:74] Creating layer inception_5a/pool_proj
I0511 06:34:28.680860  8175 net.cpp:76] Creating Layer inception_5a/pool_proj
I0511 06:34:28.680866  8175 net.cpp:372] inception_5a/pool_proj <- inception_5a/pool
I0511 06:34:28.680876  8175 net.cpp:334] inception_5a/pool_proj -> inception_5a/pool_proj
I0511 06:34:28.680886  8175 net.cpp:105] Setting up inception_5a/pool_proj
I0511 06:34:28.681788  8175 net.cpp:112] Top shape: 32 128 7 7 (200704)
I0511 06:34:28.681807  8175 layer_factory.hpp:74] Creating layer inception_5a/relu_pool_proj
I0511 06:34:28.681818  8175 net.cpp:76] Creating Layer inception_5a/relu_pool_proj
I0511 06:34:28.681830  8175 net.cpp:372] inception_5a/relu_pool_proj <- inception_5a/pool_proj
I0511 06:34:28.681845  8175 net.cpp:323] inception_5a/relu_pool_proj -> inception_5a/pool_proj (in-place)
I0511 06:34:28.681856  8175 net.cpp:105] Setting up inception_5a/relu_pool_proj
I0511 06:34:28.681862  8175 net.cpp:112] Top shape: 32 128 7 7 (200704)
I0511 06:34:28.681869  8175 layer_factory.hpp:74] Creating layer inception_5a/output
I0511 06:34:28.681882  8175 net.cpp:76] Creating Layer inception_5a/output
I0511 06:34:28.681895  8175 net.cpp:372] inception_5a/output <- inception_5a/1x1
I0511 06:34:28.681907  8175 net.cpp:372] inception_5a/output <- inception_5a/3x3
I0511 06:34:28.681921  8175 net.cpp:372] inception_5a/output <- inception_5a/5x5
I0511 06:34:28.681951  8175 net.cpp:372] inception_5a/output <- inception_5a/pool_proj
I0511 06:34:28.681963  8175 net.cpp:334] inception_5a/output -> inception_5a/output
I0511 06:34:28.681973  8175 net.cpp:105] Setting up inception_5a/output
I0511 06:34:28.681980  8175 net.cpp:112] Top shape: 32 832 7 7 (1304576)
I0511 06:34:28.681987  8175 layer_factory.hpp:74] Creating layer inception_5a/output_inception_5a/output_0_split
I0511 06:34:28.681998  8175 net.cpp:76] Creating Layer inception_5a/output_inception_5a/output_0_split
I0511 06:34:28.682009  8175 net.cpp:372] inception_5a/output_inception_5a/output_0_split <- inception_5a/output
I0511 06:34:28.682024  8175 net.cpp:334] inception_5a/output_inception_5a/output_0_split -> inception_5a/output_inception_5a/output_0_split_0
I0511 06:34:28.682041  8175 net.cpp:334] inception_5a/output_inception_5a/output_0_split -> inception_5a/output_inception_5a/output_0_split_1
I0511 06:34:28.682061  8175 net.cpp:334] inception_5a/output_inception_5a/output_0_split -> inception_5a/output_inception_5a/output_0_split_2
I0511 06:34:28.682080  8175 net.cpp:334] inception_5a/output_inception_5a/output_0_split -> inception_5a/output_inception_5a/output_0_split_3
I0511 06:34:28.682096  8175 net.cpp:105] Setting up inception_5a/output_inception_5a/output_0_split
I0511 06:34:28.682106  8175 net.cpp:112] Top shape: 32 832 7 7 (1304576)
I0511 06:34:28.682112  8175 net.cpp:112] Top shape: 32 832 7 7 (1304576)
I0511 06:34:28.682117  8175 net.cpp:112] Top shape: 32 832 7 7 (1304576)
I0511 06:34:28.682124  8175 net.cpp:112] Top shape: 32 832 7 7 (1304576)
I0511 06:34:28.682133  8175 layer_factory.hpp:74] Creating layer inception_5b/1x1
I0511 06:34:28.682155  8175 net.cpp:76] Creating Layer inception_5b/1x1
I0511 06:34:28.682169  8175 net.cpp:372] inception_5b/1x1 <- inception_5a/output_inception_5a/output_0_split_0
I0511 06:34:28.682191  8175 net.cpp:334] inception_5b/1x1 -> inception_5b/1x1
I0511 06:34:28.682209  8175 net.cpp:105] Setting up inception_5b/1x1
I0511 06:34:28.685055  8175 net.cpp:112] Top shape: 32 384 7 7 (602112)
I0511 06:34:28.685075  8175 layer_factory.hpp:74] Creating layer inception_5b/relu_1x1
I0511 06:34:28.685083  8175 net.cpp:76] Creating Layer inception_5b/relu_1x1
I0511 06:34:28.685091  8175 net.cpp:372] inception_5b/relu_1x1 <- inception_5b/1x1
I0511 06:34:28.685101  8175 net.cpp:323] inception_5b/relu_1x1 -> inception_5b/1x1 (in-place)
I0511 06:34:28.685109  8175 net.cpp:105] Setting up inception_5b/relu_1x1
I0511 06:34:28.685116  8175 net.cpp:112] Top shape: 32 384 7 7 (602112)
I0511 06:34:28.685120  8175 layer_factory.hpp:74] Creating layer inception_5b/3x3_reduce
I0511 06:34:28.685129  8175 net.cpp:76] Creating Layer inception_5b/3x3_reduce
I0511 06:34:28.685135  8175 net.cpp:372] inception_5b/3x3_reduce <- inception_5a/output_inception_5a/output_0_split_1
I0511 06:34:28.685148  8175 net.cpp:334] inception_5b/3x3_reduce -> inception_5b/3x3_reduce
I0511 06:34:28.685158  8175 net.cpp:105] Setting up inception_5b/3x3_reduce
I0511 06:34:28.686621  8175 net.cpp:112] Top shape: 32 192 7 7 (301056)
I0511 06:34:28.686652  8175 layer_factory.hpp:74] Creating layer inception_5b/relu_3x3_reduce
I0511 06:34:28.686671  8175 net.cpp:76] Creating Layer inception_5b/relu_3x3_reduce
I0511 06:34:28.686684  8175 net.cpp:372] inception_5b/relu_3x3_reduce <- inception_5b/3x3_reduce
I0511 06:34:28.686700  8175 net.cpp:323] inception_5b/relu_3x3_reduce -> inception_5b/3x3_reduce (in-place)
I0511 06:34:28.686718  8175 net.cpp:105] Setting up inception_5b/relu_3x3_reduce
I0511 06:34:28.686730  8175 net.cpp:112] Top shape: 32 192 7 7 (301056)
I0511 06:34:28.686741  8175 layer_factory.hpp:74] Creating layer inception_5b/3x3
I0511 06:34:28.686758  8175 net.cpp:76] Creating Layer inception_5b/3x3
I0511 06:34:28.686769  8175 net.cpp:372] inception_5b/3x3 <- inception_5b/3x3_reduce
I0511 06:34:28.686784  8175 net.cpp:334] inception_5b/3x3 -> inception_5b/3x3
I0511 06:34:28.686800  8175 net.cpp:105] Setting up inception_5b/3x3
I0511 06:34:28.692991  8175 net.cpp:112] Top shape: 32 384 7 7 (602112)
I0511 06:34:28.693022  8175 layer_factory.hpp:74] Creating layer inception_5b/relu_3x3
I0511 06:34:28.693032  8175 net.cpp:76] Creating Layer inception_5b/relu_3x3
I0511 06:34:28.693040  8175 net.cpp:372] inception_5b/relu_3x3 <- inception_5b/3x3
I0511 06:34:28.693053  8175 net.cpp:323] inception_5b/relu_3x3 -> inception_5b/3x3 (in-place)
I0511 06:34:28.693063  8175 net.cpp:105] Setting up inception_5b/relu_3x3
I0511 06:34:28.693068  8175 net.cpp:112] Top shape: 32 384 7 7 (602112)
I0511 06:34:28.693073  8175 layer_factory.hpp:74] Creating layer inception_5b/5x5_reduce
I0511 06:34:28.693086  8175 net.cpp:76] Creating Layer inception_5b/5x5_reduce
I0511 06:34:28.693094  8175 net.cpp:372] inception_5b/5x5_reduce <- inception_5a/output_inception_5a/output_0_split_2
I0511 06:34:28.693104  8175 net.cpp:334] inception_5b/5x5_reduce -> inception_5b/5x5_reduce
I0511 06:34:28.693114  8175 net.cpp:105] Setting up inception_5b/5x5_reduce
I0511 06:34:28.693475  8175 net.cpp:112] Top shape: 32 48 7 7 (75264)
I0511 06:34:28.693488  8175 layer_factory.hpp:74] Creating layer inception_5b/relu_5x5_reduce
I0511 06:34:28.693500  8175 net.cpp:76] Creating Layer inception_5b/relu_5x5_reduce
I0511 06:34:28.693506  8175 net.cpp:372] inception_5b/relu_5x5_reduce <- inception_5b/5x5_reduce
I0511 06:34:28.693514  8175 net.cpp:323] inception_5b/relu_5x5_reduce -> inception_5b/5x5_reduce (in-place)
I0511 06:34:28.693522  8175 net.cpp:105] Setting up inception_5b/relu_5x5_reduce
I0511 06:34:28.693527  8175 net.cpp:112] Top shape: 32 48 7 7 (75264)
I0511 06:34:28.693533  8175 layer_factory.hpp:74] Creating layer inception_5b/5x5
I0511 06:34:28.693543  8175 net.cpp:76] Creating Layer inception_5b/5x5
I0511 06:34:28.693550  8175 net.cpp:372] inception_5b/5x5 <- inception_5b/5x5_reduce
I0511 06:34:28.693558  8175 net.cpp:334] inception_5b/5x5 -> inception_5b/5x5
I0511 06:34:28.693567  8175 net.cpp:105] Setting up inception_5b/5x5
I0511 06:34:28.694852  8175 net.cpp:112] Top shape: 32 128 7 7 (200704)
I0511 06:34:28.694867  8175 layer_factory.hpp:74] Creating layer inception_5b/relu_5x5
I0511 06:34:28.694875  8175 net.cpp:76] Creating Layer inception_5b/relu_5x5
I0511 06:34:28.694883  8175 net.cpp:372] inception_5b/relu_5x5 <- inception_5b/5x5
I0511 06:34:28.694891  8175 net.cpp:323] inception_5b/relu_5x5 -> inception_5b/5x5 (in-place)
I0511 06:34:28.694900  8175 net.cpp:105] Setting up inception_5b/relu_5x5
I0511 06:34:28.694905  8175 net.cpp:112] Top shape: 32 128 7 7 (200704)
I0511 06:34:28.694911  8175 layer_factory.hpp:74] Creating layer inception_5b/pool
I0511 06:34:28.694921  8175 net.cpp:76] Creating Layer inception_5b/pool
I0511 06:34:28.694926  8175 net.cpp:372] inception_5b/pool <- inception_5a/output_inception_5a/output_0_split_3
I0511 06:34:28.694934  8175 net.cpp:334] inception_5b/pool -> inception_5b/pool
I0511 06:34:28.694943  8175 net.cpp:105] Setting up inception_5b/pool
I0511 06:34:28.694952  8175 net.cpp:112] Top shape: 32 832 7 7 (1304576)
I0511 06:34:28.694957  8175 layer_factory.hpp:74] Creating layer inception_5b/pool_proj
I0511 06:34:28.694965  8175 net.cpp:76] Creating Layer inception_5b/pool_proj
I0511 06:34:28.694972  8175 net.cpp:372] inception_5b/pool_proj <- inception_5b/pool
I0511 06:34:28.694982  8175 net.cpp:334] inception_5b/pool_proj -> inception_5b/pool_proj
I0511 06:34:28.694991  8175 net.cpp:105] Setting up inception_5b/pool_proj
I0511 06:34:28.695894  8175 net.cpp:112] Top shape: 32 128 7 7 (200704)
I0511 06:34:28.695909  8175 layer_factory.hpp:74] Creating layer inception_5b/relu_pool_proj
I0511 06:34:28.695917  8175 net.cpp:76] Creating Layer inception_5b/relu_pool_proj
I0511 06:34:28.695924  8175 net.cpp:372] inception_5b/relu_pool_proj <- inception_5b/pool_proj
I0511 06:34:28.695933  8175 net.cpp:323] inception_5b/relu_pool_proj -> inception_5b/pool_proj (in-place)
I0511 06:34:28.695942  8175 net.cpp:105] Setting up inception_5b/relu_pool_proj
I0511 06:34:28.695948  8175 net.cpp:112] Top shape: 32 128 7 7 (200704)
I0511 06:34:28.695953  8175 layer_factory.hpp:74] Creating layer inception_5b/output
I0511 06:34:28.695991  8175 net.cpp:76] Creating Layer inception_5b/output
I0511 06:34:28.695997  8175 net.cpp:372] inception_5b/output <- inception_5b/1x1
I0511 06:34:28.696004  8175 net.cpp:372] inception_5b/output <- inception_5b/3x3
I0511 06:34:28.696012  8175 net.cpp:372] inception_5b/output <- inception_5b/5x5
I0511 06:34:28.696018  8175 net.cpp:372] inception_5b/output <- inception_5b/pool_proj
I0511 06:34:28.696027  8175 net.cpp:334] inception_5b/output -> inception_5b/output
I0511 06:34:28.696034  8175 net.cpp:105] Setting up inception_5b/output
I0511 06:34:28.696041  8175 net.cpp:112] Top shape: 32 1024 7 7 (1605632)
I0511 06:34:28.696048  8175 layer_factory.hpp:74] Creating layer pool5/7x7_s1
I0511 06:34:28.696060  8175 net.cpp:76] Creating Layer pool5/7x7_s1
I0511 06:34:28.696074  8175 net.cpp:372] pool5/7x7_s1 <- inception_5b/output
I0511 06:34:28.696089  8175 net.cpp:334] pool5/7x7_s1 -> pool5/7x7_s1
I0511 06:34:28.696105  8175 net.cpp:105] Setting up pool5/7x7_s1
I0511 06:34:28.696113  8175 net.cpp:112] Top shape: 32 1024 1 1 (32768)
I0511 06:34:28.696120  8175 layer_factory.hpp:74] Creating layer pool5/drop_7x7_s1
I0511 06:34:28.696128  8175 net.cpp:76] Creating Layer pool5/drop_7x7_s1
I0511 06:34:28.696135  8175 net.cpp:372] pool5/drop_7x7_s1 <- pool5/7x7_s1
I0511 06:34:28.696141  8175 net.cpp:323] pool5/drop_7x7_s1 -> pool5/7x7_s1 (in-place)
I0511 06:34:28.696151  8175 net.cpp:105] Setting up pool5/drop_7x7_s1
I0511 06:34:28.696161  8175 net.cpp:112] Top shape: 32 1024 1 1 (32768)
I0511 06:34:28.696171  8175 layer_factory.hpp:74] Creating layer loss3/classifier
I0511 06:34:28.696188  8175 net.cpp:76] Creating Layer loss3/classifier
I0511 06:34:28.696200  8175 net.cpp:372] loss3/classifier <- pool5/7x7_s1
I0511 06:34:28.696215  8175 net.cpp:334] loss3/classifier -> loss3/classifier
I0511 06:34:28.696254  8175 net.cpp:105] Setting up loss3/classifier
I0511 06:34:28.696305  8175 net.cpp:112] Top shape: 32 2 1 1 (64)
I0511 06:34:28.696319  8175 layer_factory.hpp:74] Creating layer loss3/classifier_loss3/classifier_0_split
I0511 06:34:28.696328  8175 net.cpp:76] Creating Layer loss3/classifier_loss3/classifier_0_split
I0511 06:34:28.696334  8175 net.cpp:372] loss3/classifier_loss3/classifier_0_split <- loss3/classifier
I0511 06:34:28.696342  8175 net.cpp:334] loss3/classifier_loss3/classifier_0_split -> loss3/classifier_loss3/classifier_0_split_0
I0511 06:34:28.696352  8175 net.cpp:334] loss3/classifier_loss3/classifier_0_split -> loss3/classifier_loss3/classifier_0_split_1
I0511 06:34:28.696362  8175 net.cpp:105] Setting up loss3/classifier_loss3/classifier_0_split
I0511 06:34:28.696367  8175 net.cpp:112] Top shape: 32 2 1 1 (64)
I0511 06:34:28.696393  8175 net.cpp:112] Top shape: 32 2 1 1 (64)
I0511 06:34:28.696399  8175 layer_factory.hpp:74] Creating layer loss3/loss3
I0511 06:34:28.696411  8175 net.cpp:76] Creating Layer loss3/loss3
I0511 06:34:28.696418  8175 net.cpp:372] loss3/loss3 <- loss3/classifier_loss3/classifier_0_split_0
I0511 06:34:28.696424  8175 net.cpp:372] loss3/loss3 <- label_data_1_split_4
I0511 06:34:28.696432  8175 net.cpp:334] loss3/loss3 -> loss3/loss3
I0511 06:34:28.696441  8175 net.cpp:105] Setting up loss3/loss3
I0511 06:34:28.696449  8175 layer_factory.hpp:74] Creating layer loss3/loss3
I0511 06:34:28.696465  8175 net.cpp:112] Top shape: 1 1 1 1 (1)
I0511 06:34:28.696470  8175 net.cpp:118]     with loss weight 1
I0511 06:34:28.696487  8175 layer_factory.hpp:74] Creating layer loss3/top-1
I0511 06:34:28.696496  8175 net.cpp:76] Creating Layer loss3/top-1
I0511 06:34:28.696501  8175 net.cpp:372] loss3/top-1 <- loss3/classifier_loss3/classifier_0_split_1
I0511 06:34:28.696511  8175 net.cpp:372] loss3/top-1 <- label_data_1_split_5
I0511 06:34:28.696518  8175 net.cpp:334] loss3/top-1 -> loss3/top-1
I0511 06:34:28.696527  8175 net.cpp:105] Setting up loss3/top-1
I0511 06:34:28.696532  8175 net.cpp:112] Top shape: 1 1 1 1 (1)
I0511 06:34:28.696538  8175 net.cpp:165] loss3/top-1 does not need backward computation.
I0511 06:34:28.696543  8175 net.cpp:163] loss3/loss3 needs backward computation.
I0511 06:34:28.696563  8175 net.cpp:163] loss3/classifier_loss3/classifier_0_split needs backward computation.
I0511 06:34:28.696569  8175 net.cpp:163] loss3/classifier needs backward computation.
I0511 06:34:28.696574  8175 net.cpp:163] pool5/drop_7x7_s1 needs backward computation.
…
