…
I0509 22:09:23.558955 19228 caffe.cpp:134] Use GPU with device ID 0
I0509 22:09:23.945724 19228 net.cpp:253] The NetState phase (1) differed from the phase (0) specified by a rule in layer data
I0509 22:09:23.947224 19228 net.cpp:42] Initializing net from parameters: 
name: "GoogleNet"
state {
  phase: TEST
}
layer {
  name: "data"
  type: "Data"
  top: "data"
  top: "label"
  include {
    phase: TEST
  }
  transform_param {
    mirror: false
    crop_size: 224
    mean_value: 104
    mean_value: 117
    mean_value: 123
  }
  data_param {
    source: "val_lmdb"
    batch_size: 32
    backend: LMDB
  }
}
layer {
  name: "conv1/7x7_s2"
  type: "Convolution"
  bottom: "data"
  top: "conv1/7x7_s2"
  param {
    lr_mult: 1
    decay_mult: 1
  }
  param {
    lr_mult: 2
    decay_mult: 0
  }
  convolution_param {
    num_output: 64
    pad: 3
    kernel_size: 7
    stride: 2
    weight_filler {
      type: "xavier"
      std: 0.1
    }
    bias_filler {
      type: "constant"
      value: 0.2
    }
  }
}
layer {
  name: "conv1/relu_7x7"
  type: "ReLU"
  bottom: "conv1/7x7_s2"
  top: "conv1/7x7_s2"
}
layer {
  name: "pool1/3x3_s2"
  type: "Pooling"
  bottom: "conv1/7x7_s2"
  top: "pool1/3x3_s2"
  pooling_param {
    pool: MAX
    kernel_size: 3
    stride: 2
  }
}
layer {
  name: "pool1/norm1"
  type: "LRN"
  bottom: "pool1/3x3_s2"
  top: "pool1/norm1"
  lrn_param {
    local_size: 5
    alpha: 0.0001
    beta: 0.75
  }
}
layer {
  name: "conv2/3x3_reduce"
  type: "Convolution"
  bottom: "pool1/norm1"
  top: "conv2/3x3_reduce"
  param {
    lr_mult: 1
    decay_mult: 1
  }
  param {
    lr_mult: 2
    decay_mult: 0
  }
  convolution_param {
    num_output: 64
    kernel_size: 1
    weight_filler {
      type: "xavier"
      std: 0.1
    }
    bias_filler {
      type: "constant"
      value: 0.2
    }
  }
}
layer {
  name: "conv2/relu_3x3_reduce"
  type: "ReLU"
  bottom: "conv2/3x3_reduce"
  top: "conv2/3x3_reduce"
}
layer {
  name: "conv2/3x3"
  type: "Convolution"
  bottom: "conv2/3x3_reduce"
  top: "conv2/3x3"
  param {
    lr_mult: 1
    decay_mult: 1
  }
  param {
    lr_mult: 2
    decay_mult: 0
  }
  convolution_param {
    num_output: 192
    pad: 1
    kernel_size: 3
    weight_filler {
      type: "xavier"
      std: 0.03
    }
    bias_filler {
      type: "constant"
      value: 0.2
    }
  }
}
layer {
  name: "conv2/relu_3x3"
  type: "ReLU"
  bottom: "conv2/3x3"
  top: "conv2/3x3"
}
layer {
  name: "conv2/norm2"
  type: "LRN"
  bottom: "conv2/3x3"
  top: "conv2/norm2"
  lrn_param {
    local_size: 5
    alpha: 0.0001
    beta: 0.75
  }
}
layer {
  name: "pool2/3x3_s2"
  type: "Pooling"
  bottom: "conv2/norm2"
  top: "pool2/3x3_s2"
  pooling_param {
    pool: MAX
    kernel_size: 3
    stride: 2
  }
}
layer {
  name: "inception_3a/1x1"
  type: "Convolution"
  bottom: "pool2/3x3_s2"
  top: "inception_3a/1x1"
  param {
    lr_mult: 1
    decay_mult: 1
  }
  param {
    lr_mult: 2
    decay_mult: 0
  }
  convolution_param {
    num_output: 64
    kernel_size: 1
    weight_filler {
      type: "xavier"
      std: 0.03
    }
    bias_filler {
      type: "constant"
      value: 0.2
    }
  }
}
layer {
  name: "inception_3a/relu_1x1"
  type: "ReLU"
  bottom: "inception_3a/1x1"
  top: "inception_3a/1x1"
}
layer {
  name: "inception_3a/3x3_reduce"
  type: "Convolution"
  bottom: "pool2/3x3_s2"
  top: "inception_3a/3x3_reduce"
  param {
    lr_mult: 1
    decay_mult: 1
  }
  param {
    lr_mult: 2
    decay_mult: 0
  }
  convolution_param {
    num_output: 96
    kernel_size: 1
    weight_filler {
      type: "xavier"
      std: 0.09
    }
    bias_filler {
      type: "constant"
      value: 0.2
    }
  }
}
layer {
  name: "inception_3a/relu_3x3_reduce"
  type: "ReLU"
  bottom: "inception_3a/3x3_reduce"
  top: "inception_3a/3x3_reduce"
}
layer {
  name: "inception_3a/3x3"
  type: "Convolution"
  bottom: "inception_3a/3x3_reduce"
  top: "inception_3a/3x3"
  param {
    lr_mult: 1
    decay_mult: 1
  }
  param {
    lr_mult: 2
    decay_mult: 0
  }
  convolution_param {
    num_output: 128
    pad: 1
    kernel_size: 3
    weight_filler {
      type: "xavier"
      std: 0.03
    }
    bias_filler {
      type: "constant"
      value: 0.2
    }
  }
}
layer {
  name: "inception_3a/relu_3x3"
  type: "ReLU"
  bottom: "inception_3a/3x3"
  top: "inception_3a/3x3"
}
layer {
  name: "inception_3a/5x5_reduce"
  type: "Convolution"
  bottom: "pool2/3x3_s2"
  top: "inception_3a/5x5_reduce"
  param {
    lr_mult: 1
    decay_mult: 1
  }
  param {
    lr_mult: 2
    decay_mult: 0
  }
  convolution_param {
    num_output: 16
    kernel_size: 1
    weight_filler {
      type: "xavier"
      std: 0.2
    }
    bias_filler {
      type: "constant"
      value: 0.2
    }
  }
}
layer {
  name: "inception_3a/relu_5x5_reduce"
  type: "ReLU"
  bottom: "inception_3a/5x5_reduce"
  top: "inception_3a/5x5_reduce"
}
layer {
  name: "inception_3a/5x5"
  type: "Convolution"
  bottom: "inception_3a/5x5_reduce"
  top: "inception_3a/5x5"
  param {
    lr_mult: 1
    decay_mult: 1
  }
  param {
    lr_mult: 2
    decay_mult: 0
  }
  convolution_param {
    num_output: 32
    pad: 2
    kernel_size: 5
    weight_filler {
      type: "xavier"
      std: 0.03
    }
    bias_filler {
      type: "constant"
      value: 0.2
    }
  }
}
layer {
  name: "inception_3a/relu_5x5"
  type: "ReLU"
  bottom: "inception_3a/5x5"
  top: "inception_3a/5x5"
}
layer {
  name: "inception_3a/pool"
  type: "Pooling"
  bottom: "pool2/3x3_s2"
  top: "inception_3a/pool"
  pooling_param {
    pool: MAX
    kernel_size: 3
    stride: 1
    pad: 1
  }
}
layer {
  name: "inception_3a/pool_proj"
  type: "Convolution"
  bottom: "inception_3a/pool"
  top: "inception_3a/pool_proj"
  param {
    lr_mult: 1
    decay_mult: 1
  }
  param {
    lr_mult: 2
    decay_mult: 0
  }
  convolution_param {
    num_output: 32
    kernel_size: 1
    weight_filler {
      type: "xavier"
      std: 0.1
    }
    bias_filler {
      type: "constant"
      value: 0.2
    }
  }
}
layer {
  name: "inception_3a/relu_pool_proj"
  type: "ReLU"
  bottom: "inception_3a/pool_proj"
  top: "inception_3a/pool_proj"
}
layer {
  name: "inception_3a/output"
  type: "Concat"
  bottom: "inception_3a/1x1"
  bottom: "inception_3a/3x3"
  bottom: "inception_3a/5x5"
  bottom: "inception_3a/pool_proj"
  top: "inception_3a/output"
}
layer {
  name: "inception_3b/1x1"
  type: "Convolution"
  bottom: "inception_3a/output"
  top: "inception_3b/1x1"
  param {
    lr_mult: 1
    decay_mult: 1
  }
  param {
    lr_mult: 2
    decay_mult: 0
  }
  convolution_param {
    num_output: 128
    kernel_size: 1
    weight_filler {
      type: "xavier"
      std: 0.03
    }
    bias_filler {
      type: "constant"
      value: 0.2
    }
  }
}
layer {
  name: "inception_3b/relu_1x1"
  type: "ReLU"
  bottom: "inception_3b/1x1"
  top: "inception_3b/1x1"
}
layer {
  name: "inception_3b/3x3_reduce"
  type: "Convolution"
  bottom: "inception_3a/output"
  top: "inception_3b/3x3_reduce"
  param {
    lr_mult: 1
    decay_mult: 1
  }
  param {
    lr_mult: 2
    decay_mult: 0
  }
  convolution_param {
    num_output: 128
    kernel_size: 1
    weight_filler {
      type: "xavier"
      std: 0.09
    }
    bias_filler {
      type: "constant"
      value: 0.2
    }
  }
}
layer {
  name: "inception_3b/relu_3x3_reduce"
  type: "ReLU"
  bottom: "inception_3b/3x3_reduce"
  top: "inception_3b/3x3_reduce"
}
layer {
  name: "inception_3b/3x3"
  type: "Convolution"
  bottom: "inception_3b/3x3_reduce"
  top: "inception_3b/3x3"
  param {
    lr_mult: 1
    decay_mult: 1
  }
  param {
    lr_mult: 2
    decay_mult: 0
  }
  convolution_param {
    num_output: 192
    pad: 1
    kernel_size: 3
    weight_filler {
      type: "xavier"
      std: 0.03
    }
    bias_filler {
      type: "constant"
      value: 0.2
    }
  }
}
layer {
  name: "inception_3b/relu_3x3"
  type: "ReLU"
  bottom: "inception_3b/3x3"
  top: "inception_3b/3x3"
}
layer {
  name: "inception_3b/5x5_reduce"
  type: "Convolution"
  bottom: "inception_3a/output"
  top: "inception_3b/5x5_reduce"
  param {
    lr_mult: 1
    decay_mult: 1
  }
  param {
    lr_mult: 2
    decay_mult: 0
  }
  convolution_param {
    num_output: 32
    kernel_size: 1
    weight_filler {
      type: "xavier"
      std: 0.2
    }
    bias_filler {
      type: "constant"
      value: 0.2
    }
  }
}
layer {
  name: "inception_3b/relu_5x5_reduce"
  type: "ReLU"
  bottom: "inception_3b/5x5_reduce"
  top: "inception_3b/5x5_reduce"
}
layer {
  name: "inception_3b/5x5"
  type: "Convolution"
  bottom: "inception_3b/5x5_reduce"
  top: "inception_3b/5x5"
  param {
    lr_mult: 1
    decay_mult: 1
  }
  param {
    lr_mult: 2
    decay_mult: 0
  }
  convolution_param {
    num_output: 96
    pad: 2
    kernel_size: 5
    weight_filler {
      type: "xavier"
      std: 0.03
    }
    bias_filler {
      type: "constant"
      value: 0.2
    }
  }
}
layer {
  name: "inception_3b/relu_5x5"
  type: "ReLU"
  bottom: "inception_3b/5x5"
  top: "inception_3b/5x5"
}
layer {
  name: "inception_3b/pool"
  type: "Pooling"
  bottom: "inception_3a/output"
  top: "inception_3b/pool"
  pooling_param {
    pool: MAX
    kernel_size: 3
    stride: 1
    pad: 1
  }
}
layer {
  name: "inception_3b/pool_proj"
  type: "Convolution"
  bottom: "inception_3b/pool"
  top: "inception_3b/pool_proj"
  param {
    lr_mult: 1
    decay_mult: 1
  }
  param {
    lr_mult: 2
    decay_mult: 0
  }
  convolution_param {
    num_output: 64
    kernel_size: 1
    weight_filler {
      type: "xavier"
      std: 0.1
    }
    bias_filler {
      type: "constant"
      value: 0.2
    }
  }
}
layer {
  name: "inception_3b/relu_pool_proj"
  type: "ReLU"
  bottom: "inception_3b/pool_proj"
  top: "inception_3b/pool_proj"
}
layer {
  name: "inception_3b/output"
  type: "Concat"
  bottom: "inception_3b/1x1"
  bottom: "inception_3b/3x3"
  bottom: "inception_3b/5x5"
  bottom: "inception_3b/pool_proj"
  top: "inception_3b/output"
}
layer {
  name: "pool3/3x3_s2"
  type: "Pooling"
  bottom: "inception_3b/output"
  top: "pool3/3x3_s2"
  pooling_param {
    pool: MAX
    kernel_size: 3
    stride: 2
  }
}
layer {
  name: "inception_4a/1x1"
  type: "Convolution"
  bottom: "pool3/3x3_s2"
  top: "inception_4a/1x1"
  param {
    lr_mult: 1
    decay_mult: 1
  }
  param {
    lr_mult: 2
    decay_mult: 0
  }
  convolution_param {
    num_output: 192
    kernel_size: 1
    weight_filler {
      type: "xavier"
      std: 0.03
    }
    bias_filler {
      type: "constant"
      value: 0.2
    }
  }
}
layer {
  name: "inception_4a/relu_1x1"
  type: "ReLU"
  bottom: "inception_4a/1x1"
  top: "inception_4a/1x1"
}
layer {
  name: "inception_4a/3x3_reduce"
  type: "Convolution"
  bottom: "pool3/3x3_s2"
  top: "inception_4a/3x3_reduce"
  param {
    lr_mult: 1
    decay_mult: 1
  }
  param {
    lr_mult: 2
    decay_mult: 0
  }
  convolution_param {
    num_output: 96
    kernel_size: 1
    weight_filler {
      type: "xavier"
      std: 0.09
    }
    bias_filler {
      type: "constant"
      value: 0.2
    }
  }
}
layer {
  name: "inception_4a/relu_3x3_reduce"
  type: "ReLU"
  bottom: "inception_4a/3x3_reduce"
  top: "inception_4a/3x3_reduce"
}
layer {
  name: "inception_4a/3x3"
  type: "Convolution"
  bottom: "inception_4a/3x3_reduce"
  top: "inception_4a/3x3"
  param {
    lr_mult: 1
    decay_mult: 1
  }
  param {
    lr_mult: 2
    decay_mult: 0
  }
  convolution_param {
    num_output: 208
    pad: 1
    kernel_size: 3
    weight_filler {
      type: "xavier"
      std: 0.03
    }
    bias_filler {
      type: "constant"
      value: 0.2
    }
  }
}
layer {
  name: "inception_4a/relu_3x3"
  type: "ReLU"
  bottom: "inception_4a/3x3"
  top: "inception_4a/3x3"
}
layer {
  name: "inception_4a/5x5_reduce"
  type: "Convolution"
  bottom: "pool3/3x3_s2"
  top: "inception_4a/5x5_reduce"
  param {
    lr_mult: 1
    decay_mult: 1
  }
  param {
    lr_mult: 2
    decay_mult: 0
  }
  convolution_param {
    num_output: 16
    kernel_size: 1
    weight_filler {
      type: "xavier"
      std: 0.2
    }
    bias_filler {
      type: "constant"
      value: 0.2
    }
  }
}
layer {
  name: "inception_4a/relu_5x5_reduce"
  type: "ReLU"
  bottom: "inception_4a/5x5_reduce"
  top: "inception_4a/5x5_reduce"
}
layer {
  name: "inception_4a/5x5"
  type: "Convolution"
  bottom: "inception_4a/5x5_reduce"
  top: "inception_4a/5x5"
  param {
    lr_mult: 1
    decay_mult: 1
  }
  param {
    lr_mult: 2
    decay_mult: 0
  }
  convolution_param {
    num_output: 48
    pad: 2
    kernel_size: 5
    weight_filler {
      type: "xavier"
      std: 0.03
    }
    bias_filler {
      type: "constant"
      value: 0.2
    }
  }
}
layer {
  name: "inception_4a/relu_5x5"
  type: "ReLU"
  bottom: "inception_4a/5x5"
  top: "inception_4a/5x5"
}
layer {
  name: "inception_4a/pool"
  type: "Pooling"
  bottom: "pool3/3x3_s2"
  top: "inception_4a/pool"
  pooling_param {
    pool: MAX
    kernel_size: 3
    stride: 1
    pad: 1
  }
}
layer {
  name: "inception_4a/pool_proj"
  type: "Convolution"
  bottom: "inception_4a/pool"
  top: "inception_4a/pool_proj"
  param {
    lr_mult: 1
    decay_mult: 1
  }
  param {
    lr_mult: 2
    decay_mult: 0
  }
  convolution_param {
    num_output: 64
    kernel_size: 1
    weight_filler {
      type: "xavier"
      std: 0.1
    }
    bias_filler {
      type: "constant"
      value: 0.2
    }
  }
}
layer {
  name: "inception_4a/relu_pool_proj"
  type: "ReLU"
  bottom: "inception_4a/pool_proj"
  top: "inception_4a/pool_proj"
}
layer {
  name: "inception_4a/output"
  type: "Concat"
  bottom: "inception_4a/1x1"
  bottom: "inception_4a/3x3"
  bottom: "inception_4a/5x5"
  bottom: "inception_4a/pool_proj"
  top: "inception_4a/output"
}
layer {
  name: "loss1/ave_pool"
  type: "Pooling"
  bottom: "inception_4a/output"
  top: "loss1/ave_pool"
  pooling_param {
    pool: AVE
    kernel_size: 5
    stride: 3
  }
}
layer {
  name: "loss1/conv"
  type: "Convolution"
  bottom: "loss1/ave_pool"
  top: "loss1/conv"
  param {
    lr_mult: 1
    decay_mult: 1
  }
  param {
    lr_mult: 2
    decay_mult: 0
  }
  convolution_param {
    num_output: 128
    kernel_size: 1
    weight_filler {
      type: "xavier"
      std: 0.08
    }
    bias_filler {
      type: "constant"
      value: 0.2
    }
  }
}
layer {
  name: "loss1/relu_conv"
  type: "ReLU"
  bottom: "loss1/conv"
  top: "loss1/conv"
}
layer {
  name: "loss1/fc"
  type: "InnerProduct"
  bottom: "loss1/conv"
  top: "loss1/fc"
  param {
    lr_mult: 1
    decay_mult: 1
  }
  param {
    lr_mult: 2
    decay_mult: 0
  }
  inner_product_param {
    num_output: 1024
    weight_filler {
      type: "xavier"
      std: 0.02
    }
    bias_filler {
      type: "constant"
      value: 0.2
    }
  }
}
layer {
  name: "loss1/relu_fc"
  type: "ReLU"
  bottom: "loss1/fc"
  top: "loss1/fc"
}
layer {
  name: "loss1/drop_fc"
  type: "Dropout"
  bottom: "loss1/fc"
  top: "loss1/fc"
  dropout_param {
    dropout_ratio: 0.7
  }
}
layer {
  name: "loss1/classifier"
  type: "InnerProduct"
  bottom: "loss1/fc"
  top: "loss1/classifier"
  param {
    lr_mult: 1
    decay_mult: 1
  }
  param {
    lr_mult: 2
    decay_mult: 0
  }
  inner_product_param {
    num_output: 2
    weight_filler {
      type: "xavier"
      std: 0.0009765625
    }
    bias_filler {
      type: "constant"
      value: 0
    }
  }
}
layer {
  name: "loss1/loss"
  type: "SoftmaxWithLoss"
  bottom: "loss1/classifier"
  bottom: "label"
  top: "loss1/loss1"
  loss_weight: 0.3
}
layer {
  name: "loss1/top-1"
  type: "Accuracy"
  bottom: "loss1/classifier"
  bottom: "label"
  top: "loss1/top-1"
  include {
    phase: TEST
  }
}
layer {
  name: "inception_4b/1x1"
  type: "Convolution"
  bottom: "inception_4a/output"
  top: "inception_4b/1x1"
  param {
    lr_mult: 1
    decay_mult: 1
  }
  param {
    lr_mult: 2
    decay_mult: 0
  }
  convolution_param {
    num_output: 160
    kernel_size: 1
    weight_filler {
      type: "xavier"
      std: 0.03
    }
    bias_filler {
      type: "constant"
      value: 0.2
    }
  }
}
layer {
  name: "inception_4b/relu_1x1"
  type: "ReLU"
  bottom: "inception_4b/1x1"
  top: "inception_4b/1x1"
}
layer {
  name: "inception_4b/3x3_reduce"
  type: "Convolution"
  bottom: "inception_4a/output"
  top: "inception_4b/3x3_reduce"
  param {
    lr_mult: 1
    decay_mult: 1
  }
  param {
    lr_mult: 2
    decay_mult: 0
  }
  convolution_param {
    num_output: 112
    kernel_size: 1
    weight_filler {
      type: "xavier"
      std: 0.09
    }
    bias_filler {
      type: "constant"
      value: 0.2
    }
  }
}
layer {
  name: "inception_4b/relu_3x3_reduce"
  type: "ReLU"
  bottom: "inception_4b/3x3_reduce"
  top: "inception_4b/3x3_reduce"
}
layer {
  name: "inception_4b/3x3"
  type: "Convolution"
  bottom: "inception_4b/3x3_reduce"
  top: "inception_4b/3x3"
  param {
    lr_mult: 1
    decay_mult: 1
  }
  param {
    lr_mult: 2
    decay_mult: 0
  }
  convolution_param {
    num_output: 224
    pad: 1
    kernel_size: 3
    weight_filler {
      type: "xavier"
      std: 0.03
    }
    bias_filler {
      type: "constant"
      value: 0.2
    }
  }
}
layer {
  name: "inception_4b/relu_3x3"
  type: "ReLU"
  bottom: "inception_4b/3x3"
  top: "inception_4b/3x3"
}
layer {
  name: "inception_4b/5x5_reduce"
  type: "Convolution"
  bottom: "inception_4a/output"
  top: "inception_4b/5x5_reduce"
  param {
    lr_mult: 1
    decay_mult: 1
  }
  param {
    lr_mult: 2
    decay_mult: 0
  }
  convolution_param {
    num_output: 24
    kernel_size: 1
    weight_filler {
      type: "xavier"
      std: 0.2
    }
    bias_filler {
      type: "constant"
      value: 0.2
    }
  }
}
layer {
  name: "inception_4b/relu_5x5_reduce"
  type: "ReLU"
  bottom: "inception_4b/5x5_reduce"
  top: "inception_4b/5x5_reduce"
}
layer {
  name: "inception_4b/5x5"
  type: "Convolution"
  bottom: "inception_4b/5x5_reduce"
  top: "inception_4b/5x5"
  param {
    lr_mult: 1
    decay_mult: 1
  }
  param {
    lr_mult: 2
    decay_mult: 0
  }
  convolution_param {
    num_output: 64
    pad: 2
    kernel_size: 5
    weight_filler {
      type: "xavier"
      std: 0.03
    }
    bias_filler {
      type: "constant"
      value: 0.2
    }
  }
}
layer {
  name: "inception_4b/relu_5x5"
  type: "ReLU"
  bottom: "inception_4b/5x5"
  top: "inception_4b/5x5"
}
layer {
  name: "inception_4b/pool"
  type: "Pooling"
  bottom: "inception_4a/output"
  top: "inception_4b/pool"
  pooling_param {
    pool: MAX
    kernel_size: 3
    stride: 1
    pad: 1
  }
}
layer {
  name: "inception_4b/pool_proj"
  type: "Convolution"
  bottom: "inception_4b/pool"
  top: "inception_4b/pool_proj"
  param {
    lr_mult: 1
    decay_mult: 1
  }
  param {
    lr_mult: 2
    decay_mult: 0
  }
  convolution_param {
    num_output: 64
    kernel_size: 1
    weight_filler {
      type: "xavier"
      std: 0.1
    }
    bias_filler {
      type: "constant"
      value: 0.2
    }
  }
}
layer {
  name: "inception_4b/relu_pool_proj"
  type: "ReLU"
  bottom: "inception_4b/pool_proj"
  top: "inception_4b/pool_proj"
}
layer {
  name: "inception_4b/output"
  type: "Concat"
  bottom: "inception_4b/1x1"
  bottom: "inception_4b/3x3"
  bottom: "inception_4b/5x5"
  bottom: "inception_4b/pool_proj"
  top: "inception_4b/output"
}
layer {
  name: "inception_4c/1x1"
  type: "Convolution"
  bottom: "inception_4b/output"
  top: "inception_4c/1x1"
  param {
    lr_mult: 1
    decay_mult: 1
  }
  param {
    lr_mult: 2
    decay_mult: 0
  }
  convolution_param {
    num_output: 128
    kernel_size: 1
    weight_filler {
      type: "xavier"
      std: 0.03
    }
    bias_filler {
      type: "constant"
      value: 0.2
    }
  }
}
layer {
  name: "inception_4c/relu_1x1"
  type: "ReLU"
  bottom: "inception_4c/1x1"
  top: "inception_4c/1x1"
}
layer {
  name: "inception_4c/3x3_reduce"
  type: "Convolution"
  bottom: "inception_4b/output"
  top: "inception_4c/3x3_reduce"
  param {
    lr_mult: 1
    decay_mult: 1
  }
  param {
    lr_mult: 2
    decay_mult: 0
  }
  convolution_param {
    num_output: 128
    kernel_size: 1
    weight_filler {
      type: "xavier"
      std: 0.09
    }
    bias_filler {
      type: "constant"
      value: 0.2
    }
  }
}
layer {
  name: "inception_4c/relu_3x3_reduce"
  type: "ReLU"
  bottom: "inception_4c/3x3_reduce"
  top: "inception_4c/3x3_reduce"
}
layer {
  name: "inception_4c/3x3"
  type: "Convolution"
  bottom: "inception_4c/3x3_reduce"
  top: "inception_4c/3x3"
  param {
    lr_mult: 1
    decay_mult: 1
  }
  param {
    lr_mult: 2
    decay_mult: 0
  }
  convolution_param {
    num_output: 256
    pad: 1
    kernel_size: 3
    weight_filler {
      type: "xavier"
      std: 0.03
    }
    bias_filler {
      type: "constant"
      value: 0.2
    }
  }
}
layer {
  name: "inception_4c/relu_3x3"
  type: "ReLU"
  bottom: "inception_4c/3x3"
  top: "inception_4c/3x3"
}
layer {
  name: "inception_4c/5x5_reduce"
  type: "Convolution"
  bottom: "inception_4b/output"
  top: "inception_4c/5x5_reduce"
  param {
    lr_mult: 1
    decay_mult: 1
  }
  param {
    lr_mult: 2
    decay_mult: 0
  }
  convolution_param {
    num_output: 24
    kernel_size: 1
    weight_filler {
      type: "xavier"
      std: 0.2
    }
    bias_filler {
      type: "constant"
      value: 0.2
    }
  }
}
layer {
  name: "inception_4c/relu_5x5_reduce"
  type: "ReLU"
  bottom: "inception_4c/5x5_reduce"
  top: "inception_4c/5x5_reduce"
}
layer {
  name: "inception_4c/5x5"
  type: "Convolution"
  bottom: "inception_4c/5x5_reduce"
  top: "inception_4c/5x5"
  param {
    lr_mult: 1
    decay_mult: 1
  }
  param {
    lr_mult: 2
    decay_mult: 0
  }
  convolution_param {
    num_output: 64
    pad: 2
    kernel_size: 5
    weight_filler {
      type: "xavier"
      std: 0.03
    }
    bias_filler {
      type: "constant"
      value: 0.2
    }
  }
}
layer {
  name: "inception_4c/relu_5x5"
  type: "ReLU"
  bottom: "inception_4c/5x5"
  top: "inception_4c/5x5"
}
layer {
  name: "inception_4c/pool"
  type: "Pooling"
  bottom: "inception_4b/output"
  top: "inception_4c/pool"
  pooling_param {
    pool: MAX
    kernel_size: 3
    stride: 1
    pad: 1
  }
}
layer {
  name: "inception_4c/pool_proj"
  type: "Convolution"
  bottom: "inception_4c/pool"
  top: "inception_4c/pool_proj"
  param {
    lr_mult: 1
    decay_mult: 1
  }
  param {
    lr_mult: 2
    decay_mult: 0
  }
  convolution_param {
    num_output: 64
    kernel_size: 1
    weight_filler {
      type: "xavier"
      std: 0.1
    }
    bias_filler {
      type: "constant"
      value: 0.2
    }
  }
}
layer {
  name: "inception_4c/relu_pool_proj"
  type: "ReLU"
  bottom: "inception_4c/pool_proj"
  top: "inception_4c/pool_proj"
}
layer {
  name: "inception_4c/output"
  type: "Concat"
  bottom: "inception_4c/1x1"
  bottom: "inception_4c/3x3"
  bottom: "inception_4c/5x5"
  bottom: "inception_4c/pool_proj"
  top: "inception_4c/output"
}
layer {
  name: "inception_4d/1x1"
  type: "Convolution"
  bottom: "inception_4c/output"
  top: "inception_4d/1x1"
  param {
    lr_mult: 1
    decay_mult: 1
  }
  param {
    lr_mult: 2
    decay_mult: 0
  }
  convolution_param {
    num_output: 112
    kernel_size: 1
    weight_filler {
      type: "xavier"
      std: 0.03
    }
    bias_filler {
      type: "constant"
      value: 0.2
    }
  }
}
layer {
  name: "inception_4d/relu_1x1"
  type: "ReLU"
  bottom: "inception_4d/1x1"
  top: "inception_4d/1x1"
}
layer {
  name: "inception_4d/3x3_reduce"
  type: "Convolution"
  bottom: "inception_4c/output"
  top: "inception_4d/3x3_reduce"
  param {
    lr_mult: 1
    decay_mult: 1
  }
  param {
    lr_mult: 2
    decay_mult: 0
  }
  convolution_param {
    num_output: 144
    kernel_size: 1
    weight_filler {
      type: "xavier"
      std: 0.09
    }
    bias_filler {
      type: "constant"
      value: 0.2
    }
  }
}
layer {
  name: "inception_4d/relu_3x3_reduce"
  type: "ReLU"
  bottom: "inception_4d/3x3_reduce"
  top: "inception_4d/3x3_reduce"
}
layer {
  name: "inception_4d/3x3"
  type: "Convolution"
  bottom: "inception_4d/3x3_reduce"
  top: "inception_4d/3x3"
  param {
    lr_mult: 1
    decay_mult: 1
  }
  param {
    lr_mult: 2
    decay_mult: 0
  }
  convolution_param {
    num_output: 288
    pad: 1
    kernel_size: 3
    weight_filler {
      type: "xavier"
      std: 0.03
    }
    bias_filler {
      type: "constant"
      value: 0.2
    }
  }
}
layer {
  name: "inception_4d/relu_3x3"
  type: "ReLU"
  bottom: "inception_4d/3x3"
  top: "inception_4d/3x3"
}
layer {
  name: "inception_4d/5x5_reduce"
  type: "Convolution"
  bottom: "inception_4c/output"
  top: "inception_4d/5x5_reduce"
  param {
    lr_mult: 1
    decay_mult: 1
  }
  param {
    lr_mult: 2
    decay_mult: 0
  }
  convolution_param {
    num_output: 32
    kernel_size: 1
    weight_filler {
      type: "xavier"
      std: 0.2
    }
    bias_filler {
      type: "constant"
      value: 0.2
    }
  }
}
layer {
  name: "inception_4d/relu_5x5_reduce"
  type: "ReLU"
  bottom: "inception_4d/5x5_reduce"
  top: "inception_4d/5x5_reduce"
}
layer {
  name: "inception_4d/5x5"
  type: "Convolution"
  bottom: "inception_4d/5x5_reduce"
  top: "inception_4d/5x5"
  param {
    lr_mult: 1
    decay_mult: 1
  }
  param {
    lr_mult: 2
    decay_mult: 0
  }
  convolution_param {
    num_output: 64
    pad: 2
    kernel_size: 5
    weight_filler {
      type: "xavier"
      std: 0.03
    }
    bias_filler {
      type: "constant"
      value: 0.2
    }
  }
}
layer {
  name: "inception_4d/relu_5x5"
  type: "ReLU"
  bottom: "inception_4d/5x5"
  top: "inception_4d/5x5"
}
layer {
  name: "inception_4d/pool"
  type: "Pooling"
  bottom: "inception_4c/output"
  top: "inception_4d/pool"
  pooling_param {
    pool: MAX
    kernel_size: 3
    stride: 1
    pad: 1
  }
}
layer {
  name: "inception_4d/pool_proj"
  type: "Convolution"
  bottom: "inception_4d/pool"
  top: "inception_4d/pool_proj"
  param {
    lr_mult: 1
    decay_mult: 1
  }
  param {
    lr_mult: 2
    decay_mult: 0
  }
  convolution_param {
    num_output: 64
    kernel_size: 1
    weight_filler {
      type: "xavier"
      std: 0.1
    }
    bias_filler {
      type: "constant"
      value: 0.2
    }
  }
}
layer {
  name: "inception_4d/relu_pool_proj"
  type: "ReLU"
  bottom: "inception_4d/pool_proj"
  top: "inception_4d/pool_proj"
}
layer {
  name: "inception_4d/output"
  type: "Concat"
  bottom: "inception_4d/1x1"
  bottom: "inception_4d/3x3"
  bottom: "inception_4d/5x5"
  bottom: "inception_4d/pool_proj"
  top: "inception_4d/output"
}
layer {
  name: "loss2/ave_pool"
  type: "Pooling"
  bottom: "inception_4d/output"
  top: "loss2/ave_pool"
  pooling_param {
    pool: AVE
    kernel_size: 5
    stride: 3
  }
}
layer {
  name: "loss2/conv"
  type: "Convolution"
  bottom: "loss2/ave_pool"
  top: "loss2/conv"
  param {
    lr_mult: 1
    decay_mult: 1
  }
  param {
    lr_mult: 2
    decay_mult: 0
  }
  convolution_param {
    num_output: 128
    kernel_size: 1
    weight_filler {
      type: "xavier"
      std: 0.08
    }
    bias_filler {
      type: "constant"
      value: 0.2
    }
  }
}
layer {
  name: "loss2/relu_conv"
  type: "ReLU"
  bottom: "loss2/conv"
  top: "loss2/conv"
}
layer {
  name: "loss2/fc"
  type: "InnerProduct"
  bottom: "loss2/conv"
  top: "loss2/fc"
  param {
    lr_mult: 1
    decay_mult: 1
  }
  param {
    lr_mult: 2
    decay_mult: 0
  }
  inner_product_param {
    num_output: 1024
    weight_filler {
      type: "xavier"
      std: 0.02
    }
    bias_filler {
      type: "constant"
      value: 0.2
    }
  }
}
layer {
  name: "loss2/relu_fc"
  type: "ReLU"
  bottom: "loss2/fc"
  top: "loss2/fc"
}
layer {
  name: "loss2/drop_fc"
  type: "Dropout"
  bottom: "loss2/fc"
  top: "loss2/fc"
  dropout_param {
    dropout_ratio: 0.7
  }
}
layer {
  name: "loss2/classifier"
  type: "InnerProduct"
  bottom: "loss2/fc"
  top: "loss2/classifier"
  param {
    lr_mult: 1
    decay_mult: 1
  }
  param {
    lr_mult: 2
    decay_mult: 0
  }
  inner_product_param {
    num_output: 2
    weight_filler {
      type: "xavier"
      std: 0.0009765625
    }
    bias_filler {
      type: "constant"
      value: 0
    }
  }
}
layer {
  name: "loss2/loss"
  type: "SoftmaxWithLoss"
  bottom: "loss2/classifier"
  bottom: "label"
  top: "loss2/loss1"
  loss_weight: 0.3
}
layer {
  name: "loss2/top-1"
  type: "Accuracy"
  bottom: "loss2/classifier"
  bottom: "label"
  top: "loss2/top-1"
  include {
    phase: TEST
  }
}
layer {
  name: "inception_4e/1x1"
  type: "Convolution"
  bottom: "inception_4d/output"
  top: "inception_4e/1x1"
  param {
    lr_mult: 1
    decay_mult: 1
  }
  param {
    lr_mult: 2
    decay_mult: 0
  }
  convolution_param {
    num_output: 256
    kernel_size: 1
    weight_filler {
      type: "xavier"
      std: 0.03
    }
    bias_filler {
      type: "constant"
      value: 0.2
    }
  }
}
layer {
  name: "inception_4e/relu_1x1"
  type: "ReLU"
  bottom: "inception_4e/1x1"
  top: "inception_4e/1x1"
}
layer {
  name: "inception_4e/3x3_reduce"
  type: "Convolution"
  bottom: "inception_4d/output"
  top: "inception_4e/3x3_reduce"
  param {
    lr_mult: 1
    decay_mult: 1
  }
  param {
    lr_mult: 2
    decay_mult: 0
  }
  convolution_param {
    num_output: 160
    kernel_size: 1
    weight_filler {
      type: "xavier"
      std: 0.09
    }
    bias_filler {
      type: "constant"
      value: 0.2
    }
  }
}
layer {
  name: "inception_4e/relu_3x3_reduce"
  type: "ReLU"
  bottom: "inception_4e/3x3_reduce"
  top: "inception_4e/3x3_reduce"
}
layer {
  name: "inception_4e/3x3"
  type: "Convolution"
  bottom: "inception_4e/3x3_reduce"
  top: "inception_4e/3x3"
  param {
    lr_mult: 1
    decay_mult: 1
  }
  param {
    lr_mult: 2
    decay_mult: 0
  }
  convolution_param {
    num_output: 320
    pad: 1
    kernel_size: 3
    weight_filler {
      type: "xavier"
      std: 0.03
    }
    bias_filler {
      type: "constant"
      value: 0.2
    }
  }
}
layer {
  name: "inception_4e/relu_3x3"
  type: "ReLU"
  bottom: "inception_4e/3x3"
  top: "inception_4e/3x3"
}
layer {
  name: "inception_4e/5x5_reduce"
  type: "Convolution"
  bottom: "inception_4d/output"
  top: "inception_4e/5x5_reduce"
  param {
    lr_mult: 1
    decay_mult: 1
  }
  param {
   
I0509 22:09:23.951714 19228 layer_factory.hpp:74] Creating layer data
I0509 22:09:23.951740 19228 net.cpp:76] Creating Layer data
I0509 22:09:23.951751 19228 net.cpp:334] data -> data
I0509 22:09:23.951779 19228 net.cpp:334] data -> label
I0509 22:09:23.951802 19228 net.cpp:105] Setting up data
I0509 22:09:23.951894 19228 db.cpp:34] Opened lmdb val_lmdb
I0509 22:09:23.952179 19228 data_layer.cpp:67] output data size: 32,3,224,224
I0509 22:09:23.958353 19228 net.cpp:112] Top shape: 32 3 224 224 (4816896)
I0509 22:09:23.958369 19228 net.cpp:112] Top shape: 32 1 1 1 (32)
I0509 22:09:23.958379 19228 layer_factory.hpp:74] Creating layer label_data_1_split
I0509 22:09:23.958391 19228 net.cpp:76] Creating Layer label_data_1_split
I0509 22:09:23.958400 19228 net.cpp:372] label_data_1_split <- label
I0509 22:09:23.958456 19228 net.cpp:334] label_data_1_split -> label_data_1_split_0
I0509 22:09:23.958492 19228 net.cpp:334] label_data_1_split -> label_data_1_split_1
I0509 22:09:23.958510 19228 net.cpp:334] label_data_1_split -> label_data_1_split_2
I0509 22:09:23.958531 19228 net.cpp:334] label_data_1_split -> label_data_1_split_3
I0509 22:09:23.958547 19228 net.cpp:334] label_data_1_split -> label_data_1_split_4
I0509 22:09:23.958564 19228 net.cpp:334] label_data_1_split -> label_data_1_split_5
I0509 22:09:23.958580 19228 net.cpp:105] Setting up label_data_1_split
I0509 22:09:23.958596 19228 net.cpp:112] Top shape: 32 1 1 1 (32)
I0509 22:09:23.958607 19228 net.cpp:112] Top shape: 32 1 1 1 (32)
I0509 22:09:23.958616 19228 net.cpp:112] Top shape: 32 1 1 1 (32)
I0509 22:09:23.958626 19228 net.cpp:112] Top shape: 32 1 1 1 (32)
I0509 22:09:23.958634 19228 net.cpp:112] Top shape: 32 1 1 1 (32)
I0509 22:09:23.958643 19228 net.cpp:112] Top shape: 32 1 1 1 (32)
I0509 22:09:23.958653 19228 layer_factory.hpp:74] Creating layer conv1/7x7_s2
I0509 22:09:23.958680 19228 net.cpp:76] Creating Layer conv1/7x7_s2
I0509 22:09:23.958693 19228 net.cpp:372] conv1/7x7_s2 <- data
I0509 22:09:23.958704 19228 net.cpp:334] conv1/7x7_s2 -> conv1/7x7_s2
I0509 22:09:23.958719 19228 net.cpp:105] Setting up conv1/7x7_s2
I0509 22:09:23.959244 19228 net.cpp:112] Top shape: 32 64 112 112 (25690112)
I0509 22:09:23.959264 19228 layer_factory.hpp:74] Creating layer conv1/relu_7x7
I0509 22:09:23.959287 19228 net.cpp:76] Creating Layer conv1/relu_7x7
I0509 22:09:23.959295 19228 net.cpp:372] conv1/relu_7x7 <- conv1/7x7_s2
I0509 22:09:23.959302 19228 net.cpp:323] conv1/relu_7x7 -> conv1/7x7_s2 (in-place)
I0509 22:09:23.959311 19228 net.cpp:105] Setting up conv1/relu_7x7
I0509 22:09:23.959319 19228 net.cpp:112] Top shape: 32 64 112 112 (25690112)
I0509 22:09:23.959326 19228 layer_factory.hpp:74] Creating layer pool1/3x3_s2
I0509 22:09:23.959360 19228 net.cpp:76] Creating Layer pool1/3x3_s2
I0509 22:09:23.959367 19228 net.cpp:372] pool1/3x3_s2 <- conv1/7x7_s2
I0509 22:09:23.959375 19228 net.cpp:334] pool1/3x3_s2 -> pool1/3x3_s2
I0509 22:09:23.959385 19228 net.cpp:105] Setting up pool1/3x3_s2
I0509 22:09:23.959400 19228 net.cpp:112] Top shape: 32 64 56 56 (6422528)
I0509 22:09:23.959408 19228 layer_factory.hpp:74] Creating layer pool1/norm1
I0509 22:09:23.959417 19228 net.cpp:76] Creating Layer pool1/norm1
I0509 22:09:23.959424 19228 net.cpp:372] pool1/norm1 <- pool1/3x3_s2
I0509 22:09:23.959430 19228 net.cpp:334] pool1/norm1 -> pool1/norm1
I0509 22:09:23.959440 19228 net.cpp:105] Setting up pool1/norm1
I0509 22:09:23.959447 19228 net.cpp:112] Top shape: 32 64 56 56 (6422528)
I0509 22:09:23.959452 19228 layer_factory.hpp:74] Creating layer conv2/3x3_reduce
I0509 22:09:23.959463 19228 net.cpp:76] Creating Layer conv2/3x3_reduce
I0509 22:09:23.959470 19228 net.cpp:372] conv2/3x3_reduce <- pool1/norm1
I0509 22:09:23.959478 19228 net.cpp:334] conv2/3x3_reduce -> conv2/3x3_reduce
I0509 22:09:23.959487 19228 net.cpp:105] Setting up conv2/3x3_reduce
I0509 22:09:23.959530 19228 net.cpp:112] Top shape: 32 64 56 56 (6422528)
I0509 22:09:23.959542 19228 layer_factory.hpp:74] Creating layer conv2/relu_3x3_reduce
I0509 22:09:23.959548 19228 net.cpp:76] Creating Layer conv2/relu_3x3_reduce
I0509 22:09:23.959554 19228 net.cpp:372] conv2/relu_3x3_reduce <- conv2/3x3_reduce
I0509 22:09:23.959561 19228 net.cpp:323] conv2/relu_3x3_reduce -> conv2/3x3_reduce (in-place)
I0509 22:09:23.959569 19228 net.cpp:105] Setting up conv2/relu_3x3_reduce
I0509 22:09:23.959574 19228 net.cpp:112] Top shape: 32 64 56 56 (6422528)
I0509 22:09:23.959579 19228 layer_factory.hpp:74] Creating layer conv2/3x3
I0509 22:09:23.959589 19228 net.cpp:76] Creating Layer conv2/3x3
I0509 22:09:23.959594 19228 net.cpp:372] conv2/3x3 <- conv2/3x3_reduce
I0509 22:09:23.959602 19228 net.cpp:334] conv2/3x3 -> conv2/3x3
I0509 22:09:23.959610 19228 net.cpp:105] Setting up conv2/3x3
I0509 22:09:23.960646 19228 net.cpp:112] Top shape: 32 192 56 56 (19267584)
I0509 22:09:23.960667 19228 layer_factory.hpp:74] Creating layer conv2/relu_3x3
I0509 22:09:23.960677 19228 net.cpp:76] Creating Layer conv2/relu_3x3
I0509 22:09:23.960683 19228 net.cpp:372] conv2/relu_3x3 <- conv2/3x3
I0509 22:09:23.960693 19228 net.cpp:323] conv2/relu_3x3 -> conv2/3x3 (in-place)
I0509 22:09:23.960702 19228 net.cpp:105] Setting up conv2/relu_3x3
I0509 22:09:23.960708 19228 net.cpp:112] Top shape: 32 192 56 56 (19267584)
I0509 22:09:23.960714 19228 layer_factory.hpp:74] Creating layer conv2/norm2
I0509 22:09:23.960721 19228 net.cpp:76] Creating Layer conv2/norm2
I0509 22:09:23.960727 19228 net.cpp:372] conv2/norm2 <- conv2/3x3
I0509 22:09:23.960736 19228 net.cpp:334] conv2/norm2 -> conv2/norm2
I0509 22:09:23.960744 19228 net.cpp:105] Setting up conv2/norm2
I0509 22:09:23.960757 19228 net.cpp:112] Top shape: 32 192 56 56 (19267584)
I0509 22:09:23.960764 19228 layer_factory.hpp:74] Creating layer pool2/3x3_s2
I0509 22:09:23.960775 19228 net.cpp:76] Creating Layer pool2/3x3_s2
I0509 22:09:23.960782 19228 net.cpp:372] pool2/3x3_s2 <- conv2/norm2
I0509 22:09:23.960789 19228 net.cpp:334] pool2/3x3_s2 -> pool2/3x3_s2
I0509 22:09:23.960798 19228 net.cpp:105] Setting up pool2/3x3_s2
I0509 22:09:23.960804 19228 net.cpp:112] Top shape: 32 192 28 28 (4816896)
I0509 22:09:23.960809 19228 layer_factory.hpp:74] Creating layer pool2/3x3_s2_pool2/3x3_s2_0_split
I0509 22:09:23.960819 19228 net.cpp:76] Creating Layer pool2/3x3_s2_pool2/3x3_s2_0_split
I0509 22:09:23.960825 19228 net.cpp:372] pool2/3x3_s2_pool2/3x3_s2_0_split <- pool2/3x3_s2
I0509 22:09:23.960832 19228 net.cpp:334] pool2/3x3_s2_pool2/3x3_s2_0_split -> pool2/3x3_s2_pool2/3x3_s2_0_split_0
I0509 22:09:23.960841 19228 net.cpp:334] pool2/3x3_s2_pool2/3x3_s2_0_split -> pool2/3x3_s2_pool2/3x3_s2_0_split_1
I0509 22:09:23.960851 19228 net.cpp:334] pool2/3x3_s2_pool2/3x3_s2_0_split -> pool2/3x3_s2_pool2/3x3_s2_0_split_2
I0509 22:09:23.960880 19228 net.cpp:334] pool2/3x3_s2_pool2/3x3_s2_0_split -> pool2/3x3_s2_pool2/3x3_s2_0_split_3
I0509 22:09:23.960887 19228 net.cpp:105] Setting up pool2/3x3_s2_pool2/3x3_s2_0_split
I0509 22:09:23.960894 19228 net.cpp:112] Top shape: 32 192 28 28 (4816896)
I0509 22:09:23.960906 19228 net.cpp:112] Top shape: 32 192 28 28 (4816896)
I0509 22:09:23.960912 19228 net.cpp:112] Top shape: 32 192 28 28 (4816896)
I0509 22:09:23.960917 19228 net.cpp:112] Top shape: 32 192 28 28 (4816896)
I0509 22:09:23.960923 19228 layer_factory.hpp:74] Creating layer inception_3a/1x1
I0509 22:09:23.960932 19228 net.cpp:76] Creating Layer inception_3a/1x1
I0509 22:09:23.960938 19228 net.cpp:372] inception_3a/1x1 <- pool2/3x3_s2_pool2/3x3_s2_0_split_0
I0509 22:09:23.960952 19228 net.cpp:334] inception_3a/1x1 -> inception_3a/1x1
I0509 22:09:23.960960 19228 net.cpp:105] Setting up inception_3a/1x1
I0509 22:09:23.961251 19228 net.cpp:112] Top shape: 32 64 28 28 (1605632)
I0509 22:09:23.961293 19228 layer_factory.hpp:74] Creating layer inception_3a/relu_1x1
I0509 22:09:23.961311 19228 net.cpp:76] Creating Layer inception_3a/relu_1x1
I0509 22:09:23.961323 19228 net.cpp:372] inception_3a/relu_1x1 <- inception_3a/1x1
I0509 22:09:23.961336 19228 net.cpp:323] inception_3a/relu_1x1 -> inception_3a/1x1 (in-place)
I0509 22:09:23.961351 19228 net.cpp:105] Setting up inception_3a/relu_1x1
I0509 22:09:23.961361 19228 net.cpp:112] Top shape: 32 64 28 28 (1605632)
I0509 22:09:23.961372 19228 layer_factory.hpp:74] Creating layer inception_3a/3x3_reduce
I0509 22:09:23.961395 19228 net.cpp:76] Creating Layer inception_3a/3x3_reduce
I0509 22:09:23.961407 19228 net.cpp:372] inception_3a/3x3_reduce <- pool2/3x3_s2_pool2/3x3_s2_0_split_1
I0509 22:09:23.961429 19228 net.cpp:334] inception_3a/3x3_reduce -> inception_3a/3x3_reduce
I0509 22:09:23.961447 19228 net.cpp:105] Setting up inception_3a/3x3_reduce
I0509 22:09:23.961714 19228 net.cpp:112] Top shape: 32 96 28 28 (2408448)
I0509 22:09:23.961733 19228 layer_factory.hpp:74] Creating layer inception_3a/relu_3x3_reduce
I0509 22:09:23.961743 19228 net.cpp:76] Creating Layer inception_3a/relu_3x3_reduce
I0509 22:09:23.961750 19228 net.cpp:372] inception_3a/relu_3x3_reduce <- inception_3a/3x3_reduce
I0509 22:09:23.961757 19228 net.cpp:323] inception_3a/relu_3x3_reduce -> inception_3a/3x3_reduce (in-place)
I0509 22:09:23.961766 19228 net.cpp:105] Setting up inception_3a/relu_3x3_reduce
I0509 22:09:23.961771 19228 net.cpp:112] Top shape: 32 96 28 28 (2408448)
I0509 22:09:23.961776 19228 layer_factory.hpp:74] Creating layer inception_3a/3x3
I0509 22:09:23.961787 19228 net.cpp:76] Creating Layer inception_3a/3x3
I0509 22:09:23.961794 19228 net.cpp:372] inception_3a/3x3 <- inception_3a/3x3_reduce
I0509 22:09:23.961804 19228 net.cpp:334] inception_3a/3x3 -> inception_3a/3x3
I0509 22:09:23.961813 19228 net.cpp:105] Setting up inception_3a/3x3
I0509 22:09:23.963311 19228 net.cpp:112] Top shape: 32 128 28 28 (3211264)
I0509 22:09:23.963340 19228 layer_factory.hpp:74] Creating layer inception_3a/relu_3x3
I0509 22:09:23.963353 19228 net.cpp:76] Creating Layer inception_3a/relu_3x3
I0509 22:09:23.963364 19228 net.cpp:372] inception_3a/relu_3x3 <- inception_3a/3x3
I0509 22:09:23.963377 19228 net.cpp:323] inception_3a/relu_3x3 -> inception_3a/3x3 (in-place)
I0509 22:09:23.963392 19228 net.cpp:105] Setting up inception_3a/relu_3x3
I0509 22:09:23.963402 19228 net.cpp:112] Top shape: 32 128 28 28 (3211264)
I0509 22:09:23.963412 19228 layer_factory.hpp:74] Creating layer inception_3a/5x5_reduce
I0509 22:09:23.963433 19228 net.cpp:76] Creating Layer inception_3a/5x5_reduce
I0509 22:09:23.963444 19228 net.cpp:372] inception_3a/5x5_reduce <- pool2/3x3_s2_pool2/3x3_s2_0_split_2
I0509 22:09:23.963459 19228 net.cpp:334] inception_3a/5x5_reduce -> inception_3a/5x5_reduce
I0509 22:09:23.963474 19228 net.cpp:105] Setting up inception_3a/5x5_reduce
I0509 22:09:23.963541 19228 net.cpp:112] Top shape: 32 16 28 28 (401408)
I0509 22:09:23.963557 19228 layer_factory.hpp:74] Creating layer inception_3a/relu_5x5_reduce
I0509 22:09:23.963573 19228 net.cpp:76] Creating Layer inception_3a/relu_5x5_reduce
I0509 22:09:23.963605 19228 net.cpp:372] inception_3a/relu_5x5_reduce <- inception_3a/5x5_reduce
I0509 22:09:23.963619 19228 net.cpp:323] inception_3a/relu_5x5_reduce -> inception_3a/5x5_reduce (in-place)
I0509 22:09:23.963634 19228 net.cpp:105] Setting up inception_3a/relu_5x5_reduce
I0509 22:09:23.963642 19228 net.cpp:112] Top shape: 32 16 28 28 (401408)
I0509 22:09:23.963652 19228 layer_factory.hpp:74] Creating layer inception_3a/5x5
I0509 22:09:23.963666 19228 net.cpp:76] Creating Layer inception_3a/5x5
I0509 22:09:23.963676 19228 net.cpp:372] inception_3a/5x5 <- inception_3a/5x5_reduce
I0509 22:09:23.963701 19228 net.cpp:334] inception_3a/5x5 -> inception_3a/5x5
I0509 22:09:23.963718 19228 net.cpp:105] Setting up inception_3a/5x5
I0509 22:09:23.963910 19228 net.cpp:112] Top shape: 32 32 28 28 (802816)
I0509 22:09:23.963929 19228 layer_factory.hpp:74] Creating layer inception_3a/relu_5x5
I0509 22:09:23.963939 19228 net.cpp:76] Creating Layer inception_3a/relu_5x5
I0509 22:09:23.963945 19228 net.cpp:372] inception_3a/relu_5x5 <- inception_3a/5x5
I0509 22:09:23.963953 19228 net.cpp:323] inception_3a/relu_5x5 -> inception_3a/5x5 (in-place)
I0509 22:09:23.963961 19228 net.cpp:105] Setting up inception_3a/relu_5x5
I0509 22:09:23.963968 19228 net.cpp:112] Top shape: 32 32 28 28 (802816)
I0509 22:09:23.963978 19228 layer_factory.hpp:74] Creating layer inception_3a/pool
I0509 22:09:23.963989 19228 net.cpp:76] Creating Layer inception_3a/pool
I0509 22:09:23.963994 19228 net.cpp:372] inception_3a/pool <- pool2/3x3_s2_pool2/3x3_s2_0_split_3
I0509 22:09:23.964002 19228 net.cpp:334] inception_3a/pool -> inception_3a/pool
I0509 22:09:23.964011 19228 net.cpp:105] Setting up inception_3a/pool
I0509 22:09:23.964018 19228 net.cpp:112] Top shape: 32 192 28 28 (4816896)
I0509 22:09:23.964025 19228 layer_factory.hpp:74] Creating layer inception_3a/pool_proj
I0509 22:09:23.964035 19228 net.cpp:76] Creating Layer inception_3a/pool_proj
I0509 22:09:23.964041 19228 net.cpp:372] inception_3a/pool_proj <- inception_3a/pool
I0509 22:09:23.964049 19228 net.cpp:334] inception_3a/pool_proj -> inception_3a/pool_proj
I0509 22:09:23.964058 19228 net.cpp:105] Setting up inception_3a/pool_proj
I0509 22:09:23.964126 19228 net.cpp:112] Top shape: 32 32 28 28 (802816)
I0509 22:09:23.964140 19228 layer_factory.hpp:74] Creating layer inception_3a/relu_pool_proj
I0509 22:09:23.964151 19228 net.cpp:76] Creating Layer inception_3a/relu_pool_proj
I0509 22:09:23.964157 19228 net.cpp:372] inception_3a/relu_pool_proj <- inception_3a/pool_proj
I0509 22:09:23.964165 19228 net.cpp:323] inception_3a/relu_pool_proj -> inception_3a/pool_proj (in-place)
I0509 22:09:23.964174 19228 net.cpp:105] Setting up inception_3a/relu_pool_proj
I0509 22:09:23.964179 19228 net.cpp:112] Top shape: 32 32 28 28 (802816)
I0509 22:09:23.964184 19228 layer_factory.hpp:74] Creating layer inception_3a/output
I0509 22:09:23.964195 19228 net.cpp:76] Creating Layer inception_3a/output
I0509 22:09:23.964200 19228 net.cpp:372] inception_3a/output <- inception_3a/1x1
I0509 22:09:23.964206 19228 net.cpp:372] inception_3a/output <- inception_3a/3x3
I0509 22:09:23.964212 19228 net.cpp:372] inception_3a/output <- inception_3a/5x5
I0509 22:09:23.964218 19228 net.cpp:372] inception_3a/output <- inception_3a/pool_proj
I0509 22:09:23.964227 19228 net.cpp:334] inception_3a/output -> inception_3a/output
I0509 22:09:23.964236 19228 net.cpp:105] Setting up inception_3a/output
I0509 22:09:23.964247 19228 net.cpp:112] Top shape: 32 256 28 28 (6422528)
I0509 22:09:23.964253 19228 layer_factory.hpp:74] Creating layer inception_3a/output_inception_3a/output_0_split
I0509 22:09:23.964262 19228 net.cpp:76] Creating Layer inception_3a/output_inception_3a/output_0_split
I0509 22:09:23.964267 19228 net.cpp:372] inception_3a/output_inception_3a/output_0_split <- inception_3a/output
I0509 22:09:23.964289 19228 net.cpp:334] inception_3a/output_inception_3a/output_0_split -> inception_3a/output_inception_3a/output_0_split_0
I0509 22:09:23.964299 19228 net.cpp:334] inception_3a/output_inception_3a/output_0_split -> inception_3a/output_inception_3a/output_0_split_1
I0509 22:09:23.964325 19228 net.cpp:334] inception_3a/output_inception_3a/output_0_split -> inception_3a/output_inception_3a/output_0_split_2
I0509 22:09:23.964340 19228 net.cpp:334] inception_3a/output_inception_3a/output_0_split -> inception_3a/output_inception_3a/output_0_split_3
I0509 22:09:23.964349 19228 net.cpp:105] Setting up inception_3a/output_inception_3a/output_0_split
I0509 22:09:23.964356 19228 net.cpp:112] Top shape: 32 256 28 28 (6422528)
I0509 22:09:23.964361 19228 net.cpp:112] Top shape: 32 256 28 28 (6422528)
I0509 22:09:23.964366 19228 net.cpp:112] Top shape: 32 256 28 28 (6422528)
I0509 22:09:23.964371 19228 net.cpp:112] Top shape: 32 256 28 28 (6422528)
I0509 22:09:23.964376 19228 layer_factory.hpp:74] Creating layer inception_3b/1x1
I0509 22:09:23.964385 19228 net.cpp:76] Creating Layer inception_3b/1x1
I0509 22:09:23.964393 19228 net.cpp:372] inception_3b/1x1 <- inception_3a/output_inception_3a/output_0_split_0
I0509 22:09:23.964402 19228 net.cpp:334] inception_3b/1x1 -> inception_3b/1x1
I0509 22:09:23.964411 19228 net.cpp:105] Setting up inception_3b/1x1
I0509 22:09:23.964758 19228 net.cpp:112] Top shape: 32 128 28 28 (3211264)
I0509 22:09:23.964776 19228 layer_factory.hpp:74] Creating layer inception_3b/relu_1x1
I0509 22:09:23.964784 19228 net.cpp:76] Creating Layer inception_3b/relu_1x1
I0509 22:09:23.964790 19228 net.cpp:372] inception_3b/relu_1x1 <- inception_3b/1x1
I0509 22:09:23.964800 19228 net.cpp:323] inception_3b/relu_1x1 -> inception_3b/1x1 (in-place)
I0509 22:09:23.964808 19228 net.cpp:105] Setting up inception_3b/relu_1x1
I0509 22:09:23.964814 19228 net.cpp:112] Top shape: 32 128 28 28 (3211264)
I0509 22:09:23.964819 19228 layer_factory.hpp:74] Creating layer inception_3b/3x3_reduce
I0509 22:09:23.964828 19228 net.cpp:76] Creating Layer inception_3b/3x3_reduce
I0509 22:09:23.964833 19228 net.cpp:372] inception_3b/3x3_reduce <- inception_3a/output_inception_3a/output_0_split_1
I0509 22:09:23.964844 19228 net.cpp:334] inception_3b/3x3_reduce -> inception_3b/3x3_reduce
I0509 22:09:23.964856 19228 net.cpp:105] Setting up inception_3b/3x3_reduce
I0509 22:09:23.965173 19228 net.cpp:112] Top shape: 32 128 28 28 (3211264)
I0509 22:09:23.965188 19228 layer_factory.hpp:74] Creating layer inception_3b/relu_3x3_reduce
I0509 22:09:23.965195 19228 net.cpp:76] Creating Layer inception_3b/relu_3x3_reduce
I0509 22:09:23.965201 19228 net.cpp:372] inception_3b/relu_3x3_reduce <- inception_3b/3x3_reduce
I0509 22:09:23.965211 19228 net.cpp:323] inception_3b/relu_3x3_reduce -> inception_3b/3x3_reduce (in-place)
I0509 22:09:23.965219 19228 net.cpp:105] Setting up inception_3b/relu_3x3_reduce
I0509 22:09:23.965225 19228 net.cpp:112] Top shape: 32 128 28 28 (3211264)
I0509 22:09:23.965230 19228 layer_factory.hpp:74] Creating layer inception_3b/3x3
I0509 22:09:23.965243 19228 net.cpp:76] Creating Layer inception_3b/3x3
I0509 22:09:23.965250 19228 net.cpp:372] inception_3b/3x3 <- inception_3b/3x3_reduce
I0509 22:09:23.965258 19228 net.cpp:334] inception_3b/3x3 -> inception_3b/3x3
I0509 22:09:23.965266 19228 net.cpp:105] Setting up inception_3b/3x3
I0509 22:09:23.967162 19228 net.cpp:112] Top shape: 32 192 28 28 (4816896)
I0509 22:09:23.967181 19228 layer_factory.hpp:74] Creating layer inception_3b/relu_3x3
I0509 22:09:23.967192 19228 net.cpp:76] Creating Layer inception_3b/relu_3x3
I0509 22:09:23.967198 19228 net.cpp:372] inception_3b/relu_3x3 <- inception_3b/3x3
I0509 22:09:23.967206 19228 net.cpp:323] inception_3b/relu_3x3 -> inception_3b/3x3 (in-place)
I0509 22:09:23.967214 19228 net.cpp:105] Setting up inception_3b/relu_3x3
I0509 22:09:23.967219 19228 net.cpp:112] Top shape: 32 192 28 28 (4816896)
I0509 22:09:23.967226 19228 layer_factory.hpp:74] Creating layer inception_3b/5x5_reduce
I0509 22:09:23.967236 19228 net.cpp:76] Creating Layer inception_3b/5x5_reduce
I0509 22:09:23.967242 19228 net.cpp:372] inception_3b/5x5_reduce <- inception_3a/output_inception_3a/output_0_split_2
I0509 22:09:23.967249 19228 net.cpp:334] inception_3b/5x5_reduce -> inception_3b/5x5_reduce
I0509 22:09:23.967289 19228 net.cpp:105] Setting up inception_3b/5x5_reduce
I0509 22:09:23.967375 19228 net.cpp:112] Top shape: 32 32 28 28 (802816)
I0509 22:09:23.967386 19228 layer_factory.hpp:74] Creating layer inception_3b/relu_5x5_reduce
I0509 22:09:23.967393 19228 net.cpp:76] Creating Layer inception_3b/relu_5x5_reduce
I0509 22:09:23.967399 19228 net.cpp:372] inception_3b/relu_5x5_reduce <- inception_3b/5x5_reduce
I0509 22:09:23.967417 19228 net.cpp:323] inception_3b/relu_5x5_reduce -> inception_3b/5x5_reduce (in-place)
I0509 22:09:23.967428 19228 net.cpp:105] Setting up inception_3b/relu_5x5_reduce
I0509 22:09:23.967434 19228 net.cpp:112] Top shape: 32 32 28 28 (802816)
I0509 22:09:23.967440 19228 layer_factory.hpp:74] Creating layer inception_3b/5x5
I0509 22:09:23.967448 19228 net.cpp:76] Creating Layer inception_3b/5x5
I0509 22:09:23.967454 19228 net.cpp:372] inception_3b/5x5 <- inception_3b/5x5_reduce
I0509 22:09:23.967465 19228 net.cpp:334] inception_3b/5x5 -> inception_3b/5x5
I0509 22:09:23.967474 19228 net.cpp:105] Setting up inception_3b/5x5
I0509 22:09:23.968142 19228 net.cpp:112] Top shape: 32 96 28 28 (2408448)
I0509 22:09:23.968155 19228 layer_factory.hpp:74] Creating layer inception_3b/relu_5x5
I0509 22:09:23.968164 19228 net.cpp:76] Creating Layer inception_3b/relu_5x5
I0509 22:09:23.968170 19228 net.cpp:372] inception_3b/relu_5x5 <- inception_3b/5x5
I0509 22:09:23.968178 19228 net.cpp:323] inception_3b/relu_5x5 -> inception_3b/5x5 (in-place)
I0509 22:09:23.968184 19228 net.cpp:105] Setting up inception_3b/relu_5x5
I0509 22:09:23.968190 19228 net.cpp:112] Top shape: 32 96 28 28 (2408448)
I0509 22:09:23.968195 19228 layer_factory.hpp:74] Creating layer inception_3b/pool
I0509 22:09:23.968212 19228 net.cpp:76] Creating Layer inception_3b/pool
I0509 22:09:23.968220 19228 net.cpp:372] inception_3b/pool <- inception_3a/output_inception_3a/output_0_split_3
I0509 22:09:23.968230 19228 net.cpp:334] inception_3b/pool -> inception_3b/pool
I0509 22:09:23.968237 19228 net.cpp:105] Setting up inception_3b/pool
I0509 22:09:23.968245 19228 net.cpp:112] Top shape: 32 256 28 28 (6422528)
I0509 22:09:23.968251 19228 layer_factory.hpp:74] Creating layer inception_3b/pool_proj
I0509 22:09:23.968262 19228 net.cpp:76] Creating Layer inception_3b/pool_proj
I0509 22:09:23.968268 19228 net.cpp:372] inception_3b/pool_proj <- inception_3b/pool
I0509 22:09:23.968299 19228 net.cpp:334] inception_3b/pool_proj -> inception_3b/pool_proj
I0509 22:09:23.968317 19228 net.cpp:105] Setting up inception_3b/pool_proj
I0509 22:09:23.968477 19228 net.cpp:112] Top shape: 32 64 28 28 (1605632)
I0509 22:09:23.968492 19228 layer_factory.hpp:74] Creating layer inception_3b/relu_pool_proj
I0509 22:09:23.968499 19228 net.cpp:76] Creating Layer inception_3b/relu_pool_proj
I0509 22:09:23.968505 19228 net.cpp:372] inception_3b/relu_pool_proj <- inception_3b/pool_proj
I0509 22:09:23.968515 19228 net.cpp:323] inception_3b/relu_pool_proj -> inception_3b/pool_proj (in-place)
I0509 22:09:23.968523 19228 net.cpp:105] Setting up inception_3b/relu_pool_proj
I0509 22:09:23.968528 19228 net.cpp:112] Top shape: 32 64 28 28 (1605632)
I0509 22:09:23.968534 19228 layer_factory.hpp:74] Creating layer inception_3b/output
I0509 22:09:23.968541 19228 net.cpp:76] Creating Layer inception_3b/output
I0509 22:09:23.968550 19228 net.cpp:372] inception_3b/output <- inception_3b/1x1
I0509 22:09:23.968557 19228 net.cpp:372] inception_3b/output <- inception_3b/3x3
I0509 22:09:23.968564 19228 net.cpp:372] inception_3b/output <- inception_3b/5x5
I0509 22:09:23.968569 19228 net.cpp:372] inception_3b/output <- inception_3b/pool_proj
I0509 22:09:23.968580 19228 net.cpp:334] inception_3b/output -> inception_3b/output
I0509 22:09:23.968587 19228 net.cpp:105] Setting up inception_3b/output
I0509 22:09:23.968593 19228 net.cpp:112] Top shape: 32 480 28 28 (12042240)
I0509 22:09:23.968598 19228 layer_factory.hpp:74] Creating layer pool3/3x3_s2
I0509 22:09:23.968606 19228 net.cpp:76] Creating Layer pool3/3x3_s2
I0509 22:09:23.968611 19228 net.cpp:372] pool3/3x3_s2 <- inception_3b/output
I0509 22:09:23.968634 19228 net.cpp:334] pool3/3x3_s2 -> pool3/3x3_s2
I0509 22:09:23.968643 19228 net.cpp:105] Setting up pool3/3x3_s2
I0509 22:09:23.968650 19228 net.cpp:112] Top shape: 32 480 14 14 (3010560)
I0509 22:09:23.968657 19228 layer_factory.hpp:74] Creating layer pool3/3x3_s2_pool3/3x3_s2_0_split
I0509 22:09:23.968665 19228 net.cpp:76] Creating Layer pool3/3x3_s2_pool3/3x3_s2_0_split
I0509 22:09:23.968672 19228 net.cpp:372] pool3/3x3_s2_pool3/3x3_s2_0_split <- pool3/3x3_s2
I0509 22:09:23.968679 19228 net.cpp:334] pool3/3x3_s2_pool3/3x3_s2_0_split -> pool3/3x3_s2_pool3/3x3_s2_0_split_0
I0509 22:09:23.968688 19228 net.cpp:334] pool3/3x3_s2_pool3/3x3_s2_0_split -> pool3/3x3_s2_pool3/3x3_s2_0_split_1
I0509 22:09:23.968698 19228 net.cpp:334] pool3/3x3_s2_pool3/3x3_s2_0_split -> pool3/3x3_s2_pool3/3x3_s2_0_split_2
I0509 22:09:23.968705 19228 net.cpp:334] pool3/3x3_s2_pool3/3x3_s2_0_split -> pool3/3x3_s2_pool3/3x3_s2_0_split_3
I0509 22:09:23.968713 19228 net.cpp:105] Setting up pool3/3x3_s2_pool3/3x3_s2_0_split
I0509 22:09:23.968719 19228 net.cpp:112] Top shape: 32 480 14 14 (3010560)
I0509 22:09:23.968724 19228 net.cpp:112] Top shape: 32 480 14 14 (3010560)
I0509 22:09:23.968729 19228 net.cpp:112] Top shape: 32 480 14 14 (3010560)
I0509 22:09:23.968734 19228 net.cpp:112] Top shape: 32 480 14 14 (3010560)
I0509 22:09:23.968739 19228 layer_factory.hpp:74] Creating layer inception_4a/1x1
I0509 22:09:23.968750 19228 net.cpp:76] Creating Layer inception_4a/1x1
I0509 22:09:23.968756 19228 net.cpp:372] inception_4a/1x1 <- pool3/3x3_s2_pool3/3x3_s2_0_split_0
I0509 22:09:23.968766 19228 net.cpp:334] inception_4a/1x1 -> inception_4a/1x1
I0509 22:09:23.968775 19228 net.cpp:105] Setting up inception_4a/1x1
I0509 22:09:23.969573 19228 net.cpp:112] Top shape: 32 192 14 14 (1204224)
I0509 22:09:23.969588 19228 layer_factory.hpp:74] Creating layer inception_4a/relu_1x1
I0509 22:09:23.969595 19228 net.cpp:76] Creating Layer inception_4a/relu_1x1
I0509 22:09:23.969621 19228 net.cpp:372] inception_4a/relu_1x1 <- inception_4a/1x1
I0509 22:09:23.969630 19228 net.cpp:323] inception_4a/relu_1x1 -> inception_4a/1x1 (in-place)
I0509 22:09:23.969638 19228 net.cpp:105] Setting up inception_4a/relu_1x1
I0509 22:09:23.969645 19228 net.cpp:112] Top shape: 32 192 14 14 (1204224)
I0509 22:09:23.969650 19228 layer_factory.hpp:74] Creating layer inception_4a/3x3_reduce
I0509 22:09:23.969660 19228 net.cpp:76] Creating Layer inception_4a/3x3_reduce
I0509 22:09:23.969667 19228 net.cpp:372] inception_4a/3x3_reduce <- pool3/3x3_s2_pool3/3x3_s2_0_split_1
I0509 22:09:23.969676 19228 net.cpp:334] inception_4a/3x3_reduce -> inception_4a/3x3_reduce
I0509 22:09:23.969686 19228 net.cpp:105] Setting up inception_4a/3x3_reduce
I0509 22:09:23.970140 19228 net.cpp:112] Top shape: 32 96 14 14 (602112)
I0509 22:09:23.970161 19228 layer_factory.hpp:74] Creating layer inception_4a/relu_3x3_reduce
I0509 22:09:23.970170 19228 net.cpp:76] Creating Layer inception_4a/relu_3x3_reduce
I0509 22:09:23.970180 19228 net.cpp:372] inception_4a/relu_3x3_reduce <- inception_4a/3x3_reduce
I0509 22:09:23.970186 19228 net.cpp:323] inception_4a/relu_3x3_reduce -> inception_4a/3x3_reduce (in-place)
I0509 22:09:23.970194 19228 net.cpp:105] Setting up inception_4a/relu_3x3_reduce
I0509 22:09:23.970201 19228 net.cpp:112] Top shape: 32 96 14 14 (602112)
I0509 22:09:23.970206 19228 layer_factory.hpp:74] Creating layer inception_4a/3x3
I0509 22:09:23.970213 19228 net.cpp:76] Creating Layer inception_4a/3x3
I0509 22:09:23.970219 19228 net.cpp:372] inception_4a/3x3 <- inception_4a/3x3_reduce
I0509 22:09:23.970227 19228 net.cpp:334] inception_4a/3x3 -> inception_4a/3x3
I0509 22:09:23.970235 19228 net.cpp:105] Setting up inception_4a/3x3
I0509 22:09:23.971782 19228 net.cpp:112] Top shape: 32 208 14 14 (1304576)
I0509 22:09:23.971798 19228 layer_factory.hpp:74] Creating layer inception_4a/relu_3x3
I0509 22:09:23.971809 19228 net.cpp:76] Creating Layer inception_4a/relu_3x3
I0509 22:09:23.971815 19228 net.cpp:372] inception_4a/relu_3x3 <- inception_4a/3x3
I0509 22:09:23.971837 19228 net.cpp:323] inception_4a/relu_3x3 -> inception_4a/3x3 (in-place)
I0509 22:09:23.971846 19228 net.cpp:105] Setting up inception_4a/relu_3x3
I0509 22:09:23.971853 19228 net.cpp:112] Top shape: 32 208 14 14 (1304576)
I0509 22:09:23.971858 19228 layer_factory.hpp:74] Creating layer inception_4a/5x5_reduce
I0509 22:09:23.971868 19228 net.cpp:76] Creating Layer inception_4a/5x5_reduce
I0509 22:09:23.971875 19228 net.cpp:372] inception_4a/5x5_reduce <- pool3/3x3_s2_pool3/3x3_s2_0_split_2
I0509 22:09:23.971884 19228 net.cpp:334] inception_4a/5x5_reduce -> inception_4a/5x5_reduce
I0509 22:09:23.971892 19228 net.cpp:105] Setting up inception_4a/5x5_reduce
I0509 22:09:23.971976 19228 net.cpp:112] Top shape: 32 16 14 14 (100352)
I0509 22:09:23.971987 19228 layer_factory.hpp:74] Creating layer inception_4a/relu_5x5_reduce
I0509 22:09:23.971994 19228 net.cpp:76] Creating Layer inception_4a/relu_5x5_reduce
I0509 22:09:23.972000 19228 net.cpp:372] inception_4a/relu_5x5_reduce <- inception_4a/5x5_reduce
I0509 22:09:23.972009 19228 net.cpp:323] inception_4a/relu_5x5_reduce -> inception_4a/5x5_reduce (in-place)
I0509 22:09:23.972018 19228 net.cpp:105] Setting up inception_4a/relu_5x5_reduce
I0509 22:09:23.972023 19228 net.cpp:112] Top shape: 32 16 14 14 (100352)
I0509 22:09:23.972028 19228 layer_factory.hpp:74] Creating layer inception_4a/5x5
I0509 22:09:23.972036 19228 net.cpp:76] Creating Layer inception_4a/5x5
I0509 22:09:23.972041 19228 net.cpp:372] inception_4a/5x5 <- inception_4a/5x5_reduce
I0509 22:09:23.972053 19228 net.cpp:334] inception_4a/5x5 -> inception_4a/5x5
I0509 22:09:23.972060 19228 net.cpp:105] Setting up inception_4a/5x5
I0509 22:09:23.972239 19228 net.cpp:112] Top shape: 32 48 14 14 (301056)
I0509 22:09:23.972252 19228 layer_factory.hpp:74] Creating layer inception_4a/relu_5x5
I0509 22:09:23.972260 19228 net.cpp:76] Creating Layer inception_4a/relu_5x5
I0509 22:09:23.972592 19228 net.cpp:372] inception_4a/relu_5x5 <- inception_4a/5x5
I0509 22:09:23.972609 19228 net.cpp:323] inception_4a/relu_5x5 -> inception_4a/5x5 (in-place)
I0509 22:09:23.972623 19228 net.cpp:105] Setting up inception_4a/relu_5x5
I0509 22:09:23.972632 19228 net.cpp:112] Top shape: 32 48 14 14 (301056)
I0509 22:09:23.972642 19228 layer_factory.hpp:74] Creating layer inception_4a/pool
I0509 22:09:23.972659 19228 net.cpp:76] Creating Layer inception_4a/pool
I0509 22:09:23.972671 19228 net.cpp:372] inception_4a/pool <- pool3/3x3_s2_pool3/3x3_s2_0_split_3
I0509 22:09:23.972683 19228 net.cpp:334] inception_4a/pool -> inception_4a/pool
I0509 22:09:23.972697 19228 net.cpp:105] Setting up inception_4a/pool
I0509 22:09:23.972709 19228 net.cpp:112] Top shape: 32 480 14 14 (3010560)
I0509 22:09:23.972719 19228 layer_factory.hpp:74] Creating layer inception_4a/pool_proj
I0509 22:09:23.972736 19228 net.cpp:76] Creating Layer inception_4a/pool_proj
I0509 22:09:23.972748 19228 net.cpp:372] inception_4a/pool_proj <- inception_4a/pool
I0509 22:09:23.972761 19228 net.cpp:334] inception_4a/pool_proj -> inception_4a/pool_proj
I0509 22:09:23.972777 19228 net.cpp:105] Setting up inception_4a/pool_proj
I0509 22:09:23.973179 19228 net.cpp:112] Top shape: 32 64 14 14 (401408)
I0509 22:09:23.973201 19228 layer_factory.hpp:74] Creating layer inception_4a/relu_pool_proj
I0509 22:09:23.973217 19228 net.cpp:76] Creating Layer inception_4a/relu_pool_proj
I0509 22:09:23.973227 19228 net.cpp:372] inception_4a/relu_pool_proj <- inception_4a/pool_proj
I0509 22:09:23.973239 19228 net.cpp:323] inception_4a/relu_pool_proj -> inception_4a/pool_proj (in-place)
I0509 22:09:23.973253 19228 net.cpp:105] Setting up inception_4a/relu_pool_proj
I0509 22:09:23.973263 19228 net.cpp:112] Top shape: 32 64 14 14 (401408)
I0509 22:09:23.973286 19228 layer_factory.hpp:74] Creating layer inception_4a/output
I0509 22:09:23.973302 19228 net.cpp:76] Creating Layer inception_4a/output
I0509 22:09:23.973312 19228 net.cpp:372] inception_4a/output <- inception_4a/1x1
I0509 22:09:23.973325 19228 net.cpp:372] inception_4a/output <- inception_4a/3x3
I0509 22:09:23.973335 19228 net.cpp:372] inception_4a/output <- inception_4a/5x5
I0509 22:09:23.973364 19228 net.cpp:372] inception_4a/output <- inception_4a/pool_proj
I0509 22:09:23.973378 19228 net.cpp:334] inception_4a/output -> inception_4a/output
I0509 22:09:23.973393 19228 net.cpp:105] Setting up inception_4a/output
I0509 22:09:23.973403 19228 net.cpp:112] Top shape: 32 512 14 14 (3211264)
I0509 22:09:23.973413 19228 layer_factory.hpp:74] Creating layer inception_4a/output_inception_4a/output_0_split
I0509 22:09:23.973433 19228 net.cpp:76] Creating Layer inception_4a/output_inception_4a/output_0_split
I0509 22:09:23.973444 19228 net.cpp:372] inception_4a/output_inception_4a/output_0_split <- inception_4a/output
I0509 22:09:23.973459 19228 net.cpp:334] inception_4a/output_inception_4a/output_0_split -> inception_4a/output_inception_4a/output_0_split_0
I0509 22:09:23.973474 19228 net.cpp:334] inception_4a/output_inception_4a/output_0_split -> inception_4a/output_inception_4a/output_0_split_1
I0509 22:09:23.973490 19228 net.cpp:334] inception_4a/output_inception_4a/output_0_split -> inception_4a/output_inception_4a/output_0_split_2
I0509 22:09:23.973510 19228 net.cpp:334] inception_4a/output_inception_4a/output_0_split -> inception_4a/output_inception_4a/output_0_split_3
I0509 22:09:23.973523 19228 net.cpp:334] inception_4a/output_inception_4a/output_0_split -> inception_4a/output_inception_4a/output_0_split_4
I0509 22:09:23.973538 19228 net.cpp:105] Setting up inception_4a/output_inception_4a/output_0_split
I0509 22:09:23.973549 19228 net.cpp:112] Top shape: 32 512 14 14 (3211264)
I0509 22:09:23.974478 19228 net.cpp:112] Top shape: 32 512 14 14 (3211264)
I0509 22:09:23.974486 19228 net.cpp:112] Top shape: 32 512 14 14 (3211264)
I0509 22:09:23.974491 19228 net.cpp:112] Top shape: 32 512 14 14 (3211264)
I0509 22:09:23.974496 19228 net.cpp:112] Top shape: 32 512 14 14 (3211264)
I0509 22:09:23.974503 19228 layer_factory.hpp:74] Creating layer loss1/ave_pool
I0509 22:09:23.974513 19228 net.cpp:76] Creating Layer loss1/ave_pool
I0509 22:09:23.974519 19228 net.cpp:372] loss1/ave_pool <- inception_4a/output_inception_4a/output_0_split_0
I0509 22:09:23.974531 19228 net.cpp:334] loss1/ave_pool -> loss1/ave_pool
I0509 22:09:23.974540 19228 net.cpp:105] Setting up loss1/ave_pool
I0509 22:09:23.974547 19228 net.cpp:112] Top shape: 32 512 4 4 (262144)
I0509 22:09:23.974553 19228 layer_factory.hpp:74] Creating layer loss1/conv
I0509 22:09:23.974562 19228 net.cpp:76] Creating Layer loss1/conv
I0509 22:09:23.974568 19228 net.cpp:372] loss1/conv <- loss1/ave_pool
I0509 22:09:23.974578 19228 net.cpp:334] loss1/conv -> loss1/conv
I0509 22:09:23.974587 19228 net.cpp:105] Setting up loss1/conv
I0509 22:09:23.975164 19228 net.cpp:112] Top shape: 32 128 4 4 (65536)
I0509 22:09:23.975180 19228 layer_factory.hpp:74] Creating layer loss1/relu_conv
I0509 22:09:23.975193 19228 net.cpp:76] Creating Layer loss1/relu_conv
I0509 22:09:23.975198 19228 net.cpp:372] loss1/relu_conv <- loss1/conv
I0509 22:09:23.975206 19228 net.cpp:323] loss1/relu_conv -> loss1/conv (in-place)
I0509 22:09:23.975214 19228 net.cpp:105] Setting up loss1/relu_conv
I0509 22:09:23.975219 19228 net.cpp:112] Top shape: 32 128 4 4 (65536)
I0509 22:09:23.975224 19228 layer_factory.hpp:74] Creating layer loss1/fc
I0509 22:09:23.975236 19228 net.cpp:76] Creating Layer loss1/fc
I0509 22:09:23.975242 19228 net.cpp:372] loss1/fc <- loss1/conv
I0509 22:09:23.975251 19228 net.cpp:334] loss1/fc -> loss1/fc
I0509 22:09:23.975265 19228 net.cpp:105] Setting up loss1/fc
I0509 22:09:23.992741 19228 net.cpp:112] Top shape: 32 1024 1 1 (32768)
I0509 22:09:23.992779 19228 layer_factory.hpp:74] Creating layer loss1/relu_fc
I0509 22:09:23.992794 19228 net.cpp:76] Creating Layer loss1/relu_fc
I0509 22:09:23.992800 19228 net.cpp:372] loss1/relu_fc <- loss1/fc
I0509 22:09:23.992812 19228 net.cpp:323] loss1/relu_fc -> loss1/fc (in-place)
I0509 22:09:23.992823 19228 net.cpp:105] Setting up loss1/relu_fc
I0509 22:09:23.992830 19228 net.cpp:112] Top shape: 32 1024 1 1 (32768)
I0509 22:09:23.992835 19228 layer_factory.hpp:74] Creating layer loss1/drop_fc
I0509 22:09:23.992902 19228 net.cpp:76] Creating Layer loss1/drop_fc
I0509 22:09:23.992908 19228 net.cpp:372] loss1/drop_fc <- loss1/fc
I0509 22:09:23.992916 19228 net.cpp:323] loss1/drop_fc -> loss1/fc (in-place)
I0509 22:09:23.992928 19228 net.cpp:105] Setting up loss1/drop_fc
I0509 22:09:23.992939 19228 net.cpp:112] Top shape: 32 1024 1 1 (32768)
I0509 22:09:23.992946 19228 layer_factory.hpp:74] Creating layer loss1/classifier
I0509 22:09:23.992956 19228 net.cpp:76] Creating Layer loss1/classifier
I0509 22:09:23.992962 19228 net.cpp:372] loss1/classifier <- loss1/fc
I0509 22:09:23.992974 19228 net.cpp:334] loss1/classifier -> loss1/classifier
I0509 22:09:23.992986 19228 net.cpp:105] Setting up loss1/classifier
I0509 22:09:23.993019 19228 net.cpp:112] Top shape: 32 2 1 1 (64)
I0509 22:09:23.993034 19228 layer_factory.hpp:74] Creating layer loss1/classifier_loss1/classifier_0_split
I0509 22:09:23.993043 19228 net.cpp:76] Creating Layer loss1/classifier_loss1/classifier_0_split
I0509 22:09:23.993049 19228 net.cpp:372] loss1/classifier_loss1/classifier_0_split <- loss1/classifier
I0509 22:09:23.993057 19228 net.cpp:334] loss1/classifier_loss1/classifier_0_split -> loss1/classifier_loss1/classifier_0_split_0
I0509 22:09:23.993067 19228 net.cpp:334] loss1/classifier_loss1/classifier_0_split -> loss1/classifier_loss1/classifier_0_split_1
I0509 22:09:23.993074 19228 net.cpp:105] Setting up loss1/classifier_loss1/classifier_0_split
I0509 22:09:23.993082 19228 net.cpp:112] Top shape: 32 2 1 1 (64)
I0509 22:09:23.993087 19228 net.cpp:112] Top shape: 32 2 1 1 (64)
I0509 22:09:23.993093 19228 layer_factory.hpp:74] Creating layer loss1/loss
I0509 22:09:23.993105 19228 net.cpp:76] Creating Layer loss1/loss
I0509 22:09:23.993111 19228 net.cpp:372] loss1/loss <- loss1/classifier_loss1/classifier_0_split_0
I0509 22:09:23.993119 19228 net.cpp:372] loss1/loss <- label_data_1_split_0
I0509 22:09:23.993126 19228 net.cpp:334] loss1/loss -> loss1/loss1
I0509 22:09:23.993137 19228 net.cpp:105] Setting up loss1/loss
I0509 22:09:23.993147 19228 layer_factory.hpp:74] Creating layer loss1/loss
I0509 22:09:23.993166 19228 net.cpp:112] Top shape: 1 1 1 1 (1)
I0509 22:09:23.993172 19228 net.cpp:118]     with loss weight 0.3
I0509 22:09:23.993204 19228 layer_factory.hpp:74] Creating layer loss1/top-1
I0509 22:09:23.993216 19228 net.cpp:76] Creating Layer loss1/top-1
I0509 22:09:23.993222 19228 net.cpp:372] loss1/top-1 <- loss1/classifier_loss1/classifier_0_split_1
I0509 22:09:23.993229 19228 net.cpp:372] loss1/top-1 <- label_data_1_split_1
I0509 22:09:23.993242 19228 net.cpp:334] loss1/top-1 -> loss1/top-1
I0509 22:09:23.993260 19228 net.cpp:105] Setting up loss1/top-1
I0509 22:09:23.993321 19228 net.cpp:112] Top shape: 1 1 1 1 (1)
I0509 22:09:23.993342 19228 layer_factory.hpp:74] Creating layer inception_4b/1x1
I0509 22:09:23.993355 19228 net.cpp:76] Creating Layer inception_4b/1x1
I0509 22:09:23.993363 19228 net.cpp:372] inception_4b/1x1 <- inception_4a/output_inception_4a/output_0_split_1
I0509 22:09:23.993378 19228 net.cpp:334] inception_4b/1x1 -> inception_4b/1x1
I0509 22:09:23.993391 19228 net.cpp:105] Setting up inception_4b/1x1
I0509 22:09:23.994093 19228 net.cpp:112] Top shape: 32 160 14 14 (1003520)
I0509 22:09:23.994108 19228 layer_factory.hpp:74] Creating layer inception_4b/relu_1x1
I0509 22:09:23.994117 19228 net.cpp:76] Creating Layer inception_4b/relu_1x1
I0509 22:09:23.994123 19228 net.cpp:372] inception_4b/relu_1x1 <- inception_4b/1x1
I0509 22:09:23.994130 19228 net.cpp:323] inception_4b/relu_1x1 -> inception_4b/1x1 (in-place)
I0509 22:09:23.994138 19228 net.cpp:105] Setting up inception_4b/relu_1x1
I0509 22:09:23.994144 19228 net.cpp:112] Top shape: 32 160 14 14 (1003520)
I0509 22:09:23.994149 19228 layer_factory.hpp:74] Creating layer inception_4b/3x3_reduce
I0509 22:09:23.994161 19228 net.cpp:76] Creating Layer inception_4b/3x3_reduce
I0509 22:09:23.994168 19228 net.cpp:372] inception_4b/3x3_reduce <- inception_4a/output_inception_4a/output_0_split_2
I0509 22:09:23.994175 19228 net.cpp:334] inception_4b/3x3_reduce -> inception_4b/3x3_reduce
I0509 22:09:23.994202 19228 net.cpp:105] Setting up inception_4b/3x3_reduce
I0509 22:09:23.994735 19228 net.cpp:112] Top shape: 32 112 14 14 (702464)
I0509 22:09:23.994750 19228 layer_factory.hpp:74] Creating layer inception_4b/relu_3x3_reduce
I0509 22:09:23.994758 19228 net.cpp:76] Creating Layer inception_4b/relu_3x3_reduce
I0509 22:09:23.994765 19228 net.cpp:372] inception_4b/relu_3x3_reduce <- inception_4b/3x3_reduce
I0509 22:09:23.994773 19228 net.cpp:323] inception_4b/relu_3x3_reduce -> inception_4b/3x3_reduce (in-place)
I0509 22:09:23.994783 19228 net.cpp:105] Setting up inception_4b/relu_3x3_reduce
I0509 22:09:23.994791 19228 net.cpp:112] Top shape: 32 112 14 14 (702464)
I0509 22:09:23.994796 19228 layer_factory.hpp:74] Creating layer inception_4b/3x3
I0509 22:09:23.994804 19228 net.cpp:76] Creating Layer inception_4b/3x3
I0509 22:09:23.994810 19228 net.cpp:372] inception_4b/3x3 <- inception_4b/3x3_reduce
I0509 22:09:23.994820 19228 net.cpp:334] inception_4b/3x3 -> inception_4b/3x3
I0509 22:09:23.994832 19228 net.cpp:105] Setting up inception_4b/3x3
I0509 22:09:23.996752 19228 net.cpp:112] Top shape: 32 224 14 14 (1404928)
I0509 22:09:23.996767 19228 layer_factory.hpp:74] Creating layer inception_4b/relu_3x3
I0509 22:09:23.996775 19228 net.cpp:76] Creating Layer inception_4b/relu_3x3
I0509 22:09:23.996781 19228 net.cpp:372] inception_4b/relu_3x3 <- inception_4b/3x3
I0509 22:09:23.996791 19228 net.cpp:323] inception_4b/relu_3x3 -> inception_4b/3x3 (in-place)
I0509 22:09:23.996800 19228 net.cpp:105] Setting up inception_4b/relu_3x3
I0509 22:09:23.996805 19228 net.cpp:112] Top shape: 32 224 14 14 (1404928)
I0509 22:09:23.996811 19228 layer_factory.hpp:74] Creating layer inception_4b/5x5_reduce
I0509 22:09:23.996820 19228 net.cpp:76] Creating Layer inception_4b/5x5_reduce
I0509 22:09:23.996825 19228 net.cpp:372] inception_4b/5x5_reduce <- inception_4a/output_inception_4a/output_0_split_3
I0509 22:09:23.996836 19228 net.cpp:334] inception_4b/5x5_reduce -> inception_4b/5x5_reduce
I0509 22:09:23.996845 19228 net.cpp:105] Setting up inception_4b/5x5_reduce
I0509 22:09:23.996969 19228 net.cpp:112] Top shape: 32 24 14 14 (150528)
I0509 22:09:23.996981 19228 layer_factory.hpp:74] Creating layer inception_4b/relu_5x5_reduce
I0509 22:09:23.996992 19228 net.cpp:76] Creating Layer inception_4b/relu_5x5_reduce
I0509 22:09:23.996999 19228 net.cpp:372] inception_4b/relu_5x5_reduce <- inception_4b/5x5_reduce
I0509 22:09:23.997005 19228 net.cpp:323] inception_4b/relu_5x5_reduce -> inception_4b/5x5_reduce (in-place)
I0509 22:09:23.997014 19228 net.cpp:105] Setting up inception_4b/relu_5x5_reduce
I0509 22:09:23.997020 19228 net.cpp:112] Top shape: 32 24 14 14 (150528)
I0509 22:09:23.997025 19228 layer_factory.hpp:74] Creating layer inception_4b/5x5
I0509 22:09:23.997035 19228 net.cpp:76] Creating Layer inception_4b/5x5
I0509 22:09:23.997041 19228 net.cpp:372] inception_4b/5x5 <- inception_4b/5x5_reduce
I0509 22:09:23.997050 19228 net.cpp:334] inception_4b/5x5 -> inception_4b/5x5
I0509 22:09:23.997058 19228 net.cpp:105] Setting up inception_4b/5x5
I0509 22:09:23.997403 19228 net.cpp:112] Top shape: 32 64 14 14 (401408)
I0509 22:09:23.997417 19228 layer_factory.hpp:74] Creating layer inception_4b/relu_5x5
I0509 22:09:23.997424 19228 net.cpp:76] Creating Layer inception_4b/relu_5x5
I0509 22:09:23.997431 19228 net.cpp:372] inception_4b/relu_5x5 <- inception_4b/5x5
I0509 22:09:23.997438 19228 net.cpp:323] inception_4b/relu_5x5 -> inception_4b/5x5 (in-place)
I0509 22:09:23.997445 19228 net.cpp:105] Setting up inception_4b/relu_5x5
I0509 22:09:23.997452 19228 net.cpp:112] Top shape: 32 64 14 14 (401408)
I0509 22:09:23.997457 19228 layer_factory.hpp:74] Creating layer inception_4b/pool
I0509 22:09:23.997467 19228 net.cpp:76] Creating Layer inception_4b/pool
I0509 22:09:23.997473 19228 net.cpp:372] inception_4b/pool <- inception_4a/output_inception_4a/output_0_split_4
I0509 22:09:23.997481 19228 net.cpp:334] inception_4b/pool -> inception_4b/pool
I0509 22:09:23.997489 19228 net.cpp:105] Setting up inception_4b/pool
I0509 22:09:23.997510 19228 net.cpp:112] Top shape: 32 512 14 14 (3211264)
I0509 22:09:23.997517 19228 layer_factory.hpp:74] Creating layer inception_4b/pool_proj
I0509 22:09:23.997529 19228 net.cpp:76] Creating Layer inception_4b/pool_proj
I0509 22:09:23.997535 19228 net.cpp:372] inception_4b/pool_proj <- inception_4b/pool
I0509 22:09:23.997544 19228 net.cpp:334] inception_4b/pool_proj -> inception_4b/pool_proj
I0509 22:09:23.997552 19228 net.cpp:105] Setting up inception_4b/pool_proj
I0509 22:09:23.997835 19228 net.cpp:112] Top shape: 32 64 14 14 (401408)
I0509 22:09:23.997848 19228 layer_factory.hpp:74] Creating layer inception_4b/relu_pool_proj
I0509 22:09:23.997858 19228 net.cpp:76] Creating Layer inception_4b/relu_pool_proj
I0509 22:09:23.997864 19228 net.cpp:372] inception_4b/relu_pool_proj <- inception_4b/pool_proj
I0509 22:09:23.997871 19228 net.cpp:323] inception_4b/relu_pool_proj -> inception_4b/pool_proj (in-place)
I0509 22:09:23.997879 19228 net.cpp:105] Setting up inception_4b/relu_pool_proj
I0509 22:09:23.997884 19228 net.cpp:112] Top shape: 32 64 14 14 (401408)
I0509 22:09:23.997889 19228 layer_factory.hpp:74] Creating layer inception_4b/output
I0509 22:09:23.997897 19228 net.cpp:76] Creating Layer inception_4b/output
I0509 22:09:23.997920 19228 net.cpp:372] inception_4b/output <- inception_4b/1x1
I0509 22:09:23.997927 19228 net.cpp:372] inception_4b/output <- inception_4b/3x3
I0509 22:09:23.997934 19228 net.cpp:372] inception_4b/output <- inception_4b/5x5
I0509 22:09:23.997943 19228 net.cpp:372] inception_4b/output <- inception_4b/pool_proj
I0509 22:09:23.997951 19228 net.cpp:334] inception_4b/output -> inception_4b/output
I0509 22:09:23.997959 19228 net.cpp:105] Setting up inception_4b/output
I0509 22:09:23.997967 19228 net.cpp:112] Top shape: 32 512 14 14 (3211264)
I0509 22:09:23.997972 19228 layer_factory.hpp:74] Creating layer inception_4b/output_inception_4b/output_0_split
I0509 22:09:23.997984 19228 net.cpp:76] Creating Layer inception_4b/output_inception_4b/output_0_split
I0509 22:09:23.997992 19228 net.cpp:372] inception_4b/output_inception_4b/output_0_split <- inception_4b/output
I0509 22:09:23.998008 19228 net.cpp:334] inception_4b/output_inception_4b/output_0_split -> inception_4b/output_inception_4b/output_0_split_0
I0509 22:09:23.998018 19228 net.cpp:334] inception_4b/output_inception_4b/output_0_split -> inception_4b/output_inception_4b/output_0_split_1
I0509 22:09:23.998026 19228 net.cpp:334] inception_4b/output_inception_4b/output_0_split -> inception_4b/output_inception_4b/output_0_split_2
I0509 22:09:23.998039 19228 net.cpp:334] inception_4b/output_inception_4b/output_0_split -> inception_4b/output_inception_4b/output_0_split_3
I0509 22:09:23.998049 19228 net.cpp:105] Setting up inception_4b/output_inception_4b/output_0_split
I0509 22:09:23.998054 19228 net.cpp:112] Top shape: 32 512 14 14 (3211264)
I0509 22:09:23.998060 19228 net.cpp:112] Top shape: 32 512 14 14 (3211264)
I0509 22:09:23.998064 19228 net.cpp:112] Top shape: 32 512 14 14 (3211264)
I0509 22:09:23.998070 19228 net.cpp:112] Top shape: 32 512 14 14 (3211264)
I0509 22:09:23.998075 19228 layer_factory.hpp:74] Creating layer inception_4c/1x1
I0509 22:09:23.998083 19228 net.cpp:76] Creating Layer inception_4c/1x1
I0509 22:09:23.998090 19228 net.cpp:372] inception_4c/1x1 <- inception_4b/output_inception_4b/output_0_split_0
I0509 22:09:23.998100 19228 net.cpp:334] inception_4c/1x1 -> inception_4c/1x1
I0509 22:09:23.998109 19228 net.cpp:105] Setting up inception_4c/1x1
I0509 22:09:23.998674 19228 net.cpp:112] Top shape: 32 128 14 14 (802816)
I0509 22:09:23.998687 19228 layer_factory.hpp:74] Creating layer inception_4c/relu_1x1
I0509 22:09:23.998695 19228 net.cpp:76] Creating Layer inception_4c/relu_1x1
I0509 22:09:23.998702 19228 net.cpp:372] inception_4c/relu_1x1 <- inception_4c/1x1
I0509 22:09:23.998708 19228 net.cpp:323] inception_4c/relu_1x1 -> inception_4c/1x1 (in-place)
I0509 22:09:23.998715 19228 net.cpp:105] Setting up inception_4c/relu_1x1
I0509 22:09:23.998721 19228 net.cpp:112] Top shape: 32 128 14 14 (802816)
I0509 22:09:23.998739 19228 layer_factory.hpp:74] Creating layer inception_4c/3x3_reduce
I0509 22:09:23.998750 19228 net.cpp:76] Creating Layer inception_4c/3x3_reduce
I0509 22:09:23.998757 19228 net.cpp:372] inception_4c/3x3_reduce <- inception_4b/output_inception_4b/output_0_split_1
I0509 22:09:23.998766 19228 net.cpp:334] inception_4c/3x3_reduce -> inception_4c/3x3_reduce
I0509 22:09:23.998777 19228 net.cpp:105] Setting up inception_4c/3x3_reduce
I0509 22:09:23.999343 19228 net.cpp:112] Top shape: 32 128 14 14 (802816)
I0509 22:09:23.999357 19228 layer_factory.hpp:74] Creating layer inception_4c/relu_3x3_reduce
I0509 22:09:23.999366 19228 net.cpp:76] Creating Layer inception_4c/relu_3x3_reduce
I0509 22:09:23.999373 19228 net.cpp:372] inception_4c/relu_3x3_reduce <- inception_4c/3x3_reduce
I0509 22:09:23.999380 19228 net.cpp:323] inception_4c/relu_3x3_reduce -> inception_4c/3x3_reduce (in-place)
I0509 22:09:23.999388 19228 net.cpp:105] Setting up inception_4c/relu_3x3_reduce
I0509 22:09:23.999393 19228 net.cpp:112] Top shape: 32 128 14 14 (802816)
I0509 22:09:23.999399 19228 layer_factory.hpp:74] Creating layer inception_4c/3x3
I0509 22:09:23.999408 19228 net.cpp:76] Creating Layer inception_4c/3x3
I0509 22:09:24.000881 19228 net.cpp:372] inception_4c/3x3 <- inception_4c/3x3_reduce
I0509 22:09:24.000893 19228 net.cpp:334] inception_4c/3x3 -> inception_4c/3x3
I0509 22:09:24.000902 19228 net.cpp:105] Setting up inception_4c/3x3
I0509 22:09:24.003368 19228 net.cpp:112] Top shape: 32 256 14 14 (1605632)
I0509 22:09:24.003397 19228 layer_factory.hpp:74] Creating layer inception_4c/relu_3x3
I0509 22:09:24.003407 19228 net.cpp:76] Creating Layer inception_4c/relu_3x3
I0509 22:09:24.003413 19228 net.cpp:372] inception_4c/relu_3x3 <- inception_4c/3x3
I0509 22:09:24.003422 19228 net.cpp:323] inception_4c/relu_3x3 -> inception_4c/3x3 (in-place)
I0509 22:09:24.003429 19228 net.cpp:105] Setting up inception_4c/relu_3x3
I0509 22:09:24.003435 19228 net.cpp:112] Top shape: 32 256 14 14 (1605632)
I0509 22:09:24.003440 19228 layer_factory.hpp:74] Creating layer inception_4c/5x5_reduce
I0509 22:09:24.003451 19228 net.cpp:76] Creating Layer inception_4c/5x5_reduce
I0509 22:09:24.003458 19228 net.cpp:372] inception_4c/5x5_reduce <- inception_4b/output_inception_4b/output_0_split_2
I0509 22:09:24.003465 19228 net.cpp:334] inception_4c/5x5_reduce -> inception_4c/5x5_reduce
I0509 22:09:24.003474 19228 net.cpp:105] Setting up inception_4c/5x5_reduce
I0509 22:09:24.003589 19228 net.cpp:112] Top shape: 32 24 14 14 (150528)
I0509 22:09:24.003600 19228 layer_factory.hpp:74] Creating layer inception_4c/relu_5x5_reduce
I0509 22:09:24.003608 19228 net.cpp:76] Creating Layer inception_4c/relu_5x5_reduce
I0509 22:09:24.003614 19228 net.cpp:372] inception_4c/relu_5x5_reduce <- inception_4c/5x5_reduce
I0509 22:09:24.003620 19228 net.cpp:323] inception_4c/relu_5x5_reduce -> inception_4c/5x5_reduce (in-place)
I0509 22:09:24.003628 19228 net.cpp:105] Setting up inception_4c/relu_5x5_reduce
I0509 22:09:24.003633 19228 net.cpp:112] Top shape: 32 24 14 14 (150528)
I0509 22:09:24.003639 19228 layer_factory.hpp:74] Creating layer inception_4c/5x5
I0509 22:09:24.003649 19228 net.cpp:76] Creating Layer inception_4c/5x5
I0509 22:09:24.003655 19228 net.cpp:372] inception_4c/5x5 <- inception_4c/5x5_reduce
I0509 22:09:24.003664 19228 net.cpp:334] inception_4c/5x5 -> inception_4c/5x5
I0509 22:09:24.003671 19228 net.cpp:105] Setting up inception_4c/5x5
I0509 22:09:24.004000 19228 net.cpp:112] Top shape: 32 64 14 14 (401408)
I0509 22:09:24.004014 19228 layer_factory.hpp:74] Creating layer inception_4c/relu_5x5
I0509 22:09:24.004024 19228 net.cpp:76] Creating Layer inception_4c/relu_5x5
I0509 22:09:24.004029 19228 net.cpp:372] inception_4c/relu_5x5 <- inception_4c/5x5
I0509 22:09:24.004040 19228 net.cpp:323] inception_4c/relu_5x5 -> inception_4c/5x5 (in-place)
I0509 22:09:24.004048 19228 net.cpp:105] Setting up inception_4c/relu_5x5
I0509 22:09:24.004053 19228 net.cpp:112] Top shape: 32 64 14 14 (401408)
I0509 22:09:24.004060 19228 layer_factory.hpp:74] Creating layer inception_4c/pool
I0509 22:09:24.004079 19228 net.cpp:76] Creating Layer inception_4c/pool
I0509 22:09:24.004086 19228 net.cpp:372] inception_4c/pool <- inception_4b/output_inception_4b/output_0_split_3
I0509 22:09:24.004097 19228 net.cpp:334] inception_4c/pool -> inception_4c/pool
I0509 22:09:24.004106 19228 net.cpp:105] Setting up inception_4c/pool
I0509 22:09:24.004113 19228 net.cpp:112] Top shape: 32 512 14 14 (3211264)
I0509 22:09:24.004119 19228 layer_factory.hpp:74] Creating layer inception_4c/pool_proj
I0509 22:09:24.004128 19228 net.cpp:76] Creating Layer inception_4c/pool_proj
I0509 22:09:24.004133 19228 net.cpp:372] inception_4c/pool_proj <- inception_4c/pool
I0509 22:09:24.004144 19228 net.cpp:334] inception_4c/pool_proj -> inception_4c/pool_proj
I0509 22:09:24.004153 19228 net.cpp:105] Setting up inception_4c/pool_proj
I0509 22:09:24.004448 19228 net.cpp:112] Top shape: 32 64 14 14 (401408)
I0509 22:09:24.004462 19228 layer_factory.hpp:74] Creating layer inception_4c/relu_pool_proj
I0509 22:09:24.004470 19228 net.cpp:76] Creating Layer inception_4c/relu_pool_proj
I0509 22:09:24.004477 19228 net.cpp:372] inception_4c/relu_pool_proj <- inception_4c/pool_proj
I0509 22:09:24.004483 19228 net.cpp:323] inception_4c/relu_pool_proj -> inception_4c/pool_proj (in-place)
I0509 22:09:24.004492 19228 net.cpp:105] Setting up inception_4c/relu_pool_proj
I0509 22:09:24.004498 19228 net.cpp:112] Top shape: 32 64 14 14 (401408)
I0509 22:09:24.004503 19228 layer_factory.hpp:74] Creating layer inception_4c/output
I0509 22:09:24.004510 19228 net.cpp:76] Creating Layer inception_4c/output
I0509 22:09:24.004515 19228 net.cpp:372] inception_4c/output <- inception_4c/1x1
I0509 22:09:24.004521 19228 net.cpp:372] inception_4c/output <- inception_4c/3x3
I0509 22:09:24.004528 19228 net.cpp:372] inception_4c/output <- inception_4c/5x5
I0509 22:09:24.004534 19228 net.cpp:372] inception_4c/output <- inception_4c/pool_proj
I0509 22:09:24.004544 19228 net.cpp:334] inception_4c/output -> inception_4c/output
I0509 22:09:24.004551 19228 net.cpp:105] Setting up inception_4c/output
I0509 22:09:24.004559 19228 net.cpp:112] Top shape: 32 512 14 14 (3211264)
I0509 22:09:24.004564 19228 layer_factory.hpp:74] Creating layer inception_4c/output_inception_4c/output_0_split
I0509 22:09:24.004571 19228 net.cpp:76] Creating Layer inception_4c/output_inception_4c/output_0_split
I0509 22:09:24.004577 19228 net.cpp:372] inception_4c/output_inception_4c/output_0_split <- inception_4c/output
I0509 22:09:24.004585 19228 net.cpp:334] inception_4c/output_inception_4c/output_0_split -> inception_4c/output_inception_4c/output_0_split_0
I0509 22:09:24.004596 19228 net.cpp:334] inception_4c/output_inception_4c/output_0_split -> inception_4c/output_inception_4c/output_0_split_1
I0509 22:09:24.004604 19228 net.cpp:334] inception_4c/output_inception_4c/output_0_split -> inception_4c/output_inception_4c/output_0_split_2
I0509 22:09:24.004613 19228 net.cpp:334] inception_4c/output_inception_4c/output_0_split -> inception_4c/output_inception_4c/output_0_split_3
I0509 22:09:24.004621 19228 net.cpp:105] Setting up inception_4c/output_inception_4c/output_0_split
I0509 22:09:24.004627 19228 net.cpp:112] Top shape: 32 512 14 14 (3211264)
I0509 22:09:24.004633 19228 net.cpp:112] Top shape: 32 512 14 14 (3211264)
I0509 22:09:24.004637 19228 net.cpp:112] Top shape: 32 512 14 14 (3211264)
I0509 22:09:24.004642 19228 net.cpp:112] Top shape: 32 512 14 14 (3211264)
I0509 22:09:24.004648 19228 layer_factory.hpp:74] Creating layer inception_4d/1x1
I0509 22:09:24.004657 19228 net.cpp:76] Creating Layer inception_4d/1x1
I0509 22:09:24.004662 19228 net.cpp:372] inception_4d/1x1 <- inception_4c/output_inception_4c/output_0_split_0
I0509 22:09:24.004672 19228 net.cpp:334] inception_4d/1x1 -> inception_4d/1x1
I0509 22:09:24.004680 19228 net.cpp:105] Setting up inception_4d/1x1
I0509 22:09:24.005164 19228 net.cpp:112] Top shape: 32 112 14 14 (702464)
I0509 22:09:24.005177 19228 layer_factory.hpp:74] Creating layer inception_4d/relu_1x1
I0509 22:09:24.005185 19228 net.cpp:76] Creating Layer inception_4d/relu_1x1
I0509 22:09:24.005221 19228 net.cpp:372] inception_4d/relu_1x1 <- inception_4d/1x1
I0509 22:09:24.005234 19228 net.cpp:323] inception_4d/relu_1x1 -> inception_4d/1x1 (in-place)
I0509 22:09:24.005242 19228 net.cpp:105] Setting up inception_4d/relu_1x1
I0509 22:09:24.005249 19228 net.cpp:112] Top shape: 32 112 14 14 (702464)
I0509 22:09:24.005254 19228 layer_factory.hpp:74] Creating layer inception_4d/3x3_reduce
I0509 22:09:24.005262 19228 net.cpp:76] Creating Layer inception_4d/3x3_reduce
I0509 22:09:24.005269 19228 net.cpp:372] inception_4d/3x3_reduce <- inception_4c/output_inception_4c/output_0_split_1
I0509 22:09:24.005291 19228 net.cpp:334] inception_4d/3x3_reduce -> inception_4d/3x3_reduce
I0509 22:09:24.005305 19228 net.cpp:105] Setting up inception_4d/3x3_reduce
I0509 22:09:24.005923 19228 net.cpp:112] Top shape: 32 144 14 14 (903168)
I0509 22:09:24.005935 19228 layer_factory.hpp:74] Creating layer inception_4d/relu_3x3_reduce
I0509 22:09:24.005946 19228 net.cpp:76] Creating Layer inception_4d/relu_3x3_reduce
I0509 22:09:24.005954 19228 net.cpp:372] inception_4d/relu_3x3_reduce <- inception_4d/3x3_reduce
I0509 22:09:24.005960 19228 net.cpp:323] inception_4d/relu_3x3_reduce -> inception_4d/3x3_reduce (in-place)
I0509 22:09:24.005969 19228 net.cpp:105] Setting up inception_4d/relu_3x3_reduce
I0509 22:09:24.005974 19228 net.cpp:112] Top shape: 32 144 14 14 (903168)
I0509 22:09:24.005980 19228 layer_factory.hpp:74] Creating layer inception_4d/3x3
I0509 22:09:24.005990 19228 net.cpp:76] Creating Layer inception_4d/3x3
I0509 22:09:24.005995 19228 net.cpp:372] inception_4d/3x3 <- inception_4d/3x3_reduce
I0509 22:09:24.006002 19228 net.cpp:334] inception_4d/3x3 -> inception_4d/3x3
I0509 22:09:24.006011 19228 net.cpp:105] Setting up inception_4d/3x3
I0509 22:09:24.009114 19228 net.cpp:112] Top shape: 32 288 14 14 (1806336)
I0509 22:09:24.009130 19228 layer_factory.hpp:74] Creating layer inception_4d/relu_3x3
I0509 22:09:24.009140 19228 net.cpp:76] Creating Layer inception_4d/relu_3x3
I0509 22:09:24.009146 19228 net.cpp:372] inception_4d/relu_3x3 <- inception_4d/3x3
I0509 22:09:24.009153 19228 net.cpp:323] inception_4d/relu_3x3 -> inception_4d/3x3 (in-place)
I0509 22:09:24.009161 19228 net.cpp:105] Setting up inception_4d/relu_3x3
I0509 22:09:24.009166 19228 net.cpp:112] Top shape: 32 288 14 14 (1806336)
I0509 22:09:24.009172 19228 layer_factory.hpp:74] Creating layer inception_4d/5x5_reduce
I0509 22:09:24.009182 19228 net.cpp:76] Creating Layer inception_4d/5x5_reduce
I0509 22:09:24.009188 19228 net.cpp:372] inception_4d/5x5_reduce <- inception_4c/output_inception_4c/output_0_split_2
I0509 22:09:24.009196 19228 net.cpp:334] inception_4d/5x5_reduce -> inception_4d/5x5_reduce
I0509 22:09:24.009205 19228 net.cpp:105] Setting up inception_4d/5x5_reduce
I0509 22:09:24.009366 19228 net.cpp:112] Top shape: 32 32 14 14 (200704)
I0509 22:09:24.009379 19228 layer_factory.hpp:74] Creating layer inception_4d/relu_5x5_reduce
I0509 22:09:24.009387 19228 net.cpp:76] Creating Layer inception_4d/relu_5x5_reduce
I0509 22:09:24.009393 19228 net.cpp:372] inception_4d/relu_5x5_reduce <- inception_4d/5x5_reduce
I0509 22:09:24.009402 19228 net.cpp:323] inception_4d/relu_5x5_reduce -> inception_4d/5x5_reduce (in-place)
I0509 22:09:24.009410 19228 net.cpp:105] Setting up inception_4d/relu_5x5_reduce
I0509 22:09:24.009415 19228 net.cpp:112] Top shape: 32 32 14 14 (200704)
I0509 22:09:24.009421 19228 layer_factory.hpp:74] Creating layer inception_4d/5x5
I0509 22:09:24.009429 19228 net.cpp:76] Creating Layer inception_4d/5x5
I0509 22:09:24.009435 19228 net.cpp:372] inception_4d/5x5 <- inception_4d/5x5_reduce
I0509 22:09:24.009444 19228 net.cpp:334] inception_4d/5x5 -> inception_4d/5x5
I0509 22:09:24.009454 19228 net.cpp:105] Setting up inception_4d/5x5
I0509 22:09:24.009889 19228 net.cpp:112] Top shape: 32 64 14 14 (401408)
I0509 22:09:24.009906 19228 layer_factory.hpp:74] Creating layer inception_4d/relu_5x5
I0509 22:09:24.009913 19228 net.cpp:76] Creating Layer inception_4d/relu_5x5
I0509 22:09:24.011435 19228 net.cpp:372] inception_4d/relu_5x5 <- inception_4d/5x5
I0509 22:09:24.011467 19228 net.cpp:323] inception_4d/relu_5x5 -> inception_4d/5x5 (in-place)
I0509 22:09:24.011478 19228 net.cpp:105] Setting up inception_4d/relu_5x5
I0509 22:09:24.011484 19228 net.cpp:112] Top shape: 32 64 14 14 (401408)
I0509 22:09:24.011490 19228 layer_factory.hpp:74] Creating layer inception_4d/pool
I0509 22:09:24.011498 19228 net.cpp:76] Creating Layer inception_4d/pool
I0509 22:09:24.011505 19228 net.cpp:372] inception_4d/pool <- inception_4c/output_inception_4c/output_0_split_3
I0509 22:09:24.011518 19228 net.cpp:334] inception_4d/pool -> inception_4d/pool
I0509 22:09:24.011526 19228 net.cpp:105] Setting up inception_4d/pool
I0509 22:09:24.011534 19228 net.cpp:112] Top shape: 32 512 14 14 (3211264)
I0509 22:09:24.011540 19228 layer_factory.hpp:74] Creating layer inception_4d/pool_proj
I0509 22:09:24.011549 19228 net.cpp:76] Creating Layer inception_4d/pool_proj
I0509 22:09:24.011555 19228 net.cpp:372] inception_4d/pool_proj <- inception_4d/pool
I0509 22:09:24.011565 19228 net.cpp:334] inception_4d/pool_proj -> inception_4d/pool_proj
I0509 22:09:24.011575 19228 net.cpp:105] Setting up inception_4d/pool_proj
I0509 22:09:24.011868 19228 net.cpp:112] Top shape: 32 64 14 14 (401408)
I0509 22:09:24.011883 19228 layer_factory.hpp:74] Creating layer inception_4d/relu_pool_proj
I0509 22:09:24.011891 19228 net.cpp:76] Creating Layer inception_4d/relu_pool_proj
I0509 22:09:24.011898 19228 net.cpp:372] inception_4d/relu_pool_proj <- inception_4d/pool_proj
I0509 22:09:24.011904 19228 net.cpp:323] inception_4d/relu_pool_proj -> inception_4d/pool_proj (in-place)
I0509 22:09:24.011912 19228 net.cpp:105] Setting up inception_4d/relu_pool_proj
I0509 22:09:24.011919 19228 net.cpp:112] Top shape: 32 64 14 14 (401408)
I0509 22:09:24.011924 19228 layer_factory.hpp:74] Creating layer inception_4d/output
I0509 22:09:24.011934 19228 net.cpp:76] Creating Layer inception_4d/output
I0509 22:09:24.011940 19228 net.cpp:372] inception_4d/output <- inception_4d/1x1
I0509 22:09:24.011945 19228 net.cpp:372] inception_4d/output <- inception_4d/3x3
I0509 22:09:24.011952 19228 net.cpp:372] inception_4d/output <- inception_4d/5x5
I0509 22:09:24.011958 19228 net.cpp:372] inception_4d/output <- inception_4d/pool_proj
I0509 22:09:24.011965 19228 net.cpp:334] inception_4d/output -> inception_4d/output
I0509 22:09:24.011973 19228 net.cpp:105] Setting up inception_4d/output
I0509 22:09:24.011981 19228 net.cpp:112] Top shape: 32 528 14 14 (3311616)
I0509 22:09:24.011988 19228 layer_factory.hpp:74] Creating layer inception_4d/output_inception_4d/output_0_split
I0509 22:09:24.011997 19228 net.cpp:76] Creating Layer inception_4d/output_inception_4d/output_0_split
I0509 22:09:24.012002 19228 net.cpp:372] inception_4d/output_inception_4d/output_0_split <- inception_4d/output
I0509 22:09:24.012012 19228 net.cpp:334] inception_4d/output_inception_4d/output_0_split -> inception_4d/output_inception_4d/output_0_split_0
I0509 22:09:24.012023 19228 net.cpp:334] inception_4d/output_inception_4d/output_0_split -> inception_4d/output_inception_4d/output_0_split_1
I0509 22:09:24.012032 19228 net.cpp:334] inception_4d/output_inception_4d/output_0_split -> inception_4d/output_inception_4d/output_0_split_2
I0509 22:09:24.012042 19228 net.cpp:334] inception_4d/output_inception_4d/output_0_split -> inception_4d/output_inception_4d/output_0_split_3
I0509 22:09:24.012049 19228 net.cpp:334] inception_4d/output_inception_4d/output_0_split -> inception_4d/output_inception_4d/output_0_split_4
I0509 22:09:24.012058 19228 net.cpp:105] Setting up inception_4d/output_inception_4d/output_0_split
I0509 22:09:24.012064 19228 net.cpp:112] Top shape: 32 528 14 14 (3311616)
I0509 22:09:24.012069 19228 net.cpp:112] Top shape: 32 528 14 14 (3311616)
I0509 22:09:24.012074 19228 net.cpp:112] Top shape: 32 528 14 14 (3311616)
I0509 22:09:24.012079 19228 net.cpp:112] Top shape: 32 528 14 14 (3311616)
I0509 22:09:24.012881 19228 net.cpp:112] Top shape: 32 528 14 14 (3311616)
I0509 22:09:24.012892 19228 layer_factory.hpp:74] Creating layer loss2/ave_pool
I0509 22:09:24.012923 19228 net.cpp:76] Creating Layer loss2/ave_pool
I0509 22:09:24.012930 19228 net.cpp:372] loss2/ave_pool <- inception_4d/output_inception_4d/output_0_split_0
I0509 22:09:24.012940 19228 net.cpp:334] loss2/ave_pool -> loss2/ave_pool
I0509 22:09:24.012950 19228 net.cpp:105] Setting up loss2/ave_pool
I0509 22:09:24.012960 19228 net.cpp:112] Top shape: 32 528 4 4 (270336)
I0509 22:09:24.012966 19228 layer_factory.hpp:74] Creating layer loss2/conv
I0509 22:09:24.012980 19228 net.cpp:76] Creating Layer loss2/conv
I0509 22:09:24.012986 19228 net.cpp:372] loss2/conv <- loss2/ave_pool
I0509 22:09:24.012995 19228 net.cpp:334] loss2/conv -> loss2/conv
I0509 22:09:24.013005 19228 net.cpp:105] Setting up loss2/conv
I0509 22:09:24.013584 19228 net.cpp:112] Top shape: 32 128 4 4 (65536)
I0509 22:09:24.013598 19228 layer_factory.hpp:74] Creating layer loss2/relu_conv
I0509 22:09:24.013607 19228 net.cpp:76] Creating Layer loss2/relu_conv
I0509 22:09:24.013613 19228 net.cpp:372] loss2/relu_conv <- loss2/conv
I0509 22:09:24.013620 19228 net.cpp:323] loss2/relu_conv -> loss2/conv (in-place)
I0509 22:09:24.013628 19228 net.cpp:105] Setting up loss2/relu_conv
I0509 22:09:24.013634 19228 net.cpp:112] Top shape: 32 128 4 4 (65536)
I0509 22:09:24.013639 19228 layer_factory.hpp:74] Creating layer loss2/fc
I0509 22:09:24.013651 19228 net.cpp:76] Creating Layer loss2/fc
I0509 22:09:24.013656 19228 net.cpp:372] loss2/fc <- loss2/conv
I0509 22:09:24.013665 19228 net.cpp:334] loss2/fc -> loss2/fc
I0509 22:09:24.013675 19228 net.cpp:105] Setting up loss2/fc
I0509 22:09:24.031471 19228 net.cpp:112] Top shape: 32 1024 1 1 (32768)
I0509 22:09:24.031512 19228 layer_factory.hpp:74] Creating layer loss2/relu_fc
I0509 22:09:24.031525 19228 net.cpp:76] Creating Layer loss2/relu_fc
I0509 22:09:24.031534 19228 net.cpp:372] loss2/relu_fc <- loss2/fc
I0509 22:09:24.031544 19228 net.cpp:323] loss2/relu_fc -> loss2/fc (in-place)
I0509 22:09:24.031554 19228 net.cpp:105] Setting up loss2/relu_fc
I0509 22:09:24.031561 19228 net.cpp:112] Top shape: 32 1024 1 1 (32768)
I0509 22:09:24.031568 19228 layer_factory.hpp:74] Creating layer loss2/drop_fc
I0509 22:09:24.031576 19228 net.cpp:76] Creating Layer loss2/drop_fc
I0509 22:09:24.031581 19228 net.cpp:372] loss2/drop_fc <- loss2/fc
I0509 22:09:24.031591 19228 net.cpp:323] loss2/drop_fc -> loss2/fc (in-place)
I0509 22:09:24.031599 19228 net.cpp:105] Setting up loss2/drop_fc
I0509 22:09:24.031606 19228 net.cpp:112] Top shape: 32 1024 1 1 (32768)
I0509 22:09:24.031612 19228 layer_factory.hpp:74] Creating layer loss2/classifier
I0509 22:09:24.031622 19228 net.cpp:76] Creating Layer loss2/classifier
I0509 22:09:24.031627 19228 net.cpp:372] loss2/classifier <- loss2/fc
I0509 22:09:24.031641 19228 net.cpp:334] loss2/classifier -> loss2/classifier
I0509 22:09:24.031651 19228 net.cpp:105] Setting up loss2/classifier
I0509 22:09:24.031684 19228 net.cpp:112] Top shape: 32 2 1 1 (64)
I0509 22:09:24.031694 19228 layer_factory.hpp:74] Creating layer loss2/classifier_loss2/classifier_0_split
I0509 22:09:24.031702 19228 net.cpp:76] Creating Layer loss2/classifier_loss2/classifier_0_split
I0509 22:09:24.031708 19228 net.cpp:372] loss2/classifier_loss2/classifier_0_split <- loss2/classifier
I0509 22:09:24.031718 19228 net.cpp:334] loss2/classifier_loss2/classifier_0_split -> loss2/classifier_loss2/classifier_0_split_0
I0509 22:09:24.031728 19228 net.cpp:334] loss2/classifier_loss2/classifier_0_split -> loss2/classifier_loss2/classifier_0_split_1
I0509 22:09:24.031738 19228 net.cpp:105] Setting up loss2/classifier_loss2/classifier_0_split
I0509 22:09:24.031744 19228 net.cpp:112] Top shape: 32 2 1 1 (64)
I0509 22:09:24.031749 19228 net.cpp:112] Top shape: 32 2 1 1 (64)
I0509 22:09:24.031755 19228 layer_factory.hpp:74] Creating layer loss2/loss
I0509 22:09:24.031764 19228 net.cpp:76] Creating Layer loss2/loss
I0509 22:09:24.031771 19228 net.cpp:372] loss2/loss <- loss2/classifier_loss2/classifier_0_split_0
I0509 22:09:24.031781 19228 net.cpp:372] loss2/loss <- label_data_1_split_2
I0509 22:09:24.031790 19228 net.cpp:334] loss2/loss -> loss2/loss1
I0509 22:09:24.031832 19228 net.cpp:105] Setting up loss2/loss
I0509 22:09:24.031843 19228 layer_factory.hpp:74] Creating layer loss2/loss
I0509 22:09:24.031857 19228 net.cpp:112] Top shape: 1 1 1 1 (1)
I0509 22:09:24.031863 19228 net.cpp:118]     with loss weight 0.3
I0509 22:09:24.031883 19228 layer_factory.hpp:74] Creating layer loss2/top-1
I0509 22:09:24.031895 19228 net.cpp:76] Creating Layer loss2/top-1
I0509 22:09:24.031903 19228 net.cpp:372] loss2/top-1 <- loss2/classifier_loss2/classifier_0_split_1
I0509 22:09:24.031909 19228 net.cpp:372] loss2/top-1 <- label_data_1_split_3
I0509 22:09:24.031919 19228 net.cpp:334] loss2/top-1 -> loss2/top-1
I0509 22:09:24.031926 19228 net.cpp:105] Setting up loss2/top-1
I0509 22:09:24.031934 19228 net.cpp:112] Top shape: 1 1 1 1 (1)
I0509 22:09:24.031939 19228 layer_factory.hpp:74] Creating layer inception_4e/1x1
I0509 22:09:24.031949 19228 net.cpp:76] Creating Layer inception_4e/1x1
I0509 22:09:24.031956 19228 net.cpp:372] inception_4e/1x1 <- inception_4d/output_inception_4d/output_0_split_1
I0509 22:09:24.031965 19228 net.cpp:334] inception_4e/1x1 -> inception_4e/1x1
I0509 22:09:24.031975 19228 net.cpp:105] Setting up inception_4e/1x1
I0509 22:09:24.033156 19228 net.cpp:112] Top shape: 32 256 14 14 (1605632)
I0509 22:09:24.033174 19228 layer_factory.hpp:74] Creating layer inception_4e/relu_1x1
I0509 22:09:24.033182 19228 net.cpp:76] Creating Layer inception_4e/relu_1x1
I0509 22:09:24.033188 19228 net.cpp:372] inception_4e/relu_1x1 <- inception_4e/1x1
I0509 22:09:24.033196 19228 net.cpp:323] inception_4e/relu_1x1 -> inception_4e/1x1 (in-place)
I0509 22:09:24.033205 19228 net.cpp:105] Setting up inception_4e/relu_1x1
I0509 22:09:24.033210 19228 net.cpp:112] Top shape: 32 256 14 14 (1605632)
I0509 22:09:24.033215 19228 layer_factory.hpp:74] Creating layer inception_4e/3x3_reduce
I0509 22:09:24.033226 19228 net.cpp:76] Creating Layer inception_4e/3x3_reduce
I0509 22:09:24.033232 19228 net.cpp:372] inception_4e/3x3_reduce <- inception_4d/output_inception_4d/output_0_split_2
I0509 22:09:24.033241 19228 net.cpp:334] inception_4e/3x3_reduce -> inception_4e/3x3_reduce
I0509 22:09:24.033252 19228 net.cpp:105] Setting up inception_4e/3x3_reduce
I0509 22:09:24.033979 19228 net.cpp:112] Top shape: 32 160 14 14 (1003520)
I0509 22:09:24.033999 19228 layer_factory.hpp:74] Creating layer inception_4e/relu_3x3_reduce
I0509 22:09:24.034008 19228 net.cpp:76] Creating Layer inception_4e/relu_3x3_reduce
I0509 22:09:24.034013 19228 net.cpp:372] inception_4e/relu_3x3_reduce <- inception_4e/3x3_reduce
I0509 22:09:24.034021 19228 net.cpp:323] inception_4e/relu_3x3_reduce -> inception_4e/3x3_reduce (in-place)
I0509 22:09:24.034029 19228 net.cpp:105] Setting up inception_4e/relu_3x3_reduce
I0509 22:09:24.034035 19228 net.cpp:112] Top shape: 32 160 14 14 (1003520)
I0509 22:09:24.034040 19228 layer_factory.hpp:74] Creating layer inception_4e/3x3
I0509 22:09:24.034068 19228 net.cpp:76] Creating Layer inception_4e/3x3
I0509 22:09:24.034075 19228 net.cpp:372] inception_4e/3x3 <- inception_4e/3x3_reduce
I0509 22:09:24.034083 19228 net.cpp:334] inception_4e/3x3 -> inception_4e/3x3
I0509 22:09:24.034092 19228 net.cpp:105] Setting up inception_4e/3x3
I0509 22:09:24.037932 19228 net.cpp:112] Top shape: 32 320 14 14 (2007040)
I0509 22:09:24.037953 19228 layer_factory.hpp:74] Creating layer inception_4e/relu_3x3
I0509 22:09:24.037963 19228 net.cpp:76] Creating Layer inception_4e/relu_3x3
I0509 22:09:24.037969 19228 net.cpp:372] inception_4e/relu_3x3 <- inception_4e/3x3
I0509 22:09:24.037977 19228 net.cpp:323] inception_4e/relu_3x3 -> inception_4e/3x3 (in-place)
I0509 22:09:24.037986 19228 net.cpp:105] Setting up inception_4e/relu_3x3
I0509 22:09:24.037991 19228 net.cpp:112] Top shape: 32 320 14 14 (2007040)
I0509 22:09:24.037997 19228 layer_factory.hpp:74] Creating layer inception_4e/5x5_reduce
I0509 22:09:24.038007 19228 net.cpp:76] Creating Layer inception_4e/5x5_reduce
I0509 22:09:24.038013 19228 net.cpp:372] inception_4e/5x5_reduce <- inception_4d/output_inception_4d/output_0_split_3
I0509 22:09:24.038045 19228 net.cpp:334] inception_4e/5x5_reduce -> inception_4e/5x5_reduce
I0509 22:09:24.038056 19228 net.cpp:105] Setting up inception_4e/5x5_reduce
I0509 22:09:24.038209 19228 net.cpp:112] Top shape: 32 32 14 14 (200704)
I0509 22:09:24.038223 19228 layer_factory.hpp:74] Creating layer inception_4e/relu_5x5_reduce
I0509 22:09:24.038231 19228 net.cpp:76] Creating Layer inception_4e/relu_5x5_reduce
I0509 22:09:24.038238 19228 net.cpp:372] inception_4e/relu_5x5_reduce <- inception_4e/5x5_reduce
I0509 22:09:24.038245 19228 net.cpp:323] inception_4e/relu_5x5_reduce -> inception_4e/5x5_reduce (in-place)
I0509 22:09:24.038252 19228 net.cpp:105] Setting up inception_4e/relu_5x5_reduce
I0509 22:09:24.038259 19228 net.cpp:112] Top shape: 32 32 14 14 (200704)
I0509 22:09:24.038264 19228 layer_factory.hpp:74] Creating layer inception_4e/5x5
I0509 22:09:24.038283 19228 net.cpp:76] Creating Layer inception_4e/5x5
I0509 22:09:24.038291 19228 net.cpp:372] inception_4e/5x5 <- inception_4e/5x5_reduce
I0509 22:09:24.038302 19228 net.cpp:334] inception_4e/5x5 -> inception_4e/5x5
I0509 22:09:24.038311 19228 net.cpp:105] Setting up inception_4e/5x5
I0509 22:09:24.039171 19228 net.cpp:112] Top shape: 32 128 14 14 (802816)
I0509 22:09:24.039185 19228 layer_factory.hpp:74] Creating layer inception_4e/relu_5x5
I0509 22:09:24.039194 19228 net.cpp:76] Creating Layer inception_4e/relu_5x5
I0509 22:09:24.039201 19228 net.cpp:372] inception_4e/relu_5x5 <- inception_4e/5x5
I0509 22:09:24.039208 19228 net.cpp:323] inception_4e/relu_5x5 -> inception_4e/5x5 (in-place)
I0509 22:09:24.039216 19228 net.cpp:105] Setting up inception_4e/relu_5x5
I0509 22:09:24.039222 19228 net.cpp:112] Top shape: 32 128 14 14 (802816)
I0509 22:09:24.039227 19228 layer_factory.hpp:74] Creating layer inception_4e/pool
I0509 22:09:24.039252 19228 net.cpp:76] Creating Layer inception_4e/pool
I0509 22:09:24.039259 19228 net.cpp:372] inception_4e/pool <- inception_4d/output_inception_4d/output_0_split_4
I0509 22:09:24.039268 19228 net.cpp:334] inception_4e/pool -> inception_4e/pool
I0509 22:09:24.039278 19228 net.cpp:105] Setting up inception_4e/pool
I0509 22:09:24.039285 19228 net.cpp:112] Top shape: 32 528 14 14 (3311616)
I0509 22:09:24.039291 19228 layer_factory.hpp:74] Creating layer inception_4e/pool_proj
I0509 22:09:24.039302 19228 net.cpp:76] Creating Layer inception_4e/pool_proj
I0509 22:09:24.039309 19228 net.cpp:372] inception_4e/pool_proj <- inception_4e/pool
I0509 22:09:24.039317 19228 net.cpp:334] inception_4e/pool_proj -> inception_4e/pool_proj
I0509 22:09:24.039330 19228 net.cpp:105] Setting up inception_4e/pool_proj
I0509 22:09:24.039897 19228 net.cpp:112] Top shape: 32 128 14 14 (802816)
I0509 22:09:24.039912 19228 layer_factory.hpp:74] Creating layer inception_4e/relu_pool_proj
I0509 22:09:24.039921 19228 net.cpp:76] Creating Layer inception_4e/relu_pool_proj
I0509 22:09:24.039927 19228 net.cpp:372] inception_4e/relu_pool_proj <- inception_4e/pool_proj
I0509 22:09:24.039934 19228 net.cpp:323] inception_4e/relu_pool_proj -> inception_4e/pool_proj (in-place)
I0509 22:09:24.039942 19228 net.cpp:105] Setting up inception_4e/relu_pool_proj
I0509 22:09:24.039947 19228 net.cpp:112] Top shape: 32 128 14 14 (802816)
I0509 22:09:24.039953 19228 layer_factory.hpp:74] Creating layer inception_4e/output
I0509 22:09:24.039960 19228 net.cpp:76] Creating Layer inception_4e/output
I0509 22:09:24.039966 19228 net.cpp:372] inception_4e/output <- inception_4e/1x1
I0509 22:09:24.039973 19228 net.cpp:372] inception_4e/output <- inception_4e/3x3
I0509 22:09:24.039979 19228 net.cpp:372] inception_4e/output <- inception_4e/5x5
I0509 22:09:24.039985 19228 net.cpp:372] inception_4e/output <- inception_4e/pool_proj
I0509 22:09:24.039994 19228 net.cpp:334] inception_4e/output -> inception_4e/output
I0509 22:09:24.040001 19228 net.cpp:105] Setting up inception_4e/output
I0509 22:09:24.040007 19228 net.cpp:112] Top shape: 32 832 14 14 (5218304)
I0509 22:09:24.040014 19228 layer_factory.hpp:74] Creating layer pool4/3x3_s2
I0509 22:09:24.040024 19228 net.cpp:76] Creating Layer pool4/3x3_s2
I0509 22:09:24.040067 19228 net.cpp:372] pool4/3x3_s2 <- inception_4e/output
I0509 22:09:24.040078 19228 net.cpp:334] pool4/3x3_s2 -> pool4/3x3_s2
I0509 22:09:24.040087 19228 net.cpp:105] Setting up pool4/3x3_s2
I0509 22:09:24.040094 19228 net.cpp:112] Top shape: 32 832 7 7 (1304576)
I0509 22:09:24.040101 19228 layer_factory.hpp:74] Creating layer pool4/3x3_s2_pool4/3x3_s2_0_split
I0509 22:09:24.040110 19228 net.cpp:76] Creating Layer pool4/3x3_s2_pool4/3x3_s2_0_split
I0509 22:09:24.040117 19228 net.cpp:372] pool4/3x3_s2_pool4/3x3_s2_0_split <- pool4/3x3_s2
I0509 22:09:24.040124 19228 net.cpp:334] pool4/3x3_s2_pool4/3x3_s2_0_split -> pool4/3x3_s2_pool4/3x3_s2_0_split_0
I0509 22:09:24.040132 19228 net.cpp:334] pool4/3x3_s2_pool4/3x3_s2_0_split -> pool4/3x3_s2_pool4/3x3_s2_0_split_1
I0509 22:09:24.040141 19228 net.cpp:334] pool4/3x3_s2_pool4/3x3_s2_0_split -> pool4/3x3_s2_pool4/3x3_s2_0_split_2
I0509 22:09:24.040150 19228 net.cpp:334] pool4/3x3_s2_pool4/3x3_s2_0_split -> pool4/3x3_s2_pool4/3x3_s2_0_split_3
I0509 22:09:24.040158 19228 net.cpp:105] Setting up pool4/3x3_s2_pool4/3x3_s2_0_split
I0509 22:09:24.040164 19228 net.cpp:112] Top shape: 32 832 7 7 (1304576)
I0509 22:09:24.040170 19228 net.cpp:112] Top shape: 32 832 7 7 (1304576)
I0509 22:09:24.040175 19228 net.cpp:112] Top shape: 32 832 7 7 (1304576)
I0509 22:09:24.040179 19228 net.cpp:112] Top shape: 32 832 7 7 (1304576)
I0509 22:09:24.040185 19228 layer_factory.hpp:74] Creating layer inception_5a/1x1
I0509 22:09:24.040196 19228 net.cpp:76] Creating Layer inception_5a/1x1
I0509 22:09:24.040202 19228 net.cpp:372] inception_5a/1x1 <- pool4/3x3_s2_pool4/3x3_s2_0_split_0
I0509 22:09:24.040212 19228 net.cpp:334] inception_5a/1x1 -> inception_5a/1x1
I0509 22:09:24.040221 19228 net.cpp:105] Setting up inception_5a/1x1
I0509 22:09:24.042011 19228 net.cpp:112] Top shape: 32 256 7 7 (401408)
I0509 22:09:24.042027 19228 layer_factory.hpp:74] Creating layer inception_5a/relu_1x1
I0509 22:09:24.042038 19228 net.cpp:76] Creating Layer inception_5a/relu_1x1
I0509 22:09:24.042045 19228 net.cpp:372] inception_5a/relu_1x1 <- inception_5a/1x1
I0509 22:09:24.042052 19228 net.cpp:323] inception_5a/relu_1x1 -> inception_5a/1x1 (in-place)
I0509 22:09:24.042062 19228 net.cpp:105] Setting up inception_5a/relu_1x1
I0509 22:09:24.042067 19228 net.cpp:112] Top shape: 32 256 7 7 (401408)
I0509 22:09:24.042073 19228 layer_factory.hpp:74] Creating layer inception_5a/3x3_reduce
I0509 22:09:24.042083 19228 net.cpp:76] Creating Layer inception_5a/3x3_reduce
I0509 22:09:24.042089 19228 net.cpp:372] inception_5a/3x3_reduce <- pool4/3x3_s2_pool4/3x3_s2_0_split_1
I0509 22:09:24.042098 19228 net.cpp:334] inception_5a/3x3_reduce -> inception_5a/3x3_reduce
I0509 22:09:24.042106 19228 net.cpp:105] Setting up inception_5a/3x3_reduce
I0509 22:09:24.043227 19228 net.cpp:112] Top shape: 32 160 7 7 (250880)
I0509 22:09:24.043242 19228 layer_factory.hpp:74] Creating layer inception_5a/relu_3x3_reduce
I0509 22:09:24.043251 19228 net.cpp:76] Creating Layer inception_5a/relu_3x3_reduce
I0509 22:09:24.043257 19228 net.cpp:372] inception_5a/relu_3x3_reduce <- inception_5a/3x3_reduce
I0509 22:09:24.043267 19228 net.cpp:323] inception_5a/relu_3x3_reduce -> inception_5a/3x3_reduce (in-place)
I0509 22:09:24.043287 19228 net.cpp:105] Setting up inception_5a/relu_3x3_reduce
I0509 22:09:24.043293 19228 net.cpp:112] Top shape: 32 160 7 7 (250880)
I0509 22:09:24.043299 19228 layer_factory.hpp:74] Creating layer inception_5a/3x3
I0509 22:09:24.043308 19228 net.cpp:76] Creating Layer inception_5a/3x3
I0509 22:09:24.043314 19228 net.cpp:372] inception_5a/3x3 <- inception_5a/3x3_reduce
I0509 22:09:24.043325 19228 net.cpp:334] inception_5a/3x3 -> inception_5a/3x3
I0509 22:09:24.043334 19228 net.cpp:105] Setting up inception_5a/3x3
I0509 22:09:24.047163 19228 net.cpp:112] Top shape: 32 320 7 7 (501760)
I0509 22:09:24.047181 19228 layer_factory.hpp:74] Creating layer inception_5a/relu_3x3
I0509 22:09:24.047190 19228 net.cpp:76] Creating Layer inception_5a/relu_3x3
I0509 22:09:24.048843 19228 net.cpp:372] inception_5a/relu_3x3 <- inception_5a/3x3
I0509 22:09:24.048887 19228 net.cpp:323] inception_5a/relu_3x3 -> inception_5a/3x3 (in-place)
I0509 22:09:24.048898 19228 net.cpp:105] Setting up inception_5a/relu_3x3
I0509 22:09:24.048905 19228 net.cpp:112] Top shape: 32 320 7 7 (501760)
I0509 22:09:24.048912 19228 layer_factory.hpp:74] Creating layer inception_5a/5x5_reduce
I0509 22:09:24.048925 19228 net.cpp:76] Creating Layer inception_5a/5x5_reduce
I0509 22:09:24.048933 19228 net.cpp:372] inception_5a/5x5_reduce <- pool4/3x3_s2_pool4/3x3_s2_0_split_2
I0509 22:09:24.048943 19228 net.cpp:334] inception_5a/5x5_reduce -> inception_5a/5x5_reduce
I0509 22:09:24.048952 19228 net.cpp:105] Setting up inception_5a/5x5_reduce
I0509 22:09:24.049192 19228 net.cpp:112] Top shape: 32 32 7 7 (50176)
I0509 22:09:24.049206 19228 layer_factory.hpp:74] Creating layer inception_5a/relu_5x5_reduce
I0509 22:09:24.049214 19228 net.cpp:76] Creating Layer inception_5a/relu_5x5_reduce
I0509 22:09:24.049221 19228 net.cpp:372] inception_5a/relu_5x5_reduce <- inception_5a/5x5_reduce
I0509 22:09:24.049228 19228 net.cpp:323] inception_5a/relu_5x5_reduce -> inception_5a/5x5_reduce (in-place)
I0509 22:09:24.049237 19228 net.cpp:105] Setting up inception_5a/relu_5x5_reduce
I0509 22:09:24.049242 19228 net.cpp:112] Top shape: 32 32 7 7 (50176)
I0509 22:09:24.049247 19228 layer_factory.hpp:74] Creating layer inception_5a/5x5
I0509 22:09:24.049258 19228 net.cpp:76] Creating Layer inception_5a/5x5
I0509 22:09:24.049264 19228 net.cpp:372] inception_5a/5x5 <- inception_5a/5x5_reduce
I0509 22:09:24.049289 19228 net.cpp:334] inception_5a/5x5 -> inception_5a/5x5
I0509 22:09:24.049300 19228 net.cpp:105] Setting up inception_5a/5x5
I0509 22:09:24.050161 19228 net.cpp:112] Top shape: 32 128 7 7 (200704)
I0509 22:09:24.050175 19228 layer_factory.hpp:74] Creating layer inception_5a/relu_5x5
I0509 22:09:24.050184 19228 net.cpp:76] Creating Layer inception_5a/relu_5x5
I0509 22:09:24.050189 19228 net.cpp:372] inception_5a/relu_5x5 <- inception_5a/5x5
I0509 22:09:24.050199 19228 net.cpp:323] inception_5a/relu_5x5 -> inception_5a/5x5 (in-place)
I0509 22:09:24.050207 19228 net.cpp:105] Setting up inception_5a/relu_5x5
I0509 22:09:24.050212 19228 net.cpp:112] Top shape: 32 128 7 7 (200704)
I0509 22:09:24.050218 19228 layer_factory.hpp:74] Creating layer inception_5a/pool
I0509 22:09:24.050226 19228 net.cpp:76] Creating Layer inception_5a/pool
I0509 22:09:24.050232 19228 net.cpp:372] inception_5a/pool <- pool4/3x3_s2_pool4/3x3_s2_0_split_3
I0509 22:09:24.050242 19228 net.cpp:334] inception_5a/pool -> inception_5a/pool
I0509 22:09:24.050282 19228 net.cpp:105] Setting up inception_5a/pool
I0509 22:09:24.050295 19228 net.cpp:112] Top shape: 32 832 7 7 (1304576)
I0509 22:09:24.050302 19228 layer_factory.hpp:74] Creating layer inception_5a/pool_proj
I0509 22:09:24.050312 19228 net.cpp:76] Creating Layer inception_5a/pool_proj
I0509 22:09:24.050318 19228 net.cpp:372] inception_5a/pool_proj <- inception_5a/pool
I0509 22:09:24.050326 19228 net.cpp:334] inception_5a/pool_proj -> inception_5a/pool_proj
I0509 22:09:24.050335 19228 net.cpp:105] Setting up inception_5a/pool_proj
I0509 22:09:24.051306 19228 net.cpp:112] Top shape: 32 128 7 7 (200704)
I0509 22:09:24.051323 19228 layer_factory.hpp:74] Creating layer inception_5a/relu_pool_proj
I0509 22:09:24.051331 19228 net.cpp:76] Creating Layer inception_5a/relu_pool_proj
I0509 22:09:24.051338 19228 net.cpp:372] inception_5a/relu_pool_proj <- inception_5a/pool_proj
I0509 22:09:24.051347 19228 net.cpp:323] inception_5a/relu_pool_proj -> inception_5a/pool_proj (in-place)
I0509 22:09:24.051357 19228 net.cpp:105] Setting up inception_5a/relu_pool_proj
I0509 22:09:24.051362 19228 net.cpp:112] Top shape: 32 128 7 7 (200704)
I0509 22:09:24.051367 19228 layer_factory.hpp:74] Creating layer inception_5a/output
I0509 22:09:24.051375 19228 net.cpp:76] Creating Layer inception_5a/output
I0509 22:09:24.051380 19228 net.cpp:372] inception_5a/output <- inception_5a/1x1
I0509 22:09:24.051388 19228 net.cpp:372] inception_5a/output <- inception_5a/3x3
I0509 22:09:24.051393 19228 net.cpp:372] inception_5a/output <- inception_5a/5x5
I0509 22:09:24.051412 19228 net.cpp:372] inception_5a/output <- inception_5a/pool_proj
I0509 22:09:24.051421 19228 net.cpp:334] inception_5a/output -> inception_5a/output
I0509 22:09:24.051430 19228 net.cpp:105] Setting up inception_5a/output
I0509 22:09:24.051436 19228 net.cpp:112] Top shape: 32 832 7 7 (1304576)
I0509 22:09:24.051442 19228 layer_factory.hpp:74] Creating layer inception_5a/output_inception_5a/output_0_split
I0509 22:09:24.051450 19228 net.cpp:76] Creating Layer inception_5a/output_inception_5a/output_0_split
I0509 22:09:24.051456 19228 net.cpp:372] inception_5a/output_inception_5a/output_0_split <- inception_5a/output
I0509 22:09:24.051466 19228 net.cpp:334] inception_5a/output_inception_5a/output_0_split -> inception_5a/output_inception_5a/output_0_split_0
I0509 22:09:24.051476 19228 net.cpp:334] inception_5a/output_inception_5a/output_0_split -> inception_5a/output_inception_5a/output_0_split_1
I0509 22:09:24.051486 19228 net.cpp:334] inception_5a/output_inception_5a/output_0_split -> inception_5a/output_inception_5a/output_0_split_2
I0509 22:09:24.051494 19228 net.cpp:334] inception_5a/output_inception_5a/output_0_split -> inception_5a/output_inception_5a/output_0_split_3
I0509 22:09:24.051502 19228 net.cpp:105] Setting up inception_5a/output_inception_5a/output_0_split
I0509 22:09:24.051509 19228 net.cpp:112] Top shape: 32 832 7 7 (1304576)
I0509 22:09:24.051514 19228 net.cpp:112] Top shape: 32 832 7 7 (1304576)
I0509 22:09:24.051519 19228 net.cpp:112] Top shape: 32 832 7 7 (1304576)
I0509 22:09:24.051524 19228 net.cpp:112] Top shape: 32 832 7 7 (1304576)
I0509 22:09:24.051530 19228 layer_factory.hpp:74] Creating layer inception_5b/1x1
I0509 22:09:24.051542 19228 net.cpp:76] Creating Layer inception_5b/1x1
I0509 22:09:24.051549 19228 net.cpp:372] inception_5b/1x1 <- inception_5a/output_inception_5a/output_0_split_0
I0509 22:09:24.051563 19228 net.cpp:334] inception_5b/1x1 -> inception_5b/1x1
I0509 22:09:24.051573 19228 net.cpp:105] Setting up inception_5b/1x1
I0509 22:09:24.054440 19228 net.cpp:112] Top shape: 32 384 7 7 (602112)
I0509 22:09:24.054455 19228 layer_factory.hpp:74] Creating layer inception_5b/relu_1x1
I0509 22:09:24.054463 19228 net.cpp:76] Creating Layer inception_5b/relu_1x1
I0509 22:09:24.054469 19228 net.cpp:372] inception_5b/relu_1x1 <- inception_5b/1x1
I0509 22:09:24.054477 19228 net.cpp:323] inception_5b/relu_1x1 -> inception_5b/1x1 (in-place)
I0509 22:09:24.054486 19228 net.cpp:105] Setting up inception_5b/relu_1x1
I0509 22:09:24.054491 19228 net.cpp:112] Top shape: 32 384 7 7 (602112)
I0509 22:09:24.054497 19228 layer_factory.hpp:74] Creating layer inception_5b/3x3_reduce
I0509 22:09:24.054507 19228 net.cpp:76] Creating Layer inception_5b/3x3_reduce
I0509 22:09:24.054513 19228 net.cpp:372] inception_5b/3x3_reduce <- inception_5a/output_inception_5a/output_0_split_1
I0509 22:09:24.054522 19228 net.cpp:334] inception_5b/3x3_reduce -> inception_5b/3x3_reduce
I0509 22:09:24.054533 19228 net.cpp:105] Setting up inception_5b/3x3_reduce
I0509 22:09:24.055867 19228 net.cpp:112] Top shape: 32 192 7 7 (301056)
I0509 22:09:24.055881 19228 layer_factory.hpp:74] Creating layer inception_5b/relu_3x3_reduce
I0509 22:09:24.055889 19228 net.cpp:76] Creating Layer inception_5b/relu_3x3_reduce
I0509 22:09:24.055896 19228 net.cpp:372] inception_5b/relu_3x3_reduce <- inception_5b/3x3_reduce
I0509 22:09:24.055905 19228 net.cpp:323] inception_5b/relu_3x3_reduce -> inception_5b/3x3_reduce (in-place)
I0509 22:09:24.055913 19228 net.cpp:105] Setting up inception_5b/relu_3x3_reduce
I0509 22:09:24.055919 19228 net.cpp:112] Top shape: 32 192 7 7 (301056)
I0509 22:09:24.055925 19228 layer_factory.hpp:74] Creating layer inception_5b/3x3
I0509 22:09:24.055933 19228 net.cpp:76] Creating Layer inception_5b/3x3
I0509 22:09:24.055939 19228 net.cpp:372] inception_5b/3x3 <- inception_5b/3x3_reduce
I0509 22:09:24.055949 19228 net.cpp:334] inception_5b/3x3 -> inception_5b/3x3
I0509 22:09:24.055958 19228 net.cpp:105] Setting up inception_5b/3x3
I0509 22:09:24.061928 19228 net.cpp:112] Top shape: 32 384 7 7 (602112)
I0509 22:09:24.061964 19228 layer_factory.hpp:74] Creating layer inception_5b/relu_3x3
I0509 22:09:24.061974 19228 net.cpp:76] Creating Layer inception_5b/relu_3x3
I0509 22:09:24.061980 19228 net.cpp:372] inception_5b/relu_3x3 <- inception_5b/3x3
I0509 22:09:24.061990 19228 net.cpp:323] inception_5b/relu_3x3 -> inception_5b/3x3 (in-place)
I0509 22:09:24.061998 19228 net.cpp:105] Setting up inception_5b/relu_3x3
I0509 22:09:24.062005 19228 net.cpp:112] Top shape: 32 384 7 7 (602112)
I0509 22:09:24.062010 19228 layer_factory.hpp:74] Creating layer inception_5b/5x5_reduce
I0509 22:09:24.062018 19228 net.cpp:76] Creating Layer inception_5b/5x5_reduce
I0509 22:09:24.062024 19228 net.cpp:372] inception_5b/5x5_reduce <- inception_5a/output_inception_5a/output_0_split_2
I0509 22:09:24.062036 19228 net.cpp:334] inception_5b/5x5_reduce -> inception_5b/5x5_reduce
I0509 22:09:24.062047 19228 net.cpp:105] Setting up inception_5b/5x5_reduce
I0509 22:09:24.062398 19228 net.cpp:112] Top shape: 32 48 7 7 (75264)
I0509 22:09:24.062412 19228 layer_factory.hpp:74] Creating layer inception_5b/relu_5x5_reduce
I0509 22:09:24.062423 19228 net.cpp:76] Creating Layer inception_5b/relu_5x5_reduce
I0509 22:09:24.062429 19228 net.cpp:372] inception_5b/relu_5x5_reduce <- inception_5b/5x5_reduce
I0509 22:09:24.062436 19228 net.cpp:323] inception_5b/relu_5x5_reduce -> inception_5b/5x5_reduce (in-place)
I0509 22:09:24.062444 19228 net.cpp:105] Setting up inception_5b/relu_5x5_reduce
I0509 22:09:24.062450 19228 net.cpp:112] Top shape: 32 48 7 7 (75264)
I0509 22:09:24.062455 19228 layer_factory.hpp:74] Creating layer inception_5b/5x5
I0509 22:09:24.062464 19228 net.cpp:76] Creating Layer inception_5b/5x5
I0509 22:09:24.062469 19228 net.cpp:372] inception_5b/5x5 <- inception_5b/5x5_reduce
I0509 22:09:24.062479 19228 net.cpp:334] inception_5b/5x5 -> inception_5b/5x5
I0509 22:09:24.062489 19228 net.cpp:105] Setting up inception_5b/5x5
I0509 22:09:24.063791 19228 net.cpp:112] Top shape: 32 128 7 7 (200704)
I0509 22:09:24.063805 19228 layer_factory.hpp:74] Creating layer inception_5b/relu_5x5
I0509 22:09:24.063814 19228 net.cpp:76] Creating Layer inception_5b/relu_5x5
I0509 22:09:24.063820 19228 net.cpp:372] inception_5b/relu_5x5 <- inception_5b/5x5
I0509 22:09:24.063827 19228 net.cpp:323] inception_5b/relu_5x5 -> inception_5b/5x5 (in-place)
I0509 22:09:24.063835 19228 net.cpp:105] Setting up inception_5b/relu_5x5
I0509 22:09:24.063840 19228 net.cpp:112] Top shape: 32 128 7 7 (200704)
I0509 22:09:24.063846 19228 layer_factory.hpp:74] Creating layer inception_5b/pool
I0509 22:09:24.063853 19228 net.cpp:76] Creating Layer inception_5b/pool
I0509 22:09:24.063859 19228 net.cpp:372] inception_5b/pool <- inception_5a/output_inception_5a/output_0_split_3
I0509 22:09:24.063870 19228 net.cpp:334] inception_5b/pool -> inception_5b/pool
I0509 22:09:24.063879 19228 net.cpp:105] Setting up inception_5b/pool
I0509 22:09:24.063885 19228 net.cpp:112] Top shape: 32 832 7 7 (1304576)
I0509 22:09:24.063891 19228 layer_factory.hpp:74] Creating layer inception_5b/pool_proj
I0509 22:09:24.063900 19228 net.cpp:76] Creating Layer inception_5b/pool_proj
I0509 22:09:24.063909 19228 net.cpp:372] inception_5b/pool_proj <- inception_5b/pool
I0509 22:09:24.063916 19228 net.cpp:334] inception_5b/pool_proj -> inception_5b/pool_proj
I0509 22:09:24.063925 19228 net.cpp:105] Setting up inception_5b/pool_proj
I0509 22:09:24.064827 19228 net.cpp:112] Top shape: 32 128 7 7 (200704)
I0509 22:09:24.064842 19228 layer_factory.hpp:74] Creating layer inception_5b/relu_pool_proj
I0509 22:09:24.064852 19228 net.cpp:76] Creating Layer inception_5b/relu_pool_proj
I0509 22:09:24.064858 19228 net.cpp:372] inception_5b/relu_pool_proj <- inception_5b/pool_proj
I0509 22:09:24.064867 19228 net.cpp:323] inception_5b/relu_pool_proj -> inception_5b/pool_proj (in-place)
I0509 22:09:24.064874 19228 net.cpp:105] Setting up inception_5b/relu_pool_proj
I0509 22:09:24.064879 19228 net.cpp:112] Top shape: 32 128 7 7 (200704)
I0509 22:09:24.064884 19228 layer_factory.hpp:74] Creating layer inception_5b/output
I0509 22:09:24.064908 19228 net.cpp:76] Creating Layer inception_5b/output
I0509 22:09:24.064915 19228 net.cpp:372] inception_5b/output <- inception_5b/1x1
I0509 22:09:24.064923 19228 net.cpp:372] inception_5b/output <- inception_5b/3x3
I0509 22:09:24.064929 19228 net.cpp:372] inception_5b/output <- inception_5b/5x5
I0509 22:09:24.064934 19228 net.cpp:372] inception_5b/output <- inception_5b/pool_proj
I0509 22:09:24.064941 19228 net.cpp:334] inception_5b/output -> inception_5b/output
I0509 22:09:24.064950 19228 net.cpp:105] Setting up inception_5b/output
I0509 22:09:24.064956 19228 net.cpp:112] Top shape: 32 1024 7 7 (1605632)
I0509 22:09:24.064962 19228 layer_factory.hpp:74] Creating layer pool5/7x7_s1
I0509 22:09:24.064970 19228 net.cpp:76] Creating Layer pool5/7x7_s1
I0509 22:09:24.064975 19228 net.cpp:372] pool5/7x7_s1 <- inception_5b/output
I0509 22:09:24.064983 19228 net.cpp:334] pool5/7x7_s1 -> pool5/7x7_s1
I0509 22:09:24.064990 19228 net.cpp:105] Setting up pool5/7x7_s1
I0509 22:09:24.064997 19228 net.cpp:112] Top shape: 32 1024 1 1 (32768)
I0509 22:09:24.065003 19228 layer_factory.hpp:74] Creating layer pool5/drop_7x7_s1
I0509 22:09:24.065014 19228 net.cpp:76] Creating Layer pool5/drop_7x7_s1
I0509 22:09:24.065021 19228 net.cpp:372] pool5/drop_7x7_s1 <- pool5/7x7_s1
I0509 22:09:24.065027 19228 net.cpp:323] pool5/drop_7x7_s1 -> pool5/7x7_s1 (in-place)
I0509 22:09:24.065035 19228 net.cpp:105] Setting up pool5/drop_7x7_s1
I0509 22:09:24.065042 19228 net.cpp:112] Top shape: 32 1024 1 1 (32768)
I0509 22:09:24.065047 19228 layer_factory.hpp:74] Creating layer loss3/classifier
I0509 22:09:24.065059 19228 net.cpp:76] Creating Layer loss3/classifier
I0509 22:09:24.065065 19228 net.cpp:372] loss3/classifier <- pool5/7x7_s1
I0509 22:09:24.065073 19228 net.cpp:334] loss3/classifier -> loss3/classifier
I0509 22:09:24.065083 19228 net.cpp:105] Setting up loss3/classifier
I0509 22:09:24.065115 19228 net.cpp:112] Top shape: 32 2 1 1 (64)
I0509 22:09:24.065125 19228 layer_factory.hpp:74] Creating layer loss3/classifier_loss3/classifier_0_split
I0509 22:09:24.065135 19228 net.cpp:76] Creating Layer loss3/classifier_loss3/classifier_0_split
I0509 22:09:24.065141 19228 net.cpp:372] loss3/classifier_loss3/classifier_0_split <- loss3/classifier
I0509 22:09:24.065150 19228 net.cpp:334] loss3/classifier_loss3/classifier_0_split -> loss3/classifier_loss3/classifier_0_split_0
I0509 22:09:24.065158 19228 net.cpp:334] loss3/classifier_loss3/classifier_0_split -> loss3/classifier_loss3/classifier_0_split_1
I0509 22:09:24.065167 19228 net.cpp:105] Setting up loss3/classifier_loss3/classifier_0_split
I0509 22:09:24.065173 19228 net.cpp:112] Top shape: 32 2 1 1 (64)
I0509 22:09:24.065201 19228 net.cpp:112] Top shape: 32 2 1 1 (64)
I0509 22:09:24.065208 19228 layer_factory.hpp:74] Creating layer loss3/loss3
I0509 22:09:24.065220 19228 net.cpp:76] Creating Layer loss3/loss3
I0509 22:09:24.065228 19228 net.cpp:372] loss3/loss3 <- loss3/classifier_loss3/classifier_0_split_0
I0509 22:09:24.065237 19228 net.cpp:372] loss3/loss3 <- label_data_1_split_4
I0509 22:09:24.065244 19228 net.cpp:334] loss3/loss3 -> loss3/loss3
I0509 22:09:24.065253 19228 net.cpp:105] Setting up loss3/loss3
I0509 22:09:24.065260 19228 layer_factory.hpp:74] Creating layer loss3/loss3
I0509 22:09:24.065289 19228 net.cpp:112] Top shape: 1 1 1 1 (1)
I0509 22:09:24.065295 19228 net.cpp:118]     with loss weight 1
I0509 22:09:24.065312 19228 layer_factory.hpp:74] Creating layer loss3/top-1
I0509 22:09:24.065321 19228 net.cpp:76] Creating Layer loss3/top-1
I0509 22:09:24.065327 19228 net.cpp:372] loss3/top-1 <- loss3/classifier_loss3/classifier_0_split_1
I0509 22:09:24.065335 19228 net.cpp:372] loss3/top-1 <- label_data_1_split_5
I0509 22:09:24.065345 19228 net.cpp:334] loss3/top-1 -> loss3/top-1
I0509 22:09:24.065353 19228 net.cpp:105] Setting up loss3/top-1
I0509 22:09:24.065359 19228 net.cpp:112] Top shape: 1 1 1 1 (1)
I0509 22:09:24.065366 19228 net.cpp:165] loss3/top-1 does not need backward computation.
I0509 22:09:24.065371 19228 net.cpp:163] loss3/loss3 needs backward computation.
I0509 22:09:24.065387 19228 net.cpp:163] loss3/classifier_loss3/classifier_0_split needs backward computation.
I0509 22:09:24.065393 19228 net.cpp:163] loss3/classifier needs backward computation.
I0509 22:09:24.065399 19228 net.cpp:163] pool5/drop_7x7_s1 needs backward computation.
…
