…
I0509 22:29:24.068634 20520 caffe.cpp:134] Use GPU with device ID 0
I0509 22:29:24.464190 20520 net.cpp:253] The NetState phase (1) differed from the phase (0) specified by a rule in layer data
I0509 22:29:24.465935 20520 net.cpp:42] Initializing net from parameters: 
name: "GoogleNet"
state {
  phase: TEST
}
layer {
  name: "data"
  type: "Data"
  top: "data"
  top: "label"
  include {
    phase: TEST
  }
  transform_param {
    mirror: false
    crop_size: 224
    mean_value: 104
    mean_value: 117
    mean_value: 123
  }
  data_param {
    source: "val_lmdb"
    batch_size: 32
    backend: LMDB
  }
}
layer {
  name: "conv1/7x7_s2"
  type: "Convolution"
  bottom: "data"
  top: "conv1/7x7_s2"
  param {
    lr_mult: 1
    decay_mult: 1
  }
  param {
    lr_mult: 2
    decay_mult: 0
  }
  convolution_param {
    num_output: 64
    pad: 3
    kernel_size: 7
    stride: 2
    weight_filler {
      type: "xavier"
      std: 0.1
    }
    bias_filler {
      type: "constant"
      value: 0.2
    }
  }
}
layer {
  name: "conv1/relu_7x7"
  type: "ReLU"
  bottom: "conv1/7x7_s2"
  top: "conv1/7x7_s2"
}
layer {
  name: "pool1/3x3_s2"
  type: "Pooling"
  bottom: "conv1/7x7_s2"
  top: "pool1/3x3_s2"
  pooling_param {
    pool: MAX
    kernel_size: 3
    stride: 2
  }
}
layer {
  name: "pool1/norm1"
  type: "LRN"
  bottom: "pool1/3x3_s2"
  top: "pool1/norm1"
  lrn_param {
    local_size: 5
    alpha: 0.0001
    beta: 0.75
  }
}
layer {
  name: "conv2/3x3_reduce"
  type: "Convolution"
  bottom: "pool1/norm1"
  top: "conv2/3x3_reduce"
  param {
    lr_mult: 1
    decay_mult: 1
  }
  param {
    lr_mult: 2
    decay_mult: 0
  }
  convolution_param {
    num_output: 64
    kernel_size: 1
    weight_filler {
      type: "xavier"
      std: 0.1
    }
    bias_filler {
      type: "constant"
      value: 0.2
    }
  }
}
layer {
  name: "conv2/relu_3x3_reduce"
  type: "ReLU"
  bottom: "conv2/3x3_reduce"
  top: "conv2/3x3_reduce"
}
layer {
  name: "conv2/3x3"
  type: "Convolution"
  bottom: "conv2/3x3_reduce"
  top: "conv2/3x3"
  param {
    lr_mult: 1
    decay_mult: 1
  }
  param {
    lr_mult: 2
    decay_mult: 0
  }
  convolution_param {
    num_output: 192
    pad: 1
    kernel_size: 3
    weight_filler {
      type: "xavier"
      std: 0.03
    }
    bias_filler {
      type: "constant"
      value: 0.2
    }
  }
}
layer {
  name: "conv2/relu_3x3"
  type: "ReLU"
  bottom: "conv2/3x3"
  top: "conv2/3x3"
}
layer {
  name: "conv2/norm2"
  type: "LRN"
  bottom: "conv2/3x3"
  top: "conv2/norm2"
  lrn_param {
    local_size: 5
    alpha: 0.0001
    beta: 0.75
  }
}
layer {
  name: "pool2/3x3_s2"
  type: "Pooling"
  bottom: "conv2/norm2"
  top: "pool2/3x3_s2"
  pooling_param {
    pool: MAX
    kernel_size: 3
    stride: 2
  }
}
layer {
  name: "inception_3a/1x1"
  type: "Convolution"
  bottom: "pool2/3x3_s2"
  top: "inception_3a/1x1"
  param {
    lr_mult: 1
    decay_mult: 1
  }
  param {
    lr_mult: 2
    decay_mult: 0
  }
  convolution_param {
    num_output: 64
    kernel_size: 1
    weight_filler {
      type: "xavier"
      std: 0.03
    }
    bias_filler {
      type: "constant"
      value: 0.2
    }
  }
}
layer {
  name: "inception_3a/relu_1x1"
  type: "ReLU"
  bottom: "inception_3a/1x1"
  top: "inception_3a/1x1"
}
layer {
  name: "inception_3a/3x3_reduce"
  type: "Convolution"
  bottom: "pool2/3x3_s2"
  top: "inception_3a/3x3_reduce"
  param {
    lr_mult: 1
    decay_mult: 1
  }
  param {
    lr_mult: 2
    decay_mult: 0
  }
  convolution_param {
    num_output: 96
    kernel_size: 1
    weight_filler {
      type: "xavier"
      std: 0.09
    }
    bias_filler {
      type: "constant"
      value: 0.2
    }
  }
}
layer {
  name: "inception_3a/relu_3x3_reduce"
  type: "ReLU"
  bottom: "inception_3a/3x3_reduce"
  top: "inception_3a/3x3_reduce"
}
layer {
  name: "inception_3a/3x3"
  type: "Convolution"
  bottom: "inception_3a/3x3_reduce"
  top: "inception_3a/3x3"
  param {
    lr_mult: 1
    decay_mult: 1
  }
  param {
    lr_mult: 2
    decay_mult: 0
  }
  convolution_param {
    num_output: 128
    pad: 1
    kernel_size: 3
    weight_filler {
      type: "xavier"
      std: 0.03
    }
    bias_filler {
      type: "constant"
      value: 0.2
    }
  }
}
layer {
  name: "inception_3a/relu_3x3"
  type: "ReLU"
  bottom: "inception_3a/3x3"
  top: "inception_3a/3x3"
}
layer {
  name: "inception_3a/5x5_reduce"
  type: "Convolution"
  bottom: "pool2/3x3_s2"
  top: "inception_3a/5x5_reduce"
  param {
    lr_mult: 1
    decay_mult: 1
  }
  param {
    lr_mult: 2
    decay_mult: 0
  }
  convolution_param {
    num_output: 16
    kernel_size: 1
    weight_filler {
      type: "xavier"
      std: 0.2
    }
    bias_filler {
      type: "constant"
      value: 0.2
    }
  }
}
layer {
  name: "inception_3a/relu_5x5_reduce"
  type: "ReLU"
  bottom: "inception_3a/5x5_reduce"
  top: "inception_3a/5x5_reduce"
}
layer {
  name: "inception_3a/5x5"
  type: "Convolution"
  bottom: "inception_3a/5x5_reduce"
  top: "inception_3a/5x5"
  param {
    lr_mult: 1
    decay_mult: 1
  }
  param {
    lr_mult: 2
    decay_mult: 0
  }
  convolution_param {
    num_output: 32
    pad: 2
    kernel_size: 5
    weight_filler {
      type: "xavier"
      std: 0.03
    }
    bias_filler {
      type: "constant"
      value: 0.2
    }
  }
}
layer {
  name: "inception_3a/relu_5x5"
  type: "ReLU"
  bottom: "inception_3a/5x5"
  top: "inception_3a/5x5"
}
layer {
  name: "inception_3a/pool"
  type: "Pooling"
  bottom: "pool2/3x3_s2"
  top: "inception_3a/pool"
  pooling_param {
    pool: MAX
    kernel_size: 3
    stride: 1
    pad: 1
  }
}
layer {
  name: "inception_3a/pool_proj"
  type: "Convolution"
  bottom: "inception_3a/pool"
  top: "inception_3a/pool_proj"
  param {
    lr_mult: 1
    decay_mult: 1
  }
  param {
    lr_mult: 2
    decay_mult: 0
  }
  convolution_param {
    num_output: 32
    kernel_size: 1
    weight_filler {
      type: "xavier"
      std: 0.1
    }
    bias_filler {
      type: "constant"
      value: 0.2
    }
  }
}
layer {
  name: "inception_3a/relu_pool_proj"
  type: "ReLU"
  bottom: "inception_3a/pool_proj"
  top: "inception_3a/pool_proj"
}
layer {
  name: "inception_3a/output"
  type: "Concat"
  bottom: "inception_3a/1x1"
  bottom: "inception_3a/3x3"
  bottom: "inception_3a/5x5"
  bottom: "inception_3a/pool_proj"
  top: "inception_3a/output"
}
layer {
  name: "inception_3b/1x1"
  type: "Convolution"
  bottom: "inception_3a/output"
  top: "inception_3b/1x1"
  param {
    lr_mult: 1
    decay_mult: 1
  }
  param {
    lr_mult: 2
    decay_mult: 0
  }
  convolution_param {
    num_output: 128
    kernel_size: 1
    weight_filler {
      type: "xavier"
      std: 0.03
    }
    bias_filler {
      type: "constant"
      value: 0.2
    }
  }
}
layer {
  name: "inception_3b/relu_1x1"
  type: "ReLU"
  bottom: "inception_3b/1x1"
  top: "inception_3b/1x1"
}
layer {
  name: "inception_3b/3x3_reduce"
  type: "Convolution"
  bottom: "inception_3a/output"
  top: "inception_3b/3x3_reduce"
  param {
    lr_mult: 1
    decay_mult: 1
  }
  param {
    lr_mult: 2
    decay_mult: 0
  }
  convolution_param {
    num_output: 128
    kernel_size: 1
    weight_filler {
      type: "xavier"
      std: 0.09
    }
    bias_filler {
      type: "constant"
      value: 0.2
    }
  }
}
layer {
  name: "inception_3b/relu_3x3_reduce"
  type: "ReLU"
  bottom: "inception_3b/3x3_reduce"
  top: "inception_3b/3x3_reduce"
}
layer {
  name: "inception_3b/3x3"
  type: "Convolution"
  bottom: "inception_3b/3x3_reduce"
  top: "inception_3b/3x3"
  param {
    lr_mult: 1
    decay_mult: 1
  }
  param {
    lr_mult: 2
    decay_mult: 0
  }
  convolution_param {
    num_output: 192
    pad: 1
    kernel_size: 3
    weight_filler {
      type: "xavier"
      std: 0.03
    }
    bias_filler {
      type: "constant"
      value: 0.2
    }
  }
}
layer {
  name: "inception_3b/relu_3x3"
  type: "ReLU"
  bottom: "inception_3b/3x3"
  top: "inception_3b/3x3"
}
layer {
  name: "inception_3b/5x5_reduce"
  type: "Convolution"
  bottom: "inception_3a/output"
  top: "inception_3b/5x5_reduce"
  param {
    lr_mult: 1
    decay_mult: 1
  }
  param {
    lr_mult: 2
    decay_mult: 0
  }
  convolution_param {
    num_output: 32
    kernel_size: 1
    weight_filler {
      type: "xavier"
      std: 0.2
    }
    bias_filler {
      type: "constant"
      value: 0.2
    }
  }
}
layer {
  name: "inception_3b/relu_5x5_reduce"
  type: "ReLU"
  bottom: "inception_3b/5x5_reduce"
  top: "inception_3b/5x5_reduce"
}
layer {
  name: "inception_3b/5x5"
  type: "Convolution"
  bottom: "inception_3b/5x5_reduce"
  top: "inception_3b/5x5"
  param {
    lr_mult: 1
    decay_mult: 1
  }
  param {
    lr_mult: 2
    decay_mult: 0
  }
  convolution_param {
    num_output: 96
    pad: 2
    kernel_size: 5
    weight_filler {
      type: "xavier"
      std: 0.03
    }
    bias_filler {
      type: "constant"
      value: 0.2
    }
  }
}
layer {
  name: "inception_3b/relu_5x5"
  type: "ReLU"
  bottom: "inception_3b/5x5"
  top: "inception_3b/5x5"
}
layer {
  name: "inception_3b/pool"
  type: "Pooling"
  bottom: "inception_3a/output"
  top: "inception_3b/pool"
  pooling_param {
    pool: MAX
    kernel_size: 3
    stride: 1
    pad: 1
  }
}
layer {
  name: "inception_3b/pool_proj"
  type: "Convolution"
  bottom: "inception_3b/pool"
  top: "inception_3b/pool_proj"
  param {
    lr_mult: 1
    decay_mult: 1
  }
  param {
    lr_mult: 2
    decay_mult: 0
  }
  convolution_param {
    num_output: 64
    kernel_size: 1
    weight_filler {
      type: "xavier"
      std: 0.1
    }
    bias_filler {
      type: "constant"
      value: 0.2
    }
  }
}
layer {
  name: "inception_3b/relu_pool_proj"
  type: "ReLU"
  bottom: "inception_3b/pool_proj"
  top: "inception_3b/pool_proj"
}
layer {
  name: "inception_3b/output"
  type: "Concat"
  bottom: "inception_3b/1x1"
  bottom: "inception_3b/3x3"
  bottom: "inception_3b/5x5"
  bottom: "inception_3b/pool_proj"
  top: "inception_3b/output"
}
layer {
  name: "pool3/3x3_s2"
  type: "Pooling"
  bottom: "inception_3b/output"
  top: "pool3/3x3_s2"
  pooling_param {
    pool: MAX
    kernel_size: 3
    stride: 2
  }
}
layer {
  name: "inception_4a/1x1"
  type: "Convolution"
  bottom: "pool3/3x3_s2"
  top: "inception_4a/1x1"
  param {
    lr_mult: 1
    decay_mult: 1
  }
  param {
    lr_mult: 2
    decay_mult: 0
  }
  convolution_param {
    num_output: 192
    kernel_size: 1
    weight_filler {
      type: "xavier"
      std: 0.03
    }
    bias_filler {
      type: "constant"
      value: 0.2
    }
  }
}
layer {
  name: "inception_4a/relu_1x1"
  type: "ReLU"
  bottom: "inception_4a/1x1"
  top: "inception_4a/1x1"
}
layer {
  name: "inception_4a/3x3_reduce"
  type: "Convolution"
  bottom: "pool3/3x3_s2"
  top: "inception_4a/3x3_reduce"
  param {
    lr_mult: 1
    decay_mult: 1
  }
  param {
    lr_mult: 2
    decay_mult: 0
  }
  convolution_param {
    num_output: 96
    kernel_size: 1
    weight_filler {
      type: "xavier"
      std: 0.09
    }
    bias_filler {
      type: "constant"
      value: 0.2
    }
  }
}
layer {
  name: "inception_4a/relu_3x3_reduce"
  type: "ReLU"
  bottom: "inception_4a/3x3_reduce"
  top: "inception_4a/3x3_reduce"
}
layer {
  name: "inception_4a/3x3"
  type: "Convolution"
  bottom: "inception_4a/3x3_reduce"
  top: "inception_4a/3x3"
  param {
    lr_mult: 1
    decay_mult: 1
  }
  param {
    lr_mult: 2
    decay_mult: 0
  }
  convolution_param {
    num_output: 208
    pad: 1
    kernel_size: 3
    weight_filler {
      type: "xavier"
      std: 0.03
    }
    bias_filler {
      type: "constant"
      value: 0.2
    }
  }
}
layer {
  name: "inception_4a/relu_3x3"
  type: "ReLU"
  bottom: "inception_4a/3x3"
  top: "inception_4a/3x3"
}
layer {
  name: "inception_4a/5x5_reduce"
  type: "Convolution"
  bottom: "pool3/3x3_s2"
  top: "inception_4a/5x5_reduce"
  param {
    lr_mult: 1
    decay_mult: 1
  }
  param {
    lr_mult: 2
    decay_mult: 0
  }
  convolution_param {
    num_output: 16
    kernel_size: 1
    weight_filler {
      type: "xavier"
      std: 0.2
    }
    bias_filler {
      type: "constant"
      value: 0.2
    }
  }
}
layer {
  name: "inception_4a/relu_5x5_reduce"
  type: "ReLU"
  bottom: "inception_4a/5x5_reduce"
  top: "inception_4a/5x5_reduce"
}
layer {
  name: "inception_4a/5x5"
  type: "Convolution"
  bottom: "inception_4a/5x5_reduce"
  top: "inception_4a/5x5"
  param {
    lr_mult: 1
    decay_mult: 1
  }
  param {
    lr_mult: 2
    decay_mult: 0
  }
  convolution_param {
    num_output: 48
    pad: 2
    kernel_size: 5
    weight_filler {
      type: "xavier"
      std: 0.03
    }
    bias_filler {
      type: "constant"
      value: 0.2
    }
  }
}
layer {
  name: "inception_4a/relu_5x5"
  type: "ReLU"
  bottom: "inception_4a/5x5"
  top: "inception_4a/5x5"
}
layer {
  name: "inception_4a/pool"
  type: "Pooling"
  bottom: "pool3/3x3_s2"
  top: "inception_4a/pool"
  pooling_param {
    pool: MAX
    kernel_size: 3
    stride: 1
    pad: 1
  }
}
layer {
  name: "inception_4a/pool_proj"
  type: "Convolution"
  bottom: "inception_4a/pool"
  top: "inception_4a/pool_proj"
  param {
    lr_mult: 1
    decay_mult: 1
  }
  param {
    lr_mult: 2
    decay_mult: 0
  }
  convolution_param {
    num_output: 64
    kernel_size: 1
    weight_filler {
      type: "xavier"
      std: 0.1
    }
    bias_filler {
      type: "constant"
      value: 0.2
    }
  }
}
layer {
  name: "inception_4a/relu_pool_proj"
  type: "ReLU"
  bottom: "inception_4a/pool_proj"
  top: "inception_4a/pool_proj"
}
layer {
  name: "inception_4a/output"
  type: "Concat"
  bottom: "inception_4a/1x1"
  bottom: "inception_4a/3x3"
  bottom: "inception_4a/5x5"
  bottom: "inception_4a/pool_proj"
  top: "inception_4a/output"
}
layer {
  name: "loss1/ave_pool"
  type: "Pooling"
  bottom: "inception_4a/output"
  top: "loss1/ave_pool"
  pooling_param {
    pool: AVE
    kernel_size: 5
    stride: 3
  }
}
layer {
  name: "loss1/conv"
  type: "Convolution"
  bottom: "loss1/ave_pool"
  top: "loss1/conv"
  param {
    lr_mult: 1
    decay_mult: 1
  }
  param {
    lr_mult: 2
    decay_mult: 0
  }
  convolution_param {
    num_output: 128
    kernel_size: 1
    weight_filler {
      type: "xavier"
      std: 0.08
    }
    bias_filler {
      type: "constant"
      value: 0.2
    }
  }
}
layer {
  name: "loss1/relu_conv"
  type: "ReLU"
  bottom: "loss1/conv"
  top: "loss1/conv"
}
layer {
  name: "loss1/fc"
  type: "InnerProduct"
  bottom: "loss1/conv"
  top: "loss1/fc"
  param {
    lr_mult: 1
    decay_mult: 1
  }
  param {
    lr_mult: 2
    decay_mult: 0
  }
  inner_product_param {
    num_output: 1024
    weight_filler {
      type: "xavier"
      std: 0.02
    }
    bias_filler {
      type: "constant"
      value: 0.2
    }
  }
}
layer {
  name: "loss1/relu_fc"
  type: "ReLU"
  bottom: "loss1/fc"
  top: "loss1/fc"
}
layer {
  name: "loss1/drop_fc"
  type: "Dropout"
  bottom: "loss1/fc"
  top: "loss1/fc"
  dropout_param {
    dropout_ratio: 0.7
  }
}
layer {
  name: "loss1/classifier"
  type: "InnerProduct"
  bottom: "loss1/fc"
  top: "loss1/classifier"
  param {
    lr_mult: 1
    decay_mult: 1
  }
  param {
    lr_mult: 2
    decay_mult: 0
  }
  inner_product_param {
    num_output: 2
    weight_filler {
      type: "xavier"
      std: 0.0009765625
    }
    bias_filler {
      type: "constant"
      value: 0
    }
  }
}
layer {
  name: "loss1/loss"
  type: "SoftmaxWithLoss"
  bottom: "loss1/classifier"
  bottom: "label"
  top: "loss1/loss1"
  loss_weight: 0.3
}
layer {
  name: "loss1/top-1"
  type: "Accuracy"
  bottom: "loss1/classifier"
  bottom: "label"
  top: "loss1/top-1"
  include {
    phase: TEST
  }
}
layer {
  name: "inception_4b/1x1"
  type: "Convolution"
  bottom: "inception_4a/output"
  top: "inception_4b/1x1"
  param {
    lr_mult: 1
    decay_mult: 1
  }
  param {
    lr_mult: 2
    decay_mult: 0
  }
  convolution_param {
    num_output: 160
    kernel_size: 1
    weight_filler {
      type: "xavier"
      std: 0.03
    }
    bias_filler {
      type: "constant"
      value: 0.2
    }
  }
}
layer {
  name: "inception_4b/relu_1x1"
  type: "ReLU"
  bottom: "inception_4b/1x1"
  top: "inception_4b/1x1"
}
layer {
  name: "inception_4b/3x3_reduce"
  type: "Convolution"
  bottom: "inception_4a/output"
  top: "inception_4b/3x3_reduce"
  param {
    lr_mult: 1
    decay_mult: 1
  }
  param {
    lr_mult: 2
    decay_mult: 0
  }
  convolution_param {
    num_output: 112
    kernel_size: 1
    weight_filler {
      type: "xavier"
      std: 0.09
    }
    bias_filler {
      type: "constant"
      value: 0.2
    }
  }
}
layer {
  name: "inception_4b/relu_3x3_reduce"
  type: "ReLU"
  bottom: "inception_4b/3x3_reduce"
  top: "inception_4b/3x3_reduce"
}
layer {
  name: "inception_4b/3x3"
  type: "Convolution"
  bottom: "inception_4b/3x3_reduce"
  top: "inception_4b/3x3"
  param {
    lr_mult: 1
    decay_mult: 1
  }
  param {
    lr_mult: 2
    decay_mult: 0
  }
  convolution_param {
    num_output: 224
    pad: 1
    kernel_size: 3
    weight_filler {
      type: "xavier"
      std: 0.03
    }
    bias_filler {
      type: "constant"
      value: 0.2
    }
  }
}
layer {
  name: "inception_4b/relu_3x3"
  type: "ReLU"
  bottom: "inception_4b/3x3"
  top: "inception_4b/3x3"
}
layer {
  name: "inception_4b/5x5_reduce"
  type: "Convolution"
  bottom: "inception_4a/output"
  top: "inception_4b/5x5_reduce"
  param {
    lr_mult: 1
    decay_mult: 1
  }
  param {
    lr_mult: 2
    decay_mult: 0
  }
  convolution_param {
    num_output: 24
    kernel_size: 1
    weight_filler {
      type: "xavier"
      std: 0.2
    }
    bias_filler {
      type: "constant"
      value: 0.2
    }
  }
}
layer {
  name: "inception_4b/relu_5x5_reduce"
  type: "ReLU"
  bottom: "inception_4b/5x5_reduce"
  top: "inception_4b/5x5_reduce"
}
layer {
  name: "inception_4b/5x5"
  type: "Convolution"
  bottom: "inception_4b/5x5_reduce"
  top: "inception_4b/5x5"
  param {
    lr_mult: 1
    decay_mult: 1
  }
  param {
    lr_mult: 2
    decay_mult: 0
  }
  convolution_param {
    num_output: 64
    pad: 2
    kernel_size: 5
    weight_filler {
      type: "xavier"
      std: 0.03
    }
    bias_filler {
      type: "constant"
      value: 0.2
    }
  }
}
layer {
  name: "inception_4b/relu_5x5"
  type: "ReLU"
  bottom: "inception_4b/5x5"
  top: "inception_4b/5x5"
}
layer {
  name: "inception_4b/pool"
  type: "Pooling"
  bottom: "inception_4a/output"
  top: "inception_4b/pool"
  pooling_param {
    pool: MAX
    kernel_size: 3
    stride: 1
    pad: 1
  }
}
layer {
  name: "inception_4b/pool_proj"
  type: "Convolution"
  bottom: "inception_4b/pool"
  top: "inception_4b/pool_proj"
  param {
    lr_mult: 1
    decay_mult: 1
  }
  param {
    lr_mult: 2
    decay_mult: 0
  }
  convolution_param {
    num_output: 64
    kernel_size: 1
    weight_filler {
      type: "xavier"
      std: 0.1
    }
    bias_filler {
      type: "constant"
      value: 0.2
    }
  }
}
layer {
  name: "inception_4b/relu_pool_proj"
  type: "ReLU"
  bottom: "inception_4b/pool_proj"
  top: "inception_4b/pool_proj"
}
layer {
  name: "inception_4b/output"
  type: "Concat"
  bottom: "inception_4b/1x1"
  bottom: "inception_4b/3x3"
  bottom: "inception_4b/5x5"
  bottom: "inception_4b/pool_proj"
  top: "inception_4b/output"
}
layer {
  name: "inception_4c/1x1"
  type: "Convolution"
  bottom: "inception_4b/output"
  top: "inception_4c/1x1"
  param {
    lr_mult: 1
    decay_mult: 1
  }
  param {
    lr_mult: 2
    decay_mult: 0
  }
  convolution_param {
    num_output: 128
    kernel_size: 1
    weight_filler {
      type: "xavier"
      std: 0.03
    }
    bias_filler {
      type: "constant"
      value: 0.2
    }
  }
}
layer {
  name: "inception_4c/relu_1x1"
  type: "ReLU"
  bottom: "inception_4c/1x1"
  top: "inception_4c/1x1"
}
layer {
  name: "inception_4c/3x3_reduce"
  type: "Convolution"
  bottom: "inception_4b/output"
  top: "inception_4c/3x3_reduce"
  param {
    lr_mult: 1
    decay_mult: 1
  }
  param {
    lr_mult: 2
    decay_mult: 0
  }
  convolution_param {
    num_output: 128
    kernel_size: 1
    weight_filler {
      type: "xavier"
      std: 0.09
    }
    bias_filler {
      type: "constant"
      value: 0.2
    }
  }
}
layer {
  name: "inception_4c/relu_3x3_reduce"
  type: "ReLU"
  bottom: "inception_4c/3x3_reduce"
  top: "inception_4c/3x3_reduce"
}
layer {
  name: "inception_4c/3x3"
  type: "Convolution"
  bottom: "inception_4c/3x3_reduce"
  top: "inception_4c/3x3"
  param {
    lr_mult: 1
    decay_mult: 1
  }
  param {
    lr_mult: 2
    decay_mult: 0
  }
  convolution_param {
    num_output: 256
    pad: 1
    kernel_size: 3
    weight_filler {
      type: "xavier"
      std: 0.03
    }
    bias_filler {
      type: "constant"
      value: 0.2
    }
  }
}
layer {
  name: "inception_4c/relu_3x3"
  type: "ReLU"
  bottom: "inception_4c/3x3"
  top: "inception_4c/3x3"
}
layer {
  name: "inception_4c/5x5_reduce"
  type: "Convolution"
  bottom: "inception_4b/output"
  top: "inception_4c/5x5_reduce"
  param {
    lr_mult: 1
    decay_mult: 1
  }
  param {
    lr_mult: 2
    decay_mult: 0
  }
  convolution_param {
    num_output: 24
    kernel_size: 1
    weight_filler {
      type: "xavier"
      std: 0.2
    }
    bias_filler {
      type: "constant"
      value: 0.2
    }
  }
}
layer {
  name: "inception_4c/relu_5x5_reduce"
  type: "ReLU"
  bottom: "inception_4c/5x5_reduce"
  top: "inception_4c/5x5_reduce"
}
layer {
  name: "inception_4c/5x5"
  type: "Convolution"
  bottom: "inception_4c/5x5_reduce"
  top: "inception_4c/5x5"
  param {
    lr_mult: 1
    decay_mult: 1
  }
  param {
    lr_mult: 2
    decay_mult: 0
  }
  convolution_param {
    num_output: 64
    pad: 2
    kernel_size: 5
    weight_filler {
      type: "xavier"
      std: 0.03
    }
    bias_filler {
      type: "constant"
      value: 0.2
    }
  }
}
layer {
  name: "inception_4c/relu_5x5"
  type: "ReLU"
  bottom: "inception_4c/5x5"
  top: "inception_4c/5x5"
}
layer {
  name: "inception_4c/pool"
  type: "Pooling"
  bottom: "inception_4b/output"
  top: "inception_4c/pool"
  pooling_param {
    pool: MAX
    kernel_size: 3
    stride: 1
    pad: 1
  }
}
layer {
  name: "inception_4c/pool_proj"
  type: "Convolution"
  bottom: "inception_4c/pool"
  top: "inception_4c/pool_proj"
  param {
    lr_mult: 1
    decay_mult: 1
  }
  param {
    lr_mult: 2
    decay_mult: 0
  }
  convolution_param {
    num_output: 64
    kernel_size: 1
    weight_filler {
      type: "xavier"
      std: 0.1
    }
    bias_filler {
      type: "constant"
      value: 0.2
    }
  }
}
layer {
  name: "inception_4c/relu_pool_proj"
  type: "ReLU"
  bottom: "inception_4c/pool_proj"
  top: "inception_4c/pool_proj"
}
layer {
  name: "inception_4c/output"
  type: "Concat"
  bottom: "inception_4c/1x1"
  bottom: "inception_4c/3x3"
  bottom: "inception_4c/5x5"
  bottom: "inception_4c/pool_proj"
  top: "inception_4c/output"
}
layer {
  name: "inception_4d/1x1"
  type: "Convolution"
  bottom: "inception_4c/output"
  top: "inception_4d/1x1"
  param {
    lr_mult: 1
    decay_mult: 1
  }
  param {
    lr_mult: 2
    decay_mult: 0
  }
  convolution_param {
    num_output: 112
    kernel_size: 1
    weight_filler {
      type: "xavier"
      std: 0.03
    }
    bias_filler {
      type: "constant"
      value: 0.2
    }
  }
}
layer {
  name: "inception_4d/relu_1x1"
  type: "ReLU"
  bottom: "inception_4d/1x1"
  top: "inception_4d/1x1"
}
layer {
  name: "inception_4d/3x3_reduce"
  type: "Convolution"
  bottom: "inception_4c/output"
  top: "inception_4d/3x3_reduce"
  param {
    lr_mult: 1
    decay_mult: 1
  }
  param {
    lr_mult: 2
    decay_mult: 0
  }
  convolution_param {
    num_output: 144
    kernel_size: 1
    weight_filler {
      type: "xavier"
      std: 0.09
    }
    bias_filler {
      type: "constant"
      value: 0.2
    }
  }
}
layer {
  name: "inception_4d/relu_3x3_reduce"
  type: "ReLU"
  bottom: "inception_4d/3x3_reduce"
  top: "inception_4d/3x3_reduce"
}
layer {
  name: "inception_4d/3x3"
  type: "Convolution"
  bottom: "inception_4d/3x3_reduce"
  top: "inception_4d/3x3"
  param {
    lr_mult: 1
    decay_mult: 1
  }
  param {
    lr_mult: 2
    decay_mult: 0
  }
  convolution_param {
    num_output: 288
    pad: 1
    kernel_size: 3
    weight_filler {
      type: "xavier"
      std: 0.03
    }
    bias_filler {
      type: "constant"
      value: 0.2
    }
  }
}
layer {
  name: "inception_4d/relu_3x3"
  type: "ReLU"
  bottom: "inception_4d/3x3"
  top: "inception_4d/3x3"
}
layer {
  name: "inception_4d/5x5_reduce"
  type: "Convolution"
  bottom: "inception_4c/output"
  top: "inception_4d/5x5_reduce"
  param {
    lr_mult: 1
    decay_mult: 1
  }
  param {
    lr_mult: 2
    decay_mult: 0
  }
  convolution_param {
    num_output: 32
    kernel_size: 1
    weight_filler {
      type: "xavier"
      std: 0.2
    }
    bias_filler {
      type: "constant"
      value: 0.2
    }
  }
}
layer {
  name: "inception_4d/relu_5x5_reduce"
  type: "ReLU"
  bottom: "inception_4d/5x5_reduce"
  top: "inception_4d/5x5_reduce"
}
layer {
  name: "inception_4d/5x5"
  type: "Convolution"
  bottom: "inception_4d/5x5_reduce"
  top: "inception_4d/5x5"
  param {
    lr_mult: 1
    decay_mult: 1
  }
  param {
    lr_mult: 2
    decay_mult: 0
  }
  convolution_param {
    num_output: 64
    pad: 2
    kernel_size: 5
    weight_filler {
      type: "xavier"
      std: 0.03
    }
    bias_filler {
      type: "constant"
      value: 0.2
    }
  }
}
layer {
  name: "inception_4d/relu_5x5"
  type: "ReLU"
  bottom: "inception_4d/5x5"
  top: "inception_4d/5x5"
}
layer {
  name: "inception_4d/pool"
  type: "Pooling"
  bottom: "inception_4c/output"
  top: "inception_4d/pool"
  pooling_param {
    pool: MAX
    kernel_size: 3
    stride: 1
    pad: 1
  }
}
layer {
  name: "inception_4d/pool_proj"
  type: "Convolution"
  bottom: "inception_4d/pool"
  top: "inception_4d/pool_proj"
  param {
    lr_mult: 1
    decay_mult: 1
  }
  param {
    lr_mult: 2
    decay_mult: 0
  }
  convolution_param {
    num_output: 64
    kernel_size: 1
    weight_filler {
      type: "xavier"
      std: 0.1
    }
    bias_filler {
      type: "constant"
      value: 0.2
    }
  }
}
layer {
  name: "inception_4d/relu_pool_proj"
  type: "ReLU"
  bottom: "inception_4d/pool_proj"
  top: "inception_4d/pool_proj"
}
layer {
  name: "inception_4d/output"
  type: "Concat"
  bottom: "inception_4d/1x1"
  bottom: "inception_4d/3x3"
  bottom: "inception_4d/5x5"
  bottom: "inception_4d/pool_proj"
  top: "inception_4d/output"
}
layer {
  name: "loss2/ave_pool"
  type: "Pooling"
  bottom: "inception_4d/output"
  top: "loss2/ave_pool"
  pooling_param {
    pool: AVE
    kernel_size: 5
    stride: 3
  }
}
layer {
  name: "loss2/conv"
  type: "Convolution"
  bottom: "loss2/ave_pool"
  top: "loss2/conv"
  param {
    lr_mult: 1
    decay_mult: 1
  }
  param {
    lr_mult: 2
    decay_mult: 0
  }
  convolution_param {
    num_output: 128
    kernel_size: 1
    weight_filler {
      type: "xavier"
      std: 0.08
    }
    bias_filler {
      type: "constant"
      value: 0.2
    }
  }
}
layer {
  name: "loss2/relu_conv"
  type: "ReLU"
  bottom: "loss2/conv"
  top: "loss2/conv"
}
layer {
  name: "loss2/fc"
  type: "InnerProduct"
  bottom: "loss2/conv"
  top: "loss2/fc"
  param {
    lr_mult: 1
    decay_mult: 1
  }
  param {
    lr_mult: 2
    decay_mult: 0
  }
  inner_product_param {
    num_output: 1024
    weight_filler {
      type: "xavier"
      std: 0.02
    }
    bias_filler {
      type: "constant"
      value: 0.2
    }
  }
}
layer {
  name: "loss2/relu_fc"
  type: "ReLU"
  bottom: "loss2/fc"
  top: "loss2/fc"
}
layer {
  name: "loss2/drop_fc"
  type: "Dropout"
  bottom: "loss2/fc"
  top: "loss2/fc"
  dropout_param {
    dropout_ratio: 0.7
  }
}
layer {
  name: "loss2/classifier"
  type: "InnerProduct"
  bottom: "loss2/fc"
  top: "loss2/classifier"
  param {
    lr_mult: 1
    decay_mult: 1
  }
  param {
    lr_mult: 2
    decay_mult: 0
  }
  inner_product_param {
    num_output: 2
    weight_filler {
      type: "xavier"
      std: 0.0009765625
    }
    bias_filler {
      type: "constant"
      value: 0
    }
  }
}
layer {
  name: "loss2/loss"
  type: "SoftmaxWithLoss"
  bottom: "loss2/classifier"
  bottom: "label"
  top: "loss2/loss1"
  loss_weight: 0.3
}
layer {
  name: "loss2/top-1"
  type: "Accuracy"
  bottom: "loss2/classifier"
  bottom: "label"
  top: "loss2/top-1"
  include {
    phase: TEST
  }
}
layer {
  name: "inception_4e/1x1"
  type: "Convolution"
  bottom: "inception_4d/output"
  top: "inception_4e/1x1"
  param {
    lr_mult: 1
    decay_mult: 1
  }
  param {
    lr_mult: 2
    decay_mult: 0
  }
  convolution_param {
    num_output: 256
    kernel_size: 1
    weight_filler {
      type: "xavier"
      std: 0.03
    }
    bias_filler {
      type: "constant"
      value: 0.2
    }
  }
}
layer {
  name: "inception_4e/relu_1x1"
  type: "ReLU"
  bottom: "inception_4e/1x1"
  top: "inception_4e/1x1"
}
layer {
  name: "inception_4e/3x3_reduce"
  type: "Convolution"
  bottom: "inception_4d/output"
  top: "inception_4e/3x3_reduce"
  param {
    lr_mult: 1
    decay_mult: 1
  }
  param {
    lr_mult: 2
    decay_mult: 0
  }
  convolution_param {
    num_output: 160
    kernel_size: 1
    weight_filler {
      type: "xavier"
      std: 0.09
    }
    bias_filler {
      type: "constant"
      value: 0.2
    }
  }
}
layer {
  name: "inception_4e/relu_3x3_reduce"
  type: "ReLU"
  bottom: "inception_4e/3x3_reduce"
  top: "inception_4e/3x3_reduce"
}
layer {
  name: "inception_4e/3x3"
  type: "Convolution"
  bottom: "inception_4e/3x3_reduce"
  top: "inception_4e/3x3"
  param {
    lr_mult: 1
    decay_mult: 1
  }
  param {
    lr_mult: 2
    decay_mult: 0
  }
  convolution_param {
    num_output: 320
    pad: 1
    kernel_size: 3
    weight_filler {
      type: "xavier"
      std: 0.03
    }
    bias_filler {
      type: "constant"
      value: 0.2
    }
  }
}
layer {
  name: "inception_4e/relu_3x3"
  type: "ReLU"
  bottom: "inception_4e/3x3"
  top: "inception_4e/3x3"
}
layer {
  name: "inception_4e/5x5_reduce"
  type: "Convolution"
  bottom: "inception_4d/output"
  top: "inception_4e/5x5_reduce"
  param {
    lr_mult: 1
    decay_mult: 1
  }
  param {
   
I0509 22:29:24.470682 20520 layer_factory.hpp:74] Creating layer data
I0509 22:29:24.470716 20520 net.cpp:76] Creating Layer data
I0509 22:29:24.470731 20520 net.cpp:334] data -> data
I0509 22:29:24.470762 20520 net.cpp:334] data -> label
I0509 22:29:24.470782 20520 net.cpp:105] Setting up data
I0509 22:29:24.470891 20520 db.cpp:34] Opened lmdb val_lmdb
I0509 22:29:24.471191 20520 data_layer.cpp:67] output data size: 32,3,224,224
I0509 22:29:24.477481 20520 net.cpp:112] Top shape: 32 3 224 224 (4816896)
I0509 22:29:24.477504 20520 net.cpp:112] Top shape: 32 1 1 1 (32)
I0509 22:29:24.477514 20520 layer_factory.hpp:74] Creating layer label_data_1_split
I0509 22:29:24.477530 20520 net.cpp:76] Creating Layer label_data_1_split
I0509 22:29:24.477538 20520 net.cpp:372] label_data_1_split <- label
I0509 22:29:24.477556 20520 net.cpp:334] label_data_1_split -> label_data_1_split_0
I0509 22:29:24.477571 20520 net.cpp:334] label_data_1_split -> label_data_1_split_1
I0509 22:29:24.477579 20520 net.cpp:334] label_data_1_split -> label_data_1_split_2
I0509 22:29:24.477589 20520 net.cpp:334] label_data_1_split -> label_data_1_split_3
I0509 22:29:24.477597 20520 net.cpp:334] label_data_1_split -> label_data_1_split_4
I0509 22:29:24.477607 20520 net.cpp:334] label_data_1_split -> label_data_1_split_5
I0509 22:29:24.477613 20520 net.cpp:105] Setting up label_data_1_split
I0509 22:29:24.477623 20520 net.cpp:112] Top shape: 32 1 1 1 (32)
I0509 22:29:24.477629 20520 net.cpp:112] Top shape: 32 1 1 1 (32)
I0509 22:29:24.477634 20520 net.cpp:112] Top shape: 32 1 1 1 (32)
I0509 22:29:24.477639 20520 net.cpp:112] Top shape: 32 1 1 1 (32)
I0509 22:29:24.477644 20520 net.cpp:112] Top shape: 32 1 1 1 (32)
I0509 22:29:24.477649 20520 net.cpp:112] Top shape: 32 1 1 1 (32)
I0509 22:29:24.477654 20520 layer_factory.hpp:74] Creating layer conv1/7x7_s2
I0509 22:29:24.477670 20520 net.cpp:76] Creating Layer conv1/7x7_s2
I0509 22:29:24.477676 20520 net.cpp:372] conv1/7x7_s2 <- data
I0509 22:29:24.477685 20520 net.cpp:334] conv1/7x7_s2 -> conv1/7x7_s2
I0509 22:29:24.477697 20520 net.cpp:105] Setting up conv1/7x7_s2
I0509 22:29:24.478211 20520 net.cpp:112] Top shape: 32 64 112 112 (25690112)
I0509 22:29:24.478232 20520 layer_factory.hpp:74] Creating layer conv1/relu_7x7
I0509 22:29:24.478260 20520 net.cpp:76] Creating Layer conv1/relu_7x7
I0509 22:29:24.478266 20520 net.cpp:372] conv1/relu_7x7 <- conv1/7x7_s2
I0509 22:29:24.478274 20520 net.cpp:323] conv1/relu_7x7 -> conv1/7x7_s2 (in-place)
I0509 22:29:24.478282 20520 net.cpp:105] Setting up conv1/relu_7x7
I0509 22:29:24.478291 20520 net.cpp:112] Top shape: 32 64 112 112 (25690112)
I0509 22:29:24.478297 20520 layer_factory.hpp:74] Creating layer pool1/3x3_s2
I0509 22:29:24.478334 20520 net.cpp:76] Creating Layer pool1/3x3_s2
I0509 22:29:24.478341 20520 net.cpp:372] pool1/3x3_s2 <- conv1/7x7_s2
I0509 22:29:24.478349 20520 net.cpp:334] pool1/3x3_s2 -> pool1/3x3_s2
I0509 22:29:24.478359 20520 net.cpp:105] Setting up pool1/3x3_s2
I0509 22:29:24.478374 20520 net.cpp:112] Top shape: 32 64 56 56 (6422528)
I0509 22:29:24.478381 20520 layer_factory.hpp:74] Creating layer pool1/norm1
I0509 22:29:24.478391 20520 net.cpp:76] Creating Layer pool1/norm1
I0509 22:29:24.478397 20520 net.cpp:372] pool1/norm1 <- pool1/3x3_s2
I0509 22:29:24.478404 20520 net.cpp:334] pool1/norm1 -> pool1/norm1
I0509 22:29:24.478415 20520 net.cpp:105] Setting up pool1/norm1
I0509 22:29:24.478421 20520 net.cpp:112] Top shape: 32 64 56 56 (6422528)
I0509 22:29:24.478426 20520 layer_factory.hpp:74] Creating layer conv2/3x3_reduce
I0509 22:29:24.478435 20520 net.cpp:76] Creating Layer conv2/3x3_reduce
I0509 22:29:24.478441 20520 net.cpp:372] conv2/3x3_reduce <- pool1/norm1
I0509 22:29:24.478449 20520 net.cpp:334] conv2/3x3_reduce -> conv2/3x3_reduce
I0509 22:29:24.478458 20520 net.cpp:105] Setting up conv2/3x3_reduce
I0509 22:29:24.478502 20520 net.cpp:112] Top shape: 32 64 56 56 (6422528)
I0509 22:29:24.478514 20520 layer_factory.hpp:74] Creating layer conv2/relu_3x3_reduce
I0509 22:29:24.478523 20520 net.cpp:76] Creating Layer conv2/relu_3x3_reduce
I0509 22:29:24.478528 20520 net.cpp:372] conv2/relu_3x3_reduce <- conv2/3x3_reduce
I0509 22:29:24.478535 20520 net.cpp:323] conv2/relu_3x3_reduce -> conv2/3x3_reduce (in-place)
I0509 22:29:24.478543 20520 net.cpp:105] Setting up conv2/relu_3x3_reduce
I0509 22:29:24.478549 20520 net.cpp:112] Top shape: 32 64 56 56 (6422528)
I0509 22:29:24.478554 20520 layer_factory.hpp:74] Creating layer conv2/3x3
I0509 22:29:24.478562 20520 net.cpp:76] Creating Layer conv2/3x3
I0509 22:29:24.478569 20520 net.cpp:372] conv2/3x3 <- conv2/3x3_reduce
I0509 22:29:24.478576 20520 net.cpp:334] conv2/3x3 -> conv2/3x3
I0509 22:29:24.478585 20520 net.cpp:105] Setting up conv2/3x3
I0509 22:29:24.479496 20520 net.cpp:112] Top shape: 32 192 56 56 (19267584)
I0509 22:29:24.479518 20520 layer_factory.hpp:74] Creating layer conv2/relu_3x3
I0509 22:29:24.479528 20520 net.cpp:76] Creating Layer conv2/relu_3x3
I0509 22:29:24.479534 20520 net.cpp:372] conv2/relu_3x3 <- conv2/3x3
I0509 22:29:24.479545 20520 net.cpp:323] conv2/relu_3x3 -> conv2/3x3 (in-place)
I0509 22:29:24.479554 20520 net.cpp:105] Setting up conv2/relu_3x3
I0509 22:29:24.479560 20520 net.cpp:112] Top shape: 32 192 56 56 (19267584)
I0509 22:29:24.479567 20520 layer_factory.hpp:74] Creating layer conv2/norm2
I0509 22:29:24.479574 20520 net.cpp:76] Creating Layer conv2/norm2
I0509 22:29:24.479579 20520 net.cpp:372] conv2/norm2 <- conv2/3x3
I0509 22:29:24.479588 20520 net.cpp:334] conv2/norm2 -> conv2/norm2
I0509 22:29:24.479595 20520 net.cpp:105] Setting up conv2/norm2
I0509 22:29:24.479601 20520 net.cpp:112] Top shape: 32 192 56 56 (19267584)
I0509 22:29:24.479607 20520 layer_factory.hpp:74] Creating layer pool2/3x3_s2
I0509 22:29:24.479617 20520 net.cpp:76] Creating Layer pool2/3x3_s2
I0509 22:29:24.479624 20520 net.cpp:372] pool2/3x3_s2 <- conv2/norm2
I0509 22:29:24.479631 20520 net.cpp:334] pool2/3x3_s2 -> pool2/3x3_s2
I0509 22:29:24.479640 20520 net.cpp:105] Setting up pool2/3x3_s2
I0509 22:29:24.479645 20520 net.cpp:112] Top shape: 32 192 28 28 (4816896)
I0509 22:29:24.479651 20520 layer_factory.hpp:74] Creating layer pool2/3x3_s2_pool2/3x3_s2_0_split
I0509 22:29:24.479661 20520 net.cpp:76] Creating Layer pool2/3x3_s2_pool2/3x3_s2_0_split
I0509 22:29:24.479666 20520 net.cpp:372] pool2/3x3_s2_pool2/3x3_s2_0_split <- pool2/3x3_s2
I0509 22:29:24.479674 20520 net.cpp:334] pool2/3x3_s2_pool2/3x3_s2_0_split -> pool2/3x3_s2_pool2/3x3_s2_0_split_0
I0509 22:29:24.479682 20520 net.cpp:334] pool2/3x3_s2_pool2/3x3_s2_0_split -> pool2/3x3_s2_pool2/3x3_s2_0_split_1
I0509 22:29:24.479693 20520 net.cpp:334] pool2/3x3_s2_pool2/3x3_s2_0_split -> pool2/3x3_s2_pool2/3x3_s2_0_split_2
I0509 22:29:24.479725 20520 net.cpp:334] pool2/3x3_s2_pool2/3x3_s2_0_split -> pool2/3x3_s2_pool2/3x3_s2_0_split_3
I0509 22:29:24.479733 20520 net.cpp:105] Setting up pool2/3x3_s2_pool2/3x3_s2_0_split
I0509 22:29:24.479740 20520 net.cpp:112] Top shape: 32 192 28 28 (4816896)
I0509 22:29:24.479748 20520 net.cpp:112] Top shape: 32 192 28 28 (4816896)
I0509 22:29:24.479758 20520 net.cpp:112] Top shape: 32 192 28 28 (4816896)
I0509 22:29:24.479763 20520 net.cpp:112] Top shape: 32 192 28 28 (4816896)
I0509 22:29:24.479768 20520 layer_factory.hpp:74] Creating layer inception_3a/1x1
I0509 22:29:24.479778 20520 net.cpp:76] Creating Layer inception_3a/1x1
I0509 22:29:24.479784 20520 net.cpp:372] inception_3a/1x1 <- pool2/3x3_s2_pool2/3x3_s2_0_split_0
I0509 22:29:24.479794 20520 net.cpp:334] inception_3a/1x1 -> inception_3a/1x1
I0509 22:29:24.479806 20520 net.cpp:105] Setting up inception_3a/1x1
I0509 22:29:24.479923 20520 net.cpp:112] Top shape: 32 64 28 28 (1605632)
I0509 22:29:24.479933 20520 layer_factory.hpp:74] Creating layer inception_3a/relu_1x1
I0509 22:29:24.479941 20520 net.cpp:76] Creating Layer inception_3a/relu_1x1
I0509 22:29:24.479948 20520 net.cpp:372] inception_3a/relu_1x1 <- inception_3a/1x1
I0509 22:29:24.479954 20520 net.cpp:323] inception_3a/relu_1x1 -> inception_3a/1x1 (in-place)
I0509 22:29:24.479961 20520 net.cpp:105] Setting up inception_3a/relu_1x1
I0509 22:29:24.479967 20520 net.cpp:112] Top shape: 32 64 28 28 (1605632)
I0509 22:29:24.479972 20520 layer_factory.hpp:74] Creating layer inception_3a/3x3_reduce
I0509 22:29:24.479984 20520 net.cpp:76] Creating Layer inception_3a/3x3_reduce
I0509 22:29:24.479990 20520 net.cpp:372] inception_3a/3x3_reduce <- pool2/3x3_s2_pool2/3x3_s2_0_split_1
I0509 22:29:24.480000 20520 net.cpp:334] inception_3a/3x3_reduce -> inception_3a/3x3_reduce
I0509 22:29:24.480008 20520 net.cpp:105] Setting up inception_3a/3x3_reduce
I0509 22:29:24.480433 20520 net.cpp:112] Top shape: 32 96 28 28 (2408448)
I0509 22:29:24.480454 20520 layer_factory.hpp:74] Creating layer inception_3a/relu_3x3_reduce
I0509 22:29:24.480465 20520 net.cpp:76] Creating Layer inception_3a/relu_3x3_reduce
I0509 22:29:24.480471 20520 net.cpp:372] inception_3a/relu_3x3_reduce <- inception_3a/3x3_reduce
I0509 22:29:24.480479 20520 net.cpp:323] inception_3a/relu_3x3_reduce -> inception_3a/3x3_reduce (in-place)
I0509 22:29:24.480489 20520 net.cpp:105] Setting up inception_3a/relu_3x3_reduce
I0509 22:29:24.480494 20520 net.cpp:112] Top shape: 32 96 28 28 (2408448)
I0509 22:29:24.480499 20520 layer_factory.hpp:74] Creating layer inception_3a/3x3
I0509 22:29:24.480510 20520 net.cpp:76] Creating Layer inception_3a/3x3
I0509 22:29:24.480516 20520 net.cpp:372] inception_3a/3x3 <- inception_3a/3x3_reduce
I0509 22:29:24.480526 20520 net.cpp:334] inception_3a/3x3 -> inception_3a/3x3
I0509 22:29:24.480535 20520 net.cpp:105] Setting up inception_3a/3x3
I0509 22:29:24.481878 20520 net.cpp:112] Top shape: 32 128 28 28 (3211264)
I0509 22:29:24.481896 20520 layer_factory.hpp:74] Creating layer inception_3a/relu_3x3
I0509 22:29:24.481905 20520 net.cpp:76] Creating Layer inception_3a/relu_3x3
I0509 22:29:24.481911 20520 net.cpp:372] inception_3a/relu_3x3 <- inception_3a/3x3
I0509 22:29:24.481920 20520 net.cpp:323] inception_3a/relu_3x3 -> inception_3a/3x3 (in-place)
I0509 22:29:24.481927 20520 net.cpp:105] Setting up inception_3a/relu_3x3
I0509 22:29:24.481932 20520 net.cpp:112] Top shape: 32 128 28 28 (3211264)
I0509 22:29:24.481938 20520 layer_factory.hpp:74] Creating layer inception_3a/5x5_reduce
I0509 22:29:24.481952 20520 net.cpp:76] Creating Layer inception_3a/5x5_reduce
I0509 22:29:24.481958 20520 net.cpp:372] inception_3a/5x5_reduce <- pool2/3x3_s2_pool2/3x3_s2_0_split_2
I0509 22:29:24.481967 20520 net.cpp:334] inception_3a/5x5_reduce -> inception_3a/5x5_reduce
I0509 22:29:24.481976 20520 net.cpp:105] Setting up inception_3a/5x5_reduce
I0509 22:29:24.482018 20520 net.cpp:112] Top shape: 32 16 28 28 (401408)
I0509 22:29:24.482028 20520 layer_factory.hpp:74] Creating layer inception_3a/relu_5x5_reduce
I0509 22:29:24.482038 20520 net.cpp:76] Creating Layer inception_3a/relu_5x5_reduce
I0509 22:29:24.482058 20520 net.cpp:372] inception_3a/relu_5x5_reduce <- inception_3a/5x5_reduce
I0509 22:29:24.482066 20520 net.cpp:323] inception_3a/relu_5x5_reduce -> inception_3a/5x5_reduce (in-place)
I0509 22:29:24.482074 20520 net.cpp:105] Setting up inception_3a/relu_5x5_reduce
I0509 22:29:24.482079 20520 net.cpp:112] Top shape: 32 16 28 28 (401408)
I0509 22:29:24.482085 20520 layer_factory.hpp:74] Creating layer inception_3a/5x5
I0509 22:29:24.482092 20520 net.cpp:76] Creating Layer inception_3a/5x5
I0509 22:29:24.482098 20520 net.cpp:372] inception_3a/5x5 <- inception_3a/5x5_reduce
I0509 22:29:24.482108 20520 net.cpp:334] inception_3a/5x5 -> inception_3a/5x5
I0509 22:29:24.482117 20520 net.cpp:105] Setting up inception_3a/5x5
I0509 22:29:24.482347 20520 net.cpp:112] Top shape: 32 32 28 28 (802816)
I0509 22:29:24.482367 20520 layer_factory.hpp:74] Creating layer inception_3a/relu_5x5
I0509 22:29:24.482378 20520 net.cpp:76] Creating Layer inception_3a/relu_5x5
I0509 22:29:24.482384 20520 net.cpp:372] inception_3a/relu_5x5 <- inception_3a/5x5
I0509 22:29:24.482393 20520 net.cpp:323] inception_3a/relu_5x5 -> inception_3a/5x5 (in-place)
I0509 22:29:24.482401 20520 net.cpp:105] Setting up inception_3a/relu_5x5
I0509 22:29:24.482406 20520 net.cpp:112] Top shape: 32 32 28 28 (802816)
I0509 22:29:24.482413 20520 layer_factory.hpp:74] Creating layer inception_3a/pool
I0509 22:29:24.482425 20520 net.cpp:76] Creating Layer inception_3a/pool
I0509 22:29:24.482432 20520 net.cpp:372] inception_3a/pool <- pool2/3x3_s2_pool2/3x3_s2_0_split_3
I0509 22:29:24.482440 20520 net.cpp:334] inception_3a/pool -> inception_3a/pool
I0509 22:29:24.482450 20520 net.cpp:105] Setting up inception_3a/pool
I0509 22:29:24.482456 20520 net.cpp:112] Top shape: 32 192 28 28 (4816896)
I0509 22:29:24.482462 20520 layer_factory.hpp:74] Creating layer inception_3a/pool_proj
I0509 22:29:24.482475 20520 net.cpp:76] Creating Layer inception_3a/pool_proj
I0509 22:29:24.482482 20520 net.cpp:372] inception_3a/pool_proj <- inception_3a/pool
I0509 22:29:24.482491 20520 net.cpp:334] inception_3a/pool_proj -> inception_3a/pool_proj
I0509 22:29:24.482499 20520 net.cpp:105] Setting up inception_3a/pool_proj
I0509 22:29:24.482635 20520 net.cpp:112] Top shape: 32 32 28 28 (802816)
I0509 22:29:24.482656 20520 layer_factory.hpp:74] Creating layer inception_3a/relu_pool_proj
I0509 22:29:24.482668 20520 net.cpp:76] Creating Layer inception_3a/relu_pool_proj
I0509 22:29:24.482676 20520 net.cpp:372] inception_3a/relu_pool_proj <- inception_3a/pool_proj
I0509 22:29:24.482683 20520 net.cpp:323] inception_3a/relu_pool_proj -> inception_3a/pool_proj (in-place)
I0509 22:29:24.482692 20520 net.cpp:105] Setting up inception_3a/relu_pool_proj
I0509 22:29:24.482697 20520 net.cpp:112] Top shape: 32 32 28 28 (802816)
I0509 22:29:24.482702 20520 layer_factory.hpp:74] Creating layer inception_3a/output
I0509 22:29:24.482712 20520 net.cpp:76] Creating Layer inception_3a/output
I0509 22:29:24.482717 20520 net.cpp:372] inception_3a/output <- inception_3a/1x1
I0509 22:29:24.482724 20520 net.cpp:372] inception_3a/output <- inception_3a/3x3
I0509 22:29:24.482730 20520 net.cpp:372] inception_3a/output <- inception_3a/5x5
I0509 22:29:24.482736 20520 net.cpp:372] inception_3a/output <- inception_3a/pool_proj
I0509 22:29:24.482776 20520 net.cpp:334] inception_3a/output -> inception_3a/output
I0509 22:29:24.482801 20520 net.cpp:105] Setting up inception_3a/output
I0509 22:29:24.482823 20520 net.cpp:112] Top shape: 32 256 28 28 (6422528)
I0509 22:29:24.482837 20520 layer_factory.hpp:74] Creating layer inception_3a/output_inception_3a/output_0_split
I0509 22:29:24.482851 20520 net.cpp:76] Creating Layer inception_3a/output_inception_3a/output_0_split
I0509 22:29:24.482858 20520 net.cpp:372] inception_3a/output_inception_3a/output_0_split <- inception_3a/output
I0509 22:29:24.482867 20520 net.cpp:334] inception_3a/output_inception_3a/output_0_split -> inception_3a/output_inception_3a/output_0_split_0
I0509 22:29:24.482877 20520 net.cpp:334] inception_3a/output_inception_3a/output_0_split -> inception_3a/output_inception_3a/output_0_split_1
I0509 22:29:24.482904 20520 net.cpp:334] inception_3a/output_inception_3a/output_0_split -> inception_3a/output_inception_3a/output_0_split_2
I0509 22:29:24.482919 20520 net.cpp:334] inception_3a/output_inception_3a/output_0_split -> inception_3a/output_inception_3a/output_0_split_3
I0509 22:29:24.482928 20520 net.cpp:105] Setting up inception_3a/output_inception_3a/output_0_split
I0509 22:29:24.482935 20520 net.cpp:112] Top shape: 32 256 28 28 (6422528)
I0509 22:29:24.482941 20520 net.cpp:112] Top shape: 32 256 28 28 (6422528)
I0509 22:29:24.482946 20520 net.cpp:112] Top shape: 32 256 28 28 (6422528)
I0509 22:29:24.482950 20520 net.cpp:112] Top shape: 32 256 28 28 (6422528)
I0509 22:29:24.482956 20520 layer_factory.hpp:74] Creating layer inception_3b/1x1
I0509 22:29:24.482964 20520 net.cpp:76] Creating Layer inception_3b/1x1
I0509 22:29:24.482970 20520 net.cpp:372] inception_3b/1x1 <- inception_3a/output_inception_3a/output_0_split_0
I0509 22:29:24.482981 20520 net.cpp:334] inception_3b/1x1 -> inception_3b/1x1
I0509 22:29:24.482990 20520 net.cpp:105] Setting up inception_3b/1x1
I0509 22:29:24.483347 20520 net.cpp:112] Top shape: 32 128 28 28 (3211264)
I0509 22:29:24.483363 20520 layer_factory.hpp:74] Creating layer inception_3b/relu_1x1
I0509 22:29:24.483372 20520 net.cpp:76] Creating Layer inception_3b/relu_1x1
I0509 22:29:24.483379 20520 net.cpp:372] inception_3b/relu_1x1 <- inception_3b/1x1
I0509 22:29:24.483389 20520 net.cpp:323] inception_3b/relu_1x1 -> inception_3b/1x1 (in-place)
I0509 22:29:24.483397 20520 net.cpp:105] Setting up inception_3b/relu_1x1
I0509 22:29:24.483403 20520 net.cpp:112] Top shape: 32 128 28 28 (3211264)
I0509 22:29:24.483408 20520 layer_factory.hpp:74] Creating layer inception_3b/3x3_reduce
I0509 22:29:24.483417 20520 net.cpp:76] Creating Layer inception_3b/3x3_reduce
I0509 22:29:24.483423 20520 net.cpp:372] inception_3b/3x3_reduce <- inception_3a/output_inception_3a/output_0_split_1
I0509 22:29:24.483433 20520 net.cpp:334] inception_3b/3x3_reduce -> inception_3b/3x3_reduce
I0509 22:29:24.483446 20520 net.cpp:105] Setting up inception_3b/3x3_reduce
I0509 22:29:24.483930 20520 net.cpp:112] Top shape: 32 128 28 28 (3211264)
I0509 22:29:24.483947 20520 layer_factory.hpp:74] Creating layer inception_3b/relu_3x3_reduce
I0509 22:29:24.483960 20520 net.cpp:76] Creating Layer inception_3b/relu_3x3_reduce
I0509 22:29:24.483968 20520 net.cpp:372] inception_3b/relu_3x3_reduce <- inception_3b/3x3_reduce
I0509 22:29:24.483978 20520 net.cpp:323] inception_3b/relu_3x3_reduce -> inception_3b/3x3_reduce (in-place)
I0509 22:29:24.483986 20520 net.cpp:105] Setting up inception_3b/relu_3x3_reduce
I0509 22:29:24.483991 20520 net.cpp:112] Top shape: 32 128 28 28 (3211264)
I0509 22:29:24.483997 20520 layer_factory.hpp:74] Creating layer inception_3b/3x3
I0509 22:29:24.484011 20520 net.cpp:76] Creating Layer inception_3b/3x3
I0509 22:29:24.484017 20520 net.cpp:372] inception_3b/3x3 <- inception_3b/3x3_reduce
I0509 22:29:24.484026 20520 net.cpp:334] inception_3b/3x3 -> inception_3b/3x3
I0509 22:29:24.484035 20520 net.cpp:105] Setting up inception_3b/3x3
I0509 22:29:24.486098 20520 net.cpp:112] Top shape: 32 192 28 28 (4816896)
I0509 22:29:24.486119 20520 layer_factory.hpp:74] Creating layer inception_3b/relu_3x3
I0509 22:29:24.486131 20520 net.cpp:76] Creating Layer inception_3b/relu_3x3
I0509 22:29:24.486138 20520 net.cpp:372] inception_3b/relu_3x3 <- inception_3b/3x3
I0509 22:29:24.486146 20520 net.cpp:323] inception_3b/relu_3x3 -> inception_3b/3x3 (in-place)
I0509 22:29:24.486155 20520 net.cpp:105] Setting up inception_3b/relu_3x3
I0509 22:29:24.486160 20520 net.cpp:112] Top shape: 32 192 28 28 (4816896)
I0509 22:29:24.486170 20520 layer_factory.hpp:74] Creating layer inception_3b/5x5_reduce
I0509 22:29:24.486181 20520 net.cpp:76] Creating Layer inception_3b/5x5_reduce
I0509 22:29:24.486191 20520 net.cpp:372] inception_3b/5x5_reduce <- inception_3a/output_inception_3a/output_0_split_2
I0509 22:29:24.486212 20520 net.cpp:334] inception_3b/5x5_reduce -> inception_3b/5x5_reduce
I0509 22:29:24.486253 20520 net.cpp:105] Setting up inception_3b/5x5_reduce
I0509 22:29:24.486371 20520 net.cpp:112] Top shape: 32 32 28 28 (802816)
I0509 22:29:24.486389 20520 layer_factory.hpp:74] Creating layer inception_3b/relu_5x5_reduce
I0509 22:29:24.486398 20520 net.cpp:76] Creating Layer inception_3b/relu_5x5_reduce
I0509 22:29:24.486404 20520 net.cpp:372] inception_3b/relu_5x5_reduce <- inception_3b/5x5_reduce
I0509 22:29:24.486414 20520 net.cpp:323] inception_3b/relu_5x5_reduce -> inception_3b/5x5_reduce (in-place)
I0509 22:29:24.486423 20520 net.cpp:105] Setting up inception_3b/relu_5x5_reduce
I0509 22:29:24.486428 20520 net.cpp:112] Top shape: 32 32 28 28 (802816)
I0509 22:29:24.486434 20520 layer_factory.hpp:74] Creating layer inception_3b/5x5
I0509 22:29:24.486443 20520 net.cpp:76] Creating Layer inception_3b/5x5
I0509 22:29:24.486449 20520 net.cpp:372] inception_3b/5x5 <- inception_3b/5x5_reduce
I0509 22:29:24.486459 20520 net.cpp:334] inception_3b/5x5 -> inception_3b/5x5
I0509 22:29:24.486467 20520 net.cpp:105] Setting up inception_3b/5x5
I0509 22:29:24.487180 20520 net.cpp:112] Top shape: 32 96 28 28 (2408448)
I0509 22:29:24.487196 20520 layer_factory.hpp:74] Creating layer inception_3b/relu_5x5
I0509 22:29:24.487205 20520 net.cpp:76] Creating Layer inception_3b/relu_5x5
I0509 22:29:24.487211 20520 net.cpp:372] inception_3b/relu_5x5 <- inception_3b/5x5
I0509 22:29:24.487218 20520 net.cpp:323] inception_3b/relu_5x5 -> inception_3b/5x5 (in-place)
I0509 22:29:24.487226 20520 net.cpp:105] Setting up inception_3b/relu_5x5
I0509 22:29:24.487231 20520 net.cpp:112] Top shape: 32 96 28 28 (2408448)
I0509 22:29:24.487237 20520 layer_factory.hpp:74] Creating layer inception_3b/pool
I0509 22:29:24.487253 20520 net.cpp:76] Creating Layer inception_3b/pool
I0509 22:29:24.487265 20520 net.cpp:372] inception_3b/pool <- inception_3a/output_inception_3a/output_0_split_3
I0509 22:29:24.487303 20520 net.cpp:334] inception_3b/pool -> inception_3b/pool
I0509 22:29:24.487319 20520 net.cpp:105] Setting up inception_3b/pool
I0509 22:29:24.487329 20520 net.cpp:112] Top shape: 32 256 28 28 (6422528)
I0509 22:29:24.487335 20520 layer_factory.hpp:74] Creating layer inception_3b/pool_proj
I0509 22:29:24.487347 20520 net.cpp:76] Creating Layer inception_3b/pool_proj
I0509 22:29:24.487354 20520 net.cpp:372] inception_3b/pool_proj <- inception_3b/pool
I0509 22:29:24.487362 20520 net.cpp:334] inception_3b/pool_proj -> inception_3b/pool_proj
I0509 22:29:24.487376 20520 net.cpp:105] Setting up inception_3b/pool_proj
I0509 22:29:24.487537 20520 net.cpp:112] Top shape: 32 64 28 28 (1605632)
I0509 22:29:24.487555 20520 layer_factory.hpp:74] Creating layer inception_3b/relu_pool_proj
I0509 22:29:24.487566 20520 net.cpp:76] Creating Layer inception_3b/relu_pool_proj
I0509 22:29:24.487577 20520 net.cpp:372] inception_3b/relu_pool_proj <- inception_3b/pool_proj
I0509 22:29:24.487593 20520 net.cpp:323] inception_3b/relu_pool_proj -> inception_3b/pool_proj (in-place)
I0509 22:29:24.487607 20520 net.cpp:105] Setting up inception_3b/relu_pool_proj
I0509 22:29:24.487617 20520 net.cpp:112] Top shape: 32 64 28 28 (1605632)
I0509 22:29:24.487625 20520 layer_factory.hpp:74] Creating layer inception_3b/output
I0509 22:29:24.487639 20520 net.cpp:76] Creating Layer inception_3b/output
I0509 22:29:24.487650 20520 net.cpp:372] inception_3b/output <- inception_3b/1x1
I0509 22:29:24.487661 20520 net.cpp:372] inception_3b/output <- inception_3b/3x3
I0509 22:29:24.487669 20520 net.cpp:372] inception_3b/output <- inception_3b/5x5
I0509 22:29:24.487675 20520 net.cpp:372] inception_3b/output <- inception_3b/pool_proj
I0509 22:29:24.487686 20520 net.cpp:334] inception_3b/output -> inception_3b/output
I0509 22:29:24.487702 20520 net.cpp:105] Setting up inception_3b/output
I0509 22:29:24.487711 20520 net.cpp:112] Top shape: 32 480 28 28 (12042240)
I0509 22:29:24.487717 20520 layer_factory.hpp:74] Creating layer pool3/3x3_s2
I0509 22:29:24.487725 20520 net.cpp:76] Creating Layer pool3/3x3_s2
I0509 22:29:24.487731 20520 net.cpp:372] pool3/3x3_s2 <- inception_3b/output
I0509 22:29:24.487756 20520 net.cpp:334] pool3/3x3_s2 -> pool3/3x3_s2
I0509 22:29:24.487764 20520 net.cpp:105] Setting up pool3/3x3_s2
I0509 22:29:24.487771 20520 net.cpp:112] Top shape: 32 480 14 14 (3010560)
I0509 22:29:24.487778 20520 layer_factory.hpp:74] Creating layer pool3/3x3_s2_pool3/3x3_s2_0_split
I0509 22:29:24.487787 20520 net.cpp:76] Creating Layer pool3/3x3_s2_pool3/3x3_s2_0_split
I0509 22:29:24.487797 20520 net.cpp:372] pool3/3x3_s2_pool3/3x3_s2_0_split <- pool3/3x3_s2
I0509 22:29:24.487815 20520 net.cpp:334] pool3/3x3_s2_pool3/3x3_s2_0_split -> pool3/3x3_s2_pool3/3x3_s2_0_split_0
I0509 22:29:24.487834 20520 net.cpp:334] pool3/3x3_s2_pool3/3x3_s2_0_split -> pool3/3x3_s2_pool3/3x3_s2_0_split_1
I0509 22:29:24.487850 20520 net.cpp:334] pool3/3x3_s2_pool3/3x3_s2_0_split -> pool3/3x3_s2_pool3/3x3_s2_0_split_2
I0509 22:29:24.487893 20520 net.cpp:334] pool3/3x3_s2_pool3/3x3_s2_0_split -> pool3/3x3_s2_pool3/3x3_s2_0_split_3
I0509 22:29:24.487911 20520 net.cpp:105] Setting up pool3/3x3_s2_pool3/3x3_s2_0_split
I0509 22:29:24.487925 20520 net.cpp:112] Top shape: 32 480 14 14 (3010560)
I0509 22:29:24.487933 20520 net.cpp:112] Top shape: 32 480 14 14 (3010560)
I0509 22:29:24.487941 20520 net.cpp:112] Top shape: 32 480 14 14 (3010560)
I0509 22:29:24.487951 20520 net.cpp:112] Top shape: 32 480 14 14 (3010560)
I0509 22:29:24.487958 20520 layer_factory.hpp:74] Creating layer inception_4a/1x1
I0509 22:29:24.487974 20520 net.cpp:76] Creating Layer inception_4a/1x1
I0509 22:29:24.487980 20520 net.cpp:372] inception_4a/1x1 <- pool3/3x3_s2_pool3/3x3_s2_0_split_0
I0509 22:29:24.487993 20520 net.cpp:334] inception_4a/1x1 -> inception_4a/1x1
I0509 22:29:24.488003 20520 net.cpp:105] Setting up inception_4a/1x1
I0509 22:29:24.488833 20520 net.cpp:112] Top shape: 32 192 14 14 (1204224)
I0509 22:29:24.488849 20520 layer_factory.hpp:74] Creating layer inception_4a/relu_1x1
I0509 22:29:24.488857 20520 net.cpp:76] Creating Layer inception_4a/relu_1x1
I0509 22:29:24.488863 20520 net.cpp:372] inception_4a/relu_1x1 <- inception_4a/1x1
I0509 22:29:24.488873 20520 net.cpp:323] inception_4a/relu_1x1 -> inception_4a/1x1 (in-place)
I0509 22:29:24.488886 20520 net.cpp:105] Setting up inception_4a/relu_1x1
I0509 22:29:24.488898 20520 net.cpp:112] Top shape: 32 192 14 14 (1204224)
I0509 22:29:24.488909 20520 layer_factory.hpp:74] Creating layer inception_4a/3x3_reduce
I0509 22:29:24.488926 20520 net.cpp:76] Creating Layer inception_4a/3x3_reduce
I0509 22:29:24.488934 20520 net.cpp:372] inception_4a/3x3_reduce <- pool3/3x3_s2_pool3/3x3_s2_0_split_1
I0509 22:29:24.488942 20520 net.cpp:334] inception_4a/3x3_reduce -> inception_4a/3x3_reduce
I0509 22:29:24.488952 20520 net.cpp:105] Setting up inception_4a/3x3_reduce
I0509 22:29:24.489387 20520 net.cpp:112] Top shape: 32 96 14 14 (602112)
I0509 22:29:24.489411 20520 layer_factory.hpp:74] Creating layer inception_4a/relu_3x3_reduce
I0509 22:29:24.489421 20520 net.cpp:76] Creating Layer inception_4a/relu_3x3_reduce
I0509 22:29:24.489429 20520 net.cpp:372] inception_4a/relu_3x3_reduce <- inception_4a/3x3_reduce
I0509 22:29:24.489437 20520 net.cpp:323] inception_4a/relu_3x3_reduce -> inception_4a/3x3_reduce (in-place)
I0509 22:29:24.489445 20520 net.cpp:105] Setting up inception_4a/relu_3x3_reduce
I0509 22:29:24.489450 20520 net.cpp:112] Top shape: 32 96 14 14 (602112)
I0509 22:29:24.489456 20520 layer_factory.hpp:74] Creating layer inception_4a/3x3
I0509 22:29:24.489464 20520 net.cpp:76] Creating Layer inception_4a/3x3
I0509 22:29:24.489470 20520 net.cpp:372] inception_4a/3x3 <- inception_4a/3x3_reduce
I0509 22:29:24.489478 20520 net.cpp:334] inception_4a/3x3 -> inception_4a/3x3
I0509 22:29:24.489486 20520 net.cpp:105] Setting up inception_4a/3x3
I0509 22:29:24.491155 20520 net.cpp:112] Top shape: 32 208 14 14 (1304576)
I0509 22:29:24.491183 20520 layer_factory.hpp:74] Creating layer inception_4a/relu_3x3
I0509 22:29:24.491204 20520 net.cpp:76] Creating Layer inception_4a/relu_3x3
I0509 22:29:24.491219 20520 net.cpp:372] inception_4a/relu_3x3 <- inception_4a/3x3
I0509 22:29:24.491264 20520 net.cpp:323] inception_4a/relu_3x3 -> inception_4a/3x3 (in-place)
I0509 22:29:24.491302 20520 net.cpp:105] Setting up inception_4a/relu_3x3
I0509 22:29:24.491310 20520 net.cpp:112] Top shape: 32 208 14 14 (1304576)
I0509 22:29:24.491317 20520 layer_factory.hpp:74] Creating layer inception_4a/5x5_reduce
I0509 22:29:24.491329 20520 net.cpp:76] Creating Layer inception_4a/5x5_reduce
I0509 22:29:24.491336 20520 net.cpp:372] inception_4a/5x5_reduce <- pool3/3x3_s2_pool3/3x3_s2_0_split_2
I0509 22:29:24.491344 20520 net.cpp:334] inception_4a/5x5_reduce -> inception_4a/5x5_reduce
I0509 22:29:24.491354 20520 net.cpp:105] Setting up inception_4a/5x5_reduce
I0509 22:29:24.491472 20520 net.cpp:112] Top shape: 32 16 14 14 (100352)
I0509 22:29:24.491492 20520 layer_factory.hpp:74] Creating layer inception_4a/relu_5x5_reduce
I0509 22:29:24.492215 20520 net.cpp:76] Creating Layer inception_4a/relu_5x5_reduce
I0509 22:29:24.492231 20520 net.cpp:372] inception_4a/relu_5x5_reduce <- inception_4a/5x5_reduce
I0509 22:29:24.492244 20520 net.cpp:323] inception_4a/relu_5x5_reduce -> inception_4a/5x5_reduce (in-place)
I0509 22:29:24.492259 20520 net.cpp:105] Setting up inception_4a/relu_5x5_reduce
I0509 22:29:24.492269 20520 net.cpp:112] Top shape: 32 16 14 14 (100352)
I0509 22:29:24.492280 20520 layer_factory.hpp:74] Creating layer inception_4a/5x5
I0509 22:29:24.492300 20520 net.cpp:76] Creating Layer inception_4a/5x5
I0509 22:29:24.492312 20520 net.cpp:372] inception_4a/5x5 <- inception_4a/5x5_reduce
I0509 22:29:24.492332 20520 net.cpp:334] inception_4a/5x5 -> inception_4a/5x5
I0509 22:29:24.492362 20520 net.cpp:105] Setting up inception_4a/5x5
I0509 22:29:24.492599 20520 net.cpp:112] Top shape: 32 48 14 14 (301056)
I0509 22:29:24.492614 20520 layer_factory.hpp:74] Creating layer inception_4a/relu_5x5
I0509 22:29:24.492622 20520 net.cpp:76] Creating Layer inception_4a/relu_5x5
I0509 22:29:24.492629 20520 net.cpp:372] inception_4a/relu_5x5 <- inception_4a/5x5
I0509 22:29:24.492635 20520 net.cpp:323] inception_4a/relu_5x5 -> inception_4a/5x5 (in-place)
I0509 22:29:24.492643 20520 net.cpp:105] Setting up inception_4a/relu_5x5
I0509 22:29:24.492648 20520 net.cpp:112] Top shape: 32 48 14 14 (301056)
I0509 22:29:24.492655 20520 layer_factory.hpp:74] Creating layer inception_4a/pool
I0509 22:29:24.492665 20520 net.cpp:76] Creating Layer inception_4a/pool
I0509 22:29:24.492671 20520 net.cpp:372] inception_4a/pool <- pool3/3x3_s2_pool3/3x3_s2_0_split_3
I0509 22:29:24.492679 20520 net.cpp:334] inception_4a/pool -> inception_4a/pool
I0509 22:29:24.492688 20520 net.cpp:105] Setting up inception_4a/pool
I0509 22:29:24.492696 20520 net.cpp:112] Top shape: 32 480 14 14 (3010560)
I0509 22:29:24.492702 20520 layer_factory.hpp:74] Creating layer inception_4a/pool_proj
I0509 22:29:24.492712 20520 net.cpp:76] Creating Layer inception_4a/pool_proj
I0509 22:29:24.492718 20520 net.cpp:372] inception_4a/pool_proj <- inception_4a/pool
I0509 22:29:24.492725 20520 net.cpp:334] inception_4a/pool_proj -> inception_4a/pool_proj
I0509 22:29:24.492738 20520 net.cpp:105] Setting up inception_4a/pool_proj
I0509 22:29:24.493001 20520 net.cpp:112] Top shape: 32 64 14 14 (401408)
I0509 22:29:24.493013 20520 layer_factory.hpp:74] Creating layer inception_4a/relu_pool_proj
I0509 22:29:24.493023 20520 net.cpp:76] Creating Layer inception_4a/relu_pool_proj
I0509 22:29:24.493031 20520 net.cpp:372] inception_4a/relu_pool_proj <- inception_4a/pool_proj
I0509 22:29:24.493037 20520 net.cpp:323] inception_4a/relu_pool_proj -> inception_4a/pool_proj (in-place)
I0509 22:29:24.493046 20520 net.cpp:105] Setting up inception_4a/relu_pool_proj
I0509 22:29:24.493052 20520 net.cpp:112] Top shape: 32 64 14 14 (401408)
I0509 22:29:24.493057 20520 layer_factory.hpp:74] Creating layer inception_4a/output
I0509 22:29:24.493063 20520 net.cpp:76] Creating Layer inception_4a/output
I0509 22:29:24.493069 20520 net.cpp:372] inception_4a/output <- inception_4a/1x1
I0509 22:29:24.493077 20520 net.cpp:372] inception_4a/output <- inception_4a/3x3
I0509 22:29:24.493083 20520 net.cpp:372] inception_4a/output <- inception_4a/5x5
I0509 22:29:24.493114 20520 net.cpp:372] inception_4a/output <- inception_4a/pool_proj
I0509 22:29:24.493125 20520 net.cpp:334] inception_4a/output -> inception_4a/output
I0509 22:29:24.493134 20520 net.cpp:105] Setting up inception_4a/output
I0509 22:29:24.493141 20520 net.cpp:112] Top shape: 32 512 14 14 (3211264)
I0509 22:29:24.493147 20520 layer_factory.hpp:74] Creating layer inception_4a/output_inception_4a/output_0_split
I0509 22:29:24.493165 20520 net.cpp:76] Creating Layer inception_4a/output_inception_4a/output_0_split
I0509 22:29:24.493171 20520 net.cpp:372] inception_4a/output_inception_4a/output_0_split <- inception_4a/output
I0509 22:29:24.493180 20520 net.cpp:334] inception_4a/output_inception_4a/output_0_split -> inception_4a/output_inception_4a/output_0_split_0
I0509 22:29:24.493190 20520 net.cpp:334] inception_4a/output_inception_4a/output_0_split -> inception_4a/output_inception_4a/output_0_split_1
I0509 22:29:24.493198 20520 net.cpp:334] inception_4a/output_inception_4a/output_0_split -> inception_4a/output_inception_4a/output_0_split_2
I0509 22:29:24.493207 20520 net.cpp:334] inception_4a/output_inception_4a/output_0_split -> inception_4a/output_inception_4a/output_0_split_3
I0509 22:29:24.493218 20520 net.cpp:334] inception_4a/output_inception_4a/output_0_split -> inception_4a/output_inception_4a/output_0_split_4
I0509 22:29:24.493227 20520 net.cpp:105] Setting up inception_4a/output_inception_4a/output_0_split
I0509 22:29:24.493247 20520 net.cpp:112] Top shape: 32 512 14 14 (3211264)
I0509 22:29:24.493253 20520 net.cpp:112] Top shape: 32 512 14 14 (3211264)
I0509 22:29:24.493258 20520 net.cpp:112] Top shape: 32 512 14 14 (3211264)
I0509 22:29:24.493263 20520 net.cpp:112] Top shape: 32 512 14 14 (3211264)
I0509 22:29:24.493270 20520 net.cpp:112] Top shape: 32 512 14 14 (3211264)
I0509 22:29:24.493276 20520 layer_factory.hpp:74] Creating layer loss1/ave_pool
I0509 22:29:24.493284 20520 net.cpp:76] Creating Layer loss1/ave_pool
I0509 22:29:24.493290 20520 net.cpp:372] loss1/ave_pool <- inception_4a/output_inception_4a/output_0_split_0
I0509 22:29:24.493299 20520 net.cpp:334] loss1/ave_pool -> loss1/ave_pool
I0509 22:29:24.493306 20520 net.cpp:105] Setting up loss1/ave_pool
I0509 22:29:24.493312 20520 net.cpp:112] Top shape: 32 512 4 4 (262144)
I0509 22:29:24.493319 20520 layer_factory.hpp:74] Creating layer loss1/conv
I0509 22:29:24.493330 20520 net.cpp:76] Creating Layer loss1/conv
I0509 22:29:24.493336 20520 net.cpp:372] loss1/conv <- loss1/ave_pool
I0509 22:29:24.493346 20520 net.cpp:334] loss1/conv -> loss1/conv
I0509 22:29:24.493355 20520 net.cpp:105] Setting up loss1/conv
I0509 22:29:24.493919 20520 net.cpp:112] Top shape: 32 128 4 4 (65536)
I0509 22:29:24.493944 20520 layer_factory.hpp:74] Creating layer loss1/relu_conv
I0509 22:29:24.493957 20520 net.cpp:76] Creating Layer loss1/relu_conv
I0509 22:29:24.493963 20520 net.cpp:372] loss1/relu_conv <- loss1/conv
I0509 22:29:24.493973 20520 net.cpp:323] loss1/relu_conv -> loss1/conv (in-place)
I0509 22:29:24.493981 20520 net.cpp:105] Setting up loss1/relu_conv
I0509 22:29:24.493988 20520 net.cpp:112] Top shape: 32 128 4 4 (65536)
I0509 22:29:24.493993 20520 layer_factory.hpp:74] Creating layer loss1/fc
I0509 22:29:24.494007 20520 net.cpp:76] Creating Layer loss1/fc
I0509 22:29:24.494019 20520 net.cpp:372] loss1/fc <- loss1/conv
I0509 22:29:24.494035 20520 net.cpp:334] loss1/fc -> loss1/fc
I0509 22:29:24.494050 20520 net.cpp:105] Setting up loss1/fc
I0509 22:29:24.512619 20520 net.cpp:112] Top shape: 32 1024 1 1 (32768)
I0509 22:29:24.512665 20520 layer_factory.hpp:74] Creating layer loss1/relu_fc
I0509 22:29:24.512678 20520 net.cpp:76] Creating Layer loss1/relu_fc
I0509 22:29:24.512686 20520 net.cpp:372] loss1/relu_fc <- loss1/fc
I0509 22:29:24.512699 20520 net.cpp:323] loss1/relu_fc -> loss1/fc (in-place)
I0509 22:29:24.512712 20520 net.cpp:105] Setting up loss1/relu_fc
I0509 22:29:24.512717 20520 net.cpp:112] Top shape: 32 1024 1 1 (32768)
I0509 22:29:24.512723 20520 layer_factory.hpp:74] Creating layer loss1/drop_fc
I0509 22:29:24.512784 20520 net.cpp:76] Creating Layer loss1/drop_fc
I0509 22:29:24.512792 20520 net.cpp:372] loss1/drop_fc <- loss1/fc
I0509 22:29:24.512800 20520 net.cpp:323] loss1/drop_fc -> loss1/fc (in-place)
I0509 22:29:24.512812 20520 net.cpp:105] Setting up loss1/drop_fc
I0509 22:29:24.512822 20520 net.cpp:112] Top shape: 32 1024 1 1 (32768)
I0509 22:29:24.512828 20520 layer_factory.hpp:74] Creating layer loss1/classifier
I0509 22:29:24.512840 20520 net.cpp:76] Creating Layer loss1/classifier
I0509 22:29:24.512845 20520 net.cpp:372] loss1/classifier <- loss1/fc
I0509 22:29:24.512856 20520 net.cpp:334] loss1/classifier -> loss1/classifier
I0509 22:29:24.512866 20520 net.cpp:105] Setting up loss1/classifier
I0509 22:29:24.512903 20520 net.cpp:112] Top shape: 32 2 1 1 (64)
I0509 22:29:24.512914 20520 layer_factory.hpp:74] Creating layer loss1/classifier_loss1/classifier_0_split
I0509 22:29:24.512924 20520 net.cpp:76] Creating Layer loss1/classifier_loss1/classifier_0_split
I0509 22:29:24.512930 20520 net.cpp:372] loss1/classifier_loss1/classifier_0_split <- loss1/classifier
I0509 22:29:24.512938 20520 net.cpp:334] loss1/classifier_loss1/classifier_0_split -> loss1/classifier_loss1/classifier_0_split_0
I0509 22:29:24.512948 20520 net.cpp:334] loss1/classifier_loss1/classifier_0_split -> loss1/classifier_loss1/classifier_0_split_1
I0509 22:29:24.512958 20520 net.cpp:105] Setting up loss1/classifier_loss1/classifier_0_split
I0509 22:29:24.512964 20520 net.cpp:112] Top shape: 32 2 1 1 (64)
I0509 22:29:24.512969 20520 net.cpp:112] Top shape: 32 2 1 1 (64)
I0509 22:29:24.512974 20520 layer_factory.hpp:74] Creating layer loss1/loss
I0509 22:29:24.512986 20520 net.cpp:76] Creating Layer loss1/loss
I0509 22:29:24.512992 20520 net.cpp:372] loss1/loss <- loss1/classifier_loss1/classifier_0_split_0
I0509 22:29:24.513000 20520 net.cpp:372] loss1/loss <- label_data_1_split_0
I0509 22:29:24.513010 20520 net.cpp:334] loss1/loss -> loss1/loss1
I0509 22:29:24.513021 20520 net.cpp:105] Setting up loss1/loss
I0509 22:29:24.513032 20520 layer_factory.hpp:74] Creating layer loss1/loss
I0509 22:29:24.513051 20520 net.cpp:112] Top shape: 1 1 1 1 (1)
I0509 22:29:24.513056 20520 net.cpp:118]     with loss weight 0.3
I0509 22:29:24.513092 20520 layer_factory.hpp:74] Creating layer loss1/top-1
I0509 22:29:24.513104 20520 net.cpp:76] Creating Layer loss1/top-1
I0509 22:29:24.513110 20520 net.cpp:372] loss1/top-1 <- loss1/classifier_loss1/classifier_0_split_1
I0509 22:29:24.513118 20520 net.cpp:372] loss1/top-1 <- label_data_1_split_1
I0509 22:29:24.513131 20520 net.cpp:334] loss1/top-1 -> loss1/top-1
I0509 22:29:24.513149 20520 net.cpp:105] Setting up loss1/top-1
I0509 22:29:24.513159 20520 net.cpp:112] Top shape: 1 1 1 1 (1)
I0509 22:29:24.513164 20520 layer_factory.hpp:74] Creating layer inception_4b/1x1
I0509 22:29:24.513175 20520 net.cpp:76] Creating Layer inception_4b/1x1
I0509 22:29:24.513181 20520 net.cpp:372] inception_4b/1x1 <- inception_4a/output_inception_4a/output_0_split_1
I0509 22:29:24.513192 20520 net.cpp:334] inception_4b/1x1 -> inception_4b/1x1
I0509 22:29:24.513202 20520 net.cpp:105] Setting up inception_4b/1x1
I0509 22:29:24.513906 20520 net.cpp:112] Top shape: 32 160 14 14 (1003520)
I0509 22:29:24.513921 20520 layer_factory.hpp:74] Creating layer inception_4b/relu_1x1
I0509 22:29:24.513929 20520 net.cpp:76] Creating Layer inception_4b/relu_1x1
I0509 22:29:24.513938 20520 net.cpp:372] inception_4b/relu_1x1 <- inception_4b/1x1
I0509 22:29:24.513945 20520 net.cpp:323] inception_4b/relu_1x1 -> inception_4b/1x1 (in-place)
I0509 22:29:24.513954 20520 net.cpp:105] Setting up inception_4b/relu_1x1
I0509 22:29:24.513959 20520 net.cpp:112] Top shape: 32 160 14 14 (1003520)
I0509 22:29:24.513965 20520 layer_factory.hpp:74] Creating layer inception_4b/3x3_reduce
I0509 22:29:24.513978 20520 net.cpp:76] Creating Layer inception_4b/3x3_reduce
I0509 22:29:24.513983 20520 net.cpp:372] inception_4b/3x3_reduce <- inception_4a/output_inception_4a/output_0_split_2
I0509 22:29:24.513993 20520 net.cpp:334] inception_4b/3x3_reduce -> inception_4b/3x3_reduce
I0509 22:29:24.514014 20520 net.cpp:105] Setting up inception_4b/3x3_reduce
I0509 22:29:24.514530 20520 net.cpp:112] Top shape: 32 112 14 14 (702464)
I0509 22:29:24.514545 20520 layer_factory.hpp:74] Creating layer inception_4b/relu_3x3_reduce
I0509 22:29:24.514554 20520 net.cpp:76] Creating Layer inception_4b/relu_3x3_reduce
I0509 22:29:24.514559 20520 net.cpp:372] inception_4b/relu_3x3_reduce <- inception_4b/3x3_reduce
I0509 22:29:24.514570 20520 net.cpp:323] inception_4b/relu_3x3_reduce -> inception_4b/3x3_reduce (in-place)
I0509 22:29:24.514578 20520 net.cpp:105] Setting up inception_4b/relu_3x3_reduce
I0509 22:29:24.514585 20520 net.cpp:112] Top shape: 32 112 14 14 (702464)
I0509 22:29:24.514590 20520 layer_factory.hpp:74] Creating layer inception_4b/3x3
I0509 22:29:24.514598 20520 net.cpp:76] Creating Layer inception_4b/3x3
I0509 22:29:24.514603 20520 net.cpp:372] inception_4b/3x3 <- inception_4b/3x3_reduce
I0509 22:29:24.514613 20520 net.cpp:334] inception_4b/3x3 -> inception_4b/3x3
I0509 22:29:24.514622 20520 net.cpp:105] Setting up inception_4b/3x3
I0509 22:29:24.516548 20520 net.cpp:112] Top shape: 32 224 14 14 (1404928)
I0509 22:29:24.516571 20520 layer_factory.hpp:74] Creating layer inception_4b/relu_3x3
I0509 22:29:24.516579 20520 net.cpp:76] Creating Layer inception_4b/relu_3x3
I0509 22:29:24.516585 20520 net.cpp:372] inception_4b/relu_3x3 <- inception_4b/3x3
I0509 22:29:24.516595 20520 net.cpp:323] inception_4b/relu_3x3 -> inception_4b/3x3 (in-place)
I0509 22:29:24.516607 20520 net.cpp:105] Setting up inception_4b/relu_3x3
I0509 22:29:24.516613 20520 net.cpp:112] Top shape: 32 224 14 14 (1404928)
I0509 22:29:24.516618 20520 layer_factory.hpp:74] Creating layer inception_4b/5x5_reduce
I0509 22:29:24.516626 20520 net.cpp:76] Creating Layer inception_4b/5x5_reduce
I0509 22:29:24.516633 20520 net.cpp:372] inception_4b/5x5_reduce <- inception_4a/output_inception_4a/output_0_split_3
I0509 22:29:24.516644 20520 net.cpp:334] inception_4b/5x5_reduce -> inception_4b/5x5_reduce
I0509 22:29:24.516654 20520 net.cpp:105] Setting up inception_4b/5x5_reduce
I0509 22:29:24.516770 20520 net.cpp:112] Top shape: 32 24 14 14 (150528)
I0509 22:29:24.516782 20520 layer_factory.hpp:74] Creating layer inception_4b/relu_5x5_reduce
I0509 22:29:24.516790 20520 net.cpp:76] Creating Layer inception_4b/relu_5x5_reduce
I0509 22:29:24.516796 20520 net.cpp:372] inception_4b/relu_5x5_reduce <- inception_4b/5x5_reduce
I0509 22:29:24.516803 20520 net.cpp:323] inception_4b/relu_5x5_reduce -> inception_4b/5x5_reduce (in-place)
I0509 22:29:24.516811 20520 net.cpp:105] Setting up inception_4b/relu_5x5_reduce
I0509 22:29:24.516816 20520 net.cpp:112] Top shape: 32 24 14 14 (150528)
I0509 22:29:24.516823 20520 layer_factory.hpp:74] Creating layer inception_4b/5x5
I0509 22:29:24.516834 20520 net.cpp:76] Creating Layer inception_4b/5x5
I0509 22:29:24.516839 20520 net.cpp:372] inception_4b/5x5 <- inception_4b/5x5_reduce
I0509 22:29:24.516847 20520 net.cpp:334] inception_4b/5x5 -> inception_4b/5x5
I0509 22:29:24.516855 20520 net.cpp:105] Setting up inception_4b/5x5
I0509 22:29:24.517184 20520 net.cpp:112] Top shape: 32 64 14 14 (401408)
I0509 22:29:24.517200 20520 layer_factory.hpp:74] Creating layer inception_4b/relu_5x5
I0509 22:29:24.517207 20520 net.cpp:76] Creating Layer inception_4b/relu_5x5
I0509 22:29:24.517213 20520 net.cpp:372] inception_4b/relu_5x5 <- inception_4b/5x5
I0509 22:29:24.517220 20520 net.cpp:323] inception_4b/relu_5x5 -> inception_4b/5x5 (in-place)
I0509 22:29:24.517228 20520 net.cpp:105] Setting up inception_4b/relu_5x5
I0509 22:29:24.517233 20520 net.cpp:112] Top shape: 32 64 14 14 (401408)
I0509 22:29:24.517240 20520 layer_factory.hpp:74] Creating layer inception_4b/pool
I0509 22:29:24.517249 20520 net.cpp:76] Creating Layer inception_4b/pool
I0509 22:29:24.517256 20520 net.cpp:372] inception_4b/pool <- inception_4a/output_inception_4a/output_0_split_4
I0509 22:29:24.517263 20520 net.cpp:334] inception_4b/pool -> inception_4b/pool
I0509 22:29:24.517287 20520 net.cpp:105] Setting up inception_4b/pool
I0509 22:29:24.517315 20520 net.cpp:112] Top shape: 32 512 14 14 (3211264)
I0509 22:29:24.517321 20520 layer_factory.hpp:74] Creating layer inception_4b/pool_proj
I0509 22:29:24.517333 20520 net.cpp:76] Creating Layer inception_4b/pool_proj
I0509 22:29:24.517339 20520 net.cpp:372] inception_4b/pool_proj <- inception_4b/pool
I0509 22:29:24.517349 20520 net.cpp:334] inception_4b/pool_proj -> inception_4b/pool_proj
I0509 22:29:24.517356 20520 net.cpp:105] Setting up inception_4b/pool_proj
I0509 22:29:24.517639 20520 net.cpp:112] Top shape: 32 64 14 14 (401408)
I0509 22:29:24.517652 20520 layer_factory.hpp:74] Creating layer inception_4b/relu_pool_proj
I0509 22:29:24.517663 20520 net.cpp:76] Creating Layer inception_4b/relu_pool_proj
I0509 22:29:24.517670 20520 net.cpp:372] inception_4b/relu_pool_proj <- inception_4b/pool_proj
I0509 22:29:24.517678 20520 net.cpp:323] inception_4b/relu_pool_proj -> inception_4b/pool_proj (in-place)
I0509 22:29:24.517685 20520 net.cpp:105] Setting up inception_4b/relu_pool_proj
I0509 22:29:24.517690 20520 net.cpp:112] Top shape: 32 64 14 14 (401408)
I0509 22:29:24.517696 20520 layer_factory.hpp:74] Creating layer inception_4b/output
I0509 22:29:24.517704 20520 net.cpp:76] Creating Layer inception_4b/output
I0509 22:29:24.517709 20520 net.cpp:372] inception_4b/output <- inception_4b/1x1
I0509 22:29:24.517716 20520 net.cpp:372] inception_4b/output <- inception_4b/3x3
I0509 22:29:24.517722 20520 net.cpp:372] inception_4b/output <- inception_4b/5x5
I0509 22:29:24.517729 20520 net.cpp:372] inception_4b/output <- inception_4b/pool_proj
I0509 22:29:24.517735 20520 net.cpp:334] inception_4b/output -> inception_4b/output
I0509 22:29:24.517745 20520 net.cpp:105] Setting up inception_4b/output
I0509 22:29:24.517750 20520 net.cpp:112] Top shape: 32 512 14 14 (3211264)
I0509 22:29:24.517755 20520 layer_factory.hpp:74] Creating layer inception_4b/output_inception_4b/output_0_split
I0509 22:29:24.517765 20520 net.cpp:76] Creating Layer inception_4b/output_inception_4b/output_0_split
I0509 22:29:24.517771 20520 net.cpp:372] inception_4b/output_inception_4b/output_0_split <- inception_4b/output
I0509 22:29:24.517779 20520 net.cpp:334] inception_4b/output_inception_4b/output_0_split -> inception_4b/output_inception_4b/output_0_split_0
I0509 22:29:24.517788 20520 net.cpp:334] inception_4b/output_inception_4b/output_0_split -> inception_4b/output_inception_4b/output_0_split_1
I0509 22:29:24.517797 20520 net.cpp:334] inception_4b/output_inception_4b/output_0_split -> inception_4b/output_inception_4b/output_0_split_2
I0509 22:29:24.517807 20520 net.cpp:334] inception_4b/output_inception_4b/output_0_split -> inception_4b/output_inception_4b/output_0_split_3
I0509 22:29:24.517817 20520 net.cpp:105] Setting up inception_4b/output_inception_4b/output_0_split
I0509 22:29:24.517823 20520 net.cpp:112] Top shape: 32 512 14 14 (3211264)
I0509 22:29:24.517832 20520 net.cpp:112] Top shape: 32 512 14 14 (3211264)
I0509 22:29:24.517839 20520 net.cpp:112] Top shape: 32 512 14 14 (3211264)
I0509 22:29:24.517848 20520 net.cpp:112] Top shape: 32 512 14 14 (3211264)
I0509 22:29:24.517856 20520 layer_factory.hpp:74] Creating layer inception_4c/1x1
I0509 22:29:24.517871 20520 net.cpp:76] Creating Layer inception_4c/1x1
I0509 22:29:24.517882 20520 net.cpp:372] inception_4c/1x1 <- inception_4b/output_inception_4b/output_0_split_0
I0509 22:29:24.517902 20520 net.cpp:334] inception_4c/1x1 -> inception_4c/1x1
I0509 22:29:24.517920 20520 net.cpp:105] Setting up inception_4c/1x1
I0509 22:29:24.518512 20520 net.cpp:112] Top shape: 32 128 14 14 (802816)
I0509 22:29:24.518527 20520 layer_factory.hpp:74] Creating layer inception_4c/relu_1x1
I0509 22:29:24.518537 20520 net.cpp:76] Creating Layer inception_4c/relu_1x1
I0509 22:29:24.518561 20520 net.cpp:372] inception_4c/relu_1x1 <- inception_4c/1x1
I0509 22:29:24.518570 20520 net.cpp:323] inception_4c/relu_1x1 -> inception_4c/1x1 (in-place)
I0509 22:29:24.518579 20520 net.cpp:105] Setting up inception_4c/relu_1x1
I0509 22:29:24.518584 20520 net.cpp:112] Top shape: 32 128 14 14 (802816)
I0509 22:29:24.518605 20520 layer_factory.hpp:74] Creating layer inception_4c/3x3_reduce
I0509 22:29:24.518617 20520 net.cpp:76] Creating Layer inception_4c/3x3_reduce
I0509 22:29:24.518625 20520 net.cpp:372] inception_4c/3x3_reduce <- inception_4b/output_inception_4b/output_0_split_1
I0509 22:29:24.518633 20520 net.cpp:334] inception_4c/3x3_reduce -> inception_4c/3x3_reduce
I0509 22:29:24.518642 20520 net.cpp:105] Setting up inception_4c/3x3_reduce
I0509 22:29:24.519196 20520 net.cpp:112] Top shape: 32 128 14 14 (802816)
I0509 22:29:24.519211 20520 layer_factory.hpp:74] Creating layer inception_4c/relu_3x3_reduce
I0509 22:29:24.519218 20520 net.cpp:76] Creating Layer inception_4c/relu_3x3_reduce
I0509 22:29:24.519224 20520 net.cpp:372] inception_4c/relu_3x3_reduce <- inception_4c/3x3_reduce
I0509 22:29:24.519234 20520 net.cpp:323] inception_4c/relu_3x3_reduce -> inception_4c/3x3_reduce (in-place)
I0509 22:29:24.519242 20520 net.cpp:105] Setting up inception_4c/relu_3x3_reduce
I0509 22:29:24.519248 20520 net.cpp:112] Top shape: 32 128 14 14 (802816)
I0509 22:29:24.519253 20520 layer_factory.hpp:74] Creating layer inception_4c/3x3
I0509 22:29:24.519261 20520 net.cpp:76] Creating Layer inception_4c/3x3
I0509 22:29:24.519266 20520 net.cpp:372] inception_4c/3x3 <- inception_4c/3x3_reduce
I0509 22:29:24.519336 20520 net.cpp:334] inception_4c/3x3 -> inception_4c/3x3
I0509 22:29:24.519353 20520 net.cpp:105] Setting up inception_4c/3x3
I0509 22:29:24.521867 20520 net.cpp:112] Top shape: 32 256 14 14 (1605632)
I0509 22:29:24.521903 20520 layer_factory.hpp:74] Creating layer inception_4c/relu_3x3
I0509 22:29:24.521915 20520 net.cpp:76] Creating Layer inception_4c/relu_3x3
I0509 22:29:24.521924 20520 net.cpp:372] inception_4c/relu_3x3 <- inception_4c/3x3
I0509 22:29:24.521931 20520 net.cpp:323] inception_4c/relu_3x3 -> inception_4c/3x3 (in-place)
I0509 22:29:24.521940 20520 net.cpp:105] Setting up inception_4c/relu_3x3
I0509 22:29:24.521946 20520 net.cpp:112] Top shape: 32 256 14 14 (1605632)
I0509 22:29:24.521951 20520 layer_factory.hpp:74] Creating layer inception_4c/5x5_reduce
I0509 22:29:24.521961 20520 net.cpp:76] Creating Layer inception_4c/5x5_reduce
I0509 22:29:24.521970 20520 net.cpp:372] inception_4c/5x5_reduce <- inception_4b/output_inception_4b/output_0_split_2
I0509 22:29:24.521978 20520 net.cpp:334] inception_4c/5x5_reduce -> inception_4c/5x5_reduce
I0509 22:29:24.521987 20520 net.cpp:105] Setting up inception_4c/5x5_reduce
I0509 22:29:24.522105 20520 net.cpp:112] Top shape: 32 24 14 14 (150528)
I0509 22:29:24.522116 20520 layer_factory.hpp:74] Creating layer inception_4c/relu_5x5_reduce
I0509 22:29:24.522125 20520 net.cpp:76] Creating Layer inception_4c/relu_5x5_reduce
I0509 22:29:24.522130 20520 net.cpp:372] inception_4c/relu_5x5_reduce <- inception_4c/5x5_reduce
I0509 22:29:24.522137 20520 net.cpp:323] inception_4c/relu_5x5_reduce -> inception_4c/5x5_reduce (in-place)
I0509 22:29:24.522145 20520 net.cpp:105] Setting up inception_4c/relu_5x5_reduce
I0509 22:29:24.522150 20520 net.cpp:112] Top shape: 32 24 14 14 (150528)
I0509 22:29:24.522156 20520 layer_factory.hpp:74] Creating layer inception_4c/5x5
I0509 22:29:24.522166 20520 net.cpp:76] Creating Layer inception_4c/5x5
I0509 22:29:24.522172 20520 net.cpp:372] inception_4c/5x5 <- inception_4c/5x5_reduce
I0509 22:29:24.522181 20520 net.cpp:334] inception_4c/5x5 -> inception_4c/5x5
I0509 22:29:24.522189 20520 net.cpp:105] Setting up inception_4c/5x5
I0509 22:29:24.522532 20520 net.cpp:112] Top shape: 32 64 14 14 (401408)
I0509 22:29:24.522550 20520 layer_factory.hpp:74] Creating layer inception_4c/relu_5x5
I0509 22:29:24.522558 20520 net.cpp:76] Creating Layer inception_4c/relu_5x5
I0509 22:29:24.522564 20520 net.cpp:372] inception_4c/relu_5x5 <- inception_4c/5x5
I0509 22:29:24.522574 20520 net.cpp:323] inception_4c/relu_5x5 -> inception_4c/5x5 (in-place)
I0509 22:29:24.522583 20520 net.cpp:105] Setting up inception_4c/relu_5x5
I0509 22:29:24.522588 20520 net.cpp:112] Top shape: 32 64 14 14 (401408)
I0509 22:29:24.522593 20520 layer_factory.hpp:74] Creating layer inception_4c/pool
I0509 22:29:24.522626 20520 net.cpp:76] Creating Layer inception_4c/pool
I0509 22:29:24.522634 20520 net.cpp:372] inception_4c/pool <- inception_4b/output_inception_4b/output_0_split_3
I0509 22:29:24.522641 20520 net.cpp:334] inception_4c/pool -> inception_4c/pool
I0509 22:29:24.522655 20520 net.cpp:105] Setting up inception_4c/pool
I0509 22:29:24.522662 20520 net.cpp:112] Top shape: 32 512 14 14 (3211264)
I0509 22:29:24.522668 20520 layer_factory.hpp:74] Creating layer inception_4c/pool_proj
I0509 22:29:24.522677 20520 net.cpp:76] Creating Layer inception_4c/pool_proj
I0509 22:29:24.522683 20520 net.cpp:372] inception_4c/pool_proj <- inception_4c/pool
I0509 22:29:24.522693 20520 net.cpp:334] inception_4c/pool_proj -> inception_4c/pool_proj
I0509 22:29:24.522703 20520 net.cpp:105] Setting up inception_4c/pool_proj
I0509 22:29:24.522985 20520 net.cpp:112] Top shape: 32 64 14 14 (401408)
I0509 22:29:24.523000 20520 layer_factory.hpp:74] Creating layer inception_4c/relu_pool_proj
I0509 22:29:24.523008 20520 net.cpp:76] Creating Layer inception_4c/relu_pool_proj
I0509 22:29:24.523015 20520 net.cpp:372] inception_4c/relu_pool_proj <- inception_4c/pool_proj
I0509 22:29:24.523021 20520 net.cpp:323] inception_4c/relu_pool_proj -> inception_4c/pool_proj (in-place)
I0509 22:29:24.523028 20520 net.cpp:105] Setting up inception_4c/relu_pool_proj
I0509 22:29:24.523035 20520 net.cpp:112] Top shape: 32 64 14 14 (401408)
I0509 22:29:24.523041 20520 layer_factory.hpp:74] Creating layer inception_4c/output
I0509 22:29:24.523047 20520 net.cpp:76] Creating Layer inception_4c/output
I0509 22:29:24.523053 20520 net.cpp:372] inception_4c/output <- inception_4c/1x1
I0509 22:29:24.523059 20520 net.cpp:372] inception_4c/output <- inception_4c/3x3
I0509 22:29:24.523066 20520 net.cpp:372] inception_4c/output <- inception_4c/5x5
I0509 22:29:24.523072 20520 net.cpp:372] inception_4c/output <- inception_4c/pool_proj
I0509 22:29:24.523082 20520 net.cpp:334] inception_4c/output -> inception_4c/output
I0509 22:29:24.523092 20520 net.cpp:105] Setting up inception_4c/output
I0509 22:29:24.523097 20520 net.cpp:112] Top shape: 32 512 14 14 (3211264)
I0509 22:29:24.523103 20520 layer_factory.hpp:74] Creating layer inception_4c/output_inception_4c/output_0_split
I0509 22:29:24.523111 20520 net.cpp:76] Creating Layer inception_4c/output_inception_4c/output_0_split
I0509 22:29:24.523118 20520 net.cpp:372] inception_4c/output_inception_4c/output_0_split <- inception_4c/output
I0509 22:29:24.523124 20520 net.cpp:334] inception_4c/output_inception_4c/output_0_split -> inception_4c/output_inception_4c/output_0_split_0
I0509 22:29:24.523135 20520 net.cpp:334] inception_4c/output_inception_4c/output_0_split -> inception_4c/output_inception_4c/output_0_split_1
I0509 22:29:24.523145 20520 net.cpp:334] inception_4c/output_inception_4c/output_0_split -> inception_4c/output_inception_4c/output_0_split_2
I0509 22:29:24.523154 20520 net.cpp:334] inception_4c/output_inception_4c/output_0_split -> inception_4c/output_inception_4c/output_0_split_3
I0509 22:29:24.523161 20520 net.cpp:105] Setting up inception_4c/output_inception_4c/output_0_split
I0509 22:29:24.523169 20520 net.cpp:112] Top shape: 32 512 14 14 (3211264)
I0509 22:29:24.523175 20520 net.cpp:112] Top shape: 32 512 14 14 (3211264)
I0509 22:29:24.523180 20520 net.cpp:112] Top shape: 32 512 14 14 (3211264)
I0509 22:29:24.523183 20520 net.cpp:112] Top shape: 32 512 14 14 (3211264)
I0509 22:29:24.523190 20520 layer_factory.hpp:74] Creating layer inception_4d/1x1
I0509 22:29:24.523198 20520 net.cpp:76] Creating Layer inception_4d/1x1
I0509 22:29:24.523203 20520 net.cpp:372] inception_4d/1x1 <- inception_4c/output_inception_4c/output_0_split_0
I0509 22:29:24.523214 20520 net.cpp:334] inception_4d/1x1 -> inception_4d/1x1
I0509 22:29:24.523223 20520 net.cpp:105] Setting up inception_4d/1x1
I0509 22:29:24.523725 20520 net.cpp:112] Top shape: 32 112 14 14 (702464)
I0509 22:29:24.523738 20520 layer_factory.hpp:74] Creating layer inception_4d/relu_1x1
I0509 22:29:24.523746 20520 net.cpp:76] Creating Layer inception_4d/relu_1x1
I0509 22:29:24.523789 20520 net.cpp:372] inception_4d/relu_1x1 <- inception_4d/1x1
I0509 22:29:24.523798 20520 net.cpp:323] inception_4d/relu_1x1 -> inception_4d/1x1 (in-place)
I0509 22:29:24.523808 20520 net.cpp:105] Setting up inception_4d/relu_1x1
I0509 22:29:24.523813 20520 net.cpp:112] Top shape: 32 112 14 14 (702464)
I0509 22:29:24.523818 20520 layer_factory.hpp:74] Creating layer inception_4d/3x3_reduce
I0509 22:29:24.523831 20520 net.cpp:76] Creating Layer inception_4d/3x3_reduce
I0509 22:29:24.523838 20520 net.cpp:372] inception_4d/3x3_reduce <- inception_4c/output_inception_4c/output_0_split_1
I0509 22:29:24.523849 20520 net.cpp:334] inception_4d/3x3_reduce -> inception_4d/3x3_reduce
I0509 22:29:24.523857 20520 net.cpp:105] Setting up inception_4d/3x3_reduce
I0509 22:29:24.524487 20520 net.cpp:112] Top shape: 32 144 14 14 (903168)
I0509 22:29:24.524500 20520 layer_factory.hpp:74] Creating layer inception_4d/relu_3x3_reduce
I0509 22:29:24.524510 20520 net.cpp:76] Creating Layer inception_4d/relu_3x3_reduce
I0509 22:29:24.524516 20520 net.cpp:372] inception_4d/relu_3x3_reduce <- inception_4d/3x3_reduce
I0509 22:29:24.524524 20520 net.cpp:323] inception_4d/relu_3x3_reduce -> inception_4d/3x3_reduce (in-place)
I0509 22:29:24.524533 20520 net.cpp:105] Setting up inception_4d/relu_3x3_reduce
I0509 22:29:24.524538 20520 net.cpp:112] Top shape: 32 144 14 14 (903168)
I0509 22:29:24.524543 20520 layer_factory.hpp:74] Creating layer inception_4d/3x3
I0509 22:29:24.524554 20520 net.cpp:76] Creating Layer inception_4d/3x3
I0509 22:29:24.524559 20520 net.cpp:372] inception_4d/3x3 <- inception_4d/3x3_reduce
I0509 22:29:24.524567 20520 net.cpp:334] inception_4d/3x3 -> inception_4d/3x3
I0509 22:29:24.524575 20520 net.cpp:105] Setting up inception_4d/3x3
I0509 22:29:24.527684 20520 net.cpp:112] Top shape: 32 288 14 14 (1806336)
I0509 22:29:24.527705 20520 layer_factory.hpp:74] Creating layer inception_4d/relu_3x3
I0509 22:29:24.527717 20520 net.cpp:76] Creating Layer inception_4d/relu_3x3
I0509 22:29:24.527724 20520 net.cpp:372] inception_4d/relu_3x3 <- inception_4d/3x3
I0509 22:29:24.527732 20520 net.cpp:323] inception_4d/relu_3x3 -> inception_4d/3x3 (in-place)
I0509 22:29:24.527740 20520 net.cpp:105] Setting up inception_4d/relu_3x3
I0509 22:29:24.527746 20520 net.cpp:112] Top shape: 32 288 14 14 (1806336)
I0509 22:29:24.527751 20520 layer_factory.hpp:74] Creating layer inception_4d/5x5_reduce
I0509 22:29:24.527762 20520 net.cpp:76] Creating Layer inception_4d/5x5_reduce
I0509 22:29:24.527768 20520 net.cpp:372] inception_4d/5x5_reduce <- inception_4c/output_inception_4c/output_0_split_2
I0509 22:29:24.527777 20520 net.cpp:334] inception_4d/5x5_reduce -> inception_4d/5x5_reduce
I0509 22:29:24.527786 20520 net.cpp:105] Setting up inception_4d/5x5_reduce
I0509 22:29:24.527936 20520 net.cpp:112] Top shape: 32 32 14 14 (200704)
I0509 22:29:24.527947 20520 layer_factory.hpp:74] Creating layer inception_4d/relu_5x5_reduce
I0509 22:29:24.527956 20520 net.cpp:76] Creating Layer inception_4d/relu_5x5_reduce
I0509 22:29:24.527961 20520 net.cpp:372] inception_4d/relu_5x5_reduce <- inception_4d/5x5_reduce
I0509 22:29:24.527971 20520 net.cpp:323] inception_4d/relu_5x5_reduce -> inception_4d/5x5_reduce (in-place)
I0509 22:29:24.527977 20520 net.cpp:105] Setting up inception_4d/relu_5x5_reduce
I0509 22:29:24.527983 20520 net.cpp:112] Top shape: 32 32 14 14 (200704)
I0509 22:29:24.527988 20520 layer_factory.hpp:74] Creating layer inception_4d/5x5
I0509 22:29:24.527997 20520 net.cpp:76] Creating Layer inception_4d/5x5
I0509 22:29:24.528002 20520 net.cpp:372] inception_4d/5x5 <- inception_4d/5x5_reduce
I0509 22:29:24.528009 20520 net.cpp:334] inception_4d/5x5 -> inception_4d/5x5
I0509 22:29:24.528018 20520 net.cpp:105] Setting up inception_4d/5x5
I0509 22:29:24.528468 20520 net.cpp:112] Top shape: 32 64 14 14 (401408)
I0509 22:29:24.528484 20520 layer_factory.hpp:74] Creating layer inception_4d/relu_5x5
I0509 22:29:24.528492 20520 net.cpp:76] Creating Layer inception_4d/relu_5x5
I0509 22:29:24.529378 20520 net.cpp:372] inception_4d/relu_5x5 <- inception_4d/5x5
I0509 22:29:24.529422 20520 net.cpp:323] inception_4d/relu_5x5 -> inception_4d/5x5 (in-place)
I0509 22:29:24.529438 20520 net.cpp:105] Setting up inception_4d/relu_5x5
I0509 22:29:24.529446 20520 net.cpp:112] Top shape: 32 64 14 14 (401408)
I0509 22:29:24.529456 20520 layer_factory.hpp:74] Creating layer inception_4d/pool
I0509 22:29:24.529469 20520 net.cpp:76] Creating Layer inception_4d/pool
I0509 22:29:24.529479 20520 net.cpp:372] inception_4d/pool <- inception_4c/output_inception_4c/output_0_split_3
I0509 22:29:24.529495 20520 net.cpp:334] inception_4d/pool -> inception_4d/pool
I0509 22:29:24.529510 20520 net.cpp:105] Setting up inception_4d/pool
I0509 22:29:24.529523 20520 net.cpp:112] Top shape: 32 512 14 14 (3211264)
I0509 22:29:24.529533 20520 layer_factory.hpp:74] Creating layer inception_4d/pool_proj
I0509 22:29:24.529547 20520 net.cpp:76] Creating Layer inception_4d/pool_proj
I0509 22:29:24.529557 20520 net.cpp:372] inception_4d/pool_proj <- inception_4d/pool
I0509 22:29:24.529574 20520 net.cpp:334] inception_4d/pool_proj -> inception_4d/pool_proj
I0509 22:29:24.529590 20520 net.cpp:105] Setting up inception_4d/pool_proj
I0509 22:29:24.530004 20520 net.cpp:112] Top shape: 32 64 14 14 (401408)
I0509 22:29:24.530024 20520 layer_factory.hpp:74] Creating layer inception_4d/relu_pool_proj
I0509 22:29:24.530036 20520 net.cpp:76] Creating Layer inception_4d/relu_pool_proj
I0509 22:29:24.530047 20520 net.cpp:372] inception_4d/relu_pool_proj <- inception_4d/pool_proj
I0509 22:29:24.530060 20520 net.cpp:323] inception_4d/relu_pool_proj -> inception_4d/pool_proj (in-place)
I0509 22:29:24.530072 20520 net.cpp:105] Setting up inception_4d/relu_pool_proj
I0509 22:29:24.530081 20520 net.cpp:112] Top shape: 32 64 14 14 (401408)
I0509 22:29:24.530092 20520 layer_factory.hpp:74] Creating layer inception_4d/output
I0509 22:29:24.530107 20520 net.cpp:76] Creating Layer inception_4d/output
I0509 22:29:24.530117 20520 net.cpp:372] inception_4d/output <- inception_4d/1x1
I0509 22:29:24.530128 20520 net.cpp:372] inception_4d/output <- inception_4d/3x3
I0509 22:29:24.530139 20520 net.cpp:372] inception_4d/output <- inception_4d/5x5
I0509 22:29:24.530150 20520 net.cpp:372] inception_4d/output <- inception_4d/pool_proj
I0509 22:29:24.530163 20520 net.cpp:334] inception_4d/output -> inception_4d/output
I0509 22:29:24.530176 20520 net.cpp:105] Setting up inception_4d/output
I0509 22:29:24.530186 20520 net.cpp:112] Top shape: 32 528 14 14 (3311616)
I0509 22:29:24.530196 20520 layer_factory.hpp:74] Creating layer inception_4d/output_inception_4d/output_0_split
I0509 22:29:24.530210 20520 net.cpp:76] Creating Layer inception_4d/output_inception_4d/output_0_split
I0509 22:29:24.530220 20520 net.cpp:372] inception_4d/output_inception_4d/output_0_split <- inception_4d/output
I0509 22:29:24.530232 20520 net.cpp:334] inception_4d/output_inception_4d/output_0_split -> inception_4d/output_inception_4d/output_0_split_0
I0509 22:29:24.530251 20520 net.cpp:334] inception_4d/output_inception_4d/output_0_split -> inception_4d/output_inception_4d/output_0_split_1
I0509 22:29:24.530287 20520 net.cpp:334] inception_4d/output_inception_4d/output_0_split -> inception_4d/output_inception_4d/output_0_split_2
I0509 22:29:24.530306 20520 net.cpp:334] inception_4d/output_inception_4d/output_0_split -> inception_4d/output_inception_4d/output_0_split_3
I0509 22:29:24.530321 20520 net.cpp:334] inception_4d/output_inception_4d/output_0_split -> inception_4d/output_inception_4d/output_0_split_4
I0509 22:29:24.530335 20520 net.cpp:105] Setting up inception_4d/output_inception_4d/output_0_split
I0509 22:29:24.530347 20520 net.cpp:112] Top shape: 32 528 14 14 (3311616)
I0509 22:29:24.530357 20520 net.cpp:112] Top shape: 32 528 14 14 (3311616)
I0509 22:29:24.530365 20520 net.cpp:112] Top shape: 32 528 14 14 (3311616)
I0509 22:29:24.530374 20520 net.cpp:112] Top shape: 32 528 14 14 (3311616)
I0509 22:29:24.530462 20520 net.cpp:112] Top shape: 32 528 14 14 (3311616)
I0509 22:29:24.530470 20520 layer_factory.hpp:74] Creating layer loss2/ave_pool
I0509 22:29:24.530495 20520 net.cpp:76] Creating Layer loss2/ave_pool
I0509 22:29:24.530503 20520 net.cpp:372] loss2/ave_pool <- inception_4d/output_inception_4d/output_0_split_0
I0509 22:29:24.530513 20520 net.cpp:334] loss2/ave_pool -> loss2/ave_pool
I0509 22:29:24.530521 20520 net.cpp:105] Setting up loss2/ave_pool
I0509 22:29:24.530529 20520 net.cpp:112] Top shape: 32 528 4 4 (270336)
I0509 22:29:24.530534 20520 layer_factory.hpp:74] Creating layer loss2/conv
I0509 22:29:24.530544 20520 net.cpp:76] Creating Layer loss2/conv
I0509 22:29:24.530549 20520 net.cpp:372] loss2/conv <- loss2/ave_pool
I0509 22:29:24.530560 20520 net.cpp:334] loss2/conv -> loss2/conv
I0509 22:29:24.530568 20520 net.cpp:105] Setting up loss2/conv
I0509 22:29:24.531136 20520 net.cpp:112] Top shape: 32 128 4 4 (65536)
I0509 22:29:24.531153 20520 layer_factory.hpp:74] Creating layer loss2/relu_conv
I0509 22:29:24.531162 20520 net.cpp:76] Creating Layer loss2/relu_conv
I0509 22:29:24.531168 20520 net.cpp:372] loss2/relu_conv <- loss2/conv
I0509 22:29:24.531175 20520 net.cpp:323] loss2/relu_conv -> loss2/conv (in-place)
I0509 22:29:24.531183 20520 net.cpp:105] Setting up loss2/relu_conv
I0509 22:29:24.531188 20520 net.cpp:112] Top shape: 32 128 4 4 (65536)
I0509 22:29:24.531193 20520 layer_factory.hpp:74] Creating layer loss2/fc
I0509 22:29:24.531205 20520 net.cpp:76] Creating Layer loss2/fc
I0509 22:29:24.531211 20520 net.cpp:372] loss2/fc <- loss2/conv
I0509 22:29:24.531219 20520 net.cpp:334] loss2/fc -> loss2/fc
I0509 22:29:24.531227 20520 net.cpp:105] Setting up loss2/fc
I0509 22:29:24.548723 20520 net.cpp:112] Top shape: 32 1024 1 1 (32768)
I0509 22:29:24.548768 20520 layer_factory.hpp:74] Creating layer loss2/relu_fc
I0509 22:29:24.548781 20520 net.cpp:76] Creating Layer loss2/relu_fc
I0509 22:29:24.548790 20520 net.cpp:372] loss2/relu_fc <- loss2/fc
I0509 22:29:24.548800 20520 net.cpp:323] loss2/relu_fc -> loss2/fc (in-place)
I0509 22:29:24.548810 20520 net.cpp:105] Setting up loss2/relu_fc
I0509 22:29:24.548816 20520 net.cpp:112] Top shape: 32 1024 1 1 (32768)
I0509 22:29:24.548822 20520 layer_factory.hpp:74] Creating layer loss2/drop_fc
I0509 22:29:24.548830 20520 net.cpp:76] Creating Layer loss2/drop_fc
I0509 22:29:24.548835 20520 net.cpp:372] loss2/drop_fc <- loss2/fc
I0509 22:29:24.548846 20520 net.cpp:323] loss2/drop_fc -> loss2/fc (in-place)
I0509 22:29:24.548853 20520 net.cpp:105] Setting up loss2/drop_fc
I0509 22:29:24.548861 20520 net.cpp:112] Top shape: 32 1024 1 1 (32768)
I0509 22:29:24.548866 20520 layer_factory.hpp:74] Creating layer loss2/classifier
I0509 22:29:24.548876 20520 net.cpp:76] Creating Layer loss2/classifier
I0509 22:29:24.548882 20520 net.cpp:372] loss2/classifier <- loss2/fc
I0509 22:29:24.548892 20520 net.cpp:334] loss2/classifier -> loss2/classifier
I0509 22:29:24.548902 20520 net.cpp:105] Setting up loss2/classifier
I0509 22:29:24.548934 20520 net.cpp:112] Top shape: 32 2 1 1 (64)
I0509 22:29:24.548944 20520 layer_factory.hpp:74] Creating layer loss2/classifier_loss2/classifier_0_split
I0509 22:29:24.548952 20520 net.cpp:76] Creating Layer loss2/classifier_loss2/classifier_0_split
I0509 22:29:24.548959 20520 net.cpp:372] loss2/classifier_loss2/classifier_0_split <- loss2/classifier
I0509 22:29:24.548969 20520 net.cpp:334] loss2/classifier_loss2/classifier_0_split -> loss2/classifier_loss2/classifier_0_split_0
I0509 22:29:24.548979 20520 net.cpp:334] loss2/classifier_loss2/classifier_0_split -> loss2/classifier_loss2/classifier_0_split_1
I0509 22:29:24.548987 20520 net.cpp:105] Setting up loss2/classifier_loss2/classifier_0_split
I0509 22:29:24.548995 20520 net.cpp:112] Top shape: 32 2 1 1 (64)
I0509 22:29:24.549000 20520 net.cpp:112] Top shape: 32 2 1 1 (64)
I0509 22:29:24.549005 20520 layer_factory.hpp:74] Creating layer loss2/loss
I0509 22:29:24.549013 20520 net.cpp:76] Creating Layer loss2/loss
I0509 22:29:24.549018 20520 net.cpp:372] loss2/loss <- loss2/classifier_loss2/classifier_0_split_0
I0509 22:29:24.549026 20520 net.cpp:372] loss2/loss <- label_data_1_split_2
I0509 22:29:24.549036 20520 net.cpp:334] loss2/loss -> loss2/loss1
I0509 22:29:24.549077 20520 net.cpp:105] Setting up loss2/loss
I0509 22:29:24.549085 20520 layer_factory.hpp:74] Creating layer loss2/loss
I0509 22:29:24.549099 20520 net.cpp:112] Top shape: 1 1 1 1 (1)
I0509 22:29:24.549105 20520 net.cpp:118]     with loss weight 0.3
I0509 22:29:24.549124 20520 layer_factory.hpp:74] Creating layer loss2/top-1
I0509 22:29:24.549135 20520 net.cpp:76] Creating Layer loss2/top-1
I0509 22:29:24.549144 20520 net.cpp:372] loss2/top-1 <- loss2/classifier_loss2/classifier_0_split_1
I0509 22:29:24.549151 20520 net.cpp:372] loss2/top-1 <- label_data_1_split_3
I0509 22:29:24.549160 20520 net.cpp:334] loss2/top-1 -> loss2/top-1
I0509 22:29:24.549168 20520 net.cpp:105] Setting up loss2/top-1
I0509 22:29:24.549175 20520 net.cpp:112] Top shape: 1 1 1 1 (1)
I0509 22:29:24.549180 20520 layer_factory.hpp:74] Creating layer inception_4e/1x1
I0509 22:29:24.549190 20520 net.cpp:76] Creating Layer inception_4e/1x1
I0509 22:29:24.549197 20520 net.cpp:372] inception_4e/1x1 <- inception_4d/output_inception_4d/output_0_split_1
I0509 22:29:24.549207 20520 net.cpp:334] inception_4e/1x1 -> inception_4e/1x1
I0509 22:29:24.549216 20520 net.cpp:105] Setting up inception_4e/1x1
I0509 22:29:24.550387 20520 net.cpp:112] Top shape: 32 256 14 14 (1605632)
I0509 22:29:24.550403 20520 layer_factory.hpp:74] Creating layer inception_4e/relu_1x1
I0509 22:29:24.550411 20520 net.cpp:76] Creating Layer inception_4e/relu_1x1
I0509 22:29:24.550418 20520 net.cpp:372] inception_4e/relu_1x1 <- inception_4e/1x1
I0509 22:29:24.550426 20520 net.cpp:323] inception_4e/relu_1x1 -> inception_4e/1x1 (in-place)
I0509 22:29:24.550433 20520 net.cpp:105] Setting up inception_4e/relu_1x1
I0509 22:29:24.550438 20520 net.cpp:112] Top shape: 32 256 14 14 (1605632)
I0509 22:29:24.550444 20520 layer_factory.hpp:74] Creating layer inception_4e/3x3_reduce
I0509 22:29:24.550456 20520 net.cpp:76] Creating Layer inception_4e/3x3_reduce
I0509 22:29:24.550462 20520 net.cpp:372] inception_4e/3x3_reduce <- inception_4d/output_inception_4d/output_0_split_2
I0509 22:29:24.550470 20520 net.cpp:334] inception_4e/3x3_reduce -> inception_4e/3x3_reduce
I0509 22:29:24.550479 20520 net.cpp:105] Setting up inception_4e/3x3_reduce
I0509 22:29:24.551187 20520 net.cpp:112] Top shape: 32 160 14 14 (1003520)
I0509 22:29:24.551203 20520 layer_factory.hpp:74] Creating layer inception_4e/relu_3x3_reduce
I0509 22:29:24.551211 20520 net.cpp:76] Creating Layer inception_4e/relu_3x3_reduce
I0509 22:29:24.551218 20520 net.cpp:372] inception_4e/relu_3x3_reduce <- inception_4e/3x3_reduce
I0509 22:29:24.551225 20520 net.cpp:323] inception_4e/relu_3x3_reduce -> inception_4e/3x3_reduce (in-place)
I0509 22:29:24.551234 20520 net.cpp:105] Setting up inception_4e/relu_3x3_reduce
I0509 22:29:24.551239 20520 net.cpp:112] Top shape: 32 160 14 14 (1003520)
I0509 22:29:24.551260 20520 layer_factory.hpp:74] Creating layer inception_4e/3x3
I0509 22:29:24.551290 20520 net.cpp:76] Creating Layer inception_4e/3x3
I0509 22:29:24.551297 20520 net.cpp:372] inception_4e/3x3 <- inception_4e/3x3_reduce
I0509 22:29:24.551306 20520 net.cpp:334] inception_4e/3x3 -> inception_4e/3x3
I0509 22:29:24.551316 20520 net.cpp:105] Setting up inception_4e/3x3
I0509 22:29:24.555160 20520 net.cpp:112] Top shape: 32 320 14 14 (2007040)
I0509 22:29:24.555183 20520 layer_factory.hpp:74] Creating layer inception_4e/relu_3x3
I0509 22:29:24.555193 20520 net.cpp:76] Creating Layer inception_4e/relu_3x3
I0509 22:29:24.555199 20520 net.cpp:372] inception_4e/relu_3x3 <- inception_4e/3x3
I0509 22:29:24.555207 20520 net.cpp:323] inception_4e/relu_3x3 -> inception_4e/3x3 (in-place)
I0509 22:29:24.555217 20520 net.cpp:105] Setting up inception_4e/relu_3x3
I0509 22:29:24.555222 20520 net.cpp:112] Top shape: 32 320 14 14 (2007040)
I0509 22:29:24.555227 20520 layer_factory.hpp:74] Creating layer inception_4e/5x5_reduce
I0509 22:29:24.555238 20520 net.cpp:76] Creating Layer inception_4e/5x5_reduce
I0509 22:29:24.555244 20520 net.cpp:372] inception_4e/5x5_reduce <- inception_4d/output_inception_4d/output_0_split_3
I0509 22:29:24.555290 20520 net.cpp:334] inception_4e/5x5_reduce -> inception_4e/5x5_reduce
I0509 22:29:24.555304 20520 net.cpp:105] Setting up inception_4e/5x5_reduce
I0509 22:29:24.555454 20520 net.cpp:112] Top shape: 32 32 14 14 (200704)
I0509 22:29:24.555465 20520 layer_factory.hpp:74] Creating layer inception_4e/relu_5x5_reduce
I0509 22:29:24.555475 20520 net.cpp:76] Creating Layer inception_4e/relu_5x5_reduce
I0509 22:29:24.555481 20520 net.cpp:372] inception_4e/relu_5x5_reduce <- inception_4e/5x5_reduce
I0509 22:29:24.555488 20520 net.cpp:323] inception_4e/relu_5x5_reduce -> inception_4e/5x5_reduce (in-place)
I0509 22:29:24.555496 20520 net.cpp:105] Setting up inception_4e/relu_5x5_reduce
I0509 22:29:24.555501 20520 net.cpp:112] Top shape: 32 32 14 14 (200704)
I0509 22:29:24.555507 20520 layer_factory.hpp:74] Creating layer inception_4e/5x5
I0509 22:29:24.555516 20520 net.cpp:76] Creating Layer inception_4e/5x5
I0509 22:29:24.555521 20520 net.cpp:372] inception_4e/5x5 <- inception_4e/5x5_reduce
I0509 22:29:24.555534 20520 net.cpp:334] inception_4e/5x5 -> inception_4e/5x5
I0509 22:29:24.555543 20520 net.cpp:105] Setting up inception_4e/5x5
I0509 22:29:24.556409 20520 net.cpp:112] Top shape: 32 128 14 14 (802816)
I0509 22:29:24.556426 20520 layer_factory.hpp:74] Creating layer inception_4e/relu_5x5
I0509 22:29:24.556433 20520 net.cpp:76] Creating Layer inception_4e/relu_5x5
I0509 22:29:24.556439 20520 net.cpp:372] inception_4e/relu_5x5 <- inception_4e/5x5
I0509 22:29:24.556447 20520 net.cpp:323] inception_4e/relu_5x5 -> inception_4e/5x5 (in-place)
I0509 22:29:24.556453 20520 net.cpp:105] Setting up inception_4e/relu_5x5
I0509 22:29:24.556459 20520 net.cpp:112] Top shape: 32 128 14 14 (802816)
I0509 22:29:24.556464 20520 layer_factory.hpp:74] Creating layer inception_4e/pool
I0509 22:29:24.556478 20520 net.cpp:76] Creating Layer inception_4e/pool
I0509 22:29:24.556485 20520 net.cpp:372] inception_4e/pool <- inception_4d/output_inception_4d/output_0_split_4
I0509 22:29:24.556493 20520 net.cpp:334] inception_4e/pool -> inception_4e/pool
I0509 22:29:24.556502 20520 net.cpp:105] Setting up inception_4e/pool
I0509 22:29:24.556510 20520 net.cpp:112] Top shape: 32 528 14 14 (3311616)
I0509 22:29:24.556516 20520 layer_factory.hpp:74] Creating layer inception_4e/pool_proj
I0509 22:29:24.556526 20520 net.cpp:76] Creating Layer inception_4e/pool_proj
I0509 22:29:24.556532 20520 net.cpp:372] inception_4e/pool_proj <- inception_4e/pool
I0509 22:29:24.556540 20520 net.cpp:334] inception_4e/pool_proj -> inception_4e/pool_proj
I0509 22:29:24.556550 20520 net.cpp:105] Setting up inception_4e/pool_proj
I0509 22:29:24.557123 20520 net.cpp:112] Top shape: 32 128 14 14 (802816)
I0509 22:29:24.557137 20520 layer_factory.hpp:74] Creating layer inception_4e/relu_pool_proj
I0509 22:29:24.557147 20520 net.cpp:76] Creating Layer inception_4e/relu_pool_proj
I0509 22:29:24.557153 20520 net.cpp:372] inception_4e/relu_pool_proj <- inception_4e/pool_proj
I0509 22:29:24.557160 20520 net.cpp:323] inception_4e/relu_pool_proj -> inception_4e/pool_proj (in-place)
I0509 22:29:24.557168 20520 net.cpp:105] Setting up inception_4e/relu_pool_proj
I0509 22:29:24.557174 20520 net.cpp:112] Top shape: 32 128 14 14 (802816)
I0509 22:29:24.557179 20520 layer_factory.hpp:74] Creating layer inception_4e/output
I0509 22:29:24.557188 20520 net.cpp:76] Creating Layer inception_4e/output
I0509 22:29:24.557193 20520 net.cpp:372] inception_4e/output <- inception_4e/1x1
I0509 22:29:24.557199 20520 net.cpp:372] inception_4e/output <- inception_4e/3x3
I0509 22:29:24.557206 20520 net.cpp:372] inception_4e/output <- inception_4e/5x5
I0509 22:29:24.557212 20520 net.cpp:372] inception_4e/output <- inception_4e/pool_proj
I0509 22:29:24.557219 20520 net.cpp:334] inception_4e/output -> inception_4e/output
I0509 22:29:24.557227 20520 net.cpp:105] Setting up inception_4e/output
I0509 22:29:24.557235 20520 net.cpp:112] Top shape: 32 832 14 14 (5218304)
I0509 22:29:24.557240 20520 layer_factory.hpp:74] Creating layer pool4/3x3_s2
I0509 22:29:24.557250 20520 net.cpp:76] Creating Layer pool4/3x3_s2
I0509 22:29:24.557282 20520 net.cpp:372] pool4/3x3_s2 <- inception_4e/output
I0509 22:29:24.557294 20520 net.cpp:334] pool4/3x3_s2 -> pool4/3x3_s2
I0509 22:29:24.557303 20520 net.cpp:105] Setting up pool4/3x3_s2
I0509 22:29:24.557310 20520 net.cpp:112] Top shape: 32 832 7 7 (1304576)
I0509 22:29:24.557317 20520 layer_factory.hpp:74] Creating layer pool4/3x3_s2_pool4/3x3_s2_0_split
I0509 22:29:24.557327 20520 net.cpp:76] Creating Layer pool4/3x3_s2_pool4/3x3_s2_0_split
I0509 22:29:24.557332 20520 net.cpp:372] pool4/3x3_s2_pool4/3x3_s2_0_split <- pool4/3x3_s2
I0509 22:29:24.557339 20520 net.cpp:334] pool4/3x3_s2_pool4/3x3_s2_0_split -> pool4/3x3_s2_pool4/3x3_s2_0_split_0
I0509 22:29:24.557348 20520 net.cpp:334] pool4/3x3_s2_pool4/3x3_s2_0_split -> pool4/3x3_s2_pool4/3x3_s2_0_split_1
I0509 22:29:24.557358 20520 net.cpp:334] pool4/3x3_s2_pool4/3x3_s2_0_split -> pool4/3x3_s2_pool4/3x3_s2_0_split_2
I0509 22:29:24.557366 20520 net.cpp:334] pool4/3x3_s2_pool4/3x3_s2_0_split -> pool4/3x3_s2_pool4/3x3_s2_0_split_3
I0509 22:29:24.557374 20520 net.cpp:105] Setting up pool4/3x3_s2_pool4/3x3_s2_0_split
I0509 22:29:24.557380 20520 net.cpp:112] Top shape: 32 832 7 7 (1304576)
I0509 22:29:24.557385 20520 net.cpp:112] Top shape: 32 832 7 7 (1304576)
I0509 22:29:24.557390 20520 net.cpp:112] Top shape: 32 832 7 7 (1304576)
I0509 22:29:24.557395 20520 net.cpp:112] Top shape: 32 832 7 7 (1304576)
I0509 22:29:24.557400 20520 layer_factory.hpp:74] Creating layer inception_5a/1x1
I0509 22:29:24.557411 20520 net.cpp:76] Creating Layer inception_5a/1x1
I0509 22:29:24.557417 20520 net.cpp:372] inception_5a/1x1 <- pool4/3x3_s2_pool4/3x3_s2_0_split_0
I0509 22:29:24.557427 20520 net.cpp:334] inception_5a/1x1 -> inception_5a/1x1
I0509 22:29:24.557437 20520 net.cpp:105] Setting up inception_5a/1x1
I0509 22:29:24.559212 20520 net.cpp:112] Top shape: 32 256 7 7 (401408)
I0509 22:29:24.559231 20520 layer_factory.hpp:74] Creating layer inception_5a/relu_1x1
I0509 22:29:24.559240 20520 net.cpp:76] Creating Layer inception_5a/relu_1x1
I0509 22:29:24.559278 20520 net.cpp:372] inception_5a/relu_1x1 <- inception_5a/1x1
I0509 22:29:24.559288 20520 net.cpp:323] inception_5a/relu_1x1 -> inception_5a/1x1 (in-place)
I0509 22:29:24.559298 20520 net.cpp:105] Setting up inception_5a/relu_1x1
I0509 22:29:24.559303 20520 net.cpp:112] Top shape: 32 256 7 7 (401408)
I0509 22:29:24.559309 20520 layer_factory.hpp:74] Creating layer inception_5a/3x3_reduce
I0509 22:29:24.559319 20520 net.cpp:76] Creating Layer inception_5a/3x3_reduce
I0509 22:29:24.559326 20520 net.cpp:372] inception_5a/3x3_reduce <- pool4/3x3_s2_pool4/3x3_s2_0_split_1
I0509 22:29:24.559334 20520 net.cpp:334] inception_5a/3x3_reduce -> inception_5a/3x3_reduce
I0509 22:29:24.559344 20520 net.cpp:105] Setting up inception_5a/3x3_reduce
I0509 22:29:24.560472 20520 net.cpp:112] Top shape: 32 160 7 7 (250880)
I0509 22:29:24.560487 20520 layer_factory.hpp:74] Creating layer inception_5a/relu_3x3_reduce
I0509 22:29:24.560494 20520 net.cpp:76] Creating Layer inception_5a/relu_3x3_reduce
I0509 22:29:24.560502 20520 net.cpp:372] inception_5a/relu_3x3_reduce <- inception_5a/3x3_reduce
I0509 22:29:24.560510 20520 net.cpp:323] inception_5a/relu_3x3_reduce -> inception_5a/3x3_reduce (in-place)
I0509 22:29:24.560518 20520 net.cpp:105] Setting up inception_5a/relu_3x3_reduce
I0509 22:29:24.560524 20520 net.cpp:112] Top shape: 32 160 7 7 (250880)
I0509 22:29:24.560529 20520 layer_factory.hpp:74] Creating layer inception_5a/3x3
I0509 22:29:24.560538 20520 net.cpp:76] Creating Layer inception_5a/3x3
I0509 22:29:24.560544 20520 net.cpp:372] inception_5a/3x3 <- inception_5a/3x3_reduce
I0509 22:29:24.560552 20520 net.cpp:334] inception_5a/3x3 -> inception_5a/3x3
I0509 22:29:24.560561 20520 net.cpp:105] Setting up inception_5a/3x3
I0509 22:29:24.564398 20520 net.cpp:112] Top shape: 32 320 7 7 (501760)
I0509 22:29:24.564419 20520 layer_factory.hpp:74] Creating layer inception_5a/relu_3x3
I0509 22:29:24.564429 20520 net.cpp:76] Creating Layer inception_5a/relu_3x3
I0509 22:29:24.564435 20520 net.cpp:372] inception_5a/relu_3x3 <- inception_5a/3x3
I0509 22:29:24.564470 20520 net.cpp:323] inception_5a/relu_3x3 -> inception_5a/3x3 (in-place)
I0509 22:29:24.564478 20520 net.cpp:105] Setting up inception_5a/relu_3x3
I0509 22:29:24.564484 20520 net.cpp:112] Top shape: 32 320 7 7 (501760)
I0509 22:29:24.564491 20520 layer_factory.hpp:74] Creating layer inception_5a/5x5_reduce
I0509 22:29:24.564502 20520 net.cpp:76] Creating Layer inception_5a/5x5_reduce
I0509 22:29:24.564509 20520 net.cpp:372] inception_5a/5x5_reduce <- pool4/3x3_s2_pool4/3x3_s2_0_split_2
I0509 22:29:24.564517 20520 net.cpp:334] inception_5a/5x5_reduce -> inception_5a/5x5_reduce
I0509 22:29:24.564527 20520 net.cpp:105] Setting up inception_5a/5x5_reduce
I0509 22:29:24.564761 20520 net.cpp:112] Top shape: 32 32 7 7 (50176)
I0509 22:29:24.564774 20520 layer_factory.hpp:74] Creating layer inception_5a/relu_5x5_reduce
I0509 22:29:24.564781 20520 net.cpp:76] Creating Layer inception_5a/relu_5x5_reduce
I0509 22:29:24.564786 20520 net.cpp:372] inception_5a/relu_5x5_reduce <- inception_5a/5x5_reduce
I0509 22:29:24.564793 20520 net.cpp:323] inception_5a/relu_5x5_reduce -> inception_5a/5x5_reduce (in-place)
I0509 22:29:24.564801 20520 net.cpp:105] Setting up inception_5a/relu_5x5_reduce
I0509 22:29:24.564806 20520 net.cpp:112] Top shape: 32 32 7 7 (50176)
I0509 22:29:24.564812 20520 layer_factory.hpp:74] Creating layer inception_5a/5x5
I0509 22:29:24.564822 20520 net.cpp:76] Creating Layer inception_5a/5x5
I0509 22:29:24.564828 20520 net.cpp:372] inception_5a/5x5 <- inception_5a/5x5_reduce
I0509 22:29:24.564838 20520 net.cpp:334] inception_5a/5x5 -> inception_5a/5x5
I0509 22:29:24.564846 20520 net.cpp:105] Setting up inception_5a/5x5
I0509 22:29:24.565716 20520 net.cpp:112] Top shape: 32 128 7 7 (200704)
I0509 22:29:24.565731 20520 layer_factory.hpp:74] Creating layer inception_5a/relu_5x5
I0509 22:29:24.565738 20520 net.cpp:76] Creating Layer inception_5a/relu_5x5
I0509 22:29:24.566555 20520 net.cpp:372] inception_5a/relu_5x5 <- inception_5a/5x5
I0509 22:29:24.566568 20520 net.cpp:323] inception_5a/relu_5x5 -> inception_5a/5x5 (in-place)
I0509 22:29:24.566577 20520 net.cpp:105] Setting up inception_5a/relu_5x5
I0509 22:29:24.566583 20520 net.cpp:112] Top shape: 32 128 7 7 (200704)
I0509 22:29:24.566588 20520 layer_factory.hpp:74] Creating layer inception_5a/pool
I0509 22:29:24.566596 20520 net.cpp:76] Creating Layer inception_5a/pool
I0509 22:29:24.566603 20520 net.cpp:372] inception_5a/pool <- pool4/3x3_s2_pool4/3x3_s2_0_split_3
I0509 22:29:24.566611 20520 net.cpp:334] inception_5a/pool -> inception_5a/pool
I0509 22:29:24.566640 20520 net.cpp:105] Setting up inception_5a/pool
I0509 22:29:24.566653 20520 net.cpp:112] Top shape: 32 832 7 7 (1304576)
I0509 22:29:24.566658 20520 layer_factory.hpp:74] Creating layer inception_5a/pool_proj
I0509 22:29:24.566668 20520 net.cpp:76] Creating Layer inception_5a/pool_proj
I0509 22:29:24.566673 20520 net.cpp:372] inception_5a/pool_proj <- inception_5a/pool
I0509 22:29:24.566683 20520 net.cpp:334] inception_5a/pool_proj -> inception_5a/pool_proj
I0509 22:29:24.566691 20520 net.cpp:105] Setting up inception_5a/pool_proj
I0509 22:29:24.567597 20520 net.cpp:112] Top shape: 32 128 7 7 (200704)
I0509 22:29:24.567611 20520 layer_factory.hpp:74] Creating layer inception_5a/relu_pool_proj
I0509 22:29:24.567620 20520 net.cpp:76] Creating Layer inception_5a/relu_pool_proj
I0509 22:29:24.567626 20520 net.cpp:372] inception_5a/relu_pool_proj <- inception_5a/pool_proj
I0509 22:29:24.567636 20520 net.cpp:323] inception_5a/relu_pool_proj -> inception_5a/pool_proj (in-place)
I0509 22:29:24.567643 20520 net.cpp:105] Setting up inception_5a/relu_pool_proj
I0509 22:29:24.567649 20520 net.cpp:112] Top shape: 32 128 7 7 (200704)
I0509 22:29:24.567654 20520 layer_factory.hpp:74] Creating layer inception_5a/output
I0509 22:29:24.567662 20520 net.cpp:76] Creating Layer inception_5a/output
I0509 22:29:24.567668 20520 net.cpp:372] inception_5a/output <- inception_5a/1x1
I0509 22:29:24.567674 20520 net.cpp:372] inception_5a/output <- inception_5a/3x3
I0509 22:29:24.567682 20520 net.cpp:372] inception_5a/output <- inception_5a/5x5
I0509 22:29:24.567701 20520 net.cpp:372] inception_5a/output <- inception_5a/pool_proj
I0509 22:29:24.567709 20520 net.cpp:334] inception_5a/output -> inception_5a/output
I0509 22:29:24.567718 20520 net.cpp:105] Setting up inception_5a/output
I0509 22:29:24.567724 20520 net.cpp:112] Top shape: 32 832 7 7 (1304576)
I0509 22:29:24.567730 20520 layer_factory.hpp:74] Creating layer inception_5a/output_inception_5a/output_0_split
I0509 22:29:24.567739 20520 net.cpp:76] Creating Layer inception_5a/output_inception_5a/output_0_split
I0509 22:29:24.567744 20520 net.cpp:372] inception_5a/output_inception_5a/output_0_split <- inception_5a/output
I0509 22:29:24.567754 20520 net.cpp:334] inception_5a/output_inception_5a/output_0_split -> inception_5a/output_inception_5a/output_0_split_0
I0509 22:29:24.567764 20520 net.cpp:334] inception_5a/output_inception_5a/output_0_split -> inception_5a/output_inception_5a/output_0_split_1
I0509 22:29:24.567773 20520 net.cpp:334] inception_5a/output_inception_5a/output_0_split -> inception_5a/output_inception_5a/output_0_split_2
I0509 22:29:24.567782 20520 net.cpp:334] inception_5a/output_inception_5a/output_0_split -> inception_5a/output_inception_5a/output_0_split_3
I0509 22:29:24.567790 20520 net.cpp:105] Setting up inception_5a/output_inception_5a/output_0_split
I0509 22:29:24.567796 20520 net.cpp:112] Top shape: 32 832 7 7 (1304576)
I0509 22:29:24.567801 20520 net.cpp:112] Top shape: 32 832 7 7 (1304576)
I0509 22:29:24.567806 20520 net.cpp:112] Top shape: 32 832 7 7 (1304576)
I0509 22:29:24.567811 20520 net.cpp:112] Top shape: 32 832 7 7 (1304576)
I0509 22:29:24.567816 20520 layer_factory.hpp:74] Creating layer inception_5b/1x1
I0509 22:29:24.567827 20520 net.cpp:76] Creating Layer inception_5b/1x1
I0509 22:29:24.567833 20520 net.cpp:372] inception_5b/1x1 <- inception_5a/output_inception_5a/output_0_split_0
I0509 22:29:24.567842 20520 net.cpp:334] inception_5b/1x1 -> inception_5b/1x1
I0509 22:29:24.567852 20520 net.cpp:105] Setting up inception_5b/1x1
I0509 22:29:24.570734 20520 net.cpp:112] Top shape: 32 384 7 7 (602112)
I0509 22:29:24.570754 20520 layer_factory.hpp:74] Creating layer inception_5b/relu_1x1
I0509 22:29:24.570762 20520 net.cpp:76] Creating Layer inception_5b/relu_1x1
I0509 22:29:24.570768 20520 net.cpp:372] inception_5b/relu_1x1 <- inception_5b/1x1
I0509 22:29:24.570776 20520 net.cpp:323] inception_5b/relu_1x1 -> inception_5b/1x1 (in-place)
I0509 22:29:24.570785 20520 net.cpp:105] Setting up inception_5b/relu_1x1
I0509 22:29:24.570791 20520 net.cpp:112] Top shape: 32 384 7 7 (602112)
I0509 22:29:24.570796 20520 layer_factory.hpp:74] Creating layer inception_5b/3x3_reduce
I0509 22:29:24.570806 20520 net.cpp:76] Creating Layer inception_5b/3x3_reduce
I0509 22:29:24.570813 20520 net.cpp:372] inception_5b/3x3_reduce <- inception_5a/output_inception_5a/output_0_split_1
I0509 22:29:24.570822 20520 net.cpp:334] inception_5b/3x3_reduce -> inception_5b/3x3_reduce
I0509 22:29:24.570830 20520 net.cpp:105] Setting up inception_5b/3x3_reduce
I0509 22:29:24.572162 20520 net.cpp:112] Top shape: 32 192 7 7 (301056)
I0509 22:29:24.572177 20520 layer_factory.hpp:74] Creating layer inception_5b/relu_3x3_reduce
I0509 22:29:24.572186 20520 net.cpp:76] Creating Layer inception_5b/relu_3x3_reduce
I0509 22:29:24.572192 20520 net.cpp:372] inception_5b/relu_3x3_reduce <- inception_5b/3x3_reduce
I0509 22:29:24.572201 20520 net.cpp:323] inception_5b/relu_3x3_reduce -> inception_5b/3x3_reduce (in-place)
I0509 22:29:24.572211 20520 net.cpp:105] Setting up inception_5b/relu_3x3_reduce
I0509 22:29:24.572216 20520 net.cpp:112] Top shape: 32 192 7 7 (301056)
I0509 22:29:24.572221 20520 layer_factory.hpp:74] Creating layer inception_5b/3x3
I0509 22:29:24.572229 20520 net.cpp:76] Creating Layer inception_5b/3x3
I0509 22:29:24.572234 20520 net.cpp:372] inception_5b/3x3 <- inception_5b/3x3_reduce
I0509 22:29:24.572258 20520 net.cpp:334] inception_5b/3x3 -> inception_5b/3x3
I0509 22:29:24.572269 20520 net.cpp:105] Setting up inception_5b/3x3
I0509 22:29:24.578225 20520 net.cpp:112] Top shape: 32 384 7 7 (602112)
I0509 22:29:24.578287 20520 layer_factory.hpp:74] Creating layer inception_5b/relu_3x3
I0509 22:29:24.578299 20520 net.cpp:76] Creating Layer inception_5b/relu_3x3
I0509 22:29:24.578307 20520 net.cpp:372] inception_5b/relu_3x3 <- inception_5b/3x3
I0509 22:29:24.578318 20520 net.cpp:323] inception_5b/relu_3x3 -> inception_5b/3x3 (in-place)
I0509 22:29:24.578327 20520 net.cpp:105] Setting up inception_5b/relu_3x3
I0509 22:29:24.578333 20520 net.cpp:112] Top shape: 32 384 7 7 (602112)
I0509 22:29:24.578340 20520 layer_factory.hpp:74] Creating layer inception_5b/5x5_reduce
I0509 22:29:24.578347 20520 net.cpp:76] Creating Layer inception_5b/5x5_reduce
I0509 22:29:24.578354 20520 net.cpp:372] inception_5b/5x5_reduce <- inception_5a/output_inception_5a/output_0_split_2
I0509 22:29:24.578366 20520 net.cpp:334] inception_5b/5x5_reduce -> inception_5b/5x5_reduce
I0509 22:29:24.578374 20520 net.cpp:105] Setting up inception_5b/5x5_reduce
I0509 22:29:24.578718 20520 net.cpp:112] Top shape: 32 48 7 7 (75264)
I0509 22:29:24.578732 20520 layer_factory.hpp:74] Creating layer inception_5b/relu_5x5_reduce
I0509 22:29:24.578739 20520 net.cpp:76] Creating Layer inception_5b/relu_5x5_reduce
I0509 22:29:24.578745 20520 net.cpp:372] inception_5b/relu_5x5_reduce <- inception_5b/5x5_reduce
I0509 22:29:24.578754 20520 net.cpp:323] inception_5b/relu_5x5_reduce -> inception_5b/5x5_reduce (in-place)
I0509 22:29:24.578763 20520 net.cpp:105] Setting up inception_5b/relu_5x5_reduce
I0509 22:29:24.578768 20520 net.cpp:112] Top shape: 32 48 7 7 (75264)
I0509 22:29:24.578773 20520 layer_factory.hpp:74] Creating layer inception_5b/5x5
I0509 22:29:24.578781 20520 net.cpp:76] Creating Layer inception_5b/5x5
I0509 22:29:24.578788 20520 net.cpp:372] inception_5b/5x5 <- inception_5b/5x5_reduce
I0509 22:29:24.578797 20520 net.cpp:334] inception_5b/5x5 -> inception_5b/5x5
I0509 22:29:24.578805 20520 net.cpp:105] Setting up inception_5b/5x5
I0509 22:29:24.580085 20520 net.cpp:112] Top shape: 32 128 7 7 (200704)
I0509 22:29:24.580101 20520 layer_factory.hpp:74] Creating layer inception_5b/relu_5x5
I0509 22:29:24.580111 20520 net.cpp:76] Creating Layer inception_5b/relu_5x5
I0509 22:29:24.580116 20520 net.cpp:372] inception_5b/relu_5x5 <- inception_5b/5x5
I0509 22:29:24.580123 20520 net.cpp:323] inception_5b/relu_5x5 -> inception_5b/5x5 (in-place)
I0509 22:29:24.580132 20520 net.cpp:105] Setting up inception_5b/relu_5x5
I0509 22:29:24.580137 20520 net.cpp:112] Top shape: 32 128 7 7 (200704)
I0509 22:29:24.580142 20520 layer_factory.hpp:74] Creating layer inception_5b/pool
I0509 22:29:24.580150 20520 net.cpp:76] Creating Layer inception_5b/pool
I0509 22:29:24.580157 20520 net.cpp:372] inception_5b/pool <- inception_5a/output_inception_5a/output_0_split_3
I0509 22:29:24.580169 20520 net.cpp:334] inception_5b/pool -> inception_5b/pool
I0509 22:29:24.580179 20520 net.cpp:105] Setting up inception_5b/pool
I0509 22:29:24.580188 20520 net.cpp:112] Top shape: 32 832 7 7 (1304576)
I0509 22:29:24.580193 20520 layer_factory.hpp:74] Creating layer inception_5b/pool_proj
I0509 22:29:24.580202 20520 net.cpp:76] Creating Layer inception_5b/pool_proj
I0509 22:29:24.580211 20520 net.cpp:372] inception_5b/pool_proj <- inception_5b/pool
I0509 22:29:24.580222 20520 net.cpp:334] inception_5b/pool_proj -> inception_5b/pool_proj
I0509 22:29:24.580231 20520 net.cpp:105] Setting up inception_5b/pool_proj
I0509 22:29:24.581140 20520 net.cpp:112] Top shape: 32 128 7 7 (200704)
I0509 22:29:24.581153 20520 layer_factory.hpp:74] Creating layer inception_5b/relu_pool_proj
I0509 22:29:24.581164 20520 net.cpp:76] Creating Layer inception_5b/relu_pool_proj
I0509 22:29:24.581171 20520 net.cpp:372] inception_5b/relu_pool_proj <- inception_5b/pool_proj
I0509 22:29:24.581178 20520 net.cpp:323] inception_5b/relu_pool_proj -> inception_5b/pool_proj (in-place)
I0509 22:29:24.581187 20520 net.cpp:105] Setting up inception_5b/relu_pool_proj
I0509 22:29:24.581192 20520 net.cpp:112] Top shape: 32 128 7 7 (200704)
I0509 22:29:24.581197 20520 layer_factory.hpp:74] Creating layer inception_5b/output
I0509 22:29:24.581223 20520 net.cpp:76] Creating Layer inception_5b/output
I0509 22:29:24.581230 20520 net.cpp:372] inception_5b/output <- inception_5b/1x1
I0509 22:29:24.581238 20520 net.cpp:372] inception_5b/output <- inception_5b/3x3
I0509 22:29:24.581244 20520 net.cpp:372] inception_5b/output <- inception_5b/5x5
I0509 22:29:24.581250 20520 net.cpp:372] inception_5b/output <- inception_5b/pool_proj
I0509 22:29:24.581272 20520 net.cpp:334] inception_5b/output -> inception_5b/output
I0509 22:29:24.581284 20520 net.cpp:105] Setting up inception_5b/output
I0509 22:29:24.581290 20520 net.cpp:112] Top shape: 32 1024 7 7 (1605632)
I0509 22:29:24.581296 20520 layer_factory.hpp:74] Creating layer pool5/7x7_s1
I0509 22:29:24.581305 20520 net.cpp:76] Creating Layer pool5/7x7_s1
I0509 22:29:24.581310 20520 net.cpp:372] pool5/7x7_s1 <- inception_5b/output
I0509 22:29:24.581318 20520 net.cpp:334] pool5/7x7_s1 -> pool5/7x7_s1
I0509 22:29:24.581327 20520 net.cpp:105] Setting up pool5/7x7_s1
I0509 22:29:24.581333 20520 net.cpp:112] Top shape: 32 1024 1 1 (32768)
I0509 22:29:24.581339 20520 layer_factory.hpp:74] Creating layer pool5/drop_7x7_s1
I0509 22:29:24.581351 20520 net.cpp:76] Creating Layer pool5/drop_7x7_s1
I0509 22:29:24.581357 20520 net.cpp:372] pool5/drop_7x7_s1 <- pool5/7x7_s1
I0509 22:29:24.581363 20520 net.cpp:323] pool5/drop_7x7_s1 -> pool5/7x7_s1 (in-place)
I0509 22:29:24.581372 20520 net.cpp:105] Setting up pool5/drop_7x7_s1
I0509 22:29:24.581378 20520 net.cpp:112] Top shape: 32 1024 1 1 (32768)
I0509 22:29:24.581384 20520 layer_factory.hpp:74] Creating layer loss3/classifier
I0509 22:29:24.581395 20520 net.cpp:76] Creating Layer loss3/classifier
I0509 22:29:24.581401 20520 net.cpp:372] loss3/classifier <- pool5/7x7_s1
I0509 22:29:24.581409 20520 net.cpp:334] loss3/classifier -> loss3/classifier
I0509 22:29:24.581418 20520 net.cpp:105] Setting up loss3/classifier
I0509 22:29:24.581451 20520 net.cpp:112] Top shape: 32 2 1 1 (64)
I0509 22:29:24.581462 20520 layer_factory.hpp:74] Creating layer loss3/classifier_loss3/classifier_0_split
I0509 22:29:24.581472 20520 net.cpp:76] Creating Layer loss3/classifier_loss3/classifier_0_split
I0509 22:29:24.581478 20520 net.cpp:372] loss3/classifier_loss3/classifier_0_split <- loss3/classifier
I0509 22:29:24.581485 20520 net.cpp:334] loss3/classifier_loss3/classifier_0_split -> loss3/classifier_loss3/classifier_0_split_0
I0509 22:29:24.581496 20520 net.cpp:334] loss3/classifier_loss3/classifier_0_split -> loss3/classifier_loss3/classifier_0_split_1
I0509 22:29:24.581503 20520 net.cpp:105] Setting up loss3/classifier_loss3/classifier_0_split
I0509 22:29:24.581511 20520 net.cpp:112] Top shape: 32 2 1 1 (64)
I0509 22:29:24.581533 20520 net.cpp:112] Top shape: 32 2 1 1 (64)
I0509 22:29:24.581539 20520 layer_factory.hpp:74] Creating layer loss3/loss3
I0509 22:29:24.581550 20520 net.cpp:76] Creating Layer loss3/loss3
I0509 22:29:24.581557 20520 net.cpp:372] loss3/loss3 <- loss3/classifier_loss3/classifier_0_split_0
I0509 22:29:24.581564 20520 net.cpp:372] loss3/loss3 <- label_data_1_split_4
I0509 22:29:24.581571 20520 net.cpp:334] loss3/loss3 -> loss3/loss3
I0509 22:29:24.581580 20520 net.cpp:105] Setting up loss3/loss3
I0509 22:29:24.581588 20520 layer_factory.hpp:74] Creating layer loss3/loss3
I0509 22:29:24.581604 20520 net.cpp:112] Top shape: 1 1 1 1 (1)
I0509 22:29:24.581609 20520 net.cpp:118]     with loss weight 1
I0509 22:29:24.581627 20520 layer_factory.hpp:74] Creating layer loss3/top-1
I0509 22:29:24.581635 20520 net.cpp:76] Creating Layer loss3/top-1
I0509 22:29:24.581641 20520 net.cpp:372] loss3/top-1 <- loss3/classifier_loss3/classifier_0_split_1
I0509 22:29:24.581648 20520 net.cpp:372] loss3/top-1 <- label_data_1_split_5
I0509 22:29:24.581657 20520 net.cpp:334] loss3/top-1 -> loss3/top-1
I0509 22:29:24.581666 20520 net.cpp:105] Setting up loss3/top-1
I0509 22:29:24.581672 20520 net.cpp:112] Top shape: 1 1 1 1 (1)
I0509 22:29:24.581681 20520 net.cpp:165] loss3/top-1 does not need backward computation.
I0509 22:29:24.581686 20520 net.cpp:163] loss3/loss3 needs backward computation.
I0509 22:29:24.581703 20520 net.cpp:163] loss3/classifier_loss3/classifier_0_split needs backward computation.
I0509 22:29:24.581709 20520 net.cpp:163] loss3/classifier needs backward computation.
I0509 22:29:24.581715 20520 net.cpp:163] pool5/drop_7x7_s1 needs backward computation.
…
