…
I0509 22:10:17.391371 19342 net.cpp:253] The NetState phase (0) differed from the phase (1) specified by a rule in layer loss3/top-1
I0509 22:10:17.392696 19342 net.cpp:42] Initializing net from parameters: 
name: "GoogleNet"
state {
  phase: TRAIN
}
layer {
  name: "data"
  type: "Data"
  top: "data"
  top: "label"
  include {
    phase: TRAIN
  }
  transform_param {
    mirror: true
    crop_size: 224
    mean_value: 104
    mean_value: 117
    mean_value: 123
  }
  data_param {
    source: "train_lmdb"
    batch_size: 32
    backend: LMDB
  }
}
layer {
  name: "conv1/7x7_s2"
  type: "Convolution"
  bottom: "data"
  top: "conv1/7x7_s2"
  param {
    lr_mult: 1
    decay_mult: 1
  }
  param {
    lr_mult: 2
    decay_mult: 0
  }
  convolution_param {
    num_output: 64
    pad: 3
    kernel_size: 7
    stride: 2
    weight_filler {
      type: "xavier"
      std: 0.1
    }
    bias_filler {
      type: "constant"
      value: 0.2
    }
  }
}
layer {
  name: "conv1/relu_7x7"
  type: "ReLU"
  bottom: "conv1/7x7_s2"
  top: "conv1/7x7_s2"
}
layer {
  name: "pool1/3x3_s2"
  type: "Pooling"
  bottom: "conv1/7x7_s2"
  top: "pool1/3x3_s2"
  pooling_param {
    pool: MAX
    kernel_size: 3
    stride: 2
  }
}
layer {
  name: "pool1/norm1"
  type: "LRN"
  bottom: "pool1/3x3_s2"
  top: "pool1/norm1"
  lrn_param {
    local_size: 5
    alpha: 0.0001
    beta: 0.75
  }
}
layer {
  name: "conv2/3x3_reduce"
  type: "Convolution"
  bottom: "pool1/norm1"
  top: "conv2/3x3_reduce"
  param {
    lr_mult: 1
    decay_mult: 1
  }
  param {
    lr_mult: 2
    decay_mult: 0
  }
  convolution_param {
    num_output: 64
    kernel_size: 1
    weight_filler {
      type: "xavier"
      std: 0.1
    }
    bias_filler {
      type: "constant"
      value: 0.2
    }
  }
}
layer {
  name: "conv2/relu_3x3_reduce"
  type: "ReLU"
  bottom: "conv2/3x3_reduce"
  top: "conv2/3x3_reduce"
}
layer {
  name: "conv2/3x3"
  type: "Convolution"
  bottom: "conv2/3x3_reduce"
  top: "conv2/3x3"
  param {
    lr_mult: 1
    decay_mult: 1
  }
  param {
    lr_mult: 2
    decay_mult: 0
  }
  convolution_param {
    num_output: 192
    pad: 1
    kernel_size: 3
    weight_filler {
      type: "xavier"
      std: 0.03
    }
    bias_filler {
      type: "constant"
      value: 0.2
    }
  }
}
layer {
  name: "conv2/relu_3x3"
  type: "ReLU"
  bottom: "conv2/3x3"
  top: "conv2/3x3"
}
layer {
  name: "conv2/norm2"
  type: "LRN"
  bottom: "conv2/3x3"
  top: "conv2/norm2"
  lrn_param {
    local_size: 5
    alpha: 0.0001
    beta: 0.75
  }
}
layer {
  name: "pool2/3x3_s2"
  type: "Pooling"
  bottom: "conv2/norm2"
  top: "pool2/3x3_s2"
  pooling_param {
    pool: MAX
    kernel_size: 3
    stride: 2
  }
}
layer {
  name: "inception_3a/1x1"
  type: "Convolution"
  bottom: "pool2/3x3_s2"
  top: "inception_3a/1x1"
  param {
    lr_mult: 1
    decay_mult: 1
  }
  param {
    lr_mult: 2
    decay_mult: 0
  }
  convolution_param {
    num_output: 64
    kernel_size: 1
    weight_filler {
      type: "xavier"
      std: 0.03
    }
    bias_filler {
      type: "constant"
      value: 0.2
    }
  }
}
layer {
  name: "inception_3a/relu_1x1"
  type: "ReLU"
  bottom: "inception_3a/1x1"
  top: "inception_3a/1x1"
}
layer {
  name: "inception_3a/3x3_reduce"
  type: "Convolution"
  bottom: "pool2/3x3_s2"
  top: "inception_3a/3x3_reduce"
  param {
    lr_mult: 1
    decay_mult: 1
  }
  param {
    lr_mult: 2
    decay_mult: 0
  }
  convolution_param {
    num_output: 96
    kernel_size: 1
    weight_filler {
      type: "xavier"
      std: 0.09
    }
    bias_filler {
      type: "constant"
      value: 0.2
    }
  }
}
layer {
  name: "inception_3a/relu_3x3_reduce"
  type: "ReLU"
  bottom: "inception_3a/3x3_reduce"
  top: "inception_3a/3x3_reduce"
}
layer {
  name: "inception_3a/3x3"
  type: "Convolution"
  bottom: "inception_3a/3x3_reduce"
  top: "inception_3a/3x3"
  param {
    lr_mult: 1
    decay_mult: 1
  }
  param {
    lr_mult: 2
    decay_mult: 0
  }
  convolution_param {
    num_output: 128
    pad: 1
    kernel_size: 3
    weight_filler {
      type: "xavier"
      std: 0.03
    }
    bias_filler {
      type: "constant"
      value: 0.2
    }
  }
}
layer {
  name: "inception_3a/relu_3x3"
  type: "ReLU"
  bottom: "inception_3a/3x3"
  top: "inception_3a/3x3"
}
layer {
  name: "inception_3a/5x5_reduce"
  type: "Convolution"
  bottom: "pool2/3x3_s2"
  top: "inception_3a/5x5_reduce"
  param {
    lr_mult: 1
    decay_mult: 1
  }
  param {
    lr_mult: 2
    decay_mult: 0
  }
  convolution_param {
    num_output: 16
    kernel_size: 1
    weight_filler {
      type: "xavier"
      std: 0.2
    }
    bias_filler {
      type: "constant"
      value: 0.2
    }
  }
}
layer {
  name: "inception_3a/relu_5x5_reduce"
  type: "ReLU"
  bottom: "inception_3a/5x5_reduce"
  top: "inception_3a/5x5_reduce"
}
layer {
  name: "inception_3a/5x5"
  type: "Convolution"
  bottom: "inception_3a/5x5_reduce"
  top: "inception_3a/5x5"
  param {
    lr_mult: 1
    decay_mult: 1
  }
  param {
    lr_mult: 2
    decay_mult: 0
  }
  convolution_param {
    num_output: 32
    pad: 2
    kernel_size: 5
    weight_filler {
      type: "xavier"
      std: 0.03
    }
    bias_filler {
      type: "constant"
      value: 0.2
    }
  }
}
layer {
  name: "inception_3a/relu_5x5"
  type: "ReLU"
  bottom: "inception_3a/5x5"
  top: "inception_3a/5x5"
}
layer {
  name: "inception_3a/pool"
  type: "Pooling"
  bottom: "pool2/3x3_s2"
  top: "inception_3a/pool"
  pooling_param {
    pool: MAX
    kernel_size: 3
    stride: 1
    pad: 1
  }
}
layer {
  name: "inception_3a/pool_proj"
  type: "Convolution"
  bottom: "inception_3a/pool"
  top: "inception_3a/pool_proj"
  param {
    lr_mult: 1
    decay_mult: 1
  }
  param {
    lr_mult: 2
    decay_mult: 0
  }
  convolution_param {
    num_output: 32
    kernel_size: 1
    weight_filler {
      type: "xavier"
      std: 0.1
    }
    bias_filler {
      type: "constant"
      value: 0.2
    }
  }
}
layer {
  name: "inception_3a/relu_pool_proj"
  type: "ReLU"
  bottom: "inception_3a/pool_proj"
  top: "inception_3a/pool_proj"
}
layer {
  name: "inception_3a/output"
  type: "Concat"
  bottom: "inception_3a/1x1"
  bottom: "inception_3a/3x3"
  bottom: "inception_3a/5x5"
  bottom: "inception_3a/pool_proj"
  top: "inception_3a/output"
}
layer {
  name: "inception_3b/1x1"
  type: "Convolution"
  bottom: "inception_3a/output"
  top: "inception_3b/1x1"
  param {
    lr_mult: 1
    decay_mult: 1
  }
  param {
    lr_mult: 2
    decay_mult: 0
  }
  convolution_param {
    num_output: 128
    kernel_size: 1
    weight_filler {
      type: "xavier"
      std: 0.03
    }
    bias_filler {
      type: "constant"
      value: 0.2
    }
  }
}
layer {
  name: "inception_3b/relu_1x1"
  type: "ReLU"
  bottom: "inception_3b/1x1"
  top: "inception_3b/1x1"
}
layer {
  name: "inception_3b/3x3_reduce"
  type: "Convolution"
  bottom: "inception_3a/output"
  top: "inception_3b/3x3_reduce"
  param {
    lr_mult: 1
    decay_mult: 1
  }
  param {
    lr_mult: 2
    decay_mult: 0
  }
  convolution_param {
    num_output: 128
    kernel_size: 1
    weight_filler {
      type: "xavier"
      std: 0.09
    }
    bias_filler {
      type: "constant"
      value: 0.2
    }
  }
}
layer {
  name: "inception_3b/relu_3x3_reduce"
  type: "ReLU"
  bottom: "inception_3b/3x3_reduce"
  top: "inception_3b/3x3_reduce"
}
layer {
  name: "inception_3b/3x3"
  type: "Convolution"
  bottom: "inception_3b/3x3_reduce"
  top: "inception_3b/3x3"
  param {
    lr_mult: 1
    decay_mult: 1
  }
  param {
    lr_mult: 2
    decay_mult: 0
  }
  convolution_param {
    num_output: 192
    pad: 1
    kernel_size: 3
    weight_filler {
      type: "xavier"
      std: 0.03
    }
    bias_filler {
      type: "constant"
      value: 0.2
    }
  }
}
layer {
  name: "inception_3b/relu_3x3"
  type: "ReLU"
  bottom: "inception_3b/3x3"
  top: "inception_3b/3x3"
}
layer {
  name: "inception_3b/5x5_reduce"
  type: "Convolution"
  bottom: "inception_3a/output"
  top: "inception_3b/5x5_reduce"
  param {
    lr_mult: 1
    decay_mult: 1
  }
  param {
    lr_mult: 2
    decay_mult: 0
  }
  convolution_param {
    num_output: 32
    kernel_size: 1
    weight_filler {
      type: "xavier"
      std: 0.2
    }
    bias_filler {
      type: "constant"
      value: 0.2
    }
  }
}
layer {
  name: "inception_3b/relu_5x5_reduce"
  type: "ReLU"
  bottom: "inception_3b/5x5_reduce"
  top: "inception_3b/5x5_reduce"
}
layer {
  name: "inception_3b/5x5"
  type: "Convolution"
  bottom: "inception_3b/5x5_reduce"
  top: "inception_3b/5x5"
  param {
    lr_mult: 1
    decay_mult: 1
  }
  param {
    lr_mult: 2
    decay_mult: 0
  }
  convolution_param {
    num_output: 96
    pad: 2
    kernel_size: 5
    weight_filler {
      type: "xavier"
      std: 0.03
    }
    bias_filler {
      type: "constant"
      value: 0.2
    }
  }
}
layer {
  name: "inception_3b/relu_5x5"
  type: "ReLU"
  bottom: "inception_3b/5x5"
  top: "inception_3b/5x5"
}
layer {
  name: "inception_3b/pool"
  type: "Pooling"
  bottom: "inception_3a/output"
  top: "inception_3b/pool"
  pooling_param {
    pool: MAX
    kernel_size: 3
    stride: 1
    pad: 1
  }
}
layer {
  name: "inception_3b/pool_proj"
  type: "Convolution"
  bottom: "inception_3b/pool"
  top: "inception_3b/pool_proj"
  param {
    lr_mult: 1
    decay_mult: 1
  }
  param {
    lr_mult: 2
    decay_mult: 0
  }
  convolution_param {
    num_output: 64
    kernel_size: 1
    weight_filler {
      type: "xavier"
      std: 0.1
    }
    bias_filler {
      type: "constant"
      value: 0.2
    }
  }
}
layer {
  name: "inception_3b/relu_pool_proj"
  type: "ReLU"
  bottom: "inception_3b/pool_proj"
  top: "inception_3b/pool_proj"
}
layer {
  name: "inception_3b/output"
  type: "Concat"
  bottom: "inception_3b/1x1"
  bottom: "inception_3b/3x3"
  bottom: "inception_3b/5x5"
  bottom: "inception_3b/pool_proj"
  top: "inception_3b/output"
}
layer {
  name: "pool3/3x3_s2"
  type: "Pooling"
  bottom: "inception_3b/output"
  top: "pool3/3x3_s2"
  pooling_param {
    pool: MAX
    kernel_size: 3
    stride: 2
  }
}
layer {
  name: "inception_4a/1x1"
  type: "Convolution"
  bottom: "pool3/3x3_s2"
  top: "inception_4a/1x1"
  param {
    lr_mult: 1
    decay_mult: 1
  }
  param {
    lr_mult: 2
    decay_mult: 0
  }
  convolution_param {
    num_output: 192
    kernel_size: 1
    weight_filler {
      type: "xavier"
      std: 0.03
    }
    bias_filler {
      type: "constant"
      value: 0.2
    }
  }
}
layer {
  name: "inception_4a/relu_1x1"
  type: "ReLU"
  bottom: "inception_4a/1x1"
  top: "inception_4a/1x1"
}
layer {
  name: "inception_4a/3x3_reduce"
  type: "Convolution"
  bottom: "pool3/3x3_s2"
  top: "inception_4a/3x3_reduce"
  param {
    lr_mult: 1
    decay_mult: 1
  }
  param {
    lr_mult: 2
    decay_mult: 0
  }
  convolution_param {
    num_output: 96
    kernel_size: 1
    weight_filler {
      type: "xavier"
      std: 0.09
    }
    bias_filler {
      type: "constant"
      value: 0.2
    }
  }
}
layer {
  name: "inception_4a/relu_3x3_reduce"
  type: "ReLU"
  bottom: "inception_4a/3x3_reduce"
  top: "inception_4a/3x3_reduce"
}
layer {
  name: "inception_4a/3x3"
  type: "Convolution"
  bottom: "inception_4a/3x3_reduce"
  top: "inception_4a/3x3"
  param {
    lr_mult: 1
    decay_mult: 1
  }
  param {
    lr_mult: 2
    decay_mult: 0
  }
  convolution_param {
    num_output: 208
    pad: 1
    kernel_size: 3
    weight_filler {
      type: "xavier"
      std: 0.03
    }
    bias_filler {
      type: "constant"
      value: 0.2
    }
  }
}
layer {
  name: "inception_4a/relu_3x3"
  type: "ReLU"
  bottom: "inception_4a/3x3"
  top: "inception_4a/3x3"
}
layer {
  name: "inception_4a/5x5_reduce"
  type: "Convolution"
  bottom: "pool3/3x3_s2"
  top: "inception_4a/5x5_reduce"
  param {
    lr_mult: 1
    decay_mult: 1
  }
  param {
    lr_mult: 2
    decay_mult: 0
  }
  convolution_param {
    num_output: 16
    kernel_size: 1
    weight_filler {
      type: "xavier"
      std: 0.2
    }
    bias_filler {
      type: "constant"
      value: 0.2
    }
  }
}
layer {
  name: "inception_4a/relu_5x5_reduce"
  type: "ReLU"
  bottom: "inception_4a/5x5_reduce"
  top: "inception_4a/5x5_reduce"
}
layer {
  name: "inception_4a/5x5"
  type: "Convolution"
  bottom: "inception_4a/5x5_reduce"
  top: "inception_4a/5x5"
  param {
    lr_mult: 1
    decay_mult: 1
  }
  param {
    lr_mult: 2
    decay_mult: 0
  }
  convolution_param {
    num_output: 48
    pad: 2
    kernel_size: 5
    weight_filler {
      type: "xavier"
      std: 0.03
    }
    bias_filler {
      type: "constant"
      value: 0.2
    }
  }
}
layer {
  name: "inception_4a/relu_5x5"
  type: "ReLU"
  bottom: "inception_4a/5x5"
  top: "inception_4a/5x5"
}
layer {
  name: "inception_4a/pool"
  type: "Pooling"
  bottom: "pool3/3x3_s2"
  top: "inception_4a/pool"
  pooling_param {
    pool: MAX
    kernel_size: 3
    stride: 1
    pad: 1
  }
}
layer {
  name: "inception_4a/pool_proj"
  type: "Convolution"
  bottom: "inception_4a/pool"
  top: "inception_4a/pool_proj"
  param {
    lr_mult: 1
    decay_mult: 1
  }
  param {
    lr_mult: 2
    decay_mult: 0
  }
  convolution_param {
    num_output: 64
    kernel_size: 1
    weight_filler {
      type: "xavier"
      std: 0.1
    }
    bias_filler {
      type: "constant"
      value: 0.2
    }
  }
}
layer {
  name: "inception_4a/relu_pool_proj"
  type: "ReLU"
  bottom: "inception_4a/pool_proj"
  top: "inception_4a/pool_proj"
}
layer {
  name: "inception_4a/output"
  type: "Concat"
  bottom: "inception_4a/1x1"
  bottom: "inception_4a/3x3"
  bottom: "inception_4a/5x5"
  bottom: "inception_4a/pool_proj"
  top: "inception_4a/output"
}
layer {
  name: "loss1/ave_pool"
  type: "Pooling"
  bottom: "inception_4a/output"
  top: "loss1/ave_pool"
  pooling_param {
    pool: AVE
    kernel_size: 5
    stride: 3
  }
}
layer {
  name: "loss1/conv"
  type: "Convolution"
  bottom: "loss1/ave_pool"
  top: "loss1/conv"
  param {
    lr_mult: 1
    decay_mult: 1
  }
  param {
    lr_mult: 2
    decay_mult: 0
  }
  convolution_param {
    num_output: 128
    kernel_size: 1
    weight_filler {
      type: "xavier"
      std: 0.08
    }
    bias_filler {
      type: "constant"
      value: 0.2
    }
  }
}
layer {
  name: "loss1/relu_conv"
  type: "ReLU"
  bottom: "loss1/conv"
  top: "loss1/conv"
}
layer {
  name: "loss1/fc"
  type: "InnerProduct"
  bottom: "loss1/conv"
  top: "loss1/fc"
  param {
    lr_mult: 1
    decay_mult: 1
  }
  param {
    lr_mult: 2
    decay_mult: 0
  }
  inner_product_param {
    num_output: 1024
    weight_filler {
      type: "xavier"
      std: 0.02
    }
    bias_filler {
      type: "constant"
      value: 0.2
    }
  }
}
layer {
  name: "loss1/relu_fc"
  type: "ReLU"
  bottom: "loss1/fc"
  top: "loss1/fc"
}
layer {
  name: "loss1/drop_fc"
  type: "Dropout"
  bottom: "loss1/fc"
  top: "loss1/fc"
  dropout_param {
    dropout_ratio: 0.7
  }
}
layer {
  name: "loss1/classifier"
  type: "InnerProduct"
  bottom: "loss1/fc"
  top: "loss1/classifier"
  param {
    lr_mult: 1
    decay_mult: 1
  }
  param {
    lr_mult: 2
    decay_mult: 0
  }
  inner_product_param {
    num_output: 2
    weight_filler {
      type: "xavier"
      std: 0.0009765625
    }
    bias_filler {
      type: "constant"
      value: 0
    }
  }
}
layer {
  name: "loss1/loss"
  type: "SoftmaxWithLoss"
  bottom: "loss1/classifier"
  bottom: "label"
  top: "loss1/loss1"
  loss_weight: 0.3
}
layer {
  name: "inception_4b/1x1"
  type: "Convolution"
  bottom: "inception_4a/output"
  top: "inception_4b/1x1"
  param {
    lr_mult: 1
    decay_mult: 1
  }
  param {
    lr_mult: 2
    decay_mult: 0
  }
  convolution_param {
    num_output: 160
    kernel_size: 1
    weight_filler {
      type: "xavier"
      std: 0.03
    }
    bias_filler {
      type: "constant"
      value: 0.2
    }
  }
}
layer {
  name: "inception_4b/relu_1x1"
  type: "ReLU"
  bottom: "inception_4b/1x1"
  top: "inception_4b/1x1"
}
layer {
  name: "inception_4b/3x3_reduce"
  type: "Convolution"
  bottom: "inception_4a/output"
  top: "inception_4b/3x3_reduce"
  param {
    lr_mult: 1
    decay_mult: 1
  }
  param {
    lr_mult: 2
    decay_mult: 0
  }
  convolution_param {
    num_output: 112
    kernel_size: 1
    weight_filler {
      type: "xavier"
      std: 0.09
    }
    bias_filler {
      type: "constant"
      value: 0.2
    }
  }
}
layer {
  name: "inception_4b/relu_3x3_reduce"
  type: "ReLU"
  bottom: "inception_4b/3x3_reduce"
  top: "inception_4b/3x3_reduce"
}
layer {
  name: "inception_4b/3x3"
  type: "Convolution"
  bottom: "inception_4b/3x3_reduce"
  top: "inception_4b/3x3"
  param {
    lr_mult: 1
    decay_mult: 1
  }
  param {
    lr_mult: 2
    decay_mult: 0
  }
  convolution_param {
    num_output: 224
    pad: 1
    kernel_size: 3
    weight_filler {
      type: "xavier"
      std: 0.03
    }
    bias_filler {
      type: "constant"
      value: 0.2
    }
  }
}
layer {
  name: "inception_4b/relu_3x3"
  type: "ReLU"
  bottom: "inception_4b/3x3"
  top: "inception_4b/3x3"
}
layer {
  name: "inception_4b/5x5_reduce"
  type: "Convolution"
  bottom: "inception_4a/output"
  top: "inception_4b/5x5_reduce"
  param {
    lr_mult: 1
    decay_mult: 1
  }
  param {
    lr_mult: 2
    decay_mult: 0
  }
  convolution_param {
    num_output: 24
    kernel_size: 1
    weight_filler {
      type: "xavier"
      std: 0.2
    }
    bias_filler {
      type: "constant"
      value: 0.2
    }
  }
}
layer {
  name: "inception_4b/relu_5x5_reduce"
  type: "ReLU"
  bottom: "inception_4b/5x5_reduce"
  top: "inception_4b/5x5_reduce"
}
layer {
  name: "inception_4b/5x5"
  type: "Convolution"
  bottom: "inception_4b/5x5_reduce"
  top: "inception_4b/5x5"
  param {
    lr_mult: 1
    decay_mult: 1
  }
  param {
    lr_mult: 2
    decay_mult: 0
  }
  convolution_param {
    num_output: 64
    pad: 2
    kernel_size: 5
    weight_filler {
      type: "xavier"
      std: 0.03
    }
    bias_filler {
      type: "constant"
      value: 0.2
    }
  }
}
layer {
  name: "inception_4b/relu_5x5"
  type: "ReLU"
  bottom: "inception_4b/5x5"
  top: "inception_4b/5x5"
}
layer {
  name: "inception_4b/pool"
  type: "Pooling"
  bottom: "inception_4a/output"
  top: "inception_4b/pool"
  pooling_param {
    pool: MAX
    kernel_size: 3
    stride: 1
    pad: 1
  }
}
layer {
  name: "inception_4b/pool_proj"
  type: "Convolution"
  bottom: "inception_4b/pool"
  top: "inception_4b/pool_proj"
  param {
    lr_mult: 1
    decay_mult: 1
  }
  param {
    lr_mult: 2
    decay_mult: 0
  }
  convolution_param {
    num_output: 64
    kernel_size: 1
    weight_filler {
      type: "xavier"
      std: 0.1
    }
    bias_filler {
      type: "constant"
      value: 0.2
    }
  }
}
layer {
  name: "inception_4b/relu_pool_proj"
  type: "ReLU"
  bottom: "inception_4b/pool_proj"
  top: "inception_4b/pool_proj"
}
layer {
  name: "inception_4b/output"
  type: "Concat"
  bottom: "inception_4b/1x1"
  bottom: "inception_4b/3x3"
  bottom: "inception_4b/5x5"
  bottom: "inception_4b/pool_proj"
  top: "inception_4b/output"
}
layer {
  name: "inception_4c/1x1"
  type: "Convolution"
  bottom: "inception_4b/output"
  top: "inception_4c/1x1"
  param {
    lr_mult: 1
    decay_mult: 1
  }
  param {
    lr_mult: 2
    decay_mult: 0
  }
  convolution_param {
    num_output: 128
    kernel_size: 1
    weight_filler {
      type: "xavier"
      std: 0.03
    }
    bias_filler {
      type: "constant"
      value: 0.2
    }
  }
}
layer {
  name: "inception_4c/relu_1x1"
  type: "ReLU"
  bottom: "inception_4c/1x1"
  top: "inception_4c/1x1"
}
layer {
  name: "inception_4c/3x3_reduce"
  type: "Convolution"
  bottom: "inception_4b/output"
  top: "inception_4c/3x3_reduce"
  param {
    lr_mult: 1
    decay_mult: 1
  }
  param {
    lr_mult: 2
    decay_mult: 0
  }
  convolution_param {
    num_output: 128
    kernel_size: 1
    weight_filler {
      type: "xavier"
      std: 0.09
    }
    bias_filler {
      type: "constant"
      value: 0.2
    }
  }
}
layer {
  name: "inception_4c/relu_3x3_reduce"
  type: "ReLU"
  bottom: "inception_4c/3x3_reduce"
  top: "inception_4c/3x3_reduce"
}
layer {
  name: "inception_4c/3x3"
  type: "Convolution"
  bottom: "inception_4c/3x3_reduce"
  top: "inception_4c/3x3"
  param {
    lr_mult: 1
    decay_mult: 1
  }
  param {
    lr_mult: 2
    decay_mult: 0
  }
  convolution_param {
    num_output: 256
    pad: 1
    kernel_size: 3
    weight_filler {
      type: "xavier"
      std: 0.03
    }
    bias_filler {
      type: "constant"
      value: 0.2
    }
  }
}
layer {
  name: "inception_4c/relu_3x3"
  type: "ReLU"
  bottom: "inception_4c/3x3"
  top: "inception_4c/3x3"
}
layer {
  name: "inception_4c/5x5_reduce"
  type: "Convolution"
  bottom: "inception_4b/output"
  top: "inception_4c/5x5_reduce"
  param {
    lr_mult: 1
    decay_mult: 1
  }
  param {
    lr_mult: 2
    decay_mult: 0
  }
  convolution_param {
    num_output: 24
    kernel_size: 1
    weight_filler {
      type: "xavier"
      std: 0.2
    }
    bias_filler {
      type: "constant"
      value: 0.2
    }
  }
}
layer {
  name: "inception_4c/relu_5x5_reduce"
  type: "ReLU"
  bottom: "inception_4c/5x5_reduce"
  top: "inception_4c/5x5_reduce"
}
layer {
  name: "inception_4c/5x5"
  type: "Convolution"
  bottom: "inception_4c/5x5_reduce"
  top: "inception_4c/5x5"
  param {
    lr_mult: 1
    decay_mult: 1
  }
  param {
    lr_mult: 2
    decay_mult: 0
  }
  convolution_param {
    num_output: 64
    pad: 2
    kernel_size: 5
    weight_filler {
      type: "xavier"
      std: 0.03
    }
    bias_filler {
      type: "constant"
      value: 0.2
    }
  }
}
layer {
  name: "inception_4c/relu_5x5"
  type: "ReLU"
  bottom: "inception_4c/5x5"
  top: "inception_4c/5x5"
}
layer {
  name: "inception_4c/pool"
  type: "Pooling"
  bottom: "inception_4b/output"
  top: "inception_4c/pool"
  pooling_param {
    pool: MAX
    kernel_size: 3
    stride: 1
    pad: 1
  }
}
layer {
  name: "inception_4c/pool_proj"
  type: "Convolution"
  bottom: "inception_4c/pool"
  top: "inception_4c/pool_proj"
  param {
    lr_mult: 1
    decay_mult: 1
  }
  param {
    lr_mult: 2
    decay_mult: 0
  }
  convolution_param {
    num_output: 64
    kernel_size: 1
    weight_filler {
      type: "xavier"
      std: 0.1
    }
    bias_filler {
      type: "constant"
      value: 0.2
    }
  }
}
layer {
  name: "inception_4c/relu_pool_proj"
  type: "ReLU"
  bottom: "inception_4c/pool_proj"
  top: "inception_4c/pool_proj"
}
layer {
  name: "inception_4c/output"
  type: "Concat"
  bottom: "inception_4c/1x1"
  bottom: "inception_4c/3x3"
  bottom: "inception_4c/5x5"
  bottom: "inception_4c/pool_proj"
  top: "inception_4c/output"
}
layer {
  name: "inception_4d/1x1"
  type: "Convolution"
  bottom: "inception_4c/output"
  top: "inception_4d/1x1"
  param {
    lr_mult: 1
    decay_mult: 1
  }
  param {
    lr_mult: 2
    decay_mult: 0
  }
  convolution_param {
    num_output: 112
    kernel_size: 1
    weight_filler {
      type: "xavier"
      std: 0.03
    }
    bias_filler {
      type: "constant"
      value: 0.2
    }
  }
}
layer {
  name: "inception_4d/relu_1x1"
  type: "ReLU"
  bottom: "inception_4d/1x1"
  top: "inception_4d/1x1"
}
layer {
  name: "inception_4d/3x3_reduce"
  type: "Convolution"
  bottom: "inception_4c/output"
  top: "inception_4d/3x3_reduce"
  param {
    lr_mult: 1
    decay_mult: 1
  }
  param {
    lr_mult: 2
    decay_mult: 0
  }
  convolution_param {
    num_output: 144
    kernel_size: 1
    weight_filler {
      type: "xavier"
      std: 0.09
    }
    bias_filler {
      type: "constant"
      value: 0.2
    }
  }
}
layer {
  name: "inception_4d/relu_3x3_reduce"
  type: "ReLU"
  bottom: "inception_4d/3x3_reduce"
  top: "inception_4d/3x3_reduce"
}
layer {
  name: "inception_4d/3x3"
  type: "Convolution"
  bottom: "inception_4d/3x3_reduce"
  top: "inception_4d/3x3"
  param {
    lr_mult: 1
    decay_mult: 1
  }
  param {
    lr_mult: 2
    decay_mult: 0
  }
  convolution_param {
    num_output: 288
    pad: 1
    kernel_size: 3
    weight_filler {
      type: "xavier"
      std: 0.03
    }
    bias_filler {
      type: "constant"
      value: 0.2
    }
  }
}
layer {
  name: "inception_4d/relu_3x3"
  type: "ReLU"
  bottom: "inception_4d/3x3"
  top: "inception_4d/3x3"
}
layer {
  name: "inception_4d/5x5_reduce"
  type: "Convolution"
  bottom: "inception_4c/output"
  top: "inception_4d/5x5_reduce"
  param {
    lr_mult: 1
    decay_mult: 1
  }
  param {
    lr_mult: 2
    decay_mult: 0
  }
  convolution_param {
    num_output: 32
    kernel_size: 1
    weight_filler {
      type: "xavier"
      std: 0.2
    }
    bias_filler {
      type: "constant"
      value: 0.2
    }
  }
}
layer {
  name: "inception_4d/relu_5x5_reduce"
  type: "ReLU"
  bottom: "inception_4d/5x5_reduce"
  top: "inception_4d/5x5_reduce"
}
layer {
  name: "inception_4d/5x5"
  type: "Convolution"
  bottom: "inception_4d/5x5_reduce"
  top: "inception_4d/5x5"
  param {
    lr_mult: 1
    decay_mult: 1
  }
  param {
    lr_mult: 2
    decay_mult: 0
  }
  convolution_param {
    num_output: 64
    pad: 2
    kernel_size: 5
    weight_filler {
      type: "xavier"
      std: 0.03
    }
    bias_filler {
      type: "constant"
      value: 0.2
    }
  }
}
layer {
  name: "inception_4d/relu_5x5"
  type: "ReLU"
  bottom: "inception_4d/5x5"
  top: "inception_4d/5x5"
}
layer {
  name: "inception_4d/pool"
  type: "Pooling"
  bottom: "inception_4c/output"
  top: "inception_4d/pool"
  pooling_param {
    pool: MAX
    kernel_size: 3
    stride: 1
    pad: 1
  }
}
layer {
  name: "inception_4d/pool_proj"
  type: "Convolution"
  bottom: "inception_4d/pool"
  top: "inception_4d/pool_proj"
  param {
    lr_mult: 1
    decay_mult: 1
  }
  param {
    lr_mult: 2
    decay_mult: 0
  }
  convolution_param {
    num_output: 64
    kernel_size: 1
    weight_filler {
      type: "xavier"
      std: 0.1
    }
    bias_filler {
      type: "constant"
      value: 0.2
    }
  }
}
layer {
  name: "inception_4d/relu_pool_proj"
  type: "ReLU"
  bottom: "inception_4d/pool_proj"
  top: "inception_4d/pool_proj"
}
layer {
  name: "inception_4d/output"
  type: "Concat"
  bottom: "inception_4d/1x1"
  bottom: "inception_4d/3x3"
  bottom: "inception_4d/5x5"
  bottom: "inception_4d/pool_proj"
  top: "inception_4d/output"
}
layer {
  name: "loss2/ave_pool"
  type: "Pooling"
  bottom: "inception_4d/output"
  top: "loss2/ave_pool"
  pooling_param {
    pool: AVE
    kernel_size: 5
    stride: 3
  }
}
layer {
  name: "loss2/conv"
  type: "Convolution"
  bottom: "loss2/ave_pool"
  top: "loss2/conv"
  param {
    lr_mult: 1
    decay_mult: 1
  }
  param {
    lr_mult: 2
    decay_mult: 0
  }
  convolution_param {
    num_output: 128
    kernel_size: 1
    weight_filler {
      type: "xavier"
      std: 0.08
    }
    bias_filler {
      type: "constant"
      value: 0.2
    }
  }
}
layer {
  name: "loss2/relu_conv"
  type: "ReLU"
  bottom: "loss2/conv"
  top: "loss2/conv"
}
layer {
  name: "loss2/fc"
  type: "InnerProduct"
  bottom: "loss2/conv"
  top: "loss2/fc"
  param {
    lr_mult: 1
    decay_mult: 1
  }
  param {
    lr_mult: 2
    decay_mult: 0
  }
  inner_product_param {
    num_output: 1024
    weight_filler {
      type: "xavier"
      std: 0.02
    }
    bias_filler {
      type: "constant"
      value: 0.2
    }
  }
}
layer {
  name: "loss2/relu_fc"
  type: "ReLU"
  bottom: "loss2/fc"
  top: "loss2/fc"
}
layer {
  name: "loss2/drop_fc"
  type: "Dropout"
  bottom: "loss2/fc"
  top: "loss2/fc"
  dropout_param {
    dropout_ratio: 0.7
  }
}
layer {
  name: "loss2/classifier"
  type: "InnerProduct"
  bottom: "loss2/fc"
  top: "loss2/classifier"
  param {
    lr_mult: 1
    decay_mult: 1
  }
  param {
    lr_mult: 2
    decay_mult: 0
  }
  inner_product_param {
    num_output: 2
    weight_filler {
      type: "xavier"
      std: 0.0009765625
    }
    bias_filler {
      type: "constant"
      value: 0
    }
  }
}
layer {
  name: "loss2/loss"
  type: "SoftmaxWithLoss"
  bottom: "loss2/classifier"
  bottom: "label"
  top: "loss2/loss1"
  loss_weight: 0.3
}
layer {
  name: "inception_4e/1x1"
  type: "Convolution"
  bottom: "inception_4d/output"
  top: "inception_4e/1x1"
  param {
    lr_mult: 1
    decay_mult: 1
  }
  param {
    lr_mult: 2
    decay_mult: 0
  }
  convolution_param {
    num_output: 256
    kernel_size: 1
    weight_filler {
      type: "xavier"
      std: 0.03
    }
    bias_filler {
      type: "constant"
      value: 0.2
    }
  }
}
layer {
  name: "inception_4e/relu_1x1"
  type: "ReLU"
  bottom: "inception_4e/1x1"
  top: "inception_4e/1x1"
}
layer {
  name: "inception_4e/3x3_reduce"
  type: "Convolution"
  bottom: "inception_4d/output"
  top: "inception_4e/3x3_reduce"
  param {
    lr_mult: 1
    decay_mult: 1
  }
  param {
    lr_mult: 2
    decay_mult: 0
  }
  convolution_param {
    num_output: 160
    kernel_size: 1
    weight_filler {
      type: "xavier"
      std: 0.09
    }
    bias_filler {
      type: "constant"
      value: 0.2
    }
  }
}
layer {
  name: "inception_4e/relu_3x3_reduce"
  type: "ReLU"
  bottom: "inception_4e/3x3_reduce"
  top: "inception_4e/3x3_reduce"
}
layer {
  name: "inception_4e/3x3"
  type: "Convolution"
  bottom: "inception_4e/3x3_reduce"
  top: "inception_4e/3x3"
  param {
    lr_mult: 1
    decay_mult: 1
  }
  param {
    lr_mult: 2
    decay_mult: 0
  }
  convolution_param {
    num_output: 320
    pad: 1
    kernel_size: 3
    weight_filler {
      type: "xavier"
      std: 0.03
    }
    bias_filler {
      type: "constant"
      value: 0.2
    }
  }
}
layer {
  name: "inception_4e/relu_3x3"
  type: "ReLU"
  bottom: "inception_4e/3x3"
  top: "inception_4e/3x3"
}
layer {
  name: "inception_4e/5x5_reduce"
  type: "Convolution"
  bottom: "inception_4d/output"
  top: "inception_4e/5x5_reduce"
  param {
    lr_mult: 1
    decay_mult: 1
  }
  param {
    lr_mult: 2
    decay_mult: 0
  }
  convolution_param {
    num_output: 32
    kernel_size: 1
    weight_filler {
      type: "xavier"
      std: 0.2
    }
    bias_filler {
      type: "constant"
      value: 0.2
    }
  }
}
layer {
  name: "inception_4e/relu_5x5_reduce"
  type: "ReLU"
  bottom: "
I0509 22:10:22.462827 19342 layer_factory.hpp:74] Creating layer data
I0509 22:10:22.462875 19342 net.cpp:76] Creating Layer data
I0509 22:10:22.462896 19342 net.cpp:334] data -> data
I0509 22:10:22.462939 19342 net.cpp:334] data -> label
I0509 22:10:22.462972 19342 net.cpp:105] Setting up data
I0509 22:10:22.463138 19342 db.cpp:34] Opened lmdb train_lmdb
I0509 22:10:22.463560 19342 data_layer.cpp:67] output data size: 32,3,224,224
I0509 22:10:22.471478 19342 net.cpp:112] Top shape: 32 3 224 224 (4816896)
I0509 22:10:22.471506 19342 net.cpp:112] Top shape: 32 1 1 1 (32)
I0509 22:10:22.471524 19342 layer_factory.hpp:74] Creating layer label_data_1_split
I0509 22:10:22.471585 19342 net.cpp:76] Creating Layer label_data_1_split
I0509 22:10:22.471611 19342 net.cpp:372] label_data_1_split <- label
I0509 22:10:22.471631 19342 net.cpp:334] label_data_1_split -> label_data_1_split_0
I0509 22:10:22.471647 19342 net.cpp:334] label_data_1_split -> label_data_1_split_1
I0509 22:10:22.471655 19342 net.cpp:334] label_data_1_split -> label_data_1_split_2
I0509 22:10:22.471664 19342 net.cpp:105] Setting up label_data_1_split
I0509 22:10:22.471675 19342 net.cpp:112] Top shape: 32 1 1 1 (32)
I0509 22:10:22.471680 19342 net.cpp:112] Top shape: 32 1 1 1 (32)
I0509 22:10:22.471686 19342 net.cpp:112] Top shape: 32 1 1 1 (32)
I0509 22:10:22.471693 19342 layer_factory.hpp:74] Creating layer conv1/7x7_s2
I0509 22:10:22.471710 19342 net.cpp:76] Creating Layer conv1/7x7_s2
I0509 22:10:22.471716 19342 net.cpp:372] conv1/7x7_s2 <- data
I0509 22:10:22.471726 19342 net.cpp:334] conv1/7x7_s2 -> conv1/7x7_s2
I0509 22:10:22.471739 19342 net.cpp:105] Setting up conv1/7x7_s2
I0509 22:10:22.471860 19342 net.cpp:112] Top shape: 32 64 112 112 (25690112)
I0509 22:10:22.471915 19342 layer_factory.hpp:74] Creating layer conv1/relu_7x7
I0509 22:10:22.471926 19342 net.cpp:76] Creating Layer conv1/relu_7x7
I0509 22:10:22.471932 19342 net.cpp:372] conv1/relu_7x7 <- conv1/7x7_s2
I0509 22:10:22.471940 19342 net.cpp:323] conv1/relu_7x7 -> conv1/7x7_s2 (in-place)
I0509 22:10:22.471948 19342 net.cpp:105] Setting up conv1/relu_7x7
I0509 22:10:22.471956 19342 net.cpp:112] Top shape: 32 64 112 112 (25690112)
I0509 22:10:22.471962 19342 layer_factory.hpp:74] Creating layer pool1/3x3_s2
I0509 22:10:22.471976 19342 net.cpp:76] Creating Layer pool1/3x3_s2
I0509 22:10:22.471981 19342 net.cpp:372] pool1/3x3_s2 <- conv1/7x7_s2
I0509 22:10:22.471989 19342 net.cpp:334] pool1/3x3_s2 -> pool1/3x3_s2
I0509 22:10:22.471998 19342 net.cpp:105] Setting up pool1/3x3_s2
I0509 22:10:22.472013 19342 net.cpp:112] Top shape: 32 64 56 56 (6422528)
I0509 22:10:22.472019 19342 layer_factory.hpp:74] Creating layer pool1/norm1
I0509 22:10:22.472030 19342 net.cpp:76] Creating Layer pool1/norm1
I0509 22:10:22.472036 19342 net.cpp:372] pool1/norm1 <- pool1/3x3_s2
I0509 22:10:22.472044 19342 net.cpp:334] pool1/norm1 -> pool1/norm1
I0509 22:10:22.472054 19342 net.cpp:105] Setting up pool1/norm1
I0509 22:10:22.472061 19342 net.cpp:112] Top shape: 32 64 56 56 (6422528)
I0509 22:10:22.472066 19342 layer_factory.hpp:74] Creating layer conv2/3x3_reduce
I0509 22:10:22.472076 19342 net.cpp:76] Creating Layer conv2/3x3_reduce
I0509 22:10:22.472081 19342 net.cpp:372] conv2/3x3_reduce <- pool1/norm1
I0509 22:10:22.472090 19342 net.cpp:334] conv2/3x3_reduce -> conv2/3x3_reduce
I0509 22:10:22.472100 19342 net.cpp:105] Setting up conv2/3x3_reduce
I0509 22:10:22.472143 19342 net.cpp:112] Top shape: 32 64 56 56 (6422528)
I0509 22:10:22.472154 19342 layer_factory.hpp:74] Creating layer conv2/relu_3x3_reduce
I0509 22:10:22.472162 19342 net.cpp:76] Creating Layer conv2/relu_3x3_reduce
I0509 22:10:22.472168 19342 net.cpp:372] conv2/relu_3x3_reduce <- conv2/3x3_reduce
I0509 22:10:22.472175 19342 net.cpp:323] conv2/relu_3x3_reduce -> conv2/3x3_reduce (in-place)
I0509 22:10:22.472183 19342 net.cpp:105] Setting up conv2/relu_3x3_reduce
I0509 22:10:22.472188 19342 net.cpp:112] Top shape: 32 64 56 56 (6422528)
I0509 22:10:22.472194 19342 layer_factory.hpp:74] Creating layer conv2/3x3
I0509 22:10:22.472204 19342 net.cpp:76] Creating Layer conv2/3x3
I0509 22:10:22.472209 19342 net.cpp:372] conv2/3x3 <- conv2/3x3_reduce
I0509 22:10:22.472218 19342 net.cpp:334] conv2/3x3 -> conv2/3x3
I0509 22:10:22.472226 19342 net.cpp:105] Setting up conv2/3x3
I0509 22:10:22.473115 19342 net.cpp:112] Top shape: 32 192 56 56 (19267584)
I0509 22:10:22.473132 19342 layer_factory.hpp:74] Creating layer conv2/relu_3x3
I0509 22:10:22.473140 19342 net.cpp:76] Creating Layer conv2/relu_3x3
I0509 22:10:22.473145 19342 net.cpp:372] conv2/relu_3x3 <- conv2/3x3
I0509 22:10:22.473152 19342 net.cpp:323] conv2/relu_3x3 -> conv2/3x3 (in-place)
I0509 22:10:22.473160 19342 net.cpp:105] Setting up conv2/relu_3x3
I0509 22:10:22.473165 19342 net.cpp:112] Top shape: 32 192 56 56 (19267584)
I0509 22:10:22.473171 19342 layer_factory.hpp:74] Creating layer conv2/norm2
I0509 22:10:22.473181 19342 net.cpp:76] Creating Layer conv2/norm2
I0509 22:10:22.473187 19342 net.cpp:372] conv2/norm2 <- conv2/3x3
I0509 22:10:22.473194 19342 net.cpp:334] conv2/norm2 -> conv2/norm2
I0509 22:10:22.473202 19342 net.cpp:105] Setting up conv2/norm2
I0509 22:10:22.473208 19342 net.cpp:112] Top shape: 32 192 56 56 (19267584)
I0509 22:10:22.473214 19342 layer_factory.hpp:74] Creating layer pool2/3x3_s2
I0509 22:10:22.473223 19342 net.cpp:76] Creating Layer pool2/3x3_s2
I0509 22:10:22.473229 19342 net.cpp:372] pool2/3x3_s2 <- conv2/norm2
I0509 22:10:22.473237 19342 net.cpp:334] pool2/3x3_s2 -> pool2/3x3_s2
I0509 22:10:22.473244 19342 net.cpp:105] Setting up pool2/3x3_s2
I0509 22:10:22.473250 19342 net.cpp:112] Top shape: 32 192 28 28 (4816896)
I0509 22:10:22.473256 19342 layer_factory.hpp:74] Creating layer pool2/3x3_s2_pool2/3x3_s2_0_split
I0509 22:10:22.473264 19342 net.cpp:76] Creating Layer pool2/3x3_s2_pool2/3x3_s2_0_split
I0509 22:10:22.473297 19342 net.cpp:372] pool2/3x3_s2_pool2/3x3_s2_0_split <- pool2/3x3_s2
I0509 22:10:22.473310 19342 net.cpp:334] pool2/3x3_s2_pool2/3x3_s2_0_split -> pool2/3x3_s2_pool2/3x3_s2_0_split_0
I0509 22:10:22.473320 19342 net.cpp:334] pool2/3x3_s2_pool2/3x3_s2_0_split -> pool2/3x3_s2_pool2/3x3_s2_0_split_1
I0509 22:10:22.473330 19342 net.cpp:334] pool2/3x3_s2_pool2/3x3_s2_0_split -> pool2/3x3_s2_pool2/3x3_s2_0_split_2
I0509 22:10:22.473337 19342 net.cpp:334] pool2/3x3_s2_pool2/3x3_s2_0_split -> pool2/3x3_s2_pool2/3x3_s2_0_split_3
I0509 22:10:22.473345 19342 net.cpp:105] Setting up pool2/3x3_s2_pool2/3x3_s2_0_split
I0509 22:10:22.473351 19342 net.cpp:112] Top shape: 32 192 28 28 (4816896)
I0509 22:10:22.473357 19342 net.cpp:112] Top shape: 32 192 28 28 (4816896)
I0509 22:10:22.473362 19342 net.cpp:112] Top shape: 32 192 28 28 (4816896)
I0509 22:10:22.473367 19342 net.cpp:112] Top shape: 32 192 28 28 (4816896)
I0509 22:10:22.473372 19342 layer_factory.hpp:74] Creating layer inception_3a/1x1
I0509 22:10:22.473383 19342 net.cpp:76] Creating Layer inception_3a/1x1
I0509 22:10:22.473389 19342 net.cpp:372] inception_3a/1x1 <- pool2/3x3_s2_pool2/3x3_s2_0_split_0
I0509 22:10:22.473397 19342 net.cpp:334] inception_3a/1x1 -> inception_3a/1x1
I0509 22:10:22.473407 19342 net.cpp:105] Setting up inception_3a/1x1
I0509 22:10:22.473577 19342 net.cpp:112] Top shape: 32 64 28 28 (1605632)
I0509 22:10:22.473597 19342 layer_factory.hpp:74] Creating layer inception_3a/relu_1x1
I0509 22:10:22.473608 19342 net.cpp:76] Creating Layer inception_3a/relu_1x1
I0509 22:10:22.473615 19342 net.cpp:372] inception_3a/relu_1x1 <- inception_3a/1x1
I0509 22:10:22.473623 19342 net.cpp:323] inception_3a/relu_1x1 -> inception_3a/1x1 (in-place)
I0509 22:10:22.473636 19342 net.cpp:105] Setting up inception_3a/relu_1x1
I0509 22:10:22.473647 19342 net.cpp:112] Top shape: 32 64 28 28 (1605632)
I0509 22:10:22.473656 19342 layer_factory.hpp:74] Creating layer inception_3a/3x3_reduce
I0509 22:10:22.473672 19342 net.cpp:76] Creating Layer inception_3a/3x3_reduce
I0509 22:10:22.473680 19342 net.cpp:372] inception_3a/3x3_reduce <- pool2/3x3_s2_pool2/3x3_s2_0_split_1
I0509 22:10:22.473688 19342 net.cpp:334] inception_3a/3x3_reduce -> inception_3a/3x3_reduce
I0509 22:10:22.473697 19342 net.cpp:105] Setting up inception_3a/3x3_reduce
I0509 22:10:22.474025 19342 net.cpp:112] Top shape: 32 96 28 28 (2408448)
I0509 22:10:22.474041 19342 layer_factory.hpp:74] Creating layer inception_3a/relu_3x3_reduce
I0509 22:10:22.474056 19342 net.cpp:76] Creating Layer inception_3a/relu_3x3_reduce
I0509 22:10:22.474062 19342 net.cpp:372] inception_3a/relu_3x3_reduce <- inception_3a/3x3_reduce
I0509 22:10:22.474071 19342 net.cpp:323] inception_3a/relu_3x3_reduce -> inception_3a/3x3_reduce (in-place)
I0509 22:10:22.474078 19342 net.cpp:105] Setting up inception_3a/relu_3x3_reduce
I0509 22:10:22.474083 19342 net.cpp:112] Top shape: 32 96 28 28 (2408448)
I0509 22:10:22.474089 19342 layer_factory.hpp:74] Creating layer inception_3a/3x3
I0509 22:10:22.474100 19342 net.cpp:76] Creating Layer inception_3a/3x3
I0509 22:10:22.474107 19342 net.cpp:372] inception_3a/3x3 <- inception_3a/3x3_reduce
I0509 22:10:22.474114 19342 net.cpp:334] inception_3a/3x3 -> inception_3a/3x3
I0509 22:10:22.474123 19342 net.cpp:105] Setting up inception_3a/3x3
I0509 22:10:22.475131 19342 net.cpp:112] Top shape: 32 128 28 28 (3211264)
I0509 22:10:22.475152 19342 layer_factory.hpp:74] Creating layer inception_3a/relu_3x3
I0509 22:10:22.475172 19342 net.cpp:76] Creating Layer inception_3a/relu_3x3
I0509 22:10:22.475184 19342 net.cpp:372] inception_3a/relu_3x3 <- inception_3a/3x3
I0509 22:10:22.475199 19342 net.cpp:323] inception_3a/relu_3x3 -> inception_3a/3x3 (in-place)
I0509 22:10:22.475213 19342 net.cpp:105] Setting up inception_3a/relu_3x3
I0509 22:10:22.475217 19342 net.cpp:112] Top shape: 32 128 28 28 (3211264)
I0509 22:10:22.475224 19342 layer_factory.hpp:74] Creating layer inception_3a/5x5_reduce
I0509 22:10:22.475232 19342 net.cpp:76] Creating Layer inception_3a/5x5_reduce
I0509 22:10:22.475265 19342 net.cpp:372] inception_3a/5x5_reduce <- pool2/3x3_s2_pool2/3x3_s2_0_split_2
I0509 22:10:22.475297 19342 net.cpp:334] inception_3a/5x5_reduce -> inception_3a/5x5_reduce
I0509 22:10:22.475316 19342 net.cpp:105] Setting up inception_3a/5x5_reduce
I0509 22:10:22.475394 19342 net.cpp:112] Top shape: 32 16 28 28 (401408)
I0509 22:10:22.475409 19342 layer_factory.hpp:74] Creating layer inception_3a/relu_5x5_reduce
I0509 22:10:22.475417 19342 net.cpp:76] Creating Layer inception_3a/relu_5x5_reduce
I0509 22:10:22.475424 19342 net.cpp:372] inception_3a/relu_5x5_reduce <- inception_3a/5x5_reduce
I0509 22:10:22.475431 19342 net.cpp:323] inception_3a/relu_5x5_reduce -> inception_3a/5x5_reduce (in-place)
I0509 22:10:22.475438 19342 net.cpp:105] Setting up inception_3a/relu_5x5_reduce
I0509 22:10:22.475445 19342 net.cpp:112] Top shape: 32 16 28 28 (401408)
I0509 22:10:22.475450 19342 layer_factory.hpp:74] Creating layer inception_3a/5x5
I0509 22:10:22.475461 19342 net.cpp:76] Creating Layer inception_3a/5x5
I0509 22:10:22.475466 19342 net.cpp:372] inception_3a/5x5 <- inception_3a/5x5_reduce
I0509 22:10:22.475476 19342 net.cpp:334] inception_3a/5x5 -> inception_3a/5x5
I0509 22:10:22.475484 19342 net.cpp:105] Setting up inception_3a/5x5
I0509 22:10:22.475783 19342 net.cpp:112] Top shape: 32 32 28 28 (802816)
I0509 22:10:22.475801 19342 layer_factory.hpp:74] Creating layer inception_3a/relu_5x5
I0509 22:10:22.475814 19342 net.cpp:76] Creating Layer inception_3a/relu_5x5
I0509 22:10:22.475821 19342 net.cpp:372] inception_3a/relu_5x5 <- inception_3a/5x5
I0509 22:10:22.475831 19342 net.cpp:323] inception_3a/relu_5x5 -> inception_3a/5x5 (in-place)
I0509 22:10:22.475843 19342 net.cpp:105] Setting up inception_3a/relu_5x5
I0509 22:10:22.475853 19342 net.cpp:112] Top shape: 32 32 28 28 (802816)
I0509 22:10:22.475859 19342 layer_factory.hpp:74] Creating layer inception_3a/pool
I0509 22:10:22.475868 19342 net.cpp:76] Creating Layer inception_3a/pool
I0509 22:10:22.475874 19342 net.cpp:372] inception_3a/pool <- pool2/3x3_s2_pool2/3x3_s2_0_split_3
I0509 22:10:22.475890 19342 net.cpp:334] inception_3a/pool -> inception_3a/pool
I0509 22:10:22.475908 19342 net.cpp:105] Setting up inception_3a/pool
I0509 22:10:22.475924 19342 net.cpp:112] Top shape: 32 192 28 28 (4816896)
I0509 22:10:22.475934 19342 layer_factory.hpp:74] Creating layer inception_3a/pool_proj
I0509 22:10:22.475951 19342 net.cpp:76] Creating Layer inception_3a/pool_proj
I0509 22:10:22.475965 19342 net.cpp:372] inception_3a/pool_proj <- inception_3a/pool
I0509 22:10:22.475989 19342 net.cpp:334] inception_3a/pool_proj -> inception_3a/pool_proj
I0509 22:10:22.476004 19342 net.cpp:105] Setting up inception_3a/pool_proj
I0509 22:10:22.476233 19342 net.cpp:112] Top shape: 32 32 28 28 (802816)
I0509 22:10:22.476263 19342 layer_factory.hpp:74] Creating layer inception_3a/relu_pool_proj
I0509 22:10:22.476279 19342 net.cpp:76] Creating Layer inception_3a/relu_pool_proj
I0509 22:10:22.476292 19342 net.cpp:372] inception_3a/relu_pool_proj <- inception_3a/pool_proj
I0509 22:10:22.476307 19342 net.cpp:323] inception_3a/relu_pool_proj -> inception_3a/pool_proj (in-place)
I0509 22:10:22.476323 19342 net.cpp:105] Setting up inception_3a/relu_pool_proj
I0509 22:10:22.476331 19342 net.cpp:112] Top shape: 32 32 28 28 (802816)
I0509 22:10:22.476337 19342 layer_factory.hpp:74] Creating layer inception_3a/output
I0509 22:10:22.476349 19342 net.cpp:76] Creating Layer inception_3a/output
I0509 22:10:22.476356 19342 net.cpp:372] inception_3a/output <- inception_3a/1x1
I0509 22:10:22.476373 19342 net.cpp:372] inception_3a/output <- inception_3a/3x3
I0509 22:10:22.476382 19342 net.cpp:372] inception_3a/output <- inception_3a/5x5
I0509 22:10:22.476387 19342 net.cpp:372] inception_3a/output <- inception_3a/pool_proj
I0509 22:10:22.476395 19342 net.cpp:334] inception_3a/output -> inception_3a/output
I0509 22:10:22.476403 19342 net.cpp:105] Setting up inception_3a/output
I0509 22:10:22.476413 19342 net.cpp:112] Top shape: 32 256 28 28 (6422528)
I0509 22:10:22.476418 19342 layer_factory.hpp:74] Creating layer inception_3a/output_inception_3a/output_0_split
I0509 22:10:22.476445 19342 net.cpp:76] Creating Layer inception_3a/output_inception_3a/output_0_split
I0509 22:10:22.476455 19342 net.cpp:372] inception_3a/output_inception_3a/output_0_split <- inception_3a/output
I0509 22:10:22.476464 19342 net.cpp:334] inception_3a/output_inception_3a/output_0_split -> inception_3a/output_inception_3a/output_0_split_0
I0509 22:10:22.476472 19342 net.cpp:334] inception_3a/output_inception_3a/output_0_split -> inception_3a/output_inception_3a/output_0_split_1
I0509 22:10:22.476485 19342 net.cpp:334] inception_3a/output_inception_3a/output_0_split -> inception_3a/output_inception_3a/output_0_split_2
I0509 22:10:22.476502 19342 net.cpp:334] inception_3a/output_inception_3a/output_0_split -> inception_3a/output_inception_3a/output_0_split_3
I0509 22:10:22.476512 19342 net.cpp:105] Setting up inception_3a/output_inception_3a/output_0_split
I0509 22:10:22.476521 19342 net.cpp:112] Top shape: 32 256 28 28 (6422528)
I0509 22:10:22.476532 19342 net.cpp:112] Top shape: 32 256 28 28 (6422528)
I0509 22:10:22.476542 19342 net.cpp:112] Top shape: 32 256 28 28 (6422528)
I0509 22:10:22.476553 19342 net.cpp:112] Top shape: 32 256 28 28 (6422528)
I0509 22:10:22.476564 19342 layer_factory.hpp:74] Creating layer inception_3b/1x1
I0509 22:10:22.476582 19342 net.cpp:76] Creating Layer inception_3b/1x1
I0509 22:10:22.476588 19342 net.cpp:372] inception_3b/1x1 <- inception_3a/output_inception_3a/output_0_split_0
I0509 22:10:22.476599 19342 net.cpp:334] inception_3b/1x1 -> inception_3b/1x1
I0509 22:10:22.476609 19342 net.cpp:105] Setting up inception_3b/1x1
I0509 22:10:22.476995 19342 net.cpp:112] Top shape: 32 128 28 28 (3211264)
I0509 22:10:22.477017 19342 layer_factory.hpp:74] Creating layer inception_3b/relu_1x1
I0509 22:10:22.477030 19342 net.cpp:76] Creating Layer inception_3b/relu_1x1
I0509 22:10:22.477036 19342 net.cpp:372] inception_3b/relu_1x1 <- inception_3b/1x1
I0509 22:10:22.477044 19342 net.cpp:323] inception_3b/relu_1x1 -> inception_3b/1x1 (in-place)
I0509 22:10:22.477056 19342 net.cpp:105] Setting up inception_3b/relu_1x1
I0509 22:10:22.477061 19342 net.cpp:112] Top shape: 32 128 28 28 (3211264)
I0509 22:10:22.477066 19342 layer_factory.hpp:74] Creating layer inception_3b/3x3_reduce
I0509 22:10:22.477076 19342 net.cpp:76] Creating Layer inception_3b/3x3_reduce
I0509 22:10:22.477080 19342 net.cpp:372] inception_3b/3x3_reduce <- inception_3a/output_inception_3a/output_0_split_1
I0509 22:10:22.477088 19342 net.cpp:334] inception_3b/3x3_reduce -> inception_3b/3x3_reduce
I0509 22:10:22.477097 19342 net.cpp:105] Setting up inception_3b/3x3_reduce
I0509 22:10:22.477576 19342 net.cpp:112] Top shape: 32 128 28 28 (3211264)
I0509 22:10:22.477596 19342 layer_factory.hpp:74] Creating layer inception_3b/relu_3x3_reduce
I0509 22:10:22.477607 19342 net.cpp:76] Creating Layer inception_3b/relu_3x3_reduce
I0509 22:10:22.477613 19342 net.cpp:372] inception_3b/relu_3x3_reduce <- inception_3b/3x3_reduce
I0509 22:10:22.477622 19342 net.cpp:323] inception_3b/relu_3x3_reduce -> inception_3b/3x3_reduce (in-place)
I0509 22:10:22.477635 19342 net.cpp:105] Setting up inception_3b/relu_3x3_reduce
I0509 22:10:22.477645 19342 net.cpp:112] Top shape: 32 128 28 28 (3211264)
I0509 22:10:22.477654 19342 layer_factory.hpp:74] Creating layer inception_3b/3x3
I0509 22:10:22.477669 19342 net.cpp:76] Creating Layer inception_3b/3x3
I0509 22:10:22.477676 19342 net.cpp:372] inception_3b/3x3 <- inception_3b/3x3_reduce
I0509 22:10:22.477684 19342 net.cpp:334] inception_3b/3x3 -> inception_3b/3x3
I0509 22:10:22.477694 19342 net.cpp:105] Setting up inception_3b/3x3
I0509 22:10:22.480895 19342 net.cpp:112] Top shape: 32 192 28 28 (4816896)
I0509 22:10:22.480931 19342 layer_factory.hpp:74] Creating layer inception_3b/relu_3x3
I0509 22:10:22.480942 19342 net.cpp:76] Creating Layer inception_3b/relu_3x3
I0509 22:10:22.480949 19342 net.cpp:372] inception_3b/relu_3x3 <- inception_3b/3x3
I0509 22:10:22.480957 19342 net.cpp:323] inception_3b/relu_3x3 -> inception_3b/3x3 (in-place)
I0509 22:10:22.480996 19342 net.cpp:105] Setting up inception_3b/relu_3x3
I0509 22:10:22.481003 19342 net.cpp:112] Top shape: 32 192 28 28 (4816896)
I0509 22:10:22.481009 19342 layer_factory.hpp:74] Creating layer inception_3b/5x5_reduce
I0509 22:10:22.481019 19342 net.cpp:76] Creating Layer inception_3b/5x5_reduce
I0509 22:10:22.481024 19342 net.cpp:372] inception_3b/5x5_reduce <- inception_3a/output_inception_3a/output_0_split_2
I0509 22:10:22.481034 19342 net.cpp:334] inception_3b/5x5_reduce -> inception_3b/5x5_reduce
I0509 22:10:22.481042 19342 net.cpp:105] Setting up inception_3b/5x5_reduce
I0509 22:10:22.481125 19342 net.cpp:112] Top shape: 32 32 28 28 (802816)
I0509 22:10:22.481140 19342 layer_factory.hpp:74] Creating layer inception_3b/relu_5x5_reduce
I0509 22:10:22.481150 19342 net.cpp:76] Creating Layer inception_3b/relu_5x5_reduce
I0509 22:10:22.481158 19342 net.cpp:372] inception_3b/relu_5x5_reduce <- inception_3b/5x5_reduce
I0509 22:10:22.481164 19342 net.cpp:323] inception_3b/relu_5x5_reduce -> inception_3b/5x5_reduce (in-place)
I0509 22:10:22.481173 19342 net.cpp:105] Setting up inception_3b/relu_5x5_reduce
I0509 22:10:22.481178 19342 net.cpp:112] Top shape: 32 32 28 28 (802816)
I0509 22:10:22.481184 19342 layer_factory.hpp:74] Creating layer inception_3b/5x5
I0509 22:10:22.481190 19342 net.cpp:76] Creating Layer inception_3b/5x5
I0509 22:10:22.481199 19342 net.cpp:372] inception_3b/5x5 <- inception_3b/5x5_reduce
I0509 22:10:22.481206 19342 net.cpp:334] inception_3b/5x5 -> inception_3b/5x5
I0509 22:10:22.481219 19342 net.cpp:105] Setting up inception_3b/5x5
I0509 22:10:22.481907 19342 net.cpp:112] Top shape: 32 96 28 28 (2408448)
I0509 22:10:22.481921 19342 layer_factory.hpp:74] Creating layer inception_3b/relu_5x5
I0509 22:10:22.481933 19342 net.cpp:76] Creating Layer inception_3b/relu_5x5
I0509 22:10:22.481940 19342 net.cpp:372] inception_3b/relu_5x5 <- inception_3b/5x5
I0509 22:10:22.481947 19342 net.cpp:323] inception_3b/relu_5x5 -> inception_3b/5x5 (in-place)
I0509 22:10:22.481955 19342 net.cpp:105] Setting up inception_3b/relu_5x5
I0509 22:10:22.481961 19342 net.cpp:112] Top shape: 32 96 28 28 (2408448)
I0509 22:10:22.481966 19342 layer_factory.hpp:74] Creating layer inception_3b/pool
I0509 22:10:22.481976 19342 net.cpp:76] Creating Layer inception_3b/pool
I0509 22:10:22.481982 19342 net.cpp:372] inception_3b/pool <- inception_3a/output_inception_3a/output_0_split_3
I0509 22:10:22.481991 19342 net.cpp:334] inception_3b/pool -> inception_3b/pool
I0509 22:10:22.481998 19342 net.cpp:105] Setting up inception_3b/pool
I0509 22:10:22.482007 19342 net.cpp:112] Top shape: 32 256 28 28 (6422528)
I0509 22:10:22.482012 19342 layer_factory.hpp:74] Creating layer inception_3b/pool_proj
I0509 22:10:22.482022 19342 net.cpp:76] Creating Layer inception_3b/pool_proj
I0509 22:10:22.482027 19342 net.cpp:372] inception_3b/pool_proj <- inception_3b/pool
I0509 22:10:22.482036 19342 net.cpp:334] inception_3b/pool_proj -> inception_3b/pool_proj
I0509 22:10:22.482045 19342 net.cpp:105] Setting up inception_3b/pool_proj
I0509 22:10:22.482193 19342 net.cpp:112] Top shape: 32 64 28 28 (1605632)
I0509 22:10:22.482205 19342 layer_factory.hpp:74] Creating layer inception_3b/relu_pool_proj
I0509 22:10:22.482213 19342 net.cpp:76] Creating Layer inception_3b/relu_pool_proj
I0509 22:10:22.482219 19342 net.cpp:372] inception_3b/relu_pool_proj <- inception_3b/pool_proj
I0509 22:10:22.482228 19342 net.cpp:323] inception_3b/relu_pool_proj -> inception_3b/pool_proj (in-place)
I0509 22:10:22.482236 19342 net.cpp:105] Setting up inception_3b/relu_pool_proj
I0509 22:10:22.482242 19342 net.cpp:112] Top shape: 32 64 28 28 (1605632)
I0509 22:10:22.482247 19342 layer_factory.hpp:74] Creating layer inception_3b/output
I0509 22:10:22.482255 19342 net.cpp:76] Creating Layer inception_3b/output
I0509 22:10:22.482261 19342 net.cpp:372] inception_3b/output <- inception_3b/1x1
I0509 22:10:22.482267 19342 net.cpp:372] inception_3b/output <- inception_3b/3x3
I0509 22:10:22.482293 19342 net.cpp:372] inception_3b/output <- inception_3b/5x5
I0509 22:10:22.482326 19342 net.cpp:372] inception_3b/output <- inception_3b/pool_proj
I0509 22:10:22.482339 19342 net.cpp:334] inception_3b/output -> inception_3b/output
I0509 22:10:22.482349 19342 net.cpp:105] Setting up inception_3b/output
I0509 22:10:22.482364 19342 net.cpp:112] Top shape: 32 480 28 28 (12042240)
I0509 22:10:22.482372 19342 layer_factory.hpp:74] Creating layer pool3/3x3_s2
I0509 22:10:22.482379 19342 net.cpp:76] Creating Layer pool3/3x3_s2
I0509 22:10:22.482385 19342 net.cpp:372] pool3/3x3_s2 <- inception_3b/output
I0509 22:10:22.482398 19342 net.cpp:334] pool3/3x3_s2 -> pool3/3x3_s2
I0509 22:10:22.482406 19342 net.cpp:105] Setting up pool3/3x3_s2
I0509 22:10:22.482414 19342 net.cpp:112] Top shape: 32 480 14 14 (3010560)
I0509 22:10:22.482419 19342 layer_factory.hpp:74] Creating layer pool3/3x3_s2_pool3/3x3_s2_0_split
I0509 22:10:22.482427 19342 net.cpp:76] Creating Layer pool3/3x3_s2_pool3/3x3_s2_0_split
I0509 22:10:22.482432 19342 net.cpp:372] pool3/3x3_s2_pool3/3x3_s2_0_split <- pool3/3x3_s2
I0509 22:10:22.482442 19342 net.cpp:334] pool3/3x3_s2_pool3/3x3_s2_0_split -> pool3/3x3_s2_pool3/3x3_s2_0_split_0
I0509 22:10:22.482451 19342 net.cpp:334] pool3/3x3_s2_pool3/3x3_s2_0_split -> pool3/3x3_s2_pool3/3x3_s2_0_split_1
I0509 22:10:22.482460 19342 net.cpp:334] pool3/3x3_s2_pool3/3x3_s2_0_split -> pool3/3x3_s2_pool3/3x3_s2_0_split_2
I0509 22:10:22.482468 19342 net.cpp:334] pool3/3x3_s2_pool3/3x3_s2_0_split -> pool3/3x3_s2_pool3/3x3_s2_0_split_3
I0509 22:10:22.482476 19342 net.cpp:105] Setting up pool3/3x3_s2_pool3/3x3_s2_0_split
I0509 22:10:22.482486 19342 net.cpp:112] Top shape: 32 480 14 14 (3010560)
I0509 22:10:22.482496 19342 net.cpp:112] Top shape: 32 480 14 14 (3010560)
I0509 22:10:22.482504 19342 net.cpp:112] Top shape: 32 480 14 14 (3010560)
I0509 22:10:22.482514 19342 net.cpp:112] Top shape: 32 480 14 14 (3010560)
I0509 22:10:22.482525 19342 layer_factory.hpp:74] Creating layer inception_4a/1x1
I0509 22:10:22.482540 19342 net.cpp:76] Creating Layer inception_4a/1x1
I0509 22:10:22.482550 19342 net.cpp:372] inception_4a/1x1 <- pool3/3x3_s2_pool3/3x3_s2_0_split_0
I0509 22:10:22.482565 19342 net.cpp:334] inception_4a/1x1 -> inception_4a/1x1
I0509 22:10:22.482583 19342 net.cpp:105] Setting up inception_4a/1x1
I0509 22:10:22.483502 19342 net.cpp:112] Top shape: 32 192 14 14 (1204224)
I0509 22:10:22.483520 19342 layer_factory.hpp:74] Creating layer inception_4a/relu_1x1
I0509 22:10:22.483531 19342 net.cpp:76] Creating Layer inception_4a/relu_1x1
I0509 22:10:22.483559 19342 net.cpp:372] inception_4a/relu_1x1 <- inception_4a/1x1
I0509 22:10:22.483568 19342 net.cpp:323] inception_4a/relu_1x1 -> inception_4a/1x1 (in-place)
I0509 22:10:22.483577 19342 net.cpp:105] Setting up inception_4a/relu_1x1
I0509 22:10:22.483582 19342 net.cpp:112] Top shape: 32 192 14 14 (1204224)
I0509 22:10:22.483588 19342 layer_factory.hpp:74] Creating layer inception_4a/3x3_reduce
I0509 22:10:22.483599 19342 net.cpp:76] Creating Layer inception_4a/3x3_reduce
I0509 22:10:22.483605 19342 net.cpp:372] inception_4a/3x3_reduce <- pool3/3x3_s2_pool3/3x3_s2_0_split_1
I0509 22:10:22.483614 19342 net.cpp:334] inception_4a/3x3_reduce -> inception_4a/3x3_reduce
I0509 22:10:22.483623 19342 net.cpp:105] Setting up inception_4a/3x3_reduce
I0509 22:10:22.484081 19342 net.cpp:112] Top shape: 32 96 14 14 (602112)
I0509 22:10:22.484103 19342 layer_factory.hpp:74] Creating layer inception_4a/relu_3x3_reduce
I0509 22:10:22.484112 19342 net.cpp:76] Creating Layer inception_4a/relu_3x3_reduce
I0509 22:10:22.484118 19342 net.cpp:372] inception_4a/relu_3x3_reduce <- inception_4a/3x3_reduce
I0509 22:10:22.484127 19342 net.cpp:323] inception_4a/relu_3x3_reduce -> inception_4a/3x3_reduce (in-place)
I0509 22:10:22.484134 19342 net.cpp:105] Setting up inception_4a/relu_3x3_reduce
I0509 22:10:22.484140 19342 net.cpp:112] Top shape: 32 96 14 14 (602112)
I0509 22:10:22.484150 19342 layer_factory.hpp:74] Creating layer inception_4a/3x3
I0509 22:10:22.484164 19342 net.cpp:76] Creating Layer inception_4a/3x3
I0509 22:10:22.484171 19342 net.cpp:372] inception_4a/3x3 <- inception_4a/3x3_reduce
I0509 22:10:22.484210 19342 net.cpp:334] inception_4a/3x3 -> inception_4a/3x3
I0509 22:10:22.484223 19342 net.cpp:105] Setting up inception_4a/3x3
I0509 22:10:22.485936 19342 net.cpp:112] Top shape: 32 208 14 14 (1304576)
I0509 22:10:22.485955 19342 layer_factory.hpp:74] Creating layer inception_4a/relu_3x3
I0509 22:10:22.485966 19342 net.cpp:76] Creating Layer inception_4a/relu_3x3
I0509 22:10:22.485973 19342 net.cpp:372] inception_4a/relu_3x3 <- inception_4a/3x3
I0509 22:10:22.485980 19342 net.cpp:323] inception_4a/relu_3x3 -> inception_4a/3x3 (in-place)
I0509 22:10:22.485988 19342 net.cpp:105] Setting up inception_4a/relu_3x3
I0509 22:10:22.485995 19342 net.cpp:112] Top shape: 32 208 14 14 (1304576)
I0509 22:10:22.485999 19342 layer_factory.hpp:74] Creating layer inception_4a/5x5_reduce
I0509 22:10:22.486008 19342 net.cpp:76] Creating Layer inception_4a/5x5_reduce
I0509 22:10:22.486013 19342 net.cpp:372] inception_4a/5x5_reduce <- pool3/3x3_s2_pool3/3x3_s2_0_split_2
I0509 22:10:22.486027 19342 net.cpp:334] inception_4a/5x5_reduce -> inception_4a/5x5_reduce
I0509 22:10:22.486039 19342 net.cpp:105] Setting up inception_4a/5x5_reduce
I0509 22:10:22.486145 19342 net.cpp:112] Top shape: 32 16 14 14 (100352)
I0509 22:10:22.486172 19342 layer_factory.hpp:74] Creating layer inception_4a/relu_5x5_reduce
I0509 22:10:22.486189 19342 net.cpp:76] Creating Layer inception_4a/relu_5x5_reduce
I0509 22:10:22.486201 19342 net.cpp:372] inception_4a/relu_5x5_reduce <- inception_4a/5x5_reduce
I0509 22:10:22.486212 19342 net.cpp:323] inception_4a/relu_5x5_reduce -> inception_4a/5x5_reduce (in-place)
I0509 22:10:22.486222 19342 net.cpp:105] Setting up inception_4a/relu_5x5_reduce
I0509 22:10:22.486232 19342 net.cpp:112] Top shape: 32 16 14 14 (100352)
I0509 22:10:22.486241 19342 layer_factory.hpp:74] Creating layer inception_4a/5x5
I0509 22:10:22.486263 19342 net.cpp:76] Creating Layer inception_4a/5x5
I0509 22:10:22.486285 19342 net.cpp:372] inception_4a/5x5 <- inception_4a/5x5_reduce
I0509 22:10:22.486295 19342 net.cpp:334] inception_4a/5x5 -> inception_4a/5x5
I0509 22:10:22.486305 19342 net.cpp:105] Setting up inception_4a/5x5
I0509 22:10:22.486492 19342 net.cpp:112] Top shape: 32 48 14 14 (301056)
I0509 22:10:22.486505 19342 layer_factory.hpp:74] Creating layer inception_4a/relu_5x5
I0509 22:10:22.486516 19342 net.cpp:76] Creating Layer inception_4a/relu_5x5
I0509 22:10:22.488112 19342 net.cpp:372] inception_4a/relu_5x5 <- inception_4a/5x5
I0509 22:10:22.488134 19342 net.cpp:323] inception_4a/relu_5x5 -> inception_4a/5x5 (in-place)
I0509 22:10:22.488152 19342 net.cpp:105] Setting up inception_4a/relu_5x5
I0509 22:10:22.488163 19342 net.cpp:112] Top shape: 32 48 14 14 (301056)
I0509 22:10:22.488174 19342 layer_factory.hpp:74] Creating layer inception_4a/pool
I0509 22:10:22.488193 19342 net.cpp:76] Creating Layer inception_4a/pool
I0509 22:10:22.488206 19342 net.cpp:372] inception_4a/pool <- pool3/3x3_s2_pool3/3x3_s2_0_split_3
I0509 22:10:22.488222 19342 net.cpp:334] inception_4a/pool -> inception_4a/pool
I0509 22:10:22.488237 19342 net.cpp:105] Setting up inception_4a/pool
I0509 22:10:22.488250 19342 net.cpp:112] Top shape: 32 480 14 14 (3010560)
I0509 22:10:22.488260 19342 layer_factory.hpp:74] Creating layer inception_4a/pool_proj
I0509 22:10:22.488293 19342 net.cpp:76] Creating Layer inception_4a/pool_proj
I0509 22:10:22.488306 19342 net.cpp:372] inception_4a/pool_proj <- inception_4a/pool
I0509 22:10:22.488320 19342 net.cpp:334] inception_4a/pool_proj -> inception_4a/pool_proj
I0509 22:10:22.488332 19342 net.cpp:105] Setting up inception_4a/pool_proj
I0509 22:10:22.488669 19342 net.cpp:112] Top shape: 32 64 14 14 (401408)
I0509 22:10:22.488689 19342 layer_factory.hpp:74] Creating layer inception_4a/relu_pool_proj
I0509 22:10:22.488704 19342 net.cpp:76] Creating Layer inception_4a/relu_pool_proj
I0509 22:10:22.488711 19342 net.cpp:372] inception_4a/relu_pool_proj <- inception_4a/pool_proj
I0509 22:10:22.488719 19342 net.cpp:323] inception_4a/relu_pool_proj -> inception_4a/pool_proj (in-place)
I0509 22:10:22.488770 19342 net.cpp:105] Setting up inception_4a/relu_pool_proj
I0509 22:10:22.488783 19342 net.cpp:112] Top shape: 32 64 14 14 (401408)
I0509 22:10:22.488795 19342 layer_factory.hpp:74] Creating layer inception_4a/output
I0509 22:10:22.488819 19342 net.cpp:76] Creating Layer inception_4a/output
I0509 22:10:22.488832 19342 net.cpp:372] inception_4a/output <- inception_4a/1x1
I0509 22:10:22.488845 19342 net.cpp:372] inception_4a/output <- inception_4a/3x3
I0509 22:10:22.488859 19342 net.cpp:372] inception_4a/output <- inception_4a/5x5
I0509 22:10:22.488873 19342 net.cpp:372] inception_4a/output <- inception_4a/pool_proj
I0509 22:10:22.488886 19342 net.cpp:334] inception_4a/output -> inception_4a/output
I0509 22:10:22.488901 19342 net.cpp:105] Setting up inception_4a/output
I0509 22:10:22.488909 19342 net.cpp:112] Top shape: 32 512 14 14 (3211264)
I0509 22:10:22.488919 19342 layer_factory.hpp:74] Creating layer inception_4a/output_inception_4a/output_0_split
I0509 22:10:22.488934 19342 net.cpp:76] Creating Layer inception_4a/output_inception_4a/output_0_split
I0509 22:10:22.488951 19342 net.cpp:372] inception_4a/output_inception_4a/output_0_split <- inception_4a/output
I0509 22:10:22.488967 19342 net.cpp:334] inception_4a/output_inception_4a/output_0_split -> inception_4a/output_inception_4a/output_0_split_0
I0509 22:10:22.488979 19342 net.cpp:334] inception_4a/output_inception_4a/output_0_split -> inception_4a/output_inception_4a/output_0_split_1
I0509 22:10:22.488989 19342 net.cpp:334] inception_4a/output_inception_4a/output_0_split -> inception_4a/output_inception_4a/output_0_split_2
I0509 22:10:22.488998 19342 net.cpp:334] inception_4a/output_inception_4a/output_0_split -> inception_4a/output_inception_4a/output_0_split_3
I0509 22:10:22.489006 19342 net.cpp:334] inception_4a/output_inception_4a/output_0_split -> inception_4a/output_inception_4a/output_0_split_4
I0509 22:10:22.489014 19342 net.cpp:105] Setting up inception_4a/output_inception_4a/output_0_split
I0509 22:10:22.489027 19342 net.cpp:112] Top shape: 32 512 14 14 (3211264)
I0509 22:10:22.489655 19342 net.cpp:112] Top shape: 32 512 14 14 (3211264)
I0509 22:10:22.489665 19342 net.cpp:112] Top shape: 32 512 14 14 (3211264)
I0509 22:10:22.489670 19342 net.cpp:112] Top shape: 32 512 14 14 (3211264)
I0509 22:10:22.489675 19342 net.cpp:112] Top shape: 32 512 14 14 (3211264)
I0509 22:10:22.489682 19342 layer_factory.hpp:74] Creating layer loss1/ave_pool
I0509 22:10:22.489697 19342 net.cpp:76] Creating Layer loss1/ave_pool
I0509 22:10:22.489704 19342 net.cpp:372] loss1/ave_pool <- inception_4a/output_inception_4a/output_0_split_0
I0509 22:10:22.489713 19342 net.cpp:334] loss1/ave_pool -> loss1/ave_pool
I0509 22:10:22.489723 19342 net.cpp:105] Setting up loss1/ave_pool
I0509 22:10:22.489729 19342 net.cpp:112] Top shape: 32 512 4 4 (262144)
I0509 22:10:22.489735 19342 layer_factory.hpp:74] Creating layer loss1/conv
I0509 22:10:22.489748 19342 net.cpp:76] Creating Layer loss1/conv
I0509 22:10:22.489753 19342 net.cpp:372] loss1/conv <- loss1/ave_pool
I0509 22:10:22.489761 19342 net.cpp:334] loss1/conv -> loss1/conv
I0509 22:10:22.489769 19342 net.cpp:105] Setting up loss1/conv
I0509 22:10:22.490377 19342 net.cpp:112] Top shape: 32 128 4 4 (65536)
I0509 22:10:22.490396 19342 layer_factory.hpp:74] Creating layer loss1/relu_conv
I0509 22:10:22.490404 19342 net.cpp:76] Creating Layer loss1/relu_conv
I0509 22:10:22.490411 19342 net.cpp:372] loss1/relu_conv <- loss1/conv
I0509 22:10:22.490420 19342 net.cpp:323] loss1/relu_conv -> loss1/conv (in-place)
I0509 22:10:22.490428 19342 net.cpp:105] Setting up loss1/relu_conv
I0509 22:10:22.490434 19342 net.cpp:112] Top shape: 32 128 4 4 (65536)
I0509 22:10:22.490439 19342 layer_factory.hpp:74] Creating layer loss1/fc
I0509 22:10:22.490453 19342 net.cpp:76] Creating Layer loss1/fc
I0509 22:10:22.490458 19342 net.cpp:372] loss1/fc <- loss1/conv
I0509 22:10:22.490466 19342 net.cpp:334] loss1/fc -> loss1/fc
I0509 22:10:22.490479 19342 net.cpp:105] Setting up loss1/fc
I0509 22:10:22.508349 19342 net.cpp:112] Top shape: 32 1024 1 1 (32768)
I0509 22:10:22.508430 19342 layer_factory.hpp:74] Creating layer loss1/relu_fc
I0509 22:10:22.508445 19342 net.cpp:76] Creating Layer loss1/relu_fc
I0509 22:10:22.508452 19342 net.cpp:372] loss1/relu_fc <- loss1/fc
I0509 22:10:22.508466 19342 net.cpp:323] loss1/relu_fc -> loss1/fc (in-place)
I0509 22:10:22.508481 19342 net.cpp:105] Setting up loss1/relu_fc
I0509 22:10:22.508487 19342 net.cpp:112] Top shape: 32 1024 1 1 (32768)
I0509 22:10:22.508493 19342 layer_factory.hpp:74] Creating layer loss1/drop_fc
I0509 22:10:22.508513 19342 net.cpp:76] Creating Layer loss1/drop_fc
I0509 22:10:22.508519 19342 net.cpp:372] loss1/drop_fc <- loss1/fc
I0509 22:10:22.508529 19342 net.cpp:323] loss1/drop_fc -> loss1/fc (in-place)
I0509 22:10:22.508541 19342 net.cpp:105] Setting up loss1/drop_fc
I0509 22:10:22.508550 19342 net.cpp:112] Top shape: 32 1024 1 1 (32768)
I0509 22:10:22.508558 19342 layer_factory.hpp:74] Creating layer loss1/classifier
I0509 22:10:22.508568 19342 net.cpp:76] Creating Layer loss1/classifier
I0509 22:10:22.508572 19342 net.cpp:372] loss1/classifier <- loss1/fc
I0509 22:10:22.508582 19342 net.cpp:334] loss1/classifier -> loss1/classifier
I0509 22:10:22.508592 19342 net.cpp:105] Setting up loss1/classifier
I0509 22:10:22.508625 19342 net.cpp:112] Top shape: 32 2 1 1 (64)
I0509 22:10:22.508635 19342 layer_factory.hpp:74] Creating layer loss1/loss
I0509 22:10:22.508647 19342 net.cpp:76] Creating Layer loss1/loss
I0509 22:10:22.508653 19342 net.cpp:372] loss1/loss <- loss1/classifier
I0509 22:10:22.508661 19342 net.cpp:372] loss1/loss <- label_data_1_split_0
I0509 22:10:22.508671 19342 net.cpp:334] loss1/loss -> loss1/loss1
I0509 22:10:22.508682 19342 net.cpp:105] Setting up loss1/loss
I0509 22:10:22.508692 19342 layer_factory.hpp:74] Creating layer loss1/loss
I0509 22:10:22.508713 19342 net.cpp:112] Top shape: 1 1 1 1 (1)
I0509 22:10:22.508720 19342 net.cpp:118]     with loss weight 0.3
I0509 22:10:22.508755 19342 layer_factory.hpp:74] Creating layer inception_4b/1x1
I0509 22:10:22.508765 19342 net.cpp:76] Creating Layer inception_4b/1x1
I0509 22:10:22.508772 19342 net.cpp:372] inception_4b/1x1 <- inception_4a/output_inception_4a/output_0_split_1
I0509 22:10:22.508785 19342 net.cpp:334] inception_4b/1x1 -> inception_4b/1x1
I0509 22:10:22.508795 19342 net.cpp:105] Setting up inception_4b/1x1
I0509 22:10:22.509553 19342 net.cpp:112] Top shape: 32 160 14 14 (1003520)
I0509 22:10:22.509570 19342 layer_factory.hpp:74] Creating layer inception_4b/relu_1x1
I0509 22:10:22.509579 19342 net.cpp:76] Creating Layer inception_4b/relu_1x1
I0509 22:10:22.509585 19342 net.cpp:372] inception_4b/relu_1x1 <- inception_4b/1x1
I0509 22:10:22.509593 19342 net.cpp:323] inception_4b/relu_1x1 -> inception_4b/1x1 (in-place)
I0509 22:10:22.509600 19342 net.cpp:105] Setting up inception_4b/relu_1x1
I0509 22:10:22.509605 19342 net.cpp:112] Top shape: 32 160 14 14 (1003520)
I0509 22:10:22.509610 19342 layer_factory.hpp:74] Creating layer inception_4b/3x3_reduce
I0509 22:10:22.509623 19342 net.cpp:76] Creating Layer inception_4b/3x3_reduce
I0509 22:10:22.509629 19342 net.cpp:372] inception_4b/3x3_reduce <- inception_4a/output_inception_4a/output_0_split_2
I0509 22:10:22.509639 19342 net.cpp:334] inception_4b/3x3_reduce -> inception_4b/3x3_reduce
I0509 22:10:22.509647 19342 net.cpp:105] Setting up inception_4b/3x3_reduce
I0509 22:10:22.510141 19342 net.cpp:112] Top shape: 32 112 14 14 (702464)
I0509 22:10:22.510155 19342 layer_factory.hpp:74] Creating layer inception_4b/relu_3x3_reduce
I0509 22:10:22.510165 19342 net.cpp:76] Creating Layer inception_4b/relu_3x3_reduce
I0509 22:10:22.510171 19342 net.cpp:372] inception_4b/relu_3x3_reduce <- inception_4b/3x3_reduce
I0509 22:10:22.510179 19342 net.cpp:323] inception_4b/relu_3x3_reduce -> inception_4b/3x3_reduce (in-place)
I0509 22:10:22.510186 19342 net.cpp:105] Setting up inception_4b/relu_3x3_reduce
I0509 22:10:22.510191 19342 net.cpp:112] Top shape: 32 112 14 14 (702464)
I0509 22:10:22.510197 19342 layer_factory.hpp:74] Creating layer inception_4b/3x3
I0509 22:10:22.510207 19342 net.cpp:76] Creating Layer inception_4b/3x3
I0509 22:10:22.510226 19342 net.cpp:372] inception_4b/3x3 <- inception_4b/3x3_reduce
I0509 22:10:22.510236 19342 net.cpp:334] inception_4b/3x3 -> inception_4b/3x3
I0509 22:10:22.510244 19342 net.cpp:105] Setting up inception_4b/3x3
I0509 22:10:22.512150 19342 net.cpp:112] Top shape: 32 224 14 14 (1404928)
I0509 22:10:22.512166 19342 layer_factory.hpp:74] Creating layer inception_4b/relu_3x3
I0509 22:10:22.512174 19342 net.cpp:76] Creating Layer inception_4b/relu_3x3
I0509 22:10:22.512181 19342 net.cpp:372] inception_4b/relu_3x3 <- inception_4b/3x3
I0509 22:10:22.512188 19342 net.cpp:323] inception_4b/relu_3x3 -> inception_4b/3x3 (in-place)
I0509 22:10:22.512197 19342 net.cpp:105] Setting up inception_4b/relu_3x3
I0509 22:10:22.512202 19342 net.cpp:112] Top shape: 32 224 14 14 (1404928)
I0509 22:10:22.512207 19342 layer_factory.hpp:74] Creating layer inception_4b/5x5_reduce
I0509 22:10:22.512215 19342 net.cpp:76] Creating Layer inception_4b/5x5_reduce
I0509 22:10:22.512223 19342 net.cpp:372] inception_4b/5x5_reduce <- inception_4a/output_inception_4a/output_0_split_3
I0509 22:10:22.512231 19342 net.cpp:334] inception_4b/5x5_reduce -> inception_4b/5x5_reduce
I0509 22:10:22.512239 19342 net.cpp:105] Setting up inception_4b/5x5_reduce
I0509 22:10:22.512364 19342 net.cpp:112] Top shape: 32 24 14 14 (150528)
I0509 22:10:22.512377 19342 layer_factory.hpp:74] Creating layer inception_4b/relu_5x5_reduce
I0509 22:10:22.512383 19342 net.cpp:76] Creating Layer inception_4b/relu_5x5_reduce
I0509 22:10:22.512389 19342 net.cpp:372] inception_4b/relu_5x5_reduce <- inception_4b/5x5_reduce
I0509 22:10:22.512397 19342 net.cpp:323] inception_4b/relu_5x5_reduce -> inception_4b/5x5_reduce (in-place)
I0509 22:10:22.512404 19342 net.cpp:105] Setting up inception_4b/relu_5x5_reduce
I0509 22:10:22.512409 19342 net.cpp:112] Top shape: 32 24 14 14 (150528)
I0509 22:10:22.512415 19342 layer_factory.hpp:74] Creating layer inception_4b/5x5
I0509 22:10:22.512425 19342 net.cpp:76] Creating Layer inception_4b/5x5
I0509 22:10:22.512431 19342 net.cpp:372] inception_4b/5x5 <- inception_4b/5x5_reduce
I0509 22:10:22.512439 19342 net.cpp:334] inception_4b/5x5 -> inception_4b/5x5
I0509 22:10:22.512447 19342 net.cpp:105] Setting up inception_4b/5x5
I0509 22:10:22.512778 19342 net.cpp:112] Top shape: 32 64 14 14 (401408)
I0509 22:10:22.512789 19342 layer_factory.hpp:74] Creating layer inception_4b/relu_5x5
I0509 22:10:22.512796 19342 net.cpp:76] Creating Layer inception_4b/relu_5x5
I0509 22:10:22.512802 19342 net.cpp:372] inception_4b/relu_5x5 <- inception_4b/5x5
I0509 22:10:22.512811 19342 net.cpp:323] inception_4b/relu_5x5 -> inception_4b/5x5 (in-place)
I0509 22:10:22.512820 19342 net.cpp:105] Setting up inception_4b/relu_5x5
I0509 22:10:22.512825 19342 net.cpp:112] Top shape: 32 64 14 14 (401408)
I0509 22:10:22.512830 19342 layer_factory.hpp:74] Creating layer inception_4b/pool
I0509 22:10:22.512838 19342 net.cpp:76] Creating Layer inception_4b/pool
I0509 22:10:22.512845 19342 net.cpp:372] inception_4b/pool <- inception_4a/output_inception_4a/output_0_split_4
I0509 22:10:22.512853 19342 net.cpp:334] inception_4b/pool -> inception_4b/pool
I0509 22:10:22.512871 19342 net.cpp:105] Setting up inception_4b/pool
I0509 22:10:22.512879 19342 net.cpp:112] Top shape: 32 512 14 14 (3211264)
I0509 22:10:22.512887 19342 layer_factory.hpp:74] Creating layer inception_4b/pool_proj
I0509 22:10:22.512897 19342 net.cpp:76] Creating Layer inception_4b/pool_proj
I0509 22:10:22.512905 19342 net.cpp:372] inception_4b/pool_proj <- inception_4b/pool
I0509 22:10:22.512917 19342 net.cpp:334] inception_4b/pool_proj -> inception_4b/pool_proj
I0509 22:10:22.512926 19342 net.cpp:105] Setting up inception_4b/pool_proj
I0509 22:10:22.513217 19342 net.cpp:112] Top shape: 32 64 14 14 (401408)
I0509 22:10:22.513237 19342 layer_factory.hpp:74] Creating layer inception_4b/relu_pool_proj
I0509 22:10:22.513254 19342 net.cpp:76] Creating Layer inception_4b/relu_pool_proj
I0509 22:10:22.513265 19342 net.cpp:372] inception_4b/relu_pool_proj <- inception_4b/pool_proj
I0509 22:10:22.513305 19342 net.cpp:323] inception_4b/relu_pool_proj -> inception_4b/pool_proj (in-place)
I0509 22:10:22.513315 19342 net.cpp:105] Setting up inception_4b/relu_pool_proj
I0509 22:10:22.513321 19342 net.cpp:112] Top shape: 32 64 14 14 (401408)
I0509 22:10:22.513326 19342 layer_factory.hpp:74] Creating layer inception_4b/output
I0509 22:10:22.513334 19342 net.cpp:76] Creating Layer inception_4b/output
I0509 22:10:22.513340 19342 net.cpp:372] inception_4b/output <- inception_4b/1x1
I0509 22:10:22.513346 19342 net.cpp:372] inception_4b/output <- inception_4b/3x3
I0509 22:10:22.513352 19342 net.cpp:372] inception_4b/output <- inception_4b/5x5
I0509 22:10:22.513360 19342 net.cpp:372] inception_4b/output <- inception_4b/pool_proj
I0509 22:10:22.513368 19342 net.cpp:334] inception_4b/output -> inception_4b/output
I0509 22:10:22.513377 19342 net.cpp:105] Setting up inception_4b/output
I0509 22:10:22.513384 19342 net.cpp:112] Top shape: 32 512 14 14 (3211264)
I0509 22:10:22.513391 19342 layer_factory.hpp:74] Creating layer inception_4b/output_inception_4b/output_0_split
I0509 22:10:22.513419 19342 net.cpp:76] Creating Layer inception_4b/output_inception_4b/output_0_split
I0509 22:10:22.513427 19342 net.cpp:372] inception_4b/output_inception_4b/output_0_split <- inception_4b/output
I0509 22:10:22.513434 19342 net.cpp:334] inception_4b/output_inception_4b/output_0_split -> inception_4b/output_inception_4b/output_0_split_0
I0509 22:10:22.513443 19342 net.cpp:334] inception_4b/output_inception_4b/output_0_split -> inception_4b/output_inception_4b/output_0_split_1
I0509 22:10:22.513453 19342 net.cpp:334] inception_4b/output_inception_4b/output_0_split -> inception_4b/output_inception_4b/output_0_split_2
I0509 22:10:22.513464 19342 net.cpp:334] inception_4b/output_inception_4b/output_0_split -> inception_4b/output_inception_4b/output_0_split_3
I0509 22:10:22.513473 19342 net.cpp:105] Setting up inception_4b/output_inception_4b/output_0_split
I0509 22:10:22.513479 19342 net.cpp:112] Top shape: 32 512 14 14 (3211264)
I0509 22:10:22.513485 19342 net.cpp:112] Top shape: 32 512 14 14 (3211264)
I0509 22:10:22.513490 19342 net.cpp:112] Top shape: 32 512 14 14 (3211264)
I0509 22:10:22.513494 19342 net.cpp:112] Top shape: 32 512 14 14 (3211264)
I0509 22:10:22.513500 19342 layer_factory.hpp:74] Creating layer inception_4c/1x1
I0509 22:10:22.513509 19342 net.cpp:76] Creating Layer inception_4c/1x1
I0509 22:10:22.513514 19342 net.cpp:372] inception_4c/1x1 <- inception_4b/output_inception_4b/output_0_split_0
I0509 22:10:22.513523 19342 net.cpp:334] inception_4c/1x1 -> inception_4c/1x1
I0509 22:10:22.513532 19342 net.cpp:105] Setting up inception_4c/1x1
I0509 22:10:22.514122 19342 net.cpp:112] Top shape: 32 128 14 14 (802816)
I0509 22:10:22.514139 19342 layer_factory.hpp:74] Creating layer inception_4c/relu_1x1
I0509 22:10:22.514153 19342 net.cpp:76] Creating Layer inception_4c/relu_1x1
I0509 22:10:22.514163 19342 net.cpp:372] inception_4c/relu_1x1 <- inception_4c/1x1
I0509 22:10:22.514178 19342 net.cpp:323] inception_4c/relu_1x1 -> inception_4c/1x1 (in-place)
I0509 22:10:22.514194 19342 net.cpp:105] Setting up inception_4c/relu_1x1
I0509 22:10:22.514204 19342 net.cpp:112] Top shape: 32 128 14 14 (802816)
I0509 22:10:22.514214 19342 layer_factory.hpp:74] Creating layer inception_4c/3x3_reduce
I0509 22:10:22.514230 19342 net.cpp:76] Creating Layer inception_4c/3x3_reduce
I0509 22:10:22.514242 19342 net.cpp:372] inception_4c/3x3_reduce <- inception_4b/output_inception_4b/output_0_split_1
I0509 22:10:22.514258 19342 net.cpp:334] inception_4c/3x3_reduce -> inception_4c/3x3_reduce
I0509 22:10:22.514288 19342 net.cpp:105] Setting up inception_4c/3x3_reduce
I0509 22:10:22.514873 19342 net.cpp:112] Top shape: 32 128 14 14 (802816)
I0509 22:10:22.514888 19342 layer_factory.hpp:74] Creating layer inception_4c/relu_3x3_reduce
I0509 22:10:22.514895 19342 net.cpp:76] Creating Layer inception_4c/relu_3x3_reduce
I0509 22:10:22.514901 19342 net.cpp:372] inception_4c/relu_3x3_reduce <- inception_4c/3x3_reduce
I0509 22:10:22.514909 19342 net.cpp:323] inception_4c/relu_3x3_reduce -> inception_4c/3x3_reduce (in-place)
I0509 22:10:22.514935 19342 net.cpp:105] Setting up inception_4c/relu_3x3_reduce
I0509 22:10:22.514940 19342 net.cpp:112] Top shape: 32 128 14 14 (802816)
I0509 22:10:22.514946 19342 layer_factory.hpp:74] Creating layer inception_4c/3x3
I0509 22:10:22.514955 19342 net.cpp:76] Creating Layer inception_4c/3x3
I0509 22:10:22.514961 19342 net.cpp:372] inception_4c/3x3 <- inception_4c/3x3_reduce
I0509 22:10:22.514971 19342 net.cpp:334] inception_4c/3x3 -> inception_4c/3x3
I0509 22:10:22.514979 19342 net.cpp:105] Setting up inception_4c/3x3
I0509 22:10:22.517518 19342 net.cpp:112] Top shape: 32 256 14 14 (1605632)
I0509 22:10:22.517554 19342 layer_factory.hpp:74] Creating layer inception_4c/relu_3x3
I0509 22:10:22.517565 19342 net.cpp:76] Creating Layer inception_4c/relu_3x3
I0509 22:10:22.519469 19342 net.cpp:372] inception_4c/relu_3x3 <- inception_4c/3x3
I0509 22:10:22.519484 19342 net.cpp:323] inception_4c/relu_3x3 -> inception_4c/3x3 (in-place)
I0509 22:10:22.519495 19342 net.cpp:105] Setting up inception_4c/relu_3x3
I0509 22:10:22.519500 19342 net.cpp:112] Top shape: 32 256 14 14 (1605632)
I0509 22:10:22.519506 19342 layer_factory.hpp:74] Creating layer inception_4c/5x5_reduce
I0509 22:10:22.519520 19342 net.cpp:76] Creating Layer inception_4c/5x5_reduce
I0509 22:10:22.519527 19342 net.cpp:372] inception_4c/5x5_reduce <- inception_4b/output_inception_4b/output_0_split_2
I0509 22:10:22.519536 19342 net.cpp:334] inception_4c/5x5_reduce -> inception_4c/5x5_reduce
I0509 22:10:22.519546 19342 net.cpp:105] Setting up inception_4c/5x5_reduce
I0509 22:10:22.519677 19342 net.cpp:112] Top shape: 32 24 14 14 (150528)
I0509 22:10:22.519692 19342 layer_factory.hpp:74] Creating layer inception_4c/relu_5x5_reduce
I0509 22:10:22.519701 19342 net.cpp:76] Creating Layer inception_4c/relu_5x5_reduce
I0509 22:10:22.519706 19342 net.cpp:372] inception_4c/relu_5x5_reduce <- inception_4c/5x5_reduce
I0509 22:10:22.519713 19342 net.cpp:323] inception_4c/relu_5x5_reduce -> inception_4c/5x5_reduce (in-place)
I0509 22:10:22.519721 19342 net.cpp:105] Setting up inception_4c/relu_5x5_reduce
I0509 22:10:22.519727 19342 net.cpp:112] Top shape: 32 24 14 14 (150528)
I0509 22:10:22.519732 19342 layer_factory.hpp:74] Creating layer inception_4c/5x5
I0509 22:10:22.519743 19342 net.cpp:76] Creating Layer inception_4c/5x5
I0509 22:10:22.519749 19342 net.cpp:372] inception_4c/5x5 <- inception_4c/5x5_reduce
I0509 22:10:22.519759 19342 net.cpp:334] inception_4c/5x5 -> inception_4c/5x5
I0509 22:10:22.519768 19342 net.cpp:105] Setting up inception_4c/5x5
I0509 22:10:22.520114 19342 net.cpp:112] Top shape: 32 64 14 14 (401408)
I0509 22:10:22.520138 19342 layer_factory.hpp:74] Creating layer inception_4c/relu_5x5
I0509 22:10:22.520149 19342 net.cpp:76] Creating Layer inception_4c/relu_5x5
I0509 22:10:22.520159 19342 net.cpp:372] inception_4c/relu_5x5 <- inception_4c/5x5
I0509 22:10:22.520170 19342 net.cpp:323] inception_4c/relu_5x5 -> inception_4c/5x5 (in-place)
I0509 22:10:22.520184 19342 net.cpp:105] Setting up inception_4c/relu_5x5
I0509 22:10:22.520194 19342 net.cpp:112] Top shape: 32 64 14 14 (401408)
I0509 22:10:22.520203 19342 layer_factory.hpp:74] Creating layer inception_4c/pool
I0509 22:10:22.520217 19342 net.cpp:76] Creating Layer inception_4c/pool
I0509 22:10:22.520226 19342 net.cpp:372] inception_4c/pool <- inception_4b/output_inception_4b/output_0_split_3
I0509 22:10:22.520236 19342 net.cpp:334] inception_4c/pool -> inception_4c/pool
I0509 22:10:22.520246 19342 net.cpp:105] Setting up inception_4c/pool
I0509 22:10:22.520254 19342 net.cpp:112] Top shape: 32 512 14 14 (3211264)
I0509 22:10:22.520262 19342 layer_factory.hpp:74] Creating layer inception_4c/pool_proj
I0509 22:10:22.520287 19342 net.cpp:76] Creating Layer inception_4c/pool_proj
I0509 22:10:22.520294 19342 net.cpp:372] inception_4c/pool_proj <- inception_4c/pool
I0509 22:10:22.520305 19342 net.cpp:334] inception_4c/pool_proj -> inception_4c/pool_proj
I0509 22:10:22.520315 19342 net.cpp:105] Setting up inception_4c/pool_proj
I0509 22:10:22.520653 19342 net.cpp:112] Top shape: 32 64 14 14 (401408)
I0509 22:10:22.520674 19342 layer_factory.hpp:74] Creating layer inception_4c/relu_pool_proj
I0509 22:10:22.520689 19342 net.cpp:76] Creating Layer inception_4c/relu_pool_proj
I0509 22:10:22.520700 19342 net.cpp:372] inception_4c/relu_pool_proj <- inception_4c/pool_proj
I0509 22:10:22.520714 19342 net.cpp:323] inception_4c/relu_pool_proj -> inception_4c/pool_proj (in-place)
I0509 22:10:22.520728 19342 net.cpp:105] Setting up inception_4c/relu_pool_proj
I0509 22:10:22.520740 19342 net.cpp:112] Top shape: 32 64 14 14 (401408)
I0509 22:10:22.520750 19342 layer_factory.hpp:74] Creating layer inception_4c/output
I0509 22:10:22.520761 19342 net.cpp:76] Creating Layer inception_4c/output
I0509 22:10:22.520768 19342 net.cpp:372] inception_4c/output <- inception_4c/1x1
I0509 22:10:22.520776 19342 net.cpp:372] inception_4c/output <- inception_4c/3x3
I0509 22:10:22.520781 19342 net.cpp:372] inception_4c/output <- inception_4c/5x5
I0509 22:10:22.520896 19342 net.cpp:372] inception_4c/output <- inception_4c/pool_proj
I0509 22:10:22.520920 19342 net.cpp:334] inception_4c/output -> inception_4c/output
I0509 22:10:22.520941 19342 net.cpp:105] Setting up inception_4c/output
I0509 22:10:22.520954 19342 net.cpp:112] Top shape: 32 512 14 14 (3211264)
I0509 22:10:22.520967 19342 layer_factory.hpp:74] Creating layer inception_4c/output_inception_4c/output_0_split
I0509 22:10:22.520980 19342 net.cpp:76] Creating Layer inception_4c/output_inception_4c/output_0_split
I0509 22:10:22.520992 19342 net.cpp:372] inception_4c/output_inception_4c/output_0_split <- inception_4c/output
I0509 22:10:22.521003 19342 net.cpp:334] inception_4c/output_inception_4c/output_0_split -> inception_4c/output_inception_4c/output_0_split_0
I0509 22:10:22.521018 19342 net.cpp:334] inception_4c/output_inception_4c/output_0_split -> inception_4c/output_inception_4c/output_0_split_1
I0509 22:10:22.521028 19342 net.cpp:334] inception_4c/output_inception_4c/output_0_split -> inception_4c/output_inception_4c/output_0_split_2
I0509 22:10:22.521037 19342 net.cpp:334] inception_4c/output_inception_4c/output_0_split -> inception_4c/output_inception_4c/output_0_split_3
I0509 22:10:22.521045 19342 net.cpp:105] Setting up inception_4c/output_inception_4c/output_0_split
I0509 22:10:22.521052 19342 net.cpp:112] Top shape: 32 512 14 14 (3211264)
I0509 22:10:22.521057 19342 net.cpp:112] Top shape: 32 512 14 14 (3211264)
I0509 22:10:22.521062 19342 net.cpp:112] Top shape: 32 512 14 14 (3211264)
I0509 22:10:22.521067 19342 net.cpp:112] Top shape: 32 512 14 14 (3211264)
I0509 22:10:22.521072 19342 layer_factory.hpp:74] Creating layer inception_4d/1x1
I0509 22:10:22.521085 19342 net.cpp:76] Creating Layer inception_4d/1x1
I0509 22:10:22.521090 19342 net.cpp:372] inception_4d/1x1 <- inception_4c/output_inception_4c/output_0_split_0
I0509 22:10:22.521098 19342 net.cpp:334] inception_4d/1x1 -> inception_4d/1x1
I0509 22:10:22.521108 19342 net.cpp:105] Setting up inception_4d/1x1
I0509 22:10:22.521682 19342 net.cpp:112] Top shape: 32 112 14 14 (702464)
I0509 22:10:22.521698 19342 layer_factory.hpp:74] Creating layer inception_4d/relu_1x1
I0509 22:10:22.521708 19342 net.cpp:76] Creating Layer inception_4d/relu_1x1
I0509 22:10:22.521716 19342 net.cpp:372] inception_4d/relu_1x1 <- inception_4d/1x1
I0509 22:10:22.521729 19342 net.cpp:323] inception_4d/relu_1x1 -> inception_4d/1x1 (in-place)
I0509 22:10:22.521744 19342 net.cpp:105] Setting up inception_4d/relu_1x1
I0509 22:10:22.521749 19342 net.cpp:112] Top shape: 32 112 14 14 (702464)
I0509 22:10:22.521755 19342 layer_factory.hpp:74] Creating layer inception_4d/3x3_reduce
I0509 22:10:22.521765 19342 net.cpp:76] Creating Layer inception_4d/3x3_reduce
I0509 22:10:22.521775 19342 net.cpp:372] inception_4d/3x3_reduce <- inception_4c/output_inception_4c/output_0_split_1
I0509 22:10:22.521796 19342 net.cpp:334] inception_4d/3x3_reduce -> inception_4d/3x3_reduce
I0509 22:10:22.521816 19342 net.cpp:105] Setting up inception_4d/3x3_reduce
I0509 22:10:22.522552 19342 net.cpp:112] Top shape: 32 144 14 14 (903168)
I0509 22:10:22.522591 19342 layer_factory.hpp:74] Creating layer inception_4d/relu_3x3_reduce
I0509 22:10:22.522608 19342 net.cpp:76] Creating Layer inception_4d/relu_3x3_reduce
I0509 22:10:22.522621 19342 net.cpp:372] inception_4d/relu_3x3_reduce <- inception_4d/3x3_reduce
I0509 22:10:22.522636 19342 net.cpp:323] inception_4d/relu_3x3_reduce -> inception_4d/3x3_reduce (in-place)
I0509 22:10:22.522653 19342 net.cpp:105] Setting up inception_4d/relu_3x3_reduce
I0509 22:10:22.522665 19342 net.cpp:112] Top shape: 32 144 14 14 (903168)
I0509 22:10:22.522675 19342 layer_factory.hpp:74] Creating layer inception_4d/3x3
I0509 22:10:22.522691 19342 net.cpp:76] Creating Layer inception_4d/3x3
I0509 22:10:22.522703 19342 net.cpp:372] inception_4d/3x3 <- inception_4d/3x3_reduce
I0509 22:10:22.522724 19342 net.cpp:334] inception_4d/3x3 -> inception_4d/3x3
I0509 22:10:22.522742 19342 net.cpp:105] Setting up inception_4d/3x3
I0509 22:10:22.525941 19342 net.cpp:112] Top shape: 32 288 14 14 (1806336)
I0509 22:10:22.525965 19342 layer_factory.hpp:74] Creating layer inception_4d/relu_3x3
I0509 22:10:22.525975 19342 net.cpp:76] Creating Layer inception_4d/relu_3x3
I0509 22:10:22.525982 19342 net.cpp:372] inception_4d/relu_3x3 <- inception_4d/3x3
I0509 22:10:22.525990 19342 net.cpp:323] inception_4d/relu_3x3 -> inception_4d/3x3 (in-place)
I0509 22:10:22.526000 19342 net.cpp:105] Setting up inception_4d/relu_3x3
I0509 22:10:22.526005 19342 net.cpp:112] Top shape: 32 288 14 14 (1806336)
I0509 22:10:22.526010 19342 layer_factory.hpp:74] Creating layer inception_4d/5x5_reduce
I0509 22:10:22.526028 19342 net.cpp:76] Creating Layer inception_4d/5x5_reduce
I0509 22:10:22.526036 19342 net.cpp:372] inception_4d/5x5_reduce <- inception_4c/output_inception_4c/output_0_split_2
I0509 22:10:22.526044 19342 net.cpp:334] inception_4d/5x5_reduce -> inception_4d/5x5_reduce
I0509 22:10:22.526053 19342 net.cpp:105] Setting up inception_4d/5x5_reduce
I0509 22:10:22.526209 19342 net.cpp:112] Top shape: 32 32 14 14 (200704)
I0509 22:10:22.526221 19342 layer_factory.hpp:74] Creating layer inception_4d/relu_5x5_reduce
I0509 22:10:22.526228 19342 net.cpp:76] Creating Layer inception_4d/relu_5x5_reduce
I0509 22:10:22.526234 19342 net.cpp:372] inception_4d/relu_5x5_reduce <- inception_4d/5x5_reduce
I0509 22:10:22.526243 19342 net.cpp:323] inception_4d/relu_5x5_reduce -> inception_4d/5x5_reduce (in-place)
I0509 22:10:22.526252 19342 net.cpp:105] Setting up inception_4d/relu_5x5_reduce
I0509 22:10:22.526257 19342 net.cpp:112] Top shape: 32 32 14 14 (200704)
I0509 22:10:22.526263 19342 layer_factory.hpp:74] Creating layer inception_4d/5x5
I0509 22:10:22.526285 19342 net.cpp:76] Creating Layer inception_4d/5x5
I0509 22:10:22.526293 19342 net.cpp:372] inception_4d/5x5 <- inception_4d/5x5_reduce
I0509 22:10:22.526304 19342 net.cpp:334] inception_4d/5x5 -> inception_4d/5x5
I0509 22:10:22.526314 19342 net.cpp:105] Setting up inception_4d/5x5
I0509 22:10:22.526748 19342 net.cpp:112] Top shape: 32 64 14 14 (401408)
I0509 22:10:22.526762 19342 layer_factory.hpp:74] Creating layer inception_4d/relu_5x5
I0509 22:10:22.526772 19342 net.cpp:76] Creating Layer inception_4d/relu_5x5
I0509 22:10:22.526778 19342 net.cpp:372] inception_4d/relu_5x5 <- inception_4d/5x5
I0509 22:10:22.526785 19342 net.cpp:323] inception_4d/relu_5x5 -> inception_4d/5x5 (in-place)
I0509 22:10:22.526793 19342 net.cpp:105] Setting up inception_4d/relu_5x5
I0509 22:10:22.526798 19342 net.cpp:112] Top shape: 32 64 14 14 (401408)
I0509 22:10:22.526804 19342 layer_factory.hpp:74] Creating layer inception_4d/pool
I0509 22:10:22.526815 19342 net.cpp:76] Creating Layer inception_4d/pool
I0509 22:10:22.526821 19342 net.cpp:372] inception_4d/pool <- inception_4c/output_inception_4c/output_0_split_3
I0509 22:10:22.526829 19342 net.cpp:334] inception_4d/pool -> inception_4d/pool
I0509 22:10:22.526837 19342 net.cpp:105] Setting up inception_4d/pool
I0509 22:10:22.526846 19342 net.cpp:112] Top shape: 32 512 14 14 (3211264)
I0509 22:10:22.526852 19342 layer_factory.hpp:74] Creating layer inception_4d/pool_proj
I0509 22:10:22.526885 19342 net.cpp:76] Creating Layer inception_4d/pool_proj
I0509 22:10:22.526892 19342 net.cpp:372] inception_4d/pool_proj <- inception_4d/pool
I0509 22:10:22.526903 19342 net.cpp:334] inception_4d/pool_proj -> inception_4d/pool_proj
I0509 22:10:22.526912 19342 net.cpp:105] Setting up inception_4d/pool_proj
I0509 22:10:22.527199 19342 net.cpp:112] Top shape: 32 64 14 14 (401408)
I0509 22:10:22.527211 19342 layer_factory.hpp:74] Creating layer inception_4d/relu_pool_proj
I0509 22:10:22.527220 19342 net.cpp:76] Creating Layer inception_4d/relu_pool_proj
I0509 22:10:22.527225 19342 net.cpp:372] inception_4d/relu_pool_proj <- inception_4d/pool_proj
I0509 22:10:22.527232 19342 net.cpp:323] inception_4d/relu_pool_proj -> inception_4d/pool_proj (in-place)
I0509 22:10:22.527240 19342 net.cpp:105] Setting up inception_4d/relu_pool_proj
I0509 22:10:22.527246 19342 net.cpp:112] Top shape: 32 64 14 14 (401408)
I0509 22:10:22.527251 19342 layer_factory.hpp:74] Creating layer inception_4d/output
I0509 22:10:22.527261 19342 net.cpp:76] Creating Layer inception_4d/output
I0509 22:10:22.527267 19342 net.cpp:372] inception_4d/output <- inception_4d/1x1
I0509 22:10:22.527290 19342 net.cpp:372] inception_4d/output <- inception_4d/3x3
I0509 22:10:22.527297 19342 net.cpp:372] inception_4d/output <- inception_4d/5x5
I0509 22:10:22.527303 19342 net.cpp:372] inception_4d/output <- inception_4d/pool_proj
I0509 22:10:22.527310 19342 net.cpp:334] inception_4d/output -> inception_4d/output
I0509 22:10:22.527319 19342 net.cpp:105] Setting up inception_4d/output
I0509 22:10:22.527325 19342 net.cpp:112] Top shape: 32 528 14 14 (3311616)
I0509 22:10:22.527331 19342 layer_factory.hpp:74] Creating layer inception_4d/output_inception_4d/output_0_split
I0509 22:10:22.527339 19342 net.cpp:76] Creating Layer inception_4d/output_inception_4d/output_0_split
I0509 22:10:22.527348 19342 net.cpp:372] inception_4d/output_inception_4d/output_0_split <- inception_4d/output
I0509 22:10:22.527355 19342 net.cpp:334] inception_4d/output_inception_4d/output_0_split -> inception_4d/output_inception_4d/output_0_split_0
I0509 22:10:22.527364 19342 net.cpp:334] inception_4d/output_inception_4d/output_0_split -> inception_4d/output_inception_4d/output_0_split_1
I0509 22:10:22.527374 19342 net.cpp:334] inception_4d/output_inception_4d/output_0_split -> inception_4d/output_inception_4d/output_0_split_2
I0509 22:10:22.527384 19342 net.cpp:334] inception_4d/output_inception_4d/output_0_split -> inception_4d/output_inception_4d/output_0_split_3
I0509 22:10:22.527412 19342 net.cpp:334] inception_4d/output_inception_4d/output_0_split -> inception_4d/output_inception_4d/output_0_split_4
I0509 22:10:22.527422 19342 net.cpp:105] Setting up inception_4d/output_inception_4d/output_0_split
I0509 22:10:22.527429 19342 net.cpp:112] Top shape: 32 528 14 14 (3311616)
I0509 22:10:22.527434 19342 net.cpp:112] Top shape: 32 528 14 14 (3311616)
I0509 22:10:22.527439 19342 net.cpp:112] Top shape: 32 528 14 14 (3311616)
I0509 22:10:22.527444 19342 net.cpp:112] Top shape: 32 528 14 14 (3311616)
I0509 22:10:22.527449 19342 net.cpp:112] Top shape: 32 528 14 14 (3311616)
I0509 22:10:22.527454 19342 layer_factory.hpp:74] Creating layer loss2/ave_pool
I0509 22:10:22.527464 19342 net.cpp:76] Creating Layer loss2/ave_pool
I0509 22:10:22.527470 19342 net.cpp:372] loss2/ave_pool <- inception_4d/output_inception_4d/output_0_split_0
I0509 22:10:22.527479 19342 net.cpp:334] loss2/ave_pool -> loss2/ave_pool
I0509 22:10:22.527487 19342 net.cpp:105] Setting up loss2/ave_pool
I0509 22:10:22.527493 19342 net.cpp:112] Top shape: 32 528 4 4 (270336)
I0509 22:10:22.527498 19342 layer_factory.hpp:74] Creating layer loss2/conv
I0509 22:10:22.527509 19342 net.cpp:76] Creating Layer loss2/conv
I0509 22:10:22.527514 19342 net.cpp:372] loss2/conv <- loss2/ave_pool
I0509 22:10:22.527523 19342 net.cpp:334] loss2/conv -> loss2/conv
I0509 22:10:22.527530 19342 net.cpp:105] Setting up loss2/conv
I0509 22:10:22.528113 19342 net.cpp:112] Top shape: 32 128 4 4 (65536)
I0509 22:10:22.528127 19342 layer_factory.hpp:74] Creating layer loss2/relu_conv
I0509 22:10:22.528148 19342 net.cpp:76] Creating Layer loss2/relu_conv
I0509 22:10:22.528156 19342 net.cpp:372] loss2/relu_conv <- loss2/conv
I0509 22:10:22.528164 19342 net.cpp:323] loss2/relu_conv -> loss2/conv (in-place)
I0509 22:10:22.528172 19342 net.cpp:105] Setting up loss2/relu_conv
I0509 22:10:22.528178 19342 net.cpp:112] Top shape: 32 128 4 4 (65536)
I0509 22:10:22.528187 19342 layer_factory.hpp:74] Creating layer loss2/fc
I0509 22:10:22.528198 19342 net.cpp:76] Creating Layer loss2/fc
I0509 22:10:22.528203 19342 net.cpp:372] loss2/fc <- loss2/conv
I0509 22:10:22.528209 19342 net.cpp:334] loss2/fc -> loss2/fc
I0509 22:10:22.528218 19342 net.cpp:105] Setting up loss2/fc
I0509 22:10:22.545796 19342 net.cpp:112] Top shape: 32 1024 1 1 (32768)
I0509 22:10:22.545838 19342 layer_factory.hpp:74] Creating layer loss2/relu_fc
I0509 22:10:22.545853 19342 net.cpp:76] Creating Layer loss2/relu_fc
I0509 22:10:22.545861 19342 net.cpp:372] loss2/relu_fc <- loss2/fc
I0509 22:10:22.545874 19342 net.cpp:323] loss2/relu_fc -> loss2/fc (in-place)
I0509 22:10:22.545886 19342 net.cpp:105] Setting up loss2/relu_fc
I0509 22:10:22.545892 19342 net.cpp:112] Top shape: 32 1024 1 1 (32768)
I0509 22:10:22.545897 19342 layer_factory.hpp:74] Creating layer loss2/drop_fc
I0509 22:10:22.545907 19342 net.cpp:76] Creating Layer loss2/drop_fc
I0509 22:10:22.545912 19342 net.cpp:372] loss2/drop_fc <- loss2/fc
I0509 22:10:22.545918 19342 net.cpp:323] loss2/drop_fc -> loss2/fc (in-place)
I0509 22:10:22.545927 19342 net.cpp:105] Setting up loss2/drop_fc
I0509 22:10:22.545933 19342 net.cpp:112] Top shape: 32 1024 1 1 (32768)
I0509 22:10:22.545938 19342 layer_factory.hpp:74] Creating layer loss2/classifier
I0509 22:10:22.545948 19342 net.cpp:76] Creating Layer loss2/classifier
I0509 22:10:22.545953 19342 net.cpp:372] loss2/classifier <- loss2/fc
I0509 22:10:22.545964 19342 net.cpp:334] loss2/classifier -> loss2/classifier
I0509 22:10:22.545975 19342 net.cpp:105] Setting up loss2/classifier
I0509 22:10:22.546010 19342 net.cpp:112] Top shape: 32 2 1 1 (64)
I0509 22:10:22.546020 19342 layer_factory.hpp:74] Creating layer loss2/loss
I0509 22:10:22.546030 19342 net.cpp:76] Creating Layer loss2/loss
I0509 22:10:22.546036 19342 net.cpp:372] loss2/loss <- loss2/classifier
I0509 22:10:22.546047 19342 net.cpp:372] loss2/loss <- label_data_1_split_1
I0509 22:10:22.546056 19342 net.cpp:334] loss2/loss -> loss2/loss1
I0509 22:10:22.546063 19342 net.cpp:105] Setting up loss2/loss
I0509 22:10:22.546072 19342 layer_factory.hpp:74] Creating layer loss2/loss
I0509 22:10:22.546087 19342 net.cpp:112] Top shape: 1 1 1 1 (1)
I0509 22:10:22.546093 19342 net.cpp:118]     with loss weight 0.3
I0509 22:10:22.546111 19342 layer_factory.hpp:74] Creating layer inception_4e/1x1
I0509 22:10:22.546123 19342 net.cpp:76] Creating Layer inception_4e/1x1
I0509 22:10:22.546130 19342 net.cpp:372] inception_4e/1x1 <- inception_4d/output_inception_4d/output_0_split_1
I0509 22:10:22.546139 19342 net.cpp:334] inception_4e/1x1 -> inception_4e/1x1
I0509 22:10:22.546149 19342 net.cpp:105] Setting up inception_4e/1x1
I0509 22:10:22.547312 19342 net.cpp:112] Top shape: 32 256 14 14 (1605632)
I0509 22:10:22.547330 19342 layer_factory.hpp:74] Creating layer inception_4e/relu_1x1
I0509 22:10:22.547338 19342 net.cpp:76] Creating Layer inception_4e/relu_1x1
I0509 22:10:22.547345 19342 net.cpp:372] inception_4e/relu_1x1 <- inception_4e/1x1
I0509 22:10:22.547353 19342 net.cpp:323] inception_4e/relu_1x1 -> inception_4e/1x1 (in-place)
I0509 22:10:22.547359 19342 net.cpp:105] Setting up inception_4e/relu_1x1
I0509 22:10:22.547365 19342 net.cpp:112] Top shape: 32 256 14 14 (1605632)
I0509 22:10:22.547371 19342 layer_factory.hpp:74] Creating layer inception_4e/3x3_reduce
I0509 22:10:22.547379 19342 net.cpp:76] Creating Layer inception_4e/3x3_reduce
I0509 22:10:22.547385 19342 net.cpp:372] inception_4e/3x3_reduce <- inception_4d/output_inception_4d/output_0_split_2
I0509 22:10:22.547399 19342 net.cpp:334] inception_4e/3x3_reduce -> inception_4e/3x3_reduce
I0509 22:10:22.547441 19342 net.cpp:105] Setting up inception_4e/3x3_reduce
I0509 22:10:22.548182 19342 net.cpp:112] Top shape: 32 160 14 14 (1003520)
I0509 22:10:22.548198 19342 layer_factory.hpp:74] Creating layer inception_4e/relu_3x3_reduce
I0509 22:10:22.548207 19342 net.cpp:76] Creating Layer inception_4e/relu_3x3_reduce
I0509 22:10:22.548213 19342 net.cpp:372] inception_4e/relu_3x3_reduce <- inception_4e/3x3_reduce
I0509 22:10:22.548223 19342 net.cpp:323] inception_4e/relu_3x3_reduce -> inception_4e/3x3_reduce (in-place)
I0509 22:10:22.548231 19342 net.cpp:105] Setting up inception_4e/relu_3x3_reduce
I0509 22:10:22.548238 19342 net.cpp:112] Top shape: 32 160 14 14 (1003520)
I0509 22:10:22.548243 19342 layer_factory.hpp:74] Creating layer inception_4e/3x3
I0509 22:10:22.548250 19342 net.cpp:76] Creating Layer inception_4e/3x3
I0509 22:10:22.548256 19342 net.cpp:372] inception_4e/3x3 <- inception_4e/3x3_reduce
I0509 22:10:22.548265 19342 net.cpp:334] inception_4e/3x3 -> inception_4e/3x3
I0509 22:10:22.548291 19342 net.cpp:105] Setting up inception_4e/3x3
I0509 22:10:22.552425 19342 net.cpp:112] Top shape: 32 320 14 14 (2007040)
I0509 22:10:22.552455 19342 layer_factory.hpp:74] Creating layer inception_4e/relu_3x3
I0509 22:10:22.552467 19342 net.cpp:76] Creating Layer inception_4e/relu_3x3
I0509 22:10:22.552475 19342 net.cpp:372] inception_4e/relu_3x3 <- inception_4e/3x3
I0509 22:10:22.552486 19342 net.cpp:323] inception_4e/relu_3x3 -> inception_4e/3x3 (in-place)
I0509 22:10:22.552497 19342 net.cpp:105] Setting up inception_4e/relu_3x3
I0509 22:10:22.552503 19342 net.cpp:112] Top shape: 32 320 14 14 (2007040)
I0509 22:10:22.552508 19342 layer_factory.hpp:74] Creating layer inception_4e/5x5_reduce
I0509 22:10:22.552518 19342 net.cpp:76] Creating Layer inception_4e/5x5_reduce
I0509 22:10:22.552525 19342 net.cpp:372] inception_4e/5x5_reduce <- inception_4d/output_inception_4d/output_0_split_3
I0509 22:10:22.552536 19342 net.cpp:334] inception_4e/5x5_reduce -> inception_4e/5x5_reduce
I0509 22:10:22.552546 19342 net.cpp:105] Setting up inception_4e/5x5_reduce
I0509 22:10:22.552697 19342 net.cpp:112] Top shape: 32 32 14 14 (200704)
I0509 22:10:22.552711 19342 layer_factory.hpp:74] Creating layer inception_4e/relu_5x5_reduce
I0509 22:10:22.552718 19342 net.cpp:76] Creating Layer inception_4e/relu_5x5_reduce
I0509 22:10:22.552724 19342 net.cpp:372] inception_4e/relu_5x5_reduce <- inception_4e/5x5_reduce
I0509 22:10:22.552731 19342 net.cpp:323] inception_4e/relu_5x5_reduce -> inception_4e/5x5_reduce (in-place)
I0509 22:10:22.552738 19342 net.cpp:105] Setting up inception_4e/relu_5x5_reduce
I0509 22:10:22.552744 19342 net.cpp:112] Top shape: 32 32 14 14 (200704)
I0509 22:10:22.552750 19342 layer_factory.hpp:74] Creating layer inception_4e/5x5
I0509 22:10:22.552778 19342 net.cpp:76] Creating Layer inception_4e/5x5
I0509 22:10:22.552785 19342 net.cpp:372] inception_4e/5x5 <- inception_4e/5x5_reduce
I0509 22:10:22.552795 19342 net.cpp:334] inception_4e/5x5 -> inception_4e/5x5
I0509 22:10:22.552804 19342 net.cpp:105] Setting up inception_4e/5x5
I0509 22:10:22.553683 19342 net.cpp:112] Top shape: 32 128 14 14 (802816)
I0509 22:10:22.553697 19342 layer_factory.hpp:74] Creating layer inception_4e/relu_5x5
I0509 22:10:22.553705 19342 net.cpp:76] Creating Layer inception_4e/relu_5x5
I0509 22:10:22.553711 19342 net.cpp:372] inception_4e/relu_5x5 <- inception_4e/5x5
I0509 22:10:22.553719 19342 net.cpp:323] inception_4e/relu_5x5 -> inception_4e/5x5 (in-place)
I0509 22:10:22.553726 19342 net.cpp:105] Setting up inception_4e/relu_5x5
I0509 22:10:22.553732 19342 net.cpp:112] Top shape: 32 128 14 14 (802816)
I0509 22:10:22.553737 19342 layer_factory.hpp:74] Creating layer inception_4e/pool
I0509 22:10:22.553746 19342 net.cpp:76] Creating Layer inception_4e/pool
I0509 22:10:22.553751 19342 net.cpp:372] inception_4e/pool <- inception_4d/output_inception_4d/output_0_split_4
I0509 22:10:22.553762 19342 net.cpp:334] inception_4e/pool -> inception_4e/pool
I0509 22:10:22.553771 19342 net.cpp:105] Setting up inception_4e/pool
I0509 22:10:22.553779 19342 net.cpp:112] Top shape: 32 528 14 14 (3311616)
I0509 22:10:22.553814 19342 layer_factory.hpp:74] Creating layer inception_4e/pool_proj
I0509 22:10:22.553827 19342 net.cpp:76] Creating Layer inception_4e/pool_proj
I0509 22:10:22.553833 19342 net.cpp:372] inception_4e/pool_proj <- inception_4e/pool
I0509 22:10:22.553840 19342 net.cpp:334] inception_4e/pool_proj -> inception_4e/pool_proj
I0509 22:10:22.553850 19342 net.cpp:105] Setting up inception_4e/pool_proj
I0509 22:10:22.554440 19342 net.cpp:112] Top shape: 32 128 14 14 (802816)
I0509 22:10:22.554453 19342 layer_factory.hpp:74] Creating layer inception_4e/relu_pool_proj
I0509 22:10:22.554462 19342 net.cpp:76] Creating Layer inception_4e/relu_pool_proj
I0509 22:10:22.554468 19342 net.cpp:372] inception_4e/relu_pool_proj <- inception_4e/pool_proj
I0509 22:10:22.554477 19342 net.cpp:323] inception_4e/relu_pool_proj -> inception_4e/pool_proj (in-place)
I0509 22:10:22.554486 19342 net.cpp:105] Setting up inception_4e/relu_pool_proj
I0509 22:10:22.554491 19342 net.cpp:112] Top shape: 32 128 14 14 (802816)
I0509 22:10:22.554497 19342 layer_factory.hpp:74] Creating layer inception_4e/output
I0509 22:10:22.554504 19342 net.cpp:76] Creating Layer inception_4e/output
I0509 22:10:22.554509 19342 net.cpp:372] inception_4e/output <- inception_4e/1x1
I0509 22:10:22.554517 19342 net.cpp:372] inception_4e/output <- inception_4e/3x3
I0509 22:10:22.554522 19342 net.cpp:372] inception_4e/output <- inception_4e/5x5
I0509 22:10:22.554528 19342 net.cpp:372] inception_4e/output <- inception_4e/pool_proj
I0509 22:10:22.554535 19342 net.cpp:334] inception_4e/output -> inception_4e/output
I0509 22:10:22.554543 19342 net.cpp:105] Setting up inception_4e/output
I0509 22:10:22.554550 19342 net.cpp:112] Top shape: 32 832 14 14 (5218304)
I0509 22:10:22.554555 19342 layer_factory.hpp:74] Creating layer pool4/3x3_s2
I0509 22:10:22.554563 19342 net.cpp:76] Creating Layer pool4/3x3_s2
I0509 22:10:22.554569 19342 net.cpp:372] pool4/3x3_s2 <- inception_4e/output
I0509 22:10:22.554577 19342 net.cpp:334] pool4/3x3_s2 -> pool4/3x3_s2
I0509 22:10:22.554586 19342 net.cpp:105] Setting up pool4/3x3_s2
I0509 22:10:22.554594 19342 net.cpp:112] Top shape: 32 832 7 7 (1304576)
I0509 22:10:22.554600 19342 layer_factory.hpp:74] Creating layer pool4/3x3_s2_pool4/3x3_s2_0_split
I0509 22:10:22.554607 19342 net.cpp:76] Creating Layer pool4/3x3_s2_pool4/3x3_s2_0_split
I0509 22:10:22.554613 19342 net.cpp:372] pool4/3x3_s2_pool4/3x3_s2_0_split <- pool4/3x3_s2
I0509 22:10:22.554622 19342 net.cpp:334] pool4/3x3_s2_pool4/3x3_s2_0_split -> pool4/3x3_s2_pool4/3x3_s2_0_split_0
I0509 22:10:22.554631 19342 net.cpp:334] pool4/3x3_s2_pool4/3x3_s2_0_split -> pool4/3x3_s2_pool4/3x3_s2_0_split_1
I0509 22:10:22.554641 19342 net.cpp:334] pool4/3x3_s2_pool4/3x3_s2_0_split -> pool4/3x3_s2_pool4/3x3_s2_0_split_2
I0509 22:10:22.554648 19342 net.cpp:334] pool4/3x3_s2_pool4/3x3_s2_0_split -> pool4/3x3_s2_pool4/3x3_s2_0_split_3
I0509 22:10:22.554656 19342 net.cpp:105] Setting up pool4/3x3_s2_pool4/3x3_s2_0_split
I0509 22:10:22.554663 19342 net.cpp:112] Top shape: 32 832 7 7 (1304576)
I0509 22:10:22.554668 19342 net.cpp:112] Top shape: 32 832 7 7 (1304576)
I0509 22:10:22.554673 19342 net.cpp:112] Top shape: 32 832 7 7 (1304576)
I0509 22:10:22.554678 19342 net.cpp:112] Top shape: 32 832 7 7 (1304576)
I0509 22:10:22.554683 19342 layer_factory.hpp:74] Creating layer inception_5a/1x1
I0509 22:10:22.554693 19342 net.cpp:76] Creating Layer inception_5a/1x1
I0509 22:10:22.554699 19342 net.cpp:372] inception_5a/1x1 <- pool4/3x3_s2_pool4/3x3_s2_0_split_0
I0509 22:10:22.554708 19342 net.cpp:334] inception_5a/1x1 -> inception_5a/1x1
I0509 22:10:22.554716 19342 net.cpp:105] Setting up inception_5a/1x1
I0509 22:10:22.556507 19342 net.cpp:112] Top shape: 32 256 7 7 (401408)
I0509 22:10:22.556524 19342 layer_factory.hpp:74] Creating layer inception_5a/relu_1x1
I0509 22:10:22.556536 19342 net.cpp:76] Creating Layer inception_5a/relu_1x1
I0509 22:10:22.556565 19342 net.cpp:372] inception_5a/relu_1x1 <- inception_5a/1x1
I0509 22:10:22.556576 19342 net.cpp:323] inception_5a/relu_1x1 -> inception_5a/1x1 (in-place)
I0509 22:10:22.556599 19342 net.cpp:105] Setting up inception_5a/relu_1x1
I0509 22:10:22.556607 19342 net.cpp:112] Top shape: 32 256 7 7 (401408)
I0509 22:10:22.556612 19342 layer_factory.hpp:74] Creating layer inception_5a/3x3_reduce
I0509 22:10:22.556622 19342 net.cpp:76] Creating Layer inception_5a/3x3_reduce
I0509 22:10:22.556627 19342 net.cpp:372] inception_5a/3x3_reduce <- pool4/3x3_s2_pool4/3x3_s2_0_split_1
I0509 22:10:22.556638 19342 net.cpp:334] inception_5a/3x3_reduce -> inception_5a/3x3_reduce
I0509 22:10:22.556648 19342 net.cpp:105] Setting up inception_5a/3x3_reduce
I0509 22:10:22.557781 19342 net.cpp:112] Top shape: 32 160 7 7 (250880)
I0509 22:10:22.557797 19342 layer_factory.hpp:74] Creating layer inception_5a/relu_3x3_reduce
I0509 22:10:22.557806 19342 net.cpp:76] Creating Layer inception_5a/relu_3x3_reduce
I0509 22:10:22.557813 19342 net.cpp:372] inception_5a/relu_3x3_reduce <- inception_5a/3x3_reduce
I0509 22:10:22.557826 19342 net.cpp:323] inception_5a/relu_3x3_reduce -> inception_5a/3x3_reduce (in-place)
I0509 22:10:22.557838 19342 net.cpp:105] Setting up inception_5a/relu_3x3_reduce
I0509 22:10:22.557847 19342 net.cpp:112] Top shape: 32 160 7 7 (250880)
I0509 22:10:22.557857 19342 layer_factory.hpp:74] Creating layer inception_5a/3x3
I0509 22:10:22.557871 19342 net.cpp:76] Creating Layer inception_5a/3x3
I0509 22:10:22.557878 19342 net.cpp:372] inception_5a/3x3 <- inception_5a/3x3_reduce
I0509 22:10:22.557885 19342 net.cpp:334] inception_5a/3x3 -> inception_5a/3x3
I0509 22:10:22.557894 19342 net.cpp:105] Setting up inception_5a/3x3
I0509 22:10:22.561825 19342 net.cpp:112] Top shape: 32 320 7 7 (501760)
I0509 22:10:22.561851 19342 layer_factory.hpp:74] Creating layer inception_5a/relu_3x3
I0509 22:10:22.561861 19342 net.cpp:76] Creating Layer inception_5a/relu_3x3
I0509 22:10:22.561868 19342 net.cpp:372] inception_5a/relu_3x3 <- inception_5a/3x3
I0509 22:10:22.561877 19342 net.cpp:323] inception_5a/relu_3x3 -> inception_5a/3x3 (in-place)
I0509 22:10:22.561887 19342 net.cpp:105] Setting up inception_5a/relu_3x3
I0509 22:10:22.561892 19342 net.cpp:112] Top shape: 32 320 7 7 (501760)
I0509 22:10:22.561897 19342 layer_factory.hpp:74] Creating layer inception_5a/5x5_reduce
I0509 22:10:22.561907 19342 net.cpp:76] Creating Layer inception_5a/5x5_reduce
I0509 22:10:22.561913 19342 net.cpp:372] inception_5a/5x5_reduce <- pool4/3x3_s2_pool4/3x3_s2_0_split_2
I0509 22:10:22.561923 19342 net.cpp:334] inception_5a/5x5_reduce -> inception_5a/5x5_reduce
I0509 22:10:22.561933 19342 net.cpp:105] Setting up inception_5a/5x5_reduce
I0509 22:10:22.562165 19342 net.cpp:112] Top shape: 32 32 7 7 (50176)
I0509 22:10:22.562178 19342 layer_factory.hpp:74] Creating layer inception_5a/relu_5x5_reduce
I0509 22:10:22.562186 19342 net.cpp:76] Creating Layer inception_5a/relu_5x5_reduce
I0509 22:10:22.562192 19342 net.cpp:372] inception_5a/relu_5x5_reduce <- inception_5a/5x5_reduce
I0509 22:10:22.562199 19342 net.cpp:323] inception_5a/relu_5x5_reduce -> inception_5a/5x5_reduce (in-place)
I0509 22:10:22.562206 19342 net.cpp:105] Setting up inception_5a/relu_5x5_reduce
I0509 22:10:22.562212 19342 net.cpp:112] Top shape: 32 32 7 7 (50176)
I0509 22:10:22.562218 19342 layer_factory.hpp:74] Creating layer inception_5a/5x5
I0509 22:10:22.562227 19342 net.cpp:76] Creating Layer inception_5a/5x5
I0509 22:10:22.562232 19342 net.cpp:372] inception_5a/5x5 <- inception_5a/5x5_reduce
I0509 22:10:22.562242 19342 net.cpp:334] inception_5a/5x5 -> inception_5a/5x5
I0509 22:10:22.562252 19342 net.cpp:105] Setting up inception_5a/5x5
I0509 22:10:22.563175 19342 net.cpp:112] Top shape: 32 128 7 7 (200704)
I0509 22:10:22.563192 19342 layer_factory.hpp:74] Creating layer inception_5a/relu_5x5
I0509 22:10:22.563200 19342 net.cpp:76] Creating Layer inception_5a/relu_5x5
I0509 22:10:22.564801 19342 net.cpp:372] inception_5a/relu_5x5 <- inception_5a/5x5
I0509 22:10:22.564812 19342 net.cpp:323] inception_5a/relu_5x5 -> inception_5a/5x5 (in-place)
I0509 22:10:22.564821 19342 net.cpp:105] Setting up inception_5a/relu_5x5
I0509 22:10:22.564857 19342 net.cpp:112] Top shape: 32 128 7 7 (200704)
I0509 22:10:22.564862 19342 layer_factory.hpp:74] Creating layer inception_5a/pool
I0509 22:10:22.564875 19342 net.cpp:76] Creating Layer inception_5a/pool
I0509 22:10:22.564882 19342 net.cpp:372] inception_5a/pool <- pool4/3x3_s2_pool4/3x3_s2_0_split_3
I0509 22:10:22.564890 19342 net.cpp:334] inception_5a/pool -> inception_5a/pool
I0509 22:10:22.564899 19342 net.cpp:105] Setting up inception_5a/pool
I0509 22:10:22.564908 19342 net.cpp:112] Top shape: 32 832 7 7 (1304576)
I0509 22:10:22.564913 19342 layer_factory.hpp:74] Creating layer inception_5a/pool_proj
I0509 22:10:22.564926 19342 net.cpp:76] Creating Layer inception_5a/pool_proj
I0509 22:10:22.564932 19342 net.cpp:372] inception_5a/pool_proj <- inception_5a/pool
I0509 22:10:22.564944 19342 net.cpp:334] inception_5a/pool_proj -> inception_5a/pool_proj
I0509 22:10:22.564954 19342 net.cpp:105] Setting up inception_5a/pool_proj
I0509 22:10:22.565865 19342 net.cpp:112] Top shape: 32 128 7 7 (200704)
I0509 22:10:22.565879 19342 layer_factory.hpp:74] Creating layer inception_5a/relu_pool_proj
I0509 22:10:22.565887 19342 net.cpp:76] Creating Layer inception_5a/relu_pool_proj
I0509 22:10:22.565893 19342 net.cpp:372] inception_5a/relu_pool_proj <- inception_5a/pool_proj
I0509 22:10:22.565903 19342 net.cpp:323] inception_5a/relu_pool_proj -> inception_5a/pool_proj (in-place)
I0509 22:10:22.565912 19342 net.cpp:105] Setting up inception_5a/relu_pool_proj
I0509 22:10:22.565917 19342 net.cpp:112] Top shape: 32 128 7 7 (200704)
I0509 22:10:22.565923 19342 layer_factory.hpp:74] Creating layer inception_5a/output
I0509 22:10:22.565932 19342 net.cpp:76] Creating Layer inception_5a/output
I0509 22:10:22.565937 19342 net.cpp:372] inception_5a/output <- inception_5a/1x1
I0509 22:10:22.565943 19342 net.cpp:372] inception_5a/output <- inception_5a/3x3
I0509 22:10:22.565949 19342 net.cpp:372] inception_5a/output <- inception_5a/5x5
I0509 22:10:22.565955 19342 net.cpp:372] inception_5a/output <- inception_5a/pool_proj
I0509 22:10:22.565963 19342 net.cpp:334] inception_5a/output -> inception_5a/output
I0509 22:10:22.565970 19342 net.cpp:105] Setting up inception_5a/output
I0509 22:10:22.565978 19342 net.cpp:112] Top shape: 32 832 7 7 (1304576)
I0509 22:10:22.565982 19342 layer_factory.hpp:74] Creating layer inception_5a/output_inception_5a/output_0_split
I0509 22:10:22.565994 19342 net.cpp:76] Creating Layer inception_5a/output_inception_5a/output_0_split
I0509 22:10:22.565999 19342 net.cpp:372] inception_5a/output_inception_5a/output_0_split <- inception_5a/output
I0509 22:10:22.566009 19342 net.cpp:334] inception_5a/output_inception_5a/output_0_split -> inception_5a/output_inception_5a/output_0_split_0
I0509 22:10:22.566018 19342 net.cpp:334] inception_5a/output_inception_5a/output_0_split -> inception_5a/output_inception_5a/output_0_split_1
I0509 22:10:22.566028 19342 net.cpp:334] inception_5a/output_inception_5a/output_0_split -> inception_5a/output_inception_5a/output_0_split_2
I0509 22:10:22.566037 19342 net.cpp:334] inception_5a/output_inception_5a/output_0_split -> inception_5a/output_inception_5a/output_0_split_3
I0509 22:10:22.566045 19342 net.cpp:105] Setting up inception_5a/output_inception_5a/output_0_split
I0509 22:10:22.566052 19342 net.cpp:112] Top shape: 32 832 7 7 (1304576)
I0509 22:10:22.566057 19342 net.cpp:112] Top shape: 32 832 7 7 (1304576)
I0509 22:10:22.566062 19342 net.cpp:112] Top shape: 32 832 7 7 (1304576)
I0509 22:10:22.566067 19342 net.cpp:112] Top shape: 32 832 7 7 (1304576)
I0509 22:10:22.566592 19342 layer_factory.hpp:74] Creating layer inception_5b/1x1
I0509 22:10:22.566614 19342 net.cpp:76] Creating Layer inception_5b/1x1
I0509 22:10:22.566622 19342 net.cpp:372] inception_5b/1x1 <- inception_5a/output_inception_5a/output_0_split_0
I0509 22:10:22.566633 19342 net.cpp:334] inception_5b/1x1 -> inception_5b/1x1
I0509 22:10:22.566643 19342 net.cpp:105] Setting up inception_5b/1x1
I0509 22:10:22.569366 19342 net.cpp:112] Top shape: 32 384 7 7 (602112)
I0509 22:10:22.569391 19342 layer_factory.hpp:74] Creating layer inception_5b/relu_1x1
I0509 22:10:22.569425 19342 net.cpp:76] Creating Layer inception_5b/relu_1x1
I0509 22:10:22.569432 19342 net.cpp:372] inception_5b/relu_1x1 <- inception_5b/1x1
I0509 22:10:22.569440 19342 net.cpp:323] inception_5b/relu_1x1 -> inception_5b/1x1 (in-place)
I0509 22:10:22.569449 19342 net.cpp:105] Setting up inception_5b/relu_1x1
I0509 22:10:22.569455 19342 net.cpp:112] Top shape: 32 384 7 7 (602112)
I0509 22:10:22.569460 19342 layer_factory.hpp:74] Creating layer inception_5b/3x3_reduce
I0509 22:10:22.569473 19342 net.cpp:76] Creating Layer inception_5b/3x3_reduce
I0509 22:10:22.569479 19342 net.cpp:372] inception_5b/3x3_reduce <- inception_5a/output_inception_5a/output_0_split_1
I0509 22:10:22.569488 19342 net.cpp:334] inception_5b/3x3_reduce -> inception_5b/3x3_reduce
I0509 22:10:22.569497 19342 net.cpp:105] Setting up inception_5b/3x3_reduce
I0509 22:10:22.570915 19342 net.cpp:112] Top shape: 32 192 7 7 (301056)
I0509 22:10:22.570935 19342 layer_factory.hpp:74] Creating layer inception_5b/relu_3x3_reduce
I0509 22:10:22.570943 19342 net.cpp:76] Creating Layer inception_5b/relu_3x3_reduce
I0509 22:10:22.570950 19342 net.cpp:372] inception_5b/relu_3x3_reduce <- inception_5b/3x3_reduce
I0509 22:10:22.570966 19342 net.cpp:323] inception_5b/relu_3x3_reduce -> inception_5b/3x3_reduce (in-place)
I0509 22:10:22.570974 19342 net.cpp:105] Setting up inception_5b/relu_3x3_reduce
I0509 22:10:22.570981 19342 net.cpp:112] Top shape: 32 192 7 7 (301056)
I0509 22:10:22.570986 19342 layer_factory.hpp:74] Creating layer inception_5b/3x3
I0509 22:10:22.570994 19342 net.cpp:76] Creating Layer inception_5b/3x3
I0509 22:10:22.571001 19342 net.cpp:372] inception_5b/3x3 <- inception_5b/3x3_reduce
I0509 22:10:22.571010 19342 net.cpp:334] inception_5b/3x3 -> inception_5b/3x3
I0509 22:10:22.571039 19342 net.cpp:105] Setting up inception_5b/3x3
I0509 22:10:22.577044 19342 net.cpp:112] Top shape: 32 384 7 7 (602112)
I0509 22:10:22.577072 19342 layer_factory.hpp:74] Creating layer inception_5b/relu_3x3
I0509 22:10:22.577086 19342 net.cpp:76] Creating Layer inception_5b/relu_3x3
I0509 22:10:22.577095 19342 net.cpp:372] inception_5b/relu_3x3 <- inception_5b/3x3
I0509 22:10:22.577105 19342 net.cpp:323] inception_5b/relu_3x3 -> inception_5b/3x3 (in-place)
I0509 22:10:22.577116 19342 net.cpp:105] Setting up inception_5b/relu_3x3
I0509 22:10:22.577121 19342 net.cpp:112] Top shape: 32 384 7 7 (602112)
I0509 22:10:22.577126 19342 layer_factory.hpp:74] Creating layer inception_5b/5x5_reduce
I0509 22:10:22.577138 19342 net.cpp:76] Creating Layer inception_5b/5x5_reduce
I0509 22:10:22.577146 19342 net.cpp:372] inception_5b/5x5_reduce <- inception_5a/output_inception_5a/output_0_split_2
I0509 22:10:22.577155 19342 net.cpp:334] inception_5b/5x5_reduce -> inception_5b/5x5_reduce
I0509 22:10:22.577165 19342 net.cpp:105] Setting up inception_5b/5x5_reduce
I0509 22:10:22.577605 19342 net.cpp:112] Top shape: 32 48 7 7 (75264)
I0509 22:10:22.577622 19342 layer_factory.hpp:74] Creating layer inception_5b/relu_5x5_reduce
I0509 22:10:22.577631 19342 net.cpp:76] Creating Layer inception_5b/relu_5x5_reduce
I0509 22:10:22.577638 19342 net.cpp:372] inception_5b/relu_5x5_reduce <- inception_5b/5x5_reduce
I0509 22:10:22.577651 19342 net.cpp:323] inception_5b/relu_5x5_reduce -> inception_5b/5x5_reduce (in-place)
I0509 22:10:22.577664 19342 net.cpp:105] Setting up inception_5b/relu_5x5_reduce
I0509 22:10:22.577675 19342 net.cpp:112] Top shape: 32 48 7 7 (75264)
I0509 22:10:22.577685 19342 layer_factory.hpp:74] Creating layer inception_5b/5x5
I0509 22:10:22.577698 19342 net.cpp:76] Creating Layer inception_5b/5x5
I0509 22:10:22.577704 19342 net.cpp:372] inception_5b/5x5 <- inception_5b/5x5_reduce
I0509 22:10:22.577713 19342 net.cpp:334] inception_5b/5x5 -> inception_5b/5x5
I0509 22:10:22.577723 19342 net.cpp:105] Setting up inception_5b/5x5
I0509 22:10:22.579025 19342 net.cpp:112] Top shape: 32 128 7 7 (200704)
I0509 22:10:22.579041 19342 layer_factory.hpp:74] Creating layer inception_5b/relu_5x5
I0509 22:10:22.579048 19342 net.cpp:76] Creating Layer inception_5b/relu_5x5
I0509 22:10:22.579089 19342 net.cpp:372] inception_5b/relu_5x5 <- inception_5b/5x5
I0509 22:10:22.579097 19342 net.cpp:323] inception_5b/relu_5x5 -> inception_5b/5x5 (in-place)
I0509 22:10:22.579107 19342 net.cpp:105] Setting up inception_5b/relu_5x5
I0509 22:10:22.579112 19342 net.cpp:112] Top shape: 32 128 7 7 (200704)
I0509 22:10:22.579119 19342 layer_factory.hpp:74] Creating layer inception_5b/pool
I0509 22:10:22.579128 19342 net.cpp:76] Creating Layer inception_5b/pool
I0509 22:10:22.579134 19342 net.cpp:372] inception_5b/pool <- inception_5a/output_inception_5a/output_0_split_3
I0509 22:10:22.579143 19342 net.cpp:334] inception_5b/pool -> inception_5b/pool
I0509 22:10:22.579151 19342 net.cpp:105] Setting up inception_5b/pool
I0509 22:10:22.579159 19342 net.cpp:112] Top shape: 32 832 7 7 (1304576)
I0509 22:10:22.579164 19342 layer_factory.hpp:74] Creating layer inception_5b/pool_proj
I0509 22:10:22.579176 19342 net.cpp:76] Creating Layer inception_5b/pool_proj
I0509 22:10:22.579182 19342 net.cpp:372] inception_5b/pool_proj <- inception_5b/pool
I0509 22:10:22.579192 19342 net.cpp:334] inception_5b/pool_proj -> inception_5b/pool_proj
I0509 22:10:22.579201 19342 net.cpp:105] Setting up inception_5b/pool_proj
I0509 22:10:22.580122 19342 net.cpp:112] Top shape: 32 128 7 7 (200704)
I0509 22:10:22.580138 19342 layer_factory.hpp:74] Creating layer inception_5b/relu_pool_proj
I0509 22:10:22.580147 19342 net.cpp:76] Creating Layer inception_5b/relu_pool_proj
I0509 22:10:22.580152 19342 net.cpp:372] inception_5b/relu_pool_proj <- inception_5b/pool_proj
I0509 22:10:22.580163 19342 net.cpp:323] inception_5b/relu_pool_proj -> inception_5b/pool_proj (in-place)
I0509 22:10:22.580173 19342 net.cpp:105] Setting up inception_5b/relu_pool_proj
I0509 22:10:22.580178 19342 net.cpp:112] Top shape: 32 128 7 7 (200704)
I0509 22:10:22.580184 19342 layer_factory.hpp:74] Creating layer inception_5b/output
I0509 22:10:22.580193 19342 net.cpp:76] Creating Layer inception_5b/output
I0509 22:10:22.580199 19342 net.cpp:372] inception_5b/output <- inception_5b/1x1
I0509 22:10:22.580204 19342 net.cpp:372] inception_5b/output <- inception_5b/3x3
I0509 22:10:22.580211 19342 net.cpp:372] inception_5b/output <- inception_5b/5x5
I0509 22:10:22.580217 19342 net.cpp:372] inception_5b/output <- inception_5b/pool_proj
I0509 22:10:22.580226 19342 net.cpp:334] inception_5b/output -> inception_5b/output
I0509 22:10:22.580235 19342 net.cpp:105] Setting up inception_5b/output
I0509 22:10:22.580241 19342 net.cpp:112] Top shape: 32 1024 7 7 (1605632)
I0509 22:10:22.580247 19342 layer_factory.hpp:74] Creating layer pool5/7x7_s1
I0509 22:10:22.580255 19342 net.cpp:76] Creating Layer pool5/7x7_s1
I0509 22:10:22.580261 19342 net.cpp:372] pool5/7x7_s1 <- inception_5b/output
I0509 22:10:22.580281 19342 net.cpp:334] pool5/7x7_s1 -> pool5/7x7_s1
I0509 22:10:22.580291 19342 net.cpp:105] Setting up pool5/7x7_s1
I0509 22:10:22.580297 19342 net.cpp:112] Top shape: 32 1024 1 1 (32768)
I0509 22:10:22.580303 19342 layer_factory.hpp:74] Creating layer pool5/drop_7x7_s1
I0509 22:10:22.580312 19342 net.cpp:76] Creating Layer pool5/drop_7x7_s1
I0509 22:10:22.580318 19342 net.cpp:372] pool5/drop_7x7_s1 <- pool5/7x7_s1
I0509 22:10:22.580332 19342 net.cpp:323] pool5/drop_7x7_s1 -> pool5/7x7_s1 (in-place)
I0509 22:10:22.580340 19342 net.cpp:105] Setting up pool5/drop_7x7_s1
I0509 22:10:22.580348 19342 net.cpp:112] Top shape: 32 1024 1 1 (32768)
I0509 22:10:22.580353 19342 layer_factory.hpp:74] Creating layer loss3/classifier
I0509 22:10:22.580363 19342 net.cpp:76] Creating Layer loss3/classifier
I0509 22:10:22.580368 19342 net.cpp:372] loss3/classifier <- pool5/7x7_s1
I0509 22:10:22.580379 19342 net.cpp:334] loss3/classifier -> loss3/classifier
I0509 22:10:22.580387 19342 net.cpp:105] Setting up loss3/classifier
I0509 22:10:22.580422 19342 net.cpp:112] Top shape: 32 2 1 1 (64)
I0509 22:10:22.580433 19342 layer_factory.hpp:74] Creating layer loss3/loss3
I0509 22:10:22.580442 19342 net.cpp:76] Creating Layer loss3/loss3
I0509 22:10:22.580448 19342 net.cpp:372] loss3/loss3 <- loss3/classifier
I0509 22:10:22.580467 19342 net.cpp:372] loss3/loss3 <- label_data_1_split_2
I0509 22:10:22.580479 19342 net.cpp:334] loss3/loss3 -> loss3/loss3
I0509 22:10:22.580488 19342 net.cpp:105] Setting up loss3/loss3
I0509 22:10:22.580497 19342 layer_factory.hpp:74] Creating layer loss3/loss3
I0509 22:10:22.580510 19342 net.cpp:112] Top shape: 1 1 1 1 (1)
I0509 22:10:22.580517 19342 net.cpp:118]     with loss weight 1
I0509 22:10:22.580533 19342 net.cpp:163] loss3/loss3 needs backward computation.
I0509 22:10:22.580538 19342 net.cpp:163] loss3/classifier needs backward computation.
I0509 22:10:22.580544 19342 net.cpp:163] pool5/drop_7x7_s1 needs backward computation.
I0509 22:10:22.580549 19342 net.cpp:163] pool5/7x7_s1 needs backward computation.
…
I0509 22:10:22.590258 19342 solver.cpp:154] Creating test net (#0) specified by net file: ../../train_val.prototxt
I0509 22:10:22.590577 19342 net.cpp:253] The NetState phase (1) differed from the phase (0) specified by a rule in layer data
I0509 22:10:22.591966 19342 net.cpp:42] Initializing net from parameters: 
name: "GoogleNet"
state {
  phase: TEST
}
layer {
  name: "data"
  type: "Data"
  top: "data"
  top: "label"
  include {
    phase: TEST
  }
  transform_param {
    mirror: false
    crop_size: 224
    mean_value: 104
    mean_value: 117
    mean_value: 123
  }
  data_param {
    source: "val_lmdb"
    batch_size: 32
    backend: LMDB
  }
}
layer {
  name: "conv1/7x7_s2"
  type: "Convolution"
  bottom: "data"
  top: "conv1/7x7_s2"
  param {
    lr_mult: 1
    decay_mult: 1
  }
  param {
    lr_mult: 2
    decay_mult: 0
  }
  convolution_param {
    num_output: 64
    pad: 3
    kernel_size: 7
    stride: 2
    weight_filler {
      type: "xavier"
      std: 0.1
    }
    bias_filler {
      type: "constant"
      value: 0.2
    }
  }
}
layer {
  name: "conv1/relu_7x7"
  type: "ReLU"
  bottom: "conv1/7x7_s2"
  top: "conv1/7x7_s2"
}
layer {
  name: "pool1/3x3_s2"
  type: "Pooling"
  bottom: "conv1/7x7_s2"
  top: "pool1/3x3_s2"
  pooling_param {
    pool: MAX
    kernel_size: 3
    stride: 2
  }
}
layer {
  name: "pool1/norm1"
  type: "LRN"
  bottom: "pool1/3x3_s2"
  top: "pool1/norm1"
  lrn_param {
    local_size: 5
    alpha: 0.0001
    beta: 0.75
  }
}
layer {
  name: "conv2/3x3_reduce"
  type: "Convolution"
  bottom: "pool1/norm1"
  top: "conv2/3x3_reduce"
  param {
    lr_mult: 1
    decay_mult: 1
  }
  param {
    lr_mult: 2
    decay_mult: 0
  }
  convolution_param {
    num_output: 64
    kernel_size: 1
    weight_filler {
      type: "xavier"
      std: 0.1
    }
    bias_filler {
      type: "constant"
      value: 0.2
    }
  }
}
layer {
  name: "conv2/relu_3x3_reduce"
  type: "ReLU"
  bottom: "conv2/3x3_reduce"
  top: "conv2/3x3_reduce"
}
layer {
  name: "conv2/3x3"
  type: "Convolution"
  bottom: "conv2/3x3_reduce"
  top: "conv2/3x3"
  param {
    lr_mult: 1
    decay_mult: 1
  }
  param {
    lr_mult: 2
    decay_mult: 0
  }
  convolution_param {
    num_output: 192
    pad: 1
    kernel_size: 3
    weight_filler {
      type: "xavier"
      std: 0.03
    }
    bias_filler {
      type: "constant"
      value: 0.2
    }
  }
}
layer {
  name: "conv2/relu_3x3"
  type: "ReLU"
  bottom: "conv2/3x3"
  top: "conv2/3x3"
}
layer {
  name: "conv2/norm2"
  type: "LRN"
  bottom: "conv2/3x3"
  top: "conv2/norm2"
  lrn_param {
    local_size: 5
    alpha: 0.0001
    beta: 0.75
  }
}
layer {
  name: "pool2/3x3_s2"
  type: "Pooling"
  bottom: "conv2/norm2"
  top: "pool2/3x3_s2"
  pooling_param {
    pool: MAX
    kernel_size: 3
    stride: 2
  }
}
layer {
  name: "inception_3a/1x1"
  type: "Convolution"
  bottom: "pool2/3x3_s2"
  top: "inception_3a/1x1"
  param {
    lr_mult: 1
    decay_mult: 1
  }
  param {
    lr_mult: 2
    decay_mult: 0
  }
  convolution_param {
    num_output: 64
    kernel_size: 1
    weight_filler {
      type: "xavier"
      std: 0.03
    }
    bias_filler {
      type: "constant"
      value: 0.2
    }
  }
}
layer {
  name: "inception_3a/relu_1x1"
  type: "ReLU"
  bottom: "inception_3a/1x1"
  top: "inception_3a/1x1"
}
layer {
  name: "inception_3a/3x3_reduce"
  type: "Convolution"
  bottom: "pool2/3x3_s2"
  top: "inception_3a/3x3_reduce"
  param {
    lr_mult: 1
    decay_mult: 1
  }
  param {
    lr_mult: 2
    decay_mult: 0
  }
  convolution_param {
    num_output: 96
    kernel_size: 1
    weight_filler {
      type: "xavier"
      std: 0.09
    }
    bias_filler {
      type: "constant"
      value: 0.2
    }
  }
}
layer {
  name: "inception_3a/relu_3x3_reduce"
  type: "ReLU"
  bottom: "inception_3a/3x3_reduce"
  top: "inception_3a/3x3_reduce"
}
layer {
  name: "inception_3a/3x3"
  type: "Convolution"
  bottom: "inception_3a/3x3_reduce"
  top: "inception_3a/3x3"
  param {
    lr_mult: 1
    decay_mult: 1
  }
  param {
    lr_mult: 2
    decay_mult: 0
  }
  convolution_param {
    num_output: 128
    pad: 1
    kernel_size: 3
    weight_filler {
      type: "xavier"
      std: 0.03
    }
    bias_filler {
      type: "constant"
      value: 0.2
    }
  }
}
layer {
  name: "inception_3a/relu_3x3"
  type: "ReLU"
  bottom: "inception_3a/3x3"
  top: "inception_3a/3x3"
}
layer {
  name: "inception_3a/5x5_reduce"
  type: "Convolution"
  bottom: "pool2/3x3_s2"
  top: "inception_3a/5x5_reduce"
  param {
    lr_mult: 1
    decay_mult: 1
  }
  param {
    lr_mult: 2
    decay_mult: 0
  }
  convolution_param {
    num_output: 16
    kernel_size: 1
    weight_filler {
      type: "xavier"
      std: 0.2
    }
    bias_filler {
      type: "constant"
      value: 0.2
    }
  }
}
layer {
  name: "inception_3a/relu_5x5_reduce"
  type: "ReLU"
  bottom: "inception_3a/5x5_reduce"
  top: "inception_3a/5x5_reduce"
}
layer {
  name: "inception_3a/5x5"
  type: "Convolution"
  bottom: "inception_3a/5x5_reduce"
  top: "inception_3a/5x5"
  param {
    lr_mult: 1
    decay_mult: 1
  }
  param {
    lr_mult: 2
    decay_mult: 0
  }
  convolution_param {
    num_output: 32
    pad: 2
    kernel_size: 5
    weight_filler {
      type: "xavier"
      std: 0.03
    }
    bias_filler {
      type: "constant"
      value: 0.2
    }
  }
}
layer {
  name: "inception_3a/relu_5x5"
  type: "ReLU"
  bottom: "inception_3a/5x5"
  top: "inception_3a/5x5"
}
layer {
  name: "inception_3a/pool"
  type: "Pooling"
  bottom: "pool2/3x3_s2"
  top: "inception_3a/pool"
  pooling_param {
    pool: MAX
    kernel_size: 3
    stride: 1
    pad: 1
  }
}
layer {
  name: "inception_3a/pool_proj"
  type: "Convolution"
  bottom: "inception_3a/pool"
  top: "inception_3a/pool_proj"
  param {
    lr_mult: 1
    decay_mult: 1
  }
  param {
    lr_mult: 2
    decay_mult: 0
  }
  convolution_param {
    num_output: 32
    kernel_size: 1
    weight_filler {
      type: "xavier"
      std: 0.1
    }
    bias_filler {
      type: "constant"
      value: 0.2
    }
  }
}
layer {
  name: "inception_3a/relu_pool_proj"
  type: "ReLU"
  bottom: "inception_3a/pool_proj"
  top: "inception_3a/pool_proj"
}
layer {
  name: "inception_3a/output"
  type: "Concat"
  bottom: "inception_3a/1x1"
  bottom: "inception_3a/3x3"
  bottom: "inception_3a/5x5"
  bottom: "inception_3a/pool_proj"
  top: "inception_3a/output"
}
layer {
  name: "inception_3b/1x1"
  type: "Convolution"
  bottom: "inception_3a/output"
  top: "inception_3b/1x1"
  param {
    lr_mult: 1
    decay_mult: 1
  }
  param {
    lr_mult: 2
    decay_mult: 0
  }
  convolution_param {
    num_output: 128
    kernel_size: 1
    weight_filler {
      type: "xavier"
      std: 0.03
    }
    bias_filler {
      type: "constant"
      value: 0.2
    }
  }
}
layer {
  name: "inception_3b/relu_1x1"
  type: "ReLU"
  bottom: "inception_3b/1x1"
  top: "inception_3b/1x1"
}
layer {
  name: "inception_3b/3x3_reduce"
  type: "Convolution"
  bottom: "inception_3a/output"
  top: "inception_3b/3x3_reduce"
  param {
    lr_mult: 1
    decay_mult: 1
  }
  param {
    lr_mult: 2
    decay_mult: 0
  }
  convolution_param {
    num_output: 128
    kernel_size: 1
    weight_filler {
      type: "xavier"
      std: 0.09
    }
    bias_filler {
      type: "constant"
      value: 0.2
    }
  }
}
layer {
  name: "inception_3b/relu_3x3_reduce"
  type: "ReLU"
  bottom: "inception_3b/3x3_reduce"
  top: "inception_3b/3x3_reduce"
}
layer {
  name: "inception_3b/3x3"
  type: "Convolution"
  bottom: "inception_3b/3x3_reduce"
  top: "inception_3b/3x3"
  param {
    lr_mult: 1
    decay_mult: 1
  }
  param {
    lr_mult: 2
    decay_mult: 0
  }
  convolution_param {
    num_output: 192
    pad: 1
    kernel_size: 3
    weight_filler {
      type: "xavier"
      std: 0.03
    }
    bias_filler {
      type: "constant"
      value: 0.2
    }
  }
}
layer {
  name: "inception_3b/relu_3x3"
  type: "ReLU"
  bottom: "inception_3b/3x3"
  top: "inception_3b/3x3"
}
layer {
  name: "inception_3b/5x5_reduce"
  type: "Convolution"
  bottom: "inception_3a/output"
  top: "inception_3b/5x5_reduce"
  param {
    lr_mult: 1
    decay_mult: 1
  }
  param {
    lr_mult: 2
    decay_mult: 0
  }
  convolution_param {
    num_output: 32
    kernel_size: 1
    weight_filler {
      type: "xavier"
      std: 0.2
    }
    bias_filler {
      type: "constant"
      value: 0.2
    }
  }
}
layer {
  name: "inception_3b/relu_5x5_reduce"
  type: "ReLU"
  bottom: "inception_3b/5x5_reduce"
  top: "inception_3b/5x5_reduce"
}
layer {
  name: "inception_3b/5x5"
  type: "Convolution"
  bottom: "inception_3b/5x5_reduce"
  top: "inception_3b/5x5"
  param {
    lr_mult: 1
    decay_mult: 1
  }
  param {
    lr_mult: 2
    decay_mult: 0
  }
  convolution_param {
    num_output: 96
    pad: 2
    kernel_size: 5
    weight_filler {
      type: "xavier"
      std: 0.03
    }
    bias_filler {
      type: "constant"
      value: 0.2
    }
  }
}
layer {
  name: "inception_3b/relu_5x5"
  type: "ReLU"
  bottom: "inception_3b/5x5"
  top: "inception_3b/5x5"
}
layer {
  name: "inception_3b/pool"
  type: "Pooling"
  bottom: "inception_3a/output"
  top: "inception_3b/pool"
  pooling_param {
    pool: MAX
    kernel_size: 3
    stride: 1
    pad: 1
  }
}
layer {
  name: "inception_3b/pool_proj"
  type: "Convolution"
  bottom: "inception_3b/pool"
  top: "inception_3b/pool_proj"
  param {
    lr_mult: 1
    decay_mult: 1
  }
  param {
    lr_mult: 2
    decay_mult: 0
  }
  convolution_param {
    num_output: 64
    kernel_size: 1
    weight_filler {
      type: "xavier"
      std: 0.1
    }
    bias_filler {
      type: "constant"
      value: 0.2
    }
  }
}
layer {
  name: "inception_3b/relu_pool_proj"
  type: "ReLU"
  bottom: "inception_3b/pool_proj"
  top: "inception_3b/pool_proj"
}
layer {
  name: "inception_3b/output"
  type: "Concat"
  bottom: "inception_3b/1x1"
  bottom: "inception_3b/3x3"
  bottom: "inception_3b/5x5"
  bottom: "inception_3b/pool_proj"
  top: "inception_3b/output"
}
layer {
  name: "pool3/3x3_s2"
  type: "Pooling"
  bottom: "inception_3b/output"
  top: "pool3/3x3_s2"
  pooling_param {
    pool: MAX
    kernel_size: 3
    stride: 2
  }
}
layer {
  name: "inception_4a/1x1"
  type: "Convolution"
  bottom: "pool3/3x3_s2"
  top: "inception_4a/1x1"
  param {
    lr_mult: 1
    decay_mult: 1
  }
  param {
    lr_mult: 2
    decay_mult: 0
  }
  convolution_param {
    num_output: 192
    kernel_size: 1
    weight_filler {
      type: "xavier"
      std: 0.03
    }
    bias_filler {
      type: "constant"
      value: 0.2
    }
  }
}
layer {
  name: "inception_4a/relu_1x1"
  type: "ReLU"
  bottom: "inception_4a/1x1"
  top: "inception_4a/1x1"
}
layer {
  name: "inception_4a/3x3_reduce"
  type: "Convolution"
  bottom: "pool3/3x3_s2"
  top: "inception_4a/3x3_reduce"
  param {
    lr_mult: 1
    decay_mult: 1
  }
  param {
    lr_mult: 2
    decay_mult: 0
  }
  convolution_param {
    num_output: 96
    kernel_size: 1
    weight_filler {
      type: "xavier"
      std: 0.09
    }
    bias_filler {
      type: "constant"
      value: 0.2
    }
  }
}
layer {
  name: "inception_4a/relu_3x3_reduce"
  type: "ReLU"
  bottom: "inception_4a/3x3_reduce"
  top: "inception_4a/3x3_reduce"
}
layer {
  name: "inception_4a/3x3"
  type: "Convolution"
  bottom: "inception_4a/3x3_reduce"
  top: "inception_4a/3x3"
  param {
    lr_mult: 1
    decay_mult: 1
  }
  param {
    lr_mult: 2
    decay_mult: 0
  }
  convolution_param {
    num_output: 208
    pad: 1
    kernel_size: 3
    weight_filler {
      type: "xavier"
      std: 0.03
    }
    bias_filler {
      type: "constant"
      value: 0.2
    }
  }
}
layer {
  name: "inception_4a/relu_3x3"
  type: "ReLU"
  bottom: "inception_4a/3x3"
  top: "inception_4a/3x3"
}
layer {
  name: "inception_4a/5x5_reduce"
  type: "Convolution"
  bottom: "pool3/3x3_s2"
  top: "inception_4a/5x5_reduce"
  param {
    lr_mult: 1
    decay_mult: 1
  }
  param {
    lr_mult: 2
    decay_mult: 0
  }
  convolution_param {
    num_output: 16
    kernel_size: 1
    weight_filler {
      type: "xavier"
      std: 0.2
    }
    bias_filler {
      type: "constant"
      value: 0.2
    }
  }
}
layer {
  name: "inception_4a/relu_5x5_reduce"
  type: "ReLU"
  bottom: "inception_4a/5x5_reduce"
  top: "inception_4a/5x5_reduce"
}
layer {
  name: "inception_4a/5x5"
  type: "Convolution"
  bottom: "inception_4a/5x5_reduce"
  top: "inception_4a/5x5"
  param {
    lr_mult: 1
    decay_mult: 1
  }
  param {
    lr_mult: 2
    decay_mult: 0
  }
  convolution_param {
    num_output: 48
    pad: 2
    kernel_size: 5
    weight_filler {
      type: "xavier"
      std: 0.03
    }
    bias_filler {
      type: "constant"
      value: 0.2
    }
  }
}
layer {
  name: "inception_4a/relu_5x5"
  type: "ReLU"
  bottom: "inception_4a/5x5"
  top: "inception_4a/5x5"
}
layer {
  name: "inception_4a/pool"
  type: "Pooling"
  bottom: "pool3/3x3_s2"
  top: "inception_4a/pool"
  pooling_param {
    pool: MAX
    kernel_size: 3
    stride: 1
    pad: 1
  }
}
layer {
  name: "inception_4a/pool_proj"
  type: "Convolution"
  bottom: "inception_4a/pool"
  top: "inception_4a/pool_proj"
  param {
    lr_mult: 1
    decay_mult: 1
  }
  param {
    lr_mult: 2
    decay_mult: 0
  }
  convolution_param {
    num_output: 64
    kernel_size: 1
    weight_filler {
      type: "xavier"
      std: 0.1
    }
    bias_filler {
      type: "constant"
      value: 0.2
    }
  }
}
layer {
  name: "inception_4a/relu_pool_proj"
  type: "ReLU"
  bottom: "inception_4a/pool_proj"
  top: "inception_4a/pool_proj"
}
layer {
  name: "inception_4a/output"
  type: "Concat"
  bottom: "inception_4a/1x1"
  bottom: "inception_4a/3x3"
  bottom: "inception_4a/5x5"
  bottom: "inception_4a/pool_proj"
  top: "inception_4a/output"
}
layer {
  name: "loss1/ave_pool"
  type: "Pooling"
  bottom: "inception_4a/output"
  top: "loss1/ave_pool"
  pooling_param {
    pool: AVE
    kernel_size: 5
    stride: 3
  }
}
layer {
  name: "loss1/conv"
  type: "Convolution"
  bottom: "loss1/ave_pool"
  top: "loss1/conv"
  param {
    lr_mult: 1
    decay_mult: 1
  }
  param {
    lr_mult: 2
    decay_mult: 0
  }
  convolution_param {
    num_output: 128
    kernel_size: 1
    weight_filler {
      type: "xavier"
      std: 0.08
    }
    bias_filler {
      type: "constant"
      value: 0.2
    }
  }
}
layer {
  name: "loss1/relu_conv"
  type: "ReLU"
  bottom: "loss1/conv"
  top: "loss1/conv"
}
layer {
  name: "loss1/fc"
  type: "InnerProduct"
  bottom: "loss1/conv"
  top: "loss1/fc"
  param {
    lr_mult: 1
    decay_mult: 1
  }
  param {
    lr_mult: 2
    decay_mult: 0
  }
  inner_product_param {
    num_output: 1024
    weight_filler {
      type: "xavier"
      std: 0.02
    }
    bias_filler {
      type: "constant"
      value: 0.2
    }
  }
}
layer {
  name: "loss1/relu_fc"
  type: "ReLU"
  bottom: "loss1/fc"
  top: "loss1/fc"
}
layer {
  name: "loss1/drop_fc"
  type: "Dropout"
  bottom: "loss1/fc"
  top: "loss1/fc"
  dropout_param {
    dropout_ratio: 0.7
  }
}
layer {
  name: "loss1/classifier"
  type: "InnerProduct"
  bottom: "loss1/fc"
  top: "loss1/classifier"
  param {
    lr_mult: 1
    decay_mult: 1
  }
  param {
    lr_mult: 2
    decay_mult: 0
  }
  inner_product_param {
    num_output: 2
    weight_filler {
      type: "xavier"
      std: 0.0009765625
    }
    bias_filler {
      type: "constant"
      value: 0
    }
  }
}
layer {
  name: "loss1/loss"
  type: "SoftmaxWithLoss"
  bottom: "loss1/classifier"
  bottom: "label"
  top: "loss1/loss1"
  loss_weight: 0.3
}
layer {
  name: "loss1/top-1"
  type: "Accuracy"
  bottom: "loss1/classifier"
  bottom: "label"
  top: "loss1/top-1"
  include {
    phase: TEST
  }
}
layer {
  name: "inception_4b/1x1"
  type: "Convolution"
  bottom: "inception_4a/output"
  top: "inception_4b/1x1"
  param {
    lr_mult: 1
    decay_mult: 1
  }
  param {
    lr_mult: 2
    decay_mult: 0
  }
  convolution_param {
    num_output: 160
    kernel_size: 1
    weight_filler {
      type: "xavier"
      std: 0.03
    }
    bias_filler {
      type: "constant"
      value: 0.2
    }
  }
}
layer {
  name: "inception_4b/relu_1x1"
  type: "ReLU"
  bottom: "inception_4b/1x1"
  top: "inception_4b/1x1"
}
layer {
  name: "inception_4b/3x3_reduce"
  type: "Convolution"
  bottom: "inception_4a/output"
  top: "inception_4b/3x3_reduce"
  param {
    lr_mult: 1
    decay_mult: 1
  }
  param {
    lr_mult: 2
    decay_mult: 0
  }
  convolution_param {
    num_output: 112
    kernel_size: 1
    weight_filler {
      type: "xavier"
      std: 0.09
    }
    bias_filler {
      type: "constant"
      value: 0.2
    }
  }
}
layer {
  name: "inception_4b/relu_3x3_reduce"
  type: "ReLU"
  bottom: "inception_4b/3x3_reduce"
  top: "inception_4b/3x3_reduce"
}
layer {
  name: "inception_4b/3x3"
  type: "Convolution"
  bottom: "inception_4b/3x3_reduce"
  top: "inception_4b/3x3"
  param {
    lr_mult: 1
    decay_mult: 1
  }
  param {
    lr_mult: 2
    decay_mult: 0
  }
  convolution_param {
    num_output: 224
    pad: 1
    kernel_size: 3
    weight_filler {
      type: "xavier"
      std: 0.03
    }
    bias_filler {
      type: "constant"
      value: 0.2
    }
  }
}
layer {
  name: "inception_4b/relu_3x3"
  type: "ReLU"
  bottom: "inception_4b/3x3"
  top: "inception_4b/3x3"
}
layer {
  name: "inception_4b/5x5_reduce"
  type: "Convolution"
  bottom: "inception_4a/output"
  top: "inception_4b/5x5_reduce"
  param {
    lr_mult: 1
    decay_mult: 1
  }
  param {
    lr_mult: 2
    decay_mult: 0
  }
  convolution_param {
    num_output: 24
    kernel_size: 1
    weight_filler {
      type: "xavier"
      std: 0.2
    }
    bias_filler {
      type: "constant"
      value: 0.2
    }
  }
}
layer {
  name: "inception_4b/relu_5x5_reduce"
  type: "ReLU"
  bottom: "inception_4b/5x5_reduce"
  top: "inception_4b/5x5_reduce"
}
layer {
  name: "inception_4b/5x5"
  type: "Convolution"
  bottom: "inception_4b/5x5_reduce"
  top: "inception_4b/5x5"
  param {
    lr_mult: 1
    decay_mult: 1
  }
  param {
    lr_mult: 2
    decay_mult: 0
  }
  convolution_param {
    num_output: 64
    pad: 2
    kernel_size: 5
    weight_filler {
      type: "xavier"
      std: 0.03
    }
    bias_filler {
      type: "constant"
      value: 0.2
    }
  }
}
layer {
  name: "inception_4b/relu_5x5"
  type: "ReLU"
  bottom: "inception_4b/5x5"
  top: "inception_4b/5x5"
}
layer {
  name: "inception_4b/pool"
  type: "Pooling"
  bottom: "inception_4a/output"
  top: "inception_4b/pool"
  pooling_param {
    pool: MAX
    kernel_size: 3
    stride: 1
    pad: 1
  }
}
layer {
  name: "inception_4b/pool_proj"
  type: "Convolution"
  bottom: "inception_4b/pool"
  top: "inception_4b/pool_proj"
  param {
    lr_mult: 1
    decay_mult: 1
  }
  param {
    lr_mult: 2
    decay_mult: 0
  }
  convolution_param {
    num_output: 64
    kernel_size: 1
    weight_filler {
      type: "xavier"
      std: 0.1
    }
    bias_filler {
      type: "constant"
      value: 0.2
    }
  }
}
layer {
  name: "inception_4b/relu_pool_proj"
  type: "ReLU"
  bottom: "inception_4b/pool_proj"
  top: "inception_4b/pool_proj"
}
layer {
  name: "inception_4b/output"
  type: "Concat"
  bottom: "inception_4b/1x1"
  bottom: "inception_4b/3x3"
  bottom: "inception_4b/5x5"
  bottom: "inception_4b/pool_proj"
  top: "inception_4b/output"
}
layer {
  name: "inception_4c/1x1"
  type: "Convolution"
  bottom: "inception_4b/output"
  top: "inception_4c/1x1"
  param {
    lr_mult: 1
    decay_mult: 1
  }
  param {
    lr_mult: 2
    decay_mult: 0
  }
  convolution_param {
    num_output: 128
    kernel_size: 1
    weight_filler {
      type: "xavier"
      std: 0.03
    }
    bias_filler {
      type: "constant"
      value: 0.2
    }
  }
}
layer {
  name: "inception_4c/relu_1x1"
  type: "ReLU"
  bottom: "inception_4c/1x1"
  top: "inception_4c/1x1"
}
layer {
  name: "inception_4c/3x3_reduce"
  type: "Convolution"
  bottom: "inception_4b/output"
  top: "inception_4c/3x3_reduce"
  param {
    lr_mult: 1
    decay_mult: 1
  }
  param {
    lr_mult: 2
    decay_mult: 0
  }
  convolution_param {
    num_output: 128
    kernel_size: 1
    weight_filler {
      type: "xavier"
      std: 0.09
    }
    bias_filler {
      type: "constant"
      value: 0.2
    }
  }
}
layer {
  name: "inception_4c/relu_3x3_reduce"
  type: "ReLU"
  bottom: "inception_4c/3x3_reduce"
  top: "inception_4c/3x3_reduce"
}
layer {
  name: "inception_4c/3x3"
  type: "Convolution"
  bottom: "inception_4c/3x3_reduce"
  top: "inception_4c/3x3"
  param {
    lr_mult: 1
    decay_mult: 1
  }
  param {
    lr_mult: 2
    decay_mult: 0
  }
  convolution_param {
    num_output: 256
    pad: 1
    kernel_size: 3
    weight_filler {
      type: "xavier"
      std: 0.03
    }
    bias_filler {
      type: "constant"
      value: 0.2
    }
  }
}
layer {
  name: "inception_4c/relu_3x3"
  type: "ReLU"
  bottom: "inception_4c/3x3"
  top: "inception_4c/3x3"
}
layer {
  name: "inception_4c/5x5_reduce"
  type: "Convolution"
  bottom: "inception_4b/output"
  top: "inception_4c/5x5_reduce"
  param {
    lr_mult: 1
    decay_mult: 1
  }
  param {
    lr_mult: 2
    decay_mult: 0
  }
  convolution_param {
    num_output: 24
    kernel_size: 1
    weight_filler {
      type: "xavier"
      std: 0.2
    }
    bias_filler {
      type: "constant"
      value: 0.2
    }
  }
}
layer {
  name: "inception_4c/relu_5x5_reduce"
  type: "ReLU"
  bottom: "inception_4c/5x5_reduce"
  top: "inception_4c/5x5_reduce"
}
layer {
  name: "inception_4c/5x5"
  type: "Convolution"
  bottom: "inception_4c/5x5_reduce"
  top: "inception_4c/5x5"
  param {
    lr_mult: 1
    decay_mult: 1
  }
  param {
    lr_mult: 2
    decay_mult: 0
  }
  convolution_param {
    num_output: 64
    pad: 2
    kernel_size: 5
    weight_filler {
      type: "xavier"
      std: 0.03
    }
    bias_filler {
      type: "constant"
      value: 0.2
    }
  }
}
layer {
  name: "inception_4c/relu_5x5"
  type: "ReLU"
  bottom: "inception_4c/5x5"
  top: "inception_4c/5x5"
}
layer {
  name: "inception_4c/pool"
  type: "Pooling"
  bottom: "inception_4b/output"
  top: "inception_4c/pool"
  pooling_param {
    pool: MAX
    kernel_size: 3
    stride: 1
    pad: 1
  }
}
layer {
  name: "inception_4c/pool_proj"
  type: "Convolution"
  bottom: "inception_4c/pool"
  top: "inception_4c/pool_proj"
  param {
    lr_mult: 1
    decay_mult: 1
  }
  param {
    lr_mult: 2
    decay_mult: 0
  }
  convolution_param {
    num_output: 64
    kernel_size: 1
    weight_filler {
      type: "xavier"
      std: 0.1
    }
    bias_filler {
      type: "constant"
      value: 0.2
    }
  }
}
layer {
  name: "inception_4c/relu_pool_proj"
  type: "ReLU"
  bottom: "inception_4c/pool_proj"
  top: "inception_4c/pool_proj"
}
layer {
  name: "inception_4c/output"
  type: "Concat"
  bottom: "inception_4c/1x1"
  bottom: "inception_4c/3x3"
  bottom: "inception_4c/5x5"
  bottom: "inception_4c/pool_proj"
  top: "inception_4c/output"
}
layer {
  name: "inception_4d/1x1"
  type: "Convolution"
  bottom: "inception_4c/output"
  top: "inception_4d/1x1"
  param {
    lr_mult: 1
    decay_mult: 1
  }
  param {
    lr_mult: 2
    decay_mult: 0
  }
  convolution_param {
    num_output: 112
    kernel_size: 1
    weight_filler {
      type: "xavier"
      std: 0.03
    }
    bias_filler {
      type: "constant"
      value: 0.2
    }
  }
}
layer {
  name: "inception_4d/relu_1x1"
  type: "ReLU"
  bottom: "inception_4d/1x1"
  top: "inception_4d/1x1"
}
layer {
  name: "inception_4d/3x3_reduce"
  type: "Convolution"
  bottom: "inception_4c/output"
  top: "inception_4d/3x3_reduce"
  param {
    lr_mult: 1
    decay_mult: 1
  }
  param {
    lr_mult: 2
    decay_mult: 0
  }
  convolution_param {
    num_output: 144
    kernel_size: 1
    weight_filler {
      type: "xavier"
      std: 0.09
    }
    bias_filler {
      type: "constant"
      value: 0.2
    }
  }
}
layer {
  name: "inception_4d/relu_3x3_reduce"
  type: "ReLU"
  bottom: "inception_4d/3x3_reduce"
  top: "inception_4d/3x3_reduce"
}
layer {
  name: "inception_4d/3x3"
  type: "Convolution"
  bottom: "inception_4d/3x3_reduce"
  top: "inception_4d/3x3"
  param {
    lr_mult: 1
    decay_mult: 1
  }
  param {
    lr_mult: 2
    decay_mult: 0
  }
  convolution_param {
    num_output: 288
    pad: 1
    kernel_size: 3
    weight_filler {
      type: "xavier"
      std: 0.03
    }
    bias_filler {
      type: "constant"
      value: 0.2
    }
  }
}
layer {
  name: "inception_4d/relu_3x3"
  type: "ReLU"
  bottom: "inception_4d/3x3"
  top: "inception_4d/3x3"
}
layer {
  name: "inception_4d/5x5_reduce"
  type: "Convolution"
  bottom: "inception_4c/output"
  top: "inception_4d/5x5_reduce"
  param {
    lr_mult: 1
    decay_mult: 1
  }
  param {
    lr_mult: 2
    decay_mult: 0
  }
  convolution_param {
    num_output: 32
    kernel_size: 1
    weight_filler {
      type: "xavier"
      std: 0.2
    }
    bias_filler {
      type: "constant"
      value: 0.2
    }
  }
}
layer {
  name: "inception_4d/relu_5x5_reduce"
  type: "ReLU"
  bottom: "inception_4d/5x5_reduce"
  top: "inception_4d/5x5_reduce"
}
layer {
  name: "inception_4d/5x5"
  type: "Convolution"
  bottom: "inception_4d/5x5_reduce"
  top: "inception_4d/5x5"
  param {
    lr_mult: 1
    decay_mult: 1
  }
  param {
    lr_mult: 2
    decay_mult: 0
  }
  convolution_param {
    num_output: 64
    pad: 2
    kernel_size: 5
    weight_filler {
      type: "xavier"
      std: 0.03
    }
    bias_filler {
      type: "constant"
      value: 0.2
    }
  }
}
layer {
  name: "inception_4d/relu_5x5"
  type: "ReLU"
  bottom: "inception_4d/5x5"
  top: "inception_4d/5x5"
}
layer {
  name: "inception_4d/pool"
  type: "Pooling"
  bottom: "inception_4c/output"
  top: "inception_4d/pool"
  pooling_param {
    pool: MAX
    kernel_size: 3
    stride: 1
    pad: 1
  }
}
layer {
  name: "inception_4d/pool_proj"
  type: "Convolution"
  bottom: "inception_4d/pool"
  top: "inception_4d/pool_proj"
  param {
    lr_mult: 1
    decay_mult: 1
  }
  param {
    lr_mult: 2
    decay_mult: 0
  }
  convolution_param {
    num_output: 64
    kernel_size: 1
    weight_filler {
      type: "xavier"
      std: 0.1
    }
    bias_filler {
      type: "constant"
      value: 0.2
    }
  }
}
layer {
  name: "inception_4d/relu_pool_proj"
  type: "ReLU"
  bottom: "inception_4d/pool_proj"
  top: "inception_4d/pool_proj"
}
layer {
  name: "inception_4d/output"
  type: "Concat"
  bottom: "inception_4d/1x1"
  bottom: "inception_4d/3x3"
  bottom: "inception_4d/5x5"
  bottom: "inception_4d/pool_proj"
  top: "inception_4d/output"
}
layer {
  name: "loss2/ave_pool"
  type: "Pooling"
  bottom: "inception_4d/output"
  top: "loss2/ave_pool"
  pooling_param {
    pool: AVE
    kernel_size: 5
    stride: 3
  }
}
layer {
  name: "loss2/conv"
  type: "Convolution"
  bottom: "loss2/ave_pool"
  top: "loss2/conv"
  param {
    lr_mult: 1
    decay_mult: 1
  }
  param {
    lr_mult: 2
    decay_mult: 0
  }
  convolution_param {
    num_output: 128
    kernel_size: 1
    weight_filler {
      type: "xavier"
      std: 0.08
    }
    bias_filler {
      type: "constant"
      value: 0.2
    }
  }
}
layer {
  name: "loss2/relu_conv"
  type: "ReLU"
  bottom: "loss2/conv"
  top: "loss2/conv"
}
layer {
  name: "loss2/fc"
  type: "InnerProduct"
…
I0509 22:10:22.648532 19342 net.cpp:112] Top shape: 32 128 14 14 (802816)
I0509 22:10:22.648548 19342 layer_factory.hpp:74] Creating layer inception_4c/relu_1x1
I0509 22:10:22.648557 19342 net.cpp:76] Creating Layer inception_4c/relu_1x1
I0509 22:10:22.648563 19342 net.cpp:372] inception_4c/relu_1x1 <- inception_4c/1x1
I0509 22:10:22.648573 19342 net.cpp:323] inception_4c/relu_1x1 -> inception_4c/1x1 (in-place)
I0509 22:10:22.648581 19342 net.cpp:105] Setting up inception_4c/relu_1x1
I0509 22:10:22.648587 19342 net.cpp:112] Top shape: 32 128 14 14 (802816)
I0509 22:10:22.648612 19342 layer_factory.hpp:74] Creating layer inception_4c/3x3_reduce
I0509 22:10:22.648622 19342 net.cpp:76] Creating Layer inception_4c/3x3_reduce
I0509 22:10:22.648628 19342 net.cpp:372] inception_4c/3x3_reduce <- inception_4b/output_inception_4b/output_0_split_1
I0509 22:10:22.648639 19342 net.cpp:334] inception_4c/3x3_reduce -> inception_4c/3x3_reduce
I0509 22:10:22.648649 19342 net.cpp:105] Setting up inception_4c/3x3_reduce
I0509 22:10:22.649207 19342 net.cpp:112] Top shape: 32 128 14 14 (802816)
I0509 22:10:22.649221 19342 layer_factory.hpp:74] Creating layer inception_4c/relu_3x3_reduce
I0509 22:10:22.649230 19342 net.cpp:76] Creating Layer inception_4c/relu_3x3_reduce
I0509 22:10:22.649235 19342 net.cpp:372] inception_4c/relu_3x3_reduce <- inception_4c/3x3_reduce
I0509 22:10:22.649242 19342 net.cpp:323] inception_4c/relu_3x3_reduce -> inception_4c/3x3_reduce (in-place)
I0509 22:10:22.649250 19342 net.cpp:105] Setting up inception_4c/relu_3x3_reduce
I0509 22:10:22.649255 19342 net.cpp:112] Top shape: 32 128 14 14 (802816)
I0509 22:10:22.649261 19342 layer_factory.hpp:74] Creating layer inception_4c/3x3
I0509 22:10:22.649286 19342 net.cpp:76] Creating Layer inception_4c/3x3
I0509 22:10:22.649293 19342 net.cpp:372] inception_4c/3x3 <- inception_4c/3x3_reduce
I0509 22:10:22.649302 19342 net.cpp:334] inception_4c/3x3 -> inception_4c/3x3
I0509 22:10:22.649312 19342 net.cpp:105] Setting up inception_4c/3x3
I0509 22:10:22.651778 19342 net.cpp:112] Top shape: 32 256 14 14 (1605632)
I0509 22:10:22.651816 19342 layer_factory.hpp:74] Creating layer inception_4c/relu_3x3
I0509 22:10:22.651826 19342 net.cpp:76] Creating Layer inception_4c/relu_3x3
I0509 22:10:22.651832 19342 net.cpp:372] inception_4c/relu_3x3 <- inception_4c/3x3
I0509 22:10:22.651840 19342 net.cpp:323] inception_4c/relu_3x3 -> inception_4c/3x3 (in-place)
I0509 22:10:22.651849 19342 net.cpp:105] Setting up inception_4c/relu_3x3
I0509 22:10:22.651854 19342 net.cpp:112] Top shape: 32 256 14 14 (1605632)
I0509 22:10:22.651860 19342 layer_factory.hpp:74] Creating layer inception_4c/5x5_reduce
I0509 22:10:22.651871 19342 net.cpp:76] Creating Layer inception_4c/5x5_reduce
I0509 22:10:22.651878 19342 net.cpp:372] inception_4c/5x5_reduce <- inception_4b/output_inception_4b/output_0_split_2
I0509 22:10:22.651886 19342 net.cpp:334] inception_4c/5x5_reduce -> inception_4c/5x5_reduce
I0509 22:10:22.651895 19342 net.cpp:105] Setting up inception_4c/5x5_reduce
I0509 22:10:22.652006 19342 net.cpp:112] Top shape: 32 24 14 14 (150528)
I0509 22:10:22.652016 19342 layer_factory.hpp:74] Creating layer inception_4c/relu_5x5_reduce
I0509 22:10:22.652024 19342 net.cpp:76] Creating Layer inception_4c/relu_5x5_reduce
I0509 22:10:22.652029 19342 net.cpp:372] inception_4c/relu_5x5_reduce <- inception_4c/5x5_reduce
I0509 22:10:22.652036 19342 net.cpp:323] inception_4c/relu_5x5_reduce -> inception_4c/5x5_reduce (in-place)
I0509 22:10:22.652043 19342 net.cpp:105] Setting up inception_4c/relu_5x5_reduce
I0509 22:10:22.652050 19342 net.cpp:112] Top shape: 32 24 14 14 (150528)
I0509 22:10:22.652055 19342 layer_factory.hpp:74] Creating layer inception_4c/5x5
I0509 22:10:22.652065 19342 net.cpp:76] Creating Layer inception_4c/5x5
I0509 22:10:22.652070 19342 net.cpp:372] inception_4c/5x5 <- inception_4c/5x5_reduce
I0509 22:10:22.652081 19342 net.cpp:334] inception_4c/5x5 -> inception_4c/5x5
I0509 22:10:22.652088 19342 net.cpp:105] Setting up inception_4c/5x5
I0509 22:10:22.652487 19342 net.cpp:112] Top shape: 32 64 14 14 (401408)
I0509 22:10:22.652505 19342 layer_factory.hpp:74] Creating layer inception_4c/relu_5x5
I0509 22:10:22.652514 19342 net.cpp:76] Creating Layer inception_4c/relu_5x5
I0509 22:10:22.652520 19342 net.cpp:372] inception_4c/relu_5x5 <- inception_4c/5x5
I0509 22:10:22.652528 19342 net.cpp:323] inception_4c/relu_5x5 -> inception_4c/5x5 (in-place)
I0509 22:10:22.652535 19342 net.cpp:105] Setting up inception_4c/relu_5x5
I0509 22:10:22.652541 19342 net.cpp:112] Top shape: 32 64 14 14 (401408)
I0509 22:10:22.652546 19342 layer_factory.hpp:74] Creating layer inception_4c/pool
I0509 22:10:22.652575 19342 net.cpp:76] Creating Layer inception_4c/pool
I0509 22:10:22.652581 19342 net.cpp:372] inception_4c/pool <- inception_4b/output_inception_4b/output_0_split_3
I0509 22:10:22.652593 19342 net.cpp:334] inception_4c/pool -> inception_4c/pool
I0509 22:10:22.652603 19342 net.cpp:105] Setting up inception_4c/pool
I0509 22:10:22.652611 19342 net.cpp:112] Top shape: 32 512 14 14 (3211264)
I0509 22:10:22.652617 19342 layer_factory.hpp:74] Creating layer inception_4c/pool_proj
I0509 22:10:22.652626 19342 net.cpp:76] Creating Layer inception_4c/pool_proj
I0509 22:10:22.652632 19342 net.cpp:372] inception_4c/pool_proj <- inception_4c/pool
I0509 22:10:22.652642 19342 net.cpp:334] inception_4c/pool_proj -> inception_4c/pool_proj
I0509 22:10:22.652652 19342 net.cpp:105] Setting up inception_4c/pool_proj
I0509 22:10:22.652937 19342 net.cpp:112] Top shape: 32 64 14 14 (401408)
I0509 22:10:22.652951 19342 layer_factory.hpp:74] Creating layer inception_4c/relu_pool_proj
I0509 22:10:22.652958 19342 net.cpp:76] Creating Layer inception_4c/relu_pool_proj
I0509 22:10:22.652964 19342 net.cpp:372] inception_4c/relu_pool_proj <- inception_4c/pool_proj
I0509 22:10:22.652972 19342 net.cpp:323] inception_4c/relu_pool_proj -> inception_4c/pool_proj (in-place)
I0509 22:10:22.652979 19342 net.cpp:105] Setting up inception_4c/relu_pool_proj
I0509 22:10:22.652984 19342 net.cpp:112] Top shape: 32 64 14 14 (401408)
I0509 22:10:22.652990 19342 layer_factory.hpp:74] Creating layer inception_4c/output
I0509 22:10:22.653000 19342 net.cpp:76] Creating Layer inception_4c/output
I0509 22:10:22.653007 19342 net.cpp:372] inception_4c/output <- inception_4c/1x1
I0509 22:10:22.653013 19342 net.cpp:372] inception_4c/output <- inception_4c/3x3
I0509 22:10:22.653019 19342 net.cpp:372] inception_4c/output <- inception_4c/5x5
I0509 22:10:22.653025 19342 net.cpp:372] inception_4c/output <- inception_4c/pool_proj
I0509 22:10:22.653033 19342 net.cpp:334] inception_4c/output -> inception_4c/output
I0509 22:10:22.653040 19342 net.cpp:105] Setting up inception_4c/output
I0509 22:10:22.653048 19342 net.cpp:112] Top shape: 32 512 14 14 (3211264)
I0509 22:10:22.653053 19342 layer_factory.hpp:74] Creating layer inception_4c/output_inception_4c/output_0_split
I0509 22:10:22.653060 19342 net.cpp:76] Creating Layer inception_4c/output_inception_4c/output_0_split
I0509 22:10:22.653066 19342 net.cpp:372] inception_4c/output_inception_4c/output_0_split <- inception_4c/output
I0509 22:10:22.653076 19342 net.cpp:334] inception_4c/output_inception_4c/output_0_split -> inception_4c/output_inception_4c/output_0_split_0
I0509 22:10:22.653086 19342 net.cpp:334] inception_4c/output_inception_4c/output_0_split -> inception_4c/output_inception_4c/output_0_split_1
I0509 22:10:22.653095 19342 net.cpp:334] inception_4c/output_inception_4c/output_0_split -> inception_4c/output_inception_4c/output_0_split_2
I0509 22:10:22.653105 19342 net.cpp:334] inception_4c/output_inception_4c/output_0_split -> inception_4c/output_inception_4c/output_0_split_3
I0509 22:10:22.653112 19342 net.cpp:105] Setting up inception_4c/output_inception_4c/output_0_split
I0509 22:10:22.653120 19342 net.cpp:112] Top shape: 32 512 14 14 (3211264)
I0509 22:10:22.653126 19342 net.cpp:112] Top shape: 32 512 14 14 (3211264)
I0509 22:10:22.653131 19342 net.cpp:112] Top shape: 32 512 14 14 (3211264)
I0509 22:10:22.653134 19342 net.cpp:112] Top shape: 32 512 14 14 (3211264)
I0509 22:10:22.653141 19342 layer_factory.hpp:74] Creating layer inception_4d/1x1
I0509 22:10:22.653151 19342 net.cpp:76] Creating Layer inception_4d/1x1
I0509 22:10:22.653161 19342 net.cpp:372] inception_4d/1x1 <- inception_4c/output_inception_4c/output_0_split_0
I0509 22:10:22.653169 19342 net.cpp:334] inception_4d/1x1 -> inception_4d/1x1
I0509 22:10:22.653178 19342 net.cpp:105] Setting up inception_4d/1x1
I0509 22:10:22.653679 19342 net.cpp:112] Top shape: 32 112 14 14 (702464)
I0509 22:10:22.653692 19342 layer_factory.hpp:74] Creating layer inception_4d/relu_1x1
I0509 22:10:22.653702 19342 net.cpp:76] Creating Layer inception_4d/relu_1x1
I0509 22:10:22.653740 19342 net.cpp:372] inception_4d/relu_1x1 <- inception_4d/1x1
I0509 22:10:22.653751 19342 net.cpp:323] inception_4d/relu_1x1 -> inception_4d/1x1 (in-place)
I0509 22:10:22.653761 19342 net.cpp:105] Setting up inception_4d/relu_1x1
I0509 22:10:22.653766 19342 net.cpp:112] Top shape: 32 112 14 14 (702464)
I0509 22:10:22.653772 19342 layer_factory.hpp:74] Creating layer inception_4d/3x3_reduce
I0509 22:10:22.653781 19342 net.cpp:76] Creating Layer inception_4d/3x3_reduce
I0509 22:10:22.653786 19342 net.cpp:372] inception_4d/3x3_reduce <- inception_4c/output_inception_4c/output_0_split_1
I0509 22:10:22.653797 19342 net.cpp:334] inception_4d/3x3_reduce -> inception_4d/3x3_reduce
I0509 22:10:22.653807 19342 net.cpp:105] Setting up inception_4d/3x3_reduce
I0509 22:10:22.654439 19342 net.cpp:112] Top shape: 32 144 14 14 (903168)
I0509 22:10:22.654453 19342 layer_factory.hpp:74] Creating layer inception_4d/relu_3x3_reduce
I0509 22:10:22.654460 19342 net.cpp:76] Creating Layer inception_4d/relu_3x3_reduce
I0509 22:10:22.654466 19342 net.cpp:372] inception_4d/relu_3x3_reduce <- inception_4d/3x3_reduce
I0509 22:10:22.654474 19342 net.cpp:323] inception_4d/relu_3x3_reduce -> inception_4d/3x3_reduce (in-place)
I0509 22:10:22.654481 19342 net.cpp:105] Setting up inception_4d/relu_3x3_reduce
I0509 22:10:22.654486 19342 net.cpp:112] Top shape: 32 144 14 14 (903168)
I0509 22:10:22.654491 19342 layer_factory.hpp:74] Creating layer inception_4d/3x3
I0509 22:10:22.654502 19342 net.cpp:76] Creating Layer inception_4d/3x3
I0509 22:10:22.654508 19342 net.cpp:372] inception_4d/3x3 <- inception_4d/3x3_reduce
I0509 22:10:22.654518 19342 net.cpp:334] inception_4d/3x3 -> inception_4d/3x3
I0509 22:10:22.654527 19342 net.cpp:105] Setting up inception_4d/3x3
I0509 22:10:22.657639 19342 net.cpp:112] Top shape: 32 288 14 14 (1806336)
I0509 22:10:22.657668 19342 layer_factory.hpp:74] Creating layer inception_4d/relu_3x3
I0509 22:10:22.657682 19342 net.cpp:76] Creating Layer inception_4d/relu_3x3
I0509 22:10:22.657692 19342 net.cpp:372] inception_4d/relu_3x3 <- inception_4d/3x3
I0509 22:10:22.657703 19342 net.cpp:323] inception_4d/relu_3x3 -> inception_4d/3x3 (in-place)
I0509 22:10:22.657716 19342 net.cpp:105] Setting up inception_4d/relu_3x3
I0509 22:10:22.657726 19342 net.cpp:112] Top shape: 32 288 14 14 (1806336)
I0509 22:10:22.657732 19342 layer_factory.hpp:74] Creating layer inception_4d/5x5_reduce
I0509 22:10:22.657743 19342 net.cpp:76] Creating Layer inception_4d/5x5_reduce
I0509 22:10:22.657750 19342 net.cpp:372] inception_4d/5x5_reduce <- inception_4c/output_inception_4c/output_0_split_2
I0509 22:10:22.657760 19342 net.cpp:334] inception_4d/5x5_reduce -> inception_4d/5x5_reduce
I0509 22:10:22.657770 19342 net.cpp:105] Setting up inception_4d/5x5_reduce
I0509 22:10:22.657918 19342 net.cpp:112] Top shape: 32 32 14 14 (200704)
I0509 22:10:22.657929 19342 layer_factory.hpp:74] Creating layer inception_4d/relu_5x5_reduce
I0509 22:10:22.657938 19342 net.cpp:76] Creating Layer inception_4d/relu_5x5_reduce
I0509 22:10:22.657943 19342 net.cpp:372] inception_4d/relu_5x5_reduce <- inception_4d/5x5_reduce
I0509 22:10:22.657951 19342 net.cpp:323] inception_4d/relu_5x5_reduce -> inception_4d/5x5_reduce (in-place)
I0509 22:10:22.657961 19342 net.cpp:105] Setting up inception_4d/relu_5x5_reduce
I0509 22:10:22.657968 19342 net.cpp:112] Top shape: 32 32 14 14 (200704)
I0509 22:10:22.657974 19342 layer_factory.hpp:74] Creating layer inception_4d/5x5
I0509 22:10:22.657981 19342 net.cpp:76] Creating Layer inception_4d/5x5
I0509 22:10:22.657987 19342 net.cpp:372] inception_4d/5x5 <- inception_4d/5x5_reduce
I0509 22:10:22.657996 19342 net.cpp:334] inception_4d/5x5 -> inception_4d/5x5
I0509 22:10:22.658005 19342 net.cpp:105] Setting up inception_4d/5x5
I0509 22:10:22.658459 19342 net.cpp:112] Top shape: 32 64 14 14 (401408)
I0509 22:10:22.658473 19342 layer_factory.hpp:74] Creating layer inception_4d/relu_5x5
I0509 22:10:22.658481 19342 net.cpp:76] Creating Layer inception_4d/relu_5x5
I0509 22:10:22.660135 19342 net.cpp:372] inception_4d/relu_5x5 <- inception_4d/5x5
I0509 22:10:22.660181 19342 net.cpp:323] inception_4d/relu_5x5 -> inception_4d/5x5 (in-place)
I0509 22:10:22.660193 19342 net.cpp:105] Setting up inception_4d/relu_5x5
I0509 22:10:22.660199 19342 net.cpp:112] Top shape: 32 64 14 14 (401408)
I0509 22:10:22.660205 19342 layer_factory.hpp:74] Creating layer inception_4d/pool
I0509 22:10:22.660218 19342 net.cpp:76] Creating Layer inception_4d/pool
I0509 22:10:22.660224 19342 net.cpp:372] inception_4d/pool <- inception_4c/output_inception_4c/output_0_split_3
I0509 22:10:22.660233 19342 net.cpp:334] inception_4d/pool -> inception_4d/pool
I0509 22:10:22.660243 19342 net.cpp:105] Setting up inception_4d/pool
I0509 22:10:22.660250 19342 net.cpp:112] Top shape: 32 512 14 14 (3211264)
I0509 22:10:22.660256 19342 layer_factory.hpp:74] Creating layer inception_4d/pool_proj
I0509 22:10:22.660265 19342 net.cpp:76] Creating Layer inception_4d/pool_proj
I0509 22:10:22.660285 19342 net.cpp:372] inception_4d/pool_proj <- inception_4d/pool
I0509 22:10:22.660298 19342 net.cpp:334] inception_4d/pool_proj -> inception_4d/pool_proj
I0509 22:10:22.660308 19342 net.cpp:105] Setting up inception_4d/pool_proj
I0509 22:10:22.660598 19342 net.cpp:112] Top shape: 32 64 14 14 (401408)
I0509 22:10:22.660614 19342 layer_factory.hpp:74] Creating layer inception_4d/relu_pool_proj
I0509 22:10:22.660621 19342 net.cpp:76] Creating Layer inception_4d/relu_pool_proj
I0509 22:10:22.660627 19342 net.cpp:372] inception_4d/relu_pool_proj <- inception_4d/pool_proj
I0509 22:10:22.660636 19342 net.cpp:323] inception_4d/relu_pool_proj -> inception_4d/pool_proj (in-place)
I0509 22:10:22.660645 19342 net.cpp:105] Setting up inception_4d/relu_pool_proj
I0509 22:10:22.660650 19342 net.cpp:112] Top shape: 32 64 14 14 (401408)
I0509 22:10:22.660656 19342 layer_factory.hpp:74] Creating layer inception_4d/output
I0509 22:10:22.660665 19342 net.cpp:76] Creating Layer inception_4d/output
I0509 22:10:22.660670 19342 net.cpp:372] inception_4d/output <- inception_4d/1x1
I0509 22:10:22.660677 19342 net.cpp:372] inception_4d/output <- inception_4d/3x3
I0509 22:10:22.660683 19342 net.cpp:372] inception_4d/output <- inception_4d/5x5
I0509 22:10:22.660689 19342 net.cpp:372] inception_4d/output <- inception_4d/pool_proj
I0509 22:10:22.660696 19342 net.cpp:334] inception_4d/output -> inception_4d/output
I0509 22:10:22.660706 19342 net.cpp:105] Setting up inception_4d/output
I0509 22:10:22.660712 19342 net.cpp:112] Top shape: 32 528 14 14 (3311616)
I0509 22:10:22.660717 19342 layer_factory.hpp:74] Creating layer inception_4d/output_inception_4d/output_0_split
I0509 22:10:22.660727 19342 net.cpp:76] Creating Layer inception_4d/output_inception_4d/output_0_split
I0509 22:10:22.660733 19342 net.cpp:372] inception_4d/output_inception_4d/output_0_split <- inception_4d/output
I0509 22:10:22.660740 19342 net.cpp:334] inception_4d/output_inception_4d/output_0_split -> inception_4d/output_inception_4d/output_0_split_0
I0509 22:10:22.660750 19342 net.cpp:334] inception_4d/output_inception_4d/output_0_split -> inception_4d/output_inception_4d/output_0_split_1
I0509 22:10:22.660759 19342 net.cpp:334] inception_4d/output_inception_4d/output_0_split -> inception_4d/output_inception_4d/output_0_split_2
I0509 22:10:22.660768 19342 net.cpp:334] inception_4d/output_inception_4d/output_0_split -> inception_4d/output_inception_4d/output_0_split_3
I0509 22:10:22.660776 19342 net.cpp:334] inception_4d/output_inception_4d/output_0_split -> inception_4d/output_inception_4d/output_0_split_4
I0509 22:10:22.660784 19342 net.cpp:105] Setting up inception_4d/output_inception_4d/output_0_split
I0509 22:10:22.660791 19342 net.cpp:112] Top shape: 32 528 14 14 (3311616)
I0509 22:10:22.660797 19342 net.cpp:112] Top shape: 32 528 14 14 (3311616)
I0509 22:10:22.660801 19342 net.cpp:112] Top shape: 32 528 14 14 (3311616)
I0509 22:10:22.660806 19342 net.cpp:112] Top shape: 32 528 14 14 (3311616)
I0509 22:10:22.661697 19342 net.cpp:112] Top shape: 32 528 14 14 (3311616)
I0509 22:10:22.661710 19342 layer_factory.hpp:74] Creating layer loss2/ave_pool
I0509 22:10:22.661742 19342 net.cpp:76] Creating Layer loss2/ave_pool
I0509 22:10:22.661751 19342 net.cpp:372] loss2/ave_pool <- inception_4d/output_inception_4d/output_0_split_0
I0509 22:10:22.661761 19342 net.cpp:334] loss2/ave_pool -> loss2/ave_pool
I0509 22:10:22.661772 19342 net.cpp:105] Setting up loss2/ave_pool
I0509 22:10:22.661778 19342 net.cpp:112] Top shape: 32 528 4 4 (270336)
I0509 22:10:22.661783 19342 layer_factory.hpp:74] Creating layer loss2/conv
I0509 22:10:22.661794 19342 net.cpp:76] Creating Layer loss2/conv
I0509 22:10:22.661800 19342 net.cpp:372] loss2/conv <- loss2/ave_pool
I0509 22:10:22.661810 19342 net.cpp:334] loss2/conv -> loss2/conv
I0509 22:10:22.661826 19342 net.cpp:105] Setting up loss2/conv
I0509 22:10:22.662616 19342 net.cpp:112] Top shape: 32 128 4 4 (65536)
I0509 22:10:22.662642 19342 layer_factory.hpp:74] Creating layer loss2/relu_conv
I0509 22:10:22.662659 19342 net.cpp:76] Creating Layer loss2/relu_conv
I0509 22:10:22.662672 19342 net.cpp:372] loss2/relu_conv <- loss2/conv
I0509 22:10:22.662690 19342 net.cpp:323] loss2/relu_conv -> loss2/conv (in-place)
I0509 22:10:22.662706 19342 net.cpp:105] Setting up loss2/relu_conv
I0509 22:10:22.662717 19342 net.cpp:112] Top shape: 32 128 4 4 (65536)
I0509 22:10:22.662731 19342 layer_factory.hpp:74] Creating layer loss2/fc
I0509 22:10:22.662750 19342 net.cpp:76] Creating Layer loss2/fc
I0509 22:10:22.662762 19342 net.cpp:372] loss2/fc <- loss2/conv
I0509 22:10:22.662783 19342 net.cpp:334] loss2/fc -> loss2/fc
I0509 22:10:22.662806 19342 net.cpp:105] Setting up loss2/fc
I0509 22:10:22.680629 19342 net.cpp:112] Top shape: 32 1024 1 1 (32768)
I0509 22:10:22.680675 19342 layer_factory.hpp:74] Creating layer loss2/relu_fc
I0509 22:10:22.680690 19342 net.cpp:76] Creating Layer loss2/relu_fc
I0509 22:10:22.680698 19342 net.cpp:372] loss2/relu_fc <- loss2/fc
I0509 22:10:22.680714 19342 net.cpp:323] loss2/relu_fc -> loss2/fc (in-place)
I0509 22:10:22.680726 19342 net.cpp:105] Setting up loss2/relu_fc
I0509 22:10:22.680732 19342 net.cpp:112] Top shape: 32 1024 1 1 (32768)
I0509 22:10:22.680737 19342 layer_factory.hpp:74] Creating layer loss2/drop_fc
I0509 22:10:22.680747 19342 net.cpp:76] Creating Layer loss2/drop_fc
I0509 22:10:22.680752 19342 net.cpp:372] loss2/drop_fc <- loss2/fc
I0509 22:10:22.680759 19342 net.cpp:323] loss2/drop_fc -> loss2/fc (in-place)
I0509 22:10:22.680768 19342 net.cpp:105] Setting up loss2/drop_fc
I0509 22:10:22.680774 19342 net.cpp:112] Top shape: 32 1024 1 1 (32768)
I0509 22:10:22.680779 19342 layer_factory.hpp:74] Creating layer loss2/classifier
I0509 22:10:22.680789 19342 net.cpp:76] Creating Layer loss2/classifier
I0509 22:10:22.680795 19342 net.cpp:372] loss2/classifier <- loss2/fc
I0509 22:10:22.680805 19342 net.cpp:334] loss2/classifier -> loss2/classifier
I0509 22:10:22.680816 19342 net.cpp:105] Setting up loss2/classifier
I0509 22:10:22.680850 19342 net.cpp:112] Top shape: 32 2 1 1 (64)
I0509 22:10:22.680861 19342 layer_factory.hpp:74] Creating layer loss2/classifier_loss2/classifier_0_split
I0509 22:10:22.680869 19342 net.cpp:76] Creating Layer loss2/classifier_loss2/classifier_0_split
I0509 22:10:22.680876 19342 net.cpp:372] loss2/classifier_loss2/classifier_0_split <- loss2/classifier
I0509 22:10:22.680882 19342 net.cpp:334] loss2/classifier_loss2/classifier_0_split -> loss2/classifier_loss2/classifier_0_split_0
I0509 22:10:22.680892 19342 net.cpp:334] loss2/classifier_loss2/classifier_0_split -> loss2/classifier_loss2/classifier_0_split_1
I0509 22:10:22.680901 19342 net.cpp:105] Setting up loss2/classifier_loss2/classifier_0_split
I0509 22:10:22.680907 19342 net.cpp:112] Top shape: 32 2 1 1 (64)
I0509 22:10:22.680912 19342 net.cpp:112] Top shape: 32 2 1 1 (64)
I0509 22:10:22.680917 19342 layer_factory.hpp:74] Creating layer loss2/loss
I0509 22:10:22.680928 19342 net.cpp:76] Creating Layer loss2/loss
I0509 22:10:22.680934 19342 net.cpp:372] loss2/loss <- loss2/classifier_loss2/classifier_0_split_0
I0509 22:10:22.680941 19342 net.cpp:372] loss2/loss <- label_data_1_split_2
I0509 22:10:22.680949 19342 net.cpp:334] loss2/loss -> loss2/loss1
I0509 22:10:22.680994 19342 net.cpp:105] Setting up loss2/loss
I0509 22:10:22.681004 19342 layer_factory.hpp:74] Creating layer loss2/loss
I0509 22:10:22.681020 19342 net.cpp:112] Top shape: 1 1 1 1 (1)
I0509 22:10:22.681025 19342 net.cpp:118]     with loss weight 0.3
I0509 22:10:22.681042 19342 layer_factory.hpp:74] Creating layer loss2/top-1
I0509 22:10:22.681051 19342 net.cpp:76] Creating Layer loss2/top-1
I0509 22:10:22.681057 19342 net.cpp:372] loss2/top-1 <- loss2/classifier_loss2/classifier_0_split_1
I0509 22:10:22.681064 19342 net.cpp:372] loss2/top-1 <- label_data_1_split_3
I0509 22:10:22.681074 19342 net.cpp:334] loss2/top-1 -> loss2/top-1
I0509 22:10:22.681083 19342 net.cpp:105] Setting up loss2/top-1
I0509 22:10:22.681089 19342 net.cpp:112] Top shape: 1 1 1 1 (1)
I0509 22:10:22.681095 19342 layer_factory.hpp:74] Creating layer inception_4e/1x1
I0509 22:10:22.681105 19342 net.cpp:76] Creating Layer inception_4e/1x1
I0509 22:10:22.681113 19342 net.cpp:372] inception_4e/1x1 <- inception_4d/output_inception_4d/output_0_split_1
I0509 22:10:22.681121 19342 net.cpp:334] inception_4e/1x1 -> inception_4e/1x1
I0509 22:10:22.681130 19342 net.cpp:105] Setting up inception_4e/1x1
I0509 22:10:22.682405 19342 net.cpp:112] Top shape: 32 256 14 14 (1605632)
I0509 22:10:22.682425 19342 layer_factory.hpp:74] Creating layer inception_4e/relu_1x1
I0509 22:10:22.682433 19342 net.cpp:76] Creating Layer inception_4e/relu_1x1
I0509 22:10:22.682440 19342 net.cpp:372] inception_4e/relu_1x1 <- inception_4e/1x1
I0509 22:10:22.682449 19342 net.cpp:323] inception_4e/relu_1x1 -> inception_4e/1x1 (in-place)
I0509 22:10:22.682457 19342 net.cpp:105] Setting up inception_4e/relu_1x1
I0509 22:10:22.682463 19342 net.cpp:112] Top shape: 32 256 14 14 (1605632)
I0509 22:10:22.682469 19342 layer_factory.hpp:74] Creating layer inception_4e/3x3_reduce
I0509 22:10:22.682477 19342 net.cpp:76] Creating Layer inception_4e/3x3_reduce
I0509 22:10:22.682483 19342 net.cpp:372] inception_4e/3x3_reduce <- inception_4d/output_inception_4d/output_0_split_2
I0509 22:10:22.682497 19342 net.cpp:334] inception_4e/3x3_reduce -> inception_4e/3x3_reduce
I0509 22:10:22.682507 19342 net.cpp:105] Setting up inception_4e/3x3_reduce
I0509 22:10:22.683321 19342 net.cpp:112] Top shape: 32 160 14 14 (1003520)
I0509 22:10:22.683337 19342 layer_factory.hpp:74] Creating layer inception_4e/relu_3x3_reduce
I0509 22:10:22.683348 19342 net.cpp:76] Creating Layer inception_4e/relu_3x3_reduce
I0509 22:10:22.683354 19342 net.cpp:372] inception_4e/relu_3x3_reduce <- inception_4e/3x3_reduce
I0509 22:10:22.683362 19342 net.cpp:323] inception_4e/relu_3x3_reduce -> inception_4e/3x3_reduce (in-place)
I0509 22:10:22.683372 19342 net.cpp:105] Setting up inception_4e/relu_3x3_reduce
I0509 22:10:22.683378 19342 net.cpp:112] Top shape: 32 160 14 14 (1003520)
I0509 22:10:22.683383 19342 layer_factory.hpp:74] Creating layer inception_4e/3x3
I0509 22:10:22.683413 19342 net.cpp:76] Creating Layer inception_4e/3x3
I0509 22:10:22.683420 19342 net.cpp:372] inception_4e/3x3 <- inception_4e/3x3_reduce
I0509 22:10:22.683429 19342 net.cpp:334] inception_4e/3x3 -> inception_4e/3x3
I0509 22:10:22.683439 19342 net.cpp:105] Setting up inception_4e/3x3
I0509 22:10:22.687463 19342 net.cpp:112] Top shape: 32 320 14 14 (2007040)
I0509 22:10:22.687494 19342 layer_factory.hpp:74] Creating layer inception_4e/relu_3x3
I0509 22:10:22.687505 19342 net.cpp:76] Creating Layer inception_4e/relu_3x3
I0509 22:10:22.687512 19342 net.cpp:372] inception_4e/relu_3x3 <- inception_4e/3x3
I0509 22:10:22.687525 19342 net.cpp:323] inception_4e/relu_3x3 -> inception_4e/3x3 (in-place)
I0509 22:10:22.687536 19342 net.cpp:105] Setting up inception_4e/relu_3x3
I0509 22:10:22.687541 19342 net.cpp:112] Top shape: 32 320 14 14 (2007040)
I0509 22:10:22.687547 19342 layer_factory.hpp:74] Creating layer inception_4e/5x5_reduce
I0509 22:10:22.687556 19342 net.cpp:76] Creating Layer inception_4e/5x5_reduce
I0509 22:10:22.687562 19342 net.cpp:372] inception_4e/5x5_reduce <- inception_4d/output_inception_4d/output_0_split_3
I0509 22:10:22.687608 19342 net.cpp:334] inception_4e/5x5_reduce -> inception_4e/5x5_reduce
I0509 22:10:22.687619 19342 net.cpp:105] Setting up inception_4e/5x5_reduce
I0509 22:10:22.687801 19342 net.cpp:112] Top shape: 32 32 14 14 (200704)
I0509 22:10:22.687821 19342 layer_factory.hpp:74] Creating layer inception_4e/relu_5x5_reduce
I0509 22:10:22.687841 19342 net.cpp:76] Creating Layer inception_4e/relu_5x5_reduce
I0509 22:10:22.687856 19342 net.cpp:372] inception_4e/relu_5x5_reduce <- inception_4e/5x5_reduce
I0509 22:10:22.687870 19342 net.cpp:323] inception_4e/relu_5x5_reduce -> inception_4e/5x5_reduce (in-place)
I0509 22:10:22.687883 19342 net.cpp:105] Setting up inception_4e/relu_5x5_reduce
I0509 22:10:22.687890 19342 net.cpp:112] Top shape: 32 32 14 14 (200704)
I0509 22:10:22.687896 19342 layer_factory.hpp:74] Creating layer inception_4e/5x5
I0509 22:10:22.687913 19342 net.cpp:76] Creating Layer inception_4e/5x5
I0509 22:10:22.687927 19342 net.cpp:372] inception_4e/5x5 <- inception_4e/5x5_reduce
I0509 22:10:22.687943 19342 net.cpp:334] inception_4e/5x5 -> inception_4e/5x5
I0509 22:10:22.687958 19342 net.cpp:105] Setting up inception_4e/5x5
I0509 22:10:22.688906 19342 net.cpp:112] Top shape: 32 128 14 14 (802816)
I0509 22:10:22.688923 19342 layer_factory.hpp:74] Creating layer inception_4e/relu_5x5
I0509 22:10:22.688931 19342 net.cpp:76] Creating Layer inception_4e/relu_5x5
I0509 22:10:22.688941 19342 net.cpp:372] inception_4e/relu_5x5 <- inception_4e/5x5
I0509 22:10:22.688947 19342 net.cpp:323] inception_4e/relu_5x5 -> inception_4e/5x5 (in-place)
I0509 22:10:22.688956 19342 net.cpp:105] Setting up inception_4e/relu_5x5
I0509 22:10:22.688961 19342 net.cpp:112] Top shape: 32 128 14 14 (802816)
I0509 22:10:22.688966 19342 layer_factory.hpp:74] Creating layer inception_4e/pool
I0509 22:10:22.688976 19342 net.cpp:76] Creating Layer inception_4e/pool
I0509 22:10:22.688982 19342 net.cpp:372] inception_4e/pool <- inception_4d/output_inception_4d/output_0_split_4
I0509 22:10:22.688989 19342 net.cpp:334] inception_4e/pool -> inception_4e/pool
I0509 22:10:22.688997 19342 net.cpp:105] Setting up inception_4e/pool
I0509 22:10:22.689005 19342 net.cpp:112] Top shape: 32 528 14 14 (3311616)
I0509 22:10:22.689012 19342 layer_factory.hpp:74] Creating layer inception_4e/pool_proj
I0509 22:10:22.689023 19342 net.cpp:76] Creating Layer inception_4e/pool_proj
I0509 22:10:22.689029 19342 net.cpp:372] inception_4e/pool_proj <- inception_4e/pool
I0509 22:10:22.689039 19342 net.cpp:334] inception_4e/pool_proj -> inception_4e/pool_proj
I0509 22:10:22.689049 19342 net.cpp:105] Setting up inception_4e/pool_proj
I0509 22:10:22.689651 19342 net.cpp:112] Top shape: 32 128 14 14 (802816)
I0509 22:10:22.689668 19342 layer_factory.hpp:74] Creating layer inception_4e/relu_pool_proj
I0509 22:10:22.689682 19342 net.cpp:76] Creating Layer inception_4e/relu_pool_proj
I0509 22:10:22.689688 19342 net.cpp:372] inception_4e/relu_pool_proj <- inception_4e/pool_proj
I0509 22:10:22.689697 19342 net.cpp:323] inception_4e/relu_pool_proj -> inception_4e/pool_proj (in-place)
I0509 22:10:22.689704 19342 net.cpp:105] Setting up inception_4e/relu_pool_proj
I0509 22:10:22.689712 19342 net.cpp:112] Top shape: 32 128 14 14 (802816)
I0509 22:10:22.689720 19342 layer_factory.hpp:74] Creating layer inception_4e/output
I0509 22:10:22.689738 19342 net.cpp:76] Creating Layer inception_4e/output
I0509 22:10:22.689751 19342 net.cpp:372] inception_4e/output <- inception_4e/1x1
I0509 22:10:22.689765 19342 net.cpp:372] inception_4e/output <- inception_4e/3x3
I0509 22:10:22.689774 19342 net.cpp:372] inception_4e/output <- inception_4e/5x5
I0509 22:10:22.689780 19342 net.cpp:372] inception_4e/output <- inception_4e/pool_proj
I0509 22:10:22.689788 19342 net.cpp:334] inception_4e/output -> inception_4e/output
I0509 22:10:22.689797 19342 net.cpp:105] Setting up inception_4e/output
I0509 22:10:22.689805 19342 net.cpp:112] Top shape: 32 832 14 14 (5218304)
I0509 22:10:22.689810 19342 layer_factory.hpp:74] Creating layer pool4/3x3_s2
I0509 22:10:22.689817 19342 net.cpp:76] Creating Layer pool4/3x3_s2
I0509 22:10:22.689872 19342 net.cpp:372] pool4/3x3_s2 <- inception_4e/output
I0509 22:10:22.689884 19342 net.cpp:334] pool4/3x3_s2 -> pool4/3x3_s2
I0509 22:10:22.689894 19342 net.cpp:105] Setting up pool4/3x3_s2
I0509 22:10:22.689905 19342 net.cpp:112] Top shape: 32 832 7 7 (1304576)
I0509 22:10:22.689918 19342 layer_factory.hpp:74] Creating layer pool4/3x3_s2_pool4/3x3_s2_0_split
I0509 22:10:22.689935 19342 net.cpp:76] Creating Layer pool4/3x3_s2_pool4/3x3_s2_0_split
I0509 22:10:22.689947 19342 net.cpp:372] pool4/3x3_s2_pool4/3x3_s2_0_split <- pool4/3x3_s2
I0509 22:10:22.689963 19342 net.cpp:334] pool4/3x3_s2_pool4/3x3_s2_0_split -> pool4/3x3_s2_pool4/3x3_s2_0_split_0
I0509 22:10:22.689976 19342 net.cpp:334] pool4/3x3_s2_pool4/3x3_s2_0_split -> pool4/3x3_s2_pool4/3x3_s2_0_split_1
I0509 22:10:22.689988 19342 net.cpp:334] pool4/3x3_s2_pool4/3x3_s2_0_split -> pool4/3x3_s2_pool4/3x3_s2_0_split_2
I0509 22:10:22.689997 19342 net.cpp:334] pool4/3x3_s2_pool4/3x3_s2_0_split -> pool4/3x3_s2_pool4/3x3_s2_0_split_3
I0509 22:10:22.690006 19342 net.cpp:105] Setting up pool4/3x3_s2_pool4/3x3_s2_0_split
I0509 22:10:22.690016 19342 net.cpp:112] Top shape: 32 832 7 7 (1304576)
I0509 22:10:22.690026 19342 net.cpp:112] Top shape: 32 832 7 7 (1304576)
I0509 22:10:22.690033 19342 net.cpp:112] Top shape: 32 832 7 7 (1304576)
I0509 22:10:22.690038 19342 net.cpp:112] Top shape: 32 832 7 7 (1304576)
I0509 22:10:22.690043 19342 layer_factory.hpp:74] Creating layer inception_5a/1x1
I0509 22:10:22.690053 19342 net.cpp:76] Creating Layer inception_5a/1x1
I0509 22:10:22.690060 19342 net.cpp:372] inception_5a/1x1 <- pool4/3x3_s2_pool4/3x3_s2_0_split_0
I0509 22:10:22.690079 19342 net.cpp:334] inception_5a/1x1 -> inception_5a/1x1
I0509 22:10:22.690093 19342 net.cpp:105] Setting up inception_5a/1x1
I0509 22:10:22.692108 19342 net.cpp:112] Top shape: 32 256 7 7 (401408)
I0509 22:10:22.692131 19342 layer_factory.hpp:74] Creating layer inception_5a/relu_1x1
I0509 22:10:22.692140 19342 net.cpp:76] Creating Layer inception_5a/relu_1x1
I0509 22:10:22.692147 19342 net.cpp:372] inception_5a/relu_1x1 <- inception_5a/1x1
I0509 22:10:22.692155 19342 net.cpp:323] inception_5a/relu_1x1 -> inception_5a/1x1 (in-place)
I0509 22:10:22.692163 19342 net.cpp:105] Setting up inception_5a/relu_1x1
I0509 22:10:22.692169 19342 net.cpp:112] Top shape: 32 256 7 7 (401408)
I0509 22:10:22.692174 19342 layer_factory.hpp:74] Creating layer inception_5a/3x3_reduce
I0509 22:10:22.692188 19342 net.cpp:76] Creating Layer inception_5a/3x3_reduce
I0509 22:10:22.692194 19342 net.cpp:372] inception_5a/3x3_reduce <- pool4/3x3_s2_pool4/3x3_s2_0_split_1
I0509 22:10:22.692204 19342 net.cpp:334] inception_5a/3x3_reduce -> inception_5a/3x3_reduce
I0509 22:10:22.692214 19342 net.cpp:105] Setting up inception_5a/3x3_reduce
I0509 22:10:22.693367 19342 net.cpp:112] Top shape: 32 160 7 7 (250880)
I0509 22:10:22.693384 19342 layer_factory.hpp:74] Creating layer inception_5a/relu_3x3_reduce
I0509 22:10:22.693393 19342 net.cpp:76] Creating Layer inception_5a/relu_3x3_reduce
I0509 22:10:22.693399 19342 net.cpp:372] inception_5a/relu_3x3_reduce <- inception_5a/3x3_reduce
I0509 22:10:22.693409 19342 net.cpp:323] inception_5a/relu_3x3_reduce -> inception_5a/3x3_reduce (in-place)
I0509 22:10:22.693418 19342 net.cpp:105] Setting up inception_5a/relu_3x3_reduce
I0509 22:10:22.693423 19342 net.cpp:112] Top shape: 32 160 7 7 (250880)
I0509 22:10:22.693429 19342 layer_factory.hpp:74] Creating layer inception_5a/3x3
I0509 22:10:22.693438 19342 net.cpp:76] Creating Layer inception_5a/3x3
I0509 22:10:22.693442 19342 net.cpp:372] inception_5a/3x3 <- inception_5a/3x3_reduce
I0509 22:10:22.693452 19342 net.cpp:334] inception_5a/3x3 -> inception_5a/3x3
I0509 22:10:22.693461 19342 net.cpp:105] Setting up inception_5a/3x3
I0509 22:10:22.697329 19342 net.cpp:112] Top shape: 32 320 7 7 (501760)
I0509 22:10:22.697352 19342 layer_factory.hpp:74] Creating layer inception_5a/relu_3x3
I0509 22:10:22.697363 19342 net.cpp:76] Creating Layer inception_5a/relu_3x3
I0509 22:10:22.697371 19342 net.cpp:372] inception_5a/relu_3x3 <- inception_5a/3x3
I0509 22:10:22.697412 19342 net.cpp:323] inception_5a/relu_3x3 -> inception_5a/3x3 (in-place)
I0509 22:10:22.697423 19342 net.cpp:105] Setting up inception_5a/relu_3x3
I0509 22:10:22.697429 19342 net.cpp:112] Top shape: 32 320 7 7 (501760)
I0509 22:10:22.697434 19342 layer_factory.hpp:74] Creating layer inception_5a/5x5_reduce
I0509 22:10:22.697444 19342 net.cpp:76] Creating Layer inception_5a/5x5_reduce
I0509 22:10:22.697451 19342 net.cpp:372] inception_5a/5x5_reduce <- pool4/3x3_s2_pool4/3x3_s2_0_split_2
I0509 22:10:22.697461 19342 net.cpp:334] inception_5a/5x5_reduce -> inception_5a/5x5_reduce
I0509 22:10:22.697471 19342 net.cpp:105] Setting up inception_5a/5x5_reduce
I0509 22:10:22.697716 19342 net.cpp:112] Top shape: 32 32 7 7 (50176)
I0509 22:10:22.697729 19342 layer_factory.hpp:74] Creating layer inception_5a/relu_5x5_reduce
I0509 22:10:22.697737 19342 net.cpp:76] Creating Layer inception_5a/relu_5x5_reduce
I0509 22:10:22.697743 19342 net.cpp:372] inception_5a/relu_5x5_reduce <- inception_5a/5x5_reduce
I0509 22:10:22.697752 19342 net.cpp:323] inception_5a/relu_5x5_reduce -> inception_5a/5x5_reduce (in-place)
I0509 22:10:22.697760 19342 net.cpp:105] Setting up inception_5a/relu_5x5_reduce
I0509 22:10:22.697765 19342 net.cpp:112] Top shape: 32 32 7 7 (50176)
I0509 22:10:22.697772 19342 layer_factory.hpp:74] Creating layer inception_5a/5x5
I0509 22:10:22.697779 19342 net.cpp:76] Creating Layer inception_5a/5x5
I0509 22:10:22.697785 19342 net.cpp:372] inception_5a/5x5 <- inception_5a/5x5_reduce
I0509 22:10:22.697795 19342 net.cpp:334] inception_5a/5x5 -> inception_5a/5x5
I0509 22:10:22.697804 19342 net.cpp:105] Setting up inception_5a/5x5
I0509 22:10:22.698674 19342 net.cpp:112] Top shape: 32 128 7 7 (200704)
I0509 22:10:22.698690 19342 layer_factory.hpp:74] Creating layer inception_5a/relu_5x5
I0509 22:10:22.698699 19342 net.cpp:76] Creating Layer inception_5a/relu_5x5
I0509 22:10:22.698705 19342 net.cpp:372] inception_5a/relu_5x5 <- inception_5a/5x5
I0509 22:10:22.698712 19342 net.cpp:323] inception_5a/relu_5x5 -> inception_5a/5x5 (in-place)
I0509 22:10:22.698719 19342 net.cpp:105] Setting up inception_5a/relu_5x5
I0509 22:10:22.698725 19342 net.cpp:112] Top shape: 32 128 7 7 (200704)
I0509 22:10:22.698730 19342 layer_factory.hpp:74] Creating layer inception_5a/pool
I0509 22:10:22.698740 19342 net.cpp:76] Creating Layer inception_5a/pool
I0509 22:10:22.698745 19342 net.cpp:372] inception_5a/pool <- pool4/3x3_s2_pool4/3x3_s2_0_split_3
I0509 22:10:22.698755 19342 net.cpp:334] inception_5a/pool -> inception_5a/pool
I0509 22:10:22.698783 19342 net.cpp:105] Setting up inception_5a/pool
I0509 22:10:22.698796 19342 net.cpp:112] Top shape: 32 832 7 7 (1304576)
I0509 22:10:22.698802 19342 layer_factory.hpp:74] Creating layer inception_5a/pool_proj
I0509 22:10:22.698812 19342 net.cpp:76] Creating Layer inception_5a/pool_proj
I0509 22:10:22.698817 19342 net.cpp:372] inception_5a/pool_proj <- inception_5a/pool
I0509 22:10:22.698827 19342 net.cpp:334] inception_5a/pool_proj -> inception_5a/pool_proj
I0509 22:10:22.698837 19342 net.cpp:105] Setting up inception_5a/pool_proj
I0509 22:10:22.699735 19342 net.cpp:112] Top shape: 32 128 7 7 (200704)
I0509 22:10:22.699750 19342 layer_factory.hpp:74] Creating layer inception_5a/relu_pool_proj
I0509 22:10:22.699759 19342 net.cpp:76] Creating Layer inception_5a/relu_pool_proj
I0509 22:10:22.699765 19342 net.cpp:372] inception_5a/relu_pool_proj <- inception_5a/pool_proj
I0509 22:10:22.699774 19342 net.cpp:323] inception_5a/relu_pool_proj -> inception_5a/pool_proj (in-place)
I0509 22:10:22.699784 19342 net.cpp:105] Setting up inception_5a/relu_pool_proj
I0509 22:10:22.699789 19342 net.cpp:112] Top shape: 32 128 7 7 (200704)
I0509 22:10:22.699794 19342 layer_factory.hpp:74] Creating layer inception_5a/output
I0509 22:10:22.699801 19342 net.cpp:76] Creating Layer inception_5a/output
I0509 22:10:22.699807 19342 net.cpp:372] inception_5a/output <- inception_5a/1x1
I0509 22:10:22.699815 19342 net.cpp:372] inception_5a/output <- inception_5a/3x3
I0509 22:10:22.699834 19342 net.cpp:372] inception_5a/output <- inception_5a/5x5
I0509 22:10:22.699841 19342 net.cpp:372] inception_5a/output <- inception_5a/pool_proj
I0509 22:10:22.699851 19342 net.cpp:334] inception_5a/output -> inception_5a/output
I0509 22:10:22.699861 19342 net.cpp:105] Setting up inception_5a/output
I0509 22:10:22.699867 19342 net.cpp:112] Top shape: 32 832 7 7 (1304576)
I0509 22:10:22.699872 19342 layer_factory.hpp:74] Creating layer inception_5a/output_inception_5a/output_0_split
I0509 22:10:22.699882 19342 net.cpp:76] Creating Layer inception_5a/output_inception_5a/output_0_split
I0509 22:10:22.699887 19342 net.cpp:372] inception_5a/output_inception_5a/output_0_split <- inception_5a/output
I0509 22:10:22.699894 19342 net.cpp:334] inception_5a/output_inception_5a/output_0_split -> inception_5a/output_inception_5a/output_0_split_0
I0509 22:10:22.699904 19342 net.cpp:334] inception_5a/output_inception_5a/output_0_split -> inception_5a/output_inception_5a/output_0_split_1
I0509 22:10:22.699913 19342 net.cpp:334] inception_5a/output_inception_5a/output_0_split -> inception_5a/output_inception_5a/output_0_split_2
I0509 22:10:22.699923 19342 net.cpp:334] inception_5a/output_inception_5a/output_0_split -> inception_5a/output_inception_5a/output_0_split_3
I0509 22:10:22.699951 19342 net.cpp:105] Setting up inception_5a/output_inception_5a/output_0_split
I0509 22:10:22.699959 19342 net.cpp:112] Top shape: 32 832 7 7 (1304576)
I0509 22:10:22.699965 19342 net.cpp:112] Top shape: 32 832 7 7 (1304576)
I0509 22:10:22.699970 19342 net.cpp:112] Top shape: 32 832 7 7 (1304576)
I0509 22:10:22.699975 19342 net.cpp:112] Top shape: 32 832 7 7 (1304576)
I0509 22:10:22.699980 19342 layer_factory.hpp:74] Creating layer inception_5b/1x1
I0509 22:10:22.699991 19342 net.cpp:76] Creating Layer inception_5b/1x1
I0509 22:10:22.699997 19342 net.cpp:372] inception_5b/1x1 <- inception_5a/output_inception_5a/output_0_split_0
I0509 22:10:22.700007 19342 net.cpp:334] inception_5b/1x1 -> inception_5b/1x1
I0509 22:10:22.700016 19342 net.cpp:105] Setting up inception_5b/1x1
I0509 22:10:22.702816 19342 net.cpp:112] Top shape: 32 384 7 7 (602112)
I0509 22:10:22.702839 19342 layer_factory.hpp:74] Creating layer inception_5b/relu_1x1
I0509 22:10:22.702849 19342 net.cpp:76] Creating Layer inception_5b/relu_1x1
I0509 22:10:22.702857 19342 net.cpp:372] inception_5b/relu_1x1 <- inception_5b/1x1
I0509 22:10:22.702867 19342 net.cpp:323] inception_5b/relu_1x1 -> inception_5b/1x1 (in-place)
I0509 22:10:22.702877 19342 net.cpp:105] Setting up inception_5b/relu_1x1
I0509 22:10:22.702883 19342 net.cpp:112] Top shape: 32 384 7 7 (602112)
I0509 22:10:22.702888 19342 layer_factory.hpp:74] Creating layer inception_5b/3x3_reduce
I0509 22:10:22.702898 19342 net.cpp:76] Creating Layer inception_5b/3x3_reduce
I0509 22:10:22.702903 19342 net.cpp:372] inception_5b/3x3_reduce <- inception_5a/output_inception_5a/output_0_split_1
I0509 22:10:22.702914 19342 net.cpp:334] inception_5b/3x3_reduce -> inception_5b/3x3_reduce
I0509 22:10:22.702924 19342 net.cpp:105] Setting up inception_5b/3x3_reduce
I0509 22:10:22.704339 19342 net.cpp:112] Top shape: 32 192 7 7 (301056)
I0509 22:10:22.704357 19342 layer_factory.hpp:74] Creating layer inception_5b/relu_3x3_reduce
I0509 22:10:22.704366 19342 net.cpp:76] Creating Layer inception_5b/relu_3x3_reduce
I0509 22:10:22.704375 19342 net.cpp:372] inception_5b/relu_3x3_reduce <- inception_5b/3x3_reduce
I0509 22:10:22.704385 19342 net.cpp:323] inception_5b/relu_3x3_reduce -> inception_5b/3x3_reduce (in-place)
I0509 22:10:22.704392 19342 net.cpp:105] Setting up inception_5b/relu_3x3_reduce
I0509 22:10:22.704398 19342 net.cpp:112] Top shape: 32 192 7 7 (301056)
I0509 22:10:22.704403 19342 layer_factory.hpp:74] Creating layer inception_5b/3x3
I0509 22:10:22.704411 19342 net.cpp:76] Creating Layer inception_5b/3x3
I0509 22:10:22.704417 19342 net.cpp:372] inception_5b/3x3 <- inception_5b/3x3_reduce
I0509 22:10:22.704427 19342 net.cpp:334] inception_5b/3x3 -> inception_5b/3x3
I0509 22:10:22.704437 19342 net.cpp:105] Setting up inception_5b/3x3
I0509 22:10:22.710815 19342 net.cpp:112] Top shape: 32 384 7 7 (602112)
I0509 22:10:22.710861 19342 layer_factory.hpp:74] Creating layer inception_5b/relu_3x3
I0509 22:10:22.710883 19342 net.cpp:76] Creating Layer inception_5b/relu_3x3
I0509 22:10:22.710898 19342 net.cpp:372] inception_5b/relu_3x3 <- inception_5b/3x3
I0509 22:10:22.710918 19342 net.cpp:323] inception_5b/relu_3x3 -> inception_5b/3x3 (in-place)
I0509 22:10:22.710937 19342 net.cpp:105] Setting up inception_5b/relu_3x3
I0509 22:10:22.710947 19342 net.cpp:112] Top shape: 32 384 7 7 (602112)
I0509 22:10:22.710958 19342 layer_factory.hpp:74] Creating layer inception_5b/5x5_reduce
I0509 22:10:22.710976 19342 net.cpp:76] Creating Layer inception_5b/5x5_reduce
I0509 22:10:22.710989 19342 net.cpp:372] inception_5b/5x5_reduce <- inception_5a/output_inception_5a/output_0_split_2
I0509 22:10:22.711012 19342 net.cpp:334] inception_5b/5x5_reduce -> inception_5b/5x5_reduce
I0509 22:10:22.711033 19342 net.cpp:105] Setting up inception_5b/5x5_reduce
I0509 22:10:22.711532 19342 net.cpp:112] Top shape: 32 48 7 7 (75264)
I0509 22:10:22.711555 19342 layer_factory.hpp:74] Creating layer inception_5b/relu_5x5_reduce
I0509 22:10:22.711568 19342 net.cpp:76] Creating Layer inception_5b/relu_5x5_reduce
I0509 22:10:22.711575 19342 net.cpp:372] inception_5b/relu_5x5_reduce <- inception_5b/5x5_reduce
I0509 22:10:22.711582 19342 net.cpp:323] inception_5b/relu_5x5_reduce -> inception_5b/5x5_reduce (in-place)
I0509 22:10:22.711591 19342 net.cpp:105] Setting up inception_5b/relu_5x5_reduce
I0509 22:10:22.711597 19342 net.cpp:112] Top shape: 32 48 7 7 (75264)
I0509 22:10:22.711608 19342 layer_factory.hpp:74] Creating layer inception_5b/5x5
I0509 22:10:22.711629 19342 net.cpp:76] Creating Layer inception_5b/5x5
I0509 22:10:22.711644 19342 net.cpp:372] inception_5b/5x5 <- inception_5b/5x5_reduce
I0509 22:10:22.711662 19342 net.cpp:334] inception_5b/5x5 -> inception_5b/5x5
I0509 22:10:22.711681 19342 net.cpp:105] Setting up inception_5b/5x5
I0509 22:10:22.713099 19342 net.cpp:112] Top shape: 32 128 7 7 (200704)
I0509 22:10:22.713116 19342 layer_factory.hpp:74] Creating layer inception_5b/relu_5x5
I0509 22:10:22.713125 19342 net.cpp:76] Creating Layer inception_5b/relu_5x5
I0509 22:10:22.713132 19342 net.cpp:372] inception_5b/relu_5x5 <- inception_5b/5x5
I0509 22:10:22.713140 19342 net.cpp:323] inception_5b/relu_5x5 -> inception_5b/5x5 (in-place)
I0509 22:10:22.713153 19342 net.cpp:105] Setting up inception_5b/relu_5x5
I0509 22:10:22.713165 19342 net.cpp:112] Top shape: 32 128 7 7 (200704)
I0509 22:10:22.713176 19342 layer_factory.hpp:74] Creating layer inception_5b/pool
I0509 22:10:22.713196 19342 net.cpp:76] Creating Layer inception_5b/pool
I0509 22:10:22.713204 19342 net.cpp:372] inception_5b/pool <- inception_5a/output_inception_5a/output_0_split_3
I0509 22:10:22.713213 19342 net.cpp:334] inception_5b/pool -> inception_5b/pool
I0509 22:10:22.713225 19342 net.cpp:105] Setting up inception_5b/pool
I0509 22:10:22.713234 19342 net.cpp:112] Top shape: 32 832 7 7 (1304576)
I0509 22:10:22.713239 19342 layer_factory.hpp:74] Creating layer inception_5b/pool_proj
I0509 22:10:22.713253 19342 net.cpp:76] Creating Layer inception_5b/pool_proj
I0509 22:10:22.713258 19342 net.cpp:372] inception_5b/pool_proj <- inception_5b/pool
I0509 22:10:22.713268 19342 net.cpp:334] inception_5b/pool_proj -> inception_5b/pool_proj
I0509 22:10:22.713290 19342 net.cpp:105] Setting up inception_5b/pool_proj
I0509 22:10:22.714335 19342 net.cpp:112] Top shape: 32 128 7 7 (200704)
I0509 22:10:22.714354 19342 layer_factory.hpp:74] Creating layer inception_5b/relu_pool_proj
I0509 22:10:22.714365 19342 net.cpp:76] Creating Layer inception_5b/relu_pool_proj
I0509 22:10:22.714375 19342 net.cpp:372] inception_5b/relu_pool_proj <- inception_5b/pool_proj
I0509 22:10:22.714390 19342 net.cpp:323] inception_5b/relu_pool_proj -> inception_5b/pool_proj (in-place)
I0509 22:10:22.714407 19342 net.cpp:105] Setting up inception_5b/relu_pool_proj
I0509 22:10:22.714416 19342 net.cpp:112] Top shape: 32 128 7 7 (200704)
I0509 22:10:22.714421 19342 layer_factory.hpp:74] Creating layer inception_5b/output
I0509 22:10:22.714468 19342 net.cpp:76] Creating Layer inception_5b/output
I0509 22:10:22.714488 19342 net.cpp:372] inception_5b/output <- inception_5b/1x1
I0509 22:10:22.714503 19342 net.cpp:372] inception_5b/output <- inception_5b/3x3
I0509 22:10:22.714514 19342 net.cpp:372] inception_5b/output <- inception_5b/5x5
I0509 22:10:22.714521 19342 net.cpp:372] inception_5b/output <- inception_5b/pool_proj
I0509 22:10:22.714530 19342 net.cpp:334] inception_5b/output -> inception_5b/output
I0509 22:10:22.714540 19342 net.cpp:105] Setting up inception_5b/output
I0509 22:10:22.714546 19342 net.cpp:112] Top shape: 32 1024 7 7 (1605632)
I0509 22:10:22.714552 19342 layer_factory.hpp:74] Creating layer pool5/7x7_s1
I0509 22:10:22.714562 19342 net.cpp:76] Creating Layer pool5/7x7_s1
I0509 22:10:22.714570 19342 net.cpp:372] pool5/7x7_s1 <- inception_5b/output
I0509 22:10:22.714577 19342 net.cpp:334] pool5/7x7_s1 -> pool5/7x7_s1
I0509 22:10:22.714586 19342 net.cpp:105] Setting up pool5/7x7_s1
I0509 22:10:22.714593 19342 net.cpp:112] Top shape: 32 1024 1 1 (32768)
I0509 22:10:22.714599 19342 layer_factory.hpp:74] Creating layer pool5/drop_7x7_s1
I0509 22:10:22.714608 19342 net.cpp:76] Creating Layer pool5/drop_7x7_s1
I0509 22:10:22.714613 19342 net.cpp:372] pool5/drop_7x7_s1 <- pool5/7x7_s1
I0509 22:10:22.714620 19342 net.cpp:323] pool5/drop_7x7_s1 -> pool5/7x7_s1 (in-place)
I0509 22:10:22.714629 19342 net.cpp:105] Setting up pool5/drop_7x7_s1
I0509 22:10:22.714640 19342 net.cpp:112] Top shape: 32 1024 1 1 (32768)
I0509 22:10:22.714651 19342 layer_factory.hpp:74] Creating layer loss3/classifier
I0509 22:10:22.714666 19342 net.cpp:76] Creating Layer loss3/classifier
I0509 22:10:22.714673 19342 net.cpp:372] loss3/classifier <- pool5/7x7_s1
I0509 22:10:22.714681 19342 net.cpp:334] loss3/classifier -> loss3/classifier
I0509 22:10:22.714699 19342 net.cpp:105] Setting up loss3/classifier
I0509 22:10:22.714746 19342 net.cpp:112] Top shape: 32 2 1 1 (64)
I0509 22:10:22.714759 19342 layer_factory.hpp:74] Creating layer loss3/classifier_loss3/classifier_0_split
I0509 22:10:22.714773 19342 net.cpp:76] Creating Layer loss3/classifier_loss3/classifier_0_split
I0509 22:10:22.714786 19342 net.cpp:372] loss3/classifier_loss3/classifier_0_split <- loss3/classifier
I0509 22:10:22.714798 19342 net.cpp:334] loss3/classifier_loss3/classifier_0_split -> loss3/classifier_loss3/classifier_0_split_0
I0509 22:10:22.714817 19342 net.cpp:334] loss3/classifier_loss3/classifier_0_split -> loss3/classifier_loss3/classifier_0_split_1
I0509 22:10:22.714835 19342 net.cpp:105] Setting up loss3/classifier_loss3/classifier_0_split
I0509 22:10:22.714849 19342 net.cpp:112] Top shape: 32 2 1 1 (64)
I0509 22:10:22.714890 19342 net.cpp:112] Top shape: 32 2 1 1 (64)
I0509 22:10:22.714900 19342 layer_factory.hpp:74] Creating layer loss3/loss3
I0509 22:10:22.714913 19342 net.cpp:76] Creating Layer loss3/loss3
I0509 22:10:22.714920 19342 net.cpp:372] loss3/loss3 <- loss3/classifier_loss3/classifier_0_split_0
I0509 22:10:22.714927 19342 net.cpp:372] loss3/loss3 <- label_data_1_split_4
I0509 22:10:22.714936 19342 net.cpp:334] loss3/loss3 -> loss3/loss3
I0509 22:10:22.714944 19342 net.cpp:105] Setting up loss3/loss3
I0509 22:10:22.714952 19342 layer_factory.hpp:74] Creating layer loss3/loss3
I0509 22:10:22.714967 19342 net.cpp:112] Top shape: 1 1 1 1 (1)
I0509 22:10:22.714973 19342 net.cpp:118]     with loss weight 1
I0509 22:10:22.714989 19342 layer_factory.hpp:74] Creating layer loss3/top-1
I0509 22:10:22.714998 19342 net.cpp:76] Creating Layer loss3/top-1
I0509 22:10:22.715006 19342 net.cpp:372] loss3/top-1 <- loss3/classifier_loss3/classifier_0_split_1
I0509 22:10:22.715018 19342 net.cpp:372] loss3/top-1 <- label_data_1_split_5
I0509 22:10:22.715025 19342 net.cpp:334] loss3/top-1 -> loss3/top-1
I0509 22:10:22.715039 19342 net.cpp:105] Setting up loss3/top-1
I0509 22:10:22.715050 19342 net.cpp:112] Top shape: 1 1 1 1 (1)
I0509 22:10:22.715059 19342 net.cpp:165] loss3/top-1 does not need backward computation.
I0509 22:10:22.715065 19342 net.cpp:163] loss3/loss3 needs backward computation.
I0509 22:10:22.715083 19342 net.cpp:163] loss3/classifier_loss3/classifier_0_split needs backward computation.
I0509 22:10:22.715093 19342 net.cpp:163] loss3/classifier needs backward computation.
I0509 22:10:22.715104 19342 net.cpp:163] pool5/drop_7x7_s1 needs backward computation.
…
