…
I0511 01:20:13.721912  4331 net.cpp:253] The NetState phase (0) differed from the phase (1) specified by a rule in layer loss3/top-1
I0511 01:20:13.723214  4331 net.cpp:42] Initializing net from parameters: 
name: "GoogleNet"
state {
  phase: TRAIN
}
layer {
  name: "data"
  type: "Data"
  top: "data"
  top: "label"
  include {
    phase: TRAIN
  }
  transform_param {
    mirror: true
    crop_size: 224
    mean_value: 104
    mean_value: 117
    mean_value: 123
  }
  data_param {
    source: "train_lmdb"
    batch_size: 32
    backend: LMDB
  }
}
layer {
  name: "conv1/7x7_s2"
  type: "Convolution"
  bottom: "data"
  top: "conv1/7x7_s2"
  param {
    lr_mult: 1
    decay_mult: 1
  }
  param {
    lr_mult: 2
    decay_mult: 0
  }
  convolution_param {
    num_output: 64
    pad: 3
    kernel_size: 7
    stride: 2
    weight_filler {
      type: "xavier"
      std: 0.1
    }
    bias_filler {
      type: "constant"
      value: 0.2
    }
  }
}
layer {
  name: "conv1/relu_7x7"
  type: "ReLU"
  bottom: "conv1/7x7_s2"
  top: "conv1/7x7_s2"
}
layer {
  name: "pool1/3x3_s2"
  type: "Pooling"
  bottom: "conv1/7x7_s2"
  top: "pool1/3x3_s2"
  pooling_param {
    pool: MAX
    kernel_size: 3
    stride: 2
  }
}
layer {
  name: "pool1/norm1"
  type: "LRN"
  bottom: "pool1/3x3_s2"
  top: "pool1/norm1"
  lrn_param {
    local_size: 5
    alpha: 0.0001
    beta: 0.75
  }
}
layer {
  name: "conv2/3x3_reduce"
  type: "Convolution"
  bottom: "pool1/norm1"
  top: "conv2/3x3_reduce"
  param {
    lr_mult: 1
    decay_mult: 1
  }
  param {
    lr_mult: 2
    decay_mult: 0
  }
  convolution_param {
    num_output: 64
    kernel_size: 1
    weight_filler {
      type: "xavier"
      std: 0.1
    }
    bias_filler {
      type: "constant"
      value: 0.2
    }
  }
}
layer {
  name: "conv2/relu_3x3_reduce"
  type: "ReLU"
  bottom: "conv2/3x3_reduce"
  top: "conv2/3x3_reduce"
}
layer {
  name: "conv2/3x3"
  type: "Convolution"
  bottom: "conv2/3x3_reduce"
  top: "conv2/3x3"
  param {
    lr_mult: 1
    decay_mult: 1
  }
  param {
    lr_mult: 2
    decay_mult: 0
  }
  convolution_param {
    num_output: 192
    pad: 1
    kernel_size: 3
    weight_filler {
      type: "xavier"
      std: 0.03
    }
    bias_filler {
      type: "constant"
      value: 0.2
    }
  }
}
layer {
  name: "conv2/relu_3x3"
  type: "ReLU"
  bottom: "conv2/3x3"
  top: "conv2/3x3"
}
layer {
  name: "conv2/norm2"
  type: "LRN"
  bottom: "conv2/3x3"
  top: "conv2/norm2"
  lrn_param {
    local_size: 5
    alpha: 0.0001
    beta: 0.75
  }
}
layer {
  name: "pool2/3x3_s2"
  type: "Pooling"
  bottom: "conv2/norm2"
  top: "pool2/3x3_s2"
  pooling_param {
    pool: MAX
    kernel_size: 3
    stride: 2
  }
}
layer {
  name: "inception_3a/1x1"
  type: "Convolution"
  bottom: "pool2/3x3_s2"
  top: "inception_3a/1x1"
  param {
    lr_mult: 1
    decay_mult: 1
  }
  param {
    lr_mult: 2
    decay_mult: 0
  }
  convolution_param {
    num_output: 64
    kernel_size: 1
    weight_filler {
      type: "xavier"
      std: 0.03
    }
    bias_filler {
      type: "constant"
      value: 0.2
    }
  }
}
layer {
  name: "inception_3a/relu_1x1"
  type: "ReLU"
  bottom: "inception_3a/1x1"
  top: "inception_3a/1x1"
}
layer {
  name: "inception_3a/3x3_reduce"
  type: "Convolution"
  bottom: "pool2/3x3_s2"
  top: "inception_3a/3x3_reduce"
  param {
    lr_mult: 1
    decay_mult: 1
  }
  param {
    lr_mult: 2
    decay_mult: 0
  }
  convolution_param {
    num_output: 96
    kernel_size: 1
    weight_filler {
      type: "xavier"
      std: 0.09
    }
    bias_filler {
      type: "constant"
      value: 0.2
    }
  }
}
layer {
  name: "inception_3a/relu_3x3_reduce"
  type: "ReLU"
  bottom: "inception_3a/3x3_reduce"
  top: "inception_3a/3x3_reduce"
}
layer {
  name: "inception_3a/3x3"
  type: "Convolution"
  bottom: "inception_3a/3x3_reduce"
  top: "inception_3a/3x3"
  param {
    lr_mult: 1
    decay_mult: 1
  }
  param {
    lr_mult: 2
    decay_mult: 0
  }
  convolution_param {
    num_output: 128
    pad: 1
    kernel_size: 3
    weight_filler {
      type: "xavier"
      std: 0.03
    }
    bias_filler {
      type: "constant"
      value: 0.2
    }
  }
}
layer {
  name: "inception_3a/relu_3x3"
  type: "ReLU"
  bottom: "inception_3a/3x3"
  top: "inception_3a/3x3"
}
layer {
  name: "inception_3a/5x5_reduce"
  type: "Convolution"
  bottom: "pool2/3x3_s2"
  top: "inception_3a/5x5_reduce"
  param {
    lr_mult: 1
    decay_mult: 1
  }
  param {
    lr_mult: 2
    decay_mult: 0
  }
  convolution_param {
    num_output: 16
    kernel_size: 1
    weight_filler {
      type: "xavier"
      std: 0.2
    }
    bias_filler {
      type: "constant"
      value: 0.2
    }
  }
}
layer {
  name: "inception_3a/relu_5x5_reduce"
  type: "ReLU"
  bottom: "inception_3a/5x5_reduce"
  top: "inception_3a/5x5_reduce"
}
layer {
  name: "inception_3a/5x5"
  type: "Convolution"
  bottom: "inception_3a/5x5_reduce"
  top: "inception_3a/5x5"
  param {
    lr_mult: 1
    decay_mult: 1
  }
  param {
    lr_mult: 2
    decay_mult: 0
  }
  convolution_param {
    num_output: 32
    pad: 2
    kernel_size: 5
    weight_filler {
      type: "xavier"
      std: 0.03
    }
    bias_filler {
      type: "constant"
      value: 0.2
    }
  }
}
layer {
  name: "inception_3a/relu_5x5"
  type: "ReLU"
  bottom: "inception_3a/5x5"
  top: "inception_3a/5x5"
}
layer {
  name: "inception_3a/pool"
  type: "Pooling"
  bottom: "pool2/3x3_s2"
  top: "inception_3a/pool"
  pooling_param {
    pool: MAX
    kernel_size: 3
    stride: 1
    pad: 1
  }
}
layer {
  name: "inception_3a/pool_proj"
  type: "Convolution"
  bottom: "inception_3a/pool"
  top: "inception_3a/pool_proj"
  param {
    lr_mult: 1
    decay_mult: 1
  }
  param {
    lr_mult: 2
    decay_mult: 0
  }
  convolution_param {
    num_output: 32
    kernel_size: 1
    weight_filler {
      type: "xavier"
      std: 0.1
    }
    bias_filler {
      type: "constant"
      value: 0.2
    }
  }
}
layer {
  name: "inception_3a/relu_pool_proj"
  type: "ReLU"
  bottom: "inception_3a/pool_proj"
  top: "inception_3a/pool_proj"
}
layer {
  name: "inception_3a/output"
  type: "Concat"
  bottom: "inception_3a/1x1"
  bottom: "inception_3a/3x3"
  bottom: "inception_3a/5x5"
  bottom: "inception_3a/pool_proj"
  top: "inception_3a/output"
}
layer {
  name: "inception_3b/1x1"
  type: "Convolution"
  bottom: "inception_3a/output"
  top: "inception_3b/1x1"
  param {
    lr_mult: 1
    decay_mult: 1
  }
  param {
    lr_mult: 2
    decay_mult: 0
  }
  convolution_param {
    num_output: 128
    kernel_size: 1
    weight_filler {
      type: "xavier"
      std: 0.03
    }
    bias_filler {
      type: "constant"
      value: 0.2
    }
  }
}
layer {
  name: "inception_3b/relu_1x1"
  type: "ReLU"
  bottom: "inception_3b/1x1"
  top: "inception_3b/1x1"
}
layer {
  name: "inception_3b/3x3_reduce"
  type: "Convolution"
  bottom: "inception_3a/output"
  top: "inception_3b/3x3_reduce"
  param {
    lr_mult: 1
    decay_mult: 1
  }
  param {
    lr_mult: 2
    decay_mult: 0
  }
  convolution_param {
    num_output: 128
    kernel_size: 1
    weight_filler {
      type: "xavier"
      std: 0.09
    }
    bias_filler {
      type: "constant"
      value: 0.2
    }
  }
}
layer {
  name: "inception_3b/relu_3x3_reduce"
  type: "ReLU"
  bottom: "inception_3b/3x3_reduce"
  top: "inception_3b/3x3_reduce"
}
layer {
  name: "inception_3b/3x3"
  type: "Convolution"
  bottom: "inception_3b/3x3_reduce"
  top: "inception_3b/3x3"
  param {
    lr_mult: 1
    decay_mult: 1
  }
  param {
    lr_mult: 2
    decay_mult: 0
  }
  convolution_param {
    num_output: 192
    pad: 1
    kernel_size: 3
    weight_filler {
      type: "xavier"
      std: 0.03
    }
    bias_filler {
      type: "constant"
      value: 0.2
    }
  }
}
layer {
  name: "inception_3b/relu_3x3"
  type: "ReLU"
  bottom: "inception_3b/3x3"
  top: "inception_3b/3x3"
}
layer {
  name: "inception_3b/5x5_reduce"
  type: "Convolution"
  bottom: "inception_3a/output"
  top: "inception_3b/5x5_reduce"
  param {
    lr_mult: 1
    decay_mult: 1
  }
  param {
    lr_mult: 2
    decay_mult: 0
  }
  convolution_param {
    num_output: 32
    kernel_size: 1
    weight_filler {
      type: "xavier"
      std: 0.2
    }
    bias_filler {
      type: "constant"
      value: 0.2
    }
  }
}
layer {
  name: "inception_3b/relu_5x5_reduce"
  type: "ReLU"
  bottom: "inception_3b/5x5_reduce"
  top: "inception_3b/5x5_reduce"
}
layer {
  name: "inception_3b/5x5"
  type: "Convolution"
  bottom: "inception_3b/5x5_reduce"
  top: "inception_3b/5x5"
  param {
    lr_mult: 1
    decay_mult: 1
  }
  param {
    lr_mult: 2
    decay_mult: 0
  }
  convolution_param {
    num_output: 96
    pad: 2
    kernel_size: 5
    weight_filler {
      type: "xavier"
      std: 0.03
    }
    bias_filler {
      type: "constant"
      value: 0.2
    }
  }
}
layer {
  name: "inception_3b/relu_5x5"
  type: "ReLU"
  bottom: "inception_3b/5x5"
  top: "inception_3b/5x5"
}
layer {
  name: "inception_3b/pool"
  type: "Pooling"
  bottom: "inception_3a/output"
  top: "inception_3b/pool"
  pooling_param {
    pool: MAX
    kernel_size: 3
    stride: 1
    pad: 1
  }
}
layer {
  name: "inception_3b/pool_proj"
  type: "Convolution"
  bottom: "inception_3b/pool"
  top: "inception_3b/pool_proj"
  param {
    lr_mult: 1
    decay_mult: 1
  }
  param {
    lr_mult: 2
    decay_mult: 0
  }
  convolution_param {
    num_output: 64
    kernel_size: 1
    weight_filler {
      type: "xavier"
      std: 0.1
    }
    bias_filler {
      type: "constant"
      value: 0.2
    }
  }
}
layer {
  name: "inception_3b/relu_pool_proj"
  type: "ReLU"
  bottom: "inception_3b/pool_proj"
  top: "inception_3b/pool_proj"
}
layer {
  name: "inception_3b/output"
  type: "Concat"
  bottom: "inception_3b/1x1"
  bottom: "inception_3b/3x3"
  bottom: "inception_3b/5x5"
  bottom: "inception_3b/pool_proj"
  top: "inception_3b/output"
}
layer {
  name: "pool3/3x3_s2"
  type: "Pooling"
  bottom: "inception_3b/output"
  top: "pool3/3x3_s2"
  pooling_param {
    pool: MAX
    kernel_size: 3
    stride: 2
  }
}
layer {
  name: "inception_4a/1x1"
  type: "Convolution"
  bottom: "pool3/3x3_s2"
  top: "inception_4a/1x1"
  param {
    lr_mult: 1
    decay_mult: 1
  }
  param {
    lr_mult: 2
    decay_mult: 0
  }
  convolution_param {
    num_output: 192
    kernel_size: 1
    weight_filler {
      type: "xavier"
      std: 0.03
    }
    bias_filler {
      type: "constant"
      value: 0.2
    }
  }
}
layer {
  name: "inception_4a/relu_1x1"
  type: "ReLU"
  bottom: "inception_4a/1x1"
  top: "inception_4a/1x1"
}
layer {
  name: "inception_4a/3x3_reduce"
  type: "Convolution"
  bottom: "pool3/3x3_s2"
  top: "inception_4a/3x3_reduce"
  param {
    lr_mult: 1
    decay_mult: 1
  }
  param {
    lr_mult: 2
    decay_mult: 0
  }
  convolution_param {
    num_output: 96
    kernel_size: 1
    weight_filler {
      type: "xavier"
      std: 0.09
    }
    bias_filler {
      type: "constant"
      value: 0.2
    }
  }
}
layer {
  name: "inception_4a/relu_3x3_reduce"
  type: "ReLU"
  bottom: "inception_4a/3x3_reduce"
  top: "inception_4a/3x3_reduce"
}
layer {
  name: "inception_4a/3x3"
  type: "Convolution"
  bottom: "inception_4a/3x3_reduce"
  top: "inception_4a/3x3"
  param {
    lr_mult: 1
    decay_mult: 1
  }
  param {
    lr_mult: 2
    decay_mult: 0
  }
  convolution_param {
    num_output: 208
    pad: 1
    kernel_size: 3
    weight_filler {
      type: "xavier"
      std: 0.03
    }
    bias_filler {
      type: "constant"
      value: 0.2
    }
  }
}
layer {
  name: "inception_4a/relu_3x3"
  type: "ReLU"
  bottom: "inception_4a/3x3"
  top: "inception_4a/3x3"
}
layer {
  name: "inception_4a/5x5_reduce"
  type: "Convolution"
  bottom: "pool3/3x3_s2"
  top: "inception_4a/5x5_reduce"
  param {
    lr_mult: 1
    decay_mult: 1
  }
  param {
    lr_mult: 2
    decay_mult: 0
  }
  convolution_param {
    num_output: 16
    kernel_size: 1
    weight_filler {
      type: "xavier"
      std: 0.2
    }
    bias_filler {
      type: "constant"
      value: 0.2
    }
  }
}
layer {
  name: "inception_4a/relu_5x5_reduce"
  type: "ReLU"
  bottom: "inception_4a/5x5_reduce"
  top: "inception_4a/5x5_reduce"
}
layer {
  name: "inception_4a/5x5"
  type: "Convolution"
  bottom: "inception_4a/5x5_reduce"
  top: "inception_4a/5x5"
  param {
    lr_mult: 1
    decay_mult: 1
  }
  param {
    lr_mult: 2
    decay_mult: 0
  }
  convolution_param {
    num_output: 48
    pad: 2
    kernel_size: 5
    weight_filler {
      type: "xavier"
      std: 0.03
    }
    bias_filler {
      type: "constant"
      value: 0.2
    }
  }
}
layer {
  name: "inception_4a/relu_5x5"
  type: "ReLU"
  bottom: "inception_4a/5x5"
  top: "inception_4a/5x5"
}
layer {
  name: "inception_4a/pool"
  type: "Pooling"
  bottom: "pool3/3x3_s2"
  top: "inception_4a/pool"
  pooling_param {
    pool: MAX
    kernel_size: 3
    stride: 1
    pad: 1
  }
}
layer {
  name: "inception_4a/pool_proj"
  type: "Convolution"
  bottom: "inception_4a/pool"
  top: "inception_4a/pool_proj"
  param {
    lr_mult: 1
    decay_mult: 1
  }
  param {
    lr_mult: 2
    decay_mult: 0
  }
  convolution_param {
    num_output: 64
    kernel_size: 1
    weight_filler {
      type: "xavier"
      std: 0.1
    }
    bias_filler {
      type: "constant"
      value: 0.2
    }
  }
}
layer {
  name: "inception_4a/relu_pool_proj"
  type: "ReLU"
  bottom: "inception_4a/pool_proj"
  top: "inception_4a/pool_proj"
}
layer {
  name: "inception_4a/output"
  type: "Concat"
  bottom: "inception_4a/1x1"
  bottom: "inception_4a/3x3"
  bottom: "inception_4a/5x5"
  bottom: "inception_4a/pool_proj"
  top: "inception_4a/output"
}
layer {
  name: "loss1/ave_pool"
  type: "Pooling"
  bottom: "inception_4a/output"
  top: "loss1/ave_pool"
  pooling_param {
    pool: AVE
    kernel_size: 5
    stride: 3
  }
}
layer {
  name: "loss1/conv"
  type: "Convolution"
  bottom: "loss1/ave_pool"
  top: "loss1/conv"
  param {
    lr_mult: 1
    decay_mult: 1
  }
  param {
    lr_mult: 2
    decay_mult: 0
  }
  convolution_param {
    num_output: 128
    kernel_size: 1
    weight_filler {
      type: "xavier"
      std: 0.08
    }
    bias_filler {
      type: "constant"
      value: 0.2
    }
  }
}
layer {
  name: "loss1/relu_conv"
  type: "ReLU"
  bottom: "loss1/conv"
  top: "loss1/conv"
}
layer {
  name: "loss1/fc"
  type: "InnerProduct"
  bottom: "loss1/conv"
  top: "loss1/fc"
  param {
    lr_mult: 1
    decay_mult: 1
  }
  param {
    lr_mult: 2
    decay_mult: 0
  }
  inner_product_param {
    num_output: 1024
    weight_filler {
      type: "xavier"
      std: 0.02
    }
    bias_filler {
      type: "constant"
      value: 0.2
    }
  }
}
layer {
  name: "loss1/relu_fc"
  type: "ReLU"
  bottom: "loss1/fc"
  top: "loss1/fc"
}
layer {
  name: "loss1/drop_fc"
  type: "Dropout"
  bottom: "loss1/fc"
  top: "loss1/fc"
  dropout_param {
    dropout_ratio: 0.7
  }
}
layer {
  name: "loss1/classifier"
  type: "InnerProduct"
  bottom: "loss1/fc"
  top: "loss1/classifier"
  param {
    lr_mult: 1
    decay_mult: 1
  }
  param {
    lr_mult: 2
    decay_mult: 0
  }
  inner_product_param {
    num_output: 2
    weight_filler {
      type: "xavier"
      std: 0.0009765625
    }
    bias_filler {
      type: "constant"
      value: 0
    }
  }
}
layer {
  name: "loss1/loss"
  type: "SoftmaxWithLoss"
  bottom: "loss1/classifier"
  bottom: "label"
  top: "loss1/loss1"
  loss_weight: 0.3
}
layer {
  name: "inception_4b/1x1"
  type: "Convolution"
  bottom: "inception_4a/output"
  top: "inception_4b/1x1"
  param {
    lr_mult: 1
    decay_mult: 1
  }
  param {
    lr_mult: 2
    decay_mult: 0
  }
  convolution_param {
    num_output: 160
    kernel_size: 1
    weight_filler {
      type: "xavier"
      std: 0.03
    }
    bias_filler {
      type: "constant"
      value: 0.2
    }
  }
}
layer {
  name: "inception_4b/relu_1x1"
  type: "ReLU"
  bottom: "inception_4b/1x1"
  top: "inception_4b/1x1"
}
layer {
  name: "inception_4b/3x3_reduce"
  type: "Convolution"
  bottom: "inception_4a/output"
  top: "inception_4b/3x3_reduce"
  param {
    lr_mult: 1
    decay_mult: 1
  }
  param {
    lr_mult: 2
    decay_mult: 0
  }
  convolution_param {
    num_output: 112
    kernel_size: 1
    weight_filler {
      type: "xavier"
      std: 0.09
    }
    bias_filler {
      type: "constant"
      value: 0.2
    }
  }
}
layer {
  name: "inception_4b/relu_3x3_reduce"
  type: "ReLU"
  bottom: "inception_4b/3x3_reduce"
  top: "inception_4b/3x3_reduce"
}
layer {
  name: "inception_4b/3x3"
  type: "Convolution"
  bottom: "inception_4b/3x3_reduce"
  top: "inception_4b/3x3"
  param {
    lr_mult: 1
    decay_mult: 1
  }
  param {
    lr_mult: 2
    decay_mult: 0
  }
  convolution_param {
    num_output: 224
    pad: 1
    kernel_size: 3
    weight_filler {
      type: "xavier"
      std: 0.03
    }
    bias_filler {
      type: "constant"
      value: 0.2
    }
  }
}
layer {
  name: "inception_4b/relu_3x3"
  type: "ReLU"
  bottom: "inception_4b/3x3"
  top: "inception_4b/3x3"
}
layer {
  name: "inception_4b/5x5_reduce"
  type: "Convolution"
  bottom: "inception_4a/output"
  top: "inception_4b/5x5_reduce"
  param {
    lr_mult: 1
    decay_mult: 1
  }
  param {
    lr_mult: 2
    decay_mult: 0
  }
  convolution_param {
    num_output: 24
    kernel_size: 1
    weight_filler {
      type: "xavier"
      std: 0.2
    }
    bias_filler {
      type: "constant"
      value: 0.2
    }
  }
}
layer {
  name: "inception_4b/relu_5x5_reduce"
  type: "ReLU"
  bottom: "inception_4b/5x5_reduce"
  top: "inception_4b/5x5_reduce"
}
layer {
  name: "inception_4b/5x5"
  type: "Convolution"
  bottom: "inception_4b/5x5_reduce"
  top: "inception_4b/5x5"
  param {
    lr_mult: 1
    decay_mult: 1
  }
  param {
    lr_mult: 2
    decay_mult: 0
  }
  convolution_param {
    num_output: 64
    pad: 2
    kernel_size: 5
    weight_filler {
      type: "xavier"
      std: 0.03
    }
    bias_filler {
      type: "constant"
      value: 0.2
    }
  }
}
layer {
  name: "inception_4b/relu_5x5"
  type: "ReLU"
  bottom: "inception_4b/5x5"
  top: "inception_4b/5x5"
}
layer {
  name: "inception_4b/pool"
  type: "Pooling"
  bottom: "inception_4a/output"
  top: "inception_4b/pool"
  pooling_param {
    pool: MAX
    kernel_size: 3
    stride: 1
    pad: 1
  }
}
layer {
  name: "inception_4b/pool_proj"
  type: "Convolution"
  bottom: "inception_4b/pool"
  top: "inception_4b/pool_proj"
  param {
    lr_mult: 1
    decay_mult: 1
  }
  param {
    lr_mult: 2
    decay_mult: 0
  }
  convolution_param {
    num_output: 64
    kernel_size: 1
    weight_filler {
      type: "xavier"
      std: 0.1
    }
    bias_filler {
      type: "constant"
      value: 0.2
    }
  }
}
layer {
  name: "inception_4b/relu_pool_proj"
  type: "ReLU"
  bottom: "inception_4b/pool_proj"
  top: "inception_4b/pool_proj"
}
layer {
  name: "inception_4b/output"
  type: "Concat"
  bottom: "inception_4b/1x1"
  bottom: "inception_4b/3x3"
  bottom: "inception_4b/5x5"
  bottom: "inception_4b/pool_proj"
  top: "inception_4b/output"
}
layer {
  name: "inception_4c/1x1"
  type: "Convolution"
  bottom: "inception_4b/output"
  top: "inception_4c/1x1"
  param {
    lr_mult: 1
    decay_mult: 1
  }
  param {
    lr_mult: 2
    decay_mult: 0
  }
  convolution_param {
    num_output: 128
    kernel_size: 1
    weight_filler {
      type: "xavier"
      std: 0.03
    }
    bias_filler {
      type: "constant"
      value: 0.2
    }
  }
}
layer {
  name: "inception_4c/relu_1x1"
  type: "ReLU"
  bottom: "inception_4c/1x1"
  top: "inception_4c/1x1"
}
layer {
  name: "inception_4c/3x3_reduce"
  type: "Convolution"
  bottom: "inception_4b/output"
  top: "inception_4c/3x3_reduce"
  param {
    lr_mult: 1
    decay_mult: 1
  }
  param {
    lr_mult: 2
    decay_mult: 0
  }
  convolution_param {
    num_output: 128
    kernel_size: 1
    weight_filler {
      type: "xavier"
      std: 0.09
    }
    bias_filler {
      type: "constant"
      value: 0.2
    }
  }
}
layer {
  name: "inception_4c/relu_3x3_reduce"
  type: "ReLU"
  bottom: "inception_4c/3x3_reduce"
  top: "inception_4c/3x3_reduce"
}
layer {
  name: "inception_4c/3x3"
  type: "Convolution"
  bottom: "inception_4c/3x3_reduce"
  top: "inception_4c/3x3"
  param {
    lr_mult: 1
    decay_mult: 1
  }
  param {
    lr_mult: 2
    decay_mult: 0
  }
  convolution_param {
    num_output: 256
    pad: 1
    kernel_size: 3
    weight_filler {
      type: "xavier"
      std: 0.03
    }
    bias_filler {
      type: "constant"
      value: 0.2
    }
  }
}
layer {
  name: "inception_4c/relu_3x3"
  type: "ReLU"
  bottom: "inception_4c/3x3"
  top: "inception_4c/3x3"
}
layer {
  name: "inception_4c/5x5_reduce"
  type: "Convolution"
  bottom: "inception_4b/output"
  top: "inception_4c/5x5_reduce"
  param {
    lr_mult: 1
    decay_mult: 1
  }
  param {
    lr_mult: 2
    decay_mult: 0
  }
  convolution_param {
    num_output: 24
    kernel_size: 1
    weight_filler {
      type: "xavier"
      std: 0.2
    }
    bias_filler {
      type: "constant"
      value: 0.2
    }
  }
}
layer {
  name: "inception_4c/relu_5x5_reduce"
  type: "ReLU"
  bottom: "inception_4c/5x5_reduce"
  top: "inception_4c/5x5_reduce"
}
layer {
  name: "inception_4c/5x5"
  type: "Convolution"
  bottom: "inception_4c/5x5_reduce"
  top: "inception_4c/5x5"
  param {
    lr_mult: 1
    decay_mult: 1
  }
  param {
    lr_mult: 2
    decay_mult: 0
  }
  convolution_param {
    num_output: 64
    pad: 2
    kernel_size: 5
    weight_filler {
      type: "xavier"
      std: 0.03
    }
    bias_filler {
      type: "constant"
      value: 0.2
    }
  }
}
layer {
  name: "inception_4c/relu_5x5"
  type: "ReLU"
  bottom: "inception_4c/5x5"
  top: "inception_4c/5x5"
}
layer {
  name: "inception_4c/pool"
  type: "Pooling"
  bottom: "inception_4b/output"
  top: "inception_4c/pool"
  pooling_param {
    pool: MAX
    kernel_size: 3
    stride: 1
    pad: 1
  }
}
layer {
  name: "inception_4c/pool_proj"
  type: "Convolution"
  bottom: "inception_4c/pool"
  top: "inception_4c/pool_proj"
  param {
    lr_mult: 1
    decay_mult: 1
  }
  param {
    lr_mult: 2
    decay_mult: 0
  }
  convolution_param {
    num_output: 64
    kernel_size: 1
    weight_filler {
      type: "xavier"
      std: 0.1
    }
    bias_filler {
      type: "constant"
      value: 0.2
    }
  }
}
layer {
  name: "inception_4c/relu_pool_proj"
  type: "ReLU"
  bottom: "inception_4c/pool_proj"
  top: "inception_4c/pool_proj"
}
layer {
  name: "inception_4c/output"
  type: "Concat"
  bottom: "inception_4c/1x1"
  bottom: "inception_4c/3x3"
  bottom: "inception_4c/5x5"
  bottom: "inception_4c/pool_proj"
  top: "inception_4c/output"
}
layer {
  name: "inception_4d/1x1"
  type: "Convolution"
  bottom: "inception_4c/output"
  top: "inception_4d/1x1"
  param {
    lr_mult: 1
    decay_mult: 1
  }
  param {
    lr_mult: 2
    decay_mult: 0
  }
  convolution_param {
    num_output: 112
    kernel_size: 1
    weight_filler {
      type: "xavier"
      std: 0.03
    }
    bias_filler {
      type: "constant"
      value: 0.2
    }
  }
}
layer {
  name: "inception_4d/relu_1x1"
  type: "ReLU"
  bottom: "inception_4d/1x1"
  top: "inception_4d/1x1"
}
layer {
  name: "inception_4d/3x3_reduce"
  type: "Convolution"
  bottom: "inception_4c/output"
  top: "inception_4d/3x3_reduce"
  param {
    lr_mult: 1
    decay_mult: 1
  }
  param {
    lr_mult: 2
    decay_mult: 0
  }
  convolution_param {
    num_output: 144
    kernel_size: 1
    weight_filler {
      type: "xavier"
      std: 0.09
    }
    bias_filler {
      type: "constant"
      value: 0.2
    }
  }
}
layer {
  name: "inception_4d/relu_3x3_reduce"
  type: "ReLU"
  bottom: "inception_4d/3x3_reduce"
  top: "inception_4d/3x3_reduce"
}
layer {
  name: "inception_4d/3x3"
  type: "Convolution"
  bottom: "inception_4d/3x3_reduce"
  top: "inception_4d/3x3"
  param {
    lr_mult: 1
    decay_mult: 1
  }
  param {
    lr_mult: 2
    decay_mult: 0
  }
  convolution_param {
    num_output: 288
    pad: 1
    kernel_size: 3
    weight_filler {
      type: "xavier"
      std: 0.03
    }
    bias_filler {
      type: "constant"
      value: 0.2
    }
  }
}
layer {
  name: "inception_4d/relu_3x3"
  type: "ReLU"
  bottom: "inception_4d/3x3"
  top: "inception_4d/3x3"
}
layer {
  name: "inception_4d/5x5_reduce"
  type: "Convolution"
  bottom: "inception_4c/output"
  top: "inception_4d/5x5_reduce"
  param {
    lr_mult: 1
    decay_mult: 1
  }
  param {
    lr_mult: 2
    decay_mult: 0
  }
  convolution_param {
    num_output: 32
    kernel_size: 1
    weight_filler {
      type: "xavier"
      std: 0.2
    }
    bias_filler {
      type: "constant"
      value: 0.2
    }
  }
}
layer {
  name: "inception_4d/relu_5x5_reduce"
  type: "ReLU"
  bottom: "inception_4d/5x5_reduce"
  top: "inception_4d/5x5_reduce"
}
layer {
  name: "inception_4d/5x5"
  type: "Convolution"
  bottom: "inception_4d/5x5_reduce"
  top: "inception_4d/5x5"
  param {
    lr_mult: 1
    decay_mult: 1
  }
  param {
    lr_mult: 2
    decay_mult: 0
  }
  convolution_param {
    num_output: 64
    pad: 2
    kernel_size: 5
    weight_filler {
      type: "xavier"
      std: 0.03
    }
    bias_filler {
      type: "constant"
      value: 0.2
    }
  }
}
layer {
  name: "inception_4d/relu_5x5"
  type: "ReLU"
  bottom: "inception_4d/5x5"
  top: "inception_4d/5x5"
}
layer {
  name: "inception_4d/pool"
  type: "Pooling"
  bottom: "inception_4c/output"
  top: "inception_4d/pool"
  pooling_param {
    pool: MAX
    kernel_size: 3
    stride: 1
    pad: 1
  }
}
layer {
  name: "inception_4d/pool_proj"
  type: "Convolution"
  bottom: "inception_4d/pool"
  top: "inception_4d/pool_proj"
  param {
    lr_mult: 1
    decay_mult: 1
  }
  param {
    lr_mult: 2
    decay_mult: 0
  }
  convolution_param {
    num_output: 64
    kernel_size: 1
    weight_filler {
      type: "xavier"
      std: 0.1
    }
    bias_filler {
      type: "constant"
      value: 0.2
    }
  }
}
layer {
  name: "inception_4d/relu_pool_proj"
  type: "ReLU"
  bottom: "inception_4d/pool_proj"
  top: "inception_4d/pool_proj"
}
layer {
  name: "inception_4d/output"
  type: "Concat"
  bottom: "inception_4d/1x1"
  bottom: "inception_4d/3x3"
  bottom: "inception_4d/5x5"
  bottom: "inception_4d/pool_proj"
  top: "inception_4d/output"
}
layer {
  name: "loss2/ave_pool"
  type: "Pooling"
  bottom: "inception_4d/output"
  top: "loss2/ave_pool"
  pooling_param {
    pool: AVE
    kernel_size: 5
    stride: 3
  }
}
layer {
  name: "loss2/conv"
  type: "Convolution"
  bottom: "loss2/ave_pool"
  top: "loss2/conv"
  param {
    lr_mult: 1
    decay_mult: 1
  }
  param {
    lr_mult: 2
    decay_mult: 0
  }
  convolution_param {
    num_output: 128
    kernel_size: 1
    weight_filler {
      type: "xavier"
      std: 0.08
    }
    bias_filler {
      type: "constant"
      value: 0.2
    }
  }
}
layer {
  name: "loss2/relu_conv"
  type: "ReLU"
  bottom: "loss2/conv"
  top: "loss2/conv"
}
layer {
  name: "loss2/fc"
  type: "InnerProduct"
  bottom: "loss2/conv"
  top: "loss2/fc"
  param {
    lr_mult: 1
    decay_mult: 1
  }
  param {
    lr_mult: 2
    decay_mult: 0
  }
  inner_product_param {
    num_output: 1024
    weight_filler {
      type: "xavier"
      std: 0.02
    }
    bias_filler {
      type: "constant"
      value: 0.2
    }
  }
}
layer {
  name: "loss2/relu_fc"
  type: "ReLU"
  bottom: "loss2/fc"
  top: "loss2/fc"
}
layer {
  name: "loss2/drop_fc"
  type: "Dropout"
  bottom: "loss2/fc"
  top: "loss2/fc"
  dropout_param {
    dropout_ratio: 0.7
  }
}
layer {
  name: "loss2/classifier"
  type: "InnerProduct"
  bottom: "loss2/fc"
  top: "loss2/classifier"
  param {
    lr_mult: 1
    decay_mult: 1
  }
  param {
    lr_mult: 2
    decay_mult: 0
  }
  inner_product_param {
    num_output: 2
    weight_filler {
      type: "xavier"
      std: 0.0009765625
    }
    bias_filler {
      type: "constant"
      value: 0
    }
  }
}
layer {
  name: "loss2/loss"
  type: "SoftmaxWithLoss"
  bottom: "loss2/classifier"
  bottom: "label"
  top: "loss2/loss1"
  loss_weight: 0.3
}
layer {
  name: "inception_4e/1x1"
  type: "Convolution"
  bottom: "inception_4d/output"
  top: "inception_4e/1x1"
  param {
    lr_mult: 1
    decay_mult: 1
  }
  param {
    lr_mult: 2
    decay_mult: 0
  }
  convolution_param {
    num_output: 256
    kernel_size: 1
    weight_filler {
      type: "xavier"
      std: 0.03
    }
    bias_filler {
      type: "constant"
      value: 0.2
    }
  }
}
layer {
  name: "inception_4e/relu_1x1"
  type: "ReLU"
  bottom: "inception_4e/1x1"
  top: "inception_4e/1x1"
}
layer {
  name: "inception_4e/3x3_reduce"
  type: "Convolution"
  bottom: "inception_4d/output"
  top: "inception_4e/3x3_reduce"
  param {
    lr_mult: 1
    decay_mult: 1
  }
  param {
    lr_mult: 2
    decay_mult: 0
  }
  convolution_param {
    num_output: 160
    kernel_size: 1
    weight_filler {
      type: "xavier"
      std: 0.09
    }
    bias_filler {
      type: "constant"
      value: 0.2
    }
  }
}
layer {
  name: "inception_4e/relu_3x3_reduce"
  type: "ReLU"
  bottom: "inception_4e/3x3_reduce"
  top: "inception_4e/3x3_reduce"
}
layer {
  name: "inception_4e/3x3"
  type: "Convolution"
  bottom: "inception_4e/3x3_reduce"
  top: "inception_4e/3x3"
  param {
    lr_mult: 1
    decay_mult: 1
  }
  param {
    lr_mult: 2
    decay_mult: 0
  }
  convolution_param {
    num_output: 320
    pad: 1
    kernel_size: 3
    weight_filler {
      type: "xavier"
      std: 0.03
    }
    bias_filler {
      type: "constant"
      value: 0.2
    }
  }
}
layer {
  name: "inception_4e/relu_3x3"
  type: "ReLU"
  bottom: "inception_4e/3x3"
  top: "inception_4e/3x3"
}
layer {
  name: "inception_4e/5x5_reduce"
  type: "Convolution"
  bottom: "inception_4d/output"
  top: "inception_4e/5x5_reduce"
  param {
    lr_mult: 1
    decay_mult: 1
  }
  param {
    lr_mult: 2
    decay_mult: 0
  }
  convolution_param {
    num_output: 32
    kernel_size: 1
    weight_filler {
      type: "xavier"
      std: 0.2
    }
    bias_filler {
      type: "constant"
      value: 0.2
    }
  }
}
layer {
  name: "inception_4e/relu_5x5_reduce"
  type: "ReLU"
  bottom: "
I0511 01:20:13.729048  4331 layer_factory.hpp:74] Creating layer data
I0511 01:20:13.729085  4331 net.cpp:76] Creating Layer data
I0511 01:20:13.729099  4331 net.cpp:334] data -> data
I0511 01:20:13.729130  4331 net.cpp:334] data -> label
I0511 01:20:13.729149  4331 net.cpp:105] Setting up data
I0511 01:20:13.729264  4331 db.cpp:34] Opened lmdb train_lmdb
I0511 01:20:13.729580  4331 data_layer.cpp:67] output data size: 32,3,224,224
I0511 01:20:13.736615  4331 net.cpp:112] Top shape: 32 3 224 224 (4816896)
I0511 01:20:13.736637  4331 net.cpp:112] Top shape: 32 1 1 1 (32)
I0511 01:20:13.736647  4331 layer_factory.hpp:74] Creating layer label_data_1_split
I0511 01:20:13.736663  4331 net.cpp:76] Creating Layer label_data_1_split
I0511 01:20:13.736671  4331 net.cpp:372] label_data_1_split <- label
I0511 01:20:13.736697  4331 net.cpp:334] label_data_1_split -> label_data_1_split_0
I0511 01:20:13.736714  4331 net.cpp:334] label_data_1_split -> label_data_1_split_1
I0511 01:20:13.736724  4331 net.cpp:334] label_data_1_split -> label_data_1_split_2
I0511 01:20:13.736732  4331 net.cpp:105] Setting up label_data_1_split
I0511 01:20:13.736742  4331 net.cpp:112] Top shape: 32 1 1 1 (32)
I0511 01:20:13.736748  4331 net.cpp:112] Top shape: 32 1 1 1 (32)
I0511 01:20:13.736753  4331 net.cpp:112] Top shape: 32 1 1 1 (32)
I0511 01:20:13.736759  4331 layer_factory.hpp:74] Creating layer conv1/7x7_s2
I0511 01:20:13.736774  4331 net.cpp:76] Creating Layer conv1/7x7_s2
I0511 01:20:13.736780  4331 net.cpp:372] conv1/7x7_s2 <- data
I0511 01:20:13.736789  4331 net.cpp:334] conv1/7x7_s2 -> conv1/7x7_s2
I0511 01:20:13.736802  4331 net.cpp:105] Setting up conv1/7x7_s2
I0511 01:20:13.736927  4331 net.cpp:112] Top shape: 32 64 112 112 (25690112)
I0511 01:20:13.736974  4331 layer_factory.hpp:74] Creating layer conv1/relu_7x7
I0511 01:20:13.736984  4331 net.cpp:76] Creating Layer conv1/relu_7x7
I0511 01:20:13.736991  4331 net.cpp:372] conv1/relu_7x7 <- conv1/7x7_s2
I0511 01:20:13.736999  4331 net.cpp:323] conv1/relu_7x7 -> conv1/7x7_s2 (in-place)
I0511 01:20:13.737006  4331 net.cpp:105] Setting up conv1/relu_7x7
I0511 01:20:13.737015  4331 net.cpp:112] Top shape: 32 64 112 112 (25690112)
I0511 01:20:13.737021  4331 layer_factory.hpp:74] Creating layer pool1/3x3_s2
I0511 01:20:13.737030  4331 net.cpp:76] Creating Layer pool1/3x3_s2
I0511 01:20:13.737036  4331 net.cpp:372] pool1/3x3_s2 <- conv1/7x7_s2
I0511 01:20:13.737043  4331 net.cpp:334] pool1/3x3_s2 -> pool1/3x3_s2
I0511 01:20:13.737053  4331 net.cpp:105] Setting up pool1/3x3_s2
I0511 01:20:13.737068  4331 net.cpp:112] Top shape: 32 64 56 56 (6422528)
I0511 01:20:13.737074  4331 layer_factory.hpp:74] Creating layer pool1/norm1
I0511 01:20:13.737084  4331 net.cpp:76] Creating Layer pool1/norm1
I0511 01:20:13.737090  4331 net.cpp:372] pool1/norm1 <- pool1/3x3_s2
I0511 01:20:13.737098  4331 net.cpp:334] pool1/norm1 -> pool1/norm1
I0511 01:20:13.737108  4331 net.cpp:105] Setting up pool1/norm1
I0511 01:20:13.737115  4331 net.cpp:112] Top shape: 32 64 56 56 (6422528)
I0511 01:20:13.737121  4331 layer_factory.hpp:74] Creating layer conv2/3x3_reduce
I0511 01:20:13.737130  4331 net.cpp:76] Creating Layer conv2/3x3_reduce
I0511 01:20:13.737136  4331 net.cpp:372] conv2/3x3_reduce <- pool1/norm1
I0511 01:20:13.737144  4331 net.cpp:334] conv2/3x3_reduce -> conv2/3x3_reduce
I0511 01:20:13.737154  4331 net.cpp:105] Setting up conv2/3x3_reduce
I0511 01:20:13.737197  4331 net.cpp:112] Top shape: 32 64 56 56 (6422528)
I0511 01:20:13.737210  4331 layer_factory.hpp:74] Creating layer conv2/relu_3x3_reduce
I0511 01:20:13.737217  4331 net.cpp:76] Creating Layer conv2/relu_3x3_reduce
I0511 01:20:13.737223  4331 net.cpp:372] conv2/relu_3x3_reduce <- conv2/3x3_reduce
I0511 01:20:13.737231  4331 net.cpp:323] conv2/relu_3x3_reduce -> conv2/3x3_reduce (in-place)
I0511 01:20:13.737237  4331 net.cpp:105] Setting up conv2/relu_3x3_reduce
I0511 01:20:13.737242  4331 net.cpp:112] Top shape: 32 64 56 56 (6422528)
I0511 01:20:13.737248  4331 layer_factory.hpp:74] Creating layer conv2/3x3
I0511 01:20:13.737258  4331 net.cpp:76] Creating Layer conv2/3x3
I0511 01:20:13.737263  4331 net.cpp:372] conv2/3x3 <- conv2/3x3_reduce
I0511 01:20:13.737288  4331 net.cpp:334] conv2/3x3 -> conv2/3x3
I0511 01:20:13.737299  4331 net.cpp:105] Setting up conv2/3x3
I0511 01:20:13.738514  4331 net.cpp:112] Top shape: 32 192 56 56 (19267584)
I0511 01:20:13.738543  4331 layer_factory.hpp:74] Creating layer conv2/relu_3x3
I0511 01:20:13.738554  4331 net.cpp:76] Creating Layer conv2/relu_3x3
I0511 01:20:13.738559  4331 net.cpp:372] conv2/relu_3x3 <- conv2/3x3
I0511 01:20:13.738567  4331 net.cpp:323] conv2/relu_3x3 -> conv2/3x3 (in-place)
I0511 01:20:13.738575  4331 net.cpp:105] Setting up conv2/relu_3x3
I0511 01:20:13.738581  4331 net.cpp:112] Top shape: 32 192 56 56 (19267584)
I0511 01:20:13.738587  4331 layer_factory.hpp:74] Creating layer conv2/norm2
I0511 01:20:13.738595  4331 net.cpp:76] Creating Layer conv2/norm2
I0511 01:20:13.738600  4331 net.cpp:372] conv2/norm2 <- conv2/3x3
I0511 01:20:13.738610  4331 net.cpp:334] conv2/norm2 -> conv2/norm2
I0511 01:20:13.738620  4331 net.cpp:105] Setting up conv2/norm2
I0511 01:20:13.738626  4331 net.cpp:112] Top shape: 32 192 56 56 (19267584)
I0511 01:20:13.738631  4331 layer_factory.hpp:74] Creating layer pool2/3x3_s2
I0511 01:20:13.738638  4331 net.cpp:76] Creating Layer pool2/3x3_s2
I0511 01:20:13.738644  4331 net.cpp:372] pool2/3x3_s2 <- conv2/norm2
I0511 01:20:13.738653  4331 net.cpp:334] pool2/3x3_s2 -> pool2/3x3_s2
I0511 01:20:13.738662  4331 net.cpp:105] Setting up pool2/3x3_s2
I0511 01:20:13.738669  4331 net.cpp:112] Top shape: 32 192 28 28 (4816896)
I0511 01:20:13.738675  4331 layer_factory.hpp:74] Creating layer pool2/3x3_s2_pool2/3x3_s2_0_split
I0511 01:20:13.738682  4331 net.cpp:76] Creating Layer pool2/3x3_s2_pool2/3x3_s2_0_split
I0511 01:20:13.738711  4331 net.cpp:372] pool2/3x3_s2_pool2/3x3_s2_0_split <- pool2/3x3_s2
I0511 01:20:13.738721  4331 net.cpp:334] pool2/3x3_s2_pool2/3x3_s2_0_split -> pool2/3x3_s2_pool2/3x3_s2_0_split_0
I0511 01:20:13.738730  4331 net.cpp:334] pool2/3x3_s2_pool2/3x3_s2_0_split -> pool2/3x3_s2_pool2/3x3_s2_0_split_1
I0511 01:20:13.738745  4331 net.cpp:334] pool2/3x3_s2_pool2/3x3_s2_0_split -> pool2/3x3_s2_pool2/3x3_s2_0_split_2
I0511 01:20:13.738755  4331 net.cpp:334] pool2/3x3_s2_pool2/3x3_s2_0_split -> pool2/3x3_s2_pool2/3x3_s2_0_split_3
I0511 01:20:13.738764  4331 net.cpp:105] Setting up pool2/3x3_s2_pool2/3x3_s2_0_split
I0511 01:20:13.738770  4331 net.cpp:112] Top shape: 32 192 28 28 (4816896)
I0511 01:20:13.738775  4331 net.cpp:112] Top shape: 32 192 28 28 (4816896)
I0511 01:20:13.738780  4331 net.cpp:112] Top shape: 32 192 28 28 (4816896)
I0511 01:20:13.738785  4331 net.cpp:112] Top shape: 32 192 28 28 (4816896)
I0511 01:20:13.738790  4331 layer_factory.hpp:74] Creating layer inception_3a/1x1
I0511 01:20:13.738802  4331 net.cpp:76] Creating Layer inception_3a/1x1
I0511 01:20:13.738808  4331 net.cpp:372] inception_3a/1x1 <- pool2/3x3_s2_pool2/3x3_s2_0_split_0
I0511 01:20:13.738816  4331 net.cpp:334] inception_3a/1x1 -> inception_3a/1x1
I0511 01:20:13.738826  4331 net.cpp:105] Setting up inception_3a/1x1
I0511 01:20:13.739081  4331 net.cpp:112] Top shape: 32 64 28 28 (1605632)
I0511 01:20:13.739104  4331 layer_factory.hpp:74] Creating layer inception_3a/relu_1x1
I0511 01:20:13.739114  4331 net.cpp:76] Creating Layer inception_3a/relu_1x1
I0511 01:20:13.739120  4331 net.cpp:372] inception_3a/relu_1x1 <- inception_3a/1x1
I0511 01:20:13.739131  4331 net.cpp:323] inception_3a/relu_1x1 -> inception_3a/1x1 (in-place)
I0511 01:20:13.739140  4331 net.cpp:105] Setting up inception_3a/relu_1x1
I0511 01:20:13.739146  4331 net.cpp:112] Top shape: 32 64 28 28 (1605632)
I0511 01:20:13.739152  4331 layer_factory.hpp:74] Creating layer inception_3a/3x3_reduce
I0511 01:20:13.739161  4331 net.cpp:76] Creating Layer inception_3a/3x3_reduce
I0511 01:20:13.739167  4331 net.cpp:372] inception_3a/3x3_reduce <- pool2/3x3_s2_pool2/3x3_s2_0_split_1
I0511 01:20:13.739178  4331 net.cpp:334] inception_3a/3x3_reduce -> inception_3a/3x3_reduce
I0511 01:20:13.739188  4331 net.cpp:105] Setting up inception_3a/3x3_reduce
I0511 01:20:13.739382  4331 net.cpp:112] Top shape: 32 96 28 28 (2408448)
I0511 01:20:13.739398  4331 layer_factory.hpp:74] Creating layer inception_3a/relu_3x3_reduce
I0511 01:20:13.739410  4331 net.cpp:76] Creating Layer inception_3a/relu_3x3_reduce
I0511 01:20:13.739418  4331 net.cpp:372] inception_3a/relu_3x3_reduce <- inception_3a/3x3_reduce
I0511 01:20:13.739425  4331 net.cpp:323] inception_3a/relu_3x3_reduce -> inception_3a/3x3_reduce (in-place)
I0511 01:20:13.739434  4331 net.cpp:105] Setting up inception_3a/relu_3x3_reduce
I0511 01:20:13.739439  4331 net.cpp:112] Top shape: 32 96 28 28 (2408448)
I0511 01:20:13.739444  4331 layer_factory.hpp:74] Creating layer inception_3a/3x3
I0511 01:20:13.739454  4331 net.cpp:76] Creating Layer inception_3a/3x3
I0511 01:20:13.739461  4331 net.cpp:372] inception_3a/3x3 <- inception_3a/3x3_reduce
I0511 01:20:13.739470  4331 net.cpp:334] inception_3a/3x3 -> inception_3a/3x3
I0511 01:20:13.739478  4331 net.cpp:105] Setting up inception_3a/3x3
I0511 01:20:13.740772  4331 net.cpp:112] Top shape: 32 128 28 28 (3211264)
I0511 01:20:13.740790  4331 layer_factory.hpp:74] Creating layer inception_3a/relu_3x3
I0511 01:20:13.740799  4331 net.cpp:76] Creating Layer inception_3a/relu_3x3
I0511 01:20:13.740805  4331 net.cpp:372] inception_3a/relu_3x3 <- inception_3a/3x3
I0511 01:20:13.740815  4331 net.cpp:323] inception_3a/relu_3x3 -> inception_3a/3x3 (in-place)
I0511 01:20:13.740824  4331 net.cpp:105] Setting up inception_3a/relu_3x3
I0511 01:20:13.740829  4331 net.cpp:112] Top shape: 32 128 28 28 (3211264)
I0511 01:20:13.740835  4331 layer_factory.hpp:74] Creating layer inception_3a/5x5_reduce
I0511 01:20:13.740844  4331 net.cpp:76] Creating Layer inception_3a/5x5_reduce
I0511 01:20:13.740872  4331 net.cpp:372] inception_3a/5x5_reduce <- pool2/3x3_s2_pool2/3x3_s2_0_split_2
I0511 01:20:13.740885  4331 net.cpp:334] inception_3a/5x5_reduce -> inception_3a/5x5_reduce
I0511 01:20:13.740895  4331 net.cpp:105] Setting up inception_3a/5x5_reduce
I0511 01:20:13.740937  4331 net.cpp:112] Top shape: 32 16 28 28 (401408)
I0511 01:20:13.740948  4331 layer_factory.hpp:74] Creating layer inception_3a/relu_5x5_reduce
I0511 01:20:13.740955  4331 net.cpp:76] Creating Layer inception_3a/relu_5x5_reduce
I0511 01:20:13.740962  4331 net.cpp:372] inception_3a/relu_5x5_reduce <- inception_3a/5x5_reduce
I0511 01:20:13.740968  4331 net.cpp:323] inception_3a/relu_5x5_reduce -> inception_3a/5x5_reduce (in-place)
I0511 01:20:13.740975  4331 net.cpp:105] Setting up inception_3a/relu_5x5_reduce
I0511 01:20:13.740981  4331 net.cpp:112] Top shape: 32 16 28 28 (401408)
I0511 01:20:13.740986  4331 layer_factory.hpp:74] Creating layer inception_3a/5x5
I0511 01:20:13.740996  4331 net.cpp:76] Creating Layer inception_3a/5x5
I0511 01:20:13.741003  4331 net.cpp:372] inception_3a/5x5 <- inception_3a/5x5_reduce
I0511 01:20:13.741014  4331 net.cpp:334] inception_3a/5x5 -> inception_3a/5x5
I0511 01:20:13.741027  4331 net.cpp:105] Setting up inception_3a/5x5
I0511 01:20:13.741296  4331 net.cpp:112] Top shape: 32 32 28 28 (802816)
I0511 01:20:13.741317  4331 layer_factory.hpp:74] Creating layer inception_3a/relu_5x5
I0511 01:20:13.741325  4331 net.cpp:76] Creating Layer inception_3a/relu_5x5
I0511 01:20:13.741332  4331 net.cpp:372] inception_3a/relu_5x5 <- inception_3a/5x5
I0511 01:20:13.741343  4331 net.cpp:323] inception_3a/relu_5x5 -> inception_3a/5x5 (in-place)
I0511 01:20:13.741351  4331 net.cpp:105] Setting up inception_3a/relu_5x5
I0511 01:20:13.741356  4331 net.cpp:112] Top shape: 32 32 28 28 (802816)
I0511 01:20:13.741363  4331 layer_factory.hpp:74] Creating layer inception_3a/pool
I0511 01:20:13.741370  4331 net.cpp:76] Creating Layer inception_3a/pool
I0511 01:20:13.741379  4331 net.cpp:372] inception_3a/pool <- pool2/3x3_s2_pool2/3x3_s2_0_split_3
I0511 01:20:13.741396  4331 net.cpp:334] inception_3a/pool -> inception_3a/pool
I0511 01:20:13.741416  4331 net.cpp:105] Setting up inception_3a/pool
I0511 01:20:13.741432  4331 net.cpp:112] Top shape: 32 192 28 28 (4816896)
I0511 01:20:13.741444  4331 layer_factory.hpp:74] Creating layer inception_3a/pool_proj
I0511 01:20:13.741461  4331 net.cpp:76] Creating Layer inception_3a/pool_proj
I0511 01:20:13.741474  4331 net.cpp:372] inception_3a/pool_proj <- inception_3a/pool
I0511 01:20:13.741492  4331 net.cpp:334] inception_3a/pool_proj -> inception_3a/pool_proj
I0511 01:20:13.741507  4331 net.cpp:105] Setting up inception_3a/pool_proj
I0511 01:20:13.741611  4331 net.cpp:112] Top shape: 32 32 28 28 (802816)
I0511 01:20:13.741634  4331 layer_factory.hpp:74] Creating layer inception_3a/relu_pool_proj
I0511 01:20:13.741646  4331 net.cpp:76] Creating Layer inception_3a/relu_pool_proj
I0511 01:20:13.741652  4331 net.cpp:372] inception_3a/relu_pool_proj <- inception_3a/pool_proj
I0511 01:20:13.741658  4331 net.cpp:323] inception_3a/relu_pool_proj -> inception_3a/pool_proj (in-place)
I0511 01:20:13.741667  4331 net.cpp:105] Setting up inception_3a/relu_pool_proj
I0511 01:20:13.741672  4331 net.cpp:112] Top shape: 32 32 28 28 (802816)
I0511 01:20:13.741678  4331 layer_factory.hpp:74] Creating layer inception_3a/output
I0511 01:20:13.741688  4331 net.cpp:76] Creating Layer inception_3a/output
I0511 01:20:13.741694  4331 net.cpp:372] inception_3a/output <- inception_3a/1x1
I0511 01:20:13.741701  4331 net.cpp:372] inception_3a/output <- inception_3a/3x3
I0511 01:20:13.741708  4331 net.cpp:372] inception_3a/output <- inception_3a/5x5
I0511 01:20:13.741714  4331 net.cpp:372] inception_3a/output <- inception_3a/pool_proj
I0511 01:20:13.741720  4331 net.cpp:334] inception_3a/output -> inception_3a/output
I0511 01:20:13.741729  4331 net.cpp:105] Setting up inception_3a/output
I0511 01:20:13.741737  4331 net.cpp:112] Top shape: 32 256 28 28 (6422528)
I0511 01:20:13.741744  4331 layer_factory.hpp:74] Creating layer inception_3a/output_inception_3a/output_0_split
I0511 01:20:13.741765  4331 net.cpp:76] Creating Layer inception_3a/output_inception_3a/output_0_split
I0511 01:20:13.741772  4331 net.cpp:372] inception_3a/output_inception_3a/output_0_split <- inception_3a/output
I0511 01:20:13.741783  4331 net.cpp:334] inception_3a/output_inception_3a/output_0_split -> inception_3a/output_inception_3a/output_0_split_0
I0511 01:20:13.741793  4331 net.cpp:334] inception_3a/output_inception_3a/output_0_split -> inception_3a/output_inception_3a/output_0_split_1
I0511 01:20:13.741803  4331 net.cpp:334] inception_3a/output_inception_3a/output_0_split -> inception_3a/output_inception_3a/output_0_split_2
I0511 01:20:13.741812  4331 net.cpp:334] inception_3a/output_inception_3a/output_0_split -> inception_3a/output_inception_3a/output_0_split_3
I0511 01:20:13.741819  4331 net.cpp:105] Setting up inception_3a/output_inception_3a/output_0_split
I0511 01:20:13.741827  4331 net.cpp:112] Top shape: 32 256 28 28 (6422528)
I0511 01:20:13.741832  4331 net.cpp:112] Top shape: 32 256 28 28 (6422528)
I0511 01:20:13.741837  4331 net.cpp:112] Top shape: 32 256 28 28 (6422528)
I0511 01:20:13.741842  4331 net.cpp:112] Top shape: 32 256 28 28 (6422528)
I0511 01:20:13.741847  4331 layer_factory.hpp:74] Creating layer inception_3b/1x1
I0511 01:20:13.741866  4331 net.cpp:76] Creating Layer inception_3b/1x1
I0511 01:20:13.741873  4331 net.cpp:372] inception_3b/1x1 <- inception_3a/output_inception_3a/output_0_split_0
I0511 01:20:13.741881  4331 net.cpp:334] inception_3b/1x1 -> inception_3b/1x1
I0511 01:20:13.741890  4331 net.cpp:105] Setting up inception_3b/1x1
I0511 01:20:13.742180  4331 net.cpp:112] Top shape: 32 128 28 28 (3211264)
I0511 01:20:13.742194  4331 layer_factory.hpp:74] Creating layer inception_3b/relu_1x1
I0511 01:20:13.742205  4331 net.cpp:76] Creating Layer inception_3b/relu_1x1
I0511 01:20:13.742213  4331 net.cpp:372] inception_3b/relu_1x1 <- inception_3b/1x1
I0511 01:20:13.742219  4331 net.cpp:323] inception_3b/relu_1x1 -> inception_3b/1x1 (in-place)
I0511 01:20:13.742228  4331 net.cpp:105] Setting up inception_3b/relu_1x1
I0511 01:20:13.742233  4331 net.cpp:112] Top shape: 32 128 28 28 (3211264)
I0511 01:20:13.742238  4331 layer_factory.hpp:74] Creating layer inception_3b/3x3_reduce
I0511 01:20:13.742249  4331 net.cpp:76] Creating Layer inception_3b/3x3_reduce
I0511 01:20:13.742255  4331 net.cpp:372] inception_3b/3x3_reduce <- inception_3a/output_inception_3a/output_0_split_1
I0511 01:20:13.742264  4331 net.cpp:334] inception_3b/3x3_reduce -> inception_3b/3x3_reduce
I0511 01:20:13.742291  4331 net.cpp:105] Setting up inception_3b/3x3_reduce
I0511 01:20:13.742616  4331 net.cpp:112] Top shape: 32 128 28 28 (3211264)
I0511 01:20:13.742632  4331 layer_factory.hpp:74] Creating layer inception_3b/relu_3x3_reduce
I0511 01:20:13.742641  4331 net.cpp:76] Creating Layer inception_3b/relu_3x3_reduce
I0511 01:20:13.742647  4331 net.cpp:372] inception_3b/relu_3x3_reduce <- inception_3b/3x3_reduce
I0511 01:20:13.742657  4331 net.cpp:323] inception_3b/relu_3x3_reduce -> inception_3b/3x3_reduce (in-place)
I0511 01:20:13.742666  4331 net.cpp:105] Setting up inception_3b/relu_3x3_reduce
I0511 01:20:13.742671  4331 net.cpp:112] Top shape: 32 128 28 28 (3211264)
I0511 01:20:13.742677  4331 layer_factory.hpp:74] Creating layer inception_3b/3x3
I0511 01:20:13.742691  4331 net.cpp:76] Creating Layer inception_3b/3x3
I0511 01:20:13.742697  4331 net.cpp:372] inception_3b/3x3 <- inception_3b/3x3_reduce
I0511 01:20:13.742704  4331 net.cpp:334] inception_3b/3x3 -> inception_3b/3x3
I0511 01:20:13.742713  4331 net.cpp:105] Setting up inception_3b/3x3
I0511 01:20:13.744940  4331 net.cpp:112] Top shape: 32 192 28 28 (4816896)
I0511 01:20:13.744971  4331 layer_factory.hpp:74] Creating layer inception_3b/relu_3x3
I0511 01:20:13.744999  4331 net.cpp:76] Creating Layer inception_3b/relu_3x3
I0511 01:20:13.745015  4331 net.cpp:372] inception_3b/relu_3x3 <- inception_3b/3x3
I0511 01:20:13.745030  4331 net.cpp:323] inception_3b/relu_3x3 -> inception_3b/3x3 (in-place)
I0511 01:20:13.745079  4331 net.cpp:105] Setting up inception_3b/relu_3x3
I0511 01:20:13.745090  4331 net.cpp:112] Top shape: 32 192 28 28 (4816896)
I0511 01:20:13.745102  4331 layer_factory.hpp:74] Creating layer inception_3b/5x5_reduce
I0511 01:20:13.745123  4331 net.cpp:76] Creating Layer inception_3b/5x5_reduce
I0511 01:20:13.745136  4331 net.cpp:372] inception_3b/5x5_reduce <- inception_3a/output_inception_3a/output_0_split_2
I0511 01:20:13.745151  4331 net.cpp:334] inception_3b/5x5_reduce -> inception_3b/5x5_reduce
I0511 01:20:13.745174  4331 net.cpp:105] Setting up inception_3b/5x5_reduce
I0511 01:20:13.745318  4331 net.cpp:112] Top shape: 32 32 28 28 (802816)
I0511 01:20:13.745342  4331 layer_factory.hpp:74] Creating layer inception_3b/relu_5x5_reduce
I0511 01:20:13.745357  4331 net.cpp:76] Creating Layer inception_3b/relu_5x5_reduce
I0511 01:20:13.745368  4331 net.cpp:372] inception_3b/relu_5x5_reduce <- inception_3b/5x5_reduce
I0511 01:20:13.745386  4331 net.cpp:323] inception_3b/relu_5x5_reduce -> inception_3b/5x5_reduce (in-place)
I0511 01:20:13.745403  4331 net.cpp:105] Setting up inception_3b/relu_5x5_reduce
I0511 01:20:13.745414  4331 net.cpp:112] Top shape: 32 32 28 28 (802816)
I0511 01:20:13.745424  4331 layer_factory.hpp:74] Creating layer inception_3b/5x5
I0511 01:20:13.745440  4331 net.cpp:76] Creating Layer inception_3b/5x5
I0511 01:20:13.745450  4331 net.cpp:372] inception_3b/5x5 <- inception_3b/5x5_reduce
I0511 01:20:13.745470  4331 net.cpp:334] inception_3b/5x5 -> inception_3b/5x5
I0511 01:20:13.745492  4331 net.cpp:105] Setting up inception_3b/5x5
I0511 01:20:13.746304  4331 net.cpp:112] Top shape: 32 96 28 28 (2408448)
I0511 01:20:13.746320  4331 layer_factory.hpp:74] Creating layer inception_3b/relu_5x5
I0511 01:20:13.746328  4331 net.cpp:76] Creating Layer inception_3b/relu_5x5
I0511 01:20:13.746335  4331 net.cpp:372] inception_3b/relu_5x5 <- inception_3b/5x5
I0511 01:20:13.746345  4331 net.cpp:323] inception_3b/relu_5x5 -> inception_3b/5x5 (in-place)
I0511 01:20:13.746352  4331 net.cpp:105] Setting up inception_3b/relu_5x5
I0511 01:20:13.746358  4331 net.cpp:112] Top shape: 32 96 28 28 (2408448)
I0511 01:20:13.746363  4331 layer_factory.hpp:74] Creating layer inception_3b/pool
I0511 01:20:13.746372  4331 net.cpp:76] Creating Layer inception_3b/pool
I0511 01:20:13.746377  4331 net.cpp:372] inception_3b/pool <- inception_3a/output_inception_3a/output_0_split_3
I0511 01:20:13.746388  4331 net.cpp:334] inception_3b/pool -> inception_3b/pool
I0511 01:20:13.746397  4331 net.cpp:105] Setting up inception_3b/pool
I0511 01:20:13.746405  4331 net.cpp:112] Top shape: 32 256 28 28 (6422528)
I0511 01:20:13.746412  4331 layer_factory.hpp:74] Creating layer inception_3b/pool_proj
I0511 01:20:13.746420  4331 net.cpp:76] Creating Layer inception_3b/pool_proj
I0511 01:20:13.746425  4331 net.cpp:372] inception_3b/pool_proj <- inception_3b/pool
I0511 01:20:13.746436  4331 net.cpp:334] inception_3b/pool_proj -> inception_3b/pool_proj
I0511 01:20:13.746445  4331 net.cpp:105] Setting up inception_3b/pool_proj
I0511 01:20:13.746604  4331 net.cpp:112] Top shape: 32 64 28 28 (1605632)
I0511 01:20:13.746618  4331 layer_factory.hpp:74] Creating layer inception_3b/relu_pool_proj
I0511 01:20:13.746626  4331 net.cpp:76] Creating Layer inception_3b/relu_pool_proj
I0511 01:20:13.746633  4331 net.cpp:372] inception_3b/relu_pool_proj <- inception_3b/pool_proj
I0511 01:20:13.746640  4331 net.cpp:323] inception_3b/relu_pool_proj -> inception_3b/pool_proj (in-place)
I0511 01:20:13.746649  4331 net.cpp:105] Setting up inception_3b/relu_pool_proj
I0511 01:20:13.746654  4331 net.cpp:112] Top shape: 32 64 28 28 (1605632)
I0511 01:20:13.746659  4331 layer_factory.hpp:74] Creating layer inception_3b/output
I0511 01:20:13.746670  4331 net.cpp:76] Creating Layer inception_3b/output
I0511 01:20:13.746675  4331 net.cpp:372] inception_3b/output <- inception_3b/1x1
I0511 01:20:13.746682  4331 net.cpp:372] inception_3b/output <- inception_3b/3x3
I0511 01:20:13.746688  4331 net.cpp:372] inception_3b/output <- inception_3b/5x5
I0511 01:20:13.746711  4331 net.cpp:372] inception_3b/output <- inception_3b/pool_proj
I0511 01:20:13.746719  4331 net.cpp:334] inception_3b/output -> inception_3b/output
I0511 01:20:13.746727  4331 net.cpp:105] Setting up inception_3b/output
I0511 01:20:13.746734  4331 net.cpp:112] Top shape: 32 480 28 28 (12042240)
I0511 01:20:13.746740  4331 layer_factory.hpp:74] Creating layer pool3/3x3_s2
I0511 01:20:13.746748  4331 net.cpp:76] Creating Layer pool3/3x3_s2
I0511 01:20:13.746753  4331 net.cpp:372] pool3/3x3_s2 <- inception_3b/output
I0511 01:20:13.746764  4331 net.cpp:334] pool3/3x3_s2 -> pool3/3x3_s2
I0511 01:20:13.746773  4331 net.cpp:105] Setting up pool3/3x3_s2
I0511 01:20:13.746779  4331 net.cpp:112] Top shape: 32 480 14 14 (3010560)
I0511 01:20:13.746785  4331 layer_factory.hpp:74] Creating layer pool3/3x3_s2_pool3/3x3_s2_0_split
I0511 01:20:13.746794  4331 net.cpp:76] Creating Layer pool3/3x3_s2_pool3/3x3_s2_0_split
I0511 01:20:13.746799  4331 net.cpp:372] pool3/3x3_s2_pool3/3x3_s2_0_split <- pool3/3x3_s2
I0511 01:20:13.746806  4331 net.cpp:334] pool3/3x3_s2_pool3/3x3_s2_0_split -> pool3/3x3_s2_pool3/3x3_s2_0_split_0
I0511 01:20:13.746817  4331 net.cpp:334] pool3/3x3_s2_pool3/3x3_s2_0_split -> pool3/3x3_s2_pool3/3x3_s2_0_split_1
I0511 01:20:13.746826  4331 net.cpp:334] pool3/3x3_s2_pool3/3x3_s2_0_split -> pool3/3x3_s2_pool3/3x3_s2_0_split_2
I0511 01:20:13.746835  4331 net.cpp:334] pool3/3x3_s2_pool3/3x3_s2_0_split -> pool3/3x3_s2_pool3/3x3_s2_0_split_3
I0511 01:20:13.746842  4331 net.cpp:105] Setting up pool3/3x3_s2_pool3/3x3_s2_0_split
I0511 01:20:13.746850  4331 net.cpp:112] Top shape: 32 480 14 14 (3010560)
I0511 01:20:13.746855  4331 net.cpp:112] Top shape: 32 480 14 14 (3010560)
I0511 01:20:13.746860  4331 net.cpp:112] Top shape: 32 480 14 14 (3010560)
I0511 01:20:13.746865  4331 net.cpp:112] Top shape: 32 480 14 14 (3010560)
I0511 01:20:13.746870  4331 layer_factory.hpp:74] Creating layer inception_4a/1x1
I0511 01:20:13.746878  4331 net.cpp:76] Creating Layer inception_4a/1x1
I0511 01:20:13.746884  4331 net.cpp:372] inception_4a/1x1 <- pool3/3x3_s2_pool3/3x3_s2_0_split_0
I0511 01:20:13.746898  4331 net.cpp:334] inception_4a/1x1 -> inception_4a/1x1
I0511 01:20:13.746907  4331 net.cpp:105] Setting up inception_4a/1x1
I0511 01:20:13.747721  4331 net.cpp:112] Top shape: 32 192 14 14 (1204224)
I0511 01:20:13.747737  4331 layer_factory.hpp:74] Creating layer inception_4a/relu_1x1
I0511 01:20:13.747746  4331 net.cpp:76] Creating Layer inception_4a/relu_1x1
I0511 01:20:13.747774  4331 net.cpp:372] inception_4a/relu_1x1 <- inception_4a/1x1
I0511 01:20:13.747786  4331 net.cpp:323] inception_4a/relu_1x1 -> inception_4a/1x1 (in-place)
I0511 01:20:13.747795  4331 net.cpp:105] Setting up inception_4a/relu_1x1
I0511 01:20:13.747800  4331 net.cpp:112] Top shape: 32 192 14 14 (1204224)
I0511 01:20:13.747807  4331 layer_factory.hpp:74] Creating layer inception_4a/3x3_reduce
I0511 01:20:13.747815  4331 net.cpp:76] Creating Layer inception_4a/3x3_reduce
I0511 01:20:13.747822  4331 net.cpp:372] inception_4a/3x3_reduce <- pool3/3x3_s2_pool3/3x3_s2_0_split_1
I0511 01:20:13.747831  4331 net.cpp:334] inception_4a/3x3_reduce -> inception_4a/3x3_reduce
I0511 01:20:13.747840  4331 net.cpp:105] Setting up inception_4a/3x3_reduce
I0511 01:20:13.748251  4331 net.cpp:112] Top shape: 32 96 14 14 (602112)
I0511 01:20:13.748286  4331 layer_factory.hpp:74] Creating layer inception_4a/relu_3x3_reduce
I0511 01:20:13.748296  4331 net.cpp:76] Creating Layer inception_4a/relu_3x3_reduce
I0511 01:20:13.748301  4331 net.cpp:372] inception_4a/relu_3x3_reduce <- inception_4a/3x3_reduce
I0511 01:20:13.748309  4331 net.cpp:323] inception_4a/relu_3x3_reduce -> inception_4a/3x3_reduce (in-place)
I0511 01:20:13.748317  4331 net.cpp:105] Setting up inception_4a/relu_3x3_reduce
I0511 01:20:13.748323  4331 net.cpp:112] Top shape: 32 96 14 14 (602112)
I0511 01:20:13.748328  4331 layer_factory.hpp:74] Creating layer inception_4a/3x3
I0511 01:20:13.748337  4331 net.cpp:76] Creating Layer inception_4a/3x3
I0511 01:20:13.748342  4331 net.cpp:372] inception_4a/3x3 <- inception_4a/3x3_reduce
I0511 01:20:13.748368  4331 net.cpp:334] inception_4a/3x3 -> inception_4a/3x3
I0511 01:20:13.748379  4331 net.cpp:105] Setting up inception_4a/3x3
I0511 01:20:13.749896  4331 net.cpp:112] Top shape: 32 208 14 14 (1304576)
I0511 01:20:13.749912  4331 layer_factory.hpp:74] Creating layer inception_4a/relu_3x3
I0511 01:20:13.749919  4331 net.cpp:76] Creating Layer inception_4a/relu_3x3
I0511 01:20:13.749925  4331 net.cpp:372] inception_4a/relu_3x3 <- inception_4a/3x3
I0511 01:20:13.749934  4331 net.cpp:323] inception_4a/relu_3x3 -> inception_4a/3x3 (in-place)
I0511 01:20:13.749943  4331 net.cpp:105] Setting up inception_4a/relu_3x3
I0511 01:20:13.749948  4331 net.cpp:112] Top shape: 32 208 14 14 (1304576)
I0511 01:20:13.749954  4331 layer_factory.hpp:74] Creating layer inception_4a/5x5_reduce
I0511 01:20:13.749963  4331 net.cpp:76] Creating Layer inception_4a/5x5_reduce
I0511 01:20:13.749969  4331 net.cpp:372] inception_4a/5x5_reduce <- pool3/3x3_s2_pool3/3x3_s2_0_split_2
I0511 01:20:13.749979  4331 net.cpp:334] inception_4a/5x5_reduce -> inception_4a/5x5_reduce
I0511 01:20:13.749989  4331 net.cpp:105] Setting up inception_4a/5x5_reduce
I0511 01:20:13.750062  4331 net.cpp:112] Top shape: 32 16 14 14 (100352)
I0511 01:20:13.750073  4331 layer_factory.hpp:74] Creating layer inception_4a/relu_5x5_reduce
I0511 01:20:13.750083  4331 net.cpp:76] Creating Layer inception_4a/relu_5x5_reduce
I0511 01:20:13.750092  4331 net.cpp:372] inception_4a/relu_5x5_reduce <- inception_4a/5x5_reduce
I0511 01:20:13.750099  4331 net.cpp:323] inception_4a/relu_5x5_reduce -> inception_4a/5x5_reduce (in-place)
I0511 01:20:13.750108  4331 net.cpp:105] Setting up inception_4a/relu_5x5_reduce
I0511 01:20:13.750113  4331 net.cpp:112] Top shape: 32 16 14 14 (100352)
I0511 01:20:13.750118  4331 layer_factory.hpp:74] Creating layer inception_4a/5x5
I0511 01:20:13.750128  4331 net.cpp:76] Creating Layer inception_4a/5x5
I0511 01:20:13.750136  4331 net.cpp:372] inception_4a/5x5 <- inception_4a/5x5_reduce
I0511 01:20:13.750145  4331 net.cpp:334] inception_4a/5x5 -> inception_4a/5x5
I0511 01:20:13.750154  4331 net.cpp:105] Setting up inception_4a/5x5
I0511 01:20:13.750358  4331 net.cpp:112] Top shape: 32 48 14 14 (301056)
I0511 01:20:13.750372  4331 layer_factory.hpp:74] Creating layer inception_4a/relu_5x5
I0511 01:20:13.750385  4331 net.cpp:76] Creating Layer inception_4a/relu_5x5
I0511 01:20:13.751086  4331 net.cpp:372] inception_4a/relu_5x5 <- inception_4a/5x5
I0511 01:20:13.751101  4331 net.cpp:323] inception_4a/relu_5x5 -> inception_4a/5x5 (in-place)
I0511 01:20:13.751109  4331 net.cpp:105] Setting up inception_4a/relu_5x5
I0511 01:20:13.751116  4331 net.cpp:112] Top shape: 32 48 14 14 (301056)
I0511 01:20:13.751121  4331 layer_factory.hpp:74] Creating layer inception_4a/pool
I0511 01:20:13.751130  4331 net.cpp:76] Creating Layer inception_4a/pool
I0511 01:20:13.751137  4331 net.cpp:372] inception_4a/pool <- pool3/3x3_s2_pool3/3x3_s2_0_split_3
I0511 01:20:13.751149  4331 net.cpp:334] inception_4a/pool -> inception_4a/pool
I0511 01:20:13.751159  4331 net.cpp:105] Setting up inception_4a/pool
I0511 01:20:13.751168  4331 net.cpp:112] Top shape: 32 480 14 14 (3010560)
I0511 01:20:13.751173  4331 layer_factory.hpp:74] Creating layer inception_4a/pool_proj
I0511 01:20:13.751183  4331 net.cpp:76] Creating Layer inception_4a/pool_proj
I0511 01:20:13.751188  4331 net.cpp:372] inception_4a/pool_proj <- inception_4a/pool
I0511 01:20:13.751204  4331 net.cpp:334] inception_4a/pool_proj -> inception_4a/pool_proj
I0511 01:20:13.751224  4331 net.cpp:105] Setting up inception_4a/pool_proj
I0511 01:20:13.751567  4331 net.cpp:112] Top shape: 32 64 14 14 (401408)
I0511 01:20:13.751584  4331 layer_factory.hpp:74] Creating layer inception_4a/relu_pool_proj
I0511 01:20:13.751592  4331 net.cpp:76] Creating Layer inception_4a/relu_pool_proj
I0511 01:20:13.751600  4331 net.cpp:372] inception_4a/relu_pool_proj <- inception_4a/pool_proj
I0511 01:20:13.751607  4331 net.cpp:323] inception_4a/relu_pool_proj -> inception_4a/pool_proj (in-place)
I0511 01:20:13.751653  4331 net.cpp:105] Setting up inception_4a/relu_pool_proj
I0511 01:20:13.751664  4331 net.cpp:112] Top shape: 32 64 14 14 (401408)
I0511 01:20:13.751670  4331 layer_factory.hpp:74] Creating layer inception_4a/output
I0511 01:20:13.751679  4331 net.cpp:76] Creating Layer inception_4a/output
I0511 01:20:13.751688  4331 net.cpp:372] inception_4a/output <- inception_4a/1x1
I0511 01:20:13.751696  4331 net.cpp:372] inception_4a/output <- inception_4a/3x3
I0511 01:20:13.751711  4331 net.cpp:372] inception_4a/output <- inception_4a/5x5
I0511 01:20:13.751725  4331 net.cpp:372] inception_4a/output <- inception_4a/pool_proj
I0511 01:20:13.751752  4331 net.cpp:334] inception_4a/output -> inception_4a/output
I0511 01:20:13.751773  4331 net.cpp:105] Setting up inception_4a/output
I0511 01:20:13.751786  4331 net.cpp:112] Top shape: 32 512 14 14 (3211264)
I0511 01:20:13.751797  4331 layer_factory.hpp:74] Creating layer inception_4a/output_inception_4a/output_0_split
I0511 01:20:13.751807  4331 net.cpp:76] Creating Layer inception_4a/output_inception_4a/output_0_split
I0511 01:20:13.751814  4331 net.cpp:372] inception_4a/output_inception_4a/output_0_split <- inception_4a/output
I0511 01:20:13.751828  4331 net.cpp:334] inception_4a/output_inception_4a/output_0_split -> inception_4a/output_inception_4a/output_0_split_0
I0511 01:20:13.751848  4331 net.cpp:334] inception_4a/output_inception_4a/output_0_split -> inception_4a/output_inception_4a/output_0_split_1
I0511 01:20:13.751869  4331 net.cpp:334] inception_4a/output_inception_4a/output_0_split -> inception_4a/output_inception_4a/output_0_split_2
I0511 01:20:13.751891  4331 net.cpp:334] inception_4a/output_inception_4a/output_0_split -> inception_4a/output_inception_4a/output_0_split_3
I0511 01:20:13.751910  4331 net.cpp:334] inception_4a/output_inception_4a/output_0_split -> inception_4a/output_inception_4a/output_0_split_4
I0511 01:20:13.751927  4331 net.cpp:105] Setting up inception_4a/output_inception_4a/output_0_split
I0511 01:20:13.751942  4331 net.cpp:112] Top shape: 32 512 14 14 (3211264)
I0511 01:20:13.751953  4331 net.cpp:112] Top shape: 32 512 14 14 (3211264)
I0511 01:20:13.751963  4331 net.cpp:112] Top shape: 32 512 14 14 (3211264)
I0511 01:20:13.751973  4331 net.cpp:112] Top shape: 32 512 14 14 (3211264)
I0511 01:20:13.751982  4331 net.cpp:112] Top shape: 32 512 14 14 (3211264)
I0511 01:20:13.751993  4331 layer_factory.hpp:74] Creating layer loss1/ave_pool
I0511 01:20:13.752013  4331 net.cpp:76] Creating Layer loss1/ave_pool
I0511 01:20:13.752024  4331 net.cpp:372] loss1/ave_pool <- inception_4a/output_inception_4a/output_0_split_0
I0511 01:20:13.752034  4331 net.cpp:334] loss1/ave_pool -> loss1/ave_pool
I0511 01:20:13.752043  4331 net.cpp:105] Setting up loss1/ave_pool
I0511 01:20:13.752049  4331 net.cpp:112] Top shape: 32 512 4 4 (262144)
I0511 01:20:13.752055  4331 layer_factory.hpp:74] Creating layer loss1/conv
I0511 01:20:13.752068  4331 net.cpp:76] Creating Layer loss1/conv
I0511 01:20:13.752074  4331 net.cpp:372] loss1/conv <- loss1/ave_pool
I0511 01:20:13.752081  4331 net.cpp:334] loss1/conv -> loss1/conv
I0511 01:20:13.752089  4331 net.cpp:105] Setting up loss1/conv
I0511 01:20:13.752740  4331 net.cpp:112] Top shape: 32 128 4 4 (65536)
I0511 01:20:13.752758  4331 layer_factory.hpp:74] Creating layer loss1/relu_conv
I0511 01:20:13.752766  4331 net.cpp:76] Creating Layer loss1/relu_conv
I0511 01:20:13.752774  4331 net.cpp:372] loss1/relu_conv <- loss1/conv
I0511 01:20:13.752780  4331 net.cpp:323] loss1/relu_conv -> loss1/conv (in-place)
I0511 01:20:13.752790  4331 net.cpp:105] Setting up loss1/relu_conv
I0511 01:20:13.752796  4331 net.cpp:112] Top shape: 32 128 4 4 (65536)
I0511 01:20:13.752802  4331 layer_factory.hpp:74] Creating layer loss1/fc
I0511 01:20:13.752821  4331 net.cpp:76] Creating Layer loss1/fc
I0511 01:20:13.752835  4331 net.cpp:372] loss1/fc <- loss1/conv
I0511 01:20:13.752851  4331 net.cpp:334] loss1/fc -> loss1/fc
I0511 01:20:13.752874  4331 net.cpp:105] Setting up loss1/fc
I0511 01:20:13.771648  4331 net.cpp:112] Top shape: 32 1024 1 1 (32768)
I0511 01:20:13.771730  4331 layer_factory.hpp:74] Creating layer loss1/relu_fc
I0511 01:20:13.771749  4331 net.cpp:76] Creating Layer loss1/relu_fc
I0511 01:20:13.771757  4331 net.cpp:372] loss1/relu_fc <- loss1/fc
I0511 01:20:13.771769  4331 net.cpp:323] loss1/relu_fc -> loss1/fc (in-place)
I0511 01:20:13.771780  4331 net.cpp:105] Setting up loss1/relu_fc
I0511 01:20:13.771785  4331 net.cpp:112] Top shape: 32 1024 1 1 (32768)
I0511 01:20:13.771791  4331 layer_factory.hpp:74] Creating layer loss1/drop_fc
I0511 01:20:13.771814  4331 net.cpp:76] Creating Layer loss1/drop_fc
I0511 01:20:13.771821  4331 net.cpp:372] loss1/drop_fc <- loss1/fc
I0511 01:20:13.771828  4331 net.cpp:323] loss1/drop_fc -> loss1/fc (in-place)
I0511 01:20:13.771845  4331 net.cpp:105] Setting up loss1/drop_fc
I0511 01:20:13.771857  4331 net.cpp:112] Top shape: 32 1024 1 1 (32768)
I0511 01:20:13.771863  4331 layer_factory.hpp:74] Creating layer loss1/classifier
I0511 01:20:13.771877  4331 net.cpp:76] Creating Layer loss1/classifier
I0511 01:20:13.771883  4331 net.cpp:372] loss1/classifier <- loss1/fc
I0511 01:20:13.771893  4331 net.cpp:334] loss1/classifier -> loss1/classifier
I0511 01:20:13.771903  4331 net.cpp:105] Setting up loss1/classifier
I0511 01:20:13.771936  4331 net.cpp:112] Top shape: 32 2 1 1 (64)
I0511 01:20:13.771946  4331 layer_factory.hpp:74] Creating layer loss1/loss
I0511 01:20:13.771958  4331 net.cpp:76] Creating Layer loss1/loss
I0511 01:20:13.771965  4331 net.cpp:372] loss1/loss <- loss1/classifier
I0511 01:20:13.771972  4331 net.cpp:372] loss1/loss <- label_data_1_split_0
I0511 01:20:13.771981  4331 net.cpp:334] loss1/loss -> loss1/loss1
I0511 01:20:13.771991  4331 net.cpp:105] Setting up loss1/loss
I0511 01:20:13.772004  4331 layer_factory.hpp:74] Creating layer loss1/loss
I0511 01:20:13.772023  4331 net.cpp:112] Top shape: 1 1 1 1 (1)
I0511 01:20:13.772029  4331 net.cpp:118]     with loss weight 0.3
I0511 01:20:13.772069  4331 layer_factory.hpp:74] Creating layer inception_4b/1x1
I0511 01:20:13.772081  4331 net.cpp:76] Creating Layer inception_4b/1x1
I0511 01:20:13.772089  4331 net.cpp:372] inception_4b/1x1 <- inception_4a/output_inception_4a/output_0_split_1
I0511 01:20:13.772107  4331 net.cpp:334] inception_4b/1x1 -> inception_4b/1x1
I0511 01:20:13.772117  4331 net.cpp:105] Setting up inception_4b/1x1
I0511 01:20:13.772852  4331 net.cpp:112] Top shape: 32 160 14 14 (1003520)
I0511 01:20:13.772869  4331 layer_factory.hpp:74] Creating layer inception_4b/relu_1x1
I0511 01:20:13.772878  4331 net.cpp:76] Creating Layer inception_4b/relu_1x1
I0511 01:20:13.772884  4331 net.cpp:372] inception_4b/relu_1x1 <- inception_4b/1x1
I0511 01:20:13.772891  4331 net.cpp:323] inception_4b/relu_1x1 -> inception_4b/1x1 (in-place)
I0511 01:20:13.772899  4331 net.cpp:105] Setting up inception_4b/relu_1x1
I0511 01:20:13.772905  4331 net.cpp:112] Top shape: 32 160 14 14 (1003520)
I0511 01:20:13.772910  4331 layer_factory.hpp:74] Creating layer inception_4b/3x3_reduce
I0511 01:20:13.772922  4331 net.cpp:76] Creating Layer inception_4b/3x3_reduce
I0511 01:20:13.772928  4331 net.cpp:372] inception_4b/3x3_reduce <- inception_4a/output_inception_4a/output_0_split_2
I0511 01:20:13.772938  4331 net.cpp:334] inception_4b/3x3_reduce -> inception_4b/3x3_reduce
I0511 01:20:13.772946  4331 net.cpp:105] Setting up inception_4b/3x3_reduce
I0511 01:20:13.773450  4331 net.cpp:112] Top shape: 32 112 14 14 (702464)
I0511 01:20:13.773464  4331 layer_factory.hpp:74] Creating layer inception_4b/relu_3x3_reduce
I0511 01:20:13.773473  4331 net.cpp:76] Creating Layer inception_4b/relu_3x3_reduce
I0511 01:20:13.773479  4331 net.cpp:372] inception_4b/relu_3x3_reduce <- inception_4b/3x3_reduce
I0511 01:20:13.773489  4331 net.cpp:323] inception_4b/relu_3x3_reduce -> inception_4b/3x3_reduce (in-place)
I0511 01:20:13.773497  4331 net.cpp:105] Setting up inception_4b/relu_3x3_reduce
I0511 01:20:13.773502  4331 net.cpp:112] Top shape: 32 112 14 14 (702464)
I0511 01:20:13.773509  4331 layer_factory.hpp:74] Creating layer inception_4b/3x3
I0511 01:20:13.773516  4331 net.cpp:76] Creating Layer inception_4b/3x3
I0511 01:20:13.773535  4331 net.cpp:372] inception_4b/3x3 <- inception_4b/3x3_reduce
I0511 01:20:13.773546  4331 net.cpp:334] inception_4b/3x3 -> inception_4b/3x3
I0511 01:20:13.773556  4331 net.cpp:105] Setting up inception_4b/3x3
I0511 01:20:13.775456  4331 net.cpp:112] Top shape: 32 224 14 14 (1404928)
I0511 01:20:13.775472  4331 layer_factory.hpp:74] Creating layer inception_4b/relu_3x3
I0511 01:20:13.775481  4331 net.cpp:76] Creating Layer inception_4b/relu_3x3
I0511 01:20:13.775487  4331 net.cpp:372] inception_4b/relu_3x3 <- inception_4b/3x3
I0511 01:20:13.775496  4331 net.cpp:323] inception_4b/relu_3x3 -> inception_4b/3x3 (in-place)
I0511 01:20:13.775506  4331 net.cpp:105] Setting up inception_4b/relu_3x3
I0511 01:20:13.775511  4331 net.cpp:112] Top shape: 32 224 14 14 (1404928)
I0511 01:20:13.775516  4331 layer_factory.hpp:74] Creating layer inception_4b/5x5_reduce
I0511 01:20:13.775524  4331 net.cpp:76] Creating Layer inception_4b/5x5_reduce
I0511 01:20:13.775531  4331 net.cpp:372] inception_4b/5x5_reduce <- inception_4a/output_inception_4a/output_0_split_3
I0511 01:20:13.775540  4331 net.cpp:334] inception_4b/5x5_reduce -> inception_4b/5x5_reduce
I0511 01:20:13.775550  4331 net.cpp:105] Setting up inception_4b/5x5_reduce
I0511 01:20:13.775661  4331 net.cpp:112] Top shape: 32 24 14 14 (150528)
I0511 01:20:13.775672  4331 layer_factory.hpp:74] Creating layer inception_4b/relu_5x5_reduce
I0511 01:20:13.775686  4331 net.cpp:76] Creating Layer inception_4b/relu_5x5_reduce
I0511 01:20:13.775692  4331 net.cpp:372] inception_4b/relu_5x5_reduce <- inception_4b/5x5_reduce
I0511 01:20:13.775699  4331 net.cpp:323] inception_4b/relu_5x5_reduce -> inception_4b/5x5_reduce (in-place)
I0511 01:20:13.775707  4331 net.cpp:105] Setting up inception_4b/relu_5x5_reduce
I0511 01:20:13.775712  4331 net.cpp:112] Top shape: 32 24 14 14 (150528)
I0511 01:20:13.775718  4331 layer_factory.hpp:74] Creating layer inception_4b/5x5
I0511 01:20:13.775728  4331 net.cpp:76] Creating Layer inception_4b/5x5
I0511 01:20:13.775734  4331 net.cpp:372] inception_4b/5x5 <- inception_4b/5x5_reduce
I0511 01:20:13.775743  4331 net.cpp:334] inception_4b/5x5 -> inception_4b/5x5
I0511 01:20:13.775751  4331 net.cpp:105] Setting up inception_4b/5x5
I0511 01:20:13.776087  4331 net.cpp:112] Top shape: 32 64 14 14 (401408)
I0511 01:20:13.776100  4331 layer_factory.hpp:74] Creating layer inception_4b/relu_5x5
I0511 01:20:13.776108  4331 net.cpp:76] Creating Layer inception_4b/relu_5x5
I0511 01:20:13.776114  4331 net.cpp:372] inception_4b/relu_5x5 <- inception_4b/5x5
I0511 01:20:13.776121  4331 net.cpp:323] inception_4b/relu_5x5 -> inception_4b/5x5 (in-place)
I0511 01:20:13.776129  4331 net.cpp:105] Setting up inception_4b/relu_5x5
I0511 01:20:13.776134  4331 net.cpp:112] Top shape: 32 64 14 14 (401408)
I0511 01:20:13.776140  4331 layer_factory.hpp:74] Creating layer inception_4b/pool
I0511 01:20:13.776151  4331 net.cpp:76] Creating Layer inception_4b/pool
I0511 01:20:13.776159  4331 net.cpp:372] inception_4b/pool <- inception_4a/output_inception_4a/output_0_split_4
I0511 01:20:13.776166  4331 net.cpp:334] inception_4b/pool -> inception_4b/pool
I0511 01:20:13.776183  4331 net.cpp:105] Setting up inception_4b/pool
I0511 01:20:13.776193  4331 net.cpp:112] Top shape: 32 512 14 14 (3211264)
I0511 01:20:13.776199  4331 layer_factory.hpp:74] Creating layer inception_4b/pool_proj
I0511 01:20:13.776211  4331 net.cpp:76] Creating Layer inception_4b/pool_proj
I0511 01:20:13.776217  4331 net.cpp:372] inception_4b/pool_proj <- inception_4b/pool
I0511 01:20:13.776226  4331 net.cpp:334] inception_4b/pool_proj -> inception_4b/pool_proj
I0511 01:20:13.776234  4331 net.cpp:105] Setting up inception_4b/pool_proj
I0511 01:20:13.776537  4331 net.cpp:112] Top shape: 32 64 14 14 (401408)
I0511 01:20:13.776551  4331 layer_factory.hpp:74] Creating layer inception_4b/relu_pool_proj
I0511 01:20:13.776561  4331 net.cpp:76] Creating Layer inception_4b/relu_pool_proj
I0511 01:20:13.776566  4331 net.cpp:372] inception_4b/relu_pool_proj <- inception_4b/pool_proj
I0511 01:20:13.776592  4331 net.cpp:323] inception_4b/relu_pool_proj -> inception_4b/pool_proj (in-place)
I0511 01:20:13.776602  4331 net.cpp:105] Setting up inception_4b/relu_pool_proj
I0511 01:20:13.776607  4331 net.cpp:112] Top shape: 32 64 14 14 (401408)
I0511 01:20:13.776612  4331 layer_factory.hpp:74] Creating layer inception_4b/output
I0511 01:20:13.776621  4331 net.cpp:76] Creating Layer inception_4b/output
I0511 01:20:13.776626  4331 net.cpp:372] inception_4b/output <- inception_4b/1x1
I0511 01:20:13.776633  4331 net.cpp:372] inception_4b/output <- inception_4b/3x3
I0511 01:20:13.776639  4331 net.cpp:372] inception_4b/output <- inception_4b/5x5
I0511 01:20:13.776645  4331 net.cpp:372] inception_4b/output <- inception_4b/pool_proj
I0511 01:20:13.776654  4331 net.cpp:334] inception_4b/output -> inception_4b/output
I0511 01:20:13.776664  4331 net.cpp:105] Setting up inception_4b/output
I0511 01:20:13.776671  4331 net.cpp:112] Top shape: 32 512 14 14 (3211264)
I0511 01:20:13.776676  4331 layer_factory.hpp:74] Creating layer inception_4b/output_inception_4b/output_0_split
I0511 01:20:13.776705  4331 net.cpp:76] Creating Layer inception_4b/output_inception_4b/output_0_split
I0511 01:20:13.776712  4331 net.cpp:372] inception_4b/output_inception_4b/output_0_split <- inception_4b/output
I0511 01:20:13.776721  4331 net.cpp:334] inception_4b/output_inception_4b/output_0_split -> inception_4b/output_inception_4b/output_0_split_0
I0511 01:20:13.776731  4331 net.cpp:334] inception_4b/output_inception_4b/output_0_split -> inception_4b/output_inception_4b/output_0_split_1
I0511 01:20:13.776739  4331 net.cpp:334] inception_4b/output_inception_4b/output_0_split -> inception_4b/output_inception_4b/output_0_split_2
I0511 01:20:13.776748  4331 net.cpp:334] inception_4b/output_inception_4b/output_0_split -> inception_4b/output_inception_4b/output_0_split_3
I0511 01:20:13.776757  4331 net.cpp:105] Setting up inception_4b/output_inception_4b/output_0_split
I0511 01:20:13.776763  4331 net.cpp:112] Top shape: 32 512 14 14 (3211264)
I0511 01:20:13.776768  4331 net.cpp:112] Top shape: 32 512 14 14 (3211264)
I0511 01:20:13.776773  4331 net.cpp:112] Top shape: 32 512 14 14 (3211264)
I0511 01:20:13.776778  4331 net.cpp:112] Top shape: 32 512 14 14 (3211264)
I0511 01:20:13.776783  4331 layer_factory.hpp:74] Creating layer inception_4c/1x1
I0511 01:20:13.776794  4331 net.cpp:76] Creating Layer inception_4c/1x1
I0511 01:20:13.776800  4331 net.cpp:372] inception_4c/1x1 <- inception_4b/output_inception_4b/output_0_split_0
I0511 01:20:13.776810  4331 net.cpp:334] inception_4c/1x1 -> inception_4c/1x1
I0511 01:20:13.776819  4331 net.cpp:105] Setting up inception_4c/1x1
I0511 01:20:13.777385  4331 net.cpp:112] Top shape: 32 128 14 14 (802816)
I0511 01:20:13.777400  4331 layer_factory.hpp:74] Creating layer inception_4c/relu_1x1
I0511 01:20:13.777410  4331 net.cpp:76] Creating Layer inception_4c/relu_1x1
I0511 01:20:13.777416  4331 net.cpp:372] inception_4c/relu_1x1 <- inception_4c/1x1
I0511 01:20:13.777425  4331 net.cpp:323] inception_4c/relu_1x1 -> inception_4c/1x1 (in-place)
I0511 01:20:13.777431  4331 net.cpp:105] Setting up inception_4c/relu_1x1
I0511 01:20:13.777437  4331 net.cpp:112] Top shape: 32 128 14 14 (802816)
I0511 01:20:13.777443  4331 layer_factory.hpp:74] Creating layer inception_4c/3x3_reduce
I0511 01:20:13.777453  4331 net.cpp:76] Creating Layer inception_4c/3x3_reduce
I0511 01:20:13.777459  4331 net.cpp:372] inception_4c/3x3_reduce <- inception_4b/output_inception_4b/output_0_split_1
I0511 01:20:13.777467  4331 net.cpp:334] inception_4c/3x3_reduce -> inception_4c/3x3_reduce
I0511 01:20:13.777477  4331 net.cpp:105] Setting up inception_4c/3x3_reduce
I0511 01:20:13.778033  4331 net.cpp:112] Top shape: 32 128 14 14 (802816)
I0511 01:20:13.778048  4331 layer_factory.hpp:74] Creating layer inception_4c/relu_3x3_reduce
I0511 01:20:13.778058  4331 net.cpp:76] Creating Layer inception_4c/relu_3x3_reduce
I0511 01:20:13.778064  4331 net.cpp:372] inception_4c/relu_3x3_reduce <- inception_4c/3x3_reduce
I0511 01:20:13.778071  4331 net.cpp:323] inception_4c/relu_3x3_reduce -> inception_4c/3x3_reduce (in-place)
I0511 01:20:13.778092  4331 net.cpp:105] Setting up inception_4c/relu_3x3_reduce
I0511 01:20:13.778098  4331 net.cpp:112] Top shape: 32 128 14 14 (802816)
I0511 01:20:13.778105  4331 layer_factory.hpp:74] Creating layer inception_4c/3x3
I0511 01:20:13.778112  4331 net.cpp:76] Creating Layer inception_4c/3x3
I0511 01:20:13.778118  4331 net.cpp:372] inception_4c/3x3 <- inception_4c/3x3_reduce
I0511 01:20:13.778128  4331 net.cpp:334] inception_4c/3x3 -> inception_4c/3x3
I0511 01:20:13.778137  4331 net.cpp:105] Setting up inception_4c/3x3
I0511 01:20:13.780625  4331 net.cpp:112] Top shape: 32 256 14 14 (1605632)
I0511 01:20:13.780654  4331 layer_factory.hpp:74] Creating layer inception_4c/relu_3x3
I0511 01:20:13.780663  4331 net.cpp:76] Creating Layer inception_4c/relu_3x3
I0511 01:20:13.781473  4331 net.cpp:372] inception_4c/relu_3x3 <- inception_4c/3x3
I0511 01:20:13.781487  4331 net.cpp:323] inception_4c/relu_3x3 -> inception_4c/3x3 (in-place)
I0511 01:20:13.781497  4331 net.cpp:105] Setting up inception_4c/relu_3x3
I0511 01:20:13.781503  4331 net.cpp:112] Top shape: 32 256 14 14 (1605632)
I0511 01:20:13.781509  4331 layer_factory.hpp:74] Creating layer inception_4c/5x5_reduce
I0511 01:20:13.781518  4331 net.cpp:76] Creating Layer inception_4c/5x5_reduce
I0511 01:20:13.781524  4331 net.cpp:372] inception_4c/5x5_reduce <- inception_4b/output_inception_4b/output_0_split_2
I0511 01:20:13.781536  4331 net.cpp:334] inception_4c/5x5_reduce -> inception_4c/5x5_reduce
I0511 01:20:13.781545  4331 net.cpp:105] Setting up inception_4c/5x5_reduce
I0511 01:20:13.781658  4331 net.cpp:112] Top shape: 32 24 14 14 (150528)
I0511 01:20:13.781669  4331 layer_factory.hpp:74] Creating layer inception_4c/relu_5x5_reduce
I0511 01:20:13.781677  4331 net.cpp:76] Creating Layer inception_4c/relu_5x5_reduce
I0511 01:20:13.781683  4331 net.cpp:372] inception_4c/relu_5x5_reduce <- inception_4c/5x5_reduce
I0511 01:20:13.781690  4331 net.cpp:323] inception_4c/relu_5x5_reduce -> inception_4c/5x5_reduce (in-place)
I0511 01:20:13.781697  4331 net.cpp:105] Setting up inception_4c/relu_5x5_reduce
I0511 01:20:13.781703  4331 net.cpp:112] Top shape: 32 24 14 14 (150528)
I0511 01:20:13.781708  4331 layer_factory.hpp:74] Creating layer inception_4c/5x5
I0511 01:20:13.781719  4331 net.cpp:76] Creating Layer inception_4c/5x5
I0511 01:20:13.781725  4331 net.cpp:372] inception_4c/5x5 <- inception_4c/5x5_reduce
I0511 01:20:13.781733  4331 net.cpp:334] inception_4c/5x5 -> inception_4c/5x5
I0511 01:20:13.781743  4331 net.cpp:105] Setting up inception_4c/5x5
I0511 01:20:13.782081  4331 net.cpp:112] Top shape: 32 64 14 14 (401408)
I0511 01:20:13.782094  4331 layer_factory.hpp:74] Creating layer inception_4c/relu_5x5
I0511 01:20:13.782102  4331 net.cpp:76] Creating Layer inception_4c/relu_5x5
I0511 01:20:13.782114  4331 net.cpp:372] inception_4c/relu_5x5 <- inception_4c/5x5
I0511 01:20:13.782121  4331 net.cpp:323] inception_4c/relu_5x5 -> inception_4c/5x5 (in-place)
I0511 01:20:13.782130  4331 net.cpp:105] Setting up inception_4c/relu_5x5
I0511 01:20:13.782137  4331 net.cpp:112] Top shape: 32 64 14 14 (401408)
I0511 01:20:13.782143  4331 layer_factory.hpp:74] Creating layer inception_4c/pool
I0511 01:20:13.782151  4331 net.cpp:76] Creating Layer inception_4c/pool
I0511 01:20:13.782157  4331 net.cpp:372] inception_4c/pool <- inception_4b/output_inception_4b/output_0_split_3
I0511 01:20:13.782166  4331 net.cpp:334] inception_4c/pool -> inception_4c/pool
I0511 01:20:13.782174  4331 net.cpp:105] Setting up inception_4c/pool
I0511 01:20:13.782181  4331 net.cpp:112] Top shape: 32 512 14 14 (3211264)
I0511 01:20:13.782187  4331 layer_factory.hpp:74] Creating layer inception_4c/pool_proj
I0511 01:20:13.782199  4331 net.cpp:76] Creating Layer inception_4c/pool_proj
I0511 01:20:13.782205  4331 net.cpp:372] inception_4c/pool_proj <- inception_4c/pool
I0511 01:20:13.782215  4331 net.cpp:334] inception_4c/pool_proj -> inception_4c/pool_proj
I0511 01:20:13.782223  4331 net.cpp:105] Setting up inception_4c/pool_proj
I0511 01:20:13.782542  4331 net.cpp:112] Top shape: 32 64 14 14 (401408)
I0511 01:20:13.782557  4331 layer_factory.hpp:74] Creating layer inception_4c/relu_pool_proj
I0511 01:20:13.782567  4331 net.cpp:76] Creating Layer inception_4c/relu_pool_proj
I0511 01:20:13.782573  4331 net.cpp:372] inception_4c/relu_pool_proj <- inception_4c/pool_proj
I0511 01:20:13.782582  4331 net.cpp:323] inception_4c/relu_pool_proj -> inception_4c/pool_proj (in-place)
I0511 01:20:13.782589  4331 net.cpp:105] Setting up inception_4c/relu_pool_proj
I0511 01:20:13.782594  4331 net.cpp:112] Top shape: 32 64 14 14 (401408)
I0511 01:20:13.782600  4331 layer_factory.hpp:74] Creating layer inception_4c/output
I0511 01:20:13.782608  4331 net.cpp:76] Creating Layer inception_4c/output
I0511 01:20:13.782613  4331 net.cpp:372] inception_4c/output <- inception_4c/1x1
I0511 01:20:13.782619  4331 net.cpp:372] inception_4c/output <- inception_4c/3x3
I0511 01:20:13.782625  4331 net.cpp:372] inception_4c/output <- inception_4c/5x5
I0511 01:20:13.782631  4331 net.cpp:372] inception_4c/output <- inception_4c/pool_proj
I0511 01:20:13.782644  4331 net.cpp:334] inception_4c/output -> inception_4c/output
I0511 01:20:13.782654  4331 net.cpp:105] Setting up inception_4c/output
I0511 01:20:13.782660  4331 net.cpp:112] Top shape: 32 512 14 14 (3211264)
I0511 01:20:13.782665  4331 layer_factory.hpp:74] Creating layer inception_4c/output_inception_4c/output_0_split
I0511 01:20:13.782673  4331 net.cpp:76] Creating Layer inception_4c/output_inception_4c/output_0_split
I0511 01:20:13.782678  4331 net.cpp:372] inception_4c/output_inception_4c/output_0_split <- inception_4c/output
I0511 01:20:13.782686  4331 net.cpp:334] inception_4c/output_inception_4c/output_0_split -> inception_4c/output_inception_4c/output_0_split_0
I0511 01:20:13.782696  4331 net.cpp:334] inception_4c/output_inception_4c/output_0_split -> inception_4c/output_inception_4c/output_0_split_1
I0511 01:20:13.782704  4331 net.cpp:334] inception_4c/output_inception_4c/output_0_split -> inception_4c/output_inception_4c/output_0_split_2
I0511 01:20:13.782716  4331 net.cpp:334] inception_4c/output_inception_4c/output_0_split -> inception_4c/output_inception_4c/output_0_split_3
I0511 01:20:13.782724  4331 net.cpp:105] Setting up inception_4c/output_inception_4c/output_0_split
I0511 01:20:13.782732  4331 net.cpp:112] Top shape: 32 512 14 14 (3211264)
I0511 01:20:13.782737  4331 net.cpp:112] Top shape: 32 512 14 14 (3211264)
I0511 01:20:13.782742  4331 net.cpp:112] Top shape: 32 512 14 14 (3211264)
I0511 01:20:13.782747  4331 net.cpp:112] Top shape: 32 512 14 14 (3211264)
I0511 01:20:13.782752  4331 layer_factory.hpp:74] Creating layer inception_4d/1x1
I0511 01:20:13.782760  4331 net.cpp:76] Creating Layer inception_4d/1x1
I0511 01:20:13.782768  4331 net.cpp:372] inception_4d/1x1 <- inception_4c/output_inception_4c/output_0_split_0
I0511 01:20:13.782776  4331 net.cpp:334] inception_4d/1x1 -> inception_4d/1x1
I0511 01:20:13.782785  4331 net.cpp:105] Setting up inception_4d/1x1
I0511 01:20:13.783268  4331 net.cpp:112] Top shape: 32 112 14 14 (702464)
I0511 01:20:13.783293  4331 layer_factory.hpp:74] Creating layer inception_4d/relu_1x1
I0511 01:20:13.783301  4331 net.cpp:76] Creating Layer inception_4d/relu_1x1
I0511 01:20:13.783308  4331 net.cpp:372] inception_4d/relu_1x1 <- inception_4d/1x1
I0511 01:20:13.783318  4331 net.cpp:323] inception_4d/relu_1x1 -> inception_4d/1x1 (in-place)
I0511 01:20:13.783325  4331 net.cpp:105] Setting up inception_4d/relu_1x1
I0511 01:20:13.783330  4331 net.cpp:112] Top shape: 32 112 14 14 (702464)
I0511 01:20:13.783336  4331 layer_factory.hpp:74] Creating layer inception_4d/3x3_reduce
I0511 01:20:13.783344  4331 net.cpp:76] Creating Layer inception_4d/3x3_reduce
I0511 01:20:13.783350  4331 net.cpp:372] inception_4d/3x3_reduce <- inception_4c/output_inception_4c/output_0_split_1
I0511 01:20:13.783359  4331 net.cpp:334] inception_4d/3x3_reduce -> inception_4d/3x3_reduce
I0511 01:20:13.783367  4331 net.cpp:105] Setting up inception_4d/3x3_reduce
I0511 01:20:13.784001  4331 net.cpp:112] Top shape: 32 144 14 14 (903168)
I0511 01:20:13.784028  4331 layer_factory.hpp:74] Creating layer inception_4d/relu_3x3_reduce
I0511 01:20:13.784037  4331 net.cpp:76] Creating Layer inception_4d/relu_3x3_reduce
I0511 01:20:13.784044  4331 net.cpp:372] inception_4d/relu_3x3_reduce <- inception_4d/3x3_reduce
I0511 01:20:13.784051  4331 net.cpp:323] inception_4d/relu_3x3_reduce -> inception_4d/3x3_reduce (in-place)
I0511 01:20:13.784060  4331 net.cpp:105] Setting up inception_4d/relu_3x3_reduce
I0511 01:20:13.784065  4331 net.cpp:112] Top shape: 32 144 14 14 (903168)
I0511 01:20:13.784070  4331 layer_factory.hpp:74] Creating layer inception_4d/3x3
I0511 01:20:13.784081  4331 net.cpp:76] Creating Layer inception_4d/3x3
I0511 01:20:13.784775  4331 net.cpp:372] inception_4d/3x3 <- inception_4d/3x3_reduce
I0511 01:20:13.784786  4331 net.cpp:334] inception_4d/3x3 -> inception_4d/3x3
I0511 01:20:13.784796  4331 net.cpp:105] Setting up inception_4d/3x3
I0511 01:20:13.787925  4331 net.cpp:112] Top shape: 32 288 14 14 (1806336)
I0511 01:20:13.787950  4331 layer_factory.hpp:74] Creating layer inception_4d/relu_3x3
I0511 01:20:13.787960  4331 net.cpp:76] Creating Layer inception_4d/relu_3x3
I0511 01:20:13.787966  4331 net.cpp:372] inception_4d/relu_3x3 <- inception_4d/3x3
I0511 01:20:13.787974  4331 net.cpp:323] inception_4d/relu_3x3 -> inception_4d/3x3 (in-place)
I0511 01:20:13.787982  4331 net.cpp:105] Setting up inception_4d/relu_3x3
I0511 01:20:13.787988  4331 net.cpp:112] Top shape: 32 288 14 14 (1806336)
I0511 01:20:13.787994  4331 layer_factory.hpp:74] Creating layer inception_4d/5x5_reduce
I0511 01:20:13.788002  4331 net.cpp:76] Creating Layer inception_4d/5x5_reduce
I0511 01:20:13.788008  4331 net.cpp:372] inception_4d/5x5_reduce <- inception_4c/output_inception_4c/output_0_split_2
I0511 01:20:13.788019  4331 net.cpp:334] inception_4d/5x5_reduce -> inception_4d/5x5_reduce
I0511 01:20:13.788029  4331 net.cpp:105] Setting up inception_4d/5x5_reduce
I0511 01:20:13.788175  4331 net.cpp:112] Top shape: 32 32 14 14 (200704)
I0511 01:20:13.788187  4331 layer_factory.hpp:74] Creating layer inception_4d/relu_5x5_reduce
I0511 01:20:13.788194  4331 net.cpp:76] Creating Layer inception_4d/relu_5x5_reduce
I0511 01:20:13.788200  4331 net.cpp:372] inception_4d/relu_5x5_reduce <- inception_4d/5x5_reduce
I0511 01:20:13.788208  4331 net.cpp:323] inception_4d/relu_5x5_reduce -> inception_4d/5x5_reduce (in-place)
I0511 01:20:13.788215  4331 net.cpp:105] Setting up inception_4d/relu_5x5_reduce
I0511 01:20:13.788220  4331 net.cpp:112] Top shape: 32 32 14 14 (200704)
I0511 01:20:13.788226  4331 layer_factory.hpp:74] Creating layer inception_4d/5x5
I0511 01:20:13.788236  4331 net.cpp:76] Creating Layer inception_4d/5x5
I0511 01:20:13.788242  4331 net.cpp:372] inception_4d/5x5 <- inception_4d/5x5_reduce
I0511 01:20:13.788252  4331 net.cpp:334] inception_4d/5x5 -> inception_4d/5x5
I0511 01:20:13.788261  4331 net.cpp:105] Setting up inception_4d/5x5
I0511 01:20:13.788714  4331 net.cpp:112] Top shape: 32 64 14 14 (401408)
I0511 01:20:13.788728  4331 layer_factory.hpp:74] Creating layer inception_4d/relu_5x5
I0511 01:20:13.788738  4331 net.cpp:76] Creating Layer inception_4d/relu_5x5
I0511 01:20:13.788745  4331 net.cpp:372] inception_4d/relu_5x5 <- inception_4d/5x5
I0511 01:20:13.788753  4331 net.cpp:323] inception_4d/relu_5x5 -> inception_4d/5x5 (in-place)
I0511 01:20:13.788760  4331 net.cpp:105] Setting up inception_4d/relu_5x5
I0511 01:20:13.788765  4331 net.cpp:112] Top shape: 32 64 14 14 (401408)
I0511 01:20:13.788771  4331 layer_factory.hpp:74] Creating layer inception_4d/pool
I0511 01:20:13.788779  4331 net.cpp:76] Creating Layer inception_4d/pool
I0511 01:20:13.788785  4331 net.cpp:372] inception_4d/pool <- inception_4c/output_inception_4c/output_0_split_3
I0511 01:20:13.788794  4331 net.cpp:334] inception_4d/pool -> inception_4d/pool
I0511 01:20:13.788804  4331 net.cpp:105] Setting up inception_4d/pool
I0511 01:20:13.788811  4331 net.cpp:112] Top shape: 32 512 14 14 (3211264)
I0511 01:20:13.788820  4331 layer_factory.hpp:74] Creating layer inception_4d/pool_proj
I0511 01:20:13.788851  4331 net.cpp:76] Creating Layer inception_4d/pool_proj
I0511 01:20:13.788858  4331 net.cpp:372] inception_4d/pool_proj <- inception_4d/pool
I0511 01:20:13.788869  4331 net.cpp:334] inception_4d/pool_proj -> inception_4d/pool_proj
I0511 01:20:13.788879  4331 net.cpp:105] Setting up inception_4d/pool_proj
I0511 01:20:13.789165  4331 net.cpp:112] Top shape: 32 64 14 14 (401408)
I0511 01:20:13.789177  4331 layer_factory.hpp:74] Creating layer inception_4d/relu_pool_proj
I0511 01:20:13.789186  4331 net.cpp:76] Creating Layer inception_4d/relu_pool_proj
I0511 01:20:13.789192  4331 net.cpp:372] inception_4d/relu_pool_proj <- inception_4d/pool_proj
I0511 01:20:13.789199  4331 net.cpp:323] inception_4d/relu_pool_proj -> inception_4d/pool_proj (in-place)
I0511 01:20:13.789207  4331 net.cpp:105] Setting up inception_4d/relu_pool_proj
I0511 01:20:13.789213  4331 net.cpp:112] Top shape: 32 64 14 14 (401408)
I0511 01:20:13.789219  4331 layer_factory.hpp:74] Creating layer inception_4d/output
I0511 01:20:13.789227  4331 net.cpp:76] Creating Layer inception_4d/output
I0511 01:20:13.789232  4331 net.cpp:372] inception_4d/output <- inception_4d/1x1
I0511 01:20:13.789239  4331 net.cpp:372] inception_4d/output <- inception_4d/3x3
I0511 01:20:13.789245  4331 net.cpp:372] inception_4d/output <- inception_4d/5x5
I0511 01:20:13.789252  4331 net.cpp:372] inception_4d/output <- inception_4d/pool_proj
I0511 01:20:13.789265  4331 net.cpp:334] inception_4d/output -> inception_4d/output
I0511 01:20:13.789289  4331 net.cpp:105] Setting up inception_4d/output
I0511 01:20:13.789297  4331 net.cpp:112] Top shape: 32 528 14 14 (3311616)
I0511 01:20:13.789304  4331 layer_factory.hpp:74] Creating layer inception_4d/output_inception_4d/output_0_split
I0511 01:20:13.789311  4331 net.cpp:76] Creating Layer inception_4d/output_inception_4d/output_0_split
I0511 01:20:13.789317  4331 net.cpp:372] inception_4d/output_inception_4d/output_0_split <- inception_4d/output
I0511 01:20:13.789330  4331 net.cpp:334] inception_4d/output_inception_4d/output_0_split -> inception_4d/output_inception_4d/output_0_split_0
I0511 01:20:13.789338  4331 net.cpp:334] inception_4d/output_inception_4d/output_0_split -> inception_4d/output_inception_4d/output_0_split_1
I0511 01:20:13.789348  4331 net.cpp:334] inception_4d/output_inception_4d/output_0_split -> inception_4d/output_inception_4d/output_0_split_2
I0511 01:20:13.789357  4331 net.cpp:334] inception_4d/output_inception_4d/output_0_split -> inception_4d/output_inception_4d/output_0_split_3
I0511 01:20:13.789366  4331 net.cpp:334] inception_4d/output_inception_4d/output_0_split -> inception_4d/output_inception_4d/output_0_split_4
I0511 01:20:13.789376  4331 net.cpp:105] Setting up inception_4d/output_inception_4d/output_0_split
I0511 01:20:13.789382  4331 net.cpp:112] Top shape: 32 528 14 14 (3311616)
I0511 01:20:13.789387  4331 net.cpp:112] Top shape: 32 528 14 14 (3311616)
I0511 01:20:13.789392  4331 net.cpp:112] Top shape: 32 528 14 14 (3311616)
I0511 01:20:13.789397  4331 net.cpp:112] Top shape: 32 528 14 14 (3311616)
I0511 01:20:13.789402  4331 net.cpp:112] Top shape: 32 528 14 14 (3311616)
I0511 01:20:13.789408  4331 layer_factory.hpp:74] Creating layer loss2/ave_pool
I0511 01:20:13.789418  4331 net.cpp:76] Creating Layer loss2/ave_pool
I0511 01:20:13.789424  4331 net.cpp:372] loss2/ave_pool <- inception_4d/output_inception_4d/output_0_split_0
I0511 01:20:13.789433  4331 net.cpp:334] loss2/ave_pool -> loss2/ave_pool
I0511 01:20:13.789440  4331 net.cpp:105] Setting up loss2/ave_pool
I0511 01:20:13.789466  4331 net.cpp:112] Top shape: 32 528 4 4 (270336)
I0511 01:20:13.789475  4331 layer_factory.hpp:74] Creating layer loss2/conv
I0511 01:20:13.789486  4331 net.cpp:76] Creating Layer loss2/conv
I0511 01:20:13.789492  4331 net.cpp:372] loss2/conv <- loss2/ave_pool
I0511 01:20:13.789501  4331 net.cpp:334] loss2/conv -> loss2/conv
I0511 01:20:13.789510  4331 net.cpp:105] Setting up loss2/conv
I0511 01:20:13.790084  4331 net.cpp:112] Top shape: 32 128 4 4 (65536)
I0511 01:20:13.790099  4331 layer_factory.hpp:74] Creating layer loss2/relu_conv
I0511 01:20:13.790119  4331 net.cpp:76] Creating Layer loss2/relu_conv
I0511 01:20:13.790127  4331 net.cpp:372] loss2/relu_conv <- loss2/conv
I0511 01:20:13.790133  4331 net.cpp:323] loss2/relu_conv -> loss2/conv (in-place)
I0511 01:20:13.790143  4331 net.cpp:105] Setting up loss2/relu_conv
I0511 01:20:13.790149  4331 net.cpp:112] Top shape: 32 128 4 4 (65536)
I0511 01:20:13.790155  4331 layer_factory.hpp:74] Creating layer loss2/fc
I0511 01:20:13.790164  4331 net.cpp:76] Creating Layer loss2/fc
I0511 01:20:13.790169  4331 net.cpp:372] loss2/fc <- loss2/conv
I0511 01:20:13.790177  4331 net.cpp:334] loss2/fc -> loss2/fc
I0511 01:20:13.790186  4331 net.cpp:105] Setting up loss2/fc
I0511 01:20:13.807740  4331 net.cpp:112] Top shape: 32 1024 1 1 (32768)
I0511 01:20:13.807795  4331 layer_factory.hpp:74] Creating layer loss2/relu_fc
I0511 01:20:13.807816  4331 net.cpp:76] Creating Layer loss2/relu_fc
I0511 01:20:13.807826  4331 net.cpp:372] loss2/relu_fc <- loss2/fc
I0511 01:20:13.807837  4331 net.cpp:323] loss2/relu_fc -> loss2/fc (in-place)
I0511 01:20:13.807848  4331 net.cpp:105] Setting up loss2/relu_fc
I0511 01:20:13.807854  4331 net.cpp:112] Top shape: 32 1024 1 1 (32768)
I0511 01:20:13.807860  4331 layer_factory.hpp:74] Creating layer loss2/drop_fc
I0511 01:20:13.807868  4331 net.cpp:76] Creating Layer loss2/drop_fc
I0511 01:20:13.807876  4331 net.cpp:372] loss2/drop_fc <- loss2/fc
I0511 01:20:13.807884  4331 net.cpp:323] loss2/drop_fc -> loss2/fc (in-place)
I0511 01:20:13.807893  4331 net.cpp:105] Setting up loss2/drop_fc
I0511 01:20:13.807898  4331 net.cpp:112] Top shape: 32 1024 1 1 (32768)
I0511 01:20:13.807904  4331 layer_factory.hpp:74] Creating layer loss2/classifier
I0511 01:20:13.807915  4331 net.cpp:76] Creating Layer loss2/classifier
I0511 01:20:13.807920  4331 net.cpp:372] loss2/classifier <- loss2/fc
I0511 01:20:13.807931  4331 net.cpp:334] loss2/classifier -> loss2/classifier
I0511 01:20:13.807942  4331 net.cpp:105] Setting up loss2/classifier
I0511 01:20:13.807976  4331 net.cpp:112] Top shape: 32 2 1 1 (64)
I0511 01:20:13.807986  4331 layer_factory.hpp:74] Creating layer loss2/loss
I0511 01:20:13.808001  4331 net.cpp:76] Creating Layer loss2/loss
I0511 01:20:13.808007  4331 net.cpp:372] loss2/loss <- loss2/classifier
I0511 01:20:13.808014  4331 net.cpp:372] loss2/loss <- label_data_1_split_1
I0511 01:20:13.808023  4331 net.cpp:334] loss2/loss -> loss2/loss1
I0511 01:20:13.808032  4331 net.cpp:105] Setting up loss2/loss
I0511 01:20:13.808040  4331 layer_factory.hpp:74] Creating layer loss2/loss
I0511 01:20:13.808056  4331 net.cpp:112] Top shape: 1 1 1 1 (1)
I0511 01:20:13.808063  4331 net.cpp:118]     with loss weight 0.3
I0511 01:20:13.808081  4331 layer_factory.hpp:74] Creating layer inception_4e/1x1
I0511 01:20:13.808092  4331 net.cpp:76] Creating Layer inception_4e/1x1
I0511 01:20:13.808099  4331 net.cpp:372] inception_4e/1x1 <- inception_4d/output_inception_4d/output_0_split_1
I0511 01:20:13.808109  4331 net.cpp:334] inception_4e/1x1 -> inception_4e/1x1
I0511 01:20:13.808118  4331 net.cpp:105] Setting up inception_4e/1x1
I0511 01:20:13.809330  4331 net.cpp:112] Top shape: 32 256 14 14 (1605632)
I0511 01:20:13.809348  4331 layer_factory.hpp:74] Creating layer inception_4e/relu_1x1
I0511 01:20:13.809356  4331 net.cpp:76] Creating Layer inception_4e/relu_1x1
I0511 01:20:13.809365  4331 net.cpp:372] inception_4e/relu_1x1 <- inception_4e/1x1
I0511 01:20:13.809372  4331 net.cpp:323] inception_4e/relu_1x1 -> inception_4e/1x1 (in-place)
I0511 01:20:13.809381  4331 net.cpp:105] Setting up inception_4e/relu_1x1
I0511 01:20:13.809386  4331 net.cpp:112] Top shape: 32 256 14 14 (1605632)
I0511 01:20:13.809392  4331 layer_factory.hpp:74] Creating layer inception_4e/3x3_reduce
I0511 01:20:13.809401  4331 net.cpp:76] Creating Layer inception_4e/3x3_reduce
I0511 01:20:13.809407  4331 net.cpp:372] inception_4e/3x3_reduce <- inception_4d/output_inception_4d/output_0_split_2
I0511 01:20:13.809417  4331 net.cpp:334] inception_4e/3x3_reduce -> inception_4e/3x3_reduce
I0511 01:20:13.809463  4331 net.cpp:105] Setting up inception_4e/3x3_reduce
I0511 01:20:13.810178  4331 net.cpp:112] Top shape: 32 160 14 14 (1003520)
I0511 01:20:13.810194  4331 layer_factory.hpp:74] Creating layer inception_4e/relu_3x3_reduce
I0511 01:20:13.810201  4331 net.cpp:76] Creating Layer inception_4e/relu_3x3_reduce
I0511 01:20:13.810207  4331 net.cpp:372] inception_4e/relu_3x3_reduce <- inception_4e/3x3_reduce
I0511 01:20:13.810217  4331 net.cpp:323] inception_4e/relu_3x3_reduce -> inception_4e/3x3_reduce (in-place)
I0511 01:20:13.810225  4331 net.cpp:105] Setting up inception_4e/relu_3x3_reduce
I0511 01:20:13.810231  4331 net.cpp:112] Top shape: 32 160 14 14 (1003520)
I0511 01:20:13.810236  4331 layer_factory.hpp:74] Creating layer inception_4e/3x3
I0511 01:20:13.810245  4331 net.cpp:76] Creating Layer inception_4e/3x3
I0511 01:20:13.810251  4331 net.cpp:372] inception_4e/3x3 <- inception_4e/3x3_reduce
I0511 01:20:13.810258  4331 net.cpp:334] inception_4e/3x3 -> inception_4e/3x3
I0511 01:20:13.810281  4331 net.cpp:105] Setting up inception_4e/3x3
I0511 01:20:13.814131  4331 net.cpp:112] Top shape: 32 320 14 14 (2007040)
I0511 01:20:13.814147  4331 layer_factory.hpp:74] Creating layer inception_4e/relu_3x3
I0511 01:20:13.814157  4331 net.cpp:76] Creating Layer inception_4e/relu_3x3
I0511 01:20:13.814162  4331 net.cpp:372] inception_4e/relu_3x3 <- inception_4e/3x3
I0511 01:20:13.814170  4331 net.cpp:323] inception_4e/relu_3x3 -> inception_4e/3x3 (in-place)
I0511 01:20:13.814178  4331 net.cpp:105] Setting up inception_4e/relu_3x3
I0511 01:20:13.814183  4331 net.cpp:112] Top shape: 32 320 14 14 (2007040)
I0511 01:20:13.814189  4331 layer_factory.hpp:74] Creating layer inception_4e/5x5_reduce
I0511 01:20:13.814200  4331 net.cpp:76] Creating Layer inception_4e/5x5_reduce
I0511 01:20:13.814206  4331 net.cpp:372] inception_4e/5x5_reduce <- inception_4d/output_inception_4d/output_0_split_3
I0511 01:20:13.814216  4331 net.cpp:334] inception_4e/5x5_reduce -> inception_4e/5x5_reduce
I0511 01:20:13.814226  4331 net.cpp:105] Setting up inception_4e/5x5_reduce
I0511 01:20:13.814429  4331 net.cpp:112] Top shape: 32 32 14 14 (200704)
I0511 01:20:13.814450  4331 layer_factory.hpp:74] Creating layer inception_4e/relu_5x5_reduce
I0511 01:20:13.814460  4331 net.cpp:76] Creating Layer inception_4e/relu_5x5_reduce
I0511 01:20:13.814467  4331 net.cpp:372] inception_4e/relu_5x5_reduce <- inception_4e/5x5_reduce
I0511 01:20:13.814476  4331 net.cpp:323] inception_4e/relu_5x5_reduce -> inception_4e/5x5_reduce (in-place)
I0511 01:20:13.814483  4331 net.cpp:105] Setting up inception_4e/relu_5x5_reduce
I0511 01:20:13.814488  4331 net.cpp:112] Top shape: 32 32 14 14 (200704)
I0511 01:20:13.814494  4331 layer_factory.hpp:74] Creating layer inception_4e/5x5
I0511 01:20:13.814523  4331 net.cpp:76] Creating Layer inception_4e/5x5
I0511 01:20:13.814530  4331 net.cpp:372] inception_4e/5x5 <- inception_4e/5x5_reduce
I0511 01:20:13.814539  4331 net.cpp:334] inception_4e/5x5 -> inception_4e/5x5
I0511 01:20:13.814548  4331 net.cpp:105] Setting up inception_4e/5x5
I0511 01:20:13.815467  4331 net.cpp:112] Top shape: 32 128 14 14 (802816)
I0511 01:20:13.815487  4331 layer_factory.hpp:74] Creating layer inception_4e/relu_5x5
I0511 01:20:13.815497  4331 net.cpp:76] Creating Layer inception_4e/relu_5x5
I0511 01:20:13.815503  4331 net.cpp:372] inception_4e/relu_5x5 <- inception_4e/5x5
I0511 01:20:13.815511  4331 net.cpp:323] inception_4e/relu_5x5 -> inception_4e/5x5 (in-place)
I0511 01:20:13.815520  4331 net.cpp:105] Setting up inception_4e/relu_5x5
I0511 01:20:13.815524  4331 net.cpp:112] Top shape: 32 128 14 14 (802816)
I0511 01:20:13.815531  4331 layer_factory.hpp:74] Creating layer inception_4e/pool
I0511 01:20:13.815538  4331 net.cpp:76] Creating Layer inception_4e/pool
I0511 01:20:13.815544  4331 net.cpp:372] inception_4e/pool <- inception_4d/output_inception_4d/output_0_split_4
I0511 01:20:13.815552  4331 net.cpp:334] inception_4e/pool -> inception_4e/pool
I0511 01:20:13.815567  4331 net.cpp:105] Setting up inception_4e/pool
I0511 01:20:13.815575  4331 net.cpp:112] Top shape: 32 528 14 14 (3311616)
I0511 01:20:13.815599  4331 layer_factory.hpp:74] Creating layer inception_4e/pool_proj
I0511 01:20:13.815609  4331 net.cpp:76] Creating Layer inception_4e/pool_proj
I0511 01:20:13.815615  4331 net.cpp:372] inception_4e/pool_proj <- inception_4e/pool
I0511 01:20:13.815626  4331 net.cpp:334] inception_4e/pool_proj -> inception_4e/pool_proj
I0511 01:20:13.815635  4331 net.cpp:105] Setting up inception_4e/pool_proj
I0511 01:20:13.816293  4331 net.cpp:112] Top shape: 32 128 14 14 (802816)
I0511 01:20:13.816318  4331 layer_factory.hpp:74] Creating layer inception_4e/relu_pool_proj
I0511 01:20:13.816330  4331 net.cpp:76] Creating Layer inception_4e/relu_pool_proj
I0511 01:20:13.816339  4331 net.cpp:372] inception_4e/relu_pool_proj <- inception_4e/pool_proj
I0511 01:20:13.816354  4331 net.cpp:323] inception_4e/relu_pool_proj -> inception_4e/pool_proj (in-place)
I0511 01:20:13.816375  4331 net.cpp:105] Setting up inception_4e/relu_pool_proj
I0511 01:20:13.816385  4331 net.cpp:112] Top shape: 32 128 14 14 (802816)
I0511 01:20:13.816390  4331 layer_factory.hpp:74] Creating layer inception_4e/output
I0511 01:20:13.816400  4331 net.cpp:76] Creating Layer inception_4e/output
I0511 01:20:13.816406  4331 net.cpp:372] inception_4e/output <- inception_4e/1x1
I0511 01:20:13.816416  4331 net.cpp:372] inception_4e/output <- inception_4e/3x3
I0511 01:20:13.816422  4331 net.cpp:372] inception_4e/output <- inception_4e/5x5
I0511 01:20:13.816428  4331 net.cpp:372] inception_4e/output <- inception_4e/pool_proj
I0511 01:20:13.816437  4331 net.cpp:334] inception_4e/output -> inception_4e/output
I0511 01:20:13.816453  4331 net.cpp:105] Setting up inception_4e/output
I0511 01:20:13.816463  4331 net.cpp:112] Top shape: 32 832 14 14 (5218304)
I0511 01:20:13.816469  4331 layer_factory.hpp:74] Creating layer pool4/3x3_s2
I0511 01:20:13.816478  4331 net.cpp:76] Creating Layer pool4/3x3_s2
I0511 01:20:13.816484  4331 net.cpp:372] pool4/3x3_s2 <- inception_4e/output
I0511 01:20:13.816495  4331 net.cpp:334] pool4/3x3_s2 -> pool4/3x3_s2
I0511 01:20:13.816504  4331 net.cpp:105] Setting up pool4/3x3_s2
I0511 01:20:13.816511  4331 net.cpp:112] Top shape: 32 832 7 7 (1304576)
I0511 01:20:13.816517  4331 layer_factory.hpp:74] Creating layer pool4/3x3_s2_pool4/3x3_s2_0_split
I0511 01:20:13.816525  4331 net.cpp:76] Creating Layer pool4/3x3_s2_pool4/3x3_s2_0_split
I0511 01:20:13.816531  4331 net.cpp:372] pool4/3x3_s2_pool4/3x3_s2_0_split <- pool4/3x3_s2
I0511 01:20:13.816540  4331 net.cpp:334] pool4/3x3_s2_pool4/3x3_s2_0_split -> pool4/3x3_s2_pool4/3x3_s2_0_split_0
I0511 01:20:13.816550  4331 net.cpp:334] pool4/3x3_s2_pool4/3x3_s2_0_split -> pool4/3x3_s2_pool4/3x3_s2_0_split_1
I0511 01:20:13.816560  4331 net.cpp:334] pool4/3x3_s2_pool4/3x3_s2_0_split -> pool4/3x3_s2_pool4/3x3_s2_0_split_2
I0511 01:20:13.816567  4331 net.cpp:334] pool4/3x3_s2_pool4/3x3_s2_0_split -> pool4/3x3_s2_pool4/3x3_s2_0_split_3
I0511 01:20:13.816576  4331 net.cpp:105] Setting up pool4/3x3_s2_pool4/3x3_s2_0_split
I0511 01:20:13.816582  4331 net.cpp:112] Top shape: 32 832 7 7 (1304576)
I0511 01:20:13.816587  4331 net.cpp:112] Top shape: 32 832 7 7 (1304576)
I0511 01:20:13.816592  4331 net.cpp:112] Top shape: 32 832 7 7 (1304576)
I0511 01:20:13.816597  4331 net.cpp:112] Top shape: 32 832 7 7 (1304576)
I0511 01:20:13.816602  4331 layer_factory.hpp:74] Creating layer inception_5a/1x1
I0511 01:20:13.816612  4331 net.cpp:76] Creating Layer inception_5a/1x1
I0511 01:20:13.816617  4331 net.cpp:372] inception_5a/1x1 <- pool4/3x3_s2_pool4/3x3_s2_0_split_0
I0511 01:20:13.816627  4331 net.cpp:334] inception_5a/1x1 -> inception_5a/1x1
I0511 01:20:13.816637  4331 net.cpp:105] Setting up inception_5a/1x1
I0511 01:20:13.818593  4331 net.cpp:112] Top shape: 32 256 7 7 (401408)
I0511 01:20:13.818614  4331 layer_factory.hpp:74] Creating layer inception_5a/relu_1x1
I0511 01:20:13.818622  4331 net.cpp:76] Creating Layer inception_5a/relu_1x1
I0511 01:20:13.818629  4331 net.cpp:372] inception_5a/relu_1x1 <- inception_5a/1x1
I0511 01:20:13.818640  4331 net.cpp:323] inception_5a/relu_1x1 -> inception_5a/1x1 (in-place)
I0511 01:20:13.818668  4331 net.cpp:105] Setting up inception_5a/relu_1x1
I0511 01:20:13.818675  4331 net.cpp:112] Top shape: 32 256 7 7 (401408)
I0511 01:20:13.818681  4331 layer_factory.hpp:74] Creating layer inception_5a/3x3_reduce
I0511 01:20:13.818691  4331 net.cpp:76] Creating Layer inception_5a/3x3_reduce
I0511 01:20:13.818697  4331 net.cpp:372] inception_5a/3x3_reduce <- pool4/3x3_s2_pool4/3x3_s2_0_split_1
I0511 01:20:13.818708  4331 net.cpp:334] inception_5a/3x3_reduce -> inception_5a/3x3_reduce
I0511 01:20:13.818718  4331 net.cpp:105] Setting up inception_5a/3x3_reduce
I0511 01:20:13.820024  4331 net.cpp:112] Top shape: 32 160 7 7 (250880)
I0511 01:20:13.820041  4331 layer_factory.hpp:74] Creating layer inception_5a/relu_3x3_reduce
I0511 01:20:13.820091  4331 net.cpp:76] Creating Layer inception_5a/relu_3x3_reduce
I0511 01:20:13.820106  4331 net.cpp:372] inception_5a/relu_3x3_reduce <- inception_5a/3x3_reduce
I0511 01:20:13.820116  4331 net.cpp:323] inception_5a/relu_3x3_reduce -> inception_5a/3x3_reduce (in-place)
I0511 01:20:13.820127  4331 net.cpp:105] Setting up inception_5a/relu_3x3_reduce
I0511 01:20:13.820135  4331 net.cpp:112] Top shape: 32 160 7 7 (250880)
I0511 01:20:13.820147  4331 layer_factory.hpp:74] Creating layer inception_5a/3x3
I0511 01:20:13.820165  4331 net.cpp:76] Creating Layer inception_5a/3x3
I0511 01:20:13.820176  4331 net.cpp:372] inception_5a/3x3 <- inception_5a/3x3_reduce
I0511 01:20:13.820186  4331 net.cpp:334] inception_5a/3x3 -> inception_5a/3x3
I0511 01:20:13.820196  4331 net.cpp:105] Setting up inception_5a/3x3
I0511 01:20:13.824262  4331 net.cpp:112] Top shape: 32 320 7 7 (501760)
I0511 01:20:13.824316  4331 layer_factory.hpp:74] Creating layer inception_5a/relu_3x3
I0511 01:20:13.824337  4331 net.cpp:76] Creating Layer inception_5a/relu_3x3
I0511 01:20:13.824347  4331 net.cpp:372] inception_5a/relu_3x3 <- inception_5a/3x3
I0511 01:20:13.824358  4331 net.cpp:323] inception_5a/relu_3x3 -> inception_5a/3x3 (in-place)
I0511 01:20:13.824368  4331 net.cpp:105] Setting up inception_5a/relu_3x3
I0511 01:20:13.824374  4331 net.cpp:112] Top shape: 32 320 7 7 (501760)
I0511 01:20:13.824380  4331 layer_factory.hpp:74] Creating layer inception_5a/5x5_reduce
I0511 01:20:13.824390  4331 net.cpp:76] Creating Layer inception_5a/5x5_reduce
I0511 01:20:13.824396  4331 net.cpp:372] inception_5a/5x5_reduce <- pool4/3x3_s2_pool4/3x3_s2_0_split_2
I0511 01:20:13.824409  4331 net.cpp:334] inception_5a/5x5_reduce -> inception_5a/5x5_reduce
I0511 01:20:13.824419  4331 net.cpp:105] Setting up inception_5a/5x5_reduce
I0511 01:20:13.824705  4331 net.cpp:112] Top shape: 32 32 7 7 (50176)
I0511 01:20:13.824728  4331 layer_factory.hpp:74] Creating layer inception_5a/relu_5x5_reduce
I0511 01:20:13.824748  4331 net.cpp:76] Creating Layer inception_5a/relu_5x5_reduce
I0511 01:20:13.824760  4331 net.cpp:372] inception_5a/relu_5x5_reduce <- inception_5a/5x5_reduce
I0511 01:20:13.824769  4331 net.cpp:323] inception_5a/relu_5x5_reduce -> inception_5a/5x5_reduce (in-place)
I0511 01:20:13.824779  4331 net.cpp:105] Setting up inception_5a/relu_5x5_reduce
I0511 01:20:13.824784  4331 net.cpp:112] Top shape: 32 32 7 7 (50176)
I0511 01:20:13.824790  4331 layer_factory.hpp:74] Creating layer inception_5a/5x5
I0511 01:20:13.824802  4331 net.cpp:76] Creating Layer inception_5a/5x5
I0511 01:20:13.824815  4331 net.cpp:372] inception_5a/5x5 <- inception_5a/5x5_reduce
I0511 01:20:13.824836  4331 net.cpp:334] inception_5a/5x5 -> inception_5a/5x5
I0511 01:20:13.824856  4331 net.cpp:105] Setting up inception_5a/5x5
I0511 01:20:13.825858  4331 net.cpp:112] Top shape: 32 128 7 7 (200704)
I0511 01:20:13.825875  4331 layer_factory.hpp:74] Creating layer inception_5a/relu_5x5
I0511 01:20:13.825884  4331 net.cpp:76] Creating Layer inception_5a/relu_5x5
I0511 01:20:13.825891  4331 net.cpp:372] inception_5a/relu_5x5 <- inception_5a/5x5
I0511 01:20:13.825897  4331 net.cpp:323] inception_5a/relu_5x5 -> inception_5a/5x5 (in-place)
I0511 01:20:13.825906  4331 net.cpp:105] Setting up inception_5a/relu_5x5
I0511 01:20:13.825945  4331 net.cpp:112] Top shape: 32 128 7 7 (200704)
I0511 01:20:13.825959  4331 layer_factory.hpp:74] Creating layer inception_5a/pool
I0511 01:20:13.825975  4331 net.cpp:76] Creating Layer inception_5a/pool
I0511 01:20:13.825989  4331 net.cpp:372] inception_5a/pool <- pool4/3x3_s2_pool4/3x3_s2_0_split_3
I0511 01:20:13.826004  4331 net.cpp:334] inception_5a/pool -> inception_5a/pool
I0511 01:20:13.826014  4331 net.cpp:105] Setting up inception_5a/pool
I0511 01:20:13.826021  4331 net.cpp:112] Top shape: 32 832 7 7 (1304576)
I0511 01:20:13.826030  4331 layer_factory.hpp:74] Creating layer inception_5a/pool_proj
I0511 01:20:13.826050  4331 net.cpp:76] Creating Layer inception_5a/pool_proj
I0511 01:20:13.826885  4331 net.cpp:372] inception_5a/pool_proj <- inception_5a/pool
I0511 01:20:13.826900  4331 net.cpp:334] inception_5a/pool_proj -> inception_5a/pool_proj
I0511 01:20:13.826911  4331 net.cpp:105] Setting up inception_5a/pool_proj
I0511 01:20:13.827925  4331 net.cpp:112] Top shape: 32 128 7 7 (200704)
I0511 01:20:13.827945  4331 layer_factory.hpp:74] Creating layer inception_5a/relu_pool_proj
I0511 01:20:13.827956  4331 net.cpp:76] Creating Layer inception_5a/relu_pool_proj
I0511 01:20:13.827968  4331 net.cpp:372] inception_5a/relu_pool_proj <- inception_5a/pool_proj
I0511 01:20:13.827980  4331 net.cpp:323] inception_5a/relu_pool_proj -> inception_5a/pool_proj (in-place)
I0511 01:20:13.827991  4331 net.cpp:105] Setting up inception_5a/relu_pool_proj
I0511 01:20:13.828003  4331 net.cpp:112] Top shape: 32 128 7 7 (200704)
I0511 01:20:13.828016  4331 layer_factory.hpp:74] Creating layer inception_5a/output
I0511 01:20:13.828035  4331 net.cpp:76] Creating Layer inception_5a/output
I0511 01:20:13.828048  4331 net.cpp:372] inception_5a/output <- inception_5a/1x1
I0511 01:20:13.828063  4331 net.cpp:372] inception_5a/output <- inception_5a/3x3
I0511 01:20:13.828075  4331 net.cpp:372] inception_5a/output <- inception_5a/5x5
I0511 01:20:13.828085  4331 net.cpp:372] inception_5a/output <- inception_5a/pool_proj
I0511 01:20:13.828094  4331 net.cpp:334] inception_5a/output -> inception_5a/output
I0511 01:20:13.828104  4331 net.cpp:105] Setting up inception_5a/output
I0511 01:20:13.828114  4331 net.cpp:112] Top shape: 32 832 7 7 (1304576)
I0511 01:20:13.828126  4331 layer_factory.hpp:74] Creating layer inception_5a/output_inception_5a/output_0_split
I0511 01:20:13.828142  4331 net.cpp:76] Creating Layer inception_5a/output_inception_5a/output_0_split
I0511 01:20:13.828152  4331 net.cpp:372] inception_5a/output_inception_5a/output_0_split <- inception_5a/output
I0511 01:20:13.828162  4331 net.cpp:334] inception_5a/output_inception_5a/output_0_split -> inception_5a/output_inception_5a/output_0_split_0
I0511 01:20:13.828176  4331 net.cpp:334] inception_5a/output_inception_5a/output_0_split -> inception_5a/output_inception_5a/output_0_split_1
I0511 01:20:13.828196  4331 net.cpp:334] inception_5a/output_inception_5a/output_0_split -> inception_5a/output_inception_5a/output_0_split_2
I0511 01:20:13.828217  4331 net.cpp:334] inception_5a/output_inception_5a/output_0_split -> inception_5a/output_inception_5a/output_0_split_3
I0511 01:20:13.828233  4331 net.cpp:105] Setting up inception_5a/output_inception_5a/output_0_split
I0511 01:20:13.828241  4331 net.cpp:112] Top shape: 32 832 7 7 (1304576)
I0511 01:20:13.828246  4331 net.cpp:112] Top shape: 32 832 7 7 (1304576)
I0511 01:20:13.828253  4331 net.cpp:112] Top shape: 32 832 7 7 (1304576)
I0511 01:20:13.828258  4331 net.cpp:112] Top shape: 32 832 7 7 (1304576)
I0511 01:20:13.828263  4331 layer_factory.hpp:74] Creating layer inception_5b/1x1
I0511 01:20:13.828289  4331 net.cpp:76] Creating Layer inception_5b/1x1
I0511 01:20:13.828297  4331 net.cpp:372] inception_5b/1x1 <- inception_5a/output_inception_5a/output_0_split_0
I0511 01:20:13.828307  4331 net.cpp:334] inception_5b/1x1 -> inception_5b/1x1
I0511 01:20:13.828316  4331 net.cpp:105] Setting up inception_5b/1x1
I0511 01:20:13.831079  4331 net.cpp:112] Top shape: 32 384 7 7 (602112)
I0511 01:20:13.831100  4331 layer_factory.hpp:74] Creating layer inception_5b/relu_1x1
I0511 01:20:13.831137  4331 net.cpp:76] Creating Layer inception_5b/relu_1x1
I0511 01:20:13.831146  4331 net.cpp:372] inception_5b/relu_1x1 <- inception_5b/1x1
I0511 01:20:13.831154  4331 net.cpp:323] inception_5b/relu_1x1 -> inception_5b/1x1 (in-place)
I0511 01:20:13.831162  4331 net.cpp:105] Setting up inception_5b/relu_1x1
I0511 01:20:13.831168  4331 net.cpp:112] Top shape: 32 384 7 7 (602112)
I0511 01:20:13.831174  4331 layer_factory.hpp:74] Creating layer inception_5b/3x3_reduce
I0511 01:20:13.831183  4331 net.cpp:76] Creating Layer inception_5b/3x3_reduce
I0511 01:20:13.831189  4331 net.cpp:372] inception_5b/3x3_reduce <- inception_5a/output_inception_5a/output_0_split_1
I0511 01:20:13.831199  4331 net.cpp:334] inception_5b/3x3_reduce -> inception_5b/3x3_reduce
I0511 01:20:13.831210  4331 net.cpp:105] Setting up inception_5b/3x3_reduce
I0511 01:20:13.832581  4331 net.cpp:112] Top shape: 32 192 7 7 (301056)
I0511 01:20:13.832597  4331 layer_factory.hpp:74] Creating layer inception_5b/relu_3x3_reduce
I0511 01:20:13.832605  4331 net.cpp:76] Creating Layer inception_5b/relu_3x3_reduce
I0511 01:20:13.832612  4331 net.cpp:372] inception_5b/relu_3x3_reduce <- inception_5b/3x3_reduce
I0511 01:20:13.832619  4331 net.cpp:323] inception_5b/relu_3x3_reduce -> inception_5b/3x3_reduce (in-place)
I0511 01:20:13.832628  4331 net.cpp:105] Setting up inception_5b/relu_3x3_reduce
I0511 01:20:13.832633  4331 net.cpp:112] Top shape: 32 192 7 7 (301056)
I0511 01:20:13.832639  4331 layer_factory.hpp:74] Creating layer inception_5b/3x3
I0511 01:20:13.832649  4331 net.cpp:76] Creating Layer inception_5b/3x3
I0511 01:20:13.832656  4331 net.cpp:372] inception_5b/3x3 <- inception_5b/3x3_reduce
I0511 01:20:13.832665  4331 net.cpp:334] inception_5b/3x3 -> inception_5b/3x3
I0511 01:20:13.832696  4331 net.cpp:105] Setting up inception_5b/3x3
I0511 01:20:13.838191  4331 net.cpp:112] Top shape: 32 384 7 7 (602112)
I0511 01:20:13.838215  4331 layer_factory.hpp:74] Creating layer inception_5b/relu_3x3
I0511 01:20:13.838233  4331 net.cpp:76] Creating Layer inception_5b/relu_3x3
I0511 01:20:13.838242  4331 net.cpp:372] inception_5b/relu_3x3 <- inception_5b/3x3
I0511 01:20:13.838249  4331 net.cpp:323] inception_5b/relu_3x3 -> inception_5b/3x3 (in-place)
I0511 01:20:13.838271  4331 net.cpp:105] Setting up inception_5b/relu_3x3
I0511 01:20:13.838279  4331 net.cpp:112] Top shape: 32 384 7 7 (602112)
I0511 01:20:13.838284  4331 layer_factory.hpp:74] Creating layer inception_5b/5x5_reduce
I0511 01:20:13.838297  4331 net.cpp:76] Creating Layer inception_5b/5x5_reduce
I0511 01:20:13.838304  4331 net.cpp:372] inception_5b/5x5_reduce <- inception_5a/output_inception_5a/output_0_split_2
I0511 01:20:13.838312  4331 net.cpp:334] inception_5b/5x5_reduce -> inception_5b/5x5_reduce
I0511 01:20:13.838322  4331 net.cpp:105] Setting up inception_5b/5x5_reduce
I0511 01:20:13.838677  4331 net.cpp:112] Top shape: 32 48 7 7 (75264)
I0511 01:20:13.838691  4331 layer_factory.hpp:74] Creating layer inception_5b/relu_5x5_reduce
I0511 01:20:13.838701  4331 net.cpp:76] Creating Layer inception_5b/relu_5x5_reduce
I0511 01:20:13.838708  4331 net.cpp:372] inception_5b/relu_5x5_reduce <- inception_5b/5x5_reduce
I0511 01:20:13.838716  4331 net.cpp:323] inception_5b/relu_5x5_reduce -> inception_5b/5x5_reduce (in-place)
I0511 01:20:13.838723  4331 net.cpp:105] Setting up inception_5b/relu_5x5_reduce
I0511 01:20:13.838729  4331 net.cpp:112] Top shape: 32 48 7 7 (75264)
I0511 01:20:13.838735  4331 layer_factory.hpp:74] Creating layer inception_5b/5x5
I0511 01:20:13.838745  4331 net.cpp:76] Creating Layer inception_5b/5x5
I0511 01:20:13.838752  4331 net.cpp:372] inception_5b/5x5 <- inception_5b/5x5_reduce
I0511 01:20:13.838759  4331 net.cpp:334] inception_5b/5x5 -> inception_5b/5x5
I0511 01:20:13.838768  4331 net.cpp:105] Setting up inception_5b/5x5
I0511 01:20:13.840070  4331 net.cpp:112] Top shape: 32 128 7 7 (200704)
I0511 01:20:13.840085  4331 layer_factory.hpp:74] Creating layer inception_5b/relu_5x5
I0511 01:20:13.840095  4331 net.cpp:76] Creating Layer inception_5b/relu_5x5
I0511 01:20:13.840128  4331 net.cpp:372] inception_5b/relu_5x5 <- inception_5b/5x5
I0511 01:20:13.840138  4331 net.cpp:323] inception_5b/relu_5x5 -> inception_5b/5x5 (in-place)
I0511 01:20:13.840147  4331 net.cpp:105] Setting up inception_5b/relu_5x5
I0511 01:20:13.840152  4331 net.cpp:112] Top shape: 32 128 7 7 (200704)
I0511 01:20:13.840158  4331 layer_factory.hpp:74] Creating layer inception_5b/pool
I0511 01:20:13.840167  4331 net.cpp:76] Creating Layer inception_5b/pool
I0511 01:20:13.840173  4331 net.cpp:372] inception_5b/pool <- inception_5a/output_inception_5a/output_0_split_3
I0511 01:20:13.840181  4331 net.cpp:334] inception_5b/pool -> inception_5b/pool
I0511 01:20:13.840190  4331 net.cpp:105] Setting up inception_5b/pool
I0511 01:20:13.840198  4331 net.cpp:112] Top shape: 32 832 7 7 (1304576)
I0511 01:20:13.840204  4331 layer_factory.hpp:74] Creating layer inception_5b/pool_proj
I0511 01:20:13.840215  4331 net.cpp:76] Creating Layer inception_5b/pool_proj
I0511 01:20:13.840221  4331 net.cpp:372] inception_5b/pool_proj <- inception_5b/pool
I0511 01:20:13.840230  4331 net.cpp:334] inception_5b/pool_proj -> inception_5b/pool_proj
I0511 01:20:13.840240  4331 net.cpp:105] Setting up inception_5b/pool_proj
I0511 01:20:13.841158  4331 net.cpp:112] Top shape: 32 128 7 7 (200704)
I0511 01:20:13.841172  4331 layer_factory.hpp:74] Creating layer inception_5b/relu_pool_proj
I0511 01:20:13.841181  4331 net.cpp:76] Creating Layer inception_5b/relu_pool_proj
I0511 01:20:13.841187  4331 net.cpp:372] inception_5b/relu_pool_proj <- inception_5b/pool_proj
I0511 01:20:13.841197  4331 net.cpp:323] inception_5b/relu_pool_proj -> inception_5b/pool_proj (in-place)
I0511 01:20:13.841205  4331 net.cpp:105] Setting up inception_5b/relu_pool_proj
I0511 01:20:13.841212  4331 net.cpp:112] Top shape: 32 128 7 7 (200704)
I0511 01:20:13.841217  4331 layer_factory.hpp:74] Creating layer inception_5b/output
I0511 01:20:13.841225  4331 net.cpp:76] Creating Layer inception_5b/output
I0511 01:20:13.841230  4331 net.cpp:372] inception_5b/output <- inception_5b/1x1
I0511 01:20:13.841238  4331 net.cpp:372] inception_5b/output <- inception_5b/3x3
I0511 01:20:13.841243  4331 net.cpp:372] inception_5b/output <- inception_5b/5x5
I0511 01:20:13.841250  4331 net.cpp:372] inception_5b/output <- inception_5b/pool_proj
I0511 01:20:13.841258  4331 net.cpp:334] inception_5b/output -> inception_5b/output
I0511 01:20:13.841265  4331 net.cpp:105] Setting up inception_5b/output
I0511 01:20:13.841284  4331 net.cpp:112] Top shape: 32 1024 7 7 (1605632)
I0511 01:20:13.841289  4331 layer_factory.hpp:74] Creating layer pool5/7x7_s1
I0511 01:20:13.841300  4331 net.cpp:76] Creating Layer pool5/7x7_s1
I0511 01:20:13.841306  4331 net.cpp:372] pool5/7x7_s1 <- inception_5b/output
I0511 01:20:13.841315  4331 net.cpp:334] pool5/7x7_s1 -> pool5/7x7_s1
I0511 01:20:13.841323  4331 net.cpp:105] Setting up pool5/7x7_s1
I0511 01:20:13.841331  4331 net.cpp:112] Top shape: 32 1024 1 1 (32768)
I0511 01:20:13.841336  4331 layer_factory.hpp:74] Creating layer pool5/drop_7x7_s1
I0511 01:20:13.841344  4331 net.cpp:76] Creating Layer pool5/drop_7x7_s1
I0511 01:20:13.841349  4331 net.cpp:372] pool5/drop_7x7_s1 <- pool5/7x7_s1
I0511 01:20:13.841358  4331 net.cpp:323] pool5/drop_7x7_s1 -> pool5/7x7_s1 (in-place)
I0511 01:20:13.841367  4331 net.cpp:105] Setting up pool5/drop_7x7_s1
I0511 01:20:13.841378  4331 net.cpp:112] Top shape: 32 1024 1 1 (32768)
I0511 01:20:13.841384  4331 layer_factory.hpp:74] Creating layer loss3/classifier
I0511 01:20:13.841394  4331 net.cpp:76] Creating Layer loss3/classifier
I0511 01:20:13.841399  4331 net.cpp:372] loss3/classifier <- pool5/7x7_s1
I0511 01:20:13.841410  4331 net.cpp:334] loss3/classifier -> loss3/classifier
I0511 01:20:13.841420  4331 net.cpp:105] Setting up loss3/classifier
I0511 01:20:13.841451  4331 net.cpp:112] Top shape: 32 2 1 1 (64)
I0511 01:20:13.841461  4331 layer_factory.hpp:74] Creating layer loss3/loss3
I0511 01:20:13.841471  4331 net.cpp:76] Creating Layer loss3/loss3
I0511 01:20:13.841476  4331 net.cpp:372] loss3/loss3 <- loss3/classifier
I0511 01:20:13.841496  4331 net.cpp:372] loss3/loss3 <- label_data_1_split_2
I0511 01:20:13.841508  4331 net.cpp:334] loss3/loss3 -> loss3/loss3
I0511 01:20:13.841517  4331 net.cpp:105] Setting up loss3/loss3
I0511 01:20:13.841528  4331 layer_factory.hpp:74] Creating layer loss3/loss3
I0511 01:20:13.841544  4331 net.cpp:112] Top shape: 1 1 1 1 (1)
I0511 01:20:13.841550  4331 net.cpp:118]     with loss weight 1
I0511 01:20:13.841568  4331 net.cpp:163] loss3/loss3 needs backward computation.
I0511 01:20:13.841574  4331 net.cpp:163] loss3/classifier needs backward computation.
I0511 01:20:13.841599  4331 net.cpp:163] pool5/drop_7x7_s1 needs backward computation.
I0511 01:20:13.841605  4331 net.cpp:163] pool5/7x7_s1 needs backward computation.
…
I0511 01:20:13.849550  4331 solver.cpp:154] Creating test net (#0) specified by net file: ../../train_val.prototxt
I0511 01:20:13.849786  4331 net.cpp:253] The NetState phase (1) differed from the phase (0) specified by a rule in layer data
I0511 01:20:13.851202  4331 net.cpp:42] Initializing net from parameters: 
name: "GoogleNet"
state {
  phase: TEST
}
layer {
  name: "data"
  type: "Data"
  top: "data"
  top: "label"
  include {
    phase: TEST
  }
  transform_param {
    mirror: false
    crop_size: 224
    mean_value: 104
    mean_value: 117
    mean_value: 123
  }
  data_param {
    source: "val_lmdb"
    batch_size: 32
    backend: LMDB
  }
}
layer {
  name: "conv1/7x7_s2"
  type: "Convolution"
  bottom: "data"
  top: "conv1/7x7_s2"
  param {
    lr_mult: 1
    decay_mult: 1
  }
  param {
    lr_mult: 2
    decay_mult: 0
  }
  convolution_param {
    num_output: 64
    pad: 3
    kernel_size: 7
    stride: 2
    weight_filler {
      type: "xavier"
      std: 0.1
    }
    bias_filler {
      type: "constant"
      value: 0.2
    }
  }
}
layer {
  name: "conv1/relu_7x7"
  type: "ReLU"
  bottom: "conv1/7x7_s2"
  top: "conv1/7x7_s2"
}
layer {
  name: "pool1/3x3_s2"
  type: "Pooling"
  bottom: "conv1/7x7_s2"
  top: "pool1/3x3_s2"
  pooling_param {
    pool: MAX
    kernel_size: 3
    stride: 2
  }
}
layer {
  name: "pool1/norm1"
  type: "LRN"
  bottom: "pool1/3x3_s2"
  top: "pool1/norm1"
  lrn_param {
    local_size: 5
    alpha: 0.0001
    beta: 0.75
  }
}
layer {
  name: "conv2/3x3_reduce"
  type: "Convolution"
  bottom: "pool1/norm1"
  top: "conv2/3x3_reduce"
  param {
    lr_mult: 1
    decay_mult: 1
  }
  param {
    lr_mult: 2
    decay_mult: 0
  }
  convolution_param {
    num_output: 64
    kernel_size: 1
    weight_filler {
      type: "xavier"
      std: 0.1
    }
    bias_filler {
      type: "constant"
      value: 0.2
    }
  }
}
layer {
  name: "conv2/relu_3x3_reduce"
  type: "ReLU"
  bottom: "conv2/3x3_reduce"
  top: "conv2/3x3_reduce"
}
layer {
  name: "conv2/3x3"
  type: "Convolution"
  bottom: "conv2/3x3_reduce"
  top: "conv2/3x3"
  param {
    lr_mult: 1
    decay_mult: 1
  }
  param {
    lr_mult: 2
    decay_mult: 0
  }
  convolution_param {
    num_output: 192
    pad: 1
    kernel_size: 3
    weight_filler {
      type: "xavier"
      std: 0.03
    }
    bias_filler {
      type: "constant"
      value: 0.2
    }
  }
}
layer {
  name: "conv2/relu_3x3"
  type: "ReLU"
  bottom: "conv2/3x3"
  top: "conv2/3x3"
}
layer {
  name: "conv2/norm2"
  type: "LRN"
  bottom: "conv2/3x3"
  top: "conv2/norm2"
  lrn_param {
    local_size: 5
    alpha: 0.0001
    beta: 0.75
  }
}
layer {
  name: "pool2/3x3_s2"
  type: "Pooling"
  bottom: "conv2/norm2"
  top: "pool2/3x3_s2"
  pooling_param {
    pool: MAX
    kernel_size: 3
    stride: 2
  }
}
layer {
  name: "inception_3a/1x1"
  type: "Convolution"
  bottom: "pool2/3x3_s2"
  top: "inception_3a/1x1"
  param {
    lr_mult: 1
    decay_mult: 1
  }
  param {
    lr_mult: 2
    decay_mult: 0
  }
  convolution_param {
    num_output: 64
    kernel_size: 1
    weight_filler {
      type: "xavier"
      std: 0.03
    }
    bias_filler {
      type: "constant"
      value: 0.2
    }
  }
}
layer {
  name: "inception_3a/relu_1x1"
  type: "ReLU"
  bottom: "inception_3a/1x1"
  top: "inception_3a/1x1"
}
layer {
  name: "inception_3a/3x3_reduce"
  type: "Convolution"
  bottom: "pool2/3x3_s2"
  top: "inception_3a/3x3_reduce"
  param {
    lr_mult: 1
    decay_mult: 1
  }
  param {
    lr_mult: 2
    decay_mult: 0
  }
  convolution_param {
    num_output: 96
    kernel_size: 1
    weight_filler {
      type: "xavier"
      std: 0.09
    }
    bias_filler {
      type: "constant"
      value: 0.2
    }
  }
}
layer {
  name: "inception_3a/relu_3x3_reduce"
  type: "ReLU"
  bottom: "inception_3a/3x3_reduce"
  top: "inception_3a/3x3_reduce"
}
layer {
  name: "inception_3a/3x3"
  type: "Convolution"
  bottom: "inception_3a/3x3_reduce"
  top: "inception_3a/3x3"
  param {
    lr_mult: 1
    decay_mult: 1
  }
  param {
    lr_mult: 2
    decay_mult: 0
  }
  convolution_param {
    num_output: 128
    pad: 1
    kernel_size: 3
    weight_filler {
      type: "xavier"
      std: 0.03
    }
    bias_filler {
      type: "constant"
      value: 0.2
    }
  }
}
layer {
  name: "inception_3a/relu_3x3"
  type: "ReLU"
  bottom: "inception_3a/3x3"
  top: "inception_3a/3x3"
}
layer {
  name: "inception_3a/5x5_reduce"
  type: "Convolution"
  bottom: "pool2/3x3_s2"
  top: "inception_3a/5x5_reduce"
  param {
    lr_mult: 1
    decay_mult: 1
  }
  param {
    lr_mult: 2
    decay_mult: 0
  }
  convolution_param {
    num_output: 16
    kernel_size: 1
    weight_filler {
      type: "xavier"
      std: 0.2
    }
    bias_filler {
      type: "constant"
      value: 0.2
    }
  }
}
layer {
  name: "inception_3a/relu_5x5_reduce"
  type: "ReLU"
  bottom: "inception_3a/5x5_reduce"
  top: "inception_3a/5x5_reduce"
}
layer {
  name: "inception_3a/5x5"
  type: "Convolution"
  bottom: "inception_3a/5x5_reduce"
  top: "inception_3a/5x5"
  param {
    lr_mult: 1
    decay_mult: 1
  }
  param {
    lr_mult: 2
    decay_mult: 0
  }
  convolution_param {
    num_output: 32
    pad: 2
    kernel_size: 5
    weight_filler {
      type: "xavier"
      std: 0.03
    }
    bias_filler {
      type: "constant"
      value: 0.2
    }
  }
}
layer {
  name: "inception_3a/relu_5x5"
  type: "ReLU"
  bottom: "inception_3a/5x5"
  top: "inception_3a/5x5"
}
layer {
  name: "inception_3a/pool"
  type: "Pooling"
  bottom: "pool2/3x3_s2"
  top: "inception_3a/pool"
  pooling_param {
    pool: MAX
    kernel_size: 3
    stride: 1
    pad: 1
  }
}
layer {
  name: "inception_3a/pool_proj"
  type: "Convolution"
  bottom: "inception_3a/pool"
  top: "inception_3a/pool_proj"
  param {
    lr_mult: 1
    decay_mult: 1
  }
  param {
    lr_mult: 2
    decay_mult: 0
  }
  convolution_param {
    num_output: 32
    kernel_size: 1
    weight_filler {
      type: "xavier"
      std: 0.1
    }
    bias_filler {
      type: "constant"
      value: 0.2
    }
  }
}
layer {
  name: "inception_3a/relu_pool_proj"
  type: "ReLU"
  bottom: "inception_3a/pool_proj"
  top: "inception_3a/pool_proj"
}
layer {
  name: "inception_3a/output"
  type: "Concat"
  bottom: "inception_3a/1x1"
  bottom: "inception_3a/3x3"
  bottom: "inception_3a/5x5"
  bottom: "inception_3a/pool_proj"
  top: "inception_3a/output"
}
layer {
  name: "inception_3b/1x1"
  type: "Convolution"
  bottom: "inception_3a/output"
  top: "inception_3b/1x1"
  param {
    lr_mult: 1
    decay_mult: 1
  }
  param {
    lr_mult: 2
    decay_mult: 0
  }
  convolution_param {
    num_output: 128
    kernel_size: 1
    weight_filler {
      type: "xavier"
      std: 0.03
    }
    bias_filler {
      type: "constant"
      value: 0.2
    }
  }
}
layer {
  name: "inception_3b/relu_1x1"
  type: "ReLU"
  bottom: "inception_3b/1x1"
  top: "inception_3b/1x1"
}
layer {
  name: "inception_3b/3x3_reduce"
  type: "Convolution"
  bottom: "inception_3a/output"
  top: "inception_3b/3x3_reduce"
  param {
    lr_mult: 1
    decay_mult: 1
  }
  param {
    lr_mult: 2
    decay_mult: 0
  }
  convolution_param {
    num_output: 128
    kernel_size: 1
    weight_filler {
      type: "xavier"
      std: 0.09
    }
    bias_filler {
      type: "constant"
      value: 0.2
    }
  }
}
layer {
  name: "inception_3b/relu_3x3_reduce"
  type: "ReLU"
  bottom: "inception_3b/3x3_reduce"
  top: "inception_3b/3x3_reduce"
}
layer {
  name: "inception_3b/3x3"
  type: "Convolution"
  bottom: "inception_3b/3x3_reduce"
  top: "inception_3b/3x3"
  param {
    lr_mult: 1
    decay_mult: 1
  }
  param {
    lr_mult: 2
    decay_mult: 0
  }
  convolution_param {
    num_output: 192
    pad: 1
    kernel_size: 3
    weight_filler {
      type: "xavier"
      std: 0.03
    }
    bias_filler {
      type: "constant"
      value: 0.2
    }
  }
}
layer {
  name: "inception_3b/relu_3x3"
  type: "ReLU"
  bottom: "inception_3b/3x3"
  top: "inception_3b/3x3"
}
layer {
  name: "inception_3b/5x5_reduce"
  type: "Convolution"
  bottom: "inception_3a/output"
  top: "inception_3b/5x5_reduce"
  param {
    lr_mult: 1
    decay_mult: 1
  }
  param {
    lr_mult: 2
    decay_mult: 0
  }
  convolution_param {
    num_output: 32
    kernel_size: 1
    weight_filler {
      type: "xavier"
      std: 0.2
    }
    bias_filler {
      type: "constant"
      value: 0.2
    }
  }
}
layer {
  name: "inception_3b/relu_5x5_reduce"
  type: "ReLU"
  bottom: "inception_3b/5x5_reduce"
  top: "inception_3b/5x5_reduce"
}
layer {
  name: "inception_3b/5x5"
  type: "Convolution"
  bottom: "inception_3b/5x5_reduce"
  top: "inception_3b/5x5"
  param {
    lr_mult: 1
    decay_mult: 1
  }
  param {
    lr_mult: 2
    decay_mult: 0
  }
  convolution_param {
    num_output: 96
    pad: 2
    kernel_size: 5
    weight_filler {
      type: "xavier"
      std: 0.03
    }
    bias_filler {
      type: "constant"
      value: 0.2
    }
  }
}
layer {
  name: "inception_3b/relu_5x5"
  type: "ReLU"
  bottom: "inception_3b/5x5"
  top: "inception_3b/5x5"
}
layer {
  name: "inception_3b/pool"
  type: "Pooling"
  bottom: "inception_3a/output"
  top: "inception_3b/pool"
  pooling_param {
    pool: MAX
    kernel_size: 3
    stride: 1
    pad: 1
  }
}
layer {
  name: "inception_3b/pool_proj"
  type: "Convolution"
  bottom: "inception_3b/pool"
  top: "inception_3b/pool_proj"
  param {
    lr_mult: 1
    decay_mult: 1
  }
  param {
    lr_mult: 2
    decay_mult: 0
  }
  convolution_param {
    num_output: 64
    kernel_size: 1
    weight_filler {
      type: "xavier"
      std: 0.1
    }
    bias_filler {
      type: "constant"
      value: 0.2
    }
  }
}
layer {
  name: "inception_3b/relu_pool_proj"
  type: "ReLU"
  bottom: "inception_3b/pool_proj"
  top: "inception_3b/pool_proj"
}
layer {
  name: "inception_3b/output"
  type: "Concat"
  bottom: "inception_3b/1x1"
  bottom: "inception_3b/3x3"
  bottom: "inception_3b/5x5"
  bottom: "inception_3b/pool_proj"
  top: "inception_3b/output"
}
layer {
  name: "pool3/3x3_s2"
  type: "Pooling"
  bottom: "inception_3b/output"
  top: "pool3/3x3_s2"
  pooling_param {
    pool: MAX
    kernel_size: 3
    stride: 2
  }
}
layer {
  name: "inception_4a/1x1"
  type: "Convolution"
  bottom: "pool3/3x3_s2"
  top: "inception_4a/1x1"
  param {
    lr_mult: 1
    decay_mult: 1
  }
  param {
    lr_mult: 2
    decay_mult: 0
  }
  convolution_param {
    num_output: 192
    kernel_size: 1
    weight_filler {
      type: "xavier"
      std: 0.03
    }
    bias_filler {
      type: "constant"
      value: 0.2
    }
  }
}
layer {
  name: "inception_4a/relu_1x1"
  type: "ReLU"
  bottom: "inception_4a/1x1"
  top: "inception_4a/1x1"
}
layer {
  name: "inception_4a/3x3_reduce"
  type: "Convolution"
  bottom: "pool3/3x3_s2"
  top: "inception_4a/3x3_reduce"
  param {
    lr_mult: 1
    decay_mult: 1
  }
  param {
    lr_mult: 2
    decay_mult: 0
  }
  convolution_param {
    num_output: 96
    kernel_size: 1
    weight_filler {
      type: "xavier"
      std: 0.09
    }
    bias_filler {
      type: "constant"
      value: 0.2
    }
  }
}
layer {
  name: "inception_4a/relu_3x3_reduce"
  type: "ReLU"
  bottom: "inception_4a/3x3_reduce"
  top: "inception_4a/3x3_reduce"
}
layer {
  name: "inception_4a/3x3"
  type: "Convolution"
  bottom: "inception_4a/3x3_reduce"
  top: "inception_4a/3x3"
  param {
    lr_mult: 1
    decay_mult: 1
  }
  param {
    lr_mult: 2
    decay_mult: 0
  }
  convolution_param {
    num_output: 208
    pad: 1
    kernel_size: 3
    weight_filler {
      type: "xavier"
      std: 0.03
    }
    bias_filler {
      type: "constant"
      value: 0.2
    }
  }
}
layer {
  name: "inception_4a/relu_3x3"
  type: "ReLU"
  bottom: "inception_4a/3x3"
  top: "inception_4a/3x3"
}
layer {
  name: "inception_4a/5x5_reduce"
  type: "Convolution"
  bottom: "pool3/3x3_s2"
  top: "inception_4a/5x5_reduce"
  param {
    lr_mult: 1
    decay_mult: 1
  }
  param {
    lr_mult: 2
    decay_mult: 0
  }
  convolution_param {
    num_output: 16
    kernel_size: 1
    weight_filler {
      type: "xavier"
      std: 0.2
    }
    bias_filler {
      type: "constant"
      value: 0.2
    }
  }
}
layer {
  name: "inception_4a/relu_5x5_reduce"
  type: "ReLU"
  bottom: "inception_4a/5x5_reduce"
  top: "inception_4a/5x5_reduce"
}
layer {
  name: "inception_4a/5x5"
  type: "Convolution"
  bottom: "inception_4a/5x5_reduce"
  top: "inception_4a/5x5"
  param {
    lr_mult: 1
    decay_mult: 1
  }
  param {
    lr_mult: 2
    decay_mult: 0
  }
  convolution_param {
    num_output: 48
    pad: 2
    kernel_size: 5
    weight_filler {
      type: "xavier"
      std: 0.03
    }
    bias_filler {
      type: "constant"
      value: 0.2
    }
  }
}
layer {
  name: "inception_4a/relu_5x5"
  type: "ReLU"
  bottom: "inception_4a/5x5"
  top: "inception_4a/5x5"
}
layer {
  name: "inception_4a/pool"
  type: "Pooling"
  bottom: "pool3/3x3_s2"
  top: "inception_4a/pool"
  pooling_param {
    pool: MAX
    kernel_size: 3
    stride: 1
    pad: 1
  }
}
layer {
  name: "inception_4a/pool_proj"
  type: "Convolution"
  bottom: "inception_4a/pool"
  top: "inception_4a/pool_proj"
  param {
    lr_mult: 1
    decay_mult: 1
  }
  param {
    lr_mult: 2
    decay_mult: 0
  }
  convolution_param {
    num_output: 64
    kernel_size: 1
    weight_filler {
      type: "xavier"
      std: 0.1
    }
    bias_filler {
      type: "constant"
      value: 0.2
    }
  }
}
layer {
  name: "inception_4a/relu_pool_proj"
  type: "ReLU"
  bottom: "inception_4a/pool_proj"
  top: "inception_4a/pool_proj"
}
layer {
  name: "inception_4a/output"
  type: "Concat"
  bottom: "inception_4a/1x1"
  bottom: "inception_4a/3x3"
  bottom: "inception_4a/5x5"
  bottom: "inception_4a/pool_proj"
  top: "inception_4a/output"
}
layer {
  name: "loss1/ave_pool"
  type: "Pooling"
  bottom: "inception_4a/output"
  top: "loss1/ave_pool"
  pooling_param {
    pool: AVE
    kernel_size: 5
    stride: 3
  }
}
layer {
  name: "loss1/conv"
  type: "Convolution"
  bottom: "loss1/ave_pool"
  top: "loss1/conv"
  param {
    lr_mult: 1
    decay_mult: 1
  }
  param {
    lr_mult: 2
    decay_mult: 0
  }
  convolution_param {
    num_output: 128
    kernel_size: 1
    weight_filler {
      type: "xavier"
      std: 0.08
    }
    bias_filler {
      type: "constant"
      value: 0.2
    }
  }
}
layer {
  name: "loss1/relu_conv"
  type: "ReLU"
  bottom: "loss1/conv"
  top: "loss1/conv"
}
layer {
  name: "loss1/fc"
  type: "InnerProduct"
  bottom: "loss1/conv"
  top: "loss1/fc"
  param {
    lr_mult: 1
    decay_mult: 1
  }
  param {
    lr_mult: 2
    decay_mult: 0
  }
  inner_product_param {
    num_output: 1024
    weight_filler {
      type: "xavier"
      std: 0.02
    }
    bias_filler {
      type: "constant"
      value: 0.2
    }
  }
}
layer {
  name: "loss1/relu_fc"
  type: "ReLU"
  bottom: "loss1/fc"
  top: "loss1/fc"
}
layer {
  name: "loss1/drop_fc"
  type: "Dropout"
  bottom: "loss1/fc"
  top: "loss1/fc"
  dropout_param {
    dropout_ratio: 0.7
  }
}
layer {
  name: "loss1/classifier"
  type: "InnerProduct"
  bottom: "loss1/fc"
  top: "loss1/classifier"
  param {
    lr_mult: 1
    decay_mult: 1
  }
  param {
    lr_mult: 2
    decay_mult: 0
  }
  inner_product_param {
    num_output: 2
    weight_filler {
      type: "xavier"
      std: 0.0009765625
    }
    bias_filler {
      type: "constant"
      value: 0
    }
  }
}
layer {
  name: "loss1/loss"
  type: "SoftmaxWithLoss"
  bottom: "loss1/classifier"
  bottom: "label"
  top: "loss1/loss1"
  loss_weight: 0.3
}
layer {
  name: "loss1/top-1"
  type: "Accuracy"
  bottom: "loss1/classifier"
  bottom: "label"
  top: "loss1/top-1"
  include {
    phase: TEST
  }
}
layer {
  name: "inception_4b/1x1"
  type: "Convolution"
  bottom: "inception_4a/output"
  top: "inception_4b/1x1"
  param {
    lr_mult: 1
    decay_mult: 1
  }
  param {
    lr_mult: 2
    decay_mult: 0
  }
  convolution_param {
    num_output: 160
    kernel_size: 1
    weight_filler {
      type: "xavier"
      std: 0.03
    }
    bias_filler {
      type: "constant"
      value: 0.2
    }
  }
}
layer {
  name: "inception_4b/relu_1x1"
  type: "ReLU"
  bottom: "inception_4b/1x1"
  top: "inception_4b/1x1"
}
layer {
  name: "inception_4b/3x3_reduce"
  type: "Convolution"
  bottom: "inception_4a/output"
  top: "inception_4b/3x3_reduce"
  param {
    lr_mult: 1
    decay_mult: 1
  }
  param {
    lr_mult: 2
    decay_mult: 0
  }
  convolution_param {
    num_output: 112
    kernel_size: 1
    weight_filler {
      type: "xavier"
      std: 0.09
    }
    bias_filler {
      type: "constant"
      value: 0.2
    }
  }
}
layer {
  name: "inception_4b/relu_3x3_reduce"
  type: "ReLU"
  bottom: "inception_4b/3x3_reduce"
  top: "inception_4b/3x3_reduce"
}
layer {
  name: "inception_4b/3x3"
  type: "Convolution"
  bottom: "inception_4b/3x3_reduce"
  top: "inception_4b/3x3"
  param {
    lr_mult: 1
    decay_mult: 1
  }
  param {
    lr_mult: 2
    decay_mult: 0
  }
  convolution_param {
    num_output: 224
    pad: 1
    kernel_size: 3
    weight_filler {
      type: "xavier"
      std: 0.03
    }
    bias_filler {
      type: "constant"
      value: 0.2
    }
  }
}
layer {
  name: "inception_4b/relu_3x3"
  type: "ReLU"
  bottom: "inception_4b/3x3"
  top: "inception_4b/3x3"
}
layer {
  name: "inception_4b/5x5_reduce"
  type: "Convolution"
  bottom: "inception_4a/output"
  top: "inception_4b/5x5_reduce"
  param {
    lr_mult: 1
    decay_mult: 1
  }
  param {
    lr_mult: 2
    decay_mult: 0
  }
  convolution_param {
    num_output: 24
    kernel_size: 1
    weight_filler {
      type: "xavier"
      std: 0.2
    }
    bias_filler {
      type: "constant"
      value: 0.2
    }
  }
}
layer {
  name: "inception_4b/relu_5x5_reduce"
  type: "ReLU"
  bottom: "inception_4b/5x5_reduce"
  top: "inception_4b/5x5_reduce"
}
layer {
  name: "inception_4b/5x5"
  type: "Convolution"
  bottom: "inception_4b/5x5_reduce"
  top: "inception_4b/5x5"
  param {
    lr_mult: 1
    decay_mult: 1
  }
  param {
    lr_mult: 2
    decay_mult: 0
  }
  convolution_param {
    num_output: 64
    pad: 2
    kernel_size: 5
    weight_filler {
      type: "xavier"
      std: 0.03
    }
    bias_filler {
      type: "constant"
      value: 0.2
    }
  }
}
layer {
  name: "inception_4b/relu_5x5"
  type: "ReLU"
  bottom: "inception_4b/5x5"
  top: "inception_4b/5x5"
}
layer {
  name: "inception_4b/pool"
  type: "Pooling"
  bottom: "inception_4a/output"
  top: "inception_4b/pool"
  pooling_param {
    pool: MAX
    kernel_size: 3
    stride: 1
    pad: 1
  }
}
layer {
  name: "inception_4b/pool_proj"
  type: "Convolution"
  bottom: "inception_4b/pool"
  top: "inception_4b/pool_proj"
  param {
    lr_mult: 1
    decay_mult: 1
  }
  param {
    lr_mult: 2
    decay_mult: 0
  }
  convolution_param {
    num_output: 64
    kernel_size: 1
    weight_filler {
      type: "xavier"
      std: 0.1
    }
    bias_filler {
      type: "constant"
      value: 0.2
    }
  }
}
layer {
  name: "inception_4b/relu_pool_proj"
  type: "ReLU"
  bottom: "inception_4b/pool_proj"
  top: "inception_4b/pool_proj"
}
layer {
  name: "inception_4b/output"
  type: "Concat"
  bottom: "inception_4b/1x1"
  bottom: "inception_4b/3x3"
  bottom: "inception_4b/5x5"
  bottom: "inception_4b/pool_proj"
  top: "inception_4b/output"
}
layer {
  name: "inception_4c/1x1"
  type: "Convolution"
  bottom: "inception_4b/output"
  top: "inception_4c/1x1"
  param {
    lr_mult: 1
    decay_mult: 1
  }
  param {
    lr_mult: 2
    decay_mult: 0
  }
  convolution_param {
    num_output: 128
    kernel_size: 1
    weight_filler {
      type: "xavier"
      std: 0.03
    }
    bias_filler {
      type: "constant"
      value: 0.2
    }
  }
}
layer {
  name: "inception_4c/relu_1x1"
  type: "ReLU"
  bottom: "inception_4c/1x1"
  top: "inception_4c/1x1"
}
layer {
  name: "inception_4c/3x3_reduce"
  type: "Convolution"
  bottom: "inception_4b/output"
  top: "inception_4c/3x3_reduce"
  param {
    lr_mult: 1
    decay_mult: 1
  }
  param {
    lr_mult: 2
    decay_mult: 0
  }
  convolution_param {
    num_output: 128
    kernel_size: 1
    weight_filler {
      type: "xavier"
      std: 0.09
    }
    bias_filler {
      type: "constant"
      value: 0.2
    }
  }
}
layer {
  name: "inception_4c/relu_3x3_reduce"
  type: "ReLU"
  bottom: "inception_4c/3x3_reduce"
  top: "inception_4c/3x3_reduce"
}
layer {
  name: "inception_4c/3x3"
  type: "Convolution"
  bottom: "inception_4c/3x3_reduce"
  top: "inception_4c/3x3"
  param {
    lr_mult: 1
    decay_mult: 1
  }
  param {
    lr_mult: 2
    decay_mult: 0
  }
  convolution_param {
    num_output: 256
    pad: 1
    kernel_size: 3
    weight_filler {
      type: "xavier"
      std: 0.03
    }
    bias_filler {
      type: "constant"
      value: 0.2
    }
  }
}
layer {
  name: "inception_4c/relu_3x3"
  type: "ReLU"
  bottom: "inception_4c/3x3"
  top: "inception_4c/3x3"
}
layer {
  name: "inception_4c/5x5_reduce"
  type: "Convolution"
  bottom: "inception_4b/output"
  top: "inception_4c/5x5_reduce"
  param {
    lr_mult: 1
    decay_mult: 1
  }
  param {
    lr_mult: 2
    decay_mult: 0
  }
  convolution_param {
    num_output: 24
    kernel_size: 1
    weight_filler {
      type: "xavier"
      std: 0.2
    }
    bias_filler {
      type: "constant"
      value: 0.2
    }
  }
}
layer {
  name: "inception_4c/relu_5x5_reduce"
  type: "ReLU"
  bottom: "inception_4c/5x5_reduce"
  top: "inception_4c/5x5_reduce"
}
layer {
  name: "inception_4c/5x5"
  type: "Convolution"
  bottom: "inception_4c/5x5_reduce"
  top: "inception_4c/5x5"
  param {
    lr_mult: 1
    decay_mult: 1
  }
  param {
    lr_mult: 2
    decay_mult: 0
  }
  convolution_param {
    num_output: 64
    pad: 2
    kernel_size: 5
    weight_filler {
      type: "xavier"
      std: 0.03
    }
    bias_filler {
      type: "constant"
      value: 0.2
    }
  }
}
layer {
  name: "inception_4c/relu_5x5"
  type: "ReLU"
  bottom: "inception_4c/5x5"
  top: "inception_4c/5x5"
}
layer {
  name: "inception_4c/pool"
  type: "Pooling"
  bottom: "inception_4b/output"
  top: "inception_4c/pool"
  pooling_param {
    pool: MAX
    kernel_size: 3
    stride: 1
    pad: 1
  }
}
layer {
  name: "inception_4c/pool_proj"
  type: "Convolution"
  bottom: "inception_4c/pool"
  top: "inception_4c/pool_proj"
  param {
    lr_mult: 1
    decay_mult: 1
  }
  param {
    lr_mult: 2
    decay_mult: 0
  }
  convolution_param {
    num_output: 64
    kernel_size: 1
    weight_filler {
      type: "xavier"
      std: 0.1
    }
    bias_filler {
      type: "constant"
      value: 0.2
    }
  }
}
layer {
  name: "inception_4c/relu_pool_proj"
  type: "ReLU"
  bottom: "inception_4c/pool_proj"
  top: "inception_4c/pool_proj"
}
layer {
  name: "inception_4c/output"
  type: "Concat"
  bottom: "inception_4c/1x1"
  bottom: "inception_4c/3x3"
  bottom: "inception_4c/5x5"
  bottom: "inception_4c/pool_proj"
  top: "inception_4c/output"
}
layer {
  name: "inception_4d/1x1"
  type: "Convolution"
  bottom: "inception_4c/output"
  top: "inception_4d/1x1"
  param {
    lr_mult: 1
    decay_mult: 1
  }
  param {
    lr_mult: 2
    decay_mult: 0
  }
  convolution_param {
    num_output: 112
    kernel_size: 1
    weight_filler {
      type: "xavier"
      std: 0.03
    }
    bias_filler {
      type: "constant"
      value: 0.2
    }
  }
}
layer {
  name: "inception_4d/relu_1x1"
  type: "ReLU"
  bottom: "inception_4d/1x1"
  top: "inception_4d/1x1"
}
layer {
  name: "inception_4d/3x3_reduce"
  type: "Convolution"
  bottom: "inception_4c/output"
  top: "inception_4d/3x3_reduce"
  param {
    lr_mult: 1
    decay_mult: 1
  }
  param {
    lr_mult: 2
    decay_mult: 0
  }
  convolution_param {
    num_output: 144
    kernel_size: 1
    weight_filler {
      type: "xavier"
      std: 0.09
    }
    bias_filler {
      type: "constant"
      value: 0.2
    }
  }
}
layer {
  name: "inception_4d/relu_3x3_reduce"
  type: "ReLU"
  bottom: "inception_4d/3x3_reduce"
  top: "inception_4d/3x3_reduce"
}
layer {
  name: "inception_4d/3x3"
  type: "Convolution"
  bottom: "inception_4d/3x3_reduce"
  top: "inception_4d/3x3"
  param {
    lr_mult: 1
    decay_mult: 1
  }
  param {
    lr_mult: 2
    decay_mult: 0
  }
  convolution_param {
    num_output: 288
    pad: 1
    kernel_size: 3
    weight_filler {
      type: "xavier"
      std: 0.03
    }
    bias_filler {
      type: "constant"
      value: 0.2
    }
  }
}
layer {
  name: "inception_4d/relu_3x3"
  type: "ReLU"
  bottom: "inception_4d/3x3"
  top: "inception_4d/3x3"
}
layer {
  name: "inception_4d/5x5_reduce"
  type: "Convolution"
  bottom: "inception_4c/output"
  top: "inception_4d/5x5_reduce"
  param {
    lr_mult: 1
    decay_mult: 1
  }
  param {
    lr_mult: 2
    decay_mult: 0
  }
  convolution_param {
    num_output: 32
    kernel_size: 1
    weight_filler {
      type: "xavier"
      std: 0.2
    }
    bias_filler {
      type: "constant"
      value: 0.2
    }
  }
}
layer {
  name: "inception_4d/relu_5x5_reduce"
  type: "ReLU"
  bottom: "inception_4d/5x5_reduce"
  top: "inception_4d/5x5_reduce"
}
layer {
  name: "inception_4d/5x5"
  type: "Convolution"
  bottom: "inception_4d/5x5_reduce"
  top: "inception_4d/5x5"
  param {
    lr_mult: 1
    decay_mult: 1
  }
  param {
    lr_mult: 2
    decay_mult: 0
  }
  convolution_param {
    num_output: 64
    pad: 2
    kernel_size: 5
    weight_filler {
      type: "xavier"
      std: 0.03
    }
    bias_filler {
      type: "constant"
      value: 0.2
    }
  }
}
layer {
  name: "inception_4d/relu_5x5"
  type: "ReLU"
  bottom: "inception_4d/5x5"
  top: "inception_4d/5x5"
}
layer {
  name: "inception_4d/pool"
  type: "Pooling"
  bottom: "inception_4c/output"
  top: "inception_4d/pool"
  pooling_param {
    pool: MAX
    kernel_size: 3
    stride: 1
    pad: 1
  }
}
layer {
  name: "inception_4d/pool_proj"
  type: "Convolution"
  bottom: "inception_4d/pool"
  top: "inception_4d/pool_proj"
  param {
    lr_mult: 1
    decay_mult: 1
  }
  param {
    lr_mult: 2
    decay_mult: 0
  }
  convolution_param {
    num_output: 64
    kernel_size: 1
    weight_filler {
      type: "xavier"
      std: 0.1
    }
    bias_filler {
      type: "constant"
      value: 0.2
    }
  }
}
layer {
  name: "inception_4d/relu_pool_proj"
  type: "ReLU"
  bottom: "inception_4d/pool_proj"
  top: "inception_4d/pool_proj"
}
layer {
  name: "inception_4d/output"
  type: "Concat"
  bottom: "inception_4d/1x1"
  bottom: "inception_4d/3x3"
  bottom: "inception_4d/5x5"
  bottom: "inception_4d/pool_proj"
  top: "inception_4d/output"
}
layer {
  name: "loss2/ave_pool"
  type: "Pooling"
  bottom: "inception_4d/output"
  top: "loss2/ave_pool"
  pooling_param {
    pool: AVE
    kernel_size: 5
    stride: 3
  }
}
layer {
  name: "loss2/conv"
  type: "Convolution"
  bottom: "loss2/ave_pool"
  top: "loss2/conv"
  param {
    lr_mult: 1
    decay_mult: 1
  }
  param {
    lr_mult: 2
    decay_mult: 0
  }
  convolution_param {
    num_output: 128
    kernel_size: 1
    weight_filler {
      type: "xavier"
      std: 0.08
    }
    bias_filler {
      type: "constant"
      value: 0.2
    }
  }
}
layer {
  name: "loss2/relu_conv"
  type: "ReLU"
  bottom: "loss2/conv"
  top: "loss2/conv"
}
layer {
  name: "loss2/fc"
  type: "InnerProduct"
…
I0511 01:20:13.904043  4331 net.cpp:112] Top shape: 32 128 14 14 (802816)
I0511 01:20:13.904059  4331 layer_factory.hpp:74] Creating layer inception_4c/relu_1x1
I0511 01:20:13.904070  4331 net.cpp:76] Creating Layer inception_4c/relu_1x1
I0511 01:20:13.904096  4331 net.cpp:372] inception_4c/relu_1x1 <- inception_4c/1x1
I0511 01:20:13.904105  4331 net.cpp:323] inception_4c/relu_1x1 -> inception_4c/1x1 (in-place)
I0511 01:20:13.904114  4331 net.cpp:105] Setting up inception_4c/relu_1x1
I0511 01:20:13.904119  4331 net.cpp:112] Top shape: 32 128 14 14 (802816)
I0511 01:20:13.904139  4331 layer_factory.hpp:74] Creating layer inception_4c/3x3_reduce
I0511 01:20:13.904151  4331 net.cpp:76] Creating Layer inception_4c/3x3_reduce
I0511 01:20:13.904158  4331 net.cpp:372] inception_4c/3x3_reduce <- inception_4b/output_inception_4b/output_0_split_1
I0511 01:20:13.904166  4331 net.cpp:334] inception_4c/3x3_reduce -> inception_4c/3x3_reduce
I0511 01:20:13.904175  4331 net.cpp:105] Setting up inception_4c/3x3_reduce
I0511 01:20:13.904803  4331 net.cpp:112] Top shape: 32 128 14 14 (802816)
I0511 01:20:13.904820  4331 layer_factory.hpp:74] Creating layer inception_4c/relu_3x3_reduce
I0511 01:20:13.904831  4331 net.cpp:76] Creating Layer inception_4c/relu_3x3_reduce
I0511 01:20:13.904839  4331 net.cpp:372] inception_4c/relu_3x3_reduce <- inception_4c/3x3_reduce
I0511 01:20:13.904845  4331 net.cpp:323] inception_4c/relu_3x3_reduce -> inception_4c/3x3_reduce (in-place)
I0511 01:20:13.904853  4331 net.cpp:105] Setting up inception_4c/relu_3x3_reduce
I0511 01:20:13.904860  4331 net.cpp:112] Top shape: 32 128 14 14 (802816)
I0511 01:20:13.904865  4331 layer_factory.hpp:74] Creating layer inception_4c/3x3
I0511 01:20:13.904873  4331 net.cpp:76] Creating Layer inception_4c/3x3
I0511 01:20:13.904882  4331 net.cpp:372] inception_4c/3x3 <- inception_4c/3x3_reduce
I0511 01:20:13.904901  4331 net.cpp:334] inception_4c/3x3 -> inception_4c/3x3
I0511 01:20:13.904912  4331 net.cpp:105] Setting up inception_4c/3x3
I0511 01:20:13.907596  4331 net.cpp:112] Top shape: 32 256 14 14 (1605632)
I0511 01:20:13.907644  4331 layer_factory.hpp:74] Creating layer inception_4c/relu_3x3
I0511 01:20:13.907662  4331 net.cpp:76] Creating Layer inception_4c/relu_3x3
I0511 01:20:13.907672  4331 net.cpp:372] inception_4c/relu_3x3 <- inception_4c/3x3
I0511 01:20:13.907685  4331 net.cpp:323] inception_4c/relu_3x3 -> inception_4c/3x3 (in-place)
I0511 01:20:13.907701  4331 net.cpp:105] Setting up inception_4c/relu_3x3
I0511 01:20:13.907707  4331 net.cpp:112] Top shape: 32 256 14 14 (1605632)
I0511 01:20:13.907713  4331 layer_factory.hpp:74] Creating layer inception_4c/5x5_reduce
I0511 01:20:13.907723  4331 net.cpp:76] Creating Layer inception_4c/5x5_reduce
I0511 01:20:13.907732  4331 net.cpp:372] inception_4c/5x5_reduce <- inception_4b/output_inception_4b/output_0_split_2
I0511 01:20:13.907745  4331 net.cpp:334] inception_4c/5x5_reduce -> inception_4c/5x5_reduce
I0511 01:20:13.907757  4331 net.cpp:105] Setting up inception_4c/5x5_reduce
I0511 01:20:13.907879  4331 net.cpp:112] Top shape: 32 24 14 14 (150528)
I0511 01:20:13.907902  4331 layer_factory.hpp:74] Creating layer inception_4c/relu_5x5_reduce
I0511 01:20:13.907919  4331 net.cpp:76] Creating Layer inception_4c/relu_5x5_reduce
I0511 01:20:13.907929  4331 net.cpp:372] inception_4c/relu_5x5_reduce <- inception_4c/5x5_reduce
I0511 01:20:13.907938  4331 net.cpp:323] inception_4c/relu_5x5_reduce -> inception_4c/5x5_reduce (in-place)
I0511 01:20:13.907945  4331 net.cpp:105] Setting up inception_4c/relu_5x5_reduce
I0511 01:20:13.907951  4331 net.cpp:112] Top shape: 32 24 14 14 (150528)
I0511 01:20:13.907958  4331 layer_factory.hpp:74] Creating layer inception_4c/5x5
I0511 01:20:13.907969  4331 net.cpp:76] Creating Layer inception_4c/5x5
I0511 01:20:13.907975  4331 net.cpp:372] inception_4c/5x5 <- inception_4c/5x5_reduce
I0511 01:20:13.907984  4331 net.cpp:334] inception_4c/5x5 -> inception_4c/5x5
I0511 01:20:13.907994  4331 net.cpp:105] Setting up inception_4c/5x5
I0511 01:20:13.908397  4331 net.cpp:112] Top shape: 32 64 14 14 (401408)
I0511 01:20:13.908421  4331 layer_factory.hpp:74] Creating layer inception_4c/relu_5x5
I0511 01:20:13.908432  4331 net.cpp:76] Creating Layer inception_4c/relu_5x5
I0511 01:20:13.909188  4331 net.cpp:372] inception_4c/relu_5x5 <- inception_4c/5x5
I0511 01:20:13.909200  4331 net.cpp:323] inception_4c/relu_5x5 -> inception_4c/5x5 (in-place)
I0511 01:20:13.909210  4331 net.cpp:105] Setting up inception_4c/relu_5x5
I0511 01:20:13.909215  4331 net.cpp:112] Top shape: 32 64 14 14 (401408)
I0511 01:20:13.909221  4331 layer_factory.hpp:74] Creating layer inception_4c/pool
I0511 01:20:13.909255  4331 net.cpp:76] Creating Layer inception_4c/pool
I0511 01:20:13.909268  4331 net.cpp:372] inception_4c/pool <- inception_4b/output_inception_4b/output_0_split_3
I0511 01:20:13.909281  4331 net.cpp:334] inception_4c/pool -> inception_4c/pool
I0511 01:20:13.909291  4331 net.cpp:105] Setting up inception_4c/pool
I0511 01:20:13.909301  4331 net.cpp:112] Top shape: 32 512 14 14 (3211264)
I0511 01:20:13.909312  4331 layer_factory.hpp:74] Creating layer inception_4c/pool_proj
I0511 01:20:13.909349  4331 net.cpp:76] Creating Layer inception_4c/pool_proj
I0511 01:20:13.909360  4331 net.cpp:372] inception_4c/pool_proj <- inception_4c/pool
I0511 01:20:13.909373  4331 net.cpp:334] inception_4c/pool_proj -> inception_4c/pool_proj
I0511 01:20:13.909382  4331 net.cpp:105] Setting up inception_4c/pool_proj
I0511 01:20:13.909723  4331 net.cpp:112] Top shape: 32 64 14 14 (401408)
I0511 01:20:13.909745  4331 layer_factory.hpp:74] Creating layer inception_4c/relu_pool_proj
I0511 01:20:13.909761  4331 net.cpp:76] Creating Layer inception_4c/relu_pool_proj
I0511 01:20:13.909770  4331 net.cpp:372] inception_4c/relu_pool_proj <- inception_4c/pool_proj
I0511 01:20:13.909783  4331 net.cpp:323] inception_4c/relu_pool_proj -> inception_4c/pool_proj (in-place)
I0511 01:20:13.909800  4331 net.cpp:105] Setting up inception_4c/relu_pool_proj
I0511 01:20:13.909806  4331 net.cpp:112] Top shape: 32 64 14 14 (401408)
I0511 01:20:13.909812  4331 layer_factory.hpp:74] Creating layer inception_4c/output
I0511 01:20:13.909822  4331 net.cpp:76] Creating Layer inception_4c/output
I0511 01:20:13.909832  4331 net.cpp:372] inception_4c/output <- inception_4c/1x1
I0511 01:20:13.909844  4331 net.cpp:372] inception_4c/output <- inception_4c/3x3
I0511 01:20:13.909852  4331 net.cpp:372] inception_4c/output <- inception_4c/5x5
I0511 01:20:13.909857  4331 net.cpp:372] inception_4c/output <- inception_4c/pool_proj
I0511 01:20:13.909868  4331 net.cpp:334] inception_4c/output -> inception_4c/output
I0511 01:20:13.909878  4331 net.cpp:105] Setting up inception_4c/output
I0511 01:20:13.909884  4331 net.cpp:112] Top shape: 32 512 14 14 (3211264)
I0511 01:20:13.909890  4331 layer_factory.hpp:74] Creating layer inception_4c/output_inception_4c/output_0_split
I0511 01:20:13.909898  4331 net.cpp:76] Creating Layer inception_4c/output_inception_4c/output_0_split
I0511 01:20:13.909904  4331 net.cpp:372] inception_4c/output_inception_4c/output_0_split <- inception_4c/output
I0511 01:20:13.909911  4331 net.cpp:334] inception_4c/output_inception_4c/output_0_split -> inception_4c/output_inception_4c/output_0_split_0
I0511 01:20:13.909921  4331 net.cpp:334] inception_4c/output_inception_4c/output_0_split -> inception_4c/output_inception_4c/output_0_split_1
I0511 01:20:13.909930  4331 net.cpp:334] inception_4c/output_inception_4c/output_0_split -> inception_4c/output_inception_4c/output_0_split_2
I0511 01:20:13.909942  4331 net.cpp:334] inception_4c/output_inception_4c/output_0_split -> inception_4c/output_inception_4c/output_0_split_3
I0511 01:20:13.909951  4331 net.cpp:105] Setting up inception_4c/output_inception_4c/output_0_split
I0511 01:20:13.909962  4331 net.cpp:112] Top shape: 32 512 14 14 (3211264)
I0511 01:20:13.909973  4331 net.cpp:112] Top shape: 32 512 14 14 (3211264)
I0511 01:20:13.909983  4331 net.cpp:112] Top shape: 32 512 14 14 (3211264)
I0511 01:20:13.909992  4331 net.cpp:112] Top shape: 32 512 14 14 (3211264)
I0511 01:20:13.910003  4331 layer_factory.hpp:74] Creating layer inception_4d/1x1
I0511 01:20:13.910018  4331 net.cpp:76] Creating Layer inception_4d/1x1
I0511 01:20:13.910028  4331 net.cpp:372] inception_4d/1x1 <- inception_4c/output_inception_4c/output_0_split_0
I0511 01:20:13.910042  4331 net.cpp:334] inception_4d/1x1 -> inception_4d/1x1
I0511 01:20:13.910058  4331 net.cpp:105] Setting up inception_4d/1x1
I0511 01:20:13.910589  4331 net.cpp:112] Top shape: 32 112 14 14 (702464)
I0511 01:20:13.910605  4331 layer_factory.hpp:74] Creating layer inception_4d/relu_1x1
I0511 01:20:13.910614  4331 net.cpp:76] Creating Layer inception_4d/relu_1x1
I0511 01:20:13.910639  4331 net.cpp:372] inception_4d/relu_1x1 <- inception_4d/1x1
I0511 01:20:13.910658  4331 net.cpp:323] inception_4d/relu_1x1 -> inception_4d/1x1 (in-place)
I0511 01:20:13.910676  4331 net.cpp:105] Setting up inception_4d/relu_1x1
I0511 01:20:13.910684  4331 net.cpp:112] Top shape: 32 112 14 14 (702464)
I0511 01:20:13.910691  4331 layer_factory.hpp:74] Creating layer inception_4d/3x3_reduce
I0511 01:20:13.910703  4331 net.cpp:76] Creating Layer inception_4d/3x3_reduce
I0511 01:20:13.910714  4331 net.cpp:372] inception_4d/3x3_reduce <- inception_4c/output_inception_4c/output_0_split_1
I0511 01:20:13.910725  4331 net.cpp:334] inception_4d/3x3_reduce -> inception_4d/3x3_reduce
I0511 01:20:13.910739  4331 net.cpp:105] Setting up inception_4d/3x3_reduce
I0511 01:20:13.911463  4331 net.cpp:112] Top shape: 32 144 14 14 (903168)
I0511 01:20:13.911485  4331 layer_factory.hpp:74] Creating layer inception_4d/relu_3x3_reduce
I0511 01:20:13.911501  4331 net.cpp:76] Creating Layer inception_4d/relu_3x3_reduce
I0511 01:20:13.911514  4331 net.cpp:372] inception_4d/relu_3x3_reduce <- inception_4d/3x3_reduce
I0511 01:20:13.911527  4331 net.cpp:323] inception_4d/relu_3x3_reduce -> inception_4d/3x3_reduce (in-place)
I0511 01:20:13.911540  4331 net.cpp:105] Setting up inception_4d/relu_3x3_reduce
I0511 01:20:13.911552  4331 net.cpp:112] Top shape: 32 144 14 14 (903168)
I0511 01:20:13.911564  4331 layer_factory.hpp:74] Creating layer inception_4d/3x3
I0511 01:20:13.911583  4331 net.cpp:76] Creating Layer inception_4d/3x3
I0511 01:20:13.911591  4331 net.cpp:372] inception_4d/3x3 <- inception_4d/3x3_reduce
I0511 01:20:13.911599  4331 net.cpp:334] inception_4d/3x3 -> inception_4d/3x3
I0511 01:20:13.911609  4331 net.cpp:105] Setting up inception_4d/3x3
I0511 01:20:13.915032  4331 net.cpp:112] Top shape: 32 288 14 14 (1806336)
I0511 01:20:13.915065  4331 layer_factory.hpp:74] Creating layer inception_4d/relu_3x3
I0511 01:20:13.915076  4331 net.cpp:76] Creating Layer inception_4d/relu_3x3
I0511 01:20:13.915082  4331 net.cpp:372] inception_4d/relu_3x3 <- inception_4d/3x3
I0511 01:20:13.915091  4331 net.cpp:323] inception_4d/relu_3x3 -> inception_4d/3x3 (in-place)
I0511 01:20:13.915099  4331 net.cpp:105] Setting up inception_4d/relu_3x3
I0511 01:20:13.915105  4331 net.cpp:112] Top shape: 32 288 14 14 (1806336)
I0511 01:20:13.915112  4331 layer_factory.hpp:74] Creating layer inception_4d/5x5_reduce
I0511 01:20:13.915120  4331 net.cpp:76] Creating Layer inception_4d/5x5_reduce
I0511 01:20:13.915127  4331 net.cpp:372] inception_4d/5x5_reduce <- inception_4c/output_inception_4c/output_0_split_2
I0511 01:20:13.915138  4331 net.cpp:334] inception_4d/5x5_reduce -> inception_4d/5x5_reduce
I0511 01:20:13.915148  4331 net.cpp:105] Setting up inception_4d/5x5_reduce
I0511 01:20:13.915361  4331 net.cpp:112] Top shape: 32 32 14 14 (200704)
I0511 01:20:13.915377  4331 layer_factory.hpp:74] Creating layer inception_4d/relu_5x5_reduce
I0511 01:20:13.915386  4331 net.cpp:76] Creating Layer inception_4d/relu_5x5_reduce
I0511 01:20:13.915393  4331 net.cpp:372] inception_4d/relu_5x5_reduce <- inception_4d/5x5_reduce
I0511 01:20:13.915405  4331 net.cpp:323] inception_4d/relu_5x5_reduce -> inception_4d/5x5_reduce (in-place)
I0511 01:20:13.915422  4331 net.cpp:105] Setting up inception_4d/relu_5x5_reduce
I0511 01:20:13.915441  4331 net.cpp:112] Top shape: 32 32 14 14 (200704)
I0511 01:20:13.915447  4331 layer_factory.hpp:74] Creating layer inception_4d/5x5
I0511 01:20:13.915460  4331 net.cpp:76] Creating Layer inception_4d/5x5
I0511 01:20:13.916172  4331 net.cpp:372] inception_4d/5x5 <- inception_4d/5x5_reduce
I0511 01:20:13.916198  4331 net.cpp:334] inception_4d/5x5 -> inception_4d/5x5
I0511 01:20:13.916211  4331 net.cpp:105] Setting up inception_4d/5x5
I0511 01:20:13.916707  4331 net.cpp:112] Top shape: 32 64 14 14 (401408)
I0511 01:20:13.916723  4331 layer_factory.hpp:74] Creating layer inception_4d/relu_5x5
I0511 01:20:13.916734  4331 net.cpp:76] Creating Layer inception_4d/relu_5x5
I0511 01:20:13.916741  4331 net.cpp:372] inception_4d/relu_5x5 <- inception_4d/5x5
I0511 01:20:13.916780  4331 net.cpp:323] inception_4d/relu_5x5 -> inception_4d/5x5 (in-place)
I0511 01:20:13.916797  4331 net.cpp:105] Setting up inception_4d/relu_5x5
I0511 01:20:13.916805  4331 net.cpp:112] Top shape: 32 64 14 14 (401408)
I0511 01:20:13.916815  4331 layer_factory.hpp:74] Creating layer inception_4d/pool
I0511 01:20:13.916831  4331 net.cpp:76] Creating Layer inception_4d/pool
I0511 01:20:13.916844  4331 net.cpp:372] inception_4d/pool <- inception_4c/output_inception_4c/output_0_split_3
I0511 01:20:13.916862  4331 net.cpp:334] inception_4d/pool -> inception_4d/pool
I0511 01:20:13.916872  4331 net.cpp:105] Setting up inception_4d/pool
I0511 01:20:13.916880  4331 net.cpp:112] Top shape: 32 512 14 14 (3211264)
I0511 01:20:13.916887  4331 layer_factory.hpp:74] Creating layer inception_4d/pool_proj
I0511 01:20:13.916896  4331 net.cpp:76] Creating Layer inception_4d/pool_proj
I0511 01:20:13.916901  4331 net.cpp:372] inception_4d/pool_proj <- inception_4d/pool
I0511 01:20:13.916913  4331 net.cpp:334] inception_4d/pool_proj -> inception_4d/pool_proj
I0511 01:20:13.916921  4331 net.cpp:105] Setting up inception_4d/pool_proj
I0511 01:20:13.917210  4331 net.cpp:112] Top shape: 32 64 14 14 (401408)
I0511 01:20:13.917224  4331 layer_factory.hpp:74] Creating layer inception_4d/relu_pool_proj
I0511 01:20:13.917232  4331 net.cpp:76] Creating Layer inception_4d/relu_pool_proj
I0511 01:20:13.917238  4331 net.cpp:372] inception_4d/relu_pool_proj <- inception_4d/pool_proj
I0511 01:20:13.917245  4331 net.cpp:323] inception_4d/relu_pool_proj -> inception_4d/pool_proj (in-place)
I0511 01:20:13.917253  4331 net.cpp:105] Setting up inception_4d/relu_pool_proj
I0511 01:20:13.917258  4331 net.cpp:112] Top shape: 32 64 14 14 (401408)
I0511 01:20:13.917264  4331 layer_factory.hpp:74] Creating layer inception_4d/output
I0511 01:20:13.917284  4331 net.cpp:76] Creating Layer inception_4d/output
I0511 01:20:13.917292  4331 net.cpp:372] inception_4d/output <- inception_4d/1x1
I0511 01:20:13.917299  4331 net.cpp:372] inception_4d/output <- inception_4d/3x3
I0511 01:20:13.917305  4331 net.cpp:372] inception_4d/output <- inception_4d/5x5
I0511 01:20:13.917311  4331 net.cpp:372] inception_4d/output <- inception_4d/pool_proj
I0511 01:20:13.917321  4331 net.cpp:334] inception_4d/output -> inception_4d/output
I0511 01:20:13.917330  4331 net.cpp:105] Setting up inception_4d/output
I0511 01:20:13.917337  4331 net.cpp:112] Top shape: 32 528 14 14 (3311616)
I0511 01:20:13.917343  4331 layer_factory.hpp:74] Creating layer inception_4d/output_inception_4d/output_0_split
I0511 01:20:13.917351  4331 net.cpp:76] Creating Layer inception_4d/output_inception_4d/output_0_split
I0511 01:20:13.917356  4331 net.cpp:372] inception_4d/output_inception_4d/output_0_split <- inception_4d/output
I0511 01:20:13.917366  4331 net.cpp:334] inception_4d/output_inception_4d/output_0_split -> inception_4d/output_inception_4d/output_0_split_0
I0511 01:20:13.917376  4331 net.cpp:334] inception_4d/output_inception_4d/output_0_split -> inception_4d/output_inception_4d/output_0_split_1
I0511 01:20:13.917385  4331 net.cpp:334] inception_4d/output_inception_4d/output_0_split -> inception_4d/output_inception_4d/output_0_split_2
I0511 01:20:13.917394  4331 net.cpp:334] inception_4d/output_inception_4d/output_0_split -> inception_4d/output_inception_4d/output_0_split_3
I0511 01:20:13.917403  4331 net.cpp:334] inception_4d/output_inception_4d/output_0_split -> inception_4d/output_inception_4d/output_0_split_4
I0511 01:20:13.917412  4331 net.cpp:105] Setting up inception_4d/output_inception_4d/output_0_split
I0511 01:20:13.917418  4331 net.cpp:112] Top shape: 32 528 14 14 (3311616)
I0511 01:20:13.917424  4331 net.cpp:112] Top shape: 32 528 14 14 (3311616)
I0511 01:20:13.917429  4331 net.cpp:112] Top shape: 32 528 14 14 (3311616)
I0511 01:20:13.917434  4331 net.cpp:112] Top shape: 32 528 14 14 (3311616)
I0511 01:20:13.917438  4331 net.cpp:112] Top shape: 32 528 14 14 (3311616)
I0511 01:20:13.917444  4331 layer_factory.hpp:74] Creating layer loss2/ave_pool
I0511 01:20:13.917467  4331 net.cpp:76] Creating Layer loss2/ave_pool
I0511 01:20:13.917474  4331 net.cpp:372] loss2/ave_pool <- inception_4d/output_inception_4d/output_0_split_0
I0511 01:20:13.917484  4331 net.cpp:334] loss2/ave_pool -> loss2/ave_pool
I0511 01:20:13.917492  4331 net.cpp:105] Setting up loss2/ave_pool
I0511 01:20:13.917498  4331 net.cpp:112] Top shape: 32 528 4 4 (270336)
I0511 01:20:13.917505  4331 layer_factory.hpp:74] Creating layer loss2/conv
I0511 01:20:13.917516  4331 net.cpp:76] Creating Layer loss2/conv
I0511 01:20:13.917522  4331 net.cpp:372] loss2/conv <- loss2/ave_pool
I0511 01:20:13.917531  4331 net.cpp:334] loss2/conv -> loss2/conv
I0511 01:20:13.917539  4331 net.cpp:105] Setting up loss2/conv
I0511 01:20:13.918134  4331 net.cpp:112] Top shape: 32 128 4 4 (65536)
I0511 01:20:13.918159  4331 layer_factory.hpp:74] Creating layer loss2/relu_conv
I0511 01:20:13.918175  4331 net.cpp:76] Creating Layer loss2/relu_conv
I0511 01:20:13.918190  4331 net.cpp:372] loss2/relu_conv <- loss2/conv
I0511 01:20:13.918203  4331 net.cpp:323] loss2/relu_conv -> loss2/conv (in-place)
I0511 01:20:13.918216  4331 net.cpp:105] Setting up loss2/relu_conv
I0511 01:20:13.918222  4331 net.cpp:112] Top shape: 32 128 4 4 (65536)
I0511 01:20:13.918228  4331 layer_factory.hpp:74] Creating layer loss2/fc
I0511 01:20:13.918238  4331 net.cpp:76] Creating Layer loss2/fc
I0511 01:20:13.918243  4331 net.cpp:372] loss2/fc <- loss2/conv
I0511 01:20:13.918267  4331 net.cpp:334] loss2/fc -> loss2/fc
I0511 01:20:13.918279  4331 net.cpp:105] Setting up loss2/fc
I0511 01:20:13.936619  4331 net.cpp:112] Top shape: 32 1024 1 1 (32768)
I0511 01:20:13.936668  4331 layer_factory.hpp:74] Creating layer loss2/relu_fc
I0511 01:20:13.936687  4331 net.cpp:76] Creating Layer loss2/relu_fc
I0511 01:20:13.936697  4331 net.cpp:372] loss2/relu_fc <- loss2/fc
I0511 01:20:13.936707  4331 net.cpp:323] loss2/relu_fc -> loss2/fc (in-place)
I0511 01:20:13.936717  4331 net.cpp:105] Setting up loss2/relu_fc
I0511 01:20:13.936724  4331 net.cpp:112] Top shape: 32 1024 1 1 (32768)
I0511 01:20:13.936730  4331 layer_factory.hpp:74] Creating layer loss2/drop_fc
I0511 01:20:13.936739  4331 net.cpp:76] Creating Layer loss2/drop_fc
I0511 01:20:13.936746  4331 net.cpp:372] loss2/drop_fc <- loss2/fc
I0511 01:20:13.936754  4331 net.cpp:323] loss2/drop_fc -> loss2/fc (in-place)
I0511 01:20:13.936763  4331 net.cpp:105] Setting up loss2/drop_fc
I0511 01:20:13.936769  4331 net.cpp:112] Top shape: 32 1024 1 1 (32768)
I0511 01:20:13.936774  4331 layer_factory.hpp:74] Creating layer loss2/classifier
I0511 01:20:13.936785  4331 net.cpp:76] Creating Layer loss2/classifier
I0511 01:20:13.936790  4331 net.cpp:372] loss2/classifier <- loss2/fc
I0511 01:20:13.936801  4331 net.cpp:334] loss2/classifier -> loss2/classifier
I0511 01:20:13.936811  4331 net.cpp:105] Setting up loss2/classifier
I0511 01:20:13.936848  4331 net.cpp:112] Top shape: 32 2 1 1 (64)
I0511 01:20:13.936858  4331 layer_factory.hpp:74] Creating layer loss2/classifier_loss2/classifier_0_split
I0511 01:20:13.936867  4331 net.cpp:76] Creating Layer loss2/classifier_loss2/classifier_0_split
I0511 01:20:13.936873  4331 net.cpp:372] loss2/classifier_loss2/classifier_0_split <- loss2/classifier
I0511 01:20:13.936882  4331 net.cpp:334] loss2/classifier_loss2/classifier_0_split -> loss2/classifier_loss2/classifier_0_split_0
I0511 01:20:13.936892  4331 net.cpp:334] loss2/classifier_loss2/classifier_0_split -> loss2/classifier_loss2/classifier_0_split_1
I0511 01:20:13.936902  4331 net.cpp:105] Setting up loss2/classifier_loss2/classifier_0_split
I0511 01:20:13.936908  4331 net.cpp:112] Top shape: 32 2 1 1 (64)
I0511 01:20:13.936913  4331 net.cpp:112] Top shape: 32 2 1 1 (64)
I0511 01:20:13.936918  4331 layer_factory.hpp:74] Creating layer loss2/loss
I0511 01:20:13.936928  4331 net.cpp:76] Creating Layer loss2/loss
I0511 01:20:13.936933  4331 net.cpp:372] loss2/loss <- loss2/classifier_loss2/classifier_0_split_0
I0511 01:20:13.936940  4331 net.cpp:372] loss2/loss <- label_data_1_split_2
I0511 01:20:13.936950  4331 net.cpp:334] loss2/loss -> loss2/loss1
I0511 01:20:13.936992  4331 net.cpp:105] Setting up loss2/loss
I0511 01:20:13.937006  4331 layer_factory.hpp:74] Creating layer loss2/loss
I0511 01:20:13.937021  4331 net.cpp:112] Top shape: 1 1 1 1 (1)
I0511 01:20:13.937026  4331 net.cpp:118]     with loss weight 0.3
I0511 01:20:13.937046  4331 layer_factory.hpp:74] Creating layer loss2/top-1
I0511 01:20:13.937054  4331 net.cpp:76] Creating Layer loss2/top-1
I0511 01:20:13.937060  4331 net.cpp:372] loss2/top-1 <- loss2/classifier_loss2/classifier_0_split_1
I0511 01:20:13.937067  4331 net.cpp:372] loss2/top-1 <- label_data_1_split_3
I0511 01:20:13.937075  4331 net.cpp:334] loss2/top-1 -> loss2/top-1
I0511 01:20:13.937083  4331 net.cpp:105] Setting up loss2/top-1
I0511 01:20:13.937090  4331 net.cpp:112] Top shape: 1 1 1 1 (1)
I0511 01:20:13.937096  4331 layer_factory.hpp:74] Creating layer inception_4e/1x1
I0511 01:20:13.937109  4331 net.cpp:76] Creating Layer inception_4e/1x1
I0511 01:20:13.937118  4331 net.cpp:372] inception_4e/1x1 <- inception_4d/output_inception_4d/output_0_split_1
I0511 01:20:13.937126  4331 net.cpp:334] inception_4e/1x1 -> inception_4e/1x1
I0511 01:20:13.937136  4331 net.cpp:105] Setting up inception_4e/1x1
I0511 01:20:13.938340  4331 net.cpp:112] Top shape: 32 256 14 14 (1605632)
I0511 01:20:13.938359  4331 layer_factory.hpp:74] Creating layer inception_4e/relu_1x1
I0511 01:20:13.938369  4331 net.cpp:76] Creating Layer inception_4e/relu_1x1
I0511 01:20:13.938374  4331 net.cpp:372] inception_4e/relu_1x1 <- inception_4e/1x1
I0511 01:20:13.938382  4331 net.cpp:323] inception_4e/relu_1x1 -> inception_4e/1x1 (in-place)
I0511 01:20:13.938390  4331 net.cpp:105] Setting up inception_4e/relu_1x1
I0511 01:20:13.938395  4331 net.cpp:112] Top shape: 32 256 14 14 (1605632)
I0511 01:20:13.938401  4331 layer_factory.hpp:74] Creating layer inception_4e/3x3_reduce
I0511 01:20:13.938412  4331 net.cpp:76] Creating Layer inception_4e/3x3_reduce
I0511 01:20:13.938418  4331 net.cpp:372] inception_4e/3x3_reduce <- inception_4d/output_inception_4d/output_0_split_2
I0511 01:20:13.938427  4331 net.cpp:334] inception_4e/3x3_reduce -> inception_4e/3x3_reduce
I0511 01:20:13.938436  4331 net.cpp:105] Setting up inception_4e/3x3_reduce
I0511 01:20:13.939155  4331 net.cpp:112] Top shape: 32 160 14 14 (1003520)
I0511 01:20:13.939169  4331 layer_factory.hpp:74] Creating layer inception_4e/relu_3x3_reduce
I0511 01:20:13.939180  4331 net.cpp:76] Creating Layer inception_4e/relu_3x3_reduce
I0511 01:20:13.939187  4331 net.cpp:372] inception_4e/relu_3x3_reduce <- inception_4e/3x3_reduce
I0511 01:20:13.939194  4331 net.cpp:323] inception_4e/relu_3x3_reduce -> inception_4e/3x3_reduce (in-place)
I0511 01:20:13.939203  4331 net.cpp:105] Setting up inception_4e/relu_3x3_reduce
I0511 01:20:13.939208  4331 net.cpp:112] Top shape: 32 160 14 14 (1003520)
I0511 01:20:13.939213  4331 layer_factory.hpp:74] Creating layer inception_4e/3x3
I0511 01:20:13.939263  4331 net.cpp:76] Creating Layer inception_4e/3x3
I0511 01:20:13.939272  4331 net.cpp:372] inception_4e/3x3 <- inception_4e/3x3_reduce
I0511 01:20:13.939283  4331 net.cpp:334] inception_4e/3x3 -> inception_4e/3x3
I0511 01:20:13.939293  4331 net.cpp:105] Setting up inception_4e/3x3
I0511 01:20:13.943200  4331 net.cpp:112] Top shape: 32 320 14 14 (2007040)
I0511 01:20:13.943234  4331 layer_factory.hpp:74] Creating layer inception_4e/relu_3x3
I0511 01:20:13.943245  4331 net.cpp:76] Creating Layer inception_4e/relu_3x3
I0511 01:20:13.943253  4331 net.cpp:372] inception_4e/relu_3x3 <- inception_4e/3x3
I0511 01:20:13.943264  4331 net.cpp:323] inception_4e/relu_3x3 -> inception_4e/3x3 (in-place)
I0511 01:20:13.943291  4331 net.cpp:105] Setting up inception_4e/relu_3x3
I0511 01:20:13.943303  4331 net.cpp:112] Top shape: 32 320 14 14 (2007040)
I0511 01:20:13.943313  4331 layer_factory.hpp:74] Creating layer inception_4e/5x5_reduce
I0511 01:20:13.943327  4331 net.cpp:76] Creating Layer inception_4e/5x5_reduce
I0511 01:20:13.943334  4331 net.cpp:372] inception_4e/5x5_reduce <- inception_4d/output_inception_4d/output_0_split_3
I0511 01:20:13.943372  4331 net.cpp:334] inception_4e/5x5_reduce -> inception_4e/5x5_reduce
I0511 01:20:13.943384  4331 net.cpp:105] Setting up inception_4e/5x5_reduce
I0511 01:20:13.943538  4331 net.cpp:112] Top shape: 32 32 14 14 (200704)
I0511 01:20:13.943552  4331 layer_factory.hpp:74] Creating layer inception_4e/relu_5x5_reduce
I0511 01:20:13.943559  4331 net.cpp:76] Creating Layer inception_4e/relu_5x5_reduce
I0511 01:20:13.943565  4331 net.cpp:372] inception_4e/relu_5x5_reduce <- inception_4e/5x5_reduce
I0511 01:20:13.943574  4331 net.cpp:323] inception_4e/relu_5x5_reduce -> inception_4e/5x5_reduce (in-place)
I0511 01:20:13.943583  4331 net.cpp:105] Setting up inception_4e/relu_5x5_reduce
I0511 01:20:13.943588  4331 net.cpp:112] Top shape: 32 32 14 14 (200704)
I0511 01:20:13.943593  4331 layer_factory.hpp:74] Creating layer inception_4e/5x5
I0511 01:20:13.943603  4331 net.cpp:76] Creating Layer inception_4e/5x5
I0511 01:20:13.943608  4331 net.cpp:372] inception_4e/5x5 <- inception_4e/5x5_reduce
I0511 01:20:13.943617  4331 net.cpp:334] inception_4e/5x5 -> inception_4e/5x5
I0511 01:20:13.943626  4331 net.cpp:105] Setting up inception_4e/5x5
I0511 01:20:13.944501  4331 net.cpp:112] Top shape: 32 128 14 14 (802816)
I0511 01:20:13.944515  4331 layer_factory.hpp:74] Creating layer inception_4e/relu_5x5
I0511 01:20:13.944524  4331 net.cpp:76] Creating Layer inception_4e/relu_5x5
I0511 01:20:13.944530  4331 net.cpp:372] inception_4e/relu_5x5 <- inception_4e/5x5
I0511 01:20:13.944542  4331 net.cpp:323] inception_4e/relu_5x5 -> inception_4e/5x5 (in-place)
I0511 01:20:13.944550  4331 net.cpp:105] Setting up inception_4e/relu_5x5
I0511 01:20:13.944555  4331 net.cpp:112] Top shape: 32 128 14 14 (802816)
I0511 01:20:13.944561  4331 layer_factory.hpp:74] Creating layer inception_4e/pool
I0511 01:20:13.944571  4331 net.cpp:76] Creating Layer inception_4e/pool
I0511 01:20:13.944576  4331 net.cpp:372] inception_4e/pool <- inception_4d/output_inception_4d/output_0_split_4
I0511 01:20:13.944583  4331 net.cpp:334] inception_4e/pool -> inception_4e/pool
I0511 01:20:13.944592  4331 net.cpp:105] Setting up inception_4e/pool
I0511 01:20:13.944602  4331 net.cpp:112] Top shape: 32 528 14 14 (3311616)
I0511 01:20:13.944607  4331 layer_factory.hpp:74] Creating layer inception_4e/pool_proj
I0511 01:20:13.944617  4331 net.cpp:76] Creating Layer inception_4e/pool_proj
I0511 01:20:13.944624  4331 net.cpp:372] inception_4e/pool_proj <- inception_4e/pool
I0511 01:20:13.944633  4331 net.cpp:334] inception_4e/pool_proj -> inception_4e/pool_proj
I0511 01:20:13.944641  4331 net.cpp:105] Setting up inception_4e/pool_proj
I0511 01:20:13.945235  4331 net.cpp:112] Top shape: 32 128 14 14 (802816)
I0511 01:20:13.945250  4331 layer_factory.hpp:74] Creating layer inception_4e/relu_pool_proj
I0511 01:20:13.945258  4331 net.cpp:76] Creating Layer inception_4e/relu_pool_proj
I0511 01:20:13.945264  4331 net.cpp:372] inception_4e/relu_pool_proj <- inception_4e/pool_proj
I0511 01:20:13.945293  4331 net.cpp:323] inception_4e/relu_pool_proj -> inception_4e/pool_proj (in-place)
I0511 01:20:13.945308  4331 net.cpp:105] Setting up inception_4e/relu_pool_proj
I0511 01:20:13.945315  4331 net.cpp:112] Top shape: 32 128 14 14 (802816)
I0511 01:20:13.945320  4331 layer_factory.hpp:74] Creating layer inception_4e/output
I0511 01:20:13.945329  4331 net.cpp:76] Creating Layer inception_4e/output
I0511 01:20:13.945335  4331 net.cpp:372] inception_4e/output <- inception_4e/1x1
I0511 01:20:13.945341  4331 net.cpp:372] inception_4e/output <- inception_4e/3x3
I0511 01:20:13.945348  4331 net.cpp:372] inception_4e/output <- inception_4e/5x5
I0511 01:20:13.945354  4331 net.cpp:372] inception_4e/output <- inception_4e/pool_proj
I0511 01:20:13.945364  4331 net.cpp:334] inception_4e/output -> inception_4e/output
I0511 01:20:13.945374  4331 net.cpp:105] Setting up inception_4e/output
I0511 01:20:13.945380  4331 net.cpp:112] Top shape: 32 832 14 14 (5218304)
I0511 01:20:13.945386  4331 layer_factory.hpp:74] Creating layer pool4/3x3_s2
I0511 01:20:13.945394  4331 net.cpp:76] Creating Layer pool4/3x3_s2
I0511 01:20:13.945415  4331 net.cpp:372] pool4/3x3_s2 <- inception_4e/output
I0511 01:20:13.945425  4331 net.cpp:334] pool4/3x3_s2 -> pool4/3x3_s2
I0511 01:20:13.945435  4331 net.cpp:105] Setting up pool4/3x3_s2
I0511 01:20:13.945441  4331 net.cpp:112] Top shape: 32 832 7 7 (1304576)
I0511 01:20:13.945447  4331 layer_factory.hpp:74] Creating layer pool4/3x3_s2_pool4/3x3_s2_0_split
I0511 01:20:13.945457  4331 net.cpp:76] Creating Layer pool4/3x3_s2_pool4/3x3_s2_0_split
I0511 01:20:13.945464  4331 net.cpp:372] pool4/3x3_s2_pool4/3x3_s2_0_split <- pool4/3x3_s2
I0511 01:20:13.945472  4331 net.cpp:334] pool4/3x3_s2_pool4/3x3_s2_0_split -> pool4/3x3_s2_pool4/3x3_s2_0_split_0
I0511 01:20:13.945480  4331 net.cpp:334] pool4/3x3_s2_pool4/3x3_s2_0_split -> pool4/3x3_s2_pool4/3x3_s2_0_split_1
I0511 01:20:13.945489  4331 net.cpp:334] pool4/3x3_s2_pool4/3x3_s2_0_split -> pool4/3x3_s2_pool4/3x3_s2_0_split_2
I0511 01:20:13.945498  4331 net.cpp:334] pool4/3x3_s2_pool4/3x3_s2_0_split -> pool4/3x3_s2_pool4/3x3_s2_0_split_3
I0511 01:20:13.945507  4331 net.cpp:105] Setting up pool4/3x3_s2_pool4/3x3_s2_0_split
I0511 01:20:13.945513  4331 net.cpp:112] Top shape: 32 832 7 7 (1304576)
I0511 01:20:13.945518  4331 net.cpp:112] Top shape: 32 832 7 7 (1304576)
I0511 01:20:13.945523  4331 net.cpp:112] Top shape: 32 832 7 7 (1304576)
I0511 01:20:13.945529  4331 net.cpp:112] Top shape: 32 832 7 7 (1304576)
I0511 01:20:13.945534  4331 layer_factory.hpp:74] Creating layer inception_5a/1x1
I0511 01:20:13.945545  4331 net.cpp:76] Creating Layer inception_5a/1x1
I0511 01:20:13.945551  4331 net.cpp:372] inception_5a/1x1 <- pool4/3x3_s2_pool4/3x3_s2_0_split_0
I0511 01:20:13.945561  4331 net.cpp:334] inception_5a/1x1 -> inception_5a/1x1
I0511 01:20:13.945571  4331 net.cpp:105] Setting up inception_5a/1x1
I0511 01:20:13.947403  4331 net.cpp:112] Top shape: 32 256 7 7 (401408)
I0511 01:20:13.947422  4331 layer_factory.hpp:74] Creating layer inception_5a/relu_1x1
I0511 01:20:13.947432  4331 net.cpp:76] Creating Layer inception_5a/relu_1x1
I0511 01:20:13.947438  4331 net.cpp:372] inception_5a/relu_1x1 <- inception_5a/1x1
I0511 01:20:13.947445  4331 net.cpp:323] inception_5a/relu_1x1 -> inception_5a/1x1 (in-place)
I0511 01:20:13.947453  4331 net.cpp:105] Setting up inception_5a/relu_1x1
I0511 01:20:13.947459  4331 net.cpp:112] Top shape: 32 256 7 7 (401408)
I0511 01:20:13.947464  4331 layer_factory.hpp:74] Creating layer inception_5a/3x3_reduce
I0511 01:20:13.947476  4331 net.cpp:76] Creating Layer inception_5a/3x3_reduce
I0511 01:20:13.947482  4331 net.cpp:372] inception_5a/3x3_reduce <- pool4/3x3_s2_pool4/3x3_s2_0_split_1
I0511 01:20:13.947491  4331 net.cpp:334] inception_5a/3x3_reduce -> inception_5a/3x3_reduce
I0511 01:20:13.947500  4331 net.cpp:105] Setting up inception_5a/3x3_reduce
I0511 01:20:13.948649  4331 net.cpp:112] Top shape: 32 160 7 7 (250880)
I0511 01:20:13.948668  4331 layer_factory.hpp:74] Creating layer inception_5a/relu_3x3_reduce
I0511 01:20:13.948678  4331 net.cpp:76] Creating Layer inception_5a/relu_3x3_reduce
I0511 01:20:13.948683  4331 net.cpp:372] inception_5a/relu_3x3_reduce <- inception_5a/3x3_reduce
I0511 01:20:13.948691  4331 net.cpp:323] inception_5a/relu_3x3_reduce -> inception_5a/3x3_reduce (in-place)
I0511 01:20:13.948699  4331 net.cpp:105] Setting up inception_5a/relu_3x3_reduce
I0511 01:20:13.948704  4331 net.cpp:112] Top shape: 32 160 7 7 (250880)
I0511 01:20:13.948710  4331 layer_factory.hpp:74] Creating layer inception_5a/3x3
I0511 01:20:13.948721  4331 net.cpp:76] Creating Layer inception_5a/3x3
I0511 01:20:13.948727  4331 net.cpp:372] inception_5a/3x3 <- inception_5a/3x3_reduce
I0511 01:20:13.948737  4331 net.cpp:334] inception_5a/3x3 -> inception_5a/3x3
I0511 01:20:13.948746  4331 net.cpp:105] Setting up inception_5a/3x3
I0511 01:20:13.952589  4331 net.cpp:112] Top shape: 32 320 7 7 (501760)
I0511 01:20:13.952610  4331 layer_factory.hpp:74] Creating layer inception_5a/relu_3x3
I0511 01:20:13.952625  4331 net.cpp:76] Creating Layer inception_5a/relu_3x3
I0511 01:20:13.952632  4331 net.cpp:372] inception_5a/relu_3x3 <- inception_5a/3x3
I0511 01:20:13.952668  4331 net.cpp:323] inception_5a/relu_3x3 -> inception_5a/3x3 (in-place)
I0511 01:20:13.952678  4331 net.cpp:105] Setting up inception_5a/relu_3x3
I0511 01:20:13.952684  4331 net.cpp:112] Top shape: 32 320 7 7 (501760)
I0511 01:20:13.952689  4331 layer_factory.hpp:74] Creating layer inception_5a/5x5_reduce
I0511 01:20:13.952702  4331 net.cpp:76] Creating Layer inception_5a/5x5_reduce
I0511 01:20:13.952710  4331 net.cpp:372] inception_5a/5x5_reduce <- pool4/3x3_s2_pool4/3x3_s2_0_split_2
I0511 01:20:13.952719  4331 net.cpp:334] inception_5a/5x5_reduce -> inception_5a/5x5_reduce
I0511 01:20:13.952728  4331 net.cpp:105] Setting up inception_5a/5x5_reduce
I0511 01:20:13.952970  4331 net.cpp:112] Top shape: 32 32 7 7 (50176)
I0511 01:20:13.952982  4331 layer_factory.hpp:74] Creating layer inception_5a/relu_5x5_reduce
I0511 01:20:13.952991  4331 net.cpp:76] Creating Layer inception_5a/relu_5x5_reduce
I0511 01:20:13.952997  4331 net.cpp:372] inception_5a/relu_5x5_reduce <- inception_5a/5x5_reduce
I0511 01:20:13.953004  4331 net.cpp:323] inception_5a/relu_5x5_reduce -> inception_5a/5x5_reduce (in-place)
I0511 01:20:13.953014  4331 net.cpp:105] Setting up inception_5a/relu_5x5_reduce
I0511 01:20:13.953021  4331 net.cpp:112] Top shape: 32 32 7 7 (50176)
I0511 01:20:13.953027  4331 layer_factory.hpp:74] Creating layer inception_5a/5x5
I0511 01:20:13.953034  4331 net.cpp:76] Creating Layer inception_5a/5x5
I0511 01:20:13.953040  4331 net.cpp:372] inception_5a/5x5 <- inception_5a/5x5_reduce
I0511 01:20:13.953048  4331 net.cpp:334] inception_5a/5x5 -> inception_5a/5x5
I0511 01:20:13.953057  4331 net.cpp:105] Setting up inception_5a/5x5
I0511 01:20:13.953933  4331 net.cpp:112] Top shape: 32 128 7 7 (200704)
I0511 01:20:13.953948  4331 layer_factory.hpp:74] Creating layer inception_5a/relu_5x5
I0511 01:20:13.953955  4331 net.cpp:76] Creating Layer inception_5a/relu_5x5
I0511 01:20:13.953963  4331 net.cpp:372] inception_5a/relu_5x5 <- inception_5a/5x5
I0511 01:20:13.953971  4331 net.cpp:323] inception_5a/relu_5x5 -> inception_5a/5x5 (in-place)
I0511 01:20:13.953979  4331 net.cpp:105] Setting up inception_5a/relu_5x5
I0511 01:20:13.953985  4331 net.cpp:112] Top shape: 32 128 7 7 (200704)
I0511 01:20:13.953990  4331 layer_factory.hpp:74] Creating layer inception_5a/pool
I0511 01:20:13.953999  4331 net.cpp:76] Creating Layer inception_5a/pool
I0511 01:20:13.954005  4331 net.cpp:372] inception_5a/pool <- pool4/3x3_s2_pool4/3x3_s2_0_split_3
I0511 01:20:13.954012  4331 net.cpp:334] inception_5a/pool -> inception_5a/pool
I0511 01:20:13.954041  4331 net.cpp:105] Setting up inception_5a/pool
I0511 01:20:13.954053  4331 net.cpp:112] Top shape: 32 832 7 7 (1304576)
I0511 01:20:13.954061  4331 layer_factory.hpp:74] Creating layer inception_5a/pool_proj
I0511 01:20:13.954069  4331 net.cpp:76] Creating Layer inception_5a/pool_proj
I0511 01:20:13.954076  4331 net.cpp:372] inception_5a/pool_proj <- inception_5a/pool
I0511 01:20:13.954084  4331 net.cpp:334] inception_5a/pool_proj -> inception_5a/pool_proj
I0511 01:20:13.954093  4331 net.cpp:105] Setting up inception_5a/pool_proj
I0511 01:20:13.954999  4331 net.cpp:112] Top shape: 32 128 7 7 (200704)
I0511 01:20:13.955014  4331 layer_factory.hpp:74] Creating layer inception_5a/relu_pool_proj
I0511 01:20:13.955024  4331 net.cpp:76] Creating Layer inception_5a/relu_pool_proj
I0511 01:20:13.955029  4331 net.cpp:372] inception_5a/relu_pool_proj <- inception_5a/pool_proj
I0511 01:20:13.955041  4331 net.cpp:323] inception_5a/relu_pool_proj -> inception_5a/pool_proj (in-place)
I0511 01:20:13.955050  4331 net.cpp:105] Setting up inception_5a/relu_pool_proj
I0511 01:20:13.955055  4331 net.cpp:112] Top shape: 32 128 7 7 (200704)
I0511 01:20:13.955061  4331 layer_factory.hpp:74] Creating layer inception_5a/output
I0511 01:20:13.955070  4331 net.cpp:76] Creating Layer inception_5a/output
I0511 01:20:13.955075  4331 net.cpp:372] inception_5a/output <- inception_5a/1x1
I0511 01:20:13.955082  4331 net.cpp:372] inception_5a/output <- inception_5a/3x3
I0511 01:20:13.955088  4331 net.cpp:372] inception_5a/output <- inception_5a/5x5
I0511 01:20:13.955108  4331 net.cpp:372] inception_5a/output <- inception_5a/pool_proj
I0511 01:20:13.955117  4331 net.cpp:334] inception_5a/output -> inception_5a/output
I0511 01:20:13.955127  4331 net.cpp:105] Setting up inception_5a/output
I0511 01:20:13.955133  4331 net.cpp:112] Top shape: 32 832 7 7 (1304576)
I0511 01:20:13.955139  4331 layer_factory.hpp:74] Creating layer inception_5a/output_inception_5a/output_0_split
I0511 01:20:13.955149  4331 net.cpp:76] Creating Layer inception_5a/output_inception_5a/output_0_split
I0511 01:20:13.955157  4331 net.cpp:372] inception_5a/output_inception_5a/output_0_split <- inception_5a/output
I0511 01:20:13.955163  4331 net.cpp:334] inception_5a/output_inception_5a/output_0_split -> inception_5a/output_inception_5a/output_0_split_0
I0511 01:20:13.955173  4331 net.cpp:334] inception_5a/output_inception_5a/output_0_split -> inception_5a/output_inception_5a/output_0_split_1
I0511 01:20:13.955183  4331 net.cpp:334] inception_5a/output_inception_5a/output_0_split -> inception_5a/output_inception_5a/output_0_split_2
I0511 01:20:13.955193  4331 net.cpp:334] inception_5a/output_inception_5a/output_0_split -> inception_5a/output_inception_5a/output_0_split_3
I0511 01:20:13.955224  4331 net.cpp:105] Setting up inception_5a/output_inception_5a/output_0_split
I0511 01:20:13.955232  4331 net.cpp:112] Top shape: 32 832 7 7 (1304576)
I0511 01:20:13.955237  4331 net.cpp:112] Top shape: 32 832 7 7 (1304576)
I0511 01:20:13.955242  4331 net.cpp:112] Top shape: 32 832 7 7 (1304576)
I0511 01:20:13.955247  4331 net.cpp:112] Top shape: 32 832 7 7 (1304576)
I0511 01:20:13.955253  4331 layer_factory.hpp:74] Creating layer inception_5b/1x1
I0511 01:20:13.955266  4331 net.cpp:76] Creating Layer inception_5b/1x1
I0511 01:20:13.955286  4331 net.cpp:372] inception_5b/1x1 <- inception_5a/output_inception_5a/output_0_split_0
I0511 01:20:13.955299  4331 net.cpp:334] inception_5b/1x1 -> inception_5b/1x1
I0511 01:20:13.955309  4331 net.cpp:105] Setting up inception_5b/1x1
I0511 01:20:13.957965  4331 net.cpp:112] Top shape: 32 384 7 7 (602112)
I0511 01:20:13.957983  4331 layer_factory.hpp:74] Creating layer inception_5b/relu_1x1
I0511 01:20:13.957993  4331 net.cpp:76] Creating Layer inception_5b/relu_1x1
I0511 01:20:13.957999  4331 net.cpp:372] inception_5b/relu_1x1 <- inception_5b/1x1
I0511 01:20:13.958006  4331 net.cpp:323] inception_5b/relu_1x1 -> inception_5b/1x1 (in-place)
I0511 01:20:13.958015  4331 net.cpp:105] Setting up inception_5b/relu_1x1
I0511 01:20:13.958020  4331 net.cpp:112] Top shape: 32 384 7 7 (602112)
I0511 01:20:13.958026  4331 layer_factory.hpp:74] Creating layer inception_5b/3x3_reduce
I0511 01:20:13.958042  4331 net.cpp:76] Creating Layer inception_5b/3x3_reduce
I0511 01:20:13.958050  4331 net.cpp:372] inception_5b/3x3_reduce <- inception_5a/output_inception_5a/output_0_split_1
I0511 01:20:13.958057  4331 net.cpp:334] inception_5b/3x3_reduce -> inception_5b/3x3_reduce
I0511 01:20:13.958066  4331 net.cpp:105] Setting up inception_5b/3x3_reduce
I0511 01:20:13.959419  4331 net.cpp:112] Top shape: 32 192 7 7 (301056)
I0511 01:20:13.959434  4331 layer_factory.hpp:74] Creating layer inception_5b/relu_3x3_reduce
I0511 01:20:13.959442  4331 net.cpp:76] Creating Layer inception_5b/relu_3x3_reduce
I0511 01:20:13.959451  4331 net.cpp:372] inception_5b/relu_3x3_reduce <- inception_5b/3x3_reduce
I0511 01:20:13.959458  4331 net.cpp:323] inception_5b/relu_3x3_reduce -> inception_5b/3x3_reduce (in-place)
I0511 01:20:13.959466  4331 net.cpp:105] Setting up inception_5b/relu_3x3_reduce
I0511 01:20:13.959472  4331 net.cpp:112] Top shape: 32 192 7 7 (301056)
I0511 01:20:13.959478  4331 layer_factory.hpp:74] Creating layer inception_5b/3x3
I0511 01:20:13.959486  4331 net.cpp:76] Creating Layer inception_5b/3x3
I0511 01:20:13.959491  4331 net.cpp:372] inception_5b/3x3 <- inception_5b/3x3_reduce
I0511 01:20:13.959502  4331 net.cpp:334] inception_5b/3x3 -> inception_5b/3x3
I0511 01:20:13.959511  4331 net.cpp:105] Setting up inception_5b/3x3
I0511 01:20:13.965456  4331 net.cpp:112] Top shape: 32 384 7 7 (602112)
I0511 01:20:13.965483  4331 layer_factory.hpp:74] Creating layer inception_5b/relu_3x3
I0511 01:20:13.965495  4331 net.cpp:76] Creating Layer inception_5b/relu_3x3
I0511 01:20:13.965504  4331 net.cpp:372] inception_5b/relu_3x3 <- inception_5b/3x3
I0511 01:20:13.965512  4331 net.cpp:323] inception_5b/relu_3x3 -> inception_5b/3x3 (in-place)
I0511 01:20:13.965522  4331 net.cpp:105] Setting up inception_5b/relu_3x3
I0511 01:20:13.965528  4331 net.cpp:112] Top shape: 32 384 7 7 (602112)
I0511 01:20:13.965533  4331 layer_factory.hpp:74] Creating layer inception_5b/5x5_reduce
I0511 01:20:13.965546  4331 net.cpp:76] Creating Layer inception_5b/5x5_reduce
I0511 01:20:13.965553  4331 net.cpp:372] inception_5b/5x5_reduce <- inception_5a/output_inception_5a/output_0_split_2
I0511 01:20:13.965564  4331 net.cpp:334] inception_5b/5x5_reduce -> inception_5b/5x5_reduce
I0511 01:20:13.965574  4331 net.cpp:105] Setting up inception_5b/5x5_reduce
I0511 01:20:13.965920  4331 net.cpp:112] Top shape: 32 48 7 7 (75264)
I0511 01:20:13.965934  4331 layer_factory.hpp:74] Creating layer inception_5b/relu_5x5_reduce
I0511 01:20:13.966055  4331 net.cpp:76] Creating Layer inception_5b/relu_5x5_reduce
I0511 01:20:13.966068  4331 net.cpp:372] inception_5b/relu_5x5_reduce <- inception_5b/5x5_reduce
I0511 01:20:13.966084  4331 net.cpp:323] inception_5b/relu_5x5_reduce -> inception_5b/5x5_reduce (in-place)
I0511 01:20:13.966094  4331 net.cpp:105] Setting up inception_5b/relu_5x5_reduce
I0511 01:20:13.966100  4331 net.cpp:112] Top shape: 32 48 7 7 (75264)
I0511 01:20:13.966106  4331 layer_factory.hpp:74] Creating layer inception_5b/5x5
I0511 01:20:13.966116  4331 net.cpp:76] Creating Layer inception_5b/5x5
I0511 01:20:13.966122  4331 net.cpp:372] inception_5b/5x5 <- inception_5b/5x5_reduce
I0511 01:20:13.966133  4331 net.cpp:334] inception_5b/5x5 -> inception_5b/5x5
I0511 01:20:13.966145  4331 net.cpp:105] Setting up inception_5b/5x5
I0511 01:20:13.967592  4331 net.cpp:112] Top shape: 32 128 7 7 (200704)
I0511 01:20:13.967619  4331 layer_factory.hpp:74] Creating layer inception_5b/relu_5x5
I0511 01:20:13.967640  4331 net.cpp:76] Creating Layer inception_5b/relu_5x5
I0511 01:20:13.967655  4331 net.cpp:372] inception_5b/relu_5x5 <- inception_5b/5x5
I0511 01:20:13.967670  4331 net.cpp:323] inception_5b/relu_5x5 -> inception_5b/5x5 (in-place)
I0511 01:20:13.967686  4331 net.cpp:105] Setting up inception_5b/relu_5x5
I0511 01:20:13.967696  4331 net.cpp:112] Top shape: 32 128 7 7 (200704)
I0511 01:20:13.967708  4331 layer_factory.hpp:74] Creating layer inception_5b/pool
I0511 01:20:13.967725  4331 net.cpp:76] Creating Layer inception_5b/pool
I0511 01:20:13.967736  4331 net.cpp:372] inception_5b/pool <- inception_5a/output_inception_5a/output_0_split_3
I0511 01:20:13.967757  4331 net.cpp:334] inception_5b/pool -> inception_5b/pool
I0511 01:20:13.967769  4331 net.cpp:105] Setting up inception_5b/pool
I0511 01:20:13.967778  4331 net.cpp:112] Top shape: 32 832 7 7 (1304576)
I0511 01:20:13.967784  4331 layer_factory.hpp:74] Creating layer inception_5b/pool_proj
I0511 01:20:13.967794  4331 net.cpp:76] Creating Layer inception_5b/pool_proj
I0511 01:20:13.967800  4331 net.cpp:372] inception_5b/pool_proj <- inception_5b/pool
I0511 01:20:13.967811  4331 net.cpp:334] inception_5b/pool_proj -> inception_5b/pool_proj
I0511 01:20:13.967821  4331 net.cpp:105] Setting up inception_5b/pool_proj
I0511 01:20:13.968798  4331 net.cpp:112] Top shape: 32 128 7 7 (200704)
I0511 01:20:13.968814  4331 layer_factory.hpp:74] Creating layer inception_5b/relu_pool_proj
I0511 01:20:13.968824  4331 net.cpp:76] Creating Layer inception_5b/relu_pool_proj
I0511 01:20:13.968830  4331 net.cpp:372] inception_5b/relu_pool_proj <- inception_5b/pool_proj
I0511 01:20:13.968838  4331 net.cpp:323] inception_5b/relu_pool_proj -> inception_5b/pool_proj (in-place)
I0511 01:20:13.968847  4331 net.cpp:105] Setting up inception_5b/relu_pool_proj
I0511 01:20:13.968852  4331 net.cpp:112] Top shape: 32 128 7 7 (200704)
I0511 01:20:13.968858  4331 layer_factory.hpp:74] Creating layer inception_5b/output
I0511 01:20:13.968906  4331 net.cpp:76] Creating Layer inception_5b/output
I0511 01:20:13.968920  4331 net.cpp:372] inception_5b/output <- inception_5b/1x1
I0511 01:20:13.968935  4331 net.cpp:372] inception_5b/output <- inception_5b/3x3
I0511 01:20:13.968950  4331 net.cpp:372] inception_5b/output <- inception_5b/5x5
I0511 01:20:13.968962  4331 net.cpp:372] inception_5b/output <- inception_5b/pool_proj
I0511 01:20:13.968981  4331 net.cpp:334] inception_5b/output -> inception_5b/output
I0511 01:20:13.968997  4331 net.cpp:105] Setting up inception_5b/output
I0511 01:20:13.969004  4331 net.cpp:112] Top shape: 32 1024 7 7 (1605632)
I0511 01:20:13.969013  4331 layer_factory.hpp:74] Creating layer pool5/7x7_s1
I0511 01:20:13.969027  4331 net.cpp:76] Creating Layer pool5/7x7_s1
I0511 01:20:13.969035  4331 net.cpp:372] pool5/7x7_s1 <- inception_5b/output
I0511 01:20:13.969050  4331 net.cpp:334] pool5/7x7_s1 -> pool5/7x7_s1
I0511 01:20:13.969069  4331 net.cpp:105] Setting up pool5/7x7_s1
I0511 01:20:13.969084  4331 net.cpp:112] Top shape: 32 1024 1 1 (32768)
I0511 01:20:13.969091  4331 layer_factory.hpp:74] Creating layer pool5/drop_7x7_s1
I0511 01:20:13.969100  4331 net.cpp:76] Creating Layer pool5/drop_7x7_s1
I0511 01:20:13.969107  4331 net.cpp:372] pool5/drop_7x7_s1 <- pool5/7x7_s1
I0511 01:20:13.969115  4331 net.cpp:323] pool5/drop_7x7_s1 -> pool5/7x7_s1 (in-place)
I0511 01:20:13.969122  4331 net.cpp:105] Setting up pool5/drop_7x7_s1
I0511 01:20:13.969130  4331 net.cpp:112] Top shape: 32 1024 1 1 (32768)
I0511 01:20:13.969135  4331 layer_factory.hpp:74] Creating layer loss3/classifier
I0511 01:20:13.969144  4331 net.cpp:76] Creating Layer loss3/classifier
I0511 01:20:13.969149  4331 net.cpp:372] loss3/classifier <- pool5/7x7_s1
I0511 01:20:13.969161  4331 net.cpp:334] loss3/classifier -> loss3/classifier
I0511 01:20:13.969172  4331 net.cpp:105] Setting up loss3/classifier
I0511 01:20:13.969208  4331 net.cpp:112] Top shape: 32 2 1 1 (64)
I0511 01:20:13.969220  4331 layer_factory.hpp:74] Creating layer loss3/classifier_loss3/classifier_0_split
I0511 01:20:13.969229  4331 net.cpp:76] Creating Layer loss3/classifier_loss3/classifier_0_split
I0511 01:20:13.969235  4331 net.cpp:372] loss3/classifier_loss3/classifier_0_split <- loss3/classifier
I0511 01:20:13.969243  4331 net.cpp:334] loss3/classifier_loss3/classifier_0_split -> loss3/classifier_loss3/classifier_0_split_0
I0511 01:20:13.969251  4331 net.cpp:334] loss3/classifier_loss3/classifier_0_split -> loss3/classifier_loss3/classifier_0_split_1
I0511 01:20:13.969259  4331 net.cpp:105] Setting up loss3/classifier_loss3/classifier_0_split
I0511 01:20:13.969266  4331 net.cpp:112] Top shape: 32 2 1 1 (64)
I0511 01:20:13.969288  4331 net.cpp:112] Top shape: 32 2 1 1 (64)
I0511 01:20:13.969300  4331 layer_factory.hpp:74] Creating layer loss3/loss3
I0511 01:20:13.969319  4331 net.cpp:76] Creating Layer loss3/loss3
I0511 01:20:13.969333  4331 net.cpp:372] loss3/loss3 <- loss3/classifier_loss3/classifier_0_split_0
I0511 01:20:13.969343  4331 net.cpp:372] loss3/loss3 <- label_data_1_split_4
I0511 01:20:13.969352  4331 net.cpp:334] loss3/loss3 -> loss3/loss3
I0511 01:20:13.969362  4331 net.cpp:105] Setting up loss3/loss3
I0511 01:20:13.969370  4331 layer_factory.hpp:74] Creating layer loss3/loss3
I0511 01:20:13.969385  4331 net.cpp:112] Top shape: 1 1 1 1 (1)
I0511 01:20:13.969393  4331 net.cpp:118]     with loss weight 1
I0511 01:20:13.969409  4331 layer_factory.hpp:74] Creating layer loss3/top-1
I0511 01:20:13.969419  4331 net.cpp:76] Creating Layer loss3/top-1
I0511 01:20:13.969424  4331 net.cpp:372] loss3/top-1 <- loss3/classifier_loss3/classifier_0_split_1
I0511 01:20:13.969431  4331 net.cpp:372] loss3/top-1 <- label_data_1_split_5
I0511 01:20:13.969440  4331 net.cpp:334] loss3/top-1 -> loss3/top-1
I0511 01:20:13.969449  4331 net.cpp:105] Setting up loss3/top-1
I0511 01:20:13.969456  4331 net.cpp:112] Top shape: 1 1 1 1 (1)
I0511 01:20:13.969462  4331 net.cpp:165] loss3/top-1 does not need backward computation.
I0511 01:20:13.969467  4331 net.cpp:163] loss3/loss3 needs backward computation.
I0511 01:20:13.969486  4331 net.cpp:163] loss3/classifier_loss3/classifier_0_split needs backward computation.
I0511 01:20:13.969497  4331 net.cpp:163] loss3/classifier needs backward computation.
I0511 01:20:13.969508  4331 net.cpp:163] pool5/drop_7x7_s1 needs backward computation.
…
