…
I0510 00:28:22.415227 28440 net.cpp:253] The NetState phase (0) differed from the phase (1) specified by a rule in layer loss3/top-1
I0510 00:28:22.416688 28440 net.cpp:42] Initializing net from parameters: 
name: "GoogleNet"
state {
  phase: TRAIN
}
layer {
  name: "data"
  type: "Data"
  top: "data"
  top: "label"
  include {
    phase: TRAIN
  }
  transform_param {
    mirror: true
    crop_size: 224
    mean_value: 104
    mean_value: 117
    mean_value: 123
  }
  data_param {
    source: "train_lmdb"
    batch_size: 32
    backend: LMDB
  }
}
layer {
  name: "conv1/7x7_s2"
  type: "Convolution"
  bottom: "data"
  top: "conv1/7x7_s2"
  param {
    lr_mult: 1
    decay_mult: 1
  }
  param {
    lr_mult: 2
    decay_mult: 0
  }
  convolution_param {
    num_output: 64
    pad: 3
    kernel_size: 7
    stride: 2
    weight_filler {
      type: "xavier"
      std: 0.1
    }
    bias_filler {
      type: "constant"
      value: 0.2
    }
  }
}
layer {
  name: "conv1/relu_7x7"
  type: "ReLU"
  bottom: "conv1/7x7_s2"
  top: "conv1/7x7_s2"
}
layer {
  name: "pool1/3x3_s2"
  type: "Pooling"
  bottom: "conv1/7x7_s2"
  top: "pool1/3x3_s2"
  pooling_param {
    pool: MAX
    kernel_size: 3
    stride: 2
  }
}
layer {
  name: "pool1/norm1"
  type: "LRN"
  bottom: "pool1/3x3_s2"
  top: "pool1/norm1"
  lrn_param {
    local_size: 5
    alpha: 0.0001
    beta: 0.75
  }
}
layer {
  name: "conv2/3x3_reduce"
  type: "Convolution"
  bottom: "pool1/norm1"
  top: "conv2/3x3_reduce"
  param {
    lr_mult: 1
    decay_mult: 1
  }
  param {
    lr_mult: 2
    decay_mult: 0
  }
  convolution_param {
    num_output: 64
    kernel_size: 1
    weight_filler {
      type: "xavier"
      std: 0.1
    }
    bias_filler {
      type: "constant"
      value: 0.2
    }
  }
}
layer {
  name: "conv2/relu_3x3_reduce"
  type: "ReLU"
  bottom: "conv2/3x3_reduce"
  top: "conv2/3x3_reduce"
}
layer {
  name: "conv2/3x3"
  type: "Convolution"
  bottom: "conv2/3x3_reduce"
  top: "conv2/3x3"
  param {
    lr_mult: 1
    decay_mult: 1
  }
  param {
    lr_mult: 2
    decay_mult: 0
  }
  convolution_param {
    num_output: 192
    pad: 1
    kernel_size: 3
    weight_filler {
      type: "xavier"
      std: 0.03
    }
    bias_filler {
      type: "constant"
      value: 0.2
    }
  }
}
layer {
  name: "conv2/relu_3x3"
  type: "ReLU"
  bottom: "conv2/3x3"
  top: "conv2/3x3"
}
layer {
  name: "conv2/norm2"
  type: "LRN"
  bottom: "conv2/3x3"
  top: "conv2/norm2"
  lrn_param {
    local_size: 5
    alpha: 0.0001
    beta: 0.75
  }
}
layer {
  name: "pool2/3x3_s2"
  type: "Pooling"
  bottom: "conv2/norm2"
  top: "pool2/3x3_s2"
  pooling_param {
    pool: MAX
    kernel_size: 3
    stride: 2
  }
}
layer {
  name: "inception_3a/1x1"
  type: "Convolution"
  bottom: "pool2/3x3_s2"
  top: "inception_3a/1x1"
  param {
    lr_mult: 1
    decay_mult: 1
  }
  param {
    lr_mult: 2
    decay_mult: 0
  }
  convolution_param {
    num_output: 64
    kernel_size: 1
    weight_filler {
      type: "xavier"
      std: 0.03
    }
    bias_filler {
      type: "constant"
      value: 0.2
    }
  }
}
layer {
  name: "inception_3a/relu_1x1"
  type: "ReLU"
  bottom: "inception_3a/1x1"
  top: "inception_3a/1x1"
}
layer {
  name: "inception_3a/3x3_reduce"
  type: "Convolution"
  bottom: "pool2/3x3_s2"
  top: "inception_3a/3x3_reduce"
  param {
    lr_mult: 1
    decay_mult: 1
  }
  param {
    lr_mult: 2
    decay_mult: 0
  }
  convolution_param {
    num_output: 96
    kernel_size: 1
    weight_filler {
      type: "xavier"
      std: 0.09
    }
    bias_filler {
      type: "constant"
      value: 0.2
    }
  }
}
layer {
  name: "inception_3a/relu_3x3_reduce"
  type: "ReLU"
  bottom: "inception_3a/3x3_reduce"
  top: "inception_3a/3x3_reduce"
}
layer {
  name: "inception_3a/3x3"
  type: "Convolution"
  bottom: "inception_3a/3x3_reduce"
  top: "inception_3a/3x3"
  param {
    lr_mult: 1
    decay_mult: 1
  }
  param {
    lr_mult: 2
    decay_mult: 0
  }
  convolution_param {
    num_output: 128
    pad: 1
    kernel_size: 3
    weight_filler {
      type: "xavier"
      std: 0.03
    }
    bias_filler {
      type: "constant"
      value: 0.2
    }
  }
}
layer {
  name: "inception_3a/relu_3x3"
  type: "ReLU"
  bottom: "inception_3a/3x3"
  top: "inception_3a/3x3"
}
layer {
  name: "inception_3a/5x5_reduce"
  type: "Convolution"
  bottom: "pool2/3x3_s2"
  top: "inception_3a/5x5_reduce"
  param {
    lr_mult: 1
    decay_mult: 1
  }
  param {
    lr_mult: 2
    decay_mult: 0
  }
  convolution_param {
    num_output: 16
    kernel_size: 1
    weight_filler {
      type: "xavier"
      std: 0.2
    }
    bias_filler {
      type: "constant"
      value: 0.2
    }
  }
}
layer {
  name: "inception_3a/relu_5x5_reduce"
  type: "ReLU"
  bottom: "inception_3a/5x5_reduce"
  top: "inception_3a/5x5_reduce"
}
layer {
  name: "inception_3a/5x5"
  type: "Convolution"
  bottom: "inception_3a/5x5_reduce"
  top: "inception_3a/5x5"
  param {
    lr_mult: 1
    decay_mult: 1
  }
  param {
    lr_mult: 2
    decay_mult: 0
  }
  convolution_param {
    num_output: 32
    pad: 2
    kernel_size: 5
    weight_filler {
      type: "xavier"
      std: 0.03
    }
    bias_filler {
      type: "constant"
      value: 0.2
    }
  }
}
layer {
  name: "inception_3a/relu_5x5"
  type: "ReLU"
  bottom: "inception_3a/5x5"
  top: "inception_3a/5x5"
}
layer {
  name: "inception_3a/pool"
  type: "Pooling"
  bottom: "pool2/3x3_s2"
  top: "inception_3a/pool"
  pooling_param {
    pool: MAX
    kernel_size: 3
    stride: 1
    pad: 1
  }
}
layer {
  name: "inception_3a/pool_proj"
  type: "Convolution"
  bottom: "inception_3a/pool"
  top: "inception_3a/pool_proj"
  param {
    lr_mult: 1
    decay_mult: 1
  }
  param {
    lr_mult: 2
    decay_mult: 0
  }
  convolution_param {
    num_output: 32
    kernel_size: 1
    weight_filler {
      type: "xavier"
      std: 0.1
    }
    bias_filler {
      type: "constant"
      value: 0.2
    }
  }
}
layer {
  name: "inception_3a/relu_pool_proj"
  type: "ReLU"
  bottom: "inception_3a/pool_proj"
  top: "inception_3a/pool_proj"
}
layer {
  name: "inception_3a/output"
  type: "Concat"
  bottom: "inception_3a/1x1"
  bottom: "inception_3a/3x3"
  bottom: "inception_3a/5x5"
  bottom: "inception_3a/pool_proj"
  top: "inception_3a/output"
}
layer {
  name: "inception_3b/1x1"
  type: "Convolution"
  bottom: "inception_3a/output"
  top: "inception_3b/1x1"
  param {
    lr_mult: 1
    decay_mult: 1
  }
  param {
    lr_mult: 2
    decay_mult: 0
  }
  convolution_param {
    num_output: 128
    kernel_size: 1
    weight_filler {
      type: "xavier"
      std: 0.03
    }
    bias_filler {
      type: "constant"
      value: 0.2
    }
  }
}
layer {
  name: "inception_3b/relu_1x1"
  type: "ReLU"
  bottom: "inception_3b/1x1"
  top: "inception_3b/1x1"
}
layer {
  name: "inception_3b/3x3_reduce"
  type: "Convolution"
  bottom: "inception_3a/output"
  top: "inception_3b/3x3_reduce"
  param {
    lr_mult: 1
    decay_mult: 1
  }
  param {
    lr_mult: 2
    decay_mult: 0
  }
  convolution_param {
    num_output: 128
    kernel_size: 1
    weight_filler {
      type: "xavier"
      std: 0.09
    }
    bias_filler {
      type: "constant"
      value: 0.2
    }
  }
}
layer {
  name: "inception_3b/relu_3x3_reduce"
  type: "ReLU"
  bottom: "inception_3b/3x3_reduce"
  top: "inception_3b/3x3_reduce"
}
layer {
  name: "inception_3b/3x3"
  type: "Convolution"
  bottom: "inception_3b/3x3_reduce"
  top: "inception_3b/3x3"
  param {
    lr_mult: 1
    decay_mult: 1
  }
  param {
    lr_mult: 2
    decay_mult: 0
  }
  convolution_param {
    num_output: 192
    pad: 1
    kernel_size: 3
    weight_filler {
      type: "xavier"
      std: 0.03
    }
    bias_filler {
      type: "constant"
      value: 0.2
    }
  }
}
layer {
  name: "inception_3b/relu_3x3"
  type: "ReLU"
  bottom: "inception_3b/3x3"
  top: "inception_3b/3x3"
}
layer {
  name: "inception_3b/5x5_reduce"
  type: "Convolution"
  bottom: "inception_3a/output"
  top: "inception_3b/5x5_reduce"
  param {
    lr_mult: 1
    decay_mult: 1
  }
  param {
    lr_mult: 2
    decay_mult: 0
  }
  convolution_param {
    num_output: 32
    kernel_size: 1
    weight_filler {
      type: "xavier"
      std: 0.2
    }
    bias_filler {
      type: "constant"
      value: 0.2
    }
  }
}
layer {
  name: "inception_3b/relu_5x5_reduce"
  type: "ReLU"
  bottom: "inception_3b/5x5_reduce"
  top: "inception_3b/5x5_reduce"
}
layer {
  name: "inception_3b/5x5"
  type: "Convolution"
  bottom: "inception_3b/5x5_reduce"
  top: "inception_3b/5x5"
  param {
    lr_mult: 1
    decay_mult: 1
  }
  param {
    lr_mult: 2
    decay_mult: 0
  }
  convolution_param {
    num_output: 96
    pad: 2
    kernel_size: 5
    weight_filler {
      type: "xavier"
      std: 0.03
    }
    bias_filler {
      type: "constant"
      value: 0.2
    }
  }
}
layer {
  name: "inception_3b/relu_5x5"
  type: "ReLU"
  bottom: "inception_3b/5x5"
  top: "inception_3b/5x5"
}
layer {
  name: "inception_3b/pool"
  type: "Pooling"
  bottom: "inception_3a/output"
  top: "inception_3b/pool"
  pooling_param {
    pool: MAX
    kernel_size: 3
    stride: 1
    pad: 1
  }
}
layer {
  name: "inception_3b/pool_proj"
  type: "Convolution"
  bottom: "inception_3b/pool"
  top: "inception_3b/pool_proj"
  param {
    lr_mult: 1
    decay_mult: 1
  }
  param {
    lr_mult: 2
    decay_mult: 0
  }
  convolution_param {
    num_output: 64
    kernel_size: 1
    weight_filler {
      type: "xavier"
      std: 0.1
    }
    bias_filler {
      type: "constant"
      value: 0.2
    }
  }
}
layer {
  name: "inception_3b/relu_pool_proj"
  type: "ReLU"
  bottom: "inception_3b/pool_proj"
  top: "inception_3b/pool_proj"
}
layer {
  name: "inception_3b/output"
  type: "Concat"
  bottom: "inception_3b/1x1"
  bottom: "inception_3b/3x3"
  bottom: "inception_3b/5x5"
  bottom: "inception_3b/pool_proj"
  top: "inception_3b/output"
}
layer {
  name: "pool3/3x3_s2"
  type: "Pooling"
  bottom: "inception_3b/output"
  top: "pool3/3x3_s2"
  pooling_param {
    pool: MAX
    kernel_size: 3
    stride: 2
  }
}
layer {
  name: "inception_4a/1x1"
  type: "Convolution"
  bottom: "pool3/3x3_s2"
  top: "inception_4a/1x1"
  param {
    lr_mult: 1
    decay_mult: 1
  }
  param {
    lr_mult: 2
    decay_mult: 0
  }
  convolution_param {
    num_output: 192
    kernel_size: 1
    weight_filler {
      type: "xavier"
      std: 0.03
    }
    bias_filler {
      type: "constant"
      value: 0.2
    }
  }
}
layer {
  name: "inception_4a/relu_1x1"
  type: "ReLU"
  bottom: "inception_4a/1x1"
  top: "inception_4a/1x1"
}
layer {
  name: "inception_4a/3x3_reduce"
  type: "Convolution"
  bottom: "pool3/3x3_s2"
  top: "inception_4a/3x3_reduce"
  param {
    lr_mult: 1
    decay_mult: 1
  }
  param {
    lr_mult: 2
    decay_mult: 0
  }
  convolution_param {
    num_output: 96
    kernel_size: 1
    weight_filler {
      type: "xavier"
      std: 0.09
    }
    bias_filler {
      type: "constant"
      value: 0.2
    }
  }
}
layer {
  name: "inception_4a/relu_3x3_reduce"
  type: "ReLU"
  bottom: "inception_4a/3x3_reduce"
  top: "inception_4a/3x3_reduce"
}
layer {
  name: "inception_4a/3x3"
  type: "Convolution"
  bottom: "inception_4a/3x3_reduce"
  top: "inception_4a/3x3"
  param {
    lr_mult: 1
    decay_mult: 1
  }
  param {
    lr_mult: 2
    decay_mult: 0
  }
  convolution_param {
    num_output: 208
    pad: 1
    kernel_size: 3
    weight_filler {
      type: "xavier"
      std: 0.03
    }
    bias_filler {
      type: "constant"
      value: 0.2
    }
  }
}
layer {
  name: "inception_4a/relu_3x3"
  type: "ReLU"
  bottom: "inception_4a/3x3"
  top: "inception_4a/3x3"
}
layer {
  name: "inception_4a/5x5_reduce"
  type: "Convolution"
  bottom: "pool3/3x3_s2"
  top: "inception_4a/5x5_reduce"
  param {
    lr_mult: 1
    decay_mult: 1
  }
  param {
    lr_mult: 2
    decay_mult: 0
  }
  convolution_param {
    num_output: 16
    kernel_size: 1
    weight_filler {
      type: "xavier"
      std: 0.2
    }
    bias_filler {
      type: "constant"
      value: 0.2
    }
  }
}
layer {
  name: "inception_4a/relu_5x5_reduce"
  type: "ReLU"
  bottom: "inception_4a/5x5_reduce"
  top: "inception_4a/5x5_reduce"
}
layer {
  name: "inception_4a/5x5"
  type: "Convolution"
  bottom: "inception_4a/5x5_reduce"
  top: "inception_4a/5x5"
  param {
    lr_mult: 1
    decay_mult: 1
  }
  param {
    lr_mult: 2
    decay_mult: 0
  }
  convolution_param {
    num_output: 48
    pad: 2
    kernel_size: 5
    weight_filler {
      type: "xavier"
      std: 0.03
    }
    bias_filler {
      type: "constant"
      value: 0.2
    }
  }
}
layer {
  name: "inception_4a/relu_5x5"
  type: "ReLU"
  bottom: "inception_4a/5x5"
  top: "inception_4a/5x5"
}
layer {
  name: "inception_4a/pool"
  type: "Pooling"
  bottom: "pool3/3x3_s2"
  top: "inception_4a/pool"
  pooling_param {
    pool: MAX
    kernel_size: 3
    stride: 1
    pad: 1
  }
}
layer {
  name: "inception_4a/pool_proj"
  type: "Convolution"
  bottom: "inception_4a/pool"
  top: "inception_4a/pool_proj"
  param {
    lr_mult: 1
    decay_mult: 1
  }
  param {
    lr_mult: 2
    decay_mult: 0
  }
  convolution_param {
    num_output: 64
    kernel_size: 1
    weight_filler {
      type: "xavier"
      std: 0.1
    }
    bias_filler {
      type: "constant"
      value: 0.2
    }
  }
}
layer {
  name: "inception_4a/relu_pool_proj"
  type: "ReLU"
  bottom: "inception_4a/pool_proj"
  top: "inception_4a/pool_proj"
}
layer {
  name: "inception_4a/output"
  type: "Concat"
  bottom: "inception_4a/1x1"
  bottom: "inception_4a/3x3"
  bottom: "inception_4a/5x5"
  bottom: "inception_4a/pool_proj"
  top: "inception_4a/output"
}
layer {
  name: "loss1/ave_pool"
  type: "Pooling"
  bottom: "inception_4a/output"
  top: "loss1/ave_pool"
  pooling_param {
    pool: AVE
    kernel_size: 5
    stride: 3
  }
}
layer {
  name: "loss1/conv"
  type: "Convolution"
  bottom: "loss1/ave_pool"
  top: "loss1/conv"
  param {
    lr_mult: 1
    decay_mult: 1
  }
  param {
    lr_mult: 2
    decay_mult: 0
  }
  convolution_param {
    num_output: 128
    kernel_size: 1
    weight_filler {
      type: "xavier"
      std: 0.08
    }
    bias_filler {
      type: "constant"
      value: 0.2
    }
  }
}
layer {
  name: "loss1/relu_conv"
  type: "ReLU"
  bottom: "loss1/conv"
  top: "loss1/conv"
}
layer {
  name: "loss1/fc"
  type: "InnerProduct"
  bottom: "loss1/conv"
  top: "loss1/fc"
  param {
    lr_mult: 1
    decay_mult: 1
  }
  param {
    lr_mult: 2
    decay_mult: 0
  }
  inner_product_param {
    num_output: 1024
    weight_filler {
      type: "xavier"
      std: 0.02
    }
    bias_filler {
      type: "constant"
      value: 0.2
    }
  }
}
layer {
  name: "loss1/relu_fc"
  type: "ReLU"
  bottom: "loss1/fc"
  top: "loss1/fc"
}
layer {
  name: "loss1/drop_fc"
  type: "Dropout"
  bottom: "loss1/fc"
  top: "loss1/fc"
  dropout_param {
    dropout_ratio: 0.7
  }
}
layer {
  name: "loss1/classifier"
  type: "InnerProduct"
  bottom: "loss1/fc"
  top: "loss1/classifier"
  param {
    lr_mult: 1
    decay_mult: 1
  }
  param {
    lr_mult: 2
    decay_mult: 0
  }
  inner_product_param {
    num_output: 2
    weight_filler {
      type: "xavier"
      std: 0.0009765625
    }
    bias_filler {
      type: "constant"
      value: 0
    }
  }
}
layer {
  name: "loss1/loss"
  type: "SoftmaxWithLoss"
  bottom: "loss1/classifier"
  bottom: "label"
  top: "loss1/loss1"
  loss_weight: 0.3
}
layer {
  name: "inception_4b/1x1"
  type: "Convolution"
  bottom: "inception_4a/output"
  top: "inception_4b/1x1"
  param {
    lr_mult: 1
    decay_mult: 1
  }
  param {
    lr_mult: 2
    decay_mult: 0
  }
  convolution_param {
    num_output: 160
    kernel_size: 1
    weight_filler {
      type: "xavier"
      std: 0.03
    }
    bias_filler {
      type: "constant"
      value: 0.2
    }
  }
}
layer {
  name: "inception_4b/relu_1x1"
  type: "ReLU"
  bottom: "inception_4b/1x1"
  top: "inception_4b/1x1"
}
layer {
  name: "inception_4b/3x3_reduce"
  type: "Convolution"
  bottom: "inception_4a/output"
  top: "inception_4b/3x3_reduce"
  param {
    lr_mult: 1
    decay_mult: 1
  }
  param {
    lr_mult: 2
    decay_mult: 0
  }
  convolution_param {
    num_output: 112
    kernel_size: 1
    weight_filler {
      type: "xavier"
      std: 0.09
    }
    bias_filler {
      type: "constant"
      value: 0.2
    }
  }
}
layer {
  name: "inception_4b/relu_3x3_reduce"
  type: "ReLU"
  bottom: "inception_4b/3x3_reduce"
  top: "inception_4b/3x3_reduce"
}
layer {
  name: "inception_4b/3x3"
  type: "Convolution"
  bottom: "inception_4b/3x3_reduce"
  top: "inception_4b/3x3"
  param {
    lr_mult: 1
    decay_mult: 1
  }
  param {
    lr_mult: 2
    decay_mult: 0
  }
  convolution_param {
    num_output: 224
    pad: 1
    kernel_size: 3
    weight_filler {
      type: "xavier"
      std: 0.03
    }
    bias_filler {
      type: "constant"
      value: 0.2
    }
  }
}
layer {
  name: "inception_4b/relu_3x3"
  type: "ReLU"
  bottom: "inception_4b/3x3"
  top: "inception_4b/3x3"
}
layer {
  name: "inception_4b/5x5_reduce"
  type: "Convolution"
  bottom: "inception_4a/output"
  top: "inception_4b/5x5_reduce"
  param {
    lr_mult: 1
    decay_mult: 1
  }
  param {
    lr_mult: 2
    decay_mult: 0
  }
  convolution_param {
    num_output: 24
    kernel_size: 1
    weight_filler {
      type: "xavier"
      std: 0.2
    }
    bias_filler {
      type: "constant"
      value: 0.2
    }
  }
}
layer {
  name: "inception_4b/relu_5x5_reduce"
  type: "ReLU"
  bottom: "inception_4b/5x5_reduce"
  top: "inception_4b/5x5_reduce"
}
layer {
  name: "inception_4b/5x5"
  type: "Convolution"
  bottom: "inception_4b/5x5_reduce"
  top: "inception_4b/5x5"
  param {
    lr_mult: 1
    decay_mult: 1
  }
  param {
    lr_mult: 2
    decay_mult: 0
  }
  convolution_param {
    num_output: 64
    pad: 2
    kernel_size: 5
    weight_filler {
      type: "xavier"
      std: 0.03
    }
    bias_filler {
      type: "constant"
      value: 0.2
    }
  }
}
layer {
  name: "inception_4b/relu_5x5"
  type: "ReLU"
  bottom: "inception_4b/5x5"
  top: "inception_4b/5x5"
}
layer {
  name: "inception_4b/pool"
  type: "Pooling"
  bottom: "inception_4a/output"
  top: "inception_4b/pool"
  pooling_param {
    pool: MAX
    kernel_size: 3
    stride: 1
    pad: 1
  }
}
layer {
  name: "inception_4b/pool_proj"
  type: "Convolution"
  bottom: "inception_4b/pool"
  top: "inception_4b/pool_proj"
  param {
    lr_mult: 1
    decay_mult: 1
  }
  param {
    lr_mult: 2
    decay_mult: 0
  }
  convolution_param {
    num_output: 64
    kernel_size: 1
    weight_filler {
      type: "xavier"
      std: 0.1
    }
    bias_filler {
      type: "constant"
      value: 0.2
    }
  }
}
layer {
  name: "inception_4b/relu_pool_proj"
  type: "ReLU"
  bottom: "inception_4b/pool_proj"
  top: "inception_4b/pool_proj"
}
layer {
  name: "inception_4b/output"
  type: "Concat"
  bottom: "inception_4b/1x1"
  bottom: "inception_4b/3x3"
  bottom: "inception_4b/5x5"
  bottom: "inception_4b/pool_proj"
  top: "inception_4b/output"
}
layer {
  name: "inception_4c/1x1"
  type: "Convolution"
  bottom: "inception_4b/output"
  top: "inception_4c/1x1"
  param {
    lr_mult: 1
    decay_mult: 1
  }
  param {
    lr_mult: 2
    decay_mult: 0
  }
  convolution_param {
    num_output: 128
    kernel_size: 1
    weight_filler {
      type: "xavier"
      std: 0.03
    }
    bias_filler {
      type: "constant"
      value: 0.2
    }
  }
}
layer {
  name: "inception_4c/relu_1x1"
  type: "ReLU"
  bottom: "inception_4c/1x1"
  top: "inception_4c/1x1"
}
layer {
  name: "inception_4c/3x3_reduce"
  type: "Convolution"
  bottom: "inception_4b/output"
  top: "inception_4c/3x3_reduce"
  param {
    lr_mult: 1
    decay_mult: 1
  }
  param {
    lr_mult: 2
    decay_mult: 0
  }
  convolution_param {
    num_output: 128
    kernel_size: 1
    weight_filler {
      type: "xavier"
      std: 0.09
    }
    bias_filler {
      type: "constant"
      value: 0.2
    }
  }
}
layer {
  name: "inception_4c/relu_3x3_reduce"
  type: "ReLU"
  bottom: "inception_4c/3x3_reduce"
  top: "inception_4c/3x3_reduce"
}
layer {
  name: "inception_4c/3x3"
  type: "Convolution"
  bottom: "inception_4c/3x3_reduce"
  top: "inception_4c/3x3"
  param {
    lr_mult: 1
    decay_mult: 1
  }
  param {
    lr_mult: 2
    decay_mult: 0
  }
  convolution_param {
    num_output: 256
    pad: 1
    kernel_size: 3
    weight_filler {
      type: "xavier"
      std: 0.03
    }
    bias_filler {
      type: "constant"
      value: 0.2
    }
  }
}
layer {
  name: "inception_4c/relu_3x3"
  type: "ReLU"
  bottom: "inception_4c/3x3"
  top: "inception_4c/3x3"
}
layer {
  name: "inception_4c/5x5_reduce"
  type: "Convolution"
  bottom: "inception_4b/output"
  top: "inception_4c/5x5_reduce"
  param {
    lr_mult: 1
    decay_mult: 1
  }
  param {
    lr_mult: 2
    decay_mult: 0
  }
  convolution_param {
    num_output: 24
    kernel_size: 1
    weight_filler {
      type: "xavier"
      std: 0.2
    }
    bias_filler {
      type: "constant"
      value: 0.2
    }
  }
}
layer {
  name: "inception_4c/relu_5x5_reduce"
  type: "ReLU"
  bottom: "inception_4c/5x5_reduce"
  top: "inception_4c/5x5_reduce"
}
layer {
  name: "inception_4c/5x5"
  type: "Convolution"
  bottom: "inception_4c/5x5_reduce"
  top: "inception_4c/5x5"
  param {
    lr_mult: 1
    decay_mult: 1
  }
  param {
    lr_mult: 2
    decay_mult: 0
  }
  convolution_param {
    num_output: 64
    pad: 2
    kernel_size: 5
    weight_filler {
      type: "xavier"
      std: 0.03
    }
    bias_filler {
      type: "constant"
      value: 0.2
    }
  }
}
layer {
  name: "inception_4c/relu_5x5"
  type: "ReLU"
  bottom: "inception_4c/5x5"
  top: "inception_4c/5x5"
}
layer {
  name: "inception_4c/pool"
  type: "Pooling"
  bottom: "inception_4b/output"
  top: "inception_4c/pool"
  pooling_param {
    pool: MAX
    kernel_size: 3
    stride: 1
    pad: 1
  }
}
layer {
  name: "inception_4c/pool_proj"
  type: "Convolution"
  bottom: "inception_4c/pool"
  top: "inception_4c/pool_proj"
  param {
    lr_mult: 1
    decay_mult: 1
  }
  param {
    lr_mult: 2
    decay_mult: 0
  }
  convolution_param {
    num_output: 64
    kernel_size: 1
    weight_filler {
      type: "xavier"
      std: 0.1
    }
    bias_filler {
      type: "constant"
      value: 0.2
    }
  }
}
layer {
  name: "inception_4c/relu_pool_proj"
  type: "ReLU"
  bottom: "inception_4c/pool_proj"
  top: "inception_4c/pool_proj"
}
layer {
  name: "inception_4c/output"
  type: "Concat"
  bottom: "inception_4c/1x1"
  bottom: "inception_4c/3x3"
  bottom: "inception_4c/5x5"
  bottom: "inception_4c/pool_proj"
  top: "inception_4c/output"
}
layer {
  name: "inception_4d/1x1"
  type: "Convolution"
  bottom: "inception_4c/output"
  top: "inception_4d/1x1"
  param {
    lr_mult: 1
    decay_mult: 1
  }
  param {
    lr_mult: 2
    decay_mult: 0
  }
  convolution_param {
    num_output: 112
    kernel_size: 1
    weight_filler {
      type: "xavier"
      std: 0.03
    }
    bias_filler {
      type: "constant"
      value: 0.2
    }
  }
}
layer {
  name: "inception_4d/relu_1x1"
  type: "ReLU"
  bottom: "inception_4d/1x1"
  top: "inception_4d/1x1"
}
layer {
  name: "inception_4d/3x3_reduce"
  type: "Convolution"
  bottom: "inception_4c/output"
  top: "inception_4d/3x3_reduce"
  param {
    lr_mult: 1
    decay_mult: 1
  }
  param {
    lr_mult: 2
    decay_mult: 0
  }
  convolution_param {
    num_output: 144
    kernel_size: 1
    weight_filler {
      type: "xavier"
      std: 0.09
    }
    bias_filler {
      type: "constant"
      value: 0.2
    }
  }
}
layer {
  name: "inception_4d/relu_3x3_reduce"
  type: "ReLU"
  bottom: "inception_4d/3x3_reduce"
  top: "inception_4d/3x3_reduce"
}
layer {
  name: "inception_4d/3x3"
  type: "Convolution"
  bottom: "inception_4d/3x3_reduce"
  top: "inception_4d/3x3"
  param {
    lr_mult: 1
    decay_mult: 1
  }
  param {
    lr_mult: 2
    decay_mult: 0
  }
  convolution_param {
    num_output: 288
    pad: 1
    kernel_size: 3
    weight_filler {
      type: "xavier"
      std: 0.03
    }
    bias_filler {
      type: "constant"
      value: 0.2
    }
  }
}
layer {
  name: "inception_4d/relu_3x3"
  type: "ReLU"
  bottom: "inception_4d/3x3"
  top: "inception_4d/3x3"
}
layer {
  name: "inception_4d/5x5_reduce"
  type: "Convolution"
  bottom: "inception_4c/output"
  top: "inception_4d/5x5_reduce"
  param {
    lr_mult: 1
    decay_mult: 1
  }
  param {
    lr_mult: 2
    decay_mult: 0
  }
  convolution_param {
    num_output: 32
    kernel_size: 1
    weight_filler {
      type: "xavier"
      std: 0.2
    }
    bias_filler {
      type: "constant"
      value: 0.2
    }
  }
}
layer {
  name: "inception_4d/relu_5x5_reduce"
  type: "ReLU"
  bottom: "inception_4d/5x5_reduce"
  top: "inception_4d/5x5_reduce"
}
layer {
  name: "inception_4d/5x5"
  type: "Convolution"
  bottom: "inception_4d/5x5_reduce"
  top: "inception_4d/5x5"
  param {
    lr_mult: 1
    decay_mult: 1
  }
  param {
    lr_mult: 2
    decay_mult: 0
  }
  convolution_param {
    num_output: 64
    pad: 2
    kernel_size: 5
    weight_filler {
      type: "xavier"
      std: 0.03
    }
    bias_filler {
      type: "constant"
      value: 0.2
    }
  }
}
layer {
  name: "inception_4d/relu_5x5"
  type: "ReLU"
  bottom: "inception_4d/5x5"
  top: "inception_4d/5x5"
}
layer {
  name: "inception_4d/pool"
  type: "Pooling"
  bottom: "inception_4c/output"
  top: "inception_4d/pool"
  pooling_param {
    pool: MAX
    kernel_size: 3
    stride: 1
    pad: 1
  }
}
layer {
  name: "inception_4d/pool_proj"
  type: "Convolution"
  bottom: "inception_4d/pool"
  top: "inception_4d/pool_proj"
  param {
    lr_mult: 1
    decay_mult: 1
  }
  param {
    lr_mult: 2
    decay_mult: 0
  }
  convolution_param {
    num_output: 64
    kernel_size: 1
    weight_filler {
      type: "xavier"
      std: 0.1
    }
    bias_filler {
      type: "constant"
      value: 0.2
    }
  }
}
layer {
  name: "inception_4d/relu_pool_proj"
  type: "ReLU"
  bottom: "inception_4d/pool_proj"
  top: "inception_4d/pool_proj"
}
layer {
  name: "inception_4d/output"
  type: "Concat"
  bottom: "inception_4d/1x1"
  bottom: "inception_4d/3x3"
  bottom: "inception_4d/5x5"
  bottom: "inception_4d/pool_proj"
  top: "inception_4d/output"
}
layer {
  name: "loss2/ave_pool"
  type: "Pooling"
  bottom: "inception_4d/output"
  top: "loss2/ave_pool"
  pooling_param {
    pool: AVE
    kernel_size: 5
    stride: 3
  }
}
layer {
  name: "loss2/conv"
  type: "Convolution"
  bottom: "loss2/ave_pool"
  top: "loss2/conv"
  param {
    lr_mult: 1
    decay_mult: 1
  }
  param {
    lr_mult: 2
    decay_mult: 0
  }
  convolution_param {
    num_output: 128
    kernel_size: 1
    weight_filler {
      type: "xavier"
      std: 0.08
    }
    bias_filler {
      type: "constant"
      value: 0.2
    }
  }
}
layer {
  name: "loss2/relu_conv"
  type: "ReLU"
  bottom: "loss2/conv"
  top: "loss2/conv"
}
layer {
  name: "loss2/fc"
  type: "InnerProduct"
  bottom: "loss2/conv"
  top: "loss2/fc"
  param {
    lr_mult: 1
    decay_mult: 1
  }
  param {
    lr_mult: 2
    decay_mult: 0
  }
  inner_product_param {
    num_output: 1024
    weight_filler {
      type: "xavier"
      std: 0.02
    }
    bias_filler {
      type: "constant"
      value: 0.2
    }
  }
}
layer {
  name: "loss2/relu_fc"
  type: "ReLU"
  bottom: "loss2/fc"
  top: "loss2/fc"
}
layer {
  name: "loss2/drop_fc"
  type: "Dropout"
  bottom: "loss2/fc"
  top: "loss2/fc"
  dropout_param {
    dropout_ratio: 0.7
  }
}
layer {
  name: "loss2/classifier"
  type: "InnerProduct"
  bottom: "loss2/fc"
  top: "loss2/classifier"
  param {
    lr_mult: 1
    decay_mult: 1
  }
  param {
    lr_mult: 2
    decay_mult: 0
  }
  inner_product_param {
    num_output: 2
    weight_filler {
      type: "xavier"
      std: 0.0009765625
    }
    bias_filler {
      type: "constant"
      value: 0
    }
  }
}
layer {
  name: "loss2/loss"
  type: "SoftmaxWithLoss"
  bottom: "loss2/classifier"
  bottom: "label"
  top: "loss2/loss1"
  loss_weight: 0.3
}
layer {
  name: "inception_4e/1x1"
  type: "Convolution"
  bottom: "inception_4d/output"
  top: "inception_4e/1x1"
  param {
    lr_mult: 1
    decay_mult: 1
  }
  param {
    lr_mult: 2
    decay_mult: 0
  }
  convolution_param {
    num_output: 256
    kernel_size: 1
    weight_filler {
      type: "xavier"
      std: 0.03
    }
    bias_filler {
      type: "constant"
      value: 0.2
    }
  }
}
layer {
  name: "inception_4e/relu_1x1"
  type: "ReLU"
  bottom: "inception_4e/1x1"
  top: "inception_4e/1x1"
}
layer {
  name: "inception_4e/3x3_reduce"
  type: "Convolution"
  bottom: "inception_4d/output"
  top: "inception_4e/3x3_reduce"
  param {
    lr_mult: 1
    decay_mult: 1
  }
  param {
    lr_mult: 2
    decay_mult: 0
  }
  convolution_param {
    num_output: 160
    kernel_size: 1
    weight_filler {
      type: "xavier"
      std: 0.09
    }
    bias_filler {
      type: "constant"
      value: 0.2
    }
  }
}
layer {
  name: "inception_4e/relu_3x3_reduce"
  type: "ReLU"
  bottom: "inception_4e/3x3_reduce"
  top: "inception_4e/3x3_reduce"
}
layer {
  name: "inception_4e/3x3"
  type: "Convolution"
  bottom: "inception_4e/3x3_reduce"
  top: "inception_4e/3x3"
  param {
    lr_mult: 1
    decay_mult: 1
  }
  param {
    lr_mult: 2
    decay_mult: 0
  }
  convolution_param {
    num_output: 320
    pad: 1
    kernel_size: 3
    weight_filler {
      type: "xavier"
      std: 0.03
    }
    bias_filler {
      type: "constant"
      value: 0.2
    }
  }
}
layer {
  name: "inception_4e/relu_3x3"
  type: "ReLU"
  bottom: "inception_4e/3x3"
  top: "inception_4e/3x3"
}
layer {
  name: "inception_4e/5x5_reduce"
  type: "Convolution"
  bottom: "inception_4d/output"
  top: "inception_4e/5x5_reduce"
  param {
    lr_mult: 1
    decay_mult: 1
  }
  param {
    lr_mult: 2
    decay_mult: 0
  }
  convolution_param {
    num_output: 32
    kernel_size: 1
    weight_filler {
      type: "xavier"
      std: 0.2
    }
    bias_filler {
      type: "constant"
      value: 0.2
    }
  }
}
layer {
  name: "inception_4e/relu_5x5_reduce"
  type: "ReLU"
  bottom: "
I0510 00:28:22.422324 28440 layer_factory.hpp:74] Creating layer data
I0510 00:28:22.422369 28440 net.cpp:76] Creating Layer data
I0510 00:28:22.422390 28440 net.cpp:334] data -> data
I0510 00:28:22.422427 28440 net.cpp:334] data -> label
I0510 00:28:22.422466 28440 net.cpp:105] Setting up data
I0510 00:28:22.422610 28440 db.cpp:34] Opened lmdb train_lmdb
I0510 00:28:22.422947 28440 data_layer.cpp:67] output data size: 32,3,224,224
I0510 00:28:22.430536 28440 net.cpp:112] Top shape: 32 3 224 224 (4816896)
I0510 00:28:22.430560 28440 net.cpp:112] Top shape: 32 1 1 1 (32)
I0510 00:28:22.430572 28440 layer_factory.hpp:74] Creating layer label_data_1_split
I0510 00:28:22.430589 28440 net.cpp:76] Creating Layer label_data_1_split
I0510 00:28:22.430598 28440 net.cpp:372] label_data_1_split <- label
I0510 00:28:22.430627 28440 net.cpp:334] label_data_1_split -> label_data_1_split_0
I0510 00:28:22.430655 28440 net.cpp:334] label_data_1_split -> label_data_1_split_1
I0510 00:28:22.430665 28440 net.cpp:334] label_data_1_split -> label_data_1_split_2
I0510 00:28:22.430675 28440 net.cpp:105] Setting up label_data_1_split
I0510 00:28:22.430685 28440 net.cpp:112] Top shape: 32 1 1 1 (32)
I0510 00:28:22.430691 28440 net.cpp:112] Top shape: 32 1 1 1 (32)
I0510 00:28:22.430696 28440 net.cpp:112] Top shape: 32 1 1 1 (32)
I0510 00:28:22.430701 28440 layer_factory.hpp:74] Creating layer conv1/7x7_s2
I0510 00:28:22.430719 28440 net.cpp:76] Creating Layer conv1/7x7_s2
I0510 00:28:22.430726 28440 net.cpp:372] conv1/7x7_s2 <- data
I0510 00:28:22.430734 28440 net.cpp:334] conv1/7x7_s2 -> conv1/7x7_s2
I0510 00:28:22.430747 28440 net.cpp:105] Setting up conv1/7x7_s2
I0510 00:28:22.430872 28440 net.cpp:112] Top shape: 32 64 112 112 (25690112)
I0510 00:28:22.430927 28440 layer_factory.hpp:74] Creating layer conv1/relu_7x7
I0510 00:28:22.430938 28440 net.cpp:76] Creating Layer conv1/relu_7x7
I0510 00:28:22.430943 28440 net.cpp:372] conv1/relu_7x7 <- conv1/7x7_s2
I0510 00:28:22.430951 28440 net.cpp:323] conv1/relu_7x7 -> conv1/7x7_s2 (in-place)
I0510 00:28:22.430959 28440 net.cpp:105] Setting up conv1/relu_7x7
I0510 00:28:22.430968 28440 net.cpp:112] Top shape: 32 64 112 112 (25690112)
I0510 00:28:22.430974 28440 layer_factory.hpp:74] Creating layer pool1/3x3_s2
I0510 00:28:22.430985 28440 net.cpp:76] Creating Layer pool1/3x3_s2
I0510 00:28:22.430990 28440 net.cpp:372] pool1/3x3_s2 <- conv1/7x7_s2
I0510 00:28:22.431001 28440 net.cpp:334] pool1/3x3_s2 -> pool1/3x3_s2
I0510 00:28:22.431011 28440 net.cpp:105] Setting up pool1/3x3_s2
I0510 00:28:22.431025 28440 net.cpp:112] Top shape: 32 64 56 56 (6422528)
I0510 00:28:22.431032 28440 layer_factory.hpp:74] Creating layer pool1/norm1
I0510 00:28:22.431043 28440 net.cpp:76] Creating Layer pool1/norm1
I0510 00:28:22.431048 28440 net.cpp:372] pool1/norm1 <- pool1/3x3_s2
I0510 00:28:22.431056 28440 net.cpp:334] pool1/norm1 -> pool1/norm1
I0510 00:28:22.431066 28440 net.cpp:105] Setting up pool1/norm1
I0510 00:28:22.431072 28440 net.cpp:112] Top shape: 32 64 56 56 (6422528)
I0510 00:28:22.431078 28440 layer_factory.hpp:74] Creating layer conv2/3x3_reduce
I0510 00:28:22.431087 28440 net.cpp:76] Creating Layer conv2/3x3_reduce
I0510 00:28:22.431092 28440 net.cpp:372] conv2/3x3_reduce <- pool1/norm1
I0510 00:28:22.431102 28440 net.cpp:334] conv2/3x3_reduce -> conv2/3x3_reduce
I0510 00:28:22.431110 28440 net.cpp:105] Setting up conv2/3x3_reduce
I0510 00:28:22.431154 28440 net.cpp:112] Top shape: 32 64 56 56 (6422528)
I0510 00:28:22.431165 28440 layer_factory.hpp:74] Creating layer conv2/relu_3x3_reduce
I0510 00:28:22.431174 28440 net.cpp:76] Creating Layer conv2/relu_3x3_reduce
I0510 00:28:22.431180 28440 net.cpp:372] conv2/relu_3x3_reduce <- conv2/3x3_reduce
I0510 00:28:22.431186 28440 net.cpp:323] conv2/relu_3x3_reduce -> conv2/3x3_reduce (in-place)
I0510 00:28:22.431195 28440 net.cpp:105] Setting up conv2/relu_3x3_reduce
I0510 00:28:22.431200 28440 net.cpp:112] Top shape: 32 64 56 56 (6422528)
I0510 00:28:22.431205 28440 layer_factory.hpp:74] Creating layer conv2/3x3
I0510 00:28:22.431215 28440 net.cpp:76] Creating Layer conv2/3x3
I0510 00:28:22.431219 28440 net.cpp:372] conv2/3x3 <- conv2/3x3_reduce
I0510 00:28:22.431227 28440 net.cpp:334] conv2/3x3 -> conv2/3x3
I0510 00:28:22.431236 28440 net.cpp:105] Setting up conv2/3x3
I0510 00:28:22.432497 28440 net.cpp:112] Top shape: 32 192 56 56 (19267584)
I0510 00:28:22.432524 28440 layer_factory.hpp:74] Creating layer conv2/relu_3x3
I0510 00:28:22.432535 28440 net.cpp:76] Creating Layer conv2/relu_3x3
I0510 00:28:22.432544 28440 net.cpp:372] conv2/relu_3x3 <- conv2/3x3
I0510 00:28:22.432553 28440 net.cpp:323] conv2/relu_3x3 -> conv2/3x3 (in-place)
I0510 00:28:22.432561 28440 net.cpp:105] Setting up conv2/relu_3x3
I0510 00:28:22.432567 28440 net.cpp:112] Top shape: 32 192 56 56 (19267584)
I0510 00:28:22.432574 28440 layer_factory.hpp:74] Creating layer conv2/norm2
I0510 00:28:22.432590 28440 net.cpp:76] Creating Layer conv2/norm2
I0510 00:28:22.432602 28440 net.cpp:372] conv2/norm2 <- conv2/3x3
I0510 00:28:22.432611 28440 net.cpp:334] conv2/norm2 -> conv2/norm2
I0510 00:28:22.432627 28440 net.cpp:105] Setting up conv2/norm2
I0510 00:28:22.432641 28440 net.cpp:112] Top shape: 32 192 56 56 (19267584)
I0510 00:28:22.432648 28440 layer_factory.hpp:74] Creating layer pool2/3x3_s2
I0510 00:28:22.432662 28440 net.cpp:76] Creating Layer pool2/3x3_s2
I0510 00:28:22.432670 28440 net.cpp:372] pool2/3x3_s2 <- conv2/norm2
I0510 00:28:22.432687 28440 net.cpp:334] pool2/3x3_s2 -> pool2/3x3_s2
I0510 00:28:22.432703 28440 net.cpp:105] Setting up pool2/3x3_s2
I0510 00:28:22.432718 28440 net.cpp:112] Top shape: 32 192 28 28 (4816896)
I0510 00:28:22.432729 28440 layer_factory.hpp:74] Creating layer pool2/3x3_s2_pool2/3x3_s2_0_split
I0510 00:28:22.432744 28440 net.cpp:76] Creating Layer pool2/3x3_s2_pool2/3x3_s2_0_split
I0510 00:28:22.432786 28440 net.cpp:372] pool2/3x3_s2_pool2/3x3_s2_0_split <- pool2/3x3_s2
I0510 00:28:22.432811 28440 net.cpp:334] pool2/3x3_s2_pool2/3x3_s2_0_split -> pool2/3x3_s2_pool2/3x3_s2_0_split_0
I0510 00:28:22.432829 28440 net.cpp:334] pool2/3x3_s2_pool2/3x3_s2_0_split -> pool2/3x3_s2_pool2/3x3_s2_0_split_1
I0510 00:28:22.432840 28440 net.cpp:334] pool2/3x3_s2_pool2/3x3_s2_0_split -> pool2/3x3_s2_pool2/3x3_s2_0_split_2
I0510 00:28:22.432854 28440 net.cpp:334] pool2/3x3_s2_pool2/3x3_s2_0_split -> pool2/3x3_s2_pool2/3x3_s2_0_split_3
I0510 00:28:22.432868 28440 net.cpp:105] Setting up pool2/3x3_s2_pool2/3x3_s2_0_split
I0510 00:28:22.432878 28440 net.cpp:112] Top shape: 32 192 28 28 (4816896)
I0510 00:28:22.432888 28440 net.cpp:112] Top shape: 32 192 28 28 (4816896)
I0510 00:28:22.432895 28440 net.cpp:112] Top shape: 32 192 28 28 (4816896)
I0510 00:28:22.432901 28440 net.cpp:112] Top shape: 32 192 28 28 (4816896)
I0510 00:28:22.432906 28440 layer_factory.hpp:74] Creating layer inception_3a/1x1
I0510 00:28:22.432919 28440 net.cpp:76] Creating Layer inception_3a/1x1
I0510 00:28:22.432925 28440 net.cpp:372] inception_3a/1x1 <- pool2/3x3_s2_pool2/3x3_s2_0_split_0
I0510 00:28:22.432934 28440 net.cpp:334] inception_3a/1x1 -> inception_3a/1x1
I0510 00:28:22.432948 28440 net.cpp:105] Setting up inception_3a/1x1
I0510 00:28:22.433065 28440 net.cpp:112] Top shape: 32 64 28 28 (1605632)
I0510 00:28:22.433079 28440 layer_factory.hpp:74] Creating layer inception_3a/relu_1x1
I0510 00:28:22.433089 28440 net.cpp:76] Creating Layer inception_3a/relu_1x1
I0510 00:28:22.433094 28440 net.cpp:372] inception_3a/relu_1x1 <- inception_3a/1x1
I0510 00:28:22.433102 28440 net.cpp:323] inception_3a/relu_1x1 -> inception_3a/1x1 (in-place)
I0510 00:28:22.433109 28440 net.cpp:105] Setting up inception_3a/relu_1x1
I0510 00:28:22.433115 28440 net.cpp:112] Top shape: 32 64 28 28 (1605632)
I0510 00:28:22.433120 28440 layer_factory.hpp:74] Creating layer inception_3a/3x3_reduce
I0510 00:28:22.433131 28440 net.cpp:76] Creating Layer inception_3a/3x3_reduce
I0510 00:28:22.433136 28440 net.cpp:372] inception_3a/3x3_reduce <- pool2/3x3_s2_pool2/3x3_s2_0_split_1
I0510 00:28:22.433145 28440 net.cpp:334] inception_3a/3x3_reduce -> inception_3a/3x3_reduce
I0510 00:28:22.433153 28440 net.cpp:105] Setting up inception_3a/3x3_reduce
I0510 00:28:22.433367 28440 net.cpp:112] Top shape: 32 96 28 28 (2408448)
I0510 00:28:22.433387 28440 layer_factory.hpp:74] Creating layer inception_3a/relu_3x3_reduce
I0510 00:28:22.433399 28440 net.cpp:76] Creating Layer inception_3a/relu_3x3_reduce
I0510 00:28:22.433405 28440 net.cpp:372] inception_3a/relu_3x3_reduce <- inception_3a/3x3_reduce
I0510 00:28:22.433413 28440 net.cpp:323] inception_3a/relu_3x3_reduce -> inception_3a/3x3_reduce (in-place)
I0510 00:28:22.433423 28440 net.cpp:105] Setting up inception_3a/relu_3x3_reduce
I0510 00:28:22.433428 28440 net.cpp:112] Top shape: 32 96 28 28 (2408448)
I0510 00:28:22.433434 28440 layer_factory.hpp:74] Creating layer inception_3a/3x3
I0510 00:28:22.433445 28440 net.cpp:76] Creating Layer inception_3a/3x3
I0510 00:28:22.433451 28440 net.cpp:372] inception_3a/3x3 <- inception_3a/3x3_reduce
I0510 00:28:22.433459 28440 net.cpp:334] inception_3a/3x3 -> inception_3a/3x3
I0510 00:28:22.433468 28440 net.cpp:105] Setting up inception_3a/3x3
I0510 00:28:22.434583 28440 net.cpp:112] Top shape: 32 128 28 28 (3211264)
I0510 00:28:22.434604 28440 layer_factory.hpp:74] Creating layer inception_3a/relu_3x3
I0510 00:28:22.434617 28440 net.cpp:76] Creating Layer inception_3a/relu_3x3
I0510 00:28:22.434623 28440 net.cpp:372] inception_3a/relu_3x3 <- inception_3a/3x3
I0510 00:28:22.434631 28440 net.cpp:323] inception_3a/relu_3x3 -> inception_3a/3x3 (in-place)
I0510 00:28:22.434639 28440 net.cpp:105] Setting up inception_3a/relu_3x3
I0510 00:28:22.434645 28440 net.cpp:112] Top shape: 32 128 28 28 (3211264)
I0510 00:28:22.434650 28440 layer_factory.hpp:74] Creating layer inception_3a/5x5_reduce
I0510 00:28:22.434664 28440 net.cpp:76] Creating Layer inception_3a/5x5_reduce
I0510 00:28:22.434690 28440 net.cpp:372] inception_3a/5x5_reduce <- pool2/3x3_s2_pool2/3x3_s2_0_split_2
I0510 00:28:22.434701 28440 net.cpp:334] inception_3a/5x5_reduce -> inception_3a/5x5_reduce
I0510 00:28:22.434710 28440 net.cpp:105] Setting up inception_3a/5x5_reduce
I0510 00:28:22.434795 28440 net.cpp:112] Top shape: 32 16 28 28 (401408)
I0510 00:28:22.434816 28440 layer_factory.hpp:74] Creating layer inception_3a/relu_5x5_reduce
I0510 00:28:22.434826 28440 net.cpp:76] Creating Layer inception_3a/relu_5x5_reduce
I0510 00:28:22.434833 28440 net.cpp:372] inception_3a/relu_5x5_reduce <- inception_3a/5x5_reduce
I0510 00:28:22.434840 28440 net.cpp:323] inception_3a/relu_5x5_reduce -> inception_3a/5x5_reduce (in-place)
I0510 00:28:22.434849 28440 net.cpp:105] Setting up inception_3a/relu_5x5_reduce
I0510 00:28:22.434855 28440 net.cpp:112] Top shape: 32 16 28 28 (401408)
I0510 00:28:22.434860 28440 layer_factory.hpp:74] Creating layer inception_3a/5x5
I0510 00:28:22.434872 28440 net.cpp:76] Creating Layer inception_3a/5x5
I0510 00:28:22.434878 28440 net.cpp:372] inception_3a/5x5 <- inception_3a/5x5_reduce
I0510 00:28:22.434888 28440 net.cpp:334] inception_3a/5x5 -> inception_3a/5x5
I0510 00:28:22.434897 28440 net.cpp:105] Setting up inception_3a/5x5
I0510 00:28:22.435014 28440 net.cpp:112] Top shape: 32 32 28 28 (802816)
I0510 00:28:22.435025 28440 layer_factory.hpp:74] Creating layer inception_3a/relu_5x5
I0510 00:28:22.435035 28440 net.cpp:76] Creating Layer inception_3a/relu_5x5
I0510 00:28:22.435041 28440 net.cpp:372] inception_3a/relu_5x5 <- inception_3a/5x5
I0510 00:28:22.435048 28440 net.cpp:323] inception_3a/relu_5x5 -> inception_3a/5x5 (in-place)
I0510 00:28:22.435056 28440 net.cpp:105] Setting up inception_3a/relu_5x5
I0510 00:28:22.435061 28440 net.cpp:112] Top shape: 32 32 28 28 (802816)
I0510 00:28:22.435067 28440 layer_factory.hpp:74] Creating layer inception_3a/pool
I0510 00:28:22.435075 28440 net.cpp:76] Creating Layer inception_3a/pool
I0510 00:28:22.435083 28440 net.cpp:372] inception_3a/pool <- pool2/3x3_s2_pool2/3x3_s2_0_split_3
I0510 00:28:22.435091 28440 net.cpp:334] inception_3a/pool -> inception_3a/pool
I0510 00:28:22.435099 28440 net.cpp:105] Setting up inception_3a/pool
I0510 00:28:22.435107 28440 net.cpp:112] Top shape: 32 192 28 28 (4816896)
I0510 00:28:22.435112 28440 layer_factory.hpp:74] Creating layer inception_3a/pool_proj
I0510 00:28:22.435122 28440 net.cpp:76] Creating Layer inception_3a/pool_proj
I0510 00:28:22.435127 28440 net.cpp:372] inception_3a/pool_proj <- inception_3a/pool
I0510 00:28:22.435137 28440 net.cpp:334] inception_3a/pool_proj -> inception_3a/pool_proj
I0510 00:28:22.435147 28440 net.cpp:105] Setting up inception_3a/pool_proj
I0510 00:28:22.435214 28440 net.cpp:112] Top shape: 32 32 28 28 (802816)
I0510 00:28:22.435226 28440 layer_factory.hpp:74] Creating layer inception_3a/relu_pool_proj
I0510 00:28:22.435235 28440 net.cpp:76] Creating Layer inception_3a/relu_pool_proj
I0510 00:28:22.435240 28440 net.cpp:372] inception_3a/relu_pool_proj <- inception_3a/pool_proj
I0510 00:28:22.435247 28440 net.cpp:323] inception_3a/relu_pool_proj -> inception_3a/pool_proj (in-place)
I0510 00:28:22.435255 28440 net.cpp:105] Setting up inception_3a/relu_pool_proj
I0510 00:28:22.435259 28440 net.cpp:112] Top shape: 32 32 28 28 (802816)
I0510 00:28:22.435266 28440 layer_factory.hpp:74] Creating layer inception_3a/output
I0510 00:28:22.435292 28440 net.cpp:76] Creating Layer inception_3a/output
I0510 00:28:22.435300 28440 net.cpp:372] inception_3a/output <- inception_3a/1x1
I0510 00:28:22.435307 28440 net.cpp:372] inception_3a/output <- inception_3a/3x3
I0510 00:28:22.435313 28440 net.cpp:372] inception_3a/output <- inception_3a/5x5
I0510 00:28:22.435319 28440 net.cpp:372] inception_3a/output <- inception_3a/pool_proj
I0510 00:28:22.435330 28440 net.cpp:334] inception_3a/output -> inception_3a/output
I0510 00:28:22.435339 28440 net.cpp:105] Setting up inception_3a/output
I0510 00:28:22.435348 28440 net.cpp:112] Top shape: 32 256 28 28 (6422528)
I0510 00:28:22.435353 28440 layer_factory.hpp:74] Creating layer inception_3a/output_inception_3a/output_0_split
I0510 00:28:22.435382 28440 net.cpp:76] Creating Layer inception_3a/output_inception_3a/output_0_split
I0510 00:28:22.435389 28440 net.cpp:372] inception_3a/output_inception_3a/output_0_split <- inception_3a/output
I0510 00:28:22.435397 28440 net.cpp:334] inception_3a/output_inception_3a/output_0_split -> inception_3a/output_inception_3a/output_0_split_0
I0510 00:28:22.435407 28440 net.cpp:334] inception_3a/output_inception_3a/output_0_split -> inception_3a/output_inception_3a/output_0_split_1
I0510 00:28:22.435416 28440 net.cpp:334] inception_3a/output_inception_3a/output_0_split -> inception_3a/output_inception_3a/output_0_split_2
I0510 00:28:22.435425 28440 net.cpp:334] inception_3a/output_inception_3a/output_0_split -> inception_3a/output_inception_3a/output_0_split_3
I0510 00:28:22.435438 28440 net.cpp:105] Setting up inception_3a/output_inception_3a/output_0_split
I0510 00:28:22.435446 28440 net.cpp:112] Top shape: 32 256 28 28 (6422528)
I0510 00:28:22.435451 28440 net.cpp:112] Top shape: 32 256 28 28 (6422528)
I0510 00:28:22.435456 28440 net.cpp:112] Top shape: 32 256 28 28 (6422528)
I0510 00:28:22.435461 28440 net.cpp:112] Top shape: 32 256 28 28 (6422528)
I0510 00:28:22.435467 28440 layer_factory.hpp:74] Creating layer inception_3b/1x1
I0510 00:28:22.435477 28440 net.cpp:76] Creating Layer inception_3b/1x1
I0510 00:28:22.435483 28440 net.cpp:372] inception_3b/1x1 <- inception_3a/output_inception_3a/output_0_split_0
I0510 00:28:22.435495 28440 net.cpp:334] inception_3b/1x1 -> inception_3b/1x1
I0510 00:28:22.435505 28440 net.cpp:105] Setting up inception_3b/1x1
I0510 00:28:22.436002 28440 net.cpp:112] Top shape: 32 128 28 28 (3211264)
I0510 00:28:22.436017 28440 layer_factory.hpp:74] Creating layer inception_3b/relu_1x1
I0510 00:28:22.436025 28440 net.cpp:76] Creating Layer inception_3b/relu_1x1
I0510 00:28:22.436033 28440 net.cpp:372] inception_3b/relu_1x1 <- inception_3b/1x1
I0510 00:28:22.436041 28440 net.cpp:323] inception_3b/relu_1x1 -> inception_3b/1x1 (in-place)
I0510 00:28:22.436050 28440 net.cpp:105] Setting up inception_3b/relu_1x1
I0510 00:28:22.436056 28440 net.cpp:112] Top shape: 32 128 28 28 (3211264)
I0510 00:28:22.436061 28440 layer_factory.hpp:74] Creating layer inception_3b/3x3_reduce
I0510 00:28:22.436070 28440 net.cpp:76] Creating Layer inception_3b/3x3_reduce
I0510 00:28:22.436076 28440 net.cpp:372] inception_3b/3x3_reduce <- inception_3a/output_inception_3a/output_0_split_1
I0510 00:28:22.436084 28440 net.cpp:334] inception_3b/3x3_reduce -> inception_3b/3x3_reduce
I0510 00:28:22.436094 28440 net.cpp:105] Setting up inception_3b/3x3_reduce
I0510 00:28:22.436394 28440 net.cpp:112] Top shape: 32 128 28 28 (3211264)
I0510 00:28:22.436409 28440 layer_factory.hpp:74] Creating layer inception_3b/relu_3x3_reduce
I0510 00:28:22.436420 28440 net.cpp:76] Creating Layer inception_3b/relu_3x3_reduce
I0510 00:28:22.436426 28440 net.cpp:372] inception_3b/relu_3x3_reduce <- inception_3b/3x3_reduce
I0510 00:28:22.436434 28440 net.cpp:323] inception_3b/relu_3x3_reduce -> inception_3b/3x3_reduce (in-place)
I0510 00:28:22.436441 28440 net.cpp:105] Setting up inception_3b/relu_3x3_reduce
I0510 00:28:22.436447 28440 net.cpp:112] Top shape: 32 128 28 28 (3211264)
I0510 00:28:22.436452 28440 layer_factory.hpp:74] Creating layer inception_3b/3x3
I0510 00:28:22.436465 28440 net.cpp:76] Creating Layer inception_3b/3x3
I0510 00:28:22.436472 28440 net.cpp:372] inception_3b/3x3 <- inception_3b/3x3_reduce
I0510 00:28:22.436483 28440 net.cpp:334] inception_3b/3x3 -> inception_3b/3x3
I0510 00:28:22.436492 28440 net.cpp:105] Setting up inception_3b/3x3
I0510 00:28:22.438572 28440 net.cpp:112] Top shape: 32 192 28 28 (4816896)
I0510 00:28:22.438597 28440 layer_factory.hpp:74] Creating layer inception_3b/relu_3x3
I0510 00:28:22.438608 28440 net.cpp:76] Creating Layer inception_3b/relu_3x3
I0510 00:28:22.438614 28440 net.cpp:372] inception_3b/relu_3x3 <- inception_3b/3x3
I0510 00:28:22.438626 28440 net.cpp:323] inception_3b/relu_3x3 -> inception_3b/3x3 (in-place)
I0510 00:28:22.438660 28440 net.cpp:105] Setting up inception_3b/relu_3x3
I0510 00:28:22.438668 28440 net.cpp:112] Top shape: 32 192 28 28 (4816896)
I0510 00:28:22.438673 28440 layer_factory.hpp:74] Creating layer inception_3b/5x5_reduce
I0510 00:28:22.438683 28440 net.cpp:76] Creating Layer inception_3b/5x5_reduce
I0510 00:28:22.438688 28440 net.cpp:372] inception_3b/5x5_reduce <- inception_3a/output_inception_3a/output_0_split_2
I0510 00:28:22.438696 28440 net.cpp:334] inception_3b/5x5_reduce -> inception_3b/5x5_reduce
I0510 00:28:22.438706 28440 net.cpp:105] Setting up inception_3b/5x5_reduce
I0510 00:28:22.438807 28440 net.cpp:112] Top shape: 32 32 28 28 (802816)
I0510 00:28:22.438820 28440 layer_factory.hpp:74] Creating layer inception_3b/relu_5x5_reduce
I0510 00:28:22.438832 28440 net.cpp:76] Creating Layer inception_3b/relu_5x5_reduce
I0510 00:28:22.438844 28440 net.cpp:372] inception_3b/relu_5x5_reduce <- inception_3b/5x5_reduce
I0510 00:28:22.438859 28440 net.cpp:323] inception_3b/relu_5x5_reduce -> inception_3b/5x5_reduce (in-place)
I0510 00:28:22.438875 28440 net.cpp:105] Setting up inception_3b/relu_5x5_reduce
I0510 00:28:22.438885 28440 net.cpp:112] Top shape: 32 32 28 28 (802816)
I0510 00:28:22.438892 28440 layer_factory.hpp:74] Creating layer inception_3b/5x5
I0510 00:28:22.438909 28440 net.cpp:76] Creating Layer inception_3b/5x5
I0510 00:28:22.438921 28440 net.cpp:372] inception_3b/5x5 <- inception_3b/5x5_reduce
I0510 00:28:22.438937 28440 net.cpp:334] inception_3b/5x5 -> inception_3b/5x5
I0510 00:28:22.438962 28440 net.cpp:105] Setting up inception_3b/5x5
I0510 00:28:22.439760 28440 net.cpp:112] Top shape: 32 96 28 28 (2408448)
I0510 00:28:22.439776 28440 layer_factory.hpp:74] Creating layer inception_3b/relu_5x5
I0510 00:28:22.439795 28440 net.cpp:76] Creating Layer inception_3b/relu_5x5
I0510 00:28:22.439802 28440 net.cpp:372] inception_3b/relu_5x5 <- inception_3b/5x5
I0510 00:28:22.439810 28440 net.cpp:323] inception_3b/relu_5x5 -> inception_3b/5x5 (in-place)
I0510 00:28:22.439818 28440 net.cpp:105] Setting up inception_3b/relu_5x5
I0510 00:28:22.439824 28440 net.cpp:112] Top shape: 32 96 28 28 (2408448)
I0510 00:28:22.439829 28440 layer_factory.hpp:74] Creating layer inception_3b/pool
I0510 00:28:22.439847 28440 net.cpp:76] Creating Layer inception_3b/pool
I0510 00:28:22.439858 28440 net.cpp:372] inception_3b/pool <- inception_3a/output_inception_3a/output_0_split_3
I0510 00:28:22.439868 28440 net.cpp:334] inception_3b/pool -> inception_3b/pool
I0510 00:28:22.439877 28440 net.cpp:105] Setting up inception_3b/pool
I0510 00:28:22.439885 28440 net.cpp:112] Top shape: 32 256 28 28 (6422528)
I0510 00:28:22.439895 28440 layer_factory.hpp:74] Creating layer inception_3b/pool_proj
I0510 00:28:22.439910 28440 net.cpp:76] Creating Layer inception_3b/pool_proj
I0510 00:28:22.439918 28440 net.cpp:372] inception_3b/pool_proj <- inception_3b/pool
I0510 00:28:22.439929 28440 net.cpp:334] inception_3b/pool_proj -> inception_3b/pool_proj
I0510 00:28:22.439939 28440 net.cpp:105] Setting up inception_3b/pool_proj
I0510 00:28:22.440124 28440 net.cpp:112] Top shape: 32 64 28 28 (1605632)
I0510 00:28:22.440140 28440 layer_factory.hpp:74] Creating layer inception_3b/relu_pool_proj
I0510 00:28:22.440148 28440 net.cpp:76] Creating Layer inception_3b/relu_pool_proj
I0510 00:28:22.440155 28440 net.cpp:372] inception_3b/relu_pool_proj <- inception_3b/pool_proj
I0510 00:28:22.440163 28440 net.cpp:323] inception_3b/relu_pool_proj -> inception_3b/pool_proj (in-place)
I0510 00:28:22.440172 28440 net.cpp:105] Setting up inception_3b/relu_pool_proj
I0510 00:28:22.440178 28440 net.cpp:112] Top shape: 32 64 28 28 (1605632)
I0510 00:28:22.440183 28440 layer_factory.hpp:74] Creating layer inception_3b/output
I0510 00:28:22.440192 28440 net.cpp:76] Creating Layer inception_3b/output
I0510 00:28:22.440197 28440 net.cpp:372] inception_3b/output <- inception_3b/1x1
I0510 00:28:22.440204 28440 net.cpp:372] inception_3b/output <- inception_3b/3x3
I0510 00:28:22.440209 28440 net.cpp:372] inception_3b/output <- inception_3b/5x5
I0510 00:28:22.440232 28440 net.cpp:372] inception_3b/output <- inception_3b/pool_proj
I0510 00:28:22.440239 28440 net.cpp:334] inception_3b/output -> inception_3b/output
I0510 00:28:22.440248 28440 net.cpp:105] Setting up inception_3b/output
I0510 00:28:22.440254 28440 net.cpp:112] Top shape: 32 480 28 28 (12042240)
I0510 00:28:22.440260 28440 layer_factory.hpp:74] Creating layer pool3/3x3_s2
I0510 00:28:22.440268 28440 net.cpp:76] Creating Layer pool3/3x3_s2
I0510 00:28:22.440287 28440 net.cpp:372] pool3/3x3_s2 <- inception_3b/output
I0510 00:28:22.440299 28440 net.cpp:334] pool3/3x3_s2 -> pool3/3x3_s2
I0510 00:28:22.440309 28440 net.cpp:105] Setting up pool3/3x3_s2
I0510 00:28:22.440315 28440 net.cpp:112] Top shape: 32 480 14 14 (3010560)
I0510 00:28:22.440321 28440 layer_factory.hpp:74] Creating layer pool3/3x3_s2_pool3/3x3_s2_0_split
I0510 00:28:22.440330 28440 net.cpp:76] Creating Layer pool3/3x3_s2_pool3/3x3_s2_0_split
I0510 00:28:22.440335 28440 net.cpp:372] pool3/3x3_s2_pool3/3x3_s2_0_split <- pool3/3x3_s2
I0510 00:28:22.440345 28440 net.cpp:334] pool3/3x3_s2_pool3/3x3_s2_0_split -> pool3/3x3_s2_pool3/3x3_s2_0_split_0
I0510 00:28:22.440353 28440 net.cpp:334] pool3/3x3_s2_pool3/3x3_s2_0_split -> pool3/3x3_s2_pool3/3x3_s2_0_split_1
I0510 00:28:22.440361 28440 net.cpp:334] pool3/3x3_s2_pool3/3x3_s2_0_split -> pool3/3x3_s2_pool3/3x3_s2_0_split_2
I0510 00:28:22.440371 28440 net.cpp:334] pool3/3x3_s2_pool3/3x3_s2_0_split -> pool3/3x3_s2_pool3/3x3_s2_0_split_3
I0510 00:28:22.440378 28440 net.cpp:105] Setting up pool3/3x3_s2_pool3/3x3_s2_0_split
I0510 00:28:22.440384 28440 net.cpp:112] Top shape: 32 480 14 14 (3010560)
I0510 00:28:22.440390 28440 net.cpp:112] Top shape: 32 480 14 14 (3010560)
I0510 00:28:22.440395 28440 net.cpp:112] Top shape: 32 480 14 14 (3010560)
I0510 00:28:22.440399 28440 net.cpp:112] Top shape: 32 480 14 14 (3010560)
I0510 00:28:22.440405 28440 layer_factory.hpp:74] Creating layer inception_4a/1x1
I0510 00:28:22.440415 28440 net.cpp:76] Creating Layer inception_4a/1x1
I0510 00:28:22.440423 28440 net.cpp:372] inception_4a/1x1 <- pool3/3x3_s2_pool3/3x3_s2_0_split_0
I0510 00:28:22.440434 28440 net.cpp:334] inception_4a/1x1 -> inception_4a/1x1
I0510 00:28:22.440453 28440 net.cpp:105] Setting up inception_4a/1x1
I0510 00:28:22.441256 28440 net.cpp:112] Top shape: 32 192 14 14 (1204224)
I0510 00:28:22.441288 28440 layer_factory.hpp:74] Creating layer inception_4a/relu_1x1
I0510 00:28:22.441305 28440 net.cpp:76] Creating Layer inception_4a/relu_1x1
I0510 00:28:22.441334 28440 net.cpp:372] inception_4a/relu_1x1 <- inception_4a/1x1
I0510 00:28:22.441342 28440 net.cpp:323] inception_4a/relu_1x1 -> inception_4a/1x1 (in-place)
I0510 00:28:22.441351 28440 net.cpp:105] Setting up inception_4a/relu_1x1
I0510 00:28:22.441357 28440 net.cpp:112] Top shape: 32 192 14 14 (1204224)
I0510 00:28:22.441362 28440 layer_factory.hpp:74] Creating layer inception_4a/3x3_reduce
I0510 00:28:22.441373 28440 net.cpp:76] Creating Layer inception_4a/3x3_reduce
I0510 00:28:22.441380 28440 net.cpp:372] inception_4a/3x3_reduce <- pool3/3x3_s2_pool3/3x3_s2_0_split_1
I0510 00:28:22.441388 28440 net.cpp:334] inception_4a/3x3_reduce -> inception_4a/3x3_reduce
I0510 00:28:22.441396 28440 net.cpp:105] Setting up inception_4a/3x3_reduce
I0510 00:28:22.441798 28440 net.cpp:112] Top shape: 32 96 14 14 (602112)
I0510 00:28:22.441819 28440 layer_factory.hpp:74] Creating layer inception_4a/relu_3x3_reduce
I0510 00:28:22.441828 28440 net.cpp:76] Creating Layer inception_4a/relu_3x3_reduce
I0510 00:28:22.441833 28440 net.cpp:372] inception_4a/relu_3x3_reduce <- inception_4a/3x3_reduce
I0510 00:28:22.441841 28440 net.cpp:323] inception_4a/relu_3x3_reduce -> inception_4a/3x3_reduce (in-place)
I0510 00:28:22.441849 28440 net.cpp:105] Setting up inception_4a/relu_3x3_reduce
I0510 00:28:22.441854 28440 net.cpp:112] Top shape: 32 96 14 14 (602112)
I0510 00:28:22.441859 28440 layer_factory.hpp:74] Creating layer inception_4a/3x3
I0510 00:28:22.441871 28440 net.cpp:76] Creating Layer inception_4a/3x3
I0510 00:28:22.441877 28440 net.cpp:372] inception_4a/3x3 <- inception_4a/3x3_reduce
I0510 00:28:22.441901 28440 net.cpp:334] inception_4a/3x3 -> inception_4a/3x3
I0510 00:28:22.441911 28440 net.cpp:105] Setting up inception_4a/3x3
I0510 00:28:22.443462 28440 net.cpp:112] Top shape: 32 208 14 14 (1304576)
I0510 00:28:22.443481 28440 layer_factory.hpp:74] Creating layer inception_4a/relu_3x3
I0510 00:28:22.443490 28440 net.cpp:76] Creating Layer inception_4a/relu_3x3
I0510 00:28:22.443495 28440 net.cpp:372] inception_4a/relu_3x3 <- inception_4a/3x3
I0510 00:28:22.443503 28440 net.cpp:323] inception_4a/relu_3x3 -> inception_4a/3x3 (in-place)
I0510 00:28:22.443511 28440 net.cpp:105] Setting up inception_4a/relu_3x3
I0510 00:28:22.443516 28440 net.cpp:112] Top shape: 32 208 14 14 (1304576)
I0510 00:28:22.443527 28440 layer_factory.hpp:74] Creating layer inception_4a/5x5_reduce
I0510 00:28:22.443541 28440 net.cpp:76] Creating Layer inception_4a/5x5_reduce
I0510 00:28:22.443547 28440 net.cpp:372] inception_4a/5x5_reduce <- pool3/3x3_s2_pool3/3x3_s2_0_split_2
I0510 00:28:22.443557 28440 net.cpp:334] inception_4a/5x5_reduce -> inception_4a/5x5_reduce
I0510 00:28:22.443567 28440 net.cpp:105] Setting up inception_4a/5x5_reduce
I0510 00:28:22.443645 28440 net.cpp:112] Top shape: 32 16 14 14 (100352)
I0510 00:28:22.443656 28440 layer_factory.hpp:74] Creating layer inception_4a/relu_5x5_reduce
I0510 00:28:22.443665 28440 net.cpp:76] Creating Layer inception_4a/relu_5x5_reduce
I0510 00:28:22.443670 28440 net.cpp:372] inception_4a/relu_5x5_reduce <- inception_4a/5x5_reduce
I0510 00:28:22.443677 28440 net.cpp:323] inception_4a/relu_5x5_reduce -> inception_4a/5x5_reduce (in-place)
I0510 00:28:22.443686 28440 net.cpp:105] Setting up inception_4a/relu_5x5_reduce
I0510 00:28:22.443691 28440 net.cpp:112] Top shape: 32 16 14 14 (100352)
I0510 00:28:22.443696 28440 layer_factory.hpp:74] Creating layer inception_4a/5x5
I0510 00:28:22.443706 28440 net.cpp:76] Creating Layer inception_4a/5x5
I0510 00:28:22.443712 28440 net.cpp:372] inception_4a/5x5 <- inception_4a/5x5_reduce
I0510 00:28:22.443720 28440 net.cpp:334] inception_4a/5x5 -> inception_4a/5x5
I0510 00:28:22.443728 28440 net.cpp:105] Setting up inception_4a/5x5
I0510 00:28:22.443913 28440 net.cpp:112] Top shape: 32 48 14 14 (301056)
I0510 00:28:22.443925 28440 layer_factory.hpp:74] Creating layer inception_4a/relu_5x5
I0510 00:28:22.443933 28440 net.cpp:76] Creating Layer inception_4a/relu_5x5
I0510 00:28:22.444886 28440 net.cpp:372] inception_4a/relu_5x5 <- inception_4a/5x5
I0510 00:28:22.444902 28440 net.cpp:323] inception_4a/relu_5x5 -> inception_4a/5x5 (in-place)
I0510 00:28:22.444913 28440 net.cpp:105] Setting up inception_4a/relu_5x5
I0510 00:28:22.444919 28440 net.cpp:112] Top shape: 32 48 14 14 (301056)
I0510 00:28:22.444926 28440 layer_factory.hpp:74] Creating layer inception_4a/pool
I0510 00:28:22.444939 28440 net.cpp:76] Creating Layer inception_4a/pool
I0510 00:28:22.444947 28440 net.cpp:372] inception_4a/pool <- pool3/3x3_s2_pool3/3x3_s2_0_split_3
I0510 00:28:22.444954 28440 net.cpp:334] inception_4a/pool -> inception_4a/pool
I0510 00:28:22.444963 28440 net.cpp:105] Setting up inception_4a/pool
I0510 00:28:22.444972 28440 net.cpp:112] Top shape: 32 480 14 14 (3010560)
I0510 00:28:22.444977 28440 layer_factory.hpp:74] Creating layer inception_4a/pool_proj
I0510 00:28:22.444986 28440 net.cpp:76] Creating Layer inception_4a/pool_proj
I0510 00:28:22.444998 28440 net.cpp:372] inception_4a/pool_proj <- inception_4a/pool
I0510 00:28:22.445014 28440 net.cpp:334] inception_4a/pool_proj -> inception_4a/pool_proj
I0510 00:28:22.445024 28440 net.cpp:105] Setting up inception_4a/pool_proj
I0510 00:28:22.445317 28440 net.cpp:112] Top shape: 32 64 14 14 (401408)
I0510 00:28:22.445333 28440 layer_factory.hpp:74] Creating layer inception_4a/relu_pool_proj
I0510 00:28:22.445341 28440 net.cpp:76] Creating Layer inception_4a/relu_pool_proj
I0510 00:28:22.445348 28440 net.cpp:372] inception_4a/relu_pool_proj <- inception_4a/pool_proj
I0510 00:28:22.445358 28440 net.cpp:323] inception_4a/relu_pool_proj -> inception_4a/pool_proj (in-place)
I0510 00:28:22.445394 28440 net.cpp:105] Setting up inception_4a/relu_pool_proj
I0510 00:28:22.445399 28440 net.cpp:112] Top shape: 32 64 14 14 (401408)
I0510 00:28:22.445405 28440 layer_factory.hpp:74] Creating layer inception_4a/output
I0510 00:28:22.445415 28440 net.cpp:76] Creating Layer inception_4a/output
I0510 00:28:22.445422 28440 net.cpp:372] inception_4a/output <- inception_4a/1x1
I0510 00:28:22.445430 28440 net.cpp:372] inception_4a/output <- inception_4a/3x3
I0510 00:28:22.445436 28440 net.cpp:372] inception_4a/output <- inception_4a/5x5
I0510 00:28:22.445441 28440 net.cpp:372] inception_4a/output <- inception_4a/pool_proj
I0510 00:28:22.445449 28440 net.cpp:334] inception_4a/output -> inception_4a/output
I0510 00:28:22.445457 28440 net.cpp:105] Setting up inception_4a/output
I0510 00:28:22.445463 28440 net.cpp:112] Top shape: 32 512 14 14 (3211264)
I0510 00:28:22.445469 28440 layer_factory.hpp:74] Creating layer inception_4a/output_inception_4a/output_0_split
I0510 00:28:22.445479 28440 net.cpp:76] Creating Layer inception_4a/output_inception_4a/output_0_split
I0510 00:28:22.445485 28440 net.cpp:372] inception_4a/output_inception_4a/output_0_split <- inception_4a/output
I0510 00:28:22.445493 28440 net.cpp:334] inception_4a/output_inception_4a/output_0_split -> inception_4a/output_inception_4a/output_0_split_0
I0510 00:28:22.445502 28440 net.cpp:334] inception_4a/output_inception_4a/output_0_split -> inception_4a/output_inception_4a/output_0_split_1
I0510 00:28:22.445511 28440 net.cpp:334] inception_4a/output_inception_4a/output_0_split -> inception_4a/output_inception_4a/output_0_split_2
I0510 00:28:22.445520 28440 net.cpp:334] inception_4a/output_inception_4a/output_0_split -> inception_4a/output_inception_4a/output_0_split_3
I0510 00:28:22.445529 28440 net.cpp:334] inception_4a/output_inception_4a/output_0_split -> inception_4a/output_inception_4a/output_0_split_4
I0510 00:28:22.445538 28440 net.cpp:105] Setting up inception_4a/output_inception_4a/output_0_split
I0510 00:28:22.445544 28440 net.cpp:112] Top shape: 32 512 14 14 (3211264)
I0510 00:28:22.445693 28440 net.cpp:112] Top shape: 32 512 14 14 (3211264)
I0510 00:28:22.445708 28440 net.cpp:112] Top shape: 32 512 14 14 (3211264)
I0510 00:28:22.445719 28440 net.cpp:112] Top shape: 32 512 14 14 (3211264)
I0510 00:28:22.445727 28440 net.cpp:112] Top shape: 32 512 14 14 (3211264)
I0510 00:28:22.445745 28440 layer_factory.hpp:74] Creating layer loss1/ave_pool
I0510 00:28:22.445770 28440 net.cpp:76] Creating Layer loss1/ave_pool
I0510 00:28:22.445782 28440 net.cpp:372] loss1/ave_pool <- inception_4a/output_inception_4a/output_0_split_0
I0510 00:28:22.445797 28440 net.cpp:334] loss1/ave_pool -> loss1/ave_pool
I0510 00:28:22.445813 28440 net.cpp:105] Setting up loss1/ave_pool
I0510 00:28:22.445832 28440 net.cpp:112] Top shape: 32 512 4 4 (262144)
I0510 00:28:22.445843 28440 layer_factory.hpp:74] Creating layer loss1/conv
I0510 00:28:22.445864 28440 net.cpp:76] Creating Layer loss1/conv
I0510 00:28:22.445876 28440 net.cpp:372] loss1/conv <- loss1/ave_pool
I0510 00:28:22.445891 28440 net.cpp:334] loss1/conv -> loss1/conv
I0510 00:28:22.445910 28440 net.cpp:105] Setting up loss1/conv
I0510 00:28:22.446703 28440 net.cpp:112] Top shape: 32 128 4 4 (65536)
I0510 00:28:22.446735 28440 layer_factory.hpp:74] Creating layer loss1/relu_conv
I0510 00:28:22.446751 28440 net.cpp:76] Creating Layer loss1/relu_conv
I0510 00:28:22.446763 28440 net.cpp:372] loss1/relu_conv <- loss1/conv
I0510 00:28:22.446779 28440 net.cpp:323] loss1/relu_conv -> loss1/conv (in-place)
I0510 00:28:22.446794 28440 net.cpp:105] Setting up loss1/relu_conv
I0510 00:28:22.446806 28440 net.cpp:112] Top shape: 32 128 4 4 (65536)
I0510 00:28:22.446817 28440 layer_factory.hpp:74] Creating layer loss1/fc
I0510 00:28:22.446838 28440 net.cpp:76] Creating Layer loss1/fc
I0510 00:28:22.446851 28440 net.cpp:372] loss1/fc <- loss1/conv
I0510 00:28:22.446869 28440 net.cpp:334] loss1/fc -> loss1/fc
I0510 00:28:22.446897 28440 net.cpp:105] Setting up loss1/fc
I0510 00:28:22.465090 28440 net.cpp:112] Top shape: 32 1024 1 1 (32768)
I0510 00:28:22.465173 28440 layer_factory.hpp:74] Creating layer loss1/relu_fc
I0510 00:28:22.465188 28440 net.cpp:76] Creating Layer loss1/relu_fc
I0510 00:28:22.465201 28440 net.cpp:372] loss1/relu_fc <- loss1/fc
I0510 00:28:22.465222 28440 net.cpp:323] loss1/relu_fc -> loss1/fc (in-place)
I0510 00:28:22.465243 28440 net.cpp:105] Setting up loss1/relu_fc
I0510 00:28:22.465255 28440 net.cpp:112] Top shape: 32 1024 1 1 (32768)
I0510 00:28:22.465267 28440 layer_factory.hpp:74] Creating layer loss1/drop_fc
I0510 00:28:22.465320 28440 net.cpp:76] Creating Layer loss1/drop_fc
I0510 00:28:22.465330 28440 net.cpp:372] loss1/drop_fc <- loss1/fc
I0510 00:28:22.465345 28440 net.cpp:323] loss1/drop_fc -> loss1/fc (in-place)
I0510 00:28:22.465366 28440 net.cpp:105] Setting up loss1/drop_fc
I0510 00:28:22.465385 28440 net.cpp:112] Top shape: 32 1024 1 1 (32768)
I0510 00:28:22.465399 28440 layer_factory.hpp:74] Creating layer loss1/classifier
I0510 00:28:22.465416 28440 net.cpp:76] Creating Layer loss1/classifier
I0510 00:28:22.465427 28440 net.cpp:372] loss1/classifier <- loss1/fc
I0510 00:28:22.465448 28440 net.cpp:334] loss1/classifier -> loss1/classifier
I0510 00:28:22.465471 28440 net.cpp:105] Setting up loss1/classifier
I0510 00:28:22.465512 28440 net.cpp:112] Top shape: 32 2 1 1 (64)
I0510 00:28:22.465524 28440 layer_factory.hpp:74] Creating layer loss1/loss
I0510 00:28:22.465538 28440 net.cpp:76] Creating Layer loss1/loss
I0510 00:28:22.465544 28440 net.cpp:372] loss1/loss <- loss1/classifier
I0510 00:28:22.465551 28440 net.cpp:372] loss1/loss <- label_data_1_split_0
I0510 00:28:22.465564 28440 net.cpp:334] loss1/loss -> loss1/loss1
I0510 00:28:22.465577 28440 net.cpp:105] Setting up loss1/loss
I0510 00:28:22.465589 28440 layer_factory.hpp:74] Creating layer loss1/loss
I0510 00:28:22.465616 28440 net.cpp:112] Top shape: 1 1 1 1 (1)
I0510 00:28:22.465631 28440 net.cpp:118]     with loss weight 0.3
I0510 00:28:22.465678 28440 layer_factory.hpp:74] Creating layer inception_4b/1x1
I0510 00:28:22.465692 28440 net.cpp:76] Creating Layer inception_4b/1x1
I0510 00:28:22.465698 28440 net.cpp:372] inception_4b/1x1 <- inception_4a/output_inception_4a/output_0_split_1
I0510 00:28:22.465713 28440 net.cpp:334] inception_4b/1x1 -> inception_4b/1x1
I0510 00:28:22.465730 28440 net.cpp:105] Setting up inception_4b/1x1
I0510 00:28:22.466531 28440 net.cpp:112] Top shape: 32 160 14 14 (1003520)
I0510 00:28:22.466552 28440 layer_factory.hpp:74] Creating layer inception_4b/relu_1x1
I0510 00:28:22.466567 28440 net.cpp:76] Creating Layer inception_4b/relu_1x1
I0510 00:28:22.466580 28440 net.cpp:372] inception_4b/relu_1x1 <- inception_4b/1x1
I0510 00:28:22.466599 28440 net.cpp:323] inception_4b/relu_1x1 -> inception_4b/1x1 (in-place)
I0510 00:28:22.466614 28440 net.cpp:105] Setting up inception_4b/relu_1x1
I0510 00:28:22.466624 28440 net.cpp:112] Top shape: 32 160 14 14 (1003520)
I0510 00:28:22.466634 28440 layer_factory.hpp:74] Creating layer inception_4b/3x3_reduce
I0510 00:28:22.466647 28440 net.cpp:76] Creating Layer inception_4b/3x3_reduce
I0510 00:28:22.466653 28440 net.cpp:372] inception_4b/3x3_reduce <- inception_4a/output_inception_4a/output_0_split_2
I0510 00:28:22.466665 28440 net.cpp:334] inception_4b/3x3_reduce -> inception_4b/3x3_reduce
I0510 00:28:22.466675 28440 net.cpp:105] Setting up inception_4b/3x3_reduce
I0510 00:28:22.467244 28440 net.cpp:112] Top shape: 32 112 14 14 (702464)
I0510 00:28:22.467260 28440 layer_factory.hpp:74] Creating layer inception_4b/relu_3x3_reduce
I0510 00:28:22.467308 28440 net.cpp:76] Creating Layer inception_4b/relu_3x3_reduce
I0510 00:28:22.467321 28440 net.cpp:372] inception_4b/relu_3x3_reduce <- inception_4b/3x3_reduce
I0510 00:28:22.467331 28440 net.cpp:323] inception_4b/relu_3x3_reduce -> inception_4b/3x3_reduce (in-place)
I0510 00:28:22.467345 28440 net.cpp:105] Setting up inception_4b/relu_3x3_reduce
I0510 00:28:22.467357 28440 net.cpp:112] Top shape: 32 112 14 14 (702464)
I0510 00:28:22.467370 28440 layer_factory.hpp:74] Creating layer inception_4b/3x3
I0510 00:28:22.467387 28440 net.cpp:76] Creating Layer inception_4b/3x3
I0510 00:28:22.467418 28440 net.cpp:372] inception_4b/3x3 <- inception_4b/3x3_reduce
I0510 00:28:22.467437 28440 net.cpp:334] inception_4b/3x3 -> inception_4b/3x3
I0510 00:28:22.467454 28440 net.cpp:105] Setting up inception_4b/3x3
I0510 00:28:22.469454 28440 net.cpp:112] Top shape: 32 224 14 14 (1404928)
I0510 00:28:22.469483 28440 layer_factory.hpp:74] Creating layer inception_4b/relu_3x3
I0510 00:28:22.469506 28440 net.cpp:76] Creating Layer inception_4b/relu_3x3
I0510 00:28:22.469516 28440 net.cpp:372] inception_4b/relu_3x3 <- inception_4b/3x3
I0510 00:28:22.469526 28440 net.cpp:323] inception_4b/relu_3x3 -> inception_4b/3x3 (in-place)
I0510 00:28:22.469539 28440 net.cpp:105] Setting up inception_4b/relu_3x3
I0510 00:28:22.469550 28440 net.cpp:112] Top shape: 32 224 14 14 (1404928)
I0510 00:28:22.469557 28440 layer_factory.hpp:74] Creating layer inception_4b/5x5_reduce
I0510 00:28:22.469570 28440 net.cpp:76] Creating Layer inception_4b/5x5_reduce
I0510 00:28:22.469581 28440 net.cpp:372] inception_4b/5x5_reduce <- inception_4a/output_inception_4a/output_0_split_3
I0510 00:28:22.469600 28440 net.cpp:334] inception_4b/5x5_reduce -> inception_4b/5x5_reduce
I0510 00:28:22.469617 28440 net.cpp:105] Setting up inception_4b/5x5_reduce
I0510 00:28:22.469741 28440 net.cpp:112] Top shape: 32 24 14 14 (150528)
I0510 00:28:22.469763 28440 layer_factory.hpp:74] Creating layer inception_4b/relu_5x5_reduce
I0510 00:28:22.469776 28440 net.cpp:76] Creating Layer inception_4b/relu_5x5_reduce
I0510 00:28:22.469787 28440 net.cpp:372] inception_4b/relu_5x5_reduce <- inception_4b/5x5_reduce
I0510 00:28:22.469799 28440 net.cpp:323] inception_4b/relu_5x5_reduce -> inception_4b/5x5_reduce (in-place)
I0510 00:28:22.469816 28440 net.cpp:105] Setting up inception_4b/relu_5x5_reduce
I0510 00:28:22.469827 28440 net.cpp:112] Top shape: 32 24 14 14 (150528)
I0510 00:28:22.469836 28440 layer_factory.hpp:74] Creating layer inception_4b/5x5
I0510 00:28:22.469846 28440 net.cpp:76] Creating Layer inception_4b/5x5
I0510 00:28:22.469852 28440 net.cpp:372] inception_4b/5x5 <- inception_4b/5x5_reduce
I0510 00:28:22.469861 28440 net.cpp:334] inception_4b/5x5 -> inception_4b/5x5
I0510 00:28:22.469869 28440 net.cpp:105] Setting up inception_4b/5x5
I0510 00:28:22.470213 28440 net.cpp:112] Top shape: 32 64 14 14 (401408)
I0510 00:28:22.470227 28440 layer_factory.hpp:74] Creating layer inception_4b/relu_5x5
I0510 00:28:22.470235 28440 net.cpp:76] Creating Layer inception_4b/relu_5x5
I0510 00:28:22.470242 28440 net.cpp:372] inception_4b/relu_5x5 <- inception_4b/5x5
I0510 00:28:22.470250 28440 net.cpp:323] inception_4b/relu_5x5 -> inception_4b/5x5 (in-place)
I0510 00:28:22.470258 28440 net.cpp:105] Setting up inception_4b/relu_5x5
I0510 00:28:22.470264 28440 net.cpp:112] Top shape: 32 64 14 14 (401408)
I0510 00:28:22.470281 28440 layer_factory.hpp:74] Creating layer inception_4b/pool
I0510 00:28:22.470291 28440 net.cpp:76] Creating Layer inception_4b/pool
I0510 00:28:22.470299 28440 net.cpp:372] inception_4b/pool <- inception_4a/output_inception_4a/output_0_split_4
I0510 00:28:22.470309 28440 net.cpp:334] inception_4b/pool -> inception_4b/pool
I0510 00:28:22.470326 28440 net.cpp:105] Setting up inception_4b/pool
I0510 00:28:22.470336 28440 net.cpp:112] Top shape: 32 512 14 14 (3211264)
I0510 00:28:22.470342 28440 layer_factory.hpp:74] Creating layer inception_4b/pool_proj
I0510 00:28:22.470355 28440 net.cpp:76] Creating Layer inception_4b/pool_proj
I0510 00:28:22.470360 28440 net.cpp:372] inception_4b/pool_proj <- inception_4b/pool
I0510 00:28:22.470371 28440 net.cpp:334] inception_4b/pool_proj -> inception_4b/pool_proj
I0510 00:28:22.470379 28440 net.cpp:105] Setting up inception_4b/pool_proj
I0510 00:28:22.470660 28440 net.cpp:112] Top shape: 32 64 14 14 (401408)
I0510 00:28:22.470674 28440 layer_factory.hpp:74] Creating layer inception_4b/relu_pool_proj
I0510 00:28:22.470684 28440 net.cpp:76] Creating Layer inception_4b/relu_pool_proj
I0510 00:28:22.470690 28440 net.cpp:372] inception_4b/relu_pool_proj <- inception_4b/pool_proj
I0510 00:28:22.470718 28440 net.cpp:323] inception_4b/relu_pool_proj -> inception_4b/pool_proj (in-place)
I0510 00:28:22.470726 28440 net.cpp:105] Setting up inception_4b/relu_pool_proj
I0510 00:28:22.470732 28440 net.cpp:112] Top shape: 32 64 14 14 (401408)
I0510 00:28:22.470738 28440 layer_factory.hpp:74] Creating layer inception_4b/output
I0510 00:28:22.470746 28440 net.cpp:76] Creating Layer inception_4b/output
I0510 00:28:22.470752 28440 net.cpp:372] inception_4b/output <- inception_4b/1x1
I0510 00:28:22.470758 28440 net.cpp:372] inception_4b/output <- inception_4b/3x3
I0510 00:28:22.470764 28440 net.cpp:372] inception_4b/output <- inception_4b/5x5
I0510 00:28:22.470770 28440 net.cpp:372] inception_4b/output <- inception_4b/pool_proj
I0510 00:28:22.470780 28440 net.cpp:334] inception_4b/output -> inception_4b/output
I0510 00:28:22.470788 28440 net.cpp:105] Setting up inception_4b/output
I0510 00:28:22.470795 28440 net.cpp:112] Top shape: 32 512 14 14 (3211264)
I0510 00:28:22.470801 28440 layer_factory.hpp:74] Creating layer inception_4b/output_inception_4b/output_0_split
I0510 00:28:22.470809 28440 net.cpp:76] Creating Layer inception_4b/output_inception_4b/output_0_split
I0510 00:28:22.470815 28440 net.cpp:372] inception_4b/output_inception_4b/output_0_split <- inception_4b/output
I0510 00:28:22.470824 28440 net.cpp:334] inception_4b/output_inception_4b/output_0_split -> inception_4b/output_inception_4b/output_0_split_0
I0510 00:28:22.470832 28440 net.cpp:334] inception_4b/output_inception_4b/output_0_split -> inception_4b/output_inception_4b/output_0_split_1
I0510 00:28:22.470841 28440 net.cpp:334] inception_4b/output_inception_4b/output_0_split -> inception_4b/output_inception_4b/output_0_split_2
I0510 00:28:22.470854 28440 net.cpp:334] inception_4b/output_inception_4b/output_0_split -> inception_4b/output_inception_4b/output_0_split_3
I0510 00:28:22.470861 28440 net.cpp:105] Setting up inception_4b/output_inception_4b/output_0_split
I0510 00:28:22.470868 28440 net.cpp:112] Top shape: 32 512 14 14 (3211264)
I0510 00:28:22.470891 28440 net.cpp:112] Top shape: 32 512 14 14 (3211264)
I0510 00:28:22.470897 28440 net.cpp:112] Top shape: 32 512 14 14 (3211264)
I0510 00:28:22.470902 28440 net.cpp:112] Top shape: 32 512 14 14 (3211264)
I0510 00:28:22.470908 28440 layer_factory.hpp:74] Creating layer inception_4c/1x1
I0510 00:28:22.470917 28440 net.cpp:76] Creating Layer inception_4c/1x1
I0510 00:28:22.470927 28440 net.cpp:372] inception_4c/1x1 <- inception_4b/output_inception_4b/output_0_split_0
I0510 00:28:22.470943 28440 net.cpp:334] inception_4c/1x1 -> inception_4c/1x1
I0510 00:28:22.470952 28440 net.cpp:105] Setting up inception_4c/1x1
I0510 00:28:22.471523 28440 net.cpp:112] Top shape: 32 128 14 14 (802816)
I0510 00:28:22.471537 28440 layer_factory.hpp:74] Creating layer inception_4c/relu_1x1
I0510 00:28:22.471545 28440 net.cpp:76] Creating Layer inception_4c/relu_1x1
I0510 00:28:22.471551 28440 net.cpp:372] inception_4c/relu_1x1 <- inception_4c/1x1
I0510 00:28:22.471560 28440 net.cpp:323] inception_4c/relu_1x1 -> inception_4c/1x1 (in-place)
I0510 00:28:22.471568 28440 net.cpp:105] Setting up inception_4c/relu_1x1
I0510 00:28:22.471575 28440 net.cpp:112] Top shape: 32 128 14 14 (802816)
I0510 00:28:22.471580 28440 layer_factory.hpp:74] Creating layer inception_4c/3x3_reduce
I0510 00:28:22.471588 28440 net.cpp:76] Creating Layer inception_4c/3x3_reduce
I0510 00:28:22.471595 28440 net.cpp:372] inception_4c/3x3_reduce <- inception_4b/output_inception_4b/output_0_split_1
I0510 00:28:22.471604 28440 net.cpp:334] inception_4c/3x3_reduce -> inception_4c/3x3_reduce
I0510 00:28:22.471613 28440 net.cpp:105] Setting up inception_4c/3x3_reduce
I0510 00:28:22.472175 28440 net.cpp:112] Top shape: 32 128 14 14 (802816)
I0510 00:28:22.472189 28440 layer_factory.hpp:74] Creating layer inception_4c/relu_3x3_reduce
I0510 00:28:22.472198 28440 net.cpp:76] Creating Layer inception_4c/relu_3x3_reduce
I0510 00:28:22.472203 28440 net.cpp:372] inception_4c/relu_3x3_reduce <- inception_4c/3x3_reduce
I0510 00:28:22.472210 28440 net.cpp:323] inception_4c/relu_3x3_reduce -> inception_4c/3x3_reduce (in-place)
I0510 00:28:22.472234 28440 net.cpp:105] Setting up inception_4c/relu_3x3_reduce
I0510 00:28:22.472239 28440 net.cpp:112] Top shape: 32 128 14 14 (802816)
I0510 00:28:22.472245 28440 layer_factory.hpp:74] Creating layer inception_4c/3x3
I0510 00:28:22.472256 28440 net.cpp:76] Creating Layer inception_4c/3x3
I0510 00:28:22.472262 28440 net.cpp:372] inception_4c/3x3 <- inception_4c/3x3_reduce
I0510 00:28:22.472283 28440 net.cpp:334] inception_4c/3x3 -> inception_4c/3x3
I0510 00:28:22.472295 28440 net.cpp:105] Setting up inception_4c/3x3
I0510 00:28:22.474800 28440 net.cpp:112] Top shape: 32 256 14 14 (1605632)
I0510 00:28:22.474838 28440 layer_factory.hpp:74] Creating layer inception_4c/relu_3x3
I0510 00:28:22.474848 28440 net.cpp:76] Creating Layer inception_4c/relu_3x3
I0510 00:28:22.474855 28440 net.cpp:372] inception_4c/relu_3x3 <- inception_4c/3x3
I0510 00:28:22.474864 28440 net.cpp:323] inception_4c/relu_3x3 -> inception_4c/3x3 (in-place)
I0510 00:28:22.474874 28440 net.cpp:105] Setting up inception_4c/relu_3x3
I0510 00:28:22.474879 28440 net.cpp:112] Top shape: 32 256 14 14 (1605632)
I0510 00:28:22.474885 28440 layer_factory.hpp:74] Creating layer inception_4c/5x5_reduce
I0510 00:28:22.474897 28440 net.cpp:76] Creating Layer inception_4c/5x5_reduce
I0510 00:28:22.474903 28440 net.cpp:372] inception_4c/5x5_reduce <- inception_4b/output_inception_4b/output_0_split_2
I0510 00:28:22.474912 28440 net.cpp:334] inception_4c/5x5_reduce -> inception_4c/5x5_reduce
I0510 00:28:22.474921 28440 net.cpp:105] Setting up inception_4c/5x5_reduce
I0510 00:28:22.475035 28440 net.cpp:112] Top shape: 32 24 14 14 (150528)
I0510 00:28:22.475045 28440 layer_factory.hpp:74] Creating layer inception_4c/relu_5x5_reduce
I0510 00:28:22.475054 28440 net.cpp:76] Creating Layer inception_4c/relu_5x5_reduce
I0510 00:28:22.475059 28440 net.cpp:372] inception_4c/relu_5x5_reduce <- inception_4c/5x5_reduce
I0510 00:28:22.475956 28440 net.cpp:323] inception_4c/relu_5x5_reduce -> inception_4c/5x5_reduce (in-place)
I0510 00:28:22.475967 28440 net.cpp:105] Setting up inception_4c/relu_5x5_reduce
I0510 00:28:22.475973 28440 net.cpp:112] Top shape: 32 24 14 14 (150528)
I0510 00:28:22.475980 28440 layer_factory.hpp:74] Creating layer inception_4c/5x5
I0510 00:28:22.475991 28440 net.cpp:76] Creating Layer inception_4c/5x5
I0510 00:28:22.475997 28440 net.cpp:372] inception_4c/5x5 <- inception_4c/5x5_reduce
I0510 00:28:22.476007 28440 net.cpp:334] inception_4c/5x5 -> inception_4c/5x5
I0510 00:28:22.476016 28440 net.cpp:105] Setting up inception_4c/5x5
I0510 00:28:22.476373 28440 net.cpp:112] Top shape: 32 64 14 14 (401408)
I0510 00:28:22.476392 28440 layer_factory.hpp:74] Creating layer inception_4c/relu_5x5
I0510 00:28:22.476405 28440 net.cpp:76] Creating Layer inception_4c/relu_5x5
I0510 00:28:22.476416 28440 net.cpp:372] inception_4c/relu_5x5 <- inception_4c/5x5
I0510 00:28:22.476428 28440 net.cpp:323] inception_4c/relu_5x5 -> inception_4c/5x5 (in-place)
I0510 00:28:22.476438 28440 net.cpp:105] Setting up inception_4c/relu_5x5
I0510 00:28:22.476447 28440 net.cpp:112] Top shape: 32 64 14 14 (401408)
I0510 00:28:22.476456 28440 layer_factory.hpp:74] Creating layer inception_4c/pool
I0510 00:28:22.476469 28440 net.cpp:76] Creating Layer inception_4c/pool
I0510 00:28:22.476479 28440 net.cpp:372] inception_4c/pool <- inception_4b/output_inception_4b/output_0_split_3
I0510 00:28:22.476496 28440 net.cpp:334] inception_4c/pool -> inception_4c/pool
I0510 00:28:22.476511 28440 net.cpp:105] Setting up inception_4c/pool
I0510 00:28:22.476524 28440 net.cpp:112] Top shape: 32 512 14 14 (3211264)
I0510 00:28:22.476533 28440 layer_factory.hpp:74] Creating layer inception_4c/pool_proj
I0510 00:28:22.476547 28440 net.cpp:76] Creating Layer inception_4c/pool_proj
I0510 00:28:22.476559 28440 net.cpp:372] inception_4c/pool_proj <- inception_4c/pool
I0510 00:28:22.476582 28440 net.cpp:334] inception_4c/pool_proj -> inception_4c/pool_proj
I0510 00:28:22.476598 28440 net.cpp:105] Setting up inception_4c/pool_proj
I0510 00:28:22.476920 28440 net.cpp:112] Top shape: 32 64 14 14 (401408)
I0510 00:28:22.476934 28440 layer_factory.hpp:74] Creating layer inception_4c/relu_pool_proj
I0510 00:28:22.476943 28440 net.cpp:76] Creating Layer inception_4c/relu_pool_proj
I0510 00:28:22.476949 28440 net.cpp:372] inception_4c/relu_pool_proj <- inception_4c/pool_proj
I0510 00:28:22.476956 28440 net.cpp:323] inception_4c/relu_pool_proj -> inception_4c/pool_proj (in-place)
I0510 00:28:22.476964 28440 net.cpp:105] Setting up inception_4c/relu_pool_proj
I0510 00:28:22.476969 28440 net.cpp:112] Top shape: 32 64 14 14 (401408)
I0510 00:28:22.476975 28440 layer_factory.hpp:74] Creating layer inception_4c/output
I0510 00:28:22.476984 28440 net.cpp:76] Creating Layer inception_4c/output
I0510 00:28:22.476994 28440 net.cpp:372] inception_4c/output <- inception_4c/1x1
I0510 00:28:22.477001 28440 net.cpp:372] inception_4c/output <- inception_4c/3x3
I0510 00:28:22.477007 28440 net.cpp:372] inception_4c/output <- inception_4c/5x5
I0510 00:28:22.477013 28440 net.cpp:372] inception_4c/output <- inception_4c/pool_proj
I0510 00:28:22.477020 28440 net.cpp:334] inception_4c/output -> inception_4c/output
I0510 00:28:22.477028 28440 net.cpp:105] Setting up inception_4c/output
I0510 00:28:22.477035 28440 net.cpp:112] Top shape: 32 512 14 14 (3211264)
I0510 00:28:22.477041 28440 layer_factory.hpp:74] Creating layer inception_4c/output_inception_4c/output_0_split
I0510 00:28:22.477049 28440 net.cpp:76] Creating Layer inception_4c/output_inception_4c/output_0_split
I0510 00:28:22.477054 28440 net.cpp:372] inception_4c/output_inception_4c/output_0_split <- inception_4c/output
I0510 00:28:22.477062 28440 net.cpp:334] inception_4c/output_inception_4c/output_0_split -> inception_4c/output_inception_4c/output_0_split_0
I0510 00:28:22.477073 28440 net.cpp:334] inception_4c/output_inception_4c/output_0_split -> inception_4c/output_inception_4c/output_0_split_1
I0510 00:28:22.477083 28440 net.cpp:334] inception_4c/output_inception_4c/output_0_split -> inception_4c/output_inception_4c/output_0_split_2
I0510 00:28:22.477092 28440 net.cpp:334] inception_4c/output_inception_4c/output_0_split -> inception_4c/output_inception_4c/output_0_split_3
I0510 00:28:22.477100 28440 net.cpp:105] Setting up inception_4c/output_inception_4c/output_0_split
I0510 00:28:22.477108 28440 net.cpp:112] Top shape: 32 512 14 14 (3211264)
I0510 00:28:22.477113 28440 net.cpp:112] Top shape: 32 512 14 14 (3211264)
I0510 00:28:22.477118 28440 net.cpp:112] Top shape: 32 512 14 14 (3211264)
I0510 00:28:22.477123 28440 net.cpp:112] Top shape: 32 512 14 14 (3211264)
I0510 00:28:22.477128 28440 layer_factory.hpp:74] Creating layer inception_4d/1x1
I0510 00:28:22.477138 28440 net.cpp:76] Creating Layer inception_4d/1x1
I0510 00:28:22.477144 28440 net.cpp:372] inception_4d/1x1 <- inception_4c/output_inception_4c/output_0_split_0
I0510 00:28:22.477152 28440 net.cpp:334] inception_4d/1x1 -> inception_4d/1x1
I0510 00:28:22.477161 28440 net.cpp:105] Setting up inception_4d/1x1
I0510 00:28:22.477664 28440 net.cpp:112] Top shape: 32 112 14 14 (702464)
I0510 00:28:22.477679 28440 layer_factory.hpp:74] Creating layer inception_4d/relu_1x1
I0510 00:28:22.477689 28440 net.cpp:76] Creating Layer inception_4d/relu_1x1
I0510 00:28:22.477694 28440 net.cpp:372] inception_4d/relu_1x1 <- inception_4d/1x1
I0510 00:28:22.477701 28440 net.cpp:323] inception_4d/relu_1x1 -> inception_4d/1x1 (in-place)
I0510 00:28:22.477710 28440 net.cpp:105] Setting up inception_4d/relu_1x1
I0510 00:28:22.477715 28440 net.cpp:112] Top shape: 32 112 14 14 (702464)
I0510 00:28:22.477720 28440 layer_factory.hpp:74] Creating layer inception_4d/3x3_reduce
I0510 00:28:22.477728 28440 net.cpp:76] Creating Layer inception_4d/3x3_reduce
I0510 00:28:22.477735 28440 net.cpp:372] inception_4d/3x3_reduce <- inception_4c/output_inception_4c/output_0_split_1
I0510 00:28:22.477744 28440 net.cpp:334] inception_4d/3x3_reduce -> inception_4d/3x3_reduce
I0510 00:28:22.477753 28440 net.cpp:105] Setting up inception_4d/3x3_reduce
I0510 00:28:22.478422 28440 net.cpp:112] Top shape: 32 144 14 14 (903168)
I0510 00:28:22.478452 28440 layer_factory.hpp:74] Creating layer inception_4d/relu_3x3_reduce
I0510 00:28:22.478461 28440 net.cpp:76] Creating Layer inception_4d/relu_3x3_reduce
I0510 00:28:22.478468 28440 net.cpp:372] inception_4d/relu_3x3_reduce <- inception_4d/3x3_reduce
I0510 00:28:22.478476 28440 net.cpp:323] inception_4d/relu_3x3_reduce -> inception_4d/3x3_reduce (in-place)
I0510 00:28:22.478484 28440 net.cpp:105] Setting up inception_4d/relu_3x3_reduce
I0510 00:28:22.478489 28440 net.cpp:112] Top shape: 32 144 14 14 (903168)
I0510 00:28:22.478495 28440 layer_factory.hpp:74] Creating layer inception_4d/3x3
I0510 00:28:22.478507 28440 net.cpp:76] Creating Layer inception_4d/3x3
I0510 00:28:22.478513 28440 net.cpp:372] inception_4d/3x3 <- inception_4d/3x3_reduce
I0510 00:28:22.478523 28440 net.cpp:334] inception_4d/3x3 -> inception_4d/3x3
I0510 00:28:22.478531 28440 net.cpp:105] Setting up inception_4d/3x3
I0510 00:28:22.481678 28440 net.cpp:112] Top shape: 32 288 14 14 (1806336)
I0510 00:28:22.481701 28440 layer_factory.hpp:74] Creating layer inception_4d/relu_3x3
I0510 00:28:22.481712 28440 net.cpp:76] Creating Layer inception_4d/relu_3x3
I0510 00:28:22.481719 28440 net.cpp:372] inception_4d/relu_3x3 <- inception_4d/3x3
I0510 00:28:22.481727 28440 net.cpp:323] inception_4d/relu_3x3 -> inception_4d/3x3 (in-place)
I0510 00:28:22.481739 28440 net.cpp:105] Setting up inception_4d/relu_3x3
I0510 00:28:22.481745 28440 net.cpp:112] Top shape: 32 288 14 14 (1806336)
I0510 00:28:22.481750 28440 layer_factory.hpp:74] Creating layer inception_4d/5x5_reduce
I0510 00:28:22.481761 28440 net.cpp:76] Creating Layer inception_4d/5x5_reduce
I0510 00:28:22.481767 28440 net.cpp:372] inception_4d/5x5_reduce <- inception_4c/output_inception_4c/output_0_split_2
I0510 00:28:22.481776 28440 net.cpp:334] inception_4d/5x5_reduce -> inception_4d/5x5_reduce
I0510 00:28:22.482584 28440 net.cpp:105] Setting up inception_4d/5x5_reduce
I0510 00:28:22.482767 28440 net.cpp:112] Top shape: 32 32 14 14 (200704)
I0510 00:28:22.482792 28440 layer_factory.hpp:74] Creating layer inception_4d/relu_5x5_reduce
I0510 00:28:22.482810 28440 net.cpp:76] Creating Layer inception_4d/relu_5x5_reduce
I0510 00:28:22.482821 28440 net.cpp:372] inception_4d/relu_5x5_reduce <- inception_4d/5x5_reduce
I0510 00:28:22.482835 28440 net.cpp:323] inception_4d/relu_5x5_reduce -> inception_4d/5x5_reduce (in-place)
I0510 00:28:22.482846 28440 net.cpp:105] Setting up inception_4d/relu_5x5_reduce
I0510 00:28:22.482857 28440 net.cpp:112] Top shape: 32 32 14 14 (200704)
I0510 00:28:22.482869 28440 layer_factory.hpp:74] Creating layer inception_4d/5x5
I0510 00:28:22.482887 28440 net.cpp:76] Creating Layer inception_4d/5x5
I0510 00:28:22.482893 28440 net.cpp:372] inception_4d/5x5 <- inception_4d/5x5_reduce
I0510 00:28:22.482906 28440 net.cpp:334] inception_4d/5x5 -> inception_4d/5x5
I0510 00:28:22.482916 28440 net.cpp:105] Setting up inception_4d/5x5
I0510 00:28:22.483404 28440 net.cpp:112] Top shape: 32 64 14 14 (401408)
I0510 00:28:22.483423 28440 layer_factory.hpp:74] Creating layer inception_4d/relu_5x5
I0510 00:28:22.483433 28440 net.cpp:76] Creating Layer inception_4d/relu_5x5
I0510 00:28:22.483439 28440 net.cpp:372] inception_4d/relu_5x5 <- inception_4d/5x5
I0510 00:28:22.483446 28440 net.cpp:323] inception_4d/relu_5x5 -> inception_4d/5x5 (in-place)
I0510 00:28:22.483454 28440 net.cpp:105] Setting up inception_4d/relu_5x5
I0510 00:28:22.483460 28440 net.cpp:112] Top shape: 32 64 14 14 (401408)
I0510 00:28:22.483466 28440 layer_factory.hpp:74] Creating layer inception_4d/pool
I0510 00:28:22.483477 28440 net.cpp:76] Creating Layer inception_4d/pool
I0510 00:28:22.483484 28440 net.cpp:372] inception_4d/pool <- inception_4c/output_inception_4c/output_0_split_3
I0510 00:28:22.483491 28440 net.cpp:334] inception_4d/pool -> inception_4d/pool
I0510 00:28:22.483500 28440 net.cpp:105] Setting up inception_4d/pool
I0510 00:28:22.483508 28440 net.cpp:112] Top shape: 32 512 14 14 (3211264)
I0510 00:28:22.483515 28440 layer_factory.hpp:74] Creating layer inception_4d/pool_proj
I0510 00:28:22.483556 28440 net.cpp:76] Creating Layer inception_4d/pool_proj
I0510 00:28:22.483562 28440 net.cpp:372] inception_4d/pool_proj <- inception_4d/pool
I0510 00:28:22.483573 28440 net.cpp:334] inception_4d/pool_proj -> inception_4d/pool_proj
I0510 00:28:22.483584 28440 net.cpp:105] Setting up inception_4d/pool_proj
I0510 00:28:22.483875 28440 net.cpp:112] Top shape: 32 64 14 14 (401408)
I0510 00:28:22.483887 28440 layer_factory.hpp:74] Creating layer inception_4d/relu_pool_proj
I0510 00:28:22.483896 28440 net.cpp:76] Creating Layer inception_4d/relu_pool_proj
I0510 00:28:22.483902 28440 net.cpp:372] inception_4d/relu_pool_proj <- inception_4d/pool_proj
I0510 00:28:22.483909 28440 net.cpp:323] inception_4d/relu_pool_proj -> inception_4d/pool_proj (in-place)
I0510 00:28:22.483917 28440 net.cpp:105] Setting up inception_4d/relu_pool_proj
I0510 00:28:22.483922 28440 net.cpp:112] Top shape: 32 64 14 14 (401408)
I0510 00:28:22.483928 28440 layer_factory.hpp:74] Creating layer inception_4d/output
I0510 00:28:22.483938 28440 net.cpp:76] Creating Layer inception_4d/output
I0510 00:28:22.483944 28440 net.cpp:372] inception_4d/output <- inception_4d/1x1
I0510 00:28:22.483952 28440 net.cpp:372] inception_4d/output <- inception_4d/3x3
I0510 00:28:22.483958 28440 net.cpp:372] inception_4d/output <- inception_4d/5x5
I0510 00:28:22.483963 28440 net.cpp:372] inception_4d/output <- inception_4d/pool_proj
I0510 00:28:22.483971 28440 net.cpp:334] inception_4d/output -> inception_4d/output
I0510 00:28:22.483979 28440 net.cpp:105] Setting up inception_4d/output
I0510 00:28:22.483988 28440 net.cpp:112] Top shape: 32 528 14 14 (3311616)
I0510 00:28:22.483997 28440 layer_factory.hpp:74] Creating layer inception_4d/output_inception_4d/output_0_split
I0510 00:28:22.484017 28440 net.cpp:76] Creating Layer inception_4d/output_inception_4d/output_0_split
I0510 00:28:22.484031 28440 net.cpp:372] inception_4d/output_inception_4d/output_0_split <- inception_4d/output
I0510 00:28:22.484045 28440 net.cpp:334] inception_4d/output_inception_4d/output_0_split -> inception_4d/output_inception_4d/output_0_split_0
I0510 00:28:22.484056 28440 net.cpp:334] inception_4d/output_inception_4d/output_0_split -> inception_4d/output_inception_4d/output_0_split_1
I0510 00:28:22.484066 28440 net.cpp:334] inception_4d/output_inception_4d/output_0_split -> inception_4d/output_inception_4d/output_0_split_2
I0510 00:28:22.484076 28440 net.cpp:334] inception_4d/output_inception_4d/output_0_split -> inception_4d/output_inception_4d/output_0_split_3
I0510 00:28:22.484084 28440 net.cpp:334] inception_4d/output_inception_4d/output_0_split -> inception_4d/output_inception_4d/output_0_split_4
I0510 00:28:22.484093 28440 net.cpp:105] Setting up inception_4d/output_inception_4d/output_0_split
I0510 00:28:22.484100 28440 net.cpp:112] Top shape: 32 528 14 14 (3311616)
I0510 00:28:22.484105 28440 net.cpp:112] Top shape: 32 528 14 14 (3311616)
I0510 00:28:22.484110 28440 net.cpp:112] Top shape: 32 528 14 14 (3311616)
I0510 00:28:22.484115 28440 net.cpp:112] Top shape: 32 528 14 14 (3311616)
I0510 00:28:22.484120 28440 net.cpp:112] Top shape: 32 528 14 14 (3311616)
I0510 00:28:22.484125 28440 layer_factory.hpp:74] Creating layer loss2/ave_pool
I0510 00:28:22.484136 28440 net.cpp:76] Creating Layer loss2/ave_pool
I0510 00:28:22.484143 28440 net.cpp:372] loss2/ave_pool <- inception_4d/output_inception_4d/output_0_split_0
I0510 00:28:22.484151 28440 net.cpp:334] loss2/ave_pool -> loss2/ave_pool
I0510 00:28:22.484163 28440 net.cpp:105] Setting up loss2/ave_pool
I0510 00:28:22.484169 28440 net.cpp:112] Top shape: 32 528 4 4 (270336)
I0510 00:28:22.484174 28440 layer_factory.hpp:74] Creating layer loss2/conv
I0510 00:28:22.484185 28440 net.cpp:76] Creating Layer loss2/conv
I0510 00:28:22.484191 28440 net.cpp:372] loss2/conv <- loss2/ave_pool
I0510 00:28:22.484200 28440 net.cpp:334] loss2/conv -> loss2/conv
I0510 00:28:22.484207 28440 net.cpp:105] Setting up loss2/conv
I0510 00:28:22.484817 28440 net.cpp:112] Top shape: 32 128 4 4 (65536)
I0510 00:28:22.484840 28440 layer_factory.hpp:74] Creating layer loss2/relu_conv
I0510 00:28:22.484874 28440 net.cpp:76] Creating Layer loss2/relu_conv
I0510 00:28:22.484886 28440 net.cpp:372] loss2/relu_conv <- loss2/conv
I0510 00:28:22.484905 28440 net.cpp:323] loss2/relu_conv -> loss2/conv (in-place)
I0510 00:28:22.484921 28440 net.cpp:105] Setting up loss2/relu_conv
I0510 00:28:22.484935 28440 net.cpp:112] Top shape: 32 128 4 4 (65536)
I0510 00:28:22.484946 28440 layer_factory.hpp:74] Creating layer loss2/fc
I0510 00:28:22.484961 28440 net.cpp:76] Creating Layer loss2/fc
I0510 00:28:22.484968 28440 net.cpp:372] loss2/fc <- loss2/conv
I0510 00:28:22.484979 28440 net.cpp:334] loss2/fc -> loss2/fc
I0510 00:28:22.484990 28440 net.cpp:105] Setting up loss2/fc
I0510 00:28:22.502640 28440 net.cpp:112] Top shape: 32 1024 1 1 (32768)
I0510 00:28:22.502686 28440 layer_factory.hpp:74] Creating layer loss2/relu_fc
I0510 00:28:22.502701 28440 net.cpp:76] Creating Layer loss2/relu_fc
I0510 00:28:22.502709 28440 net.cpp:372] loss2/relu_fc <- loss2/fc
I0510 00:28:22.502722 28440 net.cpp:323] loss2/relu_fc -> loss2/fc (in-place)
I0510 00:28:22.502732 28440 net.cpp:105] Setting up loss2/relu_fc
I0510 00:28:22.502739 28440 net.cpp:112] Top shape: 32 1024 1 1 (32768)
I0510 00:28:22.502744 28440 layer_factory.hpp:74] Creating layer loss2/drop_fc
I0510 00:28:22.502753 28440 net.cpp:76] Creating Layer loss2/drop_fc
I0510 00:28:22.502759 28440 net.cpp:372] loss2/drop_fc <- loss2/fc
I0510 00:28:22.502766 28440 net.cpp:323] loss2/drop_fc -> loss2/fc (in-place)
I0510 00:28:22.502774 28440 net.cpp:105] Setting up loss2/drop_fc
I0510 00:28:22.502781 28440 net.cpp:112] Top shape: 32 1024 1 1 (32768)
I0510 00:28:22.502786 28440 layer_factory.hpp:74] Creating layer loss2/classifier
I0510 00:28:22.502796 28440 net.cpp:76] Creating Layer loss2/classifier
I0510 00:28:22.502802 28440 net.cpp:372] loss2/classifier <- loss2/fc
I0510 00:28:22.502812 28440 net.cpp:334] loss2/classifier -> loss2/classifier
I0510 00:28:22.502825 28440 net.cpp:105] Setting up loss2/classifier
I0510 00:28:22.502859 28440 net.cpp:112] Top shape: 32 2 1 1 (64)
I0510 00:28:22.502871 28440 layer_factory.hpp:74] Creating layer loss2/loss
I0510 00:28:22.502881 28440 net.cpp:76] Creating Layer loss2/loss
I0510 00:28:22.502887 28440 net.cpp:372] loss2/loss <- loss2/classifier
I0510 00:28:22.502893 28440 net.cpp:372] loss2/loss <- label_data_1_split_1
I0510 00:28:22.502902 28440 net.cpp:334] loss2/loss -> loss2/loss1
I0510 00:28:22.502910 28440 net.cpp:105] Setting up loss2/loss
I0510 00:28:22.502918 28440 layer_factory.hpp:74] Creating layer loss2/loss
I0510 00:28:22.502933 28440 net.cpp:112] Top shape: 1 1 1 1 (1)
I0510 00:28:22.502939 28440 net.cpp:118]     with loss weight 0.3
I0510 00:28:22.502959 28440 layer_factory.hpp:74] Creating layer inception_4e/1x1
I0510 00:28:22.502970 28440 net.cpp:76] Creating Layer inception_4e/1x1
I0510 00:28:22.502977 28440 net.cpp:372] inception_4e/1x1 <- inception_4d/output_inception_4d/output_0_split_1
I0510 00:28:22.502986 28440 net.cpp:334] inception_4e/1x1 -> inception_4e/1x1
I0510 00:28:22.502995 28440 net.cpp:105] Setting up inception_4e/1x1
I0510 00:28:22.504161 28440 net.cpp:112] Top shape: 32 256 14 14 (1605632)
I0510 00:28:22.504179 28440 layer_factory.hpp:74] Creating layer inception_4e/relu_1x1
I0510 00:28:22.504187 28440 net.cpp:76] Creating Layer inception_4e/relu_1x1
I0510 00:28:22.504194 28440 net.cpp:372] inception_4e/relu_1x1 <- inception_4e/1x1
I0510 00:28:22.504201 28440 net.cpp:323] inception_4e/relu_1x1 -> inception_4e/1x1 (in-place)
I0510 00:28:22.504209 28440 net.cpp:105] Setting up inception_4e/relu_1x1
I0510 00:28:22.504215 28440 net.cpp:112] Top shape: 32 256 14 14 (1605632)
I0510 00:28:22.504220 28440 layer_factory.hpp:74] Creating layer inception_4e/3x3_reduce
I0510 00:28:22.504228 28440 net.cpp:76] Creating Layer inception_4e/3x3_reduce
I0510 00:28:22.504235 28440 net.cpp:372] inception_4e/3x3_reduce <- inception_4d/output_inception_4d/output_0_split_2
I0510 00:28:22.504245 28440 net.cpp:334] inception_4e/3x3_reduce -> inception_4e/3x3_reduce
I0510 00:28:22.504317 28440 net.cpp:105] Setting up inception_4e/3x3_reduce
I0510 00:28:22.505036 28440 net.cpp:112] Top shape: 32 160 14 14 (1003520)
I0510 00:28:22.505051 28440 layer_factory.hpp:74] Creating layer inception_4e/relu_3x3_reduce
I0510 00:28:22.505059 28440 net.cpp:76] Creating Layer inception_4e/relu_3x3_reduce
I0510 00:28:22.505065 28440 net.cpp:372] inception_4e/relu_3x3_reduce <- inception_4e/3x3_reduce
I0510 00:28:22.505075 28440 net.cpp:323] inception_4e/relu_3x3_reduce -> inception_4e/3x3_reduce (in-place)
I0510 00:28:22.505084 28440 net.cpp:105] Setting up inception_4e/relu_3x3_reduce
I0510 00:28:22.505089 28440 net.cpp:112] Top shape: 32 160 14 14 (1003520)
I0510 00:28:22.505095 28440 layer_factory.hpp:74] Creating layer inception_4e/3x3
I0510 00:28:22.505103 28440 net.cpp:76] Creating Layer inception_4e/3x3
I0510 00:28:22.505108 28440 net.cpp:372] inception_4e/3x3 <- inception_4e/3x3_reduce
I0510 00:28:22.505118 28440 net.cpp:334] inception_4e/3x3 -> inception_4e/3x3
I0510 00:28:22.505128 28440 net.cpp:105] Setting up inception_4e/3x3
I0510 00:28:22.508993 28440 net.cpp:112] Top shape: 32 320 14 14 (2007040)
I0510 00:28:22.509019 28440 layer_factory.hpp:74] Creating layer inception_4e/relu_3x3
I0510 00:28:22.509032 28440 net.cpp:76] Creating Layer inception_4e/relu_3x3
I0510 00:28:22.509038 28440 net.cpp:372] inception_4e/relu_3x3 <- inception_4e/3x3
I0510 00:28:22.509050 28440 net.cpp:323] inception_4e/relu_3x3 -> inception_4e/3x3 (in-place)
I0510 00:28:22.509059 28440 net.cpp:105] Setting up inception_4e/relu_3x3
I0510 00:28:22.509065 28440 net.cpp:112] Top shape: 32 320 14 14 (2007040)
I0510 00:28:22.509070 28440 layer_factory.hpp:74] Creating layer inception_4e/5x5_reduce
I0510 00:28:22.509079 28440 net.cpp:76] Creating Layer inception_4e/5x5_reduce
I0510 00:28:22.509085 28440 net.cpp:372] inception_4e/5x5_reduce <- inception_4d/output_inception_4d/output_0_split_3
I0510 00:28:22.509095 28440 net.cpp:334] inception_4e/5x5_reduce -> inception_4e/5x5_reduce
I0510 00:28:22.509105 28440 net.cpp:105] Setting up inception_4e/5x5_reduce
I0510 00:28:22.509254 28440 net.cpp:112] Top shape: 32 32 14 14 (200704)
I0510 00:28:22.509265 28440 layer_factory.hpp:74] Creating layer inception_4e/relu_5x5_reduce
I0510 00:28:22.509286 28440 net.cpp:76] Creating Layer inception_4e/relu_5x5_reduce
I0510 00:28:22.509294 28440 net.cpp:372] inception_4e/relu_5x5_reduce <- inception_4e/5x5_reduce
I0510 00:28:22.509300 28440 net.cpp:323] inception_4e/relu_5x5_reduce -> inception_4e/5x5_reduce (in-place)
I0510 00:28:22.509309 28440 net.cpp:105] Setting up inception_4e/relu_5x5_reduce
I0510 00:28:22.509315 28440 net.cpp:112] Top shape: 32 32 14 14 (200704)
I0510 00:28:22.509320 28440 layer_factory.hpp:74] Creating layer inception_4e/5x5
I0510 00:28:22.509351 28440 net.cpp:76] Creating Layer inception_4e/5x5
I0510 00:28:22.509359 28440 net.cpp:372] inception_4e/5x5 <- inception_4e/5x5_reduce
I0510 00:28:22.509369 28440 net.cpp:334] inception_4e/5x5 -> inception_4e/5x5
I0510 00:28:22.509379 28440 net.cpp:105] Setting up inception_4e/5x5
I0510 00:28:22.510241 28440 net.cpp:112] Top shape: 32 128 14 14 (802816)
I0510 00:28:22.510257 28440 layer_factory.hpp:74] Creating layer inception_4e/relu_5x5
I0510 00:28:22.510264 28440 net.cpp:76] Creating Layer inception_4e/relu_5x5
I0510 00:28:22.510282 28440 net.cpp:372] inception_4e/relu_5x5 <- inception_4e/5x5
I0510 00:28:22.510290 28440 net.cpp:323] inception_4e/relu_5x5 -> inception_4e/5x5 (in-place)
I0510 00:28:22.510298 28440 net.cpp:105] Setting up inception_4e/relu_5x5
I0510 00:28:22.510304 28440 net.cpp:112] Top shape: 32 128 14 14 (802816)
I0510 00:28:22.510309 28440 layer_factory.hpp:74] Creating layer inception_4e/pool
I0510 00:28:22.510318 28440 net.cpp:76] Creating Layer inception_4e/pool
I0510 00:28:22.510324 28440 net.cpp:372] inception_4e/pool <- inception_4d/output_inception_4d/output_0_split_4
I0510 00:28:22.510336 28440 net.cpp:334] inception_4e/pool -> inception_4e/pool
I0510 00:28:22.510345 28440 net.cpp:105] Setting up inception_4e/pool
I0510 00:28:22.510354 28440 net.cpp:112] Top shape: 32 528 14 14 (3311616)
I0510 00:28:22.510388 28440 layer_factory.hpp:74] Creating layer inception_4e/pool_proj
I0510 00:28:22.510404 28440 net.cpp:76] Creating Layer inception_4e/pool_proj
I0510 00:28:22.510411 28440 net.cpp:372] inception_4e/pool_proj <- inception_4e/pool
I0510 00:28:22.510419 28440 net.cpp:334] inception_4e/pool_proj -> inception_4e/pool_proj
I0510 00:28:22.510428 28440 net.cpp:105] Setting up inception_4e/pool_proj
I0510 00:28:22.510996 28440 net.cpp:112] Top shape: 32 128 14 14 (802816)
I0510 00:28:22.511010 28440 layer_factory.hpp:74] Creating layer inception_4e/relu_pool_proj
I0510 00:28:22.511018 28440 net.cpp:76] Creating Layer inception_4e/relu_pool_proj
I0510 00:28:22.511024 28440 net.cpp:372] inception_4e/relu_pool_proj <- inception_4e/pool_proj
I0510 00:28:22.511034 28440 net.cpp:323] inception_4e/relu_pool_proj -> inception_4e/pool_proj (in-place)
I0510 00:28:22.511042 28440 net.cpp:105] Setting up inception_4e/relu_pool_proj
I0510 00:28:22.511049 28440 net.cpp:112] Top shape: 32 128 14 14 (802816)
I0510 00:28:22.511054 28440 layer_factory.hpp:74] Creating layer inception_4e/output
I0510 00:28:22.511061 28440 net.cpp:76] Creating Layer inception_4e/output
I0510 00:28:22.511066 28440 net.cpp:372] inception_4e/output <- inception_4e/1x1
I0510 00:28:22.511073 28440 net.cpp:372] inception_4e/output <- inception_4e/3x3
I0510 00:28:22.511080 28440 net.cpp:372] inception_4e/output <- inception_4e/5x5
I0510 00:28:22.511086 28440 net.cpp:372] inception_4e/output <- inception_4e/pool_proj
I0510 00:28:22.511093 28440 net.cpp:334] inception_4e/output -> inception_4e/output
I0510 00:28:22.511101 28440 net.cpp:105] Setting up inception_4e/output
I0510 00:28:22.511108 28440 net.cpp:112] Top shape: 32 832 14 14 (5218304)
I0510 00:28:22.511113 28440 layer_factory.hpp:74] Creating layer pool4/3x3_s2
I0510 00:28:22.511123 28440 net.cpp:76] Creating Layer pool4/3x3_s2
I0510 00:28:22.511129 28440 net.cpp:372] pool4/3x3_s2 <- inception_4e/output
I0510 00:28:22.511137 28440 net.cpp:334] pool4/3x3_s2 -> pool4/3x3_s2
I0510 00:28:22.511147 28440 net.cpp:105] Setting up pool4/3x3_s2
I0510 00:28:22.511152 28440 net.cpp:112] Top shape: 32 832 7 7 (1304576)
I0510 00:28:22.511158 28440 layer_factory.hpp:74] Creating layer pool4/3x3_s2_pool4/3x3_s2_0_split
I0510 00:28:22.511165 28440 net.cpp:76] Creating Layer pool4/3x3_s2_pool4/3x3_s2_0_split
I0510 00:28:22.511171 28440 net.cpp:372] pool4/3x3_s2_pool4/3x3_s2_0_split <- pool4/3x3_s2
I0510 00:28:22.511181 28440 net.cpp:334] pool4/3x3_s2_pool4/3x3_s2_0_split -> pool4/3x3_s2_pool4/3x3_s2_0_split_0
I0510 00:28:22.511212 28440 net.cpp:334] pool4/3x3_s2_pool4/3x3_s2_0_split -> pool4/3x3_s2_pool4/3x3_s2_0_split_1
I0510 00:28:22.511224 28440 net.cpp:334] pool4/3x3_s2_pool4/3x3_s2_0_split -> pool4/3x3_s2_pool4/3x3_s2_0_split_2
I0510 00:28:22.511232 28440 net.cpp:334] pool4/3x3_s2_pool4/3x3_s2_0_split -> pool4/3x3_s2_pool4/3x3_s2_0_split_3
I0510 00:28:22.511240 28440 net.cpp:105] Setting up pool4/3x3_s2_pool4/3x3_s2_0_split
I0510 00:28:22.511247 28440 net.cpp:112] Top shape: 32 832 7 7 (1304576)
I0510 00:28:22.511252 28440 net.cpp:112] Top shape: 32 832 7 7 (1304576)
I0510 00:28:22.511256 28440 net.cpp:112] Top shape: 32 832 7 7 (1304576)
I0510 00:28:22.511261 28440 net.cpp:112] Top shape: 32 832 7 7 (1304576)
I0510 00:28:22.511266 28440 layer_factory.hpp:74] Creating layer inception_5a/1x1
I0510 00:28:22.511293 28440 net.cpp:76] Creating Layer inception_5a/1x1
I0510 00:28:22.511340 28440 net.cpp:372] inception_5a/1x1 <- pool4/3x3_s2_pool4/3x3_s2_0_split_0
I0510 00:28:22.511365 28440 net.cpp:334] inception_5a/1x1 -> inception_5a/1x1
I0510 00:28:22.511379 28440 net.cpp:105] Setting up inception_5a/1x1
I0510 00:28:22.513175 28440 net.cpp:112] Top shape: 32 256 7 7 (401408)
I0510 00:28:22.513195 28440 layer_factory.hpp:74] Creating layer inception_5a/relu_1x1
I0510 00:28:22.513206 28440 net.cpp:76] Creating Layer inception_5a/relu_1x1
I0510 00:28:22.513212 28440 net.cpp:372] inception_5a/relu_1x1 <- inception_5a/1x1
I0510 00:28:22.513221 28440 net.cpp:323] inception_5a/relu_1x1 -> inception_5a/1x1 (in-place)
I0510 00:28:22.513250 28440 net.cpp:105] Setting up inception_5a/relu_1x1
I0510 00:28:22.513257 28440 net.cpp:112] Top shape: 32 256 7 7 (401408)
I0510 00:28:22.513262 28440 layer_factory.hpp:74] Creating layer inception_5a/3x3_reduce
I0510 00:28:22.513288 28440 net.cpp:76] Creating Layer inception_5a/3x3_reduce
I0510 00:28:22.513304 28440 net.cpp:372] inception_5a/3x3_reduce <- pool4/3x3_s2_pool4/3x3_s2_0_split_1
I0510 00:28:22.513321 28440 net.cpp:334] inception_5a/3x3_reduce -> inception_5a/3x3_reduce
I0510 00:28:22.513337 28440 net.cpp:105] Setting up inception_5a/3x3_reduce
I0510 00:28:22.514479 28440 net.cpp:112] Top shape: 32 160 7 7 (250880)
I0510 00:28:22.514495 28440 layer_factory.hpp:74] Creating layer inception_5a/relu_3x3_reduce
I0510 00:28:22.514504 28440 net.cpp:76] Creating Layer inception_5a/relu_3x3_reduce
I0510 00:28:22.514510 28440 net.cpp:372] inception_5a/relu_3x3_reduce <- inception_5a/3x3_reduce
I0510 00:28:22.514518 28440 net.cpp:323] inception_5a/relu_3x3_reduce -> inception_5a/3x3_reduce (in-place)
I0510 00:28:22.514526 28440 net.cpp:105] Setting up inception_5a/relu_3x3_reduce
I0510 00:28:22.514533 28440 net.cpp:112] Top shape: 32 160 7 7 (250880)
I0510 00:28:22.514538 28440 layer_factory.hpp:74] Creating layer inception_5a/3x3
I0510 00:28:22.514549 28440 net.cpp:76] Creating Layer inception_5a/3x3
I0510 00:28:22.514554 28440 net.cpp:372] inception_5a/3x3 <- inception_5a/3x3_reduce
I0510 00:28:22.514566 28440 net.cpp:334] inception_5a/3x3 -> inception_5a/3x3
I0510 00:28:22.514575 28440 net.cpp:105] Setting up inception_5a/3x3
I0510 00:28:22.518443 28440 net.cpp:112] Top shape: 32 320 7 7 (501760)
I0510 00:28:22.518470 28440 layer_factory.hpp:74] Creating layer inception_5a/relu_3x3
I0510 00:28:22.518481 28440 net.cpp:76] Creating Layer inception_5a/relu_3x3
I0510 00:28:22.518489 28440 net.cpp:372] inception_5a/relu_3x3 <- inception_5a/3x3
I0510 00:28:22.518497 28440 net.cpp:323] inception_5a/relu_3x3 -> inception_5a/3x3 (in-place)
I0510 00:28:22.518507 28440 net.cpp:105] Setting up inception_5a/relu_3x3
I0510 00:28:22.518512 28440 net.cpp:112] Top shape: 32 320 7 7 (501760)
I0510 00:28:22.518517 28440 layer_factory.hpp:74] Creating layer inception_5a/5x5_reduce
I0510 00:28:22.518527 28440 net.cpp:76] Creating Layer inception_5a/5x5_reduce
I0510 00:28:22.518532 28440 net.cpp:372] inception_5a/5x5_reduce <- pool4/3x3_s2_pool4/3x3_s2_0_split_2
I0510 00:28:22.518544 28440 net.cpp:334] inception_5a/5x5_reduce -> inception_5a/5x5_reduce
I0510 00:28:22.518554 28440 net.cpp:105] Setting up inception_5a/5x5_reduce
I0510 00:28:22.518792 28440 net.cpp:112] Top shape: 32 32 7 7 (50176)
I0510 00:28:22.518805 28440 layer_factory.hpp:74] Creating layer inception_5a/relu_5x5_reduce
I0510 00:28:22.519615 28440 net.cpp:76] Creating Layer inception_5a/relu_5x5_reduce
I0510 00:28:22.519625 28440 net.cpp:372] inception_5a/relu_5x5_reduce <- inception_5a/5x5_reduce
I0510 00:28:22.519634 28440 net.cpp:323] inception_5a/relu_5x5_reduce -> inception_5a/5x5_reduce (in-place)
I0510 00:28:22.519644 28440 net.cpp:105] Setting up inception_5a/relu_5x5_reduce
I0510 00:28:22.519649 28440 net.cpp:112] Top shape: 32 32 7 7 (50176)
I0510 00:28:22.519654 28440 layer_factory.hpp:74] Creating layer inception_5a/5x5
I0510 00:28:22.519667 28440 net.cpp:76] Creating Layer inception_5a/5x5
I0510 00:28:22.519675 28440 net.cpp:372] inception_5a/5x5 <- inception_5a/5x5_reduce
I0510 00:28:22.519682 28440 net.cpp:334] inception_5a/5x5 -> inception_5a/5x5
I0510 00:28:22.519691 28440 net.cpp:105] Setting up inception_5a/5x5
I0510 00:28:22.520570 28440 net.cpp:112] Top shape: 32 128 7 7 (200704)
I0510 00:28:22.520586 28440 layer_factory.hpp:74] Creating layer inception_5a/relu_5x5
I0510 00:28:22.520596 28440 net.cpp:76] Creating Layer inception_5a/relu_5x5
I0510 00:28:22.520601 28440 net.cpp:372] inception_5a/relu_5x5 <- inception_5a/5x5
I0510 00:28:22.520608 28440 net.cpp:323] inception_5a/relu_5x5 -> inception_5a/5x5 (in-place)
I0510 00:28:22.520617 28440 net.cpp:105] Setting up inception_5a/relu_5x5
I0510 00:28:22.520654 28440 net.cpp:112] Top shape: 32 128 7 7 (200704)
I0510 00:28:22.520661 28440 layer_factory.hpp:74] Creating layer inception_5a/pool
I0510 00:28:22.520673 28440 net.cpp:76] Creating Layer inception_5a/pool
I0510 00:28:22.520680 28440 net.cpp:372] inception_5a/pool <- pool4/3x3_s2_pool4/3x3_s2_0_split_3
I0510 00:28:22.520689 28440 net.cpp:334] inception_5a/pool -> inception_5a/pool
I0510 00:28:22.520696 28440 net.cpp:105] Setting up inception_5a/pool
I0510 00:28:22.520705 28440 net.cpp:112] Top shape: 32 832 7 7 (1304576)
I0510 00:28:22.520710 28440 layer_factory.hpp:74] Creating layer inception_5a/pool_proj
I0510 00:28:22.520721 28440 net.cpp:76] Creating Layer inception_5a/pool_proj
I0510 00:28:22.520727 28440 net.cpp:372] inception_5a/pool_proj <- inception_5a/pool
I0510 00:28:22.520735 28440 net.cpp:334] inception_5a/pool_proj -> inception_5a/pool_proj
I0510 00:28:22.520745 28440 net.cpp:105] Setting up inception_5a/pool_proj
I0510 00:28:22.521646 28440 net.cpp:112] Top shape: 32 128 7 7 (200704)
I0510 00:28:22.521661 28440 layer_factory.hpp:74] Creating layer inception_5a/relu_pool_proj
I0510 00:28:22.521668 28440 net.cpp:76] Creating Layer inception_5a/relu_pool_proj
I0510 00:28:22.521674 28440 net.cpp:372] inception_5a/relu_pool_proj <- inception_5a/pool_proj
I0510 00:28:22.521687 28440 net.cpp:323] inception_5a/relu_pool_proj -> inception_5a/pool_proj (in-place)
I0510 00:28:22.521699 28440 net.cpp:105] Setting up inception_5a/relu_pool_proj
I0510 00:28:22.521705 28440 net.cpp:112] Top shape: 32 128 7 7 (200704)
I0510 00:28:22.521710 28440 layer_factory.hpp:74] Creating layer inception_5a/output
I0510 00:28:22.521718 28440 net.cpp:76] Creating Layer inception_5a/output
I0510 00:28:22.521724 28440 net.cpp:372] inception_5a/output <- inception_5a/1x1
I0510 00:28:22.521730 28440 net.cpp:372] inception_5a/output <- inception_5a/3x3
I0510 00:28:22.521738 28440 net.cpp:372] inception_5a/output <- inception_5a/5x5
I0510 00:28:22.521744 28440 net.cpp:372] inception_5a/output <- inception_5a/pool_proj
I0510 00:28:22.521749 28440 net.cpp:334] inception_5a/output -> inception_5a/output
I0510 00:28:22.521757 28440 net.cpp:105] Setting up inception_5a/output
I0510 00:28:22.521764 28440 net.cpp:112] Top shape: 32 832 7 7 (1304576)
I0510 00:28:22.521770 28440 layer_factory.hpp:74] Creating layer inception_5a/output_inception_5a/output_0_split
I0510 00:28:22.521777 28440 net.cpp:76] Creating Layer inception_5a/output_inception_5a/output_0_split
I0510 00:28:22.521783 28440 net.cpp:372] inception_5a/output_inception_5a/output_0_split <- inception_5a/output
I0510 00:28:22.521793 28440 net.cpp:334] inception_5a/output_inception_5a/output_0_split -> inception_5a/output_inception_5a/output_0_split_0
I0510 00:28:22.521802 28440 net.cpp:334] inception_5a/output_inception_5a/output_0_split -> inception_5a/output_inception_5a/output_0_split_1
I0510 00:28:22.521811 28440 net.cpp:334] inception_5a/output_inception_5a/output_0_split -> inception_5a/output_inception_5a/output_0_split_2
I0510 00:28:22.521821 28440 net.cpp:334] inception_5a/output_inception_5a/output_0_split -> inception_5a/output_inception_5a/output_0_split_3
I0510 00:28:22.521828 28440 net.cpp:105] Setting up inception_5a/output_inception_5a/output_0_split
I0510 00:28:22.521836 28440 net.cpp:112] Top shape: 32 832 7 7 (1304576)
I0510 00:28:22.521841 28440 net.cpp:112] Top shape: 32 832 7 7 (1304576)
I0510 00:28:22.521845 28440 net.cpp:112] Top shape: 32 832 7 7 (1304576)
I0510 00:28:22.521850 28440 net.cpp:112] Top shape: 32 832 7 7 (1304576)
I0510 00:28:22.521855 28440 layer_factory.hpp:74] Creating layer inception_5b/1x1
I0510 00:28:22.521865 28440 net.cpp:76] Creating Layer inception_5b/1x1
I0510 00:28:22.521872 28440 net.cpp:372] inception_5b/1x1 <- inception_5a/output_inception_5a/output_0_split_0
I0510 00:28:22.521879 28440 net.cpp:334] inception_5b/1x1 -> inception_5b/1x1
I0510 00:28:22.521888 28440 net.cpp:105] Setting up inception_5b/1x1
I0510 00:28:22.524567 28440 net.cpp:112] Top shape: 32 384 7 7 (602112)
I0510 00:28:22.524587 28440 layer_factory.hpp:74] Creating layer inception_5b/relu_1x1
I0510 00:28:22.524617 28440 net.cpp:76] Creating Layer inception_5b/relu_1x1
I0510 00:28:22.524624 28440 net.cpp:372] inception_5b/relu_1x1 <- inception_5b/1x1
I0510 00:28:22.524632 28440 net.cpp:323] inception_5b/relu_1x1 -> inception_5b/1x1 (in-place)
I0510 00:28:22.524641 28440 net.cpp:105] Setting up inception_5b/relu_1x1
I0510 00:28:22.524647 28440 net.cpp:112] Top shape: 32 384 7 7 (602112)
I0510 00:28:22.524652 28440 layer_factory.hpp:74] Creating layer inception_5b/3x3_reduce
I0510 00:28:22.524663 28440 net.cpp:76] Creating Layer inception_5b/3x3_reduce
I0510 00:28:22.524670 28440 net.cpp:372] inception_5b/3x3_reduce <- inception_5a/output_inception_5a/output_0_split_1
I0510 00:28:22.524678 28440 net.cpp:334] inception_5b/3x3_reduce -> inception_5b/3x3_reduce
I0510 00:28:22.524688 28440 net.cpp:105] Setting up inception_5b/3x3_reduce
I0510 00:28:22.526042 28440 net.cpp:112] Top shape: 32 192 7 7 (301056)
I0510 00:28:22.526057 28440 layer_factory.hpp:74] Creating layer inception_5b/relu_3x3_reduce
I0510 00:28:22.526065 28440 net.cpp:76] Creating Layer inception_5b/relu_3x3_reduce
I0510 00:28:22.526072 28440 net.cpp:372] inception_5b/relu_3x3_reduce <- inception_5b/3x3_reduce
I0510 00:28:22.526082 28440 net.cpp:323] inception_5b/relu_3x3_reduce -> inception_5b/3x3_reduce (in-place)
I0510 00:28:22.526090 28440 net.cpp:105] Setting up inception_5b/relu_3x3_reduce
I0510 00:28:22.526096 28440 net.cpp:112] Top shape: 32 192 7 7 (301056)
I0510 00:28:22.526103 28440 layer_factory.hpp:74] Creating layer inception_5b/3x3
I0510 00:28:22.526110 28440 net.cpp:76] Creating Layer inception_5b/3x3
I0510 00:28:22.526115 28440 net.cpp:372] inception_5b/3x3 <- inception_5b/3x3_reduce
I0510 00:28:22.526125 28440 net.cpp:334] inception_5b/3x3 -> inception_5b/3x3
I0510 00:28:22.526156 28440 net.cpp:105] Setting up inception_5b/3x3
I0510 00:28:22.531677 28440 net.cpp:112] Top shape: 32 384 7 7 (602112)
I0510 00:28:22.531713 28440 layer_factory.hpp:74] Creating layer inception_5b/relu_3x3
I0510 00:28:22.531725 28440 net.cpp:76] Creating Layer inception_5b/relu_3x3
I0510 00:28:22.531733 28440 net.cpp:372] inception_5b/relu_3x3 <- inception_5b/3x3
I0510 00:28:22.531743 28440 net.cpp:323] inception_5b/relu_3x3 -> inception_5b/3x3 (in-place)
I0510 00:28:22.531755 28440 net.cpp:105] Setting up inception_5b/relu_3x3
I0510 00:28:22.531762 28440 net.cpp:112] Top shape: 32 384 7 7 (602112)
I0510 00:28:22.531767 28440 layer_factory.hpp:74] Creating layer inception_5b/5x5_reduce
I0510 00:28:22.531777 28440 net.cpp:76] Creating Layer inception_5b/5x5_reduce
I0510 00:28:22.531783 28440 net.cpp:372] inception_5b/5x5_reduce <- inception_5a/output_inception_5a/output_0_split_2
I0510 00:28:22.531792 28440 net.cpp:334] inception_5b/5x5_reduce -> inception_5b/5x5_reduce
I0510 00:28:22.531801 28440 net.cpp:105] Setting up inception_5b/5x5_reduce
I0510 00:28:22.532151 28440 net.cpp:112] Top shape: 32 48 7 7 (75264)
I0510 00:28:22.532165 28440 layer_factory.hpp:74] Creating layer inception_5b/relu_5x5_reduce
I0510 00:28:22.532172 28440 net.cpp:76] Creating Layer inception_5b/relu_5x5_reduce
I0510 00:28:22.532179 28440 net.cpp:372] inception_5b/relu_5x5_reduce <- inception_5b/5x5_reduce
I0510 00:28:22.532188 28440 net.cpp:323] inception_5b/relu_5x5_reduce -> inception_5b/5x5_reduce (in-place)
I0510 00:28:22.532196 28440 net.cpp:105] Setting up inception_5b/relu_5x5_reduce
I0510 00:28:22.532202 28440 net.cpp:112] Top shape: 32 48 7 7 (75264)
I0510 00:28:22.532212 28440 layer_factory.hpp:74] Creating layer inception_5b/5x5
I0510 00:28:22.532220 28440 net.cpp:76] Creating Layer inception_5b/5x5
I0510 00:28:22.532225 28440 net.cpp:372] inception_5b/5x5 <- inception_5b/5x5_reduce
I0510 00:28:22.532233 28440 net.cpp:334] inception_5b/5x5 -> inception_5b/5x5
I0510 00:28:22.532243 28440 net.cpp:105] Setting up inception_5b/5x5
I0510 00:28:22.533546 28440 net.cpp:112] Top shape: 32 128 7 7 (200704)
I0510 00:28:22.533562 28440 layer_factory.hpp:74] Creating layer inception_5b/relu_5x5
I0510 00:28:22.533573 28440 net.cpp:76] Creating Layer inception_5b/relu_5x5
I0510 00:28:22.533610 28440 net.cpp:372] inception_5b/relu_5x5 <- inception_5b/5x5
I0510 00:28:22.533619 28440 net.cpp:323] inception_5b/relu_5x5 -> inception_5b/5x5 (in-place)
I0510 00:28:22.533627 28440 net.cpp:105] Setting up inception_5b/relu_5x5
I0510 00:28:22.533633 28440 net.cpp:112] Top shape: 32 128 7 7 (200704)
I0510 00:28:22.533639 28440 layer_factory.hpp:74] Creating layer inception_5b/pool
I0510 00:28:22.533648 28440 net.cpp:76] Creating Layer inception_5b/pool
I0510 00:28:22.533654 28440 net.cpp:372] inception_5b/pool <- inception_5a/output_inception_5a/output_0_split_3
I0510 00:28:22.533663 28440 net.cpp:334] inception_5b/pool -> inception_5b/pool
I0510 00:28:22.533671 28440 net.cpp:105] Setting up inception_5b/pool
I0510 00:28:22.533679 28440 net.cpp:112] Top shape: 32 832 7 7 (1304576)
I0510 00:28:22.533685 28440 layer_factory.hpp:74] Creating layer inception_5b/pool_proj
I0510 00:28:22.533696 28440 net.cpp:76] Creating Layer inception_5b/pool_proj
I0510 00:28:22.533702 28440 net.cpp:372] inception_5b/pool_proj <- inception_5b/pool
I0510 00:28:22.533712 28440 net.cpp:334] inception_5b/pool_proj -> inception_5b/pool_proj
I0510 00:28:22.533721 28440 net.cpp:105] Setting up inception_5b/pool_proj
I0510 00:28:22.534629 28440 net.cpp:112] Top shape: 32 128 7 7 (200704)
I0510 00:28:22.534646 28440 layer_factory.hpp:74] Creating layer inception_5b/relu_pool_proj
I0510 00:28:22.534654 28440 net.cpp:76] Creating Layer inception_5b/relu_pool_proj
I0510 00:28:22.534660 28440 net.cpp:372] inception_5b/relu_pool_proj <- inception_5b/pool_proj
I0510 00:28:22.534670 28440 net.cpp:323] inception_5b/relu_pool_proj -> inception_5b/pool_proj (in-place)
I0510 00:28:22.534678 28440 net.cpp:105] Setting up inception_5b/relu_pool_proj
I0510 00:28:22.534684 28440 net.cpp:112] Top shape: 32 128 7 7 (200704)
I0510 00:28:22.534690 28440 layer_factory.hpp:74] Creating layer inception_5b/output
I0510 00:28:22.534698 28440 net.cpp:76] Creating Layer inception_5b/output
I0510 00:28:22.534704 28440 net.cpp:372] inception_5b/output <- inception_5b/1x1
I0510 00:28:22.534711 28440 net.cpp:372] inception_5b/output <- inception_5b/3x3
I0510 00:28:22.534718 28440 net.cpp:372] inception_5b/output <- inception_5b/5x5
I0510 00:28:22.534723 28440 net.cpp:372] inception_5b/output <- inception_5b/pool_proj
I0510 00:28:22.534734 28440 net.cpp:334] inception_5b/output -> inception_5b/output
I0510 00:28:22.534742 28440 net.cpp:105] Setting up inception_5b/output
I0510 00:28:22.534749 28440 net.cpp:112] Top shape: 32 1024 7 7 (1605632)
I0510 00:28:22.534754 28440 layer_factory.hpp:74] Creating layer pool5/7x7_s1
I0510 00:28:22.534762 28440 net.cpp:76] Creating Layer pool5/7x7_s1
I0510 00:28:22.534768 28440 net.cpp:372] pool5/7x7_s1 <- inception_5b/output
I0510 00:28:22.534777 28440 net.cpp:334] pool5/7x7_s1 -> pool5/7x7_s1
I0510 00:28:22.534785 28440 net.cpp:105] Setting up pool5/7x7_s1
I0510 00:28:22.534791 28440 net.cpp:112] Top shape: 32 1024 1 1 (32768)
I0510 00:28:22.534797 28440 layer_factory.hpp:74] Creating layer pool5/drop_7x7_s1
I0510 00:28:22.534806 28440 net.cpp:76] Creating Layer pool5/drop_7x7_s1
I0510 00:28:22.534811 28440 net.cpp:372] pool5/drop_7x7_s1 <- pool5/7x7_s1
I0510 00:28:22.534821 28440 net.cpp:323] pool5/drop_7x7_s1 -> pool5/7x7_s1 (in-place)
I0510 00:28:22.534828 28440 net.cpp:105] Setting up pool5/drop_7x7_s1
I0510 00:28:22.534836 28440 net.cpp:112] Top shape: 32 1024 1 1 (32768)
I0510 00:28:22.534842 28440 layer_factory.hpp:74] Creating layer loss3/classifier
I0510 00:28:22.534850 28440 net.cpp:76] Creating Layer loss3/classifier
I0510 00:28:22.534857 28440 net.cpp:372] loss3/classifier <- pool5/7x7_s1
I0510 00:28:22.534867 28440 net.cpp:334] loss3/classifier -> loss3/classifier
I0510 00:28:22.534875 28440 net.cpp:105] Setting up loss3/classifier
I0510 00:28:22.534906 28440 net.cpp:112] Top shape: 32 2 1 1 (64)
I0510 00:28:22.534916 28440 layer_factory.hpp:74] Creating layer loss3/loss3
I0510 00:28:22.534925 28440 net.cpp:76] Creating Layer loss3/loss3
I0510 00:28:22.534931 28440 net.cpp:372] loss3/loss3 <- loss3/classifier
I0510 00:28:22.534952 28440 net.cpp:372] loss3/loss3 <- label_data_1_split_2
I0510 00:28:22.534962 28440 net.cpp:334] loss3/loss3 -> loss3/loss3
I0510 00:28:22.534971 28440 net.cpp:105] Setting up loss3/loss3
I0510 00:28:22.534979 28440 layer_factory.hpp:74] Creating layer loss3/loss3
I0510 00:28:22.534997 28440 net.cpp:112] Top shape: 1 1 1 1 (1)
I0510 00:28:22.535004 28440 net.cpp:118]     with loss weight 1
I0510 00:28:22.535022 28440 net.cpp:163] loss3/loss3 needs backward computation.
I0510 00:28:22.535028 28440 net.cpp:163] loss3/classifier needs backward computation.
I0510 00:28:22.535059 28440 net.cpp:163] pool5/drop_7x7_s1 needs backward computation.
I0510 00:28:22.535068 28440 net.cpp:163] pool5/7x7_s1 needs backward computation.
…
I0510 00:28:22.543210 28440 solver.cpp:154] Creating test net (#0) specified by net file: ../../train_val.prototxt
I0510 00:28:22.543493 28440 net.cpp:253] The NetState phase (1) differed from the phase (0) specified by a rule in layer data
I0510 00:28:22.544920 28440 net.cpp:42] Initializing net from parameters: 
name: "GoogleNet"
state {
  phase: TEST
}
layer {
  name: "data"
  type: "Data"
  top: "data"
  top: "label"
  include {
    phase: TEST
  }
  transform_param {
    mirror: false
    crop_size: 224
    mean_value: 104
    mean_value: 117
    mean_value: 123
  }
  data_param {
    source: "val_lmdb"
    batch_size: 32
    backend: LMDB
  }
}
layer {
  name: "conv1/7x7_s2"
  type: "Convolution"
  bottom: "data"
  top: "conv1/7x7_s2"
  param {
    lr_mult: 1
    decay_mult: 1
  }
  param {
    lr_mult: 2
    decay_mult: 0
  }
  convolution_param {
    num_output: 64
    pad: 3
    kernel_size: 7
    stride: 2
    weight_filler {
      type: "xavier"
      std: 0.1
    }
    bias_filler {
      type: "constant"
      value: 0.2
    }
  }
}
layer {
  name: "conv1/relu_7x7"
  type: "ReLU"
  bottom: "conv1/7x7_s2"
  top: "conv1/7x7_s2"
}
layer {
  name: "pool1/3x3_s2"
  type: "Pooling"
  bottom: "conv1/7x7_s2"
  top: "pool1/3x3_s2"
  pooling_param {
    pool: MAX
    kernel_size: 3
    stride: 2
  }
}
layer {
  name: "pool1/norm1"
  type: "LRN"
  bottom: "pool1/3x3_s2"
  top: "pool1/norm1"
  lrn_param {
    local_size: 5
    alpha: 0.0001
    beta: 0.75
  }
}
layer {
  name: "conv2/3x3_reduce"
  type: "Convolution"
  bottom: "pool1/norm1"
  top: "conv2/3x3_reduce"
  param {
    lr_mult: 1
    decay_mult: 1
  }
  param {
    lr_mult: 2
    decay_mult: 0
  }
  convolution_param {
    num_output: 64
    kernel_size: 1
    weight_filler {
      type: "xavier"
      std: 0.1
    }
    bias_filler {
      type: "constant"
      value: 0.2
    }
  }
}
layer {
  name: "conv2/relu_3x3_reduce"
  type: "ReLU"
  bottom: "conv2/3x3_reduce"
  top: "conv2/3x3_reduce"
}
layer {
  name: "conv2/3x3"
  type: "Convolution"
  bottom: "conv2/3x3_reduce"
  top: "conv2/3x3"
  param {
    lr_mult: 1
    decay_mult: 1
  }
  param {
    lr_mult: 2
    decay_mult: 0
  }
  convolution_param {
    num_output: 192
    pad: 1
    kernel_size: 3
    weight_filler {
      type: "xavier"
      std: 0.03
    }
    bias_filler {
      type: "constant"
      value: 0.2
    }
  }
}
layer {
  name: "conv2/relu_3x3"
  type: "ReLU"
  bottom: "conv2/3x3"
  top: "conv2/3x3"
}
layer {
  name: "conv2/norm2"
  type: "LRN"
  bottom: "conv2/3x3"
  top: "conv2/norm2"
  lrn_param {
    local_size: 5
    alpha: 0.0001
    beta: 0.75
  }
}
layer {
  name: "pool2/3x3_s2"
  type: "Pooling"
  bottom: "conv2/norm2"
  top: "pool2/3x3_s2"
  pooling_param {
    pool: MAX
    kernel_size: 3
    stride: 2
  }
}
layer {
  name: "inception_3a/1x1"
  type: "Convolution"
  bottom: "pool2/3x3_s2"
  top: "inception_3a/1x1"
  param {
    lr_mult: 1
    decay_mult: 1
  }
  param {
    lr_mult: 2
    decay_mult: 0
  }
  convolution_param {
    num_output: 64
    kernel_size: 1
    weight_filler {
      type: "xavier"
      std: 0.03
    }
    bias_filler {
      type: "constant"
      value: 0.2
    }
  }
}
layer {
  name: "inception_3a/relu_1x1"
  type: "ReLU"
  bottom: "inception_3a/1x1"
  top: "inception_3a/1x1"
}
layer {
  name: "inception_3a/3x3_reduce"
  type: "Convolution"
  bottom: "pool2/3x3_s2"
  top: "inception_3a/3x3_reduce"
  param {
    lr_mult: 1
    decay_mult: 1
  }
  param {
    lr_mult: 2
    decay_mult: 0
  }
  convolution_param {
    num_output: 96
    kernel_size: 1
    weight_filler {
      type: "xavier"
      std: 0.09
    }
    bias_filler {
      type: "constant"
      value: 0.2
    }
  }
}
layer {
  name: "inception_3a/relu_3x3_reduce"
  type: "ReLU"
  bottom: "inception_3a/3x3_reduce"
  top: "inception_3a/3x3_reduce"
}
layer {
  name: "inception_3a/3x3"
  type: "Convolution"
  bottom: "inception_3a/3x3_reduce"
  top: "inception_3a/3x3"
  param {
    lr_mult: 1
    decay_mult: 1
  }
  param {
    lr_mult: 2
    decay_mult: 0
  }
  convolution_param {
    num_output: 128
    pad: 1
    kernel_size: 3
    weight_filler {
      type: "xavier"
      std: 0.03
    }
    bias_filler {
      type: "constant"
      value: 0.2
    }
  }
}
layer {
  name: "inception_3a/relu_3x3"
  type: "ReLU"
  bottom: "inception_3a/3x3"
  top: "inception_3a/3x3"
}
layer {
  name: "inception_3a/5x5_reduce"
  type: "Convolution"
  bottom: "pool2/3x3_s2"
  top: "inception_3a/5x5_reduce"
  param {
    lr_mult: 1
    decay_mult: 1
  }
  param {
    lr_mult: 2
    decay_mult: 0
  }
  convolution_param {
    num_output: 16
    kernel_size: 1
    weight_filler {
      type: "xavier"
      std: 0.2
    }
    bias_filler {
      type: "constant"
      value: 0.2
    }
  }
}
layer {
  name: "inception_3a/relu_5x5_reduce"
  type: "ReLU"
  bottom: "inception_3a/5x5_reduce"
  top: "inception_3a/5x5_reduce"
}
layer {
  name: "inception_3a/5x5"
  type: "Convolution"
  bottom: "inception_3a/5x5_reduce"
  top: "inception_3a/5x5"
  param {
    lr_mult: 1
    decay_mult: 1
  }
  param {
    lr_mult: 2
    decay_mult: 0
  }
  convolution_param {
    num_output: 32
    pad: 2
    kernel_size: 5
    weight_filler {
      type: "xavier"
      std: 0.03
    }
    bias_filler {
      type: "constant"
      value: 0.2
    }
  }
}
layer {
  name: "inception_3a/relu_5x5"
  type: "ReLU"
  bottom: "inception_3a/5x5"
  top: "inception_3a/5x5"
}
layer {
  name: "inception_3a/pool"
  type: "Pooling"
  bottom: "pool2/3x3_s2"
  top: "inception_3a/pool"
  pooling_param {
    pool: MAX
    kernel_size: 3
    stride: 1
    pad: 1
  }
}
layer {
  name: "inception_3a/pool_proj"
  type: "Convolution"
  bottom: "inception_3a/pool"
  top: "inception_3a/pool_proj"
  param {
    lr_mult: 1
    decay_mult: 1
  }
  param {
    lr_mult: 2
    decay_mult: 0
  }
  convolution_param {
    num_output: 32
    kernel_size: 1
    weight_filler {
      type: "xavier"
      std: 0.1
    }
    bias_filler {
      type: "constant"
      value: 0.2
    }
  }
}
layer {
  name: "inception_3a/relu_pool_proj"
  type: "ReLU"
  bottom: "inception_3a/pool_proj"
  top: "inception_3a/pool_proj"
}
layer {
  name: "inception_3a/output"
  type: "Concat"
  bottom: "inception_3a/1x1"
  bottom: "inception_3a/3x3"
  bottom: "inception_3a/5x5"
  bottom: "inception_3a/pool_proj"
  top: "inception_3a/output"
}
layer {
  name: "inception_3b/1x1"
  type: "Convolution"
  bottom: "inception_3a/output"
  top: "inception_3b/1x1"
  param {
    lr_mult: 1
    decay_mult: 1
  }
  param {
    lr_mult: 2
    decay_mult: 0
  }
  convolution_param {
    num_output: 128
    kernel_size: 1
    weight_filler {
      type: "xavier"
      std: 0.03
    }
    bias_filler {
      type: "constant"
      value: 0.2
    }
  }
}
layer {
  name: "inception_3b/relu_1x1"
  type: "ReLU"
  bottom: "inception_3b/1x1"
  top: "inception_3b/1x1"
}
layer {
  name: "inception_3b/3x3_reduce"
  type: "Convolution"
  bottom: "inception_3a/output"
  top: "inception_3b/3x3_reduce"
  param {
    lr_mult: 1
    decay_mult: 1
  }
  param {
    lr_mult: 2
    decay_mult: 0
  }
  convolution_param {
    num_output: 128
    kernel_size: 1
    weight_filler {
      type: "xavier"
      std: 0.09
    }
    bias_filler {
      type: "constant"
      value: 0.2
    }
  }
}
layer {
  name: "inception_3b/relu_3x3_reduce"
  type: "ReLU"
  bottom: "inception_3b/3x3_reduce"
  top: "inception_3b/3x3_reduce"
}
layer {
  name: "inception_3b/3x3"
  type: "Convolution"
  bottom: "inception_3b/3x3_reduce"
  top: "inception_3b/3x3"
  param {
    lr_mult: 1
    decay_mult: 1
  }
  param {
    lr_mult: 2
    decay_mult: 0
  }
  convolution_param {
    num_output: 192
    pad: 1
    kernel_size: 3
    weight_filler {
      type: "xavier"
      std: 0.03
    }
    bias_filler {
      type: "constant"
      value: 0.2
    }
  }
}
layer {
  name: "inception_3b/relu_3x3"
  type: "ReLU"
  bottom: "inception_3b/3x3"
  top: "inception_3b/3x3"
}
layer {
  name: "inception_3b/5x5_reduce"
  type: "Convolution"
  bottom: "inception_3a/output"
  top: "inception_3b/5x5_reduce"
  param {
    lr_mult: 1
    decay_mult: 1
  }
  param {
    lr_mult: 2
    decay_mult: 0
  }
  convolution_param {
    num_output: 32
    kernel_size: 1
    weight_filler {
      type: "xavier"
      std: 0.2
    }
    bias_filler {
      type: "constant"
      value: 0.2
    }
  }
}
layer {
  name: "inception_3b/relu_5x5_reduce"
  type: "ReLU"
  bottom: "inception_3b/5x5_reduce"
  top: "inception_3b/5x5_reduce"
}
layer {
  name: "inception_3b/5x5"
  type: "Convolution"
  bottom: "inception_3b/5x5_reduce"
  top: "inception_3b/5x5"
  param {
    lr_mult: 1
    decay_mult: 1
  }
  param {
    lr_mult: 2
    decay_mult: 0
  }
  convolution_param {
    num_output: 96
    pad: 2
    kernel_size: 5
    weight_filler {
      type: "xavier"
      std: 0.03
    }
    bias_filler {
      type: "constant"
      value: 0.2
    }
  }
}
layer {
  name: "inception_3b/relu_5x5"
  type: "ReLU"
  bottom: "inception_3b/5x5"
  top: "inception_3b/5x5"
}
layer {
  name: "inception_3b/pool"
  type: "Pooling"
  bottom: "inception_3a/output"
  top: "inception_3b/pool"
  pooling_param {
    pool: MAX
    kernel_size: 3
    stride: 1
    pad: 1
  }
}
layer {
  name: "inception_3b/pool_proj"
  type: "Convolution"
  bottom: "inception_3b/pool"
  top: "inception_3b/pool_proj"
  param {
    lr_mult: 1
    decay_mult: 1
  }
  param {
    lr_mult: 2
    decay_mult: 0
  }
  convolution_param {
    num_output: 64
    kernel_size: 1
    weight_filler {
      type: "xavier"
      std: 0.1
    }
    bias_filler {
      type: "constant"
      value: 0.2
    }
  }
}
layer {
  name: "inception_3b/relu_pool_proj"
  type: "ReLU"
  bottom: "inception_3b/pool_proj"
  top: "inception_3b/pool_proj"
}
layer {
  name: "inception_3b/output"
  type: "Concat"
  bottom: "inception_3b/1x1"
  bottom: "inception_3b/3x3"
  bottom: "inception_3b/5x5"
  bottom: "inception_3b/pool_proj"
  top: "inception_3b/output"
}
layer {
  name: "pool3/3x3_s2"
  type: "Pooling"
  bottom: "inception_3b/output"
  top: "pool3/3x3_s2"
  pooling_param {
    pool: MAX
    kernel_size: 3
    stride: 2
  }
}
layer {
  name: "inception_4a/1x1"
  type: "Convolution"
  bottom: "pool3/3x3_s2"
  top: "inception_4a/1x1"
  param {
    lr_mult: 1
    decay_mult: 1
  }
  param {
    lr_mult: 2
    decay_mult: 0
  }
  convolution_param {
    num_output: 192
    kernel_size: 1
    weight_filler {
      type: "xavier"
      std: 0.03
    }
    bias_filler {
      type: "constant"
      value: 0.2
    }
  }
}
layer {
  name: "inception_4a/relu_1x1"
  type: "ReLU"
  bottom: "inception_4a/1x1"
  top: "inception_4a/1x1"
}
layer {
  name: "inception_4a/3x3_reduce"
  type: "Convolution"
  bottom: "pool3/3x3_s2"
  top: "inception_4a/3x3_reduce"
  param {
    lr_mult: 1
    decay_mult: 1
  }
  param {
    lr_mult: 2
    decay_mult: 0
  }
  convolution_param {
    num_output: 96
    kernel_size: 1
    weight_filler {
      type: "xavier"
      std: 0.09
    }
    bias_filler {
      type: "constant"
      value: 0.2
    }
  }
}
layer {
  name: "inception_4a/relu_3x3_reduce"
  type: "ReLU"
  bottom: "inception_4a/3x3_reduce"
  top: "inception_4a/3x3_reduce"
}
layer {
  name: "inception_4a/3x3"
  type: "Convolution"
  bottom: "inception_4a/3x3_reduce"
  top: "inception_4a/3x3"
  param {
    lr_mult: 1
    decay_mult: 1
  }
  param {
    lr_mult: 2
    decay_mult: 0
  }
  convolution_param {
    num_output: 208
    pad: 1
    kernel_size: 3
    weight_filler {
      type: "xavier"
      std: 0.03
    }
    bias_filler {
      type: "constant"
      value: 0.2
    }
  }
}
layer {
  name: "inception_4a/relu_3x3"
  type: "ReLU"
  bottom: "inception_4a/3x3"
  top: "inception_4a/3x3"
}
layer {
  name: "inception_4a/5x5_reduce"
  type: "Convolution"
  bottom: "pool3/3x3_s2"
  top: "inception_4a/5x5_reduce"
  param {
    lr_mult: 1
    decay_mult: 1
  }
  param {
    lr_mult: 2
    decay_mult: 0
  }
  convolution_param {
    num_output: 16
    kernel_size: 1
    weight_filler {
      type: "xavier"
      std: 0.2
    }
    bias_filler {
      type: "constant"
      value: 0.2
    }
  }
}
layer {
  name: "inception_4a/relu_5x5_reduce"
  type: "ReLU"
  bottom: "inception_4a/5x5_reduce"
  top: "inception_4a/5x5_reduce"
}
layer {
  name: "inception_4a/5x5"
  type: "Convolution"
  bottom: "inception_4a/5x5_reduce"
  top: "inception_4a/5x5"
  param {
    lr_mult: 1
    decay_mult: 1
  }
  param {
    lr_mult: 2
    decay_mult: 0
  }
  convolution_param {
    num_output: 48
    pad: 2
    kernel_size: 5
    weight_filler {
      type: "xavier"
      std: 0.03
    }
    bias_filler {
      type: "constant"
      value: 0.2
    }
  }
}
layer {
  name: "inception_4a/relu_5x5"
  type: "ReLU"
  bottom: "inception_4a/5x5"
  top: "inception_4a/5x5"
}
layer {
  name: "inception_4a/pool"
  type: "Pooling"
  bottom: "pool3/3x3_s2"
  top: "inception_4a/pool"
  pooling_param {
    pool: MAX
    kernel_size: 3
    stride: 1
    pad: 1
  }
}
layer {
  name: "inception_4a/pool_proj"
  type: "Convolution"
  bottom: "inception_4a/pool"
  top: "inception_4a/pool_proj"
  param {
    lr_mult: 1
    decay_mult: 1
  }
  param {
    lr_mult: 2
    decay_mult: 0
  }
  convolution_param {
    num_output: 64
    kernel_size: 1
    weight_filler {
      type: "xavier"
      std: 0.1
    }
    bias_filler {
      type: "constant"
      value: 0.2
    }
  }
}
layer {
  name: "inception_4a/relu_pool_proj"
  type: "ReLU"
  bottom: "inception_4a/pool_proj"
  top: "inception_4a/pool_proj"
}
layer {
  name: "inception_4a/output"
  type: "Concat"
  bottom: "inception_4a/1x1"
  bottom: "inception_4a/3x3"
  bottom: "inception_4a/5x5"
  bottom: "inception_4a/pool_proj"
  top: "inception_4a/output"
}
layer {
  name: "loss1/ave_pool"
  type: "Pooling"
  bottom: "inception_4a/output"
  top: "loss1/ave_pool"
  pooling_param {
    pool: AVE
    kernel_size: 5
    stride: 3
  }
}
layer {
  name: "loss1/conv"
  type: "Convolution"
  bottom: "loss1/ave_pool"
  top: "loss1/conv"
  param {
    lr_mult: 1
    decay_mult: 1
  }
  param {
    lr_mult: 2
    decay_mult: 0
  }
  convolution_param {
    num_output: 128
    kernel_size: 1
    weight_filler {
      type: "xavier"
      std: 0.08
    }
    bias_filler {
      type: "constant"
      value: 0.2
    }
  }
}
layer {
  name: "loss1/relu_conv"
  type: "ReLU"
  bottom: "loss1/conv"
  top: "loss1/conv"
}
layer {
  name: "loss1/fc"
  type: "InnerProduct"
  bottom: "loss1/conv"
  top: "loss1/fc"
  param {
    lr_mult: 1
    decay_mult: 1
  }
  param {
    lr_mult: 2
    decay_mult: 0
  }
  inner_product_param {
    num_output: 1024
    weight_filler {
      type: "xavier"
      std: 0.02
    }
    bias_filler {
      type: "constant"
      value: 0.2
    }
  }
}
layer {
  name: "loss1/relu_fc"
  type: "ReLU"
  bottom: "loss1/fc"
  top: "loss1/fc"
}
layer {
  name: "loss1/drop_fc"
  type: "Dropout"
  bottom: "loss1/fc"
  top: "loss1/fc"
  dropout_param {
    dropout_ratio: 0.7
  }
}
layer {
  name: "loss1/classifier"
  type: "InnerProduct"
  bottom: "loss1/fc"
  top: "loss1/classifier"
  param {
    lr_mult: 1
    decay_mult: 1
  }
  param {
    lr_mult: 2
    decay_mult: 0
  }
  inner_product_param {
    num_output: 2
    weight_filler {
      type: "xavier"
      std: 0.0009765625
    }
    bias_filler {
      type: "constant"
      value: 0
    }
  }
}
layer {
  name: "loss1/loss"
  type: "SoftmaxWithLoss"
  bottom: "loss1/classifier"
  bottom: "label"
  top: "loss1/loss1"
  loss_weight: 0.3
}
layer {
  name: "loss1/top-1"
  type: "Accuracy"
  bottom: "loss1/classifier"
  bottom: "label"
  top: "loss1/top-1"
  include {
    phase: TEST
  }
}
layer {
  name: "inception_4b/1x1"
  type: "Convolution"
  bottom: "inception_4a/output"
  top: "inception_4b/1x1"
  param {
    lr_mult: 1
    decay_mult: 1
  }
  param {
    lr_mult: 2
    decay_mult: 0
  }
  convolution_param {
    num_output: 160
    kernel_size: 1
    weight_filler {
      type: "xavier"
      std: 0.03
    }
    bias_filler {
      type: "constant"
      value: 0.2
    }
  }
}
layer {
  name: "inception_4b/relu_1x1"
  type: "ReLU"
  bottom: "inception_4b/1x1"
  top: "inception_4b/1x1"
}
layer {
  name: "inception_4b/3x3_reduce"
  type: "Convolution"
  bottom: "inception_4a/output"
  top: "inception_4b/3x3_reduce"
  param {
    lr_mult: 1
    decay_mult: 1
  }
  param {
    lr_mult: 2
    decay_mult: 0
  }
  convolution_param {
    num_output: 112
    kernel_size: 1
    weight_filler {
      type: "xavier"
      std: 0.09
    }
    bias_filler {
      type: "constant"
      value: 0.2
    }
  }
}
layer {
  name: "inception_4b/relu_3x3_reduce"
  type: "ReLU"
  bottom: "inception_4b/3x3_reduce"
  top: "inception_4b/3x3_reduce"
}
layer {
  name: "inception_4b/3x3"
  type: "Convolution"
  bottom: "inception_4b/3x3_reduce"
  top: "inception_4b/3x3"
  param {
    lr_mult: 1
    decay_mult: 1
  }
  param {
    lr_mult: 2
    decay_mult: 0
  }
  convolution_param {
    num_output: 224
    pad: 1
    kernel_size: 3
    weight_filler {
      type: "xavier"
      std: 0.03
    }
    bias_filler {
      type: "constant"
      value: 0.2
    }
  }
}
layer {
  name: "inception_4b/relu_3x3"
  type: "ReLU"
  bottom: "inception_4b/3x3"
  top: "inception_4b/3x3"
}
layer {
  name: "inception_4b/5x5_reduce"
  type: "Convolution"
  bottom: "inception_4a/output"
  top: "inception_4b/5x5_reduce"
  param {
    lr_mult: 1
    decay_mult: 1
  }
  param {
    lr_mult: 2
    decay_mult: 0
  }
  convolution_param {
    num_output: 24
    kernel_size: 1
    weight_filler {
      type: "xavier"
      std: 0.2
    }
    bias_filler {
      type: "constant"
      value: 0.2
    }
  }
}
layer {
  name: "inception_4b/relu_5x5_reduce"
  type: "ReLU"
  bottom: "inception_4b/5x5_reduce"
  top: "inception_4b/5x5_reduce"
}
layer {
  name: "inception_4b/5x5"
  type: "Convolution"
  bottom: "inception_4b/5x5_reduce"
  top: "inception_4b/5x5"
  param {
    lr_mult: 1
    decay_mult: 1
  }
  param {
    lr_mult: 2
    decay_mult: 0
  }
  convolution_param {
    num_output: 64
    pad: 2
    kernel_size: 5
    weight_filler {
      type: "xavier"
      std: 0.03
    }
    bias_filler {
      type: "constant"
      value: 0.2
    }
  }
}
layer {
  name: "inception_4b/relu_5x5"
  type: "ReLU"
  bottom: "inception_4b/5x5"
  top: "inception_4b/5x5"
}
layer {
  name: "inception_4b/pool"
  type: "Pooling"
  bottom: "inception_4a/output"
  top: "inception_4b/pool"
  pooling_param {
    pool: MAX
    kernel_size: 3
    stride: 1
    pad: 1
  }
}
layer {
  name: "inception_4b/pool_proj"
  type: "Convolution"
  bottom: "inception_4b/pool"
  top: "inception_4b/pool_proj"
  param {
    lr_mult: 1
    decay_mult: 1
  }
  param {
    lr_mult: 2
    decay_mult: 0
  }
  convolution_param {
    num_output: 64
    kernel_size: 1
    weight_filler {
      type: "xavier"
      std: 0.1
    }
    bias_filler {
      type: "constant"
      value: 0.2
    }
  }
}
layer {
  name: "inception_4b/relu_pool_proj"
  type: "ReLU"
  bottom: "inception_4b/pool_proj"
  top: "inception_4b/pool_proj"
}
layer {
  name: "inception_4b/output"
  type: "Concat"
  bottom: "inception_4b/1x1"
  bottom: "inception_4b/3x3"
  bottom: "inception_4b/5x5"
  bottom: "inception_4b/pool_proj"
  top: "inception_4b/output"
}
layer {
  name: "inception_4c/1x1"
  type: "Convolution"
  bottom: "inception_4b/output"
  top: "inception_4c/1x1"
  param {
    lr_mult: 1
    decay_mult: 1
  }
  param {
    lr_mult: 2
    decay_mult: 0
  }
  convolution_param {
    num_output: 128
    kernel_size: 1
    weight_filler {
      type: "xavier"
      std: 0.03
    }
    bias_filler {
      type: "constant"
      value: 0.2
    }
  }
}
layer {
  name: "inception_4c/relu_1x1"
  type: "ReLU"
  bottom: "inception_4c/1x1"
  top: "inception_4c/1x1"
}
layer {
  name: "inception_4c/3x3_reduce"
  type: "Convolution"
  bottom: "inception_4b/output"
  top: "inception_4c/3x3_reduce"
  param {
    lr_mult: 1
    decay_mult: 1
  }
  param {
    lr_mult: 2
    decay_mult: 0
  }
  convolution_param {
    num_output: 128
    kernel_size: 1
    weight_filler {
      type: "xavier"
      std: 0.09
    }
    bias_filler {
      type: "constant"
      value: 0.2
    }
  }
}
layer {
  name: "inception_4c/relu_3x3_reduce"
  type: "ReLU"
  bottom: "inception_4c/3x3_reduce"
  top: "inception_4c/3x3_reduce"
}
layer {
  name: "inception_4c/3x3"
  type: "Convolution"
  bottom: "inception_4c/3x3_reduce"
  top: "inception_4c/3x3"
  param {
    lr_mult: 1
    decay_mult: 1
  }
  param {
    lr_mult: 2
    decay_mult: 0
  }
  convolution_param {
    num_output: 256
    pad: 1
    kernel_size: 3
    weight_filler {
      type: "xavier"
      std: 0.03
    }
    bias_filler {
      type: "constant"
      value: 0.2
    }
  }
}
layer {
  name: "inception_4c/relu_3x3"
  type: "ReLU"
  bottom: "inception_4c/3x3"
  top: "inception_4c/3x3"
}
layer {
  name: "inception_4c/5x5_reduce"
  type: "Convolution"
  bottom: "inception_4b/output"
  top: "inception_4c/5x5_reduce"
  param {
    lr_mult: 1
    decay_mult: 1
  }
  param {
    lr_mult: 2
    decay_mult: 0
  }
  convolution_param {
    num_output: 24
    kernel_size: 1
    weight_filler {
      type: "xavier"
      std: 0.2
    }
    bias_filler {
      type: "constant"
      value: 0.2
    }
  }
}
layer {
  name: "inception_4c/relu_5x5_reduce"
  type: "ReLU"
  bottom: "inception_4c/5x5_reduce"
  top: "inception_4c/5x5_reduce"
}
layer {
  name: "inception_4c/5x5"
  type: "Convolution"
  bottom: "inception_4c/5x5_reduce"
  top: "inception_4c/5x5"
  param {
    lr_mult: 1
    decay_mult: 1
  }
  param {
    lr_mult: 2
    decay_mult: 0
  }
  convolution_param {
    num_output: 64
    pad: 2
    kernel_size: 5
    weight_filler {
      type: "xavier"
      std: 0.03
    }
    bias_filler {
      type: "constant"
      value: 0.2
    }
  }
}
layer {
  name: "inception_4c/relu_5x5"
  type: "ReLU"
  bottom: "inception_4c/5x5"
  top: "inception_4c/5x5"
}
layer {
  name: "inception_4c/pool"
  type: "Pooling"
  bottom: "inception_4b/output"
  top: "inception_4c/pool"
  pooling_param {
    pool: MAX
    kernel_size: 3
    stride: 1
    pad: 1
  }
}
layer {
  name: "inception_4c/pool_proj"
  type: "Convolution"
  bottom: "inception_4c/pool"
  top: "inception_4c/pool_proj"
  param {
    lr_mult: 1
    decay_mult: 1
  }
  param {
    lr_mult: 2
    decay_mult: 0
  }
  convolution_param {
    num_output: 64
    kernel_size: 1
    weight_filler {
      type: "xavier"
      std: 0.1
    }
    bias_filler {
      type: "constant"
      value: 0.2
    }
  }
}
layer {
  name: "inception_4c/relu_pool_proj"
  type: "ReLU"
  bottom: "inception_4c/pool_proj"
  top: "inception_4c/pool_proj"
}
layer {
  name: "inception_4c/output"
  type: "Concat"
  bottom: "inception_4c/1x1"
  bottom: "inception_4c/3x3"
  bottom: "inception_4c/5x5"
  bottom: "inception_4c/pool_proj"
  top: "inception_4c/output"
}
layer {
  name: "inception_4d/1x1"
  type: "Convolution"
  bottom: "inception_4c/output"
  top: "inception_4d/1x1"
  param {
    lr_mult: 1
    decay_mult: 1
  }
  param {
    lr_mult: 2
    decay_mult: 0
  }
  convolution_param {
    num_output: 112
    kernel_size: 1
    weight_filler {
      type: "xavier"
      std: 0.03
    }
    bias_filler {
      type: "constant"
      value: 0.2
    }
  }
}
layer {
  name: "inception_4d/relu_1x1"
  type: "ReLU"
  bottom: "inception_4d/1x1"
  top: "inception_4d/1x1"
}
layer {
  name: "inception_4d/3x3_reduce"
  type: "Convolution"
  bottom: "inception_4c/output"
  top: "inception_4d/3x3_reduce"
  param {
    lr_mult: 1
    decay_mult: 1
  }
  param {
    lr_mult: 2
    decay_mult: 0
  }
  convolution_param {
    num_output: 144
    kernel_size: 1
    weight_filler {
      type: "xavier"
      std: 0.09
    }
    bias_filler {
      type: "constant"
      value: 0.2
    }
  }
}
layer {
  name: "inception_4d/relu_3x3_reduce"
  type: "ReLU"
  bottom: "inception_4d/3x3_reduce"
  top: "inception_4d/3x3_reduce"
}
layer {
  name: "inception_4d/3x3"
  type: "Convolution"
  bottom: "inception_4d/3x3_reduce"
  top: "inception_4d/3x3"
  param {
    lr_mult: 1
    decay_mult: 1
  }
  param {
    lr_mult: 2
    decay_mult: 0
  }
  convolution_param {
    num_output: 288
    pad: 1
    kernel_size: 3
    weight_filler {
      type: "xavier"
      std: 0.03
    }
    bias_filler {
      type: "constant"
      value: 0.2
    }
  }
}
layer {
  name: "inception_4d/relu_3x3"
  type: "ReLU"
  bottom: "inception_4d/3x3"
  top: "inception_4d/3x3"
}
layer {
  name: "inception_4d/5x5_reduce"
  type: "Convolution"
  bottom: "inception_4c/output"
  top: "inception_4d/5x5_reduce"
  param {
    lr_mult: 1
    decay_mult: 1
  }
  param {
    lr_mult: 2
    decay_mult: 0
  }
  convolution_param {
    num_output: 32
    kernel_size: 1
    weight_filler {
      type: "xavier"
      std: 0.2
    }
    bias_filler {
      type: "constant"
      value: 0.2
    }
  }
}
layer {
  name: "inception_4d/relu_5x5_reduce"
  type: "ReLU"
  bottom: "inception_4d/5x5_reduce"
  top: "inception_4d/5x5_reduce"
}
layer {
  name: "inception_4d/5x5"
  type: "Convolution"
  bottom: "inception_4d/5x5_reduce"
  top: "inception_4d/5x5"
  param {
    lr_mult: 1
    decay_mult: 1
  }
  param {
    lr_mult: 2
    decay_mult: 0
  }
  convolution_param {
    num_output: 64
    pad: 2
    kernel_size: 5
    weight_filler {
      type: "xavier"
      std: 0.03
    }
    bias_filler {
      type: "constant"
      value: 0.2
    }
  }
}
layer {
  name: "inception_4d/relu_5x5"
  type: "ReLU"
  bottom: "inception_4d/5x5"
  top: "inception_4d/5x5"
}
layer {
  name: "inception_4d/pool"
  type: "Pooling"
  bottom: "inception_4c/output"
  top: "inception_4d/pool"
  pooling_param {
    pool: MAX
    kernel_size: 3
    stride: 1
    pad: 1
  }
}
layer {
  name: "inception_4d/pool_proj"
  type: "Convolution"
  bottom: "inception_4d/pool"
  top: "inception_4d/pool_proj"
  param {
    lr_mult: 1
    decay_mult: 1
  }
  param {
    lr_mult: 2
    decay_mult: 0
  }
  convolution_param {
    num_output: 64
    kernel_size: 1
    weight_filler {
      type: "xavier"
      std: 0.1
    }
    bias_filler {
      type: "constant"
      value: 0.2
    }
  }
}
layer {
  name: "inception_4d/relu_pool_proj"
  type: "ReLU"
  bottom: "inception_4d/pool_proj"
  top: "inception_4d/pool_proj"
}
layer {
  name: "inception_4d/output"
  type: "Concat"
  bottom: "inception_4d/1x1"
  bottom: "inception_4d/3x3"
  bottom: "inception_4d/5x5"
  bottom: "inception_4d/pool_proj"
  top: "inception_4d/output"
}
layer {
  name: "loss2/ave_pool"
  type: "Pooling"
  bottom: "inception_4d/output"
  top: "loss2/ave_pool"
  pooling_param {
    pool: AVE
    kernel_size: 5
    stride: 3
  }
}
layer {
  name: "loss2/conv"
  type: "Convolution"
  bottom: "loss2/ave_pool"
  top: "loss2/conv"
  param {
    lr_mult: 1
    decay_mult: 1
  }
  param {
    lr_mult: 2
    decay_mult: 0
  }
  convolution_param {
    num_output: 128
    kernel_size: 1
    weight_filler {
      type: "xavier"
      std: 0.08
    }
    bias_filler {
      type: "constant"
      value: 0.2
    }
  }
}
layer {
  name: "loss2/relu_conv"
  type: "ReLU"
  bottom: "loss2/conv"
  top: "loss2/conv"
}
layer {
  name: "loss2/fc"
  type: "InnerProduct"
…
I0510 00:28:22.598321 28440 net.cpp:112] Top shape: 32 128 14 14 (802816)
I0510 00:28:22.598335 28440 layer_factory.hpp:74] Creating layer inception_4c/relu_1x1
I0510 00:28:22.598345 28440 net.cpp:76] Creating Layer inception_4c/relu_1x1
I0510 00:28:22.598351 28440 net.cpp:372] inception_4c/relu_1x1 <- inception_4c/1x1
I0510 00:28:22.598361 28440 net.cpp:323] inception_4c/relu_1x1 -> inception_4c/1x1 (in-place)
I0510 00:28:22.598368 28440 net.cpp:105] Setting up inception_4c/relu_1x1
I0510 00:28:22.598374 28440 net.cpp:112] Top shape: 32 128 14 14 (802816)
I0510 00:28:22.598392 28440 layer_factory.hpp:74] Creating layer inception_4c/3x3_reduce
I0510 00:28:22.598402 28440 net.cpp:76] Creating Layer inception_4c/3x3_reduce
I0510 00:28:22.598407 28440 net.cpp:372] inception_4c/3x3_reduce <- inception_4b/output_inception_4b/output_0_split_1
I0510 00:28:22.598418 28440 net.cpp:334] inception_4c/3x3_reduce -> inception_4c/3x3_reduce
I0510 00:28:22.598428 28440 net.cpp:105] Setting up inception_4c/3x3_reduce
I0510 00:28:22.598985 28440 net.cpp:112] Top shape: 32 128 14 14 (802816)
I0510 00:28:22.598999 28440 layer_factory.hpp:74] Creating layer inception_4c/relu_3x3_reduce
I0510 00:28:22.599006 28440 net.cpp:76] Creating Layer inception_4c/relu_3x3_reduce
I0510 00:28:22.599012 28440 net.cpp:372] inception_4c/relu_3x3_reduce <- inception_4c/3x3_reduce
I0510 00:28:22.599020 28440 net.cpp:323] inception_4c/relu_3x3_reduce -> inception_4c/3x3_reduce (in-place)
I0510 00:28:22.599027 28440 net.cpp:105] Setting up inception_4c/relu_3x3_reduce
I0510 00:28:22.599032 28440 net.cpp:112] Top shape: 32 128 14 14 (802816)
I0510 00:28:22.599037 28440 layer_factory.hpp:74] Creating layer inception_4c/3x3
I0510 00:28:22.599048 28440 net.cpp:76] Creating Layer inception_4c/3x3
I0510 00:28:22.599055 28440 net.cpp:372] inception_4c/3x3 <- inception_4c/3x3_reduce
I0510 00:28:22.599062 28440 net.cpp:334] inception_4c/3x3 -> inception_4c/3x3
I0510 00:28:22.599071 28440 net.cpp:105] Setting up inception_4c/3x3
I0510 00:28:22.601536 28440 net.cpp:112] Top shape: 32 256 14 14 (1605632)
I0510 00:28:22.601572 28440 layer_factory.hpp:74] Creating layer inception_4c/relu_3x3
I0510 00:28:22.601583 28440 net.cpp:76] Creating Layer inception_4c/relu_3x3
I0510 00:28:22.602450 28440 net.cpp:372] inception_4c/relu_3x3 <- inception_4c/3x3
I0510 00:28:22.602463 28440 net.cpp:323] inception_4c/relu_3x3 -> inception_4c/3x3 (in-place)
I0510 00:28:22.602471 28440 net.cpp:105] Setting up inception_4c/relu_3x3
I0510 00:28:22.602478 28440 net.cpp:112] Top shape: 32 256 14 14 (1605632)
I0510 00:28:22.602483 28440 layer_factory.hpp:74] Creating layer inception_4c/5x5_reduce
I0510 00:28:22.602496 28440 net.cpp:76] Creating Layer inception_4c/5x5_reduce
I0510 00:28:22.602502 28440 net.cpp:372] inception_4c/5x5_reduce <- inception_4b/output_inception_4b/output_0_split_2
I0510 00:28:22.602511 28440 net.cpp:334] inception_4c/5x5_reduce -> inception_4c/5x5_reduce
I0510 00:28:22.602520 28440 net.cpp:105] Setting up inception_4c/5x5_reduce
I0510 00:28:22.602635 28440 net.cpp:112] Top shape: 32 24 14 14 (150528)
I0510 00:28:22.602646 28440 layer_factory.hpp:74] Creating layer inception_4c/relu_5x5_reduce
I0510 00:28:22.602654 28440 net.cpp:76] Creating Layer inception_4c/relu_5x5_reduce
I0510 00:28:22.602660 28440 net.cpp:372] inception_4c/relu_5x5_reduce <- inception_4c/5x5_reduce
I0510 00:28:22.602669 28440 net.cpp:323] inception_4c/relu_5x5_reduce -> inception_4c/5x5_reduce (in-place)
I0510 00:28:22.602677 28440 net.cpp:105] Setting up inception_4c/relu_5x5_reduce
I0510 00:28:22.602682 28440 net.cpp:112] Top shape: 32 24 14 14 (150528)
I0510 00:28:22.602689 28440 layer_factory.hpp:74] Creating layer inception_4c/5x5
I0510 00:28:22.602696 28440 net.cpp:76] Creating Layer inception_4c/5x5
I0510 00:28:22.602702 28440 net.cpp:372] inception_4c/5x5 <- inception_4c/5x5_reduce
I0510 00:28:22.602711 28440 net.cpp:334] inception_4c/5x5 -> inception_4c/5x5
I0510 00:28:22.602720 28440 net.cpp:105] Setting up inception_4c/5x5
I0510 00:28:22.603046 28440 net.cpp:112] Top shape: 32 64 14 14 (401408)
I0510 00:28:22.603060 28440 layer_factory.hpp:74] Creating layer inception_4c/relu_5x5
I0510 00:28:22.603067 28440 net.cpp:76] Creating Layer inception_4c/relu_5x5
I0510 00:28:22.603073 28440 net.cpp:372] inception_4c/relu_5x5 <- inception_4c/5x5
I0510 00:28:22.603080 28440 net.cpp:323] inception_4c/relu_5x5 -> inception_4c/5x5 (in-place)
I0510 00:28:22.603087 28440 net.cpp:105] Setting up inception_4c/relu_5x5
I0510 00:28:22.603092 28440 net.cpp:112] Top shape: 32 64 14 14 (401408)
I0510 00:28:22.603097 28440 layer_factory.hpp:74] Creating layer inception_4c/pool
I0510 00:28:22.603129 28440 net.cpp:76] Creating Layer inception_4c/pool
I0510 00:28:22.603135 28440 net.cpp:372] inception_4c/pool <- inception_4b/output_inception_4b/output_0_split_3
I0510 00:28:22.603147 28440 net.cpp:334] inception_4c/pool -> inception_4c/pool
I0510 00:28:22.603155 28440 net.cpp:105] Setting up inception_4c/pool
I0510 00:28:22.603164 28440 net.cpp:112] Top shape: 32 512 14 14 (3211264)
I0510 00:28:22.603169 28440 layer_factory.hpp:74] Creating layer inception_4c/pool_proj
I0510 00:28:22.603178 28440 net.cpp:76] Creating Layer inception_4c/pool_proj
I0510 00:28:22.603186 28440 net.cpp:372] inception_4c/pool_proj <- inception_4c/pool
I0510 00:28:22.603194 28440 net.cpp:334] inception_4c/pool_proj -> inception_4c/pool_proj
I0510 00:28:22.603204 28440 net.cpp:105] Setting up inception_4c/pool_proj
I0510 00:28:22.603507 28440 net.cpp:112] Top shape: 32 64 14 14 (401408)
I0510 00:28:22.603520 28440 layer_factory.hpp:74] Creating layer inception_4c/relu_pool_proj
I0510 00:28:22.603528 28440 net.cpp:76] Creating Layer inception_4c/relu_pool_proj
I0510 00:28:22.603534 28440 net.cpp:372] inception_4c/relu_pool_proj <- inception_4c/pool_proj
I0510 00:28:22.603543 28440 net.cpp:323] inception_4c/relu_pool_proj -> inception_4c/pool_proj (in-place)
I0510 00:28:22.603551 28440 net.cpp:105] Setting up inception_4c/relu_pool_proj
I0510 00:28:22.603557 28440 net.cpp:112] Top shape: 32 64 14 14 (401408)
I0510 00:28:22.603562 28440 layer_factory.hpp:74] Creating layer inception_4c/output
I0510 00:28:22.603570 28440 net.cpp:76] Creating Layer inception_4c/output
I0510 00:28:22.603576 28440 net.cpp:372] inception_4c/output <- inception_4c/1x1
I0510 00:28:22.603582 28440 net.cpp:372] inception_4c/output <- inception_4c/3x3
I0510 00:28:22.603588 28440 net.cpp:372] inception_4c/output <- inception_4c/5x5
I0510 00:28:22.603595 28440 net.cpp:372] inception_4c/output <- inception_4c/pool_proj
I0510 00:28:22.603605 28440 net.cpp:334] inception_4c/output -> inception_4c/output
I0510 00:28:22.603613 28440 net.cpp:105] Setting up inception_4c/output
I0510 00:28:22.603620 28440 net.cpp:112] Top shape: 32 512 14 14 (3211264)
I0510 00:28:22.603624 28440 layer_factory.hpp:74] Creating layer inception_4c/output_inception_4c/output_0_split
I0510 00:28:22.603632 28440 net.cpp:76] Creating Layer inception_4c/output_inception_4c/output_0_split
I0510 00:28:22.603638 28440 net.cpp:372] inception_4c/output_inception_4c/output_0_split <- inception_4c/output
I0510 00:28:22.603648 28440 net.cpp:334] inception_4c/output_inception_4c/output_0_split -> inception_4c/output_inception_4c/output_0_split_0
I0510 00:28:22.603658 28440 net.cpp:334] inception_4c/output_inception_4c/output_0_split -> inception_4c/output_inception_4c/output_0_split_1
I0510 00:28:22.603667 28440 net.cpp:334] inception_4c/output_inception_4c/output_0_split -> inception_4c/output_inception_4c/output_0_split_2
I0510 00:28:22.603677 28440 net.cpp:334] inception_4c/output_inception_4c/output_0_split -> inception_4c/output_inception_4c/output_0_split_3
I0510 00:28:22.603684 28440 net.cpp:105] Setting up inception_4c/output_inception_4c/output_0_split
I0510 00:28:22.603691 28440 net.cpp:112] Top shape: 32 512 14 14 (3211264)
I0510 00:28:22.603696 28440 net.cpp:112] Top shape: 32 512 14 14 (3211264)
I0510 00:28:22.603701 28440 net.cpp:112] Top shape: 32 512 14 14 (3211264)
I0510 00:28:22.603706 28440 net.cpp:112] Top shape: 32 512 14 14 (3211264)
I0510 00:28:22.603711 28440 layer_factory.hpp:74] Creating layer inception_4d/1x1
I0510 00:28:22.603721 28440 net.cpp:76] Creating Layer inception_4d/1x1
I0510 00:28:22.603727 28440 net.cpp:372] inception_4d/1x1 <- inception_4c/output_inception_4c/output_0_split_0
I0510 00:28:22.603735 28440 net.cpp:334] inception_4d/1x1 -> inception_4d/1x1
I0510 00:28:22.603744 28440 net.cpp:105] Setting up inception_4d/1x1
I0510 00:28:22.604223 28440 net.cpp:112] Top shape: 32 112 14 14 (702464)
I0510 00:28:22.604236 28440 layer_factory.hpp:74] Creating layer inception_4d/relu_1x1
I0510 00:28:22.604246 28440 net.cpp:76] Creating Layer inception_4d/relu_1x1
I0510 00:28:22.604264 28440 net.cpp:372] inception_4d/relu_1x1 <- inception_4d/1x1
I0510 00:28:22.604285 28440 net.cpp:323] inception_4d/relu_1x1 -> inception_4d/1x1 (in-place)
I0510 00:28:22.604295 28440 net.cpp:105] Setting up inception_4d/relu_1x1
I0510 00:28:22.604300 28440 net.cpp:112] Top shape: 32 112 14 14 (702464)
I0510 00:28:22.604305 28440 layer_factory.hpp:74] Creating layer inception_4d/3x3_reduce
I0510 00:28:22.604313 28440 net.cpp:76] Creating Layer inception_4d/3x3_reduce
I0510 00:28:22.604320 28440 net.cpp:372] inception_4d/3x3_reduce <- inception_4c/output_inception_4c/output_0_split_1
I0510 00:28:22.604331 28440 net.cpp:334] inception_4d/3x3_reduce -> inception_4d/3x3_reduce
I0510 00:28:22.604339 28440 net.cpp:105] Setting up inception_4d/3x3_reduce
I0510 00:28:22.604969 28440 net.cpp:112] Top shape: 32 144 14 14 (903168)
I0510 00:28:22.604984 28440 layer_factory.hpp:74] Creating layer inception_4d/relu_3x3_reduce
I0510 00:28:22.604992 28440 net.cpp:76] Creating Layer inception_4d/relu_3x3_reduce
I0510 00:28:22.604998 28440 net.cpp:372] inception_4d/relu_3x3_reduce <- inception_4d/3x3_reduce
I0510 00:28:22.605006 28440 net.cpp:323] inception_4d/relu_3x3_reduce -> inception_4d/3x3_reduce (in-place)
I0510 00:28:22.605015 28440 net.cpp:105] Setting up inception_4d/relu_3x3_reduce
I0510 00:28:22.605020 28440 net.cpp:112] Top shape: 32 144 14 14 (903168)
I0510 00:28:22.605026 28440 layer_factory.hpp:74] Creating layer inception_4d/3x3
I0510 00:28:22.605036 28440 net.cpp:76] Creating Layer inception_4d/3x3
I0510 00:28:22.605041 28440 net.cpp:372] inception_4d/3x3 <- inception_4d/3x3_reduce
I0510 00:28:22.605051 28440 net.cpp:334] inception_4d/3x3 -> inception_4d/3x3
I0510 00:28:22.605059 28440 net.cpp:105] Setting up inception_4d/3x3
I0510 00:28:22.608178 28440 net.cpp:112] Top shape: 32 288 14 14 (1806336)
I0510 00:28:22.608198 28440 layer_factory.hpp:74] Creating layer inception_4d/relu_3x3
I0510 00:28:22.608207 28440 net.cpp:76] Creating Layer inception_4d/relu_3x3
I0510 00:28:22.608213 28440 net.cpp:372] inception_4d/relu_3x3 <- inception_4d/3x3
I0510 00:28:22.608222 28440 net.cpp:323] inception_4d/relu_3x3 -> inception_4d/3x3 (in-place)
I0510 00:28:22.608229 28440 net.cpp:105] Setting up inception_4d/relu_3x3
I0510 00:28:22.608235 28440 net.cpp:112] Top shape: 32 288 14 14 (1806336)
I0510 00:28:22.608240 28440 layer_factory.hpp:74] Creating layer inception_4d/5x5_reduce
I0510 00:28:22.608252 28440 net.cpp:76] Creating Layer inception_4d/5x5_reduce
I0510 00:28:22.608258 28440 net.cpp:372] inception_4d/5x5_reduce <- inception_4c/output_inception_4c/output_0_split_2
I0510 00:28:22.608268 28440 net.cpp:334] inception_4d/5x5_reduce -> inception_4d/5x5_reduce
I0510 00:28:22.608290 28440 net.cpp:105] Setting up inception_4d/5x5_reduce
I0510 00:28:22.608436 28440 net.cpp:112] Top shape: 32 32 14 14 (200704)
I0510 00:28:22.608448 28440 layer_factory.hpp:74] Creating layer inception_4d/relu_5x5_reduce
I0510 00:28:22.608455 28440 net.cpp:76] Creating Layer inception_4d/relu_5x5_reduce
I0510 00:28:22.608461 28440 net.cpp:372] inception_4d/relu_5x5_reduce <- inception_4d/5x5_reduce
I0510 00:28:22.608470 28440 net.cpp:323] inception_4d/relu_5x5_reduce -> inception_4d/5x5_reduce (in-place)
I0510 00:28:22.608479 28440 net.cpp:105] Setting up inception_4d/relu_5x5_reduce
I0510 00:28:22.608484 28440 net.cpp:112] Top shape: 32 32 14 14 (200704)
I0510 00:28:22.608489 28440 layer_factory.hpp:74] Creating layer inception_4d/5x5
I0510 00:28:22.608497 28440 net.cpp:76] Creating Layer inception_4d/5x5
I0510 00:28:22.608503 28440 net.cpp:372] inception_4d/5x5 <- inception_4d/5x5_reduce
I0510 00:28:22.608512 28440 net.cpp:334] inception_4d/5x5 -> inception_4d/5x5
I0510 00:28:22.608521 28440 net.cpp:105] Setting up inception_4d/5x5
I0510 00:28:22.608960 28440 net.cpp:112] Top shape: 32 64 14 14 (401408)
I0510 00:28:22.608974 28440 layer_factory.hpp:74] Creating layer inception_4d/relu_5x5
I0510 00:28:22.608983 28440 net.cpp:76] Creating Layer inception_4d/relu_5x5
I0510 00:28:22.608989 28440 net.cpp:372] inception_4d/relu_5x5 <- inception_4d/5x5
I0510 00:28:22.609016 28440 net.cpp:323] inception_4d/relu_5x5 -> inception_4d/5x5 (in-place)
I0510 00:28:22.609025 28440 net.cpp:105] Setting up inception_4d/relu_5x5
I0510 00:28:22.609030 28440 net.cpp:112] Top shape: 32 64 14 14 (401408)
I0510 00:28:22.609036 28440 layer_factory.hpp:74] Creating layer inception_4d/pool
I0510 00:28:22.609046 28440 net.cpp:76] Creating Layer inception_4d/pool
I0510 00:28:22.609052 28440 net.cpp:372] inception_4d/pool <- inception_4c/output_inception_4c/output_0_split_3
I0510 00:28:22.609061 28440 net.cpp:334] inception_4d/pool -> inception_4d/pool
I0510 00:28:22.609068 28440 net.cpp:105] Setting up inception_4d/pool
I0510 00:28:22.609076 28440 net.cpp:112] Top shape: 32 512 14 14 (3211264)
I0510 00:28:22.609082 28440 layer_factory.hpp:74] Creating layer inception_4d/pool_proj
I0510 00:28:22.609093 28440 net.cpp:76] Creating Layer inception_4d/pool_proj
I0510 00:28:22.609100 28440 net.cpp:372] inception_4d/pool_proj <- inception_4d/pool
I0510 00:28:22.609108 28440 net.cpp:334] inception_4d/pool_proj -> inception_4d/pool_proj
I0510 00:28:22.609117 28440 net.cpp:105] Setting up inception_4d/pool_proj
I0510 00:28:22.609413 28440 net.cpp:112] Top shape: 32 64 14 14 (401408)
I0510 00:28:22.609426 28440 layer_factory.hpp:74] Creating layer inception_4d/relu_pool_proj
I0510 00:28:22.609433 28440 net.cpp:76] Creating Layer inception_4d/relu_pool_proj
I0510 00:28:22.609439 28440 net.cpp:372] inception_4d/relu_pool_proj <- inception_4d/pool_proj
I0510 00:28:22.609449 28440 net.cpp:323] inception_4d/relu_pool_proj -> inception_4d/pool_proj (in-place)
I0510 00:28:22.609457 28440 net.cpp:105] Setting up inception_4d/relu_pool_proj
I0510 00:28:22.609463 28440 net.cpp:112] Top shape: 32 64 14 14 (401408)
I0510 00:28:22.609468 28440 layer_factory.hpp:74] Creating layer inception_4d/output
I0510 00:28:22.609477 28440 net.cpp:76] Creating Layer inception_4d/output
I0510 00:28:22.609482 28440 net.cpp:372] inception_4d/output <- inception_4d/1x1
I0510 00:28:22.609488 28440 net.cpp:372] inception_4d/output <- inception_4d/3x3
I0510 00:28:22.609494 28440 net.cpp:372] inception_4d/output <- inception_4d/5x5
I0510 00:28:22.609500 28440 net.cpp:372] inception_4d/output <- inception_4d/pool_proj
I0510 00:28:22.609508 28440 net.cpp:334] inception_4d/output -> inception_4d/output
I0510 00:28:22.609516 28440 net.cpp:105] Setting up inception_4d/output
I0510 00:28:22.609522 28440 net.cpp:112] Top shape: 32 528 14 14 (3311616)
I0510 00:28:22.609527 28440 layer_factory.hpp:74] Creating layer inception_4d/output_inception_4d/output_0_split
I0510 00:28:22.609537 28440 net.cpp:76] Creating Layer inception_4d/output_inception_4d/output_0_split
I0510 00:28:22.609544 28440 net.cpp:372] inception_4d/output_inception_4d/output_0_split <- inception_4d/output
I0510 00:28:22.609551 28440 net.cpp:334] inception_4d/output_inception_4d/output_0_split -> inception_4d/output_inception_4d/output_0_split_0
I0510 00:28:22.609560 28440 net.cpp:334] inception_4d/output_inception_4d/output_0_split -> inception_4d/output_inception_4d/output_0_split_1
I0510 00:28:22.609570 28440 net.cpp:334] inception_4d/output_inception_4d/output_0_split -> inception_4d/output_inception_4d/output_0_split_2
I0510 00:28:22.609580 28440 net.cpp:334] inception_4d/output_inception_4d/output_0_split -> inception_4d/output_inception_4d/output_0_split_3
I0510 00:28:22.609609 28440 net.cpp:334] inception_4d/output_inception_4d/output_0_split -> inception_4d/output_inception_4d/output_0_split_4
I0510 00:28:22.609619 28440 net.cpp:105] Setting up inception_4d/output_inception_4d/output_0_split
I0510 00:28:22.609627 28440 net.cpp:112] Top shape: 32 528 14 14 (3311616)
I0510 00:28:22.609632 28440 net.cpp:112] Top shape: 32 528 14 14 (3311616)
I0510 00:28:22.609637 28440 net.cpp:112] Top shape: 32 528 14 14 (3311616)
I0510 00:28:22.609642 28440 net.cpp:112] Top shape: 32 528 14 14 (3311616)
I0510 00:28:22.609647 28440 net.cpp:112] Top shape: 32 528 14 14 (3311616)
I0510 00:28:22.609652 28440 layer_factory.hpp:74] Creating layer loss2/ave_pool
I0510 00:28:22.609673 28440 net.cpp:76] Creating Layer loss2/ave_pool
I0510 00:28:22.609681 28440 net.cpp:372] loss2/ave_pool <- inception_4d/output_inception_4d/output_0_split_0
I0510 00:28:22.609690 28440 net.cpp:334] loss2/ave_pool -> loss2/ave_pool
I0510 00:28:22.609700 28440 net.cpp:105] Setting up loss2/ave_pool
I0510 00:28:22.609707 28440 net.cpp:112] Top shape: 32 528 4 4 (270336)
I0510 00:28:22.609714 28440 layer_factory.hpp:74] Creating layer loss2/conv
I0510 00:28:22.609721 28440 net.cpp:76] Creating Layer loss2/conv
I0510 00:28:22.609727 28440 net.cpp:372] loss2/conv <- loss2/ave_pool
I0510 00:28:22.609735 28440 net.cpp:334] loss2/conv -> loss2/conv
I0510 00:28:22.609743 28440 net.cpp:105] Setting up loss2/conv
I0510 00:28:22.610332 28440 net.cpp:112] Top shape: 32 128 4 4 (65536)
I0510 00:28:22.610347 28440 layer_factory.hpp:74] Creating layer loss2/relu_conv
I0510 00:28:22.610354 28440 net.cpp:76] Creating Layer loss2/relu_conv
I0510 00:28:22.610363 28440 net.cpp:372] loss2/relu_conv <- loss2/conv
I0510 00:28:22.610369 28440 net.cpp:323] loss2/relu_conv -> loss2/conv (in-place)
I0510 00:28:22.610378 28440 net.cpp:105] Setting up loss2/relu_conv
I0510 00:28:22.610383 28440 net.cpp:112] Top shape: 32 128 4 4 (65536)
I0510 00:28:22.610388 28440 layer_factory.hpp:74] Creating layer loss2/fc
I0510 00:28:22.610398 28440 net.cpp:76] Creating Layer loss2/fc
I0510 00:28:22.610402 28440 net.cpp:372] loss2/fc <- loss2/conv
I0510 00:28:22.610412 28440 net.cpp:334] loss2/fc -> loss2/fc
I0510 00:28:22.610422 28440 net.cpp:105] Setting up loss2/fc
I0510 00:28:22.628068 28440 net.cpp:112] Top shape: 32 1024 1 1 (32768)
I0510 00:28:22.628114 28440 layer_factory.hpp:74] Creating layer loss2/relu_fc
I0510 00:28:22.628129 28440 net.cpp:76] Creating Layer loss2/relu_fc
I0510 00:28:22.628137 28440 net.cpp:372] loss2/relu_fc <- loss2/fc
I0510 00:28:22.628150 28440 net.cpp:323] loss2/relu_fc -> loss2/fc (in-place)
I0510 00:28:22.628161 28440 net.cpp:105] Setting up loss2/relu_fc
I0510 00:28:22.628168 28440 net.cpp:112] Top shape: 32 1024 1 1 (32768)
I0510 00:28:22.628175 28440 layer_factory.hpp:74] Creating layer loss2/drop_fc
I0510 00:28:22.628183 28440 net.cpp:76] Creating Layer loss2/drop_fc
I0510 00:28:22.628188 28440 net.cpp:372] loss2/drop_fc <- loss2/fc
I0510 00:28:22.628196 28440 net.cpp:323] loss2/drop_fc -> loss2/fc (in-place)
I0510 00:28:22.628203 28440 net.cpp:105] Setting up loss2/drop_fc
I0510 00:28:22.628211 28440 net.cpp:112] Top shape: 32 1024 1 1 (32768)
I0510 00:28:22.628216 28440 layer_factory.hpp:74] Creating layer loss2/classifier
I0510 00:28:22.628226 28440 net.cpp:76] Creating Layer loss2/classifier
I0510 00:28:22.628232 28440 net.cpp:372] loss2/classifier <- loss2/fc
I0510 00:28:22.628242 28440 net.cpp:334] loss2/classifier -> loss2/classifier
I0510 00:28:22.628253 28440 net.cpp:105] Setting up loss2/classifier
I0510 00:28:22.628301 28440 net.cpp:112] Top shape: 32 2 1 1 (64)
I0510 00:28:22.628319 28440 layer_factory.hpp:74] Creating layer loss2/classifier_loss2/classifier_0_split
I0510 00:28:22.628326 28440 net.cpp:76] Creating Layer loss2/classifier_loss2/classifier_0_split
I0510 00:28:22.628332 28440 net.cpp:372] loss2/classifier_loss2/classifier_0_split <- loss2/classifier
I0510 00:28:22.628340 28440 net.cpp:334] loss2/classifier_loss2/classifier_0_split -> loss2/classifier_loss2/classifier_0_split_0
I0510 00:28:22.628350 28440 net.cpp:334] loss2/classifier_loss2/classifier_0_split -> loss2/classifier_loss2/classifier_0_split_1
I0510 00:28:22.628360 28440 net.cpp:105] Setting up loss2/classifier_loss2/classifier_0_split
I0510 00:28:22.628365 28440 net.cpp:112] Top shape: 32 2 1 1 (64)
I0510 00:28:22.628371 28440 net.cpp:112] Top shape: 32 2 1 1 (64)
I0510 00:28:22.628376 28440 layer_factory.hpp:74] Creating layer loss2/loss
I0510 00:28:22.628387 28440 net.cpp:76] Creating Layer loss2/loss
I0510 00:28:22.628393 28440 net.cpp:372] loss2/loss <- loss2/classifier_loss2/classifier_0_split_0
I0510 00:28:22.628401 28440 net.cpp:372] loss2/loss <- label_data_1_split_2
I0510 00:28:22.628408 28440 net.cpp:334] loss2/loss -> loss2/loss1
I0510 00:28:22.628453 28440 net.cpp:105] Setting up loss2/loss
I0510 00:28:22.628463 28440 layer_factory.hpp:74] Creating layer loss2/loss
I0510 00:28:22.628479 28440 net.cpp:112] Top shape: 1 1 1 1 (1)
I0510 00:28:22.628484 28440 net.cpp:118]     with loss weight 0.3
I0510 00:28:22.628502 28440 layer_factory.hpp:74] Creating layer loss2/top-1
I0510 00:28:22.628511 28440 net.cpp:76] Creating Layer loss2/top-1
I0510 00:28:22.628517 28440 net.cpp:372] loss2/top-1 <- loss2/classifier_loss2/classifier_0_split_1
I0510 00:28:22.628525 28440 net.cpp:372] loss2/top-1 <- label_data_1_split_3
I0510 00:28:22.628535 28440 net.cpp:334] loss2/top-1 -> loss2/top-1
I0510 00:28:22.628543 28440 net.cpp:105] Setting up loss2/top-1
I0510 00:28:22.628551 28440 net.cpp:112] Top shape: 1 1 1 1 (1)
I0510 00:28:22.628556 28440 layer_factory.hpp:74] Creating layer inception_4e/1x1
I0510 00:28:22.628566 28440 net.cpp:76] Creating Layer inception_4e/1x1
I0510 00:28:22.628571 28440 net.cpp:372] inception_4e/1x1 <- inception_4d/output_inception_4d/output_0_split_1
I0510 00:28:22.628582 28440 net.cpp:334] inception_4e/1x1 -> inception_4e/1x1
I0510 00:28:22.628590 28440 net.cpp:105] Setting up inception_4e/1x1
I0510 00:28:22.629750 28440 net.cpp:112] Top shape: 32 256 14 14 (1605632)
I0510 00:28:22.629766 28440 layer_factory.hpp:74] Creating layer inception_4e/relu_1x1
I0510 00:28:22.629775 28440 net.cpp:76] Creating Layer inception_4e/relu_1x1
I0510 00:28:22.629781 28440 net.cpp:372] inception_4e/relu_1x1 <- inception_4e/1x1
I0510 00:28:22.629791 28440 net.cpp:323] inception_4e/relu_1x1 -> inception_4e/1x1 (in-place)
I0510 00:28:22.629799 28440 net.cpp:105] Setting up inception_4e/relu_1x1
I0510 00:28:22.629806 28440 net.cpp:112] Top shape: 32 256 14 14 (1605632)
I0510 00:28:22.629812 28440 layer_factory.hpp:74] Creating layer inception_4e/3x3_reduce
I0510 00:28:22.629820 28440 net.cpp:76] Creating Layer inception_4e/3x3_reduce
I0510 00:28:22.629825 28440 net.cpp:372] inception_4e/3x3_reduce <- inception_4d/output_inception_4d/output_0_split_2
I0510 00:28:22.629837 28440 net.cpp:334] inception_4e/3x3_reduce -> inception_4e/3x3_reduce
I0510 00:28:22.629847 28440 net.cpp:105] Setting up inception_4e/3x3_reduce
I0510 00:28:22.630568 28440 net.cpp:112] Top shape: 32 160 14 14 (1003520)
I0510 00:28:22.630581 28440 layer_factory.hpp:74] Creating layer inception_4e/relu_3x3_reduce
I0510 00:28:22.630590 28440 net.cpp:76] Creating Layer inception_4e/relu_3x3_reduce
I0510 00:28:22.630596 28440 net.cpp:372] inception_4e/relu_3x3_reduce <- inception_4e/3x3_reduce
I0510 00:28:22.630604 28440 net.cpp:323] inception_4e/relu_3x3_reduce -> inception_4e/3x3_reduce (in-place)
I0510 00:28:22.630611 28440 net.cpp:105] Setting up inception_4e/relu_3x3_reduce
I0510 00:28:22.630617 28440 net.cpp:112] Top shape: 32 160 14 14 (1003520)
I0510 00:28:22.630623 28440 layer_factory.hpp:74] Creating layer inception_4e/3x3
I0510 00:28:22.630655 28440 net.cpp:76] Creating Layer inception_4e/3x3
I0510 00:28:22.630661 28440 net.cpp:372] inception_4e/3x3 <- inception_4e/3x3_reduce
I0510 00:28:22.630671 28440 net.cpp:334] inception_4e/3x3 -> inception_4e/3x3
I0510 00:28:22.630678 28440 net.cpp:105] Setting up inception_4e/3x3
I0510 00:28:22.634639 28440 net.cpp:112] Top shape: 32 320 14 14 (2007040)
I0510 00:28:22.634670 28440 layer_factory.hpp:74] Creating layer inception_4e/relu_3x3
I0510 00:28:22.634682 28440 net.cpp:76] Creating Layer inception_4e/relu_3x3
I0510 00:28:22.634690 28440 net.cpp:372] inception_4e/relu_3x3 <- inception_4e/3x3
I0510 00:28:22.634699 28440 net.cpp:323] inception_4e/relu_3x3 -> inception_4e/3x3 (in-place)
I0510 00:28:22.634708 28440 net.cpp:105] Setting up inception_4e/relu_3x3
I0510 00:28:22.634716 28440 net.cpp:112] Top shape: 32 320 14 14 (2007040)
I0510 00:28:22.634721 28440 layer_factory.hpp:74] Creating layer inception_4e/5x5_reduce
I0510 00:28:22.634731 28440 net.cpp:76] Creating Layer inception_4e/5x5_reduce
I0510 00:28:22.634737 28440 net.cpp:372] inception_4e/5x5_reduce <- inception_4d/output_inception_4d/output_0_split_3
I0510 00:28:22.634776 28440 net.cpp:334] inception_4e/5x5_reduce -> inception_4e/5x5_reduce
I0510 00:28:22.634791 28440 net.cpp:105] Setting up inception_4e/5x5_reduce
I0510 00:28:22.634973 28440 net.cpp:112] Top shape: 32 32 14 14 (200704)
I0510 00:28:22.635005 28440 layer_factory.hpp:74] Creating layer inception_4e/relu_5x5_reduce
I0510 00:28:22.635025 28440 net.cpp:76] Creating Layer inception_4e/relu_5x5_reduce
I0510 00:28:22.635036 28440 net.cpp:372] inception_4e/relu_5x5_reduce <- inception_4e/5x5_reduce
I0510 00:28:22.635051 28440 net.cpp:323] inception_4e/relu_5x5_reduce -> inception_4e/5x5_reduce (in-place)
I0510 00:28:22.635068 28440 net.cpp:105] Setting up inception_4e/relu_5x5_reduce
I0510 00:28:22.635076 28440 net.cpp:112] Top shape: 32 32 14 14 (200704)
I0510 00:28:22.635083 28440 layer_factory.hpp:74] Creating layer inception_4e/5x5
I0510 00:28:22.635102 28440 net.cpp:76] Creating Layer inception_4e/5x5
I0510 00:28:22.635113 28440 net.cpp:372] inception_4e/5x5 <- inception_4e/5x5_reduce
I0510 00:28:22.635121 28440 net.cpp:334] inception_4e/5x5 -> inception_4e/5x5
I0510 00:28:22.635131 28440 net.cpp:105] Setting up inception_4e/5x5
I0510 00:28:22.636100 28440 net.cpp:112] Top shape: 32 128 14 14 (802816)
I0510 00:28:22.636116 28440 layer_factory.hpp:74] Creating layer inception_4e/relu_5x5
I0510 00:28:22.636127 28440 net.cpp:76] Creating Layer inception_4e/relu_5x5
I0510 00:28:22.636134 28440 net.cpp:372] inception_4e/relu_5x5 <- inception_4e/5x5
I0510 00:28:22.636142 28440 net.cpp:323] inception_4e/relu_5x5 -> inception_4e/5x5 (in-place)
I0510 00:28:22.636150 28440 net.cpp:105] Setting up inception_4e/relu_5x5
I0510 00:28:22.636155 28440 net.cpp:112] Top shape: 32 128 14 14 (802816)
I0510 00:28:22.636162 28440 layer_factory.hpp:74] Creating layer inception_4e/pool
I0510 00:28:22.636169 28440 net.cpp:76] Creating Layer inception_4e/pool
I0510 00:28:22.636175 28440 net.cpp:372] inception_4e/pool <- inception_4d/output_inception_4d/output_0_split_4
I0510 00:28:22.636184 28440 net.cpp:334] inception_4e/pool -> inception_4e/pool
I0510 00:28:22.636194 28440 net.cpp:105] Setting up inception_4e/pool
I0510 00:28:22.636203 28440 net.cpp:112] Top shape: 32 528 14 14 (3311616)
I0510 00:28:22.636209 28440 layer_factory.hpp:74] Creating layer inception_4e/pool_proj
I0510 00:28:22.636219 28440 net.cpp:76] Creating Layer inception_4e/pool_proj
I0510 00:28:22.636226 28440 net.cpp:372] inception_4e/pool_proj <- inception_4e/pool
I0510 00:28:22.636236 28440 net.cpp:334] inception_4e/pool_proj -> inception_4e/pool_proj
I0510 00:28:22.636246 28440 net.cpp:105] Setting up inception_4e/pool_proj
I0510 00:28:22.636880 28440 net.cpp:112] Top shape: 32 128 14 14 (802816)
I0510 00:28:22.636904 28440 layer_factory.hpp:74] Creating layer inception_4e/relu_pool_proj
I0510 00:28:22.636924 28440 net.cpp:76] Creating Layer inception_4e/relu_pool_proj
I0510 00:28:22.636936 28440 net.cpp:372] inception_4e/relu_pool_proj <- inception_4e/pool_proj
I0510 00:28:22.636946 28440 net.cpp:323] inception_4e/relu_pool_proj -> inception_4e/pool_proj (in-place)
I0510 00:28:22.636960 28440 net.cpp:105] Setting up inception_4e/relu_pool_proj
I0510 00:28:22.636971 28440 net.cpp:112] Top shape: 32 128 14 14 (802816)
I0510 00:28:22.636982 28440 layer_factory.hpp:74] Creating layer inception_4e/output
I0510 00:28:22.637002 28440 net.cpp:76] Creating Layer inception_4e/output
I0510 00:28:22.637015 28440 net.cpp:372] inception_4e/output <- inception_4e/1x1
I0510 00:28:22.637029 28440 net.cpp:372] inception_4e/output <- inception_4e/3x3
I0510 00:28:22.637042 28440 net.cpp:372] inception_4e/output <- inception_4e/5x5
I0510 00:28:22.637048 28440 net.cpp:372] inception_4e/output <- inception_4e/pool_proj
I0510 00:28:22.637058 28440 net.cpp:334] inception_4e/output -> inception_4e/output
I0510 00:28:22.637074 28440 net.cpp:105] Setting up inception_4e/output
I0510 00:28:22.637083 28440 net.cpp:112] Top shape: 32 832 14 14 (5218304)
I0510 00:28:22.637089 28440 layer_factory.hpp:74] Creating layer pool4/3x3_s2
I0510 00:28:22.637110 28440 net.cpp:76] Creating Layer pool4/3x3_s2
I0510 00:28:22.637145 28440 net.cpp:372] pool4/3x3_s2 <- inception_4e/output
I0510 00:28:22.637164 28440 net.cpp:334] pool4/3x3_s2 -> pool4/3x3_s2
I0510 00:28:22.637186 28440 net.cpp:105] Setting up pool4/3x3_s2
I0510 00:28:22.637199 28440 net.cpp:112] Top shape: 32 832 7 7 (1304576)
I0510 00:28:22.637210 28440 layer_factory.hpp:74] Creating layer pool4/3x3_s2_pool4/3x3_s2_0_split
I0510 00:28:22.637228 28440 net.cpp:76] Creating Layer pool4/3x3_s2_pool4/3x3_s2_0_split
I0510 00:28:22.637240 28440 net.cpp:372] pool4/3x3_s2_pool4/3x3_s2_0_split <- pool4/3x3_s2
I0510 00:28:22.637256 28440 net.cpp:334] pool4/3x3_s2_pool4/3x3_s2_0_split -> pool4/3x3_s2_pool4/3x3_s2_0_split_0
I0510 00:28:22.637289 28440 net.cpp:334] pool4/3x3_s2_pool4/3x3_s2_0_split -> pool4/3x3_s2_pool4/3x3_s2_0_split_1
I0510 00:28:22.637300 28440 net.cpp:334] pool4/3x3_s2_pool4/3x3_s2_0_split -> pool4/3x3_s2_pool4/3x3_s2_0_split_2
I0510 00:28:22.637310 28440 net.cpp:334] pool4/3x3_s2_pool4/3x3_s2_0_split -> pool4/3x3_s2_pool4/3x3_s2_0_split_3
I0510 00:28:22.637318 28440 net.cpp:105] Setting up pool4/3x3_s2_pool4/3x3_s2_0_split
I0510 00:28:22.637326 28440 net.cpp:112] Top shape: 32 832 7 7 (1304576)
I0510 00:28:22.637331 28440 net.cpp:112] Top shape: 32 832 7 7 (1304576)
I0510 00:28:22.637336 28440 net.cpp:112] Top shape: 32 832 7 7 (1304576)
I0510 00:28:22.637341 28440 net.cpp:112] Top shape: 32 832 7 7 (1304576)
I0510 00:28:22.637346 28440 layer_factory.hpp:74] Creating layer inception_5a/1x1
I0510 00:28:22.637356 28440 net.cpp:76] Creating Layer inception_5a/1x1
I0510 00:28:22.637362 28440 net.cpp:372] inception_5a/1x1 <- pool4/3x3_s2_pool4/3x3_s2_0_split_0
I0510 00:28:22.637372 28440 net.cpp:334] inception_5a/1x1 -> inception_5a/1x1
I0510 00:28:22.637382 28440 net.cpp:105] Setting up inception_5a/1x1
I0510 00:28:22.639372 28440 net.cpp:112] Top shape: 32 256 7 7 (401408)
I0510 00:28:22.639391 28440 layer_factory.hpp:74] Creating layer inception_5a/relu_1x1
I0510 00:28:22.639400 28440 net.cpp:76] Creating Layer inception_5a/relu_1x1
I0510 00:28:22.639431 28440 net.cpp:372] inception_5a/relu_1x1 <- inception_5a/1x1
I0510 00:28:22.639441 28440 net.cpp:323] inception_5a/relu_1x1 -> inception_5a/1x1 (in-place)
I0510 00:28:22.639449 28440 net.cpp:105] Setting up inception_5a/relu_1x1
I0510 00:28:22.639456 28440 net.cpp:112] Top shape: 32 256 7 7 (401408)
I0510 00:28:22.639461 28440 layer_factory.hpp:74] Creating layer inception_5a/3x3_reduce
I0510 00:28:22.639472 28440 net.cpp:76] Creating Layer inception_5a/3x3_reduce
I0510 00:28:22.639479 28440 net.cpp:372] inception_5a/3x3_reduce <- pool4/3x3_s2_pool4/3x3_s2_0_split_1
I0510 00:28:22.639490 28440 net.cpp:334] inception_5a/3x3_reduce -> inception_5a/3x3_reduce
I0510 00:28:22.639499 28440 net.cpp:105] Setting up inception_5a/3x3_reduce
I0510 00:28:22.640686 28440 net.cpp:112] Top shape: 32 160 7 7 (250880)
I0510 00:28:22.640702 28440 layer_factory.hpp:74] Creating layer inception_5a/relu_3x3_reduce
I0510 00:28:22.640710 28440 net.cpp:76] Creating Layer inception_5a/relu_3x3_reduce
I0510 00:28:22.640717 28440 net.cpp:372] inception_5a/relu_3x3_reduce <- inception_5a/3x3_reduce
I0510 00:28:22.640727 28440 net.cpp:323] inception_5a/relu_3x3_reduce -> inception_5a/3x3_reduce (in-place)
I0510 00:28:22.640735 28440 net.cpp:105] Setting up inception_5a/relu_3x3_reduce
I0510 00:28:22.640741 28440 net.cpp:112] Top shape: 32 160 7 7 (250880)
I0510 00:28:22.640748 28440 layer_factory.hpp:74] Creating layer inception_5a/3x3
I0510 00:28:22.640755 28440 net.cpp:76] Creating Layer inception_5a/3x3
I0510 00:28:22.640761 28440 net.cpp:372] inception_5a/3x3 <- inception_5a/3x3_reduce
I0510 00:28:22.640771 28440 net.cpp:334] inception_5a/3x3 -> inception_5a/3x3
I0510 00:28:22.640780 28440 net.cpp:105] Setting up inception_5a/3x3
I0510 00:28:22.644922 28440 net.cpp:112] Top shape: 32 320 7 7 (501760)
I0510 00:28:22.644949 28440 layer_factory.hpp:74] Creating layer inception_5a/relu_3x3
I0510 00:28:22.644961 28440 net.cpp:76] Creating Layer inception_5a/relu_3x3
I0510 00:28:22.644969 28440 net.cpp:372] inception_5a/relu_3x3 <- inception_5a/3x3
I0510 00:28:22.645010 28440 net.cpp:323] inception_5a/relu_3x3 -> inception_5a/3x3 (in-place)
I0510 00:28:22.645021 28440 net.cpp:105] Setting up inception_5a/relu_3x3
I0510 00:28:22.645028 28440 net.cpp:112] Top shape: 32 320 7 7 (501760)
I0510 00:28:22.645033 28440 layer_factory.hpp:74] Creating layer inception_5a/5x5_reduce
I0510 00:28:22.645043 28440 net.cpp:76] Creating Layer inception_5a/5x5_reduce
I0510 00:28:22.645051 28440 net.cpp:372] inception_5a/5x5_reduce <- pool4/3x3_s2_pool4/3x3_s2_0_split_2
I0510 00:28:22.645061 28440 net.cpp:334] inception_5a/5x5_reduce -> inception_5a/5x5_reduce
I0510 00:28:22.645072 28440 net.cpp:105] Setting up inception_5a/5x5_reduce
I0510 00:28:22.645323 28440 net.cpp:112] Top shape: 32 32 7 7 (50176)
I0510 00:28:22.645336 28440 layer_factory.hpp:74] Creating layer inception_5a/relu_5x5_reduce
I0510 00:28:22.645345 28440 net.cpp:76] Creating Layer inception_5a/relu_5x5_reduce
I0510 00:28:22.645354 28440 net.cpp:372] inception_5a/relu_5x5_reduce <- inception_5a/5x5_reduce
I0510 00:28:22.645360 28440 net.cpp:323] inception_5a/relu_5x5_reduce -> inception_5a/5x5_reduce (in-place)
I0510 00:28:22.645369 28440 net.cpp:105] Setting up inception_5a/relu_5x5_reduce
I0510 00:28:22.645375 28440 net.cpp:112] Top shape: 32 32 7 7 (50176)
I0510 00:28:22.645380 28440 layer_factory.hpp:74] Creating layer inception_5a/5x5
I0510 00:28:22.645388 28440 net.cpp:76] Creating Layer inception_5a/5x5
I0510 00:28:22.645393 28440 net.cpp:372] inception_5a/5x5 <- inception_5a/5x5_reduce
I0510 00:28:22.645403 28440 net.cpp:334] inception_5a/5x5 -> inception_5a/5x5
I0510 00:28:22.645413 28440 net.cpp:105] Setting up inception_5a/5x5
I0510 00:28:22.646286 28440 net.cpp:112] Top shape: 32 128 7 7 (200704)
I0510 00:28:22.646302 28440 layer_factory.hpp:74] Creating layer inception_5a/relu_5x5
I0510 00:28:22.646311 28440 net.cpp:76] Creating Layer inception_5a/relu_5x5
I0510 00:28:22.647065 28440 net.cpp:372] inception_5a/relu_5x5 <- inception_5a/5x5
I0510 00:28:22.647083 28440 net.cpp:323] inception_5a/relu_5x5 -> inception_5a/5x5 (in-place)
I0510 00:28:22.647094 28440 net.cpp:105] Setting up inception_5a/relu_5x5
I0510 00:28:22.647099 28440 net.cpp:112] Top shape: 32 128 7 7 (200704)
I0510 00:28:22.647105 28440 layer_factory.hpp:74] Creating layer inception_5a/pool
I0510 00:28:22.647114 28440 net.cpp:76] Creating Layer inception_5a/pool
I0510 00:28:22.647121 28440 net.cpp:372] inception_5a/pool <- pool4/3x3_s2_pool4/3x3_s2_0_split_3
I0510 00:28:22.647135 28440 net.cpp:334] inception_5a/pool -> inception_5a/pool
I0510 00:28:22.647167 28440 net.cpp:105] Setting up inception_5a/pool
I0510 00:28:22.647192 28440 net.cpp:112] Top shape: 32 832 7 7 (1304576)
I0510 00:28:22.647205 28440 layer_factory.hpp:74] Creating layer inception_5a/pool_proj
I0510 00:28:22.647223 28440 net.cpp:76] Creating Layer inception_5a/pool_proj
I0510 00:28:22.647233 28440 net.cpp:372] inception_5a/pool_proj <- inception_5a/pool
I0510 00:28:22.647245 28440 net.cpp:334] inception_5a/pool_proj -> inception_5a/pool_proj
I0510 00:28:22.647264 28440 net.cpp:105] Setting up inception_5a/pool_proj
I0510 00:28:22.648327 28440 net.cpp:112] Top shape: 32 128 7 7 (200704)
I0510 00:28:22.648346 28440 layer_factory.hpp:74] Creating layer inception_5a/relu_pool_proj
I0510 00:28:22.648358 28440 net.cpp:76] Creating Layer inception_5a/relu_pool_proj
I0510 00:28:22.648368 28440 net.cpp:372] inception_5a/relu_pool_proj <- inception_5a/pool_proj
I0510 00:28:22.648377 28440 net.cpp:323] inception_5a/relu_pool_proj -> inception_5a/pool_proj (in-place)
I0510 00:28:22.648386 28440 net.cpp:105] Setting up inception_5a/relu_pool_proj
I0510 00:28:22.648392 28440 net.cpp:112] Top shape: 32 128 7 7 (200704)
I0510 00:28:22.648397 28440 layer_factory.hpp:74] Creating layer inception_5a/output
I0510 00:28:22.648406 28440 net.cpp:76] Creating Layer inception_5a/output
I0510 00:28:22.648411 28440 net.cpp:372] inception_5a/output <- inception_5a/1x1
I0510 00:28:22.648418 28440 net.cpp:372] inception_5a/output <- inception_5a/3x3
I0510 00:28:22.648445 28440 net.cpp:372] inception_5a/output <- inception_5a/5x5
I0510 00:28:22.648453 28440 net.cpp:372] inception_5a/output <- inception_5a/pool_proj
I0510 00:28:22.648463 28440 net.cpp:334] inception_5a/output -> inception_5a/output
I0510 00:28:22.648473 28440 net.cpp:105] Setting up inception_5a/output
I0510 00:28:22.648479 28440 net.cpp:112] Top shape: 32 832 7 7 (1304576)
I0510 00:28:22.648484 28440 layer_factory.hpp:74] Creating layer inception_5a/output_inception_5a/output_0_split
I0510 00:28:22.648494 28440 net.cpp:76] Creating Layer inception_5a/output_inception_5a/output_0_split
I0510 00:28:22.648499 28440 net.cpp:372] inception_5a/output_inception_5a/output_0_split <- inception_5a/output
I0510 00:28:22.648506 28440 net.cpp:334] inception_5a/output_inception_5a/output_0_split -> inception_5a/output_inception_5a/output_0_split_0
I0510 00:28:22.648515 28440 net.cpp:334] inception_5a/output_inception_5a/output_0_split -> inception_5a/output_inception_5a/output_0_split_1
I0510 00:28:22.648525 28440 net.cpp:334] inception_5a/output_inception_5a/output_0_split -> inception_5a/output_inception_5a/output_0_split_2
I0510 00:28:22.648536 28440 net.cpp:334] inception_5a/output_inception_5a/output_0_split -> inception_5a/output_inception_5a/output_0_split_3
I0510 00:28:22.648545 28440 net.cpp:105] Setting up inception_5a/output_inception_5a/output_0_split
I0510 00:28:22.648552 28440 net.cpp:112] Top shape: 32 832 7 7 (1304576)
I0510 00:28:22.648557 28440 net.cpp:112] Top shape: 32 832 7 7 (1304576)
I0510 00:28:22.648562 28440 net.cpp:112] Top shape: 32 832 7 7 (1304576)
I0510 00:28:22.648567 28440 net.cpp:112] Top shape: 32 832 7 7 (1304576)
I0510 00:28:22.648572 28440 layer_factory.hpp:74] Creating layer inception_5b/1x1
I0510 00:28:22.648583 28440 net.cpp:76] Creating Layer inception_5b/1x1
I0510 00:28:22.648589 28440 net.cpp:372] inception_5b/1x1 <- inception_5a/output_inception_5a/output_0_split_0
I0510 00:28:22.648600 28440 net.cpp:334] inception_5b/1x1 -> inception_5b/1x1
I0510 00:28:22.648609 28440 net.cpp:105] Setting up inception_5b/1x1
I0510 00:28:22.651278 28440 net.cpp:112] Top shape: 32 384 7 7 (602112)
I0510 00:28:22.651301 28440 layer_factory.hpp:74] Creating layer inception_5b/relu_1x1
I0510 00:28:22.651312 28440 net.cpp:76] Creating Layer inception_5b/relu_1x1
I0510 00:28:22.651319 28440 net.cpp:372] inception_5b/relu_1x1 <- inception_5b/1x1
I0510 00:28:22.651330 28440 net.cpp:323] inception_5b/relu_1x1 -> inception_5b/1x1 (in-place)
I0510 00:28:22.651340 28440 net.cpp:105] Setting up inception_5b/relu_1x1
I0510 00:28:22.651345 28440 net.cpp:112] Top shape: 32 384 7 7 (602112)
I0510 00:28:22.651350 28440 layer_factory.hpp:74] Creating layer inception_5b/3x3_reduce
I0510 00:28:22.651360 28440 net.cpp:76] Creating Layer inception_5b/3x3_reduce
I0510 00:28:22.651366 28440 net.cpp:372] inception_5b/3x3_reduce <- inception_5a/output_inception_5a/output_0_split_1
I0510 00:28:22.651376 28440 net.cpp:334] inception_5b/3x3_reduce -> inception_5b/3x3_reduce
I0510 00:28:22.651386 28440 net.cpp:105] Setting up inception_5b/3x3_reduce
I0510 00:28:22.652743 28440 net.cpp:112] Top shape: 32 192 7 7 (301056)
I0510 00:28:22.652762 28440 layer_factory.hpp:74] Creating layer inception_5b/relu_3x3_reduce
I0510 00:28:22.652772 28440 net.cpp:76] Creating Layer inception_5b/relu_3x3_reduce
I0510 00:28:22.652778 28440 net.cpp:372] inception_5b/relu_3x3_reduce <- inception_5b/3x3_reduce
I0510 00:28:22.652786 28440 net.cpp:323] inception_5b/relu_3x3_reduce -> inception_5b/3x3_reduce (in-place)
I0510 00:28:22.652794 28440 net.cpp:105] Setting up inception_5b/relu_3x3_reduce
I0510 00:28:22.652801 28440 net.cpp:112] Top shape: 32 192 7 7 (301056)
I0510 00:28:22.652806 28440 layer_factory.hpp:74] Creating layer inception_5b/3x3
I0510 00:28:22.652814 28440 net.cpp:76] Creating Layer inception_5b/3x3
I0510 00:28:22.652820 28440 net.cpp:372] inception_5b/3x3 <- inception_5b/3x3_reduce
I0510 00:28:22.652832 28440 net.cpp:334] inception_5b/3x3 -> inception_5b/3x3
I0510 00:28:22.652840 28440 net.cpp:105] Setting up inception_5b/3x3
I0510 00:28:22.658830 28440 net.cpp:112] Top shape: 32 384 7 7 (602112)
I0510 00:28:22.658864 28440 layer_factory.hpp:74] Creating layer inception_5b/relu_3x3
I0510 00:28:22.658877 28440 net.cpp:76] Creating Layer inception_5b/relu_3x3
I0510 00:28:22.658885 28440 net.cpp:372] inception_5b/relu_3x3 <- inception_5b/3x3
I0510 00:28:22.658897 28440 net.cpp:323] inception_5b/relu_3x3 -> inception_5b/3x3 (in-place)
I0510 00:28:22.658908 28440 net.cpp:105] Setting up inception_5b/relu_3x3
I0510 00:28:22.658915 28440 net.cpp:112] Top shape: 32 384 7 7 (602112)
I0510 00:28:22.658921 28440 layer_factory.hpp:74] Creating layer inception_5b/5x5_reduce
I0510 00:28:22.658931 28440 net.cpp:76] Creating Layer inception_5b/5x5_reduce
I0510 00:28:22.658936 28440 net.cpp:372] inception_5b/5x5_reduce <- inception_5a/output_inception_5a/output_0_split_2
I0510 00:28:22.658951 28440 net.cpp:334] inception_5b/5x5_reduce -> inception_5b/5x5_reduce
I0510 00:28:22.658960 28440 net.cpp:105] Setting up inception_5b/5x5_reduce
I0510 00:28:22.659325 28440 net.cpp:112] Top shape: 32 48 7 7 (75264)
I0510 00:28:22.659339 28440 layer_factory.hpp:74] Creating layer inception_5b/relu_5x5_reduce
I0510 00:28:22.659349 28440 net.cpp:76] Creating Layer inception_5b/relu_5x5_reduce
I0510 00:28:22.659356 28440 net.cpp:372] inception_5b/relu_5x5_reduce <- inception_5b/5x5_reduce
I0510 00:28:22.659364 28440 net.cpp:323] inception_5b/relu_5x5_reduce -> inception_5b/5x5_reduce (in-place)
I0510 00:28:22.659371 28440 net.cpp:105] Setting up inception_5b/relu_5x5_reduce
I0510 00:28:22.659378 28440 net.cpp:112] Top shape: 32 48 7 7 (75264)
I0510 00:28:22.659382 28440 layer_factory.hpp:74] Creating layer inception_5b/5x5
I0510 00:28:22.659394 28440 net.cpp:76] Creating Layer inception_5b/5x5
I0510 00:28:22.659399 28440 net.cpp:372] inception_5b/5x5 <- inception_5b/5x5_reduce
I0510 00:28:22.659407 28440 net.cpp:334] inception_5b/5x5 -> inception_5b/5x5
I0510 00:28:22.659415 28440 net.cpp:105] Setting up inception_5b/5x5
I0510 00:28:22.660706 28440 net.cpp:112] Top shape: 32 128 7 7 (200704)
I0510 00:28:22.660719 28440 layer_factory.hpp:74] Creating layer inception_5b/relu_5x5
I0510 00:28:22.660727 28440 net.cpp:76] Creating Layer inception_5b/relu_5x5
I0510 00:28:22.660733 28440 net.cpp:372] inception_5b/relu_5x5 <- inception_5b/5x5
I0510 00:28:22.660740 28440 net.cpp:323] inception_5b/relu_5x5 -> inception_5b/5x5 (in-place)
I0510 00:28:22.660750 28440 net.cpp:105] Setting up inception_5b/relu_5x5
I0510 00:28:22.660756 28440 net.cpp:112] Top shape: 32 128 7 7 (200704)
I0510 00:28:22.660761 28440 layer_factory.hpp:74] Creating layer inception_5b/pool
I0510 00:28:22.660770 28440 net.cpp:76] Creating Layer inception_5b/pool
I0510 00:28:22.660776 28440 net.cpp:372] inception_5b/pool <- inception_5a/output_inception_5a/output_0_split_3
I0510 00:28:22.660784 28440 net.cpp:334] inception_5b/pool -> inception_5b/pool
I0510 00:28:22.660792 28440 net.cpp:105] Setting up inception_5b/pool
I0510 00:28:22.660800 28440 net.cpp:112] Top shape: 32 832 7 7 (1304576)
I0510 00:28:22.660806 28440 layer_factory.hpp:74] Creating layer inception_5b/pool_proj
I0510 00:28:22.660819 28440 net.cpp:76] Creating Layer inception_5b/pool_proj
I0510 00:28:22.660825 28440 net.cpp:372] inception_5b/pool_proj <- inception_5b/pool
I0510 00:28:22.660832 28440 net.cpp:334] inception_5b/pool_proj -> inception_5b/pool_proj
I0510 00:28:22.660841 28440 net.cpp:105] Setting up inception_5b/pool_proj
I0510 00:28:22.661741 28440 net.cpp:112] Top shape: 32 128 7 7 (200704)
I0510 00:28:22.661756 28440 layer_factory.hpp:74] Creating layer inception_5b/relu_pool_proj
I0510 00:28:22.661764 28440 net.cpp:76] Creating Layer inception_5b/relu_pool_proj
I0510 00:28:22.661770 28440 net.cpp:372] inception_5b/relu_pool_proj <- inception_5b/pool_proj
I0510 00:28:22.661777 28440 net.cpp:323] inception_5b/relu_pool_proj -> inception_5b/pool_proj (in-place)
I0510 00:28:22.661785 28440 net.cpp:105] Setting up inception_5b/relu_pool_proj
I0510 00:28:22.661790 28440 net.cpp:112] Top shape: 32 128 7 7 (200704)
I0510 00:28:22.661797 28440 layer_factory.hpp:74] Creating layer inception_5b/output
I0510 00:28:22.661837 28440 net.cpp:76] Creating Layer inception_5b/output
I0510 00:28:22.661845 28440 net.cpp:372] inception_5b/output <- inception_5b/1x1
I0510 00:28:22.661852 28440 net.cpp:372] inception_5b/output <- inception_5b/3x3
I0510 00:28:22.661859 28440 net.cpp:372] inception_5b/output <- inception_5b/5x5
I0510 00:28:22.661864 28440 net.cpp:372] inception_5b/output <- inception_5b/pool_proj
I0510 00:28:22.661872 28440 net.cpp:334] inception_5b/output -> inception_5b/output
I0510 00:28:22.661881 28440 net.cpp:105] Setting up inception_5b/output
I0510 00:28:22.661887 28440 net.cpp:112] Top shape: 32 1024 7 7 (1605632)
I0510 00:28:22.661893 28440 layer_factory.hpp:74] Creating layer pool5/7x7_s1
I0510 00:28:22.661903 28440 net.cpp:76] Creating Layer pool5/7x7_s1
I0510 00:28:22.661909 28440 net.cpp:372] pool5/7x7_s1 <- inception_5b/output
I0510 00:28:22.661918 28440 net.cpp:334] pool5/7x7_s1 -> pool5/7x7_s1
I0510 00:28:22.661927 28440 net.cpp:105] Setting up pool5/7x7_s1
I0510 00:28:22.661933 28440 net.cpp:112] Top shape: 32 1024 1 1 (32768)
I0510 00:28:22.661939 28440 layer_factory.hpp:74] Creating layer pool5/drop_7x7_s1
I0510 00:28:22.661947 28440 net.cpp:76] Creating Layer pool5/drop_7x7_s1
I0510 00:28:22.661953 28440 net.cpp:372] pool5/drop_7x7_s1 <- pool5/7x7_s1
I0510 00:28:22.661960 28440 net.cpp:323] pool5/drop_7x7_s1 -> pool5/7x7_s1 (in-place)
I0510 00:28:22.661968 28440 net.cpp:105] Setting up pool5/drop_7x7_s1
I0510 00:28:22.661975 28440 net.cpp:112] Top shape: 32 1024 1 1 (32768)
I0510 00:28:22.661980 28440 layer_factory.hpp:74] Creating layer loss3/classifier
I0510 00:28:22.661993 28440 net.cpp:76] Creating Layer loss3/classifier
I0510 00:28:22.661999 28440 net.cpp:372] loss3/classifier <- pool5/7x7_s1
I0510 00:28:22.662009 28440 net.cpp:334] loss3/classifier -> loss3/classifier
I0510 00:28:22.662019 28440 net.cpp:105] Setting up loss3/classifier
I0510 00:28:22.662050 28440 net.cpp:112] Top shape: 32 2 1 1 (64)
I0510 00:28:22.662061 28440 layer_factory.hpp:74] Creating layer loss3/classifier_loss3/classifier_0_split
I0510 00:28:22.662070 28440 net.cpp:76] Creating Layer loss3/classifier_loss3/classifier_0_split
I0510 00:28:22.662075 28440 net.cpp:372] loss3/classifier_loss3/classifier_0_split <- loss3/classifier
I0510 00:28:22.662082 28440 net.cpp:334] loss3/classifier_loss3/classifier_0_split -> loss3/classifier_loss3/classifier_0_split_0
I0510 00:28:22.662093 28440 net.cpp:334] loss3/classifier_loss3/classifier_0_split -> loss3/classifier_loss3/classifier_0_split_1
I0510 00:28:22.662102 28440 net.cpp:105] Setting up loss3/classifier_loss3/classifier_0_split
I0510 00:28:22.662109 28440 net.cpp:112] Top shape: 32 2 1 1 (64)
I0510 00:28:22.662137 28440 net.cpp:112] Top shape: 32 2 1 1 (64)
I0510 00:28:22.662143 28440 layer_factory.hpp:74] Creating layer loss3/loss3
I0510 00:28:22.662153 28440 net.cpp:76] Creating Layer loss3/loss3
I0510 00:28:22.662158 28440 net.cpp:372] loss3/loss3 <- loss3/classifier_loss3/classifier_0_split_0
I0510 00:28:22.662165 28440 net.cpp:372] loss3/loss3 <- label_data_1_split_4
I0510 00:28:22.662173 28440 net.cpp:334] loss3/loss3 -> loss3/loss3
I0510 00:28:22.662181 28440 net.cpp:105] Setting up loss3/loss3
I0510 00:28:22.662192 28440 layer_factory.hpp:74] Creating layer loss3/loss3
I0510 00:28:22.662209 28440 net.cpp:112] Top shape: 1 1 1 1 (1)
I0510 00:28:22.662214 28440 net.cpp:118]     with loss weight 1
I0510 00:28:22.662232 28440 layer_factory.hpp:74] Creating layer loss3/top-1
I0510 00:28:22.662243 28440 net.cpp:76] Creating Layer loss3/top-1
I0510 00:28:22.662250 28440 net.cpp:372] loss3/top-1 <- loss3/classifier_loss3/classifier_0_split_1
I0510 00:28:22.662256 28440 net.cpp:372] loss3/top-1 <- label_data_1_split_5
I0510 00:28:22.662263 28440 net.cpp:334] loss3/top-1 -> loss3/top-1
I0510 00:28:22.662284 28440 net.cpp:105] Setting up loss3/top-1
I0510 00:28:22.662292 28440 net.cpp:112] Top shape: 1 1 1 1 (1)
I0510 00:28:22.662297 28440 net.cpp:165] loss3/top-1 does not need backward computation.
I0510 00:28:22.662302 28440 net.cpp:163] loss3/loss3 needs backward computation.
I0510 00:28:22.662327 28440 net.cpp:163] loss3/classifier_loss3/classifier_0_split needs backward computation.
I0510 00:28:22.662333 28440 net.cpp:163] loss3/classifier needs backward computation.
I0510 00:28:22.662338 28440 net.cpp:163] pool5/drop_7x7_s1 needs backward computation.
…
