…
I0511 07:26:52.416509 13558 net.cpp:253] The NetState phase (0) differed from the phase (1) specified by a rule in layer loss3/top-1
I0511 07:26:52.417798 13558 net.cpp:42] Initializing net from parameters: 
name: "GoogleNet"
state {
  phase: TRAIN
}
layer {
  name: "data"
  type: "Data"
  top: "data"
  top: "label"
  include {
    phase: TRAIN
  }
  transform_param {
    mirror: true
    crop_size: 224
    mean_value: 104
    mean_value: 117
    mean_value: 123
  }
  data_param {
    source: "train_lmdb"
    batch_size: 32
    backend: LMDB
  }
}
layer {
  name: "conv1/7x7_s2"
  type: "Convolution"
  bottom: "data"
  top: "conv1/7x7_s2"
  param {
    lr_mult: 1
    decay_mult: 1
  }
  param {
    lr_mult: 2
    decay_mult: 0
  }
  convolution_param {
    num_output: 64
    pad: 3
    kernel_size: 7
    stride: 2
    weight_filler {
      type: "xavier"
      std: 0.1
    }
    bias_filler {
      type: "constant"
      value: 0.2
    }
  }
}
layer {
  name: "conv1/relu_7x7"
  type: "ReLU"
  bottom: "conv1/7x7_s2"
  top: "conv1/7x7_s2"
}
layer {
  name: "pool1/3x3_s2"
  type: "Pooling"
  bottom: "conv1/7x7_s2"
  top: "pool1/3x3_s2"
  pooling_param {
    pool: MAX
    kernel_size: 3
    stride: 2
  }
}
layer {
  name: "pool1/norm1"
  type: "LRN"
  bottom: "pool1/3x3_s2"
  top: "pool1/norm1"
  lrn_param {
    local_size: 5
    alpha: 0.0001
    beta: 0.75
  }
}
layer {
  name: "conv2/3x3_reduce"
  type: "Convolution"
  bottom: "pool1/norm1"
  top: "conv2/3x3_reduce"
  param {
    lr_mult: 1
    decay_mult: 1
  }
  param {
    lr_mult: 2
    decay_mult: 0
  }
  convolution_param {
    num_output: 64
    kernel_size: 1
    weight_filler {
      type: "xavier"
      std: 0.1
    }
    bias_filler {
      type: "constant"
      value: 0.2
    }
  }
}
layer {
  name: "conv2/relu_3x3_reduce"
  type: "ReLU"
  bottom: "conv2/3x3_reduce"
  top: "conv2/3x3_reduce"
}
layer {
  name: "conv2/3x3"
  type: "Convolution"
  bottom: "conv2/3x3_reduce"
  top: "conv2/3x3"
  param {
    lr_mult: 1
    decay_mult: 1
  }
  param {
    lr_mult: 2
    decay_mult: 0
  }
  convolution_param {
    num_output: 192
    pad: 1
    kernel_size: 3
    weight_filler {
      type: "xavier"
      std: 0.03
    }
    bias_filler {
      type: "constant"
      value: 0.2
    }
  }
}
layer {
  name: "conv2/relu_3x3"
  type: "ReLU"
  bottom: "conv2/3x3"
  top: "conv2/3x3"
}
layer {
  name: "conv2/norm2"
  type: "LRN"
  bottom: "conv2/3x3"
  top: "conv2/norm2"
  lrn_param {
    local_size: 5
    alpha: 0.0001
    beta: 0.75
  }
}
layer {
  name: "pool2/3x3_s2"
  type: "Pooling"
  bottom: "conv2/norm2"
  top: "pool2/3x3_s2"
  pooling_param {
    pool: MAX
    kernel_size: 3
    stride: 2
  }
}
layer {
  name: "inception_3a/1x1"
  type: "Convolution"
  bottom: "pool2/3x3_s2"
  top: "inception_3a/1x1"
  param {
    lr_mult: 1
    decay_mult: 1
  }
  param {
    lr_mult: 2
    decay_mult: 0
  }
  convolution_param {
    num_output: 64
    kernel_size: 1
    weight_filler {
      type: "xavier"
      std: 0.03
    }
    bias_filler {
      type: "constant"
      value: 0.2
    }
  }
}
layer {
  name: "inception_3a/relu_1x1"
  type: "ReLU"
  bottom: "inception_3a/1x1"
  top: "inception_3a/1x1"
}
layer {
  name: "inception_3a/3x3_reduce"
  type: "Convolution"
  bottom: "pool2/3x3_s2"
  top: "inception_3a/3x3_reduce"
  param {
    lr_mult: 1
    decay_mult: 1
  }
  param {
    lr_mult: 2
    decay_mult: 0
  }
  convolution_param {
    num_output: 96
    kernel_size: 1
    weight_filler {
      type: "xavier"
      std: 0.09
    }
    bias_filler {
      type: "constant"
      value: 0.2
    }
  }
}
layer {
  name: "inception_3a/relu_3x3_reduce"
  type: "ReLU"
  bottom: "inception_3a/3x3_reduce"
  top: "inception_3a/3x3_reduce"
}
layer {
  name: "inception_3a/3x3"
  type: "Convolution"
  bottom: "inception_3a/3x3_reduce"
  top: "inception_3a/3x3"
  param {
    lr_mult: 1
    decay_mult: 1
  }
  param {
    lr_mult: 2
    decay_mult: 0
  }
  convolution_param {
    num_output: 128
    pad: 1
    kernel_size: 3
    weight_filler {
      type: "xavier"
      std: 0.03
    }
    bias_filler {
      type: "constant"
      value: 0.2
    }
  }
}
layer {
  name: "inception_3a/relu_3x3"
  type: "ReLU"
  bottom: "inception_3a/3x3"
  top: "inception_3a/3x3"
}
layer {
  name: "inception_3a/5x5_reduce"
  type: "Convolution"
  bottom: "pool2/3x3_s2"
  top: "inception_3a/5x5_reduce"
  param {
    lr_mult: 1
    decay_mult: 1
  }
  param {
    lr_mult: 2
    decay_mult: 0
  }
  convolution_param {
    num_output: 16
    kernel_size: 1
    weight_filler {
      type: "xavier"
      std: 0.2
    }
    bias_filler {
      type: "constant"
      value: 0.2
    }
  }
}
layer {
  name: "inception_3a/relu_5x5_reduce"
  type: "ReLU"
  bottom: "inception_3a/5x5_reduce"
  top: "inception_3a/5x5_reduce"
}
layer {
  name: "inception_3a/5x5"
  type: "Convolution"
  bottom: "inception_3a/5x5_reduce"
  top: "inception_3a/5x5"
  param {
    lr_mult: 1
    decay_mult: 1
  }
  param {
    lr_mult: 2
    decay_mult: 0
  }
  convolution_param {
    num_output: 32
    pad: 2
    kernel_size: 5
    weight_filler {
      type: "xavier"
      std: 0.03
    }
    bias_filler {
      type: "constant"
      value: 0.2
    }
  }
}
layer {
  name: "inception_3a/relu_5x5"
  type: "ReLU"
  bottom: "inception_3a/5x5"
  top: "inception_3a/5x5"
}
layer {
  name: "inception_3a/pool"
  type: "Pooling"
  bottom: "pool2/3x3_s2"
  top: "inception_3a/pool"
  pooling_param {
    pool: MAX
    kernel_size: 3
    stride: 1
    pad: 1
  }
}
layer {
  name: "inception_3a/pool_proj"
  type: "Convolution"
  bottom: "inception_3a/pool"
  top: "inception_3a/pool_proj"
  param {
    lr_mult: 1
    decay_mult: 1
  }
  param {
    lr_mult: 2
    decay_mult: 0
  }
  convolution_param {
    num_output: 32
    kernel_size: 1
    weight_filler {
      type: "xavier"
      std: 0.1
    }
    bias_filler {
      type: "constant"
      value: 0.2
    }
  }
}
layer {
  name: "inception_3a/relu_pool_proj"
  type: "ReLU"
  bottom: "inception_3a/pool_proj"
  top: "inception_3a/pool_proj"
}
layer {
  name: "inception_3a/output"
  type: "Concat"
  bottom: "inception_3a/1x1"
  bottom: "inception_3a/3x3"
  bottom: "inception_3a/5x5"
  bottom: "inception_3a/pool_proj"
  top: "inception_3a/output"
}
layer {
  name: "inception_3b/1x1"
  type: "Convolution"
  bottom: "inception_3a/output"
  top: "inception_3b/1x1"
  param {
    lr_mult: 1
    decay_mult: 1
  }
  param {
    lr_mult: 2
    decay_mult: 0
  }
  convolution_param {
    num_output: 128
    kernel_size: 1
    weight_filler {
      type: "xavier"
      std: 0.03
    }
    bias_filler {
      type: "constant"
      value: 0.2
    }
  }
}
layer {
  name: "inception_3b/relu_1x1"
  type: "ReLU"
  bottom: "inception_3b/1x1"
  top: "inception_3b/1x1"
}
layer {
  name: "inception_3b/3x3_reduce"
  type: "Convolution"
  bottom: "inception_3a/output"
  top: "inception_3b/3x3_reduce"
  param {
    lr_mult: 1
    decay_mult: 1
  }
  param {
    lr_mult: 2
    decay_mult: 0
  }
  convolution_param {
    num_output: 128
    kernel_size: 1
    weight_filler {
      type: "xavier"
      std: 0.09
    }
    bias_filler {
      type: "constant"
      value: 0.2
    }
  }
}
layer {
  name: "inception_3b/relu_3x3_reduce"
  type: "ReLU"
  bottom: "inception_3b/3x3_reduce"
  top: "inception_3b/3x3_reduce"
}
layer {
  name: "inception_3b/3x3"
  type: "Convolution"
  bottom: "inception_3b/3x3_reduce"
  top: "inception_3b/3x3"
  param {
    lr_mult: 1
    decay_mult: 1
  }
  param {
    lr_mult: 2
    decay_mult: 0
  }
  convolution_param {
    num_output: 192
    pad: 1
    kernel_size: 3
    weight_filler {
      type: "xavier"
      std: 0.03
    }
    bias_filler {
      type: "constant"
      value: 0.2
    }
  }
}
layer {
  name: "inception_3b/relu_3x3"
  type: "ReLU"
  bottom: "inception_3b/3x3"
  top: "inception_3b/3x3"
}
layer {
  name: "inception_3b/5x5_reduce"
  type: "Convolution"
  bottom: "inception_3a/output"
  top: "inception_3b/5x5_reduce"
  param {
    lr_mult: 1
    decay_mult: 1
  }
  param {
    lr_mult: 2
    decay_mult: 0
  }
  convolution_param {
    num_output: 32
    kernel_size: 1
    weight_filler {
      type: "xavier"
      std: 0.2
    }
    bias_filler {
      type: "constant"
      value: 0.2
    }
  }
}
layer {
  name: "inception_3b/relu_5x5_reduce"
  type: "ReLU"
  bottom: "inception_3b/5x5_reduce"
  top: "inception_3b/5x5_reduce"
}
layer {
  name: "inception_3b/5x5"
  type: "Convolution"
  bottom: "inception_3b/5x5_reduce"
  top: "inception_3b/5x5"
  param {
    lr_mult: 1
    decay_mult: 1
  }
  param {
    lr_mult: 2
    decay_mult: 0
  }
  convolution_param {
    num_output: 96
    pad: 2
    kernel_size: 5
    weight_filler {
      type: "xavier"
      std: 0.03
    }
    bias_filler {
      type: "constant"
      value: 0.2
    }
  }
}
layer {
  name: "inception_3b/relu_5x5"
  type: "ReLU"
  bottom: "inception_3b/5x5"
  top: "inception_3b/5x5"
}
layer {
  name: "inception_3b/pool"
  type: "Pooling"
  bottom: "inception_3a/output"
  top: "inception_3b/pool"
  pooling_param {
    pool: MAX
    kernel_size: 3
    stride: 1
    pad: 1
  }
}
layer {
  name: "inception_3b/pool_proj"
  type: "Convolution"
  bottom: "inception_3b/pool"
  top: "inception_3b/pool_proj"
  param {
    lr_mult: 1
    decay_mult: 1
  }
  param {
    lr_mult: 2
    decay_mult: 0
  }
  convolution_param {
    num_output: 64
    kernel_size: 1
    weight_filler {
      type: "xavier"
      std: 0.1
    }
    bias_filler {
      type: "constant"
      value: 0.2
    }
  }
}
layer {
  name: "inception_3b/relu_pool_proj"
  type: "ReLU"
  bottom: "inception_3b/pool_proj"
  top: "inception_3b/pool_proj"
}
layer {
  name: "inception_3b/output"
  type: "Concat"
  bottom: "inception_3b/1x1"
  bottom: "inception_3b/3x3"
  bottom: "inception_3b/5x5"
  bottom: "inception_3b/pool_proj"
  top: "inception_3b/output"
}
layer {
  name: "pool3/3x3_s2"
  type: "Pooling"
  bottom: "inception_3b/output"
  top: "pool3/3x3_s2"
  pooling_param {
    pool: MAX
    kernel_size: 3
    stride: 2
  }
}
layer {
  name: "inception_4a/1x1"
  type: "Convolution"
  bottom: "pool3/3x3_s2"
  top: "inception_4a/1x1"
  param {
    lr_mult: 1
    decay_mult: 1
  }
  param {
    lr_mult: 2
    decay_mult: 0
  }
  convolution_param {
    num_output: 192
    kernel_size: 1
    weight_filler {
      type: "xavier"
      std: 0.03
    }
    bias_filler {
      type: "constant"
      value: 0.2
    }
  }
}
layer {
  name: "inception_4a/relu_1x1"
  type: "ReLU"
  bottom: "inception_4a/1x1"
  top: "inception_4a/1x1"
}
layer {
  name: "inception_4a/3x3_reduce"
  type: "Convolution"
  bottom: "pool3/3x3_s2"
  top: "inception_4a/3x3_reduce"
  param {
    lr_mult: 1
    decay_mult: 1
  }
  param {
    lr_mult: 2
    decay_mult: 0
  }
  convolution_param {
    num_output: 96
    kernel_size: 1
    weight_filler {
      type: "xavier"
      std: 0.09
    }
    bias_filler {
      type: "constant"
      value: 0.2
    }
  }
}
layer {
  name: "inception_4a/relu_3x3_reduce"
  type: "ReLU"
  bottom: "inception_4a/3x3_reduce"
  top: "inception_4a/3x3_reduce"
}
layer {
  name: "inception_4a/3x3"
  type: "Convolution"
  bottom: "inception_4a/3x3_reduce"
  top: "inception_4a/3x3"
  param {
    lr_mult: 1
    decay_mult: 1
  }
  param {
    lr_mult: 2
    decay_mult: 0
  }
  convolution_param {
    num_output: 208
    pad: 1
    kernel_size: 3
    weight_filler {
      type: "xavier"
      std: 0.03
    }
    bias_filler {
      type: "constant"
      value: 0.2
    }
  }
}
layer {
  name: "inception_4a/relu_3x3"
  type: "ReLU"
  bottom: "inception_4a/3x3"
  top: "inception_4a/3x3"
}
layer {
  name: "inception_4a/5x5_reduce"
  type: "Convolution"
  bottom: "pool3/3x3_s2"
  top: "inception_4a/5x5_reduce"
  param {
    lr_mult: 1
    decay_mult: 1
  }
  param {
    lr_mult: 2
    decay_mult: 0
  }
  convolution_param {
    num_output: 16
    kernel_size: 1
    weight_filler {
      type: "xavier"
      std: 0.2
    }
    bias_filler {
      type: "constant"
      value: 0.2
    }
  }
}
layer {
  name: "inception_4a/relu_5x5_reduce"
  type: "ReLU"
  bottom: "inception_4a/5x5_reduce"
  top: "inception_4a/5x5_reduce"
}
layer {
  name: "inception_4a/5x5"
  type: "Convolution"
  bottom: "inception_4a/5x5_reduce"
  top: "inception_4a/5x5"
  param {
    lr_mult: 1
    decay_mult: 1
  }
  param {
    lr_mult: 2
    decay_mult: 0
  }
  convolution_param {
    num_output: 48
    pad: 2
    kernel_size: 5
    weight_filler {
      type: "xavier"
      std: 0.03
    }
    bias_filler {
      type: "constant"
      value: 0.2
    }
  }
}
layer {
  name: "inception_4a/relu_5x5"
  type: "ReLU"
  bottom: "inception_4a/5x5"
  top: "inception_4a/5x5"
}
layer {
  name: "inception_4a/pool"
  type: "Pooling"
  bottom: "pool3/3x3_s2"
  top: "inception_4a/pool"
  pooling_param {
    pool: MAX
    kernel_size: 3
    stride: 1
    pad: 1
  }
}
layer {
  name: "inception_4a/pool_proj"
  type: "Convolution"
  bottom: "inception_4a/pool"
  top: "inception_4a/pool_proj"
  param {
    lr_mult: 1
    decay_mult: 1
  }
  param {
    lr_mult: 2
    decay_mult: 0
  }
  convolution_param {
    num_output: 64
    kernel_size: 1
    weight_filler {
      type: "xavier"
      std: 0.1
    }
    bias_filler {
      type: "constant"
      value: 0.2
    }
  }
}
layer {
  name: "inception_4a/relu_pool_proj"
  type: "ReLU"
  bottom: "inception_4a/pool_proj"
  top: "inception_4a/pool_proj"
}
layer {
  name: "inception_4a/output"
  type: "Concat"
  bottom: "inception_4a/1x1"
  bottom: "inception_4a/3x3"
  bottom: "inception_4a/5x5"
  bottom: "inception_4a/pool_proj"
  top: "inception_4a/output"
}
layer {
  name: "loss1/ave_pool"
  type: "Pooling"
  bottom: "inception_4a/output"
  top: "loss1/ave_pool"
  pooling_param {
    pool: AVE
    kernel_size: 5
    stride: 3
  }
}
layer {
  name: "loss1/conv"
  type: "Convolution"
  bottom: "loss1/ave_pool"
  top: "loss1/conv"
  param {
    lr_mult: 1
    decay_mult: 1
  }
  param {
    lr_mult: 2
    decay_mult: 0
  }
  convolution_param {
    num_output: 128
    kernel_size: 1
    weight_filler {
      type: "xavier"
      std: 0.08
    }
    bias_filler {
      type: "constant"
      value: 0.2
    }
  }
}
layer {
  name: "loss1/relu_conv"
  type: "ReLU"
  bottom: "loss1/conv"
  top: "loss1/conv"
}
layer {
  name: "loss1/fc"
  type: "InnerProduct"
  bottom: "loss1/conv"
  top: "loss1/fc"
  param {
    lr_mult: 1
    decay_mult: 1
  }
  param {
    lr_mult: 2
    decay_mult: 0
  }
  inner_product_param {
    num_output: 1024
    weight_filler {
      type: "xavier"
      std: 0.02
    }
    bias_filler {
      type: "constant"
      value: 0.2
    }
  }
}
layer {
  name: "loss1/relu_fc"
  type: "ReLU"
  bottom: "loss1/fc"
  top: "loss1/fc"
}
layer {
  name: "loss1/drop_fc"
  type: "Dropout"
  bottom: "loss1/fc"
  top: "loss1/fc"
  dropout_param {
    dropout_ratio: 0.7
  }
}
layer {
  name: "loss1/classifier"
  type: "InnerProduct"
  bottom: "loss1/fc"
  top: "loss1/classifier"
  param {
    lr_mult: 1
    decay_mult: 1
  }
  param {
    lr_mult: 2
    decay_mult: 0
  }
  inner_product_param {
    num_output: 2
    weight_filler {
      type: "xavier"
      std: 0.0009765625
    }
    bias_filler {
      type: "constant"
      value: 0
    }
  }
}
layer {
  name: "loss1/loss"
  type: "SoftmaxWithLoss"
  bottom: "loss1/classifier"
  bottom: "label"
  top: "loss1/loss1"
  loss_weight: 0.3
}
layer {
  name: "inception_4b/1x1"
  type: "Convolution"
  bottom: "inception_4a/output"
  top: "inception_4b/1x1"
  param {
    lr_mult: 1
    decay_mult: 1
  }
  param {
    lr_mult: 2
    decay_mult: 0
  }
  convolution_param {
    num_output: 160
    kernel_size: 1
    weight_filler {
      type: "xavier"
      std: 0.03
    }
    bias_filler {
      type: "constant"
      value: 0.2
    }
  }
}
layer {
  name: "inception_4b/relu_1x1"
  type: "ReLU"
  bottom: "inception_4b/1x1"
  top: "inception_4b/1x1"
}
layer {
  name: "inception_4b/3x3_reduce"
  type: "Convolution"
  bottom: "inception_4a/output"
  top: "inception_4b/3x3_reduce"
  param {
    lr_mult: 1
    decay_mult: 1
  }
  param {
    lr_mult: 2
    decay_mult: 0
  }
  convolution_param {
    num_output: 112
    kernel_size: 1
    weight_filler {
      type: "xavier"
      std: 0.09
    }
    bias_filler {
      type: "constant"
      value: 0.2
    }
  }
}
layer {
  name: "inception_4b/relu_3x3_reduce"
  type: "ReLU"
  bottom: "inception_4b/3x3_reduce"
  top: "inception_4b/3x3_reduce"
}
layer {
  name: "inception_4b/3x3"
  type: "Convolution"
  bottom: "inception_4b/3x3_reduce"
  top: "inception_4b/3x3"
  param {
    lr_mult: 1
    decay_mult: 1
  }
  param {
    lr_mult: 2
    decay_mult: 0
  }
  convolution_param {
    num_output: 224
    pad: 1
    kernel_size: 3
    weight_filler {
      type: "xavier"
      std: 0.03
    }
    bias_filler {
      type: "constant"
      value: 0.2
    }
  }
}
layer {
  name: "inception_4b/relu_3x3"
  type: "ReLU"
  bottom: "inception_4b/3x3"
  top: "inception_4b/3x3"
}
layer {
  name: "inception_4b/5x5_reduce"
  type: "Convolution"
  bottom: "inception_4a/output"
  top: "inception_4b/5x5_reduce"
  param {
    lr_mult: 1
    decay_mult: 1
  }
  param {
    lr_mult: 2
    decay_mult: 0
  }
  convolution_param {
    num_output: 24
    kernel_size: 1
    weight_filler {
      type: "xavier"
      std: 0.2
    }
    bias_filler {
      type: "constant"
      value: 0.2
    }
  }
}
layer {
  name: "inception_4b/relu_5x5_reduce"
  type: "ReLU"
  bottom: "inception_4b/5x5_reduce"
  top: "inception_4b/5x5_reduce"
}
layer {
  name: "inception_4b/5x5"
  type: "Convolution"
  bottom: "inception_4b/5x5_reduce"
  top: "inception_4b/5x5"
  param {
    lr_mult: 1
    decay_mult: 1
  }
  param {
    lr_mult: 2
    decay_mult: 0
  }
  convolution_param {
    num_output: 64
    pad: 2
    kernel_size: 5
    weight_filler {
      type: "xavier"
      std: 0.03
    }
    bias_filler {
      type: "constant"
      value: 0.2
    }
  }
}
layer {
  name: "inception_4b/relu_5x5"
  type: "ReLU"
  bottom: "inception_4b/5x5"
  top: "inception_4b/5x5"
}
layer {
  name: "inception_4b/pool"
  type: "Pooling"
  bottom: "inception_4a/output"
  top: "inception_4b/pool"
  pooling_param {
    pool: MAX
    kernel_size: 3
    stride: 1
    pad: 1
  }
}
layer {
  name: "inception_4b/pool_proj"
  type: "Convolution"
  bottom: "inception_4b/pool"
  top: "inception_4b/pool_proj"
  param {
    lr_mult: 1
    decay_mult: 1
  }
  param {
    lr_mult: 2
    decay_mult: 0
  }
  convolution_param {
    num_output: 64
    kernel_size: 1
    weight_filler {
      type: "xavier"
      std: 0.1
    }
    bias_filler {
      type: "constant"
      value: 0.2
    }
  }
}
layer {
  name: "inception_4b/relu_pool_proj"
  type: "ReLU"
  bottom: "inception_4b/pool_proj"
  top: "inception_4b/pool_proj"
}
layer {
  name: "inception_4b/output"
  type: "Concat"
  bottom: "inception_4b/1x1"
  bottom: "inception_4b/3x3"
  bottom: "inception_4b/5x5"
  bottom: "inception_4b/pool_proj"
  top: "inception_4b/output"
}
layer {
  name: "inception_4c/1x1"
  type: "Convolution"
  bottom: "inception_4b/output"
  top: "inception_4c/1x1"
  param {
    lr_mult: 1
    decay_mult: 1
  }
  param {
    lr_mult: 2
    decay_mult: 0
  }
  convolution_param {
    num_output: 128
    kernel_size: 1
    weight_filler {
      type: "xavier"
      std: 0.03
    }
    bias_filler {
      type: "constant"
      value: 0.2
    }
  }
}
layer {
  name: "inception_4c/relu_1x1"
  type: "ReLU"
  bottom: "inception_4c/1x1"
  top: "inception_4c/1x1"
}
layer {
  name: "inception_4c/3x3_reduce"
  type: "Convolution"
  bottom: "inception_4b/output"
  top: "inception_4c/3x3_reduce"
  param {
    lr_mult: 1
    decay_mult: 1
  }
  param {
    lr_mult: 2
    decay_mult: 0
  }
  convolution_param {
    num_output: 128
    kernel_size: 1
    weight_filler {
      type: "xavier"
      std: 0.09
    }
    bias_filler {
      type: "constant"
      value: 0.2
    }
  }
}
layer {
  name: "inception_4c/relu_3x3_reduce"
  type: "ReLU"
  bottom: "inception_4c/3x3_reduce"
  top: "inception_4c/3x3_reduce"
}
layer {
  name: "inception_4c/3x3"
  type: "Convolution"
  bottom: "inception_4c/3x3_reduce"
  top: "inception_4c/3x3"
  param {
    lr_mult: 1
    decay_mult: 1
  }
  param {
    lr_mult: 2
    decay_mult: 0
  }
  convolution_param {
    num_output: 256
    pad: 1
    kernel_size: 3
    weight_filler {
      type: "xavier"
      std: 0.03
    }
    bias_filler {
      type: "constant"
      value: 0.2
    }
  }
}
layer {
  name: "inception_4c/relu_3x3"
  type: "ReLU"
  bottom: "inception_4c/3x3"
  top: "inception_4c/3x3"
}
layer {
  name: "inception_4c/5x5_reduce"
  type: "Convolution"
  bottom: "inception_4b/output"
  top: "inception_4c/5x5_reduce"
  param {
    lr_mult: 1
    decay_mult: 1
  }
  param {
    lr_mult: 2
    decay_mult: 0
  }
  convolution_param {
    num_output: 24
    kernel_size: 1
    weight_filler {
      type: "xavier"
      std: 0.2
    }
    bias_filler {
      type: "constant"
      value: 0.2
    }
  }
}
layer {
  name: "inception_4c/relu_5x5_reduce"
  type: "ReLU"
  bottom: "inception_4c/5x5_reduce"
  top: "inception_4c/5x5_reduce"
}
layer {
  name: "inception_4c/5x5"
  type: "Convolution"
  bottom: "inception_4c/5x5_reduce"
  top: "inception_4c/5x5"
  param {
    lr_mult: 1
    decay_mult: 1
  }
  param {
    lr_mult: 2
    decay_mult: 0
  }
  convolution_param {
    num_output: 64
    pad: 2
    kernel_size: 5
    weight_filler {
      type: "xavier"
      std: 0.03
    }
    bias_filler {
      type: "constant"
      value: 0.2
    }
  }
}
layer {
  name: "inception_4c/relu_5x5"
  type: "ReLU"
  bottom: "inception_4c/5x5"
  top: "inception_4c/5x5"
}
layer {
  name: "inception_4c/pool"
  type: "Pooling"
  bottom: "inception_4b/output"
  top: "inception_4c/pool"
  pooling_param {
    pool: MAX
    kernel_size: 3
    stride: 1
    pad: 1
  }
}
layer {
  name: "inception_4c/pool_proj"
  type: "Convolution"
  bottom: "inception_4c/pool"
  top: "inception_4c/pool_proj"
  param {
    lr_mult: 1
    decay_mult: 1
  }
  param {
    lr_mult: 2
    decay_mult: 0
  }
  convolution_param {
    num_output: 64
    kernel_size: 1
    weight_filler {
      type: "xavier"
      std: 0.1
    }
    bias_filler {
      type: "constant"
      value: 0.2
    }
  }
}
layer {
  name: "inception_4c/relu_pool_proj"
  type: "ReLU"
  bottom: "inception_4c/pool_proj"
  top: "inception_4c/pool_proj"
}
layer {
  name: "inception_4c/output"
  type: "Concat"
  bottom: "inception_4c/1x1"
  bottom: "inception_4c/3x3"
  bottom: "inception_4c/5x5"
  bottom: "inception_4c/pool_proj"
  top: "inception_4c/output"
}
layer {
  name: "inception_4d/1x1"
  type: "Convolution"
  bottom: "inception_4c/output"
  top: "inception_4d/1x1"
  param {
    lr_mult: 1
    decay_mult: 1
  }
  param {
    lr_mult: 2
    decay_mult: 0
  }
  convolution_param {
    num_output: 112
    kernel_size: 1
    weight_filler {
      type: "xavier"
      std: 0.03
    }
    bias_filler {
      type: "constant"
      value: 0.2
    }
  }
}
layer {
  name: "inception_4d/relu_1x1"
  type: "ReLU"
  bottom: "inception_4d/1x1"
  top: "inception_4d/1x1"
}
layer {
  name: "inception_4d/3x3_reduce"
  type: "Convolution"
  bottom: "inception_4c/output"
  top: "inception_4d/3x3_reduce"
  param {
    lr_mult: 1
    decay_mult: 1
  }
  param {
    lr_mult: 2
    decay_mult: 0
  }
  convolution_param {
    num_output: 144
    kernel_size: 1
    weight_filler {
      type: "xavier"
      std: 0.09
    }
    bias_filler {
      type: "constant"
      value: 0.2
    }
  }
}
layer {
  name: "inception_4d/relu_3x3_reduce"
  type: "ReLU"
  bottom: "inception_4d/3x3_reduce"
  top: "inception_4d/3x3_reduce"
}
layer {
  name: "inception_4d/3x3"
  type: "Convolution"
  bottom: "inception_4d/3x3_reduce"
  top: "inception_4d/3x3"
  param {
    lr_mult: 1
    decay_mult: 1
  }
  param {
    lr_mult: 2
    decay_mult: 0
  }
  convolution_param {
    num_output: 288
    pad: 1
    kernel_size: 3
    weight_filler {
      type: "xavier"
      std: 0.03
    }
    bias_filler {
      type: "constant"
      value: 0.2
    }
  }
}
layer {
  name: "inception_4d/relu_3x3"
  type: "ReLU"
  bottom: "inception_4d/3x3"
  top: "inception_4d/3x3"
}
layer {
  name: "inception_4d/5x5_reduce"
  type: "Convolution"
  bottom: "inception_4c/output"
  top: "inception_4d/5x5_reduce"
  param {
    lr_mult: 1
    decay_mult: 1
  }
  param {
    lr_mult: 2
    decay_mult: 0
  }
  convolution_param {
    num_output: 32
    kernel_size: 1
    weight_filler {
      type: "xavier"
      std: 0.2
    }
    bias_filler {
      type: "constant"
      value: 0.2
    }
  }
}
layer {
  name: "inception_4d/relu_5x5_reduce"
  type: "ReLU"
  bottom: "inception_4d/5x5_reduce"
  top: "inception_4d/5x5_reduce"
}
layer {
  name: "inception_4d/5x5"
  type: "Convolution"
  bottom: "inception_4d/5x5_reduce"
  top: "inception_4d/5x5"
  param {
    lr_mult: 1
    decay_mult: 1
  }
  param {
    lr_mult: 2
    decay_mult: 0
  }
  convolution_param {
    num_output: 64
    pad: 2
    kernel_size: 5
    weight_filler {
      type: "xavier"
      std: 0.03
    }
    bias_filler {
      type: "constant"
      value: 0.2
    }
  }
}
layer {
  name: "inception_4d/relu_5x5"
  type: "ReLU"
  bottom: "inception_4d/5x5"
  top: "inception_4d/5x5"
}
layer {
  name: "inception_4d/pool"
  type: "Pooling"
  bottom: "inception_4c/output"
  top: "inception_4d/pool"
  pooling_param {
    pool: MAX
    kernel_size: 3
    stride: 1
    pad: 1
  }
}
layer {
  name: "inception_4d/pool_proj"
  type: "Convolution"
  bottom: "inception_4d/pool"
  top: "inception_4d/pool_proj"
  param {
    lr_mult: 1
    decay_mult: 1
  }
  param {
    lr_mult: 2
    decay_mult: 0
  }
  convolution_param {
    num_output: 64
    kernel_size: 1
    weight_filler {
      type: "xavier"
      std: 0.1
    }
    bias_filler {
      type: "constant"
      value: 0.2
    }
  }
}
layer {
  name: "inception_4d/relu_pool_proj"
  type: "ReLU"
  bottom: "inception_4d/pool_proj"
  top: "inception_4d/pool_proj"
}
layer {
  name: "inception_4d/output"
  type: "Concat"
  bottom: "inception_4d/1x1"
  bottom: "inception_4d/3x3"
  bottom: "inception_4d/5x5"
  bottom: "inception_4d/pool_proj"
  top: "inception_4d/output"
}
layer {
  name: "loss2/ave_pool"
  type: "Pooling"
  bottom: "inception_4d/output"
  top: "loss2/ave_pool"
  pooling_param {
    pool: AVE
    kernel_size: 5
    stride: 3
  }
}
layer {
  name: "loss2/conv"
  type: "Convolution"
  bottom: "loss2/ave_pool"
  top: "loss2/conv"
  param {
    lr_mult: 1
    decay_mult: 1
  }
  param {
    lr_mult: 2
    decay_mult: 0
  }
  convolution_param {
    num_output: 128
    kernel_size: 1
    weight_filler {
      type: "xavier"
      std: 0.08
    }
    bias_filler {
      type: "constant"
      value: 0.2
    }
  }
}
layer {
  name: "loss2/relu_conv"
  type: "ReLU"
  bottom: "loss2/conv"
  top: "loss2/conv"
}
layer {
  name: "loss2/fc"
  type: "InnerProduct"
  bottom: "loss2/conv"
  top: "loss2/fc"
  param {
    lr_mult: 1
    decay_mult: 1
  }
  param {
    lr_mult: 2
    decay_mult: 0
  }
  inner_product_param {
    num_output: 1024
    weight_filler {
      type: "xavier"
      std: 0.02
    }
    bias_filler {
      type: "constant"
      value: 0.2
    }
  }
}
layer {
  name: "loss2/relu_fc"
  type: "ReLU"
  bottom: "loss2/fc"
  top: "loss2/fc"
}
layer {
  name: "loss2/drop_fc"
  type: "Dropout"
  bottom: "loss2/fc"
  top: "loss2/fc"
  dropout_param {
    dropout_ratio: 0.7
  }
}
layer {
  name: "loss2/classifier"
  type: "InnerProduct"
  bottom: "loss2/fc"
  top: "loss2/classifier"
  param {
    lr_mult: 1
    decay_mult: 1
  }
  param {
    lr_mult: 2
    decay_mult: 0
  }
  inner_product_param {
    num_output: 2
    weight_filler {
      type: "xavier"
      std: 0.0009765625
    }
    bias_filler {
      type: "constant"
      value: 0
    }
  }
}
layer {
  name: "loss2/loss"
  type: "SoftmaxWithLoss"
  bottom: "loss2/classifier"
  bottom: "label"
  top: "loss2/loss1"
  loss_weight: 0.3
}
layer {
  name: "inception_4e/1x1"
  type: "Convolution"
  bottom: "inception_4d/output"
  top: "inception_4e/1x1"
  param {
    lr_mult: 1
    decay_mult: 1
  }
  param {
    lr_mult: 2
    decay_mult: 0
  }
  convolution_param {
    num_output: 256
    kernel_size: 1
    weight_filler {
      type: "xavier"
      std: 0.03
    }
    bias_filler {
      type: "constant"
      value: 0.2
    }
  }
}
layer {
  name: "inception_4e/relu_1x1"
  type: "ReLU"
  bottom: "inception_4e/1x1"
  top: "inception_4e/1x1"
}
layer {
  name: "inception_4e/3x3_reduce"
  type: "Convolution"
  bottom: "inception_4d/output"
  top: "inception_4e/3x3_reduce"
  param {
    lr_mult: 1
    decay_mult: 1
  }
  param {
    lr_mult: 2
    decay_mult: 0
  }
  convolution_param {
    num_output: 160
    kernel_size: 1
    weight_filler {
      type: "xavier"
      std: 0.09
    }
    bias_filler {
      type: "constant"
      value: 0.2
    }
  }
}
layer {
  name: "inception_4e/relu_3x3_reduce"
  type: "ReLU"
  bottom: "inception_4e/3x3_reduce"
  top: "inception_4e/3x3_reduce"
}
layer {
  name: "inception_4e/3x3"
  type: "Convolution"
  bottom: "inception_4e/3x3_reduce"
  top: "inception_4e/3x3"
  param {
    lr_mult: 1
    decay_mult: 1
  }
  param {
    lr_mult: 2
    decay_mult: 0
  }
  convolution_param {
    num_output: 320
    pad: 1
    kernel_size: 3
    weight_filler {
      type: "xavier"
      std: 0.03
    }
    bias_filler {
      type: "constant"
      value: 0.2
    }
  }
}
layer {
  name: "inception_4e/relu_3x3"
  type: "ReLU"
  bottom: "inception_4e/3x3"
  top: "inception_4e/3x3"
}
layer {
  name: "inception_4e/5x5_reduce"
  type: "Convolution"
  bottom: "inception_4d/output"
  top: "inception_4e/5x5_reduce"
  param {
    lr_mult: 1
    decay_mult: 1
  }
  param {
    lr_mult: 2
    decay_mult: 0
  }
  convolution_param {
    num_output: 32
    kernel_size: 1
    weight_filler {
      type: "xavier"
      std: 0.2
    }
    bias_filler {
      type: "constant"
      value: 0.2
    }
  }
}
layer {
  name: "inception_4e/relu_5x5_reduce"
  type: "ReLU"
  bottom: "
I0511 07:26:52.423475 13558 layer_factory.hpp:74] Creating layer data
I0511 07:26:52.423502 13558 net.cpp:76] Creating Layer data
I0511 07:26:52.423513 13558 net.cpp:334] data -> data
I0511 07:26:52.423547 13558 net.cpp:334] data -> label
I0511 07:26:52.423565 13558 net.cpp:105] Setting up data
I0511 07:26:52.423658 13558 db.cpp:34] Opened lmdb train_lmdb
I0511 07:26:52.423945 13558 data_layer.cpp:67] output data size: 32,3,224,224
I0511 07:26:52.430843 13558 net.cpp:112] Top shape: 32 3 224 224 (4816896)
I0511 07:26:52.430860 13558 net.cpp:112] Top shape: 32 1 1 1 (32)
I0511 07:26:52.430869 13558 layer_factory.hpp:74] Creating layer label_data_1_split
I0511 07:26:52.430884 13558 net.cpp:76] Creating Layer label_data_1_split
I0511 07:26:52.430892 13558 net.cpp:372] label_data_1_split <- label
I0511 07:26:52.430917 13558 net.cpp:334] label_data_1_split -> label_data_1_split_0
I0511 07:26:52.430934 13558 net.cpp:334] label_data_1_split -> label_data_1_split_1
I0511 07:26:52.430943 13558 net.cpp:334] label_data_1_split -> label_data_1_split_2
I0511 07:26:52.430953 13558 net.cpp:105] Setting up label_data_1_split
I0511 07:26:52.430961 13558 net.cpp:112] Top shape: 32 1 1 1 (32)
I0511 07:26:52.430966 13558 net.cpp:112] Top shape: 32 1 1 1 (32)
I0511 07:26:52.430971 13558 net.cpp:112] Top shape: 32 1 1 1 (32)
I0511 07:26:52.430977 13558 layer_factory.hpp:74] Creating layer conv1/7x7_s2
I0511 07:26:52.430991 13558 net.cpp:76] Creating Layer conv1/7x7_s2
I0511 07:26:52.430997 13558 net.cpp:372] conv1/7x7_s2 <- data
I0511 07:26:52.431005 13558 net.cpp:334] conv1/7x7_s2 -> conv1/7x7_s2
I0511 07:26:52.431016 13558 net.cpp:105] Setting up conv1/7x7_s2
I0511 07:26:52.431138 13558 net.cpp:112] Top shape: 32 64 112 112 (25690112)
I0511 07:26:52.431177 13558 layer_factory.hpp:74] Creating layer conv1/relu_7x7
I0511 07:26:52.431187 13558 net.cpp:76] Creating Layer conv1/relu_7x7
I0511 07:26:52.431192 13558 net.cpp:372] conv1/relu_7x7 <- conv1/7x7_s2
I0511 07:26:52.431200 13558 net.cpp:323] conv1/relu_7x7 -> conv1/7x7_s2 (in-place)
I0511 07:26:52.431208 13558 net.cpp:105] Setting up conv1/relu_7x7
I0511 07:26:52.431216 13558 net.cpp:112] Top shape: 32 64 112 112 (25690112)
I0511 07:26:52.431222 13558 layer_factory.hpp:74] Creating layer pool1/3x3_s2
I0511 07:26:52.431231 13558 net.cpp:76] Creating Layer pool1/3x3_s2
I0511 07:26:52.431236 13558 net.cpp:372] pool1/3x3_s2 <- conv1/7x7_s2
I0511 07:26:52.431243 13558 net.cpp:334] pool1/3x3_s2 -> pool1/3x3_s2
I0511 07:26:52.431252 13558 net.cpp:105] Setting up pool1/3x3_s2
I0511 07:26:52.431267 13558 net.cpp:112] Top shape: 32 64 56 56 (6422528)
I0511 07:26:52.431290 13558 layer_factory.hpp:74] Creating layer pool1/norm1
I0511 07:26:52.431301 13558 net.cpp:76] Creating Layer pool1/norm1
I0511 07:26:52.431308 13558 net.cpp:372] pool1/norm1 <- pool1/3x3_s2
I0511 07:26:52.431315 13558 net.cpp:334] pool1/norm1 -> pool1/norm1
I0511 07:26:52.431324 13558 net.cpp:105] Setting up pool1/norm1
I0511 07:26:52.431331 13558 net.cpp:112] Top shape: 32 64 56 56 (6422528)
I0511 07:26:52.431337 13558 layer_factory.hpp:74] Creating layer conv2/3x3_reduce
I0511 07:26:52.431345 13558 net.cpp:76] Creating Layer conv2/3x3_reduce
I0511 07:26:52.431351 13558 net.cpp:372] conv2/3x3_reduce <- pool1/norm1
I0511 07:26:52.431359 13558 net.cpp:334] conv2/3x3_reduce -> conv2/3x3_reduce
I0511 07:26:52.431368 13558 net.cpp:105] Setting up conv2/3x3_reduce
I0511 07:26:52.431413 13558 net.cpp:112] Top shape: 32 64 56 56 (6422528)
I0511 07:26:52.431426 13558 layer_factory.hpp:74] Creating layer conv2/relu_3x3_reduce
I0511 07:26:52.431433 13558 net.cpp:76] Creating Layer conv2/relu_3x3_reduce
I0511 07:26:52.431439 13558 net.cpp:372] conv2/relu_3x3_reduce <- conv2/3x3_reduce
I0511 07:26:52.431447 13558 net.cpp:323] conv2/relu_3x3_reduce -> conv2/3x3_reduce (in-place)
I0511 07:26:52.431453 13558 net.cpp:105] Setting up conv2/relu_3x3_reduce
I0511 07:26:52.431459 13558 net.cpp:112] Top shape: 32 64 56 56 (6422528)
I0511 07:26:52.431464 13558 layer_factory.hpp:74] Creating layer conv2/3x3
I0511 07:26:52.431473 13558 net.cpp:76] Creating Layer conv2/3x3
I0511 07:26:52.431478 13558 net.cpp:372] conv2/3x3 <- conv2/3x3_reduce
I0511 07:26:52.431486 13558 net.cpp:334] conv2/3x3 -> conv2/3x3
I0511 07:26:52.431494 13558 net.cpp:105] Setting up conv2/3x3
I0511 07:26:52.432507 13558 net.cpp:112] Top shape: 32 192 56 56 (19267584)
I0511 07:26:52.432533 13558 layer_factory.hpp:74] Creating layer conv2/relu_3x3
I0511 07:26:52.432543 13558 net.cpp:76] Creating Layer conv2/relu_3x3
I0511 07:26:52.432548 13558 net.cpp:372] conv2/relu_3x3 <- conv2/3x3
I0511 07:26:52.432556 13558 net.cpp:323] conv2/relu_3x3 -> conv2/3x3 (in-place)
I0511 07:26:52.432564 13558 net.cpp:105] Setting up conv2/relu_3x3
I0511 07:26:52.432570 13558 net.cpp:112] Top shape: 32 192 56 56 (19267584)
I0511 07:26:52.432580 13558 layer_factory.hpp:74] Creating layer conv2/norm2
I0511 07:26:52.432595 13558 net.cpp:76] Creating Layer conv2/norm2
I0511 07:26:52.432601 13558 net.cpp:372] conv2/norm2 <- conv2/3x3
I0511 07:26:52.432610 13558 net.cpp:334] conv2/norm2 -> conv2/norm2
I0511 07:26:52.432617 13558 net.cpp:105] Setting up conv2/norm2
I0511 07:26:52.432624 13558 net.cpp:112] Top shape: 32 192 56 56 (19267584)
I0511 07:26:52.432629 13558 layer_factory.hpp:74] Creating layer pool2/3x3_s2
I0511 07:26:52.432639 13558 net.cpp:76] Creating Layer pool2/3x3_s2
I0511 07:26:52.432644 13558 net.cpp:372] pool2/3x3_s2 <- conv2/norm2
I0511 07:26:52.432651 13558 net.cpp:334] pool2/3x3_s2 -> pool2/3x3_s2
I0511 07:26:52.432659 13558 net.cpp:105] Setting up pool2/3x3_s2
I0511 07:26:52.432667 13558 net.cpp:112] Top shape: 32 192 28 28 (4816896)
I0511 07:26:52.432672 13558 layer_factory.hpp:74] Creating layer pool2/3x3_s2_pool2/3x3_s2_0_split
I0511 07:26:52.432678 13558 net.cpp:76] Creating Layer pool2/3x3_s2_pool2/3x3_s2_0_split
I0511 07:26:52.432703 13558 net.cpp:372] pool2/3x3_s2_pool2/3x3_s2_0_split <- pool2/3x3_s2
I0511 07:26:52.432771 13558 net.cpp:334] pool2/3x3_s2_pool2/3x3_s2_0_split -> pool2/3x3_s2_pool2/3x3_s2_0_split_0
I0511 07:26:52.432798 13558 net.cpp:334] pool2/3x3_s2_pool2/3x3_s2_0_split -> pool2/3x3_s2_pool2/3x3_s2_0_split_1
I0511 07:26:52.432808 13558 net.cpp:334] pool2/3x3_s2_pool2/3x3_s2_0_split -> pool2/3x3_s2_pool2/3x3_s2_0_split_2
I0511 07:26:52.432817 13558 net.cpp:334] pool2/3x3_s2_pool2/3x3_s2_0_split -> pool2/3x3_s2_pool2/3x3_s2_0_split_3
I0511 07:26:52.432826 13558 net.cpp:105] Setting up pool2/3x3_s2_pool2/3x3_s2_0_split
I0511 07:26:52.432832 13558 net.cpp:112] Top shape: 32 192 28 28 (4816896)
I0511 07:26:52.432837 13558 net.cpp:112] Top shape: 32 192 28 28 (4816896)
I0511 07:26:52.432842 13558 net.cpp:112] Top shape: 32 192 28 28 (4816896)
I0511 07:26:52.432847 13558 net.cpp:112] Top shape: 32 192 28 28 (4816896)
I0511 07:26:52.432852 13558 layer_factory.hpp:74] Creating layer inception_3a/1x1
I0511 07:26:52.432868 13558 net.cpp:76] Creating Layer inception_3a/1x1
I0511 07:26:52.432873 13558 net.cpp:372] inception_3a/1x1 <- pool2/3x3_s2_pool2/3x3_s2_0_split_0
I0511 07:26:52.432883 13558 net.cpp:334] inception_3a/1x1 -> inception_3a/1x1
I0511 07:26:52.432893 13558 net.cpp:105] Setting up inception_3a/1x1
I0511 07:26:52.433049 13558 net.cpp:112] Top shape: 32 64 28 28 (1605632)
I0511 07:26:52.433065 13558 layer_factory.hpp:74] Creating layer inception_3a/relu_1x1
I0511 07:26:52.433076 13558 net.cpp:76] Creating Layer inception_3a/relu_1x1
I0511 07:26:52.433082 13558 net.cpp:372] inception_3a/relu_1x1 <- inception_3a/1x1
I0511 07:26:52.433089 13558 net.cpp:323] inception_3a/relu_1x1 -> inception_3a/1x1 (in-place)
I0511 07:26:52.433097 13558 net.cpp:105] Setting up inception_3a/relu_1x1
I0511 07:26:52.433102 13558 net.cpp:112] Top shape: 32 64 28 28 (1605632)
I0511 07:26:52.433109 13558 layer_factory.hpp:74] Creating layer inception_3a/3x3_reduce
I0511 07:26:52.433120 13558 net.cpp:76] Creating Layer inception_3a/3x3_reduce
I0511 07:26:52.433125 13558 net.cpp:372] inception_3a/3x3_reduce <- pool2/3x3_s2_pool2/3x3_s2_0_split_1
I0511 07:26:52.433132 13558 net.cpp:334] inception_3a/3x3_reduce -> inception_3a/3x3_reduce
I0511 07:26:52.433141 13558 net.cpp:105] Setting up inception_3a/3x3_reduce
I0511 07:26:52.433353 13558 net.cpp:112] Top shape: 32 96 28 28 (2408448)
I0511 07:26:52.433372 13558 layer_factory.hpp:74] Creating layer inception_3a/relu_3x3_reduce
I0511 07:26:52.433384 13558 net.cpp:76] Creating Layer inception_3a/relu_3x3_reduce
I0511 07:26:52.433390 13558 net.cpp:372] inception_3a/relu_3x3_reduce <- inception_3a/3x3_reduce
I0511 07:26:52.433398 13558 net.cpp:323] inception_3a/relu_3x3_reduce -> inception_3a/3x3_reduce (in-place)
I0511 07:26:52.433406 13558 net.cpp:105] Setting up inception_3a/relu_3x3_reduce
I0511 07:26:52.433411 13558 net.cpp:112] Top shape: 32 96 28 28 (2408448)
I0511 07:26:52.433416 13558 layer_factory.hpp:74] Creating layer inception_3a/3x3
I0511 07:26:52.433429 13558 net.cpp:76] Creating Layer inception_3a/3x3
I0511 07:26:52.433434 13558 net.cpp:372] inception_3a/3x3 <- inception_3a/3x3_reduce
I0511 07:26:52.433441 13558 net.cpp:334] inception_3a/3x3 -> inception_3a/3x3
I0511 07:26:52.433450 13558 net.cpp:105] Setting up inception_3a/3x3
I0511 07:26:52.435194 13558 net.cpp:112] Top shape: 32 128 28 28 (3211264)
I0511 07:26:52.435212 13558 layer_factory.hpp:74] Creating layer inception_3a/relu_3x3
I0511 07:26:52.435223 13558 net.cpp:76] Creating Layer inception_3a/relu_3x3
I0511 07:26:52.435230 13558 net.cpp:372] inception_3a/relu_3x3 <- inception_3a/3x3
I0511 07:26:52.435237 13558 net.cpp:323] inception_3a/relu_3x3 -> inception_3a/3x3 (in-place)
I0511 07:26:52.435245 13558 net.cpp:105] Setting up inception_3a/relu_3x3
I0511 07:26:52.435251 13558 net.cpp:112] Top shape: 32 128 28 28 (3211264)
I0511 07:26:52.435256 13558 layer_factory.hpp:74] Creating layer inception_3a/5x5_reduce
I0511 07:26:52.435266 13558 net.cpp:76] Creating Layer inception_3a/5x5_reduce
I0511 07:26:52.435303 13558 net.cpp:372] inception_3a/5x5_reduce <- pool2/3x3_s2_pool2/3x3_s2_0_split_2
I0511 07:26:52.435314 13558 net.cpp:334] inception_3a/5x5_reduce -> inception_3a/5x5_reduce
I0511 07:26:52.435324 13558 net.cpp:105] Setting up inception_3a/5x5_reduce
I0511 07:26:52.435367 13558 net.cpp:112] Top shape: 32 16 28 28 (401408)
I0511 07:26:52.435379 13558 layer_factory.hpp:74] Creating layer inception_3a/relu_5x5_reduce
I0511 07:26:52.435385 13558 net.cpp:76] Creating Layer inception_3a/relu_5x5_reduce
I0511 07:26:52.435391 13558 net.cpp:372] inception_3a/relu_5x5_reduce <- inception_3a/5x5_reduce
I0511 07:26:52.435398 13558 net.cpp:323] inception_3a/relu_5x5_reduce -> inception_3a/5x5_reduce (in-place)
I0511 07:26:52.435406 13558 net.cpp:105] Setting up inception_3a/relu_5x5_reduce
I0511 07:26:52.435411 13558 net.cpp:112] Top shape: 32 16 28 28 (401408)
I0511 07:26:52.435416 13558 layer_factory.hpp:74] Creating layer inception_3a/5x5
I0511 07:26:52.435431 13558 net.cpp:76] Creating Layer inception_3a/5x5
I0511 07:26:52.435438 13558 net.cpp:372] inception_3a/5x5 <- inception_3a/5x5_reduce
I0511 07:26:52.435448 13558 net.cpp:334] inception_3a/5x5 -> inception_3a/5x5
I0511 07:26:52.435457 13558 net.cpp:105] Setting up inception_3a/5x5
I0511 07:26:52.435577 13558 net.cpp:112] Top shape: 32 32 28 28 (802816)
I0511 07:26:52.435590 13558 layer_factory.hpp:74] Creating layer inception_3a/relu_5x5
I0511 07:26:52.435600 13558 net.cpp:76] Creating Layer inception_3a/relu_5x5
I0511 07:26:52.435606 13558 net.cpp:372] inception_3a/relu_5x5 <- inception_3a/5x5
I0511 07:26:52.435612 13558 net.cpp:323] inception_3a/relu_5x5 -> inception_3a/5x5 (in-place)
I0511 07:26:52.435619 13558 net.cpp:105] Setting up inception_3a/relu_5x5
I0511 07:26:52.435626 13558 net.cpp:112] Top shape: 32 32 28 28 (802816)
I0511 07:26:52.435631 13558 layer_factory.hpp:74] Creating layer inception_3a/pool
I0511 07:26:52.435641 13558 net.cpp:76] Creating Layer inception_3a/pool
I0511 07:26:52.435647 13558 net.cpp:372] inception_3a/pool <- pool2/3x3_s2_pool2/3x3_s2_0_split_3
I0511 07:26:52.435654 13558 net.cpp:334] inception_3a/pool -> inception_3a/pool
I0511 07:26:52.435662 13558 net.cpp:105] Setting up inception_3a/pool
I0511 07:26:52.435669 13558 net.cpp:112] Top shape: 32 192 28 28 (4816896)
I0511 07:26:52.435675 13558 layer_factory.hpp:74] Creating layer inception_3a/pool_proj
I0511 07:26:52.435683 13558 net.cpp:76] Creating Layer inception_3a/pool_proj
I0511 07:26:52.435688 13558 net.cpp:372] inception_3a/pool_proj <- inception_3a/pool
I0511 07:26:52.435698 13558 net.cpp:334] inception_3a/pool_proj -> inception_3a/pool_proj
I0511 07:26:52.435708 13558 net.cpp:105] Setting up inception_3a/pool_proj
I0511 07:26:52.435773 13558 net.cpp:112] Top shape: 32 32 28 28 (802816)
I0511 07:26:52.435786 13558 layer_factory.hpp:74] Creating layer inception_3a/relu_pool_proj
I0511 07:26:52.435794 13558 net.cpp:76] Creating Layer inception_3a/relu_pool_proj
I0511 07:26:52.435799 13558 net.cpp:372] inception_3a/relu_pool_proj <- inception_3a/pool_proj
I0511 07:26:52.435806 13558 net.cpp:323] inception_3a/relu_pool_proj -> inception_3a/pool_proj (in-place)
I0511 07:26:52.435813 13558 net.cpp:105] Setting up inception_3a/relu_pool_proj
I0511 07:26:52.435819 13558 net.cpp:112] Top shape: 32 32 28 28 (802816)
I0511 07:26:52.435824 13558 layer_factory.hpp:74] Creating layer inception_3a/output
I0511 07:26:52.435834 13558 net.cpp:76] Creating Layer inception_3a/output
I0511 07:26:52.435840 13558 net.cpp:372] inception_3a/output <- inception_3a/1x1
I0511 07:26:52.435847 13558 net.cpp:372] inception_3a/output <- inception_3a/3x3
I0511 07:26:52.435853 13558 net.cpp:372] inception_3a/output <- inception_3a/5x5
I0511 07:26:52.435858 13558 net.cpp:372] inception_3a/output <- inception_3a/pool_proj
I0511 07:26:52.435865 13558 net.cpp:334] inception_3a/output -> inception_3a/output
I0511 07:26:52.435876 13558 net.cpp:105] Setting up inception_3a/output
I0511 07:26:52.435884 13558 net.cpp:112] Top shape: 32 256 28 28 (6422528)
I0511 07:26:52.435890 13558 layer_factory.hpp:74] Creating layer inception_3a/output_inception_3a/output_0_split
I0511 07:26:52.435909 13558 net.cpp:76] Creating Layer inception_3a/output_inception_3a/output_0_split
I0511 07:26:52.435916 13558 net.cpp:372] inception_3a/output_inception_3a/output_0_split <- inception_3a/output
I0511 07:26:52.435925 13558 net.cpp:334] inception_3a/output_inception_3a/output_0_split -> inception_3a/output_inception_3a/output_0_split_0
I0511 07:26:52.435935 13558 net.cpp:334] inception_3a/output_inception_3a/output_0_split -> inception_3a/output_inception_3a/output_0_split_1
I0511 07:26:52.435943 13558 net.cpp:334] inception_3a/output_inception_3a/output_0_split -> inception_3a/output_inception_3a/output_0_split_2
I0511 07:26:52.435951 13558 net.cpp:334] inception_3a/output_inception_3a/output_0_split -> inception_3a/output_inception_3a/output_0_split_3
I0511 07:26:52.435999 13558 net.cpp:105] Setting up inception_3a/output_inception_3a/output_0_split
I0511 07:26:52.436008 13558 net.cpp:112] Top shape: 32 256 28 28 (6422528)
I0511 07:26:52.436014 13558 net.cpp:112] Top shape: 32 256 28 28 (6422528)
I0511 07:26:52.436019 13558 net.cpp:112] Top shape: 32 256 28 28 (6422528)
I0511 07:26:52.436024 13558 net.cpp:112] Top shape: 32 256 28 28 (6422528)
I0511 07:26:52.436029 13558 layer_factory.hpp:74] Creating layer inception_3b/1x1
I0511 07:26:52.436041 13558 net.cpp:76] Creating Layer inception_3b/1x1
I0511 07:26:52.436048 13558 net.cpp:372] inception_3b/1x1 <- inception_3a/output_inception_3a/output_0_split_0
I0511 07:26:52.436059 13558 net.cpp:334] inception_3b/1x1 -> inception_3b/1x1
I0511 07:26:52.436069 13558 net.cpp:105] Setting up inception_3b/1x1
I0511 07:26:52.436401 13558 net.cpp:112] Top shape: 32 128 28 28 (3211264)
I0511 07:26:52.436419 13558 layer_factory.hpp:74] Creating layer inception_3b/relu_1x1
I0511 07:26:52.436426 13558 net.cpp:76] Creating Layer inception_3b/relu_1x1
I0511 07:26:52.436434 13558 net.cpp:372] inception_3b/relu_1x1 <- inception_3b/1x1
I0511 07:26:52.436442 13558 net.cpp:323] inception_3b/relu_1x1 -> inception_3b/1x1 (in-place)
I0511 07:26:52.436451 13558 net.cpp:105] Setting up inception_3b/relu_1x1
I0511 07:26:52.436457 13558 net.cpp:112] Top shape: 32 128 28 28 (3211264)
I0511 07:26:52.436462 13558 layer_factory.hpp:74] Creating layer inception_3b/3x3_reduce
I0511 07:26:52.436470 13558 net.cpp:76] Creating Layer inception_3b/3x3_reduce
I0511 07:26:52.436476 13558 net.cpp:372] inception_3b/3x3_reduce <- inception_3a/output_inception_3a/output_0_split_1
I0511 07:26:52.436485 13558 net.cpp:334] inception_3b/3x3_reduce -> inception_3b/3x3_reduce
I0511 07:26:52.436493 13558 net.cpp:105] Setting up inception_3b/3x3_reduce
I0511 07:26:52.436816 13558 net.cpp:112] Top shape: 32 128 28 28 (3211264)
I0511 07:26:52.436830 13558 layer_factory.hpp:74] Creating layer inception_3b/relu_3x3_reduce
I0511 07:26:52.436841 13558 net.cpp:76] Creating Layer inception_3b/relu_3x3_reduce
I0511 07:26:52.436847 13558 net.cpp:372] inception_3b/relu_3x3_reduce <- inception_3b/3x3_reduce
I0511 07:26:52.436854 13558 net.cpp:323] inception_3b/relu_3x3_reduce -> inception_3b/3x3_reduce (in-place)
I0511 07:26:52.436862 13558 net.cpp:105] Setting up inception_3b/relu_3x3_reduce
I0511 07:26:52.436868 13558 net.cpp:112] Top shape: 32 128 28 28 (3211264)
I0511 07:26:52.436873 13558 layer_factory.hpp:74] Creating layer inception_3b/3x3
I0511 07:26:52.436887 13558 net.cpp:76] Creating Layer inception_3b/3x3
I0511 07:26:52.436892 13558 net.cpp:372] inception_3b/3x3 <- inception_3b/3x3_reduce
I0511 07:26:52.436902 13558 net.cpp:334] inception_3b/3x3 -> inception_3b/3x3
I0511 07:26:52.436911 13558 net.cpp:105] Setting up inception_3b/3x3
I0511 07:26:52.439787 13558 net.cpp:112] Top shape: 32 192 28 28 (4816896)
I0511 07:26:52.439810 13558 layer_factory.hpp:74] Creating layer inception_3b/relu_3x3
I0511 07:26:52.439820 13558 net.cpp:76] Creating Layer inception_3b/relu_3x3
I0511 07:26:52.439826 13558 net.cpp:372] inception_3b/relu_3x3 <- inception_3b/3x3
I0511 07:26:52.439836 13558 net.cpp:323] inception_3b/relu_3x3 -> inception_3b/3x3 (in-place)
I0511 07:26:52.439864 13558 net.cpp:105] Setting up inception_3b/relu_3x3
I0511 07:26:52.439872 13558 net.cpp:112] Top shape: 32 192 28 28 (4816896)
I0511 07:26:52.439877 13558 layer_factory.hpp:74] Creating layer inception_3b/5x5_reduce
I0511 07:26:52.439887 13558 net.cpp:76] Creating Layer inception_3b/5x5_reduce
I0511 07:26:52.439892 13558 net.cpp:372] inception_3b/5x5_reduce <- inception_3a/output_inception_3a/output_0_split_2
I0511 07:26:52.439900 13558 net.cpp:334] inception_3b/5x5_reduce -> inception_3b/5x5_reduce
I0511 07:26:52.439909 13558 net.cpp:105] Setting up inception_3b/5x5_reduce
I0511 07:26:52.439996 13558 net.cpp:112] Top shape: 32 32 28 28 (802816)
I0511 07:26:52.440006 13558 layer_factory.hpp:74] Creating layer inception_3b/relu_5x5_reduce
I0511 07:26:52.440016 13558 net.cpp:76] Creating Layer inception_3b/relu_5x5_reduce
I0511 07:26:52.440021 13558 net.cpp:372] inception_3b/relu_5x5_reduce <- inception_3b/5x5_reduce
I0511 07:26:52.440028 13558 net.cpp:323] inception_3b/relu_5x5_reduce -> inception_3b/5x5_reduce (in-place)
I0511 07:26:52.440037 13558 net.cpp:105] Setting up inception_3b/relu_5x5_reduce
I0511 07:26:52.440042 13558 net.cpp:112] Top shape: 32 32 28 28 (802816)
I0511 07:26:52.440047 13558 layer_factory.hpp:74] Creating layer inception_3b/5x5
I0511 07:26:52.440057 13558 net.cpp:76] Creating Layer inception_3b/5x5
I0511 07:26:52.440062 13558 net.cpp:372] inception_3b/5x5 <- inception_3b/5x5_reduce
I0511 07:26:52.440070 13558 net.cpp:334] inception_3b/5x5 -> inception_3b/5x5
I0511 07:26:52.440083 13558 net.cpp:105] Setting up inception_3b/5x5
I0511 07:26:52.440758 13558 net.cpp:112] Top shape: 32 96 28 28 (2408448)
I0511 07:26:52.440773 13558 layer_factory.hpp:74] Creating layer inception_3b/relu_5x5
I0511 07:26:52.440784 13558 net.cpp:76] Creating Layer inception_3b/relu_5x5
I0511 07:26:52.440790 13558 net.cpp:372] inception_3b/relu_5x5 <- inception_3b/5x5
I0511 07:26:52.440798 13558 net.cpp:323] inception_3b/relu_5x5 -> inception_3b/5x5 (in-place)
I0511 07:26:52.440806 13558 net.cpp:105] Setting up inception_3b/relu_5x5
I0511 07:26:52.440811 13558 net.cpp:112] Top shape: 32 96 28 28 (2408448)
I0511 07:26:52.440816 13558 layer_factory.hpp:74] Creating layer inception_3b/pool
I0511 07:26:52.440826 13558 net.cpp:76] Creating Layer inception_3b/pool
I0511 07:26:52.440832 13558 net.cpp:372] inception_3b/pool <- inception_3a/output_inception_3a/output_0_split_3
I0511 07:26:52.440840 13558 net.cpp:334] inception_3b/pool -> inception_3b/pool
I0511 07:26:52.440848 13558 net.cpp:105] Setting up inception_3b/pool
I0511 07:26:52.440856 13558 net.cpp:112] Top shape: 32 256 28 28 (6422528)
I0511 07:26:52.440861 13558 layer_factory.hpp:74] Creating layer inception_3b/pool_proj
I0511 07:26:52.440870 13558 net.cpp:76] Creating Layer inception_3b/pool_proj
I0511 07:26:52.440876 13558 net.cpp:372] inception_3b/pool_proj <- inception_3b/pool
I0511 07:26:52.440886 13558 net.cpp:334] inception_3b/pool_proj -> inception_3b/pool_proj
I0511 07:26:52.440896 13558 net.cpp:105] Setting up inception_3b/pool_proj
I0511 07:26:52.441043 13558 net.cpp:112] Top shape: 32 64 28 28 (1605632)
I0511 07:26:52.441054 13558 layer_factory.hpp:74] Creating layer inception_3b/relu_pool_proj
I0511 07:26:52.441062 13558 net.cpp:76] Creating Layer inception_3b/relu_pool_proj
I0511 07:26:52.441068 13558 net.cpp:372] inception_3b/relu_pool_proj <- inception_3b/pool_proj
I0511 07:26:52.441077 13558 net.cpp:323] inception_3b/relu_pool_proj -> inception_3b/pool_proj (in-place)
I0511 07:26:52.441086 13558 net.cpp:105] Setting up inception_3b/relu_pool_proj
I0511 07:26:52.441090 13558 net.cpp:112] Top shape: 32 64 28 28 (1605632)
I0511 07:26:52.441097 13558 layer_factory.hpp:74] Creating layer inception_3b/output
I0511 07:26:52.441103 13558 net.cpp:76] Creating Layer inception_3b/output
I0511 07:26:52.441109 13558 net.cpp:372] inception_3b/output <- inception_3b/1x1
I0511 07:26:52.441115 13558 net.cpp:372] inception_3b/output <- inception_3b/3x3
I0511 07:26:52.441121 13558 net.cpp:372] inception_3b/output <- inception_3b/5x5
I0511 07:26:52.441141 13558 net.cpp:372] inception_3b/output <- inception_3b/pool_proj
I0511 07:26:52.441149 13558 net.cpp:334] inception_3b/output -> inception_3b/output
I0511 07:26:52.441157 13558 net.cpp:105] Setting up inception_3b/output
I0511 07:26:52.441164 13558 net.cpp:112] Top shape: 32 480 28 28 (12042240)
I0511 07:26:52.441169 13558 layer_factory.hpp:74] Creating layer pool3/3x3_s2
I0511 07:26:52.441176 13558 net.cpp:76] Creating Layer pool3/3x3_s2
I0511 07:26:52.441182 13558 net.cpp:372] pool3/3x3_s2 <- inception_3b/output
I0511 07:26:52.441192 13558 net.cpp:334] pool3/3x3_s2 -> pool3/3x3_s2
I0511 07:26:52.441201 13558 net.cpp:105] Setting up pool3/3x3_s2
I0511 07:26:52.441207 13558 net.cpp:112] Top shape: 32 480 14 14 (3010560)
I0511 07:26:52.441213 13558 layer_factory.hpp:74] Creating layer pool3/3x3_s2_pool3/3x3_s2_0_split
I0511 07:26:52.441220 13558 net.cpp:76] Creating Layer pool3/3x3_s2_pool3/3x3_s2_0_split
I0511 07:26:52.441226 13558 net.cpp:372] pool3/3x3_s2_pool3/3x3_s2_0_split <- pool3/3x3_s2
I0511 07:26:52.441236 13558 net.cpp:334] pool3/3x3_s2_pool3/3x3_s2_0_split -> pool3/3x3_s2_pool3/3x3_s2_0_split_0
I0511 07:26:52.441244 13558 net.cpp:334] pool3/3x3_s2_pool3/3x3_s2_0_split -> pool3/3x3_s2_pool3/3x3_s2_0_split_1
I0511 07:26:52.441252 13558 net.cpp:334] pool3/3x3_s2_pool3/3x3_s2_0_split -> pool3/3x3_s2_pool3/3x3_s2_0_split_2
I0511 07:26:52.441262 13558 net.cpp:334] pool3/3x3_s2_pool3/3x3_s2_0_split -> pool3/3x3_s2_pool3/3x3_s2_0_split_3
I0511 07:26:52.441268 13558 net.cpp:105] Setting up pool3/3x3_s2_pool3/3x3_s2_0_split
I0511 07:26:52.441299 13558 net.cpp:112] Top shape: 32 480 14 14 (3010560)
I0511 07:26:52.441308 13558 net.cpp:112] Top shape: 32 480 14 14 (3010560)
I0511 07:26:52.441313 13558 net.cpp:112] Top shape: 32 480 14 14 (3010560)
I0511 07:26:52.441318 13558 net.cpp:112] Top shape: 32 480 14 14 (3010560)
I0511 07:26:52.441325 13558 layer_factory.hpp:74] Creating layer inception_4a/1x1
I0511 07:26:52.441339 13558 net.cpp:76] Creating Layer inception_4a/1x1
I0511 07:26:52.441345 13558 net.cpp:372] inception_4a/1x1 <- pool3/3x3_s2_pool3/3x3_s2_0_split_0
I0511 07:26:52.441354 13558 net.cpp:334] inception_4a/1x1 -> inception_4a/1x1
I0511 07:26:52.441364 13558 net.cpp:105] Setting up inception_4a/1x1
I0511 07:26:52.442219 13558 net.cpp:112] Top shape: 32 192 14 14 (1204224)
I0511 07:26:52.442239 13558 layer_factory.hpp:74] Creating layer inception_4a/relu_1x1
I0511 07:26:52.442250 13558 net.cpp:76] Creating Layer inception_4a/relu_1x1
I0511 07:26:52.442256 13558 net.cpp:372] inception_4a/relu_1x1 <- inception_4a/1x1
I0511 07:26:52.442263 13558 net.cpp:323] inception_4a/relu_1x1 -> inception_4a/1x1 (in-place)
I0511 07:26:52.442284 13558 net.cpp:105] Setting up inception_4a/relu_1x1
I0511 07:26:52.442291 13558 net.cpp:112] Top shape: 32 192 14 14 (1204224)
I0511 07:26:52.442297 13558 layer_factory.hpp:74] Creating layer inception_4a/3x3_reduce
I0511 07:26:52.442308 13558 net.cpp:76] Creating Layer inception_4a/3x3_reduce
I0511 07:26:52.442315 13558 net.cpp:372] inception_4a/3x3_reduce <- pool3/3x3_s2_pool3/3x3_s2_0_split_1
I0511 07:26:52.442323 13558 net.cpp:334] inception_4a/3x3_reduce -> inception_4a/3x3_reduce
I0511 07:26:52.442332 13558 net.cpp:105] Setting up inception_4a/3x3_reduce
I0511 07:26:52.442735 13558 net.cpp:112] Top shape: 32 96 14 14 (602112)
I0511 07:26:52.442754 13558 layer_factory.hpp:74] Creating layer inception_4a/relu_3x3_reduce
I0511 07:26:52.442764 13558 net.cpp:76] Creating Layer inception_4a/relu_3x3_reduce
I0511 07:26:52.442770 13558 net.cpp:372] inception_4a/relu_3x3_reduce <- inception_4a/3x3_reduce
I0511 07:26:52.442777 13558 net.cpp:323] inception_4a/relu_3x3_reduce -> inception_4a/3x3_reduce (in-place)
I0511 07:26:52.442785 13558 net.cpp:105] Setting up inception_4a/relu_3x3_reduce
I0511 07:26:52.442790 13558 net.cpp:112] Top shape: 32 96 14 14 (602112)
I0511 07:26:52.442795 13558 layer_factory.hpp:74] Creating layer inception_4a/3x3
I0511 07:26:52.442806 13558 net.cpp:76] Creating Layer inception_4a/3x3
I0511 07:26:52.442812 13558 net.cpp:372] inception_4a/3x3 <- inception_4a/3x3_reduce
I0511 07:26:52.442844 13558 net.cpp:334] inception_4a/3x3 -> inception_4a/3x3
I0511 07:26:52.442857 13558 net.cpp:105] Setting up inception_4a/3x3
I0511 07:26:52.444413 13558 net.cpp:112] Top shape: 32 208 14 14 (1304576)
I0511 07:26:52.444432 13558 layer_factory.hpp:74] Creating layer inception_4a/relu_3x3
I0511 07:26:52.444440 13558 net.cpp:76] Creating Layer inception_4a/relu_3x3
I0511 07:26:52.444447 13558 net.cpp:372] inception_4a/relu_3x3 <- inception_4a/3x3
I0511 07:26:52.444453 13558 net.cpp:323] inception_4a/relu_3x3 -> inception_4a/3x3 (in-place)
I0511 07:26:52.444461 13558 net.cpp:105] Setting up inception_4a/relu_3x3
I0511 07:26:52.444466 13558 net.cpp:112] Top shape: 32 208 14 14 (1304576)
I0511 07:26:52.444473 13558 layer_factory.hpp:74] Creating layer inception_4a/5x5_reduce
I0511 07:26:52.444480 13558 net.cpp:76] Creating Layer inception_4a/5x5_reduce
I0511 07:26:52.444486 13558 net.cpp:372] inception_4a/5x5_reduce <- pool3/3x3_s2_pool3/3x3_s2_0_split_2
I0511 07:26:52.444496 13558 net.cpp:334] inception_4a/5x5_reduce -> inception_4a/5x5_reduce
I0511 07:26:52.444505 13558 net.cpp:105] Setting up inception_4a/5x5_reduce
I0511 07:26:52.444583 13558 net.cpp:112] Top shape: 32 16 14 14 (100352)
I0511 07:26:52.444594 13558 layer_factory.hpp:74] Creating layer inception_4a/relu_5x5_reduce
I0511 07:26:52.444602 13558 net.cpp:76] Creating Layer inception_4a/relu_5x5_reduce
I0511 07:26:52.444607 13558 net.cpp:372] inception_4a/relu_5x5_reduce <- inception_4a/5x5_reduce
I0511 07:26:52.444614 13558 net.cpp:323] inception_4a/relu_5x5_reduce -> inception_4a/5x5_reduce (in-place)
I0511 07:26:52.444622 13558 net.cpp:105] Setting up inception_4a/relu_5x5_reduce
I0511 07:26:52.444628 13558 net.cpp:112] Top shape: 32 16 14 14 (100352)
I0511 07:26:52.444633 13558 layer_factory.hpp:74] Creating layer inception_4a/5x5
I0511 07:26:52.444643 13558 net.cpp:76] Creating Layer inception_4a/5x5
I0511 07:26:52.444648 13558 net.cpp:372] inception_4a/5x5 <- inception_4a/5x5_reduce
I0511 07:26:52.444656 13558 net.cpp:334] inception_4a/5x5 -> inception_4a/5x5
I0511 07:26:52.444664 13558 net.cpp:105] Setting up inception_4a/5x5
I0511 07:26:52.444851 13558 net.cpp:112] Top shape: 32 48 14 14 (301056)
I0511 07:26:52.444864 13558 layer_factory.hpp:74] Creating layer inception_4a/relu_5x5
I0511 07:26:52.444871 13558 net.cpp:76] Creating Layer inception_4a/relu_5x5
I0511 07:26:52.444876 13558 net.cpp:372] inception_4a/relu_5x5 <- inception_4a/5x5
I0511 07:26:52.444883 13558 net.cpp:323] inception_4a/relu_5x5 -> inception_4a/5x5 (in-place)
I0511 07:26:52.444890 13558 net.cpp:105] Setting up inception_4a/relu_5x5
I0511 07:26:52.444895 13558 net.cpp:112] Top shape: 32 48 14 14 (301056)
I0511 07:26:52.444901 13558 layer_factory.hpp:74] Creating layer inception_4a/pool
I0511 07:26:52.444911 13558 net.cpp:76] Creating Layer inception_4a/pool
I0511 07:26:52.444916 13558 net.cpp:372] inception_4a/pool <- pool3/3x3_s2_pool3/3x3_s2_0_split_3
I0511 07:26:52.444924 13558 net.cpp:334] inception_4a/pool -> inception_4a/pool
I0511 07:26:52.444932 13558 net.cpp:105] Setting up inception_4a/pool
I0511 07:26:52.444939 13558 net.cpp:112] Top shape: 32 480 14 14 (3010560)
I0511 07:26:52.444944 13558 layer_factory.hpp:74] Creating layer inception_4a/pool_proj
I0511 07:26:52.444953 13558 net.cpp:76] Creating Layer inception_4a/pool_proj
I0511 07:26:52.444959 13558 net.cpp:372] inception_4a/pool_proj <- inception_4a/pool
I0511 07:26:52.444969 13558 net.cpp:334] inception_4a/pool_proj -> inception_4a/pool_proj
I0511 07:26:52.444977 13558 net.cpp:105] Setting up inception_4a/pool_proj
I0511 07:26:52.445250 13558 net.cpp:112] Top shape: 32 64 14 14 (401408)
I0511 07:26:52.445263 13558 layer_factory.hpp:74] Creating layer inception_4a/relu_pool_proj
I0511 07:26:52.445286 13558 net.cpp:76] Creating Layer inception_4a/relu_pool_proj
I0511 07:26:52.445293 13558 net.cpp:372] inception_4a/relu_pool_proj <- inception_4a/pool_proj
I0511 07:26:52.445305 13558 net.cpp:323] inception_4a/relu_pool_proj -> inception_4a/pool_proj (in-place)
I0511 07:26:52.445329 13558 net.cpp:105] Setting up inception_4a/relu_pool_proj
I0511 07:26:52.445335 13558 net.cpp:112] Top shape: 32 64 14 14 (401408)
I0511 07:26:52.445341 13558 layer_factory.hpp:74] Creating layer inception_4a/output
I0511 07:26:52.445349 13558 net.cpp:76] Creating Layer inception_4a/output
I0511 07:26:52.445354 13558 net.cpp:372] inception_4a/output <- inception_4a/1x1
I0511 07:26:52.445360 13558 net.cpp:372] inception_4a/output <- inception_4a/3x3
I0511 07:26:52.445366 13558 net.cpp:372] inception_4a/output <- inception_4a/5x5
I0511 07:26:52.445372 13558 net.cpp:372] inception_4a/output <- inception_4a/pool_proj
I0511 07:26:52.445379 13558 net.cpp:334] inception_4a/output -> inception_4a/output
I0511 07:26:52.445387 13558 net.cpp:105] Setting up inception_4a/output
I0511 07:26:52.445394 13558 net.cpp:112] Top shape: 32 512 14 14 (3211264)
I0511 07:26:52.445399 13558 layer_factory.hpp:74] Creating layer inception_4a/output_inception_4a/output_0_split
I0511 07:26:52.445410 13558 net.cpp:76] Creating Layer inception_4a/output_inception_4a/output_0_split
I0511 07:26:52.445433 13558 net.cpp:372] inception_4a/output_inception_4a/output_0_split <- inception_4a/output
I0511 07:26:52.445443 13558 net.cpp:334] inception_4a/output_inception_4a/output_0_split -> inception_4a/output_inception_4a/output_0_split_0
I0511 07:26:52.445452 13558 net.cpp:334] inception_4a/output_inception_4a/output_0_split -> inception_4a/output_inception_4a/output_0_split_1
I0511 07:26:52.445461 13558 net.cpp:334] inception_4a/output_inception_4a/output_0_split -> inception_4a/output_inception_4a/output_0_split_2
I0511 07:26:52.445471 13558 net.cpp:334] inception_4a/output_inception_4a/output_0_split -> inception_4a/output_inception_4a/output_0_split_3
I0511 07:26:52.445479 13558 net.cpp:334] inception_4a/output_inception_4a/output_0_split -> inception_4a/output_inception_4a/output_0_split_4
I0511 07:26:52.445487 13558 net.cpp:105] Setting up inception_4a/output_inception_4a/output_0_split
I0511 07:26:52.445494 13558 net.cpp:112] Top shape: 32 512 14 14 (3211264)
I0511 07:26:52.445499 13558 net.cpp:112] Top shape: 32 512 14 14 (3211264)
I0511 07:26:52.445504 13558 net.cpp:112] Top shape: 32 512 14 14 (3211264)
I0511 07:26:52.445509 13558 net.cpp:112] Top shape: 32 512 14 14 (3211264)
I0511 07:26:52.445513 13558 net.cpp:112] Top shape: 32 512 14 14 (3211264)
I0511 07:26:52.445519 13558 layer_factory.hpp:74] Creating layer loss1/ave_pool
I0511 07:26:52.445529 13558 net.cpp:76] Creating Layer loss1/ave_pool
I0511 07:26:52.445535 13558 net.cpp:372] loss1/ave_pool <- inception_4a/output_inception_4a/output_0_split_0
I0511 07:26:52.445543 13558 net.cpp:334] loss1/ave_pool -> loss1/ave_pool
I0511 07:26:52.445550 13558 net.cpp:105] Setting up loss1/ave_pool
I0511 07:26:52.445557 13558 net.cpp:112] Top shape: 32 512 4 4 (262144)
I0511 07:26:52.445562 13558 layer_factory.hpp:74] Creating layer loss1/conv
I0511 07:26:52.445572 13558 net.cpp:76] Creating Layer loss1/conv
I0511 07:26:52.445579 13558 net.cpp:372] loss1/conv <- loss1/ave_pool
I0511 07:26:52.445585 13558 net.cpp:334] loss1/conv -> loss1/conv
I0511 07:26:52.445595 13558 net.cpp:105] Setting up loss1/conv
I0511 07:26:52.446158 13558 net.cpp:112] Top shape: 32 128 4 4 (65536)
I0511 07:26:52.446172 13558 layer_factory.hpp:74] Creating layer loss1/relu_conv
I0511 07:26:52.446180 13558 net.cpp:76] Creating Layer loss1/relu_conv
I0511 07:26:52.446187 13558 net.cpp:372] loss1/relu_conv <- loss1/conv
I0511 07:26:52.446195 13558 net.cpp:323] loss1/relu_conv -> loss1/conv (in-place)
I0511 07:26:52.446203 13558 net.cpp:105] Setting up loss1/relu_conv
I0511 07:26:52.446208 13558 net.cpp:112] Top shape: 32 128 4 4 (65536)
I0511 07:26:52.446214 13558 layer_factory.hpp:74] Creating layer loss1/fc
I0511 07:26:52.446226 13558 net.cpp:76] Creating Layer loss1/fc
I0511 07:26:52.446233 13558 net.cpp:372] loss1/fc <- loss1/conv
I0511 07:26:52.446241 13558 net.cpp:334] loss1/fc -> loss1/fc
I0511 07:26:52.446254 13558 net.cpp:105] Setting up loss1/fc
I0511 07:26:52.463976 13558 net.cpp:112] Top shape: 32 1024 1 1 (32768)
I0511 07:26:52.464051 13558 layer_factory.hpp:74] Creating layer loss1/relu_fc
I0511 07:26:52.464066 13558 net.cpp:76] Creating Layer loss1/relu_fc
I0511 07:26:52.464073 13558 net.cpp:372] loss1/relu_fc <- loss1/fc
I0511 07:26:52.464085 13558 net.cpp:323] loss1/relu_fc -> loss1/fc (in-place)
I0511 07:26:52.464097 13558 net.cpp:105] Setting up loss1/relu_fc
I0511 07:26:52.464102 13558 net.cpp:112] Top shape: 32 1024 1 1 (32768)
I0511 07:26:52.464108 13558 layer_factory.hpp:74] Creating layer loss1/drop_fc
I0511 07:26:52.464130 13558 net.cpp:76] Creating Layer loss1/drop_fc
I0511 07:26:52.464138 13558 net.cpp:372] loss1/drop_fc <- loss1/fc
I0511 07:26:52.464144 13558 net.cpp:323] loss1/drop_fc -> loss1/fc (in-place)
I0511 07:26:52.464155 13558 net.cpp:105] Setting up loss1/drop_fc
I0511 07:26:52.464165 13558 net.cpp:112] Top shape: 32 1024 1 1 (32768)
I0511 07:26:52.464171 13558 layer_factory.hpp:74] Creating layer loss1/classifier
I0511 07:26:52.464186 13558 net.cpp:76] Creating Layer loss1/classifier
I0511 07:26:52.464192 13558 net.cpp:372] loss1/classifier <- loss1/fc
I0511 07:26:52.464203 13558 net.cpp:334] loss1/classifier -> loss1/classifier
I0511 07:26:52.464213 13558 net.cpp:105] Setting up loss1/classifier
I0511 07:26:52.464246 13558 net.cpp:112] Top shape: 32 2 1 1 (64)
I0511 07:26:52.464257 13558 layer_factory.hpp:74] Creating layer loss1/loss
I0511 07:26:52.464267 13558 net.cpp:76] Creating Layer loss1/loss
I0511 07:26:52.464290 13558 net.cpp:372] loss1/loss <- loss1/classifier
I0511 07:26:52.464298 13558 net.cpp:372] loss1/loss <- label_data_1_split_0
I0511 07:26:52.464309 13558 net.cpp:334] loss1/loss -> loss1/loss1
I0511 07:26:52.464321 13558 net.cpp:105] Setting up loss1/loss
I0511 07:26:52.464332 13558 layer_factory.hpp:74] Creating layer loss1/loss
I0511 07:26:52.464354 13558 net.cpp:112] Top shape: 1 1 1 1 (1)
I0511 07:26:52.464359 13558 net.cpp:118]     with loss weight 0.3
I0511 07:26:52.464395 13558 layer_factory.hpp:74] Creating layer inception_4b/1x1
I0511 07:26:52.464404 13558 net.cpp:76] Creating Layer inception_4b/1x1
I0511 07:26:52.464411 13558 net.cpp:372] inception_4b/1x1 <- inception_4a/output_inception_4a/output_0_split_1
I0511 07:26:52.464422 13558 net.cpp:334] inception_4b/1x1 -> inception_4b/1x1
I0511 07:26:52.464432 13558 net.cpp:105] Setting up inception_4b/1x1
I0511 07:26:52.465136 13558 net.cpp:112] Top shape: 32 160 14 14 (1003520)
I0511 07:26:52.465150 13558 layer_factory.hpp:74] Creating layer inception_4b/relu_1x1
I0511 07:26:52.465158 13558 net.cpp:76] Creating Layer inception_4b/relu_1x1
I0511 07:26:52.465164 13558 net.cpp:372] inception_4b/relu_1x1 <- inception_4b/1x1
I0511 07:26:52.465174 13558 net.cpp:323] inception_4b/relu_1x1 -> inception_4b/1x1 (in-place)
I0511 07:26:52.465183 13558 net.cpp:105] Setting up inception_4b/relu_1x1
I0511 07:26:52.465188 13558 net.cpp:112] Top shape: 32 160 14 14 (1003520)
I0511 07:26:52.465193 13558 layer_factory.hpp:74] Creating layer inception_4b/3x3_reduce
I0511 07:26:52.465203 13558 net.cpp:76] Creating Layer inception_4b/3x3_reduce
I0511 07:26:52.465209 13558 net.cpp:372] inception_4b/3x3_reduce <- inception_4a/output_inception_4a/output_0_split_2
I0511 07:26:52.465219 13558 net.cpp:334] inception_4b/3x3_reduce -> inception_4b/3x3_reduce
I0511 07:26:52.465227 13558 net.cpp:105] Setting up inception_4b/3x3_reduce
I0511 07:26:52.465734 13558 net.cpp:112] Top shape: 32 112 14 14 (702464)
I0511 07:26:52.465749 13558 layer_factory.hpp:74] Creating layer inception_4b/relu_3x3_reduce
I0511 07:26:52.465759 13558 net.cpp:76] Creating Layer inception_4b/relu_3x3_reduce
I0511 07:26:52.465765 13558 net.cpp:372] inception_4b/relu_3x3_reduce <- inception_4b/3x3_reduce
I0511 07:26:52.465772 13558 net.cpp:323] inception_4b/relu_3x3_reduce -> inception_4b/3x3_reduce (in-place)
I0511 07:26:52.465780 13558 net.cpp:105] Setting up inception_4b/relu_3x3_reduce
I0511 07:26:52.465785 13558 net.cpp:112] Top shape: 32 112 14 14 (702464)
I0511 07:26:52.465791 13558 layer_factory.hpp:74] Creating layer inception_4b/3x3
I0511 07:26:52.465801 13558 net.cpp:76] Creating Layer inception_4b/3x3
I0511 07:26:52.465821 13558 net.cpp:372] inception_4b/3x3 <- inception_4b/3x3_reduce
I0511 07:26:52.465829 13558 net.cpp:334] inception_4b/3x3 -> inception_4b/3x3
I0511 07:26:52.465839 13558 net.cpp:105] Setting up inception_4b/3x3
I0511 07:26:52.467758 13558 net.cpp:112] Top shape: 32 224 14 14 (1404928)
I0511 07:26:52.467773 13558 layer_factory.hpp:74] Creating layer inception_4b/relu_3x3
I0511 07:26:52.467784 13558 net.cpp:76] Creating Layer inception_4b/relu_3x3
I0511 07:26:52.467790 13558 net.cpp:372] inception_4b/relu_3x3 <- inception_4b/3x3
I0511 07:26:52.467798 13558 net.cpp:323] inception_4b/relu_3x3 -> inception_4b/3x3 (in-place)
I0511 07:26:52.467805 13558 net.cpp:105] Setting up inception_4b/relu_3x3
I0511 07:26:52.467811 13558 net.cpp:112] Top shape: 32 224 14 14 (1404928)
I0511 07:26:52.467816 13558 layer_factory.hpp:74] Creating layer inception_4b/5x5_reduce
I0511 07:26:52.467826 13558 net.cpp:76] Creating Layer inception_4b/5x5_reduce
I0511 07:26:52.467833 13558 net.cpp:372] inception_4b/5x5_reduce <- inception_4a/output_inception_4a/output_0_split_3
I0511 07:26:52.467840 13558 net.cpp:334] inception_4b/5x5_reduce -> inception_4b/5x5_reduce
I0511 07:26:52.467849 13558 net.cpp:105] Setting up inception_4b/5x5_reduce
I0511 07:26:52.467967 13558 net.cpp:112] Top shape: 32 24 14 14 (150528)
I0511 07:26:52.467979 13558 layer_factory.hpp:74] Creating layer inception_4b/relu_5x5_reduce
I0511 07:26:52.467988 13558 net.cpp:76] Creating Layer inception_4b/relu_5x5_reduce
I0511 07:26:52.467993 13558 net.cpp:372] inception_4b/relu_5x5_reduce <- inception_4b/5x5_reduce
I0511 07:26:52.467999 13558 net.cpp:323] inception_4b/relu_5x5_reduce -> inception_4b/5x5_reduce (in-place)
I0511 07:26:52.468009 13558 net.cpp:105] Setting up inception_4b/relu_5x5_reduce
I0511 07:26:52.468015 13558 net.cpp:112] Top shape: 32 24 14 14 (150528)
I0511 07:26:52.468020 13558 layer_factory.hpp:74] Creating layer inception_4b/5x5
I0511 07:26:52.468029 13558 net.cpp:76] Creating Layer inception_4b/5x5
I0511 07:26:52.468034 13558 net.cpp:372] inception_4b/5x5 <- inception_4b/5x5_reduce
I0511 07:26:52.468041 13558 net.cpp:334] inception_4b/5x5 -> inception_4b/5x5
I0511 07:26:52.468050 13558 net.cpp:105] Setting up inception_4b/5x5
I0511 07:26:52.468399 13558 net.cpp:112] Top shape: 32 64 14 14 (401408)
I0511 07:26:52.468411 13558 layer_factory.hpp:74] Creating layer inception_4b/relu_5x5
I0511 07:26:52.468420 13558 net.cpp:76] Creating Layer inception_4b/relu_5x5
I0511 07:26:52.468425 13558 net.cpp:372] inception_4b/relu_5x5 <- inception_4b/5x5
I0511 07:26:52.468435 13558 net.cpp:323] inception_4b/relu_5x5 -> inception_4b/5x5 (in-place)
I0511 07:26:52.468442 13558 net.cpp:105] Setting up inception_4b/relu_5x5
I0511 07:26:52.468447 13558 net.cpp:112] Top shape: 32 64 14 14 (401408)
I0511 07:26:52.468452 13558 layer_factory.hpp:74] Creating layer inception_4b/pool
I0511 07:26:52.468461 13558 net.cpp:76] Creating Layer inception_4b/pool
I0511 07:26:52.468466 13558 net.cpp:372] inception_4b/pool <- inception_4a/output_inception_4a/output_0_split_4
I0511 07:26:52.468475 13558 net.cpp:334] inception_4b/pool -> inception_4b/pool
I0511 07:26:52.468492 13558 net.cpp:105] Setting up inception_4b/pool
I0511 07:26:52.468500 13558 net.cpp:112] Top shape: 32 512 14 14 (3211264)
I0511 07:26:52.468507 13558 layer_factory.hpp:74] Creating layer inception_4b/pool_proj
I0511 07:26:52.468518 13558 net.cpp:76] Creating Layer inception_4b/pool_proj
I0511 07:26:52.468523 13558 net.cpp:372] inception_4b/pool_proj <- inception_4b/pool
I0511 07:26:52.468533 13558 net.cpp:334] inception_4b/pool_proj -> inception_4b/pool_proj
I0511 07:26:52.468541 13558 net.cpp:105] Setting up inception_4b/pool_proj
I0511 07:26:52.468829 13558 net.cpp:112] Top shape: 32 64 14 14 (401408)
I0511 07:26:52.468843 13558 layer_factory.hpp:74] Creating layer inception_4b/relu_pool_proj
I0511 07:26:52.468853 13558 net.cpp:76] Creating Layer inception_4b/relu_pool_proj
I0511 07:26:52.468859 13558 net.cpp:372] inception_4b/relu_pool_proj <- inception_4b/pool_proj
I0511 07:26:52.468886 13558 net.cpp:323] inception_4b/relu_pool_proj -> inception_4b/pool_proj (in-place)
I0511 07:26:52.468895 13558 net.cpp:105] Setting up inception_4b/relu_pool_proj
I0511 07:26:52.468901 13558 net.cpp:112] Top shape: 32 64 14 14 (401408)
I0511 07:26:52.468906 13558 layer_factory.hpp:74] Creating layer inception_4b/output
I0511 07:26:52.468914 13558 net.cpp:76] Creating Layer inception_4b/output
I0511 07:26:52.468919 13558 net.cpp:372] inception_4b/output <- inception_4b/1x1
I0511 07:26:52.468926 13558 net.cpp:372] inception_4b/output <- inception_4b/3x3
I0511 07:26:52.468932 13558 net.cpp:372] inception_4b/output <- inception_4b/5x5
I0511 07:26:52.468938 13558 net.cpp:372] inception_4b/output <- inception_4b/pool_proj
I0511 07:26:52.468947 13558 net.cpp:334] inception_4b/output -> inception_4b/output
I0511 07:26:52.468955 13558 net.cpp:105] Setting up inception_4b/output
I0511 07:26:52.468962 13558 net.cpp:112] Top shape: 32 512 14 14 (3211264)
I0511 07:26:52.468967 13558 layer_factory.hpp:74] Creating layer inception_4b/output_inception_4b/output_0_split
I0511 07:26:52.468976 13558 net.cpp:76] Creating Layer inception_4b/output_inception_4b/output_0_split
I0511 07:26:52.468981 13558 net.cpp:372] inception_4b/output_inception_4b/output_0_split <- inception_4b/output
I0511 07:26:52.468988 13558 net.cpp:334] inception_4b/output_inception_4b/output_0_split -> inception_4b/output_inception_4b/output_0_split_0
I0511 07:26:52.468997 13558 net.cpp:334] inception_4b/output_inception_4b/output_0_split -> inception_4b/output_inception_4b/output_0_split_1
I0511 07:26:52.469007 13558 net.cpp:334] inception_4b/output_inception_4b/output_0_split -> inception_4b/output_inception_4b/output_0_split_2
I0511 07:26:52.469017 13558 net.cpp:334] inception_4b/output_inception_4b/output_0_split -> inception_4b/output_inception_4b/output_0_split_3
I0511 07:26:52.469025 13558 net.cpp:105] Setting up inception_4b/output_inception_4b/output_0_split
I0511 07:26:52.469033 13558 net.cpp:112] Top shape: 32 512 14 14 (3211264)
I0511 07:26:52.469038 13558 net.cpp:112] Top shape: 32 512 14 14 (3211264)
I0511 07:26:52.469043 13558 net.cpp:112] Top shape: 32 512 14 14 (3211264)
I0511 07:26:52.469048 13558 net.cpp:112] Top shape: 32 512 14 14 (3211264)
I0511 07:26:52.469053 13558 layer_factory.hpp:74] Creating layer inception_4c/1x1
I0511 07:26:52.469063 13558 net.cpp:76] Creating Layer inception_4c/1x1
I0511 07:26:52.469069 13558 net.cpp:372] inception_4c/1x1 <- inception_4b/output_inception_4b/output_0_split_0
I0511 07:26:52.469077 13558 net.cpp:334] inception_4c/1x1 -> inception_4c/1x1
I0511 07:26:52.469086 13558 net.cpp:105] Setting up inception_4c/1x1
I0511 07:26:52.469650 13558 net.cpp:112] Top shape: 32 128 14 14 (802816)
I0511 07:26:52.469662 13558 layer_factory.hpp:74] Creating layer inception_4c/relu_1x1
I0511 07:26:52.469671 13558 net.cpp:76] Creating Layer inception_4c/relu_1x1
I0511 07:26:52.469676 13558 net.cpp:372] inception_4c/relu_1x1 <- inception_4c/1x1
I0511 07:26:52.469686 13558 net.cpp:323] inception_4c/relu_1x1 -> inception_4c/1x1 (in-place)
I0511 07:26:52.469693 13558 net.cpp:105] Setting up inception_4c/relu_1x1
I0511 07:26:52.469698 13558 net.cpp:112] Top shape: 32 128 14 14 (802816)
I0511 07:26:52.469704 13558 layer_factory.hpp:74] Creating layer inception_4c/3x3_reduce
I0511 07:26:52.469712 13558 net.cpp:76] Creating Layer inception_4c/3x3_reduce
I0511 07:26:52.469717 13558 net.cpp:372] inception_4c/3x3_reduce <- inception_4b/output_inception_4b/output_0_split_1
I0511 07:26:52.469732 13558 net.cpp:334] inception_4c/3x3_reduce -> inception_4c/3x3_reduce
I0511 07:26:52.469740 13558 net.cpp:105] Setting up inception_4c/3x3_reduce
I0511 07:26:52.470314 13558 net.cpp:112] Top shape: 32 128 14 14 (802816)
I0511 07:26:52.470329 13558 layer_factory.hpp:74] Creating layer inception_4c/relu_3x3_reduce
I0511 07:26:52.470353 13558 net.cpp:76] Creating Layer inception_4c/relu_3x3_reduce
I0511 07:26:52.470361 13558 net.cpp:372] inception_4c/relu_3x3_reduce <- inception_4c/3x3_reduce
I0511 07:26:52.470368 13558 net.cpp:323] inception_4c/relu_3x3_reduce -> inception_4c/3x3_reduce (in-place)
I0511 07:26:52.470392 13558 net.cpp:105] Setting up inception_4c/relu_3x3_reduce
I0511 07:26:52.470398 13558 net.cpp:112] Top shape: 32 128 14 14 (802816)
I0511 07:26:52.470404 13558 layer_factory.hpp:74] Creating layer inception_4c/3x3
I0511 07:26:52.470415 13558 net.cpp:76] Creating Layer inception_4c/3x3
I0511 07:26:52.470422 13558 net.cpp:372] inception_4c/3x3 <- inception_4c/3x3_reduce
I0511 07:26:52.470429 13558 net.cpp:334] inception_4c/3x3 -> inception_4c/3x3
I0511 07:26:52.470438 13558 net.cpp:105] Setting up inception_4c/3x3
I0511 07:26:52.472930 13558 net.cpp:112] Top shape: 32 256 14 14 (1605632)
I0511 07:26:52.472966 13558 layer_factory.hpp:74] Creating layer inception_4c/relu_3x3
I0511 07:26:52.472977 13558 net.cpp:76] Creating Layer inception_4c/relu_3x3
I0511 07:26:52.472987 13558 net.cpp:372] inception_4c/relu_3x3 <- inception_4c/3x3
I0511 07:26:52.472995 13558 net.cpp:323] inception_4c/relu_3x3 -> inception_4c/3x3 (in-place)
I0511 07:26:52.473004 13558 net.cpp:105] Setting up inception_4c/relu_3x3
I0511 07:26:52.473011 13558 net.cpp:112] Top shape: 32 256 14 14 (1605632)
I0511 07:26:52.473016 13558 layer_factory.hpp:74] Creating layer inception_4c/5x5_reduce
I0511 07:26:52.473027 13558 net.cpp:76] Creating Layer inception_4c/5x5_reduce
I0511 07:26:52.473034 13558 net.cpp:372] inception_4c/5x5_reduce <- inception_4b/output_inception_4b/output_0_split_2
I0511 07:26:52.473043 13558 net.cpp:334] inception_4c/5x5_reduce -> inception_4c/5x5_reduce
I0511 07:26:52.473053 13558 net.cpp:105] Setting up inception_4c/5x5_reduce
I0511 07:26:52.473166 13558 net.cpp:112] Top shape: 32 24 14 14 (150528)
I0511 07:26:52.473177 13558 layer_factory.hpp:74] Creating layer inception_4c/relu_5x5_reduce
I0511 07:26:52.473186 13558 net.cpp:76] Creating Layer inception_4c/relu_5x5_reduce
I0511 07:26:52.473191 13558 net.cpp:372] inception_4c/relu_5x5_reduce <- inception_4c/5x5_reduce
I0511 07:26:52.473198 13558 net.cpp:323] inception_4c/relu_5x5_reduce -> inception_4c/5x5_reduce (in-place)
I0511 07:26:52.473206 13558 net.cpp:105] Setting up inception_4c/relu_5x5_reduce
I0511 07:26:52.473212 13558 net.cpp:112] Top shape: 32 24 14 14 (150528)
I0511 07:26:52.473217 13558 layer_factory.hpp:74] Creating layer inception_4c/5x5
I0511 07:26:52.473227 13558 net.cpp:76] Creating Layer inception_4c/5x5
I0511 07:26:52.473233 13558 net.cpp:372] inception_4c/5x5 <- inception_4c/5x5_reduce
I0511 07:26:52.473243 13558 net.cpp:334] inception_4c/5x5 -> inception_4c/5x5
I0511 07:26:52.473253 13558 net.cpp:105] Setting up inception_4c/5x5
I0511 07:26:52.473608 13558 net.cpp:112] Top shape: 32 64 14 14 (401408)
I0511 07:26:52.473623 13558 layer_factory.hpp:74] Creating layer inception_4c/relu_5x5
I0511 07:26:52.473633 13558 net.cpp:76] Creating Layer inception_4c/relu_5x5
I0511 07:26:52.473639 13558 net.cpp:372] inception_4c/relu_5x5 <- inception_4c/5x5
I0511 07:26:52.473645 13558 net.cpp:323] inception_4c/relu_5x5 -> inception_4c/5x5 (in-place)
I0511 07:26:52.473652 13558 net.cpp:105] Setting up inception_4c/relu_5x5
I0511 07:26:52.473659 13558 net.cpp:112] Top shape: 32 64 14 14 (401408)
I0511 07:26:52.473664 13558 layer_factory.hpp:74] Creating layer inception_4c/pool
I0511 07:26:52.473671 13558 net.cpp:76] Creating Layer inception_4c/pool
I0511 07:26:52.473676 13558 net.cpp:372] inception_4c/pool <- inception_4b/output_inception_4b/output_0_split_3
I0511 07:26:52.473687 13558 net.cpp:334] inception_4c/pool -> inception_4c/pool
I0511 07:26:52.473696 13558 net.cpp:105] Setting up inception_4c/pool
I0511 07:26:52.473703 13558 net.cpp:112] Top shape: 32 512 14 14 (3211264)
I0511 07:26:52.473709 13558 layer_factory.hpp:74] Creating layer inception_4c/pool_proj
I0511 07:26:52.473718 13558 net.cpp:76] Creating Layer inception_4c/pool_proj
I0511 07:26:52.473723 13558 net.cpp:372] inception_4c/pool_proj <- inception_4c/pool
I0511 07:26:52.473733 13558 net.cpp:334] inception_4c/pool_proj -> inception_4c/pool_proj
I0511 07:26:52.473742 13558 net.cpp:105] Setting up inception_4c/pool_proj
I0511 07:26:52.474046 13558 net.cpp:112] Top shape: 32 64 14 14 (401408)
I0511 07:26:52.474061 13558 layer_factory.hpp:74] Creating layer inception_4c/relu_pool_proj
I0511 07:26:52.474068 13558 net.cpp:76] Creating Layer inception_4c/relu_pool_proj
I0511 07:26:52.474074 13558 net.cpp:372] inception_4c/relu_pool_proj <- inception_4c/pool_proj
I0511 07:26:52.474081 13558 net.cpp:323] inception_4c/relu_pool_proj -> inception_4c/pool_proj (in-place)
I0511 07:26:52.474088 13558 net.cpp:105] Setting up inception_4c/relu_pool_proj
I0511 07:26:52.474094 13558 net.cpp:112] Top shape: 32 64 14 14 (401408)
I0511 07:26:52.474099 13558 layer_factory.hpp:74] Creating layer inception_4c/output
I0511 07:26:52.474109 13558 net.cpp:76] Creating Layer inception_4c/output
I0511 07:26:52.474115 13558 net.cpp:372] inception_4c/output <- inception_4c/1x1
I0511 07:26:52.474122 13558 net.cpp:372] inception_4c/output <- inception_4c/3x3
I0511 07:26:52.474128 13558 net.cpp:372] inception_4c/output <- inception_4c/5x5
I0511 07:26:52.474133 13558 net.cpp:372] inception_4c/output <- inception_4c/pool_proj
I0511 07:26:52.474140 13558 net.cpp:334] inception_4c/output -> inception_4c/output
I0511 07:26:52.474148 13558 net.cpp:105] Setting up inception_4c/output
I0511 07:26:52.474154 13558 net.cpp:112] Top shape: 32 512 14 14 (3211264)
I0511 07:26:52.474159 13558 layer_factory.hpp:74] Creating layer inception_4c/output_inception_4c/output_0_split
I0511 07:26:52.474167 13558 net.cpp:76] Creating Layer inception_4c/output_inception_4c/output_0_split
I0511 07:26:52.474172 13558 net.cpp:372] inception_4c/output_inception_4c/output_0_split <- inception_4c/output
I0511 07:26:52.474182 13558 net.cpp:334] inception_4c/output_inception_4c/output_0_split -> inception_4c/output_inception_4c/output_0_split_0
I0511 07:26:52.474192 13558 net.cpp:334] inception_4c/output_inception_4c/output_0_split -> inception_4c/output_inception_4c/output_0_split_1
I0511 07:26:52.474201 13558 net.cpp:334] inception_4c/output_inception_4c/output_0_split -> inception_4c/output_inception_4c/output_0_split_2
I0511 07:26:52.474210 13558 net.cpp:334] inception_4c/output_inception_4c/output_0_split -> inception_4c/output_inception_4c/output_0_split_3
I0511 07:26:52.474218 13558 net.cpp:105] Setting up inception_4c/output_inception_4c/output_0_split
I0511 07:26:52.474225 13558 net.cpp:112] Top shape: 32 512 14 14 (3211264)
I0511 07:26:52.474231 13558 net.cpp:112] Top shape: 32 512 14 14 (3211264)
I0511 07:26:52.474236 13558 net.cpp:112] Top shape: 32 512 14 14 (3211264)
I0511 07:26:52.474239 13558 net.cpp:112] Top shape: 32 512 14 14 (3211264)
I0511 07:26:52.474244 13558 layer_factory.hpp:74] Creating layer inception_4d/1x1
I0511 07:26:52.474257 13558 net.cpp:76] Creating Layer inception_4d/1x1
I0511 07:26:52.474263 13558 net.cpp:372] inception_4d/1x1 <- inception_4c/output_inception_4c/output_0_split_0
I0511 07:26:52.474283 13558 net.cpp:334] inception_4d/1x1 -> inception_4d/1x1
I0511 07:26:52.474293 13558 net.cpp:105] Setting up inception_4d/1x1
I0511 07:26:52.474781 13558 net.cpp:112] Top shape: 32 112 14 14 (702464)
I0511 07:26:52.474794 13558 layer_factory.hpp:74] Creating layer inception_4d/relu_1x1
I0511 07:26:52.474804 13558 net.cpp:76] Creating Layer inception_4d/relu_1x1
I0511 07:26:52.474824 13558 net.cpp:372] inception_4d/relu_1x1 <- inception_4d/1x1
I0511 07:26:52.474833 13558 net.cpp:323] inception_4d/relu_1x1 -> inception_4d/1x1 (in-place)
I0511 07:26:52.474841 13558 net.cpp:105] Setting up inception_4d/relu_1x1
I0511 07:26:52.474848 13558 net.cpp:112] Top shape: 32 112 14 14 (702464)
I0511 07:26:52.474853 13558 layer_factory.hpp:74] Creating layer inception_4d/3x3_reduce
I0511 07:26:52.474861 13558 net.cpp:76] Creating Layer inception_4d/3x3_reduce
I0511 07:26:52.474875 13558 net.cpp:372] inception_4d/3x3_reduce <- inception_4c/output_inception_4c/output_0_split_1
I0511 07:26:52.474886 13558 net.cpp:334] inception_4d/3x3_reduce -> inception_4d/3x3_reduce
I0511 07:26:52.474896 13558 net.cpp:105] Setting up inception_4d/3x3_reduce
I0511 07:26:52.475538 13558 net.cpp:112] Top shape: 32 144 14 14 (903168)
I0511 07:26:52.475566 13558 layer_factory.hpp:74] Creating layer inception_4d/relu_3x3_reduce
I0511 07:26:52.475575 13558 net.cpp:76] Creating Layer inception_4d/relu_3x3_reduce
I0511 07:26:52.475581 13558 net.cpp:372] inception_4d/relu_3x3_reduce <- inception_4d/3x3_reduce
I0511 07:26:52.475589 13558 net.cpp:323] inception_4d/relu_3x3_reduce -> inception_4d/3x3_reduce (in-place)
I0511 07:26:52.475596 13558 net.cpp:105] Setting up inception_4d/relu_3x3_reduce
I0511 07:26:52.475601 13558 net.cpp:112] Top shape: 32 144 14 14 (903168)
I0511 07:26:52.475607 13558 layer_factory.hpp:74] Creating layer inception_4d/3x3
I0511 07:26:52.475620 13558 net.cpp:76] Creating Layer inception_4d/3x3
I0511 07:26:52.475625 13558 net.cpp:372] inception_4d/3x3 <- inception_4d/3x3_reduce
I0511 07:26:52.475635 13558 net.cpp:334] inception_4d/3x3 -> inception_4d/3x3
I0511 07:26:52.475643 13558 net.cpp:105] Setting up inception_4d/3x3
I0511 07:26:52.479384 13558 net.cpp:112] Top shape: 32 288 14 14 (1806336)
I0511 07:26:52.479403 13558 layer_factory.hpp:74] Creating layer inception_4d/relu_3x3
I0511 07:26:52.479411 13558 net.cpp:76] Creating Layer inception_4d/relu_3x3
I0511 07:26:52.479418 13558 net.cpp:372] inception_4d/relu_3x3 <- inception_4d/3x3
I0511 07:26:52.479424 13558 net.cpp:323] inception_4d/relu_3x3 -> inception_4d/3x3 (in-place)
I0511 07:26:52.479434 13558 net.cpp:105] Setting up inception_4d/relu_3x3
I0511 07:26:52.479439 13558 net.cpp:112] Top shape: 32 288 14 14 (1806336)
I0511 07:26:52.479444 13558 layer_factory.hpp:74] Creating layer inception_4d/5x5_reduce
I0511 07:26:52.479455 13558 net.cpp:76] Creating Layer inception_4d/5x5_reduce
I0511 07:26:52.479461 13558 net.cpp:372] inception_4d/5x5_reduce <- inception_4c/output_inception_4c/output_0_split_2
I0511 07:26:52.479471 13558 net.cpp:334] inception_4d/5x5_reduce -> inception_4d/5x5_reduce
I0511 07:26:52.479480 13558 net.cpp:105] Setting up inception_4d/5x5_reduce
I0511 07:26:52.479626 13558 net.cpp:112] Top shape: 32 32 14 14 (200704)
I0511 07:26:52.479637 13558 layer_factory.hpp:74] Creating layer inception_4d/relu_5x5_reduce
I0511 07:26:52.479645 13558 net.cpp:76] Creating Layer inception_4d/relu_5x5_reduce
I0511 07:26:52.479650 13558 net.cpp:372] inception_4d/relu_5x5_reduce <- inception_4d/5x5_reduce
I0511 07:26:52.479662 13558 net.cpp:323] inception_4d/relu_5x5_reduce -> inception_4d/5x5_reduce (in-place)
I0511 07:26:52.479671 13558 net.cpp:105] Setting up inception_4d/relu_5x5_reduce
I0511 07:26:52.479676 13558 net.cpp:112] Top shape: 32 32 14 14 (200704)
I0511 07:26:52.479681 13558 layer_factory.hpp:74] Creating layer inception_4d/5x5
I0511 07:26:52.479689 13558 net.cpp:76] Creating Layer inception_4d/5x5
I0511 07:26:52.479696 13558 net.cpp:372] inception_4d/5x5 <- inception_4d/5x5_reduce
I0511 07:26:52.479706 13558 net.cpp:334] inception_4d/5x5 -> inception_4d/5x5
I0511 07:26:52.479713 13558 net.cpp:105] Setting up inception_4d/5x5
I0511 07:26:52.480154 13558 net.cpp:112] Top shape: 32 64 14 14 (401408)
I0511 07:26:52.480168 13558 layer_factory.hpp:74] Creating layer inception_4d/relu_5x5
I0511 07:26:52.480176 13558 net.cpp:76] Creating Layer inception_4d/relu_5x5
I0511 07:26:52.480840 13558 net.cpp:372] inception_4d/relu_5x5 <- inception_4d/5x5
I0511 07:26:52.480850 13558 net.cpp:323] inception_4d/relu_5x5 -> inception_4d/5x5 (in-place)
I0511 07:26:52.480859 13558 net.cpp:105] Setting up inception_4d/relu_5x5
I0511 07:26:52.480865 13558 net.cpp:112] Top shape: 32 64 14 14 (401408)
I0511 07:26:52.480870 13558 layer_factory.hpp:74] Creating layer inception_4d/pool
I0511 07:26:52.480880 13558 net.cpp:76] Creating Layer inception_4d/pool
I0511 07:26:52.480886 13558 net.cpp:372] inception_4d/pool <- inception_4c/output_inception_4c/output_0_split_3
I0511 07:26:52.480895 13558 net.cpp:334] inception_4d/pool -> inception_4d/pool
I0511 07:26:52.480902 13558 net.cpp:105] Setting up inception_4d/pool
I0511 07:26:52.480911 13558 net.cpp:112] Top shape: 32 512 14 14 (3211264)
I0511 07:26:52.480916 13558 layer_factory.hpp:74] Creating layer inception_4d/pool_proj
I0511 07:26:52.480940 13558 net.cpp:76] Creating Layer inception_4d/pool_proj
I0511 07:26:52.480947 13558 net.cpp:372] inception_4d/pool_proj <- inception_4d/pool
I0511 07:26:52.480957 13558 net.cpp:334] inception_4d/pool_proj -> inception_4d/pool_proj
I0511 07:26:52.480967 13558 net.cpp:105] Setting up inception_4d/pool_proj
I0511 07:26:52.481257 13558 net.cpp:112] Top shape: 32 64 14 14 (401408)
I0511 07:26:52.481281 13558 layer_factory.hpp:74] Creating layer inception_4d/relu_pool_proj
I0511 07:26:52.481292 13558 net.cpp:76] Creating Layer inception_4d/relu_pool_proj
I0511 07:26:52.481297 13558 net.cpp:372] inception_4d/relu_pool_proj <- inception_4d/pool_proj
I0511 07:26:52.481307 13558 net.cpp:323] inception_4d/relu_pool_proj -> inception_4d/pool_proj (in-place)
I0511 07:26:52.481315 13558 net.cpp:105] Setting up inception_4d/relu_pool_proj
I0511 07:26:52.481322 13558 net.cpp:112] Top shape: 32 64 14 14 (401408)
I0511 07:26:52.481326 13558 layer_factory.hpp:74] Creating layer inception_4d/output
I0511 07:26:52.481334 13558 net.cpp:76] Creating Layer inception_4d/output
I0511 07:26:52.481340 13558 net.cpp:372] inception_4d/output <- inception_4d/1x1
I0511 07:26:52.481346 13558 net.cpp:372] inception_4d/output <- inception_4d/3x3
I0511 07:26:52.481353 13558 net.cpp:372] inception_4d/output <- inception_4d/5x5
I0511 07:26:52.481359 13558 net.cpp:372] inception_4d/output <- inception_4d/pool_proj
I0511 07:26:52.481365 13558 net.cpp:334] inception_4d/output -> inception_4d/output
I0511 07:26:52.481376 13558 net.cpp:105] Setting up inception_4d/output
I0511 07:26:52.481384 13558 net.cpp:112] Top shape: 32 528 14 14 (3311616)
I0511 07:26:52.481389 13558 layer_factory.hpp:74] Creating layer inception_4d/output_inception_4d/output_0_split
I0511 07:26:52.481398 13558 net.cpp:76] Creating Layer inception_4d/output_inception_4d/output_0_split
I0511 07:26:52.481405 13558 net.cpp:372] inception_4d/output_inception_4d/output_0_split <- inception_4d/output
I0511 07:26:52.481412 13558 net.cpp:334] inception_4d/output_inception_4d/output_0_split -> inception_4d/output_inception_4d/output_0_split_0
I0511 07:26:52.481421 13558 net.cpp:334] inception_4d/output_inception_4d/output_0_split -> inception_4d/output_inception_4d/output_0_split_1
I0511 07:26:52.481432 13558 net.cpp:334] inception_4d/output_inception_4d/output_0_split -> inception_4d/output_inception_4d/output_0_split_2
I0511 07:26:52.481441 13558 net.cpp:334] inception_4d/output_inception_4d/output_0_split -> inception_4d/output_inception_4d/output_0_split_3
I0511 07:26:52.481452 13558 net.cpp:334] inception_4d/output_inception_4d/output_0_split -> inception_4d/output_inception_4d/output_0_split_4
I0511 07:26:52.481462 13558 net.cpp:105] Setting up inception_4d/output_inception_4d/output_0_split
I0511 07:26:52.481468 13558 net.cpp:112] Top shape: 32 528 14 14 (3311616)
I0511 07:26:52.481473 13558 net.cpp:112] Top shape: 32 528 14 14 (3311616)
I0511 07:26:52.481478 13558 net.cpp:112] Top shape: 32 528 14 14 (3311616)
I0511 07:26:52.481483 13558 net.cpp:112] Top shape: 32 528 14 14 (3311616)
I0511 07:26:52.481487 13558 net.cpp:112] Top shape: 32 528 14 14 (3311616)
I0511 07:26:52.481492 13558 layer_factory.hpp:74] Creating layer loss2/ave_pool
I0511 07:26:52.481503 13558 net.cpp:76] Creating Layer loss2/ave_pool
I0511 07:26:52.481508 13558 net.cpp:372] loss2/ave_pool <- inception_4d/output_inception_4d/output_0_split_0
I0511 07:26:52.481516 13558 net.cpp:334] loss2/ave_pool -> loss2/ave_pool
I0511 07:26:52.481524 13558 net.cpp:105] Setting up loss2/ave_pool
I0511 07:26:52.481531 13558 net.cpp:112] Top shape: 32 528 4 4 (270336)
I0511 07:26:52.481536 13558 layer_factory.hpp:74] Creating layer loss2/conv
I0511 07:26:52.481549 13558 net.cpp:76] Creating Layer loss2/conv
I0511 07:26:52.481554 13558 net.cpp:372] loss2/conv <- loss2/ave_pool
I0511 07:26:52.481561 13558 net.cpp:334] loss2/conv -> loss2/conv
I0511 07:26:52.481570 13558 net.cpp:105] Setting up loss2/conv
I0511 07:26:52.482156 13558 net.cpp:112] Top shape: 32 128 4 4 (65536)
I0511 07:26:52.482172 13558 layer_factory.hpp:74] Creating layer loss2/relu_conv
I0511 07:26:52.482192 13558 net.cpp:76] Creating Layer loss2/relu_conv
I0511 07:26:52.482199 13558 net.cpp:372] loss2/relu_conv <- loss2/conv
I0511 07:26:52.482209 13558 net.cpp:323] loss2/relu_conv -> loss2/conv (in-place)
I0511 07:26:52.482218 13558 net.cpp:105] Setting up loss2/relu_conv
I0511 07:26:52.482223 13558 net.cpp:112] Top shape: 32 128 4 4 (65536)
I0511 07:26:52.482228 13558 layer_factory.hpp:74] Creating layer loss2/fc
I0511 07:26:52.482238 13558 net.cpp:76] Creating Layer loss2/fc
I0511 07:26:52.482244 13558 net.cpp:372] loss2/fc <- loss2/conv
I0511 07:26:52.482252 13558 net.cpp:334] loss2/fc -> loss2/fc
I0511 07:26:52.482262 13558 net.cpp:105] Setting up loss2/fc
I0511 07:26:52.500113 13558 net.cpp:112] Top shape: 32 1024 1 1 (32768)
I0511 07:26:52.500154 13558 layer_factory.hpp:74] Creating layer loss2/relu_fc
I0511 07:26:52.500169 13558 net.cpp:76] Creating Layer loss2/relu_fc
I0511 07:26:52.500177 13558 net.cpp:372] loss2/relu_fc <- loss2/fc
I0511 07:26:52.500191 13558 net.cpp:323] loss2/relu_fc -> loss2/fc (in-place)
I0511 07:26:52.500202 13558 net.cpp:105] Setting up loss2/relu_fc
I0511 07:26:52.500208 13558 net.cpp:112] Top shape: 32 1024 1 1 (32768)
I0511 07:26:52.500215 13558 layer_factory.hpp:74] Creating layer loss2/drop_fc
I0511 07:26:52.500223 13558 net.cpp:76] Creating Layer loss2/drop_fc
I0511 07:26:52.500228 13558 net.cpp:372] loss2/drop_fc <- loss2/fc
I0511 07:26:52.500234 13558 net.cpp:323] loss2/drop_fc -> loss2/fc (in-place)
I0511 07:26:52.500242 13558 net.cpp:105] Setting up loss2/drop_fc
I0511 07:26:52.500249 13558 net.cpp:112] Top shape: 32 1024 1 1 (32768)
I0511 07:26:52.500254 13558 layer_factory.hpp:74] Creating layer loss2/classifier
I0511 07:26:52.500263 13558 net.cpp:76] Creating Layer loss2/classifier
I0511 07:26:52.500283 13558 net.cpp:372] loss2/classifier <- loss2/fc
I0511 07:26:52.500298 13558 net.cpp:334] loss2/classifier -> loss2/classifier
I0511 07:26:52.500310 13558 net.cpp:105] Setting up loss2/classifier
I0511 07:26:52.500362 13558 net.cpp:112] Top shape: 32 2 1 1 (64)
I0511 07:26:52.500380 13558 layer_factory.hpp:74] Creating layer loss2/loss
I0511 07:26:52.500388 13558 net.cpp:76] Creating Layer loss2/loss
I0511 07:26:52.500396 13558 net.cpp:372] loss2/loss <- loss2/classifier
I0511 07:26:52.500402 13558 net.cpp:372] loss2/loss <- label_data_1_split_1
I0511 07:26:52.500411 13558 net.cpp:334] loss2/loss -> loss2/loss1
I0511 07:26:52.500419 13558 net.cpp:105] Setting up loss2/loss
I0511 07:26:52.500427 13558 layer_factory.hpp:74] Creating layer loss2/loss
I0511 07:26:52.500442 13558 net.cpp:112] Top shape: 1 1 1 1 (1)
I0511 07:26:52.500448 13558 net.cpp:118]     with loss weight 0.3
I0511 07:26:52.500468 13558 layer_factory.hpp:74] Creating layer inception_4e/1x1
I0511 07:26:52.500479 13558 net.cpp:76] Creating Layer inception_4e/1x1
I0511 07:26:52.500486 13558 net.cpp:372] inception_4e/1x1 <- inception_4d/output_inception_4d/output_0_split_1
I0511 07:26:52.500495 13558 net.cpp:334] inception_4e/1x1 -> inception_4e/1x1
I0511 07:26:52.500504 13558 net.cpp:105] Setting up inception_4e/1x1
I0511 07:26:52.501672 13558 net.cpp:112] Top shape: 32 256 14 14 (1605632)
I0511 07:26:52.501689 13558 layer_factory.hpp:74] Creating layer inception_4e/relu_1x1
I0511 07:26:52.501698 13558 net.cpp:76] Creating Layer inception_4e/relu_1x1
I0511 07:26:52.501704 13558 net.cpp:372] inception_4e/relu_1x1 <- inception_4e/1x1
I0511 07:26:52.501711 13558 net.cpp:323] inception_4e/relu_1x1 -> inception_4e/1x1 (in-place)
I0511 07:26:52.501719 13558 net.cpp:105] Setting up inception_4e/relu_1x1
I0511 07:26:52.501725 13558 net.cpp:112] Top shape: 32 256 14 14 (1605632)
I0511 07:26:52.501730 13558 layer_factory.hpp:74] Creating layer inception_4e/3x3_reduce
I0511 07:26:52.501739 13558 net.cpp:76] Creating Layer inception_4e/3x3_reduce
I0511 07:26:52.501745 13558 net.cpp:372] inception_4e/3x3_reduce <- inception_4d/output_inception_4d/output_0_split_2
I0511 07:26:52.501762 13558 net.cpp:334] inception_4e/3x3_reduce -> inception_4e/3x3_reduce
I0511 07:26:52.501816 13558 net.cpp:105] Setting up inception_4e/3x3_reduce
I0511 07:26:52.502568 13558 net.cpp:112] Top shape: 32 160 14 14 (1003520)
I0511 07:26:52.502583 13558 layer_factory.hpp:74] Creating layer inception_4e/relu_3x3_reduce
I0511 07:26:52.502593 13558 net.cpp:76] Creating Layer inception_4e/relu_3x3_reduce
I0511 07:26:52.502599 13558 net.cpp:372] inception_4e/relu_3x3_reduce <- inception_4e/3x3_reduce
I0511 07:26:52.502609 13558 net.cpp:323] inception_4e/relu_3x3_reduce -> inception_4e/3x3_reduce (in-place)
I0511 07:26:52.502617 13558 net.cpp:105] Setting up inception_4e/relu_3x3_reduce
I0511 07:26:52.502624 13558 net.cpp:112] Top shape: 32 160 14 14 (1003520)
I0511 07:26:52.502629 13558 layer_factory.hpp:74] Creating layer inception_4e/3x3
I0511 07:26:52.502636 13558 net.cpp:76] Creating Layer inception_4e/3x3
I0511 07:26:52.502646 13558 net.cpp:372] inception_4e/3x3 <- inception_4e/3x3_reduce
I0511 07:26:52.502657 13558 net.cpp:334] inception_4e/3x3 -> inception_4e/3x3
I0511 07:26:52.502667 13558 net.cpp:105] Setting up inception_4e/3x3
I0511 07:26:52.506614 13558 net.cpp:112] Top shape: 32 320 14 14 (2007040)
I0511 07:26:52.506633 13558 layer_factory.hpp:74] Creating layer inception_4e/relu_3x3
I0511 07:26:52.506641 13558 net.cpp:76] Creating Layer inception_4e/relu_3x3
I0511 07:26:52.506647 13558 net.cpp:372] inception_4e/relu_3x3 <- inception_4e/3x3
I0511 07:26:52.506657 13558 net.cpp:323] inception_4e/relu_3x3 -> inception_4e/3x3 (in-place)
I0511 07:26:52.506666 13558 net.cpp:105] Setting up inception_4e/relu_3x3
I0511 07:26:52.506672 13558 net.cpp:112] Top shape: 32 320 14 14 (2007040)
I0511 07:26:52.506677 13558 layer_factory.hpp:74] Creating layer inception_4e/5x5_reduce
I0511 07:26:52.506686 13558 net.cpp:76] Creating Layer inception_4e/5x5_reduce
I0511 07:26:52.506692 13558 net.cpp:372] inception_4e/5x5_reduce <- inception_4d/output_inception_4d/output_0_split_3
I0511 07:26:52.506702 13558 net.cpp:334] inception_4e/5x5_reduce -> inception_4e/5x5_reduce
I0511 07:26:52.506712 13558 net.cpp:105] Setting up inception_4e/5x5_reduce
I0511 07:26:52.506868 13558 net.cpp:112] Top shape: 32 32 14 14 (200704)
I0511 07:26:52.506880 13558 layer_factory.hpp:74] Creating layer inception_4e/relu_5x5_reduce
I0511 07:26:52.506887 13558 net.cpp:76] Creating Layer inception_4e/relu_5x5_reduce
I0511 07:26:52.506893 13558 net.cpp:372] inception_4e/relu_5x5_reduce <- inception_4e/5x5_reduce
I0511 07:26:52.506901 13558 net.cpp:323] inception_4e/relu_5x5_reduce -> inception_4e/5x5_reduce (in-place)
I0511 07:26:52.506907 13558 net.cpp:105] Setting up inception_4e/relu_5x5_reduce
I0511 07:26:52.506913 13558 net.cpp:112] Top shape: 32 32 14 14 (200704)
I0511 07:26:52.506918 13558 layer_factory.hpp:74] Creating layer inception_4e/5x5
I0511 07:26:52.506947 13558 net.cpp:76] Creating Layer inception_4e/5x5
I0511 07:26:52.506954 13558 net.cpp:372] inception_4e/5x5 <- inception_4e/5x5_reduce
I0511 07:26:52.506964 13558 net.cpp:334] inception_4e/5x5 -> inception_4e/5x5
I0511 07:26:52.506974 13558 net.cpp:105] Setting up inception_4e/5x5
I0511 07:26:52.507895 13558 net.cpp:112] Top shape: 32 128 14 14 (802816)
I0511 07:26:52.507916 13558 layer_factory.hpp:74] Creating layer inception_4e/relu_5x5
I0511 07:26:52.507925 13558 net.cpp:76] Creating Layer inception_4e/relu_5x5
I0511 07:26:52.507931 13558 net.cpp:372] inception_4e/relu_5x5 <- inception_4e/5x5
I0511 07:26:52.507938 13558 net.cpp:323] inception_4e/relu_5x5 -> inception_4e/5x5 (in-place)
I0511 07:26:52.507946 13558 net.cpp:105] Setting up inception_4e/relu_5x5
I0511 07:26:52.507951 13558 net.cpp:112] Top shape: 32 128 14 14 (802816)
I0511 07:26:52.507956 13558 layer_factory.hpp:74] Creating layer inception_4e/pool
I0511 07:26:52.507964 13558 net.cpp:76] Creating Layer inception_4e/pool
I0511 07:26:52.507971 13558 net.cpp:372] inception_4e/pool <- inception_4d/output_inception_4d/output_0_split_4
I0511 07:26:52.507982 13558 net.cpp:334] inception_4e/pool -> inception_4e/pool
I0511 07:26:52.507990 13558 net.cpp:105] Setting up inception_4e/pool
I0511 07:26:52.507998 13558 net.cpp:112] Top shape: 32 528 14 14 (3311616)
I0511 07:26:52.508019 13558 layer_factory.hpp:74] Creating layer inception_4e/pool_proj
I0511 07:26:52.508031 13558 net.cpp:76] Creating Layer inception_4e/pool_proj
I0511 07:26:52.508038 13558 net.cpp:372] inception_4e/pool_proj <- inception_4e/pool
I0511 07:26:52.508045 13558 net.cpp:334] inception_4e/pool_proj -> inception_4e/pool_proj
I0511 07:26:52.508055 13558 net.cpp:105] Setting up inception_4e/pool_proj
I0511 07:26:52.508644 13558 net.cpp:112] Top shape: 32 128 14 14 (802816)
I0511 07:26:52.508658 13558 layer_factory.hpp:74] Creating layer inception_4e/relu_pool_proj
I0511 07:26:52.508666 13558 net.cpp:76] Creating Layer inception_4e/relu_pool_proj
I0511 07:26:52.508673 13558 net.cpp:372] inception_4e/relu_pool_proj <- inception_4e/pool_proj
I0511 07:26:52.508687 13558 net.cpp:323] inception_4e/relu_pool_proj -> inception_4e/pool_proj (in-place)
I0511 07:26:52.508694 13558 net.cpp:105] Setting up inception_4e/relu_pool_proj
I0511 07:26:52.508700 13558 net.cpp:112] Top shape: 32 128 14 14 (802816)
I0511 07:26:52.508707 13558 layer_factory.hpp:74] Creating layer inception_4e/output
I0511 07:26:52.508715 13558 net.cpp:76] Creating Layer inception_4e/output
I0511 07:26:52.508723 13558 net.cpp:372] inception_4e/output <- inception_4e/1x1
I0511 07:26:52.508735 13558 net.cpp:372] inception_4e/output <- inception_4e/3x3
I0511 07:26:52.508749 13558 net.cpp:372] inception_4e/output <- inception_4e/5x5
I0511 07:26:52.508760 13558 net.cpp:372] inception_4e/output <- inception_4e/pool_proj
I0511 07:26:52.508776 13558 net.cpp:334] inception_4e/output -> inception_4e/output
I0511 07:26:52.508795 13558 net.cpp:105] Setting up inception_4e/output
I0511 07:26:52.508808 13558 net.cpp:112] Top shape: 32 832 14 14 (5218304)
I0511 07:26:52.508819 13558 layer_factory.hpp:74] Creating layer pool4/3x3_s2
I0511 07:26:52.508836 13558 net.cpp:76] Creating Layer pool4/3x3_s2
I0511 07:26:52.508844 13558 net.cpp:372] pool4/3x3_s2 <- inception_4e/output
I0511 07:26:52.508859 13558 net.cpp:334] pool4/3x3_s2 -> pool4/3x3_s2
I0511 07:26:52.508877 13558 net.cpp:105] Setting up pool4/3x3_s2
I0511 07:26:52.508890 13558 net.cpp:112] Top shape: 32 832 7 7 (1304576)
I0511 07:26:52.508903 13558 layer_factory.hpp:74] Creating layer pool4/3x3_s2_pool4/3x3_s2_0_split
I0511 07:26:52.508913 13558 net.cpp:76] Creating Layer pool4/3x3_s2_pool4/3x3_s2_0_split
I0511 07:26:52.508927 13558 net.cpp:372] pool4/3x3_s2_pool4/3x3_s2_0_split <- pool4/3x3_s2
I0511 07:26:52.508942 13558 net.cpp:334] pool4/3x3_s2_pool4/3x3_s2_0_split -> pool4/3x3_s2_pool4/3x3_s2_0_split_0
I0511 07:26:52.508963 13558 net.cpp:334] pool4/3x3_s2_pool4/3x3_s2_0_split -> pool4/3x3_s2_pool4/3x3_s2_0_split_1
I0511 07:26:52.508982 13558 net.cpp:334] pool4/3x3_s2_pool4/3x3_s2_0_split -> pool4/3x3_s2_pool4/3x3_s2_0_split_2
I0511 07:26:52.509027 13558 net.cpp:334] pool4/3x3_s2_pool4/3x3_s2_0_split -> pool4/3x3_s2_pool4/3x3_s2_0_split_3
I0511 07:26:52.509045 13558 net.cpp:105] Setting up pool4/3x3_s2_pool4/3x3_s2_0_split
I0511 07:26:52.509057 13558 net.cpp:112] Top shape: 32 832 7 7 (1304576)
I0511 07:26:52.509065 13558 net.cpp:112] Top shape: 32 832 7 7 (1304576)
I0511 07:26:52.509074 13558 net.cpp:112] Top shape: 32 832 7 7 (1304576)
I0511 07:26:52.509083 13558 net.cpp:112] Top shape: 32 832 7 7 (1304576)
I0511 07:26:52.509094 13558 layer_factory.hpp:74] Creating layer inception_5a/1x1
I0511 07:26:52.509115 13558 net.cpp:76] Creating Layer inception_5a/1x1
I0511 07:26:52.509124 13558 net.cpp:372] inception_5a/1x1 <- pool4/3x3_s2_pool4/3x3_s2_0_split_0
I0511 07:26:52.509135 13558 net.cpp:334] inception_5a/1x1 -> inception_5a/1x1
I0511 07:26:52.509145 13558 net.cpp:105] Setting up inception_5a/1x1
I0511 07:26:52.511018 13558 net.cpp:112] Top shape: 32 256 7 7 (401408)
I0511 07:26:52.511035 13558 layer_factory.hpp:74] Creating layer inception_5a/relu_1x1
I0511 07:26:52.511046 13558 net.cpp:76] Creating Layer inception_5a/relu_1x1
I0511 07:26:52.511057 13558 net.cpp:372] inception_5a/relu_1x1 <- inception_5a/1x1
I0511 07:26:52.511065 13558 net.cpp:323] inception_5a/relu_1x1 -> inception_5a/1x1 (in-place)
I0511 07:26:52.511088 13558 net.cpp:105] Setting up inception_5a/relu_1x1
I0511 07:26:52.511095 13558 net.cpp:112] Top shape: 32 256 7 7 (401408)
I0511 07:26:52.511101 13558 layer_factory.hpp:74] Creating layer inception_5a/3x3_reduce
I0511 07:26:52.511109 13558 net.cpp:76] Creating Layer inception_5a/3x3_reduce
I0511 07:26:52.511118 13558 net.cpp:372] inception_5a/3x3_reduce <- pool4/3x3_s2_pool4/3x3_s2_0_split_1
I0511 07:26:52.511126 13558 net.cpp:334] inception_5a/3x3_reduce -> inception_5a/3x3_reduce
I0511 07:26:52.511137 13558 net.cpp:105] Setting up inception_5a/3x3_reduce
I0511 07:26:52.512298 13558 net.cpp:112] Top shape: 32 160 7 7 (250880)
I0511 07:26:52.512313 13558 layer_factory.hpp:74] Creating layer inception_5a/relu_3x3_reduce
I0511 07:26:52.512322 13558 net.cpp:76] Creating Layer inception_5a/relu_3x3_reduce
I0511 07:26:52.512328 13558 net.cpp:372] inception_5a/relu_3x3_reduce <- inception_5a/3x3_reduce
I0511 07:26:52.512336 13558 net.cpp:323] inception_5a/relu_3x3_reduce -> inception_5a/3x3_reduce (in-place)
I0511 07:26:52.512346 13558 net.cpp:105] Setting up inception_5a/relu_3x3_reduce
I0511 07:26:52.512351 13558 net.cpp:112] Top shape: 32 160 7 7 (250880)
I0511 07:26:52.512357 13558 layer_factory.hpp:74] Creating layer inception_5a/3x3
I0511 07:26:52.512367 13558 net.cpp:76] Creating Layer inception_5a/3x3
I0511 07:26:52.512373 13558 net.cpp:372] inception_5a/3x3 <- inception_5a/3x3_reduce
I0511 07:26:52.512380 13558 net.cpp:334] inception_5a/3x3 -> inception_5a/3x3
I0511 07:26:52.512389 13558 net.cpp:105] Setting up inception_5a/3x3
I0511 07:26:52.516295 13558 net.cpp:112] Top shape: 32 320 7 7 (501760)
I0511 07:26:52.516319 13558 layer_factory.hpp:74] Creating layer inception_5a/relu_3x3
I0511 07:26:52.516329 13558 net.cpp:76] Creating Layer inception_5a/relu_3x3
I0511 07:26:52.516335 13558 net.cpp:372] inception_5a/relu_3x3 <- inception_5a/3x3
I0511 07:26:52.516342 13558 net.cpp:323] inception_5a/relu_3x3 -> inception_5a/3x3 (in-place)
I0511 07:26:52.516350 13558 net.cpp:105] Setting up inception_5a/relu_3x3
I0511 07:26:52.516356 13558 net.cpp:112] Top shape: 32 320 7 7 (501760)
I0511 07:26:52.516361 13558 layer_factory.hpp:74] Creating layer inception_5a/5x5_reduce
I0511 07:26:52.516371 13558 net.cpp:76] Creating Layer inception_5a/5x5_reduce
I0511 07:26:52.516376 13558 net.cpp:372] inception_5a/5x5_reduce <- pool4/3x3_s2_pool4/3x3_s2_0_split_2
I0511 07:26:52.516387 13558 net.cpp:334] inception_5a/5x5_reduce -> inception_5a/5x5_reduce
I0511 07:26:52.516397 13558 net.cpp:105] Setting up inception_5a/5x5_reduce
I0511 07:26:52.516634 13558 net.cpp:112] Top shape: 32 32 7 7 (50176)
I0511 07:26:52.516648 13558 layer_factory.hpp:74] Creating layer inception_5a/relu_5x5_reduce
I0511 07:26:52.517372 13558 net.cpp:76] Creating Layer inception_5a/relu_5x5_reduce
I0511 07:26:52.517385 13558 net.cpp:372] inception_5a/relu_5x5_reduce <- inception_5a/5x5_reduce
I0511 07:26:52.517395 13558 net.cpp:323] inception_5a/relu_5x5_reduce -> inception_5a/5x5_reduce (in-place)
I0511 07:26:52.517405 13558 net.cpp:105] Setting up inception_5a/relu_5x5_reduce
I0511 07:26:52.517411 13558 net.cpp:112] Top shape: 32 32 7 7 (50176)
I0511 07:26:52.517416 13558 layer_factory.hpp:74] Creating layer inception_5a/5x5
I0511 07:26:52.517431 13558 net.cpp:76] Creating Layer inception_5a/5x5
I0511 07:26:52.517437 13558 net.cpp:372] inception_5a/5x5 <- inception_5a/5x5_reduce
I0511 07:26:52.517446 13558 net.cpp:334] inception_5a/5x5 -> inception_5a/5x5
I0511 07:26:52.517457 13558 net.cpp:105] Setting up inception_5a/5x5
I0511 07:26:52.518417 13558 net.cpp:112] Top shape: 32 128 7 7 (200704)
I0511 07:26:52.518445 13558 layer_factory.hpp:74] Creating layer inception_5a/relu_5x5
I0511 07:26:52.518462 13558 net.cpp:76] Creating Layer inception_5a/relu_5x5
I0511 07:26:52.518473 13558 net.cpp:372] inception_5a/relu_5x5 <- inception_5a/5x5
I0511 07:26:52.518486 13558 net.cpp:323] inception_5a/relu_5x5 -> inception_5a/5x5 (in-place)
I0511 07:26:52.518502 13558 net.cpp:105] Setting up inception_5a/relu_5x5
I0511 07:26:52.518545 13558 net.cpp:112] Top shape: 32 128 7 7 (200704)
I0511 07:26:52.518559 13558 layer_factory.hpp:74] Creating layer inception_5a/pool
I0511 07:26:52.518579 13558 net.cpp:76] Creating Layer inception_5a/pool
I0511 07:26:52.518591 13558 net.cpp:372] inception_5a/pool <- pool4/3x3_s2_pool4/3x3_s2_0_split_3
I0511 07:26:52.518605 13558 net.cpp:334] inception_5a/pool -> inception_5a/pool
I0511 07:26:52.518623 13558 net.cpp:105] Setting up inception_5a/pool
I0511 07:26:52.518636 13558 net.cpp:112] Top shape: 32 832 7 7 (1304576)
I0511 07:26:52.518647 13558 layer_factory.hpp:74] Creating layer inception_5a/pool_proj
I0511 07:26:52.518666 13558 net.cpp:76] Creating Layer inception_5a/pool_proj
I0511 07:26:52.518679 13558 net.cpp:372] inception_5a/pool_proj <- inception_5a/pool
I0511 07:26:52.518694 13558 net.cpp:334] inception_5a/pool_proj -> inception_5a/pool_proj
I0511 07:26:52.518712 13558 net.cpp:105] Setting up inception_5a/pool_proj
I0511 07:26:52.519978 13558 net.cpp:112] Top shape: 32 128 7 7 (200704)
I0511 07:26:52.520004 13558 layer_factory.hpp:74] Creating layer inception_5a/relu_pool_proj
I0511 07:26:52.520019 13558 net.cpp:76] Creating Layer inception_5a/relu_pool_proj
I0511 07:26:52.520030 13558 net.cpp:372] inception_5a/relu_pool_proj <- inception_5a/pool_proj
I0511 07:26:52.520040 13558 net.cpp:323] inception_5a/relu_pool_proj -> inception_5a/pool_proj (in-place)
I0511 07:26:52.520050 13558 net.cpp:105] Setting up inception_5a/relu_pool_proj
I0511 07:26:52.520056 13558 net.cpp:112] Top shape: 32 128 7 7 (200704)
I0511 07:26:52.520061 13558 layer_factory.hpp:74] Creating layer inception_5a/output
I0511 07:26:52.520069 13558 net.cpp:76] Creating Layer inception_5a/output
I0511 07:26:52.520076 13558 net.cpp:372] inception_5a/output <- inception_5a/1x1
I0511 07:26:52.520081 13558 net.cpp:372] inception_5a/output <- inception_5a/3x3
I0511 07:26:52.520088 13558 net.cpp:372] inception_5a/output <- inception_5a/5x5
I0511 07:26:52.520097 13558 net.cpp:372] inception_5a/output <- inception_5a/pool_proj
I0511 07:26:52.520104 13558 net.cpp:334] inception_5a/output -> inception_5a/output
I0511 07:26:52.520113 13558 net.cpp:105] Setting up inception_5a/output
I0511 07:26:52.520119 13558 net.cpp:112] Top shape: 32 832 7 7 (1304576)
I0511 07:26:52.520125 13558 layer_factory.hpp:74] Creating layer inception_5a/output_inception_5a/output_0_split
I0511 07:26:52.520133 13558 net.cpp:76] Creating Layer inception_5a/output_inception_5a/output_0_split
I0511 07:26:52.520138 13558 net.cpp:372] inception_5a/output_inception_5a/output_0_split <- inception_5a/output
I0511 07:26:52.520149 13558 net.cpp:334] inception_5a/output_inception_5a/output_0_split -> inception_5a/output_inception_5a/output_0_split_0
I0511 07:26:52.520159 13558 net.cpp:334] inception_5a/output_inception_5a/output_0_split -> inception_5a/output_inception_5a/output_0_split_1
I0511 07:26:52.520169 13558 net.cpp:334] inception_5a/output_inception_5a/output_0_split -> inception_5a/output_inception_5a/output_0_split_2
I0511 07:26:52.520179 13558 net.cpp:334] inception_5a/output_inception_5a/output_0_split -> inception_5a/output_inception_5a/output_0_split_3
I0511 07:26:52.520186 13558 net.cpp:105] Setting up inception_5a/output_inception_5a/output_0_split
I0511 07:26:52.520194 13558 net.cpp:112] Top shape: 32 832 7 7 (1304576)
I0511 07:26:52.520198 13558 net.cpp:112] Top shape: 32 832 7 7 (1304576)
I0511 07:26:52.520203 13558 net.cpp:112] Top shape: 32 832 7 7 (1304576)
I0511 07:26:52.520208 13558 net.cpp:112] Top shape: 32 832 7 7 (1304576)
I0511 07:26:52.520213 13558 layer_factory.hpp:74] Creating layer inception_5b/1x1
I0511 07:26:52.520225 13558 net.cpp:76] Creating Layer inception_5b/1x1
I0511 07:26:52.520231 13558 net.cpp:372] inception_5b/1x1 <- inception_5a/output_inception_5a/output_0_split_0
I0511 07:26:52.520238 13558 net.cpp:334] inception_5b/1x1 -> inception_5b/1x1
I0511 07:26:52.520247 13558 net.cpp:105] Setting up inception_5b/1x1
I0511 07:26:52.522938 13558 net.cpp:112] Top shape: 32 384 7 7 (602112)
I0511 07:26:52.522958 13558 layer_factory.hpp:74] Creating layer inception_5b/relu_1x1
I0511 07:26:52.522994 13558 net.cpp:76] Creating Layer inception_5b/relu_1x1
I0511 07:26:52.523002 13558 net.cpp:372] inception_5b/relu_1x1 <- inception_5b/1x1
I0511 07:26:52.523010 13558 net.cpp:323] inception_5b/relu_1x1 -> inception_5b/1x1 (in-place)
I0511 07:26:52.523020 13558 net.cpp:105] Setting up inception_5b/relu_1x1
I0511 07:26:52.523025 13558 net.cpp:112] Top shape: 32 384 7 7 (602112)
I0511 07:26:52.523030 13558 layer_factory.hpp:74] Creating layer inception_5b/3x3_reduce
I0511 07:26:52.523043 13558 net.cpp:76] Creating Layer inception_5b/3x3_reduce
I0511 07:26:52.523049 13558 net.cpp:372] inception_5b/3x3_reduce <- inception_5a/output_inception_5a/output_0_split_1
I0511 07:26:52.523058 13558 net.cpp:334] inception_5b/3x3_reduce -> inception_5b/3x3_reduce
I0511 07:26:52.523067 13558 net.cpp:105] Setting up inception_5b/3x3_reduce
I0511 07:26:52.524433 13558 net.cpp:112] Top shape: 32 192 7 7 (301056)
I0511 07:26:52.524449 13558 layer_factory.hpp:74] Creating layer inception_5b/relu_3x3_reduce
I0511 07:26:52.524458 13558 net.cpp:76] Creating Layer inception_5b/relu_3x3_reduce
I0511 07:26:52.524464 13558 net.cpp:372] inception_5b/relu_3x3_reduce <- inception_5b/3x3_reduce
I0511 07:26:52.524474 13558 net.cpp:323] inception_5b/relu_3x3_reduce -> inception_5b/3x3_reduce (in-place)
I0511 07:26:52.524482 13558 net.cpp:105] Setting up inception_5b/relu_3x3_reduce
I0511 07:26:52.524488 13558 net.cpp:112] Top shape: 32 192 7 7 (301056)
I0511 07:26:52.524494 13558 layer_factory.hpp:74] Creating layer inception_5b/3x3
I0511 07:26:52.524502 13558 net.cpp:76] Creating Layer inception_5b/3x3
I0511 07:26:52.524508 13558 net.cpp:372] inception_5b/3x3 <- inception_5b/3x3_reduce
I0511 07:26:52.524521 13558 net.cpp:334] inception_5b/3x3 -> inception_5b/3x3
I0511 07:26:52.524559 13558 net.cpp:105] Setting up inception_5b/3x3
I0511 07:26:52.530663 13558 net.cpp:112] Top shape: 32 384 7 7 (602112)
I0511 07:26:52.530701 13558 layer_factory.hpp:74] Creating layer inception_5b/relu_3x3
I0511 07:26:52.530714 13558 net.cpp:76] Creating Layer inception_5b/relu_3x3
I0511 07:26:52.530724 13558 net.cpp:372] inception_5b/relu_3x3 <- inception_5b/3x3
I0511 07:26:52.530732 13558 net.cpp:323] inception_5b/relu_3x3 -> inception_5b/3x3 (in-place)
I0511 07:26:52.530746 13558 net.cpp:105] Setting up inception_5b/relu_3x3
I0511 07:26:52.530752 13558 net.cpp:112] Top shape: 32 384 7 7 (602112)
I0511 07:26:52.530758 13558 layer_factory.hpp:74] Creating layer inception_5b/5x5_reduce
I0511 07:26:52.530768 13558 net.cpp:76] Creating Layer inception_5b/5x5_reduce
I0511 07:26:52.530774 13558 net.cpp:372] inception_5b/5x5_reduce <- inception_5a/output_inception_5a/output_0_split_2
I0511 07:26:52.530783 13558 net.cpp:334] inception_5b/5x5_reduce -> inception_5b/5x5_reduce
I0511 07:26:52.530793 13558 net.cpp:105] Setting up inception_5b/5x5_reduce
I0511 07:26:52.531152 13558 net.cpp:112] Top shape: 32 48 7 7 (75264)
I0511 07:26:52.531164 13558 layer_factory.hpp:74] Creating layer inception_5b/relu_5x5_reduce
I0511 07:26:52.531172 13558 net.cpp:76] Creating Layer inception_5b/relu_5x5_reduce
I0511 07:26:52.531179 13558 net.cpp:372] inception_5b/relu_5x5_reduce <- inception_5b/5x5_reduce
I0511 07:26:52.531188 13558 net.cpp:323] inception_5b/relu_5x5_reduce -> inception_5b/5x5_reduce (in-place)
I0511 07:26:52.531196 13558 net.cpp:105] Setting up inception_5b/relu_5x5_reduce
I0511 07:26:52.531203 13558 net.cpp:112] Top shape: 32 48 7 7 (75264)
I0511 07:26:52.531208 13558 layer_factory.hpp:74] Creating layer inception_5b/5x5
I0511 07:26:52.531216 13558 net.cpp:76] Creating Layer inception_5b/5x5
I0511 07:26:52.531222 13558 net.cpp:372] inception_5b/5x5 <- inception_5b/5x5_reduce
I0511 07:26:52.531229 13558 net.cpp:334] inception_5b/5x5 -> inception_5b/5x5
I0511 07:26:52.531239 13558 net.cpp:105] Setting up inception_5b/5x5
I0511 07:26:52.532583 13558 net.cpp:112] Top shape: 32 128 7 7 (200704)
I0511 07:26:52.532599 13558 layer_factory.hpp:74] Creating layer inception_5b/relu_5x5
I0511 07:26:52.532609 13558 net.cpp:76] Creating Layer inception_5b/relu_5x5
I0511 07:26:52.532651 13558 net.cpp:372] inception_5b/relu_5x5 <- inception_5b/5x5
I0511 07:26:52.532660 13558 net.cpp:323] inception_5b/relu_5x5 -> inception_5b/5x5 (in-place)
I0511 07:26:52.532668 13558 net.cpp:105] Setting up inception_5b/relu_5x5
I0511 07:26:52.532673 13558 net.cpp:112] Top shape: 32 128 7 7 (200704)
I0511 07:26:52.532680 13558 layer_factory.hpp:74] Creating layer inception_5b/pool
I0511 07:26:52.532691 13558 net.cpp:76] Creating Layer inception_5b/pool
I0511 07:26:52.532696 13558 net.cpp:372] inception_5b/pool <- inception_5a/output_inception_5a/output_0_split_3
I0511 07:26:52.532703 13558 net.cpp:334] inception_5b/pool -> inception_5b/pool
I0511 07:26:52.532712 13558 net.cpp:105] Setting up inception_5b/pool
I0511 07:26:52.532721 13558 net.cpp:112] Top shape: 32 832 7 7 (1304576)
I0511 07:26:52.532727 13558 layer_factory.hpp:74] Creating layer inception_5b/pool_proj
I0511 07:26:52.532738 13558 net.cpp:76] Creating Layer inception_5b/pool_proj
I0511 07:26:52.532744 13558 net.cpp:372] inception_5b/pool_proj <- inception_5b/pool
I0511 07:26:52.532754 13558 net.cpp:334] inception_5b/pool_proj -> inception_5b/pool_proj
I0511 07:26:52.532764 13558 net.cpp:105] Setting up inception_5b/pool_proj
I0511 07:26:52.533679 13558 net.cpp:112] Top shape: 32 128 7 7 (200704)
I0511 07:26:52.533694 13558 layer_factory.hpp:74] Creating layer inception_5b/relu_pool_proj
I0511 07:26:52.533704 13558 net.cpp:76] Creating Layer inception_5b/relu_pool_proj
I0511 07:26:52.533711 13558 net.cpp:372] inception_5b/relu_pool_proj <- inception_5b/pool_proj
I0511 07:26:52.533720 13558 net.cpp:323] inception_5b/relu_pool_proj -> inception_5b/pool_proj (in-place)
I0511 07:26:52.533727 13558 net.cpp:105] Setting up inception_5b/relu_pool_proj
I0511 07:26:52.533735 13558 net.cpp:112] Top shape: 32 128 7 7 (200704)
I0511 07:26:52.533742 13558 layer_factory.hpp:74] Creating layer inception_5b/output
I0511 07:26:52.533751 13558 net.cpp:76] Creating Layer inception_5b/output
I0511 07:26:52.533756 13558 net.cpp:372] inception_5b/output <- inception_5b/1x1
I0511 07:26:52.533763 13558 net.cpp:372] inception_5b/output <- inception_5b/3x3
I0511 07:26:52.533769 13558 net.cpp:372] inception_5b/output <- inception_5b/5x5
I0511 07:26:52.533776 13558 net.cpp:372] inception_5b/output <- inception_5b/pool_proj
I0511 07:26:52.533787 13558 net.cpp:334] inception_5b/output -> inception_5b/output
I0511 07:26:52.533794 13558 net.cpp:105] Setting up inception_5b/output
I0511 07:26:52.533802 13558 net.cpp:112] Top shape: 32 1024 7 7 (1605632)
I0511 07:26:52.533807 13558 layer_factory.hpp:74] Creating layer pool5/7x7_s1
I0511 07:26:52.533814 13558 net.cpp:76] Creating Layer pool5/7x7_s1
I0511 07:26:52.533820 13558 net.cpp:372] pool5/7x7_s1 <- inception_5b/output
I0511 07:26:52.533829 13558 net.cpp:334] pool5/7x7_s1 -> pool5/7x7_s1
I0511 07:26:52.533838 13558 net.cpp:105] Setting up pool5/7x7_s1
I0511 07:26:52.533843 13558 net.cpp:112] Top shape: 32 1024 1 1 (32768)
I0511 07:26:52.533849 13558 layer_factory.hpp:74] Creating layer pool5/drop_7x7_s1
I0511 07:26:52.533859 13558 net.cpp:76] Creating Layer pool5/drop_7x7_s1
I0511 07:26:52.533865 13558 net.cpp:372] pool5/drop_7x7_s1 <- pool5/7x7_s1
I0511 07:26:52.533872 13558 net.cpp:323] pool5/drop_7x7_s1 -> pool5/7x7_s1 (in-place)
I0511 07:26:52.533881 13558 net.cpp:105] Setting up pool5/drop_7x7_s1
I0511 07:26:52.533887 13558 net.cpp:112] Top shape: 32 1024 1 1 (32768)
I0511 07:26:52.533893 13558 layer_factory.hpp:74] Creating layer loss3/classifier
I0511 07:26:52.533902 13558 net.cpp:76] Creating Layer loss3/classifier
I0511 07:26:52.533908 13558 net.cpp:372] loss3/classifier <- pool5/7x7_s1
I0511 07:26:52.533918 13558 net.cpp:334] loss3/classifier -> loss3/classifier
I0511 07:26:52.533928 13558 net.cpp:105] Setting up loss3/classifier
I0511 07:26:52.533959 13558 net.cpp:112] Top shape: 32 2 1 1 (64)
I0511 07:26:52.533970 13558 layer_factory.hpp:74] Creating layer loss3/loss3
I0511 07:26:52.533978 13558 net.cpp:76] Creating Layer loss3/loss3
I0511 07:26:52.533984 13558 net.cpp:372] loss3/loss3 <- loss3/classifier
I0511 07:26:52.534010 13558 net.cpp:372] loss3/loss3 <- label_data_1_split_2
I0511 07:26:52.534019 13558 net.cpp:334] loss3/loss3 -> loss3/loss3
I0511 07:26:52.534029 13558 net.cpp:105] Setting up loss3/loss3
I0511 07:26:52.534037 13558 layer_factory.hpp:74] Creating layer loss3/loss3
I0511 07:26:52.534051 13558 net.cpp:112] Top shape: 1 1 1 1 (1)
I0511 07:26:52.534059 13558 net.cpp:118]     with loss weight 1
I0511 07:26:52.534076 13558 net.cpp:163] loss3/loss3 needs backward computation.
I0511 07:26:52.534082 13558 net.cpp:163] loss3/classifier needs backward computation.
I0511 07:26:52.534121 13558 net.cpp:163] pool5/drop_7x7_s1 needs backward computation.
I0511 07:26:52.534127 13558 net.cpp:163] pool5/7x7_s1 needs backward computation.
…
I0511 07:26:52.542449 13558 solver.cpp:154] Creating test net (#0) specified by net file: ../../train_val.prototxt
I0511 07:26:52.542744 13558 net.cpp:253] The NetState phase (1) differed from the phase (0) specified by a rule in layer data
I0511 07:26:52.544150 13558 net.cpp:42] Initializing net from parameters: 
name: "GoogleNet"
state {
  phase: TEST
}
layer {
  name: "data"
  type: "Data"
  top: "data"
  top: "label"
  include {
    phase: TEST
  }
  transform_param {
    mirror: false
    crop_size: 224
    mean_value: 104
    mean_value: 117
    mean_value: 123
  }
  data_param {
    source: "val_lmdb"
    batch_size: 32
    backend: LMDB
  }
}
layer {
  name: "conv1/7x7_s2"
  type: "Convolution"
  bottom: "data"
  top: "conv1/7x7_s2"
  param {
    lr_mult: 1
    decay_mult: 1
  }
  param {
    lr_mult: 2
    decay_mult: 0
  }
  convolution_param {
    num_output: 64
    pad: 3
    kernel_size: 7
    stride: 2
    weight_filler {
      type: "xavier"
      std: 0.1
    }
    bias_filler {
      type: "constant"
      value: 0.2
    }
  }
}
layer {
  name: "conv1/relu_7x7"
  type: "ReLU"
  bottom: "conv1/7x7_s2"
  top: "conv1/7x7_s2"
}
layer {
  name: "pool1/3x3_s2"
  type: "Pooling"
  bottom: "conv1/7x7_s2"
  top: "pool1/3x3_s2"
  pooling_param {
    pool: MAX
    kernel_size: 3
    stride: 2
  }
}
layer {
  name: "pool1/norm1"
  type: "LRN"
  bottom: "pool1/3x3_s2"
  top: "pool1/norm1"
  lrn_param {
    local_size: 5
    alpha: 0.0001
    beta: 0.75
  }
}
layer {
  name: "conv2/3x3_reduce"
  type: "Convolution"
  bottom: "pool1/norm1"
  top: "conv2/3x3_reduce"
  param {
    lr_mult: 1
    decay_mult: 1
  }
  param {
    lr_mult: 2
    decay_mult: 0
  }
  convolution_param {
    num_output: 64
    kernel_size: 1
    weight_filler {
      type: "xavier"
      std: 0.1
    }
    bias_filler {
      type: "constant"
      value: 0.2
    }
  }
}
layer {
  name: "conv2/relu_3x3_reduce"
  type: "ReLU"
  bottom: "conv2/3x3_reduce"
  top: "conv2/3x3_reduce"
}
layer {
  name: "conv2/3x3"
  type: "Convolution"
  bottom: "conv2/3x3_reduce"
  top: "conv2/3x3"
  param {
    lr_mult: 1
    decay_mult: 1
  }
  param {
    lr_mult: 2
    decay_mult: 0
  }
  convolution_param {
    num_output: 192
    pad: 1
    kernel_size: 3
    weight_filler {
      type: "xavier"
      std: 0.03
    }
    bias_filler {
      type: "constant"
      value: 0.2
    }
  }
}
layer {
  name: "conv2/relu_3x3"
  type: "ReLU"
  bottom: "conv2/3x3"
  top: "conv2/3x3"
}
layer {
  name: "conv2/norm2"
  type: "LRN"
  bottom: "conv2/3x3"
  top: "conv2/norm2"
  lrn_param {
    local_size: 5
    alpha: 0.0001
    beta: 0.75
  }
}
layer {
  name: "pool2/3x3_s2"
  type: "Pooling"
  bottom: "conv2/norm2"
  top: "pool2/3x3_s2"
  pooling_param {
    pool: MAX
    kernel_size: 3
    stride: 2
  }
}
layer {
  name: "inception_3a/1x1"
  type: "Convolution"
  bottom: "pool2/3x3_s2"
  top: "inception_3a/1x1"
  param {
    lr_mult: 1
    decay_mult: 1
  }
  param {
    lr_mult: 2
    decay_mult: 0
  }
  convolution_param {
    num_output: 64
    kernel_size: 1
    weight_filler {
      type: "xavier"
      std: 0.03
    }
    bias_filler {
      type: "constant"
      value: 0.2
    }
  }
}
layer {
  name: "inception_3a/relu_1x1"
  type: "ReLU"
  bottom: "inception_3a/1x1"
  top: "inception_3a/1x1"
}
layer {
  name: "inception_3a/3x3_reduce"
  type: "Convolution"
  bottom: "pool2/3x3_s2"
  top: "inception_3a/3x3_reduce"
  param {
    lr_mult: 1
    decay_mult: 1
  }
  param {
    lr_mult: 2
    decay_mult: 0
  }
  convolution_param {
    num_output: 96
    kernel_size: 1
    weight_filler {
      type: "xavier"
      std: 0.09
    }
    bias_filler {
      type: "constant"
      value: 0.2
    }
  }
}
layer {
  name: "inception_3a/relu_3x3_reduce"
  type: "ReLU"
  bottom: "inception_3a/3x3_reduce"
  top: "inception_3a/3x3_reduce"
}
layer {
  name: "inception_3a/3x3"
  type: "Convolution"
  bottom: "inception_3a/3x3_reduce"
  top: "inception_3a/3x3"
  param {
    lr_mult: 1
    decay_mult: 1
  }
  param {
    lr_mult: 2
    decay_mult: 0
  }
  convolution_param {
    num_output: 128
    pad: 1
    kernel_size: 3
    weight_filler {
      type: "xavier"
      std: 0.03
    }
    bias_filler {
      type: "constant"
      value: 0.2
    }
  }
}
layer {
  name: "inception_3a/relu_3x3"
  type: "ReLU"
  bottom: "inception_3a/3x3"
  top: "inception_3a/3x3"
}
layer {
  name: "inception_3a/5x5_reduce"
  type: "Convolution"
  bottom: "pool2/3x3_s2"
  top: "inception_3a/5x5_reduce"
  param {
    lr_mult: 1
    decay_mult: 1
  }
  param {
    lr_mult: 2
    decay_mult: 0
  }
  convolution_param {
    num_output: 16
    kernel_size: 1
    weight_filler {
      type: "xavier"
      std: 0.2
    }
    bias_filler {
      type: "constant"
      value: 0.2
    }
  }
}
layer {
  name: "inception_3a/relu_5x5_reduce"
  type: "ReLU"
  bottom: "inception_3a/5x5_reduce"
  top: "inception_3a/5x5_reduce"
}
layer {
  name: "inception_3a/5x5"
  type: "Convolution"
  bottom: "inception_3a/5x5_reduce"
  top: "inception_3a/5x5"
  param {
    lr_mult: 1
    decay_mult: 1
  }
  param {
    lr_mult: 2
    decay_mult: 0
  }
  convolution_param {
    num_output: 32
    pad: 2
    kernel_size: 5
    weight_filler {
      type: "xavier"
      std: 0.03
    }
    bias_filler {
      type: "constant"
      value: 0.2
    }
  }
}
layer {
  name: "inception_3a/relu_5x5"
  type: "ReLU"
  bottom: "inception_3a/5x5"
  top: "inception_3a/5x5"
}
layer {
  name: "inception_3a/pool"
  type: "Pooling"
  bottom: "pool2/3x3_s2"
  top: "inception_3a/pool"
  pooling_param {
    pool: MAX
    kernel_size: 3
    stride: 1
    pad: 1
  }
}
layer {
  name: "inception_3a/pool_proj"
  type: "Convolution"
  bottom: "inception_3a/pool"
  top: "inception_3a/pool_proj"
  param {
    lr_mult: 1
    decay_mult: 1
  }
  param {
    lr_mult: 2
    decay_mult: 0
  }
  convolution_param {
    num_output: 32
    kernel_size: 1
    weight_filler {
      type: "xavier"
      std: 0.1
    }
    bias_filler {
      type: "constant"
      value: 0.2
    }
  }
}
layer {
  name: "inception_3a/relu_pool_proj"
  type: "ReLU"
  bottom: "inception_3a/pool_proj"
  top: "inception_3a/pool_proj"
}
layer {
  name: "inception_3a/output"
  type: "Concat"
  bottom: "inception_3a/1x1"
  bottom: "inception_3a/3x3"
  bottom: "inception_3a/5x5"
  bottom: "inception_3a/pool_proj"
  top: "inception_3a/output"
}
layer {
  name: "inception_3b/1x1"
  type: "Convolution"
  bottom: "inception_3a/output"
  top: "inception_3b/1x1"
  param {
    lr_mult: 1
    decay_mult: 1
  }
  param {
    lr_mult: 2
    decay_mult: 0
  }
  convolution_param {
    num_output: 128
    kernel_size: 1
    weight_filler {
      type: "xavier"
      std: 0.03
    }
    bias_filler {
      type: "constant"
      value: 0.2
    }
  }
}
layer {
  name: "inception_3b/relu_1x1"
  type: "ReLU"
  bottom: "inception_3b/1x1"
  top: "inception_3b/1x1"
}
layer {
  name: "inception_3b/3x3_reduce"
  type: "Convolution"
  bottom: "inception_3a/output"
  top: "inception_3b/3x3_reduce"
  param {
    lr_mult: 1
    decay_mult: 1
  }
  param {
    lr_mult: 2
    decay_mult: 0
  }
  convolution_param {
    num_output: 128
    kernel_size: 1
    weight_filler {
      type: "xavier"
      std: 0.09
    }
    bias_filler {
      type: "constant"
      value: 0.2
    }
  }
}
layer {
  name: "inception_3b/relu_3x3_reduce"
  type: "ReLU"
  bottom: "inception_3b/3x3_reduce"
  top: "inception_3b/3x3_reduce"
}
layer {
  name: "inception_3b/3x3"
  type: "Convolution"
  bottom: "inception_3b/3x3_reduce"
  top: "inception_3b/3x3"
  param {
    lr_mult: 1
    decay_mult: 1
  }
  param {
    lr_mult: 2
    decay_mult: 0
  }
  convolution_param {
    num_output: 192
    pad: 1
    kernel_size: 3
    weight_filler {
      type: "xavier"
      std: 0.03
    }
    bias_filler {
      type: "constant"
      value: 0.2
    }
  }
}
layer {
  name: "inception_3b/relu_3x3"
  type: "ReLU"
  bottom: "inception_3b/3x3"
  top: "inception_3b/3x3"
}
layer {
  name: "inception_3b/5x5_reduce"
  type: "Convolution"
  bottom: "inception_3a/output"
  top: "inception_3b/5x5_reduce"
  param {
    lr_mult: 1
    decay_mult: 1
  }
  param {
    lr_mult: 2
    decay_mult: 0
  }
  convolution_param {
    num_output: 32
    kernel_size: 1
    weight_filler {
      type: "xavier"
      std: 0.2
    }
    bias_filler {
      type: "constant"
      value: 0.2
    }
  }
}
layer {
  name: "inception_3b/relu_5x5_reduce"
  type: "ReLU"
  bottom: "inception_3b/5x5_reduce"
  top: "inception_3b/5x5_reduce"
}
layer {
  name: "inception_3b/5x5"
  type: "Convolution"
  bottom: "inception_3b/5x5_reduce"
  top: "inception_3b/5x5"
  param {
    lr_mult: 1
    decay_mult: 1
  }
  param {
    lr_mult: 2
    decay_mult: 0
  }
  convolution_param {
    num_output: 96
    pad: 2
    kernel_size: 5
    weight_filler {
      type: "xavier"
      std: 0.03
    }
    bias_filler {
      type: "constant"
      value: 0.2
    }
  }
}
layer {
  name: "inception_3b/relu_5x5"
  type: "ReLU"
  bottom: "inception_3b/5x5"
  top: "inception_3b/5x5"
}
layer {
  name: "inception_3b/pool"
  type: "Pooling"
  bottom: "inception_3a/output"
  top: "inception_3b/pool"
  pooling_param {
    pool: MAX
    kernel_size: 3
    stride: 1
    pad: 1
  }
}
layer {
  name: "inception_3b/pool_proj"
  type: "Convolution"
  bottom: "inception_3b/pool"
  top: "inception_3b/pool_proj"
  param {
    lr_mult: 1
    decay_mult: 1
  }
  param {
    lr_mult: 2
    decay_mult: 0
  }
  convolution_param {
    num_output: 64
    kernel_size: 1
    weight_filler {
      type: "xavier"
      std: 0.1
    }
    bias_filler {
      type: "constant"
      value: 0.2
    }
  }
}
layer {
  name: "inception_3b/relu_pool_proj"
  type: "ReLU"
  bottom: "inception_3b/pool_proj"
  top: "inception_3b/pool_proj"
}
layer {
  name: "inception_3b/output"
  type: "Concat"
  bottom: "inception_3b/1x1"
  bottom: "inception_3b/3x3"
  bottom: "inception_3b/5x5"
  bottom: "inception_3b/pool_proj"
  top: "inception_3b/output"
}
layer {
  name: "pool3/3x3_s2"
  type: "Pooling"
  bottom: "inception_3b/output"
  top: "pool3/3x3_s2"
  pooling_param {
    pool: MAX
    kernel_size: 3
    stride: 2
  }
}
layer {
  name: "inception_4a/1x1"
  type: "Convolution"
  bottom: "pool3/3x3_s2"
  top: "inception_4a/1x1"
  param {
    lr_mult: 1
    decay_mult: 1
  }
  param {
    lr_mult: 2
    decay_mult: 0
  }
  convolution_param {
    num_output: 192
    kernel_size: 1
    weight_filler {
      type: "xavier"
      std: 0.03
    }
    bias_filler {
      type: "constant"
      value: 0.2
    }
  }
}
layer {
  name: "inception_4a/relu_1x1"
  type: "ReLU"
  bottom: "inception_4a/1x1"
  top: "inception_4a/1x1"
}
layer {
  name: "inception_4a/3x3_reduce"
  type: "Convolution"
  bottom: "pool3/3x3_s2"
  top: "inception_4a/3x3_reduce"
  param {
    lr_mult: 1
    decay_mult: 1
  }
  param {
    lr_mult: 2
    decay_mult: 0
  }
  convolution_param {
    num_output: 96
    kernel_size: 1
    weight_filler {
      type: "xavier"
      std: 0.09
    }
    bias_filler {
      type: "constant"
      value: 0.2
    }
  }
}
layer {
  name: "inception_4a/relu_3x3_reduce"
  type: "ReLU"
  bottom: "inception_4a/3x3_reduce"
  top: "inception_4a/3x3_reduce"
}
layer {
  name: "inception_4a/3x3"
  type: "Convolution"
  bottom: "inception_4a/3x3_reduce"
  top: "inception_4a/3x3"
  param {
    lr_mult: 1
    decay_mult: 1
  }
  param {
    lr_mult: 2
    decay_mult: 0
  }
  convolution_param {
    num_output: 208
    pad: 1
    kernel_size: 3
    weight_filler {
      type: "xavier"
      std: 0.03
    }
    bias_filler {
      type: "constant"
      value: 0.2
    }
  }
}
layer {
  name: "inception_4a/relu_3x3"
  type: "ReLU"
  bottom: "inception_4a/3x3"
  top: "inception_4a/3x3"
}
layer {
  name: "inception_4a/5x5_reduce"
  type: "Convolution"
  bottom: "pool3/3x3_s2"
  top: "inception_4a/5x5_reduce"
  param {
    lr_mult: 1
    decay_mult: 1
  }
  param {
    lr_mult: 2
    decay_mult: 0
  }
  convolution_param {
    num_output: 16
    kernel_size: 1
    weight_filler {
      type: "xavier"
      std: 0.2
    }
    bias_filler {
      type: "constant"
      value: 0.2
    }
  }
}
layer {
  name: "inception_4a/relu_5x5_reduce"
  type: "ReLU"
  bottom: "inception_4a/5x5_reduce"
  top: "inception_4a/5x5_reduce"
}
layer {
  name: "inception_4a/5x5"
  type: "Convolution"
  bottom: "inception_4a/5x5_reduce"
  top: "inception_4a/5x5"
  param {
    lr_mult: 1
    decay_mult: 1
  }
  param {
    lr_mult: 2
    decay_mult: 0
  }
  convolution_param {
    num_output: 48
    pad: 2
    kernel_size: 5
    weight_filler {
      type: "xavier"
      std: 0.03
    }
    bias_filler {
      type: "constant"
      value: 0.2
    }
  }
}
layer {
  name: "inception_4a/relu_5x5"
  type: "ReLU"
  bottom: "inception_4a/5x5"
  top: "inception_4a/5x5"
}
layer {
  name: "inception_4a/pool"
  type: "Pooling"
  bottom: "pool3/3x3_s2"
  top: "inception_4a/pool"
  pooling_param {
    pool: MAX
    kernel_size: 3
    stride: 1
    pad: 1
  }
}
layer {
  name: "inception_4a/pool_proj"
  type: "Convolution"
  bottom: "inception_4a/pool"
  top: "inception_4a/pool_proj"
  param {
    lr_mult: 1
    decay_mult: 1
  }
  param {
    lr_mult: 2
    decay_mult: 0
  }
  convolution_param {
    num_output: 64
    kernel_size: 1
    weight_filler {
      type: "xavier"
      std: 0.1
    }
    bias_filler {
      type: "constant"
      value: 0.2
    }
  }
}
layer {
  name: "inception_4a/relu_pool_proj"
  type: "ReLU"
  bottom: "inception_4a/pool_proj"
  top: "inception_4a/pool_proj"
}
layer {
  name: "inception_4a/output"
  type: "Concat"
  bottom: "inception_4a/1x1"
  bottom: "inception_4a/3x3"
  bottom: "inception_4a/5x5"
  bottom: "inception_4a/pool_proj"
  top: "inception_4a/output"
}
layer {
  name: "loss1/ave_pool"
  type: "Pooling"
  bottom: "inception_4a/output"
  top: "loss1/ave_pool"
  pooling_param {
    pool: AVE
    kernel_size: 5
    stride: 3
  }
}
layer {
  name: "loss1/conv"
  type: "Convolution"
  bottom: "loss1/ave_pool"
  top: "loss1/conv"
  param {
    lr_mult: 1
    decay_mult: 1
  }
  param {
    lr_mult: 2
    decay_mult: 0
  }
  convolution_param {
    num_output: 128
    kernel_size: 1
    weight_filler {
      type: "xavier"
      std: 0.08
    }
    bias_filler {
      type: "constant"
      value: 0.2
    }
  }
}
layer {
  name: "loss1/relu_conv"
  type: "ReLU"
  bottom: "loss1/conv"
  top: "loss1/conv"
}
layer {
  name: "loss1/fc"
  type: "InnerProduct"
  bottom: "loss1/conv"
  top: "loss1/fc"
  param {
    lr_mult: 1
    decay_mult: 1
  }
  param {
    lr_mult: 2
    decay_mult: 0
  }
  inner_product_param {
    num_output: 1024
    weight_filler {
      type: "xavier"
      std: 0.02
    }
    bias_filler {
      type: "constant"
      value: 0.2
    }
  }
}
layer {
  name: "loss1/relu_fc"
  type: "ReLU"
  bottom: "loss1/fc"
  top: "loss1/fc"
}
layer {
  name: "loss1/drop_fc"
  type: "Dropout"
  bottom: "loss1/fc"
  top: "loss1/fc"
  dropout_param {
    dropout_ratio: 0.7
  }
}
layer {
  name: "loss1/classifier"
  type: "InnerProduct"
  bottom: "loss1/fc"
  top: "loss1/classifier"
  param {
    lr_mult: 1
    decay_mult: 1
  }
  param {
    lr_mult: 2
    decay_mult: 0
  }
  inner_product_param {
    num_output: 2
    weight_filler {
      type: "xavier"
      std: 0.0009765625
    }
    bias_filler {
      type: "constant"
      value: 0
    }
  }
}
layer {
  name: "loss1/loss"
  type: "SoftmaxWithLoss"
  bottom: "loss1/classifier"
  bottom: "label"
  top: "loss1/loss1"
  loss_weight: 0.3
}
layer {
  name: "loss1/top-1"
  type: "Accuracy"
  bottom: "loss1/classifier"
  bottom: "label"
  top: "loss1/top-1"
  include {
    phase: TEST
  }
}
layer {
  name: "inception_4b/1x1"
  type: "Convolution"
  bottom: "inception_4a/output"
  top: "inception_4b/1x1"
  param {
    lr_mult: 1
    decay_mult: 1
  }
  param {
    lr_mult: 2
    decay_mult: 0
  }
  convolution_param {
    num_output: 160
    kernel_size: 1
    weight_filler {
      type: "xavier"
      std: 0.03
    }
    bias_filler {
      type: "constant"
      value: 0.2
    }
  }
}
layer {
  name: "inception_4b/relu_1x1"
  type: "ReLU"
  bottom: "inception_4b/1x1"
  top: "inception_4b/1x1"
}
layer {
  name: "inception_4b/3x3_reduce"
  type: "Convolution"
  bottom: "inception_4a/output"
  top: "inception_4b/3x3_reduce"
  param {
    lr_mult: 1
    decay_mult: 1
  }
  param {
    lr_mult: 2
    decay_mult: 0
  }
  convolution_param {
    num_output: 112
    kernel_size: 1
    weight_filler {
      type: "xavier"
      std: 0.09
    }
    bias_filler {
      type: "constant"
      value: 0.2
    }
  }
}
layer {
  name: "inception_4b/relu_3x3_reduce"
  type: "ReLU"
  bottom: "inception_4b/3x3_reduce"
  top: "inception_4b/3x3_reduce"
}
layer {
  name: "inception_4b/3x3"
  type: "Convolution"
  bottom: "inception_4b/3x3_reduce"
  top: "inception_4b/3x3"
  param {
    lr_mult: 1
    decay_mult: 1
  }
  param {
    lr_mult: 2
    decay_mult: 0
  }
  convolution_param {
    num_output: 224
    pad: 1
    kernel_size: 3
    weight_filler {
      type: "xavier"
      std: 0.03
    }
    bias_filler {
      type: "constant"
      value: 0.2
    }
  }
}
layer {
  name: "inception_4b/relu_3x3"
  type: "ReLU"
  bottom: "inception_4b/3x3"
  top: "inception_4b/3x3"
}
layer {
  name: "inception_4b/5x5_reduce"
  type: "Convolution"
  bottom: "inception_4a/output"
  top: "inception_4b/5x5_reduce"
  param {
    lr_mult: 1
    decay_mult: 1
  }
  param {
    lr_mult: 2
    decay_mult: 0
  }
  convolution_param {
    num_output: 24
    kernel_size: 1
    weight_filler {
      type: "xavier"
      std: 0.2
    }
    bias_filler {
      type: "constant"
      value: 0.2
    }
  }
}
layer {
  name: "inception_4b/relu_5x5_reduce"
  type: "ReLU"
  bottom: "inception_4b/5x5_reduce"
  top: "inception_4b/5x5_reduce"
}
layer {
  name: "inception_4b/5x5"
  type: "Convolution"
  bottom: "inception_4b/5x5_reduce"
  top: "inception_4b/5x5"
  param {
    lr_mult: 1
    decay_mult: 1
  }
  param {
    lr_mult: 2
    decay_mult: 0
  }
  convolution_param {
    num_output: 64
    pad: 2
    kernel_size: 5
    weight_filler {
      type: "xavier"
      std: 0.03
    }
    bias_filler {
      type: "constant"
      value: 0.2
    }
  }
}
layer {
  name: "inception_4b/relu_5x5"
  type: "ReLU"
  bottom: "inception_4b/5x5"
  top: "inception_4b/5x5"
}
layer {
  name: "inception_4b/pool"
  type: "Pooling"
  bottom: "inception_4a/output"
  top: "inception_4b/pool"
  pooling_param {
    pool: MAX
    kernel_size: 3
    stride: 1
    pad: 1
  }
}
layer {
  name: "inception_4b/pool_proj"
  type: "Convolution"
  bottom: "inception_4b/pool"
  top: "inception_4b/pool_proj"
  param {
    lr_mult: 1
    decay_mult: 1
  }
  param {
    lr_mult: 2
    decay_mult: 0
  }
  convolution_param {
    num_output: 64
    kernel_size: 1
    weight_filler {
      type: "xavier"
      std: 0.1
    }
    bias_filler {
      type: "constant"
      value: 0.2
    }
  }
}
layer {
  name: "inception_4b/relu_pool_proj"
  type: "ReLU"
  bottom: "inception_4b/pool_proj"
  top: "inception_4b/pool_proj"
}
layer {
  name: "inception_4b/output"
  type: "Concat"
  bottom: "inception_4b/1x1"
  bottom: "inception_4b/3x3"
  bottom: "inception_4b/5x5"
  bottom: "inception_4b/pool_proj"
  top: "inception_4b/output"
}
layer {
  name: "inception_4c/1x1"
  type: "Convolution"
  bottom: "inception_4b/output"
  top: "inception_4c/1x1"
  param {
    lr_mult: 1
    decay_mult: 1
  }
  param {
    lr_mult: 2
    decay_mult: 0
  }
  convolution_param {
    num_output: 128
    kernel_size: 1
    weight_filler {
      type: "xavier"
      std: 0.03
    }
    bias_filler {
      type: "constant"
      value: 0.2
    }
  }
}
layer {
  name: "inception_4c/relu_1x1"
  type: "ReLU"
  bottom: "inception_4c/1x1"
  top: "inception_4c/1x1"
}
layer {
  name: "inception_4c/3x3_reduce"
  type: "Convolution"
  bottom: "inception_4b/output"
  top: "inception_4c/3x3_reduce"
  param {
    lr_mult: 1
    decay_mult: 1
  }
  param {
    lr_mult: 2
    decay_mult: 0
  }
  convolution_param {
    num_output: 128
    kernel_size: 1
    weight_filler {
      type: "xavier"
      std: 0.09
    }
    bias_filler {
      type: "constant"
      value: 0.2
    }
  }
}
layer {
  name: "inception_4c/relu_3x3_reduce"
  type: "ReLU"
  bottom: "inception_4c/3x3_reduce"
  top: "inception_4c/3x3_reduce"
}
layer {
  name: "inception_4c/3x3"
  type: "Convolution"
  bottom: "inception_4c/3x3_reduce"
  top: "inception_4c/3x3"
  param {
    lr_mult: 1
    decay_mult: 1
  }
  param {
    lr_mult: 2
    decay_mult: 0
  }
  convolution_param {
    num_output: 256
    pad: 1
    kernel_size: 3
    weight_filler {
      type: "xavier"
      std: 0.03
    }
    bias_filler {
      type: "constant"
      value: 0.2
    }
  }
}
layer {
  name: "inception_4c/relu_3x3"
  type: "ReLU"
  bottom: "inception_4c/3x3"
  top: "inception_4c/3x3"
}
layer {
  name: "inception_4c/5x5_reduce"
  type: "Convolution"
  bottom: "inception_4b/output"
  top: "inception_4c/5x5_reduce"
  param {
    lr_mult: 1
    decay_mult: 1
  }
  param {
    lr_mult: 2
    decay_mult: 0
  }
  convolution_param {
    num_output: 24
    kernel_size: 1
    weight_filler {
      type: "xavier"
      std: 0.2
    }
    bias_filler {
      type: "constant"
      value: 0.2
    }
  }
}
layer {
  name: "inception_4c/relu_5x5_reduce"
  type: "ReLU"
  bottom: "inception_4c/5x5_reduce"
  top: "inception_4c/5x5_reduce"
}
layer {
  name: "inception_4c/5x5"
  type: "Convolution"
  bottom: "inception_4c/5x5_reduce"
  top: "inception_4c/5x5"
  param {
    lr_mult: 1
    decay_mult: 1
  }
  param {
    lr_mult: 2
    decay_mult: 0
  }
  convolution_param {
    num_output: 64
    pad: 2
    kernel_size: 5
    weight_filler {
      type: "xavier"
      std: 0.03
    }
    bias_filler {
      type: "constant"
      value: 0.2
    }
  }
}
layer {
  name: "inception_4c/relu_5x5"
  type: "ReLU"
  bottom: "inception_4c/5x5"
  top: "inception_4c/5x5"
}
layer {
  name: "inception_4c/pool"
  type: "Pooling"
  bottom: "inception_4b/output"
  top: "inception_4c/pool"
  pooling_param {
    pool: MAX
    kernel_size: 3
    stride: 1
    pad: 1
  }
}
layer {
  name: "inception_4c/pool_proj"
  type: "Convolution"
  bottom: "inception_4c/pool"
  top: "inception_4c/pool_proj"
  param {
    lr_mult: 1
    decay_mult: 1
  }
  param {
    lr_mult: 2
    decay_mult: 0
  }
  convolution_param {
    num_output: 64
    kernel_size: 1
    weight_filler {
      type: "xavier"
      std: 0.1
    }
    bias_filler {
      type: "constant"
      value: 0.2
    }
  }
}
layer {
  name: "inception_4c/relu_pool_proj"
  type: "ReLU"
  bottom: "inception_4c/pool_proj"
  top: "inception_4c/pool_proj"
}
layer {
  name: "inception_4c/output"
  type: "Concat"
  bottom: "inception_4c/1x1"
  bottom: "inception_4c/3x3"
  bottom: "inception_4c/5x5"
  bottom: "inception_4c/pool_proj"
  top: "inception_4c/output"
}
layer {
  name: "inception_4d/1x1"
  type: "Convolution"
  bottom: "inception_4c/output"
  top: "inception_4d/1x1"
  param {
    lr_mult: 1
    decay_mult: 1
  }
  param {
    lr_mult: 2
    decay_mult: 0
  }
  convolution_param {
    num_output: 112
    kernel_size: 1
    weight_filler {
      type: "xavier"
      std: 0.03
    }
    bias_filler {
      type: "constant"
      value: 0.2
    }
  }
}
layer {
  name: "inception_4d/relu_1x1"
  type: "ReLU"
  bottom: "inception_4d/1x1"
  top: "inception_4d/1x1"
}
layer {
  name: "inception_4d/3x3_reduce"
  type: "Convolution"
  bottom: "inception_4c/output"
  top: "inception_4d/3x3_reduce"
  param {
    lr_mult: 1
    decay_mult: 1
  }
  param {
    lr_mult: 2
    decay_mult: 0
  }
  convolution_param {
    num_output: 144
    kernel_size: 1
    weight_filler {
      type: "xavier"
      std: 0.09
    }
    bias_filler {
      type: "constant"
      value: 0.2
    }
  }
}
layer {
  name: "inception_4d/relu_3x3_reduce"
  type: "ReLU"
  bottom: "inception_4d/3x3_reduce"
  top: "inception_4d/3x3_reduce"
}
layer {
  name: "inception_4d/3x3"
  type: "Convolution"
  bottom: "inception_4d/3x3_reduce"
  top: "inception_4d/3x3"
  param {
    lr_mult: 1
    decay_mult: 1
  }
  param {
    lr_mult: 2
    decay_mult: 0
  }
  convolution_param {
    num_output: 288
    pad: 1
    kernel_size: 3
    weight_filler {
      type: "xavier"
      std: 0.03
    }
    bias_filler {
      type: "constant"
      value: 0.2
    }
  }
}
layer {
  name: "inception_4d/relu_3x3"
  type: "ReLU"
  bottom: "inception_4d/3x3"
  top: "inception_4d/3x3"
}
layer {
  name: "inception_4d/5x5_reduce"
  type: "Convolution"
  bottom: "inception_4c/output"
  top: "inception_4d/5x5_reduce"
  param {
    lr_mult: 1
    decay_mult: 1
  }
  param {
    lr_mult: 2
    decay_mult: 0
  }
  convolution_param {
    num_output: 32
    kernel_size: 1
    weight_filler {
      type: "xavier"
      std: 0.2
    }
    bias_filler {
      type: "constant"
      value: 0.2
    }
  }
}
layer {
  name: "inception_4d/relu_5x5_reduce"
  type: "ReLU"
  bottom: "inception_4d/5x5_reduce"
  top: "inception_4d/5x5_reduce"
}
layer {
  name: "inception_4d/5x5"
  type: "Convolution"
  bottom: "inception_4d/5x5_reduce"
  top: "inception_4d/5x5"
  param {
    lr_mult: 1
    decay_mult: 1
  }
  param {
    lr_mult: 2
    decay_mult: 0
  }
  convolution_param {
    num_output: 64
    pad: 2
    kernel_size: 5
    weight_filler {
      type: "xavier"
      std: 0.03
    }
    bias_filler {
      type: "constant"
      value: 0.2
    }
  }
}
layer {
  name: "inception_4d/relu_5x5"
  type: "ReLU"
  bottom: "inception_4d/5x5"
  top: "inception_4d/5x5"
}
layer {
  name: "inception_4d/pool"
  type: "Pooling"
  bottom: "inception_4c/output"
  top: "inception_4d/pool"
  pooling_param {
    pool: MAX
    kernel_size: 3
    stride: 1
    pad: 1
  }
}
layer {
  name: "inception_4d/pool_proj"
  type: "Convolution"
  bottom: "inception_4d/pool"
  top: "inception_4d/pool_proj"
  param {
    lr_mult: 1
    decay_mult: 1
  }
  param {
    lr_mult: 2
    decay_mult: 0
  }
  convolution_param {
    num_output: 64
    kernel_size: 1
    weight_filler {
      type: "xavier"
      std: 0.1
    }
    bias_filler {
      type: "constant"
      value: 0.2
    }
  }
}
layer {
  name: "inception_4d/relu_pool_proj"
  type: "ReLU"
  bottom: "inception_4d/pool_proj"
  top: "inception_4d/pool_proj"
}
layer {
  name: "inception_4d/output"
  type: "Concat"
  bottom: "inception_4d/1x1"
  bottom: "inception_4d/3x3"
  bottom: "inception_4d/5x5"
  bottom: "inception_4d/pool_proj"
  top: "inception_4d/output"
}
layer {
  name: "loss2/ave_pool"
  type: "Pooling"
  bottom: "inception_4d/output"
  top: "loss2/ave_pool"
  pooling_param {
    pool: AVE
    kernel_size: 5
    stride: 3
  }
}
layer {
  name: "loss2/conv"
  type: "Convolution"
  bottom: "loss2/ave_pool"
  top: "loss2/conv"
  param {
    lr_mult: 1
    decay_mult: 1
  }
  param {
    lr_mult: 2
    decay_mult: 0
  }
  convolution_param {
    num_output: 128
    kernel_size: 1
    weight_filler {
      type: "xavier"
      std: 0.08
    }
    bias_filler {
      type: "constant"
      value: 0.2
    }
  }
}
layer {
  name: "loss2/relu_conv"
  type: "ReLU"
  bottom: "loss2/conv"
  top: "loss2/conv"
}
layer {
  name: "loss2/fc"
  type: "InnerProduct"
…
I0511 07:26:52.596482 13558 net.cpp:112] Top shape: 32 128 14 14 (802816)
I0511 07:26:52.596498 13558 layer_factory.hpp:74] Creating layer inception_4c/relu_1x1
I0511 07:26:52.596506 13558 net.cpp:76] Creating Layer inception_4c/relu_1x1
I0511 07:26:52.596513 13558 net.cpp:372] inception_4c/relu_1x1 <- inception_4c/1x1
I0511 07:26:52.596521 13558 net.cpp:323] inception_4c/relu_1x1 -> inception_4c/1x1 (in-place)
I0511 07:26:52.596529 13558 net.cpp:105] Setting up inception_4c/relu_1x1
I0511 07:26:52.596535 13558 net.cpp:112] Top shape: 32 128 14 14 (802816)
I0511 07:26:52.596554 13558 layer_factory.hpp:74] Creating layer inception_4c/3x3_reduce
I0511 07:26:52.596563 13558 net.cpp:76] Creating Layer inception_4c/3x3_reduce
I0511 07:26:52.596568 13558 net.cpp:372] inception_4c/3x3_reduce <- inception_4b/output_inception_4b/output_0_split_1
I0511 07:26:52.596580 13558 net.cpp:334] inception_4c/3x3_reduce -> inception_4c/3x3_reduce
I0511 07:26:52.596590 13558 net.cpp:105] Setting up inception_4c/3x3_reduce
I0511 07:26:52.597168 13558 net.cpp:112] Top shape: 32 128 14 14 (802816)
I0511 07:26:52.597185 13558 layer_factory.hpp:74] Creating layer inception_4c/relu_3x3_reduce
I0511 07:26:52.597193 13558 net.cpp:76] Creating Layer inception_4c/relu_3x3_reduce
I0511 07:26:52.597199 13558 net.cpp:372] inception_4c/relu_3x3_reduce <- inception_4c/3x3_reduce
I0511 07:26:52.597206 13558 net.cpp:323] inception_4c/relu_3x3_reduce -> inception_4c/3x3_reduce (in-place)
I0511 07:26:52.597213 13558 net.cpp:105] Setting up inception_4c/relu_3x3_reduce
I0511 07:26:52.597219 13558 net.cpp:112] Top shape: 32 128 14 14 (802816)
I0511 07:26:52.597224 13558 layer_factory.hpp:74] Creating layer inception_4c/3x3
I0511 07:26:52.597234 13558 net.cpp:76] Creating Layer inception_4c/3x3
I0511 07:26:52.597241 13558 net.cpp:372] inception_4c/3x3 <- inception_4c/3x3_reduce
I0511 07:26:52.597249 13558 net.cpp:334] inception_4c/3x3 -> inception_4c/3x3
I0511 07:26:52.597257 13558 net.cpp:105] Setting up inception_4c/3x3
I0511 07:26:52.599753 13558 net.cpp:112] Top shape: 32 256 14 14 (1605632)
I0511 07:26:52.599786 13558 layer_factory.hpp:74] Creating layer inception_4c/relu_3x3
I0511 07:26:52.599797 13558 net.cpp:76] Creating Layer inception_4c/relu_3x3
I0511 07:26:52.599802 13558 net.cpp:372] inception_4c/relu_3x3 <- inception_4c/3x3
I0511 07:26:52.599810 13558 net.cpp:323] inception_4c/relu_3x3 -> inception_4c/3x3 (in-place)
I0511 07:26:52.599818 13558 net.cpp:105] Setting up inception_4c/relu_3x3
I0511 07:26:52.599823 13558 net.cpp:112] Top shape: 32 256 14 14 (1605632)
I0511 07:26:52.599829 13558 layer_factory.hpp:74] Creating layer inception_4c/5x5_reduce
I0511 07:26:52.599840 13558 net.cpp:76] Creating Layer inception_4c/5x5_reduce
I0511 07:26:52.599846 13558 net.cpp:372] inception_4c/5x5_reduce <- inception_4b/output_inception_4b/output_0_split_2
I0511 07:26:52.599855 13558 net.cpp:334] inception_4c/5x5_reduce -> inception_4c/5x5_reduce
I0511 07:26:52.599864 13558 net.cpp:105] Setting up inception_4c/5x5_reduce
I0511 07:26:52.599975 13558 net.cpp:112] Top shape: 32 24 14 14 (150528)
I0511 07:26:52.599987 13558 layer_factory.hpp:74] Creating layer inception_4c/relu_5x5_reduce
I0511 07:26:52.599993 13558 net.cpp:76] Creating Layer inception_4c/relu_5x5_reduce
I0511 07:26:52.599999 13558 net.cpp:372] inception_4c/relu_5x5_reduce <- inception_4c/5x5_reduce
I0511 07:26:52.600008 13558 net.cpp:323] inception_4c/relu_5x5_reduce -> inception_4c/5x5_reduce (in-place)
I0511 07:26:52.600016 13558 net.cpp:105] Setting up inception_4c/relu_5x5_reduce
I0511 07:26:52.600023 13558 net.cpp:112] Top shape: 32 24 14 14 (150528)
I0511 07:26:52.600028 13558 layer_factory.hpp:74] Creating layer inception_4c/5x5
I0511 07:26:52.600035 13558 net.cpp:76] Creating Layer inception_4c/5x5
I0511 07:26:52.600040 13558 net.cpp:372] inception_4c/5x5 <- inception_4c/5x5_reduce
I0511 07:26:52.600050 13558 net.cpp:334] inception_4c/5x5 -> inception_4c/5x5
I0511 07:26:52.600059 13558 net.cpp:105] Setting up inception_4c/5x5
I0511 07:26:52.600404 13558 net.cpp:112] Top shape: 32 64 14 14 (401408)
I0511 07:26:52.600420 13558 layer_factory.hpp:74] Creating layer inception_4c/relu_5x5
I0511 07:26:52.600428 13558 net.cpp:76] Creating Layer inception_4c/relu_5x5
I0511 07:26:52.600435 13558 net.cpp:372] inception_4c/relu_5x5 <- inception_4c/5x5
I0511 07:26:52.600440 13558 net.cpp:323] inception_4c/relu_5x5 -> inception_4c/5x5 (in-place)
I0511 07:26:52.600448 13558 net.cpp:105] Setting up inception_4c/relu_5x5
I0511 07:26:52.600453 13558 net.cpp:112] Top shape: 32 64 14 14 (401408)
I0511 07:26:52.600460 13558 layer_factory.hpp:74] Creating layer inception_4c/pool
I0511 07:26:52.600481 13558 net.cpp:76] Creating Layer inception_4c/pool
I0511 07:26:52.600487 13558 net.cpp:372] inception_4c/pool <- inception_4b/output_inception_4b/output_0_split_3
I0511 07:26:52.600497 13558 net.cpp:334] inception_4c/pool -> inception_4c/pool
I0511 07:26:52.600507 13558 net.cpp:105] Setting up inception_4c/pool
I0511 07:26:52.600513 13558 net.cpp:112] Top shape: 32 512 14 14 (3211264)
I0511 07:26:52.600519 13558 layer_factory.hpp:74] Creating layer inception_4c/pool_proj
I0511 07:26:52.600528 13558 net.cpp:76] Creating Layer inception_4c/pool_proj
I0511 07:26:52.600533 13558 net.cpp:372] inception_4c/pool_proj <- inception_4c/pool
I0511 07:26:52.600543 13558 net.cpp:334] inception_4c/pool_proj -> inception_4c/pool_proj
I0511 07:26:52.600553 13558 net.cpp:105] Setting up inception_4c/pool_proj
I0511 07:26:52.600843 13558 net.cpp:112] Top shape: 32 64 14 14 (401408)
I0511 07:26:52.600857 13558 layer_factory.hpp:74] Creating layer inception_4c/relu_pool_proj
I0511 07:26:52.600864 13558 net.cpp:76] Creating Layer inception_4c/relu_pool_proj
I0511 07:26:52.600869 13558 net.cpp:372] inception_4c/relu_pool_proj <- inception_4c/pool_proj
I0511 07:26:52.600877 13558 net.cpp:323] inception_4c/relu_pool_proj -> inception_4c/pool_proj (in-place)
I0511 07:26:52.600886 13558 net.cpp:105] Setting up inception_4c/relu_pool_proj
I0511 07:26:52.600893 13558 net.cpp:112] Top shape: 32 64 14 14 (401408)
I0511 07:26:52.600898 13558 layer_factory.hpp:74] Creating layer inception_4c/output
I0511 07:26:52.600905 13558 net.cpp:76] Creating Layer inception_4c/output
I0511 07:26:52.600911 13558 net.cpp:372] inception_4c/output <- inception_4c/1x1
I0511 07:26:52.600917 13558 net.cpp:372] inception_4c/output <- inception_4c/3x3
I0511 07:26:52.600924 13558 net.cpp:372] inception_4c/output <- inception_4c/5x5
I0511 07:26:52.600929 13558 net.cpp:372] inception_4c/output <- inception_4c/pool_proj
I0511 07:26:52.600936 13558 net.cpp:334] inception_4c/output -> inception_4c/output
I0511 07:26:52.600944 13558 net.cpp:105] Setting up inception_4c/output
I0511 07:26:52.600950 13558 net.cpp:112] Top shape: 32 512 14 14 (3211264)
I0511 07:26:52.600955 13558 layer_factory.hpp:74] Creating layer inception_4c/output_inception_4c/output_0_split
I0511 07:26:52.600962 13558 net.cpp:76] Creating Layer inception_4c/output_inception_4c/output_0_split
I0511 07:26:52.600968 13558 net.cpp:372] inception_4c/output_inception_4c/output_0_split <- inception_4c/output
I0511 07:26:52.600977 13558 net.cpp:334] inception_4c/output_inception_4c/output_0_split -> inception_4c/output_inception_4c/output_0_split_0
I0511 07:26:52.600987 13558 net.cpp:334] inception_4c/output_inception_4c/output_0_split -> inception_4c/output_inception_4c/output_0_split_1
I0511 07:26:52.600996 13558 net.cpp:334] inception_4c/output_inception_4c/output_0_split -> inception_4c/output_inception_4c/output_0_split_2
I0511 07:26:52.601004 13558 net.cpp:334] inception_4c/output_inception_4c/output_0_split -> inception_4c/output_inception_4c/output_0_split_3
I0511 07:26:52.601030 13558 net.cpp:105] Setting up inception_4c/output_inception_4c/output_0_split
I0511 07:26:52.601038 13558 net.cpp:112] Top shape: 32 512 14 14 (3211264)
I0511 07:26:52.601044 13558 net.cpp:112] Top shape: 32 512 14 14 (3211264)
I0511 07:26:52.601049 13558 net.cpp:112] Top shape: 32 512 14 14 (3211264)
I0511 07:26:52.601053 13558 net.cpp:112] Top shape: 32 512 14 14 (3211264)
I0511 07:26:52.601058 13558 layer_factory.hpp:74] Creating layer inception_4d/1x1
I0511 07:26:52.601069 13558 net.cpp:76] Creating Layer inception_4d/1x1
I0511 07:26:52.601075 13558 net.cpp:372] inception_4d/1x1 <- inception_4c/output_inception_4c/output_0_split_0
I0511 07:26:52.601083 13558 net.cpp:334] inception_4d/1x1 -> inception_4d/1x1
I0511 07:26:52.601093 13558 net.cpp:105] Setting up inception_4d/1x1
I0511 07:26:52.601588 13558 net.cpp:112] Top shape: 32 112 14 14 (702464)
I0511 07:26:52.601603 13558 layer_factory.hpp:74] Creating layer inception_4d/relu_1x1
I0511 07:26:52.601613 13558 net.cpp:76] Creating Layer inception_4d/relu_1x1
I0511 07:26:52.601630 13558 net.cpp:372] inception_4d/relu_1x1 <- inception_4d/1x1
I0511 07:26:52.601639 13558 net.cpp:323] inception_4d/relu_1x1 -> inception_4d/1x1 (in-place)
I0511 07:26:52.601646 13558 net.cpp:105] Setting up inception_4d/relu_1x1
I0511 07:26:52.601652 13558 net.cpp:112] Top shape: 32 112 14 14 (702464)
I0511 07:26:52.601657 13558 layer_factory.hpp:74] Creating layer inception_4d/3x3_reduce
I0511 07:26:52.601665 13558 net.cpp:76] Creating Layer inception_4d/3x3_reduce
I0511 07:26:52.601671 13558 net.cpp:372] inception_4d/3x3_reduce <- inception_4c/output_inception_4c/output_0_split_1
I0511 07:26:52.601681 13558 net.cpp:334] inception_4d/3x3_reduce -> inception_4d/3x3_reduce
I0511 07:26:52.601691 13558 net.cpp:105] Setting up inception_4d/3x3_reduce
I0511 07:26:52.602339 13558 net.cpp:112] Top shape: 32 144 14 14 (903168)
I0511 07:26:52.602354 13558 layer_factory.hpp:74] Creating layer inception_4d/relu_3x3_reduce
I0511 07:26:52.602362 13558 net.cpp:76] Creating Layer inception_4d/relu_3x3_reduce
I0511 07:26:52.602368 13558 net.cpp:372] inception_4d/relu_3x3_reduce <- inception_4d/3x3_reduce
I0511 07:26:52.602375 13558 net.cpp:323] inception_4d/relu_3x3_reduce -> inception_4d/3x3_reduce (in-place)
I0511 07:26:52.602383 13558 net.cpp:105] Setting up inception_4d/relu_3x3_reduce
I0511 07:26:52.602388 13558 net.cpp:112] Top shape: 32 144 14 14 (903168)
I0511 07:26:52.602393 13558 layer_factory.hpp:74] Creating layer inception_4d/3x3
I0511 07:26:52.602403 13558 net.cpp:76] Creating Layer inception_4d/3x3
I0511 07:26:52.602409 13558 net.cpp:372] inception_4d/3x3 <- inception_4d/3x3_reduce
I0511 07:26:52.602419 13558 net.cpp:334] inception_4d/3x3 -> inception_4d/3x3
I0511 07:26:52.602428 13558 net.cpp:105] Setting up inception_4d/3x3
I0511 07:26:52.605553 13558 net.cpp:112] Top shape: 32 288 14 14 (1806336)
I0511 07:26:52.605569 13558 layer_factory.hpp:74] Creating layer inception_4d/relu_3x3
I0511 07:26:52.605577 13558 net.cpp:76] Creating Layer inception_4d/relu_3x3
I0511 07:26:52.605584 13558 net.cpp:372] inception_4d/relu_3x3 <- inception_4d/3x3
I0511 07:26:52.605592 13558 net.cpp:323] inception_4d/relu_3x3 -> inception_4d/3x3 (in-place)
I0511 07:26:52.605598 13558 net.cpp:105] Setting up inception_4d/relu_3x3
I0511 07:26:52.605604 13558 net.cpp:112] Top shape: 32 288 14 14 (1806336)
I0511 07:26:52.605609 13558 layer_factory.hpp:74] Creating layer inception_4d/5x5_reduce
I0511 07:26:52.605620 13558 net.cpp:76] Creating Layer inception_4d/5x5_reduce
I0511 07:26:52.605626 13558 net.cpp:372] inception_4d/5x5_reduce <- inception_4c/output_inception_4c/output_0_split_2
I0511 07:26:52.605636 13558 net.cpp:334] inception_4d/5x5_reduce -> inception_4d/5x5_reduce
I0511 07:26:52.605646 13558 net.cpp:105] Setting up inception_4d/5x5_reduce
I0511 07:26:52.605793 13558 net.cpp:112] Top shape: 32 32 14 14 (200704)
I0511 07:26:52.605805 13558 layer_factory.hpp:74] Creating layer inception_4d/relu_5x5_reduce
I0511 07:26:52.606467 13558 net.cpp:76] Creating Layer inception_4d/relu_5x5_reduce
I0511 07:26:52.606477 13558 net.cpp:372] inception_4d/relu_5x5_reduce <- inception_4d/5x5_reduce
I0511 07:26:52.606487 13558 net.cpp:323] inception_4d/relu_5x5_reduce -> inception_4d/5x5_reduce (in-place)
I0511 07:26:52.606495 13558 net.cpp:105] Setting up inception_4d/relu_5x5_reduce
I0511 07:26:52.606501 13558 net.cpp:112] Top shape: 32 32 14 14 (200704)
I0511 07:26:52.606506 13558 layer_factory.hpp:74] Creating layer inception_4d/5x5
I0511 07:26:52.606515 13558 net.cpp:76] Creating Layer inception_4d/5x5
I0511 07:26:52.606521 13558 net.cpp:372] inception_4d/5x5 <- inception_4d/5x5_reduce
I0511 07:26:52.606530 13558 net.cpp:334] inception_4d/5x5 -> inception_4d/5x5
I0511 07:26:52.606539 13558 net.cpp:105] Setting up inception_4d/5x5
I0511 07:26:52.606976 13558 net.cpp:112] Top shape: 32 64 14 14 (401408)
I0511 07:26:52.606989 13558 layer_factory.hpp:74] Creating layer inception_4d/relu_5x5
I0511 07:26:52.606997 13558 net.cpp:76] Creating Layer inception_4d/relu_5x5
I0511 07:26:52.607003 13558 net.cpp:372] inception_4d/relu_5x5 <- inception_4d/5x5
I0511 07:26:52.607031 13558 net.cpp:323] inception_4d/relu_5x5 -> inception_4d/5x5 (in-place)
I0511 07:26:52.607041 13558 net.cpp:105] Setting up inception_4d/relu_5x5
I0511 07:26:52.607046 13558 net.cpp:112] Top shape: 32 64 14 14 (401408)
I0511 07:26:52.607053 13558 layer_factory.hpp:74] Creating layer inception_4d/pool
I0511 07:26:52.607062 13558 net.cpp:76] Creating Layer inception_4d/pool
I0511 07:26:52.607069 13558 net.cpp:372] inception_4d/pool <- inception_4c/output_inception_4c/output_0_split_3
I0511 07:26:52.607076 13558 net.cpp:334] inception_4d/pool -> inception_4d/pool
I0511 07:26:52.607084 13558 net.cpp:105] Setting up inception_4d/pool
I0511 07:26:52.607091 13558 net.cpp:112] Top shape: 32 512 14 14 (3211264)
I0511 07:26:52.607096 13558 layer_factory.hpp:74] Creating layer inception_4d/pool_proj
I0511 07:26:52.607107 13558 net.cpp:76] Creating Layer inception_4d/pool_proj
I0511 07:26:52.607113 13558 net.cpp:372] inception_4d/pool_proj <- inception_4d/pool
I0511 07:26:52.607121 13558 net.cpp:334] inception_4d/pool_proj -> inception_4d/pool_proj
I0511 07:26:52.607131 13558 net.cpp:105] Setting up inception_4d/pool_proj
I0511 07:26:52.607431 13558 net.cpp:112] Top shape: 32 64 14 14 (401408)
I0511 07:26:52.607447 13558 layer_factory.hpp:74] Creating layer inception_4d/relu_pool_proj
I0511 07:26:52.607455 13558 net.cpp:76] Creating Layer inception_4d/relu_pool_proj
I0511 07:26:52.607461 13558 net.cpp:372] inception_4d/relu_pool_proj <- inception_4d/pool_proj
I0511 07:26:52.607471 13558 net.cpp:323] inception_4d/relu_pool_proj -> inception_4d/pool_proj (in-place)
I0511 07:26:52.607480 13558 net.cpp:105] Setting up inception_4d/relu_pool_proj
I0511 07:26:52.607486 13558 net.cpp:112] Top shape: 32 64 14 14 (401408)
I0511 07:26:52.607491 13558 layer_factory.hpp:74] Creating layer inception_4d/output
I0511 07:26:52.607501 13558 net.cpp:76] Creating Layer inception_4d/output
I0511 07:26:52.607507 13558 net.cpp:372] inception_4d/output <- inception_4d/1x1
I0511 07:26:52.607513 13558 net.cpp:372] inception_4d/output <- inception_4d/3x3
I0511 07:26:52.607519 13558 net.cpp:372] inception_4d/output <- inception_4d/5x5
I0511 07:26:52.607525 13558 net.cpp:372] inception_4d/output <- inception_4d/pool_proj
I0511 07:26:52.607532 13558 net.cpp:334] inception_4d/output -> inception_4d/output
I0511 07:26:52.607542 13558 net.cpp:105] Setting up inception_4d/output
I0511 07:26:52.607547 13558 net.cpp:112] Top shape: 32 528 14 14 (3311616)
I0511 07:26:52.607553 13558 layer_factory.hpp:74] Creating layer inception_4d/output_inception_4d/output_0_split
I0511 07:26:52.607563 13558 net.cpp:76] Creating Layer inception_4d/output_inception_4d/output_0_split
I0511 07:26:52.607568 13558 net.cpp:372] inception_4d/output_inception_4d/output_0_split <- inception_4d/output
I0511 07:26:52.607576 13558 net.cpp:334] inception_4d/output_inception_4d/output_0_split -> inception_4d/output_inception_4d/output_0_split_0
I0511 07:26:52.607585 13558 net.cpp:334] inception_4d/output_inception_4d/output_0_split -> inception_4d/output_inception_4d/output_0_split_1
I0511 07:26:52.607594 13558 net.cpp:334] inception_4d/output_inception_4d/output_0_split -> inception_4d/output_inception_4d/output_0_split_2
I0511 07:26:52.607604 13558 net.cpp:334] inception_4d/output_inception_4d/output_0_split -> inception_4d/output_inception_4d/output_0_split_3
I0511 07:26:52.607612 13558 net.cpp:334] inception_4d/output_inception_4d/output_0_split -> inception_4d/output_inception_4d/output_0_split_4
I0511 07:26:52.607620 13558 net.cpp:105] Setting up inception_4d/output_inception_4d/output_0_split
I0511 07:26:52.607627 13558 net.cpp:112] Top shape: 32 528 14 14 (3311616)
I0511 07:26:52.607632 13558 net.cpp:112] Top shape: 32 528 14 14 (3311616)
I0511 07:26:52.607637 13558 net.cpp:112] Top shape: 32 528 14 14 (3311616)
I0511 07:26:52.607642 13558 net.cpp:112] Top shape: 32 528 14 14 (3311616)
I0511 07:26:52.607646 13558 net.cpp:112] Top shape: 32 528 14 14 (3311616)
I0511 07:26:52.607651 13558 layer_factory.hpp:74] Creating layer loss2/ave_pool
I0511 07:26:52.607674 13558 net.cpp:76] Creating Layer loss2/ave_pool
I0511 07:26:52.607681 13558 net.cpp:372] loss2/ave_pool <- inception_4d/output_inception_4d/output_0_split_0
I0511 07:26:52.607689 13558 net.cpp:334] loss2/ave_pool -> loss2/ave_pool
I0511 07:26:52.607698 13558 net.cpp:105] Setting up loss2/ave_pool
I0511 07:26:52.607707 13558 net.cpp:112] Top shape: 32 528 4 4 (270336)
I0511 07:26:52.607712 13558 layer_factory.hpp:74] Creating layer loss2/conv
I0511 07:26:52.607722 13558 net.cpp:76] Creating Layer loss2/conv
I0511 07:26:52.607727 13558 net.cpp:372] loss2/conv <- loss2/ave_pool
I0511 07:26:52.607734 13558 net.cpp:334] loss2/conv -> loss2/conv
I0511 07:26:52.607743 13558 net.cpp:105] Setting up loss2/conv
I0511 07:26:52.608327 13558 net.cpp:112] Top shape: 32 128 4 4 (65536)
I0511 07:26:52.608341 13558 layer_factory.hpp:74] Creating layer loss2/relu_conv
I0511 07:26:52.608350 13558 net.cpp:76] Creating Layer loss2/relu_conv
I0511 07:26:52.608355 13558 net.cpp:372] loss2/relu_conv <- loss2/conv
I0511 07:26:52.608364 13558 net.cpp:323] loss2/relu_conv -> loss2/conv (in-place)
I0511 07:26:52.608372 13558 net.cpp:105] Setting up loss2/relu_conv
I0511 07:26:52.608378 13558 net.cpp:112] Top shape: 32 128 4 4 (65536)
I0511 07:26:52.608383 13558 layer_factory.hpp:74] Creating layer loss2/fc
I0511 07:26:52.608392 13558 net.cpp:76] Creating Layer loss2/fc
I0511 07:26:52.608397 13558 net.cpp:372] loss2/fc <- loss2/conv
I0511 07:26:52.608407 13558 net.cpp:334] loss2/fc -> loss2/fc
I0511 07:26:52.608417 13558 net.cpp:105] Setting up loss2/fc
I0511 07:26:52.625341 13558 net.cpp:112] Top shape: 32 1024 1 1 (32768)
I0511 07:26:52.625380 13558 layer_factory.hpp:74] Creating layer loss2/relu_fc
I0511 07:26:52.625392 13558 net.cpp:76] Creating Layer loss2/relu_fc
I0511 07:26:52.625401 13558 net.cpp:372] loss2/relu_fc <- loss2/fc
I0511 07:26:52.625416 13558 net.cpp:323] loss2/relu_fc -> loss2/fc (in-place)
I0511 07:26:52.625426 13558 net.cpp:105] Setting up loss2/relu_fc
I0511 07:26:52.625432 13558 net.cpp:112] Top shape: 32 1024 1 1 (32768)
I0511 07:26:52.625437 13558 layer_factory.hpp:74] Creating layer loss2/drop_fc
I0511 07:26:52.625447 13558 net.cpp:76] Creating Layer loss2/drop_fc
I0511 07:26:52.625452 13558 net.cpp:372] loss2/drop_fc <- loss2/fc
I0511 07:26:52.625458 13558 net.cpp:323] loss2/drop_fc -> loss2/fc (in-place)
I0511 07:26:52.625465 13558 net.cpp:105] Setting up loss2/drop_fc
I0511 07:26:52.625473 13558 net.cpp:112] Top shape: 32 1024 1 1 (32768)
I0511 07:26:52.625478 13558 layer_factory.hpp:74] Creating layer loss2/classifier
I0511 07:26:52.625488 13558 net.cpp:76] Creating Layer loss2/classifier
I0511 07:26:52.625493 13558 net.cpp:372] loss2/classifier <- loss2/fc
I0511 07:26:52.625502 13558 net.cpp:334] loss2/classifier -> loss2/classifier
I0511 07:26:52.625514 13558 net.cpp:105] Setting up loss2/classifier
I0511 07:26:52.625545 13558 net.cpp:112] Top shape: 32 2 1 1 (64)
I0511 07:26:52.625556 13558 layer_factory.hpp:74] Creating layer loss2/classifier_loss2/classifier_0_split
I0511 07:26:52.625565 13558 net.cpp:76] Creating Layer loss2/classifier_loss2/classifier_0_split
I0511 07:26:52.625571 13558 net.cpp:372] loss2/classifier_loss2/classifier_0_split <- loss2/classifier
I0511 07:26:52.625577 13558 net.cpp:334] loss2/classifier_loss2/classifier_0_split -> loss2/classifier_loss2/classifier_0_split_0
I0511 07:26:52.625586 13558 net.cpp:334] loss2/classifier_loss2/classifier_0_split -> loss2/classifier_loss2/classifier_0_split_1
I0511 07:26:52.625596 13558 net.cpp:105] Setting up loss2/classifier_loss2/classifier_0_split
I0511 07:26:52.625602 13558 net.cpp:112] Top shape: 32 2 1 1 (64)
I0511 07:26:52.625607 13558 net.cpp:112] Top shape: 32 2 1 1 (64)
I0511 07:26:52.625612 13558 layer_factory.hpp:74] Creating layer loss2/loss
I0511 07:26:52.625622 13558 net.cpp:76] Creating Layer loss2/loss
I0511 07:26:52.625628 13558 net.cpp:372] loss2/loss <- loss2/classifier_loss2/classifier_0_split_0
I0511 07:26:52.625635 13558 net.cpp:372] loss2/loss <- label_data_1_split_2
I0511 07:26:52.625643 13558 net.cpp:334] loss2/loss -> loss2/loss1
I0511 07:26:52.625680 13558 net.cpp:105] Setting up loss2/loss
I0511 07:26:52.625689 13558 layer_factory.hpp:74] Creating layer loss2/loss
I0511 07:26:52.625705 13558 net.cpp:112] Top shape: 1 1 1 1 (1)
I0511 07:26:52.625711 13558 net.cpp:118]     with loss weight 0.3
I0511 07:26:52.625728 13558 layer_factory.hpp:74] Creating layer loss2/top-1
I0511 07:26:52.625736 13558 net.cpp:76] Creating Layer loss2/top-1
I0511 07:26:52.625743 13558 net.cpp:372] loss2/top-1 <- loss2/classifier_loss2/classifier_0_split_1
I0511 07:26:52.625749 13558 net.cpp:372] loss2/top-1 <- label_data_1_split_3
I0511 07:26:52.625759 13558 net.cpp:334] loss2/top-1 -> loss2/top-1
I0511 07:26:52.625768 13558 net.cpp:105] Setting up loss2/top-1
I0511 07:26:52.625774 13558 net.cpp:112] Top shape: 1 1 1 1 (1)
I0511 07:26:52.625780 13558 layer_factory.hpp:74] Creating layer inception_4e/1x1
I0511 07:26:52.625790 13558 net.cpp:76] Creating Layer inception_4e/1x1
I0511 07:26:52.625797 13558 net.cpp:372] inception_4e/1x1 <- inception_4d/output_inception_4d/output_0_split_1
I0511 07:26:52.625807 13558 net.cpp:334] inception_4e/1x1 -> inception_4e/1x1
I0511 07:26:52.625815 13558 net.cpp:105] Setting up inception_4e/1x1
I0511 07:26:52.627022 13558 net.cpp:112] Top shape: 32 256 14 14 (1605632)
I0511 07:26:52.627044 13558 layer_factory.hpp:74] Creating layer inception_4e/relu_1x1
I0511 07:26:52.627055 13558 net.cpp:76] Creating Layer inception_4e/relu_1x1
I0511 07:26:52.627063 13558 net.cpp:372] inception_4e/relu_1x1 <- inception_4e/1x1
I0511 07:26:52.627073 13558 net.cpp:323] inception_4e/relu_1x1 -> inception_4e/1x1 (in-place)
I0511 07:26:52.627081 13558 net.cpp:105] Setting up inception_4e/relu_1x1
I0511 07:26:52.627087 13558 net.cpp:112] Top shape: 32 256 14 14 (1605632)
I0511 07:26:52.627092 13558 layer_factory.hpp:74] Creating layer inception_4e/3x3_reduce
I0511 07:26:52.627102 13558 net.cpp:76] Creating Layer inception_4e/3x3_reduce
I0511 07:26:52.627109 13558 net.cpp:372] inception_4e/3x3_reduce <- inception_4d/output_inception_4d/output_0_split_2
I0511 07:26:52.627120 13558 net.cpp:334] inception_4e/3x3_reduce -> inception_4e/3x3_reduce
I0511 07:26:52.627130 13558 net.cpp:105] Setting up inception_4e/3x3_reduce
I0511 07:26:52.627876 13558 net.cpp:112] Top shape: 32 160 14 14 (1003520)
I0511 07:26:52.627890 13558 layer_factory.hpp:74] Creating layer inception_4e/relu_3x3_reduce
I0511 07:26:52.627899 13558 net.cpp:76] Creating Layer inception_4e/relu_3x3_reduce
I0511 07:26:52.627905 13558 net.cpp:372] inception_4e/relu_3x3_reduce <- inception_4e/3x3_reduce
I0511 07:26:52.627912 13558 net.cpp:323] inception_4e/relu_3x3_reduce -> inception_4e/3x3_reduce (in-place)
I0511 07:26:52.627920 13558 net.cpp:105] Setting up inception_4e/relu_3x3_reduce
I0511 07:26:52.627926 13558 net.cpp:112] Top shape: 32 160 14 14 (1003520)
I0511 07:26:52.627933 13558 layer_factory.hpp:74] Creating layer inception_4e/3x3
I0511 07:26:52.627962 13558 net.cpp:76] Creating Layer inception_4e/3x3
I0511 07:26:52.627969 13558 net.cpp:372] inception_4e/3x3 <- inception_4e/3x3_reduce
I0511 07:26:52.627979 13558 net.cpp:334] inception_4e/3x3 -> inception_4e/3x3
I0511 07:26:52.627987 13558 net.cpp:105] Setting up inception_4e/3x3
I0511 07:26:52.631849 13558 net.cpp:112] Top shape: 32 320 14 14 (2007040)
I0511 07:26:52.631865 13558 layer_factory.hpp:74] Creating layer inception_4e/relu_3x3
I0511 07:26:52.631873 13558 net.cpp:76] Creating Layer inception_4e/relu_3x3
I0511 07:26:52.631881 13558 net.cpp:372] inception_4e/relu_3x3 <- inception_4e/3x3
I0511 07:26:52.631889 13558 net.cpp:323] inception_4e/relu_3x3 -> inception_4e/3x3 (in-place)
I0511 07:26:52.631897 13558 net.cpp:105] Setting up inception_4e/relu_3x3
I0511 07:26:52.631902 13558 net.cpp:112] Top shape: 32 320 14 14 (2007040)
I0511 07:26:52.631908 13558 layer_factory.hpp:74] Creating layer inception_4e/5x5_reduce
I0511 07:26:52.631916 13558 net.cpp:76] Creating Layer inception_4e/5x5_reduce
I0511 07:26:52.631922 13558 net.cpp:372] inception_4e/5x5_reduce <- inception_4d/output_inception_4d/output_0_split_3
I0511 07:26:52.631953 13558 net.cpp:334] inception_4e/5x5_reduce -> inception_4e/5x5_reduce
I0511 07:26:52.631964 13558 net.cpp:105] Setting up inception_4e/5x5_reduce
I0511 07:26:52.632112 13558 net.cpp:112] Top shape: 32 32 14 14 (200704)
I0511 07:26:52.632122 13558 layer_factory.hpp:74] Creating layer inception_4e/relu_5x5_reduce
I0511 07:26:52.632133 13558 net.cpp:76] Creating Layer inception_4e/relu_5x5_reduce
I0511 07:26:52.632139 13558 net.cpp:372] inception_4e/relu_5x5_reduce <- inception_4e/5x5_reduce
I0511 07:26:52.632146 13558 net.cpp:323] inception_4e/relu_5x5_reduce -> inception_4e/5x5_reduce (in-place)
I0511 07:26:52.632153 13558 net.cpp:105] Setting up inception_4e/relu_5x5_reduce
I0511 07:26:52.632159 13558 net.cpp:112] Top shape: 32 32 14 14 (200704)
I0511 07:26:52.632164 13558 layer_factory.hpp:74] Creating layer inception_4e/5x5
I0511 07:26:52.632174 13558 net.cpp:76] Creating Layer inception_4e/5x5
I0511 07:26:52.632180 13558 net.cpp:372] inception_4e/5x5 <- inception_4e/5x5_reduce
I0511 07:26:52.632187 13558 net.cpp:334] inception_4e/5x5 -> inception_4e/5x5
I0511 07:26:52.632196 13558 net.cpp:105] Setting up inception_4e/5x5
I0511 07:26:52.633070 13558 net.cpp:112] Top shape: 32 128 14 14 (802816)
I0511 07:26:52.633085 13558 layer_factory.hpp:74] Creating layer inception_4e/relu_5x5
I0511 07:26:52.633096 13558 net.cpp:76] Creating Layer inception_4e/relu_5x5
I0511 07:26:52.633103 13558 net.cpp:372] inception_4e/relu_5x5 <- inception_4e/5x5
I0511 07:26:52.633111 13558 net.cpp:323] inception_4e/relu_5x5 -> inception_4e/5x5 (in-place)
I0511 07:26:52.633118 13558 net.cpp:105] Setting up inception_4e/relu_5x5
I0511 07:26:52.633123 13558 net.cpp:112] Top shape: 32 128 14 14 (802816)
I0511 07:26:52.633129 13558 layer_factory.hpp:74] Creating layer inception_4e/pool
I0511 07:26:52.633137 13558 net.cpp:76] Creating Layer inception_4e/pool
I0511 07:26:52.633143 13558 net.cpp:372] inception_4e/pool <- inception_4d/output_inception_4d/output_0_split_4
I0511 07:26:52.633151 13558 net.cpp:334] inception_4e/pool -> inception_4e/pool
I0511 07:26:52.633159 13558 net.cpp:105] Setting up inception_4e/pool
I0511 07:26:52.633167 13558 net.cpp:112] Top shape: 32 528 14 14 (3311616)
I0511 07:26:52.633173 13558 layer_factory.hpp:74] Creating layer inception_4e/pool_proj
I0511 07:26:52.633183 13558 net.cpp:76] Creating Layer inception_4e/pool_proj
I0511 07:26:52.633190 13558 net.cpp:372] inception_4e/pool_proj <- inception_4e/pool
I0511 07:26:52.633200 13558 net.cpp:334] inception_4e/pool_proj -> inception_4e/pool_proj
I0511 07:26:52.633209 13558 net.cpp:105] Setting up inception_4e/pool_proj
I0511 07:26:52.633795 13558 net.cpp:112] Top shape: 32 128 14 14 (802816)
I0511 07:26:52.633811 13558 layer_factory.hpp:74] Creating layer inception_4e/relu_pool_proj
I0511 07:26:52.633822 13558 net.cpp:76] Creating Layer inception_4e/relu_pool_proj
I0511 07:26:52.633828 13558 net.cpp:372] inception_4e/relu_pool_proj <- inception_4e/pool_proj
I0511 07:26:52.633836 13558 net.cpp:323] inception_4e/relu_pool_proj -> inception_4e/pool_proj (in-place)
I0511 07:26:52.633843 13558 net.cpp:105] Setting up inception_4e/relu_pool_proj
I0511 07:26:52.633849 13558 net.cpp:112] Top shape: 32 128 14 14 (802816)
I0511 07:26:52.633854 13558 layer_factory.hpp:74] Creating layer inception_4e/output
I0511 07:26:52.633867 13558 net.cpp:76] Creating Layer inception_4e/output
I0511 07:26:52.633873 13558 net.cpp:372] inception_4e/output <- inception_4e/1x1
I0511 07:26:52.633880 13558 net.cpp:372] inception_4e/output <- inception_4e/3x3
I0511 07:26:52.633887 13558 net.cpp:372] inception_4e/output <- inception_4e/5x5
I0511 07:26:52.633893 13558 net.cpp:372] inception_4e/output <- inception_4e/pool_proj
I0511 07:26:52.633899 13558 net.cpp:334] inception_4e/output -> inception_4e/output
I0511 07:26:52.633908 13558 net.cpp:105] Setting up inception_4e/output
I0511 07:26:52.633914 13558 net.cpp:112] Top shape: 32 832 14 14 (5218304)
I0511 07:26:52.633919 13558 layer_factory.hpp:74] Creating layer pool4/3x3_s2
I0511 07:26:52.633926 13558 net.cpp:76] Creating Layer pool4/3x3_s2
I0511 07:26:52.633965 13558 net.cpp:372] pool4/3x3_s2 <- inception_4e/output
I0511 07:26:52.633975 13558 net.cpp:334] pool4/3x3_s2 -> pool4/3x3_s2
I0511 07:26:52.633985 13558 net.cpp:105] Setting up pool4/3x3_s2
I0511 07:26:52.633991 13558 net.cpp:112] Top shape: 32 832 7 7 (1304576)
I0511 07:26:52.633996 13558 layer_factory.hpp:74] Creating layer pool4/3x3_s2_pool4/3x3_s2_0_split
I0511 07:26:52.634006 13558 net.cpp:76] Creating Layer pool4/3x3_s2_pool4/3x3_s2_0_split
I0511 07:26:52.634012 13558 net.cpp:372] pool4/3x3_s2_pool4/3x3_s2_0_split <- pool4/3x3_s2
I0511 07:26:52.634021 13558 net.cpp:334] pool4/3x3_s2_pool4/3x3_s2_0_split -> pool4/3x3_s2_pool4/3x3_s2_0_split_0
I0511 07:26:52.634028 13558 net.cpp:334] pool4/3x3_s2_pool4/3x3_s2_0_split -> pool4/3x3_s2_pool4/3x3_s2_0_split_1
I0511 07:26:52.634040 13558 net.cpp:334] pool4/3x3_s2_pool4/3x3_s2_0_split -> pool4/3x3_s2_pool4/3x3_s2_0_split_2
I0511 07:26:52.634049 13558 net.cpp:334] pool4/3x3_s2_pool4/3x3_s2_0_split -> pool4/3x3_s2_pool4/3x3_s2_0_split_3
I0511 07:26:52.634057 13558 net.cpp:105] Setting up pool4/3x3_s2_pool4/3x3_s2_0_split
I0511 07:26:52.634063 13558 net.cpp:112] Top shape: 32 832 7 7 (1304576)
I0511 07:26:52.634068 13558 net.cpp:112] Top shape: 32 832 7 7 (1304576)
I0511 07:26:52.634073 13558 net.cpp:112] Top shape: 32 832 7 7 (1304576)
I0511 07:26:52.634078 13558 net.cpp:112] Top shape: 32 832 7 7 (1304576)
I0511 07:26:52.634083 13558 layer_factory.hpp:74] Creating layer inception_5a/1x1
I0511 07:26:52.634090 13558 net.cpp:76] Creating Layer inception_5a/1x1
I0511 07:26:52.634096 13558 net.cpp:372] inception_5a/1x1 <- pool4/3x3_s2_pool4/3x3_s2_0_split_0
I0511 07:26:52.634106 13558 net.cpp:334] inception_5a/1x1 -> inception_5a/1x1
I0511 07:26:52.634116 13558 net.cpp:105] Setting up inception_5a/1x1
I0511 07:26:52.635910 13558 net.cpp:112] Top shape: 32 256 7 7 (401408)
I0511 07:26:52.635926 13558 layer_factory.hpp:74] Creating layer inception_5a/relu_1x1
I0511 07:26:52.635933 13558 net.cpp:76] Creating Layer inception_5a/relu_1x1
I0511 07:26:52.635939 13558 net.cpp:372] inception_5a/relu_1x1 <- inception_5a/1x1
I0511 07:26:52.635946 13558 net.cpp:323] inception_5a/relu_1x1 -> inception_5a/1x1 (in-place)
I0511 07:26:52.635954 13558 net.cpp:105] Setting up inception_5a/relu_1x1
I0511 07:26:52.635960 13558 net.cpp:112] Top shape: 32 256 7 7 (401408)
I0511 07:26:52.635965 13558 layer_factory.hpp:74] Creating layer inception_5a/3x3_reduce
I0511 07:26:52.635977 13558 net.cpp:76] Creating Layer inception_5a/3x3_reduce
I0511 07:26:52.635982 13558 net.cpp:372] inception_5a/3x3_reduce <- pool4/3x3_s2_pool4/3x3_s2_0_split_1
I0511 07:26:52.635993 13558 net.cpp:334] inception_5a/3x3_reduce -> inception_5a/3x3_reduce
I0511 07:26:52.636003 13558 net.cpp:105] Setting up inception_5a/3x3_reduce
I0511 07:26:52.637123 13558 net.cpp:112] Top shape: 32 160 7 7 (250880)
I0511 07:26:52.637137 13558 layer_factory.hpp:74] Creating layer inception_5a/relu_3x3_reduce
I0511 07:26:52.637145 13558 net.cpp:76] Creating Layer inception_5a/relu_3x3_reduce
I0511 07:26:52.637152 13558 net.cpp:372] inception_5a/relu_3x3_reduce <- inception_5a/3x3_reduce
I0511 07:26:52.637161 13558 net.cpp:323] inception_5a/relu_3x3_reduce -> inception_5a/3x3_reduce (in-place)
I0511 07:26:52.637171 13558 net.cpp:105] Setting up inception_5a/relu_3x3_reduce
I0511 07:26:52.637176 13558 net.cpp:112] Top shape: 32 160 7 7 (250880)
I0511 07:26:52.637181 13558 layer_factory.hpp:74] Creating layer inception_5a/3x3
I0511 07:26:52.637189 13558 net.cpp:76] Creating Layer inception_5a/3x3
I0511 07:26:52.637194 13558 net.cpp:372] inception_5a/3x3 <- inception_5a/3x3_reduce
I0511 07:26:52.637204 13558 net.cpp:334] inception_5a/3x3 -> inception_5a/3x3
I0511 07:26:52.637213 13558 net.cpp:105] Setting up inception_5a/3x3
I0511 07:26:52.641062 13558 net.cpp:112] Top shape: 32 320 7 7 (501760)
I0511 07:26:52.641079 13558 layer_factory.hpp:74] Creating layer inception_5a/relu_3x3
I0511 07:26:52.641088 13558 net.cpp:76] Creating Layer inception_5a/relu_3x3
I0511 07:26:52.641829 13558 net.cpp:372] inception_5a/relu_3x3 <- inception_5a/3x3
I0511 07:26:52.641858 13558 net.cpp:323] inception_5a/relu_3x3 -> inception_5a/3x3 (in-place)
I0511 07:26:52.641868 13558 net.cpp:105] Setting up inception_5a/relu_3x3
I0511 07:26:52.641875 13558 net.cpp:112] Top shape: 32 320 7 7 (501760)
I0511 07:26:52.641880 13558 layer_factory.hpp:74] Creating layer inception_5a/5x5_reduce
I0511 07:26:52.641890 13558 net.cpp:76] Creating Layer inception_5a/5x5_reduce
I0511 07:26:52.641896 13558 net.cpp:372] inception_5a/5x5_reduce <- pool4/3x3_s2_pool4/3x3_s2_0_split_2
I0511 07:26:52.641906 13558 net.cpp:334] inception_5a/5x5_reduce -> inception_5a/5x5_reduce
I0511 07:26:52.641916 13558 net.cpp:105] Setting up inception_5a/5x5_reduce
I0511 07:26:52.642150 13558 net.cpp:112] Top shape: 32 32 7 7 (50176)
I0511 07:26:52.642163 13558 layer_factory.hpp:74] Creating layer inception_5a/relu_5x5_reduce
I0511 07:26:52.642171 13558 net.cpp:76] Creating Layer inception_5a/relu_5x5_reduce
I0511 07:26:52.642177 13558 net.cpp:372] inception_5a/relu_5x5_reduce <- inception_5a/5x5_reduce
I0511 07:26:52.642186 13558 net.cpp:323] inception_5a/relu_5x5_reduce -> inception_5a/5x5_reduce (in-place)
I0511 07:26:52.642194 13558 net.cpp:105] Setting up inception_5a/relu_5x5_reduce
I0511 07:26:52.642200 13558 net.cpp:112] Top shape: 32 32 7 7 (50176)
I0511 07:26:52.642209 13558 layer_factory.hpp:74] Creating layer inception_5a/5x5
I0511 07:26:52.642217 13558 net.cpp:76] Creating Layer inception_5a/5x5
I0511 07:26:52.642222 13558 net.cpp:372] inception_5a/5x5 <- inception_5a/5x5_reduce
I0511 07:26:52.642233 13558 net.cpp:334] inception_5a/5x5 -> inception_5a/5x5
I0511 07:26:52.642241 13558 net.cpp:105] Setting up inception_5a/5x5
I0511 07:26:52.643113 13558 net.cpp:112] Top shape: 32 128 7 7 (200704)
I0511 07:26:52.643131 13558 layer_factory.hpp:74] Creating layer inception_5a/relu_5x5
I0511 07:26:52.643141 13558 net.cpp:76] Creating Layer inception_5a/relu_5x5
I0511 07:26:52.643146 13558 net.cpp:372] inception_5a/relu_5x5 <- inception_5a/5x5
I0511 07:26:52.643153 13558 net.cpp:323] inception_5a/relu_5x5 -> inception_5a/5x5 (in-place)
I0511 07:26:52.643160 13558 net.cpp:105] Setting up inception_5a/relu_5x5
I0511 07:26:52.643167 13558 net.cpp:112] Top shape: 32 128 7 7 (200704)
I0511 07:26:52.643172 13558 layer_factory.hpp:74] Creating layer inception_5a/pool
I0511 07:26:52.643178 13558 net.cpp:76] Creating Layer inception_5a/pool
I0511 07:26:52.643184 13558 net.cpp:372] inception_5a/pool <- pool4/3x3_s2_pool4/3x3_s2_0_split_3
I0511 07:26:52.643194 13558 net.cpp:334] inception_5a/pool -> inception_5a/pool
I0511 07:26:52.643220 13558 net.cpp:105] Setting up inception_5a/pool
I0511 07:26:52.643231 13558 net.cpp:112] Top shape: 32 832 7 7 (1304576)
I0511 07:26:52.643237 13558 layer_factory.hpp:74] Creating layer inception_5a/pool_proj
I0511 07:26:52.643246 13558 net.cpp:76] Creating Layer inception_5a/pool_proj
I0511 07:26:52.643252 13558 net.cpp:372] inception_5a/pool_proj <- inception_5a/pool
I0511 07:26:52.643276 13558 net.cpp:334] inception_5a/pool_proj -> inception_5a/pool_proj
I0511 07:26:52.643287 13558 net.cpp:105] Setting up inception_5a/pool_proj
I0511 07:26:52.644182 13558 net.cpp:112] Top shape: 32 128 7 7 (200704)
I0511 07:26:52.644198 13558 layer_factory.hpp:74] Creating layer inception_5a/relu_pool_proj
I0511 07:26:52.644207 13558 net.cpp:76] Creating Layer inception_5a/relu_pool_proj
I0511 07:26:52.644213 13558 net.cpp:372] inception_5a/relu_pool_proj <- inception_5a/pool_proj
I0511 07:26:52.644223 13558 net.cpp:323] inception_5a/relu_pool_proj -> inception_5a/pool_proj (in-place)
I0511 07:26:52.644232 13558 net.cpp:105] Setting up inception_5a/relu_pool_proj
I0511 07:26:52.644237 13558 net.cpp:112] Top shape: 32 128 7 7 (200704)
I0511 07:26:52.644243 13558 layer_factory.hpp:74] Creating layer inception_5a/output
I0511 07:26:52.644250 13558 net.cpp:76] Creating Layer inception_5a/output
I0511 07:26:52.644255 13558 net.cpp:372] inception_5a/output <- inception_5a/1x1
I0511 07:26:52.644263 13558 net.cpp:372] inception_5a/output <- inception_5a/3x3
I0511 07:26:52.644268 13558 net.cpp:372] inception_5a/output <- inception_5a/5x5
I0511 07:26:52.644301 13558 net.cpp:372] inception_5a/output <- inception_5a/pool_proj
I0511 07:26:52.644312 13558 net.cpp:334] inception_5a/output -> inception_5a/output
I0511 07:26:52.644322 13558 net.cpp:105] Setting up inception_5a/output
I0511 07:26:52.644328 13558 net.cpp:112] Top shape: 32 832 7 7 (1304576)
I0511 07:26:52.644335 13558 layer_factory.hpp:74] Creating layer inception_5a/output_inception_5a/output_0_split
I0511 07:26:52.644341 13558 net.cpp:76] Creating Layer inception_5a/output_inception_5a/output_0_split
I0511 07:26:52.644347 13558 net.cpp:372] inception_5a/output_inception_5a/output_0_split <- inception_5a/output
I0511 07:26:52.644354 13558 net.cpp:334] inception_5a/output_inception_5a/output_0_split -> inception_5a/output_inception_5a/output_0_split_0
I0511 07:26:52.644363 13558 net.cpp:334] inception_5a/output_inception_5a/output_0_split -> inception_5a/output_inception_5a/output_0_split_1
I0511 07:26:52.644372 13558 net.cpp:334] inception_5a/output_inception_5a/output_0_split -> inception_5a/output_inception_5a/output_0_split_2
I0511 07:26:52.644381 13558 net.cpp:334] inception_5a/output_inception_5a/output_0_split -> inception_5a/output_inception_5a/output_0_split_3
I0511 07:26:52.644389 13558 net.cpp:105] Setting up inception_5a/output_inception_5a/output_0_split
I0511 07:26:52.644397 13558 net.cpp:112] Top shape: 32 832 7 7 (1304576)
I0511 07:26:52.644402 13558 net.cpp:112] Top shape: 32 832 7 7 (1304576)
I0511 07:26:52.644407 13558 net.cpp:112] Top shape: 32 832 7 7 (1304576)
I0511 07:26:52.644412 13558 net.cpp:112] Top shape: 32 832 7 7 (1304576)
I0511 07:26:52.644417 13558 layer_factory.hpp:74] Creating layer inception_5b/1x1
I0511 07:26:52.644426 13558 net.cpp:76] Creating Layer inception_5b/1x1
I0511 07:26:52.644433 13558 net.cpp:372] inception_5b/1x1 <- inception_5a/output_inception_5a/output_0_split_0
I0511 07:26:52.644443 13558 net.cpp:334] inception_5b/1x1 -> inception_5b/1x1
I0511 07:26:52.644451 13558 net.cpp:105] Setting up inception_5b/1x1
I0511 07:26:52.647105 13558 net.cpp:112] Top shape: 32 384 7 7 (602112)
I0511 07:26:52.647121 13558 layer_factory.hpp:74] Creating layer inception_5b/relu_1x1
I0511 07:26:52.647130 13558 net.cpp:76] Creating Layer inception_5b/relu_1x1
I0511 07:26:52.647136 13558 net.cpp:372] inception_5b/relu_1x1 <- inception_5b/1x1
I0511 07:26:52.647145 13558 net.cpp:323] inception_5b/relu_1x1 -> inception_5b/1x1 (in-place)
I0511 07:26:52.647155 13558 net.cpp:105] Setting up inception_5b/relu_1x1
I0511 07:26:52.647160 13558 net.cpp:112] Top shape: 32 384 7 7 (602112)
I0511 07:26:52.647166 13558 layer_factory.hpp:74] Creating layer inception_5b/3x3_reduce
I0511 07:26:52.647173 13558 net.cpp:76] Creating Layer inception_5b/3x3_reduce
I0511 07:26:52.647179 13558 net.cpp:372] inception_5b/3x3_reduce <- inception_5a/output_inception_5a/output_0_split_1
I0511 07:26:52.647189 13558 net.cpp:334] inception_5b/3x3_reduce -> inception_5b/3x3_reduce
I0511 07:26:52.647198 13558 net.cpp:105] Setting up inception_5b/3x3_reduce
I0511 07:26:52.648550 13558 net.cpp:112] Top shape: 32 192 7 7 (301056)
I0511 07:26:52.648567 13558 layer_factory.hpp:74] Creating layer inception_5b/relu_3x3_reduce
I0511 07:26:52.648576 13558 net.cpp:76] Creating Layer inception_5b/relu_3x3_reduce
I0511 07:26:52.648582 13558 net.cpp:372] inception_5b/relu_3x3_reduce <- inception_5b/3x3_reduce
I0511 07:26:52.648589 13558 net.cpp:323] inception_5b/relu_3x3_reduce -> inception_5b/3x3_reduce (in-place)
I0511 07:26:52.648597 13558 net.cpp:105] Setting up inception_5b/relu_3x3_reduce
I0511 07:26:52.648603 13558 net.cpp:112] Top shape: 32 192 7 7 (301056)
I0511 07:26:52.648608 13558 layer_factory.hpp:74] Creating layer inception_5b/3x3
I0511 07:26:52.648617 13558 net.cpp:76] Creating Layer inception_5b/3x3
I0511 07:26:52.648622 13558 net.cpp:372] inception_5b/3x3 <- inception_5b/3x3_reduce
I0511 07:26:52.648632 13558 net.cpp:334] inception_5b/3x3 -> inception_5b/3x3
I0511 07:26:52.648640 13558 net.cpp:105] Setting up inception_5b/3x3
I0511 07:26:52.654120 13558 net.cpp:112] Top shape: 32 384 7 7 (602112)
I0511 07:26:52.654139 13558 layer_factory.hpp:74] Creating layer inception_5b/relu_3x3
I0511 07:26:52.654147 13558 net.cpp:76] Creating Layer inception_5b/relu_3x3
I0511 07:26:52.654155 13558 net.cpp:372] inception_5b/relu_3x3 <- inception_5b/3x3
I0511 07:26:52.654165 13558 net.cpp:323] inception_5b/relu_3x3 -> inception_5b/3x3 (in-place)
I0511 07:26:52.654172 13558 net.cpp:105] Setting up inception_5b/relu_3x3
I0511 07:26:52.654178 13558 net.cpp:112] Top shape: 32 384 7 7 (602112)
I0511 07:26:52.654183 13558 layer_factory.hpp:74] Creating layer inception_5b/5x5_reduce
I0511 07:26:52.654191 13558 net.cpp:76] Creating Layer inception_5b/5x5_reduce
I0511 07:26:52.654197 13558 net.cpp:372] inception_5b/5x5_reduce <- inception_5a/output_inception_5a/output_0_split_2
I0511 07:26:52.654207 13558 net.cpp:334] inception_5b/5x5_reduce -> inception_5b/5x5_reduce
I0511 07:26:52.654217 13558 net.cpp:105] Setting up inception_5b/5x5_reduce
I0511 07:26:52.654578 13558 net.cpp:112] Top shape: 32 48 7 7 (75264)
I0511 07:26:52.654592 13558 layer_factory.hpp:74] Creating layer inception_5b/relu_5x5_reduce
I0511 07:26:52.654603 13558 net.cpp:76] Creating Layer inception_5b/relu_5x5_reduce
I0511 07:26:52.654609 13558 net.cpp:372] inception_5b/relu_5x5_reduce <- inception_5b/5x5_reduce
I0511 07:26:52.654616 13558 net.cpp:323] inception_5b/relu_5x5_reduce -> inception_5b/5x5_reduce (in-place)
I0511 07:26:52.654625 13558 net.cpp:105] Setting up inception_5b/relu_5x5_reduce
I0511 07:26:52.654631 13558 net.cpp:112] Top shape: 32 48 7 7 (75264)
I0511 07:26:52.654638 13558 layer_factory.hpp:74] Creating layer inception_5b/5x5
I0511 07:26:52.654647 13558 net.cpp:76] Creating Layer inception_5b/5x5
I0511 07:26:52.654654 13558 net.cpp:372] inception_5b/5x5 <- inception_5b/5x5_reduce
I0511 07:26:52.654661 13558 net.cpp:334] inception_5b/5x5 -> inception_5b/5x5
I0511 07:26:52.654670 13558 net.cpp:105] Setting up inception_5b/5x5
I0511 07:26:52.655957 13558 net.cpp:112] Top shape: 32 128 7 7 (200704)
I0511 07:26:52.655972 13558 layer_factory.hpp:74] Creating layer inception_5b/relu_5x5
I0511 07:26:52.655980 13558 net.cpp:76] Creating Layer inception_5b/relu_5x5
I0511 07:26:52.655987 13558 net.cpp:372] inception_5b/relu_5x5 <- inception_5b/5x5
I0511 07:26:52.655993 13558 net.cpp:323] inception_5b/relu_5x5 -> inception_5b/5x5 (in-place)
I0511 07:26:52.656002 13558 net.cpp:105] Setting up inception_5b/relu_5x5
I0511 07:26:52.656008 13558 net.cpp:112] Top shape: 32 128 7 7 (200704)
I0511 07:26:52.656013 13558 layer_factory.hpp:74] Creating layer inception_5b/pool
I0511 07:26:52.656023 13558 net.cpp:76] Creating Layer inception_5b/pool
I0511 07:26:52.656028 13558 net.cpp:372] inception_5b/pool <- inception_5a/output_inception_5a/output_0_split_3
I0511 07:26:52.656036 13558 net.cpp:334] inception_5b/pool -> inception_5b/pool
I0511 07:26:52.656044 13558 net.cpp:105] Setting up inception_5b/pool
I0511 07:26:52.656052 13558 net.cpp:112] Top shape: 32 832 7 7 (1304576)
I0511 07:26:52.656057 13558 layer_factory.hpp:74] Creating layer inception_5b/pool_proj
I0511 07:26:52.656069 13558 net.cpp:76] Creating Layer inception_5b/pool_proj
I0511 07:26:52.656075 13558 net.cpp:372] inception_5b/pool_proj <- inception_5b/pool
I0511 07:26:52.656082 13558 net.cpp:334] inception_5b/pool_proj -> inception_5b/pool_proj
I0511 07:26:52.656091 13558 net.cpp:105] Setting up inception_5b/pool_proj
I0511 07:26:52.657006 13558 net.cpp:112] Top shape: 32 128 7 7 (200704)
I0511 07:26:52.657022 13558 layer_factory.hpp:74] Creating layer inception_5b/relu_pool_proj
I0511 07:26:52.657030 13558 net.cpp:76] Creating Layer inception_5b/relu_pool_proj
I0511 07:26:52.657037 13558 net.cpp:372] inception_5b/relu_pool_proj <- inception_5b/pool_proj
I0511 07:26:52.657043 13558 net.cpp:323] inception_5b/relu_pool_proj -> inception_5b/pool_proj (in-place)
I0511 07:26:52.657052 13558 net.cpp:105] Setting up inception_5b/relu_pool_proj
I0511 07:26:52.657058 13558 net.cpp:112] Top shape: 32 128 7 7 (200704)
I0511 07:26:52.657063 13558 layer_factory.hpp:74] Creating layer inception_5b/output
I0511 07:26:52.657091 13558 net.cpp:76] Creating Layer inception_5b/output
I0511 07:26:52.657099 13558 net.cpp:372] inception_5b/output <- inception_5b/1x1
I0511 07:26:52.657105 13558 net.cpp:372] inception_5b/output <- inception_5b/3x3
I0511 07:26:52.657111 13558 net.cpp:372] inception_5b/output <- inception_5b/5x5
I0511 07:26:52.657117 13558 net.cpp:372] inception_5b/output <- inception_5b/pool_proj
I0511 07:26:52.657125 13558 net.cpp:334] inception_5b/output -> inception_5b/output
I0511 07:26:52.657133 13558 net.cpp:105] Setting up inception_5b/output
I0511 07:26:52.657140 13558 net.cpp:112] Top shape: 32 1024 7 7 (1605632)
I0511 07:26:52.657145 13558 layer_factory.hpp:74] Creating layer pool5/7x7_s1
I0511 07:26:52.657155 13558 net.cpp:76] Creating Layer pool5/7x7_s1
I0511 07:26:52.657161 13558 net.cpp:372] pool5/7x7_s1 <- inception_5b/output
I0511 07:26:52.657169 13558 net.cpp:334] pool5/7x7_s1 -> pool5/7x7_s1
I0511 07:26:52.657177 13558 net.cpp:105] Setting up pool5/7x7_s1
I0511 07:26:52.657183 13558 net.cpp:112] Top shape: 32 1024 1 1 (32768)
I0511 07:26:52.657189 13558 layer_factory.hpp:74] Creating layer pool5/drop_7x7_s1
I0511 07:26:52.657197 13558 net.cpp:76] Creating Layer pool5/drop_7x7_s1
I0511 07:26:52.657202 13558 net.cpp:372] pool5/drop_7x7_s1 <- pool5/7x7_s1
I0511 07:26:52.657209 13558 net.cpp:323] pool5/drop_7x7_s1 -> pool5/7x7_s1 (in-place)
I0511 07:26:52.657217 13558 net.cpp:105] Setting up pool5/drop_7x7_s1
I0511 07:26:52.657223 13558 net.cpp:112] Top shape: 32 1024 1 1 (32768)
I0511 07:26:52.657229 13558 layer_factory.hpp:74] Creating layer loss3/classifier
I0511 07:26:52.657240 13558 net.cpp:76] Creating Layer loss3/classifier
I0511 07:26:52.657246 13558 net.cpp:372] loss3/classifier <- pool5/7x7_s1
I0511 07:26:52.657256 13558 net.cpp:334] loss3/classifier -> loss3/classifier
I0511 07:26:52.657265 13558 net.cpp:105] Setting up loss3/classifier
I0511 07:26:52.657310 13558 net.cpp:112] Top shape: 32 2 1 1 (64)
I0511 07:26:52.657321 13558 layer_factory.hpp:74] Creating layer loss3/classifier_loss3/classifier_0_split
I0511 07:26:52.657330 13558 net.cpp:76] Creating Layer loss3/classifier_loss3/classifier_0_split
I0511 07:26:52.657335 13558 net.cpp:372] loss3/classifier_loss3/classifier_0_split <- loss3/classifier
I0511 07:26:52.657342 13558 net.cpp:334] loss3/classifier_loss3/classifier_0_split -> loss3/classifier_loss3/classifier_0_split_0
I0511 07:26:52.657351 13558 net.cpp:334] loss3/classifier_loss3/classifier_0_split -> loss3/classifier_loss3/classifier_0_split_1
I0511 07:26:52.657359 13558 net.cpp:105] Setting up loss3/classifier_loss3/classifier_0_split
I0511 07:26:52.657366 13558 net.cpp:112] Top shape: 32 2 1 1 (64)
I0511 07:26:52.657389 13558 net.cpp:112] Top shape: 32 2 1 1 (64)
I0511 07:26:52.657397 13558 layer_factory.hpp:74] Creating layer loss3/loss3
I0511 07:26:52.657407 13558 net.cpp:76] Creating Layer loss3/loss3
I0511 07:26:52.657413 13558 net.cpp:372] loss3/loss3 <- loss3/classifier_loss3/classifier_0_split_0
I0511 07:26:52.657420 13558 net.cpp:372] loss3/loss3 <- label_data_1_split_4
I0511 07:26:52.657428 13558 net.cpp:334] loss3/loss3 -> loss3/loss3
I0511 07:26:52.657436 13558 net.cpp:105] Setting up loss3/loss3
I0511 07:26:52.657444 13558 layer_factory.hpp:74] Creating layer loss3/loss3
I0511 07:26:52.657459 13558 net.cpp:112] Top shape: 1 1 1 1 (1)
I0511 07:26:52.657465 13558 net.cpp:118]     with loss weight 1
I0511 07:26:52.657482 13558 layer_factory.hpp:74] Creating layer loss3/top-1
I0511 07:26:52.657493 13558 net.cpp:76] Creating Layer loss3/top-1
I0511 07:26:52.657500 13558 net.cpp:372] loss3/top-1 <- loss3/classifier_loss3/classifier_0_split_1
I0511 07:26:52.657506 13558 net.cpp:372] loss3/top-1 <- label_data_1_split_5
I0511 07:26:52.657515 13558 net.cpp:334] loss3/top-1 -> loss3/top-1
I0511 07:26:52.657522 13558 net.cpp:105] Setting up loss3/top-1
I0511 07:26:52.657528 13558 net.cpp:112] Top shape: 1 1 1 1 (1)
I0511 07:26:52.657534 13558 net.cpp:165] loss3/top-1 does not need backward computation.
I0511 07:26:52.657539 13558 net.cpp:163] loss3/loss3 needs backward computation.
I0511 07:26:52.657557 13558 net.cpp:163] loss3/classifier_loss3/classifier_0_split needs backward computation.
I0511 07:26:52.657563 13558 net.cpp:163] loss3/classifier needs backward computation.
I0511 07:26:52.657569 13558 net.cpp:163] pool5/drop_7x7_s1 needs backward computation.
…
