…
I0510 00:47:23.882916 29615 caffe.cpp:134] Use GPU with device ID 0
I0510 00:47:24.314376 29615 net.cpp:253] The NetState phase (1) differed from the phase (0) specified by a rule in layer data
I0510 00:47:24.315881 29615 net.cpp:42] Initializing net from parameters: 
name: "GoogleNet"
state {
  phase: TEST
}
layer {
  name: "data"
  type: "Data"
  top: "data"
  top: "label"
  include {
    phase: TEST
  }
  transform_param {
    mirror: false
    crop_size: 224
    mean_value: 104
    mean_value: 117
    mean_value: 123
  }
  data_param {
    source: "val_lmdb"
    batch_size: 32
    backend: LMDB
  }
}
layer {
  name: "conv1/7x7_s2"
  type: "Convolution"
  bottom: "data"
  top: "conv1/7x7_s2"
  param {
    lr_mult: 1
    decay_mult: 1
  }
  param {
    lr_mult: 2
    decay_mult: 0
  }
  convolution_param {
    num_output: 64
    pad: 3
    kernel_size: 7
    stride: 2
    weight_filler {
      type: "xavier"
      std: 0.1
    }
    bias_filler {
      type: "constant"
      value: 0.2
    }
  }
}
layer {
  name: "conv1/relu_7x7"
  type: "ReLU"
  bottom: "conv1/7x7_s2"
  top: "conv1/7x7_s2"
}
layer {
  name: "pool1/3x3_s2"
  type: "Pooling"
  bottom: "conv1/7x7_s2"
  top: "pool1/3x3_s2"
  pooling_param {
    pool: MAX
    kernel_size: 3
    stride: 2
  }
}
layer {
  name: "pool1/norm1"
  type: "LRN"
  bottom: "pool1/3x3_s2"
  top: "pool1/norm1"
  lrn_param {
    local_size: 5
    alpha: 0.0001
    beta: 0.75
  }
}
layer {
  name: "conv2/3x3_reduce"
  type: "Convolution"
  bottom: "pool1/norm1"
  top: "conv2/3x3_reduce"
  param {
    lr_mult: 1
    decay_mult: 1
  }
  param {
    lr_mult: 2
    decay_mult: 0
  }
  convolution_param {
    num_output: 64
    kernel_size: 1
    weight_filler {
      type: "xavier"
      std: 0.1
    }
    bias_filler {
      type: "constant"
      value: 0.2
    }
  }
}
layer {
  name: "conv2/relu_3x3_reduce"
  type: "ReLU"
  bottom: "conv2/3x3_reduce"
  top: "conv2/3x3_reduce"
}
layer {
  name: "conv2/3x3"
  type: "Convolution"
  bottom: "conv2/3x3_reduce"
  top: "conv2/3x3"
  param {
    lr_mult: 1
    decay_mult: 1
  }
  param {
    lr_mult: 2
    decay_mult: 0
  }
  convolution_param {
    num_output: 192
    pad: 1
    kernel_size: 3
    weight_filler {
      type: "xavier"
      std: 0.03
    }
    bias_filler {
      type: "constant"
      value: 0.2
    }
  }
}
layer {
  name: "conv2/relu_3x3"
  type: "ReLU"
  bottom: "conv2/3x3"
  top: "conv2/3x3"
}
layer {
  name: "conv2/norm2"
  type: "LRN"
  bottom: "conv2/3x3"
  top: "conv2/norm2"
  lrn_param {
    local_size: 5
    alpha: 0.0001
    beta: 0.75
  }
}
layer {
  name: "pool2/3x3_s2"
  type: "Pooling"
  bottom: "conv2/norm2"
  top: "pool2/3x3_s2"
  pooling_param {
    pool: MAX
    kernel_size: 3
    stride: 2
  }
}
layer {
  name: "inception_3a/1x1"
  type: "Convolution"
  bottom: "pool2/3x3_s2"
  top: "inception_3a/1x1"
  param {
    lr_mult: 1
    decay_mult: 1
  }
  param {
    lr_mult: 2
    decay_mult: 0
  }
  convolution_param {
    num_output: 64
    kernel_size: 1
    weight_filler {
      type: "xavier"
      std: 0.03
    }
    bias_filler {
      type: "constant"
      value: 0.2
    }
  }
}
layer {
  name: "inception_3a/relu_1x1"
  type: "ReLU"
  bottom: "inception_3a/1x1"
  top: "inception_3a/1x1"
}
layer {
  name: "inception_3a/3x3_reduce"
  type: "Convolution"
  bottom: "pool2/3x3_s2"
  top: "inception_3a/3x3_reduce"
  param {
    lr_mult: 1
    decay_mult: 1
  }
  param {
    lr_mult: 2
    decay_mult: 0
  }
  convolution_param {
    num_output: 96
    kernel_size: 1
    weight_filler {
      type: "xavier"
      std: 0.09
    }
    bias_filler {
      type: "constant"
      value: 0.2
    }
  }
}
layer {
  name: "inception_3a/relu_3x3_reduce"
  type: "ReLU"
  bottom: "inception_3a/3x3_reduce"
  top: "inception_3a/3x3_reduce"
}
layer {
  name: "inception_3a/3x3"
  type: "Convolution"
  bottom: "inception_3a/3x3_reduce"
  top: "inception_3a/3x3"
  param {
    lr_mult: 1
    decay_mult: 1
  }
  param {
    lr_mult: 2
    decay_mult: 0
  }
  convolution_param {
    num_output: 128
    pad: 1
    kernel_size: 3
    weight_filler {
      type: "xavier"
      std: 0.03
    }
    bias_filler {
      type: "constant"
      value: 0.2
    }
  }
}
layer {
  name: "inception_3a/relu_3x3"
  type: "ReLU"
  bottom: "inception_3a/3x3"
  top: "inception_3a/3x3"
}
layer {
  name: "inception_3a/5x5_reduce"
  type: "Convolution"
  bottom: "pool2/3x3_s2"
  top: "inception_3a/5x5_reduce"
  param {
    lr_mult: 1
    decay_mult: 1
  }
  param {
    lr_mult: 2
    decay_mult: 0
  }
  convolution_param {
    num_output: 16
    kernel_size: 1
    weight_filler {
      type: "xavier"
      std: 0.2
    }
    bias_filler {
      type: "constant"
      value: 0.2
    }
  }
}
layer {
  name: "inception_3a/relu_5x5_reduce"
  type: "ReLU"
  bottom: "inception_3a/5x5_reduce"
  top: "inception_3a/5x5_reduce"
}
layer {
  name: "inception_3a/5x5"
  type: "Convolution"
  bottom: "inception_3a/5x5_reduce"
  top: "inception_3a/5x5"
  param {
    lr_mult: 1
    decay_mult: 1
  }
  param {
    lr_mult: 2
    decay_mult: 0
  }
  convolution_param {
    num_output: 32
    pad: 2
    kernel_size: 5
    weight_filler {
      type: "xavier"
      std: 0.03
    }
    bias_filler {
      type: "constant"
      value: 0.2
    }
  }
}
layer {
  name: "inception_3a/relu_5x5"
  type: "ReLU"
  bottom: "inception_3a/5x5"
  top: "inception_3a/5x5"
}
layer {
  name: "inception_3a/pool"
  type: "Pooling"
  bottom: "pool2/3x3_s2"
  top: "inception_3a/pool"
  pooling_param {
    pool: MAX
    kernel_size: 3
    stride: 1
    pad: 1
  }
}
layer {
  name: "inception_3a/pool_proj"
  type: "Convolution"
  bottom: "inception_3a/pool"
  top: "inception_3a/pool_proj"
  param {
    lr_mult: 1
    decay_mult: 1
  }
  param {
    lr_mult: 2
    decay_mult: 0
  }
  convolution_param {
    num_output: 32
    kernel_size: 1
    weight_filler {
      type: "xavier"
      std: 0.1
    }
    bias_filler {
      type: "constant"
      value: 0.2
    }
  }
}
layer {
  name: "inception_3a/relu_pool_proj"
  type: "ReLU"
  bottom: "inception_3a/pool_proj"
  top: "inception_3a/pool_proj"
}
layer {
  name: "inception_3a/output"
  type: "Concat"
  bottom: "inception_3a/1x1"
  bottom: "inception_3a/3x3"
  bottom: "inception_3a/5x5"
  bottom: "inception_3a/pool_proj"
  top: "inception_3a/output"
}
layer {
  name: "inception_3b/1x1"
  type: "Convolution"
  bottom: "inception_3a/output"
  top: "inception_3b/1x1"
  param {
    lr_mult: 1
    decay_mult: 1
  }
  param {
    lr_mult: 2
    decay_mult: 0
  }
  convolution_param {
    num_output: 128
    kernel_size: 1
    weight_filler {
      type: "xavier"
      std: 0.03
    }
    bias_filler {
      type: "constant"
      value: 0.2
    }
  }
}
layer {
  name: "inception_3b/relu_1x1"
  type: "ReLU"
  bottom: "inception_3b/1x1"
  top: "inception_3b/1x1"
}
layer {
  name: "inception_3b/3x3_reduce"
  type: "Convolution"
  bottom: "inception_3a/output"
  top: "inception_3b/3x3_reduce"
  param {
    lr_mult: 1
    decay_mult: 1
  }
  param {
    lr_mult: 2
    decay_mult: 0
  }
  convolution_param {
    num_output: 128
    kernel_size: 1
    weight_filler {
      type: "xavier"
      std: 0.09
    }
    bias_filler {
      type: "constant"
      value: 0.2
    }
  }
}
layer {
  name: "inception_3b/relu_3x3_reduce"
  type: "ReLU"
  bottom: "inception_3b/3x3_reduce"
  top: "inception_3b/3x3_reduce"
}
layer {
  name: "inception_3b/3x3"
  type: "Convolution"
  bottom: "inception_3b/3x3_reduce"
  top: "inception_3b/3x3"
  param {
    lr_mult: 1
    decay_mult: 1
  }
  param {
    lr_mult: 2
    decay_mult: 0
  }
  convolution_param {
    num_output: 192
    pad: 1
    kernel_size: 3
    weight_filler {
      type: "xavier"
      std: 0.03
    }
    bias_filler {
      type: "constant"
      value: 0.2
    }
  }
}
layer {
  name: "inception_3b/relu_3x3"
  type: "ReLU"
  bottom: "inception_3b/3x3"
  top: "inception_3b/3x3"
}
layer {
  name: "inception_3b/5x5_reduce"
  type: "Convolution"
  bottom: "inception_3a/output"
  top: "inception_3b/5x5_reduce"
  param {
    lr_mult: 1
    decay_mult: 1
  }
  param {
    lr_mult: 2
    decay_mult: 0
  }
  convolution_param {
    num_output: 32
    kernel_size: 1
    weight_filler {
      type: "xavier"
      std: 0.2
    }
    bias_filler {
      type: "constant"
      value: 0.2
    }
  }
}
layer {
  name: "inception_3b/relu_5x5_reduce"
  type: "ReLU"
  bottom: "inception_3b/5x5_reduce"
  top: "inception_3b/5x5_reduce"
}
layer {
  name: "inception_3b/5x5"
  type: "Convolution"
  bottom: "inception_3b/5x5_reduce"
  top: "inception_3b/5x5"
  param {
    lr_mult: 1
    decay_mult: 1
  }
  param {
    lr_mult: 2
    decay_mult: 0
  }
  convolution_param {
    num_output: 96
    pad: 2
    kernel_size: 5
    weight_filler {
      type: "xavier"
      std: 0.03
    }
    bias_filler {
      type: "constant"
      value: 0.2
    }
  }
}
layer {
  name: "inception_3b/relu_5x5"
  type: "ReLU"
  bottom: "inception_3b/5x5"
  top: "inception_3b/5x5"
}
layer {
  name: "inception_3b/pool"
  type: "Pooling"
  bottom: "inception_3a/output"
  top: "inception_3b/pool"
  pooling_param {
    pool: MAX
    kernel_size: 3
    stride: 1
    pad: 1
  }
}
layer {
  name: "inception_3b/pool_proj"
  type: "Convolution"
  bottom: "inception_3b/pool"
  top: "inception_3b/pool_proj"
  param {
    lr_mult: 1
    decay_mult: 1
  }
  param {
    lr_mult: 2
    decay_mult: 0
  }
  convolution_param {
    num_output: 64
    kernel_size: 1
    weight_filler {
      type: "xavier"
      std: 0.1
    }
    bias_filler {
      type: "constant"
      value: 0.2
    }
  }
}
layer {
  name: "inception_3b/relu_pool_proj"
  type: "ReLU"
  bottom: "inception_3b/pool_proj"
  top: "inception_3b/pool_proj"
}
layer {
  name: "inception_3b/output"
  type: "Concat"
  bottom: "inception_3b/1x1"
  bottom: "inception_3b/3x3"
  bottom: "inception_3b/5x5"
  bottom: "inception_3b/pool_proj"
  top: "inception_3b/output"
}
layer {
  name: "pool3/3x3_s2"
  type: "Pooling"
  bottom: "inception_3b/output"
  top: "pool3/3x3_s2"
  pooling_param {
    pool: MAX
    kernel_size: 3
    stride: 2
  }
}
layer {
  name: "inception_4a/1x1"
  type: "Convolution"
  bottom: "pool3/3x3_s2"
  top: "inception_4a/1x1"
  param {
    lr_mult: 1
    decay_mult: 1
  }
  param {
    lr_mult: 2
    decay_mult: 0
  }
  convolution_param {
    num_output: 192
    kernel_size: 1
    weight_filler {
      type: "xavier"
      std: 0.03
    }
    bias_filler {
      type: "constant"
      value: 0.2
    }
  }
}
layer {
  name: "inception_4a/relu_1x1"
  type: "ReLU"
  bottom: "inception_4a/1x1"
  top: "inception_4a/1x1"
}
layer {
  name: "inception_4a/3x3_reduce"
  type: "Convolution"
  bottom: "pool3/3x3_s2"
  top: "inception_4a/3x3_reduce"
  param {
    lr_mult: 1
    decay_mult: 1
  }
  param {
    lr_mult: 2
    decay_mult: 0
  }
  convolution_param {
    num_output: 96
    kernel_size: 1
    weight_filler {
      type: "xavier"
      std: 0.09
    }
    bias_filler {
      type: "constant"
      value: 0.2
    }
  }
}
layer {
  name: "inception_4a/relu_3x3_reduce"
  type: "ReLU"
  bottom: "inception_4a/3x3_reduce"
  top: "inception_4a/3x3_reduce"
}
layer {
  name: "inception_4a/3x3"
  type: "Convolution"
  bottom: "inception_4a/3x3_reduce"
  top: "inception_4a/3x3"
  param {
    lr_mult: 1
    decay_mult: 1
  }
  param {
    lr_mult: 2
    decay_mult: 0
  }
  convolution_param {
    num_output: 208
    pad: 1
    kernel_size: 3
    weight_filler {
      type: "xavier"
      std: 0.03
    }
    bias_filler {
      type: "constant"
      value: 0.2
    }
  }
}
layer {
  name: "inception_4a/relu_3x3"
  type: "ReLU"
  bottom: "inception_4a/3x3"
  top: "inception_4a/3x3"
}
layer {
  name: "inception_4a/5x5_reduce"
  type: "Convolution"
  bottom: "pool3/3x3_s2"
  top: "inception_4a/5x5_reduce"
  param {
    lr_mult: 1
    decay_mult: 1
  }
  param {
    lr_mult: 2
    decay_mult: 0
  }
  convolution_param {
    num_output: 16
    kernel_size: 1
    weight_filler {
      type: "xavier"
      std: 0.2
    }
    bias_filler {
      type: "constant"
      value: 0.2
    }
  }
}
layer {
  name: "inception_4a/relu_5x5_reduce"
  type: "ReLU"
  bottom: "inception_4a/5x5_reduce"
  top: "inception_4a/5x5_reduce"
}
layer {
  name: "inception_4a/5x5"
  type: "Convolution"
  bottom: "inception_4a/5x5_reduce"
  top: "inception_4a/5x5"
  param {
    lr_mult: 1
    decay_mult: 1
  }
  param {
    lr_mult: 2
    decay_mult: 0
  }
  convolution_param {
    num_output: 48
    pad: 2
    kernel_size: 5
    weight_filler {
      type: "xavier"
      std: 0.03
    }
    bias_filler {
      type: "constant"
      value: 0.2
    }
  }
}
layer {
  name: "inception_4a/relu_5x5"
  type: "ReLU"
  bottom: "inception_4a/5x5"
  top: "inception_4a/5x5"
}
layer {
  name: "inception_4a/pool"
  type: "Pooling"
  bottom: "pool3/3x3_s2"
  top: "inception_4a/pool"
  pooling_param {
    pool: MAX
    kernel_size: 3
    stride: 1
    pad: 1
  }
}
layer {
  name: "inception_4a/pool_proj"
  type: "Convolution"
  bottom: "inception_4a/pool"
  top: "inception_4a/pool_proj"
  param {
    lr_mult: 1
    decay_mult: 1
  }
  param {
    lr_mult: 2
    decay_mult: 0
  }
  convolution_param {
    num_output: 64
    kernel_size: 1
    weight_filler {
      type: "xavier"
      std: 0.1
    }
    bias_filler {
      type: "constant"
      value: 0.2
    }
  }
}
layer {
  name: "inception_4a/relu_pool_proj"
  type: "ReLU"
  bottom: "inception_4a/pool_proj"
  top: "inception_4a/pool_proj"
}
layer {
  name: "inception_4a/output"
  type: "Concat"
  bottom: "inception_4a/1x1"
  bottom: "inception_4a/3x3"
  bottom: "inception_4a/5x5"
  bottom: "inception_4a/pool_proj"
  top: "inception_4a/output"
}
layer {
  name: "loss1/ave_pool"
  type: "Pooling"
  bottom: "inception_4a/output"
  top: "loss1/ave_pool"
  pooling_param {
    pool: AVE
    kernel_size: 5
    stride: 3
  }
}
layer {
  name: "loss1/conv"
  type: "Convolution"
  bottom: "loss1/ave_pool"
  top: "loss1/conv"
  param {
    lr_mult: 1
    decay_mult: 1
  }
  param {
    lr_mult: 2
    decay_mult: 0
  }
  convolution_param {
    num_output: 128
    kernel_size: 1
    weight_filler {
      type: "xavier"
      std: 0.08
    }
    bias_filler {
      type: "constant"
      value: 0.2
    }
  }
}
layer {
  name: "loss1/relu_conv"
  type: "ReLU"
  bottom: "loss1/conv"
  top: "loss1/conv"
}
layer {
  name: "loss1/fc"
  type: "InnerProduct"
  bottom: "loss1/conv"
  top: "loss1/fc"
  param {
    lr_mult: 1
    decay_mult: 1
  }
  param {
    lr_mult: 2
    decay_mult: 0
  }
  inner_product_param {
    num_output: 1024
    weight_filler {
      type: "xavier"
      std: 0.02
    }
    bias_filler {
      type: "constant"
      value: 0.2
    }
  }
}
layer {
  name: "loss1/relu_fc"
  type: "ReLU"
  bottom: "loss1/fc"
  top: "loss1/fc"
}
layer {
  name: "loss1/drop_fc"
  type: "Dropout"
  bottom: "loss1/fc"
  top: "loss1/fc"
  dropout_param {
    dropout_ratio: 0.7
  }
}
layer {
  name: "loss1/classifier"
  type: "InnerProduct"
  bottom: "loss1/fc"
  top: "loss1/classifier"
  param {
    lr_mult: 1
    decay_mult: 1
  }
  param {
    lr_mult: 2
    decay_mult: 0
  }
  inner_product_param {
    num_output: 2
    weight_filler {
      type: "xavier"
      std: 0.0009765625
    }
    bias_filler {
      type: "constant"
      value: 0
    }
  }
}
layer {
  name: "loss1/loss"
  type: "SoftmaxWithLoss"
  bottom: "loss1/classifier"
  bottom: "label"
  top: "loss1/loss1"
  loss_weight: 0.3
}
layer {
  name: "loss1/top-1"
  type: "Accuracy"
  bottom: "loss1/classifier"
  bottom: "label"
  top: "loss1/top-1"
  include {
    phase: TEST
  }
}
layer {
  name: "inception_4b/1x1"
  type: "Convolution"
  bottom: "inception_4a/output"
  top: "inception_4b/1x1"
  param {
    lr_mult: 1
    decay_mult: 1
  }
  param {
    lr_mult: 2
    decay_mult: 0
  }
  convolution_param {
    num_output: 160
    kernel_size: 1
    weight_filler {
      type: "xavier"
      std: 0.03
    }
    bias_filler {
      type: "constant"
      value: 0.2
    }
  }
}
layer {
  name: "inception_4b/relu_1x1"
  type: "ReLU"
  bottom: "inception_4b/1x1"
  top: "inception_4b/1x1"
}
layer {
  name: "inception_4b/3x3_reduce"
  type: "Convolution"
  bottom: "inception_4a/output"
  top: "inception_4b/3x3_reduce"
  param {
    lr_mult: 1
    decay_mult: 1
  }
  param {
    lr_mult: 2
    decay_mult: 0
  }
  convolution_param {
    num_output: 112
    kernel_size: 1
    weight_filler {
      type: "xavier"
      std: 0.09
    }
    bias_filler {
      type: "constant"
      value: 0.2
    }
  }
}
layer {
  name: "inception_4b/relu_3x3_reduce"
  type: "ReLU"
  bottom: "inception_4b/3x3_reduce"
  top: "inception_4b/3x3_reduce"
}
layer {
  name: "inception_4b/3x3"
  type: "Convolution"
  bottom: "inception_4b/3x3_reduce"
  top: "inception_4b/3x3"
  param {
    lr_mult: 1
    decay_mult: 1
  }
  param {
    lr_mult: 2
    decay_mult: 0
  }
  convolution_param {
    num_output: 224
    pad: 1
    kernel_size: 3
    weight_filler {
      type: "xavier"
      std: 0.03
    }
    bias_filler {
      type: "constant"
      value: 0.2
    }
  }
}
layer {
  name: "inception_4b/relu_3x3"
  type: "ReLU"
  bottom: "inception_4b/3x3"
  top: "inception_4b/3x3"
}
layer {
  name: "inception_4b/5x5_reduce"
  type: "Convolution"
  bottom: "inception_4a/output"
  top: "inception_4b/5x5_reduce"
  param {
    lr_mult: 1
    decay_mult: 1
  }
  param {
    lr_mult: 2
    decay_mult: 0
  }
  convolution_param {
    num_output: 24
    kernel_size: 1
    weight_filler {
      type: "xavier"
      std: 0.2
    }
    bias_filler {
      type: "constant"
      value: 0.2
    }
  }
}
layer {
  name: "inception_4b/relu_5x5_reduce"
  type: "ReLU"
  bottom: "inception_4b/5x5_reduce"
  top: "inception_4b/5x5_reduce"
}
layer {
  name: "inception_4b/5x5"
  type: "Convolution"
  bottom: "inception_4b/5x5_reduce"
  top: "inception_4b/5x5"
  param {
    lr_mult: 1
    decay_mult: 1
  }
  param {
    lr_mult: 2
    decay_mult: 0
  }
  convolution_param {
    num_output: 64
    pad: 2
    kernel_size: 5
    weight_filler {
      type: "xavier"
      std: 0.03
    }
    bias_filler {
      type: "constant"
      value: 0.2
    }
  }
}
layer {
  name: "inception_4b/relu_5x5"
  type: "ReLU"
  bottom: "inception_4b/5x5"
  top: "inception_4b/5x5"
}
layer {
  name: "inception_4b/pool"
  type: "Pooling"
  bottom: "inception_4a/output"
  top: "inception_4b/pool"
  pooling_param {
    pool: MAX
    kernel_size: 3
    stride: 1
    pad: 1
  }
}
layer {
  name: "inception_4b/pool_proj"
  type: "Convolution"
  bottom: "inception_4b/pool"
  top: "inception_4b/pool_proj"
  param {
    lr_mult: 1
    decay_mult: 1
  }
  param {
    lr_mult: 2
    decay_mult: 0
  }
  convolution_param {
    num_output: 64
    kernel_size: 1
    weight_filler {
      type: "xavier"
      std: 0.1
    }
    bias_filler {
      type: "constant"
      value: 0.2
    }
  }
}
layer {
  name: "inception_4b/relu_pool_proj"
  type: "ReLU"
  bottom: "inception_4b/pool_proj"
  top: "inception_4b/pool_proj"
}
layer {
  name: "inception_4b/output"
  type: "Concat"
  bottom: "inception_4b/1x1"
  bottom: "inception_4b/3x3"
  bottom: "inception_4b/5x5"
  bottom: "inception_4b/pool_proj"
  top: "inception_4b/output"
}
layer {
  name: "inception_4c/1x1"
  type: "Convolution"
  bottom: "inception_4b/output"
  top: "inception_4c/1x1"
  param {
    lr_mult: 1
    decay_mult: 1
  }
  param {
    lr_mult: 2
    decay_mult: 0
  }
  convolution_param {
    num_output: 128
    kernel_size: 1
    weight_filler {
      type: "xavier"
      std: 0.03
    }
    bias_filler {
      type: "constant"
      value: 0.2
    }
  }
}
layer {
  name: "inception_4c/relu_1x1"
  type: "ReLU"
  bottom: "inception_4c/1x1"
  top: "inception_4c/1x1"
}
layer {
  name: "inception_4c/3x3_reduce"
  type: "Convolution"
  bottom: "inception_4b/output"
  top: "inception_4c/3x3_reduce"
  param {
    lr_mult: 1
    decay_mult: 1
  }
  param {
    lr_mult: 2
    decay_mult: 0
  }
  convolution_param {
    num_output: 128
    kernel_size: 1
    weight_filler {
      type: "xavier"
      std: 0.09
    }
    bias_filler {
      type: "constant"
      value: 0.2
    }
  }
}
layer {
  name: "inception_4c/relu_3x3_reduce"
  type: "ReLU"
  bottom: "inception_4c/3x3_reduce"
  top: "inception_4c/3x3_reduce"
}
layer {
  name: "inception_4c/3x3"
  type: "Convolution"
  bottom: "inception_4c/3x3_reduce"
  top: "inception_4c/3x3"
  param {
    lr_mult: 1
    decay_mult: 1
  }
  param {
    lr_mult: 2
    decay_mult: 0
  }
  convolution_param {
    num_output: 256
    pad: 1
    kernel_size: 3
    weight_filler {
      type: "xavier"
      std: 0.03
    }
    bias_filler {
      type: "constant"
      value: 0.2
    }
  }
}
layer {
  name: "inception_4c/relu_3x3"
  type: "ReLU"
  bottom: "inception_4c/3x3"
  top: "inception_4c/3x3"
}
layer {
  name: "inception_4c/5x5_reduce"
  type: "Convolution"
  bottom: "inception_4b/output"
  top: "inception_4c/5x5_reduce"
  param {
    lr_mult: 1
    decay_mult: 1
  }
  param {
    lr_mult: 2
    decay_mult: 0
  }
  convolution_param {
    num_output: 24
    kernel_size: 1
    weight_filler {
      type: "xavier"
      std: 0.2
    }
    bias_filler {
      type: "constant"
      value: 0.2
    }
  }
}
layer {
  name: "inception_4c/relu_5x5_reduce"
  type: "ReLU"
  bottom: "inception_4c/5x5_reduce"
  top: "inception_4c/5x5_reduce"
}
layer {
  name: "inception_4c/5x5"
  type: "Convolution"
  bottom: "inception_4c/5x5_reduce"
  top: "inception_4c/5x5"
  param {
    lr_mult: 1
    decay_mult: 1
  }
  param {
    lr_mult: 2
    decay_mult: 0
  }
  convolution_param {
    num_output: 64
    pad: 2
    kernel_size: 5
    weight_filler {
      type: "xavier"
      std: 0.03
    }
    bias_filler {
      type: "constant"
      value: 0.2
    }
  }
}
layer {
  name: "inception_4c/relu_5x5"
  type: "ReLU"
  bottom: "inception_4c/5x5"
  top: "inception_4c/5x5"
}
layer {
  name: "inception_4c/pool"
  type: "Pooling"
  bottom: "inception_4b/output"
  top: "inception_4c/pool"
  pooling_param {
    pool: MAX
    kernel_size: 3
    stride: 1
    pad: 1
  }
}
layer {
  name: "inception_4c/pool_proj"
  type: "Convolution"
  bottom: "inception_4c/pool"
  top: "inception_4c/pool_proj"
  param {
    lr_mult: 1
    decay_mult: 1
  }
  param {
    lr_mult: 2
    decay_mult: 0
  }
  convolution_param {
    num_output: 64
    kernel_size: 1
    weight_filler {
      type: "xavier"
      std: 0.1
    }
    bias_filler {
      type: "constant"
      value: 0.2
    }
  }
}
layer {
  name: "inception_4c/relu_pool_proj"
  type: "ReLU"
  bottom: "inception_4c/pool_proj"
  top: "inception_4c/pool_proj"
}
layer {
  name: "inception_4c/output"
  type: "Concat"
  bottom: "inception_4c/1x1"
  bottom: "inception_4c/3x3"
  bottom: "inception_4c/5x5"
  bottom: "inception_4c/pool_proj"
  top: "inception_4c/output"
}
layer {
  name: "inception_4d/1x1"
  type: "Convolution"
  bottom: "inception_4c/output"
  top: "inception_4d/1x1"
  param {
    lr_mult: 1
    decay_mult: 1
  }
  param {
    lr_mult: 2
    decay_mult: 0
  }
  convolution_param {
    num_output: 112
    kernel_size: 1
    weight_filler {
      type: "xavier"
      std: 0.03
    }
    bias_filler {
      type: "constant"
      value: 0.2
    }
  }
}
layer {
  name: "inception_4d/relu_1x1"
  type: "ReLU"
  bottom: "inception_4d/1x1"
  top: "inception_4d/1x1"
}
layer {
  name: "inception_4d/3x3_reduce"
  type: "Convolution"
  bottom: "inception_4c/output"
  top: "inception_4d/3x3_reduce"
  param {
    lr_mult: 1
    decay_mult: 1
  }
  param {
    lr_mult: 2
    decay_mult: 0
  }
  convolution_param {
    num_output: 144
    kernel_size: 1
    weight_filler {
      type: "xavier"
      std: 0.09
    }
    bias_filler {
      type: "constant"
      value: 0.2
    }
  }
}
layer {
  name: "inception_4d/relu_3x3_reduce"
  type: "ReLU"
  bottom: "inception_4d/3x3_reduce"
  top: "inception_4d/3x3_reduce"
}
layer {
  name: "inception_4d/3x3"
  type: "Convolution"
  bottom: "inception_4d/3x3_reduce"
  top: "inception_4d/3x3"
  param {
    lr_mult: 1
    decay_mult: 1
  }
  param {
    lr_mult: 2
    decay_mult: 0
  }
  convolution_param {
    num_output: 288
    pad: 1
    kernel_size: 3
    weight_filler {
      type: "xavier"
      std: 0.03
    }
    bias_filler {
      type: "constant"
      value: 0.2
    }
  }
}
layer {
  name: "inception_4d/relu_3x3"
  type: "ReLU"
  bottom: "inception_4d/3x3"
  top: "inception_4d/3x3"
}
layer {
  name: "inception_4d/5x5_reduce"
  type: "Convolution"
  bottom: "inception_4c/output"
  top: "inception_4d/5x5_reduce"
  param {
    lr_mult: 1
    decay_mult: 1
  }
  param {
    lr_mult: 2
    decay_mult: 0
  }
  convolution_param {
    num_output: 32
    kernel_size: 1
    weight_filler {
      type: "xavier"
      std: 0.2
    }
    bias_filler {
      type: "constant"
      value: 0.2
    }
  }
}
layer {
  name: "inception_4d/relu_5x5_reduce"
  type: "ReLU"
  bottom: "inception_4d/5x5_reduce"
  top: "inception_4d/5x5_reduce"
}
layer {
  name: "inception_4d/5x5"
  type: "Convolution"
  bottom: "inception_4d/5x5_reduce"
  top: "inception_4d/5x5"
  param {
    lr_mult: 1
    decay_mult: 1
  }
  param {
    lr_mult: 2
    decay_mult: 0
  }
  convolution_param {
    num_output: 64
    pad: 2
    kernel_size: 5
    weight_filler {
      type: "xavier"
      std: 0.03
    }
    bias_filler {
      type: "constant"
      value: 0.2
    }
  }
}
layer {
  name: "inception_4d/relu_5x5"
  type: "ReLU"
  bottom: "inception_4d/5x5"
  top: "inception_4d/5x5"
}
layer {
  name: "inception_4d/pool"
  type: "Pooling"
  bottom: "inception_4c/output"
  top: "inception_4d/pool"
  pooling_param {
    pool: MAX
    kernel_size: 3
    stride: 1
    pad: 1
  }
}
layer {
  name: "inception_4d/pool_proj"
  type: "Convolution"
  bottom: "inception_4d/pool"
  top: "inception_4d/pool_proj"
  param {
    lr_mult: 1
    decay_mult: 1
  }
  param {
    lr_mult: 2
    decay_mult: 0
  }
  convolution_param {
    num_output: 64
    kernel_size: 1
    weight_filler {
      type: "xavier"
      std: 0.1
    }
    bias_filler {
      type: "constant"
      value: 0.2
    }
  }
}
layer {
  name: "inception_4d/relu_pool_proj"
  type: "ReLU"
  bottom: "inception_4d/pool_proj"
  top: "inception_4d/pool_proj"
}
layer {
  name: "inception_4d/output"
  type: "Concat"
  bottom: "inception_4d/1x1"
  bottom: "inception_4d/3x3"
  bottom: "inception_4d/5x5"
  bottom: "inception_4d/pool_proj"
  top: "inception_4d/output"
}
layer {
  name: "loss2/ave_pool"
  type: "Pooling"
  bottom: "inception_4d/output"
  top: "loss2/ave_pool"
  pooling_param {
    pool: AVE
    kernel_size: 5
    stride: 3
  }
}
layer {
  name: "loss2/conv"
  type: "Convolution"
  bottom: "loss2/ave_pool"
  top: "loss2/conv"
  param {
    lr_mult: 1
    decay_mult: 1
  }
  param {
    lr_mult: 2
    decay_mult: 0
  }
  convolution_param {
    num_output: 128
    kernel_size: 1
    weight_filler {
      type: "xavier"
      std: 0.08
    }
    bias_filler {
      type: "constant"
      value: 0.2
    }
  }
}
layer {
  name: "loss2/relu_conv"
  type: "ReLU"
  bottom: "loss2/conv"
  top: "loss2/conv"
}
layer {
  name: "loss2/fc"
  type: "InnerProduct"
  bottom: "loss2/conv"
  top: "loss2/fc"
  param {
    lr_mult: 1
    decay_mult: 1
  }
  param {
    lr_mult: 2
    decay_mult: 0
  }
  inner_product_param {
    num_output: 1024
    weight_filler {
      type: "xavier"
      std: 0.02
    }
    bias_filler {
      type: "constant"
      value: 0.2
    }
  }
}
layer {
  name: "loss2/relu_fc"
  type: "ReLU"
  bottom: "loss2/fc"
  top: "loss2/fc"
}
layer {
  name: "loss2/drop_fc"
  type: "Dropout"
  bottom: "loss2/fc"
  top: "loss2/fc"
  dropout_param {
    dropout_ratio: 0.7
  }
}
layer {
  name: "loss2/classifier"
  type: "InnerProduct"
  bottom: "loss2/fc"
  top: "loss2/classifier"
  param {
    lr_mult: 1
    decay_mult: 1
  }
  param {
    lr_mult: 2
    decay_mult: 0
  }
  inner_product_param {
    num_output: 2
    weight_filler {
      type: "xavier"
      std: 0.0009765625
    }
    bias_filler {
      type: "constant"
      value: 0
    }
  }
}
layer {
  name: "loss2/loss"
  type: "SoftmaxWithLoss"
  bottom: "loss2/classifier"
  bottom: "label"
  top: "loss2/loss1"
  loss_weight: 0.3
}
layer {
  name: "loss2/top-1"
  type: "Accuracy"
  bottom: "loss2/classifier"
  bottom: "label"
  top: "loss2/top-1"
  include {
    phase: TEST
  }
}
layer {
  name: "inception_4e/1x1"
  type: "Convolution"
  bottom: "inception_4d/output"
  top: "inception_4e/1x1"
  param {
    lr_mult: 1
    decay_mult: 1
  }
  param {
    lr_mult: 2
    decay_mult: 0
  }
  convolution_param {
    num_output: 256
    kernel_size: 1
    weight_filler {
      type: "xavier"
      std: 0.03
    }
    bias_filler {
      type: "constant"
      value: 0.2
    }
  }
}
layer {
  name: "inception_4e/relu_1x1"
  type: "ReLU"
  bottom: "inception_4e/1x1"
  top: "inception_4e/1x1"
}
layer {
  name: "inception_4e/3x3_reduce"
  type: "Convolution"
  bottom: "inception_4d/output"
  top: "inception_4e/3x3_reduce"
  param {
    lr_mult: 1
    decay_mult: 1
  }
  param {
    lr_mult: 2
    decay_mult: 0
  }
  convolution_param {
    num_output: 160
    kernel_size: 1
    weight_filler {
      type: "xavier"
      std: 0.09
    }
    bias_filler {
      type: "constant"
      value: 0.2
    }
  }
}
layer {
  name: "inception_4e/relu_3x3_reduce"
  type: "ReLU"
  bottom: "inception_4e/3x3_reduce"
  top: "inception_4e/3x3_reduce"
}
layer {
  name: "inception_4e/3x3"
  type: "Convolution"
  bottom: "inception_4e/3x3_reduce"
  top: "inception_4e/3x3"
  param {
    lr_mult: 1
    decay_mult: 1
  }
  param {
    lr_mult: 2
    decay_mult: 0
  }
  convolution_param {
    num_output: 320
    pad: 1
    kernel_size: 3
    weight_filler {
      type: "xavier"
      std: 0.03
    }
    bias_filler {
      type: "constant"
      value: 0.2
    }
  }
}
layer {
  name: "inception_4e/relu_3x3"
  type: "ReLU"
  bottom: "inception_4e/3x3"
  top: "inception_4e/3x3"
}
layer {
  name: "inception_4e/5x5_reduce"
  type: "Convolution"
  bottom: "inception_4d/output"
  top: "inception_4e/5x5_reduce"
  param {
    lr_mult: 1
    decay_mult: 1
  }
  param {
   
I0510 00:47:24.320446 29615 layer_factory.hpp:74] Creating layer data
I0510 00:47:24.320480 29615 net.cpp:76] Creating Layer data
I0510 00:47:24.320492 29615 net.cpp:334] data -> data
I0510 00:47:24.320523 29615 net.cpp:334] data -> label
I0510 00:47:24.320543 29615 net.cpp:105] Setting up data
I0510 00:47:24.320647 29615 db.cpp:34] Opened lmdb val_lmdb
I0510 00:47:24.320930 29615 data_layer.cpp:67] output data size: 32,3,224,224
I0510 00:47:24.327601 29615 net.cpp:112] Top shape: 32 3 224 224 (4816896)
I0510 00:47:24.327625 29615 net.cpp:112] Top shape: 32 1 1 1 (32)
I0510 00:47:24.327635 29615 layer_factory.hpp:74] Creating layer label_data_1_split
I0510 00:47:24.327652 29615 net.cpp:76] Creating Layer label_data_1_split
I0510 00:47:24.327661 29615 net.cpp:372] label_data_1_split <- label
I0510 00:47:24.327678 29615 net.cpp:334] label_data_1_split -> label_data_1_split_0
I0510 00:47:24.327692 29615 net.cpp:334] label_data_1_split -> label_data_1_split_1
I0510 00:47:24.327702 29615 net.cpp:334] label_data_1_split -> label_data_1_split_2
I0510 00:47:24.327711 29615 net.cpp:334] label_data_1_split -> label_data_1_split_3
I0510 00:47:24.327720 29615 net.cpp:334] label_data_1_split -> label_data_1_split_4
I0510 00:47:24.327729 29615 net.cpp:334] label_data_1_split -> label_data_1_split_5
I0510 00:47:24.327738 29615 net.cpp:105] Setting up label_data_1_split
I0510 00:47:24.327746 29615 net.cpp:112] Top shape: 32 1 1 1 (32)
I0510 00:47:24.327752 29615 net.cpp:112] Top shape: 32 1 1 1 (32)
I0510 00:47:24.327759 29615 net.cpp:112] Top shape: 32 1 1 1 (32)
I0510 00:47:24.327764 29615 net.cpp:112] Top shape: 32 1 1 1 (32)
I0510 00:47:24.327769 29615 net.cpp:112] Top shape: 32 1 1 1 (32)
I0510 00:47:24.327774 29615 net.cpp:112] Top shape: 32 1 1 1 (32)
I0510 00:47:24.327780 29615 layer_factory.hpp:74] Creating layer conv1/7x7_s2
I0510 00:47:24.327795 29615 net.cpp:76] Creating Layer conv1/7x7_s2
I0510 00:47:24.327801 29615 net.cpp:372] conv1/7x7_s2 <- data
I0510 00:47:24.327814 29615 net.cpp:334] conv1/7x7_s2 -> conv1/7x7_s2
I0510 00:47:24.327828 29615 net.cpp:105] Setting up conv1/7x7_s2
I0510 00:47:24.328363 29615 net.cpp:112] Top shape: 32 64 112 112 (25690112)
I0510 00:47:24.328384 29615 layer_factory.hpp:74] Creating layer conv1/relu_7x7
I0510 00:47:24.328395 29615 net.cpp:76] Creating Layer conv1/relu_7x7
I0510 00:47:24.328402 29615 net.cpp:372] conv1/relu_7x7 <- conv1/7x7_s2
I0510 00:47:24.328409 29615 net.cpp:323] conv1/relu_7x7 -> conv1/7x7_s2 (in-place)
I0510 00:47:24.328418 29615 net.cpp:105] Setting up conv1/relu_7x7
I0510 00:47:24.328429 29615 net.cpp:112] Top shape: 32 64 112 112 (25690112)
I0510 00:47:24.328435 29615 layer_factory.hpp:74] Creating layer pool1/3x3_s2
I0510 00:47:24.328474 29615 net.cpp:76] Creating Layer pool1/3x3_s2
I0510 00:47:24.328481 29615 net.cpp:372] pool1/3x3_s2 <- conv1/7x7_s2
I0510 00:47:24.328490 29615 net.cpp:334] pool1/3x3_s2 -> pool1/3x3_s2
I0510 00:47:24.328500 29615 net.cpp:105] Setting up pool1/3x3_s2
I0510 00:47:24.328515 29615 net.cpp:112] Top shape: 32 64 56 56 (6422528)
I0510 00:47:24.328521 29615 layer_factory.hpp:74] Creating layer pool1/norm1
I0510 00:47:24.328532 29615 net.cpp:76] Creating Layer pool1/norm1
I0510 00:47:24.328538 29615 net.cpp:372] pool1/norm1 <- pool1/3x3_s2
I0510 00:47:24.328546 29615 net.cpp:334] pool1/norm1 -> pool1/norm1
I0510 00:47:24.328555 29615 net.cpp:105] Setting up pool1/norm1
I0510 00:47:24.328562 29615 net.cpp:112] Top shape: 32 64 56 56 (6422528)
I0510 00:47:24.328568 29615 layer_factory.hpp:74] Creating layer conv2/3x3_reduce
I0510 00:47:24.328577 29615 net.cpp:76] Creating Layer conv2/3x3_reduce
I0510 00:47:24.328584 29615 net.cpp:372] conv2/3x3_reduce <- pool1/norm1
I0510 00:47:24.328593 29615 net.cpp:334] conv2/3x3_reduce -> conv2/3x3_reduce
I0510 00:47:24.328601 29615 net.cpp:105] Setting up conv2/3x3_reduce
I0510 00:47:24.328660 29615 net.cpp:112] Top shape: 32 64 56 56 (6422528)
I0510 00:47:24.328675 29615 layer_factory.hpp:74] Creating layer conv2/relu_3x3_reduce
I0510 00:47:24.328682 29615 net.cpp:76] Creating Layer conv2/relu_3x3_reduce
I0510 00:47:24.328688 29615 net.cpp:372] conv2/relu_3x3_reduce <- conv2/3x3_reduce
I0510 00:47:24.328696 29615 net.cpp:323] conv2/relu_3x3_reduce -> conv2/3x3_reduce (in-place)
I0510 00:47:24.328704 29615 net.cpp:105] Setting up conv2/relu_3x3_reduce
I0510 00:47:24.328711 29615 net.cpp:112] Top shape: 32 64 56 56 (6422528)
I0510 00:47:24.328716 29615 layer_factory.hpp:74] Creating layer conv2/3x3
I0510 00:47:24.328726 29615 net.cpp:76] Creating Layer conv2/3x3
I0510 00:47:24.328732 29615 net.cpp:372] conv2/3x3 <- conv2/3x3_reduce
I0510 00:47:24.328739 29615 net.cpp:334] conv2/3x3 -> conv2/3x3
I0510 00:47:24.328748 29615 net.cpp:105] Setting up conv2/3x3
I0510 00:47:24.329684 29615 net.cpp:112] Top shape: 32 192 56 56 (19267584)
I0510 00:47:24.329704 29615 layer_factory.hpp:74] Creating layer conv2/relu_3x3
I0510 00:47:24.329712 29615 net.cpp:76] Creating Layer conv2/relu_3x3
I0510 00:47:24.329718 29615 net.cpp:372] conv2/relu_3x3 <- conv2/3x3
I0510 00:47:24.329728 29615 net.cpp:323] conv2/relu_3x3 -> conv2/3x3 (in-place)
I0510 00:47:24.329736 29615 net.cpp:105] Setting up conv2/relu_3x3
I0510 00:47:24.329746 29615 net.cpp:112] Top shape: 32 192 56 56 (19267584)
I0510 00:47:24.329751 29615 layer_factory.hpp:74] Creating layer conv2/norm2
I0510 00:47:24.329759 29615 net.cpp:76] Creating Layer conv2/norm2
I0510 00:47:24.329764 29615 net.cpp:372] conv2/norm2 <- conv2/3x3
I0510 00:47:24.329772 29615 net.cpp:334] conv2/norm2 -> conv2/norm2
I0510 00:47:24.329779 29615 net.cpp:105] Setting up conv2/norm2
I0510 00:47:24.329787 29615 net.cpp:112] Top shape: 32 192 56 56 (19267584)
I0510 00:47:24.329792 29615 layer_factory.hpp:74] Creating layer pool2/3x3_s2
I0510 00:47:24.329810 29615 net.cpp:76] Creating Layer pool2/3x3_s2
I0510 00:47:24.329818 29615 net.cpp:372] pool2/3x3_s2 <- conv2/norm2
I0510 00:47:24.329825 29615 net.cpp:334] pool2/3x3_s2 -> pool2/3x3_s2
I0510 00:47:24.329833 29615 net.cpp:105] Setting up pool2/3x3_s2
I0510 00:47:24.329840 29615 net.cpp:112] Top shape: 32 192 28 28 (4816896)
I0510 00:47:24.329846 29615 layer_factory.hpp:74] Creating layer pool2/3x3_s2_pool2/3x3_s2_0_split
I0510 00:47:24.329856 29615 net.cpp:76] Creating Layer pool2/3x3_s2_pool2/3x3_s2_0_split
I0510 00:47:24.329862 29615 net.cpp:372] pool2/3x3_s2_pool2/3x3_s2_0_split <- pool2/3x3_s2
I0510 00:47:24.329871 29615 net.cpp:334] pool2/3x3_s2_pool2/3x3_s2_0_split -> pool2/3x3_s2_pool2/3x3_s2_0_split_0
I0510 00:47:24.329882 29615 net.cpp:334] pool2/3x3_s2_pool2/3x3_s2_0_split -> pool2/3x3_s2_pool2/3x3_s2_0_split_1
I0510 00:47:24.329893 29615 net.cpp:334] pool2/3x3_s2_pool2/3x3_s2_0_split -> pool2/3x3_s2_pool2/3x3_s2_0_split_2
I0510 00:47:24.329922 29615 net.cpp:334] pool2/3x3_s2_pool2/3x3_s2_0_split -> pool2/3x3_s2_pool2/3x3_s2_0_split_3
I0510 00:47:24.329931 29615 net.cpp:105] Setting up pool2/3x3_s2_pool2/3x3_s2_0_split
I0510 00:47:24.329938 29615 net.cpp:112] Top shape: 32 192 28 28 (4816896)
I0510 00:47:24.329944 29615 net.cpp:112] Top shape: 32 192 28 28 (4816896)
I0510 00:47:24.329949 29615 net.cpp:112] Top shape: 32 192 28 28 (4816896)
I0510 00:47:24.329954 29615 net.cpp:112] Top shape: 32 192 28 28 (4816896)
I0510 00:47:24.329960 29615 layer_factory.hpp:74] Creating layer inception_3a/1x1
I0510 00:47:24.329968 29615 net.cpp:76] Creating Layer inception_3a/1x1
I0510 00:47:24.329974 29615 net.cpp:372] inception_3a/1x1 <- pool2/3x3_s2_pool2/3x3_s2_0_split_0
I0510 00:47:24.330011 29615 net.cpp:334] inception_3a/1x1 -> inception_3a/1x1
I0510 00:47:24.330021 29615 net.cpp:105] Setting up inception_3a/1x1
I0510 00:47:24.330265 29615 net.cpp:112] Top shape: 32 64 28 28 (1605632)
I0510 00:47:24.330288 29615 layer_factory.hpp:74] Creating layer inception_3a/relu_1x1
I0510 00:47:24.330299 29615 net.cpp:76] Creating Layer inception_3a/relu_1x1
I0510 00:47:24.330306 29615 net.cpp:372] inception_3a/relu_1x1 <- inception_3a/1x1
I0510 00:47:24.330330 29615 net.cpp:323] inception_3a/relu_1x1 -> inception_3a/1x1 (in-place)
I0510 00:47:24.330340 29615 net.cpp:105] Setting up inception_3a/relu_1x1
I0510 00:47:24.330346 29615 net.cpp:112] Top shape: 32 64 28 28 (1605632)
I0510 00:47:24.330353 29615 layer_factory.hpp:74] Creating layer inception_3a/3x3_reduce
I0510 00:47:24.330364 29615 net.cpp:76] Creating Layer inception_3a/3x3_reduce
I0510 00:47:24.330371 29615 net.cpp:372] inception_3a/3x3_reduce <- pool2/3x3_s2_pool2/3x3_s2_0_split_1
I0510 00:47:24.330382 29615 net.cpp:334] inception_3a/3x3_reduce -> inception_3a/3x3_reduce
I0510 00:47:24.330392 29615 net.cpp:105] Setting up inception_3a/3x3_reduce
I0510 00:47:24.330608 29615 net.cpp:112] Top shape: 32 96 28 28 (2408448)
I0510 00:47:24.330629 29615 layer_factory.hpp:74] Creating layer inception_3a/relu_3x3_reduce
I0510 00:47:24.330639 29615 net.cpp:76] Creating Layer inception_3a/relu_3x3_reduce
I0510 00:47:24.330646 29615 net.cpp:372] inception_3a/relu_3x3_reduce <- inception_3a/3x3_reduce
I0510 00:47:24.330654 29615 net.cpp:323] inception_3a/relu_3x3_reduce -> inception_3a/3x3_reduce (in-place)
I0510 00:47:24.330662 29615 net.cpp:105] Setting up inception_3a/relu_3x3_reduce
I0510 00:47:24.330668 29615 net.cpp:112] Top shape: 32 96 28 28 (2408448)
I0510 00:47:24.330674 29615 layer_factory.hpp:74] Creating layer inception_3a/3x3
I0510 00:47:24.330685 29615 net.cpp:76] Creating Layer inception_3a/3x3
I0510 00:47:24.330692 29615 net.cpp:372] inception_3a/3x3 <- inception_3a/3x3_reduce
I0510 00:47:24.330701 29615 net.cpp:334] inception_3a/3x3 -> inception_3a/3x3
I0510 00:47:24.330711 29615 net.cpp:105] Setting up inception_3a/3x3
I0510 00:47:24.331996 29615 net.cpp:112] Top shape: 32 128 28 28 (3211264)
I0510 00:47:24.332016 29615 layer_factory.hpp:74] Creating layer inception_3a/relu_3x3
I0510 00:47:24.332026 29615 net.cpp:76] Creating Layer inception_3a/relu_3x3
I0510 00:47:24.332032 29615 net.cpp:372] inception_3a/relu_3x3 <- inception_3a/3x3
I0510 00:47:24.332041 29615 net.cpp:323] inception_3a/relu_3x3 -> inception_3a/3x3 (in-place)
I0510 00:47:24.332048 29615 net.cpp:105] Setting up inception_3a/relu_3x3
I0510 00:47:24.332054 29615 net.cpp:112] Top shape: 32 128 28 28 (3211264)
I0510 00:47:24.332061 29615 layer_factory.hpp:74] Creating layer inception_3a/5x5_reduce
I0510 00:47:24.332072 29615 net.cpp:76] Creating Layer inception_3a/5x5_reduce
I0510 00:47:24.332077 29615 net.cpp:372] inception_3a/5x5_reduce <- pool2/3x3_s2_pool2/3x3_s2_0_split_2
I0510 00:47:24.332085 29615 net.cpp:334] inception_3a/5x5_reduce -> inception_3a/5x5_reduce
I0510 00:47:24.332094 29615 net.cpp:105] Setting up inception_3a/5x5_reduce
I0510 00:47:24.332136 29615 net.cpp:112] Top shape: 32 16 28 28 (401408)
I0510 00:47:24.332146 29615 layer_factory.hpp:74] Creating layer inception_3a/relu_5x5_reduce
I0510 00:47:24.332156 29615 net.cpp:76] Creating Layer inception_3a/relu_5x5_reduce
I0510 00:47:24.332188 29615 net.cpp:372] inception_3a/relu_5x5_reduce <- inception_3a/5x5_reduce
I0510 00:47:24.332197 29615 net.cpp:323] inception_3a/relu_5x5_reduce -> inception_3a/5x5_reduce (in-place)
I0510 00:47:24.332206 29615 net.cpp:105] Setting up inception_3a/relu_5x5_reduce
I0510 00:47:24.332211 29615 net.cpp:112] Top shape: 32 16 28 28 (401408)
I0510 00:47:24.332217 29615 layer_factory.hpp:74] Creating layer inception_3a/5x5
I0510 00:47:24.332226 29615 net.cpp:76] Creating Layer inception_3a/5x5
I0510 00:47:24.332231 29615 net.cpp:372] inception_3a/5x5 <- inception_3a/5x5_reduce
I0510 00:47:24.332242 29615 net.cpp:334] inception_3a/5x5 -> inception_3a/5x5
I0510 00:47:24.332252 29615 net.cpp:105] Setting up inception_3a/5x5
I0510 00:47:24.332384 29615 net.cpp:112] Top shape: 32 32 28 28 (802816)
I0510 00:47:24.332397 29615 layer_factory.hpp:74] Creating layer inception_3a/relu_5x5
I0510 00:47:24.332406 29615 net.cpp:76] Creating Layer inception_3a/relu_5x5
I0510 00:47:24.332412 29615 net.cpp:372] inception_3a/relu_5x5 <- inception_3a/5x5
I0510 00:47:24.332418 29615 net.cpp:323] inception_3a/relu_5x5 -> inception_3a/5x5 (in-place)
I0510 00:47:24.332427 29615 net.cpp:105] Setting up inception_3a/relu_5x5
I0510 00:47:24.332432 29615 net.cpp:112] Top shape: 32 32 28 28 (802816)
I0510 00:47:24.332437 29615 layer_factory.hpp:74] Creating layer inception_3a/pool
I0510 00:47:24.332448 29615 net.cpp:76] Creating Layer inception_3a/pool
I0510 00:47:24.332454 29615 net.cpp:372] inception_3a/pool <- pool2/3x3_s2_pool2/3x3_s2_0_split_3
I0510 00:47:24.332463 29615 net.cpp:334] inception_3a/pool -> inception_3a/pool
I0510 00:47:24.332470 29615 net.cpp:105] Setting up inception_3a/pool
I0510 00:47:24.332479 29615 net.cpp:112] Top shape: 32 192 28 28 (4816896)
I0510 00:47:24.332484 29615 layer_factory.hpp:74] Creating layer inception_3a/pool_proj
I0510 00:47:24.332495 29615 net.cpp:76] Creating Layer inception_3a/pool_proj
I0510 00:47:24.332501 29615 net.cpp:372] inception_3a/pool_proj <- inception_3a/pool
I0510 00:47:24.332509 29615 net.cpp:334] inception_3a/pool_proj -> inception_3a/pool_proj
I0510 00:47:24.332517 29615 net.cpp:105] Setting up inception_3a/pool_proj
I0510 00:47:24.332646 29615 net.cpp:112] Top shape: 32 32 28 28 (802816)
I0510 00:47:24.332667 29615 layer_factory.hpp:74] Creating layer inception_3a/relu_pool_proj
I0510 00:47:24.332679 29615 net.cpp:76] Creating Layer inception_3a/relu_pool_proj
I0510 00:47:24.332686 29615 net.cpp:372] inception_3a/relu_pool_proj <- inception_3a/pool_proj
I0510 00:47:24.332695 29615 net.cpp:323] inception_3a/relu_pool_proj -> inception_3a/pool_proj (in-place)
I0510 00:47:24.332702 29615 net.cpp:105] Setting up inception_3a/relu_pool_proj
I0510 00:47:24.332708 29615 net.cpp:112] Top shape: 32 32 28 28 (802816)
I0510 00:47:24.332713 29615 layer_factory.hpp:74] Creating layer inception_3a/output
I0510 00:47:24.332725 29615 net.cpp:76] Creating Layer inception_3a/output
I0510 00:47:24.332732 29615 net.cpp:372] inception_3a/output <- inception_3a/1x1
I0510 00:47:24.332739 29615 net.cpp:372] inception_3a/output <- inception_3a/3x3
I0510 00:47:24.332746 29615 net.cpp:372] inception_3a/output <- inception_3a/5x5
I0510 00:47:24.332752 29615 net.cpp:372] inception_3a/output <- inception_3a/pool_proj
I0510 00:47:24.332759 29615 net.cpp:334] inception_3a/output -> inception_3a/output
I0510 00:47:24.332768 29615 net.cpp:105] Setting up inception_3a/output
I0510 00:47:24.332777 29615 net.cpp:112] Top shape: 32 256 28 28 (6422528)
I0510 00:47:24.332783 29615 layer_factory.hpp:74] Creating layer inception_3a/output_inception_3a/output_0_split
I0510 00:47:24.332790 29615 net.cpp:76] Creating Layer inception_3a/output_inception_3a/output_0_split
I0510 00:47:24.332797 29615 net.cpp:372] inception_3a/output_inception_3a/output_0_split <- inception_3a/output
I0510 00:47:24.332804 29615 net.cpp:334] inception_3a/output_inception_3a/output_0_split -> inception_3a/output_inception_3a/output_0_split_0
I0510 00:47:24.332813 29615 net.cpp:334] inception_3a/output_inception_3a/output_0_split -> inception_3a/output_inception_3a/output_0_split_1
I0510 00:47:24.332847 29615 net.cpp:334] inception_3a/output_inception_3a/output_0_split -> inception_3a/output_inception_3a/output_0_split_2
I0510 00:47:24.332859 29615 net.cpp:334] inception_3a/output_inception_3a/output_0_split -> inception_3a/output_inception_3a/output_0_split_3
I0510 00:47:24.332866 29615 net.cpp:105] Setting up inception_3a/output_inception_3a/output_0_split
I0510 00:47:24.332873 29615 net.cpp:112] Top shape: 32 256 28 28 (6422528)
I0510 00:47:24.332880 29615 net.cpp:112] Top shape: 32 256 28 28 (6422528)
I0510 00:47:24.332885 29615 net.cpp:112] Top shape: 32 256 28 28 (6422528)
I0510 00:47:24.332888 29615 net.cpp:112] Top shape: 32 256 28 28 (6422528)
I0510 00:47:24.332895 29615 layer_factory.hpp:74] Creating layer inception_3b/1x1
I0510 00:47:24.332906 29615 net.cpp:76] Creating Layer inception_3b/1x1
I0510 00:47:24.332911 29615 net.cpp:372] inception_3b/1x1 <- inception_3a/output_inception_3a/output_0_split_0
I0510 00:47:24.332921 29615 net.cpp:334] inception_3b/1x1 -> inception_3b/1x1
I0510 00:47:24.332929 29615 net.cpp:105] Setting up inception_3b/1x1
I0510 00:47:24.333415 29615 net.cpp:112] Top shape: 32 128 28 28 (3211264)
I0510 00:47:24.333431 29615 layer_factory.hpp:74] Creating layer inception_3b/relu_1x1
I0510 00:47:24.333441 29615 net.cpp:76] Creating Layer inception_3b/relu_1x1
I0510 00:47:24.333446 29615 net.cpp:372] inception_3b/relu_1x1 <- inception_3b/1x1
I0510 00:47:24.333456 29615 net.cpp:323] inception_3b/relu_1x1 -> inception_3b/1x1 (in-place)
I0510 00:47:24.333464 29615 net.cpp:105] Setting up inception_3b/relu_1x1
I0510 00:47:24.333469 29615 net.cpp:112] Top shape: 32 128 28 28 (3211264)
I0510 00:47:24.333475 29615 layer_factory.hpp:74] Creating layer inception_3b/3x3_reduce
I0510 00:47:24.333483 29615 net.cpp:76] Creating Layer inception_3b/3x3_reduce
I0510 00:47:24.333489 29615 net.cpp:372] inception_3b/3x3_reduce <- inception_3a/output_inception_3a/output_0_split_1
I0510 00:47:24.333502 29615 net.cpp:334] inception_3b/3x3_reduce -> inception_3b/3x3_reduce
I0510 00:47:24.333513 29615 net.cpp:105] Setting up inception_3b/3x3_reduce
I0510 00:47:24.333803 29615 net.cpp:112] Top shape: 32 128 28 28 (3211264)
I0510 00:47:24.333817 29615 layer_factory.hpp:74] Creating layer inception_3b/relu_3x3_reduce
I0510 00:47:24.333827 29615 net.cpp:76] Creating Layer inception_3b/relu_3x3_reduce
I0510 00:47:24.333833 29615 net.cpp:372] inception_3b/relu_3x3_reduce <- inception_3b/3x3_reduce
I0510 00:47:24.333840 29615 net.cpp:323] inception_3b/relu_3x3_reduce -> inception_3b/3x3_reduce (in-place)
I0510 00:47:24.333848 29615 net.cpp:105] Setting up inception_3b/relu_3x3_reduce
I0510 00:47:24.333854 29615 net.cpp:112] Top shape: 32 128 28 28 (3211264)
I0510 00:47:24.333860 29615 layer_factory.hpp:74] Creating layer inception_3b/3x3
I0510 00:47:24.333873 29615 net.cpp:76] Creating Layer inception_3b/3x3
I0510 00:47:24.333879 29615 net.cpp:372] inception_3b/3x3 <- inception_3b/3x3_reduce
I0510 00:47:24.333888 29615 net.cpp:334] inception_3b/3x3 -> inception_3b/3x3
I0510 00:47:24.333896 29615 net.cpp:105] Setting up inception_3b/3x3
I0510 00:47:24.336345 29615 net.cpp:112] Top shape: 32 192 28 28 (4816896)
I0510 00:47:24.336369 29615 layer_factory.hpp:74] Creating layer inception_3b/relu_3x3
I0510 00:47:24.336380 29615 net.cpp:76] Creating Layer inception_3b/relu_3x3
I0510 00:47:24.336388 29615 net.cpp:372] inception_3b/relu_3x3 <- inception_3b/3x3
I0510 00:47:24.336396 29615 net.cpp:323] inception_3b/relu_3x3 -> inception_3b/3x3 (in-place)
I0510 00:47:24.336405 29615 net.cpp:105] Setting up inception_3b/relu_3x3
I0510 00:47:24.336411 29615 net.cpp:112] Top shape: 32 192 28 28 (4816896)
I0510 00:47:24.336416 29615 layer_factory.hpp:74] Creating layer inception_3b/5x5_reduce
I0510 00:47:24.336427 29615 net.cpp:76] Creating Layer inception_3b/5x5_reduce
I0510 00:47:24.336433 29615 net.cpp:372] inception_3b/5x5_reduce <- inception_3a/output_inception_3a/output_0_split_2
I0510 00:47:24.336442 29615 net.cpp:334] inception_3b/5x5_reduce -> inception_3b/5x5_reduce
I0510 00:47:24.336475 29615 net.cpp:105] Setting up inception_3b/5x5_reduce
I0510 00:47:24.336575 29615 net.cpp:112] Top shape: 32 32 28 28 (802816)
I0510 00:47:24.336591 29615 layer_factory.hpp:74] Creating layer inception_3b/relu_5x5_reduce
I0510 00:47:24.336598 29615 net.cpp:76] Creating Layer inception_3b/relu_5x5_reduce
I0510 00:47:24.336604 29615 net.cpp:372] inception_3b/relu_5x5_reduce <- inception_3b/5x5_reduce
I0510 00:47:24.336617 29615 net.cpp:323] inception_3b/relu_5x5_reduce -> inception_3b/5x5_reduce (in-place)
I0510 00:47:24.336633 29615 net.cpp:105] Setting up inception_3b/relu_5x5_reduce
I0510 00:47:24.336643 29615 net.cpp:112] Top shape: 32 32 28 28 (802816)
I0510 00:47:24.336654 29615 layer_factory.hpp:74] Creating layer inception_3b/5x5
I0510 00:47:24.336671 29615 net.cpp:76] Creating Layer inception_3b/5x5
I0510 00:47:24.336683 29615 net.cpp:372] inception_3b/5x5 <- inception_3b/5x5_reduce
I0510 00:47:24.336702 29615 net.cpp:334] inception_3b/5x5 -> inception_3b/5x5
I0510 00:47:24.336721 29615 net.cpp:105] Setting up inception_3b/5x5
I0510 00:47:24.337435 29615 net.cpp:112] Top shape: 32 96 28 28 (2408448)
I0510 00:47:24.337457 29615 layer_factory.hpp:74] Creating layer inception_3b/relu_5x5
I0510 00:47:24.337468 29615 net.cpp:76] Creating Layer inception_3b/relu_5x5
I0510 00:47:24.337476 29615 net.cpp:372] inception_3b/relu_5x5 <- inception_3b/5x5
I0510 00:47:24.337483 29615 net.cpp:323] inception_3b/relu_5x5 -> inception_3b/5x5 (in-place)
I0510 00:47:24.337491 29615 net.cpp:105] Setting up inception_3b/relu_5x5
I0510 00:47:24.337498 29615 net.cpp:112] Top shape: 32 96 28 28 (2408448)
I0510 00:47:24.337508 29615 layer_factory.hpp:74] Creating layer inception_3b/pool
I0510 00:47:24.337527 29615 net.cpp:76] Creating Layer inception_3b/pool
I0510 00:47:24.337541 29615 net.cpp:372] inception_3b/pool <- inception_3a/output_inception_3a/output_0_split_3
I0510 00:47:24.337553 29615 net.cpp:334] inception_3b/pool -> inception_3b/pool
I0510 00:47:24.337568 29615 net.cpp:105] Setting up inception_3b/pool
I0510 00:47:24.337584 29615 net.cpp:112] Top shape: 32 256 28 28 (6422528)
I0510 00:47:24.337596 29615 layer_factory.hpp:74] Creating layer inception_3b/pool_proj
I0510 00:47:24.337616 29615 net.cpp:76] Creating Layer inception_3b/pool_proj
I0510 00:47:24.337623 29615 net.cpp:372] inception_3b/pool_proj <- inception_3b/pool
I0510 00:47:24.337632 29615 net.cpp:334] inception_3b/pool_proj -> inception_3b/pool_proj
I0510 00:47:24.337642 29615 net.cpp:105] Setting up inception_3b/pool_proj
I0510 00:47:24.337791 29615 net.cpp:112] Top shape: 32 64 28 28 (1605632)
I0510 00:47:24.337805 29615 layer_factory.hpp:74] Creating layer inception_3b/relu_pool_proj
I0510 00:47:24.337812 29615 net.cpp:76] Creating Layer inception_3b/relu_pool_proj
I0510 00:47:24.337818 29615 net.cpp:372] inception_3b/relu_pool_proj <- inception_3b/pool_proj
I0510 00:47:24.337828 29615 net.cpp:323] inception_3b/relu_pool_proj -> inception_3b/pool_proj (in-place)
I0510 00:47:24.337836 29615 net.cpp:105] Setting up inception_3b/relu_pool_proj
I0510 00:47:24.337842 29615 net.cpp:112] Top shape: 32 64 28 28 (1605632)
I0510 00:47:24.337847 29615 layer_factory.hpp:74] Creating layer inception_3b/output
I0510 00:47:24.337856 29615 net.cpp:76] Creating Layer inception_3b/output
I0510 00:47:24.337862 29615 net.cpp:372] inception_3b/output <- inception_3b/1x1
I0510 00:47:24.337868 29615 net.cpp:372] inception_3b/output <- inception_3b/3x3
I0510 00:47:24.337874 29615 net.cpp:372] inception_3b/output <- inception_3b/5x5
I0510 00:47:24.337882 29615 net.cpp:372] inception_3b/output <- inception_3b/pool_proj
I0510 00:47:24.337894 29615 net.cpp:334] inception_3b/output -> inception_3b/output
I0510 00:47:24.337903 29615 net.cpp:105] Setting up inception_3b/output
I0510 00:47:24.337910 29615 net.cpp:112] Top shape: 32 480 28 28 (12042240)
I0510 00:47:24.337916 29615 layer_factory.hpp:74] Creating layer pool3/3x3_s2
I0510 00:47:24.337924 29615 net.cpp:76] Creating Layer pool3/3x3_s2
I0510 00:47:24.337930 29615 net.cpp:372] pool3/3x3_s2 <- inception_3b/output
I0510 00:47:24.337954 29615 net.cpp:334] pool3/3x3_s2 -> pool3/3x3_s2
I0510 00:47:24.337962 29615 net.cpp:105] Setting up pool3/3x3_s2
I0510 00:47:24.337970 29615 net.cpp:112] Top shape: 32 480 14 14 (3010560)
I0510 00:47:24.337975 29615 layer_factory.hpp:74] Creating layer pool3/3x3_s2_pool3/3x3_s2_0_split
I0510 00:47:24.337986 29615 net.cpp:76] Creating Layer pool3/3x3_s2_pool3/3x3_s2_0_split
I0510 00:47:24.337992 29615 net.cpp:372] pool3/3x3_s2_pool3/3x3_s2_0_split <- pool3/3x3_s2
I0510 00:47:24.337999 29615 net.cpp:334] pool3/3x3_s2_pool3/3x3_s2_0_split -> pool3/3x3_s2_pool3/3x3_s2_0_split_0
I0510 00:47:24.338008 29615 net.cpp:334] pool3/3x3_s2_pool3/3x3_s2_0_split -> pool3/3x3_s2_pool3/3x3_s2_0_split_1
I0510 00:47:24.338017 29615 net.cpp:334] pool3/3x3_s2_pool3/3x3_s2_0_split -> pool3/3x3_s2_pool3/3x3_s2_0_split_2
I0510 00:47:24.338037 29615 net.cpp:334] pool3/3x3_s2_pool3/3x3_s2_0_split -> pool3/3x3_s2_pool3/3x3_s2_0_split_3
I0510 00:47:24.338047 29615 net.cpp:105] Setting up pool3/3x3_s2_pool3/3x3_s2_0_split
I0510 00:47:24.338054 29615 net.cpp:112] Top shape: 32 480 14 14 (3010560)
I0510 00:47:24.338060 29615 net.cpp:112] Top shape: 32 480 14 14 (3010560)
I0510 00:47:24.338065 29615 net.cpp:112] Top shape: 32 480 14 14 (3010560)
I0510 00:47:24.338070 29615 net.cpp:112] Top shape: 32 480 14 14 (3010560)
I0510 00:47:24.338075 29615 layer_factory.hpp:74] Creating layer inception_4a/1x1
I0510 00:47:24.338084 29615 net.cpp:76] Creating Layer inception_4a/1x1
I0510 00:47:24.338090 29615 net.cpp:372] inception_4a/1x1 <- pool3/3x3_s2_pool3/3x3_s2_0_split_0
I0510 00:47:24.338102 29615 net.cpp:334] inception_4a/1x1 -> inception_4a/1x1
I0510 00:47:24.338119 29615 net.cpp:105] Setting up inception_4a/1x1
I0510 00:47:24.338994 29615 net.cpp:112] Top shape: 32 192 14 14 (1204224)
I0510 00:47:24.339012 29615 layer_factory.hpp:74] Creating layer inception_4a/relu_1x1
I0510 00:47:24.339021 29615 net.cpp:76] Creating Layer inception_4a/relu_1x1
I0510 00:47:24.339028 29615 net.cpp:372] inception_4a/relu_1x1 <- inception_4a/1x1
I0510 00:47:24.339036 29615 net.cpp:323] inception_4a/relu_1x1 -> inception_4a/1x1 (in-place)
I0510 00:47:24.339045 29615 net.cpp:105] Setting up inception_4a/relu_1x1
I0510 00:47:24.339049 29615 net.cpp:112] Top shape: 32 192 14 14 (1204224)
I0510 00:47:24.339056 29615 layer_factory.hpp:74] Creating layer inception_4a/3x3_reduce
I0510 00:47:24.339066 29615 net.cpp:76] Creating Layer inception_4a/3x3_reduce
I0510 00:47:24.339072 29615 net.cpp:372] inception_4a/3x3_reduce <- pool3/3x3_s2_pool3/3x3_s2_0_split_1
I0510 00:47:24.339083 29615 net.cpp:334] inception_4a/3x3_reduce -> inception_4a/3x3_reduce
I0510 00:47:24.339092 29615 net.cpp:105] Setting up inception_4a/3x3_reduce
I0510 00:47:24.339506 29615 net.cpp:112] Top shape: 32 96 14 14 (602112)
I0510 00:47:24.339535 29615 layer_factory.hpp:74] Creating layer inception_4a/relu_3x3_reduce
I0510 00:47:24.339552 29615 net.cpp:76] Creating Layer inception_4a/relu_3x3_reduce
I0510 00:47:24.339563 29615 net.cpp:372] inception_4a/relu_3x3_reduce <- inception_4a/3x3_reduce
I0510 00:47:24.339581 29615 net.cpp:323] inception_4a/relu_3x3_reduce -> inception_4a/3x3_reduce (in-place)
I0510 00:47:24.339599 29615 net.cpp:105] Setting up inception_4a/relu_3x3_reduce
I0510 00:47:24.339608 29615 net.cpp:112] Top shape: 32 96 14 14 (602112)
I0510 00:47:24.339615 29615 layer_factory.hpp:74] Creating layer inception_4a/3x3
I0510 00:47:24.339624 29615 net.cpp:76] Creating Layer inception_4a/3x3
I0510 00:47:24.339630 29615 net.cpp:372] inception_4a/3x3 <- inception_4a/3x3_reduce
I0510 00:47:24.339638 29615 net.cpp:334] inception_4a/3x3 -> inception_4a/3x3
I0510 00:47:24.339648 29615 net.cpp:105] Setting up inception_4a/3x3
I0510 00:47:24.341186 29615 net.cpp:112] Top shape: 32 208 14 14 (1304576)
I0510 00:47:24.341203 29615 layer_factory.hpp:74] Creating layer inception_4a/relu_3x3
I0510 00:47:24.341213 29615 net.cpp:76] Creating Layer inception_4a/relu_3x3
I0510 00:47:24.341220 29615 net.cpp:372] inception_4a/relu_3x3 <- inception_4a/3x3
I0510 00:47:24.341251 29615 net.cpp:323] inception_4a/relu_3x3 -> inception_4a/3x3 (in-place)
I0510 00:47:24.341260 29615 net.cpp:105] Setting up inception_4a/relu_3x3
I0510 00:47:24.341266 29615 net.cpp:112] Top shape: 32 208 14 14 (1304576)
I0510 00:47:24.341289 29615 layer_factory.hpp:74] Creating layer inception_4a/5x5_reduce
I0510 00:47:24.341300 29615 net.cpp:76] Creating Layer inception_4a/5x5_reduce
I0510 00:47:24.341307 29615 net.cpp:372] inception_4a/5x5_reduce <- pool3/3x3_s2_pool3/3x3_s2_0_split_2
I0510 00:47:24.341316 29615 net.cpp:334] inception_4a/5x5_reduce -> inception_4a/5x5_reduce
I0510 00:47:24.341325 29615 net.cpp:105] Setting up inception_4a/5x5_reduce
I0510 00:47:24.341413 29615 net.cpp:112] Top shape: 32 16 14 14 (100352)
I0510 00:47:24.341425 29615 layer_factory.hpp:74] Creating layer inception_4a/relu_5x5_reduce
I0510 00:47:24.341434 29615 net.cpp:76] Creating Layer inception_4a/relu_5x5_reduce
I0510 00:47:24.341439 29615 net.cpp:372] inception_4a/relu_5x5_reduce <- inception_4a/5x5_reduce
I0510 00:47:24.341449 29615 net.cpp:323] inception_4a/relu_5x5_reduce -> inception_4a/5x5_reduce (in-place)
I0510 00:47:24.341456 29615 net.cpp:105] Setting up inception_4a/relu_5x5_reduce
I0510 00:47:24.341462 29615 net.cpp:112] Top shape: 32 16 14 14 (100352)
I0510 00:47:24.341470 29615 layer_factory.hpp:74] Creating layer inception_4a/5x5
I0510 00:47:24.341478 29615 net.cpp:76] Creating Layer inception_4a/5x5
I0510 00:47:24.341485 29615 net.cpp:372] inception_4a/5x5 <- inception_4a/5x5_reduce
I0510 00:47:24.341495 29615 net.cpp:334] inception_4a/5x5 -> inception_4a/5x5
I0510 00:47:24.341503 29615 net.cpp:105] Setting up inception_4a/5x5
I0510 00:47:24.341708 29615 net.cpp:112] Top shape: 32 48 14 14 (301056)
I0510 00:47:24.341729 29615 layer_factory.hpp:74] Creating layer inception_4a/relu_5x5
I0510 00:47:24.341743 29615 net.cpp:76] Creating Layer inception_4a/relu_5x5
I0510 00:47:24.341754 29615 net.cpp:372] inception_4a/relu_5x5 <- inception_4a/5x5
I0510 00:47:24.341769 29615 net.cpp:323] inception_4a/relu_5x5 -> inception_4a/5x5 (in-place)
I0510 00:47:24.341790 29615 net.cpp:105] Setting up inception_4a/relu_5x5
I0510 00:47:24.341801 29615 net.cpp:112] Top shape: 32 48 14 14 (301056)
I0510 00:47:24.341809 29615 layer_factory.hpp:74] Creating layer inception_4a/pool
I0510 00:47:24.341817 29615 net.cpp:76] Creating Layer inception_4a/pool
I0510 00:47:24.341823 29615 net.cpp:372] inception_4a/pool <- pool3/3x3_s2_pool3/3x3_s2_0_split_3
I0510 00:47:24.341832 29615 net.cpp:334] inception_4a/pool -> inception_4a/pool
I0510 00:47:24.341842 29615 net.cpp:105] Setting up inception_4a/pool
I0510 00:47:24.341850 29615 net.cpp:112] Top shape: 32 480 14 14 (3010560)
I0510 00:47:24.341864 29615 layer_factory.hpp:74] Creating layer inception_4a/pool_proj
I0510 00:47:24.341878 29615 net.cpp:76] Creating Layer inception_4a/pool_proj
I0510 00:47:24.341886 29615 net.cpp:372] inception_4a/pool_proj <- inception_4a/pool
I0510 00:47:24.341894 29615 net.cpp:334] inception_4a/pool_proj -> inception_4a/pool_proj
I0510 00:47:24.341903 29615 net.cpp:105] Setting up inception_4a/pool_proj
I0510 00:47:24.342170 29615 net.cpp:112] Top shape: 32 64 14 14 (401408)
I0510 00:47:24.342182 29615 layer_factory.hpp:74] Creating layer inception_4a/relu_pool_proj
I0510 00:47:24.342192 29615 net.cpp:76] Creating Layer inception_4a/relu_pool_proj
I0510 00:47:24.342200 29615 net.cpp:372] inception_4a/relu_pool_proj <- inception_4a/pool_proj
I0510 00:47:24.342206 29615 net.cpp:323] inception_4a/relu_pool_proj -> inception_4a/pool_proj (in-place)
I0510 00:47:24.342214 29615 net.cpp:105] Setting up inception_4a/relu_pool_proj
I0510 00:47:24.342221 29615 net.cpp:112] Top shape: 32 64 14 14 (401408)
I0510 00:47:24.342226 29615 layer_factory.hpp:74] Creating layer inception_4a/output
I0510 00:47:24.342233 29615 net.cpp:76] Creating Layer inception_4a/output
I0510 00:47:24.342238 29615 net.cpp:372] inception_4a/output <- inception_4a/1x1
I0510 00:47:24.342245 29615 net.cpp:372] inception_4a/output <- inception_4a/3x3
I0510 00:47:24.342252 29615 net.cpp:372] inception_4a/output <- inception_4a/5x5
I0510 00:47:24.342298 29615 net.cpp:372] inception_4a/output <- inception_4a/pool_proj
I0510 00:47:24.342313 29615 net.cpp:334] inception_4a/output -> inception_4a/output
I0510 00:47:24.342330 29615 net.cpp:105] Setting up inception_4a/output
I0510 00:47:24.342342 29615 net.cpp:112] Top shape: 32 512 14 14 (3211264)
I0510 00:47:24.342352 29615 layer_factory.hpp:74] Creating layer inception_4a/output_inception_4a/output_0_split
I0510 00:47:24.342375 29615 net.cpp:76] Creating Layer inception_4a/output_inception_4a/output_0_split
I0510 00:47:24.342414 29615 net.cpp:372] inception_4a/output_inception_4a/output_0_split <- inception_4a/output
I0510 00:47:24.342432 29615 net.cpp:334] inception_4a/output_inception_4a/output_0_split -> inception_4a/output_inception_4a/output_0_split_0
I0510 00:47:24.342452 29615 net.cpp:334] inception_4a/output_inception_4a/output_0_split -> inception_4a/output_inception_4a/output_0_split_1
I0510 00:47:24.342469 29615 net.cpp:334] inception_4a/output_inception_4a/output_0_split -> inception_4a/output_inception_4a/output_0_split_2
I0510 00:47:24.342494 29615 net.cpp:334] inception_4a/output_inception_4a/output_0_split -> inception_4a/output_inception_4a/output_0_split_3
I0510 00:47:24.342510 29615 net.cpp:334] inception_4a/output_inception_4a/output_0_split -> inception_4a/output_inception_4a/output_0_split_4
I0510 00:47:24.342527 29615 net.cpp:105] Setting up inception_4a/output_inception_4a/output_0_split
I0510 00:47:24.342540 29615 net.cpp:112] Top shape: 32 512 14 14 (3211264)
I0510 00:47:24.342550 29615 net.cpp:112] Top shape: 32 512 14 14 (3211264)
I0510 00:47:24.342558 29615 net.cpp:112] Top shape: 32 512 14 14 (3211264)
I0510 00:47:24.342566 29615 net.cpp:112] Top shape: 32 512 14 14 (3211264)
I0510 00:47:24.342576 29615 net.cpp:112] Top shape: 32 512 14 14 (3211264)
I0510 00:47:24.342586 29615 layer_factory.hpp:74] Creating layer loss1/ave_pool
I0510 00:47:24.342609 29615 net.cpp:76] Creating Layer loss1/ave_pool
I0510 00:47:24.342623 29615 net.cpp:372] loss1/ave_pool <- inception_4a/output_inception_4a/output_0_split_0
I0510 00:47:24.342644 29615 net.cpp:334] loss1/ave_pool -> loss1/ave_pool
I0510 00:47:24.342661 29615 net.cpp:105] Setting up loss1/ave_pool
I0510 00:47:24.342674 29615 net.cpp:112] Top shape: 32 512 4 4 (262144)
I0510 00:47:24.342684 29615 layer_factory.hpp:74] Creating layer loss1/conv
I0510 00:47:24.342700 29615 net.cpp:76] Creating Layer loss1/conv
I0510 00:47:24.342711 29615 net.cpp:372] loss1/conv <- loss1/ave_pool
I0510 00:47:24.342730 29615 net.cpp:334] loss1/conv -> loss1/conv
I0510 00:47:24.342746 29615 net.cpp:105] Setting up loss1/conv
I0510 00:47:24.343549 29615 net.cpp:112] Top shape: 32 128 4 4 (65536)
I0510 00:47:24.343572 29615 layer_factory.hpp:74] Creating layer loss1/relu_conv
I0510 00:47:24.343591 29615 net.cpp:76] Creating Layer loss1/relu_conv
I0510 00:47:24.343605 29615 net.cpp:372] loss1/relu_conv <- loss1/conv
I0510 00:47:24.343618 29615 net.cpp:323] loss1/relu_conv -> loss1/conv (in-place)
I0510 00:47:24.343632 29615 net.cpp:105] Setting up loss1/relu_conv
I0510 00:47:24.343642 29615 net.cpp:112] Top shape: 32 128 4 4 (65536)
I0510 00:47:24.343653 29615 layer_factory.hpp:74] Creating layer loss1/fc
I0510 00:47:24.343675 29615 net.cpp:76] Creating Layer loss1/fc
I0510 00:47:24.343688 29615 net.cpp:372] loss1/fc <- loss1/conv
I0510 00:47:24.343704 29615 net.cpp:334] loss1/fc -> loss1/fc
I0510 00:47:24.343727 29615 net.cpp:105] Setting up loss1/fc
I0510 00:47:24.361548 29615 net.cpp:112] Top shape: 32 1024 1 1 (32768)
I0510 00:47:24.361590 29615 layer_factory.hpp:74] Creating layer loss1/relu_fc
I0510 00:47:24.361603 29615 net.cpp:76] Creating Layer loss1/relu_fc
I0510 00:47:24.361613 29615 net.cpp:372] loss1/relu_fc <- loss1/fc
I0510 00:47:24.361625 29615 net.cpp:323] loss1/relu_fc -> loss1/fc (in-place)
I0510 00:47:24.361636 29615 net.cpp:105] Setting up loss1/relu_fc
I0510 00:47:24.361642 29615 net.cpp:112] Top shape: 32 1024 1 1 (32768)
I0510 00:47:24.361649 29615 layer_factory.hpp:74] Creating layer loss1/drop_fc
I0510 00:47:24.361711 29615 net.cpp:76] Creating Layer loss1/drop_fc
I0510 00:47:24.361717 29615 net.cpp:372] loss1/drop_fc <- loss1/fc
I0510 00:47:24.361726 29615 net.cpp:323] loss1/drop_fc -> loss1/fc (in-place)
I0510 00:47:24.361737 29615 net.cpp:105] Setting up loss1/drop_fc
I0510 00:47:24.361747 29615 net.cpp:112] Top shape: 32 1024 1 1 (32768)
I0510 00:47:24.361753 29615 layer_factory.hpp:74] Creating layer loss1/classifier
I0510 00:47:24.361764 29615 net.cpp:76] Creating Layer loss1/classifier
I0510 00:47:24.361770 29615 net.cpp:372] loss1/classifier <- loss1/fc
I0510 00:47:24.361781 29615 net.cpp:334] loss1/classifier -> loss1/classifier
I0510 00:47:24.361793 29615 net.cpp:105] Setting up loss1/classifier
I0510 00:47:24.361830 29615 net.cpp:112] Top shape: 32 2 1 1 (64)
I0510 00:47:24.361843 29615 layer_factory.hpp:74] Creating layer loss1/classifier_loss1/classifier_0_split
I0510 00:47:24.361851 29615 net.cpp:76] Creating Layer loss1/classifier_loss1/classifier_0_split
I0510 00:47:24.361857 29615 net.cpp:372] loss1/classifier_loss1/classifier_0_split <- loss1/classifier
I0510 00:47:24.361865 29615 net.cpp:334] loss1/classifier_loss1/classifier_0_split -> loss1/classifier_loss1/classifier_0_split_0
I0510 00:47:24.361874 29615 net.cpp:334] loss1/classifier_loss1/classifier_0_split -> loss1/classifier_loss1/classifier_0_split_1
I0510 00:47:24.361883 29615 net.cpp:105] Setting up loss1/classifier_loss1/classifier_0_split
I0510 00:47:24.361889 29615 net.cpp:112] Top shape: 32 2 1 1 (64)
I0510 00:47:24.361896 29615 net.cpp:112] Top shape: 32 2 1 1 (64)
I0510 00:47:24.361901 29615 layer_factory.hpp:74] Creating layer loss1/loss
I0510 00:47:24.361914 29615 net.cpp:76] Creating Layer loss1/loss
I0510 00:47:24.361922 29615 net.cpp:372] loss1/loss <- loss1/classifier_loss1/classifier_0_split_0
I0510 00:47:24.361929 29615 net.cpp:372] loss1/loss <- label_data_1_split_0
I0510 00:47:24.361937 29615 net.cpp:334] loss1/loss -> loss1/loss1
I0510 00:47:24.361948 29615 net.cpp:105] Setting up loss1/loss
I0510 00:47:24.361959 29615 layer_factory.hpp:74] Creating layer loss1/loss
I0510 00:47:24.361978 29615 net.cpp:112] Top shape: 1 1 1 1 (1)
I0510 00:47:24.361984 29615 net.cpp:118]     with loss weight 0.3
I0510 00:47:24.362018 29615 layer_factory.hpp:74] Creating layer loss1/top-1
I0510 00:47:24.362033 29615 net.cpp:76] Creating Layer loss1/top-1
I0510 00:47:24.362040 29615 net.cpp:372] loss1/top-1 <- loss1/classifier_loss1/classifier_0_split_1
I0510 00:47:24.362047 29615 net.cpp:372] loss1/top-1 <- label_data_1_split_1
I0510 00:47:24.362076 29615 net.cpp:334] loss1/top-1 -> loss1/top-1
I0510 00:47:24.362097 29615 net.cpp:105] Setting up loss1/top-1
I0510 00:47:24.362105 29615 net.cpp:112] Top shape: 1 1 1 1 (1)
I0510 00:47:24.362112 29615 layer_factory.hpp:74] Creating layer inception_4b/1x1
I0510 00:47:24.362123 29615 net.cpp:76] Creating Layer inception_4b/1x1
I0510 00:47:24.362128 29615 net.cpp:372] inception_4b/1x1 <- inception_4a/output_inception_4a/output_0_split_1
I0510 00:47:24.362140 29615 net.cpp:334] inception_4b/1x1 -> inception_4b/1x1
I0510 00:47:24.362151 29615 net.cpp:105] Setting up inception_4b/1x1
I0510 00:47:24.362896 29615 net.cpp:112] Top shape: 32 160 14 14 (1003520)
I0510 00:47:24.362920 29615 layer_factory.hpp:74] Creating layer inception_4b/relu_1x1
I0510 00:47:24.362931 29615 net.cpp:76] Creating Layer inception_4b/relu_1x1
I0510 00:47:24.362937 29615 net.cpp:372] inception_4b/relu_1x1 <- inception_4b/1x1
I0510 00:47:24.362946 29615 net.cpp:323] inception_4b/relu_1x1 -> inception_4b/1x1 (in-place)
I0510 00:47:24.362954 29615 net.cpp:105] Setting up inception_4b/relu_1x1
I0510 00:47:24.362961 29615 net.cpp:112] Top shape: 32 160 14 14 (1003520)
I0510 00:47:24.362967 29615 layer_factory.hpp:74] Creating layer inception_4b/3x3_reduce
I0510 00:47:24.362978 29615 net.cpp:76] Creating Layer inception_4b/3x3_reduce
I0510 00:47:24.362987 29615 net.cpp:372] inception_4b/3x3_reduce <- inception_4a/output_inception_4a/output_0_split_2
I0510 00:47:24.362995 29615 net.cpp:334] inception_4b/3x3_reduce -> inception_4b/3x3_reduce
I0510 00:47:24.363023 29615 net.cpp:105] Setting up inception_4b/3x3_reduce
I0510 00:47:24.363523 29615 net.cpp:112] Top shape: 32 112 14 14 (702464)
I0510 00:47:24.363541 29615 layer_factory.hpp:74] Creating layer inception_4b/relu_3x3_reduce
I0510 00:47:24.363549 29615 net.cpp:76] Creating Layer inception_4b/relu_3x3_reduce
I0510 00:47:24.363556 29615 net.cpp:372] inception_4b/relu_3x3_reduce <- inception_4b/3x3_reduce
I0510 00:47:24.363566 29615 net.cpp:323] inception_4b/relu_3x3_reduce -> inception_4b/3x3_reduce (in-place)
I0510 00:47:24.363574 29615 net.cpp:105] Setting up inception_4b/relu_3x3_reduce
I0510 00:47:24.363580 29615 net.cpp:112] Top shape: 32 112 14 14 (702464)
I0510 00:47:24.363586 29615 layer_factory.hpp:74] Creating layer inception_4b/3x3
I0510 00:47:24.363595 29615 net.cpp:76] Creating Layer inception_4b/3x3
I0510 00:47:24.363600 29615 net.cpp:372] inception_4b/3x3 <- inception_4b/3x3_reduce
I0510 00:47:24.363610 29615 net.cpp:334] inception_4b/3x3 -> inception_4b/3x3
I0510 00:47:24.363620 29615 net.cpp:105] Setting up inception_4b/3x3
I0510 00:47:24.365557 29615 net.cpp:112] Top shape: 32 224 14 14 (1404928)
I0510 00:47:24.365574 29615 layer_factory.hpp:74] Creating layer inception_4b/relu_3x3
I0510 00:47:24.365583 29615 net.cpp:76] Creating Layer inception_4b/relu_3x3
I0510 00:47:24.365591 29615 net.cpp:372] inception_4b/relu_3x3 <- inception_4b/3x3
I0510 00:47:24.365599 29615 net.cpp:323] inception_4b/relu_3x3 -> inception_4b/3x3 (in-place)
I0510 00:47:24.365608 29615 net.cpp:105] Setting up inception_4b/relu_3x3
I0510 00:47:24.365614 29615 net.cpp:112] Top shape: 32 224 14 14 (1404928)
I0510 00:47:24.365620 29615 layer_factory.hpp:74] Creating layer inception_4b/5x5_reduce
I0510 00:47:24.365629 29615 net.cpp:76] Creating Layer inception_4b/5x5_reduce
I0510 00:47:24.365638 29615 net.cpp:372] inception_4b/5x5_reduce <- inception_4a/output_inception_4a/output_0_split_3
I0510 00:47:24.365650 29615 net.cpp:334] inception_4b/5x5_reduce -> inception_4b/5x5_reduce
I0510 00:47:24.365660 29615 net.cpp:105] Setting up inception_4b/5x5_reduce
I0510 00:47:24.365772 29615 net.cpp:112] Top shape: 32 24 14 14 (150528)
I0510 00:47:24.365783 29615 layer_factory.hpp:74] Creating layer inception_4b/relu_5x5_reduce
I0510 00:47:24.365793 29615 net.cpp:76] Creating Layer inception_4b/relu_5x5_reduce
I0510 00:47:24.365799 29615 net.cpp:372] inception_4b/relu_5x5_reduce <- inception_4b/5x5_reduce
I0510 00:47:24.365806 29615 net.cpp:323] inception_4b/relu_5x5_reduce -> inception_4b/5x5_reduce (in-place)
I0510 00:47:24.365814 29615 net.cpp:105] Setting up inception_4b/relu_5x5_reduce
I0510 00:47:24.365819 29615 net.cpp:112] Top shape: 32 24 14 14 (150528)
I0510 00:47:24.365825 29615 layer_factory.hpp:74] Creating layer inception_4b/5x5
I0510 00:47:24.365835 29615 net.cpp:76] Creating Layer inception_4b/5x5
I0510 00:47:24.365841 29615 net.cpp:372] inception_4b/5x5 <- inception_4b/5x5_reduce
I0510 00:47:24.365849 29615 net.cpp:334] inception_4b/5x5 -> inception_4b/5x5
I0510 00:47:24.365859 29615 net.cpp:105] Setting up inception_4b/5x5
I0510 00:47:24.366192 29615 net.cpp:112] Top shape: 32 64 14 14 (401408)
I0510 00:47:24.366209 29615 layer_factory.hpp:74] Creating layer inception_4b/relu_5x5
I0510 00:47:24.366216 29615 net.cpp:76] Creating Layer inception_4b/relu_5x5
I0510 00:47:24.366222 29615 net.cpp:372] inception_4b/relu_5x5 <- inception_4b/5x5
I0510 00:47:24.366235 29615 net.cpp:323] inception_4b/relu_5x5 -> inception_4b/5x5 (in-place)
I0510 00:47:24.366243 29615 net.cpp:105] Setting up inception_4b/relu_5x5
I0510 00:47:24.366250 29615 net.cpp:112] Top shape: 32 64 14 14 (401408)
I0510 00:47:24.366255 29615 layer_factory.hpp:74] Creating layer inception_4b/pool
I0510 00:47:24.366263 29615 net.cpp:76] Creating Layer inception_4b/pool
I0510 00:47:24.366283 29615 net.cpp:372] inception_4b/pool <- inception_4a/output_inception_4a/output_0_split_4
I0510 00:47:24.366294 29615 net.cpp:334] inception_4b/pool -> inception_4b/pool
I0510 00:47:24.366304 29615 net.cpp:105] Setting up inception_4b/pool
I0510 00:47:24.366328 29615 net.cpp:112] Top shape: 32 512 14 14 (3211264)
I0510 00:47:24.366334 29615 layer_factory.hpp:74] Creating layer inception_4b/pool_proj
I0510 00:47:24.366346 29615 net.cpp:76] Creating Layer inception_4b/pool_proj
I0510 00:47:24.366353 29615 net.cpp:372] inception_4b/pool_proj <- inception_4b/pool
I0510 00:47:24.366361 29615 net.cpp:334] inception_4b/pool_proj -> inception_4b/pool_proj
I0510 00:47:24.366371 29615 net.cpp:105] Setting up inception_4b/pool_proj
I0510 00:47:24.366652 29615 net.cpp:112] Top shape: 32 64 14 14 (401408)
I0510 00:47:24.366664 29615 layer_factory.hpp:74] Creating layer inception_4b/relu_pool_proj
I0510 00:47:24.366674 29615 net.cpp:76] Creating Layer inception_4b/relu_pool_proj
I0510 00:47:24.366682 29615 net.cpp:372] inception_4b/relu_pool_proj <- inception_4b/pool_proj
I0510 00:47:24.366693 29615 net.cpp:323] inception_4b/relu_pool_proj -> inception_4b/pool_proj (in-place)
I0510 00:47:24.366700 29615 net.cpp:105] Setting up inception_4b/relu_pool_proj
I0510 00:47:24.366706 29615 net.cpp:112] Top shape: 32 64 14 14 (401408)
I0510 00:47:24.366713 29615 layer_factory.hpp:74] Creating layer inception_4b/output
I0510 00:47:24.366720 29615 net.cpp:76] Creating Layer inception_4b/output
I0510 00:47:24.366725 29615 net.cpp:372] inception_4b/output <- inception_4b/1x1
I0510 00:47:24.366732 29615 net.cpp:372] inception_4b/output <- inception_4b/3x3
I0510 00:47:24.366739 29615 net.cpp:372] inception_4b/output <- inception_4b/5x5
I0510 00:47:24.366745 29615 net.cpp:372] inception_4b/output <- inception_4b/pool_proj
I0510 00:47:24.366753 29615 net.cpp:334] inception_4b/output -> inception_4b/output
I0510 00:47:24.366761 29615 net.cpp:105] Setting up inception_4b/output
I0510 00:47:24.366768 29615 net.cpp:112] Top shape: 32 512 14 14 (3211264)
I0510 00:47:24.366773 29615 layer_factory.hpp:74] Creating layer inception_4b/output_inception_4b/output_0_split
I0510 00:47:24.366806 29615 net.cpp:76] Creating Layer inception_4b/output_inception_4b/output_0_split
I0510 00:47:24.366813 29615 net.cpp:372] inception_4b/output_inception_4b/output_0_split <- inception_4b/output
I0510 00:47:24.366822 29615 net.cpp:334] inception_4b/output_inception_4b/output_0_split -> inception_4b/output_inception_4b/output_0_split_0
I0510 00:47:24.366832 29615 net.cpp:334] inception_4b/output_inception_4b/output_0_split -> inception_4b/output_inception_4b/output_0_split_1
I0510 00:47:24.366840 29615 net.cpp:334] inception_4b/output_inception_4b/output_0_split -> inception_4b/output_inception_4b/output_0_split_2
I0510 00:47:24.366852 29615 net.cpp:334] inception_4b/output_inception_4b/output_0_split -> inception_4b/output_inception_4b/output_0_split_3
I0510 00:47:24.366859 29615 net.cpp:105] Setting up inception_4b/output_inception_4b/output_0_split
I0510 00:47:24.366868 29615 net.cpp:112] Top shape: 32 512 14 14 (3211264)
I0510 00:47:24.366873 29615 net.cpp:112] Top shape: 32 512 14 14 (3211264)
I0510 00:47:24.366878 29615 net.cpp:112] Top shape: 32 512 14 14 (3211264)
I0510 00:47:24.366883 29615 net.cpp:112] Top shape: 32 512 14 14 (3211264)
I0510 00:47:24.366888 29615 layer_factory.hpp:74] Creating layer inception_4c/1x1
I0510 00:47:24.366896 29615 net.cpp:76] Creating Layer inception_4c/1x1
I0510 00:47:24.366901 29615 net.cpp:372] inception_4c/1x1 <- inception_4b/output_inception_4b/output_0_split_0
I0510 00:47:24.366912 29615 net.cpp:334] inception_4c/1x1 -> inception_4c/1x1
I0510 00:47:24.366921 29615 net.cpp:105] Setting up inception_4c/1x1
I0510 00:47:24.367491 29615 net.cpp:112] Top shape: 32 128 14 14 (802816)
I0510 00:47:24.367506 29615 layer_factory.hpp:74] Creating layer inception_4c/relu_1x1
I0510 00:47:24.367513 29615 net.cpp:76] Creating Layer inception_4c/relu_1x1
I0510 00:47:24.367519 29615 net.cpp:372] inception_4c/relu_1x1 <- inception_4c/1x1
I0510 00:47:24.367527 29615 net.cpp:323] inception_4c/relu_1x1 -> inception_4c/1x1 (in-place)
I0510 00:47:24.367535 29615 net.cpp:105] Setting up inception_4c/relu_1x1
I0510 00:47:24.367540 29615 net.cpp:112] Top shape: 32 128 14 14 (802816)
I0510 00:47:24.367558 29615 layer_factory.hpp:74] Creating layer inception_4c/3x3_reduce
I0510 00:47:24.367571 29615 net.cpp:76] Creating Layer inception_4c/3x3_reduce
I0510 00:47:24.367578 29615 net.cpp:372] inception_4c/3x3_reduce <- inception_4b/output_inception_4b/output_0_split_1
I0510 00:47:24.367588 29615 net.cpp:334] inception_4c/3x3_reduce -> inception_4c/3x3_reduce
I0510 00:47:24.367597 29615 net.cpp:105] Setting up inception_4c/3x3_reduce
I0510 00:47:24.368146 29615 net.cpp:112] Top shape: 32 128 14 14 (802816)
I0510 00:47:24.368160 29615 layer_factory.hpp:74] Creating layer inception_4c/relu_3x3_reduce
I0510 00:47:24.368170 29615 net.cpp:76] Creating Layer inception_4c/relu_3x3_reduce
I0510 00:47:24.368177 29615 net.cpp:372] inception_4c/relu_3x3_reduce <- inception_4c/3x3_reduce
I0510 00:47:24.368185 29615 net.cpp:323] inception_4c/relu_3x3_reduce -> inception_4c/3x3_reduce (in-place)
I0510 00:47:24.368192 29615 net.cpp:105] Setting up inception_4c/relu_3x3_reduce
I0510 00:47:24.368198 29615 net.cpp:112] Top shape: 32 128 14 14 (802816)
I0510 00:47:24.368203 29615 layer_factory.hpp:74] Creating layer inception_4c/3x3
I0510 00:47:24.368214 29615 net.cpp:76] Creating Layer inception_4c/3x3
I0510 00:47:24.368219 29615 net.cpp:372] inception_4c/3x3 <- inception_4c/3x3_reduce
I0510 00:47:24.368228 29615 net.cpp:334] inception_4c/3x3 -> inception_4c/3x3
I0510 00:47:24.368239 29615 net.cpp:105] Setting up inception_4c/3x3
I0510 00:47:24.370729 29615 net.cpp:112] Top shape: 32 256 14 14 (1605632)
I0510 00:47:24.370767 29615 layer_factory.hpp:74] Creating layer inception_4c/relu_3x3
I0510 00:47:24.370777 29615 net.cpp:76] Creating Layer inception_4c/relu_3x3
I0510 00:47:24.370977 29615 net.cpp:372] inception_4c/relu_3x3 <- inception_4c/3x3
I0510 00:47:24.370995 29615 net.cpp:323] inception_4c/relu_3x3 -> inception_4c/3x3 (in-place)
I0510 00:47:24.371011 29615 net.cpp:105] Setting up inception_4c/relu_3x3
I0510 00:47:24.371019 29615 net.cpp:112] Top shape: 32 256 14 14 (1605632)
I0510 00:47:24.371029 29615 layer_factory.hpp:74] Creating layer inception_4c/5x5_reduce
I0510 00:47:24.371048 29615 net.cpp:76] Creating Layer inception_4c/5x5_reduce
I0510 00:47:24.371058 29615 net.cpp:372] inception_4c/5x5_reduce <- inception_4b/output_inception_4b/output_0_split_2
I0510 00:47:24.371073 29615 net.cpp:334] inception_4c/5x5_reduce -> inception_4c/5x5_reduce
I0510 00:47:24.371089 29615 net.cpp:105] Setting up inception_4c/5x5_reduce
I0510 00:47:24.371263 29615 net.cpp:112] Top shape: 32 24 14 14 (150528)
I0510 00:47:24.371311 29615 layer_factory.hpp:74] Creating layer inception_4c/relu_5x5_reduce
I0510 00:47:24.371325 29615 net.cpp:76] Creating Layer inception_4c/relu_5x5_reduce
I0510 00:47:24.371335 29615 net.cpp:372] inception_4c/relu_5x5_reduce <- inception_4c/5x5_reduce
I0510 00:47:24.371348 29615 net.cpp:323] inception_4c/relu_5x5_reduce -> inception_4c/5x5_reduce (in-place)
I0510 00:47:24.371366 29615 net.cpp:105] Setting up inception_4c/relu_5x5_reduce
I0510 00:47:24.371374 29615 net.cpp:112] Top shape: 32 24 14 14 (150528)
I0510 00:47:24.371387 29615 layer_factory.hpp:74] Creating layer inception_4c/5x5
I0510 00:47:24.371402 29615 net.cpp:76] Creating Layer inception_4c/5x5
I0510 00:47:24.371412 29615 net.cpp:372] inception_4c/5x5 <- inception_4c/5x5_reduce
I0510 00:47:24.371424 29615 net.cpp:334] inception_4c/5x5 -> inception_4c/5x5
I0510 00:47:24.371439 29615 net.cpp:105] Setting up inception_4c/5x5
I0510 00:47:24.371932 29615 net.cpp:112] Top shape: 32 64 14 14 (401408)
I0510 00:47:24.371953 29615 layer_factory.hpp:74] Creating layer inception_4c/relu_5x5
I0510 00:47:24.371965 29615 net.cpp:76] Creating Layer inception_4c/relu_5x5
I0510 00:47:24.371975 29615 net.cpp:372] inception_4c/relu_5x5 <- inception_4c/5x5
I0510 00:47:24.371990 29615 net.cpp:323] inception_4c/relu_5x5 -> inception_4c/5x5 (in-place)
I0510 00:47:24.372004 29615 net.cpp:105] Setting up inception_4c/relu_5x5
I0510 00:47:24.372017 29615 net.cpp:112] Top shape: 32 64 14 14 (401408)
I0510 00:47:24.372027 29615 layer_factory.hpp:74] Creating layer inception_4c/pool
I0510 00:47:24.372067 29615 net.cpp:76] Creating Layer inception_4c/pool
I0510 00:47:24.372081 29615 net.cpp:372] inception_4c/pool <- inception_4b/output_inception_4b/output_0_split_3
I0510 00:47:24.372098 29615 net.cpp:334] inception_4c/pool -> inception_4c/pool
I0510 00:47:24.372109 29615 net.cpp:105] Setting up inception_4c/pool
I0510 00:47:24.372117 29615 net.cpp:112] Top shape: 32 512 14 14 (3211264)
I0510 00:47:24.372123 29615 layer_factory.hpp:74] Creating layer inception_4c/pool_proj
I0510 00:47:24.372133 29615 net.cpp:76] Creating Layer inception_4c/pool_proj
I0510 00:47:24.372138 29615 net.cpp:372] inception_4c/pool_proj <- inception_4c/pool
I0510 00:47:24.372148 29615 net.cpp:334] inception_4c/pool_proj -> inception_4c/pool_proj
I0510 00:47:24.372159 29615 net.cpp:105] Setting up inception_4c/pool_proj
I0510 00:47:24.372468 29615 net.cpp:112] Top shape: 32 64 14 14 (401408)
I0510 00:47:24.372483 29615 layer_factory.hpp:74] Creating layer inception_4c/relu_pool_proj
I0510 00:47:24.372493 29615 net.cpp:76] Creating Layer inception_4c/relu_pool_proj
I0510 00:47:24.372498 29615 net.cpp:372] inception_4c/relu_pool_proj <- inception_4c/pool_proj
I0510 00:47:24.372505 29615 net.cpp:323] inception_4c/relu_pool_proj -> inception_4c/pool_proj (in-place)
I0510 00:47:24.372514 29615 net.cpp:105] Setting up inception_4c/relu_pool_proj
I0510 00:47:24.372519 29615 net.cpp:112] Top shape: 32 64 14 14 (401408)
I0510 00:47:24.372525 29615 layer_factory.hpp:74] Creating layer inception_4c/output
I0510 00:47:24.372532 29615 net.cpp:76] Creating Layer inception_4c/output
I0510 00:47:24.372537 29615 net.cpp:372] inception_4c/output <- inception_4c/1x1
I0510 00:47:24.372545 29615 net.cpp:372] inception_4c/output <- inception_4c/3x3
I0510 00:47:24.372550 29615 net.cpp:372] inception_4c/output <- inception_4c/5x5
I0510 00:47:24.372557 29615 net.cpp:372] inception_4c/output <- inception_4c/pool_proj
I0510 00:47:24.372567 29615 net.cpp:334] inception_4c/output -> inception_4c/output
I0510 00:47:24.372575 29615 net.cpp:105] Setting up inception_4c/output
I0510 00:47:24.372582 29615 net.cpp:112] Top shape: 32 512 14 14 (3211264)
I0510 00:47:24.372588 29615 layer_factory.hpp:74] Creating layer inception_4c/output_inception_4c/output_0_split
I0510 00:47:24.372596 29615 net.cpp:76] Creating Layer inception_4c/output_inception_4c/output_0_split
I0510 00:47:24.372602 29615 net.cpp:372] inception_4c/output_inception_4c/output_0_split <- inception_4c/output
I0510 00:47:24.372609 29615 net.cpp:334] inception_4c/output_inception_4c/output_0_split -> inception_4c/output_inception_4c/output_0_split_0
I0510 00:47:24.372622 29615 net.cpp:334] inception_4c/output_inception_4c/output_0_split -> inception_4c/output_inception_4c/output_0_split_1
I0510 00:47:24.372630 29615 net.cpp:334] inception_4c/output_inception_4c/output_0_split -> inception_4c/output_inception_4c/output_0_split_2
I0510 00:47:24.372639 29615 net.cpp:334] inception_4c/output_inception_4c/output_0_split -> inception_4c/output_inception_4c/output_0_split_3
I0510 00:47:24.372648 29615 net.cpp:105] Setting up inception_4c/output_inception_4c/output_0_split
I0510 00:47:24.372654 29615 net.cpp:112] Top shape: 32 512 14 14 (3211264)
I0510 00:47:24.372659 29615 net.cpp:112] Top shape: 32 512 14 14 (3211264)
I0510 00:47:24.372664 29615 net.cpp:112] Top shape: 32 512 14 14 (3211264)
I0510 00:47:24.372670 29615 net.cpp:112] Top shape: 32 512 14 14 (3211264)
I0510 00:47:24.372675 29615 layer_factory.hpp:74] Creating layer inception_4d/1x1
I0510 00:47:24.372684 29615 net.cpp:76] Creating Layer inception_4d/1x1
I0510 00:47:24.372689 29615 net.cpp:372] inception_4d/1x1 <- inception_4c/output_inception_4c/output_0_split_0
I0510 00:47:24.372700 29615 net.cpp:334] inception_4d/1x1 -> inception_4d/1x1
I0510 00:47:24.372709 29615 net.cpp:105] Setting up inception_4d/1x1
I0510 00:47:24.373198 29615 net.cpp:112] Top shape: 32 112 14 14 (702464)
I0510 00:47:24.373210 29615 layer_factory.hpp:74] Creating layer inception_4d/relu_1x1
I0510 00:47:24.373219 29615 net.cpp:76] Creating Layer inception_4d/relu_1x1
I0510 00:47:24.373239 29615 net.cpp:372] inception_4d/relu_1x1 <- inception_4d/1x1
I0510 00:47:24.373250 29615 net.cpp:323] inception_4d/relu_1x1 -> inception_4d/1x1 (in-place)
I0510 00:47:24.373257 29615 net.cpp:105] Setting up inception_4d/relu_1x1
I0510 00:47:24.373263 29615 net.cpp:112] Top shape: 32 112 14 14 (702464)
I0510 00:47:24.373268 29615 layer_factory.hpp:74] Creating layer inception_4d/3x3_reduce
I0510 00:47:24.373291 29615 net.cpp:76] Creating Layer inception_4d/3x3_reduce
I0510 00:47:24.373297 29615 net.cpp:372] inception_4d/3x3_reduce <- inception_4c/output_inception_4c/output_0_split_1
I0510 00:47:24.373308 29615 net.cpp:334] inception_4d/3x3_reduce -> inception_4d/3x3_reduce
I0510 00:47:24.373318 29615 net.cpp:105] Setting up inception_4d/3x3_reduce
I0510 00:47:24.373940 29615 net.cpp:112] Top shape: 32 144 14 14 (903168)
I0510 00:47:24.373955 29615 layer_factory.hpp:74] Creating layer inception_4d/relu_3x3_reduce
I0510 00:47:24.373962 29615 net.cpp:76] Creating Layer inception_4d/relu_3x3_reduce
I0510 00:47:24.373968 29615 net.cpp:372] inception_4d/relu_3x3_reduce <- inception_4d/3x3_reduce
I0510 00:47:24.373975 29615 net.cpp:323] inception_4d/relu_3x3_reduce -> inception_4d/3x3_reduce (in-place)
I0510 00:47:24.373983 29615 net.cpp:105] Setting up inception_4d/relu_3x3_reduce
I0510 00:47:24.373989 29615 net.cpp:112] Top shape: 32 144 14 14 (903168)
I0510 00:47:24.373996 29615 layer_factory.hpp:74] Creating layer inception_4d/3x3
I0510 00:47:24.374006 29615 net.cpp:76] Creating Layer inception_4d/3x3
I0510 00:47:24.374805 29615 net.cpp:372] inception_4d/3x3 <- inception_4d/3x3_reduce
I0510 00:47:24.374819 29615 net.cpp:334] inception_4d/3x3 -> inception_4d/3x3
I0510 00:47:24.374829 29615 net.cpp:105] Setting up inception_4d/3x3
I0510 00:47:24.377920 29615 net.cpp:112] Top shape: 32 288 14 14 (1806336)
I0510 00:47:24.377939 29615 layer_factory.hpp:74] Creating layer inception_4d/relu_3x3
I0510 00:47:24.377954 29615 net.cpp:76] Creating Layer inception_4d/relu_3x3
I0510 00:47:24.377960 29615 net.cpp:372] inception_4d/relu_3x3 <- inception_4d/3x3
I0510 00:47:24.377967 29615 net.cpp:323] inception_4d/relu_3x3 -> inception_4d/3x3 (in-place)
I0510 00:47:24.377975 29615 net.cpp:105] Setting up inception_4d/relu_3x3
I0510 00:47:24.377981 29615 net.cpp:112] Top shape: 32 288 14 14 (1806336)
I0510 00:47:24.377987 29615 layer_factory.hpp:74] Creating layer inception_4d/5x5_reduce
I0510 00:47:24.377997 29615 net.cpp:76] Creating Layer inception_4d/5x5_reduce
I0510 00:47:24.378003 29615 net.cpp:372] inception_4d/5x5_reduce <- inception_4c/output_inception_4c/output_0_split_2
I0510 00:47:24.378012 29615 net.cpp:334] inception_4d/5x5_reduce -> inception_4d/5x5_reduce
I0510 00:47:24.378021 29615 net.cpp:105] Setting up inception_4d/5x5_reduce
I0510 00:47:24.378165 29615 net.cpp:112] Top shape: 32 32 14 14 (200704)
I0510 00:47:24.378176 29615 layer_factory.hpp:74] Creating layer inception_4d/relu_5x5_reduce
I0510 00:47:24.378185 29615 net.cpp:76] Creating Layer inception_4d/relu_5x5_reduce
I0510 00:47:24.378190 29615 net.cpp:372] inception_4d/relu_5x5_reduce <- inception_4d/5x5_reduce
I0510 00:47:24.378200 29615 net.cpp:323] inception_4d/relu_5x5_reduce -> inception_4d/5x5_reduce (in-place)
I0510 00:47:24.378207 29615 net.cpp:105] Setting up inception_4d/relu_5x5_reduce
I0510 00:47:24.378213 29615 net.cpp:112] Top shape: 32 32 14 14 (200704)
I0510 00:47:24.378218 29615 layer_factory.hpp:74] Creating layer inception_4d/5x5
I0510 00:47:24.378227 29615 net.cpp:76] Creating Layer inception_4d/5x5
I0510 00:47:24.378232 29615 net.cpp:372] inception_4d/5x5 <- inception_4d/5x5_reduce
I0510 00:47:24.378242 29615 net.cpp:334] inception_4d/5x5 -> inception_4d/5x5
I0510 00:47:24.378252 29615 net.cpp:105] Setting up inception_4d/5x5
I0510 00:47:24.378710 29615 net.cpp:112] Top shape: 32 64 14 14 (401408)
I0510 00:47:24.378726 29615 layer_factory.hpp:74] Creating layer inception_4d/relu_5x5
I0510 00:47:24.378734 29615 net.cpp:76] Creating Layer inception_4d/relu_5x5
I0510 00:47:24.378743 29615 net.cpp:372] inception_4d/relu_5x5 <- inception_4d/5x5
I0510 00:47:24.378768 29615 net.cpp:323] inception_4d/relu_5x5 -> inception_4d/5x5 (in-place)
I0510 00:47:24.378777 29615 net.cpp:105] Setting up inception_4d/relu_5x5
I0510 00:47:24.378783 29615 net.cpp:112] Top shape: 32 64 14 14 (401408)
I0510 00:47:24.378788 29615 layer_factory.hpp:74] Creating layer inception_4d/pool
I0510 00:47:24.378797 29615 net.cpp:76] Creating Layer inception_4d/pool
I0510 00:47:24.378803 29615 net.cpp:372] inception_4d/pool <- inception_4c/output_inception_4c/output_0_split_3
I0510 00:47:24.378813 29615 net.cpp:334] inception_4d/pool -> inception_4d/pool
I0510 00:47:24.378823 29615 net.cpp:105] Setting up inception_4d/pool
I0510 00:47:24.378829 29615 net.cpp:112] Top shape: 32 512 14 14 (3211264)
I0510 00:47:24.378835 29615 layer_factory.hpp:74] Creating layer inception_4d/pool_proj
I0510 00:47:24.378844 29615 net.cpp:76] Creating Layer inception_4d/pool_proj
I0510 00:47:24.378850 29615 net.cpp:372] inception_4d/pool_proj <- inception_4d/pool
I0510 00:47:24.378860 29615 net.cpp:334] inception_4d/pool_proj -> inception_4d/pool_proj
I0510 00:47:24.378870 29615 net.cpp:105] Setting up inception_4d/pool_proj
I0510 00:47:24.379163 29615 net.cpp:112] Top shape: 32 64 14 14 (401408)
I0510 00:47:24.379176 29615 layer_factory.hpp:74] Creating layer inception_4d/relu_pool_proj
I0510 00:47:24.379184 29615 net.cpp:76] Creating Layer inception_4d/relu_pool_proj
I0510 00:47:24.379190 29615 net.cpp:372] inception_4d/relu_pool_proj <- inception_4d/pool_proj
I0510 00:47:24.379197 29615 net.cpp:323] inception_4d/relu_pool_proj -> inception_4d/pool_proj (in-place)
I0510 00:47:24.379207 29615 net.cpp:105] Setting up inception_4d/relu_pool_proj
I0510 00:47:24.379214 29615 net.cpp:112] Top shape: 32 64 14 14 (401408)
I0510 00:47:24.379220 29615 layer_factory.hpp:74] Creating layer inception_4d/output
I0510 00:47:24.379227 29615 net.cpp:76] Creating Layer inception_4d/output
I0510 00:47:24.379233 29615 net.cpp:372] inception_4d/output <- inception_4d/1x1
I0510 00:47:24.379240 29615 net.cpp:372] inception_4d/output <- inception_4d/3x3
I0510 00:47:24.379246 29615 net.cpp:372] inception_4d/output <- inception_4d/5x5
I0510 00:47:24.379252 29615 net.cpp:372] inception_4d/output <- inception_4d/pool_proj
I0510 00:47:24.379259 29615 net.cpp:334] inception_4d/output -> inception_4d/output
I0510 00:47:24.379267 29615 net.cpp:105] Setting up inception_4d/output
I0510 00:47:24.379287 29615 net.cpp:112] Top shape: 32 528 14 14 (3311616)
I0510 00:47:24.379293 29615 layer_factory.hpp:74] Creating layer inception_4d/output_inception_4d/output_0_split
I0510 00:47:24.379302 29615 net.cpp:76] Creating Layer inception_4d/output_inception_4d/output_0_split
I0510 00:47:24.379308 29615 net.cpp:372] inception_4d/output_inception_4d/output_0_split <- inception_4d/output
I0510 00:47:24.379322 29615 net.cpp:334] inception_4d/output_inception_4d/output_0_split -> inception_4d/output_inception_4d/output_0_split_0
I0510 00:47:24.379331 29615 net.cpp:334] inception_4d/output_inception_4d/output_0_split -> inception_4d/output_inception_4d/output_0_split_1
I0510 00:47:24.379341 29615 net.cpp:334] inception_4d/output_inception_4d/output_0_split -> inception_4d/output_inception_4d/output_0_split_2
I0510 00:47:24.379350 29615 net.cpp:334] inception_4d/output_inception_4d/output_0_split -> inception_4d/output_inception_4d/output_0_split_3
I0510 00:47:24.379359 29615 net.cpp:334] inception_4d/output_inception_4d/output_0_split -> inception_4d/output_inception_4d/output_0_split_4
I0510 00:47:24.379367 29615 net.cpp:105] Setting up inception_4d/output_inception_4d/output_0_split
I0510 00:47:24.379374 29615 net.cpp:112] Top shape: 32 528 14 14 (3311616)
I0510 00:47:24.379379 29615 net.cpp:112] Top shape: 32 528 14 14 (3311616)
I0510 00:47:24.379384 29615 net.cpp:112] Top shape: 32 528 14 14 (3311616)
I0510 00:47:24.379390 29615 net.cpp:112] Top shape: 32 528 14 14 (3311616)
I0510 00:47:24.379395 29615 net.cpp:112] Top shape: 32 528 14 14 (3311616)
I0510 00:47:24.379400 29615 layer_factory.hpp:74] Creating layer loss2/ave_pool
I0510 00:47:24.379421 29615 net.cpp:76] Creating Layer loss2/ave_pool
I0510 00:47:24.379428 29615 net.cpp:372] loss2/ave_pool <- inception_4d/output_inception_4d/output_0_split_0
I0510 00:47:24.379437 29615 net.cpp:334] loss2/ave_pool -> loss2/ave_pool
I0510 00:47:24.379446 29615 net.cpp:105] Setting up loss2/ave_pool
I0510 00:47:24.379472 29615 net.cpp:112] Top shape: 32 528 4 4 (270336)
I0510 00:47:24.379478 29615 layer_factory.hpp:74] Creating layer loss2/conv
I0510 00:47:24.379492 29615 net.cpp:76] Creating Layer loss2/conv
I0510 00:47:24.379498 29615 net.cpp:372] loss2/conv <- loss2/ave_pool
I0510 00:47:24.379508 29615 net.cpp:334] loss2/conv -> loss2/conv
I0510 00:47:24.379516 29615 net.cpp:105] Setting up loss2/conv
I0510 00:47:24.380084 29615 net.cpp:112] Top shape: 32 128 4 4 (65536)
I0510 00:47:24.380097 29615 layer_factory.hpp:74] Creating layer loss2/relu_conv
I0510 00:47:24.380105 29615 net.cpp:76] Creating Layer loss2/relu_conv
I0510 00:47:24.380110 29615 net.cpp:372] loss2/relu_conv <- loss2/conv
I0510 00:47:24.380118 29615 net.cpp:323] loss2/relu_conv -> loss2/conv (in-place)
I0510 00:47:24.380125 29615 net.cpp:105] Setting up loss2/relu_conv
I0510 00:47:24.380131 29615 net.cpp:112] Top shape: 32 128 4 4 (65536)
I0510 00:47:24.380136 29615 layer_factory.hpp:74] Creating layer loss2/fc
I0510 00:47:24.380148 29615 net.cpp:76] Creating Layer loss2/fc
I0510 00:47:24.380154 29615 net.cpp:372] loss2/fc <- loss2/conv
I0510 00:47:24.380164 29615 net.cpp:334] loss2/fc -> loss2/fc
I0510 00:47:24.380173 29615 net.cpp:105] Setting up loss2/fc
I0510 00:47:24.397791 29615 net.cpp:112] Top shape: 32 1024 1 1 (32768)
I0510 00:47:24.397838 29615 layer_factory.hpp:74] Creating layer loss2/relu_fc
I0510 00:47:24.397853 29615 net.cpp:76] Creating Layer loss2/relu_fc
I0510 00:47:24.397862 29615 net.cpp:372] loss2/relu_fc <- loss2/fc
I0510 00:47:24.397873 29615 net.cpp:323] loss2/relu_fc -> loss2/fc (in-place)
I0510 00:47:24.397883 29615 net.cpp:105] Setting up loss2/relu_fc
I0510 00:47:24.397891 29615 net.cpp:112] Top shape: 32 1024 1 1 (32768)
I0510 00:47:24.397897 29615 layer_factory.hpp:74] Creating layer loss2/drop_fc
I0510 00:47:24.397904 29615 net.cpp:76] Creating Layer loss2/drop_fc
I0510 00:47:24.397910 29615 net.cpp:372] loss2/drop_fc <- loss2/fc
I0510 00:47:24.397920 29615 net.cpp:323] loss2/drop_fc -> loss2/fc (in-place)
I0510 00:47:24.397928 29615 net.cpp:105] Setting up loss2/drop_fc
I0510 00:47:24.397935 29615 net.cpp:112] Top shape: 32 1024 1 1 (32768)
I0510 00:47:24.397941 29615 layer_factory.hpp:74] Creating layer loss2/classifier
I0510 00:47:24.397951 29615 net.cpp:76] Creating Layer loss2/classifier
I0510 00:47:24.397956 29615 net.cpp:372] loss2/classifier <- loss2/fc
I0510 00:47:24.397968 29615 net.cpp:334] loss2/classifier -> loss2/classifier
I0510 00:47:24.397979 29615 net.cpp:105] Setting up loss2/classifier
I0510 00:47:24.398012 29615 net.cpp:112] Top shape: 32 2 1 1 (64)
I0510 00:47:24.398022 29615 layer_factory.hpp:74] Creating layer loss2/classifier_loss2/classifier_0_split
I0510 00:47:24.398030 29615 net.cpp:76] Creating Layer loss2/classifier_loss2/classifier_0_split
I0510 00:47:24.398036 29615 net.cpp:372] loss2/classifier_loss2/classifier_0_split <- loss2/classifier
I0510 00:47:24.398046 29615 net.cpp:334] loss2/classifier_loss2/classifier_0_split -> loss2/classifier_loss2/classifier_0_split_0
I0510 00:47:24.398056 29615 net.cpp:334] loss2/classifier_loss2/classifier_0_split -> loss2/classifier_loss2/classifier_0_split_1
I0510 00:47:24.398066 29615 net.cpp:105] Setting up loss2/classifier_loss2/classifier_0_split
I0510 00:47:24.398075 29615 net.cpp:112] Top shape: 32 2 1 1 (64)
I0510 00:47:24.398082 29615 net.cpp:112] Top shape: 32 2 1 1 (64)
I0510 00:47:24.398087 29615 layer_factory.hpp:74] Creating layer loss2/loss
I0510 00:47:24.398098 29615 net.cpp:76] Creating Layer loss2/loss
I0510 00:47:24.398104 29615 net.cpp:372] loss2/loss <- loss2/classifier_loss2/classifier_0_split_0
I0510 00:47:24.398113 29615 net.cpp:372] loss2/loss <- label_data_1_split_2
I0510 00:47:24.398120 29615 net.cpp:334] loss2/loss -> loss2/loss1
I0510 00:47:24.398162 29615 net.cpp:105] Setting up loss2/loss
I0510 00:47:24.398172 29615 layer_factory.hpp:74] Creating layer loss2/loss
I0510 00:47:24.398190 29615 net.cpp:112] Top shape: 1 1 1 1 (1)
I0510 00:47:24.398197 29615 net.cpp:118]     with loss weight 0.3
I0510 00:47:24.398216 29615 layer_factory.hpp:74] Creating layer loss2/top-1
I0510 00:47:24.398224 29615 net.cpp:76] Creating Layer loss2/top-1
I0510 00:47:24.398264 29615 net.cpp:372] loss2/top-1 <- loss2/classifier_loss2/classifier_0_split_1
I0510 00:47:24.398277 29615 net.cpp:372] loss2/top-1 <- label_data_1_split_3
I0510 00:47:24.398285 29615 net.cpp:334] loss2/top-1 -> loss2/top-1
I0510 00:47:24.398294 29615 net.cpp:105] Setting up loss2/top-1
I0510 00:47:24.398301 29615 net.cpp:112] Top shape: 1 1 1 1 (1)
I0510 00:47:24.398308 29615 layer_factory.hpp:74] Creating layer inception_4e/1x1
I0510 00:47:24.398318 29615 net.cpp:76] Creating Layer inception_4e/1x1
I0510 00:47:24.398324 29615 net.cpp:372] inception_4e/1x1 <- inception_4d/output_inception_4d/output_0_split_1
I0510 00:47:24.398335 29615 net.cpp:334] inception_4e/1x1 -> inception_4e/1x1
I0510 00:47:24.398346 29615 net.cpp:105] Setting up inception_4e/1x1
I0510 00:47:24.399507 29615 net.cpp:112] Top shape: 32 256 14 14 (1605632)
I0510 00:47:24.399523 29615 layer_factory.hpp:74] Creating layer inception_4e/relu_1x1
I0510 00:47:24.399533 29615 net.cpp:76] Creating Layer inception_4e/relu_1x1
I0510 00:47:24.399538 29615 net.cpp:372] inception_4e/relu_1x1 <- inception_4e/1x1
I0510 00:47:24.399545 29615 net.cpp:323] inception_4e/relu_1x1 -> inception_4e/1x1 (in-place)
I0510 00:47:24.399554 29615 net.cpp:105] Setting up inception_4e/relu_1x1
I0510 00:47:24.399559 29615 net.cpp:112] Top shape: 32 256 14 14 (1605632)
I0510 00:47:24.399564 29615 layer_factory.hpp:74] Creating layer inception_4e/3x3_reduce
I0510 00:47:24.399575 29615 net.cpp:76] Creating Layer inception_4e/3x3_reduce
I0510 00:47:24.399582 29615 net.cpp:372] inception_4e/3x3_reduce <- inception_4d/output_inception_4d/output_0_split_2
I0510 00:47:24.399592 29615 net.cpp:334] inception_4e/3x3_reduce -> inception_4e/3x3_reduce
I0510 00:47:24.399602 29615 net.cpp:105] Setting up inception_4e/3x3_reduce
I0510 00:47:24.400328 29615 net.cpp:112] Top shape: 32 160 14 14 (1003520)
I0510 00:47:24.400344 29615 layer_factory.hpp:74] Creating layer inception_4e/relu_3x3_reduce
I0510 00:47:24.400353 29615 net.cpp:76] Creating Layer inception_4e/relu_3x3_reduce
I0510 00:47:24.400359 29615 net.cpp:372] inception_4e/relu_3x3_reduce <- inception_4e/3x3_reduce
I0510 00:47:24.400367 29615 net.cpp:323] inception_4e/relu_3x3_reduce -> inception_4e/3x3_reduce (in-place)
I0510 00:47:24.400374 29615 net.cpp:105] Setting up inception_4e/relu_3x3_reduce
I0510 00:47:24.400380 29615 net.cpp:112] Top shape: 32 160 14 14 (1003520)
I0510 00:47:24.400387 29615 layer_factory.hpp:74] Creating layer inception_4e/3x3
I0510 00:47:24.400413 29615 net.cpp:76] Creating Layer inception_4e/3x3
I0510 00:47:24.400420 29615 net.cpp:372] inception_4e/3x3 <- inception_4e/3x3_reduce
I0510 00:47:24.400431 29615 net.cpp:334] inception_4e/3x3 -> inception_4e/3x3
I0510 00:47:24.400441 29615 net.cpp:105] Setting up inception_4e/3x3
I0510 00:47:24.404302 29615 net.cpp:112] Top shape: 32 320 14 14 (2007040)
I0510 00:47:24.404321 29615 layer_factory.hpp:74] Creating layer inception_4e/relu_3x3
I0510 00:47:24.404330 29615 net.cpp:76] Creating Layer inception_4e/relu_3x3
I0510 00:47:24.404337 29615 net.cpp:372] inception_4e/relu_3x3 <- inception_4e/3x3
I0510 00:47:24.404345 29615 net.cpp:323] inception_4e/relu_3x3 -> inception_4e/3x3 (in-place)
I0510 00:47:24.404353 29615 net.cpp:105] Setting up inception_4e/relu_3x3
I0510 00:47:24.404359 29615 net.cpp:112] Top shape: 32 320 14 14 (2007040)
I0510 00:47:24.404366 29615 layer_factory.hpp:74] Creating layer inception_4e/5x5_reduce
I0510 00:47:24.404376 29615 net.cpp:76] Creating Layer inception_4e/5x5_reduce
I0510 00:47:24.404383 29615 net.cpp:372] inception_4e/5x5_reduce <- inception_4d/output_inception_4d/output_0_split_3
I0510 00:47:24.404412 29615 net.cpp:334] inception_4e/5x5_reduce -> inception_4e/5x5_reduce
I0510 00:47:24.404423 29615 net.cpp:105] Setting up inception_4e/5x5_reduce
I0510 00:47:24.404573 29615 net.cpp:112] Top shape: 32 32 14 14 (200704)
I0510 00:47:24.404587 29615 layer_factory.hpp:74] Creating layer inception_4e/relu_5x5_reduce
I0510 00:47:24.404597 29615 net.cpp:76] Creating Layer inception_4e/relu_5x5_reduce
I0510 00:47:24.404603 29615 net.cpp:372] inception_4e/relu_5x5_reduce <- inception_4e/5x5_reduce
I0510 00:47:24.404609 29615 net.cpp:323] inception_4e/relu_5x5_reduce -> inception_4e/5x5_reduce (in-place)
I0510 00:47:24.404618 29615 net.cpp:105] Setting up inception_4e/relu_5x5_reduce
I0510 00:47:24.404623 29615 net.cpp:112] Top shape: 32 32 14 14 (200704)
I0510 00:47:24.404628 29615 layer_factory.hpp:74] Creating layer inception_4e/5x5
I0510 00:47:24.404636 29615 net.cpp:76] Creating Layer inception_4e/5x5
I0510 00:47:24.404642 29615 net.cpp:372] inception_4e/5x5 <- inception_4e/5x5_reduce
I0510 00:47:24.404652 29615 net.cpp:334] inception_4e/5x5 -> inception_4e/5x5
I0510 00:47:24.404661 29615 net.cpp:105] Setting up inception_4e/5x5
I0510 00:47:24.405531 29615 net.cpp:112] Top shape: 32 128 14 14 (802816)
I0510 00:47:24.405545 29615 layer_factory.hpp:74] Creating layer inception_4e/relu_5x5
I0510 00:47:24.405553 29615 net.cpp:76] Creating Layer inception_4e/relu_5x5
I0510 00:47:24.405560 29615 net.cpp:372] inception_4e/relu_5x5 <- inception_4e/5x5
I0510 00:47:24.405570 29615 net.cpp:323] inception_4e/relu_5x5 -> inception_4e/5x5 (in-place)
I0510 00:47:24.405580 29615 net.cpp:105] Setting up inception_4e/relu_5x5
I0510 00:47:24.405586 29615 net.cpp:112] Top shape: 32 128 14 14 (802816)
I0510 00:47:24.405592 29615 layer_factory.hpp:74] Creating layer inception_4e/pool
I0510 00:47:24.405601 29615 net.cpp:76] Creating Layer inception_4e/pool
I0510 00:47:24.405607 29615 net.cpp:372] inception_4e/pool <- inception_4d/output_inception_4d/output_0_split_4
I0510 00:47:24.405616 29615 net.cpp:334] inception_4e/pool -> inception_4e/pool
I0510 00:47:24.405624 29615 net.cpp:105] Setting up inception_4e/pool
I0510 00:47:24.405633 29615 net.cpp:112] Top shape: 32 528 14 14 (3311616)
I0510 00:47:24.405638 29615 layer_factory.hpp:74] Creating layer inception_4e/pool_proj
I0510 00:47:24.405649 29615 net.cpp:76] Creating Layer inception_4e/pool_proj
I0510 00:47:24.405657 29615 net.cpp:372] inception_4e/pool_proj <- inception_4e/pool
I0510 00:47:24.405664 29615 net.cpp:334] inception_4e/pool_proj -> inception_4e/pool_proj
I0510 00:47:24.405673 29615 net.cpp:105] Setting up inception_4e/pool_proj
I0510 00:47:24.406242 29615 net.cpp:112] Top shape: 32 128 14 14 (802816)
I0510 00:47:24.406258 29615 layer_factory.hpp:74] Creating layer inception_4e/relu_pool_proj
I0510 00:47:24.406266 29615 net.cpp:76] Creating Layer inception_4e/relu_pool_proj
I0510 00:47:24.406288 29615 net.cpp:372] inception_4e/relu_pool_proj <- inception_4e/pool_proj
I0510 00:47:24.406297 29615 net.cpp:323] inception_4e/relu_pool_proj -> inception_4e/pool_proj (in-place)
I0510 00:47:24.406306 29615 net.cpp:105] Setting up inception_4e/relu_pool_proj
I0510 00:47:24.406327 29615 net.cpp:112] Top shape: 32 128 14 14 (802816)
I0510 00:47:24.406334 29615 layer_factory.hpp:74] Creating layer inception_4e/output
I0510 00:47:24.406342 29615 net.cpp:76] Creating Layer inception_4e/output
I0510 00:47:24.406349 29615 net.cpp:372] inception_4e/output <- inception_4e/1x1
I0510 00:47:24.406357 29615 net.cpp:372] inception_4e/output <- inception_4e/3x3
I0510 00:47:24.406363 29615 net.cpp:372] inception_4e/output <- inception_4e/5x5
I0510 00:47:24.406369 29615 net.cpp:372] inception_4e/output <- inception_4e/pool_proj
I0510 00:47:24.406379 29615 net.cpp:334] inception_4e/output -> inception_4e/output
I0510 00:47:24.406388 29615 net.cpp:105] Setting up inception_4e/output
I0510 00:47:24.406395 29615 net.cpp:112] Top shape: 32 832 14 14 (5218304)
I0510 00:47:24.406401 29615 layer_factory.hpp:74] Creating layer pool4/3x3_s2
I0510 00:47:24.406409 29615 net.cpp:76] Creating Layer pool4/3x3_s2
I0510 00:47:24.406427 29615 net.cpp:372] pool4/3x3_s2 <- inception_4e/output
I0510 00:47:24.406437 29615 net.cpp:334] pool4/3x3_s2 -> pool4/3x3_s2
I0510 00:47:24.406445 29615 net.cpp:105] Setting up pool4/3x3_s2
I0510 00:47:24.407287 29615 net.cpp:112] Top shape: 32 832 7 7 (1304576)
I0510 00:47:24.407296 29615 layer_factory.hpp:74] Creating layer pool4/3x3_s2_pool4/3x3_s2_0_split
I0510 00:47:24.407308 29615 net.cpp:76] Creating Layer pool4/3x3_s2_pool4/3x3_s2_0_split
I0510 00:47:24.407315 29615 net.cpp:372] pool4/3x3_s2_pool4/3x3_s2_0_split <- pool4/3x3_s2
I0510 00:47:24.407323 29615 net.cpp:334] pool4/3x3_s2_pool4/3x3_s2_0_split -> pool4/3x3_s2_pool4/3x3_s2_0_split_0
I0510 00:47:24.407332 29615 net.cpp:334] pool4/3x3_s2_pool4/3x3_s2_0_split -> pool4/3x3_s2_pool4/3x3_s2_0_split_1
I0510 00:47:24.407342 29615 net.cpp:334] pool4/3x3_s2_pool4/3x3_s2_0_split -> pool4/3x3_s2_pool4/3x3_s2_0_split_2
I0510 00:47:24.407351 29615 net.cpp:334] pool4/3x3_s2_pool4/3x3_s2_0_split -> pool4/3x3_s2_pool4/3x3_s2_0_split_3
I0510 00:47:24.407358 29615 net.cpp:105] Setting up pool4/3x3_s2_pool4/3x3_s2_0_split
I0510 00:47:24.407366 29615 net.cpp:112] Top shape: 32 832 7 7 (1304576)
I0510 00:47:24.407371 29615 net.cpp:112] Top shape: 32 832 7 7 (1304576)
I0510 00:47:24.407376 29615 net.cpp:112] Top shape: 32 832 7 7 (1304576)
I0510 00:47:24.407380 29615 net.cpp:112] Top shape: 32 832 7 7 (1304576)
I0510 00:47:24.407387 29615 layer_factory.hpp:74] Creating layer inception_5a/1x1
I0510 00:47:24.407397 29615 net.cpp:76] Creating Layer inception_5a/1x1
I0510 00:47:24.407404 29615 net.cpp:372] inception_5a/1x1 <- pool4/3x3_s2_pool4/3x3_s2_0_split_0
I0510 00:47:24.407414 29615 net.cpp:334] inception_5a/1x1 -> inception_5a/1x1
I0510 00:47:24.407424 29615 net.cpp:105] Setting up inception_5a/1x1
I0510 00:47:24.409215 29615 net.cpp:112] Top shape: 32 256 7 7 (401408)
I0510 00:47:24.409237 29615 layer_factory.hpp:74] Creating layer inception_5a/relu_1x1
I0510 00:47:24.409247 29615 net.cpp:76] Creating Layer inception_5a/relu_1x1
I0510 00:47:24.409255 29615 net.cpp:372] inception_5a/relu_1x1 <- inception_5a/1x1
I0510 00:47:24.409262 29615 net.cpp:323] inception_5a/relu_1x1 -> inception_5a/1x1 (in-place)
I0510 00:47:24.409284 29615 net.cpp:105] Setting up inception_5a/relu_1x1
I0510 00:47:24.409291 29615 net.cpp:112] Top shape: 32 256 7 7 (401408)
I0510 00:47:24.409297 29615 layer_factory.hpp:74] Creating layer inception_5a/3x3_reduce
I0510 00:47:24.409309 29615 net.cpp:76] Creating Layer inception_5a/3x3_reduce
I0510 00:47:24.409317 29615 net.cpp:372] inception_5a/3x3_reduce <- pool4/3x3_s2_pool4/3x3_s2_0_split_1
I0510 00:47:24.409327 29615 net.cpp:334] inception_5a/3x3_reduce -> inception_5a/3x3_reduce
I0510 00:47:24.409337 29615 net.cpp:105] Setting up inception_5a/3x3_reduce
I0510 00:47:24.410495 29615 net.cpp:112] Top shape: 32 160 7 7 (250880)
I0510 00:47:24.410511 29615 layer_factory.hpp:74] Creating layer inception_5a/relu_3x3_reduce
I0510 00:47:24.410519 29615 net.cpp:76] Creating Layer inception_5a/relu_3x3_reduce
I0510 00:47:24.410526 29615 net.cpp:372] inception_5a/relu_3x3_reduce <- inception_5a/3x3_reduce
I0510 00:47:24.410536 29615 net.cpp:323] inception_5a/relu_3x3_reduce -> inception_5a/3x3_reduce (in-place)
I0510 00:47:24.410544 29615 net.cpp:105] Setting up inception_5a/relu_3x3_reduce
I0510 00:47:24.410550 29615 net.cpp:112] Top shape: 32 160 7 7 (250880)
I0510 00:47:24.410555 29615 layer_factory.hpp:74] Creating layer inception_5a/3x3
I0510 00:47:24.410564 29615 net.cpp:76] Creating Layer inception_5a/3x3
I0510 00:47:24.410570 29615 net.cpp:372] inception_5a/3x3 <- inception_5a/3x3_reduce
I0510 00:47:24.410580 29615 net.cpp:334] inception_5a/3x3 -> inception_5a/3x3
I0510 00:47:24.410589 29615 net.cpp:105] Setting up inception_5a/3x3
I0510 00:47:24.414481 29615 net.cpp:112] Top shape: 32 320 7 7 (501760)
I0510 00:47:24.414505 29615 layer_factory.hpp:74] Creating layer inception_5a/relu_3x3
I0510 00:47:24.414515 29615 net.cpp:76] Creating Layer inception_5a/relu_3x3
I0510 00:47:24.414522 29615 net.cpp:372] inception_5a/relu_3x3 <- inception_5a/3x3
I0510 00:47:24.414557 29615 net.cpp:323] inception_5a/relu_3x3 -> inception_5a/3x3 (in-place)
I0510 00:47:24.414566 29615 net.cpp:105] Setting up inception_5a/relu_3x3
I0510 00:47:24.414572 29615 net.cpp:112] Top shape: 32 320 7 7 (501760)
I0510 00:47:24.414582 29615 layer_factory.hpp:74] Creating layer inception_5a/5x5_reduce
I0510 00:47:24.414594 29615 net.cpp:76] Creating Layer inception_5a/5x5_reduce
I0510 00:47:24.414602 29615 net.cpp:372] inception_5a/5x5_reduce <- pool4/3x3_s2_pool4/3x3_s2_0_split_2
I0510 00:47:24.414613 29615 net.cpp:334] inception_5a/5x5_reduce -> inception_5a/5x5_reduce
I0510 00:47:24.414633 29615 net.cpp:105] Setting up inception_5a/5x5_reduce
I0510 00:47:24.414882 29615 net.cpp:112] Top shape: 32 32 7 7 (50176)
I0510 00:47:24.414896 29615 layer_factory.hpp:74] Creating layer inception_5a/relu_5x5_reduce
I0510 00:47:24.414904 29615 net.cpp:76] Creating Layer inception_5a/relu_5x5_reduce
I0510 00:47:24.414911 29615 net.cpp:372] inception_5a/relu_5x5_reduce <- inception_5a/5x5_reduce
I0510 00:47:24.414918 29615 net.cpp:323] inception_5a/relu_5x5_reduce -> inception_5a/5x5_reduce (in-place)
I0510 00:47:24.414927 29615 net.cpp:105] Setting up inception_5a/relu_5x5_reduce
I0510 00:47:24.414932 29615 net.cpp:112] Top shape: 32 32 7 7 (50176)
I0510 00:47:24.414937 29615 layer_factory.hpp:74] Creating layer inception_5a/5x5
I0510 00:47:24.414948 29615 net.cpp:76] Creating Layer inception_5a/5x5
I0510 00:47:24.414954 29615 net.cpp:372] inception_5a/5x5 <- inception_5a/5x5_reduce
I0510 00:47:24.414964 29615 net.cpp:334] inception_5a/5x5 -> inception_5a/5x5
I0510 00:47:24.414973 29615 net.cpp:105] Setting up inception_5a/5x5
I0510 00:47:24.415877 29615 net.cpp:112] Top shape: 32 128 7 7 (200704)
I0510 00:47:24.415892 29615 layer_factory.hpp:74] Creating layer inception_5a/relu_5x5
I0510 00:47:24.415901 29615 net.cpp:76] Creating Layer inception_5a/relu_5x5
I0510 00:47:24.415907 29615 net.cpp:372] inception_5a/relu_5x5 <- inception_5a/5x5
I0510 00:47:24.415918 29615 net.cpp:323] inception_5a/relu_5x5 -> inception_5a/5x5 (in-place)
I0510 00:47:24.415926 29615 net.cpp:105] Setting up inception_5a/relu_5x5
I0510 00:47:24.415932 29615 net.cpp:112] Top shape: 32 128 7 7 (200704)
I0510 00:47:24.415938 29615 layer_factory.hpp:74] Creating layer inception_5a/pool
I0510 00:47:24.415946 29615 net.cpp:76] Creating Layer inception_5a/pool
I0510 00:47:24.415952 29615 net.cpp:372] inception_5a/pool <- pool4/3x3_s2_pool4/3x3_s2_0_split_3
I0510 00:47:24.415962 29615 net.cpp:334] inception_5a/pool -> inception_5a/pool
I0510 00:47:24.415990 29615 net.cpp:105] Setting up inception_5a/pool
I0510 00:47:24.416002 29615 net.cpp:112] Top shape: 32 832 7 7 (1304576)
I0510 00:47:24.416007 29615 layer_factory.hpp:74] Creating layer inception_5a/pool_proj
I0510 00:47:24.416016 29615 net.cpp:76] Creating Layer inception_5a/pool_proj
I0510 00:47:24.416023 29615 net.cpp:372] inception_5a/pool_proj <- inception_5a/pool
I0510 00:47:24.416031 29615 net.cpp:334] inception_5a/pool_proj -> inception_5a/pool_proj
I0510 00:47:24.416040 29615 net.cpp:105] Setting up inception_5a/pool_proj
I0510 00:47:24.416965 29615 net.cpp:112] Top shape: 32 128 7 7 (200704)
I0510 00:47:24.416980 29615 layer_factory.hpp:74] Creating layer inception_5a/relu_pool_proj
I0510 00:47:24.416988 29615 net.cpp:76] Creating Layer inception_5a/relu_pool_proj
I0510 00:47:24.416995 29615 net.cpp:372] inception_5a/relu_pool_proj <- inception_5a/pool_proj
I0510 00:47:24.417004 29615 net.cpp:323] inception_5a/relu_pool_proj -> inception_5a/pool_proj (in-place)
I0510 00:47:24.417013 29615 net.cpp:105] Setting up inception_5a/relu_pool_proj
I0510 00:47:24.417019 29615 net.cpp:112] Top shape: 32 128 7 7 (200704)
I0510 00:47:24.417024 29615 layer_factory.hpp:74] Creating layer inception_5a/output
I0510 00:47:24.417035 29615 net.cpp:76] Creating Layer inception_5a/output
I0510 00:47:24.417047 29615 net.cpp:372] inception_5a/output <- inception_5a/1x1
I0510 00:47:24.417059 29615 net.cpp:372] inception_5a/output <- inception_5a/3x3
I0510 00:47:24.417069 29615 net.cpp:372] inception_5a/output <- inception_5a/5x5
I0510 00:47:24.417090 29615 net.cpp:372] inception_5a/output <- inception_5a/pool_proj
I0510 00:47:24.417099 29615 net.cpp:334] inception_5a/output -> inception_5a/output
I0510 00:47:24.417109 29615 net.cpp:105] Setting up inception_5a/output
I0510 00:47:24.417115 29615 net.cpp:112] Top shape: 32 832 7 7 (1304576)
I0510 00:47:24.417121 29615 layer_factory.hpp:74] Creating layer inception_5a/output_inception_5a/output_0_split
I0510 00:47:24.417135 29615 net.cpp:76] Creating Layer inception_5a/output_inception_5a/output_0_split
I0510 00:47:24.417168 29615 net.cpp:372] inception_5a/output_inception_5a/output_0_split <- inception_5a/output
I0510 00:47:24.417178 29615 net.cpp:334] inception_5a/output_inception_5a/output_0_split -> inception_5a/output_inception_5a/output_0_split_0
I0510 00:47:24.417188 29615 net.cpp:334] inception_5a/output_inception_5a/output_0_split -> inception_5a/output_inception_5a/output_0_split_1
I0510 00:47:24.417198 29615 net.cpp:334] inception_5a/output_inception_5a/output_0_split -> inception_5a/output_inception_5a/output_0_split_2
I0510 00:47:24.417207 29615 net.cpp:334] inception_5a/output_inception_5a/output_0_split -> inception_5a/output_inception_5a/output_0_split_3
I0510 00:47:24.417215 29615 net.cpp:105] Setting up inception_5a/output_inception_5a/output_0_split
I0510 00:47:24.417222 29615 net.cpp:112] Top shape: 32 832 7 7 (1304576)
I0510 00:47:24.417227 29615 net.cpp:112] Top shape: 32 832 7 7 (1304576)
I0510 00:47:24.417232 29615 net.cpp:112] Top shape: 32 832 7 7 (1304576)
I0510 00:47:24.417237 29615 net.cpp:112] Top shape: 32 832 7 7 (1304576)
I0510 00:47:24.417243 29615 layer_factory.hpp:74] Creating layer inception_5b/1x1
I0510 00:47:24.417253 29615 net.cpp:76] Creating Layer inception_5b/1x1
I0510 00:47:24.417260 29615 net.cpp:372] inception_5b/1x1 <- inception_5a/output_inception_5a/output_0_split_0
I0510 00:47:24.417284 29615 net.cpp:334] inception_5b/1x1 -> inception_5b/1x1
I0510 00:47:24.417296 29615 net.cpp:105] Setting up inception_5b/1x1
I0510 00:47:24.419960 29615 net.cpp:112] Top shape: 32 384 7 7 (602112)
I0510 00:47:24.419978 29615 layer_factory.hpp:74] Creating layer inception_5b/relu_1x1
I0510 00:47:24.419987 29615 net.cpp:76] Creating Layer inception_5b/relu_1x1
I0510 00:47:24.419993 29615 net.cpp:372] inception_5b/relu_1x1 <- inception_5b/1x1
I0510 00:47:24.420001 29615 net.cpp:323] inception_5b/relu_1x1 -> inception_5b/1x1 (in-place)
I0510 00:47:24.420011 29615 net.cpp:105] Setting up inception_5b/relu_1x1
I0510 00:47:24.420016 29615 net.cpp:112] Top shape: 32 384 7 7 (602112)
I0510 00:47:24.420022 29615 layer_factory.hpp:74] Creating layer inception_5b/3x3_reduce
I0510 00:47:24.420032 29615 net.cpp:76] Creating Layer inception_5b/3x3_reduce
I0510 00:47:24.420038 29615 net.cpp:372] inception_5b/3x3_reduce <- inception_5a/output_inception_5a/output_0_split_1
I0510 00:47:24.420049 29615 net.cpp:334] inception_5b/3x3_reduce -> inception_5b/3x3_reduce
I0510 00:47:24.420058 29615 net.cpp:105] Setting up inception_5b/3x3_reduce
I0510 00:47:24.421449 29615 net.cpp:112] Top shape: 32 192 7 7 (301056)
I0510 00:47:24.421465 29615 layer_factory.hpp:74] Creating layer inception_5b/relu_3x3_reduce
I0510 00:47:24.421474 29615 net.cpp:76] Creating Layer inception_5b/relu_3x3_reduce
I0510 00:47:24.421480 29615 net.cpp:372] inception_5b/relu_3x3_reduce <- inception_5b/3x3_reduce
I0510 00:47:24.421491 29615 net.cpp:323] inception_5b/relu_3x3_reduce -> inception_5b/3x3_reduce (in-place)
I0510 00:47:24.421499 29615 net.cpp:105] Setting up inception_5b/relu_3x3_reduce
I0510 00:47:24.421505 29615 net.cpp:112] Top shape: 32 192 7 7 (301056)
I0510 00:47:24.421510 29615 layer_factory.hpp:74] Creating layer inception_5b/3x3
I0510 00:47:24.421519 29615 net.cpp:76] Creating Layer inception_5b/3x3
I0510 00:47:24.421525 29615 net.cpp:372] inception_5b/3x3 <- inception_5b/3x3_reduce
I0510 00:47:24.421535 29615 net.cpp:334] inception_5b/3x3 -> inception_5b/3x3
I0510 00:47:24.421545 29615 net.cpp:105] Setting up inception_5b/3x3
I0510 00:47:24.427551 29615 net.cpp:112] Top shape: 32 384 7 7 (602112)
I0510 00:47:24.427595 29615 layer_factory.hpp:74] Creating layer inception_5b/relu_3x3
I0510 00:47:24.427605 29615 net.cpp:76] Creating Layer inception_5b/relu_3x3
I0510 00:47:24.428174 29615 net.cpp:372] inception_5b/relu_3x3 <- inception_5b/3x3
I0510 00:47:24.428186 29615 net.cpp:323] inception_5b/relu_3x3 -> inception_5b/3x3 (in-place)
I0510 00:47:24.428196 29615 net.cpp:105] Setting up inception_5b/relu_3x3
I0510 00:47:24.428202 29615 net.cpp:112] Top shape: 32 384 7 7 (602112)
I0510 00:47:24.428208 29615 layer_factory.hpp:74] Creating layer inception_5b/5x5_reduce
I0510 00:47:24.428217 29615 net.cpp:76] Creating Layer inception_5b/5x5_reduce
I0510 00:47:24.428223 29615 net.cpp:372] inception_5b/5x5_reduce <- inception_5a/output_inception_5a/output_0_split_2
I0510 00:47:24.428235 29615 net.cpp:334] inception_5b/5x5_reduce -> inception_5b/5x5_reduce
I0510 00:47:24.428244 29615 net.cpp:105] Setting up inception_5b/5x5_reduce
I0510 00:47:24.428658 29615 net.cpp:112] Top shape: 32 48 7 7 (75264)
I0510 00:47:24.428673 29615 layer_factory.hpp:74] Creating layer inception_5b/relu_5x5_reduce
I0510 00:47:24.428689 29615 net.cpp:76] Creating Layer inception_5b/relu_5x5_reduce
I0510 00:47:24.428696 29615 net.cpp:372] inception_5b/relu_5x5_reduce <- inception_5b/5x5_reduce
I0510 00:47:24.428704 29615 net.cpp:323] inception_5b/relu_5x5_reduce -> inception_5b/5x5_reduce (in-place)
I0510 00:47:24.428712 29615 net.cpp:105] Setting up inception_5b/relu_5x5_reduce
I0510 00:47:24.428717 29615 net.cpp:112] Top shape: 32 48 7 7 (75264)
I0510 00:47:24.428724 29615 layer_factory.hpp:74] Creating layer inception_5b/5x5
I0510 00:47:24.428732 29615 net.cpp:76] Creating Layer inception_5b/5x5
I0510 00:47:24.428738 29615 net.cpp:372] inception_5b/5x5 <- inception_5b/5x5_reduce
I0510 00:47:24.428748 29615 net.cpp:334] inception_5b/5x5 -> inception_5b/5x5
I0510 00:47:24.428757 29615 net.cpp:105] Setting up inception_5b/5x5
I0510 00:47:24.430066 29615 net.cpp:112] Top shape: 32 128 7 7 (200704)
I0510 00:47:24.430084 29615 layer_factory.hpp:74] Creating layer inception_5b/relu_5x5
I0510 00:47:24.430094 29615 net.cpp:76] Creating Layer inception_5b/relu_5x5
I0510 00:47:24.430099 29615 net.cpp:372] inception_5b/relu_5x5 <- inception_5b/5x5
I0510 00:47:24.430107 29615 net.cpp:323] inception_5b/relu_5x5 -> inception_5b/5x5 (in-place)
I0510 00:47:24.430115 29615 net.cpp:105] Setting up inception_5b/relu_5x5
I0510 00:47:24.430120 29615 net.cpp:112] Top shape: 32 128 7 7 (200704)
I0510 00:47:24.430126 29615 layer_factory.hpp:74] Creating layer inception_5b/pool
I0510 00:47:24.430135 29615 net.cpp:76] Creating Layer inception_5b/pool
I0510 00:47:24.430140 29615 net.cpp:372] inception_5b/pool <- inception_5a/output_inception_5a/output_0_split_3
I0510 00:47:24.430151 29615 net.cpp:334] inception_5b/pool -> inception_5b/pool
I0510 00:47:24.430160 29615 net.cpp:105] Setting up inception_5b/pool
I0510 00:47:24.430168 29615 net.cpp:112] Top shape: 32 832 7 7 (1304576)
I0510 00:47:24.430174 29615 layer_factory.hpp:74] Creating layer inception_5b/pool_proj
I0510 00:47:24.430186 29615 net.cpp:76] Creating Layer inception_5b/pool_proj
I0510 00:47:24.430191 29615 net.cpp:372] inception_5b/pool_proj <- inception_5b/pool
I0510 00:47:24.430199 29615 net.cpp:334] inception_5b/pool_proj -> inception_5b/pool_proj
I0510 00:47:24.430208 29615 net.cpp:105] Setting up inception_5b/pool_proj
I0510 00:47:24.431115 29615 net.cpp:112] Top shape: 32 128 7 7 (200704)
I0510 00:47:24.431130 29615 layer_factory.hpp:74] Creating layer inception_5b/relu_pool_proj
I0510 00:47:24.431138 29615 net.cpp:76] Creating Layer inception_5b/relu_pool_proj
I0510 00:47:24.431145 29615 net.cpp:372] inception_5b/relu_pool_proj <- inception_5b/pool_proj
I0510 00:47:24.431152 29615 net.cpp:323] inception_5b/relu_pool_proj -> inception_5b/pool_proj (in-place)
I0510 00:47:24.431160 29615 net.cpp:105] Setting up inception_5b/relu_pool_proj
I0510 00:47:24.431166 29615 net.cpp:112] Top shape: 32 128 7 7 (200704)
I0510 00:47:24.431172 29615 layer_factory.hpp:74] Creating layer inception_5b/output
I0510 00:47:24.431197 29615 net.cpp:76] Creating Layer inception_5b/output
I0510 00:47:24.431205 29615 net.cpp:372] inception_5b/output <- inception_5b/1x1
I0510 00:47:24.431211 29615 net.cpp:372] inception_5b/output <- inception_5b/3x3
I0510 00:47:24.431218 29615 net.cpp:372] inception_5b/output <- inception_5b/5x5
I0510 00:47:24.431226 29615 net.cpp:372] inception_5b/output <- inception_5b/pool_proj
I0510 00:47:24.431232 29615 net.cpp:334] inception_5b/output -> inception_5b/output
I0510 00:47:24.431241 29615 net.cpp:105] Setting up inception_5b/output
I0510 00:47:24.431248 29615 net.cpp:112] Top shape: 32 1024 7 7 (1605632)
I0510 00:47:24.431254 29615 layer_factory.hpp:74] Creating layer pool5/7x7_s1
I0510 00:47:24.431262 29615 net.cpp:76] Creating Layer pool5/7x7_s1
I0510 00:47:24.431267 29615 net.cpp:372] pool5/7x7_s1 <- inception_5b/output
I0510 00:47:24.431294 29615 net.cpp:334] pool5/7x7_s1 -> pool5/7x7_s1
I0510 00:47:24.431306 29615 net.cpp:105] Setting up pool5/7x7_s1
I0510 00:47:24.431314 29615 net.cpp:112] Top shape: 32 1024 1 1 (32768)
I0510 00:47:24.431320 29615 layer_factory.hpp:74] Creating layer pool5/drop_7x7_s1
I0510 00:47:24.431329 29615 net.cpp:76] Creating Layer pool5/drop_7x7_s1
I0510 00:47:24.431335 29615 net.cpp:372] pool5/drop_7x7_s1 <- pool5/7x7_s1
I0510 00:47:24.431342 29615 net.cpp:323] pool5/drop_7x7_s1 -> pool5/7x7_s1 (in-place)
I0510 00:47:24.431350 29615 net.cpp:105] Setting up pool5/drop_7x7_s1
I0510 00:47:24.431357 29615 net.cpp:112] Top shape: 32 1024 1 1 (32768)
I0510 00:47:24.431362 29615 layer_factory.hpp:74] Creating layer loss3/classifier
I0510 00:47:24.431375 29615 net.cpp:76] Creating Layer loss3/classifier
I0510 00:47:24.431380 29615 net.cpp:372] loss3/classifier <- pool5/7x7_s1
I0510 00:47:24.431388 29615 net.cpp:334] loss3/classifier -> loss3/classifier
I0510 00:47:24.431397 29615 net.cpp:105] Setting up loss3/classifier
I0510 00:47:24.431429 29615 net.cpp:112] Top shape: 32 2 1 1 (64)
I0510 00:47:24.431440 29615 layer_factory.hpp:74] Creating layer loss3/classifier_loss3/classifier_0_split
I0510 00:47:24.431450 29615 net.cpp:76] Creating Layer loss3/classifier_loss3/classifier_0_split
I0510 00:47:24.431457 29615 net.cpp:372] loss3/classifier_loss3/classifier_0_split <- loss3/classifier
I0510 00:47:24.431463 29615 net.cpp:334] loss3/classifier_loss3/classifier_0_split -> loss3/classifier_loss3/classifier_0_split_0
I0510 00:47:24.431473 29615 net.cpp:334] loss3/classifier_loss3/classifier_0_split -> loss3/classifier_loss3/classifier_0_split_1
I0510 00:47:24.431481 29615 net.cpp:105] Setting up loss3/classifier_loss3/classifier_0_split
I0510 00:47:24.431488 29615 net.cpp:112] Top shape: 32 2 1 1 (64)
I0510 00:47:24.431493 29615 net.cpp:112] Top shape: 32 2 1 1 (64)
I0510 00:47:24.431499 29615 layer_factory.hpp:74] Creating layer loss3/loss3
I0510 00:47:24.431509 29615 net.cpp:76] Creating Layer loss3/loss3
I0510 00:47:24.431514 29615 net.cpp:372] loss3/loss3 <- loss3/classifier_loss3/classifier_0_split_0
I0510 00:47:24.431521 29615 net.cpp:372] loss3/loss3 <- label_data_1_split_4
I0510 00:47:24.431529 29615 net.cpp:334] loss3/loss3 -> loss3/loss3
I0510 00:47:24.431537 29615 net.cpp:105] Setting up loss3/loss3
I0510 00:47:24.431545 29615 layer_factory.hpp:74] Creating layer loss3/loss3
I0510 00:47:24.431560 29615 net.cpp:112] Top shape: 1 1 1 1 (1)
I0510 00:47:24.431566 29615 net.cpp:118]     with loss weight 1
I0510 00:47:24.431586 29615 layer_factory.hpp:74] Creating layer loss3/top-1
I0510 00:47:24.431594 29615 net.cpp:76] Creating Layer loss3/top-1
I0510 00:47:24.431602 29615 net.cpp:372] loss3/top-1 <- loss3/classifier_loss3/classifier_0_split_1
I0510 00:47:24.431609 29615 net.cpp:372] loss3/top-1 <- label_data_1_split_5
I0510 00:47:24.431617 29615 net.cpp:334] loss3/top-1 -> loss3/top-1
I0510 00:47:24.431625 29615 net.cpp:105] Setting up loss3/top-1
I0510 00:47:24.431632 29615 net.cpp:112] Top shape: 1 1 1 1 (1)
I0510 00:47:24.431638 29615 net.cpp:165] loss3/top-1 does not need backward computation.
I0510 00:47:24.431643 29615 net.cpp:163] loss3/loss3 needs backward computation.
I0510 00:47:24.431663 29615 net.cpp:163] loss3/classifier_loss3/classifier_0_split needs backward computation.
I0510 00:47:24.431668 29615 net.cpp:163] loss3/classifier needs backward computation.
I0510 00:47:24.431674 29615 net.cpp:163] pool5/drop_7x7_s1 needs backward computation.
…
