…
I0509 22:49:07.431574 21807 caffe.cpp:134] Use GPU with device ID 0
I0509 22:49:07.814573 21807 net.cpp:253] The NetState phase (1) differed from the phase (0) specified by a rule in layer data
I0509 22:49:07.816406 21807 net.cpp:42] Initializing net from parameters: 
name: "GoogleNet"
state {
  phase: TEST
}
layer {
  name: "data"
  type: "Data"
  top: "data"
  top: "label"
  include {
    phase: TEST
  }
  transform_param {
    mirror: false
    crop_size: 224
    mean_value: 104
    mean_value: 117
    mean_value: 123
  }
  data_param {
    source: "val_lmdb"
    batch_size: 32
    backend: LMDB
  }
}
layer {
  name: "conv1/7x7_s2"
  type: "Convolution"
  bottom: "data"
  top: "conv1/7x7_s2"
  param {
    lr_mult: 1
    decay_mult: 1
  }
  param {
    lr_mult: 2
    decay_mult: 0
  }
  convolution_param {
    num_output: 64
    pad: 3
    kernel_size: 7
    stride: 2
    weight_filler {
      type: "xavier"
      std: 0.1
    }
    bias_filler {
      type: "constant"
      value: 0.2
    }
  }
}
layer {
  name: "conv1/relu_7x7"
  type: "ReLU"
  bottom: "conv1/7x7_s2"
  top: "conv1/7x7_s2"
}
layer {
  name: "pool1/3x3_s2"
  type: "Pooling"
  bottom: "conv1/7x7_s2"
  top: "pool1/3x3_s2"
  pooling_param {
    pool: MAX
    kernel_size: 3
    stride: 2
  }
}
layer {
  name: "pool1/norm1"
  type: "LRN"
  bottom: "pool1/3x3_s2"
  top: "pool1/norm1"
  lrn_param {
    local_size: 5
    alpha: 0.0001
    beta: 0.75
  }
}
layer {
  name: "conv2/3x3_reduce"
  type: "Convolution"
  bottom: "pool1/norm1"
  top: "conv2/3x3_reduce"
  param {
    lr_mult: 1
    decay_mult: 1
  }
  param {
    lr_mult: 2
    decay_mult: 0
  }
  convolution_param {
    num_output: 64
    kernel_size: 1
    weight_filler {
      type: "xavier"
      std: 0.1
    }
    bias_filler {
      type: "constant"
      value: 0.2
    }
  }
}
layer {
  name: "conv2/relu_3x3_reduce"
  type: "ReLU"
  bottom: "conv2/3x3_reduce"
  top: "conv2/3x3_reduce"
}
layer {
  name: "conv2/3x3"
  type: "Convolution"
  bottom: "conv2/3x3_reduce"
  top: "conv2/3x3"
  param {
    lr_mult: 1
    decay_mult: 1
  }
  param {
    lr_mult: 2
    decay_mult: 0
  }
  convolution_param {
    num_output: 192
    pad: 1
    kernel_size: 3
    weight_filler {
      type: "xavier"
      std: 0.03
    }
    bias_filler {
      type: "constant"
      value: 0.2
    }
  }
}
layer {
  name: "conv2/relu_3x3"
  type: "ReLU"
  bottom: "conv2/3x3"
  top: "conv2/3x3"
}
layer {
  name: "conv2/norm2"
  type: "LRN"
  bottom: "conv2/3x3"
  top: "conv2/norm2"
  lrn_param {
    local_size: 5
    alpha: 0.0001
    beta: 0.75
  }
}
layer {
  name: "pool2/3x3_s2"
  type: "Pooling"
  bottom: "conv2/norm2"
  top: "pool2/3x3_s2"
  pooling_param {
    pool: MAX
    kernel_size: 3
    stride: 2
  }
}
layer {
  name: "inception_3a/1x1"
  type: "Convolution"
  bottom: "pool2/3x3_s2"
  top: "inception_3a/1x1"
  param {
    lr_mult: 1
    decay_mult: 1
  }
  param {
    lr_mult: 2
    decay_mult: 0
  }
  convolution_param {
    num_output: 64
    kernel_size: 1
    weight_filler {
      type: "xavier"
      std: 0.03
    }
    bias_filler {
      type: "constant"
      value: 0.2
    }
  }
}
layer {
  name: "inception_3a/relu_1x1"
  type: "ReLU"
  bottom: "inception_3a/1x1"
  top: "inception_3a/1x1"
}
layer {
  name: "inception_3a/3x3_reduce"
  type: "Convolution"
  bottom: "pool2/3x3_s2"
  top: "inception_3a/3x3_reduce"
  param {
    lr_mult: 1
    decay_mult: 1
  }
  param {
    lr_mult: 2
    decay_mult: 0
  }
  convolution_param {
    num_output: 96
    kernel_size: 1
    weight_filler {
      type: "xavier"
      std: 0.09
    }
    bias_filler {
      type: "constant"
      value: 0.2
    }
  }
}
layer {
  name: "inception_3a/relu_3x3_reduce"
  type: "ReLU"
  bottom: "inception_3a/3x3_reduce"
  top: "inception_3a/3x3_reduce"
}
layer {
  name: "inception_3a/3x3"
  type: "Convolution"
  bottom: "inception_3a/3x3_reduce"
  top: "inception_3a/3x3"
  param {
    lr_mult: 1
    decay_mult: 1
  }
  param {
    lr_mult: 2
    decay_mult: 0
  }
  convolution_param {
    num_output: 128
    pad: 1
    kernel_size: 3
    weight_filler {
      type: "xavier"
      std: 0.03
    }
    bias_filler {
      type: "constant"
      value: 0.2
    }
  }
}
layer {
  name: "inception_3a/relu_3x3"
  type: "ReLU"
  bottom: "inception_3a/3x3"
  top: "inception_3a/3x3"
}
layer {
  name: "inception_3a/5x5_reduce"
  type: "Convolution"
  bottom: "pool2/3x3_s2"
  top: "inception_3a/5x5_reduce"
  param {
    lr_mult: 1
    decay_mult: 1
  }
  param {
    lr_mult: 2
    decay_mult: 0
  }
  convolution_param {
    num_output: 16
    kernel_size: 1
    weight_filler {
      type: "xavier"
      std: 0.2
    }
    bias_filler {
      type: "constant"
      value: 0.2
    }
  }
}
layer {
  name: "inception_3a/relu_5x5_reduce"
  type: "ReLU"
  bottom: "inception_3a/5x5_reduce"
  top: "inception_3a/5x5_reduce"
}
layer {
  name: "inception_3a/5x5"
  type: "Convolution"
  bottom: "inception_3a/5x5_reduce"
  top: "inception_3a/5x5"
  param {
    lr_mult: 1
    decay_mult: 1
  }
  param {
    lr_mult: 2
    decay_mult: 0
  }
  convolution_param {
    num_output: 32
    pad: 2
    kernel_size: 5
    weight_filler {
      type: "xavier"
      std: 0.03
    }
    bias_filler {
      type: "constant"
      value: 0.2
    }
  }
}
layer {
  name: "inception_3a/relu_5x5"
  type: "ReLU"
  bottom: "inception_3a/5x5"
  top: "inception_3a/5x5"
}
layer {
  name: "inception_3a/pool"
  type: "Pooling"
  bottom: "pool2/3x3_s2"
  top: "inception_3a/pool"
  pooling_param {
    pool: MAX
    kernel_size: 3
    stride: 1
    pad: 1
  }
}
layer {
  name: "inception_3a/pool_proj"
  type: "Convolution"
  bottom: "inception_3a/pool"
  top: "inception_3a/pool_proj"
  param {
    lr_mult: 1
    decay_mult: 1
  }
  param {
    lr_mult: 2
    decay_mult: 0
  }
  convolution_param {
    num_output: 32
    kernel_size: 1
    weight_filler {
      type: "xavier"
      std: 0.1
    }
    bias_filler {
      type: "constant"
      value: 0.2
    }
  }
}
layer {
  name: "inception_3a/relu_pool_proj"
  type: "ReLU"
  bottom: "inception_3a/pool_proj"
  top: "inception_3a/pool_proj"
}
layer {
  name: "inception_3a/output"
  type: "Concat"
  bottom: "inception_3a/1x1"
  bottom: "inception_3a/3x3"
  bottom: "inception_3a/5x5"
  bottom: "inception_3a/pool_proj"
  top: "inception_3a/output"
}
layer {
  name: "inception_3b/1x1"
  type: "Convolution"
  bottom: "inception_3a/output"
  top: "inception_3b/1x1"
  param {
    lr_mult: 1
    decay_mult: 1
  }
  param {
    lr_mult: 2
    decay_mult: 0
  }
  convolution_param {
    num_output: 128
    kernel_size: 1
    weight_filler {
      type: "xavier"
      std: 0.03
    }
    bias_filler {
      type: "constant"
      value: 0.2
    }
  }
}
layer {
  name: "inception_3b/relu_1x1"
  type: "ReLU"
  bottom: "inception_3b/1x1"
  top: "inception_3b/1x1"
}
layer {
  name: "inception_3b/3x3_reduce"
  type: "Convolution"
  bottom: "inception_3a/output"
  top: "inception_3b/3x3_reduce"
  param {
    lr_mult: 1
    decay_mult: 1
  }
  param {
    lr_mult: 2
    decay_mult: 0
  }
  convolution_param {
    num_output: 128
    kernel_size: 1
    weight_filler {
      type: "xavier"
      std: 0.09
    }
    bias_filler {
      type: "constant"
      value: 0.2
    }
  }
}
layer {
  name: "inception_3b/relu_3x3_reduce"
  type: "ReLU"
  bottom: "inception_3b/3x3_reduce"
  top: "inception_3b/3x3_reduce"
}
layer {
  name: "inception_3b/3x3"
  type: "Convolution"
  bottom: "inception_3b/3x3_reduce"
  top: "inception_3b/3x3"
  param {
    lr_mult: 1
    decay_mult: 1
  }
  param {
    lr_mult: 2
    decay_mult: 0
  }
  convolution_param {
    num_output: 192
    pad: 1
    kernel_size: 3
    weight_filler {
      type: "xavier"
      std: 0.03
    }
    bias_filler {
      type: "constant"
      value: 0.2
    }
  }
}
layer {
  name: "inception_3b/relu_3x3"
  type: "ReLU"
  bottom: "inception_3b/3x3"
  top: "inception_3b/3x3"
}
layer {
  name: "inception_3b/5x5_reduce"
  type: "Convolution"
  bottom: "inception_3a/output"
  top: "inception_3b/5x5_reduce"
  param {
    lr_mult: 1
    decay_mult: 1
  }
  param {
    lr_mult: 2
    decay_mult: 0
  }
  convolution_param {
    num_output: 32
    kernel_size: 1
    weight_filler {
      type: "xavier"
      std: 0.2
    }
    bias_filler {
      type: "constant"
      value: 0.2
    }
  }
}
layer {
  name: "inception_3b/relu_5x5_reduce"
  type: "ReLU"
  bottom: "inception_3b/5x5_reduce"
  top: "inception_3b/5x5_reduce"
}
layer {
  name: "inception_3b/5x5"
  type: "Convolution"
  bottom: "inception_3b/5x5_reduce"
  top: "inception_3b/5x5"
  param {
    lr_mult: 1
    decay_mult: 1
  }
  param {
    lr_mult: 2
    decay_mult: 0
  }
  convolution_param {
    num_output: 96
    pad: 2
    kernel_size: 5
    weight_filler {
      type: "xavier"
      std: 0.03
    }
    bias_filler {
      type: "constant"
      value: 0.2
    }
  }
}
layer {
  name: "inception_3b/relu_5x5"
  type: "ReLU"
  bottom: "inception_3b/5x5"
  top: "inception_3b/5x5"
}
layer {
  name: "inception_3b/pool"
  type: "Pooling"
  bottom: "inception_3a/output"
  top: "inception_3b/pool"
  pooling_param {
    pool: MAX
    kernel_size: 3
    stride: 1
    pad: 1
  }
}
layer {
  name: "inception_3b/pool_proj"
  type: "Convolution"
  bottom: "inception_3b/pool"
  top: "inception_3b/pool_proj"
  param {
    lr_mult: 1
    decay_mult: 1
  }
  param {
    lr_mult: 2
    decay_mult: 0
  }
  convolution_param {
    num_output: 64
    kernel_size: 1
    weight_filler {
      type: "xavier"
      std: 0.1
    }
    bias_filler {
      type: "constant"
      value: 0.2
    }
  }
}
layer {
  name: "inception_3b/relu_pool_proj"
  type: "ReLU"
  bottom: "inception_3b/pool_proj"
  top: "inception_3b/pool_proj"
}
layer {
  name: "inception_3b/output"
  type: "Concat"
  bottom: "inception_3b/1x1"
  bottom: "inception_3b/3x3"
  bottom: "inception_3b/5x5"
  bottom: "inception_3b/pool_proj"
  top: "inception_3b/output"
}
layer {
  name: "pool3/3x3_s2"
  type: "Pooling"
  bottom: "inception_3b/output"
  top: "pool3/3x3_s2"
  pooling_param {
    pool: MAX
    kernel_size: 3
    stride: 2
  }
}
layer {
  name: "inception_4a/1x1"
  type: "Convolution"
  bottom: "pool3/3x3_s2"
  top: "inception_4a/1x1"
  param {
    lr_mult: 1
    decay_mult: 1
  }
  param {
    lr_mult: 2
    decay_mult: 0
  }
  convolution_param {
    num_output: 192
    kernel_size: 1
    weight_filler {
      type: "xavier"
      std: 0.03
    }
    bias_filler {
      type: "constant"
      value: 0.2
    }
  }
}
layer {
  name: "inception_4a/relu_1x1"
  type: "ReLU"
  bottom: "inception_4a/1x1"
  top: "inception_4a/1x1"
}
layer {
  name: "inception_4a/3x3_reduce"
  type: "Convolution"
  bottom: "pool3/3x3_s2"
  top: "inception_4a/3x3_reduce"
  param {
    lr_mult: 1
    decay_mult: 1
  }
  param {
    lr_mult: 2
    decay_mult: 0
  }
  convolution_param {
    num_output: 96
    kernel_size: 1
    weight_filler {
      type: "xavier"
      std: 0.09
    }
    bias_filler {
      type: "constant"
      value: 0.2
    }
  }
}
layer {
  name: "inception_4a/relu_3x3_reduce"
  type: "ReLU"
  bottom: "inception_4a/3x3_reduce"
  top: "inception_4a/3x3_reduce"
}
layer {
  name: "inception_4a/3x3"
  type: "Convolution"
  bottom: "inception_4a/3x3_reduce"
  top: "inception_4a/3x3"
  param {
    lr_mult: 1
    decay_mult: 1
  }
  param {
    lr_mult: 2
    decay_mult: 0
  }
  convolution_param {
    num_output: 208
    pad: 1
    kernel_size: 3
    weight_filler {
      type: "xavier"
      std: 0.03
    }
    bias_filler {
      type: "constant"
      value: 0.2
    }
  }
}
layer {
  name: "inception_4a/relu_3x3"
  type: "ReLU"
  bottom: "inception_4a/3x3"
  top: "inception_4a/3x3"
}
layer {
  name: "inception_4a/5x5_reduce"
  type: "Convolution"
  bottom: "pool3/3x3_s2"
  top: "inception_4a/5x5_reduce"
  param {
    lr_mult: 1
    decay_mult: 1
  }
  param {
    lr_mult: 2
    decay_mult: 0
  }
  convolution_param {
    num_output: 16
    kernel_size: 1
    weight_filler {
      type: "xavier"
      std: 0.2
    }
    bias_filler {
      type: "constant"
      value: 0.2
    }
  }
}
layer {
  name: "inception_4a/relu_5x5_reduce"
  type: "ReLU"
  bottom: "inception_4a/5x5_reduce"
  top: "inception_4a/5x5_reduce"
}
layer {
  name: "inception_4a/5x5"
  type: "Convolution"
  bottom: "inception_4a/5x5_reduce"
  top: "inception_4a/5x5"
  param {
    lr_mult: 1
    decay_mult: 1
  }
  param {
    lr_mult: 2
    decay_mult: 0
  }
  convolution_param {
    num_output: 48
    pad: 2
    kernel_size: 5
    weight_filler {
      type: "xavier"
      std: 0.03
    }
    bias_filler {
      type: "constant"
      value: 0.2
    }
  }
}
layer {
  name: "inception_4a/relu_5x5"
  type: "ReLU"
  bottom: "inception_4a/5x5"
  top: "inception_4a/5x5"
}
layer {
  name: "inception_4a/pool"
  type: "Pooling"
  bottom: "pool3/3x3_s2"
  top: "inception_4a/pool"
  pooling_param {
    pool: MAX
    kernel_size: 3
    stride: 1
    pad: 1
  }
}
layer {
  name: "inception_4a/pool_proj"
  type: "Convolution"
  bottom: "inception_4a/pool"
  top: "inception_4a/pool_proj"
  param {
    lr_mult: 1
    decay_mult: 1
  }
  param {
    lr_mult: 2
    decay_mult: 0
  }
  convolution_param {
    num_output: 64
    kernel_size: 1
    weight_filler {
      type: "xavier"
      std: 0.1
    }
    bias_filler {
      type: "constant"
      value: 0.2
    }
  }
}
layer {
  name: "inception_4a/relu_pool_proj"
  type: "ReLU"
  bottom: "inception_4a/pool_proj"
  top: "inception_4a/pool_proj"
}
layer {
  name: "inception_4a/output"
  type: "Concat"
  bottom: "inception_4a/1x1"
  bottom: "inception_4a/3x3"
  bottom: "inception_4a/5x5"
  bottom: "inception_4a/pool_proj"
  top: "inception_4a/output"
}
layer {
  name: "loss1/ave_pool"
  type: "Pooling"
  bottom: "inception_4a/output"
  top: "loss1/ave_pool"
  pooling_param {
    pool: AVE
    kernel_size: 5
    stride: 3
  }
}
layer {
  name: "loss1/conv"
  type: "Convolution"
  bottom: "loss1/ave_pool"
  top: "loss1/conv"
  param {
    lr_mult: 1
    decay_mult: 1
  }
  param {
    lr_mult: 2
    decay_mult: 0
  }
  convolution_param {
    num_output: 128
    kernel_size: 1
    weight_filler {
      type: "xavier"
      std: 0.08
    }
    bias_filler {
      type: "constant"
      value: 0.2
    }
  }
}
layer {
  name: "loss1/relu_conv"
  type: "ReLU"
  bottom: "loss1/conv"
  top: "loss1/conv"
}
layer {
  name: "loss1/fc"
  type: "InnerProduct"
  bottom: "loss1/conv"
  top: "loss1/fc"
  param {
    lr_mult: 1
    decay_mult: 1
  }
  param {
    lr_mult: 2
    decay_mult: 0
  }
  inner_product_param {
    num_output: 1024
    weight_filler {
      type: "xavier"
      std: 0.02
    }
    bias_filler {
      type: "constant"
      value: 0.2
    }
  }
}
layer {
  name: "loss1/relu_fc"
  type: "ReLU"
  bottom: "loss1/fc"
  top: "loss1/fc"
}
layer {
  name: "loss1/drop_fc"
  type: "Dropout"
  bottom: "loss1/fc"
  top: "loss1/fc"
  dropout_param {
    dropout_ratio: 0.7
  }
}
layer {
  name: "loss1/classifier"
  type: "InnerProduct"
  bottom: "loss1/fc"
  top: "loss1/classifier"
  param {
    lr_mult: 1
    decay_mult: 1
  }
  param {
    lr_mult: 2
    decay_mult: 0
  }
  inner_product_param {
    num_output: 2
    weight_filler {
      type: "xavier"
      std: 0.0009765625
    }
    bias_filler {
      type: "constant"
      value: 0
    }
  }
}
layer {
  name: "loss1/loss"
  type: "SoftmaxWithLoss"
  bottom: "loss1/classifier"
  bottom: "label"
  top: "loss1/loss1"
  loss_weight: 0.3
}
layer {
  name: "loss1/top-1"
  type: "Accuracy"
  bottom: "loss1/classifier"
  bottom: "label"
  top: "loss1/top-1"
  include {
    phase: TEST
  }
}
layer {
  name: "inception_4b/1x1"
  type: "Convolution"
  bottom: "inception_4a/output"
  top: "inception_4b/1x1"
  param {
    lr_mult: 1
    decay_mult: 1
  }
  param {
    lr_mult: 2
    decay_mult: 0
  }
  convolution_param {
    num_output: 160
    kernel_size: 1
    weight_filler {
      type: "xavier"
      std: 0.03
    }
    bias_filler {
      type: "constant"
      value: 0.2
    }
  }
}
layer {
  name: "inception_4b/relu_1x1"
  type: "ReLU"
  bottom: "inception_4b/1x1"
  top: "inception_4b/1x1"
}
layer {
  name: "inception_4b/3x3_reduce"
  type: "Convolution"
  bottom: "inception_4a/output"
  top: "inception_4b/3x3_reduce"
  param {
    lr_mult: 1
    decay_mult: 1
  }
  param {
    lr_mult: 2
    decay_mult: 0
  }
  convolution_param {
    num_output: 112
    kernel_size: 1
    weight_filler {
      type: "xavier"
      std: 0.09
    }
    bias_filler {
      type: "constant"
      value: 0.2
    }
  }
}
layer {
  name: "inception_4b/relu_3x3_reduce"
  type: "ReLU"
  bottom: "inception_4b/3x3_reduce"
  top: "inception_4b/3x3_reduce"
}
layer {
  name: "inception_4b/3x3"
  type: "Convolution"
  bottom: "inception_4b/3x3_reduce"
  top: "inception_4b/3x3"
  param {
    lr_mult: 1
    decay_mult: 1
  }
  param {
    lr_mult: 2
    decay_mult: 0
  }
  convolution_param {
    num_output: 224
    pad: 1
    kernel_size: 3
    weight_filler {
      type: "xavier"
      std: 0.03
    }
    bias_filler {
      type: "constant"
      value: 0.2
    }
  }
}
layer {
  name: "inception_4b/relu_3x3"
  type: "ReLU"
  bottom: "inception_4b/3x3"
  top: "inception_4b/3x3"
}
layer {
  name: "inception_4b/5x5_reduce"
  type: "Convolution"
  bottom: "inception_4a/output"
  top: "inception_4b/5x5_reduce"
  param {
    lr_mult: 1
    decay_mult: 1
  }
  param {
    lr_mult: 2
    decay_mult: 0
  }
  convolution_param {
    num_output: 24
    kernel_size: 1
    weight_filler {
      type: "xavier"
      std: 0.2
    }
    bias_filler {
      type: "constant"
      value: 0.2
    }
  }
}
layer {
  name: "inception_4b/relu_5x5_reduce"
  type: "ReLU"
  bottom: "inception_4b/5x5_reduce"
  top: "inception_4b/5x5_reduce"
}
layer {
  name: "inception_4b/5x5"
  type: "Convolution"
  bottom: "inception_4b/5x5_reduce"
  top: "inception_4b/5x5"
  param {
    lr_mult: 1
    decay_mult: 1
  }
  param {
    lr_mult: 2
    decay_mult: 0
  }
  convolution_param {
    num_output: 64
    pad: 2
    kernel_size: 5
    weight_filler {
      type: "xavier"
      std: 0.03
    }
    bias_filler {
      type: "constant"
      value: 0.2
    }
  }
}
layer {
  name: "inception_4b/relu_5x5"
  type: "ReLU"
  bottom: "inception_4b/5x5"
  top: "inception_4b/5x5"
}
layer {
  name: "inception_4b/pool"
  type: "Pooling"
  bottom: "inception_4a/output"
  top: "inception_4b/pool"
  pooling_param {
    pool: MAX
    kernel_size: 3
    stride: 1
    pad: 1
  }
}
layer {
  name: "inception_4b/pool_proj"
  type: "Convolution"
  bottom: "inception_4b/pool"
  top: "inception_4b/pool_proj"
  param {
    lr_mult: 1
    decay_mult: 1
  }
  param {
    lr_mult: 2
    decay_mult: 0
  }
  convolution_param {
    num_output: 64
    kernel_size: 1
    weight_filler {
      type: "xavier"
      std: 0.1
    }
    bias_filler {
      type: "constant"
      value: 0.2
    }
  }
}
layer {
  name: "inception_4b/relu_pool_proj"
  type: "ReLU"
  bottom: "inception_4b/pool_proj"
  top: "inception_4b/pool_proj"
}
layer {
  name: "inception_4b/output"
  type: "Concat"
  bottom: "inception_4b/1x1"
  bottom: "inception_4b/3x3"
  bottom: "inception_4b/5x5"
  bottom: "inception_4b/pool_proj"
  top: "inception_4b/output"
}
layer {
  name: "inception_4c/1x1"
  type: "Convolution"
  bottom: "inception_4b/output"
  top: "inception_4c/1x1"
  param {
    lr_mult: 1
    decay_mult: 1
  }
  param {
    lr_mult: 2
    decay_mult: 0
  }
  convolution_param {
    num_output: 128
    kernel_size: 1
    weight_filler {
      type: "xavier"
      std: 0.03
    }
    bias_filler {
      type: "constant"
      value: 0.2
    }
  }
}
layer {
  name: "inception_4c/relu_1x1"
  type: "ReLU"
  bottom: "inception_4c/1x1"
  top: "inception_4c/1x1"
}
layer {
  name: "inception_4c/3x3_reduce"
  type: "Convolution"
  bottom: "inception_4b/output"
  top: "inception_4c/3x3_reduce"
  param {
    lr_mult: 1
    decay_mult: 1
  }
  param {
    lr_mult: 2
    decay_mult: 0
  }
  convolution_param {
    num_output: 128
    kernel_size: 1
    weight_filler {
      type: "xavier"
      std: 0.09
    }
    bias_filler {
      type: "constant"
      value: 0.2
    }
  }
}
layer {
  name: "inception_4c/relu_3x3_reduce"
  type: "ReLU"
  bottom: "inception_4c/3x3_reduce"
  top: "inception_4c/3x3_reduce"
}
layer {
  name: "inception_4c/3x3"
  type: "Convolution"
  bottom: "inception_4c/3x3_reduce"
  top: "inception_4c/3x3"
  param {
    lr_mult: 1
    decay_mult: 1
  }
  param {
    lr_mult: 2
    decay_mult: 0
  }
  convolution_param {
    num_output: 256
    pad: 1
    kernel_size: 3
    weight_filler {
      type: "xavier"
      std: 0.03
    }
    bias_filler {
      type: "constant"
      value: 0.2
    }
  }
}
layer {
  name: "inception_4c/relu_3x3"
  type: "ReLU"
  bottom: "inception_4c/3x3"
  top: "inception_4c/3x3"
}
layer {
  name: "inception_4c/5x5_reduce"
  type: "Convolution"
  bottom: "inception_4b/output"
  top: "inception_4c/5x5_reduce"
  param {
    lr_mult: 1
    decay_mult: 1
  }
  param {
    lr_mult: 2
    decay_mult: 0
  }
  convolution_param {
    num_output: 24
    kernel_size: 1
    weight_filler {
      type: "xavier"
      std: 0.2
    }
    bias_filler {
      type: "constant"
      value: 0.2
    }
  }
}
layer {
  name: "inception_4c/relu_5x5_reduce"
  type: "ReLU"
  bottom: "inception_4c/5x5_reduce"
  top: "inception_4c/5x5_reduce"
}
layer {
  name: "inception_4c/5x5"
  type: "Convolution"
  bottom: "inception_4c/5x5_reduce"
  top: "inception_4c/5x5"
  param {
    lr_mult: 1
    decay_mult: 1
  }
  param {
    lr_mult: 2
    decay_mult: 0
  }
  convolution_param {
    num_output: 64
    pad: 2
    kernel_size: 5
    weight_filler {
      type: "xavier"
      std: 0.03
    }
    bias_filler {
      type: "constant"
      value: 0.2
    }
  }
}
layer {
  name: "inception_4c/relu_5x5"
  type: "ReLU"
  bottom: "inception_4c/5x5"
  top: "inception_4c/5x5"
}
layer {
  name: "inception_4c/pool"
  type: "Pooling"
  bottom: "inception_4b/output"
  top: "inception_4c/pool"
  pooling_param {
    pool: MAX
    kernel_size: 3
    stride: 1
    pad: 1
  }
}
layer {
  name: "inception_4c/pool_proj"
  type: "Convolution"
  bottom: "inception_4c/pool"
  top: "inception_4c/pool_proj"
  param {
    lr_mult: 1
    decay_mult: 1
  }
  param {
    lr_mult: 2
    decay_mult: 0
  }
  convolution_param {
    num_output: 64
    kernel_size: 1
    weight_filler {
      type: "xavier"
      std: 0.1
    }
    bias_filler {
      type: "constant"
      value: 0.2
    }
  }
}
layer {
  name: "inception_4c/relu_pool_proj"
  type: "ReLU"
  bottom: "inception_4c/pool_proj"
  top: "inception_4c/pool_proj"
}
layer {
  name: "inception_4c/output"
  type: "Concat"
  bottom: "inception_4c/1x1"
  bottom: "inception_4c/3x3"
  bottom: "inception_4c/5x5"
  bottom: "inception_4c/pool_proj"
  top: "inception_4c/output"
}
layer {
  name: "inception_4d/1x1"
  type: "Convolution"
  bottom: "inception_4c/output"
  top: "inception_4d/1x1"
  param {
    lr_mult: 1
    decay_mult: 1
  }
  param {
    lr_mult: 2
    decay_mult: 0
  }
  convolution_param {
    num_output: 112
    kernel_size: 1
    weight_filler {
      type: "xavier"
      std: 0.03
    }
    bias_filler {
      type: "constant"
      value: 0.2
    }
  }
}
layer {
  name: "inception_4d/relu_1x1"
  type: "ReLU"
  bottom: "inception_4d/1x1"
  top: "inception_4d/1x1"
}
layer {
  name: "inception_4d/3x3_reduce"
  type: "Convolution"
  bottom: "inception_4c/output"
  top: "inception_4d/3x3_reduce"
  param {
    lr_mult: 1
    decay_mult: 1
  }
  param {
    lr_mult: 2
    decay_mult: 0
  }
  convolution_param {
    num_output: 144
    kernel_size: 1
    weight_filler {
      type: "xavier"
      std: 0.09
    }
    bias_filler {
      type: "constant"
      value: 0.2
    }
  }
}
layer {
  name: "inception_4d/relu_3x3_reduce"
  type: "ReLU"
  bottom: "inception_4d/3x3_reduce"
  top: "inception_4d/3x3_reduce"
}
layer {
  name: "inception_4d/3x3"
  type: "Convolution"
  bottom: "inception_4d/3x3_reduce"
  top: "inception_4d/3x3"
  param {
    lr_mult: 1
    decay_mult: 1
  }
  param {
    lr_mult: 2
    decay_mult: 0
  }
  convolution_param {
    num_output: 288
    pad: 1
    kernel_size: 3
    weight_filler {
      type: "xavier"
      std: 0.03
    }
    bias_filler {
      type: "constant"
      value: 0.2
    }
  }
}
layer {
  name: "inception_4d/relu_3x3"
  type: "ReLU"
  bottom: "inception_4d/3x3"
  top: "inception_4d/3x3"
}
layer {
  name: "inception_4d/5x5_reduce"
  type: "Convolution"
  bottom: "inception_4c/output"
  top: "inception_4d/5x5_reduce"
  param {
    lr_mult: 1
    decay_mult: 1
  }
  param {
    lr_mult: 2
    decay_mult: 0
  }
  convolution_param {
    num_output: 32
    kernel_size: 1
    weight_filler {
      type: "xavier"
      std: 0.2
    }
    bias_filler {
      type: "constant"
      value: 0.2
    }
  }
}
layer {
  name: "inception_4d/relu_5x5_reduce"
  type: "ReLU"
  bottom: "inception_4d/5x5_reduce"
  top: "inception_4d/5x5_reduce"
}
layer {
  name: "inception_4d/5x5"
  type: "Convolution"
  bottom: "inception_4d/5x5_reduce"
  top: "inception_4d/5x5"
  param {
    lr_mult: 1
    decay_mult: 1
  }
  param {
    lr_mult: 2
    decay_mult: 0
  }
  convolution_param {
    num_output: 64
    pad: 2
    kernel_size: 5
    weight_filler {
      type: "xavier"
      std: 0.03
    }
    bias_filler {
      type: "constant"
      value: 0.2
    }
  }
}
layer {
  name: "inception_4d/relu_5x5"
  type: "ReLU"
  bottom: "inception_4d/5x5"
  top: "inception_4d/5x5"
}
layer {
  name: "inception_4d/pool"
  type: "Pooling"
  bottom: "inception_4c/output"
  top: "inception_4d/pool"
  pooling_param {
    pool: MAX
    kernel_size: 3
    stride: 1
    pad: 1
  }
}
layer {
  name: "inception_4d/pool_proj"
  type: "Convolution"
  bottom: "inception_4d/pool"
  top: "inception_4d/pool_proj"
  param {
    lr_mult: 1
    decay_mult: 1
  }
  param {
    lr_mult: 2
    decay_mult: 0
  }
  convolution_param {
    num_output: 64
    kernel_size: 1
    weight_filler {
      type: "xavier"
      std: 0.1
    }
    bias_filler {
      type: "constant"
      value: 0.2
    }
  }
}
layer {
  name: "inception_4d/relu_pool_proj"
  type: "ReLU"
  bottom: "inception_4d/pool_proj"
  top: "inception_4d/pool_proj"
}
layer {
  name: "inception_4d/output"
  type: "Concat"
  bottom: "inception_4d/1x1"
  bottom: "inception_4d/3x3"
  bottom: "inception_4d/5x5"
  bottom: "inception_4d/pool_proj"
  top: "inception_4d/output"
}
layer {
  name: "loss2/ave_pool"
  type: "Pooling"
  bottom: "inception_4d/output"
  top: "loss2/ave_pool"
  pooling_param {
    pool: AVE
    kernel_size: 5
    stride: 3
  }
}
layer {
  name: "loss2/conv"
  type: "Convolution"
  bottom: "loss2/ave_pool"
  top: "loss2/conv"
  param {
    lr_mult: 1
    decay_mult: 1
  }
  param {
    lr_mult: 2
    decay_mult: 0
  }
  convolution_param {
    num_output: 128
    kernel_size: 1
    weight_filler {
      type: "xavier"
      std: 0.08
    }
    bias_filler {
      type: "constant"
      value: 0.2
    }
  }
}
layer {
  name: "loss2/relu_conv"
  type: "ReLU"
  bottom: "loss2/conv"
  top: "loss2/conv"
}
layer {
  name: "loss2/fc"
  type: "InnerProduct"
  bottom: "loss2/conv"
  top: "loss2/fc"
  param {
    lr_mult: 1
    decay_mult: 1
  }
  param {
    lr_mult: 2
    decay_mult: 0
  }
  inner_product_param {
    num_output: 1024
    weight_filler {
      type: "xavier"
      std: 0.02
    }
    bias_filler {
      type: "constant"
      value: 0.2
    }
  }
}
layer {
  name: "loss2/relu_fc"
  type: "ReLU"
  bottom: "loss2/fc"
  top: "loss2/fc"
}
layer {
  name: "loss2/drop_fc"
  type: "Dropout"
  bottom: "loss2/fc"
  top: "loss2/fc"
  dropout_param {
    dropout_ratio: 0.7
  }
}
layer {
  name: "loss2/classifier"
  type: "InnerProduct"
  bottom: "loss2/fc"
  top: "loss2/classifier"
  param {
    lr_mult: 1
    decay_mult: 1
  }
  param {
    lr_mult: 2
    decay_mult: 0
  }
  inner_product_param {
    num_output: 2
    weight_filler {
      type: "xavier"
      std: 0.0009765625
    }
    bias_filler {
      type: "constant"
      value: 0
    }
  }
}
layer {
  name: "loss2/loss"
  type: "SoftmaxWithLoss"
  bottom: "loss2/classifier"
  bottom: "label"
  top: "loss2/loss1"
  loss_weight: 0.3
}
layer {
  name: "loss2/top-1"
  type: "Accuracy"
  bottom: "loss2/classifier"
  bottom: "label"
  top: "loss2/top-1"
  include {
    phase: TEST
  }
}
layer {
  name: "inception_4e/1x1"
  type: "Convolution"
  bottom: "inception_4d/output"
  top: "inception_4e/1x1"
  param {
    lr_mult: 1
    decay_mult: 1
  }
  param {
    lr_mult: 2
    decay_mult: 0
  }
  convolution_param {
    num_output: 256
    kernel_size: 1
    weight_filler {
      type: "xavier"
      std: 0.03
    }
    bias_filler {
      type: "constant"
      value: 0.2
    }
  }
}
layer {
  name: "inception_4e/relu_1x1"
  type: "ReLU"
  bottom: "inception_4e/1x1"
  top: "inception_4e/1x1"
}
layer {
  name: "inception_4e/3x3_reduce"
  type: "Convolution"
  bottom: "inception_4d/output"
  top: "inception_4e/3x3_reduce"
  param {
    lr_mult: 1
    decay_mult: 1
  }
  param {
    lr_mult: 2
    decay_mult: 0
  }
  convolution_param {
    num_output: 160
    kernel_size: 1
    weight_filler {
      type: "xavier"
      std: 0.09
    }
    bias_filler {
      type: "constant"
      value: 0.2
    }
  }
}
layer {
  name: "inception_4e/relu_3x3_reduce"
  type: "ReLU"
  bottom: "inception_4e/3x3_reduce"
  top: "inception_4e/3x3_reduce"
}
layer {
  name: "inception_4e/3x3"
  type: "Convolution"
  bottom: "inception_4e/3x3_reduce"
  top: "inception_4e/3x3"
  param {
    lr_mult: 1
    decay_mult: 1
  }
  param {
    lr_mult: 2
    decay_mult: 0
  }
  convolution_param {
    num_output: 320
    pad: 1
    kernel_size: 3
    weight_filler {
      type: "xavier"
      std: 0.03
    }
    bias_filler {
      type: "constant"
      value: 0.2
    }
  }
}
layer {
  name: "inception_4e/relu_3x3"
  type: "ReLU"
  bottom: "inception_4e/3x3"
  top: "inception_4e/3x3"
}
layer {
  name: "inception_4e/5x5_reduce"
  type: "Convolution"
  bottom: "inception_4d/output"
  top: "inception_4e/5x5_reduce"
  param {
    lr_mult: 1
    decay_mult: 1
  }
  param {
   
I0509 22:49:07.820973 21807 layer_factory.hpp:74] Creating layer data
I0509 22:49:07.821007 21807 net.cpp:76] Creating Layer data
I0509 22:49:07.821023 21807 net.cpp:334] data -> data
I0509 22:49:07.821054 21807 net.cpp:334] data -> label
I0509 22:49:07.821076 21807 net.cpp:105] Setting up data
I0509 22:49:07.821202 21807 db.cpp:34] Opened lmdb val_lmdb
I0509 22:49:07.821504 21807 data_layer.cpp:67] output data size: 32,3,224,224
I0509 22:49:07.828308 21807 net.cpp:112] Top shape: 32 3 224 224 (4816896)
I0509 22:49:07.828336 21807 net.cpp:112] Top shape: 32 1 1 1 (32)
I0509 22:49:07.828347 21807 layer_factory.hpp:74] Creating layer label_data_1_split
I0509 22:49:07.828366 21807 net.cpp:76] Creating Layer label_data_1_split
I0509 22:49:07.828373 21807 net.cpp:372] label_data_1_split <- label
I0509 22:49:07.828393 21807 net.cpp:334] label_data_1_split -> label_data_1_split_0
I0509 22:49:07.828408 21807 net.cpp:334] label_data_1_split -> label_data_1_split_1
I0509 22:49:07.828418 21807 net.cpp:334] label_data_1_split -> label_data_1_split_2
I0509 22:49:07.828428 21807 net.cpp:334] label_data_1_split -> label_data_1_split_3
I0509 22:49:07.828435 21807 net.cpp:334] label_data_1_split -> label_data_1_split_4
I0509 22:49:07.828445 21807 net.cpp:334] label_data_1_split -> label_data_1_split_5
I0509 22:49:07.828455 21807 net.cpp:105] Setting up label_data_1_split
I0509 22:49:07.828466 21807 net.cpp:112] Top shape: 32 1 1 1 (32)
I0509 22:49:07.828472 21807 net.cpp:112] Top shape: 32 1 1 1 (32)
I0509 22:49:07.828477 21807 net.cpp:112] Top shape: 32 1 1 1 (32)
I0509 22:49:07.828482 21807 net.cpp:112] Top shape: 32 1 1 1 (32)
I0509 22:49:07.828488 21807 net.cpp:112] Top shape: 32 1 1 1 (32)
I0509 22:49:07.828493 21807 net.cpp:112] Top shape: 32 1 1 1 (32)
I0509 22:49:07.828498 21807 layer_factory.hpp:74] Creating layer conv1/7x7_s2
I0509 22:49:07.828515 21807 net.cpp:76] Creating Layer conv1/7x7_s2
I0509 22:49:07.828521 21807 net.cpp:372] conv1/7x7_s2 <- data
I0509 22:49:07.828531 21807 net.cpp:334] conv1/7x7_s2 -> conv1/7x7_s2
I0509 22:49:07.828544 21807 net.cpp:105] Setting up conv1/7x7_s2
I0509 22:49:07.829076 21807 net.cpp:112] Top shape: 32 64 112 112 (25690112)
I0509 22:49:07.829098 21807 layer_factory.hpp:74] Creating layer conv1/relu_7x7
I0509 22:49:07.829108 21807 net.cpp:76] Creating Layer conv1/relu_7x7
I0509 22:49:07.829115 21807 net.cpp:372] conv1/relu_7x7 <- conv1/7x7_s2
I0509 22:49:07.829123 21807 net.cpp:323] conv1/relu_7x7 -> conv1/7x7_s2 (in-place)
I0509 22:49:07.829131 21807 net.cpp:105] Setting up conv1/relu_7x7
I0509 22:49:07.829139 21807 net.cpp:112] Top shape: 32 64 112 112 (25690112)
I0509 22:49:07.829145 21807 layer_factory.hpp:74] Creating layer pool1/3x3_s2
I0509 22:49:07.829188 21807 net.cpp:76] Creating Layer pool1/3x3_s2
I0509 22:49:07.829195 21807 net.cpp:372] pool1/3x3_s2 <- conv1/7x7_s2
I0509 22:49:07.829203 21807 net.cpp:334] pool1/3x3_s2 -> pool1/3x3_s2
I0509 22:49:07.829213 21807 net.cpp:105] Setting up pool1/3x3_s2
I0509 22:49:07.829228 21807 net.cpp:112] Top shape: 32 64 56 56 (6422528)
I0509 22:49:07.829236 21807 layer_factory.hpp:74] Creating layer pool1/norm1
I0509 22:49:07.829247 21807 net.cpp:76] Creating Layer pool1/norm1
I0509 22:49:07.829253 21807 net.cpp:372] pool1/norm1 <- pool1/3x3_s2
I0509 22:49:07.829260 21807 net.cpp:334] pool1/norm1 -> pool1/norm1
I0509 22:49:07.829288 21807 net.cpp:105] Setting up pool1/norm1
I0509 22:49:07.829296 21807 net.cpp:112] Top shape: 32 64 56 56 (6422528)
I0509 22:49:07.829303 21807 layer_factory.hpp:74] Creating layer conv2/3x3_reduce
I0509 22:49:07.829311 21807 net.cpp:76] Creating Layer conv2/3x3_reduce
I0509 22:49:07.829319 21807 net.cpp:372] conv2/3x3_reduce <- pool1/norm1
I0509 22:49:07.829327 21807 net.cpp:334] conv2/3x3_reduce -> conv2/3x3_reduce
I0509 22:49:07.829336 21807 net.cpp:105] Setting up conv2/3x3_reduce
I0509 22:49:07.829380 21807 net.cpp:112] Top shape: 32 64 56 56 (6422528)
I0509 22:49:07.829391 21807 layer_factory.hpp:74] Creating layer conv2/relu_3x3_reduce
I0509 22:49:07.829401 21807 net.cpp:76] Creating Layer conv2/relu_3x3_reduce
I0509 22:49:07.829406 21807 net.cpp:372] conv2/relu_3x3_reduce <- conv2/3x3_reduce
I0509 22:49:07.829413 21807 net.cpp:323] conv2/relu_3x3_reduce -> conv2/3x3_reduce (in-place)
I0509 22:49:07.829421 21807 net.cpp:105] Setting up conv2/relu_3x3_reduce
I0509 22:49:07.829427 21807 net.cpp:112] Top shape: 32 64 56 56 (6422528)
I0509 22:49:07.829432 21807 layer_factory.hpp:74] Creating layer conv2/3x3
I0509 22:49:07.829442 21807 net.cpp:76] Creating Layer conv2/3x3
I0509 22:49:07.829448 21807 net.cpp:372] conv2/3x3 <- conv2/3x3_reduce
I0509 22:49:07.829457 21807 net.cpp:334] conv2/3x3 -> conv2/3x3
I0509 22:49:07.829465 21807 net.cpp:105] Setting up conv2/3x3
I0509 22:49:07.830646 21807 net.cpp:112] Top shape: 32 192 56 56 (19267584)
I0509 22:49:07.830677 21807 layer_factory.hpp:74] Creating layer conv2/relu_3x3
I0509 22:49:07.830687 21807 net.cpp:76] Creating Layer conv2/relu_3x3
I0509 22:49:07.830694 21807 net.cpp:372] conv2/relu_3x3 <- conv2/3x3
I0509 22:49:07.830713 21807 net.cpp:323] conv2/relu_3x3 -> conv2/3x3 (in-place)
I0509 22:49:07.830728 21807 net.cpp:105] Setting up conv2/relu_3x3
I0509 22:49:07.830737 21807 net.cpp:112] Top shape: 32 192 56 56 (19267584)
I0509 22:49:07.830749 21807 layer_factory.hpp:74] Creating layer conv2/norm2
I0509 22:49:07.830763 21807 net.cpp:76] Creating Layer conv2/norm2
I0509 22:49:07.830775 21807 net.cpp:372] conv2/norm2 <- conv2/3x3
I0509 22:49:07.830790 21807 net.cpp:334] conv2/norm2 -> conv2/norm2
I0509 22:49:07.830801 21807 net.cpp:105] Setting up conv2/norm2
I0509 22:49:07.830806 21807 net.cpp:112] Top shape: 32 192 56 56 (19267584)
I0509 22:49:07.830812 21807 layer_factory.hpp:74] Creating layer pool2/3x3_s2
I0509 22:49:07.830828 21807 net.cpp:76] Creating Layer pool2/3x3_s2
I0509 22:49:07.830835 21807 net.cpp:372] pool2/3x3_s2 <- conv2/norm2
I0509 22:49:07.830844 21807 net.cpp:334] pool2/3x3_s2 -> pool2/3x3_s2
I0509 22:49:07.830852 21807 net.cpp:105] Setting up pool2/3x3_s2
I0509 22:49:07.830859 21807 net.cpp:112] Top shape: 32 192 28 28 (4816896)
I0509 22:49:07.830865 21807 layer_factory.hpp:74] Creating layer pool2/3x3_s2_pool2/3x3_s2_0_split
I0509 22:49:07.830878 21807 net.cpp:76] Creating Layer pool2/3x3_s2_pool2/3x3_s2_0_split
I0509 22:49:07.830884 21807 net.cpp:372] pool2/3x3_s2_pool2/3x3_s2_0_split <- pool2/3x3_s2
I0509 22:49:07.830895 21807 net.cpp:334] pool2/3x3_s2_pool2/3x3_s2_0_split -> pool2/3x3_s2_pool2/3x3_s2_0_split_0
I0509 22:49:07.830914 21807 net.cpp:334] pool2/3x3_s2_pool2/3x3_s2_0_split -> pool2/3x3_s2_pool2/3x3_s2_0_split_1
I0509 22:49:07.830934 21807 net.cpp:334] pool2/3x3_s2_pool2/3x3_s2_0_split -> pool2/3x3_s2_pool2/3x3_s2_0_split_2
I0509 22:49:07.830963 21807 net.cpp:334] pool2/3x3_s2_pool2/3x3_s2_0_split -> pool2/3x3_s2_pool2/3x3_s2_0_split_3
I0509 22:49:07.830972 21807 net.cpp:105] Setting up pool2/3x3_s2_pool2/3x3_s2_0_split
I0509 22:49:07.830979 21807 net.cpp:112] Top shape: 32 192 28 28 (4816896)
I0509 22:49:07.830986 21807 net.cpp:112] Top shape: 32 192 28 28 (4816896)
I0509 22:49:07.830991 21807 net.cpp:112] Top shape: 32 192 28 28 (4816896)
I0509 22:49:07.830996 21807 net.cpp:112] Top shape: 32 192 28 28 (4816896)
I0509 22:49:07.831001 21807 layer_factory.hpp:74] Creating layer inception_3a/1x1
I0509 22:49:07.831017 21807 net.cpp:76] Creating Layer inception_3a/1x1
I0509 22:49:07.831023 21807 net.cpp:372] inception_3a/1x1 <- pool2/3x3_s2_pool2/3x3_s2_0_split_0
I0509 22:49:07.831034 21807 net.cpp:334] inception_3a/1x1 -> inception_3a/1x1
I0509 22:49:07.831043 21807 net.cpp:105] Setting up inception_3a/1x1
I0509 22:49:07.831615 21807 net.cpp:112] Top shape: 32 64 28 28 (1605632)
I0509 22:49:07.831637 21807 layer_factory.hpp:74] Creating layer inception_3a/relu_1x1
I0509 22:49:07.831646 21807 net.cpp:76] Creating Layer inception_3a/relu_1x1
I0509 22:49:07.831652 21807 net.cpp:372] inception_3a/relu_1x1 <- inception_3a/1x1
I0509 22:49:07.831660 21807 net.cpp:323] inception_3a/relu_1x1 -> inception_3a/1x1 (in-place)
I0509 22:49:07.831670 21807 net.cpp:105] Setting up inception_3a/relu_1x1
I0509 22:49:07.831675 21807 net.cpp:112] Top shape: 32 64 28 28 (1605632)
I0509 22:49:07.831681 21807 layer_factory.hpp:74] Creating layer inception_3a/3x3_reduce
I0509 22:49:07.831692 21807 net.cpp:76] Creating Layer inception_3a/3x3_reduce
I0509 22:49:07.831699 21807 net.cpp:372] inception_3a/3x3_reduce <- pool2/3x3_s2_pool2/3x3_s2_0_split_1
I0509 22:49:07.831711 21807 net.cpp:334] inception_3a/3x3_reduce -> inception_3a/3x3_reduce
I0509 22:49:07.831720 21807 net.cpp:105] Setting up inception_3a/3x3_reduce
I0509 22:49:07.831892 21807 net.cpp:112] Top shape: 32 96 28 28 (2408448)
I0509 22:49:07.831908 21807 layer_factory.hpp:74] Creating layer inception_3a/relu_3x3_reduce
I0509 22:49:07.831918 21807 net.cpp:76] Creating Layer inception_3a/relu_3x3_reduce
I0509 22:49:07.831924 21807 net.cpp:372] inception_3a/relu_3x3_reduce <- inception_3a/3x3_reduce
I0509 22:49:07.831933 21807 net.cpp:323] inception_3a/relu_3x3_reduce -> inception_3a/3x3_reduce (in-place)
I0509 22:49:07.831940 21807 net.cpp:105] Setting up inception_3a/relu_3x3_reduce
I0509 22:49:07.831945 21807 net.cpp:112] Top shape: 32 96 28 28 (2408448)
I0509 22:49:07.831951 21807 layer_factory.hpp:74] Creating layer inception_3a/3x3
I0509 22:49:07.831962 21807 net.cpp:76] Creating Layer inception_3a/3x3
I0509 22:49:07.831969 21807 net.cpp:372] inception_3a/3x3 <- inception_3a/3x3_reduce
I0509 22:49:07.831979 21807 net.cpp:334] inception_3a/3x3 -> inception_3a/3x3
I0509 22:49:07.831990 21807 net.cpp:105] Setting up inception_3a/3x3
I0509 22:49:07.833569 21807 net.cpp:112] Top shape: 32 128 28 28 (3211264)
I0509 22:49:07.833593 21807 layer_factory.hpp:74] Creating layer inception_3a/relu_3x3
I0509 22:49:07.833603 21807 net.cpp:76] Creating Layer inception_3a/relu_3x3
I0509 22:49:07.833611 21807 net.cpp:372] inception_3a/relu_3x3 <- inception_3a/3x3
I0509 22:49:07.833619 21807 net.cpp:323] inception_3a/relu_3x3 -> inception_3a/3x3 (in-place)
I0509 22:49:07.833628 21807 net.cpp:105] Setting up inception_3a/relu_3x3
I0509 22:49:07.833634 21807 net.cpp:112] Top shape: 32 128 28 28 (3211264)
I0509 22:49:07.833641 21807 layer_factory.hpp:74] Creating layer inception_3a/5x5_reduce
I0509 22:49:07.833652 21807 net.cpp:76] Creating Layer inception_3a/5x5_reduce
I0509 22:49:07.833659 21807 net.cpp:372] inception_3a/5x5_reduce <- pool2/3x3_s2_pool2/3x3_s2_0_split_2
I0509 22:49:07.833669 21807 net.cpp:334] inception_3a/5x5_reduce -> inception_3a/5x5_reduce
I0509 22:49:07.833678 21807 net.cpp:105] Setting up inception_3a/5x5_reduce
I0509 22:49:07.833751 21807 net.cpp:112] Top shape: 32 16 28 28 (401408)
I0509 22:49:07.833770 21807 layer_factory.hpp:74] Creating layer inception_3a/relu_5x5_reduce
I0509 22:49:07.833780 21807 net.cpp:76] Creating Layer inception_3a/relu_5x5_reduce
I0509 22:49:07.833811 21807 net.cpp:372] inception_3a/relu_5x5_reduce <- inception_3a/5x5_reduce
I0509 22:49:07.833822 21807 net.cpp:323] inception_3a/relu_5x5_reduce -> inception_3a/5x5_reduce (in-place)
I0509 22:49:07.833832 21807 net.cpp:105] Setting up inception_3a/relu_5x5_reduce
I0509 22:49:07.833837 21807 net.cpp:112] Top shape: 32 16 28 28 (401408)
I0509 22:49:07.833842 21807 layer_factory.hpp:74] Creating layer inception_3a/5x5
I0509 22:49:07.833852 21807 net.cpp:76] Creating Layer inception_3a/5x5
I0509 22:49:07.833858 21807 net.cpp:372] inception_3a/5x5 <- inception_3a/5x5_reduce
I0509 22:49:07.833868 21807 net.cpp:334] inception_3a/5x5 -> inception_3a/5x5
I0509 22:49:07.833878 21807 net.cpp:105] Setting up inception_3a/5x5
I0509 22:49:07.834079 21807 net.cpp:112] Top shape: 32 32 28 28 (802816)
I0509 22:49:07.834096 21807 layer_factory.hpp:74] Creating layer inception_3a/relu_5x5
I0509 22:49:07.834105 21807 net.cpp:76] Creating Layer inception_3a/relu_5x5
I0509 22:49:07.834111 21807 net.cpp:372] inception_3a/relu_5x5 <- inception_3a/5x5
I0509 22:49:07.834125 21807 net.cpp:323] inception_3a/relu_5x5 -> inception_3a/5x5 (in-place)
I0509 22:49:07.834132 21807 net.cpp:105] Setting up inception_3a/relu_5x5
I0509 22:49:07.834138 21807 net.cpp:112] Top shape: 32 32 28 28 (802816)
I0509 22:49:07.834143 21807 layer_factory.hpp:74] Creating layer inception_3a/pool
I0509 22:49:07.834318 21807 net.cpp:76] Creating Layer inception_3a/pool
I0509 22:49:07.834343 21807 net.cpp:372] inception_3a/pool <- pool2/3x3_s2_pool2/3x3_s2_0_split_3
I0509 22:49:07.834363 21807 net.cpp:334] inception_3a/pool -> inception_3a/pool
I0509 22:49:07.834383 21807 net.cpp:105] Setting up inception_3a/pool
I0509 22:49:07.834398 21807 net.cpp:112] Top shape: 32 192 28 28 (4816896)
I0509 22:49:07.834410 21807 layer_factory.hpp:74] Creating layer inception_3a/pool_proj
I0509 22:49:07.834430 21807 net.cpp:76] Creating Layer inception_3a/pool_proj
I0509 22:49:07.834444 21807 net.cpp:372] inception_3a/pool_proj <- inception_3a/pool
I0509 22:49:07.834460 21807 net.cpp:334] inception_3a/pool_proj -> inception_3a/pool_proj
I0509 22:49:07.834478 21807 net.cpp:105] Setting up inception_3a/pool_proj
I0509 22:49:07.834663 21807 net.cpp:112] Top shape: 32 32 28 28 (802816)
I0509 22:49:07.834684 21807 layer_factory.hpp:74] Creating layer inception_3a/relu_pool_proj
I0509 22:49:07.834695 21807 net.cpp:76] Creating Layer inception_3a/relu_pool_proj
I0509 22:49:07.834702 21807 net.cpp:372] inception_3a/relu_pool_proj <- inception_3a/pool_proj
I0509 22:49:07.834709 21807 net.cpp:323] inception_3a/relu_pool_proj -> inception_3a/pool_proj (in-place)
I0509 22:49:07.834717 21807 net.cpp:105] Setting up inception_3a/relu_pool_proj
I0509 22:49:07.834723 21807 net.cpp:112] Top shape: 32 32 28 28 (802816)
I0509 22:49:07.834729 21807 layer_factory.hpp:74] Creating layer inception_3a/output
I0509 22:49:07.834740 21807 net.cpp:76] Creating Layer inception_3a/output
I0509 22:49:07.834746 21807 net.cpp:372] inception_3a/output <- inception_3a/1x1
I0509 22:49:07.834753 21807 net.cpp:372] inception_3a/output <- inception_3a/3x3
I0509 22:49:07.834760 21807 net.cpp:372] inception_3a/output <- inception_3a/5x5
I0509 22:49:07.834766 21807 net.cpp:372] inception_3a/output <- inception_3a/pool_proj
I0509 22:49:07.834775 21807 net.cpp:334] inception_3a/output -> inception_3a/output
I0509 22:49:07.834784 21807 net.cpp:105] Setting up inception_3a/output
I0509 22:49:07.834794 21807 net.cpp:112] Top shape: 32 256 28 28 (6422528)
I0509 22:49:07.834800 21807 layer_factory.hpp:74] Creating layer inception_3a/output_inception_3a/output_0_split
I0509 22:49:07.834807 21807 net.cpp:76] Creating Layer inception_3a/output_inception_3a/output_0_split
I0509 22:49:07.834813 21807 net.cpp:372] inception_3a/output_inception_3a/output_0_split <- inception_3a/output
I0509 22:49:07.834820 21807 net.cpp:334] inception_3a/output_inception_3a/output_0_split -> inception_3a/output_inception_3a/output_0_split_0
I0509 22:49:07.834830 21807 net.cpp:334] inception_3a/output_inception_3a/output_0_split -> inception_3a/output_inception_3a/output_0_split_1
I0509 22:49:07.834861 21807 net.cpp:334] inception_3a/output_inception_3a/output_0_split -> inception_3a/output_inception_3a/output_0_split_2
I0509 22:49:07.834871 21807 net.cpp:334] inception_3a/output_inception_3a/output_0_split -> inception_3a/output_inception_3a/output_0_split_3
I0509 22:49:07.834878 21807 net.cpp:105] Setting up inception_3a/output_inception_3a/output_0_split
I0509 22:49:07.834887 21807 net.cpp:112] Top shape: 32 256 28 28 (6422528)
I0509 22:49:07.834892 21807 net.cpp:112] Top shape: 32 256 28 28 (6422528)
I0509 22:49:07.834897 21807 net.cpp:112] Top shape: 32 256 28 28 (6422528)
I0509 22:49:07.834902 21807 net.cpp:112] Top shape: 32 256 28 28 (6422528)
I0509 22:49:07.834908 21807 layer_factory.hpp:74] Creating layer inception_3b/1x1
I0509 22:49:07.834919 21807 net.cpp:76] Creating Layer inception_3b/1x1
I0509 22:49:07.834926 21807 net.cpp:372] inception_3b/1x1 <- inception_3a/output_inception_3a/output_0_split_0
I0509 22:49:07.834938 21807 net.cpp:334] inception_3b/1x1 -> inception_3b/1x1
I0509 22:49:07.834947 21807 net.cpp:105] Setting up inception_3b/1x1
I0509 22:49:07.835242 21807 net.cpp:112] Top shape: 32 128 28 28 (3211264)
I0509 22:49:07.835257 21807 layer_factory.hpp:74] Creating layer inception_3b/relu_1x1
I0509 22:49:07.835264 21807 net.cpp:76] Creating Layer inception_3b/relu_1x1
I0509 22:49:07.835284 21807 net.cpp:372] inception_3b/relu_1x1 <- inception_3b/1x1
I0509 22:49:07.835296 21807 net.cpp:323] inception_3b/relu_1x1 -> inception_3b/1x1 (in-place)
I0509 22:49:07.835305 21807 net.cpp:105] Setting up inception_3b/relu_1x1
I0509 22:49:07.835311 21807 net.cpp:112] Top shape: 32 128 28 28 (3211264)
I0509 22:49:07.835316 21807 layer_factory.hpp:74] Creating layer inception_3b/3x3_reduce
I0509 22:49:07.835325 21807 net.cpp:76] Creating Layer inception_3b/3x3_reduce
I0509 22:49:07.835331 21807 net.cpp:372] inception_3b/3x3_reduce <- inception_3a/output_inception_3a/output_0_split_1
I0509 22:49:07.835342 21807 net.cpp:334] inception_3b/3x3_reduce -> inception_3b/3x3_reduce
I0509 22:49:07.835355 21807 net.cpp:105] Setting up inception_3b/3x3_reduce
I0509 22:49:07.835654 21807 net.cpp:112] Top shape: 32 128 28 28 (3211264)
I0509 22:49:07.835666 21807 layer_factory.hpp:74] Creating layer inception_3b/relu_3x3_reduce
I0509 22:49:07.835675 21807 net.cpp:76] Creating Layer inception_3b/relu_3x3_reduce
I0509 22:49:07.835681 21807 net.cpp:372] inception_3b/relu_3x3_reduce <- inception_3b/3x3_reduce
I0509 22:49:07.835691 21807 net.cpp:323] inception_3b/relu_3x3_reduce -> inception_3b/3x3_reduce (in-place)
I0509 22:49:07.835702 21807 net.cpp:105] Setting up inception_3b/relu_3x3_reduce
I0509 22:49:07.835708 21807 net.cpp:112] Top shape: 32 128 28 28 (3211264)
I0509 22:49:07.835714 21807 layer_factory.hpp:74] Creating layer inception_3b/3x3
I0509 22:49:07.835728 21807 net.cpp:76] Creating Layer inception_3b/3x3
I0509 22:49:07.835734 21807 net.cpp:372] inception_3b/3x3 <- inception_3b/3x3_reduce
I0509 22:49:07.835742 21807 net.cpp:334] inception_3b/3x3 -> inception_3b/3x3
I0509 22:49:07.835752 21807 net.cpp:105] Setting up inception_3b/3x3
I0509 22:49:07.837632 21807 net.cpp:112] Top shape: 32 192 28 28 (4816896)
I0509 22:49:07.837651 21807 layer_factory.hpp:74] Creating layer inception_3b/relu_3x3
I0509 22:49:07.837663 21807 net.cpp:76] Creating Layer inception_3b/relu_3x3
I0509 22:49:07.837671 21807 net.cpp:372] inception_3b/relu_3x3 <- inception_3b/3x3
I0509 22:49:07.837679 21807 net.cpp:323] inception_3b/relu_3x3 -> inception_3b/3x3 (in-place)
I0509 22:49:07.837687 21807 net.cpp:105] Setting up inception_3b/relu_3x3
I0509 22:49:07.837693 21807 net.cpp:112] Top shape: 32 192 28 28 (4816896)
I0509 22:49:07.837699 21807 layer_factory.hpp:74] Creating layer inception_3b/5x5_reduce
I0509 22:49:07.837710 21807 net.cpp:76] Creating Layer inception_3b/5x5_reduce
I0509 22:49:07.837718 21807 net.cpp:372] inception_3b/5x5_reduce <- inception_3a/output_inception_3a/output_0_split_2
I0509 22:49:07.837725 21807 net.cpp:334] inception_3b/5x5_reduce -> inception_3b/5x5_reduce
I0509 22:49:07.837766 21807 net.cpp:105] Setting up inception_3b/5x5_reduce
I0509 22:49:07.837858 21807 net.cpp:112] Top shape: 32 32 28 28 (802816)
I0509 22:49:07.837877 21807 layer_factory.hpp:74] Creating layer inception_3b/relu_5x5_reduce
I0509 22:49:07.837888 21807 net.cpp:76] Creating Layer inception_3b/relu_5x5_reduce
I0509 22:49:07.837893 21807 net.cpp:372] inception_3b/relu_5x5_reduce <- inception_3b/5x5_reduce
I0509 22:49:07.837904 21807 net.cpp:323] inception_3b/relu_5x5_reduce -> inception_3b/5x5_reduce (in-place)
I0509 22:49:07.837913 21807 net.cpp:105] Setting up inception_3b/relu_5x5_reduce
I0509 22:49:07.837940 21807 net.cpp:112] Top shape: 32 32 28 28 (802816)
I0509 22:49:07.837947 21807 layer_factory.hpp:74] Creating layer inception_3b/5x5
I0509 22:49:07.837956 21807 net.cpp:76] Creating Layer inception_3b/5x5
I0509 22:49:07.837962 21807 net.cpp:372] inception_3b/5x5 <- inception_3b/5x5_reduce
I0509 22:49:07.837973 21807 net.cpp:334] inception_3b/5x5 -> inception_3b/5x5
I0509 22:49:07.837983 21807 net.cpp:105] Setting up inception_3b/5x5
I0509 22:49:07.838649 21807 net.cpp:112] Top shape: 32 96 28 28 (2408448)
I0509 22:49:07.838665 21807 layer_factory.hpp:74] Creating layer inception_3b/relu_5x5
I0509 22:49:07.838672 21807 net.cpp:76] Creating Layer inception_3b/relu_5x5
I0509 22:49:07.838682 21807 net.cpp:372] inception_3b/relu_5x5 <- inception_3b/5x5
I0509 22:49:07.838690 21807 net.cpp:323] inception_3b/relu_5x5 -> inception_3b/5x5 (in-place)
I0509 22:49:07.838697 21807 net.cpp:105] Setting up inception_3b/relu_5x5
I0509 22:49:07.838703 21807 net.cpp:112] Top shape: 32 96 28 28 (2408448)
I0509 22:49:07.838708 21807 layer_factory.hpp:74] Creating layer inception_3b/pool
I0509 22:49:07.838721 21807 net.cpp:76] Creating Layer inception_3b/pool
I0509 22:49:07.838727 21807 net.cpp:372] inception_3b/pool <- inception_3a/output_inception_3a/output_0_split_3
I0509 22:49:07.838737 21807 net.cpp:334] inception_3b/pool -> inception_3b/pool
I0509 22:49:07.838744 21807 net.cpp:105] Setting up inception_3b/pool
I0509 22:49:07.838752 21807 net.cpp:112] Top shape: 32 256 28 28 (6422528)
I0509 22:49:07.838758 21807 layer_factory.hpp:74] Creating layer inception_3b/pool_proj
I0509 22:49:07.838769 21807 net.cpp:76] Creating Layer inception_3b/pool_proj
I0509 22:49:07.838775 21807 net.cpp:372] inception_3b/pool_proj <- inception_3b/pool
I0509 22:49:07.838783 21807 net.cpp:334] inception_3b/pool_proj -> inception_3b/pool_proj
I0509 22:49:07.838793 21807 net.cpp:105] Setting up inception_3b/pool_proj
I0509 22:49:07.838939 21807 net.cpp:112] Top shape: 32 64 28 28 (1605632)
I0509 22:49:07.838950 21807 layer_factory.hpp:74] Creating layer inception_3b/relu_pool_proj
I0509 22:49:07.838958 21807 net.cpp:76] Creating Layer inception_3b/relu_pool_proj
I0509 22:49:07.838964 21807 net.cpp:372] inception_3b/relu_pool_proj <- inception_3b/pool_proj
I0509 22:49:07.838973 21807 net.cpp:323] inception_3b/relu_pool_proj -> inception_3b/pool_proj (in-place)
I0509 22:49:07.838981 21807 net.cpp:105] Setting up inception_3b/relu_pool_proj
I0509 22:49:07.838987 21807 net.cpp:112] Top shape: 32 64 28 28 (1605632)
I0509 22:49:07.838992 21807 layer_factory.hpp:74] Creating layer inception_3b/output
I0509 22:49:07.839001 21807 net.cpp:76] Creating Layer inception_3b/output
I0509 22:49:07.839006 21807 net.cpp:372] inception_3b/output <- inception_3b/1x1
I0509 22:49:07.839014 21807 net.cpp:372] inception_3b/output <- inception_3b/3x3
I0509 22:49:07.839020 21807 net.cpp:372] inception_3b/output <- inception_3b/5x5
I0509 22:49:07.839025 21807 net.cpp:372] inception_3b/output <- inception_3b/pool_proj
I0509 22:49:07.839032 21807 net.cpp:334] inception_3b/output -> inception_3b/output
I0509 22:49:07.839043 21807 net.cpp:105] Setting up inception_3b/output
I0509 22:49:07.839049 21807 net.cpp:112] Top shape: 32 480 28 28 (12042240)
I0509 22:49:07.839056 21807 layer_factory.hpp:74] Creating layer pool3/3x3_s2
I0509 22:49:07.839063 21807 net.cpp:76] Creating Layer pool3/3x3_s2
I0509 22:49:07.839069 21807 net.cpp:372] pool3/3x3_s2 <- inception_3b/output
I0509 22:49:07.839092 21807 net.cpp:334] pool3/3x3_s2 -> pool3/3x3_s2
I0509 22:49:07.839102 21807 net.cpp:105] Setting up pool3/3x3_s2
I0509 22:49:07.839108 21807 net.cpp:112] Top shape: 32 480 14 14 (3010560)
I0509 22:49:07.839114 21807 layer_factory.hpp:74] Creating layer pool3/3x3_s2_pool3/3x3_s2_0_split
I0509 22:49:07.839123 21807 net.cpp:76] Creating Layer pool3/3x3_s2_pool3/3x3_s2_0_split
I0509 22:49:07.839128 21807 net.cpp:372] pool3/3x3_s2_pool3/3x3_s2_0_split <- pool3/3x3_s2
I0509 22:49:07.839138 21807 net.cpp:334] pool3/3x3_s2_pool3/3x3_s2_0_split -> pool3/3x3_s2_pool3/3x3_s2_0_split_0
I0509 22:49:07.839148 21807 net.cpp:334] pool3/3x3_s2_pool3/3x3_s2_0_split -> pool3/3x3_s2_pool3/3x3_s2_0_split_1
I0509 22:49:07.839156 21807 net.cpp:334] pool3/3x3_s2_pool3/3x3_s2_0_split -> pool3/3x3_s2_pool3/3x3_s2_0_split_2
I0509 22:49:07.839928 21807 net.cpp:334] pool3/3x3_s2_pool3/3x3_s2_0_split -> pool3/3x3_s2_pool3/3x3_s2_0_split_3
I0509 22:49:07.839938 21807 net.cpp:105] Setting up pool3/3x3_s2_pool3/3x3_s2_0_split
I0509 22:49:07.839946 21807 net.cpp:112] Top shape: 32 480 14 14 (3010560)
I0509 22:49:07.839951 21807 net.cpp:112] Top shape: 32 480 14 14 (3010560)
I0509 22:49:07.839956 21807 net.cpp:112] Top shape: 32 480 14 14 (3010560)
I0509 22:49:07.839962 21807 net.cpp:112] Top shape: 32 480 14 14 (3010560)
I0509 22:49:07.839967 21807 layer_factory.hpp:74] Creating layer inception_4a/1x1
I0509 22:49:07.839985 21807 net.cpp:76] Creating Layer inception_4a/1x1
I0509 22:49:07.839993 21807 net.cpp:372] inception_4a/1x1 <- pool3/3x3_s2_pool3/3x3_s2_0_split_0
I0509 22:49:07.840003 21807 net.cpp:334] inception_4a/1x1 -> inception_4a/1x1
I0509 22:49:07.840013 21807 net.cpp:105] Setting up inception_4a/1x1
I0509 22:49:07.840826 21807 net.cpp:112] Top shape: 32 192 14 14 (1204224)
I0509 22:49:07.840843 21807 layer_factory.hpp:74] Creating layer inception_4a/relu_1x1
I0509 22:49:07.840852 21807 net.cpp:76] Creating Layer inception_4a/relu_1x1
I0509 22:49:07.840857 21807 net.cpp:372] inception_4a/relu_1x1 <- inception_4a/1x1
I0509 22:49:07.840865 21807 net.cpp:323] inception_4a/relu_1x1 -> inception_4a/1x1 (in-place)
I0509 22:49:07.840873 21807 net.cpp:105] Setting up inception_4a/relu_1x1
I0509 22:49:07.840878 21807 net.cpp:112] Top shape: 32 192 14 14 (1204224)
I0509 22:49:07.840884 21807 layer_factory.hpp:74] Creating layer inception_4a/3x3_reduce
I0509 22:49:07.840895 21807 net.cpp:76] Creating Layer inception_4a/3x3_reduce
I0509 22:49:07.840901 21807 net.cpp:372] inception_4a/3x3_reduce <- pool3/3x3_s2_pool3/3x3_s2_0_split_1
I0509 22:49:07.840910 21807 net.cpp:334] inception_4a/3x3_reduce -> inception_4a/3x3_reduce
I0509 22:49:07.840919 21807 net.cpp:105] Setting up inception_4a/3x3_reduce
I0509 22:49:07.841328 21807 net.cpp:112] Top shape: 32 96 14 14 (602112)
I0509 22:49:07.841348 21807 layer_factory.hpp:74] Creating layer inception_4a/relu_3x3_reduce
I0509 22:49:07.841357 21807 net.cpp:76] Creating Layer inception_4a/relu_3x3_reduce
I0509 22:49:07.841363 21807 net.cpp:372] inception_4a/relu_3x3_reduce <- inception_4a/3x3_reduce
I0509 22:49:07.841372 21807 net.cpp:323] inception_4a/relu_3x3_reduce -> inception_4a/3x3_reduce (in-place)
I0509 22:49:07.841382 21807 net.cpp:105] Setting up inception_4a/relu_3x3_reduce
I0509 22:49:07.841387 21807 net.cpp:112] Top shape: 32 96 14 14 (602112)
I0509 22:49:07.841393 21807 layer_factory.hpp:74] Creating layer inception_4a/3x3
I0509 22:49:07.841402 21807 net.cpp:76] Creating Layer inception_4a/3x3
I0509 22:49:07.841406 21807 net.cpp:372] inception_4a/3x3 <- inception_4a/3x3_reduce
I0509 22:49:07.841414 21807 net.cpp:334] inception_4a/3x3 -> inception_4a/3x3
I0509 22:49:07.841426 21807 net.cpp:105] Setting up inception_4a/3x3
I0509 22:49:07.843014 21807 net.cpp:112] Top shape: 32 208 14 14 (1304576)
I0509 22:49:07.843034 21807 layer_factory.hpp:74] Creating layer inception_4a/relu_3x3
I0509 22:49:07.843045 21807 net.cpp:76] Creating Layer inception_4a/relu_3x3
I0509 22:49:07.843053 21807 net.cpp:372] inception_4a/relu_3x3 <- inception_4a/3x3
I0509 22:49:07.843094 21807 net.cpp:323] inception_4a/relu_3x3 -> inception_4a/3x3 (in-place)
I0509 22:49:07.843112 21807 net.cpp:105] Setting up inception_4a/relu_3x3
I0509 22:49:07.843123 21807 net.cpp:112] Top shape: 32 208 14 14 (1304576)
I0509 22:49:07.843132 21807 layer_factory.hpp:74] Creating layer inception_4a/5x5_reduce
I0509 22:49:07.843144 21807 net.cpp:76] Creating Layer inception_4a/5x5_reduce
I0509 22:49:07.843152 21807 net.cpp:372] inception_4a/5x5_reduce <- pool3/3x3_s2_pool3/3x3_s2_0_split_2
I0509 22:49:07.843164 21807 net.cpp:334] inception_4a/5x5_reduce -> inception_4a/5x5_reduce
I0509 22:49:07.843183 21807 net.cpp:105] Setting up inception_4a/5x5_reduce
I0509 22:49:07.843302 21807 net.cpp:112] Top shape: 32 16 14 14 (100352)
I0509 22:49:07.843317 21807 layer_factory.hpp:74] Creating layer inception_4a/relu_5x5_reduce
I0509 22:49:07.843325 21807 net.cpp:76] Creating Layer inception_4a/relu_5x5_reduce
I0509 22:49:07.843332 21807 net.cpp:372] inception_4a/relu_5x5_reduce <- inception_4a/5x5_reduce
I0509 22:49:07.843339 21807 net.cpp:323] inception_4a/relu_5x5_reduce -> inception_4a/5x5_reduce (in-place)
I0509 22:49:07.843348 21807 net.cpp:105] Setting up inception_4a/relu_5x5_reduce
I0509 22:49:07.843353 21807 net.cpp:112] Top shape: 32 16 14 14 (100352)
I0509 22:49:07.843358 21807 layer_factory.hpp:74] Creating layer inception_4a/5x5
I0509 22:49:07.843369 21807 net.cpp:76] Creating Layer inception_4a/5x5
I0509 22:49:07.843375 21807 net.cpp:372] inception_4a/5x5 <- inception_4a/5x5_reduce
I0509 22:49:07.843385 21807 net.cpp:334] inception_4a/5x5 -> inception_4a/5x5
I0509 22:49:07.843400 21807 net.cpp:105] Setting up inception_4a/5x5
I0509 22:49:07.843624 21807 net.cpp:112] Top shape: 32 48 14 14 (301056)
I0509 22:49:07.843647 21807 layer_factory.hpp:74] Creating layer inception_4a/relu_5x5
I0509 22:49:07.843664 21807 net.cpp:76] Creating Layer inception_4a/relu_5x5
I0509 22:49:07.843677 21807 net.cpp:372] inception_4a/relu_5x5 <- inception_4a/5x5
I0509 22:49:07.843688 21807 net.cpp:323] inception_4a/relu_5x5 -> inception_4a/5x5 (in-place)
I0509 22:49:07.843698 21807 net.cpp:105] Setting up inception_4a/relu_5x5
I0509 22:49:07.843708 21807 net.cpp:112] Top shape: 32 48 14 14 (301056)
I0509 22:49:07.843719 21807 layer_factory.hpp:74] Creating layer inception_4a/pool
I0509 22:49:07.843746 21807 net.cpp:76] Creating Layer inception_4a/pool
I0509 22:49:07.843756 21807 net.cpp:372] inception_4a/pool <- pool3/3x3_s2_pool3/3x3_s2_0_split_3
I0509 22:49:07.843765 21807 net.cpp:334] inception_4a/pool -> inception_4a/pool
I0509 22:49:07.843775 21807 net.cpp:105] Setting up inception_4a/pool
I0509 22:49:07.843783 21807 net.cpp:112] Top shape: 32 480 14 14 (3010560)
I0509 22:49:07.843790 21807 layer_factory.hpp:74] Creating layer inception_4a/pool_proj
I0509 22:49:07.843801 21807 net.cpp:76] Creating Layer inception_4a/pool_proj
I0509 22:49:07.843807 21807 net.cpp:372] inception_4a/pool_proj <- inception_4a/pool
I0509 22:49:07.843816 21807 net.cpp:334] inception_4a/pool_proj -> inception_4a/pool_proj
I0509 22:49:07.843824 21807 net.cpp:105] Setting up inception_4a/pool_proj
I0509 22:49:07.844140 21807 net.cpp:112] Top shape: 32 64 14 14 (401408)
I0509 22:49:07.844161 21807 layer_factory.hpp:74] Creating layer inception_4a/relu_pool_proj
I0509 22:49:07.844172 21807 net.cpp:76] Creating Layer inception_4a/relu_pool_proj
I0509 22:49:07.844182 21807 net.cpp:372] inception_4a/relu_pool_proj <- inception_4a/pool_proj
I0509 22:49:07.844188 21807 net.cpp:323] inception_4a/relu_pool_proj -> inception_4a/pool_proj (in-place)
I0509 22:49:07.844197 21807 net.cpp:105] Setting up inception_4a/relu_pool_proj
I0509 22:49:07.844203 21807 net.cpp:112] Top shape: 32 64 14 14 (401408)
I0509 22:49:07.844208 21807 layer_factory.hpp:74] Creating layer inception_4a/output
I0509 22:49:07.844216 21807 net.cpp:76] Creating Layer inception_4a/output
I0509 22:49:07.844223 21807 net.cpp:372] inception_4a/output <- inception_4a/1x1
I0509 22:49:07.844229 21807 net.cpp:372] inception_4a/output <- inception_4a/3x3
I0509 22:49:07.844236 21807 net.cpp:372] inception_4a/output <- inception_4a/5x5
I0509 22:49:07.844256 21807 net.cpp:372] inception_4a/output <- inception_4a/pool_proj
I0509 22:49:07.844265 21807 net.cpp:334] inception_4a/output -> inception_4a/output
I0509 22:49:07.844394 21807 net.cpp:105] Setting up inception_4a/output
I0509 22:49:07.844413 21807 net.cpp:112] Top shape: 32 512 14 14 (3211264)
I0509 22:49:07.844419 21807 layer_factory.hpp:74] Creating layer inception_4a/output_inception_4a/output_0_split
I0509 22:49:07.844436 21807 net.cpp:76] Creating Layer inception_4a/output_inception_4a/output_0_split
I0509 22:49:07.844444 21807 net.cpp:372] inception_4a/output_inception_4a/output_0_split <- inception_4a/output
I0509 22:49:07.844452 21807 net.cpp:334] inception_4a/output_inception_4a/output_0_split -> inception_4a/output_inception_4a/output_0_split_0
I0509 22:49:07.844463 21807 net.cpp:334] inception_4a/output_inception_4a/output_0_split -> inception_4a/output_inception_4a/output_0_split_1
I0509 22:49:07.844472 21807 net.cpp:334] inception_4a/output_inception_4a/output_0_split -> inception_4a/output_inception_4a/output_0_split_2
I0509 22:49:07.844482 21807 net.cpp:334] inception_4a/output_inception_4a/output_0_split -> inception_4a/output_inception_4a/output_0_split_3
I0509 22:49:07.844507 21807 net.cpp:334] inception_4a/output_inception_4a/output_0_split -> inception_4a/output_inception_4a/output_0_split_4
I0509 22:49:07.844518 21807 net.cpp:105] Setting up inception_4a/output_inception_4a/output_0_split
I0509 22:49:07.844526 21807 net.cpp:112] Top shape: 32 512 14 14 (3211264)
I0509 22:49:07.844530 21807 net.cpp:112] Top shape: 32 512 14 14 (3211264)
I0509 22:49:07.844537 21807 net.cpp:112] Top shape: 32 512 14 14 (3211264)
I0509 22:49:07.844542 21807 net.cpp:112] Top shape: 32 512 14 14 (3211264)
I0509 22:49:07.844547 21807 net.cpp:112] Top shape: 32 512 14 14 (3211264)
I0509 22:49:07.844552 21807 layer_factory.hpp:74] Creating layer loss1/ave_pool
I0509 22:49:07.844559 21807 net.cpp:76] Creating Layer loss1/ave_pool
I0509 22:49:07.844564 21807 net.cpp:372] loss1/ave_pool <- inception_4a/output_inception_4a/output_0_split_0
I0509 22:49:07.844574 21807 net.cpp:334] loss1/ave_pool -> loss1/ave_pool
I0509 22:49:07.844584 21807 net.cpp:105] Setting up loss1/ave_pool
I0509 22:49:07.844590 21807 net.cpp:112] Top shape: 32 512 4 4 (262144)
I0509 22:49:07.844596 21807 layer_factory.hpp:74] Creating layer loss1/conv
I0509 22:49:07.844609 21807 net.cpp:76] Creating Layer loss1/conv
I0509 22:49:07.844614 21807 net.cpp:372] loss1/conv <- loss1/ave_pool
I0509 22:49:07.844625 21807 net.cpp:334] loss1/conv -> loss1/conv
I0509 22:49:07.844635 21807 net.cpp:105] Setting up loss1/conv
I0509 22:49:07.845199 21807 net.cpp:112] Top shape: 32 128 4 4 (65536)
I0509 22:49:07.845214 21807 layer_factory.hpp:74] Creating layer loss1/relu_conv
I0509 22:49:07.845228 21807 net.cpp:76] Creating Layer loss1/relu_conv
I0509 22:49:07.845237 21807 net.cpp:372] loss1/relu_conv <- loss1/conv
I0509 22:49:07.845247 21807 net.cpp:323] loss1/relu_conv -> loss1/conv (in-place)
I0509 22:49:07.845257 21807 net.cpp:105] Setting up loss1/relu_conv
I0509 22:49:07.845263 21807 net.cpp:112] Top shape: 32 128 4 4 (65536)
I0509 22:49:07.845268 21807 layer_factory.hpp:74] Creating layer loss1/fc
I0509 22:49:07.845516 21807 net.cpp:76] Creating Layer loss1/fc
I0509 22:49:07.845523 21807 net.cpp:372] loss1/fc <- loss1/conv
I0509 22:49:07.845535 21807 net.cpp:334] loss1/fc -> loss1/fc
I0509 22:49:07.845548 21807 net.cpp:105] Setting up loss1/fc
I0509 22:49:07.863167 21807 net.cpp:112] Top shape: 32 1024 1 1 (32768)
I0509 22:49:07.863209 21807 layer_factory.hpp:74] Creating layer loss1/relu_fc
I0509 22:49:07.863224 21807 net.cpp:76] Creating Layer loss1/relu_fc
I0509 22:49:07.863231 21807 net.cpp:372] loss1/relu_fc <- loss1/fc
I0509 22:49:07.863245 21807 net.cpp:323] loss1/relu_fc -> loss1/fc (in-place)
I0509 22:49:07.863255 21807 net.cpp:105] Setting up loss1/relu_fc
I0509 22:49:07.863262 21807 net.cpp:112] Top shape: 32 1024 1 1 (32768)
I0509 22:49:07.863268 21807 layer_factory.hpp:74] Creating layer loss1/drop_fc
I0509 22:49:07.863345 21807 net.cpp:76] Creating Layer loss1/drop_fc
I0509 22:49:07.863353 21807 net.cpp:372] loss1/drop_fc <- loss1/fc
I0509 22:49:07.863361 21807 net.cpp:323] loss1/drop_fc -> loss1/fc (in-place)
I0509 22:49:07.863373 21807 net.cpp:105] Setting up loss1/drop_fc
I0509 22:49:07.863384 21807 net.cpp:112] Top shape: 32 1024 1 1 (32768)
I0509 22:49:07.863391 21807 layer_factory.hpp:74] Creating layer loss1/classifier
I0509 22:49:07.863401 21807 net.cpp:76] Creating Layer loss1/classifier
I0509 22:49:07.863407 21807 net.cpp:372] loss1/classifier <- loss1/fc
I0509 22:49:07.863418 21807 net.cpp:334] loss1/classifier -> loss1/classifier
I0509 22:49:07.863430 21807 net.cpp:105] Setting up loss1/classifier
I0509 22:49:07.863466 21807 net.cpp:112] Top shape: 32 2 1 1 (64)
I0509 22:49:07.863476 21807 layer_factory.hpp:74] Creating layer loss1/classifier_loss1/classifier_0_split
I0509 22:49:07.863487 21807 net.cpp:76] Creating Layer loss1/classifier_loss1/classifier_0_split
I0509 22:49:07.863493 21807 net.cpp:372] loss1/classifier_loss1/classifier_0_split <- loss1/classifier
I0509 22:49:07.863503 21807 net.cpp:334] loss1/classifier_loss1/classifier_0_split -> loss1/classifier_loss1/classifier_0_split_0
I0509 22:49:07.863513 21807 net.cpp:334] loss1/classifier_loss1/classifier_0_split -> loss1/classifier_loss1/classifier_0_split_1
I0509 22:49:07.863522 21807 net.cpp:105] Setting up loss1/classifier_loss1/classifier_0_split
I0509 22:49:07.863528 21807 net.cpp:112] Top shape: 32 2 1 1 (64)
I0509 22:49:07.863534 21807 net.cpp:112] Top shape: 32 2 1 1 (64)
I0509 22:49:07.863539 21807 layer_factory.hpp:74] Creating layer loss1/loss
I0509 22:49:07.863550 21807 net.cpp:76] Creating Layer loss1/loss
I0509 22:49:07.863556 21807 net.cpp:372] loss1/loss <- loss1/classifier_loss1/classifier_0_split_0
I0509 22:49:07.863564 21807 net.cpp:372] loss1/loss <- label_data_1_split_0
I0509 22:49:07.863576 21807 net.cpp:334] loss1/loss -> loss1/loss1
I0509 22:49:07.863589 21807 net.cpp:105] Setting up loss1/loss
I0509 22:49:07.863600 21807 layer_factory.hpp:74] Creating layer loss1/loss
I0509 22:49:07.863618 21807 net.cpp:112] Top shape: 1 1 1 1 (1)
I0509 22:49:07.863626 21807 net.cpp:118]     with loss weight 0.3
I0509 22:49:07.863662 21807 layer_factory.hpp:74] Creating layer loss1/top-1
I0509 22:49:07.863673 21807 net.cpp:76] Creating Layer loss1/top-1
I0509 22:49:07.863680 21807 net.cpp:372] loss1/top-1 <- loss1/classifier_loss1/classifier_0_split_1
I0509 22:49:07.863687 21807 net.cpp:372] loss1/top-1 <- label_data_1_split_1
I0509 22:49:07.863695 21807 net.cpp:334] loss1/top-1 -> loss1/top-1
I0509 22:49:07.863715 21807 net.cpp:105] Setting up loss1/top-1
I0509 22:49:07.863725 21807 net.cpp:112] Top shape: 1 1 1 1 (1)
I0509 22:49:07.863731 21807 layer_factory.hpp:74] Creating layer inception_4b/1x1
I0509 22:49:07.863741 21807 net.cpp:76] Creating Layer inception_4b/1x1
I0509 22:49:07.863749 21807 net.cpp:372] inception_4b/1x1 <- inception_4a/output_inception_4a/output_0_split_1
I0509 22:49:07.863759 21807 net.cpp:334] inception_4b/1x1 -> inception_4b/1x1
I0509 22:49:07.863767 21807 net.cpp:105] Setting up inception_4b/1x1
I0509 22:49:07.864466 21807 net.cpp:112] Top shape: 32 160 14 14 (1003520)
I0509 22:49:07.864480 21807 layer_factory.hpp:74] Creating layer inception_4b/relu_1x1
I0509 22:49:07.864490 21807 net.cpp:76] Creating Layer inception_4b/relu_1x1
I0509 22:49:07.864495 21807 net.cpp:372] inception_4b/relu_1x1 <- inception_4b/1x1
I0509 22:49:07.864502 21807 net.cpp:323] inception_4b/relu_1x1 -> inception_4b/1x1 (in-place)
I0509 22:49:07.864511 21807 net.cpp:105] Setting up inception_4b/relu_1x1
I0509 22:49:07.864516 21807 net.cpp:112] Top shape: 32 160 14 14 (1003520)
I0509 22:49:07.864522 21807 layer_factory.hpp:74] Creating layer inception_4b/3x3_reduce
I0509 22:49:07.864552 21807 net.cpp:76] Creating Layer inception_4b/3x3_reduce
I0509 22:49:07.864560 21807 net.cpp:372] inception_4b/3x3_reduce <- inception_4a/output_inception_4a/output_0_split_2
I0509 22:49:07.864569 21807 net.cpp:334] inception_4b/3x3_reduce -> inception_4b/3x3_reduce
I0509 22:49:07.864593 21807 net.cpp:105] Setting up inception_4b/3x3_reduce
I0509 22:49:07.865083 21807 net.cpp:112] Top shape: 32 112 14 14 (702464)
I0509 22:49:07.865097 21807 layer_factory.hpp:74] Creating layer inception_4b/relu_3x3_reduce
I0509 22:49:07.865105 21807 net.cpp:76] Creating Layer inception_4b/relu_3x3_reduce
I0509 22:49:07.865113 21807 net.cpp:372] inception_4b/relu_3x3_reduce <- inception_4b/3x3_reduce
I0509 22:49:07.865121 21807 net.cpp:323] inception_4b/relu_3x3_reduce -> inception_4b/3x3_reduce (in-place)
I0509 22:49:07.865130 21807 net.cpp:105] Setting up inception_4b/relu_3x3_reduce
I0509 22:49:07.865136 21807 net.cpp:112] Top shape: 32 112 14 14 (702464)
I0509 22:49:07.865141 21807 layer_factory.hpp:74] Creating layer inception_4b/3x3
I0509 22:49:07.865150 21807 net.cpp:76] Creating Layer inception_4b/3x3
I0509 22:49:07.865155 21807 net.cpp:372] inception_4b/3x3 <- inception_4b/3x3_reduce
I0509 22:49:07.865166 21807 net.cpp:334] inception_4b/3x3 -> inception_4b/3x3
I0509 22:49:07.865175 21807 net.cpp:105] Setting up inception_4b/3x3
I0509 22:49:07.867097 21807 net.cpp:112] Top shape: 32 224 14 14 (1404928)
I0509 22:49:07.867117 21807 layer_factory.hpp:74] Creating layer inception_4b/relu_3x3
I0509 22:49:07.867127 21807 net.cpp:76] Creating Layer inception_4b/relu_3x3
I0509 22:49:07.867133 21807 net.cpp:372] inception_4b/relu_3x3 <- inception_4b/3x3
I0509 22:49:07.867141 21807 net.cpp:323] inception_4b/relu_3x3 -> inception_4b/3x3 (in-place)
I0509 22:49:07.867149 21807 net.cpp:105] Setting up inception_4b/relu_3x3
I0509 22:49:07.867154 21807 net.cpp:112] Top shape: 32 224 14 14 (1404928)
I0509 22:49:07.867161 21807 layer_factory.hpp:74] Creating layer inception_4b/5x5_reduce
I0509 22:49:07.867171 21807 net.cpp:76] Creating Layer inception_4b/5x5_reduce
I0509 22:49:07.867177 21807 net.cpp:372] inception_4b/5x5_reduce <- inception_4a/output_inception_4a/output_0_split_3
I0509 22:49:07.867187 21807 net.cpp:334] inception_4b/5x5_reduce -> inception_4b/5x5_reduce
I0509 22:49:07.867197 21807 net.cpp:105] Setting up inception_4b/5x5_reduce
I0509 22:49:07.867326 21807 net.cpp:112] Top shape: 32 24 14 14 (150528)
I0509 22:49:07.867337 21807 layer_factory.hpp:74] Creating layer inception_4b/relu_5x5_reduce
I0509 22:49:07.867347 21807 net.cpp:76] Creating Layer inception_4b/relu_5x5_reduce
I0509 22:49:07.867354 21807 net.cpp:372] inception_4b/relu_5x5_reduce <- inception_4b/5x5_reduce
I0509 22:49:07.867362 21807 net.cpp:323] inception_4b/relu_5x5_reduce -> inception_4b/5x5_reduce (in-place)
I0509 22:49:07.867369 21807 net.cpp:105] Setting up inception_4b/relu_5x5_reduce
I0509 22:49:07.867374 21807 net.cpp:112] Top shape: 32 24 14 14 (150528)
I0509 22:49:07.867380 21807 layer_factory.hpp:74] Creating layer inception_4b/5x5
I0509 22:49:07.867390 21807 net.cpp:76] Creating Layer inception_4b/5x5
I0509 22:49:07.867396 21807 net.cpp:372] inception_4b/5x5 <- inception_4b/5x5_reduce
I0509 22:49:07.867404 21807 net.cpp:334] inception_4b/5x5 -> inception_4b/5x5
I0509 22:49:07.867413 21807 net.cpp:105] Setting up inception_4b/5x5
I0509 22:49:07.867749 21807 net.cpp:112] Top shape: 32 64 14 14 (401408)
I0509 22:49:07.867763 21807 layer_factory.hpp:74] Creating layer inception_4b/relu_5x5
I0509 22:49:07.867770 21807 net.cpp:76] Creating Layer inception_4b/relu_5x5
I0509 22:49:07.867776 21807 net.cpp:372] inception_4b/relu_5x5 <- inception_4b/5x5
I0509 22:49:07.867784 21807 net.cpp:323] inception_4b/relu_5x5 -> inception_4b/5x5 (in-place)
I0509 22:49:07.867791 21807 net.cpp:105] Setting up inception_4b/relu_5x5
I0509 22:49:07.867796 21807 net.cpp:112] Top shape: 32 64 14 14 (401408)
I0509 22:49:07.867802 21807 layer_factory.hpp:74] Creating layer inception_4b/pool
I0509 22:49:07.867813 21807 net.cpp:76] Creating Layer inception_4b/pool
I0509 22:49:07.867820 21807 net.cpp:372] inception_4b/pool <- inception_4a/output_inception_4a/output_0_split_4
I0509 22:49:07.867827 21807 net.cpp:334] inception_4b/pool -> inception_4b/pool
I0509 22:49:07.867836 21807 net.cpp:105] Setting up inception_4b/pool
I0509 22:49:07.867941 21807 net.cpp:112] Top shape: 32 512 14 14 (3211264)
I0509 22:49:07.867949 21807 layer_factory.hpp:74] Creating layer inception_4b/pool_proj
I0509 22:49:07.867962 21807 net.cpp:76] Creating Layer inception_4b/pool_proj
I0509 22:49:07.867969 21807 net.cpp:372] inception_4b/pool_proj <- inception_4b/pool
I0509 22:49:07.867977 21807 net.cpp:334] inception_4b/pool_proj -> inception_4b/pool_proj
I0509 22:49:07.867990 21807 net.cpp:105] Setting up inception_4b/pool_proj
I0509 22:49:07.868285 21807 net.cpp:112] Top shape: 32 64 14 14 (401408)
I0509 22:49:07.868299 21807 layer_factory.hpp:74] Creating layer inception_4b/relu_pool_proj
I0509 22:49:07.868309 21807 net.cpp:76] Creating Layer inception_4b/relu_pool_proj
I0509 22:49:07.868316 21807 net.cpp:372] inception_4b/relu_pool_proj <- inception_4b/pool_proj
I0509 22:49:07.868324 21807 net.cpp:323] inception_4b/relu_pool_proj -> inception_4b/pool_proj (in-place)
I0509 22:49:07.868331 21807 net.cpp:105] Setting up inception_4b/relu_pool_proj
I0509 22:49:07.868336 21807 net.cpp:112] Top shape: 32 64 14 14 (401408)
I0509 22:49:07.868342 21807 layer_factory.hpp:74] Creating layer inception_4b/output
I0509 22:49:07.868350 21807 net.cpp:76] Creating Layer inception_4b/output
I0509 22:49:07.868356 21807 net.cpp:372] inception_4b/output <- inception_4b/1x1
I0509 22:49:07.868363 21807 net.cpp:372] inception_4b/output <- inception_4b/3x3
I0509 22:49:07.868369 21807 net.cpp:372] inception_4b/output <- inception_4b/5x5
I0509 22:49:07.868376 21807 net.cpp:372] inception_4b/output <- inception_4b/pool_proj
I0509 22:49:07.868382 21807 net.cpp:334] inception_4b/output -> inception_4b/output
I0509 22:49:07.868391 21807 net.cpp:105] Setting up inception_4b/output
I0509 22:49:07.868397 21807 net.cpp:112] Top shape: 32 512 14 14 (3211264)
I0509 22:49:07.868402 21807 layer_factory.hpp:74] Creating layer inception_4b/output_inception_4b/output_0_split
I0509 22:49:07.868413 21807 net.cpp:76] Creating Layer inception_4b/output_inception_4b/output_0_split
I0509 22:49:07.868419 21807 net.cpp:372] inception_4b/output_inception_4b/output_0_split <- inception_4b/output
I0509 22:49:07.868428 21807 net.cpp:334] inception_4b/output_inception_4b/output_0_split -> inception_4b/output_inception_4b/output_0_split_0
I0509 22:49:07.868438 21807 net.cpp:334] inception_4b/output_inception_4b/output_0_split -> inception_4b/output_inception_4b/output_0_split_1
I0509 22:49:07.868446 21807 net.cpp:334] inception_4b/output_inception_4b/output_0_split -> inception_4b/output_inception_4b/output_0_split_2
I0509 22:49:07.868455 21807 net.cpp:334] inception_4b/output_inception_4b/output_0_split -> inception_4b/output_inception_4b/output_0_split_3
I0509 22:49:07.868465 21807 net.cpp:105] Setting up inception_4b/output_inception_4b/output_0_split
I0509 22:49:07.868473 21807 net.cpp:112] Top shape: 32 512 14 14 (3211264)
I0509 22:49:07.868479 21807 net.cpp:112] Top shape: 32 512 14 14 (3211264)
I0509 22:49:07.868484 21807 net.cpp:112] Top shape: 32 512 14 14 (3211264)
I0509 22:49:07.868489 21807 net.cpp:112] Top shape: 32 512 14 14 (3211264)
I0509 22:49:07.868494 21807 layer_factory.hpp:74] Creating layer inception_4c/1x1
I0509 22:49:07.868502 21807 net.cpp:76] Creating Layer inception_4c/1x1
I0509 22:49:07.868507 21807 net.cpp:372] inception_4c/1x1 <- inception_4b/output_inception_4b/output_0_split_0
I0509 22:49:07.868518 21807 net.cpp:334] inception_4c/1x1 -> inception_4c/1x1
I0509 22:49:07.868527 21807 net.cpp:105] Setting up inception_4c/1x1
I0509 22:49:07.869088 21807 net.cpp:112] Top shape: 32 128 14 14 (802816)
I0509 22:49:07.869102 21807 layer_factory.hpp:74] Creating layer inception_4c/relu_1x1
I0509 22:49:07.869110 21807 net.cpp:76] Creating Layer inception_4c/relu_1x1
I0509 22:49:07.869135 21807 net.cpp:372] inception_4c/relu_1x1 <- inception_4c/1x1
I0509 22:49:07.869144 21807 net.cpp:323] inception_4c/relu_1x1 -> inception_4c/1x1 (in-place)
I0509 22:49:07.869153 21807 net.cpp:105] Setting up inception_4c/relu_1x1
I0509 22:49:07.869158 21807 net.cpp:112] Top shape: 32 128 14 14 (802816)
I0509 22:49:07.869176 21807 layer_factory.hpp:74] Creating layer inception_4c/3x3_reduce
I0509 22:49:07.869189 21807 net.cpp:76] Creating Layer inception_4c/3x3_reduce
I0509 22:49:07.869196 21807 net.cpp:372] inception_4c/3x3_reduce <- inception_4b/output_inception_4b/output_0_split_1
I0509 22:49:07.869205 21807 net.cpp:334] inception_4c/3x3_reduce -> inception_4c/3x3_reduce
I0509 22:49:07.869215 21807 net.cpp:105] Setting up inception_4c/3x3_reduce
I0509 22:49:07.869777 21807 net.cpp:112] Top shape: 32 128 14 14 (802816)
I0509 22:49:07.869791 21807 layer_factory.hpp:74] Creating layer inception_4c/relu_3x3_reduce
I0509 22:49:07.869799 21807 net.cpp:76] Creating Layer inception_4c/relu_3x3_reduce
I0509 22:49:07.869808 21807 net.cpp:372] inception_4c/relu_3x3_reduce <- inception_4c/3x3_reduce
I0509 22:49:07.869818 21807 net.cpp:323] inception_4c/relu_3x3_reduce -> inception_4c/3x3_reduce (in-place)
I0509 22:49:07.869827 21807 net.cpp:105] Setting up inception_4c/relu_3x3_reduce
I0509 22:49:07.869832 21807 net.cpp:112] Top shape: 32 128 14 14 (802816)
I0509 22:49:07.869837 21807 layer_factory.hpp:74] Creating layer inception_4c/3x3
I0509 22:49:07.869846 21807 net.cpp:76] Creating Layer inception_4c/3x3
I0509 22:49:07.869851 21807 net.cpp:372] inception_4c/3x3 <- inception_4c/3x3_reduce
I0509 22:49:07.869861 21807 net.cpp:334] inception_4c/3x3 -> inception_4c/3x3
I0509 22:49:07.869870 21807 net.cpp:105] Setting up inception_4c/3x3
I0509 22:49:07.872339 21807 net.cpp:112] Top shape: 32 256 14 14 (1605632)
I0509 22:49:07.872367 21807 layer_factory.hpp:74] Creating layer inception_4c/relu_3x3
I0509 22:49:07.872378 21807 net.cpp:76] Creating Layer inception_4c/relu_3x3
I0509 22:49:07.872385 21807 net.cpp:372] inception_4c/relu_3x3 <- inception_4c/3x3
I0509 22:49:07.872393 21807 net.cpp:323] inception_4c/relu_3x3 -> inception_4c/3x3 (in-place)
I0509 22:49:07.872401 21807 net.cpp:105] Setting up inception_4c/relu_3x3
I0509 22:49:07.872407 21807 net.cpp:112] Top shape: 32 256 14 14 (1605632)
I0509 22:49:07.872412 21807 layer_factory.hpp:74] Creating layer inception_4c/5x5_reduce
I0509 22:49:07.872421 21807 net.cpp:76] Creating Layer inception_4c/5x5_reduce
I0509 22:49:07.872431 21807 net.cpp:372] inception_4c/5x5_reduce <- inception_4b/output_inception_4b/output_0_split_2
I0509 22:49:07.872438 21807 net.cpp:334] inception_4c/5x5_reduce -> inception_4c/5x5_reduce
I0509 22:49:07.872447 21807 net.cpp:105] Setting up inception_4c/5x5_reduce
I0509 22:49:07.872560 21807 net.cpp:112] Top shape: 32 24 14 14 (150528)
I0509 22:49:07.872570 21807 layer_factory.hpp:74] Creating layer inception_4c/relu_5x5_reduce
I0509 22:49:07.872581 21807 net.cpp:76] Creating Layer inception_4c/relu_5x5_reduce
I0509 22:49:07.872586 21807 net.cpp:372] inception_4c/relu_5x5_reduce <- inception_4c/5x5_reduce
I0509 22:49:07.872593 21807 net.cpp:323] inception_4c/relu_5x5_reduce -> inception_4c/5x5_reduce (in-place)
I0509 22:49:07.872601 21807 net.cpp:105] Setting up inception_4c/relu_5x5_reduce
I0509 22:49:07.872606 21807 net.cpp:112] Top shape: 32 24 14 14 (150528)
I0509 22:49:07.872612 21807 layer_factory.hpp:74] Creating layer inception_4c/5x5
I0509 22:49:07.872622 21807 net.cpp:76] Creating Layer inception_4c/5x5
I0509 22:49:07.872628 21807 net.cpp:372] inception_4c/5x5 <- inception_4c/5x5_reduce
I0509 22:49:07.872637 21807 net.cpp:334] inception_4c/5x5 -> inception_4c/5x5
I0509 22:49:07.872644 21807 net.cpp:105] Setting up inception_4c/5x5
I0509 22:49:07.872977 21807 net.cpp:112] Top shape: 32 64 14 14 (401408)
I0509 22:49:07.872989 21807 layer_factory.hpp:74] Creating layer inception_4c/relu_5x5
I0509 22:49:07.872998 21807 net.cpp:76] Creating Layer inception_4c/relu_5x5
I0509 22:49:07.873950 21807 net.cpp:372] inception_4c/relu_5x5 <- inception_4c/5x5
I0509 22:49:07.873963 21807 net.cpp:323] inception_4c/relu_5x5 -> inception_4c/5x5 (in-place)
I0509 22:49:07.873972 21807 net.cpp:105] Setting up inception_4c/relu_5x5
I0509 22:49:07.873978 21807 net.cpp:112] Top shape: 32 64 14 14 (401408)
I0509 22:49:07.873985 21807 layer_factory.hpp:74] Creating layer inception_4c/pool
I0509 22:49:07.874016 21807 net.cpp:76] Creating Layer inception_4c/pool
I0509 22:49:07.874022 21807 net.cpp:372] inception_4c/pool <- inception_4b/output_inception_4b/output_0_split_3
I0509 22:49:07.874032 21807 net.cpp:334] inception_4c/pool -> inception_4c/pool
I0509 22:49:07.874039 21807 net.cpp:105] Setting up inception_4c/pool
I0509 22:49:07.874049 21807 net.cpp:112] Top shape: 32 512 14 14 (3211264)
I0509 22:49:07.874056 21807 layer_factory.hpp:74] Creating layer inception_4c/pool_proj
I0509 22:49:07.874065 21807 net.cpp:76] Creating Layer inception_4c/pool_proj
I0509 22:49:07.874071 21807 net.cpp:372] inception_4c/pool_proj <- inception_4c/pool
I0509 22:49:07.874081 21807 net.cpp:334] inception_4c/pool_proj -> inception_4c/pool_proj
I0509 22:49:07.874091 21807 net.cpp:105] Setting up inception_4c/pool_proj
I0509 22:49:07.874385 21807 net.cpp:112] Top shape: 32 64 14 14 (401408)
I0509 22:49:07.874402 21807 layer_factory.hpp:74] Creating layer inception_4c/relu_pool_proj
I0509 22:49:07.874409 21807 net.cpp:76] Creating Layer inception_4c/relu_pool_proj
I0509 22:49:07.874415 21807 net.cpp:372] inception_4c/relu_pool_proj <- inception_4c/pool_proj
I0509 22:49:07.874423 21807 net.cpp:323] inception_4c/relu_pool_proj -> inception_4c/pool_proj (in-place)
I0509 22:49:07.874430 21807 net.cpp:105] Setting up inception_4c/relu_pool_proj
I0509 22:49:07.874436 21807 net.cpp:112] Top shape: 32 64 14 14 (401408)
I0509 22:49:07.874441 21807 layer_factory.hpp:74] Creating layer inception_4c/output
I0509 22:49:07.874449 21807 net.cpp:76] Creating Layer inception_4c/output
I0509 22:49:07.874454 21807 net.cpp:372] inception_4c/output <- inception_4c/1x1
I0509 22:49:07.874461 21807 net.cpp:372] inception_4c/output <- inception_4c/3x3
I0509 22:49:07.874467 21807 net.cpp:372] inception_4c/output <- inception_4c/5x5
I0509 22:49:07.874474 21807 net.cpp:372] inception_4c/output <- inception_4c/pool_proj
I0509 22:49:07.874483 21807 net.cpp:334] inception_4c/output -> inception_4c/output
I0509 22:49:07.874491 21807 net.cpp:105] Setting up inception_4c/output
I0509 22:49:07.874498 21807 net.cpp:112] Top shape: 32 512 14 14 (3211264)
I0509 22:49:07.874505 21807 layer_factory.hpp:74] Creating layer inception_4c/output_inception_4c/output_0_split
I0509 22:49:07.874511 21807 net.cpp:76] Creating Layer inception_4c/output_inception_4c/output_0_split
I0509 22:49:07.874517 21807 net.cpp:372] inception_4c/output_inception_4c/output_0_split <- inception_4c/output
I0509 22:49:07.874526 21807 net.cpp:334] inception_4c/output_inception_4c/output_0_split -> inception_4c/output_inception_4c/output_0_split_0
I0509 22:49:07.874534 21807 net.cpp:334] inception_4c/output_inception_4c/output_0_split -> inception_4c/output_inception_4c/output_0_split_1
I0509 22:49:07.874547 21807 net.cpp:334] inception_4c/output_inception_4c/output_0_split -> inception_4c/output_inception_4c/output_0_split_2
I0509 22:49:07.874555 21807 net.cpp:334] inception_4c/output_inception_4c/output_0_split -> inception_4c/output_inception_4c/output_0_split_3
I0509 22:49:07.874563 21807 net.cpp:105] Setting up inception_4c/output_inception_4c/output_0_split
I0509 22:49:07.874570 21807 net.cpp:112] Top shape: 32 512 14 14 (3211264)
I0509 22:49:07.874575 21807 net.cpp:112] Top shape: 32 512 14 14 (3211264)
I0509 22:49:07.874580 21807 net.cpp:112] Top shape: 32 512 14 14 (3211264)
I0509 22:49:07.874585 21807 net.cpp:112] Top shape: 32 512 14 14 (3211264)
I0509 22:49:07.874591 21807 layer_factory.hpp:74] Creating layer inception_4d/1x1
I0509 22:49:07.874599 21807 net.cpp:76] Creating Layer inception_4d/1x1
I0509 22:49:07.874605 21807 net.cpp:372] inception_4d/1x1 <- inception_4c/output_inception_4c/output_0_split_0
I0509 22:49:07.874825 21807 net.cpp:334] inception_4d/1x1 -> inception_4d/1x1
I0509 22:49:07.874845 21807 net.cpp:105] Setting up inception_4d/1x1
I0509 22:49:07.875573 21807 net.cpp:112] Top shape: 32 112 14 14 (702464)
I0509 22:49:07.875594 21807 layer_factory.hpp:74] Creating layer inception_4d/relu_1x1
I0509 22:49:07.875607 21807 net.cpp:76] Creating Layer inception_4d/relu_1x1
I0509 22:49:07.875638 21807 net.cpp:372] inception_4d/relu_1x1 <- inception_4d/1x1
I0509 22:49:07.875651 21807 net.cpp:323] inception_4d/relu_1x1 -> inception_4d/1x1 (in-place)
I0509 22:49:07.875665 21807 net.cpp:105] Setting up inception_4d/relu_1x1
I0509 22:49:07.875675 21807 net.cpp:112] Top shape: 32 112 14 14 (702464)
I0509 22:49:07.875685 21807 layer_factory.hpp:74] Creating layer inception_4d/3x3_reduce
I0509 22:49:07.875702 21807 net.cpp:76] Creating Layer inception_4d/3x3_reduce
I0509 22:49:07.875713 21807 net.cpp:372] inception_4d/3x3_reduce <- inception_4c/output_inception_4c/output_0_split_1
I0509 22:49:07.875732 21807 net.cpp:334] inception_4d/3x3_reduce -> inception_4d/3x3_reduce
I0509 22:49:07.875748 21807 net.cpp:105] Setting up inception_4d/3x3_reduce
I0509 22:49:07.876422 21807 net.cpp:112] Top shape: 32 144 14 14 (903168)
I0509 22:49:07.876440 21807 layer_factory.hpp:74] Creating layer inception_4d/relu_3x3_reduce
I0509 22:49:07.876451 21807 net.cpp:76] Creating Layer inception_4d/relu_3x3_reduce
I0509 22:49:07.876457 21807 net.cpp:372] inception_4d/relu_3x3_reduce <- inception_4d/3x3_reduce
I0509 22:49:07.876464 21807 net.cpp:323] inception_4d/relu_3x3_reduce -> inception_4d/3x3_reduce (in-place)
I0509 22:49:07.876473 21807 net.cpp:105] Setting up inception_4d/relu_3x3_reduce
I0509 22:49:07.876478 21807 net.cpp:112] Top shape: 32 144 14 14 (903168)
I0509 22:49:07.876484 21807 layer_factory.hpp:74] Creating layer inception_4d/3x3
I0509 22:49:07.876494 21807 net.cpp:76] Creating Layer inception_4d/3x3
I0509 22:49:07.876500 21807 net.cpp:372] inception_4d/3x3 <- inception_4d/3x3_reduce
I0509 22:49:07.876508 21807 net.cpp:334] inception_4d/3x3 -> inception_4d/3x3
I0509 22:49:07.876518 21807 net.cpp:105] Setting up inception_4d/3x3
I0509 22:49:07.879670 21807 net.cpp:112] Top shape: 32 288 14 14 (1806336)
I0509 22:49:07.879689 21807 layer_factory.hpp:74] Creating layer inception_4d/relu_3x3
I0509 22:49:07.879701 21807 net.cpp:76] Creating Layer inception_4d/relu_3x3
I0509 22:49:07.879709 21807 net.cpp:372] inception_4d/relu_3x3 <- inception_4d/3x3
I0509 22:49:07.879716 21807 net.cpp:323] inception_4d/relu_3x3 -> inception_4d/3x3 (in-place)
I0509 22:49:07.879725 21807 net.cpp:105] Setting up inception_4d/relu_3x3
I0509 22:49:07.879730 21807 net.cpp:112] Top shape: 32 288 14 14 (1806336)
I0509 22:49:07.879736 21807 layer_factory.hpp:74] Creating layer inception_4d/5x5_reduce
I0509 22:49:07.879746 21807 net.cpp:76] Creating Layer inception_4d/5x5_reduce
I0509 22:49:07.879753 21807 net.cpp:372] inception_4d/5x5_reduce <- inception_4c/output_inception_4c/output_0_split_2
I0509 22:49:07.879761 21807 net.cpp:334] inception_4d/5x5_reduce -> inception_4d/5x5_reduce
I0509 22:49:07.879770 21807 net.cpp:105] Setting up inception_4d/5x5_reduce
I0509 22:49:07.879915 21807 net.cpp:112] Top shape: 32 32 14 14 (200704)
I0509 22:49:07.879926 21807 layer_factory.hpp:74] Creating layer inception_4d/relu_5x5_reduce
I0509 22:49:07.879935 21807 net.cpp:76] Creating Layer inception_4d/relu_5x5_reduce
I0509 22:49:07.879940 21807 net.cpp:372] inception_4d/relu_5x5_reduce <- inception_4d/5x5_reduce
I0509 22:49:07.879950 21807 net.cpp:323] inception_4d/relu_5x5_reduce -> inception_4d/5x5_reduce (in-place)
I0509 22:49:07.879957 21807 net.cpp:105] Setting up inception_4d/relu_5x5_reduce
I0509 22:49:07.879963 21807 net.cpp:112] Top shape: 32 32 14 14 (200704)
I0509 22:49:07.879972 21807 layer_factory.hpp:74] Creating layer inception_4d/5x5
I0509 22:49:07.879981 21807 net.cpp:76] Creating Layer inception_4d/5x5
I0509 22:49:07.879987 21807 net.cpp:372] inception_4d/5x5 <- inception_4d/5x5_reduce
I0509 22:49:07.879994 21807 net.cpp:334] inception_4d/5x5 -> inception_4d/5x5
I0509 22:49:07.880003 21807 net.cpp:105] Setting up inception_4d/5x5
I0509 22:49:07.880455 21807 net.cpp:112] Top shape: 32 64 14 14 (401408)
I0509 22:49:07.880471 21807 layer_factory.hpp:74] Creating layer inception_4d/relu_5x5
I0509 22:49:07.880480 21807 net.cpp:76] Creating Layer inception_4d/relu_5x5
I0509 22:49:07.880486 21807 net.cpp:372] inception_4d/relu_5x5 <- inception_4d/5x5
I0509 22:49:07.880511 21807 net.cpp:323] inception_4d/relu_5x5 -> inception_4d/5x5 (in-place)
I0509 22:49:07.880520 21807 net.cpp:105] Setting up inception_4d/relu_5x5
I0509 22:49:07.880527 21807 net.cpp:112] Top shape: 32 64 14 14 (401408)
I0509 22:49:07.880532 21807 layer_factory.hpp:74] Creating layer inception_4d/pool
I0509 22:49:07.880540 21807 net.cpp:76] Creating Layer inception_4d/pool
I0509 22:49:07.880547 21807 net.cpp:372] inception_4d/pool <- inception_4c/output_inception_4c/output_0_split_3
I0509 22:49:07.880556 21807 net.cpp:334] inception_4d/pool -> inception_4d/pool
I0509 22:49:07.880565 21807 net.cpp:105] Setting up inception_4d/pool
I0509 22:49:07.880573 21807 net.cpp:112] Top shape: 32 512 14 14 (3211264)
I0509 22:49:07.880581 21807 layer_factory.hpp:74] Creating layer inception_4d/pool_proj
I0509 22:49:07.880591 21807 net.cpp:76] Creating Layer inception_4d/pool_proj
I0509 22:49:07.880597 21807 net.cpp:372] inception_4d/pool_proj <- inception_4d/pool
I0509 22:49:07.880607 21807 net.cpp:334] inception_4d/pool_proj -> inception_4d/pool_proj
I0509 22:49:07.880617 21807 net.cpp:105] Setting up inception_4d/pool_proj
I0509 22:49:07.880898 21807 net.cpp:112] Top shape: 32 64 14 14 (401408)
I0509 22:49:07.880910 21807 layer_factory.hpp:74] Creating layer inception_4d/relu_pool_proj
I0509 22:49:07.880921 21807 net.cpp:76] Creating Layer inception_4d/relu_pool_proj
I0509 22:49:07.880928 21807 net.cpp:372] inception_4d/relu_pool_proj <- inception_4d/pool_proj
I0509 22:49:07.880934 21807 net.cpp:323] inception_4d/relu_pool_proj -> inception_4d/pool_proj (in-place)
I0509 22:49:07.880942 21807 net.cpp:105] Setting up inception_4d/relu_pool_proj
I0509 22:49:07.880949 21807 net.cpp:112] Top shape: 32 64 14 14 (401408)
I0509 22:49:07.880954 21807 layer_factory.hpp:74] Creating layer inception_4d/output
I0509 22:49:07.880964 21807 net.cpp:76] Creating Layer inception_4d/output
I0509 22:49:07.880971 21807 net.cpp:372] inception_4d/output <- inception_4d/1x1
I0509 22:49:07.880977 21807 net.cpp:372] inception_4d/output <- inception_4d/3x3
I0509 22:49:07.880985 21807 net.cpp:372] inception_4d/output <- inception_4d/5x5
I0509 22:49:07.880990 21807 net.cpp:372] inception_4d/output <- inception_4d/pool_proj
I0509 22:49:07.880997 21807 net.cpp:334] inception_4d/output -> inception_4d/output
I0509 22:49:07.881006 21807 net.cpp:105] Setting up inception_4d/output
I0509 22:49:07.881012 21807 net.cpp:112] Top shape: 32 528 14 14 (3311616)
I0509 22:49:07.881021 21807 layer_factory.hpp:74] Creating layer inception_4d/output_inception_4d/output_0_split
I0509 22:49:07.881029 21807 net.cpp:76] Creating Layer inception_4d/output_inception_4d/output_0_split
I0509 22:49:07.881036 21807 net.cpp:372] inception_4d/output_inception_4d/output_0_split <- inception_4d/output
I0509 22:49:07.881043 21807 net.cpp:334] inception_4d/output_inception_4d/output_0_split -> inception_4d/output_inception_4d/output_0_split_0
I0509 22:49:07.881055 21807 net.cpp:334] inception_4d/output_inception_4d/output_0_split -> inception_4d/output_inception_4d/output_0_split_1
I0509 22:49:07.881065 21807 net.cpp:334] inception_4d/output_inception_4d/output_0_split -> inception_4d/output_inception_4d/output_0_split_2
I0509 22:49:07.881074 21807 net.cpp:334] inception_4d/output_inception_4d/output_0_split -> inception_4d/output_inception_4d/output_0_split_3
I0509 22:49:07.881103 21807 net.cpp:334] inception_4d/output_inception_4d/output_0_split -> inception_4d/output_inception_4d/output_0_split_4
I0509 22:49:07.881114 21807 net.cpp:105] Setting up inception_4d/output_inception_4d/output_0_split
I0509 22:49:07.881121 21807 net.cpp:112] Top shape: 32 528 14 14 (3311616)
I0509 22:49:07.881126 21807 net.cpp:112] Top shape: 32 528 14 14 (3311616)
I0509 22:49:07.881131 21807 net.cpp:112] Top shape: 32 528 14 14 (3311616)
I0509 22:49:07.881136 21807 net.cpp:112] Top shape: 32 528 14 14 (3311616)
I0509 22:49:07.881141 21807 net.cpp:112] Top shape: 32 528 14 14 (3311616)
I0509 22:49:07.881147 21807 layer_factory.hpp:74] Creating layer loss2/ave_pool
I0509 22:49:07.881166 21807 net.cpp:76] Creating Layer loss2/ave_pool
I0509 22:49:07.881172 21807 net.cpp:372] loss2/ave_pool <- inception_4d/output_inception_4d/output_0_split_0
I0509 22:49:07.881182 21807 net.cpp:334] loss2/ave_pool -> loss2/ave_pool
I0509 22:49:07.881191 21807 net.cpp:105] Setting up loss2/ave_pool
I0509 22:49:07.881196 21807 net.cpp:112] Top shape: 32 528 4 4 (270336)
I0509 22:49:07.881202 21807 layer_factory.hpp:74] Creating layer loss2/conv
I0509 22:49:07.881211 21807 net.cpp:76] Creating Layer loss2/conv
I0509 22:49:07.881217 21807 net.cpp:372] loss2/conv <- loss2/ave_pool
I0509 22:49:07.881227 21807 net.cpp:334] loss2/conv -> loss2/conv
I0509 22:49:07.881237 21807 net.cpp:105] Setting up loss2/conv
I0509 22:49:07.881820 21807 net.cpp:112] Top shape: 32 128 4 4 (65536)
I0509 22:49:07.881834 21807 layer_factory.hpp:74] Creating layer loss2/relu_conv
I0509 22:49:07.881842 21807 net.cpp:76] Creating Layer loss2/relu_conv
I0509 22:49:07.881849 21807 net.cpp:372] loss2/relu_conv <- loss2/conv
I0509 22:49:07.881856 21807 net.cpp:323] loss2/relu_conv -> loss2/conv (in-place)
I0509 22:49:07.881865 21807 net.cpp:105] Setting up loss2/relu_conv
I0509 22:49:07.881870 21807 net.cpp:112] Top shape: 32 128 4 4 (65536)
I0509 22:49:07.881875 21807 layer_factory.hpp:74] Creating layer loss2/fc
I0509 22:49:07.881888 21807 net.cpp:76] Creating Layer loss2/fc
I0509 22:49:07.881894 21807 net.cpp:372] loss2/fc <- loss2/conv
I0509 22:49:07.881902 21807 net.cpp:334] loss2/fc -> loss2/fc
I0509 22:49:07.881911 21807 net.cpp:105] Setting up loss2/fc
I0509 22:49:07.899266 21807 net.cpp:112] Top shape: 32 1024 1 1 (32768)
I0509 22:49:07.899319 21807 layer_factory.hpp:74] Creating layer loss2/relu_fc
I0509 22:49:07.899334 21807 net.cpp:76] Creating Layer loss2/relu_fc
I0509 22:49:07.899343 21807 net.cpp:372] loss2/relu_fc <- loss2/fc
I0509 22:49:07.899353 21807 net.cpp:323] loss2/relu_fc -> loss2/fc (in-place)
I0509 22:49:07.899363 21807 net.cpp:105] Setting up loss2/relu_fc
I0509 22:49:07.899369 21807 net.cpp:112] Top shape: 32 1024 1 1 (32768)
I0509 22:49:07.899375 21807 layer_factory.hpp:74] Creating layer loss2/drop_fc
I0509 22:49:07.899384 21807 net.cpp:76] Creating Layer loss2/drop_fc
I0509 22:49:07.899390 21807 net.cpp:372] loss2/drop_fc <- loss2/fc
I0509 22:49:07.899399 21807 net.cpp:323] loss2/drop_fc -> loss2/fc (in-place)
I0509 22:49:07.899408 21807 net.cpp:105] Setting up loss2/drop_fc
I0509 22:49:07.899415 21807 net.cpp:112] Top shape: 32 1024 1 1 (32768)
I0509 22:49:07.899421 21807 layer_factory.hpp:74] Creating layer loss2/classifier
I0509 22:49:07.899431 21807 net.cpp:76] Creating Layer loss2/classifier
I0509 22:49:07.899437 21807 net.cpp:372] loss2/classifier <- loss2/fc
I0509 22:49:07.899447 21807 net.cpp:334] loss2/classifier -> loss2/classifier
I0509 22:49:07.899458 21807 net.cpp:105] Setting up loss2/classifier
I0509 22:49:07.899494 21807 net.cpp:112] Top shape: 32 2 1 1 (64)
I0509 22:49:07.899504 21807 layer_factory.hpp:74] Creating layer loss2/classifier_loss2/classifier_0_split
I0509 22:49:07.899513 21807 net.cpp:76] Creating Layer loss2/classifier_loss2/classifier_0_split
I0509 22:49:07.899519 21807 net.cpp:372] loss2/classifier_loss2/classifier_0_split <- loss2/classifier
I0509 22:49:07.899528 21807 net.cpp:334] loss2/classifier_loss2/classifier_0_split -> loss2/classifier_loss2/classifier_0_split_0
I0509 22:49:07.899539 21807 net.cpp:334] loss2/classifier_loss2/classifier_0_split -> loss2/classifier_loss2/classifier_0_split_1
I0509 22:49:07.899549 21807 net.cpp:105] Setting up loss2/classifier_loss2/classifier_0_split
I0509 22:49:07.899555 21807 net.cpp:112] Top shape: 32 2 1 1 (64)
I0509 22:49:07.899560 21807 net.cpp:112] Top shape: 32 2 1 1 (64)
I0509 22:49:07.899566 21807 layer_factory.hpp:74] Creating layer loss2/loss
I0509 22:49:07.899574 21807 net.cpp:76] Creating Layer loss2/loss
I0509 22:49:07.899581 21807 net.cpp:372] loss2/loss <- loss2/classifier_loss2/classifier_0_split_0
I0509 22:49:07.899588 21807 net.cpp:372] loss2/loss <- label_data_1_split_2
I0509 22:49:07.899598 21807 net.cpp:334] loss2/loss -> loss2/loss1
I0509 22:49:07.899641 21807 net.cpp:105] Setting up loss2/loss
I0509 22:49:07.899651 21807 layer_factory.hpp:74] Creating layer loss2/loss
I0509 22:49:07.899664 21807 net.cpp:112] Top shape: 1 1 1 1 (1)
I0509 22:49:07.899670 21807 net.cpp:118]     with loss weight 0.3
I0509 22:49:07.899688 21807 layer_factory.hpp:74] Creating layer loss2/top-1
I0509 22:49:07.899699 21807 net.cpp:76] Creating Layer loss2/top-1
I0509 22:49:07.899706 21807 net.cpp:372] loss2/top-1 <- loss2/classifier_loss2/classifier_0_split_1
I0509 22:49:07.899713 21807 net.cpp:372] loss2/top-1 <- label_data_1_split_3
I0509 22:49:07.899721 21807 net.cpp:334] loss2/top-1 -> loss2/top-1
I0509 22:49:07.899730 21807 net.cpp:105] Setting up loss2/top-1
I0509 22:49:07.899737 21807 net.cpp:112] Top shape: 1 1 1 1 (1)
I0509 22:49:07.899744 21807 layer_factory.hpp:74] Creating layer inception_4e/1x1
I0509 22:49:07.899754 21807 net.cpp:76] Creating Layer inception_4e/1x1
I0509 22:49:07.899760 21807 net.cpp:372] inception_4e/1x1 <- inception_4d/output_inception_4d/output_0_split_1
I0509 22:49:07.899770 21807 net.cpp:334] inception_4e/1x1 -> inception_4e/1x1
I0509 22:49:07.899780 21807 net.cpp:105] Setting up inception_4e/1x1
I0509 22:49:07.900934 21807 net.cpp:112] Top shape: 32 256 14 14 (1605632)
I0509 22:49:07.900949 21807 layer_factory.hpp:74] Creating layer inception_4e/relu_1x1
I0509 22:49:07.900959 21807 net.cpp:76] Creating Layer inception_4e/relu_1x1
I0509 22:49:07.900964 21807 net.cpp:372] inception_4e/relu_1x1 <- inception_4e/1x1
I0509 22:49:07.900971 21807 net.cpp:323] inception_4e/relu_1x1 -> inception_4e/1x1 (in-place)
I0509 22:49:07.900979 21807 net.cpp:105] Setting up inception_4e/relu_1x1
I0509 22:49:07.900985 21807 net.cpp:112] Top shape: 32 256 14 14 (1605632)
I0509 22:49:07.900991 21807 layer_factory.hpp:74] Creating layer inception_4e/3x3_reduce
I0509 22:49:07.901002 21807 net.cpp:76] Creating Layer inception_4e/3x3_reduce
I0509 22:49:07.901008 21807 net.cpp:372] inception_4e/3x3_reduce <- inception_4d/output_inception_4d/output_0_split_2
I0509 22:49:07.901021 21807 net.cpp:334] inception_4e/3x3_reduce -> inception_4e/3x3_reduce
I0509 22:49:07.901031 21807 net.cpp:105] Setting up inception_4e/3x3_reduce
I0509 22:49:07.901749 21807 net.cpp:112] Top shape: 32 160 14 14 (1003520)
I0509 22:49:07.901764 21807 layer_factory.hpp:74] Creating layer inception_4e/relu_3x3_reduce
I0509 22:49:07.901774 21807 net.cpp:76] Creating Layer inception_4e/relu_3x3_reduce
I0509 22:49:07.901782 21807 net.cpp:372] inception_4e/relu_3x3_reduce <- inception_4e/3x3_reduce
I0509 22:49:07.901788 21807 net.cpp:323] inception_4e/relu_3x3_reduce -> inception_4e/3x3_reduce (in-place)
I0509 22:49:07.901796 21807 net.cpp:105] Setting up inception_4e/relu_3x3_reduce
I0509 22:49:07.901803 21807 net.cpp:112] Top shape: 32 160 14 14 (1003520)
I0509 22:49:07.901808 21807 layer_factory.hpp:74] Creating layer inception_4e/3x3
I0509 22:49:07.901835 21807 net.cpp:76] Creating Layer inception_4e/3x3
I0509 22:49:07.901842 21807 net.cpp:372] inception_4e/3x3 <- inception_4e/3x3_reduce
I0509 22:49:07.901851 21807 net.cpp:334] inception_4e/3x3 -> inception_4e/3x3
I0509 22:49:07.901860 21807 net.cpp:105] Setting up inception_4e/3x3
I0509 22:49:07.905735 21807 net.cpp:112] Top shape: 32 320 14 14 (2007040)
I0509 22:49:07.905762 21807 layer_factory.hpp:74] Creating layer inception_4e/relu_3x3
I0509 22:49:07.905773 21807 net.cpp:76] Creating Layer inception_4e/relu_3x3
I0509 22:49:07.905783 21807 net.cpp:372] inception_4e/relu_3x3 <- inception_4e/3x3
I0509 22:49:07.905791 21807 net.cpp:323] inception_4e/relu_3x3 -> inception_4e/3x3 (in-place)
I0509 22:49:07.905800 21807 net.cpp:105] Setting up inception_4e/relu_3x3
I0509 22:49:07.905807 21807 net.cpp:112] Top shape: 32 320 14 14 (2007040)
I0509 22:49:07.905812 21807 layer_factory.hpp:74] Creating layer inception_4e/5x5_reduce
I0509 22:49:07.905824 21807 net.cpp:76] Creating Layer inception_4e/5x5_reduce
I0509 22:49:07.905832 21807 net.cpp:372] inception_4e/5x5_reduce <- inception_4d/output_inception_4d/output_0_split_3
I0509 22:49:07.905870 21807 net.cpp:334] inception_4e/5x5_reduce -> inception_4e/5x5_reduce
I0509 22:49:07.905882 21807 net.cpp:105] Setting up inception_4e/5x5_reduce
I0509 22:49:07.906029 21807 net.cpp:112] Top shape: 32 32 14 14 (200704)
I0509 22:49:07.906040 21807 layer_factory.hpp:74] Creating layer inception_4e/relu_5x5_reduce
I0509 22:49:07.906051 21807 net.cpp:76] Creating Layer inception_4e/relu_5x5_reduce
I0509 22:49:07.906057 21807 net.cpp:372] inception_4e/relu_5x5_reduce <- inception_4e/5x5_reduce
I0509 22:49:07.906064 21807 net.cpp:323] inception_4e/relu_5x5_reduce -> inception_4e/5x5_reduce (in-place)
I0509 22:49:07.906072 21807 net.cpp:105] Setting up inception_4e/relu_5x5_reduce
I0509 22:49:07.906079 21807 net.cpp:112] Top shape: 32 32 14 14 (200704)
I0509 22:49:07.906083 21807 layer_factory.hpp:74] Creating layer inception_4e/5x5
I0509 22:49:07.906092 21807 net.cpp:76] Creating Layer inception_4e/5x5
I0509 22:49:07.906097 21807 net.cpp:372] inception_4e/5x5 <- inception_4e/5x5_reduce
I0509 22:49:07.906107 21807 net.cpp:334] inception_4e/5x5 -> inception_4e/5x5
I0509 22:49:07.906117 21807 net.cpp:105] Setting up inception_4e/5x5
I0509 22:49:07.906992 21807 net.cpp:112] Top shape: 32 128 14 14 (802816)
I0509 22:49:07.907007 21807 layer_factory.hpp:74] Creating layer inception_4e/relu_5x5
I0509 22:49:07.907016 21807 net.cpp:76] Creating Layer inception_4e/relu_5x5
I0509 22:49:07.907022 21807 net.cpp:372] inception_4e/relu_5x5 <- inception_4e/5x5
I0509 22:49:07.907029 21807 net.cpp:323] inception_4e/relu_5x5 -> inception_4e/5x5 (in-place)
I0509 22:49:07.907037 21807 net.cpp:105] Setting up inception_4e/relu_5x5
I0509 22:49:07.907043 21807 net.cpp:112] Top shape: 32 128 14 14 (802816)
I0509 22:49:07.907048 21807 layer_factory.hpp:74] Creating layer inception_4e/pool
I0509 22:49:07.907059 21807 net.cpp:76] Creating Layer inception_4e/pool
I0509 22:49:07.907065 21807 net.cpp:372] inception_4e/pool <- inception_4d/output_inception_4d/output_0_split_4
I0509 22:49:07.907074 21807 net.cpp:334] inception_4e/pool -> inception_4e/pool
I0509 22:49:07.907083 21807 net.cpp:105] Setting up inception_4e/pool
I0509 22:49:07.907091 21807 net.cpp:112] Top shape: 32 528 14 14 (3311616)
I0509 22:49:07.907097 21807 layer_factory.hpp:74] Creating layer inception_4e/pool_proj
I0509 22:49:07.907109 21807 net.cpp:76] Creating Layer inception_4e/pool_proj
I0509 22:49:07.907115 21807 net.cpp:372] inception_4e/pool_proj <- inception_4e/pool
I0509 22:49:07.907124 21807 net.cpp:334] inception_4e/pool_proj -> inception_4e/pool_proj
I0509 22:49:07.907132 21807 net.cpp:105] Setting up inception_4e/pool_proj
I0509 22:49:07.907721 21807 net.cpp:112] Top shape: 32 128 14 14 (802816)
I0509 22:49:07.907734 21807 layer_factory.hpp:74] Creating layer inception_4e/relu_pool_proj
I0509 22:49:07.907745 21807 net.cpp:76] Creating Layer inception_4e/relu_pool_proj
I0509 22:49:07.907752 21807 net.cpp:372] inception_4e/relu_pool_proj <- inception_4e/pool_proj
I0509 22:49:07.907759 21807 net.cpp:323] inception_4e/relu_pool_proj -> inception_4e/pool_proj (in-place)
I0509 22:49:07.907768 21807 net.cpp:105] Setting up inception_4e/relu_pool_proj
I0509 22:49:07.907773 21807 net.cpp:112] Top shape: 32 128 14 14 (802816)
I0509 22:49:07.907778 21807 layer_factory.hpp:74] Creating layer inception_4e/output
I0509 22:49:07.907786 21807 net.cpp:76] Creating Layer inception_4e/output
I0509 22:49:07.907793 21807 net.cpp:372] inception_4e/output <- inception_4e/1x1
I0509 22:49:07.907799 21807 net.cpp:372] inception_4e/output <- inception_4e/3x3
I0509 22:49:07.907805 21807 net.cpp:372] inception_4e/output <- inception_4e/5x5
I0509 22:49:07.907811 21807 net.cpp:372] inception_4e/output <- inception_4e/pool_proj
I0509 22:49:07.907819 21807 net.cpp:334] inception_4e/output -> inception_4e/output
I0509 22:49:07.907827 21807 net.cpp:105] Setting up inception_4e/output
I0509 22:49:07.907835 21807 net.cpp:112] Top shape: 32 832 14 14 (5218304)
I0509 22:49:07.907883 21807 layer_factory.hpp:74] Creating layer pool4/3x3_s2
I0509 22:49:07.907897 21807 net.cpp:76] Creating Layer pool4/3x3_s2
I0509 22:49:07.907918 21807 net.cpp:372] pool4/3x3_s2 <- inception_4e/output
I0509 22:49:07.907929 21807 net.cpp:334] pool4/3x3_s2 -> pool4/3x3_s2
I0509 22:49:07.907938 21807 net.cpp:105] Setting up pool4/3x3_s2
I0509 22:49:07.907946 21807 net.cpp:112] Top shape: 32 832 7 7 (1304576)
I0509 22:49:07.907953 21807 layer_factory.hpp:74] Creating layer pool4/3x3_s2_pool4/3x3_s2_0_split
I0509 22:49:07.907963 21807 net.cpp:76] Creating Layer pool4/3x3_s2_pool4/3x3_s2_0_split
I0509 22:49:07.907968 21807 net.cpp:372] pool4/3x3_s2_pool4/3x3_s2_0_split <- pool4/3x3_s2
I0509 22:49:07.907976 21807 net.cpp:334] pool4/3x3_s2_pool4/3x3_s2_0_split -> pool4/3x3_s2_pool4/3x3_s2_0_split_0
I0509 22:49:07.907985 21807 net.cpp:334] pool4/3x3_s2_pool4/3x3_s2_0_split -> pool4/3x3_s2_pool4/3x3_s2_0_split_1
I0509 22:49:07.907994 21807 net.cpp:334] pool4/3x3_s2_pool4/3x3_s2_0_split -> pool4/3x3_s2_pool4/3x3_s2_0_split_2
I0509 22:49:07.908004 21807 net.cpp:334] pool4/3x3_s2_pool4/3x3_s2_0_split -> pool4/3x3_s2_pool4/3x3_s2_0_split_3
I0509 22:49:07.908011 21807 net.cpp:105] Setting up pool4/3x3_s2_pool4/3x3_s2_0_split
I0509 22:49:07.908018 21807 net.cpp:112] Top shape: 32 832 7 7 (1304576)
I0509 22:49:07.908023 21807 net.cpp:112] Top shape: 32 832 7 7 (1304576)
I0509 22:49:07.908028 21807 net.cpp:112] Top shape: 32 832 7 7 (1304576)
I0509 22:49:07.908033 21807 net.cpp:112] Top shape: 32 832 7 7 (1304576)
I0509 22:49:07.908040 21807 layer_factory.hpp:74] Creating layer inception_5a/1x1
I0509 22:49:07.908051 21807 net.cpp:76] Creating Layer inception_5a/1x1
I0509 22:49:07.908056 21807 net.cpp:372] inception_5a/1x1 <- pool4/3x3_s2_pool4/3x3_s2_0_split_0
I0509 22:49:07.908067 21807 net.cpp:334] inception_5a/1x1 -> inception_5a/1x1
I0509 22:49:07.908077 21807 net.cpp:105] Setting up inception_5a/1x1
I0509 22:49:07.909853 21807 net.cpp:112] Top shape: 32 256 7 7 (401408)
I0509 22:49:07.909869 21807 layer_factory.hpp:74] Creating layer inception_5a/relu_1x1
I0509 22:49:07.909880 21807 net.cpp:76] Creating Layer inception_5a/relu_1x1
I0509 22:49:07.909910 21807 net.cpp:372] inception_5a/relu_1x1 <- inception_5a/1x1
I0509 22:49:07.909919 21807 net.cpp:323] inception_5a/relu_1x1 -> inception_5a/1x1 (in-place)
I0509 22:49:07.909929 21807 net.cpp:105] Setting up inception_5a/relu_1x1
I0509 22:49:07.909934 21807 net.cpp:112] Top shape: 32 256 7 7 (401408)
I0509 22:49:07.909940 21807 layer_factory.hpp:74] Creating layer inception_5a/3x3_reduce
I0509 22:49:07.909957 21807 net.cpp:76] Creating Layer inception_5a/3x3_reduce
I0509 22:49:07.909965 21807 net.cpp:372] inception_5a/3x3_reduce <- pool4/3x3_s2_pool4/3x3_s2_0_split_1
I0509 22:49:07.909973 21807 net.cpp:334] inception_5a/3x3_reduce -> inception_5a/3x3_reduce
I0509 22:49:07.909982 21807 net.cpp:105] Setting up inception_5a/3x3_reduce
I0509 22:49:07.911105 21807 net.cpp:112] Top shape: 32 160 7 7 (250880)
I0509 22:49:07.911120 21807 layer_factory.hpp:74] Creating layer inception_5a/relu_3x3_reduce
I0509 22:49:07.911128 21807 net.cpp:76] Creating Layer inception_5a/relu_3x3_reduce
I0509 22:49:07.911134 21807 net.cpp:372] inception_5a/relu_3x3_reduce <- inception_5a/3x3_reduce
I0509 22:49:07.911144 21807 net.cpp:323] inception_5a/relu_3x3_reduce -> inception_5a/3x3_reduce (in-place)
I0509 22:49:07.911154 21807 net.cpp:105] Setting up inception_5a/relu_3x3_reduce
I0509 22:49:07.911159 21807 net.cpp:112] Top shape: 32 160 7 7 (250880)
I0509 22:49:07.911164 21807 layer_factory.hpp:74] Creating layer inception_5a/3x3
I0509 22:49:07.911172 21807 net.cpp:76] Creating Layer inception_5a/3x3
I0509 22:49:07.911178 21807 net.cpp:372] inception_5a/3x3 <- inception_5a/3x3_reduce
I0509 22:49:07.911188 21807 net.cpp:334] inception_5a/3x3 -> inception_5a/3x3
I0509 22:49:07.911197 21807 net.cpp:105] Setting up inception_5a/3x3
I0509 22:49:07.915019 21807 net.cpp:112] Top shape: 32 320 7 7 (501760)
I0509 22:49:07.915040 21807 layer_factory.hpp:74] Creating layer inception_5a/relu_3x3
I0509 22:49:07.915048 21807 net.cpp:76] Creating Layer inception_5a/relu_3x3
I0509 22:49:07.915056 21807 net.cpp:372] inception_5a/relu_3x3 <- inception_5a/3x3
I0509 22:49:07.915089 21807 net.cpp:323] inception_5a/relu_3x3 -> inception_5a/3x3 (in-place)
I0509 22:49:07.915101 21807 net.cpp:105] Setting up inception_5a/relu_3x3
I0509 22:49:07.915107 21807 net.cpp:112] Top shape: 32 320 7 7 (501760)
I0509 22:49:07.915112 21807 layer_factory.hpp:74] Creating layer inception_5a/5x5_reduce
I0509 22:49:07.915124 21807 net.cpp:76] Creating Layer inception_5a/5x5_reduce
I0509 22:49:07.915132 21807 net.cpp:372] inception_5a/5x5_reduce <- pool4/3x3_s2_pool4/3x3_s2_0_split_2
I0509 22:49:07.915140 21807 net.cpp:334] inception_5a/5x5_reduce -> inception_5a/5x5_reduce
I0509 22:49:07.915150 21807 net.cpp:105] Setting up inception_5a/5x5_reduce
I0509 22:49:07.915401 21807 net.cpp:112] Top shape: 32 32 7 7 (50176)
I0509 22:49:07.915415 21807 layer_factory.hpp:74] Creating layer inception_5a/relu_5x5_reduce
I0509 22:49:07.915422 21807 net.cpp:76] Creating Layer inception_5a/relu_5x5_reduce
I0509 22:49:07.915428 21807 net.cpp:372] inception_5a/relu_5x5_reduce <- inception_5a/5x5_reduce
I0509 22:49:07.915436 21807 net.cpp:323] inception_5a/relu_5x5_reduce -> inception_5a/5x5_reduce (in-place)
I0509 22:49:07.915443 21807 net.cpp:105] Setting up inception_5a/relu_5x5_reduce
I0509 22:49:07.915449 21807 net.cpp:112] Top shape: 32 32 7 7 (50176)
I0509 22:49:07.915455 21807 layer_factory.hpp:74] Creating layer inception_5a/5x5
I0509 22:49:07.915467 21807 net.cpp:76] Creating Layer inception_5a/5x5
I0509 22:49:07.915472 21807 net.cpp:372] inception_5a/5x5 <- inception_5a/5x5_reduce
I0509 22:49:07.915480 21807 net.cpp:334] inception_5a/5x5 -> inception_5a/5x5
I0509 22:49:07.915491 21807 net.cpp:105] Setting up inception_5a/5x5
I0509 22:49:07.916358 21807 net.cpp:112] Top shape: 32 128 7 7 (200704)
I0509 22:49:07.916373 21807 layer_factory.hpp:74] Creating layer inception_5a/relu_5x5
I0509 22:49:07.916381 21807 net.cpp:76] Creating Layer inception_5a/relu_5x5
I0509 22:49:07.917204 21807 net.cpp:372] inception_5a/relu_5x5 <- inception_5a/5x5
I0509 22:49:07.917220 21807 net.cpp:323] inception_5a/relu_5x5 -> inception_5a/5x5 (in-place)
I0509 22:49:07.917230 21807 net.cpp:105] Setting up inception_5a/relu_5x5
I0509 22:49:07.917237 21807 net.cpp:112] Top shape: 32 128 7 7 (200704)
I0509 22:49:07.917243 21807 layer_factory.hpp:74] Creating layer inception_5a/pool
I0509 22:49:07.917250 21807 net.cpp:76] Creating Layer inception_5a/pool
I0509 22:49:07.917258 21807 net.cpp:372] inception_5a/pool <- pool4/3x3_s2_pool4/3x3_s2_0_split_3
I0509 22:49:07.917265 21807 net.cpp:334] inception_5a/pool -> inception_5a/pool
I0509 22:49:07.917294 21807 net.cpp:105] Setting up inception_5a/pool
I0509 22:49:07.917320 21807 net.cpp:112] Top shape: 32 832 7 7 (1304576)
I0509 22:49:07.917327 21807 layer_factory.hpp:74] Creating layer inception_5a/pool_proj
I0509 22:49:07.917337 21807 net.cpp:76] Creating Layer inception_5a/pool_proj
I0509 22:49:07.917343 21807 net.cpp:372] inception_5a/pool_proj <- inception_5a/pool
I0509 22:49:07.917352 21807 net.cpp:334] inception_5a/pool_proj -> inception_5a/pool_proj
I0509 22:49:07.917361 21807 net.cpp:105] Setting up inception_5a/pool_proj
I0509 22:49:07.918340 21807 net.cpp:112] Top shape: 32 128 7 7 (200704)
I0509 22:49:07.918359 21807 layer_factory.hpp:74] Creating layer inception_5a/relu_pool_proj
I0509 22:49:07.918367 21807 net.cpp:76] Creating Layer inception_5a/relu_pool_proj
I0509 22:49:07.918373 21807 net.cpp:372] inception_5a/relu_pool_proj <- inception_5a/pool_proj
I0509 22:49:07.918383 21807 net.cpp:323] inception_5a/relu_pool_proj -> inception_5a/pool_proj (in-place)
I0509 22:49:07.918392 21807 net.cpp:105] Setting up inception_5a/relu_pool_proj
I0509 22:49:07.918398 21807 net.cpp:112] Top shape: 32 128 7 7 (200704)
I0509 22:49:07.918403 21807 layer_factory.hpp:74] Creating layer inception_5a/output
I0509 22:49:07.918412 21807 net.cpp:76] Creating Layer inception_5a/output
I0509 22:49:07.918418 21807 net.cpp:372] inception_5a/output <- inception_5a/1x1
I0509 22:49:07.918426 21807 net.cpp:372] inception_5a/output <- inception_5a/3x3
I0509 22:49:07.918431 21807 net.cpp:372] inception_5a/output <- inception_5a/5x5
I0509 22:49:07.918455 21807 net.cpp:372] inception_5a/output <- inception_5a/pool_proj
I0509 22:49:07.918464 21807 net.cpp:334] inception_5a/output -> inception_5a/output
I0509 22:49:07.918473 21807 net.cpp:105] Setting up inception_5a/output
I0509 22:49:07.918480 21807 net.cpp:112] Top shape: 32 832 7 7 (1304576)
I0509 22:49:07.918486 21807 layer_factory.hpp:74] Creating layer inception_5a/output_inception_5a/output_0_split
I0509 22:49:07.918494 21807 net.cpp:76] Creating Layer inception_5a/output_inception_5a/output_0_split
I0509 22:49:07.918500 21807 net.cpp:372] inception_5a/output_inception_5a/output_0_split <- inception_5a/output
I0509 22:49:07.918510 21807 net.cpp:334] inception_5a/output_inception_5a/output_0_split -> inception_5a/output_inception_5a/output_0_split_0
I0509 22:49:07.918520 21807 net.cpp:334] inception_5a/output_inception_5a/output_0_split -> inception_5a/output_inception_5a/output_0_split_1
I0509 22:49:07.918530 21807 net.cpp:334] inception_5a/output_inception_5a/output_0_split -> inception_5a/output_inception_5a/output_0_split_2
I0509 22:49:07.918541 21807 net.cpp:334] inception_5a/output_inception_5a/output_0_split -> inception_5a/output_inception_5a/output_0_split_3
I0509 22:49:07.918550 21807 net.cpp:105] Setting up inception_5a/output_inception_5a/output_0_split
I0509 22:49:07.918557 21807 net.cpp:112] Top shape: 32 832 7 7 (1304576)
I0509 22:49:07.918562 21807 net.cpp:112] Top shape: 32 832 7 7 (1304576)
I0509 22:49:07.918568 21807 net.cpp:112] Top shape: 32 832 7 7 (1304576)
I0509 22:49:07.918572 21807 net.cpp:112] Top shape: 32 832 7 7 (1304576)
I0509 22:49:07.918578 21807 layer_factory.hpp:74] Creating layer inception_5b/1x1
I0509 22:49:07.918589 21807 net.cpp:76] Creating Layer inception_5b/1x1
I0509 22:49:07.918596 21807 net.cpp:372] inception_5b/1x1 <- inception_5a/output_inception_5a/output_0_split_0
I0509 22:49:07.918603 21807 net.cpp:334] inception_5b/1x1 -> inception_5b/1x1
I0509 22:49:07.918612 21807 net.cpp:105] Setting up inception_5b/1x1
I0509 22:49:07.921288 21807 net.cpp:112] Top shape: 32 384 7 7 (602112)
I0509 22:49:07.921308 21807 layer_factory.hpp:74] Creating layer inception_5b/relu_1x1
I0509 22:49:07.921318 21807 net.cpp:76] Creating Layer inception_5b/relu_1x1
I0509 22:49:07.921325 21807 net.cpp:372] inception_5b/relu_1x1 <- inception_5b/1x1
I0509 22:49:07.921332 21807 net.cpp:323] inception_5b/relu_1x1 -> inception_5b/1x1 (in-place)
I0509 22:49:07.921341 21807 net.cpp:105] Setting up inception_5b/relu_1x1
I0509 22:49:07.921347 21807 net.cpp:112] Top shape: 32 384 7 7 (602112)
I0509 22:49:07.921353 21807 layer_factory.hpp:74] Creating layer inception_5b/3x3_reduce
I0509 22:49:07.921365 21807 net.cpp:76] Creating Layer inception_5b/3x3_reduce
I0509 22:49:07.921371 21807 net.cpp:372] inception_5b/3x3_reduce <- inception_5a/output_inception_5a/output_0_split_1
I0509 22:49:07.921380 21807 net.cpp:334] inception_5b/3x3_reduce -> inception_5b/3x3_reduce
I0509 22:49:07.921388 21807 net.cpp:105] Setting up inception_5b/3x3_reduce
I0509 22:49:07.922731 21807 net.cpp:112] Top shape: 32 192 7 7 (301056)
I0509 22:49:07.922746 21807 layer_factory.hpp:74] Creating layer inception_5b/relu_3x3_reduce
I0509 22:49:07.922755 21807 net.cpp:76] Creating Layer inception_5b/relu_3x3_reduce
I0509 22:49:07.922761 21807 net.cpp:372] inception_5b/relu_3x3_reduce <- inception_5b/3x3_reduce
I0509 22:49:07.922773 21807 net.cpp:323] inception_5b/relu_3x3_reduce -> inception_5b/3x3_reduce (in-place)
I0509 22:49:07.922781 21807 net.cpp:105] Setting up inception_5b/relu_3x3_reduce
I0509 22:49:07.922787 21807 net.cpp:112] Top shape: 32 192 7 7 (301056)
I0509 22:49:07.922792 21807 layer_factory.hpp:74] Creating layer inception_5b/3x3
I0509 22:49:07.922801 21807 net.cpp:76] Creating Layer inception_5b/3x3
I0509 22:49:07.922806 21807 net.cpp:372] inception_5b/3x3 <- inception_5b/3x3_reduce
I0509 22:49:07.922816 21807 net.cpp:334] inception_5b/3x3 -> inception_5b/3x3
I0509 22:49:07.922827 21807 net.cpp:105] Setting up inception_5b/3x3
I0509 22:49:07.928764 21807 net.cpp:112] Top shape: 32 384 7 7 (602112)
I0509 22:49:07.928822 21807 layer_factory.hpp:74] Creating layer inception_5b/relu_3x3
I0509 22:49:07.928833 21807 net.cpp:76] Creating Layer inception_5b/relu_3x3
I0509 22:49:07.928840 21807 net.cpp:372] inception_5b/relu_3x3 <- inception_5b/3x3
I0509 22:49:07.928851 21807 net.cpp:323] inception_5b/relu_3x3 -> inception_5b/3x3 (in-place)
I0509 22:49:07.928864 21807 net.cpp:105] Setting up inception_5b/relu_3x3
I0509 22:49:07.928869 21807 net.cpp:112] Top shape: 32 384 7 7 (602112)
I0509 22:49:07.928875 21807 layer_factory.hpp:74] Creating layer inception_5b/5x5_reduce
I0509 22:49:07.928885 21807 net.cpp:76] Creating Layer inception_5b/5x5_reduce
I0509 22:49:07.928891 21807 net.cpp:372] inception_5b/5x5_reduce <- inception_5a/output_inception_5a/output_0_split_2
I0509 22:49:07.928900 21807 net.cpp:334] inception_5b/5x5_reduce -> inception_5b/5x5_reduce
I0509 22:49:07.928910 21807 net.cpp:105] Setting up inception_5b/5x5_reduce
I0509 22:49:07.929251 21807 net.cpp:112] Top shape: 32 48 7 7 (75264)
I0509 22:49:07.929265 21807 layer_factory.hpp:74] Creating layer inception_5b/relu_5x5_reduce
I0509 22:49:07.929286 21807 net.cpp:76] Creating Layer inception_5b/relu_5x5_reduce
I0509 22:49:07.929294 21807 net.cpp:372] inception_5b/relu_5x5_reduce <- inception_5b/5x5_reduce
I0509 22:49:07.929355 21807 net.cpp:323] inception_5b/relu_5x5_reduce -> inception_5b/5x5_reduce (in-place)
I0509 22:49:07.929366 21807 net.cpp:105] Setting up inception_5b/relu_5x5_reduce
I0509 22:49:07.929373 21807 net.cpp:112] Top shape: 32 48 7 7 (75264)
I0509 22:49:07.929378 21807 layer_factory.hpp:74] Creating layer inception_5b/5x5
I0509 22:49:07.929388 21807 net.cpp:76] Creating Layer inception_5b/5x5
I0509 22:49:07.929394 21807 net.cpp:372] inception_5b/5x5 <- inception_5b/5x5_reduce
I0509 22:49:07.929404 21807 net.cpp:334] inception_5b/5x5 -> inception_5b/5x5
I0509 22:49:07.929414 21807 net.cpp:105] Setting up inception_5b/5x5
I0509 22:49:07.930722 21807 net.cpp:112] Top shape: 32 128 7 7 (200704)
I0509 22:49:07.930739 21807 layer_factory.hpp:74] Creating layer inception_5b/relu_5x5
I0509 22:49:07.930748 21807 net.cpp:76] Creating Layer inception_5b/relu_5x5
I0509 22:49:07.930754 21807 net.cpp:372] inception_5b/relu_5x5 <- inception_5b/5x5
I0509 22:49:07.930762 21807 net.cpp:323] inception_5b/relu_5x5 -> inception_5b/5x5 (in-place)
I0509 22:49:07.930773 21807 net.cpp:105] Setting up inception_5b/relu_5x5
I0509 22:49:07.930778 21807 net.cpp:112] Top shape: 32 128 7 7 (200704)
I0509 22:49:07.930784 21807 layer_factory.hpp:74] Creating layer inception_5b/pool
I0509 22:49:07.930794 21807 net.cpp:76] Creating Layer inception_5b/pool
I0509 22:49:07.930799 21807 net.cpp:372] inception_5b/pool <- inception_5a/output_inception_5a/output_0_split_3
I0509 22:49:07.930809 21807 net.cpp:334] inception_5b/pool -> inception_5b/pool
I0509 22:49:07.930819 21807 net.cpp:105] Setting up inception_5b/pool
I0509 22:49:07.930827 21807 net.cpp:112] Top shape: 32 832 7 7 (1304576)
I0509 22:49:07.930833 21807 layer_factory.hpp:74] Creating layer inception_5b/pool_proj
I0509 22:49:07.930842 21807 net.cpp:76] Creating Layer inception_5b/pool_proj
I0509 22:49:07.930848 21807 net.cpp:372] inception_5b/pool_proj <- inception_5b/pool
I0509 22:49:07.930858 21807 net.cpp:334] inception_5b/pool_proj -> inception_5b/pool_proj
I0509 22:49:07.930868 21807 net.cpp:105] Setting up inception_5b/pool_proj
I0509 22:49:07.931778 21807 net.cpp:112] Top shape: 32 128 7 7 (200704)
I0509 22:49:07.931793 21807 layer_factory.hpp:74] Creating layer inception_5b/relu_pool_proj
I0509 22:49:07.931803 21807 net.cpp:76] Creating Layer inception_5b/relu_pool_proj
I0509 22:49:07.931810 21807 net.cpp:372] inception_5b/relu_pool_proj <- inception_5b/pool_proj
I0509 22:49:07.931818 21807 net.cpp:323] inception_5b/relu_pool_proj -> inception_5b/pool_proj (in-place)
I0509 22:49:07.931829 21807 net.cpp:105] Setting up inception_5b/relu_pool_proj
I0509 22:49:07.931835 21807 net.cpp:112] Top shape: 32 128 7 7 (200704)
I0509 22:49:07.931841 21807 layer_factory.hpp:74] Creating layer inception_5b/output
I0509 22:49:07.931869 21807 net.cpp:76] Creating Layer inception_5b/output
I0509 22:49:07.931877 21807 net.cpp:372] inception_5b/output <- inception_5b/1x1
I0509 22:49:07.931885 21807 net.cpp:372] inception_5b/output <- inception_5b/3x3
I0509 22:49:07.931890 21807 net.cpp:372] inception_5b/output <- inception_5b/5x5
I0509 22:49:07.931897 21807 net.cpp:372] inception_5b/output <- inception_5b/pool_proj
I0509 22:49:07.931905 21807 net.cpp:334] inception_5b/output -> inception_5b/output
I0509 22:49:07.931913 21807 net.cpp:105] Setting up inception_5b/output
I0509 22:49:07.931921 21807 net.cpp:112] Top shape: 32 1024 7 7 (1605632)
I0509 22:49:07.931926 21807 layer_factory.hpp:74] Creating layer pool5/7x7_s1
I0509 22:49:07.931936 21807 net.cpp:76] Creating Layer pool5/7x7_s1
I0509 22:49:07.931941 21807 net.cpp:372] pool5/7x7_s1 <- inception_5b/output
I0509 22:49:07.931949 21807 net.cpp:334] pool5/7x7_s1 -> pool5/7x7_s1
I0509 22:49:07.931957 21807 net.cpp:105] Setting up pool5/7x7_s1
I0509 22:49:07.931964 21807 net.cpp:112] Top shape: 32 1024 1 1 (32768)
I0509 22:49:07.931970 21807 layer_factory.hpp:74] Creating layer pool5/drop_7x7_s1
I0509 22:49:07.931982 21807 net.cpp:76] Creating Layer pool5/drop_7x7_s1
I0509 22:49:07.931988 21807 net.cpp:372] pool5/drop_7x7_s1 <- pool5/7x7_s1
I0509 22:49:07.931995 21807 net.cpp:323] pool5/drop_7x7_s1 -> pool5/7x7_s1 (in-place)
I0509 22:49:07.932003 21807 net.cpp:105] Setting up pool5/drop_7x7_s1
I0509 22:49:07.932010 21807 net.cpp:112] Top shape: 32 1024 1 1 (32768)
I0509 22:49:07.932018 21807 layer_factory.hpp:74] Creating layer loss3/classifier
I0509 22:49:07.932030 21807 net.cpp:76] Creating Layer loss3/classifier
I0509 22:49:07.932036 21807 net.cpp:372] loss3/classifier <- pool5/7x7_s1
I0509 22:49:07.932045 21807 net.cpp:334] loss3/classifier -> loss3/classifier
I0509 22:49:07.932054 21807 net.cpp:105] Setting up loss3/classifier
I0509 22:49:07.932086 21807 net.cpp:112] Top shape: 32 2 1 1 (64)
I0509 22:49:07.932096 21807 layer_factory.hpp:74] Creating layer loss3/classifier_loss3/classifier_0_split
I0509 22:49:07.932107 21807 net.cpp:76] Creating Layer loss3/classifier_loss3/classifier_0_split
I0509 22:49:07.932114 21807 net.cpp:372] loss3/classifier_loss3/classifier_0_split <- loss3/classifier
I0509 22:49:07.932121 21807 net.cpp:334] loss3/classifier_loss3/classifier_0_split -> loss3/classifier_loss3/classifier_0_split_0
I0509 22:49:07.932132 21807 net.cpp:334] loss3/classifier_loss3/classifier_0_split -> loss3/classifier_loss3/classifier_0_split_1
I0509 22:49:07.932139 21807 net.cpp:105] Setting up loss3/classifier_loss3/classifier_0_split
I0509 22:49:07.932147 21807 net.cpp:112] Top shape: 32 2 1 1 (64)
I0509 22:49:07.932152 21807 net.cpp:112] Top shape: 32 2 1 1 (64)
I0509 22:49:07.932157 21807 layer_factory.hpp:74] Creating layer loss3/loss3
I0509 22:49:07.932168 21807 net.cpp:76] Creating Layer loss3/loss3
I0509 22:49:07.932173 21807 net.cpp:372] loss3/loss3 <- loss3/classifier_loss3/classifier_0_split_0
I0509 22:49:07.932180 21807 net.cpp:372] loss3/loss3 <- label_data_1_split_4
I0509 22:49:07.932188 21807 net.cpp:334] loss3/loss3 -> loss3/loss3
I0509 22:49:07.932198 21807 net.cpp:105] Setting up loss3/loss3
I0509 22:49:07.932205 21807 layer_factory.hpp:74] Creating layer loss3/loss3
I0509 22:49:07.932220 21807 net.cpp:112] Top shape: 1 1 1 1 (1)
I0509 22:49:07.932227 21807 net.cpp:118]     with loss weight 1
I0509 22:49:07.932245 21807 layer_factory.hpp:74] Creating layer loss3/top-1
I0509 22:49:07.932253 21807 net.cpp:76] Creating Layer loss3/top-1
I0509 22:49:07.932260 21807 net.cpp:372] loss3/top-1 <- loss3/classifier_loss3/classifier_0_split_1
I0509 22:49:07.932265 21807 net.cpp:372] loss3/top-1 <- label_data_1_split_5
I0509 22:49:07.932291 21807 net.cpp:334] loss3/top-1 -> loss3/top-1
I0509 22:49:07.932320 21807 net.cpp:105] Setting up loss3/top-1
I0509 22:49:07.932328 21807 net.cpp:112] Top shape: 1 1 1 1 (1)
I0509 22:49:07.932335 21807 net.cpp:165] loss3/top-1 does not need backward computation.
I0509 22:49:07.932340 21807 net.cpp:163] loss3/loss3 needs backward computation.
I0509 22:49:07.932359 21807 net.cpp:163] loss3/classifier_loss3/classifier_0_split needs backward computation.
I0509 22:49:07.932365 21807 net.cpp:163] loss3/classifier needs backward computation.
I0509 22:49:07.932371 21807 net.cpp:163] pool5/drop_7x7_s1 needs backward computation.
…
