…
I0511 02:12:37.700094 12661 net.cpp:253] The NetState phase (0) differed from the phase (1) specified by a rule in layer loss3/top-1
I0511 02:12:37.701432 12661 net.cpp:42] Initializing net from parameters: 
name: "GoogleNet"
state {
  phase: TRAIN
}
layer {
  name: "data"
  type: "Data"
  top: "data"
  top: "label"
  include {
    phase: TRAIN
  }
  transform_param {
    mirror: true
    crop_size: 224
    mean_value: 104
    mean_value: 117
    mean_value: 123
  }
  data_param {
    source: "train_lmdb"
    batch_size: 32
    backend: LMDB
  }
}
layer {
  name: "conv1/7x7_s2"
  type: "Convolution"
  bottom: "data"
  top: "conv1/7x7_s2"
  param {
    lr_mult: 1
    decay_mult: 1
  }
  param {
    lr_mult: 2
    decay_mult: 0
  }
  convolution_param {
    num_output: 64
    pad: 3
    kernel_size: 7
    stride: 2
    weight_filler {
      type: "xavier"
      std: 0.1
    }
    bias_filler {
      type: "constant"
      value: 0.2
    }
  }
}
layer {
  name: "conv1/relu_7x7"
  type: "ReLU"
  bottom: "conv1/7x7_s2"
  top: "conv1/7x7_s2"
}
layer {
  name: "pool1/3x3_s2"
  type: "Pooling"
  bottom: "conv1/7x7_s2"
  top: "pool1/3x3_s2"
  pooling_param {
    pool: MAX
    kernel_size: 3
    stride: 2
  }
}
layer {
  name: "pool1/norm1"
  type: "LRN"
  bottom: "pool1/3x3_s2"
  top: "pool1/norm1"
  lrn_param {
    local_size: 5
    alpha: 0.0001
    beta: 0.75
  }
}
layer {
  name: "conv2/3x3_reduce"
  type: "Convolution"
  bottom: "pool1/norm1"
  top: "conv2/3x3_reduce"
  param {
    lr_mult: 1
    decay_mult: 1
  }
  param {
    lr_mult: 2
    decay_mult: 0
  }
  convolution_param {
    num_output: 64
    kernel_size: 1
    weight_filler {
      type: "xavier"
      std: 0.1
    }
    bias_filler {
      type: "constant"
      value: 0.2
    }
  }
}
layer {
  name: "conv2/relu_3x3_reduce"
  type: "ReLU"
  bottom: "conv2/3x3_reduce"
  top: "conv2/3x3_reduce"
}
layer {
  name: "conv2/3x3"
  type: "Convolution"
  bottom: "conv2/3x3_reduce"
  top: "conv2/3x3"
  param {
    lr_mult: 1
    decay_mult: 1
  }
  param {
    lr_mult: 2
    decay_mult: 0
  }
  convolution_param {
    num_output: 192
    pad: 1
    kernel_size: 3
    weight_filler {
      type: "xavier"
      std: 0.03
    }
    bias_filler {
      type: "constant"
      value: 0.2
    }
  }
}
layer {
  name: "conv2/relu_3x3"
  type: "ReLU"
  bottom: "conv2/3x3"
  top: "conv2/3x3"
}
layer {
  name: "conv2/norm2"
  type: "LRN"
  bottom: "conv2/3x3"
  top: "conv2/norm2"
  lrn_param {
    local_size: 5
    alpha: 0.0001
    beta: 0.75
  }
}
layer {
  name: "pool2/3x3_s2"
  type: "Pooling"
  bottom: "conv2/norm2"
  top: "pool2/3x3_s2"
  pooling_param {
    pool: MAX
    kernel_size: 3
    stride: 2
  }
}
layer {
  name: "inception_3a/1x1"
  type: "Convolution"
  bottom: "pool2/3x3_s2"
  top: "inception_3a/1x1"
  param {
    lr_mult: 1
    decay_mult: 1
  }
  param {
    lr_mult: 2
    decay_mult: 0
  }
  convolution_param {
    num_output: 64
    kernel_size: 1
    weight_filler {
      type: "xavier"
      std: 0.03
    }
    bias_filler {
      type: "constant"
      value: 0.2
    }
  }
}
layer {
  name: "inception_3a/relu_1x1"
  type: "ReLU"
  bottom: "inception_3a/1x1"
  top: "inception_3a/1x1"
}
layer {
  name: "inception_3a/3x3_reduce"
  type: "Convolution"
  bottom: "pool2/3x3_s2"
  top: "inception_3a/3x3_reduce"
  param {
    lr_mult: 1
    decay_mult: 1
  }
  param {
    lr_mult: 2
    decay_mult: 0
  }
  convolution_param {
    num_output: 96
    kernel_size: 1
    weight_filler {
      type: "xavier"
      std: 0.09
    }
    bias_filler {
      type: "constant"
      value: 0.2
    }
  }
}
layer {
  name: "inception_3a/relu_3x3_reduce"
  type: "ReLU"
  bottom: "inception_3a/3x3_reduce"
  top: "inception_3a/3x3_reduce"
}
layer {
  name: "inception_3a/3x3"
  type: "Convolution"
  bottom: "inception_3a/3x3_reduce"
  top: "inception_3a/3x3"
  param {
    lr_mult: 1
    decay_mult: 1
  }
  param {
    lr_mult: 2
    decay_mult: 0
  }
  convolution_param {
    num_output: 128
    pad: 1
    kernel_size: 3
    weight_filler {
      type: "xavier"
      std: 0.03
    }
    bias_filler {
      type: "constant"
      value: 0.2
    }
  }
}
layer {
  name: "inception_3a/relu_3x3"
  type: "ReLU"
  bottom: "inception_3a/3x3"
  top: "inception_3a/3x3"
}
layer {
  name: "inception_3a/5x5_reduce"
  type: "Convolution"
  bottom: "pool2/3x3_s2"
  top: "inception_3a/5x5_reduce"
  param {
    lr_mult: 1
    decay_mult: 1
  }
  param {
    lr_mult: 2
    decay_mult: 0
  }
  convolution_param {
    num_output: 16
    kernel_size: 1
    weight_filler {
      type: "xavier"
      std: 0.2
    }
    bias_filler {
      type: "constant"
      value: 0.2
    }
  }
}
layer {
  name: "inception_3a/relu_5x5_reduce"
  type: "ReLU"
  bottom: "inception_3a/5x5_reduce"
  top: "inception_3a/5x5_reduce"
}
layer {
  name: "inception_3a/5x5"
  type: "Convolution"
  bottom: "inception_3a/5x5_reduce"
  top: "inception_3a/5x5"
  param {
    lr_mult: 1
    decay_mult: 1
  }
  param {
    lr_mult: 2
    decay_mult: 0
  }
  convolution_param {
    num_output: 32
    pad: 2
    kernel_size: 5
    weight_filler {
      type: "xavier"
      std: 0.03
    }
    bias_filler {
      type: "constant"
      value: 0.2
    }
  }
}
layer {
  name: "inception_3a/relu_5x5"
  type: "ReLU"
  bottom: "inception_3a/5x5"
  top: "inception_3a/5x5"
}
layer {
  name: "inception_3a/pool"
  type: "Pooling"
  bottom: "pool2/3x3_s2"
  top: "inception_3a/pool"
  pooling_param {
    pool: MAX
    kernel_size: 3
    stride: 1
    pad: 1
  }
}
layer {
  name: "inception_3a/pool_proj"
  type: "Convolution"
  bottom: "inception_3a/pool"
  top: "inception_3a/pool_proj"
  param {
    lr_mult: 1
    decay_mult: 1
  }
  param {
    lr_mult: 2
    decay_mult: 0
  }
  convolution_param {
    num_output: 32
    kernel_size: 1
    weight_filler {
      type: "xavier"
      std: 0.1
    }
    bias_filler {
      type: "constant"
      value: 0.2
    }
  }
}
layer {
  name: "inception_3a/relu_pool_proj"
  type: "ReLU"
  bottom: "inception_3a/pool_proj"
  top: "inception_3a/pool_proj"
}
layer {
  name: "inception_3a/output"
  type: "Concat"
  bottom: "inception_3a/1x1"
  bottom: "inception_3a/3x3"
  bottom: "inception_3a/5x5"
  bottom: "inception_3a/pool_proj"
  top: "inception_3a/output"
}
layer {
  name: "inception_3b/1x1"
  type: "Convolution"
  bottom: "inception_3a/output"
  top: "inception_3b/1x1"
  param {
    lr_mult: 1
    decay_mult: 1
  }
  param {
    lr_mult: 2
    decay_mult: 0
  }
  convolution_param {
    num_output: 128
    kernel_size: 1
    weight_filler {
      type: "xavier"
      std: 0.03
    }
    bias_filler {
      type: "constant"
      value: 0.2
    }
  }
}
layer {
  name: "inception_3b/relu_1x1"
  type: "ReLU"
  bottom: "inception_3b/1x1"
  top: "inception_3b/1x1"
}
layer {
  name: "inception_3b/3x3_reduce"
  type: "Convolution"
  bottom: "inception_3a/output"
  top: "inception_3b/3x3_reduce"
  param {
    lr_mult: 1
    decay_mult: 1
  }
  param {
    lr_mult: 2
    decay_mult: 0
  }
  convolution_param {
    num_output: 128
    kernel_size: 1
    weight_filler {
      type: "xavier"
      std: 0.09
    }
    bias_filler {
      type: "constant"
      value: 0.2
    }
  }
}
layer {
  name: "inception_3b/relu_3x3_reduce"
  type: "ReLU"
  bottom: "inception_3b/3x3_reduce"
  top: "inception_3b/3x3_reduce"
}
layer {
  name: "inception_3b/3x3"
  type: "Convolution"
  bottom: "inception_3b/3x3_reduce"
  top: "inception_3b/3x3"
  param {
    lr_mult: 1
    decay_mult: 1
  }
  param {
    lr_mult: 2
    decay_mult: 0
  }
  convolution_param {
    num_output: 192
    pad: 1
    kernel_size: 3
    weight_filler {
      type: "xavier"
      std: 0.03
    }
    bias_filler {
      type: "constant"
      value: 0.2
    }
  }
}
layer {
  name: "inception_3b/relu_3x3"
  type: "ReLU"
  bottom: "inception_3b/3x3"
  top: "inception_3b/3x3"
}
layer {
  name: "inception_3b/5x5_reduce"
  type: "Convolution"
  bottom: "inception_3a/output"
  top: "inception_3b/5x5_reduce"
  param {
    lr_mult: 1
    decay_mult: 1
  }
  param {
    lr_mult: 2
    decay_mult: 0
  }
  convolution_param {
    num_output: 32
    kernel_size: 1
    weight_filler {
      type: "xavier"
      std: 0.2
    }
    bias_filler {
      type: "constant"
      value: 0.2
    }
  }
}
layer {
  name: "inception_3b/relu_5x5_reduce"
  type: "ReLU"
  bottom: "inception_3b/5x5_reduce"
  top: "inception_3b/5x5_reduce"
}
layer {
  name: "inception_3b/5x5"
  type: "Convolution"
  bottom: "inception_3b/5x5_reduce"
  top: "inception_3b/5x5"
  param {
    lr_mult: 1
    decay_mult: 1
  }
  param {
    lr_mult: 2
    decay_mult: 0
  }
  convolution_param {
    num_output: 96
    pad: 2
    kernel_size: 5
    weight_filler {
      type: "xavier"
      std: 0.03
    }
    bias_filler {
      type: "constant"
      value: 0.2
    }
  }
}
layer {
  name: "inception_3b/relu_5x5"
  type: "ReLU"
  bottom: "inception_3b/5x5"
  top: "inception_3b/5x5"
}
layer {
  name: "inception_3b/pool"
  type: "Pooling"
  bottom: "inception_3a/output"
  top: "inception_3b/pool"
  pooling_param {
    pool: MAX
    kernel_size: 3
    stride: 1
    pad: 1
  }
}
layer {
  name: "inception_3b/pool_proj"
  type: "Convolution"
  bottom: "inception_3b/pool"
  top: "inception_3b/pool_proj"
  param {
    lr_mult: 1
    decay_mult: 1
  }
  param {
    lr_mult: 2
    decay_mult: 0
  }
  convolution_param {
    num_output: 64
    kernel_size: 1
    weight_filler {
      type: "xavier"
      std: 0.1
    }
    bias_filler {
      type: "constant"
      value: 0.2
    }
  }
}
layer {
  name: "inception_3b/relu_pool_proj"
  type: "ReLU"
  bottom: "inception_3b/pool_proj"
  top: "inception_3b/pool_proj"
}
layer {
  name: "inception_3b/output"
  type: "Concat"
  bottom: "inception_3b/1x1"
  bottom: "inception_3b/3x3"
  bottom: "inception_3b/5x5"
  bottom: "inception_3b/pool_proj"
  top: "inception_3b/output"
}
layer {
  name: "pool3/3x3_s2"
  type: "Pooling"
  bottom: "inception_3b/output"
  top: "pool3/3x3_s2"
  pooling_param {
    pool: MAX
    kernel_size: 3
    stride: 2
  }
}
layer {
  name: "inception_4a/1x1"
  type: "Convolution"
  bottom: "pool3/3x3_s2"
  top: "inception_4a/1x1"
  param {
    lr_mult: 1
    decay_mult: 1
  }
  param {
    lr_mult: 2
    decay_mult: 0
  }
  convolution_param {
    num_output: 192
    kernel_size: 1
    weight_filler {
      type: "xavier"
      std: 0.03
    }
    bias_filler {
      type: "constant"
      value: 0.2
    }
  }
}
layer {
  name: "inception_4a/relu_1x1"
  type: "ReLU"
  bottom: "inception_4a/1x1"
  top: "inception_4a/1x1"
}
layer {
  name: "inception_4a/3x3_reduce"
  type: "Convolution"
  bottom: "pool3/3x3_s2"
  top: "inception_4a/3x3_reduce"
  param {
    lr_mult: 1
    decay_mult: 1
  }
  param {
    lr_mult: 2
    decay_mult: 0
  }
  convolution_param {
    num_output: 96
    kernel_size: 1
    weight_filler {
      type: "xavier"
      std: 0.09
    }
    bias_filler {
      type: "constant"
      value: 0.2
    }
  }
}
layer {
  name: "inception_4a/relu_3x3_reduce"
  type: "ReLU"
  bottom: "inception_4a/3x3_reduce"
  top: "inception_4a/3x3_reduce"
}
layer {
  name: "inception_4a/3x3"
  type: "Convolution"
  bottom: "inception_4a/3x3_reduce"
  top: "inception_4a/3x3"
  param {
    lr_mult: 1
    decay_mult: 1
  }
  param {
    lr_mult: 2
    decay_mult: 0
  }
  convolution_param {
    num_output: 208
    pad: 1
    kernel_size: 3
    weight_filler {
      type: "xavier"
      std: 0.03
    }
    bias_filler {
      type: "constant"
      value: 0.2
    }
  }
}
layer {
  name: "inception_4a/relu_3x3"
  type: "ReLU"
  bottom: "inception_4a/3x3"
  top: "inception_4a/3x3"
}
layer {
  name: "inception_4a/5x5_reduce"
  type: "Convolution"
  bottom: "pool3/3x3_s2"
  top: "inception_4a/5x5_reduce"
  param {
    lr_mult: 1
    decay_mult: 1
  }
  param {
    lr_mult: 2
    decay_mult: 0
  }
  convolution_param {
    num_output: 16
    kernel_size: 1
    weight_filler {
      type: "xavier"
      std: 0.2
    }
    bias_filler {
      type: "constant"
      value: 0.2
    }
  }
}
layer {
  name: "inception_4a/relu_5x5_reduce"
  type: "ReLU"
  bottom: "inception_4a/5x5_reduce"
  top: "inception_4a/5x5_reduce"
}
layer {
  name: "inception_4a/5x5"
  type: "Convolution"
  bottom: "inception_4a/5x5_reduce"
  top: "inception_4a/5x5"
  param {
    lr_mult: 1
    decay_mult: 1
  }
  param {
    lr_mult: 2
    decay_mult: 0
  }
  convolution_param {
    num_output: 48
    pad: 2
    kernel_size: 5
    weight_filler {
      type: "xavier"
      std: 0.03
    }
    bias_filler {
      type: "constant"
      value: 0.2
    }
  }
}
layer {
  name: "inception_4a/relu_5x5"
  type: "ReLU"
  bottom: "inception_4a/5x5"
  top: "inception_4a/5x5"
}
layer {
  name: "inception_4a/pool"
  type: "Pooling"
  bottom: "pool3/3x3_s2"
  top: "inception_4a/pool"
  pooling_param {
    pool: MAX
    kernel_size: 3
    stride: 1
    pad: 1
  }
}
layer {
  name: "inception_4a/pool_proj"
  type: "Convolution"
  bottom: "inception_4a/pool"
  top: "inception_4a/pool_proj"
  param {
    lr_mult: 1
    decay_mult: 1
  }
  param {
    lr_mult: 2
    decay_mult: 0
  }
  convolution_param {
    num_output: 64
    kernel_size: 1
    weight_filler {
      type: "xavier"
      std: 0.1
    }
    bias_filler {
      type: "constant"
      value: 0.2
    }
  }
}
layer {
  name: "inception_4a/relu_pool_proj"
  type: "ReLU"
  bottom: "inception_4a/pool_proj"
  top: "inception_4a/pool_proj"
}
layer {
  name: "inception_4a/output"
  type: "Concat"
  bottom: "inception_4a/1x1"
  bottom: "inception_4a/3x3"
  bottom: "inception_4a/5x5"
  bottom: "inception_4a/pool_proj"
  top: "inception_4a/output"
}
layer {
  name: "loss1/ave_pool"
  type: "Pooling"
  bottom: "inception_4a/output"
  top: "loss1/ave_pool"
  pooling_param {
    pool: AVE
    kernel_size: 5
    stride: 3
  }
}
layer {
  name: "loss1/conv"
  type: "Convolution"
  bottom: "loss1/ave_pool"
  top: "loss1/conv"
  param {
    lr_mult: 1
    decay_mult: 1
  }
  param {
    lr_mult: 2
    decay_mult: 0
  }
  convolution_param {
    num_output: 128
    kernel_size: 1
    weight_filler {
      type: "xavier"
      std: 0.08
    }
    bias_filler {
      type: "constant"
      value: 0.2
    }
  }
}
layer {
  name: "loss1/relu_conv"
  type: "ReLU"
  bottom: "loss1/conv"
  top: "loss1/conv"
}
layer {
  name: "loss1/fc"
  type: "InnerProduct"
  bottom: "loss1/conv"
  top: "loss1/fc"
  param {
    lr_mult: 1
    decay_mult: 1
  }
  param {
    lr_mult: 2
    decay_mult: 0
  }
  inner_product_param {
    num_output: 1024
    weight_filler {
      type: "xavier"
      std: 0.02
    }
    bias_filler {
      type: "constant"
      value: 0.2
    }
  }
}
layer {
  name: "loss1/relu_fc"
  type: "ReLU"
  bottom: "loss1/fc"
  top: "loss1/fc"
}
layer {
  name: "loss1/drop_fc"
  type: "Dropout"
  bottom: "loss1/fc"
  top: "loss1/fc"
  dropout_param {
    dropout_ratio: 0.7
  }
}
layer {
  name: "loss1/classifier"
  type: "InnerProduct"
  bottom: "loss1/fc"
  top: "loss1/classifier"
  param {
    lr_mult: 1
    decay_mult: 1
  }
  param {
    lr_mult: 2
    decay_mult: 0
  }
  inner_product_param {
    num_output: 2
    weight_filler {
      type: "xavier"
      std: 0.0009765625
    }
    bias_filler {
      type: "constant"
      value: 0
    }
  }
}
layer {
  name: "loss1/loss"
  type: "SoftmaxWithLoss"
  bottom: "loss1/classifier"
  bottom: "label"
  top: "loss1/loss1"
  loss_weight: 0.3
}
layer {
  name: "inception_4b/1x1"
  type: "Convolution"
  bottom: "inception_4a/output"
  top: "inception_4b/1x1"
  param {
    lr_mult: 1
    decay_mult: 1
  }
  param {
    lr_mult: 2
    decay_mult: 0
  }
  convolution_param {
    num_output: 160
    kernel_size: 1
    weight_filler {
      type: "xavier"
      std: 0.03
    }
    bias_filler {
      type: "constant"
      value: 0.2
    }
  }
}
layer {
  name: "inception_4b/relu_1x1"
  type: "ReLU"
  bottom: "inception_4b/1x1"
  top: "inception_4b/1x1"
}
layer {
  name: "inception_4b/3x3_reduce"
  type: "Convolution"
  bottom: "inception_4a/output"
  top: "inception_4b/3x3_reduce"
  param {
    lr_mult: 1
    decay_mult: 1
  }
  param {
    lr_mult: 2
    decay_mult: 0
  }
  convolution_param {
    num_output: 112
    kernel_size: 1
    weight_filler {
      type: "xavier"
      std: 0.09
    }
    bias_filler {
      type: "constant"
      value: 0.2
    }
  }
}
layer {
  name: "inception_4b/relu_3x3_reduce"
  type: "ReLU"
  bottom: "inception_4b/3x3_reduce"
  top: "inception_4b/3x3_reduce"
}
layer {
  name: "inception_4b/3x3"
  type: "Convolution"
  bottom: "inception_4b/3x3_reduce"
  top: "inception_4b/3x3"
  param {
    lr_mult: 1
    decay_mult: 1
  }
  param {
    lr_mult: 2
    decay_mult: 0
  }
  convolution_param {
    num_output: 224
    pad: 1
    kernel_size: 3
    weight_filler {
      type: "xavier"
      std: 0.03
    }
    bias_filler {
      type: "constant"
      value: 0.2
    }
  }
}
layer {
  name: "inception_4b/relu_3x3"
  type: "ReLU"
  bottom: "inception_4b/3x3"
  top: "inception_4b/3x3"
}
layer {
  name: "inception_4b/5x5_reduce"
  type: "Convolution"
  bottom: "inception_4a/output"
  top: "inception_4b/5x5_reduce"
  param {
    lr_mult: 1
    decay_mult: 1
  }
  param {
    lr_mult: 2
    decay_mult: 0
  }
  convolution_param {
    num_output: 24
    kernel_size: 1
    weight_filler {
      type: "xavier"
      std: 0.2
    }
    bias_filler {
      type: "constant"
      value: 0.2
    }
  }
}
layer {
  name: "inception_4b/relu_5x5_reduce"
  type: "ReLU"
  bottom: "inception_4b/5x5_reduce"
  top: "inception_4b/5x5_reduce"
}
layer {
  name: "inception_4b/5x5"
  type: "Convolution"
  bottom: "inception_4b/5x5_reduce"
  top: "inception_4b/5x5"
  param {
    lr_mult: 1
    decay_mult: 1
  }
  param {
    lr_mult: 2
    decay_mult: 0
  }
  convolution_param {
    num_output: 64
    pad: 2
    kernel_size: 5
    weight_filler {
      type: "xavier"
      std: 0.03
    }
    bias_filler {
      type: "constant"
      value: 0.2
    }
  }
}
layer {
  name: "inception_4b/relu_5x5"
  type: "ReLU"
  bottom: "inception_4b/5x5"
  top: "inception_4b/5x5"
}
layer {
  name: "inception_4b/pool"
  type: "Pooling"
  bottom: "inception_4a/output"
  top: "inception_4b/pool"
  pooling_param {
    pool: MAX
    kernel_size: 3
    stride: 1
    pad: 1
  }
}
layer {
  name: "inception_4b/pool_proj"
  type: "Convolution"
  bottom: "inception_4b/pool"
  top: "inception_4b/pool_proj"
  param {
    lr_mult: 1
    decay_mult: 1
  }
  param {
    lr_mult: 2
    decay_mult: 0
  }
  convolution_param {
    num_output: 64
    kernel_size: 1
    weight_filler {
      type: "xavier"
      std: 0.1
    }
    bias_filler {
      type: "constant"
      value: 0.2
    }
  }
}
layer {
  name: "inception_4b/relu_pool_proj"
  type: "ReLU"
  bottom: "inception_4b/pool_proj"
  top: "inception_4b/pool_proj"
}
layer {
  name: "inception_4b/output"
  type: "Concat"
  bottom: "inception_4b/1x1"
  bottom: "inception_4b/3x3"
  bottom: "inception_4b/5x5"
  bottom: "inception_4b/pool_proj"
  top: "inception_4b/output"
}
layer {
  name: "inception_4c/1x1"
  type: "Convolution"
  bottom: "inception_4b/output"
  top: "inception_4c/1x1"
  param {
    lr_mult: 1
    decay_mult: 1
  }
  param {
    lr_mult: 2
    decay_mult: 0
  }
  convolution_param {
    num_output: 128
    kernel_size: 1
    weight_filler {
      type: "xavier"
      std: 0.03
    }
    bias_filler {
      type: "constant"
      value: 0.2
    }
  }
}
layer {
  name: "inception_4c/relu_1x1"
  type: "ReLU"
  bottom: "inception_4c/1x1"
  top: "inception_4c/1x1"
}
layer {
  name: "inception_4c/3x3_reduce"
  type: "Convolution"
  bottom: "inception_4b/output"
  top: "inception_4c/3x3_reduce"
  param {
    lr_mult: 1
    decay_mult: 1
  }
  param {
    lr_mult: 2
    decay_mult: 0
  }
  convolution_param {
    num_output: 128
    kernel_size: 1
    weight_filler {
      type: "xavier"
      std: 0.09
    }
    bias_filler {
      type: "constant"
      value: 0.2
    }
  }
}
layer {
  name: "inception_4c/relu_3x3_reduce"
  type: "ReLU"
  bottom: "inception_4c/3x3_reduce"
  top: "inception_4c/3x3_reduce"
}
layer {
  name: "inception_4c/3x3"
  type: "Convolution"
  bottom: "inception_4c/3x3_reduce"
  top: "inception_4c/3x3"
  param {
    lr_mult: 1
    decay_mult: 1
  }
  param {
    lr_mult: 2
    decay_mult: 0
  }
  convolution_param {
    num_output: 256
    pad: 1
    kernel_size: 3
    weight_filler {
      type: "xavier"
      std: 0.03
    }
    bias_filler {
      type: "constant"
      value: 0.2
    }
  }
}
layer {
  name: "inception_4c/relu_3x3"
  type: "ReLU"
  bottom: "inception_4c/3x3"
  top: "inception_4c/3x3"
}
layer {
  name: "inception_4c/5x5_reduce"
  type: "Convolution"
  bottom: "inception_4b/output"
  top: "inception_4c/5x5_reduce"
  param {
    lr_mult: 1
    decay_mult: 1
  }
  param {
    lr_mult: 2
    decay_mult: 0
  }
  convolution_param {
    num_output: 24
    kernel_size: 1
    weight_filler {
      type: "xavier"
      std: 0.2
    }
    bias_filler {
      type: "constant"
      value: 0.2
    }
  }
}
layer {
  name: "inception_4c/relu_5x5_reduce"
  type: "ReLU"
  bottom: "inception_4c/5x5_reduce"
  top: "inception_4c/5x5_reduce"
}
layer {
  name: "inception_4c/5x5"
  type: "Convolution"
  bottom: "inception_4c/5x5_reduce"
  top: "inception_4c/5x5"
  param {
    lr_mult: 1
    decay_mult: 1
  }
  param {
    lr_mult: 2
    decay_mult: 0
  }
  convolution_param {
    num_output: 64
    pad: 2
    kernel_size: 5
    weight_filler {
      type: "xavier"
      std: 0.03
    }
    bias_filler {
      type: "constant"
      value: 0.2
    }
  }
}
layer {
  name: "inception_4c/relu_5x5"
  type: "ReLU"
  bottom: "inception_4c/5x5"
  top: "inception_4c/5x5"
}
layer {
  name: "inception_4c/pool"
  type: "Pooling"
  bottom: "inception_4b/output"
  top: "inception_4c/pool"
  pooling_param {
    pool: MAX
    kernel_size: 3
    stride: 1
    pad: 1
  }
}
layer {
  name: "inception_4c/pool_proj"
  type: "Convolution"
  bottom: "inception_4c/pool"
  top: "inception_4c/pool_proj"
  param {
    lr_mult: 1
    decay_mult: 1
  }
  param {
    lr_mult: 2
    decay_mult: 0
  }
  convolution_param {
    num_output: 64
    kernel_size: 1
    weight_filler {
      type: "xavier"
      std: 0.1
    }
    bias_filler {
      type: "constant"
      value: 0.2
    }
  }
}
layer {
  name: "inception_4c/relu_pool_proj"
  type: "ReLU"
  bottom: "inception_4c/pool_proj"
  top: "inception_4c/pool_proj"
}
layer {
  name: "inception_4c/output"
  type: "Concat"
  bottom: "inception_4c/1x1"
  bottom: "inception_4c/3x3"
  bottom: "inception_4c/5x5"
  bottom: "inception_4c/pool_proj"
  top: "inception_4c/output"
}
layer {
  name: "inception_4d/1x1"
  type: "Convolution"
  bottom: "inception_4c/output"
  top: "inception_4d/1x1"
  param {
    lr_mult: 1
    decay_mult: 1
  }
  param {
    lr_mult: 2
    decay_mult: 0
  }
  convolution_param {
    num_output: 112
    kernel_size: 1
    weight_filler {
      type: "xavier"
      std: 0.03
    }
    bias_filler {
      type: "constant"
      value: 0.2
    }
  }
}
layer {
  name: "inception_4d/relu_1x1"
  type: "ReLU"
  bottom: "inception_4d/1x1"
  top: "inception_4d/1x1"
}
layer {
  name: "inception_4d/3x3_reduce"
  type: "Convolution"
  bottom: "inception_4c/output"
  top: "inception_4d/3x3_reduce"
  param {
    lr_mult: 1
    decay_mult: 1
  }
  param {
    lr_mult: 2
    decay_mult: 0
  }
  convolution_param {
    num_output: 144
    kernel_size: 1
    weight_filler {
      type: "xavier"
      std: 0.09
    }
    bias_filler {
      type: "constant"
      value: 0.2
    }
  }
}
layer {
  name: "inception_4d/relu_3x3_reduce"
  type: "ReLU"
  bottom: "inception_4d/3x3_reduce"
  top: "inception_4d/3x3_reduce"
}
layer {
  name: "inception_4d/3x3"
  type: "Convolution"
  bottom: "inception_4d/3x3_reduce"
  top: "inception_4d/3x3"
  param {
    lr_mult: 1
    decay_mult: 1
  }
  param {
    lr_mult: 2
    decay_mult: 0
  }
  convolution_param {
    num_output: 288
    pad: 1
    kernel_size: 3
    weight_filler {
      type: "xavier"
      std: 0.03
    }
    bias_filler {
      type: "constant"
      value: 0.2
    }
  }
}
layer {
  name: "inception_4d/relu_3x3"
  type: "ReLU"
  bottom: "inception_4d/3x3"
  top: "inception_4d/3x3"
}
layer {
  name: "inception_4d/5x5_reduce"
  type: "Convolution"
  bottom: "inception_4c/output"
  top: "inception_4d/5x5_reduce"
  param {
    lr_mult: 1
    decay_mult: 1
  }
  param {
    lr_mult: 2
    decay_mult: 0
  }
  convolution_param {
    num_output: 32
    kernel_size: 1
    weight_filler {
      type: "xavier"
      std: 0.2
    }
    bias_filler {
      type: "constant"
      value: 0.2
    }
  }
}
layer {
  name: "inception_4d/relu_5x5_reduce"
  type: "ReLU"
  bottom: "inception_4d/5x5_reduce"
  top: "inception_4d/5x5_reduce"
}
layer {
  name: "inception_4d/5x5"
  type: "Convolution"
  bottom: "inception_4d/5x5_reduce"
  top: "inception_4d/5x5"
  param {
    lr_mult: 1
    decay_mult: 1
  }
  param {
    lr_mult: 2
    decay_mult: 0
  }
  convolution_param {
    num_output: 64
    pad: 2
    kernel_size: 5
    weight_filler {
      type: "xavier"
      std: 0.03
    }
    bias_filler {
      type: "constant"
      value: 0.2
    }
  }
}
layer {
  name: "inception_4d/relu_5x5"
  type: "ReLU"
  bottom: "inception_4d/5x5"
  top: "inception_4d/5x5"
}
layer {
  name: "inception_4d/pool"
  type: "Pooling"
  bottom: "inception_4c/output"
  top: "inception_4d/pool"
  pooling_param {
    pool: MAX
    kernel_size: 3
    stride: 1
    pad: 1
  }
}
layer {
  name: "inception_4d/pool_proj"
  type: "Convolution"
  bottom: "inception_4d/pool"
  top: "inception_4d/pool_proj"
  param {
    lr_mult: 1
    decay_mult: 1
  }
  param {
    lr_mult: 2
    decay_mult: 0
  }
  convolution_param {
    num_output: 64
    kernel_size: 1
    weight_filler {
      type: "xavier"
      std: 0.1
    }
    bias_filler {
      type: "constant"
      value: 0.2
    }
  }
}
layer {
  name: "inception_4d/relu_pool_proj"
  type: "ReLU"
  bottom: "inception_4d/pool_proj"
  top: "inception_4d/pool_proj"
}
layer {
  name: "inception_4d/output"
  type: "Concat"
  bottom: "inception_4d/1x1"
  bottom: "inception_4d/3x3"
  bottom: "inception_4d/5x5"
  bottom: "inception_4d/pool_proj"
  top: "inception_4d/output"
}
layer {
  name: "loss2/ave_pool"
  type: "Pooling"
  bottom: "inception_4d/output"
  top: "loss2/ave_pool"
  pooling_param {
    pool: AVE
    kernel_size: 5
    stride: 3
  }
}
layer {
  name: "loss2/conv"
  type: "Convolution"
  bottom: "loss2/ave_pool"
  top: "loss2/conv"
  param {
    lr_mult: 1
    decay_mult: 1
  }
  param {
    lr_mult: 2
    decay_mult: 0
  }
  convolution_param {
    num_output: 128
    kernel_size: 1
    weight_filler {
      type: "xavier"
      std: 0.08
    }
    bias_filler {
      type: "constant"
      value: 0.2
    }
  }
}
layer {
  name: "loss2/relu_conv"
  type: "ReLU"
  bottom: "loss2/conv"
  top: "loss2/conv"
}
layer {
  name: "loss2/fc"
  type: "InnerProduct"
  bottom: "loss2/conv"
  top: "loss2/fc"
  param {
    lr_mult: 1
    decay_mult: 1
  }
  param {
    lr_mult: 2
    decay_mult: 0
  }
  inner_product_param {
    num_output: 1024
    weight_filler {
      type: "xavier"
      std: 0.02
    }
    bias_filler {
      type: "constant"
      value: 0.2
    }
  }
}
layer {
  name: "loss2/relu_fc"
  type: "ReLU"
  bottom: "loss2/fc"
  top: "loss2/fc"
}
layer {
  name: "loss2/drop_fc"
  type: "Dropout"
  bottom: "loss2/fc"
  top: "loss2/fc"
  dropout_param {
    dropout_ratio: 0.7
  }
}
layer {
  name: "loss2/classifier"
  type: "InnerProduct"
  bottom: "loss2/fc"
  top: "loss2/classifier"
  param {
    lr_mult: 1
    decay_mult: 1
  }
  param {
    lr_mult: 2
    decay_mult: 0
  }
  inner_product_param {
    num_output: 2
    weight_filler {
      type: "xavier"
      std: 0.0009765625
    }
    bias_filler {
      type: "constant"
      value: 0
    }
  }
}
layer {
  name: "loss2/loss"
  type: "SoftmaxWithLoss"
  bottom: "loss2/classifier"
  bottom: "label"
  top: "loss2/loss1"
  loss_weight: 0.3
}
layer {
  name: "inception_4e/1x1"
  type: "Convolution"
  bottom: "inception_4d/output"
  top: "inception_4e/1x1"
  param {
    lr_mult: 1
    decay_mult: 1
  }
  param {
    lr_mult: 2
    decay_mult: 0
  }
  convolution_param {
    num_output: 256
    kernel_size: 1
    weight_filler {
      type: "xavier"
      std: 0.03
    }
    bias_filler {
      type: "constant"
      value: 0.2
    }
  }
}
layer {
  name: "inception_4e/relu_1x1"
  type: "ReLU"
  bottom: "inception_4e/1x1"
  top: "inception_4e/1x1"
}
layer {
  name: "inception_4e/3x3_reduce"
  type: "Convolution"
  bottom: "inception_4d/output"
  top: "inception_4e/3x3_reduce"
  param {
    lr_mult: 1
    decay_mult: 1
  }
  param {
    lr_mult: 2
    decay_mult: 0
  }
  convolution_param {
    num_output: 160
    kernel_size: 1
    weight_filler {
      type: "xavier"
      std: 0.09
    }
    bias_filler {
      type: "constant"
      value: 0.2
    }
  }
}
layer {
  name: "inception_4e/relu_3x3_reduce"
  type: "ReLU"
  bottom: "inception_4e/3x3_reduce"
  top: "inception_4e/3x3_reduce"
}
layer {
  name: "inception_4e/3x3"
  type: "Convolution"
  bottom: "inception_4e/3x3_reduce"
  top: "inception_4e/3x3"
  param {
    lr_mult: 1
    decay_mult: 1
  }
  param {
    lr_mult: 2
    decay_mult: 0
  }
  convolution_param {
    num_output: 320
    pad: 1
    kernel_size: 3
    weight_filler {
      type: "xavier"
      std: 0.03
    }
    bias_filler {
      type: "constant"
      value: 0.2
    }
  }
}
layer {
  name: "inception_4e/relu_3x3"
  type: "ReLU"
  bottom: "inception_4e/3x3"
  top: "inception_4e/3x3"
}
layer {
  name: "inception_4e/5x5_reduce"
  type: "Convolution"
  bottom: "inception_4d/output"
  top: "inception_4e/5x5_reduce"
  param {
    lr_mult: 1
    decay_mult: 1
  }
  param {
    lr_mult: 2
    decay_mult: 0
  }
  convolution_param {
    num_output: 32
    kernel_size: 1
    weight_filler {
      type: "xavier"
      std: 0.2
    }
    bias_filler {
      type: "constant"
      value: 0.2
    }
  }
}
layer {
  name: "inception_4e/relu_5x5_reduce"
  type: "ReLU"
  bottom: "
I0511 02:12:37.705840 12661 layer_factory.hpp:74] Creating layer data
I0511 02:12:37.705869 12661 net.cpp:76] Creating Layer data
I0511 02:12:37.705881 12661 net.cpp:334] data -> data
I0511 02:12:37.705912 12661 net.cpp:334] data -> label
I0511 02:12:37.705935 12661 net.cpp:105] Setting up data
I0511 02:12:37.706045 12661 db.cpp:34] Opened lmdb train_lmdb
I0511 02:12:37.706343 12661 data_layer.cpp:67] output data size: 32,3,224,224
I0511 02:12:37.713078 12661 net.cpp:112] Top shape: 32 3 224 224 (4816896)
I0511 02:12:37.713101 12661 net.cpp:112] Top shape: 32 1 1 1 (32)
I0511 02:12:37.713112 12661 layer_factory.hpp:74] Creating layer label_data_1_split
I0511 02:12:37.713130 12661 net.cpp:76] Creating Layer label_data_1_split
I0511 02:12:37.713140 12661 net.cpp:372] label_data_1_split <- label
I0511 02:12:37.713156 12661 net.cpp:334] label_data_1_split -> label_data_1_split_0
I0511 02:12:37.713171 12661 net.cpp:334] label_data_1_split -> label_data_1_split_1
I0511 02:12:37.713179 12661 net.cpp:334] label_data_1_split -> label_data_1_split_2
I0511 02:12:37.713188 12661 net.cpp:105] Setting up label_data_1_split
I0511 02:12:37.713198 12661 net.cpp:112] Top shape: 32 1 1 1 (32)
I0511 02:12:37.713203 12661 net.cpp:112] Top shape: 32 1 1 1 (32)
I0511 02:12:37.713209 12661 net.cpp:112] Top shape: 32 1 1 1 (32)
I0511 02:12:37.713214 12661 layer_factory.hpp:74] Creating layer conv1/7x7_s2
I0511 02:12:37.713230 12661 net.cpp:76] Creating Layer conv1/7x7_s2
I0511 02:12:37.713237 12661 net.cpp:372] conv1/7x7_s2 <- data
I0511 02:12:37.713246 12661 net.cpp:334] conv1/7x7_s2 -> conv1/7x7_s2
I0511 02:12:37.713258 12661 net.cpp:105] Setting up conv1/7x7_s2
I0511 02:12:37.713439 12661 net.cpp:112] Top shape: 32 64 112 112 (25690112)
I0511 02:12:37.713495 12661 layer_factory.hpp:74] Creating layer conv1/relu_7x7
I0511 02:12:37.713506 12661 net.cpp:76] Creating Layer conv1/relu_7x7
I0511 02:12:37.713511 12661 net.cpp:372] conv1/relu_7x7 <- conv1/7x7_s2
I0511 02:12:37.713521 12661 net.cpp:323] conv1/relu_7x7 -> conv1/7x7_s2 (in-place)
I0511 02:12:37.713531 12661 net.cpp:105] Setting up conv1/relu_7x7
I0511 02:12:37.713538 12661 net.cpp:112] Top shape: 32 64 112 112 (25690112)
I0511 02:12:37.713544 12661 layer_factory.hpp:74] Creating layer pool1/3x3_s2
I0511 02:12:37.713556 12661 net.cpp:76] Creating Layer pool1/3x3_s2
I0511 02:12:37.713560 12661 net.cpp:372] pool1/3x3_s2 <- conv1/7x7_s2
I0511 02:12:37.713568 12661 net.cpp:334] pool1/3x3_s2 -> pool1/3x3_s2
I0511 02:12:37.713578 12661 net.cpp:105] Setting up pool1/3x3_s2
I0511 02:12:37.713593 12661 net.cpp:112] Top shape: 32 64 56 56 (6422528)
I0511 02:12:37.713599 12661 layer_factory.hpp:74] Creating layer pool1/norm1
I0511 02:12:37.713610 12661 net.cpp:76] Creating Layer pool1/norm1
I0511 02:12:37.713615 12661 net.cpp:372] pool1/norm1 <- pool1/3x3_s2
I0511 02:12:37.713624 12661 net.cpp:334] pool1/norm1 -> pool1/norm1
I0511 02:12:37.713634 12661 net.cpp:105] Setting up pool1/norm1
I0511 02:12:37.713639 12661 net.cpp:112] Top shape: 32 64 56 56 (6422528)
I0511 02:12:37.713645 12661 layer_factory.hpp:74] Creating layer conv2/3x3_reduce
I0511 02:12:37.713654 12661 net.cpp:76] Creating Layer conv2/3x3_reduce
I0511 02:12:37.713660 12661 net.cpp:372] conv2/3x3_reduce <- pool1/norm1
I0511 02:12:37.713668 12661 net.cpp:334] conv2/3x3_reduce -> conv2/3x3_reduce
I0511 02:12:37.713678 12661 net.cpp:105] Setting up conv2/3x3_reduce
I0511 02:12:37.713722 12661 net.cpp:112] Top shape: 32 64 56 56 (6422528)
I0511 02:12:37.713733 12661 layer_factory.hpp:74] Creating layer conv2/relu_3x3_reduce
I0511 02:12:37.713742 12661 net.cpp:76] Creating Layer conv2/relu_3x3_reduce
I0511 02:12:37.713747 12661 net.cpp:372] conv2/relu_3x3_reduce <- conv2/3x3_reduce
I0511 02:12:37.713754 12661 net.cpp:323] conv2/relu_3x3_reduce -> conv2/3x3_reduce (in-place)
I0511 02:12:37.713762 12661 net.cpp:105] Setting up conv2/relu_3x3_reduce
I0511 02:12:37.713767 12661 net.cpp:112] Top shape: 32 64 56 56 (6422528)
I0511 02:12:37.713771 12661 layer_factory.hpp:74] Creating layer conv2/3x3
I0511 02:12:37.713781 12661 net.cpp:76] Creating Layer conv2/3x3
I0511 02:12:37.713786 12661 net.cpp:372] conv2/3x3 <- conv2/3x3_reduce
I0511 02:12:37.713794 12661 net.cpp:334] conv2/3x3 -> conv2/3x3
I0511 02:12:37.713804 12661 net.cpp:105] Setting up conv2/3x3
I0511 02:12:37.714721 12661 net.cpp:112] Top shape: 32 192 56 56 (19267584)
I0511 02:12:37.714742 12661 layer_factory.hpp:74] Creating layer conv2/relu_3x3
I0511 02:12:37.714751 12661 net.cpp:76] Creating Layer conv2/relu_3x3
I0511 02:12:37.714756 12661 net.cpp:372] conv2/relu_3x3 <- conv2/3x3
I0511 02:12:37.714763 12661 net.cpp:323] conv2/relu_3x3 -> conv2/3x3 (in-place)
I0511 02:12:37.714771 12661 net.cpp:105] Setting up conv2/relu_3x3
I0511 02:12:37.714777 12661 net.cpp:112] Top shape: 32 192 56 56 (19267584)
I0511 02:12:37.714782 12661 layer_factory.hpp:74] Creating layer conv2/norm2
I0511 02:12:37.714793 12661 net.cpp:76] Creating Layer conv2/norm2
I0511 02:12:37.714798 12661 net.cpp:372] conv2/norm2 <- conv2/3x3
I0511 02:12:37.714807 12661 net.cpp:334] conv2/norm2 -> conv2/norm2
I0511 02:12:37.714814 12661 net.cpp:105] Setting up conv2/norm2
I0511 02:12:37.714820 12661 net.cpp:112] Top shape: 32 192 56 56 (19267584)
I0511 02:12:37.714825 12661 layer_factory.hpp:74] Creating layer pool2/3x3_s2
I0511 02:12:37.714834 12661 net.cpp:76] Creating Layer pool2/3x3_s2
I0511 02:12:37.714840 12661 net.cpp:372] pool2/3x3_s2 <- conv2/norm2
I0511 02:12:37.714848 12661 net.cpp:334] pool2/3x3_s2 -> pool2/3x3_s2
I0511 02:12:37.714855 12661 net.cpp:105] Setting up pool2/3x3_s2
I0511 02:12:37.714862 12661 net.cpp:112] Top shape: 32 192 28 28 (4816896)
I0511 02:12:37.714869 12661 layer_factory.hpp:74] Creating layer pool2/3x3_s2_pool2/3x3_s2_0_split
I0511 02:12:37.714875 12661 net.cpp:76] Creating Layer pool2/3x3_s2_pool2/3x3_s2_0_split
I0511 02:12:37.714895 12661 net.cpp:372] pool2/3x3_s2_pool2/3x3_s2_0_split <- pool2/3x3_s2
I0511 02:12:37.714906 12661 net.cpp:334] pool2/3x3_s2_pool2/3x3_s2_0_split -> pool2/3x3_s2_pool2/3x3_s2_0_split_0
I0511 02:12:37.714916 12661 net.cpp:334] pool2/3x3_s2_pool2/3x3_s2_0_split -> pool2/3x3_s2_pool2/3x3_s2_0_split_1
I0511 02:12:37.714925 12661 net.cpp:334] pool2/3x3_s2_pool2/3x3_s2_0_split -> pool2/3x3_s2_pool2/3x3_s2_0_split_2
I0511 02:12:37.714933 12661 net.cpp:334] pool2/3x3_s2_pool2/3x3_s2_0_split -> pool2/3x3_s2_pool2/3x3_s2_0_split_3
I0511 02:12:37.714941 12661 net.cpp:105] Setting up pool2/3x3_s2_pool2/3x3_s2_0_split
I0511 02:12:37.714947 12661 net.cpp:112] Top shape: 32 192 28 28 (4816896)
I0511 02:12:37.714952 12661 net.cpp:112] Top shape: 32 192 28 28 (4816896)
I0511 02:12:37.714957 12661 net.cpp:112] Top shape: 32 192 28 28 (4816896)
I0511 02:12:37.714962 12661 net.cpp:112] Top shape: 32 192 28 28 (4816896)
I0511 02:12:37.714967 12661 layer_factory.hpp:74] Creating layer inception_3a/1x1
I0511 02:12:37.714978 12661 net.cpp:76] Creating Layer inception_3a/1x1
I0511 02:12:37.714984 12661 net.cpp:372] inception_3a/1x1 <- pool2/3x3_s2_pool2/3x3_s2_0_split_0
I0511 02:12:37.714993 12661 net.cpp:334] inception_3a/1x1 -> inception_3a/1x1
I0511 02:12:37.715004 12661 net.cpp:105] Setting up inception_3a/1x1
I0511 02:12:37.715121 12661 net.cpp:112] Top shape: 32 64 28 28 (1605632)
I0511 02:12:37.715132 12661 layer_factory.hpp:74] Creating layer inception_3a/relu_1x1
I0511 02:12:37.715140 12661 net.cpp:76] Creating Layer inception_3a/relu_1x1
I0511 02:12:37.715145 12661 net.cpp:372] inception_3a/relu_1x1 <- inception_3a/1x1
I0511 02:12:37.715157 12661 net.cpp:323] inception_3a/relu_1x1 -> inception_3a/1x1 (in-place)
I0511 02:12:37.715164 12661 net.cpp:105] Setting up inception_3a/relu_1x1
I0511 02:12:37.715169 12661 net.cpp:112] Top shape: 32 64 28 28 (1605632)
I0511 02:12:37.715175 12661 layer_factory.hpp:74] Creating layer inception_3a/3x3_reduce
I0511 02:12:37.715185 12661 net.cpp:76] Creating Layer inception_3a/3x3_reduce
I0511 02:12:37.715191 12661 net.cpp:372] inception_3a/3x3_reduce <- pool2/3x3_s2_pool2/3x3_s2_0_split_1
I0511 02:12:37.715199 12661 net.cpp:334] inception_3a/3x3_reduce -> inception_3a/3x3_reduce
I0511 02:12:37.715209 12661 net.cpp:105] Setting up inception_3a/3x3_reduce
I0511 02:12:37.715513 12661 net.cpp:112] Top shape: 32 96 28 28 (2408448)
I0511 02:12:37.715543 12661 layer_factory.hpp:74] Creating layer inception_3a/relu_3x3_reduce
I0511 02:12:37.715554 12661 net.cpp:76] Creating Layer inception_3a/relu_3x3_reduce
I0511 02:12:37.715560 12661 net.cpp:372] inception_3a/relu_3x3_reduce <- inception_3a/3x3_reduce
I0511 02:12:37.715569 12661 net.cpp:323] inception_3a/relu_3x3_reduce -> inception_3a/3x3_reduce (in-place)
I0511 02:12:37.715582 12661 net.cpp:105] Setting up inception_3a/relu_3x3_reduce
I0511 02:12:37.715592 12661 net.cpp:112] Top shape: 32 96 28 28 (2408448)
I0511 02:12:37.715602 12661 layer_factory.hpp:74] Creating layer inception_3a/3x3
I0511 02:12:37.715616 12661 net.cpp:76] Creating Layer inception_3a/3x3
I0511 02:12:37.715626 12661 net.cpp:372] inception_3a/3x3 <- inception_3a/3x3_reduce
I0511 02:12:37.715636 12661 net.cpp:334] inception_3a/3x3 -> inception_3a/3x3
I0511 02:12:37.715646 12661 net.cpp:105] Setting up inception_3a/3x3
I0511 02:12:37.716924 12661 net.cpp:112] Top shape: 32 128 28 28 (3211264)
I0511 02:12:37.716943 12661 layer_factory.hpp:74] Creating layer inception_3a/relu_3x3
I0511 02:12:37.716954 12661 net.cpp:76] Creating Layer inception_3a/relu_3x3
I0511 02:12:37.716960 12661 net.cpp:372] inception_3a/relu_3x3 <- inception_3a/3x3
I0511 02:12:37.716969 12661 net.cpp:323] inception_3a/relu_3x3 -> inception_3a/3x3 (in-place)
I0511 02:12:37.716976 12661 net.cpp:105] Setting up inception_3a/relu_3x3
I0511 02:12:37.716981 12661 net.cpp:112] Top shape: 32 128 28 28 (3211264)
I0511 02:12:37.716987 12661 layer_factory.hpp:74] Creating layer inception_3a/5x5_reduce
I0511 02:12:37.716997 12661 net.cpp:76] Creating Layer inception_3a/5x5_reduce
I0511 02:12:37.717022 12661 net.cpp:372] inception_3a/5x5_reduce <- pool2/3x3_s2_pool2/3x3_s2_0_split_2
I0511 02:12:37.717032 12661 net.cpp:334] inception_3a/5x5_reduce -> inception_3a/5x5_reduce
I0511 02:12:37.717042 12661 net.cpp:105] Setting up inception_3a/5x5_reduce
I0511 02:12:37.717085 12661 net.cpp:112] Top shape: 32 16 28 28 (401408)
I0511 02:12:37.717097 12661 layer_factory.hpp:74] Creating layer inception_3a/relu_5x5_reduce
I0511 02:12:37.717103 12661 net.cpp:76] Creating Layer inception_3a/relu_5x5_reduce
I0511 02:12:37.717109 12661 net.cpp:372] inception_3a/relu_5x5_reduce <- inception_3a/5x5_reduce
I0511 02:12:37.717118 12661 net.cpp:323] inception_3a/relu_5x5_reduce -> inception_3a/5x5_reduce (in-place)
I0511 02:12:37.717130 12661 net.cpp:105] Setting up inception_3a/relu_5x5_reduce
I0511 02:12:37.717136 12661 net.cpp:112] Top shape: 32 16 28 28 (401408)
I0511 02:12:37.717142 12661 layer_factory.hpp:74] Creating layer inception_3a/5x5
I0511 02:12:37.717150 12661 net.cpp:76] Creating Layer inception_3a/5x5
I0511 02:12:37.717155 12661 net.cpp:372] inception_3a/5x5 <- inception_3a/5x5_reduce
I0511 02:12:37.717165 12661 net.cpp:334] inception_3a/5x5 -> inception_3a/5x5
I0511 02:12:37.717175 12661 net.cpp:105] Setting up inception_3a/5x5
I0511 02:12:37.717700 12661 net.cpp:112] Top shape: 32 32 28 28 (802816)
I0511 02:12:37.717722 12661 layer_factory.hpp:74] Creating layer inception_3a/relu_5x5
I0511 02:12:37.717736 12661 net.cpp:76] Creating Layer inception_3a/relu_5x5
I0511 02:12:37.717743 12661 net.cpp:372] inception_3a/relu_5x5 <- inception_3a/5x5
I0511 02:12:37.717751 12661 net.cpp:323] inception_3a/relu_5x5 -> inception_3a/5x5 (in-place)
I0511 02:12:37.717759 12661 net.cpp:105] Setting up inception_3a/relu_5x5
I0511 02:12:37.717766 12661 net.cpp:112] Top shape: 32 32 28 28 (802816)
I0511 02:12:37.717772 12661 layer_factory.hpp:74] Creating layer inception_3a/pool
I0511 02:12:37.717782 12661 net.cpp:76] Creating Layer inception_3a/pool
I0511 02:12:37.717787 12661 net.cpp:372] inception_3a/pool <- pool2/3x3_s2_pool2/3x3_s2_0_split_3
I0511 02:12:37.717795 12661 net.cpp:334] inception_3a/pool -> inception_3a/pool
I0511 02:12:37.717804 12661 net.cpp:105] Setting up inception_3a/pool
I0511 02:12:37.717811 12661 net.cpp:112] Top shape: 32 192 28 28 (4816896)
I0511 02:12:37.717818 12661 layer_factory.hpp:74] Creating layer inception_3a/pool_proj
I0511 02:12:37.717826 12661 net.cpp:76] Creating Layer inception_3a/pool_proj
I0511 02:12:37.717831 12661 net.cpp:372] inception_3a/pool_proj <- inception_3a/pool
I0511 02:12:37.717844 12661 net.cpp:334] inception_3a/pool_proj -> inception_3a/pool_proj
I0511 02:12:37.717852 12661 net.cpp:105] Setting up inception_3a/pool_proj
I0511 02:12:37.717984 12661 net.cpp:112] Top shape: 32 32 28 28 (802816)
I0511 02:12:37.718003 12661 layer_factory.hpp:74] Creating layer inception_3a/relu_pool_proj
I0511 02:12:37.718011 12661 net.cpp:76] Creating Layer inception_3a/relu_pool_proj
I0511 02:12:37.718017 12661 net.cpp:372] inception_3a/relu_pool_proj <- inception_3a/pool_proj
I0511 02:12:37.718024 12661 net.cpp:323] inception_3a/relu_pool_proj -> inception_3a/pool_proj (in-place)
I0511 02:12:37.718032 12661 net.cpp:105] Setting up inception_3a/relu_pool_proj
I0511 02:12:37.718039 12661 net.cpp:112] Top shape: 32 32 28 28 (802816)
I0511 02:12:37.718044 12661 layer_factory.hpp:74] Creating layer inception_3a/output
I0511 02:12:37.718055 12661 net.cpp:76] Creating Layer inception_3a/output
I0511 02:12:37.718061 12661 net.cpp:372] inception_3a/output <- inception_3a/1x1
I0511 02:12:37.718068 12661 net.cpp:372] inception_3a/output <- inception_3a/3x3
I0511 02:12:37.718075 12661 net.cpp:372] inception_3a/output <- inception_3a/5x5
I0511 02:12:37.718080 12661 net.cpp:372] inception_3a/output <- inception_3a/pool_proj
I0511 02:12:37.718087 12661 net.cpp:334] inception_3a/output -> inception_3a/output
I0511 02:12:37.718096 12661 net.cpp:105] Setting up inception_3a/output
I0511 02:12:37.718103 12661 net.cpp:112] Top shape: 32 256 28 28 (6422528)
I0511 02:12:37.718109 12661 layer_factory.hpp:74] Creating layer inception_3a/output_inception_3a/output_0_split
I0511 02:12:37.718137 12661 net.cpp:76] Creating Layer inception_3a/output_inception_3a/output_0_split
I0511 02:12:37.718144 12661 net.cpp:372] inception_3a/output_inception_3a/output_0_split <- inception_3a/output
I0511 02:12:37.718152 12661 net.cpp:334] inception_3a/output_inception_3a/output_0_split -> inception_3a/output_inception_3a/output_0_split_0
I0511 02:12:37.718161 12661 net.cpp:334] inception_3a/output_inception_3a/output_0_split -> inception_3a/output_inception_3a/output_0_split_1
I0511 02:12:37.718170 12661 net.cpp:334] inception_3a/output_inception_3a/output_0_split -> inception_3a/output_inception_3a/output_0_split_2
I0511 02:12:37.718185 12661 net.cpp:334] inception_3a/output_inception_3a/output_0_split -> inception_3a/output_inception_3a/output_0_split_3
I0511 02:12:37.718194 12661 net.cpp:105] Setting up inception_3a/output_inception_3a/output_0_split
I0511 02:12:37.718200 12661 net.cpp:112] Top shape: 32 256 28 28 (6422528)
I0511 02:12:37.718205 12661 net.cpp:112] Top shape: 32 256 28 28 (6422528)
I0511 02:12:37.718210 12661 net.cpp:112] Top shape: 32 256 28 28 (6422528)
I0511 02:12:37.718215 12661 net.cpp:112] Top shape: 32 256 28 28 (6422528)
I0511 02:12:37.718220 12661 layer_factory.hpp:74] Creating layer inception_3b/1x1
I0511 02:12:37.718230 12661 net.cpp:76] Creating Layer inception_3b/1x1
I0511 02:12:37.718235 12661 net.cpp:372] inception_3b/1x1 <- inception_3a/output_inception_3a/output_0_split_0
I0511 02:12:37.718245 12661 net.cpp:334] inception_3b/1x1 -> inception_3b/1x1
I0511 02:12:37.718255 12661 net.cpp:105] Setting up inception_3b/1x1
I0511 02:12:37.718552 12661 net.cpp:112] Top shape: 32 128 28 28 (3211264)
I0511 02:12:37.718572 12661 layer_factory.hpp:74] Creating layer inception_3b/relu_1x1
I0511 02:12:37.718583 12661 net.cpp:76] Creating Layer inception_3b/relu_1x1
I0511 02:12:37.718590 12661 net.cpp:372] inception_3b/relu_1x1 <- inception_3b/1x1
I0511 02:12:37.718601 12661 net.cpp:323] inception_3b/relu_1x1 -> inception_3b/1x1 (in-place)
I0511 02:12:37.718611 12661 net.cpp:105] Setting up inception_3b/relu_1x1
I0511 02:12:37.718621 12661 net.cpp:112] Top shape: 32 128 28 28 (3211264)
I0511 02:12:37.718626 12661 layer_factory.hpp:74] Creating layer inception_3b/3x3_reduce
I0511 02:12:37.718636 12661 net.cpp:76] Creating Layer inception_3b/3x3_reduce
I0511 02:12:37.718643 12661 net.cpp:372] inception_3b/3x3_reduce <- inception_3a/output_inception_3a/output_0_split_1
I0511 02:12:37.718673 12661 net.cpp:334] inception_3b/3x3_reduce -> inception_3b/3x3_reduce
I0511 02:12:37.718696 12661 net.cpp:105] Setting up inception_3b/3x3_reduce
I0511 02:12:37.719117 12661 net.cpp:112] Top shape: 32 128 28 28 (3211264)
I0511 02:12:37.719133 12661 layer_factory.hpp:74] Creating layer inception_3b/relu_3x3_reduce
I0511 02:12:37.719141 12661 net.cpp:76] Creating Layer inception_3b/relu_3x3_reduce
I0511 02:12:37.719147 12661 net.cpp:372] inception_3b/relu_3x3_reduce <- inception_3b/3x3_reduce
I0511 02:12:37.719154 12661 net.cpp:323] inception_3b/relu_3x3_reduce -> inception_3b/3x3_reduce (in-place)
I0511 02:12:37.719162 12661 net.cpp:105] Setting up inception_3b/relu_3x3_reduce
I0511 02:12:37.719167 12661 net.cpp:112] Top shape: 32 128 28 28 (3211264)
I0511 02:12:37.719172 12661 layer_factory.hpp:74] Creating layer inception_3b/3x3
I0511 02:12:37.719187 12661 net.cpp:76] Creating Layer inception_3b/3x3
I0511 02:12:37.719192 12661 net.cpp:372] inception_3b/3x3 <- inception_3b/3x3_reduce
I0511 02:12:37.719202 12661 net.cpp:334] inception_3b/3x3 -> inception_3b/3x3
I0511 02:12:37.719213 12661 net.cpp:105] Setting up inception_3b/3x3
I0511 02:12:37.721779 12661 net.cpp:112] Top shape: 32 192 28 28 (4816896)
I0511 02:12:37.721802 12661 layer_factory.hpp:74] Creating layer inception_3b/relu_3x3
I0511 02:12:37.721812 12661 net.cpp:76] Creating Layer inception_3b/relu_3x3
I0511 02:12:37.721818 12661 net.cpp:372] inception_3b/relu_3x3 <- inception_3b/3x3
I0511 02:12:37.721828 12661 net.cpp:323] inception_3b/relu_3x3 -> inception_3b/3x3 (in-place)
I0511 02:12:37.721859 12661 net.cpp:105] Setting up inception_3b/relu_3x3
I0511 02:12:37.721865 12661 net.cpp:112] Top shape: 32 192 28 28 (4816896)
I0511 02:12:37.721871 12661 layer_factory.hpp:74] Creating layer inception_3b/5x5_reduce
I0511 02:12:37.721880 12661 net.cpp:76] Creating Layer inception_3b/5x5_reduce
I0511 02:12:37.721886 12661 net.cpp:372] inception_3b/5x5_reduce <- inception_3a/output_inception_3a/output_0_split_2
I0511 02:12:37.721899 12661 net.cpp:334] inception_3b/5x5_reduce -> inception_3b/5x5_reduce
I0511 02:12:37.721909 12661 net.cpp:105] Setting up inception_3b/5x5_reduce
I0511 02:12:37.722018 12661 net.cpp:112] Top shape: 32 32 28 28 (802816)
I0511 02:12:37.722035 12661 layer_factory.hpp:74] Creating layer inception_3b/relu_5x5_reduce
I0511 02:12:37.722054 12661 net.cpp:76] Creating Layer inception_3b/relu_5x5_reduce
I0511 02:12:37.722069 12661 net.cpp:372] inception_3b/relu_5x5_reduce <- inception_3b/5x5_reduce
I0511 02:12:37.722080 12661 net.cpp:323] inception_3b/relu_5x5_reduce -> inception_3b/5x5_reduce (in-place)
I0511 02:12:37.722090 12661 net.cpp:105] Setting up inception_3b/relu_5x5_reduce
I0511 02:12:37.722095 12661 net.cpp:112] Top shape: 32 32 28 28 (802816)
I0511 02:12:37.722101 12661 layer_factory.hpp:74] Creating layer inception_3b/5x5
I0511 02:12:37.722112 12661 net.cpp:76] Creating Layer inception_3b/5x5
I0511 02:12:37.722118 12661 net.cpp:372] inception_3b/5x5 <- inception_3b/5x5_reduce
I0511 02:12:37.722126 12661 net.cpp:334] inception_3b/5x5 -> inception_3b/5x5
I0511 02:12:37.722138 12661 net.cpp:105] Setting up inception_3b/5x5
I0511 02:12:37.722851 12661 net.cpp:112] Top shape: 32 96 28 28 (2408448)
I0511 02:12:37.722867 12661 layer_factory.hpp:74] Creating layer inception_3b/relu_5x5
I0511 02:12:37.722875 12661 net.cpp:76] Creating Layer inception_3b/relu_5x5
I0511 02:12:37.722882 12661 net.cpp:372] inception_3b/relu_5x5 <- inception_3b/5x5
I0511 02:12:37.722888 12661 net.cpp:323] inception_3b/relu_5x5 -> inception_3b/5x5 (in-place)
I0511 02:12:37.722897 12661 net.cpp:105] Setting up inception_3b/relu_5x5
I0511 02:12:37.722901 12661 net.cpp:112] Top shape: 32 96 28 28 (2408448)
I0511 02:12:37.722908 12661 layer_factory.hpp:74] Creating layer inception_3b/pool
I0511 02:12:37.722918 12661 net.cpp:76] Creating Layer inception_3b/pool
I0511 02:12:37.722923 12661 net.cpp:372] inception_3b/pool <- inception_3a/output_inception_3a/output_0_split_3
I0511 02:12:37.722931 12661 net.cpp:334] inception_3b/pool -> inception_3b/pool
I0511 02:12:37.722939 12661 net.cpp:105] Setting up inception_3b/pool
I0511 02:12:37.722947 12661 net.cpp:112] Top shape: 32 256 28 28 (6422528)
I0511 02:12:37.722952 12661 layer_factory.hpp:74] Creating layer inception_3b/pool_proj
I0511 02:12:37.722961 12661 net.cpp:76] Creating Layer inception_3b/pool_proj
I0511 02:12:37.722967 12661 net.cpp:372] inception_3b/pool_proj <- inception_3b/pool
I0511 02:12:37.722977 12661 net.cpp:334] inception_3b/pool_proj -> inception_3b/pool_proj
I0511 02:12:37.722986 12661 net.cpp:105] Setting up inception_3b/pool_proj
I0511 02:12:37.723132 12661 net.cpp:112] Top shape: 32 64 28 28 (1605632)
I0511 02:12:37.723144 12661 layer_factory.hpp:74] Creating layer inception_3b/relu_pool_proj
I0511 02:12:37.723151 12661 net.cpp:76] Creating Layer inception_3b/relu_pool_proj
I0511 02:12:37.723168 12661 net.cpp:372] inception_3b/relu_pool_proj <- inception_3b/pool_proj
I0511 02:12:37.723181 12661 net.cpp:323] inception_3b/relu_pool_proj -> inception_3b/pool_proj (in-place)
I0511 02:12:37.723188 12661 net.cpp:105] Setting up inception_3b/relu_pool_proj
I0511 02:12:37.723194 12661 net.cpp:112] Top shape: 32 64 28 28 (1605632)
I0511 02:12:37.723199 12661 layer_factory.hpp:74] Creating layer inception_3b/output
I0511 02:12:37.723207 12661 net.cpp:76] Creating Layer inception_3b/output
I0511 02:12:37.723212 12661 net.cpp:372] inception_3b/output <- inception_3b/1x1
I0511 02:12:37.723219 12661 net.cpp:372] inception_3b/output <- inception_3b/3x3
I0511 02:12:37.723225 12661 net.cpp:372] inception_3b/output <- inception_3b/5x5
I0511 02:12:37.723250 12661 net.cpp:372] inception_3b/output <- inception_3b/pool_proj
I0511 02:12:37.723258 12661 net.cpp:334] inception_3b/output -> inception_3b/output
I0511 02:12:37.723268 12661 net.cpp:105] Setting up inception_3b/output
I0511 02:12:37.723294 12661 net.cpp:112] Top shape: 32 480 28 28 (12042240)
I0511 02:12:37.723300 12661 layer_factory.hpp:74] Creating layer pool3/3x3_s2
I0511 02:12:37.723311 12661 net.cpp:76] Creating Layer pool3/3x3_s2
I0511 02:12:37.723319 12661 net.cpp:372] pool3/3x3_s2 <- inception_3b/output
I0511 02:12:37.723327 12661 net.cpp:334] pool3/3x3_s2 -> pool3/3x3_s2
I0511 02:12:37.723335 12661 net.cpp:105] Setting up pool3/3x3_s2
I0511 02:12:37.723342 12661 net.cpp:112] Top shape: 32 480 14 14 (3010560)
I0511 02:12:37.723347 12661 layer_factory.hpp:74] Creating layer pool3/3x3_s2_pool3/3x3_s2_0_split
I0511 02:12:37.723357 12661 net.cpp:76] Creating Layer pool3/3x3_s2_pool3/3x3_s2_0_split
I0511 02:12:37.723362 12661 net.cpp:372] pool3/3x3_s2_pool3/3x3_s2_0_split <- pool3/3x3_s2
I0511 02:12:37.723371 12661 net.cpp:334] pool3/3x3_s2_pool3/3x3_s2_0_split -> pool3/3x3_s2_pool3/3x3_s2_0_split_0
I0511 02:12:37.723381 12661 net.cpp:334] pool3/3x3_s2_pool3/3x3_s2_0_split -> pool3/3x3_s2_pool3/3x3_s2_0_split_1
I0511 02:12:37.723390 12661 net.cpp:334] pool3/3x3_s2_pool3/3x3_s2_0_split -> pool3/3x3_s2_pool3/3x3_s2_0_split_2
I0511 02:12:37.723399 12661 net.cpp:334] pool3/3x3_s2_pool3/3x3_s2_0_split -> pool3/3x3_s2_pool3/3x3_s2_0_split_3
I0511 02:12:37.723407 12661 net.cpp:105] Setting up pool3/3x3_s2_pool3/3x3_s2_0_split
I0511 02:12:37.723413 12661 net.cpp:112] Top shape: 32 480 14 14 (3010560)
I0511 02:12:37.723418 12661 net.cpp:112] Top shape: 32 480 14 14 (3010560)
I0511 02:12:37.723423 12661 net.cpp:112] Top shape: 32 480 14 14 (3010560)
I0511 02:12:37.723428 12661 net.cpp:112] Top shape: 32 480 14 14 (3010560)
I0511 02:12:37.723433 12661 layer_factory.hpp:74] Creating layer inception_4a/1x1
I0511 02:12:37.723444 12661 net.cpp:76] Creating Layer inception_4a/1x1
I0511 02:12:37.723450 12661 net.cpp:372] inception_4a/1x1 <- pool3/3x3_s2_pool3/3x3_s2_0_split_0
I0511 02:12:37.723460 12661 net.cpp:334] inception_4a/1x1 -> inception_4a/1x1
I0511 02:12:37.723469 12661 net.cpp:105] Setting up inception_4a/1x1
I0511 02:12:37.724285 12661 net.cpp:112] Top shape: 32 192 14 14 (1204224)
I0511 02:12:37.724347 12661 layer_factory.hpp:74] Creating layer inception_4a/relu_1x1
I0511 02:12:37.724362 12661 net.cpp:76] Creating Layer inception_4a/relu_1x1
I0511 02:12:37.724369 12661 net.cpp:372] inception_4a/relu_1x1 <- inception_4a/1x1
I0511 02:12:37.724376 12661 net.cpp:323] inception_4a/relu_1x1 -> inception_4a/1x1 (in-place)
I0511 02:12:37.724385 12661 net.cpp:105] Setting up inception_4a/relu_1x1
I0511 02:12:37.724390 12661 net.cpp:112] Top shape: 32 192 14 14 (1204224)
I0511 02:12:37.724395 12661 layer_factory.hpp:74] Creating layer inception_4a/3x3_reduce
I0511 02:12:37.724406 12661 net.cpp:76] Creating Layer inception_4a/3x3_reduce
I0511 02:12:37.724412 12661 net.cpp:372] inception_4a/3x3_reduce <- pool3/3x3_s2_pool3/3x3_s2_0_split_1
I0511 02:12:37.724421 12661 net.cpp:334] inception_4a/3x3_reduce -> inception_4a/3x3_reduce
I0511 02:12:37.724431 12661 net.cpp:105] Setting up inception_4a/3x3_reduce
I0511 02:12:37.724848 12661 net.cpp:112] Top shape: 32 96 14 14 (602112)
I0511 02:12:37.724869 12661 layer_factory.hpp:74] Creating layer inception_4a/relu_3x3_reduce
I0511 02:12:37.724879 12661 net.cpp:76] Creating Layer inception_4a/relu_3x3_reduce
I0511 02:12:37.724884 12661 net.cpp:372] inception_4a/relu_3x3_reduce <- inception_4a/3x3_reduce
I0511 02:12:37.724892 12661 net.cpp:323] inception_4a/relu_3x3_reduce -> inception_4a/3x3_reduce (in-place)
I0511 02:12:37.724900 12661 net.cpp:105] Setting up inception_4a/relu_3x3_reduce
I0511 02:12:37.724907 12661 net.cpp:112] Top shape: 32 96 14 14 (602112)
I0511 02:12:37.724912 12661 layer_factory.hpp:74] Creating layer inception_4a/3x3
I0511 02:12:37.724926 12661 net.cpp:76] Creating Layer inception_4a/3x3
I0511 02:12:37.724933 12661 net.cpp:372] inception_4a/3x3 <- inception_4a/3x3_reduce
I0511 02:12:37.724959 12661 net.cpp:334] inception_4a/3x3 -> inception_4a/3x3
I0511 02:12:37.724969 12661 net.cpp:105] Setting up inception_4a/3x3
I0511 02:12:37.726524 12661 net.cpp:112] Top shape: 32 208 14 14 (1304576)
I0511 02:12:37.726543 12661 layer_factory.hpp:74] Creating layer inception_4a/relu_3x3
I0511 02:12:37.726552 12661 net.cpp:76] Creating Layer inception_4a/relu_3x3
I0511 02:12:37.726558 12661 net.cpp:372] inception_4a/relu_3x3 <- inception_4a/3x3
I0511 02:12:37.726567 12661 net.cpp:323] inception_4a/relu_3x3 -> inception_4a/3x3 (in-place)
I0511 02:12:37.726574 12661 net.cpp:105] Setting up inception_4a/relu_3x3
I0511 02:12:37.726579 12661 net.cpp:112] Top shape: 32 208 14 14 (1304576)
I0511 02:12:37.726585 12661 layer_factory.hpp:74] Creating layer inception_4a/5x5_reduce
I0511 02:12:37.726593 12661 net.cpp:76] Creating Layer inception_4a/5x5_reduce
I0511 02:12:37.726599 12661 net.cpp:372] inception_4a/5x5_reduce <- pool3/3x3_s2_pool3/3x3_s2_0_split_2
I0511 02:12:37.726609 12661 net.cpp:334] inception_4a/5x5_reduce -> inception_4a/5x5_reduce
I0511 02:12:37.726619 12661 net.cpp:105] Setting up inception_4a/5x5_reduce
I0511 02:12:37.726706 12661 net.cpp:112] Top shape: 32 16 14 14 (100352)
I0511 02:12:37.726717 12661 layer_factory.hpp:74] Creating layer inception_4a/relu_5x5_reduce
I0511 02:12:37.726725 12661 net.cpp:76] Creating Layer inception_4a/relu_5x5_reduce
I0511 02:12:37.726732 12661 net.cpp:372] inception_4a/relu_5x5_reduce <- inception_4a/5x5_reduce
I0511 02:12:37.726742 12661 net.cpp:323] inception_4a/relu_5x5_reduce -> inception_4a/5x5_reduce (in-place)
I0511 02:12:37.726748 12661 net.cpp:105] Setting up inception_4a/relu_5x5_reduce
I0511 02:12:37.726754 12661 net.cpp:112] Top shape: 32 16 14 14 (100352)
I0511 02:12:37.726759 12661 layer_factory.hpp:74] Creating layer inception_4a/5x5
I0511 02:12:37.726768 12661 net.cpp:76] Creating Layer inception_4a/5x5
I0511 02:12:37.726773 12661 net.cpp:372] inception_4a/5x5 <- inception_4a/5x5_reduce
I0511 02:12:37.726781 12661 net.cpp:334] inception_4a/5x5 -> inception_4a/5x5
I0511 02:12:37.726789 12661 net.cpp:105] Setting up inception_4a/5x5
I0511 02:12:37.727025 12661 net.cpp:112] Top shape: 32 48 14 14 (301056)
I0511 02:12:37.727046 12661 layer_factory.hpp:74] Creating layer inception_4a/relu_5x5
I0511 02:12:37.727054 12661 net.cpp:76] Creating Layer inception_4a/relu_5x5
I0511 02:12:37.727061 12661 net.cpp:372] inception_4a/relu_5x5 <- inception_4a/5x5
I0511 02:12:37.727072 12661 net.cpp:323] inception_4a/relu_5x5 -> inception_4a/5x5 (in-place)
I0511 02:12:37.727080 12661 net.cpp:105] Setting up inception_4a/relu_5x5
I0511 02:12:37.727087 12661 net.cpp:112] Top shape: 32 48 14 14 (301056)
I0511 02:12:37.727092 12661 layer_factory.hpp:74] Creating layer inception_4a/pool
I0511 02:12:37.727099 12661 net.cpp:76] Creating Layer inception_4a/pool
I0511 02:12:37.727105 12661 net.cpp:372] inception_4a/pool <- pool3/3x3_s2_pool3/3x3_s2_0_split_3
I0511 02:12:37.727113 12661 net.cpp:334] inception_4a/pool -> inception_4a/pool
I0511 02:12:37.727121 12661 net.cpp:105] Setting up inception_4a/pool
I0511 02:12:37.727128 12661 net.cpp:112] Top shape: 32 480 14 14 (3010560)
I0511 02:12:37.727134 12661 layer_factory.hpp:74] Creating layer inception_4a/pool_proj
I0511 02:12:37.727145 12661 net.cpp:76] Creating Layer inception_4a/pool_proj
I0511 02:12:37.727152 12661 net.cpp:372] inception_4a/pool_proj <- inception_4a/pool
I0511 02:12:37.727160 12661 net.cpp:334] inception_4a/pool_proj -> inception_4a/pool_proj
I0511 02:12:37.727169 12661 net.cpp:105] Setting up inception_4a/pool_proj
I0511 02:12:37.727452 12661 net.cpp:112] Top shape: 32 64 14 14 (401408)
I0511 02:12:37.727465 12661 layer_factory.hpp:74] Creating layer inception_4a/relu_pool_proj
I0511 02:12:37.727473 12661 net.cpp:76] Creating Layer inception_4a/relu_pool_proj
I0511 02:12:37.727479 12661 net.cpp:372] inception_4a/relu_pool_proj <- inception_4a/pool_proj
I0511 02:12:37.727491 12661 net.cpp:323] inception_4a/relu_pool_proj -> inception_4a/pool_proj (in-place)
I0511 02:12:37.727519 12661 net.cpp:105] Setting up inception_4a/relu_pool_proj
I0511 02:12:37.727525 12661 net.cpp:112] Top shape: 32 64 14 14 (401408)
I0511 02:12:37.727531 12661 layer_factory.hpp:74] Creating layer inception_4a/output
I0511 02:12:37.727540 12661 net.cpp:76] Creating Layer inception_4a/output
I0511 02:12:37.727545 12661 net.cpp:372] inception_4a/output <- inception_4a/1x1
I0511 02:12:37.727552 12661 net.cpp:372] inception_4a/output <- inception_4a/3x3
I0511 02:12:37.727558 12661 net.cpp:372] inception_4a/output <- inception_4a/5x5
I0511 02:12:37.727565 12661 net.cpp:372] inception_4a/output <- inception_4a/pool_proj
I0511 02:12:37.727571 12661 net.cpp:334] inception_4a/output -> inception_4a/output
I0511 02:12:37.727579 12661 net.cpp:105] Setting up inception_4a/output
I0511 02:12:37.727586 12661 net.cpp:112] Top shape: 32 512 14 14 (3211264)
I0511 02:12:37.727591 12661 layer_factory.hpp:74] Creating layer inception_4a/output_inception_4a/output_0_split
I0511 02:12:37.727602 12661 net.cpp:76] Creating Layer inception_4a/output_inception_4a/output_0_split
I0511 02:12:37.727612 12661 net.cpp:372] inception_4a/output_inception_4a/output_0_split <- inception_4a/output
I0511 02:12:37.727619 12661 net.cpp:334] inception_4a/output_inception_4a/output_0_split -> inception_4a/output_inception_4a/output_0_split_0
I0511 02:12:37.727629 12661 net.cpp:334] inception_4a/output_inception_4a/output_0_split -> inception_4a/output_inception_4a/output_0_split_1
I0511 02:12:37.727638 12661 net.cpp:334] inception_4a/output_inception_4a/output_0_split -> inception_4a/output_inception_4a/output_0_split_2
I0511 02:12:37.727648 12661 net.cpp:334] inception_4a/output_inception_4a/output_0_split -> inception_4a/output_inception_4a/output_0_split_3
I0511 02:12:37.727655 12661 net.cpp:334] inception_4a/output_inception_4a/output_0_split -> inception_4a/output_inception_4a/output_0_split_4
I0511 02:12:37.727664 12661 net.cpp:105] Setting up inception_4a/output_inception_4a/output_0_split
I0511 02:12:37.727670 12661 net.cpp:112] Top shape: 32 512 14 14 (3211264)
I0511 02:12:37.727675 12661 net.cpp:112] Top shape: 32 512 14 14 (3211264)
I0511 02:12:37.727680 12661 net.cpp:112] Top shape: 32 512 14 14 (3211264)
I0511 02:12:37.727685 12661 net.cpp:112] Top shape: 32 512 14 14 (3211264)
I0511 02:12:37.727690 12661 net.cpp:112] Top shape: 32 512 14 14 (3211264)
I0511 02:12:37.727695 12661 layer_factory.hpp:74] Creating layer loss1/ave_pool
I0511 02:12:37.727708 12661 net.cpp:76] Creating Layer loss1/ave_pool
I0511 02:12:37.727715 12661 net.cpp:372] loss1/ave_pool <- inception_4a/output_inception_4a/output_0_split_0
I0511 02:12:37.727735 12661 net.cpp:334] loss1/ave_pool -> loss1/ave_pool
I0511 02:12:37.727742 12661 net.cpp:105] Setting up loss1/ave_pool
I0511 02:12:37.727749 12661 net.cpp:112] Top shape: 32 512 4 4 (262144)
I0511 02:12:37.727756 12661 layer_factory.hpp:74] Creating layer loss1/conv
I0511 02:12:37.727763 12661 net.cpp:76] Creating Layer loss1/conv
I0511 02:12:37.727768 12661 net.cpp:372] loss1/conv <- loss1/ave_pool
I0511 02:12:37.727783 12661 net.cpp:334] loss1/conv -> loss1/conv
I0511 02:12:37.727792 12661 net.cpp:105] Setting up loss1/conv
I0511 02:12:37.728368 12661 net.cpp:112] Top shape: 32 128 4 4 (65536)
I0511 02:12:37.728382 12661 layer_factory.hpp:74] Creating layer loss1/relu_conv
I0511 02:12:37.728394 12661 net.cpp:76] Creating Layer loss1/relu_conv
I0511 02:12:37.728399 12661 net.cpp:372] loss1/relu_conv <- loss1/conv
I0511 02:12:37.728406 12661 net.cpp:323] loss1/relu_conv -> loss1/conv (in-place)
I0511 02:12:37.728415 12661 net.cpp:105] Setting up loss1/relu_conv
I0511 02:12:37.728420 12661 net.cpp:112] Top shape: 32 128 4 4 (65536)
I0511 02:12:37.728425 12661 layer_factory.hpp:74] Creating layer loss1/fc
I0511 02:12:37.728437 12661 net.cpp:76] Creating Layer loss1/fc
I0511 02:12:37.728442 12661 net.cpp:372] loss1/fc <- loss1/conv
I0511 02:12:37.728452 12661 net.cpp:334] loss1/fc -> loss1/fc
I0511 02:12:37.728466 12661 net.cpp:105] Setting up loss1/fc
I0511 02:12:37.746045 12661 net.cpp:112] Top shape: 32 1024 1 1 (32768)
I0511 02:12:37.746121 12661 layer_factory.hpp:74] Creating layer loss1/relu_fc
I0511 02:12:37.746136 12661 net.cpp:76] Creating Layer loss1/relu_fc
I0511 02:12:37.746145 12661 net.cpp:372] loss1/relu_fc <- loss1/fc
I0511 02:12:37.746156 12661 net.cpp:323] loss1/relu_fc -> loss1/fc (in-place)
I0511 02:12:37.746167 12661 net.cpp:105] Setting up loss1/relu_fc
I0511 02:12:37.746173 12661 net.cpp:112] Top shape: 32 1024 1 1 (32768)
I0511 02:12:37.746179 12661 layer_factory.hpp:74] Creating layer loss1/drop_fc
I0511 02:12:37.746202 12661 net.cpp:76] Creating Layer loss1/drop_fc
I0511 02:12:37.746208 12661 net.cpp:372] loss1/drop_fc <- loss1/fc
I0511 02:12:37.746217 12661 net.cpp:323] loss1/drop_fc -> loss1/fc (in-place)
I0511 02:12:37.746227 12661 net.cpp:105] Setting up loss1/drop_fc
I0511 02:12:37.746237 12661 net.cpp:112] Top shape: 32 1024 1 1 (32768)
I0511 02:12:37.746243 12661 layer_factory.hpp:74] Creating layer loss1/classifier
I0511 02:12:37.746253 12661 net.cpp:76] Creating Layer loss1/classifier
I0511 02:12:37.746260 12661 net.cpp:372] loss1/classifier <- loss1/fc
I0511 02:12:37.746299 12661 net.cpp:334] loss1/classifier -> loss1/classifier
I0511 02:12:37.746314 12661 net.cpp:105] Setting up loss1/classifier
I0511 02:12:37.746352 12661 net.cpp:112] Top shape: 32 2 1 1 (64)
I0511 02:12:37.746363 12661 layer_factory.hpp:74] Creating layer loss1/loss
I0511 02:12:37.746377 12661 net.cpp:76] Creating Layer loss1/loss
I0511 02:12:37.746384 12661 net.cpp:372] loss1/loss <- loss1/classifier
I0511 02:12:37.746394 12661 net.cpp:372] loss1/loss <- label_data_1_split_0
I0511 02:12:37.746403 12661 net.cpp:334] loss1/loss -> loss1/loss1
I0511 02:12:37.746414 12661 net.cpp:105] Setting up loss1/loss
I0511 02:12:37.746425 12661 layer_factory.hpp:74] Creating layer loss1/loss
I0511 02:12:37.746445 12661 net.cpp:112] Top shape: 1 1 1 1 (1)
I0511 02:12:37.746451 12661 net.cpp:118]     with loss weight 0.3
I0511 02:12:37.746489 12661 layer_factory.hpp:74] Creating layer inception_4b/1x1
I0511 02:12:37.746498 12661 net.cpp:76] Creating Layer inception_4b/1x1
I0511 02:12:37.746505 12661 net.cpp:372] inception_4b/1x1 <- inception_4a/output_inception_4a/output_0_split_1
I0511 02:12:37.746517 12661 net.cpp:334] inception_4b/1x1 -> inception_4b/1x1
I0511 02:12:37.746527 12661 net.cpp:105] Setting up inception_4b/1x1
I0511 02:12:37.747236 12661 net.cpp:112] Top shape: 32 160 14 14 (1003520)
I0511 02:12:37.747249 12661 layer_factory.hpp:74] Creating layer inception_4b/relu_1x1
I0511 02:12:37.747258 12661 net.cpp:76] Creating Layer inception_4b/relu_1x1
I0511 02:12:37.747264 12661 net.cpp:372] inception_4b/relu_1x1 <- inception_4b/1x1
I0511 02:12:37.747287 12661 net.cpp:323] inception_4b/relu_1x1 -> inception_4b/1x1 (in-place)
I0511 02:12:37.747297 12661 net.cpp:105] Setting up inception_4b/relu_1x1
I0511 02:12:37.747303 12661 net.cpp:112] Top shape: 32 160 14 14 (1003520)
I0511 02:12:37.747308 12661 layer_factory.hpp:74] Creating layer inception_4b/3x3_reduce
I0511 02:12:37.747318 12661 net.cpp:76] Creating Layer inception_4b/3x3_reduce
I0511 02:12:37.747323 12661 net.cpp:372] inception_4b/3x3_reduce <- inception_4a/output_inception_4a/output_0_split_2
I0511 02:12:37.747334 12661 net.cpp:334] inception_4b/3x3_reduce -> inception_4b/3x3_reduce
I0511 02:12:37.747342 12661 net.cpp:105] Setting up inception_4b/3x3_reduce
I0511 02:12:37.747839 12661 net.cpp:112] Top shape: 32 112 14 14 (702464)
I0511 02:12:37.747853 12661 layer_factory.hpp:74] Creating layer inception_4b/relu_3x3_reduce
I0511 02:12:37.747861 12661 net.cpp:76] Creating Layer inception_4b/relu_3x3_reduce
I0511 02:12:37.747867 12661 net.cpp:372] inception_4b/relu_3x3_reduce <- inception_4b/3x3_reduce
I0511 02:12:37.747875 12661 net.cpp:323] inception_4b/relu_3x3_reduce -> inception_4b/3x3_reduce (in-place)
I0511 02:12:37.747882 12661 net.cpp:105] Setting up inception_4b/relu_3x3_reduce
I0511 02:12:37.747889 12661 net.cpp:112] Top shape: 32 112 14 14 (702464)
I0511 02:12:37.747895 12661 layer_factory.hpp:74] Creating layer inception_4b/3x3
I0511 02:12:37.747905 12661 net.cpp:76] Creating Layer inception_4b/3x3
I0511 02:12:37.747925 12661 net.cpp:372] inception_4b/3x3 <- inception_4b/3x3_reduce
I0511 02:12:37.747934 12661 net.cpp:334] inception_4b/3x3 -> inception_4b/3x3
I0511 02:12:37.747944 12661 net.cpp:105] Setting up inception_4b/3x3
I0511 02:12:37.749843 12661 net.cpp:112] Top shape: 32 224 14 14 (1404928)
I0511 02:12:37.749861 12661 layer_factory.hpp:74] Creating layer inception_4b/relu_3x3
I0511 02:12:37.749871 12661 net.cpp:76] Creating Layer inception_4b/relu_3x3
I0511 02:12:37.749877 12661 net.cpp:372] inception_4b/relu_3x3 <- inception_4b/3x3
I0511 02:12:37.749886 12661 net.cpp:323] inception_4b/relu_3x3 -> inception_4b/3x3 (in-place)
I0511 02:12:37.749893 12661 net.cpp:105] Setting up inception_4b/relu_3x3
I0511 02:12:37.749899 12661 net.cpp:112] Top shape: 32 224 14 14 (1404928)
I0511 02:12:37.749904 12661 layer_factory.hpp:74] Creating layer inception_4b/5x5_reduce
I0511 02:12:37.749914 12661 net.cpp:76] Creating Layer inception_4b/5x5_reduce
I0511 02:12:37.749922 12661 net.cpp:372] inception_4b/5x5_reduce <- inception_4a/output_inception_4a/output_0_split_3
I0511 02:12:37.749929 12661 net.cpp:334] inception_4b/5x5_reduce -> inception_4b/5x5_reduce
I0511 02:12:37.749938 12661 net.cpp:105] Setting up inception_4b/5x5_reduce
I0511 02:12:37.750052 12661 net.cpp:112] Top shape: 32 24 14 14 (150528)
I0511 02:12:37.750062 12661 layer_factory.hpp:74] Creating layer inception_4b/relu_5x5_reduce
I0511 02:12:37.750071 12661 net.cpp:76] Creating Layer inception_4b/relu_5x5_reduce
I0511 02:12:37.750077 12661 net.cpp:372] inception_4b/relu_5x5_reduce <- inception_4b/5x5_reduce
I0511 02:12:37.750085 12661 net.cpp:323] inception_4b/relu_5x5_reduce -> inception_4b/5x5_reduce (in-place)
I0511 02:12:37.750093 12661 net.cpp:105] Setting up inception_4b/relu_5x5_reduce
I0511 02:12:37.750099 12661 net.cpp:112] Top shape: 32 24 14 14 (150528)
I0511 02:12:37.750105 12661 layer_factory.hpp:74] Creating layer inception_4b/5x5
I0511 02:12:37.750113 12661 net.cpp:76] Creating Layer inception_4b/5x5
I0511 02:12:37.750118 12661 net.cpp:372] inception_4b/5x5 <- inception_4b/5x5_reduce
I0511 02:12:37.750126 12661 net.cpp:334] inception_4b/5x5 -> inception_4b/5x5
I0511 02:12:37.750134 12661 net.cpp:105] Setting up inception_4b/5x5
I0511 02:12:37.750483 12661 net.cpp:112] Top shape: 32 64 14 14 (401408)
I0511 02:12:37.750496 12661 layer_factory.hpp:74] Creating layer inception_4b/relu_5x5
I0511 02:12:37.750506 12661 net.cpp:76] Creating Layer inception_4b/relu_5x5
I0511 02:12:37.750514 12661 net.cpp:372] inception_4b/relu_5x5 <- inception_4b/5x5
I0511 02:12:37.750520 12661 net.cpp:323] inception_4b/relu_5x5 -> inception_4b/5x5 (in-place)
I0511 02:12:37.750529 12661 net.cpp:105] Setting up inception_4b/relu_5x5
I0511 02:12:37.750533 12661 net.cpp:112] Top shape: 32 64 14 14 (401408)
I0511 02:12:37.750538 12661 layer_factory.hpp:74] Creating layer inception_4b/pool
I0511 02:12:37.750546 12661 net.cpp:76] Creating Layer inception_4b/pool
I0511 02:12:37.750552 12661 net.cpp:372] inception_4b/pool <- inception_4a/output_inception_4a/output_0_split_4
I0511 02:12:37.750562 12661 net.cpp:334] inception_4b/pool -> inception_4b/pool
I0511 02:12:37.750578 12661 net.cpp:105] Setting up inception_4b/pool
I0511 02:12:37.750589 12661 net.cpp:112] Top shape: 32 512 14 14 (3211264)
I0511 02:12:37.750597 12661 layer_factory.hpp:74] Creating layer inception_4b/pool_proj
I0511 02:12:37.750605 12661 net.cpp:76] Creating Layer inception_4b/pool_proj
I0511 02:12:37.750612 12661 net.cpp:372] inception_4b/pool_proj <- inception_4b/pool
I0511 02:12:37.750622 12661 net.cpp:334] inception_4b/pool_proj -> inception_4b/pool_proj
I0511 02:12:37.750632 12661 net.cpp:105] Setting up inception_4b/pool_proj
I0511 02:12:37.750916 12661 net.cpp:112] Top shape: 32 64 14 14 (401408)
I0511 02:12:37.750929 12661 layer_factory.hpp:74] Creating layer inception_4b/relu_pool_proj
I0511 02:12:37.750959 12661 net.cpp:76] Creating Layer inception_4b/relu_pool_proj
I0511 02:12:37.750967 12661 net.cpp:372] inception_4b/relu_pool_proj <- inception_4b/pool_proj
I0511 02:12:37.750991 12661 net.cpp:323] inception_4b/relu_pool_proj -> inception_4b/pool_proj (in-place)
I0511 02:12:37.751000 12661 net.cpp:105] Setting up inception_4b/relu_pool_proj
I0511 02:12:37.751006 12661 net.cpp:112] Top shape: 32 64 14 14 (401408)
I0511 02:12:37.751011 12661 layer_factory.hpp:74] Creating layer inception_4b/output
I0511 02:12:37.751021 12661 net.cpp:76] Creating Layer inception_4b/output
I0511 02:12:37.751027 12661 net.cpp:372] inception_4b/output <- inception_4b/1x1
I0511 02:12:37.751034 12661 net.cpp:372] inception_4b/output <- inception_4b/3x3
I0511 02:12:37.751039 12661 net.cpp:372] inception_4b/output <- inception_4b/5x5
I0511 02:12:37.751045 12661 net.cpp:372] inception_4b/output <- inception_4b/pool_proj
I0511 02:12:37.751052 12661 net.cpp:334] inception_4b/output -> inception_4b/output
I0511 02:12:37.751060 12661 net.cpp:105] Setting up inception_4b/output
I0511 02:12:37.751067 12661 net.cpp:112] Top shape: 32 512 14 14 (3211264)
I0511 02:12:37.751073 12661 layer_factory.hpp:74] Creating layer inception_4b/output_inception_4b/output_0_split
I0511 02:12:37.751080 12661 net.cpp:76] Creating Layer inception_4b/output_inception_4b/output_0_split
I0511 02:12:37.751086 12661 net.cpp:372] inception_4b/output_inception_4b/output_0_split <- inception_4b/output
I0511 02:12:37.751093 12661 net.cpp:334] inception_4b/output_inception_4b/output_0_split -> inception_4b/output_inception_4b/output_0_split_0
I0511 02:12:37.751102 12661 net.cpp:334] inception_4b/output_inception_4b/output_0_split -> inception_4b/output_inception_4b/output_0_split_1
I0511 02:12:37.751114 12661 net.cpp:334] inception_4b/output_inception_4b/output_0_split -> inception_4b/output_inception_4b/output_0_split_2
I0511 02:12:37.751123 12661 net.cpp:334] inception_4b/output_inception_4b/output_0_split -> inception_4b/output_inception_4b/output_0_split_3
I0511 02:12:37.751132 12661 net.cpp:105] Setting up inception_4b/output_inception_4b/output_0_split
I0511 02:12:37.751138 12661 net.cpp:112] Top shape: 32 512 14 14 (3211264)
I0511 02:12:37.751143 12661 net.cpp:112] Top shape: 32 512 14 14 (3211264)
I0511 02:12:37.751148 12661 net.cpp:112] Top shape: 32 512 14 14 (3211264)
I0511 02:12:37.751152 12661 net.cpp:112] Top shape: 32 512 14 14 (3211264)
I0511 02:12:37.751158 12661 layer_factory.hpp:74] Creating layer inception_4c/1x1
I0511 02:12:37.751168 12661 net.cpp:76] Creating Layer inception_4c/1x1
I0511 02:12:37.751174 12661 net.cpp:372] inception_4c/1x1 <- inception_4b/output_inception_4b/output_0_split_0
I0511 02:12:37.751984 12661 net.cpp:334] inception_4c/1x1 -> inception_4c/1x1
I0511 02:12:37.752002 12661 net.cpp:105] Setting up inception_4c/1x1
I0511 02:12:37.752570 12661 net.cpp:112] Top shape: 32 128 14 14 (802816)
I0511 02:12:37.752586 12661 layer_factory.hpp:74] Creating layer inception_4c/relu_1x1
I0511 02:12:37.752595 12661 net.cpp:76] Creating Layer inception_4c/relu_1x1
I0511 02:12:37.752603 12661 net.cpp:372] inception_4c/relu_1x1 <- inception_4c/1x1
I0511 02:12:37.752612 12661 net.cpp:323] inception_4c/relu_1x1 -> inception_4c/1x1 (in-place)
I0511 02:12:37.752624 12661 net.cpp:105] Setting up inception_4c/relu_1x1
I0511 02:12:37.752631 12661 net.cpp:112] Top shape: 32 128 14 14 (802816)
I0511 02:12:37.752636 12661 layer_factory.hpp:74] Creating layer inception_4c/3x3_reduce
I0511 02:12:37.752646 12661 net.cpp:76] Creating Layer inception_4c/3x3_reduce
I0511 02:12:37.752652 12661 net.cpp:372] inception_4c/3x3_reduce <- inception_4b/output_inception_4b/output_0_split_1
I0511 02:12:37.752662 12661 net.cpp:334] inception_4c/3x3_reduce -> inception_4c/3x3_reduce
I0511 02:12:37.752672 12661 net.cpp:105] Setting up inception_4c/3x3_reduce
I0511 02:12:37.753240 12661 net.cpp:112] Top shape: 32 128 14 14 (802816)
I0511 02:12:37.753255 12661 layer_factory.hpp:74] Creating layer inception_4c/relu_3x3_reduce
I0511 02:12:37.753263 12661 net.cpp:76] Creating Layer inception_4c/relu_3x3_reduce
I0511 02:12:37.753281 12661 net.cpp:372] inception_4c/relu_3x3_reduce <- inception_4c/3x3_reduce
I0511 02:12:37.753290 12661 net.cpp:323] inception_4c/relu_3x3_reduce -> inception_4c/3x3_reduce (in-place)
I0511 02:12:37.753320 12661 net.cpp:105] Setting up inception_4c/relu_3x3_reduce
I0511 02:12:37.753327 12661 net.cpp:112] Top shape: 32 128 14 14 (802816)
I0511 02:12:37.753334 12661 layer_factory.hpp:74] Creating layer inception_4c/3x3
I0511 02:12:37.753345 12661 net.cpp:76] Creating Layer inception_4c/3x3
I0511 02:12:37.753350 12661 net.cpp:372] inception_4c/3x3 <- inception_4c/3x3_reduce
I0511 02:12:37.753360 12661 net.cpp:334] inception_4c/3x3 -> inception_4c/3x3
I0511 02:12:37.753367 12661 net.cpp:105] Setting up inception_4c/3x3
I0511 02:12:37.755841 12661 net.cpp:112] Top shape: 32 256 14 14 (1605632)
I0511 02:12:37.755875 12661 layer_factory.hpp:74] Creating layer inception_4c/relu_3x3
I0511 02:12:37.755887 12661 net.cpp:76] Creating Layer inception_4c/relu_3x3
I0511 02:12:37.755893 12661 net.cpp:372] inception_4c/relu_3x3 <- inception_4c/3x3
I0511 02:12:37.755902 12661 net.cpp:323] inception_4c/relu_3x3 -> inception_4c/3x3 (in-place)
I0511 02:12:37.755910 12661 net.cpp:105] Setting up inception_4c/relu_3x3
I0511 02:12:37.755916 12661 net.cpp:112] Top shape: 32 256 14 14 (1605632)
I0511 02:12:37.755921 12661 layer_factory.hpp:74] Creating layer inception_4c/5x5_reduce
I0511 02:12:37.755934 12661 net.cpp:76] Creating Layer inception_4c/5x5_reduce
I0511 02:12:37.755940 12661 net.cpp:372] inception_4c/5x5_reduce <- inception_4b/output_inception_4b/output_0_split_2
I0511 02:12:37.755949 12661 net.cpp:334] inception_4c/5x5_reduce -> inception_4c/5x5_reduce
I0511 02:12:37.755959 12661 net.cpp:105] Setting up inception_4c/5x5_reduce
I0511 02:12:37.756072 12661 net.cpp:112] Top shape: 32 24 14 14 (150528)
I0511 02:12:37.756083 12661 layer_factory.hpp:74] Creating layer inception_4c/relu_5x5_reduce
I0511 02:12:37.756093 12661 net.cpp:76] Creating Layer inception_4c/relu_5x5_reduce
I0511 02:12:37.756098 12661 net.cpp:372] inception_4c/relu_5x5_reduce <- inception_4c/5x5_reduce
I0511 02:12:37.756108 12661 net.cpp:323] inception_4c/relu_5x5_reduce -> inception_4c/5x5_reduce (in-place)
I0511 02:12:37.756116 12661 net.cpp:105] Setting up inception_4c/relu_5x5_reduce
I0511 02:12:37.756122 12661 net.cpp:112] Top shape: 32 24 14 14 (150528)
I0511 02:12:37.756127 12661 layer_factory.hpp:74] Creating layer inception_4c/5x5
I0511 02:12:37.756136 12661 net.cpp:76] Creating Layer inception_4c/5x5
I0511 02:12:37.756141 12661 net.cpp:372] inception_4c/5x5 <- inception_4c/5x5_reduce
I0511 02:12:37.756151 12661 net.cpp:334] inception_4c/5x5 -> inception_4c/5x5
I0511 02:12:37.756163 12661 net.cpp:105] Setting up inception_4c/5x5
I0511 02:12:37.756515 12661 net.cpp:112] Top shape: 32 64 14 14 (401408)
I0511 02:12:37.756527 12661 layer_factory.hpp:74] Creating layer inception_4c/relu_5x5
I0511 02:12:37.756536 12661 net.cpp:76] Creating Layer inception_4c/relu_5x5
I0511 02:12:37.756542 12661 net.cpp:372] inception_4c/relu_5x5 <- inception_4c/5x5
I0511 02:12:37.756549 12661 net.cpp:323] inception_4c/relu_5x5 -> inception_4c/5x5 (in-place)
I0511 02:12:37.756557 12661 net.cpp:105] Setting up inception_4c/relu_5x5
I0511 02:12:37.756562 12661 net.cpp:112] Top shape: 32 64 14 14 (401408)
I0511 02:12:37.756567 12661 layer_factory.hpp:74] Creating layer inception_4c/pool
I0511 02:12:37.756575 12661 net.cpp:76] Creating Layer inception_4c/pool
I0511 02:12:37.756582 12661 net.cpp:372] inception_4c/pool <- inception_4b/output_inception_4b/output_0_split_3
I0511 02:12:37.756592 12661 net.cpp:334] inception_4c/pool -> inception_4c/pool
I0511 02:12:37.756603 12661 net.cpp:105] Setting up inception_4c/pool
I0511 02:12:37.756610 12661 net.cpp:112] Top shape: 32 512 14 14 (3211264)
I0511 02:12:37.756616 12661 layer_factory.hpp:74] Creating layer inception_4c/pool_proj
I0511 02:12:37.756628 12661 net.cpp:76] Creating Layer inception_4c/pool_proj
I0511 02:12:37.756633 12661 net.cpp:372] inception_4c/pool_proj <- inception_4c/pool
I0511 02:12:37.756641 12661 net.cpp:334] inception_4c/pool_proj -> inception_4c/pool_proj
I0511 02:12:37.756650 12661 net.cpp:105] Setting up inception_4c/pool_proj
I0511 02:12:37.756952 12661 net.cpp:112] Top shape: 32 64 14 14 (401408)
I0511 02:12:37.756965 12661 layer_factory.hpp:74] Creating layer inception_4c/relu_pool_proj
I0511 02:12:37.756973 12661 net.cpp:76] Creating Layer inception_4c/relu_pool_proj
I0511 02:12:37.756979 12661 net.cpp:372] inception_4c/relu_pool_proj <- inception_4c/pool_proj
I0511 02:12:37.756989 12661 net.cpp:323] inception_4c/relu_pool_proj -> inception_4c/pool_proj (in-place)
I0511 02:12:37.756996 12661 net.cpp:105] Setting up inception_4c/relu_pool_proj
I0511 02:12:37.757002 12661 net.cpp:112] Top shape: 32 64 14 14 (401408)
I0511 02:12:37.757007 12661 layer_factory.hpp:74] Creating layer inception_4c/output
I0511 02:12:37.757015 12661 net.cpp:76] Creating Layer inception_4c/output
I0511 02:12:37.757020 12661 net.cpp:372] inception_4c/output <- inception_4c/1x1
I0511 02:12:37.757027 12661 net.cpp:372] inception_4c/output <- inception_4c/3x3
I0511 02:12:37.757033 12661 net.cpp:372] inception_4c/output <- inception_4c/5x5
I0511 02:12:37.757040 12661 net.cpp:372] inception_4c/output <- inception_4c/pool_proj
I0511 02:12:37.757046 12661 net.cpp:334] inception_4c/output -> inception_4c/output
I0511 02:12:37.757055 12661 net.cpp:105] Setting up inception_4c/output
I0511 02:12:37.757061 12661 net.cpp:112] Top shape: 32 512 14 14 (3211264)
I0511 02:12:37.757066 12661 layer_factory.hpp:74] Creating layer inception_4c/output_inception_4c/output_0_split
I0511 02:12:37.757074 12661 net.cpp:76] Creating Layer inception_4c/output_inception_4c/output_0_split
I0511 02:12:37.757081 12661 net.cpp:372] inception_4c/output_inception_4c/output_0_split <- inception_4c/output
I0511 02:12:37.757112 12661 net.cpp:334] inception_4c/output_inception_4c/output_0_split -> inception_4c/output_inception_4c/output_0_split_0
I0511 02:12:37.757123 12661 net.cpp:334] inception_4c/output_inception_4c/output_0_split -> inception_4c/output_inception_4c/output_0_split_1
I0511 02:12:37.757133 12661 net.cpp:334] inception_4c/output_inception_4c/output_0_split -> inception_4c/output_inception_4c/output_0_split_2
I0511 02:12:37.757144 12661 net.cpp:334] inception_4c/output_inception_4c/output_0_split -> inception_4c/output_inception_4c/output_0_split_3
I0511 02:12:37.757153 12661 net.cpp:105] Setting up inception_4c/output_inception_4c/output_0_split
I0511 02:12:37.757159 12661 net.cpp:112] Top shape: 32 512 14 14 (3211264)
I0511 02:12:37.757172 12661 net.cpp:112] Top shape: 32 512 14 14 (3211264)
I0511 02:12:37.757179 12661 net.cpp:112] Top shape: 32 512 14 14 (3211264)
I0511 02:12:37.757182 12661 net.cpp:112] Top shape: 32 512 14 14 (3211264)
I0511 02:12:37.757189 12661 layer_factory.hpp:74] Creating layer inception_4d/1x1
I0511 02:12:37.757199 12661 net.cpp:76] Creating Layer inception_4d/1x1
I0511 02:12:37.757205 12661 net.cpp:372] inception_4d/1x1 <- inception_4c/output_inception_4c/output_0_split_0
I0511 02:12:37.757216 12661 net.cpp:334] inception_4d/1x1 -> inception_4d/1x1
I0511 02:12:37.757225 12661 net.cpp:105] Setting up inception_4d/1x1
I0511 02:12:37.757726 12661 net.cpp:112] Top shape: 32 112 14 14 (702464)
I0511 02:12:37.757742 12661 layer_factory.hpp:74] Creating layer inception_4d/relu_1x1
I0511 02:12:37.757750 12661 net.cpp:76] Creating Layer inception_4d/relu_1x1
I0511 02:12:37.757756 12661 net.cpp:372] inception_4d/relu_1x1 <- inception_4d/1x1
I0511 02:12:37.757763 12661 net.cpp:323] inception_4d/relu_1x1 -> inception_4d/1x1 (in-place)
I0511 02:12:37.757771 12661 net.cpp:105] Setting up inception_4d/relu_1x1
I0511 02:12:37.757776 12661 net.cpp:112] Top shape: 32 112 14 14 (702464)
I0511 02:12:37.757781 12661 layer_factory.hpp:74] Creating layer inception_4d/3x3_reduce
I0511 02:12:37.757789 12661 net.cpp:76] Creating Layer inception_4d/3x3_reduce
I0511 02:12:37.757796 12661 net.cpp:372] inception_4d/3x3_reduce <- inception_4c/output_inception_4c/output_0_split_1
I0511 02:12:37.757805 12661 net.cpp:334] inception_4d/3x3_reduce -> inception_4d/3x3_reduce
I0511 02:12:37.757814 12661 net.cpp:105] Setting up inception_4d/3x3_reduce
I0511 02:12:37.758457 12661 net.cpp:112] Top shape: 32 144 14 14 (903168)
I0511 02:12:37.758484 12661 layer_factory.hpp:74] Creating layer inception_4d/relu_3x3_reduce
I0511 02:12:37.758493 12661 net.cpp:76] Creating Layer inception_4d/relu_3x3_reduce
I0511 02:12:37.758499 12661 net.cpp:372] inception_4d/relu_3x3_reduce <- inception_4d/3x3_reduce
I0511 02:12:37.758510 12661 net.cpp:323] inception_4d/relu_3x3_reduce -> inception_4d/3x3_reduce (in-place)
I0511 02:12:37.758519 12661 net.cpp:105] Setting up inception_4d/relu_3x3_reduce
I0511 02:12:37.758524 12661 net.cpp:112] Top shape: 32 144 14 14 (903168)
I0511 02:12:37.758530 12661 layer_factory.hpp:74] Creating layer inception_4d/3x3
I0511 02:12:37.758538 12661 net.cpp:76] Creating Layer inception_4d/3x3
I0511 02:12:37.758544 12661 net.cpp:372] inception_4d/3x3 <- inception_4d/3x3_reduce
I0511 02:12:37.758553 12661 net.cpp:334] inception_4d/3x3 -> inception_4d/3x3
I0511 02:12:37.758563 12661 net.cpp:105] Setting up inception_4d/3x3
I0511 02:12:37.761680 12661 net.cpp:112] Top shape: 32 288 14 14 (1806336)
I0511 02:12:37.761699 12661 layer_factory.hpp:74] Creating layer inception_4d/relu_3x3
I0511 02:12:37.761708 12661 net.cpp:76] Creating Layer inception_4d/relu_3x3
I0511 02:12:37.761714 12661 net.cpp:372] inception_4d/relu_3x3 <- inception_4d/3x3
I0511 02:12:37.761721 12661 net.cpp:323] inception_4d/relu_3x3 -> inception_4d/3x3 (in-place)
I0511 02:12:37.761730 12661 net.cpp:105] Setting up inception_4d/relu_3x3
I0511 02:12:37.762450 12661 net.cpp:112] Top shape: 32 288 14 14 (1806336)
I0511 02:12:37.762459 12661 layer_factory.hpp:74] Creating layer inception_4d/5x5_reduce
I0511 02:12:37.762471 12661 net.cpp:76] Creating Layer inception_4d/5x5_reduce
I0511 02:12:37.762478 12661 net.cpp:372] inception_4d/5x5_reduce <- inception_4c/output_inception_4c/output_0_split_2
I0511 02:12:37.762490 12661 net.cpp:334] inception_4d/5x5_reduce -> inception_4d/5x5_reduce
I0511 02:12:37.762498 12661 net.cpp:105] Setting up inception_4d/5x5_reduce
I0511 02:12:37.762647 12661 net.cpp:112] Top shape: 32 32 14 14 (200704)
I0511 02:12:37.762660 12661 layer_factory.hpp:74] Creating layer inception_4d/relu_5x5_reduce
I0511 02:12:37.762667 12661 net.cpp:76] Creating Layer inception_4d/relu_5x5_reduce
I0511 02:12:37.762673 12661 net.cpp:372] inception_4d/relu_5x5_reduce <- inception_4d/5x5_reduce
I0511 02:12:37.762682 12661 net.cpp:323] inception_4d/relu_5x5_reduce -> inception_4d/5x5_reduce (in-place)
I0511 02:12:37.762691 12661 net.cpp:105] Setting up inception_4d/relu_5x5_reduce
I0511 02:12:37.762696 12661 net.cpp:112] Top shape: 32 32 14 14 (200704)
I0511 02:12:37.762701 12661 layer_factory.hpp:74] Creating layer inception_4d/5x5
I0511 02:12:37.762709 12661 net.cpp:76] Creating Layer inception_4d/5x5
I0511 02:12:37.762714 12661 net.cpp:372] inception_4d/5x5 <- inception_4d/5x5_reduce
I0511 02:12:37.762724 12661 net.cpp:334] inception_4d/5x5 -> inception_4d/5x5
I0511 02:12:37.762733 12661 net.cpp:105] Setting up inception_4d/5x5
I0511 02:12:37.763171 12661 net.cpp:112] Top shape: 32 64 14 14 (401408)
I0511 02:12:37.763185 12661 layer_factory.hpp:74] Creating layer inception_4d/relu_5x5
I0511 02:12:37.763192 12661 net.cpp:76] Creating Layer inception_4d/relu_5x5
I0511 02:12:37.763198 12661 net.cpp:372] inception_4d/relu_5x5 <- inception_4d/5x5
I0511 02:12:37.763206 12661 net.cpp:323] inception_4d/relu_5x5 -> inception_4d/5x5 (in-place)
I0511 02:12:37.763216 12661 net.cpp:105] Setting up inception_4d/relu_5x5
I0511 02:12:37.763221 12661 net.cpp:112] Top shape: 32 64 14 14 (401408)
I0511 02:12:37.763226 12661 layer_factory.hpp:74] Creating layer inception_4d/pool
I0511 02:12:37.763233 12661 net.cpp:76] Creating Layer inception_4d/pool
I0511 02:12:37.763239 12661 net.cpp:372] inception_4d/pool <- inception_4c/output_inception_4c/output_0_split_3
I0511 02:12:37.763247 12661 net.cpp:334] inception_4d/pool -> inception_4d/pool
I0511 02:12:37.763255 12661 net.cpp:105] Setting up inception_4d/pool
I0511 02:12:37.763263 12661 net.cpp:112] Top shape: 32 512 14 14 (3211264)
I0511 02:12:37.763280 12661 layer_factory.hpp:74] Creating layer inception_4d/pool_proj
I0511 02:12:37.763312 12661 net.cpp:76] Creating Layer inception_4d/pool_proj
I0511 02:12:37.763319 12661 net.cpp:372] inception_4d/pool_proj <- inception_4d/pool
I0511 02:12:37.763329 12661 net.cpp:334] inception_4d/pool_proj -> inception_4d/pool_proj
I0511 02:12:37.763337 12661 net.cpp:105] Setting up inception_4d/pool_proj
I0511 02:12:37.763670 12661 net.cpp:112] Top shape: 32 64 14 14 (401408)
I0511 02:12:37.763687 12661 layer_factory.hpp:74] Creating layer inception_4d/relu_pool_proj
I0511 02:12:37.763695 12661 net.cpp:76] Creating Layer inception_4d/relu_pool_proj
I0511 02:12:37.763702 12661 net.cpp:372] inception_4d/relu_pool_proj <- inception_4d/pool_proj
I0511 02:12:37.763712 12661 net.cpp:323] inception_4d/relu_pool_proj -> inception_4d/pool_proj (in-place)
I0511 02:12:37.763722 12661 net.cpp:105] Setting up inception_4d/relu_pool_proj
I0511 02:12:37.763731 12661 net.cpp:112] Top shape: 32 64 14 14 (401408)
I0511 02:12:37.763736 12661 layer_factory.hpp:74] Creating layer inception_4d/output
I0511 02:12:37.763743 12661 net.cpp:76] Creating Layer inception_4d/output
I0511 02:12:37.763749 12661 net.cpp:372] inception_4d/output <- inception_4d/1x1
I0511 02:12:37.763756 12661 net.cpp:372] inception_4d/output <- inception_4d/3x3
I0511 02:12:37.763762 12661 net.cpp:372] inception_4d/output <- inception_4d/5x5
I0511 02:12:37.763768 12661 net.cpp:372] inception_4d/output <- inception_4d/pool_proj
I0511 02:12:37.763775 12661 net.cpp:334] inception_4d/output -> inception_4d/output
I0511 02:12:37.763783 12661 net.cpp:105] Setting up inception_4d/output
I0511 02:12:37.763789 12661 net.cpp:112] Top shape: 32 528 14 14 (3311616)
I0511 02:12:37.763795 12661 layer_factory.hpp:74] Creating layer inception_4d/output_inception_4d/output_0_split
I0511 02:12:37.763805 12661 net.cpp:76] Creating Layer inception_4d/output_inception_4d/output_0_split
I0511 02:12:37.763810 12661 net.cpp:372] inception_4d/output_inception_4d/output_0_split <- inception_4d/output
I0511 02:12:37.763818 12661 net.cpp:334] inception_4d/output_inception_4d/output_0_split -> inception_4d/output_inception_4d/output_0_split_0
I0511 02:12:37.763828 12661 net.cpp:334] inception_4d/output_inception_4d/output_0_split -> inception_4d/output_inception_4d/output_0_split_1
I0511 02:12:37.763836 12661 net.cpp:334] inception_4d/output_inception_4d/output_0_split -> inception_4d/output_inception_4d/output_0_split_2
I0511 02:12:37.763845 12661 net.cpp:334] inception_4d/output_inception_4d/output_0_split -> inception_4d/output_inception_4d/output_0_split_3
I0511 02:12:37.763854 12661 net.cpp:334] inception_4d/output_inception_4d/output_0_split -> inception_4d/output_inception_4d/output_0_split_4
I0511 02:12:37.763862 12661 net.cpp:105] Setting up inception_4d/output_inception_4d/output_0_split
I0511 02:12:37.763870 12661 net.cpp:112] Top shape: 32 528 14 14 (3311616)
I0511 02:12:37.763875 12661 net.cpp:112] Top shape: 32 528 14 14 (3311616)
I0511 02:12:37.763880 12661 net.cpp:112] Top shape: 32 528 14 14 (3311616)
I0511 02:12:37.763885 12661 net.cpp:112] Top shape: 32 528 14 14 (3311616)
I0511 02:12:37.763888 12661 net.cpp:112] Top shape: 32 528 14 14 (3311616)
I0511 02:12:37.763893 12661 layer_factory.hpp:74] Creating layer loss2/ave_pool
I0511 02:12:37.763903 12661 net.cpp:76] Creating Layer loss2/ave_pool
I0511 02:12:37.763909 12661 net.cpp:372] loss2/ave_pool <- inception_4d/output_inception_4d/output_0_split_0
I0511 02:12:37.763921 12661 net.cpp:334] loss2/ave_pool -> loss2/ave_pool
I0511 02:12:37.763929 12661 net.cpp:105] Setting up loss2/ave_pool
I0511 02:12:37.763936 12661 net.cpp:112] Top shape: 32 528 4 4 (270336)
I0511 02:12:37.763942 12661 layer_factory.hpp:74] Creating layer loss2/conv
I0511 02:12:37.763949 12661 net.cpp:76] Creating Layer loss2/conv
I0511 02:12:37.763954 12661 net.cpp:372] loss2/conv <- loss2/ave_pool
I0511 02:12:37.763964 12661 net.cpp:334] loss2/conv -> loss2/conv
I0511 02:12:37.763973 12661 net.cpp:105] Setting up loss2/conv
I0511 02:12:37.764556 12661 net.cpp:112] Top shape: 32 128 4 4 (65536)
I0511 02:12:37.764570 12661 layer_factory.hpp:74] Creating layer loss2/relu_conv
I0511 02:12:37.764595 12661 net.cpp:76] Creating Layer loss2/relu_conv
I0511 02:12:37.764602 12661 net.cpp:372] loss2/relu_conv <- loss2/conv
I0511 02:12:37.764610 12661 net.cpp:323] loss2/relu_conv -> loss2/conv (in-place)
I0511 02:12:37.764617 12661 net.cpp:105] Setting up loss2/relu_conv
I0511 02:12:37.764623 12661 net.cpp:112] Top shape: 32 128 4 4 (65536)
I0511 02:12:37.764629 12661 layer_factory.hpp:74] Creating layer loss2/fc
I0511 02:12:37.764638 12661 net.cpp:76] Creating Layer loss2/fc
I0511 02:12:37.764643 12661 net.cpp:372] loss2/fc <- loss2/conv
I0511 02:12:37.764655 12661 net.cpp:334] loss2/fc -> loss2/fc
I0511 02:12:37.764665 12661 net.cpp:105] Setting up loss2/fc
I0511 02:12:37.782548 12661 net.cpp:112] Top shape: 32 1024 1 1 (32768)
I0511 02:12:37.782591 12661 layer_factory.hpp:74] Creating layer loss2/relu_fc
I0511 02:12:37.782606 12661 net.cpp:76] Creating Layer loss2/relu_fc
I0511 02:12:37.782615 12661 net.cpp:372] loss2/relu_fc <- loss2/fc
I0511 02:12:37.782629 12661 net.cpp:323] loss2/relu_fc -> loss2/fc (in-place)
I0511 02:12:37.782641 12661 net.cpp:105] Setting up loss2/relu_fc
I0511 02:12:37.782647 12661 net.cpp:112] Top shape: 32 1024 1 1 (32768)
I0511 02:12:37.782652 12661 layer_factory.hpp:74] Creating layer loss2/drop_fc
I0511 02:12:37.782661 12661 net.cpp:76] Creating Layer loss2/drop_fc
I0511 02:12:37.782666 12661 net.cpp:372] loss2/drop_fc <- loss2/fc
I0511 02:12:37.782673 12661 net.cpp:323] loss2/drop_fc -> loss2/fc (in-place)
I0511 02:12:37.782681 12661 net.cpp:105] Setting up loss2/drop_fc
I0511 02:12:37.782687 12661 net.cpp:112] Top shape: 32 1024 1 1 (32768)
I0511 02:12:37.782692 12661 layer_factory.hpp:74] Creating layer loss2/classifier
I0511 02:12:37.782706 12661 net.cpp:76] Creating Layer loss2/classifier
I0511 02:12:37.782711 12661 net.cpp:372] loss2/classifier <- loss2/fc
I0511 02:12:37.782719 12661 net.cpp:334] loss2/classifier -> loss2/classifier
I0511 02:12:37.782729 12661 net.cpp:105] Setting up loss2/classifier
I0511 02:12:37.782763 12661 net.cpp:112] Top shape: 32 2 1 1 (64)
I0511 02:12:37.782774 12661 layer_factory.hpp:74] Creating layer loss2/loss
I0511 02:12:37.782783 12661 net.cpp:76] Creating Layer loss2/loss
I0511 02:12:37.782789 12661 net.cpp:372] loss2/loss <- loss2/classifier
I0511 02:12:37.782795 12661 net.cpp:372] loss2/loss <- label_data_1_split_1
I0511 02:12:37.782804 12661 net.cpp:334] loss2/loss -> loss2/loss1
I0511 02:12:37.782811 12661 net.cpp:105] Setting up loss2/loss
I0511 02:12:37.782819 12661 layer_factory.hpp:74] Creating layer loss2/loss
I0511 02:12:37.782835 12661 net.cpp:112] Top shape: 1 1 1 1 (1)
I0511 02:12:37.782840 12661 net.cpp:118]     with loss weight 0.3
I0511 02:12:37.782860 12661 layer_factory.hpp:74] Creating layer inception_4e/1x1
I0511 02:12:37.782871 12661 net.cpp:76] Creating Layer inception_4e/1x1
I0511 02:12:37.782878 12661 net.cpp:372] inception_4e/1x1 <- inception_4d/output_inception_4d/output_0_split_1
I0511 02:12:37.782887 12661 net.cpp:334] inception_4e/1x1 -> inception_4e/1x1
I0511 02:12:37.782896 12661 net.cpp:105] Setting up inception_4e/1x1
I0511 02:12:37.784065 12661 net.cpp:112] Top shape: 32 256 14 14 (1605632)
I0511 02:12:37.784080 12661 layer_factory.hpp:74] Creating layer inception_4e/relu_1x1
I0511 02:12:37.784090 12661 net.cpp:76] Creating Layer inception_4e/relu_1x1
I0511 02:12:37.784096 12661 net.cpp:372] inception_4e/relu_1x1 <- inception_4e/1x1
I0511 02:12:37.784103 12661 net.cpp:323] inception_4e/relu_1x1 -> inception_4e/1x1 (in-place)
I0511 02:12:37.784111 12661 net.cpp:105] Setting up inception_4e/relu_1x1
I0511 02:12:37.784116 12661 net.cpp:112] Top shape: 32 256 14 14 (1605632)
I0511 02:12:37.784121 12661 layer_factory.hpp:74] Creating layer inception_4e/3x3_reduce
I0511 02:12:37.784132 12661 net.cpp:76] Creating Layer inception_4e/3x3_reduce
I0511 02:12:37.784138 12661 net.cpp:372] inception_4e/3x3_reduce <- inception_4d/output_inception_4d/output_0_split_2
I0511 02:12:37.784147 12661 net.cpp:334] inception_4e/3x3_reduce -> inception_4e/3x3_reduce
I0511 02:12:37.784190 12661 net.cpp:105] Setting up inception_4e/3x3_reduce
I0511 02:12:37.784940 12661 net.cpp:112] Top shape: 32 160 14 14 (1003520)
I0511 02:12:37.784957 12661 layer_factory.hpp:74] Creating layer inception_4e/relu_3x3_reduce
I0511 02:12:37.784968 12661 net.cpp:76] Creating Layer inception_4e/relu_3x3_reduce
I0511 02:12:37.784975 12661 net.cpp:372] inception_4e/relu_3x3_reduce <- inception_4e/3x3_reduce
I0511 02:12:37.784982 12661 net.cpp:323] inception_4e/relu_3x3_reduce -> inception_4e/3x3_reduce (in-place)
I0511 02:12:37.784991 12661 net.cpp:105] Setting up inception_4e/relu_3x3_reduce
I0511 02:12:37.784996 12661 net.cpp:112] Top shape: 32 160 14 14 (1003520)
I0511 02:12:37.785001 12661 layer_factory.hpp:74] Creating layer inception_4e/3x3
I0511 02:12:37.785009 12661 net.cpp:76] Creating Layer inception_4e/3x3
I0511 02:12:37.785014 12661 net.cpp:372] inception_4e/3x3 <- inception_4e/3x3_reduce
I0511 02:12:37.785024 12661 net.cpp:334] inception_4e/3x3 -> inception_4e/3x3
I0511 02:12:37.785037 12661 net.cpp:105] Setting up inception_4e/3x3
I0511 02:12:37.788910 12661 net.cpp:112] Top shape: 32 320 14 14 (2007040)
I0511 02:12:37.788933 12661 layer_factory.hpp:74] Creating layer inception_4e/relu_3x3
I0511 02:12:37.788941 12661 net.cpp:76] Creating Layer inception_4e/relu_3x3
I0511 02:12:37.788949 12661 net.cpp:372] inception_4e/relu_3x3 <- inception_4e/3x3
I0511 02:12:37.788959 12661 net.cpp:323] inception_4e/relu_3x3 -> inception_4e/3x3 (in-place)
I0511 02:12:37.788969 12661 net.cpp:105] Setting up inception_4e/relu_3x3
I0511 02:12:37.788974 12661 net.cpp:112] Top shape: 32 320 14 14 (2007040)
I0511 02:12:37.788979 12661 layer_factory.hpp:74] Creating layer inception_4e/5x5_reduce
I0511 02:12:37.788987 12661 net.cpp:76] Creating Layer inception_4e/5x5_reduce
I0511 02:12:37.788992 12661 net.cpp:372] inception_4e/5x5_reduce <- inception_4d/output_inception_4d/output_0_split_3
I0511 02:12:37.789003 12661 net.cpp:334] inception_4e/5x5_reduce -> inception_4e/5x5_reduce
I0511 02:12:37.789012 12661 net.cpp:105] Setting up inception_4e/5x5_reduce
I0511 02:12:37.789165 12661 net.cpp:112] Top shape: 32 32 14 14 (200704)
I0511 02:12:37.789176 12661 layer_factory.hpp:74] Creating layer inception_4e/relu_5x5_reduce
I0511 02:12:37.789183 12661 net.cpp:76] Creating Layer inception_4e/relu_5x5_reduce
I0511 02:12:37.789190 12661 net.cpp:372] inception_4e/relu_5x5_reduce <- inception_4e/5x5_reduce
I0511 02:12:37.789196 12661 net.cpp:323] inception_4e/relu_5x5_reduce -> inception_4e/5x5_reduce (in-place)
I0511 02:12:37.789203 12661 net.cpp:105] Setting up inception_4e/relu_5x5_reduce
I0511 02:12:37.789209 12661 net.cpp:112] Top shape: 32 32 14 14 (200704)
I0511 02:12:37.789214 12661 layer_factory.hpp:74] Creating layer inception_4e/5x5
I0511 02:12:37.789255 12661 net.cpp:76] Creating Layer inception_4e/5x5
I0511 02:12:37.789263 12661 net.cpp:372] inception_4e/5x5 <- inception_4e/5x5_reduce
I0511 02:12:37.789274 12661 net.cpp:334] inception_4e/5x5 -> inception_4e/5x5
I0511 02:12:37.789284 12661 net.cpp:105] Setting up inception_4e/5x5
I0511 02:12:37.790148 12661 net.cpp:112] Top shape: 32 128 14 14 (802816)
I0511 02:12:37.790163 12661 layer_factory.hpp:74] Creating layer inception_4e/relu_5x5
I0511 02:12:37.790171 12661 net.cpp:76] Creating Layer inception_4e/relu_5x5
I0511 02:12:37.790177 12661 net.cpp:372] inception_4e/relu_5x5 <- inception_4e/5x5
I0511 02:12:37.790184 12661 net.cpp:323] inception_4e/relu_5x5 -> inception_4e/5x5 (in-place)
I0511 02:12:37.790191 12661 net.cpp:105] Setting up inception_4e/relu_5x5
I0511 02:12:37.790197 12661 net.cpp:112] Top shape: 32 128 14 14 (802816)
I0511 02:12:37.790202 12661 layer_factory.hpp:74] Creating layer inception_4e/pool
I0511 02:12:37.790213 12661 net.cpp:76] Creating Layer inception_4e/pool
I0511 02:12:37.790220 12661 net.cpp:372] inception_4e/pool <- inception_4d/output_inception_4d/output_0_split_4
I0511 02:12:37.790227 12661 net.cpp:334] inception_4e/pool -> inception_4e/pool
I0511 02:12:37.790236 12661 net.cpp:105] Setting up inception_4e/pool
I0511 02:12:37.790244 12661 net.cpp:112] Top shape: 32 528 14 14 (3311616)
I0511 02:12:37.790283 12661 layer_factory.hpp:74] Creating layer inception_4e/pool_proj
I0511 02:12:37.790297 12661 net.cpp:76] Creating Layer inception_4e/pool_proj
I0511 02:12:37.790304 12661 net.cpp:372] inception_4e/pool_proj <- inception_4e/pool
I0511 02:12:37.790313 12661 net.cpp:334] inception_4e/pool_proj -> inception_4e/pool_proj
I0511 02:12:37.790323 12661 net.cpp:105] Setting up inception_4e/pool_proj
I0511 02:12:37.790921 12661 net.cpp:112] Top shape: 32 128 14 14 (802816)
I0511 02:12:37.790946 12661 layer_factory.hpp:74] Creating layer inception_4e/relu_pool_proj
I0511 02:12:37.790966 12661 net.cpp:76] Creating Layer inception_4e/relu_pool_proj
I0511 02:12:37.790977 12661 net.cpp:372] inception_4e/relu_pool_proj <- inception_4e/pool_proj
I0511 02:12:37.790990 12661 net.cpp:323] inception_4e/relu_pool_proj -> inception_4e/pool_proj (in-place)
I0511 02:12:37.791004 12661 net.cpp:105] Setting up inception_4e/relu_pool_proj
I0511 02:12:37.791012 12661 net.cpp:112] Top shape: 32 128 14 14 (802816)
I0511 02:12:37.791016 12661 layer_factory.hpp:74] Creating layer inception_4e/output
I0511 02:12:37.791024 12661 net.cpp:76] Creating Layer inception_4e/output
I0511 02:12:37.791030 12661 net.cpp:372] inception_4e/output <- inception_4e/1x1
I0511 02:12:37.791038 12661 net.cpp:372] inception_4e/output <- inception_4e/3x3
I0511 02:12:37.791043 12661 net.cpp:372] inception_4e/output <- inception_4e/5x5
I0511 02:12:37.791049 12661 net.cpp:372] inception_4e/output <- inception_4e/pool_proj
I0511 02:12:37.791056 12661 net.cpp:334] inception_4e/output -> inception_4e/output
I0511 02:12:37.791064 12661 net.cpp:105] Setting up inception_4e/output
I0511 02:12:37.791071 12661 net.cpp:112] Top shape: 32 832 14 14 (5218304)
I0511 02:12:37.791076 12661 layer_factory.hpp:74] Creating layer pool4/3x3_s2
I0511 02:12:37.791090 12661 net.cpp:76] Creating Layer pool4/3x3_s2
I0511 02:12:37.791096 12661 net.cpp:372] pool4/3x3_s2 <- inception_4e/output
I0511 02:12:37.791105 12661 net.cpp:334] pool4/3x3_s2 -> pool4/3x3_s2
I0511 02:12:37.791113 12661 net.cpp:105] Setting up pool4/3x3_s2
I0511 02:12:37.791120 12661 net.cpp:112] Top shape: 32 832 7 7 (1304576)
I0511 02:12:37.791126 12661 layer_factory.hpp:74] Creating layer pool4/3x3_s2_pool4/3x3_s2_0_split
I0511 02:12:37.791136 12661 net.cpp:76] Creating Layer pool4/3x3_s2_pool4/3x3_s2_0_split
I0511 02:12:37.791141 12661 net.cpp:372] pool4/3x3_s2_pool4/3x3_s2_0_split <- pool4/3x3_s2
I0511 02:12:37.791148 12661 net.cpp:334] pool4/3x3_s2_pool4/3x3_s2_0_split -> pool4/3x3_s2_pool4/3x3_s2_0_split_0
I0511 02:12:37.791157 12661 net.cpp:334] pool4/3x3_s2_pool4/3x3_s2_0_split -> pool4/3x3_s2_pool4/3x3_s2_0_split_1
I0511 02:12:37.791165 12661 net.cpp:334] pool4/3x3_s2_pool4/3x3_s2_0_split -> pool4/3x3_s2_pool4/3x3_s2_0_split_2
I0511 02:12:37.791198 12661 net.cpp:334] pool4/3x3_s2_pool4/3x3_s2_0_split -> pool4/3x3_s2_pool4/3x3_s2_0_split_3
I0511 02:12:37.791208 12661 net.cpp:105] Setting up pool4/3x3_s2_pool4/3x3_s2_0_split
I0511 02:12:37.791214 12661 net.cpp:112] Top shape: 32 832 7 7 (1304576)
I0511 02:12:37.791219 12661 net.cpp:112] Top shape: 32 832 7 7 (1304576)
I0511 02:12:37.791224 12661 net.cpp:112] Top shape: 32 832 7 7 (1304576)
I0511 02:12:37.791229 12661 net.cpp:112] Top shape: 32 832 7 7 (1304576)
I0511 02:12:37.791234 12661 layer_factory.hpp:74] Creating layer inception_5a/1x1
I0511 02:12:37.791245 12661 net.cpp:76] Creating Layer inception_5a/1x1
I0511 02:12:37.791251 12661 net.cpp:372] inception_5a/1x1 <- pool4/3x3_s2_pool4/3x3_s2_0_split_0
I0511 02:12:37.791261 12661 net.cpp:334] inception_5a/1x1 -> inception_5a/1x1
I0511 02:12:37.791285 12661 net.cpp:105] Setting up inception_5a/1x1
I0511 02:12:37.793071 12661 net.cpp:112] Top shape: 32 256 7 7 (401408)
I0511 02:12:37.793087 12661 layer_factory.hpp:74] Creating layer inception_5a/relu_1x1
I0511 02:12:37.793097 12661 net.cpp:76] Creating Layer inception_5a/relu_1x1
I0511 02:12:37.793104 12661 net.cpp:372] inception_5a/relu_1x1 <- inception_5a/1x1
I0511 02:12:37.793112 12661 net.cpp:323] inception_5a/relu_1x1 -> inception_5a/1x1 (in-place)
I0511 02:12:37.793135 12661 net.cpp:105] Setting up inception_5a/relu_1x1
I0511 02:12:37.793143 12661 net.cpp:112] Top shape: 32 256 7 7 (401408)
I0511 02:12:37.793148 12661 layer_factory.hpp:74] Creating layer inception_5a/3x3_reduce
I0511 02:12:37.793159 12661 net.cpp:76] Creating Layer inception_5a/3x3_reduce
I0511 02:12:37.793165 12661 net.cpp:372] inception_5a/3x3_reduce <- pool4/3x3_s2_pool4/3x3_s2_0_split_1
I0511 02:12:37.793175 12661 net.cpp:334] inception_5a/3x3_reduce -> inception_5a/3x3_reduce
I0511 02:12:37.793191 12661 net.cpp:105] Setting up inception_5a/3x3_reduce
I0511 02:12:37.794448 12661 net.cpp:112] Top shape: 32 160 7 7 (250880)
I0511 02:12:37.794467 12661 layer_factory.hpp:74] Creating layer inception_5a/relu_3x3_reduce
I0511 02:12:37.794481 12661 net.cpp:76] Creating Layer inception_5a/relu_3x3_reduce
I0511 02:12:37.794487 12661 net.cpp:372] inception_5a/relu_3x3_reduce <- inception_5a/3x3_reduce
I0511 02:12:37.794497 12661 net.cpp:323] inception_5a/relu_3x3_reduce -> inception_5a/3x3_reduce (in-place)
I0511 02:12:37.794507 12661 net.cpp:105] Setting up inception_5a/relu_3x3_reduce
I0511 02:12:37.794512 12661 net.cpp:112] Top shape: 32 160 7 7 (250880)
I0511 02:12:37.794518 12661 layer_factory.hpp:74] Creating layer inception_5a/3x3
I0511 02:12:37.794527 12661 net.cpp:76] Creating Layer inception_5a/3x3
I0511 02:12:37.794533 12661 net.cpp:372] inception_5a/3x3 <- inception_5a/3x3_reduce
I0511 02:12:37.794540 12661 net.cpp:334] inception_5a/3x3 -> inception_5a/3x3
I0511 02:12:37.794549 12661 net.cpp:105] Setting up inception_5a/3x3
I0511 02:12:37.798439 12661 net.cpp:112] Top shape: 32 320 7 7 (501760)
I0511 02:12:37.798459 12661 layer_factory.hpp:74] Creating layer inception_5a/relu_3x3
I0511 02:12:37.798468 12661 net.cpp:76] Creating Layer inception_5a/relu_3x3
I0511 02:12:37.798475 12661 net.cpp:372] inception_5a/relu_3x3 <- inception_5a/3x3
I0511 02:12:37.798482 12661 net.cpp:323] inception_5a/relu_3x3 -> inception_5a/3x3 (in-place)
I0511 02:12:37.798491 12661 net.cpp:105] Setting up inception_5a/relu_3x3
I0511 02:12:37.798496 12661 net.cpp:112] Top shape: 32 320 7 7 (501760)
I0511 02:12:37.798502 12661 layer_factory.hpp:74] Creating layer inception_5a/5x5_reduce
I0511 02:12:37.798513 12661 net.cpp:76] Creating Layer inception_5a/5x5_reduce
I0511 02:12:37.798521 12661 net.cpp:372] inception_5a/5x5_reduce <- pool4/3x3_s2_pool4/3x3_s2_0_split_2
I0511 02:12:37.798529 12661 net.cpp:334] inception_5a/5x5_reduce -> inception_5a/5x5_reduce
I0511 02:12:37.798538 12661 net.cpp:105] Setting up inception_5a/5x5_reduce
I0511 02:12:37.798776 12661 net.cpp:112] Top shape: 32 32 7 7 (50176)
I0511 02:12:37.798789 12661 layer_factory.hpp:74] Creating layer inception_5a/relu_5x5_reduce
I0511 02:12:37.799528 12661 net.cpp:76] Creating Layer inception_5a/relu_5x5_reduce
I0511 02:12:37.799536 12661 net.cpp:372] inception_5a/relu_5x5_reduce <- inception_5a/5x5_reduce
I0511 02:12:37.799545 12661 net.cpp:323] inception_5a/relu_5x5_reduce -> inception_5a/5x5_reduce (in-place)
I0511 02:12:37.799552 12661 net.cpp:105] Setting up inception_5a/relu_5x5_reduce
I0511 02:12:37.799558 12661 net.cpp:112] Top shape: 32 32 7 7 (50176)
I0511 02:12:37.799564 12661 layer_factory.hpp:74] Creating layer inception_5a/5x5
I0511 02:12:37.799576 12661 net.cpp:76] Creating Layer inception_5a/5x5
I0511 02:12:37.799582 12661 net.cpp:372] inception_5a/5x5 <- inception_5a/5x5_reduce
I0511 02:12:37.799589 12661 net.cpp:334] inception_5a/5x5 -> inception_5a/5x5
I0511 02:12:37.799598 12661 net.cpp:105] Setting up inception_5a/5x5
I0511 02:12:37.800513 12661 net.cpp:112] Top shape: 32 128 7 7 (200704)
I0511 02:12:37.800531 12661 layer_factory.hpp:74] Creating layer inception_5a/relu_5x5
I0511 02:12:37.800539 12661 net.cpp:76] Creating Layer inception_5a/relu_5x5
I0511 02:12:37.800546 12661 net.cpp:372] inception_5a/relu_5x5 <- inception_5a/5x5
I0511 02:12:37.800556 12661 net.cpp:323] inception_5a/relu_5x5 -> inception_5a/5x5 (in-place)
I0511 02:12:37.800567 12661 net.cpp:105] Setting up inception_5a/relu_5x5
I0511 02:12:37.800596 12661 net.cpp:112] Top shape: 32 128 7 7 (200704)
I0511 02:12:37.800603 12661 layer_factory.hpp:74] Creating layer inception_5a/pool
I0511 02:12:37.800612 12661 net.cpp:76] Creating Layer inception_5a/pool
I0511 02:12:37.800618 12661 net.cpp:372] inception_5a/pool <- pool4/3x3_s2_pool4/3x3_s2_0_split_3
I0511 02:12:37.800626 12661 net.cpp:334] inception_5a/pool -> inception_5a/pool
I0511 02:12:37.800634 12661 net.cpp:105] Setting up inception_5a/pool
I0511 02:12:37.800642 12661 net.cpp:112] Top shape: 32 832 7 7 (1304576)
I0511 02:12:37.800648 12661 layer_factory.hpp:74] Creating layer inception_5a/pool_proj
I0511 02:12:37.800659 12661 net.cpp:76] Creating Layer inception_5a/pool_proj
I0511 02:12:37.800665 12661 net.cpp:372] inception_5a/pool_proj <- inception_5a/pool
I0511 02:12:37.800673 12661 net.cpp:334] inception_5a/pool_proj -> inception_5a/pool_proj
I0511 02:12:37.800683 12661 net.cpp:105] Setting up inception_5a/pool_proj
I0511 02:12:37.801592 12661 net.cpp:112] Top shape: 32 128 7 7 (200704)
I0511 02:12:37.801606 12661 layer_factory.hpp:74] Creating layer inception_5a/relu_pool_proj
I0511 02:12:37.801617 12661 net.cpp:76] Creating Layer inception_5a/relu_pool_proj
I0511 02:12:37.801627 12661 net.cpp:372] inception_5a/relu_pool_proj <- inception_5a/pool_proj
I0511 02:12:37.801635 12661 net.cpp:323] inception_5a/relu_pool_proj -> inception_5a/pool_proj (in-place)
I0511 02:12:37.801642 12661 net.cpp:105] Setting up inception_5a/relu_pool_proj
I0511 02:12:37.801648 12661 net.cpp:112] Top shape: 32 128 7 7 (200704)
I0511 02:12:37.801653 12661 layer_factory.hpp:74] Creating layer inception_5a/output
I0511 02:12:37.801661 12661 net.cpp:76] Creating Layer inception_5a/output
I0511 02:12:37.801667 12661 net.cpp:372] inception_5a/output <- inception_5a/1x1
I0511 02:12:37.801673 12661 net.cpp:372] inception_5a/output <- inception_5a/3x3
I0511 02:12:37.801679 12661 net.cpp:372] inception_5a/output <- inception_5a/5x5
I0511 02:12:37.801686 12661 net.cpp:372] inception_5a/output <- inception_5a/pool_proj
I0511 02:12:37.801692 12661 net.cpp:334] inception_5a/output -> inception_5a/output
I0511 02:12:37.801700 12661 net.cpp:105] Setting up inception_5a/output
I0511 02:12:37.801707 12661 net.cpp:112] Top shape: 32 832 7 7 (1304576)
I0511 02:12:37.801712 12661 layer_factory.hpp:74] Creating layer inception_5a/output_inception_5a/output_0_split
I0511 02:12:37.801723 12661 net.cpp:76] Creating Layer inception_5a/output_inception_5a/output_0_split
I0511 02:12:37.801728 12661 net.cpp:372] inception_5a/output_inception_5a/output_0_split <- inception_5a/output
I0511 02:12:37.801736 12661 net.cpp:334] inception_5a/output_inception_5a/output_0_split -> inception_5a/output_inception_5a/output_0_split_0
I0511 02:12:37.801746 12661 net.cpp:334] inception_5a/output_inception_5a/output_0_split -> inception_5a/output_inception_5a/output_0_split_1
I0511 02:12:37.801755 12661 net.cpp:334] inception_5a/output_inception_5a/output_0_split -> inception_5a/output_inception_5a/output_0_split_2
I0511 02:12:37.801764 12661 net.cpp:334] inception_5a/output_inception_5a/output_0_split -> inception_5a/output_inception_5a/output_0_split_3
I0511 02:12:37.801774 12661 net.cpp:105] Setting up inception_5a/output_inception_5a/output_0_split
I0511 02:12:37.801781 12661 net.cpp:112] Top shape: 32 832 7 7 (1304576)
I0511 02:12:37.801786 12661 net.cpp:112] Top shape: 32 832 7 7 (1304576)
I0511 02:12:37.801791 12661 net.cpp:112] Top shape: 32 832 7 7 (1304576)
I0511 02:12:37.801795 12661 net.cpp:112] Top shape: 32 832 7 7 (1304576)
I0511 02:12:37.801800 12661 layer_factory.hpp:74] Creating layer inception_5b/1x1
I0511 02:12:37.801808 12661 net.cpp:76] Creating Layer inception_5b/1x1
I0511 02:12:37.801815 12661 net.cpp:372] inception_5b/1x1 <- inception_5a/output_inception_5a/output_0_split_0
I0511 02:12:37.801825 12661 net.cpp:334] inception_5b/1x1 -> inception_5b/1x1
I0511 02:12:37.801833 12661 net.cpp:105] Setting up inception_5b/1x1
I0511 02:12:37.804589 12661 net.cpp:112] Top shape: 32 384 7 7 (602112)
I0511 02:12:37.804606 12661 layer_factory.hpp:74] Creating layer inception_5b/relu_1x1
I0511 02:12:37.804630 12661 net.cpp:76] Creating Layer inception_5b/relu_1x1
I0511 02:12:37.804636 12661 net.cpp:372] inception_5b/relu_1x1 <- inception_5b/1x1
I0511 02:12:37.804644 12661 net.cpp:323] inception_5b/relu_1x1 -> inception_5b/1x1 (in-place)
I0511 02:12:37.804653 12661 net.cpp:105] Setting up inception_5b/relu_1x1
I0511 02:12:37.804659 12661 net.cpp:112] Top shape: 32 384 7 7 (602112)
I0511 02:12:37.804664 12661 layer_factory.hpp:74] Creating layer inception_5b/3x3_reduce
I0511 02:12:37.804677 12661 net.cpp:76] Creating Layer inception_5b/3x3_reduce
I0511 02:12:37.804682 12661 net.cpp:372] inception_5b/3x3_reduce <- inception_5a/output_inception_5a/output_0_split_1
I0511 02:12:37.804693 12661 net.cpp:334] inception_5b/3x3_reduce -> inception_5b/3x3_reduce
I0511 02:12:37.804702 12661 net.cpp:105] Setting up inception_5b/3x3_reduce
I0511 02:12:37.806049 12661 net.cpp:112] Top shape: 32 192 7 7 (301056)
I0511 02:12:37.806064 12661 layer_factory.hpp:74] Creating layer inception_5b/relu_3x3_reduce
I0511 02:12:37.806073 12661 net.cpp:76] Creating Layer inception_5b/relu_3x3_reduce
I0511 02:12:37.806079 12661 net.cpp:372] inception_5b/relu_3x3_reduce <- inception_5b/3x3_reduce
I0511 02:12:37.806089 12661 net.cpp:323] inception_5b/relu_3x3_reduce -> inception_5b/3x3_reduce (in-place)
I0511 02:12:37.806097 12661 net.cpp:105] Setting up inception_5b/relu_3x3_reduce
I0511 02:12:37.806103 12661 net.cpp:112] Top shape: 32 192 7 7 (301056)
I0511 02:12:37.806108 12661 layer_factory.hpp:74] Creating layer inception_5b/3x3
I0511 02:12:37.806118 12661 net.cpp:76] Creating Layer inception_5b/3x3
I0511 02:12:37.806123 12661 net.cpp:372] inception_5b/3x3 <- inception_5b/3x3_reduce
I0511 02:12:37.806133 12661 net.cpp:334] inception_5b/3x3 -> inception_5b/3x3
I0511 02:12:37.806161 12661 net.cpp:105] Setting up inception_5b/3x3
I0511 02:12:37.811710 12661 net.cpp:112] Top shape: 32 384 7 7 (602112)
I0511 02:12:37.811738 12661 layer_factory.hpp:74] Creating layer inception_5b/relu_3x3
I0511 02:12:37.811748 12661 net.cpp:76] Creating Layer inception_5b/relu_3x3
I0511 02:12:37.811756 12661 net.cpp:372] inception_5b/relu_3x3 <- inception_5b/3x3
I0511 02:12:37.811764 12661 net.cpp:323] inception_5b/relu_3x3 -> inception_5b/3x3 (in-place)
I0511 02:12:37.811774 12661 net.cpp:105] Setting up inception_5b/relu_3x3
I0511 02:12:37.811779 12661 net.cpp:112] Top shape: 32 384 7 7 (602112)
I0511 02:12:37.811784 12661 layer_factory.hpp:74] Creating layer inception_5b/5x5_reduce
I0511 02:12:37.811794 12661 net.cpp:76] Creating Layer inception_5b/5x5_reduce
I0511 02:12:37.811800 12661 net.cpp:372] inception_5b/5x5_reduce <- inception_5a/output_inception_5a/output_0_split_2
I0511 02:12:37.811810 12661 net.cpp:334] inception_5b/5x5_reduce -> inception_5b/5x5_reduce
I0511 02:12:37.811820 12661 net.cpp:105] Setting up inception_5b/5x5_reduce
I0511 02:12:37.812166 12661 net.cpp:112] Top shape: 32 48 7 7 (75264)
I0511 02:12:37.812180 12661 layer_factory.hpp:74] Creating layer inception_5b/relu_5x5_reduce
I0511 02:12:37.812187 12661 net.cpp:76] Creating Layer inception_5b/relu_5x5_reduce
I0511 02:12:37.812194 12661 net.cpp:372] inception_5b/relu_5x5_reduce <- inception_5b/5x5_reduce
I0511 02:12:37.812203 12661 net.cpp:323] inception_5b/relu_5x5_reduce -> inception_5b/5x5_reduce (in-place)
I0511 02:12:37.812211 12661 net.cpp:105] Setting up inception_5b/relu_5x5_reduce
I0511 02:12:37.812217 12661 net.cpp:112] Top shape: 32 48 7 7 (75264)
I0511 02:12:37.812223 12661 layer_factory.hpp:74] Creating layer inception_5b/5x5
I0511 02:12:37.812232 12661 net.cpp:76] Creating Layer inception_5b/5x5
I0511 02:12:37.812237 12661 net.cpp:372] inception_5b/5x5 <- inception_5b/5x5_reduce
I0511 02:12:37.812247 12661 net.cpp:334] inception_5b/5x5 -> inception_5b/5x5
I0511 02:12:37.812257 12661 net.cpp:105] Setting up inception_5b/5x5
I0511 02:12:37.813587 12661 net.cpp:112] Top shape: 32 128 7 7 (200704)
I0511 02:12:37.813606 12661 layer_factory.hpp:74] Creating layer inception_5b/relu_5x5
I0511 02:12:37.813614 12661 net.cpp:76] Creating Layer inception_5b/relu_5x5
I0511 02:12:37.813647 12661 net.cpp:372] inception_5b/relu_5x5 <- inception_5b/5x5
I0511 02:12:37.813655 12661 net.cpp:323] inception_5b/relu_5x5 -> inception_5b/5x5 (in-place)
I0511 02:12:37.813664 12661 net.cpp:105] Setting up inception_5b/relu_5x5
I0511 02:12:37.813669 12661 net.cpp:112] Top shape: 32 128 7 7 (200704)
I0511 02:12:37.813675 12661 layer_factory.hpp:74] Creating layer inception_5b/pool
I0511 02:12:37.813683 12661 net.cpp:76] Creating Layer inception_5b/pool
I0511 02:12:37.813689 12661 net.cpp:372] inception_5b/pool <- inception_5a/output_inception_5a/output_0_split_3
I0511 02:12:37.813698 12661 net.cpp:334] inception_5b/pool -> inception_5b/pool
I0511 02:12:37.813709 12661 net.cpp:105] Setting up inception_5b/pool
I0511 02:12:37.813717 12661 net.cpp:112] Top shape: 32 832 7 7 (1304576)
I0511 02:12:37.813724 12661 layer_factory.hpp:74] Creating layer inception_5b/pool_proj
I0511 02:12:37.813732 12661 net.cpp:76] Creating Layer inception_5b/pool_proj
I0511 02:12:37.813738 12661 net.cpp:372] inception_5b/pool_proj <- inception_5b/pool
I0511 02:12:37.813748 12661 net.cpp:334] inception_5b/pool_proj -> inception_5b/pool_proj
I0511 02:12:37.813757 12661 net.cpp:105] Setting up inception_5b/pool_proj
I0511 02:12:37.814661 12661 net.cpp:112] Top shape: 32 128 7 7 (200704)
I0511 02:12:37.814676 12661 layer_factory.hpp:74] Creating layer inception_5b/relu_pool_proj
I0511 02:12:37.814687 12661 net.cpp:76] Creating Layer inception_5b/relu_pool_proj
I0511 02:12:37.814693 12661 net.cpp:372] inception_5b/relu_pool_proj <- inception_5b/pool_proj
I0511 02:12:37.814700 12661 net.cpp:323] inception_5b/relu_pool_proj -> inception_5b/pool_proj (in-place)
I0511 02:12:37.814708 12661 net.cpp:105] Setting up inception_5b/relu_pool_proj
I0511 02:12:37.814714 12661 net.cpp:112] Top shape: 32 128 7 7 (200704)
I0511 02:12:37.814719 12661 layer_factory.hpp:74] Creating layer inception_5b/output
I0511 02:12:37.814728 12661 net.cpp:76] Creating Layer inception_5b/output
I0511 02:12:37.814733 12661 net.cpp:372] inception_5b/output <- inception_5b/1x1
I0511 02:12:37.814739 12661 net.cpp:372] inception_5b/output <- inception_5b/3x3
I0511 02:12:37.814745 12661 net.cpp:372] inception_5b/output <- inception_5b/5x5
I0511 02:12:37.814751 12661 net.cpp:372] inception_5b/output <- inception_5b/pool_proj
I0511 02:12:37.814760 12661 net.cpp:334] inception_5b/output -> inception_5b/output
I0511 02:12:37.814769 12661 net.cpp:105] Setting up inception_5b/output
I0511 02:12:37.814776 12661 net.cpp:112] Top shape: 32 1024 7 7 (1605632)
I0511 02:12:37.814781 12661 layer_factory.hpp:74] Creating layer pool5/7x7_s1
I0511 02:12:37.814788 12661 net.cpp:76] Creating Layer pool5/7x7_s1
I0511 02:12:37.814795 12661 net.cpp:372] pool5/7x7_s1 <- inception_5b/output
I0511 02:12:37.814803 12661 net.cpp:334] pool5/7x7_s1 -> pool5/7x7_s1
I0511 02:12:37.814811 12661 net.cpp:105] Setting up pool5/7x7_s1
I0511 02:12:37.814817 12661 net.cpp:112] Top shape: 32 1024 1 1 (32768)
I0511 02:12:37.814823 12661 layer_factory.hpp:74] Creating layer pool5/drop_7x7_s1
I0511 02:12:37.814833 12661 net.cpp:76] Creating Layer pool5/drop_7x7_s1
I0511 02:12:37.814839 12661 net.cpp:372] pool5/drop_7x7_s1 <- pool5/7x7_s1
I0511 02:12:37.814846 12661 net.cpp:323] pool5/drop_7x7_s1 -> pool5/7x7_s1 (in-place)
I0511 02:12:37.814854 12661 net.cpp:105] Setting up pool5/drop_7x7_s1
I0511 02:12:37.814862 12661 net.cpp:112] Top shape: 32 1024 1 1 (32768)
I0511 02:12:37.814867 12661 layer_factory.hpp:74] Creating layer loss3/classifier
I0511 02:12:37.814877 12661 net.cpp:76] Creating Layer loss3/classifier
I0511 02:12:37.814883 12661 net.cpp:372] loss3/classifier <- pool5/7x7_s1
I0511 02:12:37.814893 12661 net.cpp:334] loss3/classifier -> loss3/classifier
I0511 02:12:37.814901 12661 net.cpp:105] Setting up loss3/classifier
I0511 02:12:37.814935 12661 net.cpp:112] Top shape: 32 2 1 1 (64)
I0511 02:12:37.814945 12661 layer_factory.hpp:74] Creating layer loss3/loss3
I0511 02:12:37.814955 12661 net.cpp:76] Creating Layer loss3/loss3
I0511 02:12:37.814963 12661 net.cpp:372] loss3/loss3 <- loss3/classifier
I0511 02:12:37.814985 12661 net.cpp:372] loss3/loss3 <- label_data_1_split_2
I0511 02:12:37.814993 12661 net.cpp:334] loss3/loss3 -> loss3/loss3
I0511 02:12:37.815002 12661 net.cpp:105] Setting up loss3/loss3
I0511 02:12:37.815011 12661 layer_factory.hpp:74] Creating layer loss3/loss3
I0511 02:12:37.815024 12661 net.cpp:112] Top shape: 1 1 1 1 (1)
I0511 02:12:37.815031 12661 net.cpp:118]     with loss weight 1
I0511 02:12:37.815049 12661 net.cpp:163] loss3/loss3 needs backward computation.
I0511 02:12:37.815054 12661 net.cpp:163] loss3/classifier needs backward computation.
I0511 02:12:37.815080 12661 net.cpp:163] pool5/drop_7x7_s1 needs backward computation.
I0511 02:12:37.815088 12661 net.cpp:163] pool5/7x7_s1 needs backward computation.
…
I0511 02:12:37.822803 12661 solver.cpp:154] Creating test net (#0) specified by net file: ../../train_val.prototxt
I0511 02:12:37.823045 12661 net.cpp:253] The NetState phase (1) differed from the phase (0) specified by a rule in layer data
I0511 02:12:37.824452 12661 net.cpp:42] Initializing net from parameters: 
name: "GoogleNet"
state {
  phase: TEST
}
layer {
  name: "data"
  type: "Data"
  top: "data"
  top: "label"
  include {
    phase: TEST
  }
  transform_param {
    mirror: false
    crop_size: 224
    mean_value: 104
    mean_value: 117
    mean_value: 123
  }
  data_param {
    source: "val_lmdb"
    batch_size: 32
    backend: LMDB
  }
}
layer {
  name: "conv1/7x7_s2"
  type: "Convolution"
  bottom: "data"
  top: "conv1/7x7_s2"
  param {
    lr_mult: 1
    decay_mult: 1
  }
  param {
    lr_mult: 2
    decay_mult: 0
  }
  convolution_param {
    num_output: 64
    pad: 3
    kernel_size: 7
    stride: 2
    weight_filler {
      type: "xavier"
      std: 0.1
    }
    bias_filler {
      type: "constant"
      value: 0.2
    }
  }
}
layer {
  name: "conv1/relu_7x7"
  type: "ReLU"
  bottom: "conv1/7x7_s2"
  top: "conv1/7x7_s2"
}
layer {
  name: "pool1/3x3_s2"
  type: "Pooling"
  bottom: "conv1/7x7_s2"
  top: "pool1/3x3_s2"
  pooling_param {
    pool: MAX
    kernel_size: 3
    stride: 2
  }
}
layer {
  name: "pool1/norm1"
  type: "LRN"
  bottom: "pool1/3x3_s2"
  top: "pool1/norm1"
  lrn_param {
    local_size: 5
    alpha: 0.0001
    beta: 0.75
  }
}
layer {
  name: "conv2/3x3_reduce"
  type: "Convolution"
  bottom: "pool1/norm1"
  top: "conv2/3x3_reduce"
  param {
    lr_mult: 1
    decay_mult: 1
  }
  param {
    lr_mult: 2
    decay_mult: 0
  }
  convolution_param {
    num_output: 64
    kernel_size: 1
    weight_filler {
      type: "xavier"
      std: 0.1
    }
    bias_filler {
      type: "constant"
      value: 0.2
    }
  }
}
layer {
  name: "conv2/relu_3x3_reduce"
  type: "ReLU"
  bottom: "conv2/3x3_reduce"
  top: "conv2/3x3_reduce"
}
layer {
  name: "conv2/3x3"
  type: "Convolution"
  bottom: "conv2/3x3_reduce"
  top: "conv2/3x3"
  param {
    lr_mult: 1
    decay_mult: 1
  }
  param {
    lr_mult: 2
    decay_mult: 0
  }
  convolution_param {
    num_output: 192
    pad: 1
    kernel_size: 3
    weight_filler {
      type: "xavier"
      std: 0.03
    }
    bias_filler {
      type: "constant"
      value: 0.2
    }
  }
}
layer {
  name: "conv2/relu_3x3"
  type: "ReLU"
  bottom: "conv2/3x3"
  top: "conv2/3x3"
}
layer {
  name: "conv2/norm2"
  type: "LRN"
  bottom: "conv2/3x3"
  top: "conv2/norm2"
  lrn_param {
    local_size: 5
    alpha: 0.0001
    beta: 0.75
  }
}
layer {
  name: "pool2/3x3_s2"
  type: "Pooling"
  bottom: "conv2/norm2"
  top: "pool2/3x3_s2"
  pooling_param {
    pool: MAX
    kernel_size: 3
    stride: 2
  }
}
layer {
  name: "inception_3a/1x1"
  type: "Convolution"
  bottom: "pool2/3x3_s2"
  top: "inception_3a/1x1"
  param {
    lr_mult: 1
    decay_mult: 1
  }
  param {
    lr_mult: 2
    decay_mult: 0
  }
  convolution_param {
    num_output: 64
    kernel_size: 1
    weight_filler {
      type: "xavier"
      std: 0.03
    }
    bias_filler {
      type: "constant"
      value: 0.2
    }
  }
}
layer {
  name: "inception_3a/relu_1x1"
  type: "ReLU"
  bottom: "inception_3a/1x1"
  top: "inception_3a/1x1"
}
layer {
  name: "inception_3a/3x3_reduce"
  type: "Convolution"
  bottom: "pool2/3x3_s2"
  top: "inception_3a/3x3_reduce"
  param {
    lr_mult: 1
    decay_mult: 1
  }
  param {
    lr_mult: 2
    decay_mult: 0
  }
  convolution_param {
    num_output: 96
    kernel_size: 1
    weight_filler {
      type: "xavier"
      std: 0.09
    }
    bias_filler {
      type: "constant"
      value: 0.2
    }
  }
}
layer {
  name: "inception_3a/relu_3x3_reduce"
  type: "ReLU"
  bottom: "inception_3a/3x3_reduce"
  top: "inception_3a/3x3_reduce"
}
layer {
  name: "inception_3a/3x3"
  type: "Convolution"
  bottom: "inception_3a/3x3_reduce"
  top: "inception_3a/3x3"
  param {
    lr_mult: 1
    decay_mult: 1
  }
  param {
    lr_mult: 2
    decay_mult: 0
  }
  convolution_param {
    num_output: 128
    pad: 1
    kernel_size: 3
    weight_filler {
      type: "xavier"
      std: 0.03
    }
    bias_filler {
      type: "constant"
      value: 0.2
    }
  }
}
layer {
  name: "inception_3a/relu_3x3"
  type: "ReLU"
  bottom: "inception_3a/3x3"
  top: "inception_3a/3x3"
}
layer {
  name: "inception_3a/5x5_reduce"
  type: "Convolution"
  bottom: "pool2/3x3_s2"
  top: "inception_3a/5x5_reduce"
  param {
    lr_mult: 1
    decay_mult: 1
  }
  param {
    lr_mult: 2
    decay_mult: 0
  }
  convolution_param {
    num_output: 16
    kernel_size: 1
    weight_filler {
      type: "xavier"
      std: 0.2
    }
    bias_filler {
      type: "constant"
      value: 0.2
    }
  }
}
layer {
  name: "inception_3a/relu_5x5_reduce"
  type: "ReLU"
  bottom: "inception_3a/5x5_reduce"
  top: "inception_3a/5x5_reduce"
}
layer {
  name: "inception_3a/5x5"
  type: "Convolution"
  bottom: "inception_3a/5x5_reduce"
  top: "inception_3a/5x5"
  param {
    lr_mult: 1
    decay_mult: 1
  }
  param {
    lr_mult: 2
    decay_mult: 0
  }
  convolution_param {
    num_output: 32
    pad: 2
    kernel_size: 5
    weight_filler {
      type: "xavier"
      std: 0.03
    }
    bias_filler {
      type: "constant"
      value: 0.2
    }
  }
}
layer {
  name: "inception_3a/relu_5x5"
  type: "ReLU"
  bottom: "inception_3a/5x5"
  top: "inception_3a/5x5"
}
layer {
  name: "inception_3a/pool"
  type: "Pooling"
  bottom: "pool2/3x3_s2"
  top: "inception_3a/pool"
  pooling_param {
    pool: MAX
    kernel_size: 3
    stride: 1
    pad: 1
  }
}
layer {
  name: "inception_3a/pool_proj"
  type: "Convolution"
  bottom: "inception_3a/pool"
  top: "inception_3a/pool_proj"
  param {
    lr_mult: 1
    decay_mult: 1
  }
  param {
    lr_mult: 2
    decay_mult: 0
  }
  convolution_param {
    num_output: 32
    kernel_size: 1
    weight_filler {
      type: "xavier"
      std: 0.1
    }
    bias_filler {
      type: "constant"
      value: 0.2
    }
  }
}
layer {
  name: "inception_3a/relu_pool_proj"
  type: "ReLU"
  bottom: "inception_3a/pool_proj"
  top: "inception_3a/pool_proj"
}
layer {
  name: "inception_3a/output"
  type: "Concat"
  bottom: "inception_3a/1x1"
  bottom: "inception_3a/3x3"
  bottom: "inception_3a/5x5"
  bottom: "inception_3a/pool_proj"
  top: "inception_3a/output"
}
layer {
  name: "inception_3b/1x1"
  type: "Convolution"
  bottom: "inception_3a/output"
  top: "inception_3b/1x1"
  param {
    lr_mult: 1
    decay_mult: 1
  }
  param {
    lr_mult: 2
    decay_mult: 0
  }
  convolution_param {
    num_output: 128
    kernel_size: 1
    weight_filler {
      type: "xavier"
      std: 0.03
    }
    bias_filler {
      type: "constant"
      value: 0.2
    }
  }
}
layer {
  name: "inception_3b/relu_1x1"
  type: "ReLU"
  bottom: "inception_3b/1x1"
  top: "inception_3b/1x1"
}
layer {
  name: "inception_3b/3x3_reduce"
  type: "Convolution"
  bottom: "inception_3a/output"
  top: "inception_3b/3x3_reduce"
  param {
    lr_mult: 1
    decay_mult: 1
  }
  param {
    lr_mult: 2
    decay_mult: 0
  }
  convolution_param {
    num_output: 128
    kernel_size: 1
    weight_filler {
      type: "xavier"
      std: 0.09
    }
    bias_filler {
      type: "constant"
      value: 0.2
    }
  }
}
layer {
  name: "inception_3b/relu_3x3_reduce"
  type: "ReLU"
  bottom: "inception_3b/3x3_reduce"
  top: "inception_3b/3x3_reduce"
}
layer {
  name: "inception_3b/3x3"
  type: "Convolution"
  bottom: "inception_3b/3x3_reduce"
  top: "inception_3b/3x3"
  param {
    lr_mult: 1
    decay_mult: 1
  }
  param {
    lr_mult: 2
    decay_mult: 0
  }
  convolution_param {
    num_output: 192
    pad: 1
    kernel_size: 3
    weight_filler {
      type: "xavier"
      std: 0.03
    }
    bias_filler {
      type: "constant"
      value: 0.2
    }
  }
}
layer {
  name: "inception_3b/relu_3x3"
  type: "ReLU"
  bottom: "inception_3b/3x3"
  top: "inception_3b/3x3"
}
layer {
  name: "inception_3b/5x5_reduce"
  type: "Convolution"
  bottom: "inception_3a/output"
  top: "inception_3b/5x5_reduce"
  param {
    lr_mult: 1
    decay_mult: 1
  }
  param {
    lr_mult: 2
    decay_mult: 0
  }
  convolution_param {
    num_output: 32
    kernel_size: 1
    weight_filler {
      type: "xavier"
      std: 0.2
    }
    bias_filler {
      type: "constant"
      value: 0.2
    }
  }
}
layer {
  name: "inception_3b/relu_5x5_reduce"
  type: "ReLU"
  bottom: "inception_3b/5x5_reduce"
  top: "inception_3b/5x5_reduce"
}
layer {
  name: "inception_3b/5x5"
  type: "Convolution"
  bottom: "inception_3b/5x5_reduce"
  top: "inception_3b/5x5"
  param {
    lr_mult: 1
    decay_mult: 1
  }
  param {
    lr_mult: 2
    decay_mult: 0
  }
  convolution_param {
    num_output: 96
    pad: 2
    kernel_size: 5
    weight_filler {
      type: "xavier"
      std: 0.03
    }
    bias_filler {
      type: "constant"
      value: 0.2
    }
  }
}
layer {
  name: "inception_3b/relu_5x5"
  type: "ReLU"
  bottom: "inception_3b/5x5"
  top: "inception_3b/5x5"
}
layer {
  name: "inception_3b/pool"
  type: "Pooling"
  bottom: "inception_3a/output"
  top: "inception_3b/pool"
  pooling_param {
    pool: MAX
    kernel_size: 3
    stride: 1
    pad: 1
  }
}
layer {
  name: "inception_3b/pool_proj"
  type: "Convolution"
  bottom: "inception_3b/pool"
  top: "inception_3b/pool_proj"
  param {
    lr_mult: 1
    decay_mult: 1
  }
  param {
    lr_mult: 2
    decay_mult: 0
  }
  convolution_param {
    num_output: 64
    kernel_size: 1
    weight_filler {
      type: "xavier"
      std: 0.1
    }
    bias_filler {
      type: "constant"
      value: 0.2
    }
  }
}
layer {
  name: "inception_3b/relu_pool_proj"
  type: "ReLU"
  bottom: "inception_3b/pool_proj"
  top: "inception_3b/pool_proj"
}
layer {
  name: "inception_3b/output"
  type: "Concat"
  bottom: "inception_3b/1x1"
  bottom: "inception_3b/3x3"
  bottom: "inception_3b/5x5"
  bottom: "inception_3b/pool_proj"
  top: "inception_3b/output"
}
layer {
  name: "pool3/3x3_s2"
  type: "Pooling"
  bottom: "inception_3b/output"
  top: "pool3/3x3_s2"
  pooling_param {
    pool: MAX
    kernel_size: 3
    stride: 2
  }
}
layer {
  name: "inception_4a/1x1"
  type: "Convolution"
  bottom: "pool3/3x3_s2"
  top: "inception_4a/1x1"
  param {
    lr_mult: 1
    decay_mult: 1
  }
  param {
    lr_mult: 2
    decay_mult: 0
  }
  convolution_param {
    num_output: 192
    kernel_size: 1
    weight_filler {
      type: "xavier"
      std: 0.03
    }
    bias_filler {
      type: "constant"
      value: 0.2
    }
  }
}
layer {
  name: "inception_4a/relu_1x1"
  type: "ReLU"
  bottom: "inception_4a/1x1"
  top: "inception_4a/1x1"
}
layer {
  name: "inception_4a/3x3_reduce"
  type: "Convolution"
  bottom: "pool3/3x3_s2"
  top: "inception_4a/3x3_reduce"
  param {
    lr_mult: 1
    decay_mult: 1
  }
  param {
    lr_mult: 2
    decay_mult: 0
  }
  convolution_param {
    num_output: 96
    kernel_size: 1
    weight_filler {
      type: "xavier"
      std: 0.09
    }
    bias_filler {
      type: "constant"
      value: 0.2
    }
  }
}
layer {
  name: "inception_4a/relu_3x3_reduce"
  type: "ReLU"
  bottom: "inception_4a/3x3_reduce"
  top: "inception_4a/3x3_reduce"
}
layer {
  name: "inception_4a/3x3"
  type: "Convolution"
  bottom: "inception_4a/3x3_reduce"
  top: "inception_4a/3x3"
  param {
    lr_mult: 1
    decay_mult: 1
  }
  param {
    lr_mult: 2
    decay_mult: 0
  }
  convolution_param {
    num_output: 208
    pad: 1
    kernel_size: 3
    weight_filler {
      type: "xavier"
      std: 0.03
    }
    bias_filler {
      type: "constant"
      value: 0.2
    }
  }
}
layer {
  name: "inception_4a/relu_3x3"
  type: "ReLU"
  bottom: "inception_4a/3x3"
  top: "inception_4a/3x3"
}
layer {
  name: "inception_4a/5x5_reduce"
  type: "Convolution"
  bottom: "pool3/3x3_s2"
  top: "inception_4a/5x5_reduce"
  param {
    lr_mult: 1
    decay_mult: 1
  }
  param {
    lr_mult: 2
    decay_mult: 0
  }
  convolution_param {
    num_output: 16
    kernel_size: 1
    weight_filler {
      type: "xavier"
      std: 0.2
    }
    bias_filler {
      type: "constant"
      value: 0.2
    }
  }
}
layer {
  name: "inception_4a/relu_5x5_reduce"
  type: "ReLU"
  bottom: "inception_4a/5x5_reduce"
  top: "inception_4a/5x5_reduce"
}
layer {
  name: "inception_4a/5x5"
  type: "Convolution"
  bottom: "inception_4a/5x5_reduce"
  top: "inception_4a/5x5"
  param {
    lr_mult: 1
    decay_mult: 1
  }
  param {
    lr_mult: 2
    decay_mult: 0
  }
  convolution_param {
    num_output: 48
    pad: 2
    kernel_size: 5
    weight_filler {
      type: "xavier"
      std: 0.03
    }
    bias_filler {
      type: "constant"
      value: 0.2
    }
  }
}
layer {
  name: "inception_4a/relu_5x5"
  type: "ReLU"
  bottom: "inception_4a/5x5"
  top: "inception_4a/5x5"
}
layer {
  name: "inception_4a/pool"
  type: "Pooling"
  bottom: "pool3/3x3_s2"
  top: "inception_4a/pool"
  pooling_param {
    pool: MAX
    kernel_size: 3
    stride: 1
    pad: 1
  }
}
layer {
  name: "inception_4a/pool_proj"
  type: "Convolution"
  bottom: "inception_4a/pool"
  top: "inception_4a/pool_proj"
  param {
    lr_mult: 1
    decay_mult: 1
  }
  param {
    lr_mult: 2
    decay_mult: 0
  }
  convolution_param {
    num_output: 64
    kernel_size: 1
    weight_filler {
      type: "xavier"
      std: 0.1
    }
    bias_filler {
      type: "constant"
      value: 0.2
    }
  }
}
layer {
  name: "inception_4a/relu_pool_proj"
  type: "ReLU"
  bottom: "inception_4a/pool_proj"
  top: "inception_4a/pool_proj"
}
layer {
  name: "inception_4a/output"
  type: "Concat"
  bottom: "inception_4a/1x1"
  bottom: "inception_4a/3x3"
  bottom: "inception_4a/5x5"
  bottom: "inception_4a/pool_proj"
  top: "inception_4a/output"
}
layer {
  name: "loss1/ave_pool"
  type: "Pooling"
  bottom: "inception_4a/output"
  top: "loss1/ave_pool"
  pooling_param {
    pool: AVE
    kernel_size: 5
    stride: 3
  }
}
layer {
  name: "loss1/conv"
  type: "Convolution"
  bottom: "loss1/ave_pool"
  top: "loss1/conv"
  param {
    lr_mult: 1
    decay_mult: 1
  }
  param {
    lr_mult: 2
    decay_mult: 0
  }
  convolution_param {
    num_output: 128
    kernel_size: 1
    weight_filler {
      type: "xavier"
      std: 0.08
    }
    bias_filler {
      type: "constant"
      value: 0.2
    }
  }
}
layer {
  name: "loss1/relu_conv"
  type: "ReLU"
  bottom: "loss1/conv"
  top: "loss1/conv"
}
layer {
  name: "loss1/fc"
  type: "InnerProduct"
  bottom: "loss1/conv"
  top: "loss1/fc"
  param {
    lr_mult: 1
    decay_mult: 1
  }
  param {
    lr_mult: 2
    decay_mult: 0
  }
  inner_product_param {
    num_output: 1024
    weight_filler {
      type: "xavier"
      std: 0.02
    }
    bias_filler {
      type: "constant"
      value: 0.2
    }
  }
}
layer {
  name: "loss1/relu_fc"
  type: "ReLU"
  bottom: "loss1/fc"
  top: "loss1/fc"
}
layer {
  name: "loss1/drop_fc"
  type: "Dropout"
  bottom: "loss1/fc"
  top: "loss1/fc"
  dropout_param {
    dropout_ratio: 0.7
  }
}
layer {
  name: "loss1/classifier"
  type: "InnerProduct"
  bottom: "loss1/fc"
  top: "loss1/classifier"
  param {
    lr_mult: 1
    decay_mult: 1
  }
  param {
    lr_mult: 2
    decay_mult: 0
  }
  inner_product_param {
    num_output: 2
    weight_filler {
      type: "xavier"
      std: 0.0009765625
    }
    bias_filler {
      type: "constant"
      value: 0
    }
  }
}
layer {
  name: "loss1/loss"
  type: "SoftmaxWithLoss"
  bottom: "loss1/classifier"
  bottom: "label"
  top: "loss1/loss1"
  loss_weight: 0.3
}
layer {
  name: "loss1/top-1"
  type: "Accuracy"
  bottom: "loss1/classifier"
  bottom: "label"
  top: "loss1/top-1"
  include {
    phase: TEST
  }
}
layer {
  name: "inception_4b/1x1"
  type: "Convolution"
  bottom: "inception_4a/output"
  top: "inception_4b/1x1"
  param {
    lr_mult: 1
    decay_mult: 1
  }
  param {
    lr_mult: 2
    decay_mult: 0
  }
  convolution_param {
    num_output: 160
    kernel_size: 1
    weight_filler {
      type: "xavier"
      std: 0.03
    }
    bias_filler {
      type: "constant"
      value: 0.2
    }
  }
}
layer {
  name: "inception_4b/relu_1x1"
  type: "ReLU"
  bottom: "inception_4b/1x1"
  top: "inception_4b/1x1"
}
layer {
  name: "inception_4b/3x3_reduce"
  type: "Convolution"
  bottom: "inception_4a/output"
  top: "inception_4b/3x3_reduce"
  param {
    lr_mult: 1
    decay_mult: 1
  }
  param {
    lr_mult: 2
    decay_mult: 0
  }
  convolution_param {
    num_output: 112
    kernel_size: 1
    weight_filler {
      type: "xavier"
      std: 0.09
    }
    bias_filler {
      type: "constant"
      value: 0.2
    }
  }
}
layer {
  name: "inception_4b/relu_3x3_reduce"
  type: "ReLU"
  bottom: "inception_4b/3x3_reduce"
  top: "inception_4b/3x3_reduce"
}
layer {
  name: "inception_4b/3x3"
  type: "Convolution"
  bottom: "inception_4b/3x3_reduce"
  top: "inception_4b/3x3"
  param {
    lr_mult: 1
    decay_mult: 1
  }
  param {
    lr_mult: 2
    decay_mult: 0
  }
  convolution_param {
    num_output: 224
    pad: 1
    kernel_size: 3
    weight_filler {
      type: "xavier"
      std: 0.03
    }
    bias_filler {
      type: "constant"
      value: 0.2
    }
  }
}
layer {
  name: "inception_4b/relu_3x3"
  type: "ReLU"
  bottom: "inception_4b/3x3"
  top: "inception_4b/3x3"
}
layer {
  name: "inception_4b/5x5_reduce"
  type: "Convolution"
  bottom: "inception_4a/output"
  top: "inception_4b/5x5_reduce"
  param {
    lr_mult: 1
    decay_mult: 1
  }
  param {
    lr_mult: 2
    decay_mult: 0
  }
  convolution_param {
    num_output: 24
    kernel_size: 1
    weight_filler {
      type: "xavier"
      std: 0.2
    }
    bias_filler {
      type: "constant"
      value: 0.2
    }
  }
}
layer {
  name: "inception_4b/relu_5x5_reduce"
  type: "ReLU"
  bottom: "inception_4b/5x5_reduce"
  top: "inception_4b/5x5_reduce"
}
layer {
  name: "inception_4b/5x5"
  type: "Convolution"
  bottom: "inception_4b/5x5_reduce"
  top: "inception_4b/5x5"
  param {
    lr_mult: 1
    decay_mult: 1
  }
  param {
    lr_mult: 2
    decay_mult: 0
  }
  convolution_param {
    num_output: 64
    pad: 2
    kernel_size: 5
    weight_filler {
      type: "xavier"
      std: 0.03
    }
    bias_filler {
      type: "constant"
      value: 0.2
    }
  }
}
layer {
  name: "inception_4b/relu_5x5"
  type: "ReLU"
  bottom: "inception_4b/5x5"
  top: "inception_4b/5x5"
}
layer {
  name: "inception_4b/pool"
  type: "Pooling"
  bottom: "inception_4a/output"
  top: "inception_4b/pool"
  pooling_param {
    pool: MAX
    kernel_size: 3
    stride: 1
    pad: 1
  }
}
layer {
  name: "inception_4b/pool_proj"
  type: "Convolution"
  bottom: "inception_4b/pool"
  top: "inception_4b/pool_proj"
  param {
    lr_mult: 1
    decay_mult: 1
  }
  param {
    lr_mult: 2
    decay_mult: 0
  }
  convolution_param {
    num_output: 64
    kernel_size: 1
    weight_filler {
      type: "xavier"
      std: 0.1
    }
    bias_filler {
      type: "constant"
      value: 0.2
    }
  }
}
layer {
  name: "inception_4b/relu_pool_proj"
  type: "ReLU"
  bottom: "inception_4b/pool_proj"
  top: "inception_4b/pool_proj"
}
layer {
  name: "inception_4b/output"
  type: "Concat"
  bottom: "inception_4b/1x1"
  bottom: "inception_4b/3x3"
  bottom: "inception_4b/5x5"
  bottom: "inception_4b/pool_proj"
  top: "inception_4b/output"
}
layer {
  name: "inception_4c/1x1"
  type: "Convolution"
  bottom: "inception_4b/output"
  top: "inception_4c/1x1"
  param {
    lr_mult: 1
    decay_mult: 1
  }
  param {
    lr_mult: 2
    decay_mult: 0
  }
  convolution_param {
    num_output: 128
    kernel_size: 1
    weight_filler {
      type: "xavier"
      std: 0.03
    }
    bias_filler {
      type: "constant"
      value: 0.2
    }
  }
}
layer {
  name: "inception_4c/relu_1x1"
  type: "ReLU"
  bottom: "inception_4c/1x1"
  top: "inception_4c/1x1"
}
layer {
  name: "inception_4c/3x3_reduce"
  type: "Convolution"
  bottom: "inception_4b/output"
  top: "inception_4c/3x3_reduce"
  param {
    lr_mult: 1
    decay_mult: 1
  }
  param {
    lr_mult: 2
    decay_mult: 0
  }
  convolution_param {
    num_output: 128
    kernel_size: 1
    weight_filler {
      type: "xavier"
      std: 0.09
    }
    bias_filler {
      type: "constant"
      value: 0.2
    }
  }
}
layer {
  name: "inception_4c/relu_3x3_reduce"
  type: "ReLU"
  bottom: "inception_4c/3x3_reduce"
  top: "inception_4c/3x3_reduce"
}
layer {
  name: "inception_4c/3x3"
  type: "Convolution"
  bottom: "inception_4c/3x3_reduce"
  top: "inception_4c/3x3"
  param {
    lr_mult: 1
    decay_mult: 1
  }
  param {
    lr_mult: 2
    decay_mult: 0
  }
  convolution_param {
    num_output: 256
    pad: 1
    kernel_size: 3
    weight_filler {
      type: "xavier"
      std: 0.03
    }
    bias_filler {
      type: "constant"
      value: 0.2
    }
  }
}
layer {
  name: "inception_4c/relu_3x3"
  type: "ReLU"
  bottom: "inception_4c/3x3"
  top: "inception_4c/3x3"
}
layer {
  name: "inception_4c/5x5_reduce"
  type: "Convolution"
  bottom: "inception_4b/output"
  top: "inception_4c/5x5_reduce"
  param {
    lr_mult: 1
    decay_mult: 1
  }
  param {
    lr_mult: 2
    decay_mult: 0
  }
  convolution_param {
    num_output: 24
    kernel_size: 1
    weight_filler {
      type: "xavier"
      std: 0.2
    }
    bias_filler {
      type: "constant"
      value: 0.2
    }
  }
}
layer {
  name: "inception_4c/relu_5x5_reduce"
  type: "ReLU"
  bottom: "inception_4c/5x5_reduce"
  top: "inception_4c/5x5_reduce"
}
layer {
  name: "inception_4c/5x5"
  type: "Convolution"
  bottom: "inception_4c/5x5_reduce"
  top: "inception_4c/5x5"
  param {
    lr_mult: 1
    decay_mult: 1
  }
  param {
    lr_mult: 2
    decay_mult: 0
  }
  convolution_param {
    num_output: 64
    pad: 2
    kernel_size: 5
    weight_filler {
      type: "xavier"
      std: 0.03
    }
    bias_filler {
      type: "constant"
      value: 0.2
    }
  }
}
layer {
  name: "inception_4c/relu_5x5"
  type: "ReLU"
  bottom: "inception_4c/5x5"
  top: "inception_4c/5x5"
}
layer {
  name: "inception_4c/pool"
  type: "Pooling"
  bottom: "inception_4b/output"
  top: "inception_4c/pool"
  pooling_param {
    pool: MAX
    kernel_size: 3
    stride: 1
    pad: 1
  }
}
layer {
  name: "inception_4c/pool_proj"
  type: "Convolution"
  bottom: "inception_4c/pool"
  top: "inception_4c/pool_proj"
  param {
    lr_mult: 1
    decay_mult: 1
  }
  param {
    lr_mult: 2
    decay_mult: 0
  }
  convolution_param {
    num_output: 64
    kernel_size: 1
    weight_filler {
      type: "xavier"
      std: 0.1
    }
    bias_filler {
      type: "constant"
      value: 0.2
    }
  }
}
layer {
  name: "inception_4c/relu_pool_proj"
  type: "ReLU"
  bottom: "inception_4c/pool_proj"
  top: "inception_4c/pool_proj"
}
layer {
  name: "inception_4c/output"
  type: "Concat"
  bottom: "inception_4c/1x1"
  bottom: "inception_4c/3x3"
  bottom: "inception_4c/5x5"
  bottom: "inception_4c/pool_proj"
  top: "inception_4c/output"
}
layer {
  name: "inception_4d/1x1"
  type: "Convolution"
  bottom: "inception_4c/output"
  top: "inception_4d/1x1"
  param {
    lr_mult: 1
    decay_mult: 1
  }
  param {
    lr_mult: 2
    decay_mult: 0
  }
  convolution_param {
    num_output: 112
    kernel_size: 1
    weight_filler {
      type: "xavier"
      std: 0.03
    }
    bias_filler {
      type: "constant"
      value: 0.2
    }
  }
}
layer {
  name: "inception_4d/relu_1x1"
  type: "ReLU"
  bottom: "inception_4d/1x1"
  top: "inception_4d/1x1"
}
layer {
  name: "inception_4d/3x3_reduce"
  type: "Convolution"
  bottom: "inception_4c/output"
  top: "inception_4d/3x3_reduce"
  param {
    lr_mult: 1
    decay_mult: 1
  }
  param {
    lr_mult: 2
    decay_mult: 0
  }
  convolution_param {
    num_output: 144
    kernel_size: 1
    weight_filler {
      type: "xavier"
      std: 0.09
    }
    bias_filler {
      type: "constant"
      value: 0.2
    }
  }
}
layer {
  name: "inception_4d/relu_3x3_reduce"
  type: "ReLU"
  bottom: "inception_4d/3x3_reduce"
  top: "inception_4d/3x3_reduce"
}
layer {
  name: "inception_4d/3x3"
  type: "Convolution"
  bottom: "inception_4d/3x3_reduce"
  top: "inception_4d/3x3"
  param {
    lr_mult: 1
    decay_mult: 1
  }
  param {
    lr_mult: 2
    decay_mult: 0
  }
  convolution_param {
    num_output: 288
    pad: 1
    kernel_size: 3
    weight_filler {
      type: "xavier"
      std: 0.03
    }
    bias_filler {
      type: "constant"
      value: 0.2
    }
  }
}
layer {
  name: "inception_4d/relu_3x3"
  type: "ReLU"
  bottom: "inception_4d/3x3"
  top: "inception_4d/3x3"
}
layer {
  name: "inception_4d/5x5_reduce"
  type: "Convolution"
  bottom: "inception_4c/output"
  top: "inception_4d/5x5_reduce"
  param {
    lr_mult: 1
    decay_mult: 1
  }
  param {
    lr_mult: 2
    decay_mult: 0
  }
  convolution_param {
    num_output: 32
    kernel_size: 1
    weight_filler {
      type: "xavier"
      std: 0.2
    }
    bias_filler {
      type: "constant"
      value: 0.2
    }
  }
}
layer {
  name: "inception_4d/relu_5x5_reduce"
  type: "ReLU"
  bottom: "inception_4d/5x5_reduce"
  top: "inception_4d/5x5_reduce"
}
layer {
  name: "inception_4d/5x5"
  type: "Convolution"
  bottom: "inception_4d/5x5_reduce"
  top: "inception_4d/5x5"
  param {
    lr_mult: 1
    decay_mult: 1
  }
  param {
    lr_mult: 2
    decay_mult: 0
  }
  convolution_param {
    num_output: 64
    pad: 2
    kernel_size: 5
    weight_filler {
      type: "xavier"
      std: 0.03
    }
    bias_filler {
      type: "constant"
      value: 0.2
    }
  }
}
layer {
  name: "inception_4d/relu_5x5"
  type: "ReLU"
  bottom: "inception_4d/5x5"
  top: "inception_4d/5x5"
}
layer {
  name: "inception_4d/pool"
  type: "Pooling"
  bottom: "inception_4c/output"
  top: "inception_4d/pool"
  pooling_param {
    pool: MAX
    kernel_size: 3
    stride: 1
    pad: 1
  }
}
layer {
  name: "inception_4d/pool_proj"
  type: "Convolution"
  bottom: "inception_4d/pool"
  top: "inception_4d/pool_proj"
  param {
    lr_mult: 1
    decay_mult: 1
  }
  param {
    lr_mult: 2
    decay_mult: 0
  }
  convolution_param {
    num_output: 64
    kernel_size: 1
    weight_filler {
      type: "xavier"
      std: 0.1
    }
    bias_filler {
      type: "constant"
      value: 0.2
    }
  }
}
layer {
  name: "inception_4d/relu_pool_proj"
  type: "ReLU"
  bottom: "inception_4d/pool_proj"
  top: "inception_4d/pool_proj"
}
layer {
  name: "inception_4d/output"
  type: "Concat"
  bottom: "inception_4d/1x1"
  bottom: "inception_4d/3x3"
  bottom: "inception_4d/5x5"
  bottom: "inception_4d/pool_proj"
  top: "inception_4d/output"
}
layer {
  name: "loss2/ave_pool"
  type: "Pooling"
  bottom: "inception_4d/output"
  top: "loss2/ave_pool"
  pooling_param {
    pool: AVE
    kernel_size: 5
    stride: 3
  }
}
layer {
  name: "loss2/conv"
  type: "Convolution"
  bottom: "loss2/ave_pool"
  top: "loss2/conv"
  param {
    lr_mult: 1
    decay_mult: 1
  }
  param {
    lr_mult: 2
    decay_mult: 0
  }
  convolution_param {
    num_output: 128
    kernel_size: 1
    weight_filler {
      type: "xavier"
      std: 0.08
    }
    bias_filler {
      type: "constant"
      value: 0.2
    }
  }
}
layer {
  name: "loss2/relu_conv"
  type: "ReLU"
  bottom: "loss2/conv"
  top: "loss2/conv"
}
layer {
  name: "loss2/fc"
  type: "InnerProduct"
…
I0511 02:12:37.875334 12661 net.cpp:112] Top shape: 32 128 14 14 (802816)
I0511 02:12:37.875350 12661 layer_factory.hpp:74] Creating layer inception_4c/relu_1x1
I0511 02:12:37.875358 12661 net.cpp:76] Creating Layer inception_4c/relu_1x1
I0511 02:12:37.875366 12661 net.cpp:372] inception_4c/relu_1x1 <- inception_4c/1x1
I0511 02:12:37.875375 12661 net.cpp:323] inception_4c/relu_1x1 -> inception_4c/1x1 (in-place)
I0511 02:12:37.875382 12661 net.cpp:105] Setting up inception_4c/relu_1x1
I0511 02:12:37.875387 12661 net.cpp:112] Top shape: 32 128 14 14 (802816)
I0511 02:12:37.875406 12661 layer_factory.hpp:74] Creating layer inception_4c/3x3_reduce
I0511 02:12:37.875416 12661 net.cpp:76] Creating Layer inception_4c/3x3_reduce
I0511 02:12:37.875422 12661 net.cpp:372] inception_4c/3x3_reduce <- inception_4b/output_inception_4b/output_0_split_1
I0511 02:12:37.875432 12661 net.cpp:334] inception_4c/3x3_reduce -> inception_4c/3x3_reduce
I0511 02:12:37.875442 12661 net.cpp:105] Setting up inception_4c/3x3_reduce
I0511 02:12:37.876025 12661 net.cpp:112] Top shape: 32 128 14 14 (802816)
I0511 02:12:37.876042 12661 layer_factory.hpp:74] Creating layer inception_4c/relu_3x3_reduce
I0511 02:12:37.876051 12661 net.cpp:76] Creating Layer inception_4c/relu_3x3_reduce
I0511 02:12:37.876057 12661 net.cpp:372] inception_4c/relu_3x3_reduce <- inception_4c/3x3_reduce
I0511 02:12:37.876065 12661 net.cpp:323] inception_4c/relu_3x3_reduce -> inception_4c/3x3_reduce (in-place)
I0511 02:12:37.876072 12661 net.cpp:105] Setting up inception_4c/relu_3x3_reduce
I0511 02:12:37.876077 12661 net.cpp:112] Top shape: 32 128 14 14 (802816)
I0511 02:12:37.876083 12661 layer_factory.hpp:74] Creating layer inception_4c/3x3
I0511 02:12:37.876094 12661 net.cpp:76] Creating Layer inception_4c/3x3
I0511 02:12:37.876101 12661 net.cpp:372] inception_4c/3x3 <- inception_4c/3x3_reduce
I0511 02:12:37.876108 12661 net.cpp:334] inception_4c/3x3 -> inception_4c/3x3
I0511 02:12:37.876118 12661 net.cpp:105] Setting up inception_4c/3x3
I0511 02:12:37.878638 12661 net.cpp:112] Top shape: 32 256 14 14 (1605632)
I0511 02:12:37.878672 12661 layer_factory.hpp:74] Creating layer inception_4c/relu_3x3
I0511 02:12:37.878684 12661 net.cpp:76] Creating Layer inception_4c/relu_3x3
I0511 02:12:37.878690 12661 net.cpp:372] inception_4c/relu_3x3 <- inception_4c/3x3
I0511 02:12:37.878697 12661 net.cpp:323] inception_4c/relu_3x3 -> inception_4c/3x3 (in-place)
I0511 02:12:37.878705 12661 net.cpp:105] Setting up inception_4c/relu_3x3
I0511 02:12:37.878711 12661 net.cpp:112] Top shape: 32 256 14 14 (1605632)
I0511 02:12:37.878716 12661 layer_factory.hpp:74] Creating layer inception_4c/5x5_reduce
I0511 02:12:37.878727 12661 net.cpp:76] Creating Layer inception_4c/5x5_reduce
I0511 02:12:37.878734 12661 net.cpp:372] inception_4c/5x5_reduce <- inception_4b/output_inception_4b/output_0_split_2
I0511 02:12:37.878742 12661 net.cpp:334] inception_4c/5x5_reduce -> inception_4c/5x5_reduce
I0511 02:12:37.878753 12661 net.cpp:105] Setting up inception_4c/5x5_reduce
I0511 02:12:37.878864 12661 net.cpp:112] Top shape: 32 24 14 14 (150528)
I0511 02:12:37.878873 12661 layer_factory.hpp:74] Creating layer inception_4c/relu_5x5_reduce
I0511 02:12:37.878881 12661 net.cpp:76] Creating Layer inception_4c/relu_5x5_reduce
I0511 02:12:37.878887 12661 net.cpp:372] inception_4c/relu_5x5_reduce <- inception_4c/5x5_reduce
I0511 02:12:37.878896 12661 net.cpp:323] inception_4c/relu_5x5_reduce -> inception_4c/5x5_reduce (in-place)
I0511 02:12:37.878904 12661 net.cpp:105] Setting up inception_4c/relu_5x5_reduce
I0511 02:12:37.878909 12661 net.cpp:112] Top shape: 32 24 14 14 (150528)
I0511 02:12:37.878916 12661 layer_factory.hpp:74] Creating layer inception_4c/5x5
I0511 02:12:37.878923 12661 net.cpp:76] Creating Layer inception_4c/5x5
I0511 02:12:37.878929 12661 net.cpp:372] inception_4c/5x5 <- inception_4c/5x5_reduce
I0511 02:12:37.878939 12661 net.cpp:334] inception_4c/5x5 -> inception_4c/5x5
I0511 02:12:37.878947 12661 net.cpp:105] Setting up inception_4c/5x5
I0511 02:12:37.879294 12661 net.cpp:112] Top shape: 32 64 14 14 (401408)
I0511 02:12:37.879308 12661 layer_factory.hpp:74] Creating layer inception_4c/relu_5x5
I0511 02:12:37.879317 12661 net.cpp:76] Creating Layer inception_4c/relu_5x5
I0511 02:12:37.879323 12661 net.cpp:372] inception_4c/relu_5x5 <- inception_4c/5x5
I0511 02:12:37.879329 12661 net.cpp:323] inception_4c/relu_5x5 -> inception_4c/5x5 (in-place)
I0511 02:12:37.879336 12661 net.cpp:105] Setting up inception_4c/relu_5x5
I0511 02:12:37.879341 12661 net.cpp:112] Top shape: 32 64 14 14 (401408)
I0511 02:12:37.879346 12661 layer_factory.hpp:74] Creating layer inception_4c/pool
I0511 02:12:37.879374 12661 net.cpp:76] Creating Layer inception_4c/pool
I0511 02:12:37.879379 12661 net.cpp:372] inception_4c/pool <- inception_4b/output_inception_4b/output_0_split_3
I0511 02:12:37.879391 12661 net.cpp:334] inception_4c/pool -> inception_4c/pool
I0511 02:12:37.879400 12661 net.cpp:105] Setting up inception_4c/pool
I0511 02:12:37.879407 12661 net.cpp:112] Top shape: 32 512 14 14 (3211264)
I0511 02:12:37.879413 12661 layer_factory.hpp:74] Creating layer inception_4c/pool_proj
I0511 02:12:37.879425 12661 net.cpp:76] Creating Layer inception_4c/pool_proj
I0511 02:12:37.879431 12661 net.cpp:372] inception_4c/pool_proj <- inception_4c/pool
I0511 02:12:37.879438 12661 net.cpp:334] inception_4c/pool_proj -> inception_4c/pool_proj
I0511 02:12:37.879446 12661 net.cpp:105] Setting up inception_4c/pool_proj
I0511 02:12:37.879792 12661 net.cpp:112] Top shape: 32 64 14 14 (401408)
I0511 02:12:37.879808 12661 layer_factory.hpp:74] Creating layer inception_4c/relu_pool_proj
I0511 02:12:37.879817 12661 net.cpp:76] Creating Layer inception_4c/relu_pool_proj
I0511 02:12:37.879823 12661 net.cpp:372] inception_4c/relu_pool_proj <- inception_4c/pool_proj
I0511 02:12:37.879832 12661 net.cpp:323] inception_4c/relu_pool_proj -> inception_4c/pool_proj (in-place)
I0511 02:12:37.879840 12661 net.cpp:105] Setting up inception_4c/relu_pool_proj
I0511 02:12:37.879847 12661 net.cpp:112] Top shape: 32 64 14 14 (401408)
I0511 02:12:37.879851 12661 layer_factory.hpp:74] Creating layer inception_4c/output
I0511 02:12:37.879859 12661 net.cpp:76] Creating Layer inception_4c/output
I0511 02:12:37.879864 12661 net.cpp:372] inception_4c/output <- inception_4c/1x1
I0511 02:12:37.879871 12661 net.cpp:372] inception_4c/output <- inception_4c/3x3
I0511 02:12:37.879878 12661 net.cpp:372] inception_4c/output <- inception_4c/5x5
I0511 02:12:37.879884 12661 net.cpp:372] inception_4c/output <- inception_4c/pool_proj
I0511 02:12:37.879890 12661 net.cpp:334] inception_4c/output -> inception_4c/output
I0511 02:12:37.879899 12661 net.cpp:105] Setting up inception_4c/output
I0511 02:12:37.879904 12661 net.cpp:112] Top shape: 32 512 14 14 (3211264)
I0511 02:12:37.879909 12661 layer_factory.hpp:74] Creating layer inception_4c/output_inception_4c/output_0_split
I0511 02:12:37.879917 12661 net.cpp:76] Creating Layer inception_4c/output_inception_4c/output_0_split
I0511 02:12:37.879923 12661 net.cpp:372] inception_4c/output_inception_4c/output_0_split <- inception_4c/output
I0511 02:12:37.879932 12661 net.cpp:334] inception_4c/output_inception_4c/output_0_split -> inception_4c/output_inception_4c/output_0_split_0
I0511 02:12:37.879942 12661 net.cpp:334] inception_4c/output_inception_4c/output_0_split -> inception_4c/output_inception_4c/output_0_split_1
I0511 02:12:37.879951 12661 net.cpp:334] inception_4c/output_inception_4c/output_0_split -> inception_4c/output_inception_4c/output_0_split_2
I0511 02:12:37.879961 12661 net.cpp:334] inception_4c/output_inception_4c/output_0_split -> inception_4c/output_inception_4c/output_0_split_3
I0511 02:12:37.879967 12661 net.cpp:105] Setting up inception_4c/output_inception_4c/output_0_split
I0511 02:12:37.879974 12661 net.cpp:112] Top shape: 32 512 14 14 (3211264)
I0511 02:12:37.879979 12661 net.cpp:112] Top shape: 32 512 14 14 (3211264)
I0511 02:12:37.879984 12661 net.cpp:112] Top shape: 32 512 14 14 (3211264)
I0511 02:12:37.879989 12661 net.cpp:112] Top shape: 32 512 14 14 (3211264)
I0511 02:12:37.879994 12661 layer_factory.hpp:74] Creating layer inception_4d/1x1
I0511 02:12:37.880004 12661 net.cpp:76] Creating Layer inception_4d/1x1
I0511 02:12:37.880010 12661 net.cpp:372] inception_4d/1x1 <- inception_4c/output_inception_4c/output_0_split_0
I0511 02:12:37.880018 12661 net.cpp:334] inception_4d/1x1 -> inception_4d/1x1
I0511 02:12:37.880026 12661 net.cpp:105] Setting up inception_4d/1x1
I0511 02:12:37.880523 12661 net.cpp:112] Top shape: 32 112 14 14 (702464)
I0511 02:12:37.880539 12661 layer_factory.hpp:74] Creating layer inception_4d/relu_1x1
I0511 02:12:37.880548 12661 net.cpp:76] Creating Layer inception_4d/relu_1x1
I0511 02:12:37.880586 12661 net.cpp:372] inception_4d/relu_1x1 <- inception_4d/1x1
I0511 02:12:37.880595 12661 net.cpp:323] inception_4d/relu_1x1 -> inception_4d/1x1 (in-place)
I0511 02:12:37.880604 12661 net.cpp:105] Setting up inception_4d/relu_1x1
I0511 02:12:37.880609 12661 net.cpp:112] Top shape: 32 112 14 14 (702464)
I0511 02:12:37.880615 12661 layer_factory.hpp:74] Creating layer inception_4d/3x3_reduce
I0511 02:12:37.880623 12661 net.cpp:76] Creating Layer inception_4d/3x3_reduce
I0511 02:12:37.880632 12661 net.cpp:372] inception_4d/3x3_reduce <- inception_4c/output_inception_4c/output_0_split_1
I0511 02:12:37.880643 12661 net.cpp:334] inception_4d/3x3_reduce -> inception_4d/3x3_reduce
I0511 02:12:37.880653 12661 net.cpp:105] Setting up inception_4d/3x3_reduce
I0511 02:12:37.881291 12661 net.cpp:112] Top shape: 32 144 14 14 (903168)
I0511 02:12:37.881307 12661 layer_factory.hpp:74] Creating layer inception_4d/relu_3x3_reduce
I0511 02:12:37.881316 12661 net.cpp:76] Creating Layer inception_4d/relu_3x3_reduce
I0511 02:12:37.881322 12661 net.cpp:372] inception_4d/relu_3x3_reduce <- inception_4d/3x3_reduce
I0511 02:12:37.881332 12661 net.cpp:323] inception_4d/relu_3x3_reduce -> inception_4d/3x3_reduce (in-place)
I0511 02:12:37.881340 12661 net.cpp:105] Setting up inception_4d/relu_3x3_reduce
I0511 02:12:37.881346 12661 net.cpp:112] Top shape: 32 144 14 14 (903168)
I0511 02:12:37.881351 12661 layer_factory.hpp:74] Creating layer inception_4d/3x3
I0511 02:12:37.881360 12661 net.cpp:76] Creating Layer inception_4d/3x3
I0511 02:12:37.881364 12661 net.cpp:372] inception_4d/3x3 <- inception_4d/3x3_reduce
I0511 02:12:37.881374 12661 net.cpp:334] inception_4d/3x3 -> inception_4d/3x3
I0511 02:12:37.881383 12661 net.cpp:105] Setting up inception_4d/3x3
I0511 02:12:37.884554 12661 net.cpp:112] Top shape: 32 288 14 14 (1806336)
I0511 02:12:37.884572 12661 layer_factory.hpp:74] Creating layer inception_4d/relu_3x3
I0511 02:12:37.884580 12661 net.cpp:76] Creating Layer inception_4d/relu_3x3
I0511 02:12:37.884587 12661 net.cpp:372] inception_4d/relu_3x3 <- inception_4d/3x3
I0511 02:12:37.884593 12661 net.cpp:323] inception_4d/relu_3x3 -> inception_4d/3x3 (in-place)
I0511 02:12:37.884601 12661 net.cpp:105] Setting up inception_4d/relu_3x3
I0511 02:12:37.884608 12661 net.cpp:112] Top shape: 32 288 14 14 (1806336)
I0511 02:12:37.884613 12661 layer_factory.hpp:74] Creating layer inception_4d/5x5_reduce
I0511 02:12:37.884624 12661 net.cpp:76] Creating Layer inception_4d/5x5_reduce
I0511 02:12:37.884629 12661 net.cpp:372] inception_4d/5x5_reduce <- inception_4c/output_inception_4c/output_0_split_2
I0511 02:12:37.884640 12661 net.cpp:334] inception_4d/5x5_reduce -> inception_4d/5x5_reduce
I0511 02:12:37.884649 12661 net.cpp:105] Setting up inception_4d/5x5_reduce
I0511 02:12:37.884841 12661 net.cpp:112] Top shape: 32 32 14 14 (200704)
I0511 02:12:37.884856 12661 layer_factory.hpp:74] Creating layer inception_4d/relu_5x5_reduce
I0511 02:12:37.884867 12661 net.cpp:76] Creating Layer inception_4d/relu_5x5_reduce
I0511 02:12:37.884873 12661 net.cpp:372] inception_4d/relu_5x5_reduce <- inception_4d/5x5_reduce
I0511 02:12:37.884881 12661 net.cpp:323] inception_4d/relu_5x5_reduce -> inception_4d/5x5_reduce (in-place)
I0511 02:12:37.884888 12661 net.cpp:105] Setting up inception_4d/relu_5x5_reduce
I0511 02:12:37.884894 12661 net.cpp:112] Top shape: 32 32 14 14 (200704)
I0511 02:12:37.884899 12661 layer_factory.hpp:74] Creating layer inception_4d/5x5
I0511 02:12:37.884909 12661 net.cpp:76] Creating Layer inception_4d/5x5
I0511 02:12:37.884915 12661 net.cpp:372] inception_4d/5x5 <- inception_4d/5x5_reduce
I0511 02:12:37.884923 12661 net.cpp:334] inception_4d/5x5 -> inception_4d/5x5
I0511 02:12:37.884932 12661 net.cpp:105] Setting up inception_4d/5x5
I0511 02:12:37.885380 12661 net.cpp:112] Top shape: 32 64 14 14 (401408)
I0511 02:12:37.885393 12661 layer_factory.hpp:74] Creating layer inception_4d/relu_5x5
I0511 02:12:37.885401 12661 net.cpp:76] Creating Layer inception_4d/relu_5x5
I0511 02:12:37.886093 12661 net.cpp:372] inception_4d/relu_5x5 <- inception_4d/5x5
I0511 02:12:37.886133 12661 net.cpp:323] inception_4d/relu_5x5 -> inception_4d/5x5 (in-place)
I0511 02:12:37.886148 12661 net.cpp:105] Setting up inception_4d/relu_5x5
I0511 02:12:37.886158 12661 net.cpp:112] Top shape: 32 64 14 14 (401408)
I0511 02:12:37.886168 12661 layer_factory.hpp:74] Creating layer inception_4d/pool
I0511 02:12:37.886181 12661 net.cpp:76] Creating Layer inception_4d/pool
I0511 02:12:37.886190 12661 net.cpp:372] inception_4d/pool <- inception_4c/output_inception_4c/output_0_split_3
I0511 02:12:37.886204 12661 net.cpp:334] inception_4d/pool -> inception_4d/pool
I0511 02:12:37.886217 12661 net.cpp:105] Setting up inception_4d/pool
I0511 02:12:37.886229 12661 net.cpp:112] Top shape: 32 512 14 14 (3211264)
I0511 02:12:37.886240 12661 layer_factory.hpp:74] Creating layer inception_4d/pool_proj
I0511 02:12:37.886257 12661 net.cpp:76] Creating Layer inception_4d/pool_proj
I0511 02:12:37.886267 12661 net.cpp:372] inception_4d/pool_proj <- inception_4d/pool
I0511 02:12:37.886298 12661 net.cpp:334] inception_4d/pool_proj -> inception_4d/pool_proj
I0511 02:12:37.886315 12661 net.cpp:105] Setting up inception_4d/pool_proj
I0511 02:12:37.886731 12661 net.cpp:112] Top shape: 32 64 14 14 (401408)
I0511 02:12:37.886752 12661 layer_factory.hpp:74] Creating layer inception_4d/relu_pool_proj
I0511 02:12:37.886765 12661 net.cpp:76] Creating Layer inception_4d/relu_pool_proj
I0511 02:12:37.886775 12661 net.cpp:372] inception_4d/relu_pool_proj <- inception_4d/pool_proj
I0511 02:12:37.886791 12661 net.cpp:323] inception_4d/relu_pool_proj -> inception_4d/pool_proj (in-place)
I0511 02:12:37.886806 12661 net.cpp:105] Setting up inception_4d/relu_pool_proj
I0511 02:12:37.886814 12661 net.cpp:112] Top shape: 32 64 14 14 (401408)
I0511 02:12:37.886823 12661 layer_factory.hpp:74] Creating layer inception_4d/output
I0511 02:12:37.886837 12661 net.cpp:76] Creating Layer inception_4d/output
I0511 02:12:37.886845 12661 net.cpp:372] inception_4d/output <- inception_4d/1x1
I0511 02:12:37.886857 12661 net.cpp:372] inception_4d/output <- inception_4d/3x3
I0511 02:12:37.886867 12661 net.cpp:372] inception_4d/output <- inception_4d/5x5
I0511 02:12:37.886878 12661 net.cpp:372] inception_4d/output <- inception_4d/pool_proj
I0511 02:12:37.886889 12661 net.cpp:334] inception_4d/output -> inception_4d/output
I0511 02:12:37.886906 12661 net.cpp:105] Setting up inception_4d/output
I0511 02:12:37.886917 12661 net.cpp:112] Top shape: 32 528 14 14 (3311616)
I0511 02:12:37.886926 12661 layer_factory.hpp:74] Creating layer inception_4d/output_inception_4d/output_0_split
I0511 02:12:37.886939 12661 net.cpp:76] Creating Layer inception_4d/output_inception_4d/output_0_split
I0511 02:12:37.886948 12661 net.cpp:372] inception_4d/output_inception_4d/output_0_split <- inception_4d/output
I0511 02:12:37.886961 12661 net.cpp:334] inception_4d/output_inception_4d/output_0_split -> inception_4d/output_inception_4d/output_0_split_0
I0511 02:12:37.886977 12661 net.cpp:334] inception_4d/output_inception_4d/output_0_split -> inception_4d/output_inception_4d/output_0_split_1
I0511 02:12:37.886993 12661 net.cpp:334] inception_4d/output_inception_4d/output_0_split -> inception_4d/output_inception_4d/output_0_split_2
I0511 02:12:37.887008 12661 net.cpp:334] inception_4d/output_inception_4d/output_0_split -> inception_4d/output_inception_4d/output_0_split_3
I0511 02:12:37.887022 12661 net.cpp:334] inception_4d/output_inception_4d/output_0_split -> inception_4d/output_inception_4d/output_0_split_4
I0511 02:12:37.887037 12661 net.cpp:105] Setting up inception_4d/output_inception_4d/output_0_split
I0511 02:12:37.887051 12661 net.cpp:112] Top shape: 32 528 14 14 (3311616)
I0511 02:12:37.887060 12661 net.cpp:112] Top shape: 32 528 14 14 (3311616)
I0511 02:12:37.887068 12661 net.cpp:112] Top shape: 32 528 14 14 (3311616)
I0511 02:12:37.887076 12661 net.cpp:112] Top shape: 32 528 14 14 (3311616)
I0511 02:12:37.887207 12661 net.cpp:112] Top shape: 32 528 14 14 (3311616)
I0511 02:12:37.887217 12661 layer_factory.hpp:74] Creating layer loss2/ave_pool
I0511 02:12:37.887238 12661 net.cpp:76] Creating Layer loss2/ave_pool
I0511 02:12:37.887246 12661 net.cpp:372] loss2/ave_pool <- inception_4d/output_inception_4d/output_0_split_0
I0511 02:12:37.887259 12661 net.cpp:334] loss2/ave_pool -> loss2/ave_pool
I0511 02:12:37.887269 12661 net.cpp:105] Setting up loss2/ave_pool
I0511 02:12:37.887275 12661 net.cpp:112] Top shape: 32 528 4 4 (270336)
I0511 02:12:37.887281 12661 layer_factory.hpp:74] Creating layer loss2/conv
I0511 02:12:37.887290 12661 net.cpp:76] Creating Layer loss2/conv
I0511 02:12:37.887296 12661 net.cpp:372] loss2/conv <- loss2/ave_pool
I0511 02:12:37.887306 12661 net.cpp:334] loss2/conv -> loss2/conv
I0511 02:12:37.887315 12661 net.cpp:105] Setting up loss2/conv
I0511 02:12:37.887904 12661 net.cpp:112] Top shape: 32 128 4 4 (65536)
I0511 02:12:37.887923 12661 layer_factory.hpp:74] Creating layer loss2/relu_conv
I0511 02:12:37.887933 12661 net.cpp:76] Creating Layer loss2/relu_conv
I0511 02:12:37.887939 12661 net.cpp:372] loss2/relu_conv <- loss2/conv
I0511 02:12:37.887946 12661 net.cpp:323] loss2/relu_conv -> loss2/conv (in-place)
I0511 02:12:37.887954 12661 net.cpp:105] Setting up loss2/relu_conv
I0511 02:12:37.887959 12661 net.cpp:112] Top shape: 32 128 4 4 (65536)
I0511 02:12:37.887965 12661 layer_factory.hpp:74] Creating layer loss2/fc
I0511 02:12:37.887974 12661 net.cpp:76] Creating Layer loss2/fc
I0511 02:12:37.887979 12661 net.cpp:372] loss2/fc <- loss2/conv
I0511 02:12:37.887989 12661 net.cpp:334] loss2/fc -> loss2/fc
I0511 02:12:37.888000 12661 net.cpp:105] Setting up loss2/fc
I0511 02:12:37.905310 12661 net.cpp:112] Top shape: 32 1024 1 1 (32768)
I0511 02:12:37.905354 12661 layer_factory.hpp:74] Creating layer loss2/relu_fc
I0511 02:12:37.905369 12661 net.cpp:76] Creating Layer loss2/relu_fc
I0511 02:12:37.905376 12661 net.cpp:372] loss2/relu_fc <- loss2/fc
I0511 02:12:37.905391 12661 net.cpp:323] loss2/relu_fc -> loss2/fc (in-place)
I0511 02:12:37.905402 12661 net.cpp:105] Setting up loss2/relu_fc
I0511 02:12:37.905408 12661 net.cpp:112] Top shape: 32 1024 1 1 (32768)
I0511 02:12:37.905414 12661 layer_factory.hpp:74] Creating layer loss2/drop_fc
I0511 02:12:37.905423 12661 net.cpp:76] Creating Layer loss2/drop_fc
I0511 02:12:37.905428 12661 net.cpp:372] loss2/drop_fc <- loss2/fc
I0511 02:12:37.905436 12661 net.cpp:323] loss2/drop_fc -> loss2/fc (in-place)
I0511 02:12:37.905442 12661 net.cpp:105] Setting up loss2/drop_fc
I0511 02:12:37.905449 12661 net.cpp:112] Top shape: 32 1024 1 1 (32768)
I0511 02:12:37.905454 12661 layer_factory.hpp:74] Creating layer loss2/classifier
I0511 02:12:37.905468 12661 net.cpp:76] Creating Layer loss2/classifier
I0511 02:12:37.905474 12661 net.cpp:372] loss2/classifier <- loss2/fc
I0511 02:12:37.905483 12661 net.cpp:334] loss2/classifier -> loss2/classifier
I0511 02:12:37.905493 12661 net.cpp:105] Setting up loss2/classifier
I0511 02:12:37.905529 12661 net.cpp:112] Top shape: 32 2 1 1 (64)
I0511 02:12:37.905539 12661 layer_factory.hpp:74] Creating layer loss2/classifier_loss2/classifier_0_split
I0511 02:12:37.905546 12661 net.cpp:76] Creating Layer loss2/classifier_loss2/classifier_0_split
I0511 02:12:37.905552 12661 net.cpp:372] loss2/classifier_loss2/classifier_0_split <- loss2/classifier
I0511 02:12:37.905560 12661 net.cpp:334] loss2/classifier_loss2/classifier_0_split -> loss2/classifier_loss2/classifier_0_split_0
I0511 02:12:37.905570 12661 net.cpp:334] loss2/classifier_loss2/classifier_0_split -> loss2/classifier_loss2/classifier_0_split_1
I0511 02:12:37.905578 12661 net.cpp:105] Setting up loss2/classifier_loss2/classifier_0_split
I0511 02:12:37.905585 12661 net.cpp:112] Top shape: 32 2 1 1 (64)
I0511 02:12:37.905589 12661 net.cpp:112] Top shape: 32 2 1 1 (64)
I0511 02:12:37.905596 12661 layer_factory.hpp:74] Creating layer loss2/loss
I0511 02:12:37.905606 12661 net.cpp:76] Creating Layer loss2/loss
I0511 02:12:37.905611 12661 net.cpp:372] loss2/loss <- loss2/classifier_loss2/classifier_0_split_0
I0511 02:12:37.905619 12661 net.cpp:372] loss2/loss <- label_data_1_split_2
I0511 02:12:37.905629 12661 net.cpp:334] loss2/loss -> loss2/loss1
I0511 02:12:37.905673 12661 net.cpp:105] Setting up loss2/loss
I0511 02:12:37.905681 12661 layer_factory.hpp:74] Creating layer loss2/loss
I0511 02:12:37.905697 12661 net.cpp:112] Top shape: 1 1 1 1 (1)
I0511 02:12:37.905704 12661 net.cpp:118]     with loss weight 0.3
I0511 02:12:37.905720 12661 layer_factory.hpp:74] Creating layer loss2/top-1
I0511 02:12:37.905730 12661 net.cpp:76] Creating Layer loss2/top-1
I0511 02:12:37.905735 12661 net.cpp:372] loss2/top-1 <- loss2/classifier_loss2/classifier_0_split_1
I0511 02:12:37.905742 12661 net.cpp:372] loss2/top-1 <- label_data_1_split_3
I0511 02:12:37.905753 12661 net.cpp:334] loss2/top-1 -> loss2/top-1
I0511 02:12:37.905762 12661 net.cpp:105] Setting up loss2/top-1
I0511 02:12:37.905768 12661 net.cpp:112] Top shape: 1 1 1 1 (1)
I0511 02:12:37.905773 12661 layer_factory.hpp:74] Creating layer inception_4e/1x1
I0511 02:12:37.905784 12661 net.cpp:76] Creating Layer inception_4e/1x1
I0511 02:12:37.905791 12661 net.cpp:372] inception_4e/1x1 <- inception_4d/output_inception_4d/output_0_split_1
I0511 02:12:37.905800 12661 net.cpp:334] inception_4e/1x1 -> inception_4e/1x1
I0511 02:12:37.905809 12661 net.cpp:105] Setting up inception_4e/1x1
I0511 02:12:37.906965 12661 net.cpp:112] Top shape: 32 256 14 14 (1605632)
I0511 02:12:37.906980 12661 layer_factory.hpp:74] Creating layer inception_4e/relu_1x1
I0511 02:12:37.906988 12661 net.cpp:76] Creating Layer inception_4e/relu_1x1
I0511 02:12:37.906997 12661 net.cpp:372] inception_4e/relu_1x1 <- inception_4e/1x1
I0511 02:12:37.907004 12661 net.cpp:323] inception_4e/relu_1x1 -> inception_4e/1x1 (in-place)
I0511 02:12:37.907012 12661 net.cpp:105] Setting up inception_4e/relu_1x1
I0511 02:12:37.907017 12661 net.cpp:112] Top shape: 32 256 14 14 (1605632)
I0511 02:12:37.907023 12661 layer_factory.hpp:74] Creating layer inception_4e/3x3_reduce
I0511 02:12:37.907032 12661 net.cpp:76] Creating Layer inception_4e/3x3_reduce
I0511 02:12:37.907038 12661 net.cpp:372] inception_4e/3x3_reduce <- inception_4d/output_inception_4d/output_0_split_2
I0511 02:12:37.907048 12661 net.cpp:334] inception_4e/3x3_reduce -> inception_4e/3x3_reduce
I0511 02:12:37.907058 12661 net.cpp:105] Setting up inception_4e/3x3_reduce
I0511 02:12:37.907786 12661 net.cpp:112] Top shape: 32 160 14 14 (1003520)
I0511 02:12:37.907801 12661 layer_factory.hpp:74] Creating layer inception_4e/relu_3x3_reduce
I0511 02:12:37.907809 12661 net.cpp:76] Creating Layer inception_4e/relu_3x3_reduce
I0511 02:12:37.907816 12661 net.cpp:372] inception_4e/relu_3x3_reduce <- inception_4e/3x3_reduce
I0511 02:12:37.907826 12661 net.cpp:323] inception_4e/relu_3x3_reduce -> inception_4e/3x3_reduce (in-place)
I0511 02:12:37.907835 12661 net.cpp:105] Setting up inception_4e/relu_3x3_reduce
I0511 02:12:37.907840 12661 net.cpp:112] Top shape: 32 160 14 14 (1003520)
I0511 02:12:37.907845 12661 layer_factory.hpp:74] Creating layer inception_4e/3x3
I0511 02:12:37.907874 12661 net.cpp:76] Creating Layer inception_4e/3x3
I0511 02:12:37.907882 12661 net.cpp:372] inception_4e/3x3 <- inception_4e/3x3_reduce
I0511 02:12:37.907891 12661 net.cpp:334] inception_4e/3x3 -> inception_4e/3x3
I0511 02:12:37.907899 12661 net.cpp:105] Setting up inception_4e/3x3
I0511 02:12:37.911993 12661 net.cpp:112] Top shape: 32 320 14 14 (2007040)
I0511 02:12:37.912014 12661 layer_factory.hpp:74] Creating layer inception_4e/relu_3x3
I0511 02:12:37.912024 12661 net.cpp:76] Creating Layer inception_4e/relu_3x3
I0511 02:12:37.912031 12661 net.cpp:372] inception_4e/relu_3x3 <- inception_4e/3x3
I0511 02:12:37.912039 12661 net.cpp:323] inception_4e/relu_3x3 -> inception_4e/3x3 (in-place)
I0511 02:12:37.912047 12661 net.cpp:105] Setting up inception_4e/relu_3x3
I0511 02:12:37.912053 12661 net.cpp:112] Top shape: 32 320 14 14 (2007040)
I0511 02:12:37.912058 12661 layer_factory.hpp:74] Creating layer inception_4e/5x5_reduce
I0511 02:12:37.912066 12661 net.cpp:76] Creating Layer inception_4e/5x5_reduce
I0511 02:12:37.912072 12661 net.cpp:372] inception_4e/5x5_reduce <- inception_4d/output_inception_4d/output_0_split_3
I0511 02:12:37.912099 12661 net.cpp:334] inception_4e/5x5_reduce -> inception_4e/5x5_reduce
I0511 02:12:37.912111 12661 net.cpp:105] Setting up inception_4e/5x5_reduce
I0511 02:12:37.912259 12661 net.cpp:112] Top shape: 32 32 14 14 (200704)
I0511 02:12:37.912286 12661 layer_factory.hpp:74] Creating layer inception_4e/relu_5x5_reduce
I0511 02:12:37.912294 12661 net.cpp:76] Creating Layer inception_4e/relu_5x5_reduce
I0511 02:12:37.912300 12661 net.cpp:372] inception_4e/relu_5x5_reduce <- inception_4e/5x5_reduce
I0511 02:12:37.912307 12661 net.cpp:323] inception_4e/relu_5x5_reduce -> inception_4e/5x5_reduce (in-place)
I0511 02:12:37.912315 12661 net.cpp:105] Setting up inception_4e/relu_5x5_reduce
I0511 02:12:37.912322 12661 net.cpp:112] Top shape: 32 32 14 14 (200704)
I0511 02:12:37.912327 12661 layer_factory.hpp:74] Creating layer inception_4e/5x5
I0511 02:12:37.912338 12661 net.cpp:76] Creating Layer inception_4e/5x5
I0511 02:12:37.912343 12661 net.cpp:372] inception_4e/5x5 <- inception_4e/5x5_reduce
I0511 02:12:37.912353 12661 net.cpp:334] inception_4e/5x5 -> inception_4e/5x5
I0511 02:12:37.912360 12661 net.cpp:105] Setting up inception_4e/5x5
I0511 02:12:37.913220 12661 net.cpp:112] Top shape: 32 128 14 14 (802816)
I0511 02:12:37.913238 12661 layer_factory.hpp:74] Creating layer inception_4e/relu_5x5
I0511 02:12:37.913244 12661 net.cpp:76] Creating Layer inception_4e/relu_5x5
I0511 02:12:37.913251 12661 net.cpp:372] inception_4e/relu_5x5 <- inception_4e/5x5
I0511 02:12:37.913259 12661 net.cpp:323] inception_4e/relu_5x5 -> inception_4e/5x5 (in-place)
I0511 02:12:37.913265 12661 net.cpp:105] Setting up inception_4e/relu_5x5
I0511 02:12:37.913283 12661 net.cpp:112] Top shape: 32 128 14 14 (802816)
I0511 02:12:37.913290 12661 layer_factory.hpp:74] Creating layer inception_4e/pool
I0511 02:12:37.913298 12661 net.cpp:76] Creating Layer inception_4e/pool
I0511 02:12:37.913305 12661 net.cpp:372] inception_4e/pool <- inception_4d/output_inception_4d/output_0_split_4
I0511 02:12:37.913317 12661 net.cpp:334] inception_4e/pool -> inception_4e/pool
I0511 02:12:37.913327 12661 net.cpp:105] Setting up inception_4e/pool
I0511 02:12:37.913336 12661 net.cpp:112] Top shape: 32 528 14 14 (3311616)
I0511 02:12:37.913341 12661 layer_factory.hpp:74] Creating layer inception_4e/pool_proj
I0511 02:12:37.913350 12661 net.cpp:76] Creating Layer inception_4e/pool_proj
I0511 02:12:37.913355 12661 net.cpp:372] inception_4e/pool_proj <- inception_4e/pool
I0511 02:12:37.913365 12661 net.cpp:334] inception_4e/pool_proj -> inception_4e/pool_proj
I0511 02:12:37.913375 12661 net.cpp:105] Setting up inception_4e/pool_proj
I0511 02:12:37.913949 12661 net.cpp:112] Top shape: 32 128 14 14 (802816)
I0511 02:12:37.913964 12661 layer_factory.hpp:74] Creating layer inception_4e/relu_pool_proj
I0511 02:12:37.913971 12661 net.cpp:76] Creating Layer inception_4e/relu_pool_proj
I0511 02:12:37.913977 12661 net.cpp:372] inception_4e/relu_pool_proj <- inception_4e/pool_proj
I0511 02:12:37.913985 12661 net.cpp:323] inception_4e/relu_pool_proj -> inception_4e/pool_proj (in-place)
I0511 02:12:37.913995 12661 net.cpp:105] Setting up inception_4e/relu_pool_proj
I0511 02:12:37.914000 12661 net.cpp:112] Top shape: 32 128 14 14 (802816)
I0511 02:12:37.914005 12661 layer_factory.hpp:74] Creating layer inception_4e/output
I0511 02:12:37.914013 12661 net.cpp:76] Creating Layer inception_4e/output
I0511 02:12:37.914019 12661 net.cpp:372] inception_4e/output <- inception_4e/1x1
I0511 02:12:37.914026 12661 net.cpp:372] inception_4e/output <- inception_4e/3x3
I0511 02:12:37.914032 12661 net.cpp:372] inception_4e/output <- inception_4e/5x5
I0511 02:12:37.914038 12661 net.cpp:372] inception_4e/output <- inception_4e/pool_proj
I0511 02:12:37.914046 12661 net.cpp:334] inception_4e/output -> inception_4e/output
I0511 02:12:37.914053 12661 net.cpp:105] Setting up inception_4e/output
I0511 02:12:37.914060 12661 net.cpp:112] Top shape: 32 832 14 14 (5218304)
I0511 02:12:37.914065 12661 layer_factory.hpp:74] Creating layer pool4/3x3_s2
I0511 02:12:37.914072 12661 net.cpp:76] Creating Layer pool4/3x3_s2
I0511 02:12:37.914091 12661 net.cpp:372] pool4/3x3_s2 <- inception_4e/output
I0511 02:12:37.914103 12661 net.cpp:334] pool4/3x3_s2 -> pool4/3x3_s2
I0511 02:12:37.914113 12661 net.cpp:105] Setting up pool4/3x3_s2
I0511 02:12:37.914119 12661 net.cpp:112] Top shape: 32 832 7 7 (1304576)
I0511 02:12:37.914125 12661 layer_factory.hpp:74] Creating layer pool4/3x3_s2_pool4/3x3_s2_0_split
I0511 02:12:37.914132 12661 net.cpp:76] Creating Layer pool4/3x3_s2_pool4/3x3_s2_0_split
I0511 02:12:37.914139 12661 net.cpp:372] pool4/3x3_s2_pool4/3x3_s2_0_split <- pool4/3x3_s2
I0511 02:12:37.914147 12661 net.cpp:334] pool4/3x3_s2_pool4/3x3_s2_0_split -> pool4/3x3_s2_pool4/3x3_s2_0_split_0
I0511 02:12:37.914156 12661 net.cpp:334] pool4/3x3_s2_pool4/3x3_s2_0_split -> pool4/3x3_s2_pool4/3x3_s2_0_split_1
I0511 02:12:37.914165 12661 net.cpp:334] pool4/3x3_s2_pool4/3x3_s2_0_split -> pool4/3x3_s2_pool4/3x3_s2_0_split_2
I0511 02:12:37.914175 12661 net.cpp:334] pool4/3x3_s2_pool4/3x3_s2_0_split -> pool4/3x3_s2_pool4/3x3_s2_0_split_3
I0511 02:12:37.914181 12661 net.cpp:105] Setting up pool4/3x3_s2_pool4/3x3_s2_0_split
I0511 02:12:37.914188 12661 net.cpp:112] Top shape: 32 832 7 7 (1304576)
I0511 02:12:37.914193 12661 net.cpp:112] Top shape: 32 832 7 7 (1304576)
I0511 02:12:37.914198 12661 net.cpp:112] Top shape: 32 832 7 7 (1304576)
I0511 02:12:37.914203 12661 net.cpp:112] Top shape: 32 832 7 7 (1304576)
I0511 02:12:37.914208 12661 layer_factory.hpp:74] Creating layer inception_5a/1x1
I0511 02:12:37.914216 12661 net.cpp:76] Creating Layer inception_5a/1x1
I0511 02:12:37.914222 12661 net.cpp:372] inception_5a/1x1 <- pool4/3x3_s2_pool4/3x3_s2_0_split_0
I0511 02:12:37.914232 12661 net.cpp:334] inception_5a/1x1 -> inception_5a/1x1
I0511 02:12:37.914242 12661 net.cpp:105] Setting up inception_5a/1x1
I0511 02:12:37.916035 12661 net.cpp:112] Top shape: 32 256 7 7 (401408)
I0511 02:12:37.916054 12661 layer_factory.hpp:74] Creating layer inception_5a/relu_1x1
I0511 02:12:37.916062 12661 net.cpp:76] Creating Layer inception_5a/relu_1x1
I0511 02:12:37.916088 12661 net.cpp:372] inception_5a/relu_1x1 <- inception_5a/1x1
I0511 02:12:37.916100 12661 net.cpp:323] inception_5a/relu_1x1 -> inception_5a/1x1 (in-place)
I0511 02:12:37.916110 12661 net.cpp:105] Setting up inception_5a/relu_1x1
I0511 02:12:37.916115 12661 net.cpp:112] Top shape: 32 256 7 7 (401408)
I0511 02:12:37.916121 12661 layer_factory.hpp:74] Creating layer inception_5a/3x3_reduce
I0511 02:12:37.916129 12661 net.cpp:76] Creating Layer inception_5a/3x3_reduce
I0511 02:12:37.916136 12661 net.cpp:372] inception_5a/3x3_reduce <- pool4/3x3_s2_pool4/3x3_s2_0_split_1
I0511 02:12:37.916146 12661 net.cpp:334] inception_5a/3x3_reduce -> inception_5a/3x3_reduce
I0511 02:12:37.916156 12661 net.cpp:105] Setting up inception_5a/3x3_reduce
I0511 02:12:37.917289 12661 net.cpp:112] Top shape: 32 160 7 7 (250880)
I0511 02:12:37.917304 12661 layer_factory.hpp:74] Creating layer inception_5a/relu_3x3_reduce
I0511 02:12:37.917315 12661 net.cpp:76] Creating Layer inception_5a/relu_3x3_reduce
I0511 02:12:37.917320 12661 net.cpp:372] inception_5a/relu_3x3_reduce <- inception_5a/3x3_reduce
I0511 02:12:37.917328 12661 net.cpp:323] inception_5a/relu_3x3_reduce -> inception_5a/3x3_reduce (in-place)
I0511 02:12:37.917336 12661 net.cpp:105] Setting up inception_5a/relu_3x3_reduce
I0511 02:12:37.917341 12661 net.cpp:112] Top shape: 32 160 7 7 (250880)
I0511 02:12:37.917347 12661 layer_factory.hpp:74] Creating layer inception_5a/3x3
I0511 02:12:37.917357 12661 net.cpp:76] Creating Layer inception_5a/3x3
I0511 02:12:37.917363 12661 net.cpp:372] inception_5a/3x3 <- inception_5a/3x3_reduce
I0511 02:12:37.917371 12661 net.cpp:334] inception_5a/3x3 -> inception_5a/3x3
I0511 02:12:37.917381 12661 net.cpp:105] Setting up inception_5a/3x3
I0511 02:12:37.921212 12661 net.cpp:112] Top shape: 32 320 7 7 (501760)
I0511 02:12:37.921236 12661 layer_factory.hpp:74] Creating layer inception_5a/relu_3x3
I0511 02:12:37.921244 12661 net.cpp:76] Creating Layer inception_5a/relu_3x3
I0511 02:12:37.921252 12661 net.cpp:372] inception_5a/relu_3x3 <- inception_5a/3x3
I0511 02:12:37.921298 12661 net.cpp:323] inception_5a/relu_3x3 -> inception_5a/3x3 (in-place)
I0511 02:12:37.921309 12661 net.cpp:105] Setting up inception_5a/relu_3x3
I0511 02:12:37.921315 12661 net.cpp:112] Top shape: 32 320 7 7 (501760)
I0511 02:12:37.921321 12661 layer_factory.hpp:74] Creating layer inception_5a/5x5_reduce
I0511 02:12:37.921330 12661 net.cpp:76] Creating Layer inception_5a/5x5_reduce
I0511 02:12:37.921336 12661 net.cpp:372] inception_5a/5x5_reduce <- pool4/3x3_s2_pool4/3x3_s2_0_split_2
I0511 02:12:37.921347 12661 net.cpp:334] inception_5a/5x5_reduce -> inception_5a/5x5_reduce
I0511 02:12:37.921357 12661 net.cpp:105] Setting up inception_5a/5x5_reduce
I0511 02:12:37.921586 12661 net.cpp:112] Top shape: 32 32 7 7 (50176)
I0511 02:12:37.921598 12661 layer_factory.hpp:74] Creating layer inception_5a/relu_5x5_reduce
I0511 02:12:37.921608 12661 net.cpp:76] Creating Layer inception_5a/relu_5x5_reduce
I0511 02:12:37.921614 12661 net.cpp:372] inception_5a/relu_5x5_reduce <- inception_5a/5x5_reduce
I0511 02:12:37.921622 12661 net.cpp:323] inception_5a/relu_5x5_reduce -> inception_5a/5x5_reduce (in-place)
I0511 02:12:37.921629 12661 net.cpp:105] Setting up inception_5a/relu_5x5_reduce
I0511 02:12:37.921635 12661 net.cpp:112] Top shape: 32 32 7 7 (50176)
I0511 02:12:37.921640 12661 layer_factory.hpp:74] Creating layer inception_5a/5x5
I0511 02:12:37.921648 12661 net.cpp:76] Creating Layer inception_5a/5x5
I0511 02:12:37.921654 12661 net.cpp:372] inception_5a/5x5 <- inception_5a/5x5_reduce
I0511 02:12:37.921664 12661 net.cpp:334] inception_5a/5x5 -> inception_5a/5x5
I0511 02:12:37.921674 12661 net.cpp:105] Setting up inception_5a/5x5
I0511 02:12:37.922580 12661 net.cpp:112] Top shape: 32 128 7 7 (200704)
I0511 02:12:37.922603 12661 layer_factory.hpp:74] Creating layer inception_5a/relu_5x5
I0511 02:12:37.922615 12661 net.cpp:76] Creating Layer inception_5a/relu_5x5
I0511 02:12:37.923040 12661 net.cpp:372] inception_5a/relu_5x5 <- inception_5a/5x5
I0511 02:12:37.923050 12661 net.cpp:323] inception_5a/relu_5x5 -> inception_5a/5x5 (in-place)
I0511 02:12:37.923059 12661 net.cpp:105] Setting up inception_5a/relu_5x5
I0511 02:12:37.923065 12661 net.cpp:112] Top shape: 32 128 7 7 (200704)
I0511 02:12:37.923071 12661 layer_factory.hpp:74] Creating layer inception_5a/pool
I0511 02:12:37.923079 12661 net.cpp:76] Creating Layer inception_5a/pool
I0511 02:12:37.923086 12661 net.cpp:372] inception_5a/pool <- pool4/3x3_s2_pool4/3x3_s2_0_split_3
I0511 02:12:37.923099 12661 net.cpp:334] inception_5a/pool -> inception_5a/pool
I0511 02:12:37.923128 12661 net.cpp:105] Setting up inception_5a/pool
I0511 02:12:37.923140 12661 net.cpp:112] Top shape: 32 832 7 7 (1304576)
I0511 02:12:37.923146 12661 layer_factory.hpp:74] Creating layer inception_5a/pool_proj
I0511 02:12:37.923156 12661 net.cpp:76] Creating Layer inception_5a/pool_proj
I0511 02:12:37.923161 12661 net.cpp:372] inception_5a/pool_proj <- inception_5a/pool
I0511 02:12:37.923172 12661 net.cpp:334] inception_5a/pool_proj -> inception_5a/pool_proj
I0511 02:12:37.923182 12661 net.cpp:105] Setting up inception_5a/pool_proj
I0511 02:12:37.924100 12661 net.cpp:112] Top shape: 32 128 7 7 (200704)
I0511 02:12:37.924115 12661 layer_factory.hpp:74] Creating layer inception_5a/relu_pool_proj
I0511 02:12:37.924126 12661 net.cpp:76] Creating Layer inception_5a/relu_pool_proj
I0511 02:12:37.924134 12661 net.cpp:372] inception_5a/relu_pool_proj <- inception_5a/pool_proj
I0511 02:12:37.924140 12661 net.cpp:323] inception_5a/relu_pool_proj -> inception_5a/pool_proj (in-place)
I0511 02:12:37.924149 12661 net.cpp:105] Setting up inception_5a/relu_pool_proj
I0511 02:12:37.924154 12661 net.cpp:112] Top shape: 32 128 7 7 (200704)
I0511 02:12:37.924160 12661 layer_factory.hpp:74] Creating layer inception_5a/output
I0511 02:12:37.924168 12661 net.cpp:76] Creating Layer inception_5a/output
I0511 02:12:37.924173 12661 net.cpp:372] inception_5a/output <- inception_5a/1x1
I0511 02:12:37.924180 12661 net.cpp:372] inception_5a/output <- inception_5a/3x3
I0511 02:12:37.924186 12661 net.cpp:372] inception_5a/output <- inception_5a/5x5
I0511 02:12:37.924211 12661 net.cpp:372] inception_5a/output <- inception_5a/pool_proj
I0511 02:12:37.924222 12661 net.cpp:334] inception_5a/output -> inception_5a/output
I0511 02:12:37.924232 12661 net.cpp:105] Setting up inception_5a/output
I0511 02:12:37.924238 12661 net.cpp:112] Top shape: 32 832 7 7 (1304576)
I0511 02:12:37.924244 12661 layer_factory.hpp:74] Creating layer inception_5a/output_inception_5a/output_0_split
I0511 02:12:37.924252 12661 net.cpp:76] Creating Layer inception_5a/output_inception_5a/output_0_split
I0511 02:12:37.924258 12661 net.cpp:372] inception_5a/output_inception_5a/output_0_split <- inception_5a/output
I0511 02:12:37.924280 12661 net.cpp:334] inception_5a/output_inception_5a/output_0_split -> inception_5a/output_inception_5a/output_0_split_0
I0511 02:12:37.924291 12661 net.cpp:334] inception_5a/output_inception_5a/output_0_split -> inception_5a/output_inception_5a/output_0_split_1
I0511 02:12:37.924304 12661 net.cpp:334] inception_5a/output_inception_5a/output_0_split -> inception_5a/output_inception_5a/output_0_split_2
I0511 02:12:37.924317 12661 net.cpp:334] inception_5a/output_inception_5a/output_0_split -> inception_5a/output_inception_5a/output_0_split_3
I0511 02:12:37.924329 12661 net.cpp:105] Setting up inception_5a/output_inception_5a/output_0_split
I0511 02:12:37.924336 12661 net.cpp:112] Top shape: 32 832 7 7 (1304576)
I0511 02:12:37.924341 12661 net.cpp:112] Top shape: 32 832 7 7 (1304576)
I0511 02:12:37.924346 12661 net.cpp:112] Top shape: 32 832 7 7 (1304576)
I0511 02:12:37.924351 12661 net.cpp:112] Top shape: 32 832 7 7 (1304576)
I0511 02:12:37.924356 12661 layer_factory.hpp:74] Creating layer inception_5b/1x1
I0511 02:12:37.924365 12661 net.cpp:76] Creating Layer inception_5b/1x1
I0511 02:12:37.924376 12661 net.cpp:372] inception_5b/1x1 <- inception_5a/output_inception_5a/output_0_split_0
I0511 02:12:37.924384 12661 net.cpp:334] inception_5b/1x1 -> inception_5b/1x1
I0511 02:12:37.924393 12661 net.cpp:105] Setting up inception_5b/1x1
I0511 02:12:37.927068 12661 net.cpp:112] Top shape: 32 384 7 7 (602112)
I0511 02:12:37.927088 12661 layer_factory.hpp:74] Creating layer inception_5b/relu_1x1
I0511 02:12:37.927096 12661 net.cpp:76] Creating Layer inception_5b/relu_1x1
I0511 02:12:37.927105 12661 net.cpp:372] inception_5b/relu_1x1 <- inception_5b/1x1
I0511 02:12:37.927112 12661 net.cpp:323] inception_5b/relu_1x1 -> inception_5b/1x1 (in-place)
I0511 02:12:37.927120 12661 net.cpp:105] Setting up inception_5b/relu_1x1
I0511 02:12:37.927126 12661 net.cpp:112] Top shape: 32 384 7 7 (602112)
I0511 02:12:37.927131 12661 layer_factory.hpp:74] Creating layer inception_5b/3x3_reduce
I0511 02:12:37.927140 12661 net.cpp:76] Creating Layer inception_5b/3x3_reduce
I0511 02:12:37.927145 12661 net.cpp:372] inception_5b/3x3_reduce <- inception_5a/output_inception_5a/output_0_split_1
I0511 02:12:37.927157 12661 net.cpp:334] inception_5b/3x3_reduce -> inception_5b/3x3_reduce
I0511 02:12:37.927167 12661 net.cpp:105] Setting up inception_5b/3x3_reduce
I0511 02:12:37.928519 12661 net.cpp:112] Top shape: 32 192 7 7 (301056)
I0511 02:12:37.928537 12661 layer_factory.hpp:74] Creating layer inception_5b/relu_3x3_reduce
I0511 02:12:37.928546 12661 net.cpp:76] Creating Layer inception_5b/relu_3x3_reduce
I0511 02:12:37.928552 12661 net.cpp:372] inception_5b/relu_3x3_reduce <- inception_5b/3x3_reduce
I0511 02:12:37.928560 12661 net.cpp:323] inception_5b/relu_3x3_reduce -> inception_5b/3x3_reduce (in-place)
I0511 02:12:37.928568 12661 net.cpp:105] Setting up inception_5b/relu_3x3_reduce
I0511 02:12:37.928573 12661 net.cpp:112] Top shape: 32 192 7 7 (301056)
I0511 02:12:37.928580 12661 layer_factory.hpp:74] Creating layer inception_5b/3x3
I0511 02:12:37.928591 12661 net.cpp:76] Creating Layer inception_5b/3x3
I0511 02:12:37.928596 12661 net.cpp:372] inception_5b/3x3 <- inception_5b/3x3_reduce
I0511 02:12:37.928604 12661 net.cpp:334] inception_5b/3x3 -> inception_5b/3x3
I0511 02:12:37.928613 12661 net.cpp:105] Setting up inception_5b/3x3
I0511 02:12:37.934644 12661 net.cpp:112] Top shape: 32 384 7 7 (602112)
I0511 02:12:37.934674 12661 layer_factory.hpp:74] Creating layer inception_5b/relu_3x3
I0511 02:12:37.934689 12661 net.cpp:76] Creating Layer inception_5b/relu_3x3
I0511 02:12:37.934697 12661 net.cpp:372] inception_5b/relu_3x3 <- inception_5b/3x3
I0511 02:12:37.934705 12661 net.cpp:323] inception_5b/relu_3x3 -> inception_5b/3x3 (in-place)
I0511 02:12:37.934715 12661 net.cpp:105] Setting up inception_5b/relu_3x3
I0511 02:12:37.934720 12661 net.cpp:112] Top shape: 32 384 7 7 (602112)
I0511 02:12:37.934725 12661 layer_factory.hpp:74] Creating layer inception_5b/5x5_reduce
I0511 02:12:37.934741 12661 net.cpp:76] Creating Layer inception_5b/5x5_reduce
I0511 02:12:37.934748 12661 net.cpp:372] inception_5b/5x5_reduce <- inception_5a/output_inception_5a/output_0_split_2
I0511 02:12:37.934757 12661 net.cpp:334] inception_5b/5x5_reduce -> inception_5b/5x5_reduce
I0511 02:12:37.934767 12661 net.cpp:105] Setting up inception_5b/5x5_reduce
I0511 02:12:37.935119 12661 net.cpp:112] Top shape: 32 48 7 7 (75264)
I0511 02:12:37.935133 12661 layer_factory.hpp:74] Creating layer inception_5b/relu_5x5_reduce
I0511 02:12:37.935143 12661 net.cpp:76] Creating Layer inception_5b/relu_5x5_reduce
I0511 02:12:37.935150 12661 net.cpp:372] inception_5b/relu_5x5_reduce <- inception_5b/5x5_reduce
I0511 02:12:37.935158 12661 net.cpp:323] inception_5b/relu_5x5_reduce -> inception_5b/5x5_reduce (in-place)
I0511 02:12:37.935165 12661 net.cpp:105] Setting up inception_5b/relu_5x5_reduce
I0511 02:12:37.935170 12661 net.cpp:112] Top shape: 32 48 7 7 (75264)
I0511 02:12:37.935176 12661 layer_factory.hpp:74] Creating layer inception_5b/5x5
I0511 02:12:37.935187 12661 net.cpp:76] Creating Layer inception_5b/5x5
I0511 02:12:37.935194 12661 net.cpp:372] inception_5b/5x5 <- inception_5b/5x5_reduce
I0511 02:12:37.935201 12661 net.cpp:334] inception_5b/5x5 -> inception_5b/5x5
I0511 02:12:37.935211 12661 net.cpp:105] Setting up inception_5b/5x5
I0511 02:12:37.936523 12661 net.cpp:112] Top shape: 32 128 7 7 (200704)
I0511 02:12:37.936538 12661 layer_factory.hpp:74] Creating layer inception_5b/relu_5x5
I0511 02:12:37.936547 12661 net.cpp:76] Creating Layer inception_5b/relu_5x5
I0511 02:12:37.936553 12661 net.cpp:372] inception_5b/relu_5x5 <- inception_5b/5x5
I0511 02:12:37.936563 12661 net.cpp:323] inception_5b/relu_5x5 -> inception_5b/5x5 (in-place)
I0511 02:12:37.936571 12661 net.cpp:105] Setting up inception_5b/relu_5x5
I0511 02:12:37.936578 12661 net.cpp:112] Top shape: 32 128 7 7 (200704)
I0511 02:12:37.936583 12661 layer_factory.hpp:74] Creating layer inception_5b/pool
I0511 02:12:37.936591 12661 net.cpp:76] Creating Layer inception_5b/pool
I0511 02:12:37.936597 12661 net.cpp:372] inception_5b/pool <- inception_5a/output_inception_5a/output_0_split_3
I0511 02:12:37.936605 12661 net.cpp:334] inception_5b/pool -> inception_5b/pool
I0511 02:12:37.936614 12661 net.cpp:105] Setting up inception_5b/pool
I0511 02:12:37.936622 12661 net.cpp:112] Top shape: 32 832 7 7 (1304576)
I0511 02:12:37.936628 12661 layer_factory.hpp:74] Creating layer inception_5b/pool_proj
I0511 02:12:37.936640 12661 net.cpp:76] Creating Layer inception_5b/pool_proj
I0511 02:12:37.936646 12661 net.cpp:372] inception_5b/pool_proj <- inception_5b/pool
I0511 02:12:37.936655 12661 net.cpp:334] inception_5b/pool_proj -> inception_5b/pool_proj
I0511 02:12:37.936666 12661 net.cpp:105] Setting up inception_5b/pool_proj
I0511 02:12:37.937566 12661 net.cpp:112] Top shape: 32 128 7 7 (200704)
I0511 02:12:37.937582 12661 layer_factory.hpp:74] Creating layer inception_5b/relu_pool_proj
I0511 02:12:37.937589 12661 net.cpp:76] Creating Layer inception_5b/relu_pool_proj
I0511 02:12:37.937597 12661 net.cpp:372] inception_5b/relu_pool_proj <- inception_5b/pool_proj
I0511 02:12:37.937605 12661 net.cpp:323] inception_5b/relu_pool_proj -> inception_5b/pool_proj (in-place)
I0511 02:12:37.937614 12661 net.cpp:105] Setting up inception_5b/relu_pool_proj
I0511 02:12:37.937620 12661 net.cpp:112] Top shape: 32 128 7 7 (200704)
I0511 02:12:37.937625 12661 layer_factory.hpp:74] Creating layer inception_5b/output
I0511 02:12:37.937661 12661 net.cpp:76] Creating Layer inception_5b/output
I0511 02:12:37.937669 12661 net.cpp:372] inception_5b/output <- inception_5b/1x1
I0511 02:12:37.937676 12661 net.cpp:372] inception_5b/output <- inception_5b/3x3
I0511 02:12:37.937682 12661 net.cpp:372] inception_5b/output <- inception_5b/5x5
I0511 02:12:37.937690 12661 net.cpp:372] inception_5b/output <- inception_5b/pool_proj
I0511 02:12:37.937696 12661 net.cpp:334] inception_5b/output -> inception_5b/output
I0511 02:12:37.937705 12661 net.cpp:105] Setting up inception_5b/output
I0511 02:12:37.937711 12661 net.cpp:112] Top shape: 32 1024 7 7 (1605632)
I0511 02:12:37.937717 12661 layer_factory.hpp:74] Creating layer pool5/7x7_s1
I0511 02:12:37.937727 12661 net.cpp:76] Creating Layer pool5/7x7_s1
I0511 02:12:37.937733 12661 net.cpp:372] pool5/7x7_s1 <- inception_5b/output
I0511 02:12:37.937742 12661 net.cpp:334] pool5/7x7_s1 -> pool5/7x7_s1
I0511 02:12:37.937750 12661 net.cpp:105] Setting up pool5/7x7_s1
I0511 02:12:37.937757 12661 net.cpp:112] Top shape: 32 1024 1 1 (32768)
I0511 02:12:37.937762 12661 layer_factory.hpp:74] Creating layer pool5/drop_7x7_s1
I0511 02:12:37.937772 12661 net.cpp:76] Creating Layer pool5/drop_7x7_s1
I0511 02:12:37.937777 12661 net.cpp:372] pool5/drop_7x7_s1 <- pool5/7x7_s1
I0511 02:12:37.937786 12661 net.cpp:323] pool5/drop_7x7_s1 -> pool5/7x7_s1 (in-place)
I0511 02:12:37.937794 12661 net.cpp:105] Setting up pool5/drop_7x7_s1
I0511 02:12:37.937800 12661 net.cpp:112] Top shape: 32 1024 1 1 (32768)
I0511 02:12:37.937806 12661 layer_factory.hpp:74] Creating layer loss3/classifier
I0511 02:12:37.937815 12661 net.cpp:76] Creating Layer loss3/classifier
I0511 02:12:37.937821 12661 net.cpp:372] loss3/classifier <- pool5/7x7_s1
I0511 02:12:37.937832 12661 net.cpp:334] loss3/classifier -> loss3/classifier
I0511 02:12:37.937841 12661 net.cpp:105] Setting up loss3/classifier
I0511 02:12:37.937872 12661 net.cpp:112] Top shape: 32 2 1 1 (64)
I0511 02:12:37.937886 12661 layer_factory.hpp:74] Creating layer loss3/classifier_loss3/classifier_0_split
I0511 02:12:37.937896 12661 net.cpp:76] Creating Layer loss3/classifier_loss3/classifier_0_split
I0511 02:12:37.937902 12661 net.cpp:372] loss3/classifier_loss3/classifier_0_split <- loss3/classifier
I0511 02:12:37.937909 12661 net.cpp:334] loss3/classifier_loss3/classifier_0_split -> loss3/classifier_loss3/classifier_0_split_0
I0511 02:12:37.937922 12661 net.cpp:334] loss3/classifier_loss3/classifier_0_split -> loss3/classifier_loss3/classifier_0_split_1
I0511 02:12:37.937930 12661 net.cpp:105] Setting up loss3/classifier_loss3/classifier_0_split
I0511 02:12:37.937937 12661 net.cpp:112] Top shape: 32 2 1 1 (64)
I0511 02:12:37.937961 12661 net.cpp:112] Top shape: 32 2 1 1 (64)
I0511 02:12:37.937968 12661 layer_factory.hpp:74] Creating layer loss3/loss3
I0511 02:12:37.937976 12661 net.cpp:76] Creating Layer loss3/loss3
I0511 02:12:37.937983 12661 net.cpp:372] loss3/loss3 <- loss3/classifier_loss3/classifier_0_split_0
I0511 02:12:37.937994 12661 net.cpp:372] loss3/loss3 <- label_data_1_split_4
I0511 02:12:37.938004 12661 net.cpp:334] loss3/loss3 -> loss3/loss3
I0511 02:12:37.938014 12661 net.cpp:105] Setting up loss3/loss3
I0511 02:12:37.938020 12661 layer_factory.hpp:74] Creating layer loss3/loss3
I0511 02:12:37.938033 12661 net.cpp:112] Top shape: 1 1 1 1 (1)
I0511 02:12:37.938040 12661 net.cpp:118]     with loss weight 1
I0511 02:12:37.938056 12661 layer_factory.hpp:74] Creating layer loss3/top-1
I0511 02:12:37.938068 12661 net.cpp:76] Creating Layer loss3/top-1
I0511 02:12:37.938074 12661 net.cpp:372] loss3/top-1 <- loss3/classifier_loss3/classifier_0_split_1
I0511 02:12:37.938081 12661 net.cpp:372] loss3/top-1 <- label_data_1_split_5
I0511 02:12:37.938088 12661 net.cpp:334] loss3/top-1 -> loss3/top-1
I0511 02:12:37.938097 12661 net.cpp:105] Setting up loss3/top-1
I0511 02:12:37.938103 12661 net.cpp:112] Top shape: 1 1 1 1 (1)
I0511 02:12:37.938108 12661 net.cpp:165] loss3/top-1 does not need backward computation.
I0511 02:12:37.938113 12661 net.cpp:163] loss3/loss3 needs backward computation.
I0511 02:12:37.938128 12661 net.cpp:163] loss3/classifier_loss3/classifier_0_split needs backward computation.
I0511 02:12:37.938135 12661 net.cpp:163] loss3/classifier needs backward computation.
I0511 02:12:37.938140 12661 net.cpp:163] pool5/drop_7x7_s1 needs backward computation.
…
