…
I0509 23:29:15.406023 24549 net.cpp:253] The NetState phase (0) differed from the phase (1) specified by a rule in layer loss3/top-1
I0509 23:29:15.407418 24549 net.cpp:42] Initializing net from parameters: 
name: "GoogleNet"
state {
  phase: TRAIN
}
layer {
  name: "data"
  type: "Data"
  top: "data"
  top: "label"
  include {
    phase: TRAIN
  }
  transform_param {
    mirror: true
    crop_size: 224
    mean_value: 104
    mean_value: 117
    mean_value: 123
  }
  data_param {
    source: "train_lmdb"
    batch_size: 32
    backend: LMDB
  }
}
layer {
  name: "conv1/7x7_s2"
  type: "Convolution"
  bottom: "data"
  top: "conv1/7x7_s2"
  param {
    lr_mult: 1
    decay_mult: 1
  }
  param {
    lr_mult: 2
    decay_mult: 0
  }
  convolution_param {
    num_output: 64
    pad: 3
    kernel_size: 7
    stride: 2
    weight_filler {
      type: "xavier"
      std: 0.1
    }
    bias_filler {
      type: "constant"
      value: 0.2
    }
  }
}
layer {
  name: "conv1/relu_7x7"
  type: "ReLU"
  bottom: "conv1/7x7_s2"
  top: "conv1/7x7_s2"
}
layer {
  name: "pool1/3x3_s2"
  type: "Pooling"
  bottom: "conv1/7x7_s2"
  top: "pool1/3x3_s2"
  pooling_param {
    pool: MAX
    kernel_size: 3
    stride: 2
  }
}
layer {
  name: "pool1/norm1"
  type: "LRN"
  bottom: "pool1/3x3_s2"
  top: "pool1/norm1"
  lrn_param {
    local_size: 5
    alpha: 0.0001
    beta: 0.75
  }
}
layer {
  name: "conv2/3x3_reduce"
  type: "Convolution"
  bottom: "pool1/norm1"
  top: "conv2/3x3_reduce"
  param {
    lr_mult: 1
    decay_mult: 1
  }
  param {
    lr_mult: 2
    decay_mult: 0
  }
  convolution_param {
    num_output: 64
    kernel_size: 1
    weight_filler {
      type: "xavier"
      std: 0.1
    }
    bias_filler {
      type: "constant"
      value: 0.2
    }
  }
}
layer {
  name: "conv2/relu_3x3_reduce"
  type: "ReLU"
  bottom: "conv2/3x3_reduce"
  top: "conv2/3x3_reduce"
}
layer {
  name: "conv2/3x3"
  type: "Convolution"
  bottom: "conv2/3x3_reduce"
  top: "conv2/3x3"
  param {
    lr_mult: 1
    decay_mult: 1
  }
  param {
    lr_mult: 2
    decay_mult: 0
  }
  convolution_param {
    num_output: 192
    pad: 1
    kernel_size: 3
    weight_filler {
      type: "xavier"
      std: 0.03
    }
    bias_filler {
      type: "constant"
      value: 0.2
    }
  }
}
layer {
  name: "conv2/relu_3x3"
  type: "ReLU"
  bottom: "conv2/3x3"
  top: "conv2/3x3"
}
layer {
  name: "conv2/norm2"
  type: "LRN"
  bottom: "conv2/3x3"
  top: "conv2/norm2"
  lrn_param {
    local_size: 5
    alpha: 0.0001
    beta: 0.75
  }
}
layer {
  name: "pool2/3x3_s2"
  type: "Pooling"
  bottom: "conv2/norm2"
  top: "pool2/3x3_s2"
  pooling_param {
    pool: MAX
    kernel_size: 3
    stride: 2
  }
}
layer {
  name: "inception_3a/1x1"
  type: "Convolution"
  bottom: "pool2/3x3_s2"
  top: "inception_3a/1x1"
  param {
    lr_mult: 1
    decay_mult: 1
  }
  param {
    lr_mult: 2
    decay_mult: 0
  }
  convolution_param {
    num_output: 64
    kernel_size: 1
    weight_filler {
      type: "xavier"
      std: 0.03
    }
    bias_filler {
      type: "constant"
      value: 0.2
    }
  }
}
layer {
  name: "inception_3a/relu_1x1"
  type: "ReLU"
  bottom: "inception_3a/1x1"
  top: "inception_3a/1x1"
}
layer {
  name: "inception_3a/3x3_reduce"
  type: "Convolution"
  bottom: "pool2/3x3_s2"
  top: "inception_3a/3x3_reduce"
  param {
    lr_mult: 1
    decay_mult: 1
  }
  param {
    lr_mult: 2
    decay_mult: 0
  }
  convolution_param {
    num_output: 96
    kernel_size: 1
    weight_filler {
      type: "xavier"
      std: 0.09
    }
    bias_filler {
      type: "constant"
      value: 0.2
    }
  }
}
layer {
  name: "inception_3a/relu_3x3_reduce"
  type: "ReLU"
  bottom: "inception_3a/3x3_reduce"
  top: "inception_3a/3x3_reduce"
}
layer {
  name: "inception_3a/3x3"
  type: "Convolution"
  bottom: "inception_3a/3x3_reduce"
  top: "inception_3a/3x3"
  param {
    lr_mult: 1
    decay_mult: 1
  }
  param {
    lr_mult: 2
    decay_mult: 0
  }
  convolution_param {
    num_output: 128
    pad: 1
    kernel_size: 3
    weight_filler {
      type: "xavier"
      std: 0.03
    }
    bias_filler {
      type: "constant"
      value: 0.2
    }
  }
}
layer {
  name: "inception_3a/relu_3x3"
  type: "ReLU"
  bottom: "inception_3a/3x3"
  top: "inception_3a/3x3"
}
layer {
  name: "inception_3a/5x5_reduce"
  type: "Convolution"
  bottom: "pool2/3x3_s2"
  top: "inception_3a/5x5_reduce"
  param {
    lr_mult: 1
    decay_mult: 1
  }
  param {
    lr_mult: 2
    decay_mult: 0
  }
  convolution_param {
    num_output: 16
    kernel_size: 1
    weight_filler {
      type: "xavier"
      std: 0.2
    }
    bias_filler {
      type: "constant"
      value: 0.2
    }
  }
}
layer {
  name: "inception_3a/relu_5x5_reduce"
  type: "ReLU"
  bottom: "inception_3a/5x5_reduce"
  top: "inception_3a/5x5_reduce"
}
layer {
  name: "inception_3a/5x5"
  type: "Convolution"
  bottom: "inception_3a/5x5_reduce"
  top: "inception_3a/5x5"
  param {
    lr_mult: 1
    decay_mult: 1
  }
  param {
    lr_mult: 2
    decay_mult: 0
  }
  convolution_param {
    num_output: 32
    pad: 2
    kernel_size: 5
    weight_filler {
      type: "xavier"
      std: 0.03
    }
    bias_filler {
      type: "constant"
      value: 0.2
    }
  }
}
layer {
  name: "inception_3a/relu_5x5"
  type: "ReLU"
  bottom: "inception_3a/5x5"
  top: "inception_3a/5x5"
}
layer {
  name: "inception_3a/pool"
  type: "Pooling"
  bottom: "pool2/3x3_s2"
  top: "inception_3a/pool"
  pooling_param {
    pool: MAX
    kernel_size: 3
    stride: 1
    pad: 1
  }
}
layer {
  name: "inception_3a/pool_proj"
  type: "Convolution"
  bottom: "inception_3a/pool"
  top: "inception_3a/pool_proj"
  param {
    lr_mult: 1
    decay_mult: 1
  }
  param {
    lr_mult: 2
    decay_mult: 0
  }
  convolution_param {
    num_output: 32
    kernel_size: 1
    weight_filler {
      type: "xavier"
      std: 0.1
    }
    bias_filler {
      type: "constant"
      value: 0.2
    }
  }
}
layer {
  name: "inception_3a/relu_pool_proj"
  type: "ReLU"
  bottom: "inception_3a/pool_proj"
  top: "inception_3a/pool_proj"
}
layer {
  name: "inception_3a/output"
  type: "Concat"
  bottom: "inception_3a/1x1"
  bottom: "inception_3a/3x3"
  bottom: "inception_3a/5x5"
  bottom: "inception_3a/pool_proj"
  top: "inception_3a/output"
}
layer {
  name: "inception_3b/1x1"
  type: "Convolution"
  bottom: "inception_3a/output"
  top: "inception_3b/1x1"
  param {
    lr_mult: 1
    decay_mult: 1
  }
  param {
    lr_mult: 2
    decay_mult: 0
  }
  convolution_param {
    num_output: 128
    kernel_size: 1
    weight_filler {
      type: "xavier"
      std: 0.03
    }
    bias_filler {
      type: "constant"
      value: 0.2
    }
  }
}
layer {
  name: "inception_3b/relu_1x1"
  type: "ReLU"
  bottom: "inception_3b/1x1"
  top: "inception_3b/1x1"
}
layer {
  name: "inception_3b/3x3_reduce"
  type: "Convolution"
  bottom: "inception_3a/output"
  top: "inception_3b/3x3_reduce"
  param {
    lr_mult: 1
    decay_mult: 1
  }
  param {
    lr_mult: 2
    decay_mult: 0
  }
  convolution_param {
    num_output: 128
    kernel_size: 1
    weight_filler {
      type: "xavier"
      std: 0.09
    }
    bias_filler {
      type: "constant"
      value: 0.2
    }
  }
}
layer {
  name: "inception_3b/relu_3x3_reduce"
  type: "ReLU"
  bottom: "inception_3b/3x3_reduce"
  top: "inception_3b/3x3_reduce"
}
layer {
  name: "inception_3b/3x3"
  type: "Convolution"
  bottom: "inception_3b/3x3_reduce"
  top: "inception_3b/3x3"
  param {
    lr_mult: 1
    decay_mult: 1
  }
  param {
    lr_mult: 2
    decay_mult: 0
  }
  convolution_param {
    num_output: 192
    pad: 1
    kernel_size: 3
    weight_filler {
      type: "xavier"
      std: 0.03
    }
    bias_filler {
      type: "constant"
      value: 0.2
    }
  }
}
layer {
  name: "inception_3b/relu_3x3"
  type: "ReLU"
  bottom: "inception_3b/3x3"
  top: "inception_3b/3x3"
}
layer {
  name: "inception_3b/5x5_reduce"
  type: "Convolution"
  bottom: "inception_3a/output"
  top: "inception_3b/5x5_reduce"
  param {
    lr_mult: 1
    decay_mult: 1
  }
  param {
    lr_mult: 2
    decay_mult: 0
  }
  convolution_param {
    num_output: 32
    kernel_size: 1
    weight_filler {
      type: "xavier"
      std: 0.2
    }
    bias_filler {
      type: "constant"
      value: 0.2
    }
  }
}
layer {
  name: "inception_3b/relu_5x5_reduce"
  type: "ReLU"
  bottom: "inception_3b/5x5_reduce"
  top: "inception_3b/5x5_reduce"
}
layer {
  name: "inception_3b/5x5"
  type: "Convolution"
  bottom: "inception_3b/5x5_reduce"
  top: "inception_3b/5x5"
  param {
    lr_mult: 1
    decay_mult: 1
  }
  param {
    lr_mult: 2
    decay_mult: 0
  }
  convolution_param {
    num_output: 96
    pad: 2
    kernel_size: 5
    weight_filler {
      type: "xavier"
      std: 0.03
    }
    bias_filler {
      type: "constant"
      value: 0.2
    }
  }
}
layer {
  name: "inception_3b/relu_5x5"
  type: "ReLU"
  bottom: "inception_3b/5x5"
  top: "inception_3b/5x5"
}
layer {
  name: "inception_3b/pool"
  type: "Pooling"
  bottom: "inception_3a/output"
  top: "inception_3b/pool"
  pooling_param {
    pool: MAX
    kernel_size: 3
    stride: 1
    pad: 1
  }
}
layer {
  name: "inception_3b/pool_proj"
  type: "Convolution"
  bottom: "inception_3b/pool"
  top: "inception_3b/pool_proj"
  param {
    lr_mult: 1
    decay_mult: 1
  }
  param {
    lr_mult: 2
    decay_mult: 0
  }
  convolution_param {
    num_output: 64
    kernel_size: 1
    weight_filler {
      type: "xavier"
      std: 0.1
    }
    bias_filler {
      type: "constant"
      value: 0.2
    }
  }
}
layer {
  name: "inception_3b/relu_pool_proj"
  type: "ReLU"
  bottom: "inception_3b/pool_proj"
  top: "inception_3b/pool_proj"
}
layer {
  name: "inception_3b/output"
  type: "Concat"
  bottom: "inception_3b/1x1"
  bottom: "inception_3b/3x3"
  bottom: "inception_3b/5x5"
  bottom: "inception_3b/pool_proj"
  top: "inception_3b/output"
}
layer {
  name: "pool3/3x3_s2"
  type: "Pooling"
  bottom: "inception_3b/output"
  top: "pool3/3x3_s2"
  pooling_param {
    pool: MAX
    kernel_size: 3
    stride: 2
  }
}
layer {
  name: "inception_4a/1x1"
  type: "Convolution"
  bottom: "pool3/3x3_s2"
  top: "inception_4a/1x1"
  param {
    lr_mult: 1
    decay_mult: 1
  }
  param {
    lr_mult: 2
    decay_mult: 0
  }
  convolution_param {
    num_output: 192
    kernel_size: 1
    weight_filler {
      type: "xavier"
      std: 0.03
    }
    bias_filler {
      type: "constant"
      value: 0.2
    }
  }
}
layer {
  name: "inception_4a/relu_1x1"
  type: "ReLU"
  bottom: "inception_4a/1x1"
  top: "inception_4a/1x1"
}
layer {
  name: "inception_4a/3x3_reduce"
  type: "Convolution"
  bottom: "pool3/3x3_s2"
  top: "inception_4a/3x3_reduce"
  param {
    lr_mult: 1
    decay_mult: 1
  }
  param {
    lr_mult: 2
    decay_mult: 0
  }
  convolution_param {
    num_output: 96
    kernel_size: 1
    weight_filler {
      type: "xavier"
      std: 0.09
    }
    bias_filler {
      type: "constant"
      value: 0.2
    }
  }
}
layer {
  name: "inception_4a/relu_3x3_reduce"
  type: "ReLU"
  bottom: "inception_4a/3x3_reduce"
  top: "inception_4a/3x3_reduce"
}
layer {
  name: "inception_4a/3x3"
  type: "Convolution"
  bottom: "inception_4a/3x3_reduce"
  top: "inception_4a/3x3"
  param {
    lr_mult: 1
    decay_mult: 1
  }
  param {
    lr_mult: 2
    decay_mult: 0
  }
  convolution_param {
    num_output: 208
    pad: 1
    kernel_size: 3
    weight_filler {
      type: "xavier"
      std: 0.03
    }
    bias_filler {
      type: "constant"
      value: 0.2
    }
  }
}
layer {
  name: "inception_4a/relu_3x3"
  type: "ReLU"
  bottom: "inception_4a/3x3"
  top: "inception_4a/3x3"
}
layer {
  name: "inception_4a/5x5_reduce"
  type: "Convolution"
  bottom: "pool3/3x3_s2"
  top: "inception_4a/5x5_reduce"
  param {
    lr_mult: 1
    decay_mult: 1
  }
  param {
    lr_mult: 2
    decay_mult: 0
  }
  convolution_param {
    num_output: 16
    kernel_size: 1
    weight_filler {
      type: "xavier"
      std: 0.2
    }
    bias_filler {
      type: "constant"
      value: 0.2
    }
  }
}
layer {
  name: "inception_4a/relu_5x5_reduce"
  type: "ReLU"
  bottom: "inception_4a/5x5_reduce"
  top: "inception_4a/5x5_reduce"
}
layer {
  name: "inception_4a/5x5"
  type: "Convolution"
  bottom: "inception_4a/5x5_reduce"
  top: "inception_4a/5x5"
  param {
    lr_mult: 1
    decay_mult: 1
  }
  param {
    lr_mult: 2
    decay_mult: 0
  }
  convolution_param {
    num_output: 48
    pad: 2
    kernel_size: 5
    weight_filler {
      type: "xavier"
      std: 0.03
    }
    bias_filler {
      type: "constant"
      value: 0.2
    }
  }
}
layer {
  name: "inception_4a/relu_5x5"
  type: "ReLU"
  bottom: "inception_4a/5x5"
  top: "inception_4a/5x5"
}
layer {
  name: "inception_4a/pool"
  type: "Pooling"
  bottom: "pool3/3x3_s2"
  top: "inception_4a/pool"
  pooling_param {
    pool: MAX
    kernel_size: 3
    stride: 1
    pad: 1
  }
}
layer {
  name: "inception_4a/pool_proj"
  type: "Convolution"
  bottom: "inception_4a/pool"
  top: "inception_4a/pool_proj"
  param {
    lr_mult: 1
    decay_mult: 1
  }
  param {
    lr_mult: 2
    decay_mult: 0
  }
  convolution_param {
    num_output: 64
    kernel_size: 1
    weight_filler {
      type: "xavier"
      std: 0.1
    }
    bias_filler {
      type: "constant"
      value: 0.2
    }
  }
}
layer {
  name: "inception_4a/relu_pool_proj"
  type: "ReLU"
  bottom: "inception_4a/pool_proj"
  top: "inception_4a/pool_proj"
}
layer {
  name: "inception_4a/output"
  type: "Concat"
  bottom: "inception_4a/1x1"
  bottom: "inception_4a/3x3"
  bottom: "inception_4a/5x5"
  bottom: "inception_4a/pool_proj"
  top: "inception_4a/output"
}
layer {
  name: "loss1/ave_pool"
  type: "Pooling"
  bottom: "inception_4a/output"
  top: "loss1/ave_pool"
  pooling_param {
    pool: AVE
    kernel_size: 5
    stride: 3
  }
}
layer {
  name: "loss1/conv"
  type: "Convolution"
  bottom: "loss1/ave_pool"
  top: "loss1/conv"
  param {
    lr_mult: 1
    decay_mult: 1
  }
  param {
    lr_mult: 2
    decay_mult: 0
  }
  convolution_param {
    num_output: 128
    kernel_size: 1
    weight_filler {
      type: "xavier"
      std: 0.08
    }
    bias_filler {
      type: "constant"
      value: 0.2
    }
  }
}
layer {
  name: "loss1/relu_conv"
  type: "ReLU"
  bottom: "loss1/conv"
  top: "loss1/conv"
}
layer {
  name: "loss1/fc"
  type: "InnerProduct"
  bottom: "loss1/conv"
  top: "loss1/fc"
  param {
    lr_mult: 1
    decay_mult: 1
  }
  param {
    lr_mult: 2
    decay_mult: 0
  }
  inner_product_param {
    num_output: 1024
    weight_filler {
      type: "xavier"
      std: 0.02
    }
    bias_filler {
      type: "constant"
      value: 0.2
    }
  }
}
layer {
  name: "loss1/relu_fc"
  type: "ReLU"
  bottom: "loss1/fc"
  top: "loss1/fc"
}
layer {
  name: "loss1/drop_fc"
  type: "Dropout"
  bottom: "loss1/fc"
  top: "loss1/fc"
  dropout_param {
    dropout_ratio: 0.7
  }
}
layer {
  name: "loss1/classifier"
  type: "InnerProduct"
  bottom: "loss1/fc"
  top: "loss1/classifier"
  param {
    lr_mult: 1
    decay_mult: 1
  }
  param {
    lr_mult: 2
    decay_mult: 0
  }
  inner_product_param {
    num_output: 2
    weight_filler {
      type: "xavier"
      std: 0.0009765625
    }
    bias_filler {
      type: "constant"
      value: 0
    }
  }
}
layer {
  name: "loss1/loss"
  type: "SoftmaxWithLoss"
  bottom: "loss1/classifier"
  bottom: "label"
  top: "loss1/loss1"
  loss_weight: 0.3
}
layer {
  name: "inception_4b/1x1"
  type: "Convolution"
  bottom: "inception_4a/output"
  top: "inception_4b/1x1"
  param {
    lr_mult: 1
    decay_mult: 1
  }
  param {
    lr_mult: 2
    decay_mult: 0
  }
  convolution_param {
    num_output: 160
    kernel_size: 1
    weight_filler {
      type: "xavier"
      std: 0.03
    }
    bias_filler {
      type: "constant"
      value: 0.2
    }
  }
}
layer {
  name: "inception_4b/relu_1x1"
  type: "ReLU"
  bottom: "inception_4b/1x1"
  top: "inception_4b/1x1"
}
layer {
  name: "inception_4b/3x3_reduce"
  type: "Convolution"
  bottom: "inception_4a/output"
  top: "inception_4b/3x3_reduce"
  param {
    lr_mult: 1
    decay_mult: 1
  }
  param {
    lr_mult: 2
    decay_mult: 0
  }
  convolution_param {
    num_output: 112
    kernel_size: 1
    weight_filler {
      type: "xavier"
      std: 0.09
    }
    bias_filler {
      type: "constant"
      value: 0.2
    }
  }
}
layer {
  name: "inception_4b/relu_3x3_reduce"
  type: "ReLU"
  bottom: "inception_4b/3x3_reduce"
  top: "inception_4b/3x3_reduce"
}
layer {
  name: "inception_4b/3x3"
  type: "Convolution"
  bottom: "inception_4b/3x3_reduce"
  top: "inception_4b/3x3"
  param {
    lr_mult: 1
    decay_mult: 1
  }
  param {
    lr_mult: 2
    decay_mult: 0
  }
  convolution_param {
    num_output: 224
    pad: 1
    kernel_size: 3
    weight_filler {
      type: "xavier"
      std: 0.03
    }
    bias_filler {
      type: "constant"
      value: 0.2
    }
  }
}
layer {
  name: "inception_4b/relu_3x3"
  type: "ReLU"
  bottom: "inception_4b/3x3"
  top: "inception_4b/3x3"
}
layer {
  name: "inception_4b/5x5_reduce"
  type: "Convolution"
  bottom: "inception_4a/output"
  top: "inception_4b/5x5_reduce"
  param {
    lr_mult: 1
    decay_mult: 1
  }
  param {
    lr_mult: 2
    decay_mult: 0
  }
  convolution_param {
    num_output: 24
    kernel_size: 1
    weight_filler {
      type: "xavier"
      std: 0.2
    }
    bias_filler {
      type: "constant"
      value: 0.2
    }
  }
}
layer {
  name: "inception_4b/relu_5x5_reduce"
  type: "ReLU"
  bottom: "inception_4b/5x5_reduce"
  top: "inception_4b/5x5_reduce"
}
layer {
  name: "inception_4b/5x5"
  type: "Convolution"
  bottom: "inception_4b/5x5_reduce"
  top: "inception_4b/5x5"
  param {
    lr_mult: 1
    decay_mult: 1
  }
  param {
    lr_mult: 2
    decay_mult: 0
  }
  convolution_param {
    num_output: 64
    pad: 2
    kernel_size: 5
    weight_filler {
      type: "xavier"
      std: 0.03
    }
    bias_filler {
      type: "constant"
      value: 0.2
    }
  }
}
layer {
  name: "inception_4b/relu_5x5"
  type: "ReLU"
  bottom: "inception_4b/5x5"
  top: "inception_4b/5x5"
}
layer {
  name: "inception_4b/pool"
  type: "Pooling"
  bottom: "inception_4a/output"
  top: "inception_4b/pool"
  pooling_param {
    pool: MAX
    kernel_size: 3
    stride: 1
    pad: 1
  }
}
layer {
  name: "inception_4b/pool_proj"
  type: "Convolution"
  bottom: "inception_4b/pool"
  top: "inception_4b/pool_proj"
  param {
    lr_mult: 1
    decay_mult: 1
  }
  param {
    lr_mult: 2
    decay_mult: 0
  }
  convolution_param {
    num_output: 64
    kernel_size: 1
    weight_filler {
      type: "xavier"
      std: 0.1
    }
    bias_filler {
      type: "constant"
      value: 0.2
    }
  }
}
layer {
  name: "inception_4b/relu_pool_proj"
  type: "ReLU"
  bottom: "inception_4b/pool_proj"
  top: "inception_4b/pool_proj"
}
layer {
  name: "inception_4b/output"
  type: "Concat"
  bottom: "inception_4b/1x1"
  bottom: "inception_4b/3x3"
  bottom: "inception_4b/5x5"
  bottom: "inception_4b/pool_proj"
  top: "inception_4b/output"
}
layer {
  name: "inception_4c/1x1"
  type: "Convolution"
  bottom: "inception_4b/output"
  top: "inception_4c/1x1"
  param {
    lr_mult: 1
    decay_mult: 1
  }
  param {
    lr_mult: 2
    decay_mult: 0
  }
  convolution_param {
    num_output: 128
    kernel_size: 1
    weight_filler {
      type: "xavier"
      std: 0.03
    }
    bias_filler {
      type: "constant"
      value: 0.2
    }
  }
}
layer {
  name: "inception_4c/relu_1x1"
  type: "ReLU"
  bottom: "inception_4c/1x1"
  top: "inception_4c/1x1"
}
layer {
  name: "inception_4c/3x3_reduce"
  type: "Convolution"
  bottom: "inception_4b/output"
  top: "inception_4c/3x3_reduce"
  param {
    lr_mult: 1
    decay_mult: 1
  }
  param {
    lr_mult: 2
    decay_mult: 0
  }
  convolution_param {
    num_output: 128
    kernel_size: 1
    weight_filler {
      type: "xavier"
      std: 0.09
    }
    bias_filler {
      type: "constant"
      value: 0.2
    }
  }
}
layer {
  name: "inception_4c/relu_3x3_reduce"
  type: "ReLU"
  bottom: "inception_4c/3x3_reduce"
  top: "inception_4c/3x3_reduce"
}
layer {
  name: "inception_4c/3x3"
  type: "Convolution"
  bottom: "inception_4c/3x3_reduce"
  top: "inception_4c/3x3"
  param {
    lr_mult: 1
    decay_mult: 1
  }
  param {
    lr_mult: 2
    decay_mult: 0
  }
  convolution_param {
    num_output: 256
    pad: 1
    kernel_size: 3
    weight_filler {
      type: "xavier"
      std: 0.03
    }
    bias_filler {
      type: "constant"
      value: 0.2
    }
  }
}
layer {
  name: "inception_4c/relu_3x3"
  type: "ReLU"
  bottom: "inception_4c/3x3"
  top: "inception_4c/3x3"
}
layer {
  name: "inception_4c/5x5_reduce"
  type: "Convolution"
  bottom: "inception_4b/output"
  top: "inception_4c/5x5_reduce"
  param {
    lr_mult: 1
    decay_mult: 1
  }
  param {
    lr_mult: 2
    decay_mult: 0
  }
  convolution_param {
    num_output: 24
    kernel_size: 1
    weight_filler {
      type: "xavier"
      std: 0.2
    }
    bias_filler {
      type: "constant"
      value: 0.2
    }
  }
}
layer {
  name: "inception_4c/relu_5x5_reduce"
  type: "ReLU"
  bottom: "inception_4c/5x5_reduce"
  top: "inception_4c/5x5_reduce"
}
layer {
  name: "inception_4c/5x5"
  type: "Convolution"
  bottom: "inception_4c/5x5_reduce"
  top: "inception_4c/5x5"
  param {
    lr_mult: 1
    decay_mult: 1
  }
  param {
    lr_mult: 2
    decay_mult: 0
  }
  convolution_param {
    num_output: 64
    pad: 2
    kernel_size: 5
    weight_filler {
      type: "xavier"
      std: 0.03
    }
    bias_filler {
      type: "constant"
      value: 0.2
    }
  }
}
layer {
  name: "inception_4c/relu_5x5"
  type: "ReLU"
  bottom: "inception_4c/5x5"
  top: "inception_4c/5x5"
}
layer {
  name: "inception_4c/pool"
  type: "Pooling"
  bottom: "inception_4b/output"
  top: "inception_4c/pool"
  pooling_param {
    pool: MAX
    kernel_size: 3
    stride: 1
    pad: 1
  }
}
layer {
  name: "inception_4c/pool_proj"
  type: "Convolution"
  bottom: "inception_4c/pool"
  top: "inception_4c/pool_proj"
  param {
    lr_mult: 1
    decay_mult: 1
  }
  param {
    lr_mult: 2
    decay_mult: 0
  }
  convolution_param {
    num_output: 64
    kernel_size: 1
    weight_filler {
      type: "xavier"
      std: 0.1
    }
    bias_filler {
      type: "constant"
      value: 0.2
    }
  }
}
layer {
  name: "inception_4c/relu_pool_proj"
  type: "ReLU"
  bottom: "inception_4c/pool_proj"
  top: "inception_4c/pool_proj"
}
layer {
  name: "inception_4c/output"
  type: "Concat"
  bottom: "inception_4c/1x1"
  bottom: "inception_4c/3x3"
  bottom: "inception_4c/5x5"
  bottom: "inception_4c/pool_proj"
  top: "inception_4c/output"
}
layer {
  name: "inception_4d/1x1"
  type: "Convolution"
  bottom: "inception_4c/output"
  top: "inception_4d/1x1"
  param {
    lr_mult: 1
    decay_mult: 1
  }
  param {
    lr_mult: 2
    decay_mult: 0
  }
  convolution_param {
    num_output: 112
    kernel_size: 1
    weight_filler {
      type: "xavier"
      std: 0.03
    }
    bias_filler {
      type: "constant"
      value: 0.2
    }
  }
}
layer {
  name: "inception_4d/relu_1x1"
  type: "ReLU"
  bottom: "inception_4d/1x1"
  top: "inception_4d/1x1"
}
layer {
  name: "inception_4d/3x3_reduce"
  type: "Convolution"
  bottom: "inception_4c/output"
  top: "inception_4d/3x3_reduce"
  param {
    lr_mult: 1
    decay_mult: 1
  }
  param {
    lr_mult: 2
    decay_mult: 0
  }
  convolution_param {
    num_output: 144
    kernel_size: 1
    weight_filler {
      type: "xavier"
      std: 0.09
    }
    bias_filler {
      type: "constant"
      value: 0.2
    }
  }
}
layer {
  name: "inception_4d/relu_3x3_reduce"
  type: "ReLU"
  bottom: "inception_4d/3x3_reduce"
  top: "inception_4d/3x3_reduce"
}
layer {
  name: "inception_4d/3x3"
  type: "Convolution"
  bottom: "inception_4d/3x3_reduce"
  top: "inception_4d/3x3"
  param {
    lr_mult: 1
    decay_mult: 1
  }
  param {
    lr_mult: 2
    decay_mult: 0
  }
  convolution_param {
    num_output: 288
    pad: 1
    kernel_size: 3
    weight_filler {
      type: "xavier"
      std: 0.03
    }
    bias_filler {
      type: "constant"
      value: 0.2
    }
  }
}
layer {
  name: "inception_4d/relu_3x3"
  type: "ReLU"
  bottom: "inception_4d/3x3"
  top: "inception_4d/3x3"
}
layer {
  name: "inception_4d/5x5_reduce"
  type: "Convolution"
  bottom: "inception_4c/output"
  top: "inception_4d/5x5_reduce"
  param {
    lr_mult: 1
    decay_mult: 1
  }
  param {
    lr_mult: 2
    decay_mult: 0
  }
  convolution_param {
    num_output: 32
    kernel_size: 1
    weight_filler {
      type: "xavier"
      std: 0.2
    }
    bias_filler {
      type: "constant"
      value: 0.2
    }
  }
}
layer {
  name: "inception_4d/relu_5x5_reduce"
  type: "ReLU"
  bottom: "inception_4d/5x5_reduce"
  top: "inception_4d/5x5_reduce"
}
layer {
  name: "inception_4d/5x5"
  type: "Convolution"
  bottom: "inception_4d/5x5_reduce"
  top: "inception_4d/5x5"
  param {
    lr_mult: 1
    decay_mult: 1
  }
  param {
    lr_mult: 2
    decay_mult: 0
  }
  convolution_param {
    num_output: 64
    pad: 2
    kernel_size: 5
    weight_filler {
      type: "xavier"
      std: 0.03
    }
    bias_filler {
      type: "constant"
      value: 0.2
    }
  }
}
layer {
  name: "inception_4d/relu_5x5"
  type: "ReLU"
  bottom: "inception_4d/5x5"
  top: "inception_4d/5x5"
}
layer {
  name: "inception_4d/pool"
  type: "Pooling"
  bottom: "inception_4c/output"
  top: "inception_4d/pool"
  pooling_param {
    pool: MAX
    kernel_size: 3
    stride: 1
    pad: 1
  }
}
layer {
  name: "inception_4d/pool_proj"
  type: "Convolution"
  bottom: "inception_4d/pool"
  top: "inception_4d/pool_proj"
  param {
    lr_mult: 1
    decay_mult: 1
  }
  param {
    lr_mult: 2
    decay_mult: 0
  }
  convolution_param {
    num_output: 64
    kernel_size: 1
    weight_filler {
      type: "xavier"
      std: 0.1
    }
    bias_filler {
      type: "constant"
      value: 0.2
    }
  }
}
layer {
  name: "inception_4d/relu_pool_proj"
  type: "ReLU"
  bottom: "inception_4d/pool_proj"
  top: "inception_4d/pool_proj"
}
layer {
  name: "inception_4d/output"
  type: "Concat"
  bottom: "inception_4d/1x1"
  bottom: "inception_4d/3x3"
  bottom: "inception_4d/5x5"
  bottom: "inception_4d/pool_proj"
  top: "inception_4d/output"
}
layer {
  name: "loss2/ave_pool"
  type: "Pooling"
  bottom: "inception_4d/output"
  top: "loss2/ave_pool"
  pooling_param {
    pool: AVE
    kernel_size: 5
    stride: 3
  }
}
layer {
  name: "loss2/conv"
  type: "Convolution"
  bottom: "loss2/ave_pool"
  top: "loss2/conv"
  param {
    lr_mult: 1
    decay_mult: 1
  }
  param {
    lr_mult: 2
    decay_mult: 0
  }
  convolution_param {
    num_output: 128
    kernel_size: 1
    weight_filler {
      type: "xavier"
      std: 0.08
    }
    bias_filler {
      type: "constant"
      value: 0.2
    }
  }
}
layer {
  name: "loss2/relu_conv"
  type: "ReLU"
  bottom: "loss2/conv"
  top: "loss2/conv"
}
layer {
  name: "loss2/fc"
  type: "InnerProduct"
  bottom: "loss2/conv"
  top: "loss2/fc"
  param {
    lr_mult: 1
    decay_mult: 1
  }
  param {
    lr_mult: 2
    decay_mult: 0
  }
  inner_product_param {
    num_output: 1024
    weight_filler {
      type: "xavier"
      std: 0.02
    }
    bias_filler {
      type: "constant"
      value: 0.2
    }
  }
}
layer {
  name: "loss2/relu_fc"
  type: "ReLU"
  bottom: "loss2/fc"
  top: "loss2/fc"
}
layer {
  name: "loss2/drop_fc"
  type: "Dropout"
  bottom: "loss2/fc"
  top: "loss2/fc"
  dropout_param {
    dropout_ratio: 0.7
  }
}
layer {
  name: "loss2/classifier"
  type: "InnerProduct"
  bottom: "loss2/fc"
  top: "loss2/classifier"
  param {
    lr_mult: 1
    decay_mult: 1
  }
  param {
    lr_mult: 2
    decay_mult: 0
  }
  inner_product_param {
    num_output: 2
    weight_filler {
      type: "xavier"
      std: 0.0009765625
    }
    bias_filler {
      type: "constant"
      value: 0
    }
  }
}
layer {
  name: "loss2/loss"
  type: "SoftmaxWithLoss"
  bottom: "loss2/classifier"
  bottom: "label"
  top: "loss2/loss1"
  loss_weight: 0.3
}
layer {
  name: "inception_4e/1x1"
  type: "Convolution"
  bottom: "inception_4d/output"
  top: "inception_4e/1x1"
  param {
    lr_mult: 1
    decay_mult: 1
  }
  param {
    lr_mult: 2
    decay_mult: 0
  }
  convolution_param {
    num_output: 256
    kernel_size: 1
    weight_filler {
      type: "xavier"
      std: 0.03
    }
    bias_filler {
      type: "constant"
      value: 0.2
    }
  }
}
layer {
  name: "inception_4e/relu_1x1"
  type: "ReLU"
  bottom: "inception_4e/1x1"
  top: "inception_4e/1x1"
}
layer {
  name: "inception_4e/3x3_reduce"
  type: "Convolution"
  bottom: "inception_4d/output"
  top: "inception_4e/3x3_reduce"
  param {
    lr_mult: 1
    decay_mult: 1
  }
  param {
    lr_mult: 2
    decay_mult: 0
  }
  convolution_param {
    num_output: 160
    kernel_size: 1
    weight_filler {
      type: "xavier"
      std: 0.09
    }
    bias_filler {
      type: "constant"
      value: 0.2
    }
  }
}
layer {
  name: "inception_4e/relu_3x3_reduce"
  type: "ReLU"
  bottom: "inception_4e/3x3_reduce"
  top: "inception_4e/3x3_reduce"
}
layer {
  name: "inception_4e/3x3"
  type: "Convolution"
  bottom: "inception_4e/3x3_reduce"
  top: "inception_4e/3x3"
  param {
    lr_mult: 1
    decay_mult: 1
  }
  param {
    lr_mult: 2
    decay_mult: 0
  }
  convolution_param {
    num_output: 320
    pad: 1
    kernel_size: 3
    weight_filler {
      type: "xavier"
      std: 0.03
    }
    bias_filler {
      type: "constant"
      value: 0.2
    }
  }
}
layer {
  name: "inception_4e/relu_3x3"
  type: "ReLU"
  bottom: "inception_4e/3x3"
  top: "inception_4e/3x3"
}
layer {
  name: "inception_4e/5x5_reduce"
  type: "Convolution"
  bottom: "inception_4d/output"
  top: "inception_4e/5x5_reduce"
  param {
    lr_mult: 1
    decay_mult: 1
  }
  param {
    lr_mult: 2
    decay_mult: 0
  }
  convolution_param {
    num_output: 32
    kernel_size: 1
    weight_filler {
      type: "xavier"
      std: 0.2
    }
    bias_filler {
      type: "constant"
      value: 0.2
    }
  }
}
layer {
  name: "inception_4e/relu_5x5_reduce"
  type: "ReLU"
  bottom: "
I0509 23:29:15.412199 24549 layer_factory.hpp:74] Creating layer data
I0509 23:29:15.412231 24549 net.cpp:76] Creating Layer data
I0509 23:29:15.412243 24549 net.cpp:334] data -> data
I0509 23:29:15.412294 24549 net.cpp:334] data -> label
I0509 23:29:15.412318 24549 net.cpp:105] Setting up data
I0509 23:29:15.412439 24549 db.cpp:34] Opened lmdb train_lmdb
I0509 23:29:15.412737 24549 data_layer.cpp:67] output data size: 32,3,224,224
I0509 23:29:15.419741 24549 net.cpp:112] Top shape: 32 3 224 224 (4816896)
I0509 23:29:15.419767 24549 net.cpp:112] Top shape: 32 1 1 1 (32)
I0509 23:29:15.419778 24549 layer_factory.hpp:74] Creating layer label_data_1_split
I0509 23:29:15.419797 24549 net.cpp:76] Creating Layer label_data_1_split
I0509 23:29:15.419806 24549 net.cpp:372] label_data_1_split <- label
I0509 23:29:15.419829 24549 net.cpp:334] label_data_1_split -> label_data_1_split_0
I0509 23:29:15.419844 24549 net.cpp:334] label_data_1_split -> label_data_1_split_1
I0509 23:29:15.419853 24549 net.cpp:334] label_data_1_split -> label_data_1_split_2
I0509 23:29:15.419862 24549 net.cpp:105] Setting up label_data_1_split
I0509 23:29:15.419872 24549 net.cpp:112] Top shape: 32 1 1 1 (32)
I0509 23:29:15.419878 24549 net.cpp:112] Top shape: 32 1 1 1 (32)
I0509 23:29:15.419884 24549 net.cpp:112] Top shape: 32 1 1 1 (32)
I0509 23:29:15.419889 24549 layer_factory.hpp:74] Creating layer conv1/7x7_s2
I0509 23:29:15.419908 24549 net.cpp:76] Creating Layer conv1/7x7_s2
I0509 23:29:15.419914 24549 net.cpp:372] conv1/7x7_s2 <- data
I0509 23:29:15.419922 24549 net.cpp:334] conv1/7x7_s2 -> conv1/7x7_s2
I0509 23:29:15.419935 24549 net.cpp:105] Setting up conv1/7x7_s2
I0509 23:29:15.420066 24549 net.cpp:112] Top shape: 32 64 112 112 (25690112)
I0509 23:29:15.420125 24549 layer_factory.hpp:74] Creating layer conv1/relu_7x7
I0509 23:29:15.420135 24549 net.cpp:76] Creating Layer conv1/relu_7x7
I0509 23:29:15.420142 24549 net.cpp:372] conv1/relu_7x7 <- conv1/7x7_s2
I0509 23:29:15.420150 24549 net.cpp:323] conv1/relu_7x7 -> conv1/7x7_s2 (in-place)
I0509 23:29:15.420158 24549 net.cpp:105] Setting up conv1/relu_7x7
I0509 23:29:15.420167 24549 net.cpp:112] Top shape: 32 64 112 112 (25690112)
I0509 23:29:15.420173 24549 layer_factory.hpp:74] Creating layer pool1/3x3_s2
I0509 23:29:15.420184 24549 net.cpp:76] Creating Layer pool1/3x3_s2
I0509 23:29:15.420189 24549 net.cpp:372] pool1/3x3_s2 <- conv1/7x7_s2
I0509 23:29:15.420197 24549 net.cpp:334] pool1/3x3_s2 -> pool1/3x3_s2
I0509 23:29:15.420207 24549 net.cpp:105] Setting up pool1/3x3_s2
I0509 23:29:15.420222 24549 net.cpp:112] Top shape: 32 64 56 56 (6422528)
I0509 23:29:15.420229 24549 layer_factory.hpp:74] Creating layer pool1/norm1
I0509 23:29:15.420239 24549 net.cpp:76] Creating Layer pool1/norm1
I0509 23:29:15.420245 24549 net.cpp:372] pool1/norm1 <- pool1/3x3_s2
I0509 23:29:15.420253 24549 net.cpp:334] pool1/norm1 -> pool1/norm1
I0509 23:29:15.420263 24549 net.cpp:105] Setting up pool1/norm1
I0509 23:29:15.420284 24549 net.cpp:112] Top shape: 32 64 56 56 (6422528)
I0509 23:29:15.420290 24549 layer_factory.hpp:74] Creating layer conv2/3x3_reduce
I0509 23:29:15.420301 24549 net.cpp:76] Creating Layer conv2/3x3_reduce
I0509 23:29:15.420307 24549 net.cpp:372] conv2/3x3_reduce <- pool1/norm1
I0509 23:29:15.420316 24549 net.cpp:334] conv2/3x3_reduce -> conv2/3x3_reduce
I0509 23:29:15.420331 24549 net.cpp:105] Setting up conv2/3x3_reduce
I0509 23:29:15.420375 24549 net.cpp:112] Top shape: 32 64 56 56 (6422528)
I0509 23:29:15.420387 24549 layer_factory.hpp:74] Creating layer conv2/relu_3x3_reduce
I0509 23:29:15.420397 24549 net.cpp:76] Creating Layer conv2/relu_3x3_reduce
I0509 23:29:15.420402 24549 net.cpp:372] conv2/relu_3x3_reduce <- conv2/3x3_reduce
I0509 23:29:15.420408 24549 net.cpp:323] conv2/relu_3x3_reduce -> conv2/3x3_reduce (in-place)
I0509 23:29:15.420416 24549 net.cpp:105] Setting up conv2/relu_3x3_reduce
I0509 23:29:15.420423 24549 net.cpp:112] Top shape: 32 64 56 56 (6422528)
I0509 23:29:15.420428 24549 layer_factory.hpp:74] Creating layer conv2/3x3
I0509 23:29:15.420439 24549 net.cpp:76] Creating Layer conv2/3x3
I0509 23:29:15.420444 24549 net.cpp:372] conv2/3x3 <- conv2/3x3_reduce
I0509 23:29:15.420452 24549 net.cpp:334] conv2/3x3 -> conv2/3x3
I0509 23:29:15.420461 24549 net.cpp:105] Setting up conv2/3x3
I0509 23:29:15.421831 24549 net.cpp:112] Top shape: 32 192 56 56 (19267584)
I0509 23:29:15.421861 24549 layer_factory.hpp:74] Creating layer conv2/relu_3x3
I0509 23:29:15.421872 24549 net.cpp:76] Creating Layer conv2/relu_3x3
I0509 23:29:15.421879 24549 net.cpp:372] conv2/relu_3x3 <- conv2/3x3
I0509 23:29:15.421886 24549 net.cpp:323] conv2/relu_3x3 -> conv2/3x3 (in-place)
I0509 23:29:15.421895 24549 net.cpp:105] Setting up conv2/relu_3x3
I0509 23:29:15.421901 24549 net.cpp:112] Top shape: 32 192 56 56 (19267584)
I0509 23:29:15.421907 24549 layer_factory.hpp:74] Creating layer conv2/norm2
I0509 23:29:15.421918 24549 net.cpp:76] Creating Layer conv2/norm2
I0509 23:29:15.421924 24549 net.cpp:372] conv2/norm2 <- conv2/3x3
I0509 23:29:15.421932 24549 net.cpp:334] conv2/norm2 -> conv2/norm2
I0509 23:29:15.421941 24549 net.cpp:105] Setting up conv2/norm2
I0509 23:29:15.421947 24549 net.cpp:112] Top shape: 32 192 56 56 (19267584)
I0509 23:29:15.421952 24549 layer_factory.hpp:74] Creating layer pool2/3x3_s2
I0509 23:29:15.421962 24549 net.cpp:76] Creating Layer pool2/3x3_s2
I0509 23:29:15.421968 24549 net.cpp:372] pool2/3x3_s2 <- conv2/norm2
I0509 23:29:15.421975 24549 net.cpp:334] pool2/3x3_s2 -> pool2/3x3_s2
I0509 23:29:15.421983 24549 net.cpp:105] Setting up pool2/3x3_s2
I0509 23:29:15.421990 24549 net.cpp:112] Top shape: 32 192 28 28 (4816896)
I0509 23:29:15.421996 24549 layer_factory.hpp:74] Creating layer pool2/3x3_s2_pool2/3x3_s2_0_split
I0509 23:29:15.422004 24549 net.cpp:76] Creating Layer pool2/3x3_s2_pool2/3x3_s2_0_split
I0509 23:29:15.422031 24549 net.cpp:372] pool2/3x3_s2_pool2/3x3_s2_0_split <- pool2/3x3_s2
I0509 23:29:15.422044 24549 net.cpp:334] pool2/3x3_s2_pool2/3x3_s2_0_split -> pool2/3x3_s2_pool2/3x3_s2_0_split_0
I0509 23:29:15.422054 24549 net.cpp:334] pool2/3x3_s2_pool2/3x3_s2_0_split -> pool2/3x3_s2_pool2/3x3_s2_0_split_1
I0509 23:29:15.422062 24549 net.cpp:334] pool2/3x3_s2_pool2/3x3_s2_0_split -> pool2/3x3_s2_pool2/3x3_s2_0_split_2
I0509 23:29:15.422070 24549 net.cpp:334] pool2/3x3_s2_pool2/3x3_s2_0_split -> pool2/3x3_s2_pool2/3x3_s2_0_split_3
I0509 23:29:15.422078 24549 net.cpp:105] Setting up pool2/3x3_s2_pool2/3x3_s2_0_split
I0509 23:29:15.422086 24549 net.cpp:112] Top shape: 32 192 28 28 (4816896)
I0509 23:29:15.422091 24549 net.cpp:112] Top shape: 32 192 28 28 (4816896)
I0509 23:29:15.422096 24549 net.cpp:112] Top shape: 32 192 28 28 (4816896)
I0509 23:29:15.422101 24549 net.cpp:112] Top shape: 32 192 28 28 (4816896)
I0509 23:29:15.422106 24549 layer_factory.hpp:74] Creating layer inception_3a/1x1
I0509 23:29:15.422122 24549 net.cpp:76] Creating Layer inception_3a/1x1
I0509 23:29:15.422127 24549 net.cpp:372] inception_3a/1x1 <- pool2/3x3_s2_pool2/3x3_s2_0_split_0
I0509 23:29:15.422137 24549 net.cpp:334] inception_3a/1x1 -> inception_3a/1x1
I0509 23:29:15.422147 24549 net.cpp:105] Setting up inception_3a/1x1
I0509 23:29:15.422369 24549 net.cpp:112] Top shape: 32 64 28 28 (1605632)
I0509 23:29:15.422390 24549 layer_factory.hpp:74] Creating layer inception_3a/relu_1x1
I0509 23:29:15.422401 24549 net.cpp:76] Creating Layer inception_3a/relu_1x1
I0509 23:29:15.422408 24549 net.cpp:372] inception_3a/relu_1x1 <- inception_3a/1x1
I0509 23:29:15.422416 24549 net.cpp:323] inception_3a/relu_1x1 -> inception_3a/1x1 (in-place)
I0509 23:29:15.422425 24549 net.cpp:105] Setting up inception_3a/relu_1x1
I0509 23:29:15.422430 24549 net.cpp:112] Top shape: 32 64 28 28 (1605632)
I0509 23:29:15.422435 24549 layer_factory.hpp:74] Creating layer inception_3a/3x3_reduce
I0509 23:29:15.422446 24549 net.cpp:76] Creating Layer inception_3a/3x3_reduce
I0509 23:29:15.422452 24549 net.cpp:372] inception_3a/3x3_reduce <- pool2/3x3_s2_pool2/3x3_s2_0_split_1
I0509 23:29:15.422461 24549 net.cpp:334] inception_3a/3x3_reduce -> inception_3a/3x3_reduce
I0509 23:29:15.422469 24549 net.cpp:105] Setting up inception_3a/3x3_reduce
I0509 23:29:15.422642 24549 net.cpp:112] Top shape: 32 96 28 28 (2408448)
I0509 23:29:15.422657 24549 layer_factory.hpp:74] Creating layer inception_3a/relu_3x3_reduce
I0509 23:29:15.422668 24549 net.cpp:76] Creating Layer inception_3a/relu_3x3_reduce
I0509 23:29:15.422675 24549 net.cpp:372] inception_3a/relu_3x3_reduce <- inception_3a/3x3_reduce
I0509 23:29:15.422683 24549 net.cpp:323] inception_3a/relu_3x3_reduce -> inception_3a/3x3_reduce (in-place)
I0509 23:29:15.422690 24549 net.cpp:105] Setting up inception_3a/relu_3x3_reduce
I0509 23:29:15.422696 24549 net.cpp:112] Top shape: 32 96 28 28 (2408448)
I0509 23:29:15.422701 24549 layer_factory.hpp:74] Creating layer inception_3a/3x3
I0509 23:29:15.422713 24549 net.cpp:76] Creating Layer inception_3a/3x3
I0509 23:29:15.422719 24549 net.cpp:372] inception_3a/3x3 <- inception_3a/3x3_reduce
I0509 23:29:15.422726 24549 net.cpp:334] inception_3a/3x3 -> inception_3a/3x3
I0509 23:29:15.422734 24549 net.cpp:105] Setting up inception_3a/3x3
I0509 23:29:15.423907 24549 net.cpp:112] Top shape: 32 128 28 28 (3211264)
I0509 23:29:15.423925 24549 layer_factory.hpp:74] Creating layer inception_3a/relu_3x3
I0509 23:29:15.423935 24549 net.cpp:76] Creating Layer inception_3a/relu_3x3
I0509 23:29:15.423941 24549 net.cpp:372] inception_3a/relu_3x3 <- inception_3a/3x3
I0509 23:29:15.423952 24549 net.cpp:323] inception_3a/relu_3x3 -> inception_3a/3x3 (in-place)
I0509 23:29:15.423961 24549 net.cpp:105] Setting up inception_3a/relu_3x3
I0509 23:29:15.423966 24549 net.cpp:112] Top shape: 32 128 28 28 (3211264)
I0509 23:29:15.423972 24549 layer_factory.hpp:74] Creating layer inception_3a/5x5_reduce
I0509 23:29:15.423981 24549 net.cpp:76] Creating Layer inception_3a/5x5_reduce
I0509 23:29:15.424003 24549 net.cpp:372] inception_3a/5x5_reduce <- pool2/3x3_s2_pool2/3x3_s2_0_split_2
I0509 23:29:15.424016 24549 net.cpp:334] inception_3a/5x5_reduce -> inception_3a/5x5_reduce
I0509 23:29:15.424026 24549 net.cpp:105] Setting up inception_3a/5x5_reduce
I0509 23:29:15.424069 24549 net.cpp:112] Top shape: 32 16 28 28 (401408)
I0509 23:29:15.424079 24549 layer_factory.hpp:74] Creating layer inception_3a/relu_5x5_reduce
I0509 23:29:15.424088 24549 net.cpp:76] Creating Layer inception_3a/relu_5x5_reduce
I0509 23:29:15.424093 24549 net.cpp:372] inception_3a/relu_5x5_reduce <- inception_3a/5x5_reduce
I0509 23:29:15.424100 24549 net.cpp:323] inception_3a/relu_5x5_reduce -> inception_3a/5x5_reduce (in-place)
I0509 23:29:15.424108 24549 net.cpp:105] Setting up inception_3a/relu_5x5_reduce
I0509 23:29:15.424113 24549 net.cpp:112] Top shape: 32 16 28 28 (401408)
I0509 23:29:15.424118 24549 layer_factory.hpp:74] Creating layer inception_3a/5x5
I0509 23:29:15.424129 24549 net.cpp:76] Creating Layer inception_3a/5x5
I0509 23:29:15.424135 24549 net.cpp:372] inception_3a/5x5 <- inception_3a/5x5_reduce
I0509 23:29:15.424145 24549 net.cpp:334] inception_3a/5x5 -> inception_3a/5x5
I0509 23:29:15.424154 24549 net.cpp:105] Setting up inception_3a/5x5
I0509 23:29:15.424288 24549 net.cpp:112] Top shape: 32 32 28 28 (802816)
I0509 23:29:15.424301 24549 layer_factory.hpp:74] Creating layer inception_3a/relu_5x5
I0509 23:29:15.424311 24549 net.cpp:76] Creating Layer inception_3a/relu_5x5
I0509 23:29:15.424317 24549 net.cpp:372] inception_3a/relu_5x5 <- inception_3a/5x5
I0509 23:29:15.424329 24549 net.cpp:323] inception_3a/relu_5x5 -> inception_3a/5x5 (in-place)
I0509 23:29:15.424335 24549 net.cpp:105] Setting up inception_3a/relu_5x5
I0509 23:29:15.424341 24549 net.cpp:112] Top shape: 32 32 28 28 (802816)
I0509 23:29:15.424346 24549 layer_factory.hpp:74] Creating layer inception_3a/pool
I0509 23:29:15.424355 24549 net.cpp:76] Creating Layer inception_3a/pool
I0509 23:29:15.424360 24549 net.cpp:372] inception_3a/pool <- pool2/3x3_s2_pool2/3x3_s2_0_split_3
I0509 23:29:15.424371 24549 net.cpp:334] inception_3a/pool -> inception_3a/pool
I0509 23:29:15.424379 24549 net.cpp:105] Setting up inception_3a/pool
I0509 23:29:15.424387 24549 net.cpp:112] Top shape: 32 192 28 28 (4816896)
I0509 23:29:15.424393 24549 layer_factory.hpp:74] Creating layer inception_3a/pool_proj
I0509 23:29:15.424401 24549 net.cpp:76] Creating Layer inception_3a/pool_proj
I0509 23:29:15.424407 24549 net.cpp:372] inception_3a/pool_proj <- inception_3a/pool
I0509 23:29:15.424418 24549 net.cpp:334] inception_3a/pool_proj -> inception_3a/pool_proj
I0509 23:29:15.424427 24549 net.cpp:105] Setting up inception_3a/pool_proj
I0509 23:29:15.424494 24549 net.cpp:112] Top shape: 32 32 28 28 (802816)
I0509 23:29:15.424507 24549 layer_factory.hpp:74] Creating layer inception_3a/relu_pool_proj
I0509 23:29:15.424515 24549 net.cpp:76] Creating Layer inception_3a/relu_pool_proj
I0509 23:29:15.424521 24549 net.cpp:372] inception_3a/relu_pool_proj <- inception_3a/pool_proj
I0509 23:29:15.424528 24549 net.cpp:323] inception_3a/relu_pool_proj -> inception_3a/pool_proj (in-place)
I0509 23:29:15.424536 24549 net.cpp:105] Setting up inception_3a/relu_pool_proj
I0509 23:29:15.424541 24549 net.cpp:112] Top shape: 32 32 28 28 (802816)
I0509 23:29:15.424547 24549 layer_factory.hpp:74] Creating layer inception_3a/output
I0509 23:29:15.424558 24549 net.cpp:76] Creating Layer inception_3a/output
I0509 23:29:15.424564 24549 net.cpp:372] inception_3a/output <- inception_3a/1x1
I0509 23:29:15.424571 24549 net.cpp:372] inception_3a/output <- inception_3a/3x3
I0509 23:29:15.424577 24549 net.cpp:372] inception_3a/output <- inception_3a/5x5
I0509 23:29:15.424583 24549 net.cpp:372] inception_3a/output <- inception_3a/pool_proj
I0509 23:29:15.424590 24549 net.cpp:334] inception_3a/output -> inception_3a/output
I0509 23:29:15.424598 24549 net.cpp:105] Setting up inception_3a/output
I0509 23:29:15.424607 24549 net.cpp:112] Top shape: 32 256 28 28 (6422528)
I0509 23:29:15.424612 24549 layer_factory.hpp:74] Creating layer inception_3a/output_inception_3a/output_0_split
I0509 23:29:15.424635 24549 net.cpp:76] Creating Layer inception_3a/output_inception_3a/output_0_split
I0509 23:29:15.424643 24549 net.cpp:372] inception_3a/output_inception_3a/output_0_split <- inception_3a/output
I0509 23:29:15.424653 24549 net.cpp:334] inception_3a/output_inception_3a/output_0_split -> inception_3a/output_inception_3a/output_0_split_0
I0509 23:29:15.424662 24549 net.cpp:334] inception_3a/output_inception_3a/output_0_split -> inception_3a/output_inception_3a/output_0_split_1
I0509 23:29:15.424672 24549 net.cpp:334] inception_3a/output_inception_3a/output_0_split -> inception_3a/output_inception_3a/output_0_split_2
I0509 23:29:15.424681 24549 net.cpp:334] inception_3a/output_inception_3a/output_0_split -> inception_3a/output_inception_3a/output_0_split_3
I0509 23:29:15.424690 24549 net.cpp:105] Setting up inception_3a/output_inception_3a/output_0_split
I0509 23:29:15.424696 24549 net.cpp:112] Top shape: 32 256 28 28 (6422528)
I0509 23:29:15.424701 24549 net.cpp:112] Top shape: 32 256 28 28 (6422528)
I0509 23:29:15.424706 24549 net.cpp:112] Top shape: 32 256 28 28 (6422528)
I0509 23:29:15.424715 24549 net.cpp:112] Top shape: 32 256 28 28 (6422528)
I0509 23:29:15.424721 24549 layer_factory.hpp:74] Creating layer inception_3b/1x1
I0509 23:29:15.424734 24549 net.cpp:76] Creating Layer inception_3b/1x1
I0509 23:29:15.424741 24549 net.cpp:372] inception_3b/1x1 <- inception_3a/output_inception_3a/output_0_split_0
I0509 23:29:15.424753 24549 net.cpp:334] inception_3b/1x1 -> inception_3b/1x1
I0509 23:29:15.424763 24549 net.cpp:105] Setting up inception_3b/1x1
I0509 23:29:15.425348 24549 net.cpp:112] Top shape: 32 128 28 28 (3211264)
I0509 23:29:15.425364 24549 layer_factory.hpp:74] Creating layer inception_3b/relu_1x1
I0509 23:29:15.425374 24549 net.cpp:76] Creating Layer inception_3b/relu_1x1
I0509 23:29:15.425379 24549 net.cpp:372] inception_3b/relu_1x1 <- inception_3b/1x1
I0509 23:29:15.425387 24549 net.cpp:323] inception_3b/relu_1x1 -> inception_3b/1x1 (in-place)
I0509 23:29:15.425396 24549 net.cpp:105] Setting up inception_3b/relu_1x1
I0509 23:29:15.425403 24549 net.cpp:112] Top shape: 32 128 28 28 (3211264)
I0509 23:29:15.425410 24549 layer_factory.hpp:74] Creating layer inception_3b/3x3_reduce
I0509 23:29:15.425422 24549 net.cpp:76] Creating Layer inception_3b/3x3_reduce
I0509 23:29:15.425428 24549 net.cpp:372] inception_3b/3x3_reduce <- inception_3a/output_inception_3a/output_0_split_1
I0509 23:29:15.425436 24549 net.cpp:334] inception_3b/3x3_reduce -> inception_3b/3x3_reduce
I0509 23:29:15.425446 24549 net.cpp:105] Setting up inception_3b/3x3_reduce
I0509 23:29:15.425730 24549 net.cpp:112] Top shape: 32 128 28 28 (3211264)
I0509 23:29:15.425742 24549 layer_factory.hpp:74] Creating layer inception_3b/relu_3x3_reduce
I0509 23:29:15.425753 24549 net.cpp:76] Creating Layer inception_3b/relu_3x3_reduce
I0509 23:29:15.425760 24549 net.cpp:372] inception_3b/relu_3x3_reduce <- inception_3b/3x3_reduce
I0509 23:29:15.425766 24549 net.cpp:323] inception_3b/relu_3x3_reduce -> inception_3b/3x3_reduce (in-place)
I0509 23:29:15.425775 24549 net.cpp:105] Setting up inception_3b/relu_3x3_reduce
I0509 23:29:15.425779 24549 net.cpp:112] Top shape: 32 128 28 28 (3211264)
I0509 23:29:15.425786 24549 layer_factory.hpp:74] Creating layer inception_3b/3x3
I0509 23:29:15.425798 24549 net.cpp:76] Creating Layer inception_3b/3x3
I0509 23:29:15.425804 24549 net.cpp:372] inception_3b/3x3 <- inception_3b/3x3_reduce
I0509 23:29:15.425812 24549 net.cpp:334] inception_3b/3x3 -> inception_3b/3x3
I0509 23:29:15.425822 24549 net.cpp:105] Setting up inception_3b/3x3
I0509 23:29:15.427798 24549 net.cpp:112] Top shape: 32 192 28 28 (4816896)
I0509 23:29:15.427820 24549 layer_factory.hpp:74] Creating layer inception_3b/relu_3x3
I0509 23:29:15.427830 24549 net.cpp:76] Creating Layer inception_3b/relu_3x3
I0509 23:29:15.427837 24549 net.cpp:372] inception_3b/relu_3x3 <- inception_3b/3x3
I0509 23:29:15.427845 24549 net.cpp:323] inception_3b/relu_3x3 -> inception_3b/3x3 (in-place)
I0509 23:29:15.427873 24549 net.cpp:105] Setting up inception_3b/relu_3x3
I0509 23:29:15.427881 24549 net.cpp:112] Top shape: 32 192 28 28 (4816896)
I0509 23:29:15.427886 24549 layer_factory.hpp:74] Creating layer inception_3b/5x5_reduce
I0509 23:29:15.427898 24549 net.cpp:76] Creating Layer inception_3b/5x5_reduce
I0509 23:29:15.427904 24549 net.cpp:372] inception_3b/5x5_reduce <- inception_3a/output_inception_3a/output_0_split_2
I0509 23:29:15.427912 24549 net.cpp:334] inception_3b/5x5_reduce -> inception_3b/5x5_reduce
I0509 23:29:15.427922 24549 net.cpp:105] Setting up inception_3b/5x5_reduce
I0509 23:29:15.428004 24549 net.cpp:112] Top shape: 32 32 28 28 (802816)
I0509 23:29:15.428015 24549 layer_factory.hpp:74] Creating layer inception_3b/relu_5x5_reduce
I0509 23:29:15.428022 24549 net.cpp:76] Creating Layer inception_3b/relu_5x5_reduce
I0509 23:29:15.428028 24549 net.cpp:372] inception_3b/relu_5x5_reduce <- inception_3b/5x5_reduce
I0509 23:29:15.428037 24549 net.cpp:323] inception_3b/relu_5x5_reduce -> inception_3b/5x5_reduce (in-place)
I0509 23:29:15.428045 24549 net.cpp:105] Setting up inception_3b/relu_5x5_reduce
I0509 23:29:15.428050 24549 net.cpp:112] Top shape: 32 32 28 28 (802816)
I0509 23:29:15.428056 24549 layer_factory.hpp:74] Creating layer inception_3b/5x5
I0509 23:29:15.428064 24549 net.cpp:76] Creating Layer inception_3b/5x5
I0509 23:29:15.428071 24549 net.cpp:372] inception_3b/5x5 <- inception_3b/5x5_reduce
I0509 23:29:15.428079 24549 net.cpp:334] inception_3b/5x5 -> inception_3b/5x5
I0509 23:29:15.428092 24549 net.cpp:105] Setting up inception_3b/5x5
I0509 23:29:15.428763 24549 net.cpp:112] Top shape: 32 96 28 28 (2408448)
I0509 23:29:15.428778 24549 layer_factory.hpp:74] Creating layer inception_3b/relu_5x5
I0509 23:29:15.428789 24549 net.cpp:76] Creating Layer inception_3b/relu_5x5
I0509 23:29:15.428796 24549 net.cpp:372] inception_3b/relu_5x5 <- inception_3b/5x5
I0509 23:29:15.428803 24549 net.cpp:323] inception_3b/relu_5x5 -> inception_3b/5x5 (in-place)
I0509 23:29:15.428812 24549 net.cpp:105] Setting up inception_3b/relu_5x5
I0509 23:29:15.428817 24549 net.cpp:112] Top shape: 32 96 28 28 (2408448)
I0509 23:29:15.428822 24549 layer_factory.hpp:74] Creating layer inception_3b/pool
I0509 23:29:15.428830 24549 net.cpp:76] Creating Layer inception_3b/pool
I0509 23:29:15.428835 24549 net.cpp:372] inception_3b/pool <- inception_3a/output_inception_3a/output_0_split_3
I0509 23:29:15.428849 24549 net.cpp:334] inception_3b/pool -> inception_3b/pool
I0509 23:29:15.428858 24549 net.cpp:105] Setting up inception_3b/pool
I0509 23:29:15.428865 24549 net.cpp:112] Top shape: 32 256 28 28 (6422528)
I0509 23:29:15.428871 24549 layer_factory.hpp:74] Creating layer inception_3b/pool_proj
I0509 23:29:15.428879 24549 net.cpp:76] Creating Layer inception_3b/pool_proj
I0509 23:29:15.428885 24549 net.cpp:372] inception_3b/pool_proj <- inception_3b/pool
I0509 23:29:15.428895 24549 net.cpp:334] inception_3b/pool_proj -> inception_3b/pool_proj
I0509 23:29:15.428905 24549 net.cpp:105] Setting up inception_3b/pool_proj
I0509 23:29:15.429050 24549 net.cpp:112] Top shape: 32 64 28 28 (1605632)
I0509 23:29:15.429061 24549 layer_factory.hpp:74] Creating layer inception_3b/relu_pool_proj
I0509 23:29:15.429069 24549 net.cpp:76] Creating Layer inception_3b/relu_pool_proj
I0509 23:29:15.429075 24549 net.cpp:372] inception_3b/relu_pool_proj <- inception_3b/pool_proj
I0509 23:29:15.429092 24549 net.cpp:323] inception_3b/relu_pool_proj -> inception_3b/pool_proj (in-place)
I0509 23:29:15.429103 24549 net.cpp:105] Setting up inception_3b/relu_pool_proj
I0509 23:29:15.429110 24549 net.cpp:112] Top shape: 32 64 28 28 (1605632)
I0509 23:29:15.429116 24549 layer_factory.hpp:74] Creating layer inception_3b/output
I0509 23:29:15.429123 24549 net.cpp:76] Creating Layer inception_3b/output
I0509 23:29:15.429129 24549 net.cpp:372] inception_3b/output <- inception_3b/1x1
I0509 23:29:15.429136 24549 net.cpp:372] inception_3b/output <- inception_3b/3x3
I0509 23:29:15.429142 24549 net.cpp:372] inception_3b/output <- inception_3b/5x5
I0509 23:29:15.429162 24549 net.cpp:372] inception_3b/output <- inception_3b/pool_proj
I0509 23:29:15.429170 24549 net.cpp:334] inception_3b/output -> inception_3b/output
I0509 23:29:15.429178 24549 net.cpp:105] Setting up inception_3b/output
I0509 23:29:15.429184 24549 net.cpp:112] Top shape: 32 480 28 28 (12042240)
I0509 23:29:15.429190 24549 layer_factory.hpp:74] Creating layer pool3/3x3_s2
I0509 23:29:15.429198 24549 net.cpp:76] Creating Layer pool3/3x3_s2
I0509 23:29:15.429204 24549 net.cpp:372] pool3/3x3_s2 <- inception_3b/output
I0509 23:29:15.429214 24549 net.cpp:334] pool3/3x3_s2 -> pool3/3x3_s2
I0509 23:29:15.429224 24549 net.cpp:105] Setting up pool3/3x3_s2
I0509 23:29:15.429230 24549 net.cpp:112] Top shape: 32 480 14 14 (3010560)
I0509 23:29:15.429236 24549 layer_factory.hpp:74] Creating layer pool3/3x3_s2_pool3/3x3_s2_0_split
I0509 23:29:15.429244 24549 net.cpp:76] Creating Layer pool3/3x3_s2_pool3/3x3_s2_0_split
I0509 23:29:15.429250 24549 net.cpp:372] pool3/3x3_s2_pool3/3x3_s2_0_split <- pool3/3x3_s2
I0509 23:29:15.429260 24549 net.cpp:334] pool3/3x3_s2_pool3/3x3_s2_0_split -> pool3/3x3_s2_pool3/3x3_s2_0_split_0
I0509 23:29:15.429267 24549 net.cpp:334] pool3/3x3_s2_pool3/3x3_s2_0_split -> pool3/3x3_s2_pool3/3x3_s2_0_split_1
I0509 23:29:15.429291 24549 net.cpp:334] pool3/3x3_s2_pool3/3x3_s2_0_split -> pool3/3x3_s2_pool3/3x3_s2_0_split_2
I0509 23:29:15.429301 24549 net.cpp:334] pool3/3x3_s2_pool3/3x3_s2_0_split -> pool3/3x3_s2_pool3/3x3_s2_0_split_3
I0509 23:29:15.429308 24549 net.cpp:105] Setting up pool3/3x3_s2_pool3/3x3_s2_0_split
I0509 23:29:15.429316 24549 net.cpp:112] Top shape: 32 480 14 14 (3010560)
I0509 23:29:15.429321 24549 net.cpp:112] Top shape: 32 480 14 14 (3010560)
I0509 23:29:15.429325 24549 net.cpp:112] Top shape: 32 480 14 14 (3010560)
I0509 23:29:15.429332 24549 net.cpp:112] Top shape: 32 480 14 14 (3010560)
I0509 23:29:15.429337 24549 layer_factory.hpp:74] Creating layer inception_4a/1x1
I0509 23:29:15.429347 24549 net.cpp:76] Creating Layer inception_4a/1x1
I0509 23:29:15.429353 24549 net.cpp:372] inception_4a/1x1 <- pool3/3x3_s2_pool3/3x3_s2_0_split_0
I0509 23:29:15.429363 24549 net.cpp:334] inception_4a/1x1 -> inception_4a/1x1
I0509 23:29:15.429370 24549 net.cpp:105] Setting up inception_4a/1x1
I0509 23:29:15.430162 24549 net.cpp:112] Top shape: 32 192 14 14 (1204224)
I0509 23:29:15.430177 24549 layer_factory.hpp:74] Creating layer inception_4a/relu_1x1
I0509 23:29:15.430186 24549 net.cpp:76] Creating Layer inception_4a/relu_1x1
I0509 23:29:15.430212 24549 net.cpp:372] inception_4a/relu_1x1 <- inception_4a/1x1
I0509 23:29:15.430222 24549 net.cpp:323] inception_4a/relu_1x1 -> inception_4a/1x1 (in-place)
I0509 23:29:15.430232 24549 net.cpp:105] Setting up inception_4a/relu_1x1
I0509 23:29:15.430238 24549 net.cpp:112] Top shape: 32 192 14 14 (1204224)
I0509 23:29:15.430243 24549 layer_factory.hpp:74] Creating layer inception_4a/3x3_reduce
I0509 23:29:15.430251 24549 net.cpp:76] Creating Layer inception_4a/3x3_reduce
I0509 23:29:15.430259 24549 net.cpp:372] inception_4a/3x3_reduce <- pool3/3x3_s2_pool3/3x3_s2_0_split_1
I0509 23:29:15.430268 24549 net.cpp:334] inception_4a/3x3_reduce -> inception_4a/3x3_reduce
I0509 23:29:15.430294 24549 net.cpp:105] Setting up inception_4a/3x3_reduce
I0509 23:29:15.430708 24549 net.cpp:112] Top shape: 32 96 14 14 (602112)
I0509 23:29:15.430729 24549 layer_factory.hpp:74] Creating layer inception_4a/relu_3x3_reduce
I0509 23:29:15.430738 24549 net.cpp:76] Creating Layer inception_4a/relu_3x3_reduce
I0509 23:29:15.430744 24549 net.cpp:372] inception_4a/relu_3x3_reduce <- inception_4a/3x3_reduce
I0509 23:29:15.430752 24549 net.cpp:323] inception_4a/relu_3x3_reduce -> inception_4a/3x3_reduce (in-place)
I0509 23:29:15.430760 24549 net.cpp:105] Setting up inception_4a/relu_3x3_reduce
I0509 23:29:15.430765 24549 net.cpp:112] Top shape: 32 96 14 14 (602112)
I0509 23:29:15.430770 24549 layer_factory.hpp:74] Creating layer inception_4a/3x3
I0509 23:29:15.430779 24549 net.cpp:76] Creating Layer inception_4a/3x3
I0509 23:29:15.430784 24549 net.cpp:372] inception_4a/3x3 <- inception_4a/3x3_reduce
I0509 23:29:15.430809 24549 net.cpp:334] inception_4a/3x3 -> inception_4a/3x3
I0509 23:29:15.430819 24549 net.cpp:105] Setting up inception_4a/3x3
I0509 23:29:15.432351 24549 net.cpp:112] Top shape: 32 208 14 14 (1304576)
I0509 23:29:15.432366 24549 layer_factory.hpp:74] Creating layer inception_4a/relu_3x3
I0509 23:29:15.432378 24549 net.cpp:76] Creating Layer inception_4a/relu_3x3
I0509 23:29:15.432384 24549 net.cpp:372] inception_4a/relu_3x3 <- inception_4a/3x3
I0509 23:29:15.432391 24549 net.cpp:323] inception_4a/relu_3x3 -> inception_4a/3x3 (in-place)
I0509 23:29:15.432399 24549 net.cpp:105] Setting up inception_4a/relu_3x3
I0509 23:29:15.432405 24549 net.cpp:112] Top shape: 32 208 14 14 (1304576)
I0509 23:29:15.432411 24549 layer_factory.hpp:74] Creating layer inception_4a/5x5_reduce
I0509 23:29:15.432420 24549 net.cpp:76] Creating Layer inception_4a/5x5_reduce
I0509 23:29:15.432425 24549 net.cpp:372] inception_4a/5x5_reduce <- pool3/3x3_s2_pool3/3x3_s2_0_split_2
I0509 23:29:15.432435 24549 net.cpp:334] inception_4a/5x5_reduce -> inception_4a/5x5_reduce
I0509 23:29:15.432445 24549 net.cpp:105] Setting up inception_4a/5x5_reduce
I0509 23:29:15.432519 24549 net.cpp:112] Top shape: 32 16 14 14 (100352)
I0509 23:29:15.432529 24549 layer_factory.hpp:74] Creating layer inception_4a/relu_5x5_reduce
I0509 23:29:15.432539 24549 net.cpp:76] Creating Layer inception_4a/relu_5x5_reduce
I0509 23:29:15.432548 24549 net.cpp:372] inception_4a/relu_5x5_reduce <- inception_4a/5x5_reduce
I0509 23:29:15.432555 24549 net.cpp:323] inception_4a/relu_5x5_reduce -> inception_4a/5x5_reduce (in-place)
I0509 23:29:15.432562 24549 net.cpp:105] Setting up inception_4a/relu_5x5_reduce
I0509 23:29:15.432569 24549 net.cpp:112] Top shape: 32 16 14 14 (100352)
I0509 23:29:15.432574 24549 layer_factory.hpp:74] Creating layer inception_4a/5x5
I0509 23:29:15.432584 24549 net.cpp:76] Creating Layer inception_4a/5x5
I0509 23:29:15.432590 24549 net.cpp:372] inception_4a/5x5 <- inception_4a/5x5_reduce
I0509 23:29:15.432597 24549 net.cpp:334] inception_4a/5x5 -> inception_4a/5x5
I0509 23:29:15.432605 24549 net.cpp:105] Setting up inception_4a/5x5
I0509 23:29:15.432777 24549 net.cpp:112] Top shape: 32 48 14 14 (301056)
I0509 23:29:15.432790 24549 layer_factory.hpp:74] Creating layer inception_4a/relu_5x5
I0509 23:29:15.432806 24549 net.cpp:76] Creating Layer inception_4a/relu_5x5
I0509 23:29:15.433506 24549 net.cpp:372] inception_4a/relu_5x5 <- inception_4a/5x5
I0509 23:29:15.433516 24549 net.cpp:323] inception_4a/relu_5x5 -> inception_4a/5x5 (in-place)
I0509 23:29:15.433524 24549 net.cpp:105] Setting up inception_4a/relu_5x5
I0509 23:29:15.433529 24549 net.cpp:112] Top shape: 32 48 14 14 (301056)
I0509 23:29:15.433536 24549 layer_factory.hpp:74] Creating layer inception_4a/pool
I0509 23:29:15.433553 24549 net.cpp:76] Creating Layer inception_4a/pool
I0509 23:29:15.433560 24549 net.cpp:372] inception_4a/pool <- pool3/3x3_s2_pool3/3x3_s2_0_split_3
I0509 23:29:15.433568 24549 net.cpp:334] inception_4a/pool -> inception_4a/pool
I0509 23:29:15.433578 24549 net.cpp:105] Setting up inception_4a/pool
I0509 23:29:15.433584 24549 net.cpp:112] Top shape: 32 480 14 14 (3010560)
I0509 23:29:15.433590 24549 layer_factory.hpp:74] Creating layer inception_4a/pool_proj
I0509 23:29:15.433601 24549 net.cpp:76] Creating Layer inception_4a/pool_proj
I0509 23:29:15.433607 24549 net.cpp:372] inception_4a/pool_proj <- inception_4a/pool
I0509 23:29:15.433617 24549 net.cpp:334] inception_4a/pool_proj -> inception_4a/pool_proj
I0509 23:29:15.433627 24549 net.cpp:105] Setting up inception_4a/pool_proj
I0509 23:29:15.433902 24549 net.cpp:112] Top shape: 32 64 14 14 (401408)
I0509 23:29:15.433917 24549 layer_factory.hpp:74] Creating layer inception_4a/relu_pool_proj
I0509 23:29:15.433923 24549 net.cpp:76] Creating Layer inception_4a/relu_pool_proj
I0509 23:29:15.433929 24549 net.cpp:372] inception_4a/relu_pool_proj <- inception_4a/pool_proj
I0509 23:29:15.433938 24549 net.cpp:323] inception_4a/relu_pool_proj -> inception_4a/pool_proj (in-place)
I0509 23:29:15.433960 24549 net.cpp:105] Setting up inception_4a/relu_pool_proj
I0509 23:29:15.433966 24549 net.cpp:112] Top shape: 32 64 14 14 (401408)
I0509 23:29:15.433972 24549 layer_factory.hpp:74] Creating layer inception_4a/output
I0509 23:29:15.433984 24549 net.cpp:76] Creating Layer inception_4a/output
I0509 23:29:15.433991 24549 net.cpp:372] inception_4a/output <- inception_4a/1x1
I0509 23:29:15.433998 24549 net.cpp:372] inception_4a/output <- inception_4a/3x3
I0509 23:29:15.434005 24549 net.cpp:372] inception_4a/output <- inception_4a/5x5
I0509 23:29:15.434010 24549 net.cpp:372] inception_4a/output <- inception_4a/pool_proj
I0509 23:29:15.434017 24549 net.cpp:334] inception_4a/output -> inception_4a/output
I0509 23:29:15.434026 24549 net.cpp:105] Setting up inception_4a/output
I0509 23:29:15.434031 24549 net.cpp:112] Top shape: 32 512 14 14 (3211264)
I0509 23:29:15.434037 24549 layer_factory.hpp:74] Creating layer inception_4a/output_inception_4a/output_0_split
I0509 23:29:15.434046 24549 net.cpp:76] Creating Layer inception_4a/output_inception_4a/output_0_split
I0509 23:29:15.434051 24549 net.cpp:372] inception_4a/output_inception_4a/output_0_split <- inception_4a/output
I0509 23:29:15.434061 24549 net.cpp:334] inception_4a/output_inception_4a/output_0_split -> inception_4a/output_inception_4a/output_0_split_0
I0509 23:29:15.434072 24549 net.cpp:334] inception_4a/output_inception_4a/output_0_split -> inception_4a/output_inception_4a/output_0_split_1
I0509 23:29:15.434083 24549 net.cpp:334] inception_4a/output_inception_4a/output_0_split -> inception_4a/output_inception_4a/output_0_split_2
I0509 23:29:15.434092 24549 net.cpp:334] inception_4a/output_inception_4a/output_0_split -> inception_4a/output_inception_4a/output_0_split_3
I0509 23:29:15.434101 24549 net.cpp:334] inception_4a/output_inception_4a/output_0_split -> inception_4a/output_inception_4a/output_0_split_4
I0509 23:29:15.434109 24549 net.cpp:105] Setting up inception_4a/output_inception_4a/output_0_split
I0509 23:29:15.434116 24549 net.cpp:112] Top shape: 32 512 14 14 (3211264)
I0509 23:29:15.434121 24549 net.cpp:112] Top shape: 32 512 14 14 (3211264)
I0509 23:29:15.434126 24549 net.cpp:112] Top shape: 32 512 14 14 (3211264)
I0509 23:29:15.434131 24549 net.cpp:112] Top shape: 32 512 14 14 (3211264)
I0509 23:29:15.434136 24549 net.cpp:112] Top shape: 32 512 14 14 (3211264)
I0509 23:29:15.434141 24549 layer_factory.hpp:74] Creating layer loss1/ave_pool
I0509 23:29:15.434150 24549 net.cpp:76] Creating Layer loss1/ave_pool
I0509 23:29:15.434156 24549 net.cpp:372] loss1/ave_pool <- inception_4a/output_inception_4a/output_0_split_0
I0509 23:29:15.434165 24549 net.cpp:334] loss1/ave_pool -> loss1/ave_pool
I0509 23:29:15.434171 24549 net.cpp:105] Setting up loss1/ave_pool
I0509 23:29:15.434178 24549 net.cpp:112] Top shape: 32 512 4 4 (262144)
I0509 23:29:15.434183 24549 layer_factory.hpp:74] Creating layer loss1/conv
I0509 23:29:15.434195 24549 net.cpp:76] Creating Layer loss1/conv
I0509 23:29:15.434200 24549 net.cpp:372] loss1/conv <- loss1/ave_pool
I0509 23:29:15.434207 24549 net.cpp:334] loss1/conv -> loss1/conv
I0509 23:29:15.434216 24549 net.cpp:105] Setting up loss1/conv
I0509 23:29:15.434845 24549 net.cpp:112] Top shape: 32 128 4 4 (65536)
I0509 23:29:15.434864 24549 layer_factory.hpp:74] Creating layer loss1/relu_conv
I0509 23:29:15.434871 24549 net.cpp:76] Creating Layer loss1/relu_conv
I0509 23:29:15.434880 24549 net.cpp:372] loss1/relu_conv <- loss1/conv
I0509 23:29:15.434892 24549 net.cpp:323] loss1/relu_conv -> loss1/conv (in-place)
I0509 23:29:15.434903 24549 net.cpp:105] Setting up loss1/relu_conv
I0509 23:29:15.434909 24549 net.cpp:112] Top shape: 32 128 4 4 (65536)
I0509 23:29:15.434916 24549 layer_factory.hpp:74] Creating layer loss1/fc
I0509 23:29:15.434928 24549 net.cpp:76] Creating Layer loss1/fc
I0509 23:29:15.434933 24549 net.cpp:372] loss1/fc <- loss1/conv
I0509 23:29:15.434942 24549 net.cpp:334] loss1/fc -> loss1/fc
I0509 23:29:15.434954 24549 net.cpp:105] Setting up loss1/fc
I0509 23:29:15.457486 24549 net.cpp:112] Top shape: 32 1024 1 1 (32768)
I0509 23:29:15.457566 24549 layer_factory.hpp:74] Creating layer loss1/relu_fc
I0509 23:29:15.457581 24549 net.cpp:76] Creating Layer loss1/relu_fc
I0509 23:29:15.457589 24549 net.cpp:372] loss1/relu_fc <- loss1/fc
I0509 23:29:15.457599 24549 net.cpp:323] loss1/relu_fc -> loss1/fc (in-place)
I0509 23:29:15.457613 24549 net.cpp:105] Setting up loss1/relu_fc
I0509 23:29:15.457620 24549 net.cpp:112] Top shape: 32 1024 1 1 (32768)
I0509 23:29:15.457626 24549 layer_factory.hpp:74] Creating layer loss1/drop_fc
I0509 23:29:15.457645 24549 net.cpp:76] Creating Layer loss1/drop_fc
I0509 23:29:15.457651 24549 net.cpp:372] loss1/drop_fc <- loss1/fc
I0509 23:29:15.457661 24549 net.cpp:323] loss1/drop_fc -> loss1/fc (in-place)
I0509 23:29:15.457672 24549 net.cpp:105] Setting up loss1/drop_fc
I0509 23:29:15.457682 24549 net.cpp:112] Top shape: 32 1024 1 1 (32768)
I0509 23:29:15.457690 24549 layer_factory.hpp:74] Creating layer loss1/classifier
I0509 23:29:15.457700 24549 net.cpp:76] Creating Layer loss1/classifier
I0509 23:29:15.457705 24549 net.cpp:372] loss1/classifier <- loss1/fc
I0509 23:29:15.457715 24549 net.cpp:334] loss1/classifier -> loss1/classifier
I0509 23:29:15.457726 24549 net.cpp:105] Setting up loss1/classifier
I0509 23:29:15.457758 24549 net.cpp:112] Top shape: 32 2 1 1 (64)
I0509 23:29:15.457768 24549 layer_factory.hpp:74] Creating layer loss1/loss
I0509 23:29:15.457780 24549 net.cpp:76] Creating Layer loss1/loss
I0509 23:29:15.457787 24549 net.cpp:372] loss1/loss <- loss1/classifier
I0509 23:29:15.457793 24549 net.cpp:372] loss1/loss <- label_data_1_split_0
I0509 23:29:15.457803 24549 net.cpp:334] loss1/loss -> loss1/loss1
I0509 23:29:15.457815 24549 net.cpp:105] Setting up loss1/loss
I0509 23:29:15.457825 24549 layer_factory.hpp:74] Creating layer loss1/loss
I0509 23:29:15.457845 24549 net.cpp:112] Top shape: 1 1 1 1 (1)
I0509 23:29:15.457851 24549 net.cpp:118]     with loss weight 0.3
I0509 23:29:15.457883 24549 layer_factory.hpp:74] Creating layer inception_4b/1x1
I0509 23:29:15.457897 24549 net.cpp:76] Creating Layer inception_4b/1x1
I0509 23:29:15.457905 24549 net.cpp:372] inception_4b/1x1 <- inception_4a/output_inception_4a/output_0_split_1
I0509 23:29:15.457916 24549 net.cpp:334] inception_4b/1x1 -> inception_4b/1x1
I0509 23:29:15.457926 24549 net.cpp:105] Setting up inception_4b/1x1
I0509 23:29:15.458665 24549 net.cpp:112] Top shape: 32 160 14 14 (1003520)
I0509 23:29:15.458683 24549 layer_factory.hpp:74] Creating layer inception_4b/relu_1x1
I0509 23:29:15.458691 24549 net.cpp:76] Creating Layer inception_4b/relu_1x1
I0509 23:29:15.458698 24549 net.cpp:372] inception_4b/relu_1x1 <- inception_4b/1x1
I0509 23:29:15.458705 24549 net.cpp:323] inception_4b/relu_1x1 -> inception_4b/1x1 (in-place)
I0509 23:29:15.458714 24549 net.cpp:105] Setting up inception_4b/relu_1x1
I0509 23:29:15.458720 24549 net.cpp:112] Top shape: 32 160 14 14 (1003520)
I0509 23:29:15.458725 24549 layer_factory.hpp:74] Creating layer inception_4b/3x3_reduce
I0509 23:29:15.458737 24549 net.cpp:76] Creating Layer inception_4b/3x3_reduce
I0509 23:29:15.458744 24549 net.cpp:372] inception_4b/3x3_reduce <- inception_4a/output_inception_4a/output_0_split_2
I0509 23:29:15.458753 24549 net.cpp:334] inception_4b/3x3_reduce -> inception_4b/3x3_reduce
I0509 23:29:15.458762 24549 net.cpp:105] Setting up inception_4b/3x3_reduce
I0509 23:29:15.459252 24549 net.cpp:112] Top shape: 32 112 14 14 (702464)
I0509 23:29:15.459266 24549 layer_factory.hpp:74] Creating layer inception_4b/relu_3x3_reduce
I0509 23:29:15.459290 24549 net.cpp:76] Creating Layer inception_4b/relu_3x3_reduce
I0509 23:29:15.459296 24549 net.cpp:372] inception_4b/relu_3x3_reduce <- inception_4b/3x3_reduce
I0509 23:29:15.459305 24549 net.cpp:323] inception_4b/relu_3x3_reduce -> inception_4b/3x3_reduce (in-place)
I0509 23:29:15.459312 24549 net.cpp:105] Setting up inception_4b/relu_3x3_reduce
I0509 23:29:15.459317 24549 net.cpp:112] Top shape: 32 112 14 14 (702464)
I0509 23:29:15.459322 24549 layer_factory.hpp:74] Creating layer inception_4b/3x3
I0509 23:29:15.459333 24549 net.cpp:76] Creating Layer inception_4b/3x3
I0509 23:29:15.459353 24549 net.cpp:372] inception_4b/3x3 <- inception_4b/3x3_reduce
I0509 23:29:15.459362 24549 net.cpp:334] inception_4b/3x3 -> inception_4b/3x3
I0509 23:29:15.459372 24549 net.cpp:105] Setting up inception_4b/3x3
I0509 23:29:15.461227 24549 net.cpp:112] Top shape: 32 224 14 14 (1404928)
I0509 23:29:15.461241 24549 layer_factory.hpp:74] Creating layer inception_4b/relu_3x3
I0509 23:29:15.461249 24549 net.cpp:76] Creating Layer inception_4b/relu_3x3
I0509 23:29:15.461256 24549 net.cpp:372] inception_4b/relu_3x3 <- inception_4b/3x3
I0509 23:29:15.461266 24549 net.cpp:323] inception_4b/relu_3x3 -> inception_4b/3x3 (in-place)
I0509 23:29:15.461287 24549 net.cpp:105] Setting up inception_4b/relu_3x3
I0509 23:29:15.461294 24549 net.cpp:112] Top shape: 32 224 14 14 (1404928)
I0509 23:29:15.461299 24549 layer_factory.hpp:74] Creating layer inception_4b/5x5_reduce
I0509 23:29:15.461308 24549 net.cpp:76] Creating Layer inception_4b/5x5_reduce
I0509 23:29:15.461314 24549 net.cpp:372] inception_4b/5x5_reduce <- inception_4a/output_inception_4a/output_0_split_3
I0509 23:29:15.461325 24549 net.cpp:334] inception_4b/5x5_reduce -> inception_4b/5x5_reduce
I0509 23:29:15.461334 24549 net.cpp:105] Setting up inception_4b/5x5_reduce
I0509 23:29:15.461451 24549 net.cpp:112] Top shape: 32 24 14 14 (150528)
I0509 23:29:15.461462 24549 layer_factory.hpp:74] Creating layer inception_4b/relu_5x5_reduce
I0509 23:29:15.461470 24549 net.cpp:76] Creating Layer inception_4b/relu_5x5_reduce
I0509 23:29:15.461475 24549 net.cpp:372] inception_4b/relu_5x5_reduce <- inception_4b/5x5_reduce
I0509 23:29:15.461483 24549 net.cpp:323] inception_4b/relu_5x5_reduce -> inception_4b/5x5_reduce (in-place)
I0509 23:29:15.461490 24549 net.cpp:105] Setting up inception_4b/relu_5x5_reduce
I0509 23:29:15.461496 24549 net.cpp:112] Top shape: 32 24 14 14 (150528)
I0509 23:29:15.461501 24549 layer_factory.hpp:74] Creating layer inception_4b/5x5
I0509 23:29:15.461513 24549 net.cpp:76] Creating Layer inception_4b/5x5
I0509 23:29:15.461518 24549 net.cpp:372] inception_4b/5x5 <- inception_4b/5x5_reduce
I0509 23:29:15.461525 24549 net.cpp:334] inception_4b/5x5 -> inception_4b/5x5
I0509 23:29:15.461534 24549 net.cpp:105] Setting up inception_4b/5x5
I0509 23:29:15.461863 24549 net.cpp:112] Top shape: 32 64 14 14 (401408)
I0509 23:29:15.461875 24549 layer_factory.hpp:74] Creating layer inception_4b/relu_5x5
I0509 23:29:15.461882 24549 net.cpp:76] Creating Layer inception_4b/relu_5x5
I0509 23:29:15.461889 24549 net.cpp:372] inception_4b/relu_5x5 <- inception_4b/5x5
I0509 23:29:15.461899 24549 net.cpp:323] inception_4b/relu_5x5 -> inception_4b/5x5 (in-place)
I0509 23:29:15.461906 24549 net.cpp:105] Setting up inception_4b/relu_5x5
I0509 23:29:15.461911 24549 net.cpp:112] Top shape: 32 64 14 14 (401408)
I0509 23:29:15.461916 24549 layer_factory.hpp:74] Creating layer inception_4b/pool
I0509 23:29:15.461925 24549 net.cpp:76] Creating Layer inception_4b/pool
I0509 23:29:15.461931 24549 net.cpp:372] inception_4b/pool <- inception_4a/output_inception_4a/output_0_split_4
I0509 23:29:15.461938 24549 net.cpp:334] inception_4b/pool -> inception_4b/pool
I0509 23:29:15.461956 24549 net.cpp:105] Setting up inception_4b/pool
I0509 23:29:15.461966 24549 net.cpp:112] Top shape: 32 512 14 14 (3211264)
I0509 23:29:15.461972 24549 layer_factory.hpp:74] Creating layer inception_4b/pool_proj
I0509 23:29:15.461984 24549 net.cpp:76] Creating Layer inception_4b/pool_proj
I0509 23:29:15.461990 24549 net.cpp:372] inception_4b/pool_proj <- inception_4b/pool
I0509 23:29:15.462000 24549 net.cpp:334] inception_4b/pool_proj -> inception_4b/pool_proj
I0509 23:29:15.462010 24549 net.cpp:105] Setting up inception_4b/pool_proj
I0509 23:29:15.462311 24549 net.cpp:112] Top shape: 32 64 14 14 (401408)
I0509 23:29:15.462324 24549 layer_factory.hpp:74] Creating layer inception_4b/relu_pool_proj
I0509 23:29:15.462334 24549 net.cpp:76] Creating Layer inception_4b/relu_pool_proj
I0509 23:29:15.462342 24549 net.cpp:372] inception_4b/relu_pool_proj <- inception_4b/pool_proj
I0509 23:29:15.462362 24549 net.cpp:323] inception_4b/relu_pool_proj -> inception_4b/pool_proj (in-place)
I0509 23:29:15.462369 24549 net.cpp:105] Setting up inception_4b/relu_pool_proj
I0509 23:29:15.462375 24549 net.cpp:112] Top shape: 32 64 14 14 (401408)
I0509 23:29:15.462381 24549 layer_factory.hpp:74] Creating layer inception_4b/output
I0509 23:29:15.462389 24549 net.cpp:76] Creating Layer inception_4b/output
I0509 23:29:15.462395 24549 net.cpp:372] inception_4b/output <- inception_4b/1x1
I0509 23:29:15.462401 24549 net.cpp:372] inception_4b/output <- inception_4b/3x3
I0509 23:29:15.462409 24549 net.cpp:372] inception_4b/output <- inception_4b/5x5
I0509 23:29:15.462414 24549 net.cpp:372] inception_4b/output <- inception_4b/pool_proj
I0509 23:29:15.462424 24549 net.cpp:334] inception_4b/output -> inception_4b/output
I0509 23:29:15.462432 24549 net.cpp:105] Setting up inception_4b/output
I0509 23:29:15.462438 24549 net.cpp:112] Top shape: 32 512 14 14 (3211264)
I0509 23:29:15.462445 24549 layer_factory.hpp:74] Creating layer inception_4b/output_inception_4b/output_0_split
I0509 23:29:15.462471 24549 net.cpp:76] Creating Layer inception_4b/output_inception_4b/output_0_split
I0509 23:29:15.462477 24549 net.cpp:372] inception_4b/output_inception_4b/output_0_split <- inception_4b/output
I0509 23:29:15.462486 24549 net.cpp:334] inception_4b/output_inception_4b/output_0_split -> inception_4b/output_inception_4b/output_0_split_0
I0509 23:29:15.462496 24549 net.cpp:334] inception_4b/output_inception_4b/output_0_split -> inception_4b/output_inception_4b/output_0_split_1
I0509 23:29:15.462504 24549 net.cpp:334] inception_4b/output_inception_4b/output_0_split -> inception_4b/output_inception_4b/output_0_split_2
I0509 23:29:15.462513 24549 net.cpp:334] inception_4b/output_inception_4b/output_0_split -> inception_4b/output_inception_4b/output_0_split_3
I0509 23:29:15.462522 24549 net.cpp:105] Setting up inception_4b/output_inception_4b/output_0_split
I0509 23:29:15.462528 24549 net.cpp:112] Top shape: 32 512 14 14 (3211264)
I0509 23:29:15.462533 24549 net.cpp:112] Top shape: 32 512 14 14 (3211264)
I0509 23:29:15.462538 24549 net.cpp:112] Top shape: 32 512 14 14 (3211264)
I0509 23:29:15.462543 24549 net.cpp:112] Top shape: 32 512 14 14 (3211264)
I0509 23:29:15.462548 24549 layer_factory.hpp:74] Creating layer inception_4c/1x1
I0509 23:29:15.462559 24549 net.cpp:76] Creating Layer inception_4c/1x1
I0509 23:29:15.462565 24549 net.cpp:372] inception_4c/1x1 <- inception_4b/output_inception_4b/output_0_split_0
I0509 23:29:15.462575 24549 net.cpp:334] inception_4c/1x1 -> inception_4c/1x1
I0509 23:29:15.462584 24549 net.cpp:105] Setting up inception_4c/1x1
I0509 23:29:15.463138 24549 net.cpp:112] Top shape: 32 128 14 14 (802816)
I0509 23:29:15.463155 24549 layer_factory.hpp:74] Creating layer inception_4c/relu_1x1
I0509 23:29:15.463162 24549 net.cpp:76] Creating Layer inception_4c/relu_1x1
I0509 23:29:15.463168 24549 net.cpp:372] inception_4c/relu_1x1 <- inception_4c/1x1
I0509 23:29:15.463177 24549 net.cpp:323] inception_4c/relu_1x1 -> inception_4c/1x1 (in-place)
I0509 23:29:15.463186 24549 net.cpp:105] Setting up inception_4c/relu_1x1
I0509 23:29:15.463191 24549 net.cpp:112] Top shape: 32 128 14 14 (802816)
I0509 23:29:15.463196 24549 layer_factory.hpp:74] Creating layer inception_4c/3x3_reduce
I0509 23:29:15.463206 24549 net.cpp:76] Creating Layer inception_4c/3x3_reduce
I0509 23:29:15.463212 24549 net.cpp:372] inception_4c/3x3_reduce <- inception_4b/output_inception_4b/output_0_split_1
I0509 23:29:15.463222 24549 net.cpp:334] inception_4c/3x3_reduce -> inception_4c/3x3_reduce
I0509 23:29:15.463230 24549 net.cpp:105] Setting up inception_4c/3x3_reduce
I0509 23:29:15.463796 24549 net.cpp:112] Top shape: 32 128 14 14 (802816)
I0509 23:29:15.463812 24549 layer_factory.hpp:74] Creating layer inception_4c/relu_3x3_reduce
I0509 23:29:15.463820 24549 net.cpp:76] Creating Layer inception_4c/relu_3x3_reduce
I0509 23:29:15.463826 24549 net.cpp:372] inception_4c/relu_3x3_reduce <- inception_4c/3x3_reduce
I0509 23:29:15.463835 24549 net.cpp:323] inception_4c/relu_3x3_reduce -> inception_4c/3x3_reduce (in-place)
I0509 23:29:15.463855 24549 net.cpp:105] Setting up inception_4c/relu_3x3_reduce
I0509 23:29:15.463860 24549 net.cpp:112] Top shape: 32 128 14 14 (802816)
I0509 23:29:15.463866 24549 layer_factory.hpp:74] Creating layer inception_4c/3x3
I0509 23:29:15.463874 24549 net.cpp:76] Creating Layer inception_4c/3x3
I0509 23:29:15.463881 24549 net.cpp:372] inception_4c/3x3 <- inception_4c/3x3_reduce
I0509 23:29:15.463893 24549 net.cpp:334] inception_4c/3x3 -> inception_4c/3x3
I0509 23:29:15.463902 24549 net.cpp:105] Setting up inception_4c/3x3
I0509 23:29:15.466383 24549 net.cpp:112] Top shape: 32 256 14 14 (1605632)
I0509 23:29:15.466413 24549 layer_factory.hpp:74] Creating layer inception_4c/relu_3x3
I0509 23:29:15.466423 24549 net.cpp:76] Creating Layer inception_4c/relu_3x3
I0509 23:29:15.467140 24549 net.cpp:372] inception_4c/relu_3x3 <- inception_4c/3x3
I0509 23:29:15.467151 24549 net.cpp:323] inception_4c/relu_3x3 -> inception_4c/3x3 (in-place)
I0509 23:29:15.467159 24549 net.cpp:105] Setting up inception_4c/relu_3x3
I0509 23:29:15.467165 24549 net.cpp:112] Top shape: 32 256 14 14 (1605632)
I0509 23:29:15.467171 24549 layer_factory.hpp:74] Creating layer inception_4c/5x5_reduce
I0509 23:29:15.467180 24549 net.cpp:76] Creating Layer inception_4c/5x5_reduce
I0509 23:29:15.467186 24549 net.cpp:372] inception_4c/5x5_reduce <- inception_4b/output_inception_4b/output_0_split_2
I0509 23:29:15.467197 24549 net.cpp:334] inception_4c/5x5_reduce -> inception_4c/5x5_reduce
I0509 23:29:15.467207 24549 net.cpp:105] Setting up inception_4c/5x5_reduce
I0509 23:29:15.467331 24549 net.cpp:112] Top shape: 32 24 14 14 (150528)
I0509 23:29:15.467344 24549 layer_factory.hpp:74] Creating layer inception_4c/relu_5x5_reduce
I0509 23:29:15.467352 24549 net.cpp:76] Creating Layer inception_4c/relu_5x5_reduce
I0509 23:29:15.467358 24549 net.cpp:372] inception_4c/relu_5x5_reduce <- inception_4c/5x5_reduce
I0509 23:29:15.467365 24549 net.cpp:323] inception_4c/relu_5x5_reduce -> inception_4c/5x5_reduce (in-place)
I0509 23:29:15.467372 24549 net.cpp:105] Setting up inception_4c/relu_5x5_reduce
I0509 23:29:15.467378 24549 net.cpp:112] Top shape: 32 24 14 14 (150528)
I0509 23:29:15.467385 24549 layer_factory.hpp:74] Creating layer inception_4c/5x5
I0509 23:29:15.467394 24549 net.cpp:76] Creating Layer inception_4c/5x5
I0509 23:29:15.467401 24549 net.cpp:372] inception_4c/5x5 <- inception_4c/5x5_reduce
I0509 23:29:15.467411 24549 net.cpp:334] inception_4c/5x5 -> inception_4c/5x5
I0509 23:29:15.467419 24549 net.cpp:105] Setting up inception_4c/5x5
I0509 23:29:15.467753 24549 net.cpp:112] Top shape: 32 64 14 14 (401408)
I0509 23:29:15.467768 24549 layer_factory.hpp:74] Creating layer inception_4c/relu_5x5
I0509 23:29:15.467777 24549 net.cpp:76] Creating Layer inception_4c/relu_5x5
I0509 23:29:15.467782 24549 net.cpp:372] inception_4c/relu_5x5 <- inception_4c/5x5
I0509 23:29:15.467789 24549 net.cpp:323] inception_4c/relu_5x5 -> inception_4c/5x5 (in-place)
I0509 23:29:15.467797 24549 net.cpp:105] Setting up inception_4c/relu_5x5
I0509 23:29:15.467803 24549 net.cpp:112] Top shape: 32 64 14 14 (401408)
I0509 23:29:15.467808 24549 layer_factory.hpp:74] Creating layer inception_4c/pool
I0509 23:29:15.467815 24549 net.cpp:76] Creating Layer inception_4c/pool
I0509 23:29:15.467820 24549 net.cpp:372] inception_4c/pool <- inception_4b/output_inception_4b/output_0_split_3
I0509 23:29:15.467828 24549 net.cpp:334] inception_4c/pool -> inception_4c/pool
I0509 23:29:15.467839 24549 net.cpp:105] Setting up inception_4c/pool
I0509 23:29:15.467845 24549 net.cpp:112] Top shape: 32 512 14 14 (3211264)
I0509 23:29:15.467851 24549 layer_factory.hpp:74] Creating layer inception_4c/pool_proj
I0509 23:29:15.467860 24549 net.cpp:76] Creating Layer inception_4c/pool_proj
I0509 23:29:15.467866 24549 net.cpp:372] inception_4c/pool_proj <- inception_4c/pool
I0509 23:29:15.467877 24549 net.cpp:334] inception_4c/pool_proj -> inception_4c/pool_proj
I0509 23:29:15.467886 24549 net.cpp:105] Setting up inception_4c/pool_proj
I0509 23:29:15.468184 24549 net.cpp:112] Top shape: 32 64 14 14 (401408)
I0509 23:29:15.468199 24549 layer_factory.hpp:74] Creating layer inception_4c/relu_pool_proj
I0509 23:29:15.468209 24549 net.cpp:76] Creating Layer inception_4c/relu_pool_proj
I0509 23:29:15.468214 24549 net.cpp:372] inception_4c/relu_pool_proj <- inception_4c/pool_proj
I0509 23:29:15.468222 24549 net.cpp:323] inception_4c/relu_pool_proj -> inception_4c/pool_proj (in-place)
I0509 23:29:15.468230 24549 net.cpp:105] Setting up inception_4c/relu_pool_proj
I0509 23:29:15.468235 24549 net.cpp:112] Top shape: 32 64 14 14 (401408)
I0509 23:29:15.468240 24549 layer_factory.hpp:74] Creating layer inception_4c/output
I0509 23:29:15.468250 24549 net.cpp:76] Creating Layer inception_4c/output
I0509 23:29:15.468256 24549 net.cpp:372] inception_4c/output <- inception_4c/1x1
I0509 23:29:15.468262 24549 net.cpp:372] inception_4c/output <- inception_4c/3x3
I0509 23:29:15.468268 24549 net.cpp:372] inception_4c/output <- inception_4c/5x5
I0509 23:29:15.468287 24549 net.cpp:372] inception_4c/output <- inception_4c/pool_proj
I0509 23:29:15.468296 24549 net.cpp:334] inception_4c/output -> inception_4c/output
I0509 23:29:15.468304 24549 net.cpp:105] Setting up inception_4c/output
I0509 23:29:15.468310 24549 net.cpp:112] Top shape: 32 512 14 14 (3211264)
I0509 23:29:15.468315 24549 layer_factory.hpp:74] Creating layer inception_4c/output_inception_4c/output_0_split
I0509 23:29:15.468323 24549 net.cpp:76] Creating Layer inception_4c/output_inception_4c/output_0_split
I0509 23:29:15.468329 24549 net.cpp:372] inception_4c/output_inception_4c/output_0_split <- inception_4c/output
I0509 23:29:15.468339 24549 net.cpp:334] inception_4c/output_inception_4c/output_0_split -> inception_4c/output_inception_4c/output_0_split_0
I0509 23:29:15.468350 24549 net.cpp:334] inception_4c/output_inception_4c/output_0_split -> inception_4c/output_inception_4c/output_0_split_1
I0509 23:29:15.468363 24549 net.cpp:334] inception_4c/output_inception_4c/output_0_split -> inception_4c/output_inception_4c/output_0_split_2
I0509 23:29:15.468374 24549 net.cpp:334] inception_4c/output_inception_4c/output_0_split -> inception_4c/output_inception_4c/output_0_split_3
I0509 23:29:15.468381 24549 net.cpp:105] Setting up inception_4c/output_inception_4c/output_0_split
I0509 23:29:15.468389 24549 net.cpp:112] Top shape: 32 512 14 14 (3211264)
I0509 23:29:15.468394 24549 net.cpp:112] Top shape: 32 512 14 14 (3211264)
I0509 23:29:15.468400 24549 net.cpp:112] Top shape: 32 512 14 14 (3211264)
I0509 23:29:15.468405 24549 net.cpp:112] Top shape: 32 512 14 14 (3211264)
I0509 23:29:15.468410 24549 layer_factory.hpp:74] Creating layer inception_4d/1x1
I0509 23:29:15.468420 24549 net.cpp:76] Creating Layer inception_4d/1x1
I0509 23:29:15.468425 24549 net.cpp:372] inception_4d/1x1 <- inception_4c/output_inception_4c/output_0_split_0
I0509 23:29:15.468433 24549 net.cpp:334] inception_4d/1x1 -> inception_4d/1x1
I0509 23:29:15.468442 24549 net.cpp:105] Setting up inception_4d/1x1
I0509 23:29:15.468932 24549 net.cpp:112] Top shape: 32 112 14 14 (702464)
I0509 23:29:15.468946 24549 layer_factory.hpp:74] Creating layer inception_4d/relu_1x1
I0509 23:29:15.468955 24549 net.cpp:76] Creating Layer inception_4d/relu_1x1
I0509 23:29:15.468961 24549 net.cpp:372] inception_4d/relu_1x1 <- inception_4d/1x1
I0509 23:29:15.468969 24549 net.cpp:323] inception_4d/relu_1x1 -> inception_4d/1x1 (in-place)
I0509 23:29:15.468977 24549 net.cpp:105] Setting up inception_4d/relu_1x1
I0509 23:29:15.468983 24549 net.cpp:112] Top shape: 32 112 14 14 (702464)
I0509 23:29:15.468988 24549 layer_factory.hpp:74] Creating layer inception_4d/3x3_reduce
I0509 23:29:15.468997 24549 net.cpp:76] Creating Layer inception_4d/3x3_reduce
I0509 23:29:15.469002 24549 net.cpp:372] inception_4d/3x3_reduce <- inception_4c/output_inception_4c/output_0_split_1
I0509 23:29:15.469012 24549 net.cpp:334] inception_4d/3x3_reduce -> inception_4d/3x3_reduce
I0509 23:29:15.469022 24549 net.cpp:105] Setting up inception_4d/3x3_reduce
I0509 23:29:15.469655 24549 net.cpp:112] Top shape: 32 144 14 14 (903168)
I0509 23:29:15.469681 24549 layer_factory.hpp:74] Creating layer inception_4d/relu_3x3_reduce
I0509 23:29:15.469691 24549 net.cpp:76] Creating Layer inception_4d/relu_3x3_reduce
I0509 23:29:15.469696 24549 net.cpp:372] inception_4d/relu_3x3_reduce <- inception_4d/3x3_reduce
I0509 23:29:15.469703 24549 net.cpp:323] inception_4d/relu_3x3_reduce -> inception_4d/3x3_reduce (in-place)
I0509 23:29:15.469712 24549 net.cpp:105] Setting up inception_4d/relu_3x3_reduce
I0509 23:29:15.469717 24549 net.cpp:112] Top shape: 32 144 14 14 (903168)
I0509 23:29:15.469722 24549 layer_factory.hpp:74] Creating layer inception_4d/3x3
I0509 23:29:15.469733 24549 net.cpp:76] Creating Layer inception_4d/3x3
I0509 23:29:15.469739 24549 net.cpp:372] inception_4d/3x3 <- inception_4d/3x3_reduce
I0509 23:29:15.469748 24549 net.cpp:334] inception_4d/3x3 -> inception_4d/3x3
I0509 23:29:15.469755 24549 net.cpp:105] Setting up inception_4d/3x3
I0509 23:29:15.473433 24549 net.cpp:112] Top shape: 32 288 14 14 (1806336)
I0509 23:29:15.473465 24549 layer_factory.hpp:74] Creating layer inception_4d/relu_3x3
I0509 23:29:15.473477 24549 net.cpp:76] Creating Layer inception_4d/relu_3x3
I0509 23:29:15.473485 24549 net.cpp:372] inception_4d/relu_3x3 <- inception_4d/3x3
I0509 23:29:15.473495 24549 net.cpp:323] inception_4d/relu_3x3 -> inception_4d/3x3 (in-place)
I0509 23:29:15.473503 24549 net.cpp:105] Setting up inception_4d/relu_3x3
I0509 23:29:15.473510 24549 net.cpp:112] Top shape: 32 288 14 14 (1806336)
I0509 23:29:15.473515 24549 layer_factory.hpp:74] Creating layer inception_4d/5x5_reduce
I0509 23:29:15.474115 24549 net.cpp:76] Creating Layer inception_4d/5x5_reduce
I0509 23:29:15.474133 24549 net.cpp:372] inception_4d/5x5_reduce <- inception_4c/output_inception_4c/output_0_split_2
I0509 23:29:15.474146 24549 net.cpp:334] inception_4d/5x5_reduce -> inception_4d/5x5_reduce
I0509 23:29:15.474158 24549 net.cpp:105] Setting up inception_4d/5x5_reduce
I0509 23:29:15.476228 24549 net.cpp:112] Top shape: 32 32 14 14 (200704)
I0509 23:29:15.476253 24549 layer_factory.hpp:74] Creating layer inception_4d/relu_5x5_reduce
I0509 23:29:15.476263 24549 net.cpp:76] Creating Layer inception_4d/relu_5x5_reduce
I0509 23:29:15.476270 24549 net.cpp:372] inception_4d/relu_5x5_reduce <- inception_4d/5x5_reduce
I0509 23:29:15.476281 24549 net.cpp:323] inception_4d/relu_5x5_reduce -> inception_4d/5x5_reduce (in-place)
I0509 23:29:15.476290 24549 net.cpp:105] Setting up inception_4d/relu_5x5_reduce
I0509 23:29:15.476296 24549 net.cpp:112] Top shape: 32 32 14 14 (200704)
I0509 23:29:15.476302 24549 layer_factory.hpp:74] Creating layer inception_4d/5x5
I0509 23:29:15.476311 24549 net.cpp:76] Creating Layer inception_4d/5x5
I0509 23:29:15.476316 24549 net.cpp:372] inception_4d/5x5 <- inception_4d/5x5_reduce
I0509 23:29:15.476326 24549 net.cpp:334] inception_4d/5x5 -> inception_4d/5x5
I0509 23:29:15.476336 24549 net.cpp:105] Setting up inception_4d/5x5
I0509 23:29:15.476806 24549 net.cpp:112] Top shape: 32 64 14 14 (401408)
I0509 23:29:15.476820 24549 layer_factory.hpp:74] Creating layer inception_4d/relu_5x5
I0509 23:29:15.476830 24549 net.cpp:76] Creating Layer inception_4d/relu_5x5
I0509 23:29:15.476837 24549 net.cpp:372] inception_4d/relu_5x5 <- inception_4d/5x5
I0509 23:29:15.476845 24549 net.cpp:323] inception_4d/relu_5x5 -> inception_4d/5x5 (in-place)
I0509 23:29:15.476852 24549 net.cpp:105] Setting up inception_4d/relu_5x5
I0509 23:29:15.476858 24549 net.cpp:112] Top shape: 32 64 14 14 (401408)
I0509 23:29:15.476863 24549 layer_factory.hpp:74] Creating layer inception_4d/pool
I0509 23:29:15.476874 24549 net.cpp:76] Creating Layer inception_4d/pool
I0509 23:29:15.476881 24549 net.cpp:372] inception_4d/pool <- inception_4c/output_inception_4c/output_0_split_3
I0509 23:29:15.476888 24549 net.cpp:334] inception_4d/pool -> inception_4d/pool
I0509 23:29:15.476897 24549 net.cpp:105] Setting up inception_4d/pool
I0509 23:29:15.476907 24549 net.cpp:112] Top shape: 32 512 14 14 (3211264)
I0509 23:29:15.476913 24549 layer_factory.hpp:74] Creating layer inception_4d/pool_proj
I0509 23:29:15.476953 24549 net.cpp:76] Creating Layer inception_4d/pool_proj
I0509 23:29:15.476960 24549 net.cpp:372] inception_4d/pool_proj <- inception_4d/pool
I0509 23:29:15.476970 24549 net.cpp:334] inception_4d/pool_proj -> inception_4d/pool_proj
I0509 23:29:15.476980 24549 net.cpp:105] Setting up inception_4d/pool_proj
I0509 23:29:15.477284 24549 net.cpp:112] Top shape: 32 64 14 14 (401408)
I0509 23:29:15.477298 24549 layer_factory.hpp:74] Creating layer inception_4d/relu_pool_proj
I0509 23:29:15.477305 24549 net.cpp:76] Creating Layer inception_4d/relu_pool_proj
I0509 23:29:15.477311 24549 net.cpp:372] inception_4d/relu_pool_proj <- inception_4d/pool_proj
I0509 23:29:15.477319 24549 net.cpp:323] inception_4d/relu_pool_proj -> inception_4d/pool_proj (in-place)
I0509 23:29:15.477326 24549 net.cpp:105] Setting up inception_4d/relu_pool_proj
I0509 23:29:15.477332 24549 net.cpp:112] Top shape: 32 64 14 14 (401408)
I0509 23:29:15.477337 24549 layer_factory.hpp:74] Creating layer inception_4d/output
I0509 23:29:15.477349 24549 net.cpp:76] Creating Layer inception_4d/output
I0509 23:29:15.477355 24549 net.cpp:372] inception_4d/output <- inception_4d/1x1
I0509 23:29:15.477361 24549 net.cpp:372] inception_4d/output <- inception_4d/3x3
I0509 23:29:15.477367 24549 net.cpp:372] inception_4d/output <- inception_4d/5x5
I0509 23:29:15.477373 24549 net.cpp:372] inception_4d/output <- inception_4d/pool_proj
I0509 23:29:15.477380 24549 net.cpp:334] inception_4d/output -> inception_4d/output
I0509 23:29:15.477388 24549 net.cpp:105] Setting up inception_4d/output
I0509 23:29:15.477396 24549 net.cpp:112] Top shape: 32 528 14 14 (3311616)
I0509 23:29:15.477401 24549 layer_factory.hpp:74] Creating layer inception_4d/output_inception_4d/output_0_split
I0509 23:29:15.477408 24549 net.cpp:76] Creating Layer inception_4d/output_inception_4d/output_0_split
I0509 23:29:15.477414 24549 net.cpp:372] inception_4d/output_inception_4d/output_0_split <- inception_4d/output
I0509 23:29:15.477424 24549 net.cpp:334] inception_4d/output_inception_4d/output_0_split -> inception_4d/output_inception_4d/output_0_split_0
I0509 23:29:15.477433 24549 net.cpp:334] inception_4d/output_inception_4d/output_0_split -> inception_4d/output_inception_4d/output_0_split_1
I0509 23:29:15.477443 24549 net.cpp:334] inception_4d/output_inception_4d/output_0_split -> inception_4d/output_inception_4d/output_0_split_2
I0509 23:29:15.477452 24549 net.cpp:334] inception_4d/output_inception_4d/output_0_split -> inception_4d/output_inception_4d/output_0_split_3
I0509 23:29:15.477460 24549 net.cpp:334] inception_4d/output_inception_4d/output_0_split -> inception_4d/output_inception_4d/output_0_split_4
I0509 23:29:15.477469 24549 net.cpp:105] Setting up inception_4d/output_inception_4d/output_0_split
I0509 23:29:15.477476 24549 net.cpp:112] Top shape: 32 528 14 14 (3311616)
I0509 23:29:15.477481 24549 net.cpp:112] Top shape: 32 528 14 14 (3311616)
I0509 23:29:15.477486 24549 net.cpp:112] Top shape: 32 528 14 14 (3311616)
I0509 23:29:15.477491 24549 net.cpp:112] Top shape: 32 528 14 14 (3311616)
I0509 23:29:15.477496 24549 net.cpp:112] Top shape: 32 528 14 14 (3311616)
I0509 23:29:15.477502 24549 layer_factory.hpp:74] Creating layer loss2/ave_pool
I0509 23:29:15.477512 24549 net.cpp:76] Creating Layer loss2/ave_pool
I0509 23:29:15.477519 24549 net.cpp:372] loss2/ave_pool <- inception_4d/output_inception_4d/output_0_split_0
I0509 23:29:15.477526 24549 net.cpp:334] loss2/ave_pool -> loss2/ave_pool
I0509 23:29:15.477535 24549 net.cpp:105] Setting up loss2/ave_pool
I0509 23:29:15.477540 24549 net.cpp:112] Top shape: 32 528 4 4 (270336)
I0509 23:29:15.477546 24549 layer_factory.hpp:74] Creating layer loss2/conv
I0509 23:29:15.477562 24549 net.cpp:76] Creating Layer loss2/conv
I0509 23:29:15.477569 24549 net.cpp:372] loss2/conv <- loss2/ave_pool
I0509 23:29:15.477576 24549 net.cpp:334] loss2/conv -> loss2/conv
I0509 23:29:15.477586 24549 net.cpp:105] Setting up loss2/conv
I0509 23:29:15.478183 24549 net.cpp:112] Top shape: 32 128 4 4 (65536)
I0509 23:29:15.478196 24549 layer_factory.hpp:74] Creating layer loss2/relu_conv
I0509 23:29:15.478217 24549 net.cpp:76] Creating Layer loss2/relu_conv
I0509 23:29:15.478224 24549 net.cpp:372] loss2/relu_conv <- loss2/conv
I0509 23:29:15.478235 24549 net.cpp:323] loss2/relu_conv -> loss2/conv (in-place)
I0509 23:29:15.478242 24549 net.cpp:105] Setting up loss2/relu_conv
I0509 23:29:15.478281 24549 net.cpp:112] Top shape: 32 128 4 4 (65536)
I0509 23:29:15.478291 24549 layer_factory.hpp:74] Creating layer loss2/fc
I0509 23:29:15.478301 24549 net.cpp:76] Creating Layer loss2/fc
I0509 23:29:15.478307 24549 net.cpp:372] loss2/fc <- loss2/conv
I0509 23:29:15.478314 24549 net.cpp:334] loss2/fc -> loss2/fc
I0509 23:29:15.478324 24549 net.cpp:105] Setting up loss2/fc
I0509 23:29:15.495687 24549 net.cpp:112] Top shape: 32 1024 1 1 (32768)
I0509 23:29:15.495707 24549 layer_factory.hpp:74] Creating layer loss2/relu_fc
I0509 23:29:15.495715 24549 net.cpp:76] Creating Layer loss2/relu_fc
I0509 23:29:15.495723 24549 net.cpp:372] loss2/relu_fc <- loss2/fc
I0509 23:29:15.495730 24549 net.cpp:323] loss2/relu_fc -> loss2/fc (in-place)
I0509 23:29:15.495743 24549 net.cpp:105] Setting up loss2/relu_fc
I0509 23:29:15.495748 24549 net.cpp:112] Top shape: 32 1024 1 1 (32768)
I0509 23:29:15.495754 24549 layer_factory.hpp:74] Creating layer loss2/drop_fc
I0509 23:29:15.495762 24549 net.cpp:76] Creating Layer loss2/drop_fc
I0509 23:29:15.495769 24549 net.cpp:372] loss2/drop_fc <- loss2/fc
I0509 23:29:15.495775 24549 net.cpp:323] loss2/drop_fc -> loss2/fc (in-place)
I0509 23:29:15.495782 24549 net.cpp:105] Setting up loss2/drop_fc
I0509 23:29:15.495790 24549 net.cpp:112] Top shape: 32 1024 1 1 (32768)
I0509 23:29:15.495795 24549 layer_factory.hpp:74] Creating layer loss2/classifier
I0509 23:29:15.495802 24549 net.cpp:76] Creating Layer loss2/classifier
I0509 23:29:15.495808 24549 net.cpp:372] loss2/classifier <- loss2/fc
I0509 23:29:15.495818 24549 net.cpp:334] loss2/classifier -> loss2/classifier
I0509 23:29:15.495831 24549 net.cpp:105] Setting up loss2/classifier
I0509 23:29:15.495862 24549 net.cpp:112] Top shape: 32 2 1 1 (64)
I0509 23:29:15.495872 24549 layer_factory.hpp:74] Creating layer loss2/loss
I0509 23:29:15.495882 24549 net.cpp:76] Creating Layer loss2/loss
I0509 23:29:15.495888 24549 net.cpp:372] loss2/loss <- loss2/classifier
I0509 23:29:15.495895 24549 net.cpp:372] loss2/loss <- label_data_1_split_1
I0509 23:29:15.495903 24549 net.cpp:334] loss2/loss -> loss2/loss1
I0509 23:29:15.495911 24549 net.cpp:105] Setting up loss2/loss
I0509 23:29:15.495919 24549 layer_factory.hpp:74] Creating layer loss2/loss
I0509 23:29:15.495934 24549 net.cpp:112] Top shape: 1 1 1 1 (1)
I0509 23:29:15.495940 24549 net.cpp:118]     with loss weight 0.3
I0509 23:29:15.495959 24549 layer_factory.hpp:74] Creating layer inception_4e/1x1
I0509 23:29:15.495970 24549 net.cpp:76] Creating Layer inception_4e/1x1
I0509 23:29:15.495975 24549 net.cpp:372] inception_4e/1x1 <- inception_4d/output_inception_4d/output_0_split_1
I0509 23:29:15.495985 24549 net.cpp:334] inception_4e/1x1 -> inception_4e/1x1
I0509 23:29:15.495992 24549 net.cpp:105] Setting up inception_4e/1x1
I0509 23:29:15.497185 24549 net.cpp:112] Top shape: 32 256 14 14 (1605632)
I0509 23:29:15.497215 24549 layer_factory.hpp:74] Creating layer inception_4e/relu_1x1
I0509 23:29:15.497227 24549 net.cpp:76] Creating Layer inception_4e/relu_1x1
I0509 23:29:15.497234 24549 net.cpp:372] inception_4e/relu_1x1 <- inception_4e/1x1
I0509 23:29:15.497242 24549 net.cpp:323] inception_4e/relu_1x1 -> inception_4e/1x1 (in-place)
I0509 23:29:15.497251 24549 net.cpp:105] Setting up inception_4e/relu_1x1
I0509 23:29:15.497256 24549 net.cpp:112] Top shape: 32 256 14 14 (1605632)
I0509 23:29:15.497262 24549 layer_factory.hpp:74] Creating layer inception_4e/3x3_reduce
I0509 23:29:15.497288 24549 net.cpp:76] Creating Layer inception_4e/3x3_reduce
I0509 23:29:15.497297 24549 net.cpp:372] inception_4e/3x3_reduce <- inception_4d/output_inception_4d/output_0_split_2
I0509 23:29:15.497308 24549 net.cpp:334] inception_4e/3x3_reduce -> inception_4e/3x3_reduce
I0509 23:29:15.497345 24549 net.cpp:105] Setting up inception_4e/3x3_reduce
I0509 23:29:15.498049 24549 net.cpp:112] Top shape: 32 160 14 14 (1003520)
I0509 23:29:15.498064 24549 layer_factory.hpp:74] Creating layer inception_4e/relu_3x3_reduce
I0509 23:29:15.498071 24549 net.cpp:76] Creating Layer inception_4e/relu_3x3_reduce
I0509 23:29:15.498077 24549 net.cpp:372] inception_4e/relu_3x3_reduce <- inception_4e/3x3_reduce
I0509 23:29:15.498087 24549 net.cpp:323] inception_4e/relu_3x3_reduce -> inception_4e/3x3_reduce (in-place)
I0509 23:29:15.498095 24549 net.cpp:105] Setting up inception_4e/relu_3x3_reduce
I0509 23:29:15.498101 24549 net.cpp:112] Top shape: 32 160 14 14 (1003520)
I0509 23:29:15.498107 24549 layer_factory.hpp:74] Creating layer inception_4e/3x3
I0509 23:29:15.498116 24549 net.cpp:76] Creating Layer inception_4e/3x3
I0509 23:29:15.498121 24549 net.cpp:372] inception_4e/3x3 <- inception_4e/3x3_reduce
I0509 23:29:15.498132 24549 net.cpp:334] inception_4e/3x3 -> inception_4e/3x3
I0509 23:29:15.498142 24549 net.cpp:105] Setting up inception_4e/3x3
I0509 23:29:15.502039 24549 net.cpp:112] Top shape: 32 320 14 14 (2007040)
I0509 23:29:15.502055 24549 layer_factory.hpp:74] Creating layer inception_4e/relu_3x3
I0509 23:29:15.502064 24549 net.cpp:76] Creating Layer inception_4e/relu_3x3
I0509 23:29:15.502070 24549 net.cpp:372] inception_4e/relu_3x3 <- inception_4e/3x3
I0509 23:29:15.502079 24549 net.cpp:323] inception_4e/relu_3x3 -> inception_4e/3x3 (in-place)
I0509 23:29:15.502086 24549 net.cpp:105] Setting up inception_4e/relu_3x3
I0509 23:29:15.502091 24549 net.cpp:112] Top shape: 32 320 14 14 (2007040)
I0509 23:29:15.502096 24549 layer_factory.hpp:74] Creating layer inception_4e/5x5_reduce
I0509 23:29:15.502109 24549 net.cpp:76] Creating Layer inception_4e/5x5_reduce
I0509 23:29:15.502115 24549 net.cpp:372] inception_4e/5x5_reduce <- inception_4d/output_inception_4d/output_0_split_3
I0509 23:29:15.502130 24549 net.cpp:334] inception_4e/5x5_reduce -> inception_4e/5x5_reduce
I0509 23:29:15.502138 24549 net.cpp:105] Setting up inception_4e/5x5_reduce
I0509 23:29:15.502301 24549 net.cpp:112] Top shape: 32 32 14 14 (200704)
I0509 23:29:15.502316 24549 layer_factory.hpp:74] Creating layer inception_4e/relu_5x5_reduce
I0509 23:29:15.502324 24549 net.cpp:76] Creating Layer inception_4e/relu_5x5_reduce
I0509 23:29:15.502331 24549 net.cpp:372] inception_4e/relu_5x5_reduce <- inception_4e/5x5_reduce
I0509 23:29:15.502337 24549 net.cpp:323] inception_4e/relu_5x5_reduce -> inception_4e/5x5_reduce (in-place)
I0509 23:29:15.502346 24549 net.cpp:105] Setting up inception_4e/relu_5x5_reduce
I0509 23:29:15.502351 24549 net.cpp:112] Top shape: 32 32 14 14 (200704)
I0509 23:29:15.502357 24549 layer_factory.hpp:74] Creating layer inception_4e/5x5
I0509 23:29:15.502388 24549 net.cpp:76] Creating Layer inception_4e/5x5
I0509 23:29:15.502395 24549 net.cpp:372] inception_4e/5x5 <- inception_4e/5x5_reduce
I0509 23:29:15.502404 24549 net.cpp:334] inception_4e/5x5 -> inception_4e/5x5
I0509 23:29:15.502413 24549 net.cpp:105] Setting up inception_4e/5x5
I0509 23:29:15.503319 24549 net.cpp:112] Top shape: 32 128 14 14 (802816)
I0509 23:29:15.503334 24549 layer_factory.hpp:74] Creating layer inception_4e/relu_5x5
I0509 23:29:15.503343 24549 net.cpp:76] Creating Layer inception_4e/relu_5x5
I0509 23:29:15.503350 24549 net.cpp:372] inception_4e/relu_5x5 <- inception_4e/5x5
I0509 23:29:15.503356 24549 net.cpp:323] inception_4e/relu_5x5 -> inception_4e/5x5 (in-place)
I0509 23:29:15.503365 24549 net.cpp:105] Setting up inception_4e/relu_5x5
I0509 23:29:15.503370 24549 net.cpp:112] Top shape: 32 128 14 14 (802816)
I0509 23:29:15.503376 24549 layer_factory.hpp:74] Creating layer inception_4e/pool
I0509 23:29:15.503383 24549 net.cpp:76] Creating Layer inception_4e/pool
I0509 23:29:15.503389 24549 net.cpp:372] inception_4e/pool <- inception_4d/output_inception_4d/output_0_split_4
I0509 23:29:15.503401 24549 net.cpp:334] inception_4e/pool -> inception_4e/pool
I0509 23:29:15.503409 24549 net.cpp:105] Setting up inception_4e/pool
I0509 23:29:15.503417 24549 net.cpp:112] Top shape: 32 528 14 14 (3311616)
I0509 23:29:15.503444 24549 layer_factory.hpp:74] Creating layer inception_4e/pool_proj
I0509 23:29:15.503455 24549 net.cpp:76] Creating Layer inception_4e/pool_proj
I0509 23:29:15.503464 24549 net.cpp:372] inception_4e/pool_proj <- inception_4e/pool
I0509 23:29:15.503473 24549 net.cpp:334] inception_4e/pool_proj -> inception_4e/pool_proj
I0509 23:29:15.503482 24549 net.cpp:105] Setting up inception_4e/pool_proj
I0509 23:29:15.504066 24549 net.cpp:112] Top shape: 32 128 14 14 (802816)
I0509 23:29:15.504079 24549 layer_factory.hpp:74] Creating layer inception_4e/relu_pool_proj
I0509 23:29:15.504087 24549 net.cpp:76] Creating Layer inception_4e/relu_pool_proj
I0509 23:29:15.504094 24549 net.cpp:372] inception_4e/relu_pool_proj <- inception_4e/pool_proj
I0509 23:29:15.504103 24549 net.cpp:323] inception_4e/relu_pool_proj -> inception_4e/pool_proj (in-place)
I0509 23:29:15.504112 24549 net.cpp:105] Setting up inception_4e/relu_pool_proj
I0509 23:29:15.504117 24549 net.cpp:112] Top shape: 32 128 14 14 (802816)
I0509 23:29:15.504123 24549 layer_factory.hpp:74] Creating layer inception_4e/output
I0509 23:29:15.504132 24549 net.cpp:76] Creating Layer inception_4e/output
I0509 23:29:15.504137 24549 net.cpp:372] inception_4e/output <- inception_4e/1x1
I0509 23:29:15.504143 24549 net.cpp:372] inception_4e/output <- inception_4e/3x3
I0509 23:29:15.504149 24549 net.cpp:372] inception_4e/output <- inception_4e/5x5
I0509 23:29:15.504155 24549 net.cpp:372] inception_4e/output <- inception_4e/pool_proj
I0509 23:29:15.504163 24549 net.cpp:334] inception_4e/output -> inception_4e/output
I0509 23:29:15.504171 24549 net.cpp:105] Setting up inception_4e/output
I0509 23:29:15.504179 24549 net.cpp:112] Top shape: 32 832 14 14 (5218304)
I0509 23:29:15.504184 24549 layer_factory.hpp:74] Creating layer pool4/3x3_s2
I0509 23:29:15.504191 24549 net.cpp:76] Creating Layer pool4/3x3_s2
I0509 23:29:15.504217 24549 net.cpp:372] pool4/3x3_s2 <- inception_4e/output
I0509 23:29:15.504245 24549 net.cpp:334] pool4/3x3_s2 -> pool4/3x3_s2
I0509 23:29:15.504256 24549 net.cpp:105] Setting up pool4/3x3_s2
I0509 23:29:15.504263 24549 net.cpp:112] Top shape: 32 832 7 7 (1304576)
I0509 23:29:15.504269 24549 layer_factory.hpp:74] Creating layer pool4/3x3_s2_pool4/3x3_s2_0_split
I0509 23:29:15.504277 24549 net.cpp:76] Creating Layer pool4/3x3_s2_pool4/3x3_s2_0_split
I0509 23:29:15.504283 24549 net.cpp:372] pool4/3x3_s2_pool4/3x3_s2_0_split <- pool4/3x3_s2
I0509 23:29:15.504292 24549 net.cpp:334] pool4/3x3_s2_pool4/3x3_s2_0_split -> pool4/3x3_s2_pool4/3x3_s2_0_split_0
I0509 23:29:15.504302 24549 net.cpp:334] pool4/3x3_s2_pool4/3x3_s2_0_split -> pool4/3x3_s2_pool4/3x3_s2_0_split_1
I0509 23:29:15.504312 24549 net.cpp:334] pool4/3x3_s2_pool4/3x3_s2_0_split -> pool4/3x3_s2_pool4/3x3_s2_0_split_2
I0509 23:29:15.504319 24549 net.cpp:334] pool4/3x3_s2_pool4/3x3_s2_0_split -> pool4/3x3_s2_pool4/3x3_s2_0_split_3
I0509 23:29:15.504328 24549 net.cpp:105] Setting up pool4/3x3_s2_pool4/3x3_s2_0_split
I0509 23:29:15.504334 24549 net.cpp:112] Top shape: 32 832 7 7 (1304576)
I0509 23:29:15.504339 24549 net.cpp:112] Top shape: 32 832 7 7 (1304576)
I0509 23:29:15.504344 24549 net.cpp:112] Top shape: 32 832 7 7 (1304576)
I0509 23:29:15.504349 24549 net.cpp:112] Top shape: 32 832 7 7 (1304576)
I0509 23:29:15.504354 24549 layer_factory.hpp:74] Creating layer inception_5a/1x1
I0509 23:29:15.504365 24549 net.cpp:76] Creating Layer inception_5a/1x1
I0509 23:29:15.504371 24549 net.cpp:372] inception_5a/1x1 <- pool4/3x3_s2_pool4/3x3_s2_0_split_0
I0509 23:29:15.504379 24549 net.cpp:334] inception_5a/1x1 -> inception_5a/1x1
I0509 23:29:15.504389 24549 net.cpp:105] Setting up inception_5a/1x1
I0509 23:29:15.506187 24549 net.cpp:112] Top shape: 32 256 7 7 (401408)
I0509 23:29:15.506202 24549 layer_factory.hpp:74] Creating layer inception_5a/relu_1x1
I0509 23:29:15.506211 24549 net.cpp:76] Creating Layer inception_5a/relu_1x1
I0509 23:29:15.506217 24549 net.cpp:372] inception_5a/relu_1x1 <- inception_5a/1x1
I0509 23:29:15.506227 24549 net.cpp:323] inception_5a/relu_1x1 -> inception_5a/1x1 (in-place)
I0509 23:29:15.506247 24549 net.cpp:105] Setting up inception_5a/relu_1x1
I0509 23:29:15.506254 24549 net.cpp:112] Top shape: 32 256 7 7 (401408)
I0509 23:29:15.506259 24549 layer_factory.hpp:74] Creating layer inception_5a/3x3_reduce
I0509 23:29:15.506268 24549 net.cpp:76] Creating Layer inception_5a/3x3_reduce
I0509 23:29:15.506289 24549 net.cpp:372] inception_5a/3x3_reduce <- pool4/3x3_s2_pool4/3x3_s2_0_split_1
I0509 23:29:15.506347 24549 net.cpp:334] inception_5a/3x3_reduce -> inception_5a/3x3_reduce
I0509 23:29:15.506364 24549 net.cpp:105] Setting up inception_5a/3x3_reduce
I0509 23:29:15.507524 24549 net.cpp:112] Top shape: 32 160 7 7 (250880)
I0509 23:29:15.507542 24549 layer_factory.hpp:74] Creating layer inception_5a/relu_3x3_reduce
I0509 23:29:15.507554 24549 net.cpp:76] Creating Layer inception_5a/relu_3x3_reduce
I0509 23:29:15.507560 24549 net.cpp:372] inception_5a/relu_3x3_reduce <- inception_5a/3x3_reduce
I0509 23:29:15.507568 24549 net.cpp:323] inception_5a/relu_3x3_reduce -> inception_5a/3x3_reduce (in-place)
I0509 23:29:15.507576 24549 net.cpp:105] Setting up inception_5a/relu_3x3_reduce
I0509 23:29:15.507582 24549 net.cpp:112] Top shape: 32 160 7 7 (250880)
I0509 23:29:15.507588 24549 layer_factory.hpp:74] Creating layer inception_5a/3x3
I0509 23:29:15.507598 24549 net.cpp:76] Creating Layer inception_5a/3x3
I0509 23:29:15.507604 24549 net.cpp:372] inception_5a/3x3 <- inception_5a/3x3_reduce
I0509 23:29:15.507612 24549 net.cpp:334] inception_5a/3x3 -> inception_5a/3x3
I0509 23:29:15.507622 24549 net.cpp:105] Setting up inception_5a/3x3
I0509 23:29:15.511493 24549 net.cpp:112] Top shape: 32 320 7 7 (501760)
I0509 23:29:15.511512 24549 layer_factory.hpp:74] Creating layer inception_5a/relu_3x3
I0509 23:29:15.511521 24549 net.cpp:76] Creating Layer inception_5a/relu_3x3
I0509 23:29:15.511528 24549 net.cpp:372] inception_5a/relu_3x3 <- inception_5a/3x3
I0509 23:29:15.511535 24549 net.cpp:323] inception_5a/relu_3x3 -> inception_5a/3x3 (in-place)
I0509 23:29:15.511543 24549 net.cpp:105] Setting up inception_5a/relu_3x3
I0509 23:29:15.511548 24549 net.cpp:112] Top shape: 32 320 7 7 (501760)
I0509 23:29:15.511554 24549 layer_factory.hpp:74] Creating layer inception_5a/5x5_reduce
I0509 23:29:15.511562 24549 net.cpp:76] Creating Layer inception_5a/5x5_reduce
I0509 23:29:15.511569 24549 net.cpp:372] inception_5a/5x5_reduce <- pool4/3x3_s2_pool4/3x3_s2_0_split_2
I0509 23:29:15.511579 24549 net.cpp:334] inception_5a/5x5_reduce -> inception_5a/5x5_reduce
I0509 23:29:15.511591 24549 net.cpp:105] Setting up inception_5a/5x5_reduce
I0509 23:29:15.511826 24549 net.cpp:112] Top shape: 32 32 7 7 (50176)
I0509 23:29:15.511839 24549 layer_factory.hpp:74] Creating layer inception_5a/relu_5x5_reduce
I0509 23:29:15.511847 24549 net.cpp:76] Creating Layer inception_5a/relu_5x5_reduce
I0509 23:29:15.511853 24549 net.cpp:372] inception_5a/relu_5x5_reduce <- inception_5a/5x5_reduce
I0509 23:29:15.511860 24549 net.cpp:323] inception_5a/relu_5x5_reduce -> inception_5a/5x5_reduce (in-place)
I0509 23:29:15.511868 24549 net.cpp:105] Setting up inception_5a/relu_5x5_reduce
I0509 23:29:15.511873 24549 net.cpp:112] Top shape: 32 32 7 7 (50176)
I0509 23:29:15.511879 24549 layer_factory.hpp:74] Creating layer inception_5a/5x5
I0509 23:29:15.511886 24549 net.cpp:76] Creating Layer inception_5a/5x5
I0509 23:29:15.511894 24549 net.cpp:372] inception_5a/5x5 <- inception_5a/5x5_reduce
I0509 23:29:15.511905 24549 net.cpp:334] inception_5a/5x5 -> inception_5a/5x5
I0509 23:29:15.511914 24549 net.cpp:105] Setting up inception_5a/5x5
I0509 23:29:15.512821 24549 net.cpp:112] Top shape: 32 128 7 7 (200704)
I0509 23:29:15.512836 24549 layer_factory.hpp:74] Creating layer inception_5a/relu_5x5
I0509 23:29:15.512845 24549 net.cpp:76] Creating Layer inception_5a/relu_5x5
I0509 23:29:15.512850 24549 net.cpp:372] inception_5a/relu_5x5 <- inception_5a/5x5
I0509 23:29:15.512857 24549 net.cpp:323] inception_5a/relu_5x5 -> inception_5a/5x5 (in-place)
I0509 23:29:15.512866 24549 net.cpp:105] Setting up inception_5a/relu_5x5
I0509 23:29:15.512892 24549 net.cpp:112] Top shape: 32 128 7 7 (200704)
I0509 23:29:15.512898 24549 layer_factory.hpp:74] Creating layer inception_5a/pool
I0509 23:29:15.512908 24549 net.cpp:76] Creating Layer inception_5a/pool
I0509 23:29:15.512915 24549 net.cpp:372] inception_5a/pool <- pool4/3x3_s2_pool4/3x3_s2_0_split_3
I0509 23:29:15.512923 24549 net.cpp:334] inception_5a/pool -> inception_5a/pool
I0509 23:29:15.512933 24549 net.cpp:105] Setting up inception_5a/pool
I0509 23:29:15.512939 24549 net.cpp:112] Top shape: 32 832 7 7 (1304576)
I0509 23:29:15.512948 24549 layer_factory.hpp:74] Creating layer inception_5a/pool_proj
I0509 23:29:15.512959 24549 net.cpp:76] Creating Layer inception_5a/pool_proj
I0509 23:29:15.512966 24549 net.cpp:372] inception_5a/pool_proj <- inception_5a/pool
I0509 23:29:15.512974 24549 net.cpp:334] inception_5a/pool_proj -> inception_5a/pool_proj
I0509 23:29:15.512984 24549 net.cpp:105] Setting up inception_5a/pool_proj
I0509 23:29:15.513893 24549 net.cpp:112] Top shape: 32 128 7 7 (200704)
I0509 23:29:15.513907 24549 layer_factory.hpp:74] Creating layer inception_5a/relu_pool_proj
I0509 23:29:15.513916 24549 net.cpp:76] Creating Layer inception_5a/relu_pool_proj
I0509 23:29:15.513921 24549 net.cpp:372] inception_5a/relu_pool_proj <- inception_5a/pool_proj
I0509 23:29:15.513931 24549 net.cpp:323] inception_5a/relu_pool_proj -> inception_5a/pool_proj (in-place)
I0509 23:29:15.513939 24549 net.cpp:105] Setting up inception_5a/relu_pool_proj
I0509 23:29:15.513945 24549 net.cpp:112] Top shape: 32 128 7 7 (200704)
I0509 23:29:15.513952 24549 layer_factory.hpp:74] Creating layer inception_5a/output
I0509 23:29:15.513958 24549 net.cpp:76] Creating Layer inception_5a/output
I0509 23:29:15.513964 24549 net.cpp:372] inception_5a/output <- inception_5a/1x1
I0509 23:29:15.513970 24549 net.cpp:372] inception_5a/output <- inception_5a/3x3
I0509 23:29:15.513978 24549 net.cpp:372] inception_5a/output <- inception_5a/5x5
I0509 23:29:15.513983 24549 net.cpp:372] inception_5a/output <- inception_5a/pool_proj
I0509 23:29:15.513990 24549 net.cpp:334] inception_5a/output -> inception_5a/output
I0509 23:29:15.514000 24549 net.cpp:105] Setting up inception_5a/output
I0509 23:29:15.514006 24549 net.cpp:112] Top shape: 32 832 7 7 (1304576)
I0509 23:29:15.514013 24549 layer_factory.hpp:74] Creating layer inception_5a/output_inception_5a/output_0_split
I0509 23:29:15.514020 24549 net.cpp:76] Creating Layer inception_5a/output_inception_5a/output_0_split
I0509 23:29:15.514026 24549 net.cpp:372] inception_5a/output_inception_5a/output_0_split <- inception_5a/output
I0509 23:29:15.514036 24549 net.cpp:334] inception_5a/output_inception_5a/output_0_split -> inception_5a/output_inception_5a/output_0_split_0
I0509 23:29:15.514046 24549 net.cpp:334] inception_5a/output_inception_5a/output_0_split -> inception_5a/output_inception_5a/output_0_split_1
I0509 23:29:15.514055 24549 net.cpp:334] inception_5a/output_inception_5a/output_0_split -> inception_5a/output_inception_5a/output_0_split_2
I0509 23:29:15.514065 24549 net.cpp:334] inception_5a/output_inception_5a/output_0_split -> inception_5a/output_inception_5a/output_0_split_3
I0509 23:29:15.514072 24549 net.cpp:105] Setting up inception_5a/output_inception_5a/output_0_split
I0509 23:29:15.514080 24549 net.cpp:112] Top shape: 32 832 7 7 (1304576)
I0509 23:29:15.514085 24549 net.cpp:112] Top shape: 32 832 7 7 (1304576)
I0509 23:29:15.514089 24549 net.cpp:112] Top shape: 32 832 7 7 (1304576)
I0509 23:29:15.514094 24549 net.cpp:112] Top shape: 32 832 7 7 (1304576)
I0509 23:29:15.514099 24549 layer_factory.hpp:74] Creating layer inception_5b/1x1
I0509 23:29:15.514109 24549 net.cpp:76] Creating Layer inception_5b/1x1
I0509 23:29:15.514116 24549 net.cpp:372] inception_5b/1x1 <- inception_5a/output_inception_5a/output_0_split_0
I0509 23:29:15.514123 24549 net.cpp:334] inception_5b/1x1 -> inception_5b/1x1
I0509 23:29:15.514132 24549 net.cpp:105] Setting up inception_5b/1x1
I0509 23:29:15.516818 24549 net.cpp:112] Top shape: 32 384 7 7 (602112)
I0509 23:29:15.516834 24549 layer_factory.hpp:74] Creating layer inception_5b/relu_1x1
I0509 23:29:15.516856 24549 net.cpp:76] Creating Layer inception_5b/relu_1x1
I0509 23:29:15.516885 24549 net.cpp:372] inception_5b/relu_1x1 <- inception_5b/1x1
I0509 23:29:15.516893 24549 net.cpp:323] inception_5b/relu_1x1 -> inception_5b/1x1 (in-place)
I0509 23:29:15.516901 24549 net.cpp:105] Setting up inception_5b/relu_1x1
I0509 23:29:15.516907 24549 net.cpp:112] Top shape: 32 384 7 7 (602112)
I0509 23:29:15.516912 24549 layer_factory.hpp:74] Creating layer inception_5b/3x3_reduce
I0509 23:29:15.516924 24549 net.cpp:76] Creating Layer inception_5b/3x3_reduce
I0509 23:29:15.516932 24549 net.cpp:372] inception_5b/3x3_reduce <- inception_5a/output_inception_5a/output_0_split_1
I0509 23:29:15.516939 24549 net.cpp:334] inception_5b/3x3_reduce -> inception_5b/3x3_reduce
I0509 23:29:15.516948 24549 net.cpp:105] Setting up inception_5b/3x3_reduce
I0509 23:29:15.518371 24549 net.cpp:112] Top shape: 32 192 7 7 (301056)
I0509 23:29:15.518388 24549 layer_factory.hpp:74] Creating layer inception_5b/relu_3x3_reduce
I0509 23:29:15.518398 24549 net.cpp:76] Creating Layer inception_5b/relu_3x3_reduce
I0509 23:29:15.518404 24549 net.cpp:372] inception_5b/relu_3x3_reduce <- inception_5b/3x3_reduce
I0509 23:29:15.518414 24549 net.cpp:323] inception_5b/relu_3x3_reduce -> inception_5b/3x3_reduce (in-place)
I0509 23:29:15.518422 24549 net.cpp:105] Setting up inception_5b/relu_3x3_reduce
I0509 23:29:15.518427 24549 net.cpp:112] Top shape: 32 192 7 7 (301056)
I0509 23:29:15.518434 24549 layer_factory.hpp:74] Creating layer inception_5b/3x3
I0509 23:29:15.518441 24549 net.cpp:76] Creating Layer inception_5b/3x3
I0509 23:29:15.518447 24549 net.cpp:372] inception_5b/3x3 <- inception_5b/3x3_reduce
I0509 23:29:15.518457 24549 net.cpp:334] inception_5b/3x3 -> inception_5b/3x3
I0509 23:29:15.518486 24549 net.cpp:105] Setting up inception_5b/3x3
I0509 23:29:15.524467 24549 net.cpp:112] Top shape: 32 384 7 7 (602112)
I0509 23:29:15.524487 24549 layer_factory.hpp:74] Creating layer inception_5b/relu_3x3
I0509 23:29:15.524497 24549 net.cpp:76] Creating Layer inception_5b/relu_3x3
I0509 23:29:15.524502 24549 net.cpp:372] inception_5b/relu_3x3 <- inception_5b/3x3
I0509 23:29:15.524512 24549 net.cpp:323] inception_5b/relu_3x3 -> inception_5b/3x3 (in-place)
I0509 23:29:15.524521 24549 net.cpp:105] Setting up inception_5b/relu_3x3
I0509 23:29:15.524526 24549 net.cpp:112] Top shape: 32 384 7 7 (602112)
I0509 23:29:15.524533 24549 layer_factory.hpp:74] Creating layer inception_5b/5x5_reduce
I0509 23:29:15.524544 24549 net.cpp:76] Creating Layer inception_5b/5x5_reduce
I0509 23:29:15.524549 24549 net.cpp:372] inception_5b/5x5_reduce <- inception_5a/output_inception_5a/output_0_split_2
I0509 23:29:15.524559 24549 net.cpp:334] inception_5b/5x5_reduce -> inception_5b/5x5_reduce
I0509 23:29:15.524567 24549 net.cpp:105] Setting up inception_5b/5x5_reduce
I0509 23:29:15.524916 24549 net.cpp:112] Top shape: 32 48 7 7 (75264)
I0509 23:29:15.524930 24549 layer_factory.hpp:74] Creating layer inception_5b/relu_5x5_reduce
I0509 23:29:15.524936 24549 net.cpp:76] Creating Layer inception_5b/relu_5x5_reduce
I0509 23:29:15.524942 24549 net.cpp:372] inception_5b/relu_5x5_reduce <- inception_5b/5x5_reduce
I0509 23:29:15.524950 24549 net.cpp:323] inception_5b/relu_5x5_reduce -> inception_5b/5x5_reduce (in-place)
I0509 23:29:15.524957 24549 net.cpp:105] Setting up inception_5b/relu_5x5_reduce
I0509 23:29:15.524963 24549 net.cpp:112] Top shape: 32 48 7 7 (75264)
I0509 23:29:15.524968 24549 layer_factory.hpp:74] Creating layer inception_5b/5x5
I0509 23:29:15.524978 24549 net.cpp:76] Creating Layer inception_5b/5x5
I0509 23:29:15.524984 24549 net.cpp:372] inception_5b/5x5 <- inception_5b/5x5_reduce
I0509 23:29:15.524992 24549 net.cpp:334] inception_5b/5x5 -> inception_5b/5x5
I0509 23:29:15.525002 24549 net.cpp:105] Setting up inception_5b/5x5
I0509 23:29:15.526319 24549 net.cpp:112] Top shape: 32 128 7 7 (200704)
I0509 23:29:15.526334 24549 layer_factory.hpp:74] Creating layer inception_5b/relu_5x5
I0509 23:29:15.526341 24549 net.cpp:76] Creating Layer inception_5b/relu_5x5
I0509 23:29:15.526363 24549 net.cpp:372] inception_5b/relu_5x5 <- inception_5b/5x5
I0509 23:29:15.526374 24549 net.cpp:323] inception_5b/relu_5x5 -> inception_5b/5x5 (in-place)
I0509 23:29:15.526383 24549 net.cpp:105] Setting up inception_5b/relu_5x5
I0509 23:29:15.526388 24549 net.cpp:112] Top shape: 32 128 7 7 (200704)
I0509 23:29:15.526394 24549 layer_factory.hpp:74] Creating layer inception_5b/pool
I0509 23:29:15.526402 24549 net.cpp:76] Creating Layer inception_5b/pool
I0509 23:29:15.526408 24549 net.cpp:372] inception_5b/pool <- inception_5a/output_inception_5a/output_0_split_3
I0509 23:29:15.526417 24549 net.cpp:334] inception_5b/pool -> inception_5b/pool
I0509 23:29:15.526424 24549 net.cpp:105] Setting up inception_5b/pool
I0509 23:29:15.526432 24549 net.cpp:112] Top shape: 32 832 7 7 (1304576)
I0509 23:29:15.526438 24549 layer_factory.hpp:74] Creating layer inception_5b/pool_proj
I0509 23:29:15.526449 24549 net.cpp:76] Creating Layer inception_5b/pool_proj
I0509 23:29:15.526455 24549 net.cpp:372] inception_5b/pool_proj <- inception_5b/pool
I0509 23:29:15.526465 24549 net.cpp:334] inception_5b/pool_proj -> inception_5b/pool_proj
I0509 23:29:15.526474 24549 net.cpp:105] Setting up inception_5b/pool_proj
I0509 23:29:15.527375 24549 net.cpp:112] Top shape: 32 128 7 7 (200704)
I0509 23:29:15.527390 24549 layer_factory.hpp:74] Creating layer inception_5b/relu_pool_proj
I0509 23:29:15.527398 24549 net.cpp:76] Creating Layer inception_5b/relu_pool_proj
I0509 23:29:15.527405 24549 net.cpp:372] inception_5b/relu_pool_proj <- inception_5b/pool_proj
I0509 23:29:15.527413 24549 net.cpp:323] inception_5b/relu_pool_proj -> inception_5b/pool_proj (in-place)
I0509 23:29:15.527422 24549 net.cpp:105] Setting up inception_5b/relu_pool_proj
I0509 23:29:15.527427 24549 net.cpp:112] Top shape: 32 128 7 7 (200704)
I0509 23:29:15.527433 24549 layer_factory.hpp:74] Creating layer inception_5b/output
I0509 23:29:15.527441 24549 net.cpp:76] Creating Layer inception_5b/output
I0509 23:29:15.527447 24549 net.cpp:372] inception_5b/output <- inception_5b/1x1
I0509 23:29:15.527453 24549 net.cpp:372] inception_5b/output <- inception_5b/3x3
I0509 23:29:15.527461 24549 net.cpp:372] inception_5b/output <- inception_5b/5x5
I0509 23:29:15.527467 24549 net.cpp:372] inception_5b/output <- inception_5b/pool_proj
I0509 23:29:15.527477 24549 net.cpp:334] inception_5b/output -> inception_5b/output
I0509 23:29:15.527485 24549 net.cpp:105] Setting up inception_5b/output
I0509 23:29:15.527492 24549 net.cpp:112] Top shape: 32 1024 7 7 (1605632)
I0509 23:29:15.527497 24549 layer_factory.hpp:74] Creating layer pool5/7x7_s1
I0509 23:29:15.527504 24549 net.cpp:76] Creating Layer pool5/7x7_s1
I0509 23:29:15.527510 24549 net.cpp:372] pool5/7x7_s1 <- inception_5b/output
I0509 23:29:15.527518 24549 net.cpp:334] pool5/7x7_s1 -> pool5/7x7_s1
I0509 23:29:15.527526 24549 net.cpp:105] Setting up pool5/7x7_s1
I0509 23:29:15.527534 24549 net.cpp:112] Top shape: 32 1024 1 1 (32768)
I0509 23:29:15.527539 24549 layer_factory.hpp:74] Creating layer pool5/drop_7x7_s1
I0509 23:29:15.527546 24549 net.cpp:76] Creating Layer pool5/drop_7x7_s1
I0509 23:29:15.527552 24549 net.cpp:372] pool5/drop_7x7_s1 <- pool5/7x7_s1
I0509 23:29:15.527561 24549 net.cpp:323] pool5/drop_7x7_s1 -> pool5/7x7_s1 (in-place)
I0509 23:29:15.527570 24549 net.cpp:105] Setting up pool5/drop_7x7_s1
I0509 23:29:15.527576 24549 net.cpp:112] Top shape: 32 1024 1 1 (32768)
I0509 23:29:15.527582 24549 layer_factory.hpp:74] Creating layer loss3/classifier
I0509 23:29:15.527591 24549 net.cpp:76] Creating Layer loss3/classifier
I0509 23:29:15.527597 24549 net.cpp:372] loss3/classifier <- pool5/7x7_s1
I0509 23:29:15.527611 24549 net.cpp:334] loss3/classifier -> loss3/classifier
I0509 23:29:15.527621 24549 net.cpp:105] Setting up loss3/classifier
I0509 23:29:15.527652 24549 net.cpp:112] Top shape: 32 2 1 1 (64)
I0509 23:29:15.527662 24549 layer_factory.hpp:74] Creating layer loss3/loss3
I0509 23:29:15.527673 24549 net.cpp:76] Creating Layer loss3/loss3
I0509 23:29:15.527678 24549 net.cpp:372] loss3/loss3 <- loss3/classifier
I0509 23:29:15.527696 24549 net.cpp:372] loss3/loss3 <- label_data_1_split_2
I0509 23:29:15.527709 24549 net.cpp:334] loss3/loss3 -> loss3/loss3
I0509 23:29:15.527717 24549 net.cpp:105] Setting up loss3/loss3
I0509 23:29:15.527725 24549 layer_factory.hpp:74] Creating layer loss3/loss3
I0509 23:29:15.527740 24549 net.cpp:112] Top shape: 1 1 1 1 (1)
I0509 23:29:15.527746 24549 net.cpp:118]     with loss weight 1
I0509 23:29:15.527765 24549 net.cpp:163] loss3/loss3 needs backward computation.
I0509 23:29:15.527770 24549 net.cpp:163] loss3/classifier needs backward computation.
I0509 23:29:15.527796 24549 net.cpp:163] pool5/drop_7x7_s1 needs backward computation.
I0509 23:29:15.527801 24549 net.cpp:163] pool5/7x7_s1 needs backward computation.
…
I0509 23:29:15.536082 24549 solver.cpp:154] Creating test net (#0) specified by net file: ../../train_val.prototxt
I0509 23:29:15.536362 24549 net.cpp:253] The NetState phase (1) differed from the phase (0) specified by a rule in layer data
I0509 23:29:15.537763 24549 net.cpp:42] Initializing net from parameters: 
name: "GoogleNet"
state {
  phase: TEST
}
layer {
  name: "data"
  type: "Data"
  top: "data"
  top: "label"
  include {
    phase: TEST
  }
  transform_param {
    mirror: false
    crop_size: 224
    mean_value: 104
    mean_value: 117
    mean_value: 123
  }
  data_param {
    source: "val_lmdb"
    batch_size: 32
    backend: LMDB
  }
}
layer {
  name: "conv1/7x7_s2"
  type: "Convolution"
  bottom: "data"
  top: "conv1/7x7_s2"
  param {
    lr_mult: 1
    decay_mult: 1
  }
  param {
    lr_mult: 2
    decay_mult: 0
  }
  convolution_param {
    num_output: 64
    pad: 3
    kernel_size: 7
    stride: 2
    weight_filler {
      type: "xavier"
      std: 0.1
    }
    bias_filler {
      type: "constant"
      value: 0.2
    }
  }
}
layer {
  name: "conv1/relu_7x7"
  type: "ReLU"
  bottom: "conv1/7x7_s2"
  top: "conv1/7x7_s2"
}
layer {
  name: "pool1/3x3_s2"
  type: "Pooling"
  bottom: "conv1/7x7_s2"
  top: "pool1/3x3_s2"
  pooling_param {
    pool: MAX
    kernel_size: 3
    stride: 2
  }
}
layer {
  name: "pool1/norm1"
  type: "LRN"
  bottom: "pool1/3x3_s2"
  top: "pool1/norm1"
  lrn_param {
    local_size: 5
    alpha: 0.0001
    beta: 0.75
  }
}
layer {
  name: "conv2/3x3_reduce"
  type: "Convolution"
  bottom: "pool1/norm1"
  top: "conv2/3x3_reduce"
  param {
    lr_mult: 1
    decay_mult: 1
  }
  param {
    lr_mult: 2
    decay_mult: 0
  }
  convolution_param {
    num_output: 64
    kernel_size: 1
    weight_filler {
      type: "xavier"
      std: 0.1
    }
    bias_filler {
      type: "constant"
      value: 0.2
    }
  }
}
layer {
  name: "conv2/relu_3x3_reduce"
  type: "ReLU"
  bottom: "conv2/3x3_reduce"
  top: "conv2/3x3_reduce"
}
layer {
  name: "conv2/3x3"
  type: "Convolution"
  bottom: "conv2/3x3_reduce"
  top: "conv2/3x3"
  param {
    lr_mult: 1
    decay_mult: 1
  }
  param {
    lr_mult: 2
    decay_mult: 0
  }
  convolution_param {
    num_output: 192
    pad: 1
    kernel_size: 3
    weight_filler {
      type: "xavier"
      std: 0.03
    }
    bias_filler {
      type: "constant"
      value: 0.2
    }
  }
}
layer {
  name: "conv2/relu_3x3"
  type: "ReLU"
  bottom: "conv2/3x3"
  top: "conv2/3x3"
}
layer {
  name: "conv2/norm2"
  type: "LRN"
  bottom: "conv2/3x3"
  top: "conv2/norm2"
  lrn_param {
    local_size: 5
    alpha: 0.0001
    beta: 0.75
  }
}
layer {
  name: "pool2/3x3_s2"
  type: "Pooling"
  bottom: "conv2/norm2"
  top: "pool2/3x3_s2"
  pooling_param {
    pool: MAX
    kernel_size: 3
    stride: 2
  }
}
layer {
  name: "inception_3a/1x1"
  type: "Convolution"
  bottom: "pool2/3x3_s2"
  top: "inception_3a/1x1"
  param {
    lr_mult: 1
    decay_mult: 1
  }
  param {
    lr_mult: 2
    decay_mult: 0
  }
  convolution_param {
    num_output: 64
    kernel_size: 1
    weight_filler {
      type: "xavier"
      std: 0.03
    }
    bias_filler {
      type: "constant"
      value: 0.2
    }
  }
}
layer {
  name: "inception_3a/relu_1x1"
  type: "ReLU"
  bottom: "inception_3a/1x1"
  top: "inception_3a/1x1"
}
layer {
  name: "inception_3a/3x3_reduce"
  type: "Convolution"
  bottom: "pool2/3x3_s2"
  top: "inception_3a/3x3_reduce"
  param {
    lr_mult: 1
    decay_mult: 1
  }
  param {
    lr_mult: 2
    decay_mult: 0
  }
  convolution_param {
    num_output: 96
    kernel_size: 1
    weight_filler {
      type: "xavier"
      std: 0.09
    }
    bias_filler {
      type: "constant"
      value: 0.2
    }
  }
}
layer {
  name: "inception_3a/relu_3x3_reduce"
  type: "ReLU"
  bottom: "inception_3a/3x3_reduce"
  top: "inception_3a/3x3_reduce"
}
layer {
  name: "inception_3a/3x3"
  type: "Convolution"
  bottom: "inception_3a/3x3_reduce"
  top: "inception_3a/3x3"
  param {
    lr_mult: 1
    decay_mult: 1
  }
  param {
    lr_mult: 2
    decay_mult: 0
  }
  convolution_param {
    num_output: 128
    pad: 1
    kernel_size: 3
    weight_filler {
      type: "xavier"
      std: 0.03
    }
    bias_filler {
      type: "constant"
      value: 0.2
    }
  }
}
layer {
  name: "inception_3a/relu_3x3"
  type: "ReLU"
  bottom: "inception_3a/3x3"
  top: "inception_3a/3x3"
}
layer {
  name: "inception_3a/5x5_reduce"
  type: "Convolution"
  bottom: "pool2/3x3_s2"
  top: "inception_3a/5x5_reduce"
  param {
    lr_mult: 1
    decay_mult: 1
  }
  param {
    lr_mult: 2
    decay_mult: 0
  }
  convolution_param {
    num_output: 16
    kernel_size: 1
    weight_filler {
      type: "xavier"
      std: 0.2
    }
    bias_filler {
      type: "constant"
      value: 0.2
    }
  }
}
layer {
  name: "inception_3a/relu_5x5_reduce"
  type: "ReLU"
  bottom: "inception_3a/5x5_reduce"
  top: "inception_3a/5x5_reduce"
}
layer {
  name: "inception_3a/5x5"
  type: "Convolution"
  bottom: "inception_3a/5x5_reduce"
  top: "inception_3a/5x5"
  param {
    lr_mult: 1
    decay_mult: 1
  }
  param {
    lr_mult: 2
    decay_mult: 0
  }
  convolution_param {
    num_output: 32
    pad: 2
    kernel_size: 5
    weight_filler {
      type: "xavier"
      std: 0.03
    }
    bias_filler {
      type: "constant"
      value: 0.2
    }
  }
}
layer {
  name: "inception_3a/relu_5x5"
  type: "ReLU"
  bottom: "inception_3a/5x5"
  top: "inception_3a/5x5"
}
layer {
  name: "inception_3a/pool"
  type: "Pooling"
  bottom: "pool2/3x3_s2"
  top: "inception_3a/pool"
  pooling_param {
    pool: MAX
    kernel_size: 3
    stride: 1
    pad: 1
  }
}
layer {
  name: "inception_3a/pool_proj"
  type: "Convolution"
  bottom: "inception_3a/pool"
  top: "inception_3a/pool_proj"
  param {
    lr_mult: 1
    decay_mult: 1
  }
  param {
    lr_mult: 2
    decay_mult: 0
  }
  convolution_param {
    num_output: 32
    kernel_size: 1
    weight_filler {
      type: "xavier"
      std: 0.1
    }
    bias_filler {
      type: "constant"
      value: 0.2
    }
  }
}
layer {
  name: "inception_3a/relu_pool_proj"
  type: "ReLU"
  bottom: "inception_3a/pool_proj"
  top: "inception_3a/pool_proj"
}
layer {
  name: "inception_3a/output"
  type: "Concat"
  bottom: "inception_3a/1x1"
  bottom: "inception_3a/3x3"
  bottom: "inception_3a/5x5"
  bottom: "inception_3a/pool_proj"
  top: "inception_3a/output"
}
layer {
  name: "inception_3b/1x1"
  type: "Convolution"
  bottom: "inception_3a/output"
  top: "inception_3b/1x1"
  param {
    lr_mult: 1
    decay_mult: 1
  }
  param {
    lr_mult: 2
    decay_mult: 0
  }
  convolution_param {
    num_output: 128
    kernel_size: 1
    weight_filler {
      type: "xavier"
      std: 0.03
    }
    bias_filler {
      type: "constant"
      value: 0.2
    }
  }
}
layer {
  name: "inception_3b/relu_1x1"
  type: "ReLU"
  bottom: "inception_3b/1x1"
  top: "inception_3b/1x1"
}
layer {
  name: "inception_3b/3x3_reduce"
  type: "Convolution"
  bottom: "inception_3a/output"
  top: "inception_3b/3x3_reduce"
  param {
    lr_mult: 1
    decay_mult: 1
  }
  param {
    lr_mult: 2
    decay_mult: 0
  }
  convolution_param {
    num_output: 128
    kernel_size: 1
    weight_filler {
      type: "xavier"
      std: 0.09
    }
    bias_filler {
      type: "constant"
      value: 0.2
    }
  }
}
layer {
  name: "inception_3b/relu_3x3_reduce"
  type: "ReLU"
  bottom: "inception_3b/3x3_reduce"
  top: "inception_3b/3x3_reduce"
}
layer {
  name: "inception_3b/3x3"
  type: "Convolution"
  bottom: "inception_3b/3x3_reduce"
  top: "inception_3b/3x3"
  param {
    lr_mult: 1
    decay_mult: 1
  }
  param {
    lr_mult: 2
    decay_mult: 0
  }
  convolution_param {
    num_output: 192
    pad: 1
    kernel_size: 3
    weight_filler {
      type: "xavier"
      std: 0.03
    }
    bias_filler {
      type: "constant"
      value: 0.2
    }
  }
}
layer {
  name: "inception_3b/relu_3x3"
  type: "ReLU"
  bottom: "inception_3b/3x3"
  top: "inception_3b/3x3"
}
layer {
  name: "inception_3b/5x5_reduce"
  type: "Convolution"
  bottom: "inception_3a/output"
  top: "inception_3b/5x5_reduce"
  param {
    lr_mult: 1
    decay_mult: 1
  }
  param {
    lr_mult: 2
    decay_mult: 0
  }
  convolution_param {
    num_output: 32
    kernel_size: 1
    weight_filler {
      type: "xavier"
      std: 0.2
    }
    bias_filler {
      type: "constant"
      value: 0.2
    }
  }
}
layer {
  name: "inception_3b/relu_5x5_reduce"
  type: "ReLU"
  bottom: "inception_3b/5x5_reduce"
  top: "inception_3b/5x5_reduce"
}
layer {
  name: "inception_3b/5x5"
  type: "Convolution"
  bottom: "inception_3b/5x5_reduce"
  top: "inception_3b/5x5"
  param {
    lr_mult: 1
    decay_mult: 1
  }
  param {
    lr_mult: 2
    decay_mult: 0
  }
  convolution_param {
    num_output: 96
    pad: 2
    kernel_size: 5
    weight_filler {
      type: "xavier"
      std: 0.03
    }
    bias_filler {
      type: "constant"
      value: 0.2
    }
  }
}
layer {
  name: "inception_3b/relu_5x5"
  type: "ReLU"
  bottom: "inception_3b/5x5"
  top: "inception_3b/5x5"
}
layer {
  name: "inception_3b/pool"
  type: "Pooling"
  bottom: "inception_3a/output"
  top: "inception_3b/pool"
  pooling_param {
    pool: MAX
    kernel_size: 3
    stride: 1
    pad: 1
  }
}
layer {
  name: "inception_3b/pool_proj"
  type: "Convolution"
  bottom: "inception_3b/pool"
  top: "inception_3b/pool_proj"
  param {
    lr_mult: 1
    decay_mult: 1
  }
  param {
    lr_mult: 2
    decay_mult: 0
  }
  convolution_param {
    num_output: 64
    kernel_size: 1
    weight_filler {
      type: "xavier"
      std: 0.1
    }
    bias_filler {
      type: "constant"
      value: 0.2
    }
  }
}
layer {
  name: "inception_3b/relu_pool_proj"
  type: "ReLU"
  bottom: "inception_3b/pool_proj"
  top: "inception_3b/pool_proj"
}
layer {
  name: "inception_3b/output"
  type: "Concat"
  bottom: "inception_3b/1x1"
  bottom: "inception_3b/3x3"
  bottom: "inception_3b/5x5"
  bottom: "inception_3b/pool_proj"
  top: "inception_3b/output"
}
layer {
  name: "pool3/3x3_s2"
  type: "Pooling"
  bottom: "inception_3b/output"
  top: "pool3/3x3_s2"
  pooling_param {
    pool: MAX
    kernel_size: 3
    stride: 2
  }
}
layer {
  name: "inception_4a/1x1"
  type: "Convolution"
  bottom: "pool3/3x3_s2"
  top: "inception_4a/1x1"
  param {
    lr_mult: 1
    decay_mult: 1
  }
  param {
    lr_mult: 2
    decay_mult: 0
  }
  convolution_param {
    num_output: 192
    kernel_size: 1
    weight_filler {
      type: "xavier"
      std: 0.03
    }
    bias_filler {
      type: "constant"
      value: 0.2
    }
  }
}
layer {
  name: "inception_4a/relu_1x1"
  type: "ReLU"
  bottom: "inception_4a/1x1"
  top: "inception_4a/1x1"
}
layer {
  name: "inception_4a/3x3_reduce"
  type: "Convolution"
  bottom: "pool3/3x3_s2"
  top: "inception_4a/3x3_reduce"
  param {
    lr_mult: 1
    decay_mult: 1
  }
  param {
    lr_mult: 2
    decay_mult: 0
  }
  convolution_param {
    num_output: 96
    kernel_size: 1
    weight_filler {
      type: "xavier"
      std: 0.09
    }
    bias_filler {
      type: "constant"
      value: 0.2
    }
  }
}
layer {
  name: "inception_4a/relu_3x3_reduce"
  type: "ReLU"
  bottom: "inception_4a/3x3_reduce"
  top: "inception_4a/3x3_reduce"
}
layer {
  name: "inception_4a/3x3"
  type: "Convolution"
  bottom: "inception_4a/3x3_reduce"
  top: "inception_4a/3x3"
  param {
    lr_mult: 1
    decay_mult: 1
  }
  param {
    lr_mult: 2
    decay_mult: 0
  }
  convolution_param {
    num_output: 208
    pad: 1
    kernel_size: 3
    weight_filler {
      type: "xavier"
      std: 0.03
    }
    bias_filler {
      type: "constant"
      value: 0.2
    }
  }
}
layer {
  name: "inception_4a/relu_3x3"
  type: "ReLU"
  bottom: "inception_4a/3x3"
  top: "inception_4a/3x3"
}
layer {
  name: "inception_4a/5x5_reduce"
  type: "Convolution"
  bottom: "pool3/3x3_s2"
  top: "inception_4a/5x5_reduce"
  param {
    lr_mult: 1
    decay_mult: 1
  }
  param {
    lr_mult: 2
    decay_mult: 0
  }
  convolution_param {
    num_output: 16
    kernel_size: 1
    weight_filler {
      type: "xavier"
      std: 0.2
    }
    bias_filler {
      type: "constant"
      value: 0.2
    }
  }
}
layer {
  name: "inception_4a/relu_5x5_reduce"
  type: "ReLU"
  bottom: "inception_4a/5x5_reduce"
  top: "inception_4a/5x5_reduce"
}
layer {
  name: "inception_4a/5x5"
  type: "Convolution"
  bottom: "inception_4a/5x5_reduce"
  top: "inception_4a/5x5"
  param {
    lr_mult: 1
    decay_mult: 1
  }
  param {
    lr_mult: 2
    decay_mult: 0
  }
  convolution_param {
    num_output: 48
    pad: 2
    kernel_size: 5
    weight_filler {
      type: "xavier"
      std: 0.03
    }
    bias_filler {
      type: "constant"
      value: 0.2
    }
  }
}
layer {
  name: "inception_4a/relu_5x5"
  type: "ReLU"
  bottom: "inception_4a/5x5"
  top: "inception_4a/5x5"
}
layer {
  name: "inception_4a/pool"
  type: "Pooling"
  bottom: "pool3/3x3_s2"
  top: "inception_4a/pool"
  pooling_param {
    pool: MAX
    kernel_size: 3
    stride: 1
    pad: 1
  }
}
layer {
  name: "inception_4a/pool_proj"
  type: "Convolution"
  bottom: "inception_4a/pool"
  top: "inception_4a/pool_proj"
  param {
    lr_mult: 1
    decay_mult: 1
  }
  param {
    lr_mult: 2
    decay_mult: 0
  }
  convolution_param {
    num_output: 64
    kernel_size: 1
    weight_filler {
      type: "xavier"
      std: 0.1
    }
    bias_filler {
      type: "constant"
      value: 0.2
    }
  }
}
layer {
  name: "inception_4a/relu_pool_proj"
  type: "ReLU"
  bottom: "inception_4a/pool_proj"
  top: "inception_4a/pool_proj"
}
layer {
  name: "inception_4a/output"
  type: "Concat"
  bottom: "inception_4a/1x1"
  bottom: "inception_4a/3x3"
  bottom: "inception_4a/5x5"
  bottom: "inception_4a/pool_proj"
  top: "inception_4a/output"
}
layer {
  name: "loss1/ave_pool"
  type: "Pooling"
  bottom: "inception_4a/output"
  top: "loss1/ave_pool"
  pooling_param {
    pool: AVE
    kernel_size: 5
    stride: 3
  }
}
layer {
  name: "loss1/conv"
  type: "Convolution"
  bottom: "loss1/ave_pool"
  top: "loss1/conv"
  param {
    lr_mult: 1
    decay_mult: 1
  }
  param {
    lr_mult: 2
    decay_mult: 0
  }
  convolution_param {
    num_output: 128
    kernel_size: 1
    weight_filler {
      type: "xavier"
      std: 0.08
    }
    bias_filler {
      type: "constant"
      value: 0.2
    }
  }
}
layer {
  name: "loss1/relu_conv"
  type: "ReLU"
  bottom: "loss1/conv"
  top: "loss1/conv"
}
layer {
  name: "loss1/fc"
  type: "InnerProduct"
  bottom: "loss1/conv"
  top: "loss1/fc"
  param {
    lr_mult: 1
    decay_mult: 1
  }
  param {
    lr_mult: 2
    decay_mult: 0
  }
  inner_product_param {
    num_output: 1024
    weight_filler {
      type: "xavier"
      std: 0.02
    }
    bias_filler {
      type: "constant"
      value: 0.2
    }
  }
}
layer {
  name: "loss1/relu_fc"
  type: "ReLU"
  bottom: "loss1/fc"
  top: "loss1/fc"
}
layer {
  name: "loss1/drop_fc"
  type: "Dropout"
  bottom: "loss1/fc"
  top: "loss1/fc"
  dropout_param {
    dropout_ratio: 0.7
  }
}
layer {
  name: "loss1/classifier"
  type: "InnerProduct"
  bottom: "loss1/fc"
  top: "loss1/classifier"
  param {
    lr_mult: 1
    decay_mult: 1
  }
  param {
    lr_mult: 2
    decay_mult: 0
  }
  inner_product_param {
    num_output: 2
    weight_filler {
      type: "xavier"
      std: 0.0009765625
    }
    bias_filler {
      type: "constant"
      value: 0
    }
  }
}
layer {
  name: "loss1/loss"
  type: "SoftmaxWithLoss"
  bottom: "loss1/classifier"
  bottom: "label"
  top: "loss1/loss1"
  loss_weight: 0.3
}
layer {
  name: "loss1/top-1"
  type: "Accuracy"
  bottom: "loss1/classifier"
  bottom: "label"
  top: "loss1/top-1"
  include {
    phase: TEST
  }
}
layer {
  name: "inception_4b/1x1"
  type: "Convolution"
  bottom: "inception_4a/output"
  top: "inception_4b/1x1"
  param {
    lr_mult: 1
    decay_mult: 1
  }
  param {
    lr_mult: 2
    decay_mult: 0
  }
  convolution_param {
    num_output: 160
    kernel_size: 1
    weight_filler {
      type: "xavier"
      std: 0.03
    }
    bias_filler {
      type: "constant"
      value: 0.2
    }
  }
}
layer {
  name: "inception_4b/relu_1x1"
  type: "ReLU"
  bottom: "inception_4b/1x1"
  top: "inception_4b/1x1"
}
layer {
  name: "inception_4b/3x3_reduce"
  type: "Convolution"
  bottom: "inception_4a/output"
  top: "inception_4b/3x3_reduce"
  param {
    lr_mult: 1
    decay_mult: 1
  }
  param {
    lr_mult: 2
    decay_mult: 0
  }
  convolution_param {
    num_output: 112
    kernel_size: 1
    weight_filler {
      type: "xavier"
      std: 0.09
    }
    bias_filler {
      type: "constant"
      value: 0.2
    }
  }
}
layer {
  name: "inception_4b/relu_3x3_reduce"
  type: "ReLU"
  bottom: "inception_4b/3x3_reduce"
  top: "inception_4b/3x3_reduce"
}
layer {
  name: "inception_4b/3x3"
  type: "Convolution"
  bottom: "inception_4b/3x3_reduce"
  top: "inception_4b/3x3"
  param {
    lr_mult: 1
    decay_mult: 1
  }
  param {
    lr_mult: 2
    decay_mult: 0
  }
  convolution_param {
    num_output: 224
    pad: 1
    kernel_size: 3
    weight_filler {
      type: "xavier"
      std: 0.03
    }
    bias_filler {
      type: "constant"
      value: 0.2
    }
  }
}
layer {
  name: "inception_4b/relu_3x3"
  type: "ReLU"
  bottom: "inception_4b/3x3"
  top: "inception_4b/3x3"
}
layer {
  name: "inception_4b/5x5_reduce"
  type: "Convolution"
  bottom: "inception_4a/output"
  top: "inception_4b/5x5_reduce"
  param {
    lr_mult: 1
    decay_mult: 1
  }
  param {
    lr_mult: 2
    decay_mult: 0
  }
  convolution_param {
    num_output: 24
    kernel_size: 1
    weight_filler {
      type: "xavier"
      std: 0.2
    }
    bias_filler {
      type: "constant"
      value: 0.2
    }
  }
}
layer {
  name: "inception_4b/relu_5x5_reduce"
  type: "ReLU"
  bottom: "inception_4b/5x5_reduce"
  top: "inception_4b/5x5_reduce"
}
layer {
  name: "inception_4b/5x5"
  type: "Convolution"
  bottom: "inception_4b/5x5_reduce"
  top: "inception_4b/5x5"
  param {
    lr_mult: 1
    decay_mult: 1
  }
  param {
    lr_mult: 2
    decay_mult: 0
  }
  convolution_param {
    num_output: 64
    pad: 2
    kernel_size: 5
    weight_filler {
      type: "xavier"
      std: 0.03
    }
    bias_filler {
      type: "constant"
      value: 0.2
    }
  }
}
layer {
  name: "inception_4b/relu_5x5"
  type: "ReLU"
  bottom: "inception_4b/5x5"
  top: "inception_4b/5x5"
}
layer {
  name: "inception_4b/pool"
  type: "Pooling"
  bottom: "inception_4a/output"
  top: "inception_4b/pool"
  pooling_param {
    pool: MAX
    kernel_size: 3
    stride: 1
    pad: 1
  }
}
layer {
  name: "inception_4b/pool_proj"
  type: "Convolution"
  bottom: "inception_4b/pool"
  top: "inception_4b/pool_proj"
  param {
    lr_mult: 1
    decay_mult: 1
  }
  param {
    lr_mult: 2
    decay_mult: 0
  }
  convolution_param {
    num_output: 64
    kernel_size: 1
    weight_filler {
      type: "xavier"
      std: 0.1
    }
    bias_filler {
      type: "constant"
      value: 0.2
    }
  }
}
layer {
  name: "inception_4b/relu_pool_proj"
  type: "ReLU"
  bottom: "inception_4b/pool_proj"
  top: "inception_4b/pool_proj"
}
layer {
  name: "inception_4b/output"
  type: "Concat"
  bottom: "inception_4b/1x1"
  bottom: "inception_4b/3x3"
  bottom: "inception_4b/5x5"
  bottom: "inception_4b/pool_proj"
  top: "inception_4b/output"
}
layer {
  name: "inception_4c/1x1"
  type: "Convolution"
  bottom: "inception_4b/output"
  top: "inception_4c/1x1"
  param {
    lr_mult: 1
    decay_mult: 1
  }
  param {
    lr_mult: 2
    decay_mult: 0
  }
  convolution_param {
    num_output: 128
    kernel_size: 1
    weight_filler {
      type: "xavier"
      std: 0.03
    }
    bias_filler {
      type: "constant"
      value: 0.2
    }
  }
}
layer {
  name: "inception_4c/relu_1x1"
  type: "ReLU"
  bottom: "inception_4c/1x1"
  top: "inception_4c/1x1"
}
layer {
  name: "inception_4c/3x3_reduce"
  type: "Convolution"
  bottom: "inception_4b/output"
  top: "inception_4c/3x3_reduce"
  param {
    lr_mult: 1
    decay_mult: 1
  }
  param {
    lr_mult: 2
    decay_mult: 0
  }
  convolution_param {
    num_output: 128
    kernel_size: 1
    weight_filler {
      type: "xavier"
      std: 0.09
    }
    bias_filler {
      type: "constant"
      value: 0.2
    }
  }
}
layer {
  name: "inception_4c/relu_3x3_reduce"
  type: "ReLU"
  bottom: "inception_4c/3x3_reduce"
  top: "inception_4c/3x3_reduce"
}
layer {
  name: "inception_4c/3x3"
  type: "Convolution"
  bottom: "inception_4c/3x3_reduce"
  top: "inception_4c/3x3"
  param {
    lr_mult: 1
    decay_mult: 1
  }
  param {
    lr_mult: 2
    decay_mult: 0
  }
  convolution_param {
    num_output: 256
    pad: 1
    kernel_size: 3
    weight_filler {
      type: "xavier"
      std: 0.03
    }
    bias_filler {
      type: "constant"
      value: 0.2
    }
  }
}
layer {
  name: "inception_4c/relu_3x3"
  type: "ReLU"
  bottom: "inception_4c/3x3"
  top: "inception_4c/3x3"
}
layer {
  name: "inception_4c/5x5_reduce"
  type: "Convolution"
  bottom: "inception_4b/output"
  top: "inception_4c/5x5_reduce"
  param {
    lr_mult: 1
    decay_mult: 1
  }
  param {
    lr_mult: 2
    decay_mult: 0
  }
  convolution_param {
    num_output: 24
    kernel_size: 1
    weight_filler {
      type: "xavier"
      std: 0.2
    }
    bias_filler {
      type: "constant"
      value: 0.2
    }
  }
}
layer {
  name: "inception_4c/relu_5x5_reduce"
  type: "ReLU"
  bottom: "inception_4c/5x5_reduce"
  top: "inception_4c/5x5_reduce"
}
layer {
  name: "inception_4c/5x5"
  type: "Convolution"
  bottom: "inception_4c/5x5_reduce"
  top: "inception_4c/5x5"
  param {
    lr_mult: 1
    decay_mult: 1
  }
  param {
    lr_mult: 2
    decay_mult: 0
  }
  convolution_param {
    num_output: 64
    pad: 2
    kernel_size: 5
    weight_filler {
      type: "xavier"
      std: 0.03
    }
    bias_filler {
      type: "constant"
      value: 0.2
    }
  }
}
layer {
  name: "inception_4c/relu_5x5"
  type: "ReLU"
  bottom: "inception_4c/5x5"
  top: "inception_4c/5x5"
}
layer {
  name: "inception_4c/pool"
  type: "Pooling"
  bottom: "inception_4b/output"
  top: "inception_4c/pool"
  pooling_param {
    pool: MAX
    kernel_size: 3
    stride: 1
    pad: 1
  }
}
layer {
  name: "inception_4c/pool_proj"
  type: "Convolution"
  bottom: "inception_4c/pool"
  top: "inception_4c/pool_proj"
  param {
    lr_mult: 1
    decay_mult: 1
  }
  param {
    lr_mult: 2
    decay_mult: 0
  }
  convolution_param {
    num_output: 64
    kernel_size: 1
    weight_filler {
      type: "xavier"
      std: 0.1
    }
    bias_filler {
      type: "constant"
      value: 0.2
    }
  }
}
layer {
  name: "inception_4c/relu_pool_proj"
  type: "ReLU"
  bottom: "inception_4c/pool_proj"
  top: "inception_4c/pool_proj"
}
layer {
  name: "inception_4c/output"
  type: "Concat"
  bottom: "inception_4c/1x1"
  bottom: "inception_4c/3x3"
  bottom: "inception_4c/5x5"
  bottom: "inception_4c/pool_proj"
  top: "inception_4c/output"
}
layer {
  name: "inception_4d/1x1"
  type: "Convolution"
  bottom: "inception_4c/output"
  top: "inception_4d/1x1"
  param {
    lr_mult: 1
    decay_mult: 1
  }
  param {
    lr_mult: 2
    decay_mult: 0
  }
  convolution_param {
    num_output: 112
    kernel_size: 1
    weight_filler {
      type: "xavier"
      std: 0.03
    }
    bias_filler {
      type: "constant"
      value: 0.2
    }
  }
}
layer {
  name: "inception_4d/relu_1x1"
  type: "ReLU"
  bottom: "inception_4d/1x1"
  top: "inception_4d/1x1"
}
layer {
  name: "inception_4d/3x3_reduce"
  type: "Convolution"
  bottom: "inception_4c/output"
  top: "inception_4d/3x3_reduce"
  param {
    lr_mult: 1
    decay_mult: 1
  }
  param {
    lr_mult: 2
    decay_mult: 0
  }
  convolution_param {
    num_output: 144
    kernel_size: 1
    weight_filler {
      type: "xavier"
      std: 0.09
    }
    bias_filler {
      type: "constant"
      value: 0.2
    }
  }
}
layer {
  name: "inception_4d/relu_3x3_reduce"
  type: "ReLU"
  bottom: "inception_4d/3x3_reduce"
  top: "inception_4d/3x3_reduce"
}
layer {
  name: "inception_4d/3x3"
  type: "Convolution"
  bottom: "inception_4d/3x3_reduce"
  top: "inception_4d/3x3"
  param {
    lr_mult: 1
    decay_mult: 1
  }
  param {
    lr_mult: 2
    decay_mult: 0
  }
  convolution_param {
    num_output: 288
    pad: 1
    kernel_size: 3
    weight_filler {
      type: "xavier"
      std: 0.03
    }
    bias_filler {
      type: "constant"
      value: 0.2
    }
  }
}
layer {
  name: "inception_4d/relu_3x3"
  type: "ReLU"
  bottom: "inception_4d/3x3"
  top: "inception_4d/3x3"
}
layer {
  name: "inception_4d/5x5_reduce"
  type: "Convolution"
  bottom: "inception_4c/output"
  top: "inception_4d/5x5_reduce"
  param {
    lr_mult: 1
    decay_mult: 1
  }
  param {
    lr_mult: 2
    decay_mult: 0
  }
  convolution_param {
    num_output: 32
    kernel_size: 1
    weight_filler {
      type: "xavier"
      std: 0.2
    }
    bias_filler {
      type: "constant"
      value: 0.2
    }
  }
}
layer {
  name: "inception_4d/relu_5x5_reduce"
  type: "ReLU"
  bottom: "inception_4d/5x5_reduce"
  top: "inception_4d/5x5_reduce"
}
layer {
  name: "inception_4d/5x5"
  type: "Convolution"
  bottom: "inception_4d/5x5_reduce"
  top: "inception_4d/5x5"
  param {
    lr_mult: 1
    decay_mult: 1
  }
  param {
    lr_mult: 2
    decay_mult: 0
  }
  convolution_param {
    num_output: 64
    pad: 2
    kernel_size: 5
    weight_filler {
      type: "xavier"
      std: 0.03
    }
    bias_filler {
      type: "constant"
      value: 0.2
    }
  }
}
layer {
  name: "inception_4d/relu_5x5"
  type: "ReLU"
  bottom: "inception_4d/5x5"
  top: "inception_4d/5x5"
}
layer {
  name: "inception_4d/pool"
  type: "Pooling"
  bottom: "inception_4c/output"
  top: "inception_4d/pool"
  pooling_param {
    pool: MAX
    kernel_size: 3
    stride: 1
    pad: 1
  }
}
layer {
  name: "inception_4d/pool_proj"
  type: "Convolution"
  bottom: "inception_4d/pool"
  top: "inception_4d/pool_proj"
  param {
    lr_mult: 1
    decay_mult: 1
  }
  param {
    lr_mult: 2
    decay_mult: 0
  }
  convolution_param {
    num_output: 64
    kernel_size: 1
    weight_filler {
      type: "xavier"
      std: 0.1
    }
    bias_filler {
      type: "constant"
      value: 0.2
    }
  }
}
layer {
  name: "inception_4d/relu_pool_proj"
  type: "ReLU"
  bottom: "inception_4d/pool_proj"
  top: "inception_4d/pool_proj"
}
layer {
  name: "inception_4d/output"
  type: "Concat"
  bottom: "inception_4d/1x1"
  bottom: "inception_4d/3x3"
  bottom: "inception_4d/5x5"
  bottom: "inception_4d/pool_proj"
  top: "inception_4d/output"
}
layer {
  name: "loss2/ave_pool"
  type: "Pooling"
  bottom: "inception_4d/output"
  top: "loss2/ave_pool"
  pooling_param {
    pool: AVE
    kernel_size: 5
    stride: 3
  }
}
layer {
  name: "loss2/conv"
  type: "Convolution"
  bottom: "loss2/ave_pool"
  top: "loss2/conv"
  param {
    lr_mult: 1
    decay_mult: 1
  }
  param {
    lr_mult: 2
    decay_mult: 0
  }
  convolution_param {
    num_output: 128
    kernel_size: 1
    weight_filler {
      type: "xavier"
      std: 0.08
    }
    bias_filler {
      type: "constant"
      value: 0.2
    }
  }
}
layer {
  name: "loss2/relu_conv"
  type: "ReLU"
  bottom: "loss2/conv"
  top: "loss2/conv"
}
layer {
  name: "loss2/fc"
  type: "InnerProduct"
…
I0509 23:29:15.588444 24549 net.cpp:112] Top shape: 32 128 14 14 (802816)
I0509 23:29:15.588459 24549 layer_factory.hpp:74] Creating layer inception_4c/relu_1x1
I0509 23:29:15.588469 24549 net.cpp:76] Creating Layer inception_4c/relu_1x1
I0509 23:29:15.588474 24549 net.cpp:372] inception_4c/relu_1x1 <- inception_4c/1x1
I0509 23:29:15.588482 24549 net.cpp:323] inception_4c/relu_1x1 -> inception_4c/1x1 (in-place)
I0509 23:29:15.588490 24549 net.cpp:105] Setting up inception_4c/relu_1x1
I0509 23:29:15.588496 24549 net.cpp:112] Top shape: 32 128 14 14 (802816)
I0509 23:29:15.588515 24549 layer_factory.hpp:74] Creating layer inception_4c/3x3_reduce
I0509 23:29:15.588523 24549 net.cpp:76] Creating Layer inception_4c/3x3_reduce
I0509 23:29:15.588529 24549 net.cpp:372] inception_4c/3x3_reduce <- inception_4b/output_inception_4b/output_0_split_1
I0509 23:29:15.588538 24549 net.cpp:334] inception_4c/3x3_reduce -> inception_4c/3x3_reduce
I0509 23:29:15.588546 24549 net.cpp:105] Setting up inception_4c/3x3_reduce
I0509 23:29:15.589104 24549 net.cpp:112] Top shape: 32 128 14 14 (802816)
I0509 23:29:15.589118 24549 layer_factory.hpp:74] Creating layer inception_4c/relu_3x3_reduce
I0509 23:29:15.589125 24549 net.cpp:76] Creating Layer inception_4c/relu_3x3_reduce
I0509 23:29:15.589131 24549 net.cpp:372] inception_4c/relu_3x3_reduce <- inception_4c/3x3_reduce
I0509 23:29:15.589140 24549 net.cpp:323] inception_4c/relu_3x3_reduce -> inception_4c/3x3_reduce (in-place)
I0509 23:29:15.589148 24549 net.cpp:105] Setting up inception_4c/relu_3x3_reduce
I0509 23:29:15.589154 24549 net.cpp:112] Top shape: 32 128 14 14 (802816)
I0509 23:29:15.589159 24549 layer_factory.hpp:74] Creating layer inception_4c/3x3
I0509 23:29:15.589169 24549 net.cpp:76] Creating Layer inception_4c/3x3
I0509 23:29:15.589175 24549 net.cpp:372] inception_4c/3x3 <- inception_4c/3x3_reduce
I0509 23:29:15.589184 24549 net.cpp:334] inception_4c/3x3 -> inception_4c/3x3
I0509 23:29:15.589192 24549 net.cpp:105] Setting up inception_4c/3x3
I0509 23:29:15.591696 24549 net.cpp:112] Top shape: 32 256 14 14 (1605632)
I0509 23:29:15.591732 24549 layer_factory.hpp:74] Creating layer inception_4c/relu_3x3
I0509 23:29:15.591743 24549 net.cpp:76] Creating Layer inception_4c/relu_3x3
I0509 23:29:15.592627 24549 net.cpp:372] inception_4c/relu_3x3 <- inception_4c/3x3
I0509 23:29:15.592645 24549 net.cpp:323] inception_4c/relu_3x3 -> inception_4c/3x3 (in-place)
I0509 23:29:15.592660 24549 net.cpp:105] Setting up inception_4c/relu_3x3
I0509 23:29:15.592669 24549 net.cpp:112] Top shape: 32 256 14 14 (1605632)
I0509 23:29:15.592679 24549 layer_factory.hpp:74] Creating layer inception_4c/5x5_reduce
I0509 23:29:15.592705 24549 net.cpp:76] Creating Layer inception_4c/5x5_reduce
I0509 23:29:15.592716 24549 net.cpp:372] inception_4c/5x5_reduce <- inception_4b/output_inception_4b/output_0_split_2
I0509 23:29:15.592730 24549 net.cpp:334] inception_4c/5x5_reduce -> inception_4c/5x5_reduce
I0509 23:29:15.592746 24549 net.cpp:105] Setting up inception_4c/5x5_reduce
I0509 23:29:15.592914 24549 net.cpp:112] Top shape: 32 24 14 14 (150528)
I0509 23:29:15.592934 24549 layer_factory.hpp:74] Creating layer inception_4c/relu_5x5_reduce
I0509 23:29:15.592947 24549 net.cpp:76] Creating Layer inception_4c/relu_5x5_reduce
I0509 23:29:15.592957 24549 net.cpp:372] inception_4c/relu_5x5_reduce <- inception_4c/5x5_reduce
I0509 23:29:15.592970 24549 net.cpp:323] inception_4c/relu_5x5_reduce -> inception_4c/5x5_reduce (in-place)
I0509 23:29:15.592983 24549 net.cpp:105] Setting up inception_4c/relu_5x5_reduce
I0509 23:29:15.592993 24549 net.cpp:112] Top shape: 32 24 14 14 (150528)
I0509 23:29:15.593001 24549 layer_factory.hpp:74] Creating layer inception_4c/5x5
I0509 23:29:15.593019 24549 net.cpp:76] Creating Layer inception_4c/5x5
I0509 23:29:15.593029 24549 net.cpp:372] inception_4c/5x5 <- inception_4c/5x5_reduce
I0509 23:29:15.593046 24549 net.cpp:334] inception_4c/5x5 -> inception_4c/5x5
I0509 23:29:15.593061 24549 net.cpp:105] Setting up inception_4c/5x5
I0509 23:29:15.593569 24549 net.cpp:112] Top shape: 32 64 14 14 (401408)
I0509 23:29:15.593595 24549 layer_factory.hpp:74] Creating layer inception_4c/relu_5x5
I0509 23:29:15.593607 24549 net.cpp:76] Creating Layer inception_4c/relu_5x5
I0509 23:29:15.593617 24549 net.cpp:372] inception_4c/relu_5x5 <- inception_4c/5x5
I0509 23:29:15.593629 24549 net.cpp:323] inception_4c/relu_5x5 -> inception_4c/5x5 (in-place)
I0509 23:29:15.593642 24549 net.cpp:105] Setting up inception_4c/relu_5x5
I0509 23:29:15.593652 24549 net.cpp:112] Top shape: 32 64 14 14 (401408)
I0509 23:29:15.593664 24549 layer_factory.hpp:74] Creating layer inception_4c/pool
I0509 23:29:15.593708 24549 net.cpp:76] Creating Layer inception_4c/pool
I0509 23:29:15.593719 24549 net.cpp:372] inception_4c/pool <- inception_4b/output_inception_4b/output_0_split_3
I0509 23:29:15.593736 24549 net.cpp:334] inception_4c/pool -> inception_4c/pool
I0509 23:29:15.593754 24549 net.cpp:105] Setting up inception_4c/pool
I0509 23:29:15.593770 24549 net.cpp:112] Top shape: 32 512 14 14 (3211264)
I0509 23:29:15.593778 24549 layer_factory.hpp:74] Creating layer inception_4c/pool_proj
I0509 23:29:15.593790 24549 net.cpp:76] Creating Layer inception_4c/pool_proj
I0509 23:29:15.593796 24549 net.cpp:372] inception_4c/pool_proj <- inception_4c/pool
I0509 23:29:15.593807 24549 net.cpp:334] inception_4c/pool_proj -> inception_4c/pool_proj
I0509 23:29:15.593817 24549 net.cpp:105] Setting up inception_4c/pool_proj
I0509 23:29:15.594101 24549 net.cpp:112] Top shape: 32 64 14 14 (401408)
I0509 23:29:15.594115 24549 layer_factory.hpp:74] Creating layer inception_4c/relu_pool_proj
I0509 23:29:15.594122 24549 net.cpp:76] Creating Layer inception_4c/relu_pool_proj
I0509 23:29:15.594128 24549 net.cpp:372] inception_4c/relu_pool_proj <- inception_4c/pool_proj
I0509 23:29:15.594135 24549 net.cpp:323] inception_4c/relu_pool_proj -> inception_4c/pool_proj (in-place)
I0509 23:29:15.594143 24549 net.cpp:105] Setting up inception_4c/relu_pool_proj
I0509 23:29:15.594148 24549 net.cpp:112] Top shape: 32 64 14 14 (401408)
I0509 23:29:15.594154 24549 layer_factory.hpp:74] Creating layer inception_4c/output
I0509 23:29:15.594164 24549 net.cpp:76] Creating Layer inception_4c/output
I0509 23:29:15.594171 24549 net.cpp:372] inception_4c/output <- inception_4c/1x1
I0509 23:29:15.594177 24549 net.cpp:372] inception_4c/output <- inception_4c/3x3
I0509 23:29:15.594183 24549 net.cpp:372] inception_4c/output <- inception_4c/5x5
I0509 23:29:15.594189 24549 net.cpp:372] inception_4c/output <- inception_4c/pool_proj
I0509 23:29:15.594197 24549 net.cpp:334] inception_4c/output -> inception_4c/output
I0509 23:29:15.594204 24549 net.cpp:105] Setting up inception_4c/output
I0509 23:29:15.594210 24549 net.cpp:112] Top shape: 32 512 14 14 (3211264)
I0509 23:29:15.594216 24549 layer_factory.hpp:74] Creating layer inception_4c/output_inception_4c/output_0_split
I0509 23:29:15.594224 24549 net.cpp:76] Creating Layer inception_4c/output_inception_4c/output_0_split
I0509 23:29:15.594230 24549 net.cpp:372] inception_4c/output_inception_4c/output_0_split <- inception_4c/output
I0509 23:29:15.594238 24549 net.cpp:334] inception_4c/output_inception_4c/output_0_split -> inception_4c/output_inception_4c/output_0_split_0
I0509 23:29:15.594249 24549 net.cpp:334] inception_4c/output_inception_4c/output_0_split -> inception_4c/output_inception_4c/output_0_split_1
I0509 23:29:15.594259 24549 net.cpp:334] inception_4c/output_inception_4c/output_0_split -> inception_4c/output_inception_4c/output_0_split_2
I0509 23:29:15.594267 24549 net.cpp:334] inception_4c/output_inception_4c/output_0_split -> inception_4c/output_inception_4c/output_0_split_3
I0509 23:29:15.594290 24549 net.cpp:105] Setting up inception_4c/output_inception_4c/output_0_split
I0509 23:29:15.594297 24549 net.cpp:112] Top shape: 32 512 14 14 (3211264)
I0509 23:29:15.594302 24549 net.cpp:112] Top shape: 32 512 14 14 (3211264)
I0509 23:29:15.594307 24549 net.cpp:112] Top shape: 32 512 14 14 (3211264)
I0509 23:29:15.594312 24549 net.cpp:112] Top shape: 32 512 14 14 (3211264)
I0509 23:29:15.594317 24549 layer_factory.hpp:74] Creating layer inception_4d/1x1
I0509 23:29:15.594329 24549 net.cpp:76] Creating Layer inception_4d/1x1
I0509 23:29:15.594336 24549 net.cpp:372] inception_4d/1x1 <- inception_4c/output_inception_4c/output_0_split_0
I0509 23:29:15.594343 24549 net.cpp:334] inception_4d/1x1 -> inception_4d/1x1
I0509 23:29:15.594352 24549 net.cpp:105] Setting up inception_4d/1x1
I0509 23:29:15.594848 24549 net.cpp:112] Top shape: 32 112 14 14 (702464)
I0509 23:29:15.594862 24549 layer_factory.hpp:74] Creating layer inception_4d/relu_1x1
I0509 23:29:15.594871 24549 net.cpp:76] Creating Layer inception_4d/relu_1x1
I0509 23:29:15.594895 24549 net.cpp:372] inception_4d/relu_1x1 <- inception_4d/1x1
I0509 23:29:15.594903 24549 net.cpp:323] inception_4d/relu_1x1 -> inception_4d/1x1 (in-place)
I0509 23:29:15.594913 24549 net.cpp:105] Setting up inception_4d/relu_1x1
I0509 23:29:15.594918 24549 net.cpp:112] Top shape: 32 112 14 14 (702464)
I0509 23:29:15.594923 24549 layer_factory.hpp:74] Creating layer inception_4d/3x3_reduce
I0509 23:29:15.594933 24549 net.cpp:76] Creating Layer inception_4d/3x3_reduce
I0509 23:29:15.594938 24549 net.cpp:372] inception_4d/3x3_reduce <- inception_4c/output_inception_4c/output_0_split_1
I0509 23:29:15.594949 24549 net.cpp:334] inception_4d/3x3_reduce -> inception_4d/3x3_reduce
I0509 23:29:15.594959 24549 net.cpp:105] Setting up inception_4d/3x3_reduce
I0509 23:29:15.595597 24549 net.cpp:112] Top shape: 32 144 14 14 (903168)
I0509 23:29:15.595610 24549 layer_factory.hpp:74] Creating layer inception_4d/relu_3x3_reduce
I0509 23:29:15.595619 24549 net.cpp:76] Creating Layer inception_4d/relu_3x3_reduce
I0509 23:29:15.595625 24549 net.cpp:372] inception_4d/relu_3x3_reduce <- inception_4d/3x3_reduce
I0509 23:29:15.595633 24549 net.cpp:323] inception_4d/relu_3x3_reduce -> inception_4d/3x3_reduce (in-place)
I0509 23:29:15.595640 24549 net.cpp:105] Setting up inception_4d/relu_3x3_reduce
I0509 23:29:15.595645 24549 net.cpp:112] Top shape: 32 144 14 14 (903168)
I0509 23:29:15.595651 24549 layer_factory.hpp:74] Creating layer inception_4d/3x3
I0509 23:29:15.595662 24549 net.cpp:76] Creating Layer inception_4d/3x3
I0509 23:29:15.596807 24549 net.cpp:372] inception_4d/3x3 <- inception_4d/3x3_reduce
I0509 23:29:15.596822 24549 net.cpp:334] inception_4d/3x3 -> inception_4d/3x3
I0509 23:29:15.596832 24549 net.cpp:105] Setting up inception_4d/3x3
I0509 23:29:15.599944 24549 net.cpp:112] Top shape: 32 288 14 14 (1806336)
I0509 23:29:15.599964 24549 layer_factory.hpp:74] Creating layer inception_4d/relu_3x3
I0509 23:29:15.599972 24549 net.cpp:76] Creating Layer inception_4d/relu_3x3
I0509 23:29:15.599979 24549 net.cpp:372] inception_4d/relu_3x3 <- inception_4d/3x3
I0509 23:29:15.599987 24549 net.cpp:323] inception_4d/relu_3x3 -> inception_4d/3x3 (in-place)
I0509 23:29:15.599994 24549 net.cpp:105] Setting up inception_4d/relu_3x3
I0509 23:29:15.599999 24549 net.cpp:112] Top shape: 32 288 14 14 (1806336)
I0509 23:29:15.600005 24549 layer_factory.hpp:74] Creating layer inception_4d/5x5_reduce
I0509 23:29:15.600016 24549 net.cpp:76] Creating Layer inception_4d/5x5_reduce
I0509 23:29:15.600023 24549 net.cpp:372] inception_4d/5x5_reduce <- inception_4c/output_inception_4c/output_0_split_2
I0509 23:29:15.600030 24549 net.cpp:334] inception_4d/5x5_reduce -> inception_4d/5x5_reduce
I0509 23:29:15.600042 24549 net.cpp:105] Setting up inception_4d/5x5_reduce
I0509 23:29:15.600188 24549 net.cpp:112] Top shape: 32 32 14 14 (200704)
I0509 23:29:15.600198 24549 layer_factory.hpp:74] Creating layer inception_4d/relu_5x5_reduce
I0509 23:29:15.600205 24549 net.cpp:76] Creating Layer inception_4d/relu_5x5_reduce
I0509 23:29:15.600211 24549 net.cpp:372] inception_4d/relu_5x5_reduce <- inception_4d/5x5_reduce
I0509 23:29:15.600220 24549 net.cpp:323] inception_4d/relu_5x5_reduce -> inception_4d/5x5_reduce (in-place)
I0509 23:29:15.600229 24549 net.cpp:105] Setting up inception_4d/relu_5x5_reduce
I0509 23:29:15.600234 24549 net.cpp:112] Top shape: 32 32 14 14 (200704)
I0509 23:29:15.600239 24549 layer_factory.hpp:74] Creating layer inception_4d/5x5
I0509 23:29:15.600247 24549 net.cpp:76] Creating Layer inception_4d/5x5
I0509 23:29:15.600252 24549 net.cpp:372] inception_4d/5x5 <- inception_4d/5x5_reduce
I0509 23:29:15.600262 24549 net.cpp:334] inception_4d/5x5 -> inception_4d/5x5
I0509 23:29:15.600286 24549 net.cpp:105] Setting up inception_4d/5x5
I0509 23:29:15.600730 24549 net.cpp:112] Top shape: 32 64 14 14 (401408)
I0509 23:29:15.600744 24549 layer_factory.hpp:74] Creating layer inception_4d/relu_5x5
I0509 23:29:15.600754 24549 net.cpp:76] Creating Layer inception_4d/relu_5x5
I0509 23:29:15.600759 24549 net.cpp:372] inception_4d/relu_5x5 <- inception_4d/5x5
I0509 23:29:15.600780 24549 net.cpp:323] inception_4d/relu_5x5 -> inception_4d/5x5 (in-place)
I0509 23:29:15.600790 24549 net.cpp:105] Setting up inception_4d/relu_5x5
I0509 23:29:15.600795 24549 net.cpp:112] Top shape: 32 64 14 14 (401408)
I0509 23:29:15.600800 24549 layer_factory.hpp:74] Creating layer inception_4d/pool
I0509 23:29:15.600811 24549 net.cpp:76] Creating Layer inception_4d/pool
I0509 23:29:15.600816 24549 net.cpp:372] inception_4d/pool <- inception_4c/output_inception_4c/output_0_split_3
I0509 23:29:15.600826 24549 net.cpp:334] inception_4d/pool -> inception_4d/pool
I0509 23:29:15.600836 24549 net.cpp:105] Setting up inception_4d/pool
I0509 23:29:15.600842 24549 net.cpp:112] Top shape: 32 512 14 14 (3211264)
I0509 23:29:15.600848 24549 layer_factory.hpp:74] Creating layer inception_4d/pool_proj
I0509 23:29:15.600857 24549 net.cpp:76] Creating Layer inception_4d/pool_proj
I0509 23:29:15.600862 24549 net.cpp:372] inception_4d/pool_proj <- inception_4d/pool
I0509 23:29:15.600873 24549 net.cpp:334] inception_4d/pool_proj -> inception_4d/pool_proj
I0509 23:29:15.600883 24549 net.cpp:105] Setting up inception_4d/pool_proj
I0509 23:29:15.601167 24549 net.cpp:112] Top shape: 32 64 14 14 (401408)
I0509 23:29:15.601181 24549 layer_factory.hpp:74] Creating layer inception_4d/relu_pool_proj
I0509 23:29:15.601188 24549 net.cpp:76] Creating Layer inception_4d/relu_pool_proj
I0509 23:29:15.601193 24549 net.cpp:372] inception_4d/relu_pool_proj <- inception_4d/pool_proj
I0509 23:29:15.601200 24549 net.cpp:323] inception_4d/relu_pool_proj -> inception_4d/pool_proj (in-place)
I0509 23:29:15.601208 24549 net.cpp:105] Setting up inception_4d/relu_pool_proj
I0509 23:29:15.601213 24549 net.cpp:112] Top shape: 32 64 14 14 (401408)
I0509 23:29:15.601219 24549 layer_factory.hpp:74] Creating layer inception_4d/output
I0509 23:29:15.601229 24549 net.cpp:76] Creating Layer inception_4d/output
I0509 23:29:15.601235 24549 net.cpp:372] inception_4d/output <- inception_4d/1x1
I0509 23:29:15.601241 24549 net.cpp:372] inception_4d/output <- inception_4d/3x3
I0509 23:29:15.601248 24549 net.cpp:372] inception_4d/output <- inception_4d/5x5
I0509 23:29:15.601254 24549 net.cpp:372] inception_4d/output <- inception_4d/pool_proj
I0509 23:29:15.601261 24549 net.cpp:334] inception_4d/output -> inception_4d/output
I0509 23:29:15.601282 24549 net.cpp:105] Setting up inception_4d/output
I0509 23:29:15.601291 24549 net.cpp:112] Top shape: 32 528 14 14 (3311616)
I0509 23:29:15.601297 24549 layer_factory.hpp:74] Creating layer inception_4d/output_inception_4d/output_0_split
I0509 23:29:15.601307 24549 net.cpp:76] Creating Layer inception_4d/output_inception_4d/output_0_split
I0509 23:29:15.601315 24549 net.cpp:372] inception_4d/output_inception_4d/output_0_split <- inception_4d/output
I0509 23:29:15.601321 24549 net.cpp:334] inception_4d/output_inception_4d/output_0_split -> inception_4d/output_inception_4d/output_0_split_0
I0509 23:29:15.601331 24549 net.cpp:334] inception_4d/output_inception_4d/output_0_split -> inception_4d/output_inception_4d/output_0_split_1
I0509 23:29:15.601341 24549 net.cpp:334] inception_4d/output_inception_4d/output_0_split -> inception_4d/output_inception_4d/output_0_split_2
I0509 23:29:15.601349 24549 net.cpp:334] inception_4d/output_inception_4d/output_0_split -> inception_4d/output_inception_4d/output_0_split_3
I0509 23:29:15.601357 24549 net.cpp:334] inception_4d/output_inception_4d/output_0_split -> inception_4d/output_inception_4d/output_0_split_4
I0509 23:29:15.601366 24549 net.cpp:105] Setting up inception_4d/output_inception_4d/output_0_split
I0509 23:29:15.601372 24549 net.cpp:112] Top shape: 32 528 14 14 (3311616)
I0509 23:29:15.601378 24549 net.cpp:112] Top shape: 32 528 14 14 (3311616)
I0509 23:29:15.601383 24549 net.cpp:112] Top shape: 32 528 14 14 (3311616)
I0509 23:29:15.601387 24549 net.cpp:112] Top shape: 32 528 14 14 (3311616)
I0509 23:29:15.601392 24549 net.cpp:112] Top shape: 32 528 14 14 (3311616)
I0509 23:29:15.601397 24549 layer_factory.hpp:74] Creating layer loss2/ave_pool
I0509 23:29:15.601420 24549 net.cpp:76] Creating Layer loss2/ave_pool
I0509 23:29:15.601428 24549 net.cpp:372] loss2/ave_pool <- inception_4d/output_inception_4d/output_0_split_0
I0509 23:29:15.601436 24549 net.cpp:334] loss2/ave_pool -> loss2/ave_pool
I0509 23:29:15.601445 24549 net.cpp:105] Setting up loss2/ave_pool
I0509 23:29:15.601469 24549 net.cpp:112] Top shape: 32 528 4 4 (270336)
I0509 23:29:15.601476 24549 layer_factory.hpp:74] Creating layer loss2/conv
I0509 23:29:15.601488 24549 net.cpp:76] Creating Layer loss2/conv
I0509 23:29:15.601495 24549 net.cpp:372] loss2/conv <- loss2/ave_pool
I0509 23:29:15.601503 24549 net.cpp:334] loss2/conv -> loss2/conv
I0509 23:29:15.601511 24549 net.cpp:105] Setting up loss2/conv
I0509 23:29:15.602084 24549 net.cpp:112] Top shape: 32 128 4 4 (65536)
I0509 23:29:15.602098 24549 layer_factory.hpp:74] Creating layer loss2/relu_conv
I0509 23:29:15.602107 24549 net.cpp:76] Creating Layer loss2/relu_conv
I0509 23:29:15.602113 24549 net.cpp:372] loss2/relu_conv <- loss2/conv
I0509 23:29:15.602123 24549 net.cpp:323] loss2/relu_conv -> loss2/conv (in-place)
I0509 23:29:15.602130 24549 net.cpp:105] Setting up loss2/relu_conv
I0509 23:29:15.602136 24549 net.cpp:112] Top shape: 32 128 4 4 (65536)
I0509 23:29:15.602141 24549 layer_factory.hpp:74] Creating layer loss2/fc
I0509 23:29:15.602151 24549 net.cpp:76] Creating Layer loss2/fc
I0509 23:29:15.602156 24549 net.cpp:372] loss2/fc <- loss2/conv
I0509 23:29:15.602164 24549 net.cpp:334] loss2/fc -> loss2/fc
I0509 23:29:15.602172 24549 net.cpp:105] Setting up loss2/fc
I0509 23:29:15.618979 24549 net.cpp:112] Top shape: 32 1024 1 1 (32768)
I0509 23:29:15.619011 24549 layer_factory.hpp:74] Creating layer loss2/relu_fc
I0509 23:29:15.619024 24549 net.cpp:76] Creating Layer loss2/relu_fc
I0509 23:29:15.619030 24549 net.cpp:372] loss2/relu_fc <- loss2/fc
I0509 23:29:15.619042 24549 net.cpp:323] loss2/relu_fc -> loss2/fc (in-place)
I0509 23:29:15.619052 24549 net.cpp:105] Setting up loss2/relu_fc
I0509 23:29:15.619058 24549 net.cpp:112] Top shape: 32 1024 1 1 (32768)
I0509 23:29:15.619065 24549 layer_factory.hpp:74] Creating layer loss2/drop_fc
I0509 23:29:15.619073 24549 net.cpp:76] Creating Layer loss2/drop_fc
I0509 23:29:15.619078 24549 net.cpp:372] loss2/drop_fc <- loss2/fc
I0509 23:29:15.619086 24549 net.cpp:323] loss2/drop_fc -> loss2/fc (in-place)
I0509 23:29:15.619093 24549 net.cpp:105] Setting up loss2/drop_fc
I0509 23:29:15.619099 24549 net.cpp:112] Top shape: 32 1024 1 1 (32768)
I0509 23:29:15.619106 24549 layer_factory.hpp:74] Creating layer loss2/classifier
I0509 23:29:15.619114 24549 net.cpp:76] Creating Layer loss2/classifier
I0509 23:29:15.619119 24549 net.cpp:372] loss2/classifier <- loss2/fc
I0509 23:29:15.619130 24549 net.cpp:334] loss2/classifier -> loss2/classifier
I0509 23:29:15.619140 24549 net.cpp:105] Setting up loss2/classifier
I0509 23:29:15.619174 24549 net.cpp:112] Top shape: 32 2 1 1 (64)
I0509 23:29:15.619184 24549 layer_factory.hpp:74] Creating layer loss2/classifier_loss2/classifier_0_split
I0509 23:29:15.619194 24549 net.cpp:76] Creating Layer loss2/classifier_loss2/classifier_0_split
I0509 23:29:15.619200 24549 net.cpp:372] loss2/classifier_loss2/classifier_0_split <- loss2/classifier
I0509 23:29:15.619207 24549 net.cpp:334] loss2/classifier_loss2/classifier_0_split -> loss2/classifier_loss2/classifier_0_split_0
I0509 23:29:15.619217 24549 net.cpp:334] loss2/classifier_loss2/classifier_0_split -> loss2/classifier_loss2/classifier_0_split_1
I0509 23:29:15.619225 24549 net.cpp:105] Setting up loss2/classifier_loss2/classifier_0_split
I0509 23:29:15.619232 24549 net.cpp:112] Top shape: 32 2 1 1 (64)
I0509 23:29:15.619237 24549 net.cpp:112] Top shape: 32 2 1 1 (64)
I0509 23:29:15.619243 24549 layer_factory.hpp:74] Creating layer loss2/loss
I0509 23:29:15.619251 24549 net.cpp:76] Creating Layer loss2/loss
I0509 23:29:15.619256 24549 net.cpp:372] loss2/loss <- loss2/classifier_loss2/classifier_0_split_0
I0509 23:29:15.619264 24549 net.cpp:372] loss2/loss <- label_data_1_split_2
I0509 23:29:15.619289 24549 net.cpp:334] loss2/loss -> loss2/loss1
I0509 23:29:15.619326 24549 net.cpp:105] Setting up loss2/loss
I0509 23:29:15.619335 24549 layer_factory.hpp:74] Creating layer loss2/loss
I0509 23:29:15.619350 24549 net.cpp:112] Top shape: 1 1 1 1 (1)
I0509 23:29:15.619356 24549 net.cpp:118]     with loss weight 0.3
I0509 23:29:15.619374 24549 layer_factory.hpp:74] Creating layer loss2/top-1
I0509 23:29:15.619384 24549 net.cpp:76] Creating Layer loss2/top-1
I0509 23:29:15.619390 24549 net.cpp:372] loss2/top-1 <- loss2/classifier_loss2/classifier_0_split_1
I0509 23:29:15.619395 24549 net.cpp:372] loss2/top-1 <- label_data_1_split_3
I0509 23:29:15.619408 24549 net.cpp:334] loss2/top-1 -> loss2/top-1
I0509 23:29:15.619417 24549 net.cpp:105] Setting up loss2/top-1
I0509 23:29:15.619424 24549 net.cpp:112] Top shape: 1 1 1 1 (1)
I0509 23:29:15.619431 24549 layer_factory.hpp:74] Creating layer inception_4e/1x1
I0509 23:29:15.619441 24549 net.cpp:76] Creating Layer inception_4e/1x1
I0509 23:29:15.619446 24549 net.cpp:372] inception_4e/1x1 <- inception_4d/output_inception_4d/output_0_split_1
I0509 23:29:15.619457 24549 net.cpp:334] inception_4e/1x1 -> inception_4e/1x1
I0509 23:29:15.619464 24549 net.cpp:105] Setting up inception_4e/1x1
I0509 23:29:15.620604 24549 net.cpp:112] Top shape: 32 256 14 14 (1605632)
I0509 23:29:15.620620 24549 layer_factory.hpp:74] Creating layer inception_4e/relu_1x1
I0509 23:29:15.620630 24549 net.cpp:76] Creating Layer inception_4e/relu_1x1
I0509 23:29:15.620637 24549 net.cpp:372] inception_4e/relu_1x1 <- inception_4e/1x1
I0509 23:29:15.620647 24549 net.cpp:323] inception_4e/relu_1x1 -> inception_4e/1x1 (in-place)
I0509 23:29:15.620656 24549 net.cpp:105] Setting up inception_4e/relu_1x1
I0509 23:29:15.620661 24549 net.cpp:112] Top shape: 32 256 14 14 (1605632)
I0509 23:29:15.620667 24549 layer_factory.hpp:74] Creating layer inception_4e/3x3_reduce
I0509 23:29:15.620676 24549 net.cpp:76] Creating Layer inception_4e/3x3_reduce
I0509 23:29:15.620682 24549 net.cpp:372] inception_4e/3x3_reduce <- inception_4d/output_inception_4d/output_0_split_2
I0509 23:29:15.620690 24549 net.cpp:334] inception_4e/3x3_reduce -> inception_4e/3x3_reduce
I0509 23:29:15.620698 24549 net.cpp:105] Setting up inception_4e/3x3_reduce
I0509 23:29:15.621425 24549 net.cpp:112] Top shape: 32 160 14 14 (1003520)
I0509 23:29:15.621439 24549 layer_factory.hpp:74] Creating layer inception_4e/relu_3x3_reduce
I0509 23:29:15.621449 24549 net.cpp:76] Creating Layer inception_4e/relu_3x3_reduce
I0509 23:29:15.621456 24549 net.cpp:372] inception_4e/relu_3x3_reduce <- inception_4e/3x3_reduce
I0509 23:29:15.621464 24549 net.cpp:323] inception_4e/relu_3x3_reduce -> inception_4e/3x3_reduce (in-place)
I0509 23:29:15.621471 24549 net.cpp:105] Setting up inception_4e/relu_3x3_reduce
I0509 23:29:15.621477 24549 net.cpp:112] Top shape: 32 160 14 14 (1003520)
I0509 23:29:15.621484 24549 layer_factory.hpp:74] Creating layer inception_4e/3x3
I0509 23:29:15.621515 24549 net.cpp:76] Creating Layer inception_4e/3x3
I0509 23:29:15.621523 24549 net.cpp:372] inception_4e/3x3 <- inception_4e/3x3_reduce
I0509 23:29:15.621531 24549 net.cpp:334] inception_4e/3x3 -> inception_4e/3x3
I0509 23:29:15.621541 24549 net.cpp:105] Setting up inception_4e/3x3
I0509 23:29:15.625401 24549 net.cpp:112] Top shape: 32 320 14 14 (2007040)
I0509 23:29:15.625419 24549 layer_factory.hpp:74] Creating layer inception_4e/relu_3x3
I0509 23:29:15.625428 24549 net.cpp:76] Creating Layer inception_4e/relu_3x3
I0509 23:29:15.625434 24549 net.cpp:372] inception_4e/relu_3x3 <- inception_4e/3x3
I0509 23:29:15.625443 24549 net.cpp:323] inception_4e/relu_3x3 -> inception_4e/3x3 (in-place)
I0509 23:29:15.625452 24549 net.cpp:105] Setting up inception_4e/relu_3x3
I0509 23:29:15.625458 24549 net.cpp:112] Top shape: 32 320 14 14 (2007040)
I0509 23:29:15.625463 24549 layer_factory.hpp:74] Creating layer inception_4e/5x5_reduce
I0509 23:29:15.625471 24549 net.cpp:76] Creating Layer inception_4e/5x5_reduce
I0509 23:29:15.625478 24549 net.cpp:372] inception_4e/5x5_reduce <- inception_4d/output_inception_4d/output_0_split_3
I0509 23:29:15.625502 24549 net.cpp:334] inception_4e/5x5_reduce -> inception_4e/5x5_reduce
I0509 23:29:15.625514 24549 net.cpp:105] Setting up inception_4e/5x5_reduce
I0509 23:29:15.625660 24549 net.cpp:112] Top shape: 32 32 14 14 (200704)
I0509 23:29:15.625672 24549 layer_factory.hpp:74] Creating layer inception_4e/relu_5x5_reduce
I0509 23:29:15.625681 24549 net.cpp:76] Creating Layer inception_4e/relu_5x5_reduce
I0509 23:29:15.625689 24549 net.cpp:372] inception_4e/relu_5x5_reduce <- inception_4e/5x5_reduce
I0509 23:29:15.625695 24549 net.cpp:323] inception_4e/relu_5x5_reduce -> inception_4e/5x5_reduce (in-place)
I0509 23:29:15.625702 24549 net.cpp:105] Setting up inception_4e/relu_5x5_reduce
I0509 23:29:15.625708 24549 net.cpp:112] Top shape: 32 32 14 14 (200704)
I0509 23:29:15.625713 24549 layer_factory.hpp:74] Creating layer inception_4e/5x5
I0509 23:29:15.625723 24549 net.cpp:76] Creating Layer inception_4e/5x5
I0509 23:29:15.625730 24549 net.cpp:372] inception_4e/5x5 <- inception_4e/5x5_reduce
I0509 23:29:15.625737 24549 net.cpp:334] inception_4e/5x5 -> inception_4e/5x5
I0509 23:29:15.625746 24549 net.cpp:105] Setting up inception_4e/5x5
I0509 23:29:15.626620 24549 net.cpp:112] Top shape: 32 128 14 14 (802816)
I0509 23:29:15.626634 24549 layer_factory.hpp:74] Creating layer inception_4e/relu_5x5
I0509 23:29:15.626642 24549 net.cpp:76] Creating Layer inception_4e/relu_5x5
I0509 23:29:15.626648 24549 net.cpp:372] inception_4e/relu_5x5 <- inception_4e/5x5
I0509 23:29:15.626658 24549 net.cpp:323] inception_4e/relu_5x5 -> inception_4e/5x5 (in-place)
I0509 23:29:15.626667 24549 net.cpp:105] Setting up inception_4e/relu_5x5
I0509 23:29:15.626672 24549 net.cpp:112] Top shape: 32 128 14 14 (802816)
I0509 23:29:15.626677 24549 layer_factory.hpp:74] Creating layer inception_4e/pool
I0509 23:29:15.626685 24549 net.cpp:76] Creating Layer inception_4e/pool
I0509 23:29:15.626691 24549 net.cpp:372] inception_4e/pool <- inception_4d/output_inception_4d/output_0_split_4
I0509 23:29:15.626699 24549 net.cpp:334] inception_4e/pool -> inception_4e/pool
I0509 23:29:15.626708 24549 net.cpp:105] Setting up inception_4e/pool
I0509 23:29:15.626715 24549 net.cpp:112] Top shape: 32 528 14 14 (3311616)
I0509 23:29:15.626721 24549 layer_factory.hpp:74] Creating layer inception_4e/pool_proj
I0509 23:29:15.626732 24549 net.cpp:76] Creating Layer inception_4e/pool_proj
I0509 23:29:15.626739 24549 net.cpp:372] inception_4e/pool_proj <- inception_4e/pool
I0509 23:29:15.626749 24549 net.cpp:334] inception_4e/pool_proj -> inception_4e/pool_proj
I0509 23:29:15.626757 24549 net.cpp:105] Setting up inception_4e/pool_proj
I0509 23:29:15.627400 24549 net.cpp:112] Top shape: 32 128 14 14 (802816)
I0509 23:29:15.627424 24549 layer_factory.hpp:74] Creating layer inception_4e/relu_pool_proj
I0509 23:29:15.627436 24549 net.cpp:76] Creating Layer inception_4e/relu_pool_proj
I0509 23:29:15.627444 24549 net.cpp:372] inception_4e/relu_pool_proj <- inception_4e/pool_proj
I0509 23:29:15.627452 24549 net.cpp:323] inception_4e/relu_pool_proj -> inception_4e/pool_proj (in-place)
I0509 23:29:15.627461 24549 net.cpp:105] Setting up inception_4e/relu_pool_proj
I0509 23:29:15.627467 24549 net.cpp:112] Top shape: 32 128 14 14 (802816)
I0509 23:29:15.627473 24549 layer_factory.hpp:74] Creating layer inception_4e/output
I0509 23:29:15.627483 24549 net.cpp:76] Creating Layer inception_4e/output
I0509 23:29:15.627490 24549 net.cpp:372] inception_4e/output <- inception_4e/1x1
I0509 23:29:15.627497 24549 net.cpp:372] inception_4e/output <- inception_4e/3x3
I0509 23:29:15.627503 24549 net.cpp:372] inception_4e/output <- inception_4e/5x5
I0509 23:29:15.627511 24549 net.cpp:372] inception_4e/output <- inception_4e/pool_proj
I0509 23:29:15.627517 24549 net.cpp:334] inception_4e/output -> inception_4e/output
I0509 23:29:15.627526 24549 net.cpp:105] Setting up inception_4e/output
I0509 23:29:15.627534 24549 net.cpp:112] Top shape: 32 832 14 14 (5218304)
I0509 23:29:15.627540 24549 layer_factory.hpp:74] Creating layer pool4/3x3_s2
I0509 23:29:15.627548 24549 net.cpp:76] Creating Layer pool4/3x3_s2
I0509 23:29:15.627573 24549 net.cpp:372] pool4/3x3_s2 <- inception_4e/output
I0509 23:29:15.627583 24549 net.cpp:334] pool4/3x3_s2 -> pool4/3x3_s2
I0509 23:29:15.627593 24549 net.cpp:105] Setting up pool4/3x3_s2
I0509 23:29:15.627599 24549 net.cpp:112] Top shape: 32 832 7 7 (1304576)
I0509 23:29:15.627605 24549 layer_factory.hpp:74] Creating layer pool4/3x3_s2_pool4/3x3_s2_0_split
I0509 23:29:15.627615 24549 net.cpp:76] Creating Layer pool4/3x3_s2_pool4/3x3_s2_0_split
I0509 23:29:15.627621 24549 net.cpp:372] pool4/3x3_s2_pool4/3x3_s2_0_split <- pool4/3x3_s2
I0509 23:29:15.627629 24549 net.cpp:334] pool4/3x3_s2_pool4/3x3_s2_0_split -> pool4/3x3_s2_pool4/3x3_s2_0_split_0
I0509 23:29:15.627638 24549 net.cpp:334] pool4/3x3_s2_pool4/3x3_s2_0_split -> pool4/3x3_s2_pool4/3x3_s2_0_split_1
I0509 23:29:15.627650 24549 net.cpp:334] pool4/3x3_s2_pool4/3x3_s2_0_split -> pool4/3x3_s2_pool4/3x3_s2_0_split_2
I0509 23:29:15.627658 24549 net.cpp:334] pool4/3x3_s2_pool4/3x3_s2_0_split -> pool4/3x3_s2_pool4/3x3_s2_0_split_3
I0509 23:29:15.627666 24549 net.cpp:105] Setting up pool4/3x3_s2_pool4/3x3_s2_0_split
I0509 23:29:15.627673 24549 net.cpp:112] Top shape: 32 832 7 7 (1304576)
I0509 23:29:15.627678 24549 net.cpp:112] Top shape: 32 832 7 7 (1304576)
I0509 23:29:15.627683 24549 net.cpp:112] Top shape: 32 832 7 7 (1304576)
I0509 23:29:15.627688 24549 net.cpp:112] Top shape: 32 832 7 7 (1304576)
I0509 23:29:15.627693 24549 layer_factory.hpp:74] Creating layer inception_5a/1x1
I0509 23:29:15.627703 24549 net.cpp:76] Creating Layer inception_5a/1x1
I0509 23:29:15.627708 24549 net.cpp:372] inception_5a/1x1 <- pool4/3x3_s2_pool4/3x3_s2_0_split_0
I0509 23:29:15.627719 24549 net.cpp:334] inception_5a/1x1 -> inception_5a/1x1
I0509 23:29:15.627729 24549 net.cpp:105] Setting up inception_5a/1x1
I0509 23:29:15.629534 24549 net.cpp:112] Top shape: 32 256 7 7 (401408)
I0509 23:29:15.629550 24549 layer_factory.hpp:74] Creating layer inception_5a/relu_1x1
I0509 23:29:15.629559 24549 net.cpp:76] Creating Layer inception_5a/relu_1x1
I0509 23:29:15.629565 24549 net.cpp:372] inception_5a/relu_1x1 <- inception_5a/1x1
I0509 23:29:15.629572 24549 net.cpp:323] inception_5a/relu_1x1 -> inception_5a/1x1 (in-place)
I0509 23:29:15.629580 24549 net.cpp:105] Setting up inception_5a/relu_1x1
I0509 23:29:15.629585 24549 net.cpp:112] Top shape: 32 256 7 7 (401408)
I0509 23:29:15.629591 24549 layer_factory.hpp:74] Creating layer inception_5a/3x3_reduce
I0509 23:29:15.629602 24549 net.cpp:76] Creating Layer inception_5a/3x3_reduce
I0509 23:29:15.629608 24549 net.cpp:372] inception_5a/3x3_reduce <- pool4/3x3_s2_pool4/3x3_s2_0_split_1
I0509 23:29:15.629618 24549 net.cpp:334] inception_5a/3x3_reduce -> inception_5a/3x3_reduce
I0509 23:29:15.629628 24549 net.cpp:105] Setting up inception_5a/3x3_reduce
I0509 23:29:15.630841 24549 net.cpp:112] Top shape: 32 160 7 7 (250880)
I0509 23:29:15.630858 24549 layer_factory.hpp:74] Creating layer inception_5a/relu_3x3_reduce
I0509 23:29:15.630867 24549 net.cpp:76] Creating Layer inception_5a/relu_3x3_reduce
I0509 23:29:15.630873 24549 net.cpp:372] inception_5a/relu_3x3_reduce <- inception_5a/3x3_reduce
I0509 23:29:15.630883 24549 net.cpp:323] inception_5a/relu_3x3_reduce -> inception_5a/3x3_reduce (in-place)
I0509 23:29:15.630892 24549 net.cpp:105] Setting up inception_5a/relu_3x3_reduce
I0509 23:29:15.630898 24549 net.cpp:112] Top shape: 32 160 7 7 (250880)
I0509 23:29:15.630903 24549 layer_factory.hpp:74] Creating layer inception_5a/3x3
I0509 23:29:15.630913 24549 net.cpp:76] Creating Layer inception_5a/3x3
I0509 23:29:15.630923 24549 net.cpp:372] inception_5a/3x3 <- inception_5a/3x3_reduce
I0509 23:29:15.630934 24549 net.cpp:334] inception_5a/3x3 -> inception_5a/3x3
I0509 23:29:15.630942 24549 net.cpp:105] Setting up inception_5a/3x3
I0509 23:29:15.634799 24549 net.cpp:112] Top shape: 32 320 7 7 (501760)
I0509 23:29:15.634814 24549 layer_factory.hpp:74] Creating layer inception_5a/relu_3x3
I0509 23:29:15.634824 24549 net.cpp:76] Creating Layer inception_5a/relu_3x3
I0509 23:29:15.634829 24549 net.cpp:372] inception_5a/relu_3x3 <- inception_5a/3x3
I0509 23:29:15.634853 24549 net.cpp:323] inception_5a/relu_3x3 -> inception_5a/3x3 (in-place)
I0509 23:29:15.634863 24549 net.cpp:105] Setting up inception_5a/relu_3x3
I0509 23:29:15.634870 24549 net.cpp:112] Top shape: 32 320 7 7 (501760)
I0509 23:29:15.634876 24549 layer_factory.hpp:74] Creating layer inception_5a/5x5_reduce
I0509 23:29:15.634884 24549 net.cpp:76] Creating Layer inception_5a/5x5_reduce
I0509 23:29:15.634892 24549 net.cpp:372] inception_5a/5x5_reduce <- pool4/3x3_s2_pool4/3x3_s2_0_split_2
I0509 23:29:15.634902 24549 net.cpp:334] inception_5a/5x5_reduce -> inception_5a/5x5_reduce
I0509 23:29:15.634910 24549 net.cpp:105] Setting up inception_5a/5x5_reduce
I0509 23:29:15.635150 24549 net.cpp:112] Top shape: 32 32 7 7 (50176)
I0509 23:29:15.635164 24549 layer_factory.hpp:74] Creating layer inception_5a/relu_5x5_reduce
I0509 23:29:15.635171 24549 net.cpp:76] Creating Layer inception_5a/relu_5x5_reduce
I0509 23:29:15.635177 24549 net.cpp:372] inception_5a/relu_5x5_reduce <- inception_5a/5x5_reduce
I0509 23:29:15.635187 24549 net.cpp:323] inception_5a/relu_5x5_reduce -> inception_5a/5x5_reduce (in-place)
I0509 23:29:15.635195 24549 net.cpp:105] Setting up inception_5a/relu_5x5_reduce
I0509 23:29:15.635221 24549 net.cpp:112] Top shape: 32 32 7 7 (50176)
I0509 23:29:15.635227 24549 layer_factory.hpp:74] Creating layer inception_5a/5x5
I0509 23:29:15.635237 24549 net.cpp:76] Creating Layer inception_5a/5x5
I0509 23:29:15.635243 24549 net.cpp:372] inception_5a/5x5 <- inception_5a/5x5_reduce
I0509 23:29:15.635254 24549 net.cpp:334] inception_5a/5x5 -> inception_5a/5x5
I0509 23:29:15.635263 24549 net.cpp:105] Setting up inception_5a/5x5
I0509 23:29:15.636147 24549 net.cpp:112] Top shape: 32 128 7 7 (200704)
I0509 23:29:15.636163 24549 layer_factory.hpp:74] Creating layer inception_5a/relu_5x5
I0509 23:29:15.636175 24549 net.cpp:76] Creating Layer inception_5a/relu_5x5
I0509 23:29:15.636181 24549 net.cpp:372] inception_5a/relu_5x5 <- inception_5a/5x5
I0509 23:29:15.636189 24549 net.cpp:323] inception_5a/relu_5x5 -> inception_5a/5x5 (in-place)
I0509 23:29:15.636196 24549 net.cpp:105] Setting up inception_5a/relu_5x5
I0509 23:29:15.636203 24549 net.cpp:112] Top shape: 32 128 7 7 (200704)
I0509 23:29:15.636207 24549 layer_factory.hpp:74] Creating layer inception_5a/pool
I0509 23:29:15.636215 24549 net.cpp:76] Creating Layer inception_5a/pool
I0509 23:29:15.636221 24549 net.cpp:372] inception_5a/pool <- pool4/3x3_s2_pool4/3x3_s2_0_split_3
I0509 23:29:15.636231 24549 net.cpp:334] inception_5a/pool -> inception_5a/pool
I0509 23:29:15.636258 24549 net.cpp:105] Setting up inception_5a/pool
I0509 23:29:15.636282 24549 net.cpp:112] Top shape: 32 832 7 7 (1304576)
I0509 23:29:15.636291 24549 layer_factory.hpp:74] Creating layer inception_5a/pool_proj
I0509 23:29:15.636301 24549 net.cpp:76] Creating Layer inception_5a/pool_proj
I0509 23:29:15.636307 24549 net.cpp:372] inception_5a/pool_proj <- inception_5a/pool
I0509 23:29:15.636318 24549 net.cpp:334] inception_5a/pool_proj -> inception_5a/pool_proj
I0509 23:29:15.636327 24549 net.cpp:105] Setting up inception_5a/pool_proj
I0509 23:29:15.637220 24549 net.cpp:112] Top shape: 32 128 7 7 (200704)
I0509 23:29:15.637254 24549 layer_factory.hpp:74] Creating layer inception_5a/relu_pool_proj
I0509 23:29:15.637265 24549 net.cpp:76] Creating Layer inception_5a/relu_pool_proj
I0509 23:29:15.637272 24549 net.cpp:372] inception_5a/relu_pool_proj <- inception_5a/pool_proj
I0509 23:29:15.637284 24549 net.cpp:323] inception_5a/relu_pool_proj -> inception_5a/pool_proj (in-place)
I0509 23:29:15.637292 24549 net.cpp:105] Setting up inception_5a/relu_pool_proj
I0509 23:29:15.637297 24549 net.cpp:112] Top shape: 32 128 7 7 (200704)
I0509 23:29:15.637303 24549 layer_factory.hpp:74] Creating layer inception_5a/output
I0509 23:29:15.637311 24549 net.cpp:76] Creating Layer inception_5a/output
I0509 23:29:15.637316 24549 net.cpp:372] inception_5a/output <- inception_5a/1x1
I0509 23:29:15.637323 24549 net.cpp:372] inception_5a/output <- inception_5a/3x3
I0509 23:29:15.637343 24549 net.cpp:372] inception_5a/output <- inception_5a/5x5
I0509 23:29:15.637351 24549 net.cpp:372] inception_5a/output <- inception_5a/pool_proj
I0509 23:29:15.637362 24549 net.cpp:334] inception_5a/output -> inception_5a/output
I0509 23:29:15.637370 24549 net.cpp:105] Setting up inception_5a/output
I0509 23:29:15.637377 24549 net.cpp:112] Top shape: 32 832 7 7 (1304576)
I0509 23:29:15.637382 24549 layer_factory.hpp:74] Creating layer inception_5a/output_inception_5a/output_0_split
I0509 23:29:15.637389 24549 net.cpp:76] Creating Layer inception_5a/output_inception_5a/output_0_split
I0509 23:29:15.637395 24549 net.cpp:372] inception_5a/output_inception_5a/output_0_split <- inception_5a/output
I0509 23:29:15.637403 24549 net.cpp:334] inception_5a/output_inception_5a/output_0_split -> inception_5a/output_inception_5a/output_0_split_0
I0509 23:29:15.637413 24549 net.cpp:334] inception_5a/output_inception_5a/output_0_split -> inception_5a/output_inception_5a/output_0_split_1
I0509 23:29:15.637421 24549 net.cpp:334] inception_5a/output_inception_5a/output_0_split -> inception_5a/output_inception_5a/output_0_split_2
I0509 23:29:15.638154 24549 net.cpp:334] inception_5a/output_inception_5a/output_0_split -> inception_5a/output_inception_5a/output_0_split_3
I0509 23:29:15.638164 24549 net.cpp:105] Setting up inception_5a/output_inception_5a/output_0_split
I0509 23:29:15.638171 24549 net.cpp:112] Top shape: 32 832 7 7 (1304576)
I0509 23:29:15.638177 24549 net.cpp:112] Top shape: 32 832 7 7 (1304576)
I0509 23:29:15.638182 24549 net.cpp:112] Top shape: 32 832 7 7 (1304576)
I0509 23:29:15.638186 24549 net.cpp:112] Top shape: 32 832 7 7 (1304576)
I0509 23:29:15.638192 24549 layer_factory.hpp:74] Creating layer inception_5b/1x1
I0509 23:29:15.638205 24549 net.cpp:76] Creating Layer inception_5b/1x1
I0509 23:29:15.638211 24549 net.cpp:372] inception_5b/1x1 <- inception_5a/output_inception_5a/output_0_split_0
I0509 23:29:15.638221 24549 net.cpp:334] inception_5b/1x1 -> inception_5b/1x1
I0509 23:29:15.638231 24549 net.cpp:105] Setting up inception_5b/1x1
I0509 23:29:15.640916 24549 net.cpp:112] Top shape: 32 384 7 7 (602112)
I0509 23:29:15.640934 24549 layer_factory.hpp:74] Creating layer inception_5b/relu_1x1
I0509 23:29:15.640944 24549 net.cpp:76] Creating Layer inception_5b/relu_1x1
I0509 23:29:15.640949 24549 net.cpp:372] inception_5b/relu_1x1 <- inception_5b/1x1
I0509 23:29:15.640959 24549 net.cpp:323] inception_5b/relu_1x1 -> inception_5b/1x1 (in-place)
I0509 23:29:15.640969 24549 net.cpp:105] Setting up inception_5b/relu_1x1
I0509 23:29:15.640974 24549 net.cpp:112] Top shape: 32 384 7 7 (602112)
I0509 23:29:15.640980 24549 layer_factory.hpp:74] Creating layer inception_5b/3x3_reduce
I0509 23:29:15.640988 24549 net.cpp:76] Creating Layer inception_5b/3x3_reduce
I0509 23:29:15.640995 24549 net.cpp:372] inception_5b/3x3_reduce <- inception_5a/output_inception_5a/output_0_split_1
I0509 23:29:15.641005 24549 net.cpp:334] inception_5b/3x3_reduce -> inception_5b/3x3_reduce
I0509 23:29:15.641015 24549 net.cpp:105] Setting up inception_5b/3x3_reduce
I0509 23:29:15.642369 24549 net.cpp:112] Top shape: 32 192 7 7 (301056)
I0509 23:29:15.642386 24549 layer_factory.hpp:74] Creating layer inception_5b/relu_3x3_reduce
I0509 23:29:15.642395 24549 net.cpp:76] Creating Layer inception_5b/relu_3x3_reduce
I0509 23:29:15.642401 24549 net.cpp:372] inception_5b/relu_3x3_reduce <- inception_5b/3x3_reduce
I0509 23:29:15.642408 24549 net.cpp:323] inception_5b/relu_3x3_reduce -> inception_5b/3x3_reduce (in-place)
I0509 23:29:15.642416 24549 net.cpp:105] Setting up inception_5b/relu_3x3_reduce
I0509 23:29:15.642422 24549 net.cpp:112] Top shape: 32 192 7 7 (301056)
I0509 23:29:15.642427 24549 layer_factory.hpp:74] Creating layer inception_5b/3x3
I0509 23:29:15.642436 24549 net.cpp:76] Creating Layer inception_5b/3x3
I0509 23:29:15.642441 24549 net.cpp:372] inception_5b/3x3 <- inception_5b/3x3_reduce
I0509 23:29:15.642452 24549 net.cpp:334] inception_5b/3x3 -> inception_5b/3x3
I0509 23:29:15.642460 24549 net.cpp:105] Setting up inception_5b/3x3
I0509 23:29:15.648022 24549 net.cpp:112] Top shape: 32 384 7 7 (602112)
I0509 23:29:15.648043 24549 layer_factory.hpp:74] Creating layer inception_5b/relu_3x3
I0509 23:29:15.648052 24549 net.cpp:76] Creating Layer inception_5b/relu_3x3
I0509 23:29:15.648058 24549 net.cpp:372] inception_5b/relu_3x3 <- inception_5b/3x3
I0509 23:29:15.648069 24549 net.cpp:323] inception_5b/relu_3x3 -> inception_5b/3x3 (in-place)
I0509 23:29:15.648078 24549 net.cpp:105] Setting up inception_5b/relu_3x3
I0509 23:29:15.648083 24549 net.cpp:112] Top shape: 32 384 7 7 (602112)
I0509 23:29:15.648089 24549 layer_factory.hpp:74] Creating layer inception_5b/5x5_reduce
I0509 23:29:15.648098 24549 net.cpp:76] Creating Layer inception_5b/5x5_reduce
I0509 23:29:15.648104 24549 net.cpp:372] inception_5b/5x5_reduce <- inception_5a/output_inception_5a/output_0_split_2
I0509 23:29:15.648114 24549 net.cpp:334] inception_5b/5x5_reduce -> inception_5b/5x5_reduce
I0509 23:29:15.648124 24549 net.cpp:105] Setting up inception_5b/5x5_reduce
I0509 23:29:15.648491 24549 net.cpp:112] Top shape: 32 48 7 7 (75264)
I0509 23:29:15.648505 24549 layer_factory.hpp:74] Creating layer inception_5b/relu_5x5_reduce
I0509 23:29:15.648515 24549 net.cpp:76] Creating Layer inception_5b/relu_5x5_reduce
I0509 23:29:15.648522 24549 net.cpp:372] inception_5b/relu_5x5_reduce <- inception_5b/5x5_reduce
I0509 23:29:15.648530 24549 net.cpp:323] inception_5b/relu_5x5_reduce -> inception_5b/5x5_reduce (in-place)
I0509 23:29:15.648537 24549 net.cpp:105] Setting up inception_5b/relu_5x5_reduce
I0509 23:29:15.648543 24549 net.cpp:112] Top shape: 32 48 7 7 (75264)
I0509 23:29:15.648548 24549 layer_factory.hpp:74] Creating layer inception_5b/5x5
I0509 23:29:15.648561 24549 net.cpp:76] Creating Layer inception_5b/5x5
I0509 23:29:15.648567 24549 net.cpp:372] inception_5b/5x5 <- inception_5b/5x5_reduce
I0509 23:29:15.648576 24549 net.cpp:334] inception_5b/5x5 -> inception_5b/5x5
I0509 23:29:15.648584 24549 net.cpp:105] Setting up inception_5b/5x5
I0509 23:29:15.649891 24549 net.cpp:112] Top shape: 32 128 7 7 (200704)
I0509 23:29:15.649906 24549 layer_factory.hpp:74] Creating layer inception_5b/relu_5x5
I0509 23:29:15.649914 24549 net.cpp:76] Creating Layer inception_5b/relu_5x5
I0509 23:29:15.649920 24549 net.cpp:372] inception_5b/relu_5x5 <- inception_5b/5x5
I0509 23:29:15.649927 24549 net.cpp:323] inception_5b/relu_5x5 -> inception_5b/5x5 (in-place)
I0509 23:29:15.649935 24549 net.cpp:105] Setting up inception_5b/relu_5x5
I0509 23:29:15.649940 24549 net.cpp:112] Top shape: 32 128 7 7 (200704)
I0509 23:29:15.649946 24549 layer_factory.hpp:74] Creating layer inception_5b/pool
I0509 23:29:15.649956 24549 net.cpp:76] Creating Layer inception_5b/pool
I0509 23:29:15.649962 24549 net.cpp:372] inception_5b/pool <- inception_5a/output_inception_5a/output_0_split_3
I0509 23:29:15.649971 24549 net.cpp:334] inception_5b/pool -> inception_5b/pool
I0509 23:29:15.649979 24549 net.cpp:105] Setting up inception_5b/pool
I0509 23:29:15.649986 24549 net.cpp:112] Top shape: 32 832 7 7 (1304576)
I0509 23:29:15.649992 24549 layer_factory.hpp:74] Creating layer inception_5b/pool_proj
I0509 23:29:15.650002 24549 net.cpp:76] Creating Layer inception_5b/pool_proj
I0509 23:29:15.650007 24549 net.cpp:372] inception_5b/pool_proj <- inception_5b/pool
I0509 23:29:15.650017 24549 net.cpp:334] inception_5b/pool_proj -> inception_5b/pool_proj
I0509 23:29:15.650027 24549 net.cpp:105] Setting up inception_5b/pool_proj
I0509 23:29:15.650940 24549 net.cpp:112] Top shape: 32 128 7 7 (200704)
I0509 23:29:15.650955 24549 layer_factory.hpp:74] Creating layer inception_5b/relu_pool_proj
I0509 23:29:15.650962 24549 net.cpp:76] Creating Layer inception_5b/relu_pool_proj
I0509 23:29:15.650969 24549 net.cpp:372] inception_5b/relu_pool_proj <- inception_5b/pool_proj
I0509 23:29:15.650976 24549 net.cpp:323] inception_5b/relu_pool_proj -> inception_5b/pool_proj (in-place)
I0509 23:29:15.650984 24549 net.cpp:105] Setting up inception_5b/relu_pool_proj
I0509 23:29:15.650990 24549 net.cpp:112] Top shape: 32 128 7 7 (200704)
I0509 23:29:15.650995 24549 layer_factory.hpp:74] Creating layer inception_5b/output
I0509 23:29:15.651023 24549 net.cpp:76] Creating Layer inception_5b/output
I0509 23:29:15.651031 24549 net.cpp:372] inception_5b/output <- inception_5b/1x1
I0509 23:29:15.651038 24549 net.cpp:372] inception_5b/output <- inception_5b/3x3
I0509 23:29:15.651044 24549 net.cpp:372] inception_5b/output <- inception_5b/5x5
I0509 23:29:15.651051 24549 net.cpp:372] inception_5b/output <- inception_5b/pool_proj
I0509 23:29:15.651059 24549 net.cpp:334] inception_5b/output -> inception_5b/output
I0509 23:29:15.651067 24549 net.cpp:105] Setting up inception_5b/output
I0509 23:29:15.651073 24549 net.cpp:112] Top shape: 32 1024 7 7 (1605632)
I0509 23:29:15.651079 24549 layer_factory.hpp:74] Creating layer pool5/7x7_s1
I0509 23:29:15.651125 24549 net.cpp:76] Creating Layer pool5/7x7_s1
I0509 23:29:15.651139 24549 net.cpp:372] pool5/7x7_s1 <- inception_5b/output
I0509 23:29:15.651149 24549 net.cpp:334] pool5/7x7_s1 -> pool5/7x7_s1
I0509 23:29:15.651157 24549 net.cpp:105] Setting up pool5/7x7_s1
I0509 23:29:15.651165 24549 net.cpp:112] Top shape: 32 1024 1 1 (32768)
I0509 23:29:15.651170 24549 layer_factory.hpp:74] Creating layer pool5/drop_7x7_s1
I0509 23:29:15.651180 24549 net.cpp:76] Creating Layer pool5/drop_7x7_s1
I0509 23:29:15.651185 24549 net.cpp:372] pool5/drop_7x7_s1 <- pool5/7x7_s1
I0509 23:29:15.651192 24549 net.cpp:323] pool5/drop_7x7_s1 -> pool5/7x7_s1 (in-place)
I0509 23:29:15.651201 24549 net.cpp:105] Setting up pool5/drop_7x7_s1
I0509 23:29:15.651206 24549 net.cpp:112] Top shape: 32 1024 1 1 (32768)
I0509 23:29:15.651212 24549 layer_factory.hpp:74] Creating layer loss3/classifier
I0509 23:29:15.651223 24549 net.cpp:76] Creating Layer loss3/classifier
I0509 23:29:15.651229 24549 net.cpp:372] loss3/classifier <- pool5/7x7_s1
I0509 23:29:15.651237 24549 net.cpp:334] loss3/classifier -> loss3/classifier
I0509 23:29:15.651247 24549 net.cpp:105] Setting up loss3/classifier
I0509 23:29:15.651303 24549 net.cpp:112] Top shape: 32 2 1 1 (64)
I0509 23:29:15.651317 24549 layer_factory.hpp:74] Creating layer loss3/classifier_loss3/classifier_0_split
I0509 23:29:15.651325 24549 net.cpp:76] Creating Layer loss3/classifier_loss3/classifier_0_split
I0509 23:29:15.651331 24549 net.cpp:372] loss3/classifier_loss3/classifier_0_split <- loss3/classifier
I0509 23:29:15.651339 24549 net.cpp:334] loss3/classifier_loss3/classifier_0_split -> loss3/classifier_loss3/classifier_0_split_0
I0509 23:29:15.651348 24549 net.cpp:334] loss3/classifier_loss3/classifier_0_split -> loss3/classifier_loss3/classifier_0_split_1
I0509 23:29:15.651356 24549 net.cpp:105] Setting up loss3/classifier_loss3/classifier_0_split
I0509 23:29:15.651362 24549 net.cpp:112] Top shape: 32 2 1 1 (64)
I0509 23:29:15.651387 24549 net.cpp:112] Top shape: 32 2 1 1 (64)
I0509 23:29:15.651394 24549 layer_factory.hpp:74] Creating layer loss3/loss3
I0509 23:29:15.651407 24549 net.cpp:76] Creating Layer loss3/loss3
I0509 23:29:15.651414 24549 net.cpp:372] loss3/loss3 <- loss3/classifier_loss3/classifier_0_split_0
I0509 23:29:15.651422 24549 net.cpp:372] loss3/loss3 <- label_data_1_split_4
I0509 23:29:15.651429 24549 net.cpp:334] loss3/loss3 -> loss3/loss3
I0509 23:29:15.651438 24549 net.cpp:105] Setting up loss3/loss3
I0509 23:29:15.651445 24549 layer_factory.hpp:74] Creating layer loss3/loss3
I0509 23:29:15.651461 24549 net.cpp:112] Top shape: 1 1 1 1 (1)
I0509 23:29:15.651468 24549 net.cpp:118]     with loss weight 1
I0509 23:29:15.651484 24549 layer_factory.hpp:74] Creating layer loss3/top-1
I0509 23:29:15.651494 24549 net.cpp:76] Creating Layer loss3/top-1
I0509 23:29:15.651499 24549 net.cpp:372] loss3/top-1 <- loss3/classifier_loss3/classifier_0_split_1
I0509 23:29:15.651507 24549 net.cpp:372] loss3/top-1 <- label_data_1_split_5
I0509 23:29:15.651516 24549 net.cpp:334] loss3/top-1 -> loss3/top-1
I0509 23:29:15.651525 24549 net.cpp:105] Setting up loss3/top-1
I0509 23:29:15.651530 24549 net.cpp:112] Top shape: 1 1 1 1 (1)
I0509 23:29:15.651536 24549 net.cpp:165] loss3/top-1 does not need backward computation.
I0509 23:29:15.651541 24549 net.cpp:163] loss3/loss3 needs backward computation.
I0509 23:29:15.651561 24549 net.cpp:163] loss3/classifier_loss3/classifier_0_split needs backward computation.
I0509 23:29:15.651567 24549 net.cpp:163] loss3/classifier needs backward computation.
I0509 23:29:15.651572 24549 net.cpp:163] pool5/drop_7x7_s1 needs backward computation.
…
