…
I0510 00:08:41.827334 27151 net.cpp:253] The NetState phase (0) differed from the phase (1) specified by a rule in layer loss3/top-1
I0510 00:08:41.828626 27151 net.cpp:42] Initializing net from parameters: 
name: "GoogleNet"
state {
  phase: TRAIN
}
layer {
  name: "data"
  type: "Data"
  top: "data"
  top: "label"
  include {
    phase: TRAIN
  }
  transform_param {
    mirror: true
    crop_size: 224
    mean_value: 104
    mean_value: 117
    mean_value: 123
  }
  data_param {
    source: "train_lmdb"
    batch_size: 32
    backend: LMDB
  }
}
layer {
  name: "conv1/7x7_s2"
  type: "Convolution"
  bottom: "data"
  top: "conv1/7x7_s2"
  param {
    lr_mult: 1
    decay_mult: 1
  }
  param {
    lr_mult: 2
    decay_mult: 0
  }
  convolution_param {
    num_output: 64
    pad: 3
    kernel_size: 7
    stride: 2
    weight_filler {
      type: "xavier"
      std: 0.1
    }
    bias_filler {
      type: "constant"
      value: 0.2
    }
  }
}
layer {
  name: "conv1/relu_7x7"
  type: "ReLU"
  bottom: "conv1/7x7_s2"
  top: "conv1/7x7_s2"
}
layer {
  name: "pool1/3x3_s2"
  type: "Pooling"
  bottom: "conv1/7x7_s2"
  top: "pool1/3x3_s2"
  pooling_param {
    pool: MAX
    kernel_size: 3
    stride: 2
  }
}
layer {
  name: "pool1/norm1"
  type: "LRN"
  bottom: "pool1/3x3_s2"
  top: "pool1/norm1"
  lrn_param {
    local_size: 5
    alpha: 0.0001
    beta: 0.75
  }
}
layer {
  name: "conv2/3x3_reduce"
  type: "Convolution"
  bottom: "pool1/norm1"
  top: "conv2/3x3_reduce"
  param {
    lr_mult: 1
    decay_mult: 1
  }
  param {
    lr_mult: 2
    decay_mult: 0
  }
  convolution_param {
    num_output: 64
    kernel_size: 1
    weight_filler {
      type: "xavier"
      std: 0.1
    }
    bias_filler {
      type: "constant"
      value: 0.2
    }
  }
}
layer {
  name: "conv2/relu_3x3_reduce"
  type: "ReLU"
  bottom: "conv2/3x3_reduce"
  top: "conv2/3x3_reduce"
}
layer {
  name: "conv2/3x3"
  type: "Convolution"
  bottom: "conv2/3x3_reduce"
  top: "conv2/3x3"
  param {
    lr_mult: 1
    decay_mult: 1
  }
  param {
    lr_mult: 2
    decay_mult: 0
  }
  convolution_param {
    num_output: 192
    pad: 1
    kernel_size: 3
    weight_filler {
      type: "xavier"
      std: 0.03
    }
    bias_filler {
      type: "constant"
      value: 0.2
    }
  }
}
layer {
  name: "conv2/relu_3x3"
  type: "ReLU"
  bottom: "conv2/3x3"
  top: "conv2/3x3"
}
layer {
  name: "conv2/norm2"
  type: "LRN"
  bottom: "conv2/3x3"
  top: "conv2/norm2"
  lrn_param {
    local_size: 5
    alpha: 0.0001
    beta: 0.75
  }
}
layer {
  name: "pool2/3x3_s2"
  type: "Pooling"
  bottom: "conv2/norm2"
  top: "pool2/3x3_s2"
  pooling_param {
    pool: MAX
    kernel_size: 3
    stride: 2
  }
}
layer {
  name: "inception_3a/1x1"
  type: "Convolution"
  bottom: "pool2/3x3_s2"
  top: "inception_3a/1x1"
  param {
    lr_mult: 1
    decay_mult: 1
  }
  param {
    lr_mult: 2
    decay_mult: 0
  }
  convolution_param {
    num_output: 64
    kernel_size: 1
    weight_filler {
      type: "xavier"
      std: 0.03
    }
    bias_filler {
      type: "constant"
      value: 0.2
    }
  }
}
layer {
  name: "inception_3a/relu_1x1"
  type: "ReLU"
  bottom: "inception_3a/1x1"
  top: "inception_3a/1x1"
}
layer {
  name: "inception_3a/3x3_reduce"
  type: "Convolution"
  bottom: "pool2/3x3_s2"
  top: "inception_3a/3x3_reduce"
  param {
    lr_mult: 1
    decay_mult: 1
  }
  param {
    lr_mult: 2
    decay_mult: 0
  }
  convolution_param {
    num_output: 96
    kernel_size: 1
    weight_filler {
      type: "xavier"
      std: 0.09
    }
    bias_filler {
      type: "constant"
      value: 0.2
    }
  }
}
layer {
  name: "inception_3a/relu_3x3_reduce"
  type: "ReLU"
  bottom: "inception_3a/3x3_reduce"
  top: "inception_3a/3x3_reduce"
}
layer {
  name: "inception_3a/3x3"
  type: "Convolution"
  bottom: "inception_3a/3x3_reduce"
  top: "inception_3a/3x3"
  param {
    lr_mult: 1
    decay_mult: 1
  }
  param {
    lr_mult: 2
    decay_mult: 0
  }
  convolution_param {
    num_output: 128
    pad: 1
    kernel_size: 3
    weight_filler {
      type: "xavier"
      std: 0.03
    }
    bias_filler {
      type: "constant"
      value: 0.2
    }
  }
}
layer {
  name: "inception_3a/relu_3x3"
  type: "ReLU"
  bottom: "inception_3a/3x3"
  top: "inception_3a/3x3"
}
layer {
  name: "inception_3a/5x5_reduce"
  type: "Convolution"
  bottom: "pool2/3x3_s2"
  top: "inception_3a/5x5_reduce"
  param {
    lr_mult: 1
    decay_mult: 1
  }
  param {
    lr_mult: 2
    decay_mult: 0
  }
  convolution_param {
    num_output: 16
    kernel_size: 1
    weight_filler {
      type: "xavier"
      std: 0.2
    }
    bias_filler {
      type: "constant"
      value: 0.2
    }
  }
}
layer {
  name: "inception_3a/relu_5x5_reduce"
  type: "ReLU"
  bottom: "inception_3a/5x5_reduce"
  top: "inception_3a/5x5_reduce"
}
layer {
  name: "inception_3a/5x5"
  type: "Convolution"
  bottom: "inception_3a/5x5_reduce"
  top: "inception_3a/5x5"
  param {
    lr_mult: 1
    decay_mult: 1
  }
  param {
    lr_mult: 2
    decay_mult: 0
  }
  convolution_param {
    num_output: 32
    pad: 2
    kernel_size: 5
    weight_filler {
      type: "xavier"
      std: 0.03
    }
    bias_filler {
      type: "constant"
      value: 0.2
    }
  }
}
layer {
  name: "inception_3a/relu_5x5"
  type: "ReLU"
  bottom: "inception_3a/5x5"
  top: "inception_3a/5x5"
}
layer {
  name: "inception_3a/pool"
  type: "Pooling"
  bottom: "pool2/3x3_s2"
  top: "inception_3a/pool"
  pooling_param {
    pool: MAX
    kernel_size: 3
    stride: 1
    pad: 1
  }
}
layer {
  name: "inception_3a/pool_proj"
  type: "Convolution"
  bottom: "inception_3a/pool"
  top: "inception_3a/pool_proj"
  param {
    lr_mult: 1
    decay_mult: 1
  }
  param {
    lr_mult: 2
    decay_mult: 0
  }
  convolution_param {
    num_output: 32
    kernel_size: 1
    weight_filler {
      type: "xavier"
      std: 0.1
    }
    bias_filler {
      type: "constant"
      value: 0.2
    }
  }
}
layer {
  name: "inception_3a/relu_pool_proj"
  type: "ReLU"
  bottom: "inception_3a/pool_proj"
  top: "inception_3a/pool_proj"
}
layer {
  name: "inception_3a/output"
  type: "Concat"
  bottom: "inception_3a/1x1"
  bottom: "inception_3a/3x3"
  bottom: "inception_3a/5x5"
  bottom: "inception_3a/pool_proj"
  top: "inception_3a/output"
}
layer {
  name: "inception_3b/1x1"
  type: "Convolution"
  bottom: "inception_3a/output"
  top: "inception_3b/1x1"
  param {
    lr_mult: 1
    decay_mult: 1
  }
  param {
    lr_mult: 2
    decay_mult: 0
  }
  convolution_param {
    num_output: 128
    kernel_size: 1
    weight_filler {
      type: "xavier"
      std: 0.03
    }
    bias_filler {
      type: "constant"
      value: 0.2
    }
  }
}
layer {
  name: "inception_3b/relu_1x1"
  type: "ReLU"
  bottom: "inception_3b/1x1"
  top: "inception_3b/1x1"
}
layer {
  name: "inception_3b/3x3_reduce"
  type: "Convolution"
  bottom: "inception_3a/output"
  top: "inception_3b/3x3_reduce"
  param {
    lr_mult: 1
    decay_mult: 1
  }
  param {
    lr_mult: 2
    decay_mult: 0
  }
  convolution_param {
    num_output: 128
    kernel_size: 1
    weight_filler {
      type: "xavier"
      std: 0.09
    }
    bias_filler {
      type: "constant"
      value: 0.2
    }
  }
}
layer {
  name: "inception_3b/relu_3x3_reduce"
  type: "ReLU"
  bottom: "inception_3b/3x3_reduce"
  top: "inception_3b/3x3_reduce"
}
layer {
  name: "inception_3b/3x3"
  type: "Convolution"
  bottom: "inception_3b/3x3_reduce"
  top: "inception_3b/3x3"
  param {
    lr_mult: 1
    decay_mult: 1
  }
  param {
    lr_mult: 2
    decay_mult: 0
  }
  convolution_param {
    num_output: 192
    pad: 1
    kernel_size: 3
    weight_filler {
      type: "xavier"
      std: 0.03
    }
    bias_filler {
      type: "constant"
      value: 0.2
    }
  }
}
layer {
  name: "inception_3b/relu_3x3"
  type: "ReLU"
  bottom: "inception_3b/3x3"
  top: "inception_3b/3x3"
}
layer {
  name: "inception_3b/5x5_reduce"
  type: "Convolution"
  bottom: "inception_3a/output"
  top: "inception_3b/5x5_reduce"
  param {
    lr_mult: 1
    decay_mult: 1
  }
  param {
    lr_mult: 2
    decay_mult: 0
  }
  convolution_param {
    num_output: 32
    kernel_size: 1
    weight_filler {
      type: "xavier"
      std: 0.2
    }
    bias_filler {
      type: "constant"
      value: 0.2
    }
  }
}
layer {
  name: "inception_3b/relu_5x5_reduce"
  type: "ReLU"
  bottom: "inception_3b/5x5_reduce"
  top: "inception_3b/5x5_reduce"
}
layer {
  name: "inception_3b/5x5"
  type: "Convolution"
  bottom: "inception_3b/5x5_reduce"
  top: "inception_3b/5x5"
  param {
    lr_mult: 1
    decay_mult: 1
  }
  param {
    lr_mult: 2
    decay_mult: 0
  }
  convolution_param {
    num_output: 96
    pad: 2
    kernel_size: 5
    weight_filler {
      type: "xavier"
      std: 0.03
    }
    bias_filler {
      type: "constant"
      value: 0.2
    }
  }
}
layer {
  name: "inception_3b/relu_5x5"
  type: "ReLU"
  bottom: "inception_3b/5x5"
  top: "inception_3b/5x5"
}
layer {
  name: "inception_3b/pool"
  type: "Pooling"
  bottom: "inception_3a/output"
  top: "inception_3b/pool"
  pooling_param {
    pool: MAX
    kernel_size: 3
    stride: 1
    pad: 1
  }
}
layer {
  name: "inception_3b/pool_proj"
  type: "Convolution"
  bottom: "inception_3b/pool"
  top: "inception_3b/pool_proj"
  param {
    lr_mult: 1
    decay_mult: 1
  }
  param {
    lr_mult: 2
    decay_mult: 0
  }
  convolution_param {
    num_output: 64
    kernel_size: 1
    weight_filler {
      type: "xavier"
      std: 0.1
    }
    bias_filler {
      type: "constant"
      value: 0.2
    }
  }
}
layer {
  name: "inception_3b/relu_pool_proj"
  type: "ReLU"
  bottom: "inception_3b/pool_proj"
  top: "inception_3b/pool_proj"
}
layer {
  name: "inception_3b/output"
  type: "Concat"
  bottom: "inception_3b/1x1"
  bottom: "inception_3b/3x3"
  bottom: "inception_3b/5x5"
  bottom: "inception_3b/pool_proj"
  top: "inception_3b/output"
}
layer {
  name: "pool3/3x3_s2"
  type: "Pooling"
  bottom: "inception_3b/output"
  top: "pool3/3x3_s2"
  pooling_param {
    pool: MAX
    kernel_size: 3
    stride: 2
  }
}
layer {
  name: "inception_4a/1x1"
  type: "Convolution"
  bottom: "pool3/3x3_s2"
  top: "inception_4a/1x1"
  param {
    lr_mult: 1
    decay_mult: 1
  }
  param {
    lr_mult: 2
    decay_mult: 0
  }
  convolution_param {
    num_output: 192
    kernel_size: 1
    weight_filler {
      type: "xavier"
      std: 0.03
    }
    bias_filler {
      type: "constant"
      value: 0.2
    }
  }
}
layer {
  name: "inception_4a/relu_1x1"
  type: "ReLU"
  bottom: "inception_4a/1x1"
  top: "inception_4a/1x1"
}
layer {
  name: "inception_4a/3x3_reduce"
  type: "Convolution"
  bottom: "pool3/3x3_s2"
  top: "inception_4a/3x3_reduce"
  param {
    lr_mult: 1
    decay_mult: 1
  }
  param {
    lr_mult: 2
    decay_mult: 0
  }
  convolution_param {
    num_output: 96
    kernel_size: 1
    weight_filler {
      type: "xavier"
      std: 0.09
    }
    bias_filler {
      type: "constant"
      value: 0.2
    }
  }
}
layer {
  name: "inception_4a/relu_3x3_reduce"
  type: "ReLU"
  bottom: "inception_4a/3x3_reduce"
  top: "inception_4a/3x3_reduce"
}
layer {
  name: "inception_4a/3x3"
  type: "Convolution"
  bottom: "inception_4a/3x3_reduce"
  top: "inception_4a/3x3"
  param {
    lr_mult: 1
    decay_mult: 1
  }
  param {
    lr_mult: 2
    decay_mult: 0
  }
  convolution_param {
    num_output: 208
    pad: 1
    kernel_size: 3
    weight_filler {
      type: "xavier"
      std: 0.03
    }
    bias_filler {
      type: "constant"
      value: 0.2
    }
  }
}
layer {
  name: "inception_4a/relu_3x3"
  type: "ReLU"
  bottom: "inception_4a/3x3"
  top: "inception_4a/3x3"
}
layer {
  name: "inception_4a/5x5_reduce"
  type: "Convolution"
  bottom: "pool3/3x3_s2"
  top: "inception_4a/5x5_reduce"
  param {
    lr_mult: 1
    decay_mult: 1
  }
  param {
    lr_mult: 2
    decay_mult: 0
  }
  convolution_param {
    num_output: 16
    kernel_size: 1
    weight_filler {
      type: "xavier"
      std: 0.2
    }
    bias_filler {
      type: "constant"
      value: 0.2
    }
  }
}
layer {
  name: "inception_4a/relu_5x5_reduce"
  type: "ReLU"
  bottom: "inception_4a/5x5_reduce"
  top: "inception_4a/5x5_reduce"
}
layer {
  name: "inception_4a/5x5"
  type: "Convolution"
  bottom: "inception_4a/5x5_reduce"
  top: "inception_4a/5x5"
  param {
    lr_mult: 1
    decay_mult: 1
  }
  param {
    lr_mult: 2
    decay_mult: 0
  }
  convolution_param {
    num_output: 48
    pad: 2
    kernel_size: 5
    weight_filler {
      type: "xavier"
      std: 0.03
    }
    bias_filler {
      type: "constant"
      value: 0.2
    }
  }
}
layer {
  name: "inception_4a/relu_5x5"
  type: "ReLU"
  bottom: "inception_4a/5x5"
  top: "inception_4a/5x5"
}
layer {
  name: "inception_4a/pool"
  type: "Pooling"
  bottom: "pool3/3x3_s2"
  top: "inception_4a/pool"
  pooling_param {
    pool: MAX
    kernel_size: 3
    stride: 1
    pad: 1
  }
}
layer {
  name: "inception_4a/pool_proj"
  type: "Convolution"
  bottom: "inception_4a/pool"
  top: "inception_4a/pool_proj"
  param {
    lr_mult: 1
    decay_mult: 1
  }
  param {
    lr_mult: 2
    decay_mult: 0
  }
  convolution_param {
    num_output: 64
    kernel_size: 1
    weight_filler {
      type: "xavier"
      std: 0.1
    }
    bias_filler {
      type: "constant"
      value: 0.2
    }
  }
}
layer {
  name: "inception_4a/relu_pool_proj"
  type: "ReLU"
  bottom: "inception_4a/pool_proj"
  top: "inception_4a/pool_proj"
}
layer {
  name: "inception_4a/output"
  type: "Concat"
  bottom: "inception_4a/1x1"
  bottom: "inception_4a/3x3"
  bottom: "inception_4a/5x5"
  bottom: "inception_4a/pool_proj"
  top: "inception_4a/output"
}
layer {
  name: "loss1/ave_pool"
  type: "Pooling"
  bottom: "inception_4a/output"
  top: "loss1/ave_pool"
  pooling_param {
    pool: AVE
    kernel_size: 5
    stride: 3
  }
}
layer {
  name: "loss1/conv"
  type: "Convolution"
  bottom: "loss1/ave_pool"
  top: "loss1/conv"
  param {
    lr_mult: 1
    decay_mult: 1
  }
  param {
    lr_mult: 2
    decay_mult: 0
  }
  convolution_param {
    num_output: 128
    kernel_size: 1
    weight_filler {
      type: "xavier"
      std: 0.08
    }
    bias_filler {
      type: "constant"
      value: 0.2
    }
  }
}
layer {
  name: "loss1/relu_conv"
  type: "ReLU"
  bottom: "loss1/conv"
  top: "loss1/conv"
}
layer {
  name: "loss1/fc"
  type: "InnerProduct"
  bottom: "loss1/conv"
  top: "loss1/fc"
  param {
    lr_mult: 1
    decay_mult: 1
  }
  param {
    lr_mult: 2
    decay_mult: 0
  }
  inner_product_param {
    num_output: 1024
    weight_filler {
      type: "xavier"
      std: 0.02
    }
    bias_filler {
      type: "constant"
      value: 0.2
    }
  }
}
layer {
  name: "loss1/relu_fc"
  type: "ReLU"
  bottom: "loss1/fc"
  top: "loss1/fc"
}
layer {
  name: "loss1/drop_fc"
  type: "Dropout"
  bottom: "loss1/fc"
  top: "loss1/fc"
  dropout_param {
    dropout_ratio: 0.7
  }
}
layer {
  name: "loss1/classifier"
  type: "InnerProduct"
  bottom: "loss1/fc"
  top: "loss1/classifier"
  param {
    lr_mult: 1
    decay_mult: 1
  }
  param {
    lr_mult: 2
    decay_mult: 0
  }
  inner_product_param {
    num_output: 2
    weight_filler {
      type: "xavier"
      std: 0.0009765625
    }
    bias_filler {
      type: "constant"
      value: 0
    }
  }
}
layer {
  name: "loss1/loss"
  type: "SoftmaxWithLoss"
  bottom: "loss1/classifier"
  bottom: "label"
  top: "loss1/loss1"
  loss_weight: 0.3
}
layer {
  name: "inception_4b/1x1"
  type: "Convolution"
  bottom: "inception_4a/output"
  top: "inception_4b/1x1"
  param {
    lr_mult: 1
    decay_mult: 1
  }
  param {
    lr_mult: 2
    decay_mult: 0
  }
  convolution_param {
    num_output: 160
    kernel_size: 1
    weight_filler {
      type: "xavier"
      std: 0.03
    }
    bias_filler {
      type: "constant"
      value: 0.2
    }
  }
}
layer {
  name: "inception_4b/relu_1x1"
  type: "ReLU"
  bottom: "inception_4b/1x1"
  top: "inception_4b/1x1"
}
layer {
  name: "inception_4b/3x3_reduce"
  type: "Convolution"
  bottom: "inception_4a/output"
  top: "inception_4b/3x3_reduce"
  param {
    lr_mult: 1
    decay_mult: 1
  }
  param {
    lr_mult: 2
    decay_mult: 0
  }
  convolution_param {
    num_output: 112
    kernel_size: 1
    weight_filler {
      type: "xavier"
      std: 0.09
    }
    bias_filler {
      type: "constant"
      value: 0.2
    }
  }
}
layer {
  name: "inception_4b/relu_3x3_reduce"
  type: "ReLU"
  bottom: "inception_4b/3x3_reduce"
  top: "inception_4b/3x3_reduce"
}
layer {
  name: "inception_4b/3x3"
  type: "Convolution"
  bottom: "inception_4b/3x3_reduce"
  top: "inception_4b/3x3"
  param {
    lr_mult: 1
    decay_mult: 1
  }
  param {
    lr_mult: 2
    decay_mult: 0
  }
  convolution_param {
    num_output: 224
    pad: 1
    kernel_size: 3
    weight_filler {
      type: "xavier"
      std: 0.03
    }
    bias_filler {
      type: "constant"
      value: 0.2
    }
  }
}
layer {
  name: "inception_4b/relu_3x3"
  type: "ReLU"
  bottom: "inception_4b/3x3"
  top: "inception_4b/3x3"
}
layer {
  name: "inception_4b/5x5_reduce"
  type: "Convolution"
  bottom: "inception_4a/output"
  top: "inception_4b/5x5_reduce"
  param {
    lr_mult: 1
    decay_mult: 1
  }
  param {
    lr_mult: 2
    decay_mult: 0
  }
  convolution_param {
    num_output: 24
    kernel_size: 1
    weight_filler {
      type: "xavier"
      std: 0.2
    }
    bias_filler {
      type: "constant"
      value: 0.2
    }
  }
}
layer {
  name: "inception_4b/relu_5x5_reduce"
  type: "ReLU"
  bottom: "inception_4b/5x5_reduce"
  top: "inception_4b/5x5_reduce"
}
layer {
  name: "inception_4b/5x5"
  type: "Convolution"
  bottom: "inception_4b/5x5_reduce"
  top: "inception_4b/5x5"
  param {
    lr_mult: 1
    decay_mult: 1
  }
  param {
    lr_mult: 2
    decay_mult: 0
  }
  convolution_param {
    num_output: 64
    pad: 2
    kernel_size: 5
    weight_filler {
      type: "xavier"
      std: 0.03
    }
    bias_filler {
      type: "constant"
      value: 0.2
    }
  }
}
layer {
  name: "inception_4b/relu_5x5"
  type: "ReLU"
  bottom: "inception_4b/5x5"
  top: "inception_4b/5x5"
}
layer {
  name: "inception_4b/pool"
  type: "Pooling"
  bottom: "inception_4a/output"
  top: "inception_4b/pool"
  pooling_param {
    pool: MAX
    kernel_size: 3
    stride: 1
    pad: 1
  }
}
layer {
  name: "inception_4b/pool_proj"
  type: "Convolution"
  bottom: "inception_4b/pool"
  top: "inception_4b/pool_proj"
  param {
    lr_mult: 1
    decay_mult: 1
  }
  param {
    lr_mult: 2
    decay_mult: 0
  }
  convolution_param {
    num_output: 64
    kernel_size: 1
    weight_filler {
      type: "xavier"
      std: 0.1
    }
    bias_filler {
      type: "constant"
      value: 0.2
    }
  }
}
layer {
  name: "inception_4b/relu_pool_proj"
  type: "ReLU"
  bottom: "inception_4b/pool_proj"
  top: "inception_4b/pool_proj"
}
layer {
  name: "inception_4b/output"
  type: "Concat"
  bottom: "inception_4b/1x1"
  bottom: "inception_4b/3x3"
  bottom: "inception_4b/5x5"
  bottom: "inception_4b/pool_proj"
  top: "inception_4b/output"
}
layer {
  name: "inception_4c/1x1"
  type: "Convolution"
  bottom: "inception_4b/output"
  top: "inception_4c/1x1"
  param {
    lr_mult: 1
    decay_mult: 1
  }
  param {
    lr_mult: 2
    decay_mult: 0
  }
  convolution_param {
    num_output: 128
    kernel_size: 1
    weight_filler {
      type: "xavier"
      std: 0.03
    }
    bias_filler {
      type: "constant"
      value: 0.2
    }
  }
}
layer {
  name: "inception_4c/relu_1x1"
  type: "ReLU"
  bottom: "inception_4c/1x1"
  top: "inception_4c/1x1"
}
layer {
  name: "inception_4c/3x3_reduce"
  type: "Convolution"
  bottom: "inception_4b/output"
  top: "inception_4c/3x3_reduce"
  param {
    lr_mult: 1
    decay_mult: 1
  }
  param {
    lr_mult: 2
    decay_mult: 0
  }
  convolution_param {
    num_output: 128
    kernel_size: 1
    weight_filler {
      type: "xavier"
      std: 0.09
    }
    bias_filler {
      type: "constant"
      value: 0.2
    }
  }
}
layer {
  name: "inception_4c/relu_3x3_reduce"
  type: "ReLU"
  bottom: "inception_4c/3x3_reduce"
  top: "inception_4c/3x3_reduce"
}
layer {
  name: "inception_4c/3x3"
  type: "Convolution"
  bottom: "inception_4c/3x3_reduce"
  top: "inception_4c/3x3"
  param {
    lr_mult: 1
    decay_mult: 1
  }
  param {
    lr_mult: 2
    decay_mult: 0
  }
  convolution_param {
    num_output: 256
    pad: 1
    kernel_size: 3
    weight_filler {
      type: "xavier"
      std: 0.03
    }
    bias_filler {
      type: "constant"
      value: 0.2
    }
  }
}
layer {
  name: "inception_4c/relu_3x3"
  type: "ReLU"
  bottom: "inception_4c/3x3"
  top: "inception_4c/3x3"
}
layer {
  name: "inception_4c/5x5_reduce"
  type: "Convolution"
  bottom: "inception_4b/output"
  top: "inception_4c/5x5_reduce"
  param {
    lr_mult: 1
    decay_mult: 1
  }
  param {
    lr_mult: 2
    decay_mult: 0
  }
  convolution_param {
    num_output: 24
    kernel_size: 1
    weight_filler {
      type: "xavier"
      std: 0.2
    }
    bias_filler {
      type: "constant"
      value: 0.2
    }
  }
}
layer {
  name: "inception_4c/relu_5x5_reduce"
  type: "ReLU"
  bottom: "inception_4c/5x5_reduce"
  top: "inception_4c/5x5_reduce"
}
layer {
  name: "inception_4c/5x5"
  type: "Convolution"
  bottom: "inception_4c/5x5_reduce"
  top: "inception_4c/5x5"
  param {
    lr_mult: 1
    decay_mult: 1
  }
  param {
    lr_mult: 2
    decay_mult: 0
  }
  convolution_param {
    num_output: 64
    pad: 2
    kernel_size: 5
    weight_filler {
      type: "xavier"
      std: 0.03
    }
    bias_filler {
      type: "constant"
      value: 0.2
    }
  }
}
layer {
  name: "inception_4c/relu_5x5"
  type: "ReLU"
  bottom: "inception_4c/5x5"
  top: "inception_4c/5x5"
}
layer {
  name: "inception_4c/pool"
  type: "Pooling"
  bottom: "inception_4b/output"
  top: "inception_4c/pool"
  pooling_param {
    pool: MAX
    kernel_size: 3
    stride: 1
    pad: 1
  }
}
layer {
  name: "inception_4c/pool_proj"
  type: "Convolution"
  bottom: "inception_4c/pool"
  top: "inception_4c/pool_proj"
  param {
    lr_mult: 1
    decay_mult: 1
  }
  param {
    lr_mult: 2
    decay_mult: 0
  }
  convolution_param {
    num_output: 64
    kernel_size: 1
    weight_filler {
      type: "xavier"
      std: 0.1
    }
    bias_filler {
      type: "constant"
      value: 0.2
    }
  }
}
layer {
  name: "inception_4c/relu_pool_proj"
  type: "ReLU"
  bottom: "inception_4c/pool_proj"
  top: "inception_4c/pool_proj"
}
layer {
  name: "inception_4c/output"
  type: "Concat"
  bottom: "inception_4c/1x1"
  bottom: "inception_4c/3x3"
  bottom: "inception_4c/5x5"
  bottom: "inception_4c/pool_proj"
  top: "inception_4c/output"
}
layer {
  name: "inception_4d/1x1"
  type: "Convolution"
  bottom: "inception_4c/output"
  top: "inception_4d/1x1"
  param {
    lr_mult: 1
    decay_mult: 1
  }
  param {
    lr_mult: 2
    decay_mult: 0
  }
  convolution_param {
    num_output: 112
    kernel_size: 1
    weight_filler {
      type: "xavier"
      std: 0.03
    }
    bias_filler {
      type: "constant"
      value: 0.2
    }
  }
}
layer {
  name: "inception_4d/relu_1x1"
  type: "ReLU"
  bottom: "inception_4d/1x1"
  top: "inception_4d/1x1"
}
layer {
  name: "inception_4d/3x3_reduce"
  type: "Convolution"
  bottom: "inception_4c/output"
  top: "inception_4d/3x3_reduce"
  param {
    lr_mult: 1
    decay_mult: 1
  }
  param {
    lr_mult: 2
    decay_mult: 0
  }
  convolution_param {
    num_output: 144
    kernel_size: 1
    weight_filler {
      type: "xavier"
      std: 0.09
    }
    bias_filler {
      type: "constant"
      value: 0.2
    }
  }
}
layer {
  name: "inception_4d/relu_3x3_reduce"
  type: "ReLU"
  bottom: "inception_4d/3x3_reduce"
  top: "inception_4d/3x3_reduce"
}
layer {
  name: "inception_4d/3x3"
  type: "Convolution"
  bottom: "inception_4d/3x3_reduce"
  top: "inception_4d/3x3"
  param {
    lr_mult: 1
    decay_mult: 1
  }
  param {
    lr_mult: 2
    decay_mult: 0
  }
  convolution_param {
    num_output: 288
    pad: 1
    kernel_size: 3
    weight_filler {
      type: "xavier"
      std: 0.03
    }
    bias_filler {
      type: "constant"
      value: 0.2
    }
  }
}
layer {
  name: "inception_4d/relu_3x3"
  type: "ReLU"
  bottom: "inception_4d/3x3"
  top: "inception_4d/3x3"
}
layer {
  name: "inception_4d/5x5_reduce"
  type: "Convolution"
  bottom: "inception_4c/output"
  top: "inception_4d/5x5_reduce"
  param {
    lr_mult: 1
    decay_mult: 1
  }
  param {
    lr_mult: 2
    decay_mult: 0
  }
  convolution_param {
    num_output: 32
    kernel_size: 1
    weight_filler {
      type: "xavier"
      std: 0.2
    }
    bias_filler {
      type: "constant"
      value: 0.2
    }
  }
}
layer {
  name: "inception_4d/relu_5x5_reduce"
  type: "ReLU"
  bottom: "inception_4d/5x5_reduce"
  top: "inception_4d/5x5_reduce"
}
layer {
  name: "inception_4d/5x5"
  type: "Convolution"
  bottom: "inception_4d/5x5_reduce"
  top: "inception_4d/5x5"
  param {
    lr_mult: 1
    decay_mult: 1
  }
  param {
    lr_mult: 2
    decay_mult: 0
  }
  convolution_param {
    num_output: 64
    pad: 2
    kernel_size: 5
    weight_filler {
      type: "xavier"
      std: 0.03
    }
    bias_filler {
      type: "constant"
      value: 0.2
    }
  }
}
layer {
  name: "inception_4d/relu_5x5"
  type: "ReLU"
  bottom: "inception_4d/5x5"
  top: "inception_4d/5x5"
}
layer {
  name: "inception_4d/pool"
  type: "Pooling"
  bottom: "inception_4c/output"
  top: "inception_4d/pool"
  pooling_param {
    pool: MAX
    kernel_size: 3
    stride: 1
    pad: 1
  }
}
layer {
  name: "inception_4d/pool_proj"
  type: "Convolution"
  bottom: "inception_4d/pool"
  top: "inception_4d/pool_proj"
  param {
    lr_mult: 1
    decay_mult: 1
  }
  param {
    lr_mult: 2
    decay_mult: 0
  }
  convolution_param {
    num_output: 64
    kernel_size: 1
    weight_filler {
      type: "xavier"
      std: 0.1
    }
    bias_filler {
      type: "constant"
      value: 0.2
    }
  }
}
layer {
  name: "inception_4d/relu_pool_proj"
  type: "ReLU"
  bottom: "inception_4d/pool_proj"
  top: "inception_4d/pool_proj"
}
layer {
  name: "inception_4d/output"
  type: "Concat"
  bottom: "inception_4d/1x1"
  bottom: "inception_4d/3x3"
  bottom: "inception_4d/5x5"
  bottom: "inception_4d/pool_proj"
  top: "inception_4d/output"
}
layer {
  name: "loss2/ave_pool"
  type: "Pooling"
  bottom: "inception_4d/output"
  top: "loss2/ave_pool"
  pooling_param {
    pool: AVE
    kernel_size: 5
    stride: 3
  }
}
layer {
  name: "loss2/conv"
  type: "Convolution"
  bottom: "loss2/ave_pool"
  top: "loss2/conv"
  param {
    lr_mult: 1
    decay_mult: 1
  }
  param {
    lr_mult: 2
    decay_mult: 0
  }
  convolution_param {
    num_output: 128
    kernel_size: 1
    weight_filler {
      type: "xavier"
      std: 0.08
    }
    bias_filler {
      type: "constant"
      value: 0.2
    }
  }
}
layer {
  name: "loss2/relu_conv"
  type: "ReLU"
  bottom: "loss2/conv"
  top: "loss2/conv"
}
layer {
  name: "loss2/fc"
  type: "InnerProduct"
  bottom: "loss2/conv"
  top: "loss2/fc"
  param {
    lr_mult: 1
    decay_mult: 1
  }
  param {
    lr_mult: 2
    decay_mult: 0
  }
  inner_product_param {
    num_output: 1024
    weight_filler {
      type: "xavier"
      std: 0.02
    }
    bias_filler {
      type: "constant"
      value: 0.2
    }
  }
}
layer {
  name: "loss2/relu_fc"
  type: "ReLU"
  bottom: "loss2/fc"
  top: "loss2/fc"
}
layer {
  name: "loss2/drop_fc"
  type: "Dropout"
  bottom: "loss2/fc"
  top: "loss2/fc"
  dropout_param {
    dropout_ratio: 0.7
  }
}
layer {
  name: "loss2/classifier"
  type: "InnerProduct"
  bottom: "loss2/fc"
  top: "loss2/classifier"
  param {
    lr_mult: 1
    decay_mult: 1
  }
  param {
    lr_mult: 2
    decay_mult: 0
  }
  inner_product_param {
    num_output: 2
    weight_filler {
      type: "xavier"
      std: 0.0009765625
    }
    bias_filler {
      type: "constant"
      value: 0
    }
  }
}
layer {
  name: "loss2/loss"
  type: "SoftmaxWithLoss"
  bottom: "loss2/classifier"
  bottom: "label"
  top: "loss2/loss1"
  loss_weight: 0.3
}
layer {
  name: "inception_4e/1x1"
  type: "Convolution"
  bottom: "inception_4d/output"
  top: "inception_4e/1x1"
  param {
    lr_mult: 1
    decay_mult: 1
  }
  param {
    lr_mult: 2
    decay_mult: 0
  }
  convolution_param {
    num_output: 256
    kernel_size: 1
    weight_filler {
      type: "xavier"
      std: 0.03
    }
    bias_filler {
      type: "constant"
      value: 0.2
    }
  }
}
layer {
  name: "inception_4e/relu_1x1"
  type: "ReLU"
  bottom: "inception_4e/1x1"
  top: "inception_4e/1x1"
}
layer {
  name: "inception_4e/3x3_reduce"
  type: "Convolution"
  bottom: "inception_4d/output"
  top: "inception_4e/3x3_reduce"
  param {
    lr_mult: 1
    decay_mult: 1
  }
  param {
    lr_mult: 2
    decay_mult: 0
  }
  convolution_param {
    num_output: 160
    kernel_size: 1
    weight_filler {
      type: "xavier"
      std: 0.09
    }
    bias_filler {
      type: "constant"
      value: 0.2
    }
  }
}
layer {
  name: "inception_4e/relu_3x3_reduce"
  type: "ReLU"
  bottom: "inception_4e/3x3_reduce"
  top: "inception_4e/3x3_reduce"
}
layer {
  name: "inception_4e/3x3"
  type: "Convolution"
  bottom: "inception_4e/3x3_reduce"
  top: "inception_4e/3x3"
  param {
    lr_mult: 1
    decay_mult: 1
  }
  param {
    lr_mult: 2
    decay_mult: 0
  }
  convolution_param {
    num_output: 320
    pad: 1
    kernel_size: 3
    weight_filler {
      type: "xavier"
      std: 0.03
    }
    bias_filler {
      type: "constant"
      value: 0.2
    }
  }
}
layer {
  name: "inception_4e/relu_3x3"
  type: "ReLU"
  bottom: "inception_4e/3x3"
  top: "inception_4e/3x3"
}
layer {
  name: "inception_4e/5x5_reduce"
  type: "Convolution"
  bottom: "inception_4d/output"
  top: "inception_4e/5x5_reduce"
  param {
    lr_mult: 1
    decay_mult: 1
  }
  param {
    lr_mult: 2
    decay_mult: 0
  }
  convolution_param {
    num_output: 32
    kernel_size: 1
    weight_filler {
      type: "xavier"
      std: 0.2
    }
    bias_filler {
      type: "constant"
      value: 0.2
    }
  }
}
layer {
  name: "inception_4e/relu_5x5_reduce"
  type: "ReLU"
  bottom: "
I0510 00:08:41.833550 27151 layer_factory.hpp:74] Creating layer data
I0510 00:08:41.833585 27151 net.cpp:76] Creating Layer data
I0510 00:08:41.833598 27151 net.cpp:334] data -> data
I0510 00:08:41.833629 27151 net.cpp:334] data -> label
I0510 00:08:41.833652 27151 net.cpp:105] Setting up data
I0510 00:08:41.833772 27151 db.cpp:34] Opened lmdb train_lmdb
I0510 00:08:41.834056 27151 data_layer.cpp:67] output data size: 32,3,224,224
I0510 00:08:41.840669 27151 net.cpp:112] Top shape: 32 3 224 224 (4816896)
I0510 00:08:41.840692 27151 net.cpp:112] Top shape: 32 1 1 1 (32)
I0510 00:08:41.840701 27151 layer_factory.hpp:74] Creating layer label_data_1_split
I0510 00:08:41.840718 27151 net.cpp:76] Creating Layer label_data_1_split
I0510 00:08:41.840726 27151 net.cpp:372] label_data_1_split <- label
I0510 00:08:41.840744 27151 net.cpp:334] label_data_1_split -> label_data_1_split_0
I0510 00:08:41.840757 27151 net.cpp:334] label_data_1_split -> label_data_1_split_1
I0510 00:08:41.840767 27151 net.cpp:334] label_data_1_split -> label_data_1_split_2
I0510 00:08:41.840776 27151 net.cpp:105] Setting up label_data_1_split
I0510 00:08:41.840785 27151 net.cpp:112] Top shape: 32 1 1 1 (32)
I0510 00:08:41.840791 27151 net.cpp:112] Top shape: 32 1 1 1 (32)
I0510 00:08:41.840797 27151 net.cpp:112] Top shape: 32 1 1 1 (32)
I0510 00:08:41.840802 27151 layer_factory.hpp:74] Creating layer conv1/7x7_s2
I0510 00:08:41.840818 27151 net.cpp:76] Creating Layer conv1/7x7_s2
I0510 00:08:41.840824 27151 net.cpp:372] conv1/7x7_s2 <- data
I0510 00:08:41.840833 27151 net.cpp:334] conv1/7x7_s2 -> conv1/7x7_s2
I0510 00:08:41.840847 27151 net.cpp:105] Setting up conv1/7x7_s2
I0510 00:08:41.840965 27151 net.cpp:112] Top shape: 32 64 112 112 (25690112)
I0510 00:08:41.841016 27151 layer_factory.hpp:74] Creating layer conv1/relu_7x7
I0510 00:08:41.841025 27151 net.cpp:76] Creating Layer conv1/relu_7x7
I0510 00:08:41.841032 27151 net.cpp:372] conv1/relu_7x7 <- conv1/7x7_s2
I0510 00:08:41.841039 27151 net.cpp:323] conv1/relu_7x7 -> conv1/7x7_s2 (in-place)
I0510 00:08:41.841048 27151 net.cpp:105] Setting up conv1/relu_7x7
I0510 00:08:41.841056 27151 net.cpp:112] Top shape: 32 64 112 112 (25690112)
I0510 00:08:41.841063 27151 layer_factory.hpp:74] Creating layer pool1/3x3_s2
I0510 00:08:41.841076 27151 net.cpp:76] Creating Layer pool1/3x3_s2
I0510 00:08:41.841084 27151 net.cpp:372] pool1/3x3_s2 <- conv1/7x7_s2
I0510 00:08:41.841091 27151 net.cpp:334] pool1/3x3_s2 -> pool1/3x3_s2
I0510 00:08:41.841101 27151 net.cpp:105] Setting up pool1/3x3_s2
I0510 00:08:41.841115 27151 net.cpp:112] Top shape: 32 64 56 56 (6422528)
I0510 00:08:41.841122 27151 layer_factory.hpp:74] Creating layer pool1/norm1
I0510 00:08:41.841133 27151 net.cpp:76] Creating Layer pool1/norm1
I0510 00:08:41.841138 27151 net.cpp:372] pool1/norm1 <- pool1/3x3_s2
I0510 00:08:41.841146 27151 net.cpp:334] pool1/norm1 -> pool1/norm1
I0510 00:08:41.841156 27151 net.cpp:105] Setting up pool1/norm1
I0510 00:08:41.841163 27151 net.cpp:112] Top shape: 32 64 56 56 (6422528)
I0510 00:08:41.841168 27151 layer_factory.hpp:74] Creating layer conv2/3x3_reduce
I0510 00:08:41.841177 27151 net.cpp:76] Creating Layer conv2/3x3_reduce
I0510 00:08:41.841183 27151 net.cpp:372] conv2/3x3_reduce <- pool1/norm1
I0510 00:08:41.841192 27151 net.cpp:334] conv2/3x3_reduce -> conv2/3x3_reduce
I0510 00:08:41.841202 27151 net.cpp:105] Setting up conv2/3x3_reduce
I0510 00:08:41.841244 27151 net.cpp:112] Top shape: 32 64 56 56 (6422528)
I0510 00:08:41.841256 27151 layer_factory.hpp:74] Creating layer conv2/relu_3x3_reduce
I0510 00:08:41.841264 27151 net.cpp:76] Creating Layer conv2/relu_3x3_reduce
I0510 00:08:41.841285 27151 net.cpp:372] conv2/relu_3x3_reduce <- conv2/3x3_reduce
I0510 00:08:41.841336 27151 net.cpp:323] conv2/relu_3x3_reduce -> conv2/3x3_reduce (in-place)
I0510 00:08:41.841358 27151 net.cpp:105] Setting up conv2/relu_3x3_reduce
I0510 00:08:41.841366 27151 net.cpp:112] Top shape: 32 64 56 56 (6422528)
I0510 00:08:41.841372 27151 layer_factory.hpp:74] Creating layer conv2/3x3
I0510 00:08:41.841387 27151 net.cpp:76] Creating Layer conv2/3x3
I0510 00:08:41.841392 27151 net.cpp:372] conv2/3x3 <- conv2/3x3_reduce
I0510 00:08:41.841403 27151 net.cpp:334] conv2/3x3 -> conv2/3x3
I0510 00:08:41.841411 27151 net.cpp:105] Setting up conv2/3x3
I0510 00:08:41.842594 27151 net.cpp:112] Top shape: 32 192 56 56 (19267584)
I0510 00:08:41.842622 27151 layer_factory.hpp:74] Creating layer conv2/relu_3x3
I0510 00:08:41.842631 27151 net.cpp:76] Creating Layer conv2/relu_3x3
I0510 00:08:41.842638 27151 net.cpp:372] conv2/relu_3x3 <- conv2/3x3
I0510 00:08:41.842646 27151 net.cpp:323] conv2/relu_3x3 -> conv2/3x3 (in-place)
I0510 00:08:41.842655 27151 net.cpp:105] Setting up conv2/relu_3x3
I0510 00:08:41.842661 27151 net.cpp:112] Top shape: 32 192 56 56 (19267584)
I0510 00:08:41.842667 27151 layer_factory.hpp:74] Creating layer conv2/norm2
I0510 00:08:41.842679 27151 net.cpp:76] Creating Layer conv2/norm2
I0510 00:08:41.842684 27151 net.cpp:372] conv2/norm2 <- conv2/3x3
I0510 00:08:41.842692 27151 net.cpp:334] conv2/norm2 -> conv2/norm2
I0510 00:08:41.842701 27151 net.cpp:105] Setting up conv2/norm2
I0510 00:08:41.842707 27151 net.cpp:112] Top shape: 32 192 56 56 (19267584)
I0510 00:08:41.842713 27151 layer_factory.hpp:74] Creating layer pool2/3x3_s2
I0510 00:08:41.842723 27151 net.cpp:76] Creating Layer pool2/3x3_s2
I0510 00:08:41.842730 27151 net.cpp:372] pool2/3x3_s2 <- conv2/norm2
I0510 00:08:41.842737 27151 net.cpp:334] pool2/3x3_s2 -> pool2/3x3_s2
I0510 00:08:41.842746 27151 net.cpp:105] Setting up pool2/3x3_s2
I0510 00:08:41.842752 27151 net.cpp:112] Top shape: 32 192 28 28 (4816896)
I0510 00:08:41.842758 27151 layer_factory.hpp:74] Creating layer pool2/3x3_s2_pool2/3x3_s2_0_split
I0510 00:08:41.842766 27151 net.cpp:76] Creating Layer pool2/3x3_s2_pool2/3x3_s2_0_split
I0510 00:08:41.842789 27151 net.cpp:372] pool2/3x3_s2_pool2/3x3_s2_0_split <- pool2/3x3_s2
I0510 00:08:41.842802 27151 net.cpp:334] pool2/3x3_s2_pool2/3x3_s2_0_split -> pool2/3x3_s2_pool2/3x3_s2_0_split_0
I0510 00:08:41.842813 27151 net.cpp:334] pool2/3x3_s2_pool2/3x3_s2_0_split -> pool2/3x3_s2_pool2/3x3_s2_0_split_1
I0510 00:08:41.842823 27151 net.cpp:334] pool2/3x3_s2_pool2/3x3_s2_0_split -> pool2/3x3_s2_pool2/3x3_s2_0_split_2
I0510 00:08:41.842831 27151 net.cpp:334] pool2/3x3_s2_pool2/3x3_s2_0_split -> pool2/3x3_s2_pool2/3x3_s2_0_split_3
I0510 00:08:41.842839 27151 net.cpp:105] Setting up pool2/3x3_s2_pool2/3x3_s2_0_split
I0510 00:08:41.842845 27151 net.cpp:112] Top shape: 32 192 28 28 (4816896)
I0510 00:08:41.842851 27151 net.cpp:112] Top shape: 32 192 28 28 (4816896)
I0510 00:08:41.842856 27151 net.cpp:112] Top shape: 32 192 28 28 (4816896)
I0510 00:08:41.842864 27151 net.cpp:112] Top shape: 32 192 28 28 (4816896)
I0510 00:08:41.842870 27151 layer_factory.hpp:74] Creating layer inception_3a/1x1
I0510 00:08:41.842882 27151 net.cpp:76] Creating Layer inception_3a/1x1
I0510 00:08:41.842890 27151 net.cpp:372] inception_3a/1x1 <- pool2/3x3_s2_pool2/3x3_s2_0_split_0
I0510 00:08:41.842897 27151 net.cpp:334] inception_3a/1x1 -> inception_3a/1x1
I0510 00:08:41.842908 27151 net.cpp:105] Setting up inception_3a/1x1
I0510 00:08:41.843029 27151 net.cpp:112] Top shape: 32 64 28 28 (1605632)
I0510 00:08:41.843040 27151 layer_factory.hpp:74] Creating layer inception_3a/relu_1x1
I0510 00:08:41.843049 27151 net.cpp:76] Creating Layer inception_3a/relu_1x1
I0510 00:08:41.843055 27151 net.cpp:372] inception_3a/relu_1x1 <- inception_3a/1x1
I0510 00:08:41.843062 27151 net.cpp:323] inception_3a/relu_1x1 -> inception_3a/1x1 (in-place)
I0510 00:08:41.843070 27151 net.cpp:105] Setting up inception_3a/relu_1x1
I0510 00:08:41.843075 27151 net.cpp:112] Top shape: 32 64 28 28 (1605632)
I0510 00:08:41.843081 27151 layer_factory.hpp:74] Creating layer inception_3a/3x3_reduce
I0510 00:08:41.843092 27151 net.cpp:76] Creating Layer inception_3a/3x3_reduce
I0510 00:08:41.843099 27151 net.cpp:372] inception_3a/3x3_reduce <- pool2/3x3_s2_pool2/3x3_s2_0_split_1
I0510 00:08:41.843107 27151 net.cpp:334] inception_3a/3x3_reduce -> inception_3a/3x3_reduce
I0510 00:08:41.843122 27151 net.cpp:105] Setting up inception_3a/3x3_reduce
I0510 00:08:41.843307 27151 net.cpp:112] Top shape: 32 96 28 28 (2408448)
I0510 00:08:41.843322 27151 layer_factory.hpp:74] Creating layer inception_3a/relu_3x3_reduce
I0510 00:08:41.843334 27151 net.cpp:76] Creating Layer inception_3a/relu_3x3_reduce
I0510 00:08:41.843341 27151 net.cpp:372] inception_3a/relu_3x3_reduce <- inception_3a/3x3_reduce
I0510 00:08:41.843350 27151 net.cpp:323] inception_3a/relu_3x3_reduce -> inception_3a/3x3_reduce (in-place)
I0510 00:08:41.843358 27151 net.cpp:105] Setting up inception_3a/relu_3x3_reduce
I0510 00:08:41.843364 27151 net.cpp:112] Top shape: 32 96 28 28 (2408448)
I0510 00:08:41.843370 27151 layer_factory.hpp:74] Creating layer inception_3a/3x3
I0510 00:08:41.843380 27151 net.cpp:76] Creating Layer inception_3a/3x3
I0510 00:08:41.843387 27151 net.cpp:372] inception_3a/3x3 <- inception_3a/3x3_reduce
I0510 00:08:41.843395 27151 net.cpp:334] inception_3a/3x3 -> inception_3a/3x3
I0510 00:08:41.843405 27151 net.cpp:105] Setting up inception_3a/3x3
I0510 00:08:41.845052 27151 net.cpp:112] Top shape: 32 128 28 28 (3211264)
I0510 00:08:41.845073 27151 layer_factory.hpp:74] Creating layer inception_3a/relu_3x3
I0510 00:08:41.845087 27151 net.cpp:76] Creating Layer inception_3a/relu_3x3
I0510 00:08:41.845093 27151 net.cpp:372] inception_3a/relu_3x3 <- inception_3a/3x3
I0510 00:08:41.845101 27151 net.cpp:323] inception_3a/relu_3x3 -> inception_3a/3x3 (in-place)
I0510 00:08:41.845110 27151 net.cpp:105] Setting up inception_3a/relu_3x3
I0510 00:08:41.845116 27151 net.cpp:112] Top shape: 32 128 28 28 (3211264)
I0510 00:08:41.845123 27151 layer_factory.hpp:74] Creating layer inception_3a/5x5_reduce
I0510 00:08:41.845139 27151 net.cpp:76] Creating Layer inception_3a/5x5_reduce
I0510 00:08:41.845165 27151 net.cpp:372] inception_3a/5x5_reduce <- pool2/3x3_s2_pool2/3x3_s2_0_split_2
I0510 00:08:41.845175 27151 net.cpp:334] inception_3a/5x5_reduce -> inception_3a/5x5_reduce
I0510 00:08:41.845185 27151 net.cpp:105] Setting up inception_3a/5x5_reduce
I0510 00:08:41.845228 27151 net.cpp:112] Top shape: 32 16 28 28 (401408)
I0510 00:08:41.845239 27151 layer_factory.hpp:74] Creating layer inception_3a/relu_5x5_reduce
I0510 00:08:41.845247 27151 net.cpp:76] Creating Layer inception_3a/relu_5x5_reduce
I0510 00:08:41.845253 27151 net.cpp:372] inception_3a/relu_5x5_reduce <- inception_3a/5x5_reduce
I0510 00:08:41.845260 27151 net.cpp:323] inception_3a/relu_5x5_reduce -> inception_3a/5x5_reduce (in-place)
I0510 00:08:41.845268 27151 net.cpp:105] Setting up inception_3a/relu_5x5_reduce
I0510 00:08:41.845288 27151 net.cpp:112] Top shape: 32 16 28 28 (401408)
I0510 00:08:41.845294 27151 layer_factory.hpp:74] Creating layer inception_3a/5x5
I0510 00:08:41.845306 27151 net.cpp:76] Creating Layer inception_3a/5x5
I0510 00:08:41.845314 27151 net.cpp:372] inception_3a/5x5 <- inception_3a/5x5_reduce
I0510 00:08:41.845324 27151 net.cpp:334] inception_3a/5x5 -> inception_3a/5x5
I0510 00:08:41.845334 27151 net.cpp:105] Setting up inception_3a/5x5
I0510 00:08:41.845448 27151 net.cpp:112] Top shape: 32 32 28 28 (802816)
I0510 00:08:41.845459 27151 layer_factory.hpp:74] Creating layer inception_3a/relu_5x5
I0510 00:08:41.845469 27151 net.cpp:76] Creating Layer inception_3a/relu_5x5
I0510 00:08:41.845476 27151 net.cpp:372] inception_3a/relu_5x5 <- inception_3a/5x5
I0510 00:08:41.845484 27151 net.cpp:323] inception_3a/relu_5x5 -> inception_3a/5x5 (in-place)
I0510 00:08:41.845491 27151 net.cpp:105] Setting up inception_3a/relu_5x5
I0510 00:08:41.845497 27151 net.cpp:112] Top shape: 32 32 28 28 (802816)
I0510 00:08:41.845504 27151 layer_factory.hpp:74] Creating layer inception_3a/pool
I0510 00:08:41.845513 27151 net.cpp:76] Creating Layer inception_3a/pool
I0510 00:08:41.845520 27151 net.cpp:372] inception_3a/pool <- pool2/3x3_s2_pool2/3x3_s2_0_split_3
I0510 00:08:41.845526 27151 net.cpp:334] inception_3a/pool -> inception_3a/pool
I0510 00:08:41.845535 27151 net.cpp:105] Setting up inception_3a/pool
I0510 00:08:41.845543 27151 net.cpp:112] Top shape: 32 192 28 28 (4816896)
I0510 00:08:41.845549 27151 layer_factory.hpp:74] Creating layer inception_3a/pool_proj
I0510 00:08:41.845557 27151 net.cpp:76] Creating Layer inception_3a/pool_proj
I0510 00:08:41.845563 27151 net.cpp:372] inception_3a/pool_proj <- inception_3a/pool
I0510 00:08:41.845574 27151 net.cpp:334] inception_3a/pool_proj -> inception_3a/pool_proj
I0510 00:08:41.845583 27151 net.cpp:105] Setting up inception_3a/pool_proj
I0510 00:08:41.845654 27151 net.cpp:112] Top shape: 32 32 28 28 (802816)
I0510 00:08:41.845667 27151 layer_factory.hpp:74] Creating layer inception_3a/relu_pool_proj
I0510 00:08:41.845676 27151 net.cpp:76] Creating Layer inception_3a/relu_pool_proj
I0510 00:08:41.845681 27151 net.cpp:372] inception_3a/relu_pool_proj <- inception_3a/pool_proj
I0510 00:08:41.845690 27151 net.cpp:323] inception_3a/relu_pool_proj -> inception_3a/pool_proj (in-place)
I0510 00:08:41.845696 27151 net.cpp:105] Setting up inception_3a/relu_pool_proj
I0510 00:08:41.845702 27151 net.cpp:112] Top shape: 32 32 28 28 (802816)
I0510 00:08:41.845708 27151 layer_factory.hpp:74] Creating layer inception_3a/output
I0510 00:08:41.845721 27151 net.cpp:76] Creating Layer inception_3a/output
I0510 00:08:41.845728 27151 net.cpp:372] inception_3a/output <- inception_3a/1x1
I0510 00:08:41.845734 27151 net.cpp:372] inception_3a/output <- inception_3a/3x3
I0510 00:08:41.845741 27151 net.cpp:372] inception_3a/output <- inception_3a/5x5
I0510 00:08:41.845747 27151 net.cpp:372] inception_3a/output <- inception_3a/pool_proj
I0510 00:08:41.845754 27151 net.cpp:334] inception_3a/output -> inception_3a/output
I0510 00:08:41.845763 27151 net.cpp:105] Setting up inception_3a/output
I0510 00:08:41.845772 27151 net.cpp:112] Top shape: 32 256 28 28 (6422528)
I0510 00:08:41.845777 27151 layer_factory.hpp:74] Creating layer inception_3a/output_inception_3a/output_0_split
I0510 00:08:41.845801 27151 net.cpp:76] Creating Layer inception_3a/output_inception_3a/output_0_split
I0510 00:08:41.845808 27151 net.cpp:372] inception_3a/output_inception_3a/output_0_split <- inception_3a/output
I0510 00:08:41.845818 27151 net.cpp:334] inception_3a/output_inception_3a/output_0_split -> inception_3a/output_inception_3a/output_0_split_0
I0510 00:08:41.845827 27151 net.cpp:334] inception_3a/output_inception_3a/output_0_split -> inception_3a/output_inception_3a/output_0_split_1
I0510 00:08:41.845836 27151 net.cpp:334] inception_3a/output_inception_3a/output_0_split -> inception_3a/output_inception_3a/output_0_split_2
I0510 00:08:41.845851 27151 net.cpp:334] inception_3a/output_inception_3a/output_0_split -> inception_3a/output_inception_3a/output_0_split_3
I0510 00:08:41.845860 27151 net.cpp:105] Setting up inception_3a/output_inception_3a/output_0_split
I0510 00:08:41.845867 27151 net.cpp:112] Top shape: 32 256 28 28 (6422528)
I0510 00:08:41.845872 27151 net.cpp:112] Top shape: 32 256 28 28 (6422528)
I0510 00:08:41.845878 27151 net.cpp:112] Top shape: 32 256 28 28 (6422528)
I0510 00:08:41.845883 27151 net.cpp:112] Top shape: 32 256 28 28 (6422528)
I0510 00:08:41.845888 27151 layer_factory.hpp:74] Creating layer inception_3b/1x1
I0510 00:08:41.845897 27151 net.cpp:76] Creating Layer inception_3b/1x1
I0510 00:08:41.845903 27151 net.cpp:372] inception_3b/1x1 <- inception_3a/output_inception_3a/output_0_split_0
I0510 00:08:41.845917 27151 net.cpp:334] inception_3b/1x1 -> inception_3b/1x1
I0510 00:08:41.845927 27151 net.cpp:105] Setting up inception_3b/1x1
I0510 00:08:41.846276 27151 net.cpp:112] Top shape: 32 128 28 28 (3211264)
I0510 00:08:41.846292 27151 layer_factory.hpp:74] Creating layer inception_3b/relu_1x1
I0510 00:08:41.846302 27151 net.cpp:76] Creating Layer inception_3b/relu_1x1
I0510 00:08:41.846308 27151 net.cpp:372] inception_3b/relu_1x1 <- inception_3b/1x1
I0510 00:08:41.846319 27151 net.cpp:323] inception_3b/relu_1x1 -> inception_3b/1x1 (in-place)
I0510 00:08:41.846329 27151 net.cpp:105] Setting up inception_3b/relu_1x1
I0510 00:08:41.846335 27151 net.cpp:112] Top shape: 32 128 28 28 (3211264)
I0510 00:08:41.846340 27151 layer_factory.hpp:74] Creating layer inception_3b/3x3_reduce
I0510 00:08:41.846349 27151 net.cpp:76] Creating Layer inception_3b/3x3_reduce
I0510 00:08:41.846355 27151 net.cpp:372] inception_3b/3x3_reduce <- inception_3a/output_inception_3a/output_0_split_1
I0510 00:08:41.846364 27151 net.cpp:334] inception_3b/3x3_reduce -> inception_3b/3x3_reduce
I0510 00:08:41.846374 27151 net.cpp:105] Setting up inception_3b/3x3_reduce
I0510 00:08:41.846844 27151 net.cpp:112] Top shape: 32 128 28 28 (3211264)
I0510 00:08:41.846863 27151 layer_factory.hpp:74] Creating layer inception_3b/relu_3x3_reduce
I0510 00:08:41.846874 27151 net.cpp:76] Creating Layer inception_3b/relu_3x3_reduce
I0510 00:08:41.846881 27151 net.cpp:372] inception_3b/relu_3x3_reduce <- inception_3b/3x3_reduce
I0510 00:08:41.846889 27151 net.cpp:323] inception_3b/relu_3x3_reduce -> inception_3b/3x3_reduce (in-place)
I0510 00:08:41.846897 27151 net.cpp:105] Setting up inception_3b/relu_3x3_reduce
I0510 00:08:41.846904 27151 net.cpp:112] Top shape: 32 128 28 28 (3211264)
I0510 00:08:41.846909 27151 layer_factory.hpp:74] Creating layer inception_3b/3x3
I0510 00:08:41.846923 27151 net.cpp:76] Creating Layer inception_3b/3x3
I0510 00:08:41.846930 27151 net.cpp:372] inception_3b/3x3 <- inception_3b/3x3_reduce
I0510 00:08:41.846941 27151 net.cpp:334] inception_3b/3x3 -> inception_3b/3x3
I0510 00:08:41.846951 27151 net.cpp:105] Setting up inception_3b/3x3
I0510 00:08:41.850260 27151 net.cpp:112] Top shape: 32 192 28 28 (4816896)
I0510 00:08:41.850301 27151 layer_factory.hpp:74] Creating layer inception_3b/relu_3x3
I0510 00:08:41.850312 27151 net.cpp:76] Creating Layer inception_3b/relu_3x3
I0510 00:08:41.850320 27151 net.cpp:372] inception_3b/relu_3x3 <- inception_3b/3x3
I0510 00:08:41.850332 27151 net.cpp:323] inception_3b/relu_3x3 -> inception_3b/3x3 (in-place)
I0510 00:08:41.850365 27151 net.cpp:105] Setting up inception_3b/relu_3x3
I0510 00:08:41.850373 27151 net.cpp:112] Top shape: 32 192 28 28 (4816896)
I0510 00:08:41.850378 27151 layer_factory.hpp:74] Creating layer inception_3b/5x5_reduce
I0510 00:08:41.850389 27151 net.cpp:76] Creating Layer inception_3b/5x5_reduce
I0510 00:08:41.850394 27151 net.cpp:372] inception_3b/5x5_reduce <- inception_3a/output_inception_3a/output_0_split_2
I0510 00:08:41.850406 27151 net.cpp:334] inception_3b/5x5_reduce -> inception_3b/5x5_reduce
I0510 00:08:41.850416 27151 net.cpp:105] Setting up inception_3b/5x5_reduce
I0510 00:08:41.850507 27151 net.cpp:112] Top shape: 32 32 28 28 (802816)
I0510 00:08:41.850518 27151 layer_factory.hpp:74] Creating layer inception_3b/relu_5x5_reduce
I0510 00:08:41.850528 27151 net.cpp:76] Creating Layer inception_3b/relu_5x5_reduce
I0510 00:08:41.850535 27151 net.cpp:372] inception_3b/relu_5x5_reduce <- inception_3b/5x5_reduce
I0510 00:08:41.850543 27151 net.cpp:323] inception_3b/relu_5x5_reduce -> inception_3b/5x5_reduce (in-place)
I0510 00:08:41.850551 27151 net.cpp:105] Setting up inception_3b/relu_5x5_reduce
I0510 00:08:41.850556 27151 net.cpp:112] Top shape: 32 32 28 28 (802816)
I0510 00:08:41.850563 27151 layer_factory.hpp:74] Creating layer inception_3b/5x5
I0510 00:08:41.850574 27151 net.cpp:76] Creating Layer inception_3b/5x5
I0510 00:08:41.850581 27151 net.cpp:372] inception_3b/5x5 <- inception_3b/5x5_reduce
I0510 00:08:41.850591 27151 net.cpp:334] inception_3b/5x5 -> inception_3b/5x5
I0510 00:08:41.850605 27151 net.cpp:105] Setting up inception_3b/5x5
I0510 00:08:41.851285 27151 net.cpp:112] Top shape: 32 96 28 28 (2408448)
I0510 00:08:41.851301 27151 layer_factory.hpp:74] Creating layer inception_3b/relu_5x5
I0510 00:08:41.851312 27151 net.cpp:76] Creating Layer inception_3b/relu_5x5
I0510 00:08:41.851320 27151 net.cpp:372] inception_3b/relu_5x5 <- inception_3b/5x5
I0510 00:08:41.851327 27151 net.cpp:323] inception_3b/relu_5x5 -> inception_3b/5x5 (in-place)
I0510 00:08:41.851336 27151 net.cpp:105] Setting up inception_3b/relu_5x5
I0510 00:08:41.851341 27151 net.cpp:112] Top shape: 32 96 28 28 (2408448)
I0510 00:08:41.851346 27151 layer_factory.hpp:74] Creating layer inception_3b/pool
I0510 00:08:41.851357 27151 net.cpp:76] Creating Layer inception_3b/pool
I0510 00:08:41.851363 27151 net.cpp:372] inception_3b/pool <- inception_3a/output_inception_3a/output_0_split_3
I0510 00:08:41.851372 27151 net.cpp:334] inception_3b/pool -> inception_3b/pool
I0510 00:08:41.851380 27151 net.cpp:105] Setting up inception_3b/pool
I0510 00:08:41.851388 27151 net.cpp:112] Top shape: 32 256 28 28 (6422528)
I0510 00:08:41.851394 27151 layer_factory.hpp:74] Creating layer inception_3b/pool_proj
I0510 00:08:41.851402 27151 net.cpp:76] Creating Layer inception_3b/pool_proj
I0510 00:08:41.851408 27151 net.cpp:372] inception_3b/pool_proj <- inception_3b/pool
I0510 00:08:41.851419 27151 net.cpp:334] inception_3b/pool_proj -> inception_3b/pool_proj
I0510 00:08:41.851428 27151 net.cpp:105] Setting up inception_3b/pool_proj
I0510 00:08:41.851579 27151 net.cpp:112] Top shape: 32 64 28 28 (1605632)
I0510 00:08:41.851591 27151 layer_factory.hpp:74] Creating layer inception_3b/relu_pool_proj
I0510 00:08:41.851599 27151 net.cpp:76] Creating Layer inception_3b/relu_pool_proj
I0510 00:08:41.851605 27151 net.cpp:372] inception_3b/relu_pool_proj <- inception_3b/pool_proj
I0510 00:08:41.851615 27151 net.cpp:323] inception_3b/relu_pool_proj -> inception_3b/pool_proj (in-place)
I0510 00:08:41.851624 27151 net.cpp:105] Setting up inception_3b/relu_pool_proj
I0510 00:08:41.851629 27151 net.cpp:112] Top shape: 32 64 28 28 (1605632)
I0510 00:08:41.851637 27151 layer_factory.hpp:74] Creating layer inception_3b/output
I0510 00:08:41.851645 27151 net.cpp:76] Creating Layer inception_3b/output
I0510 00:08:41.851651 27151 net.cpp:372] inception_3b/output <- inception_3b/1x1
I0510 00:08:41.851658 27151 net.cpp:372] inception_3b/output <- inception_3b/3x3
I0510 00:08:41.851665 27151 net.cpp:372] inception_3b/output <- inception_3b/5x5
I0510 00:08:41.851690 27151 net.cpp:372] inception_3b/output <- inception_3b/pool_proj
I0510 00:08:41.851698 27151 net.cpp:334] inception_3b/output -> inception_3b/output
I0510 00:08:41.851707 27151 net.cpp:105] Setting up inception_3b/output
I0510 00:08:41.851714 27151 net.cpp:112] Top shape: 32 480 28 28 (12042240)
I0510 00:08:41.851721 27151 layer_factory.hpp:74] Creating layer pool3/3x3_s2
I0510 00:08:41.851730 27151 net.cpp:76] Creating Layer pool3/3x3_s2
I0510 00:08:41.851737 27151 net.cpp:372] pool3/3x3_s2 <- inception_3b/output
I0510 00:08:41.851745 27151 net.cpp:334] pool3/3x3_s2 -> pool3/3x3_s2
I0510 00:08:41.851753 27151 net.cpp:105] Setting up pool3/3x3_s2
I0510 00:08:41.851768 27151 net.cpp:112] Top shape: 32 480 14 14 (3010560)
I0510 00:08:41.851775 27151 layer_factory.hpp:74] Creating layer pool3/3x3_s2_pool3/3x3_s2_0_split
I0510 00:08:41.851783 27151 net.cpp:76] Creating Layer pool3/3x3_s2_pool3/3x3_s2_0_split
I0510 00:08:41.851789 27151 net.cpp:372] pool3/3x3_s2_pool3/3x3_s2_0_split <- pool3/3x3_s2
I0510 00:08:41.851800 27151 net.cpp:334] pool3/3x3_s2_pool3/3x3_s2_0_split -> pool3/3x3_s2_pool3/3x3_s2_0_split_0
I0510 00:08:41.851810 27151 net.cpp:334] pool3/3x3_s2_pool3/3x3_s2_0_split -> pool3/3x3_s2_pool3/3x3_s2_0_split_1
I0510 00:08:41.851819 27151 net.cpp:334] pool3/3x3_s2_pool3/3x3_s2_0_split -> pool3/3x3_s2_pool3/3x3_s2_0_split_2
I0510 00:08:41.851829 27151 net.cpp:334] pool3/3x3_s2_pool3/3x3_s2_0_split -> pool3/3x3_s2_pool3/3x3_s2_0_split_3
I0510 00:08:41.851835 27151 net.cpp:105] Setting up pool3/3x3_s2_pool3/3x3_s2_0_split
I0510 00:08:41.851842 27151 net.cpp:112] Top shape: 32 480 14 14 (3010560)
I0510 00:08:41.851848 27151 net.cpp:112] Top shape: 32 480 14 14 (3010560)
I0510 00:08:41.851853 27151 net.cpp:112] Top shape: 32 480 14 14 (3010560)
I0510 00:08:41.851858 27151 net.cpp:112] Top shape: 32 480 14 14 (3010560)
I0510 00:08:41.851863 27151 layer_factory.hpp:74] Creating layer inception_4a/1x1
I0510 00:08:41.851876 27151 net.cpp:76] Creating Layer inception_4a/1x1
I0510 00:08:41.851881 27151 net.cpp:372] inception_4a/1x1 <- pool3/3x3_s2_pool3/3x3_s2_0_split_0
I0510 00:08:41.851891 27151 net.cpp:334] inception_4a/1x1 -> inception_4a/1x1
I0510 00:08:41.851902 27151 net.cpp:105] Setting up inception_4a/1x1
I0510 00:08:41.852710 27151 net.cpp:112] Top shape: 32 192 14 14 (1204224)
I0510 00:08:41.852725 27151 layer_factory.hpp:74] Creating layer inception_4a/relu_1x1
I0510 00:08:41.852736 27151 net.cpp:76] Creating Layer inception_4a/relu_1x1
I0510 00:08:41.852763 27151 net.cpp:372] inception_4a/relu_1x1 <- inception_4a/1x1
I0510 00:08:41.852772 27151 net.cpp:323] inception_4a/relu_1x1 -> inception_4a/1x1 (in-place)
I0510 00:08:41.852780 27151 net.cpp:105] Setting up inception_4a/relu_1x1
I0510 00:08:41.852787 27151 net.cpp:112] Top shape: 32 192 14 14 (1204224)
I0510 00:08:41.852792 27151 layer_factory.hpp:74] Creating layer inception_4a/3x3_reduce
I0510 00:08:41.852803 27151 net.cpp:76] Creating Layer inception_4a/3x3_reduce
I0510 00:08:41.852810 27151 net.cpp:372] inception_4a/3x3_reduce <- pool3/3x3_s2_pool3/3x3_s2_0_split_1
I0510 00:08:41.852818 27151 net.cpp:334] inception_4a/3x3_reduce -> inception_4a/3x3_reduce
I0510 00:08:41.852828 27151 net.cpp:105] Setting up inception_4a/3x3_reduce
I0510 00:08:41.853227 27151 net.cpp:112] Top shape: 32 96 14 14 (602112)
I0510 00:08:41.853252 27151 layer_factory.hpp:74] Creating layer inception_4a/relu_3x3_reduce
I0510 00:08:41.853261 27151 net.cpp:76] Creating Layer inception_4a/relu_3x3_reduce
I0510 00:08:41.853267 27151 net.cpp:372] inception_4a/relu_3x3_reduce <- inception_4a/3x3_reduce
I0510 00:08:41.853289 27151 net.cpp:323] inception_4a/relu_3x3_reduce -> inception_4a/3x3_reduce (in-place)
I0510 00:08:41.853297 27151 net.cpp:105] Setting up inception_4a/relu_3x3_reduce
I0510 00:08:41.853303 27151 net.cpp:112] Top shape: 32 96 14 14 (602112)
I0510 00:08:41.853309 27151 layer_factory.hpp:74] Creating layer inception_4a/3x3
I0510 00:08:41.853322 27151 net.cpp:76] Creating Layer inception_4a/3x3
I0510 00:08:41.853327 27151 net.cpp:372] inception_4a/3x3 <- inception_4a/3x3_reduce
I0510 00:08:41.853350 27151 net.cpp:334] inception_4a/3x3 -> inception_4a/3x3
I0510 00:08:41.853360 27151 net.cpp:105] Setting up inception_4a/3x3
I0510 00:08:41.854907 27151 net.cpp:112] Top shape: 32 208 14 14 (1304576)
I0510 00:08:41.854925 27151 layer_factory.hpp:74] Creating layer inception_4a/relu_3x3
I0510 00:08:41.854934 27151 net.cpp:76] Creating Layer inception_4a/relu_3x3
I0510 00:08:41.854940 27151 net.cpp:372] inception_4a/relu_3x3 <- inception_4a/3x3
I0510 00:08:41.854948 27151 net.cpp:323] inception_4a/relu_3x3 -> inception_4a/3x3 (in-place)
I0510 00:08:41.854956 27151 net.cpp:105] Setting up inception_4a/relu_3x3
I0510 00:08:41.854961 27151 net.cpp:112] Top shape: 32 208 14 14 (1304576)
I0510 00:08:41.854967 27151 layer_factory.hpp:74] Creating layer inception_4a/5x5_reduce
I0510 00:08:41.854975 27151 net.cpp:76] Creating Layer inception_4a/5x5_reduce
I0510 00:08:41.854981 27151 net.cpp:372] inception_4a/5x5_reduce <- pool3/3x3_s2_pool3/3x3_s2_0_split_2
I0510 00:08:41.854992 27151 net.cpp:334] inception_4a/5x5_reduce -> inception_4a/5x5_reduce
I0510 00:08:41.855001 27151 net.cpp:105] Setting up inception_4a/5x5_reduce
I0510 00:08:41.855082 27151 net.cpp:112] Top shape: 32 16 14 14 (100352)
I0510 00:08:41.855093 27151 layer_factory.hpp:74] Creating layer inception_4a/relu_5x5_reduce
I0510 00:08:41.855100 27151 net.cpp:76] Creating Layer inception_4a/relu_5x5_reduce
I0510 00:08:41.855106 27151 net.cpp:372] inception_4a/relu_5x5_reduce <- inception_4a/5x5_reduce
I0510 00:08:41.855113 27151 net.cpp:323] inception_4a/relu_5x5_reduce -> inception_4a/5x5_reduce (in-place)
I0510 00:08:41.855120 27151 net.cpp:105] Setting up inception_4a/relu_5x5_reduce
I0510 00:08:41.855125 27151 net.cpp:112] Top shape: 32 16 14 14 (100352)
I0510 00:08:41.855131 27151 layer_factory.hpp:74] Creating layer inception_4a/5x5
I0510 00:08:41.855141 27151 net.cpp:76] Creating Layer inception_4a/5x5
I0510 00:08:41.855147 27151 net.cpp:372] inception_4a/5x5 <- inception_4a/5x5_reduce
I0510 00:08:41.855155 27151 net.cpp:334] inception_4a/5x5 -> inception_4a/5x5
I0510 00:08:41.855165 27151 net.cpp:105] Setting up inception_4a/5x5
I0510 00:08:41.855351 27151 net.cpp:112] Top shape: 32 48 14 14 (301056)
I0510 00:08:41.855365 27151 layer_factory.hpp:74] Creating layer inception_4a/relu_5x5
I0510 00:08:41.855372 27151 net.cpp:76] Creating Layer inception_4a/relu_5x5
I0510 00:08:41.856078 27151 net.cpp:372] inception_4a/relu_5x5 <- inception_4a/5x5
I0510 00:08:41.856092 27151 net.cpp:323] inception_4a/relu_5x5 -> inception_4a/5x5 (in-place)
I0510 00:08:41.856102 27151 net.cpp:105] Setting up inception_4a/relu_5x5
I0510 00:08:41.856111 27151 net.cpp:112] Top shape: 32 48 14 14 (301056)
I0510 00:08:41.856122 27151 layer_factory.hpp:74] Creating layer inception_4a/pool
I0510 00:08:41.856139 27151 net.cpp:76] Creating Layer inception_4a/pool
I0510 00:08:41.856149 27151 net.cpp:372] inception_4a/pool <- pool3/3x3_s2_pool3/3x3_s2_0_split_3
I0510 00:08:41.856168 27151 net.cpp:334] inception_4a/pool -> inception_4a/pool
I0510 00:08:41.856185 27151 net.cpp:105] Setting up inception_4a/pool
I0510 00:08:41.856206 27151 net.cpp:112] Top shape: 32 480 14 14 (3010560)
I0510 00:08:41.856216 27151 layer_factory.hpp:74] Creating layer inception_4a/pool_proj
I0510 00:08:41.856238 27151 net.cpp:76] Creating Layer inception_4a/pool_proj
I0510 00:08:41.856252 27151 net.cpp:372] inception_4a/pool_proj <- inception_4a/pool
I0510 00:08:41.856282 27151 net.cpp:334] inception_4a/pool_proj -> inception_4a/pool_proj
I0510 00:08:41.856297 27151 net.cpp:105] Setting up inception_4a/pool_proj
I0510 00:08:41.856612 27151 net.cpp:112] Top shape: 32 64 14 14 (401408)
I0510 00:08:41.856628 27151 layer_factory.hpp:74] Creating layer inception_4a/relu_pool_proj
I0510 00:08:41.856637 27151 net.cpp:76] Creating Layer inception_4a/relu_pool_proj
I0510 00:08:41.856647 27151 net.cpp:372] inception_4a/relu_pool_proj <- inception_4a/pool_proj
I0510 00:08:41.856670 27151 net.cpp:323] inception_4a/relu_pool_proj -> inception_4a/pool_proj (in-place)
I0510 00:08:41.856714 27151 net.cpp:105] Setting up inception_4a/relu_pool_proj
I0510 00:08:41.856727 27151 net.cpp:112] Top shape: 32 64 14 14 (401408)
I0510 00:08:41.856739 27151 layer_factory.hpp:74] Creating layer inception_4a/output
I0510 00:08:41.856751 27151 net.cpp:76] Creating Layer inception_4a/output
I0510 00:08:41.856761 27151 net.cpp:372] inception_4a/output <- inception_4a/1x1
I0510 00:08:41.856773 27151 net.cpp:372] inception_4a/output <- inception_4a/3x3
I0510 00:08:41.856786 27151 net.cpp:372] inception_4a/output <- inception_4a/5x5
I0510 00:08:41.856796 27151 net.cpp:372] inception_4a/output <- inception_4a/pool_proj
I0510 00:08:41.856804 27151 net.cpp:334] inception_4a/output -> inception_4a/output
I0510 00:08:41.856813 27151 net.cpp:105] Setting up inception_4a/output
I0510 00:08:41.856819 27151 net.cpp:112] Top shape: 32 512 14 14 (3211264)
I0510 00:08:41.856825 27151 layer_factory.hpp:74] Creating layer inception_4a/output_inception_4a/output_0_split
I0510 00:08:41.856837 27151 net.cpp:76] Creating Layer inception_4a/output_inception_4a/output_0_split
I0510 00:08:41.856843 27151 net.cpp:372] inception_4a/output_inception_4a/output_0_split <- inception_4a/output
I0510 00:08:41.856851 27151 net.cpp:334] inception_4a/output_inception_4a/output_0_split -> inception_4a/output_inception_4a/output_0_split_0
I0510 00:08:41.856861 27151 net.cpp:334] inception_4a/output_inception_4a/output_0_split -> inception_4a/output_inception_4a/output_0_split_1
I0510 00:08:41.856870 27151 net.cpp:334] inception_4a/output_inception_4a/output_0_split -> inception_4a/output_inception_4a/output_0_split_2
I0510 00:08:41.856880 27151 net.cpp:334] inception_4a/output_inception_4a/output_0_split -> inception_4a/output_inception_4a/output_0_split_3
I0510 00:08:41.856889 27151 net.cpp:334] inception_4a/output_inception_4a/output_0_split -> inception_4a/output_inception_4a/output_0_split_4
I0510 00:08:41.856897 27151 net.cpp:105] Setting up inception_4a/output_inception_4a/output_0_split
I0510 00:08:41.856904 27151 net.cpp:112] Top shape: 32 512 14 14 (3211264)
I0510 00:08:41.856909 27151 net.cpp:112] Top shape: 32 512 14 14 (3211264)
I0510 00:08:41.856914 27151 net.cpp:112] Top shape: 32 512 14 14 (3211264)
I0510 00:08:41.856920 27151 net.cpp:112] Top shape: 32 512 14 14 (3211264)
I0510 00:08:41.856925 27151 net.cpp:112] Top shape: 32 512 14 14 (3211264)
I0510 00:08:41.856930 27151 layer_factory.hpp:74] Creating layer loss1/ave_pool
I0510 00:08:41.856940 27151 net.cpp:76] Creating Layer loss1/ave_pool
I0510 00:08:41.856946 27151 net.cpp:372] loss1/ave_pool <- inception_4a/output_inception_4a/output_0_split_0
I0510 00:08:41.856963 27151 net.cpp:334] loss1/ave_pool -> loss1/ave_pool
I0510 00:08:41.856976 27151 net.cpp:105] Setting up loss1/ave_pool
I0510 00:08:41.856986 27151 net.cpp:112] Top shape: 32 512 4 4 (262144)
I0510 00:08:41.856992 27151 layer_factory.hpp:74] Creating layer loss1/conv
I0510 00:08:41.857002 27151 net.cpp:76] Creating Layer loss1/conv
I0510 00:08:41.857007 27151 net.cpp:372] loss1/conv <- loss1/ave_pool
I0510 00:08:41.857015 27151 net.cpp:334] loss1/conv -> loss1/conv
I0510 00:08:41.857023 27151 net.cpp:105] Setting up loss1/conv
I0510 00:08:41.857614 27151 net.cpp:112] Top shape: 32 128 4 4 (65536)
I0510 00:08:41.857630 27151 layer_factory.hpp:74] Creating layer loss1/relu_conv
I0510 00:08:41.857638 27151 net.cpp:76] Creating Layer loss1/relu_conv
I0510 00:08:41.857645 27151 net.cpp:372] loss1/relu_conv <- loss1/conv
I0510 00:08:41.857656 27151 net.cpp:323] loss1/relu_conv -> loss1/conv (in-place)
I0510 00:08:41.857666 27151 net.cpp:105] Setting up loss1/relu_conv
I0510 00:08:41.857671 27151 net.cpp:112] Top shape: 32 128 4 4 (65536)
I0510 00:08:41.857677 27151 layer_factory.hpp:74] Creating layer loss1/fc
I0510 00:08:41.857689 27151 net.cpp:76] Creating Layer loss1/fc
I0510 00:08:41.857697 27151 net.cpp:372] loss1/fc <- loss1/conv
I0510 00:08:41.857707 27151 net.cpp:334] loss1/fc -> loss1/fc
I0510 00:08:41.857729 27151 net.cpp:105] Setting up loss1/fc
I0510 00:08:41.875846 27151 net.cpp:112] Top shape: 32 1024 1 1 (32768)
I0510 00:08:41.875944 27151 layer_factory.hpp:74] Creating layer loss1/relu_fc
I0510 00:08:41.875967 27151 net.cpp:76] Creating Layer loss1/relu_fc
I0510 00:08:41.875982 27151 net.cpp:372] loss1/relu_fc <- loss1/fc
I0510 00:08:41.876001 27151 net.cpp:323] loss1/relu_fc -> loss1/fc (in-place)
I0510 00:08:41.876021 27151 net.cpp:105] Setting up loss1/relu_fc
I0510 00:08:41.876034 27151 net.cpp:112] Top shape: 32 1024 1 1 (32768)
I0510 00:08:41.876044 27151 layer_factory.hpp:74] Creating layer loss1/drop_fc
I0510 00:08:41.876078 27151 net.cpp:76] Creating Layer loss1/drop_fc
I0510 00:08:41.876091 27151 net.cpp:372] loss1/drop_fc <- loss1/fc
I0510 00:08:41.876106 27151 net.cpp:323] loss1/drop_fc -> loss1/fc (in-place)
I0510 00:08:41.876127 27151 net.cpp:105] Setting up loss1/drop_fc
I0510 00:08:41.876143 27151 net.cpp:112] Top shape: 32 1024 1 1 (32768)
I0510 00:08:41.876157 27151 layer_factory.hpp:74] Creating layer loss1/classifier
I0510 00:08:41.876170 27151 net.cpp:76] Creating Layer loss1/classifier
I0510 00:08:41.876176 27151 net.cpp:372] loss1/classifier <- loss1/fc
I0510 00:08:41.876188 27151 net.cpp:334] loss1/classifier -> loss1/classifier
I0510 00:08:41.876199 27151 net.cpp:105] Setting up loss1/classifier
I0510 00:08:41.876235 27151 net.cpp:112] Top shape: 32 2 1 1 (64)
I0510 00:08:41.876246 27151 layer_factory.hpp:74] Creating layer loss1/loss
I0510 00:08:41.876258 27151 net.cpp:76] Creating Layer loss1/loss
I0510 00:08:41.876266 27151 net.cpp:372] loss1/loss <- loss1/classifier
I0510 00:08:41.876286 27151 net.cpp:372] loss1/loss <- label_data_1_split_0
I0510 00:08:41.876301 27151 net.cpp:334] loss1/loss -> loss1/loss1
I0510 00:08:41.876313 27151 net.cpp:105] Setting up loss1/loss
I0510 00:08:41.876325 27151 layer_factory.hpp:74] Creating layer loss1/loss
I0510 00:08:41.876345 27151 net.cpp:112] Top shape: 1 1 1 1 (1)
I0510 00:08:41.876353 27151 net.cpp:118]     with loss weight 0.3
I0510 00:08:41.876387 27151 layer_factory.hpp:74] Creating layer inception_4b/1x1
I0510 00:08:41.876399 27151 net.cpp:76] Creating Layer inception_4b/1x1
I0510 00:08:41.876405 27151 net.cpp:372] inception_4b/1x1 <- inception_4a/output_inception_4a/output_0_split_1
I0510 00:08:41.876417 27151 net.cpp:334] inception_4b/1x1 -> inception_4b/1x1
I0510 00:08:41.876427 27151 net.cpp:105] Setting up inception_4b/1x1
I0510 00:08:41.877125 27151 net.cpp:112] Top shape: 32 160 14 14 (1003520)
I0510 00:08:41.877140 27151 layer_factory.hpp:74] Creating layer inception_4b/relu_1x1
I0510 00:08:41.877147 27151 net.cpp:76] Creating Layer inception_4b/relu_1x1
I0510 00:08:41.877154 27151 net.cpp:372] inception_4b/relu_1x1 <- inception_4b/1x1
I0510 00:08:41.877164 27151 net.cpp:323] inception_4b/relu_1x1 -> inception_4b/1x1 (in-place)
I0510 00:08:41.877172 27151 net.cpp:105] Setting up inception_4b/relu_1x1
I0510 00:08:41.877178 27151 net.cpp:112] Top shape: 32 160 14 14 (1003520)
I0510 00:08:41.877184 27151 layer_factory.hpp:74] Creating layer inception_4b/3x3_reduce
I0510 00:08:41.877193 27151 net.cpp:76] Creating Layer inception_4b/3x3_reduce
I0510 00:08:41.877202 27151 net.cpp:372] inception_4b/3x3_reduce <- inception_4a/output_inception_4a/output_0_split_2
I0510 00:08:41.877213 27151 net.cpp:334] inception_4b/3x3_reduce -> inception_4b/3x3_reduce
I0510 00:08:41.877223 27151 net.cpp:105] Setting up inception_4b/3x3_reduce
I0510 00:08:41.877771 27151 net.cpp:112] Top shape: 32 112 14 14 (702464)
I0510 00:08:41.877790 27151 layer_factory.hpp:74] Creating layer inception_4b/relu_3x3_reduce
I0510 00:08:41.877801 27151 net.cpp:76] Creating Layer inception_4b/relu_3x3_reduce
I0510 00:08:41.877809 27151 net.cpp:372] inception_4b/relu_3x3_reduce <- inception_4b/3x3_reduce
I0510 00:08:41.877816 27151 net.cpp:323] inception_4b/relu_3x3_reduce -> inception_4b/3x3_reduce (in-place)
I0510 00:08:41.877825 27151 net.cpp:105] Setting up inception_4b/relu_3x3_reduce
I0510 00:08:41.877830 27151 net.cpp:112] Top shape: 32 112 14 14 (702464)
I0510 00:08:41.877835 27151 layer_factory.hpp:74] Creating layer inception_4b/3x3
I0510 00:08:41.877851 27151 net.cpp:76] Creating Layer inception_4b/3x3
I0510 00:08:41.877872 27151 net.cpp:372] inception_4b/3x3 <- inception_4b/3x3_reduce
I0510 00:08:41.877882 27151 net.cpp:334] inception_4b/3x3 -> inception_4b/3x3
I0510 00:08:41.877892 27151 net.cpp:105] Setting up inception_4b/3x3
I0510 00:08:41.879794 27151 net.cpp:112] Top shape: 32 224 14 14 (1404928)
I0510 00:08:41.879812 27151 layer_factory.hpp:74] Creating layer inception_4b/relu_3x3
I0510 00:08:41.879822 27151 net.cpp:76] Creating Layer inception_4b/relu_3x3
I0510 00:08:41.879829 27151 net.cpp:372] inception_4b/relu_3x3 <- inception_4b/3x3
I0510 00:08:41.879837 27151 net.cpp:323] inception_4b/relu_3x3 -> inception_4b/3x3 (in-place)
I0510 00:08:41.879847 27151 net.cpp:105] Setting up inception_4b/relu_3x3
I0510 00:08:41.879851 27151 net.cpp:112] Top shape: 32 224 14 14 (1404928)
I0510 00:08:41.879858 27151 layer_factory.hpp:74] Creating layer inception_4b/5x5_reduce
I0510 00:08:41.879868 27151 net.cpp:76] Creating Layer inception_4b/5x5_reduce
I0510 00:08:41.879875 27151 net.cpp:372] inception_4b/5x5_reduce <- inception_4a/output_inception_4a/output_0_split_3
I0510 00:08:41.879884 27151 net.cpp:334] inception_4b/5x5_reduce -> inception_4b/5x5_reduce
I0510 00:08:41.879892 27151 net.cpp:105] Setting up inception_4b/5x5_reduce
I0510 00:08:41.880010 27151 net.cpp:112] Top shape: 32 24 14 14 (150528)
I0510 00:08:41.880022 27151 layer_factory.hpp:74] Creating layer inception_4b/relu_5x5_reduce
I0510 00:08:41.880029 27151 net.cpp:76] Creating Layer inception_4b/relu_5x5_reduce
I0510 00:08:41.880035 27151 net.cpp:372] inception_4b/relu_5x5_reduce <- inception_4b/5x5_reduce
I0510 00:08:41.880044 27151 net.cpp:323] inception_4b/relu_5x5_reduce -> inception_4b/5x5_reduce (in-place)
I0510 00:08:41.880053 27151 net.cpp:105] Setting up inception_4b/relu_5x5_reduce
I0510 00:08:41.880059 27151 net.cpp:112] Top shape: 32 24 14 14 (150528)
I0510 00:08:41.880064 27151 layer_factory.hpp:74] Creating layer inception_4b/5x5
I0510 00:08:41.880072 27151 net.cpp:76] Creating Layer inception_4b/5x5
I0510 00:08:41.880077 27151 net.cpp:372] inception_4b/5x5 <- inception_4b/5x5_reduce
I0510 00:08:41.880085 27151 net.cpp:334] inception_4b/5x5 -> inception_4b/5x5
I0510 00:08:41.880095 27151 net.cpp:105] Setting up inception_4b/5x5
I0510 00:08:41.880444 27151 net.cpp:112] Top shape: 32 64 14 14 (401408)
I0510 00:08:41.880457 27151 layer_factory.hpp:74] Creating layer inception_4b/relu_5x5
I0510 00:08:41.880465 27151 net.cpp:76] Creating Layer inception_4b/relu_5x5
I0510 00:08:41.880471 27151 net.cpp:372] inception_4b/relu_5x5 <- inception_4b/5x5
I0510 00:08:41.880481 27151 net.cpp:323] inception_4b/relu_5x5 -> inception_4b/5x5 (in-place)
I0510 00:08:41.880489 27151 net.cpp:105] Setting up inception_4b/relu_5x5
I0510 00:08:41.880496 27151 net.cpp:112] Top shape: 32 64 14 14 (401408)
I0510 00:08:41.880501 27151 layer_factory.hpp:74] Creating layer inception_4b/pool
I0510 00:08:41.880508 27151 net.cpp:76] Creating Layer inception_4b/pool
I0510 00:08:41.880514 27151 net.cpp:372] inception_4b/pool <- inception_4a/output_inception_4a/output_0_split_4
I0510 00:08:41.880524 27151 net.cpp:334] inception_4b/pool -> inception_4b/pool
I0510 00:08:41.880542 27151 net.cpp:105] Setting up inception_4b/pool
I0510 00:08:41.880553 27151 net.cpp:112] Top shape: 32 512 14 14 (3211264)
I0510 00:08:41.880558 27151 layer_factory.hpp:74] Creating layer inception_4b/pool_proj
I0510 00:08:41.880570 27151 net.cpp:76] Creating Layer inception_4b/pool_proj
I0510 00:08:41.880576 27151 net.cpp:372] inception_4b/pool_proj <- inception_4b/pool
I0510 00:08:41.880590 27151 net.cpp:334] inception_4b/pool_proj -> inception_4b/pool_proj
I0510 00:08:41.880600 27151 net.cpp:105] Setting up inception_4b/pool_proj
I0510 00:08:41.880882 27151 net.cpp:112] Top shape: 32 64 14 14 (401408)
I0510 00:08:41.880895 27151 layer_factory.hpp:74] Creating layer inception_4b/relu_pool_proj
I0510 00:08:41.880909 27151 net.cpp:76] Creating Layer inception_4b/relu_pool_proj
I0510 00:08:41.880916 27151 net.cpp:372] inception_4b/relu_pool_proj <- inception_4b/pool_proj
I0510 00:08:41.880940 27151 net.cpp:323] inception_4b/relu_pool_proj -> inception_4b/pool_proj (in-place)
I0510 00:08:41.880949 27151 net.cpp:105] Setting up inception_4b/relu_pool_proj
I0510 00:08:41.880955 27151 net.cpp:112] Top shape: 32 64 14 14 (401408)
I0510 00:08:41.880961 27151 layer_factory.hpp:74] Creating layer inception_4b/output
I0510 00:08:41.880970 27151 net.cpp:76] Creating Layer inception_4b/output
I0510 00:08:41.880977 27151 net.cpp:372] inception_4b/output <- inception_4b/1x1
I0510 00:08:41.880985 27151 net.cpp:372] inception_4b/output <- inception_4b/3x3
I0510 00:08:41.880990 27151 net.cpp:372] inception_4b/output <- inception_4b/5x5
I0510 00:08:41.880996 27151 net.cpp:372] inception_4b/output <- inception_4b/pool_proj
I0510 00:08:41.881003 27151 net.cpp:334] inception_4b/output -> inception_4b/output
I0510 00:08:41.881012 27151 net.cpp:105] Setting up inception_4b/output
I0510 00:08:41.881018 27151 net.cpp:112] Top shape: 32 512 14 14 (3211264)
I0510 00:08:41.881024 27151 layer_factory.hpp:74] Creating layer inception_4b/output_inception_4b/output_0_split
I0510 00:08:41.881033 27151 net.cpp:76] Creating Layer inception_4b/output_inception_4b/output_0_split
I0510 00:08:41.881039 27151 net.cpp:372] inception_4b/output_inception_4b/output_0_split <- inception_4b/output
I0510 00:08:41.881047 27151 net.cpp:334] inception_4b/output_inception_4b/output_0_split -> inception_4b/output_inception_4b/output_0_split_0
I0510 00:08:41.881055 27151 net.cpp:334] inception_4b/output_inception_4b/output_0_split -> inception_4b/output_inception_4b/output_0_split_1
I0510 00:08:41.881067 27151 net.cpp:334] inception_4b/output_inception_4b/output_0_split -> inception_4b/output_inception_4b/output_0_split_2
I0510 00:08:41.881078 27151 net.cpp:334] inception_4b/output_inception_4b/output_0_split -> inception_4b/output_inception_4b/output_0_split_3
I0510 00:08:41.881105 27151 net.cpp:105] Setting up inception_4b/output_inception_4b/output_0_split
I0510 00:08:41.881114 27151 net.cpp:112] Top shape: 32 512 14 14 (3211264)
I0510 00:08:41.881120 27151 net.cpp:112] Top shape: 32 512 14 14 (3211264)
I0510 00:08:41.881125 27151 net.cpp:112] Top shape: 32 512 14 14 (3211264)
I0510 00:08:41.881130 27151 net.cpp:112] Top shape: 32 512 14 14 (3211264)
I0510 00:08:41.881135 27151 layer_factory.hpp:74] Creating layer inception_4c/1x1
I0510 00:08:41.881147 27151 net.cpp:76] Creating Layer inception_4c/1x1
I0510 00:08:41.881153 27151 net.cpp:372] inception_4c/1x1 <- inception_4b/output_inception_4b/output_0_split_0
I0510 00:08:41.881162 27151 net.cpp:334] inception_4c/1x1 -> inception_4c/1x1
I0510 00:08:41.881171 27151 net.cpp:105] Setting up inception_4c/1x1
I0510 00:08:41.881742 27151 net.cpp:112] Top shape: 32 128 14 14 (802816)
I0510 00:08:41.881757 27151 layer_factory.hpp:74] Creating layer inception_4c/relu_1x1
I0510 00:08:41.881764 27151 net.cpp:76] Creating Layer inception_4c/relu_1x1
I0510 00:08:41.881770 27151 net.cpp:372] inception_4c/relu_1x1 <- inception_4c/1x1
I0510 00:08:41.881780 27151 net.cpp:323] inception_4c/relu_1x1 -> inception_4c/1x1 (in-place)
I0510 00:08:41.881793 27151 net.cpp:105] Setting up inception_4c/relu_1x1
I0510 00:08:41.881798 27151 net.cpp:112] Top shape: 32 128 14 14 (802816)
I0510 00:08:41.881803 27151 layer_factory.hpp:74] Creating layer inception_4c/3x3_reduce
I0510 00:08:41.881811 27151 net.cpp:76] Creating Layer inception_4c/3x3_reduce
I0510 00:08:41.881817 27151 net.cpp:372] inception_4c/3x3_reduce <- inception_4b/output_inception_4b/output_0_split_1
I0510 00:08:41.881829 27151 net.cpp:334] inception_4c/3x3_reduce -> inception_4c/3x3_reduce
I0510 00:08:41.881839 27151 net.cpp:105] Setting up inception_4c/3x3_reduce
I0510 00:08:41.882408 27151 net.cpp:112] Top shape: 32 128 14 14 (802816)
I0510 00:08:41.882429 27151 layer_factory.hpp:74] Creating layer inception_4c/relu_3x3_reduce
I0510 00:08:41.882439 27151 net.cpp:76] Creating Layer inception_4c/relu_3x3_reduce
I0510 00:08:41.882446 27151 net.cpp:372] inception_4c/relu_3x3_reduce <- inception_4c/3x3_reduce
I0510 00:08:41.882454 27151 net.cpp:323] inception_4c/relu_3x3_reduce -> inception_4c/3x3_reduce (in-place)
I0510 00:08:41.882482 27151 net.cpp:105] Setting up inception_4c/relu_3x3_reduce
I0510 00:08:41.882488 27151 net.cpp:112] Top shape: 32 128 14 14 (802816)
I0510 00:08:41.882493 27151 layer_factory.hpp:74] Creating layer inception_4c/3x3
I0510 00:08:41.882506 27151 net.cpp:76] Creating Layer inception_4c/3x3
I0510 00:08:41.882513 27151 net.cpp:372] inception_4c/3x3 <- inception_4c/3x3_reduce
I0510 00:08:41.882520 27151 net.cpp:334] inception_4c/3x3 -> inception_4c/3x3
I0510 00:08:41.882529 27151 net.cpp:105] Setting up inception_4c/3x3
I0510 00:08:41.885009 27151 net.cpp:112] Top shape: 32 256 14 14 (1605632)
I0510 00:08:41.885038 27151 layer_factory.hpp:74] Creating layer inception_4c/relu_3x3
I0510 00:08:41.885048 27151 net.cpp:76] Creating Layer inception_4c/relu_3x3
I0510 00:08:41.885054 27151 net.cpp:372] inception_4c/relu_3x3 <- inception_4c/3x3
I0510 00:08:41.885062 27151 net.cpp:323] inception_4c/relu_3x3 -> inception_4c/3x3 (in-place)
I0510 00:08:41.885071 27151 net.cpp:105] Setting up inception_4c/relu_3x3
I0510 00:08:41.885076 27151 net.cpp:112] Top shape: 32 256 14 14 (1605632)
I0510 00:08:41.885082 27151 layer_factory.hpp:74] Creating layer inception_4c/5x5_reduce
I0510 00:08:41.885093 27151 net.cpp:76] Creating Layer inception_4c/5x5_reduce
I0510 00:08:41.885100 27151 net.cpp:372] inception_4c/5x5_reduce <- inception_4b/output_inception_4b/output_0_split_2
I0510 00:08:41.885109 27151 net.cpp:334] inception_4c/5x5_reduce -> inception_4c/5x5_reduce
I0510 00:08:41.885119 27151 net.cpp:105] Setting up inception_4c/5x5_reduce
I0510 00:08:41.885234 27151 net.cpp:112] Top shape: 32 24 14 14 (150528)
I0510 00:08:41.885246 27151 layer_factory.hpp:74] Creating layer inception_4c/relu_5x5_reduce
I0510 00:08:41.885973 27151 net.cpp:76] Creating Layer inception_4c/relu_5x5_reduce
I0510 00:08:41.885982 27151 net.cpp:372] inception_4c/relu_5x5_reduce <- inception_4c/5x5_reduce
I0510 00:08:41.885994 27151 net.cpp:323] inception_4c/relu_5x5_reduce -> inception_4c/5x5_reduce (in-place)
I0510 00:08:41.886004 27151 net.cpp:105] Setting up inception_4c/relu_5x5_reduce
I0510 00:08:41.886009 27151 net.cpp:112] Top shape: 32 24 14 14 (150528)
I0510 00:08:41.886015 27151 layer_factory.hpp:74] Creating layer inception_4c/5x5
I0510 00:08:41.886024 27151 net.cpp:76] Creating Layer inception_4c/5x5
I0510 00:08:41.886030 27151 net.cpp:372] inception_4c/5x5 <- inception_4c/5x5_reduce
I0510 00:08:41.886040 27151 net.cpp:334] inception_4c/5x5 -> inception_4c/5x5
I0510 00:08:41.886050 27151 net.cpp:105] Setting up inception_4c/5x5
I0510 00:08:41.886397 27151 net.cpp:112] Top shape: 32 64 14 14 (401408)
I0510 00:08:41.886414 27151 layer_factory.hpp:74] Creating layer inception_4c/relu_5x5
I0510 00:08:41.886421 27151 net.cpp:76] Creating Layer inception_4c/relu_5x5
I0510 00:08:41.886427 27151 net.cpp:372] inception_4c/relu_5x5 <- inception_4c/5x5
I0510 00:08:41.886435 27151 net.cpp:323] inception_4c/relu_5x5 -> inception_4c/5x5 (in-place)
I0510 00:08:41.886443 27151 net.cpp:105] Setting up inception_4c/relu_5x5
I0510 00:08:41.886448 27151 net.cpp:112] Top shape: 32 64 14 14 (401408)
I0510 00:08:41.886454 27151 layer_factory.hpp:74] Creating layer inception_4c/pool
I0510 00:08:41.886462 27151 net.cpp:76] Creating Layer inception_4c/pool
I0510 00:08:41.886468 27151 net.cpp:372] inception_4c/pool <- inception_4b/output_inception_4b/output_0_split_3
I0510 00:08:41.886478 27151 net.cpp:334] inception_4c/pool -> inception_4c/pool
I0510 00:08:41.886487 27151 net.cpp:105] Setting up inception_4c/pool
I0510 00:08:41.886495 27151 net.cpp:112] Top shape: 32 512 14 14 (3211264)
I0510 00:08:41.886500 27151 layer_factory.hpp:74] Creating layer inception_4c/pool_proj
I0510 00:08:41.886509 27151 net.cpp:76] Creating Layer inception_4c/pool_proj
I0510 00:08:41.886515 27151 net.cpp:372] inception_4c/pool_proj <- inception_4c/pool
I0510 00:08:41.886525 27151 net.cpp:334] inception_4c/pool_proj -> inception_4c/pool_proj
I0510 00:08:41.886535 27151 net.cpp:105] Setting up inception_4c/pool_proj
I0510 00:08:41.886840 27151 net.cpp:112] Top shape: 32 64 14 14 (401408)
I0510 00:08:41.886854 27151 layer_factory.hpp:74] Creating layer inception_4c/relu_pool_proj
I0510 00:08:41.886863 27151 net.cpp:76] Creating Layer inception_4c/relu_pool_proj
I0510 00:08:41.886869 27151 net.cpp:372] inception_4c/relu_pool_proj <- inception_4c/pool_proj
I0510 00:08:41.886878 27151 net.cpp:323] inception_4c/relu_pool_proj -> inception_4c/pool_proj (in-place)
I0510 00:08:41.886888 27151 net.cpp:105] Setting up inception_4c/relu_pool_proj
I0510 00:08:41.886893 27151 net.cpp:112] Top shape: 32 64 14 14 (401408)
I0510 00:08:41.886899 27151 layer_factory.hpp:74] Creating layer inception_4c/output
I0510 00:08:41.886908 27151 net.cpp:76] Creating Layer inception_4c/output
I0510 00:08:41.886912 27151 net.cpp:372] inception_4c/output <- inception_4c/1x1
I0510 00:08:41.886919 27151 net.cpp:372] inception_4c/output <- inception_4c/3x3
I0510 00:08:41.886925 27151 net.cpp:372] inception_4c/output <- inception_4c/5x5
I0510 00:08:41.886931 27151 net.cpp:372] inception_4c/output <- inception_4c/pool_proj
I0510 00:08:41.886939 27151 net.cpp:334] inception_4c/output -> inception_4c/output
I0510 00:08:41.886946 27151 net.cpp:105] Setting up inception_4c/output
I0510 00:08:41.886953 27151 net.cpp:112] Top shape: 32 512 14 14 (3211264)
I0510 00:08:41.886958 27151 layer_factory.hpp:74] Creating layer inception_4c/output_inception_4c/output_0_split
I0510 00:08:41.886966 27151 net.cpp:76] Creating Layer inception_4c/output_inception_4c/output_0_split
I0510 00:08:41.886972 27151 net.cpp:372] inception_4c/output_inception_4c/output_0_split <- inception_4c/output
I0510 00:08:41.886982 27151 net.cpp:334] inception_4c/output_inception_4c/output_0_split -> inception_4c/output_inception_4c/output_0_split_0
I0510 00:08:41.886992 27151 net.cpp:334] inception_4c/output_inception_4c/output_0_split -> inception_4c/output_inception_4c/output_0_split_1
I0510 00:08:41.887001 27151 net.cpp:334] inception_4c/output_inception_4c/output_0_split -> inception_4c/output_inception_4c/output_0_split_2
I0510 00:08:41.887015 27151 net.cpp:334] inception_4c/output_inception_4c/output_0_split -> inception_4c/output_inception_4c/output_0_split_3
I0510 00:08:41.887023 27151 net.cpp:105] Setting up inception_4c/output_inception_4c/output_0_split
I0510 00:08:41.887030 27151 net.cpp:112] Top shape: 32 512 14 14 (3211264)
I0510 00:08:41.887035 27151 net.cpp:112] Top shape: 32 512 14 14 (3211264)
I0510 00:08:41.887040 27151 net.cpp:112] Top shape: 32 512 14 14 (3211264)
I0510 00:08:41.887045 27151 net.cpp:112] Top shape: 32 512 14 14 (3211264)
I0510 00:08:41.887050 27151 layer_factory.hpp:74] Creating layer inception_4d/1x1
I0510 00:08:41.887063 27151 net.cpp:76] Creating Layer inception_4d/1x1
I0510 00:08:41.887069 27151 net.cpp:372] inception_4d/1x1 <- inception_4c/output_inception_4c/output_0_split_0
I0510 00:08:41.887078 27151 net.cpp:334] inception_4d/1x1 -> inception_4d/1x1
I0510 00:08:41.887086 27151 net.cpp:105] Setting up inception_4d/1x1
I0510 00:08:41.887598 27151 net.cpp:112] Top shape: 32 112 14 14 (702464)
I0510 00:08:41.887615 27151 layer_factory.hpp:74] Creating layer inception_4d/relu_1x1
I0510 00:08:41.887626 27151 net.cpp:76] Creating Layer inception_4d/relu_1x1
I0510 00:08:41.887634 27151 net.cpp:372] inception_4d/relu_1x1 <- inception_4d/1x1
I0510 00:08:41.887641 27151 net.cpp:323] inception_4d/relu_1x1 -> inception_4d/1x1 (in-place)
I0510 00:08:41.887650 27151 net.cpp:105] Setting up inception_4d/relu_1x1
I0510 00:08:41.887655 27151 net.cpp:112] Top shape: 32 112 14 14 (702464)
I0510 00:08:41.887660 27151 layer_factory.hpp:74] Creating layer inception_4d/3x3_reduce
I0510 00:08:41.887670 27151 net.cpp:76] Creating Layer inception_4d/3x3_reduce
I0510 00:08:41.887675 27151 net.cpp:372] inception_4d/3x3_reduce <- inception_4c/output_inception_4c/output_0_split_1
I0510 00:08:41.887686 27151 net.cpp:334] inception_4d/3x3_reduce -> inception_4d/3x3_reduce
I0510 00:08:41.887696 27151 net.cpp:105] Setting up inception_4d/3x3_reduce
I0510 00:08:41.888334 27151 net.cpp:112] Top shape: 32 144 14 14 (903168)
I0510 00:08:41.888368 27151 layer_factory.hpp:74] Creating layer inception_4d/relu_3x3_reduce
I0510 00:08:41.888377 27151 net.cpp:76] Creating Layer inception_4d/relu_3x3_reduce
I0510 00:08:41.888383 27151 net.cpp:372] inception_4d/relu_3x3_reduce <- inception_4d/3x3_reduce
I0510 00:08:41.888391 27151 net.cpp:323] inception_4d/relu_3x3_reduce -> inception_4d/3x3_reduce (in-place)
I0510 00:08:41.888399 27151 net.cpp:105] Setting up inception_4d/relu_3x3_reduce
I0510 00:08:41.888404 27151 net.cpp:112] Top shape: 32 144 14 14 (903168)
I0510 00:08:41.888411 27151 layer_factory.hpp:74] Creating layer inception_4d/3x3
I0510 00:08:41.888422 27151 net.cpp:76] Creating Layer inception_4d/3x3
I0510 00:08:41.888427 27151 net.cpp:372] inception_4d/3x3 <- inception_4d/3x3_reduce
I0510 00:08:41.888437 27151 net.cpp:334] inception_4d/3x3 -> inception_4d/3x3
I0510 00:08:41.888447 27151 net.cpp:105] Setting up inception_4d/3x3
I0510 00:08:41.891573 27151 net.cpp:112] Top shape: 32 288 14 14 (1806336)
I0510 00:08:41.891594 27151 layer_factory.hpp:74] Creating layer inception_4d/relu_3x3
I0510 00:08:41.891604 27151 net.cpp:76] Creating Layer inception_4d/relu_3x3
I0510 00:08:41.891612 27151 net.cpp:372] inception_4d/relu_3x3 <- inception_4d/3x3
I0510 00:08:41.891618 27151 net.cpp:323] inception_4d/relu_3x3 -> inception_4d/3x3 (in-place)
I0510 00:08:41.891628 27151 net.cpp:105] Setting up inception_4d/relu_3x3
I0510 00:08:41.891633 27151 net.cpp:112] Top shape: 32 288 14 14 (1806336)
I0510 00:08:41.891638 27151 layer_factory.hpp:74] Creating layer inception_4d/5x5_reduce
I0510 00:08:41.891649 27151 net.cpp:76] Creating Layer inception_4d/5x5_reduce
I0510 00:08:41.891655 27151 net.cpp:372] inception_4d/5x5_reduce <- inception_4c/output_inception_4c/output_0_split_2
I0510 00:08:41.891666 27151 net.cpp:334] inception_4d/5x5_reduce -> inception_4d/5x5_reduce
I0510 00:08:41.891676 27151 net.cpp:105] Setting up inception_4d/5x5_reduce
I0510 00:08:41.891825 27151 net.cpp:112] Top shape: 32 32 14 14 (200704)
I0510 00:08:41.891836 27151 layer_factory.hpp:74] Creating layer inception_4d/relu_5x5_reduce
I0510 00:08:41.891844 27151 net.cpp:76] Creating Layer inception_4d/relu_5x5_reduce
I0510 00:08:41.891850 27151 net.cpp:372] inception_4d/relu_5x5_reduce <- inception_4d/5x5_reduce
I0510 00:08:41.891860 27151 net.cpp:323] inception_4d/relu_5x5_reduce -> inception_4d/5x5_reduce (in-place)
I0510 00:08:41.891868 27151 net.cpp:105] Setting up inception_4d/relu_5x5_reduce
I0510 00:08:41.891873 27151 net.cpp:112] Top shape: 32 32 14 14 (200704)
I0510 00:08:41.891880 27151 layer_factory.hpp:74] Creating layer inception_4d/5x5
I0510 00:08:41.891887 27151 net.cpp:76] Creating Layer inception_4d/5x5
I0510 00:08:41.891892 27151 net.cpp:372] inception_4d/5x5 <- inception_4d/5x5_reduce
I0510 00:08:41.891903 27151 net.cpp:334] inception_4d/5x5 -> inception_4d/5x5
I0510 00:08:41.891913 27151 net.cpp:105] Setting up inception_4d/5x5
I0510 00:08:41.892367 27151 net.cpp:112] Top shape: 32 64 14 14 (401408)
I0510 00:08:41.892380 27151 layer_factory.hpp:74] Creating layer inception_4d/relu_5x5
I0510 00:08:41.892388 27151 net.cpp:76] Creating Layer inception_4d/relu_5x5
I0510 00:08:41.892395 27151 net.cpp:372] inception_4d/relu_5x5 <- inception_4d/5x5
I0510 00:08:41.892402 27151 net.cpp:323] inception_4d/relu_5x5 -> inception_4d/5x5 (in-place)
I0510 00:08:41.892410 27151 net.cpp:105] Setting up inception_4d/relu_5x5
I0510 00:08:41.892416 27151 net.cpp:112] Top shape: 32 64 14 14 (401408)
I0510 00:08:41.892421 27151 layer_factory.hpp:74] Creating layer inception_4d/pool
I0510 00:08:41.892431 27151 net.cpp:76] Creating Layer inception_4d/pool
I0510 00:08:41.892437 27151 net.cpp:372] inception_4d/pool <- inception_4c/output_inception_4c/output_0_split_3
I0510 00:08:41.892446 27151 net.cpp:334] inception_4d/pool -> inception_4d/pool
I0510 00:08:41.892454 27151 net.cpp:105] Setting up inception_4d/pool
I0510 00:08:41.892462 27151 net.cpp:112] Top shape: 32 512 14 14 (3211264)
I0510 00:08:41.892468 27151 layer_factory.hpp:74] Creating layer inception_4d/pool_proj
I0510 00:08:41.892498 27151 net.cpp:76] Creating Layer inception_4d/pool_proj
I0510 00:08:41.892505 27151 net.cpp:372] inception_4d/pool_proj <- inception_4d/pool
I0510 00:08:41.892514 27151 net.cpp:334] inception_4d/pool_proj -> inception_4d/pool_proj
I0510 00:08:41.892524 27151 net.cpp:105] Setting up inception_4d/pool_proj
I0510 00:08:41.892825 27151 net.cpp:112] Top shape: 32 64 14 14 (401408)
I0510 00:08:41.892840 27151 layer_factory.hpp:74] Creating layer inception_4d/relu_pool_proj
I0510 00:08:41.892848 27151 net.cpp:76] Creating Layer inception_4d/relu_pool_proj
I0510 00:08:41.892854 27151 net.cpp:372] inception_4d/relu_pool_proj <- inception_4d/pool_proj
I0510 00:08:41.892864 27151 net.cpp:323] inception_4d/relu_pool_proj -> inception_4d/pool_proj (in-place)
I0510 00:08:41.892874 27151 net.cpp:105] Setting up inception_4d/relu_pool_proj
I0510 00:08:41.892879 27151 net.cpp:112] Top shape: 32 64 14 14 (401408)
I0510 00:08:41.892885 27151 layer_factory.hpp:74] Creating layer inception_4d/output
I0510 00:08:41.892892 27151 net.cpp:76] Creating Layer inception_4d/output
I0510 00:08:41.892899 27151 net.cpp:372] inception_4d/output <- inception_4d/1x1
I0510 00:08:41.892905 27151 net.cpp:372] inception_4d/output <- inception_4d/3x3
I0510 00:08:41.892911 27151 net.cpp:372] inception_4d/output <- inception_4d/5x5
I0510 00:08:41.892917 27151 net.cpp:372] inception_4d/output <- inception_4d/pool_proj
I0510 00:08:41.892925 27151 net.cpp:334] inception_4d/output -> inception_4d/output
I0510 00:08:41.892933 27151 net.cpp:105] Setting up inception_4d/output
I0510 00:08:41.892940 27151 net.cpp:112] Top shape: 32 528 14 14 (3311616)
I0510 00:08:41.892946 27151 layer_factory.hpp:74] Creating layer inception_4d/output_inception_4d/output_0_split
I0510 00:08:41.892979 27151 net.cpp:76] Creating Layer inception_4d/output_inception_4d/output_0_split
I0510 00:08:41.892988 27151 net.cpp:372] inception_4d/output_inception_4d/output_0_split <- inception_4d/output
I0510 00:08:41.892997 27151 net.cpp:334] inception_4d/output_inception_4d/output_0_split -> inception_4d/output_inception_4d/output_0_split_0
I0510 00:08:41.893007 27151 net.cpp:334] inception_4d/output_inception_4d/output_0_split -> inception_4d/output_inception_4d/output_0_split_1
I0510 00:08:41.893017 27151 net.cpp:334] inception_4d/output_inception_4d/output_0_split -> inception_4d/output_inception_4d/output_0_split_2
I0510 00:08:41.893025 27151 net.cpp:334] inception_4d/output_inception_4d/output_0_split -> inception_4d/output_inception_4d/output_0_split_3
I0510 00:08:41.893033 27151 net.cpp:334] inception_4d/output_inception_4d/output_0_split -> inception_4d/output_inception_4d/output_0_split_4
I0510 00:08:41.893043 27151 net.cpp:105] Setting up inception_4d/output_inception_4d/output_0_split
I0510 00:08:41.893049 27151 net.cpp:112] Top shape: 32 528 14 14 (3311616)
I0510 00:08:41.893054 27151 net.cpp:112] Top shape: 32 528 14 14 (3311616)
I0510 00:08:41.893059 27151 net.cpp:112] Top shape: 32 528 14 14 (3311616)
I0510 00:08:41.893064 27151 net.cpp:112] Top shape: 32 528 14 14 (3311616)
I0510 00:08:41.893069 27151 net.cpp:112] Top shape: 32 528 14 14 (3311616)
I0510 00:08:41.893074 27151 layer_factory.hpp:74] Creating layer loss2/ave_pool
I0510 00:08:41.893085 27151 net.cpp:76] Creating Layer loss2/ave_pool
I0510 00:08:41.893091 27151 net.cpp:372] loss2/ave_pool <- inception_4d/output_inception_4d/output_0_split_0
I0510 00:08:41.893100 27151 net.cpp:334] loss2/ave_pool -> loss2/ave_pool
I0510 00:08:41.893108 27151 net.cpp:105] Setting up loss2/ave_pool
I0510 00:08:41.893117 27151 net.cpp:112] Top shape: 32 528 4 4 (270336)
I0510 00:08:41.893123 27151 layer_factory.hpp:74] Creating layer loss2/conv
I0510 00:08:41.893131 27151 net.cpp:76] Creating Layer loss2/conv
I0510 00:08:41.893137 27151 net.cpp:372] loss2/conv <- loss2/ave_pool
I0510 00:08:41.893146 27151 net.cpp:334] loss2/conv -> loss2/conv
I0510 00:08:41.893154 27151 net.cpp:105] Setting up loss2/conv
I0510 00:08:41.893734 27151 net.cpp:112] Top shape: 32 128 4 4 (65536)
I0510 00:08:41.893749 27151 layer_factory.hpp:74] Creating layer loss2/relu_conv
I0510 00:08:41.893771 27151 net.cpp:76] Creating Layer loss2/relu_conv
I0510 00:08:41.893779 27151 net.cpp:372] loss2/relu_conv <- loss2/conv
I0510 00:08:41.893789 27151 net.cpp:323] loss2/relu_conv -> loss2/conv (in-place)
I0510 00:08:41.893796 27151 net.cpp:105] Setting up loss2/relu_conv
I0510 00:08:41.893802 27151 net.cpp:112] Top shape: 32 128 4 4 (65536)
I0510 00:08:41.893808 27151 layer_factory.hpp:74] Creating layer loss2/fc
I0510 00:08:41.893817 27151 net.cpp:76] Creating Layer loss2/fc
I0510 00:08:41.893823 27151 net.cpp:372] loss2/fc <- loss2/conv
I0510 00:08:41.893833 27151 net.cpp:334] loss2/fc -> loss2/fc
I0510 00:08:41.893843 27151 net.cpp:105] Setting up loss2/fc
I0510 00:08:41.911412 27151 net.cpp:112] Top shape: 32 1024 1 1 (32768)
I0510 00:08:41.911459 27151 layer_factory.hpp:74] Creating layer loss2/relu_fc
I0510 00:08:41.911474 27151 net.cpp:76] Creating Layer loss2/relu_fc
I0510 00:08:41.911483 27151 net.cpp:372] loss2/relu_fc <- loss2/fc
I0510 00:08:41.911496 27151 net.cpp:323] loss2/relu_fc -> loss2/fc (in-place)
I0510 00:08:41.911509 27151 net.cpp:105] Setting up loss2/relu_fc
I0510 00:08:41.911515 27151 net.cpp:112] Top shape: 32 1024 1 1 (32768)
I0510 00:08:41.911521 27151 layer_factory.hpp:74] Creating layer loss2/drop_fc
I0510 00:08:41.911531 27151 net.cpp:76] Creating Layer loss2/drop_fc
I0510 00:08:41.911536 27151 net.cpp:372] loss2/drop_fc <- loss2/fc
I0510 00:08:41.911543 27151 net.cpp:323] loss2/drop_fc -> loss2/fc (in-place)
I0510 00:08:41.911552 27151 net.cpp:105] Setting up loss2/drop_fc
I0510 00:08:41.911558 27151 net.cpp:112] Top shape: 32 1024 1 1 (32768)
I0510 00:08:41.911564 27151 layer_factory.hpp:74] Creating layer loss2/classifier
I0510 00:08:41.911574 27151 net.cpp:76] Creating Layer loss2/classifier
I0510 00:08:41.911581 27151 net.cpp:372] loss2/classifier <- loss2/fc
I0510 00:08:41.911592 27151 net.cpp:334] loss2/classifier -> loss2/classifier
I0510 00:08:41.911602 27151 net.cpp:105] Setting up loss2/classifier
I0510 00:08:41.911635 27151 net.cpp:112] Top shape: 32 2 1 1 (64)
I0510 00:08:41.911648 27151 layer_factory.hpp:74] Creating layer loss2/loss
I0510 00:08:41.911658 27151 net.cpp:76] Creating Layer loss2/loss
I0510 00:08:41.911664 27151 net.cpp:372] loss2/loss <- loss2/classifier
I0510 00:08:41.911670 27151 net.cpp:372] loss2/loss <- label_data_1_split_1
I0510 00:08:41.911679 27151 net.cpp:334] loss2/loss -> loss2/loss1
I0510 00:08:41.911687 27151 net.cpp:105] Setting up loss2/loss
I0510 00:08:41.911695 27151 layer_factory.hpp:74] Creating layer loss2/loss
I0510 00:08:41.911711 27151 net.cpp:112] Top shape: 1 1 1 1 (1)
I0510 00:08:41.911718 27151 net.cpp:118]     with loss weight 0.3
I0510 00:08:41.911736 27151 layer_factory.hpp:74] Creating layer inception_4e/1x1
I0510 00:08:41.911749 27151 net.cpp:76] Creating Layer inception_4e/1x1
I0510 00:08:41.911756 27151 net.cpp:372] inception_4e/1x1 <- inception_4d/output_inception_4d/output_0_split_1
I0510 00:08:41.911766 27151 net.cpp:334] inception_4e/1x1 -> inception_4e/1x1
I0510 00:08:41.911775 27151 net.cpp:105] Setting up inception_4e/1x1
I0510 00:08:41.912993 27151 net.cpp:112] Top shape: 32 256 14 14 (1605632)
I0510 00:08:41.913012 27151 layer_factory.hpp:74] Creating layer inception_4e/relu_1x1
I0510 00:08:41.913022 27151 net.cpp:76] Creating Layer inception_4e/relu_1x1
I0510 00:08:41.913028 27151 net.cpp:372] inception_4e/relu_1x1 <- inception_4e/1x1
I0510 00:08:41.913035 27151 net.cpp:323] inception_4e/relu_1x1 -> inception_4e/1x1 (in-place)
I0510 00:08:41.913043 27151 net.cpp:105] Setting up inception_4e/relu_1x1
I0510 00:08:41.913049 27151 net.cpp:112] Top shape: 32 256 14 14 (1605632)
I0510 00:08:41.913054 27151 layer_factory.hpp:74] Creating layer inception_4e/3x3_reduce
I0510 00:08:41.913064 27151 net.cpp:76] Creating Layer inception_4e/3x3_reduce
I0510 00:08:41.913069 27151 net.cpp:372] inception_4e/3x3_reduce <- inception_4d/output_inception_4d/output_0_split_2
I0510 00:08:41.913080 27151 net.cpp:334] inception_4e/3x3_reduce -> inception_4e/3x3_reduce
I0510 00:08:41.913164 27151 net.cpp:105] Setting up inception_4e/3x3_reduce
I0510 00:08:41.913905 27151 net.cpp:112] Top shape: 32 160 14 14 (1003520)
I0510 00:08:41.913921 27151 layer_factory.hpp:74] Creating layer inception_4e/relu_3x3_reduce
I0510 00:08:41.913930 27151 net.cpp:76] Creating Layer inception_4e/relu_3x3_reduce
I0510 00:08:41.913939 27151 net.cpp:372] inception_4e/relu_3x3_reduce <- inception_4e/3x3_reduce
I0510 00:08:41.913946 27151 net.cpp:323] inception_4e/relu_3x3_reduce -> inception_4e/3x3_reduce (in-place)
I0510 00:08:41.913955 27151 net.cpp:105] Setting up inception_4e/relu_3x3_reduce
I0510 00:08:41.913960 27151 net.cpp:112] Top shape: 32 160 14 14 (1003520)
I0510 00:08:41.913966 27151 layer_factory.hpp:74] Creating layer inception_4e/3x3
I0510 00:08:41.913975 27151 net.cpp:76] Creating Layer inception_4e/3x3
I0510 00:08:41.913980 27151 net.cpp:372] inception_4e/3x3 <- inception_4e/3x3_reduce
I0510 00:08:41.913995 27151 net.cpp:334] inception_4e/3x3 -> inception_4e/3x3
I0510 00:08:41.914005 27151 net.cpp:105] Setting up inception_4e/3x3
I0510 00:08:41.917855 27151 net.cpp:112] Top shape: 32 320 14 14 (2007040)
I0510 00:08:41.917876 27151 layer_factory.hpp:74] Creating layer inception_4e/relu_3x3
I0510 00:08:41.917884 27151 net.cpp:76] Creating Layer inception_4e/relu_3x3
I0510 00:08:41.917891 27151 net.cpp:372] inception_4e/relu_3x3 <- inception_4e/3x3
I0510 00:08:41.917902 27151 net.cpp:323] inception_4e/relu_3x3 -> inception_4e/3x3 (in-place)
I0510 00:08:41.917912 27151 net.cpp:105] Setting up inception_4e/relu_3x3
I0510 00:08:41.917917 27151 net.cpp:112] Top shape: 32 320 14 14 (2007040)
I0510 00:08:41.917923 27151 layer_factory.hpp:74] Creating layer inception_4e/5x5_reduce
I0510 00:08:41.917932 27151 net.cpp:76] Creating Layer inception_4e/5x5_reduce
I0510 00:08:41.917938 27151 net.cpp:372] inception_4e/5x5_reduce <- inception_4d/output_inception_4d/output_0_split_3
I0510 00:08:41.917949 27151 net.cpp:334] inception_4e/5x5_reduce -> inception_4e/5x5_reduce
I0510 00:08:41.917959 27151 net.cpp:105] Setting up inception_4e/5x5_reduce
I0510 00:08:41.918112 27151 net.cpp:112] Top shape: 32 32 14 14 (200704)
I0510 00:08:41.918123 27151 layer_factory.hpp:74] Creating layer inception_4e/relu_5x5_reduce
I0510 00:08:41.918131 27151 net.cpp:76] Creating Layer inception_4e/relu_5x5_reduce
I0510 00:08:41.918138 27151 net.cpp:372] inception_4e/relu_5x5_reduce <- inception_4e/5x5_reduce
I0510 00:08:41.918144 27151 net.cpp:323] inception_4e/relu_5x5_reduce -> inception_4e/5x5_reduce (in-place)
I0510 00:08:41.918153 27151 net.cpp:105] Setting up inception_4e/relu_5x5_reduce
I0510 00:08:41.918158 27151 net.cpp:112] Top shape: 32 32 14 14 (200704)
I0510 00:08:41.918164 27151 layer_factory.hpp:74] Creating layer inception_4e/5x5
I0510 00:08:41.918195 27151 net.cpp:76] Creating Layer inception_4e/5x5
I0510 00:08:41.918202 27151 net.cpp:372] inception_4e/5x5 <- inception_4e/5x5_reduce
I0510 00:08:41.918215 27151 net.cpp:334] inception_4e/5x5 -> inception_4e/5x5
I0510 00:08:41.918223 27151 net.cpp:105] Setting up inception_4e/5x5
I0510 00:08:41.919133 27151 net.cpp:112] Top shape: 32 128 14 14 (802816)
I0510 00:08:41.919150 27151 layer_factory.hpp:74] Creating layer inception_4e/relu_5x5
I0510 00:08:41.919159 27151 net.cpp:76] Creating Layer inception_4e/relu_5x5
I0510 00:08:41.919165 27151 net.cpp:372] inception_4e/relu_5x5 <- inception_4e/5x5
I0510 00:08:41.919173 27151 net.cpp:323] inception_4e/relu_5x5 -> inception_4e/5x5 (in-place)
I0510 00:08:41.919181 27151 net.cpp:105] Setting up inception_4e/relu_5x5
I0510 00:08:41.919186 27151 net.cpp:112] Top shape: 32 128 14 14 (802816)
I0510 00:08:41.919193 27151 layer_factory.hpp:74] Creating layer inception_4e/pool
I0510 00:08:41.919203 27151 net.cpp:76] Creating Layer inception_4e/pool
I0510 00:08:41.919209 27151 net.cpp:372] inception_4e/pool <- inception_4d/output_inception_4d/output_0_split_4
I0510 00:08:41.919217 27151 net.cpp:334] inception_4e/pool -> inception_4e/pool
I0510 00:08:41.919226 27151 net.cpp:105] Setting up inception_4e/pool
I0510 00:08:41.919235 27151 net.cpp:112] Top shape: 32 528 14 14 (3311616)
I0510 00:08:41.919276 27151 layer_factory.hpp:74] Creating layer inception_4e/pool_proj
I0510 00:08:41.919289 27151 net.cpp:76] Creating Layer inception_4e/pool_proj
I0510 00:08:41.919296 27151 net.cpp:372] inception_4e/pool_proj <- inception_4e/pool
I0510 00:08:41.919306 27151 net.cpp:334] inception_4e/pool_proj -> inception_4e/pool_proj
I0510 00:08:41.919314 27151 net.cpp:105] Setting up inception_4e/pool_proj
I0510 00:08:41.919893 27151 net.cpp:112] Top shape: 32 128 14 14 (802816)
I0510 00:08:41.919908 27151 layer_factory.hpp:74] Creating layer inception_4e/relu_pool_proj
I0510 00:08:41.919915 27151 net.cpp:76] Creating Layer inception_4e/relu_pool_proj
I0510 00:08:41.919922 27151 net.cpp:372] inception_4e/relu_pool_proj <- inception_4e/pool_proj
I0510 00:08:41.919932 27151 net.cpp:323] inception_4e/relu_pool_proj -> inception_4e/pool_proj (in-place)
I0510 00:08:41.919941 27151 net.cpp:105] Setting up inception_4e/relu_pool_proj
I0510 00:08:41.919946 27151 net.cpp:112] Top shape: 32 128 14 14 (802816)
I0510 00:08:41.919952 27151 layer_factory.hpp:74] Creating layer inception_4e/output
I0510 00:08:41.919960 27151 net.cpp:76] Creating Layer inception_4e/output
I0510 00:08:41.919965 27151 net.cpp:372] inception_4e/output <- inception_4e/1x1
I0510 00:08:41.919972 27151 net.cpp:372] inception_4e/output <- inception_4e/3x3
I0510 00:08:41.919978 27151 net.cpp:372] inception_4e/output <- inception_4e/5x5
I0510 00:08:41.919984 27151 net.cpp:372] inception_4e/output <- inception_4e/pool_proj
I0510 00:08:41.919992 27151 net.cpp:334] inception_4e/output -> inception_4e/output
I0510 00:08:41.920001 27151 net.cpp:105] Setting up inception_4e/output
I0510 00:08:41.920006 27151 net.cpp:112] Top shape: 32 832 14 14 (5218304)
I0510 00:08:41.920012 27151 layer_factory.hpp:74] Creating layer pool4/3x3_s2
I0510 00:08:41.920022 27151 net.cpp:76] Creating Layer pool4/3x3_s2
I0510 00:08:41.920054 27151 net.cpp:372] pool4/3x3_s2 <- inception_4e/output
I0510 00:08:41.920064 27151 net.cpp:334] pool4/3x3_s2 -> pool4/3x3_s2
I0510 00:08:41.920073 27151 net.cpp:105] Setting up pool4/3x3_s2
I0510 00:08:41.920080 27151 net.cpp:112] Top shape: 32 832 7 7 (1304576)
I0510 00:08:41.920086 27151 layer_factory.hpp:74] Creating layer pool4/3x3_s2_pool4/3x3_s2_0_split
I0510 00:08:41.920094 27151 net.cpp:76] Creating Layer pool4/3x3_s2_pool4/3x3_s2_0_split
I0510 00:08:41.920102 27151 net.cpp:372] pool4/3x3_s2_pool4/3x3_s2_0_split <- pool4/3x3_s2
I0510 00:08:41.920110 27151 net.cpp:334] pool4/3x3_s2_pool4/3x3_s2_0_split -> pool4/3x3_s2_pool4/3x3_s2_0_split_0
I0510 00:08:41.920120 27151 net.cpp:334] pool4/3x3_s2_pool4/3x3_s2_0_split -> pool4/3x3_s2_pool4/3x3_s2_0_split_1
I0510 00:08:41.920128 27151 net.cpp:334] pool4/3x3_s2_pool4/3x3_s2_0_split -> pool4/3x3_s2_pool4/3x3_s2_0_split_2
I0510 00:08:41.920137 27151 net.cpp:334] pool4/3x3_s2_pool4/3x3_s2_0_split -> pool4/3x3_s2_pool4/3x3_s2_0_split_3
I0510 00:08:41.920145 27151 net.cpp:105] Setting up pool4/3x3_s2_pool4/3x3_s2_0_split
I0510 00:08:41.920152 27151 net.cpp:112] Top shape: 32 832 7 7 (1304576)
I0510 00:08:41.920157 27151 net.cpp:112] Top shape: 32 832 7 7 (1304576)
I0510 00:08:41.920162 27151 net.cpp:112] Top shape: 32 832 7 7 (1304576)
I0510 00:08:41.920167 27151 net.cpp:112] Top shape: 32 832 7 7 (1304576)
I0510 00:08:41.920172 27151 layer_factory.hpp:74] Creating layer inception_5a/1x1
I0510 00:08:41.920187 27151 net.cpp:76] Creating Layer inception_5a/1x1
I0510 00:08:41.920193 27151 net.cpp:372] inception_5a/1x1 <- pool4/3x3_s2_pool4/3x3_s2_0_split_0
I0510 00:08:41.920204 27151 net.cpp:334] inception_5a/1x1 -> inception_5a/1x1
I0510 00:08:41.920213 27151 net.cpp:105] Setting up inception_5a/1x1
I0510 00:08:41.922003 27151 net.cpp:112] Top shape: 32 256 7 7 (401408)
I0510 00:08:41.922019 27151 layer_factory.hpp:74] Creating layer inception_5a/relu_1x1
I0510 00:08:41.922029 27151 net.cpp:76] Creating Layer inception_5a/relu_1x1
I0510 00:08:41.922036 27151 net.cpp:372] inception_5a/relu_1x1 <- inception_5a/1x1
I0510 00:08:41.922044 27151 net.cpp:323] inception_5a/relu_1x1 -> inception_5a/1x1 (in-place)
I0510 00:08:41.922067 27151 net.cpp:105] Setting up inception_5a/relu_1x1
I0510 00:08:41.922073 27151 net.cpp:112] Top shape: 32 256 7 7 (401408)
I0510 00:08:41.922080 27151 layer_factory.hpp:74] Creating layer inception_5a/3x3_reduce
I0510 00:08:41.922091 27151 net.cpp:76] Creating Layer inception_5a/3x3_reduce
I0510 00:08:41.922097 27151 net.cpp:372] inception_5a/3x3_reduce <- pool4/3x3_s2_pool4/3x3_s2_0_split_1
I0510 00:08:41.922106 27151 net.cpp:334] inception_5a/3x3_reduce -> inception_5a/3x3_reduce
I0510 00:08:41.922116 27151 net.cpp:105] Setting up inception_5a/3x3_reduce
I0510 00:08:41.923245 27151 net.cpp:112] Top shape: 32 160 7 7 (250880)
I0510 00:08:41.923260 27151 layer_factory.hpp:74] Creating layer inception_5a/relu_3x3_reduce
I0510 00:08:41.923269 27151 net.cpp:76] Creating Layer inception_5a/relu_3x3_reduce
I0510 00:08:41.923287 27151 net.cpp:372] inception_5a/relu_3x3_reduce <- inception_5a/3x3_reduce
I0510 00:08:41.923295 27151 net.cpp:323] inception_5a/relu_3x3_reduce -> inception_5a/3x3_reduce (in-place)
I0510 00:08:41.923307 27151 net.cpp:105] Setting up inception_5a/relu_3x3_reduce
I0510 00:08:41.923313 27151 net.cpp:112] Top shape: 32 160 7 7 (250880)
I0510 00:08:41.923318 27151 layer_factory.hpp:74] Creating layer inception_5a/3x3
I0510 00:08:41.923327 27151 net.cpp:76] Creating Layer inception_5a/3x3
I0510 00:08:41.923332 27151 net.cpp:372] inception_5a/3x3 <- inception_5a/3x3_reduce
I0510 00:08:41.923341 27151 net.cpp:334] inception_5a/3x3 -> inception_5a/3x3
I0510 00:08:41.923349 27151 net.cpp:105] Setting up inception_5a/3x3
I0510 00:08:41.927255 27151 net.cpp:112] Top shape: 32 320 7 7 (501760)
I0510 00:08:41.927290 27151 layer_factory.hpp:74] Creating layer inception_5a/relu_3x3
I0510 00:08:41.927302 27151 net.cpp:76] Creating Layer inception_5a/relu_3x3
I0510 00:08:41.928402 27151 net.cpp:372] inception_5a/relu_3x3 <- inception_5a/3x3
I0510 00:08:41.928414 27151 net.cpp:323] inception_5a/relu_3x3 -> inception_5a/3x3 (in-place)
I0510 00:08:41.928424 27151 net.cpp:105] Setting up inception_5a/relu_3x3
I0510 00:08:41.928431 27151 net.cpp:112] Top shape: 32 320 7 7 (501760)
I0510 00:08:41.928436 27151 layer_factory.hpp:74] Creating layer inception_5a/5x5_reduce
I0510 00:08:41.928445 27151 net.cpp:76] Creating Layer inception_5a/5x5_reduce
I0510 00:08:41.928452 27151 net.cpp:372] inception_5a/5x5_reduce <- pool4/3x3_s2_pool4/3x3_s2_0_split_2
I0510 00:08:41.928463 27151 net.cpp:334] inception_5a/5x5_reduce -> inception_5a/5x5_reduce
I0510 00:08:41.928473 27151 net.cpp:105] Setting up inception_5a/5x5_reduce
I0510 00:08:41.928714 27151 net.cpp:112] Top shape: 32 32 7 7 (50176)
I0510 00:08:41.928728 27151 layer_factory.hpp:74] Creating layer inception_5a/relu_5x5_reduce
I0510 00:08:41.928736 27151 net.cpp:76] Creating Layer inception_5a/relu_5x5_reduce
I0510 00:08:41.928742 27151 net.cpp:372] inception_5a/relu_5x5_reduce <- inception_5a/5x5_reduce
I0510 00:08:41.928750 27151 net.cpp:323] inception_5a/relu_5x5_reduce -> inception_5a/5x5_reduce (in-place)
I0510 00:08:41.928757 27151 net.cpp:105] Setting up inception_5a/relu_5x5_reduce
I0510 00:08:41.928763 27151 net.cpp:112] Top shape: 32 32 7 7 (50176)
I0510 00:08:41.928769 27151 layer_factory.hpp:74] Creating layer inception_5a/5x5
I0510 00:08:41.928781 27151 net.cpp:76] Creating Layer inception_5a/5x5
I0510 00:08:41.928786 27151 net.cpp:372] inception_5a/5x5 <- inception_5a/5x5_reduce
I0510 00:08:41.928794 27151 net.cpp:334] inception_5a/5x5 -> inception_5a/5x5
I0510 00:08:41.928803 27151 net.cpp:105] Setting up inception_5a/5x5
I0510 00:08:41.929677 27151 net.cpp:112] Top shape: 32 128 7 7 (200704)
I0510 00:08:41.929693 27151 layer_factory.hpp:74] Creating layer inception_5a/relu_5x5
I0510 00:08:41.929704 27151 net.cpp:76] Creating Layer inception_5a/relu_5x5
I0510 00:08:41.929711 27151 net.cpp:372] inception_5a/relu_5x5 <- inception_5a/5x5
I0510 00:08:41.929718 27151 net.cpp:323] inception_5a/relu_5x5 -> inception_5a/5x5 (in-place)
I0510 00:08:41.929728 27151 net.cpp:105] Setting up inception_5a/relu_5x5
I0510 00:08:41.929757 27151 net.cpp:112] Top shape: 32 128 7 7 (200704)
I0510 00:08:41.929764 27151 layer_factory.hpp:74] Creating layer inception_5a/pool
I0510 00:08:41.929775 27151 net.cpp:76] Creating Layer inception_5a/pool
I0510 00:08:41.929782 27151 net.cpp:372] inception_5a/pool <- pool4/3x3_s2_pool4/3x3_s2_0_split_3
I0510 00:08:41.929791 27151 net.cpp:334] inception_5a/pool -> inception_5a/pool
I0510 00:08:41.929800 27151 net.cpp:105] Setting up inception_5a/pool
I0510 00:08:41.929808 27151 net.cpp:112] Top shape: 32 832 7 7 (1304576)
I0510 00:08:41.929815 27151 layer_factory.hpp:74] Creating layer inception_5a/pool_proj
I0510 00:08:41.929826 27151 net.cpp:76] Creating Layer inception_5a/pool_proj
I0510 00:08:41.929831 27151 net.cpp:372] inception_5a/pool_proj <- inception_5a/pool
I0510 00:08:41.929839 27151 net.cpp:334] inception_5a/pool_proj -> inception_5a/pool_proj
I0510 00:08:41.929848 27151 net.cpp:105] Setting up inception_5a/pool_proj
I0510 00:08:41.930755 27151 net.cpp:112] Top shape: 32 128 7 7 (200704)
I0510 00:08:41.930770 27151 layer_factory.hpp:74] Creating layer inception_5a/relu_pool_proj
I0510 00:08:41.930778 27151 net.cpp:76] Creating Layer inception_5a/relu_pool_proj
I0510 00:08:41.930784 27151 net.cpp:372] inception_5a/relu_pool_proj <- inception_5a/pool_proj
I0510 00:08:41.930794 27151 net.cpp:323] inception_5a/relu_pool_proj -> inception_5a/pool_proj (in-place)
I0510 00:08:41.930804 27151 net.cpp:105] Setting up inception_5a/relu_pool_proj
I0510 00:08:41.930809 27151 net.cpp:112] Top shape: 32 128 7 7 (200704)
I0510 00:08:41.930814 27151 layer_factory.hpp:74] Creating layer inception_5a/output
I0510 00:08:41.930822 27151 net.cpp:76] Creating Layer inception_5a/output
I0510 00:08:41.930829 27151 net.cpp:372] inception_5a/output <- inception_5a/1x1
I0510 00:08:41.930835 27151 net.cpp:372] inception_5a/output <- inception_5a/3x3
I0510 00:08:41.930841 27151 net.cpp:372] inception_5a/output <- inception_5a/5x5
I0510 00:08:41.930847 27151 net.cpp:372] inception_5a/output <- inception_5a/pool_proj
I0510 00:08:41.930855 27151 net.cpp:334] inception_5a/output -> inception_5a/output
I0510 00:08:41.930863 27151 net.cpp:105] Setting up inception_5a/output
I0510 00:08:41.930869 27151 net.cpp:112] Top shape: 32 832 7 7 (1304576)
I0510 00:08:41.930876 27151 layer_factory.hpp:74] Creating layer inception_5a/output_inception_5a/output_0_split
I0510 00:08:41.930883 27151 net.cpp:76] Creating Layer inception_5a/output_inception_5a/output_0_split
I0510 00:08:41.930889 27151 net.cpp:372] inception_5a/output_inception_5a/output_0_split <- inception_5a/output
I0510 00:08:41.930899 27151 net.cpp:334] inception_5a/output_inception_5a/output_0_split -> inception_5a/output_inception_5a/output_0_split_0
I0510 00:08:41.930910 27151 net.cpp:334] inception_5a/output_inception_5a/output_0_split -> inception_5a/output_inception_5a/output_0_split_1
I0510 00:08:41.930919 27151 net.cpp:334] inception_5a/output_inception_5a/output_0_split -> inception_5a/output_inception_5a/output_0_split_2
I0510 00:08:41.930929 27151 net.cpp:334] inception_5a/output_inception_5a/output_0_split -> inception_5a/output_inception_5a/output_0_split_3
I0510 00:08:41.930938 27151 net.cpp:105] Setting up inception_5a/output_inception_5a/output_0_split
I0510 00:08:41.930944 27151 net.cpp:112] Top shape: 32 832 7 7 (1304576)
I0510 00:08:41.930949 27151 net.cpp:112] Top shape: 32 832 7 7 (1304576)
I0510 00:08:41.930954 27151 net.cpp:112] Top shape: 32 832 7 7 (1304576)
I0510 00:08:41.930959 27151 net.cpp:112] Top shape: 32 832 7 7 (1304576)
I0510 00:08:41.930964 27151 layer_factory.hpp:74] Creating layer inception_5b/1x1
I0510 00:08:41.930975 27151 net.cpp:76] Creating Layer inception_5b/1x1
I0510 00:08:41.930982 27151 net.cpp:372] inception_5b/1x1 <- inception_5a/output_inception_5a/output_0_split_0
I0510 00:08:41.930990 27151 net.cpp:334] inception_5b/1x1 -> inception_5b/1x1
I0510 00:08:41.930999 27151 net.cpp:105] Setting up inception_5b/1x1
I0510 00:08:41.933681 27151 net.cpp:112] Top shape: 32 384 7 7 (602112)
I0510 00:08:41.933697 27151 layer_factory.hpp:74] Creating layer inception_5b/relu_1x1
I0510 00:08:41.933719 27151 net.cpp:76] Creating Layer inception_5b/relu_1x1
I0510 00:08:41.933727 27151 net.cpp:372] inception_5b/relu_1x1 <- inception_5b/1x1
I0510 00:08:41.933734 27151 net.cpp:323] inception_5b/relu_1x1 -> inception_5b/1x1 (in-place)
I0510 00:08:41.933743 27151 net.cpp:105] Setting up inception_5b/relu_1x1
I0510 00:08:41.933751 27151 net.cpp:112] Top shape: 32 384 7 7 (602112)
I0510 00:08:41.933758 27151 layer_factory.hpp:74] Creating layer inception_5b/3x3_reduce
I0510 00:08:41.933769 27151 net.cpp:76] Creating Layer inception_5b/3x3_reduce
I0510 00:08:41.933776 27151 net.cpp:372] inception_5b/3x3_reduce <- inception_5a/output_inception_5a/output_0_split_1
I0510 00:08:41.933785 27151 net.cpp:334] inception_5b/3x3_reduce -> inception_5b/3x3_reduce
I0510 00:08:41.933796 27151 net.cpp:105] Setting up inception_5b/3x3_reduce
I0510 00:08:41.935139 27151 net.cpp:112] Top shape: 32 192 7 7 (301056)
I0510 00:08:41.935154 27151 layer_factory.hpp:74] Creating layer inception_5b/relu_3x3_reduce
I0510 00:08:41.935163 27151 net.cpp:76] Creating Layer inception_5b/relu_3x3_reduce
I0510 00:08:41.935169 27151 net.cpp:372] inception_5b/relu_3x3_reduce <- inception_5b/3x3_reduce
I0510 00:08:41.935180 27151 net.cpp:323] inception_5b/relu_3x3_reduce -> inception_5b/3x3_reduce (in-place)
I0510 00:08:41.935189 27151 net.cpp:105] Setting up inception_5b/relu_3x3_reduce
I0510 00:08:41.935195 27151 net.cpp:112] Top shape: 32 192 7 7 (301056)
I0510 00:08:41.935200 27151 layer_factory.hpp:74] Creating layer inception_5b/3x3
I0510 00:08:41.935209 27151 net.cpp:76] Creating Layer inception_5b/3x3
I0510 00:08:41.935215 27151 net.cpp:372] inception_5b/3x3 <- inception_5b/3x3_reduce
I0510 00:08:41.935225 27151 net.cpp:334] inception_5b/3x3 -> inception_5b/3x3
I0510 00:08:41.935253 27151 net.cpp:105] Setting up inception_5b/3x3
I0510 00:08:41.941218 27151 net.cpp:112] Top shape: 32 384 7 7 (602112)
I0510 00:08:41.941246 27151 layer_factory.hpp:74] Creating layer inception_5b/relu_3x3
I0510 00:08:41.941268 27151 net.cpp:76] Creating Layer inception_5b/relu_3x3
I0510 00:08:41.941278 27151 net.cpp:372] inception_5b/relu_3x3 <- inception_5b/3x3
I0510 00:08:41.941289 27151 net.cpp:323] inception_5b/relu_3x3 -> inception_5b/3x3 (in-place)
I0510 00:08:41.941299 27151 net.cpp:105] Setting up inception_5b/relu_3x3
I0510 00:08:41.941305 27151 net.cpp:112] Top shape: 32 384 7 7 (602112)
I0510 00:08:41.941311 27151 layer_factory.hpp:74] Creating layer inception_5b/5x5_reduce
I0510 00:08:41.941321 27151 net.cpp:76] Creating Layer inception_5b/5x5_reduce
I0510 00:08:41.941328 27151 net.cpp:372] inception_5b/5x5_reduce <- inception_5a/output_inception_5a/output_0_split_2
I0510 00:08:41.941336 27151 net.cpp:334] inception_5b/5x5_reduce -> inception_5b/5x5_reduce
I0510 00:08:41.941346 27151 net.cpp:105] Setting up inception_5b/5x5_reduce
I0510 00:08:41.941692 27151 net.cpp:112] Top shape: 32 48 7 7 (75264)
I0510 00:08:41.941706 27151 layer_factory.hpp:74] Creating layer inception_5b/relu_5x5_reduce
I0510 00:08:41.941715 27151 net.cpp:76] Creating Layer inception_5b/relu_5x5_reduce
I0510 00:08:41.941720 27151 net.cpp:372] inception_5b/relu_5x5_reduce <- inception_5b/5x5_reduce
I0510 00:08:41.941730 27151 net.cpp:323] inception_5b/relu_5x5_reduce -> inception_5b/5x5_reduce (in-place)
I0510 00:08:41.941740 27151 net.cpp:105] Setting up inception_5b/relu_5x5_reduce
I0510 00:08:41.941745 27151 net.cpp:112] Top shape: 32 48 7 7 (75264)
I0510 00:08:41.941751 27151 layer_factory.hpp:74] Creating layer inception_5b/5x5
I0510 00:08:41.941758 27151 net.cpp:76] Creating Layer inception_5b/5x5
I0510 00:08:41.941764 27151 net.cpp:372] inception_5b/5x5 <- inception_5b/5x5_reduce
I0510 00:08:41.941772 27151 net.cpp:334] inception_5b/5x5 -> inception_5b/5x5
I0510 00:08:41.941781 27151 net.cpp:105] Setting up inception_5b/5x5
I0510 00:08:41.943073 27151 net.cpp:112] Top shape: 32 128 7 7 (200704)
I0510 00:08:41.943087 27151 layer_factory.hpp:74] Creating layer inception_5b/relu_5x5
I0510 00:08:41.943099 27151 net.cpp:76] Creating Layer inception_5b/relu_5x5
I0510 00:08:41.943131 27151 net.cpp:372] inception_5b/relu_5x5 <- inception_5b/5x5
I0510 00:08:41.943140 27151 net.cpp:323] inception_5b/relu_5x5 -> inception_5b/5x5 (in-place)
I0510 00:08:41.943148 27151 net.cpp:105] Setting up inception_5b/relu_5x5
I0510 00:08:41.943155 27151 net.cpp:112] Top shape: 32 128 7 7 (200704)
I0510 00:08:41.943159 27151 layer_factory.hpp:74] Creating layer inception_5b/pool
I0510 00:08:41.943168 27151 net.cpp:76] Creating Layer inception_5b/pool
I0510 00:08:41.943174 27151 net.cpp:372] inception_5b/pool <- inception_5a/output_inception_5a/output_0_split_3
I0510 00:08:41.943182 27151 net.cpp:334] inception_5b/pool -> inception_5b/pool
I0510 00:08:41.943192 27151 net.cpp:105] Setting up inception_5b/pool
I0510 00:08:41.943199 27151 net.cpp:112] Top shape: 32 832 7 7 (1304576)
I0510 00:08:41.943208 27151 layer_factory.hpp:74] Creating layer inception_5b/pool_proj
I0510 00:08:41.943220 27151 net.cpp:76] Creating Layer inception_5b/pool_proj
I0510 00:08:41.943228 27151 net.cpp:372] inception_5b/pool_proj <- inception_5b/pool
I0510 00:08:41.943238 27151 net.cpp:334] inception_5b/pool_proj -> inception_5b/pool_proj
I0510 00:08:41.943248 27151 net.cpp:105] Setting up inception_5b/pool_proj
I0510 00:08:41.944154 27151 net.cpp:112] Top shape: 32 128 7 7 (200704)
I0510 00:08:41.944169 27151 layer_factory.hpp:74] Creating layer inception_5b/relu_pool_proj
I0510 00:08:41.944180 27151 net.cpp:76] Creating Layer inception_5b/relu_pool_proj
I0510 00:08:41.944186 27151 net.cpp:372] inception_5b/relu_pool_proj <- inception_5b/pool_proj
I0510 00:08:41.944193 27151 net.cpp:323] inception_5b/relu_pool_proj -> inception_5b/pool_proj (in-place)
I0510 00:08:41.944202 27151 net.cpp:105] Setting up inception_5b/relu_pool_proj
I0510 00:08:41.944207 27151 net.cpp:112] Top shape: 32 128 7 7 (200704)
I0510 00:08:41.944213 27151 layer_factory.hpp:74] Creating layer inception_5b/output
I0510 00:08:41.944221 27151 net.cpp:76] Creating Layer inception_5b/output
I0510 00:08:41.944227 27151 net.cpp:372] inception_5b/output <- inception_5b/1x1
I0510 00:08:41.944233 27151 net.cpp:372] inception_5b/output <- inception_5b/3x3
I0510 00:08:41.944239 27151 net.cpp:372] inception_5b/output <- inception_5b/5x5
I0510 00:08:41.944246 27151 net.cpp:372] inception_5b/output <- inception_5b/pool_proj
I0510 00:08:41.944270 27151 net.cpp:334] inception_5b/output -> inception_5b/output
I0510 00:08:41.944283 27151 net.cpp:105] Setting up inception_5b/output
I0510 00:08:41.944289 27151 net.cpp:112] Top shape: 32 1024 7 7 (1605632)
I0510 00:08:41.944294 27151 layer_factory.hpp:74] Creating layer pool5/7x7_s1
I0510 00:08:41.944303 27151 net.cpp:76] Creating Layer pool5/7x7_s1
I0510 00:08:41.944308 27151 net.cpp:372] pool5/7x7_s1 <- inception_5b/output
I0510 00:08:41.944316 27151 net.cpp:334] pool5/7x7_s1 -> pool5/7x7_s1
I0510 00:08:41.944324 27151 net.cpp:105] Setting up pool5/7x7_s1
I0510 00:08:41.944331 27151 net.cpp:112] Top shape: 32 1024 1 1 (32768)
I0510 00:08:41.944336 27151 layer_factory.hpp:74] Creating layer pool5/drop_7x7_s1
I0510 00:08:41.944349 27151 net.cpp:76] Creating Layer pool5/drop_7x7_s1
I0510 00:08:41.944355 27151 net.cpp:372] pool5/drop_7x7_s1 <- pool5/7x7_s1
I0510 00:08:41.944361 27151 net.cpp:323] pool5/drop_7x7_s1 -> pool5/7x7_s1 (in-place)
I0510 00:08:41.944370 27151 net.cpp:105] Setting up pool5/drop_7x7_s1
I0510 00:08:41.944380 27151 net.cpp:112] Top shape: 32 1024 1 1 (32768)
I0510 00:08:41.944385 27151 layer_factory.hpp:74] Creating layer loss3/classifier
I0510 00:08:41.944394 27151 net.cpp:76] Creating Layer loss3/classifier
I0510 00:08:41.944401 27151 net.cpp:372] loss3/classifier <- pool5/7x7_s1
I0510 00:08:41.944411 27151 net.cpp:334] loss3/classifier -> loss3/classifier
I0510 00:08:41.944421 27151 net.cpp:105] Setting up loss3/classifier
I0510 00:08:41.944453 27151 net.cpp:112] Top shape: 32 2 1 1 (64)
I0510 00:08:41.944463 27151 layer_factory.hpp:74] Creating layer loss3/loss3
I0510 00:08:41.944474 27151 net.cpp:76] Creating Layer loss3/loss3
I0510 00:08:41.944480 27151 net.cpp:372] loss3/loss3 <- loss3/classifier
I0510 00:08:41.944499 27151 net.cpp:372] loss3/loss3 <- label_data_1_split_2
I0510 00:08:41.944509 27151 net.cpp:334] loss3/loss3 -> loss3/loss3
I0510 00:08:41.944519 27151 net.cpp:105] Setting up loss3/loss3
I0510 00:08:41.944526 27151 layer_factory.hpp:74] Creating layer loss3/loss3
I0510 00:08:41.944542 27151 net.cpp:112] Top shape: 1 1 1 1 (1)
I0510 00:08:41.944548 27151 net.cpp:118]     with loss weight 1
I0510 00:08:41.944566 27151 net.cpp:163] loss3/loss3 needs backward computation.
I0510 00:08:41.944571 27151 net.cpp:163] loss3/classifier needs backward computation.
I0510 00:08:41.944597 27151 net.cpp:163] pool5/drop_7x7_s1 needs backward computation.
I0510 00:08:41.944603 27151 net.cpp:163] pool5/7x7_s1 needs backward computation.
…
I0510 00:08:41.952569 27151 solver.cpp:154] Creating test net (#0) specified by net file: ../../train_val.prototxt
I0510 00:08:41.952808 27151 net.cpp:253] The NetState phase (1) differed from the phase (0) specified by a rule in layer data
I0510 00:08:41.954211 27151 net.cpp:42] Initializing net from parameters: 
name: "GoogleNet"
state {
  phase: TEST
}
layer {
  name: "data"
  type: "Data"
  top: "data"
  top: "label"
  include {
    phase: TEST
  }
  transform_param {
    mirror: false
    crop_size: 224
    mean_value: 104
    mean_value: 117
    mean_value: 123
  }
  data_param {
    source: "val_lmdb"
    batch_size: 32
    backend: LMDB
  }
}
layer {
  name: "conv1/7x7_s2"
  type: "Convolution"
  bottom: "data"
  top: "conv1/7x7_s2"
  param {
    lr_mult: 1
    decay_mult: 1
  }
  param {
    lr_mult: 2
    decay_mult: 0
  }
  convolution_param {
    num_output: 64
    pad: 3
    kernel_size: 7
    stride: 2
    weight_filler {
      type: "xavier"
      std: 0.1
    }
    bias_filler {
      type: "constant"
      value: 0.2
    }
  }
}
layer {
  name: "conv1/relu_7x7"
  type: "ReLU"
  bottom: "conv1/7x7_s2"
  top: "conv1/7x7_s2"
}
layer {
  name: "pool1/3x3_s2"
  type: "Pooling"
  bottom: "conv1/7x7_s2"
  top: "pool1/3x3_s2"
  pooling_param {
    pool: MAX
    kernel_size: 3
    stride: 2
  }
}
layer {
  name: "pool1/norm1"
  type: "LRN"
  bottom: "pool1/3x3_s2"
  top: "pool1/norm1"
  lrn_param {
    local_size: 5
    alpha: 0.0001
    beta: 0.75
  }
}
layer {
  name: "conv2/3x3_reduce"
  type: "Convolution"
  bottom: "pool1/norm1"
  top: "conv2/3x3_reduce"
  param {
    lr_mult: 1
    decay_mult: 1
  }
  param {
    lr_mult: 2
    decay_mult: 0
  }
  convolution_param {
    num_output: 64
    kernel_size: 1
    weight_filler {
      type: "xavier"
      std: 0.1
    }
    bias_filler {
      type: "constant"
      value: 0.2
    }
  }
}
layer {
  name: "conv2/relu_3x3_reduce"
  type: "ReLU"
  bottom: "conv2/3x3_reduce"
  top: "conv2/3x3_reduce"
}
layer {
  name: "conv2/3x3"
  type: "Convolution"
  bottom: "conv2/3x3_reduce"
  top: "conv2/3x3"
  param {
    lr_mult: 1
    decay_mult: 1
  }
  param {
    lr_mult: 2
    decay_mult: 0
  }
  convolution_param {
    num_output: 192
    pad: 1
    kernel_size: 3
    weight_filler {
      type: "xavier"
      std: 0.03
    }
    bias_filler {
      type: "constant"
      value: 0.2
    }
  }
}
layer {
  name: "conv2/relu_3x3"
  type: "ReLU"
  bottom: "conv2/3x3"
  top: "conv2/3x3"
}
layer {
  name: "conv2/norm2"
  type: "LRN"
  bottom: "conv2/3x3"
  top: "conv2/norm2"
  lrn_param {
    local_size: 5
    alpha: 0.0001
    beta: 0.75
  }
}
layer {
  name: "pool2/3x3_s2"
  type: "Pooling"
  bottom: "conv2/norm2"
  top: "pool2/3x3_s2"
  pooling_param {
    pool: MAX
    kernel_size: 3
    stride: 2
  }
}
layer {
  name: "inception_3a/1x1"
  type: "Convolution"
  bottom: "pool2/3x3_s2"
  top: "inception_3a/1x1"
  param {
    lr_mult: 1
    decay_mult: 1
  }
  param {
    lr_mult: 2
    decay_mult: 0
  }
  convolution_param {
    num_output: 64
    kernel_size: 1
    weight_filler {
      type: "xavier"
      std: 0.03
    }
    bias_filler {
      type: "constant"
      value: 0.2
    }
  }
}
layer {
  name: "inception_3a/relu_1x1"
  type: "ReLU"
  bottom: "inception_3a/1x1"
  top: "inception_3a/1x1"
}
layer {
  name: "inception_3a/3x3_reduce"
  type: "Convolution"
  bottom: "pool2/3x3_s2"
  top: "inception_3a/3x3_reduce"
  param {
    lr_mult: 1
    decay_mult: 1
  }
  param {
    lr_mult: 2
    decay_mult: 0
  }
  convolution_param {
    num_output: 96
    kernel_size: 1
    weight_filler {
      type: "xavier"
      std: 0.09
    }
    bias_filler {
      type: "constant"
      value: 0.2
    }
  }
}
layer {
  name: "inception_3a/relu_3x3_reduce"
  type: "ReLU"
  bottom: "inception_3a/3x3_reduce"
  top: "inception_3a/3x3_reduce"
}
layer {
  name: "inception_3a/3x3"
  type: "Convolution"
  bottom: "inception_3a/3x3_reduce"
  top: "inception_3a/3x3"
  param {
    lr_mult: 1
    decay_mult: 1
  }
  param {
    lr_mult: 2
    decay_mult: 0
  }
  convolution_param {
    num_output: 128
    pad: 1
    kernel_size: 3
    weight_filler {
      type: "xavier"
      std: 0.03
    }
    bias_filler {
      type: "constant"
      value: 0.2
    }
  }
}
layer {
  name: "inception_3a/relu_3x3"
  type: "ReLU"
  bottom: "inception_3a/3x3"
  top: "inception_3a/3x3"
}
layer {
  name: "inception_3a/5x5_reduce"
  type: "Convolution"
  bottom: "pool2/3x3_s2"
  top: "inception_3a/5x5_reduce"
  param {
    lr_mult: 1
    decay_mult: 1
  }
  param {
    lr_mult: 2
    decay_mult: 0
  }
  convolution_param {
    num_output: 16
    kernel_size: 1
    weight_filler {
      type: "xavier"
      std: 0.2
    }
    bias_filler {
      type: "constant"
      value: 0.2
    }
  }
}
layer {
  name: "inception_3a/relu_5x5_reduce"
  type: "ReLU"
  bottom: "inception_3a/5x5_reduce"
  top: "inception_3a/5x5_reduce"
}
layer {
  name: "inception_3a/5x5"
  type: "Convolution"
  bottom: "inception_3a/5x5_reduce"
  top: "inception_3a/5x5"
  param {
    lr_mult: 1
    decay_mult: 1
  }
  param {
    lr_mult: 2
    decay_mult: 0
  }
  convolution_param {
    num_output: 32
    pad: 2
    kernel_size: 5
    weight_filler {
      type: "xavier"
      std: 0.03
    }
    bias_filler {
      type: "constant"
      value: 0.2
    }
  }
}
layer {
  name: "inception_3a/relu_5x5"
  type: "ReLU"
  bottom: "inception_3a/5x5"
  top: "inception_3a/5x5"
}
layer {
  name: "inception_3a/pool"
  type: "Pooling"
  bottom: "pool2/3x3_s2"
  top: "inception_3a/pool"
  pooling_param {
    pool: MAX
    kernel_size: 3
    stride: 1
    pad: 1
  }
}
layer {
  name: "inception_3a/pool_proj"
  type: "Convolution"
  bottom: "inception_3a/pool"
  top: "inception_3a/pool_proj"
  param {
    lr_mult: 1
    decay_mult: 1
  }
  param {
    lr_mult: 2
    decay_mult: 0
  }
  convolution_param {
    num_output: 32
    kernel_size: 1
    weight_filler {
      type: "xavier"
      std: 0.1
    }
    bias_filler {
      type: "constant"
      value: 0.2
    }
  }
}
layer {
  name: "inception_3a/relu_pool_proj"
  type: "ReLU"
  bottom: "inception_3a/pool_proj"
  top: "inception_3a/pool_proj"
}
layer {
  name: "inception_3a/output"
  type: "Concat"
  bottom: "inception_3a/1x1"
  bottom: "inception_3a/3x3"
  bottom: "inception_3a/5x5"
  bottom: "inception_3a/pool_proj"
  top: "inception_3a/output"
}
layer {
  name: "inception_3b/1x1"
  type: "Convolution"
  bottom: "inception_3a/output"
  top: "inception_3b/1x1"
  param {
    lr_mult: 1
    decay_mult: 1
  }
  param {
    lr_mult: 2
    decay_mult: 0
  }
  convolution_param {
    num_output: 128
    kernel_size: 1
    weight_filler {
      type: "xavier"
      std: 0.03
    }
    bias_filler {
      type: "constant"
      value: 0.2
    }
  }
}
layer {
  name: "inception_3b/relu_1x1"
  type: "ReLU"
  bottom: "inception_3b/1x1"
  top: "inception_3b/1x1"
}
layer {
  name: "inception_3b/3x3_reduce"
  type: "Convolution"
  bottom: "inception_3a/output"
  top: "inception_3b/3x3_reduce"
  param {
    lr_mult: 1
    decay_mult: 1
  }
  param {
    lr_mult: 2
    decay_mult: 0
  }
  convolution_param {
    num_output: 128
    kernel_size: 1
    weight_filler {
      type: "xavier"
      std: 0.09
    }
    bias_filler {
      type: "constant"
      value: 0.2
    }
  }
}
layer {
  name: "inception_3b/relu_3x3_reduce"
  type: "ReLU"
  bottom: "inception_3b/3x3_reduce"
  top: "inception_3b/3x3_reduce"
}
layer {
  name: "inception_3b/3x3"
  type: "Convolution"
  bottom: "inception_3b/3x3_reduce"
  top: "inception_3b/3x3"
  param {
    lr_mult: 1
    decay_mult: 1
  }
  param {
    lr_mult: 2
    decay_mult: 0
  }
  convolution_param {
    num_output: 192
    pad: 1
    kernel_size: 3
    weight_filler {
      type: "xavier"
      std: 0.03
    }
    bias_filler {
      type: "constant"
      value: 0.2
    }
  }
}
layer {
  name: "inception_3b/relu_3x3"
  type: "ReLU"
  bottom: "inception_3b/3x3"
  top: "inception_3b/3x3"
}
layer {
  name: "inception_3b/5x5_reduce"
  type: "Convolution"
  bottom: "inception_3a/output"
  top: "inception_3b/5x5_reduce"
  param {
    lr_mult: 1
    decay_mult: 1
  }
  param {
    lr_mult: 2
    decay_mult: 0
  }
  convolution_param {
    num_output: 32
    kernel_size: 1
    weight_filler {
      type: "xavier"
      std: 0.2
    }
    bias_filler {
      type: "constant"
      value: 0.2
    }
  }
}
layer {
  name: "inception_3b/relu_5x5_reduce"
  type: "ReLU"
  bottom: "inception_3b/5x5_reduce"
  top: "inception_3b/5x5_reduce"
}
layer {
  name: "inception_3b/5x5"
  type: "Convolution"
  bottom: "inception_3b/5x5_reduce"
  top: "inception_3b/5x5"
  param {
    lr_mult: 1
    decay_mult: 1
  }
  param {
    lr_mult: 2
    decay_mult: 0
  }
  convolution_param {
    num_output: 96
    pad: 2
    kernel_size: 5
    weight_filler {
      type: "xavier"
      std: 0.03
    }
    bias_filler {
      type: "constant"
      value: 0.2
    }
  }
}
layer {
  name: "inception_3b/relu_5x5"
  type: "ReLU"
  bottom: "inception_3b/5x5"
  top: "inception_3b/5x5"
}
layer {
  name: "inception_3b/pool"
  type: "Pooling"
  bottom: "inception_3a/output"
  top: "inception_3b/pool"
  pooling_param {
    pool: MAX
    kernel_size: 3
    stride: 1
    pad: 1
  }
}
layer {
  name: "inception_3b/pool_proj"
  type: "Convolution"
  bottom: "inception_3b/pool"
  top: "inception_3b/pool_proj"
  param {
    lr_mult: 1
    decay_mult: 1
  }
  param {
    lr_mult: 2
    decay_mult: 0
  }
  convolution_param {
    num_output: 64
    kernel_size: 1
    weight_filler {
      type: "xavier"
      std: 0.1
    }
    bias_filler {
      type: "constant"
      value: 0.2
    }
  }
}
layer {
  name: "inception_3b/relu_pool_proj"
  type: "ReLU"
  bottom: "inception_3b/pool_proj"
  top: "inception_3b/pool_proj"
}
layer {
  name: "inception_3b/output"
  type: "Concat"
  bottom: "inception_3b/1x1"
  bottom: "inception_3b/3x3"
  bottom: "inception_3b/5x5"
  bottom: "inception_3b/pool_proj"
  top: "inception_3b/output"
}
layer {
  name: "pool3/3x3_s2"
  type: "Pooling"
  bottom: "inception_3b/output"
  top: "pool3/3x3_s2"
  pooling_param {
    pool: MAX
    kernel_size: 3
    stride: 2
  }
}
layer {
  name: "inception_4a/1x1"
  type: "Convolution"
  bottom: "pool3/3x3_s2"
  top: "inception_4a/1x1"
  param {
    lr_mult: 1
    decay_mult: 1
  }
  param {
    lr_mult: 2
    decay_mult: 0
  }
  convolution_param {
    num_output: 192
    kernel_size: 1
    weight_filler {
      type: "xavier"
      std: 0.03
    }
    bias_filler {
      type: "constant"
      value: 0.2
    }
  }
}
layer {
  name: "inception_4a/relu_1x1"
  type: "ReLU"
  bottom: "inception_4a/1x1"
  top: "inception_4a/1x1"
}
layer {
  name: "inception_4a/3x3_reduce"
  type: "Convolution"
  bottom: "pool3/3x3_s2"
  top: "inception_4a/3x3_reduce"
  param {
    lr_mult: 1
    decay_mult: 1
  }
  param {
    lr_mult: 2
    decay_mult: 0
  }
  convolution_param {
    num_output: 96
    kernel_size: 1
    weight_filler {
      type: "xavier"
      std: 0.09
    }
    bias_filler {
      type: "constant"
      value: 0.2
    }
  }
}
layer {
  name: "inception_4a/relu_3x3_reduce"
  type: "ReLU"
  bottom: "inception_4a/3x3_reduce"
  top: "inception_4a/3x3_reduce"
}
layer {
  name: "inception_4a/3x3"
  type: "Convolution"
  bottom: "inception_4a/3x3_reduce"
  top: "inception_4a/3x3"
  param {
    lr_mult: 1
    decay_mult: 1
  }
  param {
    lr_mult: 2
    decay_mult: 0
  }
  convolution_param {
    num_output: 208
    pad: 1
    kernel_size: 3
    weight_filler {
      type: "xavier"
      std: 0.03
    }
    bias_filler {
      type: "constant"
      value: 0.2
    }
  }
}
layer {
  name: "inception_4a/relu_3x3"
  type: "ReLU"
  bottom: "inception_4a/3x3"
  top: "inception_4a/3x3"
}
layer {
  name: "inception_4a/5x5_reduce"
  type: "Convolution"
  bottom: "pool3/3x3_s2"
  top: "inception_4a/5x5_reduce"
  param {
    lr_mult: 1
    decay_mult: 1
  }
  param {
    lr_mult: 2
    decay_mult: 0
  }
  convolution_param {
    num_output: 16
    kernel_size: 1
    weight_filler {
      type: "xavier"
      std: 0.2
    }
    bias_filler {
      type: "constant"
      value: 0.2
    }
  }
}
layer {
  name: "inception_4a/relu_5x5_reduce"
  type: "ReLU"
  bottom: "inception_4a/5x5_reduce"
  top: "inception_4a/5x5_reduce"
}
layer {
  name: "inception_4a/5x5"
  type: "Convolution"
  bottom: "inception_4a/5x5_reduce"
  top: "inception_4a/5x5"
  param {
    lr_mult: 1
    decay_mult: 1
  }
  param {
    lr_mult: 2
    decay_mult: 0
  }
  convolution_param {
    num_output: 48
    pad: 2
    kernel_size: 5
    weight_filler {
      type: "xavier"
      std: 0.03
    }
    bias_filler {
      type: "constant"
      value: 0.2
    }
  }
}
layer {
  name: "inception_4a/relu_5x5"
  type: "ReLU"
  bottom: "inception_4a/5x5"
  top: "inception_4a/5x5"
}
layer {
  name: "inception_4a/pool"
  type: "Pooling"
  bottom: "pool3/3x3_s2"
  top: "inception_4a/pool"
  pooling_param {
    pool: MAX
    kernel_size: 3
    stride: 1
    pad: 1
  }
}
layer {
  name: "inception_4a/pool_proj"
  type: "Convolution"
  bottom: "inception_4a/pool"
  top: "inception_4a/pool_proj"
  param {
    lr_mult: 1
    decay_mult: 1
  }
  param {
    lr_mult: 2
    decay_mult: 0
  }
  convolution_param {
    num_output: 64
    kernel_size: 1
    weight_filler {
      type: "xavier"
      std: 0.1
    }
    bias_filler {
      type: "constant"
      value: 0.2
    }
  }
}
layer {
  name: "inception_4a/relu_pool_proj"
  type: "ReLU"
  bottom: "inception_4a/pool_proj"
  top: "inception_4a/pool_proj"
}
layer {
  name: "inception_4a/output"
  type: "Concat"
  bottom: "inception_4a/1x1"
  bottom: "inception_4a/3x3"
  bottom: "inception_4a/5x5"
  bottom: "inception_4a/pool_proj"
  top: "inception_4a/output"
}
layer {
  name: "loss1/ave_pool"
  type: "Pooling"
  bottom: "inception_4a/output"
  top: "loss1/ave_pool"
  pooling_param {
    pool: AVE
    kernel_size: 5
    stride: 3
  }
}
layer {
  name: "loss1/conv"
  type: "Convolution"
  bottom: "loss1/ave_pool"
  top: "loss1/conv"
  param {
    lr_mult: 1
    decay_mult: 1
  }
  param {
    lr_mult: 2
    decay_mult: 0
  }
  convolution_param {
    num_output: 128
    kernel_size: 1
    weight_filler {
      type: "xavier"
      std: 0.08
    }
    bias_filler {
      type: "constant"
      value: 0.2
    }
  }
}
layer {
  name: "loss1/relu_conv"
  type: "ReLU"
  bottom: "loss1/conv"
  top: "loss1/conv"
}
layer {
  name: "loss1/fc"
  type: "InnerProduct"
  bottom: "loss1/conv"
  top: "loss1/fc"
  param {
    lr_mult: 1
    decay_mult: 1
  }
  param {
    lr_mult: 2
    decay_mult: 0
  }
  inner_product_param {
    num_output: 1024
    weight_filler {
      type: "xavier"
      std: 0.02
    }
    bias_filler {
      type: "constant"
      value: 0.2
    }
  }
}
layer {
  name: "loss1/relu_fc"
  type: "ReLU"
  bottom: "loss1/fc"
  top: "loss1/fc"
}
layer {
  name: "loss1/drop_fc"
  type: "Dropout"
  bottom: "loss1/fc"
  top: "loss1/fc"
  dropout_param {
    dropout_ratio: 0.7
  }
}
layer {
  name: "loss1/classifier"
  type: "InnerProduct"
  bottom: "loss1/fc"
  top: "loss1/classifier"
  param {
    lr_mult: 1
    decay_mult: 1
  }
  param {
    lr_mult: 2
    decay_mult: 0
  }
  inner_product_param {
    num_output: 2
    weight_filler {
      type: "xavier"
      std: 0.0009765625
    }
    bias_filler {
      type: "constant"
      value: 0
    }
  }
}
layer {
  name: "loss1/loss"
  type: "SoftmaxWithLoss"
  bottom: "loss1/classifier"
  bottom: "label"
  top: "loss1/loss1"
  loss_weight: 0.3
}
layer {
  name: "loss1/top-1"
  type: "Accuracy"
  bottom: "loss1/classifier"
  bottom: "label"
  top: "loss1/top-1"
  include {
    phase: TEST
  }
}
layer {
  name: "inception_4b/1x1"
  type: "Convolution"
  bottom: "inception_4a/output"
  top: "inception_4b/1x1"
  param {
    lr_mult: 1
    decay_mult: 1
  }
  param {
    lr_mult: 2
    decay_mult: 0
  }
  convolution_param {
    num_output: 160
    kernel_size: 1
    weight_filler {
      type: "xavier"
      std: 0.03
    }
    bias_filler {
      type: "constant"
      value: 0.2
    }
  }
}
layer {
  name: "inception_4b/relu_1x1"
  type: "ReLU"
  bottom: "inception_4b/1x1"
  top: "inception_4b/1x1"
}
layer {
  name: "inception_4b/3x3_reduce"
  type: "Convolution"
  bottom: "inception_4a/output"
  top: "inception_4b/3x3_reduce"
  param {
    lr_mult: 1
    decay_mult: 1
  }
  param {
    lr_mult: 2
    decay_mult: 0
  }
  convolution_param {
    num_output: 112
    kernel_size: 1
    weight_filler {
      type: "xavier"
      std: 0.09
    }
    bias_filler {
      type: "constant"
      value: 0.2
    }
  }
}
layer {
  name: "inception_4b/relu_3x3_reduce"
  type: "ReLU"
  bottom: "inception_4b/3x3_reduce"
  top: "inception_4b/3x3_reduce"
}
layer {
  name: "inception_4b/3x3"
  type: "Convolution"
  bottom: "inception_4b/3x3_reduce"
  top: "inception_4b/3x3"
  param {
    lr_mult: 1
    decay_mult: 1
  }
  param {
    lr_mult: 2
    decay_mult: 0
  }
  convolution_param {
    num_output: 224
    pad: 1
    kernel_size: 3
    weight_filler {
      type: "xavier"
      std: 0.03
    }
    bias_filler {
      type: "constant"
      value: 0.2
    }
  }
}
layer {
  name: "inception_4b/relu_3x3"
  type: "ReLU"
  bottom: "inception_4b/3x3"
  top: "inception_4b/3x3"
}
layer {
  name: "inception_4b/5x5_reduce"
  type: "Convolution"
  bottom: "inception_4a/output"
  top: "inception_4b/5x5_reduce"
  param {
    lr_mult: 1
    decay_mult: 1
  }
  param {
    lr_mult: 2
    decay_mult: 0
  }
  convolution_param {
    num_output: 24
    kernel_size: 1
    weight_filler {
      type: "xavier"
      std: 0.2
    }
    bias_filler {
      type: "constant"
      value: 0.2
    }
  }
}
layer {
  name: "inception_4b/relu_5x5_reduce"
  type: "ReLU"
  bottom: "inception_4b/5x5_reduce"
  top: "inception_4b/5x5_reduce"
}
layer {
  name: "inception_4b/5x5"
  type: "Convolution"
  bottom: "inception_4b/5x5_reduce"
  top: "inception_4b/5x5"
  param {
    lr_mult: 1
    decay_mult: 1
  }
  param {
    lr_mult: 2
    decay_mult: 0
  }
  convolution_param {
    num_output: 64
    pad: 2
    kernel_size: 5
    weight_filler {
      type: "xavier"
      std: 0.03
    }
    bias_filler {
      type: "constant"
      value: 0.2
    }
  }
}
layer {
  name: "inception_4b/relu_5x5"
  type: "ReLU"
  bottom: "inception_4b/5x5"
  top: "inception_4b/5x5"
}
layer {
  name: "inception_4b/pool"
  type: "Pooling"
  bottom: "inception_4a/output"
  top: "inception_4b/pool"
  pooling_param {
    pool: MAX
    kernel_size: 3
    stride: 1
    pad: 1
  }
}
layer {
  name: "inception_4b/pool_proj"
  type: "Convolution"
  bottom: "inception_4b/pool"
  top: "inception_4b/pool_proj"
  param {
    lr_mult: 1
    decay_mult: 1
  }
  param {
    lr_mult: 2
    decay_mult: 0
  }
  convolution_param {
    num_output: 64
    kernel_size: 1
    weight_filler {
      type: "xavier"
      std: 0.1
    }
    bias_filler {
      type: "constant"
      value: 0.2
    }
  }
}
layer {
  name: "inception_4b/relu_pool_proj"
  type: "ReLU"
  bottom: "inception_4b/pool_proj"
  top: "inception_4b/pool_proj"
}
layer {
  name: "inception_4b/output"
  type: "Concat"
  bottom: "inception_4b/1x1"
  bottom: "inception_4b/3x3"
  bottom: "inception_4b/5x5"
  bottom: "inception_4b/pool_proj"
  top: "inception_4b/output"
}
layer {
  name: "inception_4c/1x1"
  type: "Convolution"
  bottom: "inception_4b/output"
  top: "inception_4c/1x1"
  param {
    lr_mult: 1
    decay_mult: 1
  }
  param {
    lr_mult: 2
    decay_mult: 0
  }
  convolution_param {
    num_output: 128
    kernel_size: 1
    weight_filler {
      type: "xavier"
      std: 0.03
    }
    bias_filler {
      type: "constant"
      value: 0.2
    }
  }
}
layer {
  name: "inception_4c/relu_1x1"
  type: "ReLU"
  bottom: "inception_4c/1x1"
  top: "inception_4c/1x1"
}
layer {
  name: "inception_4c/3x3_reduce"
  type: "Convolution"
  bottom: "inception_4b/output"
  top: "inception_4c/3x3_reduce"
  param {
    lr_mult: 1
    decay_mult: 1
  }
  param {
    lr_mult: 2
    decay_mult: 0
  }
  convolution_param {
    num_output: 128
    kernel_size: 1
    weight_filler {
      type: "xavier"
      std: 0.09
    }
    bias_filler {
      type: "constant"
      value: 0.2
    }
  }
}
layer {
  name: "inception_4c/relu_3x3_reduce"
  type: "ReLU"
  bottom: "inception_4c/3x3_reduce"
  top: "inception_4c/3x3_reduce"
}
layer {
  name: "inception_4c/3x3"
  type: "Convolution"
  bottom: "inception_4c/3x3_reduce"
  top: "inception_4c/3x3"
  param {
    lr_mult: 1
    decay_mult: 1
  }
  param {
    lr_mult: 2
    decay_mult: 0
  }
  convolution_param {
    num_output: 256
    pad: 1
    kernel_size: 3
    weight_filler {
      type: "xavier"
      std: 0.03
    }
    bias_filler {
      type: "constant"
      value: 0.2
    }
  }
}
layer {
  name: "inception_4c/relu_3x3"
  type: "ReLU"
  bottom: "inception_4c/3x3"
  top: "inception_4c/3x3"
}
layer {
  name: "inception_4c/5x5_reduce"
  type: "Convolution"
  bottom: "inception_4b/output"
  top: "inception_4c/5x5_reduce"
  param {
    lr_mult: 1
    decay_mult: 1
  }
  param {
    lr_mult: 2
    decay_mult: 0
  }
  convolution_param {
    num_output: 24
    kernel_size: 1
    weight_filler {
      type: "xavier"
      std: 0.2
    }
    bias_filler {
      type: "constant"
      value: 0.2
    }
  }
}
layer {
  name: "inception_4c/relu_5x5_reduce"
  type: "ReLU"
  bottom: "inception_4c/5x5_reduce"
  top: "inception_4c/5x5_reduce"
}
layer {
  name: "inception_4c/5x5"
  type: "Convolution"
  bottom: "inception_4c/5x5_reduce"
  top: "inception_4c/5x5"
  param {
    lr_mult: 1
    decay_mult: 1
  }
  param {
    lr_mult: 2
    decay_mult: 0
  }
  convolution_param {
    num_output: 64
    pad: 2
    kernel_size: 5
    weight_filler {
      type: "xavier"
      std: 0.03
    }
    bias_filler {
      type: "constant"
      value: 0.2
    }
  }
}
layer {
  name: "inception_4c/relu_5x5"
  type: "ReLU"
  bottom: "inception_4c/5x5"
  top: "inception_4c/5x5"
}
layer {
  name: "inception_4c/pool"
  type: "Pooling"
  bottom: "inception_4b/output"
  top: "inception_4c/pool"
  pooling_param {
    pool: MAX
    kernel_size: 3
    stride: 1
    pad: 1
  }
}
layer {
  name: "inception_4c/pool_proj"
  type: "Convolution"
  bottom: "inception_4c/pool"
  top: "inception_4c/pool_proj"
  param {
    lr_mult: 1
    decay_mult: 1
  }
  param {
    lr_mult: 2
    decay_mult: 0
  }
  convolution_param {
    num_output: 64
    kernel_size: 1
    weight_filler {
      type: "xavier"
      std: 0.1
    }
    bias_filler {
      type: "constant"
      value: 0.2
    }
  }
}
layer {
  name: "inception_4c/relu_pool_proj"
  type: "ReLU"
  bottom: "inception_4c/pool_proj"
  top: "inception_4c/pool_proj"
}
layer {
  name: "inception_4c/output"
  type: "Concat"
  bottom: "inception_4c/1x1"
  bottom: "inception_4c/3x3"
  bottom: "inception_4c/5x5"
  bottom: "inception_4c/pool_proj"
  top: "inception_4c/output"
}
layer {
  name: "inception_4d/1x1"
  type: "Convolution"
  bottom: "inception_4c/output"
  top: "inception_4d/1x1"
  param {
    lr_mult: 1
    decay_mult: 1
  }
  param {
    lr_mult: 2
    decay_mult: 0
  }
  convolution_param {
    num_output: 112
    kernel_size: 1
    weight_filler {
      type: "xavier"
      std: 0.03
    }
    bias_filler {
      type: "constant"
      value: 0.2
    }
  }
}
layer {
  name: "inception_4d/relu_1x1"
  type: "ReLU"
  bottom: "inception_4d/1x1"
  top: "inception_4d/1x1"
}
layer {
  name: "inception_4d/3x3_reduce"
  type: "Convolution"
  bottom: "inception_4c/output"
  top: "inception_4d/3x3_reduce"
  param {
    lr_mult: 1
    decay_mult: 1
  }
  param {
    lr_mult: 2
    decay_mult: 0
  }
  convolution_param {
    num_output: 144
    kernel_size: 1
    weight_filler {
      type: "xavier"
      std: 0.09
    }
    bias_filler {
      type: "constant"
      value: 0.2
    }
  }
}
layer {
  name: "inception_4d/relu_3x3_reduce"
  type: "ReLU"
  bottom: "inception_4d/3x3_reduce"
  top: "inception_4d/3x3_reduce"
}
layer {
  name: "inception_4d/3x3"
  type: "Convolution"
  bottom: "inception_4d/3x3_reduce"
  top: "inception_4d/3x3"
  param {
    lr_mult: 1
    decay_mult: 1
  }
  param {
    lr_mult: 2
    decay_mult: 0
  }
  convolution_param {
    num_output: 288
    pad: 1
    kernel_size: 3
    weight_filler {
      type: "xavier"
      std: 0.03
    }
    bias_filler {
      type: "constant"
      value: 0.2
    }
  }
}
layer {
  name: "inception_4d/relu_3x3"
  type: "ReLU"
  bottom: "inception_4d/3x3"
  top: "inception_4d/3x3"
}
layer {
  name: "inception_4d/5x5_reduce"
  type: "Convolution"
  bottom: "inception_4c/output"
  top: "inception_4d/5x5_reduce"
  param {
    lr_mult: 1
    decay_mult: 1
  }
  param {
    lr_mult: 2
    decay_mult: 0
  }
  convolution_param {
    num_output: 32
    kernel_size: 1
    weight_filler {
      type: "xavier"
      std: 0.2
    }
    bias_filler {
      type: "constant"
      value: 0.2
    }
  }
}
layer {
  name: "inception_4d/relu_5x5_reduce"
  type: "ReLU"
  bottom: "inception_4d/5x5_reduce"
  top: "inception_4d/5x5_reduce"
}
layer {
  name: "inception_4d/5x5"
  type: "Convolution"
  bottom: "inception_4d/5x5_reduce"
  top: "inception_4d/5x5"
  param {
    lr_mult: 1
    decay_mult: 1
  }
  param {
    lr_mult: 2
    decay_mult: 0
  }
  convolution_param {
    num_output: 64
    pad: 2
    kernel_size: 5
    weight_filler {
      type: "xavier"
      std: 0.03
    }
    bias_filler {
      type: "constant"
      value: 0.2
    }
  }
}
layer {
  name: "inception_4d/relu_5x5"
  type: "ReLU"
  bottom: "inception_4d/5x5"
  top: "inception_4d/5x5"
}
layer {
  name: "inception_4d/pool"
  type: "Pooling"
  bottom: "inception_4c/output"
  top: "inception_4d/pool"
  pooling_param {
    pool: MAX
    kernel_size: 3
    stride: 1
    pad: 1
  }
}
layer {
  name: "inception_4d/pool_proj"
  type: "Convolution"
  bottom: "inception_4d/pool"
  top: "inception_4d/pool_proj"
  param {
    lr_mult: 1
    decay_mult: 1
  }
  param {
    lr_mult: 2
    decay_mult: 0
  }
  convolution_param {
    num_output: 64
    kernel_size: 1
    weight_filler {
      type: "xavier"
      std: 0.1
    }
    bias_filler {
      type: "constant"
      value: 0.2
    }
  }
}
layer {
  name: "inception_4d/relu_pool_proj"
  type: "ReLU"
  bottom: "inception_4d/pool_proj"
  top: "inception_4d/pool_proj"
}
layer {
  name: "inception_4d/output"
  type: "Concat"
  bottom: "inception_4d/1x1"
  bottom: "inception_4d/3x3"
  bottom: "inception_4d/5x5"
  bottom: "inception_4d/pool_proj"
  top: "inception_4d/output"
}
layer {
  name: "loss2/ave_pool"
  type: "Pooling"
  bottom: "inception_4d/output"
  top: "loss2/ave_pool"
  pooling_param {
    pool: AVE
    kernel_size: 5
    stride: 3
  }
}
layer {
  name: "loss2/conv"
  type: "Convolution"
  bottom: "loss2/ave_pool"
  top: "loss2/conv"
  param {
    lr_mult: 1
    decay_mult: 1
  }
  param {
    lr_mult: 2
    decay_mult: 0
  }
  convolution_param {
    num_output: 128
    kernel_size: 1
    weight_filler {
      type: "xavier"
      std: 0.08
    }
    bias_filler {
      type: "constant"
      value: 0.2
    }
  }
}
layer {
  name: "loss2/relu_conv"
  type: "ReLU"
  bottom: "loss2/conv"
  top: "loss2/conv"
}
layer {
  name: "loss2/fc"
  type: "InnerProduct"
…
I0510 00:08:42.006799 27151 net.cpp:112] Top shape: 32 128 14 14 (802816)
I0510 00:08:42.006814 27151 layer_factory.hpp:74] Creating layer inception_4c/relu_1x1
I0510 00:08:42.006821 27151 net.cpp:76] Creating Layer inception_4c/relu_1x1
I0510 00:08:42.006827 27151 net.cpp:372] inception_4c/relu_1x1 <- inception_4c/1x1
I0510 00:08:42.006837 27151 net.cpp:323] inception_4c/relu_1x1 -> inception_4c/1x1 (in-place)
I0510 00:08:42.006845 27151 net.cpp:105] Setting up inception_4c/relu_1x1
I0510 00:08:42.006851 27151 net.cpp:112] Top shape: 32 128 14 14 (802816)
I0510 00:08:42.006870 27151 layer_factory.hpp:74] Creating layer inception_4c/3x3_reduce
I0510 00:08:42.006880 27151 net.cpp:76] Creating Layer inception_4c/3x3_reduce
I0510 00:08:42.006886 27151 net.cpp:372] inception_4c/3x3_reduce <- inception_4b/output_inception_4b/output_0_split_1
I0510 00:08:42.006897 27151 net.cpp:334] inception_4c/3x3_reduce -> inception_4c/3x3_reduce
I0510 00:08:42.006907 27151 net.cpp:105] Setting up inception_4c/3x3_reduce
I0510 00:08:42.007482 27151 net.cpp:112] Top shape: 32 128 14 14 (802816)
I0510 00:08:42.007495 27151 layer_factory.hpp:74] Creating layer inception_4c/relu_3x3_reduce
I0510 00:08:42.007503 27151 net.cpp:76] Creating Layer inception_4c/relu_3x3_reduce
I0510 00:08:42.007510 27151 net.cpp:372] inception_4c/relu_3x3_reduce <- inception_4c/3x3_reduce
I0510 00:08:42.007518 27151 net.cpp:323] inception_4c/relu_3x3_reduce -> inception_4c/3x3_reduce (in-place)
I0510 00:08:42.007524 27151 net.cpp:105] Setting up inception_4c/relu_3x3_reduce
I0510 00:08:42.007530 27151 net.cpp:112] Top shape: 32 128 14 14 (802816)
I0510 00:08:42.007535 27151 layer_factory.hpp:74] Creating layer inception_4c/3x3
I0510 00:08:42.007546 27151 net.cpp:76] Creating Layer inception_4c/3x3
I0510 00:08:42.007552 27151 net.cpp:372] inception_4c/3x3 <- inception_4c/3x3_reduce
I0510 00:08:42.007561 27151 net.cpp:334] inception_4c/3x3 -> inception_4c/3x3
I0510 00:08:42.007570 27151 net.cpp:105] Setting up inception_4c/3x3
I0510 00:08:42.010042 27151 net.cpp:112] Top shape: 32 256 14 14 (1605632)
I0510 00:08:42.010076 27151 layer_factory.hpp:74] Creating layer inception_4c/relu_3x3
I0510 00:08:42.010087 27151 net.cpp:76] Creating Layer inception_4c/relu_3x3
I0510 00:08:42.011442 27151 net.cpp:372] inception_4c/relu_3x3 <- inception_4c/3x3
I0510 00:08:42.011469 27151 net.cpp:323] inception_4c/relu_3x3 -> inception_4c/3x3 (in-place)
I0510 00:08:42.011488 27151 net.cpp:105] Setting up inception_4c/relu_3x3
I0510 00:08:42.011495 27151 net.cpp:112] Top shape: 32 256 14 14 (1605632)
I0510 00:08:42.011504 27151 layer_factory.hpp:74] Creating layer inception_4c/5x5_reduce
I0510 00:08:42.011528 27151 net.cpp:76] Creating Layer inception_4c/5x5_reduce
I0510 00:08:42.011538 27151 net.cpp:372] inception_4c/5x5_reduce <- inception_4b/output_inception_4b/output_0_split_2
I0510 00:08:42.011548 27151 net.cpp:334] inception_4c/5x5_reduce -> inception_4c/5x5_reduce
I0510 00:08:42.011565 27151 net.cpp:105] Setting up inception_4c/5x5_reduce
I0510 00:08:42.011728 27151 net.cpp:112] Top shape: 32 24 14 14 (150528)
I0510 00:08:42.011744 27151 layer_factory.hpp:74] Creating layer inception_4c/relu_5x5_reduce
I0510 00:08:42.011754 27151 net.cpp:76] Creating Layer inception_4c/relu_5x5_reduce
I0510 00:08:42.011760 27151 net.cpp:372] inception_4c/relu_5x5_reduce <- inception_4c/5x5_reduce
I0510 00:08:42.011771 27151 net.cpp:323] inception_4c/relu_5x5_reduce -> inception_4c/5x5_reduce (in-place)
I0510 00:08:42.011785 27151 net.cpp:105] Setting up inception_4c/relu_5x5_reduce
I0510 00:08:42.011796 27151 net.cpp:112] Top shape: 32 24 14 14 (150528)
I0510 00:08:42.011803 27151 layer_factory.hpp:74] Creating layer inception_4c/5x5
I0510 00:08:42.011813 27151 net.cpp:76] Creating Layer inception_4c/5x5
I0510 00:08:42.011819 27151 net.cpp:372] inception_4c/5x5 <- inception_4c/5x5_reduce
I0510 00:08:42.011831 27151 net.cpp:334] inception_4c/5x5 -> inception_4c/5x5
I0510 00:08:42.011843 27151 net.cpp:105] Setting up inception_4c/5x5
I0510 00:08:42.012214 27151 net.cpp:112] Top shape: 32 64 14 14 (401408)
I0510 00:08:42.012243 27151 layer_factory.hpp:74] Creating layer inception_4c/relu_5x5
I0510 00:08:42.012256 27151 net.cpp:76] Creating Layer inception_4c/relu_5x5
I0510 00:08:42.012264 27151 net.cpp:372] inception_4c/relu_5x5 <- inception_4c/5x5
I0510 00:08:42.012290 27151 net.cpp:323] inception_4c/relu_5x5 -> inception_4c/5x5 (in-place)
I0510 00:08:42.012310 27151 net.cpp:105] Setting up inception_4c/relu_5x5
I0510 00:08:42.012323 27151 net.cpp:112] Top shape: 32 64 14 14 (401408)
I0510 00:08:42.012336 27151 layer_factory.hpp:74] Creating layer inception_4c/pool
I0510 00:08:42.012392 27151 net.cpp:76] Creating Layer inception_4c/pool
I0510 00:08:42.012403 27151 net.cpp:372] inception_4c/pool <- inception_4b/output_inception_4b/output_0_split_3
I0510 00:08:42.012414 27151 net.cpp:334] inception_4c/pool -> inception_4c/pool
I0510 00:08:42.012425 27151 net.cpp:105] Setting up inception_4c/pool
I0510 00:08:42.012434 27151 net.cpp:112] Top shape: 32 512 14 14 (3211264)
I0510 00:08:42.012439 27151 layer_factory.hpp:74] Creating layer inception_4c/pool_proj
I0510 00:08:42.012449 27151 net.cpp:76] Creating Layer inception_4c/pool_proj
I0510 00:08:42.012455 27151 net.cpp:372] inception_4c/pool_proj <- inception_4c/pool
I0510 00:08:42.012470 27151 net.cpp:334] inception_4c/pool_proj -> inception_4c/pool_proj
I0510 00:08:42.012480 27151 net.cpp:105] Setting up inception_4c/pool_proj
I0510 00:08:42.012789 27151 net.cpp:112] Top shape: 32 64 14 14 (401408)
I0510 00:08:42.012807 27151 layer_factory.hpp:74] Creating layer inception_4c/relu_pool_proj
I0510 00:08:42.012816 27151 net.cpp:76] Creating Layer inception_4c/relu_pool_proj
I0510 00:08:42.012823 27151 net.cpp:372] inception_4c/relu_pool_proj <- inception_4c/pool_proj
I0510 00:08:42.012830 27151 net.cpp:323] inception_4c/relu_pool_proj -> inception_4c/pool_proj (in-place)
I0510 00:08:42.012841 27151 net.cpp:105] Setting up inception_4c/relu_pool_proj
I0510 00:08:42.012847 27151 net.cpp:112] Top shape: 32 64 14 14 (401408)
I0510 00:08:42.012853 27151 layer_factory.hpp:74] Creating layer inception_4c/output
I0510 00:08:42.012864 27151 net.cpp:76] Creating Layer inception_4c/output
I0510 00:08:42.012874 27151 net.cpp:372] inception_4c/output <- inception_4c/1x1
I0510 00:08:42.012887 27151 net.cpp:372] inception_4c/output <- inception_4c/3x3
I0510 00:08:42.012898 27151 net.cpp:372] inception_4c/output <- inception_4c/5x5
I0510 00:08:42.012907 27151 net.cpp:372] inception_4c/output <- inception_4c/pool_proj
I0510 00:08:42.012917 27151 net.cpp:334] inception_4c/output -> inception_4c/output
I0510 00:08:42.012934 27151 net.cpp:105] Setting up inception_4c/output
I0510 00:08:42.012948 27151 net.cpp:112] Top shape: 32 512 14 14 (3211264)
I0510 00:08:42.012960 27151 layer_factory.hpp:74] Creating layer inception_4c/output_inception_4c/output_0_split
I0510 00:08:42.012971 27151 net.cpp:76] Creating Layer inception_4c/output_inception_4c/output_0_split
I0510 00:08:42.012979 27151 net.cpp:372] inception_4c/output_inception_4c/output_0_split <- inception_4c/output
I0510 00:08:42.013000 27151 net.cpp:334] inception_4c/output_inception_4c/output_0_split -> inception_4c/output_inception_4c/output_0_split_0
I0510 00:08:42.013022 27151 net.cpp:334] inception_4c/output_inception_4c/output_0_split -> inception_4c/output_inception_4c/output_0_split_1
I0510 00:08:42.013034 27151 net.cpp:334] inception_4c/output_inception_4c/output_0_split -> inception_4c/output_inception_4c/output_0_split_2
I0510 00:08:42.013046 27151 net.cpp:334] inception_4c/output_inception_4c/output_0_split -> inception_4c/output_inception_4c/output_0_split_3
I0510 00:08:42.013061 27151 net.cpp:105] Setting up inception_4c/output_inception_4c/output_0_split
I0510 00:08:42.013074 27151 net.cpp:112] Top shape: 32 512 14 14 (3211264)
I0510 00:08:42.013084 27151 net.cpp:112] Top shape: 32 512 14 14 (3211264)
I0510 00:08:42.013099 27151 net.cpp:112] Top shape: 32 512 14 14 (3211264)
I0510 00:08:42.013106 27151 net.cpp:112] Top shape: 32 512 14 14 (3211264)
I0510 00:08:42.013113 27151 layer_factory.hpp:74] Creating layer inception_4d/1x1
I0510 00:08:42.013129 27151 net.cpp:76] Creating Layer inception_4d/1x1
I0510 00:08:42.013141 27151 net.cpp:372] inception_4d/1x1 <- inception_4c/output_inception_4c/output_0_split_0
I0510 00:08:42.013151 27151 net.cpp:334] inception_4d/1x1 -> inception_4d/1x1
I0510 00:08:42.013167 27151 net.cpp:105] Setting up inception_4d/1x1
I0510 00:08:42.013720 27151 net.cpp:112] Top shape: 32 112 14 14 (702464)
I0510 00:08:42.013743 27151 layer_factory.hpp:74] Creating layer inception_4d/relu_1x1
I0510 00:08:42.013757 27151 net.cpp:76] Creating Layer inception_4d/relu_1x1
I0510 00:08:42.013790 27151 net.cpp:372] inception_4d/relu_1x1 <- inception_4d/1x1
I0510 00:08:42.013809 27151 net.cpp:323] inception_4d/relu_1x1 -> inception_4d/1x1 (in-place)
I0510 00:08:42.013820 27151 net.cpp:105] Setting up inception_4d/relu_1x1
I0510 00:08:42.013826 27151 net.cpp:112] Top shape: 32 112 14 14 (702464)
I0510 00:08:42.013833 27151 layer_factory.hpp:74] Creating layer inception_4d/3x3_reduce
I0510 00:08:42.013842 27151 net.cpp:76] Creating Layer inception_4d/3x3_reduce
I0510 00:08:42.013849 27151 net.cpp:372] inception_4d/3x3_reduce <- inception_4c/output_inception_4c/output_0_split_1
I0510 00:08:42.013860 27151 net.cpp:334] inception_4d/3x3_reduce -> inception_4d/3x3_reduce
I0510 00:08:42.013870 27151 net.cpp:105] Setting up inception_4d/3x3_reduce
I0510 00:08:42.014587 27151 net.cpp:112] Top shape: 32 144 14 14 (903168)
I0510 00:08:42.014603 27151 layer_factory.hpp:74] Creating layer inception_4d/relu_3x3_reduce
I0510 00:08:42.014612 27151 net.cpp:76] Creating Layer inception_4d/relu_3x3_reduce
I0510 00:08:42.014618 27151 net.cpp:372] inception_4d/relu_3x3_reduce <- inception_4d/3x3_reduce
I0510 00:08:42.014626 27151 net.cpp:323] inception_4d/relu_3x3_reduce -> inception_4d/3x3_reduce (in-place)
I0510 00:08:42.014638 27151 net.cpp:105] Setting up inception_4d/relu_3x3_reduce
I0510 00:08:42.014650 27151 net.cpp:112] Top shape: 32 144 14 14 (903168)
I0510 00:08:42.014662 27151 layer_factory.hpp:74] Creating layer inception_4d/3x3
I0510 00:08:42.014683 27151 net.cpp:76] Creating Layer inception_4d/3x3
I0510 00:08:42.014698 27151 net.cpp:372] inception_4d/3x3 <- inception_4d/3x3_reduce
I0510 00:08:42.014719 27151 net.cpp:334] inception_4d/3x3 -> inception_4d/3x3
I0510 00:08:42.014739 27151 net.cpp:105] Setting up inception_4d/3x3
I0510 00:08:42.018038 27151 net.cpp:112] Top shape: 32 288 14 14 (1806336)
I0510 00:08:42.018055 27151 layer_factory.hpp:74] Creating layer inception_4d/relu_3x3
I0510 00:08:42.018065 27151 net.cpp:76] Creating Layer inception_4d/relu_3x3
I0510 00:08:42.018071 27151 net.cpp:372] inception_4d/relu_3x3 <- inception_4d/3x3
I0510 00:08:42.018079 27151 net.cpp:323] inception_4d/relu_3x3 -> inception_4d/3x3 (in-place)
I0510 00:08:42.018088 27151 net.cpp:105] Setting up inception_4d/relu_3x3
I0510 00:08:42.018093 27151 net.cpp:112] Top shape: 32 288 14 14 (1806336)
I0510 00:08:42.018100 27151 layer_factory.hpp:74] Creating layer inception_4d/5x5_reduce
I0510 00:08:42.018111 27151 net.cpp:76] Creating Layer inception_4d/5x5_reduce
I0510 00:08:42.018118 27151 net.cpp:372] inception_4d/5x5_reduce <- inception_4c/output_inception_4c/output_0_split_2
I0510 00:08:42.018129 27151 net.cpp:334] inception_4d/5x5_reduce -> inception_4d/5x5_reduce
I0510 00:08:42.018139 27151 net.cpp:105] Setting up inception_4d/5x5_reduce
I0510 00:08:42.018317 27151 net.cpp:112] Top shape: 32 32 14 14 (200704)
I0510 00:08:42.018335 27151 layer_factory.hpp:74] Creating layer inception_4d/relu_5x5_reduce
I0510 00:08:42.018344 27151 net.cpp:76] Creating Layer inception_4d/relu_5x5_reduce
I0510 00:08:42.018350 27151 net.cpp:372] inception_4d/relu_5x5_reduce <- inception_4d/5x5_reduce
I0510 00:08:42.018362 27151 net.cpp:323] inception_4d/relu_5x5_reduce -> inception_4d/5x5_reduce (in-place)
I0510 00:08:42.018371 27151 net.cpp:105] Setting up inception_4d/relu_5x5_reduce
I0510 00:08:42.018399 27151 net.cpp:112] Top shape: 32 32 14 14 (200704)
I0510 00:08:42.018406 27151 layer_factory.hpp:74] Creating layer inception_4d/5x5
I0510 00:08:42.018419 27151 net.cpp:76] Creating Layer inception_4d/5x5
I0510 00:08:42.018432 27151 net.cpp:372] inception_4d/5x5 <- inception_4d/5x5_reduce
I0510 00:08:42.018448 27151 net.cpp:334] inception_4d/5x5 -> inception_4d/5x5
I0510 00:08:42.018460 27151 net.cpp:105] Setting up inception_4d/5x5
I0510 00:08:42.018944 27151 net.cpp:112] Top shape: 32 64 14 14 (401408)
I0510 00:08:42.018960 27151 layer_factory.hpp:74] Creating layer inception_4d/relu_5x5
I0510 00:08:42.018968 27151 net.cpp:76] Creating Layer inception_4d/relu_5x5
I0510 00:08:42.018977 27151 net.cpp:372] inception_4d/relu_5x5 <- inception_4d/5x5
I0510 00:08:42.019004 27151 net.cpp:323] inception_4d/relu_5x5 -> inception_4d/5x5 (in-place)
I0510 00:08:42.019014 27151 net.cpp:105] Setting up inception_4d/relu_5x5
I0510 00:08:42.019019 27151 net.cpp:112] Top shape: 32 64 14 14 (401408)
I0510 00:08:42.019026 27151 layer_factory.hpp:74] Creating layer inception_4d/pool
I0510 00:08:42.019043 27151 net.cpp:76] Creating Layer inception_4d/pool
I0510 00:08:42.019057 27151 net.cpp:372] inception_4d/pool <- inception_4c/output_inception_4c/output_0_split_3
I0510 00:08:42.019073 27151 net.cpp:334] inception_4d/pool -> inception_4d/pool
I0510 00:08:42.019093 27151 net.cpp:105] Setting up inception_4d/pool
I0510 00:08:42.019104 27151 net.cpp:112] Top shape: 32 512 14 14 (3211264)
I0510 00:08:42.019110 27151 layer_factory.hpp:74] Creating layer inception_4d/pool_proj
I0510 00:08:42.019122 27151 net.cpp:76] Creating Layer inception_4d/pool_proj
I0510 00:08:42.019129 27151 net.cpp:372] inception_4d/pool_proj <- inception_4d/pool
I0510 00:08:42.019140 27151 net.cpp:334] inception_4d/pool_proj -> inception_4d/pool_proj
I0510 00:08:42.019151 27151 net.cpp:105] Setting up inception_4d/pool_proj
I0510 00:08:42.019479 27151 net.cpp:112] Top shape: 32 64 14 14 (401408)
I0510 00:08:42.019495 27151 layer_factory.hpp:74] Creating layer inception_4d/relu_pool_proj
I0510 00:08:42.019505 27151 net.cpp:76] Creating Layer inception_4d/relu_pool_proj
I0510 00:08:42.019511 27151 net.cpp:372] inception_4d/relu_pool_proj <- inception_4d/pool_proj
I0510 00:08:42.019521 27151 net.cpp:323] inception_4d/relu_pool_proj -> inception_4d/pool_proj (in-place)
I0510 00:08:42.019529 27151 net.cpp:105] Setting up inception_4d/relu_pool_proj
I0510 00:08:42.019536 27151 net.cpp:112] Top shape: 32 64 14 14 (401408)
I0510 00:08:42.019541 27151 layer_factory.hpp:74] Creating layer inception_4d/output
I0510 00:08:42.019549 27151 net.cpp:76] Creating Layer inception_4d/output
I0510 00:08:42.019556 27151 net.cpp:372] inception_4d/output <- inception_4d/1x1
I0510 00:08:42.019562 27151 net.cpp:372] inception_4d/output <- inception_4d/3x3
I0510 00:08:42.019568 27151 net.cpp:372] inception_4d/output <- inception_4d/5x5
I0510 00:08:42.019574 27151 net.cpp:372] inception_4d/output <- inception_4d/pool_proj
I0510 00:08:42.019582 27151 net.cpp:334] inception_4d/output -> inception_4d/output
I0510 00:08:42.019590 27151 net.cpp:105] Setting up inception_4d/output
I0510 00:08:42.019598 27151 net.cpp:112] Top shape: 32 528 14 14 (3311616)
I0510 00:08:42.019603 27151 layer_factory.hpp:74] Creating layer inception_4d/output_inception_4d/output_0_split
I0510 00:08:42.019614 27151 net.cpp:76] Creating Layer inception_4d/output_inception_4d/output_0_split
I0510 00:08:42.019628 27151 net.cpp:372] inception_4d/output_inception_4d/output_0_split <- inception_4d/output
I0510 00:08:42.019642 27151 net.cpp:334] inception_4d/output_inception_4d/output_0_split -> inception_4d/output_inception_4d/output_0_split_0
I0510 00:08:42.019664 27151 net.cpp:334] inception_4d/output_inception_4d/output_0_split -> inception_4d/output_inception_4d/output_0_split_1
I0510 00:08:42.019685 27151 net.cpp:334] inception_4d/output_inception_4d/output_0_split -> inception_4d/output_inception_4d/output_0_split_2
I0510 00:08:42.019696 27151 net.cpp:334] inception_4d/output_inception_4d/output_0_split -> inception_4d/output_inception_4d/output_0_split_3
I0510 00:08:42.020455 27151 net.cpp:334] inception_4d/output_inception_4d/output_0_split -> inception_4d/output_inception_4d/output_0_split_4
I0510 00:08:42.020479 27151 net.cpp:105] Setting up inception_4d/output_inception_4d/output_0_split
I0510 00:08:42.020491 27151 net.cpp:112] Top shape: 32 528 14 14 (3311616)
I0510 00:08:42.020498 27151 net.cpp:112] Top shape: 32 528 14 14 (3311616)
I0510 00:08:42.020503 27151 net.cpp:112] Top shape: 32 528 14 14 (3311616)
I0510 00:08:42.020508 27151 net.cpp:112] Top shape: 32 528 14 14 (3311616)
I0510 00:08:42.020514 27151 net.cpp:112] Top shape: 32 528 14 14 (3311616)
I0510 00:08:42.020524 27151 layer_factory.hpp:74] Creating layer loss2/ave_pool
I0510 00:08:42.020562 27151 net.cpp:76] Creating Layer loss2/ave_pool
I0510 00:08:42.020575 27151 net.cpp:372] loss2/ave_pool <- inception_4d/output_inception_4d/output_0_split_0
I0510 00:08:42.020592 27151 net.cpp:334] loss2/ave_pool -> loss2/ave_pool
I0510 00:08:42.020611 27151 net.cpp:105] Setting up loss2/ave_pool
I0510 00:08:42.020629 27151 net.cpp:112] Top shape: 32 528 4 4 (270336)
I0510 00:08:42.020642 27151 layer_factory.hpp:74] Creating layer loss2/conv
I0510 00:08:42.020660 27151 net.cpp:76] Creating Layer loss2/conv
I0510 00:08:42.020671 27151 net.cpp:372] loss2/conv <- loss2/ave_pool
I0510 00:08:42.020681 27151 net.cpp:334] loss2/conv -> loss2/conv
I0510 00:08:42.020697 27151 net.cpp:105] Setting up loss2/conv
I0510 00:08:42.021427 27151 net.cpp:112] Top shape: 32 128 4 4 (65536)
I0510 00:08:42.021455 27151 layer_factory.hpp:74] Creating layer loss2/relu_conv
I0510 00:08:42.021476 27151 net.cpp:76] Creating Layer loss2/relu_conv
I0510 00:08:42.021489 27151 net.cpp:372] loss2/relu_conv <- loss2/conv
I0510 00:08:42.021509 27151 net.cpp:323] loss2/relu_conv -> loss2/conv (in-place)
I0510 00:08:42.021528 27151 net.cpp:105] Setting up loss2/relu_conv
I0510 00:08:42.021538 27151 net.cpp:112] Top shape: 32 128 4 4 (65536)
I0510 00:08:42.021544 27151 layer_factory.hpp:74] Creating layer loss2/fc
I0510 00:08:42.021559 27151 net.cpp:76] Creating Layer loss2/fc
I0510 00:08:42.021569 27151 net.cpp:372] loss2/fc <- loss2/conv
I0510 00:08:42.021590 27151 net.cpp:334] loss2/fc -> loss2/fc
I0510 00:08:42.021611 27151 net.cpp:105] Setting up loss2/fc
I0510 00:08:42.040436 27151 net.cpp:112] Top shape: 32 1024 1 1 (32768)
I0510 00:08:42.040493 27151 layer_factory.hpp:74] Creating layer loss2/relu_fc
I0510 00:08:42.040510 27151 net.cpp:76] Creating Layer loss2/relu_fc
I0510 00:08:42.040523 27151 net.cpp:372] loss2/relu_fc <- loss2/fc
I0510 00:08:42.040544 27151 net.cpp:323] loss2/relu_fc -> loss2/fc (in-place)
I0510 00:08:42.040565 27151 net.cpp:105] Setting up loss2/relu_fc
I0510 00:08:42.040577 27151 net.cpp:112] Top shape: 32 1024 1 1 (32768)
I0510 00:08:42.040590 27151 layer_factory.hpp:74] Creating layer loss2/drop_fc
I0510 00:08:42.040606 27151 net.cpp:76] Creating Layer loss2/drop_fc
I0510 00:08:42.040617 27151 net.cpp:372] loss2/drop_fc <- loss2/fc
I0510 00:08:42.040627 27151 net.cpp:323] loss2/drop_fc -> loss2/fc (in-place)
I0510 00:08:42.040635 27151 net.cpp:105] Setting up loss2/drop_fc
I0510 00:08:42.040642 27151 net.cpp:112] Top shape: 32 1024 1 1 (32768)
I0510 00:08:42.040647 27151 layer_factory.hpp:74] Creating layer loss2/classifier
I0510 00:08:42.040658 27151 net.cpp:76] Creating Layer loss2/classifier
I0510 00:08:42.040663 27151 net.cpp:372] loss2/classifier <- loss2/fc
I0510 00:08:42.040675 27151 net.cpp:334] loss2/classifier -> loss2/classifier
I0510 00:08:42.040688 27151 net.cpp:105] Setting up loss2/classifier
I0510 00:08:42.040721 27151 net.cpp:112] Top shape: 32 2 1 1 (64)
I0510 00:08:42.040735 27151 layer_factory.hpp:74] Creating layer loss2/classifier_loss2/classifier_0_split
I0510 00:08:42.040742 27151 net.cpp:76] Creating Layer loss2/classifier_loss2/classifier_0_split
I0510 00:08:42.040751 27151 net.cpp:372] loss2/classifier_loss2/classifier_0_split <- loss2/classifier
I0510 00:08:42.040766 27151 net.cpp:334] loss2/classifier_loss2/classifier_0_split -> loss2/classifier_loss2/classifier_0_split_0
I0510 00:08:42.040779 27151 net.cpp:334] loss2/classifier_loss2/classifier_0_split -> loss2/classifier_loss2/classifier_0_split_1
I0510 00:08:42.040789 27151 net.cpp:105] Setting up loss2/classifier_loss2/classifier_0_split
I0510 00:08:42.040799 27151 net.cpp:112] Top shape: 32 2 1 1 (64)
I0510 00:08:42.040810 27151 net.cpp:112] Top shape: 32 2 1 1 (64)
I0510 00:08:42.040822 27151 layer_factory.hpp:74] Creating layer loss2/loss
I0510 00:08:42.040841 27151 net.cpp:76] Creating Layer loss2/loss
I0510 00:08:42.040850 27151 net.cpp:372] loss2/loss <- loss2/classifier_loss2/classifier_0_split_0
I0510 00:08:42.040860 27151 net.cpp:372] loss2/loss <- label_data_1_split_2
I0510 00:08:42.040876 27151 net.cpp:334] loss2/loss -> loss2/loss1
I0510 00:08:42.040935 27151 net.cpp:105] Setting up loss2/loss
I0510 00:08:42.040951 27151 layer_factory.hpp:74] Creating layer loss2/loss
I0510 00:08:42.040976 27151 net.cpp:112] Top shape: 1 1 1 1 (1)
I0510 00:08:42.040987 27151 net.cpp:118]     with loss weight 0.3
I0510 00:08:42.041014 27151 layer_factory.hpp:74] Creating layer loss2/top-1
I0510 00:08:42.041028 27151 net.cpp:76] Creating Layer loss2/top-1
I0510 00:08:42.041035 27151 net.cpp:372] loss2/top-1 <- loss2/classifier_loss2/classifier_0_split_1
I0510 00:08:42.041043 27151 net.cpp:372] loss2/top-1 <- label_data_1_split_3
I0510 00:08:42.041060 27151 net.cpp:334] loss2/top-1 -> loss2/top-1
I0510 00:08:42.041079 27151 net.cpp:105] Setting up loss2/top-1
I0510 00:08:42.041090 27151 net.cpp:112] Top shape: 1 1 1 1 (1)
I0510 00:08:42.041096 27151 layer_factory.hpp:74] Creating layer inception_4e/1x1
I0510 00:08:42.041110 27151 net.cpp:76] Creating Layer inception_4e/1x1
I0510 00:08:42.041121 27151 net.cpp:372] inception_4e/1x1 <- inception_4d/output_inception_4d/output_0_split_1
I0510 00:08:42.041141 27151 net.cpp:334] inception_4e/1x1 -> inception_4e/1x1
I0510 00:08:42.041160 27151 net.cpp:105] Setting up inception_4e/1x1
I0510 00:08:42.042464 27151 net.cpp:112] Top shape: 32 256 14 14 (1605632)
I0510 00:08:42.042493 27151 layer_factory.hpp:74] Creating layer inception_4e/relu_1x1
I0510 00:08:42.042511 27151 net.cpp:76] Creating Layer inception_4e/relu_1x1
I0510 00:08:42.042526 27151 net.cpp:372] inception_4e/relu_1x1 <- inception_4e/1x1
I0510 00:08:42.042543 27151 net.cpp:323] inception_4e/relu_1x1 -> inception_4e/1x1 (in-place)
I0510 00:08:42.042562 27151 net.cpp:105] Setting up inception_4e/relu_1x1
I0510 00:08:42.042573 27151 net.cpp:112] Top shape: 32 256 14 14 (1605632)
I0510 00:08:42.042585 27151 layer_factory.hpp:74] Creating layer inception_4e/3x3_reduce
I0510 00:08:42.042598 27151 net.cpp:76] Creating Layer inception_4e/3x3_reduce
I0510 00:08:42.042603 27151 net.cpp:372] inception_4e/3x3_reduce <- inception_4d/output_inception_4d/output_0_split_2
I0510 00:08:42.042616 27151 net.cpp:334] inception_4e/3x3_reduce -> inception_4e/3x3_reduce
I0510 00:08:42.042626 27151 net.cpp:105] Setting up inception_4e/3x3_reduce
I0510 00:08:42.043460 27151 net.cpp:112] Top shape: 32 160 14 14 (1003520)
I0510 00:08:42.043476 27151 layer_factory.hpp:74] Creating layer inception_4e/relu_3x3_reduce
I0510 00:08:42.043485 27151 net.cpp:76] Creating Layer inception_4e/relu_3x3_reduce
I0510 00:08:42.043493 27151 net.cpp:372] inception_4e/relu_3x3_reduce <- inception_4e/3x3_reduce
I0510 00:08:42.043500 27151 net.cpp:323] inception_4e/relu_3x3_reduce -> inception_4e/3x3_reduce (in-place)
I0510 00:08:42.043509 27151 net.cpp:105] Setting up inception_4e/relu_3x3_reduce
I0510 00:08:42.043519 27151 net.cpp:112] Top shape: 32 160 14 14 (1003520)
I0510 00:08:42.043535 27151 layer_factory.hpp:74] Creating layer inception_4e/3x3
I0510 00:08:42.043581 27151 net.cpp:76] Creating Layer inception_4e/3x3
I0510 00:08:42.043596 27151 net.cpp:372] inception_4e/3x3 <- inception_4e/3x3_reduce
I0510 00:08:42.043607 27151 net.cpp:334] inception_4e/3x3 -> inception_4e/3x3
I0510 00:08:42.043617 27151 net.cpp:105] Setting up inception_4e/3x3
I0510 00:08:42.047821 27151 net.cpp:112] Top shape: 32 320 14 14 (2007040)
I0510 00:08:42.047857 27151 layer_factory.hpp:74] Creating layer inception_4e/relu_3x3
I0510 00:08:42.047873 27151 net.cpp:76] Creating Layer inception_4e/relu_3x3
I0510 00:08:42.047893 27151 net.cpp:372] inception_4e/relu_3x3 <- inception_4e/3x3
I0510 00:08:42.047909 27151 net.cpp:323] inception_4e/relu_3x3 -> inception_4e/3x3 (in-place)
I0510 00:08:42.047930 27151 net.cpp:105] Setting up inception_4e/relu_3x3
I0510 00:08:42.047937 27151 net.cpp:112] Top shape: 32 320 14 14 (2007040)
I0510 00:08:42.047943 27151 layer_factory.hpp:74] Creating layer inception_4e/5x5_reduce
I0510 00:08:42.047953 27151 net.cpp:76] Creating Layer inception_4e/5x5_reduce
I0510 00:08:42.047960 27151 net.cpp:372] inception_4e/5x5_reduce <- inception_4d/output_inception_4d/output_0_split_3
I0510 00:08:42.048002 27151 net.cpp:334] inception_4e/5x5_reduce -> inception_4e/5x5_reduce
I0510 00:08:42.048017 27151 net.cpp:105] Setting up inception_4e/5x5_reduce
I0510 00:08:42.048193 27151 net.cpp:112] Top shape: 32 32 14 14 (200704)
I0510 00:08:42.048209 27151 layer_factory.hpp:74] Creating layer inception_4e/relu_5x5_reduce
I0510 00:08:42.048220 27151 net.cpp:76] Creating Layer inception_4e/relu_5x5_reduce
I0510 00:08:42.048230 27151 net.cpp:372] inception_4e/relu_5x5_reduce <- inception_4e/5x5_reduce
I0510 00:08:42.048245 27151 net.cpp:323] inception_4e/relu_5x5_reduce -> inception_4e/5x5_reduce (in-place)
I0510 00:08:42.048261 27151 net.cpp:105] Setting up inception_4e/relu_5x5_reduce
I0510 00:08:42.048290 27151 net.cpp:112] Top shape: 32 32 14 14 (200704)
I0510 00:08:42.048305 27151 layer_factory.hpp:74] Creating layer inception_4e/5x5
I0510 00:08:42.048326 27151 net.cpp:76] Creating Layer inception_4e/5x5
I0510 00:08:42.048337 27151 net.cpp:372] inception_4e/5x5 <- inception_4e/5x5_reduce
I0510 00:08:42.048354 27151 net.cpp:334] inception_4e/5x5 -> inception_4e/5x5
I0510 00:08:42.048372 27151 net.cpp:105] Setting up inception_4e/5x5
I0510 00:08:42.049379 27151 net.cpp:112] Top shape: 32 128 14 14 (802816)
I0510 00:08:42.049403 27151 layer_factory.hpp:74] Creating layer inception_4e/relu_5x5
I0510 00:08:42.049417 27151 net.cpp:76] Creating Layer inception_4e/relu_5x5
I0510 00:08:42.049424 27151 net.cpp:372] inception_4e/relu_5x5 <- inception_4e/5x5
I0510 00:08:42.049437 27151 net.cpp:323] inception_4e/relu_5x5 -> inception_4e/5x5 (in-place)
I0510 00:08:42.049453 27151 net.cpp:105] Setting up inception_4e/relu_5x5
I0510 00:08:42.049465 27151 net.cpp:112] Top shape: 32 128 14 14 (802816)
I0510 00:08:42.049478 27151 layer_factory.hpp:74] Creating layer inception_4e/pool
I0510 00:08:42.049492 27151 net.cpp:76] Creating Layer inception_4e/pool
I0510 00:08:42.049500 27151 net.cpp:372] inception_4e/pool <- inception_4d/output_inception_4d/output_0_split_4
I0510 00:08:42.049510 27151 net.cpp:334] inception_4e/pool -> inception_4e/pool
I0510 00:08:42.049520 27151 net.cpp:105] Setting up inception_4e/pool
I0510 00:08:42.049528 27151 net.cpp:112] Top shape: 32 528 14 14 (3311616)
I0510 00:08:42.049535 27151 layer_factory.hpp:74] Creating layer inception_4e/pool_proj
I0510 00:08:42.049551 27151 net.cpp:76] Creating Layer inception_4e/pool_proj
I0510 00:08:42.049563 27151 net.cpp:372] inception_4e/pool_proj <- inception_4e/pool
I0510 00:08:42.049582 27151 net.cpp:334] inception_4e/pool_proj -> inception_4e/pool_proj
I0510 00:08:42.049602 27151 net.cpp:105] Setting up inception_4e/pool_proj
I0510 00:08:42.050259 27151 net.cpp:112] Top shape: 32 128 14 14 (802816)
I0510 00:08:42.050287 27151 layer_factory.hpp:74] Creating layer inception_4e/relu_pool_proj
I0510 00:08:42.050300 27151 net.cpp:76] Creating Layer inception_4e/relu_pool_proj
I0510 00:08:42.050307 27151 net.cpp:372] inception_4e/relu_pool_proj <- inception_4e/pool_proj
I0510 00:08:42.050315 27151 net.cpp:323] inception_4e/relu_pool_proj -> inception_4e/pool_proj (in-place)
I0510 00:08:42.050324 27151 net.cpp:105] Setting up inception_4e/relu_pool_proj
I0510 00:08:42.050330 27151 net.cpp:112] Top shape: 32 128 14 14 (802816)
I0510 00:08:42.050336 27151 layer_factory.hpp:74] Creating layer inception_4e/output
I0510 00:08:42.050346 27151 net.cpp:76] Creating Layer inception_4e/output
I0510 00:08:42.050353 27151 net.cpp:372] inception_4e/output <- inception_4e/1x1
I0510 00:08:42.050359 27151 net.cpp:372] inception_4e/output <- inception_4e/3x3
I0510 00:08:42.050366 27151 net.cpp:372] inception_4e/output <- inception_4e/5x5
I0510 00:08:42.050372 27151 net.cpp:372] inception_4e/output <- inception_4e/pool_proj
I0510 00:08:42.050380 27151 net.cpp:334] inception_4e/output -> inception_4e/output
I0510 00:08:42.050389 27151 net.cpp:105] Setting up inception_4e/output
I0510 00:08:42.050395 27151 net.cpp:112] Top shape: 32 832 14 14 (5218304)
I0510 00:08:42.050401 27151 layer_factory.hpp:74] Creating layer pool4/3x3_s2
I0510 00:08:42.050408 27151 net.cpp:76] Creating Layer pool4/3x3_s2
I0510 00:08:42.050457 27151 net.cpp:372] pool4/3x3_s2 <- inception_4e/output
I0510 00:08:42.050468 27151 net.cpp:334] pool4/3x3_s2 -> pool4/3x3_s2
I0510 00:08:42.050482 27151 net.cpp:105] Setting up pool4/3x3_s2
I0510 00:08:42.050495 27151 net.cpp:112] Top shape: 32 832 7 7 (1304576)
I0510 00:08:42.050503 27151 layer_factory.hpp:74] Creating layer pool4/3x3_s2_pool4/3x3_s2_0_split
I0510 00:08:42.050515 27151 net.cpp:76] Creating Layer pool4/3x3_s2_pool4/3x3_s2_0_split
I0510 00:08:42.050521 27151 net.cpp:372] pool4/3x3_s2_pool4/3x3_s2_0_split <- pool4/3x3_s2
I0510 00:08:42.050529 27151 net.cpp:334] pool4/3x3_s2_pool4/3x3_s2_0_split -> pool4/3x3_s2_pool4/3x3_s2_0_split_0
I0510 00:08:42.050539 27151 net.cpp:334] pool4/3x3_s2_pool4/3x3_s2_0_split -> pool4/3x3_s2_pool4/3x3_s2_0_split_1
I0510 00:08:42.050551 27151 net.cpp:334] pool4/3x3_s2_pool4/3x3_s2_0_split -> pool4/3x3_s2_pool4/3x3_s2_0_split_2
I0510 00:08:42.050560 27151 net.cpp:334] pool4/3x3_s2_pool4/3x3_s2_0_split -> pool4/3x3_s2_pool4/3x3_s2_0_split_3
I0510 00:08:42.050568 27151 net.cpp:105] Setting up pool4/3x3_s2_pool4/3x3_s2_0_split
I0510 00:08:42.050575 27151 net.cpp:112] Top shape: 32 832 7 7 (1304576)
I0510 00:08:42.050581 27151 net.cpp:112] Top shape: 32 832 7 7 (1304576)
I0510 00:08:42.050585 27151 net.cpp:112] Top shape: 32 832 7 7 (1304576)
I0510 00:08:42.050590 27151 net.cpp:112] Top shape: 32 832 7 7 (1304576)
I0510 00:08:42.050596 27151 layer_factory.hpp:74] Creating layer inception_5a/1x1
I0510 00:08:42.050606 27151 net.cpp:76] Creating Layer inception_5a/1x1
I0510 00:08:42.050611 27151 net.cpp:372] inception_5a/1x1 <- pool4/3x3_s2_pool4/3x3_s2_0_split_0
I0510 00:08:42.050622 27151 net.cpp:334] inception_5a/1x1 -> inception_5a/1x1
I0510 00:08:42.050632 27151 net.cpp:105] Setting up inception_5a/1x1
I0510 00:08:42.052517 27151 net.cpp:112] Top shape: 32 256 7 7 (401408)
I0510 00:08:42.052536 27151 layer_factory.hpp:74] Creating layer inception_5a/relu_1x1
I0510 00:08:42.052544 27151 net.cpp:76] Creating Layer inception_5a/relu_1x1
I0510 00:08:42.052551 27151 net.cpp:372] inception_5a/relu_1x1 <- inception_5a/1x1
I0510 00:08:42.052558 27151 net.cpp:323] inception_5a/relu_1x1 -> inception_5a/1x1 (in-place)
I0510 00:08:42.052567 27151 net.cpp:105] Setting up inception_5a/relu_1x1
I0510 00:08:42.052572 27151 net.cpp:112] Top shape: 32 256 7 7 (401408)
I0510 00:08:42.052578 27151 layer_factory.hpp:74] Creating layer inception_5a/3x3_reduce
I0510 00:08:42.052592 27151 net.cpp:76] Creating Layer inception_5a/3x3_reduce
I0510 00:08:42.052599 27151 net.cpp:372] inception_5a/3x3_reduce <- pool4/3x3_s2_pool4/3x3_s2_0_split_1
I0510 00:08:42.052611 27151 net.cpp:334] inception_5a/3x3_reduce -> inception_5a/3x3_reduce
I0510 00:08:42.052621 27151 net.cpp:105] Setting up inception_5a/3x3_reduce
I0510 00:08:42.053752 27151 net.cpp:112] Top shape: 32 160 7 7 (250880)
I0510 00:08:42.053771 27151 layer_factory.hpp:74] Creating layer inception_5a/relu_3x3_reduce
I0510 00:08:42.053778 27151 net.cpp:76] Creating Layer inception_5a/relu_3x3_reduce
I0510 00:08:42.053786 27151 net.cpp:372] inception_5a/relu_3x3_reduce <- inception_5a/3x3_reduce
I0510 00:08:42.053797 27151 net.cpp:323] inception_5a/relu_3x3_reduce -> inception_5a/3x3_reduce (in-place)
I0510 00:08:42.053805 27151 net.cpp:105] Setting up inception_5a/relu_3x3_reduce
I0510 00:08:42.053812 27151 net.cpp:112] Top shape: 32 160 7 7 (250880)
I0510 00:08:42.053817 27151 layer_factory.hpp:74] Creating layer inception_5a/3x3
I0510 00:08:42.053825 27151 net.cpp:76] Creating Layer inception_5a/3x3
I0510 00:08:42.053832 27151 net.cpp:372] inception_5a/3x3 <- inception_5a/3x3_reduce
I0510 00:08:42.053841 27151 net.cpp:334] inception_5a/3x3 -> inception_5a/3x3
I0510 00:08:42.053851 27151 net.cpp:105] Setting up inception_5a/3x3
I0510 00:08:42.057726 27151 net.cpp:112] Top shape: 32 320 7 7 (501760)
I0510 00:08:42.057749 27151 layer_factory.hpp:74] Creating layer inception_5a/relu_3x3
I0510 00:08:42.057759 27151 net.cpp:76] Creating Layer inception_5a/relu_3x3
I0510 00:08:42.057768 27151 net.cpp:372] inception_5a/relu_3x3 <- inception_5a/3x3
I0510 00:08:42.057806 27151 net.cpp:323] inception_5a/relu_3x3 -> inception_5a/3x3 (in-place)
I0510 00:08:42.057817 27151 net.cpp:105] Setting up inception_5a/relu_3x3
I0510 00:08:42.057823 27151 net.cpp:112] Top shape: 32 320 7 7 (501760)
I0510 00:08:42.057829 27151 layer_factory.hpp:74] Creating layer inception_5a/5x5_reduce
I0510 00:08:42.057839 27151 net.cpp:76] Creating Layer inception_5a/5x5_reduce
I0510 00:08:42.057848 27151 net.cpp:372] inception_5a/5x5_reduce <- pool4/3x3_s2_pool4/3x3_s2_0_split_2
I0510 00:08:42.057860 27151 net.cpp:334] inception_5a/5x5_reduce -> inception_5a/5x5_reduce
I0510 00:08:42.057870 27151 net.cpp:105] Setting up inception_5a/5x5_reduce
I0510 00:08:42.058104 27151 net.cpp:112] Top shape: 32 32 7 7 (50176)
I0510 00:08:42.058118 27151 layer_factory.hpp:74] Creating layer inception_5a/relu_5x5_reduce
I0510 00:08:42.058126 27151 net.cpp:76] Creating Layer inception_5a/relu_5x5_reduce
I0510 00:08:42.058132 27151 net.cpp:372] inception_5a/relu_5x5_reduce <- inception_5a/5x5_reduce
I0510 00:08:42.058142 27151 net.cpp:323] inception_5a/relu_5x5_reduce -> inception_5a/5x5_reduce (in-place)
I0510 00:08:42.058151 27151 net.cpp:105] Setting up inception_5a/relu_5x5_reduce
I0510 00:08:42.058156 27151 net.cpp:112] Top shape: 32 32 7 7 (50176)
I0510 00:08:42.058162 27151 layer_factory.hpp:74] Creating layer inception_5a/5x5
I0510 00:08:42.058171 27151 net.cpp:76] Creating Layer inception_5a/5x5
I0510 00:08:42.058176 27151 net.cpp:372] inception_5a/5x5 <- inception_5a/5x5_reduce
I0510 00:08:42.058190 27151 net.cpp:334] inception_5a/5x5 -> inception_5a/5x5
I0510 00:08:42.058200 27151 net.cpp:105] Setting up inception_5a/5x5
I0510 00:08:42.059075 27151 net.cpp:112] Top shape: 32 128 7 7 (200704)
I0510 00:08:42.059092 27151 layer_factory.hpp:74] Creating layer inception_5a/relu_5x5
I0510 00:08:42.059101 27151 net.cpp:76] Creating Layer inception_5a/relu_5x5
I0510 00:08:42.059108 27151 net.cpp:372] inception_5a/relu_5x5 <- inception_5a/5x5
I0510 00:08:42.059114 27151 net.cpp:323] inception_5a/relu_5x5 -> inception_5a/5x5 (in-place)
I0510 00:08:42.059123 27151 net.cpp:105] Setting up inception_5a/relu_5x5
I0510 00:08:42.059128 27151 net.cpp:112] Top shape: 32 128 7 7 (200704)
I0510 00:08:42.059134 27151 layer_factory.hpp:74] Creating layer inception_5a/pool
I0510 00:08:42.059146 27151 net.cpp:76] Creating Layer inception_5a/pool
I0510 00:08:42.059152 27151 net.cpp:372] inception_5a/pool <- pool4/3x3_s2_pool4/3x3_s2_0_split_3
I0510 00:08:42.059164 27151 net.cpp:334] inception_5a/pool -> inception_5a/pool
I0510 00:08:42.059192 27151 net.cpp:105] Setting up inception_5a/pool
I0510 00:08:42.059206 27151 net.cpp:112] Top shape: 32 832 7 7 (1304576)
I0510 00:08:42.059213 27151 layer_factory.hpp:74] Creating layer inception_5a/pool_proj
I0510 00:08:42.059222 27151 net.cpp:76] Creating Layer inception_5a/pool_proj
I0510 00:08:42.059228 27151 net.cpp:372] inception_5a/pool_proj <- inception_5a/pool
I0510 00:08:42.059239 27151 net.cpp:334] inception_5a/pool_proj -> inception_5a/pool_proj
I0510 00:08:42.059248 27151 net.cpp:105] Setting up inception_5a/pool_proj
I0510 00:08:42.060149 27151 net.cpp:112] Top shape: 32 128 7 7 (200704)
I0510 00:08:42.060164 27151 layer_factory.hpp:74] Creating layer inception_5a/relu_pool_proj
I0510 00:08:42.060173 27151 net.cpp:76] Creating Layer inception_5a/relu_pool_proj
I0510 00:08:42.060179 27151 net.cpp:372] inception_5a/relu_pool_proj <- inception_5a/pool_proj
I0510 00:08:42.060192 27151 net.cpp:323] inception_5a/relu_pool_proj -> inception_5a/pool_proj (in-place)
I0510 00:08:42.060202 27151 net.cpp:105] Setting up inception_5a/relu_pool_proj
I0510 00:08:42.060209 27151 net.cpp:112] Top shape: 32 128 7 7 (200704)
I0510 00:08:42.060214 27151 layer_factory.hpp:74] Creating layer inception_5a/output
I0510 00:08:42.060222 27151 net.cpp:76] Creating Layer inception_5a/output
I0510 00:08:42.060228 27151 net.cpp:372] inception_5a/output <- inception_5a/1x1
I0510 00:08:42.060235 27151 net.cpp:372] inception_5a/output <- inception_5a/3x3
I0510 00:08:42.060257 27151 net.cpp:372] inception_5a/output <- inception_5a/5x5
I0510 00:08:42.060264 27151 net.cpp:372] inception_5a/output <- inception_5a/pool_proj
I0510 00:08:42.060286 27151 net.cpp:334] inception_5a/output -> inception_5a/output
I0510 00:08:42.060297 27151 net.cpp:105] Setting up inception_5a/output
I0510 00:08:42.060304 27151 net.cpp:112] Top shape: 32 832 7 7 (1304576)
I0510 00:08:42.060310 27151 layer_factory.hpp:74] Creating layer inception_5a/output_inception_5a/output_0_split
I0510 00:08:42.060318 27151 net.cpp:76] Creating Layer inception_5a/output_inception_5a/output_0_split
I0510 00:08:42.060325 27151 net.cpp:372] inception_5a/output_inception_5a/output_0_split <- inception_5a/output
I0510 00:08:42.060333 27151 net.cpp:334] inception_5a/output_inception_5a/output_0_split -> inception_5a/output_inception_5a/output_0_split_0
I0510 00:08:42.060343 27151 net.cpp:334] inception_5a/output_inception_5a/output_0_split -> inception_5a/output_inception_5a/output_0_split_1
I0510 00:08:42.060354 27151 net.cpp:334] inception_5a/output_inception_5a/output_0_split -> inception_5a/output_inception_5a/output_0_split_2
I0510 00:08:42.060364 27151 net.cpp:334] inception_5a/output_inception_5a/output_0_split -> inception_5a/output_inception_5a/output_0_split_3
I0510 00:08:42.060400 27151 net.cpp:105] Setting up inception_5a/output_inception_5a/output_0_split
I0510 00:08:42.060408 27151 net.cpp:112] Top shape: 32 832 7 7 (1304576)
I0510 00:08:42.060415 27151 net.cpp:112] Top shape: 32 832 7 7 (1304576)
I0510 00:08:42.060420 27151 net.cpp:112] Top shape: 32 832 7 7 (1304576)
I0510 00:08:42.060425 27151 net.cpp:112] Top shape: 32 832 7 7 (1304576)
I0510 00:08:42.060430 27151 layer_factory.hpp:74] Creating layer inception_5b/1x1
I0510 00:08:42.060441 27151 net.cpp:76] Creating Layer inception_5b/1x1
I0510 00:08:42.060448 27151 net.cpp:372] inception_5b/1x1 <- inception_5a/output_inception_5a/output_0_split_0
I0510 00:08:42.060459 27151 net.cpp:334] inception_5b/1x1 -> inception_5b/1x1
I0510 00:08:42.060468 27151 net.cpp:105] Setting up inception_5b/1x1
I0510 00:08:42.063130 27151 net.cpp:112] Top shape: 32 384 7 7 (602112)
I0510 00:08:42.063148 27151 layer_factory.hpp:74] Creating layer inception_5b/relu_1x1
I0510 00:08:42.063158 27151 net.cpp:76] Creating Layer inception_5b/relu_1x1
I0510 00:08:42.063164 27151 net.cpp:372] inception_5b/relu_1x1 <- inception_5b/1x1
I0510 00:08:42.063174 27151 net.cpp:323] inception_5b/relu_1x1 -> inception_5b/1x1 (in-place)
I0510 00:08:42.063182 27151 net.cpp:105] Setting up inception_5b/relu_1x1
I0510 00:08:42.063189 27151 net.cpp:112] Top shape: 32 384 7 7 (602112)
I0510 00:08:42.063194 27151 layer_factory.hpp:74] Creating layer inception_5b/3x3_reduce
I0510 00:08:42.063204 27151 net.cpp:76] Creating Layer inception_5b/3x3_reduce
I0510 00:08:42.063210 27151 net.cpp:372] inception_5b/3x3_reduce <- inception_5a/output_inception_5a/output_0_split_1
I0510 00:08:42.063221 27151 net.cpp:334] inception_5b/3x3_reduce -> inception_5b/3x3_reduce
I0510 00:08:42.063231 27151 net.cpp:105] Setting up inception_5b/3x3_reduce
I0510 00:08:42.064581 27151 net.cpp:112] Top shape: 32 192 7 7 (301056)
I0510 00:08:42.064599 27151 layer_factory.hpp:74] Creating layer inception_5b/relu_3x3_reduce
I0510 00:08:42.064607 27151 net.cpp:76] Creating Layer inception_5b/relu_3x3_reduce
I0510 00:08:42.064615 27151 net.cpp:372] inception_5b/relu_3x3_reduce <- inception_5b/3x3_reduce
I0510 00:08:42.064621 27151 net.cpp:323] inception_5b/relu_3x3_reduce -> inception_5b/3x3_reduce (in-place)
I0510 00:08:42.064630 27151 net.cpp:105] Setting up inception_5b/relu_3x3_reduce
I0510 00:08:42.064636 27151 net.cpp:112] Top shape: 32 192 7 7 (301056)
I0510 00:08:42.064641 27151 layer_factory.hpp:74] Creating layer inception_5b/3x3
I0510 00:08:42.064651 27151 net.cpp:76] Creating Layer inception_5b/3x3
I0510 00:08:42.064656 27151 net.cpp:372] inception_5b/3x3 <- inception_5b/3x3_reduce
I0510 00:08:42.064666 27151 net.cpp:334] inception_5b/3x3 -> inception_5b/3x3
I0510 00:08:42.064676 27151 net.cpp:105] Setting up inception_5b/3x3
I0510 00:08:42.070766 27151 net.cpp:112] Top shape: 32 384 7 7 (602112)
I0510 00:08:42.070801 27151 layer_factory.hpp:74] Creating layer inception_5b/relu_3x3
I0510 00:08:42.070813 27151 net.cpp:76] Creating Layer inception_5b/relu_3x3
I0510 00:08:42.070822 27151 net.cpp:372] inception_5b/relu_3x3 <- inception_5b/3x3
I0510 00:08:42.070834 27151 net.cpp:323] inception_5b/relu_3x3 -> inception_5b/3x3 (in-place)
I0510 00:08:42.070847 27151 net.cpp:105] Setting up inception_5b/relu_3x3
I0510 00:08:42.070852 27151 net.cpp:112] Top shape: 32 384 7 7 (602112)
I0510 00:08:42.070858 27151 layer_factory.hpp:74] Creating layer inception_5b/5x5_reduce
I0510 00:08:42.070868 27151 net.cpp:76] Creating Layer inception_5b/5x5_reduce
I0510 00:08:42.070875 27151 net.cpp:372] inception_5b/5x5_reduce <- inception_5a/output_inception_5a/output_0_split_2
I0510 00:08:42.070888 27151 net.cpp:334] inception_5b/5x5_reduce -> inception_5b/5x5_reduce
I0510 00:08:42.070897 27151 net.cpp:105] Setting up inception_5b/5x5_reduce
I0510 00:08:42.071265 27151 net.cpp:112] Top shape: 32 48 7 7 (75264)
I0510 00:08:42.071295 27151 layer_factory.hpp:74] Creating layer inception_5b/relu_5x5_reduce
I0510 00:08:42.071305 27151 net.cpp:76] Creating Layer inception_5b/relu_5x5_reduce
I0510 00:08:42.071313 27151 net.cpp:372] inception_5b/relu_5x5_reduce <- inception_5b/5x5_reduce
I0510 00:08:42.071321 27151 net.cpp:323] inception_5b/relu_5x5_reduce -> inception_5b/5x5_reduce (in-place)
I0510 00:08:42.071329 27151 net.cpp:105] Setting up inception_5b/relu_5x5_reduce
I0510 00:08:42.071334 27151 net.cpp:112] Top shape: 32 48 7 7 (75264)
I0510 00:08:42.071341 27151 layer_factory.hpp:74] Creating layer inception_5b/5x5
I0510 00:08:42.071352 27151 net.cpp:76] Creating Layer inception_5b/5x5
I0510 00:08:42.071358 27151 net.cpp:372] inception_5b/5x5 <- inception_5b/5x5_reduce
I0510 00:08:42.071367 27151 net.cpp:334] inception_5b/5x5 -> inception_5b/5x5
I0510 00:08:42.071375 27151 net.cpp:105] Setting up inception_5b/5x5
I0510 00:08:42.072680 27151 net.cpp:112] Top shape: 32 128 7 7 (200704)
I0510 00:08:42.072696 27151 layer_factory.hpp:74] Creating layer inception_5b/relu_5x5
I0510 00:08:42.072705 27151 net.cpp:76] Creating Layer inception_5b/relu_5x5
I0510 00:08:42.072711 27151 net.cpp:372] inception_5b/relu_5x5 <- inception_5b/5x5
I0510 00:08:42.072720 27151 net.cpp:323] inception_5b/relu_5x5 -> inception_5b/5x5 (in-place)
I0510 00:08:42.072727 27151 net.cpp:105] Setting up inception_5b/relu_5x5
I0510 00:08:42.072732 27151 net.cpp:112] Top shape: 32 128 7 7 (200704)
I0510 00:08:42.072738 27151 layer_factory.hpp:74] Creating layer inception_5b/pool
I0510 00:08:42.072751 27151 net.cpp:76] Creating Layer inception_5b/pool
I0510 00:08:42.072757 27151 net.cpp:372] inception_5b/pool <- inception_5a/output_inception_5a/output_0_split_3
I0510 00:08:42.072765 27151 net.cpp:334] inception_5b/pool -> inception_5b/pool
I0510 00:08:42.072774 27151 net.cpp:105] Setting up inception_5b/pool
I0510 00:08:42.072783 27151 net.cpp:112] Top shape: 32 832 7 7 (1304576)
I0510 00:08:42.072789 27151 layer_factory.hpp:74] Creating layer inception_5b/pool_proj
I0510 00:08:42.072800 27151 net.cpp:76] Creating Layer inception_5b/pool_proj
I0510 00:08:42.072808 27151 net.cpp:372] inception_5b/pool_proj <- inception_5b/pool
I0510 00:08:42.072816 27151 net.cpp:334] inception_5b/pool_proj -> inception_5b/pool_proj
I0510 00:08:42.072825 27151 net.cpp:105] Setting up inception_5b/pool_proj
I0510 00:08:42.073739 27151 net.cpp:112] Top shape: 32 128 7 7 (200704)
I0510 00:08:42.073753 27151 layer_factory.hpp:74] Creating layer inception_5b/relu_pool_proj
I0510 00:08:42.073761 27151 net.cpp:76] Creating Layer inception_5b/relu_pool_proj
I0510 00:08:42.073768 27151 net.cpp:372] inception_5b/relu_pool_proj <- inception_5b/pool_proj
I0510 00:08:42.073776 27151 net.cpp:323] inception_5b/relu_pool_proj -> inception_5b/pool_proj (in-place)
I0510 00:08:42.073784 27151 net.cpp:105] Setting up inception_5b/relu_pool_proj
I0510 00:08:42.073791 27151 net.cpp:112] Top shape: 32 128 7 7 (200704)
I0510 00:08:42.073796 27151 layer_factory.hpp:74] Creating layer inception_5b/output
I0510 00:08:42.073838 27151 net.cpp:76] Creating Layer inception_5b/output
I0510 00:08:42.073846 27151 net.cpp:372] inception_5b/output <- inception_5b/1x1
I0510 00:08:42.073854 27151 net.cpp:372] inception_5b/output <- inception_5b/3x3
I0510 00:08:42.073860 27151 net.cpp:372] inception_5b/output <- inception_5b/5x5
I0510 00:08:42.073868 27151 net.cpp:372] inception_5b/output <- inception_5b/pool_proj
I0510 00:08:42.073875 27151 net.cpp:334] inception_5b/output -> inception_5b/output
I0510 00:08:42.073884 27151 net.cpp:105] Setting up inception_5b/output
I0510 00:08:42.073891 27151 net.cpp:112] Top shape: 32 1024 7 7 (1605632)
I0510 00:08:42.073896 27151 layer_factory.hpp:74] Creating layer pool5/7x7_s1
I0510 00:08:42.073907 27151 net.cpp:76] Creating Layer pool5/7x7_s1
I0510 00:08:42.073914 27151 net.cpp:372] pool5/7x7_s1 <- inception_5b/output
I0510 00:08:42.073922 27151 net.cpp:334] pool5/7x7_s1 -> pool5/7x7_s1
I0510 00:08:42.073931 27151 net.cpp:105] Setting up pool5/7x7_s1
I0510 00:08:42.073937 27151 net.cpp:112] Top shape: 32 1024 1 1 (32768)
I0510 00:08:42.073943 27151 layer_factory.hpp:74] Creating layer pool5/drop_7x7_s1
I0510 00:08:42.073952 27151 net.cpp:76] Creating Layer pool5/drop_7x7_s1
I0510 00:08:42.073958 27151 net.cpp:372] pool5/drop_7x7_s1 <- pool5/7x7_s1
I0510 00:08:42.073966 27151 net.cpp:323] pool5/drop_7x7_s1 -> pool5/7x7_s1 (in-place)
I0510 00:08:42.073973 27151 net.cpp:105] Setting up pool5/drop_7x7_s1
I0510 00:08:42.073982 27151 net.cpp:112] Top shape: 32 1024 1 1 (32768)
I0510 00:08:42.073987 27151 layer_factory.hpp:74] Creating layer loss3/classifier
I0510 00:08:42.073998 27151 net.cpp:76] Creating Layer loss3/classifier
I0510 00:08:42.074005 27151 net.cpp:372] loss3/classifier <- pool5/7x7_s1
I0510 00:08:42.074017 27151 net.cpp:334] loss3/classifier -> loss3/classifier
I0510 00:08:42.074026 27151 net.cpp:105] Setting up loss3/classifier
I0510 00:08:42.074057 27151 net.cpp:112] Top shape: 32 2 1 1 (64)
I0510 00:08:42.074067 27151 layer_factory.hpp:74] Creating layer loss3/classifier_loss3/classifier_0_split
I0510 00:08:42.074076 27151 net.cpp:76] Creating Layer loss3/classifier_loss3/classifier_0_split
I0510 00:08:42.074086 27151 net.cpp:372] loss3/classifier_loss3/classifier_0_split <- loss3/classifier
I0510 00:08:42.074095 27151 net.cpp:334] loss3/classifier_loss3/classifier_0_split -> loss3/classifier_loss3/classifier_0_split_0
I0510 00:08:42.074105 27151 net.cpp:334] loss3/classifier_loss3/classifier_0_split -> loss3/classifier_loss3/classifier_0_split_1
I0510 00:08:42.074113 27151 net.cpp:105] Setting up loss3/classifier_loss3/classifier_0_split
I0510 00:08:42.074120 27151 net.cpp:112] Top shape: 32 2 1 1 (64)
I0510 00:08:42.074147 27151 net.cpp:112] Top shape: 32 2 1 1 (64)
I0510 00:08:42.074154 27151 layer_factory.hpp:74] Creating layer loss3/loss3
I0510 00:08:42.074167 27151 net.cpp:76] Creating Layer loss3/loss3
I0510 00:08:42.074173 27151 net.cpp:372] loss3/loss3 <- loss3/classifier_loss3/classifier_0_split_0
I0510 00:08:42.074182 27151 net.cpp:372] loss3/loss3 <- label_data_1_split_4
I0510 00:08:42.074192 27151 net.cpp:334] loss3/loss3 -> loss3/loss3
I0510 00:08:42.074200 27151 net.cpp:105] Setting up loss3/loss3
I0510 00:08:42.074208 27151 layer_factory.hpp:74] Creating layer loss3/loss3
I0510 00:08:42.074228 27151 net.cpp:112] Top shape: 1 1 1 1 (1)
I0510 00:08:42.074234 27151 net.cpp:118]     with loss weight 1
I0510 00:08:42.074251 27151 layer_factory.hpp:74] Creating layer loss3/top-1
I0510 00:08:42.074262 27151 net.cpp:76] Creating Layer loss3/top-1
I0510 00:08:42.074280 27151 net.cpp:372] loss3/top-1 <- loss3/classifier_loss3/classifier_0_split_1
I0510 00:08:42.074288 27151 net.cpp:372] loss3/top-1 <- label_data_1_split_5
I0510 00:08:42.074297 27151 net.cpp:334] loss3/top-1 -> loss3/top-1
I0510 00:08:42.074306 27151 net.cpp:105] Setting up loss3/top-1
I0510 00:08:42.074312 27151 net.cpp:112] Top shape: 1 1 1 1 (1)
I0510 00:08:42.074318 27151 net.cpp:165] loss3/top-1 does not need backward computation.
I0510 00:08:42.074323 27151 net.cpp:163] loss3/loss3 needs backward computation.
I0510 00:08:42.074342 27151 net.cpp:163] loss3/classifier_loss3/classifier_0_split needs backward computation.
I0510 00:08:42.074349 27151 net.cpp:163] loss3/classifier needs backward computation.
I0510 00:08:42.074355 27151 net.cpp:163] pool5/drop_7x7_s1 needs backward computation.
…
