…
I0511 00:27:49.906992 28408 net.cpp:253] The NetState phase (0) differed from the phase (1) specified by a rule in layer loss3/top-1
I0511 00:27:49.908316 28408 net.cpp:42] Initializing net from parameters: 
name: "GoogleNet"
state {
  phase: TRAIN
}
layer {
  name: "data"
  type: "Data"
  top: "data"
  top: "label"
  include {
    phase: TRAIN
  }
  transform_param {
    mirror: true
    crop_size: 224
    mean_value: 104
    mean_value: 117
    mean_value: 123
  }
  data_param {
    source: "train_lmdb"
    batch_size: 32
    backend: LMDB
  }
}
layer {
  name: "conv1/7x7_s2"
  type: "Convolution"
  bottom: "data"
  top: "conv1/7x7_s2"
  param {
    lr_mult: 1
    decay_mult: 1
  }
  param {
    lr_mult: 2
    decay_mult: 0
  }
  convolution_param {
    num_output: 64
    pad: 3
    kernel_size: 7
    stride: 2
    weight_filler {
      type: "xavier"
      std: 0.1
    }
    bias_filler {
      type: "constant"
      value: 0.2
    }
  }
}
layer {
  name: "conv1/relu_7x7"
  type: "ReLU"
  bottom: "conv1/7x7_s2"
  top: "conv1/7x7_s2"
}
layer {
  name: "pool1/3x3_s2"
  type: "Pooling"
  bottom: "conv1/7x7_s2"
  top: "pool1/3x3_s2"
  pooling_param {
    pool: MAX
    kernel_size: 3
    stride: 2
  }
}
layer {
  name: "pool1/norm1"
  type: "LRN"
  bottom: "pool1/3x3_s2"
  top: "pool1/norm1"
  lrn_param {
    local_size: 5
    alpha: 0.0001
    beta: 0.75
  }
}
layer {
  name: "conv2/3x3_reduce"
  type: "Convolution"
  bottom: "pool1/norm1"
  top: "conv2/3x3_reduce"
  param {
    lr_mult: 1
    decay_mult: 1
  }
  param {
    lr_mult: 2
    decay_mult: 0
  }
  convolution_param {
    num_output: 64
    kernel_size: 1
    weight_filler {
      type: "xavier"
      std: 0.1
    }
    bias_filler {
      type: "constant"
      value: 0.2
    }
  }
}
layer {
  name: "conv2/relu_3x3_reduce"
  type: "ReLU"
  bottom: "conv2/3x3_reduce"
  top: "conv2/3x3_reduce"
}
layer {
  name: "conv2/3x3"
  type: "Convolution"
  bottom: "conv2/3x3_reduce"
  top: "conv2/3x3"
  param {
    lr_mult: 1
    decay_mult: 1
  }
  param {
    lr_mult: 2
    decay_mult: 0
  }
  convolution_param {
    num_output: 192
    pad: 1
    kernel_size: 3
    weight_filler {
      type: "xavier"
      std: 0.03
    }
    bias_filler {
      type: "constant"
      value: 0.2
    }
  }
}
layer {
  name: "conv2/relu_3x3"
  type: "ReLU"
  bottom: "conv2/3x3"
  top: "conv2/3x3"
}
layer {
  name: "conv2/norm2"
  type: "LRN"
  bottom: "conv2/3x3"
  top: "conv2/norm2"
  lrn_param {
    local_size: 5
    alpha: 0.0001
    beta: 0.75
  }
}
layer {
  name: "pool2/3x3_s2"
  type: "Pooling"
  bottom: "conv2/norm2"
  top: "pool2/3x3_s2"
  pooling_param {
    pool: MAX
    kernel_size: 3
    stride: 2
  }
}
layer {
  name: "inception_3a/1x1"
  type: "Convolution"
  bottom: "pool2/3x3_s2"
  top: "inception_3a/1x1"
  param {
    lr_mult: 1
    decay_mult: 1
  }
  param {
    lr_mult: 2
    decay_mult: 0
  }
  convolution_param {
    num_output: 64
    kernel_size: 1
    weight_filler {
      type: "xavier"
      std: 0.03
    }
    bias_filler {
      type: "constant"
      value: 0.2
    }
  }
}
layer {
  name: "inception_3a/relu_1x1"
  type: "ReLU"
  bottom: "inception_3a/1x1"
  top: "inception_3a/1x1"
}
layer {
  name: "inception_3a/3x3_reduce"
  type: "Convolution"
  bottom: "pool2/3x3_s2"
  top: "inception_3a/3x3_reduce"
  param {
    lr_mult: 1
    decay_mult: 1
  }
  param {
    lr_mult: 2
    decay_mult: 0
  }
  convolution_param {
    num_output: 96
    kernel_size: 1
    weight_filler {
      type: "xavier"
      std: 0.09
    }
    bias_filler {
      type: "constant"
      value: 0.2
    }
  }
}
layer {
  name: "inception_3a/relu_3x3_reduce"
  type: "ReLU"
  bottom: "inception_3a/3x3_reduce"
  top: "inception_3a/3x3_reduce"
}
layer {
  name: "inception_3a/3x3"
  type: "Convolution"
  bottom: "inception_3a/3x3_reduce"
  top: "inception_3a/3x3"
  param {
    lr_mult: 1
    decay_mult: 1
  }
  param {
    lr_mult: 2
    decay_mult: 0
  }
  convolution_param {
    num_output: 128
    pad: 1
    kernel_size: 3
    weight_filler {
      type: "xavier"
      std: 0.03
    }
    bias_filler {
      type: "constant"
      value: 0.2
    }
  }
}
layer {
  name: "inception_3a/relu_3x3"
  type: "ReLU"
  bottom: "inception_3a/3x3"
  top: "inception_3a/3x3"
}
layer {
  name: "inception_3a/5x5_reduce"
  type: "Convolution"
  bottom: "pool2/3x3_s2"
  top: "inception_3a/5x5_reduce"
  param {
    lr_mult: 1
    decay_mult: 1
  }
  param {
    lr_mult: 2
    decay_mult: 0
  }
  convolution_param {
    num_output: 16
    kernel_size: 1
    weight_filler {
      type: "xavier"
      std: 0.2
    }
    bias_filler {
      type: "constant"
      value: 0.2
    }
  }
}
layer {
  name: "inception_3a/relu_5x5_reduce"
  type: "ReLU"
  bottom: "inception_3a/5x5_reduce"
  top: "inception_3a/5x5_reduce"
}
layer {
  name: "inception_3a/5x5"
  type: "Convolution"
  bottom: "inception_3a/5x5_reduce"
  top: "inception_3a/5x5"
  param {
    lr_mult: 1
    decay_mult: 1
  }
  param {
    lr_mult: 2
    decay_mult: 0
  }
  convolution_param {
    num_output: 32
    pad: 2
    kernel_size: 5
    weight_filler {
      type: "xavier"
      std: 0.03
    }
    bias_filler {
      type: "constant"
      value: 0.2
    }
  }
}
layer {
  name: "inception_3a/relu_5x5"
  type: "ReLU"
  bottom: "inception_3a/5x5"
  top: "inception_3a/5x5"
}
layer {
  name: "inception_3a/pool"
  type: "Pooling"
  bottom: "pool2/3x3_s2"
  top: "inception_3a/pool"
  pooling_param {
    pool: MAX
    kernel_size: 3
    stride: 1
    pad: 1
  }
}
layer {
  name: "inception_3a/pool_proj"
  type: "Convolution"
  bottom: "inception_3a/pool"
  top: "inception_3a/pool_proj"
  param {
    lr_mult: 1
    decay_mult: 1
  }
  param {
    lr_mult: 2
    decay_mult: 0
  }
  convolution_param {
    num_output: 32
    kernel_size: 1
    weight_filler {
      type: "xavier"
      std: 0.1
    }
    bias_filler {
      type: "constant"
      value: 0.2
    }
  }
}
layer {
  name: "inception_3a/relu_pool_proj"
  type: "ReLU"
  bottom: "inception_3a/pool_proj"
  top: "inception_3a/pool_proj"
}
layer {
  name: "inception_3a/output"
  type: "Concat"
  bottom: "inception_3a/1x1"
  bottom: "inception_3a/3x3"
  bottom: "inception_3a/5x5"
  bottom: "inception_3a/pool_proj"
  top: "inception_3a/output"
}
layer {
  name: "inception_3b/1x1"
  type: "Convolution"
  bottom: "inception_3a/output"
  top: "inception_3b/1x1"
  param {
    lr_mult: 1
    decay_mult: 1
  }
  param {
    lr_mult: 2
    decay_mult: 0
  }
  convolution_param {
    num_output: 128
    kernel_size: 1
    weight_filler {
      type: "xavier"
      std: 0.03
    }
    bias_filler {
      type: "constant"
      value: 0.2
    }
  }
}
layer {
  name: "inception_3b/relu_1x1"
  type: "ReLU"
  bottom: "inception_3b/1x1"
  top: "inception_3b/1x1"
}
layer {
  name: "inception_3b/3x3_reduce"
  type: "Convolution"
  bottom: "inception_3a/output"
  top: "inception_3b/3x3_reduce"
  param {
    lr_mult: 1
    decay_mult: 1
  }
  param {
    lr_mult: 2
    decay_mult: 0
  }
  convolution_param {
    num_output: 128
    kernel_size: 1
    weight_filler {
      type: "xavier"
      std: 0.09
    }
    bias_filler {
      type: "constant"
      value: 0.2
    }
  }
}
layer {
  name: "inception_3b/relu_3x3_reduce"
  type: "ReLU"
  bottom: "inception_3b/3x3_reduce"
  top: "inception_3b/3x3_reduce"
}
layer {
  name: "inception_3b/3x3"
  type: "Convolution"
  bottom: "inception_3b/3x3_reduce"
  top: "inception_3b/3x3"
  param {
    lr_mult: 1
    decay_mult: 1
  }
  param {
    lr_mult: 2
    decay_mult: 0
  }
  convolution_param {
    num_output: 192
    pad: 1
    kernel_size: 3
    weight_filler {
      type: "xavier"
      std: 0.03
    }
    bias_filler {
      type: "constant"
      value: 0.2
    }
  }
}
layer {
  name: "inception_3b/relu_3x3"
  type: "ReLU"
  bottom: "inception_3b/3x3"
  top: "inception_3b/3x3"
}
layer {
  name: "inception_3b/5x5_reduce"
  type: "Convolution"
  bottom: "inception_3a/output"
  top: "inception_3b/5x5_reduce"
  param {
    lr_mult: 1
    decay_mult: 1
  }
  param {
    lr_mult: 2
    decay_mult: 0
  }
  convolution_param {
    num_output: 32
    kernel_size: 1
    weight_filler {
      type: "xavier"
      std: 0.2
    }
    bias_filler {
      type: "constant"
      value: 0.2
    }
  }
}
layer {
  name: "inception_3b/relu_5x5_reduce"
  type: "ReLU"
  bottom: "inception_3b/5x5_reduce"
  top: "inception_3b/5x5_reduce"
}
layer {
  name: "inception_3b/5x5"
  type: "Convolution"
  bottom: "inception_3b/5x5_reduce"
  top: "inception_3b/5x5"
  param {
    lr_mult: 1
    decay_mult: 1
  }
  param {
    lr_mult: 2
    decay_mult: 0
  }
  convolution_param {
    num_output: 96
    pad: 2
    kernel_size: 5
    weight_filler {
      type: "xavier"
      std: 0.03
    }
    bias_filler {
      type: "constant"
      value: 0.2
    }
  }
}
layer {
  name: "inception_3b/relu_5x5"
  type: "ReLU"
  bottom: "inception_3b/5x5"
  top: "inception_3b/5x5"
}
layer {
  name: "inception_3b/pool"
  type: "Pooling"
  bottom: "inception_3a/output"
  top: "inception_3b/pool"
  pooling_param {
    pool: MAX
    kernel_size: 3
    stride: 1
    pad: 1
  }
}
layer {
  name: "inception_3b/pool_proj"
  type: "Convolution"
  bottom: "inception_3b/pool"
  top: "inception_3b/pool_proj"
  param {
    lr_mult: 1
    decay_mult: 1
  }
  param {
    lr_mult: 2
    decay_mult: 0
  }
  convolution_param {
    num_output: 64
    kernel_size: 1
    weight_filler {
      type: "xavier"
      std: 0.1
    }
    bias_filler {
      type: "constant"
      value: 0.2
    }
  }
}
layer {
  name: "inception_3b/relu_pool_proj"
  type: "ReLU"
  bottom: "inception_3b/pool_proj"
  top: "inception_3b/pool_proj"
}
layer {
  name: "inception_3b/output"
  type: "Concat"
  bottom: "inception_3b/1x1"
  bottom: "inception_3b/3x3"
  bottom: "inception_3b/5x5"
  bottom: "inception_3b/pool_proj"
  top: "inception_3b/output"
}
layer {
  name: "pool3/3x3_s2"
  type: "Pooling"
  bottom: "inception_3b/output"
  top: "pool3/3x3_s2"
  pooling_param {
    pool: MAX
    kernel_size: 3
    stride: 2
  }
}
layer {
  name: "inception_4a/1x1"
  type: "Convolution"
  bottom: "pool3/3x3_s2"
  top: "inception_4a/1x1"
  param {
    lr_mult: 1
    decay_mult: 1
  }
  param {
    lr_mult: 2
    decay_mult: 0
  }
  convolution_param {
    num_output: 192
    kernel_size: 1
    weight_filler {
      type: "xavier"
      std: 0.03
    }
    bias_filler {
      type: "constant"
      value: 0.2
    }
  }
}
layer {
  name: "inception_4a/relu_1x1"
  type: "ReLU"
  bottom: "inception_4a/1x1"
  top: "inception_4a/1x1"
}
layer {
  name: "inception_4a/3x3_reduce"
  type: "Convolution"
  bottom: "pool3/3x3_s2"
  top: "inception_4a/3x3_reduce"
  param {
    lr_mult: 1
    decay_mult: 1
  }
  param {
    lr_mult: 2
    decay_mult: 0
  }
  convolution_param {
    num_output: 96
    kernel_size: 1
    weight_filler {
      type: "xavier"
      std: 0.09
    }
    bias_filler {
      type: "constant"
      value: 0.2
    }
  }
}
layer {
  name: "inception_4a/relu_3x3_reduce"
  type: "ReLU"
  bottom: "inception_4a/3x3_reduce"
  top: "inception_4a/3x3_reduce"
}
layer {
  name: "inception_4a/3x3"
  type: "Convolution"
  bottom: "inception_4a/3x3_reduce"
  top: "inception_4a/3x3"
  param {
    lr_mult: 1
    decay_mult: 1
  }
  param {
    lr_mult: 2
    decay_mult: 0
  }
  convolution_param {
    num_output: 208
    pad: 1
    kernel_size: 3
    weight_filler {
      type: "xavier"
      std: 0.03
    }
    bias_filler {
      type: "constant"
      value: 0.2
    }
  }
}
layer {
  name: "inception_4a/relu_3x3"
  type: "ReLU"
  bottom: "inception_4a/3x3"
  top: "inception_4a/3x3"
}
layer {
  name: "inception_4a/5x5_reduce"
  type: "Convolution"
  bottom: "pool3/3x3_s2"
  top: "inception_4a/5x5_reduce"
  param {
    lr_mult: 1
    decay_mult: 1
  }
  param {
    lr_mult: 2
    decay_mult: 0
  }
  convolution_param {
    num_output: 16
    kernel_size: 1
    weight_filler {
      type: "xavier"
      std: 0.2
    }
    bias_filler {
      type: "constant"
      value: 0.2
    }
  }
}
layer {
  name: "inception_4a/relu_5x5_reduce"
  type: "ReLU"
  bottom: "inception_4a/5x5_reduce"
  top: "inception_4a/5x5_reduce"
}
layer {
  name: "inception_4a/5x5"
  type: "Convolution"
  bottom: "inception_4a/5x5_reduce"
  top: "inception_4a/5x5"
  param {
    lr_mult: 1
    decay_mult: 1
  }
  param {
    lr_mult: 2
    decay_mult: 0
  }
  convolution_param {
    num_output: 48
    pad: 2
    kernel_size: 5
    weight_filler {
      type: "xavier"
      std: 0.03
    }
    bias_filler {
      type: "constant"
      value: 0.2
    }
  }
}
layer {
  name: "inception_4a/relu_5x5"
  type: "ReLU"
  bottom: "inception_4a/5x5"
  top: "inception_4a/5x5"
}
layer {
  name: "inception_4a/pool"
  type: "Pooling"
  bottom: "pool3/3x3_s2"
  top: "inception_4a/pool"
  pooling_param {
    pool: MAX
    kernel_size: 3
    stride: 1
    pad: 1
  }
}
layer {
  name: "inception_4a/pool_proj"
  type: "Convolution"
  bottom: "inception_4a/pool"
  top: "inception_4a/pool_proj"
  param {
    lr_mult: 1
    decay_mult: 1
  }
  param {
    lr_mult: 2
    decay_mult: 0
  }
  convolution_param {
    num_output: 64
    kernel_size: 1
    weight_filler {
      type: "xavier"
      std: 0.1
    }
    bias_filler {
      type: "constant"
      value: 0.2
    }
  }
}
layer {
  name: "inception_4a/relu_pool_proj"
  type: "ReLU"
  bottom: "inception_4a/pool_proj"
  top: "inception_4a/pool_proj"
}
layer {
  name: "inception_4a/output"
  type: "Concat"
  bottom: "inception_4a/1x1"
  bottom: "inception_4a/3x3"
  bottom: "inception_4a/5x5"
  bottom: "inception_4a/pool_proj"
  top: "inception_4a/output"
}
layer {
  name: "loss1/ave_pool"
  type: "Pooling"
  bottom: "inception_4a/output"
  top: "loss1/ave_pool"
  pooling_param {
    pool: AVE
    kernel_size: 5
    stride: 3
  }
}
layer {
  name: "loss1/conv"
  type: "Convolution"
  bottom: "loss1/ave_pool"
  top: "loss1/conv"
  param {
    lr_mult: 1
    decay_mult: 1
  }
  param {
    lr_mult: 2
    decay_mult: 0
  }
  convolution_param {
    num_output: 128
    kernel_size: 1
    weight_filler {
      type: "xavier"
      std: 0.08
    }
    bias_filler {
      type: "constant"
      value: 0.2
    }
  }
}
layer {
  name: "loss1/relu_conv"
  type: "ReLU"
  bottom: "loss1/conv"
  top: "loss1/conv"
}
layer {
  name: "loss1/fc"
  type: "InnerProduct"
  bottom: "loss1/conv"
  top: "loss1/fc"
  param {
    lr_mult: 1
    decay_mult: 1
  }
  param {
    lr_mult: 2
    decay_mult: 0
  }
  inner_product_param {
    num_output: 1024
    weight_filler {
      type: "xavier"
      std: 0.02
    }
    bias_filler {
      type: "constant"
      value: 0.2
    }
  }
}
layer {
  name: "loss1/relu_fc"
  type: "ReLU"
  bottom: "loss1/fc"
  top: "loss1/fc"
}
layer {
  name: "loss1/drop_fc"
  type: "Dropout"
  bottom: "loss1/fc"
  top: "loss1/fc"
  dropout_param {
    dropout_ratio: 0.7
  }
}
layer {
  name: "loss1/classifier"
  type: "InnerProduct"
  bottom: "loss1/fc"
  top: "loss1/classifier"
  param {
    lr_mult: 1
    decay_mult: 1
  }
  param {
    lr_mult: 2
    decay_mult: 0
  }
  inner_product_param {
    num_output: 2
    weight_filler {
      type: "xavier"
      std: 0.0009765625
    }
    bias_filler {
      type: "constant"
      value: 0
    }
  }
}
layer {
  name: "loss1/loss"
  type: "SoftmaxWithLoss"
  bottom: "loss1/classifier"
  bottom: "label"
  top: "loss1/loss1"
  loss_weight: 0.3
}
layer {
  name: "inception_4b/1x1"
  type: "Convolution"
  bottom: "inception_4a/output"
  top: "inception_4b/1x1"
  param {
    lr_mult: 1
    decay_mult: 1
  }
  param {
    lr_mult: 2
    decay_mult: 0
  }
  convolution_param {
    num_output: 160
    kernel_size: 1
    weight_filler {
      type: "xavier"
      std: 0.03
    }
    bias_filler {
      type: "constant"
      value: 0.2
    }
  }
}
layer {
  name: "inception_4b/relu_1x1"
  type: "ReLU"
  bottom: "inception_4b/1x1"
  top: "inception_4b/1x1"
}
layer {
  name: "inception_4b/3x3_reduce"
  type: "Convolution"
  bottom: "inception_4a/output"
  top: "inception_4b/3x3_reduce"
  param {
    lr_mult: 1
    decay_mult: 1
  }
  param {
    lr_mult: 2
    decay_mult: 0
  }
  convolution_param {
    num_output: 112
    kernel_size: 1
    weight_filler {
      type: "xavier"
      std: 0.09
    }
    bias_filler {
      type: "constant"
      value: 0.2
    }
  }
}
layer {
  name: "inception_4b/relu_3x3_reduce"
  type: "ReLU"
  bottom: "inception_4b/3x3_reduce"
  top: "inception_4b/3x3_reduce"
}
layer {
  name: "inception_4b/3x3"
  type: "Convolution"
  bottom: "inception_4b/3x3_reduce"
  top: "inception_4b/3x3"
  param {
    lr_mult: 1
    decay_mult: 1
  }
  param {
    lr_mult: 2
    decay_mult: 0
  }
  convolution_param {
    num_output: 224
    pad: 1
    kernel_size: 3
    weight_filler {
      type: "xavier"
      std: 0.03
    }
    bias_filler {
      type: "constant"
      value: 0.2
    }
  }
}
layer {
  name: "inception_4b/relu_3x3"
  type: "ReLU"
  bottom: "inception_4b/3x3"
  top: "inception_4b/3x3"
}
layer {
  name: "inception_4b/5x5_reduce"
  type: "Convolution"
  bottom: "inception_4a/output"
  top: "inception_4b/5x5_reduce"
  param {
    lr_mult: 1
    decay_mult: 1
  }
  param {
    lr_mult: 2
    decay_mult: 0
  }
  convolution_param {
    num_output: 24
    kernel_size: 1
    weight_filler {
      type: "xavier"
      std: 0.2
    }
    bias_filler {
      type: "constant"
      value: 0.2
    }
  }
}
layer {
  name: "inception_4b/relu_5x5_reduce"
  type: "ReLU"
  bottom: "inception_4b/5x5_reduce"
  top: "inception_4b/5x5_reduce"
}
layer {
  name: "inception_4b/5x5"
  type: "Convolution"
  bottom: "inception_4b/5x5_reduce"
  top: "inception_4b/5x5"
  param {
    lr_mult: 1
    decay_mult: 1
  }
  param {
    lr_mult: 2
    decay_mult: 0
  }
  convolution_param {
    num_output: 64
    pad: 2
    kernel_size: 5
    weight_filler {
      type: "xavier"
      std: 0.03
    }
    bias_filler {
      type: "constant"
      value: 0.2
    }
  }
}
layer {
  name: "inception_4b/relu_5x5"
  type: "ReLU"
  bottom: "inception_4b/5x5"
  top: "inception_4b/5x5"
}
layer {
  name: "inception_4b/pool"
  type: "Pooling"
  bottom: "inception_4a/output"
  top: "inception_4b/pool"
  pooling_param {
    pool: MAX
    kernel_size: 3
    stride: 1
    pad: 1
  }
}
layer {
  name: "inception_4b/pool_proj"
  type: "Convolution"
  bottom: "inception_4b/pool"
  top: "inception_4b/pool_proj"
  param {
    lr_mult: 1
    decay_mult: 1
  }
  param {
    lr_mult: 2
    decay_mult: 0
  }
  convolution_param {
    num_output: 64
    kernel_size: 1
    weight_filler {
      type: "xavier"
      std: 0.1
    }
    bias_filler {
      type: "constant"
      value: 0.2
    }
  }
}
layer {
  name: "inception_4b/relu_pool_proj"
  type: "ReLU"
  bottom: "inception_4b/pool_proj"
  top: "inception_4b/pool_proj"
}
layer {
  name: "inception_4b/output"
  type: "Concat"
  bottom: "inception_4b/1x1"
  bottom: "inception_4b/3x3"
  bottom: "inception_4b/5x5"
  bottom: "inception_4b/pool_proj"
  top: "inception_4b/output"
}
layer {
  name: "inception_4c/1x1"
  type: "Convolution"
  bottom: "inception_4b/output"
  top: "inception_4c/1x1"
  param {
    lr_mult: 1
    decay_mult: 1
  }
  param {
    lr_mult: 2
    decay_mult: 0
  }
  convolution_param {
    num_output: 128
    kernel_size: 1
    weight_filler {
      type: "xavier"
      std: 0.03
    }
    bias_filler {
      type: "constant"
      value: 0.2
    }
  }
}
layer {
  name: "inception_4c/relu_1x1"
  type: "ReLU"
  bottom: "inception_4c/1x1"
  top: "inception_4c/1x1"
}
layer {
  name: "inception_4c/3x3_reduce"
  type: "Convolution"
  bottom: "inception_4b/output"
  top: "inception_4c/3x3_reduce"
  param {
    lr_mult: 1
    decay_mult: 1
  }
  param {
    lr_mult: 2
    decay_mult: 0
  }
  convolution_param {
    num_output: 128
    kernel_size: 1
    weight_filler {
      type: "xavier"
      std: 0.09
    }
    bias_filler {
      type: "constant"
      value: 0.2
    }
  }
}
layer {
  name: "inception_4c/relu_3x3_reduce"
  type: "ReLU"
  bottom: "inception_4c/3x3_reduce"
  top: "inception_4c/3x3_reduce"
}
layer {
  name: "inception_4c/3x3"
  type: "Convolution"
  bottom: "inception_4c/3x3_reduce"
  top: "inception_4c/3x3"
  param {
    lr_mult: 1
    decay_mult: 1
  }
  param {
    lr_mult: 2
    decay_mult: 0
  }
  convolution_param {
    num_output: 256
    pad: 1
    kernel_size: 3
    weight_filler {
      type: "xavier"
      std: 0.03
    }
    bias_filler {
      type: "constant"
      value: 0.2
    }
  }
}
layer {
  name: "inception_4c/relu_3x3"
  type: "ReLU"
  bottom: "inception_4c/3x3"
  top: "inception_4c/3x3"
}
layer {
  name: "inception_4c/5x5_reduce"
  type: "Convolution"
  bottom: "inception_4b/output"
  top: "inception_4c/5x5_reduce"
  param {
    lr_mult: 1
    decay_mult: 1
  }
  param {
    lr_mult: 2
    decay_mult: 0
  }
  convolution_param {
    num_output: 24
    kernel_size: 1
    weight_filler {
      type: "xavier"
      std: 0.2
    }
    bias_filler {
      type: "constant"
      value: 0.2
    }
  }
}
layer {
  name: "inception_4c/relu_5x5_reduce"
  type: "ReLU"
  bottom: "inception_4c/5x5_reduce"
  top: "inception_4c/5x5_reduce"
}
layer {
  name: "inception_4c/5x5"
  type: "Convolution"
  bottom: "inception_4c/5x5_reduce"
  top: "inception_4c/5x5"
  param {
    lr_mult: 1
    decay_mult: 1
  }
  param {
    lr_mult: 2
    decay_mult: 0
  }
  convolution_param {
    num_output: 64
    pad: 2
    kernel_size: 5
    weight_filler {
      type: "xavier"
      std: 0.03
    }
    bias_filler {
      type: "constant"
      value: 0.2
    }
  }
}
layer {
  name: "inception_4c/relu_5x5"
  type: "ReLU"
  bottom: "inception_4c/5x5"
  top: "inception_4c/5x5"
}
layer {
  name: "inception_4c/pool"
  type: "Pooling"
  bottom: "inception_4b/output"
  top: "inception_4c/pool"
  pooling_param {
    pool: MAX
    kernel_size: 3
    stride: 1
    pad: 1
  }
}
layer {
  name: "inception_4c/pool_proj"
  type: "Convolution"
  bottom: "inception_4c/pool"
  top: "inception_4c/pool_proj"
  param {
    lr_mult: 1
    decay_mult: 1
  }
  param {
    lr_mult: 2
    decay_mult: 0
  }
  convolution_param {
    num_output: 64
    kernel_size: 1
    weight_filler {
      type: "xavier"
      std: 0.1
    }
    bias_filler {
      type: "constant"
      value: 0.2
    }
  }
}
layer {
  name: "inception_4c/relu_pool_proj"
  type: "ReLU"
  bottom: "inception_4c/pool_proj"
  top: "inception_4c/pool_proj"
}
layer {
  name: "inception_4c/output"
  type: "Concat"
  bottom: "inception_4c/1x1"
  bottom: "inception_4c/3x3"
  bottom: "inception_4c/5x5"
  bottom: "inception_4c/pool_proj"
  top: "inception_4c/output"
}
layer {
  name: "inception_4d/1x1"
  type: "Convolution"
  bottom: "inception_4c/output"
  top: "inception_4d/1x1"
  param {
    lr_mult: 1
    decay_mult: 1
  }
  param {
    lr_mult: 2
    decay_mult: 0
  }
  convolution_param {
    num_output: 112
    kernel_size: 1
    weight_filler {
      type: "xavier"
      std: 0.03
    }
    bias_filler {
      type: "constant"
      value: 0.2
    }
  }
}
layer {
  name: "inception_4d/relu_1x1"
  type: "ReLU"
  bottom: "inception_4d/1x1"
  top: "inception_4d/1x1"
}
layer {
  name: "inception_4d/3x3_reduce"
  type: "Convolution"
  bottom: "inception_4c/output"
  top: "inception_4d/3x3_reduce"
  param {
    lr_mult: 1
    decay_mult: 1
  }
  param {
    lr_mult: 2
    decay_mult: 0
  }
  convolution_param {
    num_output: 144
    kernel_size: 1
    weight_filler {
      type: "xavier"
      std: 0.09
    }
    bias_filler {
      type: "constant"
      value: 0.2
    }
  }
}
layer {
  name: "inception_4d/relu_3x3_reduce"
  type: "ReLU"
  bottom: "inception_4d/3x3_reduce"
  top: "inception_4d/3x3_reduce"
}
layer {
  name: "inception_4d/3x3"
  type: "Convolution"
  bottom: "inception_4d/3x3_reduce"
  top: "inception_4d/3x3"
  param {
    lr_mult: 1
    decay_mult: 1
  }
  param {
    lr_mult: 2
    decay_mult: 0
  }
  convolution_param {
    num_output: 288
    pad: 1
    kernel_size: 3
    weight_filler {
      type: "xavier"
      std: 0.03
    }
    bias_filler {
      type: "constant"
      value: 0.2
    }
  }
}
layer {
  name: "inception_4d/relu_3x3"
  type: "ReLU"
  bottom: "inception_4d/3x3"
  top: "inception_4d/3x3"
}
layer {
  name: "inception_4d/5x5_reduce"
  type: "Convolution"
  bottom: "inception_4c/output"
  top: "inception_4d/5x5_reduce"
  param {
    lr_mult: 1
    decay_mult: 1
  }
  param {
    lr_mult: 2
    decay_mult: 0
  }
  convolution_param {
    num_output: 32
    kernel_size: 1
    weight_filler {
      type: "xavier"
      std: 0.2
    }
    bias_filler {
      type: "constant"
      value: 0.2
    }
  }
}
layer {
  name: "inception_4d/relu_5x5_reduce"
  type: "ReLU"
  bottom: "inception_4d/5x5_reduce"
  top: "inception_4d/5x5_reduce"
}
layer {
  name: "inception_4d/5x5"
  type: "Convolution"
  bottom: "inception_4d/5x5_reduce"
  top: "inception_4d/5x5"
  param {
    lr_mult: 1
    decay_mult: 1
  }
  param {
    lr_mult: 2
    decay_mult: 0
  }
  convolution_param {
    num_output: 64
    pad: 2
    kernel_size: 5
    weight_filler {
      type: "xavier"
      std: 0.03
    }
    bias_filler {
      type: "constant"
      value: 0.2
    }
  }
}
layer {
  name: "inception_4d/relu_5x5"
  type: "ReLU"
  bottom: "inception_4d/5x5"
  top: "inception_4d/5x5"
}
layer {
  name: "inception_4d/pool"
  type: "Pooling"
  bottom: "inception_4c/output"
  top: "inception_4d/pool"
  pooling_param {
    pool: MAX
    kernel_size: 3
    stride: 1
    pad: 1
  }
}
layer {
  name: "inception_4d/pool_proj"
  type: "Convolution"
  bottom: "inception_4d/pool"
  top: "inception_4d/pool_proj"
  param {
    lr_mult: 1
    decay_mult: 1
  }
  param {
    lr_mult: 2
    decay_mult: 0
  }
  convolution_param {
    num_output: 64
    kernel_size: 1
    weight_filler {
      type: "xavier"
      std: 0.1
    }
    bias_filler {
      type: "constant"
      value: 0.2
    }
  }
}
layer {
  name: "inception_4d/relu_pool_proj"
  type: "ReLU"
  bottom: "inception_4d/pool_proj"
  top: "inception_4d/pool_proj"
}
layer {
  name: "inception_4d/output"
  type: "Concat"
  bottom: "inception_4d/1x1"
  bottom: "inception_4d/3x3"
  bottom: "inception_4d/5x5"
  bottom: "inception_4d/pool_proj"
  top: "inception_4d/output"
}
layer {
  name: "loss2/ave_pool"
  type: "Pooling"
  bottom: "inception_4d/output"
  top: "loss2/ave_pool"
  pooling_param {
    pool: AVE
    kernel_size: 5
    stride: 3
  }
}
layer {
  name: "loss2/conv"
  type: "Convolution"
  bottom: "loss2/ave_pool"
  top: "loss2/conv"
  param {
    lr_mult: 1
    decay_mult: 1
  }
  param {
    lr_mult: 2
    decay_mult: 0
  }
  convolution_param {
    num_output: 128
    kernel_size: 1
    weight_filler {
      type: "xavier"
      std: 0.08
    }
    bias_filler {
      type: "constant"
      value: 0.2
    }
  }
}
layer {
  name: "loss2/relu_conv"
  type: "ReLU"
  bottom: "loss2/conv"
  top: "loss2/conv"
}
layer {
  name: "loss2/fc"
  type: "InnerProduct"
  bottom: "loss2/conv"
  top: "loss2/fc"
  param {
    lr_mult: 1
    decay_mult: 1
  }
  param {
    lr_mult: 2
    decay_mult: 0
  }
  inner_product_param {
    num_output: 1024
    weight_filler {
      type: "xavier"
      std: 0.02
    }
    bias_filler {
      type: "constant"
      value: 0.2
    }
  }
}
layer {
  name: "loss2/relu_fc"
  type: "ReLU"
  bottom: "loss2/fc"
  top: "loss2/fc"
}
layer {
  name: "loss2/drop_fc"
  type: "Dropout"
  bottom: "loss2/fc"
  top: "loss2/fc"
  dropout_param {
    dropout_ratio: 0.7
  }
}
layer {
  name: "loss2/classifier"
  type: "InnerProduct"
  bottom: "loss2/fc"
  top: "loss2/classifier"
  param {
    lr_mult: 1
    decay_mult: 1
  }
  param {
    lr_mult: 2
    decay_mult: 0
  }
  inner_product_param {
    num_output: 2
    weight_filler {
      type: "xavier"
      std: 0.0009765625
    }
    bias_filler {
      type: "constant"
      value: 0
    }
  }
}
layer {
  name: "loss2/loss"
  type: "SoftmaxWithLoss"
  bottom: "loss2/classifier"
  bottom: "label"
  top: "loss2/loss1"
  loss_weight: 0.3
}
layer {
  name: "inception_4e/1x1"
  type: "Convolution"
  bottom: "inception_4d/output"
  top: "inception_4e/1x1"
  param {
    lr_mult: 1
    decay_mult: 1
  }
  param {
    lr_mult: 2
    decay_mult: 0
  }
  convolution_param {
    num_output: 256
    kernel_size: 1
    weight_filler {
      type: "xavier"
      std: 0.03
    }
    bias_filler {
      type: "constant"
      value: 0.2
    }
  }
}
layer {
  name: "inception_4e/relu_1x1"
  type: "ReLU"
  bottom: "inception_4e/1x1"
  top: "inception_4e/1x1"
}
layer {
  name: "inception_4e/3x3_reduce"
  type: "Convolution"
  bottom: "inception_4d/output"
  top: "inception_4e/3x3_reduce"
  param {
    lr_mult: 1
    decay_mult: 1
  }
  param {
    lr_mult: 2
    decay_mult: 0
  }
  convolution_param {
    num_output: 160
    kernel_size: 1
    weight_filler {
      type: "xavier"
      std: 0.09
    }
    bias_filler {
      type: "constant"
      value: 0.2
    }
  }
}
layer {
  name: "inception_4e/relu_3x3_reduce"
  type: "ReLU"
  bottom: "inception_4e/3x3_reduce"
  top: "inception_4e/3x3_reduce"
}
layer {
  name: "inception_4e/3x3"
  type: "Convolution"
  bottom: "inception_4e/3x3_reduce"
  top: "inception_4e/3x3"
  param {
    lr_mult: 1
    decay_mult: 1
  }
  param {
    lr_mult: 2
    decay_mult: 0
  }
  convolution_param {
    num_output: 320
    pad: 1
    kernel_size: 3
    weight_filler {
      type: "xavier"
      std: 0.03
    }
    bias_filler {
      type: "constant"
      value: 0.2
    }
  }
}
layer {
  name: "inception_4e/relu_3x3"
  type: "ReLU"
  bottom: "inception_4e/3x3"
  top: "inception_4e/3x3"
}
layer {
  name: "inception_4e/5x5_reduce"
  type: "Convolution"
  bottom: "inception_4d/output"
  top: "inception_4e/5x5_reduce"
  param {
    lr_mult: 1
    decay_mult: 1
  }
  param {
    lr_mult: 2
    decay_mult: 0
  }
  convolution_param {
    num_output: 32
    kernel_size: 1
    weight_filler {
      type: "xavier"
      std: 0.2
    }
    bias_filler {
      type: "constant"
      value: 0.2
    }
  }
}
layer {
  name: "inception_4e/relu_5x5_reduce"
  type: "ReLU"
  bottom: "
I0511 00:27:49.913545 28408 layer_factory.hpp:74] Creating layer data
I0511 00:27:49.913574 28408 net.cpp:76] Creating Layer data
I0511 00:27:49.913588 28408 net.cpp:334] data -> data
I0511 00:27:49.913616 28408 net.cpp:334] data -> label
I0511 00:27:49.913635 28408 net.cpp:105] Setting up data
I0511 00:27:49.913758 28408 db.cpp:34] Opened lmdb train_lmdb
I0511 00:27:49.914073 28408 data_layer.cpp:67] output data size: 32,3,224,224
I0511 00:27:49.920677 28408 net.cpp:112] Top shape: 32 3 224 224 (4816896)
I0511 00:27:49.920696 28408 net.cpp:112] Top shape: 32 1 1 1 (32)
I0511 00:27:49.920704 28408 layer_factory.hpp:74] Creating layer label_data_1_split
I0511 00:27:49.920717 28408 net.cpp:76] Creating Layer label_data_1_split
I0511 00:27:49.920725 28408 net.cpp:372] label_data_1_split <- label
I0511 00:27:49.920740 28408 net.cpp:334] label_data_1_split -> label_data_1_split_0
I0511 00:27:49.920753 28408 net.cpp:334] label_data_1_split -> label_data_1_split_1
I0511 00:27:49.920761 28408 net.cpp:334] label_data_1_split -> label_data_1_split_2
I0511 00:27:49.920769 28408 net.cpp:105] Setting up label_data_1_split
I0511 00:27:49.920778 28408 net.cpp:112] Top shape: 32 1 1 1 (32)
I0511 00:27:49.920783 28408 net.cpp:112] Top shape: 32 1 1 1 (32)
I0511 00:27:49.920789 28408 net.cpp:112] Top shape: 32 1 1 1 (32)
I0511 00:27:49.920794 28408 layer_factory.hpp:74] Creating layer conv1/7x7_s2
I0511 00:27:49.920807 28408 net.cpp:76] Creating Layer conv1/7x7_s2
I0511 00:27:49.920814 28408 net.cpp:372] conv1/7x7_s2 <- data
I0511 00:27:49.920821 28408 net.cpp:334] conv1/7x7_s2 -> conv1/7x7_s2
I0511 00:27:49.920833 28408 net.cpp:105] Setting up conv1/7x7_s2
I0511 00:27:49.920954 28408 net.cpp:112] Top shape: 32 64 112 112 (25690112)
I0511 00:27:49.920990 28408 layer_factory.hpp:74] Creating layer conv1/relu_7x7
I0511 00:27:49.921000 28408 net.cpp:76] Creating Layer conv1/relu_7x7
I0511 00:27:49.921005 28408 net.cpp:372] conv1/relu_7x7 <- conv1/7x7_s2
I0511 00:27:49.921012 28408 net.cpp:323] conv1/relu_7x7 -> conv1/7x7_s2 (in-place)
I0511 00:27:49.921020 28408 net.cpp:105] Setting up conv1/relu_7x7
I0511 00:27:49.921028 28408 net.cpp:112] Top shape: 32 64 112 112 (25690112)
I0511 00:27:49.921035 28408 layer_factory.hpp:74] Creating layer pool1/3x3_s2
I0511 00:27:49.921043 28408 net.cpp:76] Creating Layer pool1/3x3_s2
I0511 00:27:49.921048 28408 net.cpp:372] pool1/3x3_s2 <- conv1/7x7_s2
I0511 00:27:49.921056 28408 net.cpp:334] pool1/3x3_s2 -> pool1/3x3_s2
I0511 00:27:49.921066 28408 net.cpp:105] Setting up pool1/3x3_s2
I0511 00:27:49.921078 28408 net.cpp:112] Top shape: 32 64 56 56 (6422528)
I0511 00:27:49.921085 28408 layer_factory.hpp:74] Creating layer pool1/norm1
I0511 00:27:49.921094 28408 net.cpp:76] Creating Layer pool1/norm1
I0511 00:27:49.921100 28408 net.cpp:372] pool1/norm1 <- pool1/3x3_s2
I0511 00:27:49.921108 28408 net.cpp:334] pool1/norm1 -> pool1/norm1
I0511 00:27:49.921118 28408 net.cpp:105] Setting up pool1/norm1
I0511 00:27:49.921124 28408 net.cpp:112] Top shape: 32 64 56 56 (6422528)
I0511 00:27:49.921129 28408 layer_factory.hpp:74] Creating layer conv2/3x3_reduce
I0511 00:27:49.921138 28408 net.cpp:76] Creating Layer conv2/3x3_reduce
I0511 00:27:49.921144 28408 net.cpp:372] conv2/3x3_reduce <- pool1/norm1
I0511 00:27:49.921151 28408 net.cpp:334] conv2/3x3_reduce -> conv2/3x3_reduce
I0511 00:27:49.921161 28408 net.cpp:105] Setting up conv2/3x3_reduce
I0511 00:27:49.921203 28408 net.cpp:112] Top shape: 32 64 56 56 (6422528)
I0511 00:27:49.921214 28408 layer_factory.hpp:74] Creating layer conv2/relu_3x3_reduce
I0511 00:27:49.921222 28408 net.cpp:76] Creating Layer conv2/relu_3x3_reduce
I0511 00:27:49.921227 28408 net.cpp:372] conv2/relu_3x3_reduce <- conv2/3x3_reduce
I0511 00:27:49.921234 28408 net.cpp:323] conv2/relu_3x3_reduce -> conv2/3x3_reduce (in-place)
I0511 00:27:49.921241 28408 net.cpp:105] Setting up conv2/relu_3x3_reduce
I0511 00:27:49.921247 28408 net.cpp:112] Top shape: 32 64 56 56 (6422528)
I0511 00:27:49.921252 28408 layer_factory.hpp:74] Creating layer conv2/3x3
I0511 00:27:49.921260 28408 net.cpp:76] Creating Layer conv2/3x3
I0511 00:27:49.921265 28408 net.cpp:372] conv2/3x3 <- conv2/3x3_reduce
I0511 00:27:49.921298 28408 net.cpp:334] conv2/3x3 -> conv2/3x3
I0511 00:27:49.921316 28408 net.cpp:105] Setting up conv2/3x3
I0511 00:27:49.922991 28408 net.cpp:112] Top shape: 32 192 56 56 (19267584)
I0511 00:27:49.923017 28408 layer_factory.hpp:74] Creating layer conv2/relu_3x3
I0511 00:27:49.923028 28408 net.cpp:76] Creating Layer conv2/relu_3x3
I0511 00:27:49.923034 28408 net.cpp:372] conv2/relu_3x3 <- conv2/3x3
I0511 00:27:49.923048 28408 net.cpp:323] conv2/relu_3x3 -> conv2/3x3 (in-place)
I0511 00:27:49.923058 28408 net.cpp:105] Setting up conv2/relu_3x3
I0511 00:27:49.923063 28408 net.cpp:112] Top shape: 32 192 56 56 (19267584)
I0511 00:27:49.923069 28408 layer_factory.hpp:74] Creating layer conv2/norm2
I0511 00:27:49.923077 28408 net.cpp:76] Creating Layer conv2/norm2
I0511 00:27:49.923082 28408 net.cpp:372] conv2/norm2 <- conv2/3x3
I0511 00:27:49.923095 28408 net.cpp:334] conv2/norm2 -> conv2/norm2
I0511 00:27:49.923105 28408 net.cpp:105] Setting up conv2/norm2
I0511 00:27:49.923110 28408 net.cpp:112] Top shape: 32 192 56 56 (19267584)
I0511 00:27:49.923116 28408 layer_factory.hpp:74] Creating layer pool2/3x3_s2
I0511 00:27:49.923123 28408 net.cpp:76] Creating Layer pool2/3x3_s2
I0511 00:27:49.923128 28408 net.cpp:372] pool2/3x3_s2 <- conv2/norm2
I0511 00:27:49.923136 28408 net.cpp:334] pool2/3x3_s2 -> pool2/3x3_s2
I0511 00:27:49.923144 28408 net.cpp:105] Setting up pool2/3x3_s2
I0511 00:27:49.923151 28408 net.cpp:112] Top shape: 32 192 28 28 (4816896)
I0511 00:27:49.923156 28408 layer_factory.hpp:74] Creating layer pool2/3x3_s2_pool2/3x3_s2_0_split
I0511 00:27:49.923204 28408 net.cpp:76] Creating Layer pool2/3x3_s2_pool2/3x3_s2_0_split
I0511 00:27:49.923241 28408 net.cpp:372] pool2/3x3_s2_pool2/3x3_s2_0_split <- pool2/3x3_s2
I0511 00:27:49.923254 28408 net.cpp:334] pool2/3x3_s2_pool2/3x3_s2_0_split -> pool2/3x3_s2_pool2/3x3_s2_0_split_0
I0511 00:27:49.923264 28408 net.cpp:334] pool2/3x3_s2_pool2/3x3_s2_0_split -> pool2/3x3_s2_pool2/3x3_s2_0_split_1
I0511 00:27:49.923276 28408 net.cpp:334] pool2/3x3_s2_pool2/3x3_s2_0_split -> pool2/3x3_s2_pool2/3x3_s2_0_split_2
I0511 00:27:49.923295 28408 net.cpp:334] pool2/3x3_s2_pool2/3x3_s2_0_split -> pool2/3x3_s2_pool2/3x3_s2_0_split_3
I0511 00:27:49.923316 28408 net.cpp:105] Setting up pool2/3x3_s2_pool2/3x3_s2_0_split
I0511 00:27:49.923331 28408 net.cpp:112] Top shape: 32 192 28 28 (4816896)
I0511 00:27:49.923353 28408 net.cpp:112] Top shape: 32 192 28 28 (4816896)
I0511 00:27:49.923359 28408 net.cpp:112] Top shape: 32 192 28 28 (4816896)
I0511 00:27:49.923364 28408 net.cpp:112] Top shape: 32 192 28 28 (4816896)
I0511 00:27:49.923370 28408 layer_factory.hpp:74] Creating layer inception_3a/1x1
I0511 00:27:49.923380 28408 net.cpp:76] Creating Layer inception_3a/1x1
I0511 00:27:49.923387 28408 net.cpp:372] inception_3a/1x1 <- pool2/3x3_s2_pool2/3x3_s2_0_split_0
I0511 00:27:49.923399 28408 net.cpp:334] inception_3a/1x1 -> inception_3a/1x1
I0511 00:27:49.923411 28408 net.cpp:105] Setting up inception_3a/1x1
I0511 00:27:49.923593 28408 net.cpp:112] Top shape: 32 64 28 28 (1605632)
I0511 00:27:49.923609 28408 layer_factory.hpp:74] Creating layer inception_3a/relu_1x1
I0511 00:27:49.923619 28408 net.cpp:76] Creating Layer inception_3a/relu_1x1
I0511 00:27:49.923624 28408 net.cpp:372] inception_3a/relu_1x1 <- inception_3a/1x1
I0511 00:27:49.923635 28408 net.cpp:323] inception_3a/relu_1x1 -> inception_3a/1x1 (in-place)
I0511 00:27:49.923642 28408 net.cpp:105] Setting up inception_3a/relu_1x1
I0511 00:27:49.923647 28408 net.cpp:112] Top shape: 32 64 28 28 (1605632)
I0511 00:27:49.923653 28408 layer_factory.hpp:74] Creating layer inception_3a/3x3_reduce
I0511 00:27:49.923662 28408 net.cpp:76] Creating Layer inception_3a/3x3_reduce
I0511 00:27:49.923667 28408 net.cpp:372] inception_3a/3x3_reduce <- pool2/3x3_s2_pool2/3x3_s2_0_split_1
I0511 00:27:49.923682 28408 net.cpp:334] inception_3a/3x3_reduce -> inception_3a/3x3_reduce
I0511 00:27:49.923693 28408 net.cpp:105] Setting up inception_3a/3x3_reduce
I0511 00:27:49.923944 28408 net.cpp:112] Top shape: 32 96 28 28 (2408448)
I0511 00:27:49.923967 28408 layer_factory.hpp:74] Creating layer inception_3a/relu_3x3_reduce
I0511 00:27:49.923980 28408 net.cpp:76] Creating Layer inception_3a/relu_3x3_reduce
I0511 00:27:49.923991 28408 net.cpp:372] inception_3a/relu_3x3_reduce <- inception_3a/3x3_reduce
I0511 00:27:49.924007 28408 net.cpp:323] inception_3a/relu_3x3_reduce -> inception_3a/3x3_reduce (in-place)
I0511 00:27:49.924017 28408 net.cpp:105] Setting up inception_3a/relu_3x3_reduce
I0511 00:27:49.924023 28408 net.cpp:112] Top shape: 32 96 28 28 (2408448)
I0511 00:27:49.924028 28408 layer_factory.hpp:74] Creating layer inception_3a/3x3
I0511 00:27:49.924041 28408 net.cpp:76] Creating Layer inception_3a/3x3
I0511 00:27:49.924057 28408 net.cpp:372] inception_3a/3x3 <- inception_3a/3x3_reduce
I0511 00:27:49.924082 28408 net.cpp:334] inception_3a/3x3 -> inception_3a/3x3
I0511 00:27:49.924103 28408 net.cpp:105] Setting up inception_3a/3x3
I0511 00:27:49.925398 28408 net.cpp:112] Top shape: 32 128 28 28 (3211264)
I0511 00:27:49.925426 28408 layer_factory.hpp:74] Creating layer inception_3a/relu_3x3
I0511 00:27:49.925441 28408 net.cpp:76] Creating Layer inception_3a/relu_3x3
I0511 00:27:49.925447 28408 net.cpp:372] inception_3a/relu_3x3 <- inception_3a/3x3
I0511 00:27:49.925454 28408 net.cpp:323] inception_3a/relu_3x3 -> inception_3a/3x3 (in-place)
I0511 00:27:49.925463 28408 net.cpp:105] Setting up inception_3a/relu_3x3
I0511 00:27:49.925469 28408 net.cpp:112] Top shape: 32 128 28 28 (3211264)
I0511 00:27:49.925474 28408 layer_factory.hpp:74] Creating layer inception_3a/5x5_reduce
I0511 00:27:49.925487 28408 net.cpp:76] Creating Layer inception_3a/5x5_reduce
I0511 00:27:49.925519 28408 net.cpp:372] inception_3a/5x5_reduce <- pool2/3x3_s2_pool2/3x3_s2_0_split_2
I0511 00:27:49.925531 28408 net.cpp:334] inception_3a/5x5_reduce -> inception_3a/5x5_reduce
I0511 00:27:49.925542 28408 net.cpp:105] Setting up inception_3a/5x5_reduce
I0511 00:27:49.925590 28408 net.cpp:112] Top shape: 32 16 28 28 (401408)
I0511 00:27:49.925601 28408 layer_factory.hpp:74] Creating layer inception_3a/relu_5x5_reduce
I0511 00:27:49.925608 28408 net.cpp:76] Creating Layer inception_3a/relu_5x5_reduce
I0511 00:27:49.925614 28408 net.cpp:372] inception_3a/relu_5x5_reduce <- inception_3a/5x5_reduce
I0511 00:27:49.925623 28408 net.cpp:323] inception_3a/relu_5x5_reduce -> inception_3a/5x5_reduce (in-place)
I0511 00:27:49.925631 28408 net.cpp:105] Setting up inception_3a/relu_5x5_reduce
I0511 00:27:49.925637 28408 net.cpp:112] Top shape: 32 16 28 28 (401408)
I0511 00:27:49.925642 28408 layer_factory.hpp:74] Creating layer inception_3a/5x5
I0511 00:27:49.925650 28408 net.cpp:76] Creating Layer inception_3a/5x5
I0511 00:27:49.925657 28408 net.cpp:372] inception_3a/5x5 <- inception_3a/5x5_reduce
I0511 00:27:49.925665 28408 net.cpp:334] inception_3a/5x5 -> inception_3a/5x5
I0511 00:27:49.925674 28408 net.cpp:105] Setting up inception_3a/5x5
I0511 00:27:49.925791 28408 net.cpp:112] Top shape: 32 32 28 28 (802816)
I0511 00:27:49.925801 28408 layer_factory.hpp:74] Creating layer inception_3a/relu_5x5
I0511 00:27:49.925808 28408 net.cpp:76] Creating Layer inception_3a/relu_5x5
I0511 00:27:49.925813 28408 net.cpp:372] inception_3a/relu_5x5 <- inception_3a/5x5
I0511 00:27:49.925822 28408 net.cpp:323] inception_3a/relu_5x5 -> inception_3a/5x5 (in-place)
I0511 00:27:49.925829 28408 net.cpp:105] Setting up inception_3a/relu_5x5
I0511 00:27:49.925835 28408 net.cpp:112] Top shape: 32 32 28 28 (802816)
I0511 00:27:49.925840 28408 layer_factory.hpp:74] Creating layer inception_3a/pool
I0511 00:27:49.925848 28408 net.cpp:76] Creating Layer inception_3a/pool
I0511 00:27:49.925853 28408 net.cpp:372] inception_3a/pool <- pool2/3x3_s2_pool2/3x3_s2_0_split_3
I0511 00:27:49.925861 28408 net.cpp:334] inception_3a/pool -> inception_3a/pool
I0511 00:27:49.925869 28408 net.cpp:105] Setting up inception_3a/pool
I0511 00:27:49.925876 28408 net.cpp:112] Top shape: 32 192 28 28 (4816896)
I0511 00:27:49.925882 28408 layer_factory.hpp:74] Creating layer inception_3a/pool_proj
I0511 00:27:49.925894 28408 net.cpp:76] Creating Layer inception_3a/pool_proj
I0511 00:27:49.925899 28408 net.cpp:372] inception_3a/pool_proj <- inception_3a/pool
I0511 00:27:49.925907 28408 net.cpp:334] inception_3a/pool_proj -> inception_3a/pool_proj
I0511 00:27:49.925915 28408 net.cpp:105] Setting up inception_3a/pool_proj
I0511 00:27:49.925983 28408 net.cpp:112] Top shape: 32 32 28 28 (802816)
I0511 00:27:49.925997 28408 layer_factory.hpp:74] Creating layer inception_3a/relu_pool_proj
I0511 00:27:49.926005 28408 net.cpp:76] Creating Layer inception_3a/relu_pool_proj
I0511 00:27:49.926010 28408 net.cpp:372] inception_3a/relu_pool_proj <- inception_3a/pool_proj
I0511 00:27:49.926017 28408 net.cpp:323] inception_3a/relu_pool_proj -> inception_3a/pool_proj (in-place)
I0511 00:27:49.926025 28408 net.cpp:105] Setting up inception_3a/relu_pool_proj
I0511 00:27:49.926030 28408 net.cpp:112] Top shape: 32 32 28 28 (802816)
I0511 00:27:49.926035 28408 layer_factory.hpp:74] Creating layer inception_3a/output
I0511 00:27:49.926046 28408 net.cpp:76] Creating Layer inception_3a/output
I0511 00:27:49.926051 28408 net.cpp:372] inception_3a/output <- inception_3a/1x1
I0511 00:27:49.926059 28408 net.cpp:372] inception_3a/output <- inception_3a/3x3
I0511 00:27:49.926064 28408 net.cpp:372] inception_3a/output <- inception_3a/5x5
I0511 00:27:49.926070 28408 net.cpp:372] inception_3a/output <- inception_3a/pool_proj
I0511 00:27:49.926079 28408 net.cpp:334] inception_3a/output -> inception_3a/output
I0511 00:27:49.926089 28408 net.cpp:105] Setting up inception_3a/output
I0511 00:27:49.926096 28408 net.cpp:112] Top shape: 32 256 28 28 (6422528)
I0511 00:27:49.926102 28408 layer_factory.hpp:74] Creating layer inception_3a/output_inception_3a/output_0_split
I0511 00:27:49.926120 28408 net.cpp:76] Creating Layer inception_3a/output_inception_3a/output_0_split
I0511 00:27:49.926126 28408 net.cpp:372] inception_3a/output_inception_3a/output_0_split <- inception_3a/output
I0511 00:27:49.926134 28408 net.cpp:334] inception_3a/output_inception_3a/output_0_split -> inception_3a/output_inception_3a/output_0_split_0
I0511 00:27:49.926146 28408 net.cpp:334] inception_3a/output_inception_3a/output_0_split -> inception_3a/output_inception_3a/output_0_split_1
I0511 00:27:49.926156 28408 net.cpp:334] inception_3a/output_inception_3a/output_0_split -> inception_3a/output_inception_3a/output_0_split_2
I0511 00:27:49.926169 28408 net.cpp:334] inception_3a/output_inception_3a/output_0_split -> inception_3a/output_inception_3a/output_0_split_3
I0511 00:27:49.926177 28408 net.cpp:105] Setting up inception_3a/output_inception_3a/output_0_split
I0511 00:27:49.926183 28408 net.cpp:112] Top shape: 32 256 28 28 (6422528)
I0511 00:27:49.926188 28408 net.cpp:112] Top shape: 32 256 28 28 (6422528)
I0511 00:27:49.926193 28408 net.cpp:112] Top shape: 32 256 28 28 (6422528)
I0511 00:27:49.926198 28408 net.cpp:112] Top shape: 32 256 28 28 (6422528)
I0511 00:27:49.926203 28408 layer_factory.hpp:74] Creating layer inception_3b/1x1
I0511 00:27:49.926211 28408 net.cpp:76] Creating Layer inception_3b/1x1
I0511 00:27:49.926218 28408 net.cpp:372] inception_3b/1x1 <- inception_3a/output_inception_3a/output_0_split_0
I0511 00:27:49.926229 28408 net.cpp:334] inception_3b/1x1 -> inception_3b/1x1
I0511 00:27:49.926237 28408 net.cpp:105] Setting up inception_3b/1x1
I0511 00:27:49.926784 28408 net.cpp:112] Top shape: 32 128 28 28 (3211264)
I0511 00:27:49.926802 28408 layer_factory.hpp:74] Creating layer inception_3b/relu_1x1
I0511 00:27:49.926815 28408 net.cpp:76] Creating Layer inception_3b/relu_1x1
I0511 00:27:49.926837 28408 net.cpp:372] inception_3b/relu_1x1 <- inception_3b/1x1
I0511 00:27:49.926853 28408 net.cpp:323] inception_3b/relu_1x1 -> inception_3b/1x1 (in-place)
I0511 00:27:49.926870 28408 net.cpp:105] Setting up inception_3b/relu_1x1
I0511 00:27:49.926877 28408 net.cpp:112] Top shape: 32 128 28 28 (3211264)
I0511 00:27:49.926884 28408 layer_factory.hpp:74] Creating layer inception_3b/3x3_reduce
I0511 00:27:49.926893 28408 net.cpp:76] Creating Layer inception_3b/3x3_reduce
I0511 00:27:49.926898 28408 net.cpp:372] inception_3b/3x3_reduce <- inception_3a/output_inception_3a/output_0_split_1
I0511 00:27:49.926911 28408 net.cpp:334] inception_3b/3x3_reduce -> inception_3b/3x3_reduce
I0511 00:27:49.926923 28408 net.cpp:105] Setting up inception_3b/3x3_reduce
I0511 00:27:49.927233 28408 net.cpp:112] Top shape: 32 128 28 28 (3211264)
I0511 00:27:49.927247 28408 layer_factory.hpp:74] Creating layer inception_3b/relu_3x3_reduce
I0511 00:27:49.927254 28408 net.cpp:76] Creating Layer inception_3b/relu_3x3_reduce
I0511 00:27:49.927260 28408 net.cpp:372] inception_3b/relu_3x3_reduce <- inception_3b/3x3_reduce
I0511 00:27:49.927285 28408 net.cpp:323] inception_3b/relu_3x3_reduce -> inception_3b/3x3_reduce (in-place)
I0511 00:27:49.927296 28408 net.cpp:105] Setting up inception_3b/relu_3x3_reduce
I0511 00:27:49.927302 28408 net.cpp:112] Top shape: 32 128 28 28 (3211264)
I0511 00:27:49.927307 28408 layer_factory.hpp:74] Creating layer inception_3b/3x3
I0511 00:27:49.927320 28408 net.cpp:76] Creating Layer inception_3b/3x3
I0511 00:27:49.927325 28408 net.cpp:372] inception_3b/3x3 <- inception_3b/3x3_reduce
I0511 00:27:49.927337 28408 net.cpp:334] inception_3b/3x3 -> inception_3b/3x3
I0511 00:27:49.927346 28408 net.cpp:105] Setting up inception_3b/3x3
I0511 00:27:49.929967 28408 net.cpp:112] Top shape: 32 192 28 28 (4816896)
I0511 00:27:49.930001 28408 layer_factory.hpp:74] Creating layer inception_3b/relu_3x3
I0511 00:27:49.930019 28408 net.cpp:76] Creating Layer inception_3b/relu_3x3
I0511 00:27:49.930043 28408 net.cpp:372] inception_3b/relu_3x3 <- inception_3b/3x3
I0511 00:27:49.930054 28408 net.cpp:323] inception_3b/relu_3x3 -> inception_3b/3x3 (in-place)
I0511 00:27:49.930093 28408 net.cpp:105] Setting up inception_3b/relu_3x3
I0511 00:27:49.930099 28408 net.cpp:112] Top shape: 32 192 28 28 (4816896)
I0511 00:27:49.930105 28408 layer_factory.hpp:74] Creating layer inception_3b/5x5_reduce
I0511 00:27:49.930114 28408 net.cpp:76] Creating Layer inception_3b/5x5_reduce
I0511 00:27:49.930120 28408 net.cpp:372] inception_3b/5x5_reduce <- inception_3a/output_inception_3a/output_0_split_2
I0511 00:27:49.930132 28408 net.cpp:334] inception_3b/5x5_reduce -> inception_3b/5x5_reduce
I0511 00:27:49.930142 28408 net.cpp:105] Setting up inception_3b/5x5_reduce
I0511 00:27:49.930227 28408 net.cpp:112] Top shape: 32 32 28 28 (802816)
I0511 00:27:49.930240 28408 layer_factory.hpp:74] Creating layer inception_3b/relu_5x5_reduce
I0511 00:27:49.930254 28408 net.cpp:76] Creating Layer inception_3b/relu_5x5_reduce
I0511 00:27:49.930263 28408 net.cpp:372] inception_3b/relu_5x5_reduce <- inception_3b/5x5_reduce
I0511 00:27:49.930290 28408 net.cpp:323] inception_3b/relu_5x5_reduce -> inception_3b/5x5_reduce (in-place)
I0511 00:27:49.930310 28408 net.cpp:105] Setting up inception_3b/relu_5x5_reduce
I0511 00:27:49.930327 28408 net.cpp:112] Top shape: 32 32 28 28 (802816)
I0511 00:27:49.930335 28408 layer_factory.hpp:74] Creating layer inception_3b/5x5
I0511 00:27:49.930348 28408 net.cpp:76] Creating Layer inception_3b/5x5
I0511 00:27:49.930354 28408 net.cpp:372] inception_3b/5x5 <- inception_3b/5x5_reduce
I0511 00:27:49.930363 28408 net.cpp:334] inception_3b/5x5 -> inception_3b/5x5
I0511 00:27:49.930379 28408 net.cpp:105] Setting up inception_3b/5x5
I0511 00:27:49.931102 28408 net.cpp:112] Top shape: 32 96 28 28 (2408448)
I0511 00:27:49.931119 28408 layer_factory.hpp:74] Creating layer inception_3b/relu_5x5
I0511 00:27:49.931128 28408 net.cpp:76] Creating Layer inception_3b/relu_5x5
I0511 00:27:49.931134 28408 net.cpp:372] inception_3b/relu_5x5 <- inception_3b/5x5
I0511 00:27:49.931143 28408 net.cpp:323] inception_3b/relu_5x5 -> inception_3b/5x5 (in-place)
I0511 00:27:49.931152 28408 net.cpp:105] Setting up inception_3b/relu_5x5
I0511 00:27:49.931157 28408 net.cpp:112] Top shape: 32 96 28 28 (2408448)
I0511 00:27:49.931164 28408 layer_factory.hpp:74] Creating layer inception_3b/pool
I0511 00:27:49.931174 28408 net.cpp:76] Creating Layer inception_3b/pool
I0511 00:27:49.931185 28408 net.cpp:372] inception_3b/pool <- inception_3a/output_inception_3a/output_0_split_3
I0511 00:27:49.931200 28408 net.cpp:334] inception_3b/pool -> inception_3b/pool
I0511 00:27:49.931219 28408 net.cpp:105] Setting up inception_3b/pool
I0511 00:27:49.931231 28408 net.cpp:112] Top shape: 32 256 28 28 (6422528)
I0511 00:27:49.931236 28408 layer_factory.hpp:74] Creating layer inception_3b/pool_proj
I0511 00:27:49.931248 28408 net.cpp:76] Creating Layer inception_3b/pool_proj
I0511 00:27:49.931254 28408 net.cpp:372] inception_3b/pool_proj <- inception_3b/pool
I0511 00:27:49.931263 28408 net.cpp:334] inception_3b/pool_proj -> inception_3b/pool_proj
I0511 00:27:49.931290 28408 net.cpp:105] Setting up inception_3b/pool_proj
I0511 00:27:49.931473 28408 net.cpp:112] Top shape: 32 64 28 28 (1605632)
I0511 00:27:49.931491 28408 layer_factory.hpp:74] Creating layer inception_3b/relu_pool_proj
I0511 00:27:49.931500 28408 net.cpp:76] Creating Layer inception_3b/relu_pool_proj
I0511 00:27:49.931506 28408 net.cpp:372] inception_3b/relu_pool_proj <- inception_3b/pool_proj
I0511 00:27:49.931514 28408 net.cpp:323] inception_3b/relu_pool_proj -> inception_3b/pool_proj (in-place)
I0511 00:27:49.931522 28408 net.cpp:105] Setting up inception_3b/relu_pool_proj
I0511 00:27:49.931529 28408 net.cpp:112] Top shape: 32 64 28 28 (1605632)
I0511 00:27:49.931534 28408 layer_factory.hpp:74] Creating layer inception_3b/output
I0511 00:27:49.931541 28408 net.cpp:76] Creating Layer inception_3b/output
I0511 00:27:49.931547 28408 net.cpp:372] inception_3b/output <- inception_3b/1x1
I0511 00:27:49.931553 28408 net.cpp:372] inception_3b/output <- inception_3b/3x3
I0511 00:27:49.931560 28408 net.cpp:372] inception_3b/output <- inception_3b/5x5
I0511 00:27:49.931581 28408 net.cpp:372] inception_3b/output <- inception_3b/pool_proj
I0511 00:27:49.931589 28408 net.cpp:334] inception_3b/output -> inception_3b/output
I0511 00:27:49.931598 28408 net.cpp:105] Setting up inception_3b/output
I0511 00:27:49.931606 28408 net.cpp:112] Top shape: 32 480 28 28 (12042240)
I0511 00:27:49.931612 28408 layer_factory.hpp:74] Creating layer pool3/3x3_s2
I0511 00:27:49.931622 28408 net.cpp:76] Creating Layer pool3/3x3_s2
I0511 00:27:49.931628 28408 net.cpp:372] pool3/3x3_s2 <- inception_3b/output
I0511 00:27:49.931637 28408 net.cpp:334] pool3/3x3_s2 -> pool3/3x3_s2
I0511 00:27:49.931644 28408 net.cpp:105] Setting up pool3/3x3_s2
I0511 00:27:49.931651 28408 net.cpp:112] Top shape: 32 480 14 14 (3010560)
I0511 00:27:49.931656 28408 layer_factory.hpp:74] Creating layer pool3/3x3_s2_pool3/3x3_s2_0_split
I0511 00:27:49.931666 28408 net.cpp:76] Creating Layer pool3/3x3_s2_pool3/3x3_s2_0_split
I0511 00:27:49.931673 28408 net.cpp:372] pool3/3x3_s2_pool3/3x3_s2_0_split <- pool3/3x3_s2
I0511 00:27:49.931680 28408 net.cpp:334] pool3/3x3_s2_pool3/3x3_s2_0_split -> pool3/3x3_s2_pool3/3x3_s2_0_split_0
I0511 00:27:49.931696 28408 net.cpp:334] pool3/3x3_s2_pool3/3x3_s2_0_split -> pool3/3x3_s2_pool3/3x3_s2_0_split_1
I0511 00:27:49.931715 28408 net.cpp:334] pool3/3x3_s2_pool3/3x3_s2_0_split -> pool3/3x3_s2_pool3/3x3_s2_0_split_2
I0511 00:27:49.931731 28408 net.cpp:334] pool3/3x3_s2_pool3/3x3_s2_0_split -> pool3/3x3_s2_pool3/3x3_s2_0_split_3
I0511 00:27:49.931747 28408 net.cpp:105] Setting up pool3/3x3_s2_pool3/3x3_s2_0_split
I0511 00:27:49.931757 28408 net.cpp:112] Top shape: 32 480 14 14 (3010560)
I0511 00:27:49.931762 28408 net.cpp:112] Top shape: 32 480 14 14 (3010560)
I0511 00:27:49.931767 28408 net.cpp:112] Top shape: 32 480 14 14 (3010560)
I0511 00:27:49.931773 28408 net.cpp:112] Top shape: 32 480 14 14 (3010560)
I0511 00:27:49.931778 28408 layer_factory.hpp:74] Creating layer inception_4a/1x1
I0511 00:27:49.931792 28408 net.cpp:76] Creating Layer inception_4a/1x1
I0511 00:27:49.931802 28408 net.cpp:372] inception_4a/1x1 <- pool3/3x3_s2_pool3/3x3_s2_0_split_0
I0511 00:27:49.931821 28408 net.cpp:334] inception_4a/1x1 -> inception_4a/1x1
I0511 00:27:49.931841 28408 net.cpp:105] Setting up inception_4a/1x1
I0511 00:27:49.932654 28408 net.cpp:112] Top shape: 32 192 14 14 (1204224)
I0511 00:27:49.932670 28408 layer_factory.hpp:74] Creating layer inception_4a/relu_1x1
I0511 00:27:49.932678 28408 net.cpp:76] Creating Layer inception_4a/relu_1x1
I0511 00:27:49.932706 28408 net.cpp:372] inception_4a/relu_1x1 <- inception_4a/1x1
I0511 00:27:49.932716 28408 net.cpp:323] inception_4a/relu_1x1 -> inception_4a/1x1 (in-place)
I0511 00:27:49.932729 28408 net.cpp:105] Setting up inception_4a/relu_1x1
I0511 00:27:49.932734 28408 net.cpp:112] Top shape: 32 192 14 14 (1204224)
I0511 00:27:49.932739 28408 layer_factory.hpp:74] Creating layer inception_4a/3x3_reduce
I0511 00:27:49.932749 28408 net.cpp:76] Creating Layer inception_4a/3x3_reduce
I0511 00:27:49.932754 28408 net.cpp:372] inception_4a/3x3_reduce <- pool3/3x3_s2_pool3/3x3_s2_0_split_1
I0511 00:27:49.932761 28408 net.cpp:334] inception_4a/3x3_reduce -> inception_4a/3x3_reduce
I0511 00:27:49.932770 28408 net.cpp:105] Setting up inception_4a/3x3_reduce
I0511 00:27:49.933174 28408 net.cpp:112] Top shape: 32 96 14 14 (602112)
I0511 00:27:49.933202 28408 layer_factory.hpp:74] Creating layer inception_4a/relu_3x3_reduce
I0511 00:27:49.933210 28408 net.cpp:76] Creating Layer inception_4a/relu_3x3_reduce
I0511 00:27:49.933217 28408 net.cpp:372] inception_4a/relu_3x3_reduce <- inception_4a/3x3_reduce
I0511 00:27:49.933223 28408 net.cpp:323] inception_4a/relu_3x3_reduce -> inception_4a/3x3_reduce (in-place)
I0511 00:27:49.933231 28408 net.cpp:105] Setting up inception_4a/relu_3x3_reduce
I0511 00:27:49.933238 28408 net.cpp:112] Top shape: 32 96 14 14 (602112)
I0511 00:27:49.933243 28408 layer_factory.hpp:74] Creating layer inception_4a/3x3
I0511 00:27:49.933254 28408 net.cpp:76] Creating Layer inception_4a/3x3
I0511 00:27:49.933259 28408 net.cpp:372] inception_4a/3x3 <- inception_4a/3x3_reduce
I0511 00:27:49.933302 28408 net.cpp:334] inception_4a/3x3 -> inception_4a/3x3
I0511 00:27:49.933313 28408 net.cpp:105] Setting up inception_4a/3x3
I0511 00:27:49.935108 28408 net.cpp:112] Top shape: 32 208 14 14 (1304576)
I0511 00:27:49.935132 28408 layer_factory.hpp:74] Creating layer inception_4a/relu_3x3
I0511 00:27:49.935142 28408 net.cpp:76] Creating Layer inception_4a/relu_3x3
I0511 00:27:49.935149 28408 net.cpp:372] inception_4a/relu_3x3 <- inception_4a/3x3
I0511 00:27:49.935158 28408 net.cpp:323] inception_4a/relu_3x3 -> inception_4a/3x3 (in-place)
I0511 00:27:49.935168 28408 net.cpp:105] Setting up inception_4a/relu_3x3
I0511 00:27:49.935174 28408 net.cpp:112] Top shape: 32 208 14 14 (1304576)
I0511 00:27:49.935180 28408 layer_factory.hpp:74] Creating layer inception_4a/5x5_reduce
I0511 00:27:49.935194 28408 net.cpp:76] Creating Layer inception_4a/5x5_reduce
I0511 00:27:49.935204 28408 net.cpp:372] inception_4a/5x5_reduce <- pool3/3x3_s2_pool3/3x3_s2_0_split_2
I0511 00:27:49.935219 28408 net.cpp:334] inception_4a/5x5_reduce -> inception_4a/5x5_reduce
I0511 00:27:49.935230 28408 net.cpp:105] Setting up inception_4a/5x5_reduce
I0511 00:27:49.935324 28408 net.cpp:112] Top shape: 32 16 14 14 (100352)
I0511 00:27:49.935338 28408 layer_factory.hpp:74] Creating layer inception_4a/relu_5x5_reduce
I0511 00:27:49.935345 28408 net.cpp:76] Creating Layer inception_4a/relu_5x5_reduce
I0511 00:27:49.935351 28408 net.cpp:372] inception_4a/relu_5x5_reduce <- inception_4a/5x5_reduce
I0511 00:27:49.935360 28408 net.cpp:323] inception_4a/relu_5x5_reduce -> inception_4a/5x5_reduce (in-place)
I0511 00:27:49.935369 28408 net.cpp:105] Setting up inception_4a/relu_5x5_reduce
I0511 00:27:49.935374 28408 net.cpp:112] Top shape: 32 16 14 14 (100352)
I0511 00:27:49.935380 28408 layer_factory.hpp:74] Creating layer inception_4a/5x5
I0511 00:27:49.935389 28408 net.cpp:76] Creating Layer inception_4a/5x5
I0511 00:27:49.935395 28408 net.cpp:372] inception_4a/5x5 <- inception_4a/5x5_reduce
I0511 00:27:49.935405 28408 net.cpp:334] inception_4a/5x5 -> inception_4a/5x5
I0511 00:27:49.935413 28408 net.cpp:105] Setting up inception_4a/5x5
I0511 00:27:49.935626 28408 net.cpp:112] Top shape: 32 48 14 14 (301056)
I0511 00:27:49.935644 28408 layer_factory.hpp:74] Creating layer inception_4a/relu_5x5
I0511 00:27:49.935659 28408 net.cpp:76] Creating Layer inception_4a/relu_5x5
I0511 00:27:49.935672 28408 net.cpp:372] inception_4a/relu_5x5 <- inception_4a/5x5
I0511 00:27:49.935690 28408 net.cpp:323] inception_4a/relu_5x5 -> inception_4a/5x5 (in-place)
I0511 00:27:49.935700 28408 net.cpp:105] Setting up inception_4a/relu_5x5
I0511 00:27:49.935706 28408 net.cpp:112] Top shape: 32 48 14 14 (301056)
I0511 00:27:49.935713 28408 layer_factory.hpp:74] Creating layer inception_4a/pool
I0511 00:27:49.935721 28408 net.cpp:76] Creating Layer inception_4a/pool
I0511 00:27:49.935727 28408 net.cpp:372] inception_4a/pool <- pool3/3x3_s2_pool3/3x3_s2_0_split_3
I0511 00:27:49.935735 28408 net.cpp:334] inception_4a/pool -> inception_4a/pool
I0511 00:27:49.935749 28408 net.cpp:105] Setting up inception_4a/pool
I0511 00:27:49.935762 28408 net.cpp:112] Top shape: 32 480 14 14 (3010560)
I0511 00:27:49.935775 28408 layer_factory.hpp:74] Creating layer inception_4a/pool_proj
I0511 00:27:49.935794 28408 net.cpp:76] Creating Layer inception_4a/pool_proj
I0511 00:27:49.935802 28408 net.cpp:372] inception_4a/pool_proj <- inception_4a/pool
I0511 00:27:49.935813 28408 net.cpp:334] inception_4a/pool_proj -> inception_4a/pool_proj
I0511 00:27:49.935823 28408 net.cpp:105] Setting up inception_4a/pool_proj
I0511 00:27:49.936099 28408 net.cpp:112] Top shape: 32 64 14 14 (401408)
I0511 00:27:49.936112 28408 layer_factory.hpp:74] Creating layer inception_4a/relu_pool_proj
I0511 00:27:49.936120 28408 net.cpp:76] Creating Layer inception_4a/relu_pool_proj
I0511 00:27:49.936127 28408 net.cpp:372] inception_4a/relu_pool_proj <- inception_4a/pool_proj
I0511 00:27:49.936139 28408 net.cpp:323] inception_4a/relu_pool_proj -> inception_4a/pool_proj (in-place)
I0511 00:27:49.936179 28408 net.cpp:105] Setting up inception_4a/relu_pool_proj
I0511 00:27:49.936188 28408 net.cpp:112] Top shape: 32 64 14 14 (401408)
I0511 00:27:49.936199 28408 layer_factory.hpp:74] Creating layer inception_4a/output
I0511 00:27:49.936215 28408 net.cpp:76] Creating Layer inception_4a/output
I0511 00:27:49.936228 28408 net.cpp:372] inception_4a/output <- inception_4a/1x1
I0511 00:27:49.936240 28408 net.cpp:372] inception_4a/output <- inception_4a/3x3
I0511 00:27:49.936247 28408 net.cpp:372] inception_4a/output <- inception_4a/5x5
I0511 00:27:49.936254 28408 net.cpp:372] inception_4a/output <- inception_4a/pool_proj
I0511 00:27:49.936264 28408 net.cpp:334] inception_4a/output -> inception_4a/output
I0511 00:27:49.936292 28408 net.cpp:105] Setting up inception_4a/output
I0511 00:27:49.936305 28408 net.cpp:112] Top shape: 32 512 14 14 (3211264)
I0511 00:27:49.936311 28408 layer_factory.hpp:74] Creating layer inception_4a/output_inception_4a/output_0_split
I0511 00:27:49.936319 28408 net.cpp:76] Creating Layer inception_4a/output_inception_4a/output_0_split
I0511 00:27:49.936327 28408 net.cpp:372] inception_4a/output_inception_4a/output_0_split <- inception_4a/output
I0511 00:27:49.936343 28408 net.cpp:334] inception_4a/output_inception_4a/output_0_split -> inception_4a/output_inception_4a/output_0_split_0
I0511 00:27:49.936363 28408 net.cpp:334] inception_4a/output_inception_4a/output_0_split -> inception_4a/output_inception_4a/output_0_split_1
I0511 00:27:49.936378 28408 net.cpp:334] inception_4a/output_inception_4a/output_0_split -> inception_4a/output_inception_4a/output_0_split_2
I0511 00:27:49.936388 28408 net.cpp:334] inception_4a/output_inception_4a/output_0_split -> inception_4a/output_inception_4a/output_0_split_3
I0511 00:27:49.936403 28408 net.cpp:334] inception_4a/output_inception_4a/output_0_split -> inception_4a/output_inception_4a/output_0_split_4
I0511 00:27:49.936411 28408 net.cpp:105] Setting up inception_4a/output_inception_4a/output_0_split
I0511 00:27:49.936419 28408 net.cpp:112] Top shape: 32 512 14 14 (3211264)
I0511 00:27:49.936424 28408 net.cpp:112] Top shape: 32 512 14 14 (3211264)
I0511 00:27:49.936429 28408 net.cpp:112] Top shape: 32 512 14 14 (3211264)
I0511 00:27:49.936434 28408 net.cpp:112] Top shape: 32 512 14 14 (3211264)
I0511 00:27:49.936439 28408 net.cpp:112] Top shape: 32 512 14 14 (3211264)
I0511 00:27:49.936444 28408 layer_factory.hpp:74] Creating layer loss1/ave_pool
I0511 00:27:49.936452 28408 net.cpp:76] Creating Layer loss1/ave_pool
I0511 00:27:49.936457 28408 net.cpp:372] loss1/ave_pool <- inception_4a/output_inception_4a/output_0_split_0
I0511 00:27:49.936467 28408 net.cpp:334] loss1/ave_pool -> loss1/ave_pool
I0511 00:27:49.936475 28408 net.cpp:105] Setting up loss1/ave_pool
I0511 00:27:49.936501 28408 net.cpp:112] Top shape: 32 512 4 4 (262144)
I0511 00:27:49.936509 28408 layer_factory.hpp:74] Creating layer loss1/conv
I0511 00:27:49.936519 28408 net.cpp:76] Creating Layer loss1/conv
I0511 00:27:49.936524 28408 net.cpp:372] loss1/conv <- loss1/ave_pool
I0511 00:27:49.936535 28408 net.cpp:334] loss1/conv -> loss1/conv
I0511 00:27:49.936544 28408 net.cpp:105] Setting up loss1/conv
I0511 00:27:49.937139 28408 net.cpp:112] Top shape: 32 128 4 4 (65536)
I0511 00:27:49.937158 28408 layer_factory.hpp:74] Creating layer loss1/relu_conv
I0511 00:27:49.937166 28408 net.cpp:76] Creating Layer loss1/relu_conv
I0511 00:27:49.937173 28408 net.cpp:372] loss1/relu_conv <- loss1/conv
I0511 00:27:49.937180 28408 net.cpp:323] loss1/relu_conv -> loss1/conv (in-place)
I0511 00:27:49.937187 28408 net.cpp:105] Setting up loss1/relu_conv
I0511 00:27:49.937193 28408 net.cpp:112] Top shape: 32 128 4 4 (65536)
I0511 00:27:49.937198 28408 layer_factory.hpp:74] Creating layer loss1/fc
I0511 00:27:49.937211 28408 net.cpp:76] Creating Layer loss1/fc
I0511 00:27:49.937216 28408 net.cpp:372] loss1/fc <- loss1/conv
I0511 00:27:49.937227 28408 net.cpp:334] loss1/fc -> loss1/fc
I0511 00:27:49.937239 28408 net.cpp:105] Setting up loss1/fc
I0511 00:27:49.955643 28408 net.cpp:112] Top shape: 32 1024 1 1 (32768)
I0511 00:27:49.955720 28408 layer_factory.hpp:74] Creating layer loss1/relu_fc
I0511 00:27:49.955737 28408 net.cpp:76] Creating Layer loss1/relu_fc
I0511 00:27:49.955746 28408 net.cpp:372] loss1/relu_fc <- loss1/fc
I0511 00:27:49.955756 28408 net.cpp:323] loss1/relu_fc -> loss1/fc (in-place)
I0511 00:27:49.955767 28408 net.cpp:105] Setting up loss1/relu_fc
I0511 00:27:49.955773 28408 net.cpp:112] Top shape: 32 1024 1 1 (32768)
I0511 00:27:49.955778 28408 layer_factory.hpp:74] Creating layer loss1/drop_fc
I0511 00:27:49.955801 28408 net.cpp:76] Creating Layer loss1/drop_fc
I0511 00:27:49.955808 28408 net.cpp:372] loss1/drop_fc <- loss1/fc
I0511 00:27:49.955816 28408 net.cpp:323] loss1/drop_fc -> loss1/fc (in-place)
I0511 00:27:49.955827 28408 net.cpp:105] Setting up loss1/drop_fc
I0511 00:27:49.955837 28408 net.cpp:112] Top shape: 32 1024 1 1 (32768)
I0511 00:27:49.955843 28408 layer_factory.hpp:74] Creating layer loss1/classifier
I0511 00:27:49.955855 28408 net.cpp:76] Creating Layer loss1/classifier
I0511 00:27:49.955862 28408 net.cpp:372] loss1/classifier <- loss1/fc
I0511 00:27:49.955869 28408 net.cpp:334] loss1/classifier -> loss1/classifier
I0511 00:27:49.955880 28408 net.cpp:105] Setting up loss1/classifier
I0511 00:27:49.955912 28408 net.cpp:112] Top shape: 32 2 1 1 (64)
I0511 00:27:49.955924 28408 layer_factory.hpp:74] Creating layer loss1/loss
I0511 00:27:49.955936 28408 net.cpp:76] Creating Layer loss1/loss
I0511 00:27:49.955943 28408 net.cpp:372] loss1/loss <- loss1/classifier
I0511 00:27:49.955950 28408 net.cpp:372] loss1/loss <- label_data_1_split_0
I0511 00:27:49.955958 28408 net.cpp:334] loss1/loss -> loss1/loss1
I0511 00:27:49.955970 28408 net.cpp:105] Setting up loss1/loss
I0511 00:27:49.955981 28408 layer_factory.hpp:74] Creating layer loss1/loss
I0511 00:27:49.956001 28408 net.cpp:112] Top shape: 1 1 1 1 (1)
I0511 00:27:49.956007 28408 net.cpp:118]     with loss weight 0.3
I0511 00:27:49.956044 28408 layer_factory.hpp:74] Creating layer inception_4b/1x1
I0511 00:27:49.956058 28408 net.cpp:76] Creating Layer inception_4b/1x1
I0511 00:27:49.956066 28408 net.cpp:372] inception_4b/1x1 <- inception_4a/output_inception_4a/output_0_split_1
I0511 00:27:49.956074 28408 net.cpp:334] inception_4b/1x1 -> inception_4b/1x1
I0511 00:27:49.956084 28408 net.cpp:105] Setting up inception_4b/1x1
I0511 00:27:49.956806 28408 net.cpp:112] Top shape: 32 160 14 14 (1003520)
I0511 00:27:49.956822 28408 layer_factory.hpp:74] Creating layer inception_4b/relu_1x1
I0511 00:27:49.956833 28408 net.cpp:76] Creating Layer inception_4b/relu_1x1
I0511 00:27:49.956840 28408 net.cpp:372] inception_4b/relu_1x1 <- inception_4b/1x1
I0511 00:27:49.956847 28408 net.cpp:323] inception_4b/relu_1x1 -> inception_4b/1x1 (in-place)
I0511 00:27:49.956856 28408 net.cpp:105] Setting up inception_4b/relu_1x1
I0511 00:27:49.956861 28408 net.cpp:112] Top shape: 32 160 14 14 (1003520)
I0511 00:27:49.956866 28408 layer_factory.hpp:74] Creating layer inception_4b/3x3_reduce
I0511 00:27:49.956876 28408 net.cpp:76] Creating Layer inception_4b/3x3_reduce
I0511 00:27:49.956883 28408 net.cpp:372] inception_4b/3x3_reduce <- inception_4a/output_inception_4a/output_0_split_2
I0511 00:27:49.956892 28408 net.cpp:334] inception_4b/3x3_reduce -> inception_4b/3x3_reduce
I0511 00:27:49.956900 28408 net.cpp:105] Setting up inception_4b/3x3_reduce
I0511 00:27:49.957427 28408 net.cpp:112] Top shape: 32 112 14 14 (702464)
I0511 00:27:49.957442 28408 layer_factory.hpp:74] Creating layer inception_4b/relu_3x3_reduce
I0511 00:27:49.957450 28408 net.cpp:76] Creating Layer inception_4b/relu_3x3_reduce
I0511 00:27:49.957456 28408 net.cpp:372] inception_4b/relu_3x3_reduce <- inception_4b/3x3_reduce
I0511 00:27:49.957466 28408 net.cpp:323] inception_4b/relu_3x3_reduce -> inception_4b/3x3_reduce (in-place)
I0511 00:27:49.957474 28408 net.cpp:105] Setting up inception_4b/relu_3x3_reduce
I0511 00:27:49.957480 28408 net.cpp:112] Top shape: 32 112 14 14 (702464)
I0511 00:27:49.957486 28408 layer_factory.hpp:74] Creating layer inception_4b/3x3
I0511 00:27:49.957495 28408 net.cpp:76] Creating Layer inception_4b/3x3
I0511 00:27:49.957515 28408 net.cpp:372] inception_4b/3x3 <- inception_4b/3x3_reduce
I0511 00:27:49.957523 28408 net.cpp:334] inception_4b/3x3 -> inception_4b/3x3
I0511 00:27:49.957536 28408 net.cpp:105] Setting up inception_4b/3x3
I0511 00:27:49.959465 28408 net.cpp:112] Top shape: 32 224 14 14 (1404928)
I0511 00:27:49.959482 28408 layer_factory.hpp:74] Creating layer inception_4b/relu_3x3
I0511 00:27:49.959491 28408 net.cpp:76] Creating Layer inception_4b/relu_3x3
I0511 00:27:49.959497 28408 net.cpp:372] inception_4b/relu_3x3 <- inception_4b/3x3
I0511 00:27:49.959504 28408 net.cpp:323] inception_4b/relu_3x3 -> inception_4b/3x3 (in-place)
I0511 00:27:49.959512 28408 net.cpp:105] Setting up inception_4b/relu_3x3
I0511 00:27:49.959518 28408 net.cpp:112] Top shape: 32 224 14 14 (1404928)
I0511 00:27:49.959524 28408 layer_factory.hpp:74] Creating layer inception_4b/5x5_reduce
I0511 00:27:49.959534 28408 net.cpp:76] Creating Layer inception_4b/5x5_reduce
I0511 00:27:49.959540 28408 net.cpp:372] inception_4b/5x5_reduce <- inception_4a/output_inception_4a/output_0_split_3
I0511 00:27:49.959549 28408 net.cpp:334] inception_4b/5x5_reduce -> inception_4b/5x5_reduce
I0511 00:27:49.959558 28408 net.cpp:105] Setting up inception_4b/5x5_reduce
I0511 00:27:49.959682 28408 net.cpp:112] Top shape: 32 24 14 14 (150528)
I0511 00:27:49.959694 28408 layer_factory.hpp:74] Creating layer inception_4b/relu_5x5_reduce
I0511 00:27:49.959702 28408 net.cpp:76] Creating Layer inception_4b/relu_5x5_reduce
I0511 00:27:49.959707 28408 net.cpp:372] inception_4b/relu_5x5_reduce <- inception_4b/5x5_reduce
I0511 00:27:49.959717 28408 net.cpp:323] inception_4b/relu_5x5_reduce -> inception_4b/5x5_reduce (in-place)
I0511 00:27:49.959725 28408 net.cpp:105] Setting up inception_4b/relu_5x5_reduce
I0511 00:27:49.959730 28408 net.cpp:112] Top shape: 32 24 14 14 (150528)
I0511 00:27:49.959736 28408 layer_factory.hpp:74] Creating layer inception_4b/5x5
I0511 00:27:49.959744 28408 net.cpp:76] Creating Layer inception_4b/5x5
I0511 00:27:49.959750 28408 net.cpp:372] inception_4b/5x5 <- inception_4b/5x5_reduce
I0511 00:27:49.959759 28408 net.cpp:334] inception_4b/5x5 -> inception_4b/5x5
I0511 00:27:49.959769 28408 net.cpp:105] Setting up inception_4b/5x5
I0511 00:27:49.960103 28408 net.cpp:112] Top shape: 32 64 14 14 (401408)
I0511 00:27:49.960115 28408 layer_factory.hpp:74] Creating layer inception_4b/relu_5x5
I0511 00:27:49.960125 28408 net.cpp:76] Creating Layer inception_4b/relu_5x5
I0511 00:27:49.960131 28408 net.cpp:372] inception_4b/relu_5x5 <- inception_4b/5x5
I0511 00:27:49.960139 28408 net.cpp:323] inception_4b/relu_5x5 -> inception_4b/5x5 (in-place)
I0511 00:27:49.960145 28408 net.cpp:105] Setting up inception_4b/relu_5x5
I0511 00:27:49.960151 28408 net.cpp:112] Top shape: 32 64 14 14 (401408)
I0511 00:27:49.960156 28408 layer_factory.hpp:74] Creating layer inception_4b/pool
I0511 00:27:49.960166 28408 net.cpp:76] Creating Layer inception_4b/pool
I0511 00:27:49.960172 28408 net.cpp:372] inception_4b/pool <- inception_4a/output_inception_4a/output_0_split_4
I0511 00:27:49.960180 28408 net.cpp:334] inception_4b/pool -> inception_4b/pool
I0511 00:27:49.960197 28408 net.cpp:105] Setting up inception_4b/pool
I0511 00:27:49.960207 28408 net.cpp:112] Top shape: 32 512 14 14 (3211264)
I0511 00:27:49.960213 28408 layer_factory.hpp:74] Creating layer inception_4b/pool_proj
I0511 00:27:49.960224 28408 net.cpp:76] Creating Layer inception_4b/pool_proj
I0511 00:27:49.960230 28408 net.cpp:372] inception_4b/pool_proj <- inception_4b/pool
I0511 00:27:49.960238 28408 net.cpp:334] inception_4b/pool_proj -> inception_4b/pool_proj
I0511 00:27:49.960247 28408 net.cpp:105] Setting up inception_4b/pool_proj
I0511 00:27:49.960551 28408 net.cpp:112] Top shape: 32 64 14 14 (401408)
I0511 00:27:49.960566 28408 layer_factory.hpp:74] Creating layer inception_4b/relu_pool_proj
I0511 00:27:49.960573 28408 net.cpp:76] Creating Layer inception_4b/relu_pool_proj
I0511 00:27:49.960579 28408 net.cpp:372] inception_4b/relu_pool_proj <- inception_4b/pool_proj
I0511 00:27:49.960600 28408 net.cpp:323] inception_4b/relu_pool_proj -> inception_4b/pool_proj (in-place)
I0511 00:27:49.960611 28408 net.cpp:105] Setting up inception_4b/relu_pool_proj
I0511 00:27:49.960618 28408 net.cpp:112] Top shape: 32 64 14 14 (401408)
I0511 00:27:49.960623 28408 layer_factory.hpp:74] Creating layer inception_4b/output
I0511 00:27:49.960630 28408 net.cpp:76] Creating Layer inception_4b/output
I0511 00:27:49.960636 28408 net.cpp:372] inception_4b/output <- inception_4b/1x1
I0511 00:27:49.960643 28408 net.cpp:372] inception_4b/output <- inception_4b/3x3
I0511 00:27:49.960649 28408 net.cpp:372] inception_4b/output <- inception_4b/5x5
I0511 00:27:49.960654 28408 net.cpp:372] inception_4b/output <- inception_4b/pool_proj
I0511 00:27:49.960661 28408 net.cpp:334] inception_4b/output -> inception_4b/output
I0511 00:27:49.960669 28408 net.cpp:105] Setting up inception_4b/output
I0511 00:27:49.960676 28408 net.cpp:112] Top shape: 32 512 14 14 (3211264)
I0511 00:27:49.960685 28408 layer_factory.hpp:74] Creating layer inception_4b/output_inception_4b/output_0_split
I0511 00:27:49.960693 28408 net.cpp:76] Creating Layer inception_4b/output_inception_4b/output_0_split
I0511 00:27:49.960700 28408 net.cpp:372] inception_4b/output_inception_4b/output_0_split <- inception_4b/output
I0511 00:27:49.960710 28408 net.cpp:334] inception_4b/output_inception_4b/output_0_split -> inception_4b/output_inception_4b/output_0_split_0
I0511 00:27:49.960719 28408 net.cpp:334] inception_4b/output_inception_4b/output_0_split -> inception_4b/output_inception_4b/output_0_split_1
I0511 00:27:49.960728 28408 net.cpp:334] inception_4b/output_inception_4b/output_0_split -> inception_4b/output_inception_4b/output_0_split_2
I0511 00:27:49.960737 28408 net.cpp:334] inception_4b/output_inception_4b/output_0_split -> inception_4b/output_inception_4b/output_0_split_3
I0511 00:27:49.960746 28408 net.cpp:105] Setting up inception_4b/output_inception_4b/output_0_split
I0511 00:27:49.960752 28408 net.cpp:112] Top shape: 32 512 14 14 (3211264)
I0511 00:27:49.960758 28408 net.cpp:112] Top shape: 32 512 14 14 (3211264)
I0511 00:27:49.960763 28408 net.cpp:112] Top shape: 32 512 14 14 (3211264)
I0511 00:27:49.960768 28408 net.cpp:112] Top shape: 32 512 14 14 (3211264)
I0511 00:27:49.960773 28408 layer_factory.hpp:74] Creating layer inception_4c/1x1
I0511 00:27:49.960783 28408 net.cpp:76] Creating Layer inception_4c/1x1
I0511 00:27:49.960789 28408 net.cpp:372] inception_4c/1x1 <- inception_4b/output_inception_4b/output_0_split_0
I0511 00:27:49.960798 28408 net.cpp:334] inception_4c/1x1 -> inception_4c/1x1
I0511 00:27:49.960806 28408 net.cpp:105] Setting up inception_4c/1x1
I0511 00:27:49.961390 28408 net.cpp:112] Top shape: 32 128 14 14 (802816)
I0511 00:27:49.961405 28408 layer_factory.hpp:74] Creating layer inception_4c/relu_1x1
I0511 00:27:49.961415 28408 net.cpp:76] Creating Layer inception_4c/relu_1x1
I0511 00:27:49.961438 28408 net.cpp:372] inception_4c/relu_1x1 <- inception_4c/1x1
I0511 00:27:49.961449 28408 net.cpp:323] inception_4c/relu_1x1 -> inception_4c/1x1 (in-place)
I0511 00:27:49.961458 28408 net.cpp:105] Setting up inception_4c/relu_1x1
I0511 00:27:49.961464 28408 net.cpp:112] Top shape: 32 128 14 14 (802816)
I0511 00:27:49.961469 28408 layer_factory.hpp:74] Creating layer inception_4c/3x3_reduce
I0511 00:27:49.961478 28408 net.cpp:76] Creating Layer inception_4c/3x3_reduce
I0511 00:27:49.961483 28408 net.cpp:372] inception_4c/3x3_reduce <- inception_4b/output_inception_4b/output_0_split_1
I0511 00:27:49.961494 28408 net.cpp:334] inception_4c/3x3_reduce -> inception_4c/3x3_reduce
I0511 00:27:49.961503 28408 net.cpp:105] Setting up inception_4c/3x3_reduce
I0511 00:27:49.962060 28408 net.cpp:112] Top shape: 32 128 14 14 (802816)
I0511 00:27:49.962074 28408 layer_factory.hpp:74] Creating layer inception_4c/relu_3x3_reduce
I0511 00:27:49.962081 28408 net.cpp:76] Creating Layer inception_4c/relu_3x3_reduce
I0511 00:27:49.962087 28408 net.cpp:372] inception_4c/relu_3x3_reduce <- inception_4c/3x3_reduce
I0511 00:27:49.962095 28408 net.cpp:323] inception_4c/relu_3x3_reduce -> inception_4c/3x3_reduce (in-place)
I0511 00:27:49.962122 28408 net.cpp:105] Setting up inception_4c/relu_3x3_reduce
I0511 00:27:49.962134 28408 net.cpp:112] Top shape: 32 128 14 14 (802816)
I0511 00:27:49.962146 28408 layer_factory.hpp:74] Creating layer inception_4c/3x3
I0511 00:27:49.962159 28408 net.cpp:76] Creating Layer inception_4c/3x3
I0511 00:27:49.962167 28408 net.cpp:372] inception_4c/3x3 <- inception_4c/3x3_reduce
I0511 00:27:49.962177 28408 net.cpp:334] inception_4c/3x3 -> inception_4c/3x3
I0511 00:27:49.962189 28408 net.cpp:105] Setting up inception_4c/3x3
I0511 00:27:49.964668 28408 net.cpp:112] Top shape: 32 256 14 14 (1605632)
I0511 00:27:49.964694 28408 layer_factory.hpp:74] Creating layer inception_4c/relu_3x3
I0511 00:27:49.964704 28408 net.cpp:76] Creating Layer inception_4c/relu_3x3
I0511 00:27:49.964709 28408 net.cpp:372] inception_4c/relu_3x3 <- inception_4c/3x3
I0511 00:27:49.964718 28408 net.cpp:323] inception_4c/relu_3x3 -> inception_4c/3x3 (in-place)
I0511 00:27:49.964727 28408 net.cpp:105] Setting up inception_4c/relu_3x3
I0511 00:27:49.964733 28408 net.cpp:112] Top shape: 32 256 14 14 (1605632)
I0511 00:27:49.964738 28408 layer_factory.hpp:74] Creating layer inception_4c/5x5_reduce
I0511 00:27:49.964747 28408 net.cpp:76] Creating Layer inception_4c/5x5_reduce
I0511 00:27:49.964753 28408 net.cpp:372] inception_4c/5x5_reduce <- inception_4b/output_inception_4b/output_0_split_2
I0511 00:27:49.964763 28408 net.cpp:334] inception_4c/5x5_reduce -> inception_4c/5x5_reduce
I0511 00:27:49.964773 28408 net.cpp:105] Setting up inception_4c/5x5_reduce
I0511 00:27:49.964884 28408 net.cpp:112] Top shape: 32 24 14 14 (150528)
I0511 00:27:49.964897 28408 layer_factory.hpp:74] Creating layer inception_4c/relu_5x5_reduce
I0511 00:27:49.964905 28408 net.cpp:76] Creating Layer inception_4c/relu_5x5_reduce
I0511 00:27:49.964910 28408 net.cpp:372] inception_4c/relu_5x5_reduce <- inception_4c/5x5_reduce
I0511 00:27:49.964920 28408 net.cpp:323] inception_4c/relu_5x5_reduce -> inception_4c/5x5_reduce (in-place)
I0511 00:27:49.964927 28408 net.cpp:105] Setting up inception_4c/relu_5x5_reduce
I0511 00:27:49.964932 28408 net.cpp:112] Top shape: 32 24 14 14 (150528)
I0511 00:27:49.964938 28408 layer_factory.hpp:74] Creating layer inception_4c/5x5
I0511 00:27:49.964946 28408 net.cpp:76] Creating Layer inception_4c/5x5
I0511 00:27:49.964951 28408 net.cpp:372] inception_4c/5x5 <- inception_4c/5x5_reduce
I0511 00:27:49.964962 28408 net.cpp:334] inception_4c/5x5 -> inception_4c/5x5
I0511 00:27:49.964970 28408 net.cpp:105] Setting up inception_4c/5x5
I0511 00:27:49.965318 28408 net.cpp:112] Top shape: 32 64 14 14 (401408)
I0511 00:27:49.965333 28408 layer_factory.hpp:74] Creating layer inception_4c/relu_5x5
I0511 00:27:49.965342 28408 net.cpp:76] Creating Layer inception_4c/relu_5x5
I0511 00:27:49.966158 28408 net.cpp:372] inception_4c/relu_5x5 <- inception_4c/5x5
I0511 00:27:49.966178 28408 net.cpp:323] inception_4c/relu_5x5 -> inception_4c/5x5 (in-place)
I0511 00:27:49.966194 28408 net.cpp:105] Setting up inception_4c/relu_5x5
I0511 00:27:49.966202 28408 net.cpp:112] Top shape: 32 64 14 14 (401408)
I0511 00:27:49.966207 28408 layer_factory.hpp:74] Creating layer inception_4c/pool
I0511 00:27:49.966223 28408 net.cpp:76] Creating Layer inception_4c/pool
I0511 00:27:49.966238 28408 net.cpp:372] inception_4c/pool <- inception_4b/output_inception_4b/output_0_split_3
I0511 00:27:49.966254 28408 net.cpp:334] inception_4c/pool -> inception_4c/pool
I0511 00:27:49.966266 28408 net.cpp:105] Setting up inception_4c/pool
I0511 00:27:49.966274 28408 net.cpp:112] Top shape: 32 512 14 14 (3211264)
I0511 00:27:49.966280 28408 layer_factory.hpp:74] Creating layer inception_4c/pool_proj
I0511 00:27:49.966305 28408 net.cpp:76] Creating Layer inception_4c/pool_proj
I0511 00:27:49.966313 28408 net.cpp:372] inception_4c/pool_proj <- inception_4c/pool
I0511 00:27:49.966322 28408 net.cpp:334] inception_4c/pool_proj -> inception_4c/pool_proj
I0511 00:27:49.966331 28408 net.cpp:105] Setting up inception_4c/pool_proj
I0511 00:27:49.966681 28408 net.cpp:112] Top shape: 32 64 14 14 (401408)
I0511 00:27:49.966697 28408 layer_factory.hpp:74] Creating layer inception_4c/relu_pool_proj
I0511 00:27:49.966708 28408 net.cpp:76] Creating Layer inception_4c/relu_pool_proj
I0511 00:27:49.966714 28408 net.cpp:372] inception_4c/relu_pool_proj <- inception_4c/pool_proj
I0511 00:27:49.966724 28408 net.cpp:323] inception_4c/relu_pool_proj -> inception_4c/pool_proj (in-place)
I0511 00:27:49.966732 28408 net.cpp:105] Setting up inception_4c/relu_pool_proj
I0511 00:27:49.966738 28408 net.cpp:112] Top shape: 32 64 14 14 (401408)
I0511 00:27:49.966743 28408 layer_factory.hpp:74] Creating layer inception_4c/output
I0511 00:27:49.966752 28408 net.cpp:76] Creating Layer inception_4c/output
I0511 00:27:49.966758 28408 net.cpp:372] inception_4c/output <- inception_4c/1x1
I0511 00:27:49.966763 28408 net.cpp:372] inception_4c/output <- inception_4c/3x3
I0511 00:27:49.966769 28408 net.cpp:372] inception_4c/output <- inception_4c/5x5
I0511 00:27:49.966775 28408 net.cpp:372] inception_4c/output <- inception_4c/pool_proj
I0511 00:27:49.966783 28408 net.cpp:334] inception_4c/output -> inception_4c/output
I0511 00:27:49.966790 28408 net.cpp:105] Setting up inception_4c/output
I0511 00:27:49.966796 28408 net.cpp:112] Top shape: 32 512 14 14 (3211264)
I0511 00:27:49.966801 28408 layer_factory.hpp:74] Creating layer inception_4c/output_inception_4c/output_0_split
I0511 00:27:49.966809 28408 net.cpp:76] Creating Layer inception_4c/output_inception_4c/output_0_split
I0511 00:27:49.966815 28408 net.cpp:372] inception_4c/output_inception_4c/output_0_split <- inception_4c/output
I0511 00:27:49.966825 28408 net.cpp:334] inception_4c/output_inception_4c/output_0_split -> inception_4c/output_inception_4c/output_0_split_0
I0511 00:27:49.966835 28408 net.cpp:334] inception_4c/output_inception_4c/output_0_split -> inception_4c/output_inception_4c/output_0_split_1
I0511 00:27:49.966853 28408 net.cpp:334] inception_4c/output_inception_4c/output_0_split -> inception_4c/output_inception_4c/output_0_split_2
I0511 00:27:49.966866 28408 net.cpp:334] inception_4c/output_inception_4c/output_0_split -> inception_4c/output_inception_4c/output_0_split_3
I0511 00:27:49.966881 28408 net.cpp:105] Setting up inception_4c/output_inception_4c/output_0_split
I0511 00:27:49.966892 28408 net.cpp:112] Top shape: 32 512 14 14 (3211264)
I0511 00:27:49.966903 28408 net.cpp:112] Top shape: 32 512 14 14 (3211264)
I0511 00:27:49.966913 28408 net.cpp:112] Top shape: 32 512 14 14 (3211264)
I0511 00:27:49.966923 28408 net.cpp:112] Top shape: 32 512 14 14 (3211264)
I0511 00:27:49.966934 28408 layer_factory.hpp:74] Creating layer inception_4d/1x1
I0511 00:27:49.966954 28408 net.cpp:76] Creating Layer inception_4d/1x1
I0511 00:27:49.966961 28408 net.cpp:372] inception_4d/1x1 <- inception_4c/output_inception_4c/output_0_split_0
I0511 00:27:49.967224 28408 net.cpp:334] inception_4d/1x1 -> inception_4d/1x1
I0511 00:27:49.967241 28408 net.cpp:105] Setting up inception_4d/1x1
I0511 00:27:49.967774 28408 net.cpp:112] Top shape: 32 112 14 14 (702464)
I0511 00:27:49.967790 28408 layer_factory.hpp:74] Creating layer inception_4d/relu_1x1
I0511 00:27:49.967799 28408 net.cpp:76] Creating Layer inception_4d/relu_1x1
I0511 00:27:49.967805 28408 net.cpp:372] inception_4d/relu_1x1 <- inception_4d/1x1
I0511 00:27:49.967813 28408 net.cpp:323] inception_4d/relu_1x1 -> inception_4d/1x1 (in-place)
I0511 00:27:49.967820 28408 net.cpp:105] Setting up inception_4d/relu_1x1
I0511 00:27:49.967826 28408 net.cpp:112] Top shape: 32 112 14 14 (702464)
I0511 00:27:49.967831 28408 layer_factory.hpp:74] Creating layer inception_4d/3x3_reduce
I0511 00:27:49.967842 28408 net.cpp:76] Creating Layer inception_4d/3x3_reduce
I0511 00:27:49.967849 28408 net.cpp:372] inception_4d/3x3_reduce <- inception_4c/output_inception_4c/output_0_split_1
I0511 00:27:49.967856 28408 net.cpp:334] inception_4d/3x3_reduce -> inception_4d/3x3_reduce
I0511 00:27:49.967865 28408 net.cpp:105] Setting up inception_4d/3x3_reduce
I0511 00:27:49.968523 28408 net.cpp:112] Top shape: 32 144 14 14 (903168)
I0511 00:27:49.968554 28408 layer_factory.hpp:74] Creating layer inception_4d/relu_3x3_reduce
I0511 00:27:49.968564 28408 net.cpp:76] Creating Layer inception_4d/relu_3x3_reduce
I0511 00:27:49.968570 28408 net.cpp:372] inception_4d/relu_3x3_reduce <- inception_4d/3x3_reduce
I0511 00:27:49.968580 28408 net.cpp:323] inception_4d/relu_3x3_reduce -> inception_4d/3x3_reduce (in-place)
I0511 00:27:49.968588 28408 net.cpp:105] Setting up inception_4d/relu_3x3_reduce
I0511 00:27:49.968595 28408 net.cpp:112] Top shape: 32 144 14 14 (903168)
I0511 00:27:49.968600 28408 layer_factory.hpp:74] Creating layer inception_4d/3x3
I0511 00:27:49.968608 28408 net.cpp:76] Creating Layer inception_4d/3x3
I0511 00:27:49.968613 28408 net.cpp:372] inception_4d/3x3 <- inception_4d/3x3_reduce
I0511 00:27:49.968624 28408 net.cpp:334] inception_4d/3x3 -> inception_4d/3x3
I0511 00:27:49.968633 28408 net.cpp:105] Setting up inception_4d/3x3
I0511 00:27:49.972156 28408 net.cpp:112] Top shape: 32 288 14 14 (1806336)
I0511 00:27:49.972185 28408 layer_factory.hpp:74] Creating layer inception_4d/relu_3x3
I0511 00:27:49.972201 28408 net.cpp:76] Creating Layer inception_4d/relu_3x3
I0511 00:27:49.972210 28408 net.cpp:372] inception_4d/relu_3x3 <- inception_4d/3x3
I0511 00:27:49.972221 28408 net.cpp:323] inception_4d/relu_3x3 -> inception_4d/3x3 (in-place)
I0511 00:27:49.972230 28408 net.cpp:105] Setting up inception_4d/relu_3x3
I0511 00:27:49.972236 28408 net.cpp:112] Top shape: 32 288 14 14 (1806336)
I0511 00:27:49.972242 28408 layer_factory.hpp:74] Creating layer inception_4d/5x5_reduce
I0511 00:27:49.972270 28408 net.cpp:76] Creating Layer inception_4d/5x5_reduce
I0511 00:27:49.972276 28408 net.cpp:372] inception_4d/5x5_reduce <- inception_4c/output_inception_4c/output_0_split_2
I0511 00:27:49.972291 28408 net.cpp:334] inception_4d/5x5_reduce -> inception_4d/5x5_reduce
I0511 00:27:49.972301 28408 net.cpp:105] Setting up inception_4d/5x5_reduce
I0511 00:27:49.972458 28408 net.cpp:112] Top shape: 32 32 14 14 (200704)
I0511 00:27:49.972481 28408 layer_factory.hpp:74] Creating layer inception_4d/relu_5x5_reduce
I0511 00:27:49.972501 28408 net.cpp:76] Creating Layer inception_4d/relu_5x5_reduce
I0511 00:27:49.972511 28408 net.cpp:372] inception_4d/relu_5x5_reduce <- inception_4d/5x5_reduce
I0511 00:27:49.972523 28408 net.cpp:323] inception_4d/relu_5x5_reduce -> inception_4d/5x5_reduce (in-place)
I0511 00:27:49.972542 28408 net.cpp:105] Setting up inception_4d/relu_5x5_reduce
I0511 00:27:49.972553 28408 net.cpp:112] Top shape: 32 32 14 14 (200704)
I0511 00:27:49.972559 28408 layer_factory.hpp:74] Creating layer inception_4d/5x5
I0511 00:27:49.972573 28408 net.cpp:76] Creating Layer inception_4d/5x5
I0511 00:27:49.972579 28408 net.cpp:372] inception_4d/5x5 <- inception_4d/5x5_reduce
I0511 00:27:49.972586 28408 net.cpp:334] inception_4d/5x5 -> inception_4d/5x5
I0511 00:27:49.972595 28408 net.cpp:105] Setting up inception_4d/5x5
I0511 00:27:49.973120 28408 net.cpp:112] Top shape: 32 64 14 14 (401408)
I0511 00:27:49.973136 28408 layer_factory.hpp:74] Creating layer inception_4d/relu_5x5
I0511 00:27:49.973145 28408 net.cpp:76] Creating Layer inception_4d/relu_5x5
I0511 00:27:49.973150 28408 net.cpp:372] inception_4d/relu_5x5 <- inception_4d/5x5
I0511 00:27:49.973160 28408 net.cpp:323] inception_4d/relu_5x5 -> inception_4d/5x5 (in-place)
I0511 00:27:49.973168 28408 net.cpp:105] Setting up inception_4d/relu_5x5
I0511 00:27:49.973175 28408 net.cpp:112] Top shape: 32 64 14 14 (401408)
I0511 00:27:49.973179 28408 layer_factory.hpp:74] Creating layer inception_4d/pool
I0511 00:27:49.973187 28408 net.cpp:76] Creating Layer inception_4d/pool
I0511 00:27:49.973193 28408 net.cpp:372] inception_4d/pool <- inception_4c/output_inception_4c/output_0_split_3
I0511 00:27:49.973201 28408 net.cpp:334] inception_4d/pool -> inception_4d/pool
I0511 00:27:49.973209 28408 net.cpp:105] Setting up inception_4d/pool
I0511 00:27:49.973217 28408 net.cpp:112] Top shape: 32 512 14 14 (3211264)
I0511 00:27:49.973223 28408 layer_factory.hpp:74] Creating layer inception_4d/pool_proj
I0511 00:27:49.973250 28408 net.cpp:76] Creating Layer inception_4d/pool_proj
I0511 00:27:49.973258 28408 net.cpp:372] inception_4d/pool_proj <- inception_4d/pool
I0511 00:27:49.973268 28408 net.cpp:334] inception_4d/pool_proj -> inception_4d/pool_proj
I0511 00:27:49.973295 28408 net.cpp:105] Setting up inception_4d/pool_proj
I0511 00:27:49.973664 28408 net.cpp:112] Top shape: 32 64 14 14 (401408)
I0511 00:27:49.973680 28408 layer_factory.hpp:74] Creating layer inception_4d/relu_pool_proj
I0511 00:27:49.973692 28408 net.cpp:76] Creating Layer inception_4d/relu_pool_proj
I0511 00:27:49.973705 28408 net.cpp:372] inception_4d/relu_pool_proj <- inception_4d/pool_proj
I0511 00:27:49.973724 28408 net.cpp:323] inception_4d/relu_pool_proj -> inception_4d/pool_proj (in-place)
I0511 00:27:49.973739 28408 net.cpp:105] Setting up inception_4d/relu_pool_proj
I0511 00:27:49.973749 28408 net.cpp:112] Top shape: 32 64 14 14 (401408)
I0511 00:27:49.973762 28408 layer_factory.hpp:74] Creating layer inception_4d/output
I0511 00:27:49.973778 28408 net.cpp:76] Creating Layer inception_4d/output
I0511 00:27:49.973791 28408 net.cpp:372] inception_4d/output <- inception_4d/1x1
I0511 00:27:49.973800 28408 net.cpp:372] inception_4d/output <- inception_4d/3x3
I0511 00:27:49.973806 28408 net.cpp:372] inception_4d/output <- inception_4d/5x5
I0511 00:27:49.973814 28408 net.cpp:372] inception_4d/output <- inception_4d/pool_proj
I0511 00:27:49.973824 28408 net.cpp:334] inception_4d/output -> inception_4d/output
I0511 00:27:49.973834 28408 net.cpp:105] Setting up inception_4d/output
I0511 00:27:49.973839 28408 net.cpp:112] Top shape: 32 528 14 14 (3311616)
I0511 00:27:49.973845 28408 layer_factory.hpp:74] Creating layer inception_4d/output_inception_4d/output_0_split
I0511 00:27:49.973853 28408 net.cpp:76] Creating Layer inception_4d/output_inception_4d/output_0_split
I0511 00:27:49.973858 28408 net.cpp:372] inception_4d/output_inception_4d/output_0_split <- inception_4d/output
I0511 00:27:49.973866 28408 net.cpp:334] inception_4d/output_inception_4d/output_0_split -> inception_4d/output_inception_4d/output_0_split_0
I0511 00:27:49.973875 28408 net.cpp:334] inception_4d/output_inception_4d/output_0_split -> inception_4d/output_inception_4d/output_0_split_1
I0511 00:27:49.973886 28408 net.cpp:334] inception_4d/output_inception_4d/output_0_split -> inception_4d/output_inception_4d/output_0_split_2
I0511 00:27:49.973894 28408 net.cpp:334] inception_4d/output_inception_4d/output_0_split -> inception_4d/output_inception_4d/output_0_split_3
I0511 00:27:49.973927 28408 net.cpp:334] inception_4d/output_inception_4d/output_0_split -> inception_4d/output_inception_4d/output_0_split_4
I0511 00:27:49.973937 28408 net.cpp:105] Setting up inception_4d/output_inception_4d/output_0_split
I0511 00:27:49.973945 28408 net.cpp:112] Top shape: 32 528 14 14 (3311616)
I0511 00:27:49.973950 28408 net.cpp:112] Top shape: 32 528 14 14 (3311616)
I0511 00:27:49.973955 28408 net.cpp:112] Top shape: 32 528 14 14 (3311616)
I0511 00:27:49.973959 28408 net.cpp:112] Top shape: 32 528 14 14 (3311616)
I0511 00:27:49.973964 28408 net.cpp:112] Top shape: 32 528 14 14 (3311616)
I0511 00:27:49.973970 28408 layer_factory.hpp:74] Creating layer loss2/ave_pool
I0511 00:27:49.973978 28408 net.cpp:76] Creating Layer loss2/ave_pool
I0511 00:27:49.973984 28408 net.cpp:372] loss2/ave_pool <- inception_4d/output_inception_4d/output_0_split_0
I0511 00:27:49.973994 28408 net.cpp:334] loss2/ave_pool -> loss2/ave_pool
I0511 00:27:49.974001 28408 net.cpp:105] Setting up loss2/ave_pool
I0511 00:27:49.974009 28408 net.cpp:112] Top shape: 32 528 4 4 (270336)
I0511 00:27:49.974015 28408 layer_factory.hpp:74] Creating layer loss2/conv
I0511 00:27:49.974030 28408 net.cpp:76] Creating Layer loss2/conv
I0511 00:27:49.974041 28408 net.cpp:372] loss2/conv <- loss2/ave_pool
I0511 00:27:49.974056 28408 net.cpp:334] loss2/conv -> loss2/conv
I0511 00:27:49.974071 28408 net.cpp:105] Setting up loss2/conv
I0511 00:27:49.974653 28408 net.cpp:112] Top shape: 32 128 4 4 (65536)
I0511 00:27:49.974669 28408 layer_factory.hpp:74] Creating layer loss2/relu_conv
I0511 00:27:49.974696 28408 net.cpp:76] Creating Layer loss2/relu_conv
I0511 00:27:49.974709 28408 net.cpp:372] loss2/relu_conv <- loss2/conv
I0511 00:27:49.974721 28408 net.cpp:323] loss2/relu_conv -> loss2/conv (in-place)
I0511 00:27:49.974731 28408 net.cpp:105] Setting up loss2/relu_conv
I0511 00:27:49.974736 28408 net.cpp:112] Top shape: 32 128 4 4 (65536)
I0511 00:27:49.974742 28408 layer_factory.hpp:74] Creating layer loss2/fc
I0511 00:27:49.974751 28408 net.cpp:76] Creating Layer loss2/fc
I0511 00:27:49.974757 28408 net.cpp:372] loss2/fc <- loss2/conv
I0511 00:27:49.974767 28408 net.cpp:334] loss2/fc -> loss2/fc
I0511 00:27:49.974777 28408 net.cpp:105] Setting up loss2/fc
I0511 00:27:49.992503 28408 net.cpp:112] Top shape: 32 1024 1 1 (32768)
I0511 00:27:49.992545 28408 layer_factory.hpp:74] Creating layer loss2/relu_fc
I0511 00:27:49.992564 28408 net.cpp:76] Creating Layer loss2/relu_fc
I0511 00:27:49.992573 28408 net.cpp:372] loss2/relu_fc <- loss2/fc
I0511 00:27:49.992583 28408 net.cpp:323] loss2/relu_fc -> loss2/fc (in-place)
I0511 00:27:49.992594 28408 net.cpp:105] Setting up loss2/relu_fc
I0511 00:27:49.992600 28408 net.cpp:112] Top shape: 32 1024 1 1 (32768)
I0511 00:27:49.992606 28408 layer_factory.hpp:74] Creating layer loss2/drop_fc
I0511 00:27:49.992615 28408 net.cpp:76] Creating Layer loss2/drop_fc
I0511 00:27:49.992620 28408 net.cpp:372] loss2/drop_fc <- loss2/fc
I0511 00:27:49.992627 28408 net.cpp:323] loss2/drop_fc -> loss2/fc (in-place)
I0511 00:27:49.992635 28408 net.cpp:105] Setting up loss2/drop_fc
I0511 00:27:49.992641 28408 net.cpp:112] Top shape: 32 1024 1 1 (32768)
I0511 00:27:49.992647 28408 layer_factory.hpp:74] Creating layer loss2/classifier
I0511 00:27:49.992660 28408 net.cpp:76] Creating Layer loss2/classifier
I0511 00:27:49.992666 28408 net.cpp:372] loss2/classifier <- loss2/fc
I0511 00:27:49.992673 28408 net.cpp:334] loss2/classifier -> loss2/classifier
I0511 00:27:49.992684 28408 net.cpp:105] Setting up loss2/classifier
I0511 00:27:49.992719 28408 net.cpp:112] Top shape: 32 2 1 1 (64)
I0511 00:27:49.992729 28408 layer_factory.hpp:74] Creating layer loss2/loss
I0511 00:27:49.992738 28408 net.cpp:76] Creating Layer loss2/loss
I0511 00:27:49.992744 28408 net.cpp:372] loss2/loss <- loss2/classifier
I0511 00:27:49.992750 28408 net.cpp:372] loss2/loss <- label_data_1_split_1
I0511 00:27:49.992758 28408 net.cpp:334] loss2/loss -> loss2/loss1
I0511 00:27:49.992768 28408 net.cpp:105] Setting up loss2/loss
I0511 00:27:49.992774 28408 layer_factory.hpp:74] Creating layer loss2/loss
I0511 00:27:49.992789 28408 net.cpp:112] Top shape: 1 1 1 1 (1)
I0511 00:27:49.992795 28408 net.cpp:118]     with loss weight 0.3
I0511 00:27:49.992815 28408 layer_factory.hpp:74] Creating layer inception_4e/1x1
I0511 00:27:49.992831 28408 net.cpp:76] Creating Layer inception_4e/1x1
I0511 00:27:49.992838 28408 net.cpp:372] inception_4e/1x1 <- inception_4d/output_inception_4d/output_0_split_1
I0511 00:27:49.992847 28408 net.cpp:334] inception_4e/1x1 -> inception_4e/1x1
I0511 00:27:49.992856 28408 net.cpp:105] Setting up inception_4e/1x1
I0511 00:27:49.993998 28408 net.cpp:112] Top shape: 32 256 14 14 (1605632)
I0511 00:27:49.994012 28408 layer_factory.hpp:74] Creating layer inception_4e/relu_1x1
I0511 00:27:49.994020 28408 net.cpp:76] Creating Layer inception_4e/relu_1x1
I0511 00:27:49.994027 28408 net.cpp:372] inception_4e/relu_1x1 <- inception_4e/1x1
I0511 00:27:49.994035 28408 net.cpp:323] inception_4e/relu_1x1 -> inception_4e/1x1 (in-place)
I0511 00:27:49.994045 28408 net.cpp:105] Setting up inception_4e/relu_1x1
I0511 00:27:49.994050 28408 net.cpp:112] Top shape: 32 256 14 14 (1605632)
I0511 00:27:49.994055 28408 layer_factory.hpp:74] Creating layer inception_4e/3x3_reduce
I0511 00:27:49.994066 28408 net.cpp:76] Creating Layer inception_4e/3x3_reduce
I0511 00:27:49.994073 28408 net.cpp:372] inception_4e/3x3_reduce <- inception_4d/output_inception_4d/output_0_split_2
I0511 00:27:49.994082 28408 net.cpp:334] inception_4e/3x3_reduce -> inception_4e/3x3_reduce
I0511 00:27:49.994124 28408 net.cpp:105] Setting up inception_4e/3x3_reduce
I0511 00:27:49.994849 28408 net.cpp:112] Top shape: 32 160 14 14 (1003520)
I0511 00:27:49.994865 28408 layer_factory.hpp:74] Creating layer inception_4e/relu_3x3_reduce
I0511 00:27:49.994874 28408 net.cpp:76] Creating Layer inception_4e/relu_3x3_reduce
I0511 00:27:49.994880 28408 net.cpp:372] inception_4e/relu_3x3_reduce <- inception_4e/3x3_reduce
I0511 00:27:49.994887 28408 net.cpp:323] inception_4e/relu_3x3_reduce -> inception_4e/3x3_reduce (in-place)
I0511 00:27:49.994895 28408 net.cpp:105] Setting up inception_4e/relu_3x3_reduce
I0511 00:27:49.994901 28408 net.cpp:112] Top shape: 32 160 14 14 (1003520)
I0511 00:27:49.994906 28408 layer_factory.hpp:74] Creating layer inception_4e/3x3
I0511 00:27:49.994915 28408 net.cpp:76] Creating Layer inception_4e/3x3
I0511 00:27:49.994920 28408 net.cpp:372] inception_4e/3x3 <- inception_4e/3x3_reduce
I0511 00:27:49.994930 28408 net.cpp:334] inception_4e/3x3 -> inception_4e/3x3
I0511 00:27:49.994940 28408 net.cpp:105] Setting up inception_4e/3x3
I0511 00:27:49.998793 28408 net.cpp:112] Top shape: 32 320 14 14 (2007040)
I0511 00:27:49.998811 28408 layer_factory.hpp:74] Creating layer inception_4e/relu_3x3
I0511 00:27:49.998821 28408 net.cpp:76] Creating Layer inception_4e/relu_3x3
I0511 00:27:49.998828 28408 net.cpp:372] inception_4e/relu_3x3 <- inception_4e/3x3
I0511 00:27:49.998836 28408 net.cpp:323] inception_4e/relu_3x3 -> inception_4e/3x3 (in-place)
I0511 00:27:49.998843 28408 net.cpp:105] Setting up inception_4e/relu_3x3
I0511 00:27:49.998849 28408 net.cpp:112] Top shape: 32 320 14 14 (2007040)
I0511 00:27:49.998854 28408 layer_factory.hpp:74] Creating layer inception_4e/5x5_reduce
I0511 00:27:49.998864 28408 net.cpp:76] Creating Layer inception_4e/5x5_reduce
I0511 00:27:49.998872 28408 net.cpp:372] inception_4e/5x5_reduce <- inception_4d/output_inception_4d/output_0_split_3
I0511 00:27:49.998879 28408 net.cpp:334] inception_4e/5x5_reduce -> inception_4e/5x5_reduce
I0511 00:27:49.998888 28408 net.cpp:105] Setting up inception_4e/5x5_reduce
I0511 00:27:49.999038 28408 net.cpp:112] Top shape: 32 32 14 14 (200704)
I0511 00:27:49.999049 28408 layer_factory.hpp:74] Creating layer inception_4e/relu_5x5_reduce
I0511 00:27:49.999056 28408 net.cpp:76] Creating Layer inception_4e/relu_5x5_reduce
I0511 00:27:49.999063 28408 net.cpp:372] inception_4e/relu_5x5_reduce <- inception_4e/5x5_reduce
I0511 00:27:49.999069 28408 net.cpp:323] inception_4e/relu_5x5_reduce -> inception_4e/5x5_reduce (in-place)
I0511 00:27:49.999076 28408 net.cpp:105] Setting up inception_4e/relu_5x5_reduce
I0511 00:27:49.999081 28408 net.cpp:112] Top shape: 32 32 14 14 (200704)
I0511 00:27:49.999086 28408 layer_factory.hpp:74] Creating layer inception_4e/5x5
I0511 00:27:49.999114 28408 net.cpp:76] Creating Layer inception_4e/5x5
I0511 00:27:49.999121 28408 net.cpp:372] inception_4e/5x5 <- inception_4e/5x5_reduce
I0511 00:27:49.999130 28408 net.cpp:334] inception_4e/5x5 -> inception_4e/5x5
I0511 00:27:49.999138 28408 net.cpp:105] Setting up inception_4e/5x5
I0511 00:27:50.000016 28408 net.cpp:112] Top shape: 32 128 14 14 (802816)
I0511 00:27:50.000031 28408 layer_factory.hpp:74] Creating layer inception_4e/relu_5x5
I0511 00:27:50.000040 28408 net.cpp:76] Creating Layer inception_4e/relu_5x5
I0511 00:27:50.000046 28408 net.cpp:372] inception_4e/relu_5x5 <- inception_4e/5x5
I0511 00:27:50.000052 28408 net.cpp:323] inception_4e/relu_5x5 -> inception_4e/5x5 (in-place)
I0511 00:27:50.000059 28408 net.cpp:105] Setting up inception_4e/relu_5x5
I0511 00:27:50.000066 28408 net.cpp:112] Top shape: 32 128 14 14 (802816)
I0511 00:27:50.000071 28408 layer_factory.hpp:74] Creating layer inception_4e/pool
I0511 00:27:50.000082 28408 net.cpp:76] Creating Layer inception_4e/pool
I0511 00:27:50.000087 28408 net.cpp:372] inception_4e/pool <- inception_4d/output_inception_4d/output_0_split_4
I0511 00:27:50.000095 28408 net.cpp:334] inception_4e/pool -> inception_4e/pool
I0511 00:27:50.000103 28408 net.cpp:105] Setting up inception_4e/pool
I0511 00:27:50.000113 28408 net.cpp:112] Top shape: 32 528 14 14 (3311616)
I0511 00:27:50.000133 28408 layer_factory.hpp:74] Creating layer inception_4e/pool_proj
I0511 00:27:50.000144 28408 net.cpp:76] Creating Layer inception_4e/pool_proj
I0511 00:27:50.000150 28408 net.cpp:372] inception_4e/pool_proj <- inception_4e/pool
I0511 00:27:50.000159 28408 net.cpp:334] inception_4e/pool_proj -> inception_4e/pool_proj
I0511 00:27:50.000167 28408 net.cpp:105] Setting up inception_4e/pool_proj
I0511 00:27:50.000754 28408 net.cpp:112] Top shape: 32 128 14 14 (802816)
I0511 00:27:50.000771 28408 layer_factory.hpp:74] Creating layer inception_4e/relu_pool_proj
I0511 00:27:50.000779 28408 net.cpp:76] Creating Layer inception_4e/relu_pool_proj
I0511 00:27:50.000785 28408 net.cpp:372] inception_4e/relu_pool_proj <- inception_4e/pool_proj
I0511 00:27:50.000792 28408 net.cpp:323] inception_4e/relu_pool_proj -> inception_4e/pool_proj (in-place)
I0511 00:27:50.000800 28408 net.cpp:105] Setting up inception_4e/relu_pool_proj
I0511 00:27:50.000805 28408 net.cpp:112] Top shape: 32 128 14 14 (802816)
I0511 00:27:50.000812 28408 layer_factory.hpp:74] Creating layer inception_4e/output
I0511 00:27:50.000819 28408 net.cpp:76] Creating Layer inception_4e/output
I0511 00:27:50.000824 28408 net.cpp:372] inception_4e/output <- inception_4e/1x1
I0511 00:27:50.000831 28408 net.cpp:372] inception_4e/output <- inception_4e/3x3
I0511 00:27:50.000838 28408 net.cpp:372] inception_4e/output <- inception_4e/5x5
I0511 00:27:50.000844 28408 net.cpp:372] inception_4e/output <- inception_4e/pool_proj
I0511 00:27:50.000854 28408 net.cpp:334] inception_4e/output -> inception_4e/output
I0511 00:27:50.000862 28408 net.cpp:105] Setting up inception_4e/output
I0511 00:27:50.000869 28408 net.cpp:112] Top shape: 32 832 14 14 (5218304)
I0511 00:27:50.000874 28408 layer_factory.hpp:74] Creating layer pool4/3x3_s2
I0511 00:27:50.000882 28408 net.cpp:76] Creating Layer pool4/3x3_s2
I0511 00:27:50.000888 28408 net.cpp:372] pool4/3x3_s2 <- inception_4e/output
I0511 00:27:50.000896 28408 net.cpp:334] pool4/3x3_s2 -> pool4/3x3_s2
I0511 00:27:50.000905 28408 net.cpp:105] Setting up pool4/3x3_s2
I0511 00:27:50.000911 28408 net.cpp:112] Top shape: 32 832 7 7 (1304576)
I0511 00:27:50.000916 28408 layer_factory.hpp:74] Creating layer pool4/3x3_s2_pool4/3x3_s2_0_split
I0511 00:27:50.000926 28408 net.cpp:76] Creating Layer pool4/3x3_s2_pool4/3x3_s2_0_split
I0511 00:27:50.000932 28408 net.cpp:372] pool4/3x3_s2_pool4/3x3_s2_0_split <- pool4/3x3_s2
I0511 00:27:50.000939 28408 net.cpp:334] pool4/3x3_s2_pool4/3x3_s2_0_split -> pool4/3x3_s2_pool4/3x3_s2_0_split_0
I0511 00:27:50.000948 28408 net.cpp:334] pool4/3x3_s2_pool4/3x3_s2_0_split -> pool4/3x3_s2_pool4/3x3_s2_0_split_1
I0511 00:27:50.000957 28408 net.cpp:334] pool4/3x3_s2_pool4/3x3_s2_0_split -> pool4/3x3_s2_pool4/3x3_s2_0_split_2
I0511 00:27:50.000967 28408 net.cpp:334] pool4/3x3_s2_pool4/3x3_s2_0_split -> pool4/3x3_s2_pool4/3x3_s2_0_split_3
I0511 00:27:50.000973 28408 net.cpp:105] Setting up pool4/3x3_s2_pool4/3x3_s2_0_split
I0511 00:27:50.000980 28408 net.cpp:112] Top shape: 32 832 7 7 (1304576)
I0511 00:27:50.000985 28408 net.cpp:112] Top shape: 32 832 7 7 (1304576)
I0511 00:27:50.000991 28408 net.cpp:112] Top shape: 32 832 7 7 (1304576)
I0511 00:27:50.000996 28408 net.cpp:112] Top shape: 32 832 7 7 (1304576)
I0511 00:27:50.001001 28408 layer_factory.hpp:74] Creating layer inception_5a/1x1
I0511 00:27:50.001013 28408 net.cpp:76] Creating Layer inception_5a/1x1
I0511 00:27:50.001019 28408 net.cpp:372] inception_5a/1x1 <- pool4/3x3_s2_pool4/3x3_s2_0_split_0
I0511 00:27:50.001029 28408 net.cpp:334] inception_5a/1x1 -> inception_5a/1x1
I0511 00:27:50.001037 28408 net.cpp:105] Setting up inception_5a/1x1
I0511 00:27:50.002835 28408 net.cpp:112] Top shape: 32 256 7 7 (401408)
I0511 00:27:50.002851 28408 layer_factory.hpp:74] Creating layer inception_5a/relu_1x1
I0511 00:27:50.002858 28408 net.cpp:76] Creating Layer inception_5a/relu_1x1
I0511 00:27:50.002883 28408 net.cpp:372] inception_5a/relu_1x1 <- inception_5a/1x1
I0511 00:27:50.002892 28408 net.cpp:323] inception_5a/relu_1x1 -> inception_5a/1x1 (in-place)
I0511 00:27:50.002914 28408 net.cpp:105] Setting up inception_5a/relu_1x1
I0511 00:27:50.002920 28408 net.cpp:112] Top shape: 32 256 7 7 (401408)
I0511 00:27:50.002926 28408 layer_factory.hpp:74] Creating layer inception_5a/3x3_reduce
I0511 00:27:50.002938 28408 net.cpp:76] Creating Layer inception_5a/3x3_reduce
I0511 00:27:50.002944 28408 net.cpp:372] inception_5a/3x3_reduce <- pool4/3x3_s2_pool4/3x3_s2_0_split_1
I0511 00:27:50.002953 28408 net.cpp:334] inception_5a/3x3_reduce -> inception_5a/3x3_reduce
I0511 00:27:50.002961 28408 net.cpp:105] Setting up inception_5a/3x3_reduce
I0511 00:27:50.004088 28408 net.cpp:112] Top shape: 32 160 7 7 (250880)
I0511 00:27:50.004102 28408 layer_factory.hpp:74] Creating layer inception_5a/relu_3x3_reduce
I0511 00:27:50.004111 28408 net.cpp:76] Creating Layer inception_5a/relu_3x3_reduce
I0511 00:27:50.004117 28408 net.cpp:372] inception_5a/relu_3x3_reduce <- inception_5a/3x3_reduce
I0511 00:27:50.004127 28408 net.cpp:323] inception_5a/relu_3x3_reduce -> inception_5a/3x3_reduce (in-place)
I0511 00:27:50.004134 28408 net.cpp:105] Setting up inception_5a/relu_3x3_reduce
I0511 00:27:50.004140 28408 net.cpp:112] Top shape: 32 160 7 7 (250880)
I0511 00:27:50.004145 28408 layer_factory.hpp:74] Creating layer inception_5a/3x3
I0511 00:27:50.004153 28408 net.cpp:76] Creating Layer inception_5a/3x3
I0511 00:27:50.004159 28408 net.cpp:372] inception_5a/3x3 <- inception_5a/3x3_reduce
I0511 00:27:50.004169 28408 net.cpp:334] inception_5a/3x3 -> inception_5a/3x3
I0511 00:27:50.004179 28408 net.cpp:105] Setting up inception_5a/3x3
I0511 00:27:50.008098 28408 net.cpp:112] Top shape: 32 320 7 7 (501760)
I0511 00:27:50.008126 28408 layer_factory.hpp:74] Creating layer inception_5a/relu_3x3
I0511 00:27:50.008137 28408 net.cpp:76] Creating Layer inception_5a/relu_3x3
I0511 00:27:50.008144 28408 net.cpp:372] inception_5a/relu_3x3 <- inception_5a/3x3
I0511 00:27:50.008152 28408 net.cpp:323] inception_5a/relu_3x3 -> inception_5a/3x3 (in-place)
I0511 00:27:50.008162 28408 net.cpp:105] Setting up inception_5a/relu_3x3
I0511 00:27:50.008167 28408 net.cpp:112] Top shape: 32 320 7 7 (501760)
I0511 00:27:50.008172 28408 layer_factory.hpp:74] Creating layer inception_5a/5x5_reduce
I0511 00:27:50.008184 28408 net.cpp:76] Creating Layer inception_5a/5x5_reduce
I0511 00:27:50.008191 28408 net.cpp:372] inception_5a/5x5_reduce <- pool4/3x3_s2_pool4/3x3_s2_0_split_2
I0511 00:27:50.008200 28408 net.cpp:334] inception_5a/5x5_reduce -> inception_5a/5x5_reduce
I0511 00:27:50.008211 28408 net.cpp:105] Setting up inception_5a/5x5_reduce
I0511 00:27:50.008489 28408 net.cpp:112] Top shape: 32 32 7 7 (50176)
I0511 00:27:50.008505 28408 layer_factory.hpp:74] Creating layer inception_5a/relu_5x5_reduce
I0511 00:27:50.008513 28408 net.cpp:76] Creating Layer inception_5a/relu_5x5_reduce
I0511 00:27:50.008520 28408 net.cpp:372] inception_5a/relu_5x5_reduce <- inception_5a/5x5_reduce
I0511 00:27:50.008528 28408 net.cpp:323] inception_5a/relu_5x5_reduce -> inception_5a/5x5_reduce (in-place)
I0511 00:27:50.008537 28408 net.cpp:105] Setting up inception_5a/relu_5x5_reduce
I0511 00:27:50.008541 28408 net.cpp:112] Top shape: 32 32 7 7 (50176)
I0511 00:27:50.008548 28408 layer_factory.hpp:74] Creating layer inception_5a/5x5
I0511 00:27:50.008558 28408 net.cpp:76] Creating Layer inception_5a/5x5
I0511 00:27:50.008564 28408 net.cpp:372] inception_5a/5x5 <- inception_5a/5x5_reduce
I0511 00:27:50.008574 28408 net.cpp:334] inception_5a/5x5 -> inception_5a/5x5
I0511 00:27:50.008584 28408 net.cpp:105] Setting up inception_5a/5x5
I0511 00:27:50.009510 28408 net.cpp:112] Top shape: 32 128 7 7 (200704)
I0511 00:27:50.009526 28408 layer_factory.hpp:74] Creating layer inception_5a/relu_5x5
I0511 00:27:50.009534 28408 net.cpp:76] Creating Layer inception_5a/relu_5x5
I0511 00:27:50.010299 28408 net.cpp:372] inception_5a/relu_5x5 <- inception_5a/5x5
I0511 00:27:50.010316 28408 net.cpp:323] inception_5a/relu_5x5 -> inception_5a/5x5 (in-place)
I0511 00:27:50.010325 28408 net.cpp:105] Setting up inception_5a/relu_5x5
I0511 00:27:50.010349 28408 net.cpp:112] Top shape: 32 128 7 7 (200704)
I0511 00:27:50.010355 28408 layer_factory.hpp:74] Creating layer inception_5a/pool
I0511 00:27:50.010365 28408 net.cpp:76] Creating Layer inception_5a/pool
I0511 00:27:50.010370 28408 net.cpp:372] inception_5a/pool <- pool4/3x3_s2_pool4/3x3_s2_0_split_3
I0511 00:27:50.010380 28408 net.cpp:334] inception_5a/pool -> inception_5a/pool
I0511 00:27:50.010390 28408 net.cpp:105] Setting up inception_5a/pool
I0511 00:27:50.010397 28408 net.cpp:112] Top shape: 32 832 7 7 (1304576)
I0511 00:27:50.010403 28408 layer_factory.hpp:74] Creating layer inception_5a/pool_proj
I0511 00:27:50.010412 28408 net.cpp:76] Creating Layer inception_5a/pool_proj
I0511 00:27:50.010421 28408 net.cpp:372] inception_5a/pool_proj <- inception_5a/pool
I0511 00:27:50.010440 28408 net.cpp:334] inception_5a/pool_proj -> inception_5a/pool_proj
I0511 00:27:50.010462 28408 net.cpp:105] Setting up inception_5a/pool_proj
I0511 00:27:50.011421 28408 net.cpp:112] Top shape: 32 128 7 7 (200704)
I0511 00:27:50.011440 28408 layer_factory.hpp:74] Creating layer inception_5a/relu_pool_proj
I0511 00:27:50.011448 28408 net.cpp:76] Creating Layer inception_5a/relu_pool_proj
I0511 00:27:50.011456 28408 net.cpp:372] inception_5a/relu_pool_proj <- inception_5a/pool_proj
I0511 00:27:50.011462 28408 net.cpp:323] inception_5a/relu_pool_proj -> inception_5a/pool_proj (in-place)
I0511 00:27:50.011471 28408 net.cpp:105] Setting up inception_5a/relu_pool_proj
I0511 00:27:50.011476 28408 net.cpp:112] Top shape: 32 128 7 7 (200704)
I0511 00:27:50.011482 28408 layer_factory.hpp:74] Creating layer inception_5a/output
I0511 00:27:50.011489 28408 net.cpp:76] Creating Layer inception_5a/output
I0511 00:27:50.011494 28408 net.cpp:372] inception_5a/output <- inception_5a/1x1
I0511 00:27:50.011502 28408 net.cpp:372] inception_5a/output <- inception_5a/3x3
I0511 00:27:50.011507 28408 net.cpp:372] inception_5a/output <- inception_5a/5x5
I0511 00:27:50.011513 28408 net.cpp:372] inception_5a/output <- inception_5a/pool_proj
I0511 00:27:50.011520 28408 net.cpp:334] inception_5a/output -> inception_5a/output
I0511 00:27:50.011528 28408 net.cpp:105] Setting up inception_5a/output
I0511 00:27:50.011534 28408 net.cpp:112] Top shape: 32 832 7 7 (1304576)
I0511 00:27:50.011540 28408 layer_factory.hpp:74] Creating layer inception_5a/output_inception_5a/output_0_split
I0511 00:27:50.011550 28408 net.cpp:76] Creating Layer inception_5a/output_inception_5a/output_0_split
I0511 00:27:50.011556 28408 net.cpp:372] inception_5a/output_inception_5a/output_0_split <- inception_5a/output
I0511 00:27:50.011564 28408 net.cpp:334] inception_5a/output_inception_5a/output_0_split -> inception_5a/output_inception_5a/output_0_split_0
I0511 00:27:50.011574 28408 net.cpp:334] inception_5a/output_inception_5a/output_0_split -> inception_5a/output_inception_5a/output_0_split_1
I0511 00:27:50.011584 28408 net.cpp:334] inception_5a/output_inception_5a/output_0_split -> inception_5a/output_inception_5a/output_0_split_2
I0511 00:27:50.011595 28408 net.cpp:334] inception_5a/output_inception_5a/output_0_split -> inception_5a/output_inception_5a/output_0_split_3
I0511 00:27:50.011602 28408 net.cpp:105] Setting up inception_5a/output_inception_5a/output_0_split
I0511 00:27:50.011610 28408 net.cpp:112] Top shape: 32 832 7 7 (1304576)
I0511 00:27:50.011615 28408 net.cpp:112] Top shape: 32 832 7 7 (1304576)
I0511 00:27:50.011620 28408 net.cpp:112] Top shape: 32 832 7 7 (1304576)
I0511 00:27:50.011623 28408 net.cpp:112] Top shape: 32 832 7 7 (1304576)
I0511 00:27:50.011629 28408 layer_factory.hpp:74] Creating layer inception_5b/1x1
I0511 00:27:50.011637 28408 net.cpp:76] Creating Layer inception_5b/1x1
I0511 00:27:50.011643 28408 net.cpp:372] inception_5b/1x1 <- inception_5a/output_inception_5a/output_0_split_0
I0511 00:27:50.011653 28408 net.cpp:334] inception_5b/1x1 -> inception_5b/1x1
I0511 00:27:50.011662 28408 net.cpp:105] Setting up inception_5b/1x1
I0511 00:27:50.014528 28408 net.cpp:112] Top shape: 32 384 7 7 (602112)
I0511 00:27:50.014546 28408 layer_factory.hpp:74] Creating layer inception_5b/relu_1x1
I0511 00:27:50.014569 28408 net.cpp:76] Creating Layer inception_5b/relu_1x1
I0511 00:27:50.014576 28408 net.cpp:372] inception_5b/relu_1x1 <- inception_5b/1x1
I0511 00:27:50.014586 28408 net.cpp:323] inception_5b/relu_1x1 -> inception_5b/1x1 (in-place)
I0511 00:27:50.014596 28408 net.cpp:105] Setting up inception_5b/relu_1x1
I0511 00:27:50.014601 28408 net.cpp:112] Top shape: 32 384 7 7 (602112)
I0511 00:27:50.014607 28408 layer_factory.hpp:74] Creating layer inception_5b/3x3_reduce
I0511 00:27:50.014616 28408 net.cpp:76] Creating Layer inception_5b/3x3_reduce
I0511 00:27:50.014622 28408 net.cpp:372] inception_5b/3x3_reduce <- inception_5a/output_inception_5a/output_0_split_1
I0511 00:27:50.014636 28408 net.cpp:334] inception_5b/3x3_reduce -> inception_5b/3x3_reduce
I0511 00:27:50.014646 28408 net.cpp:105] Setting up inception_5b/3x3_reduce
I0511 00:27:50.016038 28408 net.cpp:112] Top shape: 32 192 7 7 (301056)
I0511 00:27:50.016055 28408 layer_factory.hpp:74] Creating layer inception_5b/relu_3x3_reduce
I0511 00:27:50.016067 28408 net.cpp:76] Creating Layer inception_5b/relu_3x3_reduce
I0511 00:27:50.016073 28408 net.cpp:372] inception_5b/relu_3x3_reduce <- inception_5b/3x3_reduce
I0511 00:27:50.016080 28408 net.cpp:323] inception_5b/relu_3x3_reduce -> inception_5b/3x3_reduce (in-place)
I0511 00:27:50.016089 28408 net.cpp:105] Setting up inception_5b/relu_3x3_reduce
I0511 00:27:50.016095 28408 net.cpp:112] Top shape: 32 192 7 7 (301056)
I0511 00:27:50.016100 28408 layer_factory.hpp:74] Creating layer inception_5b/3x3
I0511 00:27:50.016113 28408 net.cpp:76] Creating Layer inception_5b/3x3
I0511 00:27:50.016120 28408 net.cpp:372] inception_5b/3x3 <- inception_5b/3x3_reduce
I0511 00:27:50.016129 28408 net.cpp:334] inception_5b/3x3 -> inception_5b/3x3
I0511 00:27:50.016170 28408 net.cpp:105] Setting up inception_5b/3x3
I0511 00:27:50.022325 28408 net.cpp:112] Top shape: 32 384 7 7 (602112)
I0511 00:27:50.022352 28408 layer_factory.hpp:74] Creating layer inception_5b/relu_3x3
I0511 00:27:50.022362 28408 net.cpp:76] Creating Layer inception_5b/relu_3x3
I0511 00:27:50.022369 28408 net.cpp:372] inception_5b/relu_3x3 <- inception_5b/3x3
I0511 00:27:50.022382 28408 net.cpp:323] inception_5b/relu_3x3 -> inception_5b/3x3 (in-place)
I0511 00:27:50.022399 28408 net.cpp:105] Setting up inception_5b/relu_3x3
I0511 00:27:50.022408 28408 net.cpp:112] Top shape: 32 384 7 7 (602112)
I0511 00:27:50.022414 28408 layer_factory.hpp:74] Creating layer inception_5b/5x5_reduce
I0511 00:27:50.022424 28408 net.cpp:76] Creating Layer inception_5b/5x5_reduce
I0511 00:27:50.022430 28408 net.cpp:372] inception_5b/5x5_reduce <- inception_5a/output_inception_5a/output_0_split_2
I0511 00:27:50.022442 28408 net.cpp:334] inception_5b/5x5_reduce -> inception_5b/5x5_reduce
I0511 00:27:50.022452 28408 net.cpp:105] Setting up inception_5b/5x5_reduce
I0511 00:27:50.022851 28408 net.cpp:112] Top shape: 32 48 7 7 (75264)
I0511 00:27:50.022873 28408 layer_factory.hpp:74] Creating layer inception_5b/relu_5x5_reduce
I0511 00:27:50.022886 28408 net.cpp:76] Creating Layer inception_5b/relu_5x5_reduce
I0511 00:27:50.022897 28408 net.cpp:372] inception_5b/relu_5x5_reduce <- inception_5b/5x5_reduce
I0511 00:27:50.022904 28408 net.cpp:323] inception_5b/relu_5x5_reduce -> inception_5b/5x5_reduce (in-place)
I0511 00:27:50.022912 28408 net.cpp:105] Setting up inception_5b/relu_5x5_reduce
I0511 00:27:50.022918 28408 net.cpp:112] Top shape: 32 48 7 7 (75264)
I0511 00:27:50.022924 28408 layer_factory.hpp:74] Creating layer inception_5b/5x5
I0511 00:27:50.022933 28408 net.cpp:76] Creating Layer inception_5b/5x5
I0511 00:27:50.022939 28408 net.cpp:372] inception_5b/5x5 <- inception_5b/5x5_reduce
I0511 00:27:50.022950 28408 net.cpp:334] inception_5b/5x5 -> inception_5b/5x5
I0511 00:27:50.022960 28408 net.cpp:105] Setting up inception_5b/5x5
I0511 00:27:50.024351 28408 net.cpp:112] Top shape: 32 128 7 7 (200704)
I0511 00:27:50.024369 28408 layer_factory.hpp:74] Creating layer inception_5b/relu_5x5
I0511 00:27:50.024377 28408 net.cpp:76] Creating Layer inception_5b/relu_5x5
I0511 00:27:50.024412 28408 net.cpp:372] inception_5b/relu_5x5 <- inception_5b/5x5
I0511 00:27:50.024421 28408 net.cpp:323] inception_5b/relu_5x5 -> inception_5b/5x5 (in-place)
I0511 00:27:50.024430 28408 net.cpp:105] Setting up inception_5b/relu_5x5
I0511 00:27:50.024435 28408 net.cpp:112] Top shape: 32 128 7 7 (200704)
I0511 00:27:50.024441 28408 layer_factory.hpp:74] Creating layer inception_5b/pool
I0511 00:27:50.024456 28408 net.cpp:76] Creating Layer inception_5b/pool
I0511 00:27:50.024467 28408 net.cpp:372] inception_5b/pool <- inception_5a/output_inception_5a/output_0_split_3
I0511 00:27:50.024489 28408 net.cpp:334] inception_5b/pool -> inception_5b/pool
I0511 00:27:50.024503 28408 net.cpp:105] Setting up inception_5b/pool
I0511 00:27:50.024513 28408 net.cpp:112] Top shape: 32 832 7 7 (1304576)
I0511 00:27:50.024520 28408 layer_factory.hpp:74] Creating layer inception_5b/pool_proj
I0511 00:27:50.024529 28408 net.cpp:76] Creating Layer inception_5b/pool_proj
I0511 00:27:50.024539 28408 net.cpp:372] inception_5b/pool_proj <- inception_5b/pool
I0511 00:27:50.024548 28408 net.cpp:334] inception_5b/pool_proj -> inception_5b/pool_proj
I0511 00:27:50.024557 28408 net.cpp:105] Setting up inception_5b/pool_proj
I0511 00:27:50.025549 28408 net.cpp:112] Top shape: 32 128 7 7 (200704)
I0511 00:27:50.025568 28408 layer_factory.hpp:74] Creating layer inception_5b/relu_pool_proj
I0511 00:27:50.025579 28408 net.cpp:76] Creating Layer inception_5b/relu_pool_proj
I0511 00:27:50.025586 28408 net.cpp:372] inception_5b/relu_pool_proj <- inception_5b/pool_proj
I0511 00:27:50.025594 28408 net.cpp:323] inception_5b/relu_pool_proj -> inception_5b/pool_proj (in-place)
I0511 00:27:50.025602 28408 net.cpp:105] Setting up inception_5b/relu_pool_proj
I0511 00:27:50.025609 28408 net.cpp:112] Top shape: 32 128 7 7 (200704)
I0511 00:27:50.025615 28408 layer_factory.hpp:74] Creating layer inception_5b/output
I0511 00:27:50.025625 28408 net.cpp:76] Creating Layer inception_5b/output
I0511 00:27:50.025635 28408 net.cpp:372] inception_5b/output <- inception_5b/1x1
I0511 00:27:50.025647 28408 net.cpp:372] inception_5b/output <- inception_5b/3x3
I0511 00:27:50.025662 28408 net.cpp:372] inception_5b/output <- inception_5b/5x5
I0511 00:27:50.025676 28408 net.cpp:372] inception_5b/output <- inception_5b/pool_proj
I0511 00:27:50.025689 28408 net.cpp:334] inception_5b/output -> inception_5b/output
I0511 00:27:50.025699 28408 net.cpp:105] Setting up inception_5b/output
I0511 00:27:50.025706 28408 net.cpp:112] Top shape: 32 1024 7 7 (1605632)
I0511 00:27:50.025712 28408 layer_factory.hpp:74] Creating layer pool5/7x7_s1
I0511 00:27:50.025719 28408 net.cpp:76] Creating Layer pool5/7x7_s1
I0511 00:27:50.025725 28408 net.cpp:372] pool5/7x7_s1 <- inception_5b/output
I0511 00:27:50.025733 28408 net.cpp:334] pool5/7x7_s1 -> pool5/7x7_s1
I0511 00:27:50.025749 28408 net.cpp:105] Setting up pool5/7x7_s1
I0511 00:27:50.025761 28408 net.cpp:112] Top shape: 32 1024 1 1 (32768)
I0511 00:27:50.025771 28408 layer_factory.hpp:74] Creating layer pool5/drop_7x7_s1
I0511 00:27:50.025784 28408 net.cpp:76] Creating Layer pool5/drop_7x7_s1
I0511 00:27:50.025791 28408 net.cpp:372] pool5/drop_7x7_s1 <- pool5/7x7_s1
I0511 00:27:50.025804 28408 net.cpp:323] pool5/drop_7x7_s1 -> pool5/7x7_s1 (in-place)
I0511 00:27:50.025820 28408 net.cpp:105] Setting up pool5/drop_7x7_s1
I0511 00:27:50.025835 28408 net.cpp:112] Top shape: 32 1024 1 1 (32768)
I0511 00:27:50.025843 28408 layer_factory.hpp:74] Creating layer loss3/classifier
I0511 00:27:50.025857 28408 net.cpp:76] Creating Layer loss3/classifier
I0511 00:27:50.025866 28408 net.cpp:372] loss3/classifier <- pool5/7x7_s1
I0511 00:27:50.025882 28408 net.cpp:334] loss3/classifier -> loss3/classifier
I0511 00:27:50.025902 28408 net.cpp:105] Setting up loss3/classifier
I0511 00:27:50.025940 28408 net.cpp:112] Top shape: 32 2 1 1 (64)
I0511 00:27:50.025951 28408 layer_factory.hpp:74] Creating layer loss3/loss3
I0511 00:27:50.025964 28408 net.cpp:76] Creating Layer loss3/loss3
I0511 00:27:50.025969 28408 net.cpp:372] loss3/loss3 <- loss3/classifier
I0511 00:27:50.025990 28408 net.cpp:372] loss3/loss3 <- label_data_1_split_2
I0511 00:27:50.026000 28408 net.cpp:334] loss3/loss3 -> loss3/loss3
I0511 00:27:50.026008 28408 net.cpp:105] Setting up loss3/loss3
I0511 00:27:50.026016 28408 layer_factory.hpp:74] Creating layer loss3/loss3
I0511 00:27:50.026031 28408 net.cpp:112] Top shape: 1 1 1 1 (1)
I0511 00:27:50.026037 28408 net.cpp:118]     with loss weight 1
I0511 00:27:50.026059 28408 net.cpp:163] loss3/loss3 needs backward computation.
I0511 00:27:50.026065 28408 net.cpp:163] loss3/classifier needs backward computation.
I0511 00:27:50.026092 28408 net.cpp:163] pool5/drop_7x7_s1 needs backward computation.
I0511 00:27:50.026098 28408 net.cpp:163] pool5/7x7_s1 needs backward computation.
…
I0511 00:27:50.035166 28408 solver.cpp:154] Creating test net (#0) specified by net file: ../../train_val.prototxt
I0511 00:27:50.035473 28408 net.cpp:253] The NetState phase (1) differed from the phase (0) specified by a rule in layer data
I0511 00:27:50.037207 28408 net.cpp:42] Initializing net from parameters: 
name: "GoogleNet"
state {
  phase: TEST
}
layer {
  name: "data"
  type: "Data"
  top: "data"
  top: "label"
  include {
    phase: TEST
  }
  transform_param {
    mirror: false
    crop_size: 224
    mean_value: 104
    mean_value: 117
    mean_value: 123
  }
  data_param {
    source: "val_lmdb"
    batch_size: 32
    backend: LMDB
  }
}
layer {
  name: "conv1/7x7_s2"
  type: "Convolution"
  bottom: "data"
  top: "conv1/7x7_s2"
  param {
    lr_mult: 1
    decay_mult: 1
  }
  param {
    lr_mult: 2
    decay_mult: 0
  }
  convolution_param {
    num_output: 64
    pad: 3
    kernel_size: 7
    stride: 2
    weight_filler {
      type: "xavier"
      std: 0.1
    }
    bias_filler {
      type: "constant"
      value: 0.2
    }
  }
}
layer {
  name: "conv1/relu_7x7"
  type: "ReLU"
  bottom: "conv1/7x7_s2"
  top: "conv1/7x7_s2"
}
layer {
  name: "pool1/3x3_s2"
  type: "Pooling"
  bottom: "conv1/7x7_s2"
  top: "pool1/3x3_s2"
  pooling_param {
    pool: MAX
    kernel_size: 3
    stride: 2
  }
}
layer {
  name: "pool1/norm1"
  type: "LRN"
  bottom: "pool1/3x3_s2"
  top: "pool1/norm1"
  lrn_param {
    local_size: 5
    alpha: 0.0001
    beta: 0.75
  }
}
layer {
  name: "conv2/3x3_reduce"
  type: "Convolution"
  bottom: "pool1/norm1"
  top: "conv2/3x3_reduce"
  param {
    lr_mult: 1
    decay_mult: 1
  }
  param {
    lr_mult: 2
    decay_mult: 0
  }
  convolution_param {
    num_output: 64
    kernel_size: 1
    weight_filler {
      type: "xavier"
      std: 0.1
    }
    bias_filler {
      type: "constant"
      value: 0.2
    }
  }
}
layer {
  name: "conv2/relu_3x3_reduce"
  type: "ReLU"
  bottom: "conv2/3x3_reduce"
  top: "conv2/3x3_reduce"
}
layer {
  name: "conv2/3x3"
  type: "Convolution"
  bottom: "conv2/3x3_reduce"
  top: "conv2/3x3"
  param {
    lr_mult: 1
    decay_mult: 1
  }
  param {
    lr_mult: 2
    decay_mult: 0
  }
  convolution_param {
    num_output: 192
    pad: 1
    kernel_size: 3
    weight_filler {
      type: "xavier"
      std: 0.03
    }
    bias_filler {
      type: "constant"
      value: 0.2
    }
  }
}
layer {
  name: "conv2/relu_3x3"
  type: "ReLU"
  bottom: "conv2/3x3"
  top: "conv2/3x3"
}
layer {
  name: "conv2/norm2"
  type: "LRN"
  bottom: "conv2/3x3"
  top: "conv2/norm2"
  lrn_param {
    local_size: 5
    alpha: 0.0001
    beta: 0.75
  }
}
layer {
  name: "pool2/3x3_s2"
  type: "Pooling"
  bottom: "conv2/norm2"
  top: "pool2/3x3_s2"
  pooling_param {
    pool: MAX
    kernel_size: 3
    stride: 2
  }
}
layer {
  name: "inception_3a/1x1"
  type: "Convolution"
  bottom: "pool2/3x3_s2"
  top: "inception_3a/1x1"
  param {
    lr_mult: 1
    decay_mult: 1
  }
  param {
    lr_mult: 2
    decay_mult: 0
  }
  convolution_param {
    num_output: 64
    kernel_size: 1
    weight_filler {
      type: "xavier"
      std: 0.03
    }
    bias_filler {
      type: "constant"
      value: 0.2
    }
  }
}
layer {
  name: "inception_3a/relu_1x1"
  type: "ReLU"
  bottom: "inception_3a/1x1"
  top: "inception_3a/1x1"
}
layer {
  name: "inception_3a/3x3_reduce"
  type: "Convolution"
  bottom: "pool2/3x3_s2"
  top: "inception_3a/3x3_reduce"
  param {
    lr_mult: 1
    decay_mult: 1
  }
  param {
    lr_mult: 2
    decay_mult: 0
  }
  convolution_param {
    num_output: 96
    kernel_size: 1
    weight_filler {
      type: "xavier"
      std: 0.09
    }
    bias_filler {
      type: "constant"
      value: 0.2
    }
  }
}
layer {
  name: "inception_3a/relu_3x3_reduce"
  type: "ReLU"
  bottom: "inception_3a/3x3_reduce"
  top: "inception_3a/3x3_reduce"
}
layer {
  name: "inception_3a/3x3"
  type: "Convolution"
  bottom: "inception_3a/3x3_reduce"
  top: "inception_3a/3x3"
  param {
    lr_mult: 1
    decay_mult: 1
  }
  param {
    lr_mult: 2
    decay_mult: 0
  }
  convolution_param {
    num_output: 128
    pad: 1
    kernel_size: 3
    weight_filler {
      type: "xavier"
      std: 0.03
    }
    bias_filler {
      type: "constant"
      value: 0.2
    }
  }
}
layer {
  name: "inception_3a/relu_3x3"
  type: "ReLU"
  bottom: "inception_3a/3x3"
  top: "inception_3a/3x3"
}
layer {
  name: "inception_3a/5x5_reduce"
  type: "Convolution"
  bottom: "pool2/3x3_s2"
  top: "inception_3a/5x5_reduce"
  param {
    lr_mult: 1
    decay_mult: 1
  }
  param {
    lr_mult: 2
    decay_mult: 0
  }
  convolution_param {
    num_output: 16
    kernel_size: 1
    weight_filler {
      type: "xavier"
      std: 0.2
    }
    bias_filler {
      type: "constant"
      value: 0.2
    }
  }
}
layer {
  name: "inception_3a/relu_5x5_reduce"
  type: "ReLU"
  bottom: "inception_3a/5x5_reduce"
  top: "inception_3a/5x5_reduce"
}
layer {
  name: "inception_3a/5x5"
  type: "Convolution"
  bottom: "inception_3a/5x5_reduce"
  top: "inception_3a/5x5"
  param {
    lr_mult: 1
    decay_mult: 1
  }
  param {
    lr_mult: 2
    decay_mult: 0
  }
  convolution_param {
    num_output: 32
    pad: 2
    kernel_size: 5
    weight_filler {
      type: "xavier"
      std: 0.03
    }
    bias_filler {
      type: "constant"
      value: 0.2
    }
  }
}
layer {
  name: "inception_3a/relu_5x5"
  type: "ReLU"
  bottom: "inception_3a/5x5"
  top: "inception_3a/5x5"
}
layer {
  name: "inception_3a/pool"
  type: "Pooling"
  bottom: "pool2/3x3_s2"
  top: "inception_3a/pool"
  pooling_param {
    pool: MAX
    kernel_size: 3
    stride: 1
    pad: 1
  }
}
layer {
  name: "inception_3a/pool_proj"
  type: "Convolution"
  bottom: "inception_3a/pool"
  top: "inception_3a/pool_proj"
  param {
    lr_mult: 1
    decay_mult: 1
  }
  param {
    lr_mult: 2
    decay_mult: 0
  }
  convolution_param {
    num_output: 32
    kernel_size: 1
    weight_filler {
      type: "xavier"
      std: 0.1
    }
    bias_filler {
      type: "constant"
      value: 0.2
    }
  }
}
layer {
  name: "inception_3a/relu_pool_proj"
  type: "ReLU"
  bottom: "inception_3a/pool_proj"
  top: "inception_3a/pool_proj"
}
layer {
  name: "inception_3a/output"
  type: "Concat"
  bottom: "inception_3a/1x1"
  bottom: "inception_3a/3x3"
  bottom: "inception_3a/5x5"
  bottom: "inception_3a/pool_proj"
  top: "inception_3a/output"
}
layer {
  name: "inception_3b/1x1"
  type: "Convolution"
  bottom: "inception_3a/output"
  top: "inception_3b/1x1"
  param {
    lr_mult: 1
    decay_mult: 1
  }
  param {
    lr_mult: 2
    decay_mult: 0
  }
  convolution_param {
    num_output: 128
    kernel_size: 1
    weight_filler {
      type: "xavier"
      std: 0.03
    }
    bias_filler {
      type: "constant"
      value: 0.2
    }
  }
}
layer {
  name: "inception_3b/relu_1x1"
  type: "ReLU"
  bottom: "inception_3b/1x1"
  top: "inception_3b/1x1"
}
layer {
  name: "inception_3b/3x3_reduce"
  type: "Convolution"
  bottom: "inception_3a/output"
  top: "inception_3b/3x3_reduce"
  param {
    lr_mult: 1
    decay_mult: 1
  }
  param {
    lr_mult: 2
    decay_mult: 0
  }
  convolution_param {
    num_output: 128
    kernel_size: 1
    weight_filler {
      type: "xavier"
      std: 0.09
    }
    bias_filler {
      type: "constant"
      value: 0.2
    }
  }
}
layer {
  name: "inception_3b/relu_3x3_reduce"
  type: "ReLU"
  bottom: "inception_3b/3x3_reduce"
  top: "inception_3b/3x3_reduce"
}
layer {
  name: "inception_3b/3x3"
  type: "Convolution"
  bottom: "inception_3b/3x3_reduce"
  top: "inception_3b/3x3"
  param {
    lr_mult: 1
    decay_mult: 1
  }
  param {
    lr_mult: 2
    decay_mult: 0
  }
  convolution_param {
    num_output: 192
    pad: 1
    kernel_size: 3
    weight_filler {
      type: "xavier"
      std: 0.03
    }
    bias_filler {
      type: "constant"
      value: 0.2
    }
  }
}
layer {
  name: "inception_3b/relu_3x3"
  type: "ReLU"
  bottom: "inception_3b/3x3"
  top: "inception_3b/3x3"
}
layer {
  name: "inception_3b/5x5_reduce"
  type: "Convolution"
  bottom: "inception_3a/output"
  top: "inception_3b/5x5_reduce"
  param {
    lr_mult: 1
    decay_mult: 1
  }
  param {
    lr_mult: 2
    decay_mult: 0
  }
  convolution_param {
    num_output: 32
    kernel_size: 1
    weight_filler {
      type: "xavier"
      std: 0.2
    }
    bias_filler {
      type: "constant"
      value: 0.2
    }
  }
}
layer {
  name: "inception_3b/relu_5x5_reduce"
  type: "ReLU"
  bottom: "inception_3b/5x5_reduce"
  top: "inception_3b/5x5_reduce"
}
layer {
  name: "inception_3b/5x5"
  type: "Convolution"
  bottom: "inception_3b/5x5_reduce"
  top: "inception_3b/5x5"
  param {
    lr_mult: 1
    decay_mult: 1
  }
  param {
    lr_mult: 2
    decay_mult: 0
  }
  convolution_param {
    num_output: 96
    pad: 2
    kernel_size: 5
    weight_filler {
      type: "xavier"
      std: 0.03
    }
    bias_filler {
      type: "constant"
      value: 0.2
    }
  }
}
layer {
  name: "inception_3b/relu_5x5"
  type: "ReLU"
  bottom: "inception_3b/5x5"
  top: "inception_3b/5x5"
}
layer {
  name: "inception_3b/pool"
  type: "Pooling"
  bottom: "inception_3a/output"
  top: "inception_3b/pool"
  pooling_param {
    pool: MAX
    kernel_size: 3
    stride: 1
    pad: 1
  }
}
layer {
  name: "inception_3b/pool_proj"
  type: "Convolution"
  bottom: "inception_3b/pool"
  top: "inception_3b/pool_proj"
  param {
    lr_mult: 1
    decay_mult: 1
  }
  param {
    lr_mult: 2
    decay_mult: 0
  }
  convolution_param {
    num_output: 64
    kernel_size: 1
    weight_filler {
      type: "xavier"
      std: 0.1
    }
    bias_filler {
      type: "constant"
      value: 0.2
    }
  }
}
layer {
  name: "inception_3b/relu_pool_proj"
  type: "ReLU"
  bottom: "inception_3b/pool_proj"
  top: "inception_3b/pool_proj"
}
layer {
  name: "inception_3b/output"
  type: "Concat"
  bottom: "inception_3b/1x1"
  bottom: "inception_3b/3x3"
  bottom: "inception_3b/5x5"
  bottom: "inception_3b/pool_proj"
  top: "inception_3b/output"
}
layer {
  name: "pool3/3x3_s2"
  type: "Pooling"
  bottom: "inception_3b/output"
  top: "pool3/3x3_s2"
  pooling_param {
    pool: MAX
    kernel_size: 3
    stride: 2
  }
}
layer {
  name: "inception_4a/1x1"
  type: "Convolution"
  bottom: "pool3/3x3_s2"
  top: "inception_4a/1x1"
  param {
    lr_mult: 1
    decay_mult: 1
  }
  param {
    lr_mult: 2
    decay_mult: 0
  }
  convolution_param {
    num_output: 192
    kernel_size: 1
    weight_filler {
      type: "xavier"
      std: 0.03
    }
    bias_filler {
      type: "constant"
      value: 0.2
    }
  }
}
layer {
  name: "inception_4a/relu_1x1"
  type: "ReLU"
  bottom: "inception_4a/1x1"
  top: "inception_4a/1x1"
}
layer {
  name: "inception_4a/3x3_reduce"
  type: "Convolution"
  bottom: "pool3/3x3_s2"
  top: "inception_4a/3x3_reduce"
  param {
    lr_mult: 1
    decay_mult: 1
  }
  param {
    lr_mult: 2
    decay_mult: 0
  }
  convolution_param {
    num_output: 96
    kernel_size: 1
    weight_filler {
      type: "xavier"
      std: 0.09
    }
    bias_filler {
      type: "constant"
      value: 0.2
    }
  }
}
layer {
  name: "inception_4a/relu_3x3_reduce"
  type: "ReLU"
  bottom: "inception_4a/3x3_reduce"
  top: "inception_4a/3x3_reduce"
}
layer {
  name: "inception_4a/3x3"
  type: "Convolution"
  bottom: "inception_4a/3x3_reduce"
  top: "inception_4a/3x3"
  param {
    lr_mult: 1
    decay_mult: 1
  }
  param {
    lr_mult: 2
    decay_mult: 0
  }
  convolution_param {
    num_output: 208
    pad: 1
    kernel_size: 3
    weight_filler {
      type: "xavier"
      std: 0.03
    }
    bias_filler {
      type: "constant"
      value: 0.2
    }
  }
}
layer {
  name: "inception_4a/relu_3x3"
  type: "ReLU"
  bottom: "inception_4a/3x3"
  top: "inception_4a/3x3"
}
layer {
  name: "inception_4a/5x5_reduce"
  type: "Convolution"
  bottom: "pool3/3x3_s2"
  top: "inception_4a/5x5_reduce"
  param {
    lr_mult: 1
    decay_mult: 1
  }
  param {
    lr_mult: 2
    decay_mult: 0
  }
  convolution_param {
    num_output: 16
    kernel_size: 1
    weight_filler {
      type: "xavier"
      std: 0.2
    }
    bias_filler {
      type: "constant"
      value: 0.2
    }
  }
}
layer {
  name: "inception_4a/relu_5x5_reduce"
  type: "ReLU"
  bottom: "inception_4a/5x5_reduce"
  top: "inception_4a/5x5_reduce"
}
layer {
  name: "inception_4a/5x5"
  type: "Convolution"
  bottom: "inception_4a/5x5_reduce"
  top: "inception_4a/5x5"
  param {
    lr_mult: 1
    decay_mult: 1
  }
  param {
    lr_mult: 2
    decay_mult: 0
  }
  convolution_param {
    num_output: 48
    pad: 2
    kernel_size: 5
    weight_filler {
      type: "xavier"
      std: 0.03
    }
    bias_filler {
      type: "constant"
      value: 0.2
    }
  }
}
layer {
  name: "inception_4a/relu_5x5"
  type: "ReLU"
  bottom: "inception_4a/5x5"
  top: "inception_4a/5x5"
}
layer {
  name: "inception_4a/pool"
  type: "Pooling"
  bottom: "pool3/3x3_s2"
  top: "inception_4a/pool"
  pooling_param {
    pool: MAX
    kernel_size: 3
    stride: 1
    pad: 1
  }
}
layer {
  name: "inception_4a/pool_proj"
  type: "Convolution"
  bottom: "inception_4a/pool"
  top: "inception_4a/pool_proj"
  param {
    lr_mult: 1
    decay_mult: 1
  }
  param {
    lr_mult: 2
    decay_mult: 0
  }
  convolution_param {
    num_output: 64
    kernel_size: 1
    weight_filler {
      type: "xavier"
      std: 0.1
    }
    bias_filler {
      type: "constant"
      value: 0.2
    }
  }
}
layer {
  name: "inception_4a/relu_pool_proj"
  type: "ReLU"
  bottom: "inception_4a/pool_proj"
  top: "inception_4a/pool_proj"
}
layer {
  name: "inception_4a/output"
  type: "Concat"
  bottom: "inception_4a/1x1"
  bottom: "inception_4a/3x3"
  bottom: "inception_4a/5x5"
  bottom: "inception_4a/pool_proj"
  top: "inception_4a/output"
}
layer {
  name: "loss1/ave_pool"
  type: "Pooling"
  bottom: "inception_4a/output"
  top: "loss1/ave_pool"
  pooling_param {
    pool: AVE
    kernel_size: 5
    stride: 3
  }
}
layer {
  name: "loss1/conv"
  type: "Convolution"
  bottom: "loss1/ave_pool"
  top: "loss1/conv"
  param {
    lr_mult: 1
    decay_mult: 1
  }
  param {
    lr_mult: 2
    decay_mult: 0
  }
  convolution_param {
    num_output: 128
    kernel_size: 1
    weight_filler {
      type: "xavier"
      std: 0.08
    }
    bias_filler {
      type: "constant"
      value: 0.2
    }
  }
}
layer {
  name: "loss1/relu_conv"
  type: "ReLU"
  bottom: "loss1/conv"
  top: "loss1/conv"
}
layer {
  name: "loss1/fc"
  type: "InnerProduct"
  bottom: "loss1/conv"
  top: "loss1/fc"
  param {
    lr_mult: 1
    decay_mult: 1
  }
  param {
    lr_mult: 2
    decay_mult: 0
  }
  inner_product_param {
    num_output: 1024
    weight_filler {
      type: "xavier"
      std: 0.02
    }
    bias_filler {
      type: "constant"
      value: 0.2
    }
  }
}
layer {
  name: "loss1/relu_fc"
  type: "ReLU"
  bottom: "loss1/fc"
  top: "loss1/fc"
}
layer {
  name: "loss1/drop_fc"
  type: "Dropout"
  bottom: "loss1/fc"
  top: "loss1/fc"
  dropout_param {
    dropout_ratio: 0.7
  }
}
layer {
  name: "loss1/classifier"
  type: "InnerProduct"
  bottom: "loss1/fc"
  top: "loss1/classifier"
  param {
    lr_mult: 1
    decay_mult: 1
  }
  param {
    lr_mult: 2
    decay_mult: 0
  }
  inner_product_param {
    num_output: 2
    weight_filler {
      type: "xavier"
      std: 0.0009765625
    }
    bias_filler {
      type: "constant"
      value: 0
    }
  }
}
layer {
  name: "loss1/loss"
  type: "SoftmaxWithLoss"
  bottom: "loss1/classifier"
  bottom: "label"
  top: "loss1/loss1"
  loss_weight: 0.3
}
layer {
  name: "loss1/top-1"
  type: "Accuracy"
  bottom: "loss1/classifier"
  bottom: "label"
  top: "loss1/top-1"
  include {
    phase: TEST
  }
}
layer {
  name: "inception_4b/1x1"
  type: "Convolution"
  bottom: "inception_4a/output"
  top: "inception_4b/1x1"
  param {
    lr_mult: 1
    decay_mult: 1
  }
  param {
    lr_mult: 2
    decay_mult: 0
  }
  convolution_param {
    num_output: 160
    kernel_size: 1
    weight_filler {
      type: "xavier"
      std: 0.03
    }
    bias_filler {
      type: "constant"
      value: 0.2
    }
  }
}
layer {
  name: "inception_4b/relu_1x1"
  type: "ReLU"
  bottom: "inception_4b/1x1"
  top: "inception_4b/1x1"
}
layer {
  name: "inception_4b/3x3_reduce"
  type: "Convolution"
  bottom: "inception_4a/output"
  top: "inception_4b/3x3_reduce"
  param {
    lr_mult: 1
    decay_mult: 1
  }
  param {
    lr_mult: 2
    decay_mult: 0
  }
  convolution_param {
    num_output: 112
    kernel_size: 1
    weight_filler {
      type: "xavier"
      std: 0.09
    }
    bias_filler {
      type: "constant"
      value: 0.2
    }
  }
}
layer {
  name: "inception_4b/relu_3x3_reduce"
  type: "ReLU"
  bottom: "inception_4b/3x3_reduce"
  top: "inception_4b/3x3_reduce"
}
layer {
  name: "inception_4b/3x3"
  type: "Convolution"
  bottom: "inception_4b/3x3_reduce"
  top: "inception_4b/3x3"
  param {
    lr_mult: 1
    decay_mult: 1
  }
  param {
    lr_mult: 2
    decay_mult: 0
  }
  convolution_param {
    num_output: 224
    pad: 1
    kernel_size: 3
    weight_filler {
      type: "xavier"
      std: 0.03
    }
    bias_filler {
      type: "constant"
      value: 0.2
    }
  }
}
layer {
  name: "inception_4b/relu_3x3"
  type: "ReLU"
  bottom: "inception_4b/3x3"
  top: "inception_4b/3x3"
}
layer {
  name: "inception_4b/5x5_reduce"
  type: "Convolution"
  bottom: "inception_4a/output"
  top: "inception_4b/5x5_reduce"
  param {
    lr_mult: 1
    decay_mult: 1
  }
  param {
    lr_mult: 2
    decay_mult: 0
  }
  convolution_param {
    num_output: 24
    kernel_size: 1
    weight_filler {
      type: "xavier"
      std: 0.2
    }
    bias_filler {
      type: "constant"
      value: 0.2
    }
  }
}
layer {
  name: "inception_4b/relu_5x5_reduce"
  type: "ReLU"
  bottom: "inception_4b/5x5_reduce"
  top: "inception_4b/5x5_reduce"
}
layer {
  name: "inception_4b/5x5"
  type: "Convolution"
  bottom: "inception_4b/5x5_reduce"
  top: "inception_4b/5x5"
  param {
    lr_mult: 1
    decay_mult: 1
  }
  param {
    lr_mult: 2
    decay_mult: 0
  }
  convolution_param {
    num_output: 64
    pad: 2
    kernel_size: 5
    weight_filler {
      type: "xavier"
      std: 0.03
    }
    bias_filler {
      type: "constant"
      value: 0.2
    }
  }
}
layer {
  name: "inception_4b/relu_5x5"
  type: "ReLU"
  bottom: "inception_4b/5x5"
  top: "inception_4b/5x5"
}
layer {
  name: "inception_4b/pool"
  type: "Pooling"
  bottom: "inception_4a/output"
  top: "inception_4b/pool"
  pooling_param {
    pool: MAX
    kernel_size: 3
    stride: 1
    pad: 1
  }
}
layer {
  name: "inception_4b/pool_proj"
  type: "Convolution"
  bottom: "inception_4b/pool"
  top: "inception_4b/pool_proj"
  param {
    lr_mult: 1
    decay_mult: 1
  }
  param {
    lr_mult: 2
    decay_mult: 0
  }
  convolution_param {
    num_output: 64
    kernel_size: 1
    weight_filler {
      type: "xavier"
      std: 0.1
    }
    bias_filler {
      type: "constant"
      value: 0.2
    }
  }
}
layer {
  name: "inception_4b/relu_pool_proj"
  type: "ReLU"
  bottom: "inception_4b/pool_proj"
  top: "inception_4b/pool_proj"
}
layer {
  name: "inception_4b/output"
  type: "Concat"
  bottom: "inception_4b/1x1"
  bottom: "inception_4b/3x3"
  bottom: "inception_4b/5x5"
  bottom: "inception_4b/pool_proj"
  top: "inception_4b/output"
}
layer {
  name: "inception_4c/1x1"
  type: "Convolution"
  bottom: "inception_4b/output"
  top: "inception_4c/1x1"
  param {
    lr_mult: 1
    decay_mult: 1
  }
  param {
    lr_mult: 2
    decay_mult: 0
  }
  convolution_param {
    num_output: 128
    kernel_size: 1
    weight_filler {
      type: "xavier"
      std: 0.03
    }
    bias_filler {
      type: "constant"
      value: 0.2
    }
  }
}
layer {
  name: "inception_4c/relu_1x1"
  type: "ReLU"
  bottom: "inception_4c/1x1"
  top: "inception_4c/1x1"
}
layer {
  name: "inception_4c/3x3_reduce"
  type: "Convolution"
  bottom: "inception_4b/output"
  top: "inception_4c/3x3_reduce"
  param {
    lr_mult: 1
    decay_mult: 1
  }
  param {
    lr_mult: 2
    decay_mult: 0
  }
  convolution_param {
    num_output: 128
    kernel_size: 1
    weight_filler {
      type: "xavier"
      std: 0.09
    }
    bias_filler {
      type: "constant"
      value: 0.2
    }
  }
}
layer {
  name: "inception_4c/relu_3x3_reduce"
  type: "ReLU"
  bottom: "inception_4c/3x3_reduce"
  top: "inception_4c/3x3_reduce"
}
layer {
  name: "inception_4c/3x3"
  type: "Convolution"
  bottom: "inception_4c/3x3_reduce"
  top: "inception_4c/3x3"
  param {
    lr_mult: 1
    decay_mult: 1
  }
  param {
    lr_mult: 2
    decay_mult: 0
  }
  convolution_param {
    num_output: 256
    pad: 1
    kernel_size: 3
    weight_filler {
      type: "xavier"
      std: 0.03
    }
    bias_filler {
      type: "constant"
      value: 0.2
    }
  }
}
layer {
  name: "inception_4c/relu_3x3"
  type: "ReLU"
  bottom: "inception_4c/3x3"
  top: "inception_4c/3x3"
}
layer {
  name: "inception_4c/5x5_reduce"
  type: "Convolution"
  bottom: "inception_4b/output"
  top: "inception_4c/5x5_reduce"
  param {
    lr_mult: 1
    decay_mult: 1
  }
  param {
    lr_mult: 2
    decay_mult: 0
  }
  convolution_param {
    num_output: 24
    kernel_size: 1
    weight_filler {
      type: "xavier"
      std: 0.2
    }
    bias_filler {
      type: "constant"
      value: 0.2
    }
  }
}
layer {
  name: "inception_4c/relu_5x5_reduce"
  type: "ReLU"
  bottom: "inception_4c/5x5_reduce"
  top: "inception_4c/5x5_reduce"
}
layer {
  name: "inception_4c/5x5"
  type: "Convolution"
  bottom: "inception_4c/5x5_reduce"
  top: "inception_4c/5x5"
  param {
    lr_mult: 1
    decay_mult: 1
  }
  param {
    lr_mult: 2
    decay_mult: 0
  }
  convolution_param {
    num_output: 64
    pad: 2
    kernel_size: 5
    weight_filler {
      type: "xavier"
      std: 0.03
    }
    bias_filler {
      type: "constant"
      value: 0.2
    }
  }
}
layer {
  name: "inception_4c/relu_5x5"
  type: "ReLU"
  bottom: "inception_4c/5x5"
  top: "inception_4c/5x5"
}
layer {
  name: "inception_4c/pool"
  type: "Pooling"
  bottom: "inception_4b/output"
  top: "inception_4c/pool"
  pooling_param {
    pool: MAX
    kernel_size: 3
    stride: 1
    pad: 1
  }
}
layer {
  name: "inception_4c/pool_proj"
  type: "Convolution"
  bottom: "inception_4c/pool"
  top: "inception_4c/pool_proj"
  param {
    lr_mult: 1
    decay_mult: 1
  }
  param {
    lr_mult: 2
    decay_mult: 0
  }
  convolution_param {
    num_output: 64
    kernel_size: 1
    weight_filler {
      type: "xavier"
      std: 0.1
    }
    bias_filler {
      type: "constant"
      value: 0.2
    }
  }
}
layer {
  name: "inception_4c/relu_pool_proj"
  type: "ReLU"
  bottom: "inception_4c/pool_proj"
  top: "inception_4c/pool_proj"
}
layer {
  name: "inception_4c/output"
  type: "Concat"
  bottom: "inception_4c/1x1"
  bottom: "inception_4c/3x3"
  bottom: "inception_4c/5x5"
  bottom: "inception_4c/pool_proj"
  top: "inception_4c/output"
}
layer {
  name: "inception_4d/1x1"
  type: "Convolution"
  bottom: "inception_4c/output"
  top: "inception_4d/1x1"
  param {
    lr_mult: 1
    decay_mult: 1
  }
  param {
    lr_mult: 2
    decay_mult: 0
  }
  convolution_param {
    num_output: 112
    kernel_size: 1
    weight_filler {
      type: "xavier"
      std: 0.03
    }
    bias_filler {
      type: "constant"
      value: 0.2
    }
  }
}
layer {
  name: "inception_4d/relu_1x1"
  type: "ReLU"
  bottom: "inception_4d/1x1"
  top: "inception_4d/1x1"
}
layer {
  name: "inception_4d/3x3_reduce"
  type: "Convolution"
  bottom: "inception_4c/output"
  top: "inception_4d/3x3_reduce"
  param {
    lr_mult: 1
    decay_mult: 1
  }
  param {
    lr_mult: 2
    decay_mult: 0
  }
  convolution_param {
    num_output: 144
    kernel_size: 1
    weight_filler {
      type: "xavier"
      std: 0.09
    }
    bias_filler {
      type: "constant"
      value: 0.2
    }
  }
}
layer {
  name: "inception_4d/relu_3x3_reduce"
  type: "ReLU"
  bottom: "inception_4d/3x3_reduce"
  top: "inception_4d/3x3_reduce"
}
layer {
  name: "inception_4d/3x3"
  type: "Convolution"
  bottom: "inception_4d/3x3_reduce"
  top: "inception_4d/3x3"
  param {
    lr_mult: 1
    decay_mult: 1
  }
  param {
    lr_mult: 2
    decay_mult: 0
  }
  convolution_param {
    num_output: 288
    pad: 1
    kernel_size: 3
    weight_filler {
      type: "xavier"
      std: 0.03
    }
    bias_filler {
      type: "constant"
      value: 0.2
    }
  }
}
layer {
  name: "inception_4d/relu_3x3"
  type: "ReLU"
  bottom: "inception_4d/3x3"
  top: "inception_4d/3x3"
}
layer {
  name: "inception_4d/5x5_reduce"
  type: "Convolution"
  bottom: "inception_4c/output"
  top: "inception_4d/5x5_reduce"
  param {
    lr_mult: 1
    decay_mult: 1
  }
  param {
    lr_mult: 2
    decay_mult: 0
  }
  convolution_param {
    num_output: 32
    kernel_size: 1
    weight_filler {
      type: "xavier"
      std: 0.2
    }
    bias_filler {
      type: "constant"
      value: 0.2
    }
  }
}
layer {
  name: "inception_4d/relu_5x5_reduce"
  type: "ReLU"
  bottom: "inception_4d/5x5_reduce"
  top: "inception_4d/5x5_reduce"
}
layer {
  name: "inception_4d/5x5"
  type: "Convolution"
  bottom: "inception_4d/5x5_reduce"
  top: "inception_4d/5x5"
  param {
    lr_mult: 1
    decay_mult: 1
  }
  param {
    lr_mult: 2
    decay_mult: 0
  }
  convolution_param {
    num_output: 64
    pad: 2
    kernel_size: 5
    weight_filler {
      type: "xavier"
      std: 0.03
    }
    bias_filler {
      type: "constant"
      value: 0.2
    }
  }
}
layer {
  name: "inception_4d/relu_5x5"
  type: "ReLU"
  bottom: "inception_4d/5x5"
  top: "inception_4d/5x5"
}
layer {
  name: "inception_4d/pool"
  type: "Pooling"
  bottom: "inception_4c/output"
  top: "inception_4d/pool"
  pooling_param {
    pool: MAX
    kernel_size: 3
    stride: 1
    pad: 1
  }
}
layer {
  name: "inception_4d/pool_proj"
  type: "Convolution"
  bottom: "inception_4d/pool"
  top: "inception_4d/pool_proj"
  param {
    lr_mult: 1
    decay_mult: 1
  }
  param {
    lr_mult: 2
    decay_mult: 0
  }
  convolution_param {
    num_output: 64
    kernel_size: 1
    weight_filler {
      type: "xavier"
      std: 0.1
    }
    bias_filler {
      type: "constant"
      value: 0.2
    }
  }
}
layer {
  name: "inception_4d/relu_pool_proj"
  type: "ReLU"
  bottom: "inception_4d/pool_proj"
  top: "inception_4d/pool_proj"
}
layer {
  name: "inception_4d/output"
  type: "Concat"
  bottom: "inception_4d/1x1"
  bottom: "inception_4d/3x3"
  bottom: "inception_4d/5x5"
  bottom: "inception_4d/pool_proj"
  top: "inception_4d/output"
}
layer {
  name: "loss2/ave_pool"
  type: "Pooling"
  bottom: "inception_4d/output"
  top: "loss2/ave_pool"
  pooling_param {
    pool: AVE
    kernel_size: 5
    stride: 3
  }
}
layer {
  name: "loss2/conv"
  type: "Convolution"
  bottom: "loss2/ave_pool"
  top: "loss2/conv"
  param {
    lr_mult: 1
    decay_mult: 1
  }
  param {
    lr_mult: 2
    decay_mult: 0
  }
  convolution_param {
    num_output: 128
    kernel_size: 1
    weight_filler {
      type: "xavier"
      std: 0.08
    }
    bias_filler {
      type: "constant"
      value: 0.2
    }
  }
}
layer {
  name: "loss2/relu_conv"
  type: "ReLU"
  bottom: "loss2/conv"
  top: "loss2/conv"
}
layer {
  name: "loss2/fc"
  type: "InnerProduct"
…
I0511 00:27:50.088970 28408 net.cpp:112] Top shape: 32 128 14 14 (802816)
I0511 00:27:50.088987 28408 layer_factory.hpp:74] Creating layer inception_4c/relu_1x1
I0511 00:27:50.088995 28408 net.cpp:76] Creating Layer inception_4c/relu_1x1
I0511 00:27:50.089001 28408 net.cpp:372] inception_4c/relu_1x1 <- inception_4c/1x1
I0511 00:27:50.089009 28408 net.cpp:323] inception_4c/relu_1x1 -> inception_4c/1x1 (in-place)
I0511 00:27:50.089015 28408 net.cpp:105] Setting up inception_4c/relu_1x1
I0511 00:27:50.089021 28408 net.cpp:112] Top shape: 32 128 14 14 (802816)
I0511 00:27:50.089042 28408 layer_factory.hpp:74] Creating layer inception_4c/3x3_reduce
I0511 00:27:50.089052 28408 net.cpp:76] Creating Layer inception_4c/3x3_reduce
I0511 00:27:50.089058 28408 net.cpp:372] inception_4c/3x3_reduce <- inception_4b/output_inception_4b/output_0_split_1
I0511 00:27:50.089069 28408 net.cpp:334] inception_4c/3x3_reduce -> inception_4c/3x3_reduce
I0511 00:27:50.089078 28408 net.cpp:105] Setting up inception_4c/3x3_reduce
I0511 00:27:50.089668 28408 net.cpp:112] Top shape: 32 128 14 14 (802816)
I0511 00:27:50.089685 28408 layer_factory.hpp:74] Creating layer inception_4c/relu_3x3_reduce
I0511 00:27:50.089694 28408 net.cpp:76] Creating Layer inception_4c/relu_3x3_reduce
I0511 00:27:50.089700 28408 net.cpp:372] inception_4c/relu_3x3_reduce <- inception_4c/3x3_reduce
I0511 00:27:50.089707 28408 net.cpp:323] inception_4c/relu_3x3_reduce -> inception_4c/3x3_reduce (in-place)
I0511 00:27:50.089715 28408 net.cpp:105] Setting up inception_4c/relu_3x3_reduce
I0511 00:27:50.089721 28408 net.cpp:112] Top shape: 32 128 14 14 (802816)
I0511 00:27:50.089727 28408 layer_factory.hpp:74] Creating layer inception_4c/3x3
I0511 00:27:50.089738 28408 net.cpp:76] Creating Layer inception_4c/3x3
I0511 00:27:50.089745 28408 net.cpp:372] inception_4c/3x3 <- inception_4c/3x3_reduce
I0511 00:27:50.089754 28408 net.cpp:334] inception_4c/3x3 -> inception_4c/3x3
I0511 00:27:50.089763 28408 net.cpp:105] Setting up inception_4c/3x3
I0511 00:27:50.092222 28408 net.cpp:112] Top shape: 32 256 14 14 (1605632)
I0511 00:27:50.092250 28408 layer_factory.hpp:74] Creating layer inception_4c/relu_3x3
I0511 00:27:50.092259 28408 net.cpp:76] Creating Layer inception_4c/relu_3x3
I0511 00:27:50.093250 28408 net.cpp:372] inception_4c/relu_3x3 <- inception_4c/3x3
I0511 00:27:50.093266 28408 net.cpp:323] inception_4c/relu_3x3 -> inception_4c/3x3 (in-place)
I0511 00:27:50.093276 28408 net.cpp:105] Setting up inception_4c/relu_3x3
I0511 00:27:50.093281 28408 net.cpp:112] Top shape: 32 256 14 14 (1605632)
I0511 00:27:50.093287 28408 layer_factory.hpp:74] Creating layer inception_4c/5x5_reduce
I0511 00:27:50.093297 28408 net.cpp:76] Creating Layer inception_4c/5x5_reduce
I0511 00:27:50.093303 28408 net.cpp:372] inception_4c/5x5_reduce <- inception_4b/output_inception_4b/output_0_split_2
I0511 00:27:50.093313 28408 net.cpp:334] inception_4c/5x5_reduce -> inception_4c/5x5_reduce
I0511 00:27:50.093327 28408 net.cpp:105] Setting up inception_4c/5x5_reduce
I0511 00:27:50.093484 28408 net.cpp:112] Top shape: 32 24 14 14 (150528)
I0511 00:27:50.093499 28408 layer_factory.hpp:74] Creating layer inception_4c/relu_5x5_reduce
I0511 00:27:50.093509 28408 net.cpp:76] Creating Layer inception_4c/relu_5x5_reduce
I0511 00:27:50.093516 28408 net.cpp:372] inception_4c/relu_5x5_reduce <- inception_4c/5x5_reduce
I0511 00:27:50.093524 28408 net.cpp:323] inception_4c/relu_5x5_reduce -> inception_4c/5x5_reduce (in-place)
I0511 00:27:50.093533 28408 net.cpp:105] Setting up inception_4c/relu_5x5_reduce
I0511 00:27:50.093538 28408 net.cpp:112] Top shape: 32 24 14 14 (150528)
I0511 00:27:50.093544 28408 layer_factory.hpp:74] Creating layer inception_4c/5x5
I0511 00:27:50.093551 28408 net.cpp:76] Creating Layer inception_4c/5x5
I0511 00:27:50.093559 28408 net.cpp:372] inception_4c/5x5 <- inception_4c/5x5_reduce
I0511 00:27:50.093567 28408 net.cpp:334] inception_4c/5x5 -> inception_4c/5x5
I0511 00:27:50.093577 28408 net.cpp:105] Setting up inception_4c/5x5
I0511 00:27:50.093962 28408 net.cpp:112] Top shape: 32 64 14 14 (401408)
I0511 00:27:50.093982 28408 layer_factory.hpp:74] Creating layer inception_4c/relu_5x5
I0511 00:27:50.093997 28408 net.cpp:76] Creating Layer inception_4c/relu_5x5
I0511 00:27:50.094007 28408 net.cpp:372] inception_4c/relu_5x5 <- inception_4c/5x5
I0511 00:27:50.094017 28408 net.cpp:323] inception_4c/relu_5x5 -> inception_4c/5x5 (in-place)
I0511 00:27:50.094029 28408 net.cpp:105] Setting up inception_4c/relu_5x5
I0511 00:27:50.094043 28408 net.cpp:112] Top shape: 32 64 14 14 (401408)
I0511 00:27:50.094053 28408 layer_factory.hpp:74] Creating layer inception_4c/pool
I0511 00:27:50.094089 28408 net.cpp:76] Creating Layer inception_4c/pool
I0511 00:27:50.094100 28408 net.cpp:372] inception_4c/pool <- inception_4b/output_inception_4b/output_0_split_3
I0511 00:27:50.094115 28408 net.cpp:334] inception_4c/pool -> inception_4c/pool
I0511 00:27:50.094125 28408 net.cpp:105] Setting up inception_4c/pool
I0511 00:27:50.094132 28408 net.cpp:112] Top shape: 32 512 14 14 (3211264)
I0511 00:27:50.094138 28408 layer_factory.hpp:74] Creating layer inception_4c/pool_proj
I0511 00:27:50.094151 28408 net.cpp:76] Creating Layer inception_4c/pool_proj
I0511 00:27:50.094156 28408 net.cpp:372] inception_4c/pool_proj <- inception_4c/pool
I0511 00:27:50.094164 28408 net.cpp:334] inception_4c/pool_proj -> inception_4c/pool_proj
I0511 00:27:50.094173 28408 net.cpp:105] Setting up inception_4c/pool_proj
I0511 00:27:50.094516 28408 net.cpp:112] Top shape: 32 64 14 14 (401408)
I0511 00:27:50.094530 28408 layer_factory.hpp:74] Creating layer inception_4c/relu_pool_proj
I0511 00:27:50.094539 28408 net.cpp:76] Creating Layer inception_4c/relu_pool_proj
I0511 00:27:50.094547 28408 net.cpp:372] inception_4c/relu_pool_proj <- inception_4c/pool_proj
I0511 00:27:50.094555 28408 net.cpp:323] inception_4c/relu_pool_proj -> inception_4c/pool_proj (in-place)
I0511 00:27:50.094563 28408 net.cpp:105] Setting up inception_4c/relu_pool_proj
I0511 00:27:50.094569 28408 net.cpp:112] Top shape: 32 64 14 14 (401408)
I0511 00:27:50.094574 28408 layer_factory.hpp:74] Creating layer inception_4c/output
I0511 00:27:50.094583 28408 net.cpp:76] Creating Layer inception_4c/output
I0511 00:27:50.094588 28408 net.cpp:372] inception_4c/output <- inception_4c/1x1
I0511 00:27:50.094594 28408 net.cpp:372] inception_4c/output <- inception_4c/3x3
I0511 00:27:50.094601 28408 net.cpp:372] inception_4c/output <- inception_4c/5x5
I0511 00:27:50.094607 28408 net.cpp:372] inception_4c/output <- inception_4c/pool_proj
I0511 00:27:50.094620 28408 net.cpp:334] inception_4c/output -> inception_4c/output
I0511 00:27:50.094635 28408 net.cpp:105] Setting up inception_4c/output
I0511 00:27:50.094645 28408 net.cpp:112] Top shape: 32 512 14 14 (3211264)
I0511 00:27:50.094655 28408 layer_factory.hpp:74] Creating layer inception_4c/output_inception_4c/output_0_split
I0511 00:27:50.094671 28408 net.cpp:76] Creating Layer inception_4c/output_inception_4c/output_0_split
I0511 00:27:50.094681 28408 net.cpp:372] inception_4c/output_inception_4c/output_0_split <- inception_4c/output
I0511 00:27:50.094693 28408 net.cpp:334] inception_4c/output_inception_4c/output_0_split -> inception_4c/output_inception_4c/output_0_split_0
I0511 00:27:50.094707 28408 net.cpp:334] inception_4c/output_inception_4c/output_0_split -> inception_4c/output_inception_4c/output_0_split_1
I0511 00:27:50.094722 28408 net.cpp:334] inception_4c/output_inception_4c/output_0_split -> inception_4c/output_inception_4c/output_0_split_2
I0511 00:27:50.094738 28408 net.cpp:334] inception_4c/output_inception_4c/output_0_split -> inception_4c/output_inception_4c/output_0_split_3
I0511 00:27:50.094748 28408 net.cpp:105] Setting up inception_4c/output_inception_4c/output_0_split
I0511 00:27:50.094754 28408 net.cpp:112] Top shape: 32 512 14 14 (3211264)
I0511 00:27:50.094760 28408 net.cpp:112] Top shape: 32 512 14 14 (3211264)
I0511 00:27:50.094765 28408 net.cpp:112] Top shape: 32 512 14 14 (3211264)
I0511 00:27:50.094770 28408 net.cpp:112] Top shape: 32 512 14 14 (3211264)
I0511 00:27:50.094775 28408 layer_factory.hpp:74] Creating layer inception_4d/1x1
I0511 00:27:50.094787 28408 net.cpp:76] Creating Layer inception_4d/1x1
I0511 00:27:50.094794 28408 net.cpp:372] inception_4d/1x1 <- inception_4c/output_inception_4c/output_0_split_0
I0511 00:27:50.094805 28408 net.cpp:334] inception_4d/1x1 -> inception_4d/1x1
I0511 00:27:50.094813 28408 net.cpp:105] Setting up inception_4d/1x1
I0511 00:27:50.095399 28408 net.cpp:112] Top shape: 32 112 14 14 (702464)
I0511 00:27:50.095415 28408 layer_factory.hpp:74] Creating layer inception_4d/relu_1x1
I0511 00:27:50.095423 28408 net.cpp:76] Creating Layer inception_4d/relu_1x1
I0511 00:27:50.095446 28408 net.cpp:372] inception_4d/relu_1x1 <- inception_4d/1x1
I0511 00:27:50.095454 28408 net.cpp:323] inception_4d/relu_1x1 -> inception_4d/1x1 (in-place)
I0511 00:27:50.095463 28408 net.cpp:105] Setting up inception_4d/relu_1x1
I0511 00:27:50.095468 28408 net.cpp:112] Top shape: 32 112 14 14 (702464)
I0511 00:27:50.095474 28408 layer_factory.hpp:74] Creating layer inception_4d/3x3_reduce
I0511 00:27:50.095485 28408 net.cpp:76] Creating Layer inception_4d/3x3_reduce
I0511 00:27:50.095491 28408 net.cpp:372] inception_4d/3x3_reduce <- inception_4c/output_inception_4c/output_0_split_1
I0511 00:27:50.095500 28408 net.cpp:334] inception_4d/3x3_reduce -> inception_4d/3x3_reduce
I0511 00:27:50.095510 28408 net.cpp:105] Setting up inception_4d/3x3_reduce
I0511 00:27:50.096237 28408 net.cpp:112] Top shape: 32 144 14 14 (903168)
I0511 00:27:50.096252 28408 layer_factory.hpp:74] Creating layer inception_4d/relu_3x3_reduce
I0511 00:27:50.096261 28408 net.cpp:76] Creating Layer inception_4d/relu_3x3_reduce
I0511 00:27:50.096268 28408 net.cpp:372] inception_4d/relu_3x3_reduce <- inception_4d/3x3_reduce
I0511 00:27:50.096304 28408 net.cpp:323] inception_4d/relu_3x3_reduce -> inception_4d/3x3_reduce (in-place)
I0511 00:27:50.096323 28408 net.cpp:105] Setting up inception_4d/relu_3x3_reduce
I0511 00:27:50.096333 28408 net.cpp:112] Top shape: 32 144 14 14 (903168)
I0511 00:27:50.096338 28408 layer_factory.hpp:74] Creating layer inception_4d/3x3
I0511 00:27:50.096348 28408 net.cpp:76] Creating Layer inception_4d/3x3
I0511 00:27:50.097472 28408 net.cpp:372] inception_4d/3x3 <- inception_4d/3x3_reduce
I0511 00:27:50.097502 28408 net.cpp:334] inception_4d/3x3 -> inception_4d/3x3
I0511 00:27:50.097522 28408 net.cpp:105] Setting up inception_4d/3x3
I0511 00:27:50.101058 28408 net.cpp:112] Top shape: 32 288 14 14 (1806336)
I0511 00:27:50.101079 28408 layer_factory.hpp:74] Creating layer inception_4d/relu_3x3
I0511 00:27:50.101089 28408 net.cpp:76] Creating Layer inception_4d/relu_3x3
I0511 00:27:50.101096 28408 net.cpp:372] inception_4d/relu_3x3 <- inception_4d/3x3
I0511 00:27:50.101106 28408 net.cpp:323] inception_4d/relu_3x3 -> inception_4d/3x3 (in-place)
I0511 00:27:50.101116 28408 net.cpp:105] Setting up inception_4d/relu_3x3
I0511 00:27:50.101122 28408 net.cpp:112] Top shape: 32 288 14 14 (1806336)
I0511 00:27:50.101127 28408 layer_factory.hpp:74] Creating layer inception_4d/5x5_reduce
I0511 00:27:50.101136 28408 net.cpp:76] Creating Layer inception_4d/5x5_reduce
I0511 00:27:50.101142 28408 net.cpp:372] inception_4d/5x5_reduce <- inception_4c/output_inception_4c/output_0_split_2
I0511 00:27:50.101153 28408 net.cpp:334] inception_4d/5x5_reduce -> inception_4d/5x5_reduce
I0511 00:27:50.101163 28408 net.cpp:105] Setting up inception_4d/5x5_reduce
I0511 00:27:50.101330 28408 net.cpp:112] Top shape: 32 32 14 14 (200704)
I0511 00:27:50.101343 28408 layer_factory.hpp:74] Creating layer inception_4d/relu_5x5_reduce
I0511 00:27:50.101354 28408 net.cpp:76] Creating Layer inception_4d/relu_5x5_reduce
I0511 00:27:50.101361 28408 net.cpp:372] inception_4d/relu_5x5_reduce <- inception_4d/5x5_reduce
I0511 00:27:50.101368 28408 net.cpp:323] inception_4d/relu_5x5_reduce -> inception_4d/5x5_reduce (in-place)
I0511 00:27:50.101377 28408 net.cpp:105] Setting up inception_4d/relu_5x5_reduce
I0511 00:27:50.101382 28408 net.cpp:112] Top shape: 32 32 14 14 (200704)
I0511 00:27:50.101387 28408 layer_factory.hpp:74] Creating layer inception_4d/5x5
I0511 00:27:50.101398 28408 net.cpp:76] Creating Layer inception_4d/5x5
I0511 00:27:50.101404 28408 net.cpp:372] inception_4d/5x5 <- inception_4d/5x5_reduce
I0511 00:27:50.101411 28408 net.cpp:334] inception_4d/5x5 -> inception_4d/5x5
I0511 00:27:50.101420 28408 net.cpp:105] Setting up inception_4d/5x5
I0511 00:27:50.101860 28408 net.cpp:112] Top shape: 32 64 14 14 (401408)
I0511 00:27:50.101872 28408 layer_factory.hpp:74] Creating layer inception_4d/relu_5x5
I0511 00:27:50.101881 28408 net.cpp:76] Creating Layer inception_4d/relu_5x5
I0511 00:27:50.101886 28408 net.cpp:372] inception_4d/relu_5x5 <- inception_4d/5x5
I0511 00:27:50.101913 28408 net.cpp:323] inception_4d/relu_5x5 -> inception_4d/5x5 (in-place)
I0511 00:27:50.101922 28408 net.cpp:105] Setting up inception_4d/relu_5x5
I0511 00:27:50.101928 28408 net.cpp:112] Top shape: 32 64 14 14 (401408)
I0511 00:27:50.101934 28408 layer_factory.hpp:74] Creating layer inception_4d/pool
I0511 00:27:50.101943 28408 net.cpp:76] Creating Layer inception_4d/pool
I0511 00:27:50.101948 28408 net.cpp:372] inception_4d/pool <- inception_4c/output_inception_4c/output_0_split_3
I0511 00:27:50.101956 28408 net.cpp:334] inception_4d/pool -> inception_4d/pool
I0511 00:27:50.101964 28408 net.cpp:105] Setting up inception_4d/pool
I0511 00:27:50.101971 28408 net.cpp:112] Top shape: 32 512 14 14 (3211264)
I0511 00:27:50.101977 28408 layer_factory.hpp:74] Creating layer inception_4d/pool_proj
I0511 00:27:50.101989 28408 net.cpp:76] Creating Layer inception_4d/pool_proj
I0511 00:27:50.101995 28408 net.cpp:372] inception_4d/pool_proj <- inception_4d/pool
I0511 00:27:50.102005 28408 net.cpp:334] inception_4d/pool_proj -> inception_4d/pool_proj
I0511 00:27:50.102015 28408 net.cpp:105] Setting up inception_4d/pool_proj
I0511 00:27:50.102313 28408 net.cpp:112] Top shape: 32 64 14 14 (401408)
I0511 00:27:50.102327 28408 layer_factory.hpp:74] Creating layer inception_4d/relu_pool_proj
I0511 00:27:50.102337 28408 net.cpp:76] Creating Layer inception_4d/relu_pool_proj
I0511 00:27:50.102344 28408 net.cpp:372] inception_4d/relu_pool_proj <- inception_4d/pool_proj
I0511 00:27:50.102351 28408 net.cpp:323] inception_4d/relu_pool_proj -> inception_4d/pool_proj (in-place)
I0511 00:27:50.102360 28408 net.cpp:105] Setting up inception_4d/relu_pool_proj
I0511 00:27:50.102365 28408 net.cpp:112] Top shape: 32 64 14 14 (401408)
I0511 00:27:50.102370 28408 layer_factory.hpp:74] Creating layer inception_4d/output
I0511 00:27:50.102377 28408 net.cpp:76] Creating Layer inception_4d/output
I0511 00:27:50.102383 28408 net.cpp:372] inception_4d/output <- inception_4d/1x1
I0511 00:27:50.102390 28408 net.cpp:372] inception_4d/output <- inception_4d/3x3
I0511 00:27:50.102396 28408 net.cpp:372] inception_4d/output <- inception_4d/5x5
I0511 00:27:50.102402 28408 net.cpp:372] inception_4d/output <- inception_4d/pool_proj
I0511 00:27:50.102411 28408 net.cpp:334] inception_4d/output -> inception_4d/output
I0511 00:27:50.102421 28408 net.cpp:105] Setting up inception_4d/output
I0511 00:27:50.102427 28408 net.cpp:112] Top shape: 32 528 14 14 (3311616)
I0511 00:27:50.102432 28408 layer_factory.hpp:74] Creating layer inception_4d/output_inception_4d/output_0_split
I0511 00:27:50.102440 28408 net.cpp:76] Creating Layer inception_4d/output_inception_4d/output_0_split
I0511 00:27:50.102445 28408 net.cpp:372] inception_4d/output_inception_4d/output_0_split <- inception_4d/output
I0511 00:27:50.102453 28408 net.cpp:334] inception_4d/output_inception_4d/output_0_split -> inception_4d/output_inception_4d/output_0_split_0
I0511 00:27:50.102463 28408 net.cpp:334] inception_4d/output_inception_4d/output_0_split -> inception_4d/output_inception_4d/output_0_split_1
I0511 00:27:50.102473 28408 net.cpp:334] inception_4d/output_inception_4d/output_0_split -> inception_4d/output_inception_4d/output_0_split_2
I0511 00:27:50.102490 28408 net.cpp:334] inception_4d/output_inception_4d/output_0_split -> inception_4d/output_inception_4d/output_0_split_3
I0511 00:27:50.102500 28408 net.cpp:334] inception_4d/output_inception_4d/output_0_split -> inception_4d/output_inception_4d/output_0_split_4
I0511 00:27:50.102509 28408 net.cpp:105] Setting up inception_4d/output_inception_4d/output_0_split
I0511 00:27:50.102515 28408 net.cpp:112] Top shape: 32 528 14 14 (3311616)
I0511 00:27:50.102521 28408 net.cpp:112] Top shape: 32 528 14 14 (3311616)
I0511 00:27:50.102526 28408 net.cpp:112] Top shape: 32 528 14 14 (3311616)
I0511 00:27:50.102531 28408 net.cpp:112] Top shape: 32 528 14 14 (3311616)
I0511 00:27:50.102536 28408 net.cpp:112] Top shape: 32 528 14 14 (3311616)
I0511 00:27:50.102541 28408 layer_factory.hpp:74] Creating layer loss2/ave_pool
I0511 00:27:50.102561 28408 net.cpp:76] Creating Layer loss2/ave_pool
I0511 00:27:50.102568 28408 net.cpp:372] loss2/ave_pool <- inception_4d/output_inception_4d/output_0_split_0
I0511 00:27:50.102578 28408 net.cpp:334] loss2/ave_pool -> loss2/ave_pool
I0511 00:27:50.102588 28408 net.cpp:105] Setting up loss2/ave_pool
I0511 00:27:50.102613 28408 net.cpp:112] Top shape: 32 528 4 4 (270336)
I0511 00:27:50.102620 28408 layer_factory.hpp:74] Creating layer loss2/conv
I0511 00:27:50.102630 28408 net.cpp:76] Creating Layer loss2/conv
I0511 00:27:50.102637 28408 net.cpp:372] loss2/conv <- loss2/ave_pool
I0511 00:27:50.102648 28408 net.cpp:334] loss2/conv -> loss2/conv
I0511 00:27:50.102660 28408 net.cpp:105] Setting up loss2/conv
I0511 00:27:50.103235 28408 net.cpp:112] Top shape: 32 128 4 4 (65536)
I0511 00:27:50.103252 28408 layer_factory.hpp:74] Creating layer loss2/relu_conv
I0511 00:27:50.103260 28408 net.cpp:76] Creating Layer loss2/relu_conv
I0511 00:27:50.103267 28408 net.cpp:372] loss2/relu_conv <- loss2/conv
I0511 00:27:50.103287 28408 net.cpp:323] loss2/relu_conv -> loss2/conv (in-place)
I0511 00:27:50.103296 28408 net.cpp:105] Setting up loss2/relu_conv
I0511 00:27:50.103302 28408 net.cpp:112] Top shape: 32 128 4 4 (65536)
I0511 00:27:50.103307 28408 layer_factory.hpp:74] Creating layer loss2/fc
I0511 00:27:50.103317 28408 net.cpp:76] Creating Layer loss2/fc
I0511 00:27:50.103322 28408 net.cpp:372] loss2/fc <- loss2/conv
I0511 00:27:50.103332 28408 net.cpp:334] loss2/fc -> loss2/fc
I0511 00:27:50.103344 28408 net.cpp:105] Setting up loss2/fc
I0511 00:27:50.121068 28408 net.cpp:112] Top shape: 32 1024 1 1 (32768)
I0511 00:27:50.121111 28408 layer_factory.hpp:74] Creating layer loss2/relu_fc
I0511 00:27:50.121129 28408 net.cpp:76] Creating Layer loss2/relu_fc
I0511 00:27:50.121137 28408 net.cpp:372] loss2/relu_fc <- loss2/fc
I0511 00:27:50.121148 28408 net.cpp:323] loss2/relu_fc -> loss2/fc (in-place)
I0511 00:27:50.121158 28408 net.cpp:105] Setting up loss2/relu_fc
I0511 00:27:50.121165 28408 net.cpp:112] Top shape: 32 1024 1 1 (32768)
I0511 00:27:50.121170 28408 layer_factory.hpp:74] Creating layer loss2/drop_fc
I0511 00:27:50.121179 28408 net.cpp:76] Creating Layer loss2/drop_fc
I0511 00:27:50.121187 28408 net.cpp:372] loss2/drop_fc <- loss2/fc
I0511 00:27:50.121194 28408 net.cpp:323] loss2/drop_fc -> loss2/fc (in-place)
I0511 00:27:50.121202 28408 net.cpp:105] Setting up loss2/drop_fc
I0511 00:27:50.121208 28408 net.cpp:112] Top shape: 32 1024 1 1 (32768)
I0511 00:27:50.121214 28408 layer_factory.hpp:74] Creating layer loss2/classifier
I0511 00:27:50.121230 28408 net.cpp:76] Creating Layer loss2/classifier
I0511 00:27:50.121237 28408 net.cpp:372] loss2/classifier <- loss2/fc
I0511 00:27:50.121247 28408 net.cpp:334] loss2/classifier -> loss2/classifier
I0511 00:27:50.121258 28408 net.cpp:105] Setting up loss2/classifier
I0511 00:27:50.121318 28408 net.cpp:112] Top shape: 32 2 1 1 (64)
I0511 00:27:50.121333 28408 layer_factory.hpp:74] Creating layer loss2/classifier_loss2/classifier_0_split
I0511 00:27:50.121342 28408 net.cpp:76] Creating Layer loss2/classifier_loss2/classifier_0_split
I0511 00:27:50.121348 28408 net.cpp:372] loss2/classifier_loss2/classifier_0_split <- loss2/classifier
I0511 00:27:50.121356 28408 net.cpp:334] loss2/classifier_loss2/classifier_0_split -> loss2/classifier_loss2/classifier_0_split_0
I0511 00:27:50.121366 28408 net.cpp:334] loss2/classifier_loss2/classifier_0_split -> loss2/classifier_loss2/classifier_0_split_1
I0511 00:27:50.121374 28408 net.cpp:105] Setting up loss2/classifier_loss2/classifier_0_split
I0511 00:27:50.121381 28408 net.cpp:112] Top shape: 32 2 1 1 (64)
I0511 00:27:50.121387 28408 net.cpp:112] Top shape: 32 2 1 1 (64)
I0511 00:27:50.121392 28408 layer_factory.hpp:74] Creating layer loss2/loss
I0511 00:27:50.121405 28408 net.cpp:76] Creating Layer loss2/loss
I0511 00:27:50.121412 28408 net.cpp:372] loss2/loss <- loss2/classifier_loss2/classifier_0_split_0
I0511 00:27:50.121419 28408 net.cpp:372] loss2/loss <- label_data_1_split_2
I0511 00:27:50.121428 28408 net.cpp:334] loss2/loss -> loss2/loss1
I0511 00:27:50.121469 28408 net.cpp:105] Setting up loss2/loss
I0511 00:27:50.121477 28408 layer_factory.hpp:74] Creating layer loss2/loss
I0511 00:27:50.121493 28408 net.cpp:112] Top shape: 1 1 1 1 (1)
I0511 00:27:50.121500 28408 net.cpp:118]     with loss weight 0.3
I0511 00:27:50.121520 28408 layer_factory.hpp:74] Creating layer loss2/top-1
I0511 00:27:50.121531 28408 net.cpp:76] Creating Layer loss2/top-1
I0511 00:27:50.121536 28408 net.cpp:372] loss2/top-1 <- loss2/classifier_loss2/classifier_0_split_1
I0511 00:27:50.121543 28408 net.cpp:372] loss2/top-1 <- label_data_1_split_3
I0511 00:27:50.121551 28408 net.cpp:334] loss2/top-1 -> loss2/top-1
I0511 00:27:50.121559 28408 net.cpp:105] Setting up loss2/top-1
I0511 00:27:50.121567 28408 net.cpp:112] Top shape: 1 1 1 1 (1)
I0511 00:27:50.121572 28408 layer_factory.hpp:74] Creating layer inception_4e/1x1
I0511 00:27:50.121582 28408 net.cpp:76] Creating Layer inception_4e/1x1
I0511 00:27:50.121589 28408 net.cpp:372] inception_4e/1x1 <- inception_4d/output_inception_4d/output_0_split_1
I0511 00:27:50.121599 28408 net.cpp:334] inception_4e/1x1 -> inception_4e/1x1
I0511 00:27:50.121608 28408 net.cpp:105] Setting up inception_4e/1x1
I0511 00:27:50.122769 28408 net.cpp:112] Top shape: 32 256 14 14 (1605632)
I0511 00:27:50.122787 28408 layer_factory.hpp:74] Creating layer inception_4e/relu_1x1
I0511 00:27:50.122797 28408 net.cpp:76] Creating Layer inception_4e/relu_1x1
I0511 00:27:50.122802 28408 net.cpp:372] inception_4e/relu_1x1 <- inception_4e/1x1
I0511 00:27:50.122809 28408 net.cpp:323] inception_4e/relu_1x1 -> inception_4e/1x1 (in-place)
I0511 00:27:50.122817 28408 net.cpp:105] Setting up inception_4e/relu_1x1
I0511 00:27:50.122823 28408 net.cpp:112] Top shape: 32 256 14 14 (1605632)
I0511 00:27:50.122828 28408 layer_factory.hpp:74] Creating layer inception_4e/3x3_reduce
I0511 00:27:50.122838 28408 net.cpp:76] Creating Layer inception_4e/3x3_reduce
I0511 00:27:50.122843 28408 net.cpp:372] inception_4e/3x3_reduce <- inception_4d/output_inception_4d/output_0_split_2
I0511 00:27:50.122853 28408 net.cpp:334] inception_4e/3x3_reduce -> inception_4e/3x3_reduce
I0511 00:27:50.122863 28408 net.cpp:105] Setting up inception_4e/3x3_reduce
I0511 00:27:50.123587 28408 net.cpp:112] Top shape: 32 160 14 14 (1003520)
I0511 00:27:50.123601 28408 layer_factory.hpp:74] Creating layer inception_4e/relu_3x3_reduce
I0511 00:27:50.123610 28408 net.cpp:76] Creating Layer inception_4e/relu_3x3_reduce
I0511 00:27:50.123616 28408 net.cpp:372] inception_4e/relu_3x3_reduce <- inception_4e/3x3_reduce
I0511 00:27:50.123626 28408 net.cpp:323] inception_4e/relu_3x3_reduce -> inception_4e/3x3_reduce (in-place)
I0511 00:27:50.123635 28408 net.cpp:105] Setting up inception_4e/relu_3x3_reduce
I0511 00:27:50.123641 28408 net.cpp:112] Top shape: 32 160 14 14 (1003520)
I0511 00:27:50.123646 28408 layer_factory.hpp:74] Creating layer inception_4e/3x3
I0511 00:27:50.123677 28408 net.cpp:76] Creating Layer inception_4e/3x3
I0511 00:27:50.123683 28408 net.cpp:372] inception_4e/3x3 <- inception_4e/3x3_reduce
I0511 00:27:50.123692 28408 net.cpp:334] inception_4e/3x3 -> inception_4e/3x3
I0511 00:27:50.123702 28408 net.cpp:105] Setting up inception_4e/3x3
I0511 00:27:50.127545 28408 net.cpp:112] Top shape: 32 320 14 14 (2007040)
I0511 00:27:50.127565 28408 layer_factory.hpp:74] Creating layer inception_4e/relu_3x3
I0511 00:27:50.127574 28408 net.cpp:76] Creating Layer inception_4e/relu_3x3
I0511 00:27:50.127581 28408 net.cpp:372] inception_4e/relu_3x3 <- inception_4e/3x3
I0511 00:27:50.127588 28408 net.cpp:323] inception_4e/relu_3x3 -> inception_4e/3x3 (in-place)
I0511 00:27:50.127596 28408 net.cpp:105] Setting up inception_4e/relu_3x3
I0511 00:27:50.127603 28408 net.cpp:112] Top shape: 32 320 14 14 (2007040)
I0511 00:27:50.127607 28408 layer_factory.hpp:74] Creating layer inception_4e/5x5_reduce
I0511 00:27:50.127616 28408 net.cpp:76] Creating Layer inception_4e/5x5_reduce
I0511 00:27:50.127622 28408 net.cpp:372] inception_4e/5x5_reduce <- inception_4d/output_inception_4d/output_0_split_3
I0511 00:27:50.127648 28408 net.cpp:334] inception_4e/5x5_reduce -> inception_4e/5x5_reduce
I0511 00:27:50.127660 28408 net.cpp:105] Setting up inception_4e/5x5_reduce
I0511 00:27:50.127810 28408 net.cpp:112] Top shape: 32 32 14 14 (200704)
I0511 00:27:50.127821 28408 layer_factory.hpp:74] Creating layer inception_4e/relu_5x5_reduce
I0511 00:27:50.127830 28408 net.cpp:76] Creating Layer inception_4e/relu_5x5_reduce
I0511 00:27:50.127835 28408 net.cpp:372] inception_4e/relu_5x5_reduce <- inception_4e/5x5_reduce
I0511 00:27:50.127845 28408 net.cpp:323] inception_4e/relu_5x5_reduce -> inception_4e/5x5_reduce (in-place)
I0511 00:27:50.127852 28408 net.cpp:105] Setting up inception_4e/relu_5x5_reduce
I0511 00:27:50.127857 28408 net.cpp:112] Top shape: 32 32 14 14 (200704)
I0511 00:27:50.127863 28408 layer_factory.hpp:74] Creating layer inception_4e/5x5
I0511 00:27:50.127871 28408 net.cpp:76] Creating Layer inception_4e/5x5
I0511 00:27:50.127877 28408 net.cpp:372] inception_4e/5x5 <- inception_4e/5x5_reduce
I0511 00:27:50.127885 28408 net.cpp:334] inception_4e/5x5 -> inception_4e/5x5
I0511 00:27:50.127893 28408 net.cpp:105] Setting up inception_4e/5x5
I0511 00:27:50.128792 28408 net.cpp:112] Top shape: 32 128 14 14 (802816)
I0511 00:27:50.128806 28408 layer_factory.hpp:74] Creating layer inception_4e/relu_5x5
I0511 00:27:50.128814 28408 net.cpp:76] Creating Layer inception_4e/relu_5x5
I0511 00:27:50.128820 28408 net.cpp:372] inception_4e/relu_5x5 <- inception_4e/5x5
I0511 00:27:50.128828 28408 net.cpp:323] inception_4e/relu_5x5 -> inception_4e/5x5 (in-place)
I0511 00:27:50.128835 28408 net.cpp:105] Setting up inception_4e/relu_5x5
I0511 00:27:50.128840 28408 net.cpp:112] Top shape: 32 128 14 14 (802816)
I0511 00:27:50.128845 28408 layer_factory.hpp:74] Creating layer inception_4e/pool
I0511 00:27:50.128854 28408 net.cpp:76] Creating Layer inception_4e/pool
I0511 00:27:50.128859 28408 net.cpp:372] inception_4e/pool <- inception_4d/output_inception_4d/output_0_split_4
I0511 00:27:50.128870 28408 net.cpp:334] inception_4e/pool -> inception_4e/pool
I0511 00:27:50.128880 28408 net.cpp:105] Setting up inception_4e/pool
I0511 00:27:50.128887 28408 net.cpp:112] Top shape: 32 528 14 14 (3311616)
I0511 00:27:50.128893 28408 layer_factory.hpp:74] Creating layer inception_4e/pool_proj
I0511 00:27:50.128901 28408 net.cpp:76] Creating Layer inception_4e/pool_proj
I0511 00:27:50.128909 28408 net.cpp:372] inception_4e/pool_proj <- inception_4e/pool
I0511 00:27:50.128917 28408 net.cpp:334] inception_4e/pool_proj -> inception_4e/pool_proj
I0511 00:27:50.128927 28408 net.cpp:105] Setting up inception_4e/pool_proj
I0511 00:27:50.129510 28408 net.cpp:112] Top shape: 32 128 14 14 (802816)
I0511 00:27:50.129524 28408 layer_factory.hpp:74] Creating layer inception_4e/relu_pool_proj
I0511 00:27:50.129533 28408 net.cpp:76] Creating Layer inception_4e/relu_pool_proj
I0511 00:27:50.129539 28408 net.cpp:372] inception_4e/relu_pool_proj <- inception_4e/pool_proj
I0511 00:27:50.129549 28408 net.cpp:323] inception_4e/relu_pool_proj -> inception_4e/pool_proj (in-place)
I0511 00:27:50.129556 28408 net.cpp:105] Setting up inception_4e/relu_pool_proj
I0511 00:27:50.129561 28408 net.cpp:112] Top shape: 32 128 14 14 (802816)
I0511 00:27:50.129567 28408 layer_factory.hpp:74] Creating layer inception_4e/output
I0511 00:27:50.129577 28408 net.cpp:76] Creating Layer inception_4e/output
I0511 00:27:50.129583 28408 net.cpp:372] inception_4e/output <- inception_4e/1x1
I0511 00:27:50.129590 28408 net.cpp:372] inception_4e/output <- inception_4e/3x3
I0511 00:27:50.129596 28408 net.cpp:372] inception_4e/output <- inception_4e/5x5
I0511 00:27:50.129602 28408 net.cpp:372] inception_4e/output <- inception_4e/pool_proj
I0511 00:27:50.129609 28408 net.cpp:334] inception_4e/output -> inception_4e/output
I0511 00:27:50.129618 28408 net.cpp:105] Setting up inception_4e/output
I0511 00:27:50.129624 28408 net.cpp:112] Top shape: 32 832 14 14 (5218304)
I0511 00:27:50.129631 28408 layer_factory.hpp:74] Creating layer pool4/3x3_s2
I0511 00:27:50.129637 28408 net.cpp:76] Creating Layer pool4/3x3_s2
I0511 00:27:50.129658 28408 net.cpp:372] pool4/3x3_s2 <- inception_4e/output
I0511 00:27:50.129670 28408 net.cpp:334] pool4/3x3_s2 -> pool4/3x3_s2
I0511 00:27:50.129679 28408 net.cpp:105] Setting up pool4/3x3_s2
I0511 00:27:50.129686 28408 net.cpp:112] Top shape: 32 832 7 7 (1304576)
I0511 00:27:50.129691 28408 layer_factory.hpp:74] Creating layer pool4/3x3_s2_pool4/3x3_s2_0_split
I0511 00:27:50.129699 28408 net.cpp:76] Creating Layer pool4/3x3_s2_pool4/3x3_s2_0_split
I0511 00:27:50.129704 28408 net.cpp:372] pool4/3x3_s2_pool4/3x3_s2_0_split <- pool4/3x3_s2
I0511 00:27:50.129714 28408 net.cpp:334] pool4/3x3_s2_pool4/3x3_s2_0_split -> pool4/3x3_s2_pool4/3x3_s2_0_split_0
I0511 00:27:50.129724 28408 net.cpp:334] pool4/3x3_s2_pool4/3x3_s2_0_split -> pool4/3x3_s2_pool4/3x3_s2_0_split_1
I0511 00:27:50.129732 28408 net.cpp:334] pool4/3x3_s2_pool4/3x3_s2_0_split -> pool4/3x3_s2_pool4/3x3_s2_0_split_2
I0511 00:27:50.129741 28408 net.cpp:334] pool4/3x3_s2_pool4/3x3_s2_0_split -> pool4/3x3_s2_pool4/3x3_s2_0_split_3
I0511 00:27:50.129748 28408 net.cpp:105] Setting up pool4/3x3_s2_pool4/3x3_s2_0_split
I0511 00:27:50.129755 28408 net.cpp:112] Top shape: 32 832 7 7 (1304576)
I0511 00:27:50.129760 28408 net.cpp:112] Top shape: 32 832 7 7 (1304576)
I0511 00:27:50.129765 28408 net.cpp:112] Top shape: 32 832 7 7 (1304576)
I0511 00:27:50.129770 28408 net.cpp:112] Top shape: 32 832 7 7 (1304576)
I0511 00:27:50.129775 28408 layer_factory.hpp:74] Creating layer inception_5a/1x1
I0511 00:27:50.129786 28408 net.cpp:76] Creating Layer inception_5a/1x1
I0511 00:27:50.130516 28408 net.cpp:372] inception_5a/1x1 <- pool4/3x3_s2_pool4/3x3_s2_0_split_0
I0511 00:27:50.130527 28408 net.cpp:334] inception_5a/1x1 -> inception_5a/1x1
I0511 00:27:50.130537 28408 net.cpp:105] Setting up inception_5a/1x1
I0511 00:27:50.132328 28408 net.cpp:112] Top shape: 32 256 7 7 (401408)
I0511 00:27:50.132344 28408 layer_factory.hpp:74] Creating layer inception_5a/relu_1x1
I0511 00:27:50.132354 28408 net.cpp:76] Creating Layer inception_5a/relu_1x1
I0511 00:27:50.132359 28408 net.cpp:372] inception_5a/relu_1x1 <- inception_5a/1x1
I0511 00:27:50.132369 28408 net.cpp:323] inception_5a/relu_1x1 -> inception_5a/1x1 (in-place)
I0511 00:27:50.132378 28408 net.cpp:105] Setting up inception_5a/relu_1x1
I0511 00:27:50.132383 28408 net.cpp:112] Top shape: 32 256 7 7 (401408)
I0511 00:27:50.132390 28408 layer_factory.hpp:74] Creating layer inception_5a/3x3_reduce
I0511 00:27:50.132397 28408 net.cpp:76] Creating Layer inception_5a/3x3_reduce
I0511 00:27:50.132403 28408 net.cpp:372] inception_5a/3x3_reduce <- pool4/3x3_s2_pool4/3x3_s2_0_split_1
I0511 00:27:50.132413 28408 net.cpp:334] inception_5a/3x3_reduce -> inception_5a/3x3_reduce
I0511 00:27:50.132423 28408 net.cpp:105] Setting up inception_5a/3x3_reduce
I0511 00:27:50.133543 28408 net.cpp:112] Top shape: 32 160 7 7 (250880)
I0511 00:27:50.133558 28408 layer_factory.hpp:74] Creating layer inception_5a/relu_3x3_reduce
I0511 00:27:50.133568 28408 net.cpp:76] Creating Layer inception_5a/relu_3x3_reduce
I0511 00:27:50.133574 28408 net.cpp:372] inception_5a/relu_3x3_reduce <- inception_5a/3x3_reduce
I0511 00:27:50.133581 28408 net.cpp:323] inception_5a/relu_3x3_reduce -> inception_5a/3x3_reduce (in-place)
I0511 00:27:50.133589 28408 net.cpp:105] Setting up inception_5a/relu_3x3_reduce
I0511 00:27:50.133595 28408 net.cpp:112] Top shape: 32 160 7 7 (250880)
I0511 00:27:50.133601 28408 layer_factory.hpp:74] Creating layer inception_5a/3x3
I0511 00:27:50.133611 28408 net.cpp:76] Creating Layer inception_5a/3x3
I0511 00:27:50.133617 28408 net.cpp:372] inception_5a/3x3 <- inception_5a/3x3_reduce
I0511 00:27:50.133625 28408 net.cpp:334] inception_5a/3x3 -> inception_5a/3x3
I0511 00:27:50.133635 28408 net.cpp:105] Setting up inception_5a/3x3
I0511 00:27:50.137478 28408 net.cpp:112] Top shape: 32 320 7 7 (501760)
I0511 00:27:50.137495 28408 layer_factory.hpp:74] Creating layer inception_5a/relu_3x3
I0511 00:27:50.137506 28408 net.cpp:76] Creating Layer inception_5a/relu_3x3
I0511 00:27:50.137512 28408 net.cpp:372] inception_5a/relu_3x3 <- inception_5a/3x3
I0511 00:27:50.137537 28408 net.cpp:323] inception_5a/relu_3x3 -> inception_5a/3x3 (in-place)
I0511 00:27:50.137547 28408 net.cpp:105] Setting up inception_5a/relu_3x3
I0511 00:27:50.137552 28408 net.cpp:112] Top shape: 32 320 7 7 (501760)
I0511 00:27:50.137557 28408 layer_factory.hpp:74] Creating layer inception_5a/5x5_reduce
I0511 00:27:50.137567 28408 net.cpp:76] Creating Layer inception_5a/5x5_reduce
I0511 00:27:50.137573 28408 net.cpp:372] inception_5a/5x5_reduce <- pool4/3x3_s2_pool4/3x3_s2_0_split_2
I0511 00:27:50.137583 28408 net.cpp:334] inception_5a/5x5_reduce -> inception_5a/5x5_reduce
I0511 00:27:50.137593 28408 net.cpp:105] Setting up inception_5a/5x5_reduce
I0511 00:27:50.137823 28408 net.cpp:112] Top shape: 32 32 7 7 (50176)
I0511 00:27:50.137837 28408 layer_factory.hpp:74] Creating layer inception_5a/relu_5x5_reduce
I0511 00:27:50.137845 28408 net.cpp:76] Creating Layer inception_5a/relu_5x5_reduce
I0511 00:27:50.137851 28408 net.cpp:372] inception_5a/relu_5x5_reduce <- inception_5a/5x5_reduce
I0511 00:27:50.137861 28408 net.cpp:323] inception_5a/relu_5x5_reduce -> inception_5a/5x5_reduce (in-place)
I0511 00:27:50.137869 28408 net.cpp:105] Setting up inception_5a/relu_5x5_reduce
I0511 00:27:50.137876 28408 net.cpp:112] Top shape: 32 32 7 7 (50176)
I0511 00:27:50.137881 28408 layer_factory.hpp:74] Creating layer inception_5a/5x5
I0511 00:27:50.137888 28408 net.cpp:76] Creating Layer inception_5a/5x5
I0511 00:27:50.137894 28408 net.cpp:372] inception_5a/5x5 <- inception_5a/5x5_reduce
I0511 00:27:50.137904 28408 net.cpp:334] inception_5a/5x5 -> inception_5a/5x5
I0511 00:27:50.137913 28408 net.cpp:105] Setting up inception_5a/5x5
I0511 00:27:50.138785 28408 net.cpp:112] Top shape: 32 128 7 7 (200704)
I0511 00:27:50.138800 28408 layer_factory.hpp:74] Creating layer inception_5a/relu_5x5
I0511 00:27:50.138808 28408 net.cpp:76] Creating Layer inception_5a/relu_5x5
I0511 00:27:50.138814 28408 net.cpp:372] inception_5a/relu_5x5 <- inception_5a/5x5
I0511 00:27:50.138821 28408 net.cpp:323] inception_5a/relu_5x5 -> inception_5a/5x5 (in-place)
I0511 00:27:50.138829 28408 net.cpp:105] Setting up inception_5a/relu_5x5
I0511 00:27:50.138835 28408 net.cpp:112] Top shape: 32 128 7 7 (200704)
I0511 00:27:50.138840 28408 layer_factory.hpp:74] Creating layer inception_5a/pool
I0511 00:27:50.138850 28408 net.cpp:76] Creating Layer inception_5a/pool
I0511 00:27:50.138857 28408 net.cpp:372] inception_5a/pool <- pool4/3x3_s2_pool4/3x3_s2_0_split_3
I0511 00:27:50.138865 28408 net.cpp:334] inception_5a/pool -> inception_5a/pool
I0511 00:27:50.138895 28408 net.cpp:105] Setting up inception_5a/pool
I0511 00:27:50.138906 28408 net.cpp:112] Top shape: 32 832 7 7 (1304576)
I0511 00:27:50.138916 28408 layer_factory.hpp:74] Creating layer inception_5a/pool_proj
I0511 00:27:50.138924 28408 net.cpp:76] Creating Layer inception_5a/pool_proj
I0511 00:27:50.138931 28408 net.cpp:372] inception_5a/pool_proj <- inception_5a/pool
I0511 00:27:50.138938 28408 net.cpp:334] inception_5a/pool_proj -> inception_5a/pool_proj
I0511 00:27:50.138947 28408 net.cpp:105] Setting up inception_5a/pool_proj
I0511 00:27:50.139859 28408 net.cpp:112] Top shape: 32 128 7 7 (200704)
I0511 00:27:50.139874 28408 layer_factory.hpp:74] Creating layer inception_5a/relu_pool_proj
I0511 00:27:50.139885 28408 net.cpp:76] Creating Layer inception_5a/relu_pool_proj
I0511 00:27:50.139892 28408 net.cpp:372] inception_5a/relu_pool_proj <- inception_5a/pool_proj
I0511 00:27:50.139899 28408 net.cpp:323] inception_5a/relu_pool_proj -> inception_5a/pool_proj (in-place)
I0511 00:27:50.139907 28408 net.cpp:105] Setting up inception_5a/relu_pool_proj
I0511 00:27:50.139914 28408 net.cpp:112] Top shape: 32 128 7 7 (200704)
I0511 00:27:50.139919 28408 layer_factory.hpp:74] Creating layer inception_5a/output
I0511 00:27:50.139928 28408 net.cpp:76] Creating Layer inception_5a/output
I0511 00:27:50.139935 28408 net.cpp:372] inception_5a/output <- inception_5a/1x1
I0511 00:27:50.139941 28408 net.cpp:372] inception_5a/output <- inception_5a/3x3
I0511 00:27:50.139947 28408 net.cpp:372] inception_5a/output <- inception_5a/5x5
I0511 00:27:50.139971 28408 net.cpp:372] inception_5a/output <- inception_5a/pool_proj
I0511 00:27:50.139979 28408 net.cpp:334] inception_5a/output -> inception_5a/output
I0511 00:27:50.139988 28408 net.cpp:105] Setting up inception_5a/output
I0511 00:27:50.139994 28408 net.cpp:112] Top shape: 32 832 7 7 (1304576)
I0511 00:27:50.140000 28408 layer_factory.hpp:74] Creating layer inception_5a/output_inception_5a/output_0_split
I0511 00:27:50.140007 28408 net.cpp:76] Creating Layer inception_5a/output_inception_5a/output_0_split
I0511 00:27:50.140033 28408 net.cpp:372] inception_5a/output_inception_5a/output_0_split <- inception_5a/output
I0511 00:27:50.140043 28408 net.cpp:334] inception_5a/output_inception_5a/output_0_split -> inception_5a/output_inception_5a/output_0_split_0
I0511 00:27:50.140055 28408 net.cpp:334] inception_5a/output_inception_5a/output_0_split -> inception_5a/output_inception_5a/output_0_split_1
I0511 00:27:50.140066 28408 net.cpp:334] inception_5a/output_inception_5a/output_0_split -> inception_5a/output_inception_5a/output_0_split_2
I0511 00:27:50.140075 28408 net.cpp:334] inception_5a/output_inception_5a/output_0_split -> inception_5a/output_inception_5a/output_0_split_3
I0511 00:27:50.140084 28408 net.cpp:105] Setting up inception_5a/output_inception_5a/output_0_split
I0511 00:27:50.140092 28408 net.cpp:112] Top shape: 32 832 7 7 (1304576)
I0511 00:27:50.140097 28408 net.cpp:112] Top shape: 32 832 7 7 (1304576)
I0511 00:27:50.140102 28408 net.cpp:112] Top shape: 32 832 7 7 (1304576)
I0511 00:27:50.140107 28408 net.cpp:112] Top shape: 32 832 7 7 (1304576)
I0511 00:27:50.140112 28408 layer_factory.hpp:74] Creating layer inception_5b/1x1
I0511 00:27:50.140126 28408 net.cpp:76] Creating Layer inception_5b/1x1
I0511 00:27:50.140132 28408 net.cpp:372] inception_5b/1x1 <- inception_5a/output_inception_5a/output_0_split_0
I0511 00:27:50.140141 28408 net.cpp:334] inception_5b/1x1 -> inception_5b/1x1
I0511 00:27:50.140149 28408 net.cpp:105] Setting up inception_5b/1x1
I0511 00:27:50.142827 28408 net.cpp:112] Top shape: 32 384 7 7 (602112)
I0511 00:27:50.142846 28408 layer_factory.hpp:74] Creating layer inception_5b/relu_1x1
I0511 00:27:50.142855 28408 net.cpp:76] Creating Layer inception_5b/relu_1x1
I0511 00:27:50.142861 28408 net.cpp:372] inception_5b/relu_1x1 <- inception_5b/1x1
I0511 00:27:50.142869 28408 net.cpp:323] inception_5b/relu_1x1 -> inception_5b/1x1 (in-place)
I0511 00:27:50.142877 28408 net.cpp:105] Setting up inception_5b/relu_1x1
I0511 00:27:50.142882 28408 net.cpp:112] Top shape: 32 384 7 7 (602112)
I0511 00:27:50.142889 28408 layer_factory.hpp:74] Creating layer inception_5b/3x3_reduce
I0511 00:27:50.142897 28408 net.cpp:76] Creating Layer inception_5b/3x3_reduce
I0511 00:27:50.142902 28408 net.cpp:372] inception_5b/3x3_reduce <- inception_5a/output_inception_5a/output_0_split_1
I0511 00:27:50.142915 28408 net.cpp:334] inception_5b/3x3_reduce -> inception_5b/3x3_reduce
I0511 00:27:50.142925 28408 net.cpp:105] Setting up inception_5b/3x3_reduce
I0511 00:27:50.144284 28408 net.cpp:112] Top shape: 32 192 7 7 (301056)
I0511 00:27:50.144300 28408 layer_factory.hpp:74] Creating layer inception_5b/relu_3x3_reduce
I0511 00:27:50.144309 28408 net.cpp:76] Creating Layer inception_5b/relu_3x3_reduce
I0511 00:27:50.144315 28408 net.cpp:372] inception_5b/relu_3x3_reduce <- inception_5b/3x3_reduce
I0511 00:27:50.144323 28408 net.cpp:323] inception_5b/relu_3x3_reduce -> inception_5b/3x3_reduce (in-place)
I0511 00:27:50.144331 28408 net.cpp:105] Setting up inception_5b/relu_3x3_reduce
I0511 00:27:50.144336 28408 net.cpp:112] Top shape: 32 192 7 7 (301056)
I0511 00:27:50.144342 28408 layer_factory.hpp:74] Creating layer inception_5b/3x3
I0511 00:27:50.144353 28408 net.cpp:76] Creating Layer inception_5b/3x3
I0511 00:27:50.144359 28408 net.cpp:372] inception_5b/3x3 <- inception_5b/3x3_reduce
I0511 00:27:50.144369 28408 net.cpp:334] inception_5b/3x3 -> inception_5b/3x3
I0511 00:27:50.144378 28408 net.cpp:105] Setting up inception_5b/3x3
I0511 00:27:50.150563 28408 net.cpp:112] Top shape: 32 384 7 7 (602112)
I0511 00:27:50.150598 28408 layer_factory.hpp:74] Creating layer inception_5b/relu_3x3
I0511 00:27:50.150616 28408 net.cpp:76] Creating Layer inception_5b/relu_3x3
I0511 00:27:50.151197 28408 net.cpp:372] inception_5b/relu_3x3 <- inception_5b/3x3
I0511 00:27:50.151209 28408 net.cpp:323] inception_5b/relu_3x3 -> inception_5b/3x3 (in-place)
I0511 00:27:50.151221 28408 net.cpp:105] Setting up inception_5b/relu_3x3
I0511 00:27:50.151226 28408 net.cpp:112] Top shape: 32 384 7 7 (602112)
I0511 00:27:50.151232 28408 layer_factory.hpp:74] Creating layer inception_5b/5x5_reduce
I0511 00:27:50.151245 28408 net.cpp:76] Creating Layer inception_5b/5x5_reduce
I0511 00:27:50.151252 28408 net.cpp:372] inception_5b/5x5_reduce <- inception_5a/output_inception_5a/output_0_split_2
I0511 00:27:50.151262 28408 net.cpp:334] inception_5b/5x5_reduce -> inception_5b/5x5_reduce
I0511 00:27:50.151271 28408 net.cpp:105] Setting up inception_5b/5x5_reduce
I0511 00:27:50.151639 28408 net.cpp:112] Top shape: 32 48 7 7 (75264)
I0511 00:27:50.151654 28408 layer_factory.hpp:74] Creating layer inception_5b/relu_5x5_reduce
I0511 00:27:50.151661 28408 net.cpp:76] Creating Layer inception_5b/relu_5x5_reduce
I0511 00:27:50.151667 28408 net.cpp:372] inception_5b/relu_5x5_reduce <- inception_5b/5x5_reduce
I0511 00:27:50.151674 28408 net.cpp:323] inception_5b/relu_5x5_reduce -> inception_5b/5x5_reduce (in-place)
I0511 00:27:50.151684 28408 net.cpp:105] Setting up inception_5b/relu_5x5_reduce
I0511 00:27:50.151690 28408 net.cpp:112] Top shape: 32 48 7 7 (75264)
I0511 00:27:50.151696 28408 layer_factory.hpp:74] Creating layer inception_5b/5x5
I0511 00:27:50.151705 28408 net.cpp:76] Creating Layer inception_5b/5x5
I0511 00:27:50.151710 28408 net.cpp:372] inception_5b/5x5 <- inception_5b/5x5_reduce
I0511 00:27:50.151718 28408 net.cpp:334] inception_5b/5x5 -> inception_5b/5x5
I0511 00:27:50.151726 28408 net.cpp:105] Setting up inception_5b/5x5
I0511 00:27:50.153012 28408 net.cpp:112] Top shape: 32 128 7 7 (200704)
I0511 00:27:50.153029 28408 layer_factory.hpp:74] Creating layer inception_5b/relu_5x5
I0511 00:27:50.153038 28408 net.cpp:76] Creating Layer inception_5b/relu_5x5
I0511 00:27:50.153044 28408 net.cpp:372] inception_5b/relu_5x5 <- inception_5b/5x5
I0511 00:27:50.153053 28408 net.cpp:323] inception_5b/relu_5x5 -> inception_5b/5x5 (in-place)
I0511 00:27:50.153061 28408 net.cpp:105] Setting up inception_5b/relu_5x5
I0511 00:27:50.153066 28408 net.cpp:112] Top shape: 32 128 7 7 (200704)
I0511 00:27:50.153072 28408 layer_factory.hpp:74] Creating layer inception_5b/pool
I0511 00:27:50.153080 28408 net.cpp:76] Creating Layer inception_5b/pool
I0511 00:27:50.153086 28408 net.cpp:372] inception_5b/pool <- inception_5a/output_inception_5a/output_0_split_3
I0511 00:27:50.153095 28408 net.cpp:334] inception_5b/pool -> inception_5b/pool
I0511 00:27:50.153103 28408 net.cpp:105] Setting up inception_5b/pool
I0511 00:27:50.153111 28408 net.cpp:112] Top shape: 32 832 7 7 (1304576)
I0511 00:27:50.153117 28408 layer_factory.hpp:74] Creating layer inception_5b/pool_proj
I0511 00:27:50.153129 28408 net.cpp:76] Creating Layer inception_5b/pool_proj
I0511 00:27:50.153136 28408 net.cpp:372] inception_5b/pool_proj <- inception_5b/pool
I0511 00:27:50.153146 28408 net.cpp:334] inception_5b/pool_proj -> inception_5b/pool_proj
I0511 00:27:50.153154 28408 net.cpp:105] Setting up inception_5b/pool_proj
I0511 00:27:50.154060 28408 net.cpp:112] Top shape: 32 128 7 7 (200704)
I0511 00:27:50.154075 28408 layer_factory.hpp:74] Creating layer inception_5b/relu_pool_proj
I0511 00:27:50.154083 28408 net.cpp:76] Creating Layer inception_5b/relu_pool_proj
I0511 00:27:50.154089 28408 net.cpp:372] inception_5b/relu_pool_proj <- inception_5b/pool_proj
I0511 00:27:50.154099 28408 net.cpp:323] inception_5b/relu_pool_proj -> inception_5b/pool_proj (in-place)
I0511 00:27:50.154108 28408 net.cpp:105] Setting up inception_5b/relu_pool_proj
I0511 00:27:50.154114 28408 net.cpp:112] Top shape: 32 128 7 7 (200704)
I0511 00:27:50.154119 28408 layer_factory.hpp:74] Creating layer inception_5b/output
I0511 00:27:50.154158 28408 net.cpp:76] Creating Layer inception_5b/output
I0511 00:27:50.154165 28408 net.cpp:372] inception_5b/output <- inception_5b/1x1
I0511 00:27:50.154172 28408 net.cpp:372] inception_5b/output <- inception_5b/3x3
I0511 00:27:50.154178 28408 net.cpp:372] inception_5b/output <- inception_5b/5x5
I0511 00:27:50.154184 28408 net.cpp:372] inception_5b/output <- inception_5b/pool_proj
I0511 00:27:50.154196 28408 net.cpp:334] inception_5b/output -> inception_5b/output
I0511 00:27:50.154203 28408 net.cpp:105] Setting up inception_5b/output
I0511 00:27:50.154211 28408 net.cpp:112] Top shape: 32 1024 7 7 (1605632)
I0511 00:27:50.154217 28408 layer_factory.hpp:74] Creating layer pool5/7x7_s1
I0511 00:27:50.154224 28408 net.cpp:76] Creating Layer pool5/7x7_s1
I0511 00:27:50.154229 28408 net.cpp:372] pool5/7x7_s1 <- inception_5b/output
I0511 00:27:50.154238 28408 net.cpp:334] pool5/7x7_s1 -> pool5/7x7_s1
I0511 00:27:50.154247 28408 net.cpp:105] Setting up pool5/7x7_s1
I0511 00:27:50.154253 28408 net.cpp:112] Top shape: 32 1024 1 1 (32768)
I0511 00:27:50.154258 28408 layer_factory.hpp:74] Creating layer pool5/drop_7x7_s1
I0511 00:27:50.154266 28408 net.cpp:76] Creating Layer pool5/drop_7x7_s1
I0511 00:27:50.154284 28408 net.cpp:372] pool5/drop_7x7_s1 <- pool5/7x7_s1
I0511 00:27:50.154295 28408 net.cpp:323] pool5/drop_7x7_s1 -> pool5/7x7_s1 (in-place)
I0511 00:27:50.154304 28408 net.cpp:105] Setting up pool5/drop_7x7_s1
I0511 00:27:50.154311 28408 net.cpp:112] Top shape: 32 1024 1 1 (32768)
I0511 00:27:50.154316 28408 layer_factory.hpp:74] Creating layer loss3/classifier
I0511 00:27:50.154328 28408 net.cpp:76] Creating Layer loss3/classifier
I0511 00:27:50.154335 28408 net.cpp:372] loss3/classifier <- pool5/7x7_s1
I0511 00:27:50.154345 28408 net.cpp:334] loss3/classifier -> loss3/classifier
I0511 00:27:50.154355 28408 net.cpp:105] Setting up loss3/classifier
I0511 00:27:50.154386 28408 net.cpp:112] Top shape: 32 2 1 1 (64)
I0511 00:27:50.154397 28408 layer_factory.hpp:74] Creating layer loss3/classifier_loss3/classifier_0_split
I0511 00:27:50.154404 28408 net.cpp:76] Creating Layer loss3/classifier_loss3/classifier_0_split
I0511 00:27:50.154410 28408 net.cpp:372] loss3/classifier_loss3/classifier_0_split <- loss3/classifier
I0511 00:27:50.154419 28408 net.cpp:334] loss3/classifier_loss3/classifier_0_split -> loss3/classifier_loss3/classifier_0_split_0
I0511 00:27:50.154429 28408 net.cpp:334] loss3/classifier_loss3/classifier_0_split -> loss3/classifier_loss3/classifier_0_split_1
I0511 00:27:50.154438 28408 net.cpp:105] Setting up loss3/classifier_loss3/classifier_0_split
I0511 00:27:50.154444 28408 net.cpp:112] Top shape: 32 2 1 1 (64)
I0511 00:27:50.154449 28408 net.cpp:112] Top shape: 32 2 1 1 (64)
I0511 00:27:50.154454 28408 layer_factory.hpp:74] Creating layer loss3/loss3
I0511 00:27:50.154463 28408 net.cpp:76] Creating Layer loss3/loss3
I0511 00:27:50.154469 28408 net.cpp:372] loss3/loss3 <- loss3/classifier_loss3/classifier_0_split_0
I0511 00:27:50.154475 28408 net.cpp:372] loss3/loss3 <- label_data_1_split_4
I0511 00:27:50.154484 28408 net.cpp:334] loss3/loss3 -> loss3/loss3
I0511 00:27:50.154494 28408 net.cpp:105] Setting up loss3/loss3
I0511 00:27:50.154501 28408 layer_factory.hpp:74] Creating layer loss3/loss3
I0511 00:27:50.154515 28408 net.cpp:112] Top shape: 1 1 1 1 (1)
I0511 00:27:50.154520 28408 net.cpp:118]     with loss weight 1
I0511 00:27:50.154538 28408 layer_factory.hpp:74] Creating layer loss3/top-1
I0511 00:27:50.154549 28408 net.cpp:76] Creating Layer loss3/top-1
I0511 00:27:50.154556 28408 net.cpp:372] loss3/top-1 <- loss3/classifier_loss3/classifier_0_split_1
I0511 00:27:50.154562 28408 net.cpp:372] loss3/top-1 <- label_data_1_split_5
I0511 00:27:50.154570 28408 net.cpp:334] loss3/top-1 -> loss3/top-1
I0511 00:27:50.154582 28408 net.cpp:105] Setting up loss3/top-1
I0511 00:27:50.154587 28408 net.cpp:112] Top shape: 1 1 1 1 (1)
I0511 00:27:50.154593 28408 net.cpp:165] loss3/top-1 does not need backward computation.
I0511 00:27:50.154598 28408 net.cpp:163] loss3/loss3 needs backward computation.
I0511 00:27:50.154616 28408 net.cpp:163] loss3/classifier_loss3/classifier_0_split needs backward computation.
I0511 00:27:50.154623 28408 net.cpp:163] loss3/classifier needs backward computation.
I0511 00:27:50.154628 28408 net.cpp:163] pool5/drop_7x7_s1 needs backward computation.
…
