…
I0509 21:50:22.769673 17867 net.cpp:253] The NetState phase (0) differed from the phase (1) specified by a rule in layer loss3/top-1
I0509 21:50:22.770972 17867 net.cpp:42] Initializing net from parameters: 
name: "GoogleNet"
state {
  phase: TRAIN
}
layer {
  name: "data"
  type: "Data"
  top: "data"
  top: "label"
  include {
    phase: TRAIN
  }
  transform_param {
    mirror: true
    crop_size: 224
    mean_value: 104
    mean_value: 117
    mean_value: 123
  }
  data_param {
    source: "train_lmdb"
    batch_size: 32
    backend: LMDB
  }
}
layer {
  name: "conv1/7x7_s2"
  type: "Convolution"
  bottom: "data"
  top: "conv1/7x7_s2"
  param {
    lr_mult: 1
    decay_mult: 1
  }
  param {
    lr_mult: 2
    decay_mult: 0
  }
  convolution_param {
    num_output: 64
    pad: 3
    kernel_size: 7
    stride: 2
    weight_filler {
      type: "xavier"
      std: 0.1
    }
    bias_filler {
      type: "constant"
      value: 0.2
    }
  }
}
layer {
  name: "conv1/relu_7x7"
  type: "ReLU"
  bottom: "conv1/7x7_s2"
  top: "conv1/7x7_s2"
}
layer {
  name: "pool1/3x3_s2"
  type: "Pooling"
  bottom: "conv1/7x7_s2"
  top: "pool1/3x3_s2"
  pooling_param {
    pool: MAX
    kernel_size: 3
    stride: 2
  }
}
layer {
  name: "pool1/norm1"
  type: "LRN"
  bottom: "pool1/3x3_s2"
  top: "pool1/norm1"
  lrn_param {
    local_size: 5
    alpha: 0.0001
    beta: 0.75
  }
}
layer {
  name: "conv2/3x3_reduce"
  type: "Convolution"
  bottom: "pool1/norm1"
  top: "conv2/3x3_reduce"
  param {
    lr_mult: 1
    decay_mult: 1
  }
  param {
    lr_mult: 2
    decay_mult: 0
  }
  convolution_param {
    num_output: 64
    kernel_size: 1
    weight_filler {
      type: "xavier"
      std: 0.1
    }
    bias_filler {
      type: "constant"
      value: 0.2
    }
  }
}
layer {
  name: "conv2/relu_3x3_reduce"
  type: "ReLU"
  bottom: "conv2/3x3_reduce"
  top: "conv2/3x3_reduce"
}
layer {
  name: "conv2/3x3"
  type: "Convolution"
  bottom: "conv2/3x3_reduce"
  top: "conv2/3x3"
  param {
    lr_mult: 1
    decay_mult: 1
  }
  param {
    lr_mult: 2
    decay_mult: 0
  }
  convolution_param {
    num_output: 192
    pad: 1
    kernel_size: 3
    weight_filler {
      type: "xavier"
      std: 0.03
    }
    bias_filler {
      type: "constant"
      value: 0.2
    }
  }
}
layer {
  name: "conv2/relu_3x3"
  type: "ReLU"
  bottom: "conv2/3x3"
  top: "conv2/3x3"
}
layer {
  name: "conv2/norm2"
  type: "LRN"
  bottom: "conv2/3x3"
  top: "conv2/norm2"
  lrn_param {
    local_size: 5
    alpha: 0.0001
    beta: 0.75
  }
}
layer {
  name: "pool2/3x3_s2"
  type: "Pooling"
  bottom: "conv2/norm2"
  top: "pool2/3x3_s2"
  pooling_param {
    pool: MAX
    kernel_size: 3
    stride: 2
  }
}
layer {
  name: "inception_3a/1x1"
  type: "Convolution"
  bottom: "pool2/3x3_s2"
  top: "inception_3a/1x1"
  param {
    lr_mult: 1
    decay_mult: 1
  }
  param {
    lr_mult: 2
    decay_mult: 0
  }
  convolution_param {
    num_output: 64
    kernel_size: 1
    weight_filler {
      type: "xavier"
      std: 0.03
    }
    bias_filler {
      type: "constant"
      value: 0.2
    }
  }
}
layer {
  name: "inception_3a/relu_1x1"
  type: "ReLU"
  bottom: "inception_3a/1x1"
  top: "inception_3a/1x1"
}
layer {
  name: "inception_3a/3x3_reduce"
  type: "Convolution"
  bottom: "pool2/3x3_s2"
  top: "inception_3a/3x3_reduce"
  param {
    lr_mult: 1
    decay_mult: 1
  }
  param {
    lr_mult: 2
    decay_mult: 0
  }
  convolution_param {
    num_output: 96
    kernel_size: 1
    weight_filler {
      type: "xavier"
      std: 0.09
    }
    bias_filler {
      type: "constant"
      value: 0.2
    }
  }
}
layer {
  name: "inception_3a/relu_3x3_reduce"
  type: "ReLU"
  bottom: "inception_3a/3x3_reduce"
  top: "inception_3a/3x3_reduce"
}
layer {
  name: "inception_3a/3x3"
  type: "Convolution"
  bottom: "inception_3a/3x3_reduce"
  top: "inception_3a/3x3"
  param {
    lr_mult: 1
    decay_mult: 1
  }
  param {
    lr_mult: 2
    decay_mult: 0
  }
  convolution_param {
    num_output: 128
    pad: 1
    kernel_size: 3
    weight_filler {
      type: "xavier"
      std: 0.03
    }
    bias_filler {
      type: "constant"
      value: 0.2
    }
  }
}
layer {
  name: "inception_3a/relu_3x3"
  type: "ReLU"
  bottom: "inception_3a/3x3"
  top: "inception_3a/3x3"
}
layer {
  name: "inception_3a/5x5_reduce"
  type: "Convolution"
  bottom: "pool2/3x3_s2"
  top: "inception_3a/5x5_reduce"
  param {
    lr_mult: 1
    decay_mult: 1
  }
  param {
    lr_mult: 2
    decay_mult: 0
  }
  convolution_param {
    num_output: 16
    kernel_size: 1
    weight_filler {
      type: "xavier"
      std: 0.2
    }
    bias_filler {
      type: "constant"
      value: 0.2
    }
  }
}
layer {
  name: "inception_3a/relu_5x5_reduce"
  type: "ReLU"
  bottom: "inception_3a/5x5_reduce"
  top: "inception_3a/5x5_reduce"
}
layer {
  name: "inception_3a/5x5"
  type: "Convolution"
  bottom: "inception_3a/5x5_reduce"
  top: "inception_3a/5x5"
  param {
    lr_mult: 1
    decay_mult: 1
  }
  param {
    lr_mult: 2
    decay_mult: 0
  }
  convolution_param {
    num_output: 32
    pad: 2
    kernel_size: 5
    weight_filler {
      type: "xavier"
      std: 0.03
    }
    bias_filler {
      type: "constant"
      value: 0.2
    }
  }
}
layer {
  name: "inception_3a/relu_5x5"
  type: "ReLU"
  bottom: "inception_3a/5x5"
  top: "inception_3a/5x5"
}
layer {
  name: "inception_3a/pool"
  type: "Pooling"
  bottom: "pool2/3x3_s2"
  top: "inception_3a/pool"
  pooling_param {
    pool: MAX
    kernel_size: 3
    stride: 1
    pad: 1
  }
}
layer {
  name: "inception_3a/pool_proj"
  type: "Convolution"
  bottom: "inception_3a/pool"
  top: "inception_3a/pool_proj"
  param {
    lr_mult: 1
    decay_mult: 1
  }
  param {
    lr_mult: 2
    decay_mult: 0
  }
  convolution_param {
    num_output: 32
    kernel_size: 1
    weight_filler {
      type: "xavier"
      std: 0.1
    }
    bias_filler {
      type: "constant"
      value: 0.2
    }
  }
}
layer {
  name: "inception_3a/relu_pool_proj"
  type: "ReLU"
  bottom: "inception_3a/pool_proj"
  top: "inception_3a/pool_proj"
}
layer {
  name: "inception_3a/output"
  type: "Concat"
  bottom: "inception_3a/1x1"
  bottom: "inception_3a/3x3"
  bottom: "inception_3a/5x5"
  bottom: "inception_3a/pool_proj"
  top: "inception_3a/output"
}
layer {
  name: "inception_3b/1x1"
  type: "Convolution"
  bottom: "inception_3a/output"
  top: "inception_3b/1x1"
  param {
    lr_mult: 1
    decay_mult: 1
  }
  param {
    lr_mult: 2
    decay_mult: 0
  }
  convolution_param {
    num_output: 128
    kernel_size: 1
    weight_filler {
      type: "xavier"
      std: 0.03
    }
    bias_filler {
      type: "constant"
      value: 0.2
    }
  }
}
layer {
  name: "inception_3b/relu_1x1"
  type: "ReLU"
  bottom: "inception_3b/1x1"
  top: "inception_3b/1x1"
}
layer {
  name: "inception_3b/3x3_reduce"
  type: "Convolution"
  bottom: "inception_3a/output"
  top: "inception_3b/3x3_reduce"
  param {
    lr_mult: 1
    decay_mult: 1
  }
  param {
    lr_mult: 2
    decay_mult: 0
  }
  convolution_param {
    num_output: 128
    kernel_size: 1
    weight_filler {
      type: "xavier"
      std: 0.09
    }
    bias_filler {
      type: "constant"
      value: 0.2
    }
  }
}
layer {
  name: "inception_3b/relu_3x3_reduce"
  type: "ReLU"
  bottom: "inception_3b/3x3_reduce"
  top: "inception_3b/3x3_reduce"
}
layer {
  name: "inception_3b/3x3"
  type: "Convolution"
  bottom: "inception_3b/3x3_reduce"
  top: "inception_3b/3x3"
  param {
    lr_mult: 1
    decay_mult: 1
  }
  param {
    lr_mult: 2
    decay_mult: 0
  }
  convolution_param {
    num_output: 192
    pad: 1
    kernel_size: 3
    weight_filler {
      type: "xavier"
      std: 0.03
    }
    bias_filler {
      type: "constant"
      value: 0.2
    }
  }
}
layer {
  name: "inception_3b/relu_3x3"
  type: "ReLU"
  bottom: "inception_3b/3x3"
  top: "inception_3b/3x3"
}
layer {
  name: "inception_3b/5x5_reduce"
  type: "Convolution"
  bottom: "inception_3a/output"
  top: "inception_3b/5x5_reduce"
  param {
    lr_mult: 1
    decay_mult: 1
  }
  param {
    lr_mult: 2
    decay_mult: 0
  }
  convolution_param {
    num_output: 32
    kernel_size: 1
    weight_filler {
      type: "xavier"
      std: 0.2
    }
    bias_filler {
      type: "constant"
      value: 0.2
    }
  }
}
layer {
  name: "inception_3b/relu_5x5_reduce"
  type: "ReLU"
  bottom: "inception_3b/5x5_reduce"
  top: "inception_3b/5x5_reduce"
}
layer {
  name: "inception_3b/5x5"
  type: "Convolution"
  bottom: "inception_3b/5x5_reduce"
  top: "inception_3b/5x5"
  param {
    lr_mult: 1
    decay_mult: 1
  }
  param {
    lr_mult: 2
    decay_mult: 0
  }
  convolution_param {
    num_output: 96
    pad: 2
    kernel_size: 5
    weight_filler {
      type: "xavier"
      std: 0.03
    }
    bias_filler {
      type: "constant"
      value: 0.2
    }
  }
}
layer {
  name: "inception_3b/relu_5x5"
  type: "ReLU"
  bottom: "inception_3b/5x5"
  top: "inception_3b/5x5"
}
layer {
  name: "inception_3b/pool"
  type: "Pooling"
  bottom: "inception_3a/output"
  top: "inception_3b/pool"
  pooling_param {
    pool: MAX
    kernel_size: 3
    stride: 1
    pad: 1
  }
}
layer {
  name: "inception_3b/pool_proj"
  type: "Convolution"
  bottom: "inception_3b/pool"
  top: "inception_3b/pool_proj"
  param {
    lr_mult: 1
    decay_mult: 1
  }
  param {
    lr_mult: 2
    decay_mult: 0
  }
  convolution_param {
    num_output: 64
    kernel_size: 1
    weight_filler {
      type: "xavier"
      std: 0.1
    }
    bias_filler {
      type: "constant"
      value: 0.2
    }
  }
}
layer {
  name: "inception_3b/relu_pool_proj"
  type: "ReLU"
  bottom: "inception_3b/pool_proj"
  top: "inception_3b/pool_proj"
}
layer {
  name: "inception_3b/output"
  type: "Concat"
  bottom: "inception_3b/1x1"
  bottom: "inception_3b/3x3"
  bottom: "inception_3b/5x5"
  bottom: "inception_3b/pool_proj"
  top: "inception_3b/output"
}
layer {
  name: "pool3/3x3_s2"
  type: "Pooling"
  bottom: "inception_3b/output"
  top: "pool3/3x3_s2"
  pooling_param {
    pool: MAX
    kernel_size: 3
    stride: 2
  }
}
layer {
  name: "inception_4a/1x1"
  type: "Convolution"
  bottom: "pool3/3x3_s2"
  top: "inception_4a/1x1"
  param {
    lr_mult: 1
    decay_mult: 1
  }
  param {
    lr_mult: 2
    decay_mult: 0
  }
  convolution_param {
    num_output: 192
    kernel_size: 1
    weight_filler {
      type: "xavier"
      std: 0.03
    }
    bias_filler {
      type: "constant"
      value: 0.2
    }
  }
}
layer {
  name: "inception_4a/relu_1x1"
  type: "ReLU"
  bottom: "inception_4a/1x1"
  top: "inception_4a/1x1"
}
layer {
  name: "inception_4a/3x3_reduce"
  type: "Convolution"
  bottom: "pool3/3x3_s2"
  top: "inception_4a/3x3_reduce"
  param {
    lr_mult: 1
    decay_mult: 1
  }
  param {
    lr_mult: 2
    decay_mult: 0
  }
  convolution_param {
    num_output: 96
    kernel_size: 1
    weight_filler {
      type: "xavier"
      std: 0.09
    }
    bias_filler {
      type: "constant"
      value: 0.2
    }
  }
}
layer {
  name: "inception_4a/relu_3x3_reduce"
  type: "ReLU"
  bottom: "inception_4a/3x3_reduce"
  top: "inception_4a/3x3_reduce"
}
layer {
  name: "inception_4a/3x3"
  type: "Convolution"
  bottom: "inception_4a/3x3_reduce"
  top: "inception_4a/3x3"
  param {
    lr_mult: 1
    decay_mult: 1
  }
  param {
    lr_mult: 2
    decay_mult: 0
  }
  convolution_param {
    num_output: 208
    pad: 1
    kernel_size: 3
    weight_filler {
      type: "xavier"
      std: 0.03
    }
    bias_filler {
      type: "constant"
      value: 0.2
    }
  }
}
layer {
  name: "inception_4a/relu_3x3"
  type: "ReLU"
  bottom: "inception_4a/3x3"
  top: "inception_4a/3x3"
}
layer {
  name: "inception_4a/5x5_reduce"
  type: "Convolution"
  bottom: "pool3/3x3_s2"
  top: "inception_4a/5x5_reduce"
  param {
    lr_mult: 1
    decay_mult: 1
  }
  param {
    lr_mult: 2
    decay_mult: 0
  }
  convolution_param {
    num_output: 16
    kernel_size: 1
    weight_filler {
      type: "xavier"
      std: 0.2
    }
    bias_filler {
      type: "constant"
      value: 0.2
    }
  }
}
layer {
  name: "inception_4a/relu_5x5_reduce"
  type: "ReLU"
  bottom: "inception_4a/5x5_reduce"
  top: "inception_4a/5x5_reduce"
}
layer {
  name: "inception_4a/5x5"
  type: "Convolution"
  bottom: "inception_4a/5x5_reduce"
  top: "inception_4a/5x5"
  param {
    lr_mult: 1
    decay_mult: 1
  }
  param {
    lr_mult: 2
    decay_mult: 0
  }
  convolution_param {
    num_output: 48
    pad: 2
    kernel_size: 5
    weight_filler {
      type: "xavier"
      std: 0.03
    }
    bias_filler {
      type: "constant"
      value: 0.2
    }
  }
}
layer {
  name: "inception_4a/relu_5x5"
  type: "ReLU"
  bottom: "inception_4a/5x5"
  top: "inception_4a/5x5"
}
layer {
  name: "inception_4a/pool"
  type: "Pooling"
  bottom: "pool3/3x3_s2"
  top: "inception_4a/pool"
  pooling_param {
    pool: MAX
    kernel_size: 3
    stride: 1
    pad: 1
  }
}
layer {
  name: "inception_4a/pool_proj"
  type: "Convolution"
  bottom: "inception_4a/pool"
  top: "inception_4a/pool_proj"
  param {
    lr_mult: 1
    decay_mult: 1
  }
  param {
    lr_mult: 2
    decay_mult: 0
  }
  convolution_param {
    num_output: 64
    kernel_size: 1
    weight_filler {
      type: "xavier"
      std: 0.1
    }
    bias_filler {
      type: "constant"
      value: 0.2
    }
  }
}
layer {
  name: "inception_4a/relu_pool_proj"
  type: "ReLU"
  bottom: "inception_4a/pool_proj"
  top: "inception_4a/pool_proj"
}
layer {
  name: "inception_4a/output"
  type: "Concat"
  bottom: "inception_4a/1x1"
  bottom: "inception_4a/3x3"
  bottom: "inception_4a/5x5"
  bottom: "inception_4a/pool_proj"
  top: "inception_4a/output"
}
layer {
  name: "loss1/ave_pool"
  type: "Pooling"
  bottom: "inception_4a/output"
  top: "loss1/ave_pool"
  pooling_param {
    pool: AVE
    kernel_size: 5
    stride: 3
  }
}
layer {
  name: "loss1/conv"
  type: "Convolution"
  bottom: "loss1/ave_pool"
  top: "loss1/conv"
  param {
    lr_mult: 1
    decay_mult: 1
  }
  param {
    lr_mult: 2
    decay_mult: 0
  }
  convolution_param {
    num_output: 128
    kernel_size: 1
    weight_filler {
      type: "xavier"
      std: 0.08
    }
    bias_filler {
      type: "constant"
      value: 0.2
    }
  }
}
layer {
  name: "loss1/relu_conv"
  type: "ReLU"
  bottom: "loss1/conv"
  top: "loss1/conv"
}
layer {
  name: "loss1/fc"
  type: "InnerProduct"
  bottom: "loss1/conv"
  top: "loss1/fc"
  param {
    lr_mult: 1
    decay_mult: 1
  }
  param {
    lr_mult: 2
    decay_mult: 0
  }
  inner_product_param {
    num_output: 1024
    weight_filler {
      type: "xavier"
      std: 0.02
    }
    bias_filler {
      type: "constant"
      value: 0.2
    }
  }
}
layer {
  name: "loss1/relu_fc"
  type: "ReLU"
  bottom: "loss1/fc"
  top: "loss1/fc"
}
layer {
  name: "loss1/drop_fc"
  type: "Dropout"
  bottom: "loss1/fc"
  top: "loss1/fc"
  dropout_param {
    dropout_ratio: 0.7
  }
}
layer {
  name: "loss1/classifier"
  type: "InnerProduct"
  bottom: "loss1/fc"
  top: "loss1/classifier"
  param {
    lr_mult: 1
    decay_mult: 1
  }
  param {
    lr_mult: 2
    decay_mult: 0
  }
  inner_product_param {
    num_output: 2
    weight_filler {
      type: "xavier"
      std: 0.0009765625
    }
    bias_filler {
      type: "constant"
      value: 0
    }
  }
}
layer {
  name: "loss1/loss"
  type: "SoftmaxWithLoss"
  bottom: "loss1/classifier"
  bottom: "label"
  top: "loss1/loss1"
  loss_weight: 0.3
}
layer {
  name: "inception_4b/1x1"
  type: "Convolution"
  bottom: "inception_4a/output"
  top: "inception_4b/1x1"
  param {
    lr_mult: 1
    decay_mult: 1
  }
  param {
    lr_mult: 2
    decay_mult: 0
  }
  convolution_param {
    num_output: 160
    kernel_size: 1
    weight_filler {
      type: "xavier"
      std: 0.03
    }
    bias_filler {
      type: "constant"
      value: 0.2
    }
  }
}
layer {
  name: "inception_4b/relu_1x1"
  type: "ReLU"
  bottom: "inception_4b/1x1"
  top: "inception_4b/1x1"
}
layer {
  name: "inception_4b/3x3_reduce"
  type: "Convolution"
  bottom: "inception_4a/output"
  top: "inception_4b/3x3_reduce"
  param {
    lr_mult: 1
    decay_mult: 1
  }
  param {
    lr_mult: 2
    decay_mult: 0
  }
  convolution_param {
    num_output: 112
    kernel_size: 1
    weight_filler {
      type: "xavier"
      std: 0.09
    }
    bias_filler {
      type: "constant"
      value: 0.2
    }
  }
}
layer {
  name: "inception_4b/relu_3x3_reduce"
  type: "ReLU"
  bottom: "inception_4b/3x3_reduce"
  top: "inception_4b/3x3_reduce"
}
layer {
  name: "inception_4b/3x3"
  type: "Convolution"
  bottom: "inception_4b/3x3_reduce"
  top: "inception_4b/3x3"
  param {
    lr_mult: 1
    decay_mult: 1
  }
  param {
    lr_mult: 2
    decay_mult: 0
  }
  convolution_param {
    num_output: 224
    pad: 1
    kernel_size: 3
    weight_filler {
      type: "xavier"
      std: 0.03
    }
    bias_filler {
      type: "constant"
      value: 0.2
    }
  }
}
layer {
  name: "inception_4b/relu_3x3"
  type: "ReLU"
  bottom: "inception_4b/3x3"
  top: "inception_4b/3x3"
}
layer {
  name: "inception_4b/5x5_reduce"
  type: "Convolution"
  bottom: "inception_4a/output"
  top: "inception_4b/5x5_reduce"
  param {
    lr_mult: 1
    decay_mult: 1
  }
  param {
    lr_mult: 2
    decay_mult: 0
  }
  convolution_param {
    num_output: 24
    kernel_size: 1
    weight_filler {
      type: "xavier"
      std: 0.2
    }
    bias_filler {
      type: "constant"
      value: 0.2
    }
  }
}
layer {
  name: "inception_4b/relu_5x5_reduce"
  type: "ReLU"
  bottom: "inception_4b/5x5_reduce"
  top: "inception_4b/5x5_reduce"
}
layer {
  name: "inception_4b/5x5"
  type: "Convolution"
  bottom: "inception_4b/5x5_reduce"
  top: "inception_4b/5x5"
  param {
    lr_mult: 1
    decay_mult: 1
  }
  param {
    lr_mult: 2
    decay_mult: 0
  }
  convolution_param {
    num_output: 64
    pad: 2
    kernel_size: 5
    weight_filler {
      type: "xavier"
      std: 0.03
    }
    bias_filler {
      type: "constant"
      value: 0.2
    }
  }
}
layer {
  name: "inception_4b/relu_5x5"
  type: "ReLU"
  bottom: "inception_4b/5x5"
  top: "inception_4b/5x5"
}
layer {
  name: "inception_4b/pool"
  type: "Pooling"
  bottom: "inception_4a/output"
  top: "inception_4b/pool"
  pooling_param {
    pool: MAX
    kernel_size: 3
    stride: 1
    pad: 1
  }
}
layer {
  name: "inception_4b/pool_proj"
  type: "Convolution"
  bottom: "inception_4b/pool"
  top: "inception_4b/pool_proj"
  param {
    lr_mult: 1
    decay_mult: 1
  }
  param {
    lr_mult: 2
    decay_mult: 0
  }
  convolution_param {
    num_output: 64
    kernel_size: 1
    weight_filler {
      type: "xavier"
      std: 0.1
    }
    bias_filler {
      type: "constant"
      value: 0.2
    }
  }
}
layer {
  name: "inception_4b/relu_pool_proj"
  type: "ReLU"
  bottom: "inception_4b/pool_proj"
  top: "inception_4b/pool_proj"
}
layer {
  name: "inception_4b/output"
  type: "Concat"
  bottom: "inception_4b/1x1"
  bottom: "inception_4b/3x3"
  bottom: "inception_4b/5x5"
  bottom: "inception_4b/pool_proj"
  top: "inception_4b/output"
}
layer {
  name: "inception_4c/1x1"
  type: "Convolution"
  bottom: "inception_4b/output"
  top: "inception_4c/1x1"
  param {
    lr_mult: 1
    decay_mult: 1
  }
  param {
    lr_mult: 2
    decay_mult: 0
  }
  convolution_param {
    num_output: 128
    kernel_size: 1
    weight_filler {
      type: "xavier"
      std: 0.03
    }
    bias_filler {
      type: "constant"
      value: 0.2
    }
  }
}
layer {
  name: "inception_4c/relu_1x1"
  type: "ReLU"
  bottom: "inception_4c/1x1"
  top: "inception_4c/1x1"
}
layer {
  name: "inception_4c/3x3_reduce"
  type: "Convolution"
  bottom: "inception_4b/output"
  top: "inception_4c/3x3_reduce"
  param {
    lr_mult: 1
    decay_mult: 1
  }
  param {
    lr_mult: 2
    decay_mult: 0
  }
  convolution_param {
    num_output: 128
    kernel_size: 1
    weight_filler {
      type: "xavier"
      std: 0.09
    }
    bias_filler {
      type: "constant"
      value: 0.2
    }
  }
}
layer {
  name: "inception_4c/relu_3x3_reduce"
  type: "ReLU"
  bottom: "inception_4c/3x3_reduce"
  top: "inception_4c/3x3_reduce"
}
layer {
  name: "inception_4c/3x3"
  type: "Convolution"
  bottom: "inception_4c/3x3_reduce"
  top: "inception_4c/3x3"
  param {
    lr_mult: 1
    decay_mult: 1
  }
  param {
    lr_mult: 2
    decay_mult: 0
  }
  convolution_param {
    num_output: 256
    pad: 1
    kernel_size: 3
    weight_filler {
      type: "xavier"
      std: 0.03
    }
    bias_filler {
      type: "constant"
      value: 0.2
    }
  }
}
layer {
  name: "inception_4c/relu_3x3"
  type: "ReLU"
  bottom: "inception_4c/3x3"
  top: "inception_4c/3x3"
}
layer {
  name: "inception_4c/5x5_reduce"
  type: "Convolution"
  bottom: "inception_4b/output"
  top: "inception_4c/5x5_reduce"
  param {
    lr_mult: 1
    decay_mult: 1
  }
  param {
    lr_mult: 2
    decay_mult: 0
  }
  convolution_param {
    num_output: 24
    kernel_size: 1
    weight_filler {
      type: "xavier"
      std: 0.2
    }
    bias_filler {
      type: "constant"
      value: 0.2
    }
  }
}
layer {
  name: "inception_4c/relu_5x5_reduce"
  type: "ReLU"
  bottom: "inception_4c/5x5_reduce"
  top: "inception_4c/5x5_reduce"
}
layer {
  name: "inception_4c/5x5"
  type: "Convolution"
  bottom: "inception_4c/5x5_reduce"
  top: "inception_4c/5x5"
  param {
    lr_mult: 1
    decay_mult: 1
  }
  param {
    lr_mult: 2
    decay_mult: 0
  }
  convolution_param {
    num_output: 64
    pad: 2
    kernel_size: 5
    weight_filler {
      type: "xavier"
      std: 0.03
    }
    bias_filler {
      type: "constant"
      value: 0.2
    }
  }
}
layer {
  name: "inception_4c/relu_5x5"
  type: "ReLU"
  bottom: "inception_4c/5x5"
  top: "inception_4c/5x5"
}
layer {
  name: "inception_4c/pool"
  type: "Pooling"
  bottom: "inception_4b/output"
  top: "inception_4c/pool"
  pooling_param {
    pool: MAX
    kernel_size: 3
    stride: 1
    pad: 1
  }
}
layer {
  name: "inception_4c/pool_proj"
  type: "Convolution"
  bottom: "inception_4c/pool"
  top: "inception_4c/pool_proj"
  param {
    lr_mult: 1
    decay_mult: 1
  }
  param {
    lr_mult: 2
    decay_mult: 0
  }
  convolution_param {
    num_output: 64
    kernel_size: 1
    weight_filler {
      type: "xavier"
      std: 0.1
    }
    bias_filler {
      type: "constant"
      value: 0.2
    }
  }
}
layer {
  name: "inception_4c/relu_pool_proj"
  type: "ReLU"
  bottom: "inception_4c/pool_proj"
  top: "inception_4c/pool_proj"
}
layer {
  name: "inception_4c/output"
  type: "Concat"
  bottom: "inception_4c/1x1"
  bottom: "inception_4c/3x3"
  bottom: "inception_4c/5x5"
  bottom: "inception_4c/pool_proj"
  top: "inception_4c/output"
}
layer {
  name: "inception_4d/1x1"
  type: "Convolution"
  bottom: "inception_4c/output"
  top: "inception_4d/1x1"
  param {
    lr_mult: 1
    decay_mult: 1
  }
  param {
    lr_mult: 2
    decay_mult: 0
  }
  convolution_param {
    num_output: 112
    kernel_size: 1
    weight_filler {
      type: "xavier"
      std: 0.03
    }
    bias_filler {
      type: "constant"
      value: 0.2
    }
  }
}
layer {
  name: "inception_4d/relu_1x1"
  type: "ReLU"
  bottom: "inception_4d/1x1"
  top: "inception_4d/1x1"
}
layer {
  name: "inception_4d/3x3_reduce"
  type: "Convolution"
  bottom: "inception_4c/output"
  top: "inception_4d/3x3_reduce"
  param {
    lr_mult: 1
    decay_mult: 1
  }
  param {
    lr_mult: 2
    decay_mult: 0
  }
  convolution_param {
    num_output: 144
    kernel_size: 1
    weight_filler {
      type: "xavier"
      std: 0.09
    }
    bias_filler {
      type: "constant"
      value: 0.2
    }
  }
}
layer {
  name: "inception_4d/relu_3x3_reduce"
  type: "ReLU"
  bottom: "inception_4d/3x3_reduce"
  top: "inception_4d/3x3_reduce"
}
layer {
  name: "inception_4d/3x3"
  type: "Convolution"
  bottom: "inception_4d/3x3_reduce"
  top: "inception_4d/3x3"
  param {
    lr_mult: 1
    decay_mult: 1
  }
  param {
    lr_mult: 2
    decay_mult: 0
  }
  convolution_param {
    num_output: 288
    pad: 1
    kernel_size: 3
    weight_filler {
      type: "xavier"
      std: 0.03
    }
    bias_filler {
      type: "constant"
      value: 0.2
    }
  }
}
layer {
  name: "inception_4d/relu_3x3"
  type: "ReLU"
  bottom: "inception_4d/3x3"
  top: "inception_4d/3x3"
}
layer {
  name: "inception_4d/5x5_reduce"
  type: "Convolution"
  bottom: "inception_4c/output"
  top: "inception_4d/5x5_reduce"
  param {
    lr_mult: 1
    decay_mult: 1
  }
  param {
    lr_mult: 2
    decay_mult: 0
  }
  convolution_param {
    num_output: 32
    kernel_size: 1
    weight_filler {
      type: "xavier"
      std: 0.2
    }
    bias_filler {
      type: "constant"
      value: 0.2
    }
  }
}
layer {
  name: "inception_4d/relu_5x5_reduce"
  type: "ReLU"
  bottom: "inception_4d/5x5_reduce"
  top: "inception_4d/5x5_reduce"
}
layer {
  name: "inception_4d/5x5"
  type: "Convolution"
  bottom: "inception_4d/5x5_reduce"
  top: "inception_4d/5x5"
  param {
    lr_mult: 1
    decay_mult: 1
  }
  param {
    lr_mult: 2
    decay_mult: 0
  }
  convolution_param {
    num_output: 64
    pad: 2
    kernel_size: 5
    weight_filler {
      type: "xavier"
      std: 0.03
    }
    bias_filler {
      type: "constant"
      value: 0.2
    }
  }
}
layer {
  name: "inception_4d/relu_5x5"
  type: "ReLU"
  bottom: "inception_4d/5x5"
  top: "inception_4d/5x5"
}
layer {
  name: "inception_4d/pool"
  type: "Pooling"
  bottom: "inception_4c/output"
  top: "inception_4d/pool"
  pooling_param {
    pool: MAX
    kernel_size: 3
    stride: 1
    pad: 1
  }
}
layer {
  name: "inception_4d/pool_proj"
  type: "Convolution"
  bottom: "inception_4d/pool"
  top: "inception_4d/pool_proj"
  param {
    lr_mult: 1
    decay_mult: 1
  }
  param {
    lr_mult: 2
    decay_mult: 0
  }
  convolution_param {
    num_output: 64
    kernel_size: 1
    weight_filler {
      type: "xavier"
      std: 0.1
    }
    bias_filler {
      type: "constant"
      value: 0.2
    }
  }
}
layer {
  name: "inception_4d/relu_pool_proj"
  type: "ReLU"
  bottom: "inception_4d/pool_proj"
  top: "inception_4d/pool_proj"
}
layer {
  name: "inception_4d/output"
  type: "Concat"
  bottom: "inception_4d/1x1"
  bottom: "inception_4d/3x3"
  bottom: "inception_4d/5x5"
  bottom: "inception_4d/pool_proj"
  top: "inception_4d/output"
}
layer {
  name: "loss2/ave_pool"
  type: "Pooling"
  bottom: "inception_4d/output"
  top: "loss2/ave_pool"
  pooling_param {
    pool: AVE
    kernel_size: 5
    stride: 3
  }
}
layer {
  name: "loss2/conv"
  type: "Convolution"
  bottom: "loss2/ave_pool"
  top: "loss2/conv"
  param {
    lr_mult: 1
    decay_mult: 1
  }
  param {
    lr_mult: 2
    decay_mult: 0
  }
  convolution_param {
    num_output: 128
    kernel_size: 1
    weight_filler {
      type: "xavier"
      std: 0.08
    }
    bias_filler {
      type: "constant"
      value: 0.2
    }
  }
}
layer {
  name: "loss2/relu_conv"
  type: "ReLU"
  bottom: "loss2/conv"
  top: "loss2/conv"
}
layer {
  name: "loss2/fc"
  type: "InnerProduct"
  bottom: "loss2/conv"
  top: "loss2/fc"
  param {
    lr_mult: 1
    decay_mult: 1
  }
  param {
    lr_mult: 2
    decay_mult: 0
  }
  inner_product_param {
    num_output: 1024
    weight_filler {
      type: "xavier"
      std: 0.02
    }
    bias_filler {
      type: "constant"
      value: 0.2
    }
  }
}
layer {
  name: "loss2/relu_fc"
  type: "ReLU"
  bottom: "loss2/fc"
  top: "loss2/fc"
}
layer {
  name: "loss2/drop_fc"
  type: "Dropout"
  bottom: "loss2/fc"
  top: "loss2/fc"
  dropout_param {
    dropout_ratio: 0.7
  }
}
layer {
  name: "loss2/classifier"
  type: "InnerProduct"
  bottom: "loss2/fc"
  top: "loss2/classifier"
  param {
    lr_mult: 1
    decay_mult: 1
  }
  param {
    lr_mult: 2
    decay_mult: 0
  }
  inner_product_param {
    num_output: 2
    weight_filler {
      type: "xavier"
      std: 0.0009765625
    }
    bias_filler {
      type: "constant"
      value: 0
    }
  }
}
layer {
  name: "loss2/loss"
  type: "SoftmaxWithLoss"
  bottom: "loss2/classifier"
  bottom: "label"
  top: "loss2/loss1"
  loss_weight: 0.3
}
layer {
  name: "inception_4e/1x1"
  type: "Convolution"
  bottom: "inception_4d/output"
  top: "inception_4e/1x1"
  param {
    lr_mult: 1
    decay_mult: 1
  }
  param {
    lr_mult: 2
    decay_mult: 0
  }
  convolution_param {
    num_output: 256
    kernel_size: 1
    weight_filler {
      type: "xavier"
      std: 0.03
    }
    bias_filler {
      type: "constant"
      value: 0.2
    }
  }
}
layer {
  name: "inception_4e/relu_1x1"
  type: "ReLU"
  bottom: "inception_4e/1x1"
  top: "inception_4e/1x1"
}
layer {
  name: "inception_4e/3x3_reduce"
  type: "Convolution"
  bottom: "inception_4d/output"
  top: "inception_4e/3x3_reduce"
  param {
    lr_mult: 1
    decay_mult: 1
  }
  param {
    lr_mult: 2
    decay_mult: 0
  }
  convolution_param {
    num_output: 160
    kernel_size: 1
    weight_filler {
      type: "xavier"
      std: 0.09
    }
    bias_filler {
      type: "constant"
      value: 0.2
    }
  }
}
layer {
  name: "inception_4e/relu_3x3_reduce"
  type: "ReLU"
  bottom: "inception_4e/3x3_reduce"
  top: "inception_4e/3x3_reduce"
}
layer {
  name: "inception_4e/3x3"
  type: "Convolution"
  bottom: "inception_4e/3x3_reduce"
  top: "inception_4e/3x3"
  param {
    lr_mult: 1
    decay_mult: 1
  }
  param {
    lr_mult: 2
    decay_mult: 0
  }
  convolution_param {
    num_output: 320
    pad: 1
    kernel_size: 3
    weight_filler {
      type: "xavier"
      std: 0.03
    }
    bias_filler {
      type: "constant"
      value: 0.2
    }
  }
}
layer {
  name: "inception_4e/relu_3x3"
  type: "ReLU"
  bottom: "inception_4e/3x3"
  top: "inception_4e/3x3"
}
layer {
  name: "inception_4e/5x5_reduce"
  type: "Convolution"
  bottom: "inception_4d/output"
  top: "inception_4e/5x5_reduce"
  param {
    lr_mult: 1
    decay_mult: 1
  }
  param {
    lr_mult: 2
    decay_mult: 0
  }
  convolution_param {
    num_output: 32
    kernel_size: 1
    weight_filler {
      type: "xavier"
      std: 0.2
    }
    bias_filler {
      type: "constant"
      value: 0.2
    }
  }
}
layer {
  name: "inception_4e/relu_5x5_reduce"
  type: "ReLU"
  bottom: "
I0509 21:50:22.776463 17867 layer_factory.hpp:74] Creating layer data
I0509 21:50:22.776495 17867 net.cpp:76] Creating Layer data
I0509 21:50:22.776507 17867 net.cpp:334] data -> data
I0509 21:50:22.776537 17867 net.cpp:334] data -> label
I0509 21:50:22.776558 17867 net.cpp:105] Setting up data
I0509 21:50:22.776679 17867 db.cpp:34] Opened lmdb train_lmdb
I0509 21:50:22.776973 17867 data_layer.cpp:67] output data size: 32,3,224,224
I0509 21:50:22.783663 17867 net.cpp:112] Top shape: 32 3 224 224 (4816896)
I0509 21:50:22.783692 17867 net.cpp:112] Top shape: 32 1 1 1 (32)
I0509 21:50:22.783704 17867 layer_factory.hpp:74] Creating layer label_data_1_split
I0509 21:50:22.783722 17867 net.cpp:76] Creating Layer label_data_1_split
I0509 21:50:22.783730 17867 net.cpp:372] label_data_1_split <- label
I0509 21:50:22.783764 17867 net.cpp:334] label_data_1_split -> label_data_1_split_0
I0509 21:50:22.783785 17867 net.cpp:334] label_data_1_split -> label_data_1_split_1
I0509 21:50:22.783795 17867 net.cpp:334] label_data_1_split -> label_data_1_split_2
I0509 21:50:22.783808 17867 net.cpp:105] Setting up label_data_1_split
I0509 21:50:22.783819 17867 net.cpp:112] Top shape: 32 1 1 1 (32)
I0509 21:50:22.783824 17867 net.cpp:112] Top shape: 32 1 1 1 (32)
I0509 21:50:22.783830 17867 net.cpp:112] Top shape: 32 1 1 1 (32)
I0509 21:50:22.783836 17867 layer_factory.hpp:74] Creating layer conv1/7x7_s2
I0509 21:50:22.783851 17867 net.cpp:76] Creating Layer conv1/7x7_s2
I0509 21:50:22.783859 17867 net.cpp:372] conv1/7x7_s2 <- data
I0509 21:50:22.783866 17867 net.cpp:334] conv1/7x7_s2 -> conv1/7x7_s2
I0509 21:50:22.783879 17867 net.cpp:105] Setting up conv1/7x7_s2
I0509 21:50:22.784020 17867 net.cpp:112] Top shape: 32 64 112 112 (25690112)
I0509 21:50:22.784075 17867 layer_factory.hpp:74] Creating layer conv1/relu_7x7
I0509 21:50:22.784090 17867 net.cpp:76] Creating Layer conv1/relu_7x7
I0509 21:50:22.784101 17867 net.cpp:372] conv1/relu_7x7 <- conv1/7x7_s2
I0509 21:50:22.784112 17867 net.cpp:323] conv1/relu_7x7 -> conv1/7x7_s2 (in-place)
I0509 21:50:22.784121 17867 net.cpp:105] Setting up conv1/relu_7x7
I0509 21:50:22.784131 17867 net.cpp:112] Top shape: 32 64 112 112 (25690112)
I0509 21:50:22.784137 17867 layer_factory.hpp:74] Creating layer pool1/3x3_s2
I0509 21:50:22.784152 17867 net.cpp:76] Creating Layer pool1/3x3_s2
I0509 21:50:22.784162 17867 net.cpp:372] pool1/3x3_s2 <- conv1/7x7_s2
I0509 21:50:22.784178 17867 net.cpp:334] pool1/3x3_s2 -> pool1/3x3_s2
I0509 21:50:22.784198 17867 net.cpp:105] Setting up pool1/3x3_s2
I0509 21:50:22.784215 17867 net.cpp:112] Top shape: 32 64 56 56 (6422528)
I0509 21:50:22.784222 17867 layer_factory.hpp:74] Creating layer pool1/norm1
I0509 21:50:22.784239 17867 net.cpp:76] Creating Layer pool1/norm1
I0509 21:50:22.784250 17867 net.cpp:372] pool1/norm1 <- pool1/3x3_s2
I0509 21:50:22.784265 17867 net.cpp:334] pool1/norm1 -> pool1/norm1
I0509 21:50:22.784302 17867 net.cpp:105] Setting up pool1/norm1
I0509 21:50:22.784312 17867 net.cpp:112] Top shape: 32 64 56 56 (6422528)
I0509 21:50:22.784319 17867 layer_factory.hpp:74] Creating layer conv2/3x3_reduce
I0509 21:50:22.784335 17867 net.cpp:76] Creating Layer conv2/3x3_reduce
I0509 21:50:22.784348 17867 net.cpp:372] conv2/3x3_reduce <- pool1/norm1
I0509 21:50:22.784365 17867 net.cpp:334] conv2/3x3_reduce -> conv2/3x3_reduce
I0509 21:50:22.784379 17867 net.cpp:105] Setting up conv2/3x3_reduce
I0509 21:50:22.784425 17867 net.cpp:112] Top shape: 32 64 56 56 (6422528)
I0509 21:50:22.784437 17867 layer_factory.hpp:74] Creating layer conv2/relu_3x3_reduce
I0509 21:50:22.784446 17867 net.cpp:76] Creating Layer conv2/relu_3x3_reduce
I0509 21:50:22.784451 17867 net.cpp:372] conv2/relu_3x3_reduce <- conv2/3x3_reduce
I0509 21:50:22.784457 17867 net.cpp:323] conv2/relu_3x3_reduce -> conv2/3x3_reduce (in-place)
I0509 21:50:22.784464 17867 net.cpp:105] Setting up conv2/relu_3x3_reduce
I0509 21:50:22.784471 17867 net.cpp:112] Top shape: 32 64 56 56 (6422528)
I0509 21:50:22.784476 17867 layer_factory.hpp:74] Creating layer conv2/3x3
I0509 21:50:22.784485 17867 net.cpp:76] Creating Layer conv2/3x3
I0509 21:50:22.784490 17867 net.cpp:372] conv2/3x3 <- conv2/3x3_reduce
I0509 21:50:22.784499 17867 net.cpp:334] conv2/3x3 -> conv2/3x3
I0509 21:50:22.784507 17867 net.cpp:105] Setting up conv2/3x3
I0509 21:50:22.785586 17867 net.cpp:112] Top shape: 32 192 56 56 (19267584)
I0509 21:50:22.785616 17867 layer_factory.hpp:74] Creating layer conv2/relu_3x3
I0509 21:50:22.785627 17867 net.cpp:76] Creating Layer conv2/relu_3x3
I0509 21:50:22.785634 17867 net.cpp:372] conv2/relu_3x3 <- conv2/3x3
I0509 21:50:22.785640 17867 net.cpp:323] conv2/relu_3x3 -> conv2/3x3 (in-place)
I0509 21:50:22.785650 17867 net.cpp:105] Setting up conv2/relu_3x3
I0509 21:50:22.785655 17867 net.cpp:112] Top shape: 32 192 56 56 (19267584)
I0509 21:50:22.785660 17867 layer_factory.hpp:74] Creating layer conv2/norm2
I0509 21:50:22.785668 17867 net.cpp:76] Creating Layer conv2/norm2
I0509 21:50:22.785673 17867 net.cpp:372] conv2/norm2 <- conv2/3x3
I0509 21:50:22.785686 17867 net.cpp:334] conv2/norm2 -> conv2/norm2
I0509 21:50:22.785694 17867 net.cpp:105] Setting up conv2/norm2
I0509 21:50:22.785701 17867 net.cpp:112] Top shape: 32 192 56 56 (19267584)
I0509 21:50:22.785707 17867 layer_factory.hpp:74] Creating layer pool2/3x3_s2
I0509 21:50:22.785714 17867 net.cpp:76] Creating Layer pool2/3x3_s2
I0509 21:50:22.785720 17867 net.cpp:372] pool2/3x3_s2 <- conv2/norm2
I0509 21:50:22.785732 17867 net.cpp:334] pool2/3x3_s2 -> pool2/3x3_s2
I0509 21:50:22.785742 17867 net.cpp:105] Setting up pool2/3x3_s2
I0509 21:50:22.785748 17867 net.cpp:112] Top shape: 32 192 28 28 (4816896)
I0509 21:50:22.785754 17867 layer_factory.hpp:74] Creating layer pool2/3x3_s2_pool2/3x3_s2_0_split
I0509 21:50:22.785761 17867 net.cpp:76] Creating Layer pool2/3x3_s2_pool2/3x3_s2_0_split
I0509 21:50:22.785785 17867 net.cpp:372] pool2/3x3_s2_pool2/3x3_s2_0_split <- pool2/3x3_s2
I0509 21:50:22.785794 17867 net.cpp:334] pool2/3x3_s2_pool2/3x3_s2_0_split -> pool2/3x3_s2_pool2/3x3_s2_0_split_0
I0509 21:50:22.785804 17867 net.cpp:334] pool2/3x3_s2_pool2/3x3_s2_0_split -> pool2/3x3_s2_pool2/3x3_s2_0_split_1
I0509 21:50:22.785815 17867 net.cpp:334] pool2/3x3_s2_pool2/3x3_s2_0_split -> pool2/3x3_s2_pool2/3x3_s2_0_split_2
I0509 21:50:22.785823 17867 net.cpp:334] pool2/3x3_s2_pool2/3x3_s2_0_split -> pool2/3x3_s2_pool2/3x3_s2_0_split_3
I0509 21:50:22.785831 17867 net.cpp:105] Setting up pool2/3x3_s2_pool2/3x3_s2_0_split
I0509 21:50:22.785837 17867 net.cpp:112] Top shape: 32 192 28 28 (4816896)
I0509 21:50:22.785843 17867 net.cpp:112] Top shape: 32 192 28 28 (4816896)
I0509 21:50:22.785848 17867 net.cpp:112] Top shape: 32 192 28 28 (4816896)
I0509 21:50:22.785852 17867 net.cpp:112] Top shape: 32 192 28 28 (4816896)
I0509 21:50:22.785858 17867 layer_factory.hpp:74] Creating layer inception_3a/1x1
I0509 21:50:22.785869 17867 net.cpp:76] Creating Layer inception_3a/1x1
I0509 21:50:22.785876 17867 net.cpp:372] inception_3a/1x1 <- pool2/3x3_s2_pool2/3x3_s2_0_split_0
I0509 21:50:22.785883 17867 net.cpp:334] inception_3a/1x1 -> inception_3a/1x1
I0509 21:50:22.785893 17867 net.cpp:105] Setting up inception_3a/1x1
I0509 21:50:22.786011 17867 net.cpp:112] Top shape: 32 64 28 28 (1605632)
I0509 21:50:22.786023 17867 layer_factory.hpp:74] Creating layer inception_3a/relu_1x1
I0509 21:50:22.786031 17867 net.cpp:76] Creating Layer inception_3a/relu_1x1
I0509 21:50:22.786036 17867 net.cpp:372] inception_3a/relu_1x1 <- inception_3a/1x1
I0509 21:50:22.786046 17867 net.cpp:323] inception_3a/relu_1x1 -> inception_3a/1x1 (in-place)
I0509 21:50:22.786053 17867 net.cpp:105] Setting up inception_3a/relu_1x1
I0509 21:50:22.786059 17867 net.cpp:112] Top shape: 32 64 28 28 (1605632)
I0509 21:50:22.786064 17867 layer_factory.hpp:74] Creating layer inception_3a/3x3_reduce
I0509 21:50:22.786072 17867 net.cpp:76] Creating Layer inception_3a/3x3_reduce
I0509 21:50:22.786080 17867 net.cpp:372] inception_3a/3x3_reduce <- pool2/3x3_s2_pool2/3x3_s2_0_split_1
I0509 21:50:22.786088 17867 net.cpp:334] inception_3a/3x3_reduce -> inception_3a/3x3_reduce
I0509 21:50:22.786098 17867 net.cpp:105] Setting up inception_3a/3x3_reduce
I0509 21:50:22.786264 17867 net.cpp:112] Top shape: 32 96 28 28 (2408448)
I0509 21:50:22.786293 17867 layer_factory.hpp:74] Creating layer inception_3a/relu_3x3_reduce
I0509 21:50:22.786306 17867 net.cpp:76] Creating Layer inception_3a/relu_3x3_reduce
I0509 21:50:22.786314 17867 net.cpp:372] inception_3a/relu_3x3_reduce <- inception_3a/3x3_reduce
I0509 21:50:22.786320 17867 net.cpp:323] inception_3a/relu_3x3_reduce -> inception_3a/3x3_reduce (in-place)
I0509 21:50:22.786329 17867 net.cpp:105] Setting up inception_3a/relu_3x3_reduce
I0509 21:50:22.786334 17867 net.cpp:112] Top shape: 32 96 28 28 (2408448)
I0509 21:50:22.786340 17867 layer_factory.hpp:74] Creating layer inception_3a/3x3
I0509 21:50:22.786348 17867 net.cpp:76] Creating Layer inception_3a/3x3
I0509 21:50:22.786356 17867 net.cpp:372] inception_3a/3x3 <- inception_3a/3x3_reduce
I0509 21:50:22.786365 17867 net.cpp:334] inception_3a/3x3 -> inception_3a/3x3
I0509 21:50:22.786373 17867 net.cpp:105] Setting up inception_3a/3x3
I0509 21:50:22.787565 17867 net.cpp:112] Top shape: 32 128 28 28 (3211264)
I0509 21:50:22.787586 17867 layer_factory.hpp:74] Creating layer inception_3a/relu_3x3
I0509 21:50:22.787601 17867 net.cpp:76] Creating Layer inception_3a/relu_3x3
I0509 21:50:22.787612 17867 net.cpp:372] inception_3a/relu_3x3 <- inception_3a/3x3
I0509 21:50:22.787631 17867 net.cpp:323] inception_3a/relu_3x3 -> inception_3a/3x3 (in-place)
I0509 21:50:22.787650 17867 net.cpp:105] Setting up inception_3a/relu_3x3
I0509 21:50:22.787662 17867 net.cpp:112] Top shape: 32 128 28 28 (3211264)
I0509 21:50:22.787667 17867 layer_factory.hpp:74] Creating layer inception_3a/5x5_reduce
I0509 21:50:22.787681 17867 net.cpp:76] Creating Layer inception_3a/5x5_reduce
I0509 21:50:22.787705 17867 net.cpp:372] inception_3a/5x5_reduce <- pool2/3x3_s2_pool2/3x3_s2_0_split_2
I0509 21:50:22.787719 17867 net.cpp:334] inception_3a/5x5_reduce -> inception_3a/5x5_reduce
I0509 21:50:22.787730 17867 net.cpp:105] Setting up inception_3a/5x5_reduce
I0509 21:50:22.787780 17867 net.cpp:112] Top shape: 32 16 28 28 (401408)
I0509 21:50:22.787791 17867 layer_factory.hpp:74] Creating layer inception_3a/relu_5x5_reduce
I0509 21:50:22.787799 17867 net.cpp:76] Creating Layer inception_3a/relu_5x5_reduce
I0509 21:50:22.787806 17867 net.cpp:372] inception_3a/relu_5x5_reduce <- inception_3a/5x5_reduce
I0509 21:50:22.787812 17867 net.cpp:323] inception_3a/relu_5x5_reduce -> inception_3a/5x5_reduce (in-place)
I0509 21:50:22.787819 17867 net.cpp:105] Setting up inception_3a/relu_5x5_reduce
I0509 21:50:22.787825 17867 net.cpp:112] Top shape: 32 16 28 28 (401408)
I0509 21:50:22.787832 17867 layer_factory.hpp:74] Creating layer inception_3a/5x5
I0509 21:50:22.787849 17867 net.cpp:76] Creating Layer inception_3a/5x5
I0509 21:50:22.787863 17867 net.cpp:372] inception_3a/5x5 <- inception_3a/5x5_reduce
I0509 21:50:22.787879 17867 net.cpp:334] inception_3a/5x5 -> inception_3a/5x5
I0509 21:50:22.787897 17867 net.cpp:105] Setting up inception_3a/5x5
I0509 21:50:22.788151 17867 net.cpp:112] Top shape: 32 32 28 28 (802816)
I0509 21:50:22.788173 17867 layer_factory.hpp:74] Creating layer inception_3a/relu_5x5
I0509 21:50:22.788189 17867 net.cpp:76] Creating Layer inception_3a/relu_5x5
I0509 21:50:22.788202 17867 net.cpp:372] inception_3a/relu_5x5 <- inception_3a/5x5
I0509 21:50:22.788215 17867 net.cpp:323] inception_3a/relu_5x5 -> inception_3a/5x5 (in-place)
I0509 21:50:22.788224 17867 net.cpp:105] Setting up inception_3a/relu_5x5
I0509 21:50:22.788230 17867 net.cpp:112] Top shape: 32 32 28 28 (802816)
I0509 21:50:22.788236 17867 layer_factory.hpp:74] Creating layer inception_3a/pool
I0509 21:50:22.788244 17867 net.cpp:76] Creating Layer inception_3a/pool
I0509 21:50:22.788250 17867 net.cpp:372] inception_3a/pool <- pool2/3x3_s2_pool2/3x3_s2_0_split_3
I0509 21:50:22.788259 17867 net.cpp:334] inception_3a/pool -> inception_3a/pool
I0509 21:50:22.788269 17867 net.cpp:105] Setting up inception_3a/pool
I0509 21:50:22.788277 17867 net.cpp:112] Top shape: 32 192 28 28 (4816896)
I0509 21:50:22.788302 17867 layer_factory.hpp:74] Creating layer inception_3a/pool_proj
I0509 21:50:22.788321 17867 net.cpp:76] Creating Layer inception_3a/pool_proj
I0509 21:50:22.788332 17867 net.cpp:372] inception_3a/pool_proj <- inception_3a/pool
I0509 21:50:22.788354 17867 net.cpp:334] inception_3a/pool_proj -> inception_3a/pool_proj
I0509 21:50:22.788373 17867 net.cpp:105] Setting up inception_3a/pool_proj
I0509 21:50:22.788509 17867 net.cpp:112] Top shape: 32 32 28 28 (802816)
I0509 21:50:22.788530 17867 layer_factory.hpp:74] Creating layer inception_3a/relu_pool_proj
I0509 21:50:22.788539 17867 net.cpp:76] Creating Layer inception_3a/relu_pool_proj
I0509 21:50:22.788545 17867 net.cpp:372] inception_3a/relu_pool_proj <- inception_3a/pool_proj
I0509 21:50:22.788552 17867 net.cpp:323] inception_3a/relu_pool_proj -> inception_3a/pool_proj (in-place)
I0509 21:50:22.788560 17867 net.cpp:105] Setting up inception_3a/relu_pool_proj
I0509 21:50:22.788566 17867 net.cpp:112] Top shape: 32 32 28 28 (802816)
I0509 21:50:22.788571 17867 layer_factory.hpp:74] Creating layer inception_3a/output
I0509 21:50:22.788584 17867 net.cpp:76] Creating Layer inception_3a/output
I0509 21:50:22.788596 17867 net.cpp:372] inception_3a/output <- inception_3a/1x1
I0509 21:50:22.788607 17867 net.cpp:372] inception_3a/output <- inception_3a/3x3
I0509 21:50:22.788614 17867 net.cpp:372] inception_3a/output <- inception_3a/5x5
I0509 21:50:22.788622 17867 net.cpp:372] inception_3a/output <- inception_3a/pool_proj
I0509 21:50:22.788637 17867 net.cpp:334] inception_3a/output -> inception_3a/output
I0509 21:50:22.788655 17867 net.cpp:105] Setting up inception_3a/output
I0509 21:50:22.788671 17867 net.cpp:112] Top shape: 32 256 28 28 (6422528)
I0509 21:50:22.788681 17867 layer_factory.hpp:74] Creating layer inception_3a/output_inception_3a/output_0_split
I0509 21:50:22.788717 17867 net.cpp:76] Creating Layer inception_3a/output_inception_3a/output_0_split
I0509 21:50:22.788732 17867 net.cpp:372] inception_3a/output_inception_3a/output_0_split <- inception_3a/output
I0509 21:50:22.788753 17867 net.cpp:334] inception_3a/output_inception_3a/output_0_split -> inception_3a/output_inception_3a/output_0_split_0
I0509 21:50:22.788774 17867 net.cpp:334] inception_3a/output_inception_3a/output_0_split -> inception_3a/output_inception_3a/output_0_split_1
I0509 21:50:22.788796 17867 net.cpp:334] inception_3a/output_inception_3a/output_0_split -> inception_3a/output_inception_3a/output_0_split_2
I0509 21:50:22.788810 17867 net.cpp:334] inception_3a/output_inception_3a/output_0_split -> inception_3a/output_inception_3a/output_0_split_3
I0509 21:50:22.788820 17867 net.cpp:105] Setting up inception_3a/output_inception_3a/output_0_split
I0509 21:50:22.788828 17867 net.cpp:112] Top shape: 32 256 28 28 (6422528)
I0509 21:50:22.789387 17867 net.cpp:112] Top shape: 32 256 28 28 (6422528)
I0509 21:50:22.789402 17867 net.cpp:112] Top shape: 32 256 28 28 (6422528)
I0509 21:50:22.789410 17867 net.cpp:112] Top shape: 32 256 28 28 (6422528)
I0509 21:50:22.789422 17867 layer_factory.hpp:74] Creating layer inception_3b/1x1
I0509 21:50:22.789445 17867 net.cpp:76] Creating Layer inception_3b/1x1
I0509 21:50:22.789458 17867 net.cpp:372] inception_3b/1x1 <- inception_3a/output_inception_3a/output_0_split_0
I0509 21:50:22.789475 17867 net.cpp:334] inception_3b/1x1 -> inception_3b/1x1
I0509 21:50:22.789494 17867 net.cpp:105] Setting up inception_3b/1x1
I0509 21:50:22.790122 17867 net.cpp:112] Top shape: 32 128 28 28 (3211264)
I0509 21:50:22.790138 17867 layer_factory.hpp:74] Creating layer inception_3b/relu_1x1
I0509 21:50:22.790148 17867 net.cpp:76] Creating Layer inception_3b/relu_1x1
I0509 21:50:22.790154 17867 net.cpp:372] inception_3b/relu_1x1 <- inception_3b/1x1
I0509 21:50:22.790163 17867 net.cpp:323] inception_3b/relu_1x1 -> inception_3b/1x1 (in-place)
I0509 21:50:22.790170 17867 net.cpp:105] Setting up inception_3b/relu_1x1
I0509 21:50:22.790176 17867 net.cpp:112] Top shape: 32 128 28 28 (3211264)
I0509 21:50:22.790181 17867 layer_factory.hpp:74] Creating layer inception_3b/3x3_reduce
I0509 21:50:22.790192 17867 net.cpp:76] Creating Layer inception_3b/3x3_reduce
I0509 21:50:22.790197 17867 net.cpp:372] inception_3b/3x3_reduce <- inception_3a/output_inception_3a/output_0_split_1
I0509 21:50:22.790207 17867 net.cpp:334] inception_3b/3x3_reduce -> inception_3b/3x3_reduce
I0509 21:50:22.790221 17867 net.cpp:105] Setting up inception_3b/3x3_reduce
I0509 21:50:22.790665 17867 net.cpp:112] Top shape: 32 128 28 28 (3211264)
I0509 21:50:22.790683 17867 layer_factory.hpp:74] Creating layer inception_3b/relu_3x3_reduce
I0509 21:50:22.790691 17867 net.cpp:76] Creating Layer inception_3b/relu_3x3_reduce
I0509 21:50:22.790698 17867 net.cpp:372] inception_3b/relu_3x3_reduce <- inception_3b/3x3_reduce
I0509 21:50:22.790707 17867 net.cpp:323] inception_3b/relu_3x3_reduce -> inception_3b/3x3_reduce (in-place)
I0509 21:50:22.790716 17867 net.cpp:105] Setting up inception_3b/relu_3x3_reduce
I0509 21:50:22.790721 17867 net.cpp:112] Top shape: 32 128 28 28 (3211264)
I0509 21:50:22.790727 17867 layer_factory.hpp:74] Creating layer inception_3b/3x3
I0509 21:50:22.790740 17867 net.cpp:76] Creating Layer inception_3b/3x3
I0509 21:50:22.790747 17867 net.cpp:372] inception_3b/3x3 <- inception_3b/3x3_reduce
I0509 21:50:22.790755 17867 net.cpp:334] inception_3b/3x3 -> inception_3b/3x3
I0509 21:50:22.790765 17867 net.cpp:105] Setting up inception_3b/3x3
I0509 21:50:22.792973 17867 net.cpp:112] Top shape: 32 192 28 28 (4816896)
I0509 21:50:22.792996 17867 layer_factory.hpp:74] Creating layer inception_3b/relu_3x3
I0509 21:50:22.793009 17867 net.cpp:76] Creating Layer inception_3b/relu_3x3
I0509 21:50:22.793015 17867 net.cpp:372] inception_3b/relu_3x3 <- inception_3b/3x3
I0509 21:50:22.793023 17867 net.cpp:323] inception_3b/relu_3x3 -> inception_3b/3x3 (in-place)
I0509 21:50:22.793059 17867 net.cpp:105] Setting up inception_3b/relu_3x3
I0509 21:50:22.793066 17867 net.cpp:112] Top shape: 32 192 28 28 (4816896)
I0509 21:50:22.793072 17867 layer_factory.hpp:74] Creating layer inception_3b/5x5_reduce
I0509 21:50:22.793083 17867 net.cpp:76] Creating Layer inception_3b/5x5_reduce
I0509 21:50:22.793089 17867 net.cpp:372] inception_3b/5x5_reduce <- inception_3a/output_inception_3a/output_0_split_2
I0509 21:50:22.793098 17867 net.cpp:334] inception_3b/5x5_reduce -> inception_3b/5x5_reduce
I0509 21:50:22.793107 17867 net.cpp:105] Setting up inception_3b/5x5_reduce
I0509 21:50:22.793190 17867 net.cpp:112] Top shape: 32 32 28 28 (802816)
I0509 21:50:22.793200 17867 layer_factory.hpp:74] Creating layer inception_3b/relu_5x5_reduce
I0509 21:50:22.793208 17867 net.cpp:76] Creating Layer inception_3b/relu_5x5_reduce
I0509 21:50:22.793213 17867 net.cpp:372] inception_3b/relu_5x5_reduce <- inception_3b/5x5_reduce
I0509 21:50:22.793222 17867 net.cpp:323] inception_3b/relu_5x5_reduce -> inception_3b/5x5_reduce (in-place)
I0509 21:50:22.793231 17867 net.cpp:105] Setting up inception_3b/relu_5x5_reduce
I0509 21:50:22.793236 17867 net.cpp:112] Top shape: 32 32 28 28 (802816)
I0509 21:50:22.793242 17867 layer_factory.hpp:74] Creating layer inception_3b/5x5
I0509 21:50:22.793251 17867 net.cpp:76] Creating Layer inception_3b/5x5
I0509 21:50:22.793256 17867 net.cpp:372] inception_3b/5x5 <- inception_3b/5x5_reduce
I0509 21:50:22.793280 17867 net.cpp:334] inception_3b/5x5 -> inception_3b/5x5
I0509 21:50:22.793297 17867 net.cpp:105] Setting up inception_3b/5x5
I0509 21:50:22.794001 17867 net.cpp:112] Top shape: 32 96 28 28 (2408448)
I0509 21:50:22.794016 17867 layer_factory.hpp:74] Creating layer inception_3b/relu_5x5
I0509 21:50:22.794025 17867 net.cpp:76] Creating Layer inception_3b/relu_5x5
I0509 21:50:22.794031 17867 net.cpp:372] inception_3b/relu_5x5 <- inception_3b/5x5
I0509 21:50:22.794041 17867 net.cpp:323] inception_3b/relu_5x5 -> inception_3b/5x5 (in-place)
I0509 21:50:22.794049 17867 net.cpp:105] Setting up inception_3b/relu_5x5
I0509 21:50:22.794055 17867 net.cpp:112] Top shape: 32 96 28 28 (2408448)
I0509 21:50:22.794060 17867 layer_factory.hpp:74] Creating layer inception_3b/pool
I0509 21:50:22.794070 17867 net.cpp:76] Creating Layer inception_3b/pool
I0509 21:50:22.794075 17867 net.cpp:372] inception_3b/pool <- inception_3a/output_inception_3a/output_0_split_3
I0509 21:50:22.794085 17867 net.cpp:334] inception_3b/pool -> inception_3b/pool
I0509 21:50:22.794093 17867 net.cpp:105] Setting up inception_3b/pool
I0509 21:50:22.794102 17867 net.cpp:112] Top shape: 32 256 28 28 (6422528)
I0509 21:50:22.794107 17867 layer_factory.hpp:74] Creating layer inception_3b/pool_proj
I0509 21:50:22.794121 17867 net.cpp:76] Creating Layer inception_3b/pool_proj
I0509 21:50:22.794131 17867 net.cpp:372] inception_3b/pool_proj <- inception_3b/pool
I0509 21:50:22.794143 17867 net.cpp:334] inception_3b/pool_proj -> inception_3b/pool_proj
I0509 21:50:22.794154 17867 net.cpp:105] Setting up inception_3b/pool_proj
I0509 21:50:22.794322 17867 net.cpp:112] Top shape: 32 64 28 28 (1605632)
I0509 21:50:22.794335 17867 layer_factory.hpp:74] Creating layer inception_3b/relu_pool_proj
I0509 21:50:22.794343 17867 net.cpp:76] Creating Layer inception_3b/relu_pool_proj
I0509 21:50:22.794349 17867 net.cpp:372] inception_3b/relu_pool_proj <- inception_3b/pool_proj
I0509 21:50:22.794358 17867 net.cpp:323] inception_3b/relu_pool_proj -> inception_3b/pool_proj (in-place)
I0509 21:50:22.794365 17867 net.cpp:105] Setting up inception_3b/relu_pool_proj
I0509 21:50:22.794370 17867 net.cpp:112] Top shape: 32 64 28 28 (1605632)
I0509 21:50:22.794376 17867 layer_factory.hpp:74] Creating layer inception_3b/output
I0509 21:50:22.794385 17867 net.cpp:76] Creating Layer inception_3b/output
I0509 21:50:22.794391 17867 net.cpp:372] inception_3b/output <- inception_3b/1x1
I0509 21:50:22.794399 17867 net.cpp:372] inception_3b/output <- inception_3b/3x3
I0509 21:50:22.794404 17867 net.cpp:372] inception_3b/output <- inception_3b/5x5
I0509 21:50:22.794426 17867 net.cpp:372] inception_3b/output <- inception_3b/pool_proj
I0509 21:50:22.794435 17867 net.cpp:334] inception_3b/output -> inception_3b/output
I0509 21:50:22.794443 17867 net.cpp:105] Setting up inception_3b/output
I0509 21:50:22.794450 17867 net.cpp:112] Top shape: 32 480 28 28 (12042240)
I0509 21:50:22.794456 17867 layer_factory.hpp:74] Creating layer pool3/3x3_s2
I0509 21:50:22.794463 17867 net.cpp:76] Creating Layer pool3/3x3_s2
I0509 21:50:22.794469 17867 net.cpp:372] pool3/3x3_s2 <- inception_3b/output
I0509 21:50:22.794479 17867 net.cpp:334] pool3/3x3_s2 -> pool3/3x3_s2
I0509 21:50:22.794488 17867 net.cpp:105] Setting up pool3/3x3_s2
I0509 21:50:22.794495 17867 net.cpp:112] Top shape: 32 480 14 14 (3010560)
I0509 21:50:22.794502 17867 layer_factory.hpp:74] Creating layer pool3/3x3_s2_pool3/3x3_s2_0_split
I0509 21:50:22.794509 17867 net.cpp:76] Creating Layer pool3/3x3_s2_pool3/3x3_s2_0_split
I0509 21:50:22.794514 17867 net.cpp:372] pool3/3x3_s2_pool3/3x3_s2_0_split <- pool3/3x3_s2
I0509 21:50:22.794522 17867 net.cpp:334] pool3/3x3_s2_pool3/3x3_s2_0_split -> pool3/3x3_s2_pool3/3x3_s2_0_split_0
I0509 21:50:22.794533 17867 net.cpp:334] pool3/3x3_s2_pool3/3x3_s2_0_split -> pool3/3x3_s2_pool3/3x3_s2_0_split_1
I0509 21:50:22.794541 17867 net.cpp:334] pool3/3x3_s2_pool3/3x3_s2_0_split -> pool3/3x3_s2_pool3/3x3_s2_0_split_2
I0509 21:50:22.794550 17867 net.cpp:334] pool3/3x3_s2_pool3/3x3_s2_0_split -> pool3/3x3_s2_pool3/3x3_s2_0_split_3
I0509 21:50:22.794558 17867 net.cpp:105] Setting up pool3/3x3_s2_pool3/3x3_s2_0_split
I0509 21:50:22.794564 17867 net.cpp:112] Top shape: 32 480 14 14 (3010560)
I0509 21:50:22.794570 17867 net.cpp:112] Top shape: 32 480 14 14 (3010560)
I0509 21:50:22.794574 17867 net.cpp:112] Top shape: 32 480 14 14 (3010560)
I0509 21:50:22.794579 17867 net.cpp:112] Top shape: 32 480 14 14 (3010560)
I0509 21:50:22.794584 17867 layer_factory.hpp:74] Creating layer inception_4a/1x1
I0509 21:50:22.794596 17867 net.cpp:76] Creating Layer inception_4a/1x1
I0509 21:50:22.794602 17867 net.cpp:372] inception_4a/1x1 <- pool3/3x3_s2_pool3/3x3_s2_0_split_0
I0509 21:50:22.794613 17867 net.cpp:334] inception_4a/1x1 -> inception_4a/1x1
I0509 21:50:22.794622 17867 net.cpp:105] Setting up inception_4a/1x1
I0509 21:50:22.795430 17867 net.cpp:112] Top shape: 32 192 14 14 (1204224)
I0509 21:50:22.795445 17867 layer_factory.hpp:74] Creating layer inception_4a/relu_1x1
I0509 21:50:22.795454 17867 net.cpp:76] Creating Layer inception_4a/relu_1x1
I0509 21:50:22.795480 17867 net.cpp:372] inception_4a/relu_1x1 <- inception_4a/1x1
I0509 21:50:22.795492 17867 net.cpp:323] inception_4a/relu_1x1 -> inception_4a/1x1 (in-place)
I0509 21:50:22.795501 17867 net.cpp:105] Setting up inception_4a/relu_1x1
I0509 21:50:22.795506 17867 net.cpp:112] Top shape: 32 192 14 14 (1204224)
I0509 21:50:22.795512 17867 layer_factory.hpp:74] Creating layer inception_4a/3x3_reduce
I0509 21:50:22.795521 17867 net.cpp:76] Creating Layer inception_4a/3x3_reduce
I0509 21:50:22.795526 17867 net.cpp:372] inception_4a/3x3_reduce <- pool3/3x3_s2_pool3/3x3_s2_0_split_1
I0509 21:50:22.795538 17867 net.cpp:334] inception_4a/3x3_reduce -> inception_4a/3x3_reduce
I0509 21:50:22.795547 17867 net.cpp:105] Setting up inception_4a/3x3_reduce
I0509 21:50:22.795953 17867 net.cpp:112] Top shape: 32 96 14 14 (602112)
I0509 21:50:22.795975 17867 layer_factory.hpp:74] Creating layer inception_4a/relu_3x3_reduce
I0509 21:50:22.795984 17867 net.cpp:76] Creating Layer inception_4a/relu_3x3_reduce
I0509 21:50:22.795989 17867 net.cpp:372] inception_4a/relu_3x3_reduce <- inception_4a/3x3_reduce
I0509 21:50:22.795996 17867 net.cpp:323] inception_4a/relu_3x3_reduce -> inception_4a/3x3_reduce (in-place)
I0509 21:50:22.796005 17867 net.cpp:105] Setting up inception_4a/relu_3x3_reduce
I0509 21:50:22.796010 17867 net.cpp:112] Top shape: 32 96 14 14 (602112)
I0509 21:50:22.796015 17867 layer_factory.hpp:74] Creating layer inception_4a/3x3
I0509 21:50:22.796023 17867 net.cpp:76] Creating Layer inception_4a/3x3
I0509 21:50:22.796028 17867 net.cpp:372] inception_4a/3x3 <- inception_4a/3x3_reduce
I0509 21:50:22.796056 17867 net.cpp:334] inception_4a/3x3 -> inception_4a/3x3
I0509 21:50:22.796066 17867 net.cpp:105] Setting up inception_4a/3x3
I0509 21:50:22.797615 17867 net.cpp:112] Top shape: 32 208 14 14 (1304576)
I0509 21:50:22.797633 17867 layer_factory.hpp:74] Creating layer inception_4a/relu_3x3
I0509 21:50:22.797642 17867 net.cpp:76] Creating Layer inception_4a/relu_3x3
I0509 21:50:22.797648 17867 net.cpp:372] inception_4a/relu_3x3 <- inception_4a/3x3
I0509 21:50:22.797659 17867 net.cpp:323] inception_4a/relu_3x3 -> inception_4a/3x3 (in-place)
I0509 21:50:22.797668 17867 net.cpp:105] Setting up inception_4a/relu_3x3
I0509 21:50:22.797674 17867 net.cpp:112] Top shape: 32 208 14 14 (1304576)
I0509 21:50:22.797679 17867 layer_factory.hpp:74] Creating layer inception_4a/5x5_reduce
I0509 21:50:22.797688 17867 net.cpp:76] Creating Layer inception_4a/5x5_reduce
I0509 21:50:22.797694 17867 net.cpp:372] inception_4a/5x5_reduce <- pool3/3x3_s2_pool3/3x3_s2_0_split_2
I0509 21:50:22.797704 17867 net.cpp:334] inception_4a/5x5_reduce -> inception_4a/5x5_reduce
I0509 21:50:22.797714 17867 net.cpp:105] Setting up inception_4a/5x5_reduce
I0509 21:50:22.797787 17867 net.cpp:112] Top shape: 32 16 14 14 (100352)
I0509 21:50:22.797797 17867 layer_factory.hpp:74] Creating layer inception_4a/relu_5x5_reduce
I0509 21:50:22.797819 17867 net.cpp:76] Creating Layer inception_4a/relu_5x5_reduce
I0509 21:50:22.797827 17867 net.cpp:372] inception_4a/relu_5x5_reduce <- inception_4a/5x5_reduce
I0509 21:50:22.797834 17867 net.cpp:323] inception_4a/relu_5x5_reduce -> inception_4a/5x5_reduce (in-place)
I0509 21:50:22.797842 17867 net.cpp:105] Setting up inception_4a/relu_5x5_reduce
I0509 21:50:22.797847 17867 net.cpp:112] Top shape: 32 16 14 14 (100352)
I0509 21:50:22.797853 17867 layer_factory.hpp:74] Creating layer inception_4a/5x5
I0509 21:50:22.797871 17867 net.cpp:76] Creating Layer inception_4a/5x5
I0509 21:50:22.797879 17867 net.cpp:372] inception_4a/5x5 <- inception_4a/5x5_reduce
I0509 21:50:22.797888 17867 net.cpp:334] inception_4a/5x5 -> inception_4a/5x5
I0509 21:50:22.797896 17867 net.cpp:105] Setting up inception_4a/5x5
I0509 21:50:22.798075 17867 net.cpp:112] Top shape: 32 48 14 14 (301056)
I0509 21:50:22.798087 17867 layer_factory.hpp:74] Creating layer inception_4a/relu_5x5
I0509 21:50:22.798097 17867 net.cpp:76] Creating Layer inception_4a/relu_5x5
I0509 21:50:22.800709 17867 net.cpp:372] inception_4a/relu_5x5 <- inception_4a/5x5
I0509 21:50:22.800729 17867 net.cpp:323] inception_4a/relu_5x5 -> inception_4a/5x5 (in-place)
I0509 21:50:22.800739 17867 net.cpp:105] Setting up inception_4a/relu_5x5
I0509 21:50:22.800745 17867 net.cpp:112] Top shape: 32 48 14 14 (301056)
I0509 21:50:22.800751 17867 layer_factory.hpp:74] Creating layer inception_4a/pool
I0509 21:50:22.800760 17867 net.cpp:76] Creating Layer inception_4a/pool
I0509 21:50:22.800767 17867 net.cpp:372] inception_4a/pool <- pool3/3x3_s2_pool3/3x3_s2_0_split_3
I0509 21:50:22.800779 17867 net.cpp:334] inception_4a/pool -> inception_4a/pool
I0509 21:50:22.800789 17867 net.cpp:105] Setting up inception_4a/pool
I0509 21:50:22.800797 17867 net.cpp:112] Top shape: 32 480 14 14 (3010560)
I0509 21:50:22.800803 17867 layer_factory.hpp:74] Creating layer inception_4a/pool_proj
I0509 21:50:22.800813 17867 net.cpp:76] Creating Layer inception_4a/pool_proj
I0509 21:50:22.800818 17867 net.cpp:372] inception_4a/pool_proj <- inception_4a/pool
I0509 21:50:22.800829 17867 net.cpp:334] inception_4a/pool_proj -> inception_4a/pool_proj
I0509 21:50:22.800848 17867 net.cpp:105] Setting up inception_4a/pool_proj
I0509 21:50:22.801122 17867 net.cpp:112] Top shape: 32 64 14 14 (401408)
I0509 21:50:22.801136 17867 layer_factory.hpp:74] Creating layer inception_4a/relu_pool_proj
I0509 21:50:22.801146 17867 net.cpp:76] Creating Layer inception_4a/relu_pool_proj
I0509 21:50:22.801153 17867 net.cpp:372] inception_4a/relu_pool_proj <- inception_4a/pool_proj
I0509 21:50:22.801161 17867 net.cpp:323] inception_4a/relu_pool_proj -> inception_4a/pool_proj (in-place)
I0509 21:50:22.801200 17867 net.cpp:105] Setting up inception_4a/relu_pool_proj
I0509 21:50:22.801208 17867 net.cpp:112] Top shape: 32 64 14 14 (401408)
I0509 21:50:22.801213 17867 layer_factory.hpp:74] Creating layer inception_4a/output
I0509 21:50:22.801225 17867 net.cpp:76] Creating Layer inception_4a/output
I0509 21:50:22.801231 17867 net.cpp:372] inception_4a/output <- inception_4a/1x1
I0509 21:50:22.801239 17867 net.cpp:372] inception_4a/output <- inception_4a/3x3
I0509 21:50:22.801244 17867 net.cpp:372] inception_4a/output <- inception_4a/5x5
I0509 21:50:22.801250 17867 net.cpp:372] inception_4a/output <- inception_4a/pool_proj
I0509 21:50:22.801260 17867 net.cpp:334] inception_4a/output -> inception_4a/output
I0509 21:50:22.801282 17867 net.cpp:105] Setting up inception_4a/output
I0509 21:50:22.801291 17867 net.cpp:112] Top shape: 32 512 14 14 (3211264)
I0509 21:50:22.801297 17867 layer_factory.hpp:74] Creating layer inception_4a/output_inception_4a/output_0_split
I0509 21:50:22.801306 17867 net.cpp:76] Creating Layer inception_4a/output_inception_4a/output_0_split
I0509 21:50:22.801312 17867 net.cpp:372] inception_4a/output_inception_4a/output_0_split <- inception_4a/output
I0509 21:50:22.801322 17867 net.cpp:334] inception_4a/output_inception_4a/output_0_split -> inception_4a/output_inception_4a/output_0_split_0
I0509 21:50:22.801332 17867 net.cpp:334] inception_4a/output_inception_4a/output_0_split -> inception_4a/output_inception_4a/output_0_split_1
I0509 21:50:22.801342 17867 net.cpp:334] inception_4a/output_inception_4a/output_0_split -> inception_4a/output_inception_4a/output_0_split_2
I0509 21:50:22.801350 17867 net.cpp:334] inception_4a/output_inception_4a/output_0_split -> inception_4a/output_inception_4a/output_0_split_3
I0509 21:50:22.801358 17867 net.cpp:334] inception_4a/output_inception_4a/output_0_split -> inception_4a/output_inception_4a/output_0_split_4
I0509 21:50:22.801367 17867 net.cpp:105] Setting up inception_4a/output_inception_4a/output_0_split
I0509 21:50:22.801374 17867 net.cpp:112] Top shape: 32 512 14 14 (3211264)
I0509 21:50:22.802434 17867 net.cpp:112] Top shape: 32 512 14 14 (3211264)
I0509 21:50:22.802449 17867 net.cpp:112] Top shape: 32 512 14 14 (3211264)
I0509 21:50:22.802459 17867 net.cpp:112] Top shape: 32 512 14 14 (3211264)
I0509 21:50:22.802469 17867 net.cpp:112] Top shape: 32 512 14 14 (3211264)
I0509 21:50:22.802482 17867 layer_factory.hpp:74] Creating layer loss1/ave_pool
I0509 21:50:22.802500 17867 net.cpp:76] Creating Layer loss1/ave_pool
I0509 21:50:22.802507 17867 net.cpp:372] loss1/ave_pool <- inception_4a/output_inception_4a/output_0_split_0
I0509 21:50:22.802517 17867 net.cpp:334] loss1/ave_pool -> loss1/ave_pool
I0509 21:50:22.802527 17867 net.cpp:105] Setting up loss1/ave_pool
I0509 21:50:22.802534 17867 net.cpp:112] Top shape: 32 512 4 4 (262144)
I0509 21:50:22.802541 17867 layer_factory.hpp:74] Creating layer loss1/conv
I0509 21:50:22.802553 17867 net.cpp:76] Creating Layer loss1/conv
I0509 21:50:22.802561 17867 net.cpp:372] loss1/conv <- loss1/ave_pool
I0509 21:50:22.802567 17867 net.cpp:334] loss1/conv -> loss1/conv
I0509 21:50:22.802577 17867 net.cpp:105] Setting up loss1/conv
I0509 21:50:22.803172 17867 net.cpp:112] Top shape: 32 128 4 4 (65536)
I0509 21:50:22.803190 17867 layer_factory.hpp:74] Creating layer loss1/relu_conv
I0509 21:50:22.803200 17867 net.cpp:76] Creating Layer loss1/relu_conv
I0509 21:50:22.803205 17867 net.cpp:372] loss1/relu_conv <- loss1/conv
I0509 21:50:22.803213 17867 net.cpp:323] loss1/relu_conv -> loss1/conv (in-place)
I0509 21:50:22.803223 17867 net.cpp:105] Setting up loss1/relu_conv
I0509 21:50:22.803230 17867 net.cpp:112] Top shape: 32 128 4 4 (65536)
I0509 21:50:22.803235 17867 layer_factory.hpp:74] Creating layer loss1/fc
I0509 21:50:22.803247 17867 net.cpp:76] Creating Layer loss1/fc
I0509 21:50:22.803252 17867 net.cpp:372] loss1/fc <- loss1/conv
I0509 21:50:22.803261 17867 net.cpp:334] loss1/fc -> loss1/fc
I0509 21:50:22.803287 17867 net.cpp:105] Setting up loss1/fc
I0509 21:50:22.822288 17867 net.cpp:112] Top shape: 32 1024 1 1 (32768)
I0509 21:50:22.822396 17867 layer_factory.hpp:74] Creating layer loss1/relu_fc
I0509 21:50:22.822423 17867 net.cpp:76] Creating Layer loss1/relu_fc
I0509 21:50:22.822439 17867 net.cpp:372] loss1/relu_fc <- loss1/fc
I0509 21:50:22.822458 17867 net.cpp:323] loss1/relu_fc -> loss1/fc (in-place)
I0509 21:50:22.822469 17867 net.cpp:105] Setting up loss1/relu_fc
I0509 21:50:22.822476 17867 net.cpp:112] Top shape: 32 1024 1 1 (32768)
I0509 21:50:22.822482 17867 layer_factory.hpp:74] Creating layer loss1/drop_fc
I0509 21:50:22.822507 17867 net.cpp:76] Creating Layer loss1/drop_fc
I0509 21:50:22.822513 17867 net.cpp:372] loss1/drop_fc <- loss1/fc
I0509 21:50:22.822521 17867 net.cpp:323] loss1/drop_fc -> loss1/fc (in-place)
I0509 21:50:22.822533 17867 net.cpp:105] Setting up loss1/drop_fc
I0509 21:50:22.822543 17867 net.cpp:112] Top shape: 32 1024 1 1 (32768)
I0509 21:50:22.822551 17867 layer_factory.hpp:74] Creating layer loss1/classifier
I0509 21:50:22.822566 17867 net.cpp:76] Creating Layer loss1/classifier
I0509 21:50:22.822571 17867 net.cpp:372] loss1/classifier <- loss1/fc
I0509 21:50:22.822582 17867 net.cpp:334] loss1/classifier -> loss1/classifier
I0509 21:50:22.822592 17867 net.cpp:105] Setting up loss1/classifier
I0509 21:50:22.822626 17867 net.cpp:112] Top shape: 32 2 1 1 (64)
I0509 21:50:22.822638 17867 layer_factory.hpp:74] Creating layer loss1/loss
I0509 21:50:22.822651 17867 net.cpp:76] Creating Layer loss1/loss
I0509 21:50:22.822664 17867 net.cpp:372] loss1/loss <- loss1/classifier
I0509 21:50:22.822676 17867 net.cpp:372] loss1/loss <- label_data_1_split_0
I0509 21:50:22.822693 17867 net.cpp:334] loss1/loss -> loss1/loss1
I0509 21:50:22.822711 17867 net.cpp:105] Setting up loss1/loss
I0509 21:50:22.822726 17867 layer_factory.hpp:74] Creating layer loss1/loss
I0509 21:50:22.822747 17867 net.cpp:112] Top shape: 1 1 1 1 (1)
I0509 21:50:22.822757 17867 net.cpp:118]     with loss weight 0.3
I0509 21:50:22.822813 17867 layer_factory.hpp:74] Creating layer inception_4b/1x1
I0509 21:50:22.822826 17867 net.cpp:76] Creating Layer inception_4b/1x1
I0509 21:50:22.822834 17867 net.cpp:372] inception_4b/1x1 <- inception_4a/output_inception_4a/output_0_split_1
I0509 21:50:22.822846 17867 net.cpp:334] inception_4b/1x1 -> inception_4b/1x1
I0509 21:50:22.822857 17867 net.cpp:105] Setting up inception_4b/1x1
I0509 21:50:22.823720 17867 net.cpp:112] Top shape: 32 160 14 14 (1003520)
I0509 21:50:22.823742 17867 layer_factory.hpp:74] Creating layer inception_4b/relu_1x1
I0509 21:50:22.823752 17867 net.cpp:76] Creating Layer inception_4b/relu_1x1
I0509 21:50:22.823758 17867 net.cpp:372] inception_4b/relu_1x1 <- inception_4b/1x1
I0509 21:50:22.823766 17867 net.cpp:323] inception_4b/relu_1x1 -> inception_4b/1x1 (in-place)
I0509 21:50:22.823775 17867 net.cpp:105] Setting up inception_4b/relu_1x1
I0509 21:50:22.823779 17867 net.cpp:112] Top shape: 32 160 14 14 (1003520)
I0509 21:50:22.823784 17867 layer_factory.hpp:74] Creating layer inception_4b/3x3_reduce
I0509 21:50:22.823797 17867 net.cpp:76] Creating Layer inception_4b/3x3_reduce
I0509 21:50:22.823807 17867 net.cpp:372] inception_4b/3x3_reduce <- inception_4a/output_inception_4a/output_0_split_2
I0509 21:50:22.823823 17867 net.cpp:334] inception_4b/3x3_reduce -> inception_4b/3x3_reduce
I0509 21:50:22.823848 17867 net.cpp:105] Setting up inception_4b/3x3_reduce
I0509 21:50:22.824426 17867 net.cpp:112] Top shape: 32 112 14 14 (702464)
I0509 21:50:22.824442 17867 layer_factory.hpp:74] Creating layer inception_4b/relu_3x3_reduce
I0509 21:50:22.824451 17867 net.cpp:76] Creating Layer inception_4b/relu_3x3_reduce
I0509 21:50:22.824457 17867 net.cpp:372] inception_4b/relu_3x3_reduce <- inception_4b/3x3_reduce
I0509 21:50:22.824467 17867 net.cpp:323] inception_4b/relu_3x3_reduce -> inception_4b/3x3_reduce (in-place)
I0509 21:50:22.824476 17867 net.cpp:105] Setting up inception_4b/relu_3x3_reduce
I0509 21:50:22.824482 17867 net.cpp:112] Top shape: 32 112 14 14 (702464)
I0509 21:50:22.824487 17867 layer_factory.hpp:74] Creating layer inception_4b/3x3
I0509 21:50:22.824496 17867 net.cpp:76] Creating Layer inception_4b/3x3
I0509 21:50:22.824517 17867 net.cpp:372] inception_4b/3x3 <- inception_4b/3x3_reduce
I0509 21:50:22.824528 17867 net.cpp:334] inception_4b/3x3 -> inception_4b/3x3
I0509 21:50:22.824538 17867 net.cpp:105] Setting up inception_4b/3x3
I0509 21:50:22.826563 17867 net.cpp:112] Top shape: 32 224 14 14 (1404928)
I0509 21:50:22.826598 17867 layer_factory.hpp:74] Creating layer inception_4b/relu_3x3
I0509 21:50:22.826616 17867 net.cpp:76] Creating Layer inception_4b/relu_3x3
I0509 21:50:22.826628 17867 net.cpp:372] inception_4b/relu_3x3 <- inception_4b/3x3
I0509 21:50:22.826647 17867 net.cpp:323] inception_4b/relu_3x3 -> inception_4b/3x3 (in-place)
I0509 21:50:22.826664 17867 net.cpp:105] Setting up inception_4b/relu_3x3
I0509 21:50:22.826671 17867 net.cpp:112] Top shape: 32 224 14 14 (1404928)
I0509 21:50:22.826678 17867 layer_factory.hpp:74] Creating layer inception_4b/5x5_reduce
I0509 21:50:22.826686 17867 net.cpp:76] Creating Layer inception_4b/5x5_reduce
I0509 21:50:22.826692 17867 net.cpp:372] inception_4b/5x5_reduce <- inception_4a/output_inception_4a/output_0_split_3
I0509 21:50:22.826704 17867 net.cpp:334] inception_4b/5x5_reduce -> inception_4b/5x5_reduce
I0509 21:50:22.826714 17867 net.cpp:105] Setting up inception_4b/5x5_reduce
I0509 21:50:22.826827 17867 net.cpp:112] Top shape: 32 24 14 14 (150528)
I0509 21:50:22.826838 17867 layer_factory.hpp:74] Creating layer inception_4b/relu_5x5_reduce
I0509 21:50:22.826848 17867 net.cpp:76] Creating Layer inception_4b/relu_5x5_reduce
I0509 21:50:22.826855 17867 net.cpp:372] inception_4b/relu_5x5_reduce <- inception_4b/5x5_reduce
I0509 21:50:22.826863 17867 net.cpp:323] inception_4b/relu_5x5_reduce -> inception_4b/5x5_reduce (in-place)
I0509 21:50:22.826870 17867 net.cpp:105] Setting up inception_4b/relu_5x5_reduce
I0509 21:50:22.826875 17867 net.cpp:112] Top shape: 32 24 14 14 (150528)
I0509 21:50:22.826881 17867 layer_factory.hpp:74] Creating layer inception_4b/5x5
I0509 21:50:22.826891 17867 net.cpp:76] Creating Layer inception_4b/5x5
I0509 21:50:22.826896 17867 net.cpp:372] inception_4b/5x5 <- inception_4b/5x5_reduce
I0509 21:50:22.826905 17867 net.cpp:334] inception_4b/5x5 -> inception_4b/5x5
I0509 21:50:22.826912 17867 net.cpp:105] Setting up inception_4b/5x5
I0509 21:50:22.827253 17867 net.cpp:112] Top shape: 32 64 14 14 (401408)
I0509 21:50:22.827266 17867 layer_factory.hpp:74] Creating layer inception_4b/relu_5x5
I0509 21:50:22.827291 17867 net.cpp:76] Creating Layer inception_4b/relu_5x5
I0509 21:50:22.827298 17867 net.cpp:372] inception_4b/relu_5x5 <- inception_4b/5x5
I0509 21:50:22.827308 17867 net.cpp:323] inception_4b/relu_5x5 -> inception_4b/5x5 (in-place)
I0509 21:50:22.827316 17867 net.cpp:105] Setting up inception_4b/relu_5x5
I0509 21:50:22.827322 17867 net.cpp:112] Top shape: 32 64 14 14 (401408)
I0509 21:50:22.827328 17867 layer_factory.hpp:74] Creating layer inception_4b/pool
I0509 21:50:22.827337 17867 net.cpp:76] Creating Layer inception_4b/pool
I0509 21:50:22.827344 17867 net.cpp:372] inception_4b/pool <- inception_4a/output_inception_4a/output_0_split_4
I0509 21:50:22.827353 17867 net.cpp:334] inception_4b/pool -> inception_4b/pool
I0509 21:50:22.827373 17867 net.cpp:105] Setting up inception_4b/pool
I0509 21:50:22.827383 17867 net.cpp:112] Top shape: 32 512 14 14 (3211264)
I0509 21:50:22.827389 17867 layer_factory.hpp:74] Creating layer inception_4b/pool_proj
I0509 21:50:22.827402 17867 net.cpp:76] Creating Layer inception_4b/pool_proj
I0509 21:50:22.827409 17867 net.cpp:372] inception_4b/pool_proj <- inception_4b/pool
I0509 21:50:22.827417 17867 net.cpp:334] inception_4b/pool_proj -> inception_4b/pool_proj
I0509 21:50:22.827426 17867 net.cpp:105] Setting up inception_4b/pool_proj
I0509 21:50:22.827716 17867 net.cpp:112] Top shape: 32 64 14 14 (401408)
I0509 21:50:22.827730 17867 layer_factory.hpp:74] Creating layer inception_4b/relu_pool_proj
I0509 21:50:22.827738 17867 net.cpp:76] Creating Layer inception_4b/relu_pool_proj
I0509 21:50:22.827744 17867 net.cpp:372] inception_4b/relu_pool_proj <- inception_4b/pool_proj
I0509 21:50:22.827780 17867 net.cpp:323] inception_4b/relu_pool_proj -> inception_4b/pool_proj (in-place)
I0509 21:50:22.827790 17867 net.cpp:105] Setting up inception_4b/relu_pool_proj
I0509 21:50:22.827795 17867 net.cpp:112] Top shape: 32 64 14 14 (401408)
I0509 21:50:22.827800 17867 layer_factory.hpp:74] Creating layer inception_4b/output
I0509 21:50:22.827808 17867 net.cpp:76] Creating Layer inception_4b/output
I0509 21:50:22.827813 17867 net.cpp:372] inception_4b/output <- inception_4b/1x1
I0509 21:50:22.827821 17867 net.cpp:372] inception_4b/output <- inception_4b/3x3
I0509 21:50:22.827826 17867 net.cpp:372] inception_4b/output <- inception_4b/5x5
I0509 21:50:22.827832 17867 net.cpp:372] inception_4b/output <- inception_4b/pool_proj
I0509 21:50:22.827839 17867 net.cpp:334] inception_4b/output -> inception_4b/output
I0509 21:50:22.827853 17867 net.cpp:105] Setting up inception_4b/output
I0509 21:50:22.827860 17867 net.cpp:112] Top shape: 32 512 14 14 (3211264)
I0509 21:50:22.827867 17867 layer_factory.hpp:74] Creating layer inception_4b/output_inception_4b/output_0_split
I0509 21:50:22.827898 17867 net.cpp:76] Creating Layer inception_4b/output_inception_4b/output_0_split
I0509 21:50:22.827905 17867 net.cpp:372] inception_4b/output_inception_4b/output_0_split <- inception_4b/output
I0509 21:50:22.827913 17867 net.cpp:334] inception_4b/output_inception_4b/output_0_split -> inception_4b/output_inception_4b/output_0_split_0
I0509 21:50:22.827922 17867 net.cpp:334] inception_4b/output_inception_4b/output_0_split -> inception_4b/output_inception_4b/output_0_split_1
I0509 21:50:22.827931 17867 net.cpp:334] inception_4b/output_inception_4b/output_0_split -> inception_4b/output_inception_4b/output_0_split_2
I0509 21:50:22.827940 17867 net.cpp:334] inception_4b/output_inception_4b/output_0_split -> inception_4b/output_inception_4b/output_0_split_3
I0509 21:50:22.827949 17867 net.cpp:105] Setting up inception_4b/output_inception_4b/output_0_split
I0509 21:50:22.827955 17867 net.cpp:112] Top shape: 32 512 14 14 (3211264)
I0509 21:50:22.827960 17867 net.cpp:112] Top shape: 32 512 14 14 (3211264)
I0509 21:50:22.827965 17867 net.cpp:112] Top shape: 32 512 14 14 (3211264)
I0509 21:50:22.827970 17867 net.cpp:112] Top shape: 32 512 14 14 (3211264)
I0509 21:50:22.827975 17867 layer_factory.hpp:74] Creating layer inception_4c/1x1
I0509 21:50:22.827986 17867 net.cpp:76] Creating Layer inception_4c/1x1
I0509 21:50:22.827992 17867 net.cpp:372] inception_4c/1x1 <- inception_4b/output_inception_4b/output_0_split_0
I0509 21:50:22.828002 17867 net.cpp:334] inception_4c/1x1 -> inception_4c/1x1
I0509 21:50:22.828011 17867 net.cpp:105] Setting up inception_4c/1x1
I0509 21:50:22.828583 17867 net.cpp:112] Top shape: 32 128 14 14 (802816)
I0509 21:50:22.828598 17867 layer_factory.hpp:74] Creating layer inception_4c/relu_1x1
I0509 21:50:22.828605 17867 net.cpp:76] Creating Layer inception_4c/relu_1x1
I0509 21:50:22.828611 17867 net.cpp:372] inception_4c/relu_1x1 <- inception_4c/1x1
I0509 21:50:22.828619 17867 net.cpp:323] inception_4c/relu_1x1 -> inception_4c/1x1 (in-place)
I0509 21:50:22.828625 17867 net.cpp:105] Setting up inception_4c/relu_1x1
I0509 21:50:22.828631 17867 net.cpp:112] Top shape: 32 128 14 14 (802816)
I0509 21:50:22.828636 17867 layer_factory.hpp:74] Creating layer inception_4c/3x3_reduce
I0509 21:50:22.828646 17867 net.cpp:76] Creating Layer inception_4c/3x3_reduce
I0509 21:50:22.828652 17867 net.cpp:372] inception_4c/3x3_reduce <- inception_4b/output_inception_4b/output_0_split_1
I0509 21:50:22.828660 17867 net.cpp:334] inception_4c/3x3_reduce -> inception_4c/3x3_reduce
I0509 21:50:22.828670 17867 net.cpp:105] Setting up inception_4c/3x3_reduce
I0509 21:50:22.829237 17867 net.cpp:112] Top shape: 32 128 14 14 (802816)
I0509 21:50:22.829252 17867 layer_factory.hpp:74] Creating layer inception_4c/relu_3x3_reduce
I0509 21:50:22.829262 17867 net.cpp:76] Creating Layer inception_4c/relu_3x3_reduce
I0509 21:50:22.829268 17867 net.cpp:372] inception_4c/relu_3x3_reduce <- inception_4c/3x3_reduce
I0509 21:50:22.829288 17867 net.cpp:323] inception_4c/relu_3x3_reduce -> inception_4c/3x3_reduce (in-place)
I0509 21:50:22.829310 17867 net.cpp:105] Setting up inception_4c/relu_3x3_reduce
I0509 21:50:22.829316 17867 net.cpp:112] Top shape: 32 128 14 14 (802816)
I0509 21:50:22.829323 17867 layer_factory.hpp:74] Creating layer inception_4c/3x3
I0509 21:50:22.829330 17867 net.cpp:76] Creating Layer inception_4c/3x3
I0509 21:50:22.829336 17867 net.cpp:372] inception_4c/3x3 <- inception_4c/3x3_reduce
I0509 21:50:22.829346 17867 net.cpp:334] inception_4c/3x3 -> inception_4c/3x3
I0509 21:50:22.829355 17867 net.cpp:105] Setting up inception_4c/3x3
I0509 21:50:22.831835 17867 net.cpp:112] Top shape: 32 256 14 14 (1605632)
I0509 21:50:22.831871 17867 layer_factory.hpp:74] Creating layer inception_4c/relu_3x3
I0509 21:50:22.831882 17867 net.cpp:76] Creating Layer inception_4c/relu_3x3
I0509 21:50:22.833724 17867 net.cpp:372] inception_4c/relu_3x3 <- inception_4c/3x3
I0509 21:50:22.833736 17867 net.cpp:323] inception_4c/relu_3x3 -> inception_4c/3x3 (in-place)
I0509 21:50:22.833747 17867 net.cpp:105] Setting up inception_4c/relu_3x3
I0509 21:50:22.833753 17867 net.cpp:112] Top shape: 32 256 14 14 (1605632)
I0509 21:50:22.833760 17867 layer_factory.hpp:74] Creating layer inception_4c/5x5_reduce
I0509 21:50:22.833770 17867 net.cpp:76] Creating Layer inception_4c/5x5_reduce
I0509 21:50:22.833775 17867 net.cpp:372] inception_4c/5x5_reduce <- inception_4b/output_inception_4b/output_0_split_2
I0509 21:50:22.833787 17867 net.cpp:334] inception_4c/5x5_reduce -> inception_4c/5x5_reduce
I0509 21:50:22.833798 17867 net.cpp:105] Setting up inception_4c/5x5_reduce
I0509 21:50:22.833914 17867 net.cpp:112] Top shape: 32 24 14 14 (150528)
I0509 21:50:22.833925 17867 layer_factory.hpp:74] Creating layer inception_4c/relu_5x5_reduce
I0509 21:50:22.833933 17867 net.cpp:76] Creating Layer inception_4c/relu_5x5_reduce
I0509 21:50:22.833938 17867 net.cpp:372] inception_4c/relu_5x5_reduce <- inception_4c/5x5_reduce
I0509 21:50:22.833945 17867 net.cpp:323] inception_4c/relu_5x5_reduce -> inception_4c/5x5_reduce (in-place)
I0509 21:50:22.833953 17867 net.cpp:105] Setting up inception_4c/relu_5x5_reduce
I0509 21:50:22.833958 17867 net.cpp:112] Top shape: 32 24 14 14 (150528)
I0509 21:50:22.833964 17867 layer_factory.hpp:74] Creating layer inception_4c/5x5
I0509 21:50:22.833974 17867 net.cpp:76] Creating Layer inception_4c/5x5
I0509 21:50:22.833981 17867 net.cpp:372] inception_4c/5x5 <- inception_4c/5x5_reduce
I0509 21:50:22.833987 17867 net.cpp:334] inception_4c/5x5 -> inception_4c/5x5
I0509 21:50:22.833997 17867 net.cpp:105] Setting up inception_4c/5x5
I0509 21:50:22.834354 17867 net.cpp:112] Top shape: 32 64 14 14 (401408)
I0509 21:50:22.834368 17867 layer_factory.hpp:74] Creating layer inception_4c/relu_5x5
I0509 21:50:22.834377 17867 net.cpp:76] Creating Layer inception_4c/relu_5x5
I0509 21:50:22.834384 17867 net.cpp:372] inception_4c/relu_5x5 <- inception_4c/5x5
I0509 21:50:22.834391 17867 net.cpp:323] inception_4c/relu_5x5 -> inception_4c/5x5 (in-place)
I0509 21:50:22.834399 17867 net.cpp:105] Setting up inception_4c/relu_5x5
I0509 21:50:22.834404 17867 net.cpp:112] Top shape: 32 64 14 14 (401408)
I0509 21:50:22.834410 17867 layer_factory.hpp:74] Creating layer inception_4c/pool
I0509 21:50:22.834419 17867 net.cpp:76] Creating Layer inception_4c/pool
I0509 21:50:22.834425 17867 net.cpp:372] inception_4c/pool <- inception_4b/output_inception_4b/output_0_split_3
I0509 21:50:22.834432 17867 net.cpp:334] inception_4c/pool -> inception_4c/pool
I0509 21:50:22.834441 17867 net.cpp:105] Setting up inception_4c/pool
I0509 21:50:22.834450 17867 net.cpp:112] Top shape: 32 512 14 14 (3211264)
I0509 21:50:22.834455 17867 layer_factory.hpp:74] Creating layer inception_4c/pool_proj
I0509 21:50:22.834467 17867 net.cpp:76] Creating Layer inception_4c/pool_proj
I0509 21:50:22.834473 17867 net.cpp:372] inception_4c/pool_proj <- inception_4c/pool
I0509 21:50:22.834483 17867 net.cpp:334] inception_4c/pool_proj -> inception_4c/pool_proj
I0509 21:50:22.834492 17867 net.cpp:105] Setting up inception_4c/pool_proj
I0509 21:50:22.834803 17867 net.cpp:112] Top shape: 32 64 14 14 (401408)
I0509 21:50:22.834817 17867 layer_factory.hpp:74] Creating layer inception_4c/relu_pool_proj
I0509 21:50:22.834828 17867 net.cpp:76] Creating Layer inception_4c/relu_pool_proj
I0509 21:50:22.834835 17867 net.cpp:372] inception_4c/relu_pool_proj <- inception_4c/pool_proj
I0509 21:50:22.834841 17867 net.cpp:323] inception_4c/relu_pool_proj -> inception_4c/pool_proj (in-place)
I0509 21:50:22.834849 17867 net.cpp:105] Setting up inception_4c/relu_pool_proj
I0509 21:50:22.834856 17867 net.cpp:112] Top shape: 32 64 14 14 (401408)
I0509 21:50:22.834861 17867 layer_factory.hpp:74] Creating layer inception_4c/output
I0509 21:50:22.834868 17867 net.cpp:76] Creating Layer inception_4c/output
I0509 21:50:22.834874 17867 net.cpp:372] inception_4c/output <- inception_4c/1x1
I0509 21:50:22.834880 17867 net.cpp:372] inception_4c/output <- inception_4c/3x3
I0509 21:50:22.834887 17867 net.cpp:372] inception_4c/output <- inception_4c/5x5
I0509 21:50:22.835350 17867 net.cpp:372] inception_4c/output <- inception_4c/pool_proj
I0509 21:50:22.835371 17867 net.cpp:334] inception_4c/output -> inception_4c/output
I0509 21:50:22.835382 17867 net.cpp:105] Setting up inception_4c/output
I0509 21:50:22.835389 17867 net.cpp:112] Top shape: 32 512 14 14 (3211264)
I0509 21:50:22.835396 17867 layer_factory.hpp:74] Creating layer inception_4c/output_inception_4c/output_0_split
I0509 21:50:22.835404 17867 net.cpp:76] Creating Layer inception_4c/output_inception_4c/output_0_split
I0509 21:50:22.835410 17867 net.cpp:372] inception_4c/output_inception_4c/output_0_split <- inception_4c/output
I0509 21:50:22.835418 17867 net.cpp:334] inception_4c/output_inception_4c/output_0_split -> inception_4c/output_inception_4c/output_0_split_0
I0509 21:50:22.835427 17867 net.cpp:334] inception_4c/output_inception_4c/output_0_split -> inception_4c/output_inception_4c/output_0_split_1
I0509 21:50:22.835438 17867 net.cpp:334] inception_4c/output_inception_4c/output_0_split -> inception_4c/output_inception_4c/output_0_split_2
I0509 21:50:22.835449 17867 net.cpp:334] inception_4c/output_inception_4c/output_0_split -> inception_4c/output_inception_4c/output_0_split_3
I0509 21:50:22.835458 17867 net.cpp:105] Setting up inception_4c/output_inception_4c/output_0_split
I0509 21:50:22.835465 17867 net.cpp:112] Top shape: 32 512 14 14 (3211264)
I0509 21:50:22.835470 17867 net.cpp:112] Top shape: 32 512 14 14 (3211264)
I0509 21:50:22.835475 17867 net.cpp:112] Top shape: 32 512 14 14 (3211264)
I0509 21:50:22.835480 17867 net.cpp:112] Top shape: 32 512 14 14 (3211264)
I0509 21:50:22.835485 17867 layer_factory.hpp:74] Creating layer inception_4d/1x1
I0509 21:50:22.835494 17867 net.cpp:76] Creating Layer inception_4d/1x1
I0509 21:50:22.835502 17867 net.cpp:372] inception_4d/1x1 <- inception_4c/output_inception_4c/output_0_split_0
I0509 21:50:22.835511 17867 net.cpp:334] inception_4d/1x1 -> inception_4d/1x1
I0509 21:50:22.835520 17867 net.cpp:105] Setting up inception_4d/1x1
I0509 21:50:22.836014 17867 net.cpp:112] Top shape: 32 112 14 14 (702464)
I0509 21:50:22.836029 17867 layer_factory.hpp:74] Creating layer inception_4d/relu_1x1
I0509 21:50:22.836037 17867 net.cpp:76] Creating Layer inception_4d/relu_1x1
I0509 21:50:22.836043 17867 net.cpp:372] inception_4d/relu_1x1 <- inception_4d/1x1
I0509 21:50:22.836052 17867 net.cpp:323] inception_4d/relu_1x1 -> inception_4d/1x1 (in-place)
I0509 21:50:22.836061 17867 net.cpp:105] Setting up inception_4d/relu_1x1
I0509 21:50:22.836066 17867 net.cpp:112] Top shape: 32 112 14 14 (702464)
I0509 21:50:22.836072 17867 layer_factory.hpp:74] Creating layer inception_4d/3x3_reduce
I0509 21:50:22.836081 17867 net.cpp:76] Creating Layer inception_4d/3x3_reduce
I0509 21:50:22.836086 17867 net.cpp:372] inception_4d/3x3_reduce <- inception_4c/output_inception_4c/output_0_split_1
I0509 21:50:22.836094 17867 net.cpp:334] inception_4d/3x3_reduce -> inception_4d/3x3_reduce
I0509 21:50:22.836103 17867 net.cpp:105] Setting up inception_4d/3x3_reduce
I0509 21:50:22.836786 17867 net.cpp:112] Top shape: 32 144 14 14 (903168)
I0509 21:50:22.836822 17867 layer_factory.hpp:74] Creating layer inception_4d/relu_3x3_reduce
I0509 21:50:22.836832 17867 net.cpp:76] Creating Layer inception_4d/relu_3x3_reduce
I0509 21:50:22.836838 17867 net.cpp:372] inception_4d/relu_3x3_reduce <- inception_4d/3x3_reduce
I0509 21:50:22.836845 17867 net.cpp:323] inception_4d/relu_3x3_reduce -> inception_4d/3x3_reduce (in-place)
I0509 21:50:22.836854 17867 net.cpp:105] Setting up inception_4d/relu_3x3_reduce
I0509 21:50:22.836859 17867 net.cpp:112] Top shape: 32 144 14 14 (903168)
I0509 21:50:22.836865 17867 layer_factory.hpp:74] Creating layer inception_4d/3x3
I0509 21:50:22.836881 17867 net.cpp:76] Creating Layer inception_4d/3x3
I0509 21:50:22.836894 17867 net.cpp:372] inception_4d/3x3 <- inception_4d/3x3_reduce
I0509 21:50:22.836907 17867 net.cpp:334] inception_4d/3x3 -> inception_4d/3x3
I0509 21:50:22.836917 17867 net.cpp:105] Setting up inception_4d/3x3
I0509 21:50:22.840286 17867 net.cpp:112] Top shape: 32 288 14 14 (1806336)
I0509 21:50:22.840361 17867 layer_factory.hpp:74] Creating layer inception_4d/relu_3x3
I0509 21:50:22.840373 17867 net.cpp:76] Creating Layer inception_4d/relu_3x3
I0509 21:50:22.840381 17867 net.cpp:372] inception_4d/relu_3x3 <- inception_4d/3x3
I0509 21:50:22.840389 17867 net.cpp:323] inception_4d/relu_3x3 -> inception_4d/3x3 (in-place)
I0509 21:50:22.840399 17867 net.cpp:105] Setting up inception_4d/relu_3x3
I0509 21:50:22.840405 17867 net.cpp:112] Top shape: 32 288 14 14 (1806336)
I0509 21:50:22.840410 17867 layer_factory.hpp:74] Creating layer inception_4d/5x5_reduce
I0509 21:50:22.840420 17867 net.cpp:76] Creating Layer inception_4d/5x5_reduce
I0509 21:50:22.840426 17867 net.cpp:372] inception_4d/5x5_reduce <- inception_4c/output_inception_4c/output_0_split_2
I0509 21:50:22.840437 17867 net.cpp:334] inception_4d/5x5_reduce -> inception_4d/5x5_reduce
I0509 21:50:22.840447 17867 net.cpp:105] Setting up inception_4d/5x5_reduce
I0509 21:50:22.840603 17867 net.cpp:112] Top shape: 32 32 14 14 (200704)
I0509 21:50:22.840615 17867 layer_factory.hpp:74] Creating layer inception_4d/relu_5x5_reduce
I0509 21:50:22.840623 17867 net.cpp:76] Creating Layer inception_4d/relu_5x5_reduce
I0509 21:50:22.840629 17867 net.cpp:372] inception_4d/relu_5x5_reduce <- inception_4d/5x5_reduce
I0509 21:50:22.840636 17867 net.cpp:323] inception_4d/relu_5x5_reduce -> inception_4d/5x5_reduce (in-place)
I0509 21:50:22.840644 17867 net.cpp:105] Setting up inception_4d/relu_5x5_reduce
I0509 21:50:22.840649 17867 net.cpp:112] Top shape: 32 32 14 14 (200704)
I0509 21:50:22.840656 17867 layer_factory.hpp:74] Creating layer inception_4d/5x5
I0509 21:50:22.840665 17867 net.cpp:76] Creating Layer inception_4d/5x5
I0509 21:50:22.840672 17867 net.cpp:372] inception_4d/5x5 <- inception_4d/5x5_reduce
I0509 21:50:22.840682 17867 net.cpp:334] inception_4d/5x5 -> inception_4d/5x5
I0509 21:50:22.840690 17867 net.cpp:105] Setting up inception_4d/5x5
I0509 21:50:22.841127 17867 net.cpp:112] Top shape: 32 64 14 14 (401408)
I0509 21:50:22.841140 17867 layer_factory.hpp:74] Creating layer inception_4d/relu_5x5
I0509 21:50:22.841151 17867 net.cpp:76] Creating Layer inception_4d/relu_5x5
I0509 21:50:22.841158 17867 net.cpp:372] inception_4d/relu_5x5 <- inception_4d/5x5
I0509 21:50:22.841166 17867 net.cpp:323] inception_4d/relu_5x5 -> inception_4d/5x5 (in-place)
I0509 21:50:22.841173 17867 net.cpp:105] Setting up inception_4d/relu_5x5
I0509 21:50:22.841178 17867 net.cpp:112] Top shape: 32 64 14 14 (401408)
I0509 21:50:22.841184 17867 layer_factory.hpp:74] Creating layer inception_4d/pool
I0509 21:50:22.841192 17867 net.cpp:76] Creating Layer inception_4d/pool
I0509 21:50:22.841198 17867 net.cpp:372] inception_4d/pool <- inception_4c/output_inception_4c/output_0_split_3
I0509 21:50:22.841208 17867 net.cpp:334] inception_4d/pool -> inception_4d/pool
I0509 21:50:22.841217 17867 net.cpp:105] Setting up inception_4d/pool
I0509 21:50:22.841225 17867 net.cpp:112] Top shape: 32 512 14 14 (3211264)
I0509 21:50:22.841230 17867 layer_factory.hpp:74] Creating layer inception_4d/pool_proj
I0509 21:50:22.841264 17867 net.cpp:76] Creating Layer inception_4d/pool_proj
I0509 21:50:22.841294 17867 net.cpp:372] inception_4d/pool_proj <- inception_4d/pool
I0509 21:50:22.841313 17867 net.cpp:334] inception_4d/pool_proj -> inception_4d/pool_proj
I0509 21:50:22.841325 17867 net.cpp:105] Setting up inception_4d/pool_proj
I0509 21:50:22.841624 17867 net.cpp:112] Top shape: 32 64 14 14 (401408)
I0509 21:50:22.841639 17867 layer_factory.hpp:74] Creating layer inception_4d/relu_pool_proj
I0509 21:50:22.841646 17867 net.cpp:76] Creating Layer inception_4d/relu_pool_proj
I0509 21:50:22.841652 17867 net.cpp:372] inception_4d/relu_pool_proj <- inception_4d/pool_proj
I0509 21:50:22.841660 17867 net.cpp:323] inception_4d/relu_pool_proj -> inception_4d/pool_proj (in-place)
I0509 21:50:22.841667 17867 net.cpp:105] Setting up inception_4d/relu_pool_proj
I0509 21:50:22.841673 17867 net.cpp:112] Top shape: 32 64 14 14 (401408)
I0509 21:50:22.841678 17867 layer_factory.hpp:74] Creating layer inception_4d/output
I0509 21:50:22.841686 17867 net.cpp:76] Creating Layer inception_4d/output
I0509 21:50:22.841692 17867 net.cpp:372] inception_4d/output <- inception_4d/1x1
I0509 21:50:22.841698 17867 net.cpp:372] inception_4d/output <- inception_4d/3x3
I0509 21:50:22.841706 17867 net.cpp:372] inception_4d/output <- inception_4d/5x5
I0509 21:50:22.841711 17867 net.cpp:372] inception_4d/output <- inception_4d/pool_proj
I0509 21:50:22.841720 17867 net.cpp:334] inception_4d/output -> inception_4d/output
I0509 21:50:22.841729 17867 net.cpp:105] Setting up inception_4d/output
I0509 21:50:22.841737 17867 net.cpp:112] Top shape: 32 528 14 14 (3311616)
I0509 21:50:22.841742 17867 layer_factory.hpp:74] Creating layer inception_4d/output_inception_4d/output_0_split
I0509 21:50:22.841750 17867 net.cpp:76] Creating Layer inception_4d/output_inception_4d/output_0_split
I0509 21:50:22.841756 17867 net.cpp:372] inception_4d/output_inception_4d/output_0_split <- inception_4d/output
I0509 21:50:22.841765 17867 net.cpp:334] inception_4d/output_inception_4d/output_0_split -> inception_4d/output_inception_4d/output_0_split_0
I0509 21:50:22.841775 17867 net.cpp:334] inception_4d/output_inception_4d/output_0_split -> inception_4d/output_inception_4d/output_0_split_1
I0509 21:50:22.841784 17867 net.cpp:334] inception_4d/output_inception_4d/output_0_split -> inception_4d/output_inception_4d/output_0_split_2
I0509 21:50:22.841794 17867 net.cpp:334] inception_4d/output_inception_4d/output_0_split -> inception_4d/output_inception_4d/output_0_split_3
I0509 21:50:22.841802 17867 net.cpp:334] inception_4d/output_inception_4d/output_0_split -> inception_4d/output_inception_4d/output_0_split_4
I0509 21:50:22.841811 17867 net.cpp:105] Setting up inception_4d/output_inception_4d/output_0_split
I0509 21:50:22.841819 17867 net.cpp:112] Top shape: 32 528 14 14 (3311616)
I0509 21:50:22.841823 17867 net.cpp:112] Top shape: 32 528 14 14 (3311616)
I0509 21:50:22.841828 17867 net.cpp:112] Top shape: 32 528 14 14 (3311616)
I0509 21:50:22.841833 17867 net.cpp:112] Top shape: 32 528 14 14 (3311616)
I0509 21:50:22.841838 17867 net.cpp:112] Top shape: 32 528 14 14 (3311616)
I0509 21:50:22.841843 17867 layer_factory.hpp:74] Creating layer loss2/ave_pool
I0509 21:50:22.841856 17867 net.cpp:76] Creating Layer loss2/ave_pool
I0509 21:50:22.841862 17867 net.cpp:372] loss2/ave_pool <- inception_4d/output_inception_4d/output_0_split_0
I0509 21:50:22.841871 17867 net.cpp:334] loss2/ave_pool -> loss2/ave_pool
I0509 21:50:22.841878 17867 net.cpp:105] Setting up loss2/ave_pool
I0509 21:50:22.841903 17867 net.cpp:112] Top shape: 32 528 4 4 (270336)
I0509 21:50:22.841910 17867 layer_factory.hpp:74] Creating layer loss2/conv
I0509 21:50:22.841922 17867 net.cpp:76] Creating Layer loss2/conv
I0509 21:50:22.841928 17867 net.cpp:372] loss2/conv <- loss2/ave_pool
I0509 21:50:22.841936 17867 net.cpp:334] loss2/conv -> loss2/conv
I0509 21:50:22.841945 17867 net.cpp:105] Setting up loss2/conv
I0509 21:50:22.842531 17867 net.cpp:112] Top shape: 32 128 4 4 (65536)
I0509 21:50:22.842545 17867 layer_factory.hpp:74] Creating layer loss2/relu_conv
I0509 21:50:22.842566 17867 net.cpp:76] Creating Layer loss2/relu_conv
I0509 21:50:22.842572 17867 net.cpp:372] loss2/relu_conv <- loss2/conv
I0509 21:50:22.842579 17867 net.cpp:323] loss2/relu_conv -> loss2/conv (in-place)
I0509 21:50:22.842589 17867 net.cpp:105] Setting up loss2/relu_conv
I0509 21:50:22.842594 17867 net.cpp:112] Top shape: 32 128 4 4 (65536)
I0509 21:50:22.842600 17867 layer_factory.hpp:74] Creating layer loss2/fc
I0509 21:50:22.842610 17867 net.cpp:76] Creating Layer loss2/fc
I0509 21:50:22.842615 17867 net.cpp:372] loss2/fc <- loss2/conv
I0509 21:50:22.842622 17867 net.cpp:334] loss2/fc -> loss2/fc
I0509 21:50:22.842633 17867 net.cpp:105] Setting up loss2/fc
I0509 21:50:22.861127 17867 net.cpp:112] Top shape: 32 1024 1 1 (32768)
I0509 21:50:22.861176 17867 layer_factory.hpp:74] Creating layer loss2/relu_fc
I0509 21:50:22.861193 17867 net.cpp:76] Creating Layer loss2/relu_fc
I0509 21:50:22.861202 17867 net.cpp:372] loss2/relu_fc <- loss2/fc
I0509 21:50:22.861213 17867 net.cpp:323] loss2/relu_fc -> loss2/fc (in-place)
I0509 21:50:22.861224 17867 net.cpp:105] Setting up loss2/relu_fc
I0509 21:50:22.861230 17867 net.cpp:112] Top shape: 32 1024 1 1 (32768)
I0509 21:50:22.861237 17867 layer_factory.hpp:74] Creating layer loss2/drop_fc
I0509 21:50:22.861245 17867 net.cpp:76] Creating Layer loss2/drop_fc
I0509 21:50:22.861253 17867 net.cpp:372] loss2/drop_fc <- loss2/fc
I0509 21:50:22.861260 17867 net.cpp:323] loss2/drop_fc -> loss2/fc (in-place)
I0509 21:50:22.861268 17867 net.cpp:105] Setting up loss2/drop_fc
I0509 21:50:22.861310 17867 net.cpp:112] Top shape: 32 1024 1 1 (32768)
I0509 21:50:22.861315 17867 layer_factory.hpp:74] Creating layer loss2/classifier
I0509 21:50:22.861326 17867 net.cpp:76] Creating Layer loss2/classifier
I0509 21:50:22.861332 17867 net.cpp:372] loss2/classifier <- loss2/fc
I0509 21:50:22.861345 17867 net.cpp:334] loss2/classifier -> loss2/classifier
I0509 21:50:22.861356 17867 net.cpp:105] Setting up loss2/classifier
I0509 21:50:22.861392 17867 net.cpp:112] Top shape: 32 2 1 1 (64)
I0509 21:50:22.861403 17867 layer_factory.hpp:74] Creating layer loss2/loss
I0509 21:50:22.861414 17867 net.cpp:76] Creating Layer loss2/loss
I0509 21:50:22.861420 17867 net.cpp:372] loss2/loss <- loss2/classifier
I0509 21:50:22.861428 17867 net.cpp:372] loss2/loss <- label_data_1_split_1
I0509 21:50:22.861435 17867 net.cpp:334] loss2/loss -> loss2/loss1
I0509 21:50:22.861443 17867 net.cpp:105] Setting up loss2/loss
I0509 21:50:22.861452 17867 layer_factory.hpp:74] Creating layer loss2/loss
I0509 21:50:22.861467 17867 net.cpp:112] Top shape: 1 1 1 1 (1)
I0509 21:50:22.861474 17867 net.cpp:118]     with loss weight 0.3
I0509 21:50:22.861492 17867 layer_factory.hpp:74] Creating layer inception_4e/1x1
I0509 21:50:22.861503 17867 net.cpp:76] Creating Layer inception_4e/1x1
I0509 21:50:22.861510 17867 net.cpp:372] inception_4e/1x1 <- inception_4d/output_inception_4d/output_0_split_1
I0509 21:50:22.861518 17867 net.cpp:334] inception_4e/1x1 -> inception_4e/1x1
I0509 21:50:22.861528 17867 net.cpp:105] Setting up inception_4e/1x1
I0509 21:50:22.862699 17867 net.cpp:112] Top shape: 32 256 14 14 (1605632)
I0509 21:50:22.862715 17867 layer_factory.hpp:74] Creating layer inception_4e/relu_1x1
I0509 21:50:22.862723 17867 net.cpp:76] Creating Layer inception_4e/relu_1x1
I0509 21:50:22.862731 17867 net.cpp:372] inception_4e/relu_1x1 <- inception_4e/1x1
I0509 21:50:22.862740 17867 net.cpp:323] inception_4e/relu_1x1 -> inception_4e/1x1 (in-place)
I0509 21:50:22.862747 17867 net.cpp:105] Setting up inception_4e/relu_1x1
I0509 21:50:22.862753 17867 net.cpp:112] Top shape: 32 256 14 14 (1605632)
I0509 21:50:22.862758 17867 layer_factory.hpp:74] Creating layer inception_4e/3x3_reduce
I0509 21:50:22.862767 17867 net.cpp:76] Creating Layer inception_4e/3x3_reduce
I0509 21:50:22.862773 17867 net.cpp:372] inception_4e/3x3_reduce <- inception_4d/output_inception_4d/output_0_split_2
I0509 21:50:22.862783 17867 net.cpp:334] inception_4e/3x3_reduce -> inception_4e/3x3_reduce
I0509 21:50:22.862826 17867 net.cpp:105] Setting up inception_4e/3x3_reduce
I0509 21:50:22.863559 17867 net.cpp:112] Top shape: 32 160 14 14 (1003520)
I0509 21:50:22.863572 17867 layer_factory.hpp:74] Creating layer inception_4e/relu_3x3_reduce
I0509 21:50:22.863581 17867 net.cpp:76] Creating Layer inception_4e/relu_3x3_reduce
I0509 21:50:22.863589 17867 net.cpp:372] inception_4e/relu_3x3_reduce <- inception_4e/3x3_reduce
I0509 21:50:22.863597 17867 net.cpp:323] inception_4e/relu_3x3_reduce -> inception_4e/3x3_reduce (in-place)
I0509 21:50:22.863605 17867 net.cpp:105] Setting up inception_4e/relu_3x3_reduce
I0509 21:50:22.863611 17867 net.cpp:112] Top shape: 32 160 14 14 (1003520)
I0509 21:50:22.863617 17867 layer_factory.hpp:74] Creating layer inception_4e/3x3
I0509 21:50:22.863626 17867 net.cpp:76] Creating Layer inception_4e/3x3
I0509 21:50:22.863631 17867 net.cpp:372] inception_4e/3x3 <- inception_4e/3x3_reduce
I0509 21:50:22.863638 17867 net.cpp:334] inception_4e/3x3 -> inception_4e/3x3
I0509 21:50:22.863647 17867 net.cpp:105] Setting up inception_4e/3x3
I0509 21:50:22.867532 17867 net.cpp:112] Top shape: 32 320 14 14 (2007040)
I0509 21:50:22.867557 17867 layer_factory.hpp:74] Creating layer inception_4e/relu_3x3
I0509 21:50:22.867566 17867 net.cpp:76] Creating Layer inception_4e/relu_3x3
I0509 21:50:22.867573 17867 net.cpp:372] inception_4e/relu_3x3 <- inception_4e/3x3
I0509 21:50:22.867581 17867 net.cpp:323] inception_4e/relu_3x3 -> inception_4e/3x3 (in-place)
I0509 21:50:22.867591 17867 net.cpp:105] Setting up inception_4e/relu_3x3
I0509 21:50:22.867596 17867 net.cpp:112] Top shape: 32 320 14 14 (2007040)
I0509 21:50:22.867602 17867 layer_factory.hpp:74] Creating layer inception_4e/5x5_reduce
I0509 21:50:22.867614 17867 net.cpp:76] Creating Layer inception_4e/5x5_reduce
I0509 21:50:22.867619 17867 net.cpp:372] inception_4e/5x5_reduce <- inception_4d/output_inception_4d/output_0_split_3
I0509 21:50:22.867630 17867 net.cpp:334] inception_4e/5x5_reduce -> inception_4e/5x5_reduce
I0509 21:50:22.867640 17867 net.cpp:105] Setting up inception_4e/5x5_reduce
I0509 21:50:22.867786 17867 net.cpp:112] Top shape: 32 32 14 14 (200704)
I0509 21:50:22.867797 17867 layer_factory.hpp:74] Creating layer inception_4e/relu_5x5_reduce
I0509 21:50:22.867810 17867 net.cpp:76] Creating Layer inception_4e/relu_5x5_reduce
I0509 21:50:22.867816 17867 net.cpp:372] inception_4e/relu_5x5_reduce <- inception_4e/5x5_reduce
I0509 21:50:22.867823 17867 net.cpp:323] inception_4e/relu_5x5_reduce -> inception_4e/5x5_reduce (in-place)
I0509 21:50:22.867831 17867 net.cpp:105] Setting up inception_4e/relu_5x5_reduce
I0509 21:50:22.867836 17867 net.cpp:112] Top shape: 32 32 14 14 (200704)
I0509 21:50:22.867842 17867 layer_factory.hpp:74] Creating layer inception_4e/5x5
I0509 21:50:22.867869 17867 net.cpp:76] Creating Layer inception_4e/5x5
I0509 21:50:22.867877 17867 net.cpp:372] inception_4e/5x5 <- inception_4e/5x5_reduce
I0509 21:50:22.867890 17867 net.cpp:334] inception_4e/5x5 -> inception_4e/5x5
I0509 21:50:22.867900 17867 net.cpp:105] Setting up inception_4e/5x5
I0509 21:50:22.868772 17867 net.cpp:112] Top shape: 32 128 14 14 (802816)
I0509 21:50:22.868788 17867 layer_factory.hpp:74] Creating layer inception_4e/relu_5x5
I0509 21:50:22.868796 17867 net.cpp:76] Creating Layer inception_4e/relu_5x5
I0509 21:50:22.868803 17867 net.cpp:372] inception_4e/relu_5x5 <- inception_4e/5x5
I0509 21:50:22.868809 17867 net.cpp:323] inception_4e/relu_5x5 -> inception_4e/5x5 (in-place)
I0509 21:50:22.868818 17867 net.cpp:105] Setting up inception_4e/relu_5x5
I0509 21:50:22.868824 17867 net.cpp:112] Top shape: 32 128 14 14 (802816)
I0509 21:50:22.868829 17867 layer_factory.hpp:74] Creating layer inception_4e/pool
I0509 21:50:22.868837 17867 net.cpp:76] Creating Layer inception_4e/pool
I0509 21:50:22.868844 17867 net.cpp:372] inception_4e/pool <- inception_4d/output_inception_4d/output_0_split_4
I0509 21:50:22.868854 17867 net.cpp:334] inception_4e/pool -> inception_4e/pool
I0509 21:50:22.868863 17867 net.cpp:105] Setting up inception_4e/pool
I0509 21:50:22.868871 17867 net.cpp:112] Top shape: 32 528 14 14 (3311616)
I0509 21:50:22.868899 17867 layer_factory.hpp:74] Creating layer inception_4e/pool_proj
I0509 21:50:22.868938 17867 net.cpp:76] Creating Layer inception_4e/pool_proj
I0509 21:50:22.868947 17867 net.cpp:372] inception_4e/pool_proj <- inception_4e/pool
I0509 21:50:22.868958 17867 net.cpp:334] inception_4e/pool_proj -> inception_4e/pool_proj
I0509 21:50:22.868968 17867 net.cpp:105] Setting up inception_4e/pool_proj
I0509 21:50:22.869555 17867 net.cpp:112] Top shape: 32 128 14 14 (802816)
I0509 21:50:22.869570 17867 layer_factory.hpp:74] Creating layer inception_4e/relu_pool_proj
I0509 21:50:22.869578 17867 net.cpp:76] Creating Layer inception_4e/relu_pool_proj
I0509 21:50:22.869585 17867 net.cpp:372] inception_4e/relu_pool_proj <- inception_4e/pool_proj
I0509 21:50:22.869591 17867 net.cpp:323] inception_4e/relu_pool_proj -> inception_4e/pool_proj (in-place)
I0509 21:50:22.869601 17867 net.cpp:105] Setting up inception_4e/relu_pool_proj
I0509 21:50:22.869606 17867 net.cpp:112] Top shape: 32 128 14 14 (802816)
I0509 21:50:22.869611 17867 layer_factory.hpp:74] Creating layer inception_4e/output
I0509 21:50:22.869619 17867 net.cpp:76] Creating Layer inception_4e/output
I0509 21:50:22.869626 17867 net.cpp:372] inception_4e/output <- inception_4e/1x1
I0509 21:50:22.869632 17867 net.cpp:372] inception_4e/output <- inception_4e/3x3
I0509 21:50:22.869637 17867 net.cpp:372] inception_4e/output <- inception_4e/5x5
I0509 21:50:22.869643 17867 net.cpp:372] inception_4e/output <- inception_4e/pool_proj
I0509 21:50:22.869652 17867 net.cpp:334] inception_4e/output -> inception_4e/output
I0509 21:50:22.869659 17867 net.cpp:105] Setting up inception_4e/output
I0509 21:50:22.869665 17867 net.cpp:112] Top shape: 32 832 14 14 (5218304)
I0509 21:50:22.869670 17867 layer_factory.hpp:74] Creating layer pool4/3x3_s2
I0509 21:50:22.869678 17867 net.cpp:76] Creating Layer pool4/3x3_s2
I0509 21:50:22.869683 17867 net.cpp:372] pool4/3x3_s2 <- inception_4e/output
I0509 21:50:22.869694 17867 net.cpp:334] pool4/3x3_s2 -> pool4/3x3_s2
I0509 21:50:22.869704 17867 net.cpp:105] Setting up pool4/3x3_s2
I0509 21:50:22.869709 17867 net.cpp:112] Top shape: 32 832 7 7 (1304576)
I0509 21:50:22.869715 17867 layer_factory.hpp:74] Creating layer pool4/3x3_s2_pool4/3x3_s2_0_split
I0509 21:50:22.869724 17867 net.cpp:76] Creating Layer pool4/3x3_s2_pool4/3x3_s2_0_split
I0509 21:50:22.869729 17867 net.cpp:372] pool4/3x3_s2_pool4/3x3_s2_0_split <- pool4/3x3_s2
I0509 21:50:22.869737 17867 net.cpp:334] pool4/3x3_s2_pool4/3x3_s2_0_split -> pool4/3x3_s2_pool4/3x3_s2_0_split_0
I0509 21:50:22.869746 17867 net.cpp:334] pool4/3x3_s2_pool4/3x3_s2_0_split -> pool4/3x3_s2_pool4/3x3_s2_0_split_1
I0509 21:50:22.869755 17867 net.cpp:334] pool4/3x3_s2_pool4/3x3_s2_0_split -> pool4/3x3_s2_pool4/3x3_s2_0_split_2
I0509 21:50:22.869763 17867 net.cpp:334] pool4/3x3_s2_pool4/3x3_s2_0_split -> pool4/3x3_s2_pool4/3x3_s2_0_split_3
I0509 21:50:22.869771 17867 net.cpp:105] Setting up pool4/3x3_s2_pool4/3x3_s2_0_split
I0509 21:50:22.869778 17867 net.cpp:112] Top shape: 32 832 7 7 (1304576)
I0509 21:50:22.869783 17867 net.cpp:112] Top shape: 32 832 7 7 (1304576)
I0509 21:50:22.869788 17867 net.cpp:112] Top shape: 32 832 7 7 (1304576)
I0509 21:50:22.869792 17867 net.cpp:112] Top shape: 32 832 7 7 (1304576)
I0509 21:50:22.869797 17867 layer_factory.hpp:74] Creating layer inception_5a/1x1
I0509 21:50:22.869807 17867 net.cpp:76] Creating Layer inception_5a/1x1
I0509 21:50:22.870836 17867 net.cpp:372] inception_5a/1x1 <- pool4/3x3_s2_pool4/3x3_s2_0_split_0
I0509 21:50:22.870862 17867 net.cpp:334] inception_5a/1x1 -> inception_5a/1x1
I0509 21:50:22.870874 17867 net.cpp:105] Setting up inception_5a/1x1
I0509 21:50:22.872984 17867 net.cpp:112] Top shape: 32 256 7 7 (401408)
I0509 21:50:22.873008 17867 layer_factory.hpp:74] Creating layer inception_5a/relu_1x1
I0509 21:50:22.873018 17867 net.cpp:76] Creating Layer inception_5a/relu_1x1
I0509 21:50:22.873025 17867 net.cpp:372] inception_5a/relu_1x1 <- inception_5a/1x1
I0509 21:50:22.873035 17867 net.cpp:323] inception_5a/relu_1x1 -> inception_5a/1x1 (in-place)
I0509 21:50:22.873080 17867 net.cpp:105] Setting up inception_5a/relu_1x1
I0509 21:50:22.873092 17867 net.cpp:112] Top shape: 32 256 7 7 (401408)
I0509 21:50:22.873103 17867 layer_factory.hpp:74] Creating layer inception_5a/3x3_reduce
I0509 21:50:22.873121 17867 net.cpp:76] Creating Layer inception_5a/3x3_reduce
I0509 21:50:22.873131 17867 net.cpp:372] inception_5a/3x3_reduce <- pool4/3x3_s2_pool4/3x3_s2_0_split_1
I0509 21:50:22.873143 17867 net.cpp:334] inception_5a/3x3_reduce -> inception_5a/3x3_reduce
I0509 21:50:22.873154 17867 net.cpp:105] Setting up inception_5a/3x3_reduce
I0509 21:50:22.874318 17867 net.cpp:112] Top shape: 32 160 7 7 (250880)
I0509 21:50:22.874335 17867 layer_factory.hpp:74] Creating layer inception_5a/relu_3x3_reduce
I0509 21:50:22.874346 17867 net.cpp:76] Creating Layer inception_5a/relu_3x3_reduce
I0509 21:50:22.874352 17867 net.cpp:372] inception_5a/relu_3x3_reduce <- inception_5a/3x3_reduce
I0509 21:50:22.874361 17867 net.cpp:323] inception_5a/relu_3x3_reduce -> inception_5a/3x3_reduce (in-place)
I0509 21:50:22.874368 17867 net.cpp:105] Setting up inception_5a/relu_3x3_reduce
I0509 21:50:22.874374 17867 net.cpp:112] Top shape: 32 160 7 7 (250880)
I0509 21:50:22.874379 17867 layer_factory.hpp:74] Creating layer inception_5a/3x3
I0509 21:50:22.874390 17867 net.cpp:76] Creating Layer inception_5a/3x3
I0509 21:50:22.874397 17867 net.cpp:372] inception_5a/3x3 <- inception_5a/3x3_reduce
I0509 21:50:22.874404 17867 net.cpp:334] inception_5a/3x3 -> inception_5a/3x3
I0509 21:50:22.874413 17867 net.cpp:105] Setting up inception_5a/3x3
I0509 21:50:22.878358 17867 net.cpp:112] Top shape: 32 320 7 7 (501760)
I0509 21:50:22.878378 17867 layer_factory.hpp:74] Creating layer inception_5a/relu_3x3
I0509 21:50:22.878388 17867 net.cpp:76] Creating Layer inception_5a/relu_3x3
I0509 21:50:22.878394 17867 net.cpp:372] inception_5a/relu_3x3 <- inception_5a/3x3
I0509 21:50:22.878404 17867 net.cpp:323] inception_5a/relu_3x3 -> inception_5a/3x3 (in-place)
I0509 21:50:22.878413 17867 net.cpp:105] Setting up inception_5a/relu_3x3
I0509 21:50:22.878419 17867 net.cpp:112] Top shape: 32 320 7 7 (501760)
I0509 21:50:22.878425 17867 layer_factory.hpp:74] Creating layer inception_5a/5x5_reduce
I0509 21:50:22.878433 17867 net.cpp:76] Creating Layer inception_5a/5x5_reduce
I0509 21:50:22.878440 17867 net.cpp:372] inception_5a/5x5_reduce <- pool4/3x3_s2_pool4/3x3_s2_0_split_2
I0509 21:50:22.878450 17867 net.cpp:334] inception_5a/5x5_reduce -> inception_5a/5x5_reduce
I0509 21:50:22.878460 17867 net.cpp:105] Setting up inception_5a/5x5_reduce
I0509 21:50:22.878695 17867 net.cpp:112] Top shape: 32 32 7 7 (50176)
I0509 21:50:22.878706 17867 layer_factory.hpp:74] Creating layer inception_5a/relu_5x5_reduce
I0509 21:50:22.878716 17867 net.cpp:76] Creating Layer inception_5a/relu_5x5_reduce
I0509 21:50:22.878722 17867 net.cpp:372] inception_5a/relu_5x5_reduce <- inception_5a/5x5_reduce
I0509 21:50:22.878731 17867 net.cpp:323] inception_5a/relu_5x5_reduce -> inception_5a/5x5_reduce (in-place)
I0509 21:50:22.878738 17867 net.cpp:105] Setting up inception_5a/relu_5x5_reduce
I0509 21:50:22.878743 17867 net.cpp:112] Top shape: 32 32 7 7 (50176)
I0509 21:50:22.878749 17867 layer_factory.hpp:74] Creating layer inception_5a/5x5
I0509 21:50:22.878757 17867 net.cpp:76] Creating Layer inception_5a/5x5
I0509 21:50:22.878763 17867 net.cpp:372] inception_5a/5x5 <- inception_5a/5x5_reduce
I0509 21:50:22.878773 17867 net.cpp:334] inception_5a/5x5 -> inception_5a/5x5
I0509 21:50:22.878782 17867 net.cpp:105] Setting up inception_5a/5x5
I0509 21:50:22.879655 17867 net.cpp:112] Top shape: 32 128 7 7 (200704)
I0509 21:50:22.879669 17867 layer_factory.hpp:74] Creating layer inception_5a/relu_5x5
I0509 21:50:22.879678 17867 net.cpp:76] Creating Layer inception_5a/relu_5x5
I0509 21:50:22.879683 17867 net.cpp:372] inception_5a/relu_5x5 <- inception_5a/5x5
I0509 21:50:22.879690 17867 net.cpp:323] inception_5a/relu_5x5 -> inception_5a/5x5 (in-place)
I0509 21:50:22.879701 17867 net.cpp:105] Setting up inception_5a/relu_5x5
I0509 21:50:22.879734 17867 net.cpp:112] Top shape: 32 128 7 7 (200704)
I0509 21:50:22.879741 17867 layer_factory.hpp:74] Creating layer inception_5a/pool
I0509 21:50:22.879750 17867 net.cpp:76] Creating Layer inception_5a/pool
I0509 21:50:22.879756 17867 net.cpp:372] inception_5a/pool <- pool4/3x3_s2_pool4/3x3_s2_0_split_3
I0509 21:50:22.879767 17867 net.cpp:334] inception_5a/pool -> inception_5a/pool
I0509 21:50:22.879776 17867 net.cpp:105] Setting up inception_5a/pool
I0509 21:50:22.879784 17867 net.cpp:112] Top shape: 32 832 7 7 (1304576)
I0509 21:50:22.879791 17867 layer_factory.hpp:74] Creating layer inception_5a/pool_proj
I0509 21:50:22.879801 17867 net.cpp:76] Creating Layer inception_5a/pool_proj
I0509 21:50:22.879807 17867 net.cpp:372] inception_5a/pool_proj <- inception_5a/pool
I0509 21:50:22.879815 17867 net.cpp:334] inception_5a/pool_proj -> inception_5a/pool_proj
I0509 21:50:22.879824 17867 net.cpp:105] Setting up inception_5a/pool_proj
I0509 21:50:22.880733 17867 net.cpp:112] Top shape: 32 128 7 7 (200704)
I0509 21:50:22.880750 17867 layer_factory.hpp:74] Creating layer inception_5a/relu_pool_proj
I0509 21:50:22.880759 17867 net.cpp:76] Creating Layer inception_5a/relu_pool_proj
I0509 21:50:22.880765 17867 net.cpp:372] inception_5a/relu_pool_proj <- inception_5a/pool_proj
I0509 21:50:22.880772 17867 net.cpp:323] inception_5a/relu_pool_proj -> inception_5a/pool_proj (in-place)
I0509 21:50:22.880781 17867 net.cpp:105] Setting up inception_5a/relu_pool_proj
I0509 21:50:22.880786 17867 net.cpp:112] Top shape: 32 128 7 7 (200704)
I0509 21:50:22.880792 17867 layer_factory.hpp:74] Creating layer inception_5a/output
I0509 21:50:22.880802 17867 net.cpp:76] Creating Layer inception_5a/output
I0509 21:50:22.880808 17867 net.cpp:372] inception_5a/output <- inception_5a/1x1
I0509 21:50:22.880815 17867 net.cpp:372] inception_5a/output <- inception_5a/3x3
I0509 21:50:22.880821 17867 net.cpp:372] inception_5a/output <- inception_5a/5x5
I0509 21:50:22.880827 17867 net.cpp:372] inception_5a/output <- inception_5a/pool_proj
I0509 21:50:22.880836 17867 net.cpp:334] inception_5a/output -> inception_5a/output
I0509 21:50:22.880843 17867 net.cpp:105] Setting up inception_5a/output
I0509 21:50:22.880849 17867 net.cpp:112] Top shape: 32 832 7 7 (1304576)
I0509 21:50:22.880856 17867 layer_factory.hpp:74] Creating layer inception_5a/output_inception_5a/output_0_split
I0509 21:50:22.880863 17867 net.cpp:76] Creating Layer inception_5a/output_inception_5a/output_0_split
I0509 21:50:22.880894 17867 net.cpp:372] inception_5a/output_inception_5a/output_0_split <- inception_5a/output
I0509 21:50:22.880904 17867 net.cpp:334] inception_5a/output_inception_5a/output_0_split -> inception_5a/output_inception_5a/output_0_split_0
I0509 21:50:22.880920 17867 net.cpp:334] inception_5a/output_inception_5a/output_0_split -> inception_5a/output_inception_5a/output_0_split_1
I0509 21:50:22.880930 17867 net.cpp:334] inception_5a/output_inception_5a/output_0_split -> inception_5a/output_inception_5a/output_0_split_2
I0509 21:50:22.880940 17867 net.cpp:334] inception_5a/output_inception_5a/output_0_split -> inception_5a/output_inception_5a/output_0_split_3
I0509 21:50:22.880949 17867 net.cpp:105] Setting up inception_5a/output_inception_5a/output_0_split
I0509 21:50:22.880955 17867 net.cpp:112] Top shape: 32 832 7 7 (1304576)
I0509 21:50:22.880960 17867 net.cpp:112] Top shape: 32 832 7 7 (1304576)
I0509 21:50:22.880965 17867 net.cpp:112] Top shape: 32 832 7 7 (1304576)
I0509 21:50:22.880970 17867 net.cpp:112] Top shape: 32 832 7 7 (1304576)
I0509 21:50:22.880975 17867 layer_factory.hpp:74] Creating layer inception_5b/1x1
I0509 21:50:22.880985 17867 net.cpp:76] Creating Layer inception_5b/1x1
I0509 21:50:22.880991 17867 net.cpp:372] inception_5b/1x1 <- inception_5a/output_inception_5a/output_0_split_0
I0509 21:50:22.881000 17867 net.cpp:334] inception_5b/1x1 -> inception_5b/1x1
I0509 21:50:22.881008 17867 net.cpp:105] Setting up inception_5b/1x1
I0509 21:50:22.883684 17867 net.cpp:112] Top shape: 32 384 7 7 (602112)
I0509 21:50:22.883705 17867 layer_factory.hpp:74] Creating layer inception_5b/relu_1x1
I0509 21:50:22.883733 17867 net.cpp:76] Creating Layer inception_5b/relu_1x1
I0509 21:50:22.883740 17867 net.cpp:372] inception_5b/relu_1x1 <- inception_5b/1x1
I0509 21:50:22.883749 17867 net.cpp:323] inception_5b/relu_1x1 -> inception_5b/1x1 (in-place)
I0509 21:50:22.883756 17867 net.cpp:105] Setting up inception_5b/relu_1x1
I0509 21:50:22.883761 17867 net.cpp:112] Top shape: 32 384 7 7 (602112)
I0509 21:50:22.883767 17867 layer_factory.hpp:74] Creating layer inception_5b/3x3_reduce
I0509 21:50:22.883775 17867 net.cpp:76] Creating Layer inception_5b/3x3_reduce
I0509 21:50:22.883781 17867 net.cpp:372] inception_5b/3x3_reduce <- inception_5a/output_inception_5a/output_0_split_1
I0509 21:50:22.883792 17867 net.cpp:334] inception_5b/3x3_reduce -> inception_5b/3x3_reduce
I0509 21:50:22.883802 17867 net.cpp:105] Setting up inception_5b/3x3_reduce
I0509 21:50:22.885152 17867 net.cpp:112] Top shape: 32 192 7 7 (301056)
I0509 21:50:22.885167 17867 layer_factory.hpp:74] Creating layer inception_5b/relu_3x3_reduce
I0509 21:50:22.885175 17867 net.cpp:76] Creating Layer inception_5b/relu_3x3_reduce
I0509 21:50:22.885182 17867 net.cpp:372] inception_5b/relu_3x3_reduce <- inception_5b/3x3_reduce
I0509 21:50:22.885190 17867 net.cpp:323] inception_5b/relu_3x3_reduce -> inception_5b/3x3_reduce (in-place)
I0509 21:50:22.885197 17867 net.cpp:105] Setting up inception_5b/relu_3x3_reduce
I0509 21:50:22.885203 17867 net.cpp:112] Top shape: 32 192 7 7 (301056)
I0509 21:50:22.885208 17867 layer_factory.hpp:74] Creating layer inception_5b/3x3
I0509 21:50:22.885220 17867 net.cpp:76] Creating Layer inception_5b/3x3
I0509 21:50:22.885226 17867 net.cpp:372] inception_5b/3x3 <- inception_5b/3x3_reduce
I0509 21:50:22.885236 17867 net.cpp:334] inception_5b/3x3 -> inception_5b/3x3
I0509 21:50:22.885265 17867 net.cpp:105] Setting up inception_5b/3x3
I0509 21:50:22.891660 17867 net.cpp:112] Top shape: 32 384 7 7 (602112)
I0509 21:50:22.891702 17867 layer_factory.hpp:74] Creating layer inception_5b/relu_3x3
I0509 21:50:22.891736 17867 net.cpp:76] Creating Layer inception_5b/relu_3x3
I0509 21:50:22.892896 17867 net.cpp:372] inception_5b/relu_3x3 <- inception_5b/3x3
I0509 21:50:22.892911 17867 net.cpp:323] inception_5b/relu_3x3 -> inception_5b/3x3 (in-place)
I0509 21:50:22.892923 17867 net.cpp:105] Setting up inception_5b/relu_3x3
I0509 21:50:22.892930 17867 net.cpp:112] Top shape: 32 384 7 7 (602112)
I0509 21:50:22.892935 17867 layer_factory.hpp:74] Creating layer inception_5b/5x5_reduce
I0509 21:50:22.892956 17867 net.cpp:76] Creating Layer inception_5b/5x5_reduce
I0509 21:50:22.892966 17867 net.cpp:372] inception_5b/5x5_reduce <- inception_5a/output_inception_5a/output_0_split_2
I0509 21:50:22.892977 17867 net.cpp:334] inception_5b/5x5_reduce -> inception_5b/5x5_reduce
I0509 21:50:22.892993 17867 net.cpp:105] Setting up inception_5b/5x5_reduce
I0509 21:50:22.893391 17867 net.cpp:112] Top shape: 32 48 7 7 (75264)
I0509 21:50:22.893407 17867 layer_factory.hpp:74] Creating layer inception_5b/relu_5x5_reduce
I0509 21:50:22.893419 17867 net.cpp:76] Creating Layer inception_5b/relu_5x5_reduce
I0509 21:50:22.893425 17867 net.cpp:372] inception_5b/relu_5x5_reduce <- inception_5b/5x5_reduce
I0509 21:50:22.893434 17867 net.cpp:323] inception_5b/relu_5x5_reduce -> inception_5b/5x5_reduce (in-place)
I0509 21:50:22.893442 17867 net.cpp:105] Setting up inception_5b/relu_5x5_reduce
I0509 21:50:22.893447 17867 net.cpp:112] Top shape: 32 48 7 7 (75264)
I0509 21:50:22.893453 17867 layer_factory.hpp:74] Creating layer inception_5b/5x5
I0509 21:50:22.893465 17867 net.cpp:76] Creating Layer inception_5b/5x5
I0509 21:50:22.893471 17867 net.cpp:372] inception_5b/5x5 <- inception_5b/5x5_reduce
I0509 21:50:22.893481 17867 net.cpp:334] inception_5b/5x5 -> inception_5b/5x5
I0509 21:50:22.893491 17867 net.cpp:105] Setting up inception_5b/5x5
I0509 21:50:22.894870 17867 net.cpp:112] Top shape: 32 128 7 7 (200704)
I0509 21:50:22.894886 17867 layer_factory.hpp:74] Creating layer inception_5b/relu_5x5
I0509 21:50:22.894893 17867 net.cpp:76] Creating Layer inception_5b/relu_5x5
I0509 21:50:22.894932 17867 net.cpp:372] inception_5b/relu_5x5 <- inception_5b/5x5
I0509 21:50:22.894942 17867 net.cpp:323] inception_5b/relu_5x5 -> inception_5b/5x5 (in-place)
I0509 21:50:22.894951 17867 net.cpp:105] Setting up inception_5b/relu_5x5
I0509 21:50:22.894958 17867 net.cpp:112] Top shape: 32 128 7 7 (200704)
I0509 21:50:22.894963 17867 layer_factory.hpp:74] Creating layer inception_5b/pool
I0509 21:50:22.894975 17867 net.cpp:76] Creating Layer inception_5b/pool
I0509 21:50:22.894981 17867 net.cpp:372] inception_5b/pool <- inception_5a/output_inception_5a/output_0_split_3
I0509 21:50:22.894989 17867 net.cpp:334] inception_5b/pool -> inception_5b/pool
I0509 21:50:22.894999 17867 net.cpp:105] Setting up inception_5b/pool
I0509 21:50:22.895007 17867 net.cpp:112] Top shape: 32 832 7 7 (1304576)
I0509 21:50:22.895012 17867 layer_factory.hpp:74] Creating layer inception_5b/pool_proj
I0509 21:50:22.895025 17867 net.cpp:76] Creating Layer inception_5b/pool_proj
I0509 21:50:22.895030 17867 net.cpp:372] inception_5b/pool_proj <- inception_5b/pool
I0509 21:50:22.895038 17867 net.cpp:334] inception_5b/pool_proj -> inception_5b/pool_proj
I0509 21:50:22.895050 17867 net.cpp:105] Setting up inception_5b/pool_proj
I0509 21:50:22.896009 17867 net.cpp:112] Top shape: 32 128 7 7 (200704)
I0509 21:50:22.896042 17867 layer_factory.hpp:74] Creating layer inception_5b/relu_pool_proj
I0509 21:50:22.896059 17867 net.cpp:76] Creating Layer inception_5b/relu_pool_proj
I0509 21:50:22.896071 17867 net.cpp:372] inception_5b/relu_pool_proj <- inception_5b/pool_proj
I0509 21:50:22.896085 17867 net.cpp:323] inception_5b/relu_pool_proj -> inception_5b/pool_proj (in-place)
I0509 21:50:22.896095 17867 net.cpp:105] Setting up inception_5b/relu_pool_proj
I0509 21:50:22.896100 17867 net.cpp:112] Top shape: 32 128 7 7 (200704)
I0509 21:50:22.896106 17867 layer_factory.hpp:74] Creating layer inception_5b/output
I0509 21:50:22.896114 17867 net.cpp:76] Creating Layer inception_5b/output
I0509 21:50:22.896121 17867 net.cpp:372] inception_5b/output <- inception_5b/1x1
I0509 21:50:22.896127 17867 net.cpp:372] inception_5b/output <- inception_5b/3x3
I0509 21:50:22.896136 17867 net.cpp:372] inception_5b/output <- inception_5b/5x5
I0509 21:50:22.896147 17867 net.cpp:372] inception_5b/output <- inception_5b/pool_proj
I0509 21:50:22.896158 17867 net.cpp:334] inception_5b/output -> inception_5b/output
I0509 21:50:22.896167 17867 net.cpp:105] Setting up inception_5b/output
I0509 21:50:22.896177 17867 net.cpp:112] Top shape: 32 1024 7 7 (1605632)
I0509 21:50:22.896188 17867 layer_factory.hpp:74] Creating layer pool5/7x7_s1
I0509 21:50:22.896206 17867 net.cpp:76] Creating Layer pool5/7x7_s1
I0509 21:50:22.896219 17867 net.cpp:372] pool5/7x7_s1 <- inception_5b/output
I0509 21:50:22.896229 17867 net.cpp:334] pool5/7x7_s1 -> pool5/7x7_s1
I0509 21:50:22.896239 17867 net.cpp:105] Setting up pool5/7x7_s1
I0509 21:50:22.896245 17867 net.cpp:112] Top shape: 32 1024 1 1 (32768)
I0509 21:50:22.896250 17867 layer_factory.hpp:74] Creating layer pool5/drop_7x7_s1
I0509 21:50:22.896260 17867 net.cpp:76] Creating Layer pool5/drop_7x7_s1
I0509 21:50:22.896265 17867 net.cpp:372] pool5/drop_7x7_s1 <- pool5/7x7_s1
I0509 21:50:22.896287 17867 net.cpp:323] pool5/drop_7x7_s1 -> pool5/7x7_s1 (in-place)
I0509 21:50:22.896297 17867 net.cpp:105] Setting up pool5/drop_7x7_s1
I0509 21:50:22.896304 17867 net.cpp:112] Top shape: 32 1024 1 1 (32768)
I0509 21:50:22.896309 17867 layer_factory.hpp:74] Creating layer loss3/classifier
I0509 21:50:22.896318 17867 net.cpp:76] Creating Layer loss3/classifier
I0509 21:50:22.896324 17867 net.cpp:372] loss3/classifier <- pool5/7x7_s1
I0509 21:50:22.896337 17867 net.cpp:334] loss3/classifier -> loss3/classifier
I0509 21:50:22.896353 17867 net.cpp:105] Setting up loss3/classifier
I0509 21:50:22.896405 17867 net.cpp:112] Top shape: 32 2 1 1 (64)
I0509 21:50:22.896420 17867 layer_factory.hpp:74] Creating layer loss3/loss3
I0509 21:50:22.896430 17867 net.cpp:76] Creating Layer loss3/loss3
I0509 21:50:22.896436 17867 net.cpp:372] loss3/loss3 <- loss3/classifier
I0509 21:50:22.896457 17867 net.cpp:372] loss3/loss3 <- label_data_1_split_2
I0509 21:50:22.896468 17867 net.cpp:334] loss3/loss3 -> loss3/loss3
I0509 21:50:22.896478 17867 net.cpp:105] Setting up loss3/loss3
I0509 21:50:22.896486 17867 layer_factory.hpp:74] Creating layer loss3/loss3
I0509 21:50:22.896505 17867 net.cpp:112] Top shape: 1 1 1 1 (1)
I0509 21:50:22.896513 17867 net.cpp:118]     with loss weight 1
I0509 21:50:22.896531 17867 net.cpp:163] loss3/loss3 needs backward computation.
I0509 21:50:22.896538 17867 net.cpp:163] loss3/classifier needs backward computation.
I0509 21:50:22.896543 17867 net.cpp:163] pool5/drop_7x7_s1 needs backward computation.
I0509 21:50:22.896550 17867 net.cpp:163] pool5/7x7_s1 needs backward computation.
…
I0509 21:50:22.906707 17867 solver.cpp:154] Creating test net (#0) specified by net file: ../../train_val.prototxt
I0509 21:50:22.906996 17867 net.cpp:253] The NetState phase (1) differed from the phase (0) specified by a rule in layer data
I0509 21:50:22.908409 17867 net.cpp:42] Initializing net from parameters: 
name: "GoogleNet"
state {
  phase: TEST
}
layer {
  name: "data"
  type: "Data"
  top: "data"
  top: "label"
  include {
    phase: TEST
  }
  transform_param {
    mirror: false
    crop_size: 224
    mean_value: 104
    mean_value: 117
    mean_value: 123
  }
  data_param {
    source: "val_lmdb"
    batch_size: 32
    backend: LMDB
  }
}
layer {
  name: "conv1/7x7_s2"
  type: "Convolution"
  bottom: "data"
  top: "conv1/7x7_s2"
  param {
    lr_mult: 1
    decay_mult: 1
  }
  param {
    lr_mult: 2
    decay_mult: 0
  }
  convolution_param {
    num_output: 64
    pad: 3
    kernel_size: 7
    stride: 2
    weight_filler {
      type: "xavier"
      std: 0.1
    }
    bias_filler {
      type: "constant"
      value: 0.2
    }
  }
}
layer {
  name: "conv1/relu_7x7"
  type: "ReLU"
  bottom: "conv1/7x7_s2"
  top: "conv1/7x7_s2"
}
layer {
  name: "pool1/3x3_s2"
  type: "Pooling"
  bottom: "conv1/7x7_s2"
  top: "pool1/3x3_s2"
  pooling_param {
    pool: MAX
    kernel_size: 3
    stride: 2
  }
}
layer {
  name: "pool1/norm1"
  type: "LRN"
  bottom: "pool1/3x3_s2"
  top: "pool1/norm1"
  lrn_param {
    local_size: 5
    alpha: 0.0001
    beta: 0.75
  }
}
layer {
  name: "conv2/3x3_reduce"
  type: "Convolution"
  bottom: "pool1/norm1"
  top: "conv2/3x3_reduce"
  param {
    lr_mult: 1
    decay_mult: 1
  }
  param {
    lr_mult: 2
    decay_mult: 0
  }
  convolution_param {
    num_output: 64
    kernel_size: 1
    weight_filler {
      type: "xavier"
      std: 0.1
    }
    bias_filler {
      type: "constant"
      value: 0.2
    }
  }
}
layer {
  name: "conv2/relu_3x3_reduce"
  type: "ReLU"
  bottom: "conv2/3x3_reduce"
  top: "conv2/3x3_reduce"
}
layer {
  name: "conv2/3x3"
  type: "Convolution"
  bottom: "conv2/3x3_reduce"
  top: "conv2/3x3"
  param {
    lr_mult: 1
    decay_mult: 1
  }
  param {
    lr_mult: 2
    decay_mult: 0
  }
  convolution_param {
    num_output: 192
    pad: 1
    kernel_size: 3
    weight_filler {
      type: "xavier"
      std: 0.03
    }
    bias_filler {
      type: "constant"
      value: 0.2
    }
  }
}
layer {
  name: "conv2/relu_3x3"
  type: "ReLU"
  bottom: "conv2/3x3"
  top: "conv2/3x3"
}
layer {
  name: "conv2/norm2"
  type: "LRN"
  bottom: "conv2/3x3"
  top: "conv2/norm2"
  lrn_param {
    local_size: 5
    alpha: 0.0001
    beta: 0.75
  }
}
layer {
  name: "pool2/3x3_s2"
  type: "Pooling"
  bottom: "conv2/norm2"
  top: "pool2/3x3_s2"
  pooling_param {
    pool: MAX
    kernel_size: 3
    stride: 2
  }
}
layer {
  name: "inception_3a/1x1"
  type: "Convolution"
  bottom: "pool2/3x3_s2"
  top: "inception_3a/1x1"
  param {
    lr_mult: 1
    decay_mult: 1
  }
  param {
    lr_mult: 2
    decay_mult: 0
  }
  convolution_param {
    num_output: 64
    kernel_size: 1
    weight_filler {
      type: "xavier"
      std: 0.03
    }
    bias_filler {
      type: "constant"
      value: 0.2
    }
  }
}
layer {
  name: "inception_3a/relu_1x1"
  type: "ReLU"
  bottom: "inception_3a/1x1"
  top: "inception_3a/1x1"
}
layer {
  name: "inception_3a/3x3_reduce"
  type: "Convolution"
  bottom: "pool2/3x3_s2"
  top: "inception_3a/3x3_reduce"
  param {
    lr_mult: 1
    decay_mult: 1
  }
  param {
    lr_mult: 2
    decay_mult: 0
  }
  convolution_param {
    num_output: 96
    kernel_size: 1
    weight_filler {
      type: "xavier"
      std: 0.09
    }
    bias_filler {
      type: "constant"
      value: 0.2
    }
  }
}
layer {
  name: "inception_3a/relu_3x3_reduce"
  type: "ReLU"
  bottom: "inception_3a/3x3_reduce"
  top: "inception_3a/3x3_reduce"
}
layer {
  name: "inception_3a/3x3"
  type: "Convolution"
  bottom: "inception_3a/3x3_reduce"
  top: "inception_3a/3x3"
  param {
    lr_mult: 1
    decay_mult: 1
  }
  param {
    lr_mult: 2
    decay_mult: 0
  }
  convolution_param {
    num_output: 128
    pad: 1
    kernel_size: 3
    weight_filler {
      type: "xavier"
      std: 0.03
    }
    bias_filler {
      type: "constant"
      value: 0.2
    }
  }
}
layer {
  name: "inception_3a/relu_3x3"
  type: "ReLU"
  bottom: "inception_3a/3x3"
  top: "inception_3a/3x3"
}
layer {
  name: "inception_3a/5x5_reduce"
  type: "Convolution"
  bottom: "pool2/3x3_s2"
  top: "inception_3a/5x5_reduce"
  param {
    lr_mult: 1
    decay_mult: 1
  }
  param {
    lr_mult: 2
    decay_mult: 0
  }
  convolution_param {
    num_output: 16
    kernel_size: 1
    weight_filler {
      type: "xavier"
      std: 0.2
    }
    bias_filler {
      type: "constant"
      value: 0.2
    }
  }
}
layer {
  name: "inception_3a/relu_5x5_reduce"
  type: "ReLU"
  bottom: "inception_3a/5x5_reduce"
  top: "inception_3a/5x5_reduce"
}
layer {
  name: "inception_3a/5x5"
  type: "Convolution"
  bottom: "inception_3a/5x5_reduce"
  top: "inception_3a/5x5"
  param {
    lr_mult: 1
    decay_mult: 1
  }
  param {
    lr_mult: 2
    decay_mult: 0
  }
  convolution_param {
    num_output: 32
    pad: 2
    kernel_size: 5
    weight_filler {
      type: "xavier"
      std: 0.03
    }
    bias_filler {
      type: "constant"
      value: 0.2
    }
  }
}
layer {
  name: "inception_3a/relu_5x5"
  type: "ReLU"
  bottom: "inception_3a/5x5"
  top: "inception_3a/5x5"
}
layer {
  name: "inception_3a/pool"
  type: "Pooling"
  bottom: "pool2/3x3_s2"
  top: "inception_3a/pool"
  pooling_param {
    pool: MAX
    kernel_size: 3
    stride: 1
    pad: 1
  }
}
layer {
  name: "inception_3a/pool_proj"
  type: "Convolution"
  bottom: "inception_3a/pool"
  top: "inception_3a/pool_proj"
  param {
    lr_mult: 1
    decay_mult: 1
  }
  param {
    lr_mult: 2
    decay_mult: 0
  }
  convolution_param {
    num_output: 32
    kernel_size: 1
    weight_filler {
      type: "xavier"
      std: 0.1
    }
    bias_filler {
      type: "constant"
      value: 0.2
    }
  }
}
layer {
  name: "inception_3a/relu_pool_proj"
  type: "ReLU"
  bottom: "inception_3a/pool_proj"
  top: "inception_3a/pool_proj"
}
layer {
  name: "inception_3a/output"
  type: "Concat"
  bottom: "inception_3a/1x1"
  bottom: "inception_3a/3x3"
  bottom: "inception_3a/5x5"
  bottom: "inception_3a/pool_proj"
  top: "inception_3a/output"
}
layer {
  name: "inception_3b/1x1"
  type: "Convolution"
  bottom: "inception_3a/output"
  top: "inception_3b/1x1"
  param {
    lr_mult: 1
    decay_mult: 1
  }
  param {
    lr_mult: 2
    decay_mult: 0
  }
  convolution_param {
    num_output: 128
    kernel_size: 1
    weight_filler {
      type: "xavier"
      std: 0.03
    }
    bias_filler {
      type: "constant"
      value: 0.2
    }
  }
}
layer {
  name: "inception_3b/relu_1x1"
  type: "ReLU"
  bottom: "inception_3b/1x1"
  top: "inception_3b/1x1"
}
layer {
  name: "inception_3b/3x3_reduce"
  type: "Convolution"
  bottom: "inception_3a/output"
  top: "inception_3b/3x3_reduce"
  param {
    lr_mult: 1
    decay_mult: 1
  }
  param {
    lr_mult: 2
    decay_mult: 0
  }
  convolution_param {
    num_output: 128
    kernel_size: 1
    weight_filler {
      type: "xavier"
      std: 0.09
    }
    bias_filler {
      type: "constant"
      value: 0.2
    }
  }
}
layer {
  name: "inception_3b/relu_3x3_reduce"
  type: "ReLU"
  bottom: "inception_3b/3x3_reduce"
  top: "inception_3b/3x3_reduce"
}
layer {
  name: "inception_3b/3x3"
  type: "Convolution"
  bottom: "inception_3b/3x3_reduce"
  top: "inception_3b/3x3"
  param {
    lr_mult: 1
    decay_mult: 1
  }
  param {
    lr_mult: 2
    decay_mult: 0
  }
  convolution_param {
    num_output: 192
    pad: 1
    kernel_size: 3
    weight_filler {
      type: "xavier"
      std: 0.03
    }
    bias_filler {
      type: "constant"
      value: 0.2
    }
  }
}
layer {
  name: "inception_3b/relu_3x3"
  type: "ReLU"
  bottom: "inception_3b/3x3"
  top: "inception_3b/3x3"
}
layer {
  name: "inception_3b/5x5_reduce"
  type: "Convolution"
  bottom: "inception_3a/output"
  top: "inception_3b/5x5_reduce"
  param {
    lr_mult: 1
    decay_mult: 1
  }
  param {
    lr_mult: 2
    decay_mult: 0
  }
  convolution_param {
    num_output: 32
    kernel_size: 1
    weight_filler {
      type: "xavier"
      std: 0.2
    }
    bias_filler {
      type: "constant"
      value: 0.2
    }
  }
}
layer {
  name: "inception_3b/relu_5x5_reduce"
  type: "ReLU"
  bottom: "inception_3b/5x5_reduce"
  top: "inception_3b/5x5_reduce"
}
layer {
  name: "inception_3b/5x5"
  type: "Convolution"
  bottom: "inception_3b/5x5_reduce"
  top: "inception_3b/5x5"
  param {
    lr_mult: 1
    decay_mult: 1
  }
  param {
    lr_mult: 2
    decay_mult: 0
  }
  convolution_param {
    num_output: 96
    pad: 2
    kernel_size: 5
    weight_filler {
      type: "xavier"
      std: 0.03
    }
    bias_filler {
      type: "constant"
      value: 0.2
    }
  }
}
layer {
  name: "inception_3b/relu_5x5"
  type: "ReLU"
  bottom: "inception_3b/5x5"
  top: "inception_3b/5x5"
}
layer {
  name: "inception_3b/pool"
  type: "Pooling"
  bottom: "inception_3a/output"
  top: "inception_3b/pool"
  pooling_param {
    pool: MAX
    kernel_size: 3
    stride: 1
    pad: 1
  }
}
layer {
  name: "inception_3b/pool_proj"
  type: "Convolution"
  bottom: "inception_3b/pool"
  top: "inception_3b/pool_proj"
  param {
    lr_mult: 1
    decay_mult: 1
  }
  param {
    lr_mult: 2
    decay_mult: 0
  }
  convolution_param {
    num_output: 64
    kernel_size: 1
    weight_filler {
      type: "xavier"
      std: 0.1
    }
    bias_filler {
      type: "constant"
      value: 0.2
    }
  }
}
layer {
  name: "inception_3b/relu_pool_proj"
  type: "ReLU"
  bottom: "inception_3b/pool_proj"
  top: "inception_3b/pool_proj"
}
layer {
  name: "inception_3b/output"
  type: "Concat"
  bottom: "inception_3b/1x1"
  bottom: "inception_3b/3x3"
  bottom: "inception_3b/5x5"
  bottom: "inception_3b/pool_proj"
  top: "inception_3b/output"
}
layer {
  name: "pool3/3x3_s2"
  type: "Pooling"
  bottom: "inception_3b/output"
  top: "pool3/3x3_s2"
  pooling_param {
    pool: MAX
    kernel_size: 3
    stride: 2
  }
}
layer {
  name: "inception_4a/1x1"
  type: "Convolution"
  bottom: "pool3/3x3_s2"
  top: "inception_4a/1x1"
  param {
    lr_mult: 1
    decay_mult: 1
  }
  param {
    lr_mult: 2
    decay_mult: 0
  }
  convolution_param {
    num_output: 192
    kernel_size: 1
    weight_filler {
      type: "xavier"
      std: 0.03
    }
    bias_filler {
      type: "constant"
      value: 0.2
    }
  }
}
layer {
  name: "inception_4a/relu_1x1"
  type: "ReLU"
  bottom: "inception_4a/1x1"
  top: "inception_4a/1x1"
}
layer {
  name: "inception_4a/3x3_reduce"
  type: "Convolution"
  bottom: "pool3/3x3_s2"
  top: "inception_4a/3x3_reduce"
  param {
    lr_mult: 1
    decay_mult: 1
  }
  param {
    lr_mult: 2
    decay_mult: 0
  }
  convolution_param {
    num_output: 96
    kernel_size: 1
    weight_filler {
      type: "xavier"
      std: 0.09
    }
    bias_filler {
      type: "constant"
      value: 0.2
    }
  }
}
layer {
  name: "inception_4a/relu_3x3_reduce"
  type: "ReLU"
  bottom: "inception_4a/3x3_reduce"
  top: "inception_4a/3x3_reduce"
}
layer {
  name: "inception_4a/3x3"
  type: "Convolution"
  bottom: "inception_4a/3x3_reduce"
  top: "inception_4a/3x3"
  param {
    lr_mult: 1
    decay_mult: 1
  }
  param {
    lr_mult: 2
    decay_mult: 0
  }
  convolution_param {
    num_output: 208
    pad: 1
    kernel_size: 3
    weight_filler {
      type: "xavier"
      std: 0.03
    }
    bias_filler {
      type: "constant"
      value: 0.2
    }
  }
}
layer {
  name: "inception_4a/relu_3x3"
  type: "ReLU"
  bottom: "inception_4a/3x3"
  top: "inception_4a/3x3"
}
layer {
  name: "inception_4a/5x5_reduce"
  type: "Convolution"
  bottom: "pool3/3x3_s2"
  top: "inception_4a/5x5_reduce"
  param {
    lr_mult: 1
    decay_mult: 1
  }
  param {
    lr_mult: 2
    decay_mult: 0
  }
  convolution_param {
    num_output: 16
    kernel_size: 1
    weight_filler {
      type: "xavier"
      std: 0.2
    }
    bias_filler {
      type: "constant"
      value: 0.2
    }
  }
}
layer {
  name: "inception_4a/relu_5x5_reduce"
  type: "ReLU"
  bottom: "inception_4a/5x5_reduce"
  top: "inception_4a/5x5_reduce"
}
layer {
  name: "inception_4a/5x5"
  type: "Convolution"
  bottom: "inception_4a/5x5_reduce"
  top: "inception_4a/5x5"
  param {
    lr_mult: 1
    decay_mult: 1
  }
  param {
    lr_mult: 2
    decay_mult: 0
  }
  convolution_param {
    num_output: 48
    pad: 2
    kernel_size: 5
    weight_filler {
      type: "xavier"
      std: 0.03
    }
    bias_filler {
      type: "constant"
      value: 0.2
    }
  }
}
layer {
  name: "inception_4a/relu_5x5"
  type: "ReLU"
  bottom: "inception_4a/5x5"
  top: "inception_4a/5x5"
}
layer {
  name: "inception_4a/pool"
  type: "Pooling"
  bottom: "pool3/3x3_s2"
  top: "inception_4a/pool"
  pooling_param {
    pool: MAX
    kernel_size: 3
    stride: 1
    pad: 1
  }
}
layer {
  name: "inception_4a/pool_proj"
  type: "Convolution"
  bottom: "inception_4a/pool"
  top: "inception_4a/pool_proj"
  param {
    lr_mult: 1
    decay_mult: 1
  }
  param {
    lr_mult: 2
    decay_mult: 0
  }
  convolution_param {
    num_output: 64
    kernel_size: 1
    weight_filler {
      type: "xavier"
      std: 0.1
    }
    bias_filler {
      type: "constant"
      value: 0.2
    }
  }
}
layer {
  name: "inception_4a/relu_pool_proj"
  type: "ReLU"
  bottom: "inception_4a/pool_proj"
  top: "inception_4a/pool_proj"
}
layer {
  name: "inception_4a/output"
  type: "Concat"
  bottom: "inception_4a/1x1"
  bottom: "inception_4a/3x3"
  bottom: "inception_4a/5x5"
  bottom: "inception_4a/pool_proj"
  top: "inception_4a/output"
}
layer {
  name: "loss1/ave_pool"
  type: "Pooling"
  bottom: "inception_4a/output"
  top: "loss1/ave_pool"
  pooling_param {
    pool: AVE
    kernel_size: 5
    stride: 3
  }
}
layer {
  name: "loss1/conv"
  type: "Convolution"
  bottom: "loss1/ave_pool"
  top: "loss1/conv"
  param {
    lr_mult: 1
    decay_mult: 1
  }
  param {
    lr_mult: 2
    decay_mult: 0
  }
  convolution_param {
    num_output: 128
    kernel_size: 1
    weight_filler {
      type: "xavier"
      std: 0.08
    }
    bias_filler {
      type: "constant"
      value: 0.2
    }
  }
}
layer {
  name: "loss1/relu_conv"
  type: "ReLU"
  bottom: "loss1/conv"
  top: "loss1/conv"
}
layer {
  name: "loss1/fc"
  type: "InnerProduct"
  bottom: "loss1/conv"
  top: "loss1/fc"
  param {
    lr_mult: 1
    decay_mult: 1
  }
  param {
    lr_mult: 2
    decay_mult: 0
  }
  inner_product_param {
    num_output: 1024
    weight_filler {
      type: "xavier"
      std: 0.02
    }
    bias_filler {
      type: "constant"
      value: 0.2
    }
  }
}
layer {
  name: "loss1/relu_fc"
  type: "ReLU"
  bottom: "loss1/fc"
  top: "loss1/fc"
}
layer {
  name: "loss1/drop_fc"
  type: "Dropout"
  bottom: "loss1/fc"
  top: "loss1/fc"
  dropout_param {
    dropout_ratio: 0.7
  }
}
layer {
  name: "loss1/classifier"
  type: "InnerProduct"
  bottom: "loss1/fc"
  top: "loss1/classifier"
  param {
    lr_mult: 1
    decay_mult: 1
  }
  param {
    lr_mult: 2
    decay_mult: 0
  }
  inner_product_param {
    num_output: 2
    weight_filler {
      type: "xavier"
      std: 0.0009765625
    }
    bias_filler {
      type: "constant"
      value: 0
    }
  }
}
layer {
  name: "loss1/loss"
  type: "SoftmaxWithLoss"
  bottom: "loss1/classifier"
  bottom: "label"
  top: "loss1/loss1"
  loss_weight: 0.3
}
layer {
  name: "loss1/top-1"
  type: "Accuracy"
  bottom: "loss1/classifier"
  bottom: "label"
  top: "loss1/top-1"
  include {
    phase: TEST
  }
}
layer {
  name: "inception_4b/1x1"
  type: "Convolution"
  bottom: "inception_4a/output"
  top: "inception_4b/1x1"
  param {
    lr_mult: 1
    decay_mult: 1
  }
  param {
    lr_mult: 2
    decay_mult: 0
  }
  convolution_param {
    num_output: 160
    kernel_size: 1
    weight_filler {
      type: "xavier"
      std: 0.03
    }
    bias_filler {
      type: "constant"
      value: 0.2
    }
  }
}
layer {
  name: "inception_4b/relu_1x1"
  type: "ReLU"
  bottom: "inception_4b/1x1"
  top: "inception_4b/1x1"
}
layer {
  name: "inception_4b/3x3_reduce"
  type: "Convolution"
  bottom: "inception_4a/output"
  top: "inception_4b/3x3_reduce"
  param {
    lr_mult: 1
    decay_mult: 1
  }
  param {
    lr_mult: 2
    decay_mult: 0
  }
  convolution_param {
    num_output: 112
    kernel_size: 1
    weight_filler {
      type: "xavier"
      std: 0.09
    }
    bias_filler {
      type: "constant"
      value: 0.2
    }
  }
}
layer {
  name: "inception_4b/relu_3x3_reduce"
  type: "ReLU"
  bottom: "inception_4b/3x3_reduce"
  top: "inception_4b/3x3_reduce"
}
layer {
  name: "inception_4b/3x3"
  type: "Convolution"
  bottom: "inception_4b/3x3_reduce"
  top: "inception_4b/3x3"
  param {
    lr_mult: 1
    decay_mult: 1
  }
  param {
    lr_mult: 2
    decay_mult: 0
  }
  convolution_param {
    num_output: 224
    pad: 1
    kernel_size: 3
    weight_filler {
      type: "xavier"
      std: 0.03
    }
    bias_filler {
      type: "constant"
      value: 0.2
    }
  }
}
layer {
  name: "inception_4b/relu_3x3"
  type: "ReLU"
  bottom: "inception_4b/3x3"
  top: "inception_4b/3x3"
}
layer {
  name: "inception_4b/5x5_reduce"
  type: "Convolution"
  bottom: "inception_4a/output"
  top: "inception_4b/5x5_reduce"
  param {
    lr_mult: 1
    decay_mult: 1
  }
  param {
    lr_mult: 2
    decay_mult: 0
  }
  convolution_param {
    num_output: 24
    kernel_size: 1
    weight_filler {
      type: "xavier"
      std: 0.2
    }
    bias_filler {
      type: "constant"
      value: 0.2
    }
  }
}
layer {
  name: "inception_4b/relu_5x5_reduce"
  type: "ReLU"
  bottom: "inception_4b/5x5_reduce"
  top: "inception_4b/5x5_reduce"
}
layer {
  name: "inception_4b/5x5"
  type: "Convolution"
  bottom: "inception_4b/5x5_reduce"
  top: "inception_4b/5x5"
  param {
    lr_mult: 1
    decay_mult: 1
  }
  param {
    lr_mult: 2
    decay_mult: 0
  }
  convolution_param {
    num_output: 64
    pad: 2
    kernel_size: 5
    weight_filler {
      type: "xavier"
      std: 0.03
    }
    bias_filler {
      type: "constant"
      value: 0.2
    }
  }
}
layer {
  name: "inception_4b/relu_5x5"
  type: "ReLU"
  bottom: "inception_4b/5x5"
  top: "inception_4b/5x5"
}
layer {
  name: "inception_4b/pool"
  type: "Pooling"
  bottom: "inception_4a/output"
  top: "inception_4b/pool"
  pooling_param {
    pool: MAX
    kernel_size: 3
    stride: 1
    pad: 1
  }
}
layer {
  name: "inception_4b/pool_proj"
  type: "Convolution"
  bottom: "inception_4b/pool"
  top: "inception_4b/pool_proj"
  param {
    lr_mult: 1
    decay_mult: 1
  }
  param {
    lr_mult: 2
    decay_mult: 0
  }
  convolution_param {
    num_output: 64
    kernel_size: 1
    weight_filler {
      type: "xavier"
      std: 0.1
    }
    bias_filler {
      type: "constant"
      value: 0.2
    }
  }
}
layer {
  name: "inception_4b/relu_pool_proj"
  type: "ReLU"
  bottom: "inception_4b/pool_proj"
  top: "inception_4b/pool_proj"
}
layer {
  name: "inception_4b/output"
  type: "Concat"
  bottom: "inception_4b/1x1"
  bottom: "inception_4b/3x3"
  bottom: "inception_4b/5x5"
  bottom: "inception_4b/pool_proj"
  top: "inception_4b/output"
}
layer {
  name: "inception_4c/1x1"
  type: "Convolution"
  bottom: "inception_4b/output"
  top: "inception_4c/1x1"
  param {
    lr_mult: 1
    decay_mult: 1
  }
  param {
    lr_mult: 2
    decay_mult: 0
  }
  convolution_param {
    num_output: 128
    kernel_size: 1
    weight_filler {
      type: "xavier"
      std: 0.03
    }
    bias_filler {
      type: "constant"
      value: 0.2
    }
  }
}
layer {
  name: "inception_4c/relu_1x1"
  type: "ReLU"
  bottom: "inception_4c/1x1"
  top: "inception_4c/1x1"
}
layer {
  name: "inception_4c/3x3_reduce"
  type: "Convolution"
  bottom: "inception_4b/output"
  top: "inception_4c/3x3_reduce"
  param {
    lr_mult: 1
    decay_mult: 1
  }
  param {
    lr_mult: 2
    decay_mult: 0
  }
  convolution_param {
    num_output: 128
    kernel_size: 1
    weight_filler {
      type: "xavier"
      std: 0.09
    }
    bias_filler {
      type: "constant"
      value: 0.2
    }
  }
}
layer {
  name: "inception_4c/relu_3x3_reduce"
  type: "ReLU"
  bottom: "inception_4c/3x3_reduce"
  top: "inception_4c/3x3_reduce"
}
layer {
  name: "inception_4c/3x3"
  type: "Convolution"
  bottom: "inception_4c/3x3_reduce"
  top: "inception_4c/3x3"
  param {
    lr_mult: 1
    decay_mult: 1
  }
  param {
    lr_mult: 2
    decay_mult: 0
  }
  convolution_param {
    num_output: 256
    pad: 1
    kernel_size: 3
    weight_filler {
      type: "xavier"
      std: 0.03
    }
    bias_filler {
      type: "constant"
      value: 0.2
    }
  }
}
layer {
  name: "inception_4c/relu_3x3"
  type: "ReLU"
  bottom: "inception_4c/3x3"
  top: "inception_4c/3x3"
}
layer {
  name: "inception_4c/5x5_reduce"
  type: "Convolution"
  bottom: "inception_4b/output"
  top: "inception_4c/5x5_reduce"
  param {
    lr_mult: 1
    decay_mult: 1
  }
  param {
    lr_mult: 2
    decay_mult: 0
  }
  convolution_param {
    num_output: 24
    kernel_size: 1
    weight_filler {
      type: "xavier"
      std: 0.2
    }
    bias_filler {
      type: "constant"
      value: 0.2
    }
  }
}
layer {
  name: "inception_4c/relu_5x5_reduce"
  type: "ReLU"
  bottom: "inception_4c/5x5_reduce"
  top: "inception_4c/5x5_reduce"
}
layer {
  name: "inception_4c/5x5"
  type: "Convolution"
  bottom: "inception_4c/5x5_reduce"
  top: "inception_4c/5x5"
  param {
    lr_mult: 1
    decay_mult: 1
  }
  param {
    lr_mult: 2
    decay_mult: 0
  }
  convolution_param {
    num_output: 64
    pad: 2
    kernel_size: 5
    weight_filler {
      type: "xavier"
      std: 0.03
    }
    bias_filler {
      type: "constant"
      value: 0.2
    }
  }
}
layer {
  name: "inception_4c/relu_5x5"
  type: "ReLU"
  bottom: "inception_4c/5x5"
  top: "inception_4c/5x5"
}
layer {
  name: "inception_4c/pool"
  type: "Pooling"
  bottom: "inception_4b/output"
  top: "inception_4c/pool"
  pooling_param {
    pool: MAX
    kernel_size: 3
    stride: 1
    pad: 1
  }
}
layer {
  name: "inception_4c/pool_proj"
  type: "Convolution"
  bottom: "inception_4c/pool"
  top: "inception_4c/pool_proj"
  param {
    lr_mult: 1
    decay_mult: 1
  }
  param {
    lr_mult: 2
    decay_mult: 0
  }
  convolution_param {
    num_output: 64
    kernel_size: 1
    weight_filler {
      type: "xavier"
      std: 0.1
    }
    bias_filler {
      type: "constant"
      value: 0.2
    }
  }
}
layer {
  name: "inception_4c/relu_pool_proj"
  type: "ReLU"
  bottom: "inception_4c/pool_proj"
  top: "inception_4c/pool_proj"
}
layer {
  name: "inception_4c/output"
  type: "Concat"
  bottom: "inception_4c/1x1"
  bottom: "inception_4c/3x3"
  bottom: "inception_4c/5x5"
  bottom: "inception_4c/pool_proj"
  top: "inception_4c/output"
}
layer {
  name: "inception_4d/1x1"
  type: "Convolution"
  bottom: "inception_4c/output"
  top: "inception_4d/1x1"
  param {
    lr_mult: 1
    decay_mult: 1
  }
  param {
    lr_mult: 2
    decay_mult: 0
  }
  convolution_param {
    num_output: 112
    kernel_size: 1
    weight_filler {
      type: "xavier"
      std: 0.03
    }
    bias_filler {
      type: "constant"
      value: 0.2
    }
  }
}
layer {
  name: "inception_4d/relu_1x1"
  type: "ReLU"
  bottom: "inception_4d/1x1"
  top: "inception_4d/1x1"
}
layer {
  name: "inception_4d/3x3_reduce"
  type: "Convolution"
  bottom: "inception_4c/output"
  top: "inception_4d/3x3_reduce"
  param {
    lr_mult: 1
    decay_mult: 1
  }
  param {
    lr_mult: 2
    decay_mult: 0
  }
  convolution_param {
    num_output: 144
    kernel_size: 1
    weight_filler {
      type: "xavier"
      std: 0.09
    }
    bias_filler {
      type: "constant"
      value: 0.2
    }
  }
}
layer {
  name: "inception_4d/relu_3x3_reduce"
  type: "ReLU"
  bottom: "inception_4d/3x3_reduce"
  top: "inception_4d/3x3_reduce"
}
layer {
  name: "inception_4d/3x3"
  type: "Convolution"
  bottom: "inception_4d/3x3_reduce"
  top: "inception_4d/3x3"
  param {
    lr_mult: 1
    decay_mult: 1
  }
  param {
    lr_mult: 2
    decay_mult: 0
  }
  convolution_param {
    num_output: 288
    pad: 1
    kernel_size: 3
    weight_filler {
      type: "xavier"
      std: 0.03
    }
    bias_filler {
      type: "constant"
      value: 0.2
    }
  }
}
layer {
  name: "inception_4d/relu_3x3"
  type: "ReLU"
  bottom: "inception_4d/3x3"
  top: "inception_4d/3x3"
}
layer {
  name: "inception_4d/5x5_reduce"
  type: "Convolution"
  bottom: "inception_4c/output"
  top: "inception_4d/5x5_reduce"
  param {
    lr_mult: 1
    decay_mult: 1
  }
  param {
    lr_mult: 2
    decay_mult: 0
  }
  convolution_param {
    num_output: 32
    kernel_size: 1
    weight_filler {
      type: "xavier"
      std: 0.2
    }
    bias_filler {
      type: "constant"
      value: 0.2
    }
  }
}
layer {
  name: "inception_4d/relu_5x5_reduce"
  type: "ReLU"
  bottom: "inception_4d/5x5_reduce"
  top: "inception_4d/5x5_reduce"
}
layer {
  name: "inception_4d/5x5"
  type: "Convolution"
  bottom: "inception_4d/5x5_reduce"
  top: "inception_4d/5x5"
  param {
    lr_mult: 1
    decay_mult: 1
  }
  param {
    lr_mult: 2
    decay_mult: 0
  }
  convolution_param {
    num_output: 64
    pad: 2
    kernel_size: 5
    weight_filler {
      type: "xavier"
      std: 0.03
    }
    bias_filler {
      type: "constant"
      value: 0.2
    }
  }
}
layer {
  name: "inception_4d/relu_5x5"
  type: "ReLU"
  bottom: "inception_4d/5x5"
  top: "inception_4d/5x5"
}
layer {
  name: "inception_4d/pool"
  type: "Pooling"
  bottom: "inception_4c/output"
  top: "inception_4d/pool"
  pooling_param {
    pool: MAX
    kernel_size: 3
    stride: 1
    pad: 1
  }
}
layer {
  name: "inception_4d/pool_proj"
  type: "Convolution"
  bottom: "inception_4d/pool"
  top: "inception_4d/pool_proj"
  param {
    lr_mult: 1
    decay_mult: 1
  }
  param {
    lr_mult: 2
    decay_mult: 0
  }
  convolution_param {
    num_output: 64
    kernel_size: 1
    weight_filler {
      type: "xavier"
      std: 0.1
    }
    bias_filler {
      type: "constant"
      value: 0.2
    }
  }
}
layer {
  name: "inception_4d/relu_pool_proj"
  type: "ReLU"
  bottom: "inception_4d/pool_proj"
  top: "inception_4d/pool_proj"
}
layer {
  name: "inception_4d/output"
  type: "Concat"
  bottom: "inception_4d/1x1"
  bottom: "inception_4d/3x3"
  bottom: "inception_4d/5x5"
  bottom: "inception_4d/pool_proj"
  top: "inception_4d/output"
}
layer {
  name: "loss2/ave_pool"
  type: "Pooling"
  bottom: "inception_4d/output"
  top: "loss2/ave_pool"
  pooling_param {
    pool: AVE
    kernel_size: 5
    stride: 3
  }
}
layer {
  name: "loss2/conv"
  type: "Convolution"
  bottom: "loss2/ave_pool"
  top: "loss2/conv"
  param {
    lr_mult: 1
    decay_mult: 1
  }
  param {
    lr_mult: 2
    decay_mult: 0
  }
  convolution_param {
    num_output: 128
    kernel_size: 1
    weight_filler {
      type: "xavier"
      std: 0.08
    }
    bias_filler {
      type: "constant"
      value: 0.2
    }
  }
}
layer {
  name: "loss2/relu_conv"
  type: "ReLU"
  bottom: "loss2/conv"
  top: "loss2/conv"
}
layer {
  name: "loss2/fc"
  type: "InnerProduct"
…
I0509 21:50:22.963206 17867 net.cpp:112] Top shape: 32 128 14 14 (802816)
I0509 21:50:22.963223 17867 layer_factory.hpp:74] Creating layer inception_4c/relu_1x1
I0509 21:50:22.963232 17867 net.cpp:76] Creating Layer inception_4c/relu_1x1
I0509 21:50:22.963238 17867 net.cpp:372] inception_4c/relu_1x1 <- inception_4c/1x1
I0509 21:50:22.963246 17867 net.cpp:323] inception_4c/relu_1x1 -> inception_4c/1x1 (in-place)
I0509 21:50:22.963254 17867 net.cpp:105] Setting up inception_4c/relu_1x1
I0509 21:50:22.963259 17867 net.cpp:112] Top shape: 32 128 14 14 (802816)
I0509 21:50:22.963304 17867 layer_factory.hpp:74] Creating layer inception_4c/3x3_reduce
I0509 21:50:22.963316 17867 net.cpp:76] Creating Layer inception_4c/3x3_reduce
I0509 21:50:22.963323 17867 net.cpp:372] inception_4c/3x3_reduce <- inception_4b/output_inception_4b/output_0_split_1
I0509 21:50:22.963332 17867 net.cpp:334] inception_4c/3x3_reduce -> inception_4c/3x3_reduce
I0509 21:50:22.963341 17867 net.cpp:105] Setting up inception_4c/3x3_reduce
I0509 21:50:22.963933 17867 net.cpp:112] Top shape: 32 128 14 14 (802816)
I0509 21:50:22.963951 17867 layer_factory.hpp:74] Creating layer inception_4c/relu_3x3_reduce
I0509 21:50:22.963960 17867 net.cpp:76] Creating Layer inception_4c/relu_3x3_reduce
I0509 21:50:22.963966 17867 net.cpp:372] inception_4c/relu_3x3_reduce <- inception_4c/3x3_reduce
I0509 21:50:22.963974 17867 net.cpp:323] inception_4c/relu_3x3_reduce -> inception_4c/3x3_reduce (in-place)
I0509 21:50:22.963982 17867 net.cpp:105] Setting up inception_4c/relu_3x3_reduce
I0509 21:50:22.963987 17867 net.cpp:112] Top shape: 32 128 14 14 (802816)
I0509 21:50:22.963994 17867 layer_factory.hpp:74] Creating layer inception_4c/3x3
I0509 21:50:22.964001 17867 net.cpp:76] Creating Layer inception_4c/3x3
I0509 21:50:22.964007 17867 net.cpp:372] inception_4c/3x3 <- inception_4c/3x3_reduce
I0509 21:50:22.964016 17867 net.cpp:334] inception_4c/3x3 -> inception_4c/3x3
I0509 21:50:22.964025 17867 net.cpp:105] Setting up inception_4c/3x3
I0509 21:50:22.966502 17867 net.cpp:112] Top shape: 32 256 14 14 (1605632)
I0509 21:50:22.966536 17867 layer_factory.hpp:74] Creating layer inception_4c/relu_3x3
I0509 21:50:22.966547 17867 net.cpp:76] Creating Layer inception_4c/relu_3x3
I0509 21:50:22.966552 17867 net.cpp:372] inception_4c/relu_3x3 <- inception_4c/3x3
I0509 21:50:22.966560 17867 net.cpp:323] inception_4c/relu_3x3 -> inception_4c/3x3 (in-place)
I0509 21:50:22.966568 17867 net.cpp:105] Setting up inception_4c/relu_3x3
I0509 21:50:22.966574 17867 net.cpp:112] Top shape: 32 256 14 14 (1605632)
I0509 21:50:22.966579 17867 layer_factory.hpp:74] Creating layer inception_4c/5x5_reduce
I0509 21:50:22.966588 17867 net.cpp:76] Creating Layer inception_4c/5x5_reduce
I0509 21:50:22.966594 17867 net.cpp:372] inception_4c/5x5_reduce <- inception_4b/output_inception_4b/output_0_split_2
I0509 21:50:22.966605 17867 net.cpp:334] inception_4c/5x5_reduce -> inception_4c/5x5_reduce
I0509 21:50:22.966614 17867 net.cpp:105] Setting up inception_4c/5x5_reduce
I0509 21:50:22.966730 17867 net.cpp:112] Top shape: 32 24 14 14 (150528)
I0509 21:50:22.966742 17867 layer_factory.hpp:74] Creating layer inception_4c/relu_5x5_reduce
I0509 21:50:22.966749 17867 net.cpp:76] Creating Layer inception_4c/relu_5x5_reduce
I0509 21:50:22.966755 17867 net.cpp:372] inception_4c/relu_5x5_reduce <- inception_4c/5x5_reduce
I0509 21:50:22.966763 17867 net.cpp:323] inception_4c/relu_5x5_reduce -> inception_4c/5x5_reduce (in-place)
I0509 21:50:22.966769 17867 net.cpp:105] Setting up inception_4c/relu_5x5_reduce
I0509 21:50:22.966775 17867 net.cpp:112] Top shape: 32 24 14 14 (150528)
I0509 21:50:22.966780 17867 layer_factory.hpp:74] Creating layer inception_4c/5x5
I0509 21:50:22.966790 17867 net.cpp:76] Creating Layer inception_4c/5x5
I0509 21:50:22.966796 17867 net.cpp:372] inception_4c/5x5 <- inception_4c/5x5_reduce
I0509 21:50:22.966804 17867 net.cpp:334] inception_4c/5x5 -> inception_4c/5x5
I0509 21:50:22.966815 17867 net.cpp:105] Setting up inception_4c/5x5
I0509 21:50:22.967141 17867 net.cpp:112] Top shape: 32 64 14 14 (401408)
I0509 21:50:22.967154 17867 layer_factory.hpp:74] Creating layer inception_4c/relu_5x5
I0509 21:50:22.967164 17867 net.cpp:76] Creating Layer inception_4c/relu_5x5
I0509 21:50:22.967170 17867 net.cpp:372] inception_4c/relu_5x5 <- inception_4c/5x5
I0509 21:50:22.967177 17867 net.cpp:323] inception_4c/relu_5x5 -> inception_4c/5x5 (in-place)
I0509 21:50:22.967185 17867 net.cpp:105] Setting up inception_4c/relu_5x5
I0509 21:50:22.967190 17867 net.cpp:112] Top shape: 32 64 14 14 (401408)
I0509 21:50:22.967195 17867 layer_factory.hpp:74] Creating layer inception_4c/pool
I0509 21:50:22.967222 17867 net.cpp:76] Creating Layer inception_4c/pool
I0509 21:50:22.967231 17867 net.cpp:372] inception_4c/pool <- inception_4b/output_inception_4b/output_0_split_3
I0509 21:50:22.967238 17867 net.cpp:334] inception_4c/pool -> inception_4c/pool
I0509 21:50:22.967247 17867 net.cpp:105] Setting up inception_4c/pool
I0509 21:50:22.967255 17867 net.cpp:112] Top shape: 32 512 14 14 (3211264)
I0509 21:50:22.967262 17867 layer_factory.hpp:74] Creating layer inception_4c/pool_proj
I0509 21:50:22.967284 17867 net.cpp:76] Creating Layer inception_4c/pool_proj
I0509 21:50:22.967291 17867 net.cpp:372] inception_4c/pool_proj <- inception_4c/pool
I0509 21:50:22.967301 17867 net.cpp:334] inception_4c/pool_proj -> inception_4c/pool_proj
I0509 21:50:22.967311 17867 net.cpp:105] Setting up inception_4c/pool_proj
I0509 21:50:22.967599 17867 net.cpp:112] Top shape: 32 64 14 14 (401408)
I0509 21:50:22.967612 17867 layer_factory.hpp:74] Creating layer inception_4c/relu_pool_proj
I0509 21:50:22.967622 17867 net.cpp:76] Creating Layer inception_4c/relu_pool_proj
I0509 21:50:22.967628 17867 net.cpp:372] inception_4c/relu_pool_proj <- inception_4c/pool_proj
I0509 21:50:22.967635 17867 net.cpp:323] inception_4c/relu_pool_proj -> inception_4c/pool_proj (in-place)
I0509 21:50:22.967643 17867 net.cpp:105] Setting up inception_4c/relu_pool_proj
I0509 21:50:22.967648 17867 net.cpp:112] Top shape: 32 64 14 14 (401408)
I0509 21:50:22.967653 17867 layer_factory.hpp:74] Creating layer inception_4c/output
I0509 21:50:22.967664 17867 net.cpp:76] Creating Layer inception_4c/output
I0509 21:50:22.967669 17867 net.cpp:372] inception_4c/output <- inception_4c/1x1
I0509 21:50:22.967675 17867 net.cpp:372] inception_4c/output <- inception_4c/3x3
I0509 21:50:22.967682 17867 net.cpp:372] inception_4c/output <- inception_4c/5x5
I0509 21:50:22.967689 17867 net.cpp:372] inception_4c/output <- inception_4c/pool_proj
I0509 21:50:22.967695 17867 net.cpp:334] inception_4c/output -> inception_4c/output
I0509 21:50:22.967706 17867 net.cpp:105] Setting up inception_4c/output
I0509 21:50:22.967713 17867 net.cpp:112] Top shape: 32 512 14 14 (3211264)
I0509 21:50:22.967718 17867 layer_factory.hpp:74] Creating layer inception_4c/output_inception_4c/output_0_split
I0509 21:50:22.967727 17867 net.cpp:76] Creating Layer inception_4c/output_inception_4c/output_0_split
I0509 21:50:22.967732 17867 net.cpp:372] inception_4c/output_inception_4c/output_0_split <- inception_4c/output
I0509 21:50:22.967741 17867 net.cpp:334] inception_4c/output_inception_4c/output_0_split -> inception_4c/output_inception_4c/output_0_split_0
I0509 21:50:22.967749 17867 net.cpp:334] inception_4c/output_inception_4c/output_0_split -> inception_4c/output_inception_4c/output_0_split_1
I0509 21:50:22.967763 17867 net.cpp:334] inception_4c/output_inception_4c/output_0_split -> inception_4c/output_inception_4c/output_0_split_2
I0509 21:50:22.967772 17867 net.cpp:334] inception_4c/output_inception_4c/output_0_split -> inception_4c/output_inception_4c/output_0_split_3
I0509 21:50:22.967782 17867 net.cpp:105] Setting up inception_4c/output_inception_4c/output_0_split
I0509 21:50:22.967790 17867 net.cpp:112] Top shape: 32 512 14 14 (3211264)
I0509 21:50:22.967795 17867 net.cpp:112] Top shape: 32 512 14 14 (3211264)
I0509 21:50:22.967800 17867 net.cpp:112] Top shape: 32 512 14 14 (3211264)
I0509 21:50:22.967805 17867 net.cpp:112] Top shape: 32 512 14 14 (3211264)
I0509 21:50:22.967810 17867 layer_factory.hpp:74] Creating layer inception_4d/1x1
I0509 21:50:22.967820 17867 net.cpp:76] Creating Layer inception_4d/1x1
I0509 21:50:22.967826 17867 net.cpp:372] inception_4d/1x1 <- inception_4c/output_inception_4c/output_0_split_0
I0509 21:50:22.967834 17867 net.cpp:334] inception_4d/1x1 -> inception_4d/1x1
I0509 21:50:22.967844 17867 net.cpp:105] Setting up inception_4d/1x1
I0509 21:50:22.968340 17867 net.cpp:112] Top shape: 32 112 14 14 (702464)
I0509 21:50:22.968353 17867 layer_factory.hpp:74] Creating layer inception_4d/relu_1x1
I0509 21:50:22.968363 17867 net.cpp:76] Creating Layer inception_4d/relu_1x1
I0509 21:50:22.968400 17867 net.cpp:372] inception_4d/relu_1x1 <- inception_4d/1x1
I0509 21:50:22.968411 17867 net.cpp:323] inception_4d/relu_1x1 -> inception_4d/1x1 (in-place)
I0509 21:50:22.968420 17867 net.cpp:105] Setting up inception_4d/relu_1x1
I0509 21:50:22.968426 17867 net.cpp:112] Top shape: 32 112 14 14 (702464)
I0509 21:50:22.968431 17867 layer_factory.hpp:74] Creating layer inception_4d/3x3_reduce
I0509 21:50:22.968441 17867 net.cpp:76] Creating Layer inception_4d/3x3_reduce
I0509 21:50:22.968446 17867 net.cpp:372] inception_4d/3x3_reduce <- inception_4c/output_inception_4c/output_0_split_1
I0509 21:50:22.968456 17867 net.cpp:334] inception_4d/3x3_reduce -> inception_4d/3x3_reduce
I0509 21:50:22.968466 17867 net.cpp:105] Setting up inception_4d/3x3_reduce
I0509 21:50:22.969105 17867 net.cpp:112] Top shape: 32 144 14 14 (903168)
I0509 21:50:22.969118 17867 layer_factory.hpp:74] Creating layer inception_4d/relu_3x3_reduce
I0509 21:50:22.969126 17867 net.cpp:76] Creating Layer inception_4d/relu_3x3_reduce
I0509 21:50:22.969132 17867 net.cpp:372] inception_4d/relu_3x3_reduce <- inception_4d/3x3_reduce
I0509 21:50:22.969140 17867 net.cpp:323] inception_4d/relu_3x3_reduce -> inception_4d/3x3_reduce (in-place)
I0509 21:50:22.969147 17867 net.cpp:105] Setting up inception_4d/relu_3x3_reduce
I0509 21:50:22.969152 17867 net.cpp:112] Top shape: 32 144 14 14 (903168)
I0509 21:50:22.969157 17867 layer_factory.hpp:74] Creating layer inception_4d/3x3
I0509 21:50:22.969168 17867 net.cpp:76] Creating Layer inception_4d/3x3
I0509 21:50:22.969173 17867 net.cpp:372] inception_4d/3x3 <- inception_4d/3x3_reduce
I0509 21:50:22.969182 17867 net.cpp:334] inception_4d/3x3 -> inception_4d/3x3
I0509 21:50:22.969189 17867 net.cpp:105] Setting up inception_4d/3x3
I0509 21:50:22.972336 17867 net.cpp:112] Top shape: 32 288 14 14 (1806336)
I0509 21:50:22.972355 17867 layer_factory.hpp:74] Creating layer inception_4d/relu_3x3
I0509 21:50:22.972364 17867 net.cpp:76] Creating Layer inception_4d/relu_3x3
I0509 21:50:22.972370 17867 net.cpp:372] inception_4d/relu_3x3 <- inception_4d/3x3
I0509 21:50:22.972378 17867 net.cpp:323] inception_4d/relu_3x3 -> inception_4d/3x3 (in-place)
I0509 21:50:22.972385 17867 net.cpp:105] Setting up inception_4d/relu_3x3
I0509 21:50:22.972390 17867 net.cpp:112] Top shape: 32 288 14 14 (1806336)
I0509 21:50:22.972396 17867 layer_factory.hpp:74] Creating layer inception_4d/5x5_reduce
I0509 21:50:22.972407 17867 net.cpp:76] Creating Layer inception_4d/5x5_reduce
I0509 21:50:22.972414 17867 net.cpp:372] inception_4d/5x5_reduce <- inception_4c/output_inception_4c/output_0_split_2
I0509 21:50:22.972422 17867 net.cpp:334] inception_4d/5x5_reduce -> inception_4d/5x5_reduce
I0509 21:50:22.972431 17867 net.cpp:105] Setting up inception_4d/5x5_reduce
I0509 21:50:22.972576 17867 net.cpp:112] Top shape: 32 32 14 14 (200704)
I0509 21:50:22.972587 17867 layer_factory.hpp:74] Creating layer inception_4d/relu_5x5_reduce
I0509 21:50:22.972595 17867 net.cpp:76] Creating Layer inception_4d/relu_5x5_reduce
I0509 21:50:22.972601 17867 net.cpp:372] inception_4d/relu_5x5_reduce <- inception_4d/5x5_reduce
I0509 21:50:22.972609 17867 net.cpp:323] inception_4d/relu_5x5_reduce -> inception_4d/5x5_reduce (in-place)
I0509 21:50:22.972615 17867 net.cpp:105] Setting up inception_4d/relu_5x5_reduce
I0509 21:50:22.972620 17867 net.cpp:112] Top shape: 32 32 14 14 (200704)
I0509 21:50:22.972626 17867 layer_factory.hpp:74] Creating layer inception_4d/5x5
I0509 21:50:22.972636 17867 net.cpp:76] Creating Layer inception_4d/5x5
I0509 21:50:22.972642 17867 net.cpp:372] inception_4d/5x5 <- inception_4d/5x5_reduce
I0509 21:50:22.972652 17867 net.cpp:334] inception_4d/5x5 -> inception_4d/5x5
I0509 21:50:22.972661 17867 net.cpp:105] Setting up inception_4d/5x5
I0509 21:50:22.973104 17867 net.cpp:112] Top shape: 32 64 14 14 (401408)
I0509 21:50:22.973117 17867 layer_factory.hpp:74] Creating layer inception_4d/relu_5x5
I0509 21:50:22.973127 17867 net.cpp:76] Creating Layer inception_4d/relu_5x5
I0509 21:50:22.974805 17867 net.cpp:372] inception_4d/relu_5x5 <- inception_4d/5x5
I0509 21:50:22.974853 17867 net.cpp:323] inception_4d/relu_5x5 -> inception_4d/5x5 (in-place)
I0509 21:50:22.974865 17867 net.cpp:105] Setting up inception_4d/relu_5x5
I0509 21:50:22.974872 17867 net.cpp:112] Top shape: 32 64 14 14 (401408)
I0509 21:50:22.974879 17867 layer_factory.hpp:74] Creating layer inception_4d/pool
I0509 21:50:22.974887 17867 net.cpp:76] Creating Layer inception_4d/pool
I0509 21:50:22.974897 17867 net.cpp:372] inception_4d/pool <- inception_4c/output_inception_4c/output_0_split_3
I0509 21:50:22.974905 17867 net.cpp:334] inception_4d/pool -> inception_4d/pool
I0509 21:50:22.974915 17867 net.cpp:105] Setting up inception_4d/pool
I0509 21:50:22.974923 17867 net.cpp:112] Top shape: 32 512 14 14 (3211264)
I0509 21:50:22.974928 17867 layer_factory.hpp:74] Creating layer inception_4d/pool_proj
I0509 21:50:22.974938 17867 net.cpp:76] Creating Layer inception_4d/pool_proj
I0509 21:50:22.974944 17867 net.cpp:372] inception_4d/pool_proj <- inception_4d/pool
I0509 21:50:22.974956 17867 net.cpp:334] inception_4d/pool_proj -> inception_4d/pool_proj
I0509 21:50:22.974966 17867 net.cpp:105] Setting up inception_4d/pool_proj
I0509 21:50:22.975298 17867 net.cpp:112] Top shape: 32 64 14 14 (401408)
I0509 21:50:22.975320 17867 layer_factory.hpp:74] Creating layer inception_4d/relu_pool_proj
I0509 21:50:22.975330 17867 net.cpp:76] Creating Layer inception_4d/relu_pool_proj
I0509 21:50:22.975337 17867 net.cpp:372] inception_4d/relu_pool_proj <- inception_4d/pool_proj
I0509 21:50:22.975344 17867 net.cpp:323] inception_4d/relu_pool_proj -> inception_4d/pool_proj (in-place)
I0509 21:50:22.975353 17867 net.cpp:105] Setting up inception_4d/relu_pool_proj
I0509 21:50:22.975358 17867 net.cpp:112] Top shape: 32 64 14 14 (401408)
I0509 21:50:22.975363 17867 layer_factory.hpp:74] Creating layer inception_4d/output
I0509 21:50:22.975374 17867 net.cpp:76] Creating Layer inception_4d/output
I0509 21:50:22.975380 17867 net.cpp:372] inception_4d/output <- inception_4d/1x1
I0509 21:50:22.975388 17867 net.cpp:372] inception_4d/output <- inception_4d/3x3
I0509 21:50:22.975394 17867 net.cpp:372] inception_4d/output <- inception_4d/5x5
I0509 21:50:22.975400 17867 net.cpp:372] inception_4d/output <- inception_4d/pool_proj
I0509 21:50:22.975409 17867 net.cpp:334] inception_4d/output -> inception_4d/output
I0509 21:50:22.975416 17867 net.cpp:105] Setting up inception_4d/output
I0509 21:50:22.975424 17867 net.cpp:112] Top shape: 32 528 14 14 (3311616)
I0509 21:50:22.975433 17867 layer_factory.hpp:74] Creating layer inception_4d/output_inception_4d/output_0_split
I0509 21:50:22.975448 17867 net.cpp:76] Creating Layer inception_4d/output_inception_4d/output_0_split
I0509 21:50:22.975461 17867 net.cpp:372] inception_4d/output_inception_4d/output_0_split <- inception_4d/output
I0509 21:50:22.975481 17867 net.cpp:334] inception_4d/output_inception_4d/output_0_split -> inception_4d/output_inception_4d/output_0_split_0
I0509 21:50:22.975493 17867 net.cpp:334] inception_4d/output_inception_4d/output_0_split -> inception_4d/output_inception_4d/output_0_split_1
I0509 21:50:22.975503 17867 net.cpp:334] inception_4d/output_inception_4d/output_0_split -> inception_4d/output_inception_4d/output_0_split_2
I0509 21:50:22.975512 17867 net.cpp:334] inception_4d/output_inception_4d/output_0_split -> inception_4d/output_inception_4d/output_0_split_3
I0509 21:50:22.975522 17867 net.cpp:334] inception_4d/output_inception_4d/output_0_split -> inception_4d/output_inception_4d/output_0_split_4
I0509 21:50:22.975529 17867 net.cpp:105] Setting up inception_4d/output_inception_4d/output_0_split
I0509 21:50:22.975538 17867 net.cpp:112] Top shape: 32 528 14 14 (3311616)
I0509 21:50:22.975546 17867 net.cpp:112] Top shape: 32 528 14 14 (3311616)
I0509 21:50:22.975554 17867 net.cpp:112] Top shape: 32 528 14 14 (3311616)
I0509 21:50:22.975564 17867 net.cpp:112] Top shape: 32 528 14 14 (3311616)
I0509 21:50:22.976902 17867 net.cpp:112] Top shape: 32 528 14 14 (3311616)
I0509 21:50:22.976913 17867 layer_factory.hpp:74] Creating layer loss2/ave_pool
I0509 21:50:22.976944 17867 net.cpp:76] Creating Layer loss2/ave_pool
I0509 21:50:22.976953 17867 net.cpp:372] loss2/ave_pool <- inception_4d/output_inception_4d/output_0_split_0
I0509 21:50:22.976963 17867 net.cpp:334] loss2/ave_pool -> loss2/ave_pool
I0509 21:50:22.976972 17867 net.cpp:105] Setting up loss2/ave_pool
I0509 21:50:22.976979 17867 net.cpp:112] Top shape: 32 528 4 4 (270336)
I0509 21:50:22.976985 17867 layer_factory.hpp:74] Creating layer loss2/conv
I0509 21:50:22.976997 17867 net.cpp:76] Creating Layer loss2/conv
I0509 21:50:22.977004 17867 net.cpp:372] loss2/conv <- loss2/ave_pool
I0509 21:50:22.977011 17867 net.cpp:334] loss2/conv -> loss2/conv
I0509 21:50:22.977020 17867 net.cpp:105] Setting up loss2/conv
I0509 21:50:22.977650 17867 net.cpp:112] Top shape: 32 128 4 4 (65536)
I0509 21:50:22.977669 17867 layer_factory.hpp:74] Creating layer loss2/relu_conv
I0509 21:50:22.977677 17867 net.cpp:76] Creating Layer loss2/relu_conv
I0509 21:50:22.977684 17867 net.cpp:372] loss2/relu_conv <- loss2/conv
I0509 21:50:22.977692 17867 net.cpp:323] loss2/relu_conv -> loss2/conv (in-place)
I0509 21:50:22.977701 17867 net.cpp:105] Setting up loss2/relu_conv
I0509 21:50:22.977707 17867 net.cpp:112] Top shape: 32 128 4 4 (65536)
I0509 21:50:22.977712 17867 layer_factory.hpp:74] Creating layer loss2/fc
I0509 21:50:22.977721 17867 net.cpp:76] Creating Layer loss2/fc
I0509 21:50:22.977726 17867 net.cpp:372] loss2/fc <- loss2/conv
I0509 21:50:22.977735 17867 net.cpp:334] loss2/fc -> loss2/fc
I0509 21:50:22.977743 17867 net.cpp:105] Setting up loss2/fc
I0509 21:50:22.995793 17867 net.cpp:112] Top shape: 32 1024 1 1 (32768)
I0509 21:50:22.995841 17867 layer_factory.hpp:74] Creating layer loss2/relu_fc
I0509 21:50:22.995856 17867 net.cpp:76] Creating Layer loss2/relu_fc
I0509 21:50:22.995863 17867 net.cpp:372] loss2/relu_fc <- loss2/fc
I0509 21:50:22.995873 17867 net.cpp:323] loss2/relu_fc -> loss2/fc (in-place)
I0509 21:50:22.995884 17867 net.cpp:105] Setting up loss2/relu_fc
I0509 21:50:22.995892 17867 net.cpp:112] Top shape: 32 1024 1 1 (32768)
I0509 21:50:22.995898 17867 layer_factory.hpp:74] Creating layer loss2/drop_fc
I0509 21:50:22.995908 17867 net.cpp:76] Creating Layer loss2/drop_fc
I0509 21:50:22.995914 17867 net.cpp:372] loss2/drop_fc <- loss2/fc
I0509 21:50:22.995921 17867 net.cpp:323] loss2/drop_fc -> loss2/fc (in-place)
I0509 21:50:22.995929 17867 net.cpp:105] Setting up loss2/drop_fc
I0509 21:50:22.995935 17867 net.cpp:112] Top shape: 32 1024 1 1 (32768)
I0509 21:50:22.995941 17867 layer_factory.hpp:74] Creating layer loss2/classifier
I0509 21:50:22.995950 17867 net.cpp:76] Creating Layer loss2/classifier
I0509 21:50:22.995956 17867 net.cpp:372] loss2/classifier <- loss2/fc
I0509 21:50:22.995966 17867 net.cpp:334] loss2/classifier -> loss2/classifier
I0509 21:50:22.995977 17867 net.cpp:105] Setting up loss2/classifier
I0509 21:50:22.996009 17867 net.cpp:112] Top shape: 32 2 1 1 (64)
I0509 21:50:22.996019 17867 layer_factory.hpp:74] Creating layer loss2/classifier_loss2/classifier_0_split
I0509 21:50:22.996031 17867 net.cpp:76] Creating Layer loss2/classifier_loss2/classifier_0_split
I0509 21:50:22.996037 17867 net.cpp:372] loss2/classifier_loss2/classifier_0_split <- loss2/classifier
I0509 21:50:22.996044 17867 net.cpp:334] loss2/classifier_loss2/classifier_0_split -> loss2/classifier_loss2/classifier_0_split_0
I0509 21:50:22.996053 17867 net.cpp:334] loss2/classifier_loss2/classifier_0_split -> loss2/classifier_loss2/classifier_0_split_1
I0509 21:50:22.996062 17867 net.cpp:105] Setting up loss2/classifier_loss2/classifier_0_split
I0509 21:50:22.996069 17867 net.cpp:112] Top shape: 32 2 1 1 (64)
I0509 21:50:22.996075 17867 net.cpp:112] Top shape: 32 2 1 1 (64)
I0509 21:50:22.996080 17867 layer_factory.hpp:74] Creating layer loss2/loss
I0509 21:50:22.996089 17867 net.cpp:76] Creating Layer loss2/loss
I0509 21:50:22.996095 17867 net.cpp:372] loss2/loss <- loss2/classifier_loss2/classifier_0_split_0
I0509 21:50:22.996103 17867 net.cpp:372] loss2/loss <- label_data_1_split_2
I0509 21:50:22.996112 17867 net.cpp:334] loss2/loss -> loss2/loss1
I0509 21:50:22.996155 17867 net.cpp:105] Setting up loss2/loss
I0509 21:50:22.996165 17867 layer_factory.hpp:74] Creating layer loss2/loss
I0509 21:50:22.996178 17867 net.cpp:112] Top shape: 1 1 1 1 (1)
I0509 21:50:22.996184 17867 net.cpp:118]     with loss weight 0.3
I0509 21:50:22.996201 17867 layer_factory.hpp:74] Creating layer loss2/top-1
I0509 21:50:22.996211 17867 net.cpp:76] Creating Layer loss2/top-1
I0509 21:50:22.996217 17867 net.cpp:372] loss2/top-1 <- loss2/classifier_loss2/classifier_0_split_1
I0509 21:50:22.996223 17867 net.cpp:372] loss2/top-1 <- label_data_1_split_3
I0509 21:50:22.996230 17867 net.cpp:334] loss2/top-1 -> loss2/top-1
I0509 21:50:22.996239 17867 net.cpp:105] Setting up loss2/top-1
I0509 21:50:22.996245 17867 net.cpp:112] Top shape: 1 1 1 1 (1)
I0509 21:50:22.996251 17867 layer_factory.hpp:74] Creating layer inception_4e/1x1
I0509 21:50:22.996264 17867 net.cpp:76] Creating Layer inception_4e/1x1
I0509 21:50:22.996307 17867 net.cpp:372] inception_4e/1x1 <- inception_4d/output_inception_4d/output_0_split_1
I0509 21:50:22.996322 17867 net.cpp:334] inception_4e/1x1 -> inception_4e/1x1
I0509 21:50:22.996332 17867 net.cpp:105] Setting up inception_4e/1x1
I0509 21:50:22.997493 17867 net.cpp:112] Top shape: 32 256 14 14 (1605632)
I0509 21:50:22.997508 17867 layer_factory.hpp:74] Creating layer inception_4e/relu_1x1
I0509 21:50:22.997516 17867 net.cpp:76] Creating Layer inception_4e/relu_1x1
I0509 21:50:22.997522 17867 net.cpp:372] inception_4e/relu_1x1 <- inception_4e/1x1
I0509 21:50:22.997532 17867 net.cpp:323] inception_4e/relu_1x1 -> inception_4e/1x1 (in-place)
I0509 21:50:22.997540 17867 net.cpp:105] Setting up inception_4e/relu_1x1
I0509 21:50:22.997545 17867 net.cpp:112] Top shape: 32 256 14 14 (1605632)
I0509 21:50:22.997551 17867 layer_factory.hpp:74] Creating layer inception_4e/3x3_reduce
I0509 21:50:22.997562 17867 net.cpp:76] Creating Layer inception_4e/3x3_reduce
I0509 21:50:22.997568 17867 net.cpp:372] inception_4e/3x3_reduce <- inception_4d/output_inception_4d/output_0_split_2
I0509 21:50:22.997576 17867 net.cpp:334] inception_4e/3x3_reduce -> inception_4e/3x3_reduce
I0509 21:50:22.997586 17867 net.cpp:105] Setting up inception_4e/3x3_reduce
I0509 21:50:22.998311 17867 net.cpp:112] Top shape: 32 160 14 14 (1003520)
I0509 21:50:22.998325 17867 layer_factory.hpp:74] Creating layer inception_4e/relu_3x3_reduce
I0509 21:50:22.998335 17867 net.cpp:76] Creating Layer inception_4e/relu_3x3_reduce
I0509 21:50:22.998342 17867 net.cpp:372] inception_4e/relu_3x3_reduce <- inception_4e/3x3_reduce
I0509 21:50:22.998348 17867 net.cpp:323] inception_4e/relu_3x3_reduce -> inception_4e/3x3_reduce (in-place)
I0509 21:50:22.998356 17867 net.cpp:105] Setting up inception_4e/relu_3x3_reduce
I0509 21:50:22.998363 17867 net.cpp:112] Top shape: 32 160 14 14 (1003520)
I0509 21:50:22.998368 17867 layer_factory.hpp:74] Creating layer inception_4e/3x3
I0509 21:50:22.998397 17867 net.cpp:76] Creating Layer inception_4e/3x3
I0509 21:50:22.998405 17867 net.cpp:372] inception_4e/3x3 <- inception_4e/3x3_reduce
I0509 21:50:22.998414 17867 net.cpp:334] inception_4e/3x3 -> inception_4e/3x3
I0509 21:50:22.998424 17867 net.cpp:105] Setting up inception_4e/3x3
I0509 21:50:23.002287 17867 net.cpp:112] Top shape: 32 320 14 14 (2007040)
I0509 21:50:23.002315 17867 layer_factory.hpp:74] Creating layer inception_4e/relu_3x3
I0509 21:50:23.002324 17867 net.cpp:76] Creating Layer inception_4e/relu_3x3
I0509 21:50:23.002331 17867 net.cpp:372] inception_4e/relu_3x3 <- inception_4e/3x3
I0509 21:50:23.002341 17867 net.cpp:323] inception_4e/relu_3x3 -> inception_4e/3x3 (in-place)
I0509 21:50:23.002351 17867 net.cpp:105] Setting up inception_4e/relu_3x3
I0509 21:50:23.002357 17867 net.cpp:112] Top shape: 32 320 14 14 (2007040)
I0509 21:50:23.002362 17867 layer_factory.hpp:74] Creating layer inception_4e/5x5_reduce
I0509 21:50:23.002370 17867 net.cpp:76] Creating Layer inception_4e/5x5_reduce
I0509 21:50:23.002377 17867 net.cpp:372] inception_4e/5x5_reduce <- inception_4d/output_inception_4d/output_0_split_3
I0509 21:50:23.002410 17867 net.cpp:334] inception_4e/5x5_reduce -> inception_4e/5x5_reduce
I0509 21:50:23.002421 17867 net.cpp:105] Setting up inception_4e/5x5_reduce
I0509 21:50:23.002570 17867 net.cpp:112] Top shape: 32 32 14 14 (200704)
I0509 21:50:23.002581 17867 layer_factory.hpp:74] Creating layer inception_4e/relu_5x5_reduce
I0509 21:50:23.002589 17867 net.cpp:76] Creating Layer inception_4e/relu_5x5_reduce
I0509 21:50:23.002595 17867 net.cpp:372] inception_4e/relu_5x5_reduce <- inception_4e/5x5_reduce
I0509 21:50:23.002604 17867 net.cpp:323] inception_4e/relu_5x5_reduce -> inception_4e/5x5_reduce (in-place)
I0509 21:50:23.002612 17867 net.cpp:105] Setting up inception_4e/relu_5x5_reduce
I0509 21:50:23.002619 17867 net.cpp:112] Top shape: 32 32 14 14 (200704)
I0509 21:50:23.002624 17867 layer_factory.hpp:74] Creating layer inception_4e/5x5
I0509 21:50:23.002632 17867 net.cpp:76] Creating Layer inception_4e/5x5
I0509 21:50:23.002640 17867 net.cpp:372] inception_4e/5x5 <- inception_4e/5x5_reduce
I0509 21:50:23.002650 17867 net.cpp:334] inception_4e/5x5 -> inception_4e/5x5
I0509 21:50:23.002660 17867 net.cpp:105] Setting up inception_4e/5x5
I0509 21:50:23.003531 17867 net.cpp:112] Top shape: 32 128 14 14 (802816)
I0509 21:50:23.003545 17867 layer_factory.hpp:74] Creating layer inception_4e/relu_5x5
I0509 21:50:23.003552 17867 net.cpp:76] Creating Layer inception_4e/relu_5x5
I0509 21:50:23.003558 17867 net.cpp:372] inception_4e/relu_5x5 <- inception_4e/5x5
I0509 21:50:23.003571 17867 net.cpp:323] inception_4e/relu_5x5 -> inception_4e/5x5 (in-place)
I0509 21:50:23.003578 17867 net.cpp:105] Setting up inception_4e/relu_5x5
I0509 21:50:23.003583 17867 net.cpp:112] Top shape: 32 128 14 14 (802816)
I0509 21:50:23.003589 17867 layer_factory.hpp:74] Creating layer inception_4e/pool
I0509 21:50:23.003597 17867 net.cpp:76] Creating Layer inception_4e/pool
I0509 21:50:23.003603 17867 net.cpp:372] inception_4e/pool <- inception_4d/output_inception_4d/output_0_split_4
I0509 21:50:23.003612 17867 net.cpp:334] inception_4e/pool -> inception_4e/pool
I0509 21:50:23.003619 17867 net.cpp:105] Setting up inception_4e/pool
I0509 21:50:23.003628 17867 net.cpp:112] Top shape: 32 528 14 14 (3311616)
I0509 21:50:23.003634 17867 layer_factory.hpp:74] Creating layer inception_4e/pool_proj
I0509 21:50:23.003645 17867 net.cpp:76] Creating Layer inception_4e/pool_proj
I0509 21:50:23.003651 17867 net.cpp:372] inception_4e/pool_proj <- inception_4e/pool
I0509 21:50:23.003659 17867 net.cpp:334] inception_4e/pool_proj -> inception_4e/pool_proj
I0509 21:50:23.003671 17867 net.cpp:105] Setting up inception_4e/pool_proj
I0509 21:50:23.004246 17867 net.cpp:112] Top shape: 32 128 14 14 (802816)
I0509 21:50:23.004261 17867 layer_factory.hpp:74] Creating layer inception_4e/relu_pool_proj
I0509 21:50:23.004286 17867 net.cpp:76] Creating Layer inception_4e/relu_pool_proj
I0509 21:50:23.004293 17867 net.cpp:372] inception_4e/relu_pool_proj <- inception_4e/pool_proj
I0509 21:50:23.004300 17867 net.cpp:323] inception_4e/relu_pool_proj -> inception_4e/pool_proj (in-place)
I0509 21:50:23.004309 17867 net.cpp:105] Setting up inception_4e/relu_pool_proj
I0509 21:50:23.004314 17867 net.cpp:112] Top shape: 32 128 14 14 (802816)
I0509 21:50:23.004320 17867 layer_factory.hpp:74] Creating layer inception_4e/output
I0509 21:50:23.004328 17867 net.cpp:76] Creating Layer inception_4e/output
I0509 21:50:23.004333 17867 net.cpp:372] inception_4e/output <- inception_4e/1x1
I0509 21:50:23.004340 17867 net.cpp:372] inception_4e/output <- inception_4e/3x3
I0509 21:50:23.004348 17867 net.cpp:372] inception_4e/output <- inception_4e/5x5
I0509 21:50:23.004382 17867 net.cpp:372] inception_4e/output <- inception_4e/pool_proj
I0509 21:50:23.004401 17867 net.cpp:334] inception_4e/output -> inception_4e/output
I0509 21:50:23.004417 17867 net.cpp:105] Setting up inception_4e/output
I0509 21:50:23.004429 17867 net.cpp:112] Top shape: 32 832 14 14 (5218304)
I0509 21:50:23.004439 17867 layer_factory.hpp:74] Creating layer pool4/3x3_s2
I0509 21:50:23.004452 17867 net.cpp:76] Creating Layer pool4/3x3_s2
I0509 21:50:23.004477 17867 net.cpp:372] pool4/3x3_s2 <- inception_4e/output
I0509 21:50:23.004487 17867 net.cpp:334] pool4/3x3_s2 -> pool4/3x3_s2
I0509 21:50:23.004497 17867 net.cpp:105] Setting up pool4/3x3_s2
I0509 21:50:23.006103 17867 net.cpp:112] Top shape: 32 832 7 7 (1304576)
I0509 21:50:23.006113 17867 layer_factory.hpp:74] Creating layer pool4/3x3_s2_pool4/3x3_s2_0_split
I0509 21:50:23.006125 17867 net.cpp:76] Creating Layer pool4/3x3_s2_pool4/3x3_s2_0_split
I0509 21:50:23.006132 17867 net.cpp:372] pool4/3x3_s2_pool4/3x3_s2_0_split <- pool4/3x3_s2
I0509 21:50:23.006141 17867 net.cpp:334] pool4/3x3_s2_pool4/3x3_s2_0_split -> pool4/3x3_s2_pool4/3x3_s2_0_split_0
I0509 21:50:23.006150 17867 net.cpp:334] pool4/3x3_s2_pool4/3x3_s2_0_split -> pool4/3x3_s2_pool4/3x3_s2_0_split_1
I0509 21:50:23.006160 17867 net.cpp:334] pool4/3x3_s2_pool4/3x3_s2_0_split -> pool4/3x3_s2_pool4/3x3_s2_0_split_2
I0509 21:50:23.006170 17867 net.cpp:334] pool4/3x3_s2_pool4/3x3_s2_0_split -> pool4/3x3_s2_pool4/3x3_s2_0_split_3
I0509 21:50:23.006180 17867 net.cpp:105] Setting up pool4/3x3_s2_pool4/3x3_s2_0_split
I0509 21:50:23.006186 17867 net.cpp:112] Top shape: 32 832 7 7 (1304576)
I0509 21:50:23.006191 17867 net.cpp:112] Top shape: 32 832 7 7 (1304576)
I0509 21:50:23.006196 17867 net.cpp:112] Top shape: 32 832 7 7 (1304576)
I0509 21:50:23.006201 17867 net.cpp:112] Top shape: 32 832 7 7 (1304576)
I0509 21:50:23.006206 17867 layer_factory.hpp:74] Creating layer inception_5a/1x1
I0509 21:50:23.006216 17867 net.cpp:76] Creating Layer inception_5a/1x1
I0509 21:50:23.006222 17867 net.cpp:372] inception_5a/1x1 <- pool4/3x3_s2_pool4/3x3_s2_0_split_0
I0509 21:50:23.006232 17867 net.cpp:334] inception_5a/1x1 -> inception_5a/1x1
I0509 21:50:23.006242 17867 net.cpp:105] Setting up inception_5a/1x1
I0509 21:50:23.008113 17867 net.cpp:112] Top shape: 32 256 7 7 (401408)
I0509 21:50:23.008132 17867 layer_factory.hpp:74] Creating layer inception_5a/relu_1x1
I0509 21:50:23.008141 17867 net.cpp:76] Creating Layer inception_5a/relu_1x1
I0509 21:50:23.008148 17867 net.cpp:372] inception_5a/relu_1x1 <- inception_5a/1x1
I0509 21:50:23.008157 17867 net.cpp:323] inception_5a/relu_1x1 -> inception_5a/1x1 (in-place)
I0509 21:50:23.008164 17867 net.cpp:105] Setting up inception_5a/relu_1x1
I0509 21:50:23.008170 17867 net.cpp:112] Top shape: 32 256 7 7 (401408)
I0509 21:50:23.008175 17867 layer_factory.hpp:74] Creating layer inception_5a/3x3_reduce
I0509 21:50:23.008189 17867 net.cpp:76] Creating Layer inception_5a/3x3_reduce
I0509 21:50:23.008196 17867 net.cpp:372] inception_5a/3x3_reduce <- pool4/3x3_s2_pool4/3x3_s2_0_split_1
I0509 21:50:23.008205 17867 net.cpp:334] inception_5a/3x3_reduce -> inception_5a/3x3_reduce
I0509 21:50:23.008215 17867 net.cpp:105] Setting up inception_5a/3x3_reduce
I0509 21:50:23.009361 17867 net.cpp:112] Top shape: 32 160 7 7 (250880)
I0509 21:50:23.009380 17867 layer_factory.hpp:74] Creating layer inception_5a/relu_3x3_reduce
I0509 21:50:23.009389 17867 net.cpp:76] Creating Layer inception_5a/relu_3x3_reduce
I0509 21:50:23.009395 17867 net.cpp:372] inception_5a/relu_3x3_reduce <- inception_5a/3x3_reduce
I0509 21:50:23.009405 17867 net.cpp:323] inception_5a/relu_3x3_reduce -> inception_5a/3x3_reduce (in-place)
I0509 21:50:23.009414 17867 net.cpp:105] Setting up inception_5a/relu_3x3_reduce
I0509 21:50:23.009419 17867 net.cpp:112] Top shape: 32 160 7 7 (250880)
I0509 21:50:23.009425 17867 layer_factory.hpp:74] Creating layer inception_5a/3x3
I0509 21:50:23.009434 17867 net.cpp:76] Creating Layer inception_5a/3x3
I0509 21:50:23.009439 17867 net.cpp:372] inception_5a/3x3 <- inception_5a/3x3_reduce
I0509 21:50:23.009449 17867 net.cpp:334] inception_5a/3x3 -> inception_5a/3x3
I0509 21:50:23.009459 17867 net.cpp:105] Setting up inception_5a/3x3
I0509 21:50:23.013289 17867 net.cpp:112] Top shape: 32 320 7 7 (501760)
I0509 21:50:23.013314 17867 layer_factory.hpp:74] Creating layer inception_5a/relu_3x3
I0509 21:50:23.013324 17867 net.cpp:76] Creating Layer inception_5a/relu_3x3
I0509 21:50:23.013330 17867 net.cpp:372] inception_5a/relu_3x3 <- inception_5a/3x3
I0509 21:50:23.013370 17867 net.cpp:323] inception_5a/relu_3x3 -> inception_5a/3x3 (in-place)
I0509 21:50:23.013381 17867 net.cpp:105] Setting up inception_5a/relu_3x3
I0509 21:50:23.013386 17867 net.cpp:112] Top shape: 32 320 7 7 (501760)
I0509 21:50:23.013391 17867 layer_factory.hpp:74] Creating layer inception_5a/5x5_reduce
I0509 21:50:23.013403 17867 net.cpp:76] Creating Layer inception_5a/5x5_reduce
I0509 21:50:23.013411 17867 net.cpp:372] inception_5a/5x5_reduce <- pool4/3x3_s2_pool4/3x3_s2_0_split_2
I0509 21:50:23.013419 17867 net.cpp:334] inception_5a/5x5_reduce -> inception_5a/5x5_reduce
I0509 21:50:23.013432 17867 net.cpp:105] Setting up inception_5a/5x5_reduce
I0509 21:50:23.013684 17867 net.cpp:112] Top shape: 32 32 7 7 (50176)
I0509 21:50:23.013698 17867 layer_factory.hpp:74] Creating layer inception_5a/relu_5x5_reduce
I0509 21:50:23.013707 17867 net.cpp:76] Creating Layer inception_5a/relu_5x5_reduce
I0509 21:50:23.013713 17867 net.cpp:372] inception_5a/relu_5x5_reduce <- inception_5a/5x5_reduce
I0509 21:50:23.013722 17867 net.cpp:323] inception_5a/relu_5x5_reduce -> inception_5a/5x5_reduce (in-place)
I0509 21:50:23.013731 17867 net.cpp:105] Setting up inception_5a/relu_5x5_reduce
I0509 21:50:23.013736 17867 net.cpp:112] Top shape: 32 32 7 7 (50176)
I0509 21:50:23.013741 17867 layer_factory.hpp:74] Creating layer inception_5a/5x5
I0509 21:50:23.013751 17867 net.cpp:76] Creating Layer inception_5a/5x5
I0509 21:50:23.013756 17867 net.cpp:372] inception_5a/5x5 <- inception_5a/5x5_reduce
I0509 21:50:23.013763 17867 net.cpp:334] inception_5a/5x5 -> inception_5a/5x5
I0509 21:50:23.013772 17867 net.cpp:105] Setting up inception_5a/5x5
I0509 21:50:23.014646 17867 net.cpp:112] Top shape: 32 128 7 7 (200704)
I0509 21:50:23.014660 17867 layer_factory.hpp:74] Creating layer inception_5a/relu_5x5
I0509 21:50:23.014668 17867 net.cpp:76] Creating Layer inception_5a/relu_5x5
I0509 21:50:23.014677 17867 net.cpp:372] inception_5a/relu_5x5 <- inception_5a/5x5
I0509 21:50:23.014683 17867 net.cpp:323] inception_5a/relu_5x5 -> inception_5a/5x5 (in-place)
I0509 21:50:23.014691 17867 net.cpp:105] Setting up inception_5a/relu_5x5
I0509 21:50:23.014698 17867 net.cpp:112] Top shape: 32 128 7 7 (200704)
I0509 21:50:23.014703 17867 layer_factory.hpp:74] Creating layer inception_5a/pool
I0509 21:50:23.014711 17867 net.cpp:76] Creating Layer inception_5a/pool
I0509 21:50:23.014717 17867 net.cpp:372] inception_5a/pool <- pool4/3x3_s2_pool4/3x3_s2_0_split_3
I0509 21:50:23.014725 17867 net.cpp:334] inception_5a/pool -> inception_5a/pool
I0509 21:50:23.014755 17867 net.cpp:105] Setting up inception_5a/pool
I0509 21:50:23.014767 17867 net.cpp:112] Top shape: 32 832 7 7 (1304576)
I0509 21:50:23.014773 17867 layer_factory.hpp:74] Creating layer inception_5a/pool_proj
I0509 21:50:23.014782 17867 net.cpp:76] Creating Layer inception_5a/pool_proj
I0509 21:50:23.014788 17867 net.cpp:372] inception_5a/pool_proj <- inception_5a/pool
I0509 21:50:23.014797 17867 net.cpp:334] inception_5a/pool_proj -> inception_5a/pool_proj
I0509 21:50:23.014808 17867 net.cpp:105] Setting up inception_5a/pool_proj
I0509 21:50:23.015712 17867 net.cpp:112] Top shape: 32 128 7 7 (200704)
I0509 21:50:23.015727 17867 layer_factory.hpp:74] Creating layer inception_5a/relu_pool_proj
I0509 21:50:23.015735 17867 net.cpp:76] Creating Layer inception_5a/relu_pool_proj
I0509 21:50:23.015741 17867 net.cpp:372] inception_5a/relu_pool_proj <- inception_5a/pool_proj
I0509 21:50:23.015751 17867 net.cpp:323] inception_5a/relu_pool_proj -> inception_5a/pool_proj (in-place)
I0509 21:50:23.015759 17867 net.cpp:105] Setting up inception_5a/relu_pool_proj
I0509 21:50:23.015765 17867 net.cpp:112] Top shape: 32 128 7 7 (200704)
I0509 21:50:23.015770 17867 layer_factory.hpp:74] Creating layer inception_5a/output
I0509 21:50:23.015779 17867 net.cpp:76] Creating Layer inception_5a/output
I0509 21:50:23.015784 17867 net.cpp:372] inception_5a/output <- inception_5a/1x1
I0509 21:50:23.015790 17867 net.cpp:372] inception_5a/output <- inception_5a/3x3
I0509 21:50:23.015812 17867 net.cpp:372] inception_5a/output <- inception_5a/5x5
I0509 21:50:23.015820 17867 net.cpp:372] inception_5a/output <- inception_5a/pool_proj
I0509 21:50:23.015827 17867 net.cpp:334] inception_5a/output -> inception_5a/output
I0509 21:50:23.015836 17867 net.cpp:105] Setting up inception_5a/output
I0509 21:50:23.015843 17867 net.cpp:112] Top shape: 32 832 7 7 (1304576)
I0509 21:50:23.015848 17867 layer_factory.hpp:74] Creating layer inception_5a/output_inception_5a/output_0_split
I0509 21:50:23.015859 17867 net.cpp:76] Creating Layer inception_5a/output_inception_5a/output_0_split
I0509 21:50:23.015866 17867 net.cpp:372] inception_5a/output_inception_5a/output_0_split <- inception_5a/output
I0509 21:50:23.015873 17867 net.cpp:334] inception_5a/output_inception_5a/output_0_split -> inception_5a/output_inception_5a/output_0_split_0
I0509 21:50:23.015883 17867 net.cpp:334] inception_5a/output_inception_5a/output_0_split -> inception_5a/output_inception_5a/output_0_split_1
I0509 21:50:23.015892 17867 net.cpp:334] inception_5a/output_inception_5a/output_0_split -> inception_5a/output_inception_5a/output_0_split_2
I0509 21:50:23.015902 17867 net.cpp:334] inception_5a/output_inception_5a/output_0_split -> inception_5a/output_inception_5a/output_0_split_3
I0509 21:50:23.015933 17867 net.cpp:105] Setting up inception_5a/output_inception_5a/output_0_split
I0509 21:50:23.015940 17867 net.cpp:112] Top shape: 32 832 7 7 (1304576)
I0509 21:50:23.015945 17867 net.cpp:112] Top shape: 32 832 7 7 (1304576)
I0509 21:50:23.015950 17867 net.cpp:112] Top shape: 32 832 7 7 (1304576)
I0509 21:50:23.015955 17867 net.cpp:112] Top shape: 32 832 7 7 (1304576)
I0509 21:50:23.015960 17867 layer_factory.hpp:74] Creating layer inception_5b/1x1
I0509 21:50:23.015972 17867 net.cpp:76] Creating Layer inception_5b/1x1
I0509 21:50:23.015979 17867 net.cpp:372] inception_5b/1x1 <- inception_5a/output_inception_5a/output_0_split_0
I0509 21:50:23.015990 17867 net.cpp:334] inception_5b/1x1 -> inception_5b/1x1
I0509 21:50:23.015998 17867 net.cpp:105] Setting up inception_5b/1x1
I0509 21:50:23.018699 17867 net.cpp:112] Top shape: 32 384 7 7 (602112)
I0509 21:50:23.018720 17867 layer_factory.hpp:74] Creating layer inception_5b/relu_1x1
I0509 21:50:23.018730 17867 net.cpp:76] Creating Layer inception_5b/relu_1x1
I0509 21:50:23.018738 17867 net.cpp:372] inception_5b/relu_1x1 <- inception_5b/1x1
I0509 21:50:23.018745 17867 net.cpp:323] inception_5b/relu_1x1 -> inception_5b/1x1 (in-place)
I0509 21:50:23.018754 17867 net.cpp:105] Setting up inception_5b/relu_1x1
I0509 21:50:23.018759 17867 net.cpp:112] Top shape: 32 384 7 7 (602112)
I0509 21:50:23.018764 17867 layer_factory.hpp:74] Creating layer inception_5b/3x3_reduce
I0509 21:50:23.018775 17867 net.cpp:76] Creating Layer inception_5b/3x3_reduce
I0509 21:50:23.018782 17867 net.cpp:372] inception_5b/3x3_reduce <- inception_5a/output_inception_5a/output_0_split_1
I0509 21:50:23.018790 17867 net.cpp:334] inception_5b/3x3_reduce -> inception_5b/3x3_reduce
I0509 21:50:23.018800 17867 net.cpp:105] Setting up inception_5b/3x3_reduce
I0509 21:50:23.020133 17867 net.cpp:112] Top shape: 32 192 7 7 (301056)
I0509 21:50:23.020148 17867 layer_factory.hpp:74] Creating layer inception_5b/relu_3x3_reduce
I0509 21:50:23.020159 17867 net.cpp:76] Creating Layer inception_5b/relu_3x3_reduce
I0509 21:50:23.020165 17867 net.cpp:372] inception_5b/relu_3x3_reduce <- inception_5b/3x3_reduce
I0509 21:50:23.020172 17867 net.cpp:323] inception_5b/relu_3x3_reduce -> inception_5b/3x3_reduce (in-place)
I0509 21:50:23.020180 17867 net.cpp:105] Setting up inception_5b/relu_3x3_reduce
I0509 21:50:23.020186 17867 net.cpp:112] Top shape: 32 192 7 7 (301056)
I0509 21:50:23.020192 17867 layer_factory.hpp:74] Creating layer inception_5b/3x3
I0509 21:50:23.020200 17867 net.cpp:76] Creating Layer inception_5b/3x3
I0509 21:50:23.020205 17867 net.cpp:372] inception_5b/3x3 <- inception_5b/3x3_reduce
I0509 21:50:23.020215 17867 net.cpp:334] inception_5b/3x3 -> inception_5b/3x3
I0509 21:50:23.020225 17867 net.cpp:105] Setting up inception_5b/3x3
I0509 21:50:23.025749 17867 net.cpp:112] Top shape: 32 384 7 7 (602112)
I0509 21:50:23.025776 17867 layer_factory.hpp:74] Creating layer inception_5b/relu_3x3
I0509 21:50:23.025786 17867 net.cpp:76] Creating Layer inception_5b/relu_3x3
I0509 21:50:23.025794 17867 net.cpp:372] inception_5b/relu_3x3 <- inception_5b/3x3
I0509 21:50:23.025804 17867 net.cpp:323] inception_5b/relu_3x3 -> inception_5b/3x3 (in-place)
I0509 21:50:23.025815 17867 net.cpp:105] Setting up inception_5b/relu_3x3
I0509 21:50:23.025820 17867 net.cpp:112] Top shape: 32 384 7 7 (602112)
I0509 21:50:23.025825 17867 layer_factory.hpp:74] Creating layer inception_5b/5x5_reduce
I0509 21:50:23.025835 17867 net.cpp:76] Creating Layer inception_5b/5x5_reduce
I0509 21:50:23.025840 17867 net.cpp:372] inception_5b/5x5_reduce <- inception_5a/output_inception_5a/output_0_split_2
I0509 21:50:23.025851 17867 net.cpp:334] inception_5b/5x5_reduce -> inception_5b/5x5_reduce
I0509 21:50:23.025861 17867 net.cpp:105] Setting up inception_5b/5x5_reduce
I0509 21:50:23.026212 17867 net.cpp:112] Top shape: 32 48 7 7 (75264)
I0509 21:50:23.026226 17867 layer_factory.hpp:74] Creating layer inception_5b/relu_5x5_reduce
I0509 21:50:23.027837 17867 net.cpp:76] Creating Layer inception_5b/relu_5x5_reduce
I0509 21:50:23.027845 17867 net.cpp:372] inception_5b/relu_5x5_reduce <- inception_5b/5x5_reduce
I0509 21:50:23.027858 17867 net.cpp:323] inception_5b/relu_5x5_reduce -> inception_5b/5x5_reduce (in-place)
I0509 21:50:23.027868 17867 net.cpp:105] Setting up inception_5b/relu_5x5_reduce
I0509 21:50:23.027873 17867 net.cpp:112] Top shape: 32 48 7 7 (75264)
I0509 21:50:23.027879 17867 layer_factory.hpp:74] Creating layer inception_5b/5x5
I0509 21:50:23.027887 17867 net.cpp:76] Creating Layer inception_5b/5x5
I0509 21:50:23.027894 17867 net.cpp:372] inception_5b/5x5 <- inception_5b/5x5_reduce
I0509 21:50:23.027904 17867 net.cpp:334] inception_5b/5x5 -> inception_5b/5x5
I0509 21:50:23.027914 17867 net.cpp:105] Setting up inception_5b/5x5
I0509 21:50:23.029211 17867 net.cpp:112] Top shape: 32 128 7 7 (200704)
I0509 21:50:23.029227 17867 layer_factory.hpp:74] Creating layer inception_5b/relu_5x5
I0509 21:50:23.029237 17867 net.cpp:76] Creating Layer inception_5b/relu_5x5
I0509 21:50:23.029244 17867 net.cpp:372] inception_5b/relu_5x5 <- inception_5b/5x5
I0509 21:50:23.029252 17867 net.cpp:323] inception_5b/relu_5x5 -> inception_5b/5x5 (in-place)
I0509 21:50:23.029259 17867 net.cpp:105] Setting up inception_5b/relu_5x5
I0509 21:50:23.029264 17867 net.cpp:112] Top shape: 32 128 7 7 (200704)
I0509 21:50:23.029281 17867 layer_factory.hpp:74] Creating layer inception_5b/pool
I0509 21:50:23.029295 17867 net.cpp:76] Creating Layer inception_5b/pool
I0509 21:50:23.029301 17867 net.cpp:372] inception_5b/pool <- inception_5a/output_inception_5a/output_0_split_3
I0509 21:50:23.029310 17867 net.cpp:334] inception_5b/pool -> inception_5b/pool
I0509 21:50:23.029321 17867 net.cpp:105] Setting up inception_5b/pool
I0509 21:50:23.029330 17867 net.cpp:112] Top shape: 32 832 7 7 (1304576)
I0509 21:50:23.029336 17867 layer_factory.hpp:74] Creating layer inception_5b/pool_proj
I0509 21:50:23.029345 17867 net.cpp:76] Creating Layer inception_5b/pool_proj
I0509 21:50:23.029350 17867 net.cpp:372] inception_5b/pool_proj <- inception_5b/pool
I0509 21:50:23.029361 17867 net.cpp:334] inception_5b/pool_proj -> inception_5b/pool_proj
I0509 21:50:23.029371 17867 net.cpp:105] Setting up inception_5b/pool_proj
I0509 21:50:23.030263 17867 net.cpp:112] Top shape: 32 128 7 7 (200704)
I0509 21:50:23.030292 17867 layer_factory.hpp:74] Creating layer inception_5b/relu_pool_proj
I0509 21:50:23.030300 17867 net.cpp:76] Creating Layer inception_5b/relu_pool_proj
I0509 21:50:23.030306 17867 net.cpp:372] inception_5b/relu_pool_proj <- inception_5b/pool_proj
I0509 21:50:23.030313 17867 net.cpp:323] inception_5b/relu_pool_proj -> inception_5b/pool_proj (in-place)
I0509 21:50:23.030321 17867 net.cpp:105] Setting up inception_5b/relu_pool_proj
I0509 21:50:23.030328 17867 net.cpp:112] Top shape: 32 128 7 7 (200704)
I0509 21:50:23.030333 17867 layer_factory.hpp:74] Creating layer inception_5b/output
I0509 21:50:23.030370 17867 net.cpp:76] Creating Layer inception_5b/output
I0509 21:50:23.030377 17867 net.cpp:372] inception_5b/output <- inception_5b/1x1
I0509 21:50:23.030385 17867 net.cpp:372] inception_5b/output <- inception_5b/3x3
I0509 21:50:23.030390 17867 net.cpp:372] inception_5b/output <- inception_5b/5x5
I0509 21:50:23.030396 17867 net.cpp:372] inception_5b/output <- inception_5b/pool_proj
I0509 21:50:23.030406 17867 net.cpp:334] inception_5b/output -> inception_5b/output
I0509 21:50:23.030416 17867 net.cpp:105] Setting up inception_5b/output
I0509 21:50:23.030422 17867 net.cpp:112] Top shape: 32 1024 7 7 (1605632)
I0509 21:50:23.030428 17867 layer_factory.hpp:74] Creating layer pool5/7x7_s1
I0509 21:50:23.030436 17867 net.cpp:76] Creating Layer pool5/7x7_s1
I0509 21:50:23.030441 17867 net.cpp:372] pool5/7x7_s1 <- inception_5b/output
I0509 21:50:23.030452 17867 net.cpp:334] pool5/7x7_s1 -> pool5/7x7_s1
I0509 21:50:23.030460 17867 net.cpp:105] Setting up pool5/7x7_s1
I0509 21:50:23.030467 17867 net.cpp:112] Top shape: 32 1024 1 1 (32768)
I0509 21:50:23.030472 17867 layer_factory.hpp:74] Creating layer pool5/drop_7x7_s1
I0509 21:50:23.030480 17867 net.cpp:76] Creating Layer pool5/drop_7x7_s1
I0509 21:50:23.030486 17867 net.cpp:372] pool5/drop_7x7_s1 <- pool5/7x7_s1
I0509 21:50:23.030493 17867 net.cpp:323] pool5/drop_7x7_s1 -> pool5/7x7_s1 (in-place)
I0509 21:50:23.030501 17867 net.cpp:105] Setting up pool5/drop_7x7_s1
I0509 21:50:23.030508 17867 net.cpp:112] Top shape: 32 1024 1 1 (32768)
I0509 21:50:23.030513 17867 layer_factory.hpp:74] Creating layer loss3/classifier
I0509 21:50:23.030524 17867 net.cpp:76] Creating Layer loss3/classifier
I0509 21:50:23.030529 17867 net.cpp:372] loss3/classifier <- pool5/7x7_s1
I0509 21:50:23.030539 17867 net.cpp:334] loss3/classifier -> loss3/classifier
I0509 21:50:23.030547 17867 net.cpp:105] Setting up loss3/classifier
I0509 21:50:23.030577 17867 net.cpp:112] Top shape: 32 2 1 1 (64)
I0509 21:50:23.030588 17867 layer_factory.hpp:74] Creating layer loss3/classifier_loss3/classifier_0_split
I0509 21:50:23.030596 17867 net.cpp:76] Creating Layer loss3/classifier_loss3/classifier_0_split
I0509 21:50:23.030602 17867 net.cpp:372] loss3/classifier_loss3/classifier_0_split <- loss3/classifier
I0509 21:50:23.030609 17867 net.cpp:334] loss3/classifier_loss3/classifier_0_split -> loss3/classifier_loss3/classifier_0_split_0
I0509 21:50:23.030618 17867 net.cpp:334] loss3/classifier_loss3/classifier_0_split -> loss3/classifier_loss3/classifier_0_split_1
I0509 21:50:23.030627 17867 net.cpp:105] Setting up loss3/classifier_loss3/classifier_0_split
I0509 21:50:23.030633 17867 net.cpp:112] Top shape: 32 2 1 1 (64)
I0509 21:50:23.030638 17867 net.cpp:112] Top shape: 32 2 1 1 (64)
I0509 21:50:23.030643 17867 layer_factory.hpp:74] Creating layer loss3/loss3
I0509 21:50:23.030654 17867 net.cpp:76] Creating Layer loss3/loss3
I0509 21:50:23.030660 17867 net.cpp:372] loss3/loss3 <- loss3/classifier_loss3/classifier_0_split_0
I0509 21:50:23.030668 17867 net.cpp:372] loss3/loss3 <- label_data_1_split_4
I0509 21:50:23.030675 17867 net.cpp:334] loss3/loss3 -> loss3/loss3
I0509 21:50:23.030683 17867 net.cpp:105] Setting up loss3/loss3
I0509 21:50:23.030691 17867 layer_factory.hpp:74] Creating layer loss3/loss3
I0509 21:50:23.030705 17867 net.cpp:112] Top shape: 1 1 1 1 (1)
I0509 21:50:23.030711 17867 net.cpp:118]     with loss weight 1
I0509 21:50:23.030727 17867 layer_factory.hpp:74] Creating layer loss3/top-1
I0509 21:50:23.030736 17867 net.cpp:76] Creating Layer loss3/top-1
I0509 21:50:23.030742 17867 net.cpp:372] loss3/top-1 <- loss3/classifier_loss3/classifier_0_split_1
I0509 21:50:23.030748 17867 net.cpp:372] loss3/top-1 <- label_data_1_split_5
I0509 21:50:23.030758 17867 net.cpp:334] loss3/top-1 -> loss3/top-1
I0509 21:50:23.030767 17867 net.cpp:105] Setting up loss3/top-1
I0509 21:50:23.030773 17867 net.cpp:112] Top shape: 1 1 1 1 (1)
I0509 21:50:23.030779 17867 net.cpp:165] loss3/top-1 does not need backward computation.
I0509 21:50:23.030784 17867 net.cpp:163] loss3/loss3 needs backward computation.
I0509 21:50:23.030803 17867 net.cpp:163] loss3/classifier_loss3/classifier_0_split needs backward computation.
I0509 21:50:23.030809 17867 net.cpp:163] loss3/classifier needs backward computation.
I0509 21:50:23.030815 17867 net.cpp:163] pool5/drop_7x7_s1 needs backward computation.
…
