…
I0511 05:42:07.608144  2882 net.cpp:253] The NetState phase (0) differed from the phase (1) specified by a rule in layer loss3/top-1
I0511 05:42:07.609426  2882 net.cpp:42] Initializing net from parameters: 
name: "GoogleNet"
state {
  phase: TRAIN
}
layer {
  name: "data"
  type: "Data"
  top: "data"
  top: "label"
  include {
    phase: TRAIN
  }
  transform_param {
    mirror: true
    crop_size: 224
    mean_value: 104
    mean_value: 117
    mean_value: 123
  }
  data_param {
    source: "train_lmdb"
    batch_size: 32
    backend: LMDB
  }
}
layer {
  name: "conv1/7x7_s2"
  type: "Convolution"
  bottom: "data"
  top: "conv1/7x7_s2"
  param {
    lr_mult: 1
    decay_mult: 1
  }
  param {
    lr_mult: 2
    decay_mult: 0
  }
  convolution_param {
    num_output: 64
    pad: 3
    kernel_size: 7
    stride: 2
    weight_filler {
      type: "xavier"
      std: 0.1
    }
    bias_filler {
      type: "constant"
      value: 0.2
    }
  }
}
layer {
  name: "conv1/relu_7x7"
  type: "ReLU"
  bottom: "conv1/7x7_s2"
  top: "conv1/7x7_s2"
}
layer {
  name: "pool1/3x3_s2"
  type: "Pooling"
  bottom: "conv1/7x7_s2"
  top: "pool1/3x3_s2"
  pooling_param {
    pool: MAX
    kernel_size: 3
    stride: 2
  }
}
layer {
  name: "pool1/norm1"
  type: "LRN"
  bottom: "pool1/3x3_s2"
  top: "pool1/norm1"
  lrn_param {
    local_size: 5
    alpha: 0.0001
    beta: 0.75
  }
}
layer {
  name: "conv2/3x3_reduce"
  type: "Convolution"
  bottom: "pool1/norm1"
  top: "conv2/3x3_reduce"
  param {
    lr_mult: 1
    decay_mult: 1
  }
  param {
    lr_mult: 2
    decay_mult: 0
  }
  convolution_param {
    num_output: 64
    kernel_size: 1
    weight_filler {
      type: "xavier"
      std: 0.1
    }
    bias_filler {
      type: "constant"
      value: 0.2
    }
  }
}
layer {
  name: "conv2/relu_3x3_reduce"
  type: "ReLU"
  bottom: "conv2/3x3_reduce"
  top: "conv2/3x3_reduce"
}
layer {
  name: "conv2/3x3"
  type: "Convolution"
  bottom: "conv2/3x3_reduce"
  top: "conv2/3x3"
  param {
    lr_mult: 1
    decay_mult: 1
  }
  param {
    lr_mult: 2
    decay_mult: 0
  }
  convolution_param {
    num_output: 192
    pad: 1
    kernel_size: 3
    weight_filler {
      type: "xavier"
      std: 0.03
    }
    bias_filler {
      type: "constant"
      value: 0.2
    }
  }
}
layer {
  name: "conv2/relu_3x3"
  type: "ReLU"
  bottom: "conv2/3x3"
  top: "conv2/3x3"
}
layer {
  name: "conv2/norm2"
  type: "LRN"
  bottom: "conv2/3x3"
  top: "conv2/norm2"
  lrn_param {
    local_size: 5
    alpha: 0.0001
    beta: 0.75
  }
}
layer {
  name: "pool2/3x3_s2"
  type: "Pooling"
  bottom: "conv2/norm2"
  top: "pool2/3x3_s2"
  pooling_param {
    pool: MAX
    kernel_size: 3
    stride: 2
  }
}
layer {
  name: "inception_3a/1x1"
  type: "Convolution"
  bottom: "pool2/3x3_s2"
  top: "inception_3a/1x1"
  param {
    lr_mult: 1
    decay_mult: 1
  }
  param {
    lr_mult: 2
    decay_mult: 0
  }
  convolution_param {
    num_output: 64
    kernel_size: 1
    weight_filler {
      type: "xavier"
      std: 0.03
    }
    bias_filler {
      type: "constant"
      value: 0.2
    }
  }
}
layer {
  name: "inception_3a/relu_1x1"
  type: "ReLU"
  bottom: "inception_3a/1x1"
  top: "inception_3a/1x1"
}
layer {
  name: "inception_3a/3x3_reduce"
  type: "Convolution"
  bottom: "pool2/3x3_s2"
  top: "inception_3a/3x3_reduce"
  param {
    lr_mult: 1
    decay_mult: 1
  }
  param {
    lr_mult: 2
    decay_mult: 0
  }
  convolution_param {
    num_output: 96
    kernel_size: 1
    weight_filler {
      type: "xavier"
      std: 0.09
    }
    bias_filler {
      type: "constant"
      value: 0.2
    }
  }
}
layer {
  name: "inception_3a/relu_3x3_reduce"
  type: "ReLU"
  bottom: "inception_3a/3x3_reduce"
  top: "inception_3a/3x3_reduce"
}
layer {
  name: "inception_3a/3x3"
  type: "Convolution"
  bottom: "inception_3a/3x3_reduce"
  top: "inception_3a/3x3"
  param {
    lr_mult: 1
    decay_mult: 1
  }
  param {
    lr_mult: 2
    decay_mult: 0
  }
  convolution_param {
    num_output: 128
    pad: 1
    kernel_size: 3
    weight_filler {
      type: "xavier"
      std: 0.03
    }
    bias_filler {
      type: "constant"
      value: 0.2
    }
  }
}
layer {
  name: "inception_3a/relu_3x3"
  type: "ReLU"
  bottom: "inception_3a/3x3"
  top: "inception_3a/3x3"
}
layer {
  name: "inception_3a/5x5_reduce"
  type: "Convolution"
  bottom: "pool2/3x3_s2"
  top: "inception_3a/5x5_reduce"
  param {
    lr_mult: 1
    decay_mult: 1
  }
  param {
    lr_mult: 2
    decay_mult: 0
  }
  convolution_param {
    num_output: 16
    kernel_size: 1
    weight_filler {
      type: "xavier"
      std: 0.2
    }
    bias_filler {
      type: "constant"
      value: 0.2
    }
  }
}
layer {
  name: "inception_3a/relu_5x5_reduce"
  type: "ReLU"
  bottom: "inception_3a/5x5_reduce"
  top: "inception_3a/5x5_reduce"
}
layer {
  name: "inception_3a/5x5"
  type: "Convolution"
  bottom: "inception_3a/5x5_reduce"
  top: "inception_3a/5x5"
  param {
    lr_mult: 1
    decay_mult: 1
  }
  param {
    lr_mult: 2
    decay_mult: 0
  }
  convolution_param {
    num_output: 32
    pad: 2
    kernel_size: 5
    weight_filler {
      type: "xavier"
      std: 0.03
    }
    bias_filler {
      type: "constant"
      value: 0.2
    }
  }
}
layer {
  name: "inception_3a/relu_5x5"
  type: "ReLU"
  bottom: "inception_3a/5x5"
  top: "inception_3a/5x5"
}
layer {
  name: "inception_3a/pool"
  type: "Pooling"
  bottom: "pool2/3x3_s2"
  top: "inception_3a/pool"
  pooling_param {
    pool: MAX
    kernel_size: 3
    stride: 1
    pad: 1
  }
}
layer {
  name: "inception_3a/pool_proj"
  type: "Convolution"
  bottom: "inception_3a/pool"
  top: "inception_3a/pool_proj"
  param {
    lr_mult: 1
    decay_mult: 1
  }
  param {
    lr_mult: 2
    decay_mult: 0
  }
  convolution_param {
    num_output: 32
    kernel_size: 1
    weight_filler {
      type: "xavier"
      std: 0.1
    }
    bias_filler {
      type: "constant"
      value: 0.2
    }
  }
}
layer {
  name: "inception_3a/relu_pool_proj"
  type: "ReLU"
  bottom: "inception_3a/pool_proj"
  top: "inception_3a/pool_proj"
}
layer {
  name: "inception_3a/output"
  type: "Concat"
  bottom: "inception_3a/1x1"
  bottom: "inception_3a/3x3"
  bottom: "inception_3a/5x5"
  bottom: "inception_3a/pool_proj"
  top: "inception_3a/output"
}
layer {
  name: "inception_3b/1x1"
  type: "Convolution"
  bottom: "inception_3a/output"
  top: "inception_3b/1x1"
  param {
    lr_mult: 1
    decay_mult: 1
  }
  param {
    lr_mult: 2
    decay_mult: 0
  }
  convolution_param {
    num_output: 128
    kernel_size: 1
    weight_filler {
      type: "xavier"
      std: 0.03
    }
    bias_filler {
      type: "constant"
      value: 0.2
    }
  }
}
layer {
  name: "inception_3b/relu_1x1"
  type: "ReLU"
  bottom: "inception_3b/1x1"
  top: "inception_3b/1x1"
}
layer {
  name: "inception_3b/3x3_reduce"
  type: "Convolution"
  bottom: "inception_3a/output"
  top: "inception_3b/3x3_reduce"
  param {
    lr_mult: 1
    decay_mult: 1
  }
  param {
    lr_mult: 2
    decay_mult: 0
  }
  convolution_param {
    num_output: 128
    kernel_size: 1
    weight_filler {
      type: "xavier"
      std: 0.09
    }
    bias_filler {
      type: "constant"
      value: 0.2
    }
  }
}
layer {
  name: "inception_3b/relu_3x3_reduce"
  type: "ReLU"
  bottom: "inception_3b/3x3_reduce"
  top: "inception_3b/3x3_reduce"
}
layer {
  name: "inception_3b/3x3"
  type: "Convolution"
  bottom: "inception_3b/3x3_reduce"
  top: "inception_3b/3x3"
  param {
    lr_mult: 1
    decay_mult: 1
  }
  param {
    lr_mult: 2
    decay_mult: 0
  }
  convolution_param {
    num_output: 192
    pad: 1
    kernel_size: 3
    weight_filler {
      type: "xavier"
      std: 0.03
    }
    bias_filler {
      type: "constant"
      value: 0.2
    }
  }
}
layer {
  name: "inception_3b/relu_3x3"
  type: "ReLU"
  bottom: "inception_3b/3x3"
  top: "inception_3b/3x3"
}
layer {
  name: "inception_3b/5x5_reduce"
  type: "Convolution"
  bottom: "inception_3a/output"
  top: "inception_3b/5x5_reduce"
  param {
    lr_mult: 1
    decay_mult: 1
  }
  param {
    lr_mult: 2
    decay_mult: 0
  }
  convolution_param {
    num_output: 32
    kernel_size: 1
    weight_filler {
      type: "xavier"
      std: 0.2
    }
    bias_filler {
      type: "constant"
      value: 0.2
    }
  }
}
layer {
  name: "inception_3b/relu_5x5_reduce"
  type: "ReLU"
  bottom: "inception_3b/5x5_reduce"
  top: "inception_3b/5x5_reduce"
}
layer {
  name: "inception_3b/5x5"
  type: "Convolution"
  bottom: "inception_3b/5x5_reduce"
  top: "inception_3b/5x5"
  param {
    lr_mult: 1
    decay_mult: 1
  }
  param {
    lr_mult: 2
    decay_mult: 0
  }
  convolution_param {
    num_output: 96
    pad: 2
    kernel_size: 5
    weight_filler {
      type: "xavier"
      std: 0.03
    }
    bias_filler {
      type: "constant"
      value: 0.2
    }
  }
}
layer {
  name: "inception_3b/relu_5x5"
  type: "ReLU"
  bottom: "inception_3b/5x5"
  top: "inception_3b/5x5"
}
layer {
  name: "inception_3b/pool"
  type: "Pooling"
  bottom: "inception_3a/output"
  top: "inception_3b/pool"
  pooling_param {
    pool: MAX
    kernel_size: 3
    stride: 1
    pad: 1
  }
}
layer {
  name: "inception_3b/pool_proj"
  type: "Convolution"
  bottom: "inception_3b/pool"
  top: "inception_3b/pool_proj"
  param {
    lr_mult: 1
    decay_mult: 1
  }
  param {
    lr_mult: 2
    decay_mult: 0
  }
  convolution_param {
    num_output: 64
    kernel_size: 1
    weight_filler {
      type: "xavier"
      std: 0.1
    }
    bias_filler {
      type: "constant"
      value: 0.2
    }
  }
}
layer {
  name: "inception_3b/relu_pool_proj"
  type: "ReLU"
  bottom: "inception_3b/pool_proj"
  top: "inception_3b/pool_proj"
}
layer {
  name: "inception_3b/output"
  type: "Concat"
  bottom: "inception_3b/1x1"
  bottom: "inception_3b/3x3"
  bottom: "inception_3b/5x5"
  bottom: "inception_3b/pool_proj"
  top: "inception_3b/output"
}
layer {
  name: "pool3/3x3_s2"
  type: "Pooling"
  bottom: "inception_3b/output"
  top: "pool3/3x3_s2"
  pooling_param {
    pool: MAX
    kernel_size: 3
    stride: 2
  }
}
layer {
  name: "inception_4a/1x1"
  type: "Convolution"
  bottom: "pool3/3x3_s2"
  top: "inception_4a/1x1"
  param {
    lr_mult: 1
    decay_mult: 1
  }
  param {
    lr_mult: 2
    decay_mult: 0
  }
  convolution_param {
    num_output: 192
    kernel_size: 1
    weight_filler {
      type: "xavier"
      std: 0.03
    }
    bias_filler {
      type: "constant"
      value: 0.2
    }
  }
}
layer {
  name: "inception_4a/relu_1x1"
  type: "ReLU"
  bottom: "inception_4a/1x1"
  top: "inception_4a/1x1"
}
layer {
  name: "inception_4a/3x3_reduce"
  type: "Convolution"
  bottom: "pool3/3x3_s2"
  top: "inception_4a/3x3_reduce"
  param {
    lr_mult: 1
    decay_mult: 1
  }
  param {
    lr_mult: 2
    decay_mult: 0
  }
  convolution_param {
    num_output: 96
    kernel_size: 1
    weight_filler {
      type: "xavier"
      std: 0.09
    }
    bias_filler {
      type: "constant"
      value: 0.2
    }
  }
}
layer {
  name: "inception_4a/relu_3x3_reduce"
  type: "ReLU"
  bottom: "inception_4a/3x3_reduce"
  top: "inception_4a/3x3_reduce"
}
layer {
  name: "inception_4a/3x3"
  type: "Convolution"
  bottom: "inception_4a/3x3_reduce"
  top: "inception_4a/3x3"
  param {
    lr_mult: 1
    decay_mult: 1
  }
  param {
    lr_mult: 2
    decay_mult: 0
  }
  convolution_param {
    num_output: 208
    pad: 1
    kernel_size: 3
    weight_filler {
      type: "xavier"
      std: 0.03
    }
    bias_filler {
      type: "constant"
      value: 0.2
    }
  }
}
layer {
  name: "inception_4a/relu_3x3"
  type: "ReLU"
  bottom: "inception_4a/3x3"
  top: "inception_4a/3x3"
}
layer {
  name: "inception_4a/5x5_reduce"
  type: "Convolution"
  bottom: "pool3/3x3_s2"
  top: "inception_4a/5x5_reduce"
  param {
    lr_mult: 1
    decay_mult: 1
  }
  param {
    lr_mult: 2
    decay_mult: 0
  }
  convolution_param {
    num_output: 16
    kernel_size: 1
    weight_filler {
      type: "xavier"
      std: 0.2
    }
    bias_filler {
      type: "constant"
      value: 0.2
    }
  }
}
layer {
  name: "inception_4a/relu_5x5_reduce"
  type: "ReLU"
  bottom: "inception_4a/5x5_reduce"
  top: "inception_4a/5x5_reduce"
}
layer {
  name: "inception_4a/5x5"
  type: "Convolution"
  bottom: "inception_4a/5x5_reduce"
  top: "inception_4a/5x5"
  param {
    lr_mult: 1
    decay_mult: 1
  }
  param {
    lr_mult: 2
    decay_mult: 0
  }
  convolution_param {
    num_output: 48
    pad: 2
    kernel_size: 5
    weight_filler {
      type: "xavier"
      std: 0.03
    }
    bias_filler {
      type: "constant"
      value: 0.2
    }
  }
}
layer {
  name: "inception_4a/relu_5x5"
  type: "ReLU"
  bottom: "inception_4a/5x5"
  top: "inception_4a/5x5"
}
layer {
  name: "inception_4a/pool"
  type: "Pooling"
  bottom: "pool3/3x3_s2"
  top: "inception_4a/pool"
  pooling_param {
    pool: MAX
    kernel_size: 3
    stride: 1
    pad: 1
  }
}
layer {
  name: "inception_4a/pool_proj"
  type: "Convolution"
  bottom: "inception_4a/pool"
  top: "inception_4a/pool_proj"
  param {
    lr_mult: 1
    decay_mult: 1
  }
  param {
    lr_mult: 2
    decay_mult: 0
  }
  convolution_param {
    num_output: 64
    kernel_size: 1
    weight_filler {
      type: "xavier"
      std: 0.1
    }
    bias_filler {
      type: "constant"
      value: 0.2
    }
  }
}
layer {
  name: "inception_4a/relu_pool_proj"
  type: "ReLU"
  bottom: "inception_4a/pool_proj"
  top: "inception_4a/pool_proj"
}
layer {
  name: "inception_4a/output"
  type: "Concat"
  bottom: "inception_4a/1x1"
  bottom: "inception_4a/3x3"
  bottom: "inception_4a/5x5"
  bottom: "inception_4a/pool_proj"
  top: "inception_4a/output"
}
layer {
  name: "loss1/ave_pool"
  type: "Pooling"
  bottom: "inception_4a/output"
  top: "loss1/ave_pool"
  pooling_param {
    pool: AVE
    kernel_size: 5
    stride: 3
  }
}
layer {
  name: "loss1/conv"
  type: "Convolution"
  bottom: "loss1/ave_pool"
  top: "loss1/conv"
  param {
    lr_mult: 1
    decay_mult: 1
  }
  param {
    lr_mult: 2
    decay_mult: 0
  }
  convolution_param {
    num_output: 128
    kernel_size: 1
    weight_filler {
      type: "xavier"
      std: 0.08
    }
    bias_filler {
      type: "constant"
      value: 0.2
    }
  }
}
layer {
  name: "loss1/relu_conv"
  type: "ReLU"
  bottom: "loss1/conv"
  top: "loss1/conv"
}
layer {
  name: "loss1/fc"
  type: "InnerProduct"
  bottom: "loss1/conv"
  top: "loss1/fc"
  param {
    lr_mult: 1
    decay_mult: 1
  }
  param {
    lr_mult: 2
    decay_mult: 0
  }
  inner_product_param {
    num_output: 1024
    weight_filler {
      type: "xavier"
      std: 0.02
    }
    bias_filler {
      type: "constant"
      value: 0.2
    }
  }
}
layer {
  name: "loss1/relu_fc"
  type: "ReLU"
  bottom: "loss1/fc"
  top: "loss1/fc"
}
layer {
  name: "loss1/drop_fc"
  type: "Dropout"
  bottom: "loss1/fc"
  top: "loss1/fc"
  dropout_param {
    dropout_ratio: 0.7
  }
}
layer {
  name: "loss1/classifier"
  type: "InnerProduct"
  bottom: "loss1/fc"
  top: "loss1/classifier"
  param {
    lr_mult: 1
    decay_mult: 1
  }
  param {
    lr_mult: 2
    decay_mult: 0
  }
  inner_product_param {
    num_output: 2
    weight_filler {
      type: "xavier"
      std: 0.0009765625
    }
    bias_filler {
      type: "constant"
      value: 0
    }
  }
}
layer {
  name: "loss1/loss"
  type: "SoftmaxWithLoss"
  bottom: "loss1/classifier"
  bottom: "label"
  top: "loss1/loss1"
  loss_weight: 0.3
}
layer {
  name: "inception_4b/1x1"
  type: "Convolution"
  bottom: "inception_4a/output"
  top: "inception_4b/1x1"
  param {
    lr_mult: 1
    decay_mult: 1
  }
  param {
    lr_mult: 2
    decay_mult: 0
  }
  convolution_param {
    num_output: 160
    kernel_size: 1
    weight_filler {
      type: "xavier"
      std: 0.03
    }
    bias_filler {
      type: "constant"
      value: 0.2
    }
  }
}
layer {
  name: "inception_4b/relu_1x1"
  type: "ReLU"
  bottom: "inception_4b/1x1"
  top: "inception_4b/1x1"
}
layer {
  name: "inception_4b/3x3_reduce"
  type: "Convolution"
  bottom: "inception_4a/output"
  top: "inception_4b/3x3_reduce"
  param {
    lr_mult: 1
    decay_mult: 1
  }
  param {
    lr_mult: 2
    decay_mult: 0
  }
  convolution_param {
    num_output: 112
    kernel_size: 1
    weight_filler {
      type: "xavier"
      std: 0.09
    }
    bias_filler {
      type: "constant"
      value: 0.2
    }
  }
}
layer {
  name: "inception_4b/relu_3x3_reduce"
  type: "ReLU"
  bottom: "inception_4b/3x3_reduce"
  top: "inception_4b/3x3_reduce"
}
layer {
  name: "inception_4b/3x3"
  type: "Convolution"
  bottom: "inception_4b/3x3_reduce"
  top: "inception_4b/3x3"
  param {
    lr_mult: 1
    decay_mult: 1
  }
  param {
    lr_mult: 2
    decay_mult: 0
  }
  convolution_param {
    num_output: 224
    pad: 1
    kernel_size: 3
    weight_filler {
      type: "xavier"
      std: 0.03
    }
    bias_filler {
      type: "constant"
      value: 0.2
    }
  }
}
layer {
  name: "inception_4b/relu_3x3"
  type: "ReLU"
  bottom: "inception_4b/3x3"
  top: "inception_4b/3x3"
}
layer {
  name: "inception_4b/5x5_reduce"
  type: "Convolution"
  bottom: "inception_4a/output"
  top: "inception_4b/5x5_reduce"
  param {
    lr_mult: 1
    decay_mult: 1
  }
  param {
    lr_mult: 2
    decay_mult: 0
  }
  convolution_param {
    num_output: 24
    kernel_size: 1
    weight_filler {
      type: "xavier"
      std: 0.2
    }
    bias_filler {
      type: "constant"
      value: 0.2
    }
  }
}
layer {
  name: "inception_4b/relu_5x5_reduce"
  type: "ReLU"
  bottom: "inception_4b/5x5_reduce"
  top: "inception_4b/5x5_reduce"
}
layer {
  name: "inception_4b/5x5"
  type: "Convolution"
  bottom: "inception_4b/5x5_reduce"
  top: "inception_4b/5x5"
  param {
    lr_mult: 1
    decay_mult: 1
  }
  param {
    lr_mult: 2
    decay_mult: 0
  }
  convolution_param {
    num_output: 64
    pad: 2
    kernel_size: 5
    weight_filler {
      type: "xavier"
      std: 0.03
    }
    bias_filler {
      type: "constant"
      value: 0.2
    }
  }
}
layer {
  name: "inception_4b/relu_5x5"
  type: "ReLU"
  bottom: "inception_4b/5x5"
  top: "inception_4b/5x5"
}
layer {
  name: "inception_4b/pool"
  type: "Pooling"
  bottom: "inception_4a/output"
  top: "inception_4b/pool"
  pooling_param {
    pool: MAX
    kernel_size: 3
    stride: 1
    pad: 1
  }
}
layer {
  name: "inception_4b/pool_proj"
  type: "Convolution"
  bottom: "inception_4b/pool"
  top: "inception_4b/pool_proj"
  param {
    lr_mult: 1
    decay_mult: 1
  }
  param {
    lr_mult: 2
    decay_mult: 0
  }
  convolution_param {
    num_output: 64
    kernel_size: 1
    weight_filler {
      type: "xavier"
      std: 0.1
    }
    bias_filler {
      type: "constant"
      value: 0.2
    }
  }
}
layer {
  name: "inception_4b/relu_pool_proj"
  type: "ReLU"
  bottom: "inception_4b/pool_proj"
  top: "inception_4b/pool_proj"
}
layer {
  name: "inception_4b/output"
  type: "Concat"
  bottom: "inception_4b/1x1"
  bottom: "inception_4b/3x3"
  bottom: "inception_4b/5x5"
  bottom: "inception_4b/pool_proj"
  top: "inception_4b/output"
}
layer {
  name: "inception_4c/1x1"
  type: "Convolution"
  bottom: "inception_4b/output"
  top: "inception_4c/1x1"
  param {
    lr_mult: 1
    decay_mult: 1
  }
  param {
    lr_mult: 2
    decay_mult: 0
  }
  convolution_param {
    num_output: 128
    kernel_size: 1
    weight_filler {
      type: "xavier"
      std: 0.03
    }
    bias_filler {
      type: "constant"
      value: 0.2
    }
  }
}
layer {
  name: "inception_4c/relu_1x1"
  type: "ReLU"
  bottom: "inception_4c/1x1"
  top: "inception_4c/1x1"
}
layer {
  name: "inception_4c/3x3_reduce"
  type: "Convolution"
  bottom: "inception_4b/output"
  top: "inception_4c/3x3_reduce"
  param {
    lr_mult: 1
    decay_mult: 1
  }
  param {
    lr_mult: 2
    decay_mult: 0
  }
  convolution_param {
    num_output: 128
    kernel_size: 1
    weight_filler {
      type: "xavier"
      std: 0.09
    }
    bias_filler {
      type: "constant"
      value: 0.2
    }
  }
}
layer {
  name: "inception_4c/relu_3x3_reduce"
  type: "ReLU"
  bottom: "inception_4c/3x3_reduce"
  top: "inception_4c/3x3_reduce"
}
layer {
  name: "inception_4c/3x3"
  type: "Convolution"
  bottom: "inception_4c/3x3_reduce"
  top: "inception_4c/3x3"
  param {
    lr_mult: 1
    decay_mult: 1
  }
  param {
    lr_mult: 2
    decay_mult: 0
  }
  convolution_param {
    num_output: 256
    pad: 1
    kernel_size: 3
    weight_filler {
      type: "xavier"
      std: 0.03
    }
    bias_filler {
      type: "constant"
      value: 0.2
    }
  }
}
layer {
  name: "inception_4c/relu_3x3"
  type: "ReLU"
  bottom: "inception_4c/3x3"
  top: "inception_4c/3x3"
}
layer {
  name: "inception_4c/5x5_reduce"
  type: "Convolution"
  bottom: "inception_4b/output"
  top: "inception_4c/5x5_reduce"
  param {
    lr_mult: 1
    decay_mult: 1
  }
  param {
    lr_mult: 2
    decay_mult: 0
  }
  convolution_param {
    num_output: 24
    kernel_size: 1
    weight_filler {
      type: "xavier"
      std: 0.2
    }
    bias_filler {
      type: "constant"
      value: 0.2
    }
  }
}
layer {
  name: "inception_4c/relu_5x5_reduce"
  type: "ReLU"
  bottom: "inception_4c/5x5_reduce"
  top: "inception_4c/5x5_reduce"
}
layer {
  name: "inception_4c/5x5"
  type: "Convolution"
  bottom: "inception_4c/5x5_reduce"
  top: "inception_4c/5x5"
  param {
    lr_mult: 1
    decay_mult: 1
  }
  param {
    lr_mult: 2
    decay_mult: 0
  }
  convolution_param {
    num_output: 64
    pad: 2
    kernel_size: 5
    weight_filler {
      type: "xavier"
      std: 0.03
    }
    bias_filler {
      type: "constant"
      value: 0.2
    }
  }
}
layer {
  name: "inception_4c/relu_5x5"
  type: "ReLU"
  bottom: "inception_4c/5x5"
  top: "inception_4c/5x5"
}
layer {
  name: "inception_4c/pool"
  type: "Pooling"
  bottom: "inception_4b/output"
  top: "inception_4c/pool"
  pooling_param {
    pool: MAX
    kernel_size: 3
    stride: 1
    pad: 1
  }
}
layer {
  name: "inception_4c/pool_proj"
  type: "Convolution"
  bottom: "inception_4c/pool"
  top: "inception_4c/pool_proj"
  param {
    lr_mult: 1
    decay_mult: 1
  }
  param {
    lr_mult: 2
    decay_mult: 0
  }
  convolution_param {
    num_output: 64
    kernel_size: 1
    weight_filler {
      type: "xavier"
      std: 0.1
    }
    bias_filler {
      type: "constant"
      value: 0.2
    }
  }
}
layer {
  name: "inception_4c/relu_pool_proj"
  type: "ReLU"
  bottom: "inception_4c/pool_proj"
  top: "inception_4c/pool_proj"
}
layer {
  name: "inception_4c/output"
  type: "Concat"
  bottom: "inception_4c/1x1"
  bottom: "inception_4c/3x3"
  bottom: "inception_4c/5x5"
  bottom: "inception_4c/pool_proj"
  top: "inception_4c/output"
}
layer {
  name: "inception_4d/1x1"
  type: "Convolution"
  bottom: "inception_4c/output"
  top: "inception_4d/1x1"
  param {
    lr_mult: 1
    decay_mult: 1
  }
  param {
    lr_mult: 2
    decay_mult: 0
  }
  convolution_param {
    num_output: 112
    kernel_size: 1
    weight_filler {
      type: "xavier"
      std: 0.03
    }
    bias_filler {
      type: "constant"
      value: 0.2
    }
  }
}
layer {
  name: "inception_4d/relu_1x1"
  type: "ReLU"
  bottom: "inception_4d/1x1"
  top: "inception_4d/1x1"
}
layer {
  name: "inception_4d/3x3_reduce"
  type: "Convolution"
  bottom: "inception_4c/output"
  top: "inception_4d/3x3_reduce"
  param {
    lr_mult: 1
    decay_mult: 1
  }
  param {
    lr_mult: 2
    decay_mult: 0
  }
  convolution_param {
    num_output: 144
    kernel_size: 1
    weight_filler {
      type: "xavier"
      std: 0.09
    }
    bias_filler {
      type: "constant"
      value: 0.2
    }
  }
}
layer {
  name: "inception_4d/relu_3x3_reduce"
  type: "ReLU"
  bottom: "inception_4d/3x3_reduce"
  top: "inception_4d/3x3_reduce"
}
layer {
  name: "inception_4d/3x3"
  type: "Convolution"
  bottom: "inception_4d/3x3_reduce"
  top: "inception_4d/3x3"
  param {
    lr_mult: 1
    decay_mult: 1
  }
  param {
    lr_mult: 2
    decay_mult: 0
  }
  convolution_param {
    num_output: 288
    pad: 1
    kernel_size: 3
    weight_filler {
      type: "xavier"
      std: 0.03
    }
    bias_filler {
      type: "constant"
      value: 0.2
    }
  }
}
layer {
  name: "inception_4d/relu_3x3"
  type: "ReLU"
  bottom: "inception_4d/3x3"
  top: "inception_4d/3x3"
}
layer {
  name: "inception_4d/5x5_reduce"
  type: "Convolution"
  bottom: "inception_4c/output"
  top: "inception_4d/5x5_reduce"
  param {
    lr_mult: 1
    decay_mult: 1
  }
  param {
    lr_mult: 2
    decay_mult: 0
  }
  convolution_param {
    num_output: 32
    kernel_size: 1
    weight_filler {
      type: "xavier"
      std: 0.2
    }
    bias_filler {
      type: "constant"
      value: 0.2
    }
  }
}
layer {
  name: "inception_4d/relu_5x5_reduce"
  type: "ReLU"
  bottom: "inception_4d/5x5_reduce"
  top: "inception_4d/5x5_reduce"
}
layer {
  name: "inception_4d/5x5"
  type: "Convolution"
  bottom: "inception_4d/5x5_reduce"
  top: "inception_4d/5x5"
  param {
    lr_mult: 1
    decay_mult: 1
  }
  param {
    lr_mult: 2
    decay_mult: 0
  }
  convolution_param {
    num_output: 64
    pad: 2
    kernel_size: 5
    weight_filler {
      type: "xavier"
      std: 0.03
    }
    bias_filler {
      type: "constant"
      value: 0.2
    }
  }
}
layer {
  name: "inception_4d/relu_5x5"
  type: "ReLU"
  bottom: "inception_4d/5x5"
  top: "inception_4d/5x5"
}
layer {
  name: "inception_4d/pool"
  type: "Pooling"
  bottom: "inception_4c/output"
  top: "inception_4d/pool"
  pooling_param {
    pool: MAX
    kernel_size: 3
    stride: 1
    pad: 1
  }
}
layer {
  name: "inception_4d/pool_proj"
  type: "Convolution"
  bottom: "inception_4d/pool"
  top: "inception_4d/pool_proj"
  param {
    lr_mult: 1
    decay_mult: 1
  }
  param {
    lr_mult: 2
    decay_mult: 0
  }
  convolution_param {
    num_output: 64
    kernel_size: 1
    weight_filler {
      type: "xavier"
      std: 0.1
    }
    bias_filler {
      type: "constant"
      value: 0.2
    }
  }
}
layer {
  name: "inception_4d/relu_pool_proj"
  type: "ReLU"
  bottom: "inception_4d/pool_proj"
  top: "inception_4d/pool_proj"
}
layer {
  name: "inception_4d/output"
  type: "Concat"
  bottom: "inception_4d/1x1"
  bottom: "inception_4d/3x3"
  bottom: "inception_4d/5x5"
  bottom: "inception_4d/pool_proj"
  top: "inception_4d/output"
}
layer {
  name: "loss2/ave_pool"
  type: "Pooling"
  bottom: "inception_4d/output"
  top: "loss2/ave_pool"
  pooling_param {
    pool: AVE
    kernel_size: 5
    stride: 3
  }
}
layer {
  name: "loss2/conv"
  type: "Convolution"
  bottom: "loss2/ave_pool"
  top: "loss2/conv"
  param {
    lr_mult: 1
    decay_mult: 1
  }
  param {
    lr_mult: 2
    decay_mult: 0
  }
  convolution_param {
    num_output: 128
    kernel_size: 1
    weight_filler {
      type: "xavier"
      std: 0.08
    }
    bias_filler {
      type: "constant"
      value: 0.2
    }
  }
}
layer {
  name: "loss2/relu_conv"
  type: "ReLU"
  bottom: "loss2/conv"
  top: "loss2/conv"
}
layer {
  name: "loss2/fc"
  type: "InnerProduct"
  bottom: "loss2/conv"
  top: "loss2/fc"
  param {
    lr_mult: 1
    decay_mult: 1
  }
  param {
    lr_mult: 2
    decay_mult: 0
  }
  inner_product_param {
    num_output: 1024
    weight_filler {
      type: "xavier"
      std: 0.02
    }
    bias_filler {
      type: "constant"
      value: 0.2
    }
  }
}
layer {
  name: "loss2/relu_fc"
  type: "ReLU"
  bottom: "loss2/fc"
  top: "loss2/fc"
}
layer {
  name: "loss2/drop_fc"
  type: "Dropout"
  bottom: "loss2/fc"
  top: "loss2/fc"
  dropout_param {
    dropout_ratio: 0.7
  }
}
layer {
  name: "loss2/classifier"
  type: "InnerProduct"
  bottom: "loss2/fc"
  top: "loss2/classifier"
  param {
    lr_mult: 1
    decay_mult: 1
  }
  param {
    lr_mult: 2
    decay_mult: 0
  }
  inner_product_param {
    num_output: 2
    weight_filler {
      type: "xavier"
      std: 0.0009765625
    }
    bias_filler {
      type: "constant"
      value: 0
    }
  }
}
layer {
  name: "loss2/loss"
  type: "SoftmaxWithLoss"
  bottom: "loss2/classifier"
  bottom: "label"
  top: "loss2/loss1"
  loss_weight: 0.3
}
layer {
  name: "inception_4e/1x1"
  type: "Convolution"
  bottom: "inception_4d/output"
  top: "inception_4e/1x1"
  param {
    lr_mult: 1
    decay_mult: 1
  }
  param {
    lr_mult: 2
    decay_mult: 0
  }
  convolution_param {
    num_output: 256
    kernel_size: 1
    weight_filler {
      type: "xavier"
      std: 0.03
    }
    bias_filler {
      type: "constant"
      value: 0.2
    }
  }
}
layer {
  name: "inception_4e/relu_1x1"
  type: "ReLU"
  bottom: "inception_4e/1x1"
  top: "inception_4e/1x1"
}
layer {
  name: "inception_4e/3x3_reduce"
  type: "Convolution"
  bottom: "inception_4d/output"
  top: "inception_4e/3x3_reduce"
  param {
    lr_mult: 1
    decay_mult: 1
  }
  param {
    lr_mult: 2
    decay_mult: 0
  }
  convolution_param {
    num_output: 160
    kernel_size: 1
    weight_filler {
      type: "xavier"
      std: 0.09
    }
    bias_filler {
      type: "constant"
      value: 0.2
    }
  }
}
layer {
  name: "inception_4e/relu_3x3_reduce"
  type: "ReLU"
  bottom: "inception_4e/3x3_reduce"
  top: "inception_4e/3x3_reduce"
}
layer {
  name: "inception_4e/3x3"
  type: "Convolution"
  bottom: "inception_4e/3x3_reduce"
  top: "inception_4e/3x3"
  param {
    lr_mult: 1
    decay_mult: 1
  }
  param {
    lr_mult: 2
    decay_mult: 0
  }
  convolution_param {
    num_output: 320
    pad: 1
    kernel_size: 3
    weight_filler {
      type: "xavier"
      std: 0.03
    }
    bias_filler {
      type: "constant"
      value: 0.2
    }
  }
}
layer {
  name: "inception_4e/relu_3x3"
  type: "ReLU"
  bottom: "inception_4e/3x3"
  top: "inception_4e/3x3"
}
layer {
  name: "inception_4e/5x5_reduce"
  type: "Convolution"
  bottom: "inception_4d/output"
  top: "inception_4e/5x5_reduce"
  param {
    lr_mult: 1
    decay_mult: 1
  }
  param {
    lr_mult: 2
    decay_mult: 0
  }
  convolution_param {
    num_output: 32
    kernel_size: 1
    weight_filler {
      type: "xavier"
      std: 0.2
    }
    bias_filler {
      type: "constant"
      value: 0.2
    }
  }
}
layer {
  name: "inception_4e/relu_5x5_reduce"
  type: "ReLU"
  bottom: "
I0511 05:42:07.614315  2882 layer_factory.hpp:74] Creating layer data
I0511 05:42:07.614356  2882 net.cpp:76] Creating Layer data
I0511 05:42:07.614369  2882 net.cpp:334] data -> data
I0511 05:42:07.614400  2882 net.cpp:334] data -> label
I0511 05:42:07.614420  2882 net.cpp:105] Setting up data
I0511 05:42:07.614536  2882 db.cpp:34] Opened lmdb train_lmdb
I0511 05:42:07.614838  2882 data_layer.cpp:67] output data size: 32,3,224,224
I0511 05:42:07.621534  2882 net.cpp:112] Top shape: 32 3 224 224 (4816896)
I0511 05:42:07.621556  2882 net.cpp:112] Top shape: 32 1 1 1 (32)
I0511 05:42:07.621567  2882 layer_factory.hpp:74] Creating layer label_data_1_split
I0511 05:42:07.621583  2882 net.cpp:76] Creating Layer label_data_1_split
I0511 05:42:07.621592  2882 net.cpp:372] label_data_1_split <- label
I0511 05:42:07.621609  2882 net.cpp:334] label_data_1_split -> label_data_1_split_0
I0511 05:42:07.621623  2882 net.cpp:334] label_data_1_split -> label_data_1_split_1
I0511 05:42:07.621631  2882 net.cpp:334] label_data_1_split -> label_data_1_split_2
I0511 05:42:07.621640  2882 net.cpp:105] Setting up label_data_1_split
I0511 05:42:07.621649  2882 net.cpp:112] Top shape: 32 1 1 1 (32)
I0511 05:42:07.621655  2882 net.cpp:112] Top shape: 32 1 1 1 (32)
I0511 05:42:07.621660  2882 net.cpp:112] Top shape: 32 1 1 1 (32)
I0511 05:42:07.621666  2882 layer_factory.hpp:74] Creating layer conv1/7x7_s2
I0511 05:42:07.621680  2882 net.cpp:76] Creating Layer conv1/7x7_s2
I0511 05:42:07.621686  2882 net.cpp:372] conv1/7x7_s2 <- data
I0511 05:42:07.621695  2882 net.cpp:334] conv1/7x7_s2 -> conv1/7x7_s2
I0511 05:42:07.621706  2882 net.cpp:105] Setting up conv1/7x7_s2
I0511 05:42:07.621840  2882 net.cpp:112] Top shape: 32 64 112 112 (25690112)
I0511 05:42:07.621896  2882 layer_factory.hpp:74] Creating layer conv1/relu_7x7
I0511 05:42:07.621906  2882 net.cpp:76] Creating Layer conv1/relu_7x7
I0511 05:42:07.621912  2882 net.cpp:372] conv1/relu_7x7 <- conv1/7x7_s2
I0511 05:42:07.621920  2882 net.cpp:323] conv1/relu_7x7 -> conv1/7x7_s2 (in-place)
I0511 05:42:07.621928  2882 net.cpp:105] Setting up conv1/relu_7x7
I0511 05:42:07.621937  2882 net.cpp:112] Top shape: 32 64 112 112 (25690112)
I0511 05:42:07.621942  2882 layer_factory.hpp:74] Creating layer pool1/3x3_s2
I0511 05:42:07.621951  2882 net.cpp:76] Creating Layer pool1/3x3_s2
I0511 05:42:07.621958  2882 net.cpp:372] pool1/3x3_s2 <- conv1/7x7_s2
I0511 05:42:07.621964  2882 net.cpp:334] pool1/3x3_s2 -> pool1/3x3_s2
I0511 05:42:07.621973  2882 net.cpp:105] Setting up pool1/3x3_s2
I0511 05:42:07.621991  2882 net.cpp:112] Top shape: 32 64 56 56 (6422528)
I0511 05:42:07.621999  2882 layer_factory.hpp:74] Creating layer pool1/norm1
I0511 05:42:07.622009  2882 net.cpp:76] Creating Layer pool1/norm1
I0511 05:42:07.622014  2882 net.cpp:372] pool1/norm1 <- pool1/3x3_s2
I0511 05:42:07.622022  2882 net.cpp:334] pool1/norm1 -> pool1/norm1
I0511 05:42:07.622032  2882 net.cpp:105] Setting up pool1/norm1
I0511 05:42:07.622041  2882 net.cpp:112] Top shape: 32 64 56 56 (6422528)
I0511 05:42:07.622046  2882 layer_factory.hpp:74] Creating layer conv2/3x3_reduce
I0511 05:42:07.622056  2882 net.cpp:76] Creating Layer conv2/3x3_reduce
I0511 05:42:07.622061  2882 net.cpp:372] conv2/3x3_reduce <- pool1/norm1
I0511 05:42:07.622069  2882 net.cpp:334] conv2/3x3_reduce -> conv2/3x3_reduce
I0511 05:42:07.622079  2882 net.cpp:105] Setting up conv2/3x3_reduce
I0511 05:42:07.622123  2882 net.cpp:112] Top shape: 32 64 56 56 (6422528)
I0511 05:42:07.622134  2882 layer_factory.hpp:74] Creating layer conv2/relu_3x3_reduce
I0511 05:42:07.622143  2882 net.cpp:76] Creating Layer conv2/relu_3x3_reduce
I0511 05:42:07.622148  2882 net.cpp:372] conv2/relu_3x3_reduce <- conv2/3x3_reduce
I0511 05:42:07.622155  2882 net.cpp:323] conv2/relu_3x3_reduce -> conv2/3x3_reduce (in-place)
I0511 05:42:07.622164  2882 net.cpp:105] Setting up conv2/relu_3x3_reduce
I0511 05:42:07.622169  2882 net.cpp:112] Top shape: 32 64 56 56 (6422528)
I0511 05:42:07.622174  2882 layer_factory.hpp:74] Creating layer conv2/3x3
I0511 05:42:07.622184  2882 net.cpp:76] Creating Layer conv2/3x3
I0511 05:42:07.622189  2882 net.cpp:372] conv2/3x3 <- conv2/3x3_reduce
I0511 05:42:07.622197  2882 net.cpp:334] conv2/3x3 -> conv2/3x3
I0511 05:42:07.622205  2882 net.cpp:105] Setting up conv2/3x3
I0511 05:42:07.623596  2882 net.cpp:112] Top shape: 32 192 56 56 (19267584)
I0511 05:42:07.623623  2882 layer_factory.hpp:74] Creating layer conv2/relu_3x3
I0511 05:42:07.623639  2882 net.cpp:76] Creating Layer conv2/relu_3x3
I0511 05:42:07.623647  2882 net.cpp:372] conv2/relu_3x3 <- conv2/3x3
I0511 05:42:07.623657  2882 net.cpp:323] conv2/relu_3x3 -> conv2/3x3 (in-place)
I0511 05:42:07.623666  2882 net.cpp:105] Setting up conv2/relu_3x3
I0511 05:42:07.623672  2882 net.cpp:112] Top shape: 32 192 56 56 (19267584)
I0511 05:42:07.623677  2882 layer_factory.hpp:74] Creating layer conv2/norm2
I0511 05:42:07.623685  2882 net.cpp:76] Creating Layer conv2/norm2
I0511 05:42:07.623690  2882 net.cpp:372] conv2/norm2 <- conv2/3x3
I0511 05:42:07.623702  2882 net.cpp:334] conv2/norm2 -> conv2/norm2
I0511 05:42:07.623709  2882 net.cpp:105] Setting up conv2/norm2
I0511 05:42:07.623716  2882 net.cpp:112] Top shape: 32 192 56 56 (19267584)
I0511 05:42:07.623721  2882 layer_factory.hpp:74] Creating layer pool2/3x3_s2
I0511 05:42:07.623729  2882 net.cpp:76] Creating Layer pool2/3x3_s2
I0511 05:42:07.623734  2882 net.cpp:372] pool2/3x3_s2 <- conv2/norm2
I0511 05:42:07.623744  2882 net.cpp:334] pool2/3x3_s2 -> pool2/3x3_s2
I0511 05:42:07.623752  2882 net.cpp:105] Setting up pool2/3x3_s2
I0511 05:42:07.623759  2882 net.cpp:112] Top shape: 32 192 28 28 (4816896)
I0511 05:42:07.623764  2882 layer_factory.hpp:74] Creating layer pool2/3x3_s2_pool2/3x3_s2_0_split
I0511 05:42:07.623772  2882 net.cpp:76] Creating Layer pool2/3x3_s2_pool2/3x3_s2_0_split
I0511 05:42:07.623795  2882 net.cpp:372] pool2/3x3_s2_pool2/3x3_s2_0_split <- pool2/3x3_s2
I0511 05:42:07.623805  2882 net.cpp:334] pool2/3x3_s2_pool2/3x3_s2_0_split -> pool2/3x3_s2_pool2/3x3_s2_0_split_0
I0511 05:42:07.623813  2882 net.cpp:334] pool2/3x3_s2_pool2/3x3_s2_0_split -> pool2/3x3_s2_pool2/3x3_s2_0_split_1
I0511 05:42:07.623822  2882 net.cpp:334] pool2/3x3_s2_pool2/3x3_s2_0_split -> pool2/3x3_s2_pool2/3x3_s2_0_split_2
I0511 05:42:07.623833  2882 net.cpp:334] pool2/3x3_s2_pool2/3x3_s2_0_split -> pool2/3x3_s2_pool2/3x3_s2_0_split_3
I0511 05:42:07.623842  2882 net.cpp:105] Setting up pool2/3x3_s2_pool2/3x3_s2_0_split
I0511 05:42:07.623848  2882 net.cpp:112] Top shape: 32 192 28 28 (4816896)
I0511 05:42:07.623853  2882 net.cpp:112] Top shape: 32 192 28 28 (4816896)
I0511 05:42:07.623858  2882 net.cpp:112] Top shape: 32 192 28 28 (4816896)
I0511 05:42:07.623863  2882 net.cpp:112] Top shape: 32 192 28 28 (4816896)
I0511 05:42:07.623869  2882 layer_factory.hpp:74] Creating layer inception_3a/1x1
I0511 05:42:07.623880  2882 net.cpp:76] Creating Layer inception_3a/1x1
I0511 05:42:07.623886  2882 net.cpp:372] inception_3a/1x1 <- pool2/3x3_s2_pool2/3x3_s2_0_split_0
I0511 05:42:07.623894  2882 net.cpp:334] inception_3a/1x1 -> inception_3a/1x1
I0511 05:42:07.623904  2882 net.cpp:105] Setting up inception_3a/1x1
I0511 05:42:07.624024  2882 net.cpp:112] Top shape: 32 64 28 28 (1605632)
I0511 05:42:07.624037  2882 layer_factory.hpp:74] Creating layer inception_3a/relu_1x1
I0511 05:42:07.624045  2882 net.cpp:76] Creating Layer inception_3a/relu_1x1
I0511 05:42:07.624050  2882 net.cpp:372] inception_3a/relu_1x1 <- inception_3a/1x1
I0511 05:42:07.624060  2882 net.cpp:323] inception_3a/relu_1x1 -> inception_3a/1x1 (in-place)
I0511 05:42:07.624068  2882 net.cpp:105] Setting up inception_3a/relu_1x1
I0511 05:42:07.624073  2882 net.cpp:112] Top shape: 32 64 28 28 (1605632)
I0511 05:42:07.624078  2882 layer_factory.hpp:74] Creating layer inception_3a/3x3_reduce
I0511 05:42:07.624088  2882 net.cpp:76] Creating Layer inception_3a/3x3_reduce
I0511 05:42:07.624092  2882 net.cpp:372] inception_3a/3x3_reduce <- pool2/3x3_s2_pool2/3x3_s2_0_split_1
I0511 05:42:07.624104  2882 net.cpp:334] inception_3a/3x3_reduce -> inception_3a/3x3_reduce
I0511 05:42:07.624111  2882 net.cpp:105] Setting up inception_3a/3x3_reduce
I0511 05:42:07.625190  2882 net.cpp:112] Top shape: 32 96 28 28 (2408448)
I0511 05:42:07.625227  2882 layer_factory.hpp:74] Creating layer inception_3a/relu_3x3_reduce
I0511 05:42:07.625253  2882 net.cpp:76] Creating Layer inception_3a/relu_3x3_reduce
I0511 05:42:07.625269  2882 net.cpp:372] inception_3a/relu_3x3_reduce <- inception_3a/3x3_reduce
I0511 05:42:07.625282  2882 net.cpp:323] inception_3a/relu_3x3_reduce -> inception_3a/3x3_reduce (in-place)
I0511 05:42:07.625291  2882 net.cpp:105] Setting up inception_3a/relu_3x3_reduce
I0511 05:42:07.625298  2882 net.cpp:112] Top shape: 32 96 28 28 (2408448)
I0511 05:42:07.625303  2882 layer_factory.hpp:74] Creating layer inception_3a/3x3
I0511 05:42:07.625313  2882 net.cpp:76] Creating Layer inception_3a/3x3
I0511 05:42:07.625318  2882 net.cpp:372] inception_3a/3x3 <- inception_3a/3x3_reduce
I0511 05:42:07.625344  2882 net.cpp:334] inception_3a/3x3 -> inception_3a/3x3
I0511 05:42:07.625357  2882 net.cpp:105] Setting up inception_3a/3x3
I0511 05:42:07.626864  2882 net.cpp:112] Top shape: 32 128 28 28 (3211264)
I0511 05:42:07.626885  2882 layer_factory.hpp:74] Creating layer inception_3a/relu_3x3
I0511 05:42:07.626899  2882 net.cpp:76] Creating Layer inception_3a/relu_3x3
I0511 05:42:07.626909  2882 net.cpp:372] inception_3a/relu_3x3 <- inception_3a/3x3
I0511 05:42:07.626925  2882 net.cpp:323] inception_3a/relu_3x3 -> inception_3a/3x3 (in-place)
I0511 05:42:07.626940  2882 net.cpp:105] Setting up inception_3a/relu_3x3
I0511 05:42:07.626945  2882 net.cpp:112] Top shape: 32 128 28 28 (3211264)
I0511 05:42:07.626951  2882 layer_factory.hpp:74] Creating layer inception_3a/5x5_reduce
I0511 05:42:07.626960  2882 net.cpp:76] Creating Layer inception_3a/5x5_reduce
I0511 05:42:07.626986  2882 net.cpp:372] inception_3a/5x5_reduce <- pool2/3x3_s2_pool2/3x3_s2_0_split_2
I0511 05:42:07.627002  2882 net.cpp:334] inception_3a/5x5_reduce -> inception_3a/5x5_reduce
I0511 05:42:07.627012  2882 net.cpp:105] Setting up inception_3a/5x5_reduce
I0511 05:42:07.627058  2882 net.cpp:112] Top shape: 32 16 28 28 (401408)
I0511 05:42:07.627069  2882 layer_factory.hpp:74] Creating layer inception_3a/relu_5x5_reduce
I0511 05:42:07.627076  2882 net.cpp:76] Creating Layer inception_3a/relu_5x5_reduce
I0511 05:42:07.627082  2882 net.cpp:372] inception_3a/relu_5x5_reduce <- inception_3a/5x5_reduce
I0511 05:42:07.627089  2882 net.cpp:323] inception_3a/relu_5x5_reduce -> inception_3a/5x5_reduce (in-place)
I0511 05:42:07.627096  2882 net.cpp:105] Setting up inception_3a/relu_5x5_reduce
I0511 05:42:07.627102  2882 net.cpp:112] Top shape: 32 16 28 28 (401408)
I0511 05:42:07.627107  2882 layer_factory.hpp:74] Creating layer inception_3a/5x5
I0511 05:42:07.627118  2882 net.cpp:76] Creating Layer inception_3a/5x5
I0511 05:42:07.627123  2882 net.cpp:372] inception_3a/5x5 <- inception_3a/5x5_reduce
I0511 05:42:07.627131  2882 net.cpp:334] inception_3a/5x5 -> inception_3a/5x5
I0511 05:42:07.627140  2882 net.cpp:105] Setting up inception_3a/5x5
I0511 05:42:07.627275  2882 net.cpp:112] Top shape: 32 32 28 28 (802816)
I0511 05:42:07.627290  2882 layer_factory.hpp:74] Creating layer inception_3a/relu_5x5
I0511 05:42:07.627300  2882 net.cpp:76] Creating Layer inception_3a/relu_5x5
I0511 05:42:07.627305  2882 net.cpp:372] inception_3a/relu_5x5 <- inception_3a/5x5
I0511 05:42:07.627315  2882 net.cpp:323] inception_3a/relu_5x5 -> inception_3a/5x5 (in-place)
I0511 05:42:07.627322  2882 net.cpp:105] Setting up inception_3a/relu_5x5
I0511 05:42:07.627327  2882 net.cpp:112] Top shape: 32 32 28 28 (802816)
I0511 05:42:07.627333  2882 layer_factory.hpp:74] Creating layer inception_3a/pool
I0511 05:42:07.627341  2882 net.cpp:76] Creating Layer inception_3a/pool
I0511 05:42:07.627346  2882 net.cpp:372] inception_3a/pool <- pool2/3x3_s2_pool2/3x3_s2_0_split_3
I0511 05:42:07.627354  2882 net.cpp:334] inception_3a/pool -> inception_3a/pool
I0511 05:42:07.627362  2882 net.cpp:105] Setting up inception_3a/pool
I0511 05:42:07.627372  2882 net.cpp:112] Top shape: 32 192 28 28 (4816896)
I0511 05:42:07.627377  2882 layer_factory.hpp:74] Creating layer inception_3a/pool_proj
I0511 05:42:07.627387  2882 net.cpp:76] Creating Layer inception_3a/pool_proj
I0511 05:42:07.627392  2882 net.cpp:372] inception_3a/pool_proj <- inception_3a/pool
I0511 05:42:07.627401  2882 net.cpp:334] inception_3a/pool_proj -> inception_3a/pool_proj
I0511 05:42:07.627409  2882 net.cpp:105] Setting up inception_3a/pool_proj
I0511 05:42:07.627476  2882 net.cpp:112] Top shape: 32 32 28 28 (802816)
I0511 05:42:07.627491  2882 layer_factory.hpp:74] Creating layer inception_3a/relu_pool_proj
I0511 05:42:07.627499  2882 net.cpp:76] Creating Layer inception_3a/relu_pool_proj
I0511 05:42:07.627506  2882 net.cpp:372] inception_3a/relu_pool_proj <- inception_3a/pool_proj
I0511 05:42:07.627512  2882 net.cpp:323] inception_3a/relu_pool_proj -> inception_3a/pool_proj (in-place)
I0511 05:42:07.627519  2882 net.cpp:105] Setting up inception_3a/relu_pool_proj
I0511 05:42:07.627526  2882 net.cpp:112] Top shape: 32 32 28 28 (802816)
I0511 05:42:07.627532  2882 layer_factory.hpp:74] Creating layer inception_3a/output
I0511 05:42:07.627542  2882 net.cpp:76] Creating Layer inception_3a/output
I0511 05:42:07.627547  2882 net.cpp:372] inception_3a/output <- inception_3a/1x1
I0511 05:42:07.627553  2882 net.cpp:372] inception_3a/output <- inception_3a/3x3
I0511 05:42:07.627560  2882 net.cpp:372] inception_3a/output <- inception_3a/5x5
I0511 05:42:07.627567  2882 net.cpp:372] inception_3a/output <- inception_3a/pool_proj
I0511 05:42:07.627573  2882 net.cpp:334] inception_3a/output -> inception_3a/output
I0511 05:42:07.627580  2882 net.cpp:105] Setting up inception_3a/output
I0511 05:42:07.627627  2882 net.cpp:112] Top shape: 32 256 28 28 (6422528)
I0511 05:42:07.627645  2882 layer_factory.hpp:74] Creating layer inception_3a/output_inception_3a/output_0_split
I0511 05:42:07.627681  2882 net.cpp:76] Creating Layer inception_3a/output_inception_3a/output_0_split
I0511 05:42:07.627692  2882 net.cpp:372] inception_3a/output_inception_3a/output_0_split <- inception_3a/output
I0511 05:42:07.627708  2882 net.cpp:334] inception_3a/output_inception_3a/output_0_split -> inception_3a/output_inception_3a/output_0_split_0
I0511 05:42:07.627720  2882 net.cpp:334] inception_3a/output_inception_3a/output_0_split -> inception_3a/output_inception_3a/output_0_split_1
I0511 05:42:07.627729  2882 net.cpp:334] inception_3a/output_inception_3a/output_0_split -> inception_3a/output_inception_3a/output_0_split_2
I0511 05:42:07.627738  2882 net.cpp:334] inception_3a/output_inception_3a/output_0_split -> inception_3a/output_inception_3a/output_0_split_3
I0511 05:42:07.627746  2882 net.cpp:105] Setting up inception_3a/output_inception_3a/output_0_split
I0511 05:42:07.627754  2882 net.cpp:112] Top shape: 32 256 28 28 (6422528)
I0511 05:42:07.627759  2882 net.cpp:112] Top shape: 32 256 28 28 (6422528)
I0511 05:42:07.627764  2882 net.cpp:112] Top shape: 32 256 28 28 (6422528)
I0511 05:42:07.627769  2882 net.cpp:112] Top shape: 32 256 28 28 (6422528)
I0511 05:42:07.627774  2882 layer_factory.hpp:74] Creating layer inception_3b/1x1
I0511 05:42:07.627785  2882 net.cpp:76] Creating Layer inception_3b/1x1
I0511 05:42:07.627791  2882 net.cpp:372] inception_3b/1x1 <- inception_3a/output_inception_3a/output_0_split_0
I0511 05:42:07.627800  2882 net.cpp:334] inception_3b/1x1 -> inception_3b/1x1
I0511 05:42:07.627809  2882 net.cpp:105] Setting up inception_3b/1x1
I0511 05:42:07.628458  2882 net.cpp:112] Top shape: 32 128 28 28 (3211264)
I0511 05:42:07.628475  2882 layer_factory.hpp:74] Creating layer inception_3b/relu_1x1
I0511 05:42:07.628486  2882 net.cpp:76] Creating Layer inception_3b/relu_1x1
I0511 05:42:07.628492  2882 net.cpp:372] inception_3b/relu_1x1 <- inception_3b/1x1
I0511 05:42:07.628500  2882 net.cpp:323] inception_3b/relu_1x1 -> inception_3b/1x1 (in-place)
I0511 05:42:07.628509  2882 net.cpp:105] Setting up inception_3b/relu_1x1
I0511 05:42:07.628514  2882 net.cpp:112] Top shape: 32 128 28 28 (3211264)
I0511 05:42:07.628520  2882 layer_factory.hpp:74] Creating layer inception_3b/3x3_reduce
I0511 05:42:07.628530  2882 net.cpp:76] Creating Layer inception_3b/3x3_reduce
I0511 05:42:07.628535  2882 net.cpp:372] inception_3b/3x3_reduce <- inception_3a/output_inception_3a/output_0_split_1
I0511 05:42:07.628543  2882 net.cpp:334] inception_3b/3x3_reduce -> inception_3b/3x3_reduce
I0511 05:42:07.628552  2882 net.cpp:105] Setting up inception_3b/3x3_reduce
I0511 05:42:07.628839  2882 net.cpp:112] Top shape: 32 128 28 28 (3211264)
I0511 05:42:07.628850  2882 layer_factory.hpp:74] Creating layer inception_3b/relu_3x3_reduce
I0511 05:42:07.628859  2882 net.cpp:76] Creating Layer inception_3b/relu_3x3_reduce
I0511 05:42:07.628865  2882 net.cpp:372] inception_3b/relu_3x3_reduce <- inception_3b/3x3_reduce
I0511 05:42:07.628875  2882 net.cpp:323] inception_3b/relu_3x3_reduce -> inception_3b/3x3_reduce (in-place)
I0511 05:42:07.628882  2882 net.cpp:105] Setting up inception_3b/relu_3x3_reduce
I0511 05:42:07.628887  2882 net.cpp:112] Top shape: 32 128 28 28 (3211264)
I0511 05:42:07.628892  2882 layer_factory.hpp:74] Creating layer inception_3b/3x3
I0511 05:42:07.628907  2882 net.cpp:76] Creating Layer inception_3b/3x3
I0511 05:42:07.628914  2882 net.cpp:372] inception_3b/3x3 <- inception_3b/3x3_reduce
I0511 05:42:07.628923  2882 net.cpp:334] inception_3b/3x3 -> inception_3b/3x3
I0511 05:42:07.628931  2882 net.cpp:105] Setting up inception_3b/3x3
I0511 05:42:07.631268  2882 net.cpp:112] Top shape: 32 192 28 28 (4816896)
I0511 05:42:07.631307  2882 layer_factory.hpp:74] Creating layer inception_3b/relu_3x3
I0511 05:42:07.631321  2882 net.cpp:76] Creating Layer inception_3b/relu_3x3
I0511 05:42:07.631330  2882 net.cpp:372] inception_3b/relu_3x3 <- inception_3b/3x3
I0511 05:42:07.631337  2882 net.cpp:323] inception_3b/relu_3x3 -> inception_3b/3x3 (in-place)
I0511 05:42:07.631369  2882 net.cpp:105] Setting up inception_3b/relu_3x3
I0511 05:42:07.631376  2882 net.cpp:112] Top shape: 32 192 28 28 (4816896)
I0511 05:42:07.631382  2882 layer_factory.hpp:74] Creating layer inception_3b/5x5_reduce
I0511 05:42:07.631395  2882 net.cpp:76] Creating Layer inception_3b/5x5_reduce
I0511 05:42:07.631402  2882 net.cpp:372] inception_3b/5x5_reduce <- inception_3a/output_inception_3a/output_0_split_2
I0511 05:42:07.631410  2882 net.cpp:334] inception_3b/5x5_reduce -> inception_3b/5x5_reduce
I0511 05:42:07.631420  2882 net.cpp:105] Setting up inception_3b/5x5_reduce
I0511 05:42:07.631503  2882 net.cpp:112] Top shape: 32 32 28 28 (802816)
I0511 05:42:07.631513  2882 layer_factory.hpp:74] Creating layer inception_3b/relu_5x5_reduce
I0511 05:42:07.631525  2882 net.cpp:76] Creating Layer inception_3b/relu_5x5_reduce
I0511 05:42:07.631541  2882 net.cpp:372] inception_3b/relu_5x5_reduce <- inception_3b/5x5_reduce
I0511 05:42:07.631561  2882 net.cpp:323] inception_3b/relu_5x5_reduce -> inception_3b/5x5_reduce (in-place)
I0511 05:42:07.631578  2882 net.cpp:105] Setting up inception_3b/relu_5x5_reduce
I0511 05:42:07.631590  2882 net.cpp:112] Top shape: 32 32 28 28 (802816)
I0511 05:42:07.631602  2882 layer_factory.hpp:74] Creating layer inception_3b/5x5
I0511 05:42:07.631618  2882 net.cpp:76] Creating Layer inception_3b/5x5
I0511 05:42:07.631631  2882 net.cpp:372] inception_3b/5x5 <- inception_3b/5x5_reduce
I0511 05:42:07.631650  2882 net.cpp:334] inception_3b/5x5 -> inception_3b/5x5
I0511 05:42:07.631675  2882 net.cpp:105] Setting up inception_3b/5x5
I0511 05:42:07.632454  2882 net.cpp:112] Top shape: 32 96 28 28 (2408448)
I0511 05:42:07.632472  2882 layer_factory.hpp:74] Creating layer inception_3b/relu_5x5
I0511 05:42:07.632479  2882 net.cpp:76] Creating Layer inception_3b/relu_5x5
I0511 05:42:07.632485  2882 net.cpp:372] inception_3b/relu_5x5 <- inception_3b/5x5
I0511 05:42:07.632495  2882 net.cpp:323] inception_3b/relu_5x5 -> inception_3b/5x5 (in-place)
I0511 05:42:07.632504  2882 net.cpp:105] Setting up inception_3b/relu_5x5
I0511 05:42:07.632509  2882 net.cpp:112] Top shape: 32 96 28 28 (2408448)
I0511 05:42:07.632514  2882 layer_factory.hpp:74] Creating layer inception_3b/pool
I0511 05:42:07.632522  2882 net.cpp:76] Creating Layer inception_3b/pool
I0511 05:42:07.632529  2882 net.cpp:372] inception_3b/pool <- inception_3a/output_inception_3a/output_0_split_3
I0511 05:42:07.632536  2882 net.cpp:334] inception_3b/pool -> inception_3b/pool
I0511 05:42:07.632546  2882 net.cpp:105] Setting up inception_3b/pool
I0511 05:42:07.632555  2882 net.cpp:112] Top shape: 32 256 28 28 (6422528)
I0511 05:42:07.632560  2882 layer_factory.hpp:74] Creating layer inception_3b/pool_proj
I0511 05:42:07.632568  2882 net.cpp:76] Creating Layer inception_3b/pool_proj
I0511 05:42:07.632575  2882 net.cpp:372] inception_3b/pool_proj <- inception_3b/pool
I0511 05:42:07.632593  2882 net.cpp:334] inception_3b/pool_proj -> inception_3b/pool_proj
I0511 05:42:07.632606  2882 net.cpp:105] Setting up inception_3b/pool_proj
I0511 05:42:07.632756  2882 net.cpp:112] Top shape: 32 64 28 28 (1605632)
I0511 05:42:07.632768  2882 layer_factory.hpp:74] Creating layer inception_3b/relu_pool_proj
I0511 05:42:07.632778  2882 net.cpp:76] Creating Layer inception_3b/relu_pool_proj
I0511 05:42:07.632786  2882 net.cpp:372] inception_3b/relu_pool_proj <- inception_3b/pool_proj
I0511 05:42:07.632792  2882 net.cpp:323] inception_3b/relu_pool_proj -> inception_3b/pool_proj (in-place)
I0511 05:42:07.632799  2882 net.cpp:105] Setting up inception_3b/relu_pool_proj
I0511 05:42:07.632805  2882 net.cpp:112] Top shape: 32 64 28 28 (1605632)
I0511 05:42:07.632812  2882 layer_factory.hpp:74] Creating layer inception_3b/output
I0511 05:42:07.632820  2882 net.cpp:76] Creating Layer inception_3b/output
I0511 05:42:07.632827  2882 net.cpp:372] inception_3b/output <- inception_3b/1x1
I0511 05:42:07.632833  2882 net.cpp:372] inception_3b/output <- inception_3b/3x3
I0511 05:42:07.632839  2882 net.cpp:372] inception_3b/output <- inception_3b/5x5
I0511 05:42:07.632860  2882 net.cpp:372] inception_3b/output <- inception_3b/pool_proj
I0511 05:42:07.632869  2882 net.cpp:334] inception_3b/output -> inception_3b/output
I0511 05:42:07.632879  2882 net.cpp:105] Setting up inception_3b/output
I0511 05:42:07.632885  2882 net.cpp:112] Top shape: 32 480 28 28 (12042240)
I0511 05:42:07.632891  2882 layer_factory.hpp:74] Creating layer pool3/3x3_s2
I0511 05:42:07.632899  2882 net.cpp:76] Creating Layer pool3/3x3_s2
I0511 05:42:07.632905  2882 net.cpp:372] pool3/3x3_s2 <- inception_3b/output
I0511 05:42:07.632912  2882 net.cpp:334] pool3/3x3_s2 -> pool3/3x3_s2
I0511 05:42:07.632920  2882 net.cpp:105] Setting up pool3/3x3_s2
I0511 05:42:07.632927  2882 net.cpp:112] Top shape: 32 480 14 14 (3010560)
I0511 05:42:07.632933  2882 layer_factory.hpp:74] Creating layer pool3/3x3_s2_pool3/3x3_s2_0_split
I0511 05:42:07.632943  2882 net.cpp:76] Creating Layer pool3/3x3_s2_pool3/3x3_s2_0_split
I0511 05:42:07.632949  2882 net.cpp:372] pool3/3x3_s2_pool3/3x3_s2_0_split <- pool3/3x3_s2
I0511 05:42:07.632956  2882 net.cpp:334] pool3/3x3_s2_pool3/3x3_s2_0_split -> pool3/3x3_s2_pool3/3x3_s2_0_split_0
I0511 05:42:07.632967  2882 net.cpp:334] pool3/3x3_s2_pool3/3x3_s2_0_split -> pool3/3x3_s2_pool3/3x3_s2_0_split_1
I0511 05:42:07.632977  2882 net.cpp:334] pool3/3x3_s2_pool3/3x3_s2_0_split -> pool3/3x3_s2_pool3/3x3_s2_0_split_2
I0511 05:42:07.632985  2882 net.cpp:334] pool3/3x3_s2_pool3/3x3_s2_0_split -> pool3/3x3_s2_pool3/3x3_s2_0_split_3
I0511 05:42:07.632993  2882 net.cpp:105] Setting up pool3/3x3_s2_pool3/3x3_s2_0_split
I0511 05:42:07.632999  2882 net.cpp:112] Top shape: 32 480 14 14 (3010560)
I0511 05:42:07.633005  2882 net.cpp:112] Top shape: 32 480 14 14 (3010560)
I0511 05:42:07.633009  2882 net.cpp:112] Top shape: 32 480 14 14 (3010560)
I0511 05:42:07.633014  2882 net.cpp:112] Top shape: 32 480 14 14 (3010560)
I0511 05:42:07.633020  2882 layer_factory.hpp:74] Creating layer inception_4a/1x1
I0511 05:42:07.633028  2882 net.cpp:76] Creating Layer inception_4a/1x1
I0511 05:42:07.633034  2882 net.cpp:372] inception_4a/1x1 <- pool3/3x3_s2_pool3/3x3_s2_0_split_0
I0511 05:42:07.633045  2882 net.cpp:334] inception_4a/1x1 -> inception_4a/1x1
I0511 05:42:07.633059  2882 net.cpp:105] Setting up inception_4a/1x1
I0511 05:42:07.633863  2882 net.cpp:112] Top shape: 32 192 14 14 (1204224)
I0511 05:42:07.633879  2882 layer_factory.hpp:74] Creating layer inception_4a/relu_1x1
I0511 05:42:07.633888  2882 net.cpp:76] Creating Layer inception_4a/relu_1x1
I0511 05:42:07.633914  2882 net.cpp:372] inception_4a/relu_1x1 <- inception_4a/1x1
I0511 05:42:07.633925  2882 net.cpp:323] inception_4a/relu_1x1 -> inception_4a/1x1 (in-place)
I0511 05:42:07.633934  2882 net.cpp:105] Setting up inception_4a/relu_1x1
I0511 05:42:07.633940  2882 net.cpp:112] Top shape: 32 192 14 14 (1204224)
I0511 05:42:07.633945  2882 layer_factory.hpp:74] Creating layer inception_4a/3x3_reduce
I0511 05:42:07.633955  2882 net.cpp:76] Creating Layer inception_4a/3x3_reduce
I0511 05:42:07.633960  2882 net.cpp:372] inception_4a/3x3_reduce <- pool3/3x3_s2_pool3/3x3_s2_0_split_1
I0511 05:42:07.633970  2882 net.cpp:334] inception_4a/3x3_reduce -> inception_4a/3x3_reduce
I0511 05:42:07.633980  2882 net.cpp:105] Setting up inception_4a/3x3_reduce
I0511 05:42:07.634392  2882 net.cpp:112] Top shape: 32 96 14 14 (602112)
I0511 05:42:07.634415  2882 layer_factory.hpp:74] Creating layer inception_4a/relu_3x3_reduce
I0511 05:42:07.634424  2882 net.cpp:76] Creating Layer inception_4a/relu_3x3_reduce
I0511 05:42:07.634430  2882 net.cpp:372] inception_4a/relu_3x3_reduce <- inception_4a/3x3_reduce
I0511 05:42:07.634439  2882 net.cpp:323] inception_4a/relu_3x3_reduce -> inception_4a/3x3_reduce (in-place)
I0511 05:42:07.634449  2882 net.cpp:105] Setting up inception_4a/relu_3x3_reduce
I0511 05:42:07.634454  2882 net.cpp:112] Top shape: 32 96 14 14 (602112)
I0511 05:42:07.634459  2882 layer_factory.hpp:74] Creating layer inception_4a/3x3
I0511 05:42:07.634467  2882 net.cpp:76] Creating Layer inception_4a/3x3
I0511 05:42:07.634474  2882 net.cpp:372] inception_4a/3x3 <- inception_4a/3x3_reduce
I0511 05:42:07.634501  2882 net.cpp:334] inception_4a/3x3 -> inception_4a/3x3
I0511 05:42:07.634512  2882 net.cpp:105] Setting up inception_4a/3x3
I0511 05:42:07.636030  2882 net.cpp:112] Top shape: 32 208 14 14 (1304576)
I0511 05:42:07.636046  2882 layer_factory.hpp:74] Creating layer inception_4a/relu_3x3
I0511 05:42:07.636054  2882 net.cpp:76] Creating Layer inception_4a/relu_3x3
I0511 05:42:07.636060  2882 net.cpp:372] inception_4a/relu_3x3 <- inception_4a/3x3
I0511 05:42:07.636070  2882 net.cpp:323] inception_4a/relu_3x3 -> inception_4a/3x3 (in-place)
I0511 05:42:07.636078  2882 net.cpp:105] Setting up inception_4a/relu_3x3
I0511 05:42:07.636085  2882 net.cpp:112] Top shape: 32 208 14 14 (1304576)
I0511 05:42:07.636090  2882 layer_factory.hpp:74] Creating layer inception_4a/5x5_reduce
I0511 05:42:07.636097  2882 net.cpp:76] Creating Layer inception_4a/5x5_reduce
I0511 05:42:07.636103  2882 net.cpp:372] inception_4a/5x5_reduce <- pool3/3x3_s2_pool3/3x3_s2_0_split_2
I0511 05:42:07.636113  2882 net.cpp:334] inception_4a/5x5_reduce -> inception_4a/5x5_reduce
I0511 05:42:07.636122  2882 net.cpp:105] Setting up inception_4a/5x5_reduce
I0511 05:42:07.636210  2882 net.cpp:112] Top shape: 32 16 14 14 (100352)
I0511 05:42:07.636222  2882 layer_factory.hpp:74] Creating layer inception_4a/relu_5x5_reduce
I0511 05:42:07.636232  2882 net.cpp:76] Creating Layer inception_4a/relu_5x5_reduce
I0511 05:42:07.636239  2882 net.cpp:372] inception_4a/relu_5x5_reduce <- inception_4a/5x5_reduce
I0511 05:42:07.636245  2882 net.cpp:323] inception_4a/relu_5x5_reduce -> inception_4a/5x5_reduce (in-place)
I0511 05:42:07.636253  2882 net.cpp:105] Setting up inception_4a/relu_5x5_reduce
I0511 05:42:07.636258  2882 net.cpp:112] Top shape: 32 16 14 14 (100352)
I0511 05:42:07.636265  2882 layer_factory.hpp:74] Creating layer inception_4a/5x5
I0511 05:42:07.636286  2882 net.cpp:76] Creating Layer inception_4a/5x5
I0511 05:42:07.636342  2882 net.cpp:372] inception_4a/5x5 <- inception_4a/5x5_reduce
I0511 05:42:07.636356  2882 net.cpp:334] inception_4a/5x5 -> inception_4a/5x5
I0511 05:42:07.636368  2882 net.cpp:105] Setting up inception_4a/5x5
I0511 05:42:07.636551  2882 net.cpp:112] Top shape: 32 48 14 14 (301056)
I0511 05:42:07.636564  2882 layer_factory.hpp:74] Creating layer inception_4a/relu_5x5
I0511 05:42:07.636572  2882 net.cpp:76] Creating Layer inception_4a/relu_5x5
I0511 05:42:07.637439  2882 net.cpp:372] inception_4a/relu_5x5 <- inception_4a/5x5
I0511 05:42:07.637454  2882 net.cpp:323] inception_4a/relu_5x5 -> inception_4a/5x5 (in-place)
I0511 05:42:07.637462  2882 net.cpp:105] Setting up inception_4a/relu_5x5
I0511 05:42:07.637469  2882 net.cpp:112] Top shape: 32 48 14 14 (301056)
I0511 05:42:07.637473  2882 layer_factory.hpp:74] Creating layer inception_4a/pool
I0511 05:42:07.637481  2882 net.cpp:76] Creating Layer inception_4a/pool
I0511 05:42:07.637487  2882 net.cpp:372] inception_4a/pool <- pool3/3x3_s2_pool3/3x3_s2_0_split_3
I0511 05:42:07.637497  2882 net.cpp:334] inception_4a/pool -> inception_4a/pool
I0511 05:42:07.637506  2882 net.cpp:105] Setting up inception_4a/pool
I0511 05:42:07.637514  2882 net.cpp:112] Top shape: 32 480 14 14 (3010560)
I0511 05:42:07.637519  2882 layer_factory.hpp:74] Creating layer inception_4a/pool_proj
I0511 05:42:07.637528  2882 net.cpp:76] Creating Layer inception_4a/pool_proj
I0511 05:42:07.637534  2882 net.cpp:372] inception_4a/pool_proj <- inception_4a/pool
I0511 05:42:07.637544  2882 net.cpp:334] inception_4a/pool_proj -> inception_4a/pool_proj
I0511 05:42:07.637553  2882 net.cpp:105] Setting up inception_4a/pool_proj
I0511 05:42:07.637831  2882 net.cpp:112] Top shape: 32 64 14 14 (401408)
I0511 05:42:07.637846  2882 layer_factory.hpp:74] Creating layer inception_4a/relu_pool_proj
I0511 05:42:07.637855  2882 net.cpp:76] Creating Layer inception_4a/relu_pool_proj
I0511 05:42:07.637861  2882 net.cpp:372] inception_4a/relu_pool_proj <- inception_4a/pool_proj
I0511 05:42:07.637867  2882 net.cpp:323] inception_4a/relu_pool_proj -> inception_4a/pool_proj (in-place)
I0511 05:42:07.637894  2882 net.cpp:105] Setting up inception_4a/relu_pool_proj
I0511 05:42:07.637902  2882 net.cpp:112] Top shape: 32 64 14 14 (401408)
I0511 05:42:07.637907  2882 layer_factory.hpp:74] Creating layer inception_4a/output
I0511 05:42:07.637914  2882 net.cpp:76] Creating Layer inception_4a/output
I0511 05:42:07.637920  2882 net.cpp:372] inception_4a/output <- inception_4a/1x1
I0511 05:42:07.637926  2882 net.cpp:372] inception_4a/output <- inception_4a/3x3
I0511 05:42:07.637933  2882 net.cpp:372] inception_4a/output <- inception_4a/5x5
I0511 05:42:07.637938  2882 net.cpp:372] inception_4a/output <- inception_4a/pool_proj
I0511 05:42:07.637954  2882 net.cpp:334] inception_4a/output -> inception_4a/output
I0511 05:42:07.637964  2882 net.cpp:105] Setting up inception_4a/output
I0511 05:42:07.637969  2882 net.cpp:112] Top shape: 32 512 14 14 (3211264)
I0511 05:42:07.637975  2882 layer_factory.hpp:74] Creating layer inception_4a/output_inception_4a/output_0_split
I0511 05:42:07.637984  2882 net.cpp:76] Creating Layer inception_4a/output_inception_4a/output_0_split
I0511 05:42:07.637990  2882 net.cpp:372] inception_4a/output_inception_4a/output_0_split <- inception_4a/output
I0511 05:42:07.638000  2882 net.cpp:334] inception_4a/output_inception_4a/output_0_split -> inception_4a/output_inception_4a/output_0_split_0
I0511 05:42:07.638010  2882 net.cpp:334] inception_4a/output_inception_4a/output_0_split -> inception_4a/output_inception_4a/output_0_split_1
I0511 05:42:07.638020  2882 net.cpp:334] inception_4a/output_inception_4a/output_0_split -> inception_4a/output_inception_4a/output_0_split_2
I0511 05:42:07.638030  2882 net.cpp:334] inception_4a/output_inception_4a/output_0_split -> inception_4a/output_inception_4a/output_0_split_3
I0511 05:42:07.638039  2882 net.cpp:334] inception_4a/output_inception_4a/output_0_split -> inception_4a/output_inception_4a/output_0_split_4
I0511 05:42:07.638048  2882 net.cpp:105] Setting up inception_4a/output_inception_4a/output_0_split
I0511 05:42:07.638056  2882 net.cpp:112] Top shape: 32 512 14 14 (3211264)
I0511 05:42:07.638062  2882 net.cpp:112] Top shape: 32 512 14 14 (3211264)
I0511 05:42:07.638067  2882 net.cpp:112] Top shape: 32 512 14 14 (3211264)
I0511 05:42:07.638070  2882 net.cpp:112] Top shape: 32 512 14 14 (3211264)
I0511 05:42:07.638075  2882 net.cpp:112] Top shape: 32 512 14 14 (3211264)
I0511 05:42:07.638080  2882 layer_factory.hpp:74] Creating layer loss1/ave_pool
I0511 05:42:07.638088  2882 net.cpp:76] Creating Layer loss1/ave_pool
I0511 05:42:07.638093  2882 net.cpp:372] loss1/ave_pool <- inception_4a/output_inception_4a/output_0_split_0
I0511 05:42:07.638103  2882 net.cpp:334] loss1/ave_pool -> loss1/ave_pool
I0511 05:42:07.638111  2882 net.cpp:105] Setting up loss1/ave_pool
I0511 05:42:07.638118  2882 net.cpp:112] Top shape: 32 512 4 4 (262144)
I0511 05:42:07.638123  2882 layer_factory.hpp:74] Creating layer loss1/conv
I0511 05:42:07.638134  2882 net.cpp:76] Creating Layer loss1/conv
I0511 05:42:07.638140  2882 net.cpp:372] loss1/conv <- loss1/ave_pool
I0511 05:42:07.638147  2882 net.cpp:334] loss1/conv -> loss1/conv
I0511 05:42:07.638156  2882 net.cpp:105] Setting up loss1/conv
I0511 05:42:07.638737  2882 net.cpp:112] Top shape: 32 128 4 4 (65536)
I0511 05:42:07.638752  2882 layer_factory.hpp:74] Creating layer loss1/relu_conv
I0511 05:42:07.638763  2882 net.cpp:76] Creating Layer loss1/relu_conv
I0511 05:42:07.638769  2882 net.cpp:372] loss1/relu_conv <- loss1/conv
I0511 05:42:07.638777  2882 net.cpp:323] loss1/relu_conv -> loss1/conv (in-place)
I0511 05:42:07.638783  2882 net.cpp:105] Setting up loss1/relu_conv
I0511 05:42:07.638789  2882 net.cpp:112] Top shape: 32 128 4 4 (65536)
I0511 05:42:07.638795  2882 layer_factory.hpp:74] Creating layer loss1/fc
I0511 05:42:07.638809  2882 net.cpp:76] Creating Layer loss1/fc
I0511 05:42:07.638815  2882 net.cpp:372] loss1/fc <- loss1/conv
I0511 05:42:07.638823  2882 net.cpp:334] loss1/fc -> loss1/fc
I0511 05:42:07.638836  2882 net.cpp:105] Setting up loss1/fc
I0511 05:42:07.656386  2882 net.cpp:112] Top shape: 32 1024 1 1 (32768)
I0511 05:42:07.656463  2882 layer_factory.hpp:74] Creating layer loss1/relu_fc
I0511 05:42:07.656482  2882 net.cpp:76] Creating Layer loss1/relu_fc
I0511 05:42:07.656491  2882 net.cpp:372] loss1/relu_fc <- loss1/fc
I0511 05:42:07.656502  2882 net.cpp:323] loss1/relu_fc -> loss1/fc (in-place)
I0511 05:42:07.656512  2882 net.cpp:105] Setting up loss1/relu_fc
I0511 05:42:07.656518  2882 net.cpp:112] Top shape: 32 1024 1 1 (32768)
I0511 05:42:07.656524  2882 layer_factory.hpp:74] Creating layer loss1/drop_fc
I0511 05:42:07.656546  2882 net.cpp:76] Creating Layer loss1/drop_fc
I0511 05:42:07.656553  2882 net.cpp:372] loss1/drop_fc <- loss1/fc
I0511 05:42:07.656559  2882 net.cpp:323] loss1/drop_fc -> loss1/fc (in-place)
I0511 05:42:07.656570  2882 net.cpp:105] Setting up loss1/drop_fc
I0511 05:42:07.656580  2882 net.cpp:112] Top shape: 32 1024 1 1 (32768)
I0511 05:42:07.656587  2882 layer_factory.hpp:74] Creating layer loss1/classifier
I0511 05:42:07.656601  2882 net.cpp:76] Creating Layer loss1/classifier
I0511 05:42:07.656607  2882 net.cpp:372] loss1/classifier <- loss1/fc
I0511 05:42:07.656617  2882 net.cpp:334] loss1/classifier -> loss1/classifier
I0511 05:42:07.656627  2882 net.cpp:105] Setting up loss1/classifier
I0511 05:42:07.656659  2882 net.cpp:112] Top shape: 32 2 1 1 (64)
I0511 05:42:07.656671  2882 layer_factory.hpp:74] Creating layer loss1/loss
I0511 05:42:07.656682  2882 net.cpp:76] Creating Layer loss1/loss
I0511 05:42:07.656687  2882 net.cpp:372] loss1/loss <- loss1/classifier
I0511 05:42:07.656694  2882 net.cpp:372] loss1/loss <- label_data_1_split_0
I0511 05:42:07.656702  2882 net.cpp:334] loss1/loss -> loss1/loss1
I0511 05:42:07.656713  2882 net.cpp:105] Setting up loss1/loss
I0511 05:42:07.656724  2882 layer_factory.hpp:74] Creating layer loss1/loss
I0511 05:42:07.656749  2882 net.cpp:112] Top shape: 1 1 1 1 (1)
I0511 05:42:07.656756  2882 net.cpp:118]     with loss weight 0.3
I0511 05:42:07.656792  2882 layer_factory.hpp:74] Creating layer inception_4b/1x1
I0511 05:42:07.656805  2882 net.cpp:76] Creating Layer inception_4b/1x1
I0511 05:42:07.656811  2882 net.cpp:372] inception_4b/1x1 <- inception_4a/output_inception_4a/output_0_split_1
I0511 05:42:07.656841  2882 net.cpp:334] inception_4b/1x1 -> inception_4b/1x1
I0511 05:42:07.656852  2882 net.cpp:105] Setting up inception_4b/1x1
I0511 05:42:07.657559  2882 net.cpp:112] Top shape: 32 160 14 14 (1003520)
I0511 05:42:07.657573  2882 layer_factory.hpp:74] Creating layer inception_4b/relu_1x1
I0511 05:42:07.657582  2882 net.cpp:76] Creating Layer inception_4b/relu_1x1
I0511 05:42:07.657588  2882 net.cpp:372] inception_4b/relu_1x1 <- inception_4b/1x1
I0511 05:42:07.657595  2882 net.cpp:323] inception_4b/relu_1x1 -> inception_4b/1x1 (in-place)
I0511 05:42:07.657603  2882 net.cpp:105] Setting up inception_4b/relu_1x1
I0511 05:42:07.657608  2882 net.cpp:112] Top shape: 32 160 14 14 (1003520)
I0511 05:42:07.657614  2882 layer_factory.hpp:74] Creating layer inception_4b/3x3_reduce
I0511 05:42:07.657625  2882 net.cpp:76] Creating Layer inception_4b/3x3_reduce
I0511 05:42:07.657631  2882 net.cpp:372] inception_4b/3x3_reduce <- inception_4a/output_inception_4a/output_0_split_2
I0511 05:42:07.657639  2882 net.cpp:334] inception_4b/3x3_reduce -> inception_4b/3x3_reduce
I0511 05:42:07.657649  2882 net.cpp:105] Setting up inception_4b/3x3_reduce
I0511 05:42:07.658140  2882 net.cpp:112] Top shape: 32 112 14 14 (702464)
I0511 05:42:07.658154  2882 layer_factory.hpp:74] Creating layer inception_4b/relu_3x3_reduce
I0511 05:42:07.658162  2882 net.cpp:76] Creating Layer inception_4b/relu_3x3_reduce
I0511 05:42:07.658169  2882 net.cpp:372] inception_4b/relu_3x3_reduce <- inception_4b/3x3_reduce
I0511 05:42:07.658177  2882 net.cpp:323] inception_4b/relu_3x3_reduce -> inception_4b/3x3_reduce (in-place)
I0511 05:42:07.658186  2882 net.cpp:105] Setting up inception_4b/relu_3x3_reduce
I0511 05:42:07.658191  2882 net.cpp:112] Top shape: 32 112 14 14 (702464)
I0511 05:42:07.658197  2882 layer_factory.hpp:74] Creating layer inception_4b/3x3
I0511 05:42:07.658205  2882 net.cpp:76] Creating Layer inception_4b/3x3
I0511 05:42:07.658224  2882 net.cpp:372] inception_4b/3x3 <- inception_4b/3x3_reduce
I0511 05:42:07.658236  2882 net.cpp:334] inception_4b/3x3 -> inception_4b/3x3
I0511 05:42:07.658246  2882 net.cpp:105] Setting up inception_4b/3x3
I0511 05:42:07.660162  2882 net.cpp:112] Top shape: 32 224 14 14 (1404928)
I0511 05:42:07.660178  2882 layer_factory.hpp:74] Creating layer inception_4b/relu_3x3
I0511 05:42:07.660187  2882 net.cpp:76] Creating Layer inception_4b/relu_3x3
I0511 05:42:07.660192  2882 net.cpp:372] inception_4b/relu_3x3 <- inception_4b/3x3
I0511 05:42:07.660202  2882 net.cpp:323] inception_4b/relu_3x3 -> inception_4b/3x3 (in-place)
I0511 05:42:07.660210  2882 net.cpp:105] Setting up inception_4b/relu_3x3
I0511 05:42:07.660215  2882 net.cpp:112] Top shape: 32 224 14 14 (1404928)
I0511 05:42:07.660222  2882 layer_factory.hpp:74] Creating layer inception_4b/5x5_reduce
I0511 05:42:07.660229  2882 net.cpp:76] Creating Layer inception_4b/5x5_reduce
I0511 05:42:07.660235  2882 net.cpp:372] inception_4b/5x5_reduce <- inception_4a/output_inception_4a/output_0_split_3
I0511 05:42:07.660245  2882 net.cpp:334] inception_4b/5x5_reduce -> inception_4b/5x5_reduce
I0511 05:42:07.660254  2882 net.cpp:105] Setting up inception_4b/5x5_reduce
I0511 05:42:07.660375  2882 net.cpp:112] Top shape: 32 24 14 14 (150528)
I0511 05:42:07.660392  2882 layer_factory.hpp:74] Creating layer inception_4b/relu_5x5_reduce
I0511 05:42:07.660403  2882 net.cpp:76] Creating Layer inception_4b/relu_5x5_reduce
I0511 05:42:07.660409  2882 net.cpp:372] inception_4b/relu_5x5_reduce <- inception_4b/5x5_reduce
I0511 05:42:07.660416  2882 net.cpp:323] inception_4b/relu_5x5_reduce -> inception_4b/5x5_reduce (in-place)
I0511 05:42:07.660424  2882 net.cpp:105] Setting up inception_4b/relu_5x5_reduce
I0511 05:42:07.660429  2882 net.cpp:112] Top shape: 32 24 14 14 (150528)
I0511 05:42:07.660435  2882 layer_factory.hpp:74] Creating layer inception_4b/5x5
I0511 05:42:07.660445  2882 net.cpp:76] Creating Layer inception_4b/5x5
I0511 05:42:07.660450  2882 net.cpp:372] inception_4b/5x5 <- inception_4b/5x5_reduce
I0511 05:42:07.660459  2882 net.cpp:334] inception_4b/5x5 -> inception_4b/5x5
I0511 05:42:07.660466  2882 net.cpp:105] Setting up inception_4b/5x5
I0511 05:42:07.660801  2882 net.cpp:112] Top shape: 32 64 14 14 (401408)
I0511 05:42:07.660815  2882 layer_factory.hpp:74] Creating layer inception_4b/relu_5x5
I0511 05:42:07.660822  2882 net.cpp:76] Creating Layer inception_4b/relu_5x5
I0511 05:42:07.660827  2882 net.cpp:372] inception_4b/relu_5x5 <- inception_4b/5x5
I0511 05:42:07.660835  2882 net.cpp:323] inception_4b/relu_5x5 -> inception_4b/5x5 (in-place)
I0511 05:42:07.660842  2882 net.cpp:105] Setting up inception_4b/relu_5x5
I0511 05:42:07.660847  2882 net.cpp:112] Top shape: 32 64 14 14 (401408)
I0511 05:42:07.660852  2882 layer_factory.hpp:74] Creating layer inception_4b/pool
I0511 05:42:07.660862  2882 net.cpp:76] Creating Layer inception_4b/pool
I0511 05:42:07.660868  2882 net.cpp:372] inception_4b/pool <- inception_4a/output_inception_4a/output_0_split_4
I0511 05:42:07.660876  2882 net.cpp:334] inception_4b/pool -> inception_4b/pool
I0511 05:42:07.660894  2882 net.cpp:105] Setting up inception_4b/pool
I0511 05:42:07.660904  2882 net.cpp:112] Top shape: 32 512 14 14 (3211264)
I0511 05:42:07.660910  2882 layer_factory.hpp:74] Creating layer inception_4b/pool_proj
I0511 05:42:07.660923  2882 net.cpp:76] Creating Layer inception_4b/pool_proj
I0511 05:42:07.660928  2882 net.cpp:372] inception_4b/pool_proj <- inception_4b/pool
I0511 05:42:07.660936  2882 net.cpp:334] inception_4b/pool_proj -> inception_4b/pool_proj
I0511 05:42:07.660945  2882 net.cpp:105] Setting up inception_4b/pool_proj
I0511 05:42:07.661229  2882 net.cpp:112] Top shape: 32 64 14 14 (401408)
I0511 05:42:07.661242  2882 layer_factory.hpp:74] Creating layer inception_4b/relu_pool_proj
I0511 05:42:07.661250  2882 net.cpp:76] Creating Layer inception_4b/relu_pool_proj
I0511 05:42:07.661257  2882 net.cpp:372] inception_4b/relu_pool_proj <- inception_4b/pool_proj
I0511 05:42:07.661294  2882 net.cpp:323] inception_4b/relu_pool_proj -> inception_4b/pool_proj (in-place)
I0511 05:42:07.661305  2882 net.cpp:105] Setting up inception_4b/relu_pool_proj
I0511 05:42:07.661310  2882 net.cpp:112] Top shape: 32 64 14 14 (401408)
I0511 05:42:07.661316  2882 layer_factory.hpp:74] Creating layer inception_4b/output
I0511 05:42:07.661324  2882 net.cpp:76] Creating Layer inception_4b/output
I0511 05:42:07.661329  2882 net.cpp:372] inception_4b/output <- inception_4b/1x1
I0511 05:42:07.661336  2882 net.cpp:372] inception_4b/output <- inception_4b/3x3
I0511 05:42:07.661342  2882 net.cpp:372] inception_4b/output <- inception_4b/5x5
I0511 05:42:07.661348  2882 net.cpp:372] inception_4b/output <- inception_4b/pool_proj
I0511 05:42:07.661355  2882 net.cpp:334] inception_4b/output -> inception_4b/output
I0511 05:42:07.661362  2882 net.cpp:105] Setting up inception_4b/output
I0511 05:42:07.661370  2882 net.cpp:112] Top shape: 32 512 14 14 (3211264)
I0511 05:42:07.661375  2882 layer_factory.hpp:74] Creating layer inception_4b/output_inception_4b/output_0_split
I0511 05:42:07.661384  2882 net.cpp:76] Creating Layer inception_4b/output_inception_4b/output_0_split
I0511 05:42:07.661391  2882 net.cpp:372] inception_4b/output_inception_4b/output_0_split <- inception_4b/output
I0511 05:42:07.661398  2882 net.cpp:334] inception_4b/output_inception_4b/output_0_split -> inception_4b/output_inception_4b/output_0_split_0
I0511 05:42:07.661407  2882 net.cpp:334] inception_4b/output_inception_4b/output_0_split -> inception_4b/output_inception_4b/output_0_split_1
I0511 05:42:07.661417  2882 net.cpp:334] inception_4b/output_inception_4b/output_0_split -> inception_4b/output_inception_4b/output_0_split_2
I0511 05:42:07.661425  2882 net.cpp:334] inception_4b/output_inception_4b/output_0_split -> inception_4b/output_inception_4b/output_0_split_3
I0511 05:42:07.661434  2882 net.cpp:105] Setting up inception_4b/output_inception_4b/output_0_split
I0511 05:42:07.661443  2882 net.cpp:112] Top shape: 32 512 14 14 (3211264)
I0511 05:42:07.661448  2882 net.cpp:112] Top shape: 32 512 14 14 (3211264)
I0511 05:42:07.661453  2882 net.cpp:112] Top shape: 32 512 14 14 (3211264)
I0511 05:42:07.661458  2882 net.cpp:112] Top shape: 32 512 14 14 (3211264)
I0511 05:42:07.661463  2882 layer_factory.hpp:74] Creating layer inception_4c/1x1
I0511 05:42:07.661474  2882 net.cpp:76] Creating Layer inception_4c/1x1
I0511 05:42:07.661480  2882 net.cpp:372] inception_4c/1x1 <- inception_4b/output_inception_4b/output_0_split_0
I0511 05:42:07.661490  2882 net.cpp:334] inception_4c/1x1 -> inception_4c/1x1
I0511 05:42:07.661499  2882 net.cpp:105] Setting up inception_4c/1x1
I0511 05:42:07.662050  2882 net.cpp:112] Top shape: 32 128 14 14 (802816)
I0511 05:42:07.662063  2882 layer_factory.hpp:74] Creating layer inception_4c/relu_1x1
I0511 05:42:07.662082  2882 net.cpp:76] Creating Layer inception_4c/relu_1x1
I0511 05:42:07.662089  2882 net.cpp:372] inception_4c/relu_1x1 <- inception_4c/1x1
I0511 05:42:07.662101  2882 net.cpp:323] inception_4c/relu_1x1 -> inception_4c/1x1 (in-place)
I0511 05:42:07.662108  2882 net.cpp:105] Setting up inception_4c/relu_1x1
I0511 05:42:07.662114  2882 net.cpp:112] Top shape: 32 128 14 14 (802816)
I0511 05:42:07.662119  2882 layer_factory.hpp:74] Creating layer inception_4c/3x3_reduce
I0511 05:42:07.662130  2882 net.cpp:76] Creating Layer inception_4c/3x3_reduce
I0511 05:42:07.662137  2882 net.cpp:372] inception_4c/3x3_reduce <- inception_4b/output_inception_4b/output_0_split_1
I0511 05:42:07.662144  2882 net.cpp:334] inception_4c/3x3_reduce -> inception_4c/3x3_reduce
I0511 05:42:07.662153  2882 net.cpp:105] Setting up inception_4c/3x3_reduce
I0511 05:42:07.662716  2882 net.cpp:112] Top shape: 32 128 14 14 (802816)
I0511 05:42:07.662730  2882 layer_factory.hpp:74] Creating layer inception_4c/relu_3x3_reduce
I0511 05:42:07.662757  2882 net.cpp:76] Creating Layer inception_4c/relu_3x3_reduce
I0511 05:42:07.662765  2882 net.cpp:372] inception_4c/relu_3x3_reduce <- inception_4c/3x3_reduce
I0511 05:42:07.662772  2882 net.cpp:323] inception_4c/relu_3x3_reduce -> inception_4c/3x3_reduce (in-place)
I0511 05:42:07.662796  2882 net.cpp:105] Setting up inception_4c/relu_3x3_reduce
I0511 05:42:07.662803  2882 net.cpp:112] Top shape: 32 128 14 14 (802816)
I0511 05:42:07.662808  2882 layer_factory.hpp:74] Creating layer inception_4c/3x3
I0511 05:42:07.662817  2882 net.cpp:76] Creating Layer inception_4c/3x3
I0511 05:42:07.662823  2882 net.cpp:372] inception_4c/3x3 <- inception_4c/3x3_reduce
I0511 05:42:07.662833  2882 net.cpp:334] inception_4c/3x3 -> inception_4c/3x3
I0511 05:42:07.662842  2882 net.cpp:105] Setting up inception_4c/3x3
I0511 05:42:07.665348  2882 net.cpp:112] Top shape: 32 256 14 14 (1605632)
I0511 05:42:07.665384  2882 layer_factory.hpp:74] Creating layer inception_4c/relu_3x3
I0511 05:42:07.665395  2882 net.cpp:76] Creating Layer inception_4c/relu_3x3
I0511 05:42:07.665401  2882 net.cpp:372] inception_4c/relu_3x3 <- inception_4c/3x3
I0511 05:42:07.665410  2882 net.cpp:323] inception_4c/relu_3x3 -> inception_4c/3x3 (in-place)
I0511 05:42:07.665419  2882 net.cpp:105] Setting up inception_4c/relu_3x3
I0511 05:42:07.665426  2882 net.cpp:112] Top shape: 32 256 14 14 (1605632)
I0511 05:42:07.665431  2882 layer_factory.hpp:74] Creating layer inception_4c/5x5_reduce
I0511 05:42:07.665441  2882 net.cpp:76] Creating Layer inception_4c/5x5_reduce
I0511 05:42:07.665446  2882 net.cpp:372] inception_4c/5x5_reduce <- inception_4b/output_inception_4b/output_0_split_2
I0511 05:42:07.665458  2882 net.cpp:334] inception_4c/5x5_reduce -> inception_4c/5x5_reduce
I0511 05:42:07.665468  2882 net.cpp:105] Setting up inception_4c/5x5_reduce
I0511 05:42:07.665585  2882 net.cpp:112] Top shape: 32 24 14 14 (150528)
I0511 05:42:07.665596  2882 layer_factory.hpp:74] Creating layer inception_4c/relu_5x5_reduce
I0511 05:42:07.665604  2882 net.cpp:76] Creating Layer inception_4c/relu_5x5_reduce
I0511 05:42:07.665611  2882 net.cpp:372] inception_4c/relu_5x5_reduce <- inception_4c/5x5_reduce
I0511 05:42:07.665617  2882 net.cpp:323] inception_4c/relu_5x5_reduce -> inception_4c/5x5_reduce (in-place)
I0511 05:42:07.665626  2882 net.cpp:105] Setting up inception_4c/relu_5x5_reduce
I0511 05:42:07.665632  2882 net.cpp:112] Top shape: 32 24 14 14 (150528)
I0511 05:42:07.665637  2882 layer_factory.hpp:74] Creating layer inception_4c/5x5
I0511 05:42:07.665647  2882 net.cpp:76] Creating Layer inception_4c/5x5
I0511 05:42:07.665653  2882 net.cpp:372] inception_4c/5x5 <- inception_4c/5x5_reduce
I0511 05:42:07.665662  2882 net.cpp:334] inception_4c/5x5 -> inception_4c/5x5
I0511 05:42:07.665670  2882 net.cpp:105] Setting up inception_4c/5x5
I0511 05:42:07.666049  2882 net.cpp:112] Top shape: 32 64 14 14 (401408)
I0511 05:42:07.666065  2882 layer_factory.hpp:74] Creating layer inception_4c/relu_5x5
I0511 05:42:07.666074  2882 net.cpp:76] Creating Layer inception_4c/relu_5x5
I0511 05:42:07.666079  2882 net.cpp:372] inception_4c/relu_5x5 <- inception_4c/5x5
I0511 05:42:07.666090  2882 net.cpp:323] inception_4c/relu_5x5 -> inception_4c/5x5 (in-place)
I0511 05:42:07.666097  2882 net.cpp:105] Setting up inception_4c/relu_5x5
I0511 05:42:07.666102  2882 net.cpp:112] Top shape: 32 64 14 14 (401408)
I0511 05:42:07.666108  2882 layer_factory.hpp:74] Creating layer inception_4c/pool
I0511 05:42:07.666115  2882 net.cpp:76] Creating Layer inception_4c/pool
I0511 05:42:07.666121  2882 net.cpp:372] inception_4c/pool <- inception_4b/output_inception_4b/output_0_split_3
I0511 05:42:07.666129  2882 net.cpp:334] inception_4c/pool -> inception_4c/pool
I0511 05:42:07.666137  2882 net.cpp:105] Setting up inception_4c/pool
I0511 05:42:07.666144  2882 net.cpp:112] Top shape: 32 512 14 14 (3211264)
I0511 05:42:07.666151  2882 layer_factory.hpp:74] Creating layer inception_4c/pool_proj
I0511 05:42:07.666163  2882 net.cpp:76] Creating Layer inception_4c/pool_proj
I0511 05:42:07.666169  2882 net.cpp:372] inception_4c/pool_proj <- inception_4c/pool
I0511 05:42:07.666179  2882 net.cpp:334] inception_4c/pool_proj -> inception_4c/pool_proj
I0511 05:42:07.666188  2882 net.cpp:105] Setting up inception_4c/pool_proj
I0511 05:42:07.666509  2882 net.cpp:112] Top shape: 32 64 14 14 (401408)
I0511 05:42:07.666524  2882 layer_factory.hpp:74] Creating layer inception_4c/relu_pool_proj
I0511 05:42:07.666534  2882 net.cpp:76] Creating Layer inception_4c/relu_pool_proj
I0511 05:42:07.666542  2882 net.cpp:372] inception_4c/relu_pool_proj <- inception_4c/pool_proj
I0511 05:42:07.666548  2882 net.cpp:323] inception_4c/relu_pool_proj -> inception_4c/pool_proj (in-place)
I0511 05:42:07.666556  2882 net.cpp:105] Setting up inception_4c/relu_pool_proj
I0511 05:42:07.666563  2882 net.cpp:112] Top shape: 32 64 14 14 (401408)
I0511 05:42:07.666568  2882 layer_factory.hpp:74] Creating layer inception_4c/output
I0511 05:42:07.666578  2882 net.cpp:76] Creating Layer inception_4c/output
I0511 05:42:07.666587  2882 net.cpp:372] inception_4c/output <- inception_4c/1x1
I0511 05:42:07.666599  2882 net.cpp:372] inception_4c/output <- inception_4c/3x3
I0511 05:42:07.666610  2882 net.cpp:372] inception_4c/output <- inception_4c/5x5
I0511 05:42:07.666622  2882 net.cpp:372] inception_4c/output <- inception_4c/pool_proj
I0511 05:42:07.666640  2882 net.cpp:334] inception_4c/output -> inception_4c/output
I0511 05:42:07.666661  2882 net.cpp:105] Setting up inception_4c/output
I0511 05:42:07.666673  2882 net.cpp:112] Top shape: 32 512 14 14 (3211264)
I0511 05:42:07.666684  2882 layer_factory.hpp:74] Creating layer inception_4c/output_inception_4c/output_0_split
I0511 05:42:07.666697  2882 net.cpp:76] Creating Layer inception_4c/output_inception_4c/output_0_split
I0511 05:42:07.666707  2882 net.cpp:372] inception_4c/output_inception_4c/output_0_split <- inception_4c/output
I0511 05:42:07.666720  2882 net.cpp:334] inception_4c/output_inception_4c/output_0_split -> inception_4c/output_inception_4c/output_0_split_0
I0511 05:42:07.666731  2882 net.cpp:334] inception_4c/output_inception_4c/output_0_split -> inception_4c/output_inception_4c/output_0_split_1
I0511 05:42:07.666741  2882 net.cpp:334] inception_4c/output_inception_4c/output_0_split -> inception_4c/output_inception_4c/output_0_split_2
I0511 05:42:07.666750  2882 net.cpp:334] inception_4c/output_inception_4c/output_0_split -> inception_4c/output_inception_4c/output_0_split_3
I0511 05:42:07.666759  2882 net.cpp:105] Setting up inception_4c/output_inception_4c/output_0_split
I0511 05:42:07.666765  2882 net.cpp:112] Top shape: 32 512 14 14 (3211264)
I0511 05:42:07.666775  2882 net.cpp:112] Top shape: 32 512 14 14 (3211264)
I0511 05:42:07.666781  2882 net.cpp:112] Top shape: 32 512 14 14 (3211264)
I0511 05:42:07.666790  2882 net.cpp:112] Top shape: 32 512 14 14 (3211264)
I0511 05:42:07.666795  2882 layer_factory.hpp:74] Creating layer inception_4d/1x1
I0511 05:42:07.666807  2882 net.cpp:76] Creating Layer inception_4d/1x1
I0511 05:42:07.666815  2882 net.cpp:372] inception_4d/1x1 <- inception_4c/output_inception_4c/output_0_split_0
I0511 05:42:07.666824  2882 net.cpp:334] inception_4d/1x1 -> inception_4d/1x1
I0511 05:42:07.666833  2882 net.cpp:105] Setting up inception_4d/1x1
I0511 05:42:07.667337  2882 net.cpp:112] Top shape: 32 112 14 14 (702464)
I0511 05:42:07.667352  2882 layer_factory.hpp:74] Creating layer inception_4d/relu_1x1
I0511 05:42:07.667361  2882 net.cpp:76] Creating Layer inception_4d/relu_1x1
I0511 05:42:07.667366  2882 net.cpp:372] inception_4d/relu_1x1 <- inception_4d/1x1
I0511 05:42:07.667376  2882 net.cpp:323] inception_4d/relu_1x1 -> inception_4d/1x1 (in-place)
I0511 05:42:07.667383  2882 net.cpp:105] Setting up inception_4d/relu_1x1
I0511 05:42:07.667389  2882 net.cpp:112] Top shape: 32 112 14 14 (702464)
I0511 05:42:07.667394  2882 layer_factory.hpp:74] Creating layer inception_4d/3x3_reduce
I0511 05:42:07.667403  2882 net.cpp:76] Creating Layer inception_4d/3x3_reduce
I0511 05:42:07.667409  2882 net.cpp:372] inception_4d/3x3_reduce <- inception_4c/output_inception_4c/output_0_split_1
I0511 05:42:07.667417  2882 net.cpp:334] inception_4d/3x3_reduce -> inception_4d/3x3_reduce
I0511 05:42:07.667425  2882 net.cpp:105] Setting up inception_4d/3x3_reduce
I0511 05:42:07.668067  2882 net.cpp:112] Top shape: 32 144 14 14 (903168)
I0511 05:42:07.668097  2882 layer_factory.hpp:74] Creating layer inception_4d/relu_3x3_reduce
I0511 05:42:07.668107  2882 net.cpp:76] Creating Layer inception_4d/relu_3x3_reduce
I0511 05:42:07.668113  2882 net.cpp:372] inception_4d/relu_3x3_reduce <- inception_4d/3x3_reduce
I0511 05:42:07.668120  2882 net.cpp:323] inception_4d/relu_3x3_reduce -> inception_4d/3x3_reduce (in-place)
I0511 05:42:07.668128  2882 net.cpp:105] Setting up inception_4d/relu_3x3_reduce
I0511 05:42:07.668134  2882 net.cpp:112] Top shape: 32 144 14 14 (903168)
I0511 05:42:07.668139  2882 layer_factory.hpp:74] Creating layer inception_4d/3x3
I0511 05:42:07.668148  2882 net.cpp:76] Creating Layer inception_4d/3x3
I0511 05:42:07.668154  2882 net.cpp:372] inception_4d/3x3 <- inception_4d/3x3_reduce
I0511 05:42:07.668167  2882 net.cpp:334] inception_4d/3x3 -> inception_4d/3x3
I0511 05:42:07.668177  2882 net.cpp:105] Setting up inception_4d/3x3
I0511 05:42:07.671335  2882 net.cpp:112] Top shape: 32 288 14 14 (1806336)
I0511 05:42:07.671357  2882 layer_factory.hpp:74] Creating layer inception_4d/relu_3x3
I0511 05:42:07.671366  2882 net.cpp:76] Creating Layer inception_4d/relu_3x3
I0511 05:42:07.671373  2882 net.cpp:372] inception_4d/relu_3x3 <- inception_4d/3x3
I0511 05:42:07.671381  2882 net.cpp:323] inception_4d/relu_3x3 -> inception_4d/3x3 (in-place)
I0511 05:42:07.671391  2882 net.cpp:105] Setting up inception_4d/relu_3x3
I0511 05:42:07.671396  2882 net.cpp:112] Top shape: 32 288 14 14 (1806336)
I0511 05:42:07.671401  2882 layer_factory.hpp:74] Creating layer inception_4d/5x5_reduce
I0511 05:42:07.671409  2882 net.cpp:76] Creating Layer inception_4d/5x5_reduce
I0511 05:42:07.671416  2882 net.cpp:372] inception_4d/5x5_reduce <- inception_4c/output_inception_4c/output_0_split_2
I0511 05:42:07.671427  2882 net.cpp:334] inception_4d/5x5_reduce -> inception_4d/5x5_reduce
I0511 05:42:07.671435  2882 net.cpp:105] Setting up inception_4d/5x5_reduce
I0511 05:42:07.671582  2882 net.cpp:112] Top shape: 32 32 14 14 (200704)
I0511 05:42:07.671593  2882 layer_factory.hpp:74] Creating layer inception_4d/relu_5x5_reduce
I0511 05:42:07.671600  2882 net.cpp:76] Creating Layer inception_4d/relu_5x5_reduce
I0511 05:42:07.671607  2882 net.cpp:372] inception_4d/relu_5x5_reduce <- inception_4d/5x5_reduce
I0511 05:42:07.671613  2882 net.cpp:323] inception_4d/relu_5x5_reduce -> inception_4d/5x5_reduce (in-place)
I0511 05:42:07.671622  2882 net.cpp:105] Setting up inception_4d/relu_5x5_reduce
I0511 05:42:07.671627  2882 net.cpp:112] Top shape: 32 32 14 14 (200704)
I0511 05:42:07.671632  2882 layer_factory.hpp:74] Creating layer inception_4d/5x5
I0511 05:42:07.671643  2882 net.cpp:76] Creating Layer inception_4d/5x5
I0511 05:42:07.671648  2882 net.cpp:372] inception_4d/5x5 <- inception_4d/5x5_reduce
I0511 05:42:07.671658  2882 net.cpp:334] inception_4d/5x5 -> inception_4d/5x5
I0511 05:42:07.671666  2882 net.cpp:105] Setting up inception_4d/5x5
I0511 05:42:07.672104  2882 net.cpp:112] Top shape: 32 64 14 14 (401408)
I0511 05:42:07.672117  2882 layer_factory.hpp:74] Creating layer inception_4d/relu_5x5
I0511 05:42:07.672127  2882 net.cpp:76] Creating Layer inception_4d/relu_5x5
I0511 05:42:07.672132  2882 net.cpp:372] inception_4d/relu_5x5 <- inception_4d/5x5
I0511 05:42:07.672142  2882 net.cpp:323] inception_4d/relu_5x5 -> inception_4d/5x5 (in-place)
I0511 05:42:07.672149  2882 net.cpp:105] Setting up inception_4d/relu_5x5
I0511 05:42:07.672154  2882 net.cpp:112] Top shape: 32 64 14 14 (401408)
I0511 05:42:07.672160  2882 layer_factory.hpp:74] Creating layer inception_4d/pool
I0511 05:42:07.672168  2882 net.cpp:76] Creating Layer inception_4d/pool
I0511 05:42:07.673004  2882 net.cpp:372] inception_4d/pool <- inception_4c/output_inception_4c/output_0_split_3
I0511 05:42:07.673027  2882 net.cpp:334] inception_4d/pool -> inception_4d/pool
I0511 05:42:07.673038  2882 net.cpp:105] Setting up inception_4d/pool
I0511 05:42:07.673048  2882 net.cpp:112] Top shape: 32 512 14 14 (3211264)
I0511 05:42:07.673055  2882 layer_factory.hpp:74] Creating layer inception_4d/pool_proj
I0511 05:42:07.673089  2882 net.cpp:76] Creating Layer inception_4d/pool_proj
I0511 05:42:07.673095  2882 net.cpp:372] inception_4d/pool_proj <- inception_4d/pool
I0511 05:42:07.673107  2882 net.cpp:334] inception_4d/pool_proj -> inception_4d/pool_proj
I0511 05:42:07.673117  2882 net.cpp:105] Setting up inception_4d/pool_proj
I0511 05:42:07.673493  2882 net.cpp:112] Top shape: 32 64 14 14 (401408)
I0511 05:42:07.673518  2882 layer_factory.hpp:74] Creating layer inception_4d/relu_pool_proj
I0511 05:42:07.673535  2882 net.cpp:76] Creating Layer inception_4d/relu_pool_proj
I0511 05:42:07.673547  2882 net.cpp:372] inception_4d/relu_pool_proj <- inception_4d/pool_proj
I0511 05:42:07.673560  2882 net.cpp:323] inception_4d/relu_pool_proj -> inception_4d/pool_proj (in-place)
I0511 05:42:07.673576  2882 net.cpp:105] Setting up inception_4d/relu_pool_proj
I0511 05:42:07.673588  2882 net.cpp:112] Top shape: 32 64 14 14 (401408)
I0511 05:42:07.673599  2882 layer_factory.hpp:74] Creating layer inception_4d/output
I0511 05:42:07.673611  2882 net.cpp:76] Creating Layer inception_4d/output
I0511 05:42:07.673622  2882 net.cpp:372] inception_4d/output <- inception_4d/1x1
I0511 05:42:07.673635  2882 net.cpp:372] inception_4d/output <- inception_4d/3x3
I0511 05:42:07.673648  2882 net.cpp:372] inception_4d/output <- inception_4d/5x5
I0511 05:42:07.673660  2882 net.cpp:372] inception_4d/output <- inception_4d/pool_proj
I0511 05:42:07.673677  2882 net.cpp:334] inception_4d/output -> inception_4d/output
I0511 05:42:07.673694  2882 net.cpp:105] Setting up inception_4d/output
I0511 05:42:07.673710  2882 net.cpp:112] Top shape: 32 528 14 14 (3311616)
I0511 05:42:07.673722  2882 layer_factory.hpp:74] Creating layer inception_4d/output_inception_4d/output_0_split
I0511 05:42:07.673737  2882 net.cpp:76] Creating Layer inception_4d/output_inception_4d/output_0_split
I0511 05:42:07.673748  2882 net.cpp:372] inception_4d/output_inception_4d/output_0_split <- inception_4d/output
I0511 05:42:07.673766  2882 net.cpp:334] inception_4d/output_inception_4d/output_0_split -> inception_4d/output_inception_4d/output_0_split_0
I0511 05:42:07.673785  2882 net.cpp:334] inception_4d/output_inception_4d/output_0_split -> inception_4d/output_inception_4d/output_0_split_1
I0511 05:42:07.673804  2882 net.cpp:334] inception_4d/output_inception_4d/output_0_split -> inception_4d/output_inception_4d/output_0_split_2
I0511 05:42:07.673823  2882 net.cpp:334] inception_4d/output_inception_4d/output_0_split -> inception_4d/output_inception_4d/output_0_split_3
I0511 05:42:07.673840  2882 net.cpp:334] inception_4d/output_inception_4d/output_0_split -> inception_4d/output_inception_4d/output_0_split_4
I0511 05:42:07.673856  2882 net.cpp:105] Setting up inception_4d/output_inception_4d/output_0_split
I0511 05:42:07.673869  2882 net.cpp:112] Top shape: 32 528 14 14 (3311616)
I0511 05:42:07.673878  2882 net.cpp:112] Top shape: 32 528 14 14 (3311616)
I0511 05:42:07.673887  2882 net.cpp:112] Top shape: 32 528 14 14 (3311616)
I0511 05:42:07.673897  2882 net.cpp:112] Top shape: 32 528 14 14 (3311616)
I0511 05:42:07.673904  2882 net.cpp:112] Top shape: 32 528 14 14 (3311616)
I0511 05:42:07.673914  2882 layer_factory.hpp:74] Creating layer loss2/ave_pool
I0511 05:42:07.673928  2882 net.cpp:76] Creating Layer loss2/ave_pool
I0511 05:42:07.673934  2882 net.cpp:372] loss2/ave_pool <- inception_4d/output_inception_4d/output_0_split_0
I0511 05:42:07.673946  2882 net.cpp:334] loss2/ave_pool -> loss2/ave_pool
I0511 05:42:07.673956  2882 net.cpp:105] Setting up loss2/ave_pool
I0511 05:42:07.673962  2882 net.cpp:112] Top shape: 32 528 4 4 (270336)
I0511 05:42:07.673969  2882 layer_factory.hpp:74] Creating layer loss2/conv
I0511 05:42:07.673979  2882 net.cpp:76] Creating Layer loss2/conv
I0511 05:42:07.673985  2882 net.cpp:372] loss2/conv <- loss2/ave_pool
I0511 05:42:07.673993  2882 net.cpp:334] loss2/conv -> loss2/conv
I0511 05:42:07.674001  2882 net.cpp:105] Setting up loss2/conv
I0511 05:42:07.674593  2882 net.cpp:112] Top shape: 32 128 4 4 (65536)
I0511 05:42:07.674608  2882 layer_factory.hpp:74] Creating layer loss2/relu_conv
I0511 05:42:07.674634  2882 net.cpp:76] Creating Layer loss2/relu_conv
I0511 05:42:07.674641  2882 net.cpp:372] loss2/relu_conv <- loss2/conv
I0511 05:42:07.674649  2882 net.cpp:323] loss2/relu_conv -> loss2/conv (in-place)
I0511 05:42:07.674656  2882 net.cpp:105] Setting up loss2/relu_conv
I0511 05:42:07.674662  2882 net.cpp:112] Top shape: 32 128 4 4 (65536)
I0511 05:42:07.674669  2882 layer_factory.hpp:74] Creating layer loss2/fc
I0511 05:42:07.674679  2882 net.cpp:76] Creating Layer loss2/fc
I0511 05:42:07.674685  2882 net.cpp:372] loss2/fc <- loss2/conv
I0511 05:42:07.674693  2882 net.cpp:334] loss2/fc -> loss2/fc
I0511 05:42:07.674702  2882 net.cpp:105] Setting up loss2/fc
I0511 05:42:07.692945  2882 net.cpp:112] Top shape: 32 1024 1 1 (32768)
I0511 05:42:07.692994  2882 layer_factory.hpp:74] Creating layer loss2/relu_fc
I0511 05:42:07.693011  2882 net.cpp:76] Creating Layer loss2/relu_fc
I0511 05:42:07.693022  2882 net.cpp:372] loss2/relu_fc <- loss2/fc
I0511 05:42:07.693033  2882 net.cpp:323] loss2/relu_fc -> loss2/fc (in-place)
I0511 05:42:07.693044  2882 net.cpp:105] Setting up loss2/relu_fc
I0511 05:42:07.693050  2882 net.cpp:112] Top shape: 32 1024 1 1 (32768)
I0511 05:42:07.693056  2882 layer_factory.hpp:74] Creating layer loss2/drop_fc
I0511 05:42:07.693065  2882 net.cpp:76] Creating Layer loss2/drop_fc
I0511 05:42:07.693070  2882 net.cpp:372] loss2/drop_fc <- loss2/fc
I0511 05:42:07.693079  2882 net.cpp:323] loss2/drop_fc -> loss2/fc (in-place)
I0511 05:42:07.693089  2882 net.cpp:105] Setting up loss2/drop_fc
I0511 05:42:07.693095  2882 net.cpp:112] Top shape: 32 1024 1 1 (32768)
I0511 05:42:07.693100  2882 layer_factory.hpp:74] Creating layer loss2/classifier
I0511 05:42:07.693111  2882 net.cpp:76] Creating Layer loss2/classifier
I0511 05:42:07.693116  2882 net.cpp:372] loss2/classifier <- loss2/fc
I0511 05:42:07.693127  2882 net.cpp:334] loss2/classifier -> loss2/classifier
I0511 05:42:07.693138  2882 net.cpp:105] Setting up loss2/classifier
I0511 05:42:07.693171  2882 net.cpp:112] Top shape: 32 2 1 1 (64)
I0511 05:42:07.693181  2882 layer_factory.hpp:74] Creating layer loss2/loss
I0511 05:42:07.693191  2882 net.cpp:76] Creating Layer loss2/loss
I0511 05:42:07.693197  2882 net.cpp:372] loss2/loss <- loss2/classifier
I0511 05:42:07.693203  2882 net.cpp:372] loss2/loss <- label_data_1_split_1
I0511 05:42:07.693213  2882 net.cpp:334] loss2/loss -> loss2/loss1
I0511 05:42:07.693222  2882 net.cpp:105] Setting up loss2/loss
I0511 05:42:07.693230  2882 layer_factory.hpp:74] Creating layer loss2/loss
I0511 05:42:07.693243  2882 net.cpp:112] Top shape: 1 1 1 1 (1)
I0511 05:42:07.693249  2882 net.cpp:118]     with loss weight 0.3
I0511 05:42:07.693269  2882 layer_factory.hpp:74] Creating layer inception_4e/1x1
I0511 05:42:07.693300  2882 net.cpp:76] Creating Layer inception_4e/1x1
I0511 05:42:07.693307  2882 net.cpp:372] inception_4e/1x1 <- inception_4d/output_inception_4d/output_0_split_1
I0511 05:42:07.693317  2882 net.cpp:334] inception_4e/1x1 -> inception_4e/1x1
I0511 05:42:07.693327  2882 net.cpp:105] Setting up inception_4e/1x1
I0511 05:42:07.694509  2882 net.cpp:112] Top shape: 32 256 14 14 (1605632)
I0511 05:42:07.694525  2882 layer_factory.hpp:74] Creating layer inception_4e/relu_1x1
I0511 05:42:07.694533  2882 net.cpp:76] Creating Layer inception_4e/relu_1x1
I0511 05:42:07.694540  2882 net.cpp:372] inception_4e/relu_1x1 <- inception_4e/1x1
I0511 05:42:07.694550  2882 net.cpp:323] inception_4e/relu_1x1 -> inception_4e/1x1 (in-place)
I0511 05:42:07.694558  2882 net.cpp:105] Setting up inception_4e/relu_1x1
I0511 05:42:07.694564  2882 net.cpp:112] Top shape: 32 256 14 14 (1605632)
I0511 05:42:07.694571  2882 layer_factory.hpp:74] Creating layer inception_4e/3x3_reduce
I0511 05:42:07.694578  2882 net.cpp:76] Creating Layer inception_4e/3x3_reduce
I0511 05:42:07.694584  2882 net.cpp:372] inception_4e/3x3_reduce <- inception_4d/output_inception_4d/output_0_split_2
I0511 05:42:07.694594  2882 net.cpp:334] inception_4e/3x3_reduce -> inception_4e/3x3_reduce
I0511 05:42:07.694645  2882 net.cpp:105] Setting up inception_4e/3x3_reduce
I0511 05:42:07.695377  2882 net.cpp:112] Top shape: 32 160 14 14 (1003520)
I0511 05:42:07.695392  2882 layer_factory.hpp:74] Creating layer inception_4e/relu_3x3_reduce
I0511 05:42:07.695401  2882 net.cpp:76] Creating Layer inception_4e/relu_3x3_reduce
I0511 05:42:07.695407  2882 net.cpp:372] inception_4e/relu_3x3_reduce <- inception_4e/3x3_reduce
I0511 05:42:07.695415  2882 net.cpp:323] inception_4e/relu_3x3_reduce -> inception_4e/3x3_reduce (in-place)
I0511 05:42:07.695422  2882 net.cpp:105] Setting up inception_4e/relu_3x3_reduce
I0511 05:42:07.695428  2882 net.cpp:112] Top shape: 32 160 14 14 (1003520)
I0511 05:42:07.695435  2882 layer_factory.hpp:74] Creating layer inception_4e/3x3
I0511 05:42:07.695446  2882 net.cpp:76] Creating Layer inception_4e/3x3
I0511 05:42:07.695451  2882 net.cpp:372] inception_4e/3x3 <- inception_4e/3x3_reduce
I0511 05:42:07.695459  2882 net.cpp:334] inception_4e/3x3 -> inception_4e/3x3
I0511 05:42:07.695472  2882 net.cpp:105] Setting up inception_4e/3x3
I0511 05:42:07.699383  2882 net.cpp:112] Top shape: 32 320 14 14 (2007040)
I0511 05:42:07.699410  2882 layer_factory.hpp:74] Creating layer inception_4e/relu_3x3
I0511 05:42:07.699422  2882 net.cpp:76] Creating Layer inception_4e/relu_3x3
I0511 05:42:07.699429  2882 net.cpp:372] inception_4e/relu_3x3 <- inception_4e/3x3
I0511 05:42:07.699437  2882 net.cpp:323] inception_4e/relu_3x3 -> inception_4e/3x3 (in-place)
I0511 05:42:07.699447  2882 net.cpp:105] Setting up inception_4e/relu_3x3
I0511 05:42:07.699452  2882 net.cpp:112] Top shape: 32 320 14 14 (2007040)
I0511 05:42:07.699458  2882 layer_factory.hpp:74] Creating layer inception_4e/5x5_reduce
I0511 05:42:07.699470  2882 net.cpp:76] Creating Layer inception_4e/5x5_reduce
I0511 05:42:07.699476  2882 net.cpp:372] inception_4e/5x5_reduce <- inception_4d/output_inception_4d/output_0_split_3
I0511 05:42:07.699484  2882 net.cpp:334] inception_4e/5x5_reduce -> inception_4e/5x5_reduce
I0511 05:42:07.699494  2882 net.cpp:105] Setting up inception_4e/5x5_reduce
I0511 05:42:07.699656  2882 net.cpp:112] Top shape: 32 32 14 14 (200704)
I0511 05:42:07.699671  2882 layer_factory.hpp:74] Creating layer inception_4e/relu_5x5_reduce
I0511 05:42:07.699683  2882 net.cpp:76] Creating Layer inception_4e/relu_5x5_reduce
I0511 05:42:07.699692  2882 net.cpp:372] inception_4e/relu_5x5_reduce <- inception_4e/5x5_reduce
I0511 05:42:07.699699  2882 net.cpp:323] inception_4e/relu_5x5_reduce -> inception_4e/5x5_reduce (in-place)
I0511 05:42:07.699707  2882 net.cpp:105] Setting up inception_4e/relu_5x5_reduce
I0511 05:42:07.699713  2882 net.cpp:112] Top shape: 32 32 14 14 (200704)
I0511 05:42:07.699718  2882 layer_factory.hpp:74] Creating layer inception_4e/5x5
I0511 05:42:07.699748  2882 net.cpp:76] Creating Layer inception_4e/5x5
I0511 05:42:07.699754  2882 net.cpp:372] inception_4e/5x5 <- inception_4e/5x5_reduce
I0511 05:42:07.699764  2882 net.cpp:334] inception_4e/5x5 -> inception_4e/5x5
I0511 05:42:07.699771  2882 net.cpp:105] Setting up inception_4e/5x5
I0511 05:42:07.700644  2882 net.cpp:112] Top shape: 32 128 14 14 (802816)
I0511 05:42:07.700659  2882 layer_factory.hpp:74] Creating layer inception_4e/relu_5x5
I0511 05:42:07.700670  2882 net.cpp:76] Creating Layer inception_4e/relu_5x5
I0511 05:42:07.700676  2882 net.cpp:372] inception_4e/relu_5x5 <- inception_4e/5x5
I0511 05:42:07.700683  2882 net.cpp:323] inception_4e/relu_5x5 -> inception_4e/5x5 (in-place)
I0511 05:42:07.700691  2882 net.cpp:105] Setting up inception_4e/relu_5x5
I0511 05:42:07.700696  2882 net.cpp:112] Top shape: 32 128 14 14 (802816)
I0511 05:42:07.700701  2882 layer_factory.hpp:74] Creating layer inception_4e/pool
I0511 05:42:07.700711  2882 net.cpp:76] Creating Layer inception_4e/pool
I0511 05:42:07.700716  2882 net.cpp:372] inception_4e/pool <- inception_4d/output_inception_4d/output_0_split_4
I0511 05:42:07.700723  2882 net.cpp:334] inception_4e/pool -> inception_4e/pool
I0511 05:42:07.700736  2882 net.cpp:105] Setting up inception_4e/pool
I0511 05:42:07.700745  2882 net.cpp:112] Top shape: 32 528 14 14 (3311616)
I0511 05:42:07.700778  2882 layer_factory.hpp:74] Creating layer inception_4e/pool_proj
I0511 05:42:07.700790  2882 net.cpp:76] Creating Layer inception_4e/pool_proj
I0511 05:42:07.700796  2882 net.cpp:372] inception_4e/pool_proj <- inception_4e/pool
I0511 05:42:07.700806  2882 net.cpp:334] inception_4e/pool_proj -> inception_4e/pool_proj
I0511 05:42:07.700815  2882 net.cpp:105] Setting up inception_4e/pool_proj
I0511 05:42:07.701400  2882 net.cpp:112] Top shape: 32 128 14 14 (802816)
I0511 05:42:07.701414  2882 layer_factory.hpp:74] Creating layer inception_4e/relu_pool_proj
I0511 05:42:07.701424  2882 net.cpp:76] Creating Layer inception_4e/relu_pool_proj
I0511 05:42:07.701431  2882 net.cpp:372] inception_4e/relu_pool_proj <- inception_4e/pool_proj
I0511 05:42:07.701438  2882 net.cpp:323] inception_4e/relu_pool_proj -> inception_4e/pool_proj (in-place)
I0511 05:42:07.701447  2882 net.cpp:105] Setting up inception_4e/relu_pool_proj
I0511 05:42:07.701452  2882 net.cpp:112] Top shape: 32 128 14 14 (802816)
I0511 05:42:07.701457  2882 layer_factory.hpp:74] Creating layer inception_4e/output
I0511 05:42:07.701467  2882 net.cpp:76] Creating Layer inception_4e/output
I0511 05:42:07.701473  2882 net.cpp:372] inception_4e/output <- inception_4e/1x1
I0511 05:42:07.701480  2882 net.cpp:372] inception_4e/output <- inception_4e/3x3
I0511 05:42:07.701486  2882 net.cpp:372] inception_4e/output <- inception_4e/5x5
I0511 05:42:07.701493  2882 net.cpp:372] inception_4e/output <- inception_4e/pool_proj
I0511 05:42:07.701500  2882 net.cpp:334] inception_4e/output -> inception_4e/output
I0511 05:42:07.701508  2882 net.cpp:105] Setting up inception_4e/output
I0511 05:42:07.701515  2882 net.cpp:112] Top shape: 32 832 14 14 (5218304)
I0511 05:42:07.701520  2882 layer_factory.hpp:74] Creating layer pool4/3x3_s2
I0511 05:42:07.701529  2882 net.cpp:76] Creating Layer pool4/3x3_s2
I0511 05:42:07.701534  2882 net.cpp:372] pool4/3x3_s2 <- inception_4e/output
I0511 05:42:07.701542  2882 net.cpp:334] pool4/3x3_s2 -> pool4/3x3_s2
I0511 05:42:07.701556  2882 net.cpp:105] Setting up pool4/3x3_s2
I0511 05:42:07.701563  2882 net.cpp:112] Top shape: 32 832 7 7 (1304576)
I0511 05:42:07.701570  2882 layer_factory.hpp:74] Creating layer pool4/3x3_s2_pool4/3x3_s2_0_split
I0511 05:42:07.701577  2882 net.cpp:76] Creating Layer pool4/3x3_s2_pool4/3x3_s2_0_split
I0511 05:42:07.701582  2882 net.cpp:372] pool4/3x3_s2_pool4/3x3_s2_0_split <- pool4/3x3_s2
I0511 05:42:07.701591  2882 net.cpp:334] pool4/3x3_s2_pool4/3x3_s2_0_split -> pool4/3x3_s2_pool4/3x3_s2_0_split_0
I0511 05:42:07.701601  2882 net.cpp:334] pool4/3x3_s2_pool4/3x3_s2_0_split -> pool4/3x3_s2_pool4/3x3_s2_0_split_1
I0511 05:42:07.701611  2882 net.cpp:334] pool4/3x3_s2_pool4/3x3_s2_0_split -> pool4/3x3_s2_pool4/3x3_s2_0_split_2
I0511 05:42:07.701618  2882 net.cpp:334] pool4/3x3_s2_pool4/3x3_s2_0_split -> pool4/3x3_s2_pool4/3x3_s2_0_split_3
I0511 05:42:07.701627  2882 net.cpp:105] Setting up pool4/3x3_s2_pool4/3x3_s2_0_split
I0511 05:42:07.701633  2882 net.cpp:112] Top shape: 32 832 7 7 (1304576)
I0511 05:42:07.701639  2882 net.cpp:112] Top shape: 32 832 7 7 (1304576)
I0511 05:42:07.701643  2882 net.cpp:112] Top shape: 32 832 7 7 (1304576)
I0511 05:42:07.701649  2882 net.cpp:112] Top shape: 32 832 7 7 (1304576)
I0511 05:42:07.701654  2882 layer_factory.hpp:74] Creating layer inception_5a/1x1
I0511 05:42:07.701663  2882 net.cpp:76] Creating Layer inception_5a/1x1
I0511 05:42:07.701668  2882 net.cpp:372] inception_5a/1x1 <- pool4/3x3_s2_pool4/3x3_s2_0_split_0
I0511 05:42:07.701679  2882 net.cpp:334] inception_5a/1x1 -> inception_5a/1x1
I0511 05:42:07.701688  2882 net.cpp:105] Setting up inception_5a/1x1
I0511 05:42:07.703474  2882 net.cpp:112] Top shape: 32 256 7 7 (401408)
I0511 05:42:07.703490  2882 layer_factory.hpp:74] Creating layer inception_5a/relu_1x1
I0511 05:42:07.703500  2882 net.cpp:76] Creating Layer inception_5a/relu_1x1
I0511 05:42:07.703528  2882 net.cpp:372] inception_5a/relu_1x1 <- inception_5a/1x1
I0511 05:42:07.703537  2882 net.cpp:323] inception_5a/relu_1x1 -> inception_5a/1x1 (in-place)
I0511 05:42:07.703560  2882 net.cpp:105] Setting up inception_5a/relu_1x1
I0511 05:42:07.703567  2882 net.cpp:112] Top shape: 32 256 7 7 (401408)
I0511 05:42:07.703573  2882 layer_factory.hpp:74] Creating layer inception_5a/3x3_reduce
I0511 05:42:07.703584  2882 net.cpp:76] Creating Layer inception_5a/3x3_reduce
I0511 05:42:07.703591  2882 net.cpp:372] inception_5a/3x3_reduce <- pool4/3x3_s2_pool4/3x3_s2_0_split_1
I0511 05:42:07.703603  2882 net.cpp:334] inception_5a/3x3_reduce -> inception_5a/3x3_reduce
I0511 05:42:07.703611  2882 net.cpp:105] Setting up inception_5a/3x3_reduce
I0511 05:42:07.704741  2882 net.cpp:112] Top shape: 32 160 7 7 (250880)
I0511 05:42:07.704757  2882 layer_factory.hpp:74] Creating layer inception_5a/relu_3x3_reduce
I0511 05:42:07.704767  2882 net.cpp:76] Creating Layer inception_5a/relu_3x3_reduce
I0511 05:42:07.704773  2882 net.cpp:372] inception_5a/relu_3x3_reduce <- inception_5a/3x3_reduce
I0511 05:42:07.704782  2882 net.cpp:323] inception_5a/relu_3x3_reduce -> inception_5a/3x3_reduce (in-place)
I0511 05:42:07.704789  2882 net.cpp:105] Setting up inception_5a/relu_3x3_reduce
I0511 05:42:07.704794  2882 net.cpp:112] Top shape: 32 160 7 7 (250880)
I0511 05:42:07.704800  2882 layer_factory.hpp:74] Creating layer inception_5a/3x3
I0511 05:42:07.704809  2882 net.cpp:76] Creating Layer inception_5a/3x3
I0511 05:42:07.704816  2882 net.cpp:372] inception_5a/3x3 <- inception_5a/3x3_reduce
I0511 05:42:07.704824  2882 net.cpp:334] inception_5a/3x3 -> inception_5a/3x3
I0511 05:42:07.704833  2882 net.cpp:105] Setting up inception_5a/3x3
I0511 05:42:07.708681  2882 net.cpp:112] Top shape: 32 320 7 7 (501760)
I0511 05:42:07.708703  2882 layer_factory.hpp:74] Creating layer inception_5a/relu_3x3
I0511 05:42:07.708712  2882 net.cpp:76] Creating Layer inception_5a/relu_3x3
I0511 05:42:07.708720  2882 net.cpp:372] inception_5a/relu_3x3 <- inception_5a/3x3
I0511 05:42:07.708730  2882 net.cpp:323] inception_5a/relu_3x3 -> inception_5a/3x3 (in-place)
I0511 05:42:07.708739  2882 net.cpp:105] Setting up inception_5a/relu_3x3
I0511 05:42:07.708745  2882 net.cpp:112] Top shape: 32 320 7 7 (501760)
I0511 05:42:07.708750  2882 layer_factory.hpp:74] Creating layer inception_5a/5x5_reduce
I0511 05:42:07.708758  2882 net.cpp:76] Creating Layer inception_5a/5x5_reduce
I0511 05:42:07.708765  2882 net.cpp:372] inception_5a/5x5_reduce <- pool4/3x3_s2_pool4/3x3_s2_0_split_2
I0511 05:42:07.708775  2882 net.cpp:334] inception_5a/5x5_reduce -> inception_5a/5x5_reduce
I0511 05:42:07.708786  2882 net.cpp:105] Setting up inception_5a/5x5_reduce
I0511 05:42:07.709018  2882 net.cpp:112] Top shape: 32 32 7 7 (50176)
I0511 05:42:07.709030  2882 layer_factory.hpp:74] Creating layer inception_5a/relu_5x5_reduce
I0511 05:42:07.709038  2882 net.cpp:76] Creating Layer inception_5a/relu_5x5_reduce
I0511 05:42:07.709046  2882 net.cpp:372] inception_5a/relu_5x5_reduce <- inception_5a/5x5_reduce
I0511 05:42:07.709053  2882 net.cpp:323] inception_5a/relu_5x5_reduce -> inception_5a/5x5_reduce (in-place)
I0511 05:42:07.709061  2882 net.cpp:105] Setting up inception_5a/relu_5x5_reduce
I0511 05:42:07.709066  2882 net.cpp:112] Top shape: 32 32 7 7 (50176)
I0511 05:42:07.709072  2882 layer_factory.hpp:74] Creating layer inception_5a/5x5
I0511 05:42:07.709080  2882 net.cpp:76] Creating Layer inception_5a/5x5
I0511 05:42:07.709085  2882 net.cpp:372] inception_5a/5x5 <- inception_5a/5x5_reduce
I0511 05:42:07.709095  2882 net.cpp:334] inception_5a/5x5 -> inception_5a/5x5
I0511 05:42:07.709105  2882 net.cpp:105] Setting up inception_5a/5x5
I0511 05:42:07.709985  2882 net.cpp:112] Top shape: 32 128 7 7 (200704)
I0511 05:42:07.710002  2882 layer_factory.hpp:74] Creating layer inception_5a/relu_5x5
I0511 05:42:07.710011  2882 net.cpp:76] Creating Layer inception_5a/relu_5x5
I0511 05:42:07.710775  2882 net.cpp:372] inception_5a/relu_5x5 <- inception_5a/5x5
I0511 05:42:07.710799  2882 net.cpp:323] inception_5a/relu_5x5 -> inception_5a/5x5 (in-place)
I0511 05:42:07.710813  2882 net.cpp:105] Setting up inception_5a/relu_5x5
I0511 05:42:07.710860  2882 net.cpp:112] Top shape: 32 128 7 7 (200704)
I0511 05:42:07.710875  2882 layer_factory.hpp:74] Creating layer inception_5a/pool
I0511 05:42:07.710886  2882 net.cpp:76] Creating Layer inception_5a/pool
I0511 05:42:07.710896  2882 net.cpp:372] inception_5a/pool <- pool4/3x3_s2_pool4/3x3_s2_0_split_3
I0511 05:42:07.710916  2882 net.cpp:334] inception_5a/pool -> inception_5a/pool
I0511 05:42:07.710929  2882 net.cpp:105] Setting up inception_5a/pool
I0511 05:42:07.710938  2882 net.cpp:112] Top shape: 32 832 7 7 (1304576)
I0511 05:42:07.710945  2882 layer_factory.hpp:74] Creating layer inception_5a/pool_proj
I0511 05:42:07.710961  2882 net.cpp:76] Creating Layer inception_5a/pool_proj
I0511 05:42:07.710975  2882 net.cpp:372] inception_5a/pool_proj <- inception_5a/pool
I0511 05:42:07.710996  2882 net.cpp:334] inception_5a/pool_proj -> inception_5a/pool_proj
I0511 05:42:07.711009  2882 net.cpp:105] Setting up inception_5a/pool_proj
I0511 05:42:07.712028  2882 net.cpp:112] Top shape: 32 128 7 7 (200704)
I0511 05:42:07.712050  2882 layer_factory.hpp:74] Creating layer inception_5a/relu_pool_proj
I0511 05:42:07.712064  2882 net.cpp:76] Creating Layer inception_5a/relu_pool_proj
I0511 05:42:07.712070  2882 net.cpp:372] inception_5a/relu_pool_proj <- inception_5a/pool_proj
I0511 05:42:07.712081  2882 net.cpp:323] inception_5a/relu_pool_proj -> inception_5a/pool_proj (in-place)
I0511 05:42:07.712097  2882 net.cpp:105] Setting up inception_5a/relu_pool_proj
I0511 05:42:07.712105  2882 net.cpp:112] Top shape: 32 128 7 7 (200704)
I0511 05:42:07.712110  2882 layer_factory.hpp:74] Creating layer inception_5a/output
I0511 05:42:07.712121  2882 net.cpp:76] Creating Layer inception_5a/output
I0511 05:42:07.712127  2882 net.cpp:372] inception_5a/output <- inception_5a/1x1
I0511 05:42:07.712134  2882 net.cpp:372] inception_5a/output <- inception_5a/3x3
I0511 05:42:07.712141  2882 net.cpp:372] inception_5a/output <- inception_5a/5x5
I0511 05:42:07.712146  2882 net.cpp:372] inception_5a/output <- inception_5a/pool_proj
I0511 05:42:07.712154  2882 net.cpp:334] inception_5a/output -> inception_5a/output
I0511 05:42:07.712162  2882 net.cpp:105] Setting up inception_5a/output
I0511 05:42:07.712169  2882 net.cpp:112] Top shape: 32 832 7 7 (1304576)
I0511 05:42:07.712174  2882 layer_factory.hpp:74] Creating layer inception_5a/output_inception_5a/output_0_split
I0511 05:42:07.712184  2882 net.cpp:76] Creating Layer inception_5a/output_inception_5a/output_0_split
I0511 05:42:07.712190  2882 net.cpp:372] inception_5a/output_inception_5a/output_0_split <- inception_5a/output
I0511 05:42:07.712198  2882 net.cpp:334] inception_5a/output_inception_5a/output_0_split -> inception_5a/output_inception_5a/output_0_split_0
I0511 05:42:07.712210  2882 net.cpp:334] inception_5a/output_inception_5a/output_0_split -> inception_5a/output_inception_5a/output_0_split_1
I0511 05:42:07.712220  2882 net.cpp:334] inception_5a/output_inception_5a/output_0_split -> inception_5a/output_inception_5a/output_0_split_2
I0511 05:42:07.712229  2882 net.cpp:334] inception_5a/output_inception_5a/output_0_split -> inception_5a/output_inception_5a/output_0_split_3
I0511 05:42:07.712237  2882 net.cpp:105] Setting up inception_5a/output_inception_5a/output_0_split
I0511 05:42:07.712244  2882 net.cpp:112] Top shape: 32 832 7 7 (1304576)
I0511 05:42:07.712249  2882 net.cpp:112] Top shape: 32 832 7 7 (1304576)
I0511 05:42:07.712255  2882 net.cpp:112] Top shape: 32 832 7 7 (1304576)
I0511 05:42:07.712260  2882 net.cpp:112] Top shape: 32 832 7 7 (1304576)
I0511 05:42:07.712265  2882 layer_factory.hpp:74] Creating layer inception_5b/1x1
I0511 05:42:07.712292  2882 net.cpp:76] Creating Layer inception_5b/1x1
I0511 05:42:07.712301  2882 net.cpp:372] inception_5b/1x1 <- inception_5a/output_inception_5a/output_0_split_0
I0511 05:42:07.712308  2882 net.cpp:334] inception_5b/1x1 -> inception_5b/1x1
I0511 05:42:07.712318  2882 net.cpp:105] Setting up inception_5b/1x1
I0511 05:42:07.715327  2882 net.cpp:112] Top shape: 32 384 7 7 (602112)
I0511 05:42:07.715350  2882 layer_factory.hpp:74] Creating layer inception_5b/relu_1x1
I0511 05:42:07.715375  2882 net.cpp:76] Creating Layer inception_5b/relu_1x1
I0511 05:42:07.715384  2882 net.cpp:372] inception_5b/relu_1x1 <- inception_5b/1x1
I0511 05:42:07.715391  2882 net.cpp:323] inception_5b/relu_1x1 -> inception_5b/1x1 (in-place)
I0511 05:42:07.715399  2882 net.cpp:105] Setting up inception_5b/relu_1x1
I0511 05:42:07.715405  2882 net.cpp:112] Top shape: 32 384 7 7 (602112)
I0511 05:42:07.715411  2882 layer_factory.hpp:74] Creating layer inception_5b/3x3_reduce
I0511 05:42:07.715420  2882 net.cpp:76] Creating Layer inception_5b/3x3_reduce
I0511 05:42:07.715425  2882 net.cpp:372] inception_5b/3x3_reduce <- inception_5a/output_inception_5a/output_0_split_1
I0511 05:42:07.715436  2882 net.cpp:334] inception_5b/3x3_reduce -> inception_5b/3x3_reduce
I0511 05:42:07.715446  2882 net.cpp:105] Setting up inception_5b/3x3_reduce
I0511 05:42:07.716871  2882 net.cpp:112] Top shape: 32 192 7 7 (301056)
I0511 05:42:07.716886  2882 layer_factory.hpp:74] Creating layer inception_5b/relu_3x3_reduce
I0511 05:42:07.716895  2882 net.cpp:76] Creating Layer inception_5b/relu_3x3_reduce
I0511 05:42:07.716902  2882 net.cpp:372] inception_5b/relu_3x3_reduce <- inception_5b/3x3_reduce
I0511 05:42:07.716909  2882 net.cpp:323] inception_5b/relu_3x3_reduce -> inception_5b/3x3_reduce (in-place)
I0511 05:42:07.716918  2882 net.cpp:105] Setting up inception_5b/relu_3x3_reduce
I0511 05:42:07.716923  2882 net.cpp:112] Top shape: 32 192 7 7 (301056)
I0511 05:42:07.716929  2882 layer_factory.hpp:74] Creating layer inception_5b/3x3
I0511 05:42:07.716940  2882 net.cpp:76] Creating Layer inception_5b/3x3
I0511 05:42:07.716946  2882 net.cpp:372] inception_5b/3x3 <- inception_5b/3x3_reduce
I0511 05:42:07.716956  2882 net.cpp:334] inception_5b/3x3 -> inception_5b/3x3
I0511 05:42:07.716991  2882 net.cpp:105] Setting up inception_5b/3x3
I0511 05:42:07.722898  2882 net.cpp:112] Top shape: 32 384 7 7 (602112)
I0511 05:42:07.722929  2882 layer_factory.hpp:74] Creating layer inception_5b/relu_3x3
I0511 05:42:07.722949  2882 net.cpp:76] Creating Layer inception_5b/relu_3x3
I0511 05:42:07.722957  2882 net.cpp:372] inception_5b/relu_3x3 <- inception_5b/3x3
I0511 05:42:07.722966  2882 net.cpp:323] inception_5b/relu_3x3 -> inception_5b/3x3 (in-place)
I0511 05:42:07.722976  2882 net.cpp:105] Setting up inception_5b/relu_3x3
I0511 05:42:07.722982  2882 net.cpp:112] Top shape: 32 384 7 7 (602112)
I0511 05:42:07.722987  2882 layer_factory.hpp:74] Creating layer inception_5b/5x5_reduce
I0511 05:42:07.722997  2882 net.cpp:76] Creating Layer inception_5b/5x5_reduce
I0511 05:42:07.723006  2882 net.cpp:372] inception_5b/5x5_reduce <- inception_5a/output_inception_5a/output_0_split_2
I0511 05:42:07.723016  2882 net.cpp:334] inception_5b/5x5_reduce -> inception_5b/5x5_reduce
I0511 05:42:07.723026  2882 net.cpp:105] Setting up inception_5b/5x5_reduce
I0511 05:42:07.723386  2882 net.cpp:112] Top shape: 32 48 7 7 (75264)
I0511 05:42:07.723399  2882 layer_factory.hpp:74] Creating layer inception_5b/relu_5x5_reduce
I0511 05:42:07.723409  2882 net.cpp:76] Creating Layer inception_5b/relu_5x5_reduce
I0511 05:42:07.723417  2882 net.cpp:372] inception_5b/relu_5x5_reduce <- inception_5b/5x5_reduce
I0511 05:42:07.723425  2882 net.cpp:323] inception_5b/relu_5x5_reduce -> inception_5b/5x5_reduce (in-place)
I0511 05:42:07.723434  2882 net.cpp:105] Setting up inception_5b/relu_5x5_reduce
I0511 05:42:07.723440  2882 net.cpp:112] Top shape: 32 48 7 7 (75264)
I0511 05:42:07.723445  2882 layer_factory.hpp:74] Creating layer inception_5b/5x5
I0511 05:42:07.723456  2882 net.cpp:76] Creating Layer inception_5b/5x5
I0511 05:42:07.723462  2882 net.cpp:372] inception_5b/5x5 <- inception_5b/5x5_reduce
I0511 05:42:07.723470  2882 net.cpp:334] inception_5b/5x5 -> inception_5b/5x5
I0511 05:42:07.723479  2882 net.cpp:105] Setting up inception_5b/5x5
I0511 05:42:07.724773  2882 net.cpp:112] Top shape: 32 128 7 7 (200704)
I0511 05:42:07.724787  2882 layer_factory.hpp:74] Creating layer inception_5b/relu_5x5
I0511 05:42:07.724797  2882 net.cpp:76] Creating Layer inception_5b/relu_5x5
I0511 05:42:07.724833  2882 net.cpp:372] inception_5b/relu_5x5 <- inception_5b/5x5
I0511 05:42:07.724843  2882 net.cpp:323] inception_5b/relu_5x5 -> inception_5b/5x5 (in-place)
I0511 05:42:07.724853  2882 net.cpp:105] Setting up inception_5b/relu_5x5
I0511 05:42:07.724858  2882 net.cpp:112] Top shape: 32 128 7 7 (200704)
I0511 05:42:07.724864  2882 layer_factory.hpp:74] Creating layer inception_5b/pool
I0511 05:42:07.724872  2882 net.cpp:76] Creating Layer inception_5b/pool
I0511 05:42:07.724879  2882 net.cpp:372] inception_5b/pool <- inception_5a/output_inception_5a/output_0_split_3
I0511 05:42:07.724886  2882 net.cpp:334] inception_5b/pool -> inception_5b/pool
I0511 05:42:07.724895  2882 net.cpp:105] Setting up inception_5b/pool
I0511 05:42:07.724903  2882 net.cpp:112] Top shape: 32 832 7 7 (1304576)
I0511 05:42:07.724910  2882 layer_factory.hpp:74] Creating layer inception_5b/pool_proj
I0511 05:42:07.724920  2882 net.cpp:76] Creating Layer inception_5b/pool_proj
I0511 05:42:07.724926  2882 net.cpp:372] inception_5b/pool_proj <- inception_5b/pool
I0511 05:42:07.724934  2882 net.cpp:334] inception_5b/pool_proj -> inception_5b/pool_proj
I0511 05:42:07.724944  2882 net.cpp:105] Setting up inception_5b/pool_proj
I0511 05:42:07.725853  2882 net.cpp:112] Top shape: 32 128 7 7 (200704)
I0511 05:42:07.725868  2882 layer_factory.hpp:74] Creating layer inception_5b/relu_pool_proj
I0511 05:42:07.725877  2882 net.cpp:76] Creating Layer inception_5b/relu_pool_proj
I0511 05:42:07.725883  2882 net.cpp:372] inception_5b/relu_pool_proj <- inception_5b/pool_proj
I0511 05:42:07.725890  2882 net.cpp:323] inception_5b/relu_pool_proj -> inception_5b/pool_proj (in-place)
I0511 05:42:07.725898  2882 net.cpp:105] Setting up inception_5b/relu_pool_proj
I0511 05:42:07.725904  2882 net.cpp:112] Top shape: 32 128 7 7 (200704)
I0511 05:42:07.725910  2882 layer_factory.hpp:74] Creating layer inception_5b/output
I0511 05:42:07.725920  2882 net.cpp:76] Creating Layer inception_5b/output
I0511 05:42:07.725926  2882 net.cpp:372] inception_5b/output <- inception_5b/1x1
I0511 05:42:07.725934  2882 net.cpp:372] inception_5b/output <- inception_5b/3x3
I0511 05:42:07.725939  2882 net.cpp:372] inception_5b/output <- inception_5b/5x5
I0511 05:42:07.725945  2882 net.cpp:372] inception_5b/output <- inception_5b/pool_proj
I0511 05:42:07.725953  2882 net.cpp:334] inception_5b/output -> inception_5b/output
I0511 05:42:07.725961  2882 net.cpp:105] Setting up inception_5b/output
I0511 05:42:07.725968  2882 net.cpp:112] Top shape: 32 1024 7 7 (1605632)
I0511 05:42:07.725973  2882 layer_factory.hpp:74] Creating layer pool5/7x7_s1
I0511 05:42:07.725982  2882 net.cpp:76] Creating Layer pool5/7x7_s1
I0511 05:42:07.725988  2882 net.cpp:372] pool5/7x7_s1 <- inception_5b/output
I0511 05:42:07.725997  2882 net.cpp:334] pool5/7x7_s1 -> pool5/7x7_s1
I0511 05:42:07.726006  2882 net.cpp:105] Setting up pool5/7x7_s1
I0511 05:42:07.726011  2882 net.cpp:112] Top shape: 32 1024 1 1 (32768)
I0511 05:42:07.726017  2882 layer_factory.hpp:74] Creating layer pool5/drop_7x7_s1
I0511 05:42:07.726025  2882 net.cpp:76] Creating Layer pool5/drop_7x7_s1
I0511 05:42:07.726030  2882 net.cpp:372] pool5/drop_7x7_s1 <- pool5/7x7_s1
I0511 05:42:07.726037  2882 net.cpp:323] pool5/drop_7x7_s1 -> pool5/7x7_s1 (in-place)
I0511 05:42:07.726045  2882 net.cpp:105] Setting up pool5/drop_7x7_s1
I0511 05:42:07.726052  2882 net.cpp:112] Top shape: 32 1024 1 1 (32768)
I0511 05:42:07.726058  2882 layer_factory.hpp:74] Creating layer loss3/classifier
I0511 05:42:07.726069  2882 net.cpp:76] Creating Layer loss3/classifier
I0511 05:42:07.726075  2882 net.cpp:372] loss3/classifier <- pool5/7x7_s1
I0511 05:42:07.726085  2882 net.cpp:334] loss3/classifier -> loss3/classifier
I0511 05:42:07.726094  2882 net.cpp:105] Setting up loss3/classifier
I0511 05:42:07.726126  2882 net.cpp:112] Top shape: 32 2 1 1 (64)
I0511 05:42:07.726136  2882 layer_factory.hpp:74] Creating layer loss3/loss3
I0511 05:42:07.726145  2882 net.cpp:76] Creating Layer loss3/loss3
I0511 05:42:07.726150  2882 net.cpp:372] loss3/loss3 <- loss3/classifier
I0511 05:42:07.726171  2882 net.cpp:372] loss3/loss3 <- label_data_1_split_2
I0511 05:42:07.726179  2882 net.cpp:334] loss3/loss3 -> loss3/loss3
I0511 05:42:07.726188  2882 net.cpp:105] Setting up loss3/loss3
I0511 05:42:07.726198  2882 layer_factory.hpp:74] Creating layer loss3/loss3
I0511 05:42:07.726212  2882 net.cpp:112] Top shape: 1 1 1 1 (1)
I0511 05:42:07.726220  2882 net.cpp:118]     with loss weight 1
I0511 05:42:07.726238  2882 net.cpp:163] loss3/loss3 needs backward computation.
I0511 05:42:07.726243  2882 net.cpp:163] loss3/classifier needs backward computation.
I0511 05:42:07.726280  2882 net.cpp:163] pool5/drop_7x7_s1 needs backward computation.
I0511 05:42:07.726287  2882 net.cpp:163] pool5/7x7_s1 needs backward computation.
…
I0511 05:42:07.734174  2882 solver.cpp:154] Creating test net (#0) specified by net file: ../../train_val.prototxt
I0511 05:42:07.734427  2882 net.cpp:253] The NetState phase (1) differed from the phase (0) specified by a rule in layer data
I0511 05:42:07.735817  2882 net.cpp:42] Initializing net from parameters: 
name: "GoogleNet"
state {
  phase: TEST
}
layer {
  name: "data"
  type: "Data"
  top: "data"
  top: "label"
  include {
    phase: TEST
  }
  transform_param {
    mirror: false
    crop_size: 224
    mean_value: 104
    mean_value: 117
    mean_value: 123
  }
  data_param {
    source: "val_lmdb"
    batch_size: 32
    backend: LMDB
  }
}
layer {
  name: "conv1/7x7_s2"
  type: "Convolution"
  bottom: "data"
  top: "conv1/7x7_s2"
  param {
    lr_mult: 1
    decay_mult: 1
  }
  param {
    lr_mult: 2
    decay_mult: 0
  }
  convolution_param {
    num_output: 64
    pad: 3
    kernel_size: 7
    stride: 2
    weight_filler {
      type: "xavier"
      std: 0.1
    }
    bias_filler {
      type: "constant"
      value: 0.2
    }
  }
}
layer {
  name: "conv1/relu_7x7"
  type: "ReLU"
  bottom: "conv1/7x7_s2"
  top: "conv1/7x7_s2"
}
layer {
  name: "pool1/3x3_s2"
  type: "Pooling"
  bottom: "conv1/7x7_s2"
  top: "pool1/3x3_s2"
  pooling_param {
    pool: MAX
    kernel_size: 3
    stride: 2
  }
}
layer {
  name: "pool1/norm1"
  type: "LRN"
  bottom: "pool1/3x3_s2"
  top: "pool1/norm1"
  lrn_param {
    local_size: 5
    alpha: 0.0001
    beta: 0.75
  }
}
layer {
  name: "conv2/3x3_reduce"
  type: "Convolution"
  bottom: "pool1/norm1"
  top: "conv2/3x3_reduce"
  param {
    lr_mult: 1
    decay_mult: 1
  }
  param {
    lr_mult: 2
    decay_mult: 0
  }
  convolution_param {
    num_output: 64
    kernel_size: 1
    weight_filler {
      type: "xavier"
      std: 0.1
    }
    bias_filler {
      type: "constant"
      value: 0.2
    }
  }
}
layer {
  name: "conv2/relu_3x3_reduce"
  type: "ReLU"
  bottom: "conv2/3x3_reduce"
  top: "conv2/3x3_reduce"
}
layer {
  name: "conv2/3x3"
  type: "Convolution"
  bottom: "conv2/3x3_reduce"
  top: "conv2/3x3"
  param {
    lr_mult: 1
    decay_mult: 1
  }
  param {
    lr_mult: 2
    decay_mult: 0
  }
  convolution_param {
    num_output: 192
    pad: 1
    kernel_size: 3
    weight_filler {
      type: "xavier"
      std: 0.03
    }
    bias_filler {
      type: "constant"
      value: 0.2
    }
  }
}
layer {
  name: "conv2/relu_3x3"
  type: "ReLU"
  bottom: "conv2/3x3"
  top: "conv2/3x3"
}
layer {
  name: "conv2/norm2"
  type: "LRN"
  bottom: "conv2/3x3"
  top: "conv2/norm2"
  lrn_param {
    local_size: 5
    alpha: 0.0001
    beta: 0.75
  }
}
layer {
  name: "pool2/3x3_s2"
  type: "Pooling"
  bottom: "conv2/norm2"
  top: "pool2/3x3_s2"
  pooling_param {
    pool: MAX
    kernel_size: 3
    stride: 2
  }
}
layer {
  name: "inception_3a/1x1"
  type: "Convolution"
  bottom: "pool2/3x3_s2"
  top: "inception_3a/1x1"
  param {
    lr_mult: 1
    decay_mult: 1
  }
  param {
    lr_mult: 2
    decay_mult: 0
  }
  convolution_param {
    num_output: 64
    kernel_size: 1
    weight_filler {
      type: "xavier"
      std: 0.03
    }
    bias_filler {
      type: "constant"
      value: 0.2
    }
  }
}
layer {
  name: "inception_3a/relu_1x1"
  type: "ReLU"
  bottom: "inception_3a/1x1"
  top: "inception_3a/1x1"
}
layer {
  name: "inception_3a/3x3_reduce"
  type: "Convolution"
  bottom: "pool2/3x3_s2"
  top: "inception_3a/3x3_reduce"
  param {
    lr_mult: 1
    decay_mult: 1
  }
  param {
    lr_mult: 2
    decay_mult: 0
  }
  convolution_param {
    num_output: 96
    kernel_size: 1
    weight_filler {
      type: "xavier"
      std: 0.09
    }
    bias_filler {
      type: "constant"
      value: 0.2
    }
  }
}
layer {
  name: "inception_3a/relu_3x3_reduce"
  type: "ReLU"
  bottom: "inception_3a/3x3_reduce"
  top: "inception_3a/3x3_reduce"
}
layer {
  name: "inception_3a/3x3"
  type: "Convolution"
  bottom: "inception_3a/3x3_reduce"
  top: "inception_3a/3x3"
  param {
    lr_mult: 1
    decay_mult: 1
  }
  param {
    lr_mult: 2
    decay_mult: 0
  }
  convolution_param {
    num_output: 128
    pad: 1
    kernel_size: 3
    weight_filler {
      type: "xavier"
      std: 0.03
    }
    bias_filler {
      type: "constant"
      value: 0.2
    }
  }
}
layer {
  name: "inception_3a/relu_3x3"
  type: "ReLU"
  bottom: "inception_3a/3x3"
  top: "inception_3a/3x3"
}
layer {
  name: "inception_3a/5x5_reduce"
  type: "Convolution"
  bottom: "pool2/3x3_s2"
  top: "inception_3a/5x5_reduce"
  param {
    lr_mult: 1
    decay_mult: 1
  }
  param {
    lr_mult: 2
    decay_mult: 0
  }
  convolution_param {
    num_output: 16
    kernel_size: 1
    weight_filler {
      type: "xavier"
      std: 0.2
    }
    bias_filler {
      type: "constant"
      value: 0.2
    }
  }
}
layer {
  name: "inception_3a/relu_5x5_reduce"
  type: "ReLU"
  bottom: "inception_3a/5x5_reduce"
  top: "inception_3a/5x5_reduce"
}
layer {
  name: "inception_3a/5x5"
  type: "Convolution"
  bottom: "inception_3a/5x5_reduce"
  top: "inception_3a/5x5"
  param {
    lr_mult: 1
    decay_mult: 1
  }
  param {
    lr_mult: 2
    decay_mult: 0
  }
  convolution_param {
    num_output: 32
    pad: 2
    kernel_size: 5
    weight_filler {
      type: "xavier"
      std: 0.03
    }
    bias_filler {
      type: "constant"
      value: 0.2
    }
  }
}
layer {
  name: "inception_3a/relu_5x5"
  type: "ReLU"
  bottom: "inception_3a/5x5"
  top: "inception_3a/5x5"
}
layer {
  name: "inception_3a/pool"
  type: "Pooling"
  bottom: "pool2/3x3_s2"
  top: "inception_3a/pool"
  pooling_param {
    pool: MAX
    kernel_size: 3
    stride: 1
    pad: 1
  }
}
layer {
  name: "inception_3a/pool_proj"
  type: "Convolution"
  bottom: "inception_3a/pool"
  top: "inception_3a/pool_proj"
  param {
    lr_mult: 1
    decay_mult: 1
  }
  param {
    lr_mult: 2
    decay_mult: 0
  }
  convolution_param {
    num_output: 32
    kernel_size: 1
    weight_filler {
      type: "xavier"
      std: 0.1
    }
    bias_filler {
      type: "constant"
      value: 0.2
    }
  }
}
layer {
  name: "inception_3a/relu_pool_proj"
  type: "ReLU"
  bottom: "inception_3a/pool_proj"
  top: "inception_3a/pool_proj"
}
layer {
  name: "inception_3a/output"
  type: "Concat"
  bottom: "inception_3a/1x1"
  bottom: "inception_3a/3x3"
  bottom: "inception_3a/5x5"
  bottom: "inception_3a/pool_proj"
  top: "inception_3a/output"
}
layer {
  name: "inception_3b/1x1"
  type: "Convolution"
  bottom: "inception_3a/output"
  top: "inception_3b/1x1"
  param {
    lr_mult: 1
    decay_mult: 1
  }
  param {
    lr_mult: 2
    decay_mult: 0
  }
  convolution_param {
    num_output: 128
    kernel_size: 1
    weight_filler {
      type: "xavier"
      std: 0.03
    }
    bias_filler {
      type: "constant"
      value: 0.2
    }
  }
}
layer {
  name: "inception_3b/relu_1x1"
  type: "ReLU"
  bottom: "inception_3b/1x1"
  top: "inception_3b/1x1"
}
layer {
  name: "inception_3b/3x3_reduce"
  type: "Convolution"
  bottom: "inception_3a/output"
  top: "inception_3b/3x3_reduce"
  param {
    lr_mult: 1
    decay_mult: 1
  }
  param {
    lr_mult: 2
    decay_mult: 0
  }
  convolution_param {
    num_output: 128
    kernel_size: 1
    weight_filler {
      type: "xavier"
      std: 0.09
    }
    bias_filler {
      type: "constant"
      value: 0.2
    }
  }
}
layer {
  name: "inception_3b/relu_3x3_reduce"
  type: "ReLU"
  bottom: "inception_3b/3x3_reduce"
  top: "inception_3b/3x3_reduce"
}
layer {
  name: "inception_3b/3x3"
  type: "Convolution"
  bottom: "inception_3b/3x3_reduce"
  top: "inception_3b/3x3"
  param {
    lr_mult: 1
    decay_mult: 1
  }
  param {
    lr_mult: 2
    decay_mult: 0
  }
  convolution_param {
    num_output: 192
    pad: 1
    kernel_size: 3
    weight_filler {
      type: "xavier"
      std: 0.03
    }
    bias_filler {
      type: "constant"
      value: 0.2
    }
  }
}
layer {
  name: "inception_3b/relu_3x3"
  type: "ReLU"
  bottom: "inception_3b/3x3"
  top: "inception_3b/3x3"
}
layer {
  name: "inception_3b/5x5_reduce"
  type: "Convolution"
  bottom: "inception_3a/output"
  top: "inception_3b/5x5_reduce"
  param {
    lr_mult: 1
    decay_mult: 1
  }
  param {
    lr_mult: 2
    decay_mult: 0
  }
  convolution_param {
    num_output: 32
    kernel_size: 1
    weight_filler {
      type: "xavier"
      std: 0.2
    }
    bias_filler {
      type: "constant"
      value: 0.2
    }
  }
}
layer {
  name: "inception_3b/relu_5x5_reduce"
  type: "ReLU"
  bottom: "inception_3b/5x5_reduce"
  top: "inception_3b/5x5_reduce"
}
layer {
  name: "inception_3b/5x5"
  type: "Convolution"
  bottom: "inception_3b/5x5_reduce"
  top: "inception_3b/5x5"
  param {
    lr_mult: 1
    decay_mult: 1
  }
  param {
    lr_mult: 2
    decay_mult: 0
  }
  convolution_param {
    num_output: 96
    pad: 2
    kernel_size: 5
    weight_filler {
      type: "xavier"
      std: 0.03
    }
    bias_filler {
      type: "constant"
      value: 0.2
    }
  }
}
layer {
  name: "inception_3b/relu_5x5"
  type: "ReLU"
  bottom: "inception_3b/5x5"
  top: "inception_3b/5x5"
}
layer {
  name: "inception_3b/pool"
  type: "Pooling"
  bottom: "inception_3a/output"
  top: "inception_3b/pool"
  pooling_param {
    pool: MAX
    kernel_size: 3
    stride: 1
    pad: 1
  }
}
layer {
  name: "inception_3b/pool_proj"
  type: "Convolution"
  bottom: "inception_3b/pool"
  top: "inception_3b/pool_proj"
  param {
    lr_mult: 1
    decay_mult: 1
  }
  param {
    lr_mult: 2
    decay_mult: 0
  }
  convolution_param {
    num_output: 64
    kernel_size: 1
    weight_filler {
      type: "xavier"
      std: 0.1
    }
    bias_filler {
      type: "constant"
      value: 0.2
    }
  }
}
layer {
  name: "inception_3b/relu_pool_proj"
  type: "ReLU"
  bottom: "inception_3b/pool_proj"
  top: "inception_3b/pool_proj"
}
layer {
  name: "inception_3b/output"
  type: "Concat"
  bottom: "inception_3b/1x1"
  bottom: "inception_3b/3x3"
  bottom: "inception_3b/5x5"
  bottom: "inception_3b/pool_proj"
  top: "inception_3b/output"
}
layer {
  name: "pool3/3x3_s2"
  type: "Pooling"
  bottom: "inception_3b/output"
  top: "pool3/3x3_s2"
  pooling_param {
    pool: MAX
    kernel_size: 3
    stride: 2
  }
}
layer {
  name: "inception_4a/1x1"
  type: "Convolution"
  bottom: "pool3/3x3_s2"
  top: "inception_4a/1x1"
  param {
    lr_mult: 1
    decay_mult: 1
  }
  param {
    lr_mult: 2
    decay_mult: 0
  }
  convolution_param {
    num_output: 192
    kernel_size: 1
    weight_filler {
      type: "xavier"
      std: 0.03
    }
    bias_filler {
      type: "constant"
      value: 0.2
    }
  }
}
layer {
  name: "inception_4a/relu_1x1"
  type: "ReLU"
  bottom: "inception_4a/1x1"
  top: "inception_4a/1x1"
}
layer {
  name: "inception_4a/3x3_reduce"
  type: "Convolution"
  bottom: "pool3/3x3_s2"
  top: "inception_4a/3x3_reduce"
  param {
    lr_mult: 1
    decay_mult: 1
  }
  param {
    lr_mult: 2
    decay_mult: 0
  }
  convolution_param {
    num_output: 96
    kernel_size: 1
    weight_filler {
      type: "xavier"
      std: 0.09
    }
    bias_filler {
      type: "constant"
      value: 0.2
    }
  }
}
layer {
  name: "inception_4a/relu_3x3_reduce"
  type: "ReLU"
  bottom: "inception_4a/3x3_reduce"
  top: "inception_4a/3x3_reduce"
}
layer {
  name: "inception_4a/3x3"
  type: "Convolution"
  bottom: "inception_4a/3x3_reduce"
  top: "inception_4a/3x3"
  param {
    lr_mult: 1
    decay_mult: 1
  }
  param {
    lr_mult: 2
    decay_mult: 0
  }
  convolution_param {
    num_output: 208
    pad: 1
    kernel_size: 3
    weight_filler {
      type: "xavier"
      std: 0.03
    }
    bias_filler {
      type: "constant"
      value: 0.2
    }
  }
}
layer {
  name: "inception_4a/relu_3x3"
  type: "ReLU"
  bottom: "inception_4a/3x3"
  top: "inception_4a/3x3"
}
layer {
  name: "inception_4a/5x5_reduce"
  type: "Convolution"
  bottom: "pool3/3x3_s2"
  top: "inception_4a/5x5_reduce"
  param {
    lr_mult: 1
    decay_mult: 1
  }
  param {
    lr_mult: 2
    decay_mult: 0
  }
  convolution_param {
    num_output: 16
    kernel_size: 1
    weight_filler {
      type: "xavier"
      std: 0.2
    }
    bias_filler {
      type: "constant"
      value: 0.2
    }
  }
}
layer {
  name: "inception_4a/relu_5x5_reduce"
  type: "ReLU"
  bottom: "inception_4a/5x5_reduce"
  top: "inception_4a/5x5_reduce"
}
layer {
  name: "inception_4a/5x5"
  type: "Convolution"
  bottom: "inception_4a/5x5_reduce"
  top: "inception_4a/5x5"
  param {
    lr_mult: 1
    decay_mult: 1
  }
  param {
    lr_mult: 2
    decay_mult: 0
  }
  convolution_param {
    num_output: 48
    pad: 2
    kernel_size: 5
    weight_filler {
      type: "xavier"
      std: 0.03
    }
    bias_filler {
      type: "constant"
      value: 0.2
    }
  }
}
layer {
  name: "inception_4a/relu_5x5"
  type: "ReLU"
  bottom: "inception_4a/5x5"
  top: "inception_4a/5x5"
}
layer {
  name: "inception_4a/pool"
  type: "Pooling"
  bottom: "pool3/3x3_s2"
  top: "inception_4a/pool"
  pooling_param {
    pool: MAX
    kernel_size: 3
    stride: 1
    pad: 1
  }
}
layer {
  name: "inception_4a/pool_proj"
  type: "Convolution"
  bottom: "inception_4a/pool"
  top: "inception_4a/pool_proj"
  param {
    lr_mult: 1
    decay_mult: 1
  }
  param {
    lr_mult: 2
    decay_mult: 0
  }
  convolution_param {
    num_output: 64
    kernel_size: 1
    weight_filler {
      type: "xavier"
      std: 0.1
    }
    bias_filler {
      type: "constant"
      value: 0.2
    }
  }
}
layer {
  name: "inception_4a/relu_pool_proj"
  type: "ReLU"
  bottom: "inception_4a/pool_proj"
  top: "inception_4a/pool_proj"
}
layer {
  name: "inception_4a/output"
  type: "Concat"
  bottom: "inception_4a/1x1"
  bottom: "inception_4a/3x3"
  bottom: "inception_4a/5x5"
  bottom: "inception_4a/pool_proj"
  top: "inception_4a/output"
}
layer {
  name: "loss1/ave_pool"
  type: "Pooling"
  bottom: "inception_4a/output"
  top: "loss1/ave_pool"
  pooling_param {
    pool: AVE
    kernel_size: 5
    stride: 3
  }
}
layer {
  name: "loss1/conv"
  type: "Convolution"
  bottom: "loss1/ave_pool"
  top: "loss1/conv"
  param {
    lr_mult: 1
    decay_mult: 1
  }
  param {
    lr_mult: 2
    decay_mult: 0
  }
  convolution_param {
    num_output: 128
    kernel_size: 1
    weight_filler {
      type: "xavier"
      std: 0.08
    }
    bias_filler {
      type: "constant"
      value: 0.2
    }
  }
}
layer {
  name: "loss1/relu_conv"
  type: "ReLU"
  bottom: "loss1/conv"
  top: "loss1/conv"
}
layer {
  name: "loss1/fc"
  type: "InnerProduct"
  bottom: "loss1/conv"
  top: "loss1/fc"
  param {
    lr_mult: 1
    decay_mult: 1
  }
  param {
    lr_mult: 2
    decay_mult: 0
  }
  inner_product_param {
    num_output: 1024
    weight_filler {
      type: "xavier"
      std: 0.02
    }
    bias_filler {
      type: "constant"
      value: 0.2
    }
  }
}
layer {
  name: "loss1/relu_fc"
  type: "ReLU"
  bottom: "loss1/fc"
  top: "loss1/fc"
}
layer {
  name: "loss1/drop_fc"
  type: "Dropout"
  bottom: "loss1/fc"
  top: "loss1/fc"
  dropout_param {
    dropout_ratio: 0.7
  }
}
layer {
  name: "loss1/classifier"
  type: "InnerProduct"
  bottom: "loss1/fc"
  top: "loss1/classifier"
  param {
    lr_mult: 1
    decay_mult: 1
  }
  param {
    lr_mult: 2
    decay_mult: 0
  }
  inner_product_param {
    num_output: 2
    weight_filler {
      type: "xavier"
      std: 0.0009765625
    }
    bias_filler {
      type: "constant"
      value: 0
    }
  }
}
layer {
  name: "loss1/loss"
  type: "SoftmaxWithLoss"
  bottom: "loss1/classifier"
  bottom: "label"
  top: "loss1/loss1"
  loss_weight: 0.3
}
layer {
  name: "loss1/top-1"
  type: "Accuracy"
  bottom: "loss1/classifier"
  bottom: "label"
  top: "loss1/top-1"
  include {
    phase: TEST
  }
}
layer {
  name: "inception_4b/1x1"
  type: "Convolution"
  bottom: "inception_4a/output"
  top: "inception_4b/1x1"
  param {
    lr_mult: 1
    decay_mult: 1
  }
  param {
    lr_mult: 2
    decay_mult: 0
  }
  convolution_param {
    num_output: 160
    kernel_size: 1
    weight_filler {
      type: "xavier"
      std: 0.03
    }
    bias_filler {
      type: "constant"
      value: 0.2
    }
  }
}
layer {
  name: "inception_4b/relu_1x1"
  type: "ReLU"
  bottom: "inception_4b/1x1"
  top: "inception_4b/1x1"
}
layer {
  name: "inception_4b/3x3_reduce"
  type: "Convolution"
  bottom: "inception_4a/output"
  top: "inception_4b/3x3_reduce"
  param {
    lr_mult: 1
    decay_mult: 1
  }
  param {
    lr_mult: 2
    decay_mult: 0
  }
  convolution_param {
    num_output: 112
    kernel_size: 1
    weight_filler {
      type: "xavier"
      std: 0.09
    }
    bias_filler {
      type: "constant"
      value: 0.2
    }
  }
}
layer {
  name: "inception_4b/relu_3x3_reduce"
  type: "ReLU"
  bottom: "inception_4b/3x3_reduce"
  top: "inception_4b/3x3_reduce"
}
layer {
  name: "inception_4b/3x3"
  type: "Convolution"
  bottom: "inception_4b/3x3_reduce"
  top: "inception_4b/3x3"
  param {
    lr_mult: 1
    decay_mult: 1
  }
  param {
    lr_mult: 2
    decay_mult: 0
  }
  convolution_param {
    num_output: 224
    pad: 1
    kernel_size: 3
    weight_filler {
      type: "xavier"
      std: 0.03
    }
    bias_filler {
      type: "constant"
      value: 0.2
    }
  }
}
layer {
  name: "inception_4b/relu_3x3"
  type: "ReLU"
  bottom: "inception_4b/3x3"
  top: "inception_4b/3x3"
}
layer {
  name: "inception_4b/5x5_reduce"
  type: "Convolution"
  bottom: "inception_4a/output"
  top: "inception_4b/5x5_reduce"
  param {
    lr_mult: 1
    decay_mult: 1
  }
  param {
    lr_mult: 2
    decay_mult: 0
  }
  convolution_param {
    num_output: 24
    kernel_size: 1
    weight_filler {
      type: "xavier"
      std: 0.2
    }
    bias_filler {
      type: "constant"
      value: 0.2
    }
  }
}
layer {
  name: "inception_4b/relu_5x5_reduce"
  type: "ReLU"
  bottom: "inception_4b/5x5_reduce"
  top: "inception_4b/5x5_reduce"
}
layer {
  name: "inception_4b/5x5"
  type: "Convolution"
  bottom: "inception_4b/5x5_reduce"
  top: "inception_4b/5x5"
  param {
    lr_mult: 1
    decay_mult: 1
  }
  param {
    lr_mult: 2
    decay_mult: 0
  }
  convolution_param {
    num_output: 64
    pad: 2
    kernel_size: 5
    weight_filler {
      type: "xavier"
      std: 0.03
    }
    bias_filler {
      type: "constant"
      value: 0.2
    }
  }
}
layer {
  name: "inception_4b/relu_5x5"
  type: "ReLU"
  bottom: "inception_4b/5x5"
  top: "inception_4b/5x5"
}
layer {
  name: "inception_4b/pool"
  type: "Pooling"
  bottom: "inception_4a/output"
  top: "inception_4b/pool"
  pooling_param {
    pool: MAX
    kernel_size: 3
    stride: 1
    pad: 1
  }
}
layer {
  name: "inception_4b/pool_proj"
  type: "Convolution"
  bottom: "inception_4b/pool"
  top: "inception_4b/pool_proj"
  param {
    lr_mult: 1
    decay_mult: 1
  }
  param {
    lr_mult: 2
    decay_mult: 0
  }
  convolution_param {
    num_output: 64
    kernel_size: 1
    weight_filler {
      type: "xavier"
      std: 0.1
    }
    bias_filler {
      type: "constant"
      value: 0.2
    }
  }
}
layer {
  name: "inception_4b/relu_pool_proj"
  type: "ReLU"
  bottom: "inception_4b/pool_proj"
  top: "inception_4b/pool_proj"
}
layer {
  name: "inception_4b/output"
  type: "Concat"
  bottom: "inception_4b/1x1"
  bottom: "inception_4b/3x3"
  bottom: "inception_4b/5x5"
  bottom: "inception_4b/pool_proj"
  top: "inception_4b/output"
}
layer {
  name: "inception_4c/1x1"
  type: "Convolution"
  bottom: "inception_4b/output"
  top: "inception_4c/1x1"
  param {
    lr_mult: 1
    decay_mult: 1
  }
  param {
    lr_mult: 2
    decay_mult: 0
  }
  convolution_param {
    num_output: 128
    kernel_size: 1
    weight_filler {
      type: "xavier"
      std: 0.03
    }
    bias_filler {
      type: "constant"
      value: 0.2
    }
  }
}
layer {
  name: "inception_4c/relu_1x1"
  type: "ReLU"
  bottom: "inception_4c/1x1"
  top: "inception_4c/1x1"
}
layer {
  name: "inception_4c/3x3_reduce"
  type: "Convolution"
  bottom: "inception_4b/output"
  top: "inception_4c/3x3_reduce"
  param {
    lr_mult: 1
    decay_mult: 1
  }
  param {
    lr_mult: 2
    decay_mult: 0
  }
  convolution_param {
    num_output: 128
    kernel_size: 1
    weight_filler {
      type: "xavier"
      std: 0.09
    }
    bias_filler {
      type: "constant"
      value: 0.2
    }
  }
}
layer {
  name: "inception_4c/relu_3x3_reduce"
  type: "ReLU"
  bottom: "inception_4c/3x3_reduce"
  top: "inception_4c/3x3_reduce"
}
layer {
  name: "inception_4c/3x3"
  type: "Convolution"
  bottom: "inception_4c/3x3_reduce"
  top: "inception_4c/3x3"
  param {
    lr_mult: 1
    decay_mult: 1
  }
  param {
    lr_mult: 2
    decay_mult: 0
  }
  convolution_param {
    num_output: 256
    pad: 1
    kernel_size: 3
    weight_filler {
      type: "xavier"
      std: 0.03
    }
    bias_filler {
      type: "constant"
      value: 0.2
    }
  }
}
layer {
  name: "inception_4c/relu_3x3"
  type: "ReLU"
  bottom: "inception_4c/3x3"
  top: "inception_4c/3x3"
}
layer {
  name: "inception_4c/5x5_reduce"
  type: "Convolution"
  bottom: "inception_4b/output"
  top: "inception_4c/5x5_reduce"
  param {
    lr_mult: 1
    decay_mult: 1
  }
  param {
    lr_mult: 2
    decay_mult: 0
  }
  convolution_param {
    num_output: 24
    kernel_size: 1
    weight_filler {
      type: "xavier"
      std: 0.2
    }
    bias_filler {
      type: "constant"
      value: 0.2
    }
  }
}
layer {
  name: "inception_4c/relu_5x5_reduce"
  type: "ReLU"
  bottom: "inception_4c/5x5_reduce"
  top: "inception_4c/5x5_reduce"
}
layer {
  name: "inception_4c/5x5"
  type: "Convolution"
  bottom: "inception_4c/5x5_reduce"
  top: "inception_4c/5x5"
  param {
    lr_mult: 1
    decay_mult: 1
  }
  param {
    lr_mult: 2
    decay_mult: 0
  }
  convolution_param {
    num_output: 64
    pad: 2
    kernel_size: 5
    weight_filler {
      type: "xavier"
      std: 0.03
    }
    bias_filler {
      type: "constant"
      value: 0.2
    }
  }
}
layer {
  name: "inception_4c/relu_5x5"
  type: "ReLU"
  bottom: "inception_4c/5x5"
  top: "inception_4c/5x5"
}
layer {
  name: "inception_4c/pool"
  type: "Pooling"
  bottom: "inception_4b/output"
  top: "inception_4c/pool"
  pooling_param {
    pool: MAX
    kernel_size: 3
    stride: 1
    pad: 1
  }
}
layer {
  name: "inception_4c/pool_proj"
  type: "Convolution"
  bottom: "inception_4c/pool"
  top: "inception_4c/pool_proj"
  param {
    lr_mult: 1
    decay_mult: 1
  }
  param {
    lr_mult: 2
    decay_mult: 0
  }
  convolution_param {
    num_output: 64
    kernel_size: 1
    weight_filler {
      type: "xavier"
      std: 0.1
    }
    bias_filler {
      type: "constant"
      value: 0.2
    }
  }
}
layer {
  name: "inception_4c/relu_pool_proj"
  type: "ReLU"
  bottom: "inception_4c/pool_proj"
  top: "inception_4c/pool_proj"
}
layer {
  name: "inception_4c/output"
  type: "Concat"
  bottom: "inception_4c/1x1"
  bottom: "inception_4c/3x3"
  bottom: "inception_4c/5x5"
  bottom: "inception_4c/pool_proj"
  top: "inception_4c/output"
}
layer {
  name: "inception_4d/1x1"
  type: "Convolution"
  bottom: "inception_4c/output"
  top: "inception_4d/1x1"
  param {
    lr_mult: 1
    decay_mult: 1
  }
  param {
    lr_mult: 2
    decay_mult: 0
  }
  convolution_param {
    num_output: 112
    kernel_size: 1
    weight_filler {
      type: "xavier"
      std: 0.03
    }
    bias_filler {
      type: "constant"
      value: 0.2
    }
  }
}
layer {
  name: "inception_4d/relu_1x1"
  type: "ReLU"
  bottom: "inception_4d/1x1"
  top: "inception_4d/1x1"
}
layer {
  name: "inception_4d/3x3_reduce"
  type: "Convolution"
  bottom: "inception_4c/output"
  top: "inception_4d/3x3_reduce"
  param {
    lr_mult: 1
    decay_mult: 1
  }
  param {
    lr_mult: 2
    decay_mult: 0
  }
  convolution_param {
    num_output: 144
    kernel_size: 1
    weight_filler {
      type: "xavier"
      std: 0.09
    }
    bias_filler {
      type: "constant"
      value: 0.2
    }
  }
}
layer {
  name: "inception_4d/relu_3x3_reduce"
  type: "ReLU"
  bottom: "inception_4d/3x3_reduce"
  top: "inception_4d/3x3_reduce"
}
layer {
  name: "inception_4d/3x3"
  type: "Convolution"
  bottom: "inception_4d/3x3_reduce"
  top: "inception_4d/3x3"
  param {
    lr_mult: 1
    decay_mult: 1
  }
  param {
    lr_mult: 2
    decay_mult: 0
  }
  convolution_param {
    num_output: 288
    pad: 1
    kernel_size: 3
    weight_filler {
      type: "xavier"
      std: 0.03
    }
    bias_filler {
      type: "constant"
      value: 0.2
    }
  }
}
layer {
  name: "inception_4d/relu_3x3"
  type: "ReLU"
  bottom: "inception_4d/3x3"
  top: "inception_4d/3x3"
}
layer {
  name: "inception_4d/5x5_reduce"
  type: "Convolution"
  bottom: "inception_4c/output"
  top: "inception_4d/5x5_reduce"
  param {
    lr_mult: 1
    decay_mult: 1
  }
  param {
    lr_mult: 2
    decay_mult: 0
  }
  convolution_param {
    num_output: 32
    kernel_size: 1
    weight_filler {
      type: "xavier"
      std: 0.2
    }
    bias_filler {
      type: "constant"
      value: 0.2
    }
  }
}
layer {
  name: "inception_4d/relu_5x5_reduce"
  type: "ReLU"
  bottom: "inception_4d/5x5_reduce"
  top: "inception_4d/5x5_reduce"
}
layer {
  name: "inception_4d/5x5"
  type: "Convolution"
  bottom: "inception_4d/5x5_reduce"
  top: "inception_4d/5x5"
  param {
    lr_mult: 1
    decay_mult: 1
  }
  param {
    lr_mult: 2
    decay_mult: 0
  }
  convolution_param {
    num_output: 64
    pad: 2
    kernel_size: 5
    weight_filler {
      type: "xavier"
      std: 0.03
    }
    bias_filler {
      type: "constant"
      value: 0.2
    }
  }
}
layer {
  name: "inception_4d/relu_5x5"
  type: "ReLU"
  bottom: "inception_4d/5x5"
  top: "inception_4d/5x5"
}
layer {
  name: "inception_4d/pool"
  type: "Pooling"
  bottom: "inception_4c/output"
  top: "inception_4d/pool"
  pooling_param {
    pool: MAX
    kernel_size: 3
    stride: 1
    pad: 1
  }
}
layer {
  name: "inception_4d/pool_proj"
  type: "Convolution"
  bottom: "inception_4d/pool"
  top: "inception_4d/pool_proj"
  param {
    lr_mult: 1
    decay_mult: 1
  }
  param {
    lr_mult: 2
    decay_mult: 0
  }
  convolution_param {
    num_output: 64
    kernel_size: 1
    weight_filler {
      type: "xavier"
      std: 0.1
    }
    bias_filler {
      type: "constant"
      value: 0.2
    }
  }
}
layer {
  name: "inception_4d/relu_pool_proj"
  type: "ReLU"
  bottom: "inception_4d/pool_proj"
  top: "inception_4d/pool_proj"
}
layer {
  name: "inception_4d/output"
  type: "Concat"
  bottom: "inception_4d/1x1"
  bottom: "inception_4d/3x3"
  bottom: "inception_4d/5x5"
  bottom: "inception_4d/pool_proj"
  top: "inception_4d/output"
}
layer {
  name: "loss2/ave_pool"
  type: "Pooling"
  bottom: "inception_4d/output"
  top: "loss2/ave_pool"
  pooling_param {
    pool: AVE
    kernel_size: 5
    stride: 3
  }
}
layer {
  name: "loss2/conv"
  type: "Convolution"
  bottom: "loss2/ave_pool"
  top: "loss2/conv"
  param {
    lr_mult: 1
    decay_mult: 1
  }
  param {
    lr_mult: 2
    decay_mult: 0
  }
  convolution_param {
    num_output: 128
    kernel_size: 1
    weight_filler {
      type: "xavier"
      std: 0.08
    }
    bias_filler {
      type: "constant"
      value: 0.2
    }
  }
}
layer {
  name: "loss2/relu_conv"
  type: "ReLU"
  bottom: "loss2/conv"
  top: "loss2/conv"
}
layer {
  name: "loss2/fc"
  type: "InnerProduct"
…
I0511 05:42:07.787065  2882 net.cpp:112] Top shape: 32 128 14 14 (802816)
I0511 05:42:07.787077  2882 layer_factory.hpp:74] Creating layer inception_4c/relu_1x1
I0511 05:42:07.787086  2882 net.cpp:76] Creating Layer inception_4c/relu_1x1
I0511 05:42:07.787111  2882 net.cpp:372] inception_4c/relu_1x1 <- inception_4c/1x1
I0511 05:42:07.787118  2882 net.cpp:323] inception_4c/relu_1x1 -> inception_4c/1x1 (in-place)
I0511 05:42:07.787127  2882 net.cpp:105] Setting up inception_4c/relu_1x1
I0511 05:42:07.787132  2882 net.cpp:112] Top shape: 32 128 14 14 (802816)
I0511 05:42:07.787150  2882 layer_factory.hpp:74] Creating layer inception_4c/3x3_reduce
I0511 05:42:07.787164  2882 net.cpp:76] Creating Layer inception_4c/3x3_reduce
I0511 05:42:07.787170  2882 net.cpp:372] inception_4c/3x3_reduce <- inception_4b/output_inception_4b/output_0_split_1
I0511 05:42:07.787178  2882 net.cpp:334] inception_4c/3x3_reduce -> inception_4c/3x3_reduce
I0511 05:42:07.787188  2882 net.cpp:105] Setting up inception_4c/3x3_reduce
I0511 05:42:07.787756  2882 net.cpp:112] Top shape: 32 128 14 14 (802816)
I0511 05:42:07.787770  2882 layer_factory.hpp:74] Creating layer inception_4c/relu_3x3_reduce
I0511 05:42:07.787781  2882 net.cpp:76] Creating Layer inception_4c/relu_3x3_reduce
I0511 05:42:07.787787  2882 net.cpp:372] inception_4c/relu_3x3_reduce <- inception_4c/3x3_reduce
I0511 05:42:07.787794  2882 net.cpp:323] inception_4c/relu_3x3_reduce -> inception_4c/3x3_reduce (in-place)
I0511 05:42:07.787802  2882 net.cpp:105] Setting up inception_4c/relu_3x3_reduce
I0511 05:42:07.787807  2882 net.cpp:112] Top shape: 32 128 14 14 (802816)
I0511 05:42:07.787812  2882 layer_factory.hpp:74] Creating layer inception_4c/3x3
I0511 05:42:07.787822  2882 net.cpp:76] Creating Layer inception_4c/3x3
I0511 05:42:07.787827  2882 net.cpp:372] inception_4c/3x3 <- inception_4c/3x3_reduce
I0511 05:42:07.787837  2882 net.cpp:334] inception_4c/3x3 -> inception_4c/3x3
I0511 05:42:07.787845  2882 net.cpp:105] Setting up inception_4c/3x3
I0511 05:42:07.790325  2882 net.cpp:112] Top shape: 32 256 14 14 (1605632)
I0511 05:42:07.790359  2882 layer_factory.hpp:74] Creating layer inception_4c/relu_3x3
I0511 05:42:07.790367  2882 net.cpp:76] Creating Layer inception_4c/relu_3x3
I0511 05:42:07.790374  2882 net.cpp:372] inception_4c/relu_3x3 <- inception_4c/3x3
I0511 05:42:07.790382  2882 net.cpp:323] inception_4c/relu_3x3 -> inception_4c/3x3 (in-place)
I0511 05:42:07.790390  2882 net.cpp:105] Setting up inception_4c/relu_3x3
I0511 05:42:07.790395  2882 net.cpp:112] Top shape: 32 256 14 14 (1605632)
I0511 05:42:07.790401  2882 layer_factory.hpp:74] Creating layer inception_4c/5x5_reduce
I0511 05:42:07.790410  2882 net.cpp:76] Creating Layer inception_4c/5x5_reduce
I0511 05:42:07.790416  2882 net.cpp:372] inception_4c/5x5_reduce <- inception_4b/output_inception_4b/output_0_split_2
I0511 05:42:07.790426  2882 net.cpp:334] inception_4c/5x5_reduce -> inception_4c/5x5_reduce
I0511 05:42:07.790436  2882 net.cpp:105] Setting up inception_4c/5x5_reduce
I0511 05:42:07.790545  2882 net.cpp:112] Top shape: 32 24 14 14 (150528)
I0511 05:42:07.790556  2882 layer_factory.hpp:74] Creating layer inception_4c/relu_5x5_reduce
I0511 05:42:07.790563  2882 net.cpp:76] Creating Layer inception_4c/relu_5x5_reduce
I0511 05:42:07.790570  2882 net.cpp:372] inception_4c/relu_5x5_reduce <- inception_4c/5x5_reduce
I0511 05:42:07.790580  2882 net.cpp:323] inception_4c/relu_5x5_reduce -> inception_4c/5x5_reduce (in-place)
I0511 05:42:07.790588  2882 net.cpp:105] Setting up inception_4c/relu_5x5_reduce
I0511 05:42:07.790593  2882 net.cpp:112] Top shape: 32 24 14 14 (150528)
I0511 05:42:07.790599  2882 layer_factory.hpp:74] Creating layer inception_4c/5x5
I0511 05:42:07.790609  2882 net.cpp:76] Creating Layer inception_4c/5x5
I0511 05:42:07.790616  2882 net.cpp:372] inception_4c/5x5 <- inception_4c/5x5_reduce
I0511 05:42:07.790623  2882 net.cpp:334] inception_4c/5x5 -> inception_4c/5x5
I0511 05:42:07.790632  2882 net.cpp:105] Setting up inception_4c/5x5
I0511 05:42:07.790987  2882 net.cpp:112] Top shape: 32 64 14 14 (401408)
I0511 05:42:07.791002  2882 layer_factory.hpp:74] Creating layer inception_4c/relu_5x5
I0511 05:42:07.791013  2882 net.cpp:76] Creating Layer inception_4c/relu_5x5
I0511 05:42:07.791810  2882 net.cpp:372] inception_4c/relu_5x5 <- inception_4c/5x5
I0511 05:42:07.791821  2882 net.cpp:323] inception_4c/relu_5x5 -> inception_4c/5x5 (in-place)
I0511 05:42:07.791831  2882 net.cpp:105] Setting up inception_4c/relu_5x5
I0511 05:42:07.791836  2882 net.cpp:112] Top shape: 32 64 14 14 (401408)
I0511 05:42:07.791841  2882 layer_factory.hpp:74] Creating layer inception_4c/pool
I0511 05:42:07.791870  2882 net.cpp:76] Creating Layer inception_4c/pool
I0511 05:42:07.791877  2882 net.cpp:372] inception_4c/pool <- inception_4b/output_inception_4b/output_0_split_3
I0511 05:42:07.791885  2882 net.cpp:334] inception_4c/pool -> inception_4c/pool
I0511 05:42:07.791893  2882 net.cpp:105] Setting up inception_4c/pool
I0511 05:42:07.791901  2882 net.cpp:112] Top shape: 32 512 14 14 (3211264)
I0511 05:42:07.791906  2882 layer_factory.hpp:74] Creating layer inception_4c/pool_proj
I0511 05:42:07.791918  2882 net.cpp:76] Creating Layer inception_4c/pool_proj
I0511 05:42:07.791924  2882 net.cpp:372] inception_4c/pool_proj <- inception_4c/pool
I0511 05:42:07.791934  2882 net.cpp:334] inception_4c/pool_proj -> inception_4c/pool_proj
I0511 05:42:07.791944  2882 net.cpp:105] Setting up inception_4c/pool_proj
I0511 05:42:07.792232  2882 net.cpp:112] Top shape: 32 64 14 14 (401408)
I0511 05:42:07.792245  2882 layer_factory.hpp:74] Creating layer inception_4c/relu_pool_proj
I0511 05:42:07.792256  2882 net.cpp:76] Creating Layer inception_4c/relu_pool_proj
I0511 05:42:07.792263  2882 net.cpp:372] inception_4c/relu_pool_proj <- inception_4c/pool_proj
I0511 05:42:07.792282  2882 net.cpp:323] inception_4c/relu_pool_proj -> inception_4c/pool_proj (in-place)
I0511 05:42:07.792292  2882 net.cpp:105] Setting up inception_4c/relu_pool_proj
I0511 05:42:07.792297  2882 net.cpp:112] Top shape: 32 64 14 14 (401408)
I0511 05:42:07.792304  2882 layer_factory.hpp:74] Creating layer inception_4c/output
I0511 05:42:07.792310  2882 net.cpp:76] Creating Layer inception_4c/output
I0511 05:42:07.792316  2882 net.cpp:372] inception_4c/output <- inception_4c/1x1
I0511 05:42:07.792322  2882 net.cpp:372] inception_4c/output <- inception_4c/3x3
I0511 05:42:07.792328  2882 net.cpp:372] inception_4c/output <- inception_4c/5x5
I0511 05:42:07.792335  2882 net.cpp:372] inception_4c/output <- inception_4c/pool_proj
I0511 05:42:07.792345  2882 net.cpp:334] inception_4c/output -> inception_4c/output
I0511 05:42:07.792352  2882 net.cpp:105] Setting up inception_4c/output
I0511 05:42:07.792358  2882 net.cpp:112] Top shape: 32 512 14 14 (3211264)
I0511 05:42:07.792364  2882 layer_factory.hpp:74] Creating layer inception_4c/output_inception_4c/output_0_split
I0511 05:42:07.792372  2882 net.cpp:76] Creating Layer inception_4c/output_inception_4c/output_0_split
I0511 05:42:07.792377  2882 net.cpp:372] inception_4c/output_inception_4c/output_0_split <- inception_4c/output
I0511 05:42:07.792385  2882 net.cpp:334] inception_4c/output_inception_4c/output_0_split -> inception_4c/output_inception_4c/output_0_split_0
I0511 05:42:07.792393  2882 net.cpp:334] inception_4c/output_inception_4c/output_0_split -> inception_4c/output_inception_4c/output_0_split_1
I0511 05:42:07.792402  2882 net.cpp:334] inception_4c/output_inception_4c/output_0_split -> inception_4c/output_inception_4c/output_0_split_2
I0511 05:42:07.792414  2882 net.cpp:334] inception_4c/output_inception_4c/output_0_split -> inception_4c/output_inception_4c/output_0_split_3
I0511 05:42:07.792423  2882 net.cpp:105] Setting up inception_4c/output_inception_4c/output_0_split
I0511 05:42:07.792429  2882 net.cpp:112] Top shape: 32 512 14 14 (3211264)
I0511 05:42:07.792434  2882 net.cpp:112] Top shape: 32 512 14 14 (3211264)
I0511 05:42:07.792439  2882 net.cpp:112] Top shape: 32 512 14 14 (3211264)
I0511 05:42:07.792444  2882 net.cpp:112] Top shape: 32 512 14 14 (3211264)
I0511 05:42:07.792449  2882 layer_factory.hpp:74] Creating layer inception_4d/1x1
I0511 05:42:07.792457  2882 net.cpp:76] Creating Layer inception_4d/1x1
I0511 05:42:07.792465  2882 net.cpp:372] inception_4d/1x1 <- inception_4c/output_inception_4c/output_0_split_0
I0511 05:42:07.792656  2882 net.cpp:334] inception_4d/1x1 -> inception_4d/1x1
I0511 05:42:07.792667  2882 net.cpp:105] Setting up inception_4d/1x1
I0511 05:42:07.793154  2882 net.cpp:112] Top shape: 32 112 14 14 (702464)
I0511 05:42:07.793167  2882 layer_factory.hpp:74] Creating layer inception_4d/relu_1x1
I0511 05:42:07.793175  2882 net.cpp:76] Creating Layer inception_4d/relu_1x1
I0511 05:42:07.793200  2882 net.cpp:372] inception_4d/relu_1x1 <- inception_4d/1x1
I0511 05:42:07.793210  2882 net.cpp:323] inception_4d/relu_1x1 -> inception_4d/1x1 (in-place)
I0511 05:42:07.793218  2882 net.cpp:105] Setting up inception_4d/relu_1x1
I0511 05:42:07.793225  2882 net.cpp:112] Top shape: 32 112 14 14 (702464)
I0511 05:42:07.793229  2882 layer_factory.hpp:74] Creating layer inception_4d/3x3_reduce
I0511 05:42:07.793238  2882 net.cpp:76] Creating Layer inception_4d/3x3_reduce
I0511 05:42:07.793244  2882 net.cpp:372] inception_4d/3x3_reduce <- inception_4c/output_inception_4c/output_0_split_1
I0511 05:42:07.793268  2882 net.cpp:334] inception_4d/3x3_reduce -> inception_4d/3x3_reduce
I0511 05:42:07.793280  2882 net.cpp:105] Setting up inception_4d/3x3_reduce
I0511 05:42:07.793927  2882 net.cpp:112] Top shape: 32 144 14 14 (903168)
I0511 05:42:07.793946  2882 layer_factory.hpp:74] Creating layer inception_4d/relu_3x3_reduce
I0511 05:42:07.793954  2882 net.cpp:76] Creating Layer inception_4d/relu_3x3_reduce
I0511 05:42:07.793961  2882 net.cpp:372] inception_4d/relu_3x3_reduce <- inception_4d/3x3_reduce
I0511 05:42:07.793968  2882 net.cpp:323] inception_4d/relu_3x3_reduce -> inception_4d/3x3_reduce (in-place)
I0511 05:42:07.793977  2882 net.cpp:105] Setting up inception_4d/relu_3x3_reduce
I0511 05:42:07.793982  2882 net.cpp:112] Top shape: 32 144 14 14 (903168)
I0511 05:42:07.793989  2882 layer_factory.hpp:74] Creating layer inception_4d/3x3
I0511 05:42:07.794008  2882 net.cpp:76] Creating Layer inception_4d/3x3
I0511 05:42:07.794023  2882 net.cpp:372] inception_4d/3x3 <- inception_4d/3x3_reduce
I0511 05:42:07.794039  2882 net.cpp:334] inception_4d/3x3 -> inception_4d/3x3
I0511 05:42:07.794049  2882 net.cpp:105] Setting up inception_4d/3x3
I0511 05:42:07.797456  2882 net.cpp:112] Top shape: 32 288 14 14 (1806336)
I0511 05:42:07.797477  2882 layer_factory.hpp:74] Creating layer inception_4d/relu_3x3
I0511 05:42:07.797487  2882 net.cpp:76] Creating Layer inception_4d/relu_3x3
I0511 05:42:07.797493  2882 net.cpp:372] inception_4d/relu_3x3 <- inception_4d/3x3
I0511 05:42:07.797502  2882 net.cpp:323] inception_4d/relu_3x3 -> inception_4d/3x3 (in-place)
I0511 05:42:07.797510  2882 net.cpp:105] Setting up inception_4d/relu_3x3
I0511 05:42:07.797515  2882 net.cpp:112] Top shape: 32 288 14 14 (1806336)
I0511 05:42:07.797521  2882 layer_factory.hpp:74] Creating layer inception_4d/5x5_reduce
I0511 05:42:07.797530  2882 net.cpp:76] Creating Layer inception_4d/5x5_reduce
I0511 05:42:07.797536  2882 net.cpp:372] inception_4d/5x5_reduce <- inception_4c/output_inception_4c/output_0_split_2
I0511 05:42:07.797547  2882 net.cpp:334] inception_4d/5x5_reduce -> inception_4d/5x5_reduce
I0511 05:42:07.797556  2882 net.cpp:105] Setting up inception_4d/5x5_reduce
I0511 05:42:07.797724  2882 net.cpp:112] Top shape: 32 32 14 14 (200704)
I0511 05:42:07.797739  2882 layer_factory.hpp:74] Creating layer inception_4d/relu_5x5_reduce
I0511 05:42:07.797747  2882 net.cpp:76] Creating Layer inception_4d/relu_5x5_reduce
I0511 05:42:07.797755  2882 net.cpp:372] inception_4d/relu_5x5_reduce <- inception_4d/5x5_reduce
I0511 05:42:07.797761  2882 net.cpp:323] inception_4d/relu_5x5_reduce -> inception_4d/5x5_reduce (in-place)
I0511 05:42:07.797770  2882 net.cpp:105] Setting up inception_4d/relu_5x5_reduce
I0511 05:42:07.797775  2882 net.cpp:112] Top shape: 32 32 14 14 (200704)
I0511 05:42:07.797780  2882 layer_factory.hpp:74] Creating layer inception_4d/5x5
I0511 05:42:07.797791  2882 net.cpp:76] Creating Layer inception_4d/5x5
I0511 05:42:07.797797  2882 net.cpp:372] inception_4d/5x5 <- inception_4d/5x5_reduce
I0511 05:42:07.797807  2882 net.cpp:334] inception_4d/5x5 -> inception_4d/5x5
I0511 05:42:07.797816  2882 net.cpp:105] Setting up inception_4d/5x5
I0511 05:42:07.798261  2882 net.cpp:112] Top shape: 32 64 14 14 (401408)
I0511 05:42:07.798290  2882 layer_factory.hpp:74] Creating layer inception_4d/relu_5x5
I0511 05:42:07.798302  2882 net.cpp:76] Creating Layer inception_4d/relu_5x5
I0511 05:42:07.798308  2882 net.cpp:372] inception_4d/relu_5x5 <- inception_4d/5x5
I0511 05:42:07.798334  2882 net.cpp:323] inception_4d/relu_5x5 -> inception_4d/5x5 (in-place)
I0511 05:42:07.798343  2882 net.cpp:105] Setting up inception_4d/relu_5x5
I0511 05:42:07.798348  2882 net.cpp:112] Top shape: 32 64 14 14 (401408)
I0511 05:42:07.798354  2882 layer_factory.hpp:74] Creating layer inception_4d/pool
I0511 05:42:07.798362  2882 net.cpp:76] Creating Layer inception_4d/pool
I0511 05:42:07.798368  2882 net.cpp:372] inception_4d/pool <- inception_4c/output_inception_4c/output_0_split_3
I0511 05:42:07.798378  2882 net.cpp:334] inception_4d/pool -> inception_4d/pool
I0511 05:42:07.798387  2882 net.cpp:105] Setting up inception_4d/pool
I0511 05:42:07.798394  2882 net.cpp:112] Top shape: 32 512 14 14 (3211264)
I0511 05:42:07.798400  2882 layer_factory.hpp:74] Creating layer inception_4d/pool_proj
I0511 05:42:07.798409  2882 net.cpp:76] Creating Layer inception_4d/pool_proj
I0511 05:42:07.798415  2882 net.cpp:372] inception_4d/pool_proj <- inception_4d/pool
I0511 05:42:07.798426  2882 net.cpp:334] inception_4d/pool_proj -> inception_4d/pool_proj
I0511 05:42:07.798435  2882 net.cpp:105] Setting up inception_4d/pool_proj
I0511 05:42:07.798743  2882 net.cpp:112] Top shape: 32 64 14 14 (401408)
I0511 05:42:07.798761  2882 layer_factory.hpp:74] Creating layer inception_4d/relu_pool_proj
I0511 05:42:07.798770  2882 net.cpp:76] Creating Layer inception_4d/relu_pool_proj
I0511 05:42:07.798780  2882 net.cpp:372] inception_4d/relu_pool_proj <- inception_4d/pool_proj
I0511 05:42:07.798794  2882 net.cpp:323] inception_4d/relu_pool_proj -> inception_4d/pool_proj (in-place)
I0511 05:42:07.798811  2882 net.cpp:105] Setting up inception_4d/relu_pool_proj
I0511 05:42:07.798823  2882 net.cpp:112] Top shape: 32 64 14 14 (401408)
I0511 05:42:07.798830  2882 layer_factory.hpp:74] Creating layer inception_4d/output
I0511 05:42:07.798841  2882 net.cpp:76] Creating Layer inception_4d/output
I0511 05:42:07.798847  2882 net.cpp:372] inception_4d/output <- inception_4d/1x1
I0511 05:42:07.798854  2882 net.cpp:372] inception_4d/output <- inception_4d/3x3
I0511 05:42:07.798861  2882 net.cpp:372] inception_4d/output <- inception_4d/5x5
I0511 05:42:07.798867  2882 net.cpp:372] inception_4d/output <- inception_4d/pool_proj
I0511 05:42:07.798874  2882 net.cpp:334] inception_4d/output -> inception_4d/output
I0511 05:42:07.798883  2882 net.cpp:105] Setting up inception_4d/output
I0511 05:42:07.798889  2882 net.cpp:112] Top shape: 32 528 14 14 (3311616)
I0511 05:42:07.798895  2882 layer_factory.hpp:74] Creating layer inception_4d/output_inception_4d/output_0_split
I0511 05:42:07.798903  2882 net.cpp:76] Creating Layer inception_4d/output_inception_4d/output_0_split
I0511 05:42:07.798909  2882 net.cpp:372] inception_4d/output_inception_4d/output_0_split <- inception_4d/output
I0511 05:42:07.798918  2882 net.cpp:334] inception_4d/output_inception_4d/output_0_split -> inception_4d/output_inception_4d/output_0_split_0
I0511 05:42:07.798928  2882 net.cpp:334] inception_4d/output_inception_4d/output_0_split -> inception_4d/output_inception_4d/output_0_split_1
I0511 05:42:07.798938  2882 net.cpp:334] inception_4d/output_inception_4d/output_0_split -> inception_4d/output_inception_4d/output_0_split_2
I0511 05:42:07.798949  2882 net.cpp:334] inception_4d/output_inception_4d/output_0_split -> inception_4d/output_inception_4d/output_0_split_3
I0511 05:42:07.798980  2882 net.cpp:334] inception_4d/output_inception_4d/output_0_split -> inception_4d/output_inception_4d/output_0_split_4
I0511 05:42:07.798990  2882 net.cpp:105] Setting up inception_4d/output_inception_4d/output_0_split
I0511 05:42:07.798997  2882 net.cpp:112] Top shape: 32 528 14 14 (3311616)
I0511 05:42:07.799002  2882 net.cpp:112] Top shape: 32 528 14 14 (3311616)
I0511 05:42:07.799007  2882 net.cpp:112] Top shape: 32 528 14 14 (3311616)
I0511 05:42:07.799012  2882 net.cpp:112] Top shape: 32 528 14 14 (3311616)
I0511 05:42:07.799016  2882 net.cpp:112] Top shape: 32 528 14 14 (3311616)
I0511 05:42:07.799022  2882 layer_factory.hpp:74] Creating layer loss2/ave_pool
I0511 05:42:07.799043  2882 net.cpp:76] Creating Layer loss2/ave_pool
I0511 05:42:07.799051  2882 net.cpp:372] loss2/ave_pool <- inception_4d/output_inception_4d/output_0_split_0
I0511 05:42:07.799059  2882 net.cpp:334] loss2/ave_pool -> loss2/ave_pool
I0511 05:42:07.799068  2882 net.cpp:105] Setting up loss2/ave_pool
I0511 05:42:07.799074  2882 net.cpp:112] Top shape: 32 528 4 4 (270336)
I0511 05:42:07.799080  2882 layer_factory.hpp:74] Creating layer loss2/conv
I0511 05:42:07.799090  2882 net.cpp:76] Creating Layer loss2/conv
I0511 05:42:07.799098  2882 net.cpp:372] loss2/conv <- loss2/ave_pool
I0511 05:42:07.799111  2882 net.cpp:334] loss2/conv -> loss2/conv
I0511 05:42:07.799129  2882 net.cpp:105] Setting up loss2/conv
I0511 05:42:07.799777  2882 net.cpp:112] Top shape: 32 128 4 4 (65536)
I0511 05:42:07.799798  2882 layer_factory.hpp:74] Creating layer loss2/relu_conv
I0511 05:42:07.799811  2882 net.cpp:76] Creating Layer loss2/relu_conv
I0511 05:42:07.799824  2882 net.cpp:372] loss2/relu_conv <- loss2/conv
I0511 05:42:07.799839  2882 net.cpp:323] loss2/relu_conv -> loss2/conv (in-place)
I0511 05:42:07.799860  2882 net.cpp:105] Setting up loss2/relu_conv
I0511 05:42:07.799866  2882 net.cpp:112] Top shape: 32 128 4 4 (65536)
I0511 05:42:07.799872  2882 layer_factory.hpp:74] Creating layer loss2/fc
I0511 05:42:07.799881  2882 net.cpp:76] Creating Layer loss2/fc
I0511 05:42:07.799887  2882 net.cpp:372] loss2/fc <- loss2/conv
I0511 05:42:07.799896  2882 net.cpp:334] loss2/fc -> loss2/fc
I0511 05:42:07.799913  2882 net.cpp:105] Setting up loss2/fc
I0511 05:42:07.818104  2882 net.cpp:112] Top shape: 32 1024 1 1 (32768)
I0511 05:42:07.818153  2882 layer_factory.hpp:74] Creating layer loss2/relu_fc
I0511 05:42:07.818171  2882 net.cpp:76] Creating Layer loss2/relu_fc
I0511 05:42:07.818179  2882 net.cpp:372] loss2/relu_fc <- loss2/fc
I0511 05:42:07.818189  2882 net.cpp:323] loss2/relu_fc -> loss2/fc (in-place)
I0511 05:42:07.818200  2882 net.cpp:105] Setting up loss2/relu_fc
I0511 05:42:07.818207  2882 net.cpp:112] Top shape: 32 1024 1 1 (32768)
I0511 05:42:07.818212  2882 layer_factory.hpp:74] Creating layer loss2/drop_fc
I0511 05:42:07.818222  2882 net.cpp:76] Creating Layer loss2/drop_fc
I0511 05:42:07.818229  2882 net.cpp:372] loss2/drop_fc <- loss2/fc
I0511 05:42:07.818236  2882 net.cpp:323] loss2/drop_fc -> loss2/fc (in-place)
I0511 05:42:07.818243  2882 net.cpp:105] Setting up loss2/drop_fc
I0511 05:42:07.818250  2882 net.cpp:112] Top shape: 32 1024 1 1 (32768)
I0511 05:42:07.818256  2882 layer_factory.hpp:74] Creating layer loss2/classifier
I0511 05:42:07.818266  2882 net.cpp:76] Creating Layer loss2/classifier
I0511 05:42:07.818287  2882 net.cpp:372] loss2/classifier <- loss2/fc
I0511 05:42:07.818300  2882 net.cpp:334] loss2/classifier -> loss2/classifier
I0511 05:42:07.818312  2882 net.cpp:105] Setting up loss2/classifier
I0511 05:42:07.818344  2882 net.cpp:112] Top shape: 32 2 1 1 (64)
I0511 05:42:07.818356  2882 layer_factory.hpp:74] Creating layer loss2/classifier_loss2/classifier_0_split
I0511 05:42:07.818363  2882 net.cpp:76] Creating Layer loss2/classifier_loss2/classifier_0_split
I0511 05:42:07.818373  2882 net.cpp:372] loss2/classifier_loss2/classifier_0_split <- loss2/classifier
I0511 05:42:07.818382  2882 net.cpp:334] loss2/classifier_loss2/classifier_0_split -> loss2/classifier_loss2/classifier_0_split_0
I0511 05:42:07.818392  2882 net.cpp:334] loss2/classifier_loss2/classifier_0_split -> loss2/classifier_loss2/classifier_0_split_1
I0511 05:42:07.818400  2882 net.cpp:105] Setting up loss2/classifier_loss2/classifier_0_split
I0511 05:42:07.818406  2882 net.cpp:112] Top shape: 32 2 1 1 (64)
I0511 05:42:07.818413  2882 net.cpp:112] Top shape: 32 2 1 1 (64)
I0511 05:42:07.818418  2882 layer_factory.hpp:74] Creating layer loss2/loss
I0511 05:42:07.818429  2882 net.cpp:76] Creating Layer loss2/loss
I0511 05:42:07.818435  2882 net.cpp:372] loss2/loss <- loss2/classifier_loss2/classifier_0_split_0
I0511 05:42:07.818442  2882 net.cpp:372] loss2/loss <- label_data_1_split_2
I0511 05:42:07.818452  2882 net.cpp:334] loss2/loss -> loss2/loss1
I0511 05:42:07.818495  2882 net.cpp:105] Setting up loss2/loss
I0511 05:42:07.818503  2882 layer_factory.hpp:74] Creating layer loss2/loss
I0511 05:42:07.818517  2882 net.cpp:112] Top shape: 1 1 1 1 (1)
I0511 05:42:07.818523  2882 net.cpp:118]     with loss weight 0.3
I0511 05:42:07.818542  2882 layer_factory.hpp:74] Creating layer loss2/top-1
I0511 05:42:07.818552  2882 net.cpp:76] Creating Layer loss2/top-1
I0511 05:42:07.818557  2882 net.cpp:372] loss2/top-1 <- loss2/classifier_loss2/classifier_0_split_1
I0511 05:42:07.818564  2882 net.cpp:372] loss2/top-1 <- label_data_1_split_3
I0511 05:42:07.818572  2882 net.cpp:334] loss2/top-1 -> loss2/top-1
I0511 05:42:07.818580  2882 net.cpp:105] Setting up loss2/top-1
I0511 05:42:07.818588  2882 net.cpp:112] Top shape: 1 1 1 1 (1)
I0511 05:42:07.818593  2882 layer_factory.hpp:74] Creating layer inception_4e/1x1
I0511 05:42:07.818609  2882 net.cpp:76] Creating Layer inception_4e/1x1
I0511 05:42:07.818616  2882 net.cpp:372] inception_4e/1x1 <- inception_4d/output_inception_4d/output_0_split_1
I0511 05:42:07.818625  2882 net.cpp:334] inception_4e/1x1 -> inception_4e/1x1
I0511 05:42:07.818635  2882 net.cpp:105] Setting up inception_4e/1x1
I0511 05:42:07.819788  2882 net.cpp:112] Top shape: 32 256 14 14 (1605632)
I0511 05:42:07.819804  2882 layer_factory.hpp:74] Creating layer inception_4e/relu_1x1
I0511 05:42:07.819813  2882 net.cpp:76] Creating Layer inception_4e/relu_1x1
I0511 05:42:07.819819  2882 net.cpp:372] inception_4e/relu_1x1 <- inception_4e/1x1
I0511 05:42:07.819826  2882 net.cpp:323] inception_4e/relu_1x1 -> inception_4e/1x1 (in-place)
I0511 05:42:07.819835  2882 net.cpp:105] Setting up inception_4e/relu_1x1
I0511 05:42:07.819840  2882 net.cpp:112] Top shape: 32 256 14 14 (1605632)
I0511 05:42:07.819846  2882 layer_factory.hpp:74] Creating layer inception_4e/3x3_reduce
I0511 05:42:07.819857  2882 net.cpp:76] Creating Layer inception_4e/3x3_reduce
I0511 05:42:07.819864  2882 net.cpp:372] inception_4e/3x3_reduce <- inception_4d/output_inception_4d/output_0_split_2
I0511 05:42:07.819871  2882 net.cpp:334] inception_4e/3x3_reduce -> inception_4e/3x3_reduce
I0511 05:42:07.819881  2882 net.cpp:105] Setting up inception_4e/3x3_reduce
I0511 05:42:07.820653  2882 net.cpp:112] Top shape: 32 160 14 14 (1003520)
I0511 05:42:07.820672  2882 layer_factory.hpp:74] Creating layer inception_4e/relu_3x3_reduce
I0511 05:42:07.820683  2882 net.cpp:76] Creating Layer inception_4e/relu_3x3_reduce
I0511 05:42:07.820689  2882 net.cpp:372] inception_4e/relu_3x3_reduce <- inception_4e/3x3_reduce
I0511 05:42:07.820696  2882 net.cpp:323] inception_4e/relu_3x3_reduce -> inception_4e/3x3_reduce (in-place)
I0511 05:42:07.820705  2882 net.cpp:105] Setting up inception_4e/relu_3x3_reduce
I0511 05:42:07.820710  2882 net.cpp:112] Top shape: 32 160 14 14 (1003520)
I0511 05:42:07.820716  2882 layer_factory.hpp:74] Creating layer inception_4e/3x3
I0511 05:42:07.820746  2882 net.cpp:76] Creating Layer inception_4e/3x3
I0511 05:42:07.820754  2882 net.cpp:372] inception_4e/3x3 <- inception_4e/3x3_reduce
I0511 05:42:07.820763  2882 net.cpp:334] inception_4e/3x3 -> inception_4e/3x3
I0511 05:42:07.820772  2882 net.cpp:105] Setting up inception_4e/3x3
I0511 05:42:07.824650  2882 net.cpp:112] Top shape: 32 320 14 14 (2007040)
I0511 05:42:07.824676  2882 layer_factory.hpp:74] Creating layer inception_4e/relu_3x3
I0511 05:42:07.824687  2882 net.cpp:76] Creating Layer inception_4e/relu_3x3
I0511 05:42:07.824693  2882 net.cpp:372] inception_4e/relu_3x3 <- inception_4e/3x3
I0511 05:42:07.824704  2882 net.cpp:323] inception_4e/relu_3x3 -> inception_4e/3x3 (in-place)
I0511 05:42:07.824714  2882 net.cpp:105] Setting up inception_4e/relu_3x3
I0511 05:42:07.824719  2882 net.cpp:112] Top shape: 32 320 14 14 (2007040)
I0511 05:42:07.824725  2882 layer_factory.hpp:74] Creating layer inception_4e/5x5_reduce
I0511 05:42:07.824736  2882 net.cpp:76] Creating Layer inception_4e/5x5_reduce
I0511 05:42:07.824743  2882 net.cpp:372] inception_4e/5x5_reduce <- inception_4d/output_inception_4d/output_0_split_3
I0511 05:42:07.824779  2882 net.cpp:334] inception_4e/5x5_reduce -> inception_4e/5x5_reduce
I0511 05:42:07.824790  2882 net.cpp:105] Setting up inception_4e/5x5_reduce
I0511 05:42:07.824937  2882 net.cpp:112] Top shape: 32 32 14 14 (200704)
I0511 05:42:07.824949  2882 layer_factory.hpp:74] Creating layer inception_4e/relu_5x5_reduce
I0511 05:42:07.824957  2882 net.cpp:76] Creating Layer inception_4e/relu_5x5_reduce
I0511 05:42:07.824964  2882 net.cpp:372] inception_4e/relu_5x5_reduce <- inception_4e/5x5_reduce
I0511 05:42:07.824972  2882 net.cpp:323] inception_4e/relu_5x5_reduce -> inception_4e/5x5_reduce (in-place)
I0511 05:42:07.824980  2882 net.cpp:105] Setting up inception_4e/relu_5x5_reduce
I0511 05:42:07.824985  2882 net.cpp:112] Top shape: 32 32 14 14 (200704)
I0511 05:42:07.824991  2882 layer_factory.hpp:74] Creating layer inception_4e/5x5
I0511 05:42:07.825000  2882 net.cpp:76] Creating Layer inception_4e/5x5
I0511 05:42:07.825006  2882 net.cpp:372] inception_4e/5x5 <- inception_4e/5x5_reduce
I0511 05:42:07.825018  2882 net.cpp:334] inception_4e/5x5 -> inception_4e/5x5
I0511 05:42:07.825028  2882 net.cpp:105] Setting up inception_4e/5x5
I0511 05:42:07.825912  2882 net.cpp:112] Top shape: 32 128 14 14 (802816)
I0511 05:42:07.825927  2882 layer_factory.hpp:74] Creating layer inception_4e/relu_5x5
I0511 05:42:07.825937  2882 net.cpp:76] Creating Layer inception_4e/relu_5x5
I0511 05:42:07.825942  2882 net.cpp:372] inception_4e/relu_5x5 <- inception_4e/5x5
I0511 05:42:07.825952  2882 net.cpp:323] inception_4e/relu_5x5 -> inception_4e/5x5 (in-place)
I0511 05:42:07.825960  2882 net.cpp:105] Setting up inception_4e/relu_5x5
I0511 05:42:07.825965  2882 net.cpp:112] Top shape: 32 128 14 14 (802816)
I0511 05:42:07.825971  2882 layer_factory.hpp:74] Creating layer inception_4e/pool
I0511 05:42:07.825980  2882 net.cpp:76] Creating Layer inception_4e/pool
I0511 05:42:07.825985  2882 net.cpp:372] inception_4e/pool <- inception_4d/output_inception_4d/output_0_split_4
I0511 05:42:07.825994  2882 net.cpp:334] inception_4e/pool -> inception_4e/pool
I0511 05:42:07.826002  2882 net.cpp:105] Setting up inception_4e/pool
I0511 05:42:07.826010  2882 net.cpp:112] Top shape: 32 528 14 14 (3311616)
I0511 05:42:07.826016  2882 layer_factory.hpp:74] Creating layer inception_4e/pool_proj
I0511 05:42:07.826026  2882 net.cpp:76] Creating Layer inception_4e/pool_proj
I0511 05:42:07.826033  2882 net.cpp:372] inception_4e/pool_proj <- inception_4e/pool
I0511 05:42:07.826041  2882 net.cpp:334] inception_4e/pool_proj -> inception_4e/pool_proj
I0511 05:42:07.826050  2882 net.cpp:105] Setting up inception_4e/pool_proj
I0511 05:42:07.826632  2882 net.cpp:112] Top shape: 32 128 14 14 (802816)
I0511 05:42:07.826645  2882 layer_factory.hpp:74] Creating layer inception_4e/relu_pool_proj
I0511 05:42:07.826653  2882 net.cpp:76] Creating Layer inception_4e/relu_pool_proj
I0511 05:42:07.826660  2882 net.cpp:372] inception_4e/relu_pool_proj <- inception_4e/pool_proj
I0511 05:42:07.826669  2882 net.cpp:323] inception_4e/relu_pool_proj -> inception_4e/pool_proj (in-place)
I0511 05:42:07.826678  2882 net.cpp:105] Setting up inception_4e/relu_pool_proj
I0511 05:42:07.826683  2882 net.cpp:112] Top shape: 32 128 14 14 (802816)
I0511 05:42:07.826689  2882 layer_factory.hpp:74] Creating layer inception_4e/output
I0511 05:42:07.826697  2882 net.cpp:76] Creating Layer inception_4e/output
I0511 05:42:07.826704  2882 net.cpp:372] inception_4e/output <- inception_4e/1x1
I0511 05:42:07.826709  2882 net.cpp:372] inception_4e/output <- inception_4e/3x3
I0511 05:42:07.826716  2882 net.cpp:372] inception_4e/output <- inception_4e/5x5
I0511 05:42:07.826722  2882 net.cpp:372] inception_4e/output <- inception_4e/pool_proj
I0511 05:42:07.826731  2882 net.cpp:334] inception_4e/output -> inception_4e/output
I0511 05:42:07.826740  2882 net.cpp:105] Setting up inception_4e/output
I0511 05:42:07.826747  2882 net.cpp:112] Top shape: 32 832 14 14 (5218304)
I0511 05:42:07.826753  2882 layer_factory.hpp:74] Creating layer pool4/3x3_s2
I0511 05:42:07.826761  2882 net.cpp:76] Creating Layer pool4/3x3_s2
I0511 05:42:07.826779  2882 net.cpp:372] pool4/3x3_s2 <- inception_4e/output
I0511 05:42:07.826789  2882 net.cpp:334] pool4/3x3_s2 -> pool4/3x3_s2
I0511 05:42:07.826797  2882 net.cpp:105] Setting up pool4/3x3_s2
I0511 05:42:07.826804  2882 net.cpp:112] Top shape: 32 832 7 7 (1304576)
I0511 05:42:07.826810  2882 layer_factory.hpp:74] Creating layer pool4/3x3_s2_pool4/3x3_s2_0_split
I0511 05:42:07.826822  2882 net.cpp:76] Creating Layer pool4/3x3_s2_pool4/3x3_s2_0_split
I0511 05:42:07.826828  2882 net.cpp:372] pool4/3x3_s2_pool4/3x3_s2_0_split <- pool4/3x3_s2
I0511 05:42:07.826835  2882 net.cpp:334] pool4/3x3_s2_pool4/3x3_s2_0_split -> pool4/3x3_s2_pool4/3x3_s2_0_split_0
I0511 05:42:07.826846  2882 net.cpp:334] pool4/3x3_s2_pool4/3x3_s2_0_split -> pool4/3x3_s2_pool4/3x3_s2_0_split_1
I0511 05:42:07.826856  2882 net.cpp:334] pool4/3x3_s2_pool4/3x3_s2_0_split -> pool4/3x3_s2_pool4/3x3_s2_0_split_2
I0511 05:42:07.826865  2882 net.cpp:334] pool4/3x3_s2_pool4/3x3_s2_0_split -> pool4/3x3_s2_pool4/3x3_s2_0_split_3
I0511 05:42:07.826874  2882 net.cpp:105] Setting up pool4/3x3_s2_pool4/3x3_s2_0_split
I0511 05:42:07.826880  2882 net.cpp:112] Top shape: 32 832 7 7 (1304576)
I0511 05:42:07.826885  2882 net.cpp:112] Top shape: 32 832 7 7 (1304576)
I0511 05:42:07.826890  2882 net.cpp:112] Top shape: 32 832 7 7 (1304576)
I0511 05:42:07.826895  2882 net.cpp:112] Top shape: 32 832 7 7 (1304576)
I0511 05:42:07.826900  2882 layer_factory.hpp:74] Creating layer inception_5a/1x1
I0511 05:42:07.826911  2882 net.cpp:76] Creating Layer inception_5a/1x1
I0511 05:42:07.826917  2882 net.cpp:372] inception_5a/1x1 <- pool4/3x3_s2_pool4/3x3_s2_0_split_0
I0511 05:42:07.826927  2882 net.cpp:334] inception_5a/1x1 -> inception_5a/1x1
I0511 05:42:07.826936  2882 net.cpp:105] Setting up inception_5a/1x1
I0511 05:42:07.828737  2882 net.cpp:112] Top shape: 32 256 7 7 (401408)
I0511 05:42:07.828752  2882 layer_factory.hpp:74] Creating layer inception_5a/relu_1x1
I0511 05:42:07.828761  2882 net.cpp:76] Creating Layer inception_5a/relu_1x1
I0511 05:42:07.828789  2882 net.cpp:372] inception_5a/relu_1x1 <- inception_5a/1x1
I0511 05:42:07.828799  2882 net.cpp:323] inception_5a/relu_1x1 -> inception_5a/1x1 (in-place)
I0511 05:42:07.828806  2882 net.cpp:105] Setting up inception_5a/relu_1x1
I0511 05:42:07.828811  2882 net.cpp:112] Top shape: 32 256 7 7 (401408)
I0511 05:42:07.828817  2882 layer_factory.hpp:74] Creating layer inception_5a/3x3_reduce
I0511 05:42:07.828830  2882 net.cpp:76] Creating Layer inception_5a/3x3_reduce
I0511 05:42:07.828835  2882 net.cpp:372] inception_5a/3x3_reduce <- pool4/3x3_s2_pool4/3x3_s2_0_split_1
I0511 05:42:07.828843  2882 net.cpp:334] inception_5a/3x3_reduce -> inception_5a/3x3_reduce
I0511 05:42:07.828853  2882 net.cpp:105] Setting up inception_5a/3x3_reduce
I0511 05:42:07.829982  2882 net.cpp:112] Top shape: 32 160 7 7 (250880)
I0511 05:42:07.829999  2882 layer_factory.hpp:74] Creating layer inception_5a/relu_3x3_reduce
I0511 05:42:07.830008  2882 net.cpp:76] Creating Layer inception_5a/relu_3x3_reduce
I0511 05:42:07.830014  2882 net.cpp:372] inception_5a/relu_3x3_reduce <- inception_5a/3x3_reduce
I0511 05:42:07.830021  2882 net.cpp:323] inception_5a/relu_3x3_reduce -> inception_5a/3x3_reduce (in-place)
I0511 05:42:07.830029  2882 net.cpp:105] Setting up inception_5a/relu_3x3_reduce
I0511 05:42:07.830035  2882 net.cpp:112] Top shape: 32 160 7 7 (250880)
I0511 05:42:07.830040  2882 layer_factory.hpp:74] Creating layer inception_5a/3x3
I0511 05:42:07.830052  2882 net.cpp:76] Creating Layer inception_5a/3x3
I0511 05:42:07.830059  2882 net.cpp:372] inception_5a/3x3 <- inception_5a/3x3_reduce
I0511 05:42:07.830068  2882 net.cpp:334] inception_5a/3x3 -> inception_5a/3x3
I0511 05:42:07.830077  2882 net.cpp:105] Setting up inception_5a/3x3
I0511 05:42:07.833951  2882 net.cpp:112] Top shape: 32 320 7 7 (501760)
I0511 05:42:07.833976  2882 layer_factory.hpp:74] Creating layer inception_5a/relu_3x3
I0511 05:42:07.833992  2882 net.cpp:76] Creating Layer inception_5a/relu_3x3
I0511 05:42:07.833998  2882 net.cpp:372] inception_5a/relu_3x3 <- inception_5a/3x3
I0511 05:42:07.834030  2882 net.cpp:323] inception_5a/relu_3x3 -> inception_5a/3x3 (in-place)
I0511 05:42:07.834040  2882 net.cpp:105] Setting up inception_5a/relu_3x3
I0511 05:42:07.834046  2882 net.cpp:112] Top shape: 32 320 7 7 (501760)
I0511 05:42:07.834053  2882 layer_factory.hpp:74] Creating layer inception_5a/5x5_reduce
I0511 05:42:07.834064  2882 net.cpp:76] Creating Layer inception_5a/5x5_reduce
I0511 05:42:07.834070  2882 net.cpp:372] inception_5a/5x5_reduce <- pool4/3x3_s2_pool4/3x3_s2_0_split_2
I0511 05:42:07.834079  2882 net.cpp:334] inception_5a/5x5_reduce -> inception_5a/5x5_reduce
I0511 05:42:07.834089  2882 net.cpp:105] Setting up inception_5a/5x5_reduce
I0511 05:42:07.834336  2882 net.cpp:112] Top shape: 32 32 7 7 (50176)
I0511 05:42:07.834350  2882 layer_factory.hpp:74] Creating layer inception_5a/relu_5x5_reduce
I0511 05:42:07.834358  2882 net.cpp:76] Creating Layer inception_5a/relu_5x5_reduce
I0511 05:42:07.834364  2882 net.cpp:372] inception_5a/relu_5x5_reduce <- inception_5a/5x5_reduce
I0511 05:42:07.834372  2882 net.cpp:323] inception_5a/relu_5x5_reduce -> inception_5a/5x5_reduce (in-place)
I0511 05:42:07.834381  2882 net.cpp:105] Setting up inception_5a/relu_5x5_reduce
I0511 05:42:07.834388  2882 net.cpp:112] Top shape: 32 32 7 7 (50176)
I0511 05:42:07.834393  2882 layer_factory.hpp:74] Creating layer inception_5a/5x5
I0511 05:42:07.834401  2882 net.cpp:76] Creating Layer inception_5a/5x5
I0511 05:42:07.834406  2882 net.cpp:372] inception_5a/5x5 <- inception_5a/5x5_reduce
I0511 05:42:07.834414  2882 net.cpp:334] inception_5a/5x5 -> inception_5a/5x5
I0511 05:42:07.834422  2882 net.cpp:105] Setting up inception_5a/5x5
I0511 05:42:07.835373  2882 net.cpp:112] Top shape: 32 128 7 7 (200704)
I0511 05:42:07.835389  2882 layer_factory.hpp:74] Creating layer inception_5a/relu_5x5
I0511 05:42:07.835398  2882 net.cpp:76] Creating Layer inception_5a/relu_5x5
I0511 05:42:07.835404  2882 net.cpp:372] inception_5a/relu_5x5 <- inception_5a/5x5
I0511 05:42:07.835414  2882 net.cpp:323] inception_5a/relu_5x5 -> inception_5a/5x5 (in-place)
I0511 05:42:07.835422  2882 net.cpp:105] Setting up inception_5a/relu_5x5
I0511 05:42:07.835428  2882 net.cpp:112] Top shape: 32 128 7 7 (200704)
I0511 05:42:07.835433  2882 layer_factory.hpp:74] Creating layer inception_5a/pool
I0511 05:42:07.835443  2882 net.cpp:76] Creating Layer inception_5a/pool
I0511 05:42:07.835448  2882 net.cpp:372] inception_5a/pool <- pool4/3x3_s2_pool4/3x3_s2_0_split_3
I0511 05:42:07.835455  2882 net.cpp:334] inception_5a/pool -> inception_5a/pool
I0511 05:42:07.835484  2882 net.cpp:105] Setting up inception_5a/pool
I0511 05:42:07.835496  2882 net.cpp:112] Top shape: 32 832 7 7 (1304576)
I0511 05:42:07.835505  2882 layer_factory.hpp:74] Creating layer inception_5a/pool_proj
I0511 05:42:07.835515  2882 net.cpp:76] Creating Layer inception_5a/pool_proj
I0511 05:42:07.835521  2882 net.cpp:372] inception_5a/pool_proj <- inception_5a/pool
I0511 05:42:07.835530  2882 net.cpp:334] inception_5a/pool_proj -> inception_5a/pool_proj
I0511 05:42:07.835539  2882 net.cpp:105] Setting up inception_5a/pool_proj
I0511 05:42:07.836601  2882 net.cpp:112] Top shape: 32 128 7 7 (200704)
I0511 05:42:07.836627  2882 layer_factory.hpp:74] Creating layer inception_5a/relu_pool_proj
I0511 05:42:07.836644  2882 net.cpp:76] Creating Layer inception_5a/relu_pool_proj
I0511 05:42:07.836658  2882 net.cpp:372] inception_5a/relu_pool_proj <- inception_5a/pool_proj
I0511 05:42:07.836675  2882 net.cpp:323] inception_5a/relu_pool_proj -> inception_5a/pool_proj (in-place)
I0511 05:42:07.836694  2882 net.cpp:105] Setting up inception_5a/relu_pool_proj
I0511 05:42:07.836705  2882 net.cpp:112] Top shape: 32 128 7 7 (200704)
I0511 05:42:07.836715  2882 layer_factory.hpp:74] Creating layer inception_5a/output
I0511 05:42:07.836730  2882 net.cpp:76] Creating Layer inception_5a/output
I0511 05:42:07.836741  2882 net.cpp:372] inception_5a/output <- inception_5a/1x1
I0511 05:42:07.836755  2882 net.cpp:372] inception_5a/output <- inception_5a/3x3
I0511 05:42:07.836769  2882 net.cpp:372] inception_5a/output <- inception_5a/5x5
I0511 05:42:07.836802  2882 net.cpp:372] inception_5a/output <- inception_5a/pool_proj
I0511 05:42:07.836822  2882 net.cpp:334] inception_5a/output -> inception_5a/output
I0511 05:42:07.836840  2882 net.cpp:105] Setting up inception_5a/output
I0511 05:42:07.836853  2882 net.cpp:112] Top shape: 32 832 7 7 (1304576)
I0511 05:42:07.836864  2882 layer_factory.hpp:74] Creating layer inception_5a/output_inception_5a/output_0_split
I0511 05:42:07.836884  2882 net.cpp:76] Creating Layer inception_5a/output_inception_5a/output_0_split
I0511 05:42:07.836899  2882 net.cpp:372] inception_5a/output_inception_5a/output_0_split <- inception_5a/output
I0511 05:42:07.836915  2882 net.cpp:334] inception_5a/output_inception_5a/output_0_split -> inception_5a/output_inception_5a/output_0_split_0
I0511 05:42:07.836935  2882 net.cpp:334] inception_5a/output_inception_5a/output_0_split -> inception_5a/output_inception_5a/output_0_split_1
I0511 05:42:07.836952  2882 net.cpp:334] inception_5a/output_inception_5a/output_0_split -> inception_5a/output_inception_5a/output_0_split_2
I0511 05:42:07.836969  2882 net.cpp:334] inception_5a/output_inception_5a/output_0_split -> inception_5a/output_inception_5a/output_0_split_3
I0511 05:42:07.836987  2882 net.cpp:105] Setting up inception_5a/output_inception_5a/output_0_split
I0511 05:42:07.837000  2882 net.cpp:112] Top shape: 32 832 7 7 (1304576)
I0511 05:42:07.837013  2882 net.cpp:112] Top shape: 32 832 7 7 (1304576)
I0511 05:42:07.837020  2882 net.cpp:112] Top shape: 32 832 7 7 (1304576)
I0511 05:42:07.837031  2882 net.cpp:112] Top shape: 32 832 7 7 (1304576)
I0511 05:42:07.837043  2882 layer_factory.hpp:74] Creating layer inception_5b/1x1
I0511 05:42:07.837065  2882 net.cpp:76] Creating Layer inception_5b/1x1
I0511 05:42:07.837080  2882 net.cpp:372] inception_5b/1x1 <- inception_5a/output_inception_5a/output_0_split_0
I0511 05:42:07.837098  2882 net.cpp:334] inception_5b/1x1 -> inception_5b/1x1
I0511 05:42:07.837110  2882 net.cpp:105] Setting up inception_5b/1x1
I0511 05:42:07.839777  2882 net.cpp:112] Top shape: 32 384 7 7 (602112)
I0511 05:42:07.839794  2882 layer_factory.hpp:74] Creating layer inception_5b/relu_1x1
I0511 05:42:07.839803  2882 net.cpp:76] Creating Layer inception_5b/relu_1x1
I0511 05:42:07.839833  2882 net.cpp:372] inception_5b/relu_1x1 <- inception_5b/1x1
I0511 05:42:07.839841  2882 net.cpp:323] inception_5b/relu_1x1 -> inception_5b/1x1 (in-place)
I0511 05:42:07.839849  2882 net.cpp:105] Setting up inception_5b/relu_1x1
I0511 05:42:07.839855  2882 net.cpp:112] Top shape: 32 384 7 7 (602112)
I0511 05:42:07.839861  2882 layer_factory.hpp:74] Creating layer inception_5b/3x3_reduce
I0511 05:42:07.839872  2882 net.cpp:76] Creating Layer inception_5b/3x3_reduce
I0511 05:42:07.839879  2882 net.cpp:372] inception_5b/3x3_reduce <- inception_5a/output_inception_5a/output_0_split_1
I0511 05:42:07.839887  2882 net.cpp:334] inception_5b/3x3_reduce -> inception_5b/3x3_reduce
I0511 05:42:07.839896  2882 net.cpp:105] Setting up inception_5b/3x3_reduce
I0511 05:42:07.841230  2882 net.cpp:112] Top shape: 32 192 7 7 (301056)
I0511 05:42:07.841245  2882 layer_factory.hpp:74] Creating layer inception_5b/relu_3x3_reduce
I0511 05:42:07.841254  2882 net.cpp:76] Creating Layer inception_5b/relu_3x3_reduce
I0511 05:42:07.841262  2882 net.cpp:372] inception_5b/relu_3x3_reduce <- inception_5b/3x3_reduce
I0511 05:42:07.841280  2882 net.cpp:323] inception_5b/relu_3x3_reduce -> inception_5b/3x3_reduce (in-place)
I0511 05:42:07.841290  2882 net.cpp:105] Setting up inception_5b/relu_3x3_reduce
I0511 05:42:07.841296  2882 net.cpp:112] Top shape: 32 192 7 7 (301056)
I0511 05:42:07.841301  2882 layer_factory.hpp:74] Creating layer inception_5b/3x3
I0511 05:42:07.841310  2882 net.cpp:76] Creating Layer inception_5b/3x3
I0511 05:42:07.841316  2882 net.cpp:372] inception_5b/3x3 <- inception_5b/3x3_reduce
I0511 05:42:07.841328  2882 net.cpp:334] inception_5b/3x3 -> inception_5b/3x3
I0511 05:42:07.841337  2882 net.cpp:105] Setting up inception_5b/3x3
I0511 05:42:07.847295  2882 net.cpp:112] Top shape: 32 384 7 7 (602112)
I0511 05:42:07.847321  2882 layer_factory.hpp:74] Creating layer inception_5b/relu_3x3
I0511 05:42:07.847331  2882 net.cpp:76] Creating Layer inception_5b/relu_3x3
I0511 05:42:07.847338  2882 net.cpp:372] inception_5b/relu_3x3 <- inception_5b/3x3
I0511 05:42:07.847347  2882 net.cpp:323] inception_5b/relu_3x3 -> inception_5b/3x3 (in-place)
I0511 05:42:07.847355  2882 net.cpp:105] Setting up inception_5b/relu_3x3
I0511 05:42:07.847362  2882 net.cpp:112] Top shape: 32 384 7 7 (602112)
I0511 05:42:07.847368  2882 layer_factory.hpp:74] Creating layer inception_5b/5x5_reduce
I0511 05:42:07.847379  2882 net.cpp:76] Creating Layer inception_5b/5x5_reduce
I0511 05:42:07.847386  2882 net.cpp:372] inception_5b/5x5_reduce <- inception_5a/output_inception_5a/output_0_split_2
I0511 05:42:07.847396  2882 net.cpp:334] inception_5b/5x5_reduce -> inception_5b/5x5_reduce
I0511 05:42:07.847406  2882 net.cpp:105] Setting up inception_5b/5x5_reduce
I0511 05:42:07.847759  2882 net.cpp:112] Top shape: 32 48 7 7 (75264)
I0511 05:42:07.847772  2882 layer_factory.hpp:74] Creating layer inception_5b/relu_5x5_reduce
I0511 05:42:07.847781  2882 net.cpp:76] Creating Layer inception_5b/relu_5x5_reduce
I0511 05:42:07.847787  2882 net.cpp:372] inception_5b/relu_5x5_reduce <- inception_5b/5x5_reduce
I0511 05:42:07.847796  2882 net.cpp:323] inception_5b/relu_5x5_reduce -> inception_5b/5x5_reduce (in-place)
I0511 05:42:07.847805  2882 net.cpp:105] Setting up inception_5b/relu_5x5_reduce
I0511 05:42:07.847810  2882 net.cpp:112] Top shape: 32 48 7 7 (75264)
I0511 05:42:07.847816  2882 layer_factory.hpp:74] Creating layer inception_5b/5x5
I0511 05:42:07.847826  2882 net.cpp:76] Creating Layer inception_5b/5x5
I0511 05:42:07.847831  2882 net.cpp:372] inception_5b/5x5 <- inception_5b/5x5_reduce
I0511 05:42:07.847844  2882 net.cpp:334] inception_5b/5x5 -> inception_5b/5x5
I0511 05:42:07.847854  2882 net.cpp:105] Setting up inception_5b/5x5
I0511 05:42:07.849138  2882 net.cpp:112] Top shape: 32 128 7 7 (200704)
I0511 05:42:07.849153  2882 layer_factory.hpp:74] Creating layer inception_5b/relu_5x5
I0511 05:42:07.849166  2882 net.cpp:76] Creating Layer inception_5b/relu_5x5
I0511 05:42:07.850052  2882 net.cpp:372] inception_5b/relu_5x5 <- inception_5b/5x5
I0511 05:42:07.850069  2882 net.cpp:323] inception_5b/relu_5x5 -> inception_5b/5x5 (in-place)
I0511 05:42:07.850080  2882 net.cpp:105] Setting up inception_5b/relu_5x5
I0511 05:42:07.850086  2882 net.cpp:112] Top shape: 32 128 7 7 (200704)
I0511 05:42:07.850092  2882 layer_factory.hpp:74] Creating layer inception_5b/pool
I0511 05:42:07.850102  2882 net.cpp:76] Creating Layer inception_5b/pool
I0511 05:42:07.850108  2882 net.cpp:372] inception_5b/pool <- inception_5a/output_inception_5a/output_0_split_3
I0511 05:42:07.850122  2882 net.cpp:334] inception_5b/pool -> inception_5b/pool
I0511 05:42:07.850131  2882 net.cpp:105] Setting up inception_5b/pool
I0511 05:42:07.850141  2882 net.cpp:112] Top shape: 32 832 7 7 (1304576)
I0511 05:42:07.850145  2882 layer_factory.hpp:74] Creating layer inception_5b/pool_proj
I0511 05:42:07.850155  2882 net.cpp:76] Creating Layer inception_5b/pool_proj
I0511 05:42:07.850162  2882 net.cpp:372] inception_5b/pool_proj <- inception_5b/pool
I0511 05:42:07.850172  2882 net.cpp:334] inception_5b/pool_proj -> inception_5b/pool_proj
I0511 05:42:07.850183  2882 net.cpp:105] Setting up inception_5b/pool_proj
I0511 05:42:07.851095  2882 net.cpp:112] Top shape: 32 128 7 7 (200704)
I0511 05:42:07.851114  2882 layer_factory.hpp:74] Creating layer inception_5b/relu_pool_proj
I0511 05:42:07.851124  2882 net.cpp:76] Creating Layer inception_5b/relu_pool_proj
I0511 05:42:07.851130  2882 net.cpp:372] inception_5b/relu_pool_proj <- inception_5b/pool_proj
I0511 05:42:07.851137  2882 net.cpp:323] inception_5b/relu_pool_proj -> inception_5b/pool_proj (in-place)
I0511 05:42:07.851145  2882 net.cpp:105] Setting up inception_5b/relu_pool_proj
I0511 05:42:07.851150  2882 net.cpp:112] Top shape: 32 128 7 7 (200704)
I0511 05:42:07.851156  2882 layer_factory.hpp:74] Creating layer inception_5b/output
I0511 05:42:07.851200  2882 net.cpp:76] Creating Layer inception_5b/output
I0511 05:42:07.851207  2882 net.cpp:372] inception_5b/output <- inception_5b/1x1
I0511 05:42:07.851214  2882 net.cpp:372] inception_5b/output <- inception_5b/3x3
I0511 05:42:07.851222  2882 net.cpp:372] inception_5b/output <- inception_5b/5x5
I0511 05:42:07.851227  2882 net.cpp:372] inception_5b/output <- inception_5b/pool_proj
I0511 05:42:07.851238  2882 net.cpp:334] inception_5b/output -> inception_5b/output
I0511 05:42:07.851248  2882 net.cpp:105] Setting up inception_5b/output
I0511 05:42:07.851254  2882 net.cpp:112] Top shape: 32 1024 7 7 (1605632)
I0511 05:42:07.851260  2882 layer_factory.hpp:74] Creating layer pool5/7x7_s1
I0511 05:42:07.851269  2882 net.cpp:76] Creating Layer pool5/7x7_s1
I0511 05:42:07.851290  2882 net.cpp:372] pool5/7x7_s1 <- inception_5b/output
I0511 05:42:07.851302  2882 net.cpp:334] pool5/7x7_s1 -> pool5/7x7_s1
I0511 05:42:07.851311  2882 net.cpp:105] Setting up pool5/7x7_s1
I0511 05:42:07.851318  2882 net.cpp:112] Top shape: 32 1024 1 1 (32768)
I0511 05:42:07.851325  2882 layer_factory.hpp:74] Creating layer pool5/drop_7x7_s1
I0511 05:42:07.851332  2882 net.cpp:76] Creating Layer pool5/drop_7x7_s1
I0511 05:42:07.851338  2882 net.cpp:372] pool5/drop_7x7_s1 <- pool5/7x7_s1
I0511 05:42:07.851346  2882 net.cpp:323] pool5/drop_7x7_s1 -> pool5/7x7_s1 (in-place)
I0511 05:42:07.851352  2882 net.cpp:105] Setting up pool5/drop_7x7_s1
I0511 05:42:07.851359  2882 net.cpp:112] Top shape: 32 1024 1 1 (32768)
I0511 05:42:07.851364  2882 layer_factory.hpp:74] Creating layer loss3/classifier
I0511 05:42:07.851374  2882 net.cpp:76] Creating Layer loss3/classifier
I0511 05:42:07.851379  2882 net.cpp:372] loss3/classifier <- pool5/7x7_s1
I0511 05:42:07.851390  2882 net.cpp:334] loss3/classifier -> loss3/classifier
I0511 05:42:07.851400  2882 net.cpp:105] Setting up loss3/classifier
I0511 05:42:07.851430  2882 net.cpp:112] Top shape: 32 2 1 1 (64)
I0511 05:42:07.851444  2882 layer_factory.hpp:74] Creating layer loss3/classifier_loss3/classifier_0_split
I0511 05:42:07.851451  2882 net.cpp:76] Creating Layer loss3/classifier_loss3/classifier_0_split
I0511 05:42:07.851457  2882 net.cpp:372] loss3/classifier_loss3/classifier_0_split <- loss3/classifier
I0511 05:42:07.851464  2882 net.cpp:334] loss3/classifier_loss3/classifier_0_split -> loss3/classifier_loss3/classifier_0_split_0
I0511 05:42:07.851474  2882 net.cpp:334] loss3/classifier_loss3/classifier_0_split -> loss3/classifier_loss3/classifier_0_split_1
I0511 05:42:07.851481  2882 net.cpp:105] Setting up loss3/classifier_loss3/classifier_0_split
I0511 05:42:07.851488  2882 net.cpp:112] Top shape: 32 2 1 1 (64)
I0511 05:42:07.851493  2882 net.cpp:112] Top shape: 32 2 1 1 (64)
I0511 05:42:07.851498  2882 layer_factory.hpp:74] Creating layer loss3/loss3
I0511 05:42:07.851510  2882 net.cpp:76] Creating Layer loss3/loss3
I0511 05:42:07.851516  2882 net.cpp:372] loss3/loss3 <- loss3/classifier_loss3/classifier_0_split_0
I0511 05:42:07.851522  2882 net.cpp:372] loss3/loss3 <- label_data_1_split_4
I0511 05:42:07.851531  2882 net.cpp:334] loss3/loss3 -> loss3/loss3
I0511 05:42:07.851538  2882 net.cpp:105] Setting up loss3/loss3
I0511 05:42:07.851547  2882 layer_factory.hpp:74] Creating layer loss3/loss3
I0511 05:42:07.851562  2882 net.cpp:112] Top shape: 1 1 1 1 (1)
I0511 05:42:07.851567  2882 net.cpp:118]     with loss weight 1
I0511 05:42:07.851584  2882 layer_factory.hpp:74] Creating layer loss3/top-1
I0511 05:42:07.851593  2882 net.cpp:76] Creating Layer loss3/top-1
I0511 05:42:07.851598  2882 net.cpp:372] loss3/top-1 <- loss3/classifier_loss3/classifier_0_split_1
I0511 05:42:07.851605  2882 net.cpp:372] loss3/top-1 <- label_data_1_split_5
I0511 05:42:07.851615  2882 net.cpp:334] loss3/top-1 -> loss3/top-1
I0511 05:42:07.851626  2882 net.cpp:105] Setting up loss3/top-1
I0511 05:42:07.851634  2882 net.cpp:112] Top shape: 1 1 1 1 (1)
I0511 05:42:07.851639  2882 net.cpp:165] loss3/top-1 does not need backward computation.
I0511 05:42:07.851644  2882 net.cpp:163] loss3/loss3 needs backward computation.
I0511 05:42:07.851661  2882 net.cpp:163] loss3/classifier_loss3/classifier_0_split needs backward computation.
I0511 05:42:07.851668  2882 net.cpp:163] loss3/classifier needs backward computation.
I0511 05:42:07.851675  2882 net.cpp:163] pool5/drop_7x7_s1 needs backward computation.
…
