…
I0509 21:30:36.356676 16576 net.cpp:253] The NetState phase (0) differed from the phase (1) specified by a rule in layer loss3/top-1
I0509 21:30:36.358000 16576 net.cpp:42] Initializing net from parameters: 
name: "GoogleNet"
state {
  phase: TRAIN
}
layer {
  name: "data"
  type: "Data"
  top: "data"
  top: "label"
  include {
    phase: TRAIN
  }
  transform_param {
    mirror: true
    crop_size: 224
    mean_value: 104
    mean_value: 117
    mean_value: 123
  }
  data_param {
    source: "train_lmdb"
    batch_size: 32
    backend: LMDB
  }
}
layer {
  name: "conv1/7x7_s2"
  type: "Convolution"
  bottom: "data"
  top: "conv1/7x7_s2"
  param {
    lr_mult: 1
    decay_mult: 1
  }
  param {
    lr_mult: 2
    decay_mult: 0
  }
  convolution_param {
    num_output: 64
    pad: 3
    kernel_size: 7
    stride: 2
    weight_filler {
      type: "xavier"
      std: 0.1
    }
    bias_filler {
      type: "constant"
      value: 0.2
    }
  }
}
layer {
  name: "conv1/relu_7x7"
  type: "ReLU"
  bottom: "conv1/7x7_s2"
  top: "conv1/7x7_s2"
}
layer {
  name: "pool1/3x3_s2"
  type: "Pooling"
  bottom: "conv1/7x7_s2"
  top: "pool1/3x3_s2"
  pooling_param {
    pool: MAX
    kernel_size: 3
    stride: 2
  }
}
layer {
  name: "pool1/norm1"
  type: "LRN"
  bottom: "pool1/3x3_s2"
  top: "pool1/norm1"
  lrn_param {
    local_size: 5
    alpha: 0.0001
    beta: 0.75
  }
}
layer {
  name: "conv2/3x3_reduce"
  type: "Convolution"
  bottom: "pool1/norm1"
  top: "conv2/3x3_reduce"
  param {
    lr_mult: 1
    decay_mult: 1
  }
  param {
    lr_mult: 2
    decay_mult: 0
  }
  convolution_param {
    num_output: 64
    kernel_size: 1
    weight_filler {
      type: "xavier"
      std: 0.1
    }
    bias_filler {
      type: "constant"
      value: 0.2
    }
  }
}
layer {
  name: "conv2/relu_3x3_reduce"
  type: "ReLU"
  bottom: "conv2/3x3_reduce"
  top: "conv2/3x3_reduce"
}
layer {
  name: "conv2/3x3"
  type: "Convolution"
  bottom: "conv2/3x3_reduce"
  top: "conv2/3x3"
  param {
    lr_mult: 1
    decay_mult: 1
  }
  param {
    lr_mult: 2
    decay_mult: 0
  }
  convolution_param {
    num_output: 192
    pad: 1
    kernel_size: 3
    weight_filler {
      type: "xavier"
      std: 0.03
    }
    bias_filler {
      type: "constant"
      value: 0.2
    }
  }
}
layer {
  name: "conv2/relu_3x3"
  type: "ReLU"
  bottom: "conv2/3x3"
  top: "conv2/3x3"
}
layer {
  name: "conv2/norm2"
  type: "LRN"
  bottom: "conv2/3x3"
  top: "conv2/norm2"
  lrn_param {
    local_size: 5
    alpha: 0.0001
    beta: 0.75
  }
}
layer {
  name: "pool2/3x3_s2"
  type: "Pooling"
  bottom: "conv2/norm2"
  top: "pool2/3x3_s2"
  pooling_param {
    pool: MAX
    kernel_size: 3
    stride: 2
  }
}
layer {
  name: "inception_3a/1x1"
  type: "Convolution"
  bottom: "pool2/3x3_s2"
  top: "inception_3a/1x1"
  param {
    lr_mult: 1
    decay_mult: 1
  }
  param {
    lr_mult: 2
    decay_mult: 0
  }
  convolution_param {
    num_output: 64
    kernel_size: 1
    weight_filler {
      type: "xavier"
      std: 0.03
    }
    bias_filler {
      type: "constant"
      value: 0.2
    }
  }
}
layer {
  name: "inception_3a/relu_1x1"
  type: "ReLU"
  bottom: "inception_3a/1x1"
  top: "inception_3a/1x1"
}
layer {
  name: "inception_3a/3x3_reduce"
  type: "Convolution"
  bottom: "pool2/3x3_s2"
  top: "inception_3a/3x3_reduce"
  param {
    lr_mult: 1
    decay_mult: 1
  }
  param {
    lr_mult: 2
    decay_mult: 0
  }
  convolution_param {
    num_output: 96
    kernel_size: 1
    weight_filler {
      type: "xavier"
      std: 0.09
    }
    bias_filler {
      type: "constant"
      value: 0.2
    }
  }
}
layer {
  name: "inception_3a/relu_3x3_reduce"
  type: "ReLU"
  bottom: "inception_3a/3x3_reduce"
  top: "inception_3a/3x3_reduce"
}
layer {
  name: "inception_3a/3x3"
  type: "Convolution"
  bottom: "inception_3a/3x3_reduce"
  top: "inception_3a/3x3"
  param {
    lr_mult: 1
    decay_mult: 1
  }
  param {
    lr_mult: 2
    decay_mult: 0
  }
  convolution_param {
    num_output: 128
    pad: 1
    kernel_size: 3
    weight_filler {
      type: "xavier"
      std: 0.03
    }
    bias_filler {
      type: "constant"
      value: 0.2
    }
  }
}
layer {
  name: "inception_3a/relu_3x3"
  type: "ReLU"
  bottom: "inception_3a/3x3"
  top: "inception_3a/3x3"
}
layer {
  name: "inception_3a/5x5_reduce"
  type: "Convolution"
  bottom: "pool2/3x3_s2"
  top: "inception_3a/5x5_reduce"
  param {
    lr_mult: 1
    decay_mult: 1
  }
  param {
    lr_mult: 2
    decay_mult: 0
  }
  convolution_param {
    num_output: 16
    kernel_size: 1
    weight_filler {
      type: "xavier"
      std: 0.2
    }
    bias_filler {
      type: "constant"
      value: 0.2
    }
  }
}
layer {
  name: "inception_3a/relu_5x5_reduce"
  type: "ReLU"
  bottom: "inception_3a/5x5_reduce"
  top: "inception_3a/5x5_reduce"
}
layer {
  name: "inception_3a/5x5"
  type: "Convolution"
  bottom: "inception_3a/5x5_reduce"
  top: "inception_3a/5x5"
  param {
    lr_mult: 1
    decay_mult: 1
  }
  param {
    lr_mult: 2
    decay_mult: 0
  }
  convolution_param {
    num_output: 32
    pad: 2
    kernel_size: 5
    weight_filler {
      type: "xavier"
      std: 0.03
    }
    bias_filler {
      type: "constant"
      value: 0.2
    }
  }
}
layer {
  name: "inception_3a/relu_5x5"
  type: "ReLU"
  bottom: "inception_3a/5x5"
  top: "inception_3a/5x5"
}
layer {
  name: "inception_3a/pool"
  type: "Pooling"
  bottom: "pool2/3x3_s2"
  top: "inception_3a/pool"
  pooling_param {
    pool: MAX
    kernel_size: 3
    stride: 1
    pad: 1
  }
}
layer {
  name: "inception_3a/pool_proj"
  type: "Convolution"
  bottom: "inception_3a/pool"
  top: "inception_3a/pool_proj"
  param {
    lr_mult: 1
    decay_mult: 1
  }
  param {
    lr_mult: 2
    decay_mult: 0
  }
  convolution_param {
    num_output: 32
    kernel_size: 1
    weight_filler {
      type: "xavier"
      std: 0.1
    }
    bias_filler {
      type: "constant"
      value: 0.2
    }
  }
}
layer {
  name: "inception_3a/relu_pool_proj"
  type: "ReLU"
  bottom: "inception_3a/pool_proj"
  top: "inception_3a/pool_proj"
}
layer {
  name: "inception_3a/output"
  type: "Concat"
  bottom: "inception_3a/1x1"
  bottom: "inception_3a/3x3"
  bottom: "inception_3a/5x5"
  bottom: "inception_3a/pool_proj"
  top: "inception_3a/output"
}
layer {
  name: "inception_3b/1x1"
  type: "Convolution"
  bottom: "inception_3a/output"
  top: "inception_3b/1x1"
  param {
    lr_mult: 1
    decay_mult: 1
  }
  param {
    lr_mult: 2
    decay_mult: 0
  }
  convolution_param {
    num_output: 128
    kernel_size: 1
    weight_filler {
      type: "xavier"
      std: 0.03
    }
    bias_filler {
      type: "constant"
      value: 0.2
    }
  }
}
layer {
  name: "inception_3b/relu_1x1"
  type: "ReLU"
  bottom: "inception_3b/1x1"
  top: "inception_3b/1x1"
}
layer {
  name: "inception_3b/3x3_reduce"
  type: "Convolution"
  bottom: "inception_3a/output"
  top: "inception_3b/3x3_reduce"
  param {
    lr_mult: 1
    decay_mult: 1
  }
  param {
    lr_mult: 2
    decay_mult: 0
  }
  convolution_param {
    num_output: 128
    kernel_size: 1
    weight_filler {
      type: "xavier"
      std: 0.09
    }
    bias_filler {
      type: "constant"
      value: 0.2
    }
  }
}
layer {
  name: "inception_3b/relu_3x3_reduce"
  type: "ReLU"
  bottom: "inception_3b/3x3_reduce"
  top: "inception_3b/3x3_reduce"
}
layer {
  name: "inception_3b/3x3"
  type: "Convolution"
  bottom: "inception_3b/3x3_reduce"
  top: "inception_3b/3x3"
  param {
    lr_mult: 1
    decay_mult: 1
  }
  param {
    lr_mult: 2
    decay_mult: 0
  }
  convolution_param {
    num_output: 192
    pad: 1
    kernel_size: 3
    weight_filler {
      type: "xavier"
      std: 0.03
    }
    bias_filler {
      type: "constant"
      value: 0.2
    }
  }
}
layer {
  name: "inception_3b/relu_3x3"
  type: "ReLU"
  bottom: "inception_3b/3x3"
  top: "inception_3b/3x3"
}
layer {
  name: "inception_3b/5x5_reduce"
  type: "Convolution"
  bottom: "inception_3a/output"
  top: "inception_3b/5x5_reduce"
  param {
    lr_mult: 1
    decay_mult: 1
  }
  param {
    lr_mult: 2
    decay_mult: 0
  }
  convolution_param {
    num_output: 32
    kernel_size: 1
    weight_filler {
      type: "xavier"
      std: 0.2
    }
    bias_filler {
      type: "constant"
      value: 0.2
    }
  }
}
layer {
  name: "inception_3b/relu_5x5_reduce"
  type: "ReLU"
  bottom: "inception_3b/5x5_reduce"
  top: "inception_3b/5x5_reduce"
}
layer {
  name: "inception_3b/5x5"
  type: "Convolution"
  bottom: "inception_3b/5x5_reduce"
  top: "inception_3b/5x5"
  param {
    lr_mult: 1
    decay_mult: 1
  }
  param {
    lr_mult: 2
    decay_mult: 0
  }
  convolution_param {
    num_output: 96
    pad: 2
    kernel_size: 5
    weight_filler {
      type: "xavier"
      std: 0.03
    }
    bias_filler {
      type: "constant"
      value: 0.2
    }
  }
}
layer {
  name: "inception_3b/relu_5x5"
  type: "ReLU"
  bottom: "inception_3b/5x5"
  top: "inception_3b/5x5"
}
layer {
  name: "inception_3b/pool"
  type: "Pooling"
  bottom: "inception_3a/output"
  top: "inception_3b/pool"
  pooling_param {
    pool: MAX
    kernel_size: 3
    stride: 1
    pad: 1
  }
}
layer {
  name: "inception_3b/pool_proj"
  type: "Convolution"
  bottom: "inception_3b/pool"
  top: "inception_3b/pool_proj"
  param {
    lr_mult: 1
    decay_mult: 1
  }
  param {
    lr_mult: 2
    decay_mult: 0
  }
  convolution_param {
    num_output: 64
    kernel_size: 1
    weight_filler {
      type: "xavier"
      std: 0.1
    }
    bias_filler {
      type: "constant"
      value: 0.2
    }
  }
}
layer {
  name: "inception_3b/relu_pool_proj"
  type: "ReLU"
  bottom: "inception_3b/pool_proj"
  top: "inception_3b/pool_proj"
}
layer {
  name: "inception_3b/output"
  type: "Concat"
  bottom: "inception_3b/1x1"
  bottom: "inception_3b/3x3"
  bottom: "inception_3b/5x5"
  bottom: "inception_3b/pool_proj"
  top: "inception_3b/output"
}
layer {
  name: "pool3/3x3_s2"
  type: "Pooling"
  bottom: "inception_3b/output"
  top: "pool3/3x3_s2"
  pooling_param {
    pool: MAX
    kernel_size: 3
    stride: 2
  }
}
layer {
  name: "inception_4a/1x1"
  type: "Convolution"
  bottom: "pool3/3x3_s2"
  top: "inception_4a/1x1"
  param {
    lr_mult: 1
    decay_mult: 1
  }
  param {
    lr_mult: 2
    decay_mult: 0
  }
  convolution_param {
    num_output: 192
    kernel_size: 1
    weight_filler {
      type: "xavier"
      std: 0.03
    }
    bias_filler {
      type: "constant"
      value: 0.2
    }
  }
}
layer {
  name: "inception_4a/relu_1x1"
  type: "ReLU"
  bottom: "inception_4a/1x1"
  top: "inception_4a/1x1"
}
layer {
  name: "inception_4a/3x3_reduce"
  type: "Convolution"
  bottom: "pool3/3x3_s2"
  top: "inception_4a/3x3_reduce"
  param {
    lr_mult: 1
    decay_mult: 1
  }
  param {
    lr_mult: 2
    decay_mult: 0
  }
  convolution_param {
    num_output: 96
    kernel_size: 1
    weight_filler {
      type: "xavier"
      std: 0.09
    }
    bias_filler {
      type: "constant"
      value: 0.2
    }
  }
}
layer {
  name: "inception_4a/relu_3x3_reduce"
  type: "ReLU"
  bottom: "inception_4a/3x3_reduce"
  top: "inception_4a/3x3_reduce"
}
layer {
  name: "inception_4a/3x3"
  type: "Convolution"
  bottom: "inception_4a/3x3_reduce"
  top: "inception_4a/3x3"
  param {
    lr_mult: 1
    decay_mult: 1
  }
  param {
    lr_mult: 2
    decay_mult: 0
  }
  convolution_param {
    num_output: 208
    pad: 1
    kernel_size: 3
    weight_filler {
      type: "xavier"
      std: 0.03
    }
    bias_filler {
      type: "constant"
      value: 0.2
    }
  }
}
layer {
  name: "inception_4a/relu_3x3"
  type: "ReLU"
  bottom: "inception_4a/3x3"
  top: "inception_4a/3x3"
}
layer {
  name: "inception_4a/5x5_reduce"
  type: "Convolution"
  bottom: "pool3/3x3_s2"
  top: "inception_4a/5x5_reduce"
  param {
    lr_mult: 1
    decay_mult: 1
  }
  param {
    lr_mult: 2
    decay_mult: 0
  }
  convolution_param {
    num_output: 16
    kernel_size: 1
    weight_filler {
      type: "xavier"
      std: 0.2
    }
    bias_filler {
      type: "constant"
      value: 0.2
    }
  }
}
layer {
  name: "inception_4a/relu_5x5_reduce"
  type: "ReLU"
  bottom: "inception_4a/5x5_reduce"
  top: "inception_4a/5x5_reduce"
}
layer {
  name: "inception_4a/5x5"
  type: "Convolution"
  bottom: "inception_4a/5x5_reduce"
  top: "inception_4a/5x5"
  param {
    lr_mult: 1
    decay_mult: 1
  }
  param {
    lr_mult: 2
    decay_mult: 0
  }
  convolution_param {
    num_output: 48
    pad: 2
    kernel_size: 5
    weight_filler {
      type: "xavier"
      std: 0.03
    }
    bias_filler {
      type: "constant"
      value: 0.2
    }
  }
}
layer {
  name: "inception_4a/relu_5x5"
  type: "ReLU"
  bottom: "inception_4a/5x5"
  top: "inception_4a/5x5"
}
layer {
  name: "inception_4a/pool"
  type: "Pooling"
  bottom: "pool3/3x3_s2"
  top: "inception_4a/pool"
  pooling_param {
    pool: MAX
    kernel_size: 3
    stride: 1
    pad: 1
  }
}
layer {
  name: "inception_4a/pool_proj"
  type: "Convolution"
  bottom: "inception_4a/pool"
  top: "inception_4a/pool_proj"
  param {
    lr_mult: 1
    decay_mult: 1
  }
  param {
    lr_mult: 2
    decay_mult: 0
  }
  convolution_param {
    num_output: 64
    kernel_size: 1
    weight_filler {
      type: "xavier"
      std: 0.1
    }
    bias_filler {
      type: "constant"
      value: 0.2
    }
  }
}
layer {
  name: "inception_4a/relu_pool_proj"
  type: "ReLU"
  bottom: "inception_4a/pool_proj"
  top: "inception_4a/pool_proj"
}
layer {
  name: "inception_4a/output"
  type: "Concat"
  bottom: "inception_4a/1x1"
  bottom: "inception_4a/3x3"
  bottom: "inception_4a/5x5"
  bottom: "inception_4a/pool_proj"
  top: "inception_4a/output"
}
layer {
  name: "loss1/ave_pool"
  type: "Pooling"
  bottom: "inception_4a/output"
  top: "loss1/ave_pool"
  pooling_param {
    pool: AVE
    kernel_size: 5
    stride: 3
  }
}
layer {
  name: "loss1/conv"
  type: "Convolution"
  bottom: "loss1/ave_pool"
  top: "loss1/conv"
  param {
    lr_mult: 1
    decay_mult: 1
  }
  param {
    lr_mult: 2
    decay_mult: 0
  }
  convolution_param {
    num_output: 128
    kernel_size: 1
    weight_filler {
      type: "xavier"
      std: 0.08
    }
    bias_filler {
      type: "constant"
      value: 0.2
    }
  }
}
layer {
  name: "loss1/relu_conv"
  type: "ReLU"
  bottom: "loss1/conv"
  top: "loss1/conv"
}
layer {
  name: "loss1/fc"
  type: "InnerProduct"
  bottom: "loss1/conv"
  top: "loss1/fc"
  param {
    lr_mult: 1
    decay_mult: 1
  }
  param {
    lr_mult: 2
    decay_mult: 0
  }
  inner_product_param {
    num_output: 1024
    weight_filler {
      type: "xavier"
      std: 0.02
    }
    bias_filler {
      type: "constant"
      value: 0.2
    }
  }
}
layer {
  name: "loss1/relu_fc"
  type: "ReLU"
  bottom: "loss1/fc"
  top: "loss1/fc"
}
layer {
  name: "loss1/drop_fc"
  type: "Dropout"
  bottom: "loss1/fc"
  top: "loss1/fc"
  dropout_param {
    dropout_ratio: 0.7
  }
}
layer {
  name: "loss1/classifier"
  type: "InnerProduct"
  bottom: "loss1/fc"
  top: "loss1/classifier"
  param {
    lr_mult: 1
    decay_mult: 1
  }
  param {
    lr_mult: 2
    decay_mult: 0
  }
  inner_product_param {
    num_output: 2
    weight_filler {
      type: "xavier"
      std: 0.0009765625
    }
    bias_filler {
      type: "constant"
      value: 0
    }
  }
}
layer {
  name: "loss1/loss"
  type: "SoftmaxWithLoss"
  bottom: "loss1/classifier"
  bottom: "label"
  top: "loss1/loss1"
  loss_weight: 0.3
}
layer {
  name: "inception_4b/1x1"
  type: "Convolution"
  bottom: "inception_4a/output"
  top: "inception_4b/1x1"
  param {
    lr_mult: 1
    decay_mult: 1
  }
  param {
    lr_mult: 2
    decay_mult: 0
  }
  convolution_param {
    num_output: 160
    kernel_size: 1
    weight_filler {
      type: "xavier"
      std: 0.03
    }
    bias_filler {
      type: "constant"
      value: 0.2
    }
  }
}
layer {
  name: "inception_4b/relu_1x1"
  type: "ReLU"
  bottom: "inception_4b/1x1"
  top: "inception_4b/1x1"
}
layer {
  name: "inception_4b/3x3_reduce"
  type: "Convolution"
  bottom: "inception_4a/output"
  top: "inception_4b/3x3_reduce"
  param {
    lr_mult: 1
    decay_mult: 1
  }
  param {
    lr_mult: 2
    decay_mult: 0
  }
  convolution_param {
    num_output: 112
    kernel_size: 1
    weight_filler {
      type: "xavier"
      std: 0.09
    }
    bias_filler {
      type: "constant"
      value: 0.2
    }
  }
}
layer {
  name: "inception_4b/relu_3x3_reduce"
  type: "ReLU"
  bottom: "inception_4b/3x3_reduce"
  top: "inception_4b/3x3_reduce"
}
layer {
  name: "inception_4b/3x3"
  type: "Convolution"
  bottom: "inception_4b/3x3_reduce"
  top: "inception_4b/3x3"
  param {
    lr_mult: 1
    decay_mult: 1
  }
  param {
    lr_mult: 2
    decay_mult: 0
  }
  convolution_param {
    num_output: 224
    pad: 1
    kernel_size: 3
    weight_filler {
      type: "xavier"
      std: 0.03
    }
    bias_filler {
      type: "constant"
      value: 0.2
    }
  }
}
layer {
  name: "inception_4b/relu_3x3"
  type: "ReLU"
  bottom: "inception_4b/3x3"
  top: "inception_4b/3x3"
}
layer {
  name: "inception_4b/5x5_reduce"
  type: "Convolution"
  bottom: "inception_4a/output"
  top: "inception_4b/5x5_reduce"
  param {
    lr_mult: 1
    decay_mult: 1
  }
  param {
    lr_mult: 2
    decay_mult: 0
  }
  convolution_param {
    num_output: 24
    kernel_size: 1
    weight_filler {
      type: "xavier"
      std: 0.2
    }
    bias_filler {
      type: "constant"
      value: 0.2
    }
  }
}
layer {
  name: "inception_4b/relu_5x5_reduce"
  type: "ReLU"
  bottom: "inception_4b/5x5_reduce"
  top: "inception_4b/5x5_reduce"
}
layer {
  name: "inception_4b/5x5"
  type: "Convolution"
  bottom: "inception_4b/5x5_reduce"
  top: "inception_4b/5x5"
  param {
    lr_mult: 1
    decay_mult: 1
  }
  param {
    lr_mult: 2
    decay_mult: 0
  }
  convolution_param {
    num_output: 64
    pad: 2
    kernel_size: 5
    weight_filler {
      type: "xavier"
      std: 0.03
    }
    bias_filler {
      type: "constant"
      value: 0.2
    }
  }
}
layer {
  name: "inception_4b/relu_5x5"
  type: "ReLU"
  bottom: "inception_4b/5x5"
  top: "inception_4b/5x5"
}
layer {
  name: "inception_4b/pool"
  type: "Pooling"
  bottom: "inception_4a/output"
  top: "inception_4b/pool"
  pooling_param {
    pool: MAX
    kernel_size: 3
    stride: 1
    pad: 1
  }
}
layer {
  name: "inception_4b/pool_proj"
  type: "Convolution"
  bottom: "inception_4b/pool"
  top: "inception_4b/pool_proj"
  param {
    lr_mult: 1
    decay_mult: 1
  }
  param {
    lr_mult: 2
    decay_mult: 0
  }
  convolution_param {
    num_output: 64
    kernel_size: 1
    weight_filler {
      type: "xavier"
      std: 0.1
    }
    bias_filler {
      type: "constant"
      value: 0.2
    }
  }
}
layer {
  name: "inception_4b/relu_pool_proj"
  type: "ReLU"
  bottom: "inception_4b/pool_proj"
  top: "inception_4b/pool_proj"
}
layer {
  name: "inception_4b/output"
  type: "Concat"
  bottom: "inception_4b/1x1"
  bottom: "inception_4b/3x3"
  bottom: "inception_4b/5x5"
  bottom: "inception_4b/pool_proj"
  top: "inception_4b/output"
}
layer {
  name: "inception_4c/1x1"
  type: "Convolution"
  bottom: "inception_4b/output"
  top: "inception_4c/1x1"
  param {
    lr_mult: 1
    decay_mult: 1
  }
  param {
    lr_mult: 2
    decay_mult: 0
  }
  convolution_param {
    num_output: 128
    kernel_size: 1
    weight_filler {
      type: "xavier"
      std: 0.03
    }
    bias_filler {
      type: "constant"
      value: 0.2
    }
  }
}
layer {
  name: "inception_4c/relu_1x1"
  type: "ReLU"
  bottom: "inception_4c/1x1"
  top: "inception_4c/1x1"
}
layer {
  name: "inception_4c/3x3_reduce"
  type: "Convolution"
  bottom: "inception_4b/output"
  top: "inception_4c/3x3_reduce"
  param {
    lr_mult: 1
    decay_mult: 1
  }
  param {
    lr_mult: 2
    decay_mult: 0
  }
  convolution_param {
    num_output: 128
    kernel_size: 1
    weight_filler {
      type: "xavier"
      std: 0.09
    }
    bias_filler {
      type: "constant"
      value: 0.2
    }
  }
}
layer {
  name: "inception_4c/relu_3x3_reduce"
  type: "ReLU"
  bottom: "inception_4c/3x3_reduce"
  top: "inception_4c/3x3_reduce"
}
layer {
  name: "inception_4c/3x3"
  type: "Convolution"
  bottom: "inception_4c/3x3_reduce"
  top: "inception_4c/3x3"
  param {
    lr_mult: 1
    decay_mult: 1
  }
  param {
    lr_mult: 2
    decay_mult: 0
  }
  convolution_param {
    num_output: 256
    pad: 1
    kernel_size: 3
    weight_filler {
      type: "xavier"
      std: 0.03
    }
    bias_filler {
      type: "constant"
      value: 0.2
    }
  }
}
layer {
  name: "inception_4c/relu_3x3"
  type: "ReLU"
  bottom: "inception_4c/3x3"
  top: "inception_4c/3x3"
}
layer {
  name: "inception_4c/5x5_reduce"
  type: "Convolution"
  bottom: "inception_4b/output"
  top: "inception_4c/5x5_reduce"
  param {
    lr_mult: 1
    decay_mult: 1
  }
  param {
    lr_mult: 2
    decay_mult: 0
  }
  convolution_param {
    num_output: 24
    kernel_size: 1
    weight_filler {
      type: "xavier"
      std: 0.2
    }
    bias_filler {
      type: "constant"
      value: 0.2
    }
  }
}
layer {
  name: "inception_4c/relu_5x5_reduce"
  type: "ReLU"
  bottom: "inception_4c/5x5_reduce"
  top: "inception_4c/5x5_reduce"
}
layer {
  name: "inception_4c/5x5"
  type: "Convolution"
  bottom: "inception_4c/5x5_reduce"
  top: "inception_4c/5x5"
  param {
    lr_mult: 1
    decay_mult: 1
  }
  param {
    lr_mult: 2
    decay_mult: 0
  }
  convolution_param {
    num_output: 64
    pad: 2
    kernel_size: 5
    weight_filler {
      type: "xavier"
      std: 0.03
    }
    bias_filler {
      type: "constant"
      value: 0.2
    }
  }
}
layer {
  name: "inception_4c/relu_5x5"
  type: "ReLU"
  bottom: "inception_4c/5x5"
  top: "inception_4c/5x5"
}
layer {
  name: "inception_4c/pool"
  type: "Pooling"
  bottom: "inception_4b/output"
  top: "inception_4c/pool"
  pooling_param {
    pool: MAX
    kernel_size: 3
    stride: 1
    pad: 1
  }
}
layer {
  name: "inception_4c/pool_proj"
  type: "Convolution"
  bottom: "inception_4c/pool"
  top: "inception_4c/pool_proj"
  param {
    lr_mult: 1
    decay_mult: 1
  }
  param {
    lr_mult: 2
    decay_mult: 0
  }
  convolution_param {
    num_output: 64
    kernel_size: 1
    weight_filler {
      type: "xavier"
      std: 0.1
    }
    bias_filler {
      type: "constant"
      value: 0.2
    }
  }
}
layer {
  name: "inception_4c/relu_pool_proj"
  type: "ReLU"
  bottom: "inception_4c/pool_proj"
  top: "inception_4c/pool_proj"
}
layer {
  name: "inception_4c/output"
  type: "Concat"
  bottom: "inception_4c/1x1"
  bottom: "inception_4c/3x3"
  bottom: "inception_4c/5x5"
  bottom: "inception_4c/pool_proj"
  top: "inception_4c/output"
}
layer {
  name: "inception_4d/1x1"
  type: "Convolution"
  bottom: "inception_4c/output"
  top: "inception_4d/1x1"
  param {
    lr_mult: 1
    decay_mult: 1
  }
  param {
    lr_mult: 2
    decay_mult: 0
  }
  convolution_param {
    num_output: 112
    kernel_size: 1
    weight_filler {
      type: "xavier"
      std: 0.03
    }
    bias_filler {
      type: "constant"
      value: 0.2
    }
  }
}
layer {
  name: "inception_4d/relu_1x1"
  type: "ReLU"
  bottom: "inception_4d/1x1"
  top: "inception_4d/1x1"
}
layer {
  name: "inception_4d/3x3_reduce"
  type: "Convolution"
  bottom: "inception_4c/output"
  top: "inception_4d/3x3_reduce"
  param {
    lr_mult: 1
    decay_mult: 1
  }
  param {
    lr_mult: 2
    decay_mult: 0
  }
  convolution_param {
    num_output: 144
    kernel_size: 1
    weight_filler {
      type: "xavier"
      std: 0.09
    }
    bias_filler {
      type: "constant"
      value: 0.2
    }
  }
}
layer {
  name: "inception_4d/relu_3x3_reduce"
  type: "ReLU"
  bottom: "inception_4d/3x3_reduce"
  top: "inception_4d/3x3_reduce"
}
layer {
  name: "inception_4d/3x3"
  type: "Convolution"
  bottom: "inception_4d/3x3_reduce"
  top: "inception_4d/3x3"
  param {
    lr_mult: 1
    decay_mult: 1
  }
  param {
    lr_mult: 2
    decay_mult: 0
  }
  convolution_param {
    num_output: 288
    pad: 1
    kernel_size: 3
    weight_filler {
      type: "xavier"
      std: 0.03
    }
    bias_filler {
      type: "constant"
      value: 0.2
    }
  }
}
layer {
  name: "inception_4d/relu_3x3"
  type: "ReLU"
  bottom: "inception_4d/3x3"
  top: "inception_4d/3x3"
}
layer {
  name: "inception_4d/5x5_reduce"
  type: "Convolution"
  bottom: "inception_4c/output"
  top: "inception_4d/5x5_reduce"
  param {
    lr_mult: 1
    decay_mult: 1
  }
  param {
    lr_mult: 2
    decay_mult: 0
  }
  convolution_param {
    num_output: 32
    kernel_size: 1
    weight_filler {
      type: "xavier"
      std: 0.2
    }
    bias_filler {
      type: "constant"
      value: 0.2
    }
  }
}
layer {
  name: "inception_4d/relu_5x5_reduce"
  type: "ReLU"
  bottom: "inception_4d/5x5_reduce"
  top: "inception_4d/5x5_reduce"
}
layer {
  name: "inception_4d/5x5"
  type: "Convolution"
  bottom: "inception_4d/5x5_reduce"
  top: "inception_4d/5x5"
  param {
    lr_mult: 1
    decay_mult: 1
  }
  param {
    lr_mult: 2
    decay_mult: 0
  }
  convolution_param {
    num_output: 64
    pad: 2
    kernel_size: 5
    weight_filler {
      type: "xavier"
      std: 0.03
    }
    bias_filler {
      type: "constant"
      value: 0.2
    }
  }
}
layer {
  name: "inception_4d/relu_5x5"
  type: "ReLU"
  bottom: "inception_4d/5x5"
  top: "inception_4d/5x5"
}
layer {
  name: "inception_4d/pool"
  type: "Pooling"
  bottom: "inception_4c/output"
  top: "inception_4d/pool"
  pooling_param {
    pool: MAX
    kernel_size: 3
    stride: 1
    pad: 1
  }
}
layer {
  name: "inception_4d/pool_proj"
  type: "Convolution"
  bottom: "inception_4d/pool"
  top: "inception_4d/pool_proj"
  param {
    lr_mult: 1
    decay_mult: 1
  }
  param {
    lr_mult: 2
    decay_mult: 0
  }
  convolution_param {
    num_output: 64
    kernel_size: 1
    weight_filler {
      type: "xavier"
      std: 0.1
    }
    bias_filler {
      type: "constant"
      value: 0.2
    }
  }
}
layer {
  name: "inception_4d/relu_pool_proj"
  type: "ReLU"
  bottom: "inception_4d/pool_proj"
  top: "inception_4d/pool_proj"
}
layer {
  name: "inception_4d/output"
  type: "Concat"
  bottom: "inception_4d/1x1"
  bottom: "inception_4d/3x3"
  bottom: "inception_4d/5x5"
  bottom: "inception_4d/pool_proj"
  top: "inception_4d/output"
}
layer {
  name: "loss2/ave_pool"
  type: "Pooling"
  bottom: "inception_4d/output"
  top: "loss2/ave_pool"
  pooling_param {
    pool: AVE
    kernel_size: 5
    stride: 3
  }
}
layer {
  name: "loss2/conv"
  type: "Convolution"
  bottom: "loss2/ave_pool"
  top: "loss2/conv"
  param {
    lr_mult: 1
    decay_mult: 1
  }
  param {
    lr_mult: 2
    decay_mult: 0
  }
  convolution_param {
    num_output: 128
    kernel_size: 1
    weight_filler {
      type: "xavier"
      std: 0.08
    }
    bias_filler {
      type: "constant"
      value: 0.2
    }
  }
}
layer {
  name: "loss2/relu_conv"
  type: "ReLU"
  bottom: "loss2/conv"
  top: "loss2/conv"
}
layer {
  name: "loss2/fc"
  type: "InnerProduct"
  bottom: "loss2/conv"
  top: "loss2/fc"
  param {
    lr_mult: 1
    decay_mult: 1
  }
  param {
    lr_mult: 2
    decay_mult: 0
  }
  inner_product_param {
    num_output: 1024
    weight_filler {
      type: "xavier"
      std: 0.02
    }
    bias_filler {
      type: "constant"
      value: 0.2
    }
  }
}
layer {
  name: "loss2/relu_fc"
  type: "ReLU"
  bottom: "loss2/fc"
  top: "loss2/fc"
}
layer {
  name: "loss2/drop_fc"
  type: "Dropout"
  bottom: "loss2/fc"
  top: "loss2/fc"
  dropout_param {
    dropout_ratio: 0.7
  }
}
layer {
  name: "loss2/classifier"
  type: "InnerProduct"
  bottom: "loss2/fc"
  top: "loss2/classifier"
  param {
    lr_mult: 1
    decay_mult: 1
  }
  param {
    lr_mult: 2
    decay_mult: 0
  }
  inner_product_param {
    num_output: 2
    weight_filler {
      type: "xavier"
      std: 0.0009765625
    }
    bias_filler {
      type: "constant"
      value: 0
    }
  }
}
layer {
  name: "loss2/loss"
  type: "SoftmaxWithLoss"
  bottom: "loss2/classifier"
  bottom: "label"
  top: "loss2/loss1"
  loss_weight: 0.3
}
layer {
  name: "inception_4e/1x1"
  type: "Convolution"
  bottom: "inception_4d/output"
  top: "inception_4e/1x1"
  param {
    lr_mult: 1
    decay_mult: 1
  }
  param {
    lr_mult: 2
    decay_mult: 0
  }
  convolution_param {
    num_output: 256
    kernel_size: 1
    weight_filler {
      type: "xavier"
      std: 0.03
    }
    bias_filler {
      type: "constant"
      value: 0.2
    }
  }
}
layer {
  name: "inception_4e/relu_1x1"
  type: "ReLU"
  bottom: "inception_4e/1x1"
  top: "inception_4e/1x1"
}
layer {
  name: "inception_4e/3x3_reduce"
  type: "Convolution"
  bottom: "inception_4d/output"
  top: "inception_4e/3x3_reduce"
  param {
    lr_mult: 1
    decay_mult: 1
  }
  param {
    lr_mult: 2
    decay_mult: 0
  }
  convolution_param {
    num_output: 160
    kernel_size: 1
    weight_filler {
      type: "xavier"
      std: 0.09
    }
    bias_filler {
      type: "constant"
      value: 0.2
    }
  }
}
layer {
  name: "inception_4e/relu_3x3_reduce"
  type: "ReLU"
  bottom: "inception_4e/3x3_reduce"
  top: "inception_4e/3x3_reduce"
}
layer {
  name: "inception_4e/3x3"
  type: "Convolution"
  bottom: "inception_4e/3x3_reduce"
  top: "inception_4e/3x3"
  param {
    lr_mult: 1
    decay_mult: 1
  }
  param {
    lr_mult: 2
    decay_mult: 0
  }
  convolution_param {
    num_output: 320
    pad: 1
    kernel_size: 3
    weight_filler {
      type: "xavier"
      std: 0.03
    }
    bias_filler {
      type: "constant"
      value: 0.2
    }
  }
}
layer {
  name: "inception_4e/relu_3x3"
  type: "ReLU"
  bottom: "inception_4e/3x3"
  top: "inception_4e/3x3"
}
layer {
  name: "inception_4e/5x5_reduce"
  type: "Convolution"
  bottom: "inception_4d/output"
  top: "inception_4e/5x5_reduce"
  param {
    lr_mult: 1
    decay_mult: 1
  }
  param {
    lr_mult: 2
    decay_mult: 0
  }
  convolution_param {
    num_output: 32
    kernel_size: 1
    weight_filler {
      type: "xavier"
      std: 0.2
    }
    bias_filler {
      type: "constant"
      value: 0.2
    }
  }
}
layer {
  name: "inception_4e/relu_5x5_reduce"
  type: "ReLU"
  bottom: "
I0509 21:30:36.363093 16576 layer_factory.hpp:74] Creating layer data
I0509 21:30:36.363124 16576 net.cpp:76] Creating Layer data
I0509 21:30:36.363137 16576 net.cpp:334] data -> data
I0509 21:30:36.363167 16576 net.cpp:334] data -> label
I0509 21:30:36.363186 16576 net.cpp:105] Setting up data
I0509 21:30:36.363312 16576 db.cpp:34] Opened lmdb train_lmdb
I0509 21:30:36.363606 16576 data_layer.cpp:67] output data size: 32,3,224,224
I0509 21:30:36.370338 16576 net.cpp:112] Top shape: 32 3 224 224 (4816896)
I0509 21:30:36.370362 16576 net.cpp:112] Top shape: 32 1 1 1 (32)
I0509 21:30:36.370371 16576 layer_factory.hpp:74] Creating layer label_data_1_split
I0509 21:30:36.370388 16576 net.cpp:76] Creating Layer label_data_1_split
I0509 21:30:36.370396 16576 net.cpp:372] label_data_1_split <- label
I0509 21:30:36.370414 16576 net.cpp:334] label_data_1_split -> label_data_1_split_0
I0509 21:30:36.370430 16576 net.cpp:334] label_data_1_split -> label_data_1_split_1
I0509 21:30:36.370440 16576 net.cpp:334] label_data_1_split -> label_data_1_split_2
I0509 21:30:36.370448 16576 net.cpp:105] Setting up label_data_1_split
I0509 21:30:36.370458 16576 net.cpp:112] Top shape: 32 1 1 1 (32)
I0509 21:30:36.370463 16576 net.cpp:112] Top shape: 32 1 1 1 (32)
I0509 21:30:36.370470 16576 net.cpp:112] Top shape: 32 1 1 1 (32)
I0509 21:30:36.370475 16576 layer_factory.hpp:74] Creating layer conv1/7x7_s2
I0509 21:30:36.370491 16576 net.cpp:76] Creating Layer conv1/7x7_s2
I0509 21:30:36.370496 16576 net.cpp:372] conv1/7x7_s2 <- data
I0509 21:30:36.370506 16576 net.cpp:334] conv1/7x7_s2 -> conv1/7x7_s2
I0509 21:30:36.370517 16576 net.cpp:105] Setting up conv1/7x7_s2
I0509 21:30:36.370658 16576 net.cpp:112] Top shape: 32 64 112 112 (25690112)
I0509 21:30:36.370728 16576 layer_factory.hpp:74] Creating layer conv1/relu_7x7
I0509 21:30:36.370745 16576 net.cpp:76] Creating Layer conv1/relu_7x7
I0509 21:30:36.370751 16576 net.cpp:372] conv1/relu_7x7 <- conv1/7x7_s2
I0509 21:30:36.370759 16576 net.cpp:323] conv1/relu_7x7 -> conv1/7x7_s2 (in-place)
I0509 21:30:36.370769 16576 net.cpp:105] Setting up conv1/relu_7x7
I0509 21:30:36.370777 16576 net.cpp:112] Top shape: 32 64 112 112 (25690112)
I0509 21:30:36.370784 16576 layer_factory.hpp:74] Creating layer pool1/3x3_s2
I0509 21:30:36.370793 16576 net.cpp:76] Creating Layer pool1/3x3_s2
I0509 21:30:36.370798 16576 net.cpp:372] pool1/3x3_s2 <- conv1/7x7_s2
I0509 21:30:36.370806 16576 net.cpp:334] pool1/3x3_s2 -> pool1/3x3_s2
I0509 21:30:36.370815 16576 net.cpp:105] Setting up pool1/3x3_s2
I0509 21:30:36.370829 16576 net.cpp:112] Top shape: 32 64 56 56 (6422528)
I0509 21:30:36.370836 16576 layer_factory.hpp:74] Creating layer pool1/norm1
I0509 21:30:36.370847 16576 net.cpp:76] Creating Layer pool1/norm1
I0509 21:30:36.370853 16576 net.cpp:372] pool1/norm1 <- pool1/3x3_s2
I0509 21:30:36.370861 16576 net.cpp:334] pool1/norm1 -> pool1/norm1
I0509 21:30:36.370869 16576 net.cpp:105] Setting up pool1/norm1
I0509 21:30:36.370877 16576 net.cpp:112] Top shape: 32 64 56 56 (6422528)
I0509 21:30:36.370882 16576 layer_factory.hpp:74] Creating layer conv2/3x3_reduce
I0509 21:30:36.370890 16576 net.cpp:76] Creating Layer conv2/3x3_reduce
I0509 21:30:36.370896 16576 net.cpp:372] conv2/3x3_reduce <- pool1/norm1
I0509 21:30:36.370904 16576 net.cpp:334] conv2/3x3_reduce -> conv2/3x3_reduce
I0509 21:30:36.370915 16576 net.cpp:105] Setting up conv2/3x3_reduce
I0509 21:30:36.370983 16576 net.cpp:112] Top shape: 32 64 56 56 (6422528)
I0509 21:30:36.371000 16576 layer_factory.hpp:74] Creating layer conv2/relu_3x3_reduce
I0509 21:30:36.371008 16576 net.cpp:76] Creating Layer conv2/relu_3x3_reduce
I0509 21:30:36.371013 16576 net.cpp:372] conv2/relu_3x3_reduce <- conv2/3x3_reduce
I0509 21:30:36.371021 16576 net.cpp:323] conv2/relu_3x3_reduce -> conv2/3x3_reduce (in-place)
I0509 21:30:36.371029 16576 net.cpp:105] Setting up conv2/relu_3x3_reduce
I0509 21:30:36.371036 16576 net.cpp:112] Top shape: 32 64 56 56 (6422528)
I0509 21:30:36.371040 16576 layer_factory.hpp:74] Creating layer conv2/3x3
I0509 21:30:36.371050 16576 net.cpp:76] Creating Layer conv2/3x3
I0509 21:30:36.371055 16576 net.cpp:372] conv2/3x3 <- conv2/3x3_reduce
I0509 21:30:36.371064 16576 net.cpp:334] conv2/3x3 -> conv2/3x3
I0509 21:30:36.371073 16576 net.cpp:105] Setting up conv2/3x3
I0509 21:30:36.372279 16576 net.cpp:112] Top shape: 32 192 56 56 (19267584)
I0509 21:30:36.372308 16576 layer_factory.hpp:74] Creating layer conv2/relu_3x3
I0509 21:30:36.372319 16576 net.cpp:76] Creating Layer conv2/relu_3x3
I0509 21:30:36.372325 16576 net.cpp:372] conv2/relu_3x3 <- conv2/3x3
I0509 21:30:36.372334 16576 net.cpp:323] conv2/relu_3x3 -> conv2/3x3 (in-place)
I0509 21:30:36.372342 16576 net.cpp:105] Setting up conv2/relu_3x3
I0509 21:30:36.372349 16576 net.cpp:112] Top shape: 32 192 56 56 (19267584)
I0509 21:30:36.372354 16576 layer_factory.hpp:74] Creating layer conv2/norm2
I0509 21:30:36.372364 16576 net.cpp:76] Creating Layer conv2/norm2
I0509 21:30:36.372370 16576 net.cpp:372] conv2/norm2 <- conv2/3x3
I0509 21:30:36.372377 16576 net.cpp:334] conv2/norm2 -> conv2/norm2
I0509 21:30:36.372386 16576 net.cpp:105] Setting up conv2/norm2
I0509 21:30:36.372392 16576 net.cpp:112] Top shape: 32 192 56 56 (19267584)
I0509 21:30:36.372398 16576 layer_factory.hpp:74] Creating layer pool2/3x3_s2
I0509 21:30:36.372407 16576 net.cpp:76] Creating Layer pool2/3x3_s2
I0509 21:30:36.372413 16576 net.cpp:372] pool2/3x3_s2 <- conv2/norm2
I0509 21:30:36.372421 16576 net.cpp:334] pool2/3x3_s2 -> pool2/3x3_s2
I0509 21:30:36.372428 16576 net.cpp:105] Setting up pool2/3x3_s2
I0509 21:30:36.372436 16576 net.cpp:112] Top shape: 32 192 28 28 (4816896)
I0509 21:30:36.372441 16576 layer_factory.hpp:74] Creating layer pool2/3x3_s2_pool2/3x3_s2_0_split
I0509 21:30:36.372448 16576 net.cpp:76] Creating Layer pool2/3x3_s2_pool2/3x3_s2_0_split
I0509 21:30:36.372473 16576 net.cpp:372] pool2/3x3_s2_pool2/3x3_s2_0_split <- pool2/3x3_s2
I0509 21:30:36.372483 16576 net.cpp:334] pool2/3x3_s2_pool2/3x3_s2_0_split -> pool2/3x3_s2_pool2/3x3_s2_0_split_0
I0509 21:30:36.372503 16576 net.cpp:334] pool2/3x3_s2_pool2/3x3_s2_0_split -> pool2/3x3_s2_pool2/3x3_s2_0_split_1
I0509 21:30:36.372514 16576 net.cpp:334] pool2/3x3_s2_pool2/3x3_s2_0_split -> pool2/3x3_s2_pool2/3x3_s2_0_split_2
I0509 21:30:36.372521 16576 net.cpp:334] pool2/3x3_s2_pool2/3x3_s2_0_split -> pool2/3x3_s2_pool2/3x3_s2_0_split_3
I0509 21:30:36.372529 16576 net.cpp:105] Setting up pool2/3x3_s2_pool2/3x3_s2_0_split
I0509 21:30:36.372535 16576 net.cpp:112] Top shape: 32 192 28 28 (4816896)
I0509 21:30:36.372541 16576 net.cpp:112] Top shape: 32 192 28 28 (4816896)
I0509 21:30:36.372546 16576 net.cpp:112] Top shape: 32 192 28 28 (4816896)
I0509 21:30:36.372550 16576 net.cpp:112] Top shape: 32 192 28 28 (4816896)
I0509 21:30:36.372556 16576 layer_factory.hpp:74] Creating layer inception_3a/1x1
I0509 21:30:36.372580 16576 net.cpp:76] Creating Layer inception_3a/1x1
I0509 21:30:36.372586 16576 net.cpp:372] inception_3a/1x1 <- pool2/3x3_s2_pool2/3x3_s2_0_split_0
I0509 21:30:36.372594 16576 net.cpp:334] inception_3a/1x1 -> inception_3a/1x1
I0509 21:30:36.372606 16576 net.cpp:105] Setting up inception_3a/1x1
I0509 21:30:36.372933 16576 net.cpp:112] Top shape: 32 64 28 28 (1605632)
I0509 21:30:36.372961 16576 layer_factory.hpp:74] Creating layer inception_3a/relu_1x1
I0509 21:30:36.372980 16576 net.cpp:76] Creating Layer inception_3a/relu_1x1
I0509 21:30:36.372992 16576 net.cpp:372] inception_3a/relu_1x1 <- inception_3a/1x1
I0509 21:30:36.373004 16576 net.cpp:323] inception_3a/relu_1x1 -> inception_3a/1x1 (in-place)
I0509 21:30:36.373018 16576 net.cpp:105] Setting up inception_3a/relu_1x1
I0509 21:30:36.373028 16576 net.cpp:112] Top shape: 32 64 28 28 (1605632)
I0509 21:30:36.373038 16576 layer_factory.hpp:74] Creating layer inception_3a/3x3_reduce
I0509 21:30:36.373055 16576 net.cpp:76] Creating Layer inception_3a/3x3_reduce
I0509 21:30:36.373066 16576 net.cpp:372] inception_3a/3x3_reduce <- pool2/3x3_s2_pool2/3x3_s2_0_split_1
I0509 21:30:36.373080 16576 net.cpp:334] inception_3a/3x3_reduce -> inception_3a/3x3_reduce
I0509 21:30:36.373095 16576 net.cpp:105] Setting up inception_3a/3x3_reduce
I0509 21:30:36.373482 16576 net.cpp:112] Top shape: 32 96 28 28 (2408448)
I0509 21:30:36.373507 16576 layer_factory.hpp:74] Creating layer inception_3a/relu_3x3_reduce
I0509 21:30:36.373529 16576 net.cpp:76] Creating Layer inception_3a/relu_3x3_reduce
I0509 21:30:36.373538 16576 net.cpp:372] inception_3a/relu_3x3_reduce <- inception_3a/3x3_reduce
I0509 21:30:36.373545 16576 net.cpp:323] inception_3a/relu_3x3_reduce -> inception_3a/3x3_reduce (in-place)
I0509 21:30:36.373553 16576 net.cpp:105] Setting up inception_3a/relu_3x3_reduce
I0509 21:30:36.373559 16576 net.cpp:112] Top shape: 32 96 28 28 (2408448)
I0509 21:30:36.373564 16576 layer_factory.hpp:74] Creating layer inception_3a/3x3
I0509 21:30:36.373576 16576 net.cpp:76] Creating Layer inception_3a/3x3
I0509 21:30:36.373585 16576 net.cpp:372] inception_3a/3x3 <- inception_3a/3x3_reduce
I0509 21:30:36.373594 16576 net.cpp:334] inception_3a/3x3 -> inception_3a/3x3
I0509 21:30:36.373602 16576 net.cpp:105] Setting up inception_3a/3x3
I0509 21:30:36.374586 16576 net.cpp:112] Top shape: 32 128 28 28 (3211264)
I0509 21:30:36.374604 16576 layer_factory.hpp:74] Creating layer inception_3a/relu_3x3
I0509 21:30:36.374614 16576 net.cpp:76] Creating Layer inception_3a/relu_3x3
I0509 21:30:36.374619 16576 net.cpp:372] inception_3a/relu_3x3 <- inception_3a/3x3
I0509 21:30:36.374629 16576 net.cpp:323] inception_3a/relu_3x3 -> inception_3a/3x3 (in-place)
I0509 21:30:36.374639 16576 net.cpp:105] Setting up inception_3a/relu_3x3
I0509 21:30:36.374644 16576 net.cpp:112] Top shape: 32 128 28 28 (3211264)
I0509 21:30:36.374650 16576 layer_factory.hpp:74] Creating layer inception_3a/5x5_reduce
I0509 21:30:36.374658 16576 net.cpp:76] Creating Layer inception_3a/5x5_reduce
I0509 21:30:36.374680 16576 net.cpp:372] inception_3a/5x5_reduce <- pool2/3x3_s2_pool2/3x3_s2_0_split_2
I0509 21:30:36.374692 16576 net.cpp:334] inception_3a/5x5_reduce -> inception_3a/5x5_reduce
I0509 21:30:36.374701 16576 net.cpp:105] Setting up inception_3a/5x5_reduce
I0509 21:30:36.374754 16576 net.cpp:112] Top shape: 32 16 28 28 (401408)
I0509 21:30:36.374765 16576 layer_factory.hpp:74] Creating layer inception_3a/relu_5x5_reduce
I0509 21:30:36.374773 16576 net.cpp:76] Creating Layer inception_3a/relu_5x5_reduce
I0509 21:30:36.374779 16576 net.cpp:372] inception_3a/relu_5x5_reduce <- inception_3a/5x5_reduce
I0509 21:30:36.374786 16576 net.cpp:323] inception_3a/relu_5x5_reduce -> inception_3a/5x5_reduce (in-place)
I0509 21:30:36.374794 16576 net.cpp:105] Setting up inception_3a/relu_5x5_reduce
I0509 21:30:36.374799 16576 net.cpp:112] Top shape: 32 16 28 28 (401408)
I0509 21:30:36.374804 16576 layer_factory.hpp:74] Creating layer inception_3a/5x5
I0509 21:30:36.374814 16576 net.cpp:76] Creating Layer inception_3a/5x5
I0509 21:30:36.374820 16576 net.cpp:372] inception_3a/5x5 <- inception_3a/5x5_reduce
I0509 21:30:36.374835 16576 net.cpp:334] inception_3a/5x5 -> inception_3a/5x5
I0509 21:30:36.374845 16576 net.cpp:105] Setting up inception_3a/5x5
I0509 21:30:36.374966 16576 net.cpp:112] Top shape: 32 32 28 28 (802816)
I0509 21:30:36.374979 16576 layer_factory.hpp:74] Creating layer inception_3a/relu_5x5
I0509 21:30:36.374994 16576 net.cpp:76] Creating Layer inception_3a/relu_5x5
I0509 21:30:36.375000 16576 net.cpp:372] inception_3a/relu_5x5 <- inception_3a/5x5
I0509 21:30:36.375007 16576 net.cpp:323] inception_3a/relu_5x5 -> inception_3a/5x5 (in-place)
I0509 21:30:36.375015 16576 net.cpp:105] Setting up inception_3a/relu_5x5
I0509 21:30:36.375020 16576 net.cpp:112] Top shape: 32 32 28 28 (802816)
I0509 21:30:36.375025 16576 layer_factory.hpp:74] Creating layer inception_3a/pool
I0509 21:30:36.375033 16576 net.cpp:76] Creating Layer inception_3a/pool
I0509 21:30:36.375038 16576 net.cpp:372] inception_3a/pool <- pool2/3x3_s2_pool2/3x3_s2_0_split_3
I0509 21:30:36.375047 16576 net.cpp:334] inception_3a/pool -> inception_3a/pool
I0509 21:30:36.375056 16576 net.cpp:105] Setting up inception_3a/pool
I0509 21:30:36.375063 16576 net.cpp:112] Top shape: 32 192 28 28 (4816896)
I0509 21:30:36.375069 16576 layer_factory.hpp:74] Creating layer inception_3a/pool_proj
I0509 21:30:36.375077 16576 net.cpp:76] Creating Layer inception_3a/pool_proj
I0509 21:30:36.375083 16576 net.cpp:372] inception_3a/pool_proj <- inception_3a/pool
I0509 21:30:36.375095 16576 net.cpp:334] inception_3a/pool_proj -> inception_3a/pool_proj
I0509 21:30:36.375104 16576 net.cpp:105] Setting up inception_3a/pool_proj
I0509 21:30:36.375253 16576 net.cpp:112] Top shape: 32 32 28 28 (802816)
I0509 21:30:36.375279 16576 layer_factory.hpp:74] Creating layer inception_3a/relu_pool_proj
I0509 21:30:36.375289 16576 net.cpp:76] Creating Layer inception_3a/relu_pool_proj
I0509 21:30:36.375296 16576 net.cpp:372] inception_3a/relu_pool_proj <- inception_3a/pool_proj
I0509 21:30:36.375304 16576 net.cpp:323] inception_3a/relu_pool_proj -> inception_3a/pool_proj (in-place)
I0509 21:30:36.375313 16576 net.cpp:105] Setting up inception_3a/relu_pool_proj
I0509 21:30:36.375319 16576 net.cpp:112] Top shape: 32 32 28 28 (802816)
I0509 21:30:36.375324 16576 layer_factory.hpp:74] Creating layer inception_3a/output
I0509 21:30:36.375334 16576 net.cpp:76] Creating Layer inception_3a/output
I0509 21:30:36.375340 16576 net.cpp:372] inception_3a/output <- inception_3a/1x1
I0509 21:30:36.375347 16576 net.cpp:372] inception_3a/output <- inception_3a/3x3
I0509 21:30:36.375354 16576 net.cpp:372] inception_3a/output <- inception_3a/5x5
I0509 21:30:36.375360 16576 net.cpp:372] inception_3a/output <- inception_3a/pool_proj
I0509 21:30:36.375366 16576 net.cpp:334] inception_3a/output -> inception_3a/output
I0509 21:30:36.375375 16576 net.cpp:105] Setting up inception_3a/output
I0509 21:30:36.375383 16576 net.cpp:112] Top shape: 32 256 28 28 (6422528)
I0509 21:30:36.375390 16576 layer_factory.hpp:74] Creating layer inception_3a/output_inception_3a/output_0_split
I0509 21:30:36.375416 16576 net.cpp:76] Creating Layer inception_3a/output_inception_3a/output_0_split
I0509 21:30:36.375422 16576 net.cpp:372] inception_3a/output_inception_3a/output_0_split <- inception_3a/output
I0509 21:30:36.375435 16576 net.cpp:334] inception_3a/output_inception_3a/output_0_split -> inception_3a/output_inception_3a/output_0_split_0
I0509 21:30:36.375447 16576 net.cpp:334] inception_3a/output_inception_3a/output_0_split -> inception_3a/output_inception_3a/output_0_split_1
I0509 21:30:36.375455 16576 net.cpp:334] inception_3a/output_inception_3a/output_0_split -> inception_3a/output_inception_3a/output_0_split_2
I0509 21:30:36.375464 16576 net.cpp:334] inception_3a/output_inception_3a/output_0_split -> inception_3a/output_inception_3a/output_0_split_3
I0509 21:30:36.375473 16576 net.cpp:105] Setting up inception_3a/output_inception_3a/output_0_split
I0509 21:30:36.375479 16576 net.cpp:112] Top shape: 32 256 28 28 (6422528)
I0509 21:30:36.375484 16576 net.cpp:112] Top shape: 32 256 28 28 (6422528)
I0509 21:30:36.375489 16576 net.cpp:112] Top shape: 32 256 28 28 (6422528)
I0509 21:30:36.375494 16576 net.cpp:112] Top shape: 32 256 28 28 (6422528)
I0509 21:30:36.375499 16576 layer_factory.hpp:74] Creating layer inception_3b/1x1
I0509 21:30:36.375512 16576 net.cpp:76] Creating Layer inception_3b/1x1
I0509 21:30:36.375519 16576 net.cpp:372] inception_3b/1x1 <- inception_3a/output_inception_3a/output_0_split_0
I0509 21:30:36.375526 16576 net.cpp:334] inception_3b/1x1 -> inception_3b/1x1
I0509 21:30:36.375535 16576 net.cpp:105] Setting up inception_3b/1x1
I0509 21:30:36.376111 16576 net.cpp:112] Top shape: 32 128 28 28 (3211264)
I0509 21:30:36.376128 16576 layer_factory.hpp:74] Creating layer inception_3b/relu_1x1
I0509 21:30:36.376137 16576 net.cpp:76] Creating Layer inception_3b/relu_1x1
I0509 21:30:36.376143 16576 net.cpp:372] inception_3b/relu_1x1 <- inception_3b/1x1
I0509 21:30:36.376150 16576 net.cpp:323] inception_3b/relu_1x1 -> inception_3b/1x1 (in-place)
I0509 21:30:36.376158 16576 net.cpp:105] Setting up inception_3b/relu_1x1
I0509 21:30:36.376164 16576 net.cpp:112] Top shape: 32 128 28 28 (3211264)
I0509 21:30:36.376170 16576 layer_factory.hpp:74] Creating layer inception_3b/3x3_reduce
I0509 21:30:36.376181 16576 net.cpp:76] Creating Layer inception_3b/3x3_reduce
I0509 21:30:36.376188 16576 net.cpp:372] inception_3b/3x3_reduce <- inception_3a/output_inception_3a/output_0_split_1
I0509 21:30:36.376195 16576 net.cpp:334] inception_3b/3x3_reduce -> inception_3b/3x3_reduce
I0509 21:30:36.376204 16576 net.cpp:105] Setting up inception_3b/3x3_reduce
I0509 21:30:36.376508 16576 net.cpp:112] Top shape: 32 128 28 28 (3211264)
I0509 21:30:36.376521 16576 layer_factory.hpp:74] Creating layer inception_3b/relu_3x3_reduce
I0509 21:30:36.376533 16576 net.cpp:76] Creating Layer inception_3b/relu_3x3_reduce
I0509 21:30:36.376539 16576 net.cpp:372] inception_3b/relu_3x3_reduce <- inception_3b/3x3_reduce
I0509 21:30:36.376548 16576 net.cpp:323] inception_3b/relu_3x3_reduce -> inception_3b/3x3_reduce (in-place)
I0509 21:30:36.376554 16576 net.cpp:105] Setting up inception_3b/relu_3x3_reduce
I0509 21:30:36.376560 16576 net.cpp:112] Top shape: 32 128 28 28 (3211264)
I0509 21:30:36.376565 16576 layer_factory.hpp:74] Creating layer inception_3b/3x3
I0509 21:30:36.376579 16576 net.cpp:76] Creating Layer inception_3b/3x3
I0509 21:30:36.376586 16576 net.cpp:372] inception_3b/3x3 <- inception_3b/3x3_reduce
I0509 21:30:36.376595 16576 net.cpp:334] inception_3b/3x3 -> inception_3b/3x3
I0509 21:30:36.376603 16576 net.cpp:105] Setting up inception_3b/3x3
I0509 21:30:36.378871 16576 net.cpp:112] Top shape: 32 192 28 28 (4816896)
I0509 21:30:36.378888 16576 layer_factory.hpp:74] Creating layer inception_3b/relu_3x3
I0509 21:30:36.378896 16576 net.cpp:76] Creating Layer inception_3b/relu_3x3
I0509 21:30:36.378902 16576 net.cpp:372] inception_3b/relu_3x3 <- inception_3b/3x3
I0509 21:30:36.378909 16576 net.cpp:323] inception_3b/relu_3x3 -> inception_3b/3x3 (in-place)
I0509 21:30:36.378938 16576 net.cpp:105] Setting up inception_3b/relu_3x3
I0509 21:30:36.378944 16576 net.cpp:112] Top shape: 32 192 28 28 (4816896)
I0509 21:30:36.378950 16576 layer_factory.hpp:74] Creating layer inception_3b/5x5_reduce
I0509 21:30:36.378962 16576 net.cpp:76] Creating Layer inception_3b/5x5_reduce
I0509 21:30:36.378968 16576 net.cpp:372] inception_3b/5x5_reduce <- inception_3a/output_inception_3a/output_0_split_2
I0509 21:30:36.378975 16576 net.cpp:334] inception_3b/5x5_reduce -> inception_3b/5x5_reduce
I0509 21:30:36.378984 16576 net.cpp:105] Setting up inception_3b/5x5_reduce
I0509 21:30:36.379067 16576 net.cpp:112] Top shape: 32 32 28 28 (802816)
I0509 21:30:36.379079 16576 layer_factory.hpp:74] Creating layer inception_3b/relu_5x5_reduce
I0509 21:30:36.379086 16576 net.cpp:76] Creating Layer inception_3b/relu_5x5_reduce
I0509 21:30:36.379092 16576 net.cpp:372] inception_3b/relu_5x5_reduce <- inception_3b/5x5_reduce
I0509 21:30:36.379102 16576 net.cpp:323] inception_3b/relu_5x5_reduce -> inception_3b/5x5_reduce (in-place)
I0509 21:30:36.379111 16576 net.cpp:105] Setting up inception_3b/relu_5x5_reduce
I0509 21:30:36.379115 16576 net.cpp:112] Top shape: 32 32 28 28 (802816)
I0509 21:30:36.379120 16576 layer_factory.hpp:74] Creating layer inception_3b/5x5
I0509 21:30:36.379128 16576 net.cpp:76] Creating Layer inception_3b/5x5
I0509 21:30:36.379134 16576 net.cpp:372] inception_3b/5x5 <- inception_3b/5x5_reduce
I0509 21:30:36.379148 16576 net.cpp:334] inception_3b/5x5 -> inception_3b/5x5
I0509 21:30:36.379160 16576 net.cpp:105] Setting up inception_3b/5x5
I0509 21:30:36.379840 16576 net.cpp:112] Top shape: 32 96 28 28 (2408448)
I0509 21:30:36.379858 16576 layer_factory.hpp:74] Creating layer inception_3b/relu_5x5
I0509 21:30:36.379868 16576 net.cpp:76] Creating Layer inception_3b/relu_5x5
I0509 21:30:36.379874 16576 net.cpp:372] inception_3b/relu_5x5 <- inception_3b/5x5
I0509 21:30:36.379881 16576 net.cpp:323] inception_3b/relu_5x5 -> inception_3b/5x5 (in-place)
I0509 21:30:36.379889 16576 net.cpp:105] Setting up inception_3b/relu_5x5
I0509 21:30:36.379895 16576 net.cpp:112] Top shape: 32 96 28 28 (2408448)
I0509 21:30:36.379900 16576 layer_factory.hpp:74] Creating layer inception_3b/pool
I0509 21:30:36.379909 16576 net.cpp:76] Creating Layer inception_3b/pool
I0509 21:30:36.379916 16576 net.cpp:372] inception_3b/pool <- inception_3a/output_inception_3a/output_0_split_3
I0509 21:30:36.379927 16576 net.cpp:334] inception_3b/pool -> inception_3b/pool
I0509 21:30:36.379935 16576 net.cpp:105] Setting up inception_3b/pool
I0509 21:30:36.379943 16576 net.cpp:112] Top shape: 32 256 28 28 (6422528)
I0509 21:30:36.379948 16576 layer_factory.hpp:74] Creating layer inception_3b/pool_proj
I0509 21:30:36.379957 16576 net.cpp:76] Creating Layer inception_3b/pool_proj
I0509 21:30:36.379962 16576 net.cpp:372] inception_3b/pool_proj <- inception_3b/pool
I0509 21:30:36.379972 16576 net.cpp:334] inception_3b/pool_proj -> inception_3b/pool_proj
I0509 21:30:36.379981 16576 net.cpp:105] Setting up inception_3b/pool_proj
I0509 21:30:36.380132 16576 net.cpp:112] Top shape: 32 64 28 28 (1605632)
I0509 21:30:36.380144 16576 layer_factory.hpp:74] Creating layer inception_3b/relu_pool_proj
I0509 21:30:36.380152 16576 net.cpp:76] Creating Layer inception_3b/relu_pool_proj
I0509 21:30:36.380162 16576 net.cpp:372] inception_3b/relu_pool_proj <- inception_3b/pool_proj
I0509 21:30:36.380177 16576 net.cpp:323] inception_3b/relu_pool_proj -> inception_3b/pool_proj (in-place)
I0509 21:30:36.380184 16576 net.cpp:105] Setting up inception_3b/relu_pool_proj
I0509 21:30:36.380190 16576 net.cpp:112] Top shape: 32 64 28 28 (1605632)
I0509 21:30:36.380195 16576 layer_factory.hpp:74] Creating layer inception_3b/output
I0509 21:30:36.380203 16576 net.cpp:76] Creating Layer inception_3b/output
I0509 21:30:36.380208 16576 net.cpp:372] inception_3b/output <- inception_3b/1x1
I0509 21:30:36.380214 16576 net.cpp:372] inception_3b/output <- inception_3b/3x3
I0509 21:30:36.380220 16576 net.cpp:372] inception_3b/output <- inception_3b/5x5
I0509 21:30:36.380257 16576 net.cpp:372] inception_3b/output <- inception_3b/pool_proj
I0509 21:30:36.380266 16576 net.cpp:334] inception_3b/output -> inception_3b/output
I0509 21:30:36.380275 16576 net.cpp:105] Setting up inception_3b/output
I0509 21:30:36.380281 16576 net.cpp:112] Top shape: 32 480 28 28 (12042240)
I0509 21:30:36.380287 16576 layer_factory.hpp:74] Creating layer pool3/3x3_s2
I0509 21:30:36.380295 16576 net.cpp:76] Creating Layer pool3/3x3_s2
I0509 21:30:36.380300 16576 net.cpp:372] pool3/3x3_s2 <- inception_3b/output
I0509 21:30:36.380312 16576 net.cpp:334] pool3/3x3_s2 -> pool3/3x3_s2
I0509 21:30:36.380321 16576 net.cpp:105] Setting up pool3/3x3_s2
I0509 21:30:36.380327 16576 net.cpp:112] Top shape: 32 480 14 14 (3010560)
I0509 21:30:36.380332 16576 layer_factory.hpp:74] Creating layer pool3/3x3_s2_pool3/3x3_s2_0_split
I0509 21:30:36.380341 16576 net.cpp:76] Creating Layer pool3/3x3_s2_pool3/3x3_s2_0_split
I0509 21:30:36.380345 16576 net.cpp:372] pool3/3x3_s2_pool3/3x3_s2_0_split <- pool3/3x3_s2
I0509 21:30:36.380354 16576 net.cpp:334] pool3/3x3_s2_pool3/3x3_s2_0_split -> pool3/3x3_s2_pool3/3x3_s2_0_split_0
I0509 21:30:36.380363 16576 net.cpp:334] pool3/3x3_s2_pool3/3x3_s2_0_split -> pool3/3x3_s2_pool3/3x3_s2_0_split_1
I0509 21:30:36.380373 16576 net.cpp:334] pool3/3x3_s2_pool3/3x3_s2_0_split -> pool3/3x3_s2_pool3/3x3_s2_0_split_2
I0509 21:30:36.380380 16576 net.cpp:334] pool3/3x3_s2_pool3/3x3_s2_0_split -> pool3/3x3_s2_pool3/3x3_s2_0_split_3
I0509 21:30:36.380388 16576 net.cpp:105] Setting up pool3/3x3_s2_pool3/3x3_s2_0_split
I0509 21:30:36.380394 16576 net.cpp:112] Top shape: 32 480 14 14 (3010560)
I0509 21:30:36.380399 16576 net.cpp:112] Top shape: 32 480 14 14 (3010560)
I0509 21:30:36.380404 16576 net.cpp:112] Top shape: 32 480 14 14 (3010560)
I0509 21:30:36.380409 16576 net.cpp:112] Top shape: 32 480 14 14 (3010560)
I0509 21:30:36.380414 16576 layer_factory.hpp:74] Creating layer inception_4a/1x1
I0509 21:30:36.380425 16576 net.cpp:76] Creating Layer inception_4a/1x1
I0509 21:30:36.380431 16576 net.cpp:372] inception_4a/1x1 <- pool3/3x3_s2_pool3/3x3_s2_0_split_0
I0509 21:30:36.380439 16576 net.cpp:334] inception_4a/1x1 -> inception_4a/1x1
I0509 21:30:36.380448 16576 net.cpp:105] Setting up inception_4a/1x1
I0509 21:30:36.381255 16576 net.cpp:112] Top shape: 32 192 14 14 (1204224)
I0509 21:30:36.381283 16576 layer_factory.hpp:74] Creating layer inception_4a/relu_1x1
I0509 21:30:36.381291 16576 net.cpp:76] Creating Layer inception_4a/relu_1x1
I0509 21:30:36.381299 16576 net.cpp:372] inception_4a/relu_1x1 <- inception_4a/1x1
I0509 21:30:36.381309 16576 net.cpp:323] inception_4a/relu_1x1 -> inception_4a/1x1 (in-place)
I0509 21:30:36.381316 16576 net.cpp:105] Setting up inception_4a/relu_1x1
I0509 21:30:36.381322 16576 net.cpp:112] Top shape: 32 192 14 14 (1204224)
I0509 21:30:36.381327 16576 layer_factory.hpp:74] Creating layer inception_4a/3x3_reduce
I0509 21:30:36.381336 16576 net.cpp:76] Creating Layer inception_4a/3x3_reduce
I0509 21:30:36.381341 16576 net.cpp:372] inception_4a/3x3_reduce <- pool3/3x3_s2_pool3/3x3_s2_0_split_1
I0509 21:30:36.381352 16576 net.cpp:334] inception_4a/3x3_reduce -> inception_4a/3x3_reduce
I0509 21:30:36.381361 16576 net.cpp:105] Setting up inception_4a/3x3_reduce
I0509 21:30:36.381773 16576 net.cpp:112] Top shape: 32 96 14 14 (602112)
I0509 21:30:36.381794 16576 layer_factory.hpp:74] Creating layer inception_4a/relu_3x3_reduce
I0509 21:30:36.381803 16576 net.cpp:76] Creating Layer inception_4a/relu_3x3_reduce
I0509 21:30:36.381809 16576 net.cpp:372] inception_4a/relu_3x3_reduce <- inception_4a/3x3_reduce
I0509 21:30:36.381816 16576 net.cpp:323] inception_4a/relu_3x3_reduce -> inception_4a/3x3_reduce (in-place)
I0509 21:30:36.381824 16576 net.cpp:105] Setting up inception_4a/relu_3x3_reduce
I0509 21:30:36.381830 16576 net.cpp:112] Top shape: 32 96 14 14 (602112)
I0509 21:30:36.381835 16576 layer_factory.hpp:74] Creating layer inception_4a/3x3
I0509 21:30:36.381844 16576 net.cpp:76] Creating Layer inception_4a/3x3
I0509 21:30:36.381850 16576 net.cpp:372] inception_4a/3x3 <- inception_4a/3x3_reduce
I0509 21:30:36.381873 16576 net.cpp:334] inception_4a/3x3 -> inception_4a/3x3
I0509 21:30:36.381885 16576 net.cpp:105] Setting up inception_4a/3x3
I0509 21:30:36.383417 16576 net.cpp:112] Top shape: 32 208 14 14 (1304576)
I0509 21:30:36.383431 16576 layer_factory.hpp:74] Creating layer inception_4a/relu_3x3
I0509 21:30:36.383441 16576 net.cpp:76] Creating Layer inception_4a/relu_3x3
I0509 21:30:36.383466 16576 net.cpp:372] inception_4a/relu_3x3 <- inception_4a/3x3
I0509 21:30:36.383476 16576 net.cpp:323] inception_4a/relu_3x3 -> inception_4a/3x3 (in-place)
I0509 21:30:36.383483 16576 net.cpp:105] Setting up inception_4a/relu_3x3
I0509 21:30:36.383488 16576 net.cpp:112] Top shape: 32 208 14 14 (1304576)
I0509 21:30:36.383494 16576 layer_factory.hpp:74] Creating layer inception_4a/5x5_reduce
I0509 21:30:36.383502 16576 net.cpp:76] Creating Layer inception_4a/5x5_reduce
I0509 21:30:36.383508 16576 net.cpp:372] inception_4a/5x5_reduce <- pool3/3x3_s2_pool3/3x3_s2_0_split_2
I0509 21:30:36.383519 16576 net.cpp:334] inception_4a/5x5_reduce -> inception_4a/5x5_reduce
I0509 21:30:36.383528 16576 net.cpp:105] Setting up inception_4a/5x5_reduce
I0509 21:30:36.383605 16576 net.cpp:112] Top shape: 32 16 14 14 (100352)
I0509 21:30:36.383615 16576 layer_factory.hpp:74] Creating layer inception_4a/relu_5x5_reduce
I0509 21:30:36.383625 16576 net.cpp:76] Creating Layer inception_4a/relu_5x5_reduce
I0509 21:30:36.383630 16576 net.cpp:372] inception_4a/relu_5x5_reduce <- inception_4a/5x5_reduce
I0509 21:30:36.383637 16576 net.cpp:323] inception_4a/relu_5x5_reduce -> inception_4a/5x5_reduce (in-place)
I0509 21:30:36.383646 16576 net.cpp:105] Setting up inception_4a/relu_5x5_reduce
I0509 21:30:36.383651 16576 net.cpp:112] Top shape: 32 16 14 14 (100352)
I0509 21:30:36.383656 16576 layer_factory.hpp:74] Creating layer inception_4a/5x5
I0509 21:30:36.383666 16576 net.cpp:76] Creating Layer inception_4a/5x5
I0509 21:30:36.383671 16576 net.cpp:372] inception_4a/5x5 <- inception_4a/5x5_reduce
I0509 21:30:36.383679 16576 net.cpp:334] inception_4a/5x5 -> inception_4a/5x5
I0509 21:30:36.383687 16576 net.cpp:105] Setting up inception_4a/5x5
I0509 21:30:36.383870 16576 net.cpp:112] Top shape: 32 48 14 14 (301056)
I0509 21:30:36.383882 16576 layer_factory.hpp:74] Creating layer inception_4a/relu_5x5
I0509 21:30:36.383891 16576 net.cpp:76] Creating Layer inception_4a/relu_5x5
I0509 21:30:36.383898 16576 net.cpp:372] inception_4a/relu_5x5 <- inception_4a/5x5
I0509 21:30:36.383904 16576 net.cpp:323] inception_4a/relu_5x5 -> inception_4a/5x5 (in-place)
I0509 21:30:36.383911 16576 net.cpp:105] Setting up inception_4a/relu_5x5
I0509 21:30:36.383918 16576 net.cpp:112] Top shape: 32 48 14 14 (301056)
I0509 21:30:36.383923 16576 layer_factory.hpp:74] Creating layer inception_4a/pool
I0509 21:30:36.383931 16576 net.cpp:76] Creating Layer inception_4a/pool
I0509 21:30:36.383937 16576 net.cpp:372] inception_4a/pool <- pool3/3x3_s2_pool3/3x3_s2_0_split_3
I0509 21:30:36.383944 16576 net.cpp:334] inception_4a/pool -> inception_4a/pool
I0509 21:30:36.383958 16576 net.cpp:105] Setting up inception_4a/pool
I0509 21:30:36.383968 16576 net.cpp:112] Top shape: 32 480 14 14 (3010560)
I0509 21:30:36.383973 16576 layer_factory.hpp:74] Creating layer inception_4a/pool_proj
I0509 21:30:36.383982 16576 net.cpp:76] Creating Layer inception_4a/pool_proj
I0509 21:30:36.383990 16576 net.cpp:372] inception_4a/pool_proj <- inception_4a/pool
I0509 21:30:36.384001 16576 net.cpp:334] inception_4a/pool_proj -> inception_4a/pool_proj
I0509 21:30:36.384009 16576 net.cpp:105] Setting up inception_4a/pool_proj
I0509 21:30:36.384294 16576 net.cpp:112] Top shape: 32 64 14 14 (401408)
I0509 21:30:36.384309 16576 layer_factory.hpp:74] Creating layer inception_4a/relu_pool_proj
I0509 21:30:36.384316 16576 net.cpp:76] Creating Layer inception_4a/relu_pool_proj
I0509 21:30:36.384322 16576 net.cpp:372] inception_4a/relu_pool_proj <- inception_4a/pool_proj
I0509 21:30:36.384330 16576 net.cpp:323] inception_4a/relu_pool_proj -> inception_4a/pool_proj (in-place)
I0509 21:30:36.384352 16576 net.cpp:105] Setting up inception_4a/relu_pool_proj
I0509 21:30:36.384358 16576 net.cpp:112] Top shape: 32 64 14 14 (401408)
I0509 21:30:36.384363 16576 layer_factory.hpp:74] Creating layer inception_4a/output
I0509 21:30:36.384377 16576 net.cpp:76] Creating Layer inception_4a/output
I0509 21:30:36.384382 16576 net.cpp:372] inception_4a/output <- inception_4a/1x1
I0509 21:30:36.385936 16576 net.cpp:372] inception_4a/output <- inception_4a/3x3
I0509 21:30:36.385949 16576 net.cpp:372] inception_4a/output <- inception_4a/5x5
I0509 21:30:36.385956 16576 net.cpp:372] inception_4a/output <- inception_4a/pool_proj
I0509 21:30:36.385964 16576 net.cpp:334] inception_4a/output -> inception_4a/output
I0509 21:30:36.385974 16576 net.cpp:105] Setting up inception_4a/output
I0509 21:30:36.385982 16576 net.cpp:112] Top shape: 32 512 14 14 (3211264)
I0509 21:30:36.385987 16576 layer_factory.hpp:74] Creating layer inception_4a/output_inception_4a/output_0_split
I0509 21:30:36.385995 16576 net.cpp:76] Creating Layer inception_4a/output_inception_4a/output_0_split
I0509 21:30:36.386001 16576 net.cpp:372] inception_4a/output_inception_4a/output_0_split <- inception_4a/output
I0509 21:30:36.386013 16576 net.cpp:334] inception_4a/output_inception_4a/output_0_split -> inception_4a/output_inception_4a/output_0_split_0
I0509 21:30:36.386023 16576 net.cpp:334] inception_4a/output_inception_4a/output_0_split -> inception_4a/output_inception_4a/output_0_split_1
I0509 21:30:36.386034 16576 net.cpp:334] inception_4a/output_inception_4a/output_0_split -> inception_4a/output_inception_4a/output_0_split_2
I0509 21:30:36.386042 16576 net.cpp:334] inception_4a/output_inception_4a/output_0_split -> inception_4a/output_inception_4a/output_0_split_3
I0509 21:30:36.386050 16576 net.cpp:334] inception_4a/output_inception_4a/output_0_split -> inception_4a/output_inception_4a/output_0_split_4
I0509 21:30:36.386059 16576 net.cpp:105] Setting up inception_4a/output_inception_4a/output_0_split
I0509 21:30:36.386066 16576 net.cpp:112] Top shape: 32 512 14 14 (3211264)
I0509 21:30:36.386071 16576 net.cpp:112] Top shape: 32 512 14 14 (3211264)
I0509 21:30:36.386076 16576 net.cpp:112] Top shape: 32 512 14 14 (3211264)
I0509 21:30:36.386081 16576 net.cpp:112] Top shape: 32 512 14 14 (3211264)
I0509 21:30:36.386085 16576 net.cpp:112] Top shape: 32 512 14 14 (3211264)
I0509 21:30:36.386091 16576 layer_factory.hpp:74] Creating layer loss1/ave_pool
I0509 21:30:36.386101 16576 net.cpp:76] Creating Layer loss1/ave_pool
I0509 21:30:36.386107 16576 net.cpp:372] loss1/ave_pool <- inception_4a/output_inception_4a/output_0_split_0
I0509 21:30:36.386116 16576 net.cpp:334] loss1/ave_pool -> loss1/ave_pool
I0509 21:30:36.386123 16576 net.cpp:105] Setting up loss1/ave_pool
I0509 21:30:36.386131 16576 net.cpp:112] Top shape: 32 512 4 4 (262144)
I0509 21:30:36.386135 16576 layer_factory.hpp:74] Creating layer loss1/conv
I0509 21:30:36.386147 16576 net.cpp:76] Creating Layer loss1/conv
I0509 21:30:36.386153 16576 net.cpp:372] loss1/conv <- loss1/ave_pool
I0509 21:30:36.386162 16576 net.cpp:334] loss1/conv -> loss1/conv
I0509 21:30:36.386169 16576 net.cpp:105] Setting up loss1/conv
I0509 21:30:36.386754 16576 net.cpp:112] Top shape: 32 128 4 4 (65536)
I0509 21:30:36.386770 16576 layer_factory.hpp:74] Creating layer loss1/relu_conv
I0509 21:30:36.386778 16576 net.cpp:76] Creating Layer loss1/relu_conv
I0509 21:30:36.386785 16576 net.cpp:372] loss1/relu_conv <- loss1/conv
I0509 21:30:36.386793 16576 net.cpp:323] loss1/relu_conv -> loss1/conv (in-place)
I0509 21:30:36.386801 16576 net.cpp:105] Setting up loss1/relu_conv
I0509 21:30:36.386806 16576 net.cpp:112] Top shape: 32 128 4 4 (65536)
I0509 21:30:36.386812 16576 layer_factory.hpp:74] Creating layer loss1/fc
I0509 21:30:36.386827 16576 net.cpp:76] Creating Layer loss1/fc
I0509 21:30:36.386834 16576 net.cpp:372] loss1/fc <- loss1/conv
I0509 21:30:36.386842 16576 net.cpp:334] loss1/fc -> loss1/fc
I0509 21:30:36.386854 16576 net.cpp:105] Setting up loss1/fc
I0509 21:30:36.404436 16576 net.cpp:112] Top shape: 32 1024 1 1 (32768)
I0509 21:30:36.404518 16576 layer_factory.hpp:74] Creating layer loss1/relu_fc
I0509 21:30:36.404533 16576 net.cpp:76] Creating Layer loss1/relu_fc
I0509 21:30:36.404541 16576 net.cpp:372] loss1/relu_fc <- loss1/fc
I0509 21:30:36.404551 16576 net.cpp:323] loss1/relu_fc -> loss1/fc (in-place)
I0509 21:30:36.404564 16576 net.cpp:105] Setting up loss1/relu_fc
I0509 21:30:36.404570 16576 net.cpp:112] Top shape: 32 1024 1 1 (32768)
I0509 21:30:36.404577 16576 layer_factory.hpp:74] Creating layer loss1/drop_fc
I0509 21:30:36.404597 16576 net.cpp:76] Creating Layer loss1/drop_fc
I0509 21:30:36.404603 16576 net.cpp:372] loss1/drop_fc <- loss1/fc
I0509 21:30:36.404613 16576 net.cpp:323] loss1/drop_fc -> loss1/fc (in-place)
I0509 21:30:36.404625 16576 net.cpp:105] Setting up loss1/drop_fc
I0509 21:30:36.404635 16576 net.cpp:112] Top shape: 32 1024 1 1 (32768)
I0509 21:30:36.404641 16576 layer_factory.hpp:74] Creating layer loss1/classifier
I0509 21:30:36.404651 16576 net.cpp:76] Creating Layer loss1/classifier
I0509 21:30:36.404657 16576 net.cpp:372] loss1/classifier <- loss1/fc
I0509 21:30:36.404667 16576 net.cpp:334] loss1/classifier -> loss1/classifier
I0509 21:30:36.404680 16576 net.cpp:105] Setting up loss1/classifier
I0509 21:30:36.404717 16576 net.cpp:112] Top shape: 32 2 1 1 (64)
I0509 21:30:36.404728 16576 layer_factory.hpp:74] Creating layer loss1/loss
I0509 21:30:36.404741 16576 net.cpp:76] Creating Layer loss1/loss
I0509 21:30:36.404747 16576 net.cpp:372] loss1/loss <- loss1/classifier
I0509 21:30:36.404752 16576 net.cpp:372] loss1/loss <- label_data_1_split_0
I0509 21:30:36.404762 16576 net.cpp:334] loss1/loss -> loss1/loss1
I0509 21:30:36.404774 16576 net.cpp:105] Setting up loss1/loss
I0509 21:30:36.404788 16576 layer_factory.hpp:74] Creating layer loss1/loss
I0509 21:30:36.404808 16576 net.cpp:112] Top shape: 1 1 1 1 (1)
I0509 21:30:36.404815 16576 net.cpp:118]     with loss weight 0.3
I0509 21:30:36.404850 16576 layer_factory.hpp:74] Creating layer inception_4b/1x1
I0509 21:30:36.404860 16576 net.cpp:76] Creating Layer inception_4b/1x1
I0509 21:30:36.404866 16576 net.cpp:372] inception_4b/1x1 <- inception_4a/output_inception_4a/output_0_split_1
I0509 21:30:36.404878 16576 net.cpp:334] inception_4b/1x1 -> inception_4b/1x1
I0509 21:30:36.404888 16576 net.cpp:105] Setting up inception_4b/1x1
I0509 21:30:36.405627 16576 net.cpp:112] Top shape: 32 160 14 14 (1003520)
I0509 21:30:36.405643 16576 layer_factory.hpp:74] Creating layer inception_4b/relu_1x1
I0509 21:30:36.405652 16576 net.cpp:76] Creating Layer inception_4b/relu_1x1
I0509 21:30:36.405658 16576 net.cpp:372] inception_4b/relu_1x1 <- inception_4b/1x1
I0509 21:30:36.405665 16576 net.cpp:323] inception_4b/relu_1x1 -> inception_4b/1x1 (in-place)
I0509 21:30:36.405673 16576 net.cpp:105] Setting up inception_4b/relu_1x1
I0509 21:30:36.405678 16576 net.cpp:112] Top shape: 32 160 14 14 (1003520)
I0509 21:30:36.405684 16576 layer_factory.hpp:74] Creating layer inception_4b/3x3_reduce
I0509 21:30:36.405695 16576 net.cpp:76] Creating Layer inception_4b/3x3_reduce
I0509 21:30:36.405701 16576 net.cpp:372] inception_4b/3x3_reduce <- inception_4a/output_inception_4a/output_0_split_2
I0509 21:30:36.405711 16576 net.cpp:334] inception_4b/3x3_reduce -> inception_4b/3x3_reduce
I0509 21:30:36.405720 16576 net.cpp:105] Setting up inception_4b/3x3_reduce
I0509 21:30:36.406216 16576 net.cpp:112] Top shape: 32 112 14 14 (702464)
I0509 21:30:36.406229 16576 layer_factory.hpp:74] Creating layer inception_4b/relu_3x3_reduce
I0509 21:30:36.406240 16576 net.cpp:76] Creating Layer inception_4b/relu_3x3_reduce
I0509 21:30:36.406246 16576 net.cpp:372] inception_4b/relu_3x3_reduce <- inception_4b/3x3_reduce
I0509 21:30:36.406254 16576 net.cpp:323] inception_4b/relu_3x3_reduce -> inception_4b/3x3_reduce (in-place)
I0509 21:30:36.406261 16576 net.cpp:105] Setting up inception_4b/relu_3x3_reduce
I0509 21:30:36.406267 16576 net.cpp:112] Top shape: 32 112 14 14 (702464)
I0509 21:30:36.406288 16576 layer_factory.hpp:74] Creating layer inception_4b/3x3
I0509 21:30:36.406301 16576 net.cpp:76] Creating Layer inception_4b/3x3
I0509 21:30:36.406321 16576 net.cpp:372] inception_4b/3x3 <- inception_4b/3x3_reduce
I0509 21:30:36.406330 16576 net.cpp:334] inception_4b/3x3 -> inception_4b/3x3
I0509 21:30:36.406339 16576 net.cpp:105] Setting up inception_4b/3x3
I0509 21:30:36.408236 16576 net.cpp:112] Top shape: 32 224 14 14 (1404928)
I0509 21:30:36.408252 16576 layer_factory.hpp:74] Creating layer inception_4b/relu_3x3
I0509 21:30:36.408260 16576 net.cpp:76] Creating Layer inception_4b/relu_3x3
I0509 21:30:36.408267 16576 net.cpp:372] inception_4b/relu_3x3 <- inception_4b/3x3
I0509 21:30:36.408288 16576 net.cpp:323] inception_4b/relu_3x3 -> inception_4b/3x3 (in-place)
I0509 21:30:36.408298 16576 net.cpp:105] Setting up inception_4b/relu_3x3
I0509 21:30:36.408303 16576 net.cpp:112] Top shape: 32 224 14 14 (1404928)
I0509 21:30:36.408308 16576 layer_factory.hpp:74] Creating layer inception_4b/5x5_reduce
I0509 21:30:36.408318 16576 net.cpp:76] Creating Layer inception_4b/5x5_reduce
I0509 21:30:36.408324 16576 net.cpp:372] inception_4b/5x5_reduce <- inception_4a/output_inception_4a/output_0_split_3
I0509 21:30:36.408334 16576 net.cpp:334] inception_4b/5x5_reduce -> inception_4b/5x5_reduce
I0509 21:30:36.408344 16576 net.cpp:105] Setting up inception_4b/5x5_reduce
I0509 21:30:36.408457 16576 net.cpp:112] Top shape: 32 24 14 14 (150528)
I0509 21:30:36.408468 16576 layer_factory.hpp:74] Creating layer inception_4b/relu_5x5_reduce
I0509 21:30:36.408478 16576 net.cpp:76] Creating Layer inception_4b/relu_5x5_reduce
I0509 21:30:36.408484 16576 net.cpp:372] inception_4b/relu_5x5_reduce <- inception_4b/5x5_reduce
I0509 21:30:36.408491 16576 net.cpp:323] inception_4b/relu_5x5_reduce -> inception_4b/5x5_reduce (in-place)
I0509 21:30:36.408499 16576 net.cpp:105] Setting up inception_4b/relu_5x5_reduce
I0509 21:30:36.408504 16576 net.cpp:112] Top shape: 32 24 14 14 (150528)
I0509 21:30:36.408510 16576 layer_factory.hpp:74] Creating layer inception_4b/5x5
I0509 21:30:36.408519 16576 net.cpp:76] Creating Layer inception_4b/5x5
I0509 21:30:36.408525 16576 net.cpp:372] inception_4b/5x5 <- inception_4b/5x5_reduce
I0509 21:30:36.408535 16576 net.cpp:334] inception_4b/5x5 -> inception_4b/5x5
I0509 21:30:36.408545 16576 net.cpp:105] Setting up inception_4b/5x5
I0509 21:30:36.408877 16576 net.cpp:112] Top shape: 32 64 14 14 (401408)
I0509 21:30:36.408892 16576 layer_factory.hpp:74] Creating layer inception_4b/relu_5x5
I0509 21:30:36.408900 16576 net.cpp:76] Creating Layer inception_4b/relu_5x5
I0509 21:30:36.408906 16576 net.cpp:372] inception_4b/relu_5x5 <- inception_4b/5x5
I0509 21:30:36.408916 16576 net.cpp:323] inception_4b/relu_5x5 -> inception_4b/5x5 (in-place)
I0509 21:30:36.408924 16576 net.cpp:105] Setting up inception_4b/relu_5x5
I0509 21:30:36.408929 16576 net.cpp:112] Top shape: 32 64 14 14 (401408)
I0509 21:30:36.408934 16576 layer_factory.hpp:74] Creating layer inception_4b/pool
I0509 21:30:36.408943 16576 net.cpp:76] Creating Layer inception_4b/pool
I0509 21:30:36.408949 16576 net.cpp:372] inception_4b/pool <- inception_4a/output_inception_4a/output_0_split_4
I0509 21:30:36.408957 16576 net.cpp:334] inception_4b/pool -> inception_4b/pool
I0509 21:30:36.408974 16576 net.cpp:105] Setting up inception_4b/pool
I0509 21:30:36.408984 16576 net.cpp:112] Top shape: 32 512 14 14 (3211264)
I0509 21:30:36.408990 16576 layer_factory.hpp:74] Creating layer inception_4b/pool_proj
I0509 21:30:36.409001 16576 net.cpp:76] Creating Layer inception_4b/pool_proj
I0509 21:30:36.409008 16576 net.cpp:372] inception_4b/pool_proj <- inception_4b/pool
I0509 21:30:36.409018 16576 net.cpp:334] inception_4b/pool_proj -> inception_4b/pool_proj
I0509 21:30:36.409028 16576 net.cpp:105] Setting up inception_4b/pool_proj
I0509 21:30:36.409325 16576 net.cpp:112] Top shape: 32 64 14 14 (401408)
I0509 21:30:36.409338 16576 layer_factory.hpp:74] Creating layer inception_4b/relu_pool_proj
I0509 21:30:36.409346 16576 net.cpp:76] Creating Layer inception_4b/relu_pool_proj
I0509 21:30:36.409353 16576 net.cpp:372] inception_4b/relu_pool_proj <- inception_4b/pool_proj
I0509 21:30:36.409378 16576 net.cpp:323] inception_4b/relu_pool_proj -> inception_4b/pool_proj (in-place)
I0509 21:30:36.409386 16576 net.cpp:105] Setting up inception_4b/relu_pool_proj
I0509 21:30:36.409392 16576 net.cpp:112] Top shape: 32 64 14 14 (401408)
I0509 21:30:36.409399 16576 layer_factory.hpp:74] Creating layer inception_4b/output
I0509 21:30:36.409406 16576 net.cpp:76] Creating Layer inception_4b/output
I0509 21:30:36.409412 16576 net.cpp:372] inception_4b/output <- inception_4b/1x1
I0509 21:30:36.409418 16576 net.cpp:372] inception_4b/output <- inception_4b/3x3
I0509 21:30:36.409425 16576 net.cpp:372] inception_4b/output <- inception_4b/5x5
I0509 21:30:36.409430 16576 net.cpp:372] inception_4b/output <- inception_4b/pool_proj
I0509 21:30:36.409440 16576 net.cpp:334] inception_4b/output -> inception_4b/output
I0509 21:30:36.409447 16576 net.cpp:105] Setting up inception_4b/output
I0509 21:30:36.409454 16576 net.cpp:112] Top shape: 32 512 14 14 (3211264)
I0509 21:30:36.409459 16576 layer_factory.hpp:74] Creating layer inception_4b/output_inception_4b/output_0_split
I0509 21:30:36.409487 16576 net.cpp:76] Creating Layer inception_4b/output_inception_4b/output_0_split
I0509 21:30:36.409493 16576 net.cpp:372] inception_4b/output_inception_4b/output_0_split <- inception_4b/output
I0509 21:30:36.409502 16576 net.cpp:334] inception_4b/output_inception_4b/output_0_split -> inception_4b/output_inception_4b/output_0_split_0
I0509 21:30:36.409510 16576 net.cpp:334] inception_4b/output_inception_4b/output_0_split -> inception_4b/output_inception_4b/output_0_split_1
I0509 21:30:36.409519 16576 net.cpp:334] inception_4b/output_inception_4b/output_0_split -> inception_4b/output_inception_4b/output_0_split_2
I0509 21:30:36.409528 16576 net.cpp:334] inception_4b/output_inception_4b/output_0_split -> inception_4b/output_inception_4b/output_0_split_3
I0509 21:30:36.409536 16576 net.cpp:105] Setting up inception_4b/output_inception_4b/output_0_split
I0509 21:30:36.409543 16576 net.cpp:112] Top shape: 32 512 14 14 (3211264)
I0509 21:30:36.409548 16576 net.cpp:112] Top shape: 32 512 14 14 (3211264)
I0509 21:30:36.409554 16576 net.cpp:112] Top shape: 32 512 14 14 (3211264)
I0509 21:30:36.409557 16576 net.cpp:112] Top shape: 32 512 14 14 (3211264)
I0509 21:30:36.409562 16576 layer_factory.hpp:74] Creating layer inception_4c/1x1
I0509 21:30:36.409574 16576 net.cpp:76] Creating Layer inception_4c/1x1
I0509 21:30:36.409581 16576 net.cpp:372] inception_4c/1x1 <- inception_4b/output_inception_4b/output_0_split_0
I0509 21:30:36.409593 16576 net.cpp:334] inception_4c/1x1 -> inception_4c/1x1
I0509 21:30:36.409602 16576 net.cpp:105] Setting up inception_4c/1x1
I0509 21:30:36.410157 16576 net.cpp:112] Top shape: 32 128 14 14 (802816)
I0509 21:30:36.410171 16576 layer_factory.hpp:74] Creating layer inception_4c/relu_1x1
I0509 21:30:36.410182 16576 net.cpp:76] Creating Layer inception_4c/relu_1x1
I0509 21:30:36.410188 16576 net.cpp:372] inception_4c/relu_1x1 <- inception_4c/1x1
I0509 21:30:36.410197 16576 net.cpp:323] inception_4c/relu_1x1 -> inception_4c/1x1 (in-place)
I0509 21:30:36.410205 16576 net.cpp:105] Setting up inception_4c/relu_1x1
I0509 21:30:36.410212 16576 net.cpp:112] Top shape: 32 128 14 14 (802816)
I0509 21:30:36.410217 16576 layer_factory.hpp:74] Creating layer inception_4c/3x3_reduce
I0509 21:30:36.410224 16576 net.cpp:76] Creating Layer inception_4c/3x3_reduce
I0509 21:30:36.410230 16576 net.cpp:372] inception_4c/3x3_reduce <- inception_4b/output_inception_4b/output_0_split_1
I0509 21:30:36.410238 16576 net.cpp:334] inception_4c/3x3_reduce -> inception_4c/3x3_reduce
I0509 21:30:36.410246 16576 net.cpp:105] Setting up inception_4c/3x3_reduce
I0509 21:30:36.410816 16576 net.cpp:112] Top shape: 32 128 14 14 (802816)
I0509 21:30:36.410832 16576 layer_factory.hpp:74] Creating layer inception_4c/relu_3x3_reduce
I0509 21:30:36.410840 16576 net.cpp:76] Creating Layer inception_4c/relu_3x3_reduce
I0509 21:30:36.410846 16576 net.cpp:372] inception_4c/relu_3x3_reduce <- inception_4c/3x3_reduce
I0509 21:30:36.410853 16576 net.cpp:323] inception_4c/relu_3x3_reduce -> inception_4c/3x3_reduce (in-place)
I0509 21:30:36.410873 16576 net.cpp:105] Setting up inception_4c/relu_3x3_reduce
I0509 21:30:36.410881 16576 net.cpp:112] Top shape: 32 128 14 14 (802816)
I0509 21:30:36.410886 16576 layer_factory.hpp:74] Creating layer inception_4c/3x3
I0509 21:30:36.410894 16576 net.cpp:76] Creating Layer inception_4c/3x3
I0509 21:30:36.410899 16576 net.cpp:372] inception_4c/3x3 <- inception_4c/3x3_reduce
I0509 21:30:36.410909 16576 net.cpp:334] inception_4c/3x3 -> inception_4c/3x3
I0509 21:30:36.410918 16576 net.cpp:105] Setting up inception_4c/3x3
I0509 21:30:36.413422 16576 net.cpp:112] Top shape: 32 256 14 14 (1605632)
I0509 21:30:36.413456 16576 layer_factory.hpp:74] Creating layer inception_4c/relu_3x3
I0509 21:30:36.413467 16576 net.cpp:76] Creating Layer inception_4c/relu_3x3
I0509 21:30:36.414834 16576 net.cpp:372] inception_4c/relu_3x3 <- inception_4c/3x3
I0509 21:30:36.414844 16576 net.cpp:323] inception_4c/relu_3x3 -> inception_4c/3x3 (in-place)
I0509 21:30:36.414855 16576 net.cpp:105] Setting up inception_4c/relu_3x3
I0509 21:30:36.414860 16576 net.cpp:112] Top shape: 32 256 14 14 (1605632)
I0509 21:30:36.414865 16576 layer_factory.hpp:74] Creating layer inception_4c/5x5_reduce
I0509 21:30:36.414875 16576 net.cpp:76] Creating Layer inception_4c/5x5_reduce
I0509 21:30:36.414881 16576 net.cpp:372] inception_4c/5x5_reduce <- inception_4b/output_inception_4b/output_0_split_2
I0509 21:30:36.414893 16576 net.cpp:334] inception_4c/5x5_reduce -> inception_4c/5x5_reduce
I0509 21:30:36.414903 16576 net.cpp:105] Setting up inception_4c/5x5_reduce
I0509 21:30:36.415019 16576 net.cpp:112] Top shape: 32 24 14 14 (150528)
I0509 21:30:36.415030 16576 layer_factory.hpp:74] Creating layer inception_4c/relu_5x5_reduce
I0509 21:30:36.415038 16576 net.cpp:76] Creating Layer inception_4c/relu_5x5_reduce
I0509 21:30:36.415043 16576 net.cpp:372] inception_4c/relu_5x5_reduce <- inception_4c/5x5_reduce
I0509 21:30:36.415051 16576 net.cpp:323] inception_4c/relu_5x5_reduce -> inception_4c/5x5_reduce (in-place)
I0509 21:30:36.415058 16576 net.cpp:105] Setting up inception_4c/relu_5x5_reduce
I0509 21:30:36.415065 16576 net.cpp:112] Top shape: 32 24 14 14 (150528)
I0509 21:30:36.415069 16576 layer_factory.hpp:74] Creating layer inception_4c/5x5
I0509 21:30:36.415081 16576 net.cpp:76] Creating Layer inception_4c/5x5
I0509 21:30:36.415086 16576 net.cpp:372] inception_4c/5x5 <- inception_4c/5x5_reduce
I0509 21:30:36.415096 16576 net.cpp:334] inception_4c/5x5 -> inception_4c/5x5
I0509 21:30:36.415105 16576 net.cpp:105] Setting up inception_4c/5x5
I0509 21:30:36.415453 16576 net.cpp:112] Top shape: 32 64 14 14 (401408)
I0509 21:30:36.415470 16576 layer_factory.hpp:74] Creating layer inception_4c/relu_5x5
I0509 21:30:36.415480 16576 net.cpp:76] Creating Layer inception_4c/relu_5x5
I0509 21:30:36.415487 16576 net.cpp:372] inception_4c/relu_5x5 <- inception_4c/5x5
I0509 21:30:36.415493 16576 net.cpp:323] inception_4c/relu_5x5 -> inception_4c/5x5 (in-place)
I0509 21:30:36.415501 16576 net.cpp:105] Setting up inception_4c/relu_5x5
I0509 21:30:36.415506 16576 net.cpp:112] Top shape: 32 64 14 14 (401408)
I0509 21:30:36.415511 16576 layer_factory.hpp:74] Creating layer inception_4c/pool
I0509 21:30:36.415519 16576 net.cpp:76] Creating Layer inception_4c/pool
I0509 21:30:36.415524 16576 net.cpp:372] inception_4c/pool <- inception_4b/output_inception_4b/output_0_split_3
I0509 21:30:36.415532 16576 net.cpp:334] inception_4c/pool -> inception_4c/pool
I0509 21:30:36.415541 16576 net.cpp:105] Setting up inception_4c/pool
I0509 21:30:36.415549 16576 net.cpp:112] Top shape: 32 512 14 14 (3211264)
I0509 21:30:36.415554 16576 layer_factory.hpp:74] Creating layer inception_4c/pool_proj
I0509 21:30:36.415566 16576 net.cpp:76] Creating Layer inception_4c/pool_proj
I0509 21:30:36.415572 16576 net.cpp:372] inception_4c/pool_proj <- inception_4c/pool
I0509 21:30:36.415582 16576 net.cpp:334] inception_4c/pool_proj -> inception_4c/pool_proj
I0509 21:30:36.415591 16576 net.cpp:105] Setting up inception_4c/pool_proj
I0509 21:30:36.415897 16576 net.cpp:112] Top shape: 32 64 14 14 (401408)
I0509 21:30:36.415910 16576 layer_factory.hpp:74] Creating layer inception_4c/relu_pool_proj
I0509 21:30:36.415921 16576 net.cpp:76] Creating Layer inception_4c/relu_pool_proj
I0509 21:30:36.415927 16576 net.cpp:372] inception_4c/relu_pool_proj <- inception_4c/pool_proj
I0509 21:30:36.415935 16576 net.cpp:323] inception_4c/relu_pool_proj -> inception_4c/pool_proj (in-place)
I0509 21:30:36.415941 16576 net.cpp:105] Setting up inception_4c/relu_pool_proj
I0509 21:30:36.415947 16576 net.cpp:112] Top shape: 32 64 14 14 (401408)
I0509 21:30:36.415952 16576 layer_factory.hpp:74] Creating layer inception_4c/output
I0509 21:30:36.415962 16576 net.cpp:76] Creating Layer inception_4c/output
I0509 21:30:36.415967 16576 net.cpp:372] inception_4c/output <- inception_4c/1x1
I0509 21:30:36.415974 16576 net.cpp:372] inception_4c/output <- inception_4c/3x3
I0509 21:30:36.415981 16576 net.cpp:372] inception_4c/output <- inception_4c/5x5
I0509 21:30:36.416249 16576 net.cpp:372] inception_4c/output <- inception_4c/pool_proj
I0509 21:30:36.416262 16576 net.cpp:334] inception_4c/output -> inception_4c/output
I0509 21:30:36.416272 16576 net.cpp:105] Setting up inception_4c/output
I0509 21:30:36.416280 16576 net.cpp:112] Top shape: 32 512 14 14 (3211264)
I0509 21:30:36.416285 16576 layer_factory.hpp:74] Creating layer inception_4c/output_inception_4c/output_0_split
I0509 21:30:36.416293 16576 net.cpp:76] Creating Layer inception_4c/output_inception_4c/output_0_split
I0509 21:30:36.416299 16576 net.cpp:372] inception_4c/output_inception_4c/output_0_split <- inception_4c/output
I0509 21:30:36.416307 16576 net.cpp:334] inception_4c/output_inception_4c/output_0_split -> inception_4c/output_inception_4c/output_0_split_0
I0509 21:30:36.416316 16576 net.cpp:334] inception_4c/output_inception_4c/output_0_split -> inception_4c/output_inception_4c/output_0_split_1
I0509 21:30:36.416331 16576 net.cpp:334] inception_4c/output_inception_4c/output_0_split -> inception_4c/output_inception_4c/output_0_split_2
I0509 21:30:36.416340 16576 net.cpp:334] inception_4c/output_inception_4c/output_0_split -> inception_4c/output_inception_4c/output_0_split_3
I0509 21:30:36.416348 16576 net.cpp:105] Setting up inception_4c/output_inception_4c/output_0_split
I0509 21:30:36.416355 16576 net.cpp:112] Top shape: 32 512 14 14 (3211264)
I0509 21:30:36.416360 16576 net.cpp:112] Top shape: 32 512 14 14 (3211264)
I0509 21:30:36.416365 16576 net.cpp:112] Top shape: 32 512 14 14 (3211264)
I0509 21:30:36.416370 16576 net.cpp:112] Top shape: 32 512 14 14 (3211264)
I0509 21:30:36.416375 16576 layer_factory.hpp:74] Creating layer inception_4d/1x1
I0509 21:30:36.416386 16576 net.cpp:76] Creating Layer inception_4d/1x1
I0509 21:30:36.416393 16576 net.cpp:372] inception_4d/1x1 <- inception_4c/output_inception_4c/output_0_split_0
I0509 21:30:36.416400 16576 net.cpp:334] inception_4d/1x1 -> inception_4d/1x1
I0509 21:30:36.416409 16576 net.cpp:105] Setting up inception_4d/1x1
I0509 21:30:36.416952 16576 net.cpp:112] Top shape: 32 112 14 14 (702464)
I0509 21:30:36.416970 16576 layer_factory.hpp:74] Creating layer inception_4d/relu_1x1
I0509 21:30:36.416980 16576 net.cpp:76] Creating Layer inception_4d/relu_1x1
I0509 21:30:36.416985 16576 net.cpp:372] inception_4d/relu_1x1 <- inception_4d/1x1
I0509 21:30:36.416996 16576 net.cpp:323] inception_4d/relu_1x1 -> inception_4d/1x1 (in-place)
I0509 21:30:36.417003 16576 net.cpp:105] Setting up inception_4d/relu_1x1
I0509 21:30:36.417009 16576 net.cpp:112] Top shape: 32 112 14 14 (702464)
I0509 21:30:36.417014 16576 layer_factory.hpp:74] Creating layer inception_4d/3x3_reduce
I0509 21:30:36.417022 16576 net.cpp:76] Creating Layer inception_4d/3x3_reduce
I0509 21:30:36.417028 16576 net.cpp:372] inception_4d/3x3_reduce <- inception_4c/output_inception_4c/output_0_split_1
I0509 21:30:36.417039 16576 net.cpp:334] inception_4d/3x3_reduce -> inception_4d/3x3_reduce
I0509 21:30:36.417048 16576 net.cpp:105] Setting up inception_4d/3x3_reduce
I0509 21:30:36.417706 16576 net.cpp:112] Top shape: 32 144 14 14 (903168)
I0509 21:30:36.417740 16576 layer_factory.hpp:74] Creating layer inception_4d/relu_3x3_reduce
I0509 21:30:36.417752 16576 net.cpp:76] Creating Layer inception_4d/relu_3x3_reduce
I0509 21:30:36.417758 16576 net.cpp:372] inception_4d/relu_3x3_reduce <- inception_4d/3x3_reduce
I0509 21:30:36.417767 16576 net.cpp:323] inception_4d/relu_3x3_reduce -> inception_4d/3x3_reduce (in-place)
I0509 21:30:36.417774 16576 net.cpp:105] Setting up inception_4d/relu_3x3_reduce
I0509 21:30:36.417780 16576 net.cpp:112] Top shape: 32 144 14 14 (903168)
I0509 21:30:36.417785 16576 layer_factory.hpp:74] Creating layer inception_4d/3x3
I0509 21:30:36.417796 16576 net.cpp:76] Creating Layer inception_4d/3x3
I0509 21:30:36.417803 16576 net.cpp:372] inception_4d/3x3 <- inception_4d/3x3_reduce
I0509 21:30:36.417810 16576 net.cpp:334] inception_4d/3x3 -> inception_4d/3x3
I0509 21:30:36.417819 16576 net.cpp:105] Setting up inception_4d/3x3
I0509 21:30:36.420953 16576 net.cpp:112] Top shape: 32 288 14 14 (1806336)
I0509 21:30:36.420969 16576 layer_factory.hpp:74] Creating layer inception_4d/relu_3x3
I0509 21:30:36.420976 16576 net.cpp:76] Creating Layer inception_4d/relu_3x3
I0509 21:30:36.420984 16576 net.cpp:372] inception_4d/relu_3x3 <- inception_4d/3x3
I0509 21:30:36.420990 16576 net.cpp:323] inception_4d/relu_3x3 -> inception_4d/3x3 (in-place)
I0509 21:30:36.420999 16576 net.cpp:105] Setting up inception_4d/relu_3x3
I0509 21:30:36.421003 16576 net.cpp:112] Top shape: 32 288 14 14 (1806336)
I0509 21:30:36.421010 16576 layer_factory.hpp:74] Creating layer inception_4d/5x5_reduce
I0509 21:30:36.421020 16576 net.cpp:76] Creating Layer inception_4d/5x5_reduce
I0509 21:30:36.421026 16576 net.cpp:372] inception_4d/5x5_reduce <- inception_4c/output_inception_4c/output_0_split_2
I0509 21:30:36.421035 16576 net.cpp:334] inception_4d/5x5_reduce -> inception_4d/5x5_reduce
I0509 21:30:36.421044 16576 net.cpp:105] Setting up inception_4d/5x5_reduce
I0509 21:30:36.421193 16576 net.cpp:112] Top shape: 32 32 14 14 (200704)
I0509 21:30:36.421205 16576 layer_factory.hpp:74] Creating layer inception_4d/relu_5x5_reduce
I0509 21:30:36.421212 16576 net.cpp:76] Creating Layer inception_4d/relu_5x5_reduce
I0509 21:30:36.421218 16576 net.cpp:372] inception_4d/relu_5x5_reduce <- inception_4d/5x5_reduce
I0509 21:30:36.421228 16576 net.cpp:323] inception_4d/relu_5x5_reduce -> inception_4d/5x5_reduce (in-place)
I0509 21:30:36.421236 16576 net.cpp:105] Setting up inception_4d/relu_5x5_reduce
I0509 21:30:36.421241 16576 net.cpp:112] Top shape: 32 32 14 14 (200704)
I0509 21:30:36.421247 16576 layer_factory.hpp:74] Creating layer inception_4d/5x5
I0509 21:30:36.421255 16576 net.cpp:76] Creating Layer inception_4d/5x5
I0509 21:30:36.421260 16576 net.cpp:372] inception_4d/5x5 <- inception_4d/5x5_reduce
I0509 21:30:36.421283 16576 net.cpp:334] inception_4d/5x5 -> inception_4d/5x5
I0509 21:30:36.421294 16576 net.cpp:105] Setting up inception_4d/5x5
I0509 21:30:36.421736 16576 net.cpp:112] Top shape: 32 64 14 14 (401408)
I0509 21:30:36.421748 16576 layer_factory.hpp:74] Creating layer inception_4d/relu_5x5
I0509 21:30:36.421758 16576 net.cpp:76] Creating Layer inception_4d/relu_5x5
I0509 21:30:36.421764 16576 net.cpp:372] inception_4d/relu_5x5 <- inception_4d/5x5
I0509 21:30:36.421772 16576 net.cpp:323] inception_4d/relu_5x5 -> inception_4d/5x5 (in-place)
I0509 21:30:36.421778 16576 net.cpp:105] Setting up inception_4d/relu_5x5
I0509 21:30:36.421783 16576 net.cpp:112] Top shape: 32 64 14 14 (401408)
I0509 21:30:36.421789 16576 layer_factory.hpp:74] Creating layer inception_4d/pool
I0509 21:30:36.421798 16576 net.cpp:76] Creating Layer inception_4d/pool
I0509 21:30:36.421804 16576 net.cpp:372] inception_4d/pool <- inception_4c/output_inception_4c/output_0_split_3
I0509 21:30:36.421813 16576 net.cpp:334] inception_4d/pool -> inception_4d/pool
I0509 21:30:36.421820 16576 net.cpp:105] Setting up inception_4d/pool
I0509 21:30:36.421828 16576 net.cpp:112] Top shape: 32 512 14 14 (3211264)
I0509 21:30:36.421833 16576 layer_factory.hpp:74] Creating layer inception_4d/pool_proj
I0509 21:30:36.421857 16576 net.cpp:76] Creating Layer inception_4d/pool_proj
I0509 21:30:36.421864 16576 net.cpp:372] inception_4d/pool_proj <- inception_4d/pool
I0509 21:30:36.421875 16576 net.cpp:334] inception_4d/pool_proj -> inception_4d/pool_proj
I0509 21:30:36.421885 16576 net.cpp:105] Setting up inception_4d/pool_proj
I0509 21:30:36.422175 16576 net.cpp:112] Top shape: 32 64 14 14 (401408)
I0509 21:30:36.422189 16576 layer_factory.hpp:74] Creating layer inception_4d/relu_pool_proj
I0509 21:30:36.422197 16576 net.cpp:76] Creating Layer inception_4d/relu_pool_proj
I0509 21:30:36.422204 16576 net.cpp:372] inception_4d/relu_pool_proj <- inception_4d/pool_proj
I0509 21:30:36.422217 16576 net.cpp:323] inception_4d/relu_pool_proj -> inception_4d/pool_proj (in-place)
I0509 21:30:36.422232 16576 net.cpp:105] Setting up inception_4d/relu_pool_proj
I0509 21:30:36.422243 16576 net.cpp:112] Top shape: 32 64 14 14 (401408)
I0509 21:30:36.422250 16576 layer_factory.hpp:74] Creating layer inception_4d/output
I0509 21:30:36.422262 16576 net.cpp:76] Creating Layer inception_4d/output
I0509 21:30:36.422268 16576 net.cpp:372] inception_4d/output <- inception_4d/1x1
I0509 21:30:36.422287 16576 net.cpp:372] inception_4d/output <- inception_4d/3x3
I0509 21:30:36.422294 16576 net.cpp:372] inception_4d/output <- inception_4d/5x5
I0509 21:30:36.422301 16576 net.cpp:372] inception_4d/output <- inception_4d/pool_proj
I0509 21:30:36.422308 16576 net.cpp:334] inception_4d/output -> inception_4d/output
I0509 21:30:36.422317 16576 net.cpp:105] Setting up inception_4d/output
I0509 21:30:36.422322 16576 net.cpp:112] Top shape: 32 528 14 14 (3311616)
I0509 21:30:36.422328 16576 layer_factory.hpp:74] Creating layer inception_4d/output_inception_4d/output_0_split
I0509 21:30:36.422336 16576 net.cpp:76] Creating Layer inception_4d/output_inception_4d/output_0_split
I0509 21:30:36.422343 16576 net.cpp:372] inception_4d/output_inception_4d/output_0_split <- inception_4d/output
I0509 21:30:36.422353 16576 net.cpp:334] inception_4d/output_inception_4d/output_0_split -> inception_4d/output_inception_4d/output_0_split_0
I0509 21:30:36.422363 16576 net.cpp:334] inception_4d/output_inception_4d/output_0_split -> inception_4d/output_inception_4d/output_0_split_1
I0509 21:30:36.422371 16576 net.cpp:334] inception_4d/output_inception_4d/output_0_split -> inception_4d/output_inception_4d/output_0_split_2
I0509 21:30:36.422380 16576 net.cpp:334] inception_4d/output_inception_4d/output_0_split -> inception_4d/output_inception_4d/output_0_split_3
I0509 21:30:36.422415 16576 net.cpp:334] inception_4d/output_inception_4d/output_0_split -> inception_4d/output_inception_4d/output_0_split_4
I0509 21:30:36.422430 16576 net.cpp:105] Setting up inception_4d/output_inception_4d/output_0_split
I0509 21:30:36.422443 16576 net.cpp:112] Top shape: 32 528 14 14 (3311616)
I0509 21:30:36.422453 16576 net.cpp:112] Top shape: 32 528 14 14 (3311616)
I0509 21:30:36.422461 16576 net.cpp:112] Top shape: 32 528 14 14 (3311616)
I0509 21:30:36.422469 16576 net.cpp:112] Top shape: 32 528 14 14 (3311616)
I0509 21:30:36.422477 16576 net.cpp:112] Top shape: 32 528 14 14 (3311616)
I0509 21:30:36.422487 16576 layer_factory.hpp:74] Creating layer loss2/ave_pool
I0509 21:30:36.422505 16576 net.cpp:76] Creating Layer loss2/ave_pool
I0509 21:30:36.422515 16576 net.cpp:372] loss2/ave_pool <- inception_4d/output_inception_4d/output_0_split_0
I0509 21:30:36.422528 16576 net.cpp:334] loss2/ave_pool -> loss2/ave_pool
I0509 21:30:36.422538 16576 net.cpp:105] Setting up loss2/ave_pool
I0509 21:30:36.422544 16576 net.cpp:112] Top shape: 32 528 4 4 (270336)
I0509 21:30:36.422550 16576 layer_factory.hpp:74] Creating layer loss2/conv
I0509 21:30:36.422560 16576 net.cpp:76] Creating Layer loss2/conv
I0509 21:30:36.422566 16576 net.cpp:372] loss2/conv <- loss2/ave_pool
I0509 21:30:36.422574 16576 net.cpp:334] loss2/conv -> loss2/conv
I0509 21:30:36.422583 16576 net.cpp:105] Setting up loss2/conv
I0509 21:30:36.423156 16576 net.cpp:112] Top shape: 32 128 4 4 (65536)
I0509 21:30:36.423171 16576 layer_factory.hpp:74] Creating layer loss2/relu_conv
I0509 21:30:36.423193 16576 net.cpp:76] Creating Layer loss2/relu_conv
I0509 21:30:36.423199 16576 net.cpp:372] loss2/relu_conv <- loss2/conv
I0509 21:30:36.423209 16576 net.cpp:323] loss2/relu_conv -> loss2/conv (in-place)
I0509 21:30:36.423216 16576 net.cpp:105] Setting up loss2/relu_conv
I0509 21:30:36.423223 16576 net.cpp:112] Top shape: 32 128 4 4 (65536)
I0509 21:30:36.423228 16576 layer_factory.hpp:74] Creating layer loss2/fc
I0509 21:30:36.423236 16576 net.cpp:76] Creating Layer loss2/fc
I0509 21:30:36.423243 16576 net.cpp:372] loss2/fc <- loss2/conv
I0509 21:30:36.423249 16576 net.cpp:334] loss2/fc -> loss2/fc
I0509 21:30:36.423259 16576 net.cpp:105] Setting up loss2/fc
I0509 21:30:36.440727 16576 net.cpp:112] Top shape: 32 1024 1 1 (32768)
I0509 21:30:36.440770 16576 layer_factory.hpp:74] Creating layer loss2/relu_fc
I0509 21:30:36.440785 16576 net.cpp:76] Creating Layer loss2/relu_fc
I0509 21:30:36.440793 16576 net.cpp:372] loss2/relu_fc <- loss2/fc
I0509 21:30:36.440804 16576 net.cpp:323] loss2/relu_fc -> loss2/fc (in-place)
I0509 21:30:36.440816 16576 net.cpp:105] Setting up loss2/relu_fc
I0509 21:30:36.440822 16576 net.cpp:112] Top shape: 32 1024 1 1 (32768)
I0509 21:30:36.440829 16576 layer_factory.hpp:74] Creating layer loss2/drop_fc
I0509 21:30:36.440837 16576 net.cpp:76] Creating Layer loss2/drop_fc
I0509 21:30:36.440842 16576 net.cpp:372] loss2/drop_fc <- loss2/fc
I0509 21:30:36.440850 16576 net.cpp:323] loss2/drop_fc -> loss2/fc (in-place)
I0509 21:30:36.440857 16576 net.cpp:105] Setting up loss2/drop_fc
I0509 21:30:36.440863 16576 net.cpp:112] Top shape: 32 1024 1 1 (32768)
I0509 21:30:36.440872 16576 layer_factory.hpp:74] Creating layer loss2/classifier
I0509 21:30:36.440882 16576 net.cpp:76] Creating Layer loss2/classifier
I0509 21:30:36.440887 16576 net.cpp:372] loss2/classifier <- loss2/fc
I0509 21:30:36.440898 16576 net.cpp:334] loss2/classifier -> loss2/classifier
I0509 21:30:36.440910 16576 net.cpp:105] Setting up loss2/classifier
I0509 21:30:36.440946 16576 net.cpp:112] Top shape: 32 2 1 1 (64)
I0509 21:30:36.440956 16576 layer_factory.hpp:74] Creating layer loss2/loss
I0509 21:30:36.440966 16576 net.cpp:76] Creating Layer loss2/loss
I0509 21:30:36.440973 16576 net.cpp:372] loss2/loss <- loss2/classifier
I0509 21:30:36.440980 16576 net.cpp:372] loss2/loss <- label_data_1_split_1
I0509 21:30:36.440989 16576 net.cpp:334] loss2/loss -> loss2/loss1
I0509 21:30:36.440996 16576 net.cpp:105] Setting up loss2/loss
I0509 21:30:36.441004 16576 layer_factory.hpp:74] Creating layer loss2/loss
I0509 21:30:36.441020 16576 net.cpp:112] Top shape: 1 1 1 1 (1)
I0509 21:30:36.441026 16576 net.cpp:118]     with loss weight 0.3
I0509 21:30:36.441045 16576 layer_factory.hpp:74] Creating layer inception_4e/1x1
I0509 21:30:36.441056 16576 net.cpp:76] Creating Layer inception_4e/1x1
I0509 21:30:36.441063 16576 net.cpp:372] inception_4e/1x1 <- inception_4d/output_inception_4d/output_0_split_1
I0509 21:30:36.441072 16576 net.cpp:334] inception_4e/1x1 -> inception_4e/1x1
I0509 21:30:36.441082 16576 net.cpp:105] Setting up inception_4e/1x1
I0509 21:30:36.442280 16576 net.cpp:112] Top shape: 32 256 14 14 (1605632)
I0509 21:30:36.442296 16576 layer_factory.hpp:74] Creating layer inception_4e/relu_1x1
I0509 21:30:36.442308 16576 net.cpp:76] Creating Layer inception_4e/relu_1x1
I0509 21:30:36.442314 16576 net.cpp:372] inception_4e/relu_1x1 <- inception_4e/1x1
I0509 21:30:36.442322 16576 net.cpp:323] inception_4e/relu_1x1 -> inception_4e/1x1 (in-place)
I0509 21:30:36.442329 16576 net.cpp:105] Setting up inception_4e/relu_1x1
I0509 21:30:36.442335 16576 net.cpp:112] Top shape: 32 256 14 14 (1605632)
I0509 21:30:36.442340 16576 layer_factory.hpp:74] Creating layer inception_4e/3x3_reduce
I0509 21:30:36.442349 16576 net.cpp:76] Creating Layer inception_4e/3x3_reduce
I0509 21:30:36.442354 16576 net.cpp:372] inception_4e/3x3_reduce <- inception_4d/output_inception_4d/output_0_split_2
I0509 21:30:36.442365 16576 net.cpp:334] inception_4e/3x3_reduce -> inception_4e/3x3_reduce
I0509 21:30:36.442409 16576 net.cpp:105] Setting up inception_4e/3x3_reduce
I0509 21:30:36.443128 16576 net.cpp:112] Top shape: 32 160 14 14 (1003520)
I0509 21:30:36.443143 16576 layer_factory.hpp:74] Creating layer inception_4e/relu_3x3_reduce
I0509 21:30:36.443151 16576 net.cpp:76] Creating Layer inception_4e/relu_3x3_reduce
I0509 21:30:36.443157 16576 net.cpp:372] inception_4e/relu_3x3_reduce <- inception_4e/3x3_reduce
I0509 21:30:36.443167 16576 net.cpp:323] inception_4e/relu_3x3_reduce -> inception_4e/3x3_reduce (in-place)
I0509 21:30:36.443176 16576 net.cpp:105] Setting up inception_4e/relu_3x3_reduce
I0509 21:30:36.443181 16576 net.cpp:112] Top shape: 32 160 14 14 (1003520)
I0509 21:30:36.443186 16576 layer_factory.hpp:74] Creating layer inception_4e/3x3
I0509 21:30:36.443195 16576 net.cpp:76] Creating Layer inception_4e/3x3
I0509 21:30:36.443200 16576 net.cpp:372] inception_4e/3x3 <- inception_4e/3x3_reduce
I0509 21:30:36.443210 16576 net.cpp:334] inception_4e/3x3 -> inception_4e/3x3
I0509 21:30:36.443220 16576 net.cpp:105] Setting up inception_4e/3x3
I0509 21:30:36.447268 16576 net.cpp:112] Top shape: 32 320 14 14 (2007040)
I0509 21:30:36.447304 16576 layer_factory.hpp:74] Creating layer inception_4e/relu_3x3
I0509 21:30:36.447315 16576 net.cpp:76] Creating Layer inception_4e/relu_3x3
I0509 21:30:36.447324 16576 net.cpp:372] inception_4e/relu_3x3 <- inception_4e/3x3
I0509 21:30:36.447331 16576 net.cpp:323] inception_4e/relu_3x3 -> inception_4e/3x3 (in-place)
I0509 21:30:36.447341 16576 net.cpp:105] Setting up inception_4e/relu_3x3
I0509 21:30:36.447346 16576 net.cpp:112] Top shape: 32 320 14 14 (2007040)
I0509 21:30:36.447352 16576 layer_factory.hpp:74] Creating layer inception_4e/5x5_reduce
I0509 21:30:36.447365 16576 net.cpp:76] Creating Layer inception_4e/5x5_reduce
I0509 21:30:36.447371 16576 net.cpp:372] inception_4e/5x5_reduce <- inception_4d/output_inception_4d/output_0_split_3
I0509 21:30:36.447382 16576 net.cpp:334] inception_4e/5x5_reduce -> inception_4e/5x5_reduce
I0509 21:30:36.447391 16576 net.cpp:105] Setting up inception_4e/5x5_reduce
I0509 21:30:36.447579 16576 net.cpp:112] Top shape: 32 32 14 14 (200704)
I0509 21:30:36.447597 16576 layer_factory.hpp:74] Creating layer inception_4e/relu_5x5_reduce
I0509 21:30:36.447604 16576 net.cpp:76] Creating Layer inception_4e/relu_5x5_reduce
I0509 21:30:36.447612 16576 net.cpp:372] inception_4e/relu_5x5_reduce <- inception_4e/5x5_reduce
I0509 21:30:36.447618 16576 net.cpp:323] inception_4e/relu_5x5_reduce -> inception_4e/5x5_reduce (in-place)
I0509 21:30:36.447626 16576 net.cpp:105] Setting up inception_4e/relu_5x5_reduce
I0509 21:30:36.447633 16576 net.cpp:112] Top shape: 32 32 14 14 (200704)
I0509 21:30:36.447638 16576 layer_factory.hpp:74] Creating layer inception_4e/5x5
I0509 21:30:36.447666 16576 net.cpp:76] Creating Layer inception_4e/5x5
I0509 21:30:36.447674 16576 net.cpp:372] inception_4e/5x5 <- inception_4e/5x5_reduce
I0509 21:30:36.447682 16576 net.cpp:334] inception_4e/5x5 -> inception_4e/5x5
I0509 21:30:36.447691 16576 net.cpp:105] Setting up inception_4e/5x5
I0509 21:30:36.448648 16576 net.cpp:112] Top shape: 32 128 14 14 (802816)
I0509 21:30:36.448668 16576 layer_factory.hpp:74] Creating layer inception_4e/relu_5x5
I0509 21:30:36.448675 16576 net.cpp:76] Creating Layer inception_4e/relu_5x5
I0509 21:30:36.448681 16576 net.cpp:372] inception_4e/relu_5x5 <- inception_4e/5x5
I0509 21:30:36.448688 16576 net.cpp:323] inception_4e/relu_5x5 -> inception_4e/5x5 (in-place)
I0509 21:30:36.448696 16576 net.cpp:105] Setting up inception_4e/relu_5x5
I0509 21:30:36.448703 16576 net.cpp:112] Top shape: 32 128 14 14 (802816)
I0509 21:30:36.448707 16576 layer_factory.hpp:74] Creating layer inception_4e/pool
I0509 21:30:36.448715 16576 net.cpp:76] Creating Layer inception_4e/pool
I0509 21:30:36.448721 16576 net.cpp:372] inception_4e/pool <- inception_4d/output_inception_4d/output_0_split_4
I0509 21:30:36.448732 16576 net.cpp:334] inception_4e/pool -> inception_4e/pool
I0509 21:30:36.448741 16576 net.cpp:105] Setting up inception_4e/pool
I0509 21:30:36.448750 16576 net.cpp:112] Top shape: 32 528 14 14 (3311616)
I0509 21:30:36.448782 16576 layer_factory.hpp:74] Creating layer inception_4e/pool_proj
I0509 21:30:36.448792 16576 net.cpp:76] Creating Layer inception_4e/pool_proj
I0509 21:30:36.448798 16576 net.cpp:372] inception_4e/pool_proj <- inception_4e/pool
I0509 21:30:36.448809 16576 net.cpp:334] inception_4e/pool_proj -> inception_4e/pool_proj
I0509 21:30:36.448819 16576 net.cpp:105] Setting up inception_4e/pool_proj
I0509 21:30:36.449424 16576 net.cpp:112] Top shape: 32 128 14 14 (802816)
I0509 21:30:36.449440 16576 layer_factory.hpp:74] Creating layer inception_4e/relu_pool_proj
I0509 21:30:36.449448 16576 net.cpp:76] Creating Layer inception_4e/relu_pool_proj
I0509 21:30:36.449455 16576 net.cpp:372] inception_4e/relu_pool_proj <- inception_4e/pool_proj
I0509 21:30:36.449465 16576 net.cpp:323] inception_4e/relu_pool_proj -> inception_4e/pool_proj (in-place)
I0509 21:30:36.449472 16576 net.cpp:105] Setting up inception_4e/relu_pool_proj
I0509 21:30:36.449477 16576 net.cpp:112] Top shape: 32 128 14 14 (802816)
I0509 21:30:36.449483 16576 layer_factory.hpp:74] Creating layer inception_4e/output
I0509 21:30:36.449491 16576 net.cpp:76] Creating Layer inception_4e/output
I0509 21:30:36.449496 16576 net.cpp:372] inception_4e/output <- inception_4e/1x1
I0509 21:30:36.449502 16576 net.cpp:372] inception_4e/output <- inception_4e/3x3
I0509 21:30:36.449509 16576 net.cpp:372] inception_4e/output <- inception_4e/5x5
I0509 21:30:36.449515 16576 net.cpp:372] inception_4e/output <- inception_4e/pool_proj
I0509 21:30:36.449522 16576 net.cpp:334] inception_4e/output -> inception_4e/output
I0509 21:30:36.449534 16576 net.cpp:105] Setting up inception_4e/output
I0509 21:30:36.449542 16576 net.cpp:112] Top shape: 32 832 14 14 (5218304)
I0509 21:30:36.449548 16576 layer_factory.hpp:74] Creating layer pool4/3x3_s2
I0509 21:30:36.449554 16576 net.cpp:76] Creating Layer pool4/3x3_s2
I0509 21:30:36.449589 16576 net.cpp:372] pool4/3x3_s2 <- inception_4e/output
I0509 21:30:36.449607 16576 net.cpp:334] pool4/3x3_s2 -> pool4/3x3_s2
I0509 21:30:36.449617 16576 net.cpp:105] Setting up pool4/3x3_s2
I0509 21:30:36.449626 16576 net.cpp:112] Top shape: 32 832 7 7 (1304576)
I0509 21:30:36.449637 16576 layer_factory.hpp:74] Creating layer pool4/3x3_s2_pool4/3x3_s2_0_split
I0509 21:30:36.449653 16576 net.cpp:76] Creating Layer pool4/3x3_s2_pool4/3x3_s2_0_split
I0509 21:30:36.449666 16576 net.cpp:372] pool4/3x3_s2_pool4/3x3_s2_0_split <- pool4/3x3_s2
I0509 21:30:36.449681 16576 net.cpp:334] pool4/3x3_s2_pool4/3x3_s2_0_split -> pool4/3x3_s2_pool4/3x3_s2_0_split_0
I0509 21:30:36.449692 16576 net.cpp:334] pool4/3x3_s2_pool4/3x3_s2_0_split -> pool4/3x3_s2_pool4/3x3_s2_0_split_1
I0509 21:30:36.449700 16576 net.cpp:334] pool4/3x3_s2_pool4/3x3_s2_0_split -> pool4/3x3_s2_pool4/3x3_s2_0_split_2
I0509 21:30:36.449708 16576 net.cpp:334] pool4/3x3_s2_pool4/3x3_s2_0_split -> pool4/3x3_s2_pool4/3x3_s2_0_split_3
I0509 21:30:36.449717 16576 net.cpp:105] Setting up pool4/3x3_s2_pool4/3x3_s2_0_split
I0509 21:30:36.449723 16576 net.cpp:112] Top shape: 32 832 7 7 (1304576)
I0509 21:30:36.449728 16576 net.cpp:112] Top shape: 32 832 7 7 (1304576)
I0509 21:30:36.449733 16576 net.cpp:112] Top shape: 32 832 7 7 (1304576)
I0509 21:30:36.449738 16576 net.cpp:112] Top shape: 32 832 7 7 (1304576)
I0509 21:30:36.449743 16576 layer_factory.hpp:74] Creating layer inception_5a/1x1
I0509 21:30:36.449755 16576 net.cpp:76] Creating Layer inception_5a/1x1
I0509 21:30:36.449761 16576 net.cpp:372] inception_5a/1x1 <- pool4/3x3_s2_pool4/3x3_s2_0_split_0
I0509 21:30:36.449770 16576 net.cpp:334] inception_5a/1x1 -> inception_5a/1x1
I0509 21:30:36.449779 16576 net.cpp:105] Setting up inception_5a/1x1
I0509 21:30:36.451664 16576 net.cpp:112] Top shape: 32 256 7 7 (401408)
I0509 21:30:36.451686 16576 layer_factory.hpp:74] Creating layer inception_5a/relu_1x1
I0509 21:30:36.451695 16576 net.cpp:76] Creating Layer inception_5a/relu_1x1
I0509 21:30:36.451701 16576 net.cpp:372] inception_5a/relu_1x1 <- inception_5a/1x1
I0509 21:30:36.451711 16576 net.cpp:323] inception_5a/relu_1x1 -> inception_5a/1x1 (in-place)
I0509 21:30:36.451736 16576 net.cpp:105] Setting up inception_5a/relu_1x1
I0509 21:30:36.451743 16576 net.cpp:112] Top shape: 32 256 7 7 (401408)
I0509 21:30:36.451750 16576 layer_factory.hpp:74] Creating layer inception_5a/3x3_reduce
I0509 21:30:36.451760 16576 net.cpp:76] Creating Layer inception_5a/3x3_reduce
I0509 21:30:36.451766 16576 net.cpp:372] inception_5a/3x3_reduce <- pool4/3x3_s2_pool4/3x3_s2_0_split_1
I0509 21:30:36.451776 16576 net.cpp:334] inception_5a/3x3_reduce -> inception_5a/3x3_reduce
I0509 21:30:36.451786 16576 net.cpp:105] Setting up inception_5a/3x3_reduce
I0509 21:30:36.452954 16576 net.cpp:112] Top shape: 32 160 7 7 (250880)
I0509 21:30:36.452970 16576 layer_factory.hpp:74] Creating layer inception_5a/relu_3x3_reduce
I0509 21:30:36.452981 16576 net.cpp:76] Creating Layer inception_5a/relu_3x3_reduce
I0509 21:30:36.452988 16576 net.cpp:372] inception_5a/relu_3x3_reduce <- inception_5a/3x3_reduce
I0509 21:30:36.452996 16576 net.cpp:323] inception_5a/relu_3x3_reduce -> inception_5a/3x3_reduce (in-place)
I0509 21:30:36.453006 16576 net.cpp:105] Setting up inception_5a/relu_3x3_reduce
I0509 21:30:36.453011 16576 net.cpp:112] Top shape: 32 160 7 7 (250880)
I0509 21:30:36.453016 16576 layer_factory.hpp:74] Creating layer inception_5a/3x3
I0509 21:30:36.453027 16576 net.cpp:76] Creating Layer inception_5a/3x3
I0509 21:30:36.453032 16576 net.cpp:372] inception_5a/3x3 <- inception_5a/3x3_reduce
I0509 21:30:36.453040 16576 net.cpp:334] inception_5a/3x3 -> inception_5a/3x3
I0509 21:30:36.453049 16576 net.cpp:105] Setting up inception_5a/3x3
I0509 21:30:36.456941 16576 net.cpp:112] Top shape: 32 320 7 7 (501760)
I0509 21:30:36.456969 16576 layer_factory.hpp:74] Creating layer inception_5a/relu_3x3
I0509 21:30:36.456981 16576 net.cpp:76] Creating Layer inception_5a/relu_3x3
I0509 21:30:36.458788 16576 net.cpp:372] inception_5a/relu_3x3 <- inception_5a/3x3
I0509 21:30:36.458801 16576 net.cpp:323] inception_5a/relu_3x3 -> inception_5a/3x3 (in-place)
I0509 21:30:36.458811 16576 net.cpp:105] Setting up inception_5a/relu_3x3
I0509 21:30:36.458817 16576 net.cpp:112] Top shape: 32 320 7 7 (501760)
I0509 21:30:36.458823 16576 layer_factory.hpp:74] Creating layer inception_5a/5x5_reduce
I0509 21:30:36.458833 16576 net.cpp:76] Creating Layer inception_5a/5x5_reduce
I0509 21:30:36.458839 16576 net.cpp:372] inception_5a/5x5_reduce <- pool4/3x3_s2_pool4/3x3_s2_0_split_2
I0509 21:30:36.458852 16576 net.cpp:334] inception_5a/5x5_reduce -> inception_5a/5x5_reduce
I0509 21:30:36.458861 16576 net.cpp:105] Setting up inception_5a/5x5_reduce
I0509 21:30:36.459097 16576 net.cpp:112] Top shape: 32 32 7 7 (50176)
I0509 21:30:36.459111 16576 layer_factory.hpp:74] Creating layer inception_5a/relu_5x5_reduce
I0509 21:30:36.459120 16576 net.cpp:76] Creating Layer inception_5a/relu_5x5_reduce
I0509 21:30:36.459125 16576 net.cpp:372] inception_5a/relu_5x5_reduce <- inception_5a/5x5_reduce
I0509 21:30:36.459132 16576 net.cpp:323] inception_5a/relu_5x5_reduce -> inception_5a/5x5_reduce (in-place)
I0509 21:30:36.459139 16576 net.cpp:105] Setting up inception_5a/relu_5x5_reduce
I0509 21:30:36.459146 16576 net.cpp:112] Top shape: 32 32 7 7 (50176)
I0509 21:30:36.459151 16576 layer_factory.hpp:74] Creating layer inception_5a/5x5
I0509 21:30:36.459159 16576 net.cpp:76] Creating Layer inception_5a/5x5
I0509 21:30:36.459164 16576 net.cpp:372] inception_5a/5x5 <- inception_5a/5x5_reduce
I0509 21:30:36.459174 16576 net.cpp:334] inception_5a/5x5 -> inception_5a/5x5
I0509 21:30:36.459183 16576 net.cpp:105] Setting up inception_5a/5x5
I0509 21:30:36.460058 16576 net.cpp:112] Top shape: 32 128 7 7 (200704)
I0509 21:30:36.460072 16576 layer_factory.hpp:74] Creating layer inception_5a/relu_5x5
I0509 21:30:36.460079 16576 net.cpp:76] Creating Layer inception_5a/relu_5x5
I0509 21:30:36.460085 16576 net.cpp:372] inception_5a/relu_5x5 <- inception_5a/5x5
I0509 21:30:36.460093 16576 net.cpp:323] inception_5a/relu_5x5 -> inception_5a/5x5 (in-place)
I0509 21:30:36.460100 16576 net.cpp:105] Setting up inception_5a/relu_5x5
I0509 21:30:36.460135 16576 net.cpp:112] Top shape: 32 128 7 7 (200704)
I0509 21:30:36.460141 16576 layer_factory.hpp:74] Creating layer inception_5a/pool
I0509 21:30:36.460152 16576 net.cpp:76] Creating Layer inception_5a/pool
I0509 21:30:36.460160 16576 net.cpp:372] inception_5a/pool <- pool4/3x3_s2_pool4/3x3_s2_0_split_3
I0509 21:30:36.460167 16576 net.cpp:334] inception_5a/pool -> inception_5a/pool
I0509 21:30:36.460176 16576 net.cpp:105] Setting up inception_5a/pool
I0509 21:30:36.460185 16576 net.cpp:112] Top shape: 32 832 7 7 (1304576)
I0509 21:30:36.460191 16576 layer_factory.hpp:74] Creating layer inception_5a/pool_proj
I0509 21:30:36.460201 16576 net.cpp:76] Creating Layer inception_5a/pool_proj
I0509 21:30:36.460206 16576 net.cpp:372] inception_5a/pool_proj <- inception_5a/pool
I0509 21:30:36.460214 16576 net.cpp:334] inception_5a/pool_proj -> inception_5a/pool_proj
I0509 21:30:36.460222 16576 net.cpp:105] Setting up inception_5a/pool_proj
I0509 21:30:36.461130 16576 net.cpp:112] Top shape: 32 128 7 7 (200704)
I0509 21:30:36.461144 16576 layer_factory.hpp:74] Creating layer inception_5a/relu_pool_proj
I0509 21:30:36.461153 16576 net.cpp:76] Creating Layer inception_5a/relu_pool_proj
I0509 21:30:36.461158 16576 net.cpp:372] inception_5a/relu_pool_proj <- inception_5a/pool_proj
I0509 21:30:36.461168 16576 net.cpp:323] inception_5a/relu_pool_proj -> inception_5a/pool_proj (in-place)
I0509 21:30:36.461175 16576 net.cpp:105] Setting up inception_5a/relu_pool_proj
I0509 21:30:36.461180 16576 net.cpp:112] Top shape: 32 128 7 7 (200704)
I0509 21:30:36.461186 16576 layer_factory.hpp:74] Creating layer inception_5a/output
I0509 21:30:36.461194 16576 net.cpp:76] Creating Layer inception_5a/output
I0509 21:30:36.461199 16576 net.cpp:372] inception_5a/output <- inception_5a/1x1
I0509 21:30:36.461206 16576 net.cpp:372] inception_5a/output <- inception_5a/3x3
I0509 21:30:36.461212 16576 net.cpp:372] inception_5a/output <- inception_5a/5x5
I0509 21:30:36.461218 16576 net.cpp:372] inception_5a/output <- inception_5a/pool_proj
I0509 21:30:36.461225 16576 net.cpp:334] inception_5a/output -> inception_5a/output
I0509 21:30:36.461233 16576 net.cpp:105] Setting up inception_5a/output
I0509 21:30:36.461240 16576 net.cpp:112] Top shape: 32 832 7 7 (1304576)
I0509 21:30:36.461246 16576 layer_factory.hpp:74] Creating layer inception_5a/output_inception_5a/output_0_split
I0509 21:30:36.461253 16576 net.cpp:76] Creating Layer inception_5a/output_inception_5a/output_0_split
I0509 21:30:36.461258 16576 net.cpp:372] inception_5a/output_inception_5a/output_0_split <- inception_5a/output
I0509 21:30:36.461282 16576 net.cpp:334] inception_5a/output_inception_5a/output_0_split -> inception_5a/output_inception_5a/output_0_split_0
I0509 21:30:36.461293 16576 net.cpp:334] inception_5a/output_inception_5a/output_0_split -> inception_5a/output_inception_5a/output_0_split_1
I0509 21:30:36.461302 16576 net.cpp:334] inception_5a/output_inception_5a/output_0_split -> inception_5a/output_inception_5a/output_0_split_2
I0509 21:30:36.461313 16576 net.cpp:334] inception_5a/output_inception_5a/output_0_split -> inception_5a/output_inception_5a/output_0_split_3
I0509 21:30:36.461319 16576 net.cpp:105] Setting up inception_5a/output_inception_5a/output_0_split
I0509 21:30:36.461328 16576 net.cpp:112] Top shape: 32 832 7 7 (1304576)
I0509 21:30:36.461333 16576 net.cpp:112] Top shape: 32 832 7 7 (1304576)
I0509 21:30:36.461338 16576 net.cpp:112] Top shape: 32 832 7 7 (1304576)
I0509 21:30:36.461343 16576 net.cpp:112] Top shape: 32 832 7 7 (1304576)
I0509 21:30:36.461347 16576 layer_factory.hpp:74] Creating layer inception_5b/1x1
I0509 21:30:36.461359 16576 net.cpp:76] Creating Layer inception_5b/1x1
I0509 21:30:36.461364 16576 net.cpp:372] inception_5b/1x1 <- inception_5a/output_inception_5a/output_0_split_0
I0509 21:30:36.461372 16576 net.cpp:334] inception_5b/1x1 -> inception_5b/1x1
I0509 21:30:36.461381 16576 net.cpp:105] Setting up inception_5b/1x1
I0509 21:30:36.464054 16576 net.cpp:112] Top shape: 32 384 7 7 (602112)
I0509 21:30:36.464074 16576 layer_factory.hpp:74] Creating layer inception_5b/relu_1x1
I0509 21:30:36.464102 16576 net.cpp:76] Creating Layer inception_5b/relu_1x1
I0509 21:30:36.464108 16576 net.cpp:372] inception_5b/relu_1x1 <- inception_5b/1x1
I0509 21:30:36.464117 16576 net.cpp:323] inception_5b/relu_1x1 -> inception_5b/1x1 (in-place)
I0509 21:30:36.464124 16576 net.cpp:105] Setting up inception_5b/relu_1x1
I0509 21:30:36.464130 16576 net.cpp:112] Top shape: 32 384 7 7 (602112)
I0509 21:30:36.464135 16576 layer_factory.hpp:74] Creating layer inception_5b/3x3_reduce
I0509 21:30:36.464146 16576 net.cpp:76] Creating Layer inception_5b/3x3_reduce
I0509 21:30:36.464154 16576 net.cpp:372] inception_5b/3x3_reduce <- inception_5a/output_inception_5a/output_0_split_1
I0509 21:30:36.464161 16576 net.cpp:334] inception_5b/3x3_reduce -> inception_5b/3x3_reduce
I0509 21:30:36.464170 16576 net.cpp:105] Setting up inception_5b/3x3_reduce
I0509 21:30:36.465592 16576 net.cpp:112] Top shape: 32 192 7 7 (301056)
I0509 21:30:36.465610 16576 layer_factory.hpp:74] Creating layer inception_5b/relu_3x3_reduce
I0509 21:30:36.465620 16576 net.cpp:76] Creating Layer inception_5b/relu_3x3_reduce
I0509 21:30:36.465626 16576 net.cpp:372] inception_5b/relu_3x3_reduce <- inception_5b/3x3_reduce
I0509 21:30:36.465636 16576 net.cpp:323] inception_5b/relu_3x3_reduce -> inception_5b/3x3_reduce (in-place)
I0509 21:30:36.465646 16576 net.cpp:105] Setting up inception_5b/relu_3x3_reduce
I0509 21:30:36.465651 16576 net.cpp:112] Top shape: 32 192 7 7 (301056)
I0509 21:30:36.465656 16576 layer_factory.hpp:74] Creating layer inception_5b/3x3
I0509 21:30:36.465665 16576 net.cpp:76] Creating Layer inception_5b/3x3
I0509 21:30:36.465670 16576 net.cpp:372] inception_5b/3x3 <- inception_5b/3x3_reduce
I0509 21:30:36.465680 16576 net.cpp:334] inception_5b/3x3 -> inception_5b/3x3
I0509 21:30:36.465709 16576 net.cpp:105] Setting up inception_5b/3x3
I0509 21:30:36.471695 16576 net.cpp:112] Top shape: 32 384 7 7 (602112)
I0509 21:30:36.471719 16576 layer_factory.hpp:74] Creating layer inception_5b/relu_3x3
I0509 21:30:36.471729 16576 net.cpp:76] Creating Layer inception_5b/relu_3x3
I0509 21:30:36.471736 16576 net.cpp:372] inception_5b/relu_3x3 <- inception_5b/3x3
I0509 21:30:36.471745 16576 net.cpp:323] inception_5b/relu_3x3 -> inception_5b/3x3 (in-place)
I0509 21:30:36.471753 16576 net.cpp:105] Setting up inception_5b/relu_3x3
I0509 21:30:36.471758 16576 net.cpp:112] Top shape: 32 384 7 7 (602112)
I0509 21:30:36.471765 16576 layer_factory.hpp:74] Creating layer inception_5b/5x5_reduce
I0509 21:30:36.471776 16576 net.cpp:76] Creating Layer inception_5b/5x5_reduce
I0509 21:30:36.471782 16576 net.cpp:372] inception_5b/5x5_reduce <- inception_5a/output_inception_5a/output_0_split_2
I0509 21:30:36.471791 16576 net.cpp:334] inception_5b/5x5_reduce -> inception_5b/5x5_reduce
I0509 21:30:36.471801 16576 net.cpp:105] Setting up inception_5b/5x5_reduce
I0509 21:30:36.472146 16576 net.cpp:112] Top shape: 32 48 7 7 (75264)
I0509 21:30:36.472159 16576 layer_factory.hpp:74] Creating layer inception_5b/relu_5x5_reduce
I0509 21:30:36.472167 16576 net.cpp:76] Creating Layer inception_5b/relu_5x5_reduce
I0509 21:30:36.472173 16576 net.cpp:372] inception_5b/relu_5x5_reduce <- inception_5b/5x5_reduce
I0509 21:30:36.472180 16576 net.cpp:323] inception_5b/relu_5x5_reduce -> inception_5b/5x5_reduce (in-place)
I0509 21:30:36.472188 16576 net.cpp:105] Setting up inception_5b/relu_5x5_reduce
I0509 21:30:36.472193 16576 net.cpp:112] Top shape: 32 48 7 7 (75264)
I0509 21:30:36.472203 16576 layer_factory.hpp:74] Creating layer inception_5b/5x5
I0509 21:30:36.472213 16576 net.cpp:76] Creating Layer inception_5b/5x5
I0509 21:30:36.472219 16576 net.cpp:372] inception_5b/5x5 <- inception_5b/5x5_reduce
I0509 21:30:36.472228 16576 net.cpp:334] inception_5b/5x5 -> inception_5b/5x5
I0509 21:30:36.472236 16576 net.cpp:105] Setting up inception_5b/5x5
I0509 21:30:36.473542 16576 net.cpp:112] Top shape: 32 128 7 7 (200704)
I0509 21:30:36.473557 16576 layer_factory.hpp:74] Creating layer inception_5b/relu_5x5
I0509 21:30:36.473565 16576 net.cpp:76] Creating Layer inception_5b/relu_5x5
I0509 21:30:36.473598 16576 net.cpp:372] inception_5b/relu_5x5 <- inception_5b/5x5
I0509 21:30:36.473608 16576 net.cpp:323] inception_5b/relu_5x5 -> inception_5b/5x5 (in-place)
I0509 21:30:36.473618 16576 net.cpp:105] Setting up inception_5b/relu_5x5
I0509 21:30:36.473623 16576 net.cpp:112] Top shape: 32 128 7 7 (200704)
I0509 21:30:36.473628 16576 layer_factory.hpp:74] Creating layer inception_5b/pool
I0509 21:30:36.473636 16576 net.cpp:76] Creating Layer inception_5b/pool
I0509 21:30:36.473642 16576 net.cpp:372] inception_5b/pool <- inception_5a/output_inception_5a/output_0_split_3
I0509 21:30:36.473650 16576 net.cpp:334] inception_5b/pool -> inception_5b/pool
I0509 21:30:36.473659 16576 net.cpp:105] Setting up inception_5b/pool
I0509 21:30:36.473667 16576 net.cpp:112] Top shape: 32 832 7 7 (1304576)
I0509 21:30:36.473672 16576 layer_factory.hpp:74] Creating layer inception_5b/pool_proj
I0509 21:30:36.473685 16576 net.cpp:76] Creating Layer inception_5b/pool_proj
I0509 21:30:36.473690 16576 net.cpp:372] inception_5b/pool_proj <- inception_5b/pool
I0509 21:30:36.473701 16576 net.cpp:334] inception_5b/pool_proj -> inception_5b/pool_proj
I0509 21:30:36.473709 16576 net.cpp:105] Setting up inception_5b/pool_proj
I0509 21:30:36.474628 16576 net.cpp:112] Top shape: 32 128 7 7 (200704)
I0509 21:30:36.474642 16576 layer_factory.hpp:74] Creating layer inception_5b/relu_pool_proj
I0509 21:30:36.474650 16576 net.cpp:76] Creating Layer inception_5b/relu_pool_proj
I0509 21:30:36.474658 16576 net.cpp:372] inception_5b/relu_pool_proj <- inception_5b/pool_proj
I0509 21:30:36.474666 16576 net.cpp:323] inception_5b/relu_pool_proj -> inception_5b/pool_proj (in-place)
I0509 21:30:36.474674 16576 net.cpp:105] Setting up inception_5b/relu_pool_proj
I0509 21:30:36.474680 16576 net.cpp:112] Top shape: 32 128 7 7 (200704)
I0509 21:30:36.474686 16576 layer_factory.hpp:74] Creating layer inception_5b/output
I0509 21:30:36.474694 16576 net.cpp:76] Creating Layer inception_5b/output
I0509 21:30:36.474699 16576 net.cpp:372] inception_5b/output <- inception_5b/1x1
I0509 21:30:36.474706 16576 net.cpp:372] inception_5b/output <- inception_5b/3x3
I0509 21:30:36.474712 16576 net.cpp:372] inception_5b/output <- inception_5b/5x5
I0509 21:30:36.474719 16576 net.cpp:372] inception_5b/output <- inception_5b/pool_proj
I0509 21:30:36.474725 16576 net.cpp:334] inception_5b/output -> inception_5b/output
I0509 21:30:36.474735 16576 net.cpp:105] Setting up inception_5b/output
I0509 21:30:36.474742 16576 net.cpp:112] Top shape: 32 1024 7 7 (1605632)
I0509 21:30:36.474748 16576 layer_factory.hpp:74] Creating layer pool5/7x7_s1
I0509 21:30:36.474756 16576 net.cpp:76] Creating Layer pool5/7x7_s1
I0509 21:30:36.474761 16576 net.cpp:372] pool5/7x7_s1 <- inception_5b/output
I0509 21:30:36.474769 16576 net.cpp:334] pool5/7x7_s1 -> pool5/7x7_s1
I0509 21:30:36.474777 16576 net.cpp:105] Setting up pool5/7x7_s1
I0509 21:30:36.474783 16576 net.cpp:112] Top shape: 32 1024 1 1 (32768)
I0509 21:30:36.474789 16576 layer_factory.hpp:74] Creating layer pool5/drop_7x7_s1
I0509 21:30:36.474798 16576 net.cpp:76] Creating Layer pool5/drop_7x7_s1
I0509 21:30:36.474803 16576 net.cpp:372] pool5/drop_7x7_s1 <- pool5/7x7_s1
I0509 21:30:36.474813 16576 net.cpp:323] pool5/drop_7x7_s1 -> pool5/7x7_s1 (in-place)
I0509 21:30:36.474822 16576 net.cpp:105] Setting up pool5/drop_7x7_s1
I0509 21:30:36.474828 16576 net.cpp:112] Top shape: 32 1024 1 1 (32768)
I0509 21:30:36.474834 16576 layer_factory.hpp:74] Creating layer loss3/classifier
I0509 21:30:36.474843 16576 net.cpp:76] Creating Layer loss3/classifier
I0509 21:30:36.474848 16576 net.cpp:372] loss3/classifier <- pool5/7x7_s1
I0509 21:30:36.474858 16576 net.cpp:334] loss3/classifier -> loss3/classifier
I0509 21:30:36.474867 16576 net.cpp:105] Setting up loss3/classifier
I0509 21:30:36.474900 16576 net.cpp:112] Top shape: 32 2 1 1 (64)
I0509 21:30:36.474910 16576 layer_factory.hpp:74] Creating layer loss3/loss3
I0509 21:30:36.474917 16576 net.cpp:76] Creating Layer loss3/loss3
I0509 21:30:36.474923 16576 net.cpp:372] loss3/loss3 <- loss3/classifier
I0509 21:30:36.474943 16576 net.cpp:372] loss3/loss3 <- label_data_1_split_2
I0509 21:30:36.474956 16576 net.cpp:334] loss3/loss3 -> loss3/loss3
I0509 21:30:36.474964 16576 net.cpp:105] Setting up loss3/loss3
I0509 21:30:36.474972 16576 layer_factory.hpp:74] Creating layer loss3/loss3
I0509 21:30:36.474987 16576 net.cpp:112] Top shape: 1 1 1 1 (1)
I0509 21:30:36.474993 16576 net.cpp:118]     with loss weight 1
I0509 21:30:36.475011 16576 net.cpp:163] loss3/loss3 needs backward computation.
I0509 21:30:36.475018 16576 net.cpp:163] loss3/classifier needs backward computation.
I0509 21:30:36.475044 16576 net.cpp:163] pool5/drop_7x7_s1 needs backward computation.
I0509 21:30:36.475049 16576 net.cpp:163] pool5/7x7_s1 needs backward computation.
…
I0509 21:30:36.484750 16576 solver.cpp:154] Creating test net (#0) specified by net file: ../../train_val.prototxt
I0509 21:30:36.485023 16576 net.cpp:253] The NetState phase (1) differed from the phase (0) specified by a rule in layer data
I0509 21:30:36.486434 16576 net.cpp:42] Initializing net from parameters: 
name: "GoogleNet"
state {
  phase: TEST
}
layer {
  name: "data"
  type: "Data"
  top: "data"
  top: "label"
  include {
    phase: TEST
  }
  transform_param {
    mirror: false
    crop_size: 224
    mean_value: 104
    mean_value: 117
    mean_value: 123
  }
  data_param {
    source: "val_lmdb"
    batch_size: 32
    backend: LMDB
  }
}
layer {
  name: "conv1/7x7_s2"
  type: "Convolution"
  bottom: "data"
  top: "conv1/7x7_s2"
  param {
    lr_mult: 1
    decay_mult: 1
  }
  param {
    lr_mult: 2
    decay_mult: 0
  }
  convolution_param {
    num_output: 64
    pad: 3
    kernel_size: 7
    stride: 2
    weight_filler {
      type: "xavier"
      std: 0.1
    }
    bias_filler {
      type: "constant"
      value: 0.2
    }
  }
}
layer {
  name: "conv1/relu_7x7"
  type: "ReLU"
  bottom: "conv1/7x7_s2"
  top: "conv1/7x7_s2"
}
layer {
  name: "pool1/3x3_s2"
  type: "Pooling"
  bottom: "conv1/7x7_s2"
  top: "pool1/3x3_s2"
  pooling_param {
    pool: MAX
    kernel_size: 3
    stride: 2
  }
}
layer {
  name: "pool1/norm1"
  type: "LRN"
  bottom: "pool1/3x3_s2"
  top: "pool1/norm1"
  lrn_param {
    local_size: 5
    alpha: 0.0001
    beta: 0.75
  }
}
layer {
  name: "conv2/3x3_reduce"
  type: "Convolution"
  bottom: "pool1/norm1"
  top: "conv2/3x3_reduce"
  param {
    lr_mult: 1
    decay_mult: 1
  }
  param {
    lr_mult: 2
    decay_mult: 0
  }
  convolution_param {
    num_output: 64
    kernel_size: 1
    weight_filler {
      type: "xavier"
      std: 0.1
    }
    bias_filler {
      type: "constant"
      value: 0.2
    }
  }
}
layer {
  name: "conv2/relu_3x3_reduce"
  type: "ReLU"
  bottom: "conv2/3x3_reduce"
  top: "conv2/3x3_reduce"
}
layer {
  name: "conv2/3x3"
  type: "Convolution"
  bottom: "conv2/3x3_reduce"
  top: "conv2/3x3"
  param {
    lr_mult: 1
    decay_mult: 1
  }
  param {
    lr_mult: 2
    decay_mult: 0
  }
  convolution_param {
    num_output: 192
    pad: 1
    kernel_size: 3
    weight_filler {
      type: "xavier"
      std: 0.03
    }
    bias_filler {
      type: "constant"
      value: 0.2
    }
  }
}
layer {
  name: "conv2/relu_3x3"
  type: "ReLU"
  bottom: "conv2/3x3"
  top: "conv2/3x3"
}
layer {
  name: "conv2/norm2"
  type: "LRN"
  bottom: "conv2/3x3"
  top: "conv2/norm2"
  lrn_param {
    local_size: 5
    alpha: 0.0001
    beta: 0.75
  }
}
layer {
  name: "pool2/3x3_s2"
  type: "Pooling"
  bottom: "conv2/norm2"
  top: "pool2/3x3_s2"
  pooling_param {
    pool: MAX
    kernel_size: 3
    stride: 2
  }
}
layer {
  name: "inception_3a/1x1"
  type: "Convolution"
  bottom: "pool2/3x3_s2"
  top: "inception_3a/1x1"
  param {
    lr_mult: 1
    decay_mult: 1
  }
  param {
    lr_mult: 2
    decay_mult: 0
  }
  convolution_param {
    num_output: 64
    kernel_size: 1
    weight_filler {
      type: "xavier"
      std: 0.03
    }
    bias_filler {
      type: "constant"
      value: 0.2
    }
  }
}
layer {
  name: "inception_3a/relu_1x1"
  type: "ReLU"
  bottom: "inception_3a/1x1"
  top: "inception_3a/1x1"
}
layer {
  name: "inception_3a/3x3_reduce"
  type: "Convolution"
  bottom: "pool2/3x3_s2"
  top: "inception_3a/3x3_reduce"
  param {
    lr_mult: 1
    decay_mult: 1
  }
  param {
    lr_mult: 2
    decay_mult: 0
  }
  convolution_param {
    num_output: 96
    kernel_size: 1
    weight_filler {
      type: "xavier"
      std: 0.09
    }
    bias_filler {
      type: "constant"
      value: 0.2
    }
  }
}
layer {
  name: "inception_3a/relu_3x3_reduce"
  type: "ReLU"
  bottom: "inception_3a/3x3_reduce"
  top: "inception_3a/3x3_reduce"
}
layer {
  name: "inception_3a/3x3"
  type: "Convolution"
  bottom: "inception_3a/3x3_reduce"
  top: "inception_3a/3x3"
  param {
    lr_mult: 1
    decay_mult: 1
  }
  param {
    lr_mult: 2
    decay_mult: 0
  }
  convolution_param {
    num_output: 128
    pad: 1
    kernel_size: 3
    weight_filler {
      type: "xavier"
      std: 0.03
    }
    bias_filler {
      type: "constant"
      value: 0.2
    }
  }
}
layer {
  name: "inception_3a/relu_3x3"
  type: "ReLU"
  bottom: "inception_3a/3x3"
  top: "inception_3a/3x3"
}
layer {
  name: "inception_3a/5x5_reduce"
  type: "Convolution"
  bottom: "pool2/3x3_s2"
  top: "inception_3a/5x5_reduce"
  param {
    lr_mult: 1
    decay_mult: 1
  }
  param {
    lr_mult: 2
    decay_mult: 0
  }
  convolution_param {
    num_output: 16
    kernel_size: 1
    weight_filler {
      type: "xavier"
      std: 0.2
    }
    bias_filler {
      type: "constant"
      value: 0.2
    }
  }
}
layer {
  name: "inception_3a/relu_5x5_reduce"
  type: "ReLU"
  bottom: "inception_3a/5x5_reduce"
  top: "inception_3a/5x5_reduce"
}
layer {
  name: "inception_3a/5x5"
  type: "Convolution"
  bottom: "inception_3a/5x5_reduce"
  top: "inception_3a/5x5"
  param {
    lr_mult: 1
    decay_mult: 1
  }
  param {
    lr_mult: 2
    decay_mult: 0
  }
  convolution_param {
    num_output: 32
    pad: 2
    kernel_size: 5
    weight_filler {
      type: "xavier"
      std: 0.03
    }
    bias_filler {
      type: "constant"
      value: 0.2
    }
  }
}
layer {
  name: "inception_3a/relu_5x5"
  type: "ReLU"
  bottom: "inception_3a/5x5"
  top: "inception_3a/5x5"
}
layer {
  name: "inception_3a/pool"
  type: "Pooling"
  bottom: "pool2/3x3_s2"
  top: "inception_3a/pool"
  pooling_param {
    pool: MAX
    kernel_size: 3
    stride: 1
    pad: 1
  }
}
layer {
  name: "inception_3a/pool_proj"
  type: "Convolution"
  bottom: "inception_3a/pool"
  top: "inception_3a/pool_proj"
  param {
    lr_mult: 1
    decay_mult: 1
  }
  param {
    lr_mult: 2
    decay_mult: 0
  }
  convolution_param {
    num_output: 32
    kernel_size: 1
    weight_filler {
      type: "xavier"
      std: 0.1
    }
    bias_filler {
      type: "constant"
      value: 0.2
    }
  }
}
layer {
  name: "inception_3a/relu_pool_proj"
  type: "ReLU"
  bottom: "inception_3a/pool_proj"
  top: "inception_3a/pool_proj"
}
layer {
  name: "inception_3a/output"
  type: "Concat"
  bottom: "inception_3a/1x1"
  bottom: "inception_3a/3x3"
  bottom: "inception_3a/5x5"
  bottom: "inception_3a/pool_proj"
  top: "inception_3a/output"
}
layer {
  name: "inception_3b/1x1"
  type: "Convolution"
  bottom: "inception_3a/output"
  top: "inception_3b/1x1"
  param {
    lr_mult: 1
    decay_mult: 1
  }
  param {
    lr_mult: 2
    decay_mult: 0
  }
  convolution_param {
    num_output: 128
    kernel_size: 1
    weight_filler {
      type: "xavier"
      std: 0.03
    }
    bias_filler {
      type: "constant"
      value: 0.2
    }
  }
}
layer {
  name: "inception_3b/relu_1x1"
  type: "ReLU"
  bottom: "inception_3b/1x1"
  top: "inception_3b/1x1"
}
layer {
  name: "inception_3b/3x3_reduce"
  type: "Convolution"
  bottom: "inception_3a/output"
  top: "inception_3b/3x3_reduce"
  param {
    lr_mult: 1
    decay_mult: 1
  }
  param {
    lr_mult: 2
    decay_mult: 0
  }
  convolution_param {
    num_output: 128
    kernel_size: 1
    weight_filler {
      type: "xavier"
      std: 0.09
    }
    bias_filler {
      type: "constant"
      value: 0.2
    }
  }
}
layer {
  name: "inception_3b/relu_3x3_reduce"
  type: "ReLU"
  bottom: "inception_3b/3x3_reduce"
  top: "inception_3b/3x3_reduce"
}
layer {
  name: "inception_3b/3x3"
  type: "Convolution"
  bottom: "inception_3b/3x3_reduce"
  top: "inception_3b/3x3"
  param {
    lr_mult: 1
    decay_mult: 1
  }
  param {
    lr_mult: 2
    decay_mult: 0
  }
  convolution_param {
    num_output: 192
    pad: 1
    kernel_size: 3
    weight_filler {
      type: "xavier"
      std: 0.03
    }
    bias_filler {
      type: "constant"
      value: 0.2
    }
  }
}
layer {
  name: "inception_3b/relu_3x3"
  type: "ReLU"
  bottom: "inception_3b/3x3"
  top: "inception_3b/3x3"
}
layer {
  name: "inception_3b/5x5_reduce"
  type: "Convolution"
  bottom: "inception_3a/output"
  top: "inception_3b/5x5_reduce"
  param {
    lr_mult: 1
    decay_mult: 1
  }
  param {
    lr_mult: 2
    decay_mult: 0
  }
  convolution_param {
    num_output: 32
    kernel_size: 1
    weight_filler {
      type: "xavier"
      std: 0.2
    }
    bias_filler {
      type: "constant"
      value: 0.2
    }
  }
}
layer {
  name: "inception_3b/relu_5x5_reduce"
  type: "ReLU"
  bottom: "inception_3b/5x5_reduce"
  top: "inception_3b/5x5_reduce"
}
layer {
  name: "inception_3b/5x5"
  type: "Convolution"
  bottom: "inception_3b/5x5_reduce"
  top: "inception_3b/5x5"
  param {
    lr_mult: 1
    decay_mult: 1
  }
  param {
    lr_mult: 2
    decay_mult: 0
  }
  convolution_param {
    num_output: 96
    pad: 2
    kernel_size: 5
    weight_filler {
      type: "xavier"
      std: 0.03
    }
    bias_filler {
      type: "constant"
      value: 0.2
    }
  }
}
layer {
  name: "inception_3b/relu_5x5"
  type: "ReLU"
  bottom: "inception_3b/5x5"
  top: "inception_3b/5x5"
}
layer {
  name: "inception_3b/pool"
  type: "Pooling"
  bottom: "inception_3a/output"
  top: "inception_3b/pool"
  pooling_param {
    pool: MAX
    kernel_size: 3
    stride: 1
    pad: 1
  }
}
layer {
  name: "inception_3b/pool_proj"
  type: "Convolution"
  bottom: "inception_3b/pool"
  top: "inception_3b/pool_proj"
  param {
    lr_mult: 1
    decay_mult: 1
  }
  param {
    lr_mult: 2
    decay_mult: 0
  }
  convolution_param {
    num_output: 64
    kernel_size: 1
    weight_filler {
      type: "xavier"
      std: 0.1
    }
    bias_filler {
      type: "constant"
      value: 0.2
    }
  }
}
layer {
  name: "inception_3b/relu_pool_proj"
  type: "ReLU"
  bottom: "inception_3b/pool_proj"
  top: "inception_3b/pool_proj"
}
layer {
  name: "inception_3b/output"
  type: "Concat"
  bottom: "inception_3b/1x1"
  bottom: "inception_3b/3x3"
  bottom: "inception_3b/5x5"
  bottom: "inception_3b/pool_proj"
  top: "inception_3b/output"
}
layer {
  name: "pool3/3x3_s2"
  type: "Pooling"
  bottom: "inception_3b/output"
  top: "pool3/3x3_s2"
  pooling_param {
    pool: MAX
    kernel_size: 3
    stride: 2
  }
}
layer {
  name: "inception_4a/1x1"
  type: "Convolution"
  bottom: "pool3/3x3_s2"
  top: "inception_4a/1x1"
  param {
    lr_mult: 1
    decay_mult: 1
  }
  param {
    lr_mult: 2
    decay_mult: 0
  }
  convolution_param {
    num_output: 192
    kernel_size: 1
    weight_filler {
      type: "xavier"
      std: 0.03
    }
    bias_filler {
      type: "constant"
      value: 0.2
    }
  }
}
layer {
  name: "inception_4a/relu_1x1"
  type: "ReLU"
  bottom: "inception_4a/1x1"
  top: "inception_4a/1x1"
}
layer {
  name: "inception_4a/3x3_reduce"
  type: "Convolution"
  bottom: "pool3/3x3_s2"
  top: "inception_4a/3x3_reduce"
  param {
    lr_mult: 1
    decay_mult: 1
  }
  param {
    lr_mult: 2
    decay_mult: 0
  }
  convolution_param {
    num_output: 96
    kernel_size: 1
    weight_filler {
      type: "xavier"
      std: 0.09
    }
    bias_filler {
      type: "constant"
      value: 0.2
    }
  }
}
layer {
  name: "inception_4a/relu_3x3_reduce"
  type: "ReLU"
  bottom: "inception_4a/3x3_reduce"
  top: "inception_4a/3x3_reduce"
}
layer {
  name: "inception_4a/3x3"
  type: "Convolution"
  bottom: "inception_4a/3x3_reduce"
  top: "inception_4a/3x3"
  param {
    lr_mult: 1
    decay_mult: 1
  }
  param {
    lr_mult: 2
    decay_mult: 0
  }
  convolution_param {
    num_output: 208
    pad: 1
    kernel_size: 3
    weight_filler {
      type: "xavier"
      std: 0.03
    }
    bias_filler {
      type: "constant"
      value: 0.2
    }
  }
}
layer {
  name: "inception_4a/relu_3x3"
  type: "ReLU"
  bottom: "inception_4a/3x3"
  top: "inception_4a/3x3"
}
layer {
  name: "inception_4a/5x5_reduce"
  type: "Convolution"
  bottom: "pool3/3x3_s2"
  top: "inception_4a/5x5_reduce"
  param {
    lr_mult: 1
    decay_mult: 1
  }
  param {
    lr_mult: 2
    decay_mult: 0
  }
  convolution_param {
    num_output: 16
    kernel_size: 1
    weight_filler {
      type: "xavier"
      std: 0.2
    }
    bias_filler {
      type: "constant"
      value: 0.2
    }
  }
}
layer {
  name: "inception_4a/relu_5x5_reduce"
  type: "ReLU"
  bottom: "inception_4a/5x5_reduce"
  top: "inception_4a/5x5_reduce"
}
layer {
  name: "inception_4a/5x5"
  type: "Convolution"
  bottom: "inception_4a/5x5_reduce"
  top: "inception_4a/5x5"
  param {
    lr_mult: 1
    decay_mult: 1
  }
  param {
    lr_mult: 2
    decay_mult: 0
  }
  convolution_param {
    num_output: 48
    pad: 2
    kernel_size: 5
    weight_filler {
      type: "xavier"
      std: 0.03
    }
    bias_filler {
      type: "constant"
      value: 0.2
    }
  }
}
layer {
  name: "inception_4a/relu_5x5"
  type: "ReLU"
  bottom: "inception_4a/5x5"
  top: "inception_4a/5x5"
}
layer {
  name: "inception_4a/pool"
  type: "Pooling"
  bottom: "pool3/3x3_s2"
  top: "inception_4a/pool"
  pooling_param {
    pool: MAX
    kernel_size: 3
    stride: 1
    pad: 1
  }
}
layer {
  name: "inception_4a/pool_proj"
  type: "Convolution"
  bottom: "inception_4a/pool"
  top: "inception_4a/pool_proj"
  param {
    lr_mult: 1
    decay_mult: 1
  }
  param {
    lr_mult: 2
    decay_mult: 0
  }
  convolution_param {
    num_output: 64
    kernel_size: 1
    weight_filler {
      type: "xavier"
      std: 0.1
    }
    bias_filler {
      type: "constant"
      value: 0.2
    }
  }
}
layer {
  name: "inception_4a/relu_pool_proj"
  type: "ReLU"
  bottom: "inception_4a/pool_proj"
  top: "inception_4a/pool_proj"
}
layer {
  name: "inception_4a/output"
  type: "Concat"
  bottom: "inception_4a/1x1"
  bottom: "inception_4a/3x3"
  bottom: "inception_4a/5x5"
  bottom: "inception_4a/pool_proj"
  top: "inception_4a/output"
}
layer {
  name: "loss1/ave_pool"
  type: "Pooling"
  bottom: "inception_4a/output"
  top: "loss1/ave_pool"
  pooling_param {
    pool: AVE
    kernel_size: 5
    stride: 3
  }
}
layer {
  name: "loss1/conv"
  type: "Convolution"
  bottom: "loss1/ave_pool"
  top: "loss1/conv"
  param {
    lr_mult: 1
    decay_mult: 1
  }
  param {
    lr_mult: 2
    decay_mult: 0
  }
  convolution_param {
    num_output: 128
    kernel_size: 1
    weight_filler {
      type: "xavier"
      std: 0.08
    }
    bias_filler {
      type: "constant"
      value: 0.2
    }
  }
}
layer {
  name: "loss1/relu_conv"
  type: "ReLU"
  bottom: "loss1/conv"
  top: "loss1/conv"
}
layer {
  name: "loss1/fc"
  type: "InnerProduct"
  bottom: "loss1/conv"
  top: "loss1/fc"
  param {
    lr_mult: 1
    decay_mult: 1
  }
  param {
    lr_mult: 2
    decay_mult: 0
  }
  inner_product_param {
    num_output: 1024
    weight_filler {
      type: "xavier"
      std: 0.02
    }
    bias_filler {
      type: "constant"
      value: 0.2
    }
  }
}
layer {
  name: "loss1/relu_fc"
  type: "ReLU"
  bottom: "loss1/fc"
  top: "loss1/fc"
}
layer {
  name: "loss1/drop_fc"
  type: "Dropout"
  bottom: "loss1/fc"
  top: "loss1/fc"
  dropout_param {
    dropout_ratio: 0.7
  }
}
layer {
  name: "loss1/classifier"
  type: "InnerProduct"
  bottom: "loss1/fc"
  top: "loss1/classifier"
  param {
    lr_mult: 1
    decay_mult: 1
  }
  param {
    lr_mult: 2
    decay_mult: 0
  }
  inner_product_param {
    num_output: 2
    weight_filler {
      type: "xavier"
      std: 0.0009765625
    }
    bias_filler {
      type: "constant"
      value: 0
    }
  }
}
layer {
  name: "loss1/loss"
  type: "SoftmaxWithLoss"
  bottom: "loss1/classifier"
  bottom: "label"
  top: "loss1/loss1"
  loss_weight: 0.3
}
layer {
  name: "loss1/top-1"
  type: "Accuracy"
  bottom: "loss1/classifier"
  bottom: "label"
  top: "loss1/top-1"
  include {
    phase: TEST
  }
}
layer {
  name: "inception_4b/1x1"
  type: "Convolution"
  bottom: "inception_4a/output"
  top: "inception_4b/1x1"
  param {
    lr_mult: 1
    decay_mult: 1
  }
  param {
    lr_mult: 2
    decay_mult: 0
  }
  convolution_param {
    num_output: 160
    kernel_size: 1
    weight_filler {
      type: "xavier"
      std: 0.03
    }
    bias_filler {
      type: "constant"
      value: 0.2
    }
  }
}
layer {
  name: "inception_4b/relu_1x1"
  type: "ReLU"
  bottom: "inception_4b/1x1"
  top: "inception_4b/1x1"
}
layer {
  name: "inception_4b/3x3_reduce"
  type: "Convolution"
  bottom: "inception_4a/output"
  top: "inception_4b/3x3_reduce"
  param {
    lr_mult: 1
    decay_mult: 1
  }
  param {
    lr_mult: 2
    decay_mult: 0
  }
  convolution_param {
    num_output: 112
    kernel_size: 1
    weight_filler {
      type: "xavier"
      std: 0.09
    }
    bias_filler {
      type: "constant"
      value: 0.2
    }
  }
}
layer {
  name: "inception_4b/relu_3x3_reduce"
  type: "ReLU"
  bottom: "inception_4b/3x3_reduce"
  top: "inception_4b/3x3_reduce"
}
layer {
  name: "inception_4b/3x3"
  type: "Convolution"
  bottom: "inception_4b/3x3_reduce"
  top: "inception_4b/3x3"
  param {
    lr_mult: 1
    decay_mult: 1
  }
  param {
    lr_mult: 2
    decay_mult: 0
  }
  convolution_param {
    num_output: 224
    pad: 1
    kernel_size: 3
    weight_filler {
      type: "xavier"
      std: 0.03
    }
    bias_filler {
      type: "constant"
      value: 0.2
    }
  }
}
layer {
  name: "inception_4b/relu_3x3"
  type: "ReLU"
  bottom: "inception_4b/3x3"
  top: "inception_4b/3x3"
}
layer {
  name: "inception_4b/5x5_reduce"
  type: "Convolution"
  bottom: "inception_4a/output"
  top: "inception_4b/5x5_reduce"
  param {
    lr_mult: 1
    decay_mult: 1
  }
  param {
    lr_mult: 2
    decay_mult: 0
  }
  convolution_param {
    num_output: 24
    kernel_size: 1
    weight_filler {
      type: "xavier"
      std: 0.2
    }
    bias_filler {
      type: "constant"
      value: 0.2
    }
  }
}
layer {
  name: "inception_4b/relu_5x5_reduce"
  type: "ReLU"
  bottom: "inception_4b/5x5_reduce"
  top: "inception_4b/5x5_reduce"
}
layer {
  name: "inception_4b/5x5"
  type: "Convolution"
  bottom: "inception_4b/5x5_reduce"
  top: "inception_4b/5x5"
  param {
    lr_mult: 1
    decay_mult: 1
  }
  param {
    lr_mult: 2
    decay_mult: 0
  }
  convolution_param {
    num_output: 64
    pad: 2
    kernel_size: 5
    weight_filler {
      type: "xavier"
      std: 0.03
    }
    bias_filler {
      type: "constant"
      value: 0.2
    }
  }
}
layer {
  name: "inception_4b/relu_5x5"
  type: "ReLU"
  bottom: "inception_4b/5x5"
  top: "inception_4b/5x5"
}
layer {
  name: "inception_4b/pool"
  type: "Pooling"
  bottom: "inception_4a/output"
  top: "inception_4b/pool"
  pooling_param {
    pool: MAX
    kernel_size: 3
    stride: 1
    pad: 1
  }
}
layer {
  name: "inception_4b/pool_proj"
  type: "Convolution"
  bottom: "inception_4b/pool"
  top: "inception_4b/pool_proj"
  param {
    lr_mult: 1
    decay_mult: 1
  }
  param {
    lr_mult: 2
    decay_mult: 0
  }
  convolution_param {
    num_output: 64
    kernel_size: 1
    weight_filler {
      type: "xavier"
      std: 0.1
    }
    bias_filler {
      type: "constant"
      value: 0.2
    }
  }
}
layer {
  name: "inception_4b/relu_pool_proj"
  type: "ReLU"
  bottom: "inception_4b/pool_proj"
  top: "inception_4b/pool_proj"
}
layer {
  name: "inception_4b/output"
  type: "Concat"
  bottom: "inception_4b/1x1"
  bottom: "inception_4b/3x3"
  bottom: "inception_4b/5x5"
  bottom: "inception_4b/pool_proj"
  top: "inception_4b/output"
}
layer {
  name: "inception_4c/1x1"
  type: "Convolution"
  bottom: "inception_4b/output"
  top: "inception_4c/1x1"
  param {
    lr_mult: 1
    decay_mult: 1
  }
  param {
    lr_mult: 2
    decay_mult: 0
  }
  convolution_param {
    num_output: 128
    kernel_size: 1
    weight_filler {
      type: "xavier"
      std: 0.03
    }
    bias_filler {
      type: "constant"
      value: 0.2
    }
  }
}
layer {
  name: "inception_4c/relu_1x1"
  type: "ReLU"
  bottom: "inception_4c/1x1"
  top: "inception_4c/1x1"
}
layer {
  name: "inception_4c/3x3_reduce"
  type: "Convolution"
  bottom: "inception_4b/output"
  top: "inception_4c/3x3_reduce"
  param {
    lr_mult: 1
    decay_mult: 1
  }
  param {
    lr_mult: 2
    decay_mult: 0
  }
  convolution_param {
    num_output: 128
    kernel_size: 1
    weight_filler {
      type: "xavier"
      std: 0.09
    }
    bias_filler {
      type: "constant"
      value: 0.2
    }
  }
}
layer {
  name: "inception_4c/relu_3x3_reduce"
  type: "ReLU"
  bottom: "inception_4c/3x3_reduce"
  top: "inception_4c/3x3_reduce"
}
layer {
  name: "inception_4c/3x3"
  type: "Convolution"
  bottom: "inception_4c/3x3_reduce"
  top: "inception_4c/3x3"
  param {
    lr_mult: 1
    decay_mult: 1
  }
  param {
    lr_mult: 2
    decay_mult: 0
  }
  convolution_param {
    num_output: 256
    pad: 1
    kernel_size: 3
    weight_filler {
      type: "xavier"
      std: 0.03
    }
    bias_filler {
      type: "constant"
      value: 0.2
    }
  }
}
layer {
  name: "inception_4c/relu_3x3"
  type: "ReLU"
  bottom: "inception_4c/3x3"
  top: "inception_4c/3x3"
}
layer {
  name: "inception_4c/5x5_reduce"
  type: "Convolution"
  bottom: "inception_4b/output"
  top: "inception_4c/5x5_reduce"
  param {
    lr_mult: 1
    decay_mult: 1
  }
  param {
    lr_mult: 2
    decay_mult: 0
  }
  convolution_param {
    num_output: 24
    kernel_size: 1
    weight_filler {
      type: "xavier"
      std: 0.2
    }
    bias_filler {
      type: "constant"
      value: 0.2
    }
  }
}
layer {
  name: "inception_4c/relu_5x5_reduce"
  type: "ReLU"
  bottom: "inception_4c/5x5_reduce"
  top: "inception_4c/5x5_reduce"
}
layer {
  name: "inception_4c/5x5"
  type: "Convolution"
  bottom: "inception_4c/5x5_reduce"
  top: "inception_4c/5x5"
  param {
    lr_mult: 1
    decay_mult: 1
  }
  param {
    lr_mult: 2
    decay_mult: 0
  }
  convolution_param {
    num_output: 64
    pad: 2
    kernel_size: 5
    weight_filler {
      type: "xavier"
      std: 0.03
    }
    bias_filler {
      type: "constant"
      value: 0.2
    }
  }
}
layer {
  name: "inception_4c/relu_5x5"
  type: "ReLU"
  bottom: "inception_4c/5x5"
  top: "inception_4c/5x5"
}
layer {
  name: "inception_4c/pool"
  type: "Pooling"
  bottom: "inception_4b/output"
  top: "inception_4c/pool"
  pooling_param {
    pool: MAX
    kernel_size: 3
    stride: 1
    pad: 1
  }
}
layer {
  name: "inception_4c/pool_proj"
  type: "Convolution"
  bottom: "inception_4c/pool"
  top: "inception_4c/pool_proj"
  param {
    lr_mult: 1
    decay_mult: 1
  }
  param {
    lr_mult: 2
    decay_mult: 0
  }
  convolution_param {
    num_output: 64
    kernel_size: 1
    weight_filler {
      type: "xavier"
      std: 0.1
    }
    bias_filler {
      type: "constant"
      value: 0.2
    }
  }
}
layer {
  name: "inception_4c/relu_pool_proj"
  type: "ReLU"
  bottom: "inception_4c/pool_proj"
  top: "inception_4c/pool_proj"
}
layer {
  name: "inception_4c/output"
  type: "Concat"
  bottom: "inception_4c/1x1"
  bottom: "inception_4c/3x3"
  bottom: "inception_4c/5x5"
  bottom: "inception_4c/pool_proj"
  top: "inception_4c/output"
}
layer {
  name: "inception_4d/1x1"
  type: "Convolution"
  bottom: "inception_4c/output"
  top: "inception_4d/1x1"
  param {
    lr_mult: 1
    decay_mult: 1
  }
  param {
    lr_mult: 2
    decay_mult: 0
  }
  convolution_param {
    num_output: 112
    kernel_size: 1
    weight_filler {
      type: "xavier"
      std: 0.03
    }
    bias_filler {
      type: "constant"
      value: 0.2
    }
  }
}
layer {
  name: "inception_4d/relu_1x1"
  type: "ReLU"
  bottom: "inception_4d/1x1"
  top: "inception_4d/1x1"
}
layer {
  name: "inception_4d/3x3_reduce"
  type: "Convolution"
  bottom: "inception_4c/output"
  top: "inception_4d/3x3_reduce"
  param {
    lr_mult: 1
    decay_mult: 1
  }
  param {
    lr_mult: 2
    decay_mult: 0
  }
  convolution_param {
    num_output: 144
    kernel_size: 1
    weight_filler {
      type: "xavier"
      std: 0.09
    }
    bias_filler {
      type: "constant"
      value: 0.2
    }
  }
}
layer {
  name: "inception_4d/relu_3x3_reduce"
  type: "ReLU"
  bottom: "inception_4d/3x3_reduce"
  top: "inception_4d/3x3_reduce"
}
layer {
  name: "inception_4d/3x3"
  type: "Convolution"
  bottom: "inception_4d/3x3_reduce"
  top: "inception_4d/3x3"
  param {
    lr_mult: 1
    decay_mult: 1
  }
  param {
    lr_mult: 2
    decay_mult: 0
  }
  convolution_param {
    num_output: 288
    pad: 1
    kernel_size: 3
    weight_filler {
      type: "xavier"
      std: 0.03
    }
    bias_filler {
      type: "constant"
      value: 0.2
    }
  }
}
layer {
  name: "inception_4d/relu_3x3"
  type: "ReLU"
  bottom: "inception_4d/3x3"
  top: "inception_4d/3x3"
}
layer {
  name: "inception_4d/5x5_reduce"
  type: "Convolution"
  bottom: "inception_4c/output"
  top: "inception_4d/5x5_reduce"
  param {
    lr_mult: 1
    decay_mult: 1
  }
  param {
    lr_mult: 2
    decay_mult: 0
  }
  convolution_param {
    num_output: 32
    kernel_size: 1
    weight_filler {
      type: "xavier"
      std: 0.2
    }
    bias_filler {
      type: "constant"
      value: 0.2
    }
  }
}
layer {
  name: "inception_4d/relu_5x5_reduce"
  type: "ReLU"
  bottom: "inception_4d/5x5_reduce"
  top: "inception_4d/5x5_reduce"
}
layer {
  name: "inception_4d/5x5"
  type: "Convolution"
  bottom: "inception_4d/5x5_reduce"
  top: "inception_4d/5x5"
  param {
    lr_mult: 1
    decay_mult: 1
  }
  param {
    lr_mult: 2
    decay_mult: 0
  }
  convolution_param {
    num_output: 64
    pad: 2
    kernel_size: 5
    weight_filler {
      type: "xavier"
      std: 0.03
    }
    bias_filler {
      type: "constant"
      value: 0.2
    }
  }
}
layer {
  name: "inception_4d/relu_5x5"
  type: "ReLU"
  bottom: "inception_4d/5x5"
  top: "inception_4d/5x5"
}
layer {
  name: "inception_4d/pool"
  type: "Pooling"
  bottom: "inception_4c/output"
  top: "inception_4d/pool"
  pooling_param {
    pool: MAX
    kernel_size: 3
    stride: 1
    pad: 1
  }
}
layer {
  name: "inception_4d/pool_proj"
  type: "Convolution"
  bottom: "inception_4d/pool"
  top: "inception_4d/pool_proj"
  param {
    lr_mult: 1
    decay_mult: 1
  }
  param {
    lr_mult: 2
    decay_mult: 0
  }
  convolution_param {
    num_output: 64
    kernel_size: 1
    weight_filler {
      type: "xavier"
      std: 0.1
    }
    bias_filler {
      type: "constant"
      value: 0.2
    }
  }
}
layer {
  name: "inception_4d/relu_pool_proj"
  type: "ReLU"
  bottom: "inception_4d/pool_proj"
  top: "inception_4d/pool_proj"
}
layer {
  name: "inception_4d/output"
  type: "Concat"
  bottom: "inception_4d/1x1"
  bottom: "inception_4d/3x3"
  bottom: "inception_4d/5x5"
  bottom: "inception_4d/pool_proj"
  top: "inception_4d/output"
}
layer {
  name: "loss2/ave_pool"
  type: "Pooling"
  bottom: "inception_4d/output"
  top: "loss2/ave_pool"
  pooling_param {
    pool: AVE
    kernel_size: 5
    stride: 3
  }
}
layer {
  name: "loss2/conv"
  type: "Convolution"
  bottom: "loss2/ave_pool"
  top: "loss2/conv"
  param {
    lr_mult: 1
    decay_mult: 1
  }
  param {
    lr_mult: 2
    decay_mult: 0
  }
  convolution_param {
    num_output: 128
    kernel_size: 1
    weight_filler {
      type: "xavier"
      std: 0.08
    }
    bias_filler {
      type: "constant"
      value: 0.2
    }
  }
}
layer {
  name: "loss2/relu_conv"
  type: "ReLU"
  bottom: "loss2/conv"
  top: "loss2/conv"
}
layer {
  name: "loss2/fc"
  type: "InnerProduct"
…
I0509 21:30:36.541159 16576 net.cpp:112] Top shape: 32 128 14 14 (802816)
I0509 21:30:36.541175 16576 layer_factory.hpp:74] Creating layer inception_4c/relu_1x1
I0509 21:30:36.541183 16576 net.cpp:76] Creating Layer inception_4c/relu_1x1
I0509 21:30:36.541189 16576 net.cpp:372] inception_4c/relu_1x1 <- inception_4c/1x1
I0509 21:30:36.541200 16576 net.cpp:323] inception_4c/relu_1x1 -> inception_4c/1x1 (in-place)
I0509 21:30:36.541208 16576 net.cpp:105] Setting up inception_4c/relu_1x1
I0509 21:30:36.541213 16576 net.cpp:112] Top shape: 32 128 14 14 (802816)
I0509 21:30:36.541240 16576 layer_factory.hpp:74] Creating layer inception_4c/3x3_reduce
I0509 21:30:36.541250 16576 net.cpp:76] Creating Layer inception_4c/3x3_reduce
I0509 21:30:36.541256 16576 net.cpp:372] inception_4c/3x3_reduce <- inception_4b/output_inception_4b/output_0_split_1
I0509 21:30:36.541265 16576 net.cpp:334] inception_4c/3x3_reduce -> inception_4c/3x3_reduce
I0509 21:30:36.541286 16576 net.cpp:105] Setting up inception_4c/3x3_reduce
I0509 21:30:36.541925 16576 net.cpp:112] Top shape: 32 128 14 14 (802816)
I0509 21:30:36.541942 16576 layer_factory.hpp:74] Creating layer inception_4c/relu_3x3_reduce
I0509 21:30:36.541951 16576 net.cpp:76] Creating Layer inception_4c/relu_3x3_reduce
I0509 21:30:36.541957 16576 net.cpp:372] inception_4c/relu_3x3_reduce <- inception_4c/3x3_reduce
I0509 21:30:36.541965 16576 net.cpp:323] inception_4c/relu_3x3_reduce -> inception_4c/3x3_reduce (in-place)
I0509 21:30:36.541972 16576 net.cpp:105] Setting up inception_4c/relu_3x3_reduce
I0509 21:30:36.543579 16576 net.cpp:112] Top shape: 32 128 14 14 (802816)
I0509 21:30:36.543596 16576 layer_factory.hpp:74] Creating layer inception_4c/3x3
I0509 21:30:36.543607 16576 net.cpp:76] Creating Layer inception_4c/3x3
I0509 21:30:36.543614 16576 net.cpp:372] inception_4c/3x3 <- inception_4c/3x3_reduce
I0509 21:30:36.543627 16576 net.cpp:334] inception_4c/3x3 -> inception_4c/3x3
I0509 21:30:36.543638 16576 net.cpp:105] Setting up inception_4c/3x3
I0509 21:30:36.546247 16576 net.cpp:112] Top shape: 32 256 14 14 (1605632)
I0509 21:30:36.546316 16576 layer_factory.hpp:74] Creating layer inception_4c/relu_3x3
I0509 21:30:36.546337 16576 net.cpp:76] Creating Layer inception_4c/relu_3x3
I0509 21:30:36.546350 16576 net.cpp:372] inception_4c/relu_3x3 <- inception_4c/3x3
I0509 21:30:36.546365 16576 net.cpp:323] inception_4c/relu_3x3 -> inception_4c/3x3 (in-place)
I0509 21:30:36.546380 16576 net.cpp:105] Setting up inception_4c/relu_3x3
I0509 21:30:36.546391 16576 net.cpp:112] Top shape: 32 256 14 14 (1605632)
I0509 21:30:36.546401 16576 layer_factory.hpp:74] Creating layer inception_4c/5x5_reduce
I0509 21:30:36.546422 16576 net.cpp:76] Creating Layer inception_4c/5x5_reduce
I0509 21:30:36.546434 16576 net.cpp:372] inception_4c/5x5_reduce <- inception_4b/output_inception_4b/output_0_split_2
I0509 21:30:36.546452 16576 net.cpp:334] inception_4c/5x5_reduce -> inception_4c/5x5_reduce
I0509 21:30:36.546469 16576 net.cpp:105] Setting up inception_4c/5x5_reduce
I0509 21:30:36.546638 16576 net.cpp:112] Top shape: 32 24 14 14 (150528)
I0509 21:30:36.546659 16576 layer_factory.hpp:74] Creating layer inception_4c/relu_5x5_reduce
I0509 21:30:36.546674 16576 net.cpp:76] Creating Layer inception_4c/relu_5x5_reduce
I0509 21:30:36.546685 16576 net.cpp:372] inception_4c/relu_5x5_reduce <- inception_4c/5x5_reduce
I0509 21:30:36.546700 16576 net.cpp:323] inception_4c/relu_5x5_reduce -> inception_4c/5x5_reduce (in-place)
I0509 21:30:36.546721 16576 net.cpp:105] Setting up inception_4c/relu_5x5_reduce
I0509 21:30:36.546733 16576 net.cpp:112] Top shape: 32 24 14 14 (150528)
I0509 21:30:36.546743 16576 layer_factory.hpp:74] Creating layer inception_4c/5x5
I0509 21:30:36.546762 16576 net.cpp:76] Creating Layer inception_4c/5x5
I0509 21:30:36.546775 16576 net.cpp:372] inception_4c/5x5 <- inception_4c/5x5_reduce
I0509 21:30:36.546793 16576 net.cpp:334] inception_4c/5x5 -> inception_4c/5x5
I0509 21:30:36.546811 16576 net.cpp:105] Setting up inception_4c/5x5
I0509 21:30:36.547297 16576 net.cpp:112] Top shape: 32 64 14 14 (401408)
I0509 21:30:36.547322 16576 layer_factory.hpp:74] Creating layer inception_4c/relu_5x5
I0509 21:30:36.547336 16576 net.cpp:76] Creating Layer inception_4c/relu_5x5
I0509 21:30:36.547348 16576 net.cpp:372] inception_4c/relu_5x5 <- inception_4c/5x5
I0509 21:30:36.547361 16576 net.cpp:323] inception_4c/relu_5x5 -> inception_4c/5x5 (in-place)
I0509 21:30:36.547379 16576 net.cpp:105] Setting up inception_4c/relu_5x5
I0509 21:30:36.547389 16576 net.cpp:112] Top shape: 32 64 14 14 (401408)
I0509 21:30:36.547399 16576 layer_factory.hpp:74] Creating layer inception_4c/pool
I0509 21:30:36.547447 16576 net.cpp:76] Creating Layer inception_4c/pool
I0509 21:30:36.547461 16576 net.cpp:372] inception_4c/pool <- inception_4b/output_inception_4b/output_0_split_3
I0509 21:30:36.547482 16576 net.cpp:334] inception_4c/pool -> inception_4c/pool
I0509 21:30:36.547498 16576 net.cpp:105] Setting up inception_4c/pool
I0509 21:30:36.547513 16576 net.cpp:112] Top shape: 32 512 14 14 (3211264)
I0509 21:30:36.547525 16576 layer_factory.hpp:74] Creating layer inception_4c/pool_proj
I0509 21:30:36.547540 16576 net.cpp:76] Creating Layer inception_4c/pool_proj
I0509 21:30:36.547552 16576 net.cpp:372] inception_4c/pool_proj <- inception_4c/pool
I0509 21:30:36.547571 16576 net.cpp:334] inception_4c/pool_proj -> inception_4c/pool_proj
I0509 21:30:36.547590 16576 net.cpp:105] Setting up inception_4c/pool_proj
I0509 21:30:36.547922 16576 net.cpp:112] Top shape: 32 64 14 14 (401408)
I0509 21:30:36.547938 16576 layer_factory.hpp:74] Creating layer inception_4c/relu_pool_proj
I0509 21:30:36.547946 16576 net.cpp:76] Creating Layer inception_4c/relu_pool_proj
I0509 21:30:36.547953 16576 net.cpp:372] inception_4c/relu_pool_proj <- inception_4c/pool_proj
I0509 21:30:36.547960 16576 net.cpp:323] inception_4c/relu_pool_proj -> inception_4c/pool_proj (in-place)
I0509 21:30:36.547968 16576 net.cpp:105] Setting up inception_4c/relu_pool_proj
I0509 21:30:36.547973 16576 net.cpp:112] Top shape: 32 64 14 14 (401408)
I0509 21:30:36.547978 16576 layer_factory.hpp:74] Creating layer inception_4c/output
I0509 21:30:36.547989 16576 net.cpp:76] Creating Layer inception_4c/output
I0509 21:30:36.547996 16576 net.cpp:372] inception_4c/output <- inception_4c/1x1
I0509 21:30:36.548002 16576 net.cpp:372] inception_4c/output <- inception_4c/3x3
I0509 21:30:36.548008 16576 net.cpp:372] inception_4c/output <- inception_4c/5x5
I0509 21:30:36.548015 16576 net.cpp:372] inception_4c/output <- inception_4c/pool_proj
I0509 21:30:36.548022 16576 net.cpp:334] inception_4c/output -> inception_4c/output
I0509 21:30:36.548030 16576 net.cpp:105] Setting up inception_4c/output
I0509 21:30:36.548038 16576 net.cpp:112] Top shape: 32 512 14 14 (3211264)
I0509 21:30:36.548043 16576 layer_factory.hpp:74] Creating layer inception_4c/output_inception_4c/output_0_split
I0509 21:30:36.548050 16576 net.cpp:76] Creating Layer inception_4c/output_inception_4c/output_0_split
I0509 21:30:36.548056 16576 net.cpp:372] inception_4c/output_inception_4c/output_0_split <- inception_4c/output
I0509 21:30:36.548064 16576 net.cpp:334] inception_4c/output_inception_4c/output_0_split -> inception_4c/output_inception_4c/output_0_split_0
I0509 21:30:36.548075 16576 net.cpp:334] inception_4c/output_inception_4c/output_0_split -> inception_4c/output_inception_4c/output_0_split_1
I0509 21:30:36.548084 16576 net.cpp:334] inception_4c/output_inception_4c/output_0_split -> inception_4c/output_inception_4c/output_0_split_2
I0509 21:30:36.548094 16576 net.cpp:334] inception_4c/output_inception_4c/output_0_split -> inception_4c/output_inception_4c/output_0_split_3
I0509 21:30:36.548101 16576 net.cpp:105] Setting up inception_4c/output_inception_4c/output_0_split
I0509 21:30:36.548108 16576 net.cpp:112] Top shape: 32 512 14 14 (3211264)
I0509 21:30:36.548113 16576 net.cpp:112] Top shape: 32 512 14 14 (3211264)
I0509 21:30:36.548118 16576 net.cpp:112] Top shape: 32 512 14 14 (3211264)
I0509 21:30:36.548122 16576 net.cpp:112] Top shape: 32 512 14 14 (3211264)
I0509 21:30:36.548128 16576 layer_factory.hpp:74] Creating layer inception_4d/1x1
I0509 21:30:36.548138 16576 net.cpp:76] Creating Layer inception_4d/1x1
I0509 21:30:36.548144 16576 net.cpp:372] inception_4d/1x1 <- inception_4c/output_inception_4c/output_0_split_0
I0509 21:30:36.548152 16576 net.cpp:334] inception_4d/1x1 -> inception_4d/1x1
I0509 21:30:36.548161 16576 net.cpp:105] Setting up inception_4d/1x1
I0509 21:30:36.548658 16576 net.cpp:112] Top shape: 32 112 14 14 (702464)
I0509 21:30:36.548671 16576 layer_factory.hpp:74] Creating layer inception_4d/relu_1x1
I0509 21:30:36.548678 16576 net.cpp:76] Creating Layer inception_4d/relu_1x1
I0509 21:30:36.548718 16576 net.cpp:372] inception_4d/relu_1x1 <- inception_4d/1x1
I0509 21:30:36.548730 16576 net.cpp:323] inception_4d/relu_1x1 -> inception_4d/1x1 (in-place)
I0509 21:30:36.548739 16576 net.cpp:105] Setting up inception_4d/relu_1x1
I0509 21:30:36.548744 16576 net.cpp:112] Top shape: 32 112 14 14 (702464)
I0509 21:30:36.548750 16576 layer_factory.hpp:74] Creating layer inception_4d/3x3_reduce
I0509 21:30:36.548761 16576 net.cpp:76] Creating Layer inception_4d/3x3_reduce
I0509 21:30:36.548771 16576 net.cpp:372] inception_4d/3x3_reduce <- inception_4c/output_inception_4c/output_0_split_1
I0509 21:30:36.548791 16576 net.cpp:334] inception_4d/3x3_reduce -> inception_4d/3x3_reduce
I0509 21:30:36.548809 16576 net.cpp:105] Setting up inception_4d/3x3_reduce
I0509 21:30:36.549454 16576 net.cpp:112] Top shape: 32 144 14 14 (903168)
I0509 21:30:36.549468 16576 layer_factory.hpp:74] Creating layer inception_4d/relu_3x3_reduce
I0509 21:30:36.549476 16576 net.cpp:76] Creating Layer inception_4d/relu_3x3_reduce
I0509 21:30:36.549482 16576 net.cpp:372] inception_4d/relu_3x3_reduce <- inception_4d/3x3_reduce
I0509 21:30:36.549489 16576 net.cpp:323] inception_4d/relu_3x3_reduce -> inception_4d/3x3_reduce (in-place)
I0509 21:30:36.549496 16576 net.cpp:105] Setting up inception_4d/relu_3x3_reduce
I0509 21:30:36.549502 16576 net.cpp:112] Top shape: 32 144 14 14 (903168)
I0509 21:30:36.549507 16576 layer_factory.hpp:74] Creating layer inception_4d/3x3
I0509 21:30:36.549518 16576 net.cpp:76] Creating Layer inception_4d/3x3
I0509 21:30:36.549525 16576 net.cpp:372] inception_4d/3x3 <- inception_4d/3x3_reduce
I0509 21:30:36.549532 16576 net.cpp:334] inception_4d/3x3 -> inception_4d/3x3
I0509 21:30:36.549542 16576 net.cpp:105] Setting up inception_4d/3x3
I0509 21:30:36.552680 16576 net.cpp:112] Top shape: 32 288 14 14 (1806336)
I0509 21:30:36.552697 16576 layer_factory.hpp:74] Creating layer inception_4d/relu_3x3
I0509 21:30:36.552706 16576 net.cpp:76] Creating Layer inception_4d/relu_3x3
I0509 21:30:36.552712 16576 net.cpp:372] inception_4d/relu_3x3 <- inception_4d/3x3
I0509 21:30:36.552719 16576 net.cpp:323] inception_4d/relu_3x3 -> inception_4d/3x3 (in-place)
I0509 21:30:36.552727 16576 net.cpp:105] Setting up inception_4d/relu_3x3
I0509 21:30:36.552733 16576 net.cpp:112] Top shape: 32 288 14 14 (1806336)
I0509 21:30:36.552738 16576 layer_factory.hpp:74] Creating layer inception_4d/5x5_reduce
I0509 21:30:36.552749 16576 net.cpp:76] Creating Layer inception_4d/5x5_reduce
I0509 21:30:36.552757 16576 net.cpp:372] inception_4d/5x5_reduce <- inception_4c/output_inception_4c/output_0_split_2
I0509 21:30:36.552764 16576 net.cpp:334] inception_4d/5x5_reduce -> inception_4d/5x5_reduce
I0509 21:30:36.552773 16576 net.cpp:105] Setting up inception_4d/5x5_reduce
I0509 21:30:36.552922 16576 net.cpp:112] Top shape: 32 32 14 14 (200704)
I0509 21:30:36.552933 16576 layer_factory.hpp:74] Creating layer inception_4d/relu_5x5_reduce
I0509 21:30:36.552940 16576 net.cpp:76] Creating Layer inception_4d/relu_5x5_reduce
I0509 21:30:36.552947 16576 net.cpp:372] inception_4d/relu_5x5_reduce <- inception_4d/5x5_reduce
I0509 21:30:36.552955 16576 net.cpp:323] inception_4d/relu_5x5_reduce -> inception_4d/5x5_reduce (in-place)
I0509 21:30:36.552964 16576 net.cpp:105] Setting up inception_4d/relu_5x5_reduce
I0509 21:30:36.552971 16576 net.cpp:112] Top shape: 32 32 14 14 (200704)
I0509 21:30:36.552976 16576 layer_factory.hpp:74] Creating layer inception_4d/5x5
I0509 21:30:36.552984 16576 net.cpp:76] Creating Layer inception_4d/5x5
I0509 21:30:36.552990 16576 net.cpp:372] inception_4d/5x5 <- inception_4d/5x5_reduce
I0509 21:30:36.553000 16576 net.cpp:334] inception_4d/5x5 -> inception_4d/5x5
I0509 21:30:36.553009 16576 net.cpp:105] Setting up inception_4d/5x5
I0509 21:30:36.553498 16576 net.cpp:112] Top shape: 32 64 14 14 (401408)
I0509 21:30:36.553515 16576 layer_factory.hpp:74] Creating layer inception_4d/relu_5x5
I0509 21:30:36.553525 16576 net.cpp:76] Creating Layer inception_4d/relu_5x5
I0509 21:30:36.555616 16576 net.cpp:372] inception_4d/relu_5x5 <- inception_4d/5x5
I0509 21:30:36.555663 16576 net.cpp:323] inception_4d/relu_5x5 -> inception_4d/5x5 (in-place)
I0509 21:30:36.555680 16576 net.cpp:105] Setting up inception_4d/relu_5x5
I0509 21:30:36.555690 16576 net.cpp:112] Top shape: 32 64 14 14 (401408)
I0509 21:30:36.555699 16576 layer_factory.hpp:74] Creating layer inception_4d/pool
I0509 21:30:36.555716 16576 net.cpp:76] Creating Layer inception_4d/pool
I0509 21:30:36.555727 16576 net.cpp:372] inception_4d/pool <- inception_4c/output_inception_4c/output_0_split_3
I0509 21:30:36.555742 16576 net.cpp:334] inception_4d/pool -> inception_4d/pool
I0509 21:30:36.555755 16576 net.cpp:105] Setting up inception_4d/pool
I0509 21:30:36.555768 16576 net.cpp:112] Top shape: 32 512 14 14 (3211264)
I0509 21:30:36.555779 16576 layer_factory.hpp:74] Creating layer inception_4d/pool_proj
I0509 21:30:36.555794 16576 net.cpp:76] Creating Layer inception_4d/pool_proj
I0509 21:30:36.555804 16576 net.cpp:372] inception_4d/pool_proj <- inception_4d/pool
I0509 21:30:36.555821 16576 net.cpp:334] inception_4d/pool_proj -> inception_4d/pool_proj
I0509 21:30:36.555837 16576 net.cpp:105] Setting up inception_4d/pool_proj
I0509 21:30:36.556259 16576 net.cpp:112] Top shape: 32 64 14 14 (401408)
I0509 21:30:36.556298 16576 layer_factory.hpp:74] Creating layer inception_4d/relu_pool_proj
I0509 21:30:36.556313 16576 net.cpp:76] Creating Layer inception_4d/relu_pool_proj
I0509 21:30:36.556324 16576 net.cpp:372] inception_4d/relu_pool_proj <- inception_4d/pool_proj
I0509 21:30:36.556336 16576 net.cpp:323] inception_4d/relu_pool_proj -> inception_4d/pool_proj (in-place)
I0509 21:30:36.556350 16576 net.cpp:105] Setting up inception_4d/relu_pool_proj
I0509 21:30:36.556360 16576 net.cpp:112] Top shape: 32 64 14 14 (401408)
I0509 21:30:36.556370 16576 layer_factory.hpp:74] Creating layer inception_4d/output
I0509 21:30:36.556385 16576 net.cpp:76] Creating Layer inception_4d/output
I0509 21:30:36.556396 16576 net.cpp:372] inception_4d/output <- inception_4d/1x1
I0509 21:30:36.556407 16576 net.cpp:372] inception_4d/output <- inception_4d/3x3
I0509 21:30:36.556418 16576 net.cpp:372] inception_4d/output <- inception_4d/5x5
I0509 21:30:36.556429 16576 net.cpp:372] inception_4d/output <- inception_4d/pool_proj
I0509 21:30:36.556442 16576 net.cpp:334] inception_4d/output -> inception_4d/output
I0509 21:30:36.556457 16576 net.cpp:105] Setting up inception_4d/output
I0509 21:30:36.556466 16576 net.cpp:112] Top shape: 32 528 14 14 (3311616)
I0509 21:30:36.556476 16576 layer_factory.hpp:74] Creating layer inception_4d/output_inception_4d/output_0_split
I0509 21:30:36.556489 16576 net.cpp:76] Creating Layer inception_4d/output_inception_4d/output_0_split
I0509 21:30:36.556502 16576 net.cpp:372] inception_4d/output_inception_4d/output_0_split <- inception_4d/output
I0509 21:30:36.556516 16576 net.cpp:334] inception_4d/output_inception_4d/output_0_split -> inception_4d/output_inception_4d/output_0_split_0
I0509 21:30:36.556532 16576 net.cpp:334] inception_4d/output_inception_4d/output_0_split -> inception_4d/output_inception_4d/output_0_split_1
I0509 21:30:36.556548 16576 net.cpp:334] inception_4d/output_inception_4d/output_0_split -> inception_4d/output_inception_4d/output_0_split_2
I0509 21:30:36.556565 16576 net.cpp:334] inception_4d/output_inception_4d/output_0_split -> inception_4d/output_inception_4d/output_0_split_3
I0509 21:30:36.556579 16576 net.cpp:334] inception_4d/output_inception_4d/output_0_split -> inception_4d/output_inception_4d/output_0_split_4
I0509 21:30:36.556593 16576 net.cpp:105] Setting up inception_4d/output_inception_4d/output_0_split
I0509 21:30:36.556606 16576 net.cpp:112] Top shape: 32 528 14 14 (3311616)
I0509 21:30:36.556614 16576 net.cpp:112] Top shape: 32 528 14 14 (3311616)
I0509 21:30:36.556623 16576 net.cpp:112] Top shape: 32 528 14 14 (3311616)
I0509 21:30:36.556632 16576 net.cpp:112] Top shape: 32 528 14 14 (3311616)
I0509 21:30:36.557535 16576 net.cpp:112] Top shape: 32 528 14 14 (3311616)
I0509 21:30:36.557544 16576 layer_factory.hpp:74] Creating layer loss2/ave_pool
I0509 21:30:36.557571 16576 net.cpp:76] Creating Layer loss2/ave_pool
I0509 21:30:36.557579 16576 net.cpp:372] loss2/ave_pool <- inception_4d/output_inception_4d/output_0_split_0
I0509 21:30:36.557589 16576 net.cpp:334] loss2/ave_pool -> loss2/ave_pool
I0509 21:30:36.557597 16576 net.cpp:105] Setting up loss2/ave_pool
I0509 21:30:36.557605 16576 net.cpp:112] Top shape: 32 528 4 4 (270336)
I0509 21:30:36.557610 16576 layer_factory.hpp:74] Creating layer loss2/conv
I0509 21:30:36.557621 16576 net.cpp:76] Creating Layer loss2/conv
I0509 21:30:36.557627 16576 net.cpp:372] loss2/conv <- loss2/ave_pool
I0509 21:30:36.557636 16576 net.cpp:334] loss2/conv -> loss2/conv
I0509 21:30:36.557644 16576 net.cpp:105] Setting up loss2/conv
I0509 21:30:36.558215 16576 net.cpp:112] Top shape: 32 128 4 4 (65536)
I0509 21:30:36.558233 16576 layer_factory.hpp:74] Creating layer loss2/relu_conv
I0509 21:30:36.558240 16576 net.cpp:76] Creating Layer loss2/relu_conv
I0509 21:30:36.558246 16576 net.cpp:372] loss2/relu_conv <- loss2/conv
I0509 21:30:36.558255 16576 net.cpp:323] loss2/relu_conv -> loss2/conv (in-place)
I0509 21:30:36.558264 16576 net.cpp:105] Setting up loss2/relu_conv
I0509 21:30:36.558269 16576 net.cpp:112] Top shape: 32 128 4 4 (65536)
I0509 21:30:36.558293 16576 layer_factory.hpp:74] Creating layer loss2/fc
I0509 21:30:36.558310 16576 net.cpp:76] Creating Layer loss2/fc
I0509 21:30:36.558318 16576 net.cpp:372] loss2/fc <- loss2/conv
I0509 21:30:36.558326 16576 net.cpp:334] loss2/fc -> loss2/fc
I0509 21:30:36.558336 16576 net.cpp:105] Setting up loss2/fc
I0509 21:30:36.575927 16576 net.cpp:112] Top shape: 32 1024 1 1 (32768)
I0509 21:30:36.575971 16576 layer_factory.hpp:74] Creating layer loss2/relu_fc
I0509 21:30:36.575985 16576 net.cpp:76] Creating Layer loss2/relu_fc
I0509 21:30:36.575994 16576 net.cpp:372] loss2/relu_fc <- loss2/fc
I0509 21:30:36.576005 16576 net.cpp:323] loss2/relu_fc -> loss2/fc (in-place)
I0509 21:30:36.576016 16576 net.cpp:105] Setting up loss2/relu_fc
I0509 21:30:36.576022 16576 net.cpp:112] Top shape: 32 1024 1 1 (32768)
I0509 21:30:36.576028 16576 layer_factory.hpp:74] Creating layer loss2/drop_fc
I0509 21:30:36.576036 16576 net.cpp:76] Creating Layer loss2/drop_fc
I0509 21:30:36.576042 16576 net.cpp:372] loss2/drop_fc <- loss2/fc
I0509 21:30:36.576048 16576 net.cpp:323] loss2/drop_fc -> loss2/fc (in-place)
I0509 21:30:36.576056 16576 net.cpp:105] Setting up loss2/drop_fc
I0509 21:30:36.576063 16576 net.cpp:112] Top shape: 32 1024 1 1 (32768)
I0509 21:30:36.576068 16576 layer_factory.hpp:74] Creating layer loss2/classifier
I0509 21:30:36.576078 16576 net.cpp:76] Creating Layer loss2/classifier
I0509 21:30:36.576083 16576 net.cpp:372] loss2/classifier <- loss2/fc
I0509 21:30:36.576098 16576 net.cpp:334] loss2/classifier -> loss2/classifier
I0509 21:30:36.576108 16576 net.cpp:105] Setting up loss2/classifier
I0509 21:30:36.576141 16576 net.cpp:112] Top shape: 32 2 1 1 (64)
I0509 21:30:36.576153 16576 layer_factory.hpp:74] Creating layer loss2/classifier_loss2/classifier_0_split
I0509 21:30:36.576163 16576 net.cpp:76] Creating Layer loss2/classifier_loss2/classifier_0_split
I0509 21:30:36.576169 16576 net.cpp:372] loss2/classifier_loss2/classifier_0_split <- loss2/classifier
I0509 21:30:36.576179 16576 net.cpp:334] loss2/classifier_loss2/classifier_0_split -> loss2/classifier_loss2/classifier_0_split_0
I0509 21:30:36.576189 16576 net.cpp:334] loss2/classifier_loss2/classifier_0_split -> loss2/classifier_loss2/classifier_0_split_1
I0509 21:30:36.576197 16576 net.cpp:105] Setting up loss2/classifier_loss2/classifier_0_split
I0509 21:30:36.576203 16576 net.cpp:112] Top shape: 32 2 1 1 (64)
I0509 21:30:36.576210 16576 net.cpp:112] Top shape: 32 2 1 1 (64)
I0509 21:30:36.576215 16576 layer_factory.hpp:74] Creating layer loss2/loss
I0509 21:30:36.576223 16576 net.cpp:76] Creating Layer loss2/loss
I0509 21:30:36.576230 16576 net.cpp:372] loss2/loss <- loss2/classifier_loss2/classifier_0_split_0
I0509 21:30:36.576236 16576 net.cpp:372] loss2/loss <- label_data_1_split_2
I0509 21:30:36.576246 16576 net.cpp:334] loss2/loss -> loss2/loss1
I0509 21:30:36.576475 16576 net.cpp:105] Setting up loss2/loss
I0509 21:30:36.576488 16576 layer_factory.hpp:74] Creating layer loss2/loss
I0509 21:30:36.576503 16576 net.cpp:112] Top shape: 1 1 1 1 (1)
I0509 21:30:36.576509 16576 net.cpp:118]     with loss weight 0.3
I0509 21:30:36.576527 16576 layer_factory.hpp:74] Creating layer loss2/top-1
I0509 21:30:36.576536 16576 net.cpp:76] Creating Layer loss2/top-1
I0509 21:30:36.576542 16576 net.cpp:372] loss2/top-1 <- loss2/classifier_loss2/classifier_0_split_1
I0509 21:30:36.576550 16576 net.cpp:372] loss2/top-1 <- label_data_1_split_3
I0509 21:30:36.576556 16576 net.cpp:334] loss2/top-1 -> loss2/top-1
I0509 21:30:36.576565 16576 net.cpp:105] Setting up loss2/top-1
I0509 21:30:36.576572 16576 net.cpp:112] Top shape: 1 1 1 1 (1)
I0509 21:30:36.576577 16576 layer_factory.hpp:74] Creating layer inception_4e/1x1
I0509 21:30:36.576592 16576 net.cpp:76] Creating Layer inception_4e/1x1
I0509 21:30:36.576599 16576 net.cpp:372] inception_4e/1x1 <- inception_4d/output_inception_4d/output_0_split_1
I0509 21:30:36.576608 16576 net.cpp:334] inception_4e/1x1 -> inception_4e/1x1
I0509 21:30:36.576617 16576 net.cpp:105] Setting up inception_4e/1x1
I0509 21:30:36.577816 16576 net.cpp:112] Top shape: 32 256 14 14 (1605632)
I0509 21:30:36.577832 16576 layer_factory.hpp:74] Creating layer inception_4e/relu_1x1
I0509 21:30:36.577841 16576 net.cpp:76] Creating Layer inception_4e/relu_1x1
I0509 21:30:36.577847 16576 net.cpp:372] inception_4e/relu_1x1 <- inception_4e/1x1
I0509 21:30:36.577857 16576 net.cpp:323] inception_4e/relu_1x1 -> inception_4e/1x1 (in-place)
I0509 21:30:36.577864 16576 net.cpp:105] Setting up inception_4e/relu_1x1
I0509 21:30:36.577869 16576 net.cpp:112] Top shape: 32 256 14 14 (1605632)
I0509 21:30:36.577875 16576 layer_factory.hpp:74] Creating layer inception_4e/3x3_reduce
I0509 21:30:36.577883 16576 net.cpp:76] Creating Layer inception_4e/3x3_reduce
I0509 21:30:36.577889 16576 net.cpp:372] inception_4e/3x3_reduce <- inception_4d/output_inception_4d/output_0_split_2
I0509 21:30:36.577898 16576 net.cpp:334] inception_4e/3x3_reduce -> inception_4e/3x3_reduce
I0509 21:30:36.577906 16576 net.cpp:105] Setting up inception_4e/3x3_reduce
I0509 21:30:36.578654 16576 net.cpp:112] Top shape: 32 160 14 14 (1003520)
I0509 21:30:36.578668 16576 layer_factory.hpp:74] Creating layer inception_4e/relu_3x3_reduce
I0509 21:30:36.578680 16576 net.cpp:76] Creating Layer inception_4e/relu_3x3_reduce
I0509 21:30:36.578685 16576 net.cpp:372] inception_4e/relu_3x3_reduce <- inception_4e/3x3_reduce
I0509 21:30:36.578693 16576 net.cpp:323] inception_4e/relu_3x3_reduce -> inception_4e/3x3_reduce (in-place)
I0509 21:30:36.578701 16576 net.cpp:105] Setting up inception_4e/relu_3x3_reduce
I0509 21:30:36.578706 16576 net.cpp:112] Top shape: 32 160 14 14 (1003520)
I0509 21:30:36.578712 16576 layer_factory.hpp:74] Creating layer inception_4e/3x3
I0509 21:30:36.578742 16576 net.cpp:76] Creating Layer inception_4e/3x3
I0509 21:30:36.578749 16576 net.cpp:372] inception_4e/3x3 <- inception_4e/3x3_reduce
I0509 21:30:36.578758 16576 net.cpp:334] inception_4e/3x3 -> inception_4e/3x3
I0509 21:30:36.578768 16576 net.cpp:105] Setting up inception_4e/3x3
I0509 21:30:36.582739 16576 net.cpp:112] Top shape: 32 320 14 14 (2007040)
I0509 21:30:36.582768 16576 layer_factory.hpp:74] Creating layer inception_4e/relu_3x3
I0509 21:30:36.582779 16576 net.cpp:76] Creating Layer inception_4e/relu_3x3
I0509 21:30:36.582787 16576 net.cpp:372] inception_4e/relu_3x3 <- inception_4e/3x3
I0509 21:30:36.582797 16576 net.cpp:323] inception_4e/relu_3x3 -> inception_4e/3x3 (in-place)
I0509 21:30:36.582806 16576 net.cpp:105] Setting up inception_4e/relu_3x3
I0509 21:30:36.582813 16576 net.cpp:112] Top shape: 32 320 14 14 (2007040)
I0509 21:30:36.582818 16576 layer_factory.hpp:74] Creating layer inception_4e/5x5_reduce
I0509 21:30:36.582828 16576 net.cpp:76] Creating Layer inception_4e/5x5_reduce
I0509 21:30:36.582834 16576 net.cpp:372] inception_4e/5x5_reduce <- inception_4d/output_inception_4d/output_0_split_3
I0509 21:30:36.582870 16576 net.cpp:334] inception_4e/5x5_reduce -> inception_4e/5x5_reduce
I0509 21:30:36.582880 16576 net.cpp:105] Setting up inception_4e/5x5_reduce
I0509 21:30:36.583030 16576 net.cpp:112] Top shape: 32 32 14 14 (200704)
I0509 21:30:36.583041 16576 layer_factory.hpp:74] Creating layer inception_4e/relu_5x5_reduce
I0509 21:30:36.583050 16576 net.cpp:76] Creating Layer inception_4e/relu_5x5_reduce
I0509 21:30:36.583057 16576 net.cpp:372] inception_4e/relu_5x5_reduce <- inception_4e/5x5_reduce
I0509 21:30:36.583065 16576 net.cpp:323] inception_4e/relu_5x5_reduce -> inception_4e/5x5_reduce (in-place)
I0509 21:30:36.583072 16576 net.cpp:105] Setting up inception_4e/relu_5x5_reduce
I0509 21:30:36.583077 16576 net.cpp:112] Top shape: 32 32 14 14 (200704)
I0509 21:30:36.583083 16576 layer_factory.hpp:74] Creating layer inception_4e/5x5
I0509 21:30:36.583093 16576 net.cpp:76] Creating Layer inception_4e/5x5
I0509 21:30:36.583099 16576 net.cpp:372] inception_4e/5x5 <- inception_4e/5x5_reduce
I0509 21:30:36.583107 16576 net.cpp:334] inception_4e/5x5 -> inception_4e/5x5
I0509 21:30:36.583115 16576 net.cpp:105] Setting up inception_4e/5x5
I0509 21:30:36.584013 16576 net.cpp:112] Top shape: 32 128 14 14 (802816)
I0509 21:30:36.584031 16576 layer_factory.hpp:74] Creating layer inception_4e/relu_5x5
I0509 21:30:36.584039 16576 net.cpp:76] Creating Layer inception_4e/relu_5x5
I0509 21:30:36.584045 16576 net.cpp:372] inception_4e/relu_5x5 <- inception_4e/5x5
I0509 21:30:36.584054 16576 net.cpp:323] inception_4e/relu_5x5 -> inception_4e/5x5 (in-place)
I0509 21:30:36.584064 16576 net.cpp:105] Setting up inception_4e/relu_5x5
I0509 21:30:36.584069 16576 net.cpp:112] Top shape: 32 128 14 14 (802816)
I0509 21:30:36.584074 16576 layer_factory.hpp:74] Creating layer inception_4e/pool
I0509 21:30:36.584082 16576 net.cpp:76] Creating Layer inception_4e/pool
I0509 21:30:36.584089 16576 net.cpp:372] inception_4e/pool <- inception_4d/output_inception_4d/output_0_split_4
I0509 21:30:36.584095 16576 net.cpp:334] inception_4e/pool -> inception_4e/pool
I0509 21:30:36.584105 16576 net.cpp:105] Setting up inception_4e/pool
I0509 21:30:36.584112 16576 net.cpp:112] Top shape: 32 528 14 14 (3311616)
I0509 21:30:36.584118 16576 layer_factory.hpp:74] Creating layer inception_4e/pool_proj
I0509 21:30:36.584130 16576 net.cpp:76] Creating Layer inception_4e/pool_proj
I0509 21:30:36.584136 16576 net.cpp:372] inception_4e/pool_proj <- inception_4e/pool
I0509 21:30:36.584146 16576 net.cpp:334] inception_4e/pool_proj -> inception_4e/pool_proj
I0509 21:30:36.584154 16576 net.cpp:105] Setting up inception_4e/pool_proj
I0509 21:30:36.584739 16576 net.cpp:112] Top shape: 32 128 14 14 (802816)
I0509 21:30:36.584753 16576 layer_factory.hpp:74] Creating layer inception_4e/relu_pool_proj
I0509 21:30:36.584764 16576 net.cpp:76] Creating Layer inception_4e/relu_pool_proj
I0509 21:30:36.584770 16576 net.cpp:372] inception_4e/relu_pool_proj <- inception_4e/pool_proj
I0509 21:30:36.584779 16576 net.cpp:323] inception_4e/relu_pool_proj -> inception_4e/pool_proj (in-place)
I0509 21:30:36.584786 16576 net.cpp:105] Setting up inception_4e/relu_pool_proj
I0509 21:30:36.584791 16576 net.cpp:112] Top shape: 32 128 14 14 (802816)
I0509 21:30:36.584797 16576 layer_factory.hpp:74] Creating layer inception_4e/output
I0509 21:30:36.584805 16576 net.cpp:76] Creating Layer inception_4e/output
I0509 21:30:36.584813 16576 net.cpp:372] inception_4e/output <- inception_4e/1x1
I0509 21:30:36.584820 16576 net.cpp:372] inception_4e/output <- inception_4e/3x3
I0509 21:30:36.584826 16576 net.cpp:372] inception_4e/output <- inception_4e/5x5
I0509 21:30:36.584832 16576 net.cpp:372] inception_4e/output <- inception_4e/pool_proj
I0509 21:30:36.584839 16576 net.cpp:334] inception_4e/output -> inception_4e/output
I0509 21:30:36.584847 16576 net.cpp:105] Setting up inception_4e/output
I0509 21:30:36.584854 16576 net.cpp:112] Top shape: 32 832 14 14 (5218304)
I0509 21:30:36.584861 16576 layer_factory.hpp:74] Creating layer pool4/3x3_s2
I0509 21:30:36.584868 16576 net.cpp:76] Creating Layer pool4/3x3_s2
I0509 21:30:36.584888 16576 net.cpp:372] pool4/3x3_s2 <- inception_4e/output
I0509 21:30:36.584898 16576 net.cpp:334] pool4/3x3_s2 -> pool4/3x3_s2
I0509 21:30:36.584906 16576 net.cpp:105] Setting up pool4/3x3_s2
I0509 21:30:36.584913 16576 net.cpp:112] Top shape: 32 832 7 7 (1304576)
I0509 21:30:36.584919 16576 layer_factory.hpp:74] Creating layer pool4/3x3_s2_pool4/3x3_s2_0_split
I0509 21:30:36.584930 16576 net.cpp:76] Creating Layer pool4/3x3_s2_pool4/3x3_s2_0_split
I0509 21:30:36.584936 16576 net.cpp:372] pool4/3x3_s2_pool4/3x3_s2_0_split <- pool4/3x3_s2
I0509 21:30:36.584944 16576 net.cpp:334] pool4/3x3_s2_pool4/3x3_s2_0_split -> pool4/3x3_s2_pool4/3x3_s2_0_split_0
I0509 21:30:36.584952 16576 net.cpp:334] pool4/3x3_s2_pool4/3x3_s2_0_split -> pool4/3x3_s2_pool4/3x3_s2_0_split_1
I0509 21:30:36.584961 16576 net.cpp:334] pool4/3x3_s2_pool4/3x3_s2_0_split -> pool4/3x3_s2_pool4/3x3_s2_0_split_2
I0509 21:30:36.584972 16576 net.cpp:334] pool4/3x3_s2_pool4/3x3_s2_0_split -> pool4/3x3_s2_pool4/3x3_s2_0_split_3
I0509 21:30:36.584980 16576 net.cpp:105] Setting up pool4/3x3_s2_pool4/3x3_s2_0_split
I0509 21:30:36.584986 16576 net.cpp:112] Top shape: 32 832 7 7 (1304576)
I0509 21:30:36.584992 16576 net.cpp:112] Top shape: 32 832 7 7 (1304576)
I0509 21:30:36.584996 16576 net.cpp:112] Top shape: 32 832 7 7 (1304576)
I0509 21:30:36.585001 16576 net.cpp:112] Top shape: 32 832 7 7 (1304576)
I0509 21:30:36.585007 16576 layer_factory.hpp:74] Creating layer inception_5a/1x1
I0509 21:30:36.585016 16576 net.cpp:76] Creating Layer inception_5a/1x1
I0509 21:30:36.585021 16576 net.cpp:372] inception_5a/1x1 <- pool4/3x3_s2_pool4/3x3_s2_0_split_0
I0509 21:30:36.585031 16576 net.cpp:334] inception_5a/1x1 -> inception_5a/1x1
I0509 21:30:36.585041 16576 net.cpp:105] Setting up inception_5a/1x1
I0509 21:30:36.586834 16576 net.cpp:112] Top shape: 32 256 7 7 (401408)
I0509 21:30:36.586850 16576 layer_factory.hpp:74] Creating layer inception_5a/relu_1x1
I0509 21:30:36.586858 16576 net.cpp:76] Creating Layer inception_5a/relu_1x1
I0509 21:30:36.586885 16576 net.cpp:372] inception_5a/relu_1x1 <- inception_5a/1x1
I0509 21:30:36.586894 16576 net.cpp:323] inception_5a/relu_1x1 -> inception_5a/1x1 (in-place)
I0509 21:30:36.586904 16576 net.cpp:105] Setting up inception_5a/relu_1x1
I0509 21:30:36.586910 16576 net.cpp:112] Top shape: 32 256 7 7 (401408)
I0509 21:30:36.586915 16576 layer_factory.hpp:74] Creating layer inception_5a/3x3_reduce
I0509 21:30:36.586926 16576 net.cpp:76] Creating Layer inception_5a/3x3_reduce
I0509 21:30:36.586932 16576 net.cpp:372] inception_5a/3x3_reduce <- pool4/3x3_s2_pool4/3x3_s2_0_split_1
I0509 21:30:36.586942 16576 net.cpp:334] inception_5a/3x3_reduce -> inception_5a/3x3_reduce
I0509 21:30:36.586952 16576 net.cpp:105] Setting up inception_5a/3x3_reduce
I0509 21:30:36.588126 16576 net.cpp:112] Top shape: 32 160 7 7 (250880)
I0509 21:30:36.588145 16576 layer_factory.hpp:74] Creating layer inception_5a/relu_3x3_reduce
I0509 21:30:36.588152 16576 net.cpp:76] Creating Layer inception_5a/relu_3x3_reduce
I0509 21:30:36.588160 16576 net.cpp:372] inception_5a/relu_3x3_reduce <- inception_5a/3x3_reduce
I0509 21:30:36.588170 16576 net.cpp:323] inception_5a/relu_3x3_reduce -> inception_5a/3x3_reduce (in-place)
I0509 21:30:36.588178 16576 net.cpp:105] Setting up inception_5a/relu_3x3_reduce
I0509 21:30:36.588183 16576 net.cpp:112] Top shape: 32 160 7 7 (250880)
I0509 21:30:36.588188 16576 layer_factory.hpp:74] Creating layer inception_5a/3x3
I0509 21:30:36.588197 16576 net.cpp:76] Creating Layer inception_5a/3x3
I0509 21:30:36.588203 16576 net.cpp:372] inception_5a/3x3 <- inception_5a/3x3_reduce
I0509 21:30:36.588217 16576 net.cpp:334] inception_5a/3x3 -> inception_5a/3x3
I0509 21:30:36.588225 16576 net.cpp:105] Setting up inception_5a/3x3
I0509 21:30:36.592118 16576 net.cpp:112] Top shape: 32 320 7 7 (501760)
I0509 21:30:36.592136 16576 layer_factory.hpp:74] Creating layer inception_5a/relu_3x3
I0509 21:30:36.592146 16576 net.cpp:76] Creating Layer inception_5a/relu_3x3
I0509 21:30:36.592152 16576 net.cpp:372] inception_5a/relu_3x3 <- inception_5a/3x3
I0509 21:30:36.592188 16576 net.cpp:323] inception_5a/relu_3x3 -> inception_5a/3x3 (in-place)
I0509 21:30:36.592198 16576 net.cpp:105] Setting up inception_5a/relu_3x3
I0509 21:30:36.592205 16576 net.cpp:112] Top shape: 32 320 7 7 (501760)
I0509 21:30:36.592211 16576 layer_factory.hpp:74] Creating layer inception_5a/5x5_reduce
I0509 21:30:36.592219 16576 net.cpp:76] Creating Layer inception_5a/5x5_reduce
I0509 21:30:36.592226 16576 net.cpp:372] inception_5a/5x5_reduce <- pool4/3x3_s2_pool4/3x3_s2_0_split_2
I0509 21:30:36.592234 16576 net.cpp:334] inception_5a/5x5_reduce -> inception_5a/5x5_reduce
I0509 21:30:36.592244 16576 net.cpp:105] Setting up inception_5a/5x5_reduce
I0509 21:30:36.592496 16576 net.cpp:112] Top shape: 32 32 7 7 (50176)
I0509 21:30:36.592509 16576 layer_factory.hpp:74] Creating layer inception_5a/relu_5x5_reduce
I0509 21:30:36.592517 16576 net.cpp:76] Creating Layer inception_5a/relu_5x5_reduce
I0509 21:30:36.592524 16576 net.cpp:372] inception_5a/relu_5x5_reduce <- inception_5a/5x5_reduce
I0509 21:30:36.592532 16576 net.cpp:323] inception_5a/relu_5x5_reduce -> inception_5a/5x5_reduce (in-place)
I0509 21:30:36.592540 16576 net.cpp:105] Setting up inception_5a/relu_5x5_reduce
I0509 21:30:36.592545 16576 net.cpp:112] Top shape: 32 32 7 7 (50176)
I0509 21:30:36.592551 16576 layer_factory.hpp:74] Creating layer inception_5a/5x5
I0509 21:30:36.592560 16576 net.cpp:76] Creating Layer inception_5a/5x5
I0509 21:30:36.592566 16576 net.cpp:372] inception_5a/5x5 <- inception_5a/5x5_reduce
I0509 21:30:36.592576 16576 net.cpp:334] inception_5a/5x5 -> inception_5a/5x5
I0509 21:30:36.592584 16576 net.cpp:105] Setting up inception_5a/5x5
I0509 21:30:36.593457 16576 net.cpp:112] Top shape: 32 128 7 7 (200704)
I0509 21:30:36.593471 16576 layer_factory.hpp:74] Creating layer inception_5a/relu_5x5
I0509 21:30:36.593480 16576 net.cpp:76] Creating Layer inception_5a/relu_5x5
I0509 21:30:36.595127 16576 net.cpp:372] inception_5a/relu_5x5 <- inception_5a/5x5
I0509 21:30:36.595144 16576 net.cpp:323] inception_5a/relu_5x5 -> inception_5a/5x5 (in-place)
I0509 21:30:36.595155 16576 net.cpp:105] Setting up inception_5a/relu_5x5
I0509 21:30:36.595161 16576 net.cpp:112] Top shape: 32 128 7 7 (200704)
I0509 21:30:36.595167 16576 layer_factory.hpp:74] Creating layer inception_5a/pool
I0509 21:30:36.595176 16576 net.cpp:76] Creating Layer inception_5a/pool
I0509 21:30:36.595183 16576 net.cpp:372] inception_5a/pool <- pool4/3x3_s2_pool4/3x3_s2_0_split_3
I0509 21:30:36.595191 16576 net.cpp:334] inception_5a/pool -> inception_5a/pool
I0509 21:30:36.595227 16576 net.cpp:105] Setting up inception_5a/pool
I0509 21:30:36.595239 16576 net.cpp:112] Top shape: 32 832 7 7 (1304576)
I0509 21:30:36.595262 16576 layer_factory.hpp:74] Creating layer inception_5a/pool_proj
I0509 21:30:36.595271 16576 net.cpp:76] Creating Layer inception_5a/pool_proj
I0509 21:30:36.595278 16576 net.cpp:372] inception_5a/pool_proj <- inception_5a/pool
I0509 21:30:36.595290 16576 net.cpp:334] inception_5a/pool_proj -> inception_5a/pool_proj
I0509 21:30:36.595300 16576 net.cpp:105] Setting up inception_5a/pool_proj
I0509 21:30:36.596228 16576 net.cpp:112] Top shape: 32 128 7 7 (200704)
I0509 21:30:36.596246 16576 layer_factory.hpp:74] Creating layer inception_5a/relu_pool_proj
I0509 21:30:36.596254 16576 net.cpp:76] Creating Layer inception_5a/relu_pool_proj
I0509 21:30:36.596261 16576 net.cpp:372] inception_5a/relu_pool_proj <- inception_5a/pool_proj
I0509 21:30:36.596285 16576 net.cpp:323] inception_5a/relu_pool_proj -> inception_5a/pool_proj (in-place)
I0509 21:30:36.596297 16576 net.cpp:105] Setting up inception_5a/relu_pool_proj
I0509 21:30:36.596302 16576 net.cpp:112] Top shape: 32 128 7 7 (200704)
I0509 21:30:36.596308 16576 layer_factory.hpp:74] Creating layer inception_5a/output
I0509 21:30:36.596315 16576 net.cpp:76] Creating Layer inception_5a/output
I0509 21:30:36.596321 16576 net.cpp:372] inception_5a/output <- inception_5a/1x1
I0509 21:30:36.596328 16576 net.cpp:372] inception_5a/output <- inception_5a/3x3
I0509 21:30:36.596354 16576 net.cpp:372] inception_5a/output <- inception_5a/5x5
I0509 21:30:36.596360 16576 net.cpp:372] inception_5a/output <- inception_5a/pool_proj
I0509 21:30:36.596369 16576 net.cpp:334] inception_5a/output -> inception_5a/output
I0509 21:30:36.596386 16576 net.cpp:105] Setting up inception_5a/output
I0509 21:30:36.596398 16576 net.cpp:112] Top shape: 32 832 7 7 (1304576)
I0509 21:30:36.596410 16576 layer_factory.hpp:74] Creating layer inception_5a/output_inception_5a/output_0_split
I0509 21:30:36.596421 16576 net.cpp:76] Creating Layer inception_5a/output_inception_5a/output_0_split
I0509 21:30:36.596426 16576 net.cpp:372] inception_5a/output_inception_5a/output_0_split <- inception_5a/output
I0509 21:30:36.596434 16576 net.cpp:334] inception_5a/output_inception_5a/output_0_split -> inception_5a/output_inception_5a/output_0_split_0
I0509 21:30:36.596444 16576 net.cpp:334] inception_5a/output_inception_5a/output_0_split -> inception_5a/output_inception_5a/output_0_split_1
I0509 21:30:36.596453 16576 net.cpp:334] inception_5a/output_inception_5a/output_0_split -> inception_5a/output_inception_5a/output_0_split_2
I0509 21:30:36.596462 16576 net.cpp:334] inception_5a/output_inception_5a/output_0_split -> inception_5a/output_inception_5a/output_0_split_3
I0509 21:30:36.596470 16576 net.cpp:105] Setting up inception_5a/output_inception_5a/output_0_split
I0509 21:30:36.596477 16576 net.cpp:112] Top shape: 32 832 7 7 (1304576)
I0509 21:30:36.596482 16576 net.cpp:112] Top shape: 32 832 7 7 (1304576)
I0509 21:30:36.596487 16576 net.cpp:112] Top shape: 32 832 7 7 (1304576)
I0509 21:30:36.596493 16576 net.cpp:112] Top shape: 32 832 7 7 (1304576)
I0509 21:30:36.596498 16576 layer_factory.hpp:74] Creating layer inception_5b/1x1
I0509 21:30:36.596511 16576 net.cpp:76] Creating Layer inception_5b/1x1
I0509 21:30:36.596520 16576 net.cpp:372] inception_5b/1x1 <- inception_5a/output_inception_5a/output_0_split_0
I0509 21:30:36.596531 16576 net.cpp:334] inception_5b/1x1 -> inception_5b/1x1
I0509 21:30:36.596540 16576 net.cpp:105] Setting up inception_5b/1x1
I0509 21:30:36.599231 16576 net.cpp:112] Top shape: 32 384 7 7 (602112)
I0509 21:30:36.599248 16576 layer_factory.hpp:74] Creating layer inception_5b/relu_1x1
I0509 21:30:36.599257 16576 net.cpp:76] Creating Layer inception_5b/relu_1x1
I0509 21:30:36.599263 16576 net.cpp:372] inception_5b/relu_1x1 <- inception_5b/1x1
I0509 21:30:36.599287 16576 net.cpp:323] inception_5b/relu_1x1 -> inception_5b/1x1 (in-place)
I0509 21:30:36.599298 16576 net.cpp:105] Setting up inception_5b/relu_1x1
I0509 21:30:36.599303 16576 net.cpp:112] Top shape: 32 384 7 7 (602112)
I0509 21:30:36.599308 16576 layer_factory.hpp:74] Creating layer inception_5b/3x3_reduce
I0509 21:30:36.599318 16576 net.cpp:76] Creating Layer inception_5b/3x3_reduce
I0509 21:30:36.599323 16576 net.cpp:372] inception_5b/3x3_reduce <- inception_5a/output_inception_5a/output_0_split_1
I0509 21:30:36.599333 16576 net.cpp:334] inception_5b/3x3_reduce -> inception_5b/3x3_reduce
I0509 21:30:36.599341 16576 net.cpp:105] Setting up inception_5b/3x3_reduce
I0509 21:30:36.600709 16576 net.cpp:112] Top shape: 32 192 7 7 (301056)
I0509 21:30:36.600728 16576 layer_factory.hpp:74] Creating layer inception_5b/relu_3x3_reduce
I0509 21:30:36.600736 16576 net.cpp:76] Creating Layer inception_5b/relu_3x3_reduce
I0509 21:30:36.600742 16576 net.cpp:372] inception_5b/relu_3x3_reduce <- inception_5b/3x3_reduce
I0509 21:30:36.600750 16576 net.cpp:323] inception_5b/relu_3x3_reduce -> inception_5b/3x3_reduce (in-place)
I0509 21:30:36.600759 16576 net.cpp:105] Setting up inception_5b/relu_3x3_reduce
I0509 21:30:36.600764 16576 net.cpp:112] Top shape: 32 192 7 7 (301056)
I0509 21:30:36.600769 16576 layer_factory.hpp:74] Creating layer inception_5b/3x3
I0509 21:30:36.600777 16576 net.cpp:76] Creating Layer inception_5b/3x3
I0509 21:30:36.600783 16576 net.cpp:372] inception_5b/3x3 <- inception_5b/3x3_reduce
I0509 21:30:36.600796 16576 net.cpp:334] inception_5b/3x3 -> inception_5b/3x3
I0509 21:30:36.600805 16576 net.cpp:105] Setting up inception_5b/3x3
I0509 21:30:36.606431 16576 net.cpp:112] Top shape: 32 384 7 7 (602112)
I0509 21:30:36.606468 16576 layer_factory.hpp:74] Creating layer inception_5b/relu_3x3
I0509 21:30:36.606482 16576 net.cpp:76] Creating Layer inception_5b/relu_3x3
I0509 21:30:36.606490 16576 net.cpp:372] inception_5b/relu_3x3 <- inception_5b/3x3
I0509 21:30:36.606503 16576 net.cpp:323] inception_5b/relu_3x3 -> inception_5b/3x3 (in-place)
I0509 21:30:36.606514 16576 net.cpp:105] Setting up inception_5b/relu_3x3
I0509 21:30:36.606520 16576 net.cpp:112] Top shape: 32 384 7 7 (602112)
I0509 21:30:36.606526 16576 layer_factory.hpp:74] Creating layer inception_5b/5x5_reduce
I0509 21:30:36.606536 16576 net.cpp:76] Creating Layer inception_5b/5x5_reduce
I0509 21:30:36.606544 16576 net.cpp:372] inception_5b/5x5_reduce <- inception_5a/output_inception_5a/output_0_split_2
I0509 21:30:36.606554 16576 net.cpp:334] inception_5b/5x5_reduce -> inception_5b/5x5_reduce
I0509 21:30:36.606565 16576 net.cpp:105] Setting up inception_5b/5x5_reduce
I0509 21:30:36.607010 16576 net.cpp:112] Top shape: 32 48 7 7 (75264)
I0509 21:30:36.607027 16576 layer_factory.hpp:74] Creating layer inception_5b/relu_5x5_reduce
I0509 21:30:36.607035 16576 net.cpp:76] Creating Layer inception_5b/relu_5x5_reduce
I0509 21:30:36.607043 16576 net.cpp:372] inception_5b/relu_5x5_reduce <- inception_5b/5x5_reduce
I0509 21:30:36.607053 16576 net.cpp:323] inception_5b/relu_5x5_reduce -> inception_5b/5x5_reduce (in-place)
I0509 21:30:36.607060 16576 net.cpp:105] Setting up inception_5b/relu_5x5_reduce
I0509 21:30:36.607066 16576 net.cpp:112] Top shape: 32 48 7 7 (75264)
I0509 21:30:36.607072 16576 layer_factory.hpp:74] Creating layer inception_5b/5x5
I0509 21:30:36.607080 16576 net.cpp:76] Creating Layer inception_5b/5x5
I0509 21:30:36.607086 16576 net.cpp:372] inception_5b/5x5 <- inception_5b/5x5_reduce
I0509 21:30:36.607096 16576 net.cpp:334] inception_5b/5x5 -> inception_5b/5x5
I0509 21:30:36.607105 16576 net.cpp:105] Setting up inception_5b/5x5
I0509 21:30:36.608441 16576 net.cpp:112] Top shape: 32 128 7 7 (200704)
I0509 21:30:36.608458 16576 layer_factory.hpp:74] Creating layer inception_5b/relu_5x5
I0509 21:30:36.608469 16576 net.cpp:76] Creating Layer inception_5b/relu_5x5
I0509 21:30:36.608475 16576 net.cpp:372] inception_5b/relu_5x5 <- inception_5b/5x5
I0509 21:30:36.608482 16576 net.cpp:323] inception_5b/relu_5x5 -> inception_5b/5x5 (in-place)
I0509 21:30:36.608490 16576 net.cpp:105] Setting up inception_5b/relu_5x5
I0509 21:30:36.608496 16576 net.cpp:112] Top shape: 32 128 7 7 (200704)
I0509 21:30:36.608501 16576 layer_factory.hpp:74] Creating layer inception_5b/pool
I0509 21:30:36.608512 16576 net.cpp:76] Creating Layer inception_5b/pool
I0509 21:30:36.608518 16576 net.cpp:372] inception_5b/pool <- inception_5a/output_inception_5a/output_0_split_3
I0509 21:30:36.608526 16576 net.cpp:334] inception_5b/pool -> inception_5b/pool
I0509 21:30:36.608536 16576 net.cpp:105] Setting up inception_5b/pool
I0509 21:30:36.608543 16576 net.cpp:112] Top shape: 32 832 7 7 (1304576)
I0509 21:30:36.608549 16576 layer_factory.hpp:74] Creating layer inception_5b/pool_proj
I0509 21:30:36.608558 16576 net.cpp:76] Creating Layer inception_5b/pool_proj
I0509 21:30:36.608564 16576 net.cpp:372] inception_5b/pool_proj <- inception_5b/pool
I0509 21:30:36.608574 16576 net.cpp:334] inception_5b/pool_proj -> inception_5b/pool_proj
I0509 21:30:36.608583 16576 net.cpp:105] Setting up inception_5b/pool_proj
I0509 21:30:36.609491 16576 net.cpp:112] Top shape: 32 128 7 7 (200704)
I0509 21:30:36.609505 16576 layer_factory.hpp:74] Creating layer inception_5b/relu_pool_proj
I0509 21:30:36.609513 16576 net.cpp:76] Creating Layer inception_5b/relu_pool_proj
I0509 21:30:36.609520 16576 net.cpp:372] inception_5b/relu_pool_proj <- inception_5b/pool_proj
I0509 21:30:36.609527 16576 net.cpp:323] inception_5b/relu_pool_proj -> inception_5b/pool_proj (in-place)
I0509 21:30:36.609535 16576 net.cpp:105] Setting up inception_5b/relu_pool_proj
I0509 21:30:36.609541 16576 net.cpp:112] Top shape: 32 128 7 7 (200704)
I0509 21:30:36.609546 16576 layer_factory.hpp:74] Creating layer inception_5b/output
I0509 21:30:36.609591 16576 net.cpp:76] Creating Layer inception_5b/output
I0509 21:30:36.609598 16576 net.cpp:372] inception_5b/output <- inception_5b/1x1
I0509 21:30:36.609606 16576 net.cpp:372] inception_5b/output <- inception_5b/3x3
I0509 21:30:36.609611 16576 net.cpp:372] inception_5b/output <- inception_5b/5x5
I0509 21:30:36.609618 16576 net.cpp:372] inception_5b/output <- inception_5b/pool_proj
I0509 21:30:36.609625 16576 net.cpp:334] inception_5b/output -> inception_5b/output
I0509 21:30:36.609633 16576 net.cpp:105] Setting up inception_5b/output
I0509 21:30:36.609640 16576 net.cpp:112] Top shape: 32 1024 7 7 (1605632)
I0509 21:30:36.609647 16576 layer_factory.hpp:74] Creating layer pool5/7x7_s1
I0509 21:30:36.609653 16576 net.cpp:76] Creating Layer pool5/7x7_s1
I0509 21:30:36.609659 16576 net.cpp:372] pool5/7x7_s1 <- inception_5b/output
I0509 21:30:36.609673 16576 net.cpp:334] pool5/7x7_s1 -> pool5/7x7_s1
I0509 21:30:36.609681 16576 net.cpp:105] Setting up pool5/7x7_s1
I0509 21:30:36.609688 16576 net.cpp:112] Top shape: 32 1024 1 1 (32768)
I0509 21:30:36.609694 16576 layer_factory.hpp:74] Creating layer pool5/drop_7x7_s1
I0509 21:30:36.609701 16576 net.cpp:76] Creating Layer pool5/drop_7x7_s1
I0509 21:30:36.609707 16576 net.cpp:372] pool5/drop_7x7_s1 <- pool5/7x7_s1
I0509 21:30:36.609714 16576 net.cpp:323] pool5/drop_7x7_s1 -> pool5/7x7_s1 (in-place)
I0509 21:30:36.609722 16576 net.cpp:105] Setting up pool5/drop_7x7_s1
I0509 21:30:36.609730 16576 net.cpp:112] Top shape: 32 1024 1 1 (32768)
I0509 21:30:36.609735 16576 layer_factory.hpp:74] Creating layer loss3/classifier
I0509 21:30:36.609748 16576 net.cpp:76] Creating Layer loss3/classifier
I0509 21:30:36.609755 16576 net.cpp:372] loss3/classifier <- pool5/7x7_s1
I0509 21:30:36.609765 16576 net.cpp:334] loss3/classifier -> loss3/classifier
I0509 21:30:36.609773 16576 net.cpp:105] Setting up loss3/classifier
I0509 21:30:36.609807 16576 net.cpp:112] Top shape: 32 2 1 1 (64)
I0509 21:30:36.609817 16576 layer_factory.hpp:74] Creating layer loss3/classifier_loss3/classifier_0_split
I0509 21:30:36.609823 16576 net.cpp:76] Creating Layer loss3/classifier_loss3/classifier_0_split
I0509 21:30:36.609829 16576 net.cpp:372] loss3/classifier_loss3/classifier_0_split <- loss3/classifier
I0509 21:30:36.609838 16576 net.cpp:334] loss3/classifier_loss3/classifier_0_split -> loss3/classifier_loss3/classifier_0_split_0
I0509 21:30:36.609846 16576 net.cpp:334] loss3/classifier_loss3/classifier_0_split -> loss3/classifier_loss3/classifier_0_split_1
I0509 21:30:36.609854 16576 net.cpp:105] Setting up loss3/classifier_loss3/classifier_0_split
I0509 21:30:36.609861 16576 net.cpp:112] Top shape: 32 2 1 1 (64)
I0509 21:30:36.609887 16576 net.cpp:112] Top shape: 32 2 1 1 (64)
I0509 21:30:36.609894 16576 layer_factory.hpp:74] Creating layer loss3/loss3
I0509 21:30:36.609905 16576 net.cpp:76] Creating Layer loss3/loss3
I0509 21:30:36.609912 16576 net.cpp:372] loss3/loss3 <- loss3/classifier_loss3/classifier_0_split_0
I0509 21:30:36.609920 16576 net.cpp:372] loss3/loss3 <- label_data_1_split_4
I0509 21:30:36.609927 16576 net.cpp:334] loss3/loss3 -> loss3/loss3
I0509 21:30:36.609936 16576 net.cpp:105] Setting up loss3/loss3
I0509 21:30:36.609946 16576 layer_factory.hpp:74] Creating layer loss3/loss3
I0509 21:30:36.609961 16576 net.cpp:112] Top shape: 1 1 1 1 (1)
I0509 21:30:36.609967 16576 net.cpp:118]     with loss weight 1
I0509 21:30:36.609985 16576 layer_factory.hpp:74] Creating layer loss3/top-1
I0509 21:30:36.609993 16576 net.cpp:76] Creating Layer loss3/top-1
I0509 21:30:36.609999 16576 net.cpp:372] loss3/top-1 <- loss3/classifier_loss3/classifier_0_split_1
I0509 21:30:36.610007 16576 net.cpp:372] loss3/top-1 <- label_data_1_split_5
I0509 21:30:36.610015 16576 net.cpp:334] loss3/top-1 -> loss3/top-1
I0509 21:30:36.610024 16576 net.cpp:105] Setting up loss3/top-1
I0509 21:30:36.610030 16576 net.cpp:112] Top shape: 1 1 1 1 (1)
I0509 21:30:36.610036 16576 net.cpp:165] loss3/top-1 does not need backward computation.
I0509 21:30:36.610041 16576 net.cpp:163] loss3/loss3 needs backward computation.
I0509 21:30:36.610056 16576 net.cpp:163] loss3/classifier_loss3/classifier_0_split needs backward computation.
I0509 21:30:36.610064 16576 net.cpp:163] loss3/classifier needs backward computation.
I0509 21:30:36.610069 16576 net.cpp:163] pool5/drop_7x7_s1 needs backward computation.
…
