…
I0510 00:08:02.583657 27037 caffe.cpp:134] Use GPU with device ID 0
I0510 00:08:02.990751 27037 net.cpp:253] The NetState phase (1) differed from the phase (0) specified by a rule in layer data
I0510 00:08:02.992311 27037 net.cpp:42] Initializing net from parameters: 
name: "GoogleNet"
state {
  phase: TEST
}
layer {
  name: "data"
  type: "Data"
  top: "data"
  top: "label"
  include {
    phase: TEST
  }
  transform_param {
    mirror: false
    crop_size: 224
    mean_value: 104
    mean_value: 117
    mean_value: 123
  }
  data_param {
    source: "val_lmdb"
    batch_size: 32
    backend: LMDB
  }
}
layer {
  name: "conv1/7x7_s2"
  type: "Convolution"
  bottom: "data"
  top: "conv1/7x7_s2"
  param {
    lr_mult: 1
    decay_mult: 1
  }
  param {
    lr_mult: 2
    decay_mult: 0
  }
  convolution_param {
    num_output: 64
    pad: 3
    kernel_size: 7
    stride: 2
    weight_filler {
      type: "xavier"
      std: 0.1
    }
    bias_filler {
      type: "constant"
      value: 0.2
    }
  }
}
layer {
  name: "conv1/relu_7x7"
  type: "ReLU"
  bottom: "conv1/7x7_s2"
  top: "conv1/7x7_s2"
}
layer {
  name: "pool1/3x3_s2"
  type: "Pooling"
  bottom: "conv1/7x7_s2"
  top: "pool1/3x3_s2"
  pooling_param {
    pool: MAX
    kernel_size: 3
    stride: 2
  }
}
layer {
  name: "pool1/norm1"
  type: "LRN"
  bottom: "pool1/3x3_s2"
  top: "pool1/norm1"
  lrn_param {
    local_size: 5
    alpha: 0.0001
    beta: 0.75
  }
}
layer {
  name: "conv2/3x3_reduce"
  type: "Convolution"
  bottom: "pool1/norm1"
  top: "conv2/3x3_reduce"
  param {
    lr_mult: 1
    decay_mult: 1
  }
  param {
    lr_mult: 2
    decay_mult: 0
  }
  convolution_param {
    num_output: 64
    kernel_size: 1
    weight_filler {
      type: "xavier"
      std: 0.1
    }
    bias_filler {
      type: "constant"
      value: 0.2
    }
  }
}
layer {
  name: "conv2/relu_3x3_reduce"
  type: "ReLU"
  bottom: "conv2/3x3_reduce"
  top: "conv2/3x3_reduce"
}
layer {
  name: "conv2/3x3"
  type: "Convolution"
  bottom: "conv2/3x3_reduce"
  top: "conv2/3x3"
  param {
    lr_mult: 1
    decay_mult: 1
  }
  param {
    lr_mult: 2
    decay_mult: 0
  }
  convolution_param {
    num_output: 192
    pad: 1
    kernel_size: 3
    weight_filler {
      type: "xavier"
      std: 0.03
    }
    bias_filler {
      type: "constant"
      value: 0.2
    }
  }
}
layer {
  name: "conv2/relu_3x3"
  type: "ReLU"
  bottom: "conv2/3x3"
  top: "conv2/3x3"
}
layer {
  name: "conv2/norm2"
  type: "LRN"
  bottom: "conv2/3x3"
  top: "conv2/norm2"
  lrn_param {
    local_size: 5
    alpha: 0.0001
    beta: 0.75
  }
}
layer {
  name: "pool2/3x3_s2"
  type: "Pooling"
  bottom: "conv2/norm2"
  top: "pool2/3x3_s2"
  pooling_param {
    pool: MAX
    kernel_size: 3
    stride: 2
  }
}
layer {
  name: "inception_3a/1x1"
  type: "Convolution"
  bottom: "pool2/3x3_s2"
  top: "inception_3a/1x1"
  param {
    lr_mult: 1
    decay_mult: 1
  }
  param {
    lr_mult: 2
    decay_mult: 0
  }
  convolution_param {
    num_output: 64
    kernel_size: 1
    weight_filler {
      type: "xavier"
      std: 0.03
    }
    bias_filler {
      type: "constant"
      value: 0.2
    }
  }
}
layer {
  name: "inception_3a/relu_1x1"
  type: "ReLU"
  bottom: "inception_3a/1x1"
  top: "inception_3a/1x1"
}
layer {
  name: "inception_3a/3x3_reduce"
  type: "Convolution"
  bottom: "pool2/3x3_s2"
  top: "inception_3a/3x3_reduce"
  param {
    lr_mult: 1
    decay_mult: 1
  }
  param {
    lr_mult: 2
    decay_mult: 0
  }
  convolution_param {
    num_output: 96
    kernel_size: 1
    weight_filler {
      type: "xavier"
      std: 0.09
    }
    bias_filler {
      type: "constant"
      value: 0.2
    }
  }
}
layer {
  name: "inception_3a/relu_3x3_reduce"
  type: "ReLU"
  bottom: "inception_3a/3x3_reduce"
  top: "inception_3a/3x3_reduce"
}
layer {
  name: "inception_3a/3x3"
  type: "Convolution"
  bottom: "inception_3a/3x3_reduce"
  top: "inception_3a/3x3"
  param {
    lr_mult: 1
    decay_mult: 1
  }
  param {
    lr_mult: 2
    decay_mult: 0
  }
  convolution_param {
    num_output: 128
    pad: 1
    kernel_size: 3
    weight_filler {
      type: "xavier"
      std: 0.03
    }
    bias_filler {
      type: "constant"
      value: 0.2
    }
  }
}
layer {
  name: "inception_3a/relu_3x3"
  type: "ReLU"
  bottom: "inception_3a/3x3"
  top: "inception_3a/3x3"
}
layer {
  name: "inception_3a/5x5_reduce"
  type: "Convolution"
  bottom: "pool2/3x3_s2"
  top: "inception_3a/5x5_reduce"
  param {
    lr_mult: 1
    decay_mult: 1
  }
  param {
    lr_mult: 2
    decay_mult: 0
  }
  convolution_param {
    num_output: 16
    kernel_size: 1
    weight_filler {
      type: "xavier"
      std: 0.2
    }
    bias_filler {
      type: "constant"
      value: 0.2
    }
  }
}
layer {
  name: "inception_3a/relu_5x5_reduce"
  type: "ReLU"
  bottom: "inception_3a/5x5_reduce"
  top: "inception_3a/5x5_reduce"
}
layer {
  name: "inception_3a/5x5"
  type: "Convolution"
  bottom: "inception_3a/5x5_reduce"
  top: "inception_3a/5x5"
  param {
    lr_mult: 1
    decay_mult: 1
  }
  param {
    lr_mult: 2
    decay_mult: 0
  }
  convolution_param {
    num_output: 32
    pad: 2
    kernel_size: 5
    weight_filler {
      type: "xavier"
      std: 0.03
    }
    bias_filler {
      type: "constant"
      value: 0.2
    }
  }
}
layer {
  name: "inception_3a/relu_5x5"
  type: "ReLU"
  bottom: "inception_3a/5x5"
  top: "inception_3a/5x5"
}
layer {
  name: "inception_3a/pool"
  type: "Pooling"
  bottom: "pool2/3x3_s2"
  top: "inception_3a/pool"
  pooling_param {
    pool: MAX
    kernel_size: 3
    stride: 1
    pad: 1
  }
}
layer {
  name: "inception_3a/pool_proj"
  type: "Convolution"
  bottom: "inception_3a/pool"
  top: "inception_3a/pool_proj"
  param {
    lr_mult: 1
    decay_mult: 1
  }
  param {
    lr_mult: 2
    decay_mult: 0
  }
  convolution_param {
    num_output: 32
    kernel_size: 1
    weight_filler {
      type: "xavier"
      std: 0.1
    }
    bias_filler {
      type: "constant"
      value: 0.2
    }
  }
}
layer {
  name: "inception_3a/relu_pool_proj"
  type: "ReLU"
  bottom: "inception_3a/pool_proj"
  top: "inception_3a/pool_proj"
}
layer {
  name: "inception_3a/output"
  type: "Concat"
  bottom: "inception_3a/1x1"
  bottom: "inception_3a/3x3"
  bottom: "inception_3a/5x5"
  bottom: "inception_3a/pool_proj"
  top: "inception_3a/output"
}
layer {
  name: "inception_3b/1x1"
  type: "Convolution"
  bottom: "inception_3a/output"
  top: "inception_3b/1x1"
  param {
    lr_mult: 1
    decay_mult: 1
  }
  param {
    lr_mult: 2
    decay_mult: 0
  }
  convolution_param {
    num_output: 128
    kernel_size: 1
    weight_filler {
      type: "xavier"
      std: 0.03
    }
    bias_filler {
      type: "constant"
      value: 0.2
    }
  }
}
layer {
  name: "inception_3b/relu_1x1"
  type: "ReLU"
  bottom: "inception_3b/1x1"
  top: "inception_3b/1x1"
}
layer {
  name: "inception_3b/3x3_reduce"
  type: "Convolution"
  bottom: "inception_3a/output"
  top: "inception_3b/3x3_reduce"
  param {
    lr_mult: 1
    decay_mult: 1
  }
  param {
    lr_mult: 2
    decay_mult: 0
  }
  convolution_param {
    num_output: 128
    kernel_size: 1
    weight_filler {
      type: "xavier"
      std: 0.09
    }
    bias_filler {
      type: "constant"
      value: 0.2
    }
  }
}
layer {
  name: "inception_3b/relu_3x3_reduce"
  type: "ReLU"
  bottom: "inception_3b/3x3_reduce"
  top: "inception_3b/3x3_reduce"
}
layer {
  name: "inception_3b/3x3"
  type: "Convolution"
  bottom: "inception_3b/3x3_reduce"
  top: "inception_3b/3x3"
  param {
    lr_mult: 1
    decay_mult: 1
  }
  param {
    lr_mult: 2
    decay_mult: 0
  }
  convolution_param {
    num_output: 192
    pad: 1
    kernel_size: 3
    weight_filler {
      type: "xavier"
      std: 0.03
    }
    bias_filler {
      type: "constant"
      value: 0.2
    }
  }
}
layer {
  name: "inception_3b/relu_3x3"
  type: "ReLU"
  bottom: "inception_3b/3x3"
  top: "inception_3b/3x3"
}
layer {
  name: "inception_3b/5x5_reduce"
  type: "Convolution"
  bottom: "inception_3a/output"
  top: "inception_3b/5x5_reduce"
  param {
    lr_mult: 1
    decay_mult: 1
  }
  param {
    lr_mult: 2
    decay_mult: 0
  }
  convolution_param {
    num_output: 32
    kernel_size: 1
    weight_filler {
      type: "xavier"
      std: 0.2
    }
    bias_filler {
      type: "constant"
      value: 0.2
    }
  }
}
layer {
  name: "inception_3b/relu_5x5_reduce"
  type: "ReLU"
  bottom: "inception_3b/5x5_reduce"
  top: "inception_3b/5x5_reduce"
}
layer {
  name: "inception_3b/5x5"
  type: "Convolution"
  bottom: "inception_3b/5x5_reduce"
  top: "inception_3b/5x5"
  param {
    lr_mult: 1
    decay_mult: 1
  }
  param {
    lr_mult: 2
    decay_mult: 0
  }
  convolution_param {
    num_output: 96
    pad: 2
    kernel_size: 5
    weight_filler {
      type: "xavier"
      std: 0.03
    }
    bias_filler {
      type: "constant"
      value: 0.2
    }
  }
}
layer {
  name: "inception_3b/relu_5x5"
  type: "ReLU"
  bottom: "inception_3b/5x5"
  top: "inception_3b/5x5"
}
layer {
  name: "inception_3b/pool"
  type: "Pooling"
  bottom: "inception_3a/output"
  top: "inception_3b/pool"
  pooling_param {
    pool: MAX
    kernel_size: 3
    stride: 1
    pad: 1
  }
}
layer {
  name: "inception_3b/pool_proj"
  type: "Convolution"
  bottom: "inception_3b/pool"
  top: "inception_3b/pool_proj"
  param {
    lr_mult: 1
    decay_mult: 1
  }
  param {
    lr_mult: 2
    decay_mult: 0
  }
  convolution_param {
    num_output: 64
    kernel_size: 1
    weight_filler {
      type: "xavier"
      std: 0.1
    }
    bias_filler {
      type: "constant"
      value: 0.2
    }
  }
}
layer {
  name: "inception_3b/relu_pool_proj"
  type: "ReLU"
  bottom: "inception_3b/pool_proj"
  top: "inception_3b/pool_proj"
}
layer {
  name: "inception_3b/output"
  type: "Concat"
  bottom: "inception_3b/1x1"
  bottom: "inception_3b/3x3"
  bottom: "inception_3b/5x5"
  bottom: "inception_3b/pool_proj"
  top: "inception_3b/output"
}
layer {
  name: "pool3/3x3_s2"
  type: "Pooling"
  bottom: "inception_3b/output"
  top: "pool3/3x3_s2"
  pooling_param {
    pool: MAX
    kernel_size: 3
    stride: 2
  }
}
layer {
  name: "inception_4a/1x1"
  type: "Convolution"
  bottom: "pool3/3x3_s2"
  top: "inception_4a/1x1"
  param {
    lr_mult: 1
    decay_mult: 1
  }
  param {
    lr_mult: 2
    decay_mult: 0
  }
  convolution_param {
    num_output: 192
    kernel_size: 1
    weight_filler {
      type: "xavier"
      std: 0.03
    }
    bias_filler {
      type: "constant"
      value: 0.2
    }
  }
}
layer {
  name: "inception_4a/relu_1x1"
  type: "ReLU"
  bottom: "inception_4a/1x1"
  top: "inception_4a/1x1"
}
layer {
  name: "inception_4a/3x3_reduce"
  type: "Convolution"
  bottom: "pool3/3x3_s2"
  top: "inception_4a/3x3_reduce"
  param {
    lr_mult: 1
    decay_mult: 1
  }
  param {
    lr_mult: 2
    decay_mult: 0
  }
  convolution_param {
    num_output: 96
    kernel_size: 1
    weight_filler {
      type: "xavier"
      std: 0.09
    }
    bias_filler {
      type: "constant"
      value: 0.2
    }
  }
}
layer {
  name: "inception_4a/relu_3x3_reduce"
  type: "ReLU"
  bottom: "inception_4a/3x3_reduce"
  top: "inception_4a/3x3_reduce"
}
layer {
  name: "inception_4a/3x3"
  type: "Convolution"
  bottom: "inception_4a/3x3_reduce"
  top: "inception_4a/3x3"
  param {
    lr_mult: 1
    decay_mult: 1
  }
  param {
    lr_mult: 2
    decay_mult: 0
  }
  convolution_param {
    num_output: 208
    pad: 1
    kernel_size: 3
    weight_filler {
      type: "xavier"
      std: 0.03
    }
    bias_filler {
      type: "constant"
      value: 0.2
    }
  }
}
layer {
  name: "inception_4a/relu_3x3"
  type: "ReLU"
  bottom: "inception_4a/3x3"
  top: "inception_4a/3x3"
}
layer {
  name: "inception_4a/5x5_reduce"
  type: "Convolution"
  bottom: "pool3/3x3_s2"
  top: "inception_4a/5x5_reduce"
  param {
    lr_mult: 1
    decay_mult: 1
  }
  param {
    lr_mult: 2
    decay_mult: 0
  }
  convolution_param {
    num_output: 16
    kernel_size: 1
    weight_filler {
      type: "xavier"
      std: 0.2
    }
    bias_filler {
      type: "constant"
      value: 0.2
    }
  }
}
layer {
  name: "inception_4a/relu_5x5_reduce"
  type: "ReLU"
  bottom: "inception_4a/5x5_reduce"
  top: "inception_4a/5x5_reduce"
}
layer {
  name: "inception_4a/5x5"
  type: "Convolution"
  bottom: "inception_4a/5x5_reduce"
  top: "inception_4a/5x5"
  param {
    lr_mult: 1
    decay_mult: 1
  }
  param {
    lr_mult: 2
    decay_mult: 0
  }
  convolution_param {
    num_output: 48
    pad: 2
    kernel_size: 5
    weight_filler {
      type: "xavier"
      std: 0.03
    }
    bias_filler {
      type: "constant"
      value: 0.2
    }
  }
}
layer {
  name: "inception_4a/relu_5x5"
  type: "ReLU"
  bottom: "inception_4a/5x5"
  top: "inception_4a/5x5"
}
layer {
  name: "inception_4a/pool"
  type: "Pooling"
  bottom: "pool3/3x3_s2"
  top: "inception_4a/pool"
  pooling_param {
    pool: MAX
    kernel_size: 3
    stride: 1
    pad: 1
  }
}
layer {
  name: "inception_4a/pool_proj"
  type: "Convolution"
  bottom: "inception_4a/pool"
  top: "inception_4a/pool_proj"
  param {
    lr_mult: 1
    decay_mult: 1
  }
  param {
    lr_mult: 2
    decay_mult: 0
  }
  convolution_param {
    num_output: 64
    kernel_size: 1
    weight_filler {
      type: "xavier"
      std: 0.1
    }
    bias_filler {
      type: "constant"
      value: 0.2
    }
  }
}
layer {
  name: "inception_4a/relu_pool_proj"
  type: "ReLU"
  bottom: "inception_4a/pool_proj"
  top: "inception_4a/pool_proj"
}
layer {
  name: "inception_4a/output"
  type: "Concat"
  bottom: "inception_4a/1x1"
  bottom: "inception_4a/3x3"
  bottom: "inception_4a/5x5"
  bottom: "inception_4a/pool_proj"
  top: "inception_4a/output"
}
layer {
  name: "loss1/ave_pool"
  type: "Pooling"
  bottom: "inception_4a/output"
  top: "loss1/ave_pool"
  pooling_param {
    pool: AVE
    kernel_size: 5
    stride: 3
  }
}
layer {
  name: "loss1/conv"
  type: "Convolution"
  bottom: "loss1/ave_pool"
  top: "loss1/conv"
  param {
    lr_mult: 1
    decay_mult: 1
  }
  param {
    lr_mult: 2
    decay_mult: 0
  }
  convolution_param {
    num_output: 128
    kernel_size: 1
    weight_filler {
      type: "xavier"
      std: 0.08
    }
    bias_filler {
      type: "constant"
      value: 0.2
    }
  }
}
layer {
  name: "loss1/relu_conv"
  type: "ReLU"
  bottom: "loss1/conv"
  top: "loss1/conv"
}
layer {
  name: "loss1/fc"
  type: "InnerProduct"
  bottom: "loss1/conv"
  top: "loss1/fc"
  param {
    lr_mult: 1
    decay_mult: 1
  }
  param {
    lr_mult: 2
    decay_mult: 0
  }
  inner_product_param {
    num_output: 1024
    weight_filler {
      type: "xavier"
      std: 0.02
    }
    bias_filler {
      type: "constant"
      value: 0.2
    }
  }
}
layer {
  name: "loss1/relu_fc"
  type: "ReLU"
  bottom: "loss1/fc"
  top: "loss1/fc"
}
layer {
  name: "loss1/drop_fc"
  type: "Dropout"
  bottom: "loss1/fc"
  top: "loss1/fc"
  dropout_param {
    dropout_ratio: 0.7
  }
}
layer {
  name: "loss1/classifier"
  type: "InnerProduct"
  bottom: "loss1/fc"
  top: "loss1/classifier"
  param {
    lr_mult: 1
    decay_mult: 1
  }
  param {
    lr_mult: 2
    decay_mult: 0
  }
  inner_product_param {
    num_output: 2
    weight_filler {
      type: "xavier"
      std: 0.0009765625
    }
    bias_filler {
      type: "constant"
      value: 0
    }
  }
}
layer {
  name: "loss1/loss"
  type: "SoftmaxWithLoss"
  bottom: "loss1/classifier"
  bottom: "label"
  top: "loss1/loss1"
  loss_weight: 0.3
}
layer {
  name: "loss1/top-1"
  type: "Accuracy"
  bottom: "loss1/classifier"
  bottom: "label"
  top: "loss1/top-1"
  include {
    phase: TEST
  }
}
layer {
  name: "inception_4b/1x1"
  type: "Convolution"
  bottom: "inception_4a/output"
  top: "inception_4b/1x1"
  param {
    lr_mult: 1
    decay_mult: 1
  }
  param {
    lr_mult: 2
    decay_mult: 0
  }
  convolution_param {
    num_output: 160
    kernel_size: 1
    weight_filler {
      type: "xavier"
      std: 0.03
    }
    bias_filler {
      type: "constant"
      value: 0.2
    }
  }
}
layer {
  name: "inception_4b/relu_1x1"
  type: "ReLU"
  bottom: "inception_4b/1x1"
  top: "inception_4b/1x1"
}
layer {
  name: "inception_4b/3x3_reduce"
  type: "Convolution"
  bottom: "inception_4a/output"
  top: "inception_4b/3x3_reduce"
  param {
    lr_mult: 1
    decay_mult: 1
  }
  param {
    lr_mult: 2
    decay_mult: 0
  }
  convolution_param {
    num_output: 112
    kernel_size: 1
    weight_filler {
      type: "xavier"
      std: 0.09
    }
    bias_filler {
      type: "constant"
      value: 0.2
    }
  }
}
layer {
  name: "inception_4b/relu_3x3_reduce"
  type: "ReLU"
  bottom: "inception_4b/3x3_reduce"
  top: "inception_4b/3x3_reduce"
}
layer {
  name: "inception_4b/3x3"
  type: "Convolution"
  bottom: "inception_4b/3x3_reduce"
  top: "inception_4b/3x3"
  param {
    lr_mult: 1
    decay_mult: 1
  }
  param {
    lr_mult: 2
    decay_mult: 0
  }
  convolution_param {
    num_output: 224
    pad: 1
    kernel_size: 3
    weight_filler {
      type: "xavier"
      std: 0.03
    }
    bias_filler {
      type: "constant"
      value: 0.2
    }
  }
}
layer {
  name: "inception_4b/relu_3x3"
  type: "ReLU"
  bottom: "inception_4b/3x3"
  top: "inception_4b/3x3"
}
layer {
  name: "inception_4b/5x5_reduce"
  type: "Convolution"
  bottom: "inception_4a/output"
  top: "inception_4b/5x5_reduce"
  param {
    lr_mult: 1
    decay_mult: 1
  }
  param {
    lr_mult: 2
    decay_mult: 0
  }
  convolution_param {
    num_output: 24
    kernel_size: 1
    weight_filler {
      type: "xavier"
      std: 0.2
    }
    bias_filler {
      type: "constant"
      value: 0.2
    }
  }
}
layer {
  name: "inception_4b/relu_5x5_reduce"
  type: "ReLU"
  bottom: "inception_4b/5x5_reduce"
  top: "inception_4b/5x5_reduce"
}
layer {
  name: "inception_4b/5x5"
  type: "Convolution"
  bottom: "inception_4b/5x5_reduce"
  top: "inception_4b/5x5"
  param {
    lr_mult: 1
    decay_mult: 1
  }
  param {
    lr_mult: 2
    decay_mult: 0
  }
  convolution_param {
    num_output: 64
    pad: 2
    kernel_size: 5
    weight_filler {
      type: "xavier"
      std: 0.03
    }
    bias_filler {
      type: "constant"
      value: 0.2
    }
  }
}
layer {
  name: "inception_4b/relu_5x5"
  type: "ReLU"
  bottom: "inception_4b/5x5"
  top: "inception_4b/5x5"
}
layer {
  name: "inception_4b/pool"
  type: "Pooling"
  bottom: "inception_4a/output"
  top: "inception_4b/pool"
  pooling_param {
    pool: MAX
    kernel_size: 3
    stride: 1
    pad: 1
  }
}
layer {
  name: "inception_4b/pool_proj"
  type: "Convolution"
  bottom: "inception_4b/pool"
  top: "inception_4b/pool_proj"
  param {
    lr_mult: 1
    decay_mult: 1
  }
  param {
    lr_mult: 2
    decay_mult: 0
  }
  convolution_param {
    num_output: 64
    kernel_size: 1
    weight_filler {
      type: "xavier"
      std: 0.1
    }
    bias_filler {
      type: "constant"
      value: 0.2
    }
  }
}
layer {
  name: "inception_4b/relu_pool_proj"
  type: "ReLU"
  bottom: "inception_4b/pool_proj"
  top: "inception_4b/pool_proj"
}
layer {
  name: "inception_4b/output"
  type: "Concat"
  bottom: "inception_4b/1x1"
  bottom: "inception_4b/3x3"
  bottom: "inception_4b/5x5"
  bottom: "inception_4b/pool_proj"
  top: "inception_4b/output"
}
layer {
  name: "inception_4c/1x1"
  type: "Convolution"
  bottom: "inception_4b/output"
  top: "inception_4c/1x1"
  param {
    lr_mult: 1
    decay_mult: 1
  }
  param {
    lr_mult: 2
    decay_mult: 0
  }
  convolution_param {
    num_output: 128
    kernel_size: 1
    weight_filler {
      type: "xavier"
      std: 0.03
    }
    bias_filler {
      type: "constant"
      value: 0.2
    }
  }
}
layer {
  name: "inception_4c/relu_1x1"
  type: "ReLU"
  bottom: "inception_4c/1x1"
  top: "inception_4c/1x1"
}
layer {
  name: "inception_4c/3x3_reduce"
  type: "Convolution"
  bottom: "inception_4b/output"
  top: "inception_4c/3x3_reduce"
  param {
    lr_mult: 1
    decay_mult: 1
  }
  param {
    lr_mult: 2
    decay_mult: 0
  }
  convolution_param {
    num_output: 128
    kernel_size: 1
    weight_filler {
      type: "xavier"
      std: 0.09
    }
    bias_filler {
      type: "constant"
      value: 0.2
    }
  }
}
layer {
  name: "inception_4c/relu_3x3_reduce"
  type: "ReLU"
  bottom: "inception_4c/3x3_reduce"
  top: "inception_4c/3x3_reduce"
}
layer {
  name: "inception_4c/3x3"
  type: "Convolution"
  bottom: "inception_4c/3x3_reduce"
  top: "inception_4c/3x3"
  param {
    lr_mult: 1
    decay_mult: 1
  }
  param {
    lr_mult: 2
    decay_mult: 0
  }
  convolution_param {
    num_output: 256
    pad: 1
    kernel_size: 3
    weight_filler {
      type: "xavier"
      std: 0.03
    }
    bias_filler {
      type: "constant"
      value: 0.2
    }
  }
}
layer {
  name: "inception_4c/relu_3x3"
  type: "ReLU"
  bottom: "inception_4c/3x3"
  top: "inception_4c/3x3"
}
layer {
  name: "inception_4c/5x5_reduce"
  type: "Convolution"
  bottom: "inception_4b/output"
  top: "inception_4c/5x5_reduce"
  param {
    lr_mult: 1
    decay_mult: 1
  }
  param {
    lr_mult: 2
    decay_mult: 0
  }
  convolution_param {
    num_output: 24
    kernel_size: 1
    weight_filler {
      type: "xavier"
      std: 0.2
    }
    bias_filler {
      type: "constant"
      value: 0.2
    }
  }
}
layer {
  name: "inception_4c/relu_5x5_reduce"
  type: "ReLU"
  bottom: "inception_4c/5x5_reduce"
  top: "inception_4c/5x5_reduce"
}
layer {
  name: "inception_4c/5x5"
  type: "Convolution"
  bottom: "inception_4c/5x5_reduce"
  top: "inception_4c/5x5"
  param {
    lr_mult: 1
    decay_mult: 1
  }
  param {
    lr_mult: 2
    decay_mult: 0
  }
  convolution_param {
    num_output: 64
    pad: 2
    kernel_size: 5
    weight_filler {
      type: "xavier"
      std: 0.03
    }
    bias_filler {
      type: "constant"
      value: 0.2
    }
  }
}
layer {
  name: "inception_4c/relu_5x5"
  type: "ReLU"
  bottom: "inception_4c/5x5"
  top: "inception_4c/5x5"
}
layer {
  name: "inception_4c/pool"
  type: "Pooling"
  bottom: "inception_4b/output"
  top: "inception_4c/pool"
  pooling_param {
    pool: MAX
    kernel_size: 3
    stride: 1
    pad: 1
  }
}
layer {
  name: "inception_4c/pool_proj"
  type: "Convolution"
  bottom: "inception_4c/pool"
  top: "inception_4c/pool_proj"
  param {
    lr_mult: 1
    decay_mult: 1
  }
  param {
    lr_mult: 2
    decay_mult: 0
  }
  convolution_param {
    num_output: 64
    kernel_size: 1
    weight_filler {
      type: "xavier"
      std: 0.1
    }
    bias_filler {
      type: "constant"
      value: 0.2
    }
  }
}
layer {
  name: "inception_4c/relu_pool_proj"
  type: "ReLU"
  bottom: "inception_4c/pool_proj"
  top: "inception_4c/pool_proj"
}
layer {
  name: "inception_4c/output"
  type: "Concat"
  bottom: "inception_4c/1x1"
  bottom: "inception_4c/3x3"
  bottom: "inception_4c/5x5"
  bottom: "inception_4c/pool_proj"
  top: "inception_4c/output"
}
layer {
  name: "inception_4d/1x1"
  type: "Convolution"
  bottom: "inception_4c/output"
  top: "inception_4d/1x1"
  param {
    lr_mult: 1
    decay_mult: 1
  }
  param {
    lr_mult: 2
    decay_mult: 0
  }
  convolution_param {
    num_output: 112
    kernel_size: 1
    weight_filler {
      type: "xavier"
      std: 0.03
    }
    bias_filler {
      type: "constant"
      value: 0.2
    }
  }
}
layer {
  name: "inception_4d/relu_1x1"
  type: "ReLU"
  bottom: "inception_4d/1x1"
  top: "inception_4d/1x1"
}
layer {
  name: "inception_4d/3x3_reduce"
  type: "Convolution"
  bottom: "inception_4c/output"
  top: "inception_4d/3x3_reduce"
  param {
    lr_mult: 1
    decay_mult: 1
  }
  param {
    lr_mult: 2
    decay_mult: 0
  }
  convolution_param {
    num_output: 144
    kernel_size: 1
    weight_filler {
      type: "xavier"
      std: 0.09
    }
    bias_filler {
      type: "constant"
      value: 0.2
    }
  }
}
layer {
  name: "inception_4d/relu_3x3_reduce"
  type: "ReLU"
  bottom: "inception_4d/3x3_reduce"
  top: "inception_4d/3x3_reduce"
}
layer {
  name: "inception_4d/3x3"
  type: "Convolution"
  bottom: "inception_4d/3x3_reduce"
  top: "inception_4d/3x3"
  param {
    lr_mult: 1
    decay_mult: 1
  }
  param {
    lr_mult: 2
    decay_mult: 0
  }
  convolution_param {
    num_output: 288
    pad: 1
    kernel_size: 3
    weight_filler {
      type: "xavier"
      std: 0.03
    }
    bias_filler {
      type: "constant"
      value: 0.2
    }
  }
}
layer {
  name: "inception_4d/relu_3x3"
  type: "ReLU"
  bottom: "inception_4d/3x3"
  top: "inception_4d/3x3"
}
layer {
  name: "inception_4d/5x5_reduce"
  type: "Convolution"
  bottom: "inception_4c/output"
  top: "inception_4d/5x5_reduce"
  param {
    lr_mult: 1
    decay_mult: 1
  }
  param {
    lr_mult: 2
    decay_mult: 0
  }
  convolution_param {
    num_output: 32
    kernel_size: 1
    weight_filler {
      type: "xavier"
      std: 0.2
    }
    bias_filler {
      type: "constant"
      value: 0.2
    }
  }
}
layer {
  name: "inception_4d/relu_5x5_reduce"
  type: "ReLU"
  bottom: "inception_4d/5x5_reduce"
  top: "inception_4d/5x5_reduce"
}
layer {
  name: "inception_4d/5x5"
  type: "Convolution"
  bottom: "inception_4d/5x5_reduce"
  top: "inception_4d/5x5"
  param {
    lr_mult: 1
    decay_mult: 1
  }
  param {
    lr_mult: 2
    decay_mult: 0
  }
  convolution_param {
    num_output: 64
    pad: 2
    kernel_size: 5
    weight_filler {
      type: "xavier"
      std: 0.03
    }
    bias_filler {
      type: "constant"
      value: 0.2
    }
  }
}
layer {
  name: "inception_4d/relu_5x5"
  type: "ReLU"
  bottom: "inception_4d/5x5"
  top: "inception_4d/5x5"
}
layer {
  name: "inception_4d/pool"
  type: "Pooling"
  bottom: "inception_4c/output"
  top: "inception_4d/pool"
  pooling_param {
    pool: MAX
    kernel_size: 3
    stride: 1
    pad: 1
  }
}
layer {
  name: "inception_4d/pool_proj"
  type: "Convolution"
  bottom: "inception_4d/pool"
  top: "inception_4d/pool_proj"
  param {
    lr_mult: 1
    decay_mult: 1
  }
  param {
    lr_mult: 2
    decay_mult: 0
  }
  convolution_param {
    num_output: 64
    kernel_size: 1
    weight_filler {
      type: "xavier"
      std: 0.1
    }
    bias_filler {
      type: "constant"
      value: 0.2
    }
  }
}
layer {
  name: "inception_4d/relu_pool_proj"
  type: "ReLU"
  bottom: "inception_4d/pool_proj"
  top: "inception_4d/pool_proj"
}
layer {
  name: "inception_4d/output"
  type: "Concat"
  bottom: "inception_4d/1x1"
  bottom: "inception_4d/3x3"
  bottom: "inception_4d/5x5"
  bottom: "inception_4d/pool_proj"
  top: "inception_4d/output"
}
layer {
  name: "loss2/ave_pool"
  type: "Pooling"
  bottom: "inception_4d/output"
  top: "loss2/ave_pool"
  pooling_param {
    pool: AVE
    kernel_size: 5
    stride: 3
  }
}
layer {
  name: "loss2/conv"
  type: "Convolution"
  bottom: "loss2/ave_pool"
  top: "loss2/conv"
  param {
    lr_mult: 1
    decay_mult: 1
  }
  param {
    lr_mult: 2
    decay_mult: 0
  }
  convolution_param {
    num_output: 128
    kernel_size: 1
    weight_filler {
      type: "xavier"
      std: 0.08
    }
    bias_filler {
      type: "constant"
      value: 0.2
    }
  }
}
layer {
  name: "loss2/relu_conv"
  type: "ReLU"
  bottom: "loss2/conv"
  top: "loss2/conv"
}
layer {
  name: "loss2/fc"
  type: "InnerProduct"
  bottom: "loss2/conv"
  top: "loss2/fc"
  param {
    lr_mult: 1
    decay_mult: 1
  }
  param {
    lr_mult: 2
    decay_mult: 0
  }
  inner_product_param {
    num_output: 1024
    weight_filler {
      type: "xavier"
      std: 0.02
    }
    bias_filler {
      type: "constant"
      value: 0.2
    }
  }
}
layer {
  name: "loss2/relu_fc"
  type: "ReLU"
  bottom: "loss2/fc"
  top: "loss2/fc"
}
layer {
  name: "loss2/drop_fc"
  type: "Dropout"
  bottom: "loss2/fc"
  top: "loss2/fc"
  dropout_param {
    dropout_ratio: 0.7
  }
}
layer {
  name: "loss2/classifier"
  type: "InnerProduct"
  bottom: "loss2/fc"
  top: "loss2/classifier"
  param {
    lr_mult: 1
    decay_mult: 1
  }
  param {
    lr_mult: 2
    decay_mult: 0
  }
  inner_product_param {
    num_output: 2
    weight_filler {
      type: "xavier"
      std: 0.0009765625
    }
    bias_filler {
      type: "constant"
      value: 0
    }
  }
}
layer {
  name: "loss2/loss"
  type: "SoftmaxWithLoss"
  bottom: "loss2/classifier"
  bottom: "label"
  top: "loss2/loss1"
  loss_weight: 0.3
}
layer {
  name: "loss2/top-1"
  type: "Accuracy"
  bottom: "loss2/classifier"
  bottom: "label"
  top: "loss2/top-1"
  include {
    phase: TEST
  }
}
layer {
  name: "inception_4e/1x1"
  type: "Convolution"
  bottom: "inception_4d/output"
  top: "inception_4e/1x1"
  param {
    lr_mult: 1
    decay_mult: 1
  }
  param {
    lr_mult: 2
    decay_mult: 0
  }
  convolution_param {
    num_output: 256
    kernel_size: 1
    weight_filler {
      type: "xavier"
      std: 0.03
    }
    bias_filler {
      type: "constant"
      value: 0.2
    }
  }
}
layer {
  name: "inception_4e/relu_1x1"
  type: "ReLU"
  bottom: "inception_4e/1x1"
  top: "inception_4e/1x1"
}
layer {
  name: "inception_4e/3x3_reduce"
  type: "Convolution"
  bottom: "inception_4d/output"
  top: "inception_4e/3x3_reduce"
  param {
    lr_mult: 1
    decay_mult: 1
  }
  param {
    lr_mult: 2
    decay_mult: 0
  }
  convolution_param {
    num_output: 160
    kernel_size: 1
    weight_filler {
      type: "xavier"
      std: 0.09
    }
    bias_filler {
      type: "constant"
      value: 0.2
    }
  }
}
layer {
  name: "inception_4e/relu_3x3_reduce"
  type: "ReLU"
  bottom: "inception_4e/3x3_reduce"
  top: "inception_4e/3x3_reduce"
}
layer {
  name: "inception_4e/3x3"
  type: "Convolution"
  bottom: "inception_4e/3x3_reduce"
  top: "inception_4e/3x3"
  param {
    lr_mult: 1
    decay_mult: 1
  }
  param {
    lr_mult: 2
    decay_mult: 0
  }
  convolution_param {
    num_output: 320
    pad: 1
    kernel_size: 3
    weight_filler {
      type: "xavier"
      std: 0.03
    }
    bias_filler {
      type: "constant"
      value: 0.2
    }
  }
}
layer {
  name: "inception_4e/relu_3x3"
  type: "ReLU"
  bottom: "inception_4e/3x3"
  top: "inception_4e/3x3"
}
layer {
  name: "inception_4e/5x5_reduce"
  type: "Convolution"
  bottom: "inception_4d/output"
  top: "inception_4e/5x5_reduce"
  param {
    lr_mult: 1
    decay_mult: 1
  }
  param {
   
I0510 00:08:02.997056 27037 layer_factory.hpp:74] Creating layer data
I0510 00:08:02.997092 27037 net.cpp:76] Creating Layer data
I0510 00:08:02.997105 27037 net.cpp:334] data -> data
I0510 00:08:02.997136 27037 net.cpp:334] data -> label
I0510 00:08:02.997156 27037 net.cpp:105] Setting up data
I0510 00:08:02.997287 27037 db.cpp:34] Opened lmdb val_lmdb
I0510 00:08:02.997567 27037 data_layer.cpp:67] output data size: 32,3,224,224
I0510 00:08:03.004233 27037 net.cpp:112] Top shape: 32 3 224 224 (4816896)
I0510 00:08:03.004256 27037 net.cpp:112] Top shape: 32 1 1 1 (32)
I0510 00:08:03.004267 27037 layer_factory.hpp:74] Creating layer label_data_1_split
I0510 00:08:03.004297 27037 net.cpp:76] Creating Layer label_data_1_split
I0510 00:08:03.004304 27037 net.cpp:372] label_data_1_split <- label
I0510 00:08:03.004323 27037 net.cpp:334] label_data_1_split -> label_data_1_split_0
I0510 00:08:03.004336 27037 net.cpp:334] label_data_1_split -> label_data_1_split_1
I0510 00:08:03.004346 27037 net.cpp:334] label_data_1_split -> label_data_1_split_2
I0510 00:08:03.004355 27037 net.cpp:334] label_data_1_split -> label_data_1_split_3
I0510 00:08:03.004364 27037 net.cpp:334] label_data_1_split -> label_data_1_split_4
I0510 00:08:03.004372 27037 net.cpp:334] label_data_1_split -> label_data_1_split_5
I0510 00:08:03.004380 27037 net.cpp:105] Setting up label_data_1_split
I0510 00:08:03.004390 27037 net.cpp:112] Top shape: 32 1 1 1 (32)
I0510 00:08:03.004395 27037 net.cpp:112] Top shape: 32 1 1 1 (32)
I0510 00:08:03.004401 27037 net.cpp:112] Top shape: 32 1 1 1 (32)
I0510 00:08:03.004406 27037 net.cpp:112] Top shape: 32 1 1 1 (32)
I0510 00:08:03.004411 27037 net.cpp:112] Top shape: 32 1 1 1 (32)
I0510 00:08:03.004416 27037 net.cpp:112] Top shape: 32 1 1 1 (32)
I0510 00:08:03.004421 27037 layer_factory.hpp:74] Creating layer conv1/7x7_s2
I0510 00:08:03.004441 27037 net.cpp:76] Creating Layer conv1/7x7_s2
I0510 00:08:03.004447 27037 net.cpp:372] conv1/7x7_s2 <- data
I0510 00:08:03.004457 27037 net.cpp:334] conv1/7x7_s2 -> conv1/7x7_s2
I0510 00:08:03.004470 27037 net.cpp:105] Setting up conv1/7x7_s2
I0510 00:08:03.005080 27037 net.cpp:112] Top shape: 32 64 112 112 (25690112)
I0510 00:08:03.005108 27037 layer_factory.hpp:74] Creating layer conv1/relu_7x7
I0510 00:08:03.005121 27037 net.cpp:76] Creating Layer conv1/relu_7x7
I0510 00:08:03.005130 27037 net.cpp:372] conv1/relu_7x7 <- conv1/7x7_s2
I0510 00:08:03.005143 27037 net.cpp:323] conv1/relu_7x7 -> conv1/7x7_s2 (in-place)
I0510 00:08:03.005159 27037 net.cpp:105] Setting up conv1/relu_7x7
I0510 00:08:03.005177 27037 net.cpp:112] Top shape: 32 64 112 112 (25690112)
I0510 00:08:03.005187 27037 layer_factory.hpp:74] Creating layer pool1/3x3_s2
I0510 00:08:03.005231 27037 net.cpp:76] Creating Layer pool1/3x3_s2
I0510 00:08:03.005239 27037 net.cpp:372] pool1/3x3_s2 <- conv1/7x7_s2
I0510 00:08:03.005246 27037 net.cpp:334] pool1/3x3_s2 -> pool1/3x3_s2
I0510 00:08:03.005257 27037 net.cpp:105] Setting up pool1/3x3_s2
I0510 00:08:03.005288 27037 net.cpp:112] Top shape: 32 64 56 56 (6422528)
I0510 00:08:03.005297 27037 layer_factory.hpp:74] Creating layer pool1/norm1
I0510 00:08:03.005309 27037 net.cpp:76] Creating Layer pool1/norm1
I0510 00:08:03.005314 27037 net.cpp:372] pool1/norm1 <- pool1/3x3_s2
I0510 00:08:03.005322 27037 net.cpp:334] pool1/norm1 -> pool1/norm1
I0510 00:08:03.005333 27037 net.cpp:105] Setting up pool1/norm1
I0510 00:08:03.005345 27037 net.cpp:112] Top shape: 32 64 56 56 (6422528)
I0510 00:08:03.005357 27037 layer_factory.hpp:74] Creating layer conv2/3x3_reduce
I0510 00:08:03.005368 27037 net.cpp:76] Creating Layer conv2/3x3_reduce
I0510 00:08:03.005374 27037 net.cpp:372] conv2/3x3_reduce <- pool1/norm1
I0510 00:08:03.005383 27037 net.cpp:334] conv2/3x3_reduce -> conv2/3x3_reduce
I0510 00:08:03.005393 27037 net.cpp:105] Setting up conv2/3x3_reduce
I0510 00:08:03.005445 27037 net.cpp:112] Top shape: 32 64 56 56 (6422528)
I0510 00:08:03.005460 27037 layer_factory.hpp:74] Creating layer conv2/relu_3x3_reduce
I0510 00:08:03.005473 27037 net.cpp:76] Creating Layer conv2/relu_3x3_reduce
I0510 00:08:03.005486 27037 net.cpp:372] conv2/relu_3x3_reduce <- conv2/3x3_reduce
I0510 00:08:03.005501 27037 net.cpp:323] conv2/relu_3x3_reduce -> conv2/3x3_reduce (in-place)
I0510 00:08:03.005516 27037 net.cpp:105] Setting up conv2/relu_3x3_reduce
I0510 00:08:03.005522 27037 net.cpp:112] Top shape: 32 64 56 56 (6422528)
I0510 00:08:03.005529 27037 layer_factory.hpp:74] Creating layer conv2/3x3
I0510 00:08:03.005544 27037 net.cpp:76] Creating Layer conv2/3x3
I0510 00:08:03.005559 27037 net.cpp:372] conv2/3x3 <- conv2/3x3_reduce
I0510 00:08:03.005578 27037 net.cpp:334] conv2/3x3 -> conv2/3x3
I0510 00:08:03.005594 27037 net.cpp:105] Setting up conv2/3x3
I0510 00:08:03.006608 27037 net.cpp:112] Top shape: 32 192 56 56 (19267584)
I0510 00:08:03.006628 27037 layer_factory.hpp:74] Creating layer conv2/relu_3x3
I0510 00:08:03.006639 27037 net.cpp:76] Creating Layer conv2/relu_3x3
I0510 00:08:03.006645 27037 net.cpp:372] conv2/relu_3x3 <- conv2/3x3
I0510 00:08:03.006654 27037 net.cpp:323] conv2/relu_3x3 -> conv2/3x3 (in-place)
I0510 00:08:03.006661 27037 net.cpp:105] Setting up conv2/relu_3x3
I0510 00:08:03.006666 27037 net.cpp:112] Top shape: 32 192 56 56 (19267584)
I0510 00:08:03.006672 27037 layer_factory.hpp:74] Creating layer conv2/norm2
I0510 00:08:03.006681 27037 net.cpp:76] Creating Layer conv2/norm2
I0510 00:08:03.006687 27037 net.cpp:372] conv2/norm2 <- conv2/3x3
I0510 00:08:03.006695 27037 net.cpp:334] conv2/norm2 -> conv2/norm2
I0510 00:08:03.006702 27037 net.cpp:105] Setting up conv2/norm2
I0510 00:08:03.006708 27037 net.cpp:112] Top shape: 32 192 56 56 (19267584)
I0510 00:08:03.006714 27037 layer_factory.hpp:74] Creating layer pool2/3x3_s2
I0510 00:08:03.006721 27037 net.cpp:76] Creating Layer pool2/3x3_s2
I0510 00:08:03.006726 27037 net.cpp:372] pool2/3x3_s2 <- conv2/norm2
I0510 00:08:03.006736 27037 net.cpp:334] pool2/3x3_s2 -> pool2/3x3_s2
I0510 00:08:03.006744 27037 net.cpp:105] Setting up pool2/3x3_s2
I0510 00:08:03.006750 27037 net.cpp:112] Top shape: 32 192 28 28 (4816896)
I0510 00:08:03.006757 27037 layer_factory.hpp:74] Creating layer pool2/3x3_s2_pool2/3x3_s2_0_split
I0510 00:08:03.006764 27037 net.cpp:76] Creating Layer pool2/3x3_s2_pool2/3x3_s2_0_split
I0510 00:08:03.006769 27037 net.cpp:372] pool2/3x3_s2_pool2/3x3_s2_0_split <- pool2/3x3_s2
I0510 00:08:03.006788 27037 net.cpp:334] pool2/3x3_s2_pool2/3x3_s2_0_split -> pool2/3x3_s2_pool2/3x3_s2_0_split_0
I0510 00:08:03.006798 27037 net.cpp:334] pool2/3x3_s2_pool2/3x3_s2_0_split -> pool2/3x3_s2_pool2/3x3_s2_0_split_1
I0510 00:08:03.006808 27037 net.cpp:334] pool2/3x3_s2_pool2/3x3_s2_0_split -> pool2/3x3_s2_pool2/3x3_s2_0_split_2
I0510 00:08:03.006834 27037 net.cpp:334] pool2/3x3_s2_pool2/3x3_s2_0_split -> pool2/3x3_s2_pool2/3x3_s2_0_split_3
I0510 00:08:03.006841 27037 net.cpp:105] Setting up pool2/3x3_s2_pool2/3x3_s2_0_split
I0510 00:08:03.006849 27037 net.cpp:112] Top shape: 32 192 28 28 (4816896)
I0510 00:08:03.006855 27037 net.cpp:112] Top shape: 32 192 28 28 (4816896)
I0510 00:08:03.006860 27037 net.cpp:112] Top shape: 32 192 28 28 (4816896)
I0510 00:08:03.006865 27037 net.cpp:112] Top shape: 32 192 28 28 (4816896)
I0510 00:08:03.006872 27037 layer_factory.hpp:74] Creating layer inception_3a/1x1
I0510 00:08:03.006885 27037 net.cpp:76] Creating Layer inception_3a/1x1
I0510 00:08:03.006891 27037 net.cpp:372] inception_3a/1x1 <- pool2/3x3_s2_pool2/3x3_s2_0_split_0
I0510 00:08:03.006901 27037 net.cpp:334] inception_3a/1x1 -> inception_3a/1x1
I0510 00:08:03.006911 27037 net.cpp:105] Setting up inception_3a/1x1
I0510 00:08:03.007099 27037 net.cpp:112] Top shape: 32 64 28 28 (1605632)
I0510 00:08:03.007117 27037 layer_factory.hpp:74] Creating layer inception_3a/relu_1x1
I0510 00:08:03.007125 27037 net.cpp:76] Creating Layer inception_3a/relu_1x1
I0510 00:08:03.007130 27037 net.cpp:372] inception_3a/relu_1x1 <- inception_3a/1x1
I0510 00:08:03.007138 27037 net.cpp:323] inception_3a/relu_1x1 -> inception_3a/1x1 (in-place)
I0510 00:08:03.007145 27037 net.cpp:105] Setting up inception_3a/relu_1x1
I0510 00:08:03.007151 27037 net.cpp:112] Top shape: 32 64 28 28 (1605632)
I0510 00:08:03.007156 27037 layer_factory.hpp:74] Creating layer inception_3a/3x3_reduce
I0510 00:08:03.007164 27037 net.cpp:76] Creating Layer inception_3a/3x3_reduce
I0510 00:08:03.007170 27037 net.cpp:372] inception_3a/3x3_reduce <- pool2/3x3_s2_pool2/3x3_s2_0_split_1
I0510 00:08:03.007181 27037 net.cpp:334] inception_3a/3x3_reduce -> inception_3a/3x3_reduce
I0510 00:08:03.007191 27037 net.cpp:105] Setting up inception_3a/3x3_reduce
I0510 00:08:03.007419 27037 net.cpp:112] Top shape: 32 96 28 28 (2408448)
I0510 00:08:03.007446 27037 layer_factory.hpp:74] Creating layer inception_3a/relu_3x3_reduce
I0510 00:08:03.007457 27037 net.cpp:76] Creating Layer inception_3a/relu_3x3_reduce
I0510 00:08:03.007462 27037 net.cpp:372] inception_3a/relu_3x3_reduce <- inception_3a/3x3_reduce
I0510 00:08:03.007470 27037 net.cpp:323] inception_3a/relu_3x3_reduce -> inception_3a/3x3_reduce (in-place)
I0510 00:08:03.007478 27037 net.cpp:105] Setting up inception_3a/relu_3x3_reduce
I0510 00:08:03.007483 27037 net.cpp:112] Top shape: 32 96 28 28 (2408448)
I0510 00:08:03.007489 27037 layer_factory.hpp:74] Creating layer inception_3a/3x3
I0510 00:08:03.007498 27037 net.cpp:76] Creating Layer inception_3a/3x3
I0510 00:08:03.007503 27037 net.cpp:372] inception_3a/3x3 <- inception_3a/3x3_reduce
I0510 00:08:03.007513 27037 net.cpp:334] inception_3a/3x3 -> inception_3a/3x3
I0510 00:08:03.007524 27037 net.cpp:105] Setting up inception_3a/3x3
I0510 00:08:03.009013 27037 net.cpp:112] Top shape: 32 128 28 28 (3211264)
I0510 00:08:03.009037 27037 layer_factory.hpp:74] Creating layer inception_3a/relu_3x3
I0510 00:08:03.009049 27037 net.cpp:76] Creating Layer inception_3a/relu_3x3
I0510 00:08:03.009057 27037 net.cpp:372] inception_3a/relu_3x3 <- inception_3a/3x3
I0510 00:08:03.009064 27037 net.cpp:323] inception_3a/relu_3x3 -> inception_3a/3x3 (in-place)
I0510 00:08:03.009073 27037 net.cpp:105] Setting up inception_3a/relu_3x3
I0510 00:08:03.009078 27037 net.cpp:112] Top shape: 32 128 28 28 (3211264)
I0510 00:08:03.009084 27037 layer_factory.hpp:74] Creating layer inception_3a/5x5_reduce
I0510 00:08:03.009093 27037 net.cpp:76] Creating Layer inception_3a/5x5_reduce
I0510 00:08:03.009099 27037 net.cpp:372] inception_3a/5x5_reduce <- pool2/3x3_s2_pool2/3x3_s2_0_split_2
I0510 00:08:03.009114 27037 net.cpp:334] inception_3a/5x5_reduce -> inception_3a/5x5_reduce
I0510 00:08:03.009124 27037 net.cpp:105] Setting up inception_3a/5x5_reduce
I0510 00:08:03.009169 27037 net.cpp:112] Top shape: 32 16 28 28 (401408)
I0510 00:08:03.009179 27037 layer_factory.hpp:74] Creating layer inception_3a/relu_5x5_reduce
I0510 00:08:03.009187 27037 net.cpp:76] Creating Layer inception_3a/relu_5x5_reduce
I0510 00:08:03.009217 27037 net.cpp:372] inception_3a/relu_5x5_reduce <- inception_3a/5x5_reduce
I0510 00:08:03.009227 27037 net.cpp:323] inception_3a/relu_5x5_reduce -> inception_3a/5x5_reduce (in-place)
I0510 00:08:03.009237 27037 net.cpp:105] Setting up inception_3a/relu_5x5_reduce
I0510 00:08:03.009243 27037 net.cpp:112] Top shape: 32 16 28 28 (401408)
I0510 00:08:03.009248 27037 layer_factory.hpp:74] Creating layer inception_3a/5x5
I0510 00:08:03.009259 27037 net.cpp:76] Creating Layer inception_3a/5x5
I0510 00:08:03.009287 27037 net.cpp:372] inception_3a/5x5 <- inception_3a/5x5_reduce
I0510 00:08:03.009310 27037 net.cpp:334] inception_3a/5x5 -> inception_3a/5x5
I0510 00:08:03.009330 27037 net.cpp:105] Setting up inception_3a/5x5
I0510 00:08:03.009490 27037 net.cpp:112] Top shape: 32 32 28 28 (802816)
I0510 00:08:03.009506 27037 layer_factory.hpp:74] Creating layer inception_3a/relu_5x5
I0510 00:08:03.009517 27037 net.cpp:76] Creating Layer inception_3a/relu_5x5
I0510 00:08:03.009524 27037 net.cpp:372] inception_3a/relu_5x5 <- inception_3a/5x5
I0510 00:08:03.009531 27037 net.cpp:323] inception_3a/relu_5x5 -> inception_3a/5x5 (in-place)
I0510 00:08:03.009539 27037 net.cpp:105] Setting up inception_3a/relu_5x5
I0510 00:08:03.009544 27037 net.cpp:112] Top shape: 32 32 28 28 (802816)
I0510 00:08:03.009551 27037 layer_factory.hpp:74] Creating layer inception_3a/pool
I0510 00:08:03.009558 27037 net.cpp:76] Creating Layer inception_3a/pool
I0510 00:08:03.009563 27037 net.cpp:372] inception_3a/pool <- pool2/3x3_s2_pool2/3x3_s2_0_split_3
I0510 00:08:03.009572 27037 net.cpp:334] inception_3a/pool -> inception_3a/pool
I0510 00:08:03.009582 27037 net.cpp:105] Setting up inception_3a/pool
I0510 00:08:03.009594 27037 net.cpp:112] Top shape: 32 192 28 28 (4816896)
I0510 00:08:03.009600 27037 layer_factory.hpp:74] Creating layer inception_3a/pool_proj
I0510 00:08:03.009609 27037 net.cpp:76] Creating Layer inception_3a/pool_proj
I0510 00:08:03.009615 27037 net.cpp:372] inception_3a/pool_proj <- inception_3a/pool
I0510 00:08:03.009626 27037 net.cpp:334] inception_3a/pool_proj -> inception_3a/pool_proj
I0510 00:08:03.009635 27037 net.cpp:105] Setting up inception_3a/pool_proj
I0510 00:08:03.009734 27037 net.cpp:112] Top shape: 32 32 28 28 (802816)
I0510 00:08:03.009760 27037 layer_factory.hpp:74] Creating layer inception_3a/relu_pool_proj
I0510 00:08:03.009771 27037 net.cpp:76] Creating Layer inception_3a/relu_pool_proj
I0510 00:08:03.009778 27037 net.cpp:372] inception_3a/relu_pool_proj <- inception_3a/pool_proj
I0510 00:08:03.009789 27037 net.cpp:323] inception_3a/relu_pool_proj -> inception_3a/pool_proj (in-place)
I0510 00:08:03.009799 27037 net.cpp:105] Setting up inception_3a/relu_pool_proj
I0510 00:08:03.009804 27037 net.cpp:112] Top shape: 32 32 28 28 (802816)
I0510 00:08:03.009810 27037 layer_factory.hpp:74] Creating layer inception_3a/output
I0510 00:08:03.009822 27037 net.cpp:76] Creating Layer inception_3a/output
I0510 00:08:03.009829 27037 net.cpp:372] inception_3a/output <- inception_3a/1x1
I0510 00:08:03.009835 27037 net.cpp:372] inception_3a/output <- inception_3a/3x3
I0510 00:08:03.009842 27037 net.cpp:372] inception_3a/output <- inception_3a/5x5
I0510 00:08:03.009848 27037 net.cpp:372] inception_3a/output <- inception_3a/pool_proj
I0510 00:08:03.009855 27037 net.cpp:334] inception_3a/output -> inception_3a/output
I0510 00:08:03.009863 27037 net.cpp:105] Setting up inception_3a/output
I0510 00:08:03.009871 27037 net.cpp:112] Top shape: 32 256 28 28 (6422528)
I0510 00:08:03.009877 27037 layer_factory.hpp:74] Creating layer inception_3a/output_inception_3a/output_0_split
I0510 00:08:03.009891 27037 net.cpp:76] Creating Layer inception_3a/output_inception_3a/output_0_split
I0510 00:08:03.009897 27037 net.cpp:372] inception_3a/output_inception_3a/output_0_split <- inception_3a/output
I0510 00:08:03.009904 27037 net.cpp:334] inception_3a/output_inception_3a/output_0_split -> inception_3a/output_inception_3a/output_0_split_0
I0510 00:08:03.009914 27037 net.cpp:334] inception_3a/output_inception_3a/output_0_split -> inception_3a/output_inception_3a/output_0_split_1
I0510 00:08:03.009943 27037 net.cpp:334] inception_3a/output_inception_3a/output_0_split -> inception_3a/output_inception_3a/output_0_split_2
I0510 00:08:03.009953 27037 net.cpp:334] inception_3a/output_inception_3a/output_0_split -> inception_3a/output_inception_3a/output_0_split_3
I0510 00:08:03.009960 27037 net.cpp:105] Setting up inception_3a/output_inception_3a/output_0_split
I0510 00:08:03.009968 27037 net.cpp:112] Top shape: 32 256 28 28 (6422528)
I0510 00:08:03.009973 27037 net.cpp:112] Top shape: 32 256 28 28 (6422528)
I0510 00:08:03.009977 27037 net.cpp:112] Top shape: 32 256 28 28 (6422528)
I0510 00:08:03.009981 27037 net.cpp:112] Top shape: 32 256 28 28 (6422528)
I0510 00:08:03.009987 27037 layer_factory.hpp:74] Creating layer inception_3b/1x1
I0510 00:08:03.010004 27037 net.cpp:76] Creating Layer inception_3b/1x1
I0510 00:08:03.010010 27037 net.cpp:372] inception_3b/1x1 <- inception_3a/output_inception_3a/output_0_split_0
I0510 00:08:03.010020 27037 net.cpp:334] inception_3b/1x1 -> inception_3b/1x1
I0510 00:08:03.010030 27037 net.cpp:105] Setting up inception_3b/1x1
I0510 00:08:03.010401 27037 net.cpp:112] Top shape: 32 128 28 28 (3211264)
I0510 00:08:03.010431 27037 layer_factory.hpp:74] Creating layer inception_3b/relu_1x1
I0510 00:08:03.010448 27037 net.cpp:76] Creating Layer inception_3b/relu_1x1
I0510 00:08:03.010457 27037 net.cpp:372] inception_3b/relu_1x1 <- inception_3b/1x1
I0510 00:08:03.010467 27037 net.cpp:323] inception_3b/relu_1x1 -> inception_3b/1x1 (in-place)
I0510 00:08:03.010474 27037 net.cpp:105] Setting up inception_3b/relu_1x1
I0510 00:08:03.010480 27037 net.cpp:112] Top shape: 32 128 28 28 (3211264)
I0510 00:08:03.010485 27037 layer_factory.hpp:74] Creating layer inception_3b/3x3_reduce
I0510 00:08:03.010499 27037 net.cpp:76] Creating Layer inception_3b/3x3_reduce
I0510 00:08:03.010504 27037 net.cpp:372] inception_3b/3x3_reduce <- inception_3a/output_inception_3a/output_0_split_1
I0510 00:08:03.010514 27037 net.cpp:334] inception_3b/3x3_reduce -> inception_3b/3x3_reduce
I0510 00:08:03.010529 27037 net.cpp:105] Setting up inception_3b/3x3_reduce
I0510 00:08:03.010880 27037 net.cpp:112] Top shape: 32 128 28 28 (3211264)
I0510 00:08:03.010905 27037 layer_factory.hpp:74] Creating layer inception_3b/relu_3x3_reduce
I0510 00:08:03.010917 27037 net.cpp:76] Creating Layer inception_3b/relu_3x3_reduce
I0510 00:08:03.010924 27037 net.cpp:372] inception_3b/relu_3x3_reduce <- inception_3b/3x3_reduce
I0510 00:08:03.010936 27037 net.cpp:323] inception_3b/relu_3x3_reduce -> inception_3b/3x3_reduce (in-place)
I0510 00:08:03.010956 27037 net.cpp:105] Setting up inception_3b/relu_3x3_reduce
I0510 00:08:03.010968 27037 net.cpp:112] Top shape: 32 128 28 28 (3211264)
I0510 00:08:03.010979 27037 layer_factory.hpp:74] Creating layer inception_3b/3x3
I0510 00:08:03.010996 27037 net.cpp:76] Creating Layer inception_3b/3x3
I0510 00:08:03.011008 27037 net.cpp:372] inception_3b/3x3 <- inception_3b/3x3_reduce
I0510 00:08:03.011029 27037 net.cpp:334] inception_3b/3x3 -> inception_3b/3x3
I0510 00:08:03.011047 27037 net.cpp:105] Setting up inception_3b/3x3
I0510 00:08:03.013054 27037 net.cpp:112] Top shape: 32 192 28 28 (4816896)
I0510 00:08:03.013077 27037 layer_factory.hpp:74] Creating layer inception_3b/relu_3x3
I0510 00:08:03.013087 27037 net.cpp:76] Creating Layer inception_3b/relu_3x3
I0510 00:08:03.013093 27037 net.cpp:372] inception_3b/relu_3x3 <- inception_3b/3x3
I0510 00:08:03.013104 27037 net.cpp:323] inception_3b/relu_3x3 -> inception_3b/3x3 (in-place)
I0510 00:08:03.013114 27037 net.cpp:105] Setting up inception_3b/relu_3x3
I0510 00:08:03.013120 27037 net.cpp:112] Top shape: 32 192 28 28 (4816896)
I0510 00:08:03.013126 27037 layer_factory.hpp:74] Creating layer inception_3b/5x5_reduce
I0510 00:08:03.013134 27037 net.cpp:76] Creating Layer inception_3b/5x5_reduce
I0510 00:08:03.013146 27037 net.cpp:372] inception_3b/5x5_reduce <- inception_3a/output_inception_3a/output_0_split_2
I0510 00:08:03.013161 27037 net.cpp:334] inception_3b/5x5_reduce -> inception_3b/5x5_reduce
I0510 00:08:03.013203 27037 net.cpp:105] Setting up inception_3b/5x5_reduce
I0510 00:08:03.013306 27037 net.cpp:112] Top shape: 32 32 28 28 (802816)
I0510 00:08:03.013319 27037 layer_factory.hpp:74] Creating layer inception_3b/relu_5x5_reduce
I0510 00:08:03.013329 27037 net.cpp:76] Creating Layer inception_3b/relu_5x5_reduce
I0510 00:08:03.013334 27037 net.cpp:372] inception_3b/relu_5x5_reduce <- inception_3b/5x5_reduce
I0510 00:08:03.013340 27037 net.cpp:323] inception_3b/relu_5x5_reduce -> inception_3b/5x5_reduce (in-place)
I0510 00:08:03.013348 27037 net.cpp:105] Setting up inception_3b/relu_5x5_reduce
I0510 00:08:03.013355 27037 net.cpp:112] Top shape: 32 32 28 28 (802816)
I0510 00:08:03.013360 27037 layer_factory.hpp:74] Creating layer inception_3b/5x5
I0510 00:08:03.013370 27037 net.cpp:76] Creating Layer inception_3b/5x5
I0510 00:08:03.013376 27037 net.cpp:372] inception_3b/5x5 <- inception_3b/5x5_reduce
I0510 00:08:03.013384 27037 net.cpp:334] inception_3b/5x5 -> inception_3b/5x5
I0510 00:08:03.013392 27037 net.cpp:105] Setting up inception_3b/5x5
I0510 00:08:03.014089 27037 net.cpp:112] Top shape: 32 96 28 28 (2408448)
I0510 00:08:03.014122 27037 layer_factory.hpp:74] Creating layer inception_3b/relu_5x5
I0510 00:08:03.014138 27037 net.cpp:76] Creating Layer inception_3b/relu_5x5
I0510 00:08:03.014144 27037 net.cpp:372] inception_3b/relu_5x5 <- inception_3b/5x5
I0510 00:08:03.014153 27037 net.cpp:323] inception_3b/relu_5x5 -> inception_3b/5x5 (in-place)
I0510 00:08:03.014160 27037 net.cpp:105] Setting up inception_3b/relu_5x5
I0510 00:08:03.014165 27037 net.cpp:112] Top shape: 32 96 28 28 (2408448)
I0510 00:08:03.014171 27037 layer_factory.hpp:74] Creating layer inception_3b/pool
I0510 00:08:03.014179 27037 net.cpp:76] Creating Layer inception_3b/pool
I0510 00:08:03.014185 27037 net.cpp:372] inception_3b/pool <- inception_3a/output_inception_3a/output_0_split_3
I0510 00:08:03.014209 27037 net.cpp:334] inception_3b/pool -> inception_3b/pool
I0510 00:08:03.014220 27037 net.cpp:105] Setting up inception_3b/pool
I0510 00:08:03.014230 27037 net.cpp:112] Top shape: 32 256 28 28 (6422528)
I0510 00:08:03.014235 27037 layer_factory.hpp:74] Creating layer inception_3b/pool_proj
I0510 00:08:03.014245 27037 net.cpp:76] Creating Layer inception_3b/pool_proj
I0510 00:08:03.014251 27037 net.cpp:372] inception_3b/pool_proj <- inception_3b/pool
I0510 00:08:03.014262 27037 net.cpp:334] inception_3b/pool_proj -> inception_3b/pool_proj
I0510 00:08:03.014282 27037 net.cpp:105] Setting up inception_3b/pool_proj
I0510 00:08:03.014462 27037 net.cpp:112] Top shape: 32 64 28 28 (1605632)
I0510 00:08:03.014478 27037 layer_factory.hpp:74] Creating layer inception_3b/relu_pool_proj
I0510 00:08:03.014488 27037 net.cpp:76] Creating Layer inception_3b/relu_pool_proj
I0510 00:08:03.014495 27037 net.cpp:372] inception_3b/relu_pool_proj <- inception_3b/pool_proj
I0510 00:08:03.014503 27037 net.cpp:323] inception_3b/relu_pool_proj -> inception_3b/pool_proj (in-place)
I0510 00:08:03.014510 27037 net.cpp:105] Setting up inception_3b/relu_pool_proj
I0510 00:08:03.014516 27037 net.cpp:112] Top shape: 32 64 28 28 (1605632)
I0510 00:08:03.014521 27037 layer_factory.hpp:74] Creating layer inception_3b/output
I0510 00:08:03.014533 27037 net.cpp:76] Creating Layer inception_3b/output
I0510 00:08:03.014539 27037 net.cpp:372] inception_3b/output <- inception_3b/1x1
I0510 00:08:03.014546 27037 net.cpp:372] inception_3b/output <- inception_3b/3x3
I0510 00:08:03.014557 27037 net.cpp:372] inception_3b/output <- inception_3b/5x5
I0510 00:08:03.014570 27037 net.cpp:372] inception_3b/output <- inception_3b/pool_proj
I0510 00:08:03.014586 27037 net.cpp:334] inception_3b/output -> inception_3b/output
I0510 00:08:03.014605 27037 net.cpp:105] Setting up inception_3b/output
I0510 00:08:03.014617 27037 net.cpp:112] Top shape: 32 480 28 28 (12042240)
I0510 00:08:03.014624 27037 layer_factory.hpp:74] Creating layer pool3/3x3_s2
I0510 00:08:03.014633 27037 net.cpp:76] Creating Layer pool3/3x3_s2
I0510 00:08:03.014664 27037 net.cpp:372] pool3/3x3_s2 <- inception_3b/output
I0510 00:08:03.014699 27037 net.cpp:334] pool3/3x3_s2 -> pool3/3x3_s2
I0510 00:08:03.014729 27037 net.cpp:105] Setting up pool3/3x3_s2
I0510 00:08:03.014744 27037 net.cpp:112] Top shape: 32 480 14 14 (3010560)
I0510 00:08:03.014756 27037 layer_factory.hpp:74] Creating layer pool3/3x3_s2_pool3/3x3_s2_0_split
I0510 00:08:03.014770 27037 net.cpp:76] Creating Layer pool3/3x3_s2_pool3/3x3_s2_0_split
I0510 00:08:03.014777 27037 net.cpp:372] pool3/3x3_s2_pool3/3x3_s2_0_split <- pool3/3x3_s2
I0510 00:08:03.014786 27037 net.cpp:334] pool3/3x3_s2_pool3/3x3_s2_0_split -> pool3/3x3_s2_pool3/3x3_s2_0_split_0
I0510 00:08:03.014798 27037 net.cpp:334] pool3/3x3_s2_pool3/3x3_s2_0_split -> pool3/3x3_s2_pool3/3x3_s2_0_split_1
I0510 00:08:03.014808 27037 net.cpp:334] pool3/3x3_s2_pool3/3x3_s2_0_split -> pool3/3x3_s2_pool3/3x3_s2_0_split_2
I0510 00:08:03.014816 27037 net.cpp:334] pool3/3x3_s2_pool3/3x3_s2_0_split -> pool3/3x3_s2_pool3/3x3_s2_0_split_3
I0510 00:08:03.014823 27037 net.cpp:105] Setting up pool3/3x3_s2_pool3/3x3_s2_0_split
I0510 00:08:03.014830 27037 net.cpp:112] Top shape: 32 480 14 14 (3010560)
I0510 00:08:03.014835 27037 net.cpp:112] Top shape: 32 480 14 14 (3010560)
I0510 00:08:03.014840 27037 net.cpp:112] Top shape: 32 480 14 14 (3010560)
I0510 00:08:03.014845 27037 net.cpp:112] Top shape: 32 480 14 14 (3010560)
I0510 00:08:03.014852 27037 layer_factory.hpp:74] Creating layer inception_4a/1x1
I0510 00:08:03.014863 27037 net.cpp:76] Creating Layer inception_4a/1x1
I0510 00:08:03.014868 27037 net.cpp:372] inception_4a/1x1 <- pool3/3x3_s2_pool3/3x3_s2_0_split_0
I0510 00:08:03.014876 27037 net.cpp:334] inception_4a/1x1 -> inception_4a/1x1
I0510 00:08:03.014885 27037 net.cpp:105] Setting up inception_4a/1x1
I0510 00:08:03.015797 27037 net.cpp:112] Top shape: 32 192 14 14 (1204224)
I0510 00:08:03.015822 27037 layer_factory.hpp:74] Creating layer inception_4a/relu_1x1
I0510 00:08:03.015841 27037 net.cpp:76] Creating Layer inception_4a/relu_1x1
I0510 00:08:03.015851 27037 net.cpp:372] inception_4a/relu_1x1 <- inception_4a/1x1
I0510 00:08:03.015864 27037 net.cpp:323] inception_4a/relu_1x1 -> inception_4a/1x1 (in-place)
I0510 00:08:03.015879 27037 net.cpp:105] Setting up inception_4a/relu_1x1
I0510 00:08:03.015890 27037 net.cpp:112] Top shape: 32 192 14 14 (1204224)
I0510 00:08:03.015902 27037 layer_factory.hpp:74] Creating layer inception_4a/3x3_reduce
I0510 00:08:03.015914 27037 net.cpp:76] Creating Layer inception_4a/3x3_reduce
I0510 00:08:03.015921 27037 net.cpp:372] inception_4a/3x3_reduce <- pool3/3x3_s2_pool3/3x3_s2_0_split_1
I0510 00:08:03.015933 27037 net.cpp:334] inception_4a/3x3_reduce -> inception_4a/3x3_reduce
I0510 00:08:03.015944 27037 net.cpp:105] Setting up inception_4a/3x3_reduce
I0510 00:08:03.016407 27037 net.cpp:112] Top shape: 32 96 14 14 (602112)
I0510 00:08:03.016427 27037 layer_factory.hpp:74] Creating layer inception_4a/relu_3x3_reduce
I0510 00:08:03.016439 27037 net.cpp:76] Creating Layer inception_4a/relu_3x3_reduce
I0510 00:08:03.016445 27037 net.cpp:372] inception_4a/relu_3x3_reduce <- inception_4a/3x3_reduce
I0510 00:08:03.016453 27037 net.cpp:323] inception_4a/relu_3x3_reduce -> inception_4a/3x3_reduce (in-place)
I0510 00:08:03.016463 27037 net.cpp:105] Setting up inception_4a/relu_3x3_reduce
I0510 00:08:03.016471 27037 net.cpp:112] Top shape: 32 96 14 14 (602112)
I0510 00:08:03.016481 27037 layer_factory.hpp:74] Creating layer inception_4a/3x3
I0510 00:08:03.016501 27037 net.cpp:76] Creating Layer inception_4a/3x3
I0510 00:08:03.016515 27037 net.cpp:372] inception_4a/3x3 <- inception_4a/3x3_reduce
I0510 00:08:03.016532 27037 net.cpp:334] inception_4a/3x3 -> inception_4a/3x3
I0510 00:08:03.016551 27037 net.cpp:105] Setting up inception_4a/3x3
I0510 00:08:03.018316 27037 net.cpp:112] Top shape: 32 208 14 14 (1304576)
I0510 00:08:03.018335 27037 layer_factory.hpp:74] Creating layer inception_4a/relu_3x3
I0510 00:08:03.018345 27037 net.cpp:76] Creating Layer inception_4a/relu_3x3
I0510 00:08:03.019116 27037 net.cpp:372] inception_4a/relu_3x3 <- inception_4a/3x3
I0510 00:08:03.019166 27037 net.cpp:323] inception_4a/relu_3x3 -> inception_4a/3x3 (in-place)
I0510 00:08:03.019179 27037 net.cpp:105] Setting up inception_4a/relu_3x3
I0510 00:08:03.019186 27037 net.cpp:112] Top shape: 32 208 14 14 (1304576)
I0510 00:08:03.019191 27037 layer_factory.hpp:74] Creating layer inception_4a/5x5_reduce
I0510 00:08:03.019201 27037 net.cpp:76] Creating Layer inception_4a/5x5_reduce
I0510 00:08:03.019207 27037 net.cpp:372] inception_4a/5x5_reduce <- pool3/3x3_s2_pool3/3x3_s2_0_split_2
I0510 00:08:03.019218 27037 net.cpp:334] inception_4a/5x5_reduce -> inception_4a/5x5_reduce
I0510 00:08:03.019228 27037 net.cpp:105] Setting up inception_4a/5x5_reduce
I0510 00:08:03.019335 27037 net.cpp:112] Top shape: 32 16 14 14 (100352)
I0510 00:08:03.019350 27037 layer_factory.hpp:74] Creating layer inception_4a/relu_5x5_reduce
I0510 00:08:03.019358 27037 net.cpp:76] Creating Layer inception_4a/relu_5x5_reduce
I0510 00:08:03.019364 27037 net.cpp:372] inception_4a/relu_5x5_reduce <- inception_4a/5x5_reduce
I0510 00:08:03.019372 27037 net.cpp:323] inception_4a/relu_5x5_reduce -> inception_4a/5x5_reduce (in-place)
I0510 00:08:03.019379 27037 net.cpp:105] Setting up inception_4a/relu_5x5_reduce
I0510 00:08:03.019386 27037 net.cpp:112] Top shape: 32 16 14 14 (100352)
I0510 00:08:03.019390 27037 layer_factory.hpp:74] Creating layer inception_4a/5x5
I0510 00:08:03.019402 27037 net.cpp:76] Creating Layer inception_4a/5x5
I0510 00:08:03.019408 27037 net.cpp:372] inception_4a/5x5 <- inception_4a/5x5_reduce
I0510 00:08:03.019417 27037 net.cpp:334] inception_4a/5x5 -> inception_4a/5x5
I0510 00:08:03.019425 27037 net.cpp:105] Setting up inception_4a/5x5
I0510 00:08:03.019603 27037 net.cpp:112] Top shape: 32 48 14 14 (301056)
I0510 00:08:03.019618 27037 layer_factory.hpp:74] Creating layer inception_4a/relu_5x5
I0510 00:08:03.019626 27037 net.cpp:76] Creating Layer inception_4a/relu_5x5
I0510 00:08:03.019634 27037 net.cpp:372] inception_4a/relu_5x5 <- inception_4a/5x5
I0510 00:08:03.019640 27037 net.cpp:323] inception_4a/relu_5x5 -> inception_4a/5x5 (in-place)
I0510 00:08:03.019647 27037 net.cpp:105] Setting up inception_4a/relu_5x5
I0510 00:08:03.019652 27037 net.cpp:112] Top shape: 32 48 14 14 (301056)
I0510 00:08:03.019657 27037 layer_factory.hpp:74] Creating layer inception_4a/pool
I0510 00:08:03.019666 27037 net.cpp:76] Creating Layer inception_4a/pool
I0510 00:08:03.019671 27037 net.cpp:372] inception_4a/pool <- pool3/3x3_s2_pool3/3x3_s2_0_split_3
I0510 00:08:03.019681 27037 net.cpp:334] inception_4a/pool -> inception_4a/pool
I0510 00:08:03.019690 27037 net.cpp:105] Setting up inception_4a/pool
I0510 00:08:03.019698 27037 net.cpp:112] Top shape: 32 480 14 14 (3010560)
I0510 00:08:03.019703 27037 layer_factory.hpp:74] Creating layer inception_4a/pool_proj
I0510 00:08:03.019711 27037 net.cpp:76] Creating Layer inception_4a/pool_proj
I0510 00:08:03.019717 27037 net.cpp:372] inception_4a/pool_proj <- inception_4a/pool
I0510 00:08:03.019728 27037 net.cpp:334] inception_4a/pool_proj -> inception_4a/pool_proj
I0510 00:08:03.019737 27037 net.cpp:105] Setting up inception_4a/pool_proj
I0510 00:08:03.020068 27037 net.cpp:112] Top shape: 32 64 14 14 (401408)
I0510 00:08:03.020086 27037 layer_factory.hpp:74] Creating layer inception_4a/relu_pool_proj
I0510 00:08:03.020094 27037 net.cpp:76] Creating Layer inception_4a/relu_pool_proj
I0510 00:08:03.020100 27037 net.cpp:372] inception_4a/relu_pool_proj <- inception_4a/pool_proj
I0510 00:08:03.020108 27037 net.cpp:323] inception_4a/relu_pool_proj -> inception_4a/pool_proj (in-place)
I0510 00:08:03.020118 27037 net.cpp:105] Setting up inception_4a/relu_pool_proj
I0510 00:08:03.020124 27037 net.cpp:112] Top shape: 32 64 14 14 (401408)
I0510 00:08:03.020129 27037 layer_factory.hpp:74] Creating layer inception_4a/output
I0510 00:08:03.020138 27037 net.cpp:76] Creating Layer inception_4a/output
I0510 00:08:03.020145 27037 net.cpp:372] inception_4a/output <- inception_4a/1x1
I0510 00:08:03.020151 27037 net.cpp:372] inception_4a/output <- inception_4a/3x3
I0510 00:08:03.020159 27037 net.cpp:372] inception_4a/output <- inception_4a/5x5
I0510 00:08:03.020179 27037 net.cpp:372] inception_4a/output <- inception_4a/pool_proj
I0510 00:08:03.020189 27037 net.cpp:334] inception_4a/output -> inception_4a/output
I0510 00:08:03.020197 27037 net.cpp:105] Setting up inception_4a/output
I0510 00:08:03.020203 27037 net.cpp:112] Top shape: 32 512 14 14 (3211264)
I0510 00:08:03.020210 27037 layer_factory.hpp:74] Creating layer inception_4a/output_inception_4a/output_0_split
I0510 00:08:03.020217 27037 net.cpp:76] Creating Layer inception_4a/output_inception_4a/output_0_split
I0510 00:08:03.020223 27037 net.cpp:372] inception_4a/output_inception_4a/output_0_split <- inception_4a/output
I0510 00:08:03.020236 27037 net.cpp:334] inception_4a/output_inception_4a/output_0_split -> inception_4a/output_inception_4a/output_0_split_0
I0510 00:08:03.020246 27037 net.cpp:334] inception_4a/output_inception_4a/output_0_split -> inception_4a/output_inception_4a/output_0_split_1
I0510 00:08:03.020256 27037 net.cpp:334] inception_4a/output_inception_4a/output_0_split -> inception_4a/output_inception_4a/output_0_split_2
I0510 00:08:03.020265 27037 net.cpp:334] inception_4a/output_inception_4a/output_0_split -> inception_4a/output_inception_4a/output_0_split_3
I0510 00:08:03.020287 27037 net.cpp:334] inception_4a/output_inception_4a/output_0_split -> inception_4a/output_inception_4a/output_0_split_4
I0510 00:08:03.020297 27037 net.cpp:105] Setting up inception_4a/output_inception_4a/output_0_split
I0510 00:08:03.020304 27037 net.cpp:112] Top shape: 32 512 14 14 (3211264)
I0510 00:08:03.020309 27037 net.cpp:112] Top shape: 32 512 14 14 (3211264)
I0510 00:08:03.020314 27037 net.cpp:112] Top shape: 32 512 14 14 (3211264)
I0510 00:08:03.020320 27037 net.cpp:112] Top shape: 32 512 14 14 (3211264)
I0510 00:08:03.020324 27037 net.cpp:112] Top shape: 32 512 14 14 (3211264)
I0510 00:08:03.020330 27037 layer_factory.hpp:74] Creating layer loss1/ave_pool
I0510 00:08:03.020340 27037 net.cpp:76] Creating Layer loss1/ave_pool
I0510 00:08:03.020346 27037 net.cpp:372] loss1/ave_pool <- inception_4a/output_inception_4a/output_0_split_0
I0510 00:08:03.020354 27037 net.cpp:334] loss1/ave_pool -> loss1/ave_pool
I0510 00:08:03.020362 27037 net.cpp:105] Setting up loss1/ave_pool
I0510 00:08:03.020369 27037 net.cpp:112] Top shape: 32 512 4 4 (262144)
I0510 00:08:03.020375 27037 layer_factory.hpp:74] Creating layer loss1/conv
I0510 00:08:03.020385 27037 net.cpp:76] Creating Layer loss1/conv
I0510 00:08:03.020391 27037 net.cpp:372] loss1/conv <- loss1/ave_pool
I0510 00:08:03.020400 27037 net.cpp:334] loss1/conv -> loss1/conv
I0510 00:08:03.020407 27037 net.cpp:105] Setting up loss1/conv
I0510 00:08:03.020985 27037 net.cpp:112] Top shape: 32 128 4 4 (65536)
I0510 00:08:03.021002 27037 layer_factory.hpp:74] Creating layer loss1/relu_conv
I0510 00:08:03.021009 27037 net.cpp:76] Creating Layer loss1/relu_conv
I0510 00:08:03.021015 27037 net.cpp:372] loss1/relu_conv <- loss1/conv
I0510 00:08:03.021023 27037 net.cpp:323] loss1/relu_conv -> loss1/conv (in-place)
I0510 00:08:03.021030 27037 net.cpp:105] Setting up loss1/relu_conv
I0510 00:08:03.021036 27037 net.cpp:112] Top shape: 32 128 4 4 (65536)
I0510 00:08:03.021041 27037 layer_factory.hpp:74] Creating layer loss1/fc
I0510 00:08:03.021056 27037 net.cpp:76] Creating Layer loss1/fc
I0510 00:08:03.021062 27037 net.cpp:372] loss1/fc <- loss1/conv
I0510 00:08:03.021072 27037 net.cpp:334] loss1/fc -> loss1/fc
I0510 00:08:03.021085 27037 net.cpp:105] Setting up loss1/fc
I0510 00:08:03.038856 27037 net.cpp:112] Top shape: 32 1024 1 1 (32768)
I0510 00:08:03.038902 27037 layer_factory.hpp:74] Creating layer loss1/relu_fc
I0510 00:08:03.038915 27037 net.cpp:76] Creating Layer loss1/relu_fc
I0510 00:08:03.038923 27037 net.cpp:372] loss1/relu_fc <- loss1/fc
I0510 00:08:03.038933 27037 net.cpp:323] loss1/relu_fc -> loss1/fc (in-place)
I0510 00:08:03.038944 27037 net.cpp:105] Setting up loss1/relu_fc
I0510 00:08:03.038949 27037 net.cpp:112] Top shape: 32 1024 1 1 (32768)
I0510 00:08:03.038955 27037 layer_factory.hpp:74] Creating layer loss1/drop_fc
I0510 00:08:03.039019 27037 net.cpp:76] Creating Layer loss1/drop_fc
I0510 00:08:03.039027 27037 net.cpp:372] loss1/drop_fc <- loss1/fc
I0510 00:08:03.039036 27037 net.cpp:323] loss1/drop_fc -> loss1/fc (in-place)
I0510 00:08:03.039047 27037 net.cpp:105] Setting up loss1/drop_fc
I0510 00:08:03.039058 27037 net.cpp:112] Top shape: 32 1024 1 1 (32768)
I0510 00:08:03.039067 27037 layer_factory.hpp:74] Creating layer loss1/classifier
I0510 00:08:03.039077 27037 net.cpp:76] Creating Layer loss1/classifier
I0510 00:08:03.039083 27037 net.cpp:372] loss1/classifier <- loss1/fc
I0510 00:08:03.039098 27037 net.cpp:334] loss1/classifier -> loss1/classifier
I0510 00:08:03.039109 27037 net.cpp:105] Setting up loss1/classifier
I0510 00:08:03.039142 27037 net.cpp:112] Top shape: 32 2 1 1 (64)
I0510 00:08:03.039154 27037 layer_factory.hpp:74] Creating layer loss1/classifier_loss1/classifier_0_split
I0510 00:08:03.039161 27037 net.cpp:76] Creating Layer loss1/classifier_loss1/classifier_0_split
I0510 00:08:03.039167 27037 net.cpp:372] loss1/classifier_loss1/classifier_0_split <- loss1/classifier
I0510 00:08:03.039176 27037 net.cpp:334] loss1/classifier_loss1/classifier_0_split -> loss1/classifier_loss1/classifier_0_split_0
I0510 00:08:03.039186 27037 net.cpp:334] loss1/classifier_loss1/classifier_0_split -> loss1/classifier_loss1/classifier_0_split_1
I0510 00:08:03.039194 27037 net.cpp:105] Setting up loss1/classifier_loss1/classifier_0_split
I0510 00:08:03.039201 27037 net.cpp:112] Top shape: 32 2 1 1 (64)
I0510 00:08:03.039207 27037 net.cpp:112] Top shape: 32 2 1 1 (64)
I0510 00:08:03.039212 27037 layer_factory.hpp:74] Creating layer loss1/loss
I0510 00:08:03.039223 27037 net.cpp:76] Creating Layer loss1/loss
I0510 00:08:03.039229 27037 net.cpp:372] loss1/loss <- loss1/classifier_loss1/classifier_0_split_0
I0510 00:08:03.039237 27037 net.cpp:372] loss1/loss <- label_data_1_split_0
I0510 00:08:03.039244 27037 net.cpp:334] loss1/loss -> loss1/loss1
I0510 00:08:03.039255 27037 net.cpp:105] Setting up loss1/loss
I0510 00:08:03.039265 27037 layer_factory.hpp:74] Creating layer loss1/loss
I0510 00:08:03.039324 27037 net.cpp:112] Top shape: 1 1 1 1 (1)
I0510 00:08:03.039332 27037 net.cpp:118]     with loss weight 0.3
I0510 00:08:03.039368 27037 layer_factory.hpp:74] Creating layer loss1/top-1
I0510 00:08:03.039381 27037 net.cpp:76] Creating Layer loss1/top-1
I0510 00:08:03.039386 27037 net.cpp:372] loss1/top-1 <- loss1/classifier_loss1/classifier_0_split_1
I0510 00:08:03.039393 27037 net.cpp:372] loss1/top-1 <- label_data_1_split_1
I0510 00:08:03.039402 27037 net.cpp:334] loss1/top-1 -> loss1/top-1
I0510 00:08:03.039420 27037 net.cpp:105] Setting up loss1/top-1
I0510 00:08:03.039434 27037 net.cpp:112] Top shape: 1 1 1 1 (1)
I0510 00:08:03.039440 27037 layer_factory.hpp:74] Creating layer inception_4b/1x1
I0510 00:08:03.039450 27037 net.cpp:76] Creating Layer inception_4b/1x1
I0510 00:08:03.039456 27037 net.cpp:372] inception_4b/1x1 <- inception_4a/output_inception_4a/output_0_split_1
I0510 00:08:03.039465 27037 net.cpp:334] inception_4b/1x1 -> inception_4b/1x1
I0510 00:08:03.039474 27037 net.cpp:105] Setting up inception_4b/1x1
I0510 00:08:03.040176 27037 net.cpp:112] Top shape: 32 160 14 14 (1003520)
I0510 00:08:03.040191 27037 layer_factory.hpp:74] Creating layer inception_4b/relu_1x1
I0510 00:08:03.040201 27037 net.cpp:76] Creating Layer inception_4b/relu_1x1
I0510 00:08:03.040208 27037 net.cpp:372] inception_4b/relu_1x1 <- inception_4b/1x1
I0510 00:08:03.040215 27037 net.cpp:323] inception_4b/relu_1x1 -> inception_4b/1x1 (in-place)
I0510 00:08:03.040223 27037 net.cpp:105] Setting up inception_4b/relu_1x1
I0510 00:08:03.040228 27037 net.cpp:112] Top shape: 32 160 14 14 (1003520)
I0510 00:08:03.040235 27037 layer_factory.hpp:74] Creating layer inception_4b/3x3_reduce
I0510 00:08:03.040242 27037 net.cpp:76] Creating Layer inception_4b/3x3_reduce
I0510 00:08:03.040247 27037 net.cpp:372] inception_4b/3x3_reduce <- inception_4a/output_inception_4a/output_0_split_2
I0510 00:08:03.040261 27037 net.cpp:334] inception_4b/3x3_reduce -> inception_4b/3x3_reduce
I0510 00:08:03.040300 27037 net.cpp:105] Setting up inception_4b/3x3_reduce
I0510 00:08:03.040802 27037 net.cpp:112] Top shape: 32 112 14 14 (702464)
I0510 00:08:03.040823 27037 layer_factory.hpp:74] Creating layer inception_4b/relu_3x3_reduce
I0510 00:08:03.040838 27037 net.cpp:76] Creating Layer inception_4b/relu_3x3_reduce
I0510 00:08:03.040849 27037 net.cpp:372] inception_4b/relu_3x3_reduce <- inception_4b/3x3_reduce
I0510 00:08:03.040863 27037 net.cpp:323] inception_4b/relu_3x3_reduce -> inception_4b/3x3_reduce (in-place)
I0510 00:08:03.040876 27037 net.cpp:105] Setting up inception_4b/relu_3x3_reduce
I0510 00:08:03.040884 27037 net.cpp:112] Top shape: 32 112 14 14 (702464)
I0510 00:08:03.040890 27037 layer_factory.hpp:74] Creating layer inception_4b/3x3
I0510 00:08:03.040902 27037 net.cpp:76] Creating Layer inception_4b/3x3
I0510 00:08:03.040910 27037 net.cpp:372] inception_4b/3x3 <- inception_4b/3x3_reduce
I0510 00:08:03.040920 27037 net.cpp:334] inception_4b/3x3 -> inception_4b/3x3
I0510 00:08:03.040928 27037 net.cpp:105] Setting up inception_4b/3x3
I0510 00:08:03.042886 27037 net.cpp:112] Top shape: 32 224 14 14 (1404928)
I0510 00:08:03.042904 27037 layer_factory.hpp:74] Creating layer inception_4b/relu_3x3
I0510 00:08:03.042914 27037 net.cpp:76] Creating Layer inception_4b/relu_3x3
I0510 00:08:03.042920 27037 net.cpp:372] inception_4b/relu_3x3 <- inception_4b/3x3
I0510 00:08:03.042928 27037 net.cpp:323] inception_4b/relu_3x3 -> inception_4b/3x3 (in-place)
I0510 00:08:03.042937 27037 net.cpp:105] Setting up inception_4b/relu_3x3
I0510 00:08:03.042942 27037 net.cpp:112] Top shape: 32 224 14 14 (1404928)
I0510 00:08:03.042948 27037 layer_factory.hpp:74] Creating layer inception_4b/5x5_reduce
I0510 00:08:03.042958 27037 net.cpp:76] Creating Layer inception_4b/5x5_reduce
I0510 00:08:03.042964 27037 net.cpp:372] inception_4b/5x5_reduce <- inception_4a/output_inception_4a/output_0_split_3
I0510 00:08:03.042973 27037 net.cpp:334] inception_4b/5x5_reduce -> inception_4b/5x5_reduce
I0510 00:08:03.042982 27037 net.cpp:105] Setting up inception_4b/5x5_reduce
I0510 00:08:03.043097 27037 net.cpp:112] Top shape: 32 24 14 14 (150528)
I0510 00:08:03.043107 27037 layer_factory.hpp:74] Creating layer inception_4b/relu_5x5_reduce
I0510 00:08:03.043114 27037 net.cpp:76] Creating Layer inception_4b/relu_5x5_reduce
I0510 00:08:03.043120 27037 net.cpp:372] inception_4b/relu_5x5_reduce <- inception_4b/5x5_reduce
I0510 00:08:03.043129 27037 net.cpp:323] inception_4b/relu_5x5_reduce -> inception_4b/5x5_reduce (in-place)
I0510 00:08:03.043136 27037 net.cpp:105] Setting up inception_4b/relu_5x5_reduce
I0510 00:08:03.043143 27037 net.cpp:112] Top shape: 32 24 14 14 (150528)
I0510 00:08:03.043148 27037 layer_factory.hpp:74] Creating layer inception_4b/5x5
I0510 00:08:03.043156 27037 net.cpp:76] Creating Layer inception_4b/5x5
I0510 00:08:03.043161 27037 net.cpp:372] inception_4b/5x5 <- inception_4b/5x5_reduce
I0510 00:08:03.043171 27037 net.cpp:334] inception_4b/5x5 -> inception_4b/5x5
I0510 00:08:03.043180 27037 net.cpp:105] Setting up inception_4b/5x5
I0510 00:08:03.043522 27037 net.cpp:112] Top shape: 32 64 14 14 (401408)
I0510 00:08:03.043539 27037 layer_factory.hpp:74] Creating layer inception_4b/relu_5x5
I0510 00:08:03.043546 27037 net.cpp:76] Creating Layer inception_4b/relu_5x5
I0510 00:08:03.043552 27037 net.cpp:372] inception_4b/relu_5x5 <- inception_4b/5x5
I0510 00:08:03.043560 27037 net.cpp:323] inception_4b/relu_5x5 -> inception_4b/5x5 (in-place)
I0510 00:08:03.043567 27037 net.cpp:105] Setting up inception_4b/relu_5x5
I0510 00:08:03.043572 27037 net.cpp:112] Top shape: 32 64 14 14 (401408)
I0510 00:08:03.043577 27037 layer_factory.hpp:74] Creating layer inception_4b/pool
I0510 00:08:03.043586 27037 net.cpp:76] Creating Layer inception_4b/pool
I0510 00:08:03.043592 27037 net.cpp:372] inception_4b/pool <- inception_4a/output_inception_4a/output_0_split_4
I0510 00:08:03.043602 27037 net.cpp:334] inception_4b/pool -> inception_4b/pool
I0510 00:08:03.043611 27037 net.cpp:105] Setting up inception_4b/pool
I0510 00:08:03.043639 27037 net.cpp:112] Top shape: 32 512 14 14 (3211264)
I0510 00:08:03.043647 27037 layer_factory.hpp:74] Creating layer inception_4b/pool_proj
I0510 00:08:03.043655 27037 net.cpp:76] Creating Layer inception_4b/pool_proj
I0510 00:08:03.043661 27037 net.cpp:372] inception_4b/pool_proj <- inception_4b/pool
I0510 00:08:03.043673 27037 net.cpp:334] inception_4b/pool_proj -> inception_4b/pool_proj
I0510 00:08:03.043683 27037 net.cpp:105] Setting up inception_4b/pool_proj
I0510 00:08:03.043972 27037 net.cpp:112] Top shape: 32 64 14 14 (401408)
I0510 00:08:03.043985 27037 layer_factory.hpp:74] Creating layer inception_4b/relu_pool_proj
I0510 00:08:03.044013 27037 net.cpp:76] Creating Layer inception_4b/relu_pool_proj
I0510 00:08:03.044018 27037 net.cpp:372] inception_4b/relu_pool_proj <- inception_4b/pool_proj
I0510 00:08:03.044026 27037 net.cpp:323] inception_4b/relu_pool_proj -> inception_4b/pool_proj (in-place)
I0510 00:08:03.044036 27037 net.cpp:105] Setting up inception_4b/relu_pool_proj
I0510 00:08:03.044042 27037 net.cpp:112] Top shape: 32 64 14 14 (401408)
I0510 00:08:03.044049 27037 layer_factory.hpp:74] Creating layer inception_4b/output
I0510 00:08:03.044055 27037 net.cpp:76] Creating Layer inception_4b/output
I0510 00:08:03.044061 27037 net.cpp:372] inception_4b/output <- inception_4b/1x1
I0510 00:08:03.044067 27037 net.cpp:372] inception_4b/output <- inception_4b/3x3
I0510 00:08:03.044073 27037 net.cpp:372] inception_4b/output <- inception_4b/5x5
I0510 00:08:03.044080 27037 net.cpp:372] inception_4b/output <- inception_4b/pool_proj
I0510 00:08:03.044086 27037 net.cpp:334] inception_4b/output -> inception_4b/output
I0510 00:08:03.044095 27037 net.cpp:105] Setting up inception_4b/output
I0510 00:08:03.044101 27037 net.cpp:112] Top shape: 32 512 14 14 (3211264)
I0510 00:08:03.044106 27037 layer_factory.hpp:74] Creating layer inception_4b/output_inception_4b/output_0_split
I0510 00:08:03.044114 27037 net.cpp:76] Creating Layer inception_4b/output_inception_4b/output_0_split
I0510 00:08:03.044119 27037 net.cpp:372] inception_4b/output_inception_4b/output_0_split <- inception_4b/output
I0510 00:08:03.044870 27037 net.cpp:334] inception_4b/output_inception_4b/output_0_split -> inception_4b/output_inception_4b/output_0_split_0
I0510 00:08:03.044883 27037 net.cpp:334] inception_4b/output_inception_4b/output_0_split -> inception_4b/output_inception_4b/output_0_split_1
I0510 00:08:03.044893 27037 net.cpp:334] inception_4b/output_inception_4b/output_0_split -> inception_4b/output_inception_4b/output_0_split_2
I0510 00:08:03.044901 27037 net.cpp:334] inception_4b/output_inception_4b/output_0_split -> inception_4b/output_inception_4b/output_0_split_3
I0510 00:08:03.044909 27037 net.cpp:105] Setting up inception_4b/output_inception_4b/output_0_split
I0510 00:08:03.044915 27037 net.cpp:112] Top shape: 32 512 14 14 (3211264)
I0510 00:08:03.044921 27037 net.cpp:112] Top shape: 32 512 14 14 (3211264)
I0510 00:08:03.044926 27037 net.cpp:112] Top shape: 32 512 14 14 (3211264)
I0510 00:08:03.044930 27037 net.cpp:112] Top shape: 32 512 14 14 (3211264)
I0510 00:08:03.044936 27037 layer_factory.hpp:74] Creating layer inception_4c/1x1
I0510 00:08:03.044950 27037 net.cpp:76] Creating Layer inception_4c/1x1
I0510 00:08:03.044955 27037 net.cpp:372] inception_4c/1x1 <- inception_4b/output_inception_4b/output_0_split_0
I0510 00:08:03.044963 27037 net.cpp:334] inception_4c/1x1 -> inception_4c/1x1
I0510 00:08:03.044971 27037 net.cpp:105] Setting up inception_4c/1x1
I0510 00:08:03.045531 27037 net.cpp:112] Top shape: 32 128 14 14 (802816)
I0510 00:08:03.045545 27037 layer_factory.hpp:74] Creating layer inception_4c/relu_1x1
I0510 00:08:03.045560 27037 net.cpp:76] Creating Layer inception_4c/relu_1x1
I0510 00:08:03.045570 27037 net.cpp:372] inception_4c/relu_1x1 <- inception_4c/1x1
I0510 00:08:03.045583 27037 net.cpp:323] inception_4c/relu_1x1 -> inception_4c/1x1 (in-place)
I0510 00:08:03.045596 27037 net.cpp:105] Setting up inception_4c/relu_1x1
I0510 00:08:03.045606 27037 net.cpp:112] Top shape: 32 128 14 14 (802816)
I0510 00:08:03.045636 27037 layer_factory.hpp:74] Creating layer inception_4c/3x3_reduce
I0510 00:08:03.045653 27037 net.cpp:76] Creating Layer inception_4c/3x3_reduce
I0510 00:08:03.045665 27037 net.cpp:372] inception_4c/3x3_reduce <- inception_4b/output_inception_4b/output_0_split_1
I0510 00:08:03.045677 27037 net.cpp:334] inception_4c/3x3_reduce -> inception_4c/3x3_reduce
I0510 00:08:03.045688 27037 net.cpp:105] Setting up inception_4c/3x3_reduce
I0510 00:08:03.046264 27037 net.cpp:112] Top shape: 32 128 14 14 (802816)
I0510 00:08:03.046293 27037 layer_factory.hpp:74] Creating layer inception_4c/relu_3x3_reduce
I0510 00:08:03.046303 27037 net.cpp:76] Creating Layer inception_4c/relu_3x3_reduce
I0510 00:08:03.046308 27037 net.cpp:372] inception_4c/relu_3x3_reduce <- inception_4c/3x3_reduce
I0510 00:08:03.046315 27037 net.cpp:323] inception_4c/relu_3x3_reduce -> inception_4c/3x3_reduce (in-place)
I0510 00:08:03.046324 27037 net.cpp:105] Setting up inception_4c/relu_3x3_reduce
I0510 00:08:03.046329 27037 net.cpp:112] Top shape: 32 128 14 14 (802816)
I0510 00:08:03.046334 27037 layer_factory.hpp:74] Creating layer inception_4c/3x3
I0510 00:08:03.046345 27037 net.cpp:76] Creating Layer inception_4c/3x3
I0510 00:08:03.046351 27037 net.cpp:372] inception_4c/3x3 <- inception_4c/3x3_reduce
I0510 00:08:03.046361 27037 net.cpp:334] inception_4c/3x3 -> inception_4c/3x3
I0510 00:08:03.046370 27037 net.cpp:105] Setting up inception_4c/3x3
I0510 00:08:03.048833 27037 net.cpp:112] Top shape: 32 256 14 14 (1605632)
I0510 00:08:03.048864 27037 layer_factory.hpp:74] Creating layer inception_4c/relu_3x3
I0510 00:08:03.048873 27037 net.cpp:76] Creating Layer inception_4c/relu_3x3
I0510 00:08:03.048881 27037 net.cpp:372] inception_4c/relu_3x3 <- inception_4c/3x3
I0510 00:08:03.048893 27037 net.cpp:323] inception_4c/relu_3x3 -> inception_4c/3x3 (in-place)
I0510 00:08:03.048902 27037 net.cpp:105] Setting up inception_4c/relu_3x3
I0510 00:08:03.048908 27037 net.cpp:112] Top shape: 32 256 14 14 (1605632)
I0510 00:08:03.048913 27037 layer_factory.hpp:74] Creating layer inception_4c/5x5_reduce
I0510 00:08:03.048923 27037 net.cpp:76] Creating Layer inception_4c/5x5_reduce
I0510 00:08:03.048928 27037 net.cpp:372] inception_4c/5x5_reduce <- inception_4b/output_inception_4b/output_0_split_2
I0510 00:08:03.048939 27037 net.cpp:334] inception_4c/5x5_reduce -> inception_4c/5x5_reduce
I0510 00:08:03.048949 27037 net.cpp:105] Setting up inception_4c/5x5_reduce
I0510 00:08:03.049063 27037 net.cpp:112] Top shape: 32 24 14 14 (150528)
I0510 00:08:03.049074 27037 layer_factory.hpp:74] Creating layer inception_4c/relu_5x5_reduce
I0510 00:08:03.049082 27037 net.cpp:76] Creating Layer inception_4c/relu_5x5_reduce
I0510 00:08:03.049088 27037 net.cpp:372] inception_4c/relu_5x5_reduce <- inception_4c/5x5_reduce
I0510 00:08:03.049098 27037 net.cpp:323] inception_4c/relu_5x5_reduce -> inception_4c/5x5_reduce (in-place)
I0510 00:08:03.049104 27037 net.cpp:105] Setting up inception_4c/relu_5x5_reduce
I0510 00:08:03.049110 27037 net.cpp:112] Top shape: 32 24 14 14 (150528)
I0510 00:08:03.049116 27037 layer_factory.hpp:74] Creating layer inception_4c/5x5
I0510 00:08:03.049124 27037 net.cpp:76] Creating Layer inception_4c/5x5
I0510 00:08:03.049130 27037 net.cpp:372] inception_4c/5x5 <- inception_4c/5x5_reduce
I0510 00:08:03.049139 27037 net.cpp:334] inception_4c/5x5 -> inception_4c/5x5
I0510 00:08:03.049149 27037 net.cpp:105] Setting up inception_4c/5x5
I0510 00:08:03.049489 27037 net.cpp:112] Top shape: 32 64 14 14 (401408)
I0510 00:08:03.049501 27037 layer_factory.hpp:74] Creating layer inception_4c/relu_5x5
I0510 00:08:03.049510 27037 net.cpp:76] Creating Layer inception_4c/relu_5x5
I0510 00:08:03.049515 27037 net.cpp:372] inception_4c/relu_5x5 <- inception_4c/5x5
I0510 00:08:03.049521 27037 net.cpp:323] inception_4c/relu_5x5 -> inception_4c/5x5 (in-place)
I0510 00:08:03.049530 27037 net.cpp:105] Setting up inception_4c/relu_5x5
I0510 00:08:03.049535 27037 net.cpp:112] Top shape: 32 64 14 14 (401408)
I0510 00:08:03.049540 27037 layer_factory.hpp:74] Creating layer inception_4c/pool
I0510 00:08:03.049574 27037 net.cpp:76] Creating Layer inception_4c/pool
I0510 00:08:03.049582 27037 net.cpp:372] inception_4c/pool <- inception_4b/output_inception_4b/output_0_split_3
I0510 00:08:03.049590 27037 net.cpp:334] inception_4c/pool -> inception_4c/pool
I0510 00:08:03.049599 27037 net.cpp:105] Setting up inception_4c/pool
I0510 00:08:03.049607 27037 net.cpp:112] Top shape: 32 512 14 14 (3211264)
I0510 00:08:03.049613 27037 layer_factory.hpp:74] Creating layer inception_4c/pool_proj
I0510 00:08:03.049624 27037 net.cpp:76] Creating Layer inception_4c/pool_proj
I0510 00:08:03.049630 27037 net.cpp:372] inception_4c/pool_proj <- inception_4c/pool
I0510 00:08:03.049638 27037 net.cpp:334] inception_4c/pool_proj -> inception_4c/pool_proj
I0510 00:08:03.049648 27037 net.cpp:105] Setting up inception_4c/pool_proj
I0510 00:08:03.049931 27037 net.cpp:112] Top shape: 32 64 14 14 (401408)
I0510 00:08:03.049947 27037 layer_factory.hpp:74] Creating layer inception_4c/relu_pool_proj
I0510 00:08:03.049955 27037 net.cpp:76] Creating Layer inception_4c/relu_pool_proj
I0510 00:08:03.049962 27037 net.cpp:372] inception_4c/relu_pool_proj <- inception_4c/pool_proj
I0510 00:08:03.049971 27037 net.cpp:323] inception_4c/relu_pool_proj -> inception_4c/pool_proj (in-place)
I0510 00:08:03.049978 27037 net.cpp:105] Setting up inception_4c/relu_pool_proj
I0510 00:08:03.049984 27037 net.cpp:112] Top shape: 32 64 14 14 (401408)
I0510 00:08:03.049990 27037 layer_factory.hpp:74] Creating layer inception_4c/output
I0510 00:08:03.049998 27037 net.cpp:76] Creating Layer inception_4c/output
I0510 00:08:03.050004 27037 net.cpp:372] inception_4c/output <- inception_4c/1x1
I0510 00:08:03.050009 27037 net.cpp:372] inception_4c/output <- inception_4c/3x3
I0510 00:08:03.050015 27037 net.cpp:372] inception_4c/output <- inception_4c/5x5
I0510 00:08:03.050022 27037 net.cpp:372] inception_4c/output <- inception_4c/pool_proj
I0510 00:08:03.050029 27037 net.cpp:334] inception_4c/output -> inception_4c/output
I0510 00:08:03.050037 27037 net.cpp:105] Setting up inception_4c/output
I0510 00:08:03.050045 27037 net.cpp:112] Top shape: 32 512 14 14 (3211264)
I0510 00:08:03.050050 27037 layer_factory.hpp:74] Creating layer inception_4c/output_inception_4c/output_0_split
I0510 00:08:03.050057 27037 net.cpp:76] Creating Layer inception_4c/output_inception_4c/output_0_split
I0510 00:08:03.050063 27037 net.cpp:372] inception_4c/output_inception_4c/output_0_split <- inception_4c/output
I0510 00:08:03.050072 27037 net.cpp:334] inception_4c/output_inception_4c/output_0_split -> inception_4c/output_inception_4c/output_0_split_0
I0510 00:08:03.050082 27037 net.cpp:334] inception_4c/output_inception_4c/output_0_split -> inception_4c/output_inception_4c/output_0_split_1
I0510 00:08:03.050091 27037 net.cpp:334] inception_4c/output_inception_4c/output_0_split -> inception_4c/output_inception_4c/output_0_split_2
I0510 00:08:03.050101 27037 net.cpp:334] inception_4c/output_inception_4c/output_0_split -> inception_4c/output_inception_4c/output_0_split_3
I0510 00:08:03.050130 27037 net.cpp:105] Setting up inception_4c/output_inception_4c/output_0_split
I0510 00:08:03.050138 27037 net.cpp:112] Top shape: 32 512 14 14 (3211264)
I0510 00:08:03.050144 27037 net.cpp:112] Top shape: 32 512 14 14 (3211264)
I0510 00:08:03.050149 27037 net.cpp:112] Top shape: 32 512 14 14 (3211264)
I0510 00:08:03.050154 27037 net.cpp:112] Top shape: 32 512 14 14 (3211264)
I0510 00:08:03.050160 27037 layer_factory.hpp:74] Creating layer inception_4d/1x1
I0510 00:08:03.050170 27037 net.cpp:76] Creating Layer inception_4d/1x1
I0510 00:08:03.050176 27037 net.cpp:372] inception_4d/1x1 <- inception_4c/output_inception_4c/output_0_split_0
I0510 00:08:03.050187 27037 net.cpp:334] inception_4d/1x1 -> inception_4d/1x1
I0510 00:08:03.050204 27037 net.cpp:105] Setting up inception_4d/1x1
I0510 00:08:03.050727 27037 net.cpp:112] Top shape: 32 112 14 14 (702464)
I0510 00:08:03.050743 27037 layer_factory.hpp:74] Creating layer inception_4d/relu_1x1
I0510 00:08:03.050752 27037 net.cpp:76] Creating Layer inception_4d/relu_1x1
I0510 00:08:03.050771 27037 net.cpp:372] inception_4d/relu_1x1 <- inception_4d/1x1
I0510 00:08:03.050779 27037 net.cpp:323] inception_4d/relu_1x1 -> inception_4d/1x1 (in-place)
I0510 00:08:03.050787 27037 net.cpp:105] Setting up inception_4d/relu_1x1
I0510 00:08:03.050793 27037 net.cpp:112] Top shape: 32 112 14 14 (702464)
I0510 00:08:03.050798 27037 layer_factory.hpp:74] Creating layer inception_4d/3x3_reduce
I0510 00:08:03.050809 27037 net.cpp:76] Creating Layer inception_4d/3x3_reduce
I0510 00:08:03.050817 27037 net.cpp:372] inception_4d/3x3_reduce <- inception_4c/output_inception_4c/output_0_split_1
I0510 00:08:03.050824 27037 net.cpp:334] inception_4d/3x3_reduce -> inception_4d/3x3_reduce
I0510 00:08:03.050833 27037 net.cpp:105] Setting up inception_4d/3x3_reduce
I0510 00:08:03.051467 27037 net.cpp:112] Top shape: 32 144 14 14 (903168)
I0510 00:08:03.051481 27037 layer_factory.hpp:74] Creating layer inception_4d/relu_3x3_reduce
I0510 00:08:03.051489 27037 net.cpp:76] Creating Layer inception_4d/relu_3x3_reduce
I0510 00:08:03.051496 27037 net.cpp:372] inception_4d/relu_3x3_reduce <- inception_4d/3x3_reduce
I0510 00:08:03.051504 27037 net.cpp:323] inception_4d/relu_3x3_reduce -> inception_4d/3x3_reduce (in-place)
I0510 00:08:03.051512 27037 net.cpp:105] Setting up inception_4d/relu_3x3_reduce
I0510 00:08:03.051517 27037 net.cpp:112] Top shape: 32 144 14 14 (903168)
I0510 00:08:03.051523 27037 layer_factory.hpp:74] Creating layer inception_4d/3x3
I0510 00:08:03.051532 27037 net.cpp:76] Creating Layer inception_4d/3x3
I0510 00:08:03.051537 27037 net.cpp:372] inception_4d/3x3 <- inception_4d/3x3_reduce
I0510 00:08:03.051547 27037 net.cpp:334] inception_4d/3x3 -> inception_4d/3x3
I0510 00:08:03.051554 27037 net.cpp:105] Setting up inception_4d/3x3
I0510 00:08:03.054745 27037 net.cpp:112] Top shape: 32 288 14 14 (1806336)
I0510 00:08:03.054772 27037 layer_factory.hpp:74] Creating layer inception_4d/relu_3x3
I0510 00:08:03.054782 27037 net.cpp:76] Creating Layer inception_4d/relu_3x3
I0510 00:08:03.054790 27037 net.cpp:372] inception_4d/relu_3x3 <- inception_4d/3x3
I0510 00:08:03.054800 27037 net.cpp:323] inception_4d/relu_3x3 -> inception_4d/3x3 (in-place)
I0510 00:08:03.054810 27037 net.cpp:105] Setting up inception_4d/relu_3x3
I0510 00:08:03.054816 27037 net.cpp:112] Top shape: 32 288 14 14 (1806336)
I0510 00:08:03.054821 27037 layer_factory.hpp:74] Creating layer inception_4d/5x5_reduce
I0510 00:08:03.054832 27037 net.cpp:76] Creating Layer inception_4d/5x5_reduce
I0510 00:08:03.054838 27037 net.cpp:372] inception_4d/5x5_reduce <- inception_4c/output_inception_4c/output_0_split_2
I0510 00:08:03.054849 27037 net.cpp:334] inception_4d/5x5_reduce -> inception_4d/5x5_reduce
I0510 00:08:03.054859 27037 net.cpp:105] Setting up inception_4d/5x5_reduce
I0510 00:08:03.055012 27037 net.cpp:112] Top shape: 32 32 14 14 (200704)
I0510 00:08:03.055023 27037 layer_factory.hpp:74] Creating layer inception_4d/relu_5x5_reduce
I0510 00:08:03.056035 27037 net.cpp:76] Creating Layer inception_4d/relu_5x5_reduce
I0510 00:08:03.056046 27037 net.cpp:372] inception_4d/relu_5x5_reduce <- inception_4d/5x5_reduce
I0510 00:08:03.056054 27037 net.cpp:323] inception_4d/relu_5x5_reduce -> inception_4d/5x5_reduce (in-place)
I0510 00:08:03.056063 27037 net.cpp:105] Setting up inception_4d/relu_5x5_reduce
I0510 00:08:03.056068 27037 net.cpp:112] Top shape: 32 32 14 14 (200704)
I0510 00:08:03.056074 27037 layer_factory.hpp:74] Creating layer inception_4d/5x5
I0510 00:08:03.056085 27037 net.cpp:76] Creating Layer inception_4d/5x5
I0510 00:08:03.056092 27037 net.cpp:372] inception_4d/5x5 <- inception_4d/5x5_reduce
I0510 00:08:03.056099 27037 net.cpp:334] inception_4d/5x5 -> inception_4d/5x5
I0510 00:08:03.056108 27037 net.cpp:105] Setting up inception_4d/5x5
I0510 00:08:03.056571 27037 net.cpp:112] Top shape: 32 64 14 14 (401408)
I0510 00:08:03.056586 27037 layer_factory.hpp:74] Creating layer inception_4d/relu_5x5
I0510 00:08:03.056593 27037 net.cpp:76] Creating Layer inception_4d/relu_5x5
I0510 00:08:03.056599 27037 net.cpp:372] inception_4d/relu_5x5 <- inception_4d/5x5
I0510 00:08:03.056637 27037 net.cpp:323] inception_4d/relu_5x5 -> inception_4d/5x5 (in-place)
I0510 00:08:03.056646 27037 net.cpp:105] Setting up inception_4d/relu_5x5
I0510 00:08:03.056654 27037 net.cpp:112] Top shape: 32 64 14 14 (401408)
I0510 00:08:03.056660 27037 layer_factory.hpp:74] Creating layer inception_4d/pool
I0510 00:08:03.056669 27037 net.cpp:76] Creating Layer inception_4d/pool
I0510 00:08:03.056675 27037 net.cpp:372] inception_4d/pool <- inception_4c/output_inception_4c/output_0_split_3
I0510 00:08:03.056684 27037 net.cpp:334] inception_4d/pool -> inception_4d/pool
I0510 00:08:03.056692 27037 net.cpp:105] Setting up inception_4d/pool
I0510 00:08:03.056700 27037 net.cpp:112] Top shape: 32 512 14 14 (3211264)
I0510 00:08:03.056706 27037 layer_factory.hpp:74] Creating layer inception_4d/pool_proj
I0510 00:08:03.056720 27037 net.cpp:76] Creating Layer inception_4d/pool_proj
I0510 00:08:03.056725 27037 net.cpp:372] inception_4d/pool_proj <- inception_4d/pool
I0510 00:08:03.056735 27037 net.cpp:334] inception_4d/pool_proj -> inception_4d/pool_proj
I0510 00:08:03.056746 27037 net.cpp:105] Setting up inception_4d/pool_proj
I0510 00:08:03.057029 27037 net.cpp:112] Top shape: 32 64 14 14 (401408)
I0510 00:08:03.057041 27037 layer_factory.hpp:74] Creating layer inception_4d/relu_pool_proj
I0510 00:08:03.057049 27037 net.cpp:76] Creating Layer inception_4d/relu_pool_proj
I0510 00:08:03.057055 27037 net.cpp:372] inception_4d/relu_pool_proj <- inception_4d/pool_proj
I0510 00:08:03.057070 27037 net.cpp:323] inception_4d/relu_pool_proj -> inception_4d/pool_proj (in-place)
I0510 00:08:03.057077 27037 net.cpp:105] Setting up inception_4d/relu_pool_proj
I0510 00:08:03.057082 27037 net.cpp:112] Top shape: 32 64 14 14 (401408)
I0510 00:08:03.057088 27037 layer_factory.hpp:74] Creating layer inception_4d/output
I0510 00:08:03.057096 27037 net.cpp:76] Creating Layer inception_4d/output
I0510 00:08:03.057102 27037 net.cpp:372] inception_4d/output <- inception_4d/1x1
I0510 00:08:03.057108 27037 net.cpp:372] inception_4d/output <- inception_4d/3x3
I0510 00:08:03.057114 27037 net.cpp:372] inception_4d/output <- inception_4d/5x5
I0510 00:08:03.057121 27037 net.cpp:372] inception_4d/output <- inception_4d/pool_proj
I0510 00:08:03.057131 27037 net.cpp:334] inception_4d/output -> inception_4d/output
I0510 00:08:03.057139 27037 net.cpp:105] Setting up inception_4d/output
I0510 00:08:03.057147 27037 net.cpp:112] Top shape: 32 528 14 14 (3311616)
I0510 00:08:03.057152 27037 layer_factory.hpp:74] Creating layer inception_4d/output_inception_4d/output_0_split
I0510 00:08:03.057159 27037 net.cpp:76] Creating Layer inception_4d/output_inception_4d/output_0_split
I0510 00:08:03.057165 27037 net.cpp:372] inception_4d/output_inception_4d/output_0_split <- inception_4d/output
I0510 00:08:03.057173 27037 net.cpp:334] inception_4d/output_inception_4d/output_0_split -> inception_4d/output_inception_4d/output_0_split_0
I0510 00:08:03.057181 27037 net.cpp:334] inception_4d/output_inception_4d/output_0_split -> inception_4d/output_inception_4d/output_0_split_1
I0510 00:08:03.057190 27037 net.cpp:334] inception_4d/output_inception_4d/output_0_split -> inception_4d/output_inception_4d/output_0_split_2
I0510 00:08:03.057199 27037 net.cpp:334] inception_4d/output_inception_4d/output_0_split -> inception_4d/output_inception_4d/output_0_split_3
I0510 00:08:03.057210 27037 net.cpp:334] inception_4d/output_inception_4d/output_0_split -> inception_4d/output_inception_4d/output_0_split_4
I0510 00:08:03.057219 27037 net.cpp:105] Setting up inception_4d/output_inception_4d/output_0_split
I0510 00:08:03.057226 27037 net.cpp:112] Top shape: 32 528 14 14 (3311616)
I0510 00:08:03.057231 27037 net.cpp:112] Top shape: 32 528 14 14 (3311616)
I0510 00:08:03.057236 27037 net.cpp:112] Top shape: 32 528 14 14 (3311616)
I0510 00:08:03.057241 27037 net.cpp:112] Top shape: 32 528 14 14 (3311616)
I0510 00:08:03.057246 27037 net.cpp:112] Top shape: 32 528 14 14 (3311616)
I0510 00:08:03.057251 27037 layer_factory.hpp:74] Creating layer loss2/ave_pool
I0510 00:08:03.057267 27037 net.cpp:76] Creating Layer loss2/ave_pool
I0510 00:08:03.057288 27037 net.cpp:372] loss2/ave_pool <- inception_4d/output_inception_4d/output_0_split_0
I0510 00:08:03.057301 27037 net.cpp:334] loss2/ave_pool -> loss2/ave_pool
I0510 00:08:03.057309 27037 net.cpp:105] Setting up loss2/ave_pool
I0510 00:08:03.057315 27037 net.cpp:112] Top shape: 32 528 4 4 (270336)
I0510 00:08:03.057322 27037 layer_factory.hpp:74] Creating layer loss2/conv
I0510 00:08:03.057330 27037 net.cpp:76] Creating Layer loss2/conv
I0510 00:08:03.057337 27037 net.cpp:372] loss2/conv <- loss2/ave_pool
I0510 00:08:03.057346 27037 net.cpp:334] loss2/conv -> loss2/conv
I0510 00:08:03.057355 27037 net.cpp:105] Setting up loss2/conv
I0510 00:08:03.057951 27037 net.cpp:112] Top shape: 32 128 4 4 (65536)
I0510 00:08:03.057970 27037 layer_factory.hpp:74] Creating layer loss2/relu_conv
I0510 00:08:03.057979 27037 net.cpp:76] Creating Layer loss2/relu_conv
I0510 00:08:03.057986 27037 net.cpp:372] loss2/relu_conv <- loss2/conv
I0510 00:08:03.057994 27037 net.cpp:323] loss2/relu_conv -> loss2/conv (in-place)
I0510 00:08:03.058002 27037 net.cpp:105] Setting up loss2/relu_conv
I0510 00:08:03.058007 27037 net.cpp:112] Top shape: 32 128 4 4 (65536)
I0510 00:08:03.058013 27037 layer_factory.hpp:74] Creating layer loss2/fc
I0510 00:08:03.058022 27037 net.cpp:76] Creating Layer loss2/fc
I0510 00:08:03.058027 27037 net.cpp:372] loss2/fc <- loss2/conv
I0510 00:08:03.058038 27037 net.cpp:334] loss2/fc -> loss2/fc
I0510 00:08:03.058048 27037 net.cpp:105] Setting up loss2/fc
I0510 00:08:03.075644 27037 net.cpp:112] Top shape: 32 1024 1 1 (32768)
I0510 00:08:03.075692 27037 layer_factory.hpp:74] Creating layer loss2/relu_fc
I0510 00:08:03.075709 27037 net.cpp:76] Creating Layer loss2/relu_fc
I0510 00:08:03.075717 27037 net.cpp:372] loss2/relu_fc <- loss2/fc
I0510 00:08:03.075728 27037 net.cpp:323] loss2/relu_fc -> loss2/fc (in-place)
I0510 00:08:03.075739 27037 net.cpp:105] Setting up loss2/relu_fc
I0510 00:08:03.075745 27037 net.cpp:112] Top shape: 32 1024 1 1 (32768)
I0510 00:08:03.075752 27037 layer_factory.hpp:74] Creating layer loss2/drop_fc
I0510 00:08:03.075760 27037 net.cpp:76] Creating Layer loss2/drop_fc
I0510 00:08:03.075765 27037 net.cpp:372] loss2/drop_fc <- loss2/fc
I0510 00:08:03.075773 27037 net.cpp:323] loss2/drop_fc -> loss2/fc (in-place)
I0510 00:08:03.075779 27037 net.cpp:105] Setting up loss2/drop_fc
I0510 00:08:03.075786 27037 net.cpp:112] Top shape: 32 1024 1 1 (32768)
I0510 00:08:03.075793 27037 layer_factory.hpp:74] Creating layer loss2/classifier
I0510 00:08:03.075804 27037 net.cpp:76] Creating Layer loss2/classifier
I0510 00:08:03.075810 27037 net.cpp:372] loss2/classifier <- loss2/fc
I0510 00:08:03.075819 27037 net.cpp:334] loss2/classifier -> loss2/classifier
I0510 00:08:03.075831 27037 net.cpp:105] Setting up loss2/classifier
I0510 00:08:03.075866 27037 net.cpp:112] Top shape: 32 2 1 1 (64)
I0510 00:08:03.075877 27037 layer_factory.hpp:74] Creating layer loss2/classifier_loss2/classifier_0_split
I0510 00:08:03.075886 27037 net.cpp:76] Creating Layer loss2/classifier_loss2/classifier_0_split
I0510 00:08:03.075891 27037 net.cpp:372] loss2/classifier_loss2/classifier_0_split <- loss2/classifier
I0510 00:08:03.075899 27037 net.cpp:334] loss2/classifier_loss2/classifier_0_split -> loss2/classifier_loss2/classifier_0_split_0
I0510 00:08:03.075909 27037 net.cpp:334] loss2/classifier_loss2/classifier_0_split -> loss2/classifier_loss2/classifier_0_split_1
I0510 00:08:03.075917 27037 net.cpp:105] Setting up loss2/classifier_loss2/classifier_0_split
I0510 00:08:03.075924 27037 net.cpp:112] Top shape: 32 2 1 1 (64)
I0510 00:08:03.075929 27037 net.cpp:112] Top shape: 32 2 1 1 (64)
I0510 00:08:03.075939 27037 layer_factory.hpp:74] Creating layer loss2/loss
I0510 00:08:03.075950 27037 net.cpp:76] Creating Layer loss2/loss
I0510 00:08:03.075956 27037 net.cpp:372] loss2/loss <- loss2/classifier_loss2/classifier_0_split_0
I0510 00:08:03.075963 27037 net.cpp:372] loss2/loss <- label_data_1_split_2
I0510 00:08:03.075973 27037 net.cpp:334] loss2/loss -> loss2/loss1
I0510 00:08:03.076014 27037 net.cpp:105] Setting up loss2/loss
I0510 00:08:03.076025 27037 layer_factory.hpp:74] Creating layer loss2/loss
I0510 00:08:03.076040 27037 net.cpp:112] Top shape: 1 1 1 1 (1)
I0510 00:08:03.076046 27037 net.cpp:118]     with loss weight 0.3
I0510 00:08:03.076063 27037 layer_factory.hpp:74] Creating layer loss2/top-1
I0510 00:08:03.076072 27037 net.cpp:76] Creating Layer loss2/top-1
I0510 00:08:03.076078 27037 net.cpp:372] loss2/top-1 <- loss2/classifier_loss2/classifier_0_split_1
I0510 00:08:03.076087 27037 net.cpp:372] loss2/top-1 <- label_data_1_split_3
I0510 00:08:03.076095 27037 net.cpp:334] loss2/top-1 -> loss2/top-1
I0510 00:08:03.076104 27037 net.cpp:105] Setting up loss2/top-1
I0510 00:08:03.076110 27037 net.cpp:112] Top shape: 1 1 1 1 (1)
I0510 00:08:03.076117 27037 layer_factory.hpp:74] Creating layer inception_4e/1x1
I0510 00:08:03.076127 27037 net.cpp:76] Creating Layer inception_4e/1x1
I0510 00:08:03.076133 27037 net.cpp:372] inception_4e/1x1 <- inception_4d/output_inception_4d/output_0_split_1
I0510 00:08:03.076143 27037 net.cpp:334] inception_4e/1x1 -> inception_4e/1x1
I0510 00:08:03.076153 27037 net.cpp:105] Setting up inception_4e/1x1
I0510 00:08:03.077342 27037 net.cpp:112] Top shape: 32 256 14 14 (1605632)
I0510 00:08:03.077359 27037 layer_factory.hpp:74] Creating layer inception_4e/relu_1x1
I0510 00:08:03.077370 27037 net.cpp:76] Creating Layer inception_4e/relu_1x1
I0510 00:08:03.077376 27037 net.cpp:372] inception_4e/relu_1x1 <- inception_4e/1x1
I0510 00:08:03.077383 27037 net.cpp:323] inception_4e/relu_1x1 -> inception_4e/1x1 (in-place)
I0510 00:08:03.077391 27037 net.cpp:105] Setting up inception_4e/relu_1x1
I0510 00:08:03.077396 27037 net.cpp:112] Top shape: 32 256 14 14 (1605632)
I0510 00:08:03.077402 27037 layer_factory.hpp:74] Creating layer inception_4e/3x3_reduce
I0510 00:08:03.077410 27037 net.cpp:76] Creating Layer inception_4e/3x3_reduce
I0510 00:08:03.077416 27037 net.cpp:372] inception_4e/3x3_reduce <- inception_4d/output_inception_4d/output_0_split_2
I0510 00:08:03.077430 27037 net.cpp:334] inception_4e/3x3_reduce -> inception_4e/3x3_reduce
I0510 00:08:03.077438 27037 net.cpp:105] Setting up inception_4e/3x3_reduce
I0510 00:08:03.078155 27037 net.cpp:112] Top shape: 32 160 14 14 (1003520)
I0510 00:08:03.078169 27037 layer_factory.hpp:74] Creating layer inception_4e/relu_3x3_reduce
I0510 00:08:03.078177 27037 net.cpp:76] Creating Layer inception_4e/relu_3x3_reduce
I0510 00:08:03.078183 27037 net.cpp:372] inception_4e/relu_3x3_reduce <- inception_4e/3x3_reduce
I0510 00:08:03.078193 27037 net.cpp:323] inception_4e/relu_3x3_reduce -> inception_4e/3x3_reduce (in-place)
I0510 00:08:03.078202 27037 net.cpp:105] Setting up inception_4e/relu_3x3_reduce
I0510 00:08:03.078207 27037 net.cpp:112] Top shape: 32 160 14 14 (1003520)
I0510 00:08:03.078212 27037 layer_factory.hpp:74] Creating layer inception_4e/3x3
I0510 00:08:03.078238 27037 net.cpp:76] Creating Layer inception_4e/3x3
I0510 00:08:03.078245 27037 net.cpp:372] inception_4e/3x3 <- inception_4e/3x3_reduce
I0510 00:08:03.078253 27037 net.cpp:334] inception_4e/3x3 -> inception_4e/3x3
I0510 00:08:03.078263 27037 net.cpp:105] Setting up inception_4e/3x3
I0510 00:08:03.082219 27037 net.cpp:112] Top shape: 32 320 14 14 (2007040)
I0510 00:08:03.082253 27037 layer_factory.hpp:74] Creating layer inception_4e/relu_3x3
I0510 00:08:03.082267 27037 net.cpp:76] Creating Layer inception_4e/relu_3x3
I0510 00:08:03.082286 27037 net.cpp:372] inception_4e/relu_3x3 <- inception_4e/3x3
I0510 00:08:03.082295 27037 net.cpp:323] inception_4e/relu_3x3 -> inception_4e/3x3 (in-place)
I0510 00:08:03.082305 27037 net.cpp:105] Setting up inception_4e/relu_3x3
I0510 00:08:03.082311 27037 net.cpp:112] Top shape: 32 320 14 14 (2007040)
I0510 00:08:03.082316 27037 layer_factory.hpp:74] Creating layer inception_4e/5x5_reduce
I0510 00:08:03.082326 27037 net.cpp:76] Creating Layer inception_4e/5x5_reduce
I0510 00:08:03.082334 27037 net.cpp:372] inception_4e/5x5_reduce <- inception_4d/output_inception_4d/output_0_split_3
I0510 00:08:03.082381 27037 net.cpp:334] inception_4e/5x5_reduce -> inception_4e/5x5_reduce
I0510 00:08:03.082392 27037 net.cpp:105] Setting up inception_4e/5x5_reduce
I0510 00:08:03.082545 27037 net.cpp:112] Top shape: 32 32 14 14 (200704)
I0510 00:08:03.082557 27037 layer_factory.hpp:74] Creating layer inception_4e/relu_5x5_reduce
I0510 00:08:03.082566 27037 net.cpp:76] Creating Layer inception_4e/relu_5x5_reduce
I0510 00:08:03.082571 27037 net.cpp:372] inception_4e/relu_5x5_reduce <- inception_4e/5x5_reduce
I0510 00:08:03.082581 27037 net.cpp:323] inception_4e/relu_5x5_reduce -> inception_4e/5x5_reduce (in-place)
I0510 00:08:03.082588 27037 net.cpp:105] Setting up inception_4e/relu_5x5_reduce
I0510 00:08:03.082594 27037 net.cpp:112] Top shape: 32 32 14 14 (200704)
I0510 00:08:03.082600 27037 layer_factory.hpp:74] Creating layer inception_4e/5x5
I0510 00:08:03.082608 27037 net.cpp:76] Creating Layer inception_4e/5x5
I0510 00:08:03.082613 27037 net.cpp:372] inception_4e/5x5 <- inception_4e/5x5_reduce
I0510 00:08:03.082622 27037 net.cpp:334] inception_4e/5x5 -> inception_4e/5x5
I0510 00:08:03.082629 27037 net.cpp:105] Setting up inception_4e/5x5
I0510 00:08:03.083498 27037 net.cpp:112] Top shape: 32 128 14 14 (802816)
I0510 00:08:03.083513 27037 layer_factory.hpp:74] Creating layer inception_4e/relu_5x5
I0510 00:08:03.083521 27037 net.cpp:76] Creating Layer inception_4e/relu_5x5
I0510 00:08:03.083531 27037 net.cpp:372] inception_4e/relu_5x5 <- inception_4e/5x5
I0510 00:08:03.083539 27037 net.cpp:323] inception_4e/relu_5x5 -> inception_4e/5x5 (in-place)
I0510 00:08:03.083547 27037 net.cpp:105] Setting up inception_4e/relu_5x5
I0510 00:08:03.083552 27037 net.cpp:112] Top shape: 32 128 14 14 (802816)
I0510 00:08:03.083559 27037 layer_factory.hpp:74] Creating layer inception_4e/pool
I0510 00:08:03.083566 27037 net.cpp:76] Creating Layer inception_4e/pool
I0510 00:08:03.083572 27037 net.cpp:372] inception_4e/pool <- inception_4d/output_inception_4d/output_0_split_4
I0510 00:08:03.083583 27037 net.cpp:334] inception_4e/pool -> inception_4e/pool
I0510 00:08:03.083592 27037 net.cpp:105] Setting up inception_4e/pool
I0510 00:08:03.083600 27037 net.cpp:112] Top shape: 32 528 14 14 (3311616)
I0510 00:08:03.083606 27037 layer_factory.hpp:74] Creating layer inception_4e/pool_proj
I0510 00:08:03.083616 27037 net.cpp:76] Creating Layer inception_4e/pool_proj
I0510 00:08:03.083621 27037 net.cpp:372] inception_4e/pool_proj <- inception_4e/pool
I0510 00:08:03.083631 27037 net.cpp:334] inception_4e/pool_proj -> inception_4e/pool_proj
I0510 00:08:03.083641 27037 net.cpp:105] Setting up inception_4e/pool_proj
I0510 00:08:03.084269 27037 net.cpp:112] Top shape: 32 128 14 14 (802816)
I0510 00:08:03.084301 27037 layer_factory.hpp:74] Creating layer inception_4e/relu_pool_proj
I0510 00:08:03.084311 27037 net.cpp:76] Creating Layer inception_4e/relu_pool_proj
I0510 00:08:03.084317 27037 net.cpp:372] inception_4e/relu_pool_proj <- inception_4e/pool_proj
I0510 00:08:03.084327 27037 net.cpp:323] inception_4e/relu_pool_proj -> inception_4e/pool_proj (in-place)
I0510 00:08:03.084336 27037 net.cpp:105] Setting up inception_4e/relu_pool_proj
I0510 00:08:03.084342 27037 net.cpp:112] Top shape: 32 128 14 14 (802816)
I0510 00:08:03.084347 27037 layer_factory.hpp:74] Creating layer inception_4e/output
I0510 00:08:03.084354 27037 net.cpp:76] Creating Layer inception_4e/output
I0510 00:08:03.084360 27037 net.cpp:372] inception_4e/output <- inception_4e/1x1
I0510 00:08:03.084367 27037 net.cpp:372] inception_4e/output <- inception_4e/3x3
I0510 00:08:03.084373 27037 net.cpp:372] inception_4e/output <- inception_4e/5x5
I0510 00:08:03.084380 27037 net.cpp:372] inception_4e/output <- inception_4e/pool_proj
I0510 00:08:03.084388 27037 net.cpp:334] inception_4e/output -> inception_4e/output
I0510 00:08:03.084395 27037 net.cpp:105] Setting up inception_4e/output
I0510 00:08:03.084401 27037 net.cpp:112] Top shape: 32 832 14 14 (5218304)
I0510 00:08:03.084408 27037 layer_factory.hpp:74] Creating layer pool4/3x3_s2
I0510 00:08:03.084414 27037 net.cpp:76] Creating Layer pool4/3x3_s2
I0510 00:08:03.084461 27037 net.cpp:372] pool4/3x3_s2 <- inception_4e/output
I0510 00:08:03.084475 27037 net.cpp:334] pool4/3x3_s2 -> pool4/3x3_s2
I0510 00:08:03.084486 27037 net.cpp:105] Setting up pool4/3x3_s2
I0510 00:08:03.084492 27037 net.cpp:112] Top shape: 32 832 7 7 (1304576)
I0510 00:08:03.084499 27037 layer_factory.hpp:74] Creating layer pool4/3x3_s2_pool4/3x3_s2_0_split
I0510 00:08:03.084506 27037 net.cpp:76] Creating Layer pool4/3x3_s2_pool4/3x3_s2_0_split
I0510 00:08:03.084512 27037 net.cpp:372] pool4/3x3_s2_pool4/3x3_s2_0_split <- pool4/3x3_s2
I0510 00:08:03.084522 27037 net.cpp:334] pool4/3x3_s2_pool4/3x3_s2_0_split -> pool4/3x3_s2_pool4/3x3_s2_0_split_0
I0510 00:08:03.084530 27037 net.cpp:334] pool4/3x3_s2_pool4/3x3_s2_0_split -> pool4/3x3_s2_pool4/3x3_s2_0_split_1
I0510 00:08:03.084539 27037 net.cpp:334] pool4/3x3_s2_pool4/3x3_s2_0_split -> pool4/3x3_s2_pool4/3x3_s2_0_split_2
I0510 00:08:03.084548 27037 net.cpp:334] pool4/3x3_s2_pool4/3x3_s2_0_split -> pool4/3x3_s2_pool4/3x3_s2_0_split_3
I0510 00:08:03.084555 27037 net.cpp:105] Setting up pool4/3x3_s2_pool4/3x3_s2_0_split
I0510 00:08:03.084563 27037 net.cpp:112] Top shape: 32 832 7 7 (1304576)
I0510 00:08:03.084568 27037 net.cpp:112] Top shape: 32 832 7 7 (1304576)
I0510 00:08:03.084573 27037 net.cpp:112] Top shape: 32 832 7 7 (1304576)
I0510 00:08:03.084578 27037 net.cpp:112] Top shape: 32 832 7 7 (1304576)
I0510 00:08:03.084588 27037 layer_factory.hpp:74] Creating layer inception_5a/1x1
I0510 00:08:03.084599 27037 net.cpp:76] Creating Layer inception_5a/1x1
I0510 00:08:03.084606 27037 net.cpp:372] inception_5a/1x1 <- pool4/3x3_s2_pool4/3x3_s2_0_split_0
I0510 00:08:03.084614 27037 net.cpp:334] inception_5a/1x1 -> inception_5a/1x1
I0510 00:08:03.084624 27037 net.cpp:105] Setting up inception_5a/1x1
I0510 00:08:03.086441 27037 net.cpp:112] Top shape: 32 256 7 7 (401408)
I0510 00:08:03.086457 27037 layer_factory.hpp:74] Creating layer inception_5a/relu_1x1
I0510 00:08:03.086467 27037 net.cpp:76] Creating Layer inception_5a/relu_1x1
I0510 00:08:03.086473 27037 net.cpp:372] inception_5a/relu_1x1 <- inception_5a/1x1
I0510 00:08:03.086485 27037 net.cpp:323] inception_5a/relu_1x1 -> inception_5a/1x1 (in-place)
I0510 00:08:03.086494 27037 net.cpp:105] Setting up inception_5a/relu_1x1
I0510 00:08:03.086499 27037 net.cpp:112] Top shape: 32 256 7 7 (401408)
I0510 00:08:03.086505 27037 layer_factory.hpp:74] Creating layer inception_5a/3x3_reduce
I0510 00:08:03.086514 27037 net.cpp:76] Creating Layer inception_5a/3x3_reduce
I0510 00:08:03.086520 27037 net.cpp:372] inception_5a/3x3_reduce <- pool4/3x3_s2_pool4/3x3_s2_0_split_1
I0510 00:08:03.086530 27037 net.cpp:334] inception_5a/3x3_reduce -> inception_5a/3x3_reduce
I0510 00:08:03.086539 27037 net.cpp:105] Setting up inception_5a/3x3_reduce
I0510 00:08:03.087677 27037 net.cpp:112] Top shape: 32 160 7 7 (250880)
I0510 00:08:03.087694 27037 layer_factory.hpp:74] Creating layer inception_5a/relu_3x3_reduce
I0510 00:08:03.087705 27037 net.cpp:76] Creating Layer inception_5a/relu_3x3_reduce
I0510 00:08:03.087713 27037 net.cpp:372] inception_5a/relu_3x3_reduce <- inception_5a/3x3_reduce
I0510 00:08:03.087720 27037 net.cpp:323] inception_5a/relu_3x3_reduce -> inception_5a/3x3_reduce (in-place)
I0510 00:08:03.087728 27037 net.cpp:105] Setting up inception_5a/relu_3x3_reduce
I0510 00:08:03.087734 27037 net.cpp:112] Top shape: 32 160 7 7 (250880)
I0510 00:08:03.087745 27037 layer_factory.hpp:74] Creating layer inception_5a/3x3
I0510 00:08:03.087756 27037 net.cpp:76] Creating Layer inception_5a/3x3
I0510 00:08:03.087762 27037 net.cpp:372] inception_5a/3x3 <- inception_5a/3x3_reduce
I0510 00:08:03.087770 27037 net.cpp:334] inception_5a/3x3 -> inception_5a/3x3
I0510 00:08:03.087779 27037 net.cpp:105] Setting up inception_5a/3x3
I0510 00:08:03.091646 27037 net.cpp:112] Top shape: 32 320 7 7 (501760)
I0510 00:08:03.091668 27037 layer_factory.hpp:74] Creating layer inception_5a/relu_3x3
I0510 00:08:03.091681 27037 net.cpp:76] Creating Layer inception_5a/relu_3x3
I0510 00:08:03.092489 27037 net.cpp:372] inception_5a/relu_3x3 <- inception_5a/3x3
I0510 00:08:03.092530 27037 net.cpp:323] inception_5a/relu_3x3 -> inception_5a/3x3 (in-place)
I0510 00:08:03.092540 27037 net.cpp:105] Setting up inception_5a/relu_3x3
I0510 00:08:03.092546 27037 net.cpp:112] Top shape: 32 320 7 7 (501760)
I0510 00:08:03.092552 27037 layer_factory.hpp:74] Creating layer inception_5a/5x5_reduce
I0510 00:08:03.092561 27037 net.cpp:76] Creating Layer inception_5a/5x5_reduce
I0510 00:08:03.092568 27037 net.cpp:372] inception_5a/5x5_reduce <- pool4/3x3_s2_pool4/3x3_s2_0_split_2
I0510 00:08:03.092579 27037 net.cpp:334] inception_5a/5x5_reduce -> inception_5a/5x5_reduce
I0510 00:08:03.092591 27037 net.cpp:105] Setting up inception_5a/5x5_reduce
I0510 00:08:03.092825 27037 net.cpp:112] Top shape: 32 32 7 7 (50176)
I0510 00:08:03.092840 27037 layer_factory.hpp:74] Creating layer inception_5a/relu_5x5_reduce
I0510 00:08:03.092849 27037 net.cpp:76] Creating Layer inception_5a/relu_5x5_reduce
I0510 00:08:03.092854 27037 net.cpp:372] inception_5a/relu_5x5_reduce <- inception_5a/5x5_reduce
I0510 00:08:03.092861 27037 net.cpp:323] inception_5a/relu_5x5_reduce -> inception_5a/5x5_reduce (in-place)
I0510 00:08:03.092869 27037 net.cpp:105] Setting up inception_5a/relu_5x5_reduce
I0510 00:08:03.092875 27037 net.cpp:112] Top shape: 32 32 7 7 (50176)
I0510 00:08:03.092880 27037 layer_factory.hpp:74] Creating layer inception_5a/5x5
I0510 00:08:03.092888 27037 net.cpp:76] Creating Layer inception_5a/5x5
I0510 00:08:03.092893 27037 net.cpp:372] inception_5a/5x5 <- inception_5a/5x5_reduce
I0510 00:08:03.092903 27037 net.cpp:334] inception_5a/5x5 -> inception_5a/5x5
I0510 00:08:03.092912 27037 net.cpp:105] Setting up inception_5a/5x5
I0510 00:08:03.093835 27037 net.cpp:112] Top shape: 32 128 7 7 (200704)
I0510 00:08:03.093855 27037 layer_factory.hpp:74] Creating layer inception_5a/relu_5x5
I0510 00:08:03.093863 27037 net.cpp:76] Creating Layer inception_5a/relu_5x5
I0510 00:08:03.093870 27037 net.cpp:372] inception_5a/relu_5x5 <- inception_5a/5x5
I0510 00:08:03.093878 27037 net.cpp:323] inception_5a/relu_5x5 -> inception_5a/5x5 (in-place)
I0510 00:08:03.093885 27037 net.cpp:105] Setting up inception_5a/relu_5x5
I0510 00:08:03.093890 27037 net.cpp:112] Top shape: 32 128 7 7 (200704)
I0510 00:08:03.093896 27037 layer_factory.hpp:74] Creating layer inception_5a/pool
I0510 00:08:03.093906 27037 net.cpp:76] Creating Layer inception_5a/pool
I0510 00:08:03.093914 27037 net.cpp:372] inception_5a/pool <- pool4/3x3_s2_pool4/3x3_s2_0_split_3
I0510 00:08:03.093921 27037 net.cpp:334] inception_5a/pool -> inception_5a/pool
I0510 00:08:03.093950 27037 net.cpp:105] Setting up inception_5a/pool
I0510 00:08:03.093962 27037 net.cpp:112] Top shape: 32 832 7 7 (1304576)
I0510 00:08:03.093968 27037 layer_factory.hpp:74] Creating layer inception_5a/pool_proj
I0510 00:08:03.093977 27037 net.cpp:76] Creating Layer inception_5a/pool_proj
I0510 00:08:03.093983 27037 net.cpp:372] inception_5a/pool_proj <- inception_5a/pool
I0510 00:08:03.093991 27037 net.cpp:334] inception_5a/pool_proj -> inception_5a/pool_proj
I0510 00:08:03.094000 27037 net.cpp:105] Setting up inception_5a/pool_proj
I0510 00:08:03.094904 27037 net.cpp:112] Top shape: 32 128 7 7 (200704)
I0510 00:08:03.094919 27037 layer_factory.hpp:74] Creating layer inception_5a/relu_pool_proj
I0510 00:08:03.094929 27037 net.cpp:76] Creating Layer inception_5a/relu_pool_proj
I0510 00:08:03.094936 27037 net.cpp:372] inception_5a/relu_pool_proj <- inception_5a/pool_proj
I0510 00:08:03.094944 27037 net.cpp:323] inception_5a/relu_pool_proj -> inception_5a/pool_proj (in-place)
I0510 00:08:03.094951 27037 net.cpp:105] Setting up inception_5a/relu_pool_proj
I0510 00:08:03.094957 27037 net.cpp:112] Top shape: 32 128 7 7 (200704)
I0510 00:08:03.094962 27037 layer_factory.hpp:74] Creating layer inception_5a/output
I0510 00:08:03.094972 27037 net.cpp:76] Creating Layer inception_5a/output
I0510 00:08:03.094977 27037 net.cpp:372] inception_5a/output <- inception_5a/1x1
I0510 00:08:03.094985 27037 net.cpp:372] inception_5a/output <- inception_5a/3x3
I0510 00:08:03.094991 27037 net.cpp:372] inception_5a/output <- inception_5a/5x5
I0510 00:08:03.095011 27037 net.cpp:372] inception_5a/output <- inception_5a/pool_proj
I0510 00:08:03.095021 27037 net.cpp:334] inception_5a/output -> inception_5a/output
I0510 00:08:03.095029 27037 net.cpp:105] Setting up inception_5a/output
I0510 00:08:03.095036 27037 net.cpp:112] Top shape: 32 832 7 7 (1304576)
I0510 00:08:03.095041 27037 layer_factory.hpp:74] Creating layer inception_5a/output_inception_5a/output_0_split
I0510 00:08:03.095049 27037 net.cpp:76] Creating Layer inception_5a/output_inception_5a/output_0_split
I0510 00:08:03.095054 27037 net.cpp:372] inception_5a/output_inception_5a/output_0_split <- inception_5a/output
I0510 00:08:03.095062 27037 net.cpp:334] inception_5a/output_inception_5a/output_0_split -> inception_5a/output_inception_5a/output_0_split_0
I0510 00:08:03.095073 27037 net.cpp:334] inception_5a/output_inception_5a/output_0_split -> inception_5a/output_inception_5a/output_0_split_1
I0510 00:08:03.095083 27037 net.cpp:334] inception_5a/output_inception_5a/output_0_split -> inception_5a/output_inception_5a/output_0_split_2
I0510 00:08:03.095093 27037 net.cpp:334] inception_5a/output_inception_5a/output_0_split -> inception_5a/output_inception_5a/output_0_split_3
I0510 00:08:03.095104 27037 net.cpp:105] Setting up inception_5a/output_inception_5a/output_0_split
I0510 00:08:03.095111 27037 net.cpp:112] Top shape: 32 832 7 7 (1304576)
I0510 00:08:03.095118 27037 net.cpp:112] Top shape: 32 832 7 7 (1304576)
I0510 00:08:03.095121 27037 net.cpp:112] Top shape: 32 832 7 7 (1304576)
I0510 00:08:03.095126 27037 net.cpp:112] Top shape: 32 832 7 7 (1304576)
I0510 00:08:03.095134 27037 layer_factory.hpp:74] Creating layer inception_5b/1x1
I0510 00:08:03.095154 27037 net.cpp:76] Creating Layer inception_5b/1x1
I0510 00:08:03.095165 27037 net.cpp:372] inception_5b/1x1 <- inception_5a/output_inception_5a/output_0_split_0
I0510 00:08:03.095180 27037 net.cpp:334] inception_5b/1x1 -> inception_5b/1x1
I0510 00:08:03.095196 27037 net.cpp:105] Setting up inception_5b/1x1
I0510 00:08:03.097883 27037 net.cpp:112] Top shape: 32 384 7 7 (602112)
I0510 00:08:03.097901 27037 layer_factory.hpp:74] Creating layer inception_5b/relu_1x1
I0510 00:08:03.097913 27037 net.cpp:76] Creating Layer inception_5b/relu_1x1
I0510 00:08:03.097919 27037 net.cpp:372] inception_5b/relu_1x1 <- inception_5b/1x1
I0510 00:08:03.097929 27037 net.cpp:323] inception_5b/relu_1x1 -> inception_5b/1x1 (in-place)
I0510 00:08:03.097939 27037 net.cpp:105] Setting up inception_5b/relu_1x1
I0510 00:08:03.097944 27037 net.cpp:112] Top shape: 32 384 7 7 (602112)
I0510 00:08:03.097949 27037 layer_factory.hpp:74] Creating layer inception_5b/3x3_reduce
I0510 00:08:03.097959 27037 net.cpp:76] Creating Layer inception_5b/3x3_reduce
I0510 00:08:03.097965 27037 net.cpp:372] inception_5b/3x3_reduce <- inception_5a/output_inception_5a/output_0_split_1
I0510 00:08:03.097975 27037 net.cpp:334] inception_5b/3x3_reduce -> inception_5b/3x3_reduce
I0510 00:08:03.097985 27037 net.cpp:105] Setting up inception_5b/3x3_reduce
I0510 00:08:03.099356 27037 net.cpp:112] Top shape: 32 192 7 7 (301056)
I0510 00:08:03.099373 27037 layer_factory.hpp:74] Creating layer inception_5b/relu_3x3_reduce
I0510 00:08:03.099381 27037 net.cpp:76] Creating Layer inception_5b/relu_3x3_reduce
I0510 00:08:03.099388 27037 net.cpp:372] inception_5b/relu_3x3_reduce <- inception_5b/3x3_reduce
I0510 00:08:03.099395 27037 net.cpp:323] inception_5b/relu_3x3_reduce -> inception_5b/3x3_reduce (in-place)
I0510 00:08:03.099405 27037 net.cpp:105] Setting up inception_5b/relu_3x3_reduce
I0510 00:08:03.099409 27037 net.cpp:112] Top shape: 32 192 7 7 (301056)
I0510 00:08:03.099416 27037 layer_factory.hpp:74] Creating layer inception_5b/3x3
I0510 00:08:03.099427 27037 net.cpp:76] Creating Layer inception_5b/3x3
I0510 00:08:03.099433 27037 net.cpp:372] inception_5b/3x3 <- inception_5b/3x3_reduce
I0510 00:08:03.099442 27037 net.cpp:334] inception_5b/3x3 -> inception_5b/3x3
I0510 00:08:03.099452 27037 net.cpp:105] Setting up inception_5b/3x3
I0510 00:08:03.105438 27037 net.cpp:112] Top shape: 32 384 7 7 (602112)
I0510 00:08:03.105499 27037 layer_factory.hpp:74] Creating layer inception_5b/relu_3x3
I0510 00:08:03.105516 27037 net.cpp:76] Creating Layer inception_5b/relu_3x3
I0510 00:08:03.105525 27037 net.cpp:372] inception_5b/relu_3x3 <- inception_5b/3x3
I0510 00:08:03.105532 27037 net.cpp:323] inception_5b/relu_3x3 -> inception_5b/3x3 (in-place)
I0510 00:08:03.105541 27037 net.cpp:105] Setting up inception_5b/relu_3x3
I0510 00:08:03.105547 27037 net.cpp:112] Top shape: 32 384 7 7 (602112)
I0510 00:08:03.105553 27037 layer_factory.hpp:74] Creating layer inception_5b/5x5_reduce
I0510 00:08:03.105564 27037 net.cpp:76] Creating Layer inception_5b/5x5_reduce
I0510 00:08:03.105571 27037 net.cpp:372] inception_5b/5x5_reduce <- inception_5a/output_inception_5a/output_0_split_2
I0510 00:08:03.105583 27037 net.cpp:334] inception_5b/5x5_reduce -> inception_5b/5x5_reduce
I0510 00:08:03.105593 27037 net.cpp:105] Setting up inception_5b/5x5_reduce
I0510 00:08:03.105940 27037 net.cpp:112] Top shape: 32 48 7 7 (75264)
I0510 00:08:03.105953 27037 layer_factory.hpp:74] Creating layer inception_5b/relu_5x5_reduce
I0510 00:08:03.105962 27037 net.cpp:76] Creating Layer inception_5b/relu_5x5_reduce
I0510 00:08:03.105967 27037 net.cpp:372] inception_5b/relu_5x5_reduce <- inception_5b/5x5_reduce
I0510 00:08:03.105974 27037 net.cpp:323] inception_5b/relu_5x5_reduce -> inception_5b/5x5_reduce (in-place)
I0510 00:08:03.105983 27037 net.cpp:105] Setting up inception_5b/relu_5x5_reduce
I0510 00:08:03.105988 27037 net.cpp:112] Top shape: 32 48 7 7 (75264)
I0510 00:08:03.105993 27037 layer_factory.hpp:74] Creating layer inception_5b/5x5
I0510 00:08:03.106004 27037 net.cpp:76] Creating Layer inception_5b/5x5
I0510 00:08:03.106010 27037 net.cpp:372] inception_5b/5x5 <- inception_5b/5x5_reduce
I0510 00:08:03.106019 27037 net.cpp:334] inception_5b/5x5 -> inception_5b/5x5
I0510 00:08:03.106026 27037 net.cpp:105] Setting up inception_5b/5x5
I0510 00:08:03.107326 27037 net.cpp:112] Top shape: 32 128 7 7 (200704)
I0510 00:08:03.107342 27037 layer_factory.hpp:74] Creating layer inception_5b/relu_5x5
I0510 00:08:03.107349 27037 net.cpp:76] Creating Layer inception_5b/relu_5x5
I0510 00:08:03.107355 27037 net.cpp:372] inception_5b/relu_5x5 <- inception_5b/5x5
I0510 00:08:03.107364 27037 net.cpp:323] inception_5b/relu_5x5 -> inception_5b/5x5 (in-place)
I0510 00:08:03.107372 27037 net.cpp:105] Setting up inception_5b/relu_5x5
I0510 00:08:03.107378 27037 net.cpp:112] Top shape: 32 128 7 7 (200704)
I0510 00:08:03.107385 27037 layer_factory.hpp:74] Creating layer inception_5b/pool
I0510 00:08:03.107394 27037 net.cpp:76] Creating Layer inception_5b/pool
I0510 00:08:03.107401 27037 net.cpp:372] inception_5b/pool <- inception_5a/output_inception_5a/output_0_split_3
I0510 00:08:03.107409 27037 net.cpp:334] inception_5b/pool -> inception_5b/pool
I0510 00:08:03.107417 27037 net.cpp:105] Setting up inception_5b/pool
I0510 00:08:03.107426 27037 net.cpp:112] Top shape: 32 832 7 7 (1304576)
I0510 00:08:03.107432 27037 layer_factory.hpp:74] Creating layer inception_5b/pool_proj
I0510 00:08:03.107444 27037 net.cpp:76] Creating Layer inception_5b/pool_proj
I0510 00:08:03.107450 27037 net.cpp:372] inception_5b/pool_proj <- inception_5b/pool
I0510 00:08:03.107460 27037 net.cpp:334] inception_5b/pool_proj -> inception_5b/pool_proj
I0510 00:08:03.107468 27037 net.cpp:105] Setting up inception_5b/pool_proj
I0510 00:08:03.108436 27037 net.cpp:112] Top shape: 32 128 7 7 (200704)
I0510 00:08:03.108454 27037 layer_factory.hpp:74] Creating layer inception_5b/relu_pool_proj
I0510 00:08:03.108464 27037 net.cpp:76] Creating Layer inception_5b/relu_pool_proj
I0510 00:08:03.108470 27037 net.cpp:372] inception_5b/relu_pool_proj <- inception_5b/pool_proj
I0510 00:08:03.108480 27037 net.cpp:323] inception_5b/relu_pool_proj -> inception_5b/pool_proj (in-place)
I0510 00:08:03.108491 27037 net.cpp:105] Setting up inception_5b/relu_pool_proj
I0510 00:08:03.108502 27037 net.cpp:112] Top shape: 32 128 7 7 (200704)
I0510 00:08:03.108512 27037 layer_factory.hpp:74] Creating layer inception_5b/output
I0510 00:08:03.108538 27037 net.cpp:76] Creating Layer inception_5b/output
I0510 00:08:03.108547 27037 net.cpp:372] inception_5b/output <- inception_5b/1x1
I0510 00:08:03.108558 27037 net.cpp:372] inception_5b/output <- inception_5b/3x3
I0510 00:08:03.108571 27037 net.cpp:372] inception_5b/output <- inception_5b/5x5
I0510 00:08:03.108582 27037 net.cpp:372] inception_5b/output <- inception_5b/pool_proj
I0510 00:08:03.108595 27037 net.cpp:334] inception_5b/output -> inception_5b/output
I0510 00:08:03.108609 27037 net.cpp:105] Setting up inception_5b/output
I0510 00:08:03.108616 27037 net.cpp:112] Top shape: 32 1024 7 7 (1605632)
I0510 00:08:03.108623 27037 layer_factory.hpp:74] Creating layer pool5/7x7_s1
I0510 00:08:03.108630 27037 net.cpp:76] Creating Layer pool5/7x7_s1
I0510 00:08:03.108636 27037 net.cpp:372] pool5/7x7_s1 <- inception_5b/output
I0510 00:08:03.108644 27037 net.cpp:334] pool5/7x7_s1 -> pool5/7x7_s1
I0510 00:08:03.108654 27037 net.cpp:105] Setting up pool5/7x7_s1
I0510 00:08:03.108659 27037 net.cpp:112] Top shape: 32 1024 1 1 (32768)
I0510 00:08:03.108665 27037 layer_factory.hpp:74] Creating layer pool5/drop_7x7_s1
I0510 00:08:03.108675 27037 net.cpp:76] Creating Layer pool5/drop_7x7_s1
I0510 00:08:03.108685 27037 net.cpp:372] pool5/drop_7x7_s1 <- pool5/7x7_s1
I0510 00:08:03.108702 27037 net.cpp:323] pool5/drop_7x7_s1 -> pool5/7x7_s1 (in-place)
I0510 00:08:03.108716 27037 net.cpp:105] Setting up pool5/drop_7x7_s1
I0510 00:08:03.108727 27037 net.cpp:112] Top shape: 32 1024 1 1 (32768)
I0510 00:08:03.108742 27037 layer_factory.hpp:74] Creating layer loss3/classifier
I0510 00:08:03.108760 27037 net.cpp:76] Creating Layer loss3/classifier
I0510 00:08:03.108769 27037 net.cpp:372] loss3/classifier <- pool5/7x7_s1
I0510 00:08:03.108782 27037 net.cpp:334] loss3/classifier -> loss3/classifier
I0510 00:08:03.108793 27037 net.cpp:105] Setting up loss3/classifier
I0510 00:08:03.108824 27037 net.cpp:112] Top shape: 32 2 1 1 (64)
I0510 00:08:03.108835 27037 layer_factory.hpp:74] Creating layer loss3/classifier_loss3/classifier_0_split
I0510 00:08:03.108844 27037 net.cpp:76] Creating Layer loss3/classifier_loss3/classifier_0_split
I0510 00:08:03.108850 27037 net.cpp:372] loss3/classifier_loss3/classifier_0_split <- loss3/classifier
I0510 00:08:03.108861 27037 net.cpp:334] loss3/classifier_loss3/classifier_0_split -> loss3/classifier_loss3/classifier_0_split_0
I0510 00:08:03.108871 27037 net.cpp:334] loss3/classifier_loss3/classifier_0_split -> loss3/classifier_loss3/classifier_0_split_1
I0510 00:08:03.108880 27037 net.cpp:105] Setting up loss3/classifier_loss3/classifier_0_split
I0510 00:08:03.108886 27037 net.cpp:112] Top shape: 32 2 1 1 (64)
I0510 00:08:03.108913 27037 net.cpp:112] Top shape: 32 2 1 1 (64)
I0510 00:08:03.108921 27037 layer_factory.hpp:74] Creating layer loss3/loss3
I0510 00:08:03.108929 27037 net.cpp:76] Creating Layer loss3/loss3
I0510 00:08:03.108935 27037 net.cpp:372] loss3/loss3 <- loss3/classifier_loss3/classifier_0_split_0
I0510 00:08:03.108942 27037 net.cpp:372] loss3/loss3 <- label_data_1_split_4
I0510 00:08:03.108952 27037 net.cpp:334] loss3/loss3 -> loss3/loss3
I0510 00:08:03.108961 27037 net.cpp:105] Setting up loss3/loss3
I0510 00:08:03.108969 27037 layer_factory.hpp:74] Creating layer loss3/loss3
I0510 00:08:03.108983 27037 net.cpp:112] Top shape: 1 1 1 1 (1)
I0510 00:08:03.108989 27037 net.cpp:118]     with loss weight 1
I0510 00:08:03.109006 27037 layer_factory.hpp:74] Creating layer loss3/top-1
I0510 00:08:03.109017 27037 net.cpp:76] Creating Layer loss3/top-1
I0510 00:08:03.109025 27037 net.cpp:372] loss3/top-1 <- loss3/classifier_loss3/classifier_0_split_1
I0510 00:08:03.109030 27037 net.cpp:372] loss3/top-1 <- label_data_1_split_5
I0510 00:08:03.109037 27037 net.cpp:334] loss3/top-1 -> loss3/top-1
I0510 00:08:03.109046 27037 net.cpp:105] Setting up loss3/top-1
I0510 00:08:03.109052 27037 net.cpp:112] Top shape: 1 1 1 1 (1)
I0510 00:08:03.109057 27037 net.cpp:165] loss3/top-1 does not need backward computation.
I0510 00:08:03.109064 27037 net.cpp:163] loss3/loss3 needs backward computation.
I0510 00:08:03.109082 27037 net.cpp:163] loss3/classifier_loss3/classifier_0_split needs backward computation.
I0510 00:08:03.109094 27037 net.cpp:163] loss3/classifier needs backward computation.
I0510 00:08:03.109104 27037 net.cpp:163] pool5/drop_7x7_s1 needs backward computation.
…
