…
I0509 23:49:01.574458 25837 net.cpp:253] The NetState phase (0) differed from the phase (1) specified by a rule in layer loss3/top-1
I0509 23:49:01.575875 25837 net.cpp:42] Initializing net from parameters: 
name: "GoogleNet"
state {
  phase: TRAIN
}
layer {
  name: "data"
  type: "Data"
  top: "data"
  top: "label"
  include {
    phase: TRAIN
  }
  transform_param {
    mirror: true
    crop_size: 224
    mean_value: 104
    mean_value: 117
    mean_value: 123
  }
  data_param {
    source: "train_lmdb"
    batch_size: 32
    backend: LMDB
  }
}
layer {
  name: "conv1/7x7_s2"
  type: "Convolution"
  bottom: "data"
  top: "conv1/7x7_s2"
  param {
    lr_mult: 1
    decay_mult: 1
  }
  param {
    lr_mult: 2
    decay_mult: 0
  }
  convolution_param {
    num_output: 64
    pad: 3
    kernel_size: 7
    stride: 2
    weight_filler {
      type: "xavier"
      std: 0.1
    }
    bias_filler {
      type: "constant"
      value: 0.2
    }
  }
}
layer {
  name: "conv1/relu_7x7"
  type: "ReLU"
  bottom: "conv1/7x7_s2"
  top: "conv1/7x7_s2"
}
layer {
  name: "pool1/3x3_s2"
  type: "Pooling"
  bottom: "conv1/7x7_s2"
  top: "pool1/3x3_s2"
  pooling_param {
    pool: MAX
    kernel_size: 3
    stride: 2
  }
}
layer {
  name: "pool1/norm1"
  type: "LRN"
  bottom: "pool1/3x3_s2"
  top: "pool1/norm1"
  lrn_param {
    local_size: 5
    alpha: 0.0001
    beta: 0.75
  }
}
layer {
  name: "conv2/3x3_reduce"
  type: "Convolution"
  bottom: "pool1/norm1"
  top: "conv2/3x3_reduce"
  param {
    lr_mult: 1
    decay_mult: 1
  }
  param {
    lr_mult: 2
    decay_mult: 0
  }
  convolution_param {
    num_output: 64
    kernel_size: 1
    weight_filler {
      type: "xavier"
      std: 0.1
    }
    bias_filler {
      type: "constant"
      value: 0.2
    }
  }
}
layer {
  name: "conv2/relu_3x3_reduce"
  type: "ReLU"
  bottom: "conv2/3x3_reduce"
  top: "conv2/3x3_reduce"
}
layer {
  name: "conv2/3x3"
  type: "Convolution"
  bottom: "conv2/3x3_reduce"
  top: "conv2/3x3"
  param {
    lr_mult: 1
    decay_mult: 1
  }
  param {
    lr_mult: 2
    decay_mult: 0
  }
  convolution_param {
    num_output: 192
    pad: 1
    kernel_size: 3
    weight_filler {
      type: "xavier"
      std: 0.03
    }
    bias_filler {
      type: "constant"
      value: 0.2
    }
  }
}
layer {
  name: "conv2/relu_3x3"
  type: "ReLU"
  bottom: "conv2/3x3"
  top: "conv2/3x3"
}
layer {
  name: "conv2/norm2"
  type: "LRN"
  bottom: "conv2/3x3"
  top: "conv2/norm2"
  lrn_param {
    local_size: 5
    alpha: 0.0001
    beta: 0.75
  }
}
layer {
  name: "pool2/3x3_s2"
  type: "Pooling"
  bottom: "conv2/norm2"
  top: "pool2/3x3_s2"
  pooling_param {
    pool: MAX
    kernel_size: 3
    stride: 2
  }
}
layer {
  name: "inception_3a/1x1"
  type: "Convolution"
  bottom: "pool2/3x3_s2"
  top: "inception_3a/1x1"
  param {
    lr_mult: 1
    decay_mult: 1
  }
  param {
    lr_mult: 2
    decay_mult: 0
  }
  convolution_param {
    num_output: 64
    kernel_size: 1
    weight_filler {
      type: "xavier"
      std: 0.03
    }
    bias_filler {
      type: "constant"
      value: 0.2
    }
  }
}
layer {
  name: "inception_3a/relu_1x1"
  type: "ReLU"
  bottom: "inception_3a/1x1"
  top: "inception_3a/1x1"
}
layer {
  name: "inception_3a/3x3_reduce"
  type: "Convolution"
  bottom: "pool2/3x3_s2"
  top: "inception_3a/3x3_reduce"
  param {
    lr_mult: 1
    decay_mult: 1
  }
  param {
    lr_mult: 2
    decay_mult: 0
  }
  convolution_param {
    num_output: 96
    kernel_size: 1
    weight_filler {
      type: "xavier"
      std: 0.09
    }
    bias_filler {
      type: "constant"
      value: 0.2
    }
  }
}
layer {
  name: "inception_3a/relu_3x3_reduce"
  type: "ReLU"
  bottom: "inception_3a/3x3_reduce"
  top: "inception_3a/3x3_reduce"
}
layer {
  name: "inception_3a/3x3"
  type: "Convolution"
  bottom: "inception_3a/3x3_reduce"
  top: "inception_3a/3x3"
  param {
    lr_mult: 1
    decay_mult: 1
  }
  param {
    lr_mult: 2
    decay_mult: 0
  }
  convolution_param {
    num_output: 128
    pad: 1
    kernel_size: 3
    weight_filler {
      type: "xavier"
      std: 0.03
    }
    bias_filler {
      type: "constant"
      value: 0.2
    }
  }
}
layer {
  name: "inception_3a/relu_3x3"
  type: "ReLU"
  bottom: "inception_3a/3x3"
  top: "inception_3a/3x3"
}
layer {
  name: "inception_3a/5x5_reduce"
  type: "Convolution"
  bottom: "pool2/3x3_s2"
  top: "inception_3a/5x5_reduce"
  param {
    lr_mult: 1
    decay_mult: 1
  }
  param {
    lr_mult: 2
    decay_mult: 0
  }
  convolution_param {
    num_output: 16
    kernel_size: 1
    weight_filler {
      type: "xavier"
      std: 0.2
    }
    bias_filler {
      type: "constant"
      value: 0.2
    }
  }
}
layer {
  name: "inception_3a/relu_5x5_reduce"
  type: "ReLU"
  bottom: "inception_3a/5x5_reduce"
  top: "inception_3a/5x5_reduce"
}
layer {
  name: "inception_3a/5x5"
  type: "Convolution"
  bottom: "inception_3a/5x5_reduce"
  top: "inception_3a/5x5"
  param {
    lr_mult: 1
    decay_mult: 1
  }
  param {
    lr_mult: 2
    decay_mult: 0
  }
  convolution_param {
    num_output: 32
    pad: 2
    kernel_size: 5
    weight_filler {
      type: "xavier"
      std: 0.03
    }
    bias_filler {
      type: "constant"
      value: 0.2
    }
  }
}
layer {
  name: "inception_3a/relu_5x5"
  type: "ReLU"
  bottom: "inception_3a/5x5"
  top: "inception_3a/5x5"
}
layer {
  name: "inception_3a/pool"
  type: "Pooling"
  bottom: "pool2/3x3_s2"
  top: "inception_3a/pool"
  pooling_param {
    pool: MAX
    kernel_size: 3
    stride: 1
    pad: 1
  }
}
layer {
  name: "inception_3a/pool_proj"
  type: "Convolution"
  bottom: "inception_3a/pool"
  top: "inception_3a/pool_proj"
  param {
    lr_mult: 1
    decay_mult: 1
  }
  param {
    lr_mult: 2
    decay_mult: 0
  }
  convolution_param {
    num_output: 32
    kernel_size: 1
    weight_filler {
      type: "xavier"
      std: 0.1
    }
    bias_filler {
      type: "constant"
      value: 0.2
    }
  }
}
layer {
  name: "inception_3a/relu_pool_proj"
  type: "ReLU"
  bottom: "inception_3a/pool_proj"
  top: "inception_3a/pool_proj"
}
layer {
  name: "inception_3a/output"
  type: "Concat"
  bottom: "inception_3a/1x1"
  bottom: "inception_3a/3x3"
  bottom: "inception_3a/5x5"
  bottom: "inception_3a/pool_proj"
  top: "inception_3a/output"
}
layer {
  name: "inception_3b/1x1"
  type: "Convolution"
  bottom: "inception_3a/output"
  top: "inception_3b/1x1"
  param {
    lr_mult: 1
    decay_mult: 1
  }
  param {
    lr_mult: 2
    decay_mult: 0
  }
  convolution_param {
    num_output: 128
    kernel_size: 1
    weight_filler {
      type: "xavier"
      std: 0.03
    }
    bias_filler {
      type: "constant"
      value: 0.2
    }
  }
}
layer {
  name: "inception_3b/relu_1x1"
  type: "ReLU"
  bottom: "inception_3b/1x1"
  top: "inception_3b/1x1"
}
layer {
  name: "inception_3b/3x3_reduce"
  type: "Convolution"
  bottom: "inception_3a/output"
  top: "inception_3b/3x3_reduce"
  param {
    lr_mult: 1
    decay_mult: 1
  }
  param {
    lr_mult: 2
    decay_mult: 0
  }
  convolution_param {
    num_output: 128
    kernel_size: 1
    weight_filler {
      type: "xavier"
      std: 0.09
    }
    bias_filler {
      type: "constant"
      value: 0.2
    }
  }
}
layer {
  name: "inception_3b/relu_3x3_reduce"
  type: "ReLU"
  bottom: "inception_3b/3x3_reduce"
  top: "inception_3b/3x3_reduce"
}
layer {
  name: "inception_3b/3x3"
  type: "Convolution"
  bottom: "inception_3b/3x3_reduce"
  top: "inception_3b/3x3"
  param {
    lr_mult: 1
    decay_mult: 1
  }
  param {
    lr_mult: 2
    decay_mult: 0
  }
  convolution_param {
    num_output: 192
    pad: 1
    kernel_size: 3
    weight_filler {
      type: "xavier"
      std: 0.03
    }
    bias_filler {
      type: "constant"
      value: 0.2
    }
  }
}
layer {
  name: "inception_3b/relu_3x3"
  type: "ReLU"
  bottom: "inception_3b/3x3"
  top: "inception_3b/3x3"
}
layer {
  name: "inception_3b/5x5_reduce"
  type: "Convolution"
  bottom: "inception_3a/output"
  top: "inception_3b/5x5_reduce"
  param {
    lr_mult: 1
    decay_mult: 1
  }
  param {
    lr_mult: 2
    decay_mult: 0
  }
  convolution_param {
    num_output: 32
    kernel_size: 1
    weight_filler {
      type: "xavier"
      std: 0.2
    }
    bias_filler {
      type: "constant"
      value: 0.2
    }
  }
}
layer {
  name: "inception_3b/relu_5x5_reduce"
  type: "ReLU"
  bottom: "inception_3b/5x5_reduce"
  top: "inception_3b/5x5_reduce"
}
layer {
  name: "inception_3b/5x5"
  type: "Convolution"
  bottom: "inception_3b/5x5_reduce"
  top: "inception_3b/5x5"
  param {
    lr_mult: 1
    decay_mult: 1
  }
  param {
    lr_mult: 2
    decay_mult: 0
  }
  convolution_param {
    num_output: 96
    pad: 2
    kernel_size: 5
    weight_filler {
      type: "xavier"
      std: 0.03
    }
    bias_filler {
      type: "constant"
      value: 0.2
    }
  }
}
layer {
  name: "inception_3b/relu_5x5"
  type: "ReLU"
  bottom: "inception_3b/5x5"
  top: "inception_3b/5x5"
}
layer {
  name: "inception_3b/pool"
  type: "Pooling"
  bottom: "inception_3a/output"
  top: "inception_3b/pool"
  pooling_param {
    pool: MAX
    kernel_size: 3
    stride: 1
    pad: 1
  }
}
layer {
  name: "inception_3b/pool_proj"
  type: "Convolution"
  bottom: "inception_3b/pool"
  top: "inception_3b/pool_proj"
  param {
    lr_mult: 1
    decay_mult: 1
  }
  param {
    lr_mult: 2
    decay_mult: 0
  }
  convolution_param {
    num_output: 64
    kernel_size: 1
    weight_filler {
      type: "xavier"
      std: 0.1
    }
    bias_filler {
      type: "constant"
      value: 0.2
    }
  }
}
layer {
  name: "inception_3b/relu_pool_proj"
  type: "ReLU"
  bottom: "inception_3b/pool_proj"
  top: "inception_3b/pool_proj"
}
layer {
  name: "inception_3b/output"
  type: "Concat"
  bottom: "inception_3b/1x1"
  bottom: "inception_3b/3x3"
  bottom: "inception_3b/5x5"
  bottom: "inception_3b/pool_proj"
  top: "inception_3b/output"
}
layer {
  name: "pool3/3x3_s2"
  type: "Pooling"
  bottom: "inception_3b/output"
  top: "pool3/3x3_s2"
  pooling_param {
    pool: MAX
    kernel_size: 3
    stride: 2
  }
}
layer {
  name: "inception_4a/1x1"
  type: "Convolution"
  bottom: "pool3/3x3_s2"
  top: "inception_4a/1x1"
  param {
    lr_mult: 1
    decay_mult: 1
  }
  param {
    lr_mult: 2
    decay_mult: 0
  }
  convolution_param {
    num_output: 192
    kernel_size: 1
    weight_filler {
      type: "xavier"
      std: 0.03
    }
    bias_filler {
      type: "constant"
      value: 0.2
    }
  }
}
layer {
  name: "inception_4a/relu_1x1"
  type: "ReLU"
  bottom: "inception_4a/1x1"
  top: "inception_4a/1x1"
}
layer {
  name: "inception_4a/3x3_reduce"
  type: "Convolution"
  bottom: "pool3/3x3_s2"
  top: "inception_4a/3x3_reduce"
  param {
    lr_mult: 1
    decay_mult: 1
  }
  param {
    lr_mult: 2
    decay_mult: 0
  }
  convolution_param {
    num_output: 96
    kernel_size: 1
    weight_filler {
      type: "xavier"
      std: 0.09
    }
    bias_filler {
      type: "constant"
      value: 0.2
    }
  }
}
layer {
  name: "inception_4a/relu_3x3_reduce"
  type: "ReLU"
  bottom: "inception_4a/3x3_reduce"
  top: "inception_4a/3x3_reduce"
}
layer {
  name: "inception_4a/3x3"
  type: "Convolution"
  bottom: "inception_4a/3x3_reduce"
  top: "inception_4a/3x3"
  param {
    lr_mult: 1
    decay_mult: 1
  }
  param {
    lr_mult: 2
    decay_mult: 0
  }
  convolution_param {
    num_output: 208
    pad: 1
    kernel_size: 3
    weight_filler {
      type: "xavier"
      std: 0.03
    }
    bias_filler {
      type: "constant"
      value: 0.2
    }
  }
}
layer {
  name: "inception_4a/relu_3x3"
  type: "ReLU"
  bottom: "inception_4a/3x3"
  top: "inception_4a/3x3"
}
layer {
  name: "inception_4a/5x5_reduce"
  type: "Convolution"
  bottom: "pool3/3x3_s2"
  top: "inception_4a/5x5_reduce"
  param {
    lr_mult: 1
    decay_mult: 1
  }
  param {
    lr_mult: 2
    decay_mult: 0
  }
  convolution_param {
    num_output: 16
    kernel_size: 1
    weight_filler {
      type: "xavier"
      std: 0.2
    }
    bias_filler {
      type: "constant"
      value: 0.2
    }
  }
}
layer {
  name: "inception_4a/relu_5x5_reduce"
  type: "ReLU"
  bottom: "inception_4a/5x5_reduce"
  top: "inception_4a/5x5_reduce"
}
layer {
  name: "inception_4a/5x5"
  type: "Convolution"
  bottom: "inception_4a/5x5_reduce"
  top: "inception_4a/5x5"
  param {
    lr_mult: 1
    decay_mult: 1
  }
  param {
    lr_mult: 2
    decay_mult: 0
  }
  convolution_param {
    num_output: 48
    pad: 2
    kernel_size: 5
    weight_filler {
      type: "xavier"
      std: 0.03
    }
    bias_filler {
      type: "constant"
      value: 0.2
    }
  }
}
layer {
  name: "inception_4a/relu_5x5"
  type: "ReLU"
  bottom: "inception_4a/5x5"
  top: "inception_4a/5x5"
}
layer {
  name: "inception_4a/pool"
  type: "Pooling"
  bottom: "pool3/3x3_s2"
  top: "inception_4a/pool"
  pooling_param {
    pool: MAX
    kernel_size: 3
    stride: 1
    pad: 1
  }
}
layer {
  name: "inception_4a/pool_proj"
  type: "Convolution"
  bottom: "inception_4a/pool"
  top: "inception_4a/pool_proj"
  param {
    lr_mult: 1
    decay_mult: 1
  }
  param {
    lr_mult: 2
    decay_mult: 0
  }
  convolution_param {
    num_output: 64
    kernel_size: 1
    weight_filler {
      type: "xavier"
      std: 0.1
    }
    bias_filler {
      type: "constant"
      value: 0.2
    }
  }
}
layer {
  name: "inception_4a/relu_pool_proj"
  type: "ReLU"
  bottom: "inception_4a/pool_proj"
  top: "inception_4a/pool_proj"
}
layer {
  name: "inception_4a/output"
  type: "Concat"
  bottom: "inception_4a/1x1"
  bottom: "inception_4a/3x3"
  bottom: "inception_4a/5x5"
  bottom: "inception_4a/pool_proj"
  top: "inception_4a/output"
}
layer {
  name: "loss1/ave_pool"
  type: "Pooling"
  bottom: "inception_4a/output"
  top: "loss1/ave_pool"
  pooling_param {
    pool: AVE
    kernel_size: 5
    stride: 3
  }
}
layer {
  name: "loss1/conv"
  type: "Convolution"
  bottom: "loss1/ave_pool"
  top: "loss1/conv"
  param {
    lr_mult: 1
    decay_mult: 1
  }
  param {
    lr_mult: 2
    decay_mult: 0
  }
  convolution_param {
    num_output: 128
    kernel_size: 1
    weight_filler {
      type: "xavier"
      std: 0.08
    }
    bias_filler {
      type: "constant"
      value: 0.2
    }
  }
}
layer {
  name: "loss1/relu_conv"
  type: "ReLU"
  bottom: "loss1/conv"
  top: "loss1/conv"
}
layer {
  name: "loss1/fc"
  type: "InnerProduct"
  bottom: "loss1/conv"
  top: "loss1/fc"
  param {
    lr_mult: 1
    decay_mult: 1
  }
  param {
    lr_mult: 2
    decay_mult: 0
  }
  inner_product_param {
    num_output: 1024
    weight_filler {
      type: "xavier"
      std: 0.02
    }
    bias_filler {
      type: "constant"
      value: 0.2
    }
  }
}
layer {
  name: "loss1/relu_fc"
  type: "ReLU"
  bottom: "loss1/fc"
  top: "loss1/fc"
}
layer {
  name: "loss1/drop_fc"
  type: "Dropout"
  bottom: "loss1/fc"
  top: "loss1/fc"
  dropout_param {
    dropout_ratio: 0.7
  }
}
layer {
  name: "loss1/classifier"
  type: "InnerProduct"
  bottom: "loss1/fc"
  top: "loss1/classifier"
  param {
    lr_mult: 1
    decay_mult: 1
  }
  param {
    lr_mult: 2
    decay_mult: 0
  }
  inner_product_param {
    num_output: 2
    weight_filler {
      type: "xavier"
      std: 0.0009765625
    }
    bias_filler {
      type: "constant"
      value: 0
    }
  }
}
layer {
  name: "loss1/loss"
  type: "SoftmaxWithLoss"
  bottom: "loss1/classifier"
  bottom: "label"
  top: "loss1/loss1"
  loss_weight: 0.3
}
layer {
  name: "inception_4b/1x1"
  type: "Convolution"
  bottom: "inception_4a/output"
  top: "inception_4b/1x1"
  param {
    lr_mult: 1
    decay_mult: 1
  }
  param {
    lr_mult: 2
    decay_mult: 0
  }
  convolution_param {
    num_output: 160
    kernel_size: 1
    weight_filler {
      type: "xavier"
      std: 0.03
    }
    bias_filler {
      type: "constant"
      value: 0.2
    }
  }
}
layer {
  name: "inception_4b/relu_1x1"
  type: "ReLU"
  bottom: "inception_4b/1x1"
  top: "inception_4b/1x1"
}
layer {
  name: "inception_4b/3x3_reduce"
  type: "Convolution"
  bottom: "inception_4a/output"
  top: "inception_4b/3x3_reduce"
  param {
    lr_mult: 1
    decay_mult: 1
  }
  param {
    lr_mult: 2
    decay_mult: 0
  }
  convolution_param {
    num_output: 112
    kernel_size: 1
    weight_filler {
      type: "xavier"
      std: 0.09
    }
    bias_filler {
      type: "constant"
      value: 0.2
    }
  }
}
layer {
  name: "inception_4b/relu_3x3_reduce"
  type: "ReLU"
  bottom: "inception_4b/3x3_reduce"
  top: "inception_4b/3x3_reduce"
}
layer {
  name: "inception_4b/3x3"
  type: "Convolution"
  bottom: "inception_4b/3x3_reduce"
  top: "inception_4b/3x3"
  param {
    lr_mult: 1
    decay_mult: 1
  }
  param {
    lr_mult: 2
    decay_mult: 0
  }
  convolution_param {
    num_output: 224
    pad: 1
    kernel_size: 3
    weight_filler {
      type: "xavier"
      std: 0.03
    }
    bias_filler {
      type: "constant"
      value: 0.2
    }
  }
}
layer {
  name: "inception_4b/relu_3x3"
  type: "ReLU"
  bottom: "inception_4b/3x3"
  top: "inception_4b/3x3"
}
layer {
  name: "inception_4b/5x5_reduce"
  type: "Convolution"
  bottom: "inception_4a/output"
  top: "inception_4b/5x5_reduce"
  param {
    lr_mult: 1
    decay_mult: 1
  }
  param {
    lr_mult: 2
    decay_mult: 0
  }
  convolution_param {
    num_output: 24
    kernel_size: 1
    weight_filler {
      type: "xavier"
      std: 0.2
    }
    bias_filler {
      type: "constant"
      value: 0.2
    }
  }
}
layer {
  name: "inception_4b/relu_5x5_reduce"
  type: "ReLU"
  bottom: "inception_4b/5x5_reduce"
  top: "inception_4b/5x5_reduce"
}
layer {
  name: "inception_4b/5x5"
  type: "Convolution"
  bottom: "inception_4b/5x5_reduce"
  top: "inception_4b/5x5"
  param {
    lr_mult: 1
    decay_mult: 1
  }
  param {
    lr_mult: 2
    decay_mult: 0
  }
  convolution_param {
    num_output: 64
    pad: 2
    kernel_size: 5
    weight_filler {
      type: "xavier"
      std: 0.03
    }
    bias_filler {
      type: "constant"
      value: 0.2
    }
  }
}
layer {
  name: "inception_4b/relu_5x5"
  type: "ReLU"
  bottom: "inception_4b/5x5"
  top: "inception_4b/5x5"
}
layer {
  name: "inception_4b/pool"
  type: "Pooling"
  bottom: "inception_4a/output"
  top: "inception_4b/pool"
  pooling_param {
    pool: MAX
    kernel_size: 3
    stride: 1
    pad: 1
  }
}
layer {
  name: "inception_4b/pool_proj"
  type: "Convolution"
  bottom: "inception_4b/pool"
  top: "inception_4b/pool_proj"
  param {
    lr_mult: 1
    decay_mult: 1
  }
  param {
    lr_mult: 2
    decay_mult: 0
  }
  convolution_param {
    num_output: 64
    kernel_size: 1
    weight_filler {
      type: "xavier"
      std: 0.1
    }
    bias_filler {
      type: "constant"
      value: 0.2
    }
  }
}
layer {
  name: "inception_4b/relu_pool_proj"
  type: "ReLU"
  bottom: "inception_4b/pool_proj"
  top: "inception_4b/pool_proj"
}
layer {
  name: "inception_4b/output"
  type: "Concat"
  bottom: "inception_4b/1x1"
  bottom: "inception_4b/3x3"
  bottom: "inception_4b/5x5"
  bottom: "inception_4b/pool_proj"
  top: "inception_4b/output"
}
layer {
  name: "inception_4c/1x1"
  type: "Convolution"
  bottom: "inception_4b/output"
  top: "inception_4c/1x1"
  param {
    lr_mult: 1
    decay_mult: 1
  }
  param {
    lr_mult: 2
    decay_mult: 0
  }
  convolution_param {
    num_output: 128
    kernel_size: 1
    weight_filler {
      type: "xavier"
      std: 0.03
    }
    bias_filler {
      type: "constant"
      value: 0.2
    }
  }
}
layer {
  name: "inception_4c/relu_1x1"
  type: "ReLU"
  bottom: "inception_4c/1x1"
  top: "inception_4c/1x1"
}
layer {
  name: "inception_4c/3x3_reduce"
  type: "Convolution"
  bottom: "inception_4b/output"
  top: "inception_4c/3x3_reduce"
  param {
    lr_mult: 1
    decay_mult: 1
  }
  param {
    lr_mult: 2
    decay_mult: 0
  }
  convolution_param {
    num_output: 128
    kernel_size: 1
    weight_filler {
      type: "xavier"
      std: 0.09
    }
    bias_filler {
      type: "constant"
      value: 0.2
    }
  }
}
layer {
  name: "inception_4c/relu_3x3_reduce"
  type: "ReLU"
  bottom: "inception_4c/3x3_reduce"
  top: "inception_4c/3x3_reduce"
}
layer {
  name: "inception_4c/3x3"
  type: "Convolution"
  bottom: "inception_4c/3x3_reduce"
  top: "inception_4c/3x3"
  param {
    lr_mult: 1
    decay_mult: 1
  }
  param {
    lr_mult: 2
    decay_mult: 0
  }
  convolution_param {
    num_output: 256
    pad: 1
    kernel_size: 3
    weight_filler {
      type: "xavier"
      std: 0.03
    }
    bias_filler {
      type: "constant"
      value: 0.2
    }
  }
}
layer {
  name: "inception_4c/relu_3x3"
  type: "ReLU"
  bottom: "inception_4c/3x3"
  top: "inception_4c/3x3"
}
layer {
  name: "inception_4c/5x5_reduce"
  type: "Convolution"
  bottom: "inception_4b/output"
  top: "inception_4c/5x5_reduce"
  param {
    lr_mult: 1
    decay_mult: 1
  }
  param {
    lr_mult: 2
    decay_mult: 0
  }
  convolution_param {
    num_output: 24
    kernel_size: 1
    weight_filler {
      type: "xavier"
      std: 0.2
    }
    bias_filler {
      type: "constant"
      value: 0.2
    }
  }
}
layer {
  name: "inception_4c/relu_5x5_reduce"
  type: "ReLU"
  bottom: "inception_4c/5x5_reduce"
  top: "inception_4c/5x5_reduce"
}
layer {
  name: "inception_4c/5x5"
  type: "Convolution"
  bottom: "inception_4c/5x5_reduce"
  top: "inception_4c/5x5"
  param {
    lr_mult: 1
    decay_mult: 1
  }
  param {
    lr_mult: 2
    decay_mult: 0
  }
  convolution_param {
    num_output: 64
    pad: 2
    kernel_size: 5
    weight_filler {
      type: "xavier"
      std: 0.03
    }
    bias_filler {
      type: "constant"
      value: 0.2
    }
  }
}
layer {
  name: "inception_4c/relu_5x5"
  type: "ReLU"
  bottom: "inception_4c/5x5"
  top: "inception_4c/5x5"
}
layer {
  name: "inception_4c/pool"
  type: "Pooling"
  bottom: "inception_4b/output"
  top: "inception_4c/pool"
  pooling_param {
    pool: MAX
    kernel_size: 3
    stride: 1
    pad: 1
  }
}
layer {
  name: "inception_4c/pool_proj"
  type: "Convolution"
  bottom: "inception_4c/pool"
  top: "inception_4c/pool_proj"
  param {
    lr_mult: 1
    decay_mult: 1
  }
  param {
    lr_mult: 2
    decay_mult: 0
  }
  convolution_param {
    num_output: 64
    kernel_size: 1
    weight_filler {
      type: "xavier"
      std: 0.1
    }
    bias_filler {
      type: "constant"
      value: 0.2
    }
  }
}
layer {
  name: "inception_4c/relu_pool_proj"
  type: "ReLU"
  bottom: "inception_4c/pool_proj"
  top: "inception_4c/pool_proj"
}
layer {
  name: "inception_4c/output"
  type: "Concat"
  bottom: "inception_4c/1x1"
  bottom: "inception_4c/3x3"
  bottom: "inception_4c/5x5"
  bottom: "inception_4c/pool_proj"
  top: "inception_4c/output"
}
layer {
  name: "inception_4d/1x1"
  type: "Convolution"
  bottom: "inception_4c/output"
  top: "inception_4d/1x1"
  param {
    lr_mult: 1
    decay_mult: 1
  }
  param {
    lr_mult: 2
    decay_mult: 0
  }
  convolution_param {
    num_output: 112
    kernel_size: 1
    weight_filler {
      type: "xavier"
      std: 0.03
    }
    bias_filler {
      type: "constant"
      value: 0.2
    }
  }
}
layer {
  name: "inception_4d/relu_1x1"
  type: "ReLU"
  bottom: "inception_4d/1x1"
  top: "inception_4d/1x1"
}
layer {
  name: "inception_4d/3x3_reduce"
  type: "Convolution"
  bottom: "inception_4c/output"
  top: "inception_4d/3x3_reduce"
  param {
    lr_mult: 1
    decay_mult: 1
  }
  param {
    lr_mult: 2
    decay_mult: 0
  }
  convolution_param {
    num_output: 144
    kernel_size: 1
    weight_filler {
      type: "xavier"
      std: 0.09
    }
    bias_filler {
      type: "constant"
      value: 0.2
    }
  }
}
layer {
  name: "inception_4d/relu_3x3_reduce"
  type: "ReLU"
  bottom: "inception_4d/3x3_reduce"
  top: "inception_4d/3x3_reduce"
}
layer {
  name: "inception_4d/3x3"
  type: "Convolution"
  bottom: "inception_4d/3x3_reduce"
  top: "inception_4d/3x3"
  param {
    lr_mult: 1
    decay_mult: 1
  }
  param {
    lr_mult: 2
    decay_mult: 0
  }
  convolution_param {
    num_output: 288
    pad: 1
    kernel_size: 3
    weight_filler {
      type: "xavier"
      std: 0.03
    }
    bias_filler {
      type: "constant"
      value: 0.2
    }
  }
}
layer {
  name: "inception_4d/relu_3x3"
  type: "ReLU"
  bottom: "inception_4d/3x3"
  top: "inception_4d/3x3"
}
layer {
  name: "inception_4d/5x5_reduce"
  type: "Convolution"
  bottom: "inception_4c/output"
  top: "inception_4d/5x5_reduce"
  param {
    lr_mult: 1
    decay_mult: 1
  }
  param {
    lr_mult: 2
    decay_mult: 0
  }
  convolution_param {
    num_output: 32
    kernel_size: 1
    weight_filler {
      type: "xavier"
      std: 0.2
    }
    bias_filler {
      type: "constant"
      value: 0.2
    }
  }
}
layer {
  name: "inception_4d/relu_5x5_reduce"
  type: "ReLU"
  bottom: "inception_4d/5x5_reduce"
  top: "inception_4d/5x5_reduce"
}
layer {
  name: "inception_4d/5x5"
  type: "Convolution"
  bottom: "inception_4d/5x5_reduce"
  top: "inception_4d/5x5"
  param {
    lr_mult: 1
    decay_mult: 1
  }
  param {
    lr_mult: 2
    decay_mult: 0
  }
  convolution_param {
    num_output: 64
    pad: 2
    kernel_size: 5
    weight_filler {
      type: "xavier"
      std: 0.03
    }
    bias_filler {
      type: "constant"
      value: 0.2
    }
  }
}
layer {
  name: "inception_4d/relu_5x5"
  type: "ReLU"
  bottom: "inception_4d/5x5"
  top: "inception_4d/5x5"
}
layer {
  name: "inception_4d/pool"
  type: "Pooling"
  bottom: "inception_4c/output"
  top: "inception_4d/pool"
  pooling_param {
    pool: MAX
    kernel_size: 3
    stride: 1
    pad: 1
  }
}
layer {
  name: "inception_4d/pool_proj"
  type: "Convolution"
  bottom: "inception_4d/pool"
  top: "inception_4d/pool_proj"
  param {
    lr_mult: 1
    decay_mult: 1
  }
  param {
    lr_mult: 2
    decay_mult: 0
  }
  convolution_param {
    num_output: 64
    kernel_size: 1
    weight_filler {
      type: "xavier"
      std: 0.1
    }
    bias_filler {
      type: "constant"
      value: 0.2
    }
  }
}
layer {
  name: "inception_4d/relu_pool_proj"
  type: "ReLU"
  bottom: "inception_4d/pool_proj"
  top: "inception_4d/pool_proj"
}
layer {
  name: "inception_4d/output"
  type: "Concat"
  bottom: "inception_4d/1x1"
  bottom: "inception_4d/3x3"
  bottom: "inception_4d/5x5"
  bottom: "inception_4d/pool_proj"
  top: "inception_4d/output"
}
layer {
  name: "loss2/ave_pool"
  type: "Pooling"
  bottom: "inception_4d/output"
  top: "loss2/ave_pool"
  pooling_param {
    pool: AVE
    kernel_size: 5
    stride: 3
  }
}
layer {
  name: "loss2/conv"
  type: "Convolution"
  bottom: "loss2/ave_pool"
  top: "loss2/conv"
  param {
    lr_mult: 1
    decay_mult: 1
  }
  param {
    lr_mult: 2
    decay_mult: 0
  }
  convolution_param {
    num_output: 128
    kernel_size: 1
    weight_filler {
      type: "xavier"
      std: 0.08
    }
    bias_filler {
      type: "constant"
      value: 0.2
    }
  }
}
layer {
  name: "loss2/relu_conv"
  type: "ReLU"
  bottom: "loss2/conv"
  top: "loss2/conv"
}
layer {
  name: "loss2/fc"
  type: "InnerProduct"
  bottom: "loss2/conv"
  top: "loss2/fc"
  param {
    lr_mult: 1
    decay_mult: 1
  }
  param {
    lr_mult: 2
    decay_mult: 0
  }
  inner_product_param {
    num_output: 1024
    weight_filler {
      type: "xavier"
      std: 0.02
    }
    bias_filler {
      type: "constant"
      value: 0.2
    }
  }
}
layer {
  name: "loss2/relu_fc"
  type: "ReLU"
  bottom: "loss2/fc"
  top: "loss2/fc"
}
layer {
  name: "loss2/drop_fc"
  type: "Dropout"
  bottom: "loss2/fc"
  top: "loss2/fc"
  dropout_param {
    dropout_ratio: 0.7
  }
}
layer {
  name: "loss2/classifier"
  type: "InnerProduct"
  bottom: "loss2/fc"
  top: "loss2/classifier"
  param {
    lr_mult: 1
    decay_mult: 1
  }
  param {
    lr_mult: 2
    decay_mult: 0
  }
  inner_product_param {
    num_output: 2
    weight_filler {
      type: "xavier"
      std: 0.0009765625
    }
    bias_filler {
      type: "constant"
      value: 0
    }
  }
}
layer {
  name: "loss2/loss"
  type: "SoftmaxWithLoss"
  bottom: "loss2/classifier"
  bottom: "label"
  top: "loss2/loss1"
  loss_weight: 0.3
}
layer {
  name: "inception_4e/1x1"
  type: "Convolution"
  bottom: "inception_4d/output"
  top: "inception_4e/1x1"
  param {
    lr_mult: 1
    decay_mult: 1
  }
  param {
    lr_mult: 2
    decay_mult: 0
  }
  convolution_param {
    num_output: 256
    kernel_size: 1
    weight_filler {
      type: "xavier"
      std: 0.03
    }
    bias_filler {
      type: "constant"
      value: 0.2
    }
  }
}
layer {
  name: "inception_4e/relu_1x1"
  type: "ReLU"
  bottom: "inception_4e/1x1"
  top: "inception_4e/1x1"
}
layer {
  name: "inception_4e/3x3_reduce"
  type: "Convolution"
  bottom: "inception_4d/output"
  top: "inception_4e/3x3_reduce"
  param {
    lr_mult: 1
    decay_mult: 1
  }
  param {
    lr_mult: 2
    decay_mult: 0
  }
  convolution_param {
    num_output: 160
    kernel_size: 1
    weight_filler {
      type: "xavier"
      std: 0.09
    }
    bias_filler {
      type: "constant"
      value: 0.2
    }
  }
}
layer {
  name: "inception_4e/relu_3x3_reduce"
  type: "ReLU"
  bottom: "inception_4e/3x3_reduce"
  top: "inception_4e/3x3_reduce"
}
layer {
  name: "inception_4e/3x3"
  type: "Convolution"
  bottom: "inception_4e/3x3_reduce"
  top: "inception_4e/3x3"
  param {
    lr_mult: 1
    decay_mult: 1
  }
  param {
    lr_mult: 2
    decay_mult: 0
  }
  convolution_param {
    num_output: 320
    pad: 1
    kernel_size: 3
    weight_filler {
      type: "xavier"
      std: 0.03
    }
    bias_filler {
      type: "constant"
      value: 0.2
    }
  }
}
layer {
  name: "inception_4e/relu_3x3"
  type: "ReLU"
  bottom: "inception_4e/3x3"
  top: "inception_4e/3x3"
}
layer {
  name: "inception_4e/5x5_reduce"
  type: "Convolution"
  bottom: "inception_4d/output"
  top: "inception_4e/5x5_reduce"
  param {
    lr_mult: 1
    decay_mult: 1
  }
  param {
    lr_mult: 2
    decay_mult: 0
  }
  convolution_param {
    num_output: 32
    kernel_size: 1
    weight_filler {
      type: "xavier"
      std: 0.2
    }
    bias_filler {
      type: "constant"
      value: 0.2
    }
  }
}
layer {
  name: "inception_4e/relu_5x5_reduce"
  type: "ReLU"
  bottom: "
I0509 23:49:01.580996 25837 layer_factory.hpp:74] Creating layer data
I0509 23:49:01.581027 25837 net.cpp:76] Creating Layer data
I0509 23:49:01.581039 25837 net.cpp:334] data -> data
I0509 23:49:01.581069 25837 net.cpp:334] data -> label
I0509 23:49:01.581089 25837 net.cpp:105] Setting up data
I0509 23:49:01.581194 25837 db.cpp:34] Opened lmdb train_lmdb
I0509 23:49:01.581508 25837 data_layer.cpp:67] output data size: 32,3,224,224
I0509 23:49:01.588719 25837 net.cpp:112] Top shape: 32 3 224 224 (4816896)
I0509 23:49:01.588745 25837 net.cpp:112] Top shape: 32 1 1 1 (32)
I0509 23:49:01.588755 25837 layer_factory.hpp:74] Creating layer label_data_1_split
I0509 23:49:01.588773 25837 net.cpp:76] Creating Layer label_data_1_split
I0509 23:49:01.588781 25837 net.cpp:372] label_data_1_split <- label
I0509 23:49:01.588799 25837 net.cpp:334] label_data_1_split -> label_data_1_split_0
I0509 23:49:01.588812 25837 net.cpp:334] label_data_1_split -> label_data_1_split_1
I0509 23:49:01.588822 25837 net.cpp:334] label_data_1_split -> label_data_1_split_2
I0509 23:49:01.588831 25837 net.cpp:105] Setting up label_data_1_split
I0509 23:49:01.588841 25837 net.cpp:112] Top shape: 32 1 1 1 (32)
I0509 23:49:01.588847 25837 net.cpp:112] Top shape: 32 1 1 1 (32)
I0509 23:49:01.588852 25837 net.cpp:112] Top shape: 32 1 1 1 (32)
I0509 23:49:01.588858 25837 layer_factory.hpp:74] Creating layer conv1/7x7_s2
I0509 23:49:01.588873 25837 net.cpp:76] Creating Layer conv1/7x7_s2
I0509 23:49:01.588881 25837 net.cpp:372] conv1/7x7_s2 <- data
I0509 23:49:01.588889 25837 net.cpp:334] conv1/7x7_s2 -> conv1/7x7_s2
I0509 23:49:01.588901 25837 net.cpp:105] Setting up conv1/7x7_s2
I0509 23:49:01.589021 25837 net.cpp:112] Top shape: 32 64 112 112 (25690112)
I0509 23:49:01.589071 25837 layer_factory.hpp:74] Creating layer conv1/relu_7x7
I0509 23:49:01.589082 25837 net.cpp:76] Creating Layer conv1/relu_7x7
I0509 23:49:01.589087 25837 net.cpp:372] conv1/relu_7x7 <- conv1/7x7_s2
I0509 23:49:01.589097 25837 net.cpp:323] conv1/relu_7x7 -> conv1/7x7_s2 (in-place)
I0509 23:49:01.589104 25837 net.cpp:105] Setting up conv1/relu_7x7
I0509 23:49:01.589113 25837 net.cpp:112] Top shape: 32 64 112 112 (25690112)
I0509 23:49:01.589119 25837 layer_factory.hpp:74] Creating layer pool1/3x3_s2
I0509 23:49:01.589129 25837 net.cpp:76] Creating Layer pool1/3x3_s2
I0509 23:49:01.589135 25837 net.cpp:372] pool1/3x3_s2 <- conv1/7x7_s2
I0509 23:49:01.589143 25837 net.cpp:334] pool1/3x3_s2 -> pool1/3x3_s2
I0509 23:49:01.589154 25837 net.cpp:105] Setting up pool1/3x3_s2
I0509 23:49:01.589169 25837 net.cpp:112] Top shape: 32 64 56 56 (6422528)
I0509 23:49:01.589174 25837 layer_factory.hpp:74] Creating layer pool1/norm1
I0509 23:49:01.589185 25837 net.cpp:76] Creating Layer pool1/norm1
I0509 23:49:01.589191 25837 net.cpp:372] pool1/norm1 <- pool1/3x3_s2
I0509 23:49:01.589198 25837 net.cpp:334] pool1/norm1 -> pool1/norm1
I0509 23:49:01.589208 25837 net.cpp:105] Setting up pool1/norm1
I0509 23:49:01.589215 25837 net.cpp:112] Top shape: 32 64 56 56 (6422528)
I0509 23:49:01.589221 25837 layer_factory.hpp:74] Creating layer conv2/3x3_reduce
I0509 23:49:01.589231 25837 net.cpp:76] Creating Layer conv2/3x3_reduce
I0509 23:49:01.589236 25837 net.cpp:372] conv2/3x3_reduce <- pool1/norm1
I0509 23:49:01.589246 25837 net.cpp:334] conv2/3x3_reduce -> conv2/3x3_reduce
I0509 23:49:01.589256 25837 net.cpp:105] Setting up conv2/3x3_reduce
I0509 23:49:01.589314 25837 net.cpp:112] Top shape: 32 64 56 56 (6422528)
I0509 23:49:01.589329 25837 layer_factory.hpp:74] Creating layer conv2/relu_3x3_reduce
I0509 23:49:01.589337 25837 net.cpp:76] Creating Layer conv2/relu_3x3_reduce
I0509 23:49:01.589344 25837 net.cpp:372] conv2/relu_3x3_reduce <- conv2/3x3_reduce
I0509 23:49:01.589351 25837 net.cpp:323] conv2/relu_3x3_reduce -> conv2/3x3_reduce (in-place)
I0509 23:49:01.589359 25837 net.cpp:105] Setting up conv2/relu_3x3_reduce
I0509 23:49:01.589365 25837 net.cpp:112] Top shape: 32 64 56 56 (6422528)
I0509 23:49:01.589371 25837 layer_factory.hpp:74] Creating layer conv2/3x3
I0509 23:49:01.589381 25837 net.cpp:76] Creating Layer conv2/3x3
I0509 23:49:01.589387 25837 net.cpp:372] conv2/3x3 <- conv2/3x3_reduce
I0509 23:49:01.589395 25837 net.cpp:334] conv2/3x3 -> conv2/3x3
I0509 23:49:01.589404 25837 net.cpp:105] Setting up conv2/3x3
I0509 23:49:01.590337 25837 net.cpp:112] Top shape: 32 192 56 56 (19267584)
I0509 23:49:01.590365 25837 layer_factory.hpp:74] Creating layer conv2/relu_3x3
I0509 23:49:01.590375 25837 net.cpp:76] Creating Layer conv2/relu_3x3
I0509 23:49:01.590383 25837 net.cpp:372] conv2/relu_3x3 <- conv2/3x3
I0509 23:49:01.590394 25837 net.cpp:323] conv2/relu_3x3 -> conv2/3x3 (in-place)
I0509 23:49:01.590404 25837 net.cpp:105] Setting up conv2/relu_3x3
I0509 23:49:01.590409 25837 net.cpp:112] Top shape: 32 192 56 56 (19267584)
I0509 23:49:01.590415 25837 layer_factory.hpp:74] Creating layer conv2/norm2
I0509 23:49:01.590423 25837 net.cpp:76] Creating Layer conv2/norm2
I0509 23:49:01.590430 25837 net.cpp:372] conv2/norm2 <- conv2/3x3
I0509 23:49:01.590440 25837 net.cpp:334] conv2/norm2 -> conv2/norm2
I0509 23:49:01.590448 25837 net.cpp:105] Setting up conv2/norm2
I0509 23:49:01.590456 25837 net.cpp:112] Top shape: 32 192 56 56 (19267584)
I0509 23:49:01.590461 25837 layer_factory.hpp:74] Creating layer pool2/3x3_s2
I0509 23:49:01.590473 25837 net.cpp:76] Creating Layer pool2/3x3_s2
I0509 23:49:01.590484 25837 net.cpp:372] pool2/3x3_s2 <- conv2/norm2
I0509 23:49:01.590500 25837 net.cpp:334] pool2/3x3_s2 -> pool2/3x3_s2
I0509 23:49:01.590518 25837 net.cpp:105] Setting up pool2/3x3_s2
I0509 23:49:01.590528 25837 net.cpp:112] Top shape: 32 192 28 28 (4816896)
I0509 23:49:01.590534 25837 layer_factory.hpp:74] Creating layer pool2/3x3_s2_pool2/3x3_s2_0_split
I0509 23:49:01.590558 25837 net.cpp:76] Creating Layer pool2/3x3_s2_pool2/3x3_s2_0_split
I0509 23:49:01.590586 25837 net.cpp:372] pool2/3x3_s2_pool2/3x3_s2_0_split <- pool2/3x3_s2
I0509 23:49:01.590595 25837 net.cpp:334] pool2/3x3_s2_pool2/3x3_s2_0_split -> pool2/3x3_s2_pool2/3x3_s2_0_split_0
I0509 23:49:01.590605 25837 net.cpp:334] pool2/3x3_s2_pool2/3x3_s2_0_split -> pool2/3x3_s2_pool2/3x3_s2_0_split_1
I0509 23:49:01.590615 25837 net.cpp:334] pool2/3x3_s2_pool2/3x3_s2_0_split -> pool2/3x3_s2_pool2/3x3_s2_0_split_2
I0509 23:49:01.590628 25837 net.cpp:334] pool2/3x3_s2_pool2/3x3_s2_0_split -> pool2/3x3_s2_pool2/3x3_s2_0_split_3
I0509 23:49:01.590636 25837 net.cpp:105] Setting up pool2/3x3_s2_pool2/3x3_s2_0_split
I0509 23:49:01.590643 25837 net.cpp:112] Top shape: 32 192 28 28 (4816896)
I0509 23:49:01.590649 25837 net.cpp:112] Top shape: 32 192 28 28 (4816896)
I0509 23:49:01.590654 25837 net.cpp:112] Top shape: 32 192 28 28 (4816896)
I0509 23:49:01.590659 25837 net.cpp:112] Top shape: 32 192 28 28 (4816896)
I0509 23:49:01.590665 25837 layer_factory.hpp:74] Creating layer inception_3a/1x1
I0509 23:49:01.590677 25837 net.cpp:76] Creating Layer inception_3a/1x1
I0509 23:49:01.590683 25837 net.cpp:372] inception_3a/1x1 <- pool2/3x3_s2_pool2/3x3_s2_0_split_0
I0509 23:49:01.590694 25837 net.cpp:334] inception_3a/1x1 -> inception_3a/1x1
I0509 23:49:01.590706 25837 net.cpp:105] Setting up inception_3a/1x1
I0509 23:49:01.590893 25837 net.cpp:112] Top shape: 32 64 28 28 (1605632)
I0509 23:49:01.590915 25837 layer_factory.hpp:74] Creating layer inception_3a/relu_1x1
I0509 23:49:01.590924 25837 net.cpp:76] Creating Layer inception_3a/relu_1x1
I0509 23:49:01.590931 25837 net.cpp:372] inception_3a/relu_1x1 <- inception_3a/1x1
I0509 23:49:01.590942 25837 net.cpp:323] inception_3a/relu_1x1 -> inception_3a/1x1 (in-place)
I0509 23:49:01.590951 25837 net.cpp:105] Setting up inception_3a/relu_1x1
I0509 23:49:01.590957 25837 net.cpp:112] Top shape: 32 64 28 28 (1605632)
I0509 23:49:01.590963 25837 layer_factory.hpp:74] Creating layer inception_3a/3x3_reduce
I0509 23:49:01.590972 25837 net.cpp:76] Creating Layer inception_3a/3x3_reduce
I0509 23:49:01.590978 25837 net.cpp:372] inception_3a/3x3_reduce <- pool2/3x3_s2_pool2/3x3_s2_0_split_1
I0509 23:49:01.590999 25837 net.cpp:334] inception_3a/3x3_reduce -> inception_3a/3x3_reduce
I0509 23:49:01.591012 25837 net.cpp:105] Setting up inception_3a/3x3_reduce
I0509 23:49:01.591298 25837 net.cpp:112] Top shape: 32 96 28 28 (2408448)
I0509 23:49:01.591328 25837 layer_factory.hpp:74] Creating layer inception_3a/relu_3x3_reduce
I0509 23:49:01.591339 25837 net.cpp:76] Creating Layer inception_3a/relu_3x3_reduce
I0509 23:49:01.591349 25837 net.cpp:372] inception_3a/relu_3x3_reduce <- inception_3a/3x3_reduce
I0509 23:49:01.591357 25837 net.cpp:323] inception_3a/relu_3x3_reduce -> inception_3a/3x3_reduce (in-place)
I0509 23:49:01.591366 25837 net.cpp:105] Setting up inception_3a/relu_3x3_reduce
I0509 23:49:01.591372 25837 net.cpp:112] Top shape: 32 96 28 28 (2408448)
I0509 23:49:01.591377 25837 layer_factory.hpp:74] Creating layer inception_3a/3x3
I0509 23:49:01.591387 25837 net.cpp:76] Creating Layer inception_3a/3x3
I0509 23:49:01.591392 25837 net.cpp:372] inception_3a/3x3 <- inception_3a/3x3_reduce
I0509 23:49:01.591403 25837 net.cpp:334] inception_3a/3x3 -> inception_3a/3x3
I0509 23:49:01.591413 25837 net.cpp:105] Setting up inception_3a/3x3
I0509 23:49:01.592381 25837 net.cpp:112] Top shape: 32 128 28 28 (3211264)
I0509 23:49:01.592397 25837 layer_factory.hpp:74] Creating layer inception_3a/relu_3x3
I0509 23:49:01.592406 25837 net.cpp:76] Creating Layer inception_3a/relu_3x3
I0509 23:49:01.592411 25837 net.cpp:372] inception_3a/relu_3x3 <- inception_3a/3x3
I0509 23:49:01.592419 25837 net.cpp:323] inception_3a/relu_3x3 -> inception_3a/3x3 (in-place)
I0509 23:49:01.592429 25837 net.cpp:105] Setting up inception_3a/relu_3x3
I0509 23:49:01.592435 25837 net.cpp:112] Top shape: 32 128 28 28 (3211264)
I0509 23:49:01.592442 25837 layer_factory.hpp:74] Creating layer inception_3a/5x5_reduce
I0509 23:49:01.592450 25837 net.cpp:76] Creating Layer inception_3a/5x5_reduce
I0509 23:49:01.592473 25837 net.cpp:372] inception_3a/5x5_reduce <- pool2/3x3_s2_pool2/3x3_s2_0_split_2
I0509 23:49:01.592483 25837 net.cpp:334] inception_3a/5x5_reduce -> inception_3a/5x5_reduce
I0509 23:49:01.592496 25837 net.cpp:105] Setting up inception_3a/5x5_reduce
I0509 23:49:01.592603 25837 net.cpp:112] Top shape: 32 16 28 28 (401408)
I0509 23:49:01.592622 25837 layer_factory.hpp:74] Creating layer inception_3a/relu_5x5_reduce
I0509 23:49:01.592630 25837 net.cpp:76] Creating Layer inception_3a/relu_5x5_reduce
I0509 23:49:01.592638 25837 net.cpp:372] inception_3a/relu_5x5_reduce <- inception_3a/5x5_reduce
I0509 23:49:01.592650 25837 net.cpp:323] inception_3a/relu_5x5_reduce -> inception_3a/5x5_reduce (in-place)
I0509 23:49:01.592659 25837 net.cpp:105] Setting up inception_3a/relu_5x5_reduce
I0509 23:49:01.592665 25837 net.cpp:112] Top shape: 32 16 28 28 (401408)
I0509 23:49:01.592671 25837 layer_factory.hpp:74] Creating layer inception_3a/5x5
I0509 23:49:01.592680 25837 net.cpp:76] Creating Layer inception_3a/5x5
I0509 23:49:01.592685 25837 net.cpp:372] inception_3a/5x5 <- inception_3a/5x5_reduce
I0509 23:49:01.592696 25837 net.cpp:334] inception_3a/5x5 -> inception_3a/5x5
I0509 23:49:01.592705 25837 net.cpp:105] Setting up inception_3a/5x5
I0509 23:49:01.592823 25837 net.cpp:112] Top shape: 32 32 28 28 (802816)
I0509 23:49:01.592836 25837 layer_factory.hpp:74] Creating layer inception_3a/relu_5x5
I0509 23:49:01.592844 25837 net.cpp:76] Creating Layer inception_3a/relu_5x5
I0509 23:49:01.592850 25837 net.cpp:372] inception_3a/relu_5x5 <- inception_3a/5x5
I0509 23:49:01.592861 25837 net.cpp:323] inception_3a/relu_5x5 -> inception_3a/5x5 (in-place)
I0509 23:49:01.592869 25837 net.cpp:105] Setting up inception_3a/relu_5x5
I0509 23:49:01.592875 25837 net.cpp:112] Top shape: 32 32 28 28 (802816)
I0509 23:49:01.592880 25837 layer_factory.hpp:74] Creating layer inception_3a/pool
I0509 23:49:01.592888 25837 net.cpp:76] Creating Layer inception_3a/pool
I0509 23:49:01.592895 25837 net.cpp:372] inception_3a/pool <- pool2/3x3_s2_pool2/3x3_s2_0_split_3
I0509 23:49:01.592902 25837 net.cpp:334] inception_3a/pool -> inception_3a/pool
I0509 23:49:01.592911 25837 net.cpp:105] Setting up inception_3a/pool
I0509 23:49:01.592918 25837 net.cpp:112] Top shape: 32 192 28 28 (4816896)
I0509 23:49:01.592924 25837 layer_factory.hpp:74] Creating layer inception_3a/pool_proj
I0509 23:49:01.592934 25837 net.cpp:76] Creating Layer inception_3a/pool_proj
I0509 23:49:01.592944 25837 net.cpp:372] inception_3a/pool_proj <- inception_3a/pool
I0509 23:49:01.592953 25837 net.cpp:334] inception_3a/pool_proj -> inception_3a/pool_proj
I0509 23:49:01.592962 25837 net.cpp:105] Setting up inception_3a/pool_proj
I0509 23:49:01.593101 25837 net.cpp:112] Top shape: 32 32 28 28 (802816)
I0509 23:49:01.593122 25837 layer_factory.hpp:74] Creating layer inception_3a/relu_pool_proj
I0509 23:49:01.593132 25837 net.cpp:76] Creating Layer inception_3a/relu_pool_proj
I0509 23:49:01.593138 25837 net.cpp:372] inception_3a/relu_pool_proj <- inception_3a/pool_proj
I0509 23:49:01.593147 25837 net.cpp:323] inception_3a/relu_pool_proj -> inception_3a/pool_proj (in-place)
I0509 23:49:01.593154 25837 net.cpp:105] Setting up inception_3a/relu_pool_proj
I0509 23:49:01.593160 25837 net.cpp:112] Top shape: 32 32 28 28 (802816)
I0509 23:49:01.593166 25837 layer_factory.hpp:74] Creating layer inception_3a/output
I0509 23:49:01.593176 25837 net.cpp:76] Creating Layer inception_3a/output
I0509 23:49:01.593183 25837 net.cpp:372] inception_3a/output <- inception_3a/1x1
I0509 23:49:01.593189 25837 net.cpp:372] inception_3a/output <- inception_3a/3x3
I0509 23:49:01.593196 25837 net.cpp:372] inception_3a/output <- inception_3a/5x5
I0509 23:49:01.593202 25837 net.cpp:372] inception_3a/output <- inception_3a/pool_proj
I0509 23:49:01.593212 25837 net.cpp:334] inception_3a/output -> inception_3a/output
I0509 23:49:01.593221 25837 net.cpp:105] Setting up inception_3a/output
I0509 23:49:01.593230 25837 net.cpp:112] Top shape: 32 256 28 28 (6422528)
I0509 23:49:01.593238 25837 layer_factory.hpp:74] Creating layer inception_3a/output_inception_3a/output_0_split
I0509 23:49:01.593257 25837 net.cpp:76] Creating Layer inception_3a/output_inception_3a/output_0_split
I0509 23:49:01.593263 25837 net.cpp:372] inception_3a/output_inception_3a/output_0_split <- inception_3a/output
I0509 23:49:01.593283 25837 net.cpp:334] inception_3a/output_inception_3a/output_0_split -> inception_3a/output_inception_3a/output_0_split_0
I0509 23:49:01.593297 25837 net.cpp:334] inception_3a/output_inception_3a/output_0_split -> inception_3a/output_inception_3a/output_0_split_1
I0509 23:49:01.593307 25837 net.cpp:334] inception_3a/output_inception_3a/output_0_split -> inception_3a/output_inception_3a/output_0_split_2
I0509 23:49:01.593317 25837 net.cpp:334] inception_3a/output_inception_3a/output_0_split -> inception_3a/output_inception_3a/output_0_split_3
I0509 23:49:01.593324 25837 net.cpp:105] Setting up inception_3a/output_inception_3a/output_0_split
I0509 23:49:01.593332 25837 net.cpp:112] Top shape: 32 256 28 28 (6422528)
I0509 23:49:01.593338 25837 net.cpp:112] Top shape: 32 256 28 28 (6422528)
I0509 23:49:01.593343 25837 net.cpp:112] Top shape: 32 256 28 28 (6422528)
I0509 23:49:01.593348 25837 net.cpp:112] Top shape: 32 256 28 28 (6422528)
I0509 23:49:01.593353 25837 layer_factory.hpp:74] Creating layer inception_3b/1x1
I0509 23:49:01.593363 25837 net.cpp:76] Creating Layer inception_3b/1x1
I0509 23:49:01.593369 25837 net.cpp:372] inception_3b/1x1 <- inception_3a/output_inception_3a/output_0_split_0
I0509 23:49:01.593379 25837 net.cpp:334] inception_3b/1x1 -> inception_3b/1x1
I0509 23:49:01.593389 25837 net.cpp:105] Setting up inception_3b/1x1
I0509 23:49:01.593703 25837 net.cpp:112] Top shape: 32 128 28 28 (3211264)
I0509 23:49:01.593719 25837 layer_factory.hpp:74] Creating layer inception_3b/relu_1x1
I0509 23:49:01.593729 25837 net.cpp:76] Creating Layer inception_3b/relu_1x1
I0509 23:49:01.593735 25837 net.cpp:372] inception_3b/relu_1x1 <- inception_3b/1x1
I0509 23:49:01.593744 25837 net.cpp:323] inception_3b/relu_1x1 -> inception_3b/1x1 (in-place)
I0509 23:49:01.593751 25837 net.cpp:105] Setting up inception_3b/relu_1x1
I0509 23:49:01.593757 25837 net.cpp:112] Top shape: 32 128 28 28 (3211264)
I0509 23:49:01.593762 25837 layer_factory.hpp:74] Creating layer inception_3b/3x3_reduce
I0509 23:49:01.593771 25837 net.cpp:76] Creating Layer inception_3b/3x3_reduce
I0509 23:49:01.593777 25837 net.cpp:372] inception_3b/3x3_reduce <- inception_3a/output_inception_3a/output_0_split_1
I0509 23:49:01.593788 25837 net.cpp:334] inception_3b/3x3_reduce -> inception_3b/3x3_reduce
I0509 23:49:01.593797 25837 net.cpp:105] Setting up inception_3b/3x3_reduce
I0509 23:49:01.594419 25837 net.cpp:112] Top shape: 32 128 28 28 (3211264)
I0509 23:49:01.594434 25837 layer_factory.hpp:74] Creating layer inception_3b/relu_3x3_reduce
I0509 23:49:01.594442 25837 net.cpp:76] Creating Layer inception_3b/relu_3x3_reduce
I0509 23:49:01.594449 25837 net.cpp:372] inception_3b/relu_3x3_reduce <- inception_3b/3x3_reduce
I0509 23:49:01.594458 25837 net.cpp:323] inception_3b/relu_3x3_reduce -> inception_3b/3x3_reduce (in-place)
I0509 23:49:01.594467 25837 net.cpp:105] Setting up inception_3b/relu_3x3_reduce
I0509 23:49:01.594473 25837 net.cpp:112] Top shape: 32 128 28 28 (3211264)
I0509 23:49:01.594480 25837 layer_factory.hpp:74] Creating layer inception_3b/3x3
I0509 23:49:01.594491 25837 net.cpp:76] Creating Layer inception_3b/3x3
I0509 23:49:01.594499 25837 net.cpp:372] inception_3b/3x3 <- inception_3b/3x3_reduce
I0509 23:49:01.594511 25837 net.cpp:334] inception_3b/3x3 -> inception_3b/3x3
I0509 23:49:01.594521 25837 net.cpp:105] Setting up inception_3b/3x3
I0509 23:49:01.597321 25837 net.cpp:112] Top shape: 32 192 28 28 (4816896)
I0509 23:49:01.597342 25837 layer_factory.hpp:74] Creating layer inception_3b/relu_3x3
I0509 23:49:01.597353 25837 net.cpp:76] Creating Layer inception_3b/relu_3x3
I0509 23:49:01.597362 25837 net.cpp:372] inception_3b/relu_3x3 <- inception_3b/3x3
I0509 23:49:01.597374 25837 net.cpp:323] inception_3b/relu_3x3 -> inception_3b/3x3 (in-place)
I0509 23:49:01.597410 25837 net.cpp:105] Setting up inception_3b/relu_3x3
I0509 23:49:01.597417 25837 net.cpp:112] Top shape: 32 192 28 28 (4816896)
I0509 23:49:01.597424 25837 layer_factory.hpp:74] Creating layer inception_3b/5x5_reduce
I0509 23:49:01.597434 25837 net.cpp:76] Creating Layer inception_3b/5x5_reduce
I0509 23:49:01.597441 25837 net.cpp:372] inception_3b/5x5_reduce <- inception_3a/output_inception_3a/output_0_split_2
I0509 23:49:01.597455 25837 net.cpp:334] inception_3b/5x5_reduce -> inception_3b/5x5_reduce
I0509 23:49:01.597465 25837 net.cpp:105] Setting up inception_3b/5x5_reduce
I0509 23:49:01.597553 25837 net.cpp:112] Top shape: 32 32 28 28 (802816)
I0509 23:49:01.597563 25837 layer_factory.hpp:74] Creating layer inception_3b/relu_5x5_reduce
I0509 23:49:01.597571 25837 net.cpp:76] Creating Layer inception_3b/relu_5x5_reduce
I0509 23:49:01.597578 25837 net.cpp:372] inception_3b/relu_5x5_reduce <- inception_3b/5x5_reduce
I0509 23:49:01.597585 25837 net.cpp:323] inception_3b/relu_5x5_reduce -> inception_3b/5x5_reduce (in-place)
I0509 23:49:01.597595 25837 net.cpp:105] Setting up inception_3b/relu_5x5_reduce
I0509 23:49:01.597601 25837 net.cpp:112] Top shape: 32 32 28 28 (802816)
I0509 23:49:01.597607 25837 layer_factory.hpp:74] Creating layer inception_3b/5x5
I0509 23:49:01.597616 25837 net.cpp:76] Creating Layer inception_3b/5x5
I0509 23:49:01.597621 25837 net.cpp:372] inception_3b/5x5 <- inception_3b/5x5_reduce
I0509 23:49:01.597630 25837 net.cpp:334] inception_3b/5x5 -> inception_3b/5x5
I0509 23:49:01.597645 25837 net.cpp:105] Setting up inception_3b/5x5
I0509 23:49:01.598402 25837 net.cpp:112] Top shape: 32 96 28 28 (2408448)
I0509 23:49:01.598420 25837 layer_factory.hpp:74] Creating layer inception_3b/relu_5x5
I0509 23:49:01.598429 25837 net.cpp:76] Creating Layer inception_3b/relu_5x5
I0509 23:49:01.598436 25837 net.cpp:372] inception_3b/relu_5x5 <- inception_3b/5x5
I0509 23:49:01.598446 25837 net.cpp:323] inception_3b/relu_5x5 -> inception_3b/5x5 (in-place)
I0509 23:49:01.598455 25837 net.cpp:105] Setting up inception_3b/relu_5x5
I0509 23:49:01.598461 25837 net.cpp:112] Top shape: 32 96 28 28 (2408448)
I0509 23:49:01.598467 25837 layer_factory.hpp:74] Creating layer inception_3b/pool
I0509 23:49:01.598475 25837 net.cpp:76] Creating Layer inception_3b/pool
I0509 23:49:01.598489 25837 net.cpp:372] inception_3b/pool <- inception_3a/output_inception_3a/output_0_split_3
I0509 23:49:01.598500 25837 net.cpp:334] inception_3b/pool -> inception_3b/pool
I0509 23:49:01.598507 25837 net.cpp:105] Setting up inception_3b/pool
I0509 23:49:01.598515 25837 net.cpp:112] Top shape: 32 256 28 28 (6422528)
I0509 23:49:01.598521 25837 layer_factory.hpp:74] Creating layer inception_3b/pool_proj
I0509 23:49:01.598534 25837 net.cpp:76] Creating Layer inception_3b/pool_proj
I0509 23:49:01.598541 25837 net.cpp:372] inception_3b/pool_proj <- inception_3b/pool
I0509 23:49:01.598548 25837 net.cpp:334] inception_3b/pool_proj -> inception_3b/pool_proj
I0509 23:49:01.598561 25837 net.cpp:105] Setting up inception_3b/pool_proj
I0509 23:49:01.598721 25837 net.cpp:112] Top shape: 32 64 28 28 (1605632)
I0509 23:49:01.598736 25837 layer_factory.hpp:74] Creating layer inception_3b/relu_pool_proj
I0509 23:49:01.598744 25837 net.cpp:76] Creating Layer inception_3b/relu_pool_proj
I0509 23:49:01.598750 25837 net.cpp:372] inception_3b/relu_pool_proj <- inception_3b/pool_proj
I0509 23:49:01.598757 25837 net.cpp:323] inception_3b/relu_pool_proj -> inception_3b/pool_proj (in-place)
I0509 23:49:01.598768 25837 net.cpp:105] Setting up inception_3b/relu_pool_proj
I0509 23:49:01.598774 25837 net.cpp:112] Top shape: 32 64 28 28 (1605632)
I0509 23:49:01.598780 25837 layer_factory.hpp:74] Creating layer inception_3b/output
I0509 23:49:01.598788 25837 net.cpp:76] Creating Layer inception_3b/output
I0509 23:49:01.598794 25837 net.cpp:372] inception_3b/output <- inception_3b/1x1
I0509 23:49:01.598801 25837 net.cpp:372] inception_3b/output <- inception_3b/3x3
I0509 23:49:01.598808 25837 net.cpp:372] inception_3b/output <- inception_3b/5x5
I0509 23:49:01.598830 25837 net.cpp:372] inception_3b/output <- inception_3b/pool_proj
I0509 23:49:01.598841 25837 net.cpp:334] inception_3b/output -> inception_3b/output
I0509 23:49:01.598850 25837 net.cpp:105] Setting up inception_3b/output
I0509 23:49:01.598857 25837 net.cpp:112] Top shape: 32 480 28 28 (12042240)
I0509 23:49:01.598863 25837 layer_factory.hpp:74] Creating layer pool3/3x3_s2
I0509 23:49:01.598871 25837 net.cpp:76] Creating Layer pool3/3x3_s2
I0509 23:49:01.598877 25837 net.cpp:372] pool3/3x3_s2 <- inception_3b/output
I0509 23:49:01.598886 25837 net.cpp:334] pool3/3x3_s2 -> pool3/3x3_s2
I0509 23:49:01.598893 25837 net.cpp:105] Setting up pool3/3x3_s2
I0509 23:49:01.598901 25837 net.cpp:112] Top shape: 32 480 14 14 (3010560)
I0509 23:49:01.598906 25837 layer_factory.hpp:74] Creating layer pool3/3x3_s2_pool3/3x3_s2_0_split
I0509 23:49:01.598917 25837 net.cpp:76] Creating Layer pool3/3x3_s2_pool3/3x3_s2_0_split
I0509 23:49:01.598922 25837 net.cpp:372] pool3/3x3_s2_pool3/3x3_s2_0_split <- pool3/3x3_s2
I0509 23:49:01.598929 25837 net.cpp:334] pool3/3x3_s2_pool3/3x3_s2_0_split -> pool3/3x3_s2_pool3/3x3_s2_0_split_0
I0509 23:49:01.598938 25837 net.cpp:334] pool3/3x3_s2_pool3/3x3_s2_0_split -> pool3/3x3_s2_pool3/3x3_s2_0_split_1
I0509 23:49:01.598948 25837 net.cpp:334] pool3/3x3_s2_pool3/3x3_s2_0_split -> pool3/3x3_s2_pool3/3x3_s2_0_split_2
I0509 23:49:01.598956 25837 net.cpp:334] pool3/3x3_s2_pool3/3x3_s2_0_split -> pool3/3x3_s2_pool3/3x3_s2_0_split_3
I0509 23:49:01.598964 25837 net.cpp:105] Setting up pool3/3x3_s2_pool3/3x3_s2_0_split
I0509 23:49:01.598971 25837 net.cpp:112] Top shape: 32 480 14 14 (3010560)
I0509 23:49:01.598976 25837 net.cpp:112] Top shape: 32 480 14 14 (3010560)
I0509 23:49:01.598983 25837 net.cpp:112] Top shape: 32 480 14 14 (3010560)
I0509 23:49:01.598987 25837 net.cpp:112] Top shape: 32 480 14 14 (3010560)
I0509 23:49:01.598992 25837 layer_factory.hpp:74] Creating layer inception_4a/1x1
I0509 23:49:01.599004 25837 net.cpp:76] Creating Layer inception_4a/1x1
I0509 23:49:01.599009 25837 net.cpp:372] inception_4a/1x1 <- pool3/3x3_s2_pool3/3x3_s2_0_split_0
I0509 23:49:01.599020 25837 net.cpp:334] inception_4a/1x1 -> inception_4a/1x1
I0509 23:49:01.599030 25837 net.cpp:105] Setting up inception_4a/1x1
I0509 23:49:01.599833 25837 net.cpp:112] Top shape: 32 192 14 14 (1204224)
I0509 23:49:01.599848 25837 layer_factory.hpp:74] Creating layer inception_4a/relu_1x1
I0509 23:49:01.599858 25837 net.cpp:76] Creating Layer inception_4a/relu_1x1
I0509 23:49:01.599864 25837 net.cpp:372] inception_4a/relu_1x1 <- inception_4a/1x1
I0509 23:49:01.599874 25837 net.cpp:323] inception_4a/relu_1x1 -> inception_4a/1x1 (in-place)
I0509 23:49:01.599882 25837 net.cpp:105] Setting up inception_4a/relu_1x1
I0509 23:49:01.599887 25837 net.cpp:112] Top shape: 32 192 14 14 (1204224)
I0509 23:49:01.599894 25837 layer_factory.hpp:74] Creating layer inception_4a/3x3_reduce
I0509 23:49:01.599902 25837 net.cpp:76] Creating Layer inception_4a/3x3_reduce
I0509 23:49:01.599908 25837 net.cpp:372] inception_4a/3x3_reduce <- pool3/3x3_s2_pool3/3x3_s2_0_split_1
I0509 23:49:01.599917 25837 net.cpp:334] inception_4a/3x3_reduce -> inception_4a/3x3_reduce
I0509 23:49:01.599926 25837 net.cpp:105] Setting up inception_4a/3x3_reduce
I0509 23:49:01.600350 25837 net.cpp:112] Top shape: 32 96 14 14 (602112)
I0509 23:49:01.600371 25837 layer_factory.hpp:74] Creating layer inception_4a/relu_3x3_reduce
I0509 23:49:01.600380 25837 net.cpp:76] Creating Layer inception_4a/relu_3x3_reduce
I0509 23:49:01.600386 25837 net.cpp:372] inception_4a/relu_3x3_reduce <- inception_4a/3x3_reduce
I0509 23:49:01.600397 25837 net.cpp:323] inception_4a/relu_3x3_reduce -> inception_4a/3x3_reduce (in-place)
I0509 23:49:01.600406 25837 net.cpp:105] Setting up inception_4a/relu_3x3_reduce
I0509 23:49:01.600412 25837 net.cpp:112] Top shape: 32 96 14 14 (602112)
I0509 23:49:01.600419 25837 layer_factory.hpp:74] Creating layer inception_4a/3x3
I0509 23:49:01.600427 25837 net.cpp:76] Creating Layer inception_4a/3x3
I0509 23:49:01.600433 25837 net.cpp:372] inception_4a/3x3 <- inception_4a/3x3_reduce
I0509 23:49:01.600457 25837 net.cpp:334] inception_4a/3x3 -> inception_4a/3x3
I0509 23:49:01.600467 25837 net.cpp:105] Setting up inception_4a/3x3
I0509 23:49:01.601989 25837 net.cpp:112] Top shape: 32 208 14 14 (1304576)
I0509 23:49:01.602006 25837 layer_factory.hpp:74] Creating layer inception_4a/relu_3x3
I0509 23:49:01.602015 25837 net.cpp:76] Creating Layer inception_4a/relu_3x3
I0509 23:49:01.602042 25837 net.cpp:372] inception_4a/relu_3x3 <- inception_4a/3x3
I0509 23:49:01.602051 25837 net.cpp:323] inception_4a/relu_3x3 -> inception_4a/3x3 (in-place)
I0509 23:49:01.602061 25837 net.cpp:105] Setting up inception_4a/relu_3x3
I0509 23:49:01.602066 25837 net.cpp:112] Top shape: 32 208 14 14 (1304576)
I0509 23:49:01.602072 25837 layer_factory.hpp:74] Creating layer inception_4a/5x5_reduce
I0509 23:49:01.602083 25837 net.cpp:76] Creating Layer inception_4a/5x5_reduce
I0509 23:49:01.602089 25837 net.cpp:372] inception_4a/5x5_reduce <- pool3/3x3_s2_pool3/3x3_s2_0_split_2
I0509 23:49:01.602098 25837 net.cpp:334] inception_4a/5x5_reduce -> inception_4a/5x5_reduce
I0509 23:49:01.602109 25837 net.cpp:105] Setting up inception_4a/5x5_reduce
I0509 23:49:01.602182 25837 net.cpp:112] Top shape: 32 16 14 14 (100352)
I0509 23:49:01.602193 25837 layer_factory.hpp:74] Creating layer inception_4a/relu_5x5_reduce
I0509 23:49:01.602200 25837 net.cpp:76] Creating Layer inception_4a/relu_5x5_reduce
I0509 23:49:01.602206 25837 net.cpp:372] inception_4a/relu_5x5_reduce <- inception_4a/5x5_reduce
I0509 23:49:01.602216 25837 net.cpp:323] inception_4a/relu_5x5_reduce -> inception_4a/5x5_reduce (in-place)
I0509 23:49:01.602223 25837 net.cpp:105] Setting up inception_4a/relu_5x5_reduce
I0509 23:49:01.602229 25837 net.cpp:112] Top shape: 32 16 14 14 (100352)
I0509 23:49:01.602242 25837 layer_factory.hpp:74] Creating layer inception_4a/5x5
I0509 23:49:01.602253 25837 net.cpp:76] Creating Layer inception_4a/5x5
I0509 23:49:01.602259 25837 net.cpp:372] inception_4a/5x5 <- inception_4a/5x5_reduce
I0509 23:49:01.602283 25837 net.cpp:334] inception_4a/5x5 -> inception_4a/5x5
I0509 23:49:01.602296 25837 net.cpp:105] Setting up inception_4a/5x5
I0509 23:49:01.602479 25837 net.cpp:112] Top shape: 32 48 14 14 (301056)
I0509 23:49:01.602491 25837 layer_factory.hpp:74] Creating layer inception_4a/relu_5x5
I0509 23:49:01.602499 25837 net.cpp:76] Creating Layer inception_4a/relu_5x5
I0509 23:49:01.602505 25837 net.cpp:372] inception_4a/relu_5x5 <- inception_4a/5x5
I0509 23:49:01.602515 25837 net.cpp:323] inception_4a/relu_5x5 -> inception_4a/5x5 (in-place)
I0509 23:49:01.602522 25837 net.cpp:105] Setting up inception_4a/relu_5x5
I0509 23:49:01.602529 25837 net.cpp:112] Top shape: 32 48 14 14 (301056)
I0509 23:49:01.602535 25837 layer_factory.hpp:74] Creating layer inception_4a/pool
I0509 23:49:01.602542 25837 net.cpp:76] Creating Layer inception_4a/pool
I0509 23:49:01.602548 25837 net.cpp:372] inception_4a/pool <- pool3/3x3_s2_pool3/3x3_s2_0_split_3
I0509 23:49:01.602556 25837 net.cpp:334] inception_4a/pool -> inception_4a/pool
I0509 23:49:01.602565 25837 net.cpp:105] Setting up inception_4a/pool
I0509 23:49:01.602572 25837 net.cpp:112] Top shape: 32 480 14 14 (3010560)
I0509 23:49:01.602578 25837 layer_factory.hpp:74] Creating layer inception_4a/pool_proj
I0509 23:49:01.602589 25837 net.cpp:76] Creating Layer inception_4a/pool_proj
I0509 23:49:01.602598 25837 net.cpp:372] inception_4a/pool_proj <- inception_4a/pool
I0509 23:49:01.602608 25837 net.cpp:334] inception_4a/pool_proj -> inception_4a/pool_proj
I0509 23:49:01.602617 25837 net.cpp:105] Setting up inception_4a/pool_proj
I0509 23:49:01.602946 25837 net.cpp:112] Top shape: 32 64 14 14 (401408)
I0509 23:49:01.602962 25837 layer_factory.hpp:74] Creating layer inception_4a/relu_pool_proj
I0509 23:49:01.602973 25837 net.cpp:76] Creating Layer inception_4a/relu_pool_proj
I0509 23:49:01.602979 25837 net.cpp:372] inception_4a/relu_pool_proj <- inception_4a/pool_proj
I0509 23:49:01.602988 25837 net.cpp:323] inception_4a/relu_pool_proj -> inception_4a/pool_proj (in-place)
I0509 23:49:01.603024 25837 net.cpp:105] Setting up inception_4a/relu_pool_proj
I0509 23:49:01.603030 25837 net.cpp:112] Top shape: 32 64 14 14 (401408)
I0509 23:49:01.603037 25837 layer_factory.hpp:74] Creating layer inception_4a/output
I0509 23:49:01.603045 25837 net.cpp:76] Creating Layer inception_4a/output
I0509 23:49:01.603051 25837 net.cpp:372] inception_4a/output <- inception_4a/1x1
I0509 23:49:01.603832 25837 net.cpp:372] inception_4a/output <- inception_4a/3x3
I0509 23:49:01.603840 25837 net.cpp:372] inception_4a/output <- inception_4a/5x5
I0509 23:49:01.603847 25837 net.cpp:372] inception_4a/output <- inception_4a/pool_proj
I0509 23:49:01.603859 25837 net.cpp:334] inception_4a/output -> inception_4a/output
I0509 23:49:01.603869 25837 net.cpp:105] Setting up inception_4a/output
I0509 23:49:01.603876 25837 net.cpp:112] Top shape: 32 512 14 14 (3211264)
I0509 23:49:01.603883 25837 layer_factory.hpp:74] Creating layer inception_4a/output_inception_4a/output_0_split
I0509 23:49:01.603891 25837 net.cpp:76] Creating Layer inception_4a/output_inception_4a/output_0_split
I0509 23:49:01.603898 25837 net.cpp:372] inception_4a/output_inception_4a/output_0_split <- inception_4a/output
I0509 23:49:01.603905 25837 net.cpp:334] inception_4a/output_inception_4a/output_0_split -> inception_4a/output_inception_4a/output_0_split_0
I0509 23:49:01.603914 25837 net.cpp:334] inception_4a/output_inception_4a/output_0_split -> inception_4a/output_inception_4a/output_0_split_1
I0509 23:49:01.603924 25837 net.cpp:334] inception_4a/output_inception_4a/output_0_split -> inception_4a/output_inception_4a/output_0_split_2
I0509 23:49:01.603938 25837 net.cpp:334] inception_4a/output_inception_4a/output_0_split -> inception_4a/output_inception_4a/output_0_split_3
I0509 23:49:01.603948 25837 net.cpp:334] inception_4a/output_inception_4a/output_0_split -> inception_4a/output_inception_4a/output_0_split_4
I0509 23:49:01.603957 25837 net.cpp:105] Setting up inception_4a/output_inception_4a/output_0_split
I0509 23:49:01.603965 25837 net.cpp:112] Top shape: 32 512 14 14 (3211264)
I0509 23:49:01.603971 25837 net.cpp:112] Top shape: 32 512 14 14 (3211264)
I0509 23:49:01.603976 25837 net.cpp:112] Top shape: 32 512 14 14 (3211264)
I0509 23:49:01.603981 25837 net.cpp:112] Top shape: 32 512 14 14 (3211264)
I0509 23:49:01.603986 25837 net.cpp:112] Top shape: 32 512 14 14 (3211264)
I0509 23:49:01.603991 25837 layer_factory.hpp:74] Creating layer loss1/ave_pool
I0509 23:49:01.603998 25837 net.cpp:76] Creating Layer loss1/ave_pool
I0509 23:49:01.604004 25837 net.cpp:372] loss1/ave_pool <- inception_4a/output_inception_4a/output_0_split_0
I0509 23:49:01.604014 25837 net.cpp:334] loss1/ave_pool -> loss1/ave_pool
I0509 23:49:01.604022 25837 net.cpp:105] Setting up loss1/ave_pool
I0509 23:49:01.604029 25837 net.cpp:112] Top shape: 32 512 4 4 (262144)
I0509 23:49:01.604035 25837 layer_factory.hpp:74] Creating layer loss1/conv
I0509 23:49:01.604044 25837 net.cpp:76] Creating Layer loss1/conv
I0509 23:49:01.604050 25837 net.cpp:372] loss1/conv <- loss1/ave_pool
I0509 23:49:01.604060 25837 net.cpp:334] loss1/conv -> loss1/conv
I0509 23:49:01.604069 25837 net.cpp:105] Setting up loss1/conv
I0509 23:49:01.604652 25837 net.cpp:112] Top shape: 32 128 4 4 (65536)
I0509 23:49:01.604671 25837 layer_factory.hpp:74] Creating layer loss1/relu_conv
I0509 23:49:01.604679 25837 net.cpp:76] Creating Layer loss1/relu_conv
I0509 23:49:01.604686 25837 net.cpp:372] loss1/relu_conv <- loss1/conv
I0509 23:49:01.604693 25837 net.cpp:323] loss1/relu_conv -> loss1/conv (in-place)
I0509 23:49:01.604701 25837 net.cpp:105] Setting up loss1/relu_conv
I0509 23:49:01.604707 25837 net.cpp:112] Top shape: 32 128 4 4 (65536)
I0509 23:49:01.604712 25837 layer_factory.hpp:74] Creating layer loss1/fc
I0509 23:49:01.604725 25837 net.cpp:76] Creating Layer loss1/fc
I0509 23:49:01.604732 25837 net.cpp:372] loss1/fc <- loss1/conv
I0509 23:49:01.604742 25837 net.cpp:334] loss1/fc -> loss1/fc
I0509 23:49:01.604755 25837 net.cpp:105] Setting up loss1/fc
I0509 23:49:01.622488 25837 net.cpp:112] Top shape: 32 1024 1 1 (32768)
I0509 23:49:01.622567 25837 layer_factory.hpp:74] Creating layer loss1/relu_fc
I0509 23:49:01.622584 25837 net.cpp:76] Creating Layer loss1/relu_fc
I0509 23:49:01.622593 25837 net.cpp:372] loss1/relu_fc <- loss1/fc
I0509 23:49:01.622603 25837 net.cpp:323] loss1/relu_fc -> loss1/fc (in-place)
I0509 23:49:01.622614 25837 net.cpp:105] Setting up loss1/relu_fc
I0509 23:49:01.622620 25837 net.cpp:112] Top shape: 32 1024 1 1 (32768)
I0509 23:49:01.622629 25837 layer_factory.hpp:74] Creating layer loss1/drop_fc
I0509 23:49:01.622653 25837 net.cpp:76] Creating Layer loss1/drop_fc
I0509 23:49:01.622659 25837 net.cpp:372] loss1/drop_fc <- loss1/fc
I0509 23:49:01.622668 25837 net.cpp:323] loss1/drop_fc -> loss1/fc (in-place)
I0509 23:49:01.622678 25837 net.cpp:105] Setting up loss1/drop_fc
I0509 23:49:01.622689 25837 net.cpp:112] Top shape: 32 1024 1 1 (32768)
I0509 23:49:01.622695 25837 layer_factory.hpp:74] Creating layer loss1/classifier
I0509 23:49:01.622709 25837 net.cpp:76] Creating Layer loss1/classifier
I0509 23:49:01.622714 25837 net.cpp:372] loss1/classifier <- loss1/fc
I0509 23:49:01.622723 25837 net.cpp:334] loss1/classifier -> loss1/classifier
I0509 23:49:01.622733 25837 net.cpp:105] Setting up loss1/classifier
I0509 23:49:01.622768 25837 net.cpp:112] Top shape: 32 2 1 1 (64)
I0509 23:49:01.622778 25837 layer_factory.hpp:74] Creating layer loss1/loss
I0509 23:49:01.622793 25837 net.cpp:76] Creating Layer loss1/loss
I0509 23:49:01.622800 25837 net.cpp:372] loss1/loss <- loss1/classifier
I0509 23:49:01.622807 25837 net.cpp:372] loss1/loss <- label_data_1_split_0
I0509 23:49:01.622815 25837 net.cpp:334] loss1/loss -> loss1/loss1
I0509 23:49:01.622828 25837 net.cpp:105] Setting up loss1/loss
I0509 23:49:01.622838 25837 layer_factory.hpp:74] Creating layer loss1/loss
I0509 23:49:01.622859 25837 net.cpp:112] Top shape: 1 1 1 1 (1)
I0509 23:49:01.622864 25837 net.cpp:118]     with loss weight 0.3
I0509 23:49:01.622897 25837 layer_factory.hpp:74] Creating layer inception_4b/1x1
I0509 23:49:01.622911 25837 net.cpp:76] Creating Layer inception_4b/1x1
I0509 23:49:01.622918 25837 net.cpp:372] inception_4b/1x1 <- inception_4a/output_inception_4a/output_0_split_1
I0509 23:49:01.622928 25837 net.cpp:334] inception_4b/1x1 -> inception_4b/1x1
I0509 23:49:01.622937 25837 net.cpp:105] Setting up inception_4b/1x1
I0509 23:49:01.623728 25837 net.cpp:112] Top shape: 32 160 14 14 (1003520)
I0509 23:49:01.623745 25837 layer_factory.hpp:74] Creating layer inception_4b/relu_1x1
I0509 23:49:01.623757 25837 net.cpp:76] Creating Layer inception_4b/relu_1x1
I0509 23:49:01.623764 25837 net.cpp:372] inception_4b/relu_1x1 <- inception_4b/1x1
I0509 23:49:01.623771 25837 net.cpp:323] inception_4b/relu_1x1 -> inception_4b/1x1 (in-place)
I0509 23:49:01.623780 25837 net.cpp:105] Setting up inception_4b/relu_1x1
I0509 23:49:01.623785 25837 net.cpp:112] Top shape: 32 160 14 14 (1003520)
I0509 23:49:01.623791 25837 layer_factory.hpp:74] Creating layer inception_4b/3x3_reduce
I0509 23:49:01.623802 25837 net.cpp:76] Creating Layer inception_4b/3x3_reduce
I0509 23:49:01.623808 25837 net.cpp:372] inception_4b/3x3_reduce <- inception_4a/output_inception_4a/output_0_split_2
I0509 23:49:01.623817 25837 net.cpp:334] inception_4b/3x3_reduce -> inception_4b/3x3_reduce
I0509 23:49:01.623826 25837 net.cpp:105] Setting up inception_4b/3x3_reduce
I0509 23:49:01.624325 25837 net.cpp:112] Top shape: 32 112 14 14 (702464)
I0509 23:49:01.624338 25837 layer_factory.hpp:74] Creating layer inception_4b/relu_3x3_reduce
I0509 23:49:01.624346 25837 net.cpp:76] Creating Layer inception_4b/relu_3x3_reduce
I0509 23:49:01.624352 25837 net.cpp:372] inception_4b/relu_3x3_reduce <- inception_4b/3x3_reduce
I0509 23:49:01.624361 25837 net.cpp:323] inception_4b/relu_3x3_reduce -> inception_4b/3x3_reduce (in-place)
I0509 23:49:01.624371 25837 net.cpp:105] Setting up inception_4b/relu_3x3_reduce
I0509 23:49:01.624377 25837 net.cpp:112] Top shape: 32 112 14 14 (702464)
I0509 23:49:01.624382 25837 layer_factory.hpp:74] Creating layer inception_4b/3x3
I0509 23:49:01.624390 25837 net.cpp:76] Creating Layer inception_4b/3x3
I0509 23:49:01.624411 25837 net.cpp:372] inception_4b/3x3 <- inception_4b/3x3_reduce
I0509 23:49:01.624428 25837 net.cpp:334] inception_4b/3x3 -> inception_4b/3x3
I0509 23:49:01.624439 25837 net.cpp:105] Setting up inception_4b/3x3
I0509 23:49:01.626343 25837 net.cpp:112] Top shape: 32 224 14 14 (1404928)
I0509 23:49:01.626359 25837 layer_factory.hpp:74] Creating layer inception_4b/relu_3x3
I0509 23:49:01.626368 25837 net.cpp:76] Creating Layer inception_4b/relu_3x3
I0509 23:49:01.626374 25837 net.cpp:372] inception_4b/relu_3x3 <- inception_4b/3x3
I0509 23:49:01.626382 25837 net.cpp:323] inception_4b/relu_3x3 -> inception_4b/3x3 (in-place)
I0509 23:49:01.626392 25837 net.cpp:105] Setting up inception_4b/relu_3x3
I0509 23:49:01.626399 25837 net.cpp:112] Top shape: 32 224 14 14 (1404928)
I0509 23:49:01.626405 25837 layer_factory.hpp:74] Creating layer inception_4b/5x5_reduce
I0509 23:49:01.626413 25837 net.cpp:76] Creating Layer inception_4b/5x5_reduce
I0509 23:49:01.626420 25837 net.cpp:372] inception_4b/5x5_reduce <- inception_4a/output_inception_4a/output_0_split_3
I0509 23:49:01.626428 25837 net.cpp:334] inception_4b/5x5_reduce -> inception_4b/5x5_reduce
I0509 23:49:01.626437 25837 net.cpp:105] Setting up inception_4b/5x5_reduce
I0509 23:49:01.626555 25837 net.cpp:112] Top shape: 32 24 14 14 (150528)
I0509 23:49:01.626566 25837 layer_factory.hpp:74] Creating layer inception_4b/relu_5x5_reduce
I0509 23:49:01.626575 25837 net.cpp:76] Creating Layer inception_4b/relu_5x5_reduce
I0509 23:49:01.626584 25837 net.cpp:372] inception_4b/relu_5x5_reduce <- inception_4b/5x5_reduce
I0509 23:49:01.626591 25837 net.cpp:323] inception_4b/relu_5x5_reduce -> inception_4b/5x5_reduce (in-place)
I0509 23:49:01.626600 25837 net.cpp:105] Setting up inception_4b/relu_5x5_reduce
I0509 23:49:01.626605 25837 net.cpp:112] Top shape: 32 24 14 14 (150528)
I0509 23:49:01.626611 25837 layer_factory.hpp:74] Creating layer inception_4b/5x5
I0509 23:49:01.626620 25837 net.cpp:76] Creating Layer inception_4b/5x5
I0509 23:49:01.626626 25837 net.cpp:372] inception_4b/5x5 <- inception_4b/5x5_reduce
I0509 23:49:01.626636 25837 net.cpp:334] inception_4b/5x5 -> inception_4b/5x5
I0509 23:49:01.626644 25837 net.cpp:105] Setting up inception_4b/5x5
I0509 23:49:01.626971 25837 net.cpp:112] Top shape: 32 64 14 14 (401408)
I0509 23:49:01.626983 25837 layer_factory.hpp:74] Creating layer inception_4b/relu_5x5
I0509 23:49:01.626993 25837 net.cpp:76] Creating Layer inception_4b/relu_5x5
I0509 23:49:01.627001 25837 net.cpp:372] inception_4b/relu_5x5 <- inception_4b/5x5
I0509 23:49:01.627007 25837 net.cpp:323] inception_4b/relu_5x5 -> inception_4b/5x5 (in-place)
I0509 23:49:01.627015 25837 net.cpp:105] Setting up inception_4b/relu_5x5
I0509 23:49:01.627022 25837 net.cpp:112] Top shape: 32 64 14 14 (401408)
I0509 23:49:01.627027 25837 layer_factory.hpp:74] Creating layer inception_4b/pool
I0509 23:49:01.627040 25837 net.cpp:76] Creating Layer inception_4b/pool
I0509 23:49:01.627048 25837 net.cpp:372] inception_4b/pool <- inception_4a/output_inception_4a/output_0_split_4
I0509 23:49:01.627055 25837 net.cpp:334] inception_4b/pool -> inception_4b/pool
I0509 23:49:01.627074 25837 net.cpp:105] Setting up inception_4b/pool
I0509 23:49:01.627084 25837 net.cpp:112] Top shape: 32 512 14 14 (3211264)
I0509 23:49:01.627090 25837 layer_factory.hpp:74] Creating layer inception_4b/pool_proj
I0509 23:49:01.627101 25837 net.cpp:76] Creating Layer inception_4b/pool_proj
I0509 23:49:01.627109 25837 net.cpp:372] inception_4b/pool_proj <- inception_4b/pool
I0509 23:49:01.627116 25837 net.cpp:334] inception_4b/pool_proj -> inception_4b/pool_proj
I0509 23:49:01.627125 25837 net.cpp:105] Setting up inception_4b/pool_proj
I0509 23:49:01.627451 25837 net.cpp:112] Top shape: 32 64 14 14 (401408)
I0509 23:49:01.627466 25837 layer_factory.hpp:74] Creating layer inception_4b/relu_pool_proj
I0509 23:49:01.627475 25837 net.cpp:76] Creating Layer inception_4b/relu_pool_proj
I0509 23:49:01.627481 25837 net.cpp:372] inception_4b/relu_pool_proj <- inception_4b/pool_proj
I0509 23:49:01.627506 25837 net.cpp:323] inception_4b/relu_pool_proj -> inception_4b/pool_proj (in-place)
I0509 23:49:01.627514 25837 net.cpp:105] Setting up inception_4b/relu_pool_proj
I0509 23:49:01.627521 25837 net.cpp:112] Top shape: 32 64 14 14 (401408)
I0509 23:49:01.627526 25837 layer_factory.hpp:74] Creating layer inception_4b/output
I0509 23:49:01.627534 25837 net.cpp:76] Creating Layer inception_4b/output
I0509 23:49:01.627540 25837 net.cpp:372] inception_4b/output <- inception_4b/1x1
I0509 23:49:01.627548 25837 net.cpp:372] inception_4b/output <- inception_4b/3x3
I0509 23:49:01.627555 25837 net.cpp:372] inception_4b/output <- inception_4b/5x5
I0509 23:49:01.627562 25837 net.cpp:372] inception_4b/output <- inception_4b/pool_proj
I0509 23:49:01.627569 25837 net.cpp:334] inception_4b/output -> inception_4b/output
I0509 23:49:01.627578 25837 net.cpp:105] Setting up inception_4b/output
I0509 23:49:01.627589 25837 net.cpp:112] Top shape: 32 512 14 14 (3211264)
I0509 23:49:01.627595 25837 layer_factory.hpp:74] Creating layer inception_4b/output_inception_4b/output_0_split
I0509 23:49:01.627621 25837 net.cpp:76] Creating Layer inception_4b/output_inception_4b/output_0_split
I0509 23:49:01.627629 25837 net.cpp:372] inception_4b/output_inception_4b/output_0_split <- inception_4b/output
I0509 23:49:01.627640 25837 net.cpp:334] inception_4b/output_inception_4b/output_0_split -> inception_4b/output_inception_4b/output_0_split_0
I0509 23:49:01.627650 25837 net.cpp:334] inception_4b/output_inception_4b/output_0_split -> inception_4b/output_inception_4b/output_0_split_1
I0509 23:49:01.627660 25837 net.cpp:334] inception_4b/output_inception_4b/output_0_split -> inception_4b/output_inception_4b/output_0_split_2
I0509 23:49:01.627670 25837 net.cpp:334] inception_4b/output_inception_4b/output_0_split -> inception_4b/output_inception_4b/output_0_split_3
I0509 23:49:01.627677 25837 net.cpp:105] Setting up inception_4b/output_inception_4b/output_0_split
I0509 23:49:01.627684 25837 net.cpp:112] Top shape: 32 512 14 14 (3211264)
I0509 23:49:01.627689 25837 net.cpp:112] Top shape: 32 512 14 14 (3211264)
I0509 23:49:01.627696 25837 net.cpp:112] Top shape: 32 512 14 14 (3211264)
I0509 23:49:01.627701 25837 net.cpp:112] Top shape: 32 512 14 14 (3211264)
I0509 23:49:01.627706 25837 layer_factory.hpp:74] Creating layer inception_4c/1x1
I0509 23:49:01.627717 25837 net.cpp:76] Creating Layer inception_4c/1x1
I0509 23:49:01.627722 25837 net.cpp:372] inception_4c/1x1 <- inception_4b/output_inception_4b/output_0_split_0
I0509 23:49:01.627732 25837 net.cpp:334] inception_4c/1x1 -> inception_4c/1x1
I0509 23:49:01.627740 25837 net.cpp:105] Setting up inception_4c/1x1
I0509 23:49:01.628305 25837 net.cpp:112] Top shape: 32 128 14 14 (802816)
I0509 23:49:01.628321 25837 layer_factory.hpp:74] Creating layer inception_4c/relu_1x1
I0509 23:49:01.628329 25837 net.cpp:76] Creating Layer inception_4c/relu_1x1
I0509 23:49:01.628335 25837 net.cpp:372] inception_4c/relu_1x1 <- inception_4c/1x1
I0509 23:49:01.628343 25837 net.cpp:323] inception_4c/relu_1x1 -> inception_4c/1x1 (in-place)
I0509 23:49:01.628351 25837 net.cpp:105] Setting up inception_4c/relu_1x1
I0509 23:49:01.628356 25837 net.cpp:112] Top shape: 32 128 14 14 (802816)
I0509 23:49:01.628362 25837 layer_factory.hpp:74] Creating layer inception_4c/3x3_reduce
I0509 23:49:01.628371 25837 net.cpp:76] Creating Layer inception_4c/3x3_reduce
I0509 23:49:01.628376 25837 net.cpp:372] inception_4c/3x3_reduce <- inception_4b/output_inception_4b/output_0_split_1
I0509 23:49:01.628387 25837 net.cpp:334] inception_4c/3x3_reduce -> inception_4c/3x3_reduce
I0509 23:49:01.628396 25837 net.cpp:105] Setting up inception_4c/3x3_reduce
I0509 23:49:01.628960 25837 net.cpp:112] Top shape: 32 128 14 14 (802816)
I0509 23:49:01.628974 25837 layer_factory.hpp:74] Creating layer inception_4c/relu_3x3_reduce
I0509 23:49:01.628983 25837 net.cpp:76] Creating Layer inception_4c/relu_3x3_reduce
I0509 23:49:01.628988 25837 net.cpp:372] inception_4c/relu_3x3_reduce <- inception_4c/3x3_reduce
I0509 23:49:01.628996 25837 net.cpp:323] inception_4c/relu_3x3_reduce -> inception_4c/3x3_reduce (in-place)
I0509 23:49:01.629017 25837 net.cpp:105] Setting up inception_4c/relu_3x3_reduce
I0509 23:49:01.629024 25837 net.cpp:112] Top shape: 32 128 14 14 (802816)
I0509 23:49:01.629029 25837 layer_factory.hpp:74] Creating layer inception_4c/3x3
I0509 23:49:01.629041 25837 net.cpp:76] Creating Layer inception_4c/3x3
I0509 23:49:01.629047 25837 net.cpp:372] inception_4c/3x3 <- inception_4c/3x3_reduce
I0509 23:49:01.629057 25837 net.cpp:334] inception_4c/3x3 -> inception_4c/3x3
I0509 23:49:01.629066 25837 net.cpp:105] Setting up inception_4c/3x3
I0509 23:49:01.631551 25837 net.cpp:112] Top shape: 32 256 14 14 (1605632)
I0509 23:49:01.631577 25837 layer_factory.hpp:74] Creating layer inception_4c/relu_3x3
I0509 23:49:01.631587 25837 net.cpp:76] Creating Layer inception_4c/relu_3x3
I0509 23:49:01.632344 25837 net.cpp:372] inception_4c/relu_3x3 <- inception_4c/3x3
I0509 23:49:01.632367 25837 net.cpp:323] inception_4c/relu_3x3 -> inception_4c/3x3 (in-place)
I0509 23:49:01.632380 25837 net.cpp:105] Setting up inception_4c/relu_3x3
I0509 23:49:01.632385 25837 net.cpp:112] Top shape: 32 256 14 14 (1605632)
I0509 23:49:01.632392 25837 layer_factory.hpp:74] Creating layer inception_4c/5x5_reduce
I0509 23:49:01.632403 25837 net.cpp:76] Creating Layer inception_4c/5x5_reduce
I0509 23:49:01.632410 25837 net.cpp:372] inception_4c/5x5_reduce <- inception_4b/output_inception_4b/output_0_split_2
I0509 23:49:01.632421 25837 net.cpp:334] inception_4c/5x5_reduce -> inception_4c/5x5_reduce
I0509 23:49:01.632432 25837 net.cpp:105] Setting up inception_4c/5x5_reduce
I0509 23:49:01.632545 25837 net.cpp:112] Top shape: 32 24 14 14 (150528)
I0509 23:49:01.632558 25837 layer_factory.hpp:74] Creating layer inception_4c/relu_5x5_reduce
I0509 23:49:01.632570 25837 net.cpp:76] Creating Layer inception_4c/relu_5x5_reduce
I0509 23:49:01.632575 25837 net.cpp:372] inception_4c/relu_5x5_reduce <- inception_4c/5x5_reduce
I0509 23:49:01.632583 25837 net.cpp:323] inception_4c/relu_5x5_reduce -> inception_4c/5x5_reduce (in-place)
I0509 23:49:01.632591 25837 net.cpp:105] Setting up inception_4c/relu_5x5_reduce
I0509 23:49:01.632597 25837 net.cpp:112] Top shape: 32 24 14 14 (150528)
I0509 23:49:01.632603 25837 layer_factory.hpp:74] Creating layer inception_4c/5x5
I0509 23:49:01.632613 25837 net.cpp:76] Creating Layer inception_4c/5x5
I0509 23:49:01.632622 25837 net.cpp:372] inception_4c/5x5 <- inception_4c/5x5_reduce
I0509 23:49:01.632629 25837 net.cpp:334] inception_4c/5x5 -> inception_4c/5x5
I0509 23:49:01.632639 25837 net.cpp:105] Setting up inception_4c/5x5
I0509 23:49:01.632969 25837 net.cpp:112] Top shape: 32 64 14 14 (401408)
I0509 23:49:01.632982 25837 layer_factory.hpp:74] Creating layer inception_4c/relu_5x5
I0509 23:49:01.632990 25837 net.cpp:76] Creating Layer inception_4c/relu_5x5
I0509 23:49:01.632997 25837 net.cpp:372] inception_4c/relu_5x5 <- inception_4c/5x5
I0509 23:49:01.633003 25837 net.cpp:323] inception_4c/relu_5x5 -> inception_4c/5x5 (in-place)
I0509 23:49:01.633011 25837 net.cpp:105] Setting up inception_4c/relu_5x5
I0509 23:49:01.633018 25837 net.cpp:112] Top shape: 32 64 14 14 (401408)
I0509 23:49:01.633025 25837 layer_factory.hpp:74] Creating layer inception_4c/pool
I0509 23:49:01.633036 25837 net.cpp:76] Creating Layer inception_4c/pool
I0509 23:49:01.633045 25837 net.cpp:372] inception_4c/pool <- inception_4b/output_inception_4b/output_0_split_3
I0509 23:49:01.633054 25837 net.cpp:334] inception_4c/pool -> inception_4c/pool
I0509 23:49:01.633064 25837 net.cpp:105] Setting up inception_4c/pool
I0509 23:49:01.633071 25837 net.cpp:112] Top shape: 32 512 14 14 (3211264)
I0509 23:49:01.633077 25837 layer_factory.hpp:74] Creating layer inception_4c/pool_proj
I0509 23:49:01.633088 25837 net.cpp:76] Creating Layer inception_4c/pool_proj
I0509 23:49:01.633095 25837 net.cpp:372] inception_4c/pool_proj <- inception_4c/pool
I0509 23:49:01.633103 25837 net.cpp:334] inception_4c/pool_proj -> inception_4c/pool_proj
I0509 23:49:01.633112 25837 net.cpp:105] Setting up inception_4c/pool_proj
I0509 23:49:01.633440 25837 net.cpp:112] Top shape: 32 64 14 14 (401408)
I0509 23:49:01.633453 25837 layer_factory.hpp:74] Creating layer inception_4c/relu_pool_proj
I0509 23:49:01.633462 25837 net.cpp:76] Creating Layer inception_4c/relu_pool_proj
I0509 23:49:01.633471 25837 net.cpp:372] inception_4c/relu_pool_proj <- inception_4c/pool_proj
I0509 23:49:01.633478 25837 net.cpp:323] inception_4c/relu_pool_proj -> inception_4c/pool_proj (in-place)
I0509 23:49:01.633486 25837 net.cpp:105] Setting up inception_4c/relu_pool_proj
I0509 23:49:01.633492 25837 net.cpp:112] Top shape: 32 64 14 14 (401408)
I0509 23:49:01.633497 25837 layer_factory.hpp:74] Creating layer inception_4c/output
I0509 23:49:01.633505 25837 net.cpp:76] Creating Layer inception_4c/output
I0509 23:49:01.633512 25837 net.cpp:372] inception_4c/output <- inception_4c/1x1
I0509 23:49:01.633518 25837 net.cpp:372] inception_4c/output <- inception_4c/3x3
I0509 23:49:01.633524 25837 net.cpp:372] inception_4c/output <- inception_4c/5x5
I0509 23:49:01.633532 25837 net.cpp:372] inception_4c/output <- inception_4c/pool_proj
I0509 23:49:01.633538 25837 net.cpp:334] inception_4c/output -> inception_4c/output
I0509 23:49:01.633546 25837 net.cpp:105] Setting up inception_4c/output
I0509 23:49:01.633553 25837 net.cpp:112] Top shape: 32 512 14 14 (3211264)
I0509 23:49:01.633558 25837 layer_factory.hpp:74] Creating layer inception_4c/output_inception_4c/output_0_split
I0509 23:49:01.633569 25837 net.cpp:76] Creating Layer inception_4c/output_inception_4c/output_0_split
I0509 23:49:01.633576 25837 net.cpp:372] inception_4c/output_inception_4c/output_0_split <- inception_4c/output
I0509 23:49:01.633584 25837 net.cpp:334] inception_4c/output_inception_4c/output_0_split -> inception_4c/output_inception_4c/output_0_split_0
I0509 23:49:01.633594 25837 net.cpp:334] inception_4c/output_inception_4c/output_0_split -> inception_4c/output_inception_4c/output_0_split_1
I0509 23:49:01.633602 25837 net.cpp:334] inception_4c/output_inception_4c/output_0_split -> inception_4c/output_inception_4c/output_0_split_2
I0509 23:49:01.633612 25837 net.cpp:334] inception_4c/output_inception_4c/output_0_split -> inception_4c/output_inception_4c/output_0_split_3
I0509 23:49:01.633620 25837 net.cpp:105] Setting up inception_4c/output_inception_4c/output_0_split
I0509 23:49:01.633627 25837 net.cpp:112] Top shape: 32 512 14 14 (3211264)
I0509 23:49:01.633633 25837 net.cpp:112] Top shape: 32 512 14 14 (3211264)
I0509 23:49:01.633638 25837 net.cpp:112] Top shape: 32 512 14 14 (3211264)
I0509 23:49:01.633643 25837 net.cpp:112] Top shape: 32 512 14 14 (3211264)
I0509 23:49:01.633649 25837 layer_factory.hpp:74] Creating layer inception_4d/1x1
I0509 23:49:01.633659 25837 net.cpp:76] Creating Layer inception_4d/1x1
I0509 23:49:01.633666 25837 net.cpp:372] inception_4d/1x1 <- inception_4c/output_inception_4c/output_0_split_0
I0509 23:49:01.633677 25837 net.cpp:334] inception_4d/1x1 -> inception_4d/1x1
I0509 23:49:01.633685 25837 net.cpp:105] Setting up inception_4d/1x1
I0509 23:49:01.634171 25837 net.cpp:112] Top shape: 32 112 14 14 (702464)
I0509 23:49:01.634183 25837 layer_factory.hpp:74] Creating layer inception_4d/relu_1x1
I0509 23:49:01.634191 25837 net.cpp:76] Creating Layer inception_4d/relu_1x1
I0509 23:49:01.634197 25837 net.cpp:372] inception_4d/relu_1x1 <- inception_4d/1x1
I0509 23:49:01.634207 25837 net.cpp:323] inception_4d/relu_1x1 -> inception_4d/1x1 (in-place)
I0509 23:49:01.634215 25837 net.cpp:105] Setting up inception_4d/relu_1x1
I0509 23:49:01.634222 25837 net.cpp:112] Top shape: 32 112 14 14 (702464)
I0509 23:49:01.634227 25837 layer_factory.hpp:74] Creating layer inception_4d/3x3_reduce
I0509 23:49:01.634251 25837 net.cpp:76] Creating Layer inception_4d/3x3_reduce
I0509 23:49:01.634259 25837 net.cpp:372] inception_4d/3x3_reduce <- inception_4c/output_inception_4c/output_0_split_1
I0509 23:49:01.634268 25837 net.cpp:334] inception_4d/3x3_reduce -> inception_4d/3x3_reduce
I0509 23:49:01.634277 25837 net.cpp:105] Setting up inception_4d/3x3_reduce
I0509 23:49:01.634903 25837 net.cpp:112] Top shape: 32 144 14 14 (903168)
I0509 23:49:01.634930 25837 layer_factory.hpp:74] Creating layer inception_4d/relu_3x3_reduce
I0509 23:49:01.634940 25837 net.cpp:76] Creating Layer inception_4d/relu_3x3_reduce
I0509 23:49:01.634946 25837 net.cpp:372] inception_4d/relu_3x3_reduce <- inception_4d/3x3_reduce
I0509 23:49:01.634956 25837 net.cpp:323] inception_4d/relu_3x3_reduce -> inception_4d/3x3_reduce (in-place)
I0509 23:49:01.634964 25837 net.cpp:105] Setting up inception_4d/relu_3x3_reduce
I0509 23:49:01.634970 25837 net.cpp:112] Top shape: 32 144 14 14 (903168)
I0509 23:49:01.634976 25837 layer_factory.hpp:74] Creating layer inception_4d/3x3
I0509 23:49:01.634985 25837 net.cpp:76] Creating Layer inception_4d/3x3
I0509 23:49:01.635682 25837 net.cpp:372] inception_4d/3x3 <- inception_4d/3x3_reduce
I0509 23:49:01.635701 25837 net.cpp:334] inception_4d/3x3 -> inception_4d/3x3
I0509 23:49:01.635712 25837 net.cpp:105] Setting up inception_4d/3x3
I0509 23:49:01.639045 25837 net.cpp:112] Top shape: 32 288 14 14 (1806336)
I0509 23:49:01.639075 25837 layer_factory.hpp:74] Creating layer inception_4d/relu_3x3
I0509 23:49:01.639086 25837 net.cpp:76] Creating Layer inception_4d/relu_3x3
I0509 23:49:01.639094 25837 net.cpp:372] inception_4d/relu_3x3 <- inception_4d/3x3
I0509 23:49:01.639106 25837 net.cpp:323] inception_4d/relu_3x3 -> inception_4d/3x3 (in-place)
I0509 23:49:01.639118 25837 net.cpp:105] Setting up inception_4d/relu_3x3
I0509 23:49:01.639129 25837 net.cpp:112] Top shape: 32 288 14 14 (1806336)
I0509 23:49:01.639142 25837 layer_factory.hpp:74] Creating layer inception_4d/5x5_reduce
I0509 23:49:01.639159 25837 net.cpp:76] Creating Layer inception_4d/5x5_reduce
I0509 23:49:01.639173 25837 net.cpp:372] inception_4d/5x5_reduce <- inception_4c/output_inception_4c/output_0_split_2
I0509 23:49:01.639199 25837 net.cpp:334] inception_4d/5x5_reduce -> inception_4d/5x5_reduce
I0509 23:49:01.639210 25837 net.cpp:105] Setting up inception_4d/5x5_reduce
I0509 23:49:01.639415 25837 net.cpp:112] Top shape: 32 32 14 14 (200704)
I0509 23:49:01.639431 25837 layer_factory.hpp:74] Creating layer inception_4d/relu_5x5_reduce
I0509 23:49:01.639442 25837 net.cpp:76] Creating Layer inception_4d/relu_5x5_reduce
I0509 23:49:01.639449 25837 net.cpp:372] inception_4d/relu_5x5_reduce <- inception_4d/5x5_reduce
I0509 23:49:01.639458 25837 net.cpp:323] inception_4d/relu_5x5_reduce -> inception_4d/5x5_reduce (in-place)
I0509 23:49:01.639467 25837 net.cpp:105] Setting up inception_4d/relu_5x5_reduce
I0509 23:49:01.639473 25837 net.cpp:112] Top shape: 32 32 14 14 (200704)
I0509 23:49:01.639479 25837 layer_factory.hpp:74] Creating layer inception_4d/5x5
I0509 23:49:01.639490 25837 net.cpp:76] Creating Layer inception_4d/5x5
I0509 23:49:01.639499 25837 net.cpp:372] inception_4d/5x5 <- inception_4d/5x5_reduce
I0509 23:49:01.639508 25837 net.cpp:334] inception_4d/5x5 -> inception_4d/5x5
I0509 23:49:01.639516 25837 net.cpp:105] Setting up inception_4d/5x5
I0509 23:49:01.639986 25837 net.cpp:112] Top shape: 32 64 14 14 (401408)
I0509 23:49:01.640009 25837 layer_factory.hpp:74] Creating layer inception_4d/relu_5x5
I0509 23:49:01.640024 25837 net.cpp:76] Creating Layer inception_4d/relu_5x5
I0509 23:49:01.640033 25837 net.cpp:372] inception_4d/relu_5x5 <- inception_4d/5x5
I0509 23:49:01.640043 25837 net.cpp:323] inception_4d/relu_5x5 -> inception_4d/5x5 (in-place)
I0509 23:49:01.640051 25837 net.cpp:105] Setting up inception_4d/relu_5x5
I0509 23:49:01.640058 25837 net.cpp:112] Top shape: 32 64 14 14 (401408)
I0509 23:49:01.640064 25837 layer_factory.hpp:74] Creating layer inception_4d/pool
I0509 23:49:01.640072 25837 net.cpp:76] Creating Layer inception_4d/pool
I0509 23:49:01.640079 25837 net.cpp:372] inception_4d/pool <- inception_4c/output_inception_4c/output_0_split_3
I0509 23:49:01.640086 25837 net.cpp:334] inception_4d/pool -> inception_4d/pool
I0509 23:49:01.640095 25837 net.cpp:105] Setting up inception_4d/pool
I0509 23:49:01.640103 25837 net.cpp:112] Top shape: 32 512 14 14 (3211264)
I0509 23:49:01.640110 25837 layer_factory.hpp:74] Creating layer inception_4d/pool_proj
I0509 23:49:01.640146 25837 net.cpp:76] Creating Layer inception_4d/pool_proj
I0509 23:49:01.640153 25837 net.cpp:372] inception_4d/pool_proj <- inception_4d/pool
I0509 23:49:01.640164 25837 net.cpp:334] inception_4d/pool_proj -> inception_4d/pool_proj
I0509 23:49:01.640178 25837 net.cpp:105] Setting up inception_4d/pool_proj
I0509 23:49:01.640513 25837 net.cpp:112] Top shape: 32 64 14 14 (401408)
I0509 23:49:01.640530 25837 layer_factory.hpp:74] Creating layer inception_4d/relu_pool_proj
I0509 23:49:01.640542 25837 net.cpp:76] Creating Layer inception_4d/relu_pool_proj
I0509 23:49:01.640550 25837 net.cpp:372] inception_4d/relu_pool_proj <- inception_4d/pool_proj
I0509 23:49:01.640561 25837 net.cpp:323] inception_4d/relu_pool_proj -> inception_4d/pool_proj (in-place)
I0509 23:49:01.640576 25837 net.cpp:105] Setting up inception_4d/relu_pool_proj
I0509 23:49:01.640589 25837 net.cpp:112] Top shape: 32 64 14 14 (401408)
I0509 23:49:01.640600 25837 layer_factory.hpp:74] Creating layer inception_4d/output
I0509 23:49:01.640614 25837 net.cpp:76] Creating Layer inception_4d/output
I0509 23:49:01.640622 25837 net.cpp:372] inception_4d/output <- inception_4d/1x1
I0509 23:49:01.640635 25837 net.cpp:372] inception_4d/output <- inception_4d/3x3
I0509 23:49:01.640646 25837 net.cpp:372] inception_4d/output <- inception_4d/5x5
I0509 23:49:01.640653 25837 net.cpp:372] inception_4d/output <- inception_4d/pool_proj
I0509 23:49:01.640665 25837 net.cpp:334] inception_4d/output -> inception_4d/output
I0509 23:49:01.640674 25837 net.cpp:105] Setting up inception_4d/output
I0509 23:49:01.640681 25837 net.cpp:112] Top shape: 32 528 14 14 (3311616)
I0509 23:49:01.640687 25837 layer_factory.hpp:74] Creating layer inception_4d/output_inception_4d/output_0_split
I0509 23:49:01.640697 25837 net.cpp:76] Creating Layer inception_4d/output_inception_4d/output_0_split
I0509 23:49:01.640702 25837 net.cpp:372] inception_4d/output_inception_4d/output_0_split <- inception_4d/output
I0509 23:49:01.640710 25837 net.cpp:334] inception_4d/output_inception_4d/output_0_split -> inception_4d/output_inception_4d/output_0_split_0
I0509 23:49:01.640719 25837 net.cpp:334] inception_4d/output_inception_4d/output_0_split -> inception_4d/output_inception_4d/output_0_split_1
I0509 23:49:01.640729 25837 net.cpp:334] inception_4d/output_inception_4d/output_0_split -> inception_4d/output_inception_4d/output_0_split_2
I0509 23:49:01.640740 25837 net.cpp:334] inception_4d/output_inception_4d/output_0_split -> inception_4d/output_inception_4d/output_0_split_3
I0509 23:49:01.640750 25837 net.cpp:334] inception_4d/output_inception_4d/output_0_split -> inception_4d/output_inception_4d/output_0_split_4
I0509 23:49:01.640759 25837 net.cpp:105] Setting up inception_4d/output_inception_4d/output_0_split
I0509 23:49:01.640766 25837 net.cpp:112] Top shape: 32 528 14 14 (3311616)
I0509 23:49:01.640772 25837 net.cpp:112] Top shape: 32 528 14 14 (3311616)
I0509 23:49:01.640777 25837 net.cpp:112] Top shape: 32 528 14 14 (3311616)
I0509 23:49:01.640784 25837 net.cpp:112] Top shape: 32 528 14 14 (3311616)
I0509 23:49:01.640789 25837 net.cpp:112] Top shape: 32 528 14 14 (3311616)
I0509 23:49:01.640794 25837 layer_factory.hpp:74] Creating layer loss2/ave_pool
I0509 23:49:01.640801 25837 net.cpp:76] Creating Layer loss2/ave_pool
I0509 23:49:01.640807 25837 net.cpp:372] loss2/ave_pool <- inception_4d/output_inception_4d/output_0_split_0
I0509 23:49:01.640818 25837 net.cpp:334] loss2/ave_pool -> loss2/ave_pool
I0509 23:49:01.640826 25837 net.cpp:105] Setting up loss2/ave_pool
I0509 23:49:01.640856 25837 net.cpp:112] Top shape: 32 528 4 4 (270336)
I0509 23:49:01.640862 25837 layer_factory.hpp:74] Creating layer loss2/conv
I0509 23:49:01.640872 25837 net.cpp:76] Creating Layer loss2/conv
I0509 23:49:01.640879 25837 net.cpp:372] loss2/conv <- loss2/ave_pool
I0509 23:49:01.640890 25837 net.cpp:334] loss2/conv -> loss2/conv
I0509 23:49:01.640899 25837 net.cpp:105] Setting up loss2/conv
I0509 23:49:01.641543 25837 net.cpp:112] Top shape: 32 128 4 4 (65536)
I0509 23:49:01.641564 25837 layer_factory.hpp:74] Creating layer loss2/relu_conv
I0509 23:49:01.641588 25837 net.cpp:76] Creating Layer loss2/relu_conv
I0509 23:49:01.641595 25837 net.cpp:372] loss2/relu_conv <- loss2/conv
I0509 23:49:01.641607 25837 net.cpp:323] loss2/relu_conv -> loss2/conv (in-place)
I0509 23:49:01.641614 25837 net.cpp:105] Setting up loss2/relu_conv
I0509 23:49:01.641620 25837 net.cpp:112] Top shape: 32 128 4 4 (65536)
I0509 23:49:01.641626 25837 layer_factory.hpp:74] Creating layer loss2/fc
I0509 23:49:01.641636 25837 net.cpp:76] Creating Layer loss2/fc
I0509 23:49:01.641643 25837 net.cpp:372] loss2/fc <- loss2/conv
I0509 23:49:01.641652 25837 net.cpp:334] loss2/fc -> loss2/fc
I0509 23:49:01.641662 25837 net.cpp:105] Setting up loss2/fc
I0509 23:49:01.660600 25837 net.cpp:112] Top shape: 32 1024 1 1 (32768)
I0509 23:49:01.660648 25837 layer_factory.hpp:74] Creating layer loss2/relu_fc
I0509 23:49:01.660665 25837 net.cpp:76] Creating Layer loss2/relu_fc
I0509 23:49:01.660676 25837 net.cpp:372] loss2/relu_fc <- loss2/fc
I0509 23:49:01.660686 25837 net.cpp:323] loss2/relu_fc -> loss2/fc (in-place)
I0509 23:49:01.660697 25837 net.cpp:105] Setting up loss2/relu_fc
I0509 23:49:01.660703 25837 net.cpp:112] Top shape: 32 1024 1 1 (32768)
I0509 23:49:01.660709 25837 layer_factory.hpp:74] Creating layer loss2/drop_fc
I0509 23:49:01.660718 25837 net.cpp:76] Creating Layer loss2/drop_fc
I0509 23:49:01.660724 25837 net.cpp:372] loss2/drop_fc <- loss2/fc
I0509 23:49:01.660732 25837 net.cpp:323] loss2/drop_fc -> loss2/fc (in-place)
I0509 23:49:01.660743 25837 net.cpp:105] Setting up loss2/drop_fc
I0509 23:49:01.660750 25837 net.cpp:112] Top shape: 32 1024 1 1 (32768)
I0509 23:49:01.660756 25837 layer_factory.hpp:74] Creating layer loss2/classifier
I0509 23:49:01.660770 25837 net.cpp:76] Creating Layer loss2/classifier
I0509 23:49:01.660776 25837 net.cpp:372] loss2/classifier <- loss2/fc
I0509 23:49:01.660787 25837 net.cpp:334] loss2/classifier -> loss2/classifier
I0509 23:49:01.660799 25837 net.cpp:105] Setting up loss2/classifier
I0509 23:49:01.660835 25837 net.cpp:112] Top shape: 32 2 1 1 (64)
I0509 23:49:01.660846 25837 layer_factory.hpp:74] Creating layer loss2/loss
I0509 23:49:01.660856 25837 net.cpp:76] Creating Layer loss2/loss
I0509 23:49:01.660861 25837 net.cpp:372] loss2/loss <- loss2/classifier
I0509 23:49:01.660868 25837 net.cpp:372] loss2/loss <- label_data_1_split_1
I0509 23:49:01.660876 25837 net.cpp:334] loss2/loss -> loss2/loss1
I0509 23:49:01.660886 25837 net.cpp:105] Setting up loss2/loss
I0509 23:49:01.660893 25837 layer_factory.hpp:74] Creating layer loss2/loss
I0509 23:49:01.660910 25837 net.cpp:112] Top shape: 1 1 1 1 (1)
I0509 23:49:01.660917 25837 net.cpp:118]     with loss weight 0.3
I0509 23:49:01.660935 25837 layer_factory.hpp:74] Creating layer inception_4e/1x1
I0509 23:49:01.660948 25837 net.cpp:76] Creating Layer inception_4e/1x1
I0509 23:49:01.660955 25837 net.cpp:372] inception_4e/1x1 <- inception_4d/output_inception_4d/output_0_split_1
I0509 23:49:01.660966 25837 net.cpp:334] inception_4e/1x1 -> inception_4e/1x1
I0509 23:49:01.660976 25837 net.cpp:105] Setting up inception_4e/1x1
I0509 23:49:01.662123 25837 net.cpp:112] Top shape: 32 256 14 14 (1605632)
I0509 23:49:01.662138 25837 layer_factory.hpp:74] Creating layer inception_4e/relu_1x1
I0509 23:49:01.662147 25837 net.cpp:76] Creating Layer inception_4e/relu_1x1
I0509 23:49:01.662153 25837 net.cpp:372] inception_4e/relu_1x1 <- inception_4e/1x1
I0509 23:49:01.662160 25837 net.cpp:323] inception_4e/relu_1x1 -> inception_4e/1x1 (in-place)
I0509 23:49:01.662168 25837 net.cpp:105] Setting up inception_4e/relu_1x1
I0509 23:49:01.662174 25837 net.cpp:112] Top shape: 32 256 14 14 (1605632)
I0509 23:49:01.662180 25837 layer_factory.hpp:74] Creating layer inception_4e/3x3_reduce
I0509 23:49:01.662195 25837 net.cpp:76] Creating Layer inception_4e/3x3_reduce
I0509 23:49:01.662201 25837 net.cpp:372] inception_4e/3x3_reduce <- inception_4d/output_inception_4d/output_0_split_2
I0509 23:49:01.662212 25837 net.cpp:334] inception_4e/3x3_reduce -> inception_4e/3x3_reduce
I0509 23:49:01.662257 25837 net.cpp:105] Setting up inception_4e/3x3_reduce
I0509 23:49:01.663002 25837 net.cpp:112] Top shape: 32 160 14 14 (1003520)
I0509 23:49:01.663020 25837 layer_factory.hpp:74] Creating layer inception_4e/relu_3x3_reduce
I0509 23:49:01.663028 25837 net.cpp:76] Creating Layer inception_4e/relu_3x3_reduce
I0509 23:49:01.663035 25837 net.cpp:372] inception_4e/relu_3x3_reduce <- inception_4e/3x3_reduce
I0509 23:49:01.663043 25837 net.cpp:323] inception_4e/relu_3x3_reduce -> inception_4e/3x3_reduce (in-place)
I0509 23:49:01.663051 25837 net.cpp:105] Setting up inception_4e/relu_3x3_reduce
I0509 23:49:01.663056 25837 net.cpp:112] Top shape: 32 160 14 14 (1003520)
I0509 23:49:01.663063 25837 layer_factory.hpp:74] Creating layer inception_4e/3x3
I0509 23:49:01.663071 25837 net.cpp:76] Creating Layer inception_4e/3x3
I0509 23:49:01.663077 25837 net.cpp:372] inception_4e/3x3 <- inception_4e/3x3_reduce
I0509 23:49:01.663087 25837 net.cpp:334] inception_4e/3x3 -> inception_4e/3x3
I0509 23:49:01.663097 25837 net.cpp:105] Setting up inception_4e/3x3
I0509 23:49:01.666957 25837 net.cpp:112] Top shape: 32 320 14 14 (2007040)
I0509 23:49:01.666977 25837 layer_factory.hpp:74] Creating layer inception_4e/relu_3x3
I0509 23:49:01.666990 25837 net.cpp:76] Creating Layer inception_4e/relu_3x3
I0509 23:49:01.666996 25837 net.cpp:372] inception_4e/relu_3x3 <- inception_4e/3x3
I0509 23:49:01.667004 25837 net.cpp:323] inception_4e/relu_3x3 -> inception_4e/3x3 (in-place)
I0509 23:49:01.667012 25837 net.cpp:105] Setting up inception_4e/relu_3x3
I0509 23:49:01.667018 25837 net.cpp:112] Top shape: 32 320 14 14 (2007040)
I0509 23:49:01.667024 25837 layer_factory.hpp:74] Creating layer inception_4e/5x5_reduce
I0509 23:49:01.667035 25837 net.cpp:76] Creating Layer inception_4e/5x5_reduce
I0509 23:49:01.667044 25837 net.cpp:372] inception_4e/5x5_reduce <- inception_4d/output_inception_4d/output_0_split_3
I0509 23:49:01.667054 25837 net.cpp:334] inception_4e/5x5_reduce -> inception_4e/5x5_reduce
I0509 23:49:01.667063 25837 net.cpp:105] Setting up inception_4e/5x5_reduce
I0509 23:49:01.667217 25837 net.cpp:112] Top shape: 32 32 14 14 (200704)
I0509 23:49:01.667227 25837 layer_factory.hpp:74] Creating layer inception_4e/relu_5x5_reduce
I0509 23:49:01.667235 25837 net.cpp:76] Creating Layer inception_4e/relu_5x5_reduce
I0509 23:49:01.667242 25837 net.cpp:372] inception_4e/relu_5x5_reduce <- inception_4e/5x5_reduce
I0509 23:49:01.667249 25837 net.cpp:323] inception_4e/relu_5x5_reduce -> inception_4e/5x5_reduce (in-place)
I0509 23:49:01.667256 25837 net.cpp:105] Setting up inception_4e/relu_5x5_reduce
I0509 23:49:01.667263 25837 net.cpp:112] Top shape: 32 32 14 14 (200704)
I0509 23:49:01.667268 25837 layer_factory.hpp:74] Creating layer inception_4e/5x5
I0509 23:49:01.667310 25837 net.cpp:76] Creating Layer inception_4e/5x5
I0509 23:49:01.667317 25837 net.cpp:372] inception_4e/5x5 <- inception_4e/5x5_reduce
I0509 23:49:01.667326 25837 net.cpp:334] inception_4e/5x5 -> inception_4e/5x5
I0509 23:49:01.667335 25837 net.cpp:105] Setting up inception_4e/5x5
I0509 23:49:01.668207 25837 net.cpp:112] Top shape: 32 128 14 14 (802816)
I0509 23:49:01.668225 25837 layer_factory.hpp:74] Creating layer inception_4e/relu_5x5
I0509 23:49:01.668232 25837 net.cpp:76] Creating Layer inception_4e/relu_5x5
I0509 23:49:01.668239 25837 net.cpp:372] inception_4e/relu_5x5 <- inception_4e/5x5
I0509 23:49:01.668249 25837 net.cpp:323] inception_4e/relu_5x5 -> inception_4e/5x5 (in-place)
I0509 23:49:01.668257 25837 net.cpp:105] Setting up inception_4e/relu_5x5
I0509 23:49:01.668263 25837 net.cpp:112] Top shape: 32 128 14 14 (802816)
I0509 23:49:01.668269 25837 layer_factory.hpp:74] Creating layer inception_4e/pool
I0509 23:49:01.668290 25837 net.cpp:76] Creating Layer inception_4e/pool
I0509 23:49:01.668298 25837 net.cpp:372] inception_4e/pool <- inception_4d/output_inception_4d/output_0_split_4
I0509 23:49:01.668305 25837 net.cpp:334] inception_4e/pool -> inception_4e/pool
I0509 23:49:01.668314 25837 net.cpp:105] Setting up inception_4e/pool
I0509 23:49:01.668323 25837 net.cpp:112] Top shape: 32 528 14 14 (3311616)
I0509 23:49:01.668346 25837 layer_factory.hpp:74] Creating layer inception_4e/pool_proj
I0509 23:49:01.668359 25837 net.cpp:76] Creating Layer inception_4e/pool_proj
I0509 23:49:01.668365 25837 net.cpp:372] inception_4e/pool_proj <- inception_4e/pool
I0509 23:49:01.668373 25837 net.cpp:334] inception_4e/pool_proj -> inception_4e/pool_proj
I0509 23:49:01.668383 25837 net.cpp:105] Setting up inception_4e/pool_proj
I0509 23:49:01.668959 25837 net.cpp:112] Top shape: 32 128 14 14 (802816)
I0509 23:49:01.668977 25837 layer_factory.hpp:74] Creating layer inception_4e/relu_pool_proj
I0509 23:49:01.668984 25837 net.cpp:76] Creating Layer inception_4e/relu_pool_proj
I0509 23:49:01.668992 25837 net.cpp:372] inception_4e/relu_pool_proj <- inception_4e/pool_proj
I0509 23:49:01.668999 25837 net.cpp:323] inception_4e/relu_pool_proj -> inception_4e/pool_proj (in-place)
I0509 23:49:01.669008 25837 net.cpp:105] Setting up inception_4e/relu_pool_proj
I0509 23:49:01.669013 25837 net.cpp:112] Top shape: 32 128 14 14 (802816)
I0509 23:49:01.669018 25837 layer_factory.hpp:74] Creating layer inception_4e/output
I0509 23:49:01.669028 25837 net.cpp:76] Creating Layer inception_4e/output
I0509 23:49:01.669034 25837 net.cpp:372] inception_4e/output <- inception_4e/1x1
I0509 23:49:01.669040 25837 net.cpp:372] inception_4e/output <- inception_4e/3x3
I0509 23:49:01.669046 25837 net.cpp:372] inception_4e/output <- inception_4e/5x5
I0509 23:49:01.669054 25837 net.cpp:372] inception_4e/output <- inception_4e/pool_proj
I0509 23:49:01.669064 25837 net.cpp:334] inception_4e/output -> inception_4e/output
I0509 23:49:01.669072 25837 net.cpp:105] Setting up inception_4e/output
I0509 23:49:01.669080 25837 net.cpp:112] Top shape: 32 832 14 14 (5218304)
I0509 23:49:01.669085 25837 layer_factory.hpp:74] Creating layer pool4/3x3_s2
I0509 23:49:01.669093 25837 net.cpp:76] Creating Layer pool4/3x3_s2
I0509 23:49:01.669100 25837 net.cpp:372] pool4/3x3_s2 <- inception_4e/output
I0509 23:49:01.669107 25837 net.cpp:334] pool4/3x3_s2 -> pool4/3x3_s2
I0509 23:49:01.669116 25837 net.cpp:105] Setting up pool4/3x3_s2
I0509 23:49:01.669126 25837 net.cpp:112] Top shape: 32 832 7 7 (1304576)
I0509 23:49:01.669132 25837 layer_factory.hpp:74] Creating layer pool4/3x3_s2_pool4/3x3_s2_0_split
I0509 23:49:01.669142 25837 net.cpp:76] Creating Layer pool4/3x3_s2_pool4/3x3_s2_0_split
I0509 23:49:01.669152 25837 net.cpp:372] pool4/3x3_s2_pool4/3x3_s2_0_split <- pool4/3x3_s2
I0509 23:49:01.669158 25837 net.cpp:334] pool4/3x3_s2_pool4/3x3_s2_0_split -> pool4/3x3_s2_pool4/3x3_s2_0_split_0
I0509 23:49:01.669167 25837 net.cpp:334] pool4/3x3_s2_pool4/3x3_s2_0_split -> pool4/3x3_s2_pool4/3x3_s2_0_split_1
I0509 23:49:01.669176 25837 net.cpp:334] pool4/3x3_s2_pool4/3x3_s2_0_split -> pool4/3x3_s2_pool4/3x3_s2_0_split_2
I0509 23:49:01.669206 25837 net.cpp:334] pool4/3x3_s2_pool4/3x3_s2_0_split -> pool4/3x3_s2_pool4/3x3_s2_0_split_3
I0509 23:49:01.669215 25837 net.cpp:105] Setting up pool4/3x3_s2_pool4/3x3_s2_0_split
I0509 23:49:01.669224 25837 net.cpp:112] Top shape: 32 832 7 7 (1304576)
I0509 23:49:01.669229 25837 net.cpp:112] Top shape: 32 832 7 7 (1304576)
I0509 23:49:01.669234 25837 net.cpp:112] Top shape: 32 832 7 7 (1304576)
I0509 23:49:01.669239 25837 net.cpp:112] Top shape: 32 832 7 7 (1304576)
I0509 23:49:01.669245 25837 layer_factory.hpp:74] Creating layer inception_5a/1x1
I0509 23:49:01.669256 25837 net.cpp:76] Creating Layer inception_5a/1x1
I0509 23:49:01.669262 25837 net.cpp:372] inception_5a/1x1 <- pool4/3x3_s2_pool4/3x3_s2_0_split_0
I0509 23:49:01.669288 25837 net.cpp:334] inception_5a/1x1 -> inception_5a/1x1
I0509 23:49:01.669299 25837 net.cpp:105] Setting up inception_5a/1x1
I0509 23:49:01.671111 25837 net.cpp:112] Top shape: 32 256 7 7 (401408)
I0509 23:49:01.671129 25837 layer_factory.hpp:74] Creating layer inception_5a/relu_1x1
I0509 23:49:01.671138 25837 net.cpp:76] Creating Layer inception_5a/relu_1x1
I0509 23:49:01.671144 25837 net.cpp:372] inception_5a/relu_1x1 <- inception_5a/1x1
I0509 23:49:01.671152 25837 net.cpp:323] inception_5a/relu_1x1 -> inception_5a/1x1 (in-place)
I0509 23:49:01.671176 25837 net.cpp:105] Setting up inception_5a/relu_1x1
I0509 23:49:01.671183 25837 net.cpp:112] Top shape: 32 256 7 7 (401408)
I0509 23:49:01.671188 25837 layer_factory.hpp:74] Creating layer inception_5a/3x3_reduce
I0509 23:49:01.671200 25837 net.cpp:76] Creating Layer inception_5a/3x3_reduce
I0509 23:49:01.671206 25837 net.cpp:372] inception_5a/3x3_reduce <- pool4/3x3_s2_pool4/3x3_s2_0_split_1
I0509 23:49:01.671216 25837 net.cpp:334] inception_5a/3x3_reduce -> inception_5a/3x3_reduce
I0509 23:49:01.671224 25837 net.cpp:105] Setting up inception_5a/3x3_reduce
I0509 23:49:01.672359 25837 net.cpp:112] Top shape: 32 160 7 7 (250880)
I0509 23:49:01.672374 25837 layer_factory.hpp:74] Creating layer inception_5a/relu_3x3_reduce
I0509 23:49:01.672384 25837 net.cpp:76] Creating Layer inception_5a/relu_3x3_reduce
I0509 23:49:01.672389 25837 net.cpp:372] inception_5a/relu_3x3_reduce <- inception_5a/3x3_reduce
I0509 23:49:01.672399 25837 net.cpp:323] inception_5a/relu_3x3_reduce -> inception_5a/3x3_reduce (in-place)
I0509 23:49:01.672408 25837 net.cpp:105] Setting up inception_5a/relu_3x3_reduce
I0509 23:49:01.672415 25837 net.cpp:112] Top shape: 32 160 7 7 (250880)
I0509 23:49:01.672420 25837 layer_factory.hpp:74] Creating layer inception_5a/3x3
I0509 23:49:01.672430 25837 net.cpp:76] Creating Layer inception_5a/3x3
I0509 23:49:01.672435 25837 net.cpp:372] inception_5a/3x3 <- inception_5a/3x3_reduce
I0509 23:49:01.672446 25837 net.cpp:334] inception_5a/3x3 -> inception_5a/3x3
I0509 23:49:01.672454 25837 net.cpp:105] Setting up inception_5a/3x3
I0509 23:49:01.676323 25837 net.cpp:112] Top shape: 32 320 7 7 (501760)
I0509 23:49:01.676352 25837 layer_factory.hpp:74] Creating layer inception_5a/relu_3x3
I0509 23:49:01.676362 25837 net.cpp:76] Creating Layer inception_5a/relu_3x3
I0509 23:49:01.676370 25837 net.cpp:372] inception_5a/relu_3x3 <- inception_5a/3x3
I0509 23:49:01.676379 25837 net.cpp:323] inception_5a/relu_3x3 -> inception_5a/3x3 (in-place)
I0509 23:49:01.676388 25837 net.cpp:105] Setting up inception_5a/relu_3x3
I0509 23:49:01.676394 25837 net.cpp:112] Top shape: 32 320 7 7 (501760)
I0509 23:49:01.676400 25837 layer_factory.hpp:74] Creating layer inception_5a/5x5_reduce
I0509 23:49:01.676414 25837 net.cpp:76] Creating Layer inception_5a/5x5_reduce
I0509 23:49:01.676421 25837 net.cpp:372] inception_5a/5x5_reduce <- pool4/3x3_s2_pool4/3x3_s2_0_split_2
I0509 23:49:01.676431 25837 net.cpp:334] inception_5a/5x5_reduce -> inception_5a/5x5_reduce
I0509 23:49:01.676442 25837 net.cpp:105] Setting up inception_5a/5x5_reduce
I0509 23:49:01.676681 25837 net.cpp:112] Top shape: 32 32 7 7 (50176)
I0509 23:49:01.676693 25837 layer_factory.hpp:74] Creating layer inception_5a/relu_5x5_reduce
I0509 23:49:01.677541 25837 net.cpp:76] Creating Layer inception_5a/relu_5x5_reduce
I0509 23:49:01.677551 25837 net.cpp:372] inception_5a/relu_5x5_reduce <- inception_5a/5x5_reduce
I0509 23:49:01.677561 25837 net.cpp:323] inception_5a/relu_5x5_reduce -> inception_5a/5x5_reduce (in-place)
I0509 23:49:01.677568 25837 net.cpp:105] Setting up inception_5a/relu_5x5_reduce
I0509 23:49:01.677574 25837 net.cpp:112] Top shape: 32 32 7 7 (50176)
I0509 23:49:01.677582 25837 layer_factory.hpp:74] Creating layer inception_5a/5x5
I0509 23:49:01.677594 25837 net.cpp:76] Creating Layer inception_5a/5x5
I0509 23:49:01.677600 25837 net.cpp:372] inception_5a/5x5 <- inception_5a/5x5_reduce
I0509 23:49:01.677611 25837 net.cpp:334] inception_5a/5x5 -> inception_5a/5x5
I0509 23:49:01.677620 25837 net.cpp:105] Setting up inception_5a/5x5
I0509 23:49:01.678494 25837 net.cpp:112] Top shape: 32 128 7 7 (200704)
I0509 23:49:01.678510 25837 layer_factory.hpp:74] Creating layer inception_5a/relu_5x5
I0509 23:49:01.678519 25837 net.cpp:76] Creating Layer inception_5a/relu_5x5
I0509 23:49:01.678526 25837 net.cpp:372] inception_5a/relu_5x5 <- inception_5a/5x5
I0509 23:49:01.678535 25837 net.cpp:323] inception_5a/relu_5x5 -> inception_5a/5x5 (in-place)
I0509 23:49:01.678544 25837 net.cpp:105] Setting up inception_5a/relu_5x5
I0509 23:49:01.678583 25837 net.cpp:112] Top shape: 32 128 7 7 (200704)
I0509 23:49:01.678591 25837 layer_factory.hpp:74] Creating layer inception_5a/pool
I0509 23:49:01.678601 25837 net.cpp:76] Creating Layer inception_5a/pool
I0509 23:49:01.678606 25837 net.cpp:372] inception_5a/pool <- pool4/3x3_s2_pool4/3x3_s2_0_split_3
I0509 23:49:01.678617 25837 net.cpp:334] inception_5a/pool -> inception_5a/pool
I0509 23:49:01.678627 25837 net.cpp:105] Setting up inception_5a/pool
I0509 23:49:01.678637 25837 net.cpp:112] Top shape: 32 832 7 7 (1304576)
I0509 23:49:01.678642 25837 layer_factory.hpp:74] Creating layer inception_5a/pool_proj
I0509 23:49:01.678652 25837 net.cpp:76] Creating Layer inception_5a/pool_proj
I0509 23:49:01.678658 25837 net.cpp:372] inception_5a/pool_proj <- inception_5a/pool
I0509 23:49:01.678668 25837 net.cpp:334] inception_5a/pool_proj -> inception_5a/pool_proj
I0509 23:49:01.678679 25837 net.cpp:105] Setting up inception_5a/pool_proj
I0509 23:49:01.679597 25837 net.cpp:112] Top shape: 32 128 7 7 (200704)
I0509 23:49:01.679613 25837 layer_factory.hpp:74] Creating layer inception_5a/relu_pool_proj
I0509 23:49:01.679625 25837 net.cpp:76] Creating Layer inception_5a/relu_pool_proj
I0509 23:49:01.679631 25837 net.cpp:372] inception_5a/relu_pool_proj <- inception_5a/pool_proj
I0509 23:49:01.679639 25837 net.cpp:323] inception_5a/relu_pool_proj -> inception_5a/pool_proj (in-place)
I0509 23:49:01.679647 25837 net.cpp:105] Setting up inception_5a/relu_pool_proj
I0509 23:49:01.679653 25837 net.cpp:112] Top shape: 32 128 7 7 (200704)
I0509 23:49:01.679659 25837 layer_factory.hpp:74] Creating layer inception_5a/output
I0509 23:49:01.679668 25837 net.cpp:76] Creating Layer inception_5a/output
I0509 23:49:01.679674 25837 net.cpp:372] inception_5a/output <- inception_5a/1x1
I0509 23:49:01.679680 25837 net.cpp:372] inception_5a/output <- inception_5a/3x3
I0509 23:49:01.679687 25837 net.cpp:372] inception_5a/output <- inception_5a/5x5
I0509 23:49:01.679693 25837 net.cpp:372] inception_5a/output <- inception_5a/pool_proj
I0509 23:49:01.679704 25837 net.cpp:334] inception_5a/output -> inception_5a/output
I0509 23:49:01.679713 25837 net.cpp:105] Setting up inception_5a/output
I0509 23:49:01.679721 25837 net.cpp:112] Top shape: 32 832 7 7 (1304576)
I0509 23:49:01.679728 25837 layer_factory.hpp:74] Creating layer inception_5a/output_inception_5a/output_0_split
I0509 23:49:01.679735 25837 net.cpp:76] Creating Layer inception_5a/output_inception_5a/output_0_split
I0509 23:49:01.679741 25837 net.cpp:372] inception_5a/output_inception_5a/output_0_split <- inception_5a/output
I0509 23:49:01.679749 25837 net.cpp:334] inception_5a/output_inception_5a/output_0_split -> inception_5a/output_inception_5a/output_0_split_0
I0509 23:49:01.679759 25837 net.cpp:334] inception_5a/output_inception_5a/output_0_split -> inception_5a/output_inception_5a/output_0_split_1
I0509 23:49:01.679770 25837 net.cpp:334] inception_5a/output_inception_5a/output_0_split -> inception_5a/output_inception_5a/output_0_split_2
I0509 23:49:01.679780 25837 net.cpp:334] inception_5a/output_inception_5a/output_0_split -> inception_5a/output_inception_5a/output_0_split_3
I0509 23:49:01.679788 25837 net.cpp:105] Setting up inception_5a/output_inception_5a/output_0_split
I0509 23:49:01.679795 25837 net.cpp:112] Top shape: 32 832 7 7 (1304576)
I0509 23:49:01.679801 25837 net.cpp:112] Top shape: 32 832 7 7 (1304576)
I0509 23:49:01.679806 25837 net.cpp:112] Top shape: 32 832 7 7 (1304576)
I0509 23:49:01.679811 25837 net.cpp:112] Top shape: 32 832 7 7 (1304576)
I0509 23:49:01.679817 25837 layer_factory.hpp:74] Creating layer inception_5b/1x1
I0509 23:49:01.679826 25837 net.cpp:76] Creating Layer inception_5b/1x1
I0509 23:49:01.679831 25837 net.cpp:372] inception_5b/1x1 <- inception_5a/output_inception_5a/output_0_split_0
I0509 23:49:01.679841 25837 net.cpp:334] inception_5b/1x1 -> inception_5b/1x1
I0509 23:49:01.679852 25837 net.cpp:105] Setting up inception_5b/1x1
I0509 23:49:01.682514 25837 net.cpp:112] Top shape: 32 384 7 7 (602112)
I0509 23:49:01.682531 25837 layer_factory.hpp:74] Creating layer inception_5b/relu_1x1
I0509 23:49:01.682559 25837 net.cpp:76] Creating Layer inception_5b/relu_1x1
I0509 23:49:01.682567 25837 net.cpp:372] inception_5b/relu_1x1 <- inception_5b/1x1
I0509 23:49:01.682577 25837 net.cpp:323] inception_5b/relu_1x1 -> inception_5b/1x1 (in-place)
I0509 23:49:01.682586 25837 net.cpp:105] Setting up inception_5b/relu_1x1
I0509 23:49:01.682592 25837 net.cpp:112] Top shape: 32 384 7 7 (602112)
I0509 23:49:01.682598 25837 layer_factory.hpp:74] Creating layer inception_5b/3x3_reduce
I0509 23:49:01.682607 25837 net.cpp:76] Creating Layer inception_5b/3x3_reduce
I0509 23:49:01.682615 25837 net.cpp:372] inception_5b/3x3_reduce <- inception_5a/output_inception_5a/output_0_split_1
I0509 23:49:01.682624 25837 net.cpp:334] inception_5b/3x3_reduce -> inception_5b/3x3_reduce
I0509 23:49:01.682634 25837 net.cpp:105] Setting up inception_5b/3x3_reduce
I0509 23:49:01.683970 25837 net.cpp:112] Top shape: 32 192 7 7 (301056)
I0509 23:49:01.683984 25837 layer_factory.hpp:74] Creating layer inception_5b/relu_3x3_reduce
I0509 23:49:01.683995 25837 net.cpp:76] Creating Layer inception_5b/relu_3x3_reduce
I0509 23:49:01.684002 25837 net.cpp:372] inception_5b/relu_3x3_reduce <- inception_5b/3x3_reduce
I0509 23:49:01.684010 25837 net.cpp:323] inception_5b/relu_3x3_reduce -> inception_5b/3x3_reduce (in-place)
I0509 23:49:01.684018 25837 net.cpp:105] Setting up inception_5b/relu_3x3_reduce
I0509 23:49:01.684023 25837 net.cpp:112] Top shape: 32 192 7 7 (301056)
I0509 23:49:01.684029 25837 layer_factory.hpp:74] Creating layer inception_5b/3x3
I0509 23:49:01.684041 25837 net.cpp:76] Creating Layer inception_5b/3x3
I0509 23:49:01.684047 25837 net.cpp:372] inception_5b/3x3 <- inception_5b/3x3_reduce
I0509 23:49:01.684056 25837 net.cpp:334] inception_5b/3x3 -> inception_5b/3x3
I0509 23:49:01.684084 25837 net.cpp:105] Setting up inception_5b/3x3
I0509 23:49:01.690054 25837 net.cpp:112] Top shape: 32 384 7 7 (602112)
I0509 23:49:01.690081 25837 layer_factory.hpp:74] Creating layer inception_5b/relu_3x3
I0509 23:49:01.690093 25837 net.cpp:76] Creating Layer inception_5b/relu_3x3
I0509 23:49:01.690100 25837 net.cpp:372] inception_5b/relu_3x3 <- inception_5b/3x3
I0509 23:49:01.690109 25837 net.cpp:323] inception_5b/relu_3x3 -> inception_5b/3x3 (in-place)
I0509 23:49:01.690119 25837 net.cpp:105] Setting up inception_5b/relu_3x3
I0509 23:49:01.690124 25837 net.cpp:112] Top shape: 32 384 7 7 (602112)
I0509 23:49:01.690130 25837 layer_factory.hpp:74] Creating layer inception_5b/5x5_reduce
I0509 23:49:01.690145 25837 net.cpp:76] Creating Layer inception_5b/5x5_reduce
I0509 23:49:01.690150 25837 net.cpp:372] inception_5b/5x5_reduce <- inception_5a/output_inception_5a/output_0_split_2
I0509 23:49:01.690162 25837 net.cpp:334] inception_5b/5x5_reduce -> inception_5b/5x5_reduce
I0509 23:49:01.690172 25837 net.cpp:105] Setting up inception_5b/5x5_reduce
I0509 23:49:01.690531 25837 net.cpp:112] Top shape: 32 48 7 7 (75264)
I0509 23:49:01.690544 25837 layer_factory.hpp:74] Creating layer inception_5b/relu_5x5_reduce
I0509 23:49:01.690558 25837 net.cpp:76] Creating Layer inception_5b/relu_5x5_reduce
I0509 23:49:01.690565 25837 net.cpp:372] inception_5b/relu_5x5_reduce <- inception_5b/5x5_reduce
I0509 23:49:01.690572 25837 net.cpp:323] inception_5b/relu_5x5_reduce -> inception_5b/5x5_reduce (in-place)
I0509 23:49:01.690580 25837 net.cpp:105] Setting up inception_5b/relu_5x5_reduce
I0509 23:49:01.690587 25837 net.cpp:112] Top shape: 32 48 7 7 (75264)
I0509 23:49:01.690593 25837 layer_factory.hpp:74] Creating layer inception_5b/5x5
I0509 23:49:01.690601 25837 net.cpp:76] Creating Layer inception_5b/5x5
I0509 23:49:01.690608 25837 net.cpp:372] inception_5b/5x5 <- inception_5b/5x5_reduce
I0509 23:49:01.690620 25837 net.cpp:334] inception_5b/5x5 -> inception_5b/5x5
I0509 23:49:01.690634 25837 net.cpp:105] Setting up inception_5b/5x5
I0509 23:49:01.691922 25837 net.cpp:112] Top shape: 32 128 7 7 (200704)
I0509 23:49:01.691937 25837 layer_factory.hpp:74] Creating layer inception_5b/relu_5x5
I0509 23:49:01.691946 25837 net.cpp:76] Creating Layer inception_5b/relu_5x5
I0509 23:49:01.691978 25837 net.cpp:372] inception_5b/relu_5x5 <- inception_5b/5x5
I0509 23:49:01.691987 25837 net.cpp:323] inception_5b/relu_5x5 -> inception_5b/5x5 (in-place)
I0509 23:49:01.691995 25837 net.cpp:105] Setting up inception_5b/relu_5x5
I0509 23:49:01.692000 25837 net.cpp:112] Top shape: 32 128 7 7 (200704)
I0509 23:49:01.692006 25837 layer_factory.hpp:74] Creating layer inception_5b/pool
I0509 23:49:01.692015 25837 net.cpp:76] Creating Layer inception_5b/pool
I0509 23:49:01.692023 25837 net.cpp:372] inception_5b/pool <- inception_5a/output_inception_5a/output_0_split_3
I0509 23:49:01.692033 25837 net.cpp:334] inception_5b/pool -> inception_5b/pool
I0509 23:49:01.692042 25837 net.cpp:105] Setting up inception_5b/pool
I0509 23:49:01.692051 25837 net.cpp:112] Top shape: 32 832 7 7 (1304576)
I0509 23:49:01.692056 25837 layer_factory.hpp:74] Creating layer inception_5b/pool_proj
I0509 23:49:01.692070 25837 net.cpp:76] Creating Layer inception_5b/pool_proj
I0509 23:49:01.692076 25837 net.cpp:372] inception_5b/pool_proj <- inception_5b/pool
I0509 23:49:01.692085 25837 net.cpp:334] inception_5b/pool_proj -> inception_5b/pool_proj
I0509 23:49:01.692095 25837 net.cpp:105] Setting up inception_5b/pool_proj
I0509 23:49:01.692997 25837 net.cpp:112] Top shape: 32 128 7 7 (200704)
I0509 23:49:01.693011 25837 layer_factory.hpp:74] Creating layer inception_5b/relu_pool_proj
I0509 23:49:01.693020 25837 net.cpp:76] Creating Layer inception_5b/relu_pool_proj
I0509 23:49:01.693027 25837 net.cpp:372] inception_5b/relu_pool_proj <- inception_5b/pool_proj
I0509 23:49:01.693035 25837 net.cpp:323] inception_5b/relu_pool_proj -> inception_5b/pool_proj (in-place)
I0509 23:49:01.693043 25837 net.cpp:105] Setting up inception_5b/relu_pool_proj
I0509 23:49:01.693048 25837 net.cpp:112] Top shape: 32 128 7 7 (200704)
I0509 23:49:01.693054 25837 layer_factory.hpp:74] Creating layer inception_5b/output
I0509 23:49:01.693065 25837 net.cpp:76] Creating Layer inception_5b/output
I0509 23:49:01.693073 25837 net.cpp:372] inception_5b/output <- inception_5b/1x1
I0509 23:49:01.693079 25837 net.cpp:372] inception_5b/output <- inception_5b/3x3
I0509 23:49:01.693085 25837 net.cpp:372] inception_5b/output <- inception_5b/5x5
I0509 23:49:01.693092 25837 net.cpp:372] inception_5b/output <- inception_5b/pool_proj
I0509 23:49:01.693099 25837 net.cpp:334] inception_5b/output -> inception_5b/output
I0509 23:49:01.693109 25837 net.cpp:105] Setting up inception_5b/output
I0509 23:49:01.693115 25837 net.cpp:112] Top shape: 32 1024 7 7 (1605632)
I0509 23:49:01.693120 25837 layer_factory.hpp:74] Creating layer pool5/7x7_s1
I0509 23:49:01.693128 25837 net.cpp:76] Creating Layer pool5/7x7_s1
I0509 23:49:01.693135 25837 net.cpp:372] pool5/7x7_s1 <- inception_5b/output
I0509 23:49:01.693146 25837 net.cpp:334] pool5/7x7_s1 -> pool5/7x7_s1
I0509 23:49:01.693155 25837 net.cpp:105] Setting up pool5/7x7_s1
I0509 23:49:01.693161 25837 net.cpp:112] Top shape: 32 1024 1 1 (32768)
I0509 23:49:01.693167 25837 layer_factory.hpp:74] Creating layer pool5/drop_7x7_s1
I0509 23:49:01.693176 25837 net.cpp:76] Creating Layer pool5/drop_7x7_s1
I0509 23:49:01.693181 25837 net.cpp:372] pool5/drop_7x7_s1 <- pool5/7x7_s1
I0509 23:49:01.693188 25837 net.cpp:323] pool5/drop_7x7_s1 -> pool5/7x7_s1 (in-place)
I0509 23:49:01.693197 25837 net.cpp:105] Setting up pool5/drop_7x7_s1
I0509 23:49:01.693203 25837 net.cpp:112] Top shape: 32 1024 1 1 (32768)
I0509 23:49:01.693209 25837 layer_factory.hpp:74] Creating layer loss3/classifier
I0509 23:49:01.693222 25837 net.cpp:76] Creating Layer loss3/classifier
I0509 23:49:01.693228 25837 net.cpp:372] loss3/classifier <- pool5/7x7_s1
I0509 23:49:01.693235 25837 net.cpp:334] loss3/classifier -> loss3/classifier
I0509 23:49:01.693244 25837 net.cpp:105] Setting up loss3/classifier
I0509 23:49:01.693292 25837 net.cpp:112] Top shape: 32 2 1 1 (64)
I0509 23:49:01.693305 25837 layer_factory.hpp:74] Creating layer loss3/loss3
I0509 23:49:01.693316 25837 net.cpp:76] Creating Layer loss3/loss3
I0509 23:49:01.693323 25837 net.cpp:372] loss3/loss3 <- loss3/classifier
I0509 23:49:01.693342 25837 net.cpp:372] loss3/loss3 <- label_data_1_split_2
I0509 23:49:01.693351 25837 net.cpp:334] loss3/loss3 -> loss3/loss3
I0509 23:49:01.693361 25837 net.cpp:105] Setting up loss3/loss3
I0509 23:49:01.693369 25837 layer_factory.hpp:74] Creating layer loss3/loss3
I0509 23:49:01.693385 25837 net.cpp:112] Top shape: 1 1 1 1 (1)
I0509 23:49:01.693392 25837 net.cpp:118]     with loss weight 1
I0509 23:49:01.693409 25837 net.cpp:163] loss3/loss3 needs backward computation.
I0509 23:49:01.693416 25837 net.cpp:163] loss3/classifier needs backward computation.
I0509 23:49:01.693441 25837 net.cpp:163] pool5/drop_7x7_s1 needs backward computation.
I0509 23:49:01.693447 25837 net.cpp:163] pool5/7x7_s1 needs backward computation.
…
I0509 23:49:01.701572 25837 solver.cpp:154] Creating test net (#0) specified by net file: ../../train_val.prototxt
I0509 23:49:01.701808 25837 net.cpp:253] The NetState phase (1) differed from the phase (0) specified by a rule in layer data
I0509 23:49:01.703208 25837 net.cpp:42] Initializing net from parameters: 
name: "GoogleNet"
state {
  phase: TEST
}
layer {
  name: "data"
  type: "Data"
  top: "data"
  top: "label"
  include {
    phase: TEST
  }
  transform_param {
    mirror: false
    crop_size: 224
    mean_value: 104
    mean_value: 117
    mean_value: 123
  }
  data_param {
    source: "val_lmdb"
    batch_size: 32
    backend: LMDB
  }
}
layer {
  name: "conv1/7x7_s2"
  type: "Convolution"
  bottom: "data"
  top: "conv1/7x7_s2"
  param {
    lr_mult: 1
    decay_mult: 1
  }
  param {
    lr_mult: 2
    decay_mult: 0
  }
  convolution_param {
    num_output: 64
    pad: 3
    kernel_size: 7
    stride: 2
    weight_filler {
      type: "xavier"
      std: 0.1
    }
    bias_filler {
      type: "constant"
      value: 0.2
    }
  }
}
layer {
  name: "conv1/relu_7x7"
  type: "ReLU"
  bottom: "conv1/7x7_s2"
  top: "conv1/7x7_s2"
}
layer {
  name: "pool1/3x3_s2"
  type: "Pooling"
  bottom: "conv1/7x7_s2"
  top: "pool1/3x3_s2"
  pooling_param {
    pool: MAX
    kernel_size: 3
    stride: 2
  }
}
layer {
  name: "pool1/norm1"
  type: "LRN"
  bottom: "pool1/3x3_s2"
  top: "pool1/norm1"
  lrn_param {
    local_size: 5
    alpha: 0.0001
    beta: 0.75
  }
}
layer {
  name: "conv2/3x3_reduce"
  type: "Convolution"
  bottom: "pool1/norm1"
  top: "conv2/3x3_reduce"
  param {
    lr_mult: 1
    decay_mult: 1
  }
  param {
    lr_mult: 2
    decay_mult: 0
  }
  convolution_param {
    num_output: 64
    kernel_size: 1
    weight_filler {
      type: "xavier"
      std: 0.1
    }
    bias_filler {
      type: "constant"
      value: 0.2
    }
  }
}
layer {
  name: "conv2/relu_3x3_reduce"
  type: "ReLU"
  bottom: "conv2/3x3_reduce"
  top: "conv2/3x3_reduce"
}
layer {
  name: "conv2/3x3"
  type: "Convolution"
  bottom: "conv2/3x3_reduce"
  top: "conv2/3x3"
  param {
    lr_mult: 1
    decay_mult: 1
  }
  param {
    lr_mult: 2
    decay_mult: 0
  }
  convolution_param {
    num_output: 192
    pad: 1
    kernel_size: 3
    weight_filler {
      type: "xavier"
      std: 0.03
    }
    bias_filler {
      type: "constant"
      value: 0.2
    }
  }
}
layer {
  name: "conv2/relu_3x3"
  type: "ReLU"
  bottom: "conv2/3x3"
  top: "conv2/3x3"
}
layer {
  name: "conv2/norm2"
  type: "LRN"
  bottom: "conv2/3x3"
  top: "conv2/norm2"
  lrn_param {
    local_size: 5
    alpha: 0.0001
    beta: 0.75
  }
}
layer {
  name: "pool2/3x3_s2"
  type: "Pooling"
  bottom: "conv2/norm2"
  top: "pool2/3x3_s2"
  pooling_param {
    pool: MAX
    kernel_size: 3
    stride: 2
  }
}
layer {
  name: "inception_3a/1x1"
  type: "Convolution"
  bottom: "pool2/3x3_s2"
  top: "inception_3a/1x1"
  param {
    lr_mult: 1
    decay_mult: 1
  }
  param {
    lr_mult: 2
    decay_mult: 0
  }
  convolution_param {
    num_output: 64
    kernel_size: 1
    weight_filler {
      type: "xavier"
      std: 0.03
    }
    bias_filler {
      type: "constant"
      value: 0.2
    }
  }
}
layer {
  name: "inception_3a/relu_1x1"
  type: "ReLU"
  bottom: "inception_3a/1x1"
  top: "inception_3a/1x1"
}
layer {
  name: "inception_3a/3x3_reduce"
  type: "Convolution"
  bottom: "pool2/3x3_s2"
  top: "inception_3a/3x3_reduce"
  param {
    lr_mult: 1
    decay_mult: 1
  }
  param {
    lr_mult: 2
    decay_mult: 0
  }
  convolution_param {
    num_output: 96
    kernel_size: 1
    weight_filler {
      type: "xavier"
      std: 0.09
    }
    bias_filler {
      type: "constant"
      value: 0.2
    }
  }
}
layer {
  name: "inception_3a/relu_3x3_reduce"
  type: "ReLU"
  bottom: "inception_3a/3x3_reduce"
  top: "inception_3a/3x3_reduce"
}
layer {
  name: "inception_3a/3x3"
  type: "Convolution"
  bottom: "inception_3a/3x3_reduce"
  top: "inception_3a/3x3"
  param {
    lr_mult: 1
    decay_mult: 1
  }
  param {
    lr_mult: 2
    decay_mult: 0
  }
  convolution_param {
    num_output: 128
    pad: 1
    kernel_size: 3
    weight_filler {
      type: "xavier"
      std: 0.03
    }
    bias_filler {
      type: "constant"
      value: 0.2
    }
  }
}
layer {
  name: "inception_3a/relu_3x3"
  type: "ReLU"
  bottom: "inception_3a/3x3"
  top: "inception_3a/3x3"
}
layer {
  name: "inception_3a/5x5_reduce"
  type: "Convolution"
  bottom: "pool2/3x3_s2"
  top: "inception_3a/5x5_reduce"
  param {
    lr_mult: 1
    decay_mult: 1
  }
  param {
    lr_mult: 2
    decay_mult: 0
  }
  convolution_param {
    num_output: 16
    kernel_size: 1
    weight_filler {
      type: "xavier"
      std: 0.2
    }
    bias_filler {
      type: "constant"
      value: 0.2
    }
  }
}
layer {
  name: "inception_3a/relu_5x5_reduce"
  type: "ReLU"
  bottom: "inception_3a/5x5_reduce"
  top: "inception_3a/5x5_reduce"
}
layer {
  name: "inception_3a/5x5"
  type: "Convolution"
  bottom: "inception_3a/5x5_reduce"
  top: "inception_3a/5x5"
  param {
    lr_mult: 1
    decay_mult: 1
  }
  param {
    lr_mult: 2
    decay_mult: 0
  }
  convolution_param {
    num_output: 32
    pad: 2
    kernel_size: 5
    weight_filler {
      type: "xavier"
      std: 0.03
    }
    bias_filler {
      type: "constant"
      value: 0.2
    }
  }
}
layer {
  name: "inception_3a/relu_5x5"
  type: "ReLU"
  bottom: "inception_3a/5x5"
  top: "inception_3a/5x5"
}
layer {
  name: "inception_3a/pool"
  type: "Pooling"
  bottom: "pool2/3x3_s2"
  top: "inception_3a/pool"
  pooling_param {
    pool: MAX
    kernel_size: 3
    stride: 1
    pad: 1
  }
}
layer {
  name: "inception_3a/pool_proj"
  type: "Convolution"
  bottom: "inception_3a/pool"
  top: "inception_3a/pool_proj"
  param {
    lr_mult: 1
    decay_mult: 1
  }
  param {
    lr_mult: 2
    decay_mult: 0
  }
  convolution_param {
    num_output: 32
    kernel_size: 1
    weight_filler {
      type: "xavier"
      std: 0.1
    }
    bias_filler {
      type: "constant"
      value: 0.2
    }
  }
}
layer {
  name: "inception_3a/relu_pool_proj"
  type: "ReLU"
  bottom: "inception_3a/pool_proj"
  top: "inception_3a/pool_proj"
}
layer {
  name: "inception_3a/output"
  type: "Concat"
  bottom: "inception_3a/1x1"
  bottom: "inception_3a/3x3"
  bottom: "inception_3a/5x5"
  bottom: "inception_3a/pool_proj"
  top: "inception_3a/output"
}
layer {
  name: "inception_3b/1x1"
  type: "Convolution"
  bottom: "inception_3a/output"
  top: "inception_3b/1x1"
  param {
    lr_mult: 1
    decay_mult: 1
  }
  param {
    lr_mult: 2
    decay_mult: 0
  }
  convolution_param {
    num_output: 128
    kernel_size: 1
    weight_filler {
      type: "xavier"
      std: 0.03
    }
    bias_filler {
      type: "constant"
      value: 0.2
    }
  }
}
layer {
  name: "inception_3b/relu_1x1"
  type: "ReLU"
  bottom: "inception_3b/1x1"
  top: "inception_3b/1x1"
}
layer {
  name: "inception_3b/3x3_reduce"
  type: "Convolution"
  bottom: "inception_3a/output"
  top: "inception_3b/3x3_reduce"
  param {
    lr_mult: 1
    decay_mult: 1
  }
  param {
    lr_mult: 2
    decay_mult: 0
  }
  convolution_param {
    num_output: 128
    kernel_size: 1
    weight_filler {
      type: "xavier"
      std: 0.09
    }
    bias_filler {
      type: "constant"
      value: 0.2
    }
  }
}
layer {
  name: "inception_3b/relu_3x3_reduce"
  type: "ReLU"
  bottom: "inception_3b/3x3_reduce"
  top: "inception_3b/3x3_reduce"
}
layer {
  name: "inception_3b/3x3"
  type: "Convolution"
  bottom: "inception_3b/3x3_reduce"
  top: "inception_3b/3x3"
  param {
    lr_mult: 1
    decay_mult: 1
  }
  param {
    lr_mult: 2
    decay_mult: 0
  }
  convolution_param {
    num_output: 192
    pad: 1
    kernel_size: 3
    weight_filler {
      type: "xavier"
      std: 0.03
    }
    bias_filler {
      type: "constant"
      value: 0.2
    }
  }
}
layer {
  name: "inception_3b/relu_3x3"
  type: "ReLU"
  bottom: "inception_3b/3x3"
  top: "inception_3b/3x3"
}
layer {
  name: "inception_3b/5x5_reduce"
  type: "Convolution"
  bottom: "inception_3a/output"
  top: "inception_3b/5x5_reduce"
  param {
    lr_mult: 1
    decay_mult: 1
  }
  param {
    lr_mult: 2
    decay_mult: 0
  }
  convolution_param {
    num_output: 32
    kernel_size: 1
    weight_filler {
      type: "xavier"
      std: 0.2
    }
    bias_filler {
      type: "constant"
      value: 0.2
    }
  }
}
layer {
  name: "inception_3b/relu_5x5_reduce"
  type: "ReLU"
  bottom: "inception_3b/5x5_reduce"
  top: "inception_3b/5x5_reduce"
}
layer {
  name: "inception_3b/5x5"
  type: "Convolution"
  bottom: "inception_3b/5x5_reduce"
  top: "inception_3b/5x5"
  param {
    lr_mult: 1
    decay_mult: 1
  }
  param {
    lr_mult: 2
    decay_mult: 0
  }
  convolution_param {
    num_output: 96
    pad: 2
    kernel_size: 5
    weight_filler {
      type: "xavier"
      std: 0.03
    }
    bias_filler {
      type: "constant"
      value: 0.2
    }
  }
}
layer {
  name: "inception_3b/relu_5x5"
  type: "ReLU"
  bottom: "inception_3b/5x5"
  top: "inception_3b/5x5"
}
layer {
  name: "inception_3b/pool"
  type: "Pooling"
  bottom: "inception_3a/output"
  top: "inception_3b/pool"
  pooling_param {
    pool: MAX
    kernel_size: 3
    stride: 1
    pad: 1
  }
}
layer {
  name: "inception_3b/pool_proj"
  type: "Convolution"
  bottom: "inception_3b/pool"
  top: "inception_3b/pool_proj"
  param {
    lr_mult: 1
    decay_mult: 1
  }
  param {
    lr_mult: 2
    decay_mult: 0
  }
  convolution_param {
    num_output: 64
    kernel_size: 1
    weight_filler {
      type: "xavier"
      std: 0.1
    }
    bias_filler {
      type: "constant"
      value: 0.2
    }
  }
}
layer {
  name: "inception_3b/relu_pool_proj"
  type: "ReLU"
  bottom: "inception_3b/pool_proj"
  top: "inception_3b/pool_proj"
}
layer {
  name: "inception_3b/output"
  type: "Concat"
  bottom: "inception_3b/1x1"
  bottom: "inception_3b/3x3"
  bottom: "inception_3b/5x5"
  bottom: "inception_3b/pool_proj"
  top: "inception_3b/output"
}
layer {
  name: "pool3/3x3_s2"
  type: "Pooling"
  bottom: "inception_3b/output"
  top: "pool3/3x3_s2"
  pooling_param {
    pool: MAX
    kernel_size: 3
    stride: 2
  }
}
layer {
  name: "inception_4a/1x1"
  type: "Convolution"
  bottom: "pool3/3x3_s2"
  top: "inception_4a/1x1"
  param {
    lr_mult: 1
    decay_mult: 1
  }
  param {
    lr_mult: 2
    decay_mult: 0
  }
  convolution_param {
    num_output: 192
    kernel_size: 1
    weight_filler {
      type: "xavier"
      std: 0.03
    }
    bias_filler {
      type: "constant"
      value: 0.2
    }
  }
}
layer {
  name: "inception_4a/relu_1x1"
  type: "ReLU"
  bottom: "inception_4a/1x1"
  top: "inception_4a/1x1"
}
layer {
  name: "inception_4a/3x3_reduce"
  type: "Convolution"
  bottom: "pool3/3x3_s2"
  top: "inception_4a/3x3_reduce"
  param {
    lr_mult: 1
    decay_mult: 1
  }
  param {
    lr_mult: 2
    decay_mult: 0
  }
  convolution_param {
    num_output: 96
    kernel_size: 1
    weight_filler {
      type: "xavier"
      std: 0.09
    }
    bias_filler {
      type: "constant"
      value: 0.2
    }
  }
}
layer {
  name: "inception_4a/relu_3x3_reduce"
  type: "ReLU"
  bottom: "inception_4a/3x3_reduce"
  top: "inception_4a/3x3_reduce"
}
layer {
  name: "inception_4a/3x3"
  type: "Convolution"
  bottom: "inception_4a/3x3_reduce"
  top: "inception_4a/3x3"
  param {
    lr_mult: 1
    decay_mult: 1
  }
  param {
    lr_mult: 2
    decay_mult: 0
  }
  convolution_param {
    num_output: 208
    pad: 1
    kernel_size: 3
    weight_filler {
      type: "xavier"
      std: 0.03
    }
    bias_filler {
      type: "constant"
      value: 0.2
    }
  }
}
layer {
  name: "inception_4a/relu_3x3"
  type: "ReLU"
  bottom: "inception_4a/3x3"
  top: "inception_4a/3x3"
}
layer {
  name: "inception_4a/5x5_reduce"
  type: "Convolution"
  bottom: "pool3/3x3_s2"
  top: "inception_4a/5x5_reduce"
  param {
    lr_mult: 1
    decay_mult: 1
  }
  param {
    lr_mult: 2
    decay_mult: 0
  }
  convolution_param {
    num_output: 16
    kernel_size: 1
    weight_filler {
      type: "xavier"
      std: 0.2
    }
    bias_filler {
      type: "constant"
      value: 0.2
    }
  }
}
layer {
  name: "inception_4a/relu_5x5_reduce"
  type: "ReLU"
  bottom: "inception_4a/5x5_reduce"
  top: "inception_4a/5x5_reduce"
}
layer {
  name: "inception_4a/5x5"
  type: "Convolution"
  bottom: "inception_4a/5x5_reduce"
  top: "inception_4a/5x5"
  param {
    lr_mult: 1
    decay_mult: 1
  }
  param {
    lr_mult: 2
    decay_mult: 0
  }
  convolution_param {
    num_output: 48
    pad: 2
    kernel_size: 5
    weight_filler {
      type: "xavier"
      std: 0.03
    }
    bias_filler {
      type: "constant"
      value: 0.2
    }
  }
}
layer {
  name: "inception_4a/relu_5x5"
  type: "ReLU"
  bottom: "inception_4a/5x5"
  top: "inception_4a/5x5"
}
layer {
  name: "inception_4a/pool"
  type: "Pooling"
  bottom: "pool3/3x3_s2"
  top: "inception_4a/pool"
  pooling_param {
    pool: MAX
    kernel_size: 3
    stride: 1
    pad: 1
  }
}
layer {
  name: "inception_4a/pool_proj"
  type: "Convolution"
  bottom: "inception_4a/pool"
  top: "inception_4a/pool_proj"
  param {
    lr_mult: 1
    decay_mult: 1
  }
  param {
    lr_mult: 2
    decay_mult: 0
  }
  convolution_param {
    num_output: 64
    kernel_size: 1
    weight_filler {
      type: "xavier"
      std: 0.1
    }
    bias_filler {
      type: "constant"
      value: 0.2
    }
  }
}
layer {
  name: "inception_4a/relu_pool_proj"
  type: "ReLU"
  bottom: "inception_4a/pool_proj"
  top: "inception_4a/pool_proj"
}
layer {
  name: "inception_4a/output"
  type: "Concat"
  bottom: "inception_4a/1x1"
  bottom: "inception_4a/3x3"
  bottom: "inception_4a/5x5"
  bottom: "inception_4a/pool_proj"
  top: "inception_4a/output"
}
layer {
  name: "loss1/ave_pool"
  type: "Pooling"
  bottom: "inception_4a/output"
  top: "loss1/ave_pool"
  pooling_param {
    pool: AVE
    kernel_size: 5
    stride: 3
  }
}
layer {
  name: "loss1/conv"
  type: "Convolution"
  bottom: "loss1/ave_pool"
  top: "loss1/conv"
  param {
    lr_mult: 1
    decay_mult: 1
  }
  param {
    lr_mult: 2
    decay_mult: 0
  }
  convolution_param {
    num_output: 128
    kernel_size: 1
    weight_filler {
      type: "xavier"
      std: 0.08
    }
    bias_filler {
      type: "constant"
      value: 0.2
    }
  }
}
layer {
  name: "loss1/relu_conv"
  type: "ReLU"
  bottom: "loss1/conv"
  top: "loss1/conv"
}
layer {
  name: "loss1/fc"
  type: "InnerProduct"
  bottom: "loss1/conv"
  top: "loss1/fc"
  param {
    lr_mult: 1
    decay_mult: 1
  }
  param {
    lr_mult: 2
    decay_mult: 0
  }
  inner_product_param {
    num_output: 1024
    weight_filler {
      type: "xavier"
      std: 0.02
    }
    bias_filler {
      type: "constant"
      value: 0.2
    }
  }
}
layer {
  name: "loss1/relu_fc"
  type: "ReLU"
  bottom: "loss1/fc"
  top: "loss1/fc"
}
layer {
  name: "loss1/drop_fc"
  type: "Dropout"
  bottom: "loss1/fc"
  top: "loss1/fc"
  dropout_param {
    dropout_ratio: 0.7
  }
}
layer {
  name: "loss1/classifier"
  type: "InnerProduct"
  bottom: "loss1/fc"
  top: "loss1/classifier"
  param {
    lr_mult: 1
    decay_mult: 1
  }
  param {
    lr_mult: 2
    decay_mult: 0
  }
  inner_product_param {
    num_output: 2
    weight_filler {
      type: "xavier"
      std: 0.0009765625
    }
    bias_filler {
      type: "constant"
      value: 0
    }
  }
}
layer {
  name: "loss1/loss"
  type: "SoftmaxWithLoss"
  bottom: "loss1/classifier"
  bottom: "label"
  top: "loss1/loss1"
  loss_weight: 0.3
}
layer {
  name: "loss1/top-1"
  type: "Accuracy"
  bottom: "loss1/classifier"
  bottom: "label"
  top: "loss1/top-1"
  include {
    phase: TEST
  }
}
layer {
  name: "inception_4b/1x1"
  type: "Convolution"
  bottom: "inception_4a/output"
  top: "inception_4b/1x1"
  param {
    lr_mult: 1
    decay_mult: 1
  }
  param {
    lr_mult: 2
    decay_mult: 0
  }
  convolution_param {
    num_output: 160
    kernel_size: 1
    weight_filler {
      type: "xavier"
      std: 0.03
    }
    bias_filler {
      type: "constant"
      value: 0.2
    }
  }
}
layer {
  name: "inception_4b/relu_1x1"
  type: "ReLU"
  bottom: "inception_4b/1x1"
  top: "inception_4b/1x1"
}
layer {
  name: "inception_4b/3x3_reduce"
  type: "Convolution"
  bottom: "inception_4a/output"
  top: "inception_4b/3x3_reduce"
  param {
    lr_mult: 1
    decay_mult: 1
  }
  param {
    lr_mult: 2
    decay_mult: 0
  }
  convolution_param {
    num_output: 112
    kernel_size: 1
    weight_filler {
      type: "xavier"
      std: 0.09
    }
    bias_filler {
      type: "constant"
      value: 0.2
    }
  }
}
layer {
  name: "inception_4b/relu_3x3_reduce"
  type: "ReLU"
  bottom: "inception_4b/3x3_reduce"
  top: "inception_4b/3x3_reduce"
}
layer {
  name: "inception_4b/3x3"
  type: "Convolution"
  bottom: "inception_4b/3x3_reduce"
  top: "inception_4b/3x3"
  param {
    lr_mult: 1
    decay_mult: 1
  }
  param {
    lr_mult: 2
    decay_mult: 0
  }
  convolution_param {
    num_output: 224
    pad: 1
    kernel_size: 3
    weight_filler {
      type: "xavier"
      std: 0.03
    }
    bias_filler {
      type: "constant"
      value: 0.2
    }
  }
}
layer {
  name: "inception_4b/relu_3x3"
  type: "ReLU"
  bottom: "inception_4b/3x3"
  top: "inception_4b/3x3"
}
layer {
  name: "inception_4b/5x5_reduce"
  type: "Convolution"
  bottom: "inception_4a/output"
  top: "inception_4b/5x5_reduce"
  param {
    lr_mult: 1
    decay_mult: 1
  }
  param {
    lr_mult: 2
    decay_mult: 0
  }
  convolution_param {
    num_output: 24
    kernel_size: 1
    weight_filler {
      type: "xavier"
      std: 0.2
    }
    bias_filler {
      type: "constant"
      value: 0.2
    }
  }
}
layer {
  name: "inception_4b/relu_5x5_reduce"
  type: "ReLU"
  bottom: "inception_4b/5x5_reduce"
  top: "inception_4b/5x5_reduce"
}
layer {
  name: "inception_4b/5x5"
  type: "Convolution"
  bottom: "inception_4b/5x5_reduce"
  top: "inception_4b/5x5"
  param {
    lr_mult: 1
    decay_mult: 1
  }
  param {
    lr_mult: 2
    decay_mult: 0
  }
  convolution_param {
    num_output: 64
    pad: 2
    kernel_size: 5
    weight_filler {
      type: "xavier"
      std: 0.03
    }
    bias_filler {
      type: "constant"
      value: 0.2
    }
  }
}
layer {
  name: "inception_4b/relu_5x5"
  type: "ReLU"
  bottom: "inception_4b/5x5"
  top: "inception_4b/5x5"
}
layer {
  name: "inception_4b/pool"
  type: "Pooling"
  bottom: "inception_4a/output"
  top: "inception_4b/pool"
  pooling_param {
    pool: MAX
    kernel_size: 3
    stride: 1
    pad: 1
  }
}
layer {
  name: "inception_4b/pool_proj"
  type: "Convolution"
  bottom: "inception_4b/pool"
  top: "inception_4b/pool_proj"
  param {
    lr_mult: 1
    decay_mult: 1
  }
  param {
    lr_mult: 2
    decay_mult: 0
  }
  convolution_param {
    num_output: 64
    kernel_size: 1
    weight_filler {
      type: "xavier"
      std: 0.1
    }
    bias_filler {
      type: "constant"
      value: 0.2
    }
  }
}
layer {
  name: "inception_4b/relu_pool_proj"
  type: "ReLU"
  bottom: "inception_4b/pool_proj"
  top: "inception_4b/pool_proj"
}
layer {
  name: "inception_4b/output"
  type: "Concat"
  bottom: "inception_4b/1x1"
  bottom: "inception_4b/3x3"
  bottom: "inception_4b/5x5"
  bottom: "inception_4b/pool_proj"
  top: "inception_4b/output"
}
layer {
  name: "inception_4c/1x1"
  type: "Convolution"
  bottom: "inception_4b/output"
  top: "inception_4c/1x1"
  param {
    lr_mult: 1
    decay_mult: 1
  }
  param {
    lr_mult: 2
    decay_mult: 0
  }
  convolution_param {
    num_output: 128
    kernel_size: 1
    weight_filler {
      type: "xavier"
      std: 0.03
    }
    bias_filler {
      type: "constant"
      value: 0.2
    }
  }
}
layer {
  name: "inception_4c/relu_1x1"
  type: "ReLU"
  bottom: "inception_4c/1x1"
  top: "inception_4c/1x1"
}
layer {
  name: "inception_4c/3x3_reduce"
  type: "Convolution"
  bottom: "inception_4b/output"
  top: "inception_4c/3x3_reduce"
  param {
    lr_mult: 1
    decay_mult: 1
  }
  param {
    lr_mult: 2
    decay_mult: 0
  }
  convolution_param {
    num_output: 128
    kernel_size: 1
    weight_filler {
      type: "xavier"
      std: 0.09
    }
    bias_filler {
      type: "constant"
      value: 0.2
    }
  }
}
layer {
  name: "inception_4c/relu_3x3_reduce"
  type: "ReLU"
  bottom: "inception_4c/3x3_reduce"
  top: "inception_4c/3x3_reduce"
}
layer {
  name: "inception_4c/3x3"
  type: "Convolution"
  bottom: "inception_4c/3x3_reduce"
  top: "inception_4c/3x3"
  param {
    lr_mult: 1
    decay_mult: 1
  }
  param {
    lr_mult: 2
    decay_mult: 0
  }
  convolution_param {
    num_output: 256
    pad: 1
    kernel_size: 3
    weight_filler {
      type: "xavier"
      std: 0.03
    }
    bias_filler {
      type: "constant"
      value: 0.2
    }
  }
}
layer {
  name: "inception_4c/relu_3x3"
  type: "ReLU"
  bottom: "inception_4c/3x3"
  top: "inception_4c/3x3"
}
layer {
  name: "inception_4c/5x5_reduce"
  type: "Convolution"
  bottom: "inception_4b/output"
  top: "inception_4c/5x5_reduce"
  param {
    lr_mult: 1
    decay_mult: 1
  }
  param {
    lr_mult: 2
    decay_mult: 0
  }
  convolution_param {
    num_output: 24
    kernel_size: 1
    weight_filler {
      type: "xavier"
      std: 0.2
    }
    bias_filler {
      type: "constant"
      value: 0.2
    }
  }
}
layer {
  name: "inception_4c/relu_5x5_reduce"
  type: "ReLU"
  bottom: "inception_4c/5x5_reduce"
  top: "inception_4c/5x5_reduce"
}
layer {
  name: "inception_4c/5x5"
  type: "Convolution"
  bottom: "inception_4c/5x5_reduce"
  top: "inception_4c/5x5"
  param {
    lr_mult: 1
    decay_mult: 1
  }
  param {
    lr_mult: 2
    decay_mult: 0
  }
  convolution_param {
    num_output: 64
    pad: 2
    kernel_size: 5
    weight_filler {
      type: "xavier"
      std: 0.03
    }
    bias_filler {
      type: "constant"
      value: 0.2
    }
  }
}
layer {
  name: "inception_4c/relu_5x5"
  type: "ReLU"
  bottom: "inception_4c/5x5"
  top: "inception_4c/5x5"
}
layer {
  name: "inception_4c/pool"
  type: "Pooling"
  bottom: "inception_4b/output"
  top: "inception_4c/pool"
  pooling_param {
    pool: MAX
    kernel_size: 3
    stride: 1
    pad: 1
  }
}
layer {
  name: "inception_4c/pool_proj"
  type: "Convolution"
  bottom: "inception_4c/pool"
  top: "inception_4c/pool_proj"
  param {
    lr_mult: 1
    decay_mult: 1
  }
  param {
    lr_mult: 2
    decay_mult: 0
  }
  convolution_param {
    num_output: 64
    kernel_size: 1
    weight_filler {
      type: "xavier"
      std: 0.1
    }
    bias_filler {
      type: "constant"
      value: 0.2
    }
  }
}
layer {
  name: "inception_4c/relu_pool_proj"
  type: "ReLU"
  bottom: "inception_4c/pool_proj"
  top: "inception_4c/pool_proj"
}
layer {
  name: "inception_4c/output"
  type: "Concat"
  bottom: "inception_4c/1x1"
  bottom: "inception_4c/3x3"
  bottom: "inception_4c/5x5"
  bottom: "inception_4c/pool_proj"
  top: "inception_4c/output"
}
layer {
  name: "inception_4d/1x1"
  type: "Convolution"
  bottom: "inception_4c/output"
  top: "inception_4d/1x1"
  param {
    lr_mult: 1
    decay_mult: 1
  }
  param {
    lr_mult: 2
    decay_mult: 0
  }
  convolution_param {
    num_output: 112
    kernel_size: 1
    weight_filler {
      type: "xavier"
      std: 0.03
    }
    bias_filler {
      type: "constant"
      value: 0.2
    }
  }
}
layer {
  name: "inception_4d/relu_1x1"
  type: "ReLU"
  bottom: "inception_4d/1x1"
  top: "inception_4d/1x1"
}
layer {
  name: "inception_4d/3x3_reduce"
  type: "Convolution"
  bottom: "inception_4c/output"
  top: "inception_4d/3x3_reduce"
  param {
    lr_mult: 1
    decay_mult: 1
  }
  param {
    lr_mult: 2
    decay_mult: 0
  }
  convolution_param {
    num_output: 144
    kernel_size: 1
    weight_filler {
      type: "xavier"
      std: 0.09
    }
    bias_filler {
      type: "constant"
      value: 0.2
    }
  }
}
layer {
  name: "inception_4d/relu_3x3_reduce"
  type: "ReLU"
  bottom: "inception_4d/3x3_reduce"
  top: "inception_4d/3x3_reduce"
}
layer {
  name: "inception_4d/3x3"
  type: "Convolution"
  bottom: "inception_4d/3x3_reduce"
  top: "inception_4d/3x3"
  param {
    lr_mult: 1
    decay_mult: 1
  }
  param {
    lr_mult: 2
    decay_mult: 0
  }
  convolution_param {
    num_output: 288
    pad: 1
    kernel_size: 3
    weight_filler {
      type: "xavier"
      std: 0.03
    }
    bias_filler {
      type: "constant"
      value: 0.2
    }
  }
}
layer {
  name: "inception_4d/relu_3x3"
  type: "ReLU"
  bottom: "inception_4d/3x3"
  top: "inception_4d/3x3"
}
layer {
  name: "inception_4d/5x5_reduce"
  type: "Convolution"
  bottom: "inception_4c/output"
  top: "inception_4d/5x5_reduce"
  param {
    lr_mult: 1
    decay_mult: 1
  }
  param {
    lr_mult: 2
    decay_mult: 0
  }
  convolution_param {
    num_output: 32
    kernel_size: 1
    weight_filler {
      type: "xavier"
      std: 0.2
    }
    bias_filler {
      type: "constant"
      value: 0.2
    }
  }
}
layer {
  name: "inception_4d/relu_5x5_reduce"
  type: "ReLU"
  bottom: "inception_4d/5x5_reduce"
  top: "inception_4d/5x5_reduce"
}
layer {
  name: "inception_4d/5x5"
  type: "Convolution"
  bottom: "inception_4d/5x5_reduce"
  top: "inception_4d/5x5"
  param {
    lr_mult: 1
    decay_mult: 1
  }
  param {
    lr_mult: 2
    decay_mult: 0
  }
  convolution_param {
    num_output: 64
    pad: 2
    kernel_size: 5
    weight_filler {
      type: "xavier"
      std: 0.03
    }
    bias_filler {
      type: "constant"
      value: 0.2
    }
  }
}
layer {
  name: "inception_4d/relu_5x5"
  type: "ReLU"
  bottom: "inception_4d/5x5"
  top: "inception_4d/5x5"
}
layer {
  name: "inception_4d/pool"
  type: "Pooling"
  bottom: "inception_4c/output"
  top: "inception_4d/pool"
  pooling_param {
    pool: MAX
    kernel_size: 3
    stride: 1
    pad: 1
  }
}
layer {
  name: "inception_4d/pool_proj"
  type: "Convolution"
  bottom: "inception_4d/pool"
  top: "inception_4d/pool_proj"
  param {
    lr_mult: 1
    decay_mult: 1
  }
  param {
    lr_mult: 2
    decay_mult: 0
  }
  convolution_param {
    num_output: 64
    kernel_size: 1
    weight_filler {
      type: "xavier"
      std: 0.1
    }
    bias_filler {
      type: "constant"
      value: 0.2
    }
  }
}
layer {
  name: "inception_4d/relu_pool_proj"
  type: "ReLU"
  bottom: "inception_4d/pool_proj"
  top: "inception_4d/pool_proj"
}
layer {
  name: "inception_4d/output"
  type: "Concat"
  bottom: "inception_4d/1x1"
  bottom: "inception_4d/3x3"
  bottom: "inception_4d/5x5"
  bottom: "inception_4d/pool_proj"
  top: "inception_4d/output"
}
layer {
  name: "loss2/ave_pool"
  type: "Pooling"
  bottom: "inception_4d/output"
  top: "loss2/ave_pool"
  pooling_param {
    pool: AVE
    kernel_size: 5
    stride: 3
  }
}
layer {
  name: "loss2/conv"
  type: "Convolution"
  bottom: "loss2/ave_pool"
  top: "loss2/conv"
  param {
    lr_mult: 1
    decay_mult: 1
  }
  param {
    lr_mult: 2
    decay_mult: 0
  }
  convolution_param {
    num_output: 128
    kernel_size: 1
    weight_filler {
      type: "xavier"
      std: 0.08
    }
    bias_filler {
      type: "constant"
      value: 0.2
    }
  }
}
layer {
  name: "loss2/relu_conv"
  type: "ReLU"
  bottom: "loss2/conv"
  top: "loss2/conv"
}
layer {
  name: "loss2/fc"
  type: "InnerProduct"
…
I0509 23:49:01.758123 25837 net.cpp:112] Top shape: 32 128 14 14 (802816)
I0509 23:49:01.758142 25837 layer_factory.hpp:74] Creating layer inception_4c/relu_1x1
I0509 23:49:01.758152 25837 net.cpp:76] Creating Layer inception_4c/relu_1x1
I0509 23:49:01.758159 25837 net.cpp:372] inception_4c/relu_1x1 <- inception_4c/1x1
I0509 23:49:01.758167 25837 net.cpp:323] inception_4c/relu_1x1 -> inception_4c/1x1 (in-place)
I0509 23:49:01.758175 25837 net.cpp:105] Setting up inception_4c/relu_1x1
I0509 23:49:01.758182 25837 net.cpp:112] Top shape: 32 128 14 14 (802816)
I0509 23:49:01.758213 25837 layer_factory.hpp:74] Creating layer inception_4c/3x3_reduce
I0509 23:49:01.758224 25837 net.cpp:76] Creating Layer inception_4c/3x3_reduce
I0509 23:49:01.758229 25837 net.cpp:372] inception_4c/3x3_reduce <- inception_4b/output_inception_4b/output_0_split_1
I0509 23:49:01.758241 25837 net.cpp:334] inception_4c/3x3_reduce -> inception_4c/3x3_reduce
I0509 23:49:01.758251 25837 net.cpp:105] Setting up inception_4c/3x3_reduce
I0509 23:49:01.758867 25837 net.cpp:112] Top shape: 32 128 14 14 (802816)
I0509 23:49:01.758887 25837 layer_factory.hpp:74] Creating layer inception_4c/relu_3x3_reduce
I0509 23:49:01.758896 25837 net.cpp:76] Creating Layer inception_4c/relu_3x3_reduce
I0509 23:49:01.758903 25837 net.cpp:372] inception_4c/relu_3x3_reduce <- inception_4c/3x3_reduce
I0509 23:49:01.758919 25837 net.cpp:323] inception_4c/relu_3x3_reduce -> inception_4c/3x3_reduce (in-place)
I0509 23:49:01.758934 25837 net.cpp:105] Setting up inception_4c/relu_3x3_reduce
I0509 23:49:01.758940 25837 net.cpp:112] Top shape: 32 128 14 14 (802816)
I0509 23:49:01.758946 25837 layer_factory.hpp:74] Creating layer inception_4c/3x3
I0509 23:49:01.758956 25837 net.cpp:76] Creating Layer inception_4c/3x3
I0509 23:49:01.758962 25837 net.cpp:372] inception_4c/3x3 <- inception_4c/3x3_reduce
I0509 23:49:01.758977 25837 net.cpp:334] inception_4c/3x3 -> inception_4c/3x3
I0509 23:49:01.758996 25837 net.cpp:105] Setting up inception_4c/3x3
I0509 23:49:01.761703 25837 net.cpp:112] Top shape: 32 256 14 14 (1605632)
I0509 23:49:01.761736 25837 layer_factory.hpp:74] Creating layer inception_4c/relu_3x3
I0509 23:49:01.761750 25837 net.cpp:76] Creating Layer inception_4c/relu_3x3
I0509 23:49:01.761760 25837 net.cpp:372] inception_4c/relu_3x3 <- inception_4c/3x3
I0509 23:49:01.761775 25837 net.cpp:323] inception_4c/relu_3x3 -> inception_4c/3x3 (in-place)
I0509 23:49:01.761787 25837 net.cpp:105] Setting up inception_4c/relu_3x3
I0509 23:49:01.761795 25837 net.cpp:112] Top shape: 32 256 14 14 (1605632)
I0509 23:49:01.761801 25837 layer_factory.hpp:74] Creating layer inception_4c/5x5_reduce
I0509 23:49:01.761817 25837 net.cpp:76] Creating Layer inception_4c/5x5_reduce
I0509 23:49:01.761828 25837 net.cpp:372] inception_4c/5x5_reduce <- inception_4b/output_inception_4b/output_0_split_2
I0509 23:49:01.761847 25837 net.cpp:334] inception_4c/5x5_reduce -> inception_4c/5x5_reduce
I0509 23:49:01.761860 25837 net.cpp:105] Setting up inception_4c/5x5_reduce
I0509 23:49:01.761996 25837 net.cpp:112] Top shape: 32 24 14 14 (150528)
I0509 23:49:01.762012 25837 layer_factory.hpp:74] Creating layer inception_4c/relu_5x5_reduce
I0509 23:49:01.762022 25837 net.cpp:76] Creating Layer inception_4c/relu_5x5_reduce
I0509 23:49:01.762028 25837 net.cpp:372] inception_4c/relu_5x5_reduce <- inception_4c/5x5_reduce
I0509 23:49:01.762037 25837 net.cpp:323] inception_4c/relu_5x5_reduce -> inception_4c/5x5_reduce (in-place)
I0509 23:49:01.762044 25837 net.cpp:105] Setting up inception_4c/relu_5x5_reduce
I0509 23:49:01.762050 25837 net.cpp:112] Top shape: 32 24 14 14 (150528)
I0509 23:49:01.762056 25837 layer_factory.hpp:74] Creating layer inception_4c/5x5
I0509 23:49:01.762068 25837 net.cpp:76] Creating Layer inception_4c/5x5
I0509 23:49:01.762074 25837 net.cpp:372] inception_4c/5x5 <- inception_4c/5x5_reduce
I0509 23:49:01.762083 25837 net.cpp:334] inception_4c/5x5 -> inception_4c/5x5
I0509 23:49:01.762091 25837 net.cpp:105] Setting up inception_4c/5x5
I0509 23:49:01.762434 25837 net.cpp:112] Top shape: 32 64 14 14 (401408)
I0509 23:49:01.762447 25837 layer_factory.hpp:74] Creating layer inception_4c/relu_5x5
I0509 23:49:01.762455 25837 net.cpp:76] Creating Layer inception_4c/relu_5x5
I0509 23:49:01.762462 25837 net.cpp:372] inception_4c/relu_5x5 <- inception_4c/5x5
I0509 23:49:01.762470 25837 net.cpp:323] inception_4c/relu_5x5 -> inception_4c/5x5 (in-place)
I0509 23:49:01.762477 25837 net.cpp:105] Setting up inception_4c/relu_5x5
I0509 23:49:01.762482 25837 net.cpp:112] Top shape: 32 64 14 14 (401408)
I0509 23:49:01.762488 25837 layer_factory.hpp:74] Creating layer inception_4c/pool
I0509 23:49:01.762517 25837 net.cpp:76] Creating Layer inception_4c/pool
I0509 23:49:01.762524 25837 net.cpp:372] inception_4c/pool <- inception_4b/output_inception_4b/output_0_split_3
I0509 23:49:01.762537 25837 net.cpp:334] inception_4c/pool -> inception_4c/pool
I0509 23:49:01.762547 25837 net.cpp:105] Setting up inception_4c/pool
I0509 23:49:01.762554 25837 net.cpp:112] Top shape: 32 512 14 14 (3211264)
I0509 23:49:01.762560 25837 layer_factory.hpp:74] Creating layer inception_4c/pool_proj
I0509 23:49:01.762573 25837 net.cpp:76] Creating Layer inception_4c/pool_proj
I0509 23:49:01.762578 25837 net.cpp:372] inception_4c/pool_proj <- inception_4c/pool
I0509 23:49:01.762586 25837 net.cpp:334] inception_4c/pool_proj -> inception_4c/pool_proj
I0509 23:49:01.762596 25837 net.cpp:105] Setting up inception_4c/pool_proj
I0509 23:49:01.762877 25837 net.cpp:112] Top shape: 32 64 14 14 (401408)
I0509 23:49:01.762891 25837 layer_factory.hpp:74] Creating layer inception_4c/relu_pool_proj
I0509 23:49:01.762902 25837 net.cpp:76] Creating Layer inception_4c/relu_pool_proj
I0509 23:49:01.762907 25837 net.cpp:372] inception_4c/relu_pool_proj <- inception_4c/pool_proj
I0509 23:49:01.762915 25837 net.cpp:323] inception_4c/relu_pool_proj -> inception_4c/pool_proj (in-place)
I0509 23:49:01.762923 25837 net.cpp:105] Setting up inception_4c/relu_pool_proj
I0509 23:49:01.762928 25837 net.cpp:112] Top shape: 32 64 14 14 (401408)
I0509 23:49:01.762934 25837 layer_factory.hpp:74] Creating layer inception_4c/output
I0509 23:49:01.762943 25837 net.cpp:76] Creating Layer inception_4c/output
I0509 23:49:01.762948 25837 net.cpp:372] inception_4c/output <- inception_4c/1x1
I0509 23:49:01.762955 25837 net.cpp:372] inception_4c/output <- inception_4c/3x3
I0509 23:49:01.762964 25837 net.cpp:372] inception_4c/output <- inception_4c/5x5
I0509 23:49:01.762971 25837 net.cpp:372] inception_4c/output <- inception_4c/pool_proj
I0509 23:49:01.762979 25837 net.cpp:334] inception_4c/output -> inception_4c/output
I0509 23:49:01.762987 25837 net.cpp:105] Setting up inception_4c/output
I0509 23:49:01.762995 25837 net.cpp:112] Top shape: 32 512 14 14 (3211264)
I0509 23:49:01.763000 25837 layer_factory.hpp:74] Creating layer inception_4c/output_inception_4c/output_0_split
I0509 23:49:01.763015 25837 net.cpp:76] Creating Layer inception_4c/output_inception_4c/output_0_split
I0509 23:49:01.763020 25837 net.cpp:372] inception_4c/output_inception_4c/output_0_split <- inception_4c/output
I0509 23:49:01.763030 25837 net.cpp:334] inception_4c/output_inception_4c/output_0_split -> inception_4c/output_inception_4c/output_0_split_0
I0509 23:49:01.763038 25837 net.cpp:334] inception_4c/output_inception_4c/output_0_split -> inception_4c/output_inception_4c/output_0_split_1
I0509 23:49:01.763047 25837 net.cpp:334] inception_4c/output_inception_4c/output_0_split -> inception_4c/output_inception_4c/output_0_split_2
I0509 23:49:01.763058 25837 net.cpp:334] inception_4c/output_inception_4c/output_0_split -> inception_4c/output_inception_4c/output_0_split_3
I0509 23:49:01.763089 25837 net.cpp:105] Setting up inception_4c/output_inception_4c/output_0_split
I0509 23:49:01.763098 25837 net.cpp:112] Top shape: 32 512 14 14 (3211264)
I0509 23:49:01.763103 25837 net.cpp:112] Top shape: 32 512 14 14 (3211264)
I0509 23:49:01.763109 25837 net.cpp:112] Top shape: 32 512 14 14 (3211264)
I0509 23:49:01.763114 25837 net.cpp:112] Top shape: 32 512 14 14 (3211264)
I0509 23:49:01.763120 25837 layer_factory.hpp:74] Creating layer inception_4d/1x1
I0509 23:49:01.763129 25837 net.cpp:76] Creating Layer inception_4d/1x1
I0509 23:49:01.763135 25837 net.cpp:372] inception_4d/1x1 <- inception_4c/output_inception_4c/output_0_split_0
I0509 23:49:01.763147 25837 net.cpp:334] inception_4d/1x1 -> inception_4d/1x1
I0509 23:49:01.763156 25837 net.cpp:105] Setting up inception_4d/1x1
I0509 23:49:01.763663 25837 net.cpp:112] Top shape: 32 112 14 14 (702464)
I0509 23:49:01.763677 25837 layer_factory.hpp:74] Creating layer inception_4d/relu_1x1
I0509 23:49:01.763686 25837 net.cpp:76] Creating Layer inception_4d/relu_1x1
I0509 23:49:01.763705 25837 net.cpp:372] inception_4d/relu_1x1 <- inception_4d/1x1
I0509 23:49:01.763713 25837 net.cpp:323] inception_4d/relu_1x1 -> inception_4d/1x1 (in-place)
I0509 23:49:01.763721 25837 net.cpp:105] Setting up inception_4d/relu_1x1
I0509 23:49:01.763727 25837 net.cpp:112] Top shape: 32 112 14 14 (702464)
I0509 23:49:01.763732 25837 layer_factory.hpp:74] Creating layer inception_4d/3x3_reduce
I0509 23:49:01.763744 25837 net.cpp:76] Creating Layer inception_4d/3x3_reduce
I0509 23:49:01.763751 25837 net.cpp:372] inception_4d/3x3_reduce <- inception_4c/output_inception_4c/output_0_split_1
I0509 23:49:01.763759 25837 net.cpp:334] inception_4d/3x3_reduce -> inception_4d/3x3_reduce
I0509 23:49:01.763768 25837 net.cpp:105] Setting up inception_4d/3x3_reduce
I0509 23:49:01.764406 25837 net.cpp:112] Top shape: 32 144 14 14 (903168)
I0509 23:49:01.764420 25837 layer_factory.hpp:74] Creating layer inception_4d/relu_3x3_reduce
I0509 23:49:01.764428 25837 net.cpp:76] Creating Layer inception_4d/relu_3x3_reduce
I0509 23:49:01.764435 25837 net.cpp:372] inception_4d/relu_3x3_reduce <- inception_4d/3x3_reduce
I0509 23:49:01.764444 25837 net.cpp:323] inception_4d/relu_3x3_reduce -> inception_4d/3x3_reduce (in-place)
I0509 23:49:01.764452 25837 net.cpp:105] Setting up inception_4d/relu_3x3_reduce
I0509 23:49:01.764458 25837 net.cpp:112] Top shape: 32 144 14 14 (903168)
I0509 23:49:01.764464 25837 layer_factory.hpp:74] Creating layer inception_4d/3x3
I0509 23:49:01.764473 25837 net.cpp:76] Creating Layer inception_4d/3x3
I0509 23:49:01.764479 25837 net.cpp:372] inception_4d/3x3 <- inception_4d/3x3_reduce
I0509 23:49:01.764489 25837 net.cpp:334] inception_4d/3x3 -> inception_4d/3x3
I0509 23:49:01.764498 25837 net.cpp:105] Setting up inception_4d/3x3
I0509 23:49:01.767616 25837 net.cpp:112] Top shape: 32 288 14 14 (1806336)
I0509 23:49:01.767637 25837 layer_factory.hpp:74] Creating layer inception_4d/relu_3x3
I0509 23:49:01.767647 25837 net.cpp:76] Creating Layer inception_4d/relu_3x3
I0509 23:49:01.767654 25837 net.cpp:372] inception_4d/relu_3x3 <- inception_4d/3x3
I0509 23:49:01.767664 25837 net.cpp:323] inception_4d/relu_3x3 -> inception_4d/3x3 (in-place)
I0509 23:49:01.767673 25837 net.cpp:105] Setting up inception_4d/relu_3x3
I0509 23:49:01.767679 25837 net.cpp:112] Top shape: 32 288 14 14 (1806336)
I0509 23:49:01.767685 25837 layer_factory.hpp:74] Creating layer inception_4d/5x5_reduce
I0509 23:49:01.767694 25837 net.cpp:76] Creating Layer inception_4d/5x5_reduce
I0509 23:49:01.767700 25837 net.cpp:372] inception_4d/5x5_reduce <- inception_4c/output_inception_4c/output_0_split_2
I0509 23:49:01.767711 25837 net.cpp:334] inception_4d/5x5_reduce -> inception_4d/5x5_reduce
I0509 23:49:01.767720 25837 net.cpp:105] Setting up inception_4d/5x5_reduce
I0509 23:49:01.767871 25837 net.cpp:112] Top shape: 32 32 14 14 (200704)
I0509 23:49:01.767884 25837 layer_factory.hpp:74] Creating layer inception_4d/relu_5x5_reduce
I0509 23:49:01.768857 25837 net.cpp:76] Creating Layer inception_4d/relu_5x5_reduce
I0509 23:49:01.768867 25837 net.cpp:372] inception_4d/relu_5x5_reduce <- inception_4d/5x5_reduce
I0509 23:49:01.768875 25837 net.cpp:323] inception_4d/relu_5x5_reduce -> inception_4d/5x5_reduce (in-place)
I0509 23:49:01.768883 25837 net.cpp:105] Setting up inception_4d/relu_5x5_reduce
I0509 23:49:01.768889 25837 net.cpp:112] Top shape: 32 32 14 14 (200704)
I0509 23:49:01.768895 25837 layer_factory.hpp:74] Creating layer inception_4d/5x5
I0509 23:49:01.768905 25837 net.cpp:76] Creating Layer inception_4d/5x5
I0509 23:49:01.768913 25837 net.cpp:372] inception_4d/5x5 <- inception_4d/5x5_reduce
I0509 23:49:01.768920 25837 net.cpp:334] inception_4d/5x5 -> inception_4d/5x5
I0509 23:49:01.768929 25837 net.cpp:105] Setting up inception_4d/5x5
I0509 23:49:01.769382 25837 net.cpp:112] Top shape: 32 64 14 14 (401408)
I0509 23:49:01.769397 25837 layer_factory.hpp:74] Creating layer inception_4d/relu_5x5
I0509 23:49:01.769404 25837 net.cpp:76] Creating Layer inception_4d/relu_5x5
I0509 23:49:01.769414 25837 net.cpp:372] inception_4d/relu_5x5 <- inception_4d/5x5
I0509 23:49:01.769448 25837 net.cpp:323] inception_4d/relu_5x5 -> inception_4d/5x5 (in-place)
I0509 23:49:01.769460 25837 net.cpp:105] Setting up inception_4d/relu_5x5
I0509 23:49:01.769466 25837 net.cpp:112] Top shape: 32 64 14 14 (401408)
I0509 23:49:01.769472 25837 layer_factory.hpp:74] Creating layer inception_4d/pool
I0509 23:49:01.769481 25837 net.cpp:76] Creating Layer inception_4d/pool
I0509 23:49:01.769487 25837 net.cpp:372] inception_4d/pool <- inception_4c/output_inception_4c/output_0_split_3
I0509 23:49:01.769496 25837 net.cpp:334] inception_4d/pool -> inception_4d/pool
I0509 23:49:01.769505 25837 net.cpp:105] Setting up inception_4d/pool
I0509 23:49:01.769513 25837 net.cpp:112] Top shape: 32 512 14 14 (3211264)
I0509 23:49:01.769520 25837 layer_factory.hpp:74] Creating layer inception_4d/pool_proj
I0509 23:49:01.769531 25837 net.cpp:76] Creating Layer inception_4d/pool_proj
I0509 23:49:01.769538 25837 net.cpp:372] inception_4d/pool_proj <- inception_4d/pool
I0509 23:49:01.769548 25837 net.cpp:334] inception_4d/pool_proj -> inception_4d/pool_proj
I0509 23:49:01.769557 25837 net.cpp:105] Setting up inception_4d/pool_proj
I0509 23:49:01.769839 25837 net.cpp:112] Top shape: 32 64 14 14 (401408)
I0509 23:49:01.769850 25837 layer_factory.hpp:74] Creating layer inception_4d/relu_pool_proj
I0509 23:49:01.769861 25837 net.cpp:76] Creating Layer inception_4d/relu_pool_proj
I0509 23:49:01.769868 25837 net.cpp:372] inception_4d/relu_pool_proj <- inception_4d/pool_proj
I0509 23:49:01.769876 25837 net.cpp:323] inception_4d/relu_pool_proj -> inception_4d/pool_proj (in-place)
I0509 23:49:01.769883 25837 net.cpp:105] Setting up inception_4d/relu_pool_proj
I0509 23:49:01.769892 25837 net.cpp:112] Top shape: 32 64 14 14 (401408)
I0509 23:49:01.769898 25837 layer_factory.hpp:74] Creating layer inception_4d/output
I0509 23:49:01.769907 25837 net.cpp:76] Creating Layer inception_4d/output
I0509 23:49:01.769913 25837 net.cpp:372] inception_4d/output <- inception_4d/1x1
I0509 23:49:01.769920 25837 net.cpp:372] inception_4d/output <- inception_4d/3x3
I0509 23:49:01.769927 25837 net.cpp:372] inception_4d/output <- inception_4d/5x5
I0509 23:49:01.769932 25837 net.cpp:372] inception_4d/output <- inception_4d/pool_proj
I0509 23:49:01.769942 25837 net.cpp:334] inception_4d/output -> inception_4d/output
I0509 23:49:01.769951 25837 net.cpp:105] Setting up inception_4d/output
I0509 23:49:01.769958 25837 net.cpp:112] Top shape: 32 528 14 14 (3311616)
I0509 23:49:01.769963 25837 layer_factory.hpp:74] Creating layer inception_4d/output_inception_4d/output_0_split
I0509 23:49:01.769973 25837 net.cpp:76] Creating Layer inception_4d/output_inception_4d/output_0_split
I0509 23:49:01.769979 25837 net.cpp:372] inception_4d/output_inception_4d/output_0_split <- inception_4d/output
I0509 23:49:01.769986 25837 net.cpp:334] inception_4d/output_inception_4d/output_0_split -> inception_4d/output_inception_4d/output_0_split_0
I0509 23:49:01.769996 25837 net.cpp:334] inception_4d/output_inception_4d/output_0_split -> inception_4d/output_inception_4d/output_0_split_1
I0509 23:49:01.770005 25837 net.cpp:334] inception_4d/output_inception_4d/output_0_split -> inception_4d/output_inception_4d/output_0_split_2
I0509 23:49:01.770017 25837 net.cpp:334] inception_4d/output_inception_4d/output_0_split -> inception_4d/output_inception_4d/output_0_split_3
I0509 23:49:01.770026 25837 net.cpp:334] inception_4d/output_inception_4d/output_0_split -> inception_4d/output_inception_4d/output_0_split_4
I0509 23:49:01.770035 25837 net.cpp:105] Setting up inception_4d/output_inception_4d/output_0_split
I0509 23:49:01.770042 25837 net.cpp:112] Top shape: 32 528 14 14 (3311616)
I0509 23:49:01.770048 25837 net.cpp:112] Top shape: 32 528 14 14 (3311616)
I0509 23:49:01.770053 25837 net.cpp:112] Top shape: 32 528 14 14 (3311616)
I0509 23:49:01.770058 25837 net.cpp:112] Top shape: 32 528 14 14 (3311616)
I0509 23:49:01.770063 25837 net.cpp:112] Top shape: 32 528 14 14 (3311616)
I0509 23:49:01.770069 25837 layer_factory.hpp:74] Creating layer loss2/ave_pool
I0509 23:49:01.770086 25837 net.cpp:76] Creating Layer loss2/ave_pool
I0509 23:49:01.770092 25837 net.cpp:372] loss2/ave_pool <- inception_4d/output_inception_4d/output_0_split_0
I0509 23:49:01.770103 25837 net.cpp:334] loss2/ave_pool -> loss2/ave_pool
I0509 23:49:01.770112 25837 net.cpp:105] Setting up loss2/ave_pool
I0509 23:49:01.770118 25837 net.cpp:112] Top shape: 32 528 4 4 (270336)
I0509 23:49:01.770124 25837 layer_factory.hpp:74] Creating layer loss2/conv
I0509 23:49:01.770134 25837 net.cpp:76] Creating Layer loss2/conv
I0509 23:49:01.770140 25837 net.cpp:372] loss2/conv <- loss2/ave_pool
I0509 23:49:01.770150 25837 net.cpp:334] loss2/conv -> loss2/conv
I0509 23:49:01.770159 25837 net.cpp:105] Setting up loss2/conv
I0509 23:49:01.770746 25837 net.cpp:112] Top shape: 32 128 4 4 (65536)
I0509 23:49:01.770763 25837 layer_factory.hpp:74] Creating layer loss2/relu_conv
I0509 23:49:01.770772 25837 net.cpp:76] Creating Layer loss2/relu_conv
I0509 23:49:01.770778 25837 net.cpp:372] loss2/relu_conv <- loss2/conv
I0509 23:49:01.770787 25837 net.cpp:323] loss2/relu_conv -> loss2/conv (in-place)
I0509 23:49:01.770793 25837 net.cpp:105] Setting up loss2/relu_conv
I0509 23:49:01.770799 25837 net.cpp:112] Top shape: 32 128 4 4 (65536)
I0509 23:49:01.770805 25837 layer_factory.hpp:74] Creating layer loss2/fc
I0509 23:49:01.770814 25837 net.cpp:76] Creating Layer loss2/fc
I0509 23:49:01.770820 25837 net.cpp:372] loss2/fc <- loss2/conv
I0509 23:49:01.770830 25837 net.cpp:334] loss2/fc -> loss2/fc
I0509 23:49:01.770840 25837 net.cpp:105] Setting up loss2/fc
I0509 23:49:01.788488 25837 net.cpp:112] Top shape: 32 1024 1 1 (32768)
I0509 23:49:01.788535 25837 layer_factory.hpp:74] Creating layer loss2/relu_fc
I0509 23:49:01.788552 25837 net.cpp:76] Creating Layer loss2/relu_fc
I0509 23:49:01.788561 25837 net.cpp:372] loss2/relu_fc <- loss2/fc
I0509 23:49:01.788571 25837 net.cpp:323] loss2/relu_fc -> loss2/fc (in-place)
I0509 23:49:01.788583 25837 net.cpp:105] Setting up loss2/relu_fc
I0509 23:49:01.788589 25837 net.cpp:112] Top shape: 32 1024 1 1 (32768)
I0509 23:49:01.788594 25837 layer_factory.hpp:74] Creating layer loss2/drop_fc
I0509 23:49:01.788604 25837 net.cpp:76] Creating Layer loss2/drop_fc
I0509 23:49:01.788609 25837 net.cpp:372] loss2/drop_fc <- loss2/fc
I0509 23:49:01.788616 25837 net.cpp:323] loss2/drop_fc -> loss2/fc (in-place)
I0509 23:49:01.788624 25837 net.cpp:105] Setting up loss2/drop_fc
I0509 23:49:01.788630 25837 net.cpp:112] Top shape: 32 1024 1 1 (32768)
I0509 23:49:01.788636 25837 layer_factory.hpp:74] Creating layer loss2/classifier
I0509 23:49:01.788650 25837 net.cpp:76] Creating Layer loss2/classifier
I0509 23:49:01.788655 25837 net.cpp:372] loss2/classifier <- loss2/fc
I0509 23:49:01.788666 25837 net.cpp:334] loss2/classifier -> loss2/classifier
I0509 23:49:01.788677 25837 net.cpp:105] Setting up loss2/classifier
I0509 23:49:01.788715 25837 net.cpp:112] Top shape: 32 2 1 1 (64)
I0509 23:49:01.788727 25837 layer_factory.hpp:74] Creating layer loss2/classifier_loss2/classifier_0_split
I0509 23:49:01.788734 25837 net.cpp:76] Creating Layer loss2/classifier_loss2/classifier_0_split
I0509 23:49:01.788741 25837 net.cpp:372] loss2/classifier_loss2/classifier_0_split <- loss2/classifier
I0509 23:49:01.788748 25837 net.cpp:334] loss2/classifier_loss2/classifier_0_split -> loss2/classifier_loss2/classifier_0_split_0
I0509 23:49:01.788760 25837 net.cpp:334] loss2/classifier_loss2/classifier_0_split -> loss2/classifier_loss2/classifier_0_split_1
I0509 23:49:01.788769 25837 net.cpp:105] Setting up loss2/classifier_loss2/classifier_0_split
I0509 23:49:01.788777 25837 net.cpp:112] Top shape: 32 2 1 1 (64)
I0509 23:49:01.788786 25837 net.cpp:112] Top shape: 32 2 1 1 (64)
I0509 23:49:01.788792 25837 layer_factory.hpp:74] Creating layer loss2/loss
I0509 23:49:01.788801 25837 net.cpp:76] Creating Layer loss2/loss
I0509 23:49:01.788807 25837 net.cpp:372] loss2/loss <- loss2/classifier_loss2/classifier_0_split_0
I0509 23:49:01.788815 25837 net.cpp:372] loss2/loss <- label_data_1_split_2
I0509 23:49:01.788823 25837 net.cpp:334] loss2/loss -> loss2/loss1
I0509 23:49:01.788868 25837 net.cpp:105] Setting up loss2/loss
I0509 23:49:01.788878 25837 layer_factory.hpp:74] Creating layer loss2/loss
I0509 23:49:01.788894 25837 net.cpp:112] Top shape: 1 1 1 1 (1)
I0509 23:49:01.788907 25837 net.cpp:118]     with loss weight 0.3
I0509 23:49:01.788931 25837 layer_factory.hpp:74] Creating layer loss2/top-1
I0509 23:49:01.788944 25837 net.cpp:76] Creating Layer loss2/top-1
I0509 23:49:01.788951 25837 net.cpp:372] loss2/top-1 <- loss2/classifier_loss2/classifier_0_split_1
I0509 23:49:01.788959 25837 net.cpp:372] loss2/top-1 <- label_data_1_split_3
I0509 23:49:01.788967 25837 net.cpp:334] loss2/top-1 -> loss2/top-1
I0509 23:49:01.788976 25837 net.cpp:105] Setting up loss2/top-1
I0509 23:49:01.788983 25837 net.cpp:112] Top shape: 1 1 1 1 (1)
I0509 23:49:01.788990 25837 layer_factory.hpp:74] Creating layer inception_4e/1x1
I0509 23:49:01.789000 25837 net.cpp:76] Creating Layer inception_4e/1x1
I0509 23:49:01.789007 25837 net.cpp:372] inception_4e/1x1 <- inception_4d/output_inception_4d/output_0_split_1
I0509 23:49:01.789017 25837 net.cpp:334] inception_4e/1x1 -> inception_4e/1x1
I0509 23:49:01.789026 25837 net.cpp:105] Setting up inception_4e/1x1
I0509 23:49:01.790213 25837 net.cpp:112] Top shape: 32 256 14 14 (1605632)
I0509 23:49:01.790241 25837 layer_factory.hpp:74] Creating layer inception_4e/relu_1x1
I0509 23:49:01.790256 25837 net.cpp:76] Creating Layer inception_4e/relu_1x1
I0509 23:49:01.790268 25837 net.cpp:372] inception_4e/relu_1x1 <- inception_4e/1x1
I0509 23:49:01.790325 25837 net.cpp:323] inception_4e/relu_1x1 -> inception_4e/1x1 (in-place)
I0509 23:49:01.790341 25837 net.cpp:105] Setting up inception_4e/relu_1x1
I0509 23:49:01.790352 25837 net.cpp:112] Top shape: 32 256 14 14 (1605632)
I0509 23:49:01.790364 25837 layer_factory.hpp:74] Creating layer inception_4e/3x3_reduce
I0509 23:49:01.790380 25837 net.cpp:76] Creating Layer inception_4e/3x3_reduce
I0509 23:49:01.790391 25837 net.cpp:372] inception_4e/3x3_reduce <- inception_4d/output_inception_4d/output_0_split_2
I0509 23:49:01.790411 25837 net.cpp:334] inception_4e/3x3_reduce -> inception_4e/3x3_reduce
I0509 23:49:01.790431 25837 net.cpp:105] Setting up inception_4e/3x3_reduce
I0509 23:49:01.791254 25837 net.cpp:112] Top shape: 32 160 14 14 (1003520)
I0509 23:49:01.791292 25837 layer_factory.hpp:74] Creating layer inception_4e/relu_3x3_reduce
I0509 23:49:01.791309 25837 net.cpp:76] Creating Layer inception_4e/relu_3x3_reduce
I0509 23:49:01.791321 25837 net.cpp:372] inception_4e/relu_3x3_reduce <- inception_4e/3x3_reduce
I0509 23:49:01.791345 25837 net.cpp:323] inception_4e/relu_3x3_reduce -> inception_4e/3x3_reduce (in-place)
I0509 23:49:01.791362 25837 net.cpp:105] Setting up inception_4e/relu_3x3_reduce
I0509 23:49:01.791373 25837 net.cpp:112] Top shape: 32 160 14 14 (1003520)
I0509 23:49:01.791383 25837 layer_factory.hpp:74] Creating layer inception_4e/3x3
I0509 23:49:01.791429 25837 net.cpp:76] Creating Layer inception_4e/3x3
I0509 23:49:01.791443 25837 net.cpp:372] inception_4e/3x3 <- inception_4e/3x3_reduce
I0509 23:49:01.791460 25837 net.cpp:334] inception_4e/3x3 -> inception_4e/3x3
I0509 23:49:01.791477 25837 net.cpp:105] Setting up inception_4e/3x3
I0509 23:49:01.795971 25837 net.cpp:112] Top shape: 32 320 14 14 (2007040)
I0509 23:49:01.796010 25837 layer_factory.hpp:74] Creating layer inception_4e/relu_3x3
I0509 23:49:01.796028 25837 net.cpp:76] Creating Layer inception_4e/relu_3x3
I0509 23:49:01.796044 25837 net.cpp:372] inception_4e/relu_3x3 <- inception_4e/3x3
I0509 23:49:01.796058 25837 net.cpp:323] inception_4e/relu_3x3 -> inception_4e/3x3 (in-place)
I0509 23:49:01.796069 25837 net.cpp:105] Setting up inception_4e/relu_3x3
I0509 23:49:01.796075 25837 net.cpp:112] Top shape: 32 320 14 14 (2007040)
I0509 23:49:01.796082 25837 layer_factory.hpp:74] Creating layer inception_4e/5x5_reduce
I0509 23:49:01.796095 25837 net.cpp:76] Creating Layer inception_4e/5x5_reduce
I0509 23:49:01.796103 25837 net.cpp:372] inception_4e/5x5_reduce <- inception_4d/output_inception_4d/output_0_split_3
I0509 23:49:01.796134 25837 net.cpp:334] inception_4e/5x5_reduce -> inception_4e/5x5_reduce
I0509 23:49:01.796156 25837 net.cpp:105] Setting up inception_4e/5x5_reduce
I0509 23:49:01.796378 25837 net.cpp:112] Top shape: 32 32 14 14 (200704)
I0509 23:49:01.796394 25837 layer_factory.hpp:74] Creating layer inception_4e/relu_5x5_reduce
I0509 23:49:01.796402 25837 net.cpp:76] Creating Layer inception_4e/relu_5x5_reduce
I0509 23:49:01.796409 25837 net.cpp:372] inception_4e/relu_5x5_reduce <- inception_4e/5x5_reduce
I0509 23:49:01.796419 25837 net.cpp:323] inception_4e/relu_5x5_reduce -> inception_4e/5x5_reduce (in-place)
I0509 23:49:01.796428 25837 net.cpp:105] Setting up inception_4e/relu_5x5_reduce
I0509 23:49:01.796434 25837 net.cpp:112] Top shape: 32 32 14 14 (200704)
I0509 23:49:01.796439 25837 layer_factory.hpp:74] Creating layer inception_4e/5x5
I0509 23:49:01.796449 25837 net.cpp:76] Creating Layer inception_4e/5x5
I0509 23:49:01.796455 25837 net.cpp:372] inception_4e/5x5 <- inception_4e/5x5_reduce
I0509 23:49:01.796465 25837 net.cpp:334] inception_4e/5x5 -> inception_4e/5x5
I0509 23:49:01.796475 25837 net.cpp:105] Setting up inception_4e/5x5
I0509 23:49:01.797513 25837 net.cpp:112] Top shape: 32 128 14 14 (802816)
I0509 23:49:01.797535 25837 layer_factory.hpp:74] Creating layer inception_4e/relu_5x5
I0509 23:49:01.797549 25837 net.cpp:76] Creating Layer inception_4e/relu_5x5
I0509 23:49:01.797557 25837 net.cpp:372] inception_4e/relu_5x5 <- inception_4e/5x5
I0509 23:49:01.797565 25837 net.cpp:323] inception_4e/relu_5x5 -> inception_4e/5x5 (in-place)
I0509 23:49:01.797575 25837 net.cpp:105] Setting up inception_4e/relu_5x5
I0509 23:49:01.797581 25837 net.cpp:112] Top shape: 32 128 14 14 (802816)
I0509 23:49:01.797587 25837 layer_factory.hpp:74] Creating layer inception_4e/pool
I0509 23:49:01.797596 25837 net.cpp:76] Creating Layer inception_4e/pool
I0509 23:49:01.797603 25837 net.cpp:372] inception_4e/pool <- inception_4d/output_inception_4d/output_0_split_4
I0509 23:49:01.797615 25837 net.cpp:334] inception_4e/pool -> inception_4e/pool
I0509 23:49:01.797624 25837 net.cpp:105] Setting up inception_4e/pool
I0509 23:49:01.797633 25837 net.cpp:112] Top shape: 32 528 14 14 (3311616)
I0509 23:49:01.797639 25837 layer_factory.hpp:74] Creating layer inception_4e/pool_proj
I0509 23:49:01.797652 25837 net.cpp:76] Creating Layer inception_4e/pool_proj
I0509 23:49:01.797657 25837 net.cpp:372] inception_4e/pool_proj <- inception_4e/pool
I0509 23:49:01.797667 25837 net.cpp:334] inception_4e/pool_proj -> inception_4e/pool_proj
I0509 23:49:01.797677 25837 net.cpp:105] Setting up inception_4e/pool_proj
I0509 23:49:01.798288 25837 net.cpp:112] Top shape: 32 128 14 14 (802816)
I0509 23:49:01.798303 25837 layer_factory.hpp:74] Creating layer inception_4e/relu_pool_proj
I0509 23:49:01.798313 25837 net.cpp:76] Creating Layer inception_4e/relu_pool_proj
I0509 23:49:01.798319 25837 net.cpp:372] inception_4e/relu_pool_proj <- inception_4e/pool_proj
I0509 23:49:01.798329 25837 net.cpp:323] inception_4e/relu_pool_proj -> inception_4e/pool_proj (in-place)
I0509 23:49:01.798338 25837 net.cpp:105] Setting up inception_4e/relu_pool_proj
I0509 23:49:01.798344 25837 net.cpp:112] Top shape: 32 128 14 14 (802816)
I0509 23:49:01.798351 25837 layer_factory.hpp:74] Creating layer inception_4e/output
I0509 23:49:01.798358 25837 net.cpp:76] Creating Layer inception_4e/output
I0509 23:49:01.798365 25837 net.cpp:372] inception_4e/output <- inception_4e/1x1
I0509 23:49:01.798372 25837 net.cpp:372] inception_4e/output <- inception_4e/3x3
I0509 23:49:01.798378 25837 net.cpp:372] inception_4e/output <- inception_4e/5x5
I0509 23:49:01.798385 25837 net.cpp:372] inception_4e/output <- inception_4e/pool_proj
I0509 23:49:01.798394 25837 net.cpp:334] inception_4e/output -> inception_4e/output
I0509 23:49:01.798408 25837 net.cpp:105] Setting up inception_4e/output
I0509 23:49:01.798420 25837 net.cpp:112] Top shape: 32 832 14 14 (5218304)
I0509 23:49:01.798430 25837 layer_factory.hpp:74] Creating layer pool4/3x3_s2
I0509 23:49:01.798447 25837 net.cpp:76] Creating Layer pool4/3x3_s2
I0509 23:49:01.798485 25837 net.cpp:372] pool4/3x3_s2 <- inception_4e/output
I0509 23:49:01.798496 25837 net.cpp:334] pool4/3x3_s2 -> pool4/3x3_s2
I0509 23:49:01.798506 25837 net.cpp:105] Setting up pool4/3x3_s2
I0509 23:49:01.798512 25837 net.cpp:112] Top shape: 32 832 7 7 (1304576)
I0509 23:49:01.798518 25837 layer_factory.hpp:74] Creating layer pool4/3x3_s2_pool4/3x3_s2_0_split
I0509 23:49:01.798527 25837 net.cpp:76] Creating Layer pool4/3x3_s2_pool4/3x3_s2_0_split
I0509 23:49:01.798532 25837 net.cpp:372] pool4/3x3_s2_pool4/3x3_s2_0_split <- pool4/3x3_s2
I0509 23:49:01.798542 25837 net.cpp:334] pool4/3x3_s2_pool4/3x3_s2_0_split -> pool4/3x3_s2_pool4/3x3_s2_0_split_0
I0509 23:49:01.798552 25837 net.cpp:334] pool4/3x3_s2_pool4/3x3_s2_0_split -> pool4/3x3_s2_pool4/3x3_s2_0_split_1
I0509 23:49:01.798560 25837 net.cpp:334] pool4/3x3_s2_pool4/3x3_s2_0_split -> pool4/3x3_s2_pool4/3x3_s2_0_split_2
I0509 23:49:01.798569 25837 net.cpp:334] pool4/3x3_s2_pool4/3x3_s2_0_split -> pool4/3x3_s2_pool4/3x3_s2_0_split_3
I0509 23:49:01.798578 25837 net.cpp:105] Setting up pool4/3x3_s2_pool4/3x3_s2_0_split
I0509 23:49:01.798584 25837 net.cpp:112] Top shape: 32 832 7 7 (1304576)
I0509 23:49:01.798590 25837 net.cpp:112] Top shape: 32 832 7 7 (1304576)
I0509 23:49:01.798595 25837 net.cpp:112] Top shape: 32 832 7 7 (1304576)
I0509 23:49:01.798601 25837 net.cpp:112] Top shape: 32 832 7 7 (1304576)
I0509 23:49:01.798606 25837 layer_factory.hpp:74] Creating layer inception_5a/1x1
I0509 23:49:01.798617 25837 net.cpp:76] Creating Layer inception_5a/1x1
I0509 23:49:01.798624 25837 net.cpp:372] inception_5a/1x1 <- pool4/3x3_s2_pool4/3x3_s2_0_split_0
I0509 23:49:01.798634 25837 net.cpp:334] inception_5a/1x1 -> inception_5a/1x1
I0509 23:49:01.798645 25837 net.cpp:105] Setting up inception_5a/1x1
I0509 23:49:01.800874 25837 net.cpp:112] Top shape: 32 256 7 7 (401408)
I0509 23:49:01.800902 25837 layer_factory.hpp:74] Creating layer inception_5a/relu_1x1
I0509 23:49:01.800915 25837 net.cpp:76] Creating Layer inception_5a/relu_1x1
I0509 23:49:01.800922 25837 net.cpp:372] inception_5a/relu_1x1 <- inception_5a/1x1
I0509 23:49:01.800933 25837 net.cpp:323] inception_5a/relu_1x1 -> inception_5a/1x1 (in-place)
I0509 23:49:01.800943 25837 net.cpp:105] Setting up inception_5a/relu_1x1
I0509 23:49:01.800950 25837 net.cpp:112] Top shape: 32 256 7 7 (401408)
I0509 23:49:01.800956 25837 layer_factory.hpp:74] Creating layer inception_5a/3x3_reduce
I0509 23:49:01.800966 25837 net.cpp:76] Creating Layer inception_5a/3x3_reduce
I0509 23:49:01.800974 25837 net.cpp:372] inception_5a/3x3_reduce <- pool4/3x3_s2_pool4/3x3_s2_0_split_1
I0509 23:49:01.800983 25837 net.cpp:334] inception_5a/3x3_reduce -> inception_5a/3x3_reduce
I0509 23:49:01.800993 25837 net.cpp:105] Setting up inception_5a/3x3_reduce
I0509 23:49:01.802124 25837 net.cpp:112] Top shape: 32 160 7 7 (250880)
I0509 23:49:01.802139 25837 layer_factory.hpp:74] Creating layer inception_5a/relu_3x3_reduce
I0509 23:49:01.802148 25837 net.cpp:76] Creating Layer inception_5a/relu_3x3_reduce
I0509 23:49:01.802155 25837 net.cpp:372] inception_5a/relu_3x3_reduce <- inception_5a/3x3_reduce
I0509 23:49:01.802162 25837 net.cpp:323] inception_5a/relu_3x3_reduce -> inception_5a/3x3_reduce (in-place)
I0509 23:49:01.802170 25837 net.cpp:105] Setting up inception_5a/relu_3x3_reduce
I0509 23:49:01.802176 25837 net.cpp:112] Top shape: 32 160 7 7 (250880)
I0509 23:49:01.802182 25837 layer_factory.hpp:74] Creating layer inception_5a/3x3
I0509 23:49:01.802193 25837 net.cpp:76] Creating Layer inception_5a/3x3
I0509 23:49:01.802201 25837 net.cpp:372] inception_5a/3x3 <- inception_5a/3x3_reduce
I0509 23:49:01.802208 25837 net.cpp:334] inception_5a/3x3 -> inception_5a/3x3
I0509 23:49:01.802217 25837 net.cpp:105] Setting up inception_5a/3x3
I0509 23:49:01.806198 25837 net.cpp:112] Top shape: 32 320 7 7 (501760)
I0509 23:49:01.806226 25837 layer_factory.hpp:74] Creating layer inception_5a/relu_3x3
I0509 23:49:01.806236 25837 net.cpp:76] Creating Layer inception_5a/relu_3x3
I0509 23:49:01.806244 25837 net.cpp:372] inception_5a/relu_3x3 <- inception_5a/3x3
I0509 23:49:01.806298 25837 net.cpp:323] inception_5a/relu_3x3 -> inception_5a/3x3 (in-place)
I0509 23:49:01.806309 25837 net.cpp:105] Setting up inception_5a/relu_3x3
I0509 23:49:01.806315 25837 net.cpp:112] Top shape: 32 320 7 7 (501760)
I0509 23:49:01.806321 25837 layer_factory.hpp:74] Creating layer inception_5a/5x5_reduce
I0509 23:49:01.806331 25837 net.cpp:76] Creating Layer inception_5a/5x5_reduce
I0509 23:49:01.806339 25837 net.cpp:372] inception_5a/5x5_reduce <- pool4/3x3_s2_pool4/3x3_s2_0_split_2
I0509 23:49:01.806351 25837 net.cpp:334] inception_5a/5x5_reduce -> inception_5a/5x5_reduce
I0509 23:49:01.806362 25837 net.cpp:105] Setting up inception_5a/5x5_reduce
I0509 23:49:01.806607 25837 net.cpp:112] Top shape: 32 32 7 7 (50176)
I0509 23:49:01.806620 25837 layer_factory.hpp:74] Creating layer inception_5a/relu_5x5_reduce
I0509 23:49:01.806629 25837 net.cpp:76] Creating Layer inception_5a/relu_5x5_reduce
I0509 23:49:01.806635 25837 net.cpp:372] inception_5a/relu_5x5_reduce <- inception_5a/5x5_reduce
I0509 23:49:01.806643 25837 net.cpp:323] inception_5a/relu_5x5_reduce -> inception_5a/5x5_reduce (in-place)
I0509 23:49:01.806651 25837 net.cpp:105] Setting up inception_5a/relu_5x5_reduce
I0509 23:49:01.806656 25837 net.cpp:112] Top shape: 32 32 7 7 (50176)
I0509 23:49:01.806663 25837 layer_factory.hpp:74] Creating layer inception_5a/5x5
I0509 23:49:01.806674 25837 net.cpp:76] Creating Layer inception_5a/5x5
I0509 23:49:01.806680 25837 net.cpp:372] inception_5a/5x5 <- inception_5a/5x5_reduce
I0509 23:49:01.806689 25837 net.cpp:334] inception_5a/5x5 -> inception_5a/5x5
I0509 23:49:01.806697 25837 net.cpp:105] Setting up inception_5a/5x5
I0509 23:49:01.807572 25837 net.cpp:112] Top shape: 32 128 7 7 (200704)
I0509 23:49:01.807591 25837 layer_factory.hpp:74] Creating layer inception_5a/relu_5x5
I0509 23:49:01.807600 25837 net.cpp:76] Creating Layer inception_5a/relu_5x5
I0509 23:49:01.807607 25837 net.cpp:372] inception_5a/relu_5x5 <- inception_5a/5x5
I0509 23:49:01.807615 25837 net.cpp:323] inception_5a/relu_5x5 -> inception_5a/5x5 (in-place)
I0509 23:49:01.807622 25837 net.cpp:105] Setting up inception_5a/relu_5x5
I0509 23:49:01.807628 25837 net.cpp:112] Top shape: 32 128 7 7 (200704)
I0509 23:49:01.807634 25837 layer_factory.hpp:74] Creating layer inception_5a/pool
I0509 23:49:01.807649 25837 net.cpp:76] Creating Layer inception_5a/pool
I0509 23:49:01.807657 25837 net.cpp:372] inception_5a/pool <- pool4/3x3_s2_pool4/3x3_s2_0_split_3
I0509 23:49:01.807664 25837 net.cpp:334] inception_5a/pool -> inception_5a/pool
I0509 23:49:01.807695 25837 net.cpp:105] Setting up inception_5a/pool
I0509 23:49:01.807708 25837 net.cpp:112] Top shape: 32 832 7 7 (1304576)
I0509 23:49:01.807714 25837 layer_factory.hpp:74] Creating layer inception_5a/pool_proj
I0509 23:49:01.807723 25837 net.cpp:76] Creating Layer inception_5a/pool_proj
I0509 23:49:01.807730 25837 net.cpp:372] inception_5a/pool_proj <- inception_5a/pool
I0509 23:49:01.807739 25837 net.cpp:334] inception_5a/pool_proj -> inception_5a/pool_proj
I0509 23:49:01.807749 25837 net.cpp:105] Setting up inception_5a/pool_proj
I0509 23:49:01.808676 25837 net.cpp:112] Top shape: 32 128 7 7 (200704)
I0509 23:49:01.808691 25837 layer_factory.hpp:74] Creating layer inception_5a/relu_pool_proj
I0509 23:49:01.808701 25837 net.cpp:76] Creating Layer inception_5a/relu_pool_proj
I0509 23:49:01.808708 25837 net.cpp:372] inception_5a/relu_pool_proj <- inception_5a/pool_proj
I0509 23:49:01.808715 25837 net.cpp:323] inception_5a/relu_pool_proj -> inception_5a/pool_proj (in-place)
I0509 23:49:01.808723 25837 net.cpp:105] Setting up inception_5a/relu_pool_proj
I0509 23:49:01.808729 25837 net.cpp:112] Top shape: 32 128 7 7 (200704)
I0509 23:49:01.808735 25837 layer_factory.hpp:74] Creating layer inception_5a/output
I0509 23:49:01.808745 25837 net.cpp:76] Creating Layer inception_5a/output
I0509 23:49:01.808751 25837 net.cpp:372] inception_5a/output <- inception_5a/1x1
I0509 23:49:01.808758 25837 net.cpp:372] inception_5a/output <- inception_5a/3x3
I0509 23:49:01.808779 25837 net.cpp:372] inception_5a/output <- inception_5a/5x5
I0509 23:49:01.808786 25837 net.cpp:372] inception_5a/output <- inception_5a/pool_proj
I0509 23:49:01.808794 25837 net.cpp:334] inception_5a/output -> inception_5a/output
I0509 23:49:01.808804 25837 net.cpp:105] Setting up inception_5a/output
I0509 23:49:01.808811 25837 net.cpp:112] Top shape: 32 832 7 7 (1304576)
I0509 23:49:01.808817 25837 layer_factory.hpp:74] Creating layer inception_5a/output_inception_5a/output_0_split
I0509 23:49:01.808826 25837 net.cpp:76] Creating Layer inception_5a/output_inception_5a/output_0_split
I0509 23:49:01.808832 25837 net.cpp:372] inception_5a/output_inception_5a/output_0_split <- inception_5a/output
I0509 23:49:01.808840 25837 net.cpp:334] inception_5a/output_inception_5a/output_0_split -> inception_5a/output_inception_5a/output_0_split_0
I0509 23:49:01.808852 25837 net.cpp:334] inception_5a/output_inception_5a/output_0_split -> inception_5a/output_inception_5a/output_0_split_1
I0509 23:49:01.808862 25837 net.cpp:334] inception_5a/output_inception_5a/output_0_split -> inception_5a/output_inception_5a/output_0_split_2
I0509 23:49:01.808871 25837 net.cpp:334] inception_5a/output_inception_5a/output_0_split -> inception_5a/output_inception_5a/output_0_split_3
I0509 23:49:01.808881 25837 net.cpp:105] Setting up inception_5a/output_inception_5a/output_0_split
I0509 23:49:01.808887 25837 net.cpp:112] Top shape: 32 832 7 7 (1304576)
I0509 23:49:01.808892 25837 net.cpp:112] Top shape: 32 832 7 7 (1304576)
I0509 23:49:01.808898 25837 net.cpp:112] Top shape: 32 832 7 7 (1304576)
I0509 23:49:01.808903 25837 net.cpp:112] Top shape: 32 832 7 7 (1304576)
I0509 23:49:01.808908 25837 layer_factory.hpp:74] Creating layer inception_5b/1x1
I0509 23:49:01.808920 25837 net.cpp:76] Creating Layer inception_5b/1x1
I0509 23:49:01.808929 25837 net.cpp:372] inception_5b/1x1 <- inception_5a/output_inception_5a/output_0_split_0
I0509 23:49:01.808938 25837 net.cpp:334] inception_5b/1x1 -> inception_5b/1x1
I0509 23:49:01.808946 25837 net.cpp:105] Setting up inception_5b/1x1
I0509 23:49:01.812208 25837 net.cpp:112] Top shape: 32 384 7 7 (602112)
I0509 23:49:01.812234 25837 layer_factory.hpp:74] Creating layer inception_5b/relu_1x1
I0509 23:49:01.812245 25837 net.cpp:76] Creating Layer inception_5b/relu_1x1
I0509 23:49:01.812253 25837 net.cpp:372] inception_5b/relu_1x1 <- inception_5b/1x1
I0509 23:49:01.812261 25837 net.cpp:323] inception_5b/relu_1x1 -> inception_5b/1x1 (in-place)
I0509 23:49:01.812283 25837 net.cpp:105] Setting up inception_5b/relu_1x1
I0509 23:49:01.812290 25837 net.cpp:112] Top shape: 32 384 7 7 (602112)
I0509 23:49:01.812296 25837 layer_factory.hpp:74] Creating layer inception_5b/3x3_reduce
I0509 23:49:01.812306 25837 net.cpp:76] Creating Layer inception_5b/3x3_reduce
I0509 23:49:01.812314 25837 net.cpp:372] inception_5b/3x3_reduce <- inception_5a/output_inception_5a/output_0_split_1
I0509 23:49:01.812325 25837 net.cpp:334] inception_5b/3x3_reduce -> inception_5b/3x3_reduce
I0509 23:49:01.812335 25837 net.cpp:105] Setting up inception_5b/3x3_reduce
I0509 23:49:01.813779 25837 net.cpp:112] Top shape: 32 192 7 7 (301056)
I0509 23:49:01.813797 25837 layer_factory.hpp:74] Creating layer inception_5b/relu_3x3_reduce
I0509 23:49:01.813807 25837 net.cpp:76] Creating Layer inception_5b/relu_3x3_reduce
I0509 23:49:01.813813 25837 net.cpp:372] inception_5b/relu_3x3_reduce <- inception_5b/3x3_reduce
I0509 23:49:01.813822 25837 net.cpp:323] inception_5b/relu_3x3_reduce -> inception_5b/3x3_reduce (in-place)
I0509 23:49:01.813830 25837 net.cpp:105] Setting up inception_5b/relu_3x3_reduce
I0509 23:49:01.813835 25837 net.cpp:112] Top shape: 32 192 7 7 (301056)
I0509 23:49:01.813841 25837 layer_factory.hpp:74] Creating layer inception_5b/3x3
I0509 23:49:01.813853 25837 net.cpp:76] Creating Layer inception_5b/3x3
I0509 23:49:01.813860 25837 net.cpp:372] inception_5b/3x3 <- inception_5b/3x3_reduce
I0509 23:49:01.813871 25837 net.cpp:334] inception_5b/3x3 -> inception_5b/3x3
I0509 23:49:01.813880 25837 net.cpp:105] Setting up inception_5b/3x3
I0509 23:49:01.820549 25837 net.cpp:112] Top shape: 32 384 7 7 (602112)
I0509 23:49:01.820577 25837 layer_factory.hpp:74] Creating layer inception_5b/relu_3x3
I0509 23:49:01.820590 25837 net.cpp:76] Creating Layer inception_5b/relu_3x3
I0509 23:49:01.820598 25837 net.cpp:372] inception_5b/relu_3x3 <- inception_5b/3x3
I0509 23:49:01.820606 25837 net.cpp:323] inception_5b/relu_3x3 -> inception_5b/3x3 (in-place)
I0509 23:49:01.820616 25837 net.cpp:105] Setting up inception_5b/relu_3x3
I0509 23:49:01.820622 25837 net.cpp:112] Top shape: 32 384 7 7 (602112)
I0509 23:49:01.820628 25837 layer_factory.hpp:74] Creating layer inception_5b/5x5_reduce
I0509 23:49:01.820641 25837 net.cpp:76] Creating Layer inception_5b/5x5_reduce
I0509 23:49:01.820648 25837 net.cpp:372] inception_5b/5x5_reduce <- inception_5a/output_inception_5a/output_0_split_2
I0509 23:49:01.820657 25837 net.cpp:334] inception_5b/5x5_reduce -> inception_5b/5x5_reduce
I0509 23:49:01.820667 25837 net.cpp:105] Setting up inception_5b/5x5_reduce
I0509 23:49:01.821012 25837 net.cpp:112] Top shape: 32 48 7 7 (75264)
I0509 23:49:01.821025 25837 layer_factory.hpp:74] Creating layer inception_5b/relu_5x5_reduce
I0509 23:49:01.821033 25837 net.cpp:76] Creating Layer inception_5b/relu_5x5_reduce
I0509 23:49:01.821040 25837 net.cpp:372] inception_5b/relu_5x5_reduce <- inception_5b/5x5_reduce
I0509 23:49:01.821049 25837 net.cpp:323] inception_5b/relu_5x5_reduce -> inception_5b/5x5_reduce (in-place)
I0509 23:49:01.821058 25837 net.cpp:105] Setting up inception_5b/relu_5x5_reduce
I0509 23:49:01.821064 25837 net.cpp:112] Top shape: 32 48 7 7 (75264)
I0509 23:49:01.821069 25837 layer_factory.hpp:74] Creating layer inception_5b/5x5
I0509 23:49:01.821079 25837 net.cpp:76] Creating Layer inception_5b/5x5
I0509 23:49:01.821084 25837 net.cpp:372] inception_5b/5x5 <- inception_5b/5x5_reduce
I0509 23:49:01.821092 25837 net.cpp:334] inception_5b/5x5 -> inception_5b/5x5
I0509 23:49:01.821101 25837 net.cpp:105] Setting up inception_5b/5x5
I0509 23:49:01.822538 25837 net.cpp:112] Top shape: 32 128 7 7 (200704)
I0509 23:49:01.822561 25837 layer_factory.hpp:74] Creating layer inception_5b/relu_5x5
I0509 23:49:01.822576 25837 net.cpp:76] Creating Layer inception_5b/relu_5x5
I0509 23:49:01.822587 25837 net.cpp:372] inception_5b/relu_5x5 <- inception_5b/5x5
I0509 23:49:01.822600 25837 net.cpp:323] inception_5b/relu_5x5 -> inception_5b/5x5 (in-place)
I0509 23:49:01.822614 25837 net.cpp:105] Setting up inception_5b/relu_5x5
I0509 23:49:01.822623 25837 net.cpp:112] Top shape: 32 128 7 7 (200704)
I0509 23:49:01.822633 25837 layer_factory.hpp:74] Creating layer inception_5b/pool
I0509 23:49:01.822648 25837 net.cpp:76] Creating Layer inception_5b/pool
I0509 23:49:01.822659 25837 net.cpp:372] inception_5b/pool <- inception_5a/output_inception_5a/output_0_split_3
I0509 23:49:01.822674 25837 net.cpp:334] inception_5b/pool -> inception_5b/pool
I0509 23:49:01.822691 25837 net.cpp:105] Setting up inception_5b/pool
I0509 23:49:01.822706 25837 net.cpp:112] Top shape: 32 832 7 7 (1304576)
I0509 23:49:01.822718 25837 layer_factory.hpp:74] Creating layer inception_5b/pool_proj
I0509 23:49:01.822736 25837 net.cpp:76] Creating Layer inception_5b/pool_proj
I0509 23:49:01.822742 25837 net.cpp:372] inception_5b/pool_proj <- inception_5b/pool
I0509 23:49:01.822753 25837 net.cpp:334] inception_5b/pool_proj -> inception_5b/pool_proj
I0509 23:49:01.822764 25837 net.cpp:105] Setting up inception_5b/pool_proj
I0509 23:49:01.823673 25837 net.cpp:112] Top shape: 32 128 7 7 (200704)
I0509 23:49:01.823688 25837 layer_factory.hpp:74] Creating layer inception_5b/relu_pool_proj
I0509 23:49:01.823699 25837 net.cpp:76] Creating Layer inception_5b/relu_pool_proj
I0509 23:49:01.823711 25837 net.cpp:372] inception_5b/relu_pool_proj <- inception_5b/pool_proj
I0509 23:49:01.823729 25837 net.cpp:323] inception_5b/relu_pool_proj -> inception_5b/pool_proj (in-place)
I0509 23:49:01.823743 25837 net.cpp:105] Setting up inception_5b/relu_pool_proj
I0509 23:49:01.823755 25837 net.cpp:112] Top shape: 32 128 7 7 (200704)
I0509 23:49:01.823765 25837 layer_factory.hpp:74] Creating layer inception_5b/output
I0509 23:49:01.823813 25837 net.cpp:76] Creating Layer inception_5b/output
I0509 23:49:01.823827 25837 net.cpp:372] inception_5b/output <- inception_5b/1x1
I0509 23:49:01.823838 25837 net.cpp:372] inception_5b/output <- inception_5b/3x3
I0509 23:49:01.823851 25837 net.cpp:372] inception_5b/output <- inception_5b/5x5
I0509 23:49:01.823863 25837 net.cpp:372] inception_5b/output <- inception_5b/pool_proj
I0509 23:49:01.823880 25837 net.cpp:334] inception_5b/output -> inception_5b/output
I0509 23:49:01.823896 25837 net.cpp:105] Setting up inception_5b/output
I0509 23:49:01.823909 25837 net.cpp:112] Top shape: 32 1024 7 7 (1605632)
I0509 23:49:01.823920 25837 layer_factory.hpp:74] Creating layer pool5/7x7_s1
I0509 23:49:01.823933 25837 net.cpp:76] Creating Layer pool5/7x7_s1
I0509 23:49:01.823943 25837 net.cpp:372] pool5/7x7_s1 <- inception_5b/output
I0509 23:49:01.823958 25837 net.cpp:334] pool5/7x7_s1 -> pool5/7x7_s1
I0509 23:49:01.823973 25837 net.cpp:105] Setting up pool5/7x7_s1
I0509 23:49:01.823986 25837 net.cpp:112] Top shape: 32 1024 1 1 (32768)
I0509 23:49:01.824002 25837 layer_factory.hpp:74] Creating layer pool5/drop_7x7_s1
I0509 23:49:01.824018 25837 net.cpp:76] Creating Layer pool5/drop_7x7_s1
I0509 23:49:01.824028 25837 net.cpp:372] pool5/drop_7x7_s1 <- pool5/7x7_s1
I0509 23:49:01.824048 25837 net.cpp:323] pool5/drop_7x7_s1 -> pool5/7x7_s1 (in-place)
I0509 23:49:01.824064 25837 net.cpp:105] Setting up pool5/drop_7x7_s1
I0509 23:49:01.824075 25837 net.cpp:112] Top shape: 32 1024 1 1 (32768)
I0509 23:49:01.824086 25837 layer_factory.hpp:74] Creating layer loss3/classifier
I0509 23:49:01.824102 25837 net.cpp:76] Creating Layer loss3/classifier
I0509 23:49:01.824112 25837 net.cpp:372] loss3/classifier <- pool5/7x7_s1
I0509 23:49:01.824131 25837 net.cpp:334] loss3/classifier -> loss3/classifier
I0509 23:49:01.824148 25837 net.cpp:105] Setting up loss3/classifier
I0509 23:49:01.824195 25837 net.cpp:112] Top shape: 32 2 1 1 (64)
I0509 23:49:01.824214 25837 layer_factory.hpp:74] Creating layer loss3/classifier_loss3/classifier_0_split
I0509 23:49:01.824228 25837 net.cpp:76] Creating Layer loss3/classifier_loss3/classifier_0_split
I0509 23:49:01.824237 25837 net.cpp:372] loss3/classifier_loss3/classifier_0_split <- loss3/classifier
I0509 23:49:01.824256 25837 net.cpp:334] loss3/classifier_loss3/classifier_0_split -> loss3/classifier_loss3/classifier_0_split_0
I0509 23:49:01.824290 25837 net.cpp:334] loss3/classifier_loss3/classifier_0_split -> loss3/classifier_loss3/classifier_0_split_1
I0509 23:49:01.824306 25837 net.cpp:105] Setting up loss3/classifier_loss3/classifier_0_split
I0509 23:49:01.824318 25837 net.cpp:112] Top shape: 32 2 1 1 (64)
I0509 23:49:01.824352 25837 net.cpp:112] Top shape: 32 2 1 1 (64)
I0509 23:49:01.824364 25837 layer_factory.hpp:74] Creating layer loss3/loss3
I0509 23:49:01.824384 25837 net.cpp:76] Creating Layer loss3/loss3
I0509 23:49:01.824398 25837 net.cpp:372] loss3/loss3 <- loss3/classifier_loss3/classifier_0_split_0
I0509 23:49:01.824410 25837 net.cpp:372] loss3/loss3 <- label_data_1_split_4
I0509 23:49:01.824425 25837 net.cpp:334] loss3/loss3 -> loss3/loss3
I0509 23:49:01.824441 25837 net.cpp:105] Setting up loss3/loss3
I0509 23:49:01.824455 25837 layer_factory.hpp:74] Creating layer loss3/loss3
I0509 23:49:01.824481 25837 net.cpp:112] Top shape: 1 1 1 1 (1)
I0509 23:49:01.824491 25837 net.cpp:118]     with loss weight 1
I0509 23:49:01.824517 25837 layer_factory.hpp:74] Creating layer loss3/top-1
I0509 23:49:01.824534 25837 net.cpp:76] Creating Layer loss3/top-1
I0509 23:49:01.824545 25837 net.cpp:372] loss3/top-1 <- loss3/classifier_loss3/classifier_0_split_1
I0509 23:49:01.824558 25837 net.cpp:372] loss3/top-1 <- label_data_1_split_5
I0509 23:49:01.824574 25837 net.cpp:334] loss3/top-1 -> loss3/top-1
I0509 23:49:01.824589 25837 net.cpp:105] Setting up loss3/top-1
I0509 23:49:01.824599 25837 net.cpp:112] Top shape: 1 1 1 1 (1)
I0509 23:49:01.824609 25837 net.cpp:165] loss3/top-1 does not need backward computation.
I0509 23:49:01.824618 25837 net.cpp:163] loss3/loss3 needs backward computation.
I0509 23:49:01.824645 25837 net.cpp:163] loss3/classifier_loss3/classifier_0_split needs backward computation.
I0509 23:49:01.824658 25837 net.cpp:163] loss3/classifier needs backward computation.
I0509 23:49:01.824671 25837 net.cpp:163] pool5/drop_7x7_s1 needs backward computation.
…
