…
I0511 03:05:00.890550 19438 net.cpp:253] The NetState phase (0) differed from the phase (1) specified by a rule in layer loss3/top-1
I0511 03:05:00.891834 19438 net.cpp:42] Initializing net from parameters: 
name: "GoogleNet"
state {
  phase: TRAIN
}
layer {
  name: "data"
  type: "Data"
  top: "data"
  top: "label"
  include {
    phase: TRAIN
  }
  transform_param {
    mirror: true
    crop_size: 224
    mean_value: 104
    mean_value: 117
    mean_value: 123
  }
  data_param {
    source: "train_lmdb"
    batch_size: 32
    backend: LMDB
  }
}
layer {
  name: "conv1/7x7_s2"
  type: "Convolution"
  bottom: "data"
  top: "conv1/7x7_s2"
  param {
    lr_mult: 1
    decay_mult: 1
  }
  param {
    lr_mult: 2
    decay_mult: 0
  }
  convolution_param {
    num_output: 64
    pad: 3
    kernel_size: 7
    stride: 2
    weight_filler {
      type: "xavier"
      std: 0.1
    }
    bias_filler {
      type: "constant"
      value: 0.2
    }
  }
}
layer {
  name: "conv1/relu_7x7"
  type: "ReLU"
  bottom: "conv1/7x7_s2"
  top: "conv1/7x7_s2"
}
layer {
  name: "pool1/3x3_s2"
  type: "Pooling"
  bottom: "conv1/7x7_s2"
  top: "pool1/3x3_s2"
  pooling_param {
    pool: MAX
    kernel_size: 3
    stride: 2
  }
}
layer {
  name: "pool1/norm1"
  type: "LRN"
  bottom: "pool1/3x3_s2"
  top: "pool1/norm1"
  lrn_param {
    local_size: 5
    alpha: 0.0001
    beta: 0.75
  }
}
layer {
  name: "conv2/3x3_reduce"
  type: "Convolution"
  bottom: "pool1/norm1"
  top: "conv2/3x3_reduce"
  param {
    lr_mult: 1
    decay_mult: 1
  }
  param {
    lr_mult: 2
    decay_mult: 0
  }
  convolution_param {
    num_output: 64
    kernel_size: 1
    weight_filler {
      type: "xavier"
      std: 0.1
    }
    bias_filler {
      type: "constant"
      value: 0.2
    }
  }
}
layer {
  name: "conv2/relu_3x3_reduce"
  type: "ReLU"
  bottom: "conv2/3x3_reduce"
  top: "conv2/3x3_reduce"
}
layer {
  name: "conv2/3x3"
  type: "Convolution"
  bottom: "conv2/3x3_reduce"
  top: "conv2/3x3"
  param {
    lr_mult: 1
    decay_mult: 1
  }
  param {
    lr_mult: 2
    decay_mult: 0
  }
  convolution_param {
    num_output: 192
    pad: 1
    kernel_size: 3
    weight_filler {
      type: "xavier"
      std: 0.03
    }
    bias_filler {
      type: "constant"
      value: 0.2
    }
  }
}
layer {
  name: "conv2/relu_3x3"
  type: "ReLU"
  bottom: "conv2/3x3"
  top: "conv2/3x3"
}
layer {
  name: "conv2/norm2"
  type: "LRN"
  bottom: "conv2/3x3"
  top: "conv2/norm2"
  lrn_param {
    local_size: 5
    alpha: 0.0001
    beta: 0.75
  }
}
layer {
  name: "pool2/3x3_s2"
  type: "Pooling"
  bottom: "conv2/norm2"
  top: "pool2/3x3_s2"
  pooling_param {
    pool: MAX
    kernel_size: 3
    stride: 2
  }
}
layer {
  name: "inception_3a/1x1"
  type: "Convolution"
  bottom: "pool2/3x3_s2"
  top: "inception_3a/1x1"
  param {
    lr_mult: 1
    decay_mult: 1
  }
  param {
    lr_mult: 2
    decay_mult: 0
  }
  convolution_param {
    num_output: 64
    kernel_size: 1
    weight_filler {
      type: "xavier"
      std: 0.03
    }
    bias_filler {
      type: "constant"
      value: 0.2
    }
  }
}
layer {
  name: "inception_3a/relu_1x1"
  type: "ReLU"
  bottom: "inception_3a/1x1"
  top: "inception_3a/1x1"
}
layer {
  name: "inception_3a/3x3_reduce"
  type: "Convolution"
  bottom: "pool2/3x3_s2"
  top: "inception_3a/3x3_reduce"
  param {
    lr_mult: 1
    decay_mult: 1
  }
  param {
    lr_mult: 2
    decay_mult: 0
  }
  convolution_param {
    num_output: 96
    kernel_size: 1
    weight_filler {
      type: "xavier"
      std: 0.09
    }
    bias_filler {
      type: "constant"
      value: 0.2
    }
  }
}
layer {
  name: "inception_3a/relu_3x3_reduce"
  type: "ReLU"
  bottom: "inception_3a/3x3_reduce"
  top: "inception_3a/3x3_reduce"
}
layer {
  name: "inception_3a/3x3"
  type: "Convolution"
  bottom: "inception_3a/3x3_reduce"
  top: "inception_3a/3x3"
  param {
    lr_mult: 1
    decay_mult: 1
  }
  param {
    lr_mult: 2
    decay_mult: 0
  }
  convolution_param {
    num_output: 128
    pad: 1
    kernel_size: 3
    weight_filler {
      type: "xavier"
      std: 0.03
    }
    bias_filler {
      type: "constant"
      value: 0.2
    }
  }
}
layer {
  name: "inception_3a/relu_3x3"
  type: "ReLU"
  bottom: "inception_3a/3x3"
  top: "inception_3a/3x3"
}
layer {
  name: "inception_3a/5x5_reduce"
  type: "Convolution"
  bottom: "pool2/3x3_s2"
  top: "inception_3a/5x5_reduce"
  param {
    lr_mult: 1
    decay_mult: 1
  }
  param {
    lr_mult: 2
    decay_mult: 0
  }
  convolution_param {
    num_output: 16
    kernel_size: 1
    weight_filler {
      type: "xavier"
      std: 0.2
    }
    bias_filler {
      type: "constant"
      value: 0.2
    }
  }
}
layer {
  name: "inception_3a/relu_5x5_reduce"
  type: "ReLU"
  bottom: "inception_3a/5x5_reduce"
  top: "inception_3a/5x5_reduce"
}
layer {
  name: "inception_3a/5x5"
  type: "Convolution"
  bottom: "inception_3a/5x5_reduce"
  top: "inception_3a/5x5"
  param {
    lr_mult: 1
    decay_mult: 1
  }
  param {
    lr_mult: 2
    decay_mult: 0
  }
  convolution_param {
    num_output: 32
    pad: 2
    kernel_size: 5
    weight_filler {
      type: "xavier"
      std: 0.03
    }
    bias_filler {
      type: "constant"
      value: 0.2
    }
  }
}
layer {
  name: "inception_3a/relu_5x5"
  type: "ReLU"
  bottom: "inception_3a/5x5"
  top: "inception_3a/5x5"
}
layer {
  name: "inception_3a/pool"
  type: "Pooling"
  bottom: "pool2/3x3_s2"
  top: "inception_3a/pool"
  pooling_param {
    pool: MAX
    kernel_size: 3
    stride: 1
    pad: 1
  }
}
layer {
  name: "inception_3a/pool_proj"
  type: "Convolution"
  bottom: "inception_3a/pool"
  top: "inception_3a/pool_proj"
  param {
    lr_mult: 1
    decay_mult: 1
  }
  param {
    lr_mult: 2
    decay_mult: 0
  }
  convolution_param {
    num_output: 32
    kernel_size: 1
    weight_filler {
      type: "xavier"
      std: 0.1
    }
    bias_filler {
      type: "constant"
      value: 0.2
    }
  }
}
layer {
  name: "inception_3a/relu_pool_proj"
  type: "ReLU"
  bottom: "inception_3a/pool_proj"
  top: "inception_3a/pool_proj"
}
layer {
  name: "inception_3a/output"
  type: "Concat"
  bottom: "inception_3a/1x1"
  bottom: "inception_3a/3x3"
  bottom: "inception_3a/5x5"
  bottom: "inception_3a/pool_proj"
  top: "inception_3a/output"
}
layer {
  name: "inception_3b/1x1"
  type: "Convolution"
  bottom: "inception_3a/output"
  top: "inception_3b/1x1"
  param {
    lr_mult: 1
    decay_mult: 1
  }
  param {
    lr_mult: 2
    decay_mult: 0
  }
  convolution_param {
    num_output: 128
    kernel_size: 1
    weight_filler {
      type: "xavier"
      std: 0.03
    }
    bias_filler {
      type: "constant"
      value: 0.2
    }
  }
}
layer {
  name: "inception_3b/relu_1x1"
  type: "ReLU"
  bottom: "inception_3b/1x1"
  top: "inception_3b/1x1"
}
layer {
  name: "inception_3b/3x3_reduce"
  type: "Convolution"
  bottom: "inception_3a/output"
  top: "inception_3b/3x3_reduce"
  param {
    lr_mult: 1
    decay_mult: 1
  }
  param {
    lr_mult: 2
    decay_mult: 0
  }
  convolution_param {
    num_output: 128
    kernel_size: 1
    weight_filler {
      type: "xavier"
      std: 0.09
    }
    bias_filler {
      type: "constant"
      value: 0.2
    }
  }
}
layer {
  name: "inception_3b/relu_3x3_reduce"
  type: "ReLU"
  bottom: "inception_3b/3x3_reduce"
  top: "inception_3b/3x3_reduce"
}
layer {
  name: "inception_3b/3x3"
  type: "Convolution"
  bottom: "inception_3b/3x3_reduce"
  top: "inception_3b/3x3"
  param {
    lr_mult: 1
    decay_mult: 1
  }
  param {
    lr_mult: 2
    decay_mult: 0
  }
  convolution_param {
    num_output: 192
    pad: 1
    kernel_size: 3
    weight_filler {
      type: "xavier"
      std: 0.03
    }
    bias_filler {
      type: "constant"
      value: 0.2
    }
  }
}
layer {
  name: "inception_3b/relu_3x3"
  type: "ReLU"
  bottom: "inception_3b/3x3"
  top: "inception_3b/3x3"
}
layer {
  name: "inception_3b/5x5_reduce"
  type: "Convolution"
  bottom: "inception_3a/output"
  top: "inception_3b/5x5_reduce"
  param {
    lr_mult: 1
    decay_mult: 1
  }
  param {
    lr_mult: 2
    decay_mult: 0
  }
  convolution_param {
    num_output: 32
    kernel_size: 1
    weight_filler {
      type: "xavier"
      std: 0.2
    }
    bias_filler {
      type: "constant"
      value: 0.2
    }
  }
}
layer {
  name: "inception_3b/relu_5x5_reduce"
  type: "ReLU"
  bottom: "inception_3b/5x5_reduce"
  top: "inception_3b/5x5_reduce"
}
layer {
  name: "inception_3b/5x5"
  type: "Convolution"
  bottom: "inception_3b/5x5_reduce"
  top: "inception_3b/5x5"
  param {
    lr_mult: 1
    decay_mult: 1
  }
  param {
    lr_mult: 2
    decay_mult: 0
  }
  convolution_param {
    num_output: 96
    pad: 2
    kernel_size: 5
    weight_filler {
      type: "xavier"
      std: 0.03
    }
    bias_filler {
      type: "constant"
      value: 0.2
    }
  }
}
layer {
  name: "inception_3b/relu_5x5"
  type: "ReLU"
  bottom: "inception_3b/5x5"
  top: "inception_3b/5x5"
}
layer {
  name: "inception_3b/pool"
  type: "Pooling"
  bottom: "inception_3a/output"
  top: "inception_3b/pool"
  pooling_param {
    pool: MAX
    kernel_size: 3
    stride: 1
    pad: 1
  }
}
layer {
  name: "inception_3b/pool_proj"
  type: "Convolution"
  bottom: "inception_3b/pool"
  top: "inception_3b/pool_proj"
  param {
    lr_mult: 1
    decay_mult: 1
  }
  param {
    lr_mult: 2
    decay_mult: 0
  }
  convolution_param {
    num_output: 64
    kernel_size: 1
    weight_filler {
      type: "xavier"
      std: 0.1
    }
    bias_filler {
      type: "constant"
      value: 0.2
    }
  }
}
layer {
  name: "inception_3b/relu_pool_proj"
  type: "ReLU"
  bottom: "inception_3b/pool_proj"
  top: "inception_3b/pool_proj"
}
layer {
  name: "inception_3b/output"
  type: "Concat"
  bottom: "inception_3b/1x1"
  bottom: "inception_3b/3x3"
  bottom: "inception_3b/5x5"
  bottom: "inception_3b/pool_proj"
  top: "inception_3b/output"
}
layer {
  name: "pool3/3x3_s2"
  type: "Pooling"
  bottom: "inception_3b/output"
  top: "pool3/3x3_s2"
  pooling_param {
    pool: MAX
    kernel_size: 3
    stride: 2
  }
}
layer {
  name: "inception_4a/1x1"
  type: "Convolution"
  bottom: "pool3/3x3_s2"
  top: "inception_4a/1x1"
  param {
    lr_mult: 1
    decay_mult: 1
  }
  param {
    lr_mult: 2
    decay_mult: 0
  }
  convolution_param {
    num_output: 192
    kernel_size: 1
    weight_filler {
      type: "xavier"
      std: 0.03
    }
    bias_filler {
      type: "constant"
      value: 0.2
    }
  }
}
layer {
  name: "inception_4a/relu_1x1"
  type: "ReLU"
  bottom: "inception_4a/1x1"
  top: "inception_4a/1x1"
}
layer {
  name: "inception_4a/3x3_reduce"
  type: "Convolution"
  bottom: "pool3/3x3_s2"
  top: "inception_4a/3x3_reduce"
  param {
    lr_mult: 1
    decay_mult: 1
  }
  param {
    lr_mult: 2
    decay_mult: 0
  }
  convolution_param {
    num_output: 96
    kernel_size: 1
    weight_filler {
      type: "xavier"
      std: 0.09
    }
    bias_filler {
      type: "constant"
      value: 0.2
    }
  }
}
layer {
  name: "inception_4a/relu_3x3_reduce"
  type: "ReLU"
  bottom: "inception_4a/3x3_reduce"
  top: "inception_4a/3x3_reduce"
}
layer {
  name: "inception_4a/3x3"
  type: "Convolution"
  bottom: "inception_4a/3x3_reduce"
  top: "inception_4a/3x3"
  param {
    lr_mult: 1
    decay_mult: 1
  }
  param {
    lr_mult: 2
    decay_mult: 0
  }
  convolution_param {
    num_output: 208
    pad: 1
    kernel_size: 3
    weight_filler {
      type: "xavier"
      std: 0.03
    }
    bias_filler {
      type: "constant"
      value: 0.2
    }
  }
}
layer {
  name: "inception_4a/relu_3x3"
  type: "ReLU"
  bottom: "inception_4a/3x3"
  top: "inception_4a/3x3"
}
layer {
  name: "inception_4a/5x5_reduce"
  type: "Convolution"
  bottom: "pool3/3x3_s2"
  top: "inception_4a/5x5_reduce"
  param {
    lr_mult: 1
    decay_mult: 1
  }
  param {
    lr_mult: 2
    decay_mult: 0
  }
  convolution_param {
    num_output: 16
    kernel_size: 1
    weight_filler {
      type: "xavier"
      std: 0.2
    }
    bias_filler {
      type: "constant"
      value: 0.2
    }
  }
}
layer {
  name: "inception_4a/relu_5x5_reduce"
  type: "ReLU"
  bottom: "inception_4a/5x5_reduce"
  top: "inception_4a/5x5_reduce"
}
layer {
  name: "inception_4a/5x5"
  type: "Convolution"
  bottom: "inception_4a/5x5_reduce"
  top: "inception_4a/5x5"
  param {
    lr_mult: 1
    decay_mult: 1
  }
  param {
    lr_mult: 2
    decay_mult: 0
  }
  convolution_param {
    num_output: 48
    pad: 2
    kernel_size: 5
    weight_filler {
      type: "xavier"
      std: 0.03
    }
    bias_filler {
      type: "constant"
      value: 0.2
    }
  }
}
layer {
  name: "inception_4a/relu_5x5"
  type: "ReLU"
  bottom: "inception_4a/5x5"
  top: "inception_4a/5x5"
}
layer {
  name: "inception_4a/pool"
  type: "Pooling"
  bottom: "pool3/3x3_s2"
  top: "inception_4a/pool"
  pooling_param {
    pool: MAX
    kernel_size: 3
    stride: 1
    pad: 1
  }
}
layer {
  name: "inception_4a/pool_proj"
  type: "Convolution"
  bottom: "inception_4a/pool"
  top: "inception_4a/pool_proj"
  param {
    lr_mult: 1
    decay_mult: 1
  }
  param {
    lr_mult: 2
    decay_mult: 0
  }
  convolution_param {
    num_output: 64
    kernel_size: 1
    weight_filler {
      type: "xavier"
      std: 0.1
    }
    bias_filler {
      type: "constant"
      value: 0.2
    }
  }
}
layer {
  name: "inception_4a/relu_pool_proj"
  type: "ReLU"
  bottom: "inception_4a/pool_proj"
  top: "inception_4a/pool_proj"
}
layer {
  name: "inception_4a/output"
  type: "Concat"
  bottom: "inception_4a/1x1"
  bottom: "inception_4a/3x3"
  bottom: "inception_4a/5x5"
  bottom: "inception_4a/pool_proj"
  top: "inception_4a/output"
}
layer {
  name: "loss1/ave_pool"
  type: "Pooling"
  bottom: "inception_4a/output"
  top: "loss1/ave_pool"
  pooling_param {
    pool: AVE
    kernel_size: 5
    stride: 3
  }
}
layer {
  name: "loss1/conv"
  type: "Convolution"
  bottom: "loss1/ave_pool"
  top: "loss1/conv"
  param {
    lr_mult: 1
    decay_mult: 1
  }
  param {
    lr_mult: 2
    decay_mult: 0
  }
  convolution_param {
    num_output: 128
    kernel_size: 1
    weight_filler {
      type: "xavier"
      std: 0.08
    }
    bias_filler {
      type: "constant"
      value: 0.2
    }
  }
}
layer {
  name: "loss1/relu_conv"
  type: "ReLU"
  bottom: "loss1/conv"
  top: "loss1/conv"
}
layer {
  name: "loss1/fc"
  type: "InnerProduct"
  bottom: "loss1/conv"
  top: "loss1/fc"
  param {
    lr_mult: 1
    decay_mult: 1
  }
  param {
    lr_mult: 2
    decay_mult: 0
  }
  inner_product_param {
    num_output: 1024
    weight_filler {
      type: "xavier"
      std: 0.02
    }
    bias_filler {
      type: "constant"
      value: 0.2
    }
  }
}
layer {
  name: "loss1/relu_fc"
  type: "ReLU"
  bottom: "loss1/fc"
  top: "loss1/fc"
}
layer {
  name: "loss1/drop_fc"
  type: "Dropout"
  bottom: "loss1/fc"
  top: "loss1/fc"
  dropout_param {
    dropout_ratio: 0.7
  }
}
layer {
  name: "loss1/classifier"
  type: "InnerProduct"
  bottom: "loss1/fc"
  top: "loss1/classifier"
  param {
    lr_mult: 1
    decay_mult: 1
  }
  param {
    lr_mult: 2
    decay_mult: 0
  }
  inner_product_param {
    num_output: 2
    weight_filler {
      type: "xavier"
      std: 0.0009765625
    }
    bias_filler {
      type: "constant"
      value: 0
    }
  }
}
layer {
  name: "loss1/loss"
  type: "SoftmaxWithLoss"
  bottom: "loss1/classifier"
  bottom: "label"
  top: "loss1/loss1"
  loss_weight: 0.3
}
layer {
  name: "inception_4b/1x1"
  type: "Convolution"
  bottom: "inception_4a/output"
  top: "inception_4b/1x1"
  param {
    lr_mult: 1
    decay_mult: 1
  }
  param {
    lr_mult: 2
    decay_mult: 0
  }
  convolution_param {
    num_output: 160
    kernel_size: 1
    weight_filler {
      type: "xavier"
      std: 0.03
    }
    bias_filler {
      type: "constant"
      value: 0.2
    }
  }
}
layer {
  name: "inception_4b/relu_1x1"
  type: "ReLU"
  bottom: "inception_4b/1x1"
  top: "inception_4b/1x1"
}
layer {
  name: "inception_4b/3x3_reduce"
  type: "Convolution"
  bottom: "inception_4a/output"
  top: "inception_4b/3x3_reduce"
  param {
    lr_mult: 1
    decay_mult: 1
  }
  param {
    lr_mult: 2
    decay_mult: 0
  }
  convolution_param {
    num_output: 112
    kernel_size: 1
    weight_filler {
      type: "xavier"
      std: 0.09
    }
    bias_filler {
      type: "constant"
      value: 0.2
    }
  }
}
layer {
  name: "inception_4b/relu_3x3_reduce"
  type: "ReLU"
  bottom: "inception_4b/3x3_reduce"
  top: "inception_4b/3x3_reduce"
}
layer {
  name: "inception_4b/3x3"
  type: "Convolution"
  bottom: "inception_4b/3x3_reduce"
  top: "inception_4b/3x3"
  param {
    lr_mult: 1
    decay_mult: 1
  }
  param {
    lr_mult: 2
    decay_mult: 0
  }
  convolution_param {
    num_output: 224
    pad: 1
    kernel_size: 3
    weight_filler {
      type: "xavier"
      std: 0.03
    }
    bias_filler {
      type: "constant"
      value: 0.2
    }
  }
}
layer {
  name: "inception_4b/relu_3x3"
  type: "ReLU"
  bottom: "inception_4b/3x3"
  top: "inception_4b/3x3"
}
layer {
  name: "inception_4b/5x5_reduce"
  type: "Convolution"
  bottom: "inception_4a/output"
  top: "inception_4b/5x5_reduce"
  param {
    lr_mult: 1
    decay_mult: 1
  }
  param {
    lr_mult: 2
    decay_mult: 0
  }
  convolution_param {
    num_output: 24
    kernel_size: 1
    weight_filler {
      type: "xavier"
      std: 0.2
    }
    bias_filler {
      type: "constant"
      value: 0.2
    }
  }
}
layer {
  name: "inception_4b/relu_5x5_reduce"
  type: "ReLU"
  bottom: "inception_4b/5x5_reduce"
  top: "inception_4b/5x5_reduce"
}
layer {
  name: "inception_4b/5x5"
  type: "Convolution"
  bottom: "inception_4b/5x5_reduce"
  top: "inception_4b/5x5"
  param {
    lr_mult: 1
    decay_mult: 1
  }
  param {
    lr_mult: 2
    decay_mult: 0
  }
  convolution_param {
    num_output: 64
    pad: 2
    kernel_size: 5
    weight_filler {
      type: "xavier"
      std: 0.03
    }
    bias_filler {
      type: "constant"
      value: 0.2
    }
  }
}
layer {
  name: "inception_4b/relu_5x5"
  type: "ReLU"
  bottom: "inception_4b/5x5"
  top: "inception_4b/5x5"
}
layer {
  name: "inception_4b/pool"
  type: "Pooling"
  bottom: "inception_4a/output"
  top: "inception_4b/pool"
  pooling_param {
    pool: MAX
    kernel_size: 3
    stride: 1
    pad: 1
  }
}
layer {
  name: "inception_4b/pool_proj"
  type: "Convolution"
  bottom: "inception_4b/pool"
  top: "inception_4b/pool_proj"
  param {
    lr_mult: 1
    decay_mult: 1
  }
  param {
    lr_mult: 2
    decay_mult: 0
  }
  convolution_param {
    num_output: 64
    kernel_size: 1
    weight_filler {
      type: "xavier"
      std: 0.1
    }
    bias_filler {
      type: "constant"
      value: 0.2
    }
  }
}
layer {
  name: "inception_4b/relu_pool_proj"
  type: "ReLU"
  bottom: "inception_4b/pool_proj"
  top: "inception_4b/pool_proj"
}
layer {
  name: "inception_4b/output"
  type: "Concat"
  bottom: "inception_4b/1x1"
  bottom: "inception_4b/3x3"
  bottom: "inception_4b/5x5"
  bottom: "inception_4b/pool_proj"
  top: "inception_4b/output"
}
layer {
  name: "inception_4c/1x1"
  type: "Convolution"
  bottom: "inception_4b/output"
  top: "inception_4c/1x1"
  param {
    lr_mult: 1
    decay_mult: 1
  }
  param {
    lr_mult: 2
    decay_mult: 0
  }
  convolution_param {
    num_output: 128
    kernel_size: 1
    weight_filler {
      type: "xavier"
      std: 0.03
    }
    bias_filler {
      type: "constant"
      value: 0.2
    }
  }
}
layer {
  name: "inception_4c/relu_1x1"
  type: "ReLU"
  bottom: "inception_4c/1x1"
  top: "inception_4c/1x1"
}
layer {
  name: "inception_4c/3x3_reduce"
  type: "Convolution"
  bottom: "inception_4b/output"
  top: "inception_4c/3x3_reduce"
  param {
    lr_mult: 1
    decay_mult: 1
  }
  param {
    lr_mult: 2
    decay_mult: 0
  }
  convolution_param {
    num_output: 128
    kernel_size: 1
    weight_filler {
      type: "xavier"
      std: 0.09
    }
    bias_filler {
      type: "constant"
      value: 0.2
    }
  }
}
layer {
  name: "inception_4c/relu_3x3_reduce"
  type: "ReLU"
  bottom: "inception_4c/3x3_reduce"
  top: "inception_4c/3x3_reduce"
}
layer {
  name: "inception_4c/3x3"
  type: "Convolution"
  bottom: "inception_4c/3x3_reduce"
  top: "inception_4c/3x3"
  param {
    lr_mult: 1
    decay_mult: 1
  }
  param {
    lr_mult: 2
    decay_mult: 0
  }
  convolution_param {
    num_output: 256
    pad: 1
    kernel_size: 3
    weight_filler {
      type: "xavier"
      std: 0.03
    }
    bias_filler {
      type: "constant"
      value: 0.2
    }
  }
}
layer {
  name: "inception_4c/relu_3x3"
  type: "ReLU"
  bottom: "inception_4c/3x3"
  top: "inception_4c/3x3"
}
layer {
  name: "inception_4c/5x5_reduce"
  type: "Convolution"
  bottom: "inception_4b/output"
  top: "inception_4c/5x5_reduce"
  param {
    lr_mult: 1
    decay_mult: 1
  }
  param {
    lr_mult: 2
    decay_mult: 0
  }
  convolution_param {
    num_output: 24
    kernel_size: 1
    weight_filler {
      type: "xavier"
      std: 0.2
    }
    bias_filler {
      type: "constant"
      value: 0.2
    }
  }
}
layer {
  name: "inception_4c/relu_5x5_reduce"
  type: "ReLU"
  bottom: "inception_4c/5x5_reduce"
  top: "inception_4c/5x5_reduce"
}
layer {
  name: "inception_4c/5x5"
  type: "Convolution"
  bottom: "inception_4c/5x5_reduce"
  top: "inception_4c/5x5"
  param {
    lr_mult: 1
    decay_mult: 1
  }
  param {
    lr_mult: 2
    decay_mult: 0
  }
  convolution_param {
    num_output: 64
    pad: 2
    kernel_size: 5
    weight_filler {
      type: "xavier"
      std: 0.03
    }
    bias_filler {
      type: "constant"
      value: 0.2
    }
  }
}
layer {
  name: "inception_4c/relu_5x5"
  type: "ReLU"
  bottom: "inception_4c/5x5"
  top: "inception_4c/5x5"
}
layer {
  name: "inception_4c/pool"
  type: "Pooling"
  bottom: "inception_4b/output"
  top: "inception_4c/pool"
  pooling_param {
    pool: MAX
    kernel_size: 3
    stride: 1
    pad: 1
  }
}
layer {
  name: "inception_4c/pool_proj"
  type: "Convolution"
  bottom: "inception_4c/pool"
  top: "inception_4c/pool_proj"
  param {
    lr_mult: 1
    decay_mult: 1
  }
  param {
    lr_mult: 2
    decay_mult: 0
  }
  convolution_param {
    num_output: 64
    kernel_size: 1
    weight_filler {
      type: "xavier"
      std: 0.1
    }
    bias_filler {
      type: "constant"
      value: 0.2
    }
  }
}
layer {
  name: "inception_4c/relu_pool_proj"
  type: "ReLU"
  bottom: "inception_4c/pool_proj"
  top: "inception_4c/pool_proj"
}
layer {
  name: "inception_4c/output"
  type: "Concat"
  bottom: "inception_4c/1x1"
  bottom: "inception_4c/3x3"
  bottom: "inception_4c/5x5"
  bottom: "inception_4c/pool_proj"
  top: "inception_4c/output"
}
layer {
  name: "inception_4d/1x1"
  type: "Convolution"
  bottom: "inception_4c/output"
  top: "inception_4d/1x1"
  param {
    lr_mult: 1
    decay_mult: 1
  }
  param {
    lr_mult: 2
    decay_mult: 0
  }
  convolution_param {
    num_output: 112
    kernel_size: 1
    weight_filler {
      type: "xavier"
      std: 0.03
    }
    bias_filler {
      type: "constant"
      value: 0.2
    }
  }
}
layer {
  name: "inception_4d/relu_1x1"
  type: "ReLU"
  bottom: "inception_4d/1x1"
  top: "inception_4d/1x1"
}
layer {
  name: "inception_4d/3x3_reduce"
  type: "Convolution"
  bottom: "inception_4c/output"
  top: "inception_4d/3x3_reduce"
  param {
    lr_mult: 1
    decay_mult: 1
  }
  param {
    lr_mult: 2
    decay_mult: 0
  }
  convolution_param {
    num_output: 144
    kernel_size: 1
    weight_filler {
      type: "xavier"
      std: 0.09
    }
    bias_filler {
      type: "constant"
      value: 0.2
    }
  }
}
layer {
  name: "inception_4d/relu_3x3_reduce"
  type: "ReLU"
  bottom: "inception_4d/3x3_reduce"
  top: "inception_4d/3x3_reduce"
}
layer {
  name: "inception_4d/3x3"
  type: "Convolution"
  bottom: "inception_4d/3x3_reduce"
  top: "inception_4d/3x3"
  param {
    lr_mult: 1
    decay_mult: 1
  }
  param {
    lr_mult: 2
    decay_mult: 0
  }
  convolution_param {
    num_output: 288
    pad: 1
    kernel_size: 3
    weight_filler {
      type: "xavier"
      std: 0.03
    }
    bias_filler {
      type: "constant"
      value: 0.2
    }
  }
}
layer {
  name: "inception_4d/relu_3x3"
  type: "ReLU"
  bottom: "inception_4d/3x3"
  top: "inception_4d/3x3"
}
layer {
  name: "inception_4d/5x5_reduce"
  type: "Convolution"
  bottom: "inception_4c/output"
  top: "inception_4d/5x5_reduce"
  param {
    lr_mult: 1
    decay_mult: 1
  }
  param {
    lr_mult: 2
    decay_mult: 0
  }
  convolution_param {
    num_output: 32
    kernel_size: 1
    weight_filler {
      type: "xavier"
      std: 0.2
    }
    bias_filler {
      type: "constant"
      value: 0.2
    }
  }
}
layer {
  name: "inception_4d/relu_5x5_reduce"
  type: "ReLU"
  bottom: "inception_4d/5x5_reduce"
  top: "inception_4d/5x5_reduce"
}
layer {
  name: "inception_4d/5x5"
  type: "Convolution"
  bottom: "inception_4d/5x5_reduce"
  top: "inception_4d/5x5"
  param {
    lr_mult: 1
    decay_mult: 1
  }
  param {
    lr_mult: 2
    decay_mult: 0
  }
  convolution_param {
    num_output: 64
    pad: 2
    kernel_size: 5
    weight_filler {
      type: "xavier"
      std: 0.03
    }
    bias_filler {
      type: "constant"
      value: 0.2
    }
  }
}
layer {
  name: "inception_4d/relu_5x5"
  type: "ReLU"
  bottom: "inception_4d/5x5"
  top: "inception_4d/5x5"
}
layer {
  name: "inception_4d/pool"
  type: "Pooling"
  bottom: "inception_4c/output"
  top: "inception_4d/pool"
  pooling_param {
    pool: MAX
    kernel_size: 3
    stride: 1
    pad: 1
  }
}
layer {
  name: "inception_4d/pool_proj"
  type: "Convolution"
  bottom: "inception_4d/pool"
  top: "inception_4d/pool_proj"
  param {
    lr_mult: 1
    decay_mult: 1
  }
  param {
    lr_mult: 2
    decay_mult: 0
  }
  convolution_param {
    num_output: 64
    kernel_size: 1
    weight_filler {
      type: "xavier"
      std: 0.1
    }
    bias_filler {
      type: "constant"
      value: 0.2
    }
  }
}
layer {
  name: "inception_4d/relu_pool_proj"
  type: "ReLU"
  bottom: "inception_4d/pool_proj"
  top: "inception_4d/pool_proj"
}
layer {
  name: "inception_4d/output"
  type: "Concat"
  bottom: "inception_4d/1x1"
  bottom: "inception_4d/3x3"
  bottom: "inception_4d/5x5"
  bottom: "inception_4d/pool_proj"
  top: "inception_4d/output"
}
layer {
  name: "loss2/ave_pool"
  type: "Pooling"
  bottom: "inception_4d/output"
  top: "loss2/ave_pool"
  pooling_param {
    pool: AVE
    kernel_size: 5
    stride: 3
  }
}
layer {
  name: "loss2/conv"
  type: "Convolution"
  bottom: "loss2/ave_pool"
  top: "loss2/conv"
  param {
    lr_mult: 1
    decay_mult: 1
  }
  param {
    lr_mult: 2
    decay_mult: 0
  }
  convolution_param {
    num_output: 128
    kernel_size: 1
    weight_filler {
      type: "xavier"
      std: 0.08
    }
    bias_filler {
      type: "constant"
      value: 0.2
    }
  }
}
layer {
  name: "loss2/relu_conv"
  type: "ReLU"
  bottom: "loss2/conv"
  top: "loss2/conv"
}
layer {
  name: "loss2/fc"
  type: "InnerProduct"
  bottom: "loss2/conv"
  top: "loss2/fc"
  param {
    lr_mult: 1
    decay_mult: 1
  }
  param {
    lr_mult: 2
    decay_mult: 0
  }
  inner_product_param {
    num_output: 1024
    weight_filler {
      type: "xavier"
      std: 0.02
    }
    bias_filler {
      type: "constant"
      value: 0.2
    }
  }
}
layer {
  name: "loss2/relu_fc"
  type: "ReLU"
  bottom: "loss2/fc"
  top: "loss2/fc"
}
layer {
  name: "loss2/drop_fc"
  type: "Dropout"
  bottom: "loss2/fc"
  top: "loss2/fc"
  dropout_param {
    dropout_ratio: 0.7
  }
}
layer {
  name: "loss2/classifier"
  type: "InnerProduct"
  bottom: "loss2/fc"
  top: "loss2/classifier"
  param {
    lr_mult: 1
    decay_mult: 1
  }
  param {
    lr_mult: 2
    decay_mult: 0
  }
  inner_product_param {
    num_output: 2
    weight_filler {
      type: "xavier"
      std: 0.0009765625
    }
    bias_filler {
      type: "constant"
      value: 0
    }
  }
}
layer {
  name: "loss2/loss"
  type: "SoftmaxWithLoss"
  bottom: "loss2/classifier"
  bottom: "label"
  top: "loss2/loss1"
  loss_weight: 0.3
}
layer {
  name: "inception_4e/1x1"
  type: "Convolution"
  bottom: "inception_4d/output"
  top: "inception_4e/1x1"
  param {
    lr_mult: 1
    decay_mult: 1
  }
  param {
    lr_mult: 2
    decay_mult: 0
  }
  convolution_param {
    num_output: 256
    kernel_size: 1
    weight_filler {
      type: "xavier"
      std: 0.03
    }
    bias_filler {
      type: "constant"
      value: 0.2
    }
  }
}
layer {
  name: "inception_4e/relu_1x1"
  type: "ReLU"
  bottom: "inception_4e/1x1"
  top: "inception_4e/1x1"
}
layer {
  name: "inception_4e/3x3_reduce"
  type: "Convolution"
  bottom: "inception_4d/output"
  top: "inception_4e/3x3_reduce"
  param {
    lr_mult: 1
    decay_mult: 1
  }
  param {
    lr_mult: 2
    decay_mult: 0
  }
  convolution_param {
    num_output: 160
    kernel_size: 1
    weight_filler {
      type: "xavier"
      std: 0.09
    }
    bias_filler {
      type: "constant"
      value: 0.2
    }
  }
}
layer {
  name: "inception_4e/relu_3x3_reduce"
  type: "ReLU"
  bottom: "inception_4e/3x3_reduce"
  top: "inception_4e/3x3_reduce"
}
layer {
  name: "inception_4e/3x3"
  type: "Convolution"
  bottom: "inception_4e/3x3_reduce"
  top: "inception_4e/3x3"
  param {
    lr_mult: 1
    decay_mult: 1
  }
  param {
    lr_mult: 2
    decay_mult: 0
  }
  convolution_param {
    num_output: 320
    pad: 1
    kernel_size: 3
    weight_filler {
      type: "xavier"
      std: 0.03
    }
    bias_filler {
      type: "constant"
      value: 0.2
    }
  }
}
layer {
  name: "inception_4e/relu_3x3"
  type: "ReLU"
  bottom: "inception_4e/3x3"
  top: "inception_4e/3x3"
}
layer {
  name: "inception_4e/5x5_reduce"
  type: "Convolution"
  bottom: "inception_4d/output"
  top: "inception_4e/5x5_reduce"
  param {
    lr_mult: 1
    decay_mult: 1
  }
  param {
    lr_mult: 2
    decay_mult: 0
  }
  convolution_param {
    num_output: 32
    kernel_size: 1
    weight_filler {
      type: "xavier"
      std: 0.2
    }
    bias_filler {
      type: "constant"
      value: 0.2
    }
  }
}
layer {
  name: "inception_4e/relu_5x5_reduce"
  type: "ReLU"
  bottom: "
I0511 03:05:00.898298 19438 layer_factory.hpp:74] Creating layer data
I0511 03:05:00.898334 19438 net.cpp:76] Creating Layer data
I0511 03:05:00.898346 19438 net.cpp:334] data -> data
I0511 03:05:00.898377 19438 net.cpp:334] data -> label
I0511 03:05:00.898397 19438 net.cpp:105] Setting up data
I0511 03:05:00.898515 19438 db.cpp:34] Opened lmdb train_lmdb
I0511 03:05:00.898867 19438 data_layer.cpp:67] output data size: 32,3,224,224
I0511 03:05:00.905746 19438 net.cpp:112] Top shape: 32 3 224 224 (4816896)
I0511 03:05:00.905764 19438 net.cpp:112] Top shape: 32 1 1 1 (32)
I0511 03:05:00.905774 19438 layer_factory.hpp:74] Creating layer label_data_1_split
I0511 03:05:00.905789 19438 net.cpp:76] Creating Layer label_data_1_split
I0511 03:05:00.905797 19438 net.cpp:372] label_data_1_split <- label
I0511 03:05:00.905813 19438 net.cpp:334] label_data_1_split -> label_data_1_split_0
I0511 03:05:00.905828 19438 net.cpp:334] label_data_1_split -> label_data_1_split_1
I0511 03:05:00.905838 19438 net.cpp:334] label_data_1_split -> label_data_1_split_2
I0511 03:05:00.905846 19438 net.cpp:105] Setting up label_data_1_split
I0511 03:05:00.905855 19438 net.cpp:112] Top shape: 32 1 1 1 (32)
I0511 03:05:00.905861 19438 net.cpp:112] Top shape: 32 1 1 1 (32)
I0511 03:05:00.905868 19438 net.cpp:112] Top shape: 32 1 1 1 (32)
I0511 03:05:00.905872 19438 layer_factory.hpp:74] Creating layer conv1/7x7_s2
I0511 03:05:00.905886 19438 net.cpp:76] Creating Layer conv1/7x7_s2
I0511 03:05:00.905894 19438 net.cpp:372] conv1/7x7_s2 <- data
I0511 03:05:00.905902 19438 net.cpp:334] conv1/7x7_s2 -> conv1/7x7_s2
I0511 03:05:00.905913 19438 net.cpp:105] Setting up conv1/7x7_s2
I0511 03:05:00.906034 19438 net.cpp:112] Top shape: 32 64 112 112 (25690112)
I0511 03:05:00.906080 19438 layer_factory.hpp:74] Creating layer conv1/relu_7x7
I0511 03:05:00.906090 19438 net.cpp:76] Creating Layer conv1/relu_7x7
I0511 03:05:00.906096 19438 net.cpp:372] conv1/relu_7x7 <- conv1/7x7_s2
I0511 03:05:00.906105 19438 net.cpp:323] conv1/relu_7x7 -> conv1/7x7_s2 (in-place)
I0511 03:05:00.906111 19438 net.cpp:105] Setting up conv1/relu_7x7
I0511 03:05:00.906119 19438 net.cpp:112] Top shape: 32 64 112 112 (25690112)
I0511 03:05:00.906126 19438 layer_factory.hpp:74] Creating layer pool1/3x3_s2
I0511 03:05:00.906136 19438 net.cpp:76] Creating Layer pool1/3x3_s2
I0511 03:05:00.906141 19438 net.cpp:372] pool1/3x3_s2 <- conv1/7x7_s2
I0511 03:05:00.906148 19438 net.cpp:334] pool1/3x3_s2 -> pool1/3x3_s2
I0511 03:05:00.906157 19438 net.cpp:105] Setting up pool1/3x3_s2
I0511 03:05:00.906172 19438 net.cpp:112] Top shape: 32 64 56 56 (6422528)
I0511 03:05:00.906177 19438 layer_factory.hpp:74] Creating layer pool1/norm1
I0511 03:05:00.906188 19438 net.cpp:76] Creating Layer pool1/norm1
I0511 03:05:00.906193 19438 net.cpp:372] pool1/norm1 <- pool1/3x3_s2
I0511 03:05:00.906200 19438 net.cpp:334] pool1/norm1 -> pool1/norm1
I0511 03:05:00.906210 19438 net.cpp:105] Setting up pool1/norm1
I0511 03:05:00.906216 19438 net.cpp:112] Top shape: 32 64 56 56 (6422528)
I0511 03:05:00.906222 19438 layer_factory.hpp:74] Creating layer conv2/3x3_reduce
I0511 03:05:00.906230 19438 net.cpp:76] Creating Layer conv2/3x3_reduce
I0511 03:05:00.906236 19438 net.cpp:372] conv2/3x3_reduce <- pool1/norm1
I0511 03:05:00.906244 19438 net.cpp:334] conv2/3x3_reduce -> conv2/3x3_reduce
I0511 03:05:00.906254 19438 net.cpp:105] Setting up conv2/3x3_reduce
I0511 03:05:00.906309 19438 net.cpp:112] Top shape: 32 64 56 56 (6422528)
I0511 03:05:00.906322 19438 layer_factory.hpp:74] Creating layer conv2/relu_3x3_reduce
I0511 03:05:00.906330 19438 net.cpp:76] Creating Layer conv2/relu_3x3_reduce
I0511 03:05:00.906337 19438 net.cpp:372] conv2/relu_3x3_reduce <- conv2/3x3_reduce
I0511 03:05:00.906343 19438 net.cpp:323] conv2/relu_3x3_reduce -> conv2/3x3_reduce (in-place)
I0511 03:05:00.906352 19438 net.cpp:105] Setting up conv2/relu_3x3_reduce
I0511 03:05:00.906357 19438 net.cpp:112] Top shape: 32 64 56 56 (6422528)
I0511 03:05:00.906361 19438 layer_factory.hpp:74] Creating layer conv2/3x3
I0511 03:05:00.906370 19438 net.cpp:76] Creating Layer conv2/3x3
I0511 03:05:00.906376 19438 net.cpp:372] conv2/3x3 <- conv2/3x3_reduce
I0511 03:05:00.906383 19438 net.cpp:334] conv2/3x3 -> conv2/3x3
I0511 03:05:00.906393 19438 net.cpp:105] Setting up conv2/3x3
I0511 03:05:00.907356 19438 net.cpp:112] Top shape: 32 192 56 56 (19267584)
I0511 03:05:00.907382 19438 layer_factory.hpp:74] Creating layer conv2/relu_3x3
I0511 03:05:00.907392 19438 net.cpp:76] Creating Layer conv2/relu_3x3
I0511 03:05:00.907398 19438 net.cpp:372] conv2/relu_3x3 <- conv2/3x3
I0511 03:05:00.907409 19438 net.cpp:323] conv2/relu_3x3 -> conv2/3x3 (in-place)
I0511 03:05:00.907418 19438 net.cpp:105] Setting up conv2/relu_3x3
I0511 03:05:00.907424 19438 net.cpp:112] Top shape: 32 192 56 56 (19267584)
I0511 03:05:00.907430 19438 layer_factory.hpp:74] Creating layer conv2/norm2
I0511 03:05:00.907438 19438 net.cpp:76] Creating Layer conv2/norm2
I0511 03:05:00.907444 19438 net.cpp:372] conv2/norm2 <- conv2/3x3
I0511 03:05:00.907452 19438 net.cpp:334] conv2/norm2 -> conv2/norm2
I0511 03:05:00.907461 19438 net.cpp:105] Setting up conv2/norm2
I0511 03:05:00.907467 19438 net.cpp:112] Top shape: 32 192 56 56 (19267584)
I0511 03:05:00.907474 19438 layer_factory.hpp:74] Creating layer pool2/3x3_s2
I0511 03:05:00.907480 19438 net.cpp:76] Creating Layer pool2/3x3_s2
I0511 03:05:00.907485 19438 net.cpp:372] pool2/3x3_s2 <- conv2/norm2
I0511 03:05:00.907492 19438 net.cpp:334] pool2/3x3_s2 -> pool2/3x3_s2
I0511 03:05:00.907500 19438 net.cpp:105] Setting up pool2/3x3_s2
I0511 03:05:00.907507 19438 net.cpp:112] Top shape: 32 192 28 28 (4816896)
I0511 03:05:00.907512 19438 layer_factory.hpp:74] Creating layer pool2/3x3_s2_pool2/3x3_s2_0_split
I0511 03:05:00.907522 19438 net.cpp:76] Creating Layer pool2/3x3_s2_pool2/3x3_s2_0_split
I0511 03:05:00.907546 19438 net.cpp:372] pool2/3x3_s2_pool2/3x3_s2_0_split <- pool2/3x3_s2
I0511 03:05:00.907554 19438 net.cpp:334] pool2/3x3_s2_pool2/3x3_s2_0_split -> pool2/3x3_s2_pool2/3x3_s2_0_split_0
I0511 03:05:00.907563 19438 net.cpp:334] pool2/3x3_s2_pool2/3x3_s2_0_split -> pool2/3x3_s2_pool2/3x3_s2_0_split_1
I0511 03:05:00.907572 19438 net.cpp:334] pool2/3x3_s2_pool2/3x3_s2_0_split -> pool2/3x3_s2_pool2/3x3_s2_0_split_2
I0511 03:05:00.907584 19438 net.cpp:334] pool2/3x3_s2_pool2/3x3_s2_0_split -> pool2/3x3_s2_pool2/3x3_s2_0_split_3
I0511 03:05:00.907591 19438 net.cpp:105] Setting up pool2/3x3_s2_pool2/3x3_s2_0_split
I0511 03:05:00.907598 19438 net.cpp:112] Top shape: 32 192 28 28 (4816896)
I0511 03:05:00.907603 19438 net.cpp:112] Top shape: 32 192 28 28 (4816896)
I0511 03:05:00.907608 19438 net.cpp:112] Top shape: 32 192 28 28 (4816896)
I0511 03:05:00.907613 19438 net.cpp:112] Top shape: 32 192 28 28 (4816896)
I0511 03:05:00.907618 19438 layer_factory.hpp:74] Creating layer inception_3a/1x1
I0511 03:05:00.907627 19438 net.cpp:76] Creating Layer inception_3a/1x1
I0511 03:05:00.907632 19438 net.cpp:372] inception_3a/1x1 <- pool2/3x3_s2_pool2/3x3_s2_0_split_0
I0511 03:05:00.907644 19438 net.cpp:334] inception_3a/1x1 -> inception_3a/1x1
I0511 03:05:00.907655 19438 net.cpp:105] Setting up inception_3a/1x1
I0511 03:05:00.907779 19438 net.cpp:112] Top shape: 32 64 28 28 (1605632)
I0511 03:05:00.907791 19438 layer_factory.hpp:74] Creating layer inception_3a/relu_1x1
I0511 03:05:00.907799 19438 net.cpp:76] Creating Layer inception_3a/relu_1x1
I0511 03:05:00.907804 19438 net.cpp:372] inception_3a/relu_1x1 <- inception_3a/1x1
I0511 03:05:00.907826 19438 net.cpp:323] inception_3a/relu_1x1 -> inception_3a/1x1 (in-place)
I0511 03:05:00.907835 19438 net.cpp:105] Setting up inception_3a/relu_1x1
I0511 03:05:00.907840 19438 net.cpp:112] Top shape: 32 64 28 28 (1605632)
I0511 03:05:00.907845 19438 layer_factory.hpp:74] Creating layer inception_3a/3x3_reduce
I0511 03:05:00.907853 19438 net.cpp:76] Creating Layer inception_3a/3x3_reduce
I0511 03:05:00.907860 19438 net.cpp:372] inception_3a/3x3_reduce <- pool2/3x3_s2_pool2/3x3_s2_0_split_1
I0511 03:05:00.907872 19438 net.cpp:334] inception_3a/3x3_reduce -> inception_3a/3x3_reduce
I0511 03:05:00.907882 19438 net.cpp:105] Setting up inception_3a/3x3_reduce
I0511 03:05:00.908198 19438 net.cpp:112] Top shape: 32 96 28 28 (2408448)
I0511 03:05:00.908216 19438 layer_factory.hpp:74] Creating layer inception_3a/relu_3x3_reduce
I0511 03:05:00.908229 19438 net.cpp:76] Creating Layer inception_3a/relu_3x3_reduce
I0511 03:05:00.908236 19438 net.cpp:372] inception_3a/relu_3x3_reduce <- inception_3a/3x3_reduce
I0511 03:05:00.908243 19438 net.cpp:323] inception_3a/relu_3x3_reduce -> inception_3a/3x3_reduce (in-place)
I0511 03:05:00.908253 19438 net.cpp:105] Setting up inception_3a/relu_3x3_reduce
I0511 03:05:00.908258 19438 net.cpp:112] Top shape: 32 96 28 28 (2408448)
I0511 03:05:00.908267 19438 layer_factory.hpp:74] Creating layer inception_3a/3x3
I0511 03:05:00.908275 19438 net.cpp:76] Creating Layer inception_3a/3x3
I0511 03:05:00.908280 19438 net.cpp:372] inception_3a/3x3 <- inception_3a/3x3_reduce
I0511 03:05:00.908291 19438 net.cpp:334] inception_3a/3x3 -> inception_3a/3x3
I0511 03:05:00.908300 19438 net.cpp:105] Setting up inception_3a/3x3
I0511 03:05:00.910198 19438 net.cpp:112] Top shape: 32 128 28 28 (3211264)
I0511 03:05:00.910228 19438 layer_factory.hpp:74] Creating layer inception_3a/relu_3x3
I0511 03:05:00.910243 19438 net.cpp:76] Creating Layer inception_3a/relu_3x3
I0511 03:05:00.910254 19438 net.cpp:372] inception_3a/relu_3x3 <- inception_3a/3x3
I0511 03:05:00.910293 19438 net.cpp:323] inception_3a/relu_3x3 -> inception_3a/3x3 (in-place)
I0511 03:05:00.910311 19438 net.cpp:105] Setting up inception_3a/relu_3x3
I0511 03:05:00.910320 19438 net.cpp:112] Top shape: 32 128 28 28 (3211264)
I0511 03:05:00.910331 19438 layer_factory.hpp:74] Creating layer inception_3a/5x5_reduce
I0511 03:05:00.910346 19438 net.cpp:76] Creating Layer inception_3a/5x5_reduce
I0511 03:05:00.910388 19438 net.cpp:372] inception_3a/5x5_reduce <- pool2/3x3_s2_pool2/3x3_s2_0_split_2
I0511 03:05:00.910411 19438 net.cpp:334] inception_3a/5x5_reduce -> inception_3a/5x5_reduce
I0511 03:05:00.910429 19438 net.cpp:105] Setting up inception_3a/5x5_reduce
I0511 03:05:00.910507 19438 net.cpp:112] Top shape: 32 16 28 28 (401408)
I0511 03:05:00.910527 19438 layer_factory.hpp:74] Creating layer inception_3a/relu_5x5_reduce
I0511 03:05:00.910540 19438 net.cpp:76] Creating Layer inception_3a/relu_5x5_reduce
I0511 03:05:00.910547 19438 net.cpp:372] inception_3a/relu_5x5_reduce <- inception_3a/5x5_reduce
I0511 03:05:00.910554 19438 net.cpp:323] inception_3a/relu_5x5_reduce -> inception_3a/5x5_reduce (in-place)
I0511 03:05:00.910562 19438 net.cpp:105] Setting up inception_3a/relu_5x5_reduce
I0511 03:05:00.910568 19438 net.cpp:112] Top shape: 32 16 28 28 (401408)
I0511 03:05:00.910574 19438 layer_factory.hpp:74] Creating layer inception_3a/5x5
I0511 03:05:00.910583 19438 net.cpp:76] Creating Layer inception_3a/5x5
I0511 03:05:00.910589 19438 net.cpp:372] inception_3a/5x5 <- inception_3a/5x5_reduce
I0511 03:05:00.910598 19438 net.cpp:334] inception_3a/5x5 -> inception_3a/5x5
I0511 03:05:00.910608 19438 net.cpp:105] Setting up inception_3a/5x5
I0511 03:05:00.910722 19438 net.cpp:112] Top shape: 32 32 28 28 (802816)
I0511 03:05:00.910732 19438 layer_factory.hpp:74] Creating layer inception_3a/relu_5x5
I0511 03:05:00.910739 19438 net.cpp:76] Creating Layer inception_3a/relu_5x5
I0511 03:05:00.910745 19438 net.cpp:372] inception_3a/relu_5x5 <- inception_3a/5x5
I0511 03:05:00.910754 19438 net.cpp:323] inception_3a/relu_5x5 -> inception_3a/5x5 (in-place)
I0511 03:05:00.910761 19438 net.cpp:105] Setting up inception_3a/relu_5x5
I0511 03:05:00.910766 19438 net.cpp:112] Top shape: 32 32 28 28 (802816)
I0511 03:05:00.910773 19438 layer_factory.hpp:74] Creating layer inception_3a/pool
I0511 03:05:00.910779 19438 net.cpp:76] Creating Layer inception_3a/pool
I0511 03:05:00.910785 19438 net.cpp:372] inception_3a/pool <- pool2/3x3_s2_pool2/3x3_s2_0_split_3
I0511 03:05:00.910794 19438 net.cpp:334] inception_3a/pool -> inception_3a/pool
I0511 03:05:00.910804 19438 net.cpp:105] Setting up inception_3a/pool
I0511 03:05:00.910810 19438 net.cpp:112] Top shape: 32 192 28 28 (4816896)
I0511 03:05:00.910816 19438 layer_factory.hpp:74] Creating layer inception_3a/pool_proj
I0511 03:05:00.910827 19438 net.cpp:76] Creating Layer inception_3a/pool_proj
I0511 03:05:00.910833 19438 net.cpp:372] inception_3a/pool_proj <- inception_3a/pool
I0511 03:05:00.910841 19438 net.cpp:334] inception_3a/pool_proj -> inception_3a/pool_proj
I0511 03:05:00.910853 19438 net.cpp:105] Setting up inception_3a/pool_proj
I0511 03:05:00.910977 19438 net.cpp:112] Top shape: 32 32 28 28 (802816)
I0511 03:05:00.911000 19438 layer_factory.hpp:74] Creating layer inception_3a/relu_pool_proj
I0511 03:05:00.911010 19438 net.cpp:76] Creating Layer inception_3a/relu_pool_proj
I0511 03:05:00.911016 19438 net.cpp:372] inception_3a/relu_pool_proj <- inception_3a/pool_proj
I0511 03:05:00.911025 19438 net.cpp:323] inception_3a/relu_pool_proj -> inception_3a/pool_proj (in-place)
I0511 03:05:00.911032 19438 net.cpp:105] Setting up inception_3a/relu_pool_proj
I0511 03:05:00.911038 19438 net.cpp:112] Top shape: 32 32 28 28 (802816)
I0511 03:05:00.911044 19438 layer_factory.hpp:74] Creating layer inception_3a/output
I0511 03:05:00.911054 19438 net.cpp:76] Creating Layer inception_3a/output
I0511 03:05:00.911061 19438 net.cpp:372] inception_3a/output <- inception_3a/1x1
I0511 03:05:00.911067 19438 net.cpp:372] inception_3a/output <- inception_3a/3x3
I0511 03:05:00.911073 19438 net.cpp:372] inception_3a/output <- inception_3a/5x5
I0511 03:05:00.911079 19438 net.cpp:372] inception_3a/output <- inception_3a/pool_proj
I0511 03:05:00.911089 19438 net.cpp:334] inception_3a/output -> inception_3a/output
I0511 03:05:00.911098 19438 net.cpp:105] Setting up inception_3a/output
I0511 03:05:00.911106 19438 net.cpp:112] Top shape: 32 256 28 28 (6422528)
I0511 03:05:00.911111 19438 layer_factory.hpp:74] Creating layer inception_3a/output_inception_3a/output_0_split
I0511 03:05:00.911130 19438 net.cpp:76] Creating Layer inception_3a/output_inception_3a/output_0_split
I0511 03:05:00.911137 19438 net.cpp:372] inception_3a/output_inception_3a/output_0_split <- inception_3a/output
I0511 03:05:00.911147 19438 net.cpp:334] inception_3a/output_inception_3a/output_0_split -> inception_3a/output_inception_3a/output_0_split_0
I0511 03:05:00.911157 19438 net.cpp:334] inception_3a/output_inception_3a/output_0_split -> inception_3a/output_inception_3a/output_0_split_1
I0511 03:05:00.911166 19438 net.cpp:334] inception_3a/output_inception_3a/output_0_split -> inception_3a/output_inception_3a/output_0_split_2
I0511 03:05:00.911175 19438 net.cpp:334] inception_3a/output_inception_3a/output_0_split -> inception_3a/output_inception_3a/output_0_split_3
I0511 03:05:00.911182 19438 net.cpp:105] Setting up inception_3a/output_inception_3a/output_0_split
I0511 03:05:00.911190 19438 net.cpp:112] Top shape: 32 256 28 28 (6422528)
I0511 03:05:00.911195 19438 net.cpp:112] Top shape: 32 256 28 28 (6422528)
I0511 03:05:00.911200 19438 net.cpp:112] Top shape: 32 256 28 28 (6422528)
I0511 03:05:00.911205 19438 net.cpp:112] Top shape: 32 256 28 28 (6422528)
I0511 03:05:00.911211 19438 layer_factory.hpp:74] Creating layer inception_3b/1x1
I0511 03:05:00.911218 19438 net.cpp:76] Creating Layer inception_3b/1x1
I0511 03:05:00.911223 19438 net.cpp:372] inception_3b/1x1 <- inception_3a/output_inception_3a/output_0_split_0
I0511 03:05:00.911236 19438 net.cpp:334] inception_3b/1x1 -> inception_3b/1x1
I0511 03:05:00.911250 19438 net.cpp:105] Setting up inception_3b/1x1
I0511 03:05:00.911655 19438 net.cpp:112] Top shape: 32 128 28 28 (3211264)
I0511 03:05:00.911674 19438 layer_factory.hpp:74] Creating layer inception_3b/relu_1x1
I0511 03:05:00.911685 19438 net.cpp:76] Creating Layer inception_3b/relu_1x1
I0511 03:05:00.911692 19438 net.cpp:372] inception_3b/relu_1x1 <- inception_3b/1x1
I0511 03:05:00.911700 19438 net.cpp:323] inception_3b/relu_1x1 -> inception_3b/1x1 (in-place)
I0511 03:05:00.911707 19438 net.cpp:105] Setting up inception_3b/relu_1x1
I0511 03:05:00.911713 19438 net.cpp:112] Top shape: 32 128 28 28 (3211264)
I0511 03:05:00.911718 19438 layer_factory.hpp:74] Creating layer inception_3b/3x3_reduce
I0511 03:05:00.911726 19438 net.cpp:76] Creating Layer inception_3b/3x3_reduce
I0511 03:05:00.911732 19438 net.cpp:372] inception_3b/3x3_reduce <- inception_3a/output_inception_3a/output_0_split_1
I0511 03:05:00.911746 19438 net.cpp:334] inception_3b/3x3_reduce -> inception_3b/3x3_reduce
I0511 03:05:00.911756 19438 net.cpp:105] Setting up inception_3b/3x3_reduce
I0511 03:05:00.912355 19438 net.cpp:112] Top shape: 32 128 28 28 (3211264)
I0511 03:05:00.912374 19438 layer_factory.hpp:74] Creating layer inception_3b/relu_3x3_reduce
I0511 03:05:00.912384 19438 net.cpp:76] Creating Layer inception_3b/relu_3x3_reduce
I0511 03:05:00.912389 19438 net.cpp:372] inception_3b/relu_3x3_reduce <- inception_3b/3x3_reduce
I0511 03:05:00.912399 19438 net.cpp:323] inception_3b/relu_3x3_reduce -> inception_3b/3x3_reduce (in-place)
I0511 03:05:00.912407 19438 net.cpp:105] Setting up inception_3b/relu_3x3_reduce
I0511 03:05:00.912413 19438 net.cpp:112] Top shape: 32 128 28 28 (3211264)
I0511 03:05:00.912418 19438 layer_factory.hpp:74] Creating layer inception_3b/3x3
I0511 03:05:00.912431 19438 net.cpp:76] Creating Layer inception_3b/3x3
I0511 03:05:00.912436 19438 net.cpp:372] inception_3b/3x3 <- inception_3b/3x3_reduce
I0511 03:05:00.912446 19438 net.cpp:334] inception_3b/3x3 -> inception_3b/3x3
I0511 03:05:00.912456 19438 net.cpp:105] Setting up inception_3b/3x3
I0511 03:05:00.914901 19438 net.cpp:112] Top shape: 32 192 28 28 (4816896)
I0511 03:05:00.914927 19438 layer_factory.hpp:74] Creating layer inception_3b/relu_3x3
I0511 03:05:00.914939 19438 net.cpp:76] Creating Layer inception_3b/relu_3x3
I0511 03:05:00.914948 19438 net.cpp:372] inception_3b/relu_3x3 <- inception_3b/3x3
I0511 03:05:00.914963 19438 net.cpp:323] inception_3b/relu_3x3 -> inception_3b/3x3 (in-place)
I0511 03:05:00.915014 19438 net.cpp:105] Setting up inception_3b/relu_3x3
I0511 03:05:00.915027 19438 net.cpp:112] Top shape: 32 192 28 28 (4816896)
I0511 03:05:00.915041 19438 layer_factory.hpp:74] Creating layer inception_3b/5x5_reduce
I0511 03:05:00.915056 19438 net.cpp:76] Creating Layer inception_3b/5x5_reduce
I0511 03:05:00.915067 19438 net.cpp:372] inception_3b/5x5_reduce <- inception_3a/output_inception_3a/output_0_split_2
I0511 03:05:00.915089 19438 net.cpp:334] inception_3b/5x5_reduce -> inception_3b/5x5_reduce
I0511 03:05:00.915109 19438 net.cpp:105] Setting up inception_3b/5x5_reduce
I0511 03:05:00.915210 19438 net.cpp:112] Top shape: 32 32 28 28 (802816)
I0511 03:05:00.915223 19438 layer_factory.hpp:74] Creating layer inception_3b/relu_5x5_reduce
I0511 03:05:00.915236 19438 net.cpp:76] Creating Layer inception_3b/relu_5x5_reduce
I0511 03:05:00.915248 19438 net.cpp:372] inception_3b/relu_5x5_reduce <- inception_3b/5x5_reduce
I0511 03:05:00.915289 19438 net.cpp:323] inception_3b/relu_5x5_reduce -> inception_3b/5x5_reduce (in-place)
I0511 03:05:00.915305 19438 net.cpp:105] Setting up inception_3b/relu_5x5_reduce
I0511 03:05:00.915312 19438 net.cpp:112] Top shape: 32 32 28 28 (802816)
I0511 03:05:00.915318 19438 layer_factory.hpp:74] Creating layer inception_3b/5x5
I0511 03:05:00.915330 19438 net.cpp:76] Creating Layer inception_3b/5x5
I0511 03:05:00.915336 19438 net.cpp:372] inception_3b/5x5 <- inception_3b/5x5_reduce
I0511 03:05:00.915344 19438 net.cpp:334] inception_3b/5x5 -> inception_3b/5x5
I0511 03:05:00.915361 19438 net.cpp:105] Setting up inception_3b/5x5
I0511 03:05:00.916127 19438 net.cpp:112] Top shape: 32 96 28 28 (2408448)
I0511 03:05:00.916143 19438 layer_factory.hpp:74] Creating layer inception_3b/relu_5x5
I0511 03:05:00.916152 19438 net.cpp:76] Creating Layer inception_3b/relu_5x5
I0511 03:05:00.916158 19438 net.cpp:372] inception_3b/relu_5x5 <- inception_3b/5x5
I0511 03:05:00.916168 19438 net.cpp:323] inception_3b/relu_5x5 -> inception_3b/5x5 (in-place)
I0511 03:05:00.916177 19438 net.cpp:105] Setting up inception_3b/relu_5x5
I0511 03:05:00.916182 19438 net.cpp:112] Top shape: 32 96 28 28 (2408448)
I0511 03:05:00.916188 19438 layer_factory.hpp:74] Creating layer inception_3b/pool
I0511 03:05:00.916196 19438 net.cpp:76] Creating Layer inception_3b/pool
I0511 03:05:00.916201 19438 net.cpp:372] inception_3b/pool <- inception_3a/output_inception_3a/output_0_split_3
I0511 03:05:00.916209 19438 net.cpp:334] inception_3b/pool -> inception_3b/pool
I0511 03:05:00.916218 19438 net.cpp:105] Setting up inception_3b/pool
I0511 03:05:00.916226 19438 net.cpp:112] Top shape: 32 256 28 28 (6422528)
I0511 03:05:00.916232 19438 layer_factory.hpp:74] Creating layer inception_3b/pool_proj
I0511 03:05:00.916244 19438 net.cpp:76] Creating Layer inception_3b/pool_proj
I0511 03:05:00.916249 19438 net.cpp:372] inception_3b/pool_proj <- inception_3b/pool
I0511 03:05:00.916260 19438 net.cpp:334] inception_3b/pool_proj -> inception_3b/pool_proj
I0511 03:05:00.916281 19438 net.cpp:105] Setting up inception_3b/pool_proj
I0511 03:05:00.916478 19438 net.cpp:112] Top shape: 32 64 28 28 (1605632)
I0511 03:05:00.916496 19438 layer_factory.hpp:74] Creating layer inception_3b/relu_pool_proj
I0511 03:05:00.916506 19438 net.cpp:76] Creating Layer inception_3b/relu_pool_proj
I0511 03:05:00.916512 19438 net.cpp:372] inception_3b/relu_pool_proj <- inception_3b/pool_proj
I0511 03:05:00.916519 19438 net.cpp:323] inception_3b/relu_pool_proj -> inception_3b/pool_proj (in-place)
I0511 03:05:00.916527 19438 net.cpp:105] Setting up inception_3b/relu_pool_proj
I0511 03:05:00.916533 19438 net.cpp:112] Top shape: 32 64 28 28 (1605632)
I0511 03:05:00.916539 19438 layer_factory.hpp:74] Creating layer inception_3b/output
I0511 03:05:00.916546 19438 net.cpp:76] Creating Layer inception_3b/output
I0511 03:05:00.916553 19438 net.cpp:372] inception_3b/output <- inception_3b/1x1
I0511 03:05:00.916558 19438 net.cpp:372] inception_3b/output <- inception_3b/3x3
I0511 03:05:00.916564 19438 net.cpp:372] inception_3b/output <- inception_3b/5x5
I0511 03:05:00.916587 19438 net.cpp:372] inception_3b/output <- inception_3b/pool_proj
I0511 03:05:00.916599 19438 net.cpp:334] inception_3b/output -> inception_3b/output
I0511 03:05:00.916610 19438 net.cpp:105] Setting up inception_3b/output
I0511 03:05:00.916621 19438 net.cpp:112] Top shape: 32 480 28 28 (12042240)
I0511 03:05:00.916632 19438 layer_factory.hpp:74] Creating layer pool3/3x3_s2
I0511 03:05:00.916646 19438 net.cpp:76] Creating Layer pool3/3x3_s2
I0511 03:05:00.916656 19438 net.cpp:372] pool3/3x3_s2 <- inception_3b/output
I0511 03:05:00.916669 19438 net.cpp:334] pool3/3x3_s2 -> pool3/3x3_s2
I0511 03:05:00.916687 19438 net.cpp:105] Setting up pool3/3x3_s2
I0511 03:05:00.916694 19438 net.cpp:112] Top shape: 32 480 14 14 (3010560)
I0511 03:05:00.916700 19438 layer_factory.hpp:74] Creating layer pool3/3x3_s2_pool3/3x3_s2_0_split
I0511 03:05:00.916710 19438 net.cpp:76] Creating Layer pool3/3x3_s2_pool3/3x3_s2_0_split
I0511 03:05:00.916717 19438 net.cpp:372] pool3/3x3_s2_pool3/3x3_s2_0_split <- pool3/3x3_s2
I0511 03:05:00.916724 19438 net.cpp:334] pool3/3x3_s2_pool3/3x3_s2_0_split -> pool3/3x3_s2_pool3/3x3_s2_0_split_0
I0511 03:05:00.916735 19438 net.cpp:334] pool3/3x3_s2_pool3/3x3_s2_0_split -> pool3/3x3_s2_pool3/3x3_s2_0_split_1
I0511 03:05:00.916750 19438 net.cpp:334] pool3/3x3_s2_pool3/3x3_s2_0_split -> pool3/3x3_s2_pool3/3x3_s2_0_split_2
I0511 03:05:00.916760 19438 net.cpp:334] pool3/3x3_s2_pool3/3x3_s2_0_split -> pool3/3x3_s2_pool3/3x3_s2_0_split_3
I0511 03:05:00.916767 19438 net.cpp:105] Setting up pool3/3x3_s2_pool3/3x3_s2_0_split
I0511 03:05:00.916774 19438 net.cpp:112] Top shape: 32 480 14 14 (3010560)
I0511 03:05:00.916779 19438 net.cpp:112] Top shape: 32 480 14 14 (3010560)
I0511 03:05:00.916785 19438 net.cpp:112] Top shape: 32 480 14 14 (3010560)
I0511 03:05:00.916790 19438 net.cpp:112] Top shape: 32 480 14 14 (3010560)
I0511 03:05:00.916795 19438 layer_factory.hpp:74] Creating layer inception_4a/1x1
I0511 03:05:00.916806 19438 net.cpp:76] Creating Layer inception_4a/1x1
I0511 03:05:00.916812 19438 net.cpp:372] inception_4a/1x1 <- pool3/3x3_s2_pool3/3x3_s2_0_split_0
I0511 03:05:00.916822 19438 net.cpp:334] inception_4a/1x1 -> inception_4a/1x1
I0511 03:05:00.916831 19438 net.cpp:105] Setting up inception_4a/1x1
I0511 03:05:00.917637 19438 net.cpp:112] Top shape: 32 192 14 14 (1204224)
I0511 03:05:00.917654 19438 layer_factory.hpp:74] Creating layer inception_4a/relu_1x1
I0511 03:05:00.917661 19438 net.cpp:76] Creating Layer inception_4a/relu_1x1
I0511 03:05:00.917688 19438 net.cpp:372] inception_4a/relu_1x1 <- inception_4a/1x1
I0511 03:05:00.917701 19438 net.cpp:323] inception_4a/relu_1x1 -> inception_4a/1x1 (in-place)
I0511 03:05:00.917708 19438 net.cpp:105] Setting up inception_4a/relu_1x1
I0511 03:05:00.917714 19438 net.cpp:112] Top shape: 32 192 14 14 (1204224)
I0511 03:05:00.917719 19438 layer_factory.hpp:74] Creating layer inception_4a/3x3_reduce
I0511 03:05:00.917728 19438 net.cpp:76] Creating Layer inception_4a/3x3_reduce
I0511 03:05:00.917734 19438 net.cpp:372] inception_4a/3x3_reduce <- pool3/3x3_s2_pool3/3x3_s2_0_split_1
I0511 03:05:00.917742 19438 net.cpp:334] inception_4a/3x3_reduce -> inception_4a/3x3_reduce
I0511 03:05:00.917750 19438 net.cpp:105] Setting up inception_4a/3x3_reduce
I0511 03:05:00.918207 19438 net.cpp:112] Top shape: 32 96 14 14 (602112)
I0511 03:05:00.918231 19438 layer_factory.hpp:74] Creating layer inception_4a/relu_3x3_reduce
I0511 03:05:00.918239 19438 net.cpp:76] Creating Layer inception_4a/relu_3x3_reduce
I0511 03:05:00.918246 19438 net.cpp:372] inception_4a/relu_3x3_reduce <- inception_4a/3x3_reduce
I0511 03:05:00.918256 19438 net.cpp:323] inception_4a/relu_3x3_reduce -> inception_4a/3x3_reduce (in-place)
I0511 03:05:00.918263 19438 net.cpp:105] Setting up inception_4a/relu_3x3_reduce
I0511 03:05:00.918269 19438 net.cpp:112] Top shape: 32 96 14 14 (602112)
I0511 03:05:00.918288 19438 layer_factory.hpp:74] Creating layer inception_4a/3x3
I0511 03:05:00.918298 19438 net.cpp:76] Creating Layer inception_4a/3x3
I0511 03:05:00.918303 19438 net.cpp:372] inception_4a/3x3 <- inception_4a/3x3_reduce
I0511 03:05:00.918329 19438 net.cpp:334] inception_4a/3x3 -> inception_4a/3x3
I0511 03:05:00.918340 19438 net.cpp:105] Setting up inception_4a/3x3
I0511 03:05:00.919885 19438 net.cpp:112] Top shape: 32 208 14 14 (1304576)
I0511 03:05:00.919910 19438 layer_factory.hpp:74] Creating layer inception_4a/relu_3x3
I0511 03:05:00.919920 19438 net.cpp:76] Creating Layer inception_4a/relu_3x3
I0511 03:05:00.919926 19438 net.cpp:372] inception_4a/relu_3x3 <- inception_4a/3x3
I0511 03:05:00.919934 19438 net.cpp:323] inception_4a/relu_3x3 -> inception_4a/3x3 (in-place)
I0511 03:05:00.919942 19438 net.cpp:105] Setting up inception_4a/relu_3x3
I0511 03:05:00.919947 19438 net.cpp:112] Top shape: 32 208 14 14 (1304576)
I0511 03:05:00.919953 19438 layer_factory.hpp:74] Creating layer inception_4a/5x5_reduce
I0511 03:05:00.919965 19438 net.cpp:76] Creating Layer inception_4a/5x5_reduce
I0511 03:05:00.919971 19438 net.cpp:372] inception_4a/5x5_reduce <- pool3/3x3_s2_pool3/3x3_s2_0_split_2
I0511 03:05:00.919980 19438 net.cpp:334] inception_4a/5x5_reduce -> inception_4a/5x5_reduce
I0511 03:05:00.919991 19438 net.cpp:105] Setting up inception_4a/5x5_reduce
I0511 03:05:00.920073 19438 net.cpp:112] Top shape: 32 16 14 14 (100352)
I0511 03:05:00.920084 19438 layer_factory.hpp:74] Creating layer inception_4a/relu_5x5_reduce
I0511 03:05:00.920091 19438 net.cpp:76] Creating Layer inception_4a/relu_5x5_reduce
I0511 03:05:00.920100 19438 net.cpp:372] inception_4a/relu_5x5_reduce <- inception_4a/5x5_reduce
I0511 03:05:00.920107 19438 net.cpp:323] inception_4a/relu_5x5_reduce -> inception_4a/5x5_reduce (in-place)
I0511 03:05:00.920114 19438 net.cpp:105] Setting up inception_4a/relu_5x5_reduce
I0511 03:05:00.920120 19438 net.cpp:112] Top shape: 32 16 14 14 (100352)
I0511 03:05:00.920125 19438 layer_factory.hpp:74] Creating layer inception_4a/5x5
I0511 03:05:00.920133 19438 net.cpp:76] Creating Layer inception_4a/5x5
I0511 03:05:00.920140 19438 net.cpp:372] inception_4a/5x5 <- inception_4a/5x5_reduce
I0511 03:05:00.920150 19438 net.cpp:334] inception_4a/5x5 -> inception_4a/5x5
I0511 03:05:00.920157 19438 net.cpp:105] Setting up inception_4a/5x5
I0511 03:05:00.920359 19438 net.cpp:112] Top shape: 32 48 14 14 (301056)
I0511 03:05:00.920372 19438 layer_factory.hpp:74] Creating layer inception_4a/relu_5x5
I0511 03:05:00.920380 19438 net.cpp:76] Creating Layer inception_4a/relu_5x5
I0511 03:05:00.920385 19438 net.cpp:372] inception_4a/relu_5x5 <- inception_4a/5x5
I0511 03:05:00.920394 19438 net.cpp:323] inception_4a/relu_5x5 -> inception_4a/5x5 (in-place)
I0511 03:05:00.920403 19438 net.cpp:105] Setting up inception_4a/relu_5x5
I0511 03:05:00.920408 19438 net.cpp:112] Top shape: 32 48 14 14 (301056)
I0511 03:05:00.920413 19438 layer_factory.hpp:74] Creating layer inception_4a/pool
I0511 03:05:00.920421 19438 net.cpp:76] Creating Layer inception_4a/pool
I0511 03:05:00.920428 19438 net.cpp:372] inception_4a/pool <- pool3/3x3_s2_pool3/3x3_s2_0_split_3
I0511 03:05:00.920434 19438 net.cpp:334] inception_4a/pool -> inception_4a/pool
I0511 03:05:00.920442 19438 net.cpp:105] Setting up inception_4a/pool
I0511 03:05:00.920450 19438 net.cpp:112] Top shape: 32 480 14 14 (3010560)
I0511 03:05:00.920456 19438 layer_factory.hpp:74] Creating layer inception_4a/pool_proj
I0511 03:05:00.920467 19438 net.cpp:76] Creating Layer inception_4a/pool_proj
I0511 03:05:00.920472 19438 net.cpp:372] inception_4a/pool_proj <- inception_4a/pool
I0511 03:05:00.920482 19438 net.cpp:334] inception_4a/pool_proj -> inception_4a/pool_proj
I0511 03:05:00.920490 19438 net.cpp:105] Setting up inception_4a/pool_proj
I0511 03:05:00.920754 19438 net.cpp:112] Top shape: 32 64 14 14 (401408)
I0511 03:05:00.920774 19438 layer_factory.hpp:74] Creating layer inception_4a/relu_pool_proj
I0511 03:05:00.920786 19438 net.cpp:76] Creating Layer inception_4a/relu_pool_proj
I0511 03:05:00.920794 19438 net.cpp:372] inception_4a/relu_pool_proj <- inception_4a/pool_proj
I0511 03:05:00.920800 19438 net.cpp:323] inception_4a/relu_pool_proj -> inception_4a/pool_proj (in-place)
I0511 03:05:00.920828 19438 net.cpp:105] Setting up inception_4a/relu_pool_proj
I0511 03:05:00.920835 19438 net.cpp:112] Top shape: 32 64 14 14 (401408)
I0511 03:05:00.920841 19438 layer_factory.hpp:74] Creating layer inception_4a/output
I0511 03:05:00.920850 19438 net.cpp:76] Creating Layer inception_4a/output
I0511 03:05:00.920855 19438 net.cpp:372] inception_4a/output <- inception_4a/1x1
I0511 03:05:00.920861 19438 net.cpp:372] inception_4a/output <- inception_4a/3x3
I0511 03:05:00.920867 19438 net.cpp:372] inception_4a/output <- inception_4a/5x5
I0511 03:05:00.920873 19438 net.cpp:372] inception_4a/output <- inception_4a/pool_proj
I0511 03:05:00.920882 19438 net.cpp:334] inception_4a/output -> inception_4a/output
I0511 03:05:00.920892 19438 net.cpp:105] Setting up inception_4a/output
I0511 03:05:00.920897 19438 net.cpp:112] Top shape: 32 512 14 14 (3211264)
I0511 03:05:00.920903 19438 layer_factory.hpp:74] Creating layer inception_4a/output_inception_4a/output_0_split
I0511 03:05:00.920910 19438 net.cpp:76] Creating Layer inception_4a/output_inception_4a/output_0_split
I0511 03:05:00.920917 19438 net.cpp:372] inception_4a/output_inception_4a/output_0_split <- inception_4a/output
I0511 03:05:00.920924 19438 net.cpp:334] inception_4a/output_inception_4a/output_0_split -> inception_4a/output_inception_4a/output_0_split_0
I0511 03:05:00.920933 19438 net.cpp:334] inception_4a/output_inception_4a/output_0_split -> inception_4a/output_inception_4a/output_0_split_1
I0511 03:05:00.920943 19438 net.cpp:334] inception_4a/output_inception_4a/output_0_split -> inception_4a/output_inception_4a/output_0_split_2
I0511 03:05:00.920958 19438 net.cpp:334] inception_4a/output_inception_4a/output_0_split -> inception_4a/output_inception_4a/output_0_split_3
I0511 03:05:00.920969 19438 net.cpp:334] inception_4a/output_inception_4a/output_0_split -> inception_4a/output_inception_4a/output_0_split_4
I0511 03:05:00.920977 19438 net.cpp:105] Setting up inception_4a/output_inception_4a/output_0_split
I0511 03:05:00.920984 19438 net.cpp:112] Top shape: 32 512 14 14 (3211264)
I0511 03:05:00.920989 19438 net.cpp:112] Top shape: 32 512 14 14 (3211264)
I0511 03:05:00.920994 19438 net.cpp:112] Top shape: 32 512 14 14 (3211264)
I0511 03:05:00.921000 19438 net.cpp:112] Top shape: 32 512 14 14 (3211264)
I0511 03:05:00.921005 19438 net.cpp:112] Top shape: 32 512 14 14 (3211264)
I0511 03:05:00.921010 19438 layer_factory.hpp:74] Creating layer loss1/ave_pool
I0511 03:05:00.921016 19438 net.cpp:76] Creating Layer loss1/ave_pool
I0511 03:05:00.921021 19438 net.cpp:372] loss1/ave_pool <- inception_4a/output_inception_4a/output_0_split_0
I0511 03:05:00.921031 19438 net.cpp:334] loss1/ave_pool -> loss1/ave_pool
I0511 03:05:00.921039 19438 net.cpp:105] Setting up loss1/ave_pool
I0511 03:05:00.921064 19438 net.cpp:112] Top shape: 32 512 4 4 (262144)
I0511 03:05:00.921072 19438 layer_factory.hpp:74] Creating layer loss1/conv
I0511 03:05:00.921082 19438 net.cpp:76] Creating Layer loss1/conv
I0511 03:05:00.921087 19438 net.cpp:372] loss1/conv <- loss1/ave_pool
I0511 03:05:00.921097 19438 net.cpp:334] loss1/conv -> loss1/conv
I0511 03:05:00.921107 19438 net.cpp:105] Setting up loss1/conv
I0511 03:05:00.921677 19438 net.cpp:112] Top shape: 32 128 4 4 (65536)
I0511 03:05:00.921695 19438 layer_factory.hpp:74] Creating layer loss1/relu_conv
I0511 03:05:00.921704 19438 net.cpp:76] Creating Layer loss1/relu_conv
I0511 03:05:00.921710 19438 net.cpp:372] loss1/relu_conv <- loss1/conv
I0511 03:05:00.921717 19438 net.cpp:323] loss1/relu_conv -> loss1/conv (in-place)
I0511 03:05:00.921725 19438 net.cpp:105] Setting up loss1/relu_conv
I0511 03:05:00.921730 19438 net.cpp:112] Top shape: 32 128 4 4 (65536)
I0511 03:05:00.921736 19438 layer_factory.hpp:74] Creating layer loss1/fc
I0511 03:05:00.921748 19438 net.cpp:76] Creating Layer loss1/fc
I0511 03:05:00.921754 19438 net.cpp:372] loss1/fc <- loss1/conv
I0511 03:05:00.921763 19438 net.cpp:334] loss1/fc -> loss1/fc
I0511 03:05:00.921777 19438 net.cpp:105] Setting up loss1/fc
I0511 03:05:00.940070 19438 net.cpp:112] Top shape: 32 1024 1 1 (32768)
I0511 03:05:00.940150 19438 layer_factory.hpp:74] Creating layer loss1/relu_fc
I0511 03:05:00.940167 19438 net.cpp:76] Creating Layer loss1/relu_fc
I0511 03:05:00.940177 19438 net.cpp:372] loss1/relu_fc <- loss1/fc
I0511 03:05:00.940187 19438 net.cpp:323] loss1/relu_fc -> loss1/fc (in-place)
I0511 03:05:00.940197 19438 net.cpp:105] Setting up loss1/relu_fc
I0511 03:05:00.940204 19438 net.cpp:112] Top shape: 32 1024 1 1 (32768)
I0511 03:05:00.940209 19438 layer_factory.hpp:74] Creating layer loss1/drop_fc
I0511 03:05:00.940232 19438 net.cpp:76] Creating Layer loss1/drop_fc
I0511 03:05:00.940240 19438 net.cpp:372] loss1/drop_fc <- loss1/fc
I0511 03:05:00.940249 19438 net.cpp:323] loss1/drop_fc -> loss1/fc (in-place)
I0511 03:05:00.940260 19438 net.cpp:105] Setting up loss1/drop_fc
I0511 03:05:00.940299 19438 net.cpp:112] Top shape: 32 1024 1 1 (32768)
I0511 03:05:00.940310 19438 layer_factory.hpp:74] Creating layer loss1/classifier
I0511 03:05:00.940325 19438 net.cpp:76] Creating Layer loss1/classifier
I0511 03:05:00.940331 19438 net.cpp:372] loss1/classifier <- loss1/fc
I0511 03:05:00.940340 19438 net.cpp:334] loss1/classifier -> loss1/classifier
I0511 03:05:00.940351 19438 net.cpp:105] Setting up loss1/classifier
I0511 03:05:00.940387 19438 net.cpp:112] Top shape: 32 2 1 1 (64)
I0511 03:05:00.940397 19438 layer_factory.hpp:74] Creating layer loss1/loss
I0511 03:05:00.940412 19438 net.cpp:76] Creating Layer loss1/loss
I0511 03:05:00.940418 19438 net.cpp:372] loss1/loss <- loss1/classifier
I0511 03:05:00.940424 19438 net.cpp:372] loss1/loss <- label_data_1_split_0
I0511 03:05:00.940433 19438 net.cpp:334] loss1/loss -> loss1/loss1
I0511 03:05:00.940443 19438 net.cpp:105] Setting up loss1/loss
I0511 03:05:00.940454 19438 layer_factory.hpp:74] Creating layer loss1/loss
I0511 03:05:00.940474 19438 net.cpp:112] Top shape: 1 1 1 1 (1)
I0511 03:05:00.940480 19438 net.cpp:118]     with loss weight 0.3
I0511 03:05:00.940515 19438 layer_factory.hpp:74] Creating layer inception_4b/1x1
I0511 03:05:00.940529 19438 net.cpp:76] Creating Layer inception_4b/1x1
I0511 03:05:00.940536 19438 net.cpp:372] inception_4b/1x1 <- inception_4a/output_inception_4a/output_0_split_1
I0511 03:05:00.940546 19438 net.cpp:334] inception_4b/1x1 -> inception_4b/1x1
I0511 03:05:00.940554 19438 net.cpp:105] Setting up inception_4b/1x1
I0511 03:05:00.941282 19438 net.cpp:112] Top shape: 32 160 14 14 (1003520)
I0511 03:05:00.941298 19438 layer_factory.hpp:74] Creating layer inception_4b/relu_1x1
I0511 03:05:00.941310 19438 net.cpp:76] Creating Layer inception_4b/relu_1x1
I0511 03:05:00.941316 19438 net.cpp:372] inception_4b/relu_1x1 <- inception_4b/1x1
I0511 03:05:00.941324 19438 net.cpp:323] inception_4b/relu_1x1 -> inception_4b/1x1 (in-place)
I0511 03:05:00.941332 19438 net.cpp:105] Setting up inception_4b/relu_1x1
I0511 03:05:00.941337 19438 net.cpp:112] Top shape: 32 160 14 14 (1003520)
I0511 03:05:00.941344 19438 layer_factory.hpp:74] Creating layer inception_4b/3x3_reduce
I0511 03:05:00.941354 19438 net.cpp:76] Creating Layer inception_4b/3x3_reduce
I0511 03:05:00.941359 19438 net.cpp:372] inception_4b/3x3_reduce <- inception_4a/output_inception_4a/output_0_split_2
I0511 03:05:00.941368 19438 net.cpp:334] inception_4b/3x3_reduce -> inception_4b/3x3_reduce
I0511 03:05:00.941377 19438 net.cpp:105] Setting up inception_4b/3x3_reduce
I0511 03:05:00.941870 19438 net.cpp:112] Top shape: 32 112 14 14 (702464)
I0511 03:05:00.941884 19438 layer_factory.hpp:74] Creating layer inception_4b/relu_3x3_reduce
I0511 03:05:00.941892 19438 net.cpp:76] Creating Layer inception_4b/relu_3x3_reduce
I0511 03:05:00.941898 19438 net.cpp:372] inception_4b/relu_3x3_reduce <- inception_4b/3x3_reduce
I0511 03:05:00.941908 19438 net.cpp:323] inception_4b/relu_3x3_reduce -> inception_4b/3x3_reduce (in-place)
I0511 03:05:00.941916 19438 net.cpp:105] Setting up inception_4b/relu_3x3_reduce
I0511 03:05:00.941921 19438 net.cpp:112] Top shape: 32 112 14 14 (702464)
I0511 03:05:00.941926 19438 layer_factory.hpp:74] Creating layer inception_4b/3x3
I0511 03:05:00.941937 19438 net.cpp:76] Creating Layer inception_4b/3x3
I0511 03:05:00.941957 19438 net.cpp:372] inception_4b/3x3 <- inception_4b/3x3_reduce
I0511 03:05:00.941969 19438 net.cpp:334] inception_4b/3x3 -> inception_4b/3x3
I0511 03:05:00.941979 19438 net.cpp:105] Setting up inception_4b/3x3
I0511 03:05:00.943881 19438 net.cpp:112] Top shape: 32 224 14 14 (1404928)
I0511 03:05:00.943897 19438 layer_factory.hpp:74] Creating layer inception_4b/relu_3x3
I0511 03:05:00.943907 19438 net.cpp:76] Creating Layer inception_4b/relu_3x3
I0511 03:05:00.943912 19438 net.cpp:372] inception_4b/relu_3x3 <- inception_4b/3x3
I0511 03:05:00.943920 19438 net.cpp:323] inception_4b/relu_3x3 -> inception_4b/3x3 (in-place)
I0511 03:05:00.943931 19438 net.cpp:105] Setting up inception_4b/relu_3x3
I0511 03:05:00.943936 19438 net.cpp:112] Top shape: 32 224 14 14 (1404928)
I0511 03:05:00.943943 19438 layer_factory.hpp:74] Creating layer inception_4b/5x5_reduce
I0511 03:05:00.943951 19438 net.cpp:76] Creating Layer inception_4b/5x5_reduce
I0511 03:05:00.943956 19438 net.cpp:372] inception_4b/5x5_reduce <- inception_4a/output_inception_4a/output_0_split_3
I0511 03:05:00.943965 19438 net.cpp:334] inception_4b/5x5_reduce -> inception_4b/5x5_reduce
I0511 03:05:00.943974 19438 net.cpp:105] Setting up inception_4b/5x5_reduce
I0511 03:05:00.944090 19438 net.cpp:112] Top shape: 32 24 14 14 (150528)
I0511 03:05:00.944102 19438 layer_factory.hpp:74] Creating layer inception_4b/relu_5x5_reduce
I0511 03:05:00.944111 19438 net.cpp:76] Creating Layer inception_4b/relu_5x5_reduce
I0511 03:05:00.944118 19438 net.cpp:372] inception_4b/relu_5x5_reduce <- inception_4b/5x5_reduce
I0511 03:05:00.944124 19438 net.cpp:323] inception_4b/relu_5x5_reduce -> inception_4b/5x5_reduce (in-place)
I0511 03:05:00.944133 19438 net.cpp:105] Setting up inception_4b/relu_5x5_reduce
I0511 03:05:00.944138 19438 net.cpp:112] Top shape: 32 24 14 14 (150528)
I0511 03:05:00.944144 19438 layer_factory.hpp:74] Creating layer inception_4b/5x5
I0511 03:05:00.944150 19438 net.cpp:76] Creating Layer inception_4b/5x5
I0511 03:05:00.944156 19438 net.cpp:372] inception_4b/5x5 <- inception_4b/5x5_reduce
I0511 03:05:00.944166 19438 net.cpp:334] inception_4b/5x5 -> inception_4b/5x5
I0511 03:05:00.944175 19438 net.cpp:105] Setting up inception_4b/5x5
I0511 03:05:00.944526 19438 net.cpp:112] Top shape: 32 64 14 14 (401408)
I0511 03:05:00.944540 19438 layer_factory.hpp:74] Creating layer inception_4b/relu_5x5
I0511 03:05:00.944547 19438 net.cpp:76] Creating Layer inception_4b/relu_5x5
I0511 03:05:00.944553 19438 net.cpp:372] inception_4b/relu_5x5 <- inception_4b/5x5
I0511 03:05:00.944561 19438 net.cpp:323] inception_4b/relu_5x5 -> inception_4b/5x5 (in-place)
I0511 03:05:00.944568 19438 net.cpp:105] Setting up inception_4b/relu_5x5
I0511 03:05:00.944573 19438 net.cpp:112] Top shape: 32 64 14 14 (401408)
I0511 03:05:00.944579 19438 layer_factory.hpp:74] Creating layer inception_4b/pool
I0511 03:05:00.944589 19438 net.cpp:76] Creating Layer inception_4b/pool
I0511 03:05:00.944596 19438 net.cpp:372] inception_4b/pool <- inception_4a/output_inception_4a/output_0_split_4
I0511 03:05:00.944603 19438 net.cpp:334] inception_4b/pool -> inception_4b/pool
I0511 03:05:00.944622 19438 net.cpp:105] Setting up inception_4b/pool
I0511 03:05:00.944633 19438 net.cpp:112] Top shape: 32 512 14 14 (3211264)
I0511 03:05:00.944639 19438 layer_factory.hpp:74] Creating layer inception_4b/pool_proj
I0511 03:05:00.944671 19438 net.cpp:76] Creating Layer inception_4b/pool_proj
I0511 03:05:00.944679 19438 net.cpp:372] inception_4b/pool_proj <- inception_4b/pool
I0511 03:05:00.944687 19438 net.cpp:334] inception_4b/pool_proj -> inception_4b/pool_proj
I0511 03:05:00.944696 19438 net.cpp:105] Setting up inception_4b/pool_proj
I0511 03:05:00.944983 19438 net.cpp:112] Top shape: 32 64 14 14 (401408)
I0511 03:05:00.944996 19438 layer_factory.hpp:74] Creating layer inception_4b/relu_pool_proj
I0511 03:05:00.945003 19438 net.cpp:76] Creating Layer inception_4b/relu_pool_proj
I0511 03:05:00.945009 19438 net.cpp:372] inception_4b/relu_pool_proj <- inception_4b/pool_proj
I0511 03:05:00.945036 19438 net.cpp:323] inception_4b/relu_pool_proj -> inception_4b/pool_proj (in-place)
I0511 03:05:00.945046 19438 net.cpp:105] Setting up inception_4b/relu_pool_proj
I0511 03:05:00.945051 19438 net.cpp:112] Top shape: 32 64 14 14 (401408)
I0511 03:05:00.945057 19438 layer_factory.hpp:74] Creating layer inception_4b/output
I0511 03:05:00.945065 19438 net.cpp:76] Creating Layer inception_4b/output
I0511 03:05:00.945070 19438 net.cpp:372] inception_4b/output <- inception_4b/1x1
I0511 03:05:00.945076 19438 net.cpp:372] inception_4b/output <- inception_4b/3x3
I0511 03:05:00.945082 19438 net.cpp:372] inception_4b/output <- inception_4b/5x5
I0511 03:05:00.945087 19438 net.cpp:372] inception_4b/output <- inception_4b/pool_proj
I0511 03:05:00.945097 19438 net.cpp:334] inception_4b/output -> inception_4b/output
I0511 03:05:00.945106 19438 net.cpp:105] Setting up inception_4b/output
I0511 03:05:00.945112 19438 net.cpp:112] Top shape: 32 512 14 14 (3211264)
I0511 03:05:00.945117 19438 layer_factory.hpp:74] Creating layer inception_4b/output_inception_4b/output_0_split
I0511 03:05:00.945125 19438 net.cpp:76] Creating Layer inception_4b/output_inception_4b/output_0_split
I0511 03:05:00.945130 19438 net.cpp:372] inception_4b/output_inception_4b/output_0_split <- inception_4b/output
I0511 03:05:00.945140 19438 net.cpp:334] inception_4b/output_inception_4b/output_0_split -> inception_4b/output_inception_4b/output_0_split_0
I0511 03:05:00.945150 19438 net.cpp:334] inception_4b/output_inception_4b/output_0_split -> inception_4b/output_inception_4b/output_0_split_1
I0511 03:05:00.945159 19438 net.cpp:334] inception_4b/output_inception_4b/output_0_split -> inception_4b/output_inception_4b/output_0_split_2
I0511 03:05:00.945168 19438 net.cpp:334] inception_4b/output_inception_4b/output_0_split -> inception_4b/output_inception_4b/output_0_split_3
I0511 03:05:00.945175 19438 net.cpp:105] Setting up inception_4b/output_inception_4b/output_0_split
I0511 03:05:00.945183 19438 net.cpp:112] Top shape: 32 512 14 14 (3211264)
I0511 03:05:00.945188 19438 net.cpp:112] Top shape: 32 512 14 14 (3211264)
I0511 03:05:00.945193 19438 net.cpp:112] Top shape: 32 512 14 14 (3211264)
I0511 03:05:00.945197 19438 net.cpp:112] Top shape: 32 512 14 14 (3211264)
I0511 03:05:00.945202 19438 layer_factory.hpp:74] Creating layer inception_4c/1x1
I0511 03:05:00.945212 19438 net.cpp:76] Creating Layer inception_4c/1x1
I0511 03:05:00.945219 19438 net.cpp:372] inception_4c/1x1 <- inception_4b/output_inception_4b/output_0_split_0
I0511 03:05:00.945947 19438 net.cpp:334] inception_4c/1x1 -> inception_4c/1x1
I0511 03:05:00.945967 19438 net.cpp:105] Setting up inception_4c/1x1
I0511 03:05:00.946792 19438 net.cpp:112] Top shape: 32 128 14 14 (802816)
I0511 03:05:00.946816 19438 layer_factory.hpp:74] Creating layer inception_4c/relu_1x1
I0511 03:05:00.946830 19438 net.cpp:76] Creating Layer inception_4c/relu_1x1
I0511 03:05:00.946841 19438 net.cpp:372] inception_4c/relu_1x1 <- inception_4c/1x1
I0511 03:05:00.946852 19438 net.cpp:323] inception_4c/relu_1x1 -> inception_4c/1x1 (in-place)
I0511 03:05:00.946866 19438 net.cpp:105] Setting up inception_4c/relu_1x1
I0511 03:05:00.946874 19438 net.cpp:112] Top shape: 32 128 14 14 (802816)
I0511 03:05:00.946884 19438 layer_factory.hpp:74] Creating layer inception_4c/3x3_reduce
I0511 03:05:00.946897 19438 net.cpp:76] Creating Layer inception_4c/3x3_reduce
I0511 03:05:00.946907 19438 net.cpp:372] inception_4c/3x3_reduce <- inception_4b/output_inception_4b/output_0_split_1
I0511 03:05:00.946923 19438 net.cpp:334] inception_4c/3x3_reduce -> inception_4c/3x3_reduce
I0511 03:05:00.946938 19438 net.cpp:105] Setting up inception_4c/3x3_reduce
I0511 03:05:00.947541 19438 net.cpp:112] Top shape: 32 128 14 14 (802816)
I0511 03:05:00.947559 19438 layer_factory.hpp:74] Creating layer inception_4c/relu_3x3_reduce
I0511 03:05:00.947567 19438 net.cpp:76] Creating Layer inception_4c/relu_3x3_reduce
I0511 03:05:00.947574 19438 net.cpp:372] inception_4c/relu_3x3_reduce <- inception_4c/3x3_reduce
I0511 03:05:00.947583 19438 net.cpp:323] inception_4c/relu_3x3_reduce -> inception_4c/3x3_reduce (in-place)
I0511 03:05:00.947607 19438 net.cpp:105] Setting up inception_4c/relu_3x3_reduce
I0511 03:05:00.947614 19438 net.cpp:112] Top shape: 32 128 14 14 (802816)
I0511 03:05:00.947620 19438 layer_factory.hpp:74] Creating layer inception_4c/3x3
I0511 03:05:00.947629 19438 net.cpp:76] Creating Layer inception_4c/3x3
I0511 03:05:00.947635 19438 net.cpp:372] inception_4c/3x3 <- inception_4c/3x3_reduce
I0511 03:05:00.947645 19438 net.cpp:334] inception_4c/3x3 -> inception_4c/3x3
I0511 03:05:00.947654 19438 net.cpp:105] Setting up inception_4c/3x3
I0511 03:05:00.950119 19438 net.cpp:112] Top shape: 32 256 14 14 (1605632)
I0511 03:05:00.950150 19438 layer_factory.hpp:74] Creating layer inception_4c/relu_3x3
I0511 03:05:00.950160 19438 net.cpp:76] Creating Layer inception_4c/relu_3x3
I0511 03:05:00.950166 19438 net.cpp:372] inception_4c/relu_3x3 <- inception_4c/3x3
I0511 03:05:00.950176 19438 net.cpp:323] inception_4c/relu_3x3 -> inception_4c/3x3 (in-place)
I0511 03:05:00.950186 19438 net.cpp:105] Setting up inception_4c/relu_3x3
I0511 03:05:00.950191 19438 net.cpp:112] Top shape: 32 256 14 14 (1605632)
I0511 03:05:00.950196 19438 layer_factory.hpp:74] Creating layer inception_4c/5x5_reduce
I0511 03:05:00.950204 19438 net.cpp:76] Creating Layer inception_4c/5x5_reduce
I0511 03:05:00.950211 19438 net.cpp:372] inception_4c/5x5_reduce <- inception_4b/output_inception_4b/output_0_split_2
I0511 03:05:00.950220 19438 net.cpp:334] inception_4c/5x5_reduce -> inception_4c/5x5_reduce
I0511 03:05:00.950229 19438 net.cpp:105] Setting up inception_4c/5x5_reduce
I0511 03:05:00.950355 19438 net.cpp:112] Top shape: 32 24 14 14 (150528)
I0511 03:05:00.950366 19438 layer_factory.hpp:74] Creating layer inception_4c/relu_5x5_reduce
I0511 03:05:00.950376 19438 net.cpp:76] Creating Layer inception_4c/relu_5x5_reduce
I0511 03:05:00.950382 19438 net.cpp:372] inception_4c/relu_5x5_reduce <- inception_4c/5x5_reduce
I0511 03:05:00.950391 19438 net.cpp:323] inception_4c/relu_5x5_reduce -> inception_4c/5x5_reduce (in-place)
I0511 03:05:00.950397 19438 net.cpp:105] Setting up inception_4c/relu_5x5_reduce
I0511 03:05:00.950403 19438 net.cpp:112] Top shape: 32 24 14 14 (150528)
I0511 03:05:00.950408 19438 layer_factory.hpp:74] Creating layer inception_4c/5x5
I0511 03:05:00.950418 19438 net.cpp:76] Creating Layer inception_4c/5x5
I0511 03:05:00.950424 19438 net.cpp:372] inception_4c/5x5 <- inception_4c/5x5_reduce
I0511 03:05:00.950433 19438 net.cpp:334] inception_4c/5x5 -> inception_4c/5x5
I0511 03:05:00.950440 19438 net.cpp:105] Setting up inception_4c/5x5
I0511 03:05:00.950780 19438 net.cpp:112] Top shape: 32 64 14 14 (401408)
I0511 03:05:00.950793 19438 layer_factory.hpp:74] Creating layer inception_4c/relu_5x5
I0511 03:05:00.950800 19438 net.cpp:76] Creating Layer inception_4c/relu_5x5
I0511 03:05:00.950806 19438 net.cpp:372] inception_4c/relu_5x5 <- inception_4c/5x5
I0511 03:05:00.950814 19438 net.cpp:323] inception_4c/relu_5x5 -> inception_4c/5x5 (in-place)
I0511 03:05:00.950821 19438 net.cpp:105] Setting up inception_4c/relu_5x5
I0511 03:05:00.950826 19438 net.cpp:112] Top shape: 32 64 14 14 (401408)
I0511 03:05:00.950831 19438 layer_factory.hpp:74] Creating layer inception_4c/pool
I0511 03:05:00.950842 19438 net.cpp:76] Creating Layer inception_4c/pool
I0511 03:05:00.950848 19438 net.cpp:372] inception_4c/pool <- inception_4b/output_inception_4b/output_0_split_3
I0511 03:05:00.950855 19438 net.cpp:334] inception_4c/pool -> inception_4c/pool
I0511 03:05:00.950865 19438 net.cpp:105] Setting up inception_4c/pool
I0511 03:05:00.950871 19438 net.cpp:112] Top shape: 32 512 14 14 (3211264)
I0511 03:05:00.950877 19438 layer_factory.hpp:74] Creating layer inception_4c/pool_proj
I0511 03:05:00.950887 19438 net.cpp:76] Creating Layer inception_4c/pool_proj
I0511 03:05:00.950893 19438 net.cpp:372] inception_4c/pool_proj <- inception_4c/pool
I0511 03:05:00.950901 19438 net.cpp:334] inception_4c/pool_proj -> inception_4c/pool_proj
I0511 03:05:00.950911 19438 net.cpp:105] Setting up inception_4c/pool_proj
I0511 03:05:00.951210 19438 net.cpp:112] Top shape: 32 64 14 14 (401408)
I0511 03:05:00.951225 19438 layer_factory.hpp:74] Creating layer inception_4c/relu_pool_proj
I0511 03:05:00.951232 19438 net.cpp:76] Creating Layer inception_4c/relu_pool_proj
I0511 03:05:00.951241 19438 net.cpp:372] inception_4c/relu_pool_proj <- inception_4c/pool_proj
I0511 03:05:00.951247 19438 net.cpp:323] inception_4c/relu_pool_proj -> inception_4c/pool_proj (in-place)
I0511 03:05:00.951254 19438 net.cpp:105] Setting up inception_4c/relu_pool_proj
I0511 03:05:00.951261 19438 net.cpp:112] Top shape: 32 64 14 14 (401408)
I0511 03:05:00.951266 19438 layer_factory.hpp:74] Creating layer inception_4c/output
I0511 03:05:00.951285 19438 net.cpp:76] Creating Layer inception_4c/output
I0511 03:05:00.951292 19438 net.cpp:372] inception_4c/output <- inception_4c/1x1
I0511 03:05:00.951298 19438 net.cpp:372] inception_4c/output <- inception_4c/3x3
I0511 03:05:00.951305 19438 net.cpp:372] inception_4c/output <- inception_4c/5x5
I0511 03:05:00.951311 19438 net.cpp:372] inception_4c/output <- inception_4c/pool_proj
I0511 03:05:00.951318 19438 net.cpp:334] inception_4c/output -> inception_4c/output
I0511 03:05:00.951326 19438 net.cpp:105] Setting up inception_4c/output
I0511 03:05:00.951333 19438 net.cpp:112] Top shape: 32 512 14 14 (3211264)
I0511 03:05:00.951338 19438 layer_factory.hpp:74] Creating layer inception_4c/output_inception_4c/output_0_split
I0511 03:05:00.951349 19438 net.cpp:76] Creating Layer inception_4c/output_inception_4c/output_0_split
I0511 03:05:00.951354 19438 net.cpp:372] inception_4c/output_inception_4c/output_0_split <- inception_4c/output
I0511 03:05:00.951362 19438 net.cpp:334] inception_4c/output_inception_4c/output_0_split -> inception_4c/output_inception_4c/output_0_split_0
I0511 03:05:00.951374 19438 net.cpp:334] inception_4c/output_inception_4c/output_0_split -> inception_4c/output_inception_4c/output_0_split_1
I0511 03:05:00.951383 19438 net.cpp:334] inception_4c/output_inception_4c/output_0_split -> inception_4c/output_inception_4c/output_0_split_2
I0511 03:05:00.951391 19438 net.cpp:334] inception_4c/output_inception_4c/output_0_split -> inception_4c/output_inception_4c/output_0_split_3
I0511 03:05:00.951421 19438 net.cpp:105] Setting up inception_4c/output_inception_4c/output_0_split
I0511 03:05:00.951429 19438 net.cpp:112] Top shape: 32 512 14 14 (3211264)
I0511 03:05:00.951436 19438 net.cpp:112] Top shape: 32 512 14 14 (3211264)
I0511 03:05:00.951441 19438 net.cpp:112] Top shape: 32 512 14 14 (3211264)
I0511 03:05:00.951445 19438 net.cpp:112] Top shape: 32 512 14 14 (3211264)
I0511 03:05:00.951450 19438 layer_factory.hpp:74] Creating layer inception_4d/1x1
I0511 03:05:00.951459 19438 net.cpp:76] Creating Layer inception_4d/1x1
I0511 03:05:00.951464 19438 net.cpp:372] inception_4d/1x1 <- inception_4c/output_inception_4c/output_0_split_0
I0511 03:05:00.951477 19438 net.cpp:334] inception_4d/1x1 -> inception_4d/1x1
I0511 03:05:00.951485 19438 net.cpp:105] Setting up inception_4d/1x1
I0511 03:05:00.951968 19438 net.cpp:112] Top shape: 32 112 14 14 (702464)
I0511 03:05:00.951982 19438 layer_factory.hpp:74] Creating layer inception_4d/relu_1x1
I0511 03:05:00.951990 19438 net.cpp:76] Creating Layer inception_4d/relu_1x1
I0511 03:05:00.951997 19438 net.cpp:372] inception_4d/relu_1x1 <- inception_4d/1x1
I0511 03:05:00.952003 19438 net.cpp:323] inception_4d/relu_1x1 -> inception_4d/1x1 (in-place)
I0511 03:05:00.952010 19438 net.cpp:105] Setting up inception_4d/relu_1x1
I0511 03:05:00.952016 19438 net.cpp:112] Top shape: 32 112 14 14 (702464)
I0511 03:05:00.952021 19438 layer_factory.hpp:74] Creating layer inception_4d/3x3_reduce
I0511 03:05:00.952033 19438 net.cpp:76] Creating Layer inception_4d/3x3_reduce
I0511 03:05:00.952039 19438 net.cpp:372] inception_4d/3x3_reduce <- inception_4c/output_inception_4c/output_0_split_1
I0511 03:05:00.952047 19438 net.cpp:334] inception_4d/3x3_reduce -> inception_4d/3x3_reduce
I0511 03:05:00.952056 19438 net.cpp:105] Setting up inception_4d/3x3_reduce
I0511 03:05:00.952697 19438 net.cpp:112] Top shape: 32 144 14 14 (903168)
I0511 03:05:00.952723 19438 layer_factory.hpp:74] Creating layer inception_4d/relu_3x3_reduce
I0511 03:05:00.952733 19438 net.cpp:76] Creating Layer inception_4d/relu_3x3_reduce
I0511 03:05:00.952739 19438 net.cpp:372] inception_4d/relu_3x3_reduce <- inception_4d/3x3_reduce
I0511 03:05:00.952749 19438 net.cpp:323] inception_4d/relu_3x3_reduce -> inception_4d/3x3_reduce (in-place)
I0511 03:05:00.952756 19438 net.cpp:105] Setting up inception_4d/relu_3x3_reduce
I0511 03:05:00.952762 19438 net.cpp:112] Top shape: 32 144 14 14 (903168)
I0511 03:05:00.952767 19438 layer_factory.hpp:74] Creating layer inception_4d/3x3
I0511 03:05:00.952775 19438 net.cpp:76] Creating Layer inception_4d/3x3
I0511 03:05:00.952781 19438 net.cpp:372] inception_4d/3x3 <- inception_4d/3x3_reduce
I0511 03:05:00.952790 19438 net.cpp:334] inception_4d/3x3 -> inception_4d/3x3
I0511 03:05:00.952800 19438 net.cpp:105] Setting up inception_4d/3x3
I0511 03:05:00.955920 19438 net.cpp:112] Top shape: 32 288 14 14 (1806336)
I0511 03:05:00.955936 19438 layer_factory.hpp:74] Creating layer inception_4d/relu_3x3
I0511 03:05:00.955945 19438 net.cpp:76] Creating Layer inception_4d/relu_3x3
I0511 03:05:00.955951 19438 net.cpp:372] inception_4d/relu_3x3 <- inception_4d/3x3
I0511 03:05:00.955960 19438 net.cpp:323] inception_4d/relu_3x3 -> inception_4d/3x3 (in-place)
I0511 03:05:00.955968 19438 net.cpp:105] Setting up inception_4d/relu_3x3
I0511 03:05:00.955974 19438 net.cpp:112] Top shape: 32 288 14 14 (1806336)
I0511 03:05:00.955979 19438 layer_factory.hpp:74] Creating layer inception_4d/5x5_reduce
I0511 03:05:00.955988 19438 net.cpp:76] Creating Layer inception_4d/5x5_reduce
I0511 03:05:00.955993 19438 net.cpp:372] inception_4d/5x5_reduce <- inception_4c/output_inception_4c/output_0_split_2
I0511 03:05:00.956004 19438 net.cpp:334] inception_4d/5x5_reduce -> inception_4d/5x5_reduce
I0511 03:05:00.956014 19438 net.cpp:105] Setting up inception_4d/5x5_reduce
I0511 03:05:00.956161 19438 net.cpp:112] Top shape: 32 32 14 14 (200704)
I0511 03:05:00.956171 19438 layer_factory.hpp:74] Creating layer inception_4d/relu_5x5_reduce
I0511 03:05:00.957192 19438 net.cpp:76] Creating Layer inception_4d/relu_5x5_reduce
I0511 03:05:00.957201 19438 net.cpp:372] inception_4d/relu_5x5_reduce <- inception_4d/5x5_reduce
I0511 03:05:00.957208 19438 net.cpp:323] inception_4d/relu_5x5_reduce -> inception_4d/5x5_reduce (in-place)
I0511 03:05:00.957216 19438 net.cpp:105] Setting up inception_4d/relu_5x5_reduce
I0511 03:05:00.957222 19438 net.cpp:112] Top shape: 32 32 14 14 (200704)
I0511 03:05:00.957227 19438 layer_factory.hpp:74] Creating layer inception_4d/5x5
I0511 03:05:00.957239 19438 net.cpp:76] Creating Layer inception_4d/5x5
I0511 03:05:00.957244 19438 net.cpp:372] inception_4d/5x5 <- inception_4d/5x5_reduce
I0511 03:05:00.957252 19438 net.cpp:334] inception_4d/5x5 -> inception_4d/5x5
I0511 03:05:00.957262 19438 net.cpp:105] Setting up inception_4d/5x5
I0511 03:05:00.957710 19438 net.cpp:112] Top shape: 32 64 14 14 (401408)
I0511 03:05:00.957722 19438 layer_factory.hpp:74] Creating layer inception_4d/relu_5x5
I0511 03:05:00.957731 19438 net.cpp:76] Creating Layer inception_4d/relu_5x5
I0511 03:05:00.957736 19438 net.cpp:372] inception_4d/relu_5x5 <- inception_4d/5x5
I0511 03:05:00.957746 19438 net.cpp:323] inception_4d/relu_5x5 -> inception_4d/5x5 (in-place)
I0511 03:05:00.957753 19438 net.cpp:105] Setting up inception_4d/relu_5x5
I0511 03:05:00.957758 19438 net.cpp:112] Top shape: 32 64 14 14 (401408)
I0511 03:05:00.957764 19438 layer_factory.hpp:74] Creating layer inception_4d/pool
I0511 03:05:00.957772 19438 net.cpp:76] Creating Layer inception_4d/pool
I0511 03:05:00.957777 19438 net.cpp:372] inception_4d/pool <- inception_4c/output_inception_4c/output_0_split_3
I0511 03:05:00.957785 19438 net.cpp:334] inception_4d/pool -> inception_4d/pool
I0511 03:05:00.957793 19438 net.cpp:105] Setting up inception_4d/pool
I0511 03:05:00.957800 19438 net.cpp:112] Top shape: 32 512 14 14 (3211264)
I0511 03:05:00.957806 19438 layer_factory.hpp:74] Creating layer inception_4d/pool_proj
I0511 03:05:00.957834 19438 net.cpp:76] Creating Layer inception_4d/pool_proj
I0511 03:05:00.957841 19438 net.cpp:372] inception_4d/pool_proj <- inception_4d/pool
I0511 03:05:00.957851 19438 net.cpp:334] inception_4d/pool_proj -> inception_4d/pool_proj
I0511 03:05:00.957861 19438 net.cpp:105] Setting up inception_4d/pool_proj
I0511 03:05:00.958149 19438 net.cpp:112] Top shape: 32 64 14 14 (401408)
I0511 03:05:00.958163 19438 layer_factory.hpp:74] Creating layer inception_4d/relu_pool_proj
I0511 03:05:00.958173 19438 net.cpp:76] Creating Layer inception_4d/relu_pool_proj
I0511 03:05:00.958178 19438 net.cpp:372] inception_4d/relu_pool_proj <- inception_4d/pool_proj
I0511 03:05:00.958185 19438 net.cpp:323] inception_4d/relu_pool_proj -> inception_4d/pool_proj (in-place)
I0511 03:05:00.958194 19438 net.cpp:105] Setting up inception_4d/relu_pool_proj
I0511 03:05:00.958199 19438 net.cpp:112] Top shape: 32 64 14 14 (401408)
I0511 03:05:00.958204 19438 layer_factory.hpp:74] Creating layer inception_4d/output
I0511 03:05:00.958211 19438 net.cpp:76] Creating Layer inception_4d/output
I0511 03:05:00.958217 19438 net.cpp:372] inception_4d/output <- inception_4d/1x1
I0511 03:05:00.958236 19438 net.cpp:372] inception_4d/output <- inception_4d/3x3
I0511 03:05:00.958245 19438 net.cpp:372] inception_4d/output <- inception_4d/5x5
I0511 03:05:00.958250 19438 net.cpp:372] inception_4d/output <- inception_4d/pool_proj
I0511 03:05:00.958261 19438 net.cpp:334] inception_4d/output -> inception_4d/output
I0511 03:05:00.958269 19438 net.cpp:105] Setting up inception_4d/output
I0511 03:05:00.958276 19438 net.cpp:112] Top shape: 32 528 14 14 (3311616)
I0511 03:05:00.958281 19438 layer_factory.hpp:74] Creating layer inception_4d/output_inception_4d/output_0_split
I0511 03:05:00.958288 19438 net.cpp:76] Creating Layer inception_4d/output_inception_4d/output_0_split
I0511 03:05:00.958294 19438 net.cpp:372] inception_4d/output_inception_4d/output_0_split <- inception_4d/output
I0511 03:05:00.958302 19438 net.cpp:334] inception_4d/output_inception_4d/output_0_split -> inception_4d/output_inception_4d/output_0_split_0
I0511 03:05:00.958310 19438 net.cpp:334] inception_4d/output_inception_4d/output_0_split -> inception_4d/output_inception_4d/output_0_split_1
I0511 03:05:00.958319 19438 net.cpp:334] inception_4d/output_inception_4d/output_0_split -> inception_4d/output_inception_4d/output_0_split_2
I0511 03:05:00.958330 19438 net.cpp:334] inception_4d/output_inception_4d/output_0_split -> inception_4d/output_inception_4d/output_0_split_3
I0511 03:05:00.958339 19438 net.cpp:334] inception_4d/output_inception_4d/output_0_split -> inception_4d/output_inception_4d/output_0_split_4
I0511 03:05:00.958348 19438 net.cpp:105] Setting up inception_4d/output_inception_4d/output_0_split
I0511 03:05:00.958354 19438 net.cpp:112] Top shape: 32 528 14 14 (3311616)
I0511 03:05:00.958359 19438 net.cpp:112] Top shape: 32 528 14 14 (3311616)
I0511 03:05:00.958364 19438 net.cpp:112] Top shape: 32 528 14 14 (3311616)
I0511 03:05:00.958369 19438 net.cpp:112] Top shape: 32 528 14 14 (3311616)
I0511 03:05:00.958374 19438 net.cpp:112] Top shape: 32 528 14 14 (3311616)
I0511 03:05:00.958379 19438 layer_factory.hpp:74] Creating layer loss2/ave_pool
I0511 03:05:00.958385 19438 net.cpp:76] Creating Layer loss2/ave_pool
I0511 03:05:00.958390 19438 net.cpp:372] loss2/ave_pool <- inception_4d/output_inception_4d/output_0_split_0
I0511 03:05:00.958400 19438 net.cpp:334] loss2/ave_pool -> loss2/ave_pool
I0511 03:05:00.958408 19438 net.cpp:105] Setting up loss2/ave_pool
I0511 03:05:00.958415 19438 net.cpp:112] Top shape: 32 528 4 4 (270336)
I0511 03:05:00.958420 19438 layer_factory.hpp:74] Creating layer loss2/conv
I0511 03:05:00.958428 19438 net.cpp:76] Creating Layer loss2/conv
I0511 03:05:00.958434 19438 net.cpp:372] loss2/conv <- loss2/ave_pool
I0511 03:05:00.958444 19438 net.cpp:334] loss2/conv -> loss2/conv
I0511 03:05:00.958452 19438 net.cpp:105] Setting up loss2/conv
I0511 03:05:00.959018 19438 net.cpp:112] Top shape: 32 128 4 4 (65536)
I0511 03:05:00.959034 19438 layer_factory.hpp:74] Creating layer loss2/relu_conv
I0511 03:05:00.959055 19438 net.cpp:76] Creating Layer loss2/relu_conv
I0511 03:05:00.959063 19438 net.cpp:372] loss2/relu_conv <- loss2/conv
I0511 03:05:00.959069 19438 net.cpp:323] loss2/relu_conv -> loss2/conv (in-place)
I0511 03:05:00.959077 19438 net.cpp:105] Setting up loss2/relu_conv
I0511 03:05:00.959082 19438 net.cpp:112] Top shape: 32 128 4 4 (65536)
I0511 03:05:00.959089 19438 layer_factory.hpp:74] Creating layer loss2/fc
I0511 03:05:00.959097 19438 net.cpp:76] Creating Layer loss2/fc
I0511 03:05:00.959102 19438 net.cpp:372] loss2/fc <- loss2/conv
I0511 03:05:00.959112 19438 net.cpp:334] loss2/fc -> loss2/fc
I0511 03:05:00.959121 19438 net.cpp:105] Setting up loss2/fc
I0511 03:05:00.976464 19438 net.cpp:112] Top shape: 32 1024 1 1 (32768)
I0511 03:05:00.976506 19438 layer_factory.hpp:74] Creating layer loss2/relu_fc
I0511 03:05:00.976523 19438 net.cpp:76] Creating Layer loss2/relu_fc
I0511 03:05:00.976531 19438 net.cpp:372] loss2/relu_fc <- loss2/fc
I0511 03:05:00.976541 19438 net.cpp:323] loss2/relu_fc -> loss2/fc (in-place)
I0511 03:05:00.976552 19438 net.cpp:105] Setting up loss2/relu_fc
I0511 03:05:00.976558 19438 net.cpp:112] Top shape: 32 1024 1 1 (32768)
I0511 03:05:00.976564 19438 layer_factory.hpp:74] Creating layer loss2/drop_fc
I0511 03:05:00.976572 19438 net.cpp:76] Creating Layer loss2/drop_fc
I0511 03:05:00.976580 19438 net.cpp:372] loss2/drop_fc <- loss2/fc
I0511 03:05:00.976588 19438 net.cpp:323] loss2/drop_fc -> loss2/fc (in-place)
I0511 03:05:00.976595 19438 net.cpp:105] Setting up loss2/drop_fc
I0511 03:05:00.976601 19438 net.cpp:112] Top shape: 32 1024 1 1 (32768)
I0511 03:05:00.976608 19438 layer_factory.hpp:74] Creating layer loss2/classifier
I0511 03:05:00.976620 19438 net.cpp:76] Creating Layer loss2/classifier
I0511 03:05:00.976626 19438 net.cpp:372] loss2/classifier <- loss2/fc
I0511 03:05:00.976636 19438 net.cpp:334] loss2/classifier -> loss2/classifier
I0511 03:05:00.976646 19438 net.cpp:105] Setting up loss2/classifier
I0511 03:05:00.976680 19438 net.cpp:112] Top shape: 32 2 1 1 (64)
I0511 03:05:00.976690 19438 layer_factory.hpp:74] Creating layer loss2/loss
I0511 03:05:00.976698 19438 net.cpp:76] Creating Layer loss2/loss
I0511 03:05:00.976703 19438 net.cpp:372] loss2/loss <- loss2/classifier
I0511 03:05:00.976711 19438 net.cpp:372] loss2/loss <- label_data_1_split_1
I0511 03:05:00.976718 19438 net.cpp:334] loss2/loss -> loss2/loss1
I0511 03:05:00.976727 19438 net.cpp:105] Setting up loss2/loss
I0511 03:05:00.976734 19438 layer_factory.hpp:74] Creating layer loss2/loss
I0511 03:05:00.976749 19438 net.cpp:112] Top shape: 1 1 1 1 (1)
I0511 03:05:00.976757 19438 net.cpp:118]     with loss weight 0.3
I0511 03:05:00.976774 19438 layer_factory.hpp:74] Creating layer inception_4e/1x1
I0511 03:05:00.976786 19438 net.cpp:76] Creating Layer inception_4e/1x1
I0511 03:05:00.976794 19438 net.cpp:372] inception_4e/1x1 <- inception_4d/output_inception_4d/output_0_split_1
I0511 03:05:00.976805 19438 net.cpp:334] inception_4e/1x1 -> inception_4e/1x1
I0511 03:05:00.976815 19438 net.cpp:105] Setting up inception_4e/1x1
I0511 03:05:00.978013 19438 net.cpp:112] Top shape: 32 256 14 14 (1605632)
I0511 03:05:00.978039 19438 layer_factory.hpp:74] Creating layer inception_4e/relu_1x1
I0511 03:05:00.978049 19438 net.cpp:76] Creating Layer inception_4e/relu_1x1
I0511 03:05:00.978056 19438 net.cpp:372] inception_4e/relu_1x1 <- inception_4e/1x1
I0511 03:05:00.978065 19438 net.cpp:323] inception_4e/relu_1x1 -> inception_4e/1x1 (in-place)
I0511 03:05:00.978073 19438 net.cpp:105] Setting up inception_4e/relu_1x1
I0511 03:05:00.978080 19438 net.cpp:112] Top shape: 32 256 14 14 (1605632)
I0511 03:05:00.978085 19438 layer_factory.hpp:74] Creating layer inception_4e/3x3_reduce
I0511 03:05:00.978096 19438 net.cpp:76] Creating Layer inception_4e/3x3_reduce
I0511 03:05:00.978106 19438 net.cpp:372] inception_4e/3x3_reduce <- inception_4d/output_inception_4d/output_0_split_2
I0511 03:05:00.978116 19438 net.cpp:334] inception_4e/3x3_reduce -> inception_4e/3x3_reduce
I0511 03:05:00.978162 19438 net.cpp:105] Setting up inception_4e/3x3_reduce
I0511 03:05:00.978909 19438 net.cpp:112] Top shape: 32 160 14 14 (1003520)
I0511 03:05:00.978931 19438 layer_factory.hpp:74] Creating layer inception_4e/relu_3x3_reduce
I0511 03:05:00.978945 19438 net.cpp:76] Creating Layer inception_4e/relu_3x3_reduce
I0511 03:05:00.978956 19438 net.cpp:372] inception_4e/relu_3x3_reduce <- inception_4e/3x3_reduce
I0511 03:05:00.978967 19438 net.cpp:323] inception_4e/relu_3x3_reduce -> inception_4e/3x3_reduce (in-place)
I0511 03:05:00.978976 19438 net.cpp:105] Setting up inception_4e/relu_3x3_reduce
I0511 03:05:00.978981 19438 net.cpp:112] Top shape: 32 160 14 14 (1003520)
I0511 03:05:00.978987 19438 layer_factory.hpp:74] Creating layer inception_4e/3x3
I0511 03:05:00.979001 19438 net.cpp:76] Creating Layer inception_4e/3x3
I0511 03:05:00.979012 19438 net.cpp:372] inception_4e/3x3 <- inception_4e/3x3_reduce
I0511 03:05:00.979025 19438 net.cpp:334] inception_4e/3x3 -> inception_4e/3x3
I0511 03:05:00.979043 19438 net.cpp:105] Setting up inception_4e/3x3
I0511 03:05:00.983484 19438 net.cpp:112] Top shape: 32 320 14 14 (2007040)
I0511 03:05:00.983521 19438 layer_factory.hpp:74] Creating layer inception_4e/relu_3x3
I0511 03:05:00.983543 19438 net.cpp:76] Creating Layer inception_4e/relu_3x3
I0511 03:05:00.983553 19438 net.cpp:372] inception_4e/relu_3x3 <- inception_4e/3x3
I0511 03:05:00.983563 19438 net.cpp:323] inception_4e/relu_3x3 -> inception_4e/3x3 (in-place)
I0511 03:05:00.983572 19438 net.cpp:105] Setting up inception_4e/relu_3x3
I0511 03:05:00.983578 19438 net.cpp:112] Top shape: 32 320 14 14 (2007040)
I0511 03:05:00.983584 19438 layer_factory.hpp:74] Creating layer inception_4e/5x5_reduce
I0511 03:05:00.983595 19438 net.cpp:76] Creating Layer inception_4e/5x5_reduce
I0511 03:05:00.983602 19438 net.cpp:372] inception_4e/5x5_reduce <- inception_4d/output_inception_4d/output_0_split_3
I0511 03:05:00.983610 19438 net.cpp:334] inception_4e/5x5_reduce -> inception_4e/5x5_reduce
I0511 03:05:00.983620 19438 net.cpp:105] Setting up inception_4e/5x5_reduce
I0511 03:05:00.983775 19438 net.cpp:112] Top shape: 32 32 14 14 (200704)
I0511 03:05:00.983786 19438 layer_factory.hpp:74] Creating layer inception_4e/relu_5x5_reduce
I0511 03:05:00.983794 19438 net.cpp:76] Creating Layer inception_4e/relu_5x5_reduce
I0511 03:05:00.983800 19438 net.cpp:372] inception_4e/relu_5x5_reduce <- inception_4e/5x5_reduce
I0511 03:05:00.983808 19438 net.cpp:323] inception_4e/relu_5x5_reduce -> inception_4e/5x5_reduce (in-place)
I0511 03:05:00.983814 19438 net.cpp:105] Setting up inception_4e/relu_5x5_reduce
I0511 03:05:00.983820 19438 net.cpp:112] Top shape: 32 32 14 14 (200704)
I0511 03:05:00.983826 19438 layer_factory.hpp:74] Creating layer inception_4e/5x5
I0511 03:05:00.983855 19438 net.cpp:76] Creating Layer inception_4e/5x5
I0511 03:05:00.983862 19438 net.cpp:372] inception_4e/5x5 <- inception_4e/5x5_reduce
I0511 03:05:00.983871 19438 net.cpp:334] inception_4e/5x5 -> inception_4e/5x5
I0511 03:05:00.983880 19438 net.cpp:105] Setting up inception_4e/5x5
I0511 03:05:00.984760 19438 net.cpp:112] Top shape: 32 128 14 14 (802816)
I0511 03:05:00.984774 19438 layer_factory.hpp:74] Creating layer inception_4e/relu_5x5
I0511 03:05:00.984782 19438 net.cpp:76] Creating Layer inception_4e/relu_5x5
I0511 03:05:00.984789 19438 net.cpp:372] inception_4e/relu_5x5 <- inception_4e/5x5
I0511 03:05:00.984798 19438 net.cpp:323] inception_4e/relu_5x5 -> inception_4e/5x5 (in-place)
I0511 03:05:00.984807 19438 net.cpp:105] Setting up inception_4e/relu_5x5
I0511 03:05:00.984812 19438 net.cpp:112] Top shape: 32 128 14 14 (802816)
I0511 03:05:00.984818 19438 layer_factory.hpp:74] Creating layer inception_4e/pool
I0511 03:05:00.984827 19438 net.cpp:76] Creating Layer inception_4e/pool
I0511 03:05:00.984833 19438 net.cpp:372] inception_4e/pool <- inception_4d/output_inception_4d/output_0_split_4
I0511 03:05:00.984840 19438 net.cpp:334] inception_4e/pool -> inception_4e/pool
I0511 03:05:00.984848 19438 net.cpp:105] Setting up inception_4e/pool
I0511 03:05:00.984858 19438 net.cpp:112] Top shape: 32 528 14 14 (3311616)
I0511 03:05:00.984891 19438 layer_factory.hpp:74] Creating layer inception_4e/pool_proj
I0511 03:05:00.984904 19438 net.cpp:76] Creating Layer inception_4e/pool_proj
I0511 03:05:00.984910 19438 net.cpp:372] inception_4e/pool_proj <- inception_4e/pool
I0511 03:05:00.984918 19438 net.cpp:334] inception_4e/pool_proj -> inception_4e/pool_proj
I0511 03:05:00.984927 19438 net.cpp:105] Setting up inception_4e/pool_proj
I0511 03:05:00.985553 19438 net.cpp:112] Top shape: 32 128 14 14 (802816)
I0511 03:05:00.985573 19438 layer_factory.hpp:74] Creating layer inception_4e/relu_pool_proj
I0511 03:05:00.985581 19438 net.cpp:76] Creating Layer inception_4e/relu_pool_proj
I0511 03:05:00.985587 19438 net.cpp:372] inception_4e/relu_pool_proj <- inception_4e/pool_proj
I0511 03:05:00.985594 19438 net.cpp:323] inception_4e/relu_pool_proj -> inception_4e/pool_proj (in-place)
I0511 03:05:00.985602 19438 net.cpp:105] Setting up inception_4e/relu_pool_proj
I0511 03:05:00.985608 19438 net.cpp:112] Top shape: 32 128 14 14 (802816)
I0511 03:05:00.985613 19438 layer_factory.hpp:74] Creating layer inception_4e/output
I0511 03:05:00.985621 19438 net.cpp:76] Creating Layer inception_4e/output
I0511 03:05:00.985627 19438 net.cpp:372] inception_4e/output <- inception_4e/1x1
I0511 03:05:00.985633 19438 net.cpp:372] inception_4e/output <- inception_4e/3x3
I0511 03:05:00.985642 19438 net.cpp:372] inception_4e/output <- inception_4e/5x5
I0511 03:05:00.985648 19438 net.cpp:372] inception_4e/output <- inception_4e/pool_proj
I0511 03:05:00.985658 19438 net.cpp:334] inception_4e/output -> inception_4e/output
I0511 03:05:00.985667 19438 net.cpp:105] Setting up inception_4e/output
I0511 03:05:00.985674 19438 net.cpp:112] Top shape: 32 832 14 14 (5218304)
I0511 03:05:00.985679 19438 layer_factory.hpp:74] Creating layer pool4/3x3_s2
I0511 03:05:00.985687 19438 net.cpp:76] Creating Layer pool4/3x3_s2
I0511 03:05:00.985692 19438 net.cpp:372] pool4/3x3_s2 <- inception_4e/output
I0511 03:05:00.985699 19438 net.cpp:334] pool4/3x3_s2 -> pool4/3x3_s2
I0511 03:05:00.985710 19438 net.cpp:105] Setting up pool4/3x3_s2
I0511 03:05:00.985718 19438 net.cpp:112] Top shape: 32 832 7 7 (1304576)
I0511 03:05:00.985723 19438 layer_factory.hpp:74] Creating layer pool4/3x3_s2_pool4/3x3_s2_0_split
I0511 03:05:00.985730 19438 net.cpp:76] Creating Layer pool4/3x3_s2_pool4/3x3_s2_0_split
I0511 03:05:00.985735 19438 net.cpp:372] pool4/3x3_s2_pool4/3x3_s2_0_split <- pool4/3x3_s2
I0511 03:05:00.985743 19438 net.cpp:334] pool4/3x3_s2_pool4/3x3_s2_0_split -> pool4/3x3_s2_pool4/3x3_s2_0_split_0
I0511 03:05:00.985751 19438 net.cpp:334] pool4/3x3_s2_pool4/3x3_s2_0_split -> pool4/3x3_s2_pool4/3x3_s2_0_split_1
I0511 03:05:00.985760 19438 net.cpp:334] pool4/3x3_s2_pool4/3x3_s2_0_split -> pool4/3x3_s2_pool4/3x3_s2_0_split_2
I0511 03:05:00.985769 19438 net.cpp:334] pool4/3x3_s2_pool4/3x3_s2_0_split -> pool4/3x3_s2_pool4/3x3_s2_0_split_3
I0511 03:05:00.985776 19438 net.cpp:105] Setting up pool4/3x3_s2_pool4/3x3_s2_0_split
I0511 03:05:00.985782 19438 net.cpp:112] Top shape: 32 832 7 7 (1304576)
I0511 03:05:00.985788 19438 net.cpp:112] Top shape: 32 832 7 7 (1304576)
I0511 03:05:00.985793 19438 net.cpp:112] Top shape: 32 832 7 7 (1304576)
I0511 03:05:00.985797 19438 net.cpp:112] Top shape: 32 832 7 7 (1304576)
I0511 03:05:00.985803 19438 layer_factory.hpp:74] Creating layer inception_5a/1x1
I0511 03:05:00.985813 19438 net.cpp:76] Creating Layer inception_5a/1x1
I0511 03:05:00.985819 19438 net.cpp:372] inception_5a/1x1 <- pool4/3x3_s2_pool4/3x3_s2_0_split_0
I0511 03:05:00.985831 19438 net.cpp:334] inception_5a/1x1 -> inception_5a/1x1
I0511 03:05:00.985838 19438 net.cpp:105] Setting up inception_5a/1x1
I0511 03:05:00.987639 19438 net.cpp:112] Top shape: 32 256 7 7 (401408)
I0511 03:05:00.987658 19438 layer_factory.hpp:74] Creating layer inception_5a/relu_1x1
I0511 03:05:00.987668 19438 net.cpp:76] Creating Layer inception_5a/relu_1x1
I0511 03:05:00.987673 19438 net.cpp:372] inception_5a/relu_1x1 <- inception_5a/1x1
I0511 03:05:00.987681 19438 net.cpp:323] inception_5a/relu_1x1 -> inception_5a/1x1 (in-place)
I0511 03:05:00.987707 19438 net.cpp:105] Setting up inception_5a/relu_1x1
I0511 03:05:00.987715 19438 net.cpp:112] Top shape: 32 256 7 7 (401408)
I0511 03:05:00.987720 19438 layer_factory.hpp:74] Creating layer inception_5a/3x3_reduce
I0511 03:05:00.987728 19438 net.cpp:76] Creating Layer inception_5a/3x3_reduce
I0511 03:05:00.987735 19438 net.cpp:372] inception_5a/3x3_reduce <- pool4/3x3_s2_pool4/3x3_s2_0_split_1
I0511 03:05:00.987746 19438 net.cpp:334] inception_5a/3x3_reduce -> inception_5a/3x3_reduce
I0511 03:05:00.987756 19438 net.cpp:105] Setting up inception_5a/3x3_reduce
I0511 03:05:00.988889 19438 net.cpp:112] Top shape: 32 160 7 7 (250880)
I0511 03:05:00.988904 19438 layer_factory.hpp:74] Creating layer inception_5a/relu_3x3_reduce
I0511 03:05:00.988912 19438 net.cpp:76] Creating Layer inception_5a/relu_3x3_reduce
I0511 03:05:00.988920 19438 net.cpp:372] inception_5a/relu_3x3_reduce <- inception_5a/3x3_reduce
I0511 03:05:00.988929 19438 net.cpp:323] inception_5a/relu_3x3_reduce -> inception_5a/3x3_reduce (in-place)
I0511 03:05:00.988936 19438 net.cpp:105] Setting up inception_5a/relu_3x3_reduce
I0511 03:05:00.988942 19438 net.cpp:112] Top shape: 32 160 7 7 (250880)
I0511 03:05:00.988947 19438 layer_factory.hpp:74] Creating layer inception_5a/3x3
I0511 03:05:00.988955 19438 net.cpp:76] Creating Layer inception_5a/3x3
I0511 03:05:00.988961 19438 net.cpp:372] inception_5a/3x3 <- inception_5a/3x3_reduce
I0511 03:05:00.988971 19438 net.cpp:334] inception_5a/3x3 -> inception_5a/3x3
I0511 03:05:00.988981 19438 net.cpp:105] Setting up inception_5a/3x3
I0511 03:05:00.992862 19438 net.cpp:112] Top shape: 32 320 7 7 (501760)
I0511 03:05:00.992884 19438 layer_factory.hpp:74] Creating layer inception_5a/relu_3x3
I0511 03:05:00.992894 19438 net.cpp:76] Creating Layer inception_5a/relu_3x3
I0511 03:05:00.992902 19438 net.cpp:372] inception_5a/relu_3x3 <- inception_5a/3x3
I0511 03:05:00.992909 19438 net.cpp:323] inception_5a/relu_3x3 -> inception_5a/3x3 (in-place)
I0511 03:05:00.992918 19438 net.cpp:105] Setting up inception_5a/relu_3x3
I0511 03:05:00.992924 19438 net.cpp:112] Top shape: 32 320 7 7 (501760)
I0511 03:05:00.992930 19438 layer_factory.hpp:74] Creating layer inception_5a/5x5_reduce
I0511 03:05:00.992943 19438 net.cpp:76] Creating Layer inception_5a/5x5_reduce
I0511 03:05:00.992949 19438 net.cpp:372] inception_5a/5x5_reduce <- pool4/3x3_s2_pool4/3x3_s2_0_split_2
I0511 03:05:00.992960 19438 net.cpp:334] inception_5a/5x5_reduce -> inception_5a/5x5_reduce
I0511 03:05:00.992969 19438 net.cpp:105] Setting up inception_5a/5x5_reduce
I0511 03:05:00.993206 19438 net.cpp:112] Top shape: 32 32 7 7 (50176)
I0511 03:05:00.993221 19438 layer_factory.hpp:74] Creating layer inception_5a/relu_5x5_reduce
I0511 03:05:00.993229 19438 net.cpp:76] Creating Layer inception_5a/relu_5x5_reduce
I0511 03:05:00.993237 19438 net.cpp:372] inception_5a/relu_5x5_reduce <- inception_5a/5x5_reduce
I0511 03:05:00.993243 19438 net.cpp:323] inception_5a/relu_5x5_reduce -> inception_5a/5x5_reduce (in-place)
I0511 03:05:00.993252 19438 net.cpp:105] Setting up inception_5a/relu_5x5_reduce
I0511 03:05:00.993257 19438 net.cpp:112] Top shape: 32 32 7 7 (50176)
I0511 03:05:00.993263 19438 layer_factory.hpp:74] Creating layer inception_5a/5x5
I0511 03:05:00.993288 19438 net.cpp:76] Creating Layer inception_5a/5x5
I0511 03:05:00.993296 19438 net.cpp:372] inception_5a/5x5 <- inception_5a/5x5_reduce
I0511 03:05:00.993306 19438 net.cpp:334] inception_5a/5x5 -> inception_5a/5x5
I0511 03:05:00.993316 19438 net.cpp:105] Setting up inception_5a/5x5
I0511 03:05:00.994174 19438 net.cpp:112] Top shape: 32 128 7 7 (200704)
I0511 03:05:00.994189 19438 layer_factory.hpp:74] Creating layer inception_5a/relu_5x5
I0511 03:05:00.994196 19438 net.cpp:76] Creating Layer inception_5a/relu_5x5
I0511 03:05:00.994202 19438 net.cpp:372] inception_5a/relu_5x5 <- inception_5a/5x5
I0511 03:05:00.994211 19438 net.cpp:323] inception_5a/relu_5x5 -> inception_5a/5x5 (in-place)
I0511 03:05:00.994220 19438 net.cpp:105] Setting up inception_5a/relu_5x5
I0511 03:05:00.994253 19438 net.cpp:112] Top shape: 32 128 7 7 (200704)
I0511 03:05:00.994261 19438 layer_factory.hpp:74] Creating layer inception_5a/pool
I0511 03:05:00.994282 19438 net.cpp:76] Creating Layer inception_5a/pool
I0511 03:05:00.994288 19438 net.cpp:372] inception_5a/pool <- pool4/3x3_s2_pool4/3x3_s2_0_split_3
I0511 03:05:00.994299 19438 net.cpp:334] inception_5a/pool -> inception_5a/pool
I0511 03:05:00.994309 19438 net.cpp:105] Setting up inception_5a/pool
I0511 03:05:00.994318 19438 net.cpp:112] Top shape: 32 832 7 7 (1304576)
I0511 03:05:00.994323 19438 layer_factory.hpp:74] Creating layer inception_5a/pool_proj
I0511 03:05:00.994333 19438 net.cpp:76] Creating Layer inception_5a/pool_proj
I0511 03:05:00.994338 19438 net.cpp:372] inception_5a/pool_proj <- inception_5a/pool
I0511 03:05:00.994349 19438 net.cpp:334] inception_5a/pool_proj -> inception_5a/pool_proj
I0511 03:05:00.994357 19438 net.cpp:105] Setting up inception_5a/pool_proj
I0511 03:05:00.995259 19438 net.cpp:112] Top shape: 32 128 7 7 (200704)
I0511 03:05:00.995286 19438 layer_factory.hpp:74] Creating layer inception_5a/relu_pool_proj
I0511 03:05:00.995296 19438 net.cpp:76] Creating Layer inception_5a/relu_pool_proj
I0511 03:05:00.995302 19438 net.cpp:372] inception_5a/relu_pool_proj <- inception_5a/pool_proj
I0511 03:05:00.995311 19438 net.cpp:323] inception_5a/relu_pool_proj -> inception_5a/pool_proj (in-place)
I0511 03:05:00.995318 19438 net.cpp:105] Setting up inception_5a/relu_pool_proj
I0511 03:05:00.995323 19438 net.cpp:112] Top shape: 32 128 7 7 (200704)
I0511 03:05:00.995329 19438 layer_factory.hpp:74] Creating layer inception_5a/output
I0511 03:05:00.995337 19438 net.cpp:76] Creating Layer inception_5a/output
I0511 03:05:00.995342 19438 net.cpp:372] inception_5a/output <- inception_5a/1x1
I0511 03:05:00.995349 19438 net.cpp:372] inception_5a/output <- inception_5a/3x3
I0511 03:05:00.995355 19438 net.cpp:372] inception_5a/output <- inception_5a/5x5
I0511 03:05:00.995362 19438 net.cpp:372] inception_5a/output <- inception_5a/pool_proj
I0511 03:05:00.995371 19438 net.cpp:334] inception_5a/output -> inception_5a/output
I0511 03:05:00.995379 19438 net.cpp:105] Setting up inception_5a/output
I0511 03:05:00.995386 19438 net.cpp:112] Top shape: 32 832 7 7 (1304576)
I0511 03:05:00.995393 19438 layer_factory.hpp:74] Creating layer inception_5a/output_inception_5a/output_0_split
I0511 03:05:00.995400 19438 net.cpp:76] Creating Layer inception_5a/output_inception_5a/output_0_split
I0511 03:05:00.995431 19438 net.cpp:372] inception_5a/output_inception_5a/output_0_split <- inception_5a/output
I0511 03:05:00.995440 19438 net.cpp:334] inception_5a/output_inception_5a/output_0_split -> inception_5a/output_inception_5a/output_0_split_0
I0511 03:05:00.995450 19438 net.cpp:334] inception_5a/output_inception_5a/output_0_split -> inception_5a/output_inception_5a/output_0_split_1
I0511 03:05:00.995462 19438 net.cpp:334] inception_5a/output_inception_5a/output_0_split -> inception_5a/output_inception_5a/output_0_split_2
I0511 03:05:00.995472 19438 net.cpp:334] inception_5a/output_inception_5a/output_0_split -> inception_5a/output_inception_5a/output_0_split_3
I0511 03:05:00.995479 19438 net.cpp:105] Setting up inception_5a/output_inception_5a/output_0_split
I0511 03:05:00.995486 19438 net.cpp:112] Top shape: 32 832 7 7 (1304576)
I0511 03:05:00.995491 19438 net.cpp:112] Top shape: 32 832 7 7 (1304576)
I0511 03:05:00.995496 19438 net.cpp:112] Top shape: 32 832 7 7 (1304576)
I0511 03:05:00.995501 19438 net.cpp:112] Top shape: 32 832 7 7 (1304576)
I0511 03:05:00.995507 19438 layer_factory.hpp:74] Creating layer inception_5b/1x1
I0511 03:05:00.995515 19438 net.cpp:76] Creating Layer inception_5b/1x1
I0511 03:05:00.995520 19438 net.cpp:372] inception_5b/1x1 <- inception_5a/output_inception_5a/output_0_split_0
I0511 03:05:00.995532 19438 net.cpp:334] inception_5b/1x1 -> inception_5b/1x1
I0511 03:05:00.995539 19438 net.cpp:105] Setting up inception_5b/1x1
I0511 03:05:00.998198 19438 net.cpp:112] Top shape: 32 384 7 7 (602112)
I0511 03:05:00.998216 19438 layer_factory.hpp:74] Creating layer inception_5b/relu_1x1
I0511 03:05:00.998242 19438 net.cpp:76] Creating Layer inception_5b/relu_1x1
I0511 03:05:00.998260 19438 net.cpp:372] inception_5b/relu_1x1 <- inception_5b/1x1
I0511 03:05:00.998275 19438 net.cpp:323] inception_5b/relu_1x1 -> inception_5b/1x1 (in-place)
I0511 03:05:00.998284 19438 net.cpp:105] Setting up inception_5b/relu_1x1
I0511 03:05:00.998289 19438 net.cpp:112] Top shape: 32 384 7 7 (602112)
I0511 03:05:00.998296 19438 layer_factory.hpp:74] Creating layer inception_5b/3x3_reduce
I0511 03:05:00.998304 19438 net.cpp:76] Creating Layer inception_5b/3x3_reduce
I0511 03:05:00.998311 19438 net.cpp:372] inception_5b/3x3_reduce <- inception_5a/output_inception_5a/output_0_split_1
I0511 03:05:00.998320 19438 net.cpp:334] inception_5b/3x3_reduce -> inception_5b/3x3_reduce
I0511 03:05:00.998330 19438 net.cpp:105] Setting up inception_5b/3x3_reduce
I0511 03:05:00.999703 19438 net.cpp:112] Top shape: 32 192 7 7 (301056)
I0511 03:05:00.999721 19438 layer_factory.hpp:74] Creating layer inception_5b/relu_3x3_reduce
I0511 03:05:00.999730 19438 net.cpp:76] Creating Layer inception_5b/relu_3x3_reduce
I0511 03:05:00.999737 19438 net.cpp:372] inception_5b/relu_3x3_reduce <- inception_5b/3x3_reduce
I0511 03:05:00.999745 19438 net.cpp:323] inception_5b/relu_3x3_reduce -> inception_5b/3x3_reduce (in-place)
I0511 03:05:00.999753 19438 net.cpp:105] Setting up inception_5b/relu_3x3_reduce
I0511 03:05:00.999759 19438 net.cpp:112] Top shape: 32 192 7 7 (301056)
I0511 03:05:00.999764 19438 layer_factory.hpp:74] Creating layer inception_5b/3x3
I0511 03:05:00.999775 19438 net.cpp:76] Creating Layer inception_5b/3x3
I0511 03:05:00.999781 19438 net.cpp:372] inception_5b/3x3 <- inception_5b/3x3_reduce
I0511 03:05:00.999789 19438 net.cpp:334] inception_5b/3x3 -> inception_5b/3x3
I0511 03:05:00.999816 19438 net.cpp:105] Setting up inception_5b/3x3
I0511 03:05:01.005951 19438 net.cpp:112] Top shape: 32 384 7 7 (602112)
I0511 03:05:01.005996 19438 layer_factory.hpp:74] Creating layer inception_5b/relu_3x3
I0511 03:05:01.006017 19438 net.cpp:76] Creating Layer inception_5b/relu_3x3
I0511 03:05:01.006032 19438 net.cpp:372] inception_5b/relu_3x3 <- inception_5b/3x3
I0511 03:05:01.006049 19438 net.cpp:323] inception_5b/relu_3x3 -> inception_5b/3x3 (in-place)
I0511 03:05:01.006068 19438 net.cpp:105] Setting up inception_5b/relu_3x3
I0511 03:05:01.006079 19438 net.cpp:112] Top shape: 32 384 7 7 (602112)
I0511 03:05:01.006089 19438 layer_factory.hpp:74] Creating layer inception_5b/5x5_reduce
I0511 03:05:01.006106 19438 net.cpp:76] Creating Layer inception_5b/5x5_reduce
I0511 03:05:01.006121 19438 net.cpp:372] inception_5b/5x5_reduce <- inception_5a/output_inception_5a/output_0_split_2
I0511 03:05:01.006146 19438 net.cpp:334] inception_5b/5x5_reduce -> inception_5b/5x5_reduce
I0511 03:05:01.006167 19438 net.cpp:105] Setting up inception_5b/5x5_reduce
I0511 03:05:01.006678 19438 net.cpp:112] Top shape: 32 48 7 7 (75264)
I0511 03:05:01.006701 19438 layer_factory.hpp:74] Creating layer inception_5b/relu_5x5_reduce
I0511 03:05:01.006718 19438 net.cpp:76] Creating Layer inception_5b/relu_5x5_reduce
I0511 03:05:01.006731 19438 net.cpp:372] inception_5b/relu_5x5_reduce <- inception_5b/5x5_reduce
I0511 03:05:01.006746 19438 net.cpp:323] inception_5b/relu_5x5_reduce -> inception_5b/5x5_reduce (in-place)
I0511 03:05:01.006760 19438 net.cpp:105] Setting up inception_5b/relu_5x5_reduce
I0511 03:05:01.006770 19438 net.cpp:112] Top shape: 32 48 7 7 (75264)
I0511 03:05:01.006780 19438 layer_factory.hpp:74] Creating layer inception_5b/5x5
I0511 03:05:01.006796 19438 net.cpp:76] Creating Layer inception_5b/5x5
I0511 03:05:01.006808 19438 net.cpp:372] inception_5b/5x5 <- inception_5b/5x5_reduce
I0511 03:05:01.006826 19438 net.cpp:334] inception_5b/5x5 -> inception_5b/5x5
I0511 03:05:01.006844 19438 net.cpp:105] Setting up inception_5b/5x5
I0511 03:05:01.008343 19438 net.cpp:112] Top shape: 32 128 7 7 (200704)
I0511 03:05:01.008360 19438 layer_factory.hpp:74] Creating layer inception_5b/relu_5x5
I0511 03:05:01.008369 19438 net.cpp:76] Creating Layer inception_5b/relu_5x5
I0511 03:05:01.008409 19438 net.cpp:372] inception_5b/relu_5x5 <- inception_5b/5x5
I0511 03:05:01.008417 19438 net.cpp:323] inception_5b/relu_5x5 -> inception_5b/5x5 (in-place)
I0511 03:05:01.008430 19438 net.cpp:105] Setting up inception_5b/relu_5x5
I0511 03:05:01.008435 19438 net.cpp:112] Top shape: 32 128 7 7 (200704)
I0511 03:05:01.008441 19438 layer_factory.hpp:74] Creating layer inception_5b/pool
I0511 03:05:01.008450 19438 net.cpp:76] Creating Layer inception_5b/pool
I0511 03:05:01.008456 19438 net.cpp:372] inception_5b/pool <- inception_5a/output_inception_5a/output_0_split_3
I0511 03:05:01.008467 19438 net.cpp:334] inception_5b/pool -> inception_5b/pool
I0511 03:05:01.008476 19438 net.cpp:105] Setting up inception_5b/pool
I0511 03:05:01.008486 19438 net.cpp:112] Top shape: 32 832 7 7 (1304576)
I0511 03:05:01.008491 19438 layer_factory.hpp:74] Creating layer inception_5b/pool_proj
I0511 03:05:01.008503 19438 net.cpp:76] Creating Layer inception_5b/pool_proj
I0511 03:05:01.008509 19438 net.cpp:372] inception_5b/pool_proj <- inception_5b/pool
I0511 03:05:01.008517 19438 net.cpp:334] inception_5b/pool_proj -> inception_5b/pool_proj
I0511 03:05:01.008527 19438 net.cpp:105] Setting up inception_5b/pool_proj
I0511 03:05:01.009443 19438 net.cpp:112] Top shape: 32 128 7 7 (200704)
I0511 03:05:01.009459 19438 layer_factory.hpp:74] Creating layer inception_5b/relu_pool_proj
I0511 03:05:01.009467 19438 net.cpp:76] Creating Layer inception_5b/relu_pool_proj
I0511 03:05:01.009474 19438 net.cpp:372] inception_5b/relu_pool_proj <- inception_5b/pool_proj
I0511 03:05:01.009485 19438 net.cpp:323] inception_5b/relu_pool_proj -> inception_5b/pool_proj (in-place)
I0511 03:05:01.009493 19438 net.cpp:105] Setting up inception_5b/relu_pool_proj
I0511 03:05:01.009500 19438 net.cpp:112] Top shape: 32 128 7 7 (200704)
I0511 03:05:01.009505 19438 layer_factory.hpp:74] Creating layer inception_5b/output
I0511 03:05:01.009516 19438 net.cpp:76] Creating Layer inception_5b/output
I0511 03:05:01.009521 19438 net.cpp:372] inception_5b/output <- inception_5b/1x1
I0511 03:05:01.009528 19438 net.cpp:372] inception_5b/output <- inception_5b/3x3
I0511 03:05:01.009536 19438 net.cpp:372] inception_5b/output <- inception_5b/5x5
I0511 03:05:01.009541 19438 net.cpp:372] inception_5b/output <- inception_5b/pool_proj
I0511 03:05:01.009549 19438 net.cpp:334] inception_5b/output -> inception_5b/output
I0511 03:05:01.009557 19438 net.cpp:105] Setting up inception_5b/output
I0511 03:05:01.009563 19438 net.cpp:112] Top shape: 32 1024 7 7 (1605632)
I0511 03:05:01.009569 19438 layer_factory.hpp:74] Creating layer pool5/7x7_s1
I0511 03:05:01.009577 19438 net.cpp:76] Creating Layer pool5/7x7_s1
I0511 03:05:01.009582 19438 net.cpp:372] pool5/7x7_s1 <- inception_5b/output
I0511 03:05:01.009593 19438 net.cpp:334] pool5/7x7_s1 -> pool5/7x7_s1
I0511 03:05:01.009601 19438 net.cpp:105] Setting up pool5/7x7_s1
I0511 03:05:01.009608 19438 net.cpp:112] Top shape: 32 1024 1 1 (32768)
I0511 03:05:01.009613 19438 layer_factory.hpp:74] Creating layer pool5/drop_7x7_s1
I0511 03:05:01.009621 19438 net.cpp:76] Creating Layer pool5/drop_7x7_s1
I0511 03:05:01.009627 19438 net.cpp:372] pool5/drop_7x7_s1 <- pool5/7x7_s1
I0511 03:05:01.009636 19438 net.cpp:323] pool5/drop_7x7_s1 -> pool5/7x7_s1 (in-place)
I0511 03:05:01.009644 19438 net.cpp:105] Setting up pool5/drop_7x7_s1
I0511 03:05:01.009651 19438 net.cpp:112] Top shape: 32 1024 1 1 (32768)
I0511 03:05:01.009657 19438 layer_factory.hpp:74] Creating layer loss3/classifier
I0511 03:05:01.009668 19438 net.cpp:76] Creating Layer loss3/classifier
I0511 03:05:01.009675 19438 net.cpp:372] loss3/classifier <- pool5/7x7_s1
I0511 03:05:01.009683 19438 net.cpp:334] loss3/classifier -> loss3/classifier
I0511 03:05:01.009692 19438 net.cpp:105] Setting up loss3/classifier
I0511 03:05:01.009724 19438 net.cpp:112] Top shape: 32 2 1 1 (64)
I0511 03:05:01.009734 19438 layer_factory.hpp:74] Creating layer loss3/loss3
I0511 03:05:01.009745 19438 net.cpp:76] Creating Layer loss3/loss3
I0511 03:05:01.009752 19438 net.cpp:372] loss3/loss3 <- loss3/classifier
I0511 03:05:01.009771 19438 net.cpp:372] loss3/loss3 <- label_data_1_split_2
I0511 03:05:01.009780 19438 net.cpp:334] loss3/loss3 -> loss3/loss3
I0511 03:05:01.009789 19438 net.cpp:105] Setting up loss3/loss3
I0511 03:05:01.009799 19438 layer_factory.hpp:74] Creating layer loss3/loss3
I0511 03:05:01.009812 19438 net.cpp:112] Top shape: 1 1 1 1 (1)
I0511 03:05:01.009819 19438 net.cpp:118]     with loss weight 1
I0511 03:05:01.009836 19438 net.cpp:163] loss3/loss3 needs backward computation.
I0511 03:05:01.009841 19438 net.cpp:163] loss3/classifier needs backward computation.
I0511 03:05:01.009847 19438 net.cpp:163] pool5/drop_7x7_s1 needs backward computation.
I0511 03:05:01.009852 19438 net.cpp:163] pool5/7x7_s1 needs backward computation.
…
I0511 03:05:01.018049 19438 solver.cpp:154] Creating test net (#0) specified by net file: ../../train_val.prototxt
I0511 03:05:01.018344 19438 net.cpp:253] The NetState phase (1) differed from the phase (0) specified by a rule in layer data
I0511 03:05:01.019770 19438 net.cpp:42] Initializing net from parameters: 
name: "GoogleNet"
state {
  phase: TEST
}
layer {
  name: "data"
  type: "Data"
  top: "data"
  top: "label"
  include {
    phase: TEST
  }
  transform_param {
    mirror: false
    crop_size: 224
    mean_value: 104
    mean_value: 117
    mean_value: 123
  }
  data_param {
    source: "val_lmdb"
    batch_size: 32
    backend: LMDB
  }
}
layer {
  name: "conv1/7x7_s2"
  type: "Convolution"
  bottom: "data"
  top: "conv1/7x7_s2"
  param {
    lr_mult: 1
    decay_mult: 1
  }
  param {
    lr_mult: 2
    decay_mult: 0
  }
  convolution_param {
    num_output: 64
    pad: 3
    kernel_size: 7
    stride: 2
    weight_filler {
      type: "xavier"
      std: 0.1
    }
    bias_filler {
      type: "constant"
      value: 0.2
    }
  }
}
layer {
  name: "conv1/relu_7x7"
  type: "ReLU"
  bottom: "conv1/7x7_s2"
  top: "conv1/7x7_s2"
}
layer {
  name: "pool1/3x3_s2"
  type: "Pooling"
  bottom: "conv1/7x7_s2"
  top: "pool1/3x3_s2"
  pooling_param {
    pool: MAX
    kernel_size: 3
    stride: 2
  }
}
layer {
  name: "pool1/norm1"
  type: "LRN"
  bottom: "pool1/3x3_s2"
  top: "pool1/norm1"
  lrn_param {
    local_size: 5
    alpha: 0.0001
    beta: 0.75
  }
}
layer {
  name: "conv2/3x3_reduce"
  type: "Convolution"
  bottom: "pool1/norm1"
  top: "conv2/3x3_reduce"
  param {
    lr_mult: 1
    decay_mult: 1
  }
  param {
    lr_mult: 2
    decay_mult: 0
  }
  convolution_param {
    num_output: 64
    kernel_size: 1
    weight_filler {
      type: "xavier"
      std: 0.1
    }
    bias_filler {
      type: "constant"
      value: 0.2
    }
  }
}
layer {
  name: "conv2/relu_3x3_reduce"
  type: "ReLU"
  bottom: "conv2/3x3_reduce"
  top: "conv2/3x3_reduce"
}
layer {
  name: "conv2/3x3"
  type: "Convolution"
  bottom: "conv2/3x3_reduce"
  top: "conv2/3x3"
  param {
    lr_mult: 1
    decay_mult: 1
  }
  param {
    lr_mult: 2
    decay_mult: 0
  }
  convolution_param {
    num_output: 192
    pad: 1
    kernel_size: 3
    weight_filler {
      type: "xavier"
      std: 0.03
    }
    bias_filler {
      type: "constant"
      value: 0.2
    }
  }
}
layer {
  name: "conv2/relu_3x3"
  type: "ReLU"
  bottom: "conv2/3x3"
  top: "conv2/3x3"
}
layer {
  name: "conv2/norm2"
  type: "LRN"
  bottom: "conv2/3x3"
  top: "conv2/norm2"
  lrn_param {
    local_size: 5
    alpha: 0.0001
    beta: 0.75
  }
}
layer {
  name: "pool2/3x3_s2"
  type: "Pooling"
  bottom: "conv2/norm2"
  top: "pool2/3x3_s2"
  pooling_param {
    pool: MAX
    kernel_size: 3
    stride: 2
  }
}
layer {
  name: "inception_3a/1x1"
  type: "Convolution"
  bottom: "pool2/3x3_s2"
  top: "inception_3a/1x1"
  param {
    lr_mult: 1
    decay_mult: 1
  }
  param {
    lr_mult: 2
    decay_mult: 0
  }
  convolution_param {
    num_output: 64
    kernel_size: 1
    weight_filler {
      type: "xavier"
      std: 0.03
    }
    bias_filler {
      type: "constant"
      value: 0.2
    }
  }
}
layer {
  name: "inception_3a/relu_1x1"
  type: "ReLU"
  bottom: "inception_3a/1x1"
  top: "inception_3a/1x1"
}
layer {
  name: "inception_3a/3x3_reduce"
  type: "Convolution"
  bottom: "pool2/3x3_s2"
  top: "inception_3a/3x3_reduce"
  param {
    lr_mult: 1
    decay_mult: 1
  }
  param {
    lr_mult: 2
    decay_mult: 0
  }
  convolution_param {
    num_output: 96
    kernel_size: 1
    weight_filler {
      type: "xavier"
      std: 0.09
    }
    bias_filler {
      type: "constant"
      value: 0.2
    }
  }
}
layer {
  name: "inception_3a/relu_3x3_reduce"
  type: "ReLU"
  bottom: "inception_3a/3x3_reduce"
  top: "inception_3a/3x3_reduce"
}
layer {
  name: "inception_3a/3x3"
  type: "Convolution"
  bottom: "inception_3a/3x3_reduce"
  top: "inception_3a/3x3"
  param {
    lr_mult: 1
    decay_mult: 1
  }
  param {
    lr_mult: 2
    decay_mult: 0
  }
  convolution_param {
    num_output: 128
    pad: 1
    kernel_size: 3
    weight_filler {
      type: "xavier"
      std: 0.03
    }
    bias_filler {
      type: "constant"
      value: 0.2
    }
  }
}
layer {
  name: "inception_3a/relu_3x3"
  type: "ReLU"
  bottom: "inception_3a/3x3"
  top: "inception_3a/3x3"
}
layer {
  name: "inception_3a/5x5_reduce"
  type: "Convolution"
  bottom: "pool2/3x3_s2"
  top: "inception_3a/5x5_reduce"
  param {
    lr_mult: 1
    decay_mult: 1
  }
  param {
    lr_mult: 2
    decay_mult: 0
  }
  convolution_param {
    num_output: 16
    kernel_size: 1
    weight_filler {
      type: "xavier"
      std: 0.2
    }
    bias_filler {
      type: "constant"
      value: 0.2
    }
  }
}
layer {
  name: "inception_3a/relu_5x5_reduce"
  type: "ReLU"
  bottom: "inception_3a/5x5_reduce"
  top: "inception_3a/5x5_reduce"
}
layer {
  name: "inception_3a/5x5"
  type: "Convolution"
  bottom: "inception_3a/5x5_reduce"
  top: "inception_3a/5x5"
  param {
    lr_mult: 1
    decay_mult: 1
  }
  param {
    lr_mult: 2
    decay_mult: 0
  }
  convolution_param {
    num_output: 32
    pad: 2
    kernel_size: 5
    weight_filler {
      type: "xavier"
      std: 0.03
    }
    bias_filler {
      type: "constant"
      value: 0.2
    }
  }
}
layer {
  name: "inception_3a/relu_5x5"
  type: "ReLU"
  bottom: "inception_3a/5x5"
  top: "inception_3a/5x5"
}
layer {
  name: "inception_3a/pool"
  type: "Pooling"
  bottom: "pool2/3x3_s2"
  top: "inception_3a/pool"
  pooling_param {
    pool: MAX
    kernel_size: 3
    stride: 1
    pad: 1
  }
}
layer {
  name: "inception_3a/pool_proj"
  type: "Convolution"
  bottom: "inception_3a/pool"
  top: "inception_3a/pool_proj"
  param {
    lr_mult: 1
    decay_mult: 1
  }
  param {
    lr_mult: 2
    decay_mult: 0
  }
  convolution_param {
    num_output: 32
    kernel_size: 1
    weight_filler {
      type: "xavier"
      std: 0.1
    }
    bias_filler {
      type: "constant"
      value: 0.2
    }
  }
}
layer {
  name: "inception_3a/relu_pool_proj"
  type: "ReLU"
  bottom: "inception_3a/pool_proj"
  top: "inception_3a/pool_proj"
}
layer {
  name: "inception_3a/output"
  type: "Concat"
  bottom: "inception_3a/1x1"
  bottom: "inception_3a/3x3"
  bottom: "inception_3a/5x5"
  bottom: "inception_3a/pool_proj"
  top: "inception_3a/output"
}
layer {
  name: "inception_3b/1x1"
  type: "Convolution"
  bottom: "inception_3a/output"
  top: "inception_3b/1x1"
  param {
    lr_mult: 1
    decay_mult: 1
  }
  param {
    lr_mult: 2
    decay_mult: 0
  }
  convolution_param {
    num_output: 128
    kernel_size: 1
    weight_filler {
      type: "xavier"
      std: 0.03
    }
    bias_filler {
      type: "constant"
      value: 0.2
    }
  }
}
layer {
  name: "inception_3b/relu_1x1"
  type: "ReLU"
  bottom: "inception_3b/1x1"
  top: "inception_3b/1x1"
}
layer {
  name: "inception_3b/3x3_reduce"
  type: "Convolution"
  bottom: "inception_3a/output"
  top: "inception_3b/3x3_reduce"
  param {
    lr_mult: 1
    decay_mult: 1
  }
  param {
    lr_mult: 2
    decay_mult: 0
  }
  convolution_param {
    num_output: 128
    kernel_size: 1
    weight_filler {
      type: "xavier"
      std: 0.09
    }
    bias_filler {
      type: "constant"
      value: 0.2
    }
  }
}
layer {
  name: "inception_3b/relu_3x3_reduce"
  type: "ReLU"
  bottom: "inception_3b/3x3_reduce"
  top: "inception_3b/3x3_reduce"
}
layer {
  name: "inception_3b/3x3"
  type: "Convolution"
  bottom: "inception_3b/3x3_reduce"
  top: "inception_3b/3x3"
  param {
    lr_mult: 1
    decay_mult: 1
  }
  param {
    lr_mult: 2
    decay_mult: 0
  }
  convolution_param {
    num_output: 192
    pad: 1
    kernel_size: 3
    weight_filler {
      type: "xavier"
      std: 0.03
    }
    bias_filler {
      type: "constant"
      value: 0.2
    }
  }
}
layer {
  name: "inception_3b/relu_3x3"
  type: "ReLU"
  bottom: "inception_3b/3x3"
  top: "inception_3b/3x3"
}
layer {
  name: "inception_3b/5x5_reduce"
  type: "Convolution"
  bottom: "inception_3a/output"
  top: "inception_3b/5x5_reduce"
  param {
    lr_mult: 1
    decay_mult: 1
  }
  param {
    lr_mult: 2
    decay_mult: 0
  }
  convolution_param {
    num_output: 32
    kernel_size: 1
    weight_filler {
      type: "xavier"
      std: 0.2
    }
    bias_filler {
      type: "constant"
      value: 0.2
    }
  }
}
layer {
  name: "inception_3b/relu_5x5_reduce"
  type: "ReLU"
  bottom: "inception_3b/5x5_reduce"
  top: "inception_3b/5x5_reduce"
}
layer {
  name: "inception_3b/5x5"
  type: "Convolution"
  bottom: "inception_3b/5x5_reduce"
  top: "inception_3b/5x5"
  param {
    lr_mult: 1
    decay_mult: 1
  }
  param {
    lr_mult: 2
    decay_mult: 0
  }
  convolution_param {
    num_output: 96
    pad: 2
    kernel_size: 5
    weight_filler {
      type: "xavier"
      std: 0.03
    }
    bias_filler {
      type: "constant"
      value: 0.2
    }
  }
}
layer {
  name: "inception_3b/relu_5x5"
  type: "ReLU"
  bottom: "inception_3b/5x5"
  top: "inception_3b/5x5"
}
layer {
  name: "inception_3b/pool"
  type: "Pooling"
  bottom: "inception_3a/output"
  top: "inception_3b/pool"
  pooling_param {
    pool: MAX
    kernel_size: 3
    stride: 1
    pad: 1
  }
}
layer {
  name: "inception_3b/pool_proj"
  type: "Convolution"
  bottom: "inception_3b/pool"
  top: "inception_3b/pool_proj"
  param {
    lr_mult: 1
    decay_mult: 1
  }
  param {
    lr_mult: 2
    decay_mult: 0
  }
  convolution_param {
    num_output: 64
    kernel_size: 1
    weight_filler {
      type: "xavier"
      std: 0.1
    }
    bias_filler {
      type: "constant"
      value: 0.2
    }
  }
}
layer {
  name: "inception_3b/relu_pool_proj"
  type: "ReLU"
  bottom: "inception_3b/pool_proj"
  top: "inception_3b/pool_proj"
}
layer {
  name: "inception_3b/output"
  type: "Concat"
  bottom: "inception_3b/1x1"
  bottom: "inception_3b/3x3"
  bottom: "inception_3b/5x5"
  bottom: "inception_3b/pool_proj"
  top: "inception_3b/output"
}
layer {
  name: "pool3/3x3_s2"
  type: "Pooling"
  bottom: "inception_3b/output"
  top: "pool3/3x3_s2"
  pooling_param {
    pool: MAX
    kernel_size: 3
    stride: 2
  }
}
layer {
  name: "inception_4a/1x1"
  type: "Convolution"
  bottom: "pool3/3x3_s2"
  top: "inception_4a/1x1"
  param {
    lr_mult: 1
    decay_mult: 1
  }
  param {
    lr_mult: 2
    decay_mult: 0
  }
  convolution_param {
    num_output: 192
    kernel_size: 1
    weight_filler {
      type: "xavier"
      std: 0.03
    }
    bias_filler {
      type: "constant"
      value: 0.2
    }
  }
}
layer {
  name: "inception_4a/relu_1x1"
  type: "ReLU"
  bottom: "inception_4a/1x1"
  top: "inception_4a/1x1"
}
layer {
  name: "inception_4a/3x3_reduce"
  type: "Convolution"
  bottom: "pool3/3x3_s2"
  top: "inception_4a/3x3_reduce"
  param {
    lr_mult: 1
    decay_mult: 1
  }
  param {
    lr_mult: 2
    decay_mult: 0
  }
  convolution_param {
    num_output: 96
    kernel_size: 1
    weight_filler {
      type: "xavier"
      std: 0.09
    }
    bias_filler {
      type: "constant"
      value: 0.2
    }
  }
}
layer {
  name: "inception_4a/relu_3x3_reduce"
  type: "ReLU"
  bottom: "inception_4a/3x3_reduce"
  top: "inception_4a/3x3_reduce"
}
layer {
  name: "inception_4a/3x3"
  type: "Convolution"
  bottom: "inception_4a/3x3_reduce"
  top: "inception_4a/3x3"
  param {
    lr_mult: 1
    decay_mult: 1
  }
  param {
    lr_mult: 2
    decay_mult: 0
  }
  convolution_param {
    num_output: 208
    pad: 1
    kernel_size: 3
    weight_filler {
      type: "xavier"
      std: 0.03
    }
    bias_filler {
      type: "constant"
      value: 0.2
    }
  }
}
layer {
  name: "inception_4a/relu_3x3"
  type: "ReLU"
  bottom: "inception_4a/3x3"
  top: "inception_4a/3x3"
}
layer {
  name: "inception_4a/5x5_reduce"
  type: "Convolution"
  bottom: "pool3/3x3_s2"
  top: "inception_4a/5x5_reduce"
  param {
    lr_mult: 1
    decay_mult: 1
  }
  param {
    lr_mult: 2
    decay_mult: 0
  }
  convolution_param {
    num_output: 16
    kernel_size: 1
    weight_filler {
      type: "xavier"
      std: 0.2
    }
    bias_filler {
      type: "constant"
      value: 0.2
    }
  }
}
layer {
  name: "inception_4a/relu_5x5_reduce"
  type: "ReLU"
  bottom: "inception_4a/5x5_reduce"
  top: "inception_4a/5x5_reduce"
}
layer {
  name: "inception_4a/5x5"
  type: "Convolution"
  bottom: "inception_4a/5x5_reduce"
  top: "inception_4a/5x5"
  param {
    lr_mult: 1
    decay_mult: 1
  }
  param {
    lr_mult: 2
    decay_mult: 0
  }
  convolution_param {
    num_output: 48
    pad: 2
    kernel_size: 5
    weight_filler {
      type: "xavier"
      std: 0.03
    }
    bias_filler {
      type: "constant"
      value: 0.2
    }
  }
}
layer {
  name: "inception_4a/relu_5x5"
  type: "ReLU"
  bottom: "inception_4a/5x5"
  top: "inception_4a/5x5"
}
layer {
  name: "inception_4a/pool"
  type: "Pooling"
  bottom: "pool3/3x3_s2"
  top: "inception_4a/pool"
  pooling_param {
    pool: MAX
    kernel_size: 3
    stride: 1
    pad: 1
  }
}
layer {
  name: "inception_4a/pool_proj"
  type: "Convolution"
  bottom: "inception_4a/pool"
  top: "inception_4a/pool_proj"
  param {
    lr_mult: 1
    decay_mult: 1
  }
  param {
    lr_mult: 2
    decay_mult: 0
  }
  convolution_param {
    num_output: 64
    kernel_size: 1
    weight_filler {
      type: "xavier"
      std: 0.1
    }
    bias_filler {
      type: "constant"
      value: 0.2
    }
  }
}
layer {
  name: "inception_4a/relu_pool_proj"
  type: "ReLU"
  bottom: "inception_4a/pool_proj"
  top: "inception_4a/pool_proj"
}
layer {
  name: "inception_4a/output"
  type: "Concat"
  bottom: "inception_4a/1x1"
  bottom: "inception_4a/3x3"
  bottom: "inception_4a/5x5"
  bottom: "inception_4a/pool_proj"
  top: "inception_4a/output"
}
layer {
  name: "loss1/ave_pool"
  type: "Pooling"
  bottom: "inception_4a/output"
  top: "loss1/ave_pool"
  pooling_param {
    pool: AVE
    kernel_size: 5
    stride: 3
  }
}
layer {
  name: "loss1/conv"
  type: "Convolution"
  bottom: "loss1/ave_pool"
  top: "loss1/conv"
  param {
    lr_mult: 1
    decay_mult: 1
  }
  param {
    lr_mult: 2
    decay_mult: 0
  }
  convolution_param {
    num_output: 128
    kernel_size: 1
    weight_filler {
      type: "xavier"
      std: 0.08
    }
    bias_filler {
      type: "constant"
      value: 0.2
    }
  }
}
layer {
  name: "loss1/relu_conv"
  type: "ReLU"
  bottom: "loss1/conv"
  top: "loss1/conv"
}
layer {
  name: "loss1/fc"
  type: "InnerProduct"
  bottom: "loss1/conv"
  top: "loss1/fc"
  param {
    lr_mult: 1
    decay_mult: 1
  }
  param {
    lr_mult: 2
    decay_mult: 0
  }
  inner_product_param {
    num_output: 1024
    weight_filler {
      type: "xavier"
      std: 0.02
    }
    bias_filler {
      type: "constant"
      value: 0.2
    }
  }
}
layer {
  name: "loss1/relu_fc"
  type: "ReLU"
  bottom: "loss1/fc"
  top: "loss1/fc"
}
layer {
  name: "loss1/drop_fc"
  type: "Dropout"
  bottom: "loss1/fc"
  top: "loss1/fc"
  dropout_param {
    dropout_ratio: 0.7
  }
}
layer {
  name: "loss1/classifier"
  type: "InnerProduct"
  bottom: "loss1/fc"
  top: "loss1/classifier"
  param {
    lr_mult: 1
    decay_mult: 1
  }
  param {
    lr_mult: 2
    decay_mult: 0
  }
  inner_product_param {
    num_output: 2
    weight_filler {
      type: "xavier"
      std: 0.0009765625
    }
    bias_filler {
      type: "constant"
      value: 0
    }
  }
}
layer {
  name: "loss1/loss"
  type: "SoftmaxWithLoss"
  bottom: "loss1/classifier"
  bottom: "label"
  top: "loss1/loss1"
  loss_weight: 0.3
}
layer {
  name: "loss1/top-1"
  type: "Accuracy"
  bottom: "loss1/classifier"
  bottom: "label"
  top: "loss1/top-1"
  include {
    phase: TEST
  }
}
layer {
  name: "inception_4b/1x1"
  type: "Convolution"
  bottom: "inception_4a/output"
  top: "inception_4b/1x1"
  param {
    lr_mult: 1
    decay_mult: 1
  }
  param {
    lr_mult: 2
    decay_mult: 0
  }
  convolution_param {
    num_output: 160
    kernel_size: 1
    weight_filler {
      type: "xavier"
      std: 0.03
    }
    bias_filler {
      type: "constant"
      value: 0.2
    }
  }
}
layer {
  name: "inception_4b/relu_1x1"
  type: "ReLU"
  bottom: "inception_4b/1x1"
  top: "inception_4b/1x1"
}
layer {
  name: "inception_4b/3x3_reduce"
  type: "Convolution"
  bottom: "inception_4a/output"
  top: "inception_4b/3x3_reduce"
  param {
    lr_mult: 1
    decay_mult: 1
  }
  param {
    lr_mult: 2
    decay_mult: 0
  }
  convolution_param {
    num_output: 112
    kernel_size: 1
    weight_filler {
      type: "xavier"
      std: 0.09
    }
    bias_filler {
      type: "constant"
      value: 0.2
    }
  }
}
layer {
  name: "inception_4b/relu_3x3_reduce"
  type: "ReLU"
  bottom: "inception_4b/3x3_reduce"
  top: "inception_4b/3x3_reduce"
}
layer {
  name: "inception_4b/3x3"
  type: "Convolution"
  bottom: "inception_4b/3x3_reduce"
  top: "inception_4b/3x3"
  param {
    lr_mult: 1
    decay_mult: 1
  }
  param {
    lr_mult: 2
    decay_mult: 0
  }
  convolution_param {
    num_output: 224
    pad: 1
    kernel_size: 3
    weight_filler {
      type: "xavier"
      std: 0.03
    }
    bias_filler {
      type: "constant"
      value: 0.2
    }
  }
}
layer {
  name: "inception_4b/relu_3x3"
  type: "ReLU"
  bottom: "inception_4b/3x3"
  top: "inception_4b/3x3"
}
layer {
  name: "inception_4b/5x5_reduce"
  type: "Convolution"
  bottom: "inception_4a/output"
  top: "inception_4b/5x5_reduce"
  param {
    lr_mult: 1
    decay_mult: 1
  }
  param {
    lr_mult: 2
    decay_mult: 0
  }
  convolution_param {
    num_output: 24
    kernel_size: 1
    weight_filler {
      type: "xavier"
      std: 0.2
    }
    bias_filler {
      type: "constant"
      value: 0.2
    }
  }
}
layer {
  name: "inception_4b/relu_5x5_reduce"
  type: "ReLU"
  bottom: "inception_4b/5x5_reduce"
  top: "inception_4b/5x5_reduce"
}
layer {
  name: "inception_4b/5x5"
  type: "Convolution"
  bottom: "inception_4b/5x5_reduce"
  top: "inception_4b/5x5"
  param {
    lr_mult: 1
    decay_mult: 1
  }
  param {
    lr_mult: 2
    decay_mult: 0
  }
  convolution_param {
    num_output: 64
    pad: 2
    kernel_size: 5
    weight_filler {
      type: "xavier"
      std: 0.03
    }
    bias_filler {
      type: "constant"
      value: 0.2
    }
  }
}
layer {
  name: "inception_4b/relu_5x5"
  type: "ReLU"
  bottom: "inception_4b/5x5"
  top: "inception_4b/5x5"
}
layer {
  name: "inception_4b/pool"
  type: "Pooling"
  bottom: "inception_4a/output"
  top: "inception_4b/pool"
  pooling_param {
    pool: MAX
    kernel_size: 3
    stride: 1
    pad: 1
  }
}
layer {
  name: "inception_4b/pool_proj"
  type: "Convolution"
  bottom: "inception_4b/pool"
  top: "inception_4b/pool_proj"
  param {
    lr_mult: 1
    decay_mult: 1
  }
  param {
    lr_mult: 2
    decay_mult: 0
  }
  convolution_param {
    num_output: 64
    kernel_size: 1
    weight_filler {
      type: "xavier"
      std: 0.1
    }
    bias_filler {
      type: "constant"
      value: 0.2
    }
  }
}
layer {
  name: "inception_4b/relu_pool_proj"
  type: "ReLU"
  bottom: "inception_4b/pool_proj"
  top: "inception_4b/pool_proj"
}
layer {
  name: "inception_4b/output"
  type: "Concat"
  bottom: "inception_4b/1x1"
  bottom: "inception_4b/3x3"
  bottom: "inception_4b/5x5"
  bottom: "inception_4b/pool_proj"
  top: "inception_4b/output"
}
layer {
  name: "inception_4c/1x1"
  type: "Convolution"
  bottom: "inception_4b/output"
  top: "inception_4c/1x1"
  param {
    lr_mult: 1
    decay_mult: 1
  }
  param {
    lr_mult: 2
    decay_mult: 0
  }
  convolution_param {
    num_output: 128
    kernel_size: 1
    weight_filler {
      type: "xavier"
      std: 0.03
    }
    bias_filler {
      type: "constant"
      value: 0.2
    }
  }
}
layer {
  name: "inception_4c/relu_1x1"
  type: "ReLU"
  bottom: "inception_4c/1x1"
  top: "inception_4c/1x1"
}
layer {
  name: "inception_4c/3x3_reduce"
  type: "Convolution"
  bottom: "inception_4b/output"
  top: "inception_4c/3x3_reduce"
  param {
    lr_mult: 1
    decay_mult: 1
  }
  param {
    lr_mult: 2
    decay_mult: 0
  }
  convolution_param {
    num_output: 128
    kernel_size: 1
    weight_filler {
      type: "xavier"
      std: 0.09
    }
    bias_filler {
      type: "constant"
      value: 0.2
    }
  }
}
layer {
  name: "inception_4c/relu_3x3_reduce"
  type: "ReLU"
  bottom: "inception_4c/3x3_reduce"
  top: "inception_4c/3x3_reduce"
}
layer {
  name: "inception_4c/3x3"
  type: "Convolution"
  bottom: "inception_4c/3x3_reduce"
  top: "inception_4c/3x3"
  param {
    lr_mult: 1
    decay_mult: 1
  }
  param {
    lr_mult: 2
    decay_mult: 0
  }
  convolution_param {
    num_output: 256
    pad: 1
    kernel_size: 3
    weight_filler {
      type: "xavier"
      std: 0.03
    }
    bias_filler {
      type: "constant"
      value: 0.2
    }
  }
}
layer {
  name: "inception_4c/relu_3x3"
  type: "ReLU"
  bottom: "inception_4c/3x3"
  top: "inception_4c/3x3"
}
layer {
  name: "inception_4c/5x5_reduce"
  type: "Convolution"
  bottom: "inception_4b/output"
  top: "inception_4c/5x5_reduce"
  param {
    lr_mult: 1
    decay_mult: 1
  }
  param {
    lr_mult: 2
    decay_mult: 0
  }
  convolution_param {
    num_output: 24
    kernel_size: 1
    weight_filler {
      type: "xavier"
      std: 0.2
    }
    bias_filler {
      type: "constant"
      value: 0.2
    }
  }
}
layer {
  name: "inception_4c/relu_5x5_reduce"
  type: "ReLU"
  bottom: "inception_4c/5x5_reduce"
  top: "inception_4c/5x5_reduce"
}
layer {
  name: "inception_4c/5x5"
  type: "Convolution"
  bottom: "inception_4c/5x5_reduce"
  top: "inception_4c/5x5"
  param {
    lr_mult: 1
    decay_mult: 1
  }
  param {
    lr_mult: 2
    decay_mult: 0
  }
  convolution_param {
    num_output: 64
    pad: 2
    kernel_size: 5
    weight_filler {
      type: "xavier"
      std: 0.03
    }
    bias_filler {
      type: "constant"
      value: 0.2
    }
  }
}
layer {
  name: "inception_4c/relu_5x5"
  type: "ReLU"
  bottom: "inception_4c/5x5"
  top: "inception_4c/5x5"
}
layer {
  name: "inception_4c/pool"
  type: "Pooling"
  bottom: "inception_4b/output"
  top: "inception_4c/pool"
  pooling_param {
    pool: MAX
    kernel_size: 3
    stride: 1
    pad: 1
  }
}
layer {
  name: "inception_4c/pool_proj"
  type: "Convolution"
  bottom: "inception_4c/pool"
  top: "inception_4c/pool_proj"
  param {
    lr_mult: 1
    decay_mult: 1
  }
  param {
    lr_mult: 2
    decay_mult: 0
  }
  convolution_param {
    num_output: 64
    kernel_size: 1
    weight_filler {
      type: "xavier"
      std: 0.1
    }
    bias_filler {
      type: "constant"
      value: 0.2
    }
  }
}
layer {
  name: "inception_4c/relu_pool_proj"
  type: "ReLU"
  bottom: "inception_4c/pool_proj"
  top: "inception_4c/pool_proj"
}
layer {
  name: "inception_4c/output"
  type: "Concat"
  bottom: "inception_4c/1x1"
  bottom: "inception_4c/3x3"
  bottom: "inception_4c/5x5"
  bottom: "inception_4c/pool_proj"
  top: "inception_4c/output"
}
layer {
  name: "inception_4d/1x1"
  type: "Convolution"
  bottom: "inception_4c/output"
  top: "inception_4d/1x1"
  param {
    lr_mult: 1
    decay_mult: 1
  }
  param {
    lr_mult: 2
    decay_mult: 0
  }
  convolution_param {
    num_output: 112
    kernel_size: 1
    weight_filler {
      type: "xavier"
      std: 0.03
    }
    bias_filler {
      type: "constant"
      value: 0.2
    }
  }
}
layer {
  name: "inception_4d/relu_1x1"
  type: "ReLU"
  bottom: "inception_4d/1x1"
  top: "inception_4d/1x1"
}
layer {
  name: "inception_4d/3x3_reduce"
  type: "Convolution"
  bottom: "inception_4c/output"
  top: "inception_4d/3x3_reduce"
  param {
    lr_mult: 1
    decay_mult: 1
  }
  param {
    lr_mult: 2
    decay_mult: 0
  }
  convolution_param {
    num_output: 144
    kernel_size: 1
    weight_filler {
      type: "xavier"
      std: 0.09
    }
    bias_filler {
      type: "constant"
      value: 0.2
    }
  }
}
layer {
  name: "inception_4d/relu_3x3_reduce"
  type: "ReLU"
  bottom: "inception_4d/3x3_reduce"
  top: "inception_4d/3x3_reduce"
}
layer {
  name: "inception_4d/3x3"
  type: "Convolution"
  bottom: "inception_4d/3x3_reduce"
  top: "inception_4d/3x3"
  param {
    lr_mult: 1
    decay_mult: 1
  }
  param {
    lr_mult: 2
    decay_mult: 0
  }
  convolution_param {
    num_output: 288
    pad: 1
    kernel_size: 3
    weight_filler {
      type: "xavier"
      std: 0.03
    }
    bias_filler {
      type: "constant"
      value: 0.2
    }
  }
}
layer {
  name: "inception_4d/relu_3x3"
  type: "ReLU"
  bottom: "inception_4d/3x3"
  top: "inception_4d/3x3"
}
layer {
  name: "inception_4d/5x5_reduce"
  type: "Convolution"
  bottom: "inception_4c/output"
  top: "inception_4d/5x5_reduce"
  param {
    lr_mult: 1
    decay_mult: 1
  }
  param {
    lr_mult: 2
    decay_mult: 0
  }
  convolution_param {
    num_output: 32
    kernel_size: 1
    weight_filler {
      type: "xavier"
      std: 0.2
    }
    bias_filler {
      type: "constant"
      value: 0.2
    }
  }
}
layer {
  name: "inception_4d/relu_5x5_reduce"
  type: "ReLU"
  bottom: "inception_4d/5x5_reduce"
  top: "inception_4d/5x5_reduce"
}
layer {
  name: "inception_4d/5x5"
  type: "Convolution"
  bottom: "inception_4d/5x5_reduce"
  top: "inception_4d/5x5"
  param {
    lr_mult: 1
    decay_mult: 1
  }
  param {
    lr_mult: 2
    decay_mult: 0
  }
  convolution_param {
    num_output: 64
    pad: 2
    kernel_size: 5
    weight_filler {
      type: "xavier"
      std: 0.03
    }
    bias_filler {
      type: "constant"
      value: 0.2
    }
  }
}
layer {
  name: "inception_4d/relu_5x5"
  type: "ReLU"
  bottom: "inception_4d/5x5"
  top: "inception_4d/5x5"
}
layer {
  name: "inception_4d/pool"
  type: "Pooling"
  bottom: "inception_4c/output"
  top: "inception_4d/pool"
  pooling_param {
    pool: MAX
    kernel_size: 3
    stride: 1
    pad: 1
  }
}
layer {
  name: "inception_4d/pool_proj"
  type: "Convolution"
  bottom: "inception_4d/pool"
  top: "inception_4d/pool_proj"
  param {
    lr_mult: 1
    decay_mult: 1
  }
  param {
    lr_mult: 2
    decay_mult: 0
  }
  convolution_param {
    num_output: 64
    kernel_size: 1
    weight_filler {
      type: "xavier"
      std: 0.1
    }
    bias_filler {
      type: "constant"
      value: 0.2
    }
  }
}
layer {
  name: "inception_4d/relu_pool_proj"
  type: "ReLU"
  bottom: "inception_4d/pool_proj"
  top: "inception_4d/pool_proj"
}
layer {
  name: "inception_4d/output"
  type: "Concat"
  bottom: "inception_4d/1x1"
  bottom: "inception_4d/3x3"
  bottom: "inception_4d/5x5"
  bottom: "inception_4d/pool_proj"
  top: "inception_4d/output"
}
layer {
  name: "loss2/ave_pool"
  type: "Pooling"
  bottom: "inception_4d/output"
  top: "loss2/ave_pool"
  pooling_param {
    pool: AVE
    kernel_size: 5
    stride: 3
  }
}
layer {
  name: "loss2/conv"
  type: "Convolution"
  bottom: "loss2/ave_pool"
  top: "loss2/conv"
  param {
    lr_mult: 1
    decay_mult: 1
  }
  param {
    lr_mult: 2
    decay_mult: 0
  }
  convolution_param {
    num_output: 128
    kernel_size: 1
    weight_filler {
      type: "xavier"
      std: 0.08
    }
    bias_filler {
      type: "constant"
      value: 0.2
    }
  }
}
layer {
  name: "loss2/relu_conv"
  type: "ReLU"
  bottom: "loss2/conv"
  top: "loss2/conv"
}
layer {
  name: "loss2/fc"
  type: "InnerProduct"
…
I0511 03:05:01.071759 19438 net.cpp:112] Top shape: 32 128 14 14 (802816)
I0511 03:05:01.071775 19438 layer_factory.hpp:74] Creating layer inception_4c/relu_1x1
I0511 03:05:01.071784 19438 net.cpp:76] Creating Layer inception_4c/relu_1x1
I0511 03:05:01.071790 19438 net.cpp:372] inception_4c/relu_1x1 <- inception_4c/1x1
I0511 03:05:01.071797 19438 net.cpp:323] inception_4c/relu_1x1 -> inception_4c/1x1 (in-place)
I0511 03:05:01.071806 19438 net.cpp:105] Setting up inception_4c/relu_1x1
I0511 03:05:01.071812 19438 net.cpp:112] Top shape: 32 128 14 14 (802816)
I0511 03:05:01.071835 19438 layer_factory.hpp:74] Creating layer inception_4c/3x3_reduce
I0511 03:05:01.071846 19438 net.cpp:76] Creating Layer inception_4c/3x3_reduce
I0511 03:05:01.072566 19438 net.cpp:372] inception_4c/3x3_reduce <- inception_4b/output_inception_4b/output_0_split_1
I0511 03:05:01.072584 19438 net.cpp:334] inception_4c/3x3_reduce -> inception_4c/3x3_reduce
I0511 03:05:01.072595 19438 net.cpp:105] Setting up inception_4c/3x3_reduce
I0511 03:05:01.073151 19438 net.cpp:112] Top shape: 32 128 14 14 (802816)
I0511 03:05:01.073166 19438 layer_factory.hpp:74] Creating layer inception_4c/relu_3x3_reduce
I0511 03:05:01.073174 19438 net.cpp:76] Creating Layer inception_4c/relu_3x3_reduce
I0511 03:05:01.073179 19438 net.cpp:372] inception_4c/relu_3x3_reduce <- inception_4c/3x3_reduce
I0511 03:05:01.073189 19438 net.cpp:323] inception_4c/relu_3x3_reduce -> inception_4c/3x3_reduce (in-place)
I0511 03:05:01.073197 19438 net.cpp:105] Setting up inception_4c/relu_3x3_reduce
I0511 03:05:01.073202 19438 net.cpp:112] Top shape: 32 128 14 14 (802816)
I0511 03:05:01.073209 19438 layer_factory.hpp:74] Creating layer inception_4c/3x3
I0511 03:05:01.073216 19438 net.cpp:76] Creating Layer inception_4c/3x3
I0511 03:05:01.073221 19438 net.cpp:372] inception_4c/3x3 <- inception_4c/3x3_reduce
I0511 03:05:01.073231 19438 net.cpp:334] inception_4c/3x3 -> inception_4c/3x3
I0511 03:05:01.073240 19438 net.cpp:105] Setting up inception_4c/3x3
I0511 03:05:01.075714 19438 net.cpp:112] Top shape: 32 256 14 14 (1605632)
I0511 03:05:01.075747 19438 layer_factory.hpp:74] Creating layer inception_4c/relu_3x3
I0511 03:05:01.075758 19438 net.cpp:76] Creating Layer inception_4c/relu_3x3
I0511 03:05:01.075765 19438 net.cpp:372] inception_4c/relu_3x3 <- inception_4c/3x3
I0511 03:05:01.075773 19438 net.cpp:323] inception_4c/relu_3x3 -> inception_4c/3x3 (in-place)
I0511 03:05:01.075783 19438 net.cpp:105] Setting up inception_4c/relu_3x3
I0511 03:05:01.075788 19438 net.cpp:112] Top shape: 32 256 14 14 (1605632)
I0511 03:05:01.075793 19438 layer_factory.hpp:74] Creating layer inception_4c/5x5_reduce
I0511 03:05:01.075803 19438 net.cpp:76] Creating Layer inception_4c/5x5_reduce
I0511 03:05:01.075809 19438 net.cpp:372] inception_4c/5x5_reduce <- inception_4b/output_inception_4b/output_0_split_2
I0511 03:05:01.075819 19438 net.cpp:334] inception_4c/5x5_reduce -> inception_4c/5x5_reduce
I0511 03:05:01.075829 19438 net.cpp:105] Setting up inception_4c/5x5_reduce
I0511 03:05:01.075939 19438 net.cpp:112] Top shape: 32 24 14 14 (150528)
I0511 03:05:01.075949 19438 layer_factory.hpp:74] Creating layer inception_4c/relu_5x5_reduce
I0511 03:05:01.075959 19438 net.cpp:76] Creating Layer inception_4c/relu_5x5_reduce
I0511 03:05:01.075965 19438 net.cpp:372] inception_4c/relu_5x5_reduce <- inception_4c/5x5_reduce
I0511 03:05:01.075973 19438 net.cpp:323] inception_4c/relu_5x5_reduce -> inception_4c/5x5_reduce (in-place)
I0511 03:05:01.075979 19438 net.cpp:105] Setting up inception_4c/relu_5x5_reduce
I0511 03:05:01.075985 19438 net.cpp:112] Top shape: 32 24 14 14 (150528)
I0511 03:05:01.075990 19438 layer_factory.hpp:74] Creating layer inception_4c/5x5
I0511 03:05:01.076000 19438 net.cpp:76] Creating Layer inception_4c/5x5
I0511 03:05:01.076006 19438 net.cpp:372] inception_4c/5x5 <- inception_4c/5x5_reduce
I0511 03:05:01.076016 19438 net.cpp:334] inception_4c/5x5 -> inception_4c/5x5
I0511 03:05:01.076025 19438 net.cpp:105] Setting up inception_4c/5x5
I0511 03:05:01.076370 19438 net.cpp:112] Top shape: 32 64 14 14 (401408)
I0511 03:05:01.076382 19438 layer_factory.hpp:74] Creating layer inception_4c/relu_5x5
I0511 03:05:01.076390 19438 net.cpp:76] Creating Layer inception_4c/relu_5x5
I0511 03:05:01.076396 19438 net.cpp:372] inception_4c/relu_5x5 <- inception_4c/5x5
I0511 03:05:01.076403 19438 net.cpp:323] inception_4c/relu_5x5 -> inception_4c/5x5 (in-place)
I0511 03:05:01.076411 19438 net.cpp:105] Setting up inception_4c/relu_5x5
I0511 03:05:01.076416 19438 net.cpp:112] Top shape: 32 64 14 14 (401408)
I0511 03:05:01.076421 19438 layer_factory.hpp:74] Creating layer inception_4c/pool
I0511 03:05:01.076452 19438 net.cpp:76] Creating Layer inception_4c/pool
I0511 03:05:01.076459 19438 net.cpp:372] inception_4c/pool <- inception_4b/output_inception_4b/output_0_split_3
I0511 03:05:01.076467 19438 net.cpp:334] inception_4c/pool -> inception_4c/pool
I0511 03:05:01.076475 19438 net.cpp:105] Setting up inception_4c/pool
I0511 03:05:01.076483 19438 net.cpp:112] Top shape: 32 512 14 14 (3211264)
I0511 03:05:01.076489 19438 layer_factory.hpp:74] Creating layer inception_4c/pool_proj
I0511 03:05:01.076499 19438 net.cpp:76] Creating Layer inception_4c/pool_proj
I0511 03:05:01.076505 19438 net.cpp:372] inception_4c/pool_proj <- inception_4c/pool
I0511 03:05:01.076514 19438 net.cpp:334] inception_4c/pool_proj -> inception_4c/pool_proj
I0511 03:05:01.076522 19438 net.cpp:105] Setting up inception_4c/pool_proj
I0511 03:05:01.076812 19438 net.cpp:112] Top shape: 32 64 14 14 (401408)
I0511 03:05:01.076823 19438 layer_factory.hpp:74] Creating layer inception_4c/relu_pool_proj
I0511 03:05:01.076833 19438 net.cpp:76] Creating Layer inception_4c/relu_pool_proj
I0511 03:05:01.076839 19438 net.cpp:372] inception_4c/relu_pool_proj <- inception_4c/pool_proj
I0511 03:05:01.076848 19438 net.cpp:323] inception_4c/relu_pool_proj -> inception_4c/pool_proj (in-place)
I0511 03:05:01.076854 19438 net.cpp:105] Setting up inception_4c/relu_pool_proj
I0511 03:05:01.076859 19438 net.cpp:112] Top shape: 32 64 14 14 (401408)
I0511 03:05:01.076865 19438 layer_factory.hpp:74] Creating layer inception_4c/output
I0511 03:05:01.076872 19438 net.cpp:76] Creating Layer inception_4c/output
I0511 03:05:01.076879 19438 net.cpp:372] inception_4c/output <- inception_4c/1x1
I0511 03:05:01.076884 19438 net.cpp:372] inception_4c/output <- inception_4c/3x3
I0511 03:05:01.076890 19438 net.cpp:372] inception_4c/output <- inception_4c/5x5
I0511 03:05:01.076896 19438 net.cpp:372] inception_4c/output <- inception_4c/pool_proj
I0511 03:05:01.076905 19438 net.cpp:334] inception_4c/output -> inception_4c/output
I0511 03:05:01.076912 19438 net.cpp:105] Setting up inception_4c/output
I0511 03:05:01.076918 19438 net.cpp:112] Top shape: 32 512 14 14 (3211264)
I0511 03:05:01.076923 19438 layer_factory.hpp:74] Creating layer inception_4c/output_inception_4c/output_0_split
I0511 03:05:01.076933 19438 net.cpp:76] Creating Layer inception_4c/output_inception_4c/output_0_split
I0511 03:05:01.076939 19438 net.cpp:372] inception_4c/output_inception_4c/output_0_split <- inception_4c/output
I0511 03:05:01.076946 19438 net.cpp:334] inception_4c/output_inception_4c/output_0_split -> inception_4c/output_inception_4c/output_0_split_0
I0511 03:05:01.076956 19438 net.cpp:334] inception_4c/output_inception_4c/output_0_split -> inception_4c/output_inception_4c/output_0_split_1
I0511 03:05:01.076966 19438 net.cpp:334] inception_4c/output_inception_4c/output_0_split -> inception_4c/output_inception_4c/output_0_split_2
I0511 03:05:01.076978 19438 net.cpp:334] inception_4c/output_inception_4c/output_0_split -> inception_4c/output_inception_4c/output_0_split_3
I0511 03:05:01.076987 19438 net.cpp:105] Setting up inception_4c/output_inception_4c/output_0_split
I0511 03:05:01.076993 19438 net.cpp:112] Top shape: 32 512 14 14 (3211264)
I0511 03:05:01.076998 19438 net.cpp:112] Top shape: 32 512 14 14 (3211264)
I0511 03:05:01.077003 19438 net.cpp:112] Top shape: 32 512 14 14 (3211264)
I0511 03:05:01.077008 19438 net.cpp:112] Top shape: 32 512 14 14 (3211264)
I0511 03:05:01.077013 19438 layer_factory.hpp:74] Creating layer inception_4d/1x1
I0511 03:05:01.077021 19438 net.cpp:76] Creating Layer inception_4d/1x1
I0511 03:05:01.077026 19438 net.cpp:372] inception_4d/1x1 <- inception_4c/output_inception_4c/output_0_split_0
I0511 03:05:01.077038 19438 net.cpp:334] inception_4d/1x1 -> inception_4d/1x1
I0511 03:05:01.077045 19438 net.cpp:105] Setting up inception_4d/1x1
I0511 03:05:01.077540 19438 net.cpp:112] Top shape: 32 112 14 14 (702464)
I0511 03:05:01.077554 19438 layer_factory.hpp:74] Creating layer inception_4d/relu_1x1
I0511 03:05:01.077563 19438 net.cpp:76] Creating Layer inception_4d/relu_1x1
I0511 03:05:01.077600 19438 net.cpp:372] inception_4d/relu_1x1 <- inception_4d/1x1
I0511 03:05:01.077610 19438 net.cpp:323] inception_4d/relu_1x1 -> inception_4d/1x1 (in-place)
I0511 03:05:01.077617 19438 net.cpp:105] Setting up inception_4d/relu_1x1
I0511 03:05:01.077623 19438 net.cpp:112] Top shape: 32 112 14 14 (702464)
I0511 03:05:01.077628 19438 layer_factory.hpp:74] Creating layer inception_4d/3x3_reduce
I0511 03:05:01.077641 19438 net.cpp:76] Creating Layer inception_4d/3x3_reduce
I0511 03:05:01.077647 19438 net.cpp:372] inception_4d/3x3_reduce <- inception_4c/output_inception_4c/output_0_split_1
I0511 03:05:01.077656 19438 net.cpp:334] inception_4d/3x3_reduce -> inception_4d/3x3_reduce
I0511 03:05:01.077664 19438 net.cpp:105] Setting up inception_4d/3x3_reduce
I0511 03:05:01.078305 19438 net.cpp:112] Top shape: 32 144 14 14 (903168)
I0511 03:05:01.078320 19438 layer_factory.hpp:74] Creating layer inception_4d/relu_3x3_reduce
I0511 03:05:01.078330 19438 net.cpp:76] Creating Layer inception_4d/relu_3x3_reduce
I0511 03:05:01.078336 19438 net.cpp:372] inception_4d/relu_3x3_reduce <- inception_4d/3x3_reduce
I0511 03:05:01.078342 19438 net.cpp:323] inception_4d/relu_3x3_reduce -> inception_4d/3x3_reduce (in-place)
I0511 03:05:01.078351 19438 net.cpp:105] Setting up inception_4d/relu_3x3_reduce
I0511 03:05:01.078356 19438 net.cpp:112] Top shape: 32 144 14 14 (903168)
I0511 03:05:01.078361 19438 layer_factory.hpp:74] Creating layer inception_4d/3x3
I0511 03:05:01.078371 19438 net.cpp:76] Creating Layer inception_4d/3x3
I0511 03:05:01.078377 19438 net.cpp:372] inception_4d/3x3 <- inception_4d/3x3_reduce
I0511 03:05:01.078385 19438 net.cpp:334] inception_4d/3x3 -> inception_4d/3x3
I0511 03:05:01.078393 19438 net.cpp:105] Setting up inception_4d/3x3
I0511 03:05:01.081521 19438 net.cpp:112] Top shape: 32 288 14 14 (1806336)
I0511 03:05:01.081537 19438 layer_factory.hpp:74] Creating layer inception_4d/relu_3x3
I0511 03:05:01.081547 19438 net.cpp:76] Creating Layer inception_4d/relu_3x3
I0511 03:05:01.081553 19438 net.cpp:372] inception_4d/relu_3x3 <- inception_4d/3x3
I0511 03:05:01.081563 19438 net.cpp:323] inception_4d/relu_3x3 -> inception_4d/3x3 (in-place)
I0511 03:05:01.081571 19438 net.cpp:105] Setting up inception_4d/relu_3x3
I0511 03:05:01.081578 19438 net.cpp:112] Top shape: 32 288 14 14 (1806336)
I0511 03:05:01.081583 19438 layer_factory.hpp:74] Creating layer inception_4d/5x5_reduce
I0511 03:05:01.081591 19438 net.cpp:76] Creating Layer inception_4d/5x5_reduce
I0511 03:05:01.081596 19438 net.cpp:372] inception_4d/5x5_reduce <- inception_4c/output_inception_4c/output_0_split_2
I0511 03:05:01.081607 19438 net.cpp:334] inception_4d/5x5_reduce -> inception_4d/5x5_reduce
I0511 03:05:01.081616 19438 net.cpp:105] Setting up inception_4d/5x5_reduce
I0511 03:05:01.081760 19438 net.cpp:112] Top shape: 32 32 14 14 (200704)
I0511 03:05:01.081771 19438 layer_factory.hpp:74] Creating layer inception_4d/relu_5x5_reduce
I0511 03:05:01.081779 19438 net.cpp:76] Creating Layer inception_4d/relu_5x5_reduce
I0511 03:05:01.081784 19438 net.cpp:372] inception_4d/relu_5x5_reduce <- inception_4d/5x5_reduce
I0511 03:05:01.081791 19438 net.cpp:323] inception_4d/relu_5x5_reduce -> inception_4d/5x5_reduce (in-place)
I0511 03:05:01.081799 19438 net.cpp:105] Setting up inception_4d/relu_5x5_reduce
I0511 03:05:01.081804 19438 net.cpp:112] Top shape: 32 32 14 14 (200704)
I0511 03:05:01.081809 19438 layer_factory.hpp:74] Creating layer inception_4d/5x5
I0511 03:05:01.081820 19438 net.cpp:76] Creating Layer inception_4d/5x5
I0511 03:05:01.081825 19438 net.cpp:372] inception_4d/5x5 <- inception_4d/5x5_reduce
I0511 03:05:01.081833 19438 net.cpp:334] inception_4d/5x5 -> inception_4d/5x5
I0511 03:05:01.081841 19438 net.cpp:105] Setting up inception_4d/5x5
I0511 03:05:01.082291 19438 net.cpp:112] Top shape: 32 64 14 14 (401408)
I0511 03:05:01.082305 19438 layer_factory.hpp:74] Creating layer inception_4d/relu_5x5
I0511 03:05:01.082312 19438 net.cpp:76] Creating Layer inception_4d/relu_5x5
I0511 03:05:01.083055 19438 net.cpp:372] inception_4d/relu_5x5 <- inception_4d/5x5
I0511 03:05:01.083097 19438 net.cpp:323] inception_4d/relu_5x5 -> inception_4d/5x5 (in-place)
I0511 03:05:01.083107 19438 net.cpp:105] Setting up inception_4d/relu_5x5
I0511 03:05:01.083112 19438 net.cpp:112] Top shape: 32 64 14 14 (401408)
I0511 03:05:01.083118 19438 layer_factory.hpp:74] Creating layer inception_4d/pool
I0511 03:05:01.083127 19438 net.cpp:76] Creating Layer inception_4d/pool
I0511 03:05:01.083132 19438 net.cpp:372] inception_4d/pool <- inception_4c/output_inception_4c/output_0_split_3
I0511 03:05:01.083139 19438 net.cpp:334] inception_4d/pool -> inception_4d/pool
I0511 03:05:01.083148 19438 net.cpp:105] Setting up inception_4d/pool
I0511 03:05:01.083154 19438 net.cpp:112] Top shape: 32 512 14 14 (3211264)
I0511 03:05:01.083160 19438 layer_factory.hpp:74] Creating layer inception_4d/pool_proj
I0511 03:05:01.083173 19438 net.cpp:76] Creating Layer inception_4d/pool_proj
I0511 03:05:01.083178 19438 net.cpp:372] inception_4d/pool_proj <- inception_4d/pool
I0511 03:05:01.083189 19438 net.cpp:334] inception_4d/pool_proj -> inception_4d/pool_proj
I0511 03:05:01.083197 19438 net.cpp:105] Setting up inception_4d/pool_proj
I0511 03:05:01.083494 19438 net.cpp:112] Top shape: 32 64 14 14 (401408)
I0511 03:05:01.083508 19438 layer_factory.hpp:74] Creating layer inception_4d/relu_pool_proj
I0511 03:05:01.083519 19438 net.cpp:76] Creating Layer inception_4d/relu_pool_proj
I0511 03:05:01.083525 19438 net.cpp:372] inception_4d/relu_pool_proj <- inception_4d/pool_proj
I0511 03:05:01.083533 19438 net.cpp:323] inception_4d/relu_pool_proj -> inception_4d/pool_proj (in-place)
I0511 03:05:01.083540 19438 net.cpp:105] Setting up inception_4d/relu_pool_proj
I0511 03:05:01.083545 19438 net.cpp:112] Top shape: 32 64 14 14 (401408)
I0511 03:05:01.083551 19438 layer_factory.hpp:74] Creating layer inception_4d/output
I0511 03:05:01.083559 19438 net.cpp:76] Creating Layer inception_4d/output
I0511 03:05:01.083564 19438 net.cpp:372] inception_4d/output <- inception_4d/1x1
I0511 03:05:01.083570 19438 net.cpp:372] inception_4d/output <- inception_4d/3x3
I0511 03:05:01.083576 19438 net.cpp:372] inception_4d/output <- inception_4d/5x5
I0511 03:05:01.083582 19438 net.cpp:372] inception_4d/output <- inception_4d/pool_proj
I0511 03:05:01.083592 19438 net.cpp:334] inception_4d/output -> inception_4d/output
I0511 03:05:01.083600 19438 net.cpp:105] Setting up inception_4d/output
I0511 03:05:01.083606 19438 net.cpp:112] Top shape: 32 528 14 14 (3311616)
I0511 03:05:01.083612 19438 layer_factory.hpp:74] Creating layer inception_4d/output_inception_4d/output_0_split
I0511 03:05:01.083619 19438 net.cpp:76] Creating Layer inception_4d/output_inception_4d/output_0_split
I0511 03:05:01.083626 19438 net.cpp:372] inception_4d/output_inception_4d/output_0_split <- inception_4d/output
I0511 03:05:01.083633 19438 net.cpp:334] inception_4d/output_inception_4d/output_0_split -> inception_4d/output_inception_4d/output_0_split_0
I0511 03:05:01.083642 19438 net.cpp:334] inception_4d/output_inception_4d/output_0_split -> inception_4d/output_inception_4d/output_0_split_1
I0511 03:05:01.083653 19438 net.cpp:334] inception_4d/output_inception_4d/output_0_split -> inception_4d/output_inception_4d/output_0_split_2
I0511 03:05:01.083663 19438 net.cpp:334] inception_4d/output_inception_4d/output_0_split -> inception_4d/output_inception_4d/output_0_split_3
I0511 03:05:01.083672 19438 net.cpp:334] inception_4d/output_inception_4d/output_0_split -> inception_4d/output_inception_4d/output_0_split_4
I0511 03:05:01.083680 19438 net.cpp:105] Setting up inception_4d/output_inception_4d/output_0_split
I0511 03:05:01.083686 19438 net.cpp:112] Top shape: 32 528 14 14 (3311616)
I0511 03:05:01.083691 19438 net.cpp:112] Top shape: 32 528 14 14 (3311616)
I0511 03:05:01.083696 19438 net.cpp:112] Top shape: 32 528 14 14 (3311616)
I0511 03:05:01.083701 19438 net.cpp:112] Top shape: 32 528 14 14 (3311616)
I0511 03:05:01.083782 19438 net.cpp:112] Top shape: 32 528 14 14 (3311616)
I0511 03:05:01.083791 19438 layer_factory.hpp:74] Creating layer loss2/ave_pool
I0511 03:05:01.083811 19438 net.cpp:76] Creating Layer loss2/ave_pool
I0511 03:05:01.083820 19438 net.cpp:372] loss2/ave_pool <- inception_4d/output_inception_4d/output_0_split_0
I0511 03:05:01.083829 19438 net.cpp:334] loss2/ave_pool -> loss2/ave_pool
I0511 03:05:01.083838 19438 net.cpp:105] Setting up loss2/ave_pool
I0511 03:05:01.083845 19438 net.cpp:112] Top shape: 32 528 4 4 (270336)
I0511 03:05:01.083852 19438 layer_factory.hpp:74] Creating layer loss2/conv
I0511 03:05:01.083859 19438 net.cpp:76] Creating Layer loss2/conv
I0511 03:05:01.083864 19438 net.cpp:372] loss2/conv <- loss2/ave_pool
I0511 03:05:01.083874 19438 net.cpp:334] loss2/conv -> loss2/conv
I0511 03:05:01.083884 19438 net.cpp:105] Setting up loss2/conv
I0511 03:05:01.084470 19438 net.cpp:112] Top shape: 32 128 4 4 (65536)
I0511 03:05:01.084483 19438 layer_factory.hpp:74] Creating layer loss2/relu_conv
I0511 03:05:01.084491 19438 net.cpp:76] Creating Layer loss2/relu_conv
I0511 03:05:01.084497 19438 net.cpp:372] loss2/relu_conv <- loss2/conv
I0511 03:05:01.084504 19438 net.cpp:323] loss2/relu_conv -> loss2/conv (in-place)
I0511 03:05:01.084511 19438 net.cpp:105] Setting up loss2/relu_conv
I0511 03:05:01.084517 19438 net.cpp:112] Top shape: 32 128 4 4 (65536)
I0511 03:05:01.084524 19438 layer_factory.hpp:74] Creating layer loss2/fc
I0511 03:05:01.084533 19438 net.cpp:76] Creating Layer loss2/fc
I0511 03:05:01.084542 19438 net.cpp:372] loss2/fc <- loss2/conv
I0511 03:05:01.084553 19438 net.cpp:334] loss2/fc -> loss2/fc
I0511 03:05:01.084563 19438 net.cpp:105] Setting up loss2/fc
I0511 03:05:01.101902 19438 net.cpp:112] Top shape: 32 1024 1 1 (32768)
I0511 03:05:01.101948 19438 layer_factory.hpp:74] Creating layer loss2/relu_fc
I0511 03:05:01.101961 19438 net.cpp:76] Creating Layer loss2/relu_fc
I0511 03:05:01.101971 19438 net.cpp:372] loss2/relu_fc <- loss2/fc
I0511 03:05:01.101981 19438 net.cpp:323] loss2/relu_fc -> loss2/fc (in-place)
I0511 03:05:01.101994 19438 net.cpp:105] Setting up loss2/relu_fc
I0511 03:05:01.102000 19438 net.cpp:112] Top shape: 32 1024 1 1 (32768)
I0511 03:05:01.102006 19438 layer_factory.hpp:74] Creating layer loss2/drop_fc
I0511 03:05:01.102015 19438 net.cpp:76] Creating Layer loss2/drop_fc
I0511 03:05:01.102021 19438 net.cpp:372] loss2/drop_fc <- loss2/fc
I0511 03:05:01.102027 19438 net.cpp:323] loss2/drop_fc -> loss2/fc (in-place)
I0511 03:05:01.102035 19438 net.cpp:105] Setting up loss2/drop_fc
I0511 03:05:01.102041 19438 net.cpp:112] Top shape: 32 1024 1 1 (32768)
I0511 03:05:01.102047 19438 layer_factory.hpp:74] Creating layer loss2/classifier
I0511 03:05:01.102061 19438 net.cpp:76] Creating Layer loss2/classifier
I0511 03:05:01.102066 19438 net.cpp:372] loss2/classifier <- loss2/fc
I0511 03:05:01.102080 19438 net.cpp:334] loss2/classifier -> loss2/classifier
I0511 03:05:01.102092 19438 net.cpp:105] Setting up loss2/classifier
I0511 03:05:01.102123 19438 net.cpp:112] Top shape: 32 2 1 1 (64)
I0511 03:05:01.102133 19438 layer_factory.hpp:74] Creating layer loss2/classifier_loss2/classifier_0_split
I0511 03:05:01.102141 19438 net.cpp:76] Creating Layer loss2/classifier_loss2/classifier_0_split
I0511 03:05:01.102147 19438 net.cpp:372] loss2/classifier_loss2/classifier_0_split <- loss2/classifier
I0511 03:05:01.102154 19438 net.cpp:334] loss2/classifier_loss2/classifier_0_split -> loss2/classifier_loss2/classifier_0_split_0
I0511 03:05:01.102166 19438 net.cpp:334] loss2/classifier_loss2/classifier_0_split -> loss2/classifier_loss2/classifier_0_split_1
I0511 03:05:01.102175 19438 net.cpp:105] Setting up loss2/classifier_loss2/classifier_0_split
I0511 03:05:01.102182 19438 net.cpp:112] Top shape: 32 2 1 1 (64)
I0511 03:05:01.102187 19438 net.cpp:112] Top shape: 32 2 1 1 (64)
I0511 03:05:01.102192 19438 layer_factory.hpp:74] Creating layer loss2/loss
I0511 03:05:01.102200 19438 net.cpp:76] Creating Layer loss2/loss
I0511 03:05:01.102206 19438 net.cpp:372] loss2/loss <- loss2/classifier_loss2/classifier_0_split_0
I0511 03:05:01.102213 19438 net.cpp:372] loss2/loss <- label_data_1_split_2
I0511 03:05:01.102221 19438 net.cpp:334] loss2/loss -> loss2/loss1
I0511 03:05:01.102265 19438 net.cpp:105] Setting up loss2/loss
I0511 03:05:01.102293 19438 layer_factory.hpp:74] Creating layer loss2/loss
I0511 03:05:01.102308 19438 net.cpp:112] Top shape: 1 1 1 1 (1)
I0511 03:05:01.102314 19438 net.cpp:118]     with loss weight 0.3
I0511 03:05:01.102334 19438 layer_factory.hpp:74] Creating layer loss2/top-1
I0511 03:05:01.102345 19438 net.cpp:76] Creating Layer loss2/top-1
I0511 03:05:01.102352 19438 net.cpp:372] loss2/top-1 <- loss2/classifier_loss2/classifier_0_split_1
I0511 03:05:01.102358 19438 net.cpp:372] loss2/top-1 <- label_data_1_split_3
I0511 03:05:01.102366 19438 net.cpp:334] loss2/top-1 -> loss2/top-1
I0511 03:05:01.102375 19438 net.cpp:105] Setting up loss2/top-1
I0511 03:05:01.102381 19438 net.cpp:112] Top shape: 1 1 1 1 (1)
I0511 03:05:01.102387 19438 layer_factory.hpp:74] Creating layer inception_4e/1x1
I0511 03:05:01.102397 19438 net.cpp:76] Creating Layer inception_4e/1x1
I0511 03:05:01.102404 19438 net.cpp:372] inception_4e/1x1 <- inception_4d/output_inception_4d/output_0_split_1
I0511 03:05:01.102413 19438 net.cpp:334] inception_4e/1x1 -> inception_4e/1x1
I0511 03:05:01.102422 19438 net.cpp:105] Setting up inception_4e/1x1
I0511 03:05:01.103562 19438 net.cpp:112] Top shape: 32 256 14 14 (1605632)
I0511 03:05:01.103580 19438 layer_factory.hpp:74] Creating layer inception_4e/relu_1x1
I0511 03:05:01.103588 19438 net.cpp:76] Creating Layer inception_4e/relu_1x1
I0511 03:05:01.103595 19438 net.cpp:372] inception_4e/relu_1x1 <- inception_4e/1x1
I0511 03:05:01.103602 19438 net.cpp:323] inception_4e/relu_1x1 -> inception_4e/1x1 (in-place)
I0511 03:05:01.103610 19438 net.cpp:105] Setting up inception_4e/relu_1x1
I0511 03:05:01.103615 19438 net.cpp:112] Top shape: 32 256 14 14 (1605632)
I0511 03:05:01.103621 19438 layer_factory.hpp:74] Creating layer inception_4e/3x3_reduce
I0511 03:05:01.103629 19438 net.cpp:76] Creating Layer inception_4e/3x3_reduce
I0511 03:05:01.103636 19438 net.cpp:372] inception_4e/3x3_reduce <- inception_4d/output_inception_4d/output_0_split_2
I0511 03:05:01.103646 19438 net.cpp:334] inception_4e/3x3_reduce -> inception_4e/3x3_reduce
I0511 03:05:01.103656 19438 net.cpp:105] Setting up inception_4e/3x3_reduce
I0511 03:05:01.104387 19438 net.cpp:112] Top shape: 32 160 14 14 (1003520)
I0511 03:05:01.104403 19438 layer_factory.hpp:74] Creating layer inception_4e/relu_3x3_reduce
I0511 03:05:01.104410 19438 net.cpp:76] Creating Layer inception_4e/relu_3x3_reduce
I0511 03:05:01.104419 19438 net.cpp:372] inception_4e/relu_3x3_reduce <- inception_4e/3x3_reduce
I0511 03:05:01.104426 19438 net.cpp:323] inception_4e/relu_3x3_reduce -> inception_4e/3x3_reduce (in-place)
I0511 03:05:01.104434 19438 net.cpp:105] Setting up inception_4e/relu_3x3_reduce
I0511 03:05:01.104440 19438 net.cpp:112] Top shape: 32 160 14 14 (1003520)
I0511 03:05:01.104445 19438 layer_factory.hpp:74] Creating layer inception_4e/3x3
I0511 03:05:01.104475 19438 net.cpp:76] Creating Layer inception_4e/3x3
I0511 03:05:01.104481 19438 net.cpp:372] inception_4e/3x3 <- inception_4e/3x3_reduce
I0511 03:05:01.104490 19438 net.cpp:334] inception_4e/3x3 -> inception_4e/3x3
I0511 03:05:01.104498 19438 net.cpp:105] Setting up inception_4e/3x3
I0511 03:05:01.108347 19438 net.cpp:112] Top shape: 32 320 14 14 (2007040)
I0511 03:05:01.108367 19438 layer_factory.hpp:74] Creating layer inception_4e/relu_3x3
I0511 03:05:01.108376 19438 net.cpp:76] Creating Layer inception_4e/relu_3x3
I0511 03:05:01.108382 19438 net.cpp:372] inception_4e/relu_3x3 <- inception_4e/3x3
I0511 03:05:01.108389 19438 net.cpp:323] inception_4e/relu_3x3 -> inception_4e/3x3 (in-place)
I0511 03:05:01.108397 19438 net.cpp:105] Setting up inception_4e/relu_3x3
I0511 03:05:01.108402 19438 net.cpp:112] Top shape: 32 320 14 14 (2007040)
I0511 03:05:01.108408 19438 layer_factory.hpp:74] Creating layer inception_4e/5x5_reduce
I0511 03:05:01.108419 19438 net.cpp:76] Creating Layer inception_4e/5x5_reduce
I0511 03:05:01.108425 19438 net.cpp:372] inception_4e/5x5_reduce <- inception_4d/output_inception_4d/output_0_split_3
I0511 03:05:01.108453 19438 net.cpp:334] inception_4e/5x5_reduce -> inception_4e/5x5_reduce
I0511 03:05:01.108464 19438 net.cpp:105] Setting up inception_4e/5x5_reduce
I0511 03:05:01.108613 19438 net.cpp:112] Top shape: 32 32 14 14 (200704)
I0511 03:05:01.108625 19438 layer_factory.hpp:74] Creating layer inception_4e/relu_5x5_reduce
I0511 03:05:01.108633 19438 net.cpp:76] Creating Layer inception_4e/relu_5x5_reduce
I0511 03:05:01.108639 19438 net.cpp:372] inception_4e/relu_5x5_reduce <- inception_4e/5x5_reduce
I0511 03:05:01.108649 19438 net.cpp:323] inception_4e/relu_5x5_reduce -> inception_4e/5x5_reduce (in-place)
I0511 03:05:01.108655 19438 net.cpp:105] Setting up inception_4e/relu_5x5_reduce
I0511 03:05:01.108661 19438 net.cpp:112] Top shape: 32 32 14 14 (200704)
I0511 03:05:01.108667 19438 layer_factory.hpp:74] Creating layer inception_4e/5x5
I0511 03:05:01.108675 19438 net.cpp:76] Creating Layer inception_4e/5x5
I0511 03:05:01.108680 19438 net.cpp:372] inception_4e/5x5 <- inception_4e/5x5_reduce
I0511 03:05:01.108690 19438 net.cpp:334] inception_4e/5x5 -> inception_4e/5x5
I0511 03:05:01.108700 19438 net.cpp:105] Setting up inception_4e/5x5
I0511 03:05:01.109578 19438 net.cpp:112] Top shape: 32 128 14 14 (802816)
I0511 03:05:01.109593 19438 layer_factory.hpp:74] Creating layer inception_4e/relu_5x5
I0511 03:05:01.109601 19438 net.cpp:76] Creating Layer inception_4e/relu_5x5
I0511 03:05:01.109607 19438 net.cpp:372] inception_4e/relu_5x5 <- inception_4e/5x5
I0511 03:05:01.109614 19438 net.cpp:323] inception_4e/relu_5x5 -> inception_4e/5x5 (in-place)
I0511 03:05:01.109622 19438 net.cpp:105] Setting up inception_4e/relu_5x5
I0511 03:05:01.109627 19438 net.cpp:112] Top shape: 32 128 14 14 (802816)
I0511 03:05:01.109632 19438 layer_factory.hpp:74] Creating layer inception_4e/pool
I0511 03:05:01.109642 19438 net.cpp:76] Creating Layer inception_4e/pool
I0511 03:05:01.109648 19438 net.cpp:372] inception_4e/pool <- inception_4d/output_inception_4d/output_0_split_4
I0511 03:05:01.109659 19438 net.cpp:334] inception_4e/pool -> inception_4e/pool
I0511 03:05:01.109668 19438 net.cpp:105] Setting up inception_4e/pool
I0511 03:05:01.109678 19438 net.cpp:112] Top shape: 32 528 14 14 (3311616)
I0511 03:05:01.109683 19438 layer_factory.hpp:74] Creating layer inception_4e/pool_proj
I0511 03:05:01.109694 19438 net.cpp:76] Creating Layer inception_4e/pool_proj
I0511 03:05:01.109699 19438 net.cpp:372] inception_4e/pool_proj <- inception_4e/pool
I0511 03:05:01.109707 19438 net.cpp:334] inception_4e/pool_proj -> inception_4e/pool_proj
I0511 03:05:01.109715 19438 net.cpp:105] Setting up inception_4e/pool_proj
I0511 03:05:01.110297 19438 net.cpp:112] Top shape: 32 128 14 14 (802816)
I0511 03:05:01.110311 19438 layer_factory.hpp:74] Creating layer inception_4e/relu_pool_proj
I0511 03:05:01.110318 19438 net.cpp:76] Creating Layer inception_4e/relu_pool_proj
I0511 03:05:01.110324 19438 net.cpp:372] inception_4e/relu_pool_proj <- inception_4e/pool_proj
I0511 03:05:01.110333 19438 net.cpp:323] inception_4e/relu_pool_proj -> inception_4e/pool_proj (in-place)
I0511 03:05:01.110342 19438 net.cpp:105] Setting up inception_4e/relu_pool_proj
I0511 03:05:01.110347 19438 net.cpp:112] Top shape: 32 128 14 14 (802816)
I0511 03:05:01.110352 19438 layer_factory.hpp:74] Creating layer inception_4e/output
I0511 03:05:01.110360 19438 net.cpp:76] Creating Layer inception_4e/output
I0511 03:05:01.110366 19438 net.cpp:372] inception_4e/output <- inception_4e/1x1
I0511 03:05:01.110376 19438 net.cpp:372] inception_4e/output <- inception_4e/3x3
I0511 03:05:01.110383 19438 net.cpp:372] inception_4e/output <- inception_4e/5x5
I0511 03:05:01.110389 19438 net.cpp:372] inception_4e/output <- inception_4e/pool_proj
I0511 03:05:01.110396 19438 net.cpp:334] inception_4e/output -> inception_4e/output
I0511 03:05:01.110404 19438 net.cpp:105] Setting up inception_4e/output
I0511 03:05:01.110411 19438 net.cpp:112] Top shape: 32 832 14 14 (5218304)
I0511 03:05:01.110416 19438 layer_factory.hpp:74] Creating layer pool4/3x3_s2
I0511 03:05:01.110429 19438 net.cpp:76] Creating Layer pool4/3x3_s2
I0511 03:05:01.110448 19438 net.cpp:372] pool4/3x3_s2 <- inception_4e/output
I0511 03:05:01.110458 19438 net.cpp:334] pool4/3x3_s2 -> pool4/3x3_s2
I0511 03:05:01.110466 19438 net.cpp:105] Setting up pool4/3x3_s2
I0511 03:05:01.110473 19438 net.cpp:112] Top shape: 32 832 7 7 (1304576)
I0511 03:05:01.110479 19438 layer_factory.hpp:74] Creating layer pool4/3x3_s2_pool4/3x3_s2_0_split
I0511 03:05:01.110486 19438 net.cpp:76] Creating Layer pool4/3x3_s2_pool4/3x3_s2_0_split
I0511 03:05:01.110494 19438 net.cpp:372] pool4/3x3_s2_pool4/3x3_s2_0_split <- pool4/3x3_s2
I0511 03:05:01.110502 19438 net.cpp:334] pool4/3x3_s2_pool4/3x3_s2_0_split -> pool4/3x3_s2_pool4/3x3_s2_0_split_0
I0511 03:05:01.110510 19438 net.cpp:334] pool4/3x3_s2_pool4/3x3_s2_0_split -> pool4/3x3_s2_pool4/3x3_s2_0_split_1
I0511 03:05:01.110519 19438 net.cpp:334] pool4/3x3_s2_pool4/3x3_s2_0_split -> pool4/3x3_s2_pool4/3x3_s2_0_split_2
I0511 03:05:01.110527 19438 net.cpp:334] pool4/3x3_s2_pool4/3x3_s2_0_split -> pool4/3x3_s2_pool4/3x3_s2_0_split_3
I0511 03:05:01.110535 19438 net.cpp:105] Setting up pool4/3x3_s2_pool4/3x3_s2_0_split
I0511 03:05:01.110541 19438 net.cpp:112] Top shape: 32 832 7 7 (1304576)
I0511 03:05:01.110546 19438 net.cpp:112] Top shape: 32 832 7 7 (1304576)
I0511 03:05:01.110551 19438 net.cpp:112] Top shape: 32 832 7 7 (1304576)
I0511 03:05:01.110556 19438 net.cpp:112] Top shape: 32 832 7 7 (1304576)
I0511 03:05:01.110561 19438 layer_factory.hpp:74] Creating layer inception_5a/1x1
I0511 03:05:01.110573 19438 net.cpp:76] Creating Layer inception_5a/1x1
I0511 03:05:01.110579 19438 net.cpp:372] inception_5a/1x1 <- pool4/3x3_s2_pool4/3x3_s2_0_split_0
I0511 03:05:01.110589 19438 net.cpp:334] inception_5a/1x1 -> inception_5a/1x1
I0511 03:05:01.110597 19438 net.cpp:105] Setting up inception_5a/1x1
I0511 03:05:01.112380 19438 net.cpp:112] Top shape: 32 256 7 7 (401408)
I0511 03:05:01.112396 19438 layer_factory.hpp:74] Creating layer inception_5a/relu_1x1
I0511 03:05:01.112406 19438 net.cpp:76] Creating Layer inception_5a/relu_1x1
I0511 03:05:01.112432 19438 net.cpp:372] inception_5a/relu_1x1 <- inception_5a/1x1
I0511 03:05:01.112440 19438 net.cpp:323] inception_5a/relu_1x1 -> inception_5a/1x1 (in-place)
I0511 03:05:01.112449 19438 net.cpp:105] Setting up inception_5a/relu_1x1
I0511 03:05:01.112454 19438 net.cpp:112] Top shape: 32 256 7 7 (401408)
I0511 03:05:01.112460 19438 layer_factory.hpp:74] Creating layer inception_5a/3x3_reduce
I0511 03:05:01.112469 19438 net.cpp:76] Creating Layer inception_5a/3x3_reduce
I0511 03:05:01.112480 19438 net.cpp:372] inception_5a/3x3_reduce <- pool4/3x3_s2_pool4/3x3_s2_0_split_1
I0511 03:05:01.112488 19438 net.cpp:334] inception_5a/3x3_reduce -> inception_5a/3x3_reduce
I0511 03:05:01.112498 19438 net.cpp:105] Setting up inception_5a/3x3_reduce
I0511 03:05:01.113622 19438 net.cpp:112] Top shape: 32 160 7 7 (250880)
I0511 03:05:01.113637 19438 layer_factory.hpp:74] Creating layer inception_5a/relu_3x3_reduce
I0511 03:05:01.113646 19438 net.cpp:76] Creating Layer inception_5a/relu_3x3_reduce
I0511 03:05:01.113651 19438 net.cpp:372] inception_5a/relu_3x3_reduce <- inception_5a/3x3_reduce
I0511 03:05:01.113659 19438 net.cpp:323] inception_5a/relu_3x3_reduce -> inception_5a/3x3_reduce (in-place)
I0511 03:05:01.113667 19438 net.cpp:105] Setting up inception_5a/relu_3x3_reduce
I0511 03:05:01.113672 19438 net.cpp:112] Top shape: 32 160 7 7 (250880)
I0511 03:05:01.113677 19438 layer_factory.hpp:74] Creating layer inception_5a/3x3
I0511 03:05:01.113688 19438 net.cpp:76] Creating Layer inception_5a/3x3
I0511 03:05:01.113694 19438 net.cpp:372] inception_5a/3x3 <- inception_5a/3x3_reduce
I0511 03:05:01.113703 19438 net.cpp:334] inception_5a/3x3 -> inception_5a/3x3
I0511 03:05:01.113711 19438 net.cpp:105] Setting up inception_5a/3x3
I0511 03:05:01.117578 19438 net.cpp:112] Top shape: 32 320 7 7 (501760)
I0511 03:05:01.117601 19438 layer_factory.hpp:74] Creating layer inception_5a/relu_3x3
I0511 03:05:01.117611 19438 net.cpp:76] Creating Layer inception_5a/relu_3x3
I0511 03:05:01.117619 19438 net.cpp:372] inception_5a/relu_3x3 <- inception_5a/3x3
I0511 03:05:01.117650 19438 net.cpp:323] inception_5a/relu_3x3 -> inception_5a/3x3 (in-place)
I0511 03:05:01.117660 19438 net.cpp:105] Setting up inception_5a/relu_3x3
I0511 03:05:01.117666 19438 net.cpp:112] Top shape: 32 320 7 7 (501760)
I0511 03:05:01.117671 19438 layer_factory.hpp:74] Creating layer inception_5a/5x5_reduce
I0511 03:05:01.117681 19438 net.cpp:76] Creating Layer inception_5a/5x5_reduce
I0511 03:05:01.117687 19438 net.cpp:372] inception_5a/5x5_reduce <- pool4/3x3_s2_pool4/3x3_s2_0_split_2
I0511 03:05:01.117698 19438 net.cpp:334] inception_5a/5x5_reduce -> inception_5a/5x5_reduce
I0511 03:05:01.117708 19438 net.cpp:105] Setting up inception_5a/5x5_reduce
I0511 03:05:01.117946 19438 net.cpp:112] Top shape: 32 32 7 7 (50176)
I0511 03:05:01.117959 19438 layer_factory.hpp:74] Creating layer inception_5a/relu_5x5_reduce
I0511 03:05:01.117967 19438 net.cpp:76] Creating Layer inception_5a/relu_5x5_reduce
I0511 03:05:01.117972 19438 net.cpp:372] inception_5a/relu_5x5_reduce <- inception_5a/5x5_reduce
I0511 03:05:01.117980 19438 net.cpp:323] inception_5a/relu_5x5_reduce -> inception_5a/5x5_reduce (in-place)
I0511 03:05:01.117987 19438 net.cpp:105] Setting up inception_5a/relu_5x5_reduce
I0511 03:05:01.117992 19438 net.cpp:112] Top shape: 32 32 7 7 (50176)
I0511 03:05:01.117998 19438 layer_factory.hpp:74] Creating layer inception_5a/5x5
I0511 03:05:01.118010 19438 net.cpp:76] Creating Layer inception_5a/5x5
I0511 03:05:01.118016 19438 net.cpp:372] inception_5a/5x5 <- inception_5a/5x5_reduce
I0511 03:05:01.118023 19438 net.cpp:334] inception_5a/5x5 -> inception_5a/5x5
I0511 03:05:01.118031 19438 net.cpp:105] Setting up inception_5a/5x5
I0511 03:05:01.118916 19438 net.cpp:112] Top shape: 32 128 7 7 (200704)
I0511 03:05:01.118933 19438 layer_factory.hpp:74] Creating layer inception_5a/relu_5x5
I0511 03:05:01.118942 19438 net.cpp:76] Creating Layer inception_5a/relu_5x5
I0511 03:05:01.118947 19438 net.cpp:372] inception_5a/relu_5x5 <- inception_5a/5x5
I0511 03:05:01.118954 19438 net.cpp:323] inception_5a/relu_5x5 -> inception_5a/5x5 (in-place)
I0511 03:05:01.118963 19438 net.cpp:105] Setting up inception_5a/relu_5x5
I0511 03:05:01.118968 19438 net.cpp:112] Top shape: 32 128 7 7 (200704)
I0511 03:05:01.118973 19438 layer_factory.hpp:74] Creating layer inception_5a/pool
I0511 03:05:01.118983 19438 net.cpp:76] Creating Layer inception_5a/pool
I0511 03:05:01.119024 19438 net.cpp:372] inception_5a/pool <- pool4/3x3_s2_pool4/3x3_s2_0_split_3
I0511 03:05:01.119037 19438 net.cpp:334] inception_5a/pool -> inception_5a/pool
I0511 03:05:01.119068 19438 net.cpp:105] Setting up inception_5a/pool
I0511 03:05:01.119083 19438 net.cpp:112] Top shape: 32 832 7 7 (1304576)
I0511 03:05:01.119089 19438 layer_factory.hpp:74] Creating layer inception_5a/pool_proj
I0511 03:05:01.119099 19438 net.cpp:76] Creating Layer inception_5a/pool_proj
I0511 03:05:01.119107 19438 net.cpp:372] inception_5a/pool_proj <- inception_5a/pool
I0511 03:05:01.119117 19438 net.cpp:334] inception_5a/pool_proj -> inception_5a/pool_proj
I0511 03:05:01.119125 19438 net.cpp:105] Setting up inception_5a/pool_proj
I0511 03:05:01.120024 19438 net.cpp:112] Top shape: 32 128 7 7 (200704)
I0511 03:05:01.120038 19438 layer_factory.hpp:74] Creating layer inception_5a/relu_pool_proj
I0511 03:05:01.120046 19438 net.cpp:76] Creating Layer inception_5a/relu_pool_proj
I0511 03:05:01.120054 19438 net.cpp:372] inception_5a/relu_pool_proj <- inception_5a/pool_proj
I0511 03:05:01.120062 19438 net.cpp:323] inception_5a/relu_pool_proj -> inception_5a/pool_proj (in-place)
I0511 03:05:01.120074 19438 net.cpp:105] Setting up inception_5a/relu_pool_proj
I0511 03:05:01.120079 19438 net.cpp:112] Top shape: 32 128 7 7 (200704)
I0511 03:05:01.120085 19438 layer_factory.hpp:74] Creating layer inception_5a/output
I0511 03:05:01.120092 19438 net.cpp:76] Creating Layer inception_5a/output
I0511 03:05:01.120098 19438 net.cpp:372] inception_5a/output <- inception_5a/1x1
I0511 03:05:01.120105 19438 net.cpp:372] inception_5a/output <- inception_5a/3x3
I0511 03:05:01.120111 19438 net.cpp:372] inception_5a/output <- inception_5a/5x5
I0511 03:05:01.120131 19438 net.cpp:372] inception_5a/output <- inception_5a/pool_proj
I0511 03:05:01.120141 19438 net.cpp:334] inception_5a/output -> inception_5a/output
I0511 03:05:01.120148 19438 net.cpp:105] Setting up inception_5a/output
I0511 03:05:01.120157 19438 net.cpp:112] Top shape: 32 832 7 7 (1304576)
I0511 03:05:01.120163 19438 layer_factory.hpp:74] Creating layer inception_5a/output_inception_5a/output_0_split
I0511 03:05:01.120172 19438 net.cpp:76] Creating Layer inception_5a/output_inception_5a/output_0_split
I0511 03:05:01.120177 19438 net.cpp:372] inception_5a/output_inception_5a/output_0_split <- inception_5a/output
I0511 03:05:01.120187 19438 net.cpp:334] inception_5a/output_inception_5a/output_0_split -> inception_5a/output_inception_5a/output_0_split_0
I0511 03:05:01.120198 19438 net.cpp:334] inception_5a/output_inception_5a/output_0_split -> inception_5a/output_inception_5a/output_0_split_1
I0511 03:05:01.120206 19438 net.cpp:334] inception_5a/output_inception_5a/output_0_split -> inception_5a/output_inception_5a/output_0_split_2
I0511 03:05:01.120215 19438 net.cpp:334] inception_5a/output_inception_5a/output_0_split -> inception_5a/output_inception_5a/output_0_split_3
I0511 03:05:01.120223 19438 net.cpp:105] Setting up inception_5a/output_inception_5a/output_0_split
I0511 03:05:01.120229 19438 net.cpp:112] Top shape: 32 832 7 7 (1304576)
I0511 03:05:01.120234 19438 net.cpp:112] Top shape: 32 832 7 7 (1304576)
I0511 03:05:01.120239 19438 net.cpp:112] Top shape: 32 832 7 7 (1304576)
I0511 03:05:01.120244 19438 net.cpp:112] Top shape: 32 832 7 7 (1304576)
I0511 03:05:01.120250 19438 layer_factory.hpp:74] Creating layer inception_5b/1x1
I0511 03:05:01.120260 19438 net.cpp:76] Creating Layer inception_5b/1x1
I0511 03:05:01.120266 19438 net.cpp:372] inception_5b/1x1 <- inception_5a/output_inception_5a/output_0_split_0
I0511 03:05:01.120286 19438 net.cpp:334] inception_5b/1x1 -> inception_5b/1x1
I0511 03:05:01.120297 19438 net.cpp:105] Setting up inception_5b/1x1
I0511 03:05:01.122957 19438 net.cpp:112] Top shape: 32 384 7 7 (602112)
I0511 03:05:01.122977 19438 layer_factory.hpp:74] Creating layer inception_5b/relu_1x1
I0511 03:05:01.122987 19438 net.cpp:76] Creating Layer inception_5b/relu_1x1
I0511 03:05:01.122994 19438 net.cpp:372] inception_5b/relu_1x1 <- inception_5b/1x1
I0511 03:05:01.123002 19438 net.cpp:323] inception_5b/relu_1x1 -> inception_5b/1x1 (in-place)
I0511 03:05:01.123010 19438 net.cpp:105] Setting up inception_5b/relu_1x1
I0511 03:05:01.123015 19438 net.cpp:112] Top shape: 32 384 7 7 (602112)
I0511 03:05:01.123021 19438 layer_factory.hpp:74] Creating layer inception_5b/3x3_reduce
I0511 03:05:01.123029 19438 net.cpp:76] Creating Layer inception_5b/3x3_reduce
I0511 03:05:01.123035 19438 net.cpp:372] inception_5b/3x3_reduce <- inception_5a/output_inception_5a/output_0_split_1
I0511 03:05:01.123047 19438 net.cpp:334] inception_5b/3x3_reduce -> inception_5b/3x3_reduce
I0511 03:05:01.123056 19438 net.cpp:105] Setting up inception_5b/3x3_reduce
I0511 03:05:01.124403 19438 net.cpp:112] Top shape: 32 192 7 7 (301056)
I0511 03:05:01.124418 19438 layer_factory.hpp:74] Creating layer inception_5b/relu_3x3_reduce
I0511 03:05:01.124425 19438 net.cpp:76] Creating Layer inception_5b/relu_3x3_reduce
I0511 03:05:01.124433 19438 net.cpp:372] inception_5b/relu_3x3_reduce <- inception_5b/3x3_reduce
I0511 03:05:01.124439 19438 net.cpp:323] inception_5b/relu_3x3_reduce -> inception_5b/3x3_reduce (in-place)
I0511 03:05:01.124447 19438 net.cpp:105] Setting up inception_5b/relu_3x3_reduce
I0511 03:05:01.124454 19438 net.cpp:112] Top shape: 32 192 7 7 (301056)
I0511 03:05:01.124459 19438 layer_factory.hpp:74] Creating layer inception_5b/3x3
I0511 03:05:01.124469 19438 net.cpp:76] Creating Layer inception_5b/3x3
I0511 03:05:01.124475 19438 net.cpp:372] inception_5b/3x3 <- inception_5b/3x3_reduce
I0511 03:05:01.124485 19438 net.cpp:334] inception_5b/3x3 -> inception_5b/3x3
I0511 03:05:01.124493 19438 net.cpp:105] Setting up inception_5b/3x3
I0511 03:05:01.130484 19438 net.cpp:112] Top shape: 32 384 7 7 (602112)
I0511 03:05:01.130513 19438 layer_factory.hpp:74] Creating layer inception_5b/relu_3x3
I0511 03:05:01.130525 19438 net.cpp:76] Creating Layer inception_5b/relu_3x3
I0511 03:05:01.130533 19438 net.cpp:372] inception_5b/relu_3x3 <- inception_5b/3x3
I0511 03:05:01.130542 19438 net.cpp:323] inception_5b/relu_3x3 -> inception_5b/3x3 (in-place)
I0511 03:05:01.130550 19438 net.cpp:105] Setting up inception_5b/relu_3x3
I0511 03:05:01.130556 19438 net.cpp:112] Top shape: 32 384 7 7 (602112)
I0511 03:05:01.130561 19438 layer_factory.hpp:74] Creating layer inception_5b/5x5_reduce
I0511 03:05:01.130573 19438 net.cpp:76] Creating Layer inception_5b/5x5_reduce
I0511 03:05:01.130580 19438 net.cpp:372] inception_5b/5x5_reduce <- inception_5a/output_inception_5a/output_0_split_2
I0511 03:05:01.130589 19438 net.cpp:334] inception_5b/5x5_reduce -> inception_5b/5x5_reduce
I0511 03:05:01.130599 19438 net.cpp:105] Setting up inception_5b/5x5_reduce
I0511 03:05:01.130947 19438 net.cpp:112] Top shape: 32 48 7 7 (75264)
I0511 03:05:01.130960 19438 layer_factory.hpp:74] Creating layer inception_5b/relu_5x5_reduce
I0511 03:05:01.130969 19438 net.cpp:76] Creating Layer inception_5b/relu_5x5_reduce
I0511 03:05:01.130975 19438 net.cpp:372] inception_5b/relu_5x5_reduce <- inception_5b/5x5_reduce
I0511 03:05:01.130983 19438 net.cpp:323] inception_5b/relu_5x5_reduce -> inception_5b/5x5_reduce (in-place)
I0511 03:05:01.130991 19438 net.cpp:105] Setting up inception_5b/relu_5x5_reduce
I0511 03:05:01.130996 19438 net.cpp:112] Top shape: 32 48 7 7 (75264)
I0511 03:05:01.131002 19438 layer_factory.hpp:74] Creating layer inception_5b/5x5
I0511 03:05:01.131011 19438 net.cpp:76] Creating Layer inception_5b/5x5
I0511 03:05:01.131016 19438 net.cpp:372] inception_5b/5x5 <- inception_5b/5x5_reduce
I0511 03:05:01.131023 19438 net.cpp:334] inception_5b/5x5 -> inception_5b/5x5
I0511 03:05:01.131031 19438 net.cpp:105] Setting up inception_5b/5x5
I0511 03:05:01.132334 19438 net.cpp:112] Top shape: 32 128 7 7 (200704)
I0511 03:05:01.132349 19438 layer_factory.hpp:74] Creating layer inception_5b/relu_5x5
I0511 03:05:01.132359 19438 net.cpp:76] Creating Layer inception_5b/relu_5x5
I0511 03:05:01.132366 19438 net.cpp:372] inception_5b/relu_5x5 <- inception_5b/5x5
I0511 03:05:01.132374 19438 net.cpp:323] inception_5b/relu_5x5 -> inception_5b/5x5 (in-place)
I0511 03:05:01.132381 19438 net.cpp:105] Setting up inception_5b/relu_5x5
I0511 03:05:01.132386 19438 net.cpp:112] Top shape: 32 128 7 7 (200704)
I0511 03:05:01.132392 19438 layer_factory.hpp:74] Creating layer inception_5b/pool
I0511 03:05:01.132400 19438 net.cpp:76] Creating Layer inception_5b/pool
I0511 03:05:01.132406 19438 net.cpp:372] inception_5b/pool <- inception_5a/output_inception_5a/output_0_split_3
I0511 03:05:01.132414 19438 net.cpp:334] inception_5b/pool -> inception_5b/pool
I0511 03:05:01.132422 19438 net.cpp:105] Setting up inception_5b/pool
I0511 03:05:01.132431 19438 net.cpp:112] Top shape: 32 832 7 7 (1304576)
I0511 03:05:01.132436 19438 layer_factory.hpp:74] Creating layer inception_5b/pool_proj
I0511 03:05:01.132450 19438 net.cpp:76] Creating Layer inception_5b/pool_proj
I0511 03:05:01.132457 19438 net.cpp:372] inception_5b/pool_proj <- inception_5b/pool
I0511 03:05:01.132467 19438 net.cpp:334] inception_5b/pool_proj -> inception_5b/pool_proj
I0511 03:05:01.132477 19438 net.cpp:105] Setting up inception_5b/pool_proj
I0511 03:05:01.133378 19438 net.cpp:112] Top shape: 32 128 7 7 (200704)
I0511 03:05:01.133391 19438 layer_factory.hpp:74] Creating layer inception_5b/relu_pool_proj
I0511 03:05:01.133402 19438 net.cpp:76] Creating Layer inception_5b/relu_pool_proj
I0511 03:05:01.133409 19438 net.cpp:372] inception_5b/relu_pool_proj <- inception_5b/pool_proj
I0511 03:05:01.133416 19438 net.cpp:323] inception_5b/relu_pool_proj -> inception_5b/pool_proj (in-place)
I0511 03:05:01.133424 19438 net.cpp:105] Setting up inception_5b/relu_pool_proj
I0511 03:05:01.133430 19438 net.cpp:112] Top shape: 32 128 7 7 (200704)
I0511 03:05:01.133435 19438 layer_factory.hpp:74] Creating layer inception_5b/output
I0511 03:05:01.133472 19438 net.cpp:76] Creating Layer inception_5b/output
I0511 03:05:01.133481 19438 net.cpp:372] inception_5b/output <- inception_5b/1x1
I0511 03:05:01.133487 19438 net.cpp:372] inception_5b/output <- inception_5b/3x3
I0511 03:05:01.133493 19438 net.cpp:372] inception_5b/output <- inception_5b/5x5
I0511 03:05:01.133502 19438 net.cpp:372] inception_5b/output <- inception_5b/pool_proj
I0511 03:05:01.133512 19438 net.cpp:334] inception_5b/output -> inception_5b/output
I0511 03:05:01.133522 19438 net.cpp:105] Setting up inception_5b/output
I0511 03:05:01.133528 19438 net.cpp:112] Top shape: 32 1024 7 7 (1605632)
I0511 03:05:01.133534 19438 layer_factory.hpp:74] Creating layer pool5/7x7_s1
I0511 03:05:01.133541 19438 net.cpp:76] Creating Layer pool5/7x7_s1
I0511 03:05:01.133548 19438 net.cpp:372] pool5/7x7_s1 <- inception_5b/output
I0511 03:05:01.133555 19438 net.cpp:334] pool5/7x7_s1 -> pool5/7x7_s1
I0511 03:05:01.133563 19438 net.cpp:105] Setting up pool5/7x7_s1
I0511 03:05:01.133570 19438 net.cpp:112] Top shape: 32 1024 1 1 (32768)
I0511 03:05:01.133575 19438 layer_factory.hpp:74] Creating layer pool5/drop_7x7_s1
I0511 03:05:01.133585 19438 net.cpp:76] Creating Layer pool5/drop_7x7_s1
I0511 03:05:01.133592 19438 net.cpp:372] pool5/drop_7x7_s1 <- pool5/7x7_s1
I0511 03:05:01.133599 19438 net.cpp:323] pool5/drop_7x7_s1 -> pool5/7x7_s1 (in-place)
I0511 03:05:01.133607 19438 net.cpp:105] Setting up pool5/drop_7x7_s1
I0511 03:05:01.133613 19438 net.cpp:112] Top shape: 32 1024 1 1 (32768)
I0511 03:05:01.133620 19438 layer_factory.hpp:74] Creating layer loss3/classifier
I0511 03:05:01.133628 19438 net.cpp:76] Creating Layer loss3/classifier
I0511 03:05:01.133633 19438 net.cpp:372] loss3/classifier <- pool5/7x7_s1
I0511 03:05:01.133643 19438 net.cpp:334] loss3/classifier -> loss3/classifier
I0511 03:05:01.133653 19438 net.cpp:105] Setting up loss3/classifier
I0511 03:05:01.133684 19438 net.cpp:112] Top shape: 32 2 1 1 (64)
I0511 03:05:01.133694 19438 layer_factory.hpp:74] Creating layer loss3/classifier_loss3/classifier_0_split
I0511 03:05:01.133702 19438 net.cpp:76] Creating Layer loss3/classifier_loss3/classifier_0_split
I0511 03:05:01.133708 19438 net.cpp:372] loss3/classifier_loss3/classifier_0_split <- loss3/classifier
I0511 03:05:01.133718 19438 net.cpp:334] loss3/classifier_loss3/classifier_0_split -> loss3/classifier_loss3/classifier_0_split_0
I0511 03:05:01.133726 19438 net.cpp:334] loss3/classifier_loss3/classifier_0_split -> loss3/classifier_loss3/classifier_0_split_1
I0511 03:05:01.133734 19438 net.cpp:105] Setting up loss3/classifier_loss3/classifier_0_split
I0511 03:05:01.133741 19438 net.cpp:112] Top shape: 32 2 1 1 (64)
I0511 03:05:01.133767 19438 net.cpp:112] Top shape: 32 2 1 1 (64)
I0511 03:05:01.133774 19438 layer_factory.hpp:74] Creating layer loss3/loss3
I0511 03:05:01.133788 19438 net.cpp:76] Creating Layer loss3/loss3
I0511 03:05:01.133795 19438 net.cpp:372] loss3/loss3 <- loss3/classifier_loss3/classifier_0_split_0
I0511 03:05:01.133802 19438 net.cpp:372] loss3/loss3 <- label_data_1_split_4
I0511 03:05:01.133810 19438 net.cpp:334] loss3/loss3 -> loss3/loss3
I0511 03:05:01.133817 19438 net.cpp:105] Setting up loss3/loss3
I0511 03:05:01.133826 19438 layer_factory.hpp:74] Creating layer loss3/loss3
I0511 03:05:01.133841 19438 net.cpp:112] Top shape: 1 1 1 1 (1)
I0511 03:05:01.133847 19438 net.cpp:118]     with loss weight 1
I0511 03:05:01.133864 19438 layer_factory.hpp:74] Creating layer loss3/top-1
I0511 03:05:01.133873 19438 net.cpp:76] Creating Layer loss3/top-1
I0511 03:05:01.133878 19438 net.cpp:372] loss3/top-1 <- loss3/classifier_loss3/classifier_0_split_1
I0511 03:05:01.133885 19438 net.cpp:372] loss3/top-1 <- label_data_1_split_5
I0511 03:05:01.133898 19438 net.cpp:334] loss3/top-1 -> loss3/top-1
I0511 03:05:01.133906 19438 net.cpp:105] Setting up loss3/top-1
I0511 03:05:01.133913 19438 net.cpp:112] Top shape: 1 1 1 1 (1)
I0511 03:05:01.133919 19438 net.cpp:165] loss3/top-1 does not need backward computation.
I0511 03:05:01.133924 19438 net.cpp:163] loss3/loss3 needs backward computation.
I0511 03:05:01.133937 19438 net.cpp:163] loss3/classifier_loss3/classifier_0_split needs backward computation.
I0511 03:05:01.133944 19438 net.cpp:163] loss3/classifier needs backward computation.
I0511 03:05:01.133949 19438 net.cpp:163] pool5/drop_7x7_s1 needs backward computation.
…
