…
I0509 23:08:53.437355 23119 caffe.cpp:134] Use GPU with device ID 0
I0509 23:08:53.827396 23119 net.cpp:253] The NetState phase (1) differed from the phase (0) specified by a rule in layer data
I0509 23:08:53.828948 23119 net.cpp:42] Initializing net from parameters: 
name: "GoogleNet"
state {
  phase: TEST
}
layer {
  name: "data"
  type: "Data"
  top: "data"
  top: "label"
  include {
    phase: TEST
  }
  transform_param {
    mirror: false
    crop_size: 224
    mean_value: 104
    mean_value: 117
    mean_value: 123
  }
  data_param {
    source: "val_lmdb"
    batch_size: 32
    backend: LMDB
  }
}
layer {
  name: "conv1/7x7_s2"
  type: "Convolution"
  bottom: "data"
  top: "conv1/7x7_s2"
  param {
    lr_mult: 1
    decay_mult: 1
  }
  param {
    lr_mult: 2
    decay_mult: 0
  }
  convolution_param {
    num_output: 64
    pad: 3
    kernel_size: 7
    stride: 2
    weight_filler {
      type: "xavier"
      std: 0.1
    }
    bias_filler {
      type: "constant"
      value: 0.2
    }
  }
}
layer {
  name: "conv1/relu_7x7"
  type: "ReLU"
  bottom: "conv1/7x7_s2"
  top: "conv1/7x7_s2"
}
layer {
  name: "pool1/3x3_s2"
  type: "Pooling"
  bottom: "conv1/7x7_s2"
  top: "pool1/3x3_s2"
  pooling_param {
    pool: MAX
    kernel_size: 3
    stride: 2
  }
}
layer {
  name: "pool1/norm1"
  type: "LRN"
  bottom: "pool1/3x3_s2"
  top: "pool1/norm1"
  lrn_param {
    local_size: 5
    alpha: 0.0001
    beta: 0.75
  }
}
layer {
  name: "conv2/3x3_reduce"
  type: "Convolution"
  bottom: "pool1/norm1"
  top: "conv2/3x3_reduce"
  param {
    lr_mult: 1
    decay_mult: 1
  }
  param {
    lr_mult: 2
    decay_mult: 0
  }
  convolution_param {
    num_output: 64
    kernel_size: 1
    weight_filler {
      type: "xavier"
      std: 0.1
    }
    bias_filler {
      type: "constant"
      value: 0.2
    }
  }
}
layer {
  name: "conv2/relu_3x3_reduce"
  type: "ReLU"
  bottom: "conv2/3x3_reduce"
  top: "conv2/3x3_reduce"
}
layer {
  name: "conv2/3x3"
  type: "Convolution"
  bottom: "conv2/3x3_reduce"
  top: "conv2/3x3"
  param {
    lr_mult: 1
    decay_mult: 1
  }
  param {
    lr_mult: 2
    decay_mult: 0
  }
  convolution_param {
    num_output: 192
    pad: 1
    kernel_size: 3
    weight_filler {
      type: "xavier"
      std: 0.03
    }
    bias_filler {
      type: "constant"
      value: 0.2
    }
  }
}
layer {
  name: "conv2/relu_3x3"
  type: "ReLU"
  bottom: "conv2/3x3"
  top: "conv2/3x3"
}
layer {
  name: "conv2/norm2"
  type: "LRN"
  bottom: "conv2/3x3"
  top: "conv2/norm2"
  lrn_param {
    local_size: 5
    alpha: 0.0001
    beta: 0.75
  }
}
layer {
  name: "pool2/3x3_s2"
  type: "Pooling"
  bottom: "conv2/norm2"
  top: "pool2/3x3_s2"
  pooling_param {
    pool: MAX
    kernel_size: 3
    stride: 2
  }
}
layer {
  name: "inception_3a/1x1"
  type: "Convolution"
  bottom: "pool2/3x3_s2"
  top: "inception_3a/1x1"
  param {
    lr_mult: 1
    decay_mult: 1
  }
  param {
    lr_mult: 2
    decay_mult: 0
  }
  convolution_param {
    num_output: 64
    kernel_size: 1
    weight_filler {
      type: "xavier"
      std: 0.03
    }
    bias_filler {
      type: "constant"
      value: 0.2
    }
  }
}
layer {
  name: "inception_3a/relu_1x1"
  type: "ReLU"
  bottom: "inception_3a/1x1"
  top: "inception_3a/1x1"
}
layer {
  name: "inception_3a/3x3_reduce"
  type: "Convolution"
  bottom: "pool2/3x3_s2"
  top: "inception_3a/3x3_reduce"
  param {
    lr_mult: 1
    decay_mult: 1
  }
  param {
    lr_mult: 2
    decay_mult: 0
  }
  convolution_param {
    num_output: 96
    kernel_size: 1
    weight_filler {
      type: "xavier"
      std: 0.09
    }
    bias_filler {
      type: "constant"
      value: 0.2
    }
  }
}
layer {
  name: "inception_3a/relu_3x3_reduce"
  type: "ReLU"
  bottom: "inception_3a/3x3_reduce"
  top: "inception_3a/3x3_reduce"
}
layer {
  name: "inception_3a/3x3"
  type: "Convolution"
  bottom: "inception_3a/3x3_reduce"
  top: "inception_3a/3x3"
  param {
    lr_mult: 1
    decay_mult: 1
  }
  param {
    lr_mult: 2
    decay_mult: 0
  }
  convolution_param {
    num_output: 128
    pad: 1
    kernel_size: 3
    weight_filler {
      type: "xavier"
      std: 0.03
    }
    bias_filler {
      type: "constant"
      value: 0.2
    }
  }
}
layer {
  name: "inception_3a/relu_3x3"
  type: "ReLU"
  bottom: "inception_3a/3x3"
  top: "inception_3a/3x3"
}
layer {
  name: "inception_3a/5x5_reduce"
  type: "Convolution"
  bottom: "pool2/3x3_s2"
  top: "inception_3a/5x5_reduce"
  param {
    lr_mult: 1
    decay_mult: 1
  }
  param {
    lr_mult: 2
    decay_mult: 0
  }
  convolution_param {
    num_output: 16
    kernel_size: 1
    weight_filler {
      type: "xavier"
      std: 0.2
    }
    bias_filler {
      type: "constant"
      value: 0.2
    }
  }
}
layer {
  name: "inception_3a/relu_5x5_reduce"
  type: "ReLU"
  bottom: "inception_3a/5x5_reduce"
  top: "inception_3a/5x5_reduce"
}
layer {
  name: "inception_3a/5x5"
  type: "Convolution"
  bottom: "inception_3a/5x5_reduce"
  top: "inception_3a/5x5"
  param {
    lr_mult: 1
    decay_mult: 1
  }
  param {
    lr_mult: 2
    decay_mult: 0
  }
  convolution_param {
    num_output: 32
    pad: 2
    kernel_size: 5
    weight_filler {
      type: "xavier"
      std: 0.03
    }
    bias_filler {
      type: "constant"
      value: 0.2
    }
  }
}
layer {
  name: "inception_3a/relu_5x5"
  type: "ReLU"
  bottom: "inception_3a/5x5"
  top: "inception_3a/5x5"
}
layer {
  name: "inception_3a/pool"
  type: "Pooling"
  bottom: "pool2/3x3_s2"
  top: "inception_3a/pool"
  pooling_param {
    pool: MAX
    kernel_size: 3
    stride: 1
    pad: 1
  }
}
layer {
  name: "inception_3a/pool_proj"
  type: "Convolution"
  bottom: "inception_3a/pool"
  top: "inception_3a/pool_proj"
  param {
    lr_mult: 1
    decay_mult: 1
  }
  param {
    lr_mult: 2
    decay_mult: 0
  }
  convolution_param {
    num_output: 32
    kernel_size: 1
    weight_filler {
      type: "xavier"
      std: 0.1
    }
    bias_filler {
      type: "constant"
      value: 0.2
    }
  }
}
layer {
  name: "inception_3a/relu_pool_proj"
  type: "ReLU"
  bottom: "inception_3a/pool_proj"
  top: "inception_3a/pool_proj"
}
layer {
  name: "inception_3a/output"
  type: "Concat"
  bottom: "inception_3a/1x1"
  bottom: "inception_3a/3x3"
  bottom: "inception_3a/5x5"
  bottom: "inception_3a/pool_proj"
  top: "inception_3a/output"
}
layer {
  name: "inception_3b/1x1"
  type: "Convolution"
  bottom: "inception_3a/output"
  top: "inception_3b/1x1"
  param {
    lr_mult: 1
    decay_mult: 1
  }
  param {
    lr_mult: 2
    decay_mult: 0
  }
  convolution_param {
    num_output: 128
    kernel_size: 1
    weight_filler {
      type: "xavier"
      std: 0.03
    }
    bias_filler {
      type: "constant"
      value: 0.2
    }
  }
}
layer {
  name: "inception_3b/relu_1x1"
  type: "ReLU"
  bottom: "inception_3b/1x1"
  top: "inception_3b/1x1"
}
layer {
  name: "inception_3b/3x3_reduce"
  type: "Convolution"
  bottom: "inception_3a/output"
  top: "inception_3b/3x3_reduce"
  param {
    lr_mult: 1
    decay_mult: 1
  }
  param {
    lr_mult: 2
    decay_mult: 0
  }
  convolution_param {
    num_output: 128
    kernel_size: 1
    weight_filler {
      type: "xavier"
      std: 0.09
    }
    bias_filler {
      type: "constant"
      value: 0.2
    }
  }
}
layer {
  name: "inception_3b/relu_3x3_reduce"
  type: "ReLU"
  bottom: "inception_3b/3x3_reduce"
  top: "inception_3b/3x3_reduce"
}
layer {
  name: "inception_3b/3x3"
  type: "Convolution"
  bottom: "inception_3b/3x3_reduce"
  top: "inception_3b/3x3"
  param {
    lr_mult: 1
    decay_mult: 1
  }
  param {
    lr_mult: 2
    decay_mult: 0
  }
  convolution_param {
    num_output: 192
    pad: 1
    kernel_size: 3
    weight_filler {
      type: "xavier"
      std: 0.03
    }
    bias_filler {
      type: "constant"
      value: 0.2
    }
  }
}
layer {
  name: "inception_3b/relu_3x3"
  type: "ReLU"
  bottom: "inception_3b/3x3"
  top: "inception_3b/3x3"
}
layer {
  name: "inception_3b/5x5_reduce"
  type: "Convolution"
  bottom: "inception_3a/output"
  top: "inception_3b/5x5_reduce"
  param {
    lr_mult: 1
    decay_mult: 1
  }
  param {
    lr_mult: 2
    decay_mult: 0
  }
  convolution_param {
    num_output: 32
    kernel_size: 1
    weight_filler {
      type: "xavier"
      std: 0.2
    }
    bias_filler {
      type: "constant"
      value: 0.2
    }
  }
}
layer {
  name: "inception_3b/relu_5x5_reduce"
  type: "ReLU"
  bottom: "inception_3b/5x5_reduce"
  top: "inception_3b/5x5_reduce"
}
layer {
  name: "inception_3b/5x5"
  type: "Convolution"
  bottom: "inception_3b/5x5_reduce"
  top: "inception_3b/5x5"
  param {
    lr_mult: 1
    decay_mult: 1
  }
  param {
    lr_mult: 2
    decay_mult: 0
  }
  convolution_param {
    num_output: 96
    pad: 2
    kernel_size: 5
    weight_filler {
      type: "xavier"
      std: 0.03
    }
    bias_filler {
      type: "constant"
      value: 0.2
    }
  }
}
layer {
  name: "inception_3b/relu_5x5"
  type: "ReLU"
  bottom: "inception_3b/5x5"
  top: "inception_3b/5x5"
}
layer {
  name: "inception_3b/pool"
  type: "Pooling"
  bottom: "inception_3a/output"
  top: "inception_3b/pool"
  pooling_param {
    pool: MAX
    kernel_size: 3
    stride: 1
    pad: 1
  }
}
layer {
  name: "inception_3b/pool_proj"
  type: "Convolution"
  bottom: "inception_3b/pool"
  top: "inception_3b/pool_proj"
  param {
    lr_mult: 1
    decay_mult: 1
  }
  param {
    lr_mult: 2
    decay_mult: 0
  }
  convolution_param {
    num_output: 64
    kernel_size: 1
    weight_filler {
      type: "xavier"
      std: 0.1
    }
    bias_filler {
      type: "constant"
      value: 0.2
    }
  }
}
layer {
  name: "inception_3b/relu_pool_proj"
  type: "ReLU"
  bottom: "inception_3b/pool_proj"
  top: "inception_3b/pool_proj"
}
layer {
  name: "inception_3b/output"
  type: "Concat"
  bottom: "inception_3b/1x1"
  bottom: "inception_3b/3x3"
  bottom: "inception_3b/5x5"
  bottom: "inception_3b/pool_proj"
  top: "inception_3b/output"
}
layer {
  name: "pool3/3x3_s2"
  type: "Pooling"
  bottom: "inception_3b/output"
  top: "pool3/3x3_s2"
  pooling_param {
    pool: MAX
    kernel_size: 3
    stride: 2
  }
}
layer {
  name: "inception_4a/1x1"
  type: "Convolution"
  bottom: "pool3/3x3_s2"
  top: "inception_4a/1x1"
  param {
    lr_mult: 1
    decay_mult: 1
  }
  param {
    lr_mult: 2
    decay_mult: 0
  }
  convolution_param {
    num_output: 192
    kernel_size: 1
    weight_filler {
      type: "xavier"
      std: 0.03
    }
    bias_filler {
      type: "constant"
      value: 0.2
    }
  }
}
layer {
  name: "inception_4a/relu_1x1"
  type: "ReLU"
  bottom: "inception_4a/1x1"
  top: "inception_4a/1x1"
}
layer {
  name: "inception_4a/3x3_reduce"
  type: "Convolution"
  bottom: "pool3/3x3_s2"
  top: "inception_4a/3x3_reduce"
  param {
    lr_mult: 1
    decay_mult: 1
  }
  param {
    lr_mult: 2
    decay_mult: 0
  }
  convolution_param {
    num_output: 96
    kernel_size: 1
    weight_filler {
      type: "xavier"
      std: 0.09
    }
    bias_filler {
      type: "constant"
      value: 0.2
    }
  }
}
layer {
  name: "inception_4a/relu_3x3_reduce"
  type: "ReLU"
  bottom: "inception_4a/3x3_reduce"
  top: "inception_4a/3x3_reduce"
}
layer {
  name: "inception_4a/3x3"
  type: "Convolution"
  bottom: "inception_4a/3x3_reduce"
  top: "inception_4a/3x3"
  param {
    lr_mult: 1
    decay_mult: 1
  }
  param {
    lr_mult: 2
    decay_mult: 0
  }
  convolution_param {
    num_output: 208
    pad: 1
    kernel_size: 3
    weight_filler {
      type: "xavier"
      std: 0.03
    }
    bias_filler {
      type: "constant"
      value: 0.2
    }
  }
}
layer {
  name: "inception_4a/relu_3x3"
  type: "ReLU"
  bottom: "inception_4a/3x3"
  top: "inception_4a/3x3"
}
layer {
  name: "inception_4a/5x5_reduce"
  type: "Convolution"
  bottom: "pool3/3x3_s2"
  top: "inception_4a/5x5_reduce"
  param {
    lr_mult: 1
    decay_mult: 1
  }
  param {
    lr_mult: 2
    decay_mult: 0
  }
  convolution_param {
    num_output: 16
    kernel_size: 1
    weight_filler {
      type: "xavier"
      std: 0.2
    }
    bias_filler {
      type: "constant"
      value: 0.2
    }
  }
}
layer {
  name: "inception_4a/relu_5x5_reduce"
  type: "ReLU"
  bottom: "inception_4a/5x5_reduce"
  top: "inception_4a/5x5_reduce"
}
layer {
  name: "inception_4a/5x5"
  type: "Convolution"
  bottom: "inception_4a/5x5_reduce"
  top: "inception_4a/5x5"
  param {
    lr_mult: 1
    decay_mult: 1
  }
  param {
    lr_mult: 2
    decay_mult: 0
  }
  convolution_param {
    num_output: 48
    pad: 2
    kernel_size: 5
    weight_filler {
      type: "xavier"
      std: 0.03
    }
    bias_filler {
      type: "constant"
      value: 0.2
    }
  }
}
layer {
  name: "inception_4a/relu_5x5"
  type: "ReLU"
  bottom: "inception_4a/5x5"
  top: "inception_4a/5x5"
}
layer {
  name: "inception_4a/pool"
  type: "Pooling"
  bottom: "pool3/3x3_s2"
  top: "inception_4a/pool"
  pooling_param {
    pool: MAX
    kernel_size: 3
    stride: 1
    pad: 1
  }
}
layer {
  name: "inception_4a/pool_proj"
  type: "Convolution"
  bottom: "inception_4a/pool"
  top: "inception_4a/pool_proj"
  param {
    lr_mult: 1
    decay_mult: 1
  }
  param {
    lr_mult: 2
    decay_mult: 0
  }
  convolution_param {
    num_output: 64
    kernel_size: 1
    weight_filler {
      type: "xavier"
      std: 0.1
    }
    bias_filler {
      type: "constant"
      value: 0.2
    }
  }
}
layer {
  name: "inception_4a/relu_pool_proj"
  type: "ReLU"
  bottom: "inception_4a/pool_proj"
  top: "inception_4a/pool_proj"
}
layer {
  name: "inception_4a/output"
  type: "Concat"
  bottom: "inception_4a/1x1"
  bottom: "inception_4a/3x3"
  bottom: "inception_4a/5x5"
  bottom: "inception_4a/pool_proj"
  top: "inception_4a/output"
}
layer {
  name: "loss1/ave_pool"
  type: "Pooling"
  bottom: "inception_4a/output"
  top: "loss1/ave_pool"
  pooling_param {
    pool: AVE
    kernel_size: 5
    stride: 3
  }
}
layer {
  name: "loss1/conv"
  type: "Convolution"
  bottom: "loss1/ave_pool"
  top: "loss1/conv"
  param {
    lr_mult: 1
    decay_mult: 1
  }
  param {
    lr_mult: 2
    decay_mult: 0
  }
  convolution_param {
    num_output: 128
    kernel_size: 1
    weight_filler {
      type: "xavier"
      std: 0.08
    }
    bias_filler {
      type: "constant"
      value: 0.2
    }
  }
}
layer {
  name: "loss1/relu_conv"
  type: "ReLU"
  bottom: "loss1/conv"
  top: "loss1/conv"
}
layer {
  name: "loss1/fc"
  type: "InnerProduct"
  bottom: "loss1/conv"
  top: "loss1/fc"
  param {
    lr_mult: 1
    decay_mult: 1
  }
  param {
    lr_mult: 2
    decay_mult: 0
  }
  inner_product_param {
    num_output: 1024
    weight_filler {
      type: "xavier"
      std: 0.02
    }
    bias_filler {
      type: "constant"
      value: 0.2
    }
  }
}
layer {
  name: "loss1/relu_fc"
  type: "ReLU"
  bottom: "loss1/fc"
  top: "loss1/fc"
}
layer {
  name: "loss1/drop_fc"
  type: "Dropout"
  bottom: "loss1/fc"
  top: "loss1/fc"
  dropout_param {
    dropout_ratio: 0.7
  }
}
layer {
  name: "loss1/classifier"
  type: "InnerProduct"
  bottom: "loss1/fc"
  top: "loss1/classifier"
  param {
    lr_mult: 1
    decay_mult: 1
  }
  param {
    lr_mult: 2
    decay_mult: 0
  }
  inner_product_param {
    num_output: 2
    weight_filler {
      type: "xavier"
      std: 0.0009765625
    }
    bias_filler {
      type: "constant"
      value: 0
    }
  }
}
layer {
  name: "loss1/loss"
  type: "SoftmaxWithLoss"
  bottom: "loss1/classifier"
  bottom: "label"
  top: "loss1/loss1"
  loss_weight: 0.3
}
layer {
  name: "loss1/top-1"
  type: "Accuracy"
  bottom: "loss1/classifier"
  bottom: "label"
  top: "loss1/top-1"
  include {
    phase: TEST
  }
}
layer {
  name: "inception_4b/1x1"
  type: "Convolution"
  bottom: "inception_4a/output"
  top: "inception_4b/1x1"
  param {
    lr_mult: 1
    decay_mult: 1
  }
  param {
    lr_mult: 2
    decay_mult: 0
  }
  convolution_param {
    num_output: 160
    kernel_size: 1
    weight_filler {
      type: "xavier"
      std: 0.03
    }
    bias_filler {
      type: "constant"
      value: 0.2
    }
  }
}
layer {
  name: "inception_4b/relu_1x1"
  type: "ReLU"
  bottom: "inception_4b/1x1"
  top: "inception_4b/1x1"
}
layer {
  name: "inception_4b/3x3_reduce"
  type: "Convolution"
  bottom: "inception_4a/output"
  top: "inception_4b/3x3_reduce"
  param {
    lr_mult: 1
    decay_mult: 1
  }
  param {
    lr_mult: 2
    decay_mult: 0
  }
  convolution_param {
    num_output: 112
    kernel_size: 1
    weight_filler {
      type: "xavier"
      std: 0.09
    }
    bias_filler {
      type: "constant"
      value: 0.2
    }
  }
}
layer {
  name: "inception_4b/relu_3x3_reduce"
  type: "ReLU"
  bottom: "inception_4b/3x3_reduce"
  top: "inception_4b/3x3_reduce"
}
layer {
  name: "inception_4b/3x3"
  type: "Convolution"
  bottom: "inception_4b/3x3_reduce"
  top: "inception_4b/3x3"
  param {
    lr_mult: 1
    decay_mult: 1
  }
  param {
    lr_mult: 2
    decay_mult: 0
  }
  convolution_param {
    num_output: 224
    pad: 1
    kernel_size: 3
    weight_filler {
      type: "xavier"
      std: 0.03
    }
    bias_filler {
      type: "constant"
      value: 0.2
    }
  }
}
layer {
  name: "inception_4b/relu_3x3"
  type: "ReLU"
  bottom: "inception_4b/3x3"
  top: "inception_4b/3x3"
}
layer {
  name: "inception_4b/5x5_reduce"
  type: "Convolution"
  bottom: "inception_4a/output"
  top: "inception_4b/5x5_reduce"
  param {
    lr_mult: 1
    decay_mult: 1
  }
  param {
    lr_mult: 2
    decay_mult: 0
  }
  convolution_param {
    num_output: 24
    kernel_size: 1
    weight_filler {
      type: "xavier"
      std: 0.2
    }
    bias_filler {
      type: "constant"
      value: 0.2
    }
  }
}
layer {
  name: "inception_4b/relu_5x5_reduce"
  type: "ReLU"
  bottom: "inception_4b/5x5_reduce"
  top: "inception_4b/5x5_reduce"
}
layer {
  name: "inception_4b/5x5"
  type: "Convolution"
  bottom: "inception_4b/5x5_reduce"
  top: "inception_4b/5x5"
  param {
    lr_mult: 1
    decay_mult: 1
  }
  param {
    lr_mult: 2
    decay_mult: 0
  }
  convolution_param {
    num_output: 64
    pad: 2
    kernel_size: 5
    weight_filler {
      type: "xavier"
      std: 0.03
    }
    bias_filler {
      type: "constant"
      value: 0.2
    }
  }
}
layer {
  name: "inception_4b/relu_5x5"
  type: "ReLU"
  bottom: "inception_4b/5x5"
  top: "inception_4b/5x5"
}
layer {
  name: "inception_4b/pool"
  type: "Pooling"
  bottom: "inception_4a/output"
  top: "inception_4b/pool"
  pooling_param {
    pool: MAX
    kernel_size: 3
    stride: 1
    pad: 1
  }
}
layer {
  name: "inception_4b/pool_proj"
  type: "Convolution"
  bottom: "inception_4b/pool"
  top: "inception_4b/pool_proj"
  param {
    lr_mult: 1
    decay_mult: 1
  }
  param {
    lr_mult: 2
    decay_mult: 0
  }
  convolution_param {
    num_output: 64
    kernel_size: 1
    weight_filler {
      type: "xavier"
      std: 0.1
    }
    bias_filler {
      type: "constant"
      value: 0.2
    }
  }
}
layer {
  name: "inception_4b/relu_pool_proj"
  type: "ReLU"
  bottom: "inception_4b/pool_proj"
  top: "inception_4b/pool_proj"
}
layer {
  name: "inception_4b/output"
  type: "Concat"
  bottom: "inception_4b/1x1"
  bottom: "inception_4b/3x3"
  bottom: "inception_4b/5x5"
  bottom: "inception_4b/pool_proj"
  top: "inception_4b/output"
}
layer {
  name: "inception_4c/1x1"
  type: "Convolution"
  bottom: "inception_4b/output"
  top: "inception_4c/1x1"
  param {
    lr_mult: 1
    decay_mult: 1
  }
  param {
    lr_mult: 2
    decay_mult: 0
  }
  convolution_param {
    num_output: 128
    kernel_size: 1
    weight_filler {
      type: "xavier"
      std: 0.03
    }
    bias_filler {
      type: "constant"
      value: 0.2
    }
  }
}
layer {
  name: "inception_4c/relu_1x1"
  type: "ReLU"
  bottom: "inception_4c/1x1"
  top: "inception_4c/1x1"
}
layer {
  name: "inception_4c/3x3_reduce"
  type: "Convolution"
  bottom: "inception_4b/output"
  top: "inception_4c/3x3_reduce"
  param {
    lr_mult: 1
    decay_mult: 1
  }
  param {
    lr_mult: 2
    decay_mult: 0
  }
  convolution_param {
    num_output: 128
    kernel_size: 1
    weight_filler {
      type: "xavier"
      std: 0.09
    }
    bias_filler {
      type: "constant"
      value: 0.2
    }
  }
}
layer {
  name: "inception_4c/relu_3x3_reduce"
  type: "ReLU"
  bottom: "inception_4c/3x3_reduce"
  top: "inception_4c/3x3_reduce"
}
layer {
  name: "inception_4c/3x3"
  type: "Convolution"
  bottom: "inception_4c/3x3_reduce"
  top: "inception_4c/3x3"
  param {
    lr_mult: 1
    decay_mult: 1
  }
  param {
    lr_mult: 2
    decay_mult: 0
  }
  convolution_param {
    num_output: 256
    pad: 1
    kernel_size: 3
    weight_filler {
      type: "xavier"
      std: 0.03
    }
    bias_filler {
      type: "constant"
      value: 0.2
    }
  }
}
layer {
  name: "inception_4c/relu_3x3"
  type: "ReLU"
  bottom: "inception_4c/3x3"
  top: "inception_4c/3x3"
}
layer {
  name: "inception_4c/5x5_reduce"
  type: "Convolution"
  bottom: "inception_4b/output"
  top: "inception_4c/5x5_reduce"
  param {
    lr_mult: 1
    decay_mult: 1
  }
  param {
    lr_mult: 2
    decay_mult: 0
  }
  convolution_param {
    num_output: 24
    kernel_size: 1
    weight_filler {
      type: "xavier"
      std: 0.2
    }
    bias_filler {
      type: "constant"
      value: 0.2
    }
  }
}
layer {
  name: "inception_4c/relu_5x5_reduce"
  type: "ReLU"
  bottom: "inception_4c/5x5_reduce"
  top: "inception_4c/5x5_reduce"
}
layer {
  name: "inception_4c/5x5"
  type: "Convolution"
  bottom: "inception_4c/5x5_reduce"
  top: "inception_4c/5x5"
  param {
    lr_mult: 1
    decay_mult: 1
  }
  param {
    lr_mult: 2
    decay_mult: 0
  }
  convolution_param {
    num_output: 64
    pad: 2
    kernel_size: 5
    weight_filler {
      type: "xavier"
      std: 0.03
    }
    bias_filler {
      type: "constant"
      value: 0.2
    }
  }
}
layer {
  name: "inception_4c/relu_5x5"
  type: "ReLU"
  bottom: "inception_4c/5x5"
  top: "inception_4c/5x5"
}
layer {
  name: "inception_4c/pool"
  type: "Pooling"
  bottom: "inception_4b/output"
  top: "inception_4c/pool"
  pooling_param {
    pool: MAX
    kernel_size: 3
    stride: 1
    pad: 1
  }
}
layer {
  name: "inception_4c/pool_proj"
  type: "Convolution"
  bottom: "inception_4c/pool"
  top: "inception_4c/pool_proj"
  param {
    lr_mult: 1
    decay_mult: 1
  }
  param {
    lr_mult: 2
    decay_mult: 0
  }
  convolution_param {
    num_output: 64
    kernel_size: 1
    weight_filler {
      type: "xavier"
      std: 0.1
    }
    bias_filler {
      type: "constant"
      value: 0.2
    }
  }
}
layer {
  name: "inception_4c/relu_pool_proj"
  type: "ReLU"
  bottom: "inception_4c/pool_proj"
  top: "inception_4c/pool_proj"
}
layer {
  name: "inception_4c/output"
  type: "Concat"
  bottom: "inception_4c/1x1"
  bottom: "inception_4c/3x3"
  bottom: "inception_4c/5x5"
  bottom: "inception_4c/pool_proj"
  top: "inception_4c/output"
}
layer {
  name: "inception_4d/1x1"
  type: "Convolution"
  bottom: "inception_4c/output"
  top: "inception_4d/1x1"
  param {
    lr_mult: 1
    decay_mult: 1
  }
  param {
    lr_mult: 2
    decay_mult: 0
  }
  convolution_param {
    num_output: 112
    kernel_size: 1
    weight_filler {
      type: "xavier"
      std: 0.03
    }
    bias_filler {
      type: "constant"
      value: 0.2
    }
  }
}
layer {
  name: "inception_4d/relu_1x1"
  type: "ReLU"
  bottom: "inception_4d/1x1"
  top: "inception_4d/1x1"
}
layer {
  name: "inception_4d/3x3_reduce"
  type: "Convolution"
  bottom: "inception_4c/output"
  top: "inception_4d/3x3_reduce"
  param {
    lr_mult: 1
    decay_mult: 1
  }
  param {
    lr_mult: 2
    decay_mult: 0
  }
  convolution_param {
    num_output: 144
    kernel_size: 1
    weight_filler {
      type: "xavier"
      std: 0.09
    }
    bias_filler {
      type: "constant"
      value: 0.2
    }
  }
}
layer {
  name: "inception_4d/relu_3x3_reduce"
  type: "ReLU"
  bottom: "inception_4d/3x3_reduce"
  top: "inception_4d/3x3_reduce"
}
layer {
  name: "inception_4d/3x3"
  type: "Convolution"
  bottom: "inception_4d/3x3_reduce"
  top: "inception_4d/3x3"
  param {
    lr_mult: 1
    decay_mult: 1
  }
  param {
    lr_mult: 2
    decay_mult: 0
  }
  convolution_param {
    num_output: 288
    pad: 1
    kernel_size: 3
    weight_filler {
      type: "xavier"
      std: 0.03
    }
    bias_filler {
      type: "constant"
      value: 0.2
    }
  }
}
layer {
  name: "inception_4d/relu_3x3"
  type: "ReLU"
  bottom: "inception_4d/3x3"
  top: "inception_4d/3x3"
}
layer {
  name: "inception_4d/5x5_reduce"
  type: "Convolution"
  bottom: "inception_4c/output"
  top: "inception_4d/5x5_reduce"
  param {
    lr_mult: 1
    decay_mult: 1
  }
  param {
    lr_mult: 2
    decay_mult: 0
  }
  convolution_param {
    num_output: 32
    kernel_size: 1
    weight_filler {
      type: "xavier"
      std: 0.2
    }
    bias_filler {
      type: "constant"
      value: 0.2
    }
  }
}
layer {
  name: "inception_4d/relu_5x5_reduce"
  type: "ReLU"
  bottom: "inception_4d/5x5_reduce"
  top: "inception_4d/5x5_reduce"
}
layer {
  name: "inception_4d/5x5"
  type: "Convolution"
  bottom: "inception_4d/5x5_reduce"
  top: "inception_4d/5x5"
  param {
    lr_mult: 1
    decay_mult: 1
  }
  param {
    lr_mult: 2
    decay_mult: 0
  }
  convolution_param {
    num_output: 64
    pad: 2
    kernel_size: 5
    weight_filler {
      type: "xavier"
      std: 0.03
    }
    bias_filler {
      type: "constant"
      value: 0.2
    }
  }
}
layer {
  name: "inception_4d/relu_5x5"
  type: "ReLU"
  bottom: "inception_4d/5x5"
  top: "inception_4d/5x5"
}
layer {
  name: "inception_4d/pool"
  type: "Pooling"
  bottom: "inception_4c/output"
  top: "inception_4d/pool"
  pooling_param {
    pool: MAX
    kernel_size: 3
    stride: 1
    pad: 1
  }
}
layer {
  name: "inception_4d/pool_proj"
  type: "Convolution"
  bottom: "inception_4d/pool"
  top: "inception_4d/pool_proj"
  param {
    lr_mult: 1
    decay_mult: 1
  }
  param {
    lr_mult: 2
    decay_mult: 0
  }
  convolution_param {
    num_output: 64
    kernel_size: 1
    weight_filler {
      type: "xavier"
      std: 0.1
    }
    bias_filler {
      type: "constant"
      value: 0.2
    }
  }
}
layer {
  name: "inception_4d/relu_pool_proj"
  type: "ReLU"
  bottom: "inception_4d/pool_proj"
  top: "inception_4d/pool_proj"
}
layer {
  name: "inception_4d/output"
  type: "Concat"
  bottom: "inception_4d/1x1"
  bottom: "inception_4d/3x3"
  bottom: "inception_4d/5x5"
  bottom: "inception_4d/pool_proj"
  top: "inception_4d/output"
}
layer {
  name: "loss2/ave_pool"
  type: "Pooling"
  bottom: "inception_4d/output"
  top: "loss2/ave_pool"
  pooling_param {
    pool: AVE
    kernel_size: 5
    stride: 3
  }
}
layer {
  name: "loss2/conv"
  type: "Convolution"
  bottom: "loss2/ave_pool"
  top: "loss2/conv"
  param {
    lr_mult: 1
    decay_mult: 1
  }
  param {
    lr_mult: 2
    decay_mult: 0
  }
  convolution_param {
    num_output: 128
    kernel_size: 1
    weight_filler {
      type: "xavier"
      std: 0.08
    }
    bias_filler {
      type: "constant"
      value: 0.2
    }
  }
}
layer {
  name: "loss2/relu_conv"
  type: "ReLU"
  bottom: "loss2/conv"
  top: "loss2/conv"
}
layer {
  name: "loss2/fc"
  type: "InnerProduct"
  bottom: "loss2/conv"
  top: "loss2/fc"
  param {
    lr_mult: 1
    decay_mult: 1
  }
  param {
    lr_mult: 2
    decay_mult: 0
  }
  inner_product_param {
    num_output: 1024
    weight_filler {
      type: "xavier"
      std: 0.02
    }
    bias_filler {
      type: "constant"
      value: 0.2
    }
  }
}
layer {
  name: "loss2/relu_fc"
  type: "ReLU"
  bottom: "loss2/fc"
  top: "loss2/fc"
}
layer {
  name: "loss2/drop_fc"
  type: "Dropout"
  bottom: "loss2/fc"
  top: "loss2/fc"
  dropout_param {
    dropout_ratio: 0.7
  }
}
layer {
  name: "loss2/classifier"
  type: "InnerProduct"
  bottom: "loss2/fc"
  top: "loss2/classifier"
  param {
    lr_mult: 1
    decay_mult: 1
  }
  param {
    lr_mult: 2
    decay_mult: 0
  }
  inner_product_param {
    num_output: 2
    weight_filler {
      type: "xavier"
      std: 0.0009765625
    }
    bias_filler {
      type: "constant"
      value: 0
    }
  }
}
layer {
  name: "loss2/loss"
  type: "SoftmaxWithLoss"
  bottom: "loss2/classifier"
  bottom: "label"
  top: "loss2/loss1"
  loss_weight: 0.3
}
layer {
  name: "loss2/top-1"
  type: "Accuracy"
  bottom: "loss2/classifier"
  bottom: "label"
  top: "loss2/top-1"
  include {
    phase: TEST
  }
}
layer {
  name: "inception_4e/1x1"
  type: "Convolution"
  bottom: "inception_4d/output"
  top: "inception_4e/1x1"
  param {
    lr_mult: 1
    decay_mult: 1
  }
  param {
    lr_mult: 2
    decay_mult: 0
  }
  convolution_param {
    num_output: 256
    kernel_size: 1
    weight_filler {
      type: "xavier"
      std: 0.03
    }
    bias_filler {
      type: "constant"
      value: 0.2
    }
  }
}
layer {
  name: "inception_4e/relu_1x1"
  type: "ReLU"
  bottom: "inception_4e/1x1"
  top: "inception_4e/1x1"
}
layer {
  name: "inception_4e/3x3_reduce"
  type: "Convolution"
  bottom: "inception_4d/output"
  top: "inception_4e/3x3_reduce"
  param {
    lr_mult: 1
    decay_mult: 1
  }
  param {
    lr_mult: 2
    decay_mult: 0
  }
  convolution_param {
    num_output: 160
    kernel_size: 1
    weight_filler {
      type: "xavier"
      std: 0.09
    }
    bias_filler {
      type: "constant"
      value: 0.2
    }
  }
}
layer {
  name: "inception_4e/relu_3x3_reduce"
  type: "ReLU"
  bottom: "inception_4e/3x3_reduce"
  top: "inception_4e/3x3_reduce"
}
layer {
  name: "inception_4e/3x3"
  type: "Convolution"
  bottom: "inception_4e/3x3_reduce"
  top: "inception_4e/3x3"
  param {
    lr_mult: 1
    decay_mult: 1
  }
  param {
    lr_mult: 2
    decay_mult: 0
  }
  convolution_param {
    num_output: 320
    pad: 1
    kernel_size: 3
    weight_filler {
      type: "xavier"
      std: 0.03
    }
    bias_filler {
      type: "constant"
      value: 0.2
    }
  }
}
layer {
  name: "inception_4e/relu_3x3"
  type: "ReLU"
  bottom: "inception_4e/3x3"
  top: "inception_4e/3x3"
}
layer {
  name: "inception_4e/5x5_reduce"
  type: "Convolution"
  bottom: "inception_4d/output"
  top: "inception_4e/5x5_reduce"
  param {
    lr_mult: 1
    decay_mult: 1
  }
  param {
   
I0509 23:08:53.833549 23119 layer_factory.hpp:74] Creating layer data
I0509 23:08:53.833585 23119 net.cpp:76] Creating Layer data
I0509 23:08:53.833597 23119 net.cpp:334] data -> data
I0509 23:08:53.833629 23119 net.cpp:334] data -> label
I0509 23:08:53.833650 23119 net.cpp:105] Setting up data
I0509 23:08:53.833760 23119 db.cpp:34] Opened lmdb val_lmdb
I0509 23:08:53.834074 23119 data_layer.cpp:67] output data size: 32,3,224,224
I0509 23:08:53.840323 23119 net.cpp:112] Top shape: 32 3 224 224 (4816896)
I0509 23:08:53.840343 23119 net.cpp:112] Top shape: 32 1 1 1 (32)
I0509 23:08:53.840353 23119 layer_factory.hpp:74] Creating layer label_data_1_split
I0509 23:08:53.840370 23119 net.cpp:76] Creating Layer label_data_1_split
I0509 23:08:53.840378 23119 net.cpp:372] label_data_1_split <- label
I0509 23:08:53.840396 23119 net.cpp:334] label_data_1_split -> label_data_1_split_0
I0509 23:08:53.840409 23119 net.cpp:334] label_data_1_split -> label_data_1_split_1
I0509 23:08:53.840419 23119 net.cpp:334] label_data_1_split -> label_data_1_split_2
I0509 23:08:53.840428 23119 net.cpp:334] label_data_1_split -> label_data_1_split_3
I0509 23:08:53.840437 23119 net.cpp:334] label_data_1_split -> label_data_1_split_4
I0509 23:08:53.840446 23119 net.cpp:334] label_data_1_split -> label_data_1_split_5
I0509 23:08:53.840454 23119 net.cpp:105] Setting up label_data_1_split
I0509 23:08:53.840464 23119 net.cpp:112] Top shape: 32 1 1 1 (32)
I0509 23:08:53.840471 23119 net.cpp:112] Top shape: 32 1 1 1 (32)
I0509 23:08:53.840477 23119 net.cpp:112] Top shape: 32 1 1 1 (32)
I0509 23:08:53.840482 23119 net.cpp:112] Top shape: 32 1 1 1 (32)
I0509 23:08:53.840487 23119 net.cpp:112] Top shape: 32 1 1 1 (32)
I0509 23:08:53.840492 23119 net.cpp:112] Top shape: 32 1 1 1 (32)
I0509 23:08:53.840498 23119 layer_factory.hpp:74] Creating layer conv1/7x7_s2
I0509 23:08:53.840513 23119 net.cpp:76] Creating Layer conv1/7x7_s2
I0509 23:08:53.840520 23119 net.cpp:372] conv1/7x7_s2 <- data
I0509 23:08:53.840529 23119 net.cpp:334] conv1/7x7_s2 -> conv1/7x7_s2
I0509 23:08:53.840543 23119 net.cpp:105] Setting up conv1/7x7_s2
I0509 23:08:53.841075 23119 net.cpp:112] Top shape: 32 64 112 112 (25690112)
I0509 23:08:53.841096 23119 layer_factory.hpp:74] Creating layer conv1/relu_7x7
I0509 23:08:53.841106 23119 net.cpp:76] Creating Layer conv1/relu_7x7
I0509 23:08:53.841112 23119 net.cpp:372] conv1/relu_7x7 <- conv1/7x7_s2
I0509 23:08:53.841121 23119 net.cpp:323] conv1/relu_7x7 -> conv1/7x7_s2 (in-place)
I0509 23:08:53.841128 23119 net.cpp:105] Setting up conv1/relu_7x7
I0509 23:08:53.841137 23119 net.cpp:112] Top shape: 32 64 112 112 (25690112)
I0509 23:08:53.841143 23119 layer_factory.hpp:74] Creating layer pool1/3x3_s2
I0509 23:08:53.841182 23119 net.cpp:76] Creating Layer pool1/3x3_s2
I0509 23:08:53.841189 23119 net.cpp:372] pool1/3x3_s2 <- conv1/7x7_s2
I0509 23:08:53.841198 23119 net.cpp:334] pool1/3x3_s2 -> pool1/3x3_s2
I0509 23:08:53.841208 23119 net.cpp:105] Setting up pool1/3x3_s2
I0509 23:08:53.841223 23119 net.cpp:112] Top shape: 32 64 56 56 (6422528)
I0509 23:08:53.841230 23119 layer_factory.hpp:74] Creating layer pool1/norm1
I0509 23:08:53.841241 23119 net.cpp:76] Creating Layer pool1/norm1
I0509 23:08:53.841246 23119 net.cpp:372] pool1/norm1 <- pool1/3x3_s2
I0509 23:08:53.841254 23119 net.cpp:334] pool1/norm1 -> pool1/norm1
I0509 23:08:53.841264 23119 net.cpp:105] Setting up pool1/norm1
I0509 23:08:53.841286 23119 net.cpp:112] Top shape: 32 64 56 56 (6422528)
I0509 23:08:53.841295 23119 layer_factory.hpp:74] Creating layer conv2/3x3_reduce
I0509 23:08:53.841303 23119 net.cpp:76] Creating Layer conv2/3x3_reduce
I0509 23:08:53.841310 23119 net.cpp:372] conv2/3x3_reduce <- pool1/norm1
I0509 23:08:53.841318 23119 net.cpp:334] conv2/3x3_reduce -> conv2/3x3_reduce
I0509 23:08:53.841331 23119 net.cpp:105] Setting up conv2/3x3_reduce
I0509 23:08:53.841374 23119 net.cpp:112] Top shape: 32 64 56 56 (6422528)
I0509 23:08:53.841387 23119 layer_factory.hpp:74] Creating layer conv2/relu_3x3_reduce
I0509 23:08:53.841394 23119 net.cpp:76] Creating Layer conv2/relu_3x3_reduce
I0509 23:08:53.841400 23119 net.cpp:372] conv2/relu_3x3_reduce <- conv2/3x3_reduce
I0509 23:08:53.841408 23119 net.cpp:323] conv2/relu_3x3_reduce -> conv2/3x3_reduce (in-place)
I0509 23:08:53.841414 23119 net.cpp:105] Setting up conv2/relu_3x3_reduce
I0509 23:08:53.841420 23119 net.cpp:112] Top shape: 32 64 56 56 (6422528)
I0509 23:08:53.841425 23119 layer_factory.hpp:74] Creating layer conv2/3x3
I0509 23:08:53.841435 23119 net.cpp:76] Creating Layer conv2/3x3
I0509 23:08:53.841440 23119 net.cpp:372] conv2/3x3 <- conv2/3x3_reduce
I0509 23:08:53.841449 23119 net.cpp:334] conv2/3x3 -> conv2/3x3
I0509 23:08:53.841457 23119 net.cpp:105] Setting up conv2/3x3
I0509 23:08:53.842808 23119 net.cpp:112] Top shape: 32 192 56 56 (19267584)
I0509 23:08:53.842834 23119 layer_factory.hpp:74] Creating layer conv2/relu_3x3
I0509 23:08:53.842849 23119 net.cpp:76] Creating Layer conv2/relu_3x3
I0509 23:08:53.842861 23119 net.cpp:372] conv2/relu_3x3 <- conv2/3x3
I0509 23:08:53.842880 23119 net.cpp:323] conv2/relu_3x3 -> conv2/3x3 (in-place)
I0509 23:08:53.842898 23119 net.cpp:105] Setting up conv2/relu_3x3
I0509 23:08:53.842911 23119 net.cpp:112] Top shape: 32 192 56 56 (19267584)
I0509 23:08:53.842916 23119 layer_factory.hpp:74] Creating layer conv2/norm2
I0509 23:08:53.842926 23119 net.cpp:76] Creating Layer conv2/norm2
I0509 23:08:53.842931 23119 net.cpp:372] conv2/norm2 <- conv2/3x3
I0509 23:08:53.842939 23119 net.cpp:334] conv2/norm2 -> conv2/norm2
I0509 23:08:53.842947 23119 net.cpp:105] Setting up conv2/norm2
I0509 23:08:53.842953 23119 net.cpp:112] Top shape: 32 192 56 56 (19267584)
I0509 23:08:53.842959 23119 layer_factory.hpp:74] Creating layer pool2/3x3_s2
I0509 23:08:53.842974 23119 net.cpp:76] Creating Layer pool2/3x3_s2
I0509 23:08:53.842980 23119 net.cpp:372] pool2/3x3_s2 <- conv2/norm2
I0509 23:08:53.842988 23119 net.cpp:334] pool2/3x3_s2 -> pool2/3x3_s2
I0509 23:08:53.842996 23119 net.cpp:105] Setting up pool2/3x3_s2
I0509 23:08:53.843003 23119 net.cpp:112] Top shape: 32 192 28 28 (4816896)
I0509 23:08:53.843008 23119 layer_factory.hpp:74] Creating layer pool2/3x3_s2_pool2/3x3_s2_0_split
I0509 23:08:53.843019 23119 net.cpp:76] Creating Layer pool2/3x3_s2_pool2/3x3_s2_0_split
I0509 23:08:53.843024 23119 net.cpp:372] pool2/3x3_s2_pool2/3x3_s2_0_split <- pool2/3x3_s2
I0509 23:08:53.843031 23119 net.cpp:334] pool2/3x3_s2_pool2/3x3_s2_0_split -> pool2/3x3_s2_pool2/3x3_s2_0_split_0
I0509 23:08:53.843039 23119 net.cpp:334] pool2/3x3_s2_pool2/3x3_s2_0_split -> pool2/3x3_s2_pool2/3x3_s2_0_split_1
I0509 23:08:53.843050 23119 net.cpp:334] pool2/3x3_s2_pool2/3x3_s2_0_split -> pool2/3x3_s2_pool2/3x3_s2_0_split_2
I0509 23:08:53.843078 23119 net.cpp:334] pool2/3x3_s2_pool2/3x3_s2_0_split -> pool2/3x3_s2_pool2/3x3_s2_0_split_3
I0509 23:08:53.843086 23119 net.cpp:105] Setting up pool2/3x3_s2_pool2/3x3_s2_0_split
I0509 23:08:53.843093 23119 net.cpp:112] Top shape: 32 192 28 28 (4816896)
I0509 23:08:53.843101 23119 net.cpp:112] Top shape: 32 192 28 28 (4816896)
I0509 23:08:53.843107 23119 net.cpp:112] Top shape: 32 192 28 28 (4816896)
I0509 23:08:53.843112 23119 net.cpp:112] Top shape: 32 192 28 28 (4816896)
I0509 23:08:53.843118 23119 layer_factory.hpp:74] Creating layer inception_3a/1x1
I0509 23:08:53.843127 23119 net.cpp:76] Creating Layer inception_3a/1x1
I0509 23:08:53.843133 23119 net.cpp:372] inception_3a/1x1 <- pool2/3x3_s2_pool2/3x3_s2_0_split_0
I0509 23:08:53.843144 23119 net.cpp:334] inception_3a/1x1 -> inception_3a/1x1
I0509 23:08:53.843157 23119 net.cpp:105] Setting up inception_3a/1x1
I0509 23:08:53.843324 23119 net.cpp:112] Top shape: 32 64 28 28 (1605632)
I0509 23:08:53.843345 23119 layer_factory.hpp:74] Creating layer inception_3a/relu_1x1
I0509 23:08:53.843355 23119 net.cpp:76] Creating Layer inception_3a/relu_1x1
I0509 23:08:53.843361 23119 net.cpp:372] inception_3a/relu_1x1 <- inception_3a/1x1
I0509 23:08:53.843385 23119 net.cpp:323] inception_3a/relu_1x1 -> inception_3a/1x1 (in-place)
I0509 23:08:53.843395 23119 net.cpp:105] Setting up inception_3a/relu_1x1
I0509 23:08:53.843400 23119 net.cpp:112] Top shape: 32 64 28 28 (1605632)
I0509 23:08:53.843406 23119 layer_factory.hpp:74] Creating layer inception_3a/3x3_reduce
I0509 23:08:53.843418 23119 net.cpp:76] Creating Layer inception_3a/3x3_reduce
I0509 23:08:53.843425 23119 net.cpp:372] inception_3a/3x3_reduce <- pool2/3x3_s2_pool2/3x3_s2_0_split_1
I0509 23:08:53.843436 23119 net.cpp:334] inception_3a/3x3_reduce -> inception_3a/3x3_reduce
I0509 23:08:53.843446 23119 net.cpp:105] Setting up inception_3a/3x3_reduce
I0509 23:08:53.843677 23119 net.cpp:112] Top shape: 32 96 28 28 (2408448)
I0509 23:08:53.843698 23119 layer_factory.hpp:74] Creating layer inception_3a/relu_3x3_reduce
I0509 23:08:53.843709 23119 net.cpp:76] Creating Layer inception_3a/relu_3x3_reduce
I0509 23:08:53.843716 23119 net.cpp:372] inception_3a/relu_3x3_reduce <- inception_3a/3x3_reduce
I0509 23:08:53.843724 23119 net.cpp:323] inception_3a/relu_3x3_reduce -> inception_3a/3x3_reduce (in-place)
I0509 23:08:53.843732 23119 net.cpp:105] Setting up inception_3a/relu_3x3_reduce
I0509 23:08:53.843737 23119 net.cpp:112] Top shape: 32 96 28 28 (2408448)
I0509 23:08:53.843742 23119 layer_factory.hpp:74] Creating layer inception_3a/3x3
I0509 23:08:53.843755 23119 net.cpp:76] Creating Layer inception_3a/3x3
I0509 23:08:53.843760 23119 net.cpp:372] inception_3a/3x3 <- inception_3a/3x3_reduce
I0509 23:08:53.843771 23119 net.cpp:334] inception_3a/3x3 -> inception_3a/3x3
I0509 23:08:53.843790 23119 net.cpp:105] Setting up inception_3a/3x3
I0509 23:08:53.845172 23119 net.cpp:112] Top shape: 32 128 28 28 (3211264)
I0509 23:08:53.845191 23119 layer_factory.hpp:74] Creating layer inception_3a/relu_3x3
I0509 23:08:53.845199 23119 net.cpp:76] Creating Layer inception_3a/relu_3x3
I0509 23:08:53.845206 23119 net.cpp:372] inception_3a/relu_3x3 <- inception_3a/3x3
I0509 23:08:53.845213 23119 net.cpp:323] inception_3a/relu_3x3 -> inception_3a/3x3 (in-place)
I0509 23:08:53.845221 23119 net.cpp:105] Setting up inception_3a/relu_3x3
I0509 23:08:53.845227 23119 net.cpp:112] Top shape: 32 128 28 28 (3211264)
I0509 23:08:53.845232 23119 layer_factory.hpp:74] Creating layer inception_3a/5x5_reduce
I0509 23:08:53.845243 23119 net.cpp:76] Creating Layer inception_3a/5x5_reduce
I0509 23:08:53.845250 23119 net.cpp:372] inception_3a/5x5_reduce <- pool2/3x3_s2_pool2/3x3_s2_0_split_2
I0509 23:08:53.845258 23119 net.cpp:334] inception_3a/5x5_reduce -> inception_3a/5x5_reduce
I0509 23:08:53.845268 23119 net.cpp:105] Setting up inception_3a/5x5_reduce
I0509 23:08:53.845346 23119 net.cpp:112] Top shape: 32 16 28 28 (401408)
I0509 23:08:53.845360 23119 layer_factory.hpp:74] Creating layer inception_3a/relu_5x5_reduce
I0509 23:08:53.845371 23119 net.cpp:76] Creating Layer inception_3a/relu_5x5_reduce
I0509 23:08:53.845396 23119 net.cpp:372] inception_3a/relu_5x5_reduce <- inception_3a/5x5_reduce
I0509 23:08:53.845404 23119 net.cpp:323] inception_3a/relu_5x5_reduce -> inception_3a/5x5_reduce (in-place)
I0509 23:08:53.845412 23119 net.cpp:105] Setting up inception_3a/relu_5x5_reduce
I0509 23:08:53.845418 23119 net.cpp:112] Top shape: 32 16 28 28 (401408)
I0509 23:08:53.845423 23119 layer_factory.hpp:74] Creating layer inception_3a/5x5
I0509 23:08:53.845432 23119 net.cpp:76] Creating Layer inception_3a/5x5
I0509 23:08:53.845438 23119 net.cpp:372] inception_3a/5x5 <- inception_3a/5x5_reduce
I0509 23:08:53.845448 23119 net.cpp:334] inception_3a/5x5 -> inception_3a/5x5
I0509 23:08:53.845458 23119 net.cpp:105] Setting up inception_3a/5x5
I0509 23:08:53.845576 23119 net.cpp:112] Top shape: 32 32 28 28 (802816)
I0509 23:08:53.845587 23119 layer_factory.hpp:74] Creating layer inception_3a/relu_5x5
I0509 23:08:53.845594 23119 net.cpp:76] Creating Layer inception_3a/relu_5x5
I0509 23:08:53.845600 23119 net.cpp:372] inception_3a/relu_5x5 <- inception_3a/5x5
I0509 23:08:53.845607 23119 net.cpp:323] inception_3a/relu_5x5 -> inception_3a/5x5 (in-place)
I0509 23:08:53.845614 23119 net.cpp:105] Setting up inception_3a/relu_5x5
I0509 23:08:53.845619 23119 net.cpp:112] Top shape: 32 32 28 28 (802816)
I0509 23:08:53.845625 23119 layer_factory.hpp:74] Creating layer inception_3a/pool
I0509 23:08:53.845638 23119 net.cpp:76] Creating Layer inception_3a/pool
I0509 23:08:53.845644 23119 net.cpp:372] inception_3a/pool <- pool2/3x3_s2_pool2/3x3_s2_0_split_3
I0509 23:08:53.845651 23119 net.cpp:334] inception_3a/pool -> inception_3a/pool
I0509 23:08:53.845660 23119 net.cpp:105] Setting up inception_3a/pool
I0509 23:08:53.845667 23119 net.cpp:112] Top shape: 32 192 28 28 (4816896)
I0509 23:08:53.845675 23119 layer_factory.hpp:74] Creating layer inception_3a/pool_proj
I0509 23:08:53.845688 23119 net.cpp:76] Creating Layer inception_3a/pool_proj
I0509 23:08:53.845695 23119 net.cpp:372] inception_3a/pool_proj <- inception_3a/pool
I0509 23:08:53.845705 23119 net.cpp:334] inception_3a/pool_proj -> inception_3a/pool_proj
I0509 23:08:53.845715 23119 net.cpp:105] Setting up inception_3a/pool_proj
I0509 23:08:53.845780 23119 net.cpp:112] Top shape: 32 32 28 28 (802816)
I0509 23:08:53.845794 23119 layer_factory.hpp:74] Creating layer inception_3a/relu_pool_proj
I0509 23:08:53.845803 23119 net.cpp:76] Creating Layer inception_3a/relu_pool_proj
I0509 23:08:53.845810 23119 net.cpp:372] inception_3a/relu_pool_proj <- inception_3a/pool_proj
I0509 23:08:53.845818 23119 net.cpp:323] inception_3a/relu_pool_proj -> inception_3a/pool_proj (in-place)
I0509 23:08:53.845824 23119 net.cpp:105] Setting up inception_3a/relu_pool_proj
I0509 23:08:53.845830 23119 net.cpp:112] Top shape: 32 32 28 28 (802816)
I0509 23:08:53.845835 23119 layer_factory.hpp:74] Creating layer inception_3a/output
I0509 23:08:53.845845 23119 net.cpp:76] Creating Layer inception_3a/output
I0509 23:08:53.845851 23119 net.cpp:372] inception_3a/output <- inception_3a/1x1
I0509 23:08:53.845862 23119 net.cpp:372] inception_3a/output <- inception_3a/3x3
I0509 23:08:53.845870 23119 net.cpp:372] inception_3a/output <- inception_3a/5x5
I0509 23:08:53.845875 23119 net.cpp:372] inception_3a/output <- inception_3a/pool_proj
I0509 23:08:53.845885 23119 net.cpp:334] inception_3a/output -> inception_3a/output
I0509 23:08:53.845893 23119 net.cpp:105] Setting up inception_3a/output
I0509 23:08:53.845901 23119 net.cpp:112] Top shape: 32 256 28 28 (6422528)
I0509 23:08:53.845907 23119 layer_factory.hpp:74] Creating layer inception_3a/output_inception_3a/output_0_split
I0509 23:08:53.845916 23119 net.cpp:76] Creating Layer inception_3a/output_inception_3a/output_0_split
I0509 23:08:53.845921 23119 net.cpp:372] inception_3a/output_inception_3a/output_0_split <- inception_3a/output
I0509 23:08:53.845928 23119 net.cpp:334] inception_3a/output_inception_3a/output_0_split -> inception_3a/output_inception_3a/output_0_split_0
I0509 23:08:53.845937 23119 net.cpp:334] inception_3a/output_inception_3a/output_0_split -> inception_3a/output_inception_3a/output_0_split_1
I0509 23:08:53.845958 23119 net.cpp:334] inception_3a/output_inception_3a/output_0_split -> inception_3a/output_inception_3a/output_0_split_2
I0509 23:08:53.845970 23119 net.cpp:334] inception_3a/output_inception_3a/output_0_split -> inception_3a/output_inception_3a/output_0_split_3
I0509 23:08:53.845978 23119 net.cpp:105] Setting up inception_3a/output_inception_3a/output_0_split
I0509 23:08:53.845985 23119 net.cpp:112] Top shape: 32 256 28 28 (6422528)
I0509 23:08:53.845991 23119 net.cpp:112] Top shape: 32 256 28 28 (6422528)
I0509 23:08:53.845996 23119 net.cpp:112] Top shape: 32 256 28 28 (6422528)
I0509 23:08:53.846001 23119 net.cpp:112] Top shape: 32 256 28 28 (6422528)
I0509 23:08:53.846006 23119 layer_factory.hpp:74] Creating layer inception_3b/1x1
I0509 23:08:53.846015 23119 net.cpp:76] Creating Layer inception_3b/1x1
I0509 23:08:53.846024 23119 net.cpp:372] inception_3b/1x1 <- inception_3a/output_inception_3a/output_0_split_0
I0509 23:08:53.846031 23119 net.cpp:334] inception_3b/1x1 -> inception_3b/1x1
I0509 23:08:53.846040 23119 net.cpp:105] Setting up inception_3b/1x1
I0509 23:08:53.846369 23119 net.cpp:112] Top shape: 32 128 28 28 (3211264)
I0509 23:08:53.846388 23119 layer_factory.hpp:74] Creating layer inception_3b/relu_1x1
I0509 23:08:53.846397 23119 net.cpp:76] Creating Layer inception_3b/relu_1x1
I0509 23:08:53.846405 23119 net.cpp:372] inception_3b/relu_1x1 <- inception_3b/1x1
I0509 23:08:53.846417 23119 net.cpp:323] inception_3b/relu_1x1 -> inception_3b/1x1 (in-place)
I0509 23:08:53.846426 23119 net.cpp:105] Setting up inception_3b/relu_1x1
I0509 23:08:53.846432 23119 net.cpp:112] Top shape: 32 128 28 28 (3211264)
I0509 23:08:53.846438 23119 layer_factory.hpp:74] Creating layer inception_3b/3x3_reduce
I0509 23:08:53.846447 23119 net.cpp:76] Creating Layer inception_3b/3x3_reduce
I0509 23:08:53.846452 23119 net.cpp:372] inception_3b/3x3_reduce <- inception_3a/output_inception_3a/output_0_split_1
I0509 23:08:53.846464 23119 net.cpp:334] inception_3b/3x3_reduce -> inception_3b/3x3_reduce
I0509 23:08:53.846477 23119 net.cpp:105] Setting up inception_3b/3x3_reduce
I0509 23:08:53.846850 23119 net.cpp:112] Top shape: 32 128 28 28 (3211264)
I0509 23:08:53.846868 23119 layer_factory.hpp:74] Creating layer inception_3b/relu_3x3_reduce
I0509 23:08:53.846876 23119 net.cpp:76] Creating Layer inception_3b/relu_3x3_reduce
I0509 23:08:53.846882 23119 net.cpp:372] inception_3b/relu_3x3_reduce <- inception_3b/3x3_reduce
I0509 23:08:53.846892 23119 net.cpp:323] inception_3b/relu_3x3_reduce -> inception_3b/3x3_reduce (in-place)
I0509 23:08:53.846901 23119 net.cpp:105] Setting up inception_3b/relu_3x3_reduce
I0509 23:08:53.846906 23119 net.cpp:112] Top shape: 32 128 28 28 (3211264)
I0509 23:08:53.846912 23119 layer_factory.hpp:74] Creating layer inception_3b/3x3
I0509 23:08:53.846925 23119 net.cpp:76] Creating Layer inception_3b/3x3
I0509 23:08:53.846931 23119 net.cpp:372] inception_3b/3x3 <- inception_3b/3x3_reduce
I0509 23:08:53.846940 23119 net.cpp:334] inception_3b/3x3 -> inception_3b/3x3
I0509 23:08:53.846950 23119 net.cpp:105] Setting up inception_3b/3x3
I0509 23:08:53.848825 23119 net.cpp:112] Top shape: 32 192 28 28 (4816896)
I0509 23:08:53.848845 23119 layer_factory.hpp:74] Creating layer inception_3b/relu_3x3
I0509 23:08:53.848857 23119 net.cpp:76] Creating Layer inception_3b/relu_3x3
I0509 23:08:53.848865 23119 net.cpp:372] inception_3b/relu_3x3 <- inception_3b/3x3
I0509 23:08:53.848871 23119 net.cpp:323] inception_3b/relu_3x3 -> inception_3b/3x3 (in-place)
I0509 23:08:53.848881 23119 net.cpp:105] Setting up inception_3b/relu_3x3
I0509 23:08:53.848887 23119 net.cpp:112] Top shape: 32 192 28 28 (4816896)
I0509 23:08:53.848892 23119 layer_factory.hpp:74] Creating layer inception_3b/5x5_reduce
I0509 23:08:53.848903 23119 net.cpp:76] Creating Layer inception_3b/5x5_reduce
I0509 23:08:53.848909 23119 net.cpp:372] inception_3b/5x5_reduce <- inception_3a/output_inception_3a/output_0_split_2
I0509 23:08:53.848918 23119 net.cpp:334] inception_3b/5x5_reduce -> inception_3b/5x5_reduce
I0509 23:08:53.848949 23119 net.cpp:105] Setting up inception_3b/5x5_reduce
I0509 23:08:53.849040 23119 net.cpp:112] Top shape: 32 32 28 28 (802816)
I0509 23:08:53.849052 23119 layer_factory.hpp:74] Creating layer inception_3b/relu_5x5_reduce
I0509 23:08:53.849059 23119 net.cpp:76] Creating Layer inception_3b/relu_5x5_reduce
I0509 23:08:53.849066 23119 net.cpp:372] inception_3b/relu_5x5_reduce <- inception_3b/5x5_reduce
I0509 23:08:53.849078 23119 net.cpp:323] inception_3b/relu_5x5_reduce -> inception_3b/5x5_reduce (in-place)
I0509 23:08:53.849087 23119 net.cpp:105] Setting up inception_3b/relu_5x5_reduce
I0509 23:08:53.849093 23119 net.cpp:112] Top shape: 32 32 28 28 (802816)
I0509 23:08:53.849098 23119 layer_factory.hpp:74] Creating layer inception_3b/5x5
I0509 23:08:53.849107 23119 net.cpp:76] Creating Layer inception_3b/5x5
I0509 23:08:53.849112 23119 net.cpp:372] inception_3b/5x5 <- inception_3b/5x5_reduce
I0509 23:08:53.849123 23119 net.cpp:334] inception_3b/5x5 -> inception_3b/5x5
I0509 23:08:53.849133 23119 net.cpp:105] Setting up inception_3b/5x5
I0509 23:08:53.849836 23119 net.cpp:112] Top shape: 32 96 28 28 (2408448)
I0509 23:08:53.849854 23119 layer_factory.hpp:74] Creating layer inception_3b/relu_5x5
I0509 23:08:53.849863 23119 net.cpp:76] Creating Layer inception_3b/relu_5x5
I0509 23:08:53.849869 23119 net.cpp:372] inception_3b/relu_5x5 <- inception_3b/5x5
I0509 23:08:53.849875 23119 net.cpp:323] inception_3b/relu_5x5 -> inception_3b/5x5 (in-place)
I0509 23:08:53.849882 23119 net.cpp:105] Setting up inception_3b/relu_5x5
I0509 23:08:53.849889 23119 net.cpp:112] Top shape: 32 96 28 28 (2408448)
I0509 23:08:53.849894 23119 layer_factory.hpp:74] Creating layer inception_3b/pool
I0509 23:08:53.849905 23119 net.cpp:76] Creating Layer inception_3b/pool
I0509 23:08:53.849916 23119 net.cpp:372] inception_3b/pool <- inception_3a/output_inception_3a/output_0_split_3
I0509 23:08:53.849927 23119 net.cpp:334] inception_3b/pool -> inception_3b/pool
I0509 23:08:53.849938 23119 net.cpp:105] Setting up inception_3b/pool
I0509 23:08:53.849946 23119 net.cpp:112] Top shape: 32 256 28 28 (6422528)
I0509 23:08:53.849952 23119 layer_factory.hpp:74] Creating layer inception_3b/pool_proj
I0509 23:08:53.849963 23119 net.cpp:76] Creating Layer inception_3b/pool_proj
I0509 23:08:53.849969 23119 net.cpp:372] inception_3b/pool_proj <- inception_3b/pool
I0509 23:08:53.849977 23119 net.cpp:334] inception_3b/pool_proj -> inception_3b/pool_proj
I0509 23:08:53.849987 23119 net.cpp:105] Setting up inception_3b/pool_proj
I0509 23:08:53.850137 23119 net.cpp:112] Top shape: 32 64 28 28 (1605632)
I0509 23:08:53.850148 23119 layer_factory.hpp:74] Creating layer inception_3b/relu_pool_proj
I0509 23:08:53.850157 23119 net.cpp:76] Creating Layer inception_3b/relu_pool_proj
I0509 23:08:53.850163 23119 net.cpp:372] inception_3b/relu_pool_proj <- inception_3b/pool_proj
I0509 23:08:53.850172 23119 net.cpp:323] inception_3b/relu_pool_proj -> inception_3b/pool_proj (in-place)
I0509 23:08:53.850180 23119 net.cpp:105] Setting up inception_3b/relu_pool_proj
I0509 23:08:53.850185 23119 net.cpp:112] Top shape: 32 64 28 28 (1605632)
I0509 23:08:53.850191 23119 layer_factory.hpp:74] Creating layer inception_3b/output
I0509 23:08:53.850199 23119 net.cpp:76] Creating Layer inception_3b/output
I0509 23:08:53.850204 23119 net.cpp:372] inception_3b/output <- inception_3b/1x1
I0509 23:08:53.850211 23119 net.cpp:372] inception_3b/output <- inception_3b/3x3
I0509 23:08:53.850217 23119 net.cpp:372] inception_3b/output <- inception_3b/5x5
I0509 23:08:53.850224 23119 net.cpp:372] inception_3b/output <- inception_3b/pool_proj
I0509 23:08:53.850234 23119 net.cpp:334] inception_3b/output -> inception_3b/output
I0509 23:08:53.850241 23119 net.cpp:105] Setting up inception_3b/output
I0509 23:08:53.850247 23119 net.cpp:112] Top shape: 32 480 28 28 (12042240)
I0509 23:08:53.850253 23119 layer_factory.hpp:74] Creating layer pool3/3x3_s2
I0509 23:08:53.850260 23119 net.cpp:76] Creating Layer pool3/3x3_s2
I0509 23:08:53.850266 23119 net.cpp:372] pool3/3x3_s2 <- inception_3b/output
I0509 23:08:53.850306 23119 net.cpp:334] pool3/3x3_s2 -> pool3/3x3_s2
I0509 23:08:53.850317 23119 net.cpp:105] Setting up pool3/3x3_s2
I0509 23:08:53.850323 23119 net.cpp:112] Top shape: 32 480 14 14 (3010560)
I0509 23:08:53.850329 23119 layer_factory.hpp:74] Creating layer pool3/3x3_s2_pool3/3x3_s2_0_split
I0509 23:08:53.850338 23119 net.cpp:76] Creating Layer pool3/3x3_s2_pool3/3x3_s2_0_split
I0509 23:08:53.850348 23119 net.cpp:372] pool3/3x3_s2_pool3/3x3_s2_0_split <- pool3/3x3_s2
I0509 23:08:53.850364 23119 net.cpp:334] pool3/3x3_s2_pool3/3x3_s2_0_split -> pool3/3x3_s2_pool3/3x3_s2_0_split_0
I0509 23:08:53.850381 23119 net.cpp:334] pool3/3x3_s2_pool3/3x3_s2_0_split -> pool3/3x3_s2_pool3/3x3_s2_0_split_1
I0509 23:08:53.850395 23119 net.cpp:334] pool3/3x3_s2_pool3/3x3_s2_0_split -> pool3/3x3_s2_pool3/3x3_s2_0_split_2
I0509 23:08:53.850409 23119 net.cpp:334] pool3/3x3_s2_pool3/3x3_s2_0_split -> pool3/3x3_s2_pool3/3x3_s2_0_split_3
I0509 23:08:53.850421 23119 net.cpp:105] Setting up pool3/3x3_s2_pool3/3x3_s2_0_split
I0509 23:08:53.850432 23119 net.cpp:112] Top shape: 32 480 14 14 (3010560)
I0509 23:08:53.850441 23119 net.cpp:112] Top shape: 32 480 14 14 (3010560)
I0509 23:08:53.850450 23119 net.cpp:112] Top shape: 32 480 14 14 (3010560)
I0509 23:08:53.850460 23119 net.cpp:112] Top shape: 32 480 14 14 (3010560)
I0509 23:08:53.850466 23119 layer_factory.hpp:74] Creating layer inception_4a/1x1
I0509 23:08:53.850478 23119 net.cpp:76] Creating Layer inception_4a/1x1
I0509 23:08:53.850486 23119 net.cpp:372] inception_4a/1x1 <- pool3/3x3_s2_pool3/3x3_s2_0_split_0
I0509 23:08:53.850497 23119 net.cpp:334] inception_4a/1x1 -> inception_4a/1x1
I0509 23:08:53.850505 23119 net.cpp:105] Setting up inception_4a/1x1
I0509 23:08:53.851302 23119 net.cpp:112] Top shape: 32 192 14 14 (1204224)
I0509 23:08:53.851317 23119 layer_factory.hpp:74] Creating layer inception_4a/relu_1x1
I0509 23:08:53.851325 23119 net.cpp:76] Creating Layer inception_4a/relu_1x1
I0509 23:08:53.851331 23119 net.cpp:372] inception_4a/relu_1x1 <- inception_4a/1x1
I0509 23:08:53.851339 23119 net.cpp:323] inception_4a/relu_1x1 -> inception_4a/1x1 (in-place)
I0509 23:08:53.851346 23119 net.cpp:105] Setting up inception_4a/relu_1x1
I0509 23:08:53.851352 23119 net.cpp:112] Top shape: 32 192 14 14 (1204224)
I0509 23:08:53.851357 23119 layer_factory.hpp:74] Creating layer inception_4a/3x3_reduce
I0509 23:08:53.851372 23119 net.cpp:76] Creating Layer inception_4a/3x3_reduce
I0509 23:08:53.851377 23119 net.cpp:372] inception_4a/3x3_reduce <- pool3/3x3_s2_pool3/3x3_s2_0_split_1
I0509 23:08:53.851385 23119 net.cpp:334] inception_4a/3x3_reduce -> inception_4a/3x3_reduce
I0509 23:08:53.851394 23119 net.cpp:105] Setting up inception_4a/3x3_reduce
I0509 23:08:53.851804 23119 net.cpp:112] Top shape: 32 96 14 14 (602112)
I0509 23:08:53.851825 23119 layer_factory.hpp:74] Creating layer inception_4a/relu_3x3_reduce
I0509 23:08:53.851837 23119 net.cpp:76] Creating Layer inception_4a/relu_3x3_reduce
I0509 23:08:53.851846 23119 net.cpp:372] inception_4a/relu_3x3_reduce <- inception_4a/3x3_reduce
I0509 23:08:53.851855 23119 net.cpp:323] inception_4a/relu_3x3_reduce -> inception_4a/3x3_reduce (in-place)
I0509 23:08:53.851862 23119 net.cpp:105] Setting up inception_4a/relu_3x3_reduce
I0509 23:08:53.851867 23119 net.cpp:112] Top shape: 32 96 14 14 (602112)
I0509 23:08:53.851873 23119 layer_factory.hpp:74] Creating layer inception_4a/3x3
I0509 23:08:53.851881 23119 net.cpp:76] Creating Layer inception_4a/3x3
I0509 23:08:53.851887 23119 net.cpp:372] inception_4a/3x3 <- inception_4a/3x3_reduce
I0509 23:08:53.851896 23119 net.cpp:334] inception_4a/3x3 -> inception_4a/3x3
I0509 23:08:53.851904 23119 net.cpp:105] Setting up inception_4a/3x3
I0509 23:08:53.853457 23119 net.cpp:112] Top shape: 32 208 14 14 (1304576)
I0509 23:08:53.853474 23119 layer_factory.hpp:74] Creating layer inception_4a/relu_3x3
I0509 23:08:53.853484 23119 net.cpp:76] Creating Layer inception_4a/relu_3x3
I0509 23:08:53.853513 23119 net.cpp:372] inception_4a/relu_3x3 <- inception_4a/3x3
I0509 23:08:53.853540 23119 net.cpp:323] inception_4a/relu_3x3 -> inception_4a/3x3 (in-place)
I0509 23:08:53.853550 23119 net.cpp:105] Setting up inception_4a/relu_3x3
I0509 23:08:53.853555 23119 net.cpp:112] Top shape: 32 208 14 14 (1304576)
I0509 23:08:53.853561 23119 layer_factory.hpp:74] Creating layer inception_4a/5x5_reduce
I0509 23:08:53.853572 23119 net.cpp:76] Creating Layer inception_4a/5x5_reduce
I0509 23:08:53.853579 23119 net.cpp:372] inception_4a/5x5_reduce <- pool3/3x3_s2_pool3/3x3_s2_0_split_2
I0509 23:08:53.853587 23119 net.cpp:334] inception_4a/5x5_reduce -> inception_4a/5x5_reduce
I0509 23:08:53.853596 23119 net.cpp:105] Setting up inception_4a/5x5_reduce
I0509 23:08:53.853680 23119 net.cpp:112] Top shape: 32 16 14 14 (100352)
I0509 23:08:53.853693 23119 layer_factory.hpp:74] Creating layer inception_4a/relu_5x5_reduce
I0509 23:08:53.853701 23119 net.cpp:76] Creating Layer inception_4a/relu_5x5_reduce
I0509 23:08:53.853708 23119 net.cpp:372] inception_4a/relu_5x5_reduce <- inception_4a/5x5_reduce
I0509 23:08:53.853716 23119 net.cpp:323] inception_4a/relu_5x5_reduce -> inception_4a/5x5_reduce (in-place)
I0509 23:08:53.853724 23119 net.cpp:105] Setting up inception_4a/relu_5x5_reduce
I0509 23:08:53.853729 23119 net.cpp:112] Top shape: 32 16 14 14 (100352)
I0509 23:08:53.853735 23119 layer_factory.hpp:74] Creating layer inception_4a/5x5
I0509 23:08:53.853744 23119 net.cpp:76] Creating Layer inception_4a/5x5
I0509 23:08:53.853749 23119 net.cpp:372] inception_4a/5x5 <- inception_4a/5x5_reduce
I0509 23:08:53.853765 23119 net.cpp:334] inception_4a/5x5 -> inception_4a/5x5
I0509 23:08:53.853780 23119 net.cpp:105] Setting up inception_4a/5x5
I0509 23:08:53.853966 23119 net.cpp:112] Top shape: 32 48 14 14 (301056)
I0509 23:08:53.853979 23119 layer_factory.hpp:74] Creating layer inception_4a/relu_5x5
I0509 23:08:53.853986 23119 net.cpp:76] Creating Layer inception_4a/relu_5x5
I0509 23:08:53.853992 23119 net.cpp:372] inception_4a/relu_5x5 <- inception_4a/5x5
I0509 23:08:53.853999 23119 net.cpp:323] inception_4a/relu_5x5 -> inception_4a/5x5 (in-place)
I0509 23:08:53.854007 23119 net.cpp:105] Setting up inception_4a/relu_5x5
I0509 23:08:53.854012 23119 net.cpp:112] Top shape: 32 48 14 14 (301056)
I0509 23:08:53.854017 23119 layer_factory.hpp:74] Creating layer inception_4a/pool
I0509 23:08:53.854030 23119 net.cpp:76] Creating Layer inception_4a/pool
I0509 23:08:53.854037 23119 net.cpp:372] inception_4a/pool <- pool3/3x3_s2_pool3/3x3_s2_0_split_3
I0509 23:08:53.854045 23119 net.cpp:334] inception_4a/pool -> inception_4a/pool
I0509 23:08:53.854053 23119 net.cpp:105] Setting up inception_4a/pool
I0509 23:08:53.854060 23119 net.cpp:112] Top shape: 32 480 14 14 (3010560)
I0509 23:08:53.854066 23119 layer_factory.hpp:74] Creating layer inception_4a/pool_proj
I0509 23:08:53.854078 23119 net.cpp:76] Creating Layer inception_4a/pool_proj
I0509 23:08:53.854084 23119 net.cpp:372] inception_4a/pool_proj <- inception_4a/pool
I0509 23:08:53.854090 23119 net.cpp:334] inception_4a/pool_proj -> inception_4a/pool_proj
I0509 23:08:53.854099 23119 net.cpp:105] Setting up inception_4a/pool_proj
I0509 23:08:53.854375 23119 net.cpp:112] Top shape: 32 64 14 14 (401408)
I0509 23:08:53.854389 23119 layer_factory.hpp:74] Creating layer inception_4a/relu_pool_proj
I0509 23:08:53.854398 23119 net.cpp:76] Creating Layer inception_4a/relu_pool_proj
I0509 23:08:53.854405 23119 net.cpp:372] inception_4a/relu_pool_proj <- inception_4a/pool_proj
I0509 23:08:53.854413 23119 net.cpp:323] inception_4a/relu_pool_proj -> inception_4a/pool_proj (in-place)
I0509 23:08:53.854419 23119 net.cpp:105] Setting up inception_4a/relu_pool_proj
I0509 23:08:53.854425 23119 net.cpp:112] Top shape: 32 64 14 14 (401408)
I0509 23:08:53.854430 23119 layer_factory.hpp:74] Creating layer inception_4a/output
I0509 23:08:53.854439 23119 net.cpp:76] Creating Layer inception_4a/output
I0509 23:08:53.854444 23119 net.cpp:372] inception_4a/output <- inception_4a/1x1
I0509 23:08:53.855134 23119 net.cpp:372] inception_4a/output <- inception_4a/3x3
I0509 23:08:53.855145 23119 net.cpp:372] inception_4a/output <- inception_4a/5x5
I0509 23:08:53.855172 23119 net.cpp:372] inception_4a/output <- inception_4a/pool_proj
I0509 23:08:53.855182 23119 net.cpp:334] inception_4a/output -> inception_4a/output
I0509 23:08:53.855191 23119 net.cpp:105] Setting up inception_4a/output
I0509 23:08:53.855202 23119 net.cpp:112] Top shape: 32 512 14 14 (3211264)
I0509 23:08:53.855208 23119 layer_factory.hpp:74] Creating layer inception_4a/output_inception_4a/output_0_split
I0509 23:08:53.855223 23119 net.cpp:76] Creating Layer inception_4a/output_inception_4a/output_0_split
I0509 23:08:53.855231 23119 net.cpp:372] inception_4a/output_inception_4a/output_0_split <- inception_4a/output
I0509 23:08:53.855238 23119 net.cpp:334] inception_4a/output_inception_4a/output_0_split -> inception_4a/output_inception_4a/output_0_split_0
I0509 23:08:53.855248 23119 net.cpp:334] inception_4a/output_inception_4a/output_0_split -> inception_4a/output_inception_4a/output_0_split_1
I0509 23:08:53.855258 23119 net.cpp:334] inception_4a/output_inception_4a/output_0_split -> inception_4a/output_inception_4a/output_0_split_2
I0509 23:08:53.855283 23119 net.cpp:334] inception_4a/output_inception_4a/output_0_split -> inception_4a/output_inception_4a/output_0_split_3
I0509 23:08:53.855293 23119 net.cpp:334] inception_4a/output_inception_4a/output_0_split -> inception_4a/output_inception_4a/output_0_split_4
I0509 23:08:53.855303 23119 net.cpp:105] Setting up inception_4a/output_inception_4a/output_0_split
I0509 23:08:53.855309 23119 net.cpp:112] Top shape: 32 512 14 14 (3211264)
I0509 23:08:53.855315 23119 net.cpp:112] Top shape: 32 512 14 14 (3211264)
I0509 23:08:53.855320 23119 net.cpp:112] Top shape: 32 512 14 14 (3211264)
I0509 23:08:53.855325 23119 net.cpp:112] Top shape: 32 512 14 14 (3211264)
I0509 23:08:53.855329 23119 net.cpp:112] Top shape: 32 512 14 14 (3211264)
I0509 23:08:53.855335 23119 layer_factory.hpp:74] Creating layer loss1/ave_pool
I0509 23:08:53.855343 23119 net.cpp:76] Creating Layer loss1/ave_pool
I0509 23:08:53.855348 23119 net.cpp:372] loss1/ave_pool <- inception_4a/output_inception_4a/output_0_split_0
I0509 23:08:53.855357 23119 net.cpp:334] loss1/ave_pool -> loss1/ave_pool
I0509 23:08:53.855365 23119 net.cpp:105] Setting up loss1/ave_pool
I0509 23:08:53.855371 23119 net.cpp:112] Top shape: 32 512 4 4 (262144)
I0509 23:08:53.855377 23119 layer_factory.hpp:74] Creating layer loss1/conv
I0509 23:08:53.855389 23119 net.cpp:76] Creating Layer loss1/conv
I0509 23:08:53.855396 23119 net.cpp:372] loss1/conv <- loss1/ave_pool
I0509 23:08:53.855406 23119 net.cpp:334] loss1/conv -> loss1/conv
I0509 23:08:53.855414 23119 net.cpp:105] Setting up loss1/conv
I0509 23:08:53.856034 23119 net.cpp:112] Top shape: 32 128 4 4 (65536)
I0509 23:08:53.856051 23119 layer_factory.hpp:74] Creating layer loss1/relu_conv
I0509 23:08:53.856060 23119 net.cpp:76] Creating Layer loss1/relu_conv
I0509 23:08:53.856066 23119 net.cpp:372] loss1/relu_conv <- loss1/conv
I0509 23:08:53.856076 23119 net.cpp:323] loss1/relu_conv -> loss1/conv (in-place)
I0509 23:08:53.856083 23119 net.cpp:105] Setting up loss1/relu_conv
I0509 23:08:53.856089 23119 net.cpp:112] Top shape: 32 128 4 4 (65536)
I0509 23:08:53.856094 23119 layer_factory.hpp:74] Creating layer loss1/fc
I0509 23:08:53.856107 23119 net.cpp:76] Creating Layer loss1/fc
I0509 23:08:53.856113 23119 net.cpp:372] loss1/fc <- loss1/conv
I0509 23:08:53.856127 23119 net.cpp:334] loss1/fc -> loss1/fc
I0509 23:08:53.856139 23119 net.cpp:105] Setting up loss1/fc
I0509 23:08:53.874256 23119 net.cpp:112] Top shape: 32 1024 1 1 (32768)
I0509 23:08:53.874310 23119 layer_factory.hpp:74] Creating layer loss1/relu_fc
I0509 23:08:53.874325 23119 net.cpp:76] Creating Layer loss1/relu_fc
I0509 23:08:53.874332 23119 net.cpp:372] loss1/relu_fc <- loss1/fc
I0509 23:08:53.874346 23119 net.cpp:323] loss1/relu_fc -> loss1/fc (in-place)
I0509 23:08:53.874356 23119 net.cpp:105] Setting up loss1/relu_fc
I0509 23:08:53.874362 23119 net.cpp:112] Top shape: 32 1024 1 1 (32768)
I0509 23:08:53.874368 23119 layer_factory.hpp:74] Creating layer loss1/drop_fc
I0509 23:08:53.874428 23119 net.cpp:76] Creating Layer loss1/drop_fc
I0509 23:08:53.874436 23119 net.cpp:372] loss1/drop_fc <- loss1/fc
I0509 23:08:53.874444 23119 net.cpp:323] loss1/drop_fc -> loss1/fc (in-place)
I0509 23:08:53.874455 23119 net.cpp:105] Setting up loss1/drop_fc
I0509 23:08:53.874465 23119 net.cpp:112] Top shape: 32 1024 1 1 (32768)
I0509 23:08:53.874472 23119 layer_factory.hpp:74] Creating layer loss1/classifier
I0509 23:08:53.874482 23119 net.cpp:76] Creating Layer loss1/classifier
I0509 23:08:53.874487 23119 net.cpp:372] loss1/classifier <- loss1/fc
I0509 23:08:53.874498 23119 net.cpp:334] loss1/classifier -> loss1/classifier
I0509 23:08:53.874510 23119 net.cpp:105] Setting up loss1/classifier
I0509 23:08:53.874542 23119 net.cpp:112] Top shape: 32 2 1 1 (64)
I0509 23:08:53.874554 23119 layer_factory.hpp:74] Creating layer loss1/classifier_loss1/classifier_0_split
I0509 23:08:53.874562 23119 net.cpp:76] Creating Layer loss1/classifier_loss1/classifier_0_split
I0509 23:08:53.874568 23119 net.cpp:372] loss1/classifier_loss1/classifier_0_split <- loss1/classifier
I0509 23:08:53.874577 23119 net.cpp:334] loss1/classifier_loss1/classifier_0_split -> loss1/classifier_loss1/classifier_0_split_0
I0509 23:08:53.874585 23119 net.cpp:334] loss1/classifier_loss1/classifier_0_split -> loss1/classifier_loss1/classifier_0_split_1
I0509 23:08:53.874593 23119 net.cpp:105] Setting up loss1/classifier_loss1/classifier_0_split
I0509 23:08:53.874600 23119 net.cpp:112] Top shape: 32 2 1 1 (64)
I0509 23:08:53.874605 23119 net.cpp:112] Top shape: 32 2 1 1 (64)
I0509 23:08:53.874611 23119 layer_factory.hpp:74] Creating layer loss1/loss
I0509 23:08:53.874624 23119 net.cpp:76] Creating Layer loss1/loss
I0509 23:08:53.874631 23119 net.cpp:372] loss1/loss <- loss1/classifier_loss1/classifier_0_split_0
I0509 23:08:53.874639 23119 net.cpp:372] loss1/loss <- label_data_1_split_0
I0509 23:08:53.874646 23119 net.cpp:334] loss1/loss -> loss1/loss1
I0509 23:08:53.874657 23119 net.cpp:105] Setting up loss1/loss
I0509 23:08:53.874667 23119 layer_factory.hpp:74] Creating layer loss1/loss
I0509 23:08:53.874686 23119 net.cpp:112] Top shape: 1 1 1 1 (1)
I0509 23:08:53.874692 23119 net.cpp:118]     with loss weight 0.3
I0509 23:08:53.874727 23119 layer_factory.hpp:74] Creating layer loss1/top-1
I0509 23:08:53.874738 23119 net.cpp:76] Creating Layer loss1/top-1
I0509 23:08:53.874744 23119 net.cpp:372] loss1/top-1 <- loss1/classifier_loss1/classifier_0_split_1
I0509 23:08:53.874752 23119 net.cpp:372] loss1/top-1 <- label_data_1_split_1
I0509 23:08:53.874763 23119 net.cpp:334] loss1/top-1 -> loss1/top-1
I0509 23:08:53.874780 23119 net.cpp:105] Setting up loss1/top-1
I0509 23:08:53.874789 23119 net.cpp:112] Top shape: 1 1 1 1 (1)
I0509 23:08:53.874795 23119 layer_factory.hpp:74] Creating layer inception_4b/1x1
I0509 23:08:53.874805 23119 net.cpp:76] Creating Layer inception_4b/1x1
I0509 23:08:53.874811 23119 net.cpp:372] inception_4b/1x1 <- inception_4a/output_inception_4a/output_0_split_1
I0509 23:08:53.874824 23119 net.cpp:334] inception_4b/1x1 -> inception_4b/1x1
I0509 23:08:53.874833 23119 net.cpp:105] Setting up inception_4b/1x1
I0509 23:08:53.875552 23119 net.cpp:112] Top shape: 32 160 14 14 (1003520)
I0509 23:08:53.875569 23119 layer_factory.hpp:74] Creating layer inception_4b/relu_1x1
I0509 23:08:53.875577 23119 net.cpp:76] Creating Layer inception_4b/relu_1x1
I0509 23:08:53.875583 23119 net.cpp:372] inception_4b/relu_1x1 <- inception_4b/1x1
I0509 23:08:53.875591 23119 net.cpp:323] inception_4b/relu_1x1 -> inception_4b/1x1 (in-place)
I0509 23:08:53.875598 23119 net.cpp:105] Setting up inception_4b/relu_1x1
I0509 23:08:53.875603 23119 net.cpp:112] Top shape: 32 160 14 14 (1003520)
I0509 23:08:53.875609 23119 layer_factory.hpp:74] Creating layer inception_4b/3x3_reduce
I0509 23:08:53.875619 23119 net.cpp:76] Creating Layer inception_4b/3x3_reduce
I0509 23:08:53.875625 23119 net.cpp:372] inception_4b/3x3_reduce <- inception_4a/output_inception_4a/output_0_split_2
I0509 23:08:53.875634 23119 net.cpp:334] inception_4b/3x3_reduce -> inception_4b/3x3_reduce
I0509 23:08:53.875659 23119 net.cpp:105] Setting up inception_4b/3x3_reduce
I0509 23:08:53.876188 23119 net.cpp:112] Top shape: 32 112 14 14 (702464)
I0509 23:08:53.876209 23119 layer_factory.hpp:74] Creating layer inception_4b/relu_3x3_reduce
I0509 23:08:53.876217 23119 net.cpp:76] Creating Layer inception_4b/relu_3x3_reduce
I0509 23:08:53.876224 23119 net.cpp:372] inception_4b/relu_3x3_reduce <- inception_4b/3x3_reduce
I0509 23:08:53.876233 23119 net.cpp:323] inception_4b/relu_3x3_reduce -> inception_4b/3x3_reduce (in-place)
I0509 23:08:53.876241 23119 net.cpp:105] Setting up inception_4b/relu_3x3_reduce
I0509 23:08:53.876247 23119 net.cpp:112] Top shape: 32 112 14 14 (702464)
I0509 23:08:53.876252 23119 layer_factory.hpp:74] Creating layer inception_4b/3x3
I0509 23:08:53.876261 23119 net.cpp:76] Creating Layer inception_4b/3x3
I0509 23:08:53.876266 23119 net.cpp:372] inception_4b/3x3 <- inception_4b/3x3_reduce
I0509 23:08:53.876289 23119 net.cpp:334] inception_4b/3x3 -> inception_4b/3x3
I0509 23:08:53.876301 23119 net.cpp:105] Setting up inception_4b/3x3
I0509 23:08:53.878232 23119 net.cpp:112] Top shape: 32 224 14 14 (1404928)
I0509 23:08:53.878247 23119 layer_factory.hpp:74] Creating layer inception_4b/relu_3x3
I0509 23:08:53.878257 23119 net.cpp:76] Creating Layer inception_4b/relu_3x3
I0509 23:08:53.878262 23119 net.cpp:372] inception_4b/relu_3x3 <- inception_4b/3x3
I0509 23:08:53.878285 23119 net.cpp:323] inception_4b/relu_3x3 -> inception_4b/3x3 (in-place)
I0509 23:08:53.878296 23119 net.cpp:105] Setting up inception_4b/relu_3x3
I0509 23:08:53.878301 23119 net.cpp:112] Top shape: 32 224 14 14 (1404928)
I0509 23:08:53.878307 23119 layer_factory.hpp:74] Creating layer inception_4b/5x5_reduce
I0509 23:08:53.878315 23119 net.cpp:76] Creating Layer inception_4b/5x5_reduce
I0509 23:08:53.878321 23119 net.cpp:372] inception_4b/5x5_reduce <- inception_4a/output_inception_4a/output_0_split_3
I0509 23:08:53.878331 23119 net.cpp:334] inception_4b/5x5_reduce -> inception_4b/5x5_reduce
I0509 23:08:53.878341 23119 net.cpp:105] Setting up inception_4b/5x5_reduce
I0509 23:08:53.878453 23119 net.cpp:112] Top shape: 32 24 14 14 (150528)
I0509 23:08:53.878464 23119 layer_factory.hpp:74] Creating layer inception_4b/relu_5x5_reduce
I0509 23:08:53.878473 23119 net.cpp:76] Creating Layer inception_4b/relu_5x5_reduce
I0509 23:08:53.878479 23119 net.cpp:372] inception_4b/relu_5x5_reduce <- inception_4b/5x5_reduce
I0509 23:08:53.878486 23119 net.cpp:323] inception_4b/relu_5x5_reduce -> inception_4b/5x5_reduce (in-place)
I0509 23:08:53.878494 23119 net.cpp:105] Setting up inception_4b/relu_5x5_reduce
I0509 23:08:53.878499 23119 net.cpp:112] Top shape: 32 24 14 14 (150528)
I0509 23:08:53.878504 23119 layer_factory.hpp:74] Creating layer inception_4b/5x5
I0509 23:08:53.878515 23119 net.cpp:76] Creating Layer inception_4b/5x5
I0509 23:08:53.878520 23119 net.cpp:372] inception_4b/5x5 <- inception_4b/5x5_reduce
I0509 23:08:53.878528 23119 net.cpp:334] inception_4b/5x5 -> inception_4b/5x5
I0509 23:08:53.878536 23119 net.cpp:105] Setting up inception_4b/5x5
I0509 23:08:53.878880 23119 net.cpp:112] Top shape: 32 64 14 14 (401408)
I0509 23:08:53.878901 23119 layer_factory.hpp:74] Creating layer inception_4b/relu_5x5
I0509 23:08:53.878911 23119 net.cpp:76] Creating Layer inception_4b/relu_5x5
I0509 23:08:53.878917 23119 net.cpp:372] inception_4b/relu_5x5 <- inception_4b/5x5
I0509 23:08:53.878924 23119 net.cpp:323] inception_4b/relu_5x5 -> inception_4b/5x5 (in-place)
I0509 23:08:53.878932 23119 net.cpp:105] Setting up inception_4b/relu_5x5
I0509 23:08:53.878937 23119 net.cpp:112] Top shape: 32 64 14 14 (401408)
I0509 23:08:53.878943 23119 layer_factory.hpp:74] Creating layer inception_4b/pool
I0509 23:08:53.878953 23119 net.cpp:76] Creating Layer inception_4b/pool
I0509 23:08:53.878959 23119 net.cpp:372] inception_4b/pool <- inception_4a/output_inception_4a/output_0_split_4
I0509 23:08:53.878968 23119 net.cpp:334] inception_4b/pool -> inception_4b/pool
I0509 23:08:53.878976 23119 net.cpp:105] Setting up inception_4b/pool
I0509 23:08:53.878998 23119 net.cpp:112] Top shape: 32 512 14 14 (3211264)
I0509 23:08:53.879005 23119 layer_factory.hpp:74] Creating layer inception_4b/pool_proj
I0509 23:08:53.879017 23119 net.cpp:76] Creating Layer inception_4b/pool_proj
I0509 23:08:53.879024 23119 net.cpp:372] inception_4b/pool_proj <- inception_4b/pool
I0509 23:08:53.879031 23119 net.cpp:334] inception_4b/pool_proj -> inception_4b/pool_proj
I0509 23:08:53.879041 23119 net.cpp:105] Setting up inception_4b/pool_proj
I0509 23:08:53.879344 23119 net.cpp:112] Top shape: 32 64 14 14 (401408)
I0509 23:08:53.879359 23119 layer_factory.hpp:74] Creating layer inception_4b/relu_pool_proj
I0509 23:08:53.879369 23119 net.cpp:76] Creating Layer inception_4b/relu_pool_proj
I0509 23:08:53.879374 23119 net.cpp:372] inception_4b/relu_pool_proj <- inception_4b/pool_proj
I0509 23:08:53.879382 23119 net.cpp:323] inception_4b/relu_pool_proj -> inception_4b/pool_proj (in-place)
I0509 23:08:53.879390 23119 net.cpp:105] Setting up inception_4b/relu_pool_proj
I0509 23:08:53.879395 23119 net.cpp:112] Top shape: 32 64 14 14 (401408)
I0509 23:08:53.879400 23119 layer_factory.hpp:74] Creating layer inception_4b/output
I0509 23:08:53.879408 23119 net.cpp:76] Creating Layer inception_4b/output
I0509 23:08:53.879415 23119 net.cpp:372] inception_4b/output <- inception_4b/1x1
I0509 23:08:53.879420 23119 net.cpp:372] inception_4b/output <- inception_4b/3x3
I0509 23:08:53.879426 23119 net.cpp:372] inception_4b/output <- inception_4b/5x5
I0509 23:08:53.879432 23119 net.cpp:372] inception_4b/output <- inception_4b/pool_proj
I0509 23:08:53.879439 23119 net.cpp:334] inception_4b/output -> inception_4b/output
I0509 23:08:53.879447 23119 net.cpp:105] Setting up inception_4b/output
I0509 23:08:53.879454 23119 net.cpp:112] Top shape: 32 512 14 14 (3211264)
I0509 23:08:53.879459 23119 layer_factory.hpp:74] Creating layer inception_4b/output_inception_4b/output_0_split
I0509 23:08:53.879488 23119 net.cpp:76] Creating Layer inception_4b/output_inception_4b/output_0_split
I0509 23:08:53.879497 23119 net.cpp:372] inception_4b/output_inception_4b/output_0_split <- inception_4b/output
I0509 23:08:53.879504 23119 net.cpp:334] inception_4b/output_inception_4b/output_0_split -> inception_4b/output_inception_4b/output_0_split_0
I0509 23:08:53.879514 23119 net.cpp:334] inception_4b/output_inception_4b/output_0_split -> inception_4b/output_inception_4b/output_0_split_1
I0509 23:08:53.879523 23119 net.cpp:334] inception_4b/output_inception_4b/output_0_split -> inception_4b/output_inception_4b/output_0_split_2
I0509 23:08:53.879534 23119 net.cpp:334] inception_4b/output_inception_4b/output_0_split -> inception_4b/output_inception_4b/output_0_split_3
I0509 23:08:53.879541 23119 net.cpp:105] Setting up inception_4b/output_inception_4b/output_0_split
I0509 23:08:53.879549 23119 net.cpp:112] Top shape: 32 512 14 14 (3211264)
I0509 23:08:53.879554 23119 net.cpp:112] Top shape: 32 512 14 14 (3211264)
I0509 23:08:53.879559 23119 net.cpp:112] Top shape: 32 512 14 14 (3211264)
I0509 23:08:53.879564 23119 net.cpp:112] Top shape: 32 512 14 14 (3211264)
I0509 23:08:53.879570 23119 layer_factory.hpp:74] Creating layer inception_4c/1x1
I0509 23:08:53.879577 23119 net.cpp:76] Creating Layer inception_4c/1x1
I0509 23:08:53.879583 23119 net.cpp:372] inception_4c/1x1 <- inception_4b/output_inception_4b/output_0_split_0
I0509 23:08:53.879593 23119 net.cpp:334] inception_4c/1x1 -> inception_4c/1x1
I0509 23:08:53.879602 23119 net.cpp:105] Setting up inception_4c/1x1
I0509 23:08:53.880170 23119 net.cpp:112] Top shape: 32 128 14 14 (802816)
I0509 23:08:53.880184 23119 layer_factory.hpp:74] Creating layer inception_4c/relu_1x1
I0509 23:08:53.880192 23119 net.cpp:76] Creating Layer inception_4c/relu_1x1
I0509 23:08:53.880198 23119 net.cpp:372] inception_4c/relu_1x1 <- inception_4c/1x1
I0509 23:08:53.880204 23119 net.cpp:323] inception_4c/relu_1x1 -> inception_4c/1x1 (in-place)
I0509 23:08:53.880213 23119 net.cpp:105] Setting up inception_4c/relu_1x1
I0509 23:08:53.880218 23119 net.cpp:112] Top shape: 32 128 14 14 (802816)
I0509 23:08:53.880235 23119 layer_factory.hpp:74] Creating layer inception_4c/3x3_reduce
I0509 23:08:53.880247 23119 net.cpp:76] Creating Layer inception_4c/3x3_reduce
I0509 23:08:53.880254 23119 net.cpp:372] inception_4c/3x3_reduce <- inception_4b/output_inception_4b/output_0_split_1
I0509 23:08:53.880262 23119 net.cpp:334] inception_4c/3x3_reduce -> inception_4c/3x3_reduce
I0509 23:08:53.880283 23119 net.cpp:105] Setting up inception_4c/3x3_reduce
I0509 23:08:53.880838 23119 net.cpp:112] Top shape: 32 128 14 14 (802816)
I0509 23:08:53.880851 23119 layer_factory.hpp:74] Creating layer inception_4c/relu_3x3_reduce
I0509 23:08:53.880859 23119 net.cpp:76] Creating Layer inception_4c/relu_3x3_reduce
I0509 23:08:53.880866 23119 net.cpp:372] inception_4c/relu_3x3_reduce <- inception_4c/3x3_reduce
I0509 23:08:53.880874 23119 net.cpp:323] inception_4c/relu_3x3_reduce -> inception_4c/3x3_reduce (in-place)
I0509 23:08:53.880883 23119 net.cpp:105] Setting up inception_4c/relu_3x3_reduce
I0509 23:08:53.880888 23119 net.cpp:112] Top shape: 32 128 14 14 (802816)
I0509 23:08:53.880894 23119 layer_factory.hpp:74] Creating layer inception_4c/3x3
I0509 23:08:53.880903 23119 net.cpp:76] Creating Layer inception_4c/3x3
I0509 23:08:53.880910 23119 net.cpp:372] inception_4c/3x3 <- inception_4c/3x3_reduce
I0509 23:08:53.880918 23119 net.cpp:334] inception_4c/3x3 -> inception_4c/3x3
I0509 23:08:53.880926 23119 net.cpp:105] Setting up inception_4c/3x3
I0509 23:08:53.883450 23119 net.cpp:112] Top shape: 32 256 14 14 (1605632)
I0509 23:08:53.883481 23119 layer_factory.hpp:74] Creating layer inception_4c/relu_3x3
I0509 23:08:53.883492 23119 net.cpp:76] Creating Layer inception_4c/relu_3x3
I0509 23:08:53.883975 23119 net.cpp:372] inception_4c/relu_3x3 <- inception_4c/3x3
I0509 23:08:53.883985 23119 net.cpp:323] inception_4c/relu_3x3 -> inception_4c/3x3 (in-place)
I0509 23:08:53.883994 23119 net.cpp:105] Setting up inception_4c/relu_3x3
I0509 23:08:53.884001 23119 net.cpp:112] Top shape: 32 256 14 14 (1605632)
I0509 23:08:53.884006 23119 layer_factory.hpp:74] Creating layer inception_4c/5x5_reduce
I0509 23:08:53.884018 23119 net.cpp:76] Creating Layer inception_4c/5x5_reduce
I0509 23:08:53.884024 23119 net.cpp:372] inception_4c/5x5_reduce <- inception_4b/output_inception_4b/output_0_split_2
I0509 23:08:53.884032 23119 net.cpp:334] inception_4c/5x5_reduce -> inception_4c/5x5_reduce
I0509 23:08:53.884042 23119 net.cpp:105] Setting up inception_4c/5x5_reduce
I0509 23:08:53.884162 23119 net.cpp:112] Top shape: 32 24 14 14 (150528)
I0509 23:08:53.884174 23119 layer_factory.hpp:74] Creating layer inception_4c/relu_5x5_reduce
I0509 23:08:53.884181 23119 net.cpp:76] Creating Layer inception_4c/relu_5x5_reduce
I0509 23:08:53.884187 23119 net.cpp:372] inception_4c/relu_5x5_reduce <- inception_4c/5x5_reduce
I0509 23:08:53.884194 23119 net.cpp:323] inception_4c/relu_5x5_reduce -> inception_4c/5x5_reduce (in-place)
I0509 23:08:53.884202 23119 net.cpp:105] Setting up inception_4c/relu_5x5_reduce
I0509 23:08:53.884207 23119 net.cpp:112] Top shape: 32 24 14 14 (150528)
I0509 23:08:53.884212 23119 layer_factory.hpp:74] Creating layer inception_4c/5x5
I0509 23:08:53.884222 23119 net.cpp:76] Creating Layer inception_4c/5x5
I0509 23:08:53.884228 23119 net.cpp:372] inception_4c/5x5 <- inception_4c/5x5_reduce
I0509 23:08:53.884237 23119 net.cpp:334] inception_4c/5x5 -> inception_4c/5x5
I0509 23:08:53.884245 23119 net.cpp:105] Setting up inception_4c/5x5
I0509 23:08:53.884609 23119 net.cpp:112] Top shape: 32 64 14 14 (401408)
I0509 23:08:53.884623 23119 layer_factory.hpp:74] Creating layer inception_4c/relu_5x5
I0509 23:08:53.884630 23119 net.cpp:76] Creating Layer inception_4c/relu_5x5
I0509 23:08:53.884636 23119 net.cpp:372] inception_4c/relu_5x5 <- inception_4c/5x5
I0509 23:08:53.884646 23119 net.cpp:323] inception_4c/relu_5x5 -> inception_4c/5x5 (in-place)
I0509 23:08:53.884654 23119 net.cpp:105] Setting up inception_4c/relu_5x5
I0509 23:08:53.884660 23119 net.cpp:112] Top shape: 32 64 14 14 (401408)
I0509 23:08:53.884665 23119 layer_factory.hpp:74] Creating layer inception_4c/pool
I0509 23:08:53.884690 23119 net.cpp:76] Creating Layer inception_4c/pool
I0509 23:08:53.884697 23119 net.cpp:372] inception_4c/pool <- inception_4b/output_inception_4b/output_0_split_3
I0509 23:08:53.884707 23119 net.cpp:334] inception_4c/pool -> inception_4c/pool
I0509 23:08:53.884716 23119 net.cpp:105] Setting up inception_4c/pool
I0509 23:08:53.884723 23119 net.cpp:112] Top shape: 32 512 14 14 (3211264)
I0509 23:08:53.884729 23119 layer_factory.hpp:74] Creating layer inception_4c/pool_proj
I0509 23:08:53.884738 23119 net.cpp:76] Creating Layer inception_4c/pool_proj
I0509 23:08:53.884743 23119 net.cpp:372] inception_4c/pool_proj <- inception_4c/pool
I0509 23:08:53.884753 23119 net.cpp:334] inception_4c/pool_proj -> inception_4c/pool_proj
I0509 23:08:53.884763 23119 net.cpp:105] Setting up inception_4c/pool_proj
I0509 23:08:53.885047 23119 net.cpp:112] Top shape: 32 64 14 14 (401408)
I0509 23:08:53.885061 23119 layer_factory.hpp:74] Creating layer inception_4c/relu_pool_proj
I0509 23:08:53.885067 23119 net.cpp:76] Creating Layer inception_4c/relu_pool_proj
I0509 23:08:53.885073 23119 net.cpp:372] inception_4c/relu_pool_proj <- inception_4c/pool_proj
I0509 23:08:53.885081 23119 net.cpp:323] inception_4c/relu_pool_proj -> inception_4c/pool_proj (in-place)
I0509 23:08:53.885088 23119 net.cpp:105] Setting up inception_4c/relu_pool_proj
I0509 23:08:53.885094 23119 net.cpp:112] Top shape: 32 64 14 14 (401408)
I0509 23:08:53.885099 23119 layer_factory.hpp:74] Creating layer inception_4c/output
I0509 23:08:53.885107 23119 net.cpp:76] Creating Layer inception_4c/output
I0509 23:08:53.885113 23119 net.cpp:372] inception_4c/output <- inception_4c/1x1
I0509 23:08:53.885118 23119 net.cpp:372] inception_4c/output <- inception_4c/3x3
I0509 23:08:53.885124 23119 net.cpp:372] inception_4c/output <- inception_4c/5x5
I0509 23:08:53.885130 23119 net.cpp:372] inception_4c/output <- inception_4c/pool_proj
I0509 23:08:53.885140 23119 net.cpp:334] inception_4c/output -> inception_4c/output
I0509 23:08:53.885149 23119 net.cpp:105] Setting up inception_4c/output
I0509 23:08:53.885155 23119 net.cpp:112] Top shape: 32 512 14 14 (3211264)
I0509 23:08:53.885160 23119 layer_factory.hpp:74] Creating layer inception_4c/output_inception_4c/output_0_split
I0509 23:08:53.885169 23119 net.cpp:76] Creating Layer inception_4c/output_inception_4c/output_0_split
I0509 23:08:53.885174 23119 net.cpp:372] inception_4c/output_inception_4c/output_0_split <- inception_4c/output
I0509 23:08:53.885182 23119 net.cpp:334] inception_4c/output_inception_4c/output_0_split -> inception_4c/output_inception_4c/output_0_split_0
I0509 23:08:53.885196 23119 net.cpp:334] inception_4c/output_inception_4c/output_0_split -> inception_4c/output_inception_4c/output_0_split_1
I0509 23:08:53.885206 23119 net.cpp:334] inception_4c/output_inception_4c/output_0_split -> inception_4c/output_inception_4c/output_0_split_2
I0509 23:08:53.885215 23119 net.cpp:334] inception_4c/output_inception_4c/output_0_split -> inception_4c/output_inception_4c/output_0_split_3
I0509 23:08:53.885223 23119 net.cpp:105] Setting up inception_4c/output_inception_4c/output_0_split
I0509 23:08:53.885229 23119 net.cpp:112] Top shape: 32 512 14 14 (3211264)
I0509 23:08:53.885236 23119 net.cpp:112] Top shape: 32 512 14 14 (3211264)
I0509 23:08:53.885239 23119 net.cpp:112] Top shape: 32 512 14 14 (3211264)
I0509 23:08:53.885244 23119 net.cpp:112] Top shape: 32 512 14 14 (3211264)
I0509 23:08:53.885249 23119 layer_factory.hpp:74] Creating layer inception_4d/1x1
I0509 23:08:53.885257 23119 net.cpp:76] Creating Layer inception_4d/1x1
I0509 23:08:53.885262 23119 net.cpp:372] inception_4d/1x1 <- inception_4c/output_inception_4c/output_0_split_0
I0509 23:08:53.885293 23119 net.cpp:334] inception_4d/1x1 -> inception_4d/1x1
I0509 23:08:53.885310 23119 net.cpp:105] Setting up inception_4d/1x1
I0509 23:08:53.885819 23119 net.cpp:112] Top shape: 32 112 14 14 (702464)
I0509 23:08:53.885833 23119 layer_factory.hpp:74] Creating layer inception_4d/relu_1x1
I0509 23:08:53.885841 23119 net.cpp:76] Creating Layer inception_4d/relu_1x1
I0509 23:08:53.885859 23119 net.cpp:372] inception_4d/relu_1x1 <- inception_4d/1x1
I0509 23:08:53.885867 23119 net.cpp:323] inception_4d/relu_1x1 -> inception_4d/1x1 (in-place)
I0509 23:08:53.885875 23119 net.cpp:105] Setting up inception_4d/relu_1x1
I0509 23:08:53.885881 23119 net.cpp:112] Top shape: 32 112 14 14 (702464)
I0509 23:08:53.885886 23119 layer_factory.hpp:74] Creating layer inception_4d/3x3_reduce
I0509 23:08:53.885898 23119 net.cpp:76] Creating Layer inception_4d/3x3_reduce
I0509 23:08:53.885905 23119 net.cpp:372] inception_4d/3x3_reduce <- inception_4c/output_inception_4c/output_0_split_1
I0509 23:08:53.885915 23119 net.cpp:334] inception_4d/3x3_reduce -> inception_4d/3x3_reduce
I0509 23:08:53.885924 23119 net.cpp:105] Setting up inception_4d/3x3_reduce
I0509 23:08:53.886554 23119 net.cpp:112] Top shape: 32 144 14 14 (903168)
I0509 23:08:53.886567 23119 layer_factory.hpp:74] Creating layer inception_4d/relu_3x3_reduce
I0509 23:08:53.886577 23119 net.cpp:76] Creating Layer inception_4d/relu_3x3_reduce
I0509 23:08:53.886584 23119 net.cpp:372] inception_4d/relu_3x3_reduce <- inception_4d/3x3_reduce
I0509 23:08:53.886591 23119 net.cpp:323] inception_4d/relu_3x3_reduce -> inception_4d/3x3_reduce (in-place)
I0509 23:08:53.886600 23119 net.cpp:105] Setting up inception_4d/relu_3x3_reduce
I0509 23:08:53.886605 23119 net.cpp:112] Top shape: 32 144 14 14 (903168)
I0509 23:08:53.886610 23119 layer_factory.hpp:74] Creating layer inception_4d/3x3
I0509 23:08:53.886620 23119 net.cpp:76] Creating Layer inception_4d/3x3
I0509 23:08:53.886626 23119 net.cpp:372] inception_4d/3x3 <- inception_4d/3x3_reduce
I0509 23:08:53.886633 23119 net.cpp:334] inception_4d/3x3 -> inception_4d/3x3
I0509 23:08:53.886641 23119 net.cpp:105] Setting up inception_4d/3x3
I0509 23:08:53.889845 23119 net.cpp:112] Top shape: 32 288 14 14 (1806336)
I0509 23:08:53.889868 23119 layer_factory.hpp:74] Creating layer inception_4d/relu_3x3
I0509 23:08:53.889879 23119 net.cpp:76] Creating Layer inception_4d/relu_3x3
I0509 23:08:53.889888 23119 net.cpp:372] inception_4d/relu_3x3 <- inception_4d/3x3
I0509 23:08:53.889895 23119 net.cpp:323] inception_4d/relu_3x3 -> inception_4d/3x3 (in-place)
I0509 23:08:53.889904 23119 net.cpp:105] Setting up inception_4d/relu_3x3
I0509 23:08:53.889909 23119 net.cpp:112] Top shape: 32 288 14 14 (1806336)
I0509 23:08:53.889914 23119 layer_factory.hpp:74] Creating layer inception_4d/5x5_reduce
I0509 23:08:53.889925 23119 net.cpp:76] Creating Layer inception_4d/5x5_reduce
I0509 23:08:53.889932 23119 net.cpp:372] inception_4d/5x5_reduce <- inception_4c/output_inception_4c/output_0_split_2
I0509 23:08:53.889940 23119 net.cpp:334] inception_4d/5x5_reduce -> inception_4d/5x5_reduce
I0509 23:08:53.889952 23119 net.cpp:105] Setting up inception_4d/5x5_reduce
I0509 23:08:53.890102 23119 net.cpp:112] Top shape: 32 32 14 14 (200704)
I0509 23:08:53.890113 23119 layer_factory.hpp:74] Creating layer inception_4d/relu_5x5_reduce
I0509 23:08:53.890120 23119 net.cpp:76] Creating Layer inception_4d/relu_5x5_reduce
I0509 23:08:53.890126 23119 net.cpp:372] inception_4d/relu_5x5_reduce <- inception_4d/5x5_reduce
I0509 23:08:53.890136 23119 net.cpp:323] inception_4d/relu_5x5_reduce -> inception_4d/5x5_reduce (in-place)
I0509 23:08:53.890143 23119 net.cpp:105] Setting up inception_4d/relu_5x5_reduce
I0509 23:08:53.890149 23119 net.cpp:112] Top shape: 32 32 14 14 (200704)
I0509 23:08:53.890154 23119 layer_factory.hpp:74] Creating layer inception_4d/5x5
I0509 23:08:53.890163 23119 net.cpp:76] Creating Layer inception_4d/5x5
I0509 23:08:53.890168 23119 net.cpp:372] inception_4d/5x5 <- inception_4d/5x5_reduce
I0509 23:08:53.890178 23119 net.cpp:334] inception_4d/5x5 -> inception_4d/5x5
I0509 23:08:53.890187 23119 net.cpp:105] Setting up inception_4d/5x5
I0509 23:08:53.890646 23119 net.cpp:112] Top shape: 32 64 14 14 (401408)
I0509 23:08:53.890663 23119 layer_factory.hpp:74] Creating layer inception_4d/relu_5x5
I0509 23:08:53.890671 23119 net.cpp:76] Creating Layer inception_4d/relu_5x5
I0509 23:08:53.890677 23119 net.cpp:372] inception_4d/relu_5x5 <- inception_4d/5x5
I0509 23:08:53.890707 23119 net.cpp:323] inception_4d/relu_5x5 -> inception_4d/5x5 (in-place)
I0509 23:08:53.890717 23119 net.cpp:105] Setting up inception_4d/relu_5x5
I0509 23:08:53.890722 23119 net.cpp:112] Top shape: 32 64 14 14 (401408)
I0509 23:08:53.890727 23119 layer_factory.hpp:74] Creating layer inception_4d/pool
I0509 23:08:53.890735 23119 net.cpp:76] Creating Layer inception_4d/pool
I0509 23:08:53.890741 23119 net.cpp:372] inception_4d/pool <- inception_4c/output_inception_4c/output_0_split_3
I0509 23:08:53.890751 23119 net.cpp:334] inception_4d/pool -> inception_4d/pool
I0509 23:08:53.890760 23119 net.cpp:105] Setting up inception_4d/pool
I0509 23:08:53.890769 23119 net.cpp:112] Top shape: 32 512 14 14 (3211264)
I0509 23:08:53.890774 23119 layer_factory.hpp:74] Creating layer inception_4d/pool_proj
I0509 23:08:53.890782 23119 net.cpp:76] Creating Layer inception_4d/pool_proj
I0509 23:08:53.890789 23119 net.cpp:372] inception_4d/pool_proj <- inception_4d/pool
I0509 23:08:53.890799 23119 net.cpp:334] inception_4d/pool_proj -> inception_4d/pool_proj
I0509 23:08:53.890807 23119 net.cpp:105] Setting up inception_4d/pool_proj
I0509 23:08:53.891098 23119 net.cpp:112] Top shape: 32 64 14 14 (401408)
I0509 23:08:53.891110 23119 layer_factory.hpp:74] Creating layer inception_4d/relu_pool_proj
I0509 23:08:53.891118 23119 net.cpp:76] Creating Layer inception_4d/relu_pool_proj
I0509 23:08:53.891124 23119 net.cpp:372] inception_4d/relu_pool_proj <- inception_4d/pool_proj
I0509 23:08:53.891130 23119 net.cpp:323] inception_4d/relu_pool_proj -> inception_4d/pool_proj (in-place)
I0509 23:08:53.891139 23119 net.cpp:105] Setting up inception_4d/relu_pool_proj
I0509 23:08:53.891144 23119 net.cpp:112] Top shape: 32 64 14 14 (401408)
I0509 23:08:53.891149 23119 layer_factory.hpp:74] Creating layer inception_4d/output
I0509 23:08:53.891158 23119 net.cpp:76] Creating Layer inception_4d/output
I0509 23:08:53.891165 23119 net.cpp:372] inception_4d/output <- inception_4d/1x1
I0509 23:08:53.891171 23119 net.cpp:372] inception_4d/output <- inception_4d/3x3
I0509 23:08:53.891177 23119 net.cpp:372] inception_4d/output <- inception_4d/5x5
I0509 23:08:53.891183 23119 net.cpp:372] inception_4d/output <- inception_4d/pool_proj
I0509 23:08:53.891191 23119 net.cpp:334] inception_4d/output -> inception_4d/output
I0509 23:08:53.891198 23119 net.cpp:105] Setting up inception_4d/output
I0509 23:08:53.891204 23119 net.cpp:112] Top shape: 32 528 14 14 (3311616)
I0509 23:08:53.891211 23119 layer_factory.hpp:74] Creating layer inception_4d/output_inception_4d/output_0_split
I0509 23:08:53.891217 23119 net.cpp:76] Creating Layer inception_4d/output_inception_4d/output_0_split
I0509 23:08:53.891223 23119 net.cpp:372] inception_4d/output_inception_4d/output_0_split <- inception_4d/output
I0509 23:08:53.891233 23119 net.cpp:334] inception_4d/output_inception_4d/output_0_split -> inception_4d/output_inception_4d/output_0_split_0
I0509 23:08:53.891243 23119 net.cpp:334] inception_4d/output_inception_4d/output_0_split -> inception_4d/output_inception_4d/output_0_split_1
I0509 23:08:53.891252 23119 net.cpp:334] inception_4d/output_inception_4d/output_0_split -> inception_4d/output_inception_4d/output_0_split_2
I0509 23:08:53.891262 23119 net.cpp:334] inception_4d/output_inception_4d/output_0_split -> inception_4d/output_inception_4d/output_0_split_3
I0509 23:08:53.891284 23119 net.cpp:334] inception_4d/output_inception_4d/output_0_split -> inception_4d/output_inception_4d/output_0_split_4
I0509 23:08:53.891295 23119 net.cpp:105] Setting up inception_4d/output_inception_4d/output_0_split
I0509 23:08:53.891302 23119 net.cpp:112] Top shape: 32 528 14 14 (3311616)
I0509 23:08:53.891309 23119 net.cpp:112] Top shape: 32 528 14 14 (3311616)
I0509 23:08:53.891314 23119 net.cpp:112] Top shape: 32 528 14 14 (3311616)
I0509 23:08:53.891319 23119 net.cpp:112] Top shape: 32 528 14 14 (3311616)
I0509 23:08:53.891324 23119 net.cpp:112] Top shape: 32 528 14 14 (3311616)
I0509 23:08:53.891329 23119 layer_factory.hpp:74] Creating layer loss2/ave_pool
I0509 23:08:53.891350 23119 net.cpp:76] Creating Layer loss2/ave_pool
I0509 23:08:53.891356 23119 net.cpp:372] loss2/ave_pool <- inception_4d/output_inception_4d/output_0_split_0
I0509 23:08:53.891366 23119 net.cpp:334] loss2/ave_pool -> loss2/ave_pool
I0509 23:08:53.891374 23119 net.cpp:105] Setting up loss2/ave_pool
I0509 23:08:53.891381 23119 net.cpp:112] Top shape: 32 528 4 4 (270336)
I0509 23:08:53.891386 23119 layer_factory.hpp:74] Creating layer loss2/conv
I0509 23:08:53.891398 23119 net.cpp:76] Creating Layer loss2/conv
I0509 23:08:53.891404 23119 net.cpp:372] loss2/conv <- loss2/ave_pool
I0509 23:08:53.891415 23119 net.cpp:334] loss2/conv -> loss2/conv
I0509 23:08:53.891424 23119 net.cpp:105] Setting up loss2/conv
I0509 23:08:53.891993 23119 net.cpp:112] Top shape: 32 128 4 4 (65536)
I0509 23:08:53.892007 23119 layer_factory.hpp:74] Creating layer loss2/relu_conv
I0509 23:08:53.892015 23119 net.cpp:76] Creating Layer loss2/relu_conv
I0509 23:08:53.892714 23119 net.cpp:372] loss2/relu_conv <- loss2/conv
I0509 23:08:53.892730 23119 net.cpp:323] loss2/relu_conv -> loss2/conv (in-place)
I0509 23:08:53.892740 23119 net.cpp:105] Setting up loss2/relu_conv
I0509 23:08:53.892745 23119 net.cpp:112] Top shape: 32 128 4 4 (65536)
I0509 23:08:53.892751 23119 layer_factory.hpp:74] Creating layer loss2/fc
I0509 23:08:53.892766 23119 net.cpp:76] Creating Layer loss2/fc
I0509 23:08:53.892773 23119 net.cpp:372] loss2/fc <- loss2/conv
I0509 23:08:53.892781 23119 net.cpp:334] loss2/fc -> loss2/fc
I0509 23:08:53.892791 23119 net.cpp:105] Setting up loss2/fc
I0509 23:08:53.910882 23119 net.cpp:112] Top shape: 32 1024 1 1 (32768)
I0509 23:08:53.910928 23119 layer_factory.hpp:74] Creating layer loss2/relu_fc
I0509 23:08:53.910943 23119 net.cpp:76] Creating Layer loss2/relu_fc
I0509 23:08:53.910950 23119 net.cpp:372] loss2/relu_fc <- loss2/fc
I0509 23:08:53.910961 23119 net.cpp:323] loss2/relu_fc -> loss2/fc (in-place)
I0509 23:08:53.910972 23119 net.cpp:105] Setting up loss2/relu_fc
I0509 23:08:53.910979 23119 net.cpp:112] Top shape: 32 1024 1 1 (32768)
I0509 23:08:53.910984 23119 layer_factory.hpp:74] Creating layer loss2/drop_fc
I0509 23:08:53.910992 23119 net.cpp:76] Creating Layer loss2/drop_fc
I0509 23:08:53.910998 23119 net.cpp:372] loss2/drop_fc <- loss2/fc
I0509 23:08:53.911007 23119 net.cpp:323] loss2/drop_fc -> loss2/fc (in-place)
I0509 23:08:53.911015 23119 net.cpp:105] Setting up loss2/drop_fc
I0509 23:08:53.911021 23119 net.cpp:112] Top shape: 32 1024 1 1 (32768)
I0509 23:08:53.911027 23119 layer_factory.hpp:74] Creating layer loss2/classifier
I0509 23:08:53.911037 23119 net.cpp:76] Creating Layer loss2/classifier
I0509 23:08:53.911042 23119 net.cpp:372] loss2/classifier <- loss2/fc
I0509 23:08:53.911052 23119 net.cpp:334] loss2/classifier -> loss2/classifier
I0509 23:08:53.911063 23119 net.cpp:105] Setting up loss2/classifier
I0509 23:08:53.911097 23119 net.cpp:112] Top shape: 32 2 1 1 (64)
I0509 23:08:53.911105 23119 layer_factory.hpp:74] Creating layer loss2/classifier_loss2/classifier_0_split
I0509 23:08:53.911113 23119 net.cpp:76] Creating Layer loss2/classifier_loss2/classifier_0_split
I0509 23:08:53.911119 23119 net.cpp:372] loss2/classifier_loss2/classifier_0_split <- loss2/classifier
I0509 23:08:53.911152 23119 net.cpp:334] loss2/classifier_loss2/classifier_0_split -> loss2/classifier_loss2/classifier_0_split_0
I0509 23:08:53.911170 23119 net.cpp:334] loss2/classifier_loss2/classifier_0_split -> loss2/classifier_loss2/classifier_0_split_1
I0509 23:08:53.911178 23119 net.cpp:105] Setting up loss2/classifier_loss2/classifier_0_split
I0509 23:08:53.911185 23119 net.cpp:112] Top shape: 32 2 1 1 (64)
I0509 23:08:53.911191 23119 net.cpp:112] Top shape: 32 2 1 1 (64)
I0509 23:08:53.911197 23119 layer_factory.hpp:74] Creating layer loss2/loss
I0509 23:08:53.911206 23119 net.cpp:76] Creating Layer loss2/loss
I0509 23:08:53.911213 23119 net.cpp:372] loss2/loss <- loss2/classifier_loss2/classifier_0_split_0
I0509 23:08:53.911221 23119 net.cpp:372] loss2/loss <- label_data_1_split_2
I0509 23:08:53.911229 23119 net.cpp:334] loss2/loss -> loss2/loss1
I0509 23:08:53.911305 23119 net.cpp:105] Setting up loss2/loss
I0509 23:08:53.911319 23119 layer_factory.hpp:74] Creating layer loss2/loss
I0509 23:08:53.911332 23119 net.cpp:112] Top shape: 1 1 1 1 (1)
I0509 23:08:53.911339 23119 net.cpp:118]     with loss weight 0.3
I0509 23:08:53.911355 23119 layer_factory.hpp:74] Creating layer loss2/top-1
I0509 23:08:53.911370 23119 net.cpp:76] Creating Layer loss2/top-1
I0509 23:08:53.911375 23119 net.cpp:372] loss2/top-1 <- loss2/classifier_loss2/classifier_0_split_1
I0509 23:08:53.911382 23119 net.cpp:372] loss2/top-1 <- label_data_1_split_3
I0509 23:08:53.911391 23119 net.cpp:334] loss2/top-1 -> loss2/top-1
I0509 23:08:53.911399 23119 net.cpp:105] Setting up loss2/top-1
I0509 23:08:53.911406 23119 net.cpp:112] Top shape: 1 1 1 1 (1)
I0509 23:08:53.911412 23119 layer_factory.hpp:74] Creating layer inception_4e/1x1
I0509 23:08:53.911422 23119 net.cpp:76] Creating Layer inception_4e/1x1
I0509 23:08:53.911428 23119 net.cpp:372] inception_4e/1x1 <- inception_4d/output_inception_4d/output_0_split_1
I0509 23:08:53.911437 23119 net.cpp:334] inception_4e/1x1 -> inception_4e/1x1
I0509 23:08:53.911447 23119 net.cpp:105] Setting up inception_4e/1x1
I0509 23:08:53.912582 23119 net.cpp:112] Top shape: 32 256 14 14 (1605632)
I0509 23:08:53.912597 23119 layer_factory.hpp:74] Creating layer inception_4e/relu_1x1
I0509 23:08:53.912606 23119 net.cpp:76] Creating Layer inception_4e/relu_1x1
I0509 23:08:53.912611 23119 net.cpp:372] inception_4e/relu_1x1 <- inception_4e/1x1
I0509 23:08:53.912618 23119 net.cpp:323] inception_4e/relu_1x1 -> inception_4e/1x1 (in-place)
I0509 23:08:53.912626 23119 net.cpp:105] Setting up inception_4e/relu_1x1
I0509 23:08:53.912631 23119 net.cpp:112] Top shape: 32 256 14 14 (1605632)
I0509 23:08:53.912636 23119 layer_factory.hpp:74] Creating layer inception_4e/3x3_reduce
I0509 23:08:53.912647 23119 net.cpp:76] Creating Layer inception_4e/3x3_reduce
I0509 23:08:53.912654 23119 net.cpp:372] inception_4e/3x3_reduce <- inception_4d/output_inception_4d/output_0_split_2
I0509 23:08:53.912662 23119 net.cpp:334] inception_4e/3x3_reduce -> inception_4e/3x3_reduce
I0509 23:08:53.912673 23119 net.cpp:105] Setting up inception_4e/3x3_reduce
I0509 23:08:53.913395 23119 net.cpp:112] Top shape: 32 160 14 14 (1003520)
I0509 23:08:53.913411 23119 layer_factory.hpp:74] Creating layer inception_4e/relu_3x3_reduce
I0509 23:08:53.913419 23119 net.cpp:76] Creating Layer inception_4e/relu_3x3_reduce
I0509 23:08:53.913425 23119 net.cpp:372] inception_4e/relu_3x3_reduce <- inception_4e/3x3_reduce
I0509 23:08:53.913432 23119 net.cpp:323] inception_4e/relu_3x3_reduce -> inception_4e/3x3_reduce (in-place)
I0509 23:08:53.913440 23119 net.cpp:105] Setting up inception_4e/relu_3x3_reduce
I0509 23:08:53.913445 23119 net.cpp:112] Top shape: 32 160 14 14 (1003520)
I0509 23:08:53.913451 23119 layer_factory.hpp:74] Creating layer inception_4e/3x3
I0509 23:08:53.913478 23119 net.cpp:76] Creating Layer inception_4e/3x3
I0509 23:08:53.913486 23119 net.cpp:372] inception_4e/3x3 <- inception_4e/3x3_reduce
I0509 23:08:53.913494 23119 net.cpp:334] inception_4e/3x3 -> inception_4e/3x3
I0509 23:08:53.913503 23119 net.cpp:105] Setting up inception_4e/3x3
I0509 23:08:53.917377 23119 net.cpp:112] Top shape: 32 320 14 14 (2007040)
I0509 23:08:53.917395 23119 layer_factory.hpp:74] Creating layer inception_4e/relu_3x3
I0509 23:08:53.917403 23119 net.cpp:76] Creating Layer inception_4e/relu_3x3
I0509 23:08:53.917410 23119 net.cpp:372] inception_4e/relu_3x3 <- inception_4e/3x3
I0509 23:08:53.917418 23119 net.cpp:323] inception_4e/relu_3x3 -> inception_4e/3x3 (in-place)
I0509 23:08:53.917428 23119 net.cpp:105] Setting up inception_4e/relu_3x3
I0509 23:08:53.917434 23119 net.cpp:112] Top shape: 32 320 14 14 (2007040)
I0509 23:08:53.917439 23119 layer_factory.hpp:74] Creating layer inception_4e/5x5_reduce
I0509 23:08:53.917451 23119 net.cpp:76] Creating Layer inception_4e/5x5_reduce
I0509 23:08:53.917457 23119 net.cpp:372] inception_4e/5x5_reduce <- inception_4d/output_inception_4d/output_0_split_3
I0509 23:08:53.917484 23119 net.cpp:334] inception_4e/5x5_reduce -> inception_4e/5x5_reduce
I0509 23:08:53.917495 23119 net.cpp:105] Setting up inception_4e/5x5_reduce
I0509 23:08:53.917640 23119 net.cpp:112] Top shape: 32 32 14 14 (200704)
I0509 23:08:53.917652 23119 layer_factory.hpp:74] Creating layer inception_4e/relu_5x5_reduce
I0509 23:08:53.917661 23119 net.cpp:76] Creating Layer inception_4e/relu_5x5_reduce
I0509 23:08:53.917668 23119 net.cpp:372] inception_4e/relu_5x5_reduce <- inception_4e/5x5_reduce
I0509 23:08:53.917675 23119 net.cpp:323] inception_4e/relu_5x5_reduce -> inception_4e/5x5_reduce (in-place)
I0509 23:08:53.917683 23119 net.cpp:105] Setting up inception_4e/relu_5x5_reduce
I0509 23:08:53.917688 23119 net.cpp:112] Top shape: 32 32 14 14 (200704)
I0509 23:08:53.917695 23119 layer_factory.hpp:74] Creating layer inception_4e/5x5
I0509 23:08:53.917702 23119 net.cpp:76] Creating Layer inception_4e/5x5
I0509 23:08:53.917708 23119 net.cpp:372] inception_4e/5x5 <- inception_4e/5x5_reduce
I0509 23:08:53.917718 23119 net.cpp:334] inception_4e/5x5 -> inception_4e/5x5
I0509 23:08:53.917727 23119 net.cpp:105] Setting up inception_4e/5x5
I0509 23:08:53.918598 23119 net.cpp:112] Top shape: 32 128 14 14 (802816)
I0509 23:08:53.918612 23119 layer_factory.hpp:74] Creating layer inception_4e/relu_5x5
I0509 23:08:53.918620 23119 net.cpp:76] Creating Layer inception_4e/relu_5x5
I0509 23:08:53.918627 23119 net.cpp:372] inception_4e/relu_5x5 <- inception_4e/5x5
I0509 23:08:53.918634 23119 net.cpp:323] inception_4e/relu_5x5 -> inception_4e/5x5 (in-place)
I0509 23:08:53.918642 23119 net.cpp:105] Setting up inception_4e/relu_5x5
I0509 23:08:53.918648 23119 net.cpp:112] Top shape: 32 128 14 14 (802816)
I0509 23:08:53.918653 23119 layer_factory.hpp:74] Creating layer inception_4e/pool
I0509 23:08:53.918663 23119 net.cpp:76] Creating Layer inception_4e/pool
I0509 23:08:53.918669 23119 net.cpp:372] inception_4e/pool <- inception_4d/output_inception_4d/output_0_split_4
I0509 23:08:53.918678 23119 net.cpp:334] inception_4e/pool -> inception_4e/pool
I0509 23:08:53.918686 23119 net.cpp:105] Setting up inception_4e/pool
I0509 23:08:53.918694 23119 net.cpp:112] Top shape: 32 528 14 14 (3311616)
I0509 23:08:53.918700 23119 layer_factory.hpp:74] Creating layer inception_4e/pool_proj
I0509 23:08:53.918711 23119 net.cpp:76] Creating Layer inception_4e/pool_proj
I0509 23:08:53.918717 23119 net.cpp:372] inception_4e/pool_proj <- inception_4e/pool
I0509 23:08:53.918725 23119 net.cpp:334] inception_4e/pool_proj -> inception_4e/pool_proj
I0509 23:08:53.918735 23119 net.cpp:105] Setting up inception_4e/pool_proj
I0509 23:08:53.919320 23119 net.cpp:112] Top shape: 32 128 14 14 (802816)
I0509 23:08:53.919337 23119 layer_factory.hpp:74] Creating layer inception_4e/relu_pool_proj
I0509 23:08:53.919359 23119 net.cpp:76] Creating Layer inception_4e/relu_pool_proj
I0509 23:08:53.919366 23119 net.cpp:372] inception_4e/relu_pool_proj <- inception_4e/pool_proj
I0509 23:08:53.919374 23119 net.cpp:323] inception_4e/relu_pool_proj -> inception_4e/pool_proj (in-place)
I0509 23:08:53.919383 23119 net.cpp:105] Setting up inception_4e/relu_pool_proj
I0509 23:08:53.919387 23119 net.cpp:112] Top shape: 32 128 14 14 (802816)
I0509 23:08:53.919394 23119 layer_factory.hpp:74] Creating layer inception_4e/output
I0509 23:08:53.919401 23119 net.cpp:76] Creating Layer inception_4e/output
I0509 23:08:53.919406 23119 net.cpp:372] inception_4e/output <- inception_4e/1x1
I0509 23:08:53.919414 23119 net.cpp:372] inception_4e/output <- inception_4e/3x3
I0509 23:08:53.919420 23119 net.cpp:372] inception_4e/output <- inception_4e/5x5
I0509 23:08:53.919425 23119 net.cpp:372] inception_4e/output <- inception_4e/pool_proj
I0509 23:08:53.919432 23119 net.cpp:334] inception_4e/output -> inception_4e/output
I0509 23:08:53.919440 23119 net.cpp:105] Setting up inception_4e/output
I0509 23:08:53.919446 23119 net.cpp:112] Top shape: 32 832 14 14 (5218304)
I0509 23:08:53.919451 23119 layer_factory.hpp:74] Creating layer pool4/3x3_s2
I0509 23:08:53.919462 23119 net.cpp:76] Creating Layer pool4/3x3_s2
I0509 23:08:53.919482 23119 net.cpp:372] pool4/3x3_s2 <- inception_4e/output
I0509 23:08:53.919492 23119 net.cpp:334] pool4/3x3_s2 -> pool4/3x3_s2
I0509 23:08:53.919499 23119 net.cpp:105] Setting up pool4/3x3_s2
I0509 23:08:53.920584 23119 net.cpp:112] Top shape: 32 832 7 7 (1304576)
I0509 23:08:53.920593 23119 layer_factory.hpp:74] Creating layer pool4/3x3_s2_pool4/3x3_s2_0_split
I0509 23:08:53.920603 23119 net.cpp:76] Creating Layer pool4/3x3_s2_pool4/3x3_s2_0_split
I0509 23:08:53.920610 23119 net.cpp:372] pool4/3x3_s2_pool4/3x3_s2_0_split <- pool4/3x3_s2
I0509 23:08:53.920619 23119 net.cpp:334] pool4/3x3_s2_pool4/3x3_s2_0_split -> pool4/3x3_s2_pool4/3x3_s2_0_split_0
I0509 23:08:53.920627 23119 net.cpp:334] pool4/3x3_s2_pool4/3x3_s2_0_split -> pool4/3x3_s2_pool4/3x3_s2_0_split_1
I0509 23:08:53.920636 23119 net.cpp:334] pool4/3x3_s2_pool4/3x3_s2_0_split -> pool4/3x3_s2_pool4/3x3_s2_0_split_2
I0509 23:08:53.920645 23119 net.cpp:334] pool4/3x3_s2_pool4/3x3_s2_0_split -> pool4/3x3_s2_pool4/3x3_s2_0_split_3
I0509 23:08:53.920652 23119 net.cpp:105] Setting up pool4/3x3_s2_pool4/3x3_s2_0_split
I0509 23:08:53.920658 23119 net.cpp:112] Top shape: 32 832 7 7 (1304576)
I0509 23:08:53.920665 23119 net.cpp:112] Top shape: 32 832 7 7 (1304576)
I0509 23:08:53.920670 23119 net.cpp:112] Top shape: 32 832 7 7 (1304576)
I0509 23:08:53.920675 23119 net.cpp:112] Top shape: 32 832 7 7 (1304576)
I0509 23:08:53.920680 23119 layer_factory.hpp:74] Creating layer inception_5a/1x1
I0509 23:08:53.920691 23119 net.cpp:76] Creating Layer inception_5a/1x1
I0509 23:08:53.920696 23119 net.cpp:372] inception_5a/1x1 <- pool4/3x3_s2_pool4/3x3_s2_0_split_0
I0509 23:08:53.920707 23119 net.cpp:334] inception_5a/1x1 -> inception_5a/1x1
I0509 23:08:53.920717 23119 net.cpp:105] Setting up inception_5a/1x1
I0509 23:08:53.922502 23119 net.cpp:112] Top shape: 32 256 7 7 (401408)
I0509 23:08:53.922518 23119 layer_factory.hpp:74] Creating layer inception_5a/relu_1x1
I0509 23:08:53.922529 23119 net.cpp:76] Creating Layer inception_5a/relu_1x1
I0509 23:08:53.922536 23119 net.cpp:372] inception_5a/relu_1x1 <- inception_5a/1x1
I0509 23:08:53.922544 23119 net.cpp:323] inception_5a/relu_1x1 -> inception_5a/1x1 (in-place)
I0509 23:08:53.922551 23119 net.cpp:105] Setting up inception_5a/relu_1x1
I0509 23:08:53.922557 23119 net.cpp:112] Top shape: 32 256 7 7 (401408)
I0509 23:08:53.922562 23119 layer_factory.hpp:74] Creating layer inception_5a/3x3_reduce
I0509 23:08:53.922574 23119 net.cpp:76] Creating Layer inception_5a/3x3_reduce
I0509 23:08:53.922580 23119 net.cpp:372] inception_5a/3x3_reduce <- pool4/3x3_s2_pool4/3x3_s2_0_split_1
I0509 23:08:53.922587 23119 net.cpp:334] inception_5a/3x3_reduce -> inception_5a/3x3_reduce
I0509 23:08:53.922596 23119 net.cpp:105] Setting up inception_5a/3x3_reduce
I0509 23:08:53.923724 23119 net.cpp:112] Top shape: 32 160 7 7 (250880)
I0509 23:08:53.923738 23119 layer_factory.hpp:74] Creating layer inception_5a/relu_3x3_reduce
I0509 23:08:53.923746 23119 net.cpp:76] Creating Layer inception_5a/relu_3x3_reduce
I0509 23:08:53.923753 23119 net.cpp:372] inception_5a/relu_3x3_reduce <- inception_5a/3x3_reduce
I0509 23:08:53.923763 23119 net.cpp:323] inception_5a/relu_3x3_reduce -> inception_5a/3x3_reduce (in-place)
I0509 23:08:53.923770 23119 net.cpp:105] Setting up inception_5a/relu_3x3_reduce
I0509 23:08:53.923776 23119 net.cpp:112] Top shape: 32 160 7 7 (250880)
I0509 23:08:53.923781 23119 layer_factory.hpp:74] Creating layer inception_5a/3x3
I0509 23:08:53.923790 23119 net.cpp:76] Creating Layer inception_5a/3x3
I0509 23:08:53.923795 23119 net.cpp:372] inception_5a/3x3 <- inception_5a/3x3_reduce
I0509 23:08:53.923805 23119 net.cpp:334] inception_5a/3x3 -> inception_5a/3x3
I0509 23:08:53.923815 23119 net.cpp:105] Setting up inception_5a/3x3
I0509 23:08:53.927651 23119 net.cpp:112] Top shape: 32 320 7 7 (501760)
I0509 23:08:53.927669 23119 layer_factory.hpp:74] Creating layer inception_5a/relu_3x3
I0509 23:08:53.927676 23119 net.cpp:76] Creating Layer inception_5a/relu_3x3
I0509 23:08:53.927682 23119 net.cpp:372] inception_5a/relu_3x3 <- inception_5a/3x3
I0509 23:08:53.927711 23119 net.cpp:323] inception_5a/relu_3x3 -> inception_5a/3x3 (in-place)
I0509 23:08:53.927721 23119 net.cpp:105] Setting up inception_5a/relu_3x3
I0509 23:08:53.927726 23119 net.cpp:112] Top shape: 32 320 7 7 (501760)
I0509 23:08:53.927731 23119 layer_factory.hpp:74] Creating layer inception_5a/5x5_reduce
I0509 23:08:53.927743 23119 net.cpp:76] Creating Layer inception_5a/5x5_reduce
I0509 23:08:53.927750 23119 net.cpp:372] inception_5a/5x5_reduce <- pool4/3x3_s2_pool4/3x3_s2_0_split_2
I0509 23:08:53.927759 23119 net.cpp:334] inception_5a/5x5_reduce -> inception_5a/5x5_reduce
I0509 23:08:53.927768 23119 net.cpp:105] Setting up inception_5a/5x5_reduce
I0509 23:08:53.928006 23119 net.cpp:112] Top shape: 32 32 7 7 (50176)
I0509 23:08:53.928020 23119 layer_factory.hpp:74] Creating layer inception_5a/relu_5x5_reduce
I0509 23:08:53.928027 23119 net.cpp:76] Creating Layer inception_5a/relu_5x5_reduce
I0509 23:08:53.928033 23119 net.cpp:372] inception_5a/relu_5x5_reduce <- inception_5a/5x5_reduce
I0509 23:08:53.928040 23119 net.cpp:323] inception_5a/relu_5x5_reduce -> inception_5a/5x5_reduce (in-place)
I0509 23:08:53.928047 23119 net.cpp:105] Setting up inception_5a/relu_5x5_reduce
I0509 23:08:53.928052 23119 net.cpp:112] Top shape: 32 32 7 7 (50176)
I0509 23:08:53.928058 23119 layer_factory.hpp:74] Creating layer inception_5a/5x5
I0509 23:08:53.928068 23119 net.cpp:76] Creating Layer inception_5a/5x5
I0509 23:08:53.928074 23119 net.cpp:372] inception_5a/5x5 <- inception_5a/5x5_reduce
I0509 23:08:53.928084 23119 net.cpp:334] inception_5a/5x5 -> inception_5a/5x5
I0509 23:08:53.928092 23119 net.cpp:105] Setting up inception_5a/5x5
I0509 23:08:53.928956 23119 net.cpp:112] Top shape: 32 128 7 7 (200704)
I0509 23:08:53.928971 23119 layer_factory.hpp:74] Creating layer inception_5a/relu_5x5
I0509 23:08:53.928982 23119 net.cpp:76] Creating Layer inception_5a/relu_5x5
I0509 23:08:53.928988 23119 net.cpp:372] inception_5a/relu_5x5 <- inception_5a/5x5
I0509 23:08:53.928997 23119 net.cpp:323] inception_5a/relu_5x5 -> inception_5a/5x5 (in-place)
I0509 23:08:53.929005 23119 net.cpp:105] Setting up inception_5a/relu_5x5
I0509 23:08:53.929010 23119 net.cpp:112] Top shape: 32 128 7 7 (200704)
I0509 23:08:53.929016 23119 layer_factory.hpp:74] Creating layer inception_5a/pool
I0509 23:08:53.929023 23119 net.cpp:76] Creating Layer inception_5a/pool
I0509 23:08:53.929030 23119 net.cpp:372] inception_5a/pool <- pool4/3x3_s2_pool4/3x3_s2_0_split_3
I0509 23:08:53.929039 23119 net.cpp:334] inception_5a/pool -> inception_5a/pool
I0509 23:08:53.929067 23119 net.cpp:105] Setting up inception_5a/pool
I0509 23:08:53.929078 23119 net.cpp:112] Top shape: 32 832 7 7 (1304576)
I0509 23:08:53.929085 23119 layer_factory.hpp:74] Creating layer inception_5a/pool_proj
I0509 23:08:53.929093 23119 net.cpp:76] Creating Layer inception_5a/pool_proj
I0509 23:08:53.929100 23119 net.cpp:372] inception_5a/pool_proj <- inception_5a/pool
I0509 23:08:53.929108 23119 net.cpp:334] inception_5a/pool_proj -> inception_5a/pool_proj
I0509 23:08:53.929117 23119 net.cpp:105] Setting up inception_5a/pool_proj
I0509 23:08:53.930116 23119 net.cpp:112] Top shape: 32 128 7 7 (200704)
I0509 23:08:53.930137 23119 layer_factory.hpp:74] Creating layer inception_5a/relu_pool_proj
I0509 23:08:53.930146 23119 net.cpp:76] Creating Layer inception_5a/relu_pool_proj
I0509 23:08:53.930152 23119 net.cpp:372] inception_5a/relu_pool_proj <- inception_5a/pool_proj
I0509 23:08:53.930162 23119 net.cpp:323] inception_5a/relu_pool_proj -> inception_5a/pool_proj (in-place)
I0509 23:08:53.930171 23119 net.cpp:105] Setting up inception_5a/relu_pool_proj
I0509 23:08:53.930177 23119 net.cpp:112] Top shape: 32 128 7 7 (200704)
I0509 23:08:53.930182 23119 layer_factory.hpp:74] Creating layer inception_5a/output
I0509 23:08:53.930189 23119 net.cpp:76] Creating Layer inception_5a/output
I0509 23:08:53.930196 23119 net.cpp:372] inception_5a/output <- inception_5a/1x1
I0509 23:08:53.930202 23119 net.cpp:372] inception_5a/output <- inception_5a/3x3
I0509 23:08:53.930208 23119 net.cpp:372] inception_5a/output <- inception_5a/5x5
I0509 23:08:53.930230 23119 net.cpp:372] inception_5a/output <- inception_5a/pool_proj
I0509 23:08:53.930239 23119 net.cpp:334] inception_5a/output -> inception_5a/output
I0509 23:08:53.930248 23119 net.cpp:105] Setting up inception_5a/output
I0509 23:08:53.930254 23119 net.cpp:112] Top shape: 32 832 7 7 (1304576)
I0509 23:08:53.930260 23119 layer_factory.hpp:74] Creating layer inception_5a/output_inception_5a/output_0_split
I0509 23:08:53.930268 23119 net.cpp:76] Creating Layer inception_5a/output_inception_5a/output_0_split
I0509 23:08:53.930289 23119 net.cpp:372] inception_5a/output_inception_5a/output_0_split <- inception_5a/output
I0509 23:08:53.930301 23119 net.cpp:334] inception_5a/output_inception_5a/output_0_split -> inception_5a/output_inception_5a/output_0_split_0
I0509 23:08:53.930312 23119 net.cpp:334] inception_5a/output_inception_5a/output_0_split -> inception_5a/output_inception_5a/output_0_split_1
I0509 23:08:53.930321 23119 net.cpp:334] inception_5a/output_inception_5a/output_0_split -> inception_5a/output_inception_5a/output_0_split_2
I0509 23:08:53.930330 23119 net.cpp:334] inception_5a/output_inception_5a/output_0_split -> inception_5a/output_inception_5a/output_0_split_3
I0509 23:08:53.930338 23119 net.cpp:105] Setting up inception_5a/output_inception_5a/output_0_split
I0509 23:08:53.930346 23119 net.cpp:112] Top shape: 32 832 7 7 (1304576)
I0509 23:08:53.930351 23119 net.cpp:112] Top shape: 32 832 7 7 (1304576)
I0509 23:08:53.930356 23119 net.cpp:112] Top shape: 32 832 7 7 (1304576)
I0509 23:08:53.930363 23119 net.cpp:112] Top shape: 32 832 7 7 (1304576)
I0509 23:08:53.930368 23119 layer_factory.hpp:74] Creating layer inception_5b/1x1
I0509 23:08:53.930379 23119 net.cpp:76] Creating Layer inception_5b/1x1
I0509 23:08:53.930385 23119 net.cpp:372] inception_5b/1x1 <- inception_5a/output_inception_5a/output_0_split_0
I0509 23:08:53.930397 23119 net.cpp:334] inception_5b/1x1 -> inception_5b/1x1
I0509 23:08:53.930407 23119 net.cpp:105] Setting up inception_5b/1x1
I0509 23:08:53.933197 23119 net.cpp:112] Top shape: 32 384 7 7 (602112)
I0509 23:08:53.933215 23119 layer_factory.hpp:74] Creating layer inception_5b/relu_1x1
I0509 23:08:53.933224 23119 net.cpp:76] Creating Layer inception_5b/relu_1x1
I0509 23:08:53.933230 23119 net.cpp:372] inception_5b/relu_1x1 <- inception_5b/1x1
I0509 23:08:53.933238 23119 net.cpp:323] inception_5b/relu_1x1 -> inception_5b/1x1 (in-place)
I0509 23:08:53.933245 23119 net.cpp:105] Setting up inception_5b/relu_1x1
I0509 23:08:53.933251 23119 net.cpp:112] Top shape: 32 384 7 7 (602112)
I0509 23:08:53.933256 23119 layer_factory.hpp:74] Creating layer inception_5b/3x3_reduce
I0509 23:08:53.933267 23119 net.cpp:76] Creating Layer inception_5b/3x3_reduce
I0509 23:08:53.933290 23119 net.cpp:372] inception_5b/3x3_reduce <- inception_5a/output_inception_5a/output_0_split_1
I0509 23:08:53.933300 23119 net.cpp:334] inception_5b/3x3_reduce -> inception_5b/3x3_reduce
I0509 23:08:53.933312 23119 net.cpp:105] Setting up inception_5b/3x3_reduce
I0509 23:08:53.934646 23119 net.cpp:112] Top shape: 32 192 7 7 (301056)
I0509 23:08:53.934660 23119 layer_factory.hpp:74] Creating layer inception_5b/relu_3x3_reduce
I0509 23:08:53.934669 23119 net.cpp:76] Creating Layer inception_5b/relu_3x3_reduce
I0509 23:08:53.934674 23119 net.cpp:372] inception_5b/relu_3x3_reduce <- inception_5b/3x3_reduce
I0509 23:08:53.934684 23119 net.cpp:323] inception_5b/relu_3x3_reduce -> inception_5b/3x3_reduce (in-place)
I0509 23:08:53.934692 23119 net.cpp:105] Setting up inception_5b/relu_3x3_reduce
I0509 23:08:53.934698 23119 net.cpp:112] Top shape: 32 192 7 7 (301056)
I0509 23:08:53.934703 23119 layer_factory.hpp:74] Creating layer inception_5b/3x3
I0509 23:08:53.934711 23119 net.cpp:76] Creating Layer inception_5b/3x3
I0509 23:08:53.934717 23119 net.cpp:372] inception_5b/3x3 <- inception_5b/3x3_reduce
I0509 23:08:53.934726 23119 net.cpp:334] inception_5b/3x3 -> inception_5b/3x3
I0509 23:08:53.934736 23119 net.cpp:105] Setting up inception_5b/3x3
I0509 23:08:53.940225 23119 net.cpp:112] Top shape: 32 384 7 7 (602112)
I0509 23:08:53.940304 23119 layer_factory.hpp:74] Creating layer inception_5b/relu_3x3
I0509 23:08:53.940315 23119 net.cpp:76] Creating Layer inception_5b/relu_3x3
I0509 23:08:53.940322 23119 net.cpp:372] inception_5b/relu_3x3 <- inception_5b/3x3
I0509 23:08:53.940332 23119 net.cpp:323] inception_5b/relu_3x3 -> inception_5b/3x3 (in-place)
I0509 23:08:53.940341 23119 net.cpp:105] Setting up inception_5b/relu_3x3
I0509 23:08:53.940347 23119 net.cpp:112] Top shape: 32 384 7 7 (602112)
I0509 23:08:53.940352 23119 layer_factory.hpp:74] Creating layer inception_5b/5x5_reduce
I0509 23:08:53.940361 23119 net.cpp:76] Creating Layer inception_5b/5x5_reduce
I0509 23:08:53.940368 23119 net.cpp:372] inception_5b/5x5_reduce <- inception_5a/output_inception_5a/output_0_split_2
I0509 23:08:53.940378 23119 net.cpp:334] inception_5b/5x5_reduce -> inception_5b/5x5_reduce
I0509 23:08:53.940388 23119 net.cpp:105] Setting up inception_5b/5x5_reduce
I0509 23:08:53.940732 23119 net.cpp:112] Top shape: 32 48 7 7 (75264)
I0509 23:08:53.940745 23119 layer_factory.hpp:74] Creating layer inception_5b/relu_5x5_reduce
I0509 23:08:53.940753 23119 net.cpp:76] Creating Layer inception_5b/relu_5x5_reduce
I0509 23:08:53.940762 23119 net.cpp:372] inception_5b/relu_5x5_reduce <- inception_5b/5x5_reduce
I0509 23:08:53.940769 23119 net.cpp:323] inception_5b/relu_5x5_reduce -> inception_5b/5x5_reduce (in-place)
I0509 23:08:53.940778 23119 net.cpp:105] Setting up inception_5b/relu_5x5_reduce
I0509 23:08:53.940783 23119 net.cpp:112] Top shape: 32 48 7 7 (75264)
I0509 23:08:53.940788 23119 layer_factory.hpp:74] Creating layer inception_5b/5x5
I0509 23:08:53.940798 23119 net.cpp:76] Creating Layer inception_5b/5x5
I0509 23:08:53.940803 23119 net.cpp:372] inception_5b/5x5 <- inception_5b/5x5_reduce
I0509 23:08:53.940812 23119 net.cpp:334] inception_5b/5x5 -> inception_5b/5x5
I0509 23:08:53.940821 23119 net.cpp:105] Setting up inception_5b/5x5
I0509 23:08:53.942107 23119 net.cpp:112] Top shape: 32 128 7 7 (200704)
I0509 23:08:53.942123 23119 layer_factory.hpp:74] Creating layer inception_5b/relu_5x5
I0509 23:08:53.942131 23119 net.cpp:76] Creating Layer inception_5b/relu_5x5
I0509 23:08:53.942137 23119 net.cpp:372] inception_5b/relu_5x5 <- inception_5b/5x5
I0509 23:08:53.942144 23119 net.cpp:323] inception_5b/relu_5x5 -> inception_5b/5x5 (in-place)
I0509 23:08:53.942152 23119 net.cpp:105] Setting up inception_5b/relu_5x5
I0509 23:08:53.942157 23119 net.cpp:112] Top shape: 32 128 7 7 (200704)
I0509 23:08:53.942162 23119 layer_factory.hpp:74] Creating layer inception_5b/pool
I0509 23:08:53.942170 23119 net.cpp:76] Creating Layer inception_5b/pool
I0509 23:08:53.942176 23119 net.cpp:372] inception_5b/pool <- inception_5a/output_inception_5a/output_0_split_3
I0509 23:08:53.942186 23119 net.cpp:334] inception_5b/pool -> inception_5b/pool
I0509 23:08:53.942195 23119 net.cpp:105] Setting up inception_5b/pool
I0509 23:08:53.942203 23119 net.cpp:112] Top shape: 32 832 7 7 (1304576)
I0509 23:08:53.942209 23119 layer_factory.hpp:74] Creating layer inception_5b/pool_proj
I0509 23:08:53.942217 23119 net.cpp:76] Creating Layer inception_5b/pool_proj
I0509 23:08:53.942224 23119 net.cpp:372] inception_5b/pool_proj <- inception_5b/pool
I0509 23:08:53.942234 23119 net.cpp:334] inception_5b/pool_proj -> inception_5b/pool_proj
I0509 23:08:53.942244 23119 net.cpp:105] Setting up inception_5b/pool_proj
I0509 23:08:53.943145 23119 net.cpp:112] Top shape: 32 128 7 7 (200704)
I0509 23:08:53.943161 23119 layer_factory.hpp:74] Creating layer inception_5b/relu_pool_proj
I0509 23:08:53.943171 23119 net.cpp:76] Creating Layer inception_5b/relu_pool_proj
I0509 23:08:53.943176 23119 net.cpp:372] inception_5b/relu_pool_proj <- inception_5b/pool_proj
I0509 23:08:53.943184 23119 net.cpp:323] inception_5b/relu_pool_proj -> inception_5b/pool_proj (in-place)
I0509 23:08:53.943192 23119 net.cpp:105] Setting up inception_5b/relu_pool_proj
I0509 23:08:53.943197 23119 net.cpp:112] Top shape: 32 128 7 7 (200704)
I0509 23:08:53.943203 23119 layer_factory.hpp:74] Creating layer inception_5b/output
I0509 23:08:53.943227 23119 net.cpp:76] Creating Layer inception_5b/output
I0509 23:08:53.943233 23119 net.cpp:372] inception_5b/output <- inception_5b/1x1
I0509 23:08:53.943239 23119 net.cpp:372] inception_5b/output <- inception_5b/3x3
I0509 23:08:53.943245 23119 net.cpp:372] inception_5b/output <- inception_5b/5x5
I0509 23:08:53.943253 23119 net.cpp:372] inception_5b/output <- inception_5b/pool_proj
I0509 23:08:53.943259 23119 net.cpp:334] inception_5b/output -> inception_5b/output
I0509 23:08:53.943269 23119 net.cpp:105] Setting up inception_5b/output
I0509 23:08:53.943289 23119 net.cpp:112] Top shape: 32 1024 7 7 (1605632)
I0509 23:08:53.943296 23119 layer_factory.hpp:74] Creating layer pool5/7x7_s1
I0509 23:08:53.943305 23119 net.cpp:76] Creating Layer pool5/7x7_s1
I0509 23:08:53.943310 23119 net.cpp:372] pool5/7x7_s1 <- inception_5b/output
I0509 23:08:53.943318 23119 net.cpp:334] pool5/7x7_s1 -> pool5/7x7_s1
I0509 23:08:53.943326 23119 net.cpp:105] Setting up pool5/7x7_s1
I0509 23:08:53.943333 23119 net.cpp:112] Top shape: 32 1024 1 1 (32768)
I0509 23:08:53.943339 23119 layer_factory.hpp:74] Creating layer pool5/drop_7x7_s1
I0509 23:08:53.943351 23119 net.cpp:76] Creating Layer pool5/drop_7x7_s1
I0509 23:08:53.943356 23119 net.cpp:372] pool5/drop_7x7_s1 <- pool5/7x7_s1
I0509 23:08:53.943363 23119 net.cpp:323] pool5/drop_7x7_s1 -> pool5/7x7_s1 (in-place)
I0509 23:08:53.943372 23119 net.cpp:105] Setting up pool5/drop_7x7_s1
I0509 23:08:53.943380 23119 net.cpp:112] Top shape: 32 1024 1 1 (32768)
I0509 23:08:53.943385 23119 layer_factory.hpp:74] Creating layer loss3/classifier
I0509 23:08:53.943397 23119 net.cpp:76] Creating Layer loss3/classifier
I0509 23:08:53.944198 23119 net.cpp:372] loss3/classifier <- pool5/7x7_s1
I0509 23:08:53.944211 23119 net.cpp:334] loss3/classifier -> loss3/classifier
I0509 23:08:53.944222 23119 net.cpp:105] Setting up loss3/classifier
I0509 23:08:53.944255 23119 net.cpp:112] Top shape: 32 2 1 1 (64)
I0509 23:08:53.944267 23119 layer_factory.hpp:74] Creating layer loss3/classifier_loss3/classifier_0_split
I0509 23:08:53.944277 23119 net.cpp:76] Creating Layer loss3/classifier_loss3/classifier_0_split
I0509 23:08:53.944283 23119 net.cpp:372] loss3/classifier_loss3/classifier_0_split <- loss3/classifier
I0509 23:08:53.944289 23119 net.cpp:334] loss3/classifier_loss3/classifier_0_split -> loss3/classifier_loss3/classifier_0_split_0
I0509 23:08:53.944298 23119 net.cpp:334] loss3/classifier_loss3/classifier_0_split -> loss3/classifier_loss3/classifier_0_split_1
I0509 23:08:53.944306 23119 net.cpp:105] Setting up loss3/classifier_loss3/classifier_0_split
I0509 23:08:53.944314 23119 net.cpp:112] Top shape: 32 2 1 1 (64)
I0509 23:08:53.944319 23119 net.cpp:112] Top shape: 32 2 1 1 (64)
I0509 23:08:53.944324 23119 layer_factory.hpp:74] Creating layer loss3/loss3
I0509 23:08:53.944334 23119 net.cpp:76] Creating Layer loss3/loss3
I0509 23:08:53.944350 23119 net.cpp:372] loss3/loss3 <- loss3/classifier_loss3/classifier_0_split_0
I0509 23:08:53.944358 23119 net.cpp:372] loss3/loss3 <- label_data_1_split_4
I0509 23:08:53.944366 23119 net.cpp:334] loss3/loss3 -> loss3/loss3
I0509 23:08:53.944375 23119 net.cpp:105] Setting up loss3/loss3
I0509 23:08:53.944383 23119 layer_factory.hpp:74] Creating layer loss3/loss3
I0509 23:08:53.944399 23119 net.cpp:112] Top shape: 1 1 1 1 (1)
I0509 23:08:53.944406 23119 net.cpp:118]     with loss weight 1
I0509 23:08:53.944422 23119 layer_factory.hpp:74] Creating layer loss3/top-1
I0509 23:08:53.944433 23119 net.cpp:76] Creating Layer loss3/top-1
I0509 23:08:53.944439 23119 net.cpp:372] loss3/top-1 <- loss3/classifier_loss3/classifier_0_split_1
I0509 23:08:53.944447 23119 net.cpp:372] loss3/top-1 <- label_data_1_split_5
I0509 23:08:53.944457 23119 net.cpp:334] loss3/top-1 -> loss3/top-1
I0509 23:08:53.944465 23119 net.cpp:105] Setting up loss3/top-1
I0509 23:08:53.944473 23119 net.cpp:112] Top shape: 1 1 1 1 (1)
I0509 23:08:53.944479 23119 net.cpp:165] loss3/top-1 does not need backward computation.
I0509 23:08:53.944484 23119 net.cpp:163] loss3/loss3 needs backward computation.
I0509 23:08:53.944502 23119 net.cpp:163] loss3/classifier_loss3/classifier_0_split needs backward computation.
I0509 23:08:53.944509 23119 net.cpp:163] loss3/classifier needs backward computation.
I0509 23:08:53.944514 23119 net.cpp:163] pool5/drop_7x7_s1 needs backward computation.
…
