…
I0509 22:49:52.002949 21921 net.cpp:253] The NetState phase (0) differed from the phase (1) specified by a rule in layer loss3/top-1
I0509 22:49:52.004248 21921 net.cpp:42] Initializing net from parameters: 
name: "GoogleNet"
state {
  phase: TRAIN
}
layer {
  name: "data"
  type: "Data"
  top: "data"
  top: "label"
  include {
    phase: TRAIN
  }
  transform_param {
    mirror: true
    crop_size: 224
    mean_value: 104
    mean_value: 117
    mean_value: 123
  }
  data_param {
    source: "train_lmdb"
    batch_size: 32
    backend: LMDB
  }
}
layer {
  name: "conv1/7x7_s2"
  type: "Convolution"
  bottom: "data"
  top: "conv1/7x7_s2"
  param {
    lr_mult: 1
    decay_mult: 1
  }
  param {
    lr_mult: 2
    decay_mult: 0
  }
  convolution_param {
    num_output: 64
    pad: 3
    kernel_size: 7
    stride: 2
    weight_filler {
      type: "xavier"
      std: 0.1
    }
    bias_filler {
      type: "constant"
      value: 0.2
    }
  }
}
layer {
  name: "conv1/relu_7x7"
  type: "ReLU"
  bottom: "conv1/7x7_s2"
  top: "conv1/7x7_s2"
}
layer {
  name: "pool1/3x3_s2"
  type: "Pooling"
  bottom: "conv1/7x7_s2"
  top: "pool1/3x3_s2"
  pooling_param {
    pool: MAX
    kernel_size: 3
    stride: 2
  }
}
layer {
  name: "pool1/norm1"
  type: "LRN"
  bottom: "pool1/3x3_s2"
  top: "pool1/norm1"
  lrn_param {
    local_size: 5
    alpha: 0.0001
    beta: 0.75
  }
}
layer {
  name: "conv2/3x3_reduce"
  type: "Convolution"
  bottom: "pool1/norm1"
  top: "conv2/3x3_reduce"
  param {
    lr_mult: 1
    decay_mult: 1
  }
  param {
    lr_mult: 2
    decay_mult: 0
  }
  convolution_param {
    num_output: 64
    kernel_size: 1
    weight_filler {
      type: "xavier"
      std: 0.1
    }
    bias_filler {
      type: "constant"
      value: 0.2
    }
  }
}
layer {
  name: "conv2/relu_3x3_reduce"
  type: "ReLU"
  bottom: "conv2/3x3_reduce"
  top: "conv2/3x3_reduce"
}
layer {
  name: "conv2/3x3"
  type: "Convolution"
  bottom: "conv2/3x3_reduce"
  top: "conv2/3x3"
  param {
    lr_mult: 1
    decay_mult: 1
  }
  param {
    lr_mult: 2
    decay_mult: 0
  }
  convolution_param {
    num_output: 192
    pad: 1
    kernel_size: 3
    weight_filler {
      type: "xavier"
      std: 0.03
    }
    bias_filler {
      type: "constant"
      value: 0.2
    }
  }
}
layer {
  name: "conv2/relu_3x3"
  type: "ReLU"
  bottom: "conv2/3x3"
  top: "conv2/3x3"
}
layer {
  name: "conv2/norm2"
  type: "LRN"
  bottom: "conv2/3x3"
  top: "conv2/norm2"
  lrn_param {
    local_size: 5
    alpha: 0.0001
    beta: 0.75
  }
}
layer {
  name: "pool2/3x3_s2"
  type: "Pooling"
  bottom: "conv2/norm2"
  top: "pool2/3x3_s2"
  pooling_param {
    pool: MAX
    kernel_size: 3
    stride: 2
  }
}
layer {
  name: "inception_3a/1x1"
  type: "Convolution"
  bottom: "pool2/3x3_s2"
  top: "inception_3a/1x1"
  param {
    lr_mult: 1
    decay_mult: 1
  }
  param {
    lr_mult: 2
    decay_mult: 0
  }
  convolution_param {
    num_output: 64
    kernel_size: 1
    weight_filler {
      type: "xavier"
      std: 0.03
    }
    bias_filler {
      type: "constant"
      value: 0.2
    }
  }
}
layer {
  name: "inception_3a/relu_1x1"
  type: "ReLU"
  bottom: "inception_3a/1x1"
  top: "inception_3a/1x1"
}
layer {
  name: "inception_3a/3x3_reduce"
  type: "Convolution"
  bottom: "pool2/3x3_s2"
  top: "inception_3a/3x3_reduce"
  param {
    lr_mult: 1
    decay_mult: 1
  }
  param {
    lr_mult: 2
    decay_mult: 0
  }
  convolution_param {
    num_output: 96
    kernel_size: 1
    weight_filler {
      type: "xavier"
      std: 0.09
    }
    bias_filler {
      type: "constant"
      value: 0.2
    }
  }
}
layer {
  name: "inception_3a/relu_3x3_reduce"
  type: "ReLU"
  bottom: "inception_3a/3x3_reduce"
  top: "inception_3a/3x3_reduce"
}
layer {
  name: "inception_3a/3x3"
  type: "Convolution"
  bottom: "inception_3a/3x3_reduce"
  top: "inception_3a/3x3"
  param {
    lr_mult: 1
    decay_mult: 1
  }
  param {
    lr_mult: 2
    decay_mult: 0
  }
  convolution_param {
    num_output: 128
    pad: 1
    kernel_size: 3
    weight_filler {
      type: "xavier"
      std: 0.03
    }
    bias_filler {
      type: "constant"
      value: 0.2
    }
  }
}
layer {
  name: "inception_3a/relu_3x3"
  type: "ReLU"
  bottom: "inception_3a/3x3"
  top: "inception_3a/3x3"
}
layer {
  name: "inception_3a/5x5_reduce"
  type: "Convolution"
  bottom: "pool2/3x3_s2"
  top: "inception_3a/5x5_reduce"
  param {
    lr_mult: 1
    decay_mult: 1
  }
  param {
    lr_mult: 2
    decay_mult: 0
  }
  convolution_param {
    num_output: 16
    kernel_size: 1
    weight_filler {
      type: "xavier"
      std: 0.2
    }
    bias_filler {
      type: "constant"
      value: 0.2
    }
  }
}
layer {
  name: "inception_3a/relu_5x5_reduce"
  type: "ReLU"
  bottom: "inception_3a/5x5_reduce"
  top: "inception_3a/5x5_reduce"
}
layer {
  name: "inception_3a/5x5"
  type: "Convolution"
  bottom: "inception_3a/5x5_reduce"
  top: "inception_3a/5x5"
  param {
    lr_mult: 1
    decay_mult: 1
  }
  param {
    lr_mult: 2
    decay_mult: 0
  }
  convolution_param {
    num_output: 32
    pad: 2
    kernel_size: 5
    weight_filler {
      type: "xavier"
      std: 0.03
    }
    bias_filler {
      type: "constant"
      value: 0.2
    }
  }
}
layer {
  name: "inception_3a/relu_5x5"
  type: "ReLU"
  bottom: "inception_3a/5x5"
  top: "inception_3a/5x5"
}
layer {
  name: "inception_3a/pool"
  type: "Pooling"
  bottom: "pool2/3x3_s2"
  top: "inception_3a/pool"
  pooling_param {
    pool: MAX
    kernel_size: 3
    stride: 1
    pad: 1
  }
}
layer {
  name: "inception_3a/pool_proj"
  type: "Convolution"
  bottom: "inception_3a/pool"
  top: "inception_3a/pool_proj"
  param {
    lr_mult: 1
    decay_mult: 1
  }
  param {
    lr_mult: 2
    decay_mult: 0
  }
  convolution_param {
    num_output: 32
    kernel_size: 1
    weight_filler {
      type: "xavier"
      std: 0.1
    }
    bias_filler {
      type: "constant"
      value: 0.2
    }
  }
}
layer {
  name: "inception_3a/relu_pool_proj"
  type: "ReLU"
  bottom: "inception_3a/pool_proj"
  top: "inception_3a/pool_proj"
}
layer {
  name: "inception_3a/output"
  type: "Concat"
  bottom: "inception_3a/1x1"
  bottom: "inception_3a/3x3"
  bottom: "inception_3a/5x5"
  bottom: "inception_3a/pool_proj"
  top: "inception_3a/output"
}
layer {
  name: "inception_3b/1x1"
  type: "Convolution"
  bottom: "inception_3a/output"
  top: "inception_3b/1x1"
  param {
    lr_mult: 1
    decay_mult: 1
  }
  param {
    lr_mult: 2
    decay_mult: 0
  }
  convolution_param {
    num_output: 128
    kernel_size: 1
    weight_filler {
      type: "xavier"
      std: 0.03
    }
    bias_filler {
      type: "constant"
      value: 0.2
    }
  }
}
layer {
  name: "inception_3b/relu_1x1"
  type: "ReLU"
  bottom: "inception_3b/1x1"
  top: "inception_3b/1x1"
}
layer {
  name: "inception_3b/3x3_reduce"
  type: "Convolution"
  bottom: "inception_3a/output"
  top: "inception_3b/3x3_reduce"
  param {
    lr_mult: 1
    decay_mult: 1
  }
  param {
    lr_mult: 2
    decay_mult: 0
  }
  convolution_param {
    num_output: 128
    kernel_size: 1
    weight_filler {
      type: "xavier"
      std: 0.09
    }
    bias_filler {
      type: "constant"
      value: 0.2
    }
  }
}
layer {
  name: "inception_3b/relu_3x3_reduce"
  type: "ReLU"
  bottom: "inception_3b/3x3_reduce"
  top: "inception_3b/3x3_reduce"
}
layer {
  name: "inception_3b/3x3"
  type: "Convolution"
  bottom: "inception_3b/3x3_reduce"
  top: "inception_3b/3x3"
  param {
    lr_mult: 1
    decay_mult: 1
  }
  param {
    lr_mult: 2
    decay_mult: 0
  }
  convolution_param {
    num_output: 192
    pad: 1
    kernel_size: 3
    weight_filler {
      type: "xavier"
      std: 0.03
    }
    bias_filler {
      type: "constant"
      value: 0.2
    }
  }
}
layer {
  name: "inception_3b/relu_3x3"
  type: "ReLU"
  bottom: "inception_3b/3x3"
  top: "inception_3b/3x3"
}
layer {
  name: "inception_3b/5x5_reduce"
  type: "Convolution"
  bottom: "inception_3a/output"
  top: "inception_3b/5x5_reduce"
  param {
    lr_mult: 1
    decay_mult: 1
  }
  param {
    lr_mult: 2
    decay_mult: 0
  }
  convolution_param {
    num_output: 32
    kernel_size: 1
    weight_filler {
      type: "xavier"
      std: 0.2
    }
    bias_filler {
      type: "constant"
      value: 0.2
    }
  }
}
layer {
  name: "inception_3b/relu_5x5_reduce"
  type: "ReLU"
  bottom: "inception_3b/5x5_reduce"
  top: "inception_3b/5x5_reduce"
}
layer {
  name: "inception_3b/5x5"
  type: "Convolution"
  bottom: "inception_3b/5x5_reduce"
  top: "inception_3b/5x5"
  param {
    lr_mult: 1
    decay_mult: 1
  }
  param {
    lr_mult: 2
    decay_mult: 0
  }
  convolution_param {
    num_output: 96
    pad: 2
    kernel_size: 5
    weight_filler {
      type: "xavier"
      std: 0.03
    }
    bias_filler {
      type: "constant"
      value: 0.2
    }
  }
}
layer {
  name: "inception_3b/relu_5x5"
  type: "ReLU"
  bottom: "inception_3b/5x5"
  top: "inception_3b/5x5"
}
layer {
  name: "inception_3b/pool"
  type: "Pooling"
  bottom: "inception_3a/output"
  top: "inception_3b/pool"
  pooling_param {
    pool: MAX
    kernel_size: 3
    stride: 1
    pad: 1
  }
}
layer {
  name: "inception_3b/pool_proj"
  type: "Convolution"
  bottom: "inception_3b/pool"
  top: "inception_3b/pool_proj"
  param {
    lr_mult: 1
    decay_mult: 1
  }
  param {
    lr_mult: 2
    decay_mult: 0
  }
  convolution_param {
    num_output: 64
    kernel_size: 1
    weight_filler {
      type: "xavier"
      std: 0.1
    }
    bias_filler {
      type: "constant"
      value: 0.2
    }
  }
}
layer {
  name: "inception_3b/relu_pool_proj"
  type: "ReLU"
  bottom: "inception_3b/pool_proj"
  top: "inception_3b/pool_proj"
}
layer {
  name: "inception_3b/output"
  type: "Concat"
  bottom: "inception_3b/1x1"
  bottom: "inception_3b/3x3"
  bottom: "inception_3b/5x5"
  bottom: "inception_3b/pool_proj"
  top: "inception_3b/output"
}
layer {
  name: "pool3/3x3_s2"
  type: "Pooling"
  bottom: "inception_3b/output"
  top: "pool3/3x3_s2"
  pooling_param {
    pool: MAX
    kernel_size: 3
    stride: 2
  }
}
layer {
  name: "inception_4a/1x1"
  type: "Convolution"
  bottom: "pool3/3x3_s2"
  top: "inception_4a/1x1"
  param {
    lr_mult: 1
    decay_mult: 1
  }
  param {
    lr_mult: 2
    decay_mult: 0
  }
  convolution_param {
    num_output: 192
    kernel_size: 1
    weight_filler {
      type: "xavier"
      std: 0.03
    }
    bias_filler {
      type: "constant"
      value: 0.2
    }
  }
}
layer {
  name: "inception_4a/relu_1x1"
  type: "ReLU"
  bottom: "inception_4a/1x1"
  top: "inception_4a/1x1"
}
layer {
  name: "inception_4a/3x3_reduce"
  type: "Convolution"
  bottom: "pool3/3x3_s2"
  top: "inception_4a/3x3_reduce"
  param {
    lr_mult: 1
    decay_mult: 1
  }
  param {
    lr_mult: 2
    decay_mult: 0
  }
  convolution_param {
    num_output: 96
    kernel_size: 1
    weight_filler {
      type: "xavier"
      std: 0.09
    }
    bias_filler {
      type: "constant"
      value: 0.2
    }
  }
}
layer {
  name: "inception_4a/relu_3x3_reduce"
  type: "ReLU"
  bottom: "inception_4a/3x3_reduce"
  top: "inception_4a/3x3_reduce"
}
layer {
  name: "inception_4a/3x3"
  type: "Convolution"
  bottom: "inception_4a/3x3_reduce"
  top: "inception_4a/3x3"
  param {
    lr_mult: 1
    decay_mult: 1
  }
  param {
    lr_mult: 2
    decay_mult: 0
  }
  convolution_param {
    num_output: 208
    pad: 1
    kernel_size: 3
    weight_filler {
      type: "xavier"
      std: 0.03
    }
    bias_filler {
      type: "constant"
      value: 0.2
    }
  }
}
layer {
  name: "inception_4a/relu_3x3"
  type: "ReLU"
  bottom: "inception_4a/3x3"
  top: "inception_4a/3x3"
}
layer {
  name: "inception_4a/5x5_reduce"
  type: "Convolution"
  bottom: "pool3/3x3_s2"
  top: "inception_4a/5x5_reduce"
  param {
    lr_mult: 1
    decay_mult: 1
  }
  param {
    lr_mult: 2
    decay_mult: 0
  }
  convolution_param {
    num_output: 16
    kernel_size: 1
    weight_filler {
      type: "xavier"
      std: 0.2
    }
    bias_filler {
      type: "constant"
      value: 0.2
    }
  }
}
layer {
  name: "inception_4a/relu_5x5_reduce"
  type: "ReLU"
  bottom: "inception_4a/5x5_reduce"
  top: "inception_4a/5x5_reduce"
}
layer {
  name: "inception_4a/5x5"
  type: "Convolution"
  bottom: "inception_4a/5x5_reduce"
  top: "inception_4a/5x5"
  param {
    lr_mult: 1
    decay_mult: 1
  }
  param {
    lr_mult: 2
    decay_mult: 0
  }
  convolution_param {
    num_output: 48
    pad: 2
    kernel_size: 5
    weight_filler {
      type: "xavier"
      std: 0.03
    }
    bias_filler {
      type: "constant"
      value: 0.2
    }
  }
}
layer {
  name: "inception_4a/relu_5x5"
  type: "ReLU"
  bottom: "inception_4a/5x5"
  top: "inception_4a/5x5"
}
layer {
  name: "inception_4a/pool"
  type: "Pooling"
  bottom: "pool3/3x3_s2"
  top: "inception_4a/pool"
  pooling_param {
    pool: MAX
    kernel_size: 3
    stride: 1
    pad: 1
  }
}
layer {
  name: "inception_4a/pool_proj"
  type: "Convolution"
  bottom: "inception_4a/pool"
  top: "inception_4a/pool_proj"
  param {
    lr_mult: 1
    decay_mult: 1
  }
  param {
    lr_mult: 2
    decay_mult: 0
  }
  convolution_param {
    num_output: 64
    kernel_size: 1
    weight_filler {
      type: "xavier"
      std: 0.1
    }
    bias_filler {
      type: "constant"
      value: 0.2
    }
  }
}
layer {
  name: "inception_4a/relu_pool_proj"
  type: "ReLU"
  bottom: "inception_4a/pool_proj"
  top: "inception_4a/pool_proj"
}
layer {
  name: "inception_4a/output"
  type: "Concat"
  bottom: "inception_4a/1x1"
  bottom: "inception_4a/3x3"
  bottom: "inception_4a/5x5"
  bottom: "inception_4a/pool_proj"
  top: "inception_4a/output"
}
layer {
  name: "loss1/ave_pool"
  type: "Pooling"
  bottom: "inception_4a/output"
  top: "loss1/ave_pool"
  pooling_param {
    pool: AVE
    kernel_size: 5
    stride: 3
  }
}
layer {
  name: "loss1/conv"
  type: "Convolution"
  bottom: "loss1/ave_pool"
  top: "loss1/conv"
  param {
    lr_mult: 1
    decay_mult: 1
  }
  param {
    lr_mult: 2
    decay_mult: 0
  }
  convolution_param {
    num_output: 128
    kernel_size: 1
    weight_filler {
      type: "xavier"
      std: 0.08
    }
    bias_filler {
      type: "constant"
      value: 0.2
    }
  }
}
layer {
  name: "loss1/relu_conv"
  type: "ReLU"
  bottom: "loss1/conv"
  top: "loss1/conv"
}
layer {
  name: "loss1/fc"
  type: "InnerProduct"
  bottom: "loss1/conv"
  top: "loss1/fc"
  param {
    lr_mult: 1
    decay_mult: 1
  }
  param {
    lr_mult: 2
    decay_mult: 0
  }
  inner_product_param {
    num_output: 1024
    weight_filler {
      type: "xavier"
      std: 0.02
    }
    bias_filler {
      type: "constant"
      value: 0.2
    }
  }
}
layer {
  name: "loss1/relu_fc"
  type: "ReLU"
  bottom: "loss1/fc"
  top: "loss1/fc"
}
layer {
  name: "loss1/drop_fc"
  type: "Dropout"
  bottom: "loss1/fc"
  top: "loss1/fc"
  dropout_param {
    dropout_ratio: 0.7
  }
}
layer {
  name: "loss1/classifier"
  type: "InnerProduct"
  bottom: "loss1/fc"
  top: "loss1/classifier"
  param {
    lr_mult: 1
    decay_mult: 1
  }
  param {
    lr_mult: 2
    decay_mult: 0
  }
  inner_product_param {
    num_output: 2
    weight_filler {
      type: "xavier"
      std: 0.0009765625
    }
    bias_filler {
      type: "constant"
      value: 0
    }
  }
}
layer {
  name: "loss1/loss"
  type: "SoftmaxWithLoss"
  bottom: "loss1/classifier"
  bottom: "label"
  top: "loss1/loss1"
  loss_weight: 0.3
}
layer {
  name: "inception_4b/1x1"
  type: "Convolution"
  bottom: "inception_4a/output"
  top: "inception_4b/1x1"
  param {
    lr_mult: 1
    decay_mult: 1
  }
  param {
    lr_mult: 2
    decay_mult: 0
  }
  convolution_param {
    num_output: 160
    kernel_size: 1
    weight_filler {
      type: "xavier"
      std: 0.03
    }
    bias_filler {
      type: "constant"
      value: 0.2
    }
  }
}
layer {
  name: "inception_4b/relu_1x1"
  type: "ReLU"
  bottom: "inception_4b/1x1"
  top: "inception_4b/1x1"
}
layer {
  name: "inception_4b/3x3_reduce"
  type: "Convolution"
  bottom: "inception_4a/output"
  top: "inception_4b/3x3_reduce"
  param {
    lr_mult: 1
    decay_mult: 1
  }
  param {
    lr_mult: 2
    decay_mult: 0
  }
  convolution_param {
    num_output: 112
    kernel_size: 1
    weight_filler {
      type: "xavier"
      std: 0.09
    }
    bias_filler {
      type: "constant"
      value: 0.2
    }
  }
}
layer {
  name: "inception_4b/relu_3x3_reduce"
  type: "ReLU"
  bottom: "inception_4b/3x3_reduce"
  top: "inception_4b/3x3_reduce"
}
layer {
  name: "inception_4b/3x3"
  type: "Convolution"
  bottom: "inception_4b/3x3_reduce"
  top: "inception_4b/3x3"
  param {
    lr_mult: 1
    decay_mult: 1
  }
  param {
    lr_mult: 2
    decay_mult: 0
  }
  convolution_param {
    num_output: 224
    pad: 1
    kernel_size: 3
    weight_filler {
      type: "xavier"
      std: 0.03
    }
    bias_filler {
      type: "constant"
      value: 0.2
    }
  }
}
layer {
  name: "inception_4b/relu_3x3"
  type: "ReLU"
  bottom: "inception_4b/3x3"
  top: "inception_4b/3x3"
}
layer {
  name: "inception_4b/5x5_reduce"
  type: "Convolution"
  bottom: "inception_4a/output"
  top: "inception_4b/5x5_reduce"
  param {
    lr_mult: 1
    decay_mult: 1
  }
  param {
    lr_mult: 2
    decay_mult: 0
  }
  convolution_param {
    num_output: 24
    kernel_size: 1
    weight_filler {
      type: "xavier"
      std: 0.2
    }
    bias_filler {
      type: "constant"
      value: 0.2
    }
  }
}
layer {
  name: "inception_4b/relu_5x5_reduce"
  type: "ReLU"
  bottom: "inception_4b/5x5_reduce"
  top: "inception_4b/5x5_reduce"
}
layer {
  name: "inception_4b/5x5"
  type: "Convolution"
  bottom: "inception_4b/5x5_reduce"
  top: "inception_4b/5x5"
  param {
    lr_mult: 1
    decay_mult: 1
  }
  param {
    lr_mult: 2
    decay_mult: 0
  }
  convolution_param {
    num_output: 64
    pad: 2
    kernel_size: 5
    weight_filler {
      type: "xavier"
      std: 0.03
    }
    bias_filler {
      type: "constant"
      value: 0.2
    }
  }
}
layer {
  name: "inception_4b/relu_5x5"
  type: "ReLU"
  bottom: "inception_4b/5x5"
  top: "inception_4b/5x5"
}
layer {
  name: "inception_4b/pool"
  type: "Pooling"
  bottom: "inception_4a/output"
  top: "inception_4b/pool"
  pooling_param {
    pool: MAX
    kernel_size: 3
    stride: 1
    pad: 1
  }
}
layer {
  name: "inception_4b/pool_proj"
  type: "Convolution"
  bottom: "inception_4b/pool"
  top: "inception_4b/pool_proj"
  param {
    lr_mult: 1
    decay_mult: 1
  }
  param {
    lr_mult: 2
    decay_mult: 0
  }
  convolution_param {
    num_output: 64
    kernel_size: 1
    weight_filler {
      type: "xavier"
      std: 0.1
    }
    bias_filler {
      type: "constant"
      value: 0.2
    }
  }
}
layer {
  name: "inception_4b/relu_pool_proj"
  type: "ReLU"
  bottom: "inception_4b/pool_proj"
  top: "inception_4b/pool_proj"
}
layer {
  name: "inception_4b/output"
  type: "Concat"
  bottom: "inception_4b/1x1"
  bottom: "inception_4b/3x3"
  bottom: "inception_4b/5x5"
  bottom: "inception_4b/pool_proj"
  top: "inception_4b/output"
}
layer {
  name: "inception_4c/1x1"
  type: "Convolution"
  bottom: "inception_4b/output"
  top: "inception_4c/1x1"
  param {
    lr_mult: 1
    decay_mult: 1
  }
  param {
    lr_mult: 2
    decay_mult: 0
  }
  convolution_param {
    num_output: 128
    kernel_size: 1
    weight_filler {
      type: "xavier"
      std: 0.03
    }
    bias_filler {
      type: "constant"
      value: 0.2
    }
  }
}
layer {
  name: "inception_4c/relu_1x1"
  type: "ReLU"
  bottom: "inception_4c/1x1"
  top: "inception_4c/1x1"
}
layer {
  name: "inception_4c/3x3_reduce"
  type: "Convolution"
  bottom: "inception_4b/output"
  top: "inception_4c/3x3_reduce"
  param {
    lr_mult: 1
    decay_mult: 1
  }
  param {
    lr_mult: 2
    decay_mult: 0
  }
  convolution_param {
    num_output: 128
    kernel_size: 1
    weight_filler {
      type: "xavier"
      std: 0.09
    }
    bias_filler {
      type: "constant"
      value: 0.2
    }
  }
}
layer {
  name: "inception_4c/relu_3x3_reduce"
  type: "ReLU"
  bottom: "inception_4c/3x3_reduce"
  top: "inception_4c/3x3_reduce"
}
layer {
  name: "inception_4c/3x3"
  type: "Convolution"
  bottom: "inception_4c/3x3_reduce"
  top: "inception_4c/3x3"
  param {
    lr_mult: 1
    decay_mult: 1
  }
  param {
    lr_mult: 2
    decay_mult: 0
  }
  convolution_param {
    num_output: 256
    pad: 1
    kernel_size: 3
    weight_filler {
      type: "xavier"
      std: 0.03
    }
    bias_filler {
      type: "constant"
      value: 0.2
    }
  }
}
layer {
  name: "inception_4c/relu_3x3"
  type: "ReLU"
  bottom: "inception_4c/3x3"
  top: "inception_4c/3x3"
}
layer {
  name: "inception_4c/5x5_reduce"
  type: "Convolution"
  bottom: "inception_4b/output"
  top: "inception_4c/5x5_reduce"
  param {
    lr_mult: 1
    decay_mult: 1
  }
  param {
    lr_mult: 2
    decay_mult: 0
  }
  convolution_param {
    num_output: 24
    kernel_size: 1
    weight_filler {
      type: "xavier"
      std: 0.2
    }
    bias_filler {
      type: "constant"
      value: 0.2
    }
  }
}
layer {
  name: "inception_4c/relu_5x5_reduce"
  type: "ReLU"
  bottom: "inception_4c/5x5_reduce"
  top: "inception_4c/5x5_reduce"
}
layer {
  name: "inception_4c/5x5"
  type: "Convolution"
  bottom: "inception_4c/5x5_reduce"
  top: "inception_4c/5x5"
  param {
    lr_mult: 1
    decay_mult: 1
  }
  param {
    lr_mult: 2
    decay_mult: 0
  }
  convolution_param {
    num_output: 64
    pad: 2
    kernel_size: 5
    weight_filler {
      type: "xavier"
      std: 0.03
    }
    bias_filler {
      type: "constant"
      value: 0.2
    }
  }
}
layer {
  name: "inception_4c/relu_5x5"
  type: "ReLU"
  bottom: "inception_4c/5x5"
  top: "inception_4c/5x5"
}
layer {
  name: "inception_4c/pool"
  type: "Pooling"
  bottom: "inception_4b/output"
  top: "inception_4c/pool"
  pooling_param {
    pool: MAX
    kernel_size: 3
    stride: 1
    pad: 1
  }
}
layer {
  name: "inception_4c/pool_proj"
  type: "Convolution"
  bottom: "inception_4c/pool"
  top: "inception_4c/pool_proj"
  param {
    lr_mult: 1
    decay_mult: 1
  }
  param {
    lr_mult: 2
    decay_mult: 0
  }
  convolution_param {
    num_output: 64
    kernel_size: 1
    weight_filler {
      type: "xavier"
      std: 0.1
    }
    bias_filler {
      type: "constant"
      value: 0.2
    }
  }
}
layer {
  name: "inception_4c/relu_pool_proj"
  type: "ReLU"
  bottom: "inception_4c/pool_proj"
  top: "inception_4c/pool_proj"
}
layer {
  name: "inception_4c/output"
  type: "Concat"
  bottom: "inception_4c/1x1"
  bottom: "inception_4c/3x3"
  bottom: "inception_4c/5x5"
  bottom: "inception_4c/pool_proj"
  top: "inception_4c/output"
}
layer {
  name: "inception_4d/1x1"
  type: "Convolution"
  bottom: "inception_4c/output"
  top: "inception_4d/1x1"
  param {
    lr_mult: 1
    decay_mult: 1
  }
  param {
    lr_mult: 2
    decay_mult: 0
  }
  convolution_param {
    num_output: 112
    kernel_size: 1
    weight_filler {
      type: "xavier"
      std: 0.03
    }
    bias_filler {
      type: "constant"
      value: 0.2
    }
  }
}
layer {
  name: "inception_4d/relu_1x1"
  type: "ReLU"
  bottom: "inception_4d/1x1"
  top: "inception_4d/1x1"
}
layer {
  name: "inception_4d/3x3_reduce"
  type: "Convolution"
  bottom: "inception_4c/output"
  top: "inception_4d/3x3_reduce"
  param {
    lr_mult: 1
    decay_mult: 1
  }
  param {
    lr_mult: 2
    decay_mult: 0
  }
  convolution_param {
    num_output: 144
    kernel_size: 1
    weight_filler {
      type: "xavier"
      std: 0.09
    }
    bias_filler {
      type: "constant"
      value: 0.2
    }
  }
}
layer {
  name: "inception_4d/relu_3x3_reduce"
  type: "ReLU"
  bottom: "inception_4d/3x3_reduce"
  top: "inception_4d/3x3_reduce"
}
layer {
  name: "inception_4d/3x3"
  type: "Convolution"
  bottom: "inception_4d/3x3_reduce"
  top: "inception_4d/3x3"
  param {
    lr_mult: 1
    decay_mult: 1
  }
  param {
    lr_mult: 2
    decay_mult: 0
  }
  convolution_param {
    num_output: 288
    pad: 1
    kernel_size: 3
    weight_filler {
      type: "xavier"
      std: 0.03
    }
    bias_filler {
      type: "constant"
      value: 0.2
    }
  }
}
layer {
  name: "inception_4d/relu_3x3"
  type: "ReLU"
  bottom: "inception_4d/3x3"
  top: "inception_4d/3x3"
}
layer {
  name: "inception_4d/5x5_reduce"
  type: "Convolution"
  bottom: "inception_4c/output"
  top: "inception_4d/5x5_reduce"
  param {
    lr_mult: 1
    decay_mult: 1
  }
  param {
    lr_mult: 2
    decay_mult: 0
  }
  convolution_param {
    num_output: 32
    kernel_size: 1
    weight_filler {
      type: "xavier"
      std: 0.2
    }
    bias_filler {
      type: "constant"
      value: 0.2
    }
  }
}
layer {
  name: "inception_4d/relu_5x5_reduce"
  type: "ReLU"
  bottom: "inception_4d/5x5_reduce"
  top: "inception_4d/5x5_reduce"
}
layer {
  name: "inception_4d/5x5"
  type: "Convolution"
  bottom: "inception_4d/5x5_reduce"
  top: "inception_4d/5x5"
  param {
    lr_mult: 1
    decay_mult: 1
  }
  param {
    lr_mult: 2
    decay_mult: 0
  }
  convolution_param {
    num_output: 64
    pad: 2
    kernel_size: 5
    weight_filler {
      type: "xavier"
      std: 0.03
    }
    bias_filler {
      type: "constant"
      value: 0.2
    }
  }
}
layer {
  name: "inception_4d/relu_5x5"
  type: "ReLU"
  bottom: "inception_4d/5x5"
  top: "inception_4d/5x5"
}
layer {
  name: "inception_4d/pool"
  type: "Pooling"
  bottom: "inception_4c/output"
  top: "inception_4d/pool"
  pooling_param {
    pool: MAX
    kernel_size: 3
    stride: 1
    pad: 1
  }
}
layer {
  name: "inception_4d/pool_proj"
  type: "Convolution"
  bottom: "inception_4d/pool"
  top: "inception_4d/pool_proj"
  param {
    lr_mult: 1
    decay_mult: 1
  }
  param {
    lr_mult: 2
    decay_mult: 0
  }
  convolution_param {
    num_output: 64
    kernel_size: 1
    weight_filler {
      type: "xavier"
      std: 0.1
    }
    bias_filler {
      type: "constant"
      value: 0.2
    }
  }
}
layer {
  name: "inception_4d/relu_pool_proj"
  type: "ReLU"
  bottom: "inception_4d/pool_proj"
  top: "inception_4d/pool_proj"
}
layer {
  name: "inception_4d/output"
  type: "Concat"
  bottom: "inception_4d/1x1"
  bottom: "inception_4d/3x3"
  bottom: "inception_4d/5x5"
  bottom: "inception_4d/pool_proj"
  top: "inception_4d/output"
}
layer {
  name: "loss2/ave_pool"
  type: "Pooling"
  bottom: "inception_4d/output"
  top: "loss2/ave_pool"
  pooling_param {
    pool: AVE
    kernel_size: 5
    stride: 3
  }
}
layer {
  name: "loss2/conv"
  type: "Convolution"
  bottom: "loss2/ave_pool"
  top: "loss2/conv"
  param {
    lr_mult: 1
    decay_mult: 1
  }
  param {
    lr_mult: 2
    decay_mult: 0
  }
  convolution_param {
    num_output: 128
    kernel_size: 1
    weight_filler {
      type: "xavier"
      std: 0.08
    }
    bias_filler {
      type: "constant"
      value: 0.2
    }
  }
}
layer {
  name: "loss2/relu_conv"
  type: "ReLU"
  bottom: "loss2/conv"
  top: "loss2/conv"
}
layer {
  name: "loss2/fc"
  type: "InnerProduct"
  bottom: "loss2/conv"
  top: "loss2/fc"
  param {
    lr_mult: 1
    decay_mult: 1
  }
  param {
    lr_mult: 2
    decay_mult: 0
  }
  inner_product_param {
    num_output: 1024
    weight_filler {
      type: "xavier"
      std: 0.02
    }
    bias_filler {
      type: "constant"
      value: 0.2
    }
  }
}
layer {
  name: "loss2/relu_fc"
  type: "ReLU"
  bottom: "loss2/fc"
  top: "loss2/fc"
}
layer {
  name: "loss2/drop_fc"
  type: "Dropout"
  bottom: "loss2/fc"
  top: "loss2/fc"
  dropout_param {
    dropout_ratio: 0.7
  }
}
layer {
  name: "loss2/classifier"
  type: "InnerProduct"
  bottom: "loss2/fc"
  top: "loss2/classifier"
  param {
    lr_mult: 1
    decay_mult: 1
  }
  param {
    lr_mult: 2
    decay_mult: 0
  }
  inner_product_param {
    num_output: 2
    weight_filler {
      type: "xavier"
      std: 0.0009765625
    }
    bias_filler {
      type: "constant"
      value: 0
    }
  }
}
layer {
  name: "loss2/loss"
  type: "SoftmaxWithLoss"
  bottom: "loss2/classifier"
  bottom: "label"
  top: "loss2/loss1"
  loss_weight: 0.3
}
layer {
  name: "inception_4e/1x1"
  type: "Convolution"
  bottom: "inception_4d/output"
  top: "inception_4e/1x1"
  param {
    lr_mult: 1
    decay_mult: 1
  }
  param {
    lr_mult: 2
    decay_mult: 0
  }
  convolution_param {
    num_output: 256
    kernel_size: 1
    weight_filler {
      type: "xavier"
      std: 0.03
    }
    bias_filler {
      type: "constant"
      value: 0.2
    }
  }
}
layer {
  name: "inception_4e/relu_1x1"
  type: "ReLU"
  bottom: "inception_4e/1x1"
  top: "inception_4e/1x1"
}
layer {
  name: "inception_4e/3x3_reduce"
  type: "Convolution"
  bottom: "inception_4d/output"
  top: "inception_4e/3x3_reduce"
  param {
    lr_mult: 1
    decay_mult: 1
  }
  param {
    lr_mult: 2
    decay_mult: 0
  }
  convolution_param {
    num_output: 160
    kernel_size: 1
    weight_filler {
      type: "xavier"
      std: 0.09
    }
    bias_filler {
      type: "constant"
      value: 0.2
    }
  }
}
layer {
  name: "inception_4e/relu_3x3_reduce"
  type: "ReLU"
  bottom: "inception_4e/3x3_reduce"
  top: "inception_4e/3x3_reduce"
}
layer {
  name: "inception_4e/3x3"
  type: "Convolution"
  bottom: "inception_4e/3x3_reduce"
  top: "inception_4e/3x3"
  param {
    lr_mult: 1
    decay_mult: 1
  }
  param {
    lr_mult: 2
    decay_mult: 0
  }
  convolution_param {
    num_output: 320
    pad: 1
    kernel_size: 3
    weight_filler {
      type: "xavier"
      std: 0.03
    }
    bias_filler {
      type: "constant"
      value: 0.2
    }
  }
}
layer {
  name: "inception_4e/relu_3x3"
  type: "ReLU"
  bottom: "inception_4e/3x3"
  top: "inception_4e/3x3"
}
layer {
  name: "inception_4e/5x5_reduce"
  type: "Convolution"
  bottom: "inception_4d/output"
  top: "inception_4e/5x5_reduce"
  param {
    lr_mult: 1
    decay_mult: 1
  }
  param {
    lr_mult: 2
    decay_mult: 0
  }
  convolution_param {
    num_output: 32
    kernel_size: 1
    weight_filler {
      type: "xavier"
      std: 0.2
    }
    bias_filler {
      type: "constant"
      value: 0.2
    }
  }
}
layer {
  name: "inception_4e/relu_5x5_reduce"
  type: "ReLU"
  bottom: "
I0509 22:49:52.009428 21921 layer_factory.hpp:74] Creating layer data
I0509 22:49:52.009460 21921 net.cpp:76] Creating Layer data
I0509 22:49:52.009472 21921 net.cpp:334] data -> data
I0509 22:49:52.009502 21921 net.cpp:334] data -> label
I0509 22:49:52.009524 21921 net.cpp:105] Setting up data
I0509 22:49:52.009644 21921 db.cpp:34] Opened lmdb train_lmdb
I0509 22:49:52.009929 21921 data_layer.cpp:67] output data size: 32,3,224,224
I0509 22:49:52.017192 21921 net.cpp:112] Top shape: 32 3 224 224 (4816896)
I0509 22:49:52.017220 21921 net.cpp:112] Top shape: 32 1 1 1 (32)
I0509 22:49:52.017232 21921 layer_factory.hpp:74] Creating layer label_data_1_split
I0509 22:49:52.017251 21921 net.cpp:76] Creating Layer label_data_1_split
I0509 22:49:52.017261 21921 net.cpp:372] label_data_1_split <- label
I0509 22:49:52.017308 21921 net.cpp:334] label_data_1_split -> label_data_1_split_0
I0509 22:49:52.017324 21921 net.cpp:334] label_data_1_split -> label_data_1_split_1
I0509 22:49:52.017334 21921 net.cpp:334] label_data_1_split -> label_data_1_split_2
I0509 22:49:52.017343 21921 net.cpp:105] Setting up label_data_1_split
I0509 22:49:52.017354 21921 net.cpp:112] Top shape: 32 1 1 1 (32)
I0509 22:49:52.017359 21921 net.cpp:112] Top shape: 32 1 1 1 (32)
I0509 22:49:52.017365 21921 net.cpp:112] Top shape: 32 1 1 1 (32)
I0509 22:49:52.017371 21921 layer_factory.hpp:74] Creating layer conv1/7x7_s2
I0509 22:49:52.017387 21921 net.cpp:76] Creating Layer conv1/7x7_s2
I0509 22:49:52.017395 21921 net.cpp:372] conv1/7x7_s2 <- data
I0509 22:49:52.017405 21921 net.cpp:334] conv1/7x7_s2 -> conv1/7x7_s2
I0509 22:49:52.017416 21921 net.cpp:105] Setting up conv1/7x7_s2
I0509 22:49:52.017541 21921 net.cpp:112] Top shape: 32 64 112 112 (25690112)
I0509 22:49:52.017595 21921 layer_factory.hpp:74] Creating layer conv1/relu_7x7
I0509 22:49:52.017604 21921 net.cpp:76] Creating Layer conv1/relu_7x7
I0509 22:49:52.017611 21921 net.cpp:372] conv1/relu_7x7 <- conv1/7x7_s2
I0509 22:49:52.017618 21921 net.cpp:323] conv1/relu_7x7 -> conv1/7x7_s2 (in-place)
I0509 22:49:52.017627 21921 net.cpp:105] Setting up conv1/relu_7x7
I0509 22:49:52.017635 21921 net.cpp:112] Top shape: 32 64 112 112 (25690112)
I0509 22:49:52.017642 21921 layer_factory.hpp:74] Creating layer pool1/3x3_s2
I0509 22:49:52.017652 21921 net.cpp:76] Creating Layer pool1/3x3_s2
I0509 22:49:52.017657 21921 net.cpp:372] pool1/3x3_s2 <- conv1/7x7_s2
I0509 22:49:52.017665 21921 net.cpp:334] pool1/3x3_s2 -> pool1/3x3_s2
I0509 22:49:52.017675 21921 net.cpp:105] Setting up pool1/3x3_s2
I0509 22:49:52.017689 21921 net.cpp:112] Top shape: 32 64 56 56 (6422528)
I0509 22:49:52.017696 21921 layer_factory.hpp:74] Creating layer pool1/norm1
I0509 22:49:52.017707 21921 net.cpp:76] Creating Layer pool1/norm1
I0509 22:49:52.017712 21921 net.cpp:372] pool1/norm1 <- pool1/3x3_s2
I0509 22:49:52.017720 21921 net.cpp:334] pool1/norm1 -> pool1/norm1
I0509 22:49:52.017730 21921 net.cpp:105] Setting up pool1/norm1
I0509 22:49:52.017737 21921 net.cpp:112] Top shape: 32 64 56 56 (6422528)
I0509 22:49:52.017743 21921 layer_factory.hpp:74] Creating layer conv2/3x3_reduce
I0509 22:49:52.017752 21921 net.cpp:76] Creating Layer conv2/3x3_reduce
I0509 22:49:52.017757 21921 net.cpp:372] conv2/3x3_reduce <- pool1/norm1
I0509 22:49:52.017766 21921 net.cpp:334] conv2/3x3_reduce -> conv2/3x3_reduce
I0509 22:49:52.017776 21921 net.cpp:105] Setting up conv2/3x3_reduce
I0509 22:49:52.017820 21921 net.cpp:112] Top shape: 32 64 56 56 (6422528)
I0509 22:49:52.017832 21921 layer_factory.hpp:74] Creating layer conv2/relu_3x3_reduce
I0509 22:49:52.017839 21921 net.cpp:76] Creating Layer conv2/relu_3x3_reduce
I0509 22:49:52.017845 21921 net.cpp:372] conv2/relu_3x3_reduce <- conv2/3x3_reduce
I0509 22:49:52.017853 21921 net.cpp:323] conv2/relu_3x3_reduce -> conv2/3x3_reduce (in-place)
I0509 22:49:52.017860 21921 net.cpp:105] Setting up conv2/relu_3x3_reduce
I0509 22:49:52.017866 21921 net.cpp:112] Top shape: 32 64 56 56 (6422528)
I0509 22:49:52.017871 21921 layer_factory.hpp:74] Creating layer conv2/3x3
I0509 22:49:52.017881 21921 net.cpp:76] Creating Layer conv2/3x3
I0509 22:49:52.017887 21921 net.cpp:372] conv2/3x3 <- conv2/3x3_reduce
I0509 22:49:52.017895 21921 net.cpp:334] conv2/3x3 -> conv2/3x3
I0509 22:49:52.017904 21921 net.cpp:105] Setting up conv2/3x3
I0509 22:49:52.018894 21921 net.cpp:112] Top shape: 32 192 56 56 (19267584)
I0509 22:49:52.018920 21921 layer_factory.hpp:74] Creating layer conv2/relu_3x3
I0509 22:49:52.018931 21921 net.cpp:76] Creating Layer conv2/relu_3x3
I0509 22:49:52.018937 21921 net.cpp:372] conv2/relu_3x3 <- conv2/3x3
I0509 22:49:52.018945 21921 net.cpp:323] conv2/relu_3x3 -> conv2/3x3 (in-place)
I0509 22:49:52.018954 21921 net.cpp:105] Setting up conv2/relu_3x3
I0509 22:49:52.018959 21921 net.cpp:112] Top shape: 32 192 56 56 (19267584)
I0509 22:49:52.018965 21921 layer_factory.hpp:74] Creating layer conv2/norm2
I0509 22:49:52.018981 21921 net.cpp:76] Creating Layer conv2/norm2
I0509 22:49:52.018995 21921 net.cpp:372] conv2/norm2 <- conv2/3x3
I0509 22:49:52.019006 21921 net.cpp:334] conv2/norm2 -> conv2/norm2
I0509 22:49:52.019022 21921 net.cpp:105] Setting up conv2/norm2
I0509 22:49:52.019028 21921 net.cpp:112] Top shape: 32 192 56 56 (19267584)
I0509 22:49:52.019034 21921 layer_factory.hpp:74] Creating layer pool2/3x3_s2
I0509 22:49:52.019047 21921 net.cpp:76] Creating Layer pool2/3x3_s2
I0509 22:49:52.019052 21921 net.cpp:372] pool2/3x3_s2 <- conv2/norm2
I0509 22:49:52.019059 21921 net.cpp:334] pool2/3x3_s2 -> pool2/3x3_s2
I0509 22:49:52.019068 21921 net.cpp:105] Setting up pool2/3x3_s2
I0509 22:49:52.019075 21921 net.cpp:112] Top shape: 32 192 28 28 (4816896)
I0509 22:49:52.019081 21921 layer_factory.hpp:74] Creating layer pool2/3x3_s2_pool2/3x3_s2_0_split
I0509 22:49:52.019091 21921 net.cpp:76] Creating Layer pool2/3x3_s2_pool2/3x3_s2_0_split
I0509 22:49:52.019115 21921 net.cpp:372] pool2/3x3_s2_pool2/3x3_s2_0_split <- pool2/3x3_s2
I0509 22:49:52.019124 21921 net.cpp:334] pool2/3x3_s2_pool2/3x3_s2_0_split -> pool2/3x3_s2_pool2/3x3_s2_0_split_0
I0509 22:49:52.019134 21921 net.cpp:334] pool2/3x3_s2_pool2/3x3_s2_0_split -> pool2/3x3_s2_pool2/3x3_s2_0_split_1
I0509 22:49:52.019143 21921 net.cpp:334] pool2/3x3_s2_pool2/3x3_s2_0_split -> pool2/3x3_s2_pool2/3x3_s2_0_split_2
I0509 22:49:52.019152 21921 net.cpp:334] pool2/3x3_s2_pool2/3x3_s2_0_split -> pool2/3x3_s2_pool2/3x3_s2_0_split_3
I0509 22:49:52.019160 21921 net.cpp:105] Setting up pool2/3x3_s2_pool2/3x3_s2_0_split
I0509 22:49:52.019166 21921 net.cpp:112] Top shape: 32 192 28 28 (4816896)
I0509 22:49:52.019172 21921 net.cpp:112] Top shape: 32 192 28 28 (4816896)
I0509 22:49:52.019177 21921 net.cpp:112] Top shape: 32 192 28 28 (4816896)
I0509 22:49:52.019182 21921 net.cpp:112] Top shape: 32 192 28 28 (4816896)
I0509 22:49:52.019188 21921 layer_factory.hpp:74] Creating layer inception_3a/1x1
I0509 22:49:52.019199 21921 net.cpp:76] Creating Layer inception_3a/1x1
I0509 22:49:52.019206 21921 net.cpp:372] inception_3a/1x1 <- pool2/3x3_s2_pool2/3x3_s2_0_split_0
I0509 22:49:52.019218 21921 net.cpp:334] inception_3a/1x1 -> inception_3a/1x1
I0509 22:49:52.019238 21921 net.cpp:105] Setting up inception_3a/1x1
I0509 22:49:52.019440 21921 net.cpp:112] Top shape: 32 64 28 28 (1605632)
I0509 22:49:52.019460 21921 layer_factory.hpp:74] Creating layer inception_3a/relu_1x1
I0509 22:49:52.019470 21921 net.cpp:76] Creating Layer inception_3a/relu_1x1
I0509 22:49:52.019476 21921 net.cpp:372] inception_3a/relu_1x1 <- inception_3a/1x1
I0509 22:49:52.019486 21921 net.cpp:323] inception_3a/relu_1x1 -> inception_3a/1x1 (in-place)
I0509 22:49:52.019495 21921 net.cpp:105] Setting up inception_3a/relu_1x1
I0509 22:49:52.019501 21921 net.cpp:112] Top shape: 32 64 28 28 (1605632)
I0509 22:49:52.019506 21921 layer_factory.hpp:74] Creating layer inception_3a/3x3_reduce
I0509 22:49:52.019515 21921 net.cpp:76] Creating Layer inception_3a/3x3_reduce
I0509 22:49:52.019521 21921 net.cpp:372] inception_3a/3x3_reduce <- pool2/3x3_s2_pool2/3x3_s2_0_split_1
I0509 22:49:52.019529 21921 net.cpp:334] inception_3a/3x3_reduce -> inception_3a/3x3_reduce
I0509 22:49:52.019539 21921 net.cpp:105] Setting up inception_3a/3x3_reduce
I0509 22:49:52.019826 21921 net.cpp:112] Top shape: 32 96 28 28 (2408448)
I0509 22:49:52.019846 21921 layer_factory.hpp:74] Creating layer inception_3a/relu_3x3_reduce
I0509 22:49:52.019857 21921 net.cpp:76] Creating Layer inception_3a/relu_3x3_reduce
I0509 22:49:52.019863 21921 net.cpp:372] inception_3a/relu_3x3_reduce <- inception_3a/3x3_reduce
I0509 22:49:52.019873 21921 net.cpp:323] inception_3a/relu_3x3_reduce -> inception_3a/3x3_reduce (in-place)
I0509 22:49:52.019882 21921 net.cpp:105] Setting up inception_3a/relu_3x3_reduce
I0509 22:49:52.019887 21921 net.cpp:112] Top shape: 32 96 28 28 (2408448)
I0509 22:49:52.019893 21921 layer_factory.hpp:74] Creating layer inception_3a/3x3
I0509 22:49:52.019901 21921 net.cpp:76] Creating Layer inception_3a/3x3
I0509 22:49:52.019907 21921 net.cpp:372] inception_3a/3x3 <- inception_3a/3x3_reduce
I0509 22:49:52.019915 21921 net.cpp:334] inception_3a/3x3 -> inception_3a/3x3
I0509 22:49:52.019924 21921 net.cpp:105] Setting up inception_3a/3x3
I0509 22:49:52.021546 21921 net.cpp:112] Top shape: 32 128 28 28 (3211264)
I0509 22:49:52.021570 21921 layer_factory.hpp:74] Creating layer inception_3a/relu_3x3
I0509 22:49:52.021584 21921 net.cpp:76] Creating Layer inception_3a/relu_3x3
I0509 22:49:52.021590 21921 net.cpp:372] inception_3a/relu_3x3 <- inception_3a/3x3
I0509 22:49:52.021599 21921 net.cpp:323] inception_3a/relu_3x3 -> inception_3a/3x3 (in-place)
I0509 22:49:52.021607 21921 net.cpp:105] Setting up inception_3a/relu_3x3
I0509 22:49:52.021613 21921 net.cpp:112] Top shape: 32 128 28 28 (3211264)
I0509 22:49:52.021620 21921 layer_factory.hpp:74] Creating layer inception_3a/5x5_reduce
I0509 22:49:52.021631 21921 net.cpp:76] Creating Layer inception_3a/5x5_reduce
I0509 22:49:52.021657 21921 net.cpp:372] inception_3a/5x5_reduce <- pool2/3x3_s2_pool2/3x3_s2_0_split_2
I0509 22:49:52.021668 21921 net.cpp:334] inception_3a/5x5_reduce -> inception_3a/5x5_reduce
I0509 22:49:52.021678 21921 net.cpp:105] Setting up inception_3a/5x5_reduce
I0509 22:49:52.021721 21921 net.cpp:112] Top shape: 32 16 28 28 (401408)
I0509 22:49:52.021731 21921 layer_factory.hpp:74] Creating layer inception_3a/relu_5x5_reduce
I0509 22:49:52.021739 21921 net.cpp:76] Creating Layer inception_3a/relu_5x5_reduce
I0509 22:49:52.021745 21921 net.cpp:372] inception_3a/relu_5x5_reduce <- inception_3a/5x5_reduce
I0509 22:49:52.021754 21921 net.cpp:323] inception_3a/relu_5x5_reduce -> inception_3a/5x5_reduce (in-place)
I0509 22:49:52.021762 21921 net.cpp:105] Setting up inception_3a/relu_5x5_reduce
I0509 22:49:52.021769 21921 net.cpp:112] Top shape: 32 16 28 28 (401408)
I0509 22:49:52.021775 21921 layer_factory.hpp:74] Creating layer inception_3a/5x5
I0509 22:49:52.021782 21921 net.cpp:76] Creating Layer inception_3a/5x5
I0509 22:49:52.021787 21921 net.cpp:372] inception_3a/5x5 <- inception_3a/5x5_reduce
I0509 22:49:52.021797 21921 net.cpp:334] inception_3a/5x5 -> inception_3a/5x5
I0509 22:49:52.021806 21921 net.cpp:105] Setting up inception_3a/5x5
I0509 22:49:52.022372 21921 net.cpp:112] Top shape: 32 32 28 28 (802816)
I0509 22:49:52.022392 21921 layer_factory.hpp:74] Creating layer inception_3a/relu_5x5
I0509 22:49:52.022403 21921 net.cpp:76] Creating Layer inception_3a/relu_5x5
I0509 22:49:52.022408 21921 net.cpp:372] inception_3a/relu_5x5 <- inception_3a/5x5
I0509 22:49:52.022416 21921 net.cpp:323] inception_3a/relu_5x5 -> inception_3a/5x5 (in-place)
I0509 22:49:52.022430 21921 net.cpp:105] Setting up inception_3a/relu_5x5
I0509 22:49:52.022436 21921 net.cpp:112] Top shape: 32 32 28 28 (802816)
I0509 22:49:52.022442 21921 layer_factory.hpp:74] Creating layer inception_3a/pool
I0509 22:49:52.022454 21921 net.cpp:76] Creating Layer inception_3a/pool
I0509 22:49:52.022459 21921 net.cpp:372] inception_3a/pool <- pool2/3x3_s2_pool2/3x3_s2_0_split_3
I0509 22:49:52.022467 21921 net.cpp:334] inception_3a/pool -> inception_3a/pool
I0509 22:49:52.022477 21921 net.cpp:105] Setting up inception_3a/pool
I0509 22:49:52.022486 21921 net.cpp:112] Top shape: 32 192 28 28 (4816896)
I0509 22:49:52.022492 21921 layer_factory.hpp:74] Creating layer inception_3a/pool_proj
I0509 22:49:52.022505 21921 net.cpp:76] Creating Layer inception_3a/pool_proj
I0509 22:49:52.022511 21921 net.cpp:372] inception_3a/pool_proj <- inception_3a/pool
I0509 22:49:52.022519 21921 net.cpp:334] inception_3a/pool_proj -> inception_3a/pool_proj
I0509 22:49:52.022528 21921 net.cpp:105] Setting up inception_3a/pool_proj
I0509 22:49:52.022886 21921 net.cpp:112] Top shape: 32 32 28 28 (802816)
I0509 22:49:52.022908 21921 layer_factory.hpp:74] Creating layer inception_3a/relu_pool_proj
I0509 22:49:52.022917 21921 net.cpp:76] Creating Layer inception_3a/relu_pool_proj
I0509 22:49:52.022924 21921 net.cpp:372] inception_3a/relu_pool_proj <- inception_3a/pool_proj
I0509 22:49:52.022933 21921 net.cpp:323] inception_3a/relu_pool_proj -> inception_3a/pool_proj (in-place)
I0509 22:49:52.022940 21921 net.cpp:105] Setting up inception_3a/relu_pool_proj
I0509 22:49:52.022946 21921 net.cpp:112] Top shape: 32 32 28 28 (802816)
I0509 22:49:52.022951 21921 layer_factory.hpp:74] Creating layer inception_3a/output
I0509 22:49:52.022963 21921 net.cpp:76] Creating Layer inception_3a/output
I0509 22:49:52.022969 21921 net.cpp:372] inception_3a/output <- inception_3a/1x1
I0509 22:49:52.022974 21921 net.cpp:372] inception_3a/output <- inception_3a/3x3
I0509 22:49:52.022981 21921 net.cpp:372] inception_3a/output <- inception_3a/5x5
I0509 22:49:52.022987 21921 net.cpp:372] inception_3a/output <- inception_3a/pool_proj
I0509 22:49:52.022997 21921 net.cpp:334] inception_3a/output -> inception_3a/output
I0509 22:49:52.023006 21921 net.cpp:105] Setting up inception_3a/output
I0509 22:49:52.023015 21921 net.cpp:112] Top shape: 32 256 28 28 (6422528)
I0509 22:49:52.023020 21921 layer_factory.hpp:74] Creating layer inception_3a/output_inception_3a/output_0_split
I0509 22:49:52.023046 21921 net.cpp:76] Creating Layer inception_3a/output_inception_3a/output_0_split
I0509 22:49:52.023053 21921 net.cpp:372] inception_3a/output_inception_3a/output_0_split <- inception_3a/output
I0509 22:49:52.023061 21921 net.cpp:334] inception_3a/output_inception_3a/output_0_split -> inception_3a/output_inception_3a/output_0_split_0
I0509 22:49:52.023072 21921 net.cpp:334] inception_3a/output_inception_3a/output_0_split -> inception_3a/output_inception_3a/output_0_split_1
I0509 22:49:52.023087 21921 net.cpp:334] inception_3a/output_inception_3a/output_0_split -> inception_3a/output_inception_3a/output_0_split_2
I0509 22:49:52.023095 21921 net.cpp:334] inception_3a/output_inception_3a/output_0_split -> inception_3a/output_inception_3a/output_0_split_3
I0509 22:49:52.023103 21921 net.cpp:105] Setting up inception_3a/output_inception_3a/output_0_split
I0509 22:49:52.023110 21921 net.cpp:112] Top shape: 32 256 28 28 (6422528)
I0509 22:49:52.023116 21921 net.cpp:112] Top shape: 32 256 28 28 (6422528)
I0509 22:49:52.023121 21921 net.cpp:112] Top shape: 32 256 28 28 (6422528)
I0509 22:49:52.023126 21921 net.cpp:112] Top shape: 32 256 28 28 (6422528)
I0509 22:49:52.023131 21921 layer_factory.hpp:74] Creating layer inception_3b/1x1
I0509 22:49:52.023140 21921 net.cpp:76] Creating Layer inception_3b/1x1
I0509 22:49:52.023146 21921 net.cpp:372] inception_3b/1x1 <- inception_3a/output_inception_3a/output_0_split_0
I0509 22:49:52.023619 21921 net.cpp:334] inception_3b/1x1 -> inception_3b/1x1
I0509 22:49:52.023639 21921 net.cpp:105] Setting up inception_3b/1x1
I0509 22:49:52.024114 21921 net.cpp:112] Top shape: 32 128 28 28 (3211264)
I0509 22:49:52.024132 21921 layer_factory.hpp:74] Creating layer inception_3b/relu_1x1
I0509 22:49:52.024140 21921 net.cpp:76] Creating Layer inception_3b/relu_1x1
I0509 22:49:52.024147 21921 net.cpp:372] inception_3b/relu_1x1 <- inception_3b/1x1
I0509 22:49:52.024157 21921 net.cpp:323] inception_3b/relu_1x1 -> inception_3b/1x1 (in-place)
I0509 22:49:52.024165 21921 net.cpp:105] Setting up inception_3b/relu_1x1
I0509 22:49:52.024170 21921 net.cpp:112] Top shape: 32 128 28 28 (3211264)
I0509 22:49:52.024176 21921 layer_factory.hpp:74] Creating layer inception_3b/3x3_reduce
I0509 22:49:52.024184 21921 net.cpp:76] Creating Layer inception_3b/3x3_reduce
I0509 22:49:52.024190 21921 net.cpp:372] inception_3b/3x3_reduce <- inception_3a/output_inception_3a/output_0_split_1
I0509 22:49:52.024202 21921 net.cpp:334] inception_3b/3x3_reduce -> inception_3b/3x3_reduce
I0509 22:49:52.024212 21921 net.cpp:105] Setting up inception_3b/3x3_reduce
I0509 22:49:52.024513 21921 net.cpp:112] Top shape: 32 128 28 28 (3211264)
I0509 22:49:52.024525 21921 layer_factory.hpp:74] Creating layer inception_3b/relu_3x3_reduce
I0509 22:49:52.024533 21921 net.cpp:76] Creating Layer inception_3b/relu_3x3_reduce
I0509 22:49:52.024539 21921 net.cpp:372] inception_3b/relu_3x3_reduce <- inception_3b/3x3_reduce
I0509 22:49:52.024549 21921 net.cpp:323] inception_3b/relu_3x3_reduce -> inception_3b/3x3_reduce (in-place)
I0509 22:49:52.024557 21921 net.cpp:105] Setting up inception_3b/relu_3x3_reduce
I0509 22:49:52.024562 21921 net.cpp:112] Top shape: 32 128 28 28 (3211264)
I0509 22:49:52.024569 21921 layer_factory.hpp:74] Creating layer inception_3b/3x3
I0509 22:49:52.024579 21921 net.cpp:76] Creating Layer inception_3b/3x3
I0509 22:49:52.024585 21921 net.cpp:372] inception_3b/3x3 <- inception_3b/3x3_reduce
I0509 22:49:52.024595 21921 net.cpp:334] inception_3b/3x3 -> inception_3b/3x3
I0509 22:49:52.024605 21921 net.cpp:105] Setting up inception_3b/3x3
I0509 22:49:52.026948 21921 net.cpp:112] Top shape: 32 192 28 28 (4816896)
I0509 22:49:52.026970 21921 layer_factory.hpp:74] Creating layer inception_3b/relu_3x3
I0509 22:49:52.026980 21921 net.cpp:76] Creating Layer inception_3b/relu_3x3
I0509 22:49:52.026988 21921 net.cpp:372] inception_3b/relu_3x3 <- inception_3b/3x3
I0509 22:49:52.026998 21921 net.cpp:323] inception_3b/relu_3x3 -> inception_3b/3x3 (in-place)
I0509 22:49:52.027029 21921 net.cpp:105] Setting up inception_3b/relu_3x3
I0509 22:49:52.027036 21921 net.cpp:112] Top shape: 32 192 28 28 (4816896)
I0509 22:49:52.027042 21921 layer_factory.hpp:74] Creating layer inception_3b/5x5_reduce
I0509 22:49:52.027051 21921 net.cpp:76] Creating Layer inception_3b/5x5_reduce
I0509 22:49:52.027057 21921 net.cpp:372] inception_3b/5x5_reduce <- inception_3a/output_inception_3a/output_0_split_2
I0509 22:49:52.027070 21921 net.cpp:334] inception_3b/5x5_reduce -> inception_3b/5x5_reduce
I0509 22:49:52.027079 21921 net.cpp:105] Setting up inception_3b/5x5_reduce
I0509 22:49:52.027173 21921 net.cpp:112] Top shape: 32 32 28 28 (802816)
I0509 22:49:52.027184 21921 layer_factory.hpp:74] Creating layer inception_3b/relu_5x5_reduce
I0509 22:49:52.027196 21921 net.cpp:76] Creating Layer inception_3b/relu_5x5_reduce
I0509 22:49:52.027202 21921 net.cpp:372] inception_3b/relu_5x5_reduce <- inception_3b/5x5_reduce
I0509 22:49:52.027209 21921 net.cpp:323] inception_3b/relu_5x5_reduce -> inception_3b/5x5_reduce (in-place)
I0509 22:49:52.027217 21921 net.cpp:105] Setting up inception_3b/relu_5x5_reduce
I0509 22:49:52.027223 21921 net.cpp:112] Top shape: 32 32 28 28 (802816)
I0509 22:49:52.027228 21921 layer_factory.hpp:74] Creating layer inception_3b/5x5
I0509 22:49:52.027242 21921 net.cpp:76] Creating Layer inception_3b/5x5
I0509 22:49:52.027248 21921 net.cpp:372] inception_3b/5x5 <- inception_3b/5x5_reduce
I0509 22:49:52.027257 21921 net.cpp:334] inception_3b/5x5 -> inception_3b/5x5
I0509 22:49:52.027283 21921 net.cpp:105] Setting up inception_3b/5x5
I0509 22:49:52.027943 21921 net.cpp:112] Top shape: 32 96 28 28 (2408448)
I0509 22:49:52.027958 21921 layer_factory.hpp:74] Creating layer inception_3b/relu_5x5
I0509 22:49:52.027967 21921 net.cpp:76] Creating Layer inception_3b/relu_5x5
I0509 22:49:52.027974 21921 net.cpp:372] inception_3b/relu_5x5 <- inception_3b/5x5
I0509 22:49:52.027981 21921 net.cpp:323] inception_3b/relu_5x5 -> inception_3b/5x5 (in-place)
I0509 22:49:52.027992 21921 net.cpp:105] Setting up inception_3b/relu_5x5
I0509 22:49:52.027997 21921 net.cpp:112] Top shape: 32 96 28 28 (2408448)
I0509 22:49:52.028003 21921 layer_factory.hpp:74] Creating layer inception_3b/pool
I0509 22:49:52.028012 21921 net.cpp:76] Creating Layer inception_3b/pool
I0509 22:49:52.028017 21921 net.cpp:372] inception_3b/pool <- inception_3a/output_inception_3a/output_0_split_3
I0509 22:49:52.028024 21921 net.cpp:334] inception_3b/pool -> inception_3b/pool
I0509 22:49:52.028033 21921 net.cpp:105] Setting up inception_3b/pool
I0509 22:49:52.028041 21921 net.cpp:112] Top shape: 32 256 28 28 (6422528)
I0509 22:49:52.028048 21921 layer_factory.hpp:74] Creating layer inception_3b/pool_proj
I0509 22:49:52.028059 21921 net.cpp:76] Creating Layer inception_3b/pool_proj
I0509 22:49:52.028065 21921 net.cpp:372] inception_3b/pool_proj <- inception_3b/pool
I0509 22:49:52.028074 21921 net.cpp:334] inception_3b/pool_proj -> inception_3b/pool_proj
I0509 22:49:52.028081 21921 net.cpp:105] Setting up inception_3b/pool_proj
I0509 22:49:52.028234 21921 net.cpp:112] Top shape: 32 64 28 28 (1605632)
I0509 22:49:52.028246 21921 layer_factory.hpp:74] Creating layer inception_3b/relu_pool_proj
I0509 22:49:52.028256 21921 net.cpp:76] Creating Layer inception_3b/relu_pool_proj
I0509 22:49:52.028262 21921 net.cpp:372] inception_3b/relu_pool_proj <- inception_3b/pool_proj
I0509 22:49:52.028281 21921 net.cpp:323] inception_3b/relu_pool_proj -> inception_3b/pool_proj (in-place)
I0509 22:49:52.028291 21921 net.cpp:105] Setting up inception_3b/relu_pool_proj
I0509 22:49:52.028297 21921 net.cpp:112] Top shape: 32 64 28 28 (1605632)
I0509 22:49:52.028302 21921 layer_factory.hpp:74] Creating layer inception_3b/output
I0509 22:49:52.028311 21921 net.cpp:76] Creating Layer inception_3b/output
I0509 22:49:52.028316 21921 net.cpp:372] inception_3b/output <- inception_3b/1x1
I0509 22:49:52.028323 21921 net.cpp:372] inception_3b/output <- inception_3b/3x3
I0509 22:49:52.028329 21921 net.cpp:372] inception_3b/output <- inception_3b/5x5
I0509 22:49:52.028352 21921 net.cpp:372] inception_3b/output <- inception_3b/pool_proj
I0509 22:49:52.028359 21921 net.cpp:334] inception_3b/output -> inception_3b/output
I0509 22:49:52.028368 21921 net.cpp:105] Setting up inception_3b/output
I0509 22:49:52.028375 21921 net.cpp:112] Top shape: 32 480 28 28 (12042240)
I0509 22:49:52.028380 21921 layer_factory.hpp:74] Creating layer pool3/3x3_s2
I0509 22:49:52.028391 21921 net.cpp:76] Creating Layer pool3/3x3_s2
I0509 22:49:52.028398 21921 net.cpp:372] pool3/3x3_s2 <- inception_3b/output
I0509 22:49:52.028405 21921 net.cpp:334] pool3/3x3_s2 -> pool3/3x3_s2
I0509 22:49:52.028414 21921 net.cpp:105] Setting up pool3/3x3_s2
I0509 22:49:52.028420 21921 net.cpp:112] Top shape: 32 480 14 14 (3010560)
I0509 22:49:52.028426 21921 layer_factory.hpp:74] Creating layer pool3/3x3_s2_pool3/3x3_s2_0_split
I0509 22:49:52.028437 21921 net.cpp:76] Creating Layer pool3/3x3_s2_pool3/3x3_s2_0_split
I0509 22:49:52.028444 21921 net.cpp:372] pool3/3x3_s2_pool3/3x3_s2_0_split <- pool3/3x3_s2
I0509 22:49:52.028450 21921 net.cpp:334] pool3/3x3_s2_pool3/3x3_s2_0_split -> pool3/3x3_s2_pool3/3x3_s2_0_split_0
I0509 22:49:52.028460 21921 net.cpp:334] pool3/3x3_s2_pool3/3x3_s2_0_split -> pool3/3x3_s2_pool3/3x3_s2_0_split_1
I0509 22:49:52.028468 21921 net.cpp:334] pool3/3x3_s2_pool3/3x3_s2_0_split -> pool3/3x3_s2_pool3/3x3_s2_0_split_2
I0509 22:49:52.028486 21921 net.cpp:334] pool3/3x3_s2_pool3/3x3_s2_0_split -> pool3/3x3_s2_pool3/3x3_s2_0_split_3
I0509 22:49:52.028494 21921 net.cpp:105] Setting up pool3/3x3_s2_pool3/3x3_s2_0_split
I0509 22:49:52.028501 21921 net.cpp:112] Top shape: 32 480 14 14 (3010560)
I0509 22:49:52.028507 21921 net.cpp:112] Top shape: 32 480 14 14 (3010560)
I0509 22:49:52.028512 21921 net.cpp:112] Top shape: 32 480 14 14 (3010560)
I0509 22:49:52.028517 21921 net.cpp:112] Top shape: 32 480 14 14 (3010560)
I0509 22:49:52.028522 21921 layer_factory.hpp:74] Creating layer inception_4a/1x1
I0509 22:49:52.028534 21921 net.cpp:76] Creating Layer inception_4a/1x1
I0509 22:49:52.028542 21921 net.cpp:372] inception_4a/1x1 <- pool3/3x3_s2_pool3/3x3_s2_0_split_0
I0509 22:49:52.028553 21921 net.cpp:334] inception_4a/1x1 -> inception_4a/1x1
I0509 22:49:52.028561 21921 net.cpp:105] Setting up inception_4a/1x1
I0509 22:49:52.029372 21921 net.cpp:112] Top shape: 32 192 14 14 (1204224)
I0509 22:49:52.029389 21921 layer_factory.hpp:74] Creating layer inception_4a/relu_1x1
I0509 22:49:52.029397 21921 net.cpp:76] Creating Layer inception_4a/relu_1x1
I0509 22:49:52.029424 21921 net.cpp:372] inception_4a/relu_1x1 <- inception_4a/1x1
I0509 22:49:52.029434 21921 net.cpp:323] inception_4a/relu_1x1 -> inception_4a/1x1 (in-place)
I0509 22:49:52.029443 21921 net.cpp:105] Setting up inception_4a/relu_1x1
I0509 22:49:52.029448 21921 net.cpp:112] Top shape: 32 192 14 14 (1204224)
I0509 22:49:52.029454 21921 layer_factory.hpp:74] Creating layer inception_4a/3x3_reduce
I0509 22:49:52.029465 21921 net.cpp:76] Creating Layer inception_4a/3x3_reduce
I0509 22:49:52.029472 21921 net.cpp:372] inception_4a/3x3_reduce <- pool3/3x3_s2_pool3/3x3_s2_0_split_1
I0509 22:49:52.029480 21921 net.cpp:334] inception_4a/3x3_reduce -> inception_4a/3x3_reduce
I0509 22:49:52.029489 21921 net.cpp:105] Setting up inception_4a/3x3_reduce
I0509 22:49:52.029888 21921 net.cpp:112] Top shape: 32 96 14 14 (602112)
I0509 22:49:52.029909 21921 layer_factory.hpp:74] Creating layer inception_4a/relu_3x3_reduce
I0509 22:49:52.029918 21921 net.cpp:76] Creating Layer inception_4a/relu_3x3_reduce
I0509 22:49:52.029924 21921 net.cpp:372] inception_4a/relu_3x3_reduce <- inception_4a/3x3_reduce
I0509 22:49:52.029932 21921 net.cpp:323] inception_4a/relu_3x3_reduce -> inception_4a/3x3_reduce (in-place)
I0509 22:49:52.029939 21921 net.cpp:105] Setting up inception_4a/relu_3x3_reduce
I0509 22:49:52.029945 21921 net.cpp:112] Top shape: 32 96 14 14 (602112)
I0509 22:49:52.029950 21921 layer_factory.hpp:74] Creating layer inception_4a/3x3
I0509 22:49:52.029961 21921 net.cpp:76] Creating Layer inception_4a/3x3
I0509 22:49:52.029968 21921 net.cpp:372] inception_4a/3x3 <- inception_4a/3x3_reduce
I0509 22:49:52.029995 21921 net.cpp:334] inception_4a/3x3 -> inception_4a/3x3
I0509 22:49:52.030005 21921 net.cpp:105] Setting up inception_4a/3x3
I0509 22:49:52.031560 21921 net.cpp:112] Top shape: 32 208 14 14 (1304576)
I0509 22:49:52.031577 21921 layer_factory.hpp:74] Creating layer inception_4a/relu_3x3
I0509 22:49:52.031587 21921 net.cpp:76] Creating Layer inception_4a/relu_3x3
I0509 22:49:52.031594 21921 net.cpp:372] inception_4a/relu_3x3 <- inception_4a/3x3
I0509 22:49:52.031601 21921 net.cpp:323] inception_4a/relu_3x3 -> inception_4a/3x3 (in-place)
I0509 22:49:52.031610 21921 net.cpp:105] Setting up inception_4a/relu_3x3
I0509 22:49:52.031615 21921 net.cpp:112] Top shape: 32 208 14 14 (1304576)
I0509 22:49:52.031621 21921 layer_factory.hpp:74] Creating layer inception_4a/5x5_reduce
I0509 22:49:52.031631 21921 net.cpp:76] Creating Layer inception_4a/5x5_reduce
I0509 22:49:52.031638 21921 net.cpp:372] inception_4a/5x5_reduce <- pool3/3x3_s2_pool3/3x3_s2_0_split_2
I0509 22:49:52.031646 21921 net.cpp:334] inception_4a/5x5_reduce -> inception_4a/5x5_reduce
I0509 22:49:52.031656 21921 net.cpp:105] Setting up inception_4a/5x5_reduce
I0509 22:49:52.031733 21921 net.cpp:112] Top shape: 32 16 14 14 (100352)
I0509 22:49:52.031744 21921 layer_factory.hpp:74] Creating layer inception_4a/relu_5x5_reduce
I0509 22:49:52.031752 21921 net.cpp:76] Creating Layer inception_4a/relu_5x5_reduce
I0509 22:49:52.031757 21921 net.cpp:372] inception_4a/relu_5x5_reduce <- inception_4a/5x5_reduce
I0509 22:49:52.031767 21921 net.cpp:323] inception_4a/relu_5x5_reduce -> inception_4a/5x5_reduce (in-place)
I0509 22:49:52.031774 21921 net.cpp:105] Setting up inception_4a/relu_5x5_reduce
I0509 22:49:52.031780 21921 net.cpp:112] Top shape: 32 16 14 14 (100352)
I0509 22:49:52.031786 21921 layer_factory.hpp:74] Creating layer inception_4a/5x5
I0509 22:49:52.031795 21921 net.cpp:76] Creating Layer inception_4a/5x5
I0509 22:49:52.031800 21921 net.cpp:372] inception_4a/5x5 <- inception_4a/5x5_reduce
I0509 22:49:52.031810 21921 net.cpp:334] inception_4a/5x5 -> inception_4a/5x5
I0509 22:49:52.031821 21921 net.cpp:105] Setting up inception_4a/5x5
I0509 22:49:52.032835 21921 net.cpp:112] Top shape: 32 48 14 14 (301056)
I0509 22:49:52.032857 21921 layer_factory.hpp:74] Creating layer inception_4a/relu_5x5
I0509 22:49:52.032867 21921 net.cpp:76] Creating Layer inception_4a/relu_5x5
I0509 22:49:52.032874 21921 net.cpp:372] inception_4a/relu_5x5 <- inception_4a/5x5
I0509 22:49:52.032888 21921 net.cpp:323] inception_4a/relu_5x5 -> inception_4a/5x5 (in-place)
I0509 22:49:52.032898 21921 net.cpp:105] Setting up inception_4a/relu_5x5
I0509 22:49:52.032904 21921 net.cpp:112] Top shape: 32 48 14 14 (301056)
I0509 22:49:52.032910 21921 layer_factory.hpp:74] Creating layer inception_4a/pool
I0509 22:49:52.032918 21921 net.cpp:76] Creating Layer inception_4a/pool
I0509 22:49:52.032924 21921 net.cpp:372] inception_4a/pool <- pool3/3x3_s2_pool3/3x3_s2_0_split_3
I0509 22:49:52.032933 21921 net.cpp:334] inception_4a/pool -> inception_4a/pool
I0509 22:49:52.032943 21921 net.cpp:105] Setting up inception_4a/pool
I0509 22:49:52.032950 21921 net.cpp:112] Top shape: 32 480 14 14 (3010560)
I0509 22:49:52.032956 21921 layer_factory.hpp:74] Creating layer inception_4a/pool_proj
I0509 22:49:52.032968 21921 net.cpp:76] Creating Layer inception_4a/pool_proj
I0509 22:49:52.032974 21921 net.cpp:372] inception_4a/pool_proj <- inception_4a/pool
I0509 22:49:52.032982 21921 net.cpp:334] inception_4a/pool_proj -> inception_4a/pool_proj
I0509 22:49:52.032996 21921 net.cpp:105] Setting up inception_4a/pool_proj
I0509 22:49:52.033263 21921 net.cpp:112] Top shape: 32 64 14 14 (401408)
I0509 22:49:52.033290 21921 layer_factory.hpp:74] Creating layer inception_4a/relu_pool_proj
I0509 22:49:52.033300 21921 net.cpp:76] Creating Layer inception_4a/relu_pool_proj
I0509 22:49:52.033306 21921 net.cpp:372] inception_4a/relu_pool_proj <- inception_4a/pool_proj
I0509 22:49:52.033316 21921 net.cpp:323] inception_4a/relu_pool_proj -> inception_4a/pool_proj (in-place)
I0509 22:49:52.033352 21921 net.cpp:105] Setting up inception_4a/relu_pool_proj
I0509 22:49:52.033360 21921 net.cpp:112] Top shape: 32 64 14 14 (401408)
I0509 22:49:52.033365 21921 layer_factory.hpp:74] Creating layer inception_4a/output
I0509 22:49:52.033373 21921 net.cpp:76] Creating Layer inception_4a/output
I0509 22:49:52.033380 21921 net.cpp:372] inception_4a/output <- inception_4a/1x1
I0509 22:49:52.033385 21921 net.cpp:372] inception_4a/output <- inception_4a/3x3
I0509 22:49:52.033392 21921 net.cpp:372] inception_4a/output <- inception_4a/5x5
I0509 22:49:52.033398 21921 net.cpp:372] inception_4a/output <- inception_4a/pool_proj
I0509 22:49:52.033407 21921 net.cpp:334] inception_4a/output -> inception_4a/output
I0509 22:49:52.033416 21921 net.cpp:105] Setting up inception_4a/output
I0509 22:49:52.033426 21921 net.cpp:112] Top shape: 32 512 14 14 (3211264)
I0509 22:49:52.033432 21921 layer_factory.hpp:74] Creating layer inception_4a/output_inception_4a/output_0_split
I0509 22:49:52.033440 21921 net.cpp:76] Creating Layer inception_4a/output_inception_4a/output_0_split
I0509 22:49:52.033447 21921 net.cpp:372] inception_4a/output_inception_4a/output_0_split <- inception_4a/output
I0509 22:49:52.033454 21921 net.cpp:334] inception_4a/output_inception_4a/output_0_split -> inception_4a/output_inception_4a/output_0_split_0
I0509 22:49:52.033464 21921 net.cpp:334] inception_4a/output_inception_4a/output_0_split -> inception_4a/output_inception_4a/output_0_split_1
I0509 22:49:52.033474 21921 net.cpp:334] inception_4a/output_inception_4a/output_0_split -> inception_4a/output_inception_4a/output_0_split_2
I0509 22:49:52.033483 21921 net.cpp:334] inception_4a/output_inception_4a/output_0_split -> inception_4a/output_inception_4a/output_0_split_3
I0509 22:49:52.033493 21921 net.cpp:334] inception_4a/output_inception_4a/output_0_split -> inception_4a/output_inception_4a/output_0_split_4
I0509 22:49:52.033500 21921 net.cpp:105] Setting up inception_4a/output_inception_4a/output_0_split
I0509 22:49:52.033567 21921 net.cpp:112] Top shape: 32 512 14 14 (3211264)
I0509 22:49:52.033581 21921 net.cpp:112] Top shape: 32 512 14 14 (3211264)
I0509 22:49:52.033586 21921 net.cpp:112] Top shape: 32 512 14 14 (3211264)
I0509 22:49:52.033591 21921 net.cpp:112] Top shape: 32 512 14 14 (3211264)
I0509 22:49:52.033596 21921 net.cpp:112] Top shape: 32 512 14 14 (3211264)
I0509 22:49:52.033602 21921 layer_factory.hpp:74] Creating layer loss1/ave_pool
I0509 22:49:52.033612 21921 net.cpp:76] Creating Layer loss1/ave_pool
I0509 22:49:52.033618 21921 net.cpp:372] loss1/ave_pool <- inception_4a/output_inception_4a/output_0_split_0
I0509 22:49:52.033634 21921 net.cpp:334] loss1/ave_pool -> loss1/ave_pool
I0509 22:49:52.033644 21921 net.cpp:105] Setting up loss1/ave_pool
I0509 22:49:52.033651 21921 net.cpp:112] Top shape: 32 512 4 4 (262144)
I0509 22:49:52.033658 21921 layer_factory.hpp:74] Creating layer loss1/conv
I0509 22:49:52.033666 21921 net.cpp:76] Creating Layer loss1/conv
I0509 22:49:52.033671 21921 net.cpp:372] loss1/conv <- loss1/ave_pool
I0509 22:49:52.033682 21921 net.cpp:334] loss1/conv -> loss1/conv
I0509 22:49:52.033691 21921 net.cpp:105] Setting up loss1/conv
I0509 22:49:52.034256 21921 net.cpp:112] Top shape: 32 128 4 4 (65536)
I0509 22:49:52.034283 21921 layer_factory.hpp:74] Creating layer loss1/relu_conv
I0509 22:49:52.034296 21921 net.cpp:76] Creating Layer loss1/relu_conv
I0509 22:49:52.034302 21921 net.cpp:372] loss1/relu_conv <- loss1/conv
I0509 22:49:52.034318 21921 net.cpp:323] loss1/relu_conv -> loss1/conv (in-place)
I0509 22:49:52.034329 21921 net.cpp:105] Setting up loss1/relu_conv
I0509 22:49:52.034337 21921 net.cpp:112] Top shape: 32 128 4 4 (65536)
I0509 22:49:52.034343 21921 layer_factory.hpp:74] Creating layer loss1/fc
I0509 22:49:52.034358 21921 net.cpp:76] Creating Layer loss1/fc
I0509 22:49:52.034364 21921 net.cpp:372] loss1/fc <- loss1/conv
I0509 22:49:52.034374 21921 net.cpp:334] loss1/fc -> loss1/fc
I0509 22:49:52.034389 21921 net.cpp:105] Setting up loss1/fc
I0509 22:49:52.053658 21921 net.cpp:112] Top shape: 32 1024 1 1 (32768)
I0509 22:49:52.053742 21921 layer_factory.hpp:74] Creating layer loss1/relu_fc
I0509 22:49:52.053757 21921 net.cpp:76] Creating Layer loss1/relu_fc
I0509 22:49:52.053769 21921 net.cpp:372] loss1/relu_fc <- loss1/fc
I0509 22:49:52.053781 21921 net.cpp:323] loss1/relu_fc -> loss1/fc (in-place)
I0509 22:49:52.053791 21921 net.cpp:105] Setting up loss1/relu_fc
I0509 22:49:52.053797 21921 net.cpp:112] Top shape: 32 1024 1 1 (32768)
I0509 22:49:52.053803 21921 layer_factory.hpp:74] Creating layer loss1/drop_fc
I0509 22:49:52.053828 21921 net.cpp:76] Creating Layer loss1/drop_fc
I0509 22:49:52.053833 21921 net.cpp:372] loss1/drop_fc <- loss1/fc
I0509 22:49:52.053841 21921 net.cpp:323] loss1/drop_fc -> loss1/fc (in-place)
I0509 22:49:52.053853 21921 net.cpp:105] Setting up loss1/drop_fc
I0509 22:49:52.053864 21921 net.cpp:112] Top shape: 32 1024 1 1 (32768)
I0509 22:49:52.053870 21921 layer_factory.hpp:74] Creating layer loss1/classifier
I0509 22:49:52.053882 21921 net.cpp:76] Creating Layer loss1/classifier
I0509 22:49:52.053889 21921 net.cpp:372] loss1/classifier <- loss1/fc
I0509 22:49:52.053900 21921 net.cpp:334] loss1/classifier -> loss1/classifier
I0509 22:49:52.053910 21921 net.cpp:105] Setting up loss1/classifier
I0509 22:49:52.053947 21921 net.cpp:112] Top shape: 32 2 1 1 (64)
I0509 22:49:52.053958 21921 layer_factory.hpp:74] Creating layer loss1/loss
I0509 22:49:52.053972 21921 net.cpp:76] Creating Layer loss1/loss
I0509 22:49:52.053979 21921 net.cpp:372] loss1/loss <- loss1/classifier
I0509 22:49:52.053987 21921 net.cpp:372] loss1/loss <- label_data_1_split_0
I0509 22:49:52.053994 21921 net.cpp:334] loss1/loss -> loss1/loss1
I0509 22:49:52.054005 21921 net.cpp:105] Setting up loss1/loss
I0509 22:49:52.054016 21921 layer_factory.hpp:74] Creating layer loss1/loss
I0509 22:49:52.054038 21921 net.cpp:112] Top shape: 1 1 1 1 (1)
I0509 22:49:52.054044 21921 net.cpp:118]     with loss weight 0.3
I0509 22:49:52.054076 21921 layer_factory.hpp:74] Creating layer inception_4b/1x1
I0509 22:49:52.054090 21921 net.cpp:76] Creating Layer inception_4b/1x1
I0509 22:49:52.054097 21921 net.cpp:372] inception_4b/1x1 <- inception_4a/output_inception_4a/output_0_split_1
I0509 22:49:52.054106 21921 net.cpp:334] inception_4b/1x1 -> inception_4b/1x1
I0509 22:49:52.054116 21921 net.cpp:105] Setting up inception_4b/1x1
I0509 22:49:52.054847 21921 net.cpp:112] Top shape: 32 160 14 14 (1003520)
I0509 22:49:52.054865 21921 layer_factory.hpp:74] Creating layer inception_4b/relu_1x1
I0509 22:49:52.054874 21921 net.cpp:76] Creating Layer inception_4b/relu_1x1
I0509 22:49:52.054880 21921 net.cpp:372] inception_4b/relu_1x1 <- inception_4b/1x1
I0509 22:49:52.054890 21921 net.cpp:323] inception_4b/relu_1x1 -> inception_4b/1x1 (in-place)
I0509 22:49:52.054898 21921 net.cpp:105] Setting up inception_4b/relu_1x1
I0509 22:49:52.054904 21921 net.cpp:112] Top shape: 32 160 14 14 (1003520)
I0509 22:49:52.054910 21921 layer_factory.hpp:74] Creating layer inception_4b/3x3_reduce
I0509 22:49:52.054919 21921 net.cpp:76] Creating Layer inception_4b/3x3_reduce
I0509 22:49:52.054924 21921 net.cpp:372] inception_4b/3x3_reduce <- inception_4a/output_inception_4a/output_0_split_2
I0509 22:49:52.054935 21921 net.cpp:334] inception_4b/3x3_reduce -> inception_4b/3x3_reduce
I0509 22:49:52.054947 21921 net.cpp:105] Setting up inception_4b/3x3_reduce
I0509 22:49:52.055467 21921 net.cpp:112] Top shape: 32 112 14 14 (702464)
I0509 22:49:52.055481 21921 layer_factory.hpp:74] Creating layer inception_4b/relu_3x3_reduce
I0509 22:49:52.055490 21921 net.cpp:76] Creating Layer inception_4b/relu_3x3_reduce
I0509 22:49:52.055496 21921 net.cpp:372] inception_4b/relu_3x3_reduce <- inception_4b/3x3_reduce
I0509 22:49:52.055506 21921 net.cpp:323] inception_4b/relu_3x3_reduce -> inception_4b/3x3_reduce (in-place)
I0509 22:49:52.055515 21921 net.cpp:105] Setting up inception_4b/relu_3x3_reduce
I0509 22:49:52.055521 21921 net.cpp:112] Top shape: 32 112 14 14 (702464)
I0509 22:49:52.055526 21921 layer_factory.hpp:74] Creating layer inception_4b/3x3
I0509 22:49:52.055534 21921 net.cpp:76] Creating Layer inception_4b/3x3
I0509 22:49:52.055553 21921 net.cpp:372] inception_4b/3x3 <- inception_4b/3x3_reduce
I0509 22:49:52.055563 21921 net.cpp:334] inception_4b/3x3 -> inception_4b/3x3
I0509 22:49:52.055572 21921 net.cpp:105] Setting up inception_4b/3x3
I0509 22:49:52.057492 21921 net.cpp:112] Top shape: 32 224 14 14 (1404928)
I0509 22:49:52.057512 21921 layer_factory.hpp:74] Creating layer inception_4b/relu_3x3
I0509 22:49:52.057523 21921 net.cpp:76] Creating Layer inception_4b/relu_3x3
I0509 22:49:52.057530 21921 net.cpp:372] inception_4b/relu_3x3 <- inception_4b/3x3
I0509 22:49:52.057538 21921 net.cpp:323] inception_4b/relu_3x3 -> inception_4b/3x3 (in-place)
I0509 22:49:52.057548 21921 net.cpp:105] Setting up inception_4b/relu_3x3
I0509 22:49:52.057554 21921 net.cpp:112] Top shape: 32 224 14 14 (1404928)
I0509 22:49:52.057559 21921 layer_factory.hpp:74] Creating layer inception_4b/5x5_reduce
I0509 22:49:52.057570 21921 net.cpp:76] Creating Layer inception_4b/5x5_reduce
I0509 22:49:52.057576 21921 net.cpp:372] inception_4b/5x5_reduce <- inception_4a/output_inception_4a/output_0_split_3
I0509 22:49:52.057585 21921 net.cpp:334] inception_4b/5x5_reduce -> inception_4b/5x5_reduce
I0509 22:49:52.057595 21921 net.cpp:105] Setting up inception_4b/5x5_reduce
I0509 22:49:52.057711 21921 net.cpp:112] Top shape: 32 24 14 14 (150528)
I0509 22:49:52.057723 21921 layer_factory.hpp:74] Creating layer inception_4b/relu_5x5_reduce
I0509 22:49:52.057730 21921 net.cpp:76] Creating Layer inception_4b/relu_5x5_reduce
I0509 22:49:52.057736 21921 net.cpp:372] inception_4b/relu_5x5_reduce <- inception_4b/5x5_reduce
I0509 22:49:52.057745 21921 net.cpp:323] inception_4b/relu_5x5_reduce -> inception_4b/5x5_reduce (in-place)
I0509 22:49:52.057754 21921 net.cpp:105] Setting up inception_4b/relu_5x5_reduce
I0509 22:49:52.057760 21921 net.cpp:112] Top shape: 32 24 14 14 (150528)
I0509 22:49:52.057765 21921 layer_factory.hpp:74] Creating layer inception_4b/5x5
I0509 22:49:52.057773 21921 net.cpp:76] Creating Layer inception_4b/5x5
I0509 22:49:52.057780 21921 net.cpp:372] inception_4b/5x5 <- inception_4b/5x5_reduce
I0509 22:49:52.057790 21921 net.cpp:334] inception_4b/5x5 -> inception_4b/5x5
I0509 22:49:52.057798 21921 net.cpp:105] Setting up inception_4b/5x5
I0509 22:49:52.058135 21921 net.cpp:112] Top shape: 32 64 14 14 (401408)
I0509 22:49:52.058148 21921 layer_factory.hpp:74] Creating layer inception_4b/relu_5x5
I0509 22:49:52.058158 21921 net.cpp:76] Creating Layer inception_4b/relu_5x5
I0509 22:49:52.058166 21921 net.cpp:372] inception_4b/relu_5x5 <- inception_4b/5x5
I0509 22:49:52.058173 21921 net.cpp:323] inception_4b/relu_5x5 -> inception_4b/5x5 (in-place)
I0509 22:49:52.058182 21921 net.cpp:105] Setting up inception_4b/relu_5x5
I0509 22:49:52.058187 21921 net.cpp:112] Top shape: 32 64 14 14 (401408)
I0509 22:49:52.058192 21921 layer_factory.hpp:74] Creating layer inception_4b/pool
I0509 22:49:52.058203 21921 net.cpp:76] Creating Layer inception_4b/pool
I0509 22:49:52.058209 21921 net.cpp:372] inception_4b/pool <- inception_4a/output_inception_4a/output_0_split_4
I0509 22:49:52.058218 21921 net.cpp:334] inception_4b/pool -> inception_4b/pool
I0509 22:49:52.058234 21921 net.cpp:105] Setting up inception_4b/pool
I0509 22:49:52.058246 21921 net.cpp:112] Top shape: 32 512 14 14 (3211264)
I0509 22:49:52.058254 21921 layer_factory.hpp:74] Creating layer inception_4b/pool_proj
I0509 22:49:52.058264 21921 net.cpp:76] Creating Layer inception_4b/pool_proj
I0509 22:49:52.058282 21921 net.cpp:372] inception_4b/pool_proj <- inception_4b/pool
I0509 22:49:52.058296 21921 net.cpp:334] inception_4b/pool_proj -> inception_4b/pool_proj
I0509 22:49:52.058307 21921 net.cpp:105] Setting up inception_4b/pool_proj
I0509 22:49:52.058590 21921 net.cpp:112] Top shape: 32 64 14 14 (401408)
I0509 22:49:52.058604 21921 layer_factory.hpp:74] Creating layer inception_4b/relu_pool_proj
I0509 22:49:52.058611 21921 net.cpp:76] Creating Layer inception_4b/relu_pool_proj
I0509 22:49:52.058617 21921 net.cpp:372] inception_4b/relu_pool_proj <- inception_4b/pool_proj
I0509 22:49:52.058646 21921 net.cpp:323] inception_4b/relu_pool_proj -> inception_4b/pool_proj (in-place)
I0509 22:49:52.058656 21921 net.cpp:105] Setting up inception_4b/relu_pool_proj
I0509 22:49:52.058662 21921 net.cpp:112] Top shape: 32 64 14 14 (401408)
I0509 22:49:52.058667 21921 layer_factory.hpp:74] Creating layer inception_4b/output
I0509 22:49:52.058677 21921 net.cpp:76] Creating Layer inception_4b/output
I0509 22:49:52.058683 21921 net.cpp:372] inception_4b/output <- inception_4b/1x1
I0509 22:49:52.058691 21921 net.cpp:372] inception_4b/output <- inception_4b/3x3
I0509 22:49:52.058697 21921 net.cpp:372] inception_4b/output <- inception_4b/5x5
I0509 22:49:52.058703 21921 net.cpp:372] inception_4b/output <- inception_4b/pool_proj
I0509 22:49:52.058711 21921 net.cpp:334] inception_4b/output -> inception_4b/output
I0509 22:49:52.058718 21921 net.cpp:105] Setting up inception_4b/output
I0509 22:49:52.058725 21921 net.cpp:112] Top shape: 32 512 14 14 (3211264)
I0509 22:49:52.058732 21921 layer_factory.hpp:74] Creating layer inception_4b/output_inception_4b/output_0_split
I0509 22:49:52.058763 21921 net.cpp:76] Creating Layer inception_4b/output_inception_4b/output_0_split
I0509 22:49:52.058770 21921 net.cpp:372] inception_4b/output_inception_4b/output_0_split <- inception_4b/output
I0509 22:49:52.058779 21921 net.cpp:334] inception_4b/output_inception_4b/output_0_split -> inception_4b/output_inception_4b/output_0_split_0
I0509 22:49:52.058790 21921 net.cpp:334] inception_4b/output_inception_4b/output_0_split -> inception_4b/output_inception_4b/output_0_split_1
I0509 22:49:52.058801 21921 net.cpp:334] inception_4b/output_inception_4b/output_0_split -> inception_4b/output_inception_4b/output_0_split_2
I0509 22:49:52.058810 21921 net.cpp:334] inception_4b/output_inception_4b/output_0_split -> inception_4b/output_inception_4b/output_0_split_3
I0509 22:49:52.058818 21921 net.cpp:105] Setting up inception_4b/output_inception_4b/output_0_split
I0509 22:49:52.058825 21921 net.cpp:112] Top shape: 32 512 14 14 (3211264)
I0509 22:49:52.058830 21921 net.cpp:112] Top shape: 32 512 14 14 (3211264)
I0509 22:49:52.058835 21921 net.cpp:112] Top shape: 32 512 14 14 (3211264)
I0509 22:49:52.058840 21921 net.cpp:112] Top shape: 32 512 14 14 (3211264)
I0509 22:49:52.058846 21921 layer_factory.hpp:74] Creating layer inception_4c/1x1
I0509 22:49:52.058856 21921 net.cpp:76] Creating Layer inception_4c/1x1
I0509 22:49:52.058863 21921 net.cpp:372] inception_4c/1x1 <- inception_4b/output_inception_4b/output_0_split_0
I0509 22:49:52.058871 21921 net.cpp:334] inception_4c/1x1 -> inception_4c/1x1
I0509 22:49:52.058879 21921 net.cpp:105] Setting up inception_4c/1x1
I0509 22:49:52.059453 21921 net.cpp:112] Top shape: 32 128 14 14 (802816)
I0509 22:49:52.059468 21921 layer_factory.hpp:74] Creating layer inception_4c/relu_1x1
I0509 22:49:52.059478 21921 net.cpp:76] Creating Layer inception_4c/relu_1x1
I0509 22:49:52.059484 21921 net.cpp:372] inception_4c/relu_1x1 <- inception_4c/1x1
I0509 22:49:52.059491 21921 net.cpp:323] inception_4c/relu_1x1 -> inception_4c/1x1 (in-place)
I0509 22:49:52.059499 21921 net.cpp:105] Setting up inception_4c/relu_1x1
I0509 22:49:52.059505 21921 net.cpp:112] Top shape: 32 128 14 14 (802816)
I0509 22:49:52.059510 21921 layer_factory.hpp:74] Creating layer inception_4c/3x3_reduce
I0509 22:49:52.059520 21921 net.cpp:76] Creating Layer inception_4c/3x3_reduce
I0509 22:49:52.059525 21921 net.cpp:372] inception_4c/3x3_reduce <- inception_4b/output_inception_4b/output_0_split_1
I0509 22:49:52.059535 21921 net.cpp:334] inception_4c/3x3_reduce -> inception_4c/3x3_reduce
I0509 22:49:52.059545 21921 net.cpp:105] Setting up inception_4c/3x3_reduce
I0509 22:49:52.060111 21921 net.cpp:112] Top shape: 32 128 14 14 (802816)
I0509 22:49:52.060125 21921 layer_factory.hpp:74] Creating layer inception_4c/relu_3x3_reduce
I0509 22:49:52.060133 21921 net.cpp:76] Creating Layer inception_4c/relu_3x3_reduce
I0509 22:49:52.060139 21921 net.cpp:372] inception_4c/relu_3x3_reduce <- inception_4c/3x3_reduce
I0509 22:49:52.060148 21921 net.cpp:323] inception_4c/relu_3x3_reduce -> inception_4c/3x3_reduce (in-place)
I0509 22:49:52.060169 21921 net.cpp:105] Setting up inception_4c/relu_3x3_reduce
I0509 22:49:52.060176 21921 net.cpp:112] Top shape: 32 128 14 14 (802816)
I0509 22:49:52.060183 21921 layer_factory.hpp:74] Creating layer inception_4c/3x3
I0509 22:49:52.060194 21921 net.cpp:76] Creating Layer inception_4c/3x3
I0509 22:49:52.060200 21921 net.cpp:372] inception_4c/3x3 <- inception_4c/3x3_reduce
I0509 22:49:52.060214 21921 net.cpp:334] inception_4c/3x3 -> inception_4c/3x3
I0509 22:49:52.060222 21921 net.cpp:105] Setting up inception_4c/3x3
I0509 22:49:52.062760 21921 net.cpp:112] Top shape: 32 256 14 14 (1605632)
I0509 22:49:52.062798 21921 layer_factory.hpp:74] Creating layer inception_4c/relu_3x3
I0509 22:49:52.062808 21921 net.cpp:76] Creating Layer inception_4c/relu_3x3
I0509 22:49:52.063575 21921 net.cpp:372] inception_4c/relu_3x3 <- inception_4c/3x3
I0509 22:49:52.063592 21921 net.cpp:323] inception_4c/relu_3x3 -> inception_4c/3x3 (in-place)
I0509 22:49:52.063603 21921 net.cpp:105] Setting up inception_4c/relu_3x3
I0509 22:49:52.063611 21921 net.cpp:112] Top shape: 32 256 14 14 (1605632)
I0509 22:49:52.063616 21921 layer_factory.hpp:74] Creating layer inception_4c/5x5_reduce
I0509 22:49:52.063632 21921 net.cpp:76] Creating Layer inception_4c/5x5_reduce
I0509 22:49:52.063639 21921 net.cpp:372] inception_4c/5x5_reduce <- inception_4b/output_inception_4b/output_0_split_2
I0509 22:49:52.063650 21921 net.cpp:334] inception_4c/5x5_reduce -> inception_4c/5x5_reduce
I0509 22:49:52.063663 21921 net.cpp:105] Setting up inception_4c/5x5_reduce
I0509 22:49:52.063807 21921 net.cpp:112] Top shape: 32 24 14 14 (150528)
I0509 22:49:52.063824 21921 layer_factory.hpp:74] Creating layer inception_4c/relu_5x5_reduce
I0509 22:49:52.063835 21921 net.cpp:76] Creating Layer inception_4c/relu_5x5_reduce
I0509 22:49:52.063843 21921 net.cpp:372] inception_4c/relu_5x5_reduce <- inception_4c/5x5_reduce
I0509 22:49:52.063853 21921 net.cpp:323] inception_4c/relu_5x5_reduce -> inception_4c/5x5_reduce (in-place)
I0509 22:49:52.063863 21921 net.cpp:105] Setting up inception_4c/relu_5x5_reduce
I0509 22:49:52.063868 21921 net.cpp:112] Top shape: 32 24 14 14 (150528)
I0509 22:49:52.063874 21921 layer_factory.hpp:74] Creating layer inception_4c/5x5
I0509 22:49:52.063882 21921 net.cpp:76] Creating Layer inception_4c/5x5
I0509 22:49:52.063889 21921 net.cpp:372] inception_4c/5x5 <- inception_4c/5x5_reduce
I0509 22:49:52.063899 21921 net.cpp:334] inception_4c/5x5 -> inception_4c/5x5
I0509 22:49:52.063909 21921 net.cpp:105] Setting up inception_4c/5x5
I0509 22:49:52.064290 21921 net.cpp:112] Top shape: 32 64 14 14 (401408)
I0509 22:49:52.064306 21921 layer_factory.hpp:74] Creating layer inception_4c/relu_5x5
I0509 22:49:52.064314 21921 net.cpp:76] Creating Layer inception_4c/relu_5x5
I0509 22:49:52.064321 21921 net.cpp:372] inception_4c/relu_5x5 <- inception_4c/5x5
I0509 22:49:52.064328 21921 net.cpp:323] inception_4c/relu_5x5 -> inception_4c/5x5 (in-place)
I0509 22:49:52.064337 21921 net.cpp:105] Setting up inception_4c/relu_5x5
I0509 22:49:52.064342 21921 net.cpp:112] Top shape: 32 64 14 14 (401408)
I0509 22:49:52.064347 21921 layer_factory.hpp:74] Creating layer inception_4c/pool
I0509 22:49:52.064358 21921 net.cpp:76] Creating Layer inception_4c/pool
I0509 22:49:52.064364 21921 net.cpp:372] inception_4c/pool <- inception_4b/output_inception_4b/output_0_split_3
I0509 22:49:52.064373 21921 net.cpp:334] inception_4c/pool -> inception_4c/pool
I0509 22:49:52.064383 21921 net.cpp:105] Setting up inception_4c/pool
I0509 22:49:52.064390 21921 net.cpp:112] Top shape: 32 512 14 14 (3211264)
I0509 22:49:52.064396 21921 layer_factory.hpp:74] Creating layer inception_4c/pool_proj
I0509 22:49:52.064409 21921 net.cpp:76] Creating Layer inception_4c/pool_proj
I0509 22:49:52.064414 21921 net.cpp:372] inception_4c/pool_proj <- inception_4c/pool
I0509 22:49:52.064422 21921 net.cpp:334] inception_4c/pool_proj -> inception_4c/pool_proj
I0509 22:49:52.064431 21921 net.cpp:105] Setting up inception_4c/pool_proj
I0509 22:49:52.064774 21921 net.cpp:112] Top shape: 32 64 14 14 (401408)
I0509 22:49:52.064790 21921 layer_factory.hpp:74] Creating layer inception_4c/relu_pool_proj
I0509 22:49:52.064798 21921 net.cpp:76] Creating Layer inception_4c/relu_pool_proj
I0509 22:49:52.064805 21921 net.cpp:372] inception_4c/relu_pool_proj <- inception_4c/pool_proj
I0509 22:49:52.064815 21921 net.cpp:323] inception_4c/relu_pool_proj -> inception_4c/pool_proj (in-place)
I0509 22:49:52.064823 21921 net.cpp:105] Setting up inception_4c/relu_pool_proj
I0509 22:49:52.064829 21921 net.cpp:112] Top shape: 32 64 14 14 (401408)
I0509 22:49:52.064838 21921 layer_factory.hpp:74] Creating layer inception_4c/output
I0509 22:49:52.064847 21921 net.cpp:76] Creating Layer inception_4c/output
I0509 22:49:52.064853 21921 net.cpp:372] inception_4c/output <- inception_4c/1x1
I0509 22:49:52.064860 21921 net.cpp:372] inception_4c/output <- inception_4c/3x3
I0509 22:49:52.064867 21921 net.cpp:372] inception_4c/output <- inception_4c/5x5
I0509 22:49:52.064873 21921 net.cpp:372] inception_4c/output <- inception_4c/pool_proj
I0509 22:49:52.064880 21921 net.cpp:334] inception_4c/output -> inception_4c/output
I0509 22:49:52.064892 21921 net.cpp:105] Setting up inception_4c/output
I0509 22:49:52.064898 21921 net.cpp:112] Top shape: 32 512 14 14 (3211264)
I0509 22:49:52.064904 21921 layer_factory.hpp:74] Creating layer inception_4c/output_inception_4c/output_0_split
I0509 22:49:52.064913 21921 net.cpp:76] Creating Layer inception_4c/output_inception_4c/output_0_split
I0509 22:49:52.064918 21921 net.cpp:372] inception_4c/output_inception_4c/output_0_split <- inception_4c/output
I0509 22:49:52.064929 21921 net.cpp:334] inception_4c/output_inception_4c/output_0_split -> inception_4c/output_inception_4c/output_0_split_0
I0509 22:49:52.064937 21921 net.cpp:334] inception_4c/output_inception_4c/output_0_split -> inception_4c/output_inception_4c/output_0_split_1
I0509 22:49:52.064947 21921 net.cpp:334] inception_4c/output_inception_4c/output_0_split -> inception_4c/output_inception_4c/output_0_split_2
I0509 22:49:52.064956 21921 net.cpp:334] inception_4c/output_inception_4c/output_0_split -> inception_4c/output_inception_4c/output_0_split_3
I0509 22:49:52.064965 21921 net.cpp:105] Setting up inception_4c/output_inception_4c/output_0_split
I0509 22:49:52.064971 21921 net.cpp:112] Top shape: 32 512 14 14 (3211264)
I0509 22:49:52.064976 21921 net.cpp:112] Top shape: 32 512 14 14 (3211264)
I0509 22:49:52.064981 21921 net.cpp:112] Top shape: 32 512 14 14 (3211264)
I0509 22:49:52.064987 21921 net.cpp:112] Top shape: 32 512 14 14 (3211264)
I0509 22:49:52.064992 21921 layer_factory.hpp:74] Creating layer inception_4d/1x1
I0509 22:49:52.065002 21921 net.cpp:76] Creating Layer inception_4d/1x1
I0509 22:49:52.065008 21921 net.cpp:372] inception_4d/1x1 <- inception_4c/output_inception_4c/output_0_split_0
I0509 22:49:52.065017 21921 net.cpp:334] inception_4d/1x1 -> inception_4d/1x1
I0509 22:49:52.065026 21921 net.cpp:105] Setting up inception_4d/1x1
I0509 22:49:52.065527 21921 net.cpp:112] Top shape: 32 112 14 14 (702464)
I0509 22:49:52.065543 21921 layer_factory.hpp:74] Creating layer inception_4d/relu_1x1
I0509 22:49:52.065551 21921 net.cpp:76] Creating Layer inception_4d/relu_1x1
I0509 22:49:52.065557 21921 net.cpp:372] inception_4d/relu_1x1 <- inception_4d/1x1
I0509 22:49:52.065564 21921 net.cpp:323] inception_4d/relu_1x1 -> inception_4d/1x1 (in-place)
I0509 22:49:52.065572 21921 net.cpp:105] Setting up inception_4d/relu_1x1
I0509 22:49:52.065578 21921 net.cpp:112] Top shape: 32 112 14 14 (702464)
I0509 22:49:52.065583 21921 layer_factory.hpp:74] Creating layer inception_4d/3x3_reduce
I0509 22:49:52.065593 21921 net.cpp:76] Creating Layer inception_4d/3x3_reduce
I0509 22:49:52.065598 21921 net.cpp:372] inception_4d/3x3_reduce <- inception_4c/output_inception_4c/output_0_split_1
I0509 22:49:52.065608 21921 net.cpp:334] inception_4d/3x3_reduce -> inception_4d/3x3_reduce
I0509 22:49:52.065621 21921 net.cpp:105] Setting up inception_4d/3x3_reduce
I0509 22:49:52.066354 21921 net.cpp:112] Top shape: 32 144 14 14 (903168)
I0509 22:49:52.066388 21921 layer_factory.hpp:74] Creating layer inception_4d/relu_3x3_reduce
I0509 22:49:52.066403 21921 net.cpp:76] Creating Layer inception_4d/relu_3x3_reduce
I0509 22:49:52.066416 21921 net.cpp:372] inception_4d/relu_3x3_reduce <- inception_4d/3x3_reduce
I0509 22:49:52.066436 21921 net.cpp:323] inception_4d/relu_3x3_reduce -> inception_4d/3x3_reduce (in-place)
I0509 22:49:52.066447 21921 net.cpp:105] Setting up inception_4d/relu_3x3_reduce
I0509 22:49:52.066453 21921 net.cpp:112] Top shape: 32 144 14 14 (903168)
I0509 22:49:52.066459 21921 layer_factory.hpp:74] Creating layer inception_4d/3x3
I0509 22:49:52.066468 21921 net.cpp:76] Creating Layer inception_4d/3x3
I0509 22:49:52.066474 21921 net.cpp:372] inception_4d/3x3 <- inception_4d/3x3_reduce
I0509 22:49:52.066484 21921 net.cpp:334] inception_4d/3x3 -> inception_4d/3x3
I0509 22:49:52.066493 21921 net.cpp:105] Setting up inception_4d/3x3
I0509 22:49:52.070096 21921 net.cpp:112] Top shape: 32 288 14 14 (1806336)
I0509 22:49:52.070133 21921 layer_factory.hpp:74] Creating layer inception_4d/relu_3x3
I0509 22:49:52.070149 21921 net.cpp:76] Creating Layer inception_4d/relu_3x3
I0509 22:49:52.070158 21921 net.cpp:372] inception_4d/relu_3x3 <- inception_4d/3x3
I0509 22:49:52.070171 21921 net.cpp:323] inception_4d/relu_3x3 -> inception_4d/3x3 (in-place)
I0509 22:49:52.070183 21921 net.cpp:105] Setting up inception_4d/relu_3x3
I0509 22:49:52.070188 21921 net.cpp:112] Top shape: 32 288 14 14 (1806336)
I0509 22:49:52.070194 21921 layer_factory.hpp:74] Creating layer inception_4d/5x5_reduce
I0509 22:49:52.070204 21921 net.cpp:76] Creating Layer inception_4d/5x5_reduce
I0509 22:49:52.070210 21921 net.cpp:372] inception_4d/5x5_reduce <- inception_4c/output_inception_4c/output_0_split_2
I0509 22:49:52.070221 21921 net.cpp:334] inception_4d/5x5_reduce -> inception_4d/5x5_reduce
I0509 22:49:52.070231 21921 net.cpp:105] Setting up inception_4d/5x5_reduce
I0509 22:49:52.070427 21921 net.cpp:112] Top shape: 32 32 14 14 (200704)
I0509 22:49:52.070451 21921 layer_factory.hpp:74] Creating layer inception_4d/relu_5x5_reduce
I0509 22:49:52.070472 21921 net.cpp:76] Creating Layer inception_4d/relu_5x5_reduce
I0509 22:49:52.070482 21921 net.cpp:372] inception_4d/relu_5x5_reduce <- inception_4d/5x5_reduce
I0509 22:49:52.070492 21921 net.cpp:323] inception_4d/relu_5x5_reduce -> inception_4d/5x5_reduce (in-place)
I0509 22:49:52.070499 21921 net.cpp:105] Setting up inception_4d/relu_5x5_reduce
I0509 22:49:52.070505 21921 net.cpp:112] Top shape: 32 32 14 14 (200704)
I0509 22:49:52.070511 21921 layer_factory.hpp:74] Creating layer inception_4d/5x5
I0509 22:49:52.070521 21921 net.cpp:76] Creating Layer inception_4d/5x5
I0509 22:49:52.070528 21921 net.cpp:372] inception_4d/5x5 <- inception_4d/5x5_reduce
I0509 22:49:52.070536 21921 net.cpp:334] inception_4d/5x5 -> inception_4d/5x5
I0509 22:49:52.070545 21921 net.cpp:105] Setting up inception_4d/5x5
I0509 22:49:52.071030 21921 net.cpp:112] Top shape: 32 64 14 14 (401408)
I0509 22:49:52.071045 21921 layer_factory.hpp:74] Creating layer inception_4d/relu_5x5
I0509 22:49:52.071054 21921 net.cpp:76] Creating Layer inception_4d/relu_5x5
I0509 22:49:52.071084 21921 net.cpp:372] inception_4d/relu_5x5 <- inception_4d/5x5
I0509 22:49:52.071096 21921 net.cpp:323] inception_4d/relu_5x5 -> inception_4d/5x5 (in-place)
I0509 22:49:52.071105 21921 net.cpp:105] Setting up inception_4d/relu_5x5
I0509 22:49:52.071110 21921 net.cpp:112] Top shape: 32 64 14 14 (401408)
I0509 22:49:52.071116 21921 layer_factory.hpp:74] Creating layer inception_4d/pool
I0509 22:49:52.071125 21921 net.cpp:76] Creating Layer inception_4d/pool
I0509 22:49:52.071131 21921 net.cpp:372] inception_4d/pool <- inception_4c/output_inception_4c/output_0_split_3
I0509 22:49:52.071140 21921 net.cpp:334] inception_4d/pool -> inception_4d/pool
I0509 22:49:52.071148 21921 net.cpp:105] Setting up inception_4d/pool
I0509 22:49:52.071156 21921 net.cpp:112] Top shape: 32 512 14 14 (3211264)
I0509 22:49:52.071162 21921 layer_factory.hpp:74] Creating layer inception_4d/pool_proj
I0509 22:49:52.071203 21921 net.cpp:76] Creating Layer inception_4d/pool_proj
I0509 22:49:52.071210 21921 net.cpp:372] inception_4d/pool_proj <- inception_4d/pool
I0509 22:49:52.071221 21921 net.cpp:334] inception_4d/pool_proj -> inception_4d/pool_proj
I0509 22:49:52.071238 21921 net.cpp:105] Setting up inception_4d/pool_proj
I0509 22:49:52.071581 21921 net.cpp:112] Top shape: 32 64 14 14 (401408)
I0509 22:49:52.071598 21921 layer_factory.hpp:74] Creating layer inception_4d/relu_pool_proj
I0509 22:49:52.071606 21921 net.cpp:76] Creating Layer inception_4d/relu_pool_proj
I0509 22:49:52.071612 21921 net.cpp:372] inception_4d/relu_pool_proj <- inception_4d/pool_proj
I0509 22:49:52.071622 21921 net.cpp:323] inception_4d/relu_pool_proj -> inception_4d/pool_proj (in-place)
I0509 22:49:52.071631 21921 net.cpp:105] Setting up inception_4d/relu_pool_proj
I0509 22:49:52.071653 21921 net.cpp:112] Top shape: 32 64 14 14 (401408)
I0509 22:49:52.071660 21921 layer_factory.hpp:74] Creating layer inception_4d/output
I0509 22:49:52.071668 21921 net.cpp:76] Creating Layer inception_4d/output
I0509 22:49:52.071674 21921 net.cpp:372] inception_4d/output <- inception_4d/1x1
I0509 22:49:52.071681 21921 net.cpp:372] inception_4d/output <- inception_4d/3x3
I0509 22:49:52.071688 21921 net.cpp:372] inception_4d/output <- inception_4d/5x5
I0509 22:49:52.071694 21921 net.cpp:372] inception_4d/output <- inception_4d/pool_proj
I0509 22:49:52.071702 21921 net.cpp:334] inception_4d/output -> inception_4d/output
I0509 22:49:52.071712 21921 net.cpp:105] Setting up inception_4d/output
I0509 22:49:52.071719 21921 net.cpp:112] Top shape: 32 528 14 14 (3311616)
I0509 22:49:52.071725 21921 layer_factory.hpp:74] Creating layer inception_4d/output_inception_4d/output_0_split
I0509 22:49:52.071738 21921 net.cpp:76] Creating Layer inception_4d/output_inception_4d/output_0_split
I0509 22:49:52.071750 21921 net.cpp:372] inception_4d/output_inception_4d/output_0_split <- inception_4d/output
I0509 22:49:52.071760 21921 net.cpp:334] inception_4d/output_inception_4d/output_0_split -> inception_4d/output_inception_4d/output_0_split_0
I0509 22:49:52.071770 21921 net.cpp:334] inception_4d/output_inception_4d/output_0_split -> inception_4d/output_inception_4d/output_0_split_1
I0509 22:49:52.071780 21921 net.cpp:334] inception_4d/output_inception_4d/output_0_split -> inception_4d/output_inception_4d/output_0_split_2
I0509 22:49:52.071790 21921 net.cpp:334] inception_4d/output_inception_4d/output_0_split -> inception_4d/output_inception_4d/output_0_split_3
I0509 22:49:52.071806 21921 net.cpp:334] inception_4d/output_inception_4d/output_0_split -> inception_4d/output_inception_4d/output_0_split_4
I0509 22:49:52.071825 21921 net.cpp:105] Setting up inception_4d/output_inception_4d/output_0_split
I0509 22:49:52.071843 21921 net.cpp:112] Top shape: 32 528 14 14 (3311616)
I0509 22:49:52.071852 21921 net.cpp:112] Top shape: 32 528 14 14 (3311616)
I0509 22:49:52.071861 21921 net.cpp:112] Top shape: 32 528 14 14 (3311616)
I0509 22:49:52.071871 21921 net.cpp:112] Top shape: 32 528 14 14 (3311616)
I0509 22:49:52.072557 21921 net.cpp:112] Top shape: 32 528 14 14 (3311616)
I0509 22:49:52.072569 21921 layer_factory.hpp:74] Creating layer loss2/ave_pool
I0509 22:49:52.072578 21921 net.cpp:76] Creating Layer loss2/ave_pool
I0509 22:49:52.072585 21921 net.cpp:372] loss2/ave_pool <- inception_4d/output_inception_4d/output_0_split_0
I0509 22:49:52.072597 21921 net.cpp:334] loss2/ave_pool -> loss2/ave_pool
I0509 22:49:52.072607 21921 net.cpp:105] Setting up loss2/ave_pool
I0509 22:49:52.072614 21921 net.cpp:112] Top shape: 32 528 4 4 (270336)
I0509 22:49:52.072620 21921 layer_factory.hpp:74] Creating layer loss2/conv
I0509 22:49:52.072634 21921 net.cpp:76] Creating Layer loss2/conv
I0509 22:49:52.072646 21921 net.cpp:372] loss2/conv <- loss2/ave_pool
I0509 22:49:52.072671 21921 net.cpp:334] loss2/conv -> loss2/conv
I0509 22:49:52.072688 21921 net.cpp:105] Setting up loss2/conv
I0509 22:49:52.073351 21921 net.cpp:112] Top shape: 32 128 4 4 (65536)
I0509 22:49:52.073379 21921 layer_factory.hpp:74] Creating layer loss2/relu_conv
I0509 22:49:52.073418 21921 net.cpp:76] Creating Layer loss2/relu_conv
I0509 22:49:52.073432 21921 net.cpp:372] loss2/relu_conv <- loss2/conv
I0509 22:49:52.073447 21921 net.cpp:323] loss2/relu_conv -> loss2/conv (in-place)
I0509 22:49:52.073462 21921 net.cpp:105] Setting up loss2/relu_conv
I0509 22:49:52.073472 21921 net.cpp:112] Top shape: 32 128 4 4 (65536)
I0509 22:49:52.073478 21921 layer_factory.hpp:74] Creating layer loss2/fc
I0509 22:49:52.073488 21921 net.cpp:76] Creating Layer loss2/fc
I0509 22:49:52.073494 21921 net.cpp:372] loss2/fc <- loss2/conv
I0509 22:49:52.073505 21921 net.cpp:334] loss2/fc -> loss2/fc
I0509 22:49:52.073515 21921 net.cpp:105] Setting up loss2/fc
I0509 22:49:52.091403 21921 net.cpp:112] Top shape: 32 1024 1 1 (32768)
I0509 22:49:52.091457 21921 layer_factory.hpp:74] Creating layer loss2/relu_fc
I0509 22:49:52.091472 21921 net.cpp:76] Creating Layer loss2/relu_fc
I0509 22:49:52.091485 21921 net.cpp:372] loss2/relu_fc <- loss2/fc
I0509 22:49:52.091495 21921 net.cpp:323] loss2/relu_fc -> loss2/fc (in-place)
I0509 22:49:52.091506 21921 net.cpp:105] Setting up loss2/relu_fc
I0509 22:49:52.091512 21921 net.cpp:112] Top shape: 32 1024 1 1 (32768)
I0509 22:49:52.091518 21921 layer_factory.hpp:74] Creating layer loss2/drop_fc
I0509 22:49:52.091527 21921 net.cpp:76] Creating Layer loss2/drop_fc
I0509 22:49:52.091533 21921 net.cpp:372] loss2/drop_fc <- loss2/fc
I0509 22:49:52.091541 21921 net.cpp:323] loss2/drop_fc -> loss2/fc (in-place)
I0509 22:49:52.091548 21921 net.cpp:105] Setting up loss2/drop_fc
I0509 22:49:52.091555 21921 net.cpp:112] Top shape: 32 1024 1 1 (32768)
I0509 22:49:52.091562 21921 layer_factory.hpp:74] Creating layer loss2/classifier
I0509 22:49:52.091578 21921 net.cpp:76] Creating Layer loss2/classifier
I0509 22:49:52.091584 21921 net.cpp:372] loss2/classifier <- loss2/fc
I0509 22:49:52.091593 21921 net.cpp:334] loss2/classifier -> loss2/classifier
I0509 22:49:52.091604 21921 net.cpp:105] Setting up loss2/classifier
I0509 22:49:52.091640 21921 net.cpp:112] Top shape: 32 2 1 1 (64)
I0509 22:49:52.091650 21921 layer_factory.hpp:74] Creating layer loss2/loss
I0509 22:49:52.091660 21921 net.cpp:76] Creating Layer loss2/loss
I0509 22:49:52.091665 21921 net.cpp:372] loss2/loss <- loss2/classifier
I0509 22:49:52.091672 21921 net.cpp:372] loss2/loss <- label_data_1_split_1
I0509 22:49:52.091681 21921 net.cpp:334] loss2/loss -> loss2/loss1
I0509 22:49:52.091689 21921 net.cpp:105] Setting up loss2/loss
I0509 22:49:52.091698 21921 layer_factory.hpp:74] Creating layer loss2/loss
I0509 22:49:52.091713 21921 net.cpp:112] Top shape: 1 1 1 1 (1)
I0509 22:49:52.091720 21921 net.cpp:118]     with loss weight 0.3
I0509 22:49:52.091738 21921 layer_factory.hpp:74] Creating layer inception_4e/1x1
I0509 22:49:52.091750 21921 net.cpp:76] Creating Layer inception_4e/1x1
I0509 22:49:52.091758 21921 net.cpp:372] inception_4e/1x1 <- inception_4d/output_inception_4d/output_0_split_1
I0509 22:49:52.091766 21921 net.cpp:334] inception_4e/1x1 -> inception_4e/1x1
I0509 22:49:52.091775 21921 net.cpp:105] Setting up inception_4e/1x1
I0509 22:49:52.092947 21921 net.cpp:112] Top shape: 32 256 14 14 (1605632)
I0509 22:49:52.092967 21921 layer_factory.hpp:74] Creating layer inception_4e/relu_1x1
I0509 22:49:52.092983 21921 net.cpp:76] Creating Layer inception_4e/relu_1x1
I0509 22:49:52.092993 21921 net.cpp:372] inception_4e/relu_1x1 <- inception_4e/1x1
I0509 22:49:52.093006 21921 net.cpp:323] inception_4e/relu_1x1 -> inception_4e/1x1 (in-place)
I0509 22:49:52.093017 21921 net.cpp:105] Setting up inception_4e/relu_1x1
I0509 22:49:52.093024 21921 net.cpp:112] Top shape: 32 256 14 14 (1605632)
I0509 22:49:52.093029 21921 layer_factory.hpp:74] Creating layer inception_4e/3x3_reduce
I0509 22:49:52.093041 21921 net.cpp:76] Creating Layer inception_4e/3x3_reduce
I0509 22:49:52.093047 21921 net.cpp:372] inception_4e/3x3_reduce <- inception_4d/output_inception_4d/output_0_split_2
I0509 22:49:52.093056 21921 net.cpp:334] inception_4e/3x3_reduce -> inception_4e/3x3_reduce
I0509 22:49:52.093099 21921 net.cpp:105] Setting up inception_4e/3x3_reduce
I0509 22:49:52.093828 21921 net.cpp:112] Top shape: 32 160 14 14 (1003520)
I0509 22:49:52.093844 21921 layer_factory.hpp:74] Creating layer inception_4e/relu_3x3_reduce
I0509 22:49:52.093853 21921 net.cpp:76] Creating Layer inception_4e/relu_3x3_reduce
I0509 22:49:52.093859 21921 net.cpp:372] inception_4e/relu_3x3_reduce <- inception_4e/3x3_reduce
I0509 22:49:52.093868 21921 net.cpp:323] inception_4e/relu_3x3_reduce -> inception_4e/3x3_reduce (in-place)
I0509 22:49:52.093875 21921 net.cpp:105] Setting up inception_4e/relu_3x3_reduce
I0509 22:49:52.093881 21921 net.cpp:112] Top shape: 32 160 14 14 (1003520)
I0509 22:49:52.093888 21921 layer_factory.hpp:74] Creating layer inception_4e/3x3
I0509 22:49:52.093895 21921 net.cpp:76] Creating Layer inception_4e/3x3
I0509 22:49:52.093900 21921 net.cpp:372] inception_4e/3x3 <- inception_4e/3x3_reduce
I0509 22:49:52.093910 21921 net.cpp:334] inception_4e/3x3 -> inception_4e/3x3
I0509 22:49:52.093920 21921 net.cpp:105] Setting up inception_4e/3x3
I0509 22:49:52.097865 21921 net.cpp:112] Top shape: 32 320 14 14 (2007040)
I0509 22:49:52.097893 21921 layer_factory.hpp:74] Creating layer inception_4e/relu_3x3
I0509 22:49:52.097905 21921 net.cpp:76] Creating Layer inception_4e/relu_3x3
I0509 22:49:52.097913 21921 net.cpp:372] inception_4e/relu_3x3 <- inception_4e/3x3
I0509 22:49:52.097924 21921 net.cpp:323] inception_4e/relu_3x3 -> inception_4e/3x3 (in-place)
I0509 22:49:52.097934 21921 net.cpp:105] Setting up inception_4e/relu_3x3
I0509 22:49:52.097940 21921 net.cpp:112] Top shape: 32 320 14 14 (2007040)
I0509 22:49:52.097945 21921 layer_factory.hpp:74] Creating layer inception_4e/5x5_reduce
I0509 22:49:52.097955 21921 net.cpp:76] Creating Layer inception_4e/5x5_reduce
I0509 22:49:52.097964 21921 net.cpp:372] inception_4e/5x5_reduce <- inception_4d/output_inception_4d/output_0_split_3
I0509 22:49:52.097972 21921 net.cpp:334] inception_4e/5x5_reduce -> inception_4e/5x5_reduce
I0509 22:49:52.097982 21921 net.cpp:105] Setting up inception_4e/5x5_reduce
I0509 22:49:52.098134 21921 net.cpp:112] Top shape: 32 32 14 14 (200704)
I0509 22:49:52.098147 21921 layer_factory.hpp:74] Creating layer inception_4e/relu_5x5_reduce
I0509 22:49:52.098155 21921 net.cpp:76] Creating Layer inception_4e/relu_5x5_reduce
I0509 22:49:52.098161 21921 net.cpp:372] inception_4e/relu_5x5_reduce <- inception_4e/5x5_reduce
I0509 22:49:52.098168 21921 net.cpp:323] inception_4e/relu_5x5_reduce -> inception_4e/5x5_reduce (in-place)
I0509 22:49:52.098176 21921 net.cpp:105] Setting up inception_4e/relu_5x5_reduce
I0509 22:49:52.098182 21921 net.cpp:112] Top shape: 32 32 14 14 (200704)
I0509 22:49:52.098188 21921 layer_factory.hpp:74] Creating layer inception_4e/5x5
I0509 22:49:52.098217 21921 net.cpp:76] Creating Layer inception_4e/5x5
I0509 22:49:52.098223 21921 net.cpp:372] inception_4e/5x5 <- inception_4e/5x5_reduce
I0509 22:49:52.098234 21921 net.cpp:334] inception_4e/5x5 -> inception_4e/5x5
I0509 22:49:52.098243 21921 net.cpp:105] Setting up inception_4e/5x5
I0509 22:49:52.099125 21921 net.cpp:112] Top shape: 32 128 14 14 (802816)
I0509 22:49:52.099141 21921 layer_factory.hpp:74] Creating layer inception_4e/relu_5x5
I0509 22:49:52.099149 21921 net.cpp:76] Creating Layer inception_4e/relu_5x5
I0509 22:49:52.099155 21921 net.cpp:372] inception_4e/relu_5x5 <- inception_4e/5x5
I0509 22:49:52.099164 21921 net.cpp:323] inception_4e/relu_5x5 -> inception_4e/5x5 (in-place)
I0509 22:49:52.099171 21921 net.cpp:105] Setting up inception_4e/relu_5x5
I0509 22:49:52.099176 21921 net.cpp:112] Top shape: 32 128 14 14 (802816)
I0509 22:49:52.099182 21921 layer_factory.hpp:74] Creating layer inception_4e/pool
I0509 22:49:52.099194 21921 net.cpp:76] Creating Layer inception_4e/pool
I0509 22:49:52.099203 21921 net.cpp:372] inception_4e/pool <- inception_4d/output_inception_4d/output_0_split_4
I0509 22:49:52.099211 21921 net.cpp:334] inception_4e/pool -> inception_4e/pool
I0509 22:49:52.099220 21921 net.cpp:105] Setting up inception_4e/pool
I0509 22:49:52.099230 21921 net.cpp:112] Top shape: 32 528 14 14 (3311616)
I0509 22:49:52.099262 21921 layer_factory.hpp:74] Creating layer inception_4e/pool_proj
I0509 22:49:52.099295 21921 net.cpp:76] Creating Layer inception_4e/pool_proj
I0509 22:49:52.099309 21921 net.cpp:372] inception_4e/pool_proj <- inception_4e/pool
I0509 22:49:52.099449 21921 net.cpp:334] inception_4e/pool_proj -> inception_4e/pool_proj
I0509 22:49:52.099462 21921 net.cpp:105] Setting up inception_4e/pool_proj
I0509 22:49:52.100039 21921 net.cpp:112] Top shape: 32 128 14 14 (802816)
I0509 22:49:52.100054 21921 layer_factory.hpp:74] Creating layer inception_4e/relu_pool_proj
I0509 22:49:52.100064 21921 net.cpp:76] Creating Layer inception_4e/relu_pool_proj
I0509 22:49:52.100070 21921 net.cpp:372] inception_4e/relu_pool_proj <- inception_4e/pool_proj
I0509 22:49:52.100078 21921 net.cpp:323] inception_4e/relu_pool_proj -> inception_4e/pool_proj (in-place)
I0509 22:49:52.100086 21921 net.cpp:105] Setting up inception_4e/relu_pool_proj
I0509 22:49:52.100092 21921 net.cpp:112] Top shape: 32 128 14 14 (802816)
I0509 22:49:52.100098 21921 layer_factory.hpp:74] Creating layer inception_4e/output
I0509 22:49:52.100106 21921 net.cpp:76] Creating Layer inception_4e/output
I0509 22:49:52.100111 21921 net.cpp:372] inception_4e/output <- inception_4e/1x1
I0509 22:49:52.100118 21921 net.cpp:372] inception_4e/output <- inception_4e/3x3
I0509 22:49:52.100124 21921 net.cpp:372] inception_4e/output <- inception_4e/5x5
I0509 22:49:52.100131 21921 net.cpp:372] inception_4e/output <- inception_4e/pool_proj
I0509 22:49:52.100138 21921 net.cpp:334] inception_4e/output -> inception_4e/output
I0509 22:49:52.100147 21921 net.cpp:105] Setting up inception_4e/output
I0509 22:49:52.100153 21921 net.cpp:112] Top shape: 32 832 14 14 (5218304)
I0509 22:49:52.100158 21921 layer_factory.hpp:74] Creating layer pool4/3x3_s2
I0509 22:49:52.100168 21921 net.cpp:76] Creating Layer pool4/3x3_s2
I0509 22:49:52.100175 21921 net.cpp:372] pool4/3x3_s2 <- inception_4e/output
I0509 22:49:52.100183 21921 net.cpp:334] pool4/3x3_s2 -> pool4/3x3_s2
I0509 22:49:52.100193 21921 net.cpp:105] Setting up pool4/3x3_s2
I0509 22:49:52.100199 21921 net.cpp:112] Top shape: 32 832 7 7 (1304576)
I0509 22:49:52.100204 21921 layer_factory.hpp:74] Creating layer pool4/3x3_s2_pool4/3x3_s2_0_split
I0509 22:49:52.100215 21921 net.cpp:76] Creating Layer pool4/3x3_s2_pool4/3x3_s2_0_split
I0509 22:49:52.100221 21921 net.cpp:372] pool4/3x3_s2_pool4/3x3_s2_0_split <- pool4/3x3_s2
I0509 22:49:52.100229 21921 net.cpp:334] pool4/3x3_s2_pool4/3x3_s2_0_split -> pool4/3x3_s2_pool4/3x3_s2_0_split_0
I0509 22:49:52.100237 21921 net.cpp:334] pool4/3x3_s2_pool4/3x3_s2_0_split -> pool4/3x3_s2_pool4/3x3_s2_0_split_1
I0509 22:49:52.100246 21921 net.cpp:334] pool4/3x3_s2_pool4/3x3_s2_0_split -> pool4/3x3_s2_pool4/3x3_s2_0_split_2
I0509 22:49:52.100282 21921 net.cpp:334] pool4/3x3_s2_pool4/3x3_s2_0_split -> pool4/3x3_s2_pool4/3x3_s2_0_split_3
I0509 22:49:52.100292 21921 net.cpp:105] Setting up pool4/3x3_s2_pool4/3x3_s2_0_split
I0509 22:49:52.100301 21921 net.cpp:112] Top shape: 32 832 7 7 (1304576)
I0509 22:49:52.100306 21921 net.cpp:112] Top shape: 32 832 7 7 (1304576)
I0509 22:49:52.100311 21921 net.cpp:112] Top shape: 32 832 7 7 (1304576)
I0509 22:49:52.100316 21921 net.cpp:112] Top shape: 32 832 7 7 (1304576)
I0509 22:49:52.100322 21921 layer_factory.hpp:74] Creating layer inception_5a/1x1
I0509 22:49:52.100333 21921 net.cpp:76] Creating Layer inception_5a/1x1
I0509 22:49:52.100339 21921 net.cpp:372] inception_5a/1x1 <- pool4/3x3_s2_pool4/3x3_s2_0_split_0
I0509 22:49:52.100350 21921 net.cpp:334] inception_5a/1x1 -> inception_5a/1x1
I0509 22:49:52.100359 21921 net.cpp:105] Setting up inception_5a/1x1
I0509 22:49:52.102185 21921 net.cpp:112] Top shape: 32 256 7 7 (401408)
I0509 22:49:52.102203 21921 layer_factory.hpp:74] Creating layer inception_5a/relu_1x1
I0509 22:49:52.102216 21921 net.cpp:76] Creating Layer inception_5a/relu_1x1
I0509 22:49:52.102246 21921 net.cpp:372] inception_5a/relu_1x1 <- inception_5a/1x1
I0509 22:49:52.102257 21921 net.cpp:323] inception_5a/relu_1x1 -> inception_5a/1x1 (in-place)
I0509 22:49:52.102293 21921 net.cpp:105] Setting up inception_5a/relu_1x1
I0509 22:49:52.102301 21921 net.cpp:112] Top shape: 32 256 7 7 (401408)
I0509 22:49:52.102308 21921 layer_factory.hpp:74] Creating layer inception_5a/3x3_reduce
I0509 22:49:52.102319 21921 net.cpp:76] Creating Layer inception_5a/3x3_reduce
I0509 22:49:52.102327 21921 net.cpp:372] inception_5a/3x3_reduce <- pool4/3x3_s2_pool4/3x3_s2_0_split_1
I0509 22:49:52.102336 21921 net.cpp:334] inception_5a/3x3_reduce -> inception_5a/3x3_reduce
I0509 22:49:52.102345 21921 net.cpp:105] Setting up inception_5a/3x3_reduce
I0509 22:49:52.103556 21921 net.cpp:112] Top shape: 32 160 7 7 (250880)
I0509 22:49:52.103574 21921 layer_factory.hpp:74] Creating layer inception_5a/relu_3x3_reduce
I0509 22:49:52.103582 21921 net.cpp:76] Creating Layer inception_5a/relu_3x3_reduce
I0509 22:49:52.103590 21921 net.cpp:372] inception_5a/relu_3x3_reduce <- inception_5a/3x3_reduce
I0509 22:49:52.103600 21921 net.cpp:323] inception_5a/relu_3x3_reduce -> inception_5a/3x3_reduce (in-place)
I0509 22:49:52.103608 21921 net.cpp:105] Setting up inception_5a/relu_3x3_reduce
I0509 22:49:52.103615 21921 net.cpp:112] Top shape: 32 160 7 7 (250880)
I0509 22:49:52.103621 21921 layer_factory.hpp:74] Creating layer inception_5a/3x3
I0509 22:49:52.103628 21921 net.cpp:76] Creating Layer inception_5a/3x3
I0509 22:49:52.103634 21921 net.cpp:372] inception_5a/3x3 <- inception_5a/3x3_reduce
I0509 22:49:52.103644 21921 net.cpp:334] inception_5a/3x3 -> inception_5a/3x3
I0509 22:49:52.103654 21921 net.cpp:105] Setting up inception_5a/3x3
I0509 22:49:52.107553 21921 net.cpp:112] Top shape: 32 320 7 7 (501760)
I0509 22:49:52.107583 21921 layer_factory.hpp:74] Creating layer inception_5a/relu_3x3
I0509 22:49:52.107594 21921 net.cpp:76] Creating Layer inception_5a/relu_3x3
I0509 22:49:52.107602 21921 net.cpp:372] inception_5a/relu_3x3 <- inception_5a/3x3
I0509 22:49:52.107610 21921 net.cpp:323] inception_5a/relu_3x3 -> inception_5a/3x3 (in-place)
I0509 22:49:52.107620 21921 net.cpp:105] Setting up inception_5a/relu_3x3
I0509 22:49:52.107626 21921 net.cpp:112] Top shape: 32 320 7 7 (501760)
I0509 22:49:52.107631 21921 layer_factory.hpp:74] Creating layer inception_5a/5x5_reduce
I0509 22:49:52.107645 21921 net.cpp:76] Creating Layer inception_5a/5x5_reduce
I0509 22:49:52.107651 21921 net.cpp:372] inception_5a/5x5_reduce <- pool4/3x3_s2_pool4/3x3_s2_0_split_2
I0509 22:49:52.107661 21921 net.cpp:334] inception_5a/5x5_reduce -> inception_5a/5x5_reduce
I0509 22:49:52.107671 21921 net.cpp:105] Setting up inception_5a/5x5_reduce
I0509 22:49:52.107913 21921 net.cpp:112] Top shape: 32 32 7 7 (50176)
I0509 22:49:52.107926 21921 layer_factory.hpp:74] Creating layer inception_5a/relu_5x5_reduce
I0509 22:49:52.107934 21921 net.cpp:76] Creating Layer inception_5a/relu_5x5_reduce
I0509 22:49:52.107940 21921 net.cpp:372] inception_5a/relu_5x5_reduce <- inception_5a/5x5_reduce
I0509 22:49:52.107947 21921 net.cpp:323] inception_5a/relu_5x5_reduce -> inception_5a/5x5_reduce (in-place)
I0509 22:49:52.107955 21921 net.cpp:105] Setting up inception_5a/relu_5x5_reduce
I0509 22:49:52.107961 21921 net.cpp:112] Top shape: 32 32 7 7 (50176)
I0509 22:49:52.107967 21921 layer_factory.hpp:74] Creating layer inception_5a/5x5
I0509 22:49:52.107983 21921 net.cpp:76] Creating Layer inception_5a/5x5
I0509 22:49:52.107990 21921 net.cpp:372] inception_5a/5x5 <- inception_5a/5x5_reduce
I0509 22:49:52.108000 21921 net.cpp:334] inception_5a/5x5 -> inception_5a/5x5
I0509 22:49:52.108010 21921 net.cpp:105] Setting up inception_5a/5x5
I0509 22:49:52.108881 21921 net.cpp:112] Top shape: 32 128 7 7 (200704)
I0509 22:49:52.108896 21921 layer_factory.hpp:74] Creating layer inception_5a/relu_5x5
I0509 22:49:52.108904 21921 net.cpp:76] Creating Layer inception_5a/relu_5x5
I0509 22:49:52.108911 21921 net.cpp:372] inception_5a/relu_5x5 <- inception_5a/5x5
I0509 22:49:52.108921 21921 net.cpp:323] inception_5a/relu_5x5 -> inception_5a/5x5 (in-place)
I0509 22:49:52.108928 21921 net.cpp:105] Setting up inception_5a/relu_5x5
I0509 22:49:52.108966 21921 net.cpp:112] Top shape: 32 128 7 7 (200704)
I0509 22:49:52.108973 21921 layer_factory.hpp:74] Creating layer inception_5a/pool
I0509 22:49:52.108983 21921 net.cpp:76] Creating Layer inception_5a/pool
I0509 22:49:52.108989 21921 net.cpp:372] inception_5a/pool <- pool4/3x3_s2_pool4/3x3_s2_0_split_3
I0509 22:49:52.108997 21921 net.cpp:334] inception_5a/pool -> inception_5a/pool
I0509 22:49:52.109006 21921 net.cpp:105] Setting up inception_5a/pool
I0509 22:49:52.109014 21921 net.cpp:112] Top shape: 32 832 7 7 (1304576)
I0509 22:49:52.109020 21921 layer_factory.hpp:74] Creating layer inception_5a/pool_proj
I0509 22:49:52.109032 21921 net.cpp:76] Creating Layer inception_5a/pool_proj
I0509 22:49:52.109038 21921 net.cpp:372] inception_5a/pool_proj <- inception_5a/pool
I0509 22:49:52.109046 21921 net.cpp:334] inception_5a/pool_proj -> inception_5a/pool_proj
I0509 22:49:52.109055 21921 net.cpp:105] Setting up inception_5a/pool_proj
I0509 22:49:52.109990 21921 net.cpp:112] Top shape: 32 128 7 7 (200704)
I0509 22:49:52.110008 21921 layer_factory.hpp:74] Creating layer inception_5a/relu_pool_proj
I0509 22:49:52.110018 21921 net.cpp:76] Creating Layer inception_5a/relu_pool_proj
I0509 22:49:52.110025 21921 net.cpp:372] inception_5a/relu_pool_proj <- inception_5a/pool_proj
I0509 22:49:52.110033 21921 net.cpp:323] inception_5a/relu_pool_proj -> inception_5a/pool_proj (in-place)
I0509 22:49:52.110041 21921 net.cpp:105] Setting up inception_5a/relu_pool_proj
I0509 22:49:52.110047 21921 net.cpp:112] Top shape: 32 128 7 7 (200704)
I0509 22:49:52.110052 21921 layer_factory.hpp:74] Creating layer inception_5a/output
I0509 22:49:52.110060 21921 net.cpp:76] Creating Layer inception_5a/output
I0509 22:49:52.110066 21921 net.cpp:372] inception_5a/output <- inception_5a/1x1
I0509 22:49:52.110072 21921 net.cpp:372] inception_5a/output <- inception_5a/3x3
I0509 22:49:52.110080 21921 net.cpp:372] inception_5a/output <- inception_5a/5x5
I0509 22:49:52.110085 21921 net.cpp:372] inception_5a/output <- inception_5a/pool_proj
I0509 22:49:52.110092 21921 net.cpp:334] inception_5a/output -> inception_5a/output
I0509 22:49:52.110101 21921 net.cpp:105] Setting up inception_5a/output
I0509 22:49:52.110107 21921 net.cpp:112] Top shape: 32 832 7 7 (1304576)
I0509 22:49:52.110113 21921 layer_factory.hpp:74] Creating layer inception_5a/output_inception_5a/output_0_split
I0509 22:49:52.110124 21921 net.cpp:76] Creating Layer inception_5a/output_inception_5a/output_0_split
I0509 22:49:52.110131 21921 net.cpp:372] inception_5a/output_inception_5a/output_0_split <- inception_5a/output
I0509 22:49:52.110138 21921 net.cpp:334] inception_5a/output_inception_5a/output_0_split -> inception_5a/output_inception_5a/output_0_split_0
I0509 22:49:52.110148 21921 net.cpp:334] inception_5a/output_inception_5a/output_0_split -> inception_5a/output_inception_5a/output_0_split_1
I0509 22:49:52.110157 21921 net.cpp:334] inception_5a/output_inception_5a/output_0_split -> inception_5a/output_inception_5a/output_0_split_2
I0509 22:49:52.110170 21921 net.cpp:334] inception_5a/output_inception_5a/output_0_split -> inception_5a/output_inception_5a/output_0_split_3
I0509 22:49:52.110179 21921 net.cpp:105] Setting up inception_5a/output_inception_5a/output_0_split
I0509 22:49:52.110187 21921 net.cpp:112] Top shape: 32 832 7 7 (1304576)
I0509 22:49:52.110193 21921 net.cpp:112] Top shape: 32 832 7 7 (1304576)
I0509 22:49:52.110198 21921 net.cpp:112] Top shape: 32 832 7 7 (1304576)
I0509 22:49:52.110203 21921 net.cpp:112] Top shape: 32 832 7 7 (1304576)
I0509 22:49:52.110208 21921 layer_factory.hpp:74] Creating layer inception_5b/1x1
I0509 22:49:52.110216 21921 net.cpp:76] Creating Layer inception_5b/1x1
I0509 22:49:52.110222 21921 net.cpp:372] inception_5b/1x1 <- inception_5a/output_inception_5a/output_0_split_0
I0509 22:49:52.110234 21921 net.cpp:334] inception_5b/1x1 -> inception_5b/1x1
I0509 22:49:52.110242 21921 net.cpp:105] Setting up inception_5b/1x1
I0509 22:49:52.112931 21921 net.cpp:112] Top shape: 32 384 7 7 (602112)
I0509 22:49:52.112948 21921 layer_factory.hpp:74] Creating layer inception_5b/relu_1x1
I0509 22:49:52.112977 21921 net.cpp:76] Creating Layer inception_5b/relu_1x1
I0509 22:49:52.113009 21921 net.cpp:372] inception_5b/relu_1x1 <- inception_5b/1x1
I0509 22:49:52.113018 21921 net.cpp:323] inception_5b/relu_1x1 -> inception_5b/1x1 (in-place)
I0509 22:49:52.113029 21921 net.cpp:105] Setting up inception_5b/relu_1x1
I0509 22:49:52.113034 21921 net.cpp:112] Top shape: 32 384 7 7 (602112)
I0509 22:49:52.113040 21921 layer_factory.hpp:74] Creating layer inception_5b/3x3_reduce
I0509 22:49:52.113051 21921 net.cpp:76] Creating Layer inception_5b/3x3_reduce
I0509 22:49:52.113059 21921 net.cpp:372] inception_5b/3x3_reduce <- inception_5a/output_inception_5a/output_0_split_1
I0509 22:49:52.113068 21921 net.cpp:334] inception_5b/3x3_reduce -> inception_5b/3x3_reduce
I0509 22:49:52.113078 21921 net.cpp:105] Setting up inception_5b/3x3_reduce
I0509 22:49:52.114441 21921 net.cpp:112] Top shape: 32 192 7 7 (301056)
I0509 22:49:52.114459 21921 layer_factory.hpp:74] Creating layer inception_5b/relu_3x3_reduce
I0509 22:49:52.114469 21921 net.cpp:76] Creating Layer inception_5b/relu_3x3_reduce
I0509 22:49:52.114476 21921 net.cpp:372] inception_5b/relu_3x3_reduce <- inception_5b/3x3_reduce
I0509 22:49:52.114483 21921 net.cpp:323] inception_5b/relu_3x3_reduce -> inception_5b/3x3_reduce (in-place)
I0509 22:49:52.114492 21921 net.cpp:105] Setting up inception_5b/relu_3x3_reduce
I0509 22:49:52.114497 21921 net.cpp:112] Top shape: 32 192 7 7 (301056)
I0509 22:49:52.114503 21921 layer_factory.hpp:74] Creating layer inception_5b/3x3
I0509 22:49:52.114516 21921 net.cpp:76] Creating Layer inception_5b/3x3
I0509 22:49:52.114521 21921 net.cpp:372] inception_5b/3x3 <- inception_5b/3x3_reduce
I0509 22:49:52.114533 21921 net.cpp:334] inception_5b/3x3 -> inception_5b/3x3
I0509 22:49:52.114562 21921 net.cpp:105] Setting up inception_5b/3x3
I0509 22:49:52.120126 21921 net.cpp:112] Top shape: 32 384 7 7 (602112)
I0509 22:49:52.120159 21921 layer_factory.hpp:74] Creating layer inception_5b/relu_3x3
I0509 22:49:52.120172 21921 net.cpp:76] Creating Layer inception_5b/relu_3x3
I0509 22:49:52.120179 21921 net.cpp:372] inception_5b/relu_3x3 <- inception_5b/3x3
I0509 22:49:52.120187 21921 net.cpp:323] inception_5b/relu_3x3 -> inception_5b/3x3 (in-place)
I0509 22:49:52.120199 21921 net.cpp:105] Setting up inception_5b/relu_3x3
I0509 22:49:52.120206 21921 net.cpp:112] Top shape: 32 384 7 7 (602112)
I0509 22:49:52.120213 21921 layer_factory.hpp:74] Creating layer inception_5b/5x5_reduce
I0509 22:49:52.120223 21921 net.cpp:76] Creating Layer inception_5b/5x5_reduce
I0509 22:49:52.120229 21921 net.cpp:372] inception_5b/5x5_reduce <- inception_5a/output_inception_5a/output_0_split_2
I0509 22:49:52.120240 21921 net.cpp:334] inception_5b/5x5_reduce -> inception_5b/5x5_reduce
I0509 22:49:52.120250 21921 net.cpp:105] Setting up inception_5b/5x5_reduce
I0509 22:49:52.120612 21921 net.cpp:112] Top shape: 32 48 7 7 (75264)
I0509 22:49:52.120626 21921 layer_factory.hpp:74] Creating layer inception_5b/relu_5x5_reduce
I0509 22:49:52.120635 21921 net.cpp:76] Creating Layer inception_5b/relu_5x5_reduce
I0509 22:49:52.120640 21921 net.cpp:372] inception_5b/relu_5x5_reduce <- inception_5b/5x5_reduce
I0509 22:49:52.120651 21921 net.cpp:323] inception_5b/relu_5x5_reduce -> inception_5b/5x5_reduce (in-place)
I0509 22:49:52.120659 21921 net.cpp:105] Setting up inception_5b/relu_5x5_reduce
I0509 22:49:52.120666 21921 net.cpp:112] Top shape: 32 48 7 7 (75264)
I0509 22:49:52.120671 21921 layer_factory.hpp:74] Creating layer inception_5b/5x5
I0509 22:49:52.120681 21921 net.cpp:76] Creating Layer inception_5b/5x5
I0509 22:49:52.120687 21921 net.cpp:372] inception_5b/5x5 <- inception_5b/5x5_reduce
I0509 22:49:52.120697 21921 net.cpp:334] inception_5b/5x5 -> inception_5b/5x5
I0509 22:49:52.120707 21921 net.cpp:105] Setting up inception_5b/5x5
I0509 22:49:52.122012 21921 net.cpp:112] Top shape: 32 128 7 7 (200704)
I0509 22:49:52.122031 21921 layer_factory.hpp:74] Creating layer inception_5b/relu_5x5
I0509 22:49:52.122040 21921 net.cpp:76] Creating Layer inception_5b/relu_5x5
I0509 22:49:52.123035 21921 net.cpp:372] inception_5b/relu_5x5 <- inception_5b/5x5
I0509 22:49:52.123052 21921 net.cpp:323] inception_5b/relu_5x5 -> inception_5b/5x5 (in-place)
I0509 22:49:52.123062 21921 net.cpp:105] Setting up inception_5b/relu_5x5
I0509 22:49:52.123070 21921 net.cpp:112] Top shape: 32 128 7 7 (200704)
I0509 22:49:52.123075 21921 layer_factory.hpp:74] Creating layer inception_5b/pool
I0509 22:49:52.123085 21921 net.cpp:76] Creating Layer inception_5b/pool
I0509 22:49:52.123091 21921 net.cpp:372] inception_5b/pool <- inception_5a/output_inception_5a/output_0_split_3
I0509 22:49:52.123105 21921 net.cpp:334] inception_5b/pool -> inception_5b/pool
I0509 22:49:52.123116 21921 net.cpp:105] Setting up inception_5b/pool
I0509 22:49:52.123124 21921 net.cpp:112] Top shape: 32 832 7 7 (1304576)
I0509 22:49:52.123131 21921 layer_factory.hpp:74] Creating layer inception_5b/pool_proj
I0509 22:49:52.123141 21921 net.cpp:76] Creating Layer inception_5b/pool_proj
I0509 22:49:52.123147 21921 net.cpp:372] inception_5b/pool_proj <- inception_5b/pool
I0509 22:49:52.123157 21921 net.cpp:334] inception_5b/pool_proj -> inception_5b/pool_proj
I0509 22:49:52.123169 21921 net.cpp:105] Setting up inception_5b/pool_proj
I0509 22:49:52.124148 21921 net.cpp:112] Top shape: 32 128 7 7 (200704)
I0509 22:49:52.124171 21921 layer_factory.hpp:74] Creating layer inception_5b/relu_pool_proj
I0509 22:49:52.124182 21921 net.cpp:76] Creating Layer inception_5b/relu_pool_proj
I0509 22:49:52.124189 21921 net.cpp:372] inception_5b/relu_pool_proj <- inception_5b/pool_proj
I0509 22:49:52.124197 21921 net.cpp:323] inception_5b/relu_pool_proj -> inception_5b/pool_proj (in-place)
I0509 22:49:52.124205 21921 net.cpp:105] Setting up inception_5b/relu_pool_proj
I0509 22:49:52.124212 21921 net.cpp:112] Top shape: 32 128 7 7 (200704)
I0509 22:49:52.124217 21921 layer_factory.hpp:74] Creating layer inception_5b/output
I0509 22:49:52.124245 21921 net.cpp:76] Creating Layer inception_5b/output
I0509 22:49:52.124253 21921 net.cpp:372] inception_5b/output <- inception_5b/1x1
I0509 22:49:52.124259 21921 net.cpp:372] inception_5b/output <- inception_5b/3x3
I0509 22:49:52.124266 21921 net.cpp:372] inception_5b/output <- inception_5b/5x5
I0509 22:49:52.124272 21921 net.cpp:372] inception_5b/output <- inception_5b/pool_proj
I0509 22:49:52.124280 21921 net.cpp:334] inception_5b/output -> inception_5b/output
I0509 22:49:52.124289 21921 net.cpp:105] Setting up inception_5b/output
I0509 22:49:52.124295 21921 net.cpp:112] Top shape: 32 1024 7 7 (1605632)
I0509 22:49:52.124301 21921 layer_factory.hpp:74] Creating layer pool5/7x7_s1
I0509 22:49:52.124310 21921 net.cpp:76] Creating Layer pool5/7x7_s1
I0509 22:49:52.124315 21921 net.cpp:372] pool5/7x7_s1 <- inception_5b/output
I0509 22:49:52.124323 21921 net.cpp:334] pool5/7x7_s1 -> pool5/7x7_s1
I0509 22:49:52.124332 21921 net.cpp:105] Setting up pool5/7x7_s1
I0509 22:49:52.124338 21921 net.cpp:112] Top shape: 32 1024 1 1 (32768)
I0509 22:49:52.124344 21921 layer_factory.hpp:74] Creating layer pool5/drop_7x7_s1
I0509 22:49:52.124356 21921 net.cpp:76] Creating Layer pool5/drop_7x7_s1
I0509 22:49:52.124361 21921 net.cpp:372] pool5/drop_7x7_s1 <- pool5/7x7_s1
I0509 22:49:52.124368 21921 net.cpp:323] pool5/drop_7x7_s1 -> pool5/7x7_s1 (in-place)
I0509 22:49:52.124377 21921 net.cpp:105] Setting up pool5/drop_7x7_s1
I0509 22:49:52.124383 21921 net.cpp:112] Top shape: 32 1024 1 1 (32768)
I0509 22:49:52.124389 21921 layer_factory.hpp:74] Creating layer loss3/classifier
I0509 22:49:52.124400 21921 net.cpp:76] Creating Layer loss3/classifier
I0509 22:49:52.124407 21921 net.cpp:372] loss3/classifier <- pool5/7x7_s1
I0509 22:49:52.124415 21921 net.cpp:334] loss3/classifier -> loss3/classifier
I0509 22:49:52.124424 21921 net.cpp:105] Setting up loss3/classifier
I0509 22:49:52.124456 21921 net.cpp:112] Top shape: 32 2 1 1 (64)
I0509 22:49:52.124466 21921 layer_factory.hpp:74] Creating layer loss3/loss3
I0509 22:49:52.124477 21921 net.cpp:76] Creating Layer loss3/loss3
I0509 22:49:52.124483 21921 net.cpp:372] loss3/loss3 <- loss3/classifier
I0509 22:49:52.124507 21921 net.cpp:372] loss3/loss3 <- label_data_1_split_2
I0509 22:49:52.124516 21921 net.cpp:334] loss3/loss3 -> loss3/loss3
I0509 22:49:52.124526 21921 net.cpp:105] Setting up loss3/loss3
I0509 22:49:52.124533 21921 layer_factory.hpp:74] Creating layer loss3/loss3
I0509 22:49:52.124550 21921 net.cpp:112] Top shape: 1 1 1 1 (1)
I0509 22:49:52.124557 21921 net.cpp:118]     with loss weight 1
I0509 22:49:52.124573 21921 net.cpp:163] loss3/loss3 needs backward computation.
I0509 22:49:52.124579 21921 net.cpp:163] loss3/classifier needs backward computation.
I0509 22:49:52.124584 21921 net.cpp:163] pool5/drop_7x7_s1 needs backward computation.
I0509 22:49:52.124589 21921 net.cpp:163] pool5/7x7_s1 needs backward computation.
…
I0509 22:49:52.133131 21921 solver.cpp:154] Creating test net (#0) specified by net file: ../../train_val.prototxt
I0509 22:49:52.133435 21921 net.cpp:253] The NetState phase (1) differed from the phase (0) specified by a rule in layer data
I0509 22:49:52.134838 21921 net.cpp:42] Initializing net from parameters: 
name: "GoogleNet"
state {
  phase: TEST
}
layer {
  name: "data"
  type: "Data"
  top: "data"
  top: "label"
  include {
    phase: TEST
  }
  transform_param {
    mirror: false
    crop_size: 224
    mean_value: 104
    mean_value: 117
    mean_value: 123
  }
  data_param {
    source: "val_lmdb"
    batch_size: 32
    backend: LMDB
  }
}
layer {
  name: "conv1/7x7_s2"
  type: "Convolution"
  bottom: "data"
  top: "conv1/7x7_s2"
  param {
    lr_mult: 1
    decay_mult: 1
  }
  param {
    lr_mult: 2
    decay_mult: 0
  }
  convolution_param {
    num_output: 64
    pad: 3
    kernel_size: 7
    stride: 2
    weight_filler {
      type: "xavier"
      std: 0.1
    }
    bias_filler {
      type: "constant"
      value: 0.2
    }
  }
}
layer {
  name: "conv1/relu_7x7"
  type: "ReLU"
  bottom: "conv1/7x7_s2"
  top: "conv1/7x7_s2"
}
layer {
  name: "pool1/3x3_s2"
  type: "Pooling"
  bottom: "conv1/7x7_s2"
  top: "pool1/3x3_s2"
  pooling_param {
    pool: MAX
    kernel_size: 3
    stride: 2
  }
}
layer {
  name: "pool1/norm1"
  type: "LRN"
  bottom: "pool1/3x3_s2"
  top: "pool1/norm1"
  lrn_param {
    local_size: 5
    alpha: 0.0001
    beta: 0.75
  }
}
layer {
  name: "conv2/3x3_reduce"
  type: "Convolution"
  bottom: "pool1/norm1"
  top: "conv2/3x3_reduce"
  param {
    lr_mult: 1
    decay_mult: 1
  }
  param {
    lr_mult: 2
    decay_mult: 0
  }
  convolution_param {
    num_output: 64
    kernel_size: 1
    weight_filler {
      type: "xavier"
      std: 0.1
    }
    bias_filler {
      type: "constant"
      value: 0.2
    }
  }
}
layer {
  name: "conv2/relu_3x3_reduce"
  type: "ReLU"
  bottom: "conv2/3x3_reduce"
  top: "conv2/3x3_reduce"
}
layer {
  name: "conv2/3x3"
  type: "Convolution"
  bottom: "conv2/3x3_reduce"
  top: "conv2/3x3"
  param {
    lr_mult: 1
    decay_mult: 1
  }
  param {
    lr_mult: 2
    decay_mult: 0
  }
  convolution_param {
    num_output: 192
    pad: 1
    kernel_size: 3
    weight_filler {
      type: "xavier"
      std: 0.03
    }
    bias_filler {
      type: "constant"
      value: 0.2
    }
  }
}
layer {
  name: "conv2/relu_3x3"
  type: "ReLU"
  bottom: "conv2/3x3"
  top: "conv2/3x3"
}
layer {
  name: "conv2/norm2"
  type: "LRN"
  bottom: "conv2/3x3"
  top: "conv2/norm2"
  lrn_param {
    local_size: 5
    alpha: 0.0001
    beta: 0.75
  }
}
layer {
  name: "pool2/3x3_s2"
  type: "Pooling"
  bottom: "conv2/norm2"
  top: "pool2/3x3_s2"
  pooling_param {
    pool: MAX
    kernel_size: 3
    stride: 2
  }
}
layer {
  name: "inception_3a/1x1"
  type: "Convolution"
  bottom: "pool2/3x3_s2"
  top: "inception_3a/1x1"
  param {
    lr_mult: 1
    decay_mult: 1
  }
  param {
    lr_mult: 2
    decay_mult: 0
  }
  convolution_param {
    num_output: 64
    kernel_size: 1
    weight_filler {
      type: "xavier"
      std: 0.03
    }
    bias_filler {
      type: "constant"
      value: 0.2
    }
  }
}
layer {
  name: "inception_3a/relu_1x1"
  type: "ReLU"
  bottom: "inception_3a/1x1"
  top: "inception_3a/1x1"
}
layer {
  name: "inception_3a/3x3_reduce"
  type: "Convolution"
  bottom: "pool2/3x3_s2"
  top: "inception_3a/3x3_reduce"
  param {
    lr_mult: 1
    decay_mult: 1
  }
  param {
    lr_mult: 2
    decay_mult: 0
  }
  convolution_param {
    num_output: 96
    kernel_size: 1
    weight_filler {
      type: "xavier"
      std: 0.09
    }
    bias_filler {
      type: "constant"
      value: 0.2
    }
  }
}
layer {
  name: "inception_3a/relu_3x3_reduce"
  type: "ReLU"
  bottom: "inception_3a/3x3_reduce"
  top: "inception_3a/3x3_reduce"
}
layer {
  name: "inception_3a/3x3"
  type: "Convolution"
  bottom: "inception_3a/3x3_reduce"
  top: "inception_3a/3x3"
  param {
    lr_mult: 1
    decay_mult: 1
  }
  param {
    lr_mult: 2
    decay_mult: 0
  }
  convolution_param {
    num_output: 128
    pad: 1
    kernel_size: 3
    weight_filler {
      type: "xavier"
      std: 0.03
    }
    bias_filler {
      type: "constant"
      value: 0.2
    }
  }
}
layer {
  name: "inception_3a/relu_3x3"
  type: "ReLU"
  bottom: "inception_3a/3x3"
  top: "inception_3a/3x3"
}
layer {
  name: "inception_3a/5x5_reduce"
  type: "Convolution"
  bottom: "pool2/3x3_s2"
  top: "inception_3a/5x5_reduce"
  param {
    lr_mult: 1
    decay_mult: 1
  }
  param {
    lr_mult: 2
    decay_mult: 0
  }
  convolution_param {
    num_output: 16
    kernel_size: 1
    weight_filler {
      type: "xavier"
      std: 0.2
    }
    bias_filler {
      type: "constant"
      value: 0.2
    }
  }
}
layer {
  name: "inception_3a/relu_5x5_reduce"
  type: "ReLU"
  bottom: "inception_3a/5x5_reduce"
  top: "inception_3a/5x5_reduce"
}
layer {
  name: "inception_3a/5x5"
  type: "Convolution"
  bottom: "inception_3a/5x5_reduce"
  top: "inception_3a/5x5"
  param {
    lr_mult: 1
    decay_mult: 1
  }
  param {
    lr_mult: 2
    decay_mult: 0
  }
  convolution_param {
    num_output: 32
    pad: 2
    kernel_size: 5
    weight_filler {
      type: "xavier"
      std: 0.03
    }
    bias_filler {
      type: "constant"
      value: 0.2
    }
  }
}
layer {
  name: "inception_3a/relu_5x5"
  type: "ReLU"
  bottom: "inception_3a/5x5"
  top: "inception_3a/5x5"
}
layer {
  name: "inception_3a/pool"
  type: "Pooling"
  bottom: "pool2/3x3_s2"
  top: "inception_3a/pool"
  pooling_param {
    pool: MAX
    kernel_size: 3
    stride: 1
    pad: 1
  }
}
layer {
  name: "inception_3a/pool_proj"
  type: "Convolution"
  bottom: "inception_3a/pool"
  top: "inception_3a/pool_proj"
  param {
    lr_mult: 1
    decay_mult: 1
  }
  param {
    lr_mult: 2
    decay_mult: 0
  }
  convolution_param {
    num_output: 32
    kernel_size: 1
    weight_filler {
      type: "xavier"
      std: 0.1
    }
    bias_filler {
      type: "constant"
      value: 0.2
    }
  }
}
layer {
  name: "inception_3a/relu_pool_proj"
  type: "ReLU"
  bottom: "inception_3a/pool_proj"
  top: "inception_3a/pool_proj"
}
layer {
  name: "inception_3a/output"
  type: "Concat"
  bottom: "inception_3a/1x1"
  bottom: "inception_3a/3x3"
  bottom: "inception_3a/5x5"
  bottom: "inception_3a/pool_proj"
  top: "inception_3a/output"
}
layer {
  name: "inception_3b/1x1"
  type: "Convolution"
  bottom: "inception_3a/output"
  top: "inception_3b/1x1"
  param {
    lr_mult: 1
    decay_mult: 1
  }
  param {
    lr_mult: 2
    decay_mult: 0
  }
  convolution_param {
    num_output: 128
    kernel_size: 1
    weight_filler {
      type: "xavier"
      std: 0.03
    }
    bias_filler {
      type: "constant"
      value: 0.2
    }
  }
}
layer {
  name: "inception_3b/relu_1x1"
  type: "ReLU"
  bottom: "inception_3b/1x1"
  top: "inception_3b/1x1"
}
layer {
  name: "inception_3b/3x3_reduce"
  type: "Convolution"
  bottom: "inception_3a/output"
  top: "inception_3b/3x3_reduce"
  param {
    lr_mult: 1
    decay_mult: 1
  }
  param {
    lr_mult: 2
    decay_mult: 0
  }
  convolution_param {
    num_output: 128
    kernel_size: 1
    weight_filler {
      type: "xavier"
      std: 0.09
    }
    bias_filler {
      type: "constant"
      value: 0.2
    }
  }
}
layer {
  name: "inception_3b/relu_3x3_reduce"
  type: "ReLU"
  bottom: "inception_3b/3x3_reduce"
  top: "inception_3b/3x3_reduce"
}
layer {
  name: "inception_3b/3x3"
  type: "Convolution"
  bottom: "inception_3b/3x3_reduce"
  top: "inception_3b/3x3"
  param {
    lr_mult: 1
    decay_mult: 1
  }
  param {
    lr_mult: 2
    decay_mult: 0
  }
  convolution_param {
    num_output: 192
    pad: 1
    kernel_size: 3
    weight_filler {
      type: "xavier"
      std: 0.03
    }
    bias_filler {
      type: "constant"
      value: 0.2
    }
  }
}
layer {
  name: "inception_3b/relu_3x3"
  type: "ReLU"
  bottom: "inception_3b/3x3"
  top: "inception_3b/3x3"
}
layer {
  name: "inception_3b/5x5_reduce"
  type: "Convolution"
  bottom: "inception_3a/output"
  top: "inception_3b/5x5_reduce"
  param {
    lr_mult: 1
    decay_mult: 1
  }
  param {
    lr_mult: 2
    decay_mult: 0
  }
  convolution_param {
    num_output: 32
    kernel_size: 1
    weight_filler {
      type: "xavier"
      std: 0.2
    }
    bias_filler {
      type: "constant"
      value: 0.2
    }
  }
}
layer {
  name: "inception_3b/relu_5x5_reduce"
  type: "ReLU"
  bottom: "inception_3b/5x5_reduce"
  top: "inception_3b/5x5_reduce"
}
layer {
  name: "inception_3b/5x5"
  type: "Convolution"
  bottom: "inception_3b/5x5_reduce"
  top: "inception_3b/5x5"
  param {
    lr_mult: 1
    decay_mult: 1
  }
  param {
    lr_mult: 2
    decay_mult: 0
  }
  convolution_param {
    num_output: 96
    pad: 2
    kernel_size: 5
    weight_filler {
      type: "xavier"
      std: 0.03
    }
    bias_filler {
      type: "constant"
      value: 0.2
    }
  }
}
layer {
  name: "inception_3b/relu_5x5"
  type: "ReLU"
  bottom: "inception_3b/5x5"
  top: "inception_3b/5x5"
}
layer {
  name: "inception_3b/pool"
  type: "Pooling"
  bottom: "inception_3a/output"
  top: "inception_3b/pool"
  pooling_param {
    pool: MAX
    kernel_size: 3
    stride: 1
    pad: 1
  }
}
layer {
  name: "inception_3b/pool_proj"
  type: "Convolution"
  bottom: "inception_3b/pool"
  top: "inception_3b/pool_proj"
  param {
    lr_mult: 1
    decay_mult: 1
  }
  param {
    lr_mult: 2
    decay_mult: 0
  }
  convolution_param {
    num_output: 64
    kernel_size: 1
    weight_filler {
      type: "xavier"
      std: 0.1
    }
    bias_filler {
      type: "constant"
      value: 0.2
    }
  }
}
layer {
  name: "inception_3b/relu_pool_proj"
  type: "ReLU"
  bottom: "inception_3b/pool_proj"
  top: "inception_3b/pool_proj"
}
layer {
  name: "inception_3b/output"
  type: "Concat"
  bottom: "inception_3b/1x1"
  bottom: "inception_3b/3x3"
  bottom: "inception_3b/5x5"
  bottom: "inception_3b/pool_proj"
  top: "inception_3b/output"
}
layer {
  name: "pool3/3x3_s2"
  type: "Pooling"
  bottom: "inception_3b/output"
  top: "pool3/3x3_s2"
  pooling_param {
    pool: MAX
    kernel_size: 3
    stride: 2
  }
}
layer {
  name: "inception_4a/1x1"
  type: "Convolution"
  bottom: "pool3/3x3_s2"
  top: "inception_4a/1x1"
  param {
    lr_mult: 1
    decay_mult: 1
  }
  param {
    lr_mult: 2
    decay_mult: 0
  }
  convolution_param {
    num_output: 192
    kernel_size: 1
    weight_filler {
      type: "xavier"
      std: 0.03
    }
    bias_filler {
      type: "constant"
      value: 0.2
    }
  }
}
layer {
  name: "inception_4a/relu_1x1"
  type: "ReLU"
  bottom: "inception_4a/1x1"
  top: "inception_4a/1x1"
}
layer {
  name: "inception_4a/3x3_reduce"
  type: "Convolution"
  bottom: "pool3/3x3_s2"
  top: "inception_4a/3x3_reduce"
  param {
    lr_mult: 1
    decay_mult: 1
  }
  param {
    lr_mult: 2
    decay_mult: 0
  }
  convolution_param {
    num_output: 96
    kernel_size: 1
    weight_filler {
      type: "xavier"
      std: 0.09
    }
    bias_filler {
      type: "constant"
      value: 0.2
    }
  }
}
layer {
  name: "inception_4a/relu_3x3_reduce"
  type: "ReLU"
  bottom: "inception_4a/3x3_reduce"
  top: "inception_4a/3x3_reduce"
}
layer {
  name: "inception_4a/3x3"
  type: "Convolution"
  bottom: "inception_4a/3x3_reduce"
  top: "inception_4a/3x3"
  param {
    lr_mult: 1
    decay_mult: 1
  }
  param {
    lr_mult: 2
    decay_mult: 0
  }
  convolution_param {
    num_output: 208
    pad: 1
    kernel_size: 3
    weight_filler {
      type: "xavier"
      std: 0.03
    }
    bias_filler {
      type: "constant"
      value: 0.2
    }
  }
}
layer {
  name: "inception_4a/relu_3x3"
  type: "ReLU"
  bottom: "inception_4a/3x3"
  top: "inception_4a/3x3"
}
layer {
  name: "inception_4a/5x5_reduce"
  type: "Convolution"
  bottom: "pool3/3x3_s2"
  top: "inception_4a/5x5_reduce"
  param {
    lr_mult: 1
    decay_mult: 1
  }
  param {
    lr_mult: 2
    decay_mult: 0
  }
  convolution_param {
    num_output: 16
    kernel_size: 1
    weight_filler {
      type: "xavier"
      std: 0.2
    }
    bias_filler {
      type: "constant"
      value: 0.2
    }
  }
}
layer {
  name: "inception_4a/relu_5x5_reduce"
  type: "ReLU"
  bottom: "inception_4a/5x5_reduce"
  top: "inception_4a/5x5_reduce"
}
layer {
  name: "inception_4a/5x5"
  type: "Convolution"
  bottom: "inception_4a/5x5_reduce"
  top: "inception_4a/5x5"
  param {
    lr_mult: 1
    decay_mult: 1
  }
  param {
    lr_mult: 2
    decay_mult: 0
  }
  convolution_param {
    num_output: 48
    pad: 2
    kernel_size: 5
    weight_filler {
      type: "xavier"
      std: 0.03
    }
    bias_filler {
      type: "constant"
      value: 0.2
    }
  }
}
layer {
  name: "inception_4a/relu_5x5"
  type: "ReLU"
  bottom: "inception_4a/5x5"
  top: "inception_4a/5x5"
}
layer {
  name: "inception_4a/pool"
  type: "Pooling"
  bottom: "pool3/3x3_s2"
  top: "inception_4a/pool"
  pooling_param {
    pool: MAX
    kernel_size: 3
    stride: 1
    pad: 1
  }
}
layer {
  name: "inception_4a/pool_proj"
  type: "Convolution"
  bottom: "inception_4a/pool"
  top: "inception_4a/pool_proj"
  param {
    lr_mult: 1
    decay_mult: 1
  }
  param {
    lr_mult: 2
    decay_mult: 0
  }
  convolution_param {
    num_output: 64
    kernel_size: 1
    weight_filler {
      type: "xavier"
      std: 0.1
    }
    bias_filler {
      type: "constant"
      value: 0.2
    }
  }
}
layer {
  name: "inception_4a/relu_pool_proj"
  type: "ReLU"
  bottom: "inception_4a/pool_proj"
  top: "inception_4a/pool_proj"
}
layer {
  name: "inception_4a/output"
  type: "Concat"
  bottom: "inception_4a/1x1"
  bottom: "inception_4a/3x3"
  bottom: "inception_4a/5x5"
  bottom: "inception_4a/pool_proj"
  top: "inception_4a/output"
}
layer {
  name: "loss1/ave_pool"
  type: "Pooling"
  bottom: "inception_4a/output"
  top: "loss1/ave_pool"
  pooling_param {
    pool: AVE
    kernel_size: 5
    stride: 3
  }
}
layer {
  name: "loss1/conv"
  type: "Convolution"
  bottom: "loss1/ave_pool"
  top: "loss1/conv"
  param {
    lr_mult: 1
    decay_mult: 1
  }
  param {
    lr_mult: 2
    decay_mult: 0
  }
  convolution_param {
    num_output: 128
    kernel_size: 1
    weight_filler {
      type: "xavier"
      std: 0.08
    }
    bias_filler {
      type: "constant"
      value: 0.2
    }
  }
}
layer {
  name: "loss1/relu_conv"
  type: "ReLU"
  bottom: "loss1/conv"
  top: "loss1/conv"
}
layer {
  name: "loss1/fc"
  type: "InnerProduct"
  bottom: "loss1/conv"
  top: "loss1/fc"
  param {
    lr_mult: 1
    decay_mult: 1
  }
  param {
    lr_mult: 2
    decay_mult: 0
  }
  inner_product_param {
    num_output: 1024
    weight_filler {
      type: "xavier"
      std: 0.02
    }
    bias_filler {
      type: "constant"
      value: 0.2
    }
  }
}
layer {
  name: "loss1/relu_fc"
  type: "ReLU"
  bottom: "loss1/fc"
  top: "loss1/fc"
}
layer {
  name: "loss1/drop_fc"
  type: "Dropout"
  bottom: "loss1/fc"
  top: "loss1/fc"
  dropout_param {
    dropout_ratio: 0.7
  }
}
layer {
  name: "loss1/classifier"
  type: "InnerProduct"
  bottom: "loss1/fc"
  top: "loss1/classifier"
  param {
    lr_mult: 1
    decay_mult: 1
  }
  param {
    lr_mult: 2
    decay_mult: 0
  }
  inner_product_param {
    num_output: 2
    weight_filler {
      type: "xavier"
      std: 0.0009765625
    }
    bias_filler {
      type: "constant"
      value: 0
    }
  }
}
layer {
  name: "loss1/loss"
  type: "SoftmaxWithLoss"
  bottom: "loss1/classifier"
  bottom: "label"
  top: "loss1/loss1"
  loss_weight: 0.3
}
layer {
  name: "loss1/top-1"
  type: "Accuracy"
  bottom: "loss1/classifier"
  bottom: "label"
  top: "loss1/top-1"
  include {
    phase: TEST
  }
}
layer {
  name: "inception_4b/1x1"
  type: "Convolution"
  bottom: "inception_4a/output"
  top: "inception_4b/1x1"
  param {
    lr_mult: 1
    decay_mult: 1
  }
  param {
    lr_mult: 2
    decay_mult: 0
  }
  convolution_param {
    num_output: 160
    kernel_size: 1
    weight_filler {
      type: "xavier"
      std: 0.03
    }
    bias_filler {
      type: "constant"
      value: 0.2
    }
  }
}
layer {
  name: "inception_4b/relu_1x1"
  type: "ReLU"
  bottom: "inception_4b/1x1"
  top: "inception_4b/1x1"
}
layer {
  name: "inception_4b/3x3_reduce"
  type: "Convolution"
  bottom: "inception_4a/output"
  top: "inception_4b/3x3_reduce"
  param {
    lr_mult: 1
    decay_mult: 1
  }
  param {
    lr_mult: 2
    decay_mult: 0
  }
  convolution_param {
    num_output: 112
    kernel_size: 1
    weight_filler {
      type: "xavier"
      std: 0.09
    }
    bias_filler {
      type: "constant"
      value: 0.2
    }
  }
}
layer {
  name: "inception_4b/relu_3x3_reduce"
  type: "ReLU"
  bottom: "inception_4b/3x3_reduce"
  top: "inception_4b/3x3_reduce"
}
layer {
  name: "inception_4b/3x3"
  type: "Convolution"
  bottom: "inception_4b/3x3_reduce"
  top: "inception_4b/3x3"
  param {
    lr_mult: 1
    decay_mult: 1
  }
  param {
    lr_mult: 2
    decay_mult: 0
  }
  convolution_param {
    num_output: 224
    pad: 1
    kernel_size: 3
    weight_filler {
      type: "xavier"
      std: 0.03
    }
    bias_filler {
      type: "constant"
      value: 0.2
    }
  }
}
layer {
  name: "inception_4b/relu_3x3"
  type: "ReLU"
  bottom: "inception_4b/3x3"
  top: "inception_4b/3x3"
}
layer {
  name: "inception_4b/5x5_reduce"
  type: "Convolution"
  bottom: "inception_4a/output"
  top: "inception_4b/5x5_reduce"
  param {
    lr_mult: 1
    decay_mult: 1
  }
  param {
    lr_mult: 2
    decay_mult: 0
  }
  convolution_param {
    num_output: 24
    kernel_size: 1
    weight_filler {
      type: "xavier"
      std: 0.2
    }
    bias_filler {
      type: "constant"
      value: 0.2
    }
  }
}
layer {
  name: "inception_4b/relu_5x5_reduce"
  type: "ReLU"
  bottom: "inception_4b/5x5_reduce"
  top: "inception_4b/5x5_reduce"
}
layer {
  name: "inception_4b/5x5"
  type: "Convolution"
  bottom: "inception_4b/5x5_reduce"
  top: "inception_4b/5x5"
  param {
    lr_mult: 1
    decay_mult: 1
  }
  param {
    lr_mult: 2
    decay_mult: 0
  }
  convolution_param {
    num_output: 64
    pad: 2
    kernel_size: 5
    weight_filler {
      type: "xavier"
      std: 0.03
    }
    bias_filler {
      type: "constant"
      value: 0.2
    }
  }
}
layer {
  name: "inception_4b/relu_5x5"
  type: "ReLU"
  bottom: "inception_4b/5x5"
  top: "inception_4b/5x5"
}
layer {
  name: "inception_4b/pool"
  type: "Pooling"
  bottom: "inception_4a/output"
  top: "inception_4b/pool"
  pooling_param {
    pool: MAX
    kernel_size: 3
    stride: 1
    pad: 1
  }
}
layer {
  name: "inception_4b/pool_proj"
  type: "Convolution"
  bottom: "inception_4b/pool"
  top: "inception_4b/pool_proj"
  param {
    lr_mult: 1
    decay_mult: 1
  }
  param {
    lr_mult: 2
    decay_mult: 0
  }
  convolution_param {
    num_output: 64
    kernel_size: 1
    weight_filler {
      type: "xavier"
      std: 0.1
    }
    bias_filler {
      type: "constant"
      value: 0.2
    }
  }
}
layer {
  name: "inception_4b/relu_pool_proj"
  type: "ReLU"
  bottom: "inception_4b/pool_proj"
  top: "inception_4b/pool_proj"
}
layer {
  name: "inception_4b/output"
  type: "Concat"
  bottom: "inception_4b/1x1"
  bottom: "inception_4b/3x3"
  bottom: "inception_4b/5x5"
  bottom: "inception_4b/pool_proj"
  top: "inception_4b/output"
}
layer {
  name: "inception_4c/1x1"
  type: "Convolution"
  bottom: "inception_4b/output"
  top: "inception_4c/1x1"
  param {
    lr_mult: 1
    decay_mult: 1
  }
  param {
    lr_mult: 2
    decay_mult: 0
  }
  convolution_param {
    num_output: 128
    kernel_size: 1
    weight_filler {
      type: "xavier"
      std: 0.03
    }
    bias_filler {
      type: "constant"
      value: 0.2
    }
  }
}
layer {
  name: "inception_4c/relu_1x1"
  type: "ReLU"
  bottom: "inception_4c/1x1"
  top: "inception_4c/1x1"
}
layer {
  name: "inception_4c/3x3_reduce"
  type: "Convolution"
  bottom: "inception_4b/output"
  top: "inception_4c/3x3_reduce"
  param {
    lr_mult: 1
    decay_mult: 1
  }
  param {
    lr_mult: 2
    decay_mult: 0
  }
  convolution_param {
    num_output: 128
    kernel_size: 1
    weight_filler {
      type: "xavier"
      std: 0.09
    }
    bias_filler {
      type: "constant"
      value: 0.2
    }
  }
}
layer {
  name: "inception_4c/relu_3x3_reduce"
  type: "ReLU"
  bottom: "inception_4c/3x3_reduce"
  top: "inception_4c/3x3_reduce"
}
layer {
  name: "inception_4c/3x3"
  type: "Convolution"
  bottom: "inception_4c/3x3_reduce"
  top: "inception_4c/3x3"
  param {
    lr_mult: 1
    decay_mult: 1
  }
  param {
    lr_mult: 2
    decay_mult: 0
  }
  convolution_param {
    num_output: 256
    pad: 1
    kernel_size: 3
    weight_filler {
      type: "xavier"
      std: 0.03
    }
    bias_filler {
      type: "constant"
      value: 0.2
    }
  }
}
layer {
  name: "inception_4c/relu_3x3"
  type: "ReLU"
  bottom: "inception_4c/3x3"
  top: "inception_4c/3x3"
}
layer {
  name: "inception_4c/5x5_reduce"
  type: "Convolution"
  bottom: "inception_4b/output"
  top: "inception_4c/5x5_reduce"
  param {
    lr_mult: 1
    decay_mult: 1
  }
  param {
    lr_mult: 2
    decay_mult: 0
  }
  convolution_param {
    num_output: 24
    kernel_size: 1
    weight_filler {
      type: "xavier"
      std: 0.2
    }
    bias_filler {
      type: "constant"
      value: 0.2
    }
  }
}
layer {
  name: "inception_4c/relu_5x5_reduce"
  type: "ReLU"
  bottom: "inception_4c/5x5_reduce"
  top: "inception_4c/5x5_reduce"
}
layer {
  name: "inception_4c/5x5"
  type: "Convolution"
  bottom: "inception_4c/5x5_reduce"
  top: "inception_4c/5x5"
  param {
    lr_mult: 1
    decay_mult: 1
  }
  param {
    lr_mult: 2
    decay_mult: 0
  }
  convolution_param {
    num_output: 64
    pad: 2
    kernel_size: 5
    weight_filler {
      type: "xavier"
      std: 0.03
    }
    bias_filler {
      type: "constant"
      value: 0.2
    }
  }
}
layer {
  name: "inception_4c/relu_5x5"
  type: "ReLU"
  bottom: "inception_4c/5x5"
  top: "inception_4c/5x5"
}
layer {
  name: "inception_4c/pool"
  type: "Pooling"
  bottom: "inception_4b/output"
  top: "inception_4c/pool"
  pooling_param {
    pool: MAX
    kernel_size: 3
    stride: 1
    pad: 1
  }
}
layer {
  name: "inception_4c/pool_proj"
  type: "Convolution"
  bottom: "inception_4c/pool"
  top: "inception_4c/pool_proj"
  param {
    lr_mult: 1
    decay_mult: 1
  }
  param {
    lr_mult: 2
    decay_mult: 0
  }
  convolution_param {
    num_output: 64
    kernel_size: 1
    weight_filler {
      type: "xavier"
      std: 0.1
    }
    bias_filler {
      type: "constant"
      value: 0.2
    }
  }
}
layer {
  name: "inception_4c/relu_pool_proj"
  type: "ReLU"
  bottom: "inception_4c/pool_proj"
  top: "inception_4c/pool_proj"
}
layer {
  name: "inception_4c/output"
  type: "Concat"
  bottom: "inception_4c/1x1"
  bottom: "inception_4c/3x3"
  bottom: "inception_4c/5x5"
  bottom: "inception_4c/pool_proj"
  top: "inception_4c/output"
}
layer {
  name: "inception_4d/1x1"
  type: "Convolution"
  bottom: "inception_4c/output"
  top: "inception_4d/1x1"
  param {
    lr_mult: 1
    decay_mult: 1
  }
  param {
    lr_mult: 2
    decay_mult: 0
  }
  convolution_param {
    num_output: 112
    kernel_size: 1
    weight_filler {
      type: "xavier"
      std: 0.03
    }
    bias_filler {
      type: "constant"
      value: 0.2
    }
  }
}
layer {
  name: "inception_4d/relu_1x1"
  type: "ReLU"
  bottom: "inception_4d/1x1"
  top: "inception_4d/1x1"
}
layer {
  name: "inception_4d/3x3_reduce"
  type: "Convolution"
  bottom: "inception_4c/output"
  top: "inception_4d/3x3_reduce"
  param {
    lr_mult: 1
    decay_mult: 1
  }
  param {
    lr_mult: 2
    decay_mult: 0
  }
  convolution_param {
    num_output: 144
    kernel_size: 1
    weight_filler {
      type: "xavier"
      std: 0.09
    }
    bias_filler {
      type: "constant"
      value: 0.2
    }
  }
}
layer {
  name: "inception_4d/relu_3x3_reduce"
  type: "ReLU"
  bottom: "inception_4d/3x3_reduce"
  top: "inception_4d/3x3_reduce"
}
layer {
  name: "inception_4d/3x3"
  type: "Convolution"
  bottom: "inception_4d/3x3_reduce"
  top: "inception_4d/3x3"
  param {
    lr_mult: 1
    decay_mult: 1
  }
  param {
    lr_mult: 2
    decay_mult: 0
  }
  convolution_param {
    num_output: 288
    pad: 1
    kernel_size: 3
    weight_filler {
      type: "xavier"
      std: 0.03
    }
    bias_filler {
      type: "constant"
      value: 0.2
    }
  }
}
layer {
  name: "inception_4d/relu_3x3"
  type: "ReLU"
  bottom: "inception_4d/3x3"
  top: "inception_4d/3x3"
}
layer {
  name: "inception_4d/5x5_reduce"
  type: "Convolution"
  bottom: "inception_4c/output"
  top: "inception_4d/5x5_reduce"
  param {
    lr_mult: 1
    decay_mult: 1
  }
  param {
    lr_mult: 2
    decay_mult: 0
  }
  convolution_param {
    num_output: 32
    kernel_size: 1
    weight_filler {
      type: "xavier"
      std: 0.2
    }
    bias_filler {
      type: "constant"
      value: 0.2
    }
  }
}
layer {
  name: "inception_4d/relu_5x5_reduce"
  type: "ReLU"
  bottom: "inception_4d/5x5_reduce"
  top: "inception_4d/5x5_reduce"
}
layer {
  name: "inception_4d/5x5"
  type: "Convolution"
  bottom: "inception_4d/5x5_reduce"
  top: "inception_4d/5x5"
  param {
    lr_mult: 1
    decay_mult: 1
  }
  param {
    lr_mult: 2
    decay_mult: 0
  }
  convolution_param {
    num_output: 64
    pad: 2
    kernel_size: 5
    weight_filler {
      type: "xavier"
      std: 0.03
    }
    bias_filler {
      type: "constant"
      value: 0.2
    }
  }
}
layer {
  name: "inception_4d/relu_5x5"
  type: "ReLU"
  bottom: "inception_4d/5x5"
  top: "inception_4d/5x5"
}
layer {
  name: "inception_4d/pool"
  type: "Pooling"
  bottom: "inception_4c/output"
  top: "inception_4d/pool"
  pooling_param {
    pool: MAX
    kernel_size: 3
    stride: 1
    pad: 1
  }
}
layer {
  name: "inception_4d/pool_proj"
  type: "Convolution"
  bottom: "inception_4d/pool"
  top: "inception_4d/pool_proj"
  param {
    lr_mult: 1
    decay_mult: 1
  }
  param {
    lr_mult: 2
    decay_mult: 0
  }
  convolution_param {
    num_output: 64
    kernel_size: 1
    weight_filler {
      type: "xavier"
      std: 0.1
    }
    bias_filler {
      type: "constant"
      value: 0.2
    }
  }
}
layer {
  name: "inception_4d/relu_pool_proj"
  type: "ReLU"
  bottom: "inception_4d/pool_proj"
  top: "inception_4d/pool_proj"
}
layer {
  name: "inception_4d/output"
  type: "Concat"
  bottom: "inception_4d/1x1"
  bottom: "inception_4d/3x3"
  bottom: "inception_4d/5x5"
  bottom: "inception_4d/pool_proj"
  top: "inception_4d/output"
}
layer {
  name: "loss2/ave_pool"
  type: "Pooling"
  bottom: "inception_4d/output"
  top: "loss2/ave_pool"
  pooling_param {
    pool: AVE
    kernel_size: 5
    stride: 3
  }
}
layer {
  name: "loss2/conv"
  type: "Convolution"
  bottom: "loss2/ave_pool"
  top: "loss2/conv"
  param {
    lr_mult: 1
    decay_mult: 1
  }
  param {
    lr_mult: 2
    decay_mult: 0
  }
  convolution_param {
    num_output: 128
    kernel_size: 1
    weight_filler {
      type: "xavier"
      std: 0.08
    }
    bias_filler {
      type: "constant"
      value: 0.2
    }
  }
}
layer {
  name: "loss2/relu_conv"
  type: "ReLU"
  bottom: "loss2/conv"
  top: "loss2/conv"
}
layer {
  name: "loss2/fc"
  type: "InnerProduct"
…
I0509 22:49:52.188735 21921 net.cpp:112] Top shape: 32 128 14 14 (802816)
I0509 22:49:52.188762 21921 layer_factory.hpp:74] Creating layer inception_4c/relu_1x1
I0509 22:49:52.188784 21921 net.cpp:76] Creating Layer inception_4c/relu_1x1
I0509 22:49:52.188797 21921 net.cpp:372] inception_4c/relu_1x1 <- inception_4c/1x1
I0509 22:49:52.188808 21921 net.cpp:323] inception_4c/relu_1x1 -> inception_4c/1x1 (in-place)
I0509 22:49:52.188823 21921 net.cpp:105] Setting up inception_4c/relu_1x1
I0509 22:49:52.188835 21921 net.cpp:112] Top shape: 32 128 14 14 (802816)
I0509 22:49:52.188873 21921 layer_factory.hpp:74] Creating layer inception_4c/3x3_reduce
I0509 22:49:52.188884 21921 net.cpp:76] Creating Layer inception_4c/3x3_reduce
I0509 22:49:52.188891 21921 net.cpp:372] inception_4c/3x3_reduce <- inception_4b/output_inception_4b/output_0_split_1
I0509 22:49:52.188904 21921 net.cpp:334] inception_4c/3x3_reduce -> inception_4c/3x3_reduce
I0509 22:49:52.188913 21921 net.cpp:105] Setting up inception_4c/3x3_reduce
I0509 22:49:52.189549 21921 net.cpp:112] Top shape: 32 128 14 14 (802816)
I0509 22:49:52.189569 21921 layer_factory.hpp:74] Creating layer inception_4c/relu_3x3_reduce
I0509 22:49:52.189579 21921 net.cpp:76] Creating Layer inception_4c/relu_3x3_reduce
I0509 22:49:52.189586 21921 net.cpp:372] inception_4c/relu_3x3_reduce <- inception_4c/3x3_reduce
I0509 22:49:52.189600 21921 net.cpp:323] inception_4c/relu_3x3_reduce -> inception_4c/3x3_reduce (in-place)
I0509 22:49:52.189611 21921 net.cpp:105] Setting up inception_4c/relu_3x3_reduce
I0509 22:49:52.189618 21921 net.cpp:112] Top shape: 32 128 14 14 (802816)
I0509 22:49:52.189623 21921 layer_factory.hpp:74] Creating layer inception_4c/3x3
I0509 22:49:52.189636 21921 net.cpp:76] Creating Layer inception_4c/3x3
I0509 22:49:52.189643 21921 net.cpp:372] inception_4c/3x3 <- inception_4c/3x3_reduce
I0509 22:49:52.189653 21921 net.cpp:334] inception_4c/3x3 -> inception_4c/3x3
I0509 22:49:52.189662 21921 net.cpp:105] Setting up inception_4c/3x3
I0509 22:49:52.192256 21921 net.cpp:112] Top shape: 32 256 14 14 (1605632)
I0509 22:49:52.192308 21921 layer_factory.hpp:74] Creating layer inception_4c/relu_3x3
I0509 22:49:52.192320 21921 net.cpp:76] Creating Layer inception_4c/relu_3x3
I0509 22:49:52.192327 21921 net.cpp:372] inception_4c/relu_3x3 <- inception_4c/3x3
I0509 22:49:52.192337 21921 net.cpp:323] inception_4c/relu_3x3 -> inception_4c/3x3 (in-place)
I0509 22:49:52.192344 21921 net.cpp:105] Setting up inception_4c/relu_3x3
I0509 22:49:52.192350 21921 net.cpp:112] Top shape: 32 256 14 14 (1605632)
I0509 22:49:52.192356 21921 layer_factory.hpp:74] Creating layer inception_4c/5x5_reduce
I0509 22:49:52.192368 21921 net.cpp:76] Creating Layer inception_4c/5x5_reduce
I0509 22:49:52.192375 21921 net.cpp:372] inception_4c/5x5_reduce <- inception_4b/output_inception_4b/output_0_split_2
I0509 22:49:52.192386 21921 net.cpp:334] inception_4c/5x5_reduce -> inception_4c/5x5_reduce
I0509 22:49:52.192396 21921 net.cpp:105] Setting up inception_4c/5x5_reduce
I0509 22:49:52.192529 21921 net.cpp:112] Top shape: 32 24 14 14 (150528)
I0509 22:49:52.192553 21921 layer_factory.hpp:74] Creating layer inception_4c/relu_5x5_reduce
I0509 22:49:52.192570 21921 net.cpp:76] Creating Layer inception_4c/relu_5x5_reduce
I0509 22:49:52.192582 21921 net.cpp:372] inception_4c/relu_5x5_reduce <- inception_4c/5x5_reduce
I0509 22:49:52.192605 21921 net.cpp:323] inception_4c/relu_5x5_reduce -> inception_4c/5x5_reduce (in-place)
I0509 22:49:52.192616 21921 net.cpp:105] Setting up inception_4c/relu_5x5_reduce
I0509 22:49:52.192622 21921 net.cpp:112] Top shape: 32 24 14 14 (150528)
I0509 22:49:52.192628 21921 layer_factory.hpp:74] Creating layer inception_4c/5x5
I0509 22:49:52.192637 21921 net.cpp:76] Creating Layer inception_4c/5x5
I0509 22:49:52.192643 21921 net.cpp:372] inception_4c/5x5 <- inception_4c/5x5_reduce
I0509 22:49:52.192653 21921 net.cpp:334] inception_4c/5x5 -> inception_4c/5x5
I0509 22:49:52.192663 21921 net.cpp:105] Setting up inception_4c/5x5
I0509 22:49:52.192997 21921 net.cpp:112] Top shape: 32 64 14 14 (401408)
I0509 22:49:52.193011 21921 layer_factory.hpp:74] Creating layer inception_4c/relu_5x5
I0509 22:49:52.193018 21921 net.cpp:76] Creating Layer inception_4c/relu_5x5
I0509 22:49:52.193024 21921 net.cpp:372] inception_4c/relu_5x5 <- inception_4c/5x5
I0509 22:49:52.193032 21921 net.cpp:323] inception_4c/relu_5x5 -> inception_4c/5x5 (in-place)
I0509 22:49:52.193039 21921 net.cpp:105] Setting up inception_4c/relu_5x5
I0509 22:49:52.193044 21921 net.cpp:112] Top shape: 32 64 14 14 (401408)
I0509 22:49:52.193050 21921 layer_factory.hpp:74] Creating layer inception_4c/pool
I0509 22:49:52.193089 21921 net.cpp:76] Creating Layer inception_4c/pool
I0509 22:49:52.193096 21921 net.cpp:372] inception_4c/pool <- inception_4b/output_inception_4b/output_0_split_3
I0509 22:49:52.193104 21921 net.cpp:334] inception_4c/pool -> inception_4c/pool
I0509 22:49:52.193114 21921 net.cpp:105] Setting up inception_4c/pool
I0509 22:49:52.193121 21921 net.cpp:112] Top shape: 32 512 14 14 (3211264)
I0509 22:49:52.193127 21921 layer_factory.hpp:74] Creating layer inception_4c/pool_proj
I0509 22:49:52.193138 21921 net.cpp:76] Creating Layer inception_4c/pool_proj
I0509 22:49:52.193145 21921 net.cpp:372] inception_4c/pool_proj <- inception_4c/pool
I0509 22:49:52.193153 21921 net.cpp:334] inception_4c/pool_proj -> inception_4c/pool_proj
I0509 22:49:52.193162 21921 net.cpp:105] Setting up inception_4c/pool_proj
I0509 22:49:52.193457 21921 net.cpp:112] Top shape: 32 64 14 14 (401408)
I0509 22:49:52.193470 21921 layer_factory.hpp:74] Creating layer inception_4c/relu_pool_proj
I0509 22:49:52.193480 21921 net.cpp:76] Creating Layer inception_4c/relu_pool_proj
I0509 22:49:52.193485 21921 net.cpp:372] inception_4c/relu_pool_proj <- inception_4c/pool_proj
I0509 22:49:52.193495 21921 net.cpp:323] inception_4c/relu_pool_proj -> inception_4c/pool_proj (in-place)
I0509 22:49:52.193502 21921 net.cpp:105] Setting up inception_4c/relu_pool_proj
I0509 22:49:52.193508 21921 net.cpp:112] Top shape: 32 64 14 14 (401408)
I0509 22:49:52.193513 21921 layer_factory.hpp:74] Creating layer inception_4c/output
I0509 22:49:52.193521 21921 net.cpp:76] Creating Layer inception_4c/output
I0509 22:49:52.193527 21921 net.cpp:372] inception_4c/output <- inception_4c/1x1
I0509 22:49:52.193534 21921 net.cpp:372] inception_4c/output <- inception_4c/3x3
I0509 22:49:52.193541 21921 net.cpp:372] inception_4c/output <- inception_4c/5x5
I0509 22:49:52.193547 21921 net.cpp:372] inception_4c/output <- inception_4c/pool_proj
I0509 22:49:52.193554 21921 net.cpp:334] inception_4c/output -> inception_4c/output
I0509 22:49:52.193562 21921 net.cpp:105] Setting up inception_4c/output
I0509 22:49:52.193568 21921 net.cpp:112] Top shape: 32 512 14 14 (3211264)
I0509 22:49:52.193574 21921 layer_factory.hpp:74] Creating layer inception_4c/output_inception_4c/output_0_split
I0509 22:49:52.193583 21921 net.cpp:76] Creating Layer inception_4c/output_inception_4c/output_0_split
I0509 22:49:52.193588 21921 net.cpp:372] inception_4c/output_inception_4c/output_0_split <- inception_4c/output
I0509 22:49:52.193598 21921 net.cpp:334] inception_4c/output_inception_4c/output_0_split -> inception_4c/output_inception_4c/output_0_split_0
I0509 22:49:52.193608 21921 net.cpp:334] inception_4c/output_inception_4c/output_0_split -> inception_4c/output_inception_4c/output_0_split_1
I0509 22:49:52.193619 21921 net.cpp:334] inception_4c/output_inception_4c/output_0_split -> inception_4c/output_inception_4c/output_0_split_2
I0509 22:49:52.193627 21921 net.cpp:334] inception_4c/output_inception_4c/output_0_split -> inception_4c/output_inception_4c/output_0_split_3
I0509 22:49:52.193662 21921 net.cpp:105] Setting up inception_4c/output_inception_4c/output_0_split
I0509 22:49:52.193671 21921 net.cpp:112] Top shape: 32 512 14 14 (3211264)
I0509 22:49:52.193676 21921 net.cpp:112] Top shape: 32 512 14 14 (3211264)
I0509 22:49:52.193681 21921 net.cpp:112] Top shape: 32 512 14 14 (3211264)
I0509 22:49:52.193686 21921 net.cpp:112] Top shape: 32 512 14 14 (3211264)
I0509 22:49:52.193692 21921 layer_factory.hpp:74] Creating layer inception_4d/1x1
I0509 22:49:52.193703 21921 net.cpp:76] Creating Layer inception_4d/1x1
I0509 22:49:52.193709 21921 net.cpp:372] inception_4d/1x1 <- inception_4c/output_inception_4c/output_0_split_0
I0509 22:49:52.193718 21921 net.cpp:334] inception_4d/1x1 -> inception_4d/1x1
I0509 22:49:52.193727 21921 net.cpp:105] Setting up inception_4d/1x1
I0509 22:49:52.194213 21921 net.cpp:112] Top shape: 32 112 14 14 (702464)
I0509 22:49:52.194229 21921 layer_factory.hpp:74] Creating layer inception_4d/relu_1x1
I0509 22:49:52.194237 21921 net.cpp:76] Creating Layer inception_4d/relu_1x1
I0509 22:49:52.194257 21921 net.cpp:372] inception_4d/relu_1x1 <- inception_4d/1x1
I0509 22:49:52.194264 21921 net.cpp:323] inception_4d/relu_1x1 -> inception_4d/1x1 (in-place)
I0509 22:49:52.194288 21921 net.cpp:105] Setting up inception_4d/relu_1x1
I0509 22:49:52.194294 21921 net.cpp:112] Top shape: 32 112 14 14 (702464)
I0509 22:49:52.194299 21921 layer_factory.hpp:74] Creating layer inception_4d/3x3_reduce
I0509 22:49:52.194308 21921 net.cpp:76] Creating Layer inception_4d/3x3_reduce
I0509 22:49:52.194314 21921 net.cpp:372] inception_4d/3x3_reduce <- inception_4c/output_inception_4c/output_0_split_1
I0509 22:49:52.194325 21921 net.cpp:334] inception_4d/3x3_reduce -> inception_4d/3x3_reduce
I0509 22:49:52.194334 21921 net.cpp:105] Setting up inception_4d/3x3_reduce
I0509 22:49:52.194957 21921 net.cpp:112] Top shape: 32 144 14 14 (903168)
I0509 22:49:52.194972 21921 layer_factory.hpp:74] Creating layer inception_4d/relu_3x3_reduce
I0509 22:49:52.194980 21921 net.cpp:76] Creating Layer inception_4d/relu_3x3_reduce
I0509 22:49:52.194986 21921 net.cpp:372] inception_4d/relu_3x3_reduce <- inception_4d/3x3_reduce
I0509 22:49:52.194996 21921 net.cpp:323] inception_4d/relu_3x3_reduce -> inception_4d/3x3_reduce (in-place)
I0509 22:49:52.195004 21921 net.cpp:105] Setting up inception_4d/relu_3x3_reduce
I0509 22:49:52.195010 21921 net.cpp:112] Top shape: 32 144 14 14 (903168)
I0509 22:49:52.195015 21921 layer_factory.hpp:74] Creating layer inception_4d/3x3
I0509 22:49:52.195024 21921 net.cpp:76] Creating Layer inception_4d/3x3
I0509 22:49:52.195029 21921 net.cpp:372] inception_4d/3x3 <- inception_4d/3x3_reduce
I0509 22:49:52.195041 21921 net.cpp:334] inception_4d/3x3 -> inception_4d/3x3
I0509 22:49:52.195050 21921 net.cpp:105] Setting up inception_4d/3x3
I0509 22:49:52.198153 21921 net.cpp:112] Top shape: 32 288 14 14 (1806336)
I0509 22:49:52.198173 21921 layer_factory.hpp:74] Creating layer inception_4d/relu_3x3
I0509 22:49:52.198181 21921 net.cpp:76] Creating Layer inception_4d/relu_3x3
I0509 22:49:52.198187 21921 net.cpp:372] inception_4d/relu_3x3 <- inception_4d/3x3
I0509 22:49:52.198199 21921 net.cpp:323] inception_4d/relu_3x3 -> inception_4d/3x3 (in-place)
I0509 22:49:52.198209 21921 net.cpp:105] Setting up inception_4d/relu_3x3
I0509 22:49:52.198215 21921 net.cpp:112] Top shape: 32 288 14 14 (1806336)
I0509 22:49:52.198220 21921 layer_factory.hpp:74] Creating layer inception_4d/5x5_reduce
I0509 22:49:52.198228 21921 net.cpp:76] Creating Layer inception_4d/5x5_reduce
I0509 22:49:52.198235 21921 net.cpp:372] inception_4d/5x5_reduce <- inception_4c/output_inception_4c/output_0_split_2
I0509 22:49:52.198245 21921 net.cpp:334] inception_4d/5x5_reduce -> inception_4d/5x5_reduce
I0509 22:49:52.198254 21921 net.cpp:105] Setting up inception_4d/5x5_reduce
I0509 22:49:52.198418 21921 net.cpp:112] Top shape: 32 32 14 14 (200704)
I0509 22:49:52.198431 21921 layer_factory.hpp:74] Creating layer inception_4d/relu_5x5_reduce
I0509 22:49:52.199426 21921 net.cpp:76] Creating Layer inception_4d/relu_5x5_reduce
I0509 22:49:52.199435 21921 net.cpp:372] inception_4d/relu_5x5_reduce <- inception_4d/5x5_reduce
I0509 22:49:52.199443 21921 net.cpp:323] inception_4d/relu_5x5_reduce -> inception_4d/5x5_reduce (in-place)
I0509 22:49:52.199452 21921 net.cpp:105] Setting up inception_4d/relu_5x5_reduce
I0509 22:49:52.199457 21921 net.cpp:112] Top shape: 32 32 14 14 (200704)
I0509 22:49:52.199463 21921 layer_factory.hpp:74] Creating layer inception_4d/5x5
I0509 22:49:52.199475 21921 net.cpp:76] Creating Layer inception_4d/5x5
I0509 22:49:52.199481 21921 net.cpp:372] inception_4d/5x5 <- inception_4d/5x5_reduce
I0509 22:49:52.199488 21921 net.cpp:334] inception_4d/5x5 -> inception_4d/5x5
I0509 22:49:52.199496 21921 net.cpp:105] Setting up inception_4d/5x5
I0509 22:49:52.199931 21921 net.cpp:112] Top shape: 32 64 14 14 (401408)
I0509 22:49:52.199945 21921 layer_factory.hpp:74] Creating layer inception_4d/relu_5x5
I0509 22:49:52.199956 21921 net.cpp:76] Creating Layer inception_4d/relu_5x5
I0509 22:49:52.199962 21921 net.cpp:372] inception_4d/relu_5x5 <- inception_4d/5x5
I0509 22:49:52.199995 21921 net.cpp:323] inception_4d/relu_5x5 -> inception_4d/5x5 (in-place)
I0509 22:49:52.200004 21921 net.cpp:105] Setting up inception_4d/relu_5x5
I0509 22:49:52.200011 21921 net.cpp:112] Top shape: 32 64 14 14 (401408)
I0509 22:49:52.200016 21921 layer_factory.hpp:74] Creating layer inception_4d/pool
I0509 22:49:52.200024 21921 net.cpp:76] Creating Layer inception_4d/pool
I0509 22:49:52.200031 21921 net.cpp:372] inception_4d/pool <- inception_4c/output_inception_4c/output_0_split_3
I0509 22:49:52.200039 21921 net.cpp:334] inception_4d/pool -> inception_4d/pool
I0509 22:49:52.200050 21921 net.cpp:105] Setting up inception_4d/pool
I0509 22:49:52.200058 21921 net.cpp:112] Top shape: 32 512 14 14 (3211264)
I0509 22:49:52.200064 21921 layer_factory.hpp:74] Creating layer inception_4d/pool_proj
I0509 22:49:52.200078 21921 net.cpp:76] Creating Layer inception_4d/pool_proj
I0509 22:49:52.200083 21921 net.cpp:372] inception_4d/pool_proj <- inception_4d/pool
I0509 22:49:52.200093 21921 net.cpp:334] inception_4d/pool_proj -> inception_4d/pool_proj
I0509 22:49:52.200103 21921 net.cpp:105] Setting up inception_4d/pool_proj
I0509 22:49:52.200402 21921 net.cpp:112] Top shape: 32 64 14 14 (401408)
I0509 22:49:52.200417 21921 layer_factory.hpp:74] Creating layer inception_4d/relu_pool_proj
I0509 22:49:52.200424 21921 net.cpp:76] Creating Layer inception_4d/relu_pool_proj
I0509 22:49:52.200430 21921 net.cpp:372] inception_4d/relu_pool_proj <- inception_4d/pool_proj
I0509 22:49:52.200439 21921 net.cpp:323] inception_4d/relu_pool_proj -> inception_4d/pool_proj (in-place)
I0509 22:49:52.200448 21921 net.cpp:105] Setting up inception_4d/relu_pool_proj
I0509 22:49:52.200453 21921 net.cpp:112] Top shape: 32 64 14 14 (401408)
I0509 22:49:52.200462 21921 layer_factory.hpp:74] Creating layer inception_4d/output
I0509 22:49:52.200470 21921 net.cpp:76] Creating Layer inception_4d/output
I0509 22:49:52.200476 21921 net.cpp:372] inception_4d/output <- inception_4d/1x1
I0509 22:49:52.200482 21921 net.cpp:372] inception_4d/output <- inception_4d/3x3
I0509 22:49:52.200489 21921 net.cpp:372] inception_4d/output <- inception_4d/5x5
I0509 22:49:52.200495 21921 net.cpp:372] inception_4d/output <- inception_4d/pool_proj
I0509 22:49:52.200505 21921 net.cpp:334] inception_4d/output -> inception_4d/output
I0509 22:49:52.200513 21921 net.cpp:105] Setting up inception_4d/output
I0509 22:49:52.200520 21921 net.cpp:112] Top shape: 32 528 14 14 (3311616)
I0509 22:49:52.200525 21921 layer_factory.hpp:74] Creating layer inception_4d/output_inception_4d/output_0_split
I0509 22:49:52.200534 21921 net.cpp:76] Creating Layer inception_4d/output_inception_4d/output_0_split
I0509 22:49:52.200539 21921 net.cpp:372] inception_4d/output_inception_4d/output_0_split <- inception_4d/output
I0509 22:49:52.200548 21921 net.cpp:334] inception_4d/output_inception_4d/output_0_split -> inception_4d/output_inception_4d/output_0_split_0
I0509 22:49:52.200557 21921 net.cpp:334] inception_4d/output_inception_4d/output_0_split -> inception_4d/output_inception_4d/output_0_split_1
I0509 22:49:52.200567 21921 net.cpp:334] inception_4d/output_inception_4d/output_0_split -> inception_4d/output_inception_4d/output_0_split_2
I0509 22:49:52.200575 21921 net.cpp:334] inception_4d/output_inception_4d/output_0_split -> inception_4d/output_inception_4d/output_0_split_3
I0509 22:49:52.200584 21921 net.cpp:334] inception_4d/output_inception_4d/output_0_split -> inception_4d/output_inception_4d/output_0_split_4
I0509 22:49:52.200592 21921 net.cpp:105] Setting up inception_4d/output_inception_4d/output_0_split
I0509 22:49:52.200603 21921 net.cpp:112] Top shape: 32 528 14 14 (3311616)
I0509 22:49:52.200608 21921 net.cpp:112] Top shape: 32 528 14 14 (3311616)
I0509 22:49:52.200613 21921 net.cpp:112] Top shape: 32 528 14 14 (3311616)
I0509 22:49:52.200618 21921 net.cpp:112] Top shape: 32 528 14 14 (3311616)
I0509 22:49:52.200623 21921 net.cpp:112] Top shape: 32 528 14 14 (3311616)
I0509 22:49:52.200629 21921 layer_factory.hpp:74] Creating layer loss2/ave_pool
I0509 22:49:52.200650 21921 net.cpp:76] Creating Layer loss2/ave_pool
I0509 22:49:52.200657 21921 net.cpp:372] loss2/ave_pool <- inception_4d/output_inception_4d/output_0_split_0
I0509 22:49:52.200669 21921 net.cpp:334] loss2/ave_pool -> loss2/ave_pool
I0509 22:49:52.200677 21921 net.cpp:105] Setting up loss2/ave_pool
I0509 22:49:52.200685 21921 net.cpp:112] Top shape: 32 528 4 4 (270336)
I0509 22:49:52.200690 21921 layer_factory.hpp:74] Creating layer loss2/conv
I0509 22:49:52.200700 21921 net.cpp:76] Creating Layer loss2/conv
I0509 22:49:52.200705 21921 net.cpp:372] loss2/conv <- loss2/ave_pool
I0509 22:49:52.200716 21921 net.cpp:334] loss2/conv -> loss2/conv
I0509 22:49:52.200723 21921 net.cpp:105] Setting up loss2/conv
I0509 22:49:52.201303 21921 net.cpp:112] Top shape: 32 128 4 4 (65536)
I0509 22:49:52.201318 21921 layer_factory.hpp:74] Creating layer loss2/relu_conv
I0509 22:49:52.201328 21921 net.cpp:76] Creating Layer loss2/relu_conv
I0509 22:49:52.201333 21921 net.cpp:372] loss2/relu_conv <- loss2/conv
I0509 22:49:52.201341 21921 net.cpp:323] loss2/relu_conv -> loss2/conv (in-place)
I0509 22:49:52.201349 21921 net.cpp:105] Setting up loss2/relu_conv
I0509 22:49:52.201354 21921 net.cpp:112] Top shape: 32 128 4 4 (65536)
I0509 22:49:52.201360 21921 layer_factory.hpp:74] Creating layer loss2/fc
I0509 22:49:52.201370 21921 net.cpp:76] Creating Layer loss2/fc
I0509 22:49:52.201375 21921 net.cpp:372] loss2/fc <- loss2/conv
I0509 22:49:52.201385 21921 net.cpp:334] loss2/fc -> loss2/fc
I0509 22:49:52.201393 21921 net.cpp:105] Setting up loss2/fc
I0509 22:49:52.218772 21921 net.cpp:112] Top shape: 32 1024 1 1 (32768)
I0509 22:49:52.218816 21921 layer_factory.hpp:74] Creating layer loss2/relu_fc
I0509 22:49:52.218833 21921 net.cpp:76] Creating Layer loss2/relu_fc
I0509 22:49:52.218844 21921 net.cpp:372] loss2/relu_fc <- loss2/fc
I0509 22:49:52.218857 21921 net.cpp:323] loss2/relu_fc -> loss2/fc (in-place)
I0509 22:49:52.218868 21921 net.cpp:105] Setting up loss2/relu_fc
I0509 22:49:52.218873 21921 net.cpp:112] Top shape: 32 1024 1 1 (32768)
I0509 22:49:52.218879 21921 layer_factory.hpp:74] Creating layer loss2/drop_fc
I0509 22:49:52.218888 21921 net.cpp:76] Creating Layer loss2/drop_fc
I0509 22:49:52.218894 21921 net.cpp:372] loss2/drop_fc <- loss2/fc
I0509 22:49:52.218901 21921 net.cpp:323] loss2/drop_fc -> loss2/fc (in-place)
I0509 22:49:52.218909 21921 net.cpp:105] Setting up loss2/drop_fc
I0509 22:49:52.218915 21921 net.cpp:112] Top shape: 32 1024 1 1 (32768)
I0509 22:49:52.218921 21921 layer_factory.hpp:74] Creating layer loss2/classifier
I0509 22:49:52.218933 21921 net.cpp:76] Creating Layer loss2/classifier
I0509 22:49:52.218940 21921 net.cpp:372] loss2/classifier <- loss2/fc
I0509 22:49:52.218948 21921 net.cpp:334] loss2/classifier -> loss2/classifier
I0509 22:49:52.218958 21921 net.cpp:105] Setting up loss2/classifier
I0509 22:49:52.218997 21921 net.cpp:112] Top shape: 32 2 1 1 (64)
I0509 22:49:52.219008 21921 layer_factory.hpp:74] Creating layer loss2/classifier_loss2/classifier_0_split
I0509 22:49:52.219017 21921 net.cpp:76] Creating Layer loss2/classifier_loss2/classifier_0_split
I0509 22:49:52.219022 21921 net.cpp:372] loss2/classifier_loss2/classifier_0_split <- loss2/classifier
I0509 22:49:52.219030 21921 net.cpp:334] loss2/classifier_loss2/classifier_0_split -> loss2/classifier_loss2/classifier_0_split_0
I0509 22:49:52.219039 21921 net.cpp:334] loss2/classifier_loss2/classifier_0_split -> loss2/classifier_loss2/classifier_0_split_1
I0509 22:49:52.219048 21921 net.cpp:105] Setting up loss2/classifier_loss2/classifier_0_split
I0509 22:49:52.219055 21921 net.cpp:112] Top shape: 32 2 1 1 (64)
I0509 22:49:52.219060 21921 net.cpp:112] Top shape: 32 2 1 1 (64)
I0509 22:49:52.219066 21921 layer_factory.hpp:74] Creating layer loss2/loss
I0509 22:49:52.219076 21921 net.cpp:76] Creating Layer loss2/loss
I0509 22:49:52.219084 21921 net.cpp:372] loss2/loss <- loss2/classifier_loss2/classifier_0_split_0
I0509 22:49:52.219090 21921 net.cpp:372] loss2/loss <- label_data_1_split_2
I0509 22:49:52.219099 21921 net.cpp:334] loss2/loss -> loss2/loss1
I0509 22:49:52.219138 21921 net.cpp:105] Setting up loss2/loss
I0509 22:49:52.219147 21921 layer_factory.hpp:74] Creating layer loss2/loss
I0509 22:49:52.219163 21921 net.cpp:112] Top shape: 1 1 1 1 (1)
I0509 22:49:52.219169 21921 net.cpp:118]     with loss weight 0.3
I0509 22:49:52.219187 21921 layer_factory.hpp:74] Creating layer loss2/top-1
I0509 22:49:52.219197 21921 net.cpp:76] Creating Layer loss2/top-1
I0509 22:49:52.219202 21921 net.cpp:372] loss2/top-1 <- loss2/classifier_loss2/classifier_0_split_1
I0509 22:49:52.219209 21921 net.cpp:372] loss2/top-1 <- label_data_1_split_3
I0509 22:49:52.219219 21921 net.cpp:334] loss2/top-1 -> loss2/top-1
I0509 22:49:52.219228 21921 net.cpp:105] Setting up loss2/top-1
I0509 22:49:52.219235 21921 net.cpp:112] Top shape: 1 1 1 1 (1)
I0509 22:49:52.219241 21921 layer_factory.hpp:74] Creating layer inception_4e/1x1
I0509 22:49:52.219251 21921 net.cpp:76] Creating Layer inception_4e/1x1
I0509 22:49:52.219259 21921 net.cpp:372] inception_4e/1x1 <- inception_4d/output_inception_4d/output_0_split_1
I0509 22:49:52.219269 21921 net.cpp:334] inception_4e/1x1 -> inception_4e/1x1
I0509 22:49:52.219295 21921 net.cpp:105] Setting up inception_4e/1x1
I0509 22:49:52.220438 21921 net.cpp:112] Top shape: 32 256 14 14 (1605632)
I0509 22:49:52.220453 21921 layer_factory.hpp:74] Creating layer inception_4e/relu_1x1
I0509 22:49:52.220463 21921 net.cpp:76] Creating Layer inception_4e/relu_1x1
I0509 22:49:52.220470 21921 net.cpp:372] inception_4e/relu_1x1 <- inception_4e/1x1
I0509 22:49:52.220477 21921 net.cpp:323] inception_4e/relu_1x1 -> inception_4e/1x1 (in-place)
I0509 22:49:52.220485 21921 net.cpp:105] Setting up inception_4e/relu_1x1
I0509 22:49:52.220491 21921 net.cpp:112] Top shape: 32 256 14 14 (1605632)
I0509 22:49:52.220496 21921 layer_factory.hpp:74] Creating layer inception_4e/3x3_reduce
I0509 22:49:52.220505 21921 net.cpp:76] Creating Layer inception_4e/3x3_reduce
I0509 22:49:52.220511 21921 net.cpp:372] inception_4e/3x3_reduce <- inception_4d/output_inception_4d/output_0_split_2
I0509 22:49:52.220521 21921 net.cpp:334] inception_4e/3x3_reduce -> inception_4e/3x3_reduce
I0509 22:49:52.220531 21921 net.cpp:105] Setting up inception_4e/3x3_reduce
I0509 22:49:52.221256 21921 net.cpp:112] Top shape: 32 160 14 14 (1003520)
I0509 22:49:52.221300 21921 layer_factory.hpp:74] Creating layer inception_4e/relu_3x3_reduce
I0509 22:49:52.221312 21921 net.cpp:76] Creating Layer inception_4e/relu_3x3_reduce
I0509 22:49:52.221318 21921 net.cpp:372] inception_4e/relu_3x3_reduce <- inception_4e/3x3_reduce
I0509 22:49:52.221328 21921 net.cpp:323] inception_4e/relu_3x3_reduce -> inception_4e/3x3_reduce (in-place)
I0509 22:49:52.221336 21921 net.cpp:105] Setting up inception_4e/relu_3x3_reduce
I0509 22:49:52.221343 21921 net.cpp:112] Top shape: 32 160 14 14 (1003520)
I0509 22:49:52.221349 21921 layer_factory.hpp:74] Creating layer inception_4e/3x3
I0509 22:49:52.221376 21921 net.cpp:76] Creating Layer inception_4e/3x3
I0509 22:49:52.221384 21921 net.cpp:372] inception_4e/3x3 <- inception_4e/3x3_reduce
I0509 22:49:52.221392 21921 net.cpp:334] inception_4e/3x3 -> inception_4e/3x3
I0509 22:49:52.221401 21921 net.cpp:105] Setting up inception_4e/3x3
I0509 22:49:52.225386 21921 net.cpp:112] Top shape: 32 320 14 14 (2007040)
I0509 22:49:52.225419 21921 layer_factory.hpp:74] Creating layer inception_4e/relu_3x3
I0509 22:49:52.225432 21921 net.cpp:76] Creating Layer inception_4e/relu_3x3
I0509 22:49:52.225440 21921 net.cpp:372] inception_4e/relu_3x3 <- inception_4e/3x3
I0509 22:49:52.225448 21921 net.cpp:323] inception_4e/relu_3x3 -> inception_4e/3x3 (in-place)
I0509 22:49:52.225457 21921 net.cpp:105] Setting up inception_4e/relu_3x3
I0509 22:49:52.225463 21921 net.cpp:112] Top shape: 32 320 14 14 (2007040)
I0509 22:49:52.225468 21921 layer_factory.hpp:74] Creating layer inception_4e/5x5_reduce
I0509 22:49:52.225478 21921 net.cpp:76] Creating Layer inception_4e/5x5_reduce
I0509 22:49:52.225484 21921 net.cpp:372] inception_4e/5x5_reduce <- inception_4d/output_inception_4d/output_0_split_3
I0509 22:49:52.225533 21921 net.cpp:334] inception_4e/5x5_reduce -> inception_4e/5x5_reduce
I0509 22:49:52.225544 21921 net.cpp:105] Setting up inception_4e/5x5_reduce
I0509 22:49:52.225703 21921 net.cpp:112] Top shape: 32 32 14 14 (200704)
I0509 22:49:52.225714 21921 layer_factory.hpp:74] Creating layer inception_4e/relu_5x5_reduce
I0509 22:49:52.225723 21921 net.cpp:76] Creating Layer inception_4e/relu_5x5_reduce
I0509 22:49:52.225728 21921 net.cpp:372] inception_4e/relu_5x5_reduce <- inception_4e/5x5_reduce
I0509 22:49:52.225736 21921 net.cpp:323] inception_4e/relu_5x5_reduce -> inception_4e/5x5_reduce (in-place)
I0509 22:49:52.225746 21921 net.cpp:105] Setting up inception_4e/relu_5x5_reduce
I0509 22:49:52.225752 21921 net.cpp:112] Top shape: 32 32 14 14 (200704)
I0509 22:49:52.225759 21921 layer_factory.hpp:74] Creating layer inception_4e/5x5
I0509 22:49:52.225766 21921 net.cpp:76] Creating Layer inception_4e/5x5
I0509 22:49:52.225772 21921 net.cpp:372] inception_4e/5x5 <- inception_4e/5x5_reduce
I0509 22:49:52.225780 21921 net.cpp:334] inception_4e/5x5 -> inception_4e/5x5
I0509 22:49:52.225790 21921 net.cpp:105] Setting up inception_4e/5x5
I0509 22:49:52.226688 21921 net.cpp:112] Top shape: 32 128 14 14 (802816)
I0509 22:49:52.226706 21921 layer_factory.hpp:74] Creating layer inception_4e/relu_5x5
I0509 22:49:52.226716 21921 net.cpp:76] Creating Layer inception_4e/relu_5x5
I0509 22:49:52.226722 21921 net.cpp:372] inception_4e/relu_5x5 <- inception_4e/5x5
I0509 22:49:52.226729 21921 net.cpp:323] inception_4e/relu_5x5 -> inception_4e/5x5 (in-place)
I0509 22:49:52.226742 21921 net.cpp:105] Setting up inception_4e/relu_5x5
I0509 22:49:52.226747 21921 net.cpp:112] Top shape: 32 128 14 14 (802816)
I0509 22:49:52.226753 21921 layer_factory.hpp:74] Creating layer inception_4e/pool
I0509 22:49:52.226765 21921 net.cpp:76] Creating Layer inception_4e/pool
I0509 22:49:52.226773 21921 net.cpp:372] inception_4e/pool <- inception_4d/output_inception_4d/output_0_split_4
I0509 22:49:52.226783 21921 net.cpp:334] inception_4e/pool -> inception_4e/pool
I0509 22:49:52.226793 21921 net.cpp:105] Setting up inception_4e/pool
I0509 22:49:52.226801 21921 net.cpp:112] Top shape: 32 528 14 14 (3311616)
I0509 22:49:52.226807 21921 layer_factory.hpp:74] Creating layer inception_4e/pool_proj
I0509 22:49:52.226817 21921 net.cpp:76] Creating Layer inception_4e/pool_proj
I0509 22:49:52.226824 21921 net.cpp:372] inception_4e/pool_proj <- inception_4e/pool
I0509 22:49:52.226835 21921 net.cpp:334] inception_4e/pool_proj -> inception_4e/pool_proj
I0509 22:49:52.226845 21921 net.cpp:105] Setting up inception_4e/pool_proj
I0509 22:49:52.227432 21921 net.cpp:112] Top shape: 32 128 14 14 (802816)
I0509 22:49:52.227447 21921 layer_factory.hpp:74] Creating layer inception_4e/relu_pool_proj
I0509 22:49:52.227455 21921 net.cpp:76] Creating Layer inception_4e/relu_pool_proj
I0509 22:49:52.227463 21921 net.cpp:372] inception_4e/relu_pool_proj <- inception_4e/pool_proj
I0509 22:49:52.227471 21921 net.cpp:323] inception_4e/relu_pool_proj -> inception_4e/pool_proj (in-place)
I0509 22:49:52.227479 21921 net.cpp:105] Setting up inception_4e/relu_pool_proj
I0509 22:49:52.227485 21921 net.cpp:112] Top shape: 32 128 14 14 (802816)
I0509 22:49:52.227491 21921 layer_factory.hpp:74] Creating layer inception_4e/output
I0509 22:49:52.227499 21921 net.cpp:76] Creating Layer inception_4e/output
I0509 22:49:52.227505 21921 net.cpp:372] inception_4e/output <- inception_4e/1x1
I0509 22:49:52.227512 21921 net.cpp:372] inception_4e/output <- inception_4e/3x3
I0509 22:49:52.227519 21921 net.cpp:372] inception_4e/output <- inception_4e/5x5
I0509 22:49:52.227524 21921 net.cpp:372] inception_4e/output <- inception_4e/pool_proj
I0509 22:49:52.227532 21921 net.cpp:334] inception_4e/output -> inception_4e/output
I0509 22:49:52.227540 21921 net.cpp:105] Setting up inception_4e/output
I0509 22:49:52.227547 21921 net.cpp:112] Top shape: 32 832 14 14 (5218304)
I0509 22:49:52.227553 21921 layer_factory.hpp:74] Creating layer pool4/3x3_s2
I0509 22:49:52.227560 21921 net.cpp:76] Creating Layer pool4/3x3_s2
I0509 22:49:52.227587 21921 net.cpp:372] pool4/3x3_s2 <- inception_4e/output
I0509 22:49:52.227599 21921 net.cpp:334] pool4/3x3_s2 -> pool4/3x3_s2
I0509 22:49:52.227609 21921 net.cpp:105] Setting up pool4/3x3_s2
I0509 22:49:52.228570 21921 net.cpp:112] Top shape: 32 832 7 7 (1304576)
I0509 22:49:52.228585 21921 layer_factory.hpp:74] Creating layer pool4/3x3_s2_pool4/3x3_s2_0_split
I0509 22:49:52.228595 21921 net.cpp:76] Creating Layer pool4/3x3_s2_pool4/3x3_s2_0_split
I0509 22:49:52.228601 21921 net.cpp:372] pool4/3x3_s2_pool4/3x3_s2_0_split <- pool4/3x3_s2
I0509 22:49:52.228615 21921 net.cpp:334] pool4/3x3_s2_pool4/3x3_s2_0_split -> pool4/3x3_s2_pool4/3x3_s2_0_split_0
I0509 22:49:52.228632 21921 net.cpp:334] pool4/3x3_s2_pool4/3x3_s2_0_split -> pool4/3x3_s2_pool4/3x3_s2_0_split_1
I0509 22:49:52.228651 21921 net.cpp:334] pool4/3x3_s2_pool4/3x3_s2_0_split -> pool4/3x3_s2_pool4/3x3_s2_0_split_2
I0509 22:49:52.228667 21921 net.cpp:334] pool4/3x3_s2_pool4/3x3_s2_0_split -> pool4/3x3_s2_pool4/3x3_s2_0_split_3
I0509 22:49:52.228677 21921 net.cpp:105] Setting up pool4/3x3_s2_pool4/3x3_s2_0_split
I0509 22:49:52.228683 21921 net.cpp:112] Top shape: 32 832 7 7 (1304576)
I0509 22:49:52.228688 21921 net.cpp:112] Top shape: 32 832 7 7 (1304576)
I0509 22:49:52.228694 21921 net.cpp:112] Top shape: 32 832 7 7 (1304576)
I0509 22:49:52.228699 21921 net.cpp:112] Top shape: 32 832 7 7 (1304576)
I0509 22:49:52.228704 21921 layer_factory.hpp:74] Creating layer inception_5a/1x1
I0509 22:49:52.228718 21921 net.cpp:76] Creating Layer inception_5a/1x1
I0509 22:49:52.228724 21921 net.cpp:372] inception_5a/1x1 <- pool4/3x3_s2_pool4/3x3_s2_0_split_0
I0509 22:49:52.228734 21921 net.cpp:334] inception_5a/1x1 -> inception_5a/1x1
I0509 22:49:52.228744 21921 net.cpp:105] Setting up inception_5a/1x1
I0509 22:49:52.230566 21921 net.cpp:112] Top shape: 32 256 7 7 (401408)
I0509 22:49:52.230588 21921 layer_factory.hpp:74] Creating layer inception_5a/relu_1x1
I0509 22:49:52.230598 21921 net.cpp:76] Creating Layer inception_5a/relu_1x1
I0509 22:49:52.230604 21921 net.cpp:372] inception_5a/relu_1x1 <- inception_5a/1x1
I0509 22:49:52.230615 21921 net.cpp:323] inception_5a/relu_1x1 -> inception_5a/1x1 (in-place)
I0509 22:49:52.230624 21921 net.cpp:105] Setting up inception_5a/relu_1x1
I0509 22:49:52.230630 21921 net.cpp:112] Top shape: 32 256 7 7 (401408)
I0509 22:49:52.230636 21921 layer_factory.hpp:74] Creating layer inception_5a/3x3_reduce
I0509 22:49:52.230648 21921 net.cpp:76] Creating Layer inception_5a/3x3_reduce
I0509 22:49:52.230655 21921 net.cpp:372] inception_5a/3x3_reduce <- pool4/3x3_s2_pool4/3x3_s2_0_split_1
I0509 22:49:52.230665 21921 net.cpp:334] inception_5a/3x3_reduce -> inception_5a/3x3_reduce
I0509 22:49:52.230676 21921 net.cpp:105] Setting up inception_5a/3x3_reduce
I0509 22:49:52.231799 21921 net.cpp:112] Top shape: 32 160 7 7 (250880)
I0509 22:49:52.231814 21921 layer_factory.hpp:74] Creating layer inception_5a/relu_3x3_reduce
I0509 22:49:52.231825 21921 net.cpp:76] Creating Layer inception_5a/relu_3x3_reduce
I0509 22:49:52.231832 21921 net.cpp:372] inception_5a/relu_3x3_reduce <- inception_5a/3x3_reduce
I0509 22:49:52.231839 21921 net.cpp:323] inception_5a/relu_3x3_reduce -> inception_5a/3x3_reduce (in-place)
I0509 22:49:52.231848 21921 net.cpp:105] Setting up inception_5a/relu_3x3_reduce
I0509 22:49:52.231853 21921 net.cpp:112] Top shape: 32 160 7 7 (250880)
I0509 22:49:52.231859 21921 layer_factory.hpp:74] Creating layer inception_5a/3x3
I0509 22:49:52.231869 21921 net.cpp:76] Creating Layer inception_5a/3x3
I0509 22:49:52.231875 21921 net.cpp:372] inception_5a/3x3 <- inception_5a/3x3_reduce
I0509 22:49:52.231884 21921 net.cpp:334] inception_5a/3x3 -> inception_5a/3x3
I0509 22:49:52.231892 21921 net.cpp:105] Setting up inception_5a/3x3
I0509 22:49:52.235743 21921 net.cpp:112] Top shape: 32 320 7 7 (501760)
I0509 22:49:52.235767 21921 layer_factory.hpp:74] Creating layer inception_5a/relu_3x3
I0509 22:49:52.235780 21921 net.cpp:76] Creating Layer inception_5a/relu_3x3
I0509 22:49:52.235787 21921 net.cpp:372] inception_5a/relu_3x3 <- inception_5a/3x3
I0509 22:49:52.235827 21921 net.cpp:323] inception_5a/relu_3x3 -> inception_5a/3x3 (in-place)
I0509 22:49:52.235838 21921 net.cpp:105] Setting up inception_5a/relu_3x3
I0509 22:49:52.235844 21921 net.cpp:112] Top shape: 32 320 7 7 (501760)
I0509 22:49:52.235851 21921 layer_factory.hpp:74] Creating layer inception_5a/5x5_reduce
I0509 22:49:52.235859 21921 net.cpp:76] Creating Layer inception_5a/5x5_reduce
I0509 22:49:52.235867 21921 net.cpp:372] inception_5a/5x5_reduce <- pool4/3x3_s2_pool4/3x3_s2_0_split_2
I0509 22:49:52.235877 21921 net.cpp:334] inception_5a/5x5_reduce -> inception_5a/5x5_reduce
I0509 22:49:52.235888 21921 net.cpp:105] Setting up inception_5a/5x5_reduce
I0509 22:49:52.236126 21921 net.cpp:112] Top shape: 32 32 7 7 (50176)
I0509 22:49:52.236140 21921 layer_factory.hpp:74] Creating layer inception_5a/relu_5x5_reduce
I0509 22:49:52.236150 21921 net.cpp:76] Creating Layer inception_5a/relu_5x5_reduce
I0509 22:49:52.236156 21921 net.cpp:372] inception_5a/relu_5x5_reduce <- inception_5a/5x5_reduce
I0509 22:49:52.236163 21921 net.cpp:323] inception_5a/relu_5x5_reduce -> inception_5a/5x5_reduce (in-place)
I0509 22:49:52.236174 21921 net.cpp:105] Setting up inception_5a/relu_5x5_reduce
I0509 22:49:52.236181 21921 net.cpp:112] Top shape: 32 32 7 7 (50176)
I0509 22:49:52.236186 21921 layer_factory.hpp:74] Creating layer inception_5a/5x5
I0509 22:49:52.236194 21921 net.cpp:76] Creating Layer inception_5a/5x5
I0509 22:49:52.236201 21921 net.cpp:372] inception_5a/5x5 <- inception_5a/5x5_reduce
I0509 22:49:52.236212 21921 net.cpp:334] inception_5a/5x5 -> inception_5a/5x5
I0509 22:49:52.236222 21921 net.cpp:105] Setting up inception_5a/5x5
I0509 22:49:52.237092 21921 net.cpp:112] Top shape: 32 128 7 7 (200704)
I0509 22:49:52.237108 21921 layer_factory.hpp:74] Creating layer inception_5a/relu_5x5
I0509 22:49:52.237117 21921 net.cpp:76] Creating Layer inception_5a/relu_5x5
I0509 22:49:52.237123 21921 net.cpp:372] inception_5a/relu_5x5 <- inception_5a/5x5
I0509 22:49:52.237129 21921 net.cpp:323] inception_5a/relu_5x5 -> inception_5a/5x5 (in-place)
I0509 22:49:52.237136 21921 net.cpp:105] Setting up inception_5a/relu_5x5
I0509 22:49:52.237143 21921 net.cpp:112] Top shape: 32 128 7 7 (200704)
I0509 22:49:52.237148 21921 layer_factory.hpp:74] Creating layer inception_5a/pool
I0509 22:49:52.237155 21921 net.cpp:76] Creating Layer inception_5a/pool
I0509 22:49:52.237161 21921 net.cpp:372] inception_5a/pool <- pool4/3x3_s2_pool4/3x3_s2_0_split_3
I0509 22:49:52.237172 21921 net.cpp:334] inception_5a/pool -> inception_5a/pool
I0509 22:49:52.237202 21921 net.cpp:105] Setting up inception_5a/pool
I0509 22:49:52.237212 21921 net.cpp:112] Top shape: 32 832 7 7 (1304576)
I0509 22:49:52.237221 21921 layer_factory.hpp:74] Creating layer inception_5a/pool_proj
I0509 22:49:52.237231 21921 net.cpp:76] Creating Layer inception_5a/pool_proj
I0509 22:49:52.237237 21921 net.cpp:372] inception_5a/pool_proj <- inception_5a/pool
I0509 22:49:52.237248 21921 net.cpp:334] inception_5a/pool_proj -> inception_5a/pool_proj
I0509 22:49:52.237257 21921 net.cpp:105] Setting up inception_5a/pool_proj
I0509 22:49:52.238204 21921 net.cpp:112] Top shape: 32 128 7 7 (200704)
I0509 22:49:52.238224 21921 layer_factory.hpp:74] Creating layer inception_5a/relu_pool_proj
I0509 22:49:52.238235 21921 net.cpp:76] Creating Layer inception_5a/relu_pool_proj
I0509 22:49:52.238242 21921 net.cpp:372] inception_5a/relu_pool_proj <- inception_5a/pool_proj
I0509 22:49:52.238250 21921 net.cpp:323] inception_5a/relu_pool_proj -> inception_5a/pool_proj (in-place)
I0509 22:49:52.238258 21921 net.cpp:105] Setting up inception_5a/relu_pool_proj
I0509 22:49:52.238265 21921 net.cpp:112] Top shape: 32 128 7 7 (200704)
I0509 22:49:52.238292 21921 layer_factory.hpp:74] Creating layer inception_5a/output
I0509 22:49:52.238307 21921 net.cpp:76] Creating Layer inception_5a/output
I0509 22:49:52.238313 21921 net.cpp:372] inception_5a/output <- inception_5a/1x1
I0509 22:49:52.238322 21921 net.cpp:372] inception_5a/output <- inception_5a/3x3
I0509 22:49:52.238347 21921 net.cpp:372] inception_5a/output <- inception_5a/5x5
I0509 22:49:52.238353 21921 net.cpp:372] inception_5a/output <- inception_5a/pool_proj
I0509 22:49:52.238364 21921 net.cpp:334] inception_5a/output -> inception_5a/output
I0509 22:49:52.238374 21921 net.cpp:105] Setting up inception_5a/output
I0509 22:49:52.238381 21921 net.cpp:112] Top shape: 32 832 7 7 (1304576)
I0509 22:49:52.238387 21921 layer_factory.hpp:74] Creating layer inception_5a/output_inception_5a/output_0_split
I0509 22:49:52.238395 21921 net.cpp:76] Creating Layer inception_5a/output_inception_5a/output_0_split
I0509 22:49:52.238401 21921 net.cpp:372] inception_5a/output_inception_5a/output_0_split <- inception_5a/output
I0509 22:49:52.238409 21921 net.cpp:334] inception_5a/output_inception_5a/output_0_split -> inception_5a/output_inception_5a/output_0_split_0
I0509 22:49:52.238418 21921 net.cpp:334] inception_5a/output_inception_5a/output_0_split -> inception_5a/output_inception_5a/output_0_split_1
I0509 22:49:52.238430 21921 net.cpp:334] inception_5a/output_inception_5a/output_0_split -> inception_5a/output_inception_5a/output_0_split_2
I0509 22:49:52.238440 21921 net.cpp:334] inception_5a/output_inception_5a/output_0_split -> inception_5a/output_inception_5a/output_0_split_3
I0509 22:49:52.238448 21921 net.cpp:105] Setting up inception_5a/output_inception_5a/output_0_split
I0509 22:49:52.238456 21921 net.cpp:112] Top shape: 32 832 7 7 (1304576)
I0509 22:49:52.238461 21921 net.cpp:112] Top shape: 32 832 7 7 (1304576)
I0509 22:49:52.238466 21921 net.cpp:112] Top shape: 32 832 7 7 (1304576)
I0509 22:49:52.238471 21921 net.cpp:112] Top shape: 32 832 7 7 (1304576)
I0509 22:49:52.238476 21921 layer_factory.hpp:74] Creating layer inception_5b/1x1
I0509 22:49:52.238487 21921 net.cpp:76] Creating Layer inception_5b/1x1
I0509 22:49:52.238493 21921 net.cpp:372] inception_5b/1x1 <- inception_5a/output_inception_5a/output_0_split_0
I0509 22:49:52.238502 21921 net.cpp:334] inception_5b/1x1 -> inception_5b/1x1
I0509 22:49:52.238510 21921 net.cpp:105] Setting up inception_5b/1x1
I0509 22:49:52.241260 21921 net.cpp:112] Top shape: 32 384 7 7 (602112)
I0509 22:49:52.241281 21921 layer_factory.hpp:74] Creating layer inception_5b/relu_1x1
I0509 22:49:52.241293 21921 net.cpp:76] Creating Layer inception_5b/relu_1x1
I0509 22:49:52.241300 21921 net.cpp:372] inception_5b/relu_1x1 <- inception_5b/1x1
I0509 22:49:52.241308 21921 net.cpp:323] inception_5b/relu_1x1 -> inception_5b/1x1 (in-place)
I0509 22:49:52.241317 21921 net.cpp:105] Setting up inception_5b/relu_1x1
I0509 22:49:52.241323 21921 net.cpp:112] Top shape: 32 384 7 7 (602112)
I0509 22:49:52.241328 21921 layer_factory.hpp:74] Creating layer inception_5b/3x3_reduce
I0509 22:49:52.241338 21921 net.cpp:76] Creating Layer inception_5b/3x3_reduce
I0509 22:49:52.241343 21921 net.cpp:372] inception_5b/3x3_reduce <- inception_5a/output_inception_5a/output_0_split_1
I0509 22:49:52.241354 21921 net.cpp:334] inception_5b/3x3_reduce -> inception_5b/3x3_reduce
I0509 22:49:52.241364 21921 net.cpp:105] Setting up inception_5b/3x3_reduce
I0509 22:49:52.242704 21921 net.cpp:112] Top shape: 32 192 7 7 (301056)
I0509 22:49:52.242720 21921 layer_factory.hpp:74] Creating layer inception_5b/relu_3x3_reduce
I0509 22:49:52.242728 21921 net.cpp:76] Creating Layer inception_5b/relu_3x3_reduce
I0509 22:49:52.242734 21921 net.cpp:372] inception_5b/relu_3x3_reduce <- inception_5b/3x3_reduce
I0509 22:49:52.242743 21921 net.cpp:323] inception_5b/relu_3x3_reduce -> inception_5b/3x3_reduce (in-place)
I0509 22:49:52.242750 21921 net.cpp:105] Setting up inception_5b/relu_3x3_reduce
I0509 22:49:52.242756 21921 net.cpp:112] Top shape: 32 192 7 7 (301056)
I0509 22:49:52.242761 21921 layer_factory.hpp:74] Creating layer inception_5b/3x3
I0509 22:49:52.242774 21921 net.cpp:76] Creating Layer inception_5b/3x3
I0509 22:49:52.242779 21921 net.cpp:372] inception_5b/3x3 <- inception_5b/3x3_reduce
I0509 22:49:52.242789 21921 net.cpp:334] inception_5b/3x3 -> inception_5b/3x3
I0509 22:49:52.242796 21921 net.cpp:105] Setting up inception_5b/3x3
I0509 22:49:52.248361 21921 net.cpp:112] Top shape: 32 384 7 7 (602112)
I0509 22:49:52.248390 21921 layer_factory.hpp:74] Creating layer inception_5b/relu_3x3
I0509 22:49:52.248404 21921 net.cpp:76] Creating Layer inception_5b/relu_3x3
I0509 22:49:52.248412 21921 net.cpp:372] inception_5b/relu_3x3 <- inception_5b/3x3
I0509 22:49:52.248421 21921 net.cpp:323] inception_5b/relu_3x3 -> inception_5b/3x3 (in-place)
I0509 22:49:52.248430 21921 net.cpp:105] Setting up inception_5b/relu_3x3
I0509 22:49:52.248437 21921 net.cpp:112] Top shape: 32 384 7 7 (602112)
I0509 22:49:52.248442 21921 layer_factory.hpp:74] Creating layer inception_5b/5x5_reduce
I0509 22:49:52.248455 21921 net.cpp:76] Creating Layer inception_5b/5x5_reduce
I0509 22:49:52.248461 21921 net.cpp:372] inception_5b/5x5_reduce <- inception_5a/output_inception_5a/output_0_split_2
I0509 22:49:52.248471 21921 net.cpp:334] inception_5b/5x5_reduce -> inception_5b/5x5_reduce
I0509 22:49:52.248479 21921 net.cpp:105] Setting up inception_5b/5x5_reduce
I0509 22:49:52.248827 21921 net.cpp:112] Top shape: 32 48 7 7 (75264)
I0509 22:49:52.248841 21921 layer_factory.hpp:74] Creating layer inception_5b/relu_5x5_reduce
I0509 22:49:52.248850 21921 net.cpp:76] Creating Layer inception_5b/relu_5x5_reduce
I0509 22:49:52.248857 21921 net.cpp:372] inception_5b/relu_5x5_reduce <- inception_5b/5x5_reduce
I0509 22:49:52.248864 21921 net.cpp:323] inception_5b/relu_5x5_reduce -> inception_5b/5x5_reduce (in-place)
I0509 22:49:52.248872 21921 net.cpp:105] Setting up inception_5b/relu_5x5_reduce
I0509 22:49:52.248878 21921 net.cpp:112] Top shape: 32 48 7 7 (75264)
I0509 22:49:52.248883 21921 layer_factory.hpp:74] Creating layer inception_5b/5x5
I0509 22:49:52.248893 21921 net.cpp:76] Creating Layer inception_5b/5x5
I0509 22:49:52.248899 21921 net.cpp:372] inception_5b/5x5 <- inception_5b/5x5_reduce
I0509 22:49:52.248908 21921 net.cpp:334] inception_5b/5x5 -> inception_5b/5x5
I0509 22:49:52.248916 21921 net.cpp:105] Setting up inception_5b/5x5
I0509 22:49:52.250206 21921 net.cpp:112] Top shape: 32 128 7 7 (200704)
I0509 22:49:52.250224 21921 layer_factory.hpp:74] Creating layer inception_5b/relu_5x5
I0509 22:49:52.250232 21921 net.cpp:76] Creating Layer inception_5b/relu_5x5
I0509 22:49:52.250238 21921 net.cpp:372] inception_5b/relu_5x5 <- inception_5b/5x5
I0509 22:49:52.250248 21921 net.cpp:323] inception_5b/relu_5x5 -> inception_5b/5x5 (in-place)
I0509 22:49:52.250257 21921 net.cpp:105] Setting up inception_5b/relu_5x5
I0509 22:49:52.250262 21921 net.cpp:112] Top shape: 32 128 7 7 (200704)
I0509 22:49:52.250267 21921 layer_factory.hpp:74] Creating layer inception_5b/pool
I0509 22:49:52.250291 21921 net.cpp:76] Creating Layer inception_5b/pool
I0509 22:49:52.250298 21921 net.cpp:372] inception_5b/pool <- inception_5a/output_inception_5a/output_0_split_3
I0509 22:49:52.250306 21921 net.cpp:334] inception_5b/pool -> inception_5b/pool
I0509 22:49:52.250315 21921 net.cpp:105] Setting up inception_5b/pool
I0509 22:49:52.250324 21921 net.cpp:112] Top shape: 32 832 7 7 (1304576)
I0509 22:49:52.250329 21921 layer_factory.hpp:74] Creating layer inception_5b/pool_proj
I0509 22:49:52.250341 21921 net.cpp:76] Creating Layer inception_5b/pool_proj
I0509 22:49:52.250349 21921 net.cpp:372] inception_5b/pool_proj <- inception_5b/pool
I0509 22:49:52.250358 21921 net.cpp:334] inception_5b/pool_proj -> inception_5b/pool_proj
I0509 22:49:52.250367 21921 net.cpp:105] Setting up inception_5b/pool_proj
I0509 22:49:52.251272 21921 net.cpp:112] Top shape: 32 128 7 7 (200704)
I0509 22:49:52.251286 21921 layer_factory.hpp:74] Creating layer inception_5b/relu_pool_proj
I0509 22:49:52.251296 21921 net.cpp:76] Creating Layer inception_5b/relu_pool_proj
I0509 22:49:52.251302 21921 net.cpp:372] inception_5b/relu_pool_proj <- inception_5b/pool_proj
I0509 22:49:52.251312 21921 net.cpp:323] inception_5b/relu_pool_proj -> inception_5b/pool_proj (in-place)
I0509 22:49:52.251319 21921 net.cpp:105] Setting up inception_5b/relu_pool_proj
I0509 22:49:52.251325 21921 net.cpp:112] Top shape: 32 128 7 7 (200704)
I0509 22:49:52.251332 21921 layer_factory.hpp:74] Creating layer inception_5b/output
I0509 22:49:52.251368 21921 net.cpp:76] Creating Layer inception_5b/output
I0509 22:49:52.251375 21921 net.cpp:372] inception_5b/output <- inception_5b/1x1
I0509 22:49:52.251382 21921 net.cpp:372] inception_5b/output <- inception_5b/3x3
I0509 22:49:52.251389 21921 net.cpp:372] inception_5b/output <- inception_5b/5x5
I0509 22:49:52.251395 21921 net.cpp:372] inception_5b/output <- inception_5b/pool_proj
I0509 22:49:52.251404 21921 net.cpp:334] inception_5b/output -> inception_5b/output
I0509 22:49:52.251411 21921 net.cpp:105] Setting up inception_5b/output
I0509 22:49:52.251418 21921 net.cpp:112] Top shape: 32 1024 7 7 (1605632)
I0509 22:49:52.251425 21921 layer_factory.hpp:74] Creating layer pool5/7x7_s1
I0509 22:49:52.251435 21921 net.cpp:76] Creating Layer pool5/7x7_s1
I0509 22:49:52.251441 21921 net.cpp:372] pool5/7x7_s1 <- inception_5b/output
I0509 22:49:52.251448 21921 net.cpp:334] pool5/7x7_s1 -> pool5/7x7_s1
I0509 22:49:52.251457 21921 net.cpp:105] Setting up pool5/7x7_s1
I0509 22:49:52.251463 21921 net.cpp:112] Top shape: 32 1024 1 1 (32768)
I0509 22:49:52.251469 21921 layer_factory.hpp:74] Creating layer pool5/drop_7x7_s1
I0509 22:49:52.251477 21921 net.cpp:76] Creating Layer pool5/drop_7x7_s1
I0509 22:49:52.251483 21921 net.cpp:372] pool5/drop_7x7_s1 <- pool5/7x7_s1
I0509 22:49:52.251492 21921 net.cpp:323] pool5/drop_7x7_s1 -> pool5/7x7_s1 (in-place)
I0509 22:49:52.251502 21921 net.cpp:105] Setting up pool5/drop_7x7_s1
I0509 22:49:52.251508 21921 net.cpp:112] Top shape: 32 1024 1 1 (32768)
I0509 22:49:52.251513 21921 layer_factory.hpp:74] Creating layer loss3/classifier
I0509 22:49:52.251523 21921 net.cpp:76] Creating Layer loss3/classifier
I0509 22:49:52.251528 21921 net.cpp:372] loss3/classifier <- pool5/7x7_s1
I0509 22:49:52.251539 21921 net.cpp:334] loss3/classifier -> loss3/classifier
I0509 22:49:52.251549 21921 net.cpp:105] Setting up loss3/classifier
I0509 22:49:52.251582 21921 net.cpp:112] Top shape: 32 2 1 1 (64)
I0509 22:49:52.251592 21921 layer_factory.hpp:74] Creating layer loss3/classifier_loss3/classifier_0_split
I0509 22:49:52.251600 21921 net.cpp:76] Creating Layer loss3/classifier_loss3/classifier_0_split
I0509 22:49:52.251606 21921 net.cpp:372] loss3/classifier_loss3/classifier_0_split <- loss3/classifier
I0509 22:49:52.251616 21921 net.cpp:334] loss3/classifier_loss3/classifier_0_split -> loss3/classifier_loss3/classifier_0_split_0
I0509 22:49:52.251626 21921 net.cpp:334] loss3/classifier_loss3/classifier_0_split -> loss3/classifier_loss3/classifier_0_split_1
I0509 22:49:52.251633 21921 net.cpp:105] Setting up loss3/classifier_loss3/classifier_0_split
I0509 22:49:52.251641 21921 net.cpp:112] Top shape: 32 2 1 1 (64)
I0509 22:49:52.251646 21921 net.cpp:112] Top shape: 32 2 1 1 (64)
I0509 22:49:52.251651 21921 layer_factory.hpp:74] Creating layer loss3/loss3
I0509 22:49:52.251659 21921 net.cpp:76] Creating Layer loss3/loss3
I0509 22:49:52.251664 21921 net.cpp:372] loss3/loss3 <- loss3/classifier_loss3/classifier_0_split_0
I0509 22:49:52.251672 21921 net.cpp:372] loss3/loss3 <- label_data_1_split_4
I0509 22:49:52.251680 21921 net.cpp:334] loss3/loss3 -> loss3/loss3
I0509 22:49:52.251689 21921 net.cpp:105] Setting up loss3/loss3
I0509 22:49:52.251698 21921 layer_factory.hpp:74] Creating layer loss3/loss3
I0509 22:49:52.251710 21921 net.cpp:112] Top shape: 1 1 1 1 (1)
I0509 22:49:52.251716 21921 net.cpp:118]     with loss weight 1
I0509 22:49:52.251736 21921 layer_factory.hpp:74] Creating layer loss3/top-1
I0509 22:49:52.251749 21921 net.cpp:76] Creating Layer loss3/top-1
I0509 22:49:52.251755 21921 net.cpp:372] loss3/top-1 <- loss3/classifier_loss3/classifier_0_split_1
I0509 22:49:52.251762 21921 net.cpp:372] loss3/top-1 <- label_data_1_split_5
I0509 22:49:52.251770 21921 net.cpp:334] loss3/top-1 -> loss3/top-1
I0509 22:49:52.251778 21921 net.cpp:105] Setting up loss3/top-1
I0509 22:49:52.251785 21921 net.cpp:112] Top shape: 1 1 1 1 (1)
I0509 22:49:52.251791 21921 net.cpp:165] loss3/top-1 does not need backward computation.
I0509 22:49:52.251796 21921 net.cpp:163] loss3/loss3 needs backward computation.
I0509 22:49:52.251811 21921 net.cpp:163] loss3/classifier_loss3/classifier_0_split needs backward computation.
I0509 22:49:52.251816 21921 net.cpp:163] loss3/classifier needs backward computation.
I0509 22:49:52.251822 21921 net.cpp:163] pool5/drop_7x7_s1 needs backward computation.
…
