…
I0510 23:35:27.690634 20050 net.cpp:253] The NetState phase (0) differed from the phase (1) specified by a rule in layer loss3/top-1
I0510 23:35:27.691910 20050 net.cpp:42] Initializing net from parameters: 
name: "GoogleNet"
state {
  phase: TRAIN
}
layer {
  name: "data"
  type: "Data"
  top: "data"
  top: "label"
  include {
    phase: TRAIN
  }
  transform_param {
    mirror: true
    crop_size: 224
    mean_value: 104
    mean_value: 117
    mean_value: 123
  }
  data_param {
    source: "train_lmdb"
    batch_size: 32
    backend: LMDB
  }
}
layer {
  name: "conv1/7x7_s2"
  type: "Convolution"
  bottom: "data"
  top: "conv1/7x7_s2"
  param {
    lr_mult: 1
    decay_mult: 1
  }
  param {
    lr_mult: 2
    decay_mult: 0
  }
  convolution_param {
    num_output: 64
    pad: 3
    kernel_size: 7
    stride: 2
    weight_filler {
      type: "xavier"
      std: 0.1
    }
    bias_filler {
      type: "constant"
      value: 0.2
    }
  }
}
layer {
  name: "conv1/relu_7x7"
  type: "ReLU"
  bottom: "conv1/7x7_s2"
  top: "conv1/7x7_s2"
}
layer {
  name: "pool1/3x3_s2"
  type: "Pooling"
  bottom: "conv1/7x7_s2"
  top: "pool1/3x3_s2"
  pooling_param {
    pool: MAX
    kernel_size: 3
    stride: 2
  }
}
layer {
  name: "pool1/norm1"
  type: "LRN"
  bottom: "pool1/3x3_s2"
  top: "pool1/norm1"
  lrn_param {
    local_size: 5
    alpha: 0.0001
    beta: 0.75
  }
}
layer {
  name: "conv2/3x3_reduce"
  type: "Convolution"
  bottom: "pool1/norm1"
  top: "conv2/3x3_reduce"
  param {
    lr_mult: 1
    decay_mult: 1
  }
  param {
    lr_mult: 2
    decay_mult: 0
  }
  convolution_param {
    num_output: 64
    kernel_size: 1
    weight_filler {
      type: "xavier"
      std: 0.1
    }
    bias_filler {
      type: "constant"
      value: 0.2
    }
  }
}
layer {
  name: "conv2/relu_3x3_reduce"
  type: "ReLU"
  bottom: "conv2/3x3_reduce"
  top: "conv2/3x3_reduce"
}
layer {
  name: "conv2/3x3"
  type: "Convolution"
  bottom: "conv2/3x3_reduce"
  top: "conv2/3x3"
  param {
    lr_mult: 1
    decay_mult: 1
  }
  param {
    lr_mult: 2
    decay_mult: 0
  }
  convolution_param {
    num_output: 192
    pad: 1
    kernel_size: 3
    weight_filler {
      type: "xavier"
      std: 0.03
    }
    bias_filler {
      type: "constant"
      value: 0.2
    }
  }
}
layer {
  name: "conv2/relu_3x3"
  type: "ReLU"
  bottom: "conv2/3x3"
  top: "conv2/3x3"
}
layer {
  name: "conv2/norm2"
  type: "LRN"
  bottom: "conv2/3x3"
  top: "conv2/norm2"
  lrn_param {
    local_size: 5
    alpha: 0.0001
    beta: 0.75
  }
}
layer {
  name: "pool2/3x3_s2"
  type: "Pooling"
  bottom: "conv2/norm2"
  top: "pool2/3x3_s2"
  pooling_param {
    pool: MAX
    kernel_size: 3
    stride: 2
  }
}
layer {
  name: "inception_3a/1x1"
  type: "Convolution"
  bottom: "pool2/3x3_s2"
  top: "inception_3a/1x1"
  param {
    lr_mult: 1
    decay_mult: 1
  }
  param {
    lr_mult: 2
    decay_mult: 0
  }
  convolution_param {
    num_output: 64
    kernel_size: 1
    weight_filler {
      type: "xavier"
      std: 0.03
    }
    bias_filler {
      type: "constant"
      value: 0.2
    }
  }
}
layer {
  name: "inception_3a/relu_1x1"
  type: "ReLU"
  bottom: "inception_3a/1x1"
  top: "inception_3a/1x1"
}
layer {
  name: "inception_3a/3x3_reduce"
  type: "Convolution"
  bottom: "pool2/3x3_s2"
  top: "inception_3a/3x3_reduce"
  param {
    lr_mult: 1
    decay_mult: 1
  }
  param {
    lr_mult: 2
    decay_mult: 0
  }
  convolution_param {
    num_output: 96
    kernel_size: 1
    weight_filler {
      type: "xavier"
      std: 0.09
    }
    bias_filler {
      type: "constant"
      value: 0.2
    }
  }
}
layer {
  name: "inception_3a/relu_3x3_reduce"
  type: "ReLU"
  bottom: "inception_3a/3x3_reduce"
  top: "inception_3a/3x3_reduce"
}
layer {
  name: "inception_3a/3x3"
  type: "Convolution"
  bottom: "inception_3a/3x3_reduce"
  top: "inception_3a/3x3"
  param {
    lr_mult: 1
    decay_mult: 1
  }
  param {
    lr_mult: 2
    decay_mult: 0
  }
  convolution_param {
    num_output: 128
    pad: 1
    kernel_size: 3
    weight_filler {
      type: "xavier"
      std: 0.03
    }
    bias_filler {
      type: "constant"
      value: 0.2
    }
  }
}
layer {
  name: "inception_3a/relu_3x3"
  type: "ReLU"
  bottom: "inception_3a/3x3"
  top: "inception_3a/3x3"
}
layer {
  name: "inception_3a/5x5_reduce"
  type: "Convolution"
  bottom: "pool2/3x3_s2"
  top: "inception_3a/5x5_reduce"
  param {
    lr_mult: 1
    decay_mult: 1
  }
  param {
    lr_mult: 2
    decay_mult: 0
  }
  convolution_param {
    num_output: 16
    kernel_size: 1
    weight_filler {
      type: "xavier"
      std: 0.2
    }
    bias_filler {
      type: "constant"
      value: 0.2
    }
  }
}
layer {
  name: "inception_3a/relu_5x5_reduce"
  type: "ReLU"
  bottom: "inception_3a/5x5_reduce"
  top: "inception_3a/5x5_reduce"
}
layer {
  name: "inception_3a/5x5"
  type: "Convolution"
  bottom: "inception_3a/5x5_reduce"
  top: "inception_3a/5x5"
  param {
    lr_mult: 1
    decay_mult: 1
  }
  param {
    lr_mult: 2
    decay_mult: 0
  }
  convolution_param {
    num_output: 32
    pad: 2
    kernel_size: 5
    weight_filler {
      type: "xavier"
      std: 0.03
    }
    bias_filler {
      type: "constant"
      value: 0.2
    }
  }
}
layer {
  name: "inception_3a/relu_5x5"
  type: "ReLU"
  bottom: "inception_3a/5x5"
  top: "inception_3a/5x5"
}
layer {
  name: "inception_3a/pool"
  type: "Pooling"
  bottom: "pool2/3x3_s2"
  top: "inception_3a/pool"
  pooling_param {
    pool: MAX
    kernel_size: 3
    stride: 1
    pad: 1
  }
}
layer {
  name: "inception_3a/pool_proj"
  type: "Convolution"
  bottom: "inception_3a/pool"
  top: "inception_3a/pool_proj"
  param {
    lr_mult: 1
    decay_mult: 1
  }
  param {
    lr_mult: 2
    decay_mult: 0
  }
  convolution_param {
    num_output: 32
    kernel_size: 1
    weight_filler {
      type: "xavier"
      std: 0.1
    }
    bias_filler {
      type: "constant"
      value: 0.2
    }
  }
}
layer {
  name: "inception_3a/relu_pool_proj"
  type: "ReLU"
  bottom: "inception_3a/pool_proj"
  top: "inception_3a/pool_proj"
}
layer {
  name: "inception_3a/output"
  type: "Concat"
  bottom: "inception_3a/1x1"
  bottom: "inception_3a/3x3"
  bottom: "inception_3a/5x5"
  bottom: "inception_3a/pool_proj"
  top: "inception_3a/output"
}
layer {
  name: "inception_3b/1x1"
  type: "Convolution"
  bottom: "inception_3a/output"
  top: "inception_3b/1x1"
  param {
    lr_mult: 1
    decay_mult: 1
  }
  param {
    lr_mult: 2
    decay_mult: 0
  }
  convolution_param {
    num_output: 128
    kernel_size: 1
    weight_filler {
      type: "xavier"
      std: 0.03
    }
    bias_filler {
      type: "constant"
      value: 0.2
    }
  }
}
layer {
  name: "inception_3b/relu_1x1"
  type: "ReLU"
  bottom: "inception_3b/1x1"
  top: "inception_3b/1x1"
}
layer {
  name: "inception_3b/3x3_reduce"
  type: "Convolution"
  bottom: "inception_3a/output"
  top: "inception_3b/3x3_reduce"
  param {
    lr_mult: 1
    decay_mult: 1
  }
  param {
    lr_mult: 2
    decay_mult: 0
  }
  convolution_param {
    num_output: 128
    kernel_size: 1
    weight_filler {
      type: "xavier"
      std: 0.09
    }
    bias_filler {
      type: "constant"
      value: 0.2
    }
  }
}
layer {
  name: "inception_3b/relu_3x3_reduce"
  type: "ReLU"
  bottom: "inception_3b/3x3_reduce"
  top: "inception_3b/3x3_reduce"
}
layer {
  name: "inception_3b/3x3"
  type: "Convolution"
  bottom: "inception_3b/3x3_reduce"
  top: "inception_3b/3x3"
  param {
    lr_mult: 1
    decay_mult: 1
  }
  param {
    lr_mult: 2
    decay_mult: 0
  }
  convolution_param {
    num_output: 192
    pad: 1
    kernel_size: 3
    weight_filler {
      type: "xavier"
      std: 0.03
    }
    bias_filler {
      type: "constant"
      value: 0.2
    }
  }
}
layer {
  name: "inception_3b/relu_3x3"
  type: "ReLU"
  bottom: "inception_3b/3x3"
  top: "inception_3b/3x3"
}
layer {
  name: "inception_3b/5x5_reduce"
  type: "Convolution"
  bottom: "inception_3a/output"
  top: "inception_3b/5x5_reduce"
  param {
    lr_mult: 1
    decay_mult: 1
  }
  param {
    lr_mult: 2
    decay_mult: 0
  }
  convolution_param {
    num_output: 32
    kernel_size: 1
    weight_filler {
      type: "xavier"
      std: 0.2
    }
    bias_filler {
      type: "constant"
      value: 0.2
    }
  }
}
layer {
  name: "inception_3b/relu_5x5_reduce"
  type: "ReLU"
  bottom: "inception_3b/5x5_reduce"
  top: "inception_3b/5x5_reduce"
}
layer {
  name: "inception_3b/5x5"
  type: "Convolution"
  bottom: "inception_3b/5x5_reduce"
  top: "inception_3b/5x5"
  param {
    lr_mult: 1
    decay_mult: 1
  }
  param {
    lr_mult: 2
    decay_mult: 0
  }
  convolution_param {
    num_output: 96
    pad: 2
    kernel_size: 5
    weight_filler {
      type: "xavier"
      std: 0.03
    }
    bias_filler {
      type: "constant"
      value: 0.2
    }
  }
}
layer {
  name: "inception_3b/relu_5x5"
  type: "ReLU"
  bottom: "inception_3b/5x5"
  top: "inception_3b/5x5"
}
layer {
  name: "inception_3b/pool"
  type: "Pooling"
  bottom: "inception_3a/output"
  top: "inception_3b/pool"
  pooling_param {
    pool: MAX
    kernel_size: 3
    stride: 1
    pad: 1
  }
}
layer {
  name: "inception_3b/pool_proj"
  type: "Convolution"
  bottom: "inception_3b/pool"
  top: "inception_3b/pool_proj"
  param {
    lr_mult: 1
    decay_mult: 1
  }
  param {
    lr_mult: 2
    decay_mult: 0
  }
  convolution_param {
    num_output: 64
    kernel_size: 1
    weight_filler {
      type: "xavier"
      std: 0.1
    }
    bias_filler {
      type: "constant"
      value: 0.2
    }
  }
}
layer {
  name: "inception_3b/relu_pool_proj"
  type: "ReLU"
  bottom: "inception_3b/pool_proj"
  top: "inception_3b/pool_proj"
}
layer {
  name: "inception_3b/output"
  type: "Concat"
  bottom: "inception_3b/1x1"
  bottom: "inception_3b/3x3"
  bottom: "inception_3b/5x5"
  bottom: "inception_3b/pool_proj"
  top: "inception_3b/output"
}
layer {
  name: "pool3/3x3_s2"
  type: "Pooling"
  bottom: "inception_3b/output"
  top: "pool3/3x3_s2"
  pooling_param {
    pool: MAX
    kernel_size: 3
    stride: 2
  }
}
layer {
  name: "inception_4a/1x1"
  type: "Convolution"
  bottom: "pool3/3x3_s2"
  top: "inception_4a/1x1"
  param {
    lr_mult: 1
    decay_mult: 1
  }
  param {
    lr_mult: 2
    decay_mult: 0
  }
  convolution_param {
    num_output: 192
    kernel_size: 1
    weight_filler {
      type: "xavier"
      std: 0.03
    }
    bias_filler {
      type: "constant"
      value: 0.2
    }
  }
}
layer {
  name: "inception_4a/relu_1x1"
  type: "ReLU"
  bottom: "inception_4a/1x1"
  top: "inception_4a/1x1"
}
layer {
  name: "inception_4a/3x3_reduce"
  type: "Convolution"
  bottom: "pool3/3x3_s2"
  top: "inception_4a/3x3_reduce"
  param {
    lr_mult: 1
    decay_mult: 1
  }
  param {
    lr_mult: 2
    decay_mult: 0
  }
  convolution_param {
    num_output: 96
    kernel_size: 1
    weight_filler {
      type: "xavier"
      std: 0.09
    }
    bias_filler {
      type: "constant"
      value: 0.2
    }
  }
}
layer {
  name: "inception_4a/relu_3x3_reduce"
  type: "ReLU"
  bottom: "inception_4a/3x3_reduce"
  top: "inception_4a/3x3_reduce"
}
layer {
  name: "inception_4a/3x3"
  type: "Convolution"
  bottom: "inception_4a/3x3_reduce"
  top: "inception_4a/3x3"
  param {
    lr_mult: 1
    decay_mult: 1
  }
  param {
    lr_mult: 2
    decay_mult: 0
  }
  convolution_param {
    num_output: 208
    pad: 1
    kernel_size: 3
    weight_filler {
      type: "xavier"
      std: 0.03
    }
    bias_filler {
      type: "constant"
      value: 0.2
    }
  }
}
layer {
  name: "inception_4a/relu_3x3"
  type: "ReLU"
  bottom: "inception_4a/3x3"
  top: "inception_4a/3x3"
}
layer {
  name: "inception_4a/5x5_reduce"
  type: "Convolution"
  bottom: "pool3/3x3_s2"
  top: "inception_4a/5x5_reduce"
  param {
    lr_mult: 1
    decay_mult: 1
  }
  param {
    lr_mult: 2
    decay_mult: 0
  }
  convolution_param {
    num_output: 16
    kernel_size: 1
    weight_filler {
      type: "xavier"
      std: 0.2
    }
    bias_filler {
      type: "constant"
      value: 0.2
    }
  }
}
layer {
  name: "inception_4a/relu_5x5_reduce"
  type: "ReLU"
  bottom: "inception_4a/5x5_reduce"
  top: "inception_4a/5x5_reduce"
}
layer {
  name: "inception_4a/5x5"
  type: "Convolution"
  bottom: "inception_4a/5x5_reduce"
  top: "inception_4a/5x5"
  param {
    lr_mult: 1
    decay_mult: 1
  }
  param {
    lr_mult: 2
    decay_mult: 0
  }
  convolution_param {
    num_output: 48
    pad: 2
    kernel_size: 5
    weight_filler {
      type: "xavier"
      std: 0.03
    }
    bias_filler {
      type: "constant"
      value: 0.2
    }
  }
}
layer {
  name: "inception_4a/relu_5x5"
  type: "ReLU"
  bottom: "inception_4a/5x5"
  top: "inception_4a/5x5"
}
layer {
  name: "inception_4a/pool"
  type: "Pooling"
  bottom: "pool3/3x3_s2"
  top: "inception_4a/pool"
  pooling_param {
    pool: MAX
    kernel_size: 3
    stride: 1
    pad: 1
  }
}
layer {
  name: "inception_4a/pool_proj"
  type: "Convolution"
  bottom: "inception_4a/pool"
  top: "inception_4a/pool_proj"
  param {
    lr_mult: 1
    decay_mult: 1
  }
  param {
    lr_mult: 2
    decay_mult: 0
  }
  convolution_param {
    num_output: 64
    kernel_size: 1
    weight_filler {
      type: "xavier"
      std: 0.1
    }
    bias_filler {
      type: "constant"
      value: 0.2
    }
  }
}
layer {
  name: "inception_4a/relu_pool_proj"
  type: "ReLU"
  bottom: "inception_4a/pool_proj"
  top: "inception_4a/pool_proj"
}
layer {
  name: "inception_4a/output"
  type: "Concat"
  bottom: "inception_4a/1x1"
  bottom: "inception_4a/3x3"
  bottom: "inception_4a/5x5"
  bottom: "inception_4a/pool_proj"
  top: "inception_4a/output"
}
layer {
  name: "loss1/ave_pool"
  type: "Pooling"
  bottom: "inception_4a/output"
  top: "loss1/ave_pool"
  pooling_param {
    pool: AVE
    kernel_size: 5
    stride: 3
  }
}
layer {
  name: "loss1/conv"
  type: "Convolution"
  bottom: "loss1/ave_pool"
  top: "loss1/conv"
  param {
    lr_mult: 1
    decay_mult: 1
  }
  param {
    lr_mult: 2
    decay_mult: 0
  }
  convolution_param {
    num_output: 128
    kernel_size: 1
    weight_filler {
      type: "xavier"
      std: 0.08
    }
    bias_filler {
      type: "constant"
      value: 0.2
    }
  }
}
layer {
  name: "loss1/relu_conv"
  type: "ReLU"
  bottom: "loss1/conv"
  top: "loss1/conv"
}
layer {
  name: "loss1/fc"
  type: "InnerProduct"
  bottom: "loss1/conv"
  top: "loss1/fc"
  param {
    lr_mult: 1
    decay_mult: 1
  }
  param {
    lr_mult: 2
    decay_mult: 0
  }
  inner_product_param {
    num_output: 1024
    weight_filler {
      type: "xavier"
      std: 0.02
    }
    bias_filler {
      type: "constant"
      value: 0.2
    }
  }
}
layer {
  name: "loss1/relu_fc"
  type: "ReLU"
  bottom: "loss1/fc"
  top: "loss1/fc"
}
layer {
  name: "loss1/drop_fc"
  type: "Dropout"
  bottom: "loss1/fc"
  top: "loss1/fc"
  dropout_param {
    dropout_ratio: 0.7
  }
}
layer {
  name: "loss1/classifier"
  type: "InnerProduct"
  bottom: "loss1/fc"
  top: "loss1/classifier"
  param {
    lr_mult: 1
    decay_mult: 1
  }
  param {
    lr_mult: 2
    decay_mult: 0
  }
  inner_product_param {
    num_output: 2
    weight_filler {
      type: "xavier"
      std: 0.0009765625
    }
    bias_filler {
      type: "constant"
      value: 0
    }
  }
}
layer {
  name: "loss1/loss"
  type: "SoftmaxWithLoss"
  bottom: "loss1/classifier"
  bottom: "label"
  top: "loss1/loss1"
  loss_weight: 0.3
}
layer {
  name: "inception_4b/1x1"
  type: "Convolution"
  bottom: "inception_4a/output"
  top: "inception_4b/1x1"
  param {
    lr_mult: 1
    decay_mult: 1
  }
  param {
    lr_mult: 2
    decay_mult: 0
  }
  convolution_param {
    num_output: 160
    kernel_size: 1
    weight_filler {
      type: "xavier"
      std: 0.03
    }
    bias_filler {
      type: "constant"
      value: 0.2
    }
  }
}
layer {
  name: "inception_4b/relu_1x1"
  type: "ReLU"
  bottom: "inception_4b/1x1"
  top: "inception_4b/1x1"
}
layer {
  name: "inception_4b/3x3_reduce"
  type: "Convolution"
  bottom: "inception_4a/output"
  top: "inception_4b/3x3_reduce"
  param {
    lr_mult: 1
    decay_mult: 1
  }
  param {
    lr_mult: 2
    decay_mult: 0
  }
  convolution_param {
    num_output: 112
    kernel_size: 1
    weight_filler {
      type: "xavier"
      std: 0.09
    }
    bias_filler {
      type: "constant"
      value: 0.2
    }
  }
}
layer {
  name: "inception_4b/relu_3x3_reduce"
  type: "ReLU"
  bottom: "inception_4b/3x3_reduce"
  top: "inception_4b/3x3_reduce"
}
layer {
  name: "inception_4b/3x3"
  type: "Convolution"
  bottom: "inception_4b/3x3_reduce"
  top: "inception_4b/3x3"
  param {
    lr_mult: 1
    decay_mult: 1
  }
  param {
    lr_mult: 2
    decay_mult: 0
  }
  convolution_param {
    num_output: 224
    pad: 1
    kernel_size: 3
    weight_filler {
      type: "xavier"
      std: 0.03
    }
    bias_filler {
      type: "constant"
      value: 0.2
    }
  }
}
layer {
  name: "inception_4b/relu_3x3"
  type: "ReLU"
  bottom: "inception_4b/3x3"
  top: "inception_4b/3x3"
}
layer {
  name: "inception_4b/5x5_reduce"
  type: "Convolution"
  bottom: "inception_4a/output"
  top: "inception_4b/5x5_reduce"
  param {
    lr_mult: 1
    decay_mult: 1
  }
  param {
    lr_mult: 2
    decay_mult: 0
  }
  convolution_param {
    num_output: 24
    kernel_size: 1
    weight_filler {
      type: "xavier"
      std: 0.2
    }
    bias_filler {
      type: "constant"
      value: 0.2
    }
  }
}
layer {
  name: "inception_4b/relu_5x5_reduce"
  type: "ReLU"
  bottom: "inception_4b/5x5_reduce"
  top: "inception_4b/5x5_reduce"
}
layer {
  name: "inception_4b/5x5"
  type: "Convolution"
  bottom: "inception_4b/5x5_reduce"
  top: "inception_4b/5x5"
  param {
    lr_mult: 1
    decay_mult: 1
  }
  param {
    lr_mult: 2
    decay_mult: 0
  }
  convolution_param {
    num_output: 64
    pad: 2
    kernel_size: 5
    weight_filler {
      type: "xavier"
      std: 0.03
    }
    bias_filler {
      type: "constant"
      value: 0.2
    }
  }
}
layer {
  name: "inception_4b/relu_5x5"
  type: "ReLU"
  bottom: "inception_4b/5x5"
  top: "inception_4b/5x5"
}
layer {
  name: "inception_4b/pool"
  type: "Pooling"
  bottom: "inception_4a/output"
  top: "inception_4b/pool"
  pooling_param {
    pool: MAX
    kernel_size: 3
    stride: 1
    pad: 1
  }
}
layer {
  name: "inception_4b/pool_proj"
  type: "Convolution"
  bottom: "inception_4b/pool"
  top: "inception_4b/pool_proj"
  param {
    lr_mult: 1
    decay_mult: 1
  }
  param {
    lr_mult: 2
    decay_mult: 0
  }
  convolution_param {
    num_output: 64
    kernel_size: 1
    weight_filler {
      type: "xavier"
      std: 0.1
    }
    bias_filler {
      type: "constant"
      value: 0.2
    }
  }
}
layer {
  name: "inception_4b/relu_pool_proj"
  type: "ReLU"
  bottom: "inception_4b/pool_proj"
  top: "inception_4b/pool_proj"
}
layer {
  name: "inception_4b/output"
  type: "Concat"
  bottom: "inception_4b/1x1"
  bottom: "inception_4b/3x3"
  bottom: "inception_4b/5x5"
  bottom: "inception_4b/pool_proj"
  top: "inception_4b/output"
}
layer {
  name: "inception_4c/1x1"
  type: "Convolution"
  bottom: "inception_4b/output"
  top: "inception_4c/1x1"
  param {
    lr_mult: 1
    decay_mult: 1
  }
  param {
    lr_mult: 2
    decay_mult: 0
  }
  convolution_param {
    num_output: 128
    kernel_size: 1
    weight_filler {
      type: "xavier"
      std: 0.03
    }
    bias_filler {
      type: "constant"
      value: 0.2
    }
  }
}
layer {
  name: "inception_4c/relu_1x1"
  type: "ReLU"
  bottom: "inception_4c/1x1"
  top: "inception_4c/1x1"
}
layer {
  name: "inception_4c/3x3_reduce"
  type: "Convolution"
  bottom: "inception_4b/output"
  top: "inception_4c/3x3_reduce"
  param {
    lr_mult: 1
    decay_mult: 1
  }
  param {
    lr_mult: 2
    decay_mult: 0
  }
  convolution_param {
    num_output: 128
    kernel_size: 1
    weight_filler {
      type: "xavier"
      std: 0.09
    }
    bias_filler {
      type: "constant"
      value: 0.2
    }
  }
}
layer {
  name: "inception_4c/relu_3x3_reduce"
  type: "ReLU"
  bottom: "inception_4c/3x3_reduce"
  top: "inception_4c/3x3_reduce"
}
layer {
  name: "inception_4c/3x3"
  type: "Convolution"
  bottom: "inception_4c/3x3_reduce"
  top: "inception_4c/3x3"
  param {
    lr_mult: 1
    decay_mult: 1
  }
  param {
    lr_mult: 2
    decay_mult: 0
  }
  convolution_param {
    num_output: 256
    pad: 1
    kernel_size: 3
    weight_filler {
      type: "xavier"
      std: 0.03
    }
    bias_filler {
      type: "constant"
      value: 0.2
    }
  }
}
layer {
  name: "inception_4c/relu_3x3"
  type: "ReLU"
  bottom: "inception_4c/3x3"
  top: "inception_4c/3x3"
}
layer {
  name: "inception_4c/5x5_reduce"
  type: "Convolution"
  bottom: "inception_4b/output"
  top: "inception_4c/5x5_reduce"
  param {
    lr_mult: 1
    decay_mult: 1
  }
  param {
    lr_mult: 2
    decay_mult: 0
  }
  convolution_param {
    num_output: 24
    kernel_size: 1
    weight_filler {
      type: "xavier"
      std: 0.2
    }
    bias_filler {
      type: "constant"
      value: 0.2
    }
  }
}
layer {
  name: "inception_4c/relu_5x5_reduce"
  type: "ReLU"
  bottom: "inception_4c/5x5_reduce"
  top: "inception_4c/5x5_reduce"
}
layer {
  name: "inception_4c/5x5"
  type: "Convolution"
  bottom: "inception_4c/5x5_reduce"
  top: "inception_4c/5x5"
  param {
    lr_mult: 1
    decay_mult: 1
  }
  param {
    lr_mult: 2
    decay_mult: 0
  }
  convolution_param {
    num_output: 64
    pad: 2
    kernel_size: 5
    weight_filler {
      type: "xavier"
      std: 0.03
    }
    bias_filler {
      type: "constant"
      value: 0.2
    }
  }
}
layer {
  name: "inception_4c/relu_5x5"
  type: "ReLU"
  bottom: "inception_4c/5x5"
  top: "inception_4c/5x5"
}
layer {
  name: "inception_4c/pool"
  type: "Pooling"
  bottom: "inception_4b/output"
  top: "inception_4c/pool"
  pooling_param {
    pool: MAX
    kernel_size: 3
    stride: 1
    pad: 1
  }
}
layer {
  name: "inception_4c/pool_proj"
  type: "Convolution"
  bottom: "inception_4c/pool"
  top: "inception_4c/pool_proj"
  param {
    lr_mult: 1
    decay_mult: 1
  }
  param {
    lr_mult: 2
    decay_mult: 0
  }
  convolution_param {
    num_output: 64
    kernel_size: 1
    weight_filler {
      type: "xavier"
      std: 0.1
    }
    bias_filler {
      type: "constant"
      value: 0.2
    }
  }
}
layer {
  name: "inception_4c/relu_pool_proj"
  type: "ReLU"
  bottom: "inception_4c/pool_proj"
  top: "inception_4c/pool_proj"
}
layer {
  name: "inception_4c/output"
  type: "Concat"
  bottom: "inception_4c/1x1"
  bottom: "inception_4c/3x3"
  bottom: "inception_4c/5x5"
  bottom: "inception_4c/pool_proj"
  top: "inception_4c/output"
}
layer {
  name: "inception_4d/1x1"
  type: "Convolution"
  bottom: "inception_4c/output"
  top: "inception_4d/1x1"
  param {
    lr_mult: 1
    decay_mult: 1
  }
  param {
    lr_mult: 2
    decay_mult: 0
  }
  convolution_param {
    num_output: 112
    kernel_size: 1
    weight_filler {
      type: "xavier"
      std: 0.03
    }
    bias_filler {
      type: "constant"
      value: 0.2
    }
  }
}
layer {
  name: "inception_4d/relu_1x1"
  type: "ReLU"
  bottom: "inception_4d/1x1"
  top: "inception_4d/1x1"
}
layer {
  name: "inception_4d/3x3_reduce"
  type: "Convolution"
  bottom: "inception_4c/output"
  top: "inception_4d/3x3_reduce"
  param {
    lr_mult: 1
    decay_mult: 1
  }
  param {
    lr_mult: 2
    decay_mult: 0
  }
  convolution_param {
    num_output: 144
    kernel_size: 1
    weight_filler {
      type: "xavier"
      std: 0.09
    }
    bias_filler {
      type: "constant"
      value: 0.2
    }
  }
}
layer {
  name: "inception_4d/relu_3x3_reduce"
  type: "ReLU"
  bottom: "inception_4d/3x3_reduce"
  top: "inception_4d/3x3_reduce"
}
layer {
  name: "inception_4d/3x3"
  type: "Convolution"
  bottom: "inception_4d/3x3_reduce"
  top: "inception_4d/3x3"
  param {
    lr_mult: 1
    decay_mult: 1
  }
  param {
    lr_mult: 2
    decay_mult: 0
  }
  convolution_param {
    num_output: 288
    pad: 1
    kernel_size: 3
    weight_filler {
      type: "xavier"
      std: 0.03
    }
    bias_filler {
      type: "constant"
      value: 0.2
    }
  }
}
layer {
  name: "inception_4d/relu_3x3"
  type: "ReLU"
  bottom: "inception_4d/3x3"
  top: "inception_4d/3x3"
}
layer {
  name: "inception_4d/5x5_reduce"
  type: "Convolution"
  bottom: "inception_4c/output"
  top: "inception_4d/5x5_reduce"
  param {
    lr_mult: 1
    decay_mult: 1
  }
  param {
    lr_mult: 2
    decay_mult: 0
  }
  convolution_param {
    num_output: 32
    kernel_size: 1
    weight_filler {
      type: "xavier"
      std: 0.2
    }
    bias_filler {
      type: "constant"
      value: 0.2
    }
  }
}
layer {
  name: "inception_4d/relu_5x5_reduce"
  type: "ReLU"
  bottom: "inception_4d/5x5_reduce"
  top: "inception_4d/5x5_reduce"
}
layer {
  name: "inception_4d/5x5"
  type: "Convolution"
  bottom: "inception_4d/5x5_reduce"
  top: "inception_4d/5x5"
  param {
    lr_mult: 1
    decay_mult: 1
  }
  param {
    lr_mult: 2
    decay_mult: 0
  }
  convolution_param {
    num_output: 64
    pad: 2
    kernel_size: 5
    weight_filler {
      type: "xavier"
      std: 0.03
    }
    bias_filler {
      type: "constant"
      value: 0.2
    }
  }
}
layer {
  name: "inception_4d/relu_5x5"
  type: "ReLU"
  bottom: "inception_4d/5x5"
  top: "inception_4d/5x5"
}
layer {
  name: "inception_4d/pool"
  type: "Pooling"
  bottom: "inception_4c/output"
  top: "inception_4d/pool"
  pooling_param {
    pool: MAX
    kernel_size: 3
    stride: 1
    pad: 1
  }
}
layer {
  name: "inception_4d/pool_proj"
  type: "Convolution"
  bottom: "inception_4d/pool"
  top: "inception_4d/pool_proj"
  param {
    lr_mult: 1
    decay_mult: 1
  }
  param {
    lr_mult: 2
    decay_mult: 0
  }
  convolution_param {
    num_output: 64
    kernel_size: 1
    weight_filler {
      type: "xavier"
      std: 0.1
    }
    bias_filler {
      type: "constant"
      value: 0.2
    }
  }
}
layer {
  name: "inception_4d/relu_pool_proj"
  type: "ReLU"
  bottom: "inception_4d/pool_proj"
  top: "inception_4d/pool_proj"
}
layer {
  name: "inception_4d/output"
  type: "Concat"
  bottom: "inception_4d/1x1"
  bottom: "inception_4d/3x3"
  bottom: "inception_4d/5x5"
  bottom: "inception_4d/pool_proj"
  top: "inception_4d/output"
}
layer {
  name: "loss2/ave_pool"
  type: "Pooling"
  bottom: "inception_4d/output"
  top: "loss2/ave_pool"
  pooling_param {
    pool: AVE
    kernel_size: 5
    stride: 3
  }
}
layer {
  name: "loss2/conv"
  type: "Convolution"
  bottom: "loss2/ave_pool"
  top: "loss2/conv"
  param {
    lr_mult: 1
    decay_mult: 1
  }
  param {
    lr_mult: 2
    decay_mult: 0
  }
  convolution_param {
    num_output: 128
    kernel_size: 1
    weight_filler {
      type: "xavier"
      std: 0.08
    }
    bias_filler {
      type: "constant"
      value: 0.2
    }
  }
}
layer {
  name: "loss2/relu_conv"
  type: "ReLU"
  bottom: "loss2/conv"
  top: "loss2/conv"
}
layer {
  name: "loss2/fc"
  type: "InnerProduct"
  bottom: "loss2/conv"
  top: "loss2/fc"
  param {
    lr_mult: 1
    decay_mult: 1
  }
  param {
    lr_mult: 2
    decay_mult: 0
  }
  inner_product_param {
    num_output: 1024
    weight_filler {
      type: "xavier"
      std: 0.02
    }
    bias_filler {
      type: "constant"
      value: 0.2
    }
  }
}
layer {
  name: "loss2/relu_fc"
  type: "ReLU"
  bottom: "loss2/fc"
  top: "loss2/fc"
}
layer {
  name: "loss2/drop_fc"
  type: "Dropout"
  bottom: "loss2/fc"
  top: "loss2/fc"
  dropout_param {
    dropout_ratio: 0.7
  }
}
layer {
  name: "loss2/classifier"
  type: "InnerProduct"
  bottom: "loss2/fc"
  top: "loss2/classifier"
  param {
    lr_mult: 1
    decay_mult: 1
  }
  param {
    lr_mult: 2
    decay_mult: 0
  }
  inner_product_param {
    num_output: 2
    weight_filler {
      type: "xavier"
      std: 0.0009765625
    }
    bias_filler {
      type: "constant"
      value: 0
    }
  }
}
layer {
  name: "loss2/loss"
  type: "SoftmaxWithLoss"
  bottom: "loss2/classifier"
  bottom: "label"
  top: "loss2/loss1"
  loss_weight: 0.3
}
layer {
  name: "inception_4e/1x1"
  type: "Convolution"
  bottom: "inception_4d/output"
  top: "inception_4e/1x1"
  param {
    lr_mult: 1
    decay_mult: 1
  }
  param {
    lr_mult: 2
    decay_mult: 0
  }
  convolution_param {
    num_output: 256
    kernel_size: 1
    weight_filler {
      type: "xavier"
      std: 0.03
    }
    bias_filler {
      type: "constant"
      value: 0.2
    }
  }
}
layer {
  name: "inception_4e/relu_1x1"
  type: "ReLU"
  bottom: "inception_4e/1x1"
  top: "inception_4e/1x1"
}
layer {
  name: "inception_4e/3x3_reduce"
  type: "Convolution"
  bottom: "inception_4d/output"
  top: "inception_4e/3x3_reduce"
  param {
    lr_mult: 1
    decay_mult: 1
  }
  param {
    lr_mult: 2
    decay_mult: 0
  }
  convolution_param {
    num_output: 160
    kernel_size: 1
    weight_filler {
      type: "xavier"
      std: 0.09
    }
    bias_filler {
      type: "constant"
      value: 0.2
    }
  }
}
layer {
  name: "inception_4e/relu_3x3_reduce"
  type: "ReLU"
  bottom: "inception_4e/3x3_reduce"
  top: "inception_4e/3x3_reduce"
}
layer {
  name: "inception_4e/3x3"
  type: "Convolution"
  bottom: "inception_4e/3x3_reduce"
  top: "inception_4e/3x3"
  param {
    lr_mult: 1
    decay_mult: 1
  }
  param {
    lr_mult: 2
    decay_mult: 0
  }
  convolution_param {
    num_output: 320
    pad: 1
    kernel_size: 3
    weight_filler {
      type: "xavier"
      std: 0.03
    }
    bias_filler {
      type: "constant"
      value: 0.2
    }
  }
}
layer {
  name: "inception_4e/relu_3x3"
  type: "ReLU"
  bottom: "inception_4e/3x3"
  top: "inception_4e/3x3"
}
layer {
  name: "inception_4e/5x5_reduce"
  type: "Convolution"
  bottom: "inception_4d/output"
  top: "inception_4e/5x5_reduce"
  param {
    lr_mult: 1
    decay_mult: 1
  }
  param {
    lr_mult: 2
    decay_mult: 0
  }
  convolution_param {
    num_output: 32
    kernel_size: 1
    weight_filler {
      type: "xavier"
      std: 0.2
    }
    bias_filler {
      type: "constant"
      value: 0.2
    }
  }
}
layer {
  name: "inception_4e/relu_5x5_reduce"
  type: "ReLU"
  bottom: "
I0510 23:35:27.697222 20050 layer_factory.hpp:74] Creating layer data
I0510 23:35:27.697253 20050 net.cpp:76] Creating Layer data
I0510 23:35:27.697266 20050 net.cpp:334] data -> data
I0510 23:35:27.697311 20050 net.cpp:334] data -> label
I0510 23:35:27.697332 20050 net.cpp:105] Setting up data
I0510 23:35:27.697445 20050 db.cpp:34] Opened lmdb train_lmdb
I0510 23:35:27.697748 20050 data_layer.cpp:67] output data size: 32,3,224,224
I0510 23:35:27.704674 20050 net.cpp:112] Top shape: 32 3 224 224 (4816896)
I0510 23:35:27.704695 20050 net.cpp:112] Top shape: 32 1 1 1 (32)
I0510 23:35:27.704706 20050 layer_factory.hpp:74] Creating layer label_data_1_split
I0510 23:35:27.704758 20050 net.cpp:76] Creating Layer label_data_1_split
I0510 23:35:27.704779 20050 net.cpp:372] label_data_1_split <- label
I0510 23:35:27.704807 20050 net.cpp:334] label_data_1_split -> label_data_1_split_0
I0510 23:35:27.704821 20050 net.cpp:334] label_data_1_split -> label_data_1_split_1
I0510 23:35:27.704831 20050 net.cpp:334] label_data_1_split -> label_data_1_split_2
I0510 23:35:27.704840 20050 net.cpp:105] Setting up label_data_1_split
I0510 23:35:27.704849 20050 net.cpp:112] Top shape: 32 1 1 1 (32)
I0510 23:35:27.704855 20050 net.cpp:112] Top shape: 32 1 1 1 (32)
I0510 23:35:27.704860 20050 net.cpp:112] Top shape: 32 1 1 1 (32)
I0510 23:35:27.704866 20050 layer_factory.hpp:74] Creating layer conv1/7x7_s2
I0510 23:35:27.704882 20050 net.cpp:76] Creating Layer conv1/7x7_s2
I0510 23:35:27.704888 20050 net.cpp:372] conv1/7x7_s2 <- data
I0510 23:35:27.704897 20050 net.cpp:334] conv1/7x7_s2 -> conv1/7x7_s2
I0510 23:35:27.704910 20050 net.cpp:105] Setting up conv1/7x7_s2
I0510 23:35:27.705042 20050 net.cpp:112] Top shape: 32 64 112 112 (25690112)
I0510 23:35:27.705093 20050 layer_factory.hpp:74] Creating layer conv1/relu_7x7
I0510 23:35:27.705104 20050 net.cpp:76] Creating Layer conv1/relu_7x7
I0510 23:35:27.705109 20050 net.cpp:372] conv1/relu_7x7 <- conv1/7x7_s2
I0510 23:35:27.705117 20050 net.cpp:323] conv1/relu_7x7 -> conv1/7x7_s2 (in-place)
I0510 23:35:27.705126 20050 net.cpp:105] Setting up conv1/relu_7x7
I0510 23:35:27.705133 20050 net.cpp:112] Top shape: 32 64 112 112 (25690112)
I0510 23:35:27.705139 20050 layer_factory.hpp:74] Creating layer pool1/3x3_s2
I0510 23:35:27.705148 20050 net.cpp:76] Creating Layer pool1/3x3_s2
I0510 23:35:27.705154 20050 net.cpp:372] pool1/3x3_s2 <- conv1/7x7_s2
I0510 23:35:27.705162 20050 net.cpp:334] pool1/3x3_s2 -> pool1/3x3_s2
I0510 23:35:27.705170 20050 net.cpp:105] Setting up pool1/3x3_s2
I0510 23:35:27.705184 20050 net.cpp:112] Top shape: 32 64 56 56 (6422528)
I0510 23:35:27.705190 20050 layer_factory.hpp:74] Creating layer pool1/norm1
I0510 23:35:27.705200 20050 net.cpp:76] Creating Layer pool1/norm1
I0510 23:35:27.705206 20050 net.cpp:372] pool1/norm1 <- pool1/3x3_s2
I0510 23:35:27.705214 20050 net.cpp:334] pool1/norm1 -> pool1/norm1
I0510 23:35:27.705224 20050 net.cpp:105] Setting up pool1/norm1
I0510 23:35:27.705230 20050 net.cpp:112] Top shape: 32 64 56 56 (6422528)
I0510 23:35:27.705235 20050 layer_factory.hpp:74] Creating layer conv2/3x3_reduce
I0510 23:35:27.705245 20050 net.cpp:76] Creating Layer conv2/3x3_reduce
I0510 23:35:27.705250 20050 net.cpp:372] conv2/3x3_reduce <- pool1/norm1
I0510 23:35:27.705258 20050 net.cpp:334] conv2/3x3_reduce -> conv2/3x3_reduce
I0510 23:35:27.705268 20050 net.cpp:105] Setting up conv2/3x3_reduce
I0510 23:35:27.705332 20050 net.cpp:112] Top shape: 32 64 56 56 (6422528)
I0510 23:35:27.705343 20050 layer_factory.hpp:74] Creating layer conv2/relu_3x3_reduce
I0510 23:35:27.705353 20050 net.cpp:76] Creating Layer conv2/relu_3x3_reduce
I0510 23:35:27.705358 20050 net.cpp:372] conv2/relu_3x3_reduce <- conv2/3x3_reduce
I0510 23:35:27.705364 20050 net.cpp:323] conv2/relu_3x3_reduce -> conv2/3x3_reduce (in-place)
I0510 23:35:27.705373 20050 net.cpp:105] Setting up conv2/relu_3x3_reduce
I0510 23:35:27.705379 20050 net.cpp:112] Top shape: 32 64 56 56 (6422528)
I0510 23:35:27.705384 20050 layer_factory.hpp:74] Creating layer conv2/3x3
I0510 23:35:27.705392 20050 net.cpp:76] Creating Layer conv2/3x3
I0510 23:35:27.705397 20050 net.cpp:372] conv2/3x3 <- conv2/3x3_reduce
I0510 23:35:27.705406 20050 net.cpp:334] conv2/3x3 -> conv2/3x3
I0510 23:35:27.705415 20050 net.cpp:105] Setting up conv2/3x3
I0510 23:35:27.706652 20050 net.cpp:112] Top shape: 32 192 56 56 (19267584)
I0510 23:35:27.706676 20050 layer_factory.hpp:74] Creating layer conv2/relu_3x3
I0510 23:35:27.706686 20050 net.cpp:76] Creating Layer conv2/relu_3x3
I0510 23:35:27.706692 20050 net.cpp:372] conv2/relu_3x3 <- conv2/3x3
I0510 23:35:27.706701 20050 net.cpp:323] conv2/relu_3x3 -> conv2/3x3 (in-place)
I0510 23:35:27.706709 20050 net.cpp:105] Setting up conv2/relu_3x3
I0510 23:35:27.706714 20050 net.cpp:112] Top shape: 32 192 56 56 (19267584)
I0510 23:35:27.706720 20050 layer_factory.hpp:74] Creating layer conv2/norm2
I0510 23:35:27.706733 20050 net.cpp:76] Creating Layer conv2/norm2
I0510 23:35:27.706740 20050 net.cpp:372] conv2/norm2 <- conv2/3x3
I0510 23:35:27.706748 20050 net.cpp:334] conv2/norm2 -> conv2/norm2
I0510 23:35:27.706756 20050 net.cpp:105] Setting up conv2/norm2
I0510 23:35:27.706763 20050 net.cpp:112] Top shape: 32 192 56 56 (19267584)
I0510 23:35:27.706768 20050 layer_factory.hpp:74] Creating layer pool2/3x3_s2
I0510 23:35:27.706799 20050 net.cpp:76] Creating Layer pool2/3x3_s2
I0510 23:35:27.706814 20050 net.cpp:372] pool2/3x3_s2 <- conv2/norm2
I0510 23:35:27.706822 20050 net.cpp:334] pool2/3x3_s2 -> pool2/3x3_s2
I0510 23:35:27.706832 20050 net.cpp:105] Setting up pool2/3x3_s2
I0510 23:35:27.706840 20050 net.cpp:112] Top shape: 32 192 28 28 (4816896)
I0510 23:35:27.706845 20050 layer_factory.hpp:74] Creating layer pool2/3x3_s2_pool2/3x3_s2_0_split
I0510 23:35:27.706853 20050 net.cpp:76] Creating Layer pool2/3x3_s2_pool2/3x3_s2_0_split
I0510 23:35:27.706876 20050 net.cpp:372] pool2/3x3_s2_pool2/3x3_s2_0_split <- pool2/3x3_s2
I0510 23:35:27.706889 20050 net.cpp:334] pool2/3x3_s2_pool2/3x3_s2_0_split -> pool2/3x3_s2_pool2/3x3_s2_0_split_0
I0510 23:35:27.706898 20050 net.cpp:334] pool2/3x3_s2_pool2/3x3_s2_0_split -> pool2/3x3_s2_pool2/3x3_s2_0_split_1
I0510 23:35:27.706913 20050 net.cpp:334] pool2/3x3_s2_pool2/3x3_s2_0_split -> pool2/3x3_s2_pool2/3x3_s2_0_split_2
I0510 23:35:27.706924 20050 net.cpp:334] pool2/3x3_s2_pool2/3x3_s2_0_split -> pool2/3x3_s2_pool2/3x3_s2_0_split_3
I0510 23:35:27.706933 20050 net.cpp:105] Setting up pool2/3x3_s2_pool2/3x3_s2_0_split
I0510 23:35:27.706940 20050 net.cpp:112] Top shape: 32 192 28 28 (4816896)
I0510 23:35:27.706949 20050 net.cpp:112] Top shape: 32 192 28 28 (4816896)
I0510 23:35:27.706959 20050 net.cpp:112] Top shape: 32 192 28 28 (4816896)
I0510 23:35:27.706967 20050 net.cpp:112] Top shape: 32 192 28 28 (4816896)
I0510 23:35:27.706979 20050 layer_factory.hpp:74] Creating layer inception_3a/1x1
I0510 23:35:27.707000 20050 net.cpp:76] Creating Layer inception_3a/1x1
I0510 23:35:27.707010 20050 net.cpp:372] inception_3a/1x1 <- pool2/3x3_s2_pool2/3x3_s2_0_split_0
I0510 23:35:27.707026 20050 net.cpp:334] inception_3a/1x1 -> inception_3a/1x1
I0510 23:35:27.707048 20050 net.cpp:105] Setting up inception_3a/1x1
I0510 23:35:27.707187 20050 net.cpp:112] Top shape: 32 64 28 28 (1605632)
I0510 23:35:27.707201 20050 layer_factory.hpp:74] Creating layer inception_3a/relu_1x1
I0510 23:35:27.707208 20050 net.cpp:76] Creating Layer inception_3a/relu_1x1
I0510 23:35:27.707214 20050 net.cpp:372] inception_3a/relu_1x1 <- inception_3a/1x1
I0510 23:35:27.707223 20050 net.cpp:323] inception_3a/relu_1x1 -> inception_3a/1x1 (in-place)
I0510 23:35:27.707231 20050 net.cpp:105] Setting up inception_3a/relu_1x1
I0510 23:35:27.707237 20050 net.cpp:112] Top shape: 32 64 28 28 (1605632)
I0510 23:35:27.707242 20050 layer_factory.hpp:74] Creating layer inception_3a/3x3_reduce
I0510 23:35:27.707252 20050 net.cpp:76] Creating Layer inception_3a/3x3_reduce
I0510 23:35:27.707257 20050 net.cpp:372] inception_3a/3x3_reduce <- pool2/3x3_s2_pool2/3x3_s2_0_split_1
I0510 23:35:27.707264 20050 net.cpp:334] inception_3a/3x3_reduce -> inception_3a/3x3_reduce
I0510 23:35:27.707290 20050 net.cpp:105] Setting up inception_3a/3x3_reduce
I0510 23:35:27.707581 20050 net.cpp:112] Top shape: 32 96 28 28 (2408448)
I0510 23:35:27.707602 20050 layer_factory.hpp:74] Creating layer inception_3a/relu_3x3_reduce
I0510 23:35:27.707613 20050 net.cpp:76] Creating Layer inception_3a/relu_3x3_reduce
I0510 23:35:27.707620 20050 net.cpp:372] inception_3a/relu_3x3_reduce <- inception_3a/3x3_reduce
I0510 23:35:27.707630 20050 net.cpp:323] inception_3a/relu_3x3_reduce -> inception_3a/3x3_reduce (in-place)
I0510 23:35:27.707639 20050 net.cpp:105] Setting up inception_3a/relu_3x3_reduce
I0510 23:35:27.707644 20050 net.cpp:112] Top shape: 32 96 28 28 (2408448)
I0510 23:35:27.707650 20050 layer_factory.hpp:74] Creating layer inception_3a/3x3
I0510 23:35:27.707659 20050 net.cpp:76] Creating Layer inception_3a/3x3
I0510 23:35:27.707664 20050 net.cpp:372] inception_3a/3x3 <- inception_3a/3x3_reduce
I0510 23:35:27.707672 20050 net.cpp:334] inception_3a/3x3 -> inception_3a/3x3
I0510 23:35:27.707680 20050 net.cpp:105] Setting up inception_3a/3x3
I0510 23:35:27.709182 20050 net.cpp:112] Top shape: 32 128 28 28 (3211264)
I0510 23:35:27.709200 20050 layer_factory.hpp:74] Creating layer inception_3a/relu_3x3
I0510 23:35:27.709213 20050 net.cpp:76] Creating Layer inception_3a/relu_3x3
I0510 23:35:27.709219 20050 net.cpp:372] inception_3a/relu_3x3 <- inception_3a/3x3
I0510 23:35:27.709228 20050 net.cpp:323] inception_3a/relu_3x3 -> inception_3a/3x3 (in-place)
I0510 23:35:27.709235 20050 net.cpp:105] Setting up inception_3a/relu_3x3
I0510 23:35:27.709240 20050 net.cpp:112] Top shape: 32 128 28 28 (3211264)
I0510 23:35:27.709246 20050 layer_factory.hpp:74] Creating layer inception_3a/5x5_reduce
I0510 23:35:27.709257 20050 net.cpp:76] Creating Layer inception_3a/5x5_reduce
I0510 23:35:27.709301 20050 net.cpp:372] inception_3a/5x5_reduce <- pool2/3x3_s2_pool2/3x3_s2_0_split_2
I0510 23:35:27.709312 20050 net.cpp:334] inception_3a/5x5_reduce -> inception_3a/5x5_reduce
I0510 23:35:27.709322 20050 net.cpp:105] Setting up inception_3a/5x5_reduce
I0510 23:35:27.709365 20050 net.cpp:112] Top shape: 32 16 28 28 (401408)
I0510 23:35:27.709377 20050 layer_factory.hpp:74] Creating layer inception_3a/relu_5x5_reduce
I0510 23:35:27.709384 20050 net.cpp:76] Creating Layer inception_3a/relu_5x5_reduce
I0510 23:35:27.709389 20050 net.cpp:372] inception_3a/relu_5x5_reduce <- inception_3a/5x5_reduce
I0510 23:35:27.709399 20050 net.cpp:323] inception_3a/relu_5x5_reduce -> inception_3a/5x5_reduce (in-place)
I0510 23:35:27.709408 20050 net.cpp:105] Setting up inception_3a/relu_5x5_reduce
I0510 23:35:27.709415 20050 net.cpp:112] Top shape: 32 16 28 28 (401408)
I0510 23:35:27.709421 20050 layer_factory.hpp:74] Creating layer inception_3a/5x5
I0510 23:35:27.709430 20050 net.cpp:76] Creating Layer inception_3a/5x5
I0510 23:35:27.709435 20050 net.cpp:372] inception_3a/5x5 <- inception_3a/5x5_reduce
I0510 23:35:27.709447 20050 net.cpp:334] inception_3a/5x5 -> inception_3a/5x5
I0510 23:35:27.709456 20050 net.cpp:105] Setting up inception_3a/5x5
I0510 23:35:27.709602 20050 net.cpp:112] Top shape: 32 32 28 28 (802816)
I0510 23:35:27.709621 20050 layer_factory.hpp:74] Creating layer inception_3a/relu_5x5
I0510 23:35:27.709633 20050 net.cpp:76] Creating Layer inception_3a/relu_5x5
I0510 23:35:27.709640 20050 net.cpp:372] inception_3a/relu_5x5 <- inception_3a/5x5
I0510 23:35:27.709647 20050 net.cpp:323] inception_3a/relu_5x5 -> inception_3a/5x5 (in-place)
I0510 23:35:27.709656 20050 net.cpp:105] Setting up inception_3a/relu_5x5
I0510 23:35:27.709661 20050 net.cpp:112] Top shape: 32 32 28 28 (802816)
I0510 23:35:27.709667 20050 layer_factory.hpp:74] Creating layer inception_3a/pool
I0510 23:35:27.709677 20050 net.cpp:76] Creating Layer inception_3a/pool
I0510 23:35:27.709683 20050 net.cpp:372] inception_3a/pool <- pool2/3x3_s2_pool2/3x3_s2_0_split_3
I0510 23:35:27.709692 20050 net.cpp:334] inception_3a/pool -> inception_3a/pool
I0510 23:35:27.709699 20050 net.cpp:105] Setting up inception_3a/pool
I0510 23:35:27.709707 20050 net.cpp:112] Top shape: 32 192 28 28 (4816896)
I0510 23:35:27.709712 20050 layer_factory.hpp:74] Creating layer inception_3a/pool_proj
I0510 23:35:27.709722 20050 net.cpp:76] Creating Layer inception_3a/pool_proj
I0510 23:35:27.709728 20050 net.cpp:372] inception_3a/pool_proj <- inception_3a/pool
I0510 23:35:27.709738 20050 net.cpp:334] inception_3a/pool_proj -> inception_3a/pool_proj
I0510 23:35:27.709746 20050 net.cpp:105] Setting up inception_3a/pool_proj
I0510 23:35:27.709812 20050 net.cpp:112] Top shape: 32 32 28 28 (802816)
I0510 23:35:27.709825 20050 layer_factory.hpp:74] Creating layer inception_3a/relu_pool_proj
I0510 23:35:27.709832 20050 net.cpp:76] Creating Layer inception_3a/relu_pool_proj
I0510 23:35:27.709838 20050 net.cpp:372] inception_3a/relu_pool_proj <- inception_3a/pool_proj
I0510 23:35:27.709846 20050 net.cpp:323] inception_3a/relu_pool_proj -> inception_3a/pool_proj (in-place)
I0510 23:35:27.709853 20050 net.cpp:105] Setting up inception_3a/relu_pool_proj
I0510 23:35:27.709858 20050 net.cpp:112] Top shape: 32 32 28 28 (802816)
I0510 23:35:27.709863 20050 layer_factory.hpp:74] Creating layer inception_3a/output
I0510 23:35:27.709874 20050 net.cpp:76] Creating Layer inception_3a/output
I0510 23:35:27.709880 20050 net.cpp:372] inception_3a/output <- inception_3a/1x1
I0510 23:35:27.709887 20050 net.cpp:372] inception_3a/output <- inception_3a/3x3
I0510 23:35:27.709892 20050 net.cpp:372] inception_3a/output <- inception_3a/5x5
I0510 23:35:27.709898 20050 net.cpp:372] inception_3a/output <- inception_3a/pool_proj
I0510 23:35:27.709905 20050 net.cpp:334] inception_3a/output -> inception_3a/output
I0510 23:35:27.709919 20050 net.cpp:105] Setting up inception_3a/output
I0510 23:35:27.709960 20050 net.cpp:112] Top shape: 32 256 28 28 (6422528)
I0510 23:35:27.709980 20050 layer_factory.hpp:74] Creating layer inception_3a/output_inception_3a/output_0_split
I0510 23:35:27.710011 20050 net.cpp:76] Creating Layer inception_3a/output_inception_3a/output_0_split
I0510 23:35:27.710018 20050 net.cpp:372] inception_3a/output_inception_3a/output_0_split <- inception_3a/output
I0510 23:35:27.710027 20050 net.cpp:334] inception_3a/output_inception_3a/output_0_split -> inception_3a/output_inception_3a/output_0_split_0
I0510 23:35:27.710037 20050 net.cpp:334] inception_3a/output_inception_3a/output_0_split -> inception_3a/output_inception_3a/output_0_split_1
I0510 23:35:27.710049 20050 net.cpp:334] inception_3a/output_inception_3a/output_0_split -> inception_3a/output_inception_3a/output_0_split_2
I0510 23:35:27.710059 20050 net.cpp:334] inception_3a/output_inception_3a/output_0_split -> inception_3a/output_inception_3a/output_0_split_3
I0510 23:35:27.710067 20050 net.cpp:105] Setting up inception_3a/output_inception_3a/output_0_split
I0510 23:35:27.710077 20050 net.cpp:112] Top shape: 32 256 28 28 (6422528)
I0510 23:35:27.710082 20050 net.cpp:112] Top shape: 32 256 28 28 (6422528)
I0510 23:35:27.710086 20050 net.cpp:112] Top shape: 32 256 28 28 (6422528)
I0510 23:35:27.710091 20050 net.cpp:112] Top shape: 32 256 28 28 (6422528)
I0510 23:35:27.710096 20050 layer_factory.hpp:74] Creating layer inception_3b/1x1
I0510 23:35:27.710105 20050 net.cpp:76] Creating Layer inception_3b/1x1
I0510 23:35:27.710111 20050 net.cpp:372] inception_3b/1x1 <- inception_3a/output_inception_3a/output_0_split_0
I0510 23:35:27.710126 20050 net.cpp:334] inception_3b/1x1 -> inception_3b/1x1
I0510 23:35:27.710135 20050 net.cpp:105] Setting up inception_3b/1x1
I0510 23:35:27.710777 20050 net.cpp:112] Top shape: 32 128 28 28 (3211264)
I0510 23:35:27.710803 20050 layer_factory.hpp:74] Creating layer inception_3b/relu_1x1
I0510 23:35:27.710819 20050 net.cpp:76] Creating Layer inception_3b/relu_1x1
I0510 23:35:27.710829 20050 net.cpp:372] inception_3b/relu_1x1 <- inception_3b/1x1
I0510 23:35:27.710845 20050 net.cpp:323] inception_3b/relu_1x1 -> inception_3b/1x1 (in-place)
I0510 23:35:27.710860 20050 net.cpp:105] Setting up inception_3b/relu_1x1
I0510 23:35:27.710870 20050 net.cpp:112] Top shape: 32 128 28 28 (3211264)
I0510 23:35:27.710878 20050 layer_factory.hpp:74] Creating layer inception_3b/3x3_reduce
I0510 23:35:27.710893 20050 net.cpp:76] Creating Layer inception_3b/3x3_reduce
I0510 23:35:27.710903 20050 net.cpp:372] inception_3b/3x3_reduce <- inception_3a/output_inception_3a/output_0_split_1
I0510 23:35:27.710922 20050 net.cpp:334] inception_3b/3x3_reduce -> inception_3b/3x3_reduce
I0510 23:35:27.710937 20050 net.cpp:105] Setting up inception_3b/3x3_reduce
I0510 23:35:27.711405 20050 net.cpp:112] Top shape: 32 128 28 28 (3211264)
I0510 23:35:27.711422 20050 layer_factory.hpp:74] Creating layer inception_3b/relu_3x3_reduce
I0510 23:35:27.711431 20050 net.cpp:76] Creating Layer inception_3b/relu_3x3_reduce
I0510 23:35:27.711437 20050 net.cpp:372] inception_3b/relu_3x3_reduce <- inception_3b/3x3_reduce
I0510 23:35:27.711446 20050 net.cpp:323] inception_3b/relu_3x3_reduce -> inception_3b/3x3_reduce (in-place)
I0510 23:35:27.711457 20050 net.cpp:105] Setting up inception_3b/relu_3x3_reduce
I0510 23:35:27.711462 20050 net.cpp:112] Top shape: 32 128 28 28 (3211264)
I0510 23:35:27.711467 20050 layer_factory.hpp:74] Creating layer inception_3b/3x3
I0510 23:35:27.711479 20050 net.cpp:76] Creating Layer inception_3b/3x3
I0510 23:35:27.711485 20050 net.cpp:372] inception_3b/3x3 <- inception_3b/3x3_reduce
I0510 23:35:27.711496 20050 net.cpp:334] inception_3b/3x3 -> inception_3b/3x3
I0510 23:35:27.711505 20050 net.cpp:105] Setting up inception_3b/3x3
I0510 23:35:27.714438 20050 net.cpp:112] Top shape: 32 192 28 28 (4816896)
I0510 23:35:27.714462 20050 layer_factory.hpp:74] Creating layer inception_3b/relu_3x3
I0510 23:35:27.714473 20050 net.cpp:76] Creating Layer inception_3b/relu_3x3
I0510 23:35:27.714479 20050 net.cpp:372] inception_3b/relu_3x3 <- inception_3b/3x3
I0510 23:35:27.714489 20050 net.cpp:323] inception_3b/relu_3x3 -> inception_3b/3x3 (in-place)
I0510 23:35:27.714524 20050 net.cpp:105] Setting up inception_3b/relu_3x3
I0510 23:35:27.714530 20050 net.cpp:112] Top shape: 32 192 28 28 (4816896)
I0510 23:35:27.714536 20050 layer_factory.hpp:74] Creating layer inception_3b/5x5_reduce
I0510 23:35:27.714545 20050 net.cpp:76] Creating Layer inception_3b/5x5_reduce
I0510 23:35:27.714551 20050 net.cpp:372] inception_3b/5x5_reduce <- inception_3a/output_inception_3a/output_0_split_2
I0510 23:35:27.714562 20050 net.cpp:334] inception_3b/5x5_reduce -> inception_3b/5x5_reduce
I0510 23:35:27.714572 20050 net.cpp:105] Setting up inception_3b/5x5_reduce
I0510 23:35:27.714654 20050 net.cpp:112] Top shape: 32 32 28 28 (802816)
I0510 23:35:27.714665 20050 layer_factory.hpp:74] Creating layer inception_3b/relu_5x5_reduce
I0510 23:35:27.714675 20050 net.cpp:76] Creating Layer inception_3b/relu_5x5_reduce
I0510 23:35:27.714681 20050 net.cpp:372] inception_3b/relu_5x5_reduce <- inception_3b/5x5_reduce
I0510 23:35:27.714689 20050 net.cpp:323] inception_3b/relu_5x5_reduce -> inception_3b/5x5_reduce (in-place)
I0510 23:35:27.714695 20050 net.cpp:105] Setting up inception_3b/relu_5x5_reduce
I0510 23:35:27.714701 20050 net.cpp:112] Top shape: 32 32 28 28 (802816)
I0510 23:35:27.714706 20050 layer_factory.hpp:74] Creating layer inception_3b/5x5
I0510 23:35:27.714716 20050 net.cpp:76] Creating Layer inception_3b/5x5
I0510 23:35:27.714722 20050 net.cpp:372] inception_3b/5x5 <- inception_3b/5x5_reduce
I0510 23:35:27.714730 20050 net.cpp:334] inception_3b/5x5 -> inception_3b/5x5
I0510 23:35:27.714742 20050 net.cpp:105] Setting up inception_3b/5x5
I0510 23:35:27.715441 20050 net.cpp:112] Top shape: 32 96 28 28 (2408448)
I0510 23:35:27.715456 20050 layer_factory.hpp:74] Creating layer inception_3b/relu_5x5
I0510 23:35:27.715468 20050 net.cpp:76] Creating Layer inception_3b/relu_5x5
I0510 23:35:27.715474 20050 net.cpp:372] inception_3b/relu_5x5 <- inception_3b/5x5
I0510 23:35:27.715483 20050 net.cpp:323] inception_3b/relu_5x5 -> inception_3b/5x5 (in-place)
I0510 23:35:27.715492 20050 net.cpp:105] Setting up inception_3b/relu_5x5
I0510 23:35:27.715497 20050 net.cpp:112] Top shape: 32 96 28 28 (2408448)
I0510 23:35:27.715502 20050 layer_factory.hpp:74] Creating layer inception_3b/pool
I0510 23:35:27.715513 20050 net.cpp:76] Creating Layer inception_3b/pool
I0510 23:35:27.715519 20050 net.cpp:372] inception_3b/pool <- inception_3a/output_inception_3a/output_0_split_3
I0510 23:35:27.715528 20050 net.cpp:334] inception_3b/pool -> inception_3b/pool
I0510 23:35:27.715536 20050 net.cpp:105] Setting up inception_3b/pool
I0510 23:35:27.715544 20050 net.cpp:112] Top shape: 32 256 28 28 (6422528)
I0510 23:35:27.715550 20050 layer_factory.hpp:74] Creating layer inception_3b/pool_proj
I0510 23:35:27.715561 20050 net.cpp:76] Creating Layer inception_3b/pool_proj
I0510 23:35:27.715567 20050 net.cpp:372] inception_3b/pool_proj <- inception_3b/pool
I0510 23:35:27.715575 20050 net.cpp:334] inception_3b/pool_proj -> inception_3b/pool_proj
I0510 23:35:27.715584 20050 net.cpp:105] Setting up inception_3b/pool_proj
I0510 23:35:27.715739 20050 net.cpp:112] Top shape: 32 64 28 28 (1605632)
I0510 23:35:27.715754 20050 layer_factory.hpp:74] Creating layer inception_3b/relu_pool_proj
I0510 23:35:27.715764 20050 net.cpp:76] Creating Layer inception_3b/relu_pool_proj
I0510 23:35:27.715770 20050 net.cpp:372] inception_3b/relu_pool_proj <- inception_3b/pool_proj
I0510 23:35:27.715778 20050 net.cpp:323] inception_3b/relu_pool_proj -> inception_3b/pool_proj (in-place)
I0510 23:35:27.715785 20050 net.cpp:105] Setting up inception_3b/relu_pool_proj
I0510 23:35:27.715791 20050 net.cpp:112] Top shape: 32 64 28 28 (1605632)
I0510 23:35:27.715796 20050 layer_factory.hpp:74] Creating layer inception_3b/output
I0510 23:35:27.715805 20050 net.cpp:76] Creating Layer inception_3b/output
I0510 23:35:27.715811 20050 net.cpp:372] inception_3b/output <- inception_3b/1x1
I0510 23:35:27.715819 20050 net.cpp:372] inception_3b/output <- inception_3b/3x3
I0510 23:35:27.715826 20050 net.cpp:372] inception_3b/output <- inception_3b/5x5
I0510 23:35:27.715847 20050 net.cpp:372] inception_3b/output <- inception_3b/pool_proj
I0510 23:35:27.715857 20050 net.cpp:334] inception_3b/output -> inception_3b/output
I0510 23:35:27.715864 20050 net.cpp:105] Setting up inception_3b/output
I0510 23:35:27.715872 20050 net.cpp:112] Top shape: 32 480 28 28 (12042240)
I0510 23:35:27.715878 20050 layer_factory.hpp:74] Creating layer pool3/3x3_s2
I0510 23:35:27.715888 20050 net.cpp:76] Creating Layer pool3/3x3_s2
I0510 23:35:27.715894 20050 net.cpp:372] pool3/3x3_s2 <- inception_3b/output
I0510 23:35:27.715901 20050 net.cpp:334] pool3/3x3_s2 -> pool3/3x3_s2
I0510 23:35:27.715909 20050 net.cpp:105] Setting up pool3/3x3_s2
I0510 23:35:27.715916 20050 net.cpp:112] Top shape: 32 480 14 14 (3010560)
I0510 23:35:27.715921 20050 layer_factory.hpp:74] Creating layer pool3/3x3_s2_pool3/3x3_s2_0_split
I0510 23:35:27.715931 20050 net.cpp:76] Creating Layer pool3/3x3_s2_pool3/3x3_s2_0_split
I0510 23:35:27.715937 20050 net.cpp:372] pool3/3x3_s2_pool3/3x3_s2_0_split <- pool3/3x3_s2
I0510 23:35:27.715945 20050 net.cpp:334] pool3/3x3_s2_pool3/3x3_s2_0_split -> pool3/3x3_s2_pool3/3x3_s2_0_split_0
I0510 23:35:27.715953 20050 net.cpp:334] pool3/3x3_s2_pool3/3x3_s2_0_split -> pool3/3x3_s2_pool3/3x3_s2_0_split_1
I0510 23:35:27.715961 20050 net.cpp:334] pool3/3x3_s2_pool3/3x3_s2_0_split -> pool3/3x3_s2_pool3/3x3_s2_0_split_2
I0510 23:35:27.715970 20050 net.cpp:334] pool3/3x3_s2_pool3/3x3_s2_0_split -> pool3/3x3_s2_pool3/3x3_s2_0_split_3
I0510 23:35:27.715977 20050 net.cpp:105] Setting up pool3/3x3_s2_pool3/3x3_s2_0_split
I0510 23:35:27.715984 20050 net.cpp:112] Top shape: 32 480 14 14 (3010560)
I0510 23:35:27.715989 20050 net.cpp:112] Top shape: 32 480 14 14 (3010560)
I0510 23:35:27.715993 20050 net.cpp:112] Top shape: 32 480 14 14 (3010560)
I0510 23:35:27.715998 20050 net.cpp:112] Top shape: 32 480 14 14 (3010560)
I0510 23:35:27.716003 20050 layer_factory.hpp:74] Creating layer inception_4a/1x1
I0510 23:35:27.716014 20050 net.cpp:76] Creating Layer inception_4a/1x1
I0510 23:35:27.716020 20050 net.cpp:372] inception_4a/1x1 <- pool3/3x3_s2_pool3/3x3_s2_0_split_0
I0510 23:35:27.716030 20050 net.cpp:334] inception_4a/1x1 -> inception_4a/1x1
I0510 23:35:27.716039 20050 net.cpp:105] Setting up inception_4a/1x1
I0510 23:35:27.716837 20050 net.cpp:112] Top shape: 32 192 14 14 (1204224)
I0510 23:35:27.716852 20050 layer_factory.hpp:74] Creating layer inception_4a/relu_1x1
I0510 23:35:27.716863 20050 net.cpp:76] Creating Layer inception_4a/relu_1x1
I0510 23:35:27.716892 20050 net.cpp:372] inception_4a/relu_1x1 <- inception_4a/1x1
I0510 23:35:27.716899 20050 net.cpp:323] inception_4a/relu_1x1 -> inception_4a/1x1 (in-place)
I0510 23:35:27.716908 20050 net.cpp:105] Setting up inception_4a/relu_1x1
I0510 23:35:27.716913 20050 net.cpp:112] Top shape: 32 192 14 14 (1204224)
I0510 23:35:27.716919 20050 layer_factory.hpp:74] Creating layer inception_4a/3x3_reduce
I0510 23:35:27.716930 20050 net.cpp:76] Creating Layer inception_4a/3x3_reduce
I0510 23:35:27.716936 20050 net.cpp:372] inception_4a/3x3_reduce <- pool3/3x3_s2_pool3/3x3_s2_0_split_1
I0510 23:35:27.716944 20050 net.cpp:334] inception_4a/3x3_reduce -> inception_4a/3x3_reduce
I0510 23:35:27.716953 20050 net.cpp:105] Setting up inception_4a/3x3_reduce
I0510 23:35:27.717383 20050 net.cpp:112] Top shape: 32 96 14 14 (602112)
I0510 23:35:27.717406 20050 layer_factory.hpp:74] Creating layer inception_4a/relu_3x3_reduce
I0510 23:35:27.717416 20050 net.cpp:76] Creating Layer inception_4a/relu_3x3_reduce
I0510 23:35:27.717422 20050 net.cpp:372] inception_4a/relu_3x3_reduce <- inception_4a/3x3_reduce
I0510 23:35:27.717428 20050 net.cpp:323] inception_4a/relu_3x3_reduce -> inception_4a/3x3_reduce (in-place)
I0510 23:35:27.717437 20050 net.cpp:105] Setting up inception_4a/relu_3x3_reduce
I0510 23:35:27.717442 20050 net.cpp:112] Top shape: 32 96 14 14 (602112)
I0510 23:35:27.717447 20050 layer_factory.hpp:74] Creating layer inception_4a/3x3
I0510 23:35:27.717458 20050 net.cpp:76] Creating Layer inception_4a/3x3
I0510 23:35:27.717464 20050 net.cpp:372] inception_4a/3x3 <- inception_4a/3x3_reduce
I0510 23:35:27.717490 20050 net.cpp:334] inception_4a/3x3 -> inception_4a/3x3
I0510 23:35:27.717500 20050 net.cpp:105] Setting up inception_4a/3x3
I0510 23:35:27.719046 20050 net.cpp:112] Top shape: 32 208 14 14 (1304576)
I0510 23:35:27.719063 20050 layer_factory.hpp:74] Creating layer inception_4a/relu_3x3
I0510 23:35:27.719071 20050 net.cpp:76] Creating Layer inception_4a/relu_3x3
I0510 23:35:27.719077 20050 net.cpp:372] inception_4a/relu_3x3 <- inception_4a/3x3
I0510 23:35:27.719084 20050 net.cpp:323] inception_4a/relu_3x3 -> inception_4a/3x3 (in-place)
I0510 23:35:27.719092 20050 net.cpp:105] Setting up inception_4a/relu_3x3
I0510 23:35:27.719097 20050 net.cpp:112] Top shape: 32 208 14 14 (1304576)
I0510 23:35:27.719102 20050 layer_factory.hpp:74] Creating layer inception_4a/5x5_reduce
I0510 23:35:27.719113 20050 net.cpp:76] Creating Layer inception_4a/5x5_reduce
I0510 23:35:27.719120 20050 net.cpp:372] inception_4a/5x5_reduce <- pool3/3x3_s2_pool3/3x3_s2_0_split_2
I0510 23:35:27.719128 20050 net.cpp:334] inception_4a/5x5_reduce -> inception_4a/5x5_reduce
I0510 23:35:27.719137 20050 net.cpp:105] Setting up inception_4a/5x5_reduce
I0510 23:35:27.719211 20050 net.cpp:112] Top shape: 32 16 14 14 (100352)
I0510 23:35:27.719221 20050 layer_factory.hpp:74] Creating layer inception_4a/relu_5x5_reduce
I0510 23:35:27.719228 20050 net.cpp:76] Creating Layer inception_4a/relu_5x5_reduce
I0510 23:35:27.719234 20050 net.cpp:372] inception_4a/relu_5x5_reduce <- inception_4a/5x5_reduce
I0510 23:35:27.719244 20050 net.cpp:323] inception_4a/relu_5x5_reduce -> inception_4a/5x5_reduce (in-place)
I0510 23:35:27.719250 20050 net.cpp:105] Setting up inception_4a/relu_5x5_reduce
I0510 23:35:27.719255 20050 net.cpp:112] Top shape: 32 16 14 14 (100352)
I0510 23:35:27.719261 20050 layer_factory.hpp:74] Creating layer inception_4a/5x5
I0510 23:35:27.719269 20050 net.cpp:76] Creating Layer inception_4a/5x5
I0510 23:35:27.719323 20050 net.cpp:372] inception_4a/5x5 <- inception_4a/5x5_reduce
I0510 23:35:27.719347 20050 net.cpp:334] inception_4a/5x5 -> inception_4a/5x5
I0510 23:35:27.719358 20050 net.cpp:105] Setting up inception_4a/5x5
I0510 23:35:27.719537 20050 net.cpp:112] Top shape: 32 48 14 14 (301056)
I0510 23:35:27.719549 20050 layer_factory.hpp:74] Creating layer inception_4a/relu_5x5
I0510 23:35:27.719571 20050 net.cpp:76] Creating Layer inception_4a/relu_5x5
I0510 23:35:27.721228 20050 net.cpp:372] inception_4a/relu_5x5 <- inception_4a/5x5
I0510 23:35:27.721251 20050 net.cpp:323] inception_4a/relu_5x5 -> inception_4a/5x5 (in-place)
I0510 23:35:27.721268 20050 net.cpp:105] Setting up inception_4a/relu_5x5
I0510 23:35:27.721278 20050 net.cpp:112] Top shape: 32 48 14 14 (301056)
I0510 23:35:27.721287 20050 layer_factory.hpp:74] Creating layer inception_4a/pool
I0510 23:35:27.721300 20050 net.cpp:76] Creating Layer inception_4a/pool
I0510 23:35:27.721309 20050 net.cpp:372] inception_4a/pool <- pool3/3x3_s2_pool3/3x3_s2_0_split_3
I0510 23:35:27.721321 20050 net.cpp:334] inception_4a/pool -> inception_4a/pool
I0510 23:35:27.721336 20050 net.cpp:105] Setting up inception_4a/pool
I0510 23:35:27.721349 20050 net.cpp:112] Top shape: 32 480 14 14 (3010560)
I0510 23:35:27.721357 20050 layer_factory.hpp:74] Creating layer inception_4a/pool_proj
I0510 23:35:27.721392 20050 net.cpp:76] Creating Layer inception_4a/pool_proj
I0510 23:35:27.721405 20050 net.cpp:372] inception_4a/pool_proj <- inception_4a/pool
I0510 23:35:27.721418 20050 net.cpp:334] inception_4a/pool_proj -> inception_4a/pool_proj
I0510 23:35:27.721433 20050 net.cpp:105] Setting up inception_4a/pool_proj
I0510 23:35:27.721837 20050 net.cpp:112] Top shape: 32 64 14 14 (401408)
I0510 23:35:27.721858 20050 layer_factory.hpp:74] Creating layer inception_4a/relu_pool_proj
I0510 23:35:27.721873 20050 net.cpp:76] Creating Layer inception_4a/relu_pool_proj
I0510 23:35:27.721882 20050 net.cpp:372] inception_4a/relu_pool_proj <- inception_4a/pool_proj
I0510 23:35:27.721897 20050 net.cpp:323] inception_4a/relu_pool_proj -> inception_4a/pool_proj (in-place)
I0510 23:35:27.721940 20050 net.cpp:105] Setting up inception_4a/relu_pool_proj
I0510 23:35:27.721950 20050 net.cpp:112] Top shape: 32 64 14 14 (401408)
I0510 23:35:27.721959 20050 layer_factory.hpp:74] Creating layer inception_4a/output
I0510 23:35:27.721972 20050 net.cpp:76] Creating Layer inception_4a/output
I0510 23:35:27.721982 20050 net.cpp:372] inception_4a/output <- inception_4a/1x1
I0510 23:35:27.721992 20050 net.cpp:372] inception_4a/output <- inception_4a/3x3
I0510 23:35:27.722003 20050 net.cpp:372] inception_4a/output <- inception_4a/5x5
I0510 23:35:27.722013 20050 net.cpp:372] inception_4a/output <- inception_4a/pool_proj
I0510 23:35:27.722025 20050 net.cpp:334] inception_4a/output -> inception_4a/output
I0510 23:35:27.722043 20050 net.cpp:105] Setting up inception_4a/output
I0510 23:35:27.722053 20050 net.cpp:112] Top shape: 32 512 14 14 (3211264)
I0510 23:35:27.722062 20050 layer_factory.hpp:74] Creating layer inception_4a/output_inception_4a/output_0_split
I0510 23:35:27.722075 20050 net.cpp:76] Creating Layer inception_4a/output_inception_4a/output_0_split
I0510 23:35:27.722085 20050 net.cpp:372] inception_4a/output_inception_4a/output_0_split <- inception_4a/output
I0510 23:35:27.722097 20050 net.cpp:334] inception_4a/output_inception_4a/output_0_split -> inception_4a/output_inception_4a/output_0_split_0
I0510 23:35:27.722112 20050 net.cpp:334] inception_4a/output_inception_4a/output_0_split -> inception_4a/output_inception_4a/output_0_split_1
I0510 23:35:27.722127 20050 net.cpp:334] inception_4a/output_inception_4a/output_0_split -> inception_4a/output_inception_4a/output_0_split_2
I0510 23:35:27.722142 20050 net.cpp:334] inception_4a/output_inception_4a/output_0_split -> inception_4a/output_inception_4a/output_0_split_3
I0510 23:35:27.722157 20050 net.cpp:334] inception_4a/output_inception_4a/output_0_split -> inception_4a/output_inception_4a/output_0_split_4
I0510 23:35:27.722169 20050 net.cpp:105] Setting up inception_4a/output_inception_4a/output_0_split
I0510 23:35:27.722188 20050 net.cpp:112] Top shape: 32 512 14 14 (3211264)
I0510 23:35:27.722712 20050 net.cpp:112] Top shape: 32 512 14 14 (3211264)
I0510 23:35:27.722724 20050 net.cpp:112] Top shape: 32 512 14 14 (3211264)
I0510 23:35:27.722733 20050 net.cpp:112] Top shape: 32 512 14 14 (3211264)
I0510 23:35:27.722739 20050 net.cpp:112] Top shape: 32 512 14 14 (3211264)
I0510 23:35:27.722749 20050 layer_factory.hpp:74] Creating layer loss1/ave_pool
I0510 23:35:27.722764 20050 net.cpp:76] Creating Layer loss1/ave_pool
I0510 23:35:27.722774 20050 net.cpp:372] loss1/ave_pool <- inception_4a/output_inception_4a/output_0_split_0
I0510 23:35:27.722792 20050 net.cpp:334] loss1/ave_pool -> loss1/ave_pool
I0510 23:35:27.722807 20050 net.cpp:105] Setting up loss1/ave_pool
I0510 23:35:27.722820 20050 net.cpp:112] Top shape: 32 512 4 4 (262144)
I0510 23:35:27.722829 20050 layer_factory.hpp:74] Creating layer loss1/conv
I0510 23:35:27.722843 20050 net.cpp:76] Creating Layer loss1/conv
I0510 23:35:27.722852 20050 net.cpp:372] loss1/conv <- loss1/ave_pool
I0510 23:35:27.722869 20050 net.cpp:334] loss1/conv -> loss1/conv
I0510 23:35:27.722884 20050 net.cpp:105] Setting up loss1/conv
I0510 23:35:27.723744 20050 net.cpp:112] Top shape: 32 128 4 4 (65536)
I0510 23:35:27.723767 20050 layer_factory.hpp:74] Creating layer loss1/relu_conv
I0510 23:35:27.723786 20050 net.cpp:76] Creating Layer loss1/relu_conv
I0510 23:35:27.723798 20050 net.cpp:372] loss1/relu_conv <- loss1/conv
I0510 23:35:27.723810 20050 net.cpp:323] loss1/relu_conv -> loss1/conv (in-place)
I0510 23:35:27.723822 20050 net.cpp:105] Setting up loss1/relu_conv
I0510 23:35:27.723832 20050 net.cpp:112] Top shape: 32 128 4 4 (65536)
I0510 23:35:27.723841 20050 layer_factory.hpp:74] Creating layer loss1/fc
I0510 23:35:27.723860 20050 net.cpp:76] Creating Layer loss1/fc
I0510 23:35:27.723868 20050 net.cpp:372] loss1/fc <- loss1/conv
I0510 23:35:27.723886 20050 net.cpp:334] loss1/fc -> loss1/fc
I0510 23:35:27.723906 20050 net.cpp:105] Setting up loss1/fc
I0510 23:35:27.742624 20050 net.cpp:112] Top shape: 32 1024 1 1 (32768)
I0510 23:35:27.742705 20050 layer_factory.hpp:74] Creating layer loss1/relu_fc
I0510 23:35:27.742722 20050 net.cpp:76] Creating Layer loss1/relu_fc
I0510 23:35:27.742730 20050 net.cpp:372] loss1/relu_fc <- loss1/fc
I0510 23:35:27.742743 20050 net.cpp:323] loss1/relu_fc -> loss1/fc (in-place)
I0510 23:35:27.742754 20050 net.cpp:105] Setting up loss1/relu_fc
I0510 23:35:27.742761 20050 net.cpp:112] Top shape: 32 1024 1 1 (32768)
I0510 23:35:27.742766 20050 layer_factory.hpp:74] Creating layer loss1/drop_fc
I0510 23:35:27.742789 20050 net.cpp:76] Creating Layer loss1/drop_fc
I0510 23:35:27.742796 20050 net.cpp:372] loss1/drop_fc <- loss1/fc
I0510 23:35:27.742804 20050 net.cpp:323] loss1/drop_fc -> loss1/fc (in-place)
I0510 23:35:27.742815 20050 net.cpp:105] Setting up loss1/drop_fc
I0510 23:35:27.742825 20050 net.cpp:112] Top shape: 32 1024 1 1 (32768)
I0510 23:35:27.742835 20050 layer_factory.hpp:74] Creating layer loss1/classifier
I0510 23:35:27.742848 20050 net.cpp:76] Creating Layer loss1/classifier
I0510 23:35:27.742856 20050 net.cpp:372] loss1/classifier <- loss1/fc
I0510 23:35:27.742869 20050 net.cpp:334] loss1/classifier -> loss1/classifier
I0510 23:35:27.742885 20050 net.cpp:105] Setting up loss1/classifier
I0510 23:35:27.742928 20050 net.cpp:112] Top shape: 32 2 1 1 (64)
I0510 23:35:27.742941 20050 layer_factory.hpp:74] Creating layer loss1/loss
I0510 23:35:27.742959 20050 net.cpp:76] Creating Layer loss1/loss
I0510 23:35:27.742965 20050 net.cpp:372] loss1/loss <- loss1/classifier
I0510 23:35:27.742972 20050 net.cpp:372] loss1/loss <- label_data_1_split_0
I0510 23:35:27.742980 20050 net.cpp:334] loss1/loss -> loss1/loss1
I0510 23:35:27.742992 20050 net.cpp:105] Setting up loss1/loss
I0510 23:35:27.743003 20050 layer_factory.hpp:74] Creating layer loss1/loss
I0510 23:35:27.743024 20050 net.cpp:112] Top shape: 1 1 1 1 (1)
I0510 23:35:27.743031 20050 net.cpp:118]     with loss weight 0.3
I0510 23:35:27.743067 20050 layer_factory.hpp:74] Creating layer inception_4b/1x1
I0510 23:35:27.743080 20050 net.cpp:76] Creating Layer inception_4b/1x1
I0510 23:35:27.743088 20050 net.cpp:372] inception_4b/1x1 <- inception_4a/output_inception_4a/output_0_split_1
I0510 23:35:27.743096 20050 net.cpp:334] inception_4b/1x1 -> inception_4b/1x1
I0510 23:35:27.743106 20050 net.cpp:105] Setting up inception_4b/1x1
I0510 23:35:27.743835 20050 net.cpp:112] Top shape: 32 160 14 14 (1003520)
I0510 23:35:27.743851 20050 layer_factory.hpp:74] Creating layer inception_4b/relu_1x1
I0510 23:35:27.743860 20050 net.cpp:76] Creating Layer inception_4b/relu_1x1
I0510 23:35:27.743866 20050 net.cpp:372] inception_4b/relu_1x1 <- inception_4b/1x1
I0510 23:35:27.743875 20050 net.cpp:323] inception_4b/relu_1x1 -> inception_4b/1x1 (in-place)
I0510 23:35:27.743887 20050 net.cpp:105] Setting up inception_4b/relu_1x1
I0510 23:35:27.743893 20050 net.cpp:112] Top shape: 32 160 14 14 (1003520)
I0510 23:35:27.743898 20050 layer_factory.hpp:74] Creating layer inception_4b/3x3_reduce
I0510 23:35:27.743907 20050 net.cpp:76] Creating Layer inception_4b/3x3_reduce
I0510 23:35:27.743912 20050 net.cpp:372] inception_4b/3x3_reduce <- inception_4a/output_inception_4a/output_0_split_2
I0510 23:35:27.743923 20050 net.cpp:334] inception_4b/3x3_reduce -> inception_4b/3x3_reduce
I0510 23:35:27.743932 20050 net.cpp:105] Setting up inception_4b/3x3_reduce
I0510 23:35:27.744453 20050 net.cpp:112] Top shape: 32 112 14 14 (702464)
I0510 23:35:27.744467 20050 layer_factory.hpp:74] Creating layer inception_4b/relu_3x3_reduce
I0510 23:35:27.744475 20050 net.cpp:76] Creating Layer inception_4b/relu_3x3_reduce
I0510 23:35:27.744482 20050 net.cpp:372] inception_4b/relu_3x3_reduce <- inception_4b/3x3_reduce
I0510 23:35:27.744490 20050 net.cpp:323] inception_4b/relu_3x3_reduce -> inception_4b/3x3_reduce (in-place)
I0510 23:35:27.744501 20050 net.cpp:105] Setting up inception_4b/relu_3x3_reduce
I0510 23:35:27.744508 20050 net.cpp:112] Top shape: 32 112 14 14 (702464)
I0510 23:35:27.744513 20050 layer_factory.hpp:74] Creating layer inception_4b/3x3
I0510 23:35:27.744520 20050 net.cpp:76] Creating Layer inception_4b/3x3
I0510 23:35:27.744539 20050 net.cpp:372] inception_4b/3x3 <- inception_4b/3x3_reduce
I0510 23:35:27.744549 20050 net.cpp:334] inception_4b/3x3 -> inception_4b/3x3
I0510 23:35:27.744557 20050 net.cpp:105] Setting up inception_4b/3x3
I0510 23:35:27.746466 20050 net.cpp:112] Top shape: 32 224 14 14 (1404928)
I0510 23:35:27.746481 20050 layer_factory.hpp:74] Creating layer inception_4b/relu_3x3
I0510 23:35:27.746492 20050 net.cpp:76] Creating Layer inception_4b/relu_3x3
I0510 23:35:27.746498 20050 net.cpp:372] inception_4b/relu_3x3 <- inception_4b/3x3
I0510 23:35:27.746505 20050 net.cpp:323] inception_4b/relu_3x3 -> inception_4b/3x3 (in-place)
I0510 23:35:27.746513 20050 net.cpp:105] Setting up inception_4b/relu_3x3
I0510 23:35:27.746518 20050 net.cpp:112] Top shape: 32 224 14 14 (1404928)
I0510 23:35:27.746525 20050 layer_factory.hpp:74] Creating layer inception_4b/5x5_reduce
I0510 23:35:27.746538 20050 net.cpp:76] Creating Layer inception_4b/5x5_reduce
I0510 23:35:27.746544 20050 net.cpp:372] inception_4b/5x5_reduce <- inception_4a/output_inception_4a/output_0_split_3
I0510 23:35:27.746552 20050 net.cpp:334] inception_4b/5x5_reduce -> inception_4b/5x5_reduce
I0510 23:35:27.746562 20050 net.cpp:105] Setting up inception_4b/5x5_reduce
I0510 23:35:27.746676 20050 net.cpp:112] Top shape: 32 24 14 14 (150528)
I0510 23:35:27.746690 20050 layer_factory.hpp:74] Creating layer inception_4b/relu_5x5_reduce
I0510 23:35:27.746697 20050 net.cpp:76] Creating Layer inception_4b/relu_5x5_reduce
I0510 23:35:27.746703 20050 net.cpp:372] inception_4b/relu_5x5_reduce <- inception_4b/5x5_reduce
I0510 23:35:27.746713 20050 net.cpp:323] inception_4b/relu_5x5_reduce -> inception_4b/5x5_reduce (in-place)
I0510 23:35:27.746721 20050 net.cpp:105] Setting up inception_4b/relu_5x5_reduce
I0510 23:35:27.746726 20050 net.cpp:112] Top shape: 32 24 14 14 (150528)
I0510 23:35:27.746732 20050 layer_factory.hpp:74] Creating layer inception_4b/5x5
I0510 23:35:27.746740 20050 net.cpp:76] Creating Layer inception_4b/5x5
I0510 23:35:27.746745 20050 net.cpp:372] inception_4b/5x5 <- inception_4b/5x5_reduce
I0510 23:35:27.746755 20050 net.cpp:334] inception_4b/5x5 -> inception_4b/5x5
I0510 23:35:27.746764 20050 net.cpp:105] Setting up inception_4b/5x5
I0510 23:35:27.747093 20050 net.cpp:112] Top shape: 32 64 14 14 (401408)
I0510 23:35:27.747105 20050 layer_factory.hpp:74] Creating layer inception_4b/relu_5x5
I0510 23:35:27.747119 20050 net.cpp:76] Creating Layer inception_4b/relu_5x5
I0510 23:35:27.747126 20050 net.cpp:372] inception_4b/relu_5x5 <- inception_4b/5x5
I0510 23:35:27.747133 20050 net.cpp:323] inception_4b/relu_5x5 -> inception_4b/5x5 (in-place)
I0510 23:35:27.747141 20050 net.cpp:105] Setting up inception_4b/relu_5x5
I0510 23:35:27.747146 20050 net.cpp:112] Top shape: 32 64 14 14 (401408)
I0510 23:35:27.747151 20050 layer_factory.hpp:74] Creating layer inception_4b/pool
I0510 23:35:27.747160 20050 net.cpp:76] Creating Layer inception_4b/pool
I0510 23:35:27.747169 20050 net.cpp:372] inception_4b/pool <- inception_4a/output_inception_4a/output_0_split_4
I0510 23:35:27.747176 20050 net.cpp:334] inception_4b/pool -> inception_4b/pool
I0510 23:35:27.747192 20050 net.cpp:105] Setting up inception_4b/pool
I0510 23:35:27.747205 20050 net.cpp:112] Top shape: 32 512 14 14 (3211264)
I0510 23:35:27.747210 20050 layer_factory.hpp:74] Creating layer inception_4b/pool_proj
I0510 23:35:27.747220 20050 net.cpp:76] Creating Layer inception_4b/pool_proj
I0510 23:35:27.747225 20050 net.cpp:372] inception_4b/pool_proj <- inception_4b/pool
I0510 23:35:27.747236 20050 net.cpp:334] inception_4b/pool_proj -> inception_4b/pool_proj
I0510 23:35:27.747244 20050 net.cpp:105] Setting up inception_4b/pool_proj
I0510 23:35:27.747545 20050 net.cpp:112] Top shape: 32 64 14 14 (401408)
I0510 23:35:27.747558 20050 layer_factory.hpp:74] Creating layer inception_4b/relu_pool_proj
I0510 23:35:27.747566 20050 net.cpp:76] Creating Layer inception_4b/relu_pool_proj
I0510 23:35:27.747572 20050 net.cpp:372] inception_4b/relu_pool_proj <- inception_4b/pool_proj
I0510 23:35:27.747596 20050 net.cpp:323] inception_4b/relu_pool_proj -> inception_4b/pool_proj (in-place)
I0510 23:35:27.747604 20050 net.cpp:105] Setting up inception_4b/relu_pool_proj
I0510 23:35:27.747611 20050 net.cpp:112] Top shape: 32 64 14 14 (401408)
I0510 23:35:27.747617 20050 layer_factory.hpp:74] Creating layer inception_4b/output
I0510 23:35:27.747627 20050 net.cpp:76] Creating Layer inception_4b/output
I0510 23:35:27.747632 20050 net.cpp:372] inception_4b/output <- inception_4b/1x1
I0510 23:35:27.747638 20050 net.cpp:372] inception_4b/output <- inception_4b/3x3
I0510 23:35:27.747648 20050 net.cpp:372] inception_4b/output <- inception_4b/5x5
I0510 23:35:27.747654 20050 net.cpp:372] inception_4b/output <- inception_4b/pool_proj
I0510 23:35:27.747661 20050 net.cpp:334] inception_4b/output -> inception_4b/output
I0510 23:35:27.747669 20050 net.cpp:105] Setting up inception_4b/output
I0510 23:35:27.747676 20050 net.cpp:112] Top shape: 32 512 14 14 (3211264)
I0510 23:35:27.747681 20050 layer_factory.hpp:74] Creating layer inception_4b/output_inception_4b/output_0_split
I0510 23:35:27.747709 20050 net.cpp:76] Creating Layer inception_4b/output_inception_4b/output_0_split
I0510 23:35:27.747716 20050 net.cpp:372] inception_4b/output_inception_4b/output_0_split <- inception_4b/output
I0510 23:35:27.747725 20050 net.cpp:334] inception_4b/output_inception_4b/output_0_split -> inception_4b/output_inception_4b/output_0_split_0
I0510 23:35:27.747740 20050 net.cpp:334] inception_4b/output_inception_4b/output_0_split -> inception_4b/output_inception_4b/output_0_split_1
I0510 23:35:27.747750 20050 net.cpp:334] inception_4b/output_inception_4b/output_0_split -> inception_4b/output_inception_4b/output_0_split_2
I0510 23:35:27.747758 20050 net.cpp:334] inception_4b/output_inception_4b/output_0_split -> inception_4b/output_inception_4b/output_0_split_3
I0510 23:35:27.747766 20050 net.cpp:105] Setting up inception_4b/output_inception_4b/output_0_split
I0510 23:35:27.747773 20050 net.cpp:112] Top shape: 32 512 14 14 (3211264)
I0510 23:35:27.747778 20050 net.cpp:112] Top shape: 32 512 14 14 (3211264)
I0510 23:35:27.747783 20050 net.cpp:112] Top shape: 32 512 14 14 (3211264)
I0510 23:35:27.747788 20050 net.cpp:112] Top shape: 32 512 14 14 (3211264)
I0510 23:35:27.747793 20050 layer_factory.hpp:74] Creating layer inception_4c/1x1
I0510 23:35:27.747804 20050 net.cpp:76] Creating Layer inception_4c/1x1
I0510 23:35:27.747810 20050 net.cpp:372] inception_4c/1x1 <- inception_4b/output_inception_4b/output_0_split_0
I0510 23:35:27.747818 20050 net.cpp:334] inception_4c/1x1 -> inception_4c/1x1
I0510 23:35:27.747827 20050 net.cpp:105] Setting up inception_4c/1x1
I0510 23:35:27.748397 20050 net.cpp:112] Top shape: 32 128 14 14 (802816)
I0510 23:35:27.748411 20050 layer_factory.hpp:74] Creating layer inception_4c/relu_1x1
I0510 23:35:27.748420 20050 net.cpp:76] Creating Layer inception_4c/relu_1x1
I0510 23:35:27.748427 20050 net.cpp:372] inception_4c/relu_1x1 <- inception_4c/1x1
I0510 23:35:27.748435 20050 net.cpp:323] inception_4c/relu_1x1 -> inception_4c/1x1 (in-place)
I0510 23:35:27.748442 20050 net.cpp:105] Setting up inception_4c/relu_1x1
I0510 23:35:27.748447 20050 net.cpp:112] Top shape: 32 128 14 14 (802816)
I0510 23:35:27.748453 20050 layer_factory.hpp:74] Creating layer inception_4c/3x3_reduce
I0510 23:35:27.748461 20050 net.cpp:76] Creating Layer inception_4c/3x3_reduce
I0510 23:35:27.748467 20050 net.cpp:372] inception_4c/3x3_reduce <- inception_4b/output_inception_4b/output_0_split_1
I0510 23:35:27.748477 20050 net.cpp:334] inception_4c/3x3_reduce -> inception_4c/3x3_reduce
I0510 23:35:27.748486 20050 net.cpp:105] Setting up inception_4c/3x3_reduce
I0510 23:35:27.749053 20050 net.cpp:112] Top shape: 32 128 14 14 (802816)
I0510 23:35:27.749066 20050 layer_factory.hpp:74] Creating layer inception_4c/relu_3x3_reduce
I0510 23:35:27.749074 20050 net.cpp:76] Creating Layer inception_4c/relu_3x3_reduce
I0510 23:35:27.749080 20050 net.cpp:372] inception_4c/relu_3x3_reduce <- inception_4c/3x3_reduce
I0510 23:35:27.749088 20050 net.cpp:323] inception_4c/relu_3x3_reduce -> inception_4c/3x3_reduce (in-place)
I0510 23:35:27.749109 20050 net.cpp:105] Setting up inception_4c/relu_3x3_reduce
I0510 23:35:27.749115 20050 net.cpp:112] Top shape: 32 128 14 14 (802816)
I0510 23:35:27.749121 20050 layer_factory.hpp:74] Creating layer inception_4c/3x3
I0510 23:35:27.749132 20050 net.cpp:76] Creating Layer inception_4c/3x3
I0510 23:35:27.749138 20050 net.cpp:372] inception_4c/3x3 <- inception_4c/3x3_reduce
I0510 23:35:27.749146 20050 net.cpp:334] inception_4c/3x3 -> inception_4c/3x3
I0510 23:35:27.749157 20050 net.cpp:105] Setting up inception_4c/3x3
I0510 23:35:27.751732 20050 net.cpp:112] Top shape: 32 256 14 14 (1605632)
I0510 23:35:27.751770 20050 layer_factory.hpp:74] Creating layer inception_4c/relu_3x3
I0510 23:35:27.751780 20050 net.cpp:76] Creating Layer inception_4c/relu_3x3
I0510 23:35:27.753343 20050 net.cpp:372] inception_4c/relu_3x3 <- inception_4c/3x3
I0510 23:35:27.753356 20050 net.cpp:323] inception_4c/relu_3x3 -> inception_4c/3x3 (in-place)
I0510 23:35:27.753366 20050 net.cpp:105] Setting up inception_4c/relu_3x3
I0510 23:35:27.753372 20050 net.cpp:112] Top shape: 32 256 14 14 (1605632)
I0510 23:35:27.753378 20050 layer_factory.hpp:74] Creating layer inception_4c/5x5_reduce
I0510 23:35:27.753392 20050 net.cpp:76] Creating Layer inception_4c/5x5_reduce
I0510 23:35:27.753398 20050 net.cpp:372] inception_4c/5x5_reduce <- inception_4b/output_inception_4b/output_0_split_2
I0510 23:35:27.753407 20050 net.cpp:334] inception_4c/5x5_reduce -> inception_4c/5x5_reduce
I0510 23:35:27.753419 20050 net.cpp:105] Setting up inception_4c/5x5_reduce
I0510 23:35:27.753537 20050 net.cpp:112] Top shape: 32 24 14 14 (150528)
I0510 23:35:27.753548 20050 layer_factory.hpp:74] Creating layer inception_4c/relu_5x5_reduce
I0510 23:35:27.753556 20050 net.cpp:76] Creating Layer inception_4c/relu_5x5_reduce
I0510 23:35:27.753561 20050 net.cpp:372] inception_4c/relu_5x5_reduce <- inception_4c/5x5_reduce
I0510 23:35:27.753571 20050 net.cpp:323] inception_4c/relu_5x5_reduce -> inception_4c/5x5_reduce (in-place)
I0510 23:35:27.753579 20050 net.cpp:105] Setting up inception_4c/relu_5x5_reduce
I0510 23:35:27.753584 20050 net.cpp:112] Top shape: 32 24 14 14 (150528)
I0510 23:35:27.753590 20050 layer_factory.hpp:74] Creating layer inception_4c/5x5
I0510 23:35:27.753598 20050 net.cpp:76] Creating Layer inception_4c/5x5
I0510 23:35:27.753603 20050 net.cpp:372] inception_4c/5x5 <- inception_4c/5x5_reduce
I0510 23:35:27.753613 20050 net.cpp:334] inception_4c/5x5 -> inception_4c/5x5
I0510 23:35:27.753623 20050 net.cpp:105] Setting up inception_4c/5x5
I0510 23:35:27.753959 20050 net.cpp:112] Top shape: 32 64 14 14 (401408)
I0510 23:35:27.753973 20050 layer_factory.hpp:74] Creating layer inception_4c/relu_5x5
I0510 23:35:27.753979 20050 net.cpp:76] Creating Layer inception_4c/relu_5x5
I0510 23:35:27.753985 20050 net.cpp:372] inception_4c/relu_5x5 <- inception_4c/5x5
I0510 23:35:27.753993 20050 net.cpp:323] inception_4c/relu_5x5 -> inception_4c/5x5 (in-place)
I0510 23:35:27.754000 20050 net.cpp:105] Setting up inception_4c/relu_5x5
I0510 23:35:27.754005 20050 net.cpp:112] Top shape: 32 64 14 14 (401408)
I0510 23:35:27.754010 20050 layer_factory.hpp:74] Creating layer inception_4c/pool
I0510 23:35:27.754019 20050 net.cpp:76] Creating Layer inception_4c/pool
I0510 23:35:27.754024 20050 net.cpp:372] inception_4c/pool <- inception_4b/output_inception_4b/output_0_split_3
I0510 23:35:27.754034 20050 net.cpp:334] inception_4c/pool -> inception_4c/pool
I0510 23:35:27.754045 20050 net.cpp:105] Setting up inception_4c/pool
I0510 23:35:27.754053 20050 net.cpp:112] Top shape: 32 512 14 14 (3211264)
I0510 23:35:27.754060 20050 layer_factory.hpp:74] Creating layer inception_4c/pool_proj
I0510 23:35:27.754070 20050 net.cpp:76] Creating Layer inception_4c/pool_proj
I0510 23:35:27.754076 20050 net.cpp:372] inception_4c/pool_proj <- inception_4c/pool
I0510 23:35:27.754084 20050 net.cpp:334] inception_4c/pool_proj -> inception_4c/pool_proj
I0510 23:35:27.754093 20050 net.cpp:105] Setting up inception_4c/pool_proj
I0510 23:35:27.754415 20050 net.cpp:112] Top shape: 32 64 14 14 (401408)
I0510 23:35:27.754427 20050 layer_factory.hpp:74] Creating layer inception_4c/relu_pool_proj
I0510 23:35:27.754436 20050 net.cpp:76] Creating Layer inception_4c/relu_pool_proj
I0510 23:35:27.754442 20050 net.cpp:372] inception_4c/relu_pool_proj <- inception_4c/pool_proj
I0510 23:35:27.754451 20050 net.cpp:323] inception_4c/relu_pool_proj -> inception_4c/pool_proj (in-place)
I0510 23:35:27.754461 20050 net.cpp:105] Setting up inception_4c/relu_pool_proj
I0510 23:35:27.754465 20050 net.cpp:112] Top shape: 32 64 14 14 (401408)
I0510 23:35:27.754470 20050 layer_factory.hpp:74] Creating layer inception_4c/output
I0510 23:35:27.754478 20050 net.cpp:76] Creating Layer inception_4c/output
I0510 23:35:27.754487 20050 net.cpp:372] inception_4c/output <- inception_4c/1x1
I0510 23:35:27.754493 20050 net.cpp:372] inception_4c/output <- inception_4c/3x3
I0510 23:35:27.754499 20050 net.cpp:372] inception_4c/output <- inception_4c/5x5
I0510 23:35:27.755657 20050 net.cpp:372] inception_4c/output <- inception_4c/pool_proj
I0510 23:35:27.755673 20050 net.cpp:334] inception_4c/output -> inception_4c/output
I0510 23:35:27.755684 20050 net.cpp:105] Setting up inception_4c/output
I0510 23:35:27.755692 20050 net.cpp:112] Top shape: 32 512 14 14 (3211264)
I0510 23:35:27.755697 20050 layer_factory.hpp:74] Creating layer inception_4c/output_inception_4c/output_0_split
I0510 23:35:27.755707 20050 net.cpp:76] Creating Layer inception_4c/output_inception_4c/output_0_split
I0510 23:35:27.755712 20050 net.cpp:372] inception_4c/output_inception_4c/output_0_split <- inception_4c/output
I0510 23:35:27.755725 20050 net.cpp:334] inception_4c/output_inception_4c/output_0_split -> inception_4c/output_inception_4c/output_0_split_0
I0510 23:35:27.755735 20050 net.cpp:334] inception_4c/output_inception_4c/output_0_split -> inception_4c/output_inception_4c/output_0_split_1
I0510 23:35:27.755745 20050 net.cpp:334] inception_4c/output_inception_4c/output_0_split -> inception_4c/output_inception_4c/output_0_split_2
I0510 23:35:27.755754 20050 net.cpp:334] inception_4c/output_inception_4c/output_0_split -> inception_4c/output_inception_4c/output_0_split_3
I0510 23:35:27.755763 20050 net.cpp:105] Setting up inception_4c/output_inception_4c/output_0_split
I0510 23:35:27.755769 20050 net.cpp:112] Top shape: 32 512 14 14 (3211264)
I0510 23:35:27.755774 20050 net.cpp:112] Top shape: 32 512 14 14 (3211264)
I0510 23:35:27.755779 20050 net.cpp:112] Top shape: 32 512 14 14 (3211264)
I0510 23:35:27.755784 20050 net.cpp:112] Top shape: 32 512 14 14 (3211264)
I0510 23:35:27.755789 20050 layer_factory.hpp:74] Creating layer inception_4d/1x1
I0510 23:35:27.755801 20050 net.cpp:76] Creating Layer inception_4d/1x1
I0510 23:35:27.755807 20050 net.cpp:372] inception_4d/1x1 <- inception_4c/output_inception_4c/output_0_split_0
I0510 23:35:27.755816 20050 net.cpp:334] inception_4d/1x1 -> inception_4d/1x1
I0510 23:35:27.755825 20050 net.cpp:105] Setting up inception_4d/1x1
I0510 23:35:27.756341 20050 net.cpp:112] Top shape: 32 112 14 14 (702464)
I0510 23:35:27.756358 20050 layer_factory.hpp:74] Creating layer inception_4d/relu_1x1
I0510 23:35:27.756367 20050 net.cpp:76] Creating Layer inception_4d/relu_1x1
I0510 23:35:27.756373 20050 net.cpp:372] inception_4d/relu_1x1 <- inception_4d/1x1
I0510 23:35:27.756381 20050 net.cpp:323] inception_4d/relu_1x1 -> inception_4d/1x1 (in-place)
I0510 23:35:27.756388 20050 net.cpp:105] Setting up inception_4d/relu_1x1
I0510 23:35:27.756394 20050 net.cpp:112] Top shape: 32 112 14 14 (702464)
I0510 23:35:27.756399 20050 layer_factory.hpp:74] Creating layer inception_4d/3x3_reduce
I0510 23:35:27.756408 20050 net.cpp:76] Creating Layer inception_4d/3x3_reduce
I0510 23:35:27.756415 20050 net.cpp:372] inception_4d/3x3_reduce <- inception_4c/output_inception_4c/output_0_split_1
I0510 23:35:27.756427 20050 net.cpp:334] inception_4d/3x3_reduce -> inception_4d/3x3_reduce
I0510 23:35:27.756438 20050 net.cpp:105] Setting up inception_4d/3x3_reduce
I0510 23:35:27.757072 20050 net.cpp:112] Top shape: 32 144 14 14 (903168)
I0510 23:35:27.757103 20050 layer_factory.hpp:74] Creating layer inception_4d/relu_3x3_reduce
I0510 23:35:27.757112 20050 net.cpp:76] Creating Layer inception_4d/relu_3x3_reduce
I0510 23:35:27.757118 20050 net.cpp:372] inception_4d/relu_3x3_reduce <- inception_4d/3x3_reduce
I0510 23:35:27.757128 20050 net.cpp:323] inception_4d/relu_3x3_reduce -> inception_4d/3x3_reduce (in-place)
I0510 23:35:27.757138 20050 net.cpp:105] Setting up inception_4d/relu_3x3_reduce
I0510 23:35:27.757143 20050 net.cpp:112] Top shape: 32 144 14 14 (903168)
I0510 23:35:27.757148 20050 layer_factory.hpp:74] Creating layer inception_4d/3x3
I0510 23:35:27.757156 20050 net.cpp:76] Creating Layer inception_4d/3x3
I0510 23:35:27.757163 20050 net.cpp:372] inception_4d/3x3 <- inception_4d/3x3_reduce
I0510 23:35:27.757171 20050 net.cpp:334] inception_4d/3x3 -> inception_4d/3x3
I0510 23:35:27.757181 20050 net.cpp:105] Setting up inception_4d/3x3
I0510 23:35:27.760797 20050 net.cpp:112] Top shape: 32 288 14 14 (1806336)
I0510 23:35:27.760824 20050 layer_factory.hpp:74] Creating layer inception_4d/relu_3x3
I0510 23:35:27.760838 20050 net.cpp:76] Creating Layer inception_4d/relu_3x3
I0510 23:35:27.760849 20050 net.cpp:372] inception_4d/relu_3x3 <- inception_4d/3x3
I0510 23:35:27.760861 20050 net.cpp:323] inception_4d/relu_3x3 -> inception_4d/3x3 (in-place)
I0510 23:35:27.760875 20050 net.cpp:105] Setting up inception_4d/relu_3x3
I0510 23:35:27.760885 20050 net.cpp:112] Top shape: 32 288 14 14 (1806336)
I0510 23:35:27.760898 20050 layer_factory.hpp:74] Creating layer inception_4d/5x5_reduce
I0510 23:35:27.760916 20050 net.cpp:76] Creating Layer inception_4d/5x5_reduce
I0510 23:35:27.760926 20050 net.cpp:372] inception_4d/5x5_reduce <- inception_4c/output_inception_4c/output_0_split_2
I0510 23:35:27.760943 20050 net.cpp:334] inception_4d/5x5_reduce -> inception_4d/5x5_reduce
I0510 23:35:27.760959 20050 net.cpp:105] Setting up inception_4d/5x5_reduce
I0510 23:35:27.761174 20050 net.cpp:112] Top shape: 32 32 14 14 (200704)
I0510 23:35:27.761198 20050 layer_factory.hpp:74] Creating layer inception_4d/relu_5x5_reduce
I0510 23:35:27.761216 20050 net.cpp:76] Creating Layer inception_4d/relu_5x5_reduce
I0510 23:35:27.761229 20050 net.cpp:372] inception_4d/relu_5x5_reduce <- inception_4d/5x5_reduce
I0510 23:35:27.761241 20050 net.cpp:323] inception_4d/relu_5x5_reduce -> inception_4d/5x5_reduce (in-place)
I0510 23:35:27.761250 20050 net.cpp:105] Setting up inception_4d/relu_5x5_reduce
I0510 23:35:27.761256 20050 net.cpp:112] Top shape: 32 32 14 14 (200704)
I0510 23:35:27.761262 20050 layer_factory.hpp:74] Creating layer inception_4d/5x5
I0510 23:35:27.761287 20050 net.cpp:76] Creating Layer inception_4d/5x5
I0510 23:35:27.761294 20050 net.cpp:372] inception_4d/5x5 <- inception_4d/5x5_reduce
I0510 23:35:27.761303 20050 net.cpp:334] inception_4d/5x5 -> inception_4d/5x5
I0510 23:35:27.761313 20050 net.cpp:105] Setting up inception_4d/5x5
I0510 23:35:27.761837 20050 net.cpp:112] Top shape: 32 64 14 14 (401408)
I0510 23:35:27.761853 20050 layer_factory.hpp:74] Creating layer inception_4d/relu_5x5
I0510 23:35:27.761862 20050 net.cpp:76] Creating Layer inception_4d/relu_5x5
I0510 23:35:27.761868 20050 net.cpp:372] inception_4d/relu_5x5 <- inception_4d/5x5
I0510 23:35:27.761878 20050 net.cpp:323] inception_4d/relu_5x5 -> inception_4d/5x5 (in-place)
I0510 23:35:27.761886 20050 net.cpp:105] Setting up inception_4d/relu_5x5
I0510 23:35:27.761893 20050 net.cpp:112] Top shape: 32 64 14 14 (401408)
I0510 23:35:27.761898 20050 layer_factory.hpp:74] Creating layer inception_4d/pool
I0510 23:35:27.761905 20050 net.cpp:76] Creating Layer inception_4d/pool
I0510 23:35:27.761911 20050 net.cpp:372] inception_4d/pool <- inception_4c/output_inception_4c/output_0_split_3
I0510 23:35:27.761919 20050 net.cpp:334] inception_4d/pool -> inception_4d/pool
I0510 23:35:27.761927 20050 net.cpp:105] Setting up inception_4d/pool
I0510 23:35:27.761935 20050 net.cpp:112] Top shape: 32 512 14 14 (3211264)
I0510 23:35:27.761945 20050 layer_factory.hpp:74] Creating layer inception_4d/pool_proj
I0510 23:35:27.761975 20050 net.cpp:76] Creating Layer inception_4d/pool_proj
I0510 23:35:27.761982 20050 net.cpp:372] inception_4d/pool_proj <- inception_4d/pool
I0510 23:35:27.761991 20050 net.cpp:334] inception_4d/pool_proj -> inception_4d/pool_proj
I0510 23:35:27.762001 20050 net.cpp:105] Setting up inception_4d/pool_proj
I0510 23:35:27.762303 20050 net.cpp:112] Top shape: 32 64 14 14 (401408)
I0510 23:35:27.762316 20050 layer_factory.hpp:74] Creating layer inception_4d/relu_pool_proj
I0510 23:35:27.762325 20050 net.cpp:76] Creating Layer inception_4d/relu_pool_proj
I0510 23:35:27.762331 20050 net.cpp:372] inception_4d/relu_pool_proj <- inception_4d/pool_proj
I0510 23:35:27.762341 20050 net.cpp:323] inception_4d/relu_pool_proj -> inception_4d/pool_proj (in-place)
I0510 23:35:27.762348 20050 net.cpp:105] Setting up inception_4d/relu_pool_proj
I0510 23:35:27.763218 20050 net.cpp:112] Top shape: 32 64 14 14 (401408)
I0510 23:35:27.763231 20050 layer_factory.hpp:74] Creating layer inception_4d/output
I0510 23:35:27.763241 20050 net.cpp:76] Creating Layer inception_4d/output
I0510 23:35:27.763247 20050 net.cpp:372] inception_4d/output <- inception_4d/1x1
I0510 23:35:27.763255 20050 net.cpp:372] inception_4d/output <- inception_4d/3x3
I0510 23:35:27.763262 20050 net.cpp:372] inception_4d/output <- inception_4d/5x5
I0510 23:35:27.763272 20050 net.cpp:372] inception_4d/output <- inception_4d/pool_proj
I0510 23:35:27.763286 20050 net.cpp:334] inception_4d/output -> inception_4d/output
I0510 23:35:27.763311 20050 net.cpp:105] Setting up inception_4d/output
I0510 23:35:27.763322 20050 net.cpp:112] Top shape: 32 528 14 14 (3311616)
I0510 23:35:27.763329 20050 layer_factory.hpp:74] Creating layer inception_4d/output_inception_4d/output_0_split
I0510 23:35:27.763339 20050 net.cpp:76] Creating Layer inception_4d/output_inception_4d/output_0_split
I0510 23:35:27.763345 20050 net.cpp:372] inception_4d/output_inception_4d/output_0_split <- inception_4d/output
I0510 23:35:27.763353 20050 net.cpp:334] inception_4d/output_inception_4d/output_0_split -> inception_4d/output_inception_4d/output_0_split_0
I0510 23:35:27.763378 20050 net.cpp:334] inception_4d/output_inception_4d/output_0_split -> inception_4d/output_inception_4d/output_0_split_1
I0510 23:35:27.763388 20050 net.cpp:334] inception_4d/output_inception_4d/output_0_split -> inception_4d/output_inception_4d/output_0_split_2
I0510 23:35:27.763398 20050 net.cpp:334] inception_4d/output_inception_4d/output_0_split -> inception_4d/output_inception_4d/output_0_split_3
I0510 23:35:27.763406 20050 net.cpp:334] inception_4d/output_inception_4d/output_0_split -> inception_4d/output_inception_4d/output_0_split_4
I0510 23:35:27.763414 20050 net.cpp:105] Setting up inception_4d/output_inception_4d/output_0_split
I0510 23:35:27.763425 20050 net.cpp:112] Top shape: 32 528 14 14 (3311616)
I0510 23:35:27.763432 20050 net.cpp:112] Top shape: 32 528 14 14 (3311616)
I0510 23:35:27.763437 20050 net.cpp:112] Top shape: 32 528 14 14 (3311616)
I0510 23:35:27.763444 20050 net.cpp:112] Top shape: 32 528 14 14 (3311616)
I0510 23:35:27.763454 20050 net.cpp:112] Top shape: 32 528 14 14 (3311616)
I0510 23:35:27.763463 20050 layer_factory.hpp:74] Creating layer loss2/ave_pool
I0510 23:35:27.763473 20050 net.cpp:76] Creating Layer loss2/ave_pool
I0510 23:35:27.763480 20050 net.cpp:372] loss2/ave_pool <- inception_4d/output_inception_4d/output_0_split_0
I0510 23:35:27.763499 20050 net.cpp:334] loss2/ave_pool -> loss2/ave_pool
I0510 23:35:27.763517 20050 net.cpp:105] Setting up loss2/ave_pool
I0510 23:35:27.763528 20050 net.cpp:112] Top shape: 32 528 4 4 (270336)
I0510 23:35:27.763535 20050 layer_factory.hpp:74] Creating layer loss2/conv
I0510 23:35:27.763545 20050 net.cpp:76] Creating Layer loss2/conv
I0510 23:35:27.763550 20050 net.cpp:372] loss2/conv <- loss2/ave_pool
I0510 23:35:27.763564 20050 net.cpp:334] loss2/conv -> loss2/conv
I0510 23:35:27.763573 20050 net.cpp:105] Setting up loss2/conv
I0510 23:35:27.764173 20050 net.cpp:112] Top shape: 32 128 4 4 (65536)
I0510 23:35:27.764189 20050 layer_factory.hpp:74] Creating layer loss2/relu_conv
I0510 23:35:27.764220 20050 net.cpp:76] Creating Layer loss2/relu_conv
I0510 23:35:27.764227 20050 net.cpp:372] loss2/relu_conv <- loss2/conv
I0510 23:35:27.764235 20050 net.cpp:323] loss2/relu_conv -> loss2/conv (in-place)
I0510 23:35:27.764243 20050 net.cpp:105] Setting up loss2/relu_conv
I0510 23:35:27.764262 20050 net.cpp:112] Top shape: 32 128 4 4 (65536)
I0510 23:35:27.764271 20050 layer_factory.hpp:74] Creating layer loss2/fc
I0510 23:35:27.764281 20050 net.cpp:76] Creating Layer loss2/fc
I0510 23:35:27.764286 20050 net.cpp:372] loss2/fc <- loss2/conv
I0510 23:35:27.764297 20050 net.cpp:334] loss2/fc -> loss2/fc
I0510 23:35:27.764307 20050 net.cpp:105] Setting up loss2/fc
I0510 23:35:27.782711 20050 net.cpp:112] Top shape: 32 1024 1 1 (32768)
I0510 23:35:27.782763 20050 layer_factory.hpp:74] Creating layer loss2/relu_fc
I0510 23:35:27.782778 20050 net.cpp:76] Creating Layer loss2/relu_fc
I0510 23:35:27.782786 20050 net.cpp:372] loss2/relu_fc <- loss2/fc
I0510 23:35:27.782799 20050 net.cpp:323] loss2/relu_fc -> loss2/fc (in-place)
I0510 23:35:27.782810 20050 net.cpp:105] Setting up loss2/relu_fc
I0510 23:35:27.782816 20050 net.cpp:112] Top shape: 32 1024 1 1 (32768)
I0510 23:35:27.782822 20050 layer_factory.hpp:74] Creating layer loss2/drop_fc
I0510 23:35:27.782832 20050 net.cpp:76] Creating Layer loss2/drop_fc
I0510 23:35:27.782837 20050 net.cpp:372] loss2/drop_fc <- loss2/fc
I0510 23:35:27.782845 20050 net.cpp:323] loss2/drop_fc -> loss2/fc (in-place)
I0510 23:35:27.782852 20050 net.cpp:105] Setting up loss2/drop_fc
I0510 23:35:27.782858 20050 net.cpp:112] Top shape: 32 1024 1 1 (32768)
I0510 23:35:27.782865 20050 layer_factory.hpp:74] Creating layer loss2/classifier
I0510 23:35:27.782881 20050 net.cpp:76] Creating Layer loss2/classifier
I0510 23:35:27.782886 20050 net.cpp:372] loss2/classifier <- loss2/fc
I0510 23:35:27.782894 20050 net.cpp:334] loss2/classifier -> loss2/classifier
I0510 23:35:27.782905 20050 net.cpp:105] Setting up loss2/classifier
I0510 23:35:27.782940 20050 net.cpp:112] Top shape: 32 2 1 1 (64)
I0510 23:35:27.782951 20050 layer_factory.hpp:74] Creating layer loss2/loss
I0510 23:35:27.782959 20050 net.cpp:76] Creating Layer loss2/loss
I0510 23:35:27.782965 20050 net.cpp:372] loss2/loss <- loss2/classifier
I0510 23:35:27.782973 20050 net.cpp:372] loss2/loss <- label_data_1_split_1
I0510 23:35:27.782980 20050 net.cpp:334] loss2/loss -> loss2/loss1
I0510 23:35:27.782989 20050 net.cpp:105] Setting up loss2/loss
I0510 23:35:27.782997 20050 layer_factory.hpp:74] Creating layer loss2/loss
I0510 23:35:27.783012 20050 net.cpp:112] Top shape: 1 1 1 1 (1)
I0510 23:35:27.783020 20050 net.cpp:118]     with loss weight 0.3
I0510 23:35:27.783038 20050 layer_factory.hpp:74] Creating layer inception_4e/1x1
I0510 23:35:27.783051 20050 net.cpp:76] Creating Layer inception_4e/1x1
I0510 23:35:27.783057 20050 net.cpp:372] inception_4e/1x1 <- inception_4d/output_inception_4d/output_0_split_1
I0510 23:35:27.783066 20050 net.cpp:334] inception_4e/1x1 -> inception_4e/1x1
I0510 23:35:27.783076 20050 net.cpp:105] Setting up inception_4e/1x1
I0510 23:35:27.784260 20050 net.cpp:112] Top shape: 32 256 14 14 (1605632)
I0510 23:35:27.784293 20050 layer_factory.hpp:74] Creating layer inception_4e/relu_1x1
I0510 23:35:27.784302 20050 net.cpp:76] Creating Layer inception_4e/relu_1x1
I0510 23:35:27.784309 20050 net.cpp:372] inception_4e/relu_1x1 <- inception_4e/1x1
I0510 23:35:27.784317 20050 net.cpp:323] inception_4e/relu_1x1 -> inception_4e/1x1 (in-place)
I0510 23:35:27.784324 20050 net.cpp:105] Setting up inception_4e/relu_1x1
I0510 23:35:27.784329 20050 net.cpp:112] Top shape: 32 256 14 14 (1605632)
I0510 23:35:27.784335 20050 layer_factory.hpp:74] Creating layer inception_4e/3x3_reduce
I0510 23:35:27.784356 20050 net.cpp:76] Creating Layer inception_4e/3x3_reduce
I0510 23:35:27.784363 20050 net.cpp:372] inception_4e/3x3_reduce <- inception_4d/output_inception_4d/output_0_split_2
I0510 23:35:27.784373 20050 net.cpp:334] inception_4e/3x3_reduce -> inception_4e/3x3_reduce
I0510 23:35:27.784415 20050 net.cpp:105] Setting up inception_4e/3x3_reduce
I0510 23:35:27.785135 20050 net.cpp:112] Top shape: 32 160 14 14 (1003520)
I0510 23:35:27.785148 20050 layer_factory.hpp:74] Creating layer inception_4e/relu_3x3_reduce
I0510 23:35:27.785158 20050 net.cpp:76] Creating Layer inception_4e/relu_3x3_reduce
I0510 23:35:27.785164 20050 net.cpp:372] inception_4e/relu_3x3_reduce <- inception_4e/3x3_reduce
I0510 23:35:27.785172 20050 net.cpp:323] inception_4e/relu_3x3_reduce -> inception_4e/3x3_reduce (in-place)
I0510 23:35:27.785179 20050 net.cpp:105] Setting up inception_4e/relu_3x3_reduce
I0510 23:35:27.785186 20050 net.cpp:112] Top shape: 32 160 14 14 (1003520)
I0510 23:35:27.785190 20050 layer_factory.hpp:74] Creating layer inception_4e/3x3
I0510 23:35:27.785198 20050 net.cpp:76] Creating Layer inception_4e/3x3
I0510 23:35:27.785204 20050 net.cpp:372] inception_4e/3x3 <- inception_4e/3x3_reduce
I0510 23:35:27.785214 20050 net.cpp:334] inception_4e/3x3 -> inception_4e/3x3
I0510 23:35:27.785223 20050 net.cpp:105] Setting up inception_4e/3x3
I0510 23:35:27.789315 20050 net.cpp:112] Top shape: 32 320 14 14 (2007040)
I0510 23:35:27.789340 20050 layer_factory.hpp:74] Creating layer inception_4e/relu_3x3
I0510 23:35:27.789350 20050 net.cpp:76] Creating Layer inception_4e/relu_3x3
I0510 23:35:27.789356 20050 net.cpp:372] inception_4e/relu_3x3 <- inception_4e/3x3
I0510 23:35:27.789367 20050 net.cpp:323] inception_4e/relu_3x3 -> inception_4e/3x3 (in-place)
I0510 23:35:27.789376 20050 net.cpp:105] Setting up inception_4e/relu_3x3
I0510 23:35:27.789382 20050 net.cpp:112] Top shape: 32 320 14 14 (2007040)
I0510 23:35:27.789387 20050 layer_factory.hpp:74] Creating layer inception_4e/5x5_reduce
I0510 23:35:27.789397 20050 net.cpp:76] Creating Layer inception_4e/5x5_reduce
I0510 23:35:27.789402 20050 net.cpp:372] inception_4e/5x5_reduce <- inception_4d/output_inception_4d/output_0_split_3
I0510 23:35:27.789413 20050 net.cpp:334] inception_4e/5x5_reduce -> inception_4e/5x5_reduce
I0510 23:35:27.789422 20050 net.cpp:105] Setting up inception_4e/5x5_reduce
I0510 23:35:27.789579 20050 net.cpp:112] Top shape: 32 32 14 14 (200704)
I0510 23:35:27.789590 20050 layer_factory.hpp:74] Creating layer inception_4e/relu_5x5_reduce
I0510 23:35:27.789598 20050 net.cpp:76] Creating Layer inception_4e/relu_5x5_reduce
I0510 23:35:27.789604 20050 net.cpp:372] inception_4e/relu_5x5_reduce <- inception_4e/5x5_reduce
I0510 23:35:27.789611 20050 net.cpp:323] inception_4e/relu_5x5_reduce -> inception_4e/5x5_reduce (in-place)
I0510 23:35:27.789619 20050 net.cpp:105] Setting up inception_4e/relu_5x5_reduce
I0510 23:35:27.789624 20050 net.cpp:112] Top shape: 32 32 14 14 (200704)
I0510 23:35:27.789630 20050 layer_factory.hpp:74] Creating layer inception_4e/5x5
I0510 23:35:27.789660 20050 net.cpp:76] Creating Layer inception_4e/5x5
I0510 23:35:27.789667 20050 net.cpp:372] inception_4e/5x5 <- inception_4e/5x5_reduce
I0510 23:35:27.789679 20050 net.cpp:334] inception_4e/5x5 -> inception_4e/5x5
I0510 23:35:27.789687 20050 net.cpp:105] Setting up inception_4e/5x5
I0510 23:35:27.790566 20050 net.cpp:112] Top shape: 32 128 14 14 (802816)
I0510 23:35:27.790585 20050 layer_factory.hpp:74] Creating layer inception_4e/relu_5x5
I0510 23:35:27.790593 20050 net.cpp:76] Creating Layer inception_4e/relu_5x5
I0510 23:35:27.790599 20050 net.cpp:372] inception_4e/relu_5x5 <- inception_4e/5x5
I0510 23:35:27.790607 20050 net.cpp:323] inception_4e/relu_5x5 -> inception_4e/5x5 (in-place)
I0510 23:35:27.790614 20050 net.cpp:105] Setting up inception_4e/relu_5x5
I0510 23:35:27.790619 20050 net.cpp:112] Top shape: 32 128 14 14 (802816)
I0510 23:35:27.790626 20050 layer_factory.hpp:74] Creating layer inception_4e/pool
I0510 23:35:27.790637 20050 net.cpp:76] Creating Layer inception_4e/pool
I0510 23:35:27.790642 20050 net.cpp:372] inception_4e/pool <- inception_4d/output_inception_4d/output_0_split_4
I0510 23:35:27.790650 20050 net.cpp:334] inception_4e/pool -> inception_4e/pool
I0510 23:35:27.790659 20050 net.cpp:105] Setting up inception_4e/pool
I0510 23:35:27.790668 20050 net.cpp:112] Top shape: 32 528 14 14 (3311616)
I0510 23:35:27.790694 20050 layer_factory.hpp:74] Creating layer inception_4e/pool_proj
I0510 23:35:27.790707 20050 net.cpp:76] Creating Layer inception_4e/pool_proj
I0510 23:35:27.790714 20050 net.cpp:372] inception_4e/pool_proj <- inception_4e/pool
I0510 23:35:27.790721 20050 net.cpp:334] inception_4e/pool_proj -> inception_4e/pool_proj
I0510 23:35:27.790731 20050 net.cpp:105] Setting up inception_4e/pool_proj
I0510 23:35:27.791326 20050 net.cpp:112] Top shape: 32 128 14 14 (802816)
I0510 23:35:27.791340 20050 layer_factory.hpp:74] Creating layer inception_4e/relu_pool_proj
I0510 23:35:27.791352 20050 net.cpp:76] Creating Layer inception_4e/relu_pool_proj
I0510 23:35:27.791358 20050 net.cpp:372] inception_4e/relu_pool_proj <- inception_4e/pool_proj
I0510 23:35:27.791365 20050 net.cpp:323] inception_4e/relu_pool_proj -> inception_4e/pool_proj (in-place)
I0510 23:35:27.791373 20050 net.cpp:105] Setting up inception_4e/relu_pool_proj
I0510 23:35:27.791379 20050 net.cpp:112] Top shape: 32 128 14 14 (802816)
I0510 23:35:27.791384 20050 layer_factory.hpp:74] Creating layer inception_4e/output
I0510 23:35:27.791393 20050 net.cpp:76] Creating Layer inception_4e/output
I0510 23:35:27.791398 20050 net.cpp:372] inception_4e/output <- inception_4e/1x1
I0510 23:35:27.791404 20050 net.cpp:372] inception_4e/output <- inception_4e/3x3
I0510 23:35:27.791410 20050 net.cpp:372] inception_4e/output <- inception_4e/5x5
I0510 23:35:27.791416 20050 net.cpp:372] inception_4e/output <- inception_4e/pool_proj
I0510 23:35:27.791424 20050 net.cpp:334] inception_4e/output -> inception_4e/output
I0510 23:35:27.791431 20050 net.cpp:105] Setting up inception_4e/output
I0510 23:35:27.791438 20050 net.cpp:112] Top shape: 32 832 14 14 (5218304)
I0510 23:35:27.791443 20050 layer_factory.hpp:74] Creating layer pool4/3x3_s2
I0510 23:35:27.791453 20050 net.cpp:76] Creating Layer pool4/3x3_s2
I0510 23:35:27.791481 20050 net.cpp:372] pool4/3x3_s2 <- inception_4e/output
I0510 23:35:27.791491 20050 net.cpp:334] pool4/3x3_s2 -> pool4/3x3_s2
I0510 23:35:27.791501 20050 net.cpp:105] Setting up pool4/3x3_s2
I0510 23:35:27.791507 20050 net.cpp:112] Top shape: 32 832 7 7 (1304576)
I0510 23:35:27.791512 20050 layer_factory.hpp:74] Creating layer pool4/3x3_s2_pool4/3x3_s2_0_split
I0510 23:35:27.791523 20050 net.cpp:76] Creating Layer pool4/3x3_s2_pool4/3x3_s2_0_split
I0510 23:35:27.791529 20050 net.cpp:372] pool4/3x3_s2_pool4/3x3_s2_0_split <- pool4/3x3_s2
I0510 23:35:27.791537 20050 net.cpp:334] pool4/3x3_s2_pool4/3x3_s2_0_split -> pool4/3x3_s2_pool4/3x3_s2_0_split_0
I0510 23:35:27.791544 20050 net.cpp:334] pool4/3x3_s2_pool4/3x3_s2_0_split -> pool4/3x3_s2_pool4/3x3_s2_0_split_1
I0510 23:35:27.791554 20050 net.cpp:334] pool4/3x3_s2_pool4/3x3_s2_0_split -> pool4/3x3_s2_pool4/3x3_s2_0_split_2
I0510 23:35:27.791563 20050 net.cpp:334] pool4/3x3_s2_pool4/3x3_s2_0_split -> pool4/3x3_s2_pool4/3x3_s2_0_split_3
I0510 23:35:27.791570 20050 net.cpp:105] Setting up pool4/3x3_s2_pool4/3x3_s2_0_split
I0510 23:35:27.791576 20050 net.cpp:112] Top shape: 32 832 7 7 (1304576)
I0510 23:35:27.791581 20050 net.cpp:112] Top shape: 32 832 7 7 (1304576)
I0510 23:35:27.791586 20050 net.cpp:112] Top shape: 32 832 7 7 (1304576)
I0510 23:35:27.791591 20050 net.cpp:112] Top shape: 32 832 7 7 (1304576)
I0510 23:35:27.791596 20050 layer_factory.hpp:74] Creating layer inception_5a/1x1
I0510 23:35:27.791607 20050 net.cpp:76] Creating Layer inception_5a/1x1
I0510 23:35:27.791613 20050 net.cpp:372] inception_5a/1x1 <- pool4/3x3_s2_pool4/3x3_s2_0_split_0
I0510 23:35:27.791623 20050 net.cpp:334] inception_5a/1x1 -> inception_5a/1x1
I0510 23:35:27.791635 20050 net.cpp:105] Setting up inception_5a/1x1
I0510 23:35:27.793433 20050 net.cpp:112] Top shape: 32 256 7 7 (401408)
I0510 23:35:27.793449 20050 layer_factory.hpp:74] Creating layer inception_5a/relu_1x1
I0510 23:35:27.793460 20050 net.cpp:76] Creating Layer inception_5a/relu_1x1
I0510 23:35:27.793467 20050 net.cpp:372] inception_5a/relu_1x1 <- inception_5a/1x1
I0510 23:35:27.793474 20050 net.cpp:323] inception_5a/relu_1x1 -> inception_5a/1x1 (in-place)
I0510 23:35:27.793498 20050 net.cpp:105] Setting up inception_5a/relu_1x1
I0510 23:35:27.793503 20050 net.cpp:112] Top shape: 32 256 7 7 (401408)
I0510 23:35:27.793509 20050 layer_factory.hpp:74] Creating layer inception_5a/3x3_reduce
I0510 23:35:27.793520 20050 net.cpp:76] Creating Layer inception_5a/3x3_reduce
I0510 23:35:27.793526 20050 net.cpp:372] inception_5a/3x3_reduce <- pool4/3x3_s2_pool4/3x3_s2_0_split_1
I0510 23:35:27.793535 20050 net.cpp:334] inception_5a/3x3_reduce -> inception_5a/3x3_reduce
I0510 23:35:27.793545 20050 net.cpp:105] Setting up inception_5a/3x3_reduce
I0510 23:35:27.794675 20050 net.cpp:112] Top shape: 32 160 7 7 (250880)
I0510 23:35:27.794690 20050 layer_factory.hpp:74] Creating layer inception_5a/relu_3x3_reduce
I0510 23:35:27.794699 20050 net.cpp:76] Creating Layer inception_5a/relu_3x3_reduce
I0510 23:35:27.794705 20050 net.cpp:372] inception_5a/relu_3x3_reduce <- inception_5a/3x3_reduce
I0510 23:35:27.794714 20050 net.cpp:323] inception_5a/relu_3x3_reduce -> inception_5a/3x3_reduce (in-place)
I0510 23:35:27.794723 20050 net.cpp:105] Setting up inception_5a/relu_3x3_reduce
I0510 23:35:27.794728 20050 net.cpp:112] Top shape: 32 160 7 7 (250880)
I0510 23:35:27.794734 20050 layer_factory.hpp:74] Creating layer inception_5a/3x3
I0510 23:35:27.794744 20050 net.cpp:76] Creating Layer inception_5a/3x3
I0510 23:35:27.794749 20050 net.cpp:372] inception_5a/3x3 <- inception_5a/3x3_reduce
I0510 23:35:27.794756 20050 net.cpp:334] inception_5a/3x3 -> inception_5a/3x3
I0510 23:35:27.794764 20050 net.cpp:105] Setting up inception_5a/3x3
I0510 23:35:27.798657 20050 net.cpp:112] Top shape: 32 320 7 7 (501760)
I0510 23:35:27.798674 20050 layer_factory.hpp:74] Creating layer inception_5a/relu_3x3
I0510 23:35:27.798682 20050 net.cpp:76] Creating Layer inception_5a/relu_3x3
I0510 23:35:27.799736 20050 net.cpp:372] inception_5a/relu_3x3 <- inception_5a/3x3
I0510 23:35:27.799749 20050 net.cpp:323] inception_5a/relu_3x3 -> inception_5a/3x3 (in-place)
I0510 23:35:27.799759 20050 net.cpp:105] Setting up inception_5a/relu_3x3
I0510 23:35:27.799765 20050 net.cpp:112] Top shape: 32 320 7 7 (501760)
I0510 23:35:27.799770 20050 layer_factory.hpp:74] Creating layer inception_5a/5x5_reduce
I0510 23:35:27.799783 20050 net.cpp:76] Creating Layer inception_5a/5x5_reduce
I0510 23:35:27.799792 20050 net.cpp:372] inception_5a/5x5_reduce <- pool4/3x3_s2_pool4/3x3_s2_0_split_2
I0510 23:35:27.799799 20050 net.cpp:334] inception_5a/5x5_reduce -> inception_5a/5x5_reduce
I0510 23:35:27.799809 20050 net.cpp:105] Setting up inception_5a/5x5_reduce
I0510 23:35:27.800050 20050 net.cpp:112] Top shape: 32 32 7 7 (50176)
I0510 23:35:27.800063 20050 layer_factory.hpp:74] Creating layer inception_5a/relu_5x5_reduce
I0510 23:35:27.800071 20050 net.cpp:76] Creating Layer inception_5a/relu_5x5_reduce
I0510 23:35:27.800077 20050 net.cpp:372] inception_5a/relu_5x5_reduce <- inception_5a/5x5_reduce
I0510 23:35:27.800086 20050 net.cpp:323] inception_5a/relu_5x5_reduce -> inception_5a/5x5_reduce (in-place)
I0510 23:35:27.800092 20050 net.cpp:105] Setting up inception_5a/relu_5x5_reduce
I0510 23:35:27.800098 20050 net.cpp:112] Top shape: 32 32 7 7 (50176)
I0510 23:35:27.800103 20050 layer_factory.hpp:74] Creating layer inception_5a/5x5
I0510 23:35:27.800114 20050 net.cpp:76] Creating Layer inception_5a/5x5
I0510 23:35:27.800120 20050 net.cpp:372] inception_5a/5x5 <- inception_5a/5x5_reduce
I0510 23:35:27.800128 20050 net.cpp:334] inception_5a/5x5 -> inception_5a/5x5
I0510 23:35:27.800139 20050 net.cpp:105] Setting up inception_5a/5x5
I0510 23:35:27.801028 20050 net.cpp:112] Top shape: 32 128 7 7 (200704)
I0510 23:35:27.801043 20050 layer_factory.hpp:74] Creating layer inception_5a/relu_5x5
I0510 23:35:27.801051 20050 net.cpp:76] Creating Layer inception_5a/relu_5x5
I0510 23:35:27.801058 20050 net.cpp:372] inception_5a/relu_5x5 <- inception_5a/5x5
I0510 23:35:27.801067 20050 net.cpp:323] inception_5a/relu_5x5 -> inception_5a/5x5 (in-place)
I0510 23:35:27.801076 20050 net.cpp:105] Setting up inception_5a/relu_5x5
I0510 23:35:27.801103 20050 net.cpp:112] Top shape: 32 128 7 7 (200704)
I0510 23:35:27.801110 20050 layer_factory.hpp:74] Creating layer inception_5a/pool
I0510 23:35:27.801120 20050 net.cpp:76] Creating Layer inception_5a/pool
I0510 23:35:27.801126 20050 net.cpp:372] inception_5a/pool <- pool4/3x3_s2_pool4/3x3_s2_0_split_3
I0510 23:35:27.801133 20050 net.cpp:334] inception_5a/pool -> inception_5a/pool
I0510 23:35:27.801142 20050 net.cpp:105] Setting up inception_5a/pool
I0510 23:35:27.801151 20050 net.cpp:112] Top shape: 32 832 7 7 (1304576)
I0510 23:35:27.801156 20050 layer_factory.hpp:74] Creating layer inception_5a/pool_proj
I0510 23:35:27.801167 20050 net.cpp:76] Creating Layer inception_5a/pool_proj
I0510 23:35:27.801173 20050 net.cpp:372] inception_5a/pool_proj <- inception_5a/pool
I0510 23:35:27.801182 20050 net.cpp:334] inception_5a/pool_proj -> inception_5a/pool_proj
I0510 23:35:27.801190 20050 net.cpp:105] Setting up inception_5a/pool_proj
I0510 23:35:27.802104 20050 net.cpp:112] Top shape: 32 128 7 7 (200704)
I0510 23:35:27.802121 20050 layer_factory.hpp:74] Creating layer inception_5a/relu_pool_proj
I0510 23:35:27.802131 20050 net.cpp:76] Creating Layer inception_5a/relu_pool_proj
I0510 23:35:27.802139 20050 net.cpp:372] inception_5a/relu_pool_proj <- inception_5a/pool_proj
I0510 23:35:27.802145 20050 net.cpp:323] inception_5a/relu_pool_proj -> inception_5a/pool_proj (in-place)
I0510 23:35:27.802153 20050 net.cpp:105] Setting up inception_5a/relu_pool_proj
I0510 23:35:27.802160 20050 net.cpp:112] Top shape: 32 128 7 7 (200704)
I0510 23:35:27.802165 20050 layer_factory.hpp:74] Creating layer inception_5a/output
I0510 23:35:27.802172 20050 net.cpp:76] Creating Layer inception_5a/output
I0510 23:35:27.802178 20050 net.cpp:372] inception_5a/output <- inception_5a/1x1
I0510 23:35:27.802184 20050 net.cpp:372] inception_5a/output <- inception_5a/3x3
I0510 23:35:27.802191 20050 net.cpp:372] inception_5a/output <- inception_5a/5x5
I0510 23:35:27.802196 20050 net.cpp:372] inception_5a/output <- inception_5a/pool_proj
I0510 23:35:27.802203 20050 net.cpp:334] inception_5a/output -> inception_5a/output
I0510 23:35:27.802212 20050 net.cpp:105] Setting up inception_5a/output
I0510 23:35:27.802218 20050 net.cpp:112] Top shape: 32 832 7 7 (1304576)
I0510 23:35:27.802223 20050 layer_factory.hpp:74] Creating layer inception_5a/output_inception_5a/output_0_split
I0510 23:35:27.802234 20050 net.cpp:76] Creating Layer inception_5a/output_inception_5a/output_0_split
I0510 23:35:27.802240 20050 net.cpp:372] inception_5a/output_inception_5a/output_0_split <- inception_5a/output
I0510 23:35:27.802248 20050 net.cpp:334] inception_5a/output_inception_5a/output_0_split -> inception_5a/output_inception_5a/output_0_split_0
I0510 23:35:27.802258 20050 net.cpp:334] inception_5a/output_inception_5a/output_0_split -> inception_5a/output_inception_5a/output_0_split_1
I0510 23:35:27.802266 20050 net.cpp:334] inception_5a/output_inception_5a/output_0_split -> inception_5a/output_inception_5a/output_0_split_2
I0510 23:35:27.802289 20050 net.cpp:334] inception_5a/output_inception_5a/output_0_split -> inception_5a/output_inception_5a/output_0_split_3
I0510 23:35:27.802300 20050 net.cpp:105] Setting up inception_5a/output_inception_5a/output_0_split
I0510 23:35:27.802309 20050 net.cpp:112] Top shape: 32 832 7 7 (1304576)
I0510 23:35:27.802314 20050 net.cpp:112] Top shape: 32 832 7 7 (1304576)
I0510 23:35:27.802319 20050 net.cpp:112] Top shape: 32 832 7 7 (1304576)
I0510 23:35:27.802322 20050 net.cpp:112] Top shape: 32 832 7 7 (1304576)
I0510 23:35:27.802328 20050 layer_factory.hpp:74] Creating layer inception_5b/1x1
I0510 23:35:27.802336 20050 net.cpp:76] Creating Layer inception_5b/1x1
I0510 23:35:27.802342 20050 net.cpp:372] inception_5b/1x1 <- inception_5a/output_inception_5a/output_0_split_0
I0510 23:35:27.802352 20050 net.cpp:334] inception_5b/1x1 -> inception_5b/1x1
I0510 23:35:27.802361 20050 net.cpp:105] Setting up inception_5b/1x1
I0510 23:35:27.805111 20050 net.cpp:112] Top shape: 32 384 7 7 (602112)
I0510 23:35:27.805129 20050 layer_factory.hpp:74] Creating layer inception_5b/relu_1x1
I0510 23:35:27.805152 20050 net.cpp:76] Creating Layer inception_5b/relu_1x1
I0510 23:35:27.805160 20050 net.cpp:372] inception_5b/relu_1x1 <- inception_5b/1x1
I0510 23:35:27.805167 20050 net.cpp:323] inception_5b/relu_1x1 -> inception_5b/1x1 (in-place)
I0510 23:35:27.805176 20050 net.cpp:105] Setting up inception_5b/relu_1x1
I0510 23:35:27.805181 20050 net.cpp:112] Top shape: 32 384 7 7 (602112)
I0510 23:35:27.805186 20050 layer_factory.hpp:74] Creating layer inception_5b/3x3_reduce
I0510 23:35:27.805197 20050 net.cpp:76] Creating Layer inception_5b/3x3_reduce
I0510 23:35:27.805205 20050 net.cpp:372] inception_5b/3x3_reduce <- inception_5a/output_inception_5a/output_0_split_1
I0510 23:35:27.805223 20050 net.cpp:334] inception_5b/3x3_reduce -> inception_5b/3x3_reduce
I0510 23:35:27.805244 20050 net.cpp:105] Setting up inception_5b/3x3_reduce
I0510 23:35:27.806725 20050 net.cpp:112] Top shape: 32 192 7 7 (301056)
I0510 23:35:27.806741 20050 layer_factory.hpp:74] Creating layer inception_5b/relu_3x3_reduce
I0510 23:35:27.806752 20050 net.cpp:76] Creating Layer inception_5b/relu_3x3_reduce
I0510 23:35:27.806759 20050 net.cpp:372] inception_5b/relu_3x3_reduce <- inception_5b/3x3_reduce
I0510 23:35:27.806767 20050 net.cpp:323] inception_5b/relu_3x3_reduce -> inception_5b/3x3_reduce (in-place)
I0510 23:35:27.806777 20050 net.cpp:105] Setting up inception_5b/relu_3x3_reduce
I0510 23:35:27.806782 20050 net.cpp:112] Top shape: 32 192 7 7 (301056)
I0510 23:35:27.806787 20050 layer_factory.hpp:74] Creating layer inception_5b/3x3
I0510 23:35:27.806795 20050 net.cpp:76] Creating Layer inception_5b/3x3
I0510 23:35:27.806803 20050 net.cpp:372] inception_5b/3x3 <- inception_5b/3x3_reduce
I0510 23:35:27.806812 20050 net.cpp:334] inception_5b/3x3 -> inception_5b/3x3
I0510 23:35:27.806840 20050 net.cpp:105] Setting up inception_5b/3x3
I0510 23:35:27.812990 20050 net.cpp:112] Top shape: 32 384 7 7 (602112)
I0510 23:35:27.813020 20050 layer_factory.hpp:74] Creating layer inception_5b/relu_3x3
I0510 23:35:27.813032 20050 net.cpp:76] Creating Layer inception_5b/relu_3x3
I0510 23:35:27.813041 20050 net.cpp:372] inception_5b/relu_3x3 <- inception_5b/3x3
I0510 23:35:27.813050 20050 net.cpp:323] inception_5b/relu_3x3 -> inception_5b/3x3 (in-place)
I0510 23:35:27.813060 20050 net.cpp:105] Setting up inception_5b/relu_3x3
I0510 23:35:27.813066 20050 net.cpp:112] Top shape: 32 384 7 7 (602112)
I0510 23:35:27.813071 20050 layer_factory.hpp:74] Creating layer inception_5b/5x5_reduce
I0510 23:35:27.813081 20050 net.cpp:76] Creating Layer inception_5b/5x5_reduce
I0510 23:35:27.813086 20050 net.cpp:372] inception_5b/5x5_reduce <- inception_5a/output_inception_5a/output_0_split_2
I0510 23:35:27.813096 20050 net.cpp:334] inception_5b/5x5_reduce -> inception_5b/5x5_reduce
I0510 23:35:27.813104 20050 net.cpp:105] Setting up inception_5b/5x5_reduce
I0510 23:35:27.813470 20050 net.cpp:112] Top shape: 32 48 7 7 (75264)
I0510 23:35:27.813484 20050 layer_factory.hpp:74] Creating layer inception_5b/relu_5x5_reduce
I0510 23:35:27.813493 20050 net.cpp:76] Creating Layer inception_5b/relu_5x5_reduce
I0510 23:35:27.813498 20050 net.cpp:372] inception_5b/relu_5x5_reduce <- inception_5b/5x5_reduce
I0510 23:35:27.813508 20050 net.cpp:323] inception_5b/relu_5x5_reduce -> inception_5b/5x5_reduce (in-place)
I0510 23:35:27.813518 20050 net.cpp:105] Setting up inception_5b/relu_5x5_reduce
I0510 23:35:27.813523 20050 net.cpp:112] Top shape: 32 48 7 7 (75264)
I0510 23:35:27.813529 20050 layer_factory.hpp:74] Creating layer inception_5b/5x5
I0510 23:35:27.813536 20050 net.cpp:76] Creating Layer inception_5b/5x5
I0510 23:35:27.813542 20050 net.cpp:372] inception_5b/5x5 <- inception_5b/5x5_reduce
I0510 23:35:27.813554 20050 net.cpp:334] inception_5b/5x5 -> inception_5b/5x5
I0510 23:35:27.813562 20050 net.cpp:105] Setting up inception_5b/5x5
I0510 23:35:27.814860 20050 net.cpp:112] Top shape: 32 128 7 7 (200704)
I0510 23:35:27.814877 20050 layer_factory.hpp:74] Creating layer inception_5b/relu_5x5
I0510 23:35:27.814887 20050 net.cpp:76] Creating Layer inception_5b/relu_5x5
I0510 23:35:27.814918 20050 net.cpp:372] inception_5b/relu_5x5 <- inception_5b/5x5
I0510 23:35:27.814926 20050 net.cpp:323] inception_5b/relu_5x5 -> inception_5b/5x5 (in-place)
I0510 23:35:27.814934 20050 net.cpp:105] Setting up inception_5b/relu_5x5
I0510 23:35:27.814940 20050 net.cpp:112] Top shape: 32 128 7 7 (200704)
I0510 23:35:27.814945 20050 layer_factory.hpp:74] Creating layer inception_5b/pool
I0510 23:35:27.814954 20050 net.cpp:76] Creating Layer inception_5b/pool
I0510 23:35:27.814960 20050 net.cpp:372] inception_5b/pool <- inception_5a/output_inception_5a/output_0_split_3
I0510 23:35:27.814970 20050 net.cpp:334] inception_5b/pool -> inception_5b/pool
I0510 23:35:27.814980 20050 net.cpp:105] Setting up inception_5b/pool
I0510 23:35:27.814987 20050 net.cpp:112] Top shape: 32 832 7 7 (1304576)
I0510 23:35:27.814993 20050 layer_factory.hpp:74] Creating layer inception_5b/pool_proj
I0510 23:35:27.815001 20050 net.cpp:76] Creating Layer inception_5b/pool_proj
I0510 23:35:27.815007 20050 net.cpp:372] inception_5b/pool_proj <- inception_5b/pool
I0510 23:35:27.815018 20050 net.cpp:334] inception_5b/pool_proj -> inception_5b/pool_proj
I0510 23:35:27.815027 20050 net.cpp:105] Setting up inception_5b/pool_proj
I0510 23:35:27.815942 20050 net.cpp:112] Top shape: 32 128 7 7 (200704)
I0510 23:35:27.815956 20050 layer_factory.hpp:74] Creating layer inception_5b/relu_pool_proj
I0510 23:35:27.815970 20050 net.cpp:76] Creating Layer inception_5b/relu_pool_proj
I0510 23:35:27.815978 20050 net.cpp:372] inception_5b/relu_pool_proj <- inception_5b/pool_proj
I0510 23:35:27.815984 20050 net.cpp:323] inception_5b/relu_pool_proj -> inception_5b/pool_proj (in-place)
I0510 23:35:27.815992 20050 net.cpp:105] Setting up inception_5b/relu_pool_proj
I0510 23:35:27.815997 20050 net.cpp:112] Top shape: 32 128 7 7 (200704)
I0510 23:35:27.816004 20050 layer_factory.hpp:74] Creating layer inception_5b/output
I0510 23:35:27.816014 20050 net.cpp:76] Creating Layer inception_5b/output
I0510 23:35:27.816020 20050 net.cpp:372] inception_5b/output <- inception_5b/1x1
I0510 23:35:27.816026 20050 net.cpp:372] inception_5b/output <- inception_5b/3x3
I0510 23:35:27.816032 20050 net.cpp:372] inception_5b/output <- inception_5b/5x5
I0510 23:35:27.816038 20050 net.cpp:372] inception_5b/output <- inception_5b/pool_proj
I0510 23:35:27.816045 20050 net.cpp:334] inception_5b/output -> inception_5b/output
I0510 23:35:27.816053 20050 net.cpp:105] Setting up inception_5b/output
I0510 23:35:27.816061 20050 net.cpp:112] Top shape: 32 1024 7 7 (1605632)
I0510 23:35:27.816066 20050 layer_factory.hpp:74] Creating layer pool5/7x7_s1
I0510 23:35:27.816073 20050 net.cpp:76] Creating Layer pool5/7x7_s1
I0510 23:35:27.816078 20050 net.cpp:372] pool5/7x7_s1 <- inception_5b/output
I0510 23:35:27.816087 20050 net.cpp:334] pool5/7x7_s1 -> pool5/7x7_s1
I0510 23:35:27.816095 20050 net.cpp:105] Setting up pool5/7x7_s1
I0510 23:35:27.816102 20050 net.cpp:112] Top shape: 32 1024 1 1 (32768)
I0510 23:35:27.816107 20050 layer_factory.hpp:74] Creating layer pool5/drop_7x7_s1
I0510 23:35:27.816118 20050 net.cpp:76] Creating Layer pool5/drop_7x7_s1
I0510 23:35:27.816123 20050 net.cpp:372] pool5/drop_7x7_s1 <- pool5/7x7_s1
I0510 23:35:27.816130 20050 net.cpp:323] pool5/drop_7x7_s1 -> pool5/7x7_s1 (in-place)
I0510 23:35:27.816138 20050 net.cpp:105] Setting up pool5/drop_7x7_s1
I0510 23:35:27.816144 20050 net.cpp:112] Top shape: 32 1024 1 1 (32768)
I0510 23:35:27.816150 20050 layer_factory.hpp:74] Creating layer loss3/classifier
I0510 23:35:27.816161 20050 net.cpp:76] Creating Layer loss3/classifier
I0510 23:35:27.816167 20050 net.cpp:372] loss3/classifier <- pool5/7x7_s1
I0510 23:35:27.816175 20050 net.cpp:334] loss3/classifier -> loss3/classifier
I0510 23:35:27.816184 20050 net.cpp:105] Setting up loss3/classifier
I0510 23:35:27.816215 20050 net.cpp:112] Top shape: 32 2 1 1 (64)
I0510 23:35:27.816226 20050 layer_factory.hpp:74] Creating layer loss3/loss3
I0510 23:35:27.816236 20050 net.cpp:76] Creating Layer loss3/loss3
I0510 23:35:27.816243 20050 net.cpp:372] loss3/loss3 <- loss3/classifier
I0510 23:35:27.816262 20050 net.cpp:372] loss3/loss3 <- label_data_1_split_2
I0510 23:35:27.816283 20050 net.cpp:334] loss3/loss3 -> loss3/loss3
I0510 23:35:27.816295 20050 net.cpp:105] Setting up loss3/loss3
I0510 23:35:27.816308 20050 layer_factory.hpp:74] Creating layer loss3/loss3
I0510 23:35:27.816336 20050 net.cpp:112] Top shape: 1 1 1 1 (1)
I0510 23:35:27.816344 20050 net.cpp:118]     with loss weight 1
I0510 23:35:27.816361 20050 net.cpp:163] loss3/loss3 needs backward computation.
I0510 23:35:27.816368 20050 net.cpp:163] loss3/classifier needs backward computation.
I0510 23:35:27.816393 20050 net.cpp:163] pool5/drop_7x7_s1 needs backward computation.
I0510 23:35:27.816400 20050 net.cpp:163] pool5/7x7_s1 needs backward computation.
…
I0510 23:35:27.826236 20050 solver.cpp:154] Creating test net (#0) specified by net file: ../../train_val.prototxt
I0510 23:35:27.826519 20050 net.cpp:253] The NetState phase (1) differed from the phase (0) specified by a rule in layer data
I0510 23:35:27.827962 20050 net.cpp:42] Initializing net from parameters: 
name: "GoogleNet"
state {
  phase: TEST
}
layer {
  name: "data"
  type: "Data"
  top: "data"
  top: "label"
  include {
    phase: TEST
  }
  transform_param {
    mirror: false
    crop_size: 224
    mean_value: 104
    mean_value: 117
    mean_value: 123
  }
  data_param {
    source: "val_lmdb"
    batch_size: 32
    backend: LMDB
  }
}
layer {
  name: "conv1/7x7_s2"
  type: "Convolution"
  bottom: "data"
  top: "conv1/7x7_s2"
  param {
    lr_mult: 1
    decay_mult: 1
  }
  param {
    lr_mult: 2
    decay_mult: 0
  }
  convolution_param {
    num_output: 64
    pad: 3
    kernel_size: 7
    stride: 2
    weight_filler {
      type: "xavier"
      std: 0.1
    }
    bias_filler {
      type: "constant"
      value: 0.2
    }
  }
}
layer {
  name: "conv1/relu_7x7"
  type: "ReLU"
  bottom: "conv1/7x7_s2"
  top: "conv1/7x7_s2"
}
layer {
  name: "pool1/3x3_s2"
  type: "Pooling"
  bottom: "conv1/7x7_s2"
  top: "pool1/3x3_s2"
  pooling_param {
    pool: MAX
    kernel_size: 3
    stride: 2
  }
}
layer {
  name: "pool1/norm1"
  type: "LRN"
  bottom: "pool1/3x3_s2"
  top: "pool1/norm1"
  lrn_param {
    local_size: 5
    alpha: 0.0001
    beta: 0.75
  }
}
layer {
  name: "conv2/3x3_reduce"
  type: "Convolution"
  bottom: "pool1/norm1"
  top: "conv2/3x3_reduce"
  param {
    lr_mult: 1
    decay_mult: 1
  }
  param {
    lr_mult: 2
    decay_mult: 0
  }
  convolution_param {
    num_output: 64
    kernel_size: 1
    weight_filler {
      type: "xavier"
      std: 0.1
    }
    bias_filler {
      type: "constant"
      value: 0.2
    }
  }
}
layer {
  name: "conv2/relu_3x3_reduce"
  type: "ReLU"
  bottom: "conv2/3x3_reduce"
  top: "conv2/3x3_reduce"
}
layer {
  name: "conv2/3x3"
  type: "Convolution"
  bottom: "conv2/3x3_reduce"
  top: "conv2/3x3"
  param {
    lr_mult: 1
    decay_mult: 1
  }
  param {
    lr_mult: 2
    decay_mult: 0
  }
  convolution_param {
    num_output: 192
    pad: 1
    kernel_size: 3
    weight_filler {
      type: "xavier"
      std: 0.03
    }
    bias_filler {
      type: "constant"
      value: 0.2
    }
  }
}
layer {
  name: "conv2/relu_3x3"
  type: "ReLU"
  bottom: "conv2/3x3"
  top: "conv2/3x3"
}
layer {
  name: "conv2/norm2"
  type: "LRN"
  bottom: "conv2/3x3"
  top: "conv2/norm2"
  lrn_param {
    local_size: 5
    alpha: 0.0001
    beta: 0.75
  }
}
layer {
  name: "pool2/3x3_s2"
  type: "Pooling"
  bottom: "conv2/norm2"
  top: "pool2/3x3_s2"
  pooling_param {
    pool: MAX
    kernel_size: 3
    stride: 2
  }
}
layer {
  name: "inception_3a/1x1"
  type: "Convolution"
  bottom: "pool2/3x3_s2"
  top: "inception_3a/1x1"
  param {
    lr_mult: 1
    decay_mult: 1
  }
  param {
    lr_mult: 2
    decay_mult: 0
  }
  convolution_param {
    num_output: 64
    kernel_size: 1
    weight_filler {
      type: "xavier"
      std: 0.03
    }
    bias_filler {
      type: "constant"
      value: 0.2
    }
  }
}
layer {
  name: "inception_3a/relu_1x1"
  type: "ReLU"
  bottom: "inception_3a/1x1"
  top: "inception_3a/1x1"
}
layer {
  name: "inception_3a/3x3_reduce"
  type: "Convolution"
  bottom: "pool2/3x3_s2"
  top: "inception_3a/3x3_reduce"
  param {
    lr_mult: 1
    decay_mult: 1
  }
  param {
    lr_mult: 2
    decay_mult: 0
  }
  convolution_param {
    num_output: 96
    kernel_size: 1
    weight_filler {
      type: "xavier"
      std: 0.09
    }
    bias_filler {
      type: "constant"
      value: 0.2
    }
  }
}
layer {
  name: "inception_3a/relu_3x3_reduce"
  type: "ReLU"
  bottom: "inception_3a/3x3_reduce"
  top: "inception_3a/3x3_reduce"
}
layer {
  name: "inception_3a/3x3"
  type: "Convolution"
  bottom: "inception_3a/3x3_reduce"
  top: "inception_3a/3x3"
  param {
    lr_mult: 1
    decay_mult: 1
  }
  param {
    lr_mult: 2
    decay_mult: 0
  }
  convolution_param {
    num_output: 128
    pad: 1
    kernel_size: 3
    weight_filler {
      type: "xavier"
      std: 0.03
    }
    bias_filler {
      type: "constant"
      value: 0.2
    }
  }
}
layer {
  name: "inception_3a/relu_3x3"
  type: "ReLU"
  bottom: "inception_3a/3x3"
  top: "inception_3a/3x3"
}
layer {
  name: "inception_3a/5x5_reduce"
  type: "Convolution"
  bottom: "pool2/3x3_s2"
  top: "inception_3a/5x5_reduce"
  param {
    lr_mult: 1
    decay_mult: 1
  }
  param {
    lr_mult: 2
    decay_mult: 0
  }
  convolution_param {
    num_output: 16
    kernel_size: 1
    weight_filler {
      type: "xavier"
      std: 0.2
    }
    bias_filler {
      type: "constant"
      value: 0.2
    }
  }
}
layer {
  name: "inception_3a/relu_5x5_reduce"
  type: "ReLU"
  bottom: "inception_3a/5x5_reduce"
  top: "inception_3a/5x5_reduce"
}
layer {
  name: "inception_3a/5x5"
  type: "Convolution"
  bottom: "inception_3a/5x5_reduce"
  top: "inception_3a/5x5"
  param {
    lr_mult: 1
    decay_mult: 1
  }
  param {
    lr_mult: 2
    decay_mult: 0
  }
  convolution_param {
    num_output: 32
    pad: 2
    kernel_size: 5
    weight_filler {
      type: "xavier"
      std: 0.03
    }
    bias_filler {
      type: "constant"
      value: 0.2
    }
  }
}
layer {
  name: "inception_3a/relu_5x5"
  type: "ReLU"
  bottom: "inception_3a/5x5"
  top: "inception_3a/5x5"
}
layer {
  name: "inception_3a/pool"
  type: "Pooling"
  bottom: "pool2/3x3_s2"
  top: "inception_3a/pool"
  pooling_param {
    pool: MAX
    kernel_size: 3
    stride: 1
    pad: 1
  }
}
layer {
  name: "inception_3a/pool_proj"
  type: "Convolution"
  bottom: "inception_3a/pool"
  top: "inception_3a/pool_proj"
  param {
    lr_mult: 1
    decay_mult: 1
  }
  param {
    lr_mult: 2
    decay_mult: 0
  }
  convolution_param {
    num_output: 32
    kernel_size: 1
    weight_filler {
      type: "xavier"
      std: 0.1
    }
    bias_filler {
      type: "constant"
      value: 0.2
    }
  }
}
layer {
  name: "inception_3a/relu_pool_proj"
  type: "ReLU"
  bottom: "inception_3a/pool_proj"
  top: "inception_3a/pool_proj"
}
layer {
  name: "inception_3a/output"
  type: "Concat"
  bottom: "inception_3a/1x1"
  bottom: "inception_3a/3x3"
  bottom: "inception_3a/5x5"
  bottom: "inception_3a/pool_proj"
  top: "inception_3a/output"
}
layer {
  name: "inception_3b/1x1"
  type: "Convolution"
  bottom: "inception_3a/output"
  top: "inception_3b/1x1"
  param {
    lr_mult: 1
    decay_mult: 1
  }
  param {
    lr_mult: 2
    decay_mult: 0
  }
  convolution_param {
    num_output: 128
    kernel_size: 1
    weight_filler {
      type: "xavier"
      std: 0.03
    }
    bias_filler {
      type: "constant"
      value: 0.2
    }
  }
}
layer {
  name: "inception_3b/relu_1x1"
  type: "ReLU"
  bottom: "inception_3b/1x1"
  top: "inception_3b/1x1"
}
layer {
  name: "inception_3b/3x3_reduce"
  type: "Convolution"
  bottom: "inception_3a/output"
  top: "inception_3b/3x3_reduce"
  param {
    lr_mult: 1
    decay_mult: 1
  }
  param {
    lr_mult: 2
    decay_mult: 0
  }
  convolution_param {
    num_output: 128
    kernel_size: 1
    weight_filler {
      type: "xavier"
      std: 0.09
    }
    bias_filler {
      type: "constant"
      value: 0.2
    }
  }
}
layer {
  name: "inception_3b/relu_3x3_reduce"
  type: "ReLU"
  bottom: "inception_3b/3x3_reduce"
  top: "inception_3b/3x3_reduce"
}
layer {
  name: "inception_3b/3x3"
  type: "Convolution"
  bottom: "inception_3b/3x3_reduce"
  top: "inception_3b/3x3"
  param {
    lr_mult: 1
    decay_mult: 1
  }
  param {
    lr_mult: 2
    decay_mult: 0
  }
  convolution_param {
    num_output: 192
    pad: 1
    kernel_size: 3
    weight_filler {
      type: "xavier"
      std: 0.03
    }
    bias_filler {
      type: "constant"
      value: 0.2
    }
  }
}
layer {
  name: "inception_3b/relu_3x3"
  type: "ReLU"
  bottom: "inception_3b/3x3"
  top: "inception_3b/3x3"
}
layer {
  name: "inception_3b/5x5_reduce"
  type: "Convolution"
  bottom: "inception_3a/output"
  top: "inception_3b/5x5_reduce"
  param {
    lr_mult: 1
    decay_mult: 1
  }
  param {
    lr_mult: 2
    decay_mult: 0
  }
  convolution_param {
    num_output: 32
    kernel_size: 1
    weight_filler {
      type: "xavier"
      std: 0.2
    }
    bias_filler {
      type: "constant"
      value: 0.2
    }
  }
}
layer {
  name: "inception_3b/relu_5x5_reduce"
  type: "ReLU"
  bottom: "inception_3b/5x5_reduce"
  top: "inception_3b/5x5_reduce"
}
layer {
  name: "inception_3b/5x5"
  type: "Convolution"
  bottom: "inception_3b/5x5_reduce"
  top: "inception_3b/5x5"
  param {
    lr_mult: 1
    decay_mult: 1
  }
  param {
    lr_mult: 2
    decay_mult: 0
  }
  convolution_param {
    num_output: 96
    pad: 2
    kernel_size: 5
    weight_filler {
      type: "xavier"
      std: 0.03
    }
    bias_filler {
      type: "constant"
      value: 0.2
    }
  }
}
layer {
  name: "inception_3b/relu_5x5"
  type: "ReLU"
  bottom: "inception_3b/5x5"
  top: "inception_3b/5x5"
}
layer {
  name: "inception_3b/pool"
  type: "Pooling"
  bottom: "inception_3a/output"
  top: "inception_3b/pool"
  pooling_param {
    pool: MAX
    kernel_size: 3
    stride: 1
    pad: 1
  }
}
layer {
  name: "inception_3b/pool_proj"
  type: "Convolution"
  bottom: "inception_3b/pool"
  top: "inception_3b/pool_proj"
  param {
    lr_mult: 1
    decay_mult: 1
  }
  param {
    lr_mult: 2
    decay_mult: 0
  }
  convolution_param {
    num_output: 64
    kernel_size: 1
    weight_filler {
      type: "xavier"
      std: 0.1
    }
    bias_filler {
      type: "constant"
      value: 0.2
    }
  }
}
layer {
  name: "inception_3b/relu_pool_proj"
  type: "ReLU"
  bottom: "inception_3b/pool_proj"
  top: "inception_3b/pool_proj"
}
layer {
  name: "inception_3b/output"
  type: "Concat"
  bottom: "inception_3b/1x1"
  bottom: "inception_3b/3x3"
  bottom: "inception_3b/5x5"
  bottom: "inception_3b/pool_proj"
  top: "inception_3b/output"
}
layer {
  name: "pool3/3x3_s2"
  type: "Pooling"
  bottom: "inception_3b/output"
  top: "pool3/3x3_s2"
  pooling_param {
    pool: MAX
    kernel_size: 3
    stride: 2
  }
}
layer {
  name: "inception_4a/1x1"
  type: "Convolution"
  bottom: "pool3/3x3_s2"
  top: "inception_4a/1x1"
  param {
    lr_mult: 1
    decay_mult: 1
  }
  param {
    lr_mult: 2
    decay_mult: 0
  }
  convolution_param {
    num_output: 192
    kernel_size: 1
    weight_filler {
      type: "xavier"
      std: 0.03
    }
    bias_filler {
      type: "constant"
      value: 0.2
    }
  }
}
layer {
  name: "inception_4a/relu_1x1"
  type: "ReLU"
  bottom: "inception_4a/1x1"
  top: "inception_4a/1x1"
}
layer {
  name: "inception_4a/3x3_reduce"
  type: "Convolution"
  bottom: "pool3/3x3_s2"
  top: "inception_4a/3x3_reduce"
  param {
    lr_mult: 1
    decay_mult: 1
  }
  param {
    lr_mult: 2
    decay_mult: 0
  }
  convolution_param {
    num_output: 96
    kernel_size: 1
    weight_filler {
      type: "xavier"
      std: 0.09
    }
    bias_filler {
      type: "constant"
      value: 0.2
    }
  }
}
layer {
  name: "inception_4a/relu_3x3_reduce"
  type: "ReLU"
  bottom: "inception_4a/3x3_reduce"
  top: "inception_4a/3x3_reduce"
}
layer {
  name: "inception_4a/3x3"
  type: "Convolution"
  bottom: "inception_4a/3x3_reduce"
  top: "inception_4a/3x3"
  param {
    lr_mult: 1
    decay_mult: 1
  }
  param {
    lr_mult: 2
    decay_mult: 0
  }
  convolution_param {
    num_output: 208
    pad: 1
    kernel_size: 3
    weight_filler {
      type: "xavier"
      std: 0.03
    }
    bias_filler {
      type: "constant"
      value: 0.2
    }
  }
}
layer {
  name: "inception_4a/relu_3x3"
  type: "ReLU"
  bottom: "inception_4a/3x3"
  top: "inception_4a/3x3"
}
layer {
  name: "inception_4a/5x5_reduce"
  type: "Convolution"
  bottom: "pool3/3x3_s2"
  top: "inception_4a/5x5_reduce"
  param {
    lr_mult: 1
    decay_mult: 1
  }
  param {
    lr_mult: 2
    decay_mult: 0
  }
  convolution_param {
    num_output: 16
    kernel_size: 1
    weight_filler {
      type: "xavier"
      std: 0.2
    }
    bias_filler {
      type: "constant"
      value: 0.2
    }
  }
}
layer {
  name: "inception_4a/relu_5x5_reduce"
  type: "ReLU"
  bottom: "inception_4a/5x5_reduce"
  top: "inception_4a/5x5_reduce"
}
layer {
  name: "inception_4a/5x5"
  type: "Convolution"
  bottom: "inception_4a/5x5_reduce"
  top: "inception_4a/5x5"
  param {
    lr_mult: 1
    decay_mult: 1
  }
  param {
    lr_mult: 2
    decay_mult: 0
  }
  convolution_param {
    num_output: 48
    pad: 2
    kernel_size: 5
    weight_filler {
      type: "xavier"
      std: 0.03
    }
    bias_filler {
      type: "constant"
      value: 0.2
    }
  }
}
layer {
  name: "inception_4a/relu_5x5"
  type: "ReLU"
  bottom: "inception_4a/5x5"
  top: "inception_4a/5x5"
}
layer {
  name: "inception_4a/pool"
  type: "Pooling"
  bottom: "pool3/3x3_s2"
  top: "inception_4a/pool"
  pooling_param {
    pool: MAX
    kernel_size: 3
    stride: 1
    pad: 1
  }
}
layer {
  name: "inception_4a/pool_proj"
  type: "Convolution"
  bottom: "inception_4a/pool"
  top: "inception_4a/pool_proj"
  param {
    lr_mult: 1
    decay_mult: 1
  }
  param {
    lr_mult: 2
    decay_mult: 0
  }
  convolution_param {
    num_output: 64
    kernel_size: 1
    weight_filler {
      type: "xavier"
      std: 0.1
    }
    bias_filler {
      type: "constant"
      value: 0.2
    }
  }
}
layer {
  name: "inception_4a/relu_pool_proj"
  type: "ReLU"
  bottom: "inception_4a/pool_proj"
  top: "inception_4a/pool_proj"
}
layer {
  name: "inception_4a/output"
  type: "Concat"
  bottom: "inception_4a/1x1"
  bottom: "inception_4a/3x3"
  bottom: "inception_4a/5x5"
  bottom: "inception_4a/pool_proj"
  top: "inception_4a/output"
}
layer {
  name: "loss1/ave_pool"
  type: "Pooling"
  bottom: "inception_4a/output"
  top: "loss1/ave_pool"
  pooling_param {
    pool: AVE
    kernel_size: 5
    stride: 3
  }
}
layer {
  name: "loss1/conv"
  type: "Convolution"
  bottom: "loss1/ave_pool"
  top: "loss1/conv"
  param {
    lr_mult: 1
    decay_mult: 1
  }
  param {
    lr_mult: 2
    decay_mult: 0
  }
  convolution_param {
    num_output: 128
    kernel_size: 1
    weight_filler {
      type: "xavier"
      std: 0.08
    }
    bias_filler {
      type: "constant"
      value: 0.2
    }
  }
}
layer {
  name: "loss1/relu_conv"
  type: "ReLU"
  bottom: "loss1/conv"
  top: "loss1/conv"
}
layer {
  name: "loss1/fc"
  type: "InnerProduct"
  bottom: "loss1/conv"
  top: "loss1/fc"
  param {
    lr_mult: 1
    decay_mult: 1
  }
  param {
    lr_mult: 2
    decay_mult: 0
  }
  inner_product_param {
    num_output: 1024
    weight_filler {
      type: "xavier"
      std: 0.02
    }
    bias_filler {
      type: "constant"
      value: 0.2
    }
  }
}
layer {
  name: "loss1/relu_fc"
  type: "ReLU"
  bottom: "loss1/fc"
  top: "loss1/fc"
}
layer {
  name: "loss1/drop_fc"
  type: "Dropout"
  bottom: "loss1/fc"
  top: "loss1/fc"
  dropout_param {
    dropout_ratio: 0.7
  }
}
layer {
  name: "loss1/classifier"
  type: "InnerProduct"
  bottom: "loss1/fc"
  top: "loss1/classifier"
  param {
    lr_mult: 1
    decay_mult: 1
  }
  param {
    lr_mult: 2
    decay_mult: 0
  }
  inner_product_param {
    num_output: 2
    weight_filler {
      type: "xavier"
      std: 0.0009765625
    }
    bias_filler {
      type: "constant"
      value: 0
    }
  }
}
layer {
  name: "loss1/loss"
  type: "SoftmaxWithLoss"
  bottom: "loss1/classifier"
  bottom: "label"
  top: "loss1/loss1"
  loss_weight: 0.3
}
layer {
  name: "loss1/top-1"
  type: "Accuracy"
  bottom: "loss1/classifier"
  bottom: "label"
  top: "loss1/top-1"
  include {
    phase: TEST
  }
}
layer {
  name: "inception_4b/1x1"
  type: "Convolution"
  bottom: "inception_4a/output"
  top: "inception_4b/1x1"
  param {
    lr_mult: 1
    decay_mult: 1
  }
  param {
    lr_mult: 2
    decay_mult: 0
  }
  convolution_param {
    num_output: 160
    kernel_size: 1
    weight_filler {
      type: "xavier"
      std: 0.03
    }
    bias_filler {
      type: "constant"
      value: 0.2
    }
  }
}
layer {
  name: "inception_4b/relu_1x1"
  type: "ReLU"
  bottom: "inception_4b/1x1"
  top: "inception_4b/1x1"
}
layer {
  name: "inception_4b/3x3_reduce"
  type: "Convolution"
  bottom: "inception_4a/output"
  top: "inception_4b/3x3_reduce"
  param {
    lr_mult: 1
    decay_mult: 1
  }
  param {
    lr_mult: 2
    decay_mult: 0
  }
  convolution_param {
    num_output: 112
    kernel_size: 1
    weight_filler {
      type: "xavier"
      std: 0.09
    }
    bias_filler {
      type: "constant"
      value: 0.2
    }
  }
}
layer {
  name: "inception_4b/relu_3x3_reduce"
  type: "ReLU"
  bottom: "inception_4b/3x3_reduce"
  top: "inception_4b/3x3_reduce"
}
layer {
  name: "inception_4b/3x3"
  type: "Convolution"
  bottom: "inception_4b/3x3_reduce"
  top: "inception_4b/3x3"
  param {
    lr_mult: 1
    decay_mult: 1
  }
  param {
    lr_mult: 2
    decay_mult: 0
  }
  convolution_param {
    num_output: 224
    pad: 1
    kernel_size: 3
    weight_filler {
      type: "xavier"
      std: 0.03
    }
    bias_filler {
      type: "constant"
      value: 0.2
    }
  }
}
layer {
  name: "inception_4b/relu_3x3"
  type: "ReLU"
  bottom: "inception_4b/3x3"
  top: "inception_4b/3x3"
}
layer {
  name: "inception_4b/5x5_reduce"
  type: "Convolution"
  bottom: "inception_4a/output"
  top: "inception_4b/5x5_reduce"
  param {
    lr_mult: 1
    decay_mult: 1
  }
  param {
    lr_mult: 2
    decay_mult: 0
  }
  convolution_param {
    num_output: 24
    kernel_size: 1
    weight_filler {
      type: "xavier"
      std: 0.2
    }
    bias_filler {
      type: "constant"
      value: 0.2
    }
  }
}
layer {
  name: "inception_4b/relu_5x5_reduce"
  type: "ReLU"
  bottom: "inception_4b/5x5_reduce"
  top: "inception_4b/5x5_reduce"
}
layer {
  name: "inception_4b/5x5"
  type: "Convolution"
  bottom: "inception_4b/5x5_reduce"
  top: "inception_4b/5x5"
  param {
    lr_mult: 1
    decay_mult: 1
  }
  param {
    lr_mult: 2
    decay_mult: 0
  }
  convolution_param {
    num_output: 64
    pad: 2
    kernel_size: 5
    weight_filler {
      type: "xavier"
      std: 0.03
    }
    bias_filler {
      type: "constant"
      value: 0.2
    }
  }
}
layer {
  name: "inception_4b/relu_5x5"
  type: "ReLU"
  bottom: "inception_4b/5x5"
  top: "inception_4b/5x5"
}
layer {
  name: "inception_4b/pool"
  type: "Pooling"
  bottom: "inception_4a/output"
  top: "inception_4b/pool"
  pooling_param {
    pool: MAX
    kernel_size: 3
    stride: 1
    pad: 1
  }
}
layer {
  name: "inception_4b/pool_proj"
  type: "Convolution"
  bottom: "inception_4b/pool"
  top: "inception_4b/pool_proj"
  param {
    lr_mult: 1
    decay_mult: 1
  }
  param {
    lr_mult: 2
    decay_mult: 0
  }
  convolution_param {
    num_output: 64
    kernel_size: 1
    weight_filler {
      type: "xavier"
      std: 0.1
    }
    bias_filler {
      type: "constant"
      value: 0.2
    }
  }
}
layer {
  name: "inception_4b/relu_pool_proj"
  type: "ReLU"
  bottom: "inception_4b/pool_proj"
  top: "inception_4b/pool_proj"
}
layer {
  name: "inception_4b/output"
  type: "Concat"
  bottom: "inception_4b/1x1"
  bottom: "inception_4b/3x3"
  bottom: "inception_4b/5x5"
  bottom: "inception_4b/pool_proj"
  top: "inception_4b/output"
}
layer {
  name: "inception_4c/1x1"
  type: "Convolution"
  bottom: "inception_4b/output"
  top: "inception_4c/1x1"
  param {
    lr_mult: 1
    decay_mult: 1
  }
  param {
    lr_mult: 2
    decay_mult: 0
  }
  convolution_param {
    num_output: 128
    kernel_size: 1
    weight_filler {
      type: "xavier"
      std: 0.03
    }
    bias_filler {
      type: "constant"
      value: 0.2
    }
  }
}
layer {
  name: "inception_4c/relu_1x1"
  type: "ReLU"
  bottom: "inception_4c/1x1"
  top: "inception_4c/1x1"
}
layer {
  name: "inception_4c/3x3_reduce"
  type: "Convolution"
  bottom: "inception_4b/output"
  top: "inception_4c/3x3_reduce"
  param {
    lr_mult: 1
    decay_mult: 1
  }
  param {
    lr_mult: 2
    decay_mult: 0
  }
  convolution_param {
    num_output: 128
    kernel_size: 1
    weight_filler {
      type: "xavier"
      std: 0.09
    }
    bias_filler {
      type: "constant"
      value: 0.2
    }
  }
}
layer {
  name: "inception_4c/relu_3x3_reduce"
  type: "ReLU"
  bottom: "inception_4c/3x3_reduce"
  top: "inception_4c/3x3_reduce"
}
layer {
  name: "inception_4c/3x3"
  type: "Convolution"
  bottom: "inception_4c/3x3_reduce"
  top: "inception_4c/3x3"
  param {
    lr_mult: 1
    decay_mult: 1
  }
  param {
    lr_mult: 2
    decay_mult: 0
  }
  convolution_param {
    num_output: 256
    pad: 1
    kernel_size: 3
    weight_filler {
      type: "xavier"
      std: 0.03
    }
    bias_filler {
      type: "constant"
      value: 0.2
    }
  }
}
layer {
  name: "inception_4c/relu_3x3"
  type: "ReLU"
  bottom: "inception_4c/3x3"
  top: "inception_4c/3x3"
}
layer {
  name: "inception_4c/5x5_reduce"
  type: "Convolution"
  bottom: "inception_4b/output"
  top: "inception_4c/5x5_reduce"
  param {
    lr_mult: 1
    decay_mult: 1
  }
  param {
    lr_mult: 2
    decay_mult: 0
  }
  convolution_param {
    num_output: 24
    kernel_size: 1
    weight_filler {
      type: "xavier"
      std: 0.2
    }
    bias_filler {
      type: "constant"
      value: 0.2
    }
  }
}
layer {
  name: "inception_4c/relu_5x5_reduce"
  type: "ReLU"
  bottom: "inception_4c/5x5_reduce"
  top: "inception_4c/5x5_reduce"
}
layer {
  name: "inception_4c/5x5"
  type: "Convolution"
  bottom: "inception_4c/5x5_reduce"
  top: "inception_4c/5x5"
  param {
    lr_mult: 1
    decay_mult: 1
  }
  param {
    lr_mult: 2
    decay_mult: 0
  }
  convolution_param {
    num_output: 64
    pad: 2
    kernel_size: 5
    weight_filler {
      type: "xavier"
      std: 0.03
    }
    bias_filler {
      type: "constant"
      value: 0.2
    }
  }
}
layer {
  name: "inception_4c/relu_5x5"
  type: "ReLU"
  bottom: "inception_4c/5x5"
  top: "inception_4c/5x5"
}
layer {
  name: "inception_4c/pool"
  type: "Pooling"
  bottom: "inception_4b/output"
  top: "inception_4c/pool"
  pooling_param {
    pool: MAX
    kernel_size: 3
    stride: 1
    pad: 1
  }
}
layer {
  name: "inception_4c/pool_proj"
  type: "Convolution"
  bottom: "inception_4c/pool"
  top: "inception_4c/pool_proj"
  param {
    lr_mult: 1
    decay_mult: 1
  }
  param {
    lr_mult: 2
    decay_mult: 0
  }
  convolution_param {
    num_output: 64
    kernel_size: 1
    weight_filler {
      type: "xavier"
      std: 0.1
    }
    bias_filler {
      type: "constant"
      value: 0.2
    }
  }
}
layer {
  name: "inception_4c/relu_pool_proj"
  type: "ReLU"
  bottom: "inception_4c/pool_proj"
  top: "inception_4c/pool_proj"
}
layer {
  name: "inception_4c/output"
  type: "Concat"
  bottom: "inception_4c/1x1"
  bottom: "inception_4c/3x3"
  bottom: "inception_4c/5x5"
  bottom: "inception_4c/pool_proj"
  top: "inception_4c/output"
}
layer {
  name: "inception_4d/1x1"
  type: "Convolution"
  bottom: "inception_4c/output"
  top: "inception_4d/1x1"
  param {
    lr_mult: 1
    decay_mult: 1
  }
  param {
    lr_mult: 2
    decay_mult: 0
  }
  convolution_param {
    num_output: 112
    kernel_size: 1
    weight_filler {
      type: "xavier"
      std: 0.03
    }
    bias_filler {
      type: "constant"
      value: 0.2
    }
  }
}
layer {
  name: "inception_4d/relu_1x1"
  type: "ReLU"
  bottom: "inception_4d/1x1"
  top: "inception_4d/1x1"
}
layer {
  name: "inception_4d/3x3_reduce"
  type: "Convolution"
  bottom: "inception_4c/output"
  top: "inception_4d/3x3_reduce"
  param {
    lr_mult: 1
    decay_mult: 1
  }
  param {
    lr_mult: 2
    decay_mult: 0
  }
  convolution_param {
    num_output: 144
    kernel_size: 1
    weight_filler {
      type: "xavier"
      std: 0.09
    }
    bias_filler {
      type: "constant"
      value: 0.2
    }
  }
}
layer {
  name: "inception_4d/relu_3x3_reduce"
  type: "ReLU"
  bottom: "inception_4d/3x3_reduce"
  top: "inception_4d/3x3_reduce"
}
layer {
  name: "inception_4d/3x3"
  type: "Convolution"
  bottom: "inception_4d/3x3_reduce"
  top: "inception_4d/3x3"
  param {
    lr_mult: 1
    decay_mult: 1
  }
  param {
    lr_mult: 2
    decay_mult: 0
  }
  convolution_param {
    num_output: 288
    pad: 1
    kernel_size: 3
    weight_filler {
      type: "xavier"
      std: 0.03
    }
    bias_filler {
      type: "constant"
      value: 0.2
    }
  }
}
layer {
  name: "inception_4d/relu_3x3"
  type: "ReLU"
  bottom: "inception_4d/3x3"
  top: "inception_4d/3x3"
}
layer {
  name: "inception_4d/5x5_reduce"
  type: "Convolution"
  bottom: "inception_4c/output"
  top: "inception_4d/5x5_reduce"
  param {
    lr_mult: 1
    decay_mult: 1
  }
  param {
    lr_mult: 2
    decay_mult: 0
  }
  convolution_param {
    num_output: 32
    kernel_size: 1
    weight_filler {
      type: "xavier"
      std: 0.2
    }
    bias_filler {
      type: "constant"
      value: 0.2
    }
  }
}
layer {
  name: "inception_4d/relu_5x5_reduce"
  type: "ReLU"
  bottom: "inception_4d/5x5_reduce"
  top: "inception_4d/5x5_reduce"
}
layer {
  name: "inception_4d/5x5"
  type: "Convolution"
  bottom: "inception_4d/5x5_reduce"
  top: "inception_4d/5x5"
  param {
    lr_mult: 1
    decay_mult: 1
  }
  param {
    lr_mult: 2
    decay_mult: 0
  }
  convolution_param {
    num_output: 64
    pad: 2
    kernel_size: 5
    weight_filler {
      type: "xavier"
      std: 0.03
    }
    bias_filler {
      type: "constant"
      value: 0.2
    }
  }
}
layer {
  name: "inception_4d/relu_5x5"
  type: "ReLU"
  bottom: "inception_4d/5x5"
  top: "inception_4d/5x5"
}
layer {
  name: "inception_4d/pool"
  type: "Pooling"
  bottom: "inception_4c/output"
  top: "inception_4d/pool"
  pooling_param {
    pool: MAX
    kernel_size: 3
    stride: 1
    pad: 1
  }
}
layer {
  name: "inception_4d/pool_proj"
  type: "Convolution"
  bottom: "inception_4d/pool"
  top: "inception_4d/pool_proj"
  param {
    lr_mult: 1
    decay_mult: 1
  }
  param {
    lr_mult: 2
    decay_mult: 0
  }
  convolution_param {
    num_output: 64
    kernel_size: 1
    weight_filler {
      type: "xavier"
      std: 0.1
    }
    bias_filler {
      type: "constant"
      value: 0.2
    }
  }
}
layer {
  name: "inception_4d/relu_pool_proj"
  type: "ReLU"
  bottom: "inception_4d/pool_proj"
  top: "inception_4d/pool_proj"
}
layer {
  name: "inception_4d/output"
  type: "Concat"
  bottom: "inception_4d/1x1"
  bottom: "inception_4d/3x3"
  bottom: "inception_4d/5x5"
  bottom: "inception_4d/pool_proj"
  top: "inception_4d/output"
}
layer {
  name: "loss2/ave_pool"
  type: "Pooling"
  bottom: "inception_4d/output"
  top: "loss2/ave_pool"
  pooling_param {
    pool: AVE
    kernel_size: 5
    stride: 3
  }
}
layer {
  name: "loss2/conv"
  type: "Convolution"
  bottom: "loss2/ave_pool"
  top: "loss2/conv"
  param {
    lr_mult: 1
    decay_mult: 1
  }
  param {
    lr_mult: 2
    decay_mult: 0
  }
  convolution_param {
    num_output: 128
    kernel_size: 1
    weight_filler {
      type: "xavier"
      std: 0.08
    }
    bias_filler {
      type: "constant"
      value: 0.2
    }
  }
}
layer {
  name: "loss2/relu_conv"
  type: "ReLU"
  bottom: "loss2/conv"
  top: "loss2/conv"
}
layer {
  name: "loss2/fc"
  type: "InnerProduct"
…
I0510 23:35:27.882514 20050 net.cpp:112] Top shape: 32 128 14 14 (802816)
I0510 23:35:27.882529 20050 layer_factory.hpp:74] Creating layer inception_4c/relu_1x1
I0510 23:35:27.882537 20050 net.cpp:76] Creating Layer inception_4c/relu_1x1
I0510 23:35:27.882544 20050 net.cpp:372] inception_4c/relu_1x1 <- inception_4c/1x1
I0510 23:35:27.882551 20050 net.cpp:323] inception_4c/relu_1x1 -> inception_4c/1x1 (in-place)
I0510 23:35:27.882562 20050 net.cpp:105] Setting up inception_4c/relu_1x1
I0510 23:35:27.882568 20050 net.cpp:112] Top shape: 32 128 14 14 (802816)
I0510 23:35:27.882586 20050 layer_factory.hpp:74] Creating layer inception_4c/3x3_reduce
I0510 23:35:27.882596 20050 net.cpp:76] Creating Layer inception_4c/3x3_reduce
I0510 23:35:27.882601 20050 net.cpp:372] inception_4c/3x3_reduce <- inception_4b/output_inception_4b/output_0_split_1
I0510 23:35:27.882612 20050 net.cpp:334] inception_4c/3x3_reduce -> inception_4c/3x3_reduce
I0510 23:35:27.882622 20050 net.cpp:105] Setting up inception_4c/3x3_reduce
I0510 23:35:27.883188 20050 net.cpp:112] Top shape: 32 128 14 14 (802816)
I0510 23:35:27.883203 20050 layer_factory.hpp:74] Creating layer inception_4c/relu_3x3_reduce
I0510 23:35:27.883210 20050 net.cpp:76] Creating Layer inception_4c/relu_3x3_reduce
I0510 23:35:27.883215 20050 net.cpp:372] inception_4c/relu_3x3_reduce <- inception_4c/3x3_reduce
I0510 23:35:27.883222 20050 net.cpp:323] inception_4c/relu_3x3_reduce -> inception_4c/3x3_reduce (in-place)
I0510 23:35:27.883230 20050 net.cpp:105] Setting up inception_4c/relu_3x3_reduce
I0510 23:35:27.883235 20050 net.cpp:112] Top shape: 32 128 14 14 (802816)
I0510 23:35:27.883240 20050 layer_factory.hpp:74] Creating layer inception_4c/3x3
I0510 23:35:27.883251 20050 net.cpp:76] Creating Layer inception_4c/3x3
I0510 23:35:27.883257 20050 net.cpp:372] inception_4c/3x3 <- inception_4c/3x3_reduce
I0510 23:35:27.883267 20050 net.cpp:334] inception_4c/3x3 -> inception_4c/3x3
I0510 23:35:27.883288 20050 net.cpp:105] Setting up inception_4c/3x3
I0510 23:35:27.885766 20050 net.cpp:112] Top shape: 32 256 14 14 (1605632)
I0510 23:35:27.885795 20050 layer_factory.hpp:74] Creating layer inception_4c/relu_3x3
I0510 23:35:27.885805 20050 net.cpp:76] Creating Layer inception_4c/relu_3x3
I0510 23:35:27.887419 20050 net.cpp:372] inception_4c/relu_3x3 <- inception_4c/3x3
I0510 23:35:27.887439 20050 net.cpp:323] inception_4c/relu_3x3 -> inception_4c/3x3 (in-place)
I0510 23:35:27.887454 20050 net.cpp:105] Setting up inception_4c/relu_3x3
I0510 23:35:27.887464 20050 net.cpp:112] Top shape: 32 256 14 14 (1605632)
I0510 23:35:27.887473 20050 layer_factory.hpp:74] Creating layer inception_4c/5x5_reduce
I0510 23:35:27.887495 20050 net.cpp:76] Creating Layer inception_4c/5x5_reduce
I0510 23:35:27.887506 20050 net.cpp:372] inception_4c/5x5_reduce <- inception_4b/output_inception_4b/output_0_split_2
I0510 23:35:27.887522 20050 net.cpp:334] inception_4c/5x5_reduce -> inception_4c/5x5_reduce
I0510 23:35:27.887539 20050 net.cpp:105] Setting up inception_4c/5x5_reduce
I0510 23:35:27.887708 20050 net.cpp:112] Top shape: 32 24 14 14 (150528)
I0510 23:35:27.887728 20050 layer_factory.hpp:74] Creating layer inception_4c/relu_5x5_reduce
I0510 23:35:27.887742 20050 net.cpp:76] Creating Layer inception_4c/relu_5x5_reduce
I0510 23:35:27.887753 20050 net.cpp:372] inception_4c/relu_5x5_reduce <- inception_4c/5x5_reduce
I0510 23:35:27.887768 20050 net.cpp:323] inception_4c/relu_5x5_reduce -> inception_4c/5x5_reduce (in-place)
I0510 23:35:27.887783 20050 net.cpp:105] Setting up inception_4c/relu_5x5_reduce
I0510 23:35:27.887792 20050 net.cpp:112] Top shape: 32 24 14 14 (150528)
I0510 23:35:27.887802 20050 layer_factory.hpp:74] Creating layer inception_4c/5x5
I0510 23:35:27.887816 20050 net.cpp:76] Creating Layer inception_4c/5x5
I0510 23:35:27.887826 20050 net.cpp:372] inception_4c/5x5 <- inception_4c/5x5_reduce
I0510 23:35:27.887843 20050 net.cpp:334] inception_4c/5x5 -> inception_4c/5x5
I0510 23:35:27.887859 20050 net.cpp:105] Setting up inception_4c/5x5
I0510 23:35:27.888366 20050 net.cpp:112] Top shape: 32 64 14 14 (401408)
I0510 23:35:27.888387 20050 layer_factory.hpp:74] Creating layer inception_4c/relu_5x5
I0510 23:35:27.888401 20050 net.cpp:76] Creating Layer inception_4c/relu_5x5
I0510 23:35:27.888411 20050 net.cpp:372] inception_4c/relu_5x5 <- inception_4c/5x5
I0510 23:35:27.888422 20050 net.cpp:323] inception_4c/relu_5x5 -> inception_4c/5x5 (in-place)
I0510 23:35:27.888435 20050 net.cpp:105] Setting up inception_4c/relu_5x5
I0510 23:35:27.888447 20050 net.cpp:112] Top shape: 32 64 14 14 (401408)
I0510 23:35:27.888458 20050 layer_factory.hpp:74] Creating layer inception_4c/pool
I0510 23:35:27.888501 20050 net.cpp:76] Creating Layer inception_4c/pool
I0510 23:35:27.888512 20050 net.cpp:372] inception_4c/pool <- inception_4b/output_inception_4b/output_0_split_3
I0510 23:35:27.888527 20050 net.cpp:334] inception_4c/pool -> inception_4c/pool
I0510 23:35:27.888541 20050 net.cpp:105] Setting up inception_4c/pool
I0510 23:35:27.888555 20050 net.cpp:112] Top shape: 32 512 14 14 (3211264)
I0510 23:35:27.888564 20050 layer_factory.hpp:74] Creating layer inception_4c/pool_proj
I0510 23:35:27.888583 20050 net.cpp:76] Creating Layer inception_4c/pool_proj
I0510 23:35:27.888594 20050 net.cpp:372] inception_4c/pool_proj <- inception_4c/pool
I0510 23:35:27.888607 20050 net.cpp:334] inception_4c/pool_proj -> inception_4c/pool_proj
I0510 23:35:27.888623 20050 net.cpp:105] Setting up inception_4c/pool_proj
I0510 23:35:27.889042 20050 net.cpp:112] Top shape: 32 64 14 14 (401408)
I0510 23:35:27.889062 20050 layer_factory.hpp:74] Creating layer inception_4c/relu_pool_proj
I0510 23:35:27.889075 20050 net.cpp:76] Creating Layer inception_4c/relu_pool_proj
I0510 23:35:27.889086 20050 net.cpp:372] inception_4c/relu_pool_proj <- inception_4c/pool_proj
I0510 23:35:27.889101 20050 net.cpp:323] inception_4c/relu_pool_proj -> inception_4c/pool_proj (in-place)
I0510 23:35:27.889114 20050 net.cpp:105] Setting up inception_4c/relu_pool_proj
I0510 23:35:27.889124 20050 net.cpp:112] Top shape: 32 64 14 14 (401408)
I0510 23:35:27.889134 20050 layer_factory.hpp:74] Creating layer inception_4c/output
I0510 23:35:27.889147 20050 net.cpp:76] Creating Layer inception_4c/output
I0510 23:35:27.889156 20050 net.cpp:372] inception_4c/output <- inception_4c/1x1
I0510 23:35:27.889168 20050 net.cpp:372] inception_4c/output <- inception_4c/3x3
I0510 23:35:27.889178 20050 net.cpp:372] inception_4c/output <- inception_4c/5x5
I0510 23:35:27.889348 20050 net.cpp:372] inception_4c/output <- inception_4c/pool_proj
I0510 23:35:27.889360 20050 net.cpp:334] inception_4c/output -> inception_4c/output
I0510 23:35:27.889370 20050 net.cpp:105] Setting up inception_4c/output
I0510 23:35:27.889377 20050 net.cpp:112] Top shape: 32 512 14 14 (3211264)
I0510 23:35:27.889382 20050 layer_factory.hpp:74] Creating layer inception_4c/output_inception_4c/output_0_split
I0510 23:35:27.889390 20050 net.cpp:76] Creating Layer inception_4c/output_inception_4c/output_0_split
I0510 23:35:27.889396 20050 net.cpp:372] inception_4c/output_inception_4c/output_0_split <- inception_4c/output
I0510 23:35:27.889407 20050 net.cpp:334] inception_4c/output_inception_4c/output_0_split -> inception_4c/output_inception_4c/output_0_split_0
I0510 23:35:27.889417 20050 net.cpp:334] inception_4c/output_inception_4c/output_0_split -> inception_4c/output_inception_4c/output_0_split_1
I0510 23:35:27.889426 20050 net.cpp:334] inception_4c/output_inception_4c/output_0_split -> inception_4c/output_inception_4c/output_0_split_2
I0510 23:35:27.889436 20050 net.cpp:334] inception_4c/output_inception_4c/output_0_split -> inception_4c/output_inception_4c/output_0_split_3
I0510 23:35:27.889442 20050 net.cpp:105] Setting up inception_4c/output_inception_4c/output_0_split
I0510 23:35:27.889449 20050 net.cpp:112] Top shape: 32 512 14 14 (3211264)
I0510 23:35:27.889454 20050 net.cpp:112] Top shape: 32 512 14 14 (3211264)
I0510 23:35:27.889459 20050 net.cpp:112] Top shape: 32 512 14 14 (3211264)
I0510 23:35:27.889464 20050 net.cpp:112] Top shape: 32 512 14 14 (3211264)
I0510 23:35:27.889469 20050 layer_factory.hpp:74] Creating layer inception_4d/1x1
I0510 23:35:27.889480 20050 net.cpp:76] Creating Layer inception_4d/1x1
I0510 23:35:27.889487 20050 net.cpp:372] inception_4d/1x1 <- inception_4c/output_inception_4c/output_0_split_0
I0510 23:35:27.889494 20050 net.cpp:334] inception_4d/1x1 -> inception_4d/1x1
I0510 23:35:27.889503 20050 net.cpp:105] Setting up inception_4d/1x1
I0510 23:35:27.889997 20050 net.cpp:112] Top shape: 32 112 14 14 (702464)
I0510 23:35:27.890014 20050 layer_factory.hpp:74] Creating layer inception_4d/relu_1x1
I0510 23:35:27.890023 20050 net.cpp:76] Creating Layer inception_4d/relu_1x1
I0510 23:35:27.890049 20050 net.cpp:372] inception_4d/relu_1x1 <- inception_4d/1x1
I0510 23:35:27.890058 20050 net.cpp:323] inception_4d/relu_1x1 -> inception_4d/1x1 (in-place)
I0510 23:35:27.890065 20050 net.cpp:105] Setting up inception_4d/relu_1x1
I0510 23:35:27.890071 20050 net.cpp:112] Top shape: 32 112 14 14 (702464)
I0510 23:35:27.890076 20050 layer_factory.hpp:74] Creating layer inception_4d/3x3_reduce
I0510 23:35:27.890085 20050 net.cpp:76] Creating Layer inception_4d/3x3_reduce
I0510 23:35:27.890091 20050 net.cpp:372] inception_4d/3x3_reduce <- inception_4c/output_inception_4c/output_0_split_1
I0510 23:35:27.890101 20050 net.cpp:334] inception_4d/3x3_reduce -> inception_4d/3x3_reduce
I0510 23:35:27.890111 20050 net.cpp:105] Setting up inception_4d/3x3_reduce
I0510 23:35:27.890754 20050 net.cpp:112] Top shape: 32 144 14 14 (903168)
I0510 23:35:27.890769 20050 layer_factory.hpp:74] Creating layer inception_4d/relu_3x3_reduce
I0510 23:35:27.890777 20050 net.cpp:76] Creating Layer inception_4d/relu_3x3_reduce
I0510 23:35:27.890786 20050 net.cpp:372] inception_4d/relu_3x3_reduce <- inception_4d/3x3_reduce
I0510 23:35:27.890796 20050 net.cpp:323] inception_4d/relu_3x3_reduce -> inception_4d/3x3_reduce (in-place)
I0510 23:35:27.890805 20050 net.cpp:105] Setting up inception_4d/relu_3x3_reduce
I0510 23:35:27.890810 20050 net.cpp:112] Top shape: 32 144 14 14 (903168)
I0510 23:35:27.890815 20050 layer_factory.hpp:74] Creating layer inception_4d/3x3
I0510 23:35:27.890825 20050 net.cpp:76] Creating Layer inception_4d/3x3
I0510 23:35:27.890830 20050 net.cpp:372] inception_4d/3x3 <- inception_4d/3x3_reduce
I0510 23:35:27.890841 20050 net.cpp:334] inception_4d/3x3 -> inception_4d/3x3
I0510 23:35:27.890849 20050 net.cpp:105] Setting up inception_4d/3x3
I0510 23:35:27.894008 20050 net.cpp:112] Top shape: 32 288 14 14 (1806336)
I0510 23:35:27.894031 20050 layer_factory.hpp:74] Creating layer inception_4d/relu_3x3
I0510 23:35:27.894040 20050 net.cpp:76] Creating Layer inception_4d/relu_3x3
I0510 23:35:27.894047 20050 net.cpp:372] inception_4d/relu_3x3 <- inception_4d/3x3
I0510 23:35:27.894057 20050 net.cpp:323] inception_4d/relu_3x3 -> inception_4d/3x3 (in-place)
I0510 23:35:27.894067 20050 net.cpp:105] Setting up inception_4d/relu_3x3
I0510 23:35:27.894071 20050 net.cpp:112] Top shape: 32 288 14 14 (1806336)
I0510 23:35:27.894076 20050 layer_factory.hpp:74] Creating layer inception_4d/5x5_reduce
I0510 23:35:27.894085 20050 net.cpp:76] Creating Layer inception_4d/5x5_reduce
I0510 23:35:27.894091 20050 net.cpp:372] inception_4d/5x5_reduce <- inception_4c/output_inception_4c/output_0_split_2
I0510 23:35:27.894103 20050 net.cpp:334] inception_4d/5x5_reduce -> inception_4d/5x5_reduce
I0510 23:35:27.894112 20050 net.cpp:105] Setting up inception_4d/5x5_reduce
I0510 23:35:27.894260 20050 net.cpp:112] Top shape: 32 32 14 14 (200704)
I0510 23:35:27.894285 20050 layer_factory.hpp:74] Creating layer inception_4d/relu_5x5_reduce
I0510 23:35:27.894299 20050 net.cpp:76] Creating Layer inception_4d/relu_5x5_reduce
I0510 23:35:27.894304 20050 net.cpp:372] inception_4d/relu_5x5_reduce <- inception_4d/5x5_reduce
I0510 23:35:27.894312 20050 net.cpp:323] inception_4d/relu_5x5_reduce -> inception_4d/5x5_reduce (in-place)
I0510 23:35:27.894320 20050 net.cpp:105] Setting up inception_4d/relu_5x5_reduce
I0510 23:35:27.894325 20050 net.cpp:112] Top shape: 32 32 14 14 (200704)
I0510 23:35:27.894331 20050 layer_factory.hpp:74] Creating layer inception_4d/5x5
I0510 23:35:27.894341 20050 net.cpp:76] Creating Layer inception_4d/5x5
I0510 23:35:27.894347 20050 net.cpp:372] inception_4d/5x5 <- inception_4d/5x5_reduce
I0510 23:35:27.894356 20050 net.cpp:334] inception_4d/5x5 -> inception_4d/5x5
I0510 23:35:27.894364 20050 net.cpp:105] Setting up inception_4d/5x5
I0510 23:35:27.894805 20050 net.cpp:112] Top shape: 32 64 14 14 (401408)
I0510 23:35:27.894819 20050 layer_factory.hpp:74] Creating layer inception_4d/relu_5x5
I0510 23:35:27.894826 20050 net.cpp:76] Creating Layer inception_4d/relu_5x5
I0510 23:35:27.894832 20050 net.cpp:372] inception_4d/relu_5x5 <- inception_4d/5x5
I0510 23:35:27.894863 20050 net.cpp:323] inception_4d/relu_5x5 -> inception_4d/5x5 (in-place)
I0510 23:35:27.894872 20050 net.cpp:105] Setting up inception_4d/relu_5x5
I0510 23:35:27.894878 20050 net.cpp:112] Top shape: 32 64 14 14 (401408)
I0510 23:35:27.894883 20050 layer_factory.hpp:74] Creating layer inception_4d/pool
I0510 23:35:27.894892 20050 net.cpp:76] Creating Layer inception_4d/pool
I0510 23:35:27.894897 20050 net.cpp:372] inception_4d/pool <- inception_4c/output_inception_4c/output_0_split_3
I0510 23:35:27.894906 20050 net.cpp:334] inception_4d/pool -> inception_4d/pool
I0510 23:35:27.894914 20050 net.cpp:105] Setting up inception_4d/pool
I0510 23:35:27.894922 20050 net.cpp:112] Top shape: 32 512 14 14 (3211264)
I0510 23:35:27.894927 20050 layer_factory.hpp:74] Creating layer inception_4d/pool_proj
I0510 23:35:27.894939 20050 net.cpp:76] Creating Layer inception_4d/pool_proj
I0510 23:35:27.894945 20050 net.cpp:372] inception_4d/pool_proj <- inception_4d/pool
I0510 23:35:27.894953 20050 net.cpp:334] inception_4d/pool_proj -> inception_4d/pool_proj
I0510 23:35:27.894963 20050 net.cpp:105] Setting up inception_4d/pool_proj
I0510 23:35:27.895254 20050 net.cpp:112] Top shape: 32 64 14 14 (401408)
I0510 23:35:27.895267 20050 layer_factory.hpp:74] Creating layer inception_4d/relu_pool_proj
I0510 23:35:27.895288 20050 net.cpp:76] Creating Layer inception_4d/relu_pool_proj
I0510 23:35:27.895294 20050 net.cpp:372] inception_4d/relu_pool_proj <- inception_4d/pool_proj
I0510 23:35:27.895304 20050 net.cpp:323] inception_4d/relu_pool_proj -> inception_4d/pool_proj (in-place)
I0510 23:35:27.895313 20050 net.cpp:105] Setting up inception_4d/relu_pool_proj
I0510 23:35:27.896078 20050 net.cpp:112] Top shape: 32 64 14 14 (401408)
I0510 23:35:27.896092 20050 layer_factory.hpp:74] Creating layer inception_4d/output
I0510 23:35:27.896106 20050 net.cpp:76] Creating Layer inception_4d/output
I0510 23:35:27.896116 20050 net.cpp:372] inception_4d/output <- inception_4d/1x1
I0510 23:35:27.896127 20050 net.cpp:372] inception_4d/output <- inception_4d/3x3
I0510 23:35:27.896138 20050 net.cpp:372] inception_4d/output <- inception_4d/5x5
I0510 23:35:27.896149 20050 net.cpp:372] inception_4d/output <- inception_4d/pool_proj
I0510 23:35:27.896162 20050 net.cpp:334] inception_4d/output -> inception_4d/output
I0510 23:35:27.896181 20050 net.cpp:105] Setting up inception_4d/output
I0510 23:35:27.896193 20050 net.cpp:112] Top shape: 32 528 14 14 (3311616)
I0510 23:35:27.896203 20050 layer_factory.hpp:74] Creating layer inception_4d/output_inception_4d/output_0_split
I0510 23:35:27.896216 20050 net.cpp:76] Creating Layer inception_4d/output_inception_4d/output_0_split
I0510 23:35:27.896225 20050 net.cpp:372] inception_4d/output_inception_4d/output_0_split <- inception_4d/output
I0510 23:35:27.896239 20050 net.cpp:334] inception_4d/output_inception_4d/output_0_split -> inception_4d/output_inception_4d/output_0_split_0
I0510 23:35:27.896255 20050 net.cpp:334] inception_4d/output_inception_4d/output_0_split -> inception_4d/output_inception_4d/output_0_split_1
I0510 23:35:27.896286 20050 net.cpp:334] inception_4d/output_inception_4d/output_0_split -> inception_4d/output_inception_4d/output_0_split_2
I0510 23:35:27.896306 20050 net.cpp:334] inception_4d/output_inception_4d/output_0_split -> inception_4d/output_inception_4d/output_0_split_3
I0510 23:35:27.896322 20050 net.cpp:334] inception_4d/output_inception_4d/output_0_split -> inception_4d/output_inception_4d/output_0_split_4
I0510 23:35:27.896337 20050 net.cpp:105] Setting up inception_4d/output_inception_4d/output_0_split
I0510 23:35:27.896353 20050 net.cpp:112] Top shape: 32 528 14 14 (3311616)
I0510 23:35:27.896363 20050 net.cpp:112] Top shape: 32 528 14 14 (3311616)
I0510 23:35:27.896371 20050 net.cpp:112] Top shape: 32 528 14 14 (3311616)
I0510 23:35:27.896379 20050 net.cpp:112] Top shape: 32 528 14 14 (3311616)
I0510 23:35:27.896388 20050 net.cpp:112] Top shape: 32 528 14 14 (3311616)
I0510 23:35:27.896397 20050 layer_factory.hpp:74] Creating layer loss2/ave_pool
I0510 23:35:27.896432 20050 net.cpp:76] Creating Layer loss2/ave_pool
I0510 23:35:27.896443 20050 net.cpp:372] loss2/ave_pool <- inception_4d/output_inception_4d/output_0_split_0
I0510 23:35:27.896463 20050 net.cpp:334] loss2/ave_pool -> loss2/ave_pool
I0510 23:35:27.896477 20050 net.cpp:105] Setting up loss2/ave_pool
I0510 23:35:27.896488 20050 net.cpp:112] Top shape: 32 528 4 4 (270336)
I0510 23:35:27.896498 20050 layer_factory.hpp:74] Creating layer loss2/conv
I0510 23:35:27.896514 20050 net.cpp:76] Creating Layer loss2/conv
I0510 23:35:27.896523 20050 net.cpp:372] loss2/conv <- loss2/ave_pool
I0510 23:35:27.896540 20050 net.cpp:334] loss2/conv -> loss2/conv
I0510 23:35:27.896558 20050 net.cpp:105] Setting up loss2/conv
I0510 23:35:27.897403 20050 net.cpp:112] Top shape: 32 128 4 4 (65536)
I0510 23:35:27.897424 20050 layer_factory.hpp:74] Creating layer loss2/relu_conv
I0510 23:35:27.897439 20050 net.cpp:76] Creating Layer loss2/relu_conv
I0510 23:35:27.897449 20050 net.cpp:372] loss2/relu_conv <- loss2/conv
I0510 23:35:27.897461 20050 net.cpp:323] loss2/relu_conv -> loss2/conv (in-place)
I0510 23:35:27.897474 20050 net.cpp:105] Setting up loss2/relu_conv
I0510 23:35:27.897482 20050 net.cpp:112] Top shape: 32 128 4 4 (65536)
I0510 23:35:27.897491 20050 layer_factory.hpp:74] Creating layer loss2/fc
I0510 23:35:27.897505 20050 net.cpp:76] Creating Layer loss2/fc
I0510 23:35:27.897665 20050 net.cpp:372] loss2/fc <- loss2/conv
I0510 23:35:27.897680 20050 net.cpp:334] loss2/fc -> loss2/fc
I0510 23:35:27.897693 20050 net.cpp:105] Setting up loss2/fc
I0510 23:35:27.914989 20050 net.cpp:112] Top shape: 32 1024 1 1 (32768)
I0510 23:35:27.915030 20050 layer_factory.hpp:74] Creating layer loss2/relu_fc
I0510 23:35:27.915042 20050 net.cpp:76] Creating Layer loss2/relu_fc
I0510 23:35:27.915051 20050 net.cpp:372] loss2/relu_fc <- loss2/fc
I0510 23:35:27.915063 20050 net.cpp:323] loss2/relu_fc -> loss2/fc (in-place)
I0510 23:35:27.915073 20050 net.cpp:105] Setting up loss2/relu_fc
I0510 23:35:27.915079 20050 net.cpp:112] Top shape: 32 1024 1 1 (32768)
I0510 23:35:27.915086 20050 layer_factory.hpp:74] Creating layer loss2/drop_fc
I0510 23:35:27.915094 20050 net.cpp:76] Creating Layer loss2/drop_fc
I0510 23:35:27.915099 20050 net.cpp:372] loss2/drop_fc <- loss2/fc
I0510 23:35:27.915107 20050 net.cpp:323] loss2/drop_fc -> loss2/fc (in-place)
I0510 23:35:27.915113 20050 net.cpp:105] Setting up loss2/drop_fc
I0510 23:35:27.915120 20050 net.cpp:112] Top shape: 32 1024 1 1 (32768)
I0510 23:35:27.915125 20050 layer_factory.hpp:74] Creating layer loss2/classifier
I0510 23:35:27.915140 20050 net.cpp:76] Creating Layer loss2/classifier
I0510 23:35:27.915146 20050 net.cpp:372] loss2/classifier <- loss2/fc
I0510 23:35:27.915154 20050 net.cpp:334] loss2/classifier -> loss2/classifier
I0510 23:35:27.915165 20050 net.cpp:105] Setting up loss2/classifier
I0510 23:35:27.915199 20050 net.cpp:112] Top shape: 32 2 1 1 (64)
I0510 23:35:27.915210 20050 layer_factory.hpp:74] Creating layer loss2/classifier_loss2/classifier_0_split
I0510 23:35:27.915217 20050 net.cpp:76] Creating Layer loss2/classifier_loss2/classifier_0_split
I0510 23:35:27.915223 20050 net.cpp:372] loss2/classifier_loss2/classifier_0_split <- loss2/classifier
I0510 23:35:27.915230 20050 net.cpp:334] loss2/classifier_loss2/classifier_0_split -> loss2/classifier_loss2/classifier_0_split_0
I0510 23:35:27.915241 20050 net.cpp:334] loss2/classifier_loss2/classifier_0_split -> loss2/classifier_loss2/classifier_0_split_1
I0510 23:35:27.915248 20050 net.cpp:105] Setting up loss2/classifier_loss2/classifier_0_split
I0510 23:35:27.915256 20050 net.cpp:112] Top shape: 32 2 1 1 (64)
I0510 23:35:27.915261 20050 net.cpp:112] Top shape: 32 2 1 1 (64)
I0510 23:35:27.915266 20050 layer_factory.hpp:74] Creating layer loss2/loss
I0510 23:35:27.915312 20050 net.cpp:76] Creating Layer loss2/loss
I0510 23:35:27.915321 20050 net.cpp:372] loss2/loss <- loss2/classifier_loss2/classifier_0_split_0
I0510 23:35:27.915328 20050 net.cpp:372] loss2/loss <- label_data_1_split_2
I0510 23:35:27.915338 20050 net.cpp:334] loss2/loss -> loss2/loss1
I0510 23:35:27.915379 20050 net.cpp:105] Setting up loss2/loss
I0510 23:35:27.915387 20050 layer_factory.hpp:74] Creating layer loss2/loss
I0510 23:35:27.915403 20050 net.cpp:112] Top shape: 1 1 1 1 (1)
I0510 23:35:27.915410 20050 net.cpp:118]     with loss weight 0.3
I0510 23:35:27.915426 20050 layer_factory.hpp:74] Creating layer loss2/top-1
I0510 23:35:27.915436 20050 net.cpp:76] Creating Layer loss2/top-1
I0510 23:35:27.915441 20050 net.cpp:372] loss2/top-1 <- loss2/classifier_loss2/classifier_0_split_1
I0510 23:35:27.915447 20050 net.cpp:372] loss2/top-1 <- label_data_1_split_3
I0510 23:35:27.915457 20050 net.cpp:334] loss2/top-1 -> loss2/top-1
I0510 23:35:27.915467 20050 net.cpp:105] Setting up loss2/top-1
I0510 23:35:27.915477 20050 net.cpp:112] Top shape: 1 1 1 1 (1)
I0510 23:35:27.915482 20050 layer_factory.hpp:74] Creating layer inception_4e/1x1
I0510 23:35:27.915493 20050 net.cpp:76] Creating Layer inception_4e/1x1
I0510 23:35:27.915500 20050 net.cpp:372] inception_4e/1x1 <- inception_4d/output_inception_4d/output_0_split_1
I0510 23:35:27.915509 20050 net.cpp:334] inception_4e/1x1 -> inception_4e/1x1
I0510 23:35:27.915518 20050 net.cpp:105] Setting up inception_4e/1x1
I0510 23:35:27.916733 20050 net.cpp:112] Top shape: 32 256 14 14 (1605632)
I0510 23:35:27.916756 20050 layer_factory.hpp:74] Creating layer inception_4e/relu_1x1
I0510 23:35:27.916769 20050 net.cpp:76] Creating Layer inception_4e/relu_1x1
I0510 23:35:27.916776 20050 net.cpp:372] inception_4e/relu_1x1 <- inception_4e/1x1
I0510 23:35:27.916784 20050 net.cpp:323] inception_4e/relu_1x1 -> inception_4e/1x1 (in-place)
I0510 23:35:27.916792 20050 net.cpp:105] Setting up inception_4e/relu_1x1
I0510 23:35:27.916798 20050 net.cpp:112] Top shape: 32 256 14 14 (1605632)
I0510 23:35:27.916805 20050 layer_factory.hpp:74] Creating layer inception_4e/3x3_reduce
I0510 23:35:27.916820 20050 net.cpp:76] Creating Layer inception_4e/3x3_reduce
I0510 23:35:27.916832 20050 net.cpp:372] inception_4e/3x3_reduce <- inception_4d/output_inception_4d/output_0_split_2
I0510 23:35:27.916854 20050 net.cpp:334] inception_4e/3x3_reduce -> inception_4e/3x3_reduce
I0510 23:35:27.916875 20050 net.cpp:105] Setting up inception_4e/3x3_reduce
I0510 23:35:27.917700 20050 net.cpp:112] Top shape: 32 160 14 14 (1003520)
I0510 23:35:27.917716 20050 layer_factory.hpp:74] Creating layer inception_4e/relu_3x3_reduce
I0510 23:35:27.917726 20050 net.cpp:76] Creating Layer inception_4e/relu_3x3_reduce
I0510 23:35:27.917732 20050 net.cpp:372] inception_4e/relu_3x3_reduce <- inception_4e/3x3_reduce
I0510 23:35:27.917742 20050 net.cpp:323] inception_4e/relu_3x3_reduce -> inception_4e/3x3_reduce (in-place)
I0510 23:35:27.917750 20050 net.cpp:105] Setting up inception_4e/relu_3x3_reduce
I0510 23:35:27.917757 20050 net.cpp:112] Top shape: 32 160 14 14 (1003520)
I0510 23:35:27.917762 20050 layer_factory.hpp:74] Creating layer inception_4e/3x3
I0510 23:35:27.917793 20050 net.cpp:76] Creating Layer inception_4e/3x3
I0510 23:35:27.917799 20050 net.cpp:372] inception_4e/3x3 <- inception_4e/3x3_reduce
I0510 23:35:27.917809 20050 net.cpp:334] inception_4e/3x3 -> inception_4e/3x3
I0510 23:35:27.917817 20050 net.cpp:105] Setting up inception_4e/3x3
I0510 23:35:27.921757 20050 net.cpp:112] Top shape: 32 320 14 14 (2007040)
I0510 23:35:27.921789 20050 layer_factory.hpp:74] Creating layer inception_4e/relu_3x3
I0510 23:35:27.921800 20050 net.cpp:76] Creating Layer inception_4e/relu_3x3
I0510 23:35:27.921808 20050 net.cpp:372] inception_4e/relu_3x3 <- inception_4e/3x3
I0510 23:35:27.921818 20050 net.cpp:323] inception_4e/relu_3x3 -> inception_4e/3x3 (in-place)
I0510 23:35:27.921826 20050 net.cpp:105] Setting up inception_4e/relu_3x3
I0510 23:35:27.921833 20050 net.cpp:112] Top shape: 32 320 14 14 (2007040)
I0510 23:35:27.921838 20050 layer_factory.hpp:74] Creating layer inception_4e/5x5_reduce
I0510 23:35:27.921847 20050 net.cpp:76] Creating Layer inception_4e/5x5_reduce
I0510 23:35:27.921854 20050 net.cpp:372] inception_4e/5x5_reduce <- inception_4d/output_inception_4d/output_0_split_3
I0510 23:35:27.921895 20050 net.cpp:334] inception_4e/5x5_reduce -> inception_4e/5x5_reduce
I0510 23:35:27.921907 20050 net.cpp:105] Setting up inception_4e/5x5_reduce
I0510 23:35:27.922062 20050 net.cpp:112] Top shape: 32 32 14 14 (200704)
I0510 23:35:27.922073 20050 layer_factory.hpp:74] Creating layer inception_4e/relu_5x5_reduce
I0510 23:35:27.922081 20050 net.cpp:76] Creating Layer inception_4e/relu_5x5_reduce
I0510 23:35:27.922087 20050 net.cpp:372] inception_4e/relu_5x5_reduce <- inception_4e/5x5_reduce
I0510 23:35:27.922094 20050 net.cpp:323] inception_4e/relu_5x5_reduce -> inception_4e/5x5_reduce (in-place)
I0510 23:35:27.922102 20050 net.cpp:105] Setting up inception_4e/relu_5x5_reduce
I0510 23:35:27.922108 20050 net.cpp:112] Top shape: 32 32 14 14 (200704)
I0510 23:35:27.922113 20050 layer_factory.hpp:74] Creating layer inception_4e/5x5
I0510 23:35:27.922124 20050 net.cpp:76] Creating Layer inception_4e/5x5
I0510 23:35:27.922130 20050 net.cpp:372] inception_4e/5x5 <- inception_4e/5x5_reduce
I0510 23:35:27.922138 20050 net.cpp:334] inception_4e/5x5 -> inception_4e/5x5
I0510 23:35:27.922147 20050 net.cpp:105] Setting up inception_4e/5x5
I0510 23:35:27.923029 20050 net.cpp:112] Top shape: 32 128 14 14 (802816)
I0510 23:35:27.923046 20050 layer_factory.hpp:74] Creating layer inception_4e/relu_5x5
I0510 23:35:27.923054 20050 net.cpp:76] Creating Layer inception_4e/relu_5x5
I0510 23:35:27.923060 20050 net.cpp:372] inception_4e/relu_5x5 <- inception_4e/5x5
I0510 23:35:27.923068 20050 net.cpp:323] inception_4e/relu_5x5 -> inception_4e/5x5 (in-place)
I0510 23:35:27.923075 20050 net.cpp:105] Setting up inception_4e/relu_5x5
I0510 23:35:27.923080 20050 net.cpp:112] Top shape: 32 128 14 14 (802816)
I0510 23:35:27.923086 20050 layer_factory.hpp:74] Creating layer inception_4e/pool
I0510 23:35:27.923094 20050 net.cpp:76] Creating Layer inception_4e/pool
I0510 23:35:27.923100 20050 net.cpp:372] inception_4e/pool <- inception_4d/output_inception_4d/output_0_split_4
I0510 23:35:27.923110 20050 net.cpp:334] inception_4e/pool -> inception_4e/pool
I0510 23:35:27.923120 20050 net.cpp:105] Setting up inception_4e/pool
I0510 23:35:27.923128 20050 net.cpp:112] Top shape: 32 528 14 14 (3311616)
I0510 23:35:27.923135 20050 layer_factory.hpp:74] Creating layer inception_4e/pool_proj
I0510 23:35:27.923142 20050 net.cpp:76] Creating Layer inception_4e/pool_proj
I0510 23:35:27.923148 20050 net.cpp:372] inception_4e/pool_proj <- inception_4e/pool
I0510 23:35:27.923158 20050 net.cpp:334] inception_4e/pool_proj -> inception_4e/pool_proj
I0510 23:35:27.923167 20050 net.cpp:105] Setting up inception_4e/pool_proj
I0510 23:35:27.923760 20050 net.cpp:112] Top shape: 32 128 14 14 (802816)
I0510 23:35:27.923774 20050 layer_factory.hpp:74] Creating layer inception_4e/relu_pool_proj
I0510 23:35:27.923782 20050 net.cpp:76] Creating Layer inception_4e/relu_pool_proj
I0510 23:35:27.923789 20050 net.cpp:372] inception_4e/relu_pool_proj <- inception_4e/pool_proj
I0510 23:35:27.923796 20050 net.cpp:323] inception_4e/relu_pool_proj -> inception_4e/pool_proj (in-place)
I0510 23:35:27.923807 20050 net.cpp:105] Setting up inception_4e/relu_pool_proj
I0510 23:35:27.923813 20050 net.cpp:112] Top shape: 32 128 14 14 (802816)
I0510 23:35:27.923818 20050 layer_factory.hpp:74] Creating layer inception_4e/output
I0510 23:35:27.923826 20050 net.cpp:76] Creating Layer inception_4e/output
I0510 23:35:27.923833 20050 net.cpp:372] inception_4e/output <- inception_4e/1x1
I0510 23:35:27.923840 20050 net.cpp:372] inception_4e/output <- inception_4e/3x3
I0510 23:35:27.923846 20050 net.cpp:372] inception_4e/output <- inception_4e/5x5
I0510 23:35:27.923852 20050 net.cpp:372] inception_4e/output <- inception_4e/pool_proj
I0510 23:35:27.923859 20050 net.cpp:334] inception_4e/output -> inception_4e/output
I0510 23:35:27.923868 20050 net.cpp:105] Setting up inception_4e/output
I0510 23:35:27.923874 20050 net.cpp:112] Top shape: 32 832 14 14 (5218304)
I0510 23:35:27.923881 20050 layer_factory.hpp:74] Creating layer pool4/3x3_s2
I0510 23:35:27.923887 20050 net.cpp:76] Creating Layer pool4/3x3_s2
I0510 23:35:27.923929 20050 net.cpp:372] pool4/3x3_s2 <- inception_4e/output
I0510 23:35:27.923943 20050 net.cpp:334] pool4/3x3_s2 -> pool4/3x3_s2
I0510 23:35:27.923954 20050 net.cpp:105] Setting up pool4/3x3_s2
I0510 23:35:27.923961 20050 net.cpp:112] Top shape: 32 832 7 7 (1304576)
I0510 23:35:27.923967 20050 layer_factory.hpp:74] Creating layer pool4/3x3_s2_pool4/3x3_s2_0_split
I0510 23:35:27.923974 20050 net.cpp:76] Creating Layer pool4/3x3_s2_pool4/3x3_s2_0_split
I0510 23:35:27.923979 20050 net.cpp:372] pool4/3x3_s2_pool4/3x3_s2_0_split <- pool4/3x3_s2
I0510 23:35:27.923990 20050 net.cpp:334] pool4/3x3_s2_pool4/3x3_s2_0_split -> pool4/3x3_s2_pool4/3x3_s2_0_split_0
I0510 23:35:27.923998 20050 net.cpp:334] pool4/3x3_s2_pool4/3x3_s2_0_split -> pool4/3x3_s2_pool4/3x3_s2_0_split_1
I0510 23:35:27.924007 20050 net.cpp:334] pool4/3x3_s2_pool4/3x3_s2_0_split -> pool4/3x3_s2_pool4/3x3_s2_0_split_2
I0510 23:35:27.924015 20050 net.cpp:334] pool4/3x3_s2_pool4/3x3_s2_0_split -> pool4/3x3_s2_pool4/3x3_s2_0_split_3
I0510 23:35:27.924023 20050 net.cpp:105] Setting up pool4/3x3_s2_pool4/3x3_s2_0_split
I0510 23:35:27.924031 20050 net.cpp:112] Top shape: 32 832 7 7 (1304576)
I0510 23:35:27.924036 20050 net.cpp:112] Top shape: 32 832 7 7 (1304576)
I0510 23:35:27.924041 20050 net.cpp:112] Top shape: 32 832 7 7 (1304576)
I0510 23:35:27.924044 20050 net.cpp:112] Top shape: 32 832 7 7 (1304576)
I0510 23:35:27.924049 20050 layer_factory.hpp:74] Creating layer inception_5a/1x1
I0510 23:35:27.924058 20050 net.cpp:76] Creating Layer inception_5a/1x1
I0510 23:35:27.924064 20050 net.cpp:372] inception_5a/1x1 <- pool4/3x3_s2_pool4/3x3_s2_0_split_0
I0510 23:35:27.924074 20050 net.cpp:334] inception_5a/1x1 -> inception_5a/1x1
I0510 23:35:27.924084 20050 net.cpp:105] Setting up inception_5a/1x1
I0510 23:35:27.925885 20050 net.cpp:112] Top shape: 32 256 7 7 (401408)
I0510 23:35:27.925901 20050 layer_factory.hpp:74] Creating layer inception_5a/relu_1x1
I0510 23:35:27.925909 20050 net.cpp:76] Creating Layer inception_5a/relu_1x1
I0510 23:35:27.925915 20050 net.cpp:372] inception_5a/relu_1x1 <- inception_5a/1x1
I0510 23:35:27.925925 20050 net.cpp:323] inception_5a/relu_1x1 -> inception_5a/1x1 (in-place)
I0510 23:35:27.925932 20050 net.cpp:105] Setting up inception_5a/relu_1x1
I0510 23:35:27.925938 20050 net.cpp:112] Top shape: 32 256 7 7 (401408)
I0510 23:35:27.925943 20050 layer_factory.hpp:74] Creating layer inception_5a/3x3_reduce
I0510 23:35:27.925951 20050 net.cpp:76] Creating Layer inception_5a/3x3_reduce
I0510 23:35:27.927052 20050 net.cpp:372] inception_5a/3x3_reduce <- pool4/3x3_s2_pool4/3x3_s2_0_split_1
I0510 23:35:27.927084 20050 net.cpp:334] inception_5a/3x3_reduce -> inception_5a/3x3_reduce
I0510 23:35:27.927105 20050 net.cpp:105] Setting up inception_5a/3x3_reduce
I0510 23:35:27.928313 20050 net.cpp:112] Top shape: 32 160 7 7 (250880)
I0510 23:35:27.928339 20050 layer_factory.hpp:74] Creating layer inception_5a/relu_3x3_reduce
I0510 23:35:27.928359 20050 net.cpp:76] Creating Layer inception_5a/relu_3x3_reduce
I0510 23:35:27.928372 20050 net.cpp:372] inception_5a/relu_3x3_reduce <- inception_5a/3x3_reduce
I0510 23:35:27.928387 20050 net.cpp:323] inception_5a/relu_3x3_reduce -> inception_5a/3x3_reduce (in-place)
I0510 23:35:27.928402 20050 net.cpp:105] Setting up inception_5a/relu_3x3_reduce
I0510 23:35:27.928413 20050 net.cpp:112] Top shape: 32 160 7 7 (250880)
I0510 23:35:27.928424 20050 layer_factory.hpp:74] Creating layer inception_5a/3x3
I0510 23:35:27.928444 20050 net.cpp:76] Creating Layer inception_5a/3x3
I0510 23:35:27.928457 20050 net.cpp:372] inception_5a/3x3 <- inception_5a/3x3_reduce
I0510 23:35:27.928472 20050 net.cpp:334] inception_5a/3x3 -> inception_5a/3x3
I0510 23:35:27.928488 20050 net.cpp:105] Setting up inception_5a/3x3
I0510 23:35:27.932760 20050 net.cpp:112] Top shape: 32 320 7 7 (501760)
I0510 23:35:27.932790 20050 layer_factory.hpp:74] Creating layer inception_5a/relu_3x3
I0510 23:35:27.932803 20050 net.cpp:76] Creating Layer inception_5a/relu_3x3
I0510 23:35:27.932821 20050 net.cpp:372] inception_5a/relu_3x3 <- inception_5a/3x3
I0510 23:35:27.932871 20050 net.cpp:323] inception_5a/relu_3x3 -> inception_5a/3x3 (in-place)
I0510 23:35:27.932883 20050 net.cpp:105] Setting up inception_5a/relu_3x3
I0510 23:35:27.932890 20050 net.cpp:112] Top shape: 32 320 7 7 (501760)
I0510 23:35:27.932896 20050 layer_factory.hpp:74] Creating layer inception_5a/5x5_reduce
I0510 23:35:27.932906 20050 net.cpp:76] Creating Layer inception_5a/5x5_reduce
I0510 23:35:27.932912 20050 net.cpp:372] inception_5a/5x5_reduce <- pool4/3x3_s2_pool4/3x3_s2_0_split_2
I0510 23:35:27.932925 20050 net.cpp:334] inception_5a/5x5_reduce -> inception_5a/5x5_reduce
I0510 23:35:27.932936 20050 net.cpp:105] Setting up inception_5a/5x5_reduce
I0510 23:35:27.933192 20050 net.cpp:112] Top shape: 32 32 7 7 (50176)
I0510 23:35:27.933215 20050 layer_factory.hpp:74] Creating layer inception_5a/relu_5x5_reduce
I0510 23:35:27.933236 20050 net.cpp:76] Creating Layer inception_5a/relu_5x5_reduce
I0510 23:35:27.933245 20050 net.cpp:372] inception_5a/relu_5x5_reduce <- inception_5a/5x5_reduce
I0510 23:35:27.933254 20050 net.cpp:323] inception_5a/relu_5x5_reduce -> inception_5a/5x5_reduce (in-place)
I0510 23:35:27.933261 20050 net.cpp:105] Setting up inception_5a/relu_5x5_reduce
I0510 23:35:27.933267 20050 net.cpp:112] Top shape: 32 32 7 7 (50176)
I0510 23:35:27.933296 20050 layer_factory.hpp:74] Creating layer inception_5a/5x5
I0510 23:35:27.933315 20050 net.cpp:76] Creating Layer inception_5a/5x5
I0510 23:35:27.933331 20050 net.cpp:372] inception_5a/5x5 <- inception_5a/5x5_reduce
I0510 23:35:27.933353 20050 net.cpp:334] inception_5a/5x5 -> inception_5a/5x5
I0510 23:35:27.933374 20050 net.cpp:105] Setting up inception_5a/5x5
I0510 23:35:27.934398 20050 net.cpp:112] Top shape: 32 128 7 7 (200704)
I0510 23:35:27.934414 20050 layer_factory.hpp:74] Creating layer inception_5a/relu_5x5
I0510 23:35:27.934423 20050 net.cpp:76] Creating Layer inception_5a/relu_5x5
I0510 23:35:27.934430 20050 net.cpp:372] inception_5a/relu_5x5 <- inception_5a/5x5
I0510 23:35:27.934439 20050 net.cpp:323] inception_5a/relu_5x5 -> inception_5a/5x5 (in-place)
I0510 23:35:27.934454 20050 net.cpp:105] Setting up inception_5a/relu_5x5
I0510 23:35:27.934463 20050 net.cpp:112] Top shape: 32 128 7 7 (200704)
I0510 23:35:27.934469 20050 layer_factory.hpp:74] Creating layer inception_5a/pool
I0510 23:35:27.934479 20050 net.cpp:76] Creating Layer inception_5a/pool
I0510 23:35:27.934489 20050 net.cpp:372] inception_5a/pool <- pool4/3x3_s2_pool4/3x3_s2_0_split_3
I0510 23:35:27.934505 20050 net.cpp:334] inception_5a/pool -> inception_5a/pool
I0510 23:35:27.934537 20050 net.cpp:105] Setting up inception_5a/pool
I0510 23:35:27.934550 20050 net.cpp:112] Top shape: 32 832 7 7 (1304576)
I0510 23:35:27.934561 20050 layer_factory.hpp:74] Creating layer inception_5a/pool_proj
I0510 23:35:27.934576 20050 net.cpp:76] Creating Layer inception_5a/pool_proj
I0510 23:35:27.934587 20050 net.cpp:372] inception_5a/pool_proj <- inception_5a/pool
I0510 23:35:27.934602 20050 net.cpp:334] inception_5a/pool_proj -> inception_5a/pool_proj
I0510 23:35:27.934622 20050 net.cpp:105] Setting up inception_5a/pool_proj
I0510 23:35:27.935535 20050 net.cpp:112] Top shape: 32 128 7 7 (200704)
I0510 23:35:27.935549 20050 layer_factory.hpp:74] Creating layer inception_5a/relu_pool_proj
I0510 23:35:27.935564 20050 net.cpp:76] Creating Layer inception_5a/relu_pool_proj
I0510 23:35:27.935571 20050 net.cpp:372] inception_5a/relu_pool_proj <- inception_5a/pool_proj
I0510 23:35:27.935578 20050 net.cpp:323] inception_5a/relu_pool_proj -> inception_5a/pool_proj (in-place)
I0510 23:35:27.935586 20050 net.cpp:105] Setting up inception_5a/relu_pool_proj
I0510 23:35:27.935592 20050 net.cpp:112] Top shape: 32 128 7 7 (200704)
I0510 23:35:27.935597 20050 layer_factory.hpp:74] Creating layer inception_5a/output
I0510 23:35:27.935606 20050 net.cpp:76] Creating Layer inception_5a/output
I0510 23:35:27.935613 20050 net.cpp:372] inception_5a/output <- inception_5a/1x1
I0510 23:35:27.935621 20050 net.cpp:372] inception_5a/output <- inception_5a/3x3
I0510 23:35:27.935627 20050 net.cpp:372] inception_5a/output <- inception_5a/5x5
I0510 23:35:27.935652 20050 net.cpp:372] inception_5a/output <- inception_5a/pool_proj
I0510 23:35:27.935660 20050 net.cpp:334] inception_5a/output -> inception_5a/output
I0510 23:35:27.935669 20050 net.cpp:105] Setting up inception_5a/output
I0510 23:35:27.935678 20050 net.cpp:112] Top shape: 32 832 7 7 (1304576)
I0510 23:35:27.935684 20050 layer_factory.hpp:74] Creating layer inception_5a/output_inception_5a/output_0_split
I0510 23:35:27.935693 20050 net.cpp:76] Creating Layer inception_5a/output_inception_5a/output_0_split
I0510 23:35:27.935698 20050 net.cpp:372] inception_5a/output_inception_5a/output_0_split <- inception_5a/output
I0510 23:35:27.935706 20050 net.cpp:334] inception_5a/output_inception_5a/output_0_split -> inception_5a/output_inception_5a/output_0_split_0
I0510 23:35:27.935716 20050 net.cpp:334] inception_5a/output_inception_5a/output_0_split -> inception_5a/output_inception_5a/output_0_split_1
I0510 23:35:27.935725 20050 net.cpp:334] inception_5a/output_inception_5a/output_0_split -> inception_5a/output_inception_5a/output_0_split_2
I0510 23:35:27.935737 20050 net.cpp:334] inception_5a/output_inception_5a/output_0_split -> inception_5a/output_inception_5a/output_0_split_3
I0510 23:35:27.935771 20050 net.cpp:105] Setting up inception_5a/output_inception_5a/output_0_split
I0510 23:35:27.935781 20050 net.cpp:112] Top shape: 32 832 7 7 (1304576)
I0510 23:35:27.935786 20050 net.cpp:112] Top shape: 32 832 7 7 (1304576)
I0510 23:35:27.935791 20050 net.cpp:112] Top shape: 32 832 7 7 (1304576)
I0510 23:35:27.935796 20050 net.cpp:112] Top shape: 32 832 7 7 (1304576)
I0510 23:35:27.935801 20050 layer_factory.hpp:74] Creating layer inception_5b/1x1
I0510 23:35:27.935811 20050 net.cpp:76] Creating Layer inception_5b/1x1
I0510 23:35:27.935817 20050 net.cpp:372] inception_5b/1x1 <- inception_5a/output_inception_5a/output_0_split_0
I0510 23:35:27.935825 20050 net.cpp:334] inception_5b/1x1 -> inception_5b/1x1
I0510 23:35:27.935834 20050 net.cpp:105] Setting up inception_5b/1x1
I0510 23:35:27.938505 20050 net.cpp:112] Top shape: 32 384 7 7 (602112)
I0510 23:35:27.938523 20050 layer_factory.hpp:74] Creating layer inception_5b/relu_1x1
I0510 23:35:27.938534 20050 net.cpp:76] Creating Layer inception_5b/relu_1x1
I0510 23:35:27.938539 20050 net.cpp:372] inception_5b/relu_1x1 <- inception_5b/1x1
I0510 23:35:27.938547 20050 net.cpp:323] inception_5b/relu_1x1 -> inception_5b/1x1 (in-place)
I0510 23:35:27.938555 20050 net.cpp:105] Setting up inception_5b/relu_1x1
I0510 23:35:27.938560 20050 net.cpp:112] Top shape: 32 384 7 7 (602112)
I0510 23:35:27.938566 20050 layer_factory.hpp:74] Creating layer inception_5b/3x3_reduce
I0510 23:35:27.938575 20050 net.cpp:76] Creating Layer inception_5b/3x3_reduce
I0510 23:35:27.938585 20050 net.cpp:372] inception_5b/3x3_reduce <- inception_5a/output_inception_5a/output_0_split_1
I0510 23:35:27.938596 20050 net.cpp:334] inception_5b/3x3_reduce -> inception_5b/3x3_reduce
I0510 23:35:27.938606 20050 net.cpp:105] Setting up inception_5b/3x3_reduce
I0510 23:35:27.939959 20050 net.cpp:112] Top shape: 32 192 7 7 (301056)
I0510 23:35:27.939973 20050 layer_factory.hpp:74] Creating layer inception_5b/relu_3x3_reduce
I0510 23:35:27.939981 20050 net.cpp:76] Creating Layer inception_5b/relu_3x3_reduce
I0510 23:35:27.939987 20050 net.cpp:372] inception_5b/relu_3x3_reduce <- inception_5b/3x3_reduce
I0510 23:35:27.939995 20050 net.cpp:323] inception_5b/relu_3x3_reduce -> inception_5b/3x3_reduce (in-place)
I0510 23:35:27.940002 20050 net.cpp:105] Setting up inception_5b/relu_3x3_reduce
I0510 23:35:27.940008 20050 net.cpp:112] Top shape: 32 192 7 7 (301056)
I0510 23:35:27.940013 20050 layer_factory.hpp:74] Creating layer inception_5b/3x3
I0510 23:35:27.940024 20050 net.cpp:76] Creating Layer inception_5b/3x3
I0510 23:35:27.940031 20050 net.cpp:372] inception_5b/3x3 <- inception_5b/3x3_reduce
I0510 23:35:27.940038 20050 net.cpp:334] inception_5b/3x3 -> inception_5b/3x3
I0510 23:35:27.940047 20050 net.cpp:105] Setting up inception_5b/3x3
I0510 23:35:27.945616 20050 net.cpp:112] Top shape: 32 384 7 7 (602112)
I0510 23:35:27.945639 20050 layer_factory.hpp:74] Creating layer inception_5b/relu_3x3
I0510 23:35:27.945652 20050 net.cpp:76] Creating Layer inception_5b/relu_3x3
I0510 23:35:27.945660 20050 net.cpp:372] inception_5b/relu_3x3 <- inception_5b/3x3
I0510 23:35:27.945668 20050 net.cpp:323] inception_5b/relu_3x3 -> inception_5b/3x3 (in-place)
I0510 23:35:27.945677 20050 net.cpp:105] Setting up inception_5b/relu_3x3
I0510 23:35:27.945683 20050 net.cpp:112] Top shape: 32 384 7 7 (602112)
I0510 23:35:27.945688 20050 layer_factory.hpp:74] Creating layer inception_5b/5x5_reduce
I0510 23:35:27.945699 20050 net.cpp:76] Creating Layer inception_5b/5x5_reduce
I0510 23:35:27.945706 20050 net.cpp:372] inception_5b/5x5_reduce <- inception_5a/output_inception_5a/output_0_split_2
I0510 23:35:27.945715 20050 net.cpp:334] inception_5b/5x5_reduce -> inception_5b/5x5_reduce
I0510 23:35:27.945725 20050 net.cpp:105] Setting up inception_5b/5x5_reduce
I0510 23:35:27.946072 20050 net.cpp:112] Top shape: 32 48 7 7 (75264)
I0510 23:35:27.946085 20050 layer_factory.hpp:74] Creating layer inception_5b/relu_5x5_reduce
I0510 23:35:27.947692 20050 net.cpp:76] Creating Layer inception_5b/relu_5x5_reduce
I0510 23:35:27.947700 20050 net.cpp:372] inception_5b/relu_5x5_reduce <- inception_5b/5x5_reduce
I0510 23:35:27.947710 20050 net.cpp:323] inception_5b/relu_5x5_reduce -> inception_5b/5x5_reduce (in-place)
I0510 23:35:27.947717 20050 net.cpp:105] Setting up inception_5b/relu_5x5_reduce
I0510 23:35:27.947722 20050 net.cpp:112] Top shape: 32 48 7 7 (75264)
I0510 23:35:27.947728 20050 layer_factory.hpp:74] Creating layer inception_5b/5x5
I0510 23:35:27.947738 20050 net.cpp:76] Creating Layer inception_5b/5x5
I0510 23:35:27.947746 20050 net.cpp:372] inception_5b/5x5 <- inception_5b/5x5_reduce
I0510 23:35:27.947753 20050 net.cpp:334] inception_5b/5x5 -> inception_5b/5x5
I0510 23:35:27.947762 20050 net.cpp:105] Setting up inception_5b/5x5
I0510 23:35:27.949054 20050 net.cpp:112] Top shape: 32 128 7 7 (200704)
I0510 23:35:27.949069 20050 layer_factory.hpp:74] Creating layer inception_5b/relu_5x5
I0510 23:35:27.949077 20050 net.cpp:76] Creating Layer inception_5b/relu_5x5
I0510 23:35:27.949084 20050 net.cpp:372] inception_5b/relu_5x5 <- inception_5b/5x5
I0510 23:35:27.949092 20050 net.cpp:323] inception_5b/relu_5x5 -> inception_5b/5x5 (in-place)
I0510 23:35:27.949100 20050 net.cpp:105] Setting up inception_5b/relu_5x5
I0510 23:35:27.949105 20050 net.cpp:112] Top shape: 32 128 7 7 (200704)
I0510 23:35:27.949111 20050 layer_factory.hpp:74] Creating layer inception_5b/pool
I0510 23:35:27.949120 20050 net.cpp:76] Creating Layer inception_5b/pool
I0510 23:35:27.949126 20050 net.cpp:372] inception_5b/pool <- inception_5a/output_inception_5a/output_0_split_3
I0510 23:35:27.949134 20050 net.cpp:334] inception_5b/pool -> inception_5b/pool
I0510 23:35:27.949142 20050 net.cpp:105] Setting up inception_5b/pool
I0510 23:35:27.949151 20050 net.cpp:112] Top shape: 32 832 7 7 (1304576)
I0510 23:35:27.949157 20050 layer_factory.hpp:74] Creating layer inception_5b/pool_proj
I0510 23:35:27.949169 20050 net.cpp:76] Creating Layer inception_5b/pool_proj
I0510 23:35:27.949177 20050 net.cpp:372] inception_5b/pool_proj <- inception_5b/pool
I0510 23:35:27.949187 20050 net.cpp:334] inception_5b/pool_proj -> inception_5b/pool_proj
I0510 23:35:27.949198 20050 net.cpp:105] Setting up inception_5b/pool_proj
I0510 23:35:27.950109 20050 net.cpp:112] Top shape: 32 128 7 7 (200704)
I0510 23:35:27.950124 20050 layer_factory.hpp:74] Creating layer inception_5b/relu_pool_proj
I0510 23:35:27.950132 20050 net.cpp:76] Creating Layer inception_5b/relu_pool_proj
I0510 23:35:27.950139 20050 net.cpp:372] inception_5b/relu_pool_proj <- inception_5b/pool_proj
I0510 23:35:27.950148 20050 net.cpp:323] inception_5b/relu_pool_proj -> inception_5b/pool_proj (in-place)
I0510 23:35:27.950156 20050 net.cpp:105] Setting up inception_5b/relu_pool_proj
I0510 23:35:27.950162 20050 net.cpp:112] Top shape: 32 128 7 7 (200704)
I0510 23:35:27.950167 20050 layer_factory.hpp:74] Creating layer inception_5b/output
I0510 23:35:27.950202 20050 net.cpp:76] Creating Layer inception_5b/output
I0510 23:35:27.950209 20050 net.cpp:372] inception_5b/output <- inception_5b/1x1
I0510 23:35:27.950217 20050 net.cpp:372] inception_5b/output <- inception_5b/3x3
I0510 23:35:27.950222 20050 net.cpp:372] inception_5b/output <- inception_5b/5x5
I0510 23:35:27.950228 20050 net.cpp:372] inception_5b/output <- inception_5b/pool_proj
I0510 23:35:27.950237 20050 net.cpp:334] inception_5b/output -> inception_5b/output
I0510 23:35:27.950245 20050 net.cpp:105] Setting up inception_5b/output
I0510 23:35:27.950251 20050 net.cpp:112] Top shape: 32 1024 7 7 (1605632)
I0510 23:35:27.950258 20050 layer_factory.hpp:74] Creating layer pool5/7x7_s1
I0510 23:35:27.950268 20050 net.cpp:76] Creating Layer pool5/7x7_s1
I0510 23:35:27.950286 20050 net.cpp:372] pool5/7x7_s1 <- inception_5b/output
I0510 23:35:27.950295 20050 net.cpp:334] pool5/7x7_s1 -> pool5/7x7_s1
I0510 23:35:27.950304 20050 net.cpp:105] Setting up pool5/7x7_s1
I0510 23:35:27.950310 20050 net.cpp:112] Top shape: 32 1024 1 1 (32768)
I0510 23:35:27.950316 20050 layer_factory.hpp:74] Creating layer pool5/drop_7x7_s1
I0510 23:35:27.950327 20050 net.cpp:76] Creating Layer pool5/drop_7x7_s1
I0510 23:35:27.950333 20050 net.cpp:372] pool5/drop_7x7_s1 <- pool5/7x7_s1
I0510 23:35:27.950342 20050 net.cpp:323] pool5/drop_7x7_s1 -> pool5/7x7_s1 (in-place)
I0510 23:35:27.950351 20050 net.cpp:105] Setting up pool5/drop_7x7_s1
I0510 23:35:27.950357 20050 net.cpp:112] Top shape: 32 1024 1 1 (32768)
I0510 23:35:27.950363 20050 layer_factory.hpp:74] Creating layer loss3/classifier
I0510 23:35:27.950372 20050 net.cpp:76] Creating Layer loss3/classifier
I0510 23:35:27.950377 20050 net.cpp:372] loss3/classifier <- pool5/7x7_s1
I0510 23:35:27.950391 20050 net.cpp:334] loss3/classifier -> loss3/classifier
I0510 23:35:27.950400 20050 net.cpp:105] Setting up loss3/classifier
I0510 23:35:27.950431 20050 net.cpp:112] Top shape: 32 2 1 1 (64)
I0510 23:35:27.950440 20050 layer_factory.hpp:74] Creating layer loss3/classifier_loss3/classifier_0_split
I0510 23:35:27.950448 20050 net.cpp:76] Creating Layer loss3/classifier_loss3/classifier_0_split
I0510 23:35:27.950454 20050 net.cpp:372] loss3/classifier_loss3/classifier_0_split <- loss3/classifier
I0510 23:35:27.950464 20050 net.cpp:334] loss3/classifier_loss3/classifier_0_split -> loss3/classifier_loss3/classifier_0_split_0
I0510 23:35:27.950474 20050 net.cpp:334] loss3/classifier_loss3/classifier_0_split -> loss3/classifier_loss3/classifier_0_split_1
I0510 23:35:27.950481 20050 net.cpp:105] Setting up loss3/classifier_loss3/classifier_0_split
I0510 23:35:27.950487 20050 net.cpp:112] Top shape: 32 2 1 1 (64)
I0510 23:35:27.950492 20050 net.cpp:112] Top shape: 32 2 1 1 (64)
I0510 23:35:27.950497 20050 layer_factory.hpp:74] Creating layer loss3/loss3
I0510 23:35:27.950505 20050 net.cpp:76] Creating Layer loss3/loss3
I0510 23:35:27.950511 20050 net.cpp:372] loss3/loss3 <- loss3/classifier_loss3/classifier_0_split_0
I0510 23:35:27.950518 20050 net.cpp:372] loss3/loss3 <- label_data_1_split_4
I0510 23:35:27.950527 20050 net.cpp:334] loss3/loss3 -> loss3/loss3
I0510 23:35:27.950536 20050 net.cpp:105] Setting up loss3/loss3
I0510 23:35:27.950543 20050 layer_factory.hpp:74] Creating layer loss3/loss3
I0510 23:35:27.950556 20050 net.cpp:112] Top shape: 1 1 1 1 (1)
I0510 23:35:27.950562 20050 net.cpp:118]     with loss weight 1
I0510 23:35:27.950577 20050 layer_factory.hpp:74] Creating layer loss3/top-1
I0510 23:35:27.950593 20050 net.cpp:76] Creating Layer loss3/top-1
I0510 23:35:27.950599 20050 net.cpp:372] loss3/top-1 <- loss3/classifier_loss3/classifier_0_split_1
I0510 23:35:27.950605 20050 net.cpp:372] loss3/top-1 <- label_data_1_split_5
I0510 23:35:27.950613 20050 net.cpp:334] loss3/top-1 -> loss3/top-1
I0510 23:35:27.950623 20050 net.cpp:105] Setting up loss3/top-1
I0510 23:35:27.950628 20050 net.cpp:112] Top shape: 1 1 1 1 (1)
I0510 23:35:27.950634 20050 net.cpp:165] loss3/top-1 does not need backward computation.
I0510 23:35:27.950639 20050 net.cpp:163] loss3/loss3 needs backward computation.
I0510 23:35:27.950657 20050 net.cpp:163] loss3/classifier_loss3/classifier_0_split needs backward computation.
I0510 23:35:27.950664 20050 net.cpp:163] loss3/classifier needs backward computation.
I0510 23:35:27.950669 20050 net.cpp:163] pool5/drop_7x7_s1 needs backward computation.
…
