…
I0509 21:49:37.669293 17752 caffe.cpp:134] Use GPU with device ID 0
I0509 21:49:38.053849 17752 net.cpp:253] The NetState phase (1) differed from the phase (0) specified by a rule in layer data
I0509 21:49:38.055367 17752 net.cpp:42] Initializing net from parameters: 
name: "GoogleNet"
state {
  phase: TEST
}
layer {
  name: "data"
  type: "Data"
  top: "data"
  top: "label"
  include {
    phase: TEST
  }
  transform_param {
    mirror: false
    crop_size: 224
    mean_value: 104
    mean_value: 117
    mean_value: 123
  }
  data_param {
    source: "val_lmdb"
    batch_size: 32
    backend: LMDB
  }
}
layer {
  name: "conv1/7x7_s2"
  type: "Convolution"
  bottom: "data"
  top: "conv1/7x7_s2"
  param {
    lr_mult: 1
    decay_mult: 1
  }
  param {
    lr_mult: 2
    decay_mult: 0
  }
  convolution_param {
    num_output: 64
    pad: 3
    kernel_size: 7
    stride: 2
    weight_filler {
      type: "xavier"
      std: 0.1
    }
    bias_filler {
      type: "constant"
      value: 0.2
    }
  }
}
layer {
  name: "conv1/relu_7x7"
  type: "ReLU"
  bottom: "conv1/7x7_s2"
  top: "conv1/7x7_s2"
}
layer {
  name: "pool1/3x3_s2"
  type: "Pooling"
  bottom: "conv1/7x7_s2"
  top: "pool1/3x3_s2"
  pooling_param {
    pool: MAX
    kernel_size: 3
    stride: 2
  }
}
layer {
  name: "pool1/norm1"
  type: "LRN"
  bottom: "pool1/3x3_s2"
  top: "pool1/norm1"
  lrn_param {
    local_size: 5
    alpha: 0.0001
    beta: 0.75
  }
}
layer {
  name: "conv2/3x3_reduce"
  type: "Convolution"
  bottom: "pool1/norm1"
  top: "conv2/3x3_reduce"
  param {
    lr_mult: 1
    decay_mult: 1
  }
  param {
    lr_mult: 2
    decay_mult: 0
  }
  convolution_param {
    num_output: 64
    kernel_size: 1
    weight_filler {
      type: "xavier"
      std: 0.1
    }
    bias_filler {
      type: "constant"
      value: 0.2
    }
  }
}
layer {
  name: "conv2/relu_3x3_reduce"
  type: "ReLU"
  bottom: "conv2/3x3_reduce"
  top: "conv2/3x3_reduce"
}
layer {
  name: "conv2/3x3"
  type: "Convolution"
  bottom: "conv2/3x3_reduce"
  top: "conv2/3x3"
  param {
    lr_mult: 1
    decay_mult: 1
  }
  param {
    lr_mult: 2
    decay_mult: 0
  }
  convolution_param {
    num_output: 192
    pad: 1
    kernel_size: 3
    weight_filler {
      type: "xavier"
      std: 0.03
    }
    bias_filler {
      type: "constant"
      value: 0.2
    }
  }
}
layer {
  name: "conv2/relu_3x3"
  type: "ReLU"
  bottom: "conv2/3x3"
  top: "conv2/3x3"
}
layer {
  name: "conv2/norm2"
  type: "LRN"
  bottom: "conv2/3x3"
  top: "conv2/norm2"
  lrn_param {
    local_size: 5
    alpha: 0.0001
    beta: 0.75
  }
}
layer {
  name: "pool2/3x3_s2"
  type: "Pooling"
  bottom: "conv2/norm2"
  top: "pool2/3x3_s2"
  pooling_param {
    pool: MAX
    kernel_size: 3
    stride: 2
  }
}
layer {
  name: "inception_3a/1x1"
  type: "Convolution"
  bottom: "pool2/3x3_s2"
  top: "inception_3a/1x1"
  param {
    lr_mult: 1
    decay_mult: 1
  }
  param {
    lr_mult: 2
    decay_mult: 0
  }
  convolution_param {
    num_output: 64
    kernel_size: 1
    weight_filler {
      type: "xavier"
      std: 0.03
    }
    bias_filler {
      type: "constant"
      value: 0.2
    }
  }
}
layer {
  name: "inception_3a/relu_1x1"
  type: "ReLU"
  bottom: "inception_3a/1x1"
  top: "inception_3a/1x1"
}
layer {
  name: "inception_3a/3x3_reduce"
  type: "Convolution"
  bottom: "pool2/3x3_s2"
  top: "inception_3a/3x3_reduce"
  param {
    lr_mult: 1
    decay_mult: 1
  }
  param {
    lr_mult: 2
    decay_mult: 0
  }
  convolution_param {
    num_output: 96
    kernel_size: 1
    weight_filler {
      type: "xavier"
      std: 0.09
    }
    bias_filler {
      type: "constant"
      value: 0.2
    }
  }
}
layer {
  name: "inception_3a/relu_3x3_reduce"
  type: "ReLU"
  bottom: "inception_3a/3x3_reduce"
  top: "inception_3a/3x3_reduce"
}
layer {
  name: "inception_3a/3x3"
  type: "Convolution"
  bottom: "inception_3a/3x3_reduce"
  top: "inception_3a/3x3"
  param {
    lr_mult: 1
    decay_mult: 1
  }
  param {
    lr_mult: 2
    decay_mult: 0
  }
  convolution_param {
    num_output: 128
    pad: 1
    kernel_size: 3
    weight_filler {
      type: "xavier"
      std: 0.03
    }
    bias_filler {
      type: "constant"
      value: 0.2
    }
  }
}
layer {
  name: "inception_3a/relu_3x3"
  type: "ReLU"
  bottom: "inception_3a/3x3"
  top: "inception_3a/3x3"
}
layer {
  name: "inception_3a/5x5_reduce"
  type: "Convolution"
  bottom: "pool2/3x3_s2"
  top: "inception_3a/5x5_reduce"
  param {
    lr_mult: 1
    decay_mult: 1
  }
  param {
    lr_mult: 2
    decay_mult: 0
  }
  convolution_param {
    num_output: 16
    kernel_size: 1
    weight_filler {
      type: "xavier"
      std: 0.2
    }
    bias_filler {
      type: "constant"
      value: 0.2
    }
  }
}
layer {
  name: "inception_3a/relu_5x5_reduce"
  type: "ReLU"
  bottom: "inception_3a/5x5_reduce"
  top: "inception_3a/5x5_reduce"
}
layer {
  name: "inception_3a/5x5"
  type: "Convolution"
  bottom: "inception_3a/5x5_reduce"
  top: "inception_3a/5x5"
  param {
    lr_mult: 1
    decay_mult: 1
  }
  param {
    lr_mult: 2
    decay_mult: 0
  }
  convolution_param {
    num_output: 32
    pad: 2
    kernel_size: 5
    weight_filler {
      type: "xavier"
      std: 0.03
    }
    bias_filler {
      type: "constant"
      value: 0.2
    }
  }
}
layer {
  name: "inception_3a/relu_5x5"
  type: "ReLU"
  bottom: "inception_3a/5x5"
  top: "inception_3a/5x5"
}
layer {
  name: "inception_3a/pool"
  type: "Pooling"
  bottom: "pool2/3x3_s2"
  top: "inception_3a/pool"
  pooling_param {
    pool: MAX
    kernel_size: 3
    stride: 1
    pad: 1
  }
}
layer {
  name: "inception_3a/pool_proj"
  type: "Convolution"
  bottom: "inception_3a/pool"
  top: "inception_3a/pool_proj"
  param {
    lr_mult: 1
    decay_mult: 1
  }
  param {
    lr_mult: 2
    decay_mult: 0
  }
  convolution_param {
    num_output: 32
    kernel_size: 1
    weight_filler {
      type: "xavier"
      std: 0.1
    }
    bias_filler {
      type: "constant"
      value: 0.2
    }
  }
}
layer {
  name: "inception_3a/relu_pool_proj"
  type: "ReLU"
  bottom: "inception_3a/pool_proj"
  top: "inception_3a/pool_proj"
}
layer {
  name: "inception_3a/output"
  type: "Concat"
  bottom: "inception_3a/1x1"
  bottom: "inception_3a/3x3"
  bottom: "inception_3a/5x5"
  bottom: "inception_3a/pool_proj"
  top: "inception_3a/output"
}
layer {
  name: "inception_3b/1x1"
  type: "Convolution"
  bottom: "inception_3a/output"
  top: "inception_3b/1x1"
  param {
    lr_mult: 1
    decay_mult: 1
  }
  param {
    lr_mult: 2
    decay_mult: 0
  }
  convolution_param {
    num_output: 128
    kernel_size: 1
    weight_filler {
      type: "xavier"
      std: 0.03
    }
    bias_filler {
      type: "constant"
      value: 0.2
    }
  }
}
layer {
  name: "inception_3b/relu_1x1"
  type: "ReLU"
  bottom: "inception_3b/1x1"
  top: "inception_3b/1x1"
}
layer {
  name: "inception_3b/3x3_reduce"
  type: "Convolution"
  bottom: "inception_3a/output"
  top: "inception_3b/3x3_reduce"
  param {
    lr_mult: 1
    decay_mult: 1
  }
  param {
    lr_mult: 2
    decay_mult: 0
  }
  convolution_param {
    num_output: 128
    kernel_size: 1
    weight_filler {
      type: "xavier"
      std: 0.09
    }
    bias_filler {
      type: "constant"
      value: 0.2
    }
  }
}
layer {
  name: "inception_3b/relu_3x3_reduce"
  type: "ReLU"
  bottom: "inception_3b/3x3_reduce"
  top: "inception_3b/3x3_reduce"
}
layer {
  name: "inception_3b/3x3"
  type: "Convolution"
  bottom: "inception_3b/3x3_reduce"
  top: "inception_3b/3x3"
  param {
    lr_mult: 1
    decay_mult: 1
  }
  param {
    lr_mult: 2
    decay_mult: 0
  }
  convolution_param {
    num_output: 192
    pad: 1
    kernel_size: 3
    weight_filler {
      type: "xavier"
      std: 0.03
    }
    bias_filler {
      type: "constant"
      value: 0.2
    }
  }
}
layer {
  name: "inception_3b/relu_3x3"
  type: "ReLU"
  bottom: "inception_3b/3x3"
  top: "inception_3b/3x3"
}
layer {
  name: "inception_3b/5x5_reduce"
  type: "Convolution"
  bottom: "inception_3a/output"
  top: "inception_3b/5x5_reduce"
  param {
    lr_mult: 1
    decay_mult: 1
  }
  param {
    lr_mult: 2
    decay_mult: 0
  }
  convolution_param {
    num_output: 32
    kernel_size: 1
    weight_filler {
      type: "xavier"
      std: 0.2
    }
    bias_filler {
      type: "constant"
      value: 0.2
    }
  }
}
layer {
  name: "inception_3b/relu_5x5_reduce"
  type: "ReLU"
  bottom: "inception_3b/5x5_reduce"
  top: "inception_3b/5x5_reduce"
}
layer {
  name: "inception_3b/5x5"
  type: "Convolution"
  bottom: "inception_3b/5x5_reduce"
  top: "inception_3b/5x5"
  param {
    lr_mult: 1
    decay_mult: 1
  }
  param {
    lr_mult: 2
    decay_mult: 0
  }
  convolution_param {
    num_output: 96
    pad: 2
    kernel_size: 5
    weight_filler {
      type: "xavier"
      std: 0.03
    }
    bias_filler {
      type: "constant"
      value: 0.2
    }
  }
}
layer {
  name: "inception_3b/relu_5x5"
  type: "ReLU"
  bottom: "inception_3b/5x5"
  top: "inception_3b/5x5"
}
layer {
  name: "inception_3b/pool"
  type: "Pooling"
  bottom: "inception_3a/output"
  top: "inception_3b/pool"
  pooling_param {
    pool: MAX
    kernel_size: 3
    stride: 1
    pad: 1
  }
}
layer {
  name: "inception_3b/pool_proj"
  type: "Convolution"
  bottom: "inception_3b/pool"
  top: "inception_3b/pool_proj"
  param {
    lr_mult: 1
    decay_mult: 1
  }
  param {
    lr_mult: 2
    decay_mult: 0
  }
  convolution_param {
    num_output: 64
    kernel_size: 1
    weight_filler {
      type: "xavier"
      std: 0.1
    }
    bias_filler {
      type: "constant"
      value: 0.2
    }
  }
}
layer {
  name: "inception_3b/relu_pool_proj"
  type: "ReLU"
  bottom: "inception_3b/pool_proj"
  top: "inception_3b/pool_proj"
}
layer {
  name: "inception_3b/output"
  type: "Concat"
  bottom: "inception_3b/1x1"
  bottom: "inception_3b/3x3"
  bottom: "inception_3b/5x5"
  bottom: "inception_3b/pool_proj"
  top: "inception_3b/output"
}
layer {
  name: "pool3/3x3_s2"
  type: "Pooling"
  bottom: "inception_3b/output"
  top: "pool3/3x3_s2"
  pooling_param {
    pool: MAX
    kernel_size: 3
    stride: 2
  }
}
layer {
  name: "inception_4a/1x1"
  type: "Convolution"
  bottom: "pool3/3x3_s2"
  top: "inception_4a/1x1"
  param {
    lr_mult: 1
    decay_mult: 1
  }
  param {
    lr_mult: 2
    decay_mult: 0
  }
  convolution_param {
    num_output: 192
    kernel_size: 1
    weight_filler {
      type: "xavier"
      std: 0.03
    }
    bias_filler {
      type: "constant"
      value: 0.2
    }
  }
}
layer {
  name: "inception_4a/relu_1x1"
  type: "ReLU"
  bottom: "inception_4a/1x1"
  top: "inception_4a/1x1"
}
layer {
  name: "inception_4a/3x3_reduce"
  type: "Convolution"
  bottom: "pool3/3x3_s2"
  top: "inception_4a/3x3_reduce"
  param {
    lr_mult: 1
    decay_mult: 1
  }
  param {
    lr_mult: 2
    decay_mult: 0
  }
  convolution_param {
    num_output: 96
    kernel_size: 1
    weight_filler {
      type: "xavier"
      std: 0.09
    }
    bias_filler {
      type: "constant"
      value: 0.2
    }
  }
}
layer {
  name: "inception_4a/relu_3x3_reduce"
  type: "ReLU"
  bottom: "inception_4a/3x3_reduce"
  top: "inception_4a/3x3_reduce"
}
layer {
  name: "inception_4a/3x3"
  type: "Convolution"
  bottom: "inception_4a/3x3_reduce"
  top: "inception_4a/3x3"
  param {
    lr_mult: 1
    decay_mult: 1
  }
  param {
    lr_mult: 2
    decay_mult: 0
  }
  convolution_param {
    num_output: 208
    pad: 1
    kernel_size: 3
    weight_filler {
      type: "xavier"
      std: 0.03
    }
    bias_filler {
      type: "constant"
      value: 0.2
    }
  }
}
layer {
  name: "inception_4a/relu_3x3"
  type: "ReLU"
  bottom: "inception_4a/3x3"
  top: "inception_4a/3x3"
}
layer {
  name: "inception_4a/5x5_reduce"
  type: "Convolution"
  bottom: "pool3/3x3_s2"
  top: "inception_4a/5x5_reduce"
  param {
    lr_mult: 1
    decay_mult: 1
  }
  param {
    lr_mult: 2
    decay_mult: 0
  }
  convolution_param {
    num_output: 16
    kernel_size: 1
    weight_filler {
      type: "xavier"
      std: 0.2
    }
    bias_filler {
      type: "constant"
      value: 0.2
    }
  }
}
layer {
  name: "inception_4a/relu_5x5_reduce"
  type: "ReLU"
  bottom: "inception_4a/5x5_reduce"
  top: "inception_4a/5x5_reduce"
}
layer {
  name: "inception_4a/5x5"
  type: "Convolution"
  bottom: "inception_4a/5x5_reduce"
  top: "inception_4a/5x5"
  param {
    lr_mult: 1
    decay_mult: 1
  }
  param {
    lr_mult: 2
    decay_mult: 0
  }
  convolution_param {
    num_output: 48
    pad: 2
    kernel_size: 5
    weight_filler {
      type: "xavier"
      std: 0.03
    }
    bias_filler {
      type: "constant"
      value: 0.2
    }
  }
}
layer {
  name: "inception_4a/relu_5x5"
  type: "ReLU"
  bottom: "inception_4a/5x5"
  top: "inception_4a/5x5"
}
layer {
  name: "inception_4a/pool"
  type: "Pooling"
  bottom: "pool3/3x3_s2"
  top: "inception_4a/pool"
  pooling_param {
    pool: MAX
    kernel_size: 3
    stride: 1
    pad: 1
  }
}
layer {
  name: "inception_4a/pool_proj"
  type: "Convolution"
  bottom: "inception_4a/pool"
  top: "inception_4a/pool_proj"
  param {
    lr_mult: 1
    decay_mult: 1
  }
  param {
    lr_mult: 2
    decay_mult: 0
  }
  convolution_param {
    num_output: 64
    kernel_size: 1
    weight_filler {
      type: "xavier"
      std: 0.1
    }
    bias_filler {
      type: "constant"
      value: 0.2
    }
  }
}
layer {
  name: "inception_4a/relu_pool_proj"
  type: "ReLU"
  bottom: "inception_4a/pool_proj"
  top: "inception_4a/pool_proj"
}
layer {
  name: "inception_4a/output"
  type: "Concat"
  bottom: "inception_4a/1x1"
  bottom: "inception_4a/3x3"
  bottom: "inception_4a/5x5"
  bottom: "inception_4a/pool_proj"
  top: "inception_4a/output"
}
layer {
  name: "loss1/ave_pool"
  type: "Pooling"
  bottom: "inception_4a/output"
  top: "loss1/ave_pool"
  pooling_param {
    pool: AVE
    kernel_size: 5
    stride: 3
  }
}
layer {
  name: "loss1/conv"
  type: "Convolution"
  bottom: "loss1/ave_pool"
  top: "loss1/conv"
  param {
    lr_mult: 1
    decay_mult: 1
  }
  param {
    lr_mult: 2
    decay_mult: 0
  }
  convolution_param {
    num_output: 128
    kernel_size: 1
    weight_filler {
      type: "xavier"
      std: 0.08
    }
    bias_filler {
      type: "constant"
      value: 0.2
    }
  }
}
layer {
  name: "loss1/relu_conv"
  type: "ReLU"
  bottom: "loss1/conv"
  top: "loss1/conv"
}
layer {
  name: "loss1/fc"
  type: "InnerProduct"
  bottom: "loss1/conv"
  top: "loss1/fc"
  param {
    lr_mult: 1
    decay_mult: 1
  }
  param {
    lr_mult: 2
    decay_mult: 0
  }
  inner_product_param {
    num_output: 1024
    weight_filler {
      type: "xavier"
      std: 0.02
    }
    bias_filler {
      type: "constant"
      value: 0.2
    }
  }
}
layer {
  name: "loss1/relu_fc"
  type: "ReLU"
  bottom: "loss1/fc"
  top: "loss1/fc"
}
layer {
  name: "loss1/drop_fc"
  type: "Dropout"
  bottom: "loss1/fc"
  top: "loss1/fc"
  dropout_param {
    dropout_ratio: 0.7
  }
}
layer {
  name: "loss1/classifier"
  type: "InnerProduct"
  bottom: "loss1/fc"
  top: "loss1/classifier"
  param {
    lr_mult: 1
    decay_mult: 1
  }
  param {
    lr_mult: 2
    decay_mult: 0
  }
  inner_product_param {
    num_output: 2
    weight_filler {
      type: "xavier"
      std: 0.0009765625
    }
    bias_filler {
      type: "constant"
      value: 0
    }
  }
}
layer {
  name: "loss1/loss"
  type: "SoftmaxWithLoss"
  bottom: "loss1/classifier"
  bottom: "label"
  top: "loss1/loss1"
  loss_weight: 0.3
}
layer {
  name: "loss1/top-1"
  type: "Accuracy"
  bottom: "loss1/classifier"
  bottom: "label"
  top: "loss1/top-1"
  include {
    phase: TEST
  }
}
layer {
  name: "inception_4b/1x1"
  type: "Convolution"
  bottom: "inception_4a/output"
  top: "inception_4b/1x1"
  param {
    lr_mult: 1
    decay_mult: 1
  }
  param {
    lr_mult: 2
    decay_mult: 0
  }
  convolution_param {
    num_output: 160
    kernel_size: 1
    weight_filler {
      type: "xavier"
      std: 0.03
    }
    bias_filler {
      type: "constant"
      value: 0.2
    }
  }
}
layer {
  name: "inception_4b/relu_1x1"
  type: "ReLU"
  bottom: "inception_4b/1x1"
  top: "inception_4b/1x1"
}
layer {
  name: "inception_4b/3x3_reduce"
  type: "Convolution"
  bottom: "inception_4a/output"
  top: "inception_4b/3x3_reduce"
  param {
    lr_mult: 1
    decay_mult: 1
  }
  param {
    lr_mult: 2
    decay_mult: 0
  }
  convolution_param {
    num_output: 112
    kernel_size: 1
    weight_filler {
      type: "xavier"
      std: 0.09
    }
    bias_filler {
      type: "constant"
      value: 0.2
    }
  }
}
layer {
  name: "inception_4b/relu_3x3_reduce"
  type: "ReLU"
  bottom: "inception_4b/3x3_reduce"
  top: "inception_4b/3x3_reduce"
}
layer {
  name: "inception_4b/3x3"
  type: "Convolution"
  bottom: "inception_4b/3x3_reduce"
  top: "inception_4b/3x3"
  param {
    lr_mult: 1
    decay_mult: 1
  }
  param {
    lr_mult: 2
    decay_mult: 0
  }
  convolution_param {
    num_output: 224
    pad: 1
    kernel_size: 3
    weight_filler {
      type: "xavier"
      std: 0.03
    }
    bias_filler {
      type: "constant"
      value: 0.2
    }
  }
}
layer {
  name: "inception_4b/relu_3x3"
  type: "ReLU"
  bottom: "inception_4b/3x3"
  top: "inception_4b/3x3"
}
layer {
  name: "inception_4b/5x5_reduce"
  type: "Convolution"
  bottom: "inception_4a/output"
  top: "inception_4b/5x5_reduce"
  param {
    lr_mult: 1
    decay_mult: 1
  }
  param {
    lr_mult: 2
    decay_mult: 0
  }
  convolution_param {
    num_output: 24
    kernel_size: 1
    weight_filler {
      type: "xavier"
      std: 0.2
    }
    bias_filler {
      type: "constant"
      value: 0.2
    }
  }
}
layer {
  name: "inception_4b/relu_5x5_reduce"
  type: "ReLU"
  bottom: "inception_4b/5x5_reduce"
  top: "inception_4b/5x5_reduce"
}
layer {
  name: "inception_4b/5x5"
  type: "Convolution"
  bottom: "inception_4b/5x5_reduce"
  top: "inception_4b/5x5"
  param {
    lr_mult: 1
    decay_mult: 1
  }
  param {
    lr_mult: 2
    decay_mult: 0
  }
  convolution_param {
    num_output: 64
    pad: 2
    kernel_size: 5
    weight_filler {
      type: "xavier"
      std: 0.03
    }
    bias_filler {
      type: "constant"
      value: 0.2
    }
  }
}
layer {
  name: "inception_4b/relu_5x5"
  type: "ReLU"
  bottom: "inception_4b/5x5"
  top: "inception_4b/5x5"
}
layer {
  name: "inception_4b/pool"
  type: "Pooling"
  bottom: "inception_4a/output"
  top: "inception_4b/pool"
  pooling_param {
    pool: MAX
    kernel_size: 3
    stride: 1
    pad: 1
  }
}
layer {
  name: "inception_4b/pool_proj"
  type: "Convolution"
  bottom: "inception_4b/pool"
  top: "inception_4b/pool_proj"
  param {
    lr_mult: 1
    decay_mult: 1
  }
  param {
    lr_mult: 2
    decay_mult: 0
  }
  convolution_param {
    num_output: 64
    kernel_size: 1
    weight_filler {
      type: "xavier"
      std: 0.1
    }
    bias_filler {
      type: "constant"
      value: 0.2
    }
  }
}
layer {
  name: "inception_4b/relu_pool_proj"
  type: "ReLU"
  bottom: "inception_4b/pool_proj"
  top: "inception_4b/pool_proj"
}
layer {
  name: "inception_4b/output"
  type: "Concat"
  bottom: "inception_4b/1x1"
  bottom: "inception_4b/3x3"
  bottom: "inception_4b/5x5"
  bottom: "inception_4b/pool_proj"
  top: "inception_4b/output"
}
layer {
  name: "inception_4c/1x1"
  type: "Convolution"
  bottom: "inception_4b/output"
  top: "inception_4c/1x1"
  param {
    lr_mult: 1
    decay_mult: 1
  }
  param {
    lr_mult: 2
    decay_mult: 0
  }
  convolution_param {
    num_output: 128
    kernel_size: 1
    weight_filler {
      type: "xavier"
      std: 0.03
    }
    bias_filler {
      type: "constant"
      value: 0.2
    }
  }
}
layer {
  name: "inception_4c/relu_1x1"
  type: "ReLU"
  bottom: "inception_4c/1x1"
  top: "inception_4c/1x1"
}
layer {
  name: "inception_4c/3x3_reduce"
  type: "Convolution"
  bottom: "inception_4b/output"
  top: "inception_4c/3x3_reduce"
  param {
    lr_mult: 1
    decay_mult: 1
  }
  param {
    lr_mult: 2
    decay_mult: 0
  }
  convolution_param {
    num_output: 128
    kernel_size: 1
    weight_filler {
      type: "xavier"
      std: 0.09
    }
    bias_filler {
      type: "constant"
      value: 0.2
    }
  }
}
layer {
  name: "inception_4c/relu_3x3_reduce"
  type: "ReLU"
  bottom: "inception_4c/3x3_reduce"
  top: "inception_4c/3x3_reduce"
}
layer {
  name: "inception_4c/3x3"
  type: "Convolution"
  bottom: "inception_4c/3x3_reduce"
  top: "inception_4c/3x3"
  param {
    lr_mult: 1
    decay_mult: 1
  }
  param {
    lr_mult: 2
    decay_mult: 0
  }
  convolution_param {
    num_output: 256
    pad: 1
    kernel_size: 3
    weight_filler {
      type: "xavier"
      std: 0.03
    }
    bias_filler {
      type: "constant"
      value: 0.2
    }
  }
}
layer {
  name: "inception_4c/relu_3x3"
  type: "ReLU"
  bottom: "inception_4c/3x3"
  top: "inception_4c/3x3"
}
layer {
  name: "inception_4c/5x5_reduce"
  type: "Convolution"
  bottom: "inception_4b/output"
  top: "inception_4c/5x5_reduce"
  param {
    lr_mult: 1
    decay_mult: 1
  }
  param {
    lr_mult: 2
    decay_mult: 0
  }
  convolution_param {
    num_output: 24
    kernel_size: 1
    weight_filler {
      type: "xavier"
      std: 0.2
    }
    bias_filler {
      type: "constant"
      value: 0.2
    }
  }
}
layer {
  name: "inception_4c/relu_5x5_reduce"
  type: "ReLU"
  bottom: "inception_4c/5x5_reduce"
  top: "inception_4c/5x5_reduce"
}
layer {
  name: "inception_4c/5x5"
  type: "Convolution"
  bottom: "inception_4c/5x5_reduce"
  top: "inception_4c/5x5"
  param {
    lr_mult: 1
    decay_mult: 1
  }
  param {
    lr_mult: 2
    decay_mult: 0
  }
  convolution_param {
    num_output: 64
    pad: 2
    kernel_size: 5
    weight_filler {
      type: "xavier"
      std: 0.03
    }
    bias_filler {
      type: "constant"
      value: 0.2
    }
  }
}
layer {
  name: "inception_4c/relu_5x5"
  type: "ReLU"
  bottom: "inception_4c/5x5"
  top: "inception_4c/5x5"
}
layer {
  name: "inception_4c/pool"
  type: "Pooling"
  bottom: "inception_4b/output"
  top: "inception_4c/pool"
  pooling_param {
    pool: MAX
    kernel_size: 3
    stride: 1
    pad: 1
  }
}
layer {
  name: "inception_4c/pool_proj"
  type: "Convolution"
  bottom: "inception_4c/pool"
  top: "inception_4c/pool_proj"
  param {
    lr_mult: 1
    decay_mult: 1
  }
  param {
    lr_mult: 2
    decay_mult: 0
  }
  convolution_param {
    num_output: 64
    kernel_size: 1
    weight_filler {
      type: "xavier"
      std: 0.1
    }
    bias_filler {
      type: "constant"
      value: 0.2
    }
  }
}
layer {
  name: "inception_4c/relu_pool_proj"
  type: "ReLU"
  bottom: "inception_4c/pool_proj"
  top: "inception_4c/pool_proj"
}
layer {
  name: "inception_4c/output"
  type: "Concat"
  bottom: "inception_4c/1x1"
  bottom: "inception_4c/3x3"
  bottom: "inception_4c/5x5"
  bottom: "inception_4c/pool_proj"
  top: "inception_4c/output"
}
layer {
  name: "inception_4d/1x1"
  type: "Convolution"
  bottom: "inception_4c/output"
  top: "inception_4d/1x1"
  param {
    lr_mult: 1
    decay_mult: 1
  }
  param {
    lr_mult: 2
    decay_mult: 0
  }
  convolution_param {
    num_output: 112
    kernel_size: 1
    weight_filler {
      type: "xavier"
      std: 0.03
    }
    bias_filler {
      type: "constant"
      value: 0.2
    }
  }
}
layer {
  name: "inception_4d/relu_1x1"
  type: "ReLU"
  bottom: "inception_4d/1x1"
  top: "inception_4d/1x1"
}
layer {
  name: "inception_4d/3x3_reduce"
  type: "Convolution"
  bottom: "inception_4c/output"
  top: "inception_4d/3x3_reduce"
  param {
    lr_mult: 1
    decay_mult: 1
  }
  param {
    lr_mult: 2
    decay_mult: 0
  }
  convolution_param {
    num_output: 144
    kernel_size: 1
    weight_filler {
      type: "xavier"
      std: 0.09
    }
    bias_filler {
      type: "constant"
      value: 0.2
    }
  }
}
layer {
  name: "inception_4d/relu_3x3_reduce"
  type: "ReLU"
  bottom: "inception_4d/3x3_reduce"
  top: "inception_4d/3x3_reduce"
}
layer {
  name: "inception_4d/3x3"
  type: "Convolution"
  bottom: "inception_4d/3x3_reduce"
  top: "inception_4d/3x3"
  param {
    lr_mult: 1
    decay_mult: 1
  }
  param {
    lr_mult: 2
    decay_mult: 0
  }
  convolution_param {
    num_output: 288
    pad: 1
    kernel_size: 3
    weight_filler {
      type: "xavier"
      std: 0.03
    }
    bias_filler {
      type: "constant"
      value: 0.2
    }
  }
}
layer {
  name: "inception_4d/relu_3x3"
  type: "ReLU"
  bottom: "inception_4d/3x3"
  top: "inception_4d/3x3"
}
layer {
  name: "inception_4d/5x5_reduce"
  type: "Convolution"
  bottom: "inception_4c/output"
  top: "inception_4d/5x5_reduce"
  param {
    lr_mult: 1
    decay_mult: 1
  }
  param {
    lr_mult: 2
    decay_mult: 0
  }
  convolution_param {
    num_output: 32
    kernel_size: 1
    weight_filler {
      type: "xavier"
      std: 0.2
    }
    bias_filler {
      type: "constant"
      value: 0.2
    }
  }
}
layer {
  name: "inception_4d/relu_5x5_reduce"
  type: "ReLU"
  bottom: "inception_4d/5x5_reduce"
  top: "inception_4d/5x5_reduce"
}
layer {
  name: "inception_4d/5x5"
  type: "Convolution"
  bottom: "inception_4d/5x5_reduce"
  top: "inception_4d/5x5"
  param {
    lr_mult: 1
    decay_mult: 1
  }
  param {
    lr_mult: 2
    decay_mult: 0
  }
  convolution_param {
    num_output: 64
    pad: 2
    kernel_size: 5
    weight_filler {
      type: "xavier"
      std: 0.03
    }
    bias_filler {
      type: "constant"
      value: 0.2
    }
  }
}
layer {
  name: "inception_4d/relu_5x5"
  type: "ReLU"
  bottom: "inception_4d/5x5"
  top: "inception_4d/5x5"
}
layer {
  name: "inception_4d/pool"
  type: "Pooling"
  bottom: "inception_4c/output"
  top: "inception_4d/pool"
  pooling_param {
    pool: MAX
    kernel_size: 3
    stride: 1
    pad: 1
  }
}
layer {
  name: "inception_4d/pool_proj"
  type: "Convolution"
  bottom: "inception_4d/pool"
  top: "inception_4d/pool_proj"
  param {
    lr_mult: 1
    decay_mult: 1
  }
  param {
    lr_mult: 2
    decay_mult: 0
  }
  convolution_param {
    num_output: 64
    kernel_size: 1
    weight_filler {
      type: "xavier"
      std: 0.1
    }
    bias_filler {
      type: "constant"
      value: 0.2
    }
  }
}
layer {
  name: "inception_4d/relu_pool_proj"
  type: "ReLU"
  bottom: "inception_4d/pool_proj"
  top: "inception_4d/pool_proj"
}
layer {
  name: "inception_4d/output"
  type: "Concat"
  bottom: "inception_4d/1x1"
  bottom: "inception_4d/3x3"
  bottom: "inception_4d/5x5"
  bottom: "inception_4d/pool_proj"
  top: "inception_4d/output"
}
layer {
  name: "loss2/ave_pool"
  type: "Pooling"
  bottom: "inception_4d/output"
  top: "loss2/ave_pool"
  pooling_param {
    pool: AVE
    kernel_size: 5
    stride: 3
  }
}
layer {
  name: "loss2/conv"
  type: "Convolution"
  bottom: "loss2/ave_pool"
  top: "loss2/conv"
  param {
    lr_mult: 1
    decay_mult: 1
  }
  param {
    lr_mult: 2
    decay_mult: 0
  }
  convolution_param {
    num_output: 128
    kernel_size: 1
    weight_filler {
      type: "xavier"
      std: 0.08
    }
    bias_filler {
      type: "constant"
      value: 0.2
    }
  }
}
layer {
  name: "loss2/relu_conv"
  type: "ReLU"
  bottom: "loss2/conv"
  top: "loss2/conv"
}
layer {
  name: "loss2/fc"
  type: "InnerProduct"
  bottom: "loss2/conv"
  top: "loss2/fc"
  param {
    lr_mult: 1
    decay_mult: 1
  }
  param {
    lr_mult: 2
    decay_mult: 0
  }
  inner_product_param {
    num_output: 1024
    weight_filler {
      type: "xavier"
      std: 0.02
    }
    bias_filler {
      type: "constant"
      value: 0.2
    }
  }
}
layer {
  name: "loss2/relu_fc"
  type: "ReLU"
  bottom: "loss2/fc"
  top: "loss2/fc"
}
layer {
  name: "loss2/drop_fc"
  type: "Dropout"
  bottom: "loss2/fc"
  top: "loss2/fc"
  dropout_param {
    dropout_ratio: 0.7
  }
}
layer {
  name: "loss2/classifier"
  type: "InnerProduct"
  bottom: "loss2/fc"
  top: "loss2/classifier"
  param {
    lr_mult: 1
    decay_mult: 1
  }
  param {
    lr_mult: 2
    decay_mult: 0
  }
  inner_product_param {
    num_output: 2
    weight_filler {
      type: "xavier"
      std: 0.0009765625
    }
    bias_filler {
      type: "constant"
      value: 0
    }
  }
}
layer {
  name: "loss2/loss"
  type: "SoftmaxWithLoss"
  bottom: "loss2/classifier"
  bottom: "label"
  top: "loss2/loss1"
  loss_weight: 0.3
}
layer {
  name: "loss2/top-1"
  type: "Accuracy"
  bottom: "loss2/classifier"
  bottom: "label"
  top: "loss2/top-1"
  include {
    phase: TEST
  }
}
layer {
  name: "inception_4e/1x1"
  type: "Convolution"
  bottom: "inception_4d/output"
  top: "inception_4e/1x1"
  param {
    lr_mult: 1
    decay_mult: 1
  }
  param {
    lr_mult: 2
    decay_mult: 0
  }
  convolution_param {
    num_output: 256
    kernel_size: 1
    weight_filler {
      type: "xavier"
      std: 0.03
    }
    bias_filler {
      type: "constant"
      value: 0.2
    }
  }
}
layer {
  name: "inception_4e/relu_1x1"
  type: "ReLU"
  bottom: "inception_4e/1x1"
  top: "inception_4e/1x1"
}
layer {
  name: "inception_4e/3x3_reduce"
  type: "Convolution"
  bottom: "inception_4d/output"
  top: "inception_4e/3x3_reduce"
  param {
    lr_mult: 1
    decay_mult: 1
  }
  param {
    lr_mult: 2
    decay_mult: 0
  }
  convolution_param {
    num_output: 160
    kernel_size: 1
    weight_filler {
      type: "xavier"
      std: 0.09
    }
    bias_filler {
      type: "constant"
      value: 0.2
    }
  }
}
layer {
  name: "inception_4e/relu_3x3_reduce"
  type: "ReLU"
  bottom: "inception_4e/3x3_reduce"
  top: "inception_4e/3x3_reduce"
}
layer {
  name: "inception_4e/3x3"
  type: "Convolution"
  bottom: "inception_4e/3x3_reduce"
  top: "inception_4e/3x3"
  param {
    lr_mult: 1
    decay_mult: 1
  }
  param {
    lr_mult: 2
    decay_mult: 0
  }
  convolution_param {
    num_output: 320
    pad: 1
    kernel_size: 3
    weight_filler {
      type: "xavier"
      std: 0.03
    }
    bias_filler {
      type: "constant"
      value: 0.2
    }
  }
}
layer {
  name: "inception_4e/relu_3x3"
  type: "ReLU"
  bottom: "inception_4e/3x3"
  top: "inception_4e/3x3"
}
layer {
  name: "inception_4e/5x5_reduce"
  type: "Convolution"
  bottom: "inception_4d/output"
  top: "inception_4e/5x5_reduce"
  param {
    lr_mult: 1
    decay_mult: 1
  }
  param {
   
I0509 21:49:38.059943 17752 layer_factory.hpp:74] Creating layer data
I0509 21:49:38.059970 17752 net.cpp:76] Creating Layer data
I0509 21:49:38.059985 17752 net.cpp:334] data -> data
I0509 21:49:38.060015 17752 net.cpp:334] data -> label
I0509 21:49:38.060035 17752 net.cpp:105] Setting up data
I0509 21:49:38.060132 17752 db.cpp:34] Opened lmdb val_lmdb
I0509 21:49:38.060457 17752 data_layer.cpp:67] output data size: 32,3,224,224
I0509 21:49:38.066689 17752 net.cpp:112] Top shape: 32 3 224 224 (4816896)
I0509 21:49:38.066705 17752 net.cpp:112] Top shape: 32 1 1 1 (32)
I0509 21:49:38.066715 17752 layer_factory.hpp:74] Creating layer label_data_1_split
I0509 21:49:38.066727 17752 net.cpp:76] Creating Layer label_data_1_split
I0509 21:49:38.066735 17752 net.cpp:372] label_data_1_split <- label
I0509 21:49:38.066751 17752 net.cpp:334] label_data_1_split -> label_data_1_split_0
I0509 21:49:38.066774 17752 net.cpp:334] label_data_1_split -> label_data_1_split_1
I0509 21:49:38.066786 17752 net.cpp:334] label_data_1_split -> label_data_1_split_2
I0509 21:49:38.066795 17752 net.cpp:334] label_data_1_split -> label_data_1_split_3
I0509 21:49:38.066803 17752 net.cpp:334] label_data_1_split -> label_data_1_split_4
I0509 21:49:38.066812 17752 net.cpp:334] label_data_1_split -> label_data_1_split_5
I0509 21:49:38.066819 17752 net.cpp:105] Setting up label_data_1_split
I0509 21:49:38.066829 17752 net.cpp:112] Top shape: 32 1 1 1 (32)
I0509 21:49:38.066834 17752 net.cpp:112] Top shape: 32 1 1 1 (32)
I0509 21:49:38.066839 17752 net.cpp:112] Top shape: 32 1 1 1 (32)
I0509 21:49:38.066846 17752 net.cpp:112] Top shape: 32 1 1 1 (32)
I0509 21:49:38.066853 17752 net.cpp:112] Top shape: 32 1 1 1 (32)
I0509 21:49:38.066858 17752 net.cpp:112] Top shape: 32 1 1 1 (32)
I0509 21:49:38.066862 17752 layer_factory.hpp:74] Creating layer conv1/7x7_s2
I0509 21:49:38.066877 17752 net.cpp:76] Creating Layer conv1/7x7_s2
I0509 21:49:38.066884 17752 net.cpp:372] conv1/7x7_s2 <- data
I0509 21:49:38.066891 17752 net.cpp:334] conv1/7x7_s2 -> conv1/7x7_s2
I0509 21:49:38.066903 17752 net.cpp:105] Setting up conv1/7x7_s2
I0509 21:49:38.067447 17752 net.cpp:112] Top shape: 32 64 112 112 (25690112)
I0509 21:49:38.067468 17752 layer_factory.hpp:74] Creating layer conv1/relu_7x7
I0509 21:49:38.067478 17752 net.cpp:76] Creating Layer conv1/relu_7x7
I0509 21:49:38.067484 17752 net.cpp:372] conv1/relu_7x7 <- conv1/7x7_s2
I0509 21:49:38.067492 17752 net.cpp:323] conv1/relu_7x7 -> conv1/7x7_s2 (in-place)
I0509 21:49:38.067499 17752 net.cpp:105] Setting up conv1/relu_7x7
I0509 21:49:38.067508 17752 net.cpp:112] Top shape: 32 64 112 112 (25690112)
I0509 21:49:38.067514 17752 layer_factory.hpp:74] Creating layer pool1/3x3_s2
I0509 21:49:38.067543 17752 net.cpp:76] Creating Layer pool1/3x3_s2
I0509 21:49:38.067549 17752 net.cpp:372] pool1/3x3_s2 <- conv1/7x7_s2
I0509 21:49:38.067558 17752 net.cpp:334] pool1/3x3_s2 -> pool1/3x3_s2
I0509 21:49:38.067567 17752 net.cpp:105] Setting up pool1/3x3_s2
I0509 21:49:38.067581 17752 net.cpp:112] Top shape: 32 64 56 56 (6422528)
I0509 21:49:38.067589 17752 layer_factory.hpp:74] Creating layer pool1/norm1
I0509 21:49:38.067597 17752 net.cpp:76] Creating Layer pool1/norm1
I0509 21:49:38.067603 17752 net.cpp:372] pool1/norm1 <- pool1/3x3_s2
I0509 21:49:38.067611 17752 net.cpp:334] pool1/norm1 -> pool1/norm1
I0509 21:49:38.067620 17752 net.cpp:105] Setting up pool1/norm1
I0509 21:49:38.067627 17752 net.cpp:112] Top shape: 32 64 56 56 (6422528)
I0509 21:49:38.067632 17752 layer_factory.hpp:74] Creating layer conv2/3x3_reduce
I0509 21:49:38.067641 17752 net.cpp:76] Creating Layer conv2/3x3_reduce
I0509 21:49:38.067646 17752 net.cpp:372] conv2/3x3_reduce <- pool1/norm1
I0509 21:49:38.067654 17752 net.cpp:334] conv2/3x3_reduce -> conv2/3x3_reduce
I0509 21:49:38.067663 17752 net.cpp:105] Setting up conv2/3x3_reduce
I0509 21:49:38.067705 17752 net.cpp:112] Top shape: 32 64 56 56 (6422528)
I0509 21:49:38.067718 17752 layer_factory.hpp:74] Creating layer conv2/relu_3x3_reduce
I0509 21:49:38.067724 17752 net.cpp:76] Creating Layer conv2/relu_3x3_reduce
I0509 21:49:38.067730 17752 net.cpp:372] conv2/relu_3x3_reduce <- conv2/3x3_reduce
I0509 21:49:38.067737 17752 net.cpp:323] conv2/relu_3x3_reduce -> conv2/3x3_reduce (in-place)
I0509 21:49:38.067744 17752 net.cpp:105] Setting up conv2/relu_3x3_reduce
I0509 21:49:38.067749 17752 net.cpp:112] Top shape: 32 64 56 56 (6422528)
I0509 21:49:38.067755 17752 layer_factory.hpp:74] Creating layer conv2/3x3
I0509 21:49:38.067764 17752 net.cpp:76] Creating Layer conv2/3x3
I0509 21:49:38.067770 17752 net.cpp:372] conv2/3x3 <- conv2/3x3_reduce
I0509 21:49:38.067777 17752 net.cpp:334] conv2/3x3 -> conv2/3x3
I0509 21:49:38.067785 17752 net.cpp:105] Setting up conv2/3x3
I0509 21:49:38.068699 17752 net.cpp:112] Top shape: 32 192 56 56 (19267584)
I0509 21:49:38.068722 17752 layer_factory.hpp:74] Creating layer conv2/relu_3x3
I0509 21:49:38.068732 17752 net.cpp:76] Creating Layer conv2/relu_3x3
I0509 21:49:38.068738 17752 net.cpp:372] conv2/relu_3x3 <- conv2/3x3
I0509 21:49:38.068749 17752 net.cpp:323] conv2/relu_3x3 -> conv2/3x3 (in-place)
I0509 21:49:38.068758 17752 net.cpp:105] Setting up conv2/relu_3x3
I0509 21:49:38.068764 17752 net.cpp:112] Top shape: 32 192 56 56 (19267584)
I0509 21:49:38.068769 17752 layer_factory.hpp:74] Creating layer conv2/norm2
I0509 21:49:38.068778 17752 net.cpp:76] Creating Layer conv2/norm2
I0509 21:49:38.068783 17752 net.cpp:372] conv2/norm2 <- conv2/3x3
I0509 21:49:38.068790 17752 net.cpp:334] conv2/norm2 -> conv2/norm2
I0509 21:49:38.068799 17752 net.cpp:105] Setting up conv2/norm2
I0509 21:49:38.068804 17752 net.cpp:112] Top shape: 32 192 56 56 (19267584)
I0509 21:49:38.068810 17752 layer_factory.hpp:74] Creating layer pool2/3x3_s2
I0509 21:49:38.068819 17752 net.cpp:76] Creating Layer pool2/3x3_s2
I0509 21:49:38.068825 17752 net.cpp:372] pool2/3x3_s2 <- conv2/norm2
I0509 21:49:38.068833 17752 net.cpp:334] pool2/3x3_s2 -> pool2/3x3_s2
I0509 21:49:38.068841 17752 net.cpp:105] Setting up pool2/3x3_s2
I0509 21:49:38.068848 17752 net.cpp:112] Top shape: 32 192 28 28 (4816896)
I0509 21:49:38.068855 17752 layer_factory.hpp:74] Creating layer pool2/3x3_s2_pool2/3x3_s2_0_split
I0509 21:49:38.068863 17752 net.cpp:76] Creating Layer pool2/3x3_s2_pool2/3x3_s2_0_split
I0509 21:49:38.068871 17752 net.cpp:372] pool2/3x3_s2_pool2/3x3_s2_0_split <- pool2/3x3_s2
I0509 21:49:38.068879 17752 net.cpp:334] pool2/3x3_s2_pool2/3x3_s2_0_split -> pool2/3x3_s2_pool2/3x3_s2_0_split_0
I0509 21:49:38.068887 17752 net.cpp:334] pool2/3x3_s2_pool2/3x3_s2_0_split -> pool2/3x3_s2_pool2/3x3_s2_0_split_1
I0509 21:49:38.068898 17752 net.cpp:334] pool2/3x3_s2_pool2/3x3_s2_0_split -> pool2/3x3_s2_pool2/3x3_s2_0_split_2
I0509 21:49:38.068924 17752 net.cpp:334] pool2/3x3_s2_pool2/3x3_s2_0_split -> pool2/3x3_s2_pool2/3x3_s2_0_split_3
I0509 21:49:38.068933 17752 net.cpp:105] Setting up pool2/3x3_s2_pool2/3x3_s2_0_split
I0509 21:49:38.068939 17752 net.cpp:112] Top shape: 32 192 28 28 (4816896)
I0509 21:49:38.068951 17752 net.cpp:112] Top shape: 32 192 28 28 (4816896)
I0509 21:49:38.068958 17752 net.cpp:112] Top shape: 32 192 28 28 (4816896)
I0509 21:49:38.068963 17752 net.cpp:112] Top shape: 32 192 28 28 (4816896)
I0509 21:49:38.068967 17752 layer_factory.hpp:74] Creating layer inception_3a/1x1
I0509 21:49:38.068976 17752 net.cpp:76] Creating Layer inception_3a/1x1
I0509 21:49:38.068982 17752 net.cpp:372] inception_3a/1x1 <- pool2/3x3_s2_pool2/3x3_s2_0_split_0
I0509 21:49:38.068994 17752 net.cpp:334] inception_3a/1x1 -> inception_3a/1x1
I0509 21:49:38.069002 17752 net.cpp:105] Setting up inception_3a/1x1
I0509 21:49:38.069154 17752 net.cpp:112] Top shape: 32 64 28 28 (1605632)
I0509 21:49:38.069167 17752 layer_factory.hpp:74] Creating layer inception_3a/relu_1x1
I0509 21:49:38.069176 17752 net.cpp:76] Creating Layer inception_3a/relu_1x1
I0509 21:49:38.069181 17752 net.cpp:372] inception_3a/relu_1x1 <- inception_3a/1x1
I0509 21:49:38.069188 17752 net.cpp:323] inception_3a/relu_1x1 -> inception_3a/1x1 (in-place)
I0509 21:49:38.069196 17752 net.cpp:105] Setting up inception_3a/relu_1x1
I0509 21:49:38.069201 17752 net.cpp:112] Top shape: 32 64 28 28 (1605632)
I0509 21:49:38.069207 17752 layer_factory.hpp:74] Creating layer inception_3a/3x3_reduce
I0509 21:49:38.069217 17752 net.cpp:76] Creating Layer inception_3a/3x3_reduce
I0509 21:49:38.069223 17752 net.cpp:372] inception_3a/3x3_reduce <- pool2/3x3_s2_pool2/3x3_s2_0_split_1
I0509 21:49:38.069233 17752 net.cpp:334] inception_3a/3x3_reduce -> inception_3a/3x3_reduce
I0509 21:49:38.069242 17752 net.cpp:105] Setting up inception_3a/3x3_reduce
I0509 21:49:38.069425 17752 net.cpp:112] Top shape: 32 96 28 28 (2408448)
I0509 21:49:38.069442 17752 layer_factory.hpp:74] Creating layer inception_3a/relu_3x3_reduce
I0509 21:49:38.069450 17752 net.cpp:76] Creating Layer inception_3a/relu_3x3_reduce
I0509 21:49:38.069457 17752 net.cpp:372] inception_3a/relu_3x3_reduce <- inception_3a/3x3_reduce
I0509 21:49:38.069464 17752 net.cpp:323] inception_3a/relu_3x3_reduce -> inception_3a/3x3_reduce (in-place)
I0509 21:49:38.069473 17752 net.cpp:105] Setting up inception_3a/relu_3x3_reduce
I0509 21:49:38.069478 17752 net.cpp:112] Top shape: 32 96 28 28 (2408448)
I0509 21:49:38.069483 17752 layer_factory.hpp:74] Creating layer inception_3a/3x3
I0509 21:49:38.069494 17752 net.cpp:76] Creating Layer inception_3a/3x3
I0509 21:49:38.069499 17752 net.cpp:372] inception_3a/3x3 <- inception_3a/3x3_reduce
I0509 21:49:38.069510 17752 net.cpp:334] inception_3a/3x3 -> inception_3a/3x3
I0509 21:49:38.069519 17752 net.cpp:105] Setting up inception_3a/3x3
I0509 21:49:38.070642 17752 net.cpp:112] Top shape: 32 128 28 28 (3211264)
I0509 21:49:38.070658 17752 layer_factory.hpp:74] Creating layer inception_3a/relu_3x3
I0509 21:49:38.070665 17752 net.cpp:76] Creating Layer inception_3a/relu_3x3
I0509 21:49:38.070672 17752 net.cpp:372] inception_3a/relu_3x3 <- inception_3a/3x3
I0509 21:49:38.070678 17752 net.cpp:323] inception_3a/relu_3x3 -> inception_3a/3x3 (in-place)
I0509 21:49:38.070686 17752 net.cpp:105] Setting up inception_3a/relu_3x3
I0509 21:49:38.070691 17752 net.cpp:112] Top shape: 32 128 28 28 (3211264)
I0509 21:49:38.070698 17752 layer_factory.hpp:74] Creating layer inception_3a/5x5_reduce
I0509 21:49:38.070708 17752 net.cpp:76] Creating Layer inception_3a/5x5_reduce
I0509 21:49:38.070713 17752 net.cpp:372] inception_3a/5x5_reduce <- pool2/3x3_s2_pool2/3x3_s2_0_split_2
I0509 21:49:38.070722 17752 net.cpp:334] inception_3a/5x5_reduce -> inception_3a/5x5_reduce
I0509 21:49:38.070731 17752 net.cpp:105] Setting up inception_3a/5x5_reduce
I0509 21:49:38.070778 17752 net.cpp:112] Top shape: 32 16 28 28 (401408)
I0509 21:49:38.070788 17752 layer_factory.hpp:74] Creating layer inception_3a/relu_5x5_reduce
I0509 21:49:38.070797 17752 net.cpp:76] Creating Layer inception_3a/relu_5x5_reduce
I0509 21:49:38.070817 17752 net.cpp:372] inception_3a/relu_5x5_reduce <- inception_3a/5x5_reduce
I0509 21:49:38.070827 17752 net.cpp:323] inception_3a/relu_5x5_reduce -> inception_3a/5x5_reduce (in-place)
I0509 21:49:38.070834 17752 net.cpp:105] Setting up inception_3a/relu_5x5_reduce
I0509 21:49:38.070839 17752 net.cpp:112] Top shape: 32 16 28 28 (401408)
I0509 21:49:38.070844 17752 layer_factory.hpp:74] Creating layer inception_3a/5x5
I0509 21:49:38.070852 17752 net.cpp:76] Creating Layer inception_3a/5x5
I0509 21:49:38.070863 17752 net.cpp:372] inception_3a/5x5 <- inception_3a/5x5_reduce
I0509 21:49:38.070876 17752 net.cpp:334] inception_3a/5x5 -> inception_3a/5x5
I0509 21:49:38.070886 17752 net.cpp:105] Setting up inception_3a/5x5
I0509 21:49:38.071007 17752 net.cpp:112] Top shape: 32 32 28 28 (802816)
I0509 21:49:38.071019 17752 layer_factory.hpp:74] Creating layer inception_3a/relu_5x5
I0509 21:49:38.071027 17752 net.cpp:76] Creating Layer inception_3a/relu_5x5
I0509 21:49:38.071033 17752 net.cpp:372] inception_3a/relu_5x5 <- inception_3a/5x5
I0509 21:49:38.071039 17752 net.cpp:323] inception_3a/relu_5x5 -> inception_3a/5x5 (in-place)
I0509 21:49:38.071046 17752 net.cpp:105] Setting up inception_3a/relu_5x5
I0509 21:49:38.071053 17752 net.cpp:112] Top shape: 32 32 28 28 (802816)
I0509 21:49:38.071058 17752 layer_factory.hpp:74] Creating layer inception_3a/pool
I0509 21:49:38.071066 17752 net.cpp:76] Creating Layer inception_3a/pool
I0509 21:49:38.071072 17752 net.cpp:372] inception_3a/pool <- pool2/3x3_s2_pool2/3x3_s2_0_split_3
I0509 21:49:38.071080 17752 net.cpp:334] inception_3a/pool -> inception_3a/pool
I0509 21:49:38.071089 17752 net.cpp:105] Setting up inception_3a/pool
I0509 21:49:38.071095 17752 net.cpp:112] Top shape: 32 192 28 28 (4816896)
I0509 21:49:38.071100 17752 layer_factory.hpp:74] Creating layer inception_3a/pool_proj
I0509 21:49:38.071111 17752 net.cpp:76] Creating Layer inception_3a/pool_proj
I0509 21:49:38.071117 17752 net.cpp:372] inception_3a/pool_proj <- inception_3a/pool
I0509 21:49:38.071125 17752 net.cpp:334] inception_3a/pool_proj -> inception_3a/pool_proj
I0509 21:49:38.071133 17752 net.cpp:105] Setting up inception_3a/pool_proj
I0509 21:49:38.071200 17752 net.cpp:112] Top shape: 32 32 28 28 (802816)
I0509 21:49:38.071214 17752 layer_factory.hpp:74] Creating layer inception_3a/relu_pool_proj
I0509 21:49:38.071224 17752 net.cpp:76] Creating Layer inception_3a/relu_pool_proj
I0509 21:49:38.071230 17752 net.cpp:372] inception_3a/relu_pool_proj <- inception_3a/pool_proj
I0509 21:49:38.071238 17752 net.cpp:323] inception_3a/relu_pool_proj -> inception_3a/pool_proj (in-place)
I0509 21:49:38.071245 17752 net.cpp:105] Setting up inception_3a/relu_pool_proj
I0509 21:49:38.071250 17752 net.cpp:112] Top shape: 32 32 28 28 (802816)
I0509 21:49:38.071255 17752 layer_factory.hpp:74] Creating layer inception_3a/output
I0509 21:49:38.071265 17752 net.cpp:76] Creating Layer inception_3a/output
I0509 21:49:38.071282 17752 net.cpp:372] inception_3a/output <- inception_3a/1x1
I0509 21:49:38.071290 17752 net.cpp:372] inception_3a/output <- inception_3a/3x3
I0509 21:49:38.071297 17752 net.cpp:372] inception_3a/output <- inception_3a/5x5
I0509 21:49:38.071303 17752 net.cpp:372] inception_3a/output <- inception_3a/pool_proj
I0509 21:49:38.071313 17752 net.cpp:334] inception_3a/output -> inception_3a/output
I0509 21:49:38.071322 17752 net.cpp:105] Setting up inception_3a/output
I0509 21:49:38.071331 17752 net.cpp:112] Top shape: 32 256 28 28 (6422528)
I0509 21:49:38.071336 17752 layer_factory.hpp:74] Creating layer inception_3a/output_inception_3a/output_0_split
I0509 21:49:38.071344 17752 net.cpp:76] Creating Layer inception_3a/output_inception_3a/output_0_split
I0509 21:49:38.071351 17752 net.cpp:372] inception_3a/output_inception_3a/output_0_split <- inception_3a/output
I0509 21:49:38.071357 17752 net.cpp:334] inception_3a/output_inception_3a/output_0_split -> inception_3a/output_inception_3a/output_0_split_0
I0509 21:49:38.071367 17752 net.cpp:334] inception_3a/output_inception_3a/output_0_split -> inception_3a/output_inception_3a/output_0_split_1
I0509 21:49:38.071390 17752 net.cpp:334] inception_3a/output_inception_3a/output_0_split -> inception_3a/output_inception_3a/output_0_split_2
I0509 21:49:38.071403 17752 net.cpp:334] inception_3a/output_inception_3a/output_0_split -> inception_3a/output_inception_3a/output_0_split_3
I0509 21:49:38.071662 17752 net.cpp:105] Setting up inception_3a/output_inception_3a/output_0_split
I0509 21:49:38.071676 17752 net.cpp:112] Top shape: 32 256 28 28 (6422528)
I0509 21:49:38.071681 17752 net.cpp:112] Top shape: 32 256 28 28 (6422528)
I0509 21:49:38.071686 17752 net.cpp:112] Top shape: 32 256 28 28 (6422528)
I0509 21:49:38.071691 17752 net.cpp:112] Top shape: 32 256 28 28 (6422528)
I0509 21:49:38.071696 17752 layer_factory.hpp:74] Creating layer inception_3b/1x1
I0509 21:49:38.071714 17752 net.cpp:76] Creating Layer inception_3b/1x1
I0509 21:49:38.071722 17752 net.cpp:372] inception_3b/1x1 <- inception_3a/output_inception_3a/output_0_split_0
I0509 21:49:38.071732 17752 net.cpp:334] inception_3b/1x1 -> inception_3b/1x1
I0509 21:49:38.071741 17752 net.cpp:105] Setting up inception_3b/1x1
I0509 21:49:38.072069 17752 net.cpp:112] Top shape: 32 128 28 28 (3211264)
I0509 21:49:38.072084 17752 layer_factory.hpp:74] Creating layer inception_3b/relu_1x1
I0509 21:49:38.072093 17752 net.cpp:76] Creating Layer inception_3b/relu_1x1
I0509 21:49:38.072098 17752 net.cpp:372] inception_3b/relu_1x1 <- inception_3b/1x1
I0509 21:49:38.072108 17752 net.cpp:323] inception_3b/relu_1x1 -> inception_3b/1x1 (in-place)
I0509 21:49:38.072118 17752 net.cpp:105] Setting up inception_3b/relu_1x1
I0509 21:49:38.072124 17752 net.cpp:112] Top shape: 32 128 28 28 (3211264)
I0509 21:49:38.072129 17752 layer_factory.hpp:74] Creating layer inception_3b/3x3_reduce
I0509 21:49:38.072136 17752 net.cpp:76] Creating Layer inception_3b/3x3_reduce
I0509 21:49:38.072142 17752 net.cpp:372] inception_3b/3x3_reduce <- inception_3a/output_inception_3a/output_0_split_1
I0509 21:49:38.072154 17752 net.cpp:334] inception_3b/3x3_reduce -> inception_3b/3x3_reduce
I0509 21:49:38.072166 17752 net.cpp:105] Setting up inception_3b/3x3_reduce
I0509 21:49:38.072646 17752 net.cpp:112] Top shape: 32 128 28 28 (3211264)
I0509 21:49:38.072660 17752 layer_factory.hpp:74] Creating layer inception_3b/relu_3x3_reduce
I0509 21:49:38.072671 17752 net.cpp:76] Creating Layer inception_3b/relu_3x3_reduce
I0509 21:49:38.072677 17752 net.cpp:372] inception_3b/relu_3x3_reduce <- inception_3b/3x3_reduce
I0509 21:49:38.072685 17752 net.cpp:323] inception_3b/relu_3x3_reduce -> inception_3b/3x3_reduce (in-place)
I0509 21:49:38.072693 17752 net.cpp:105] Setting up inception_3b/relu_3x3_reduce
I0509 21:49:38.072700 17752 net.cpp:112] Top shape: 32 128 28 28 (3211264)
I0509 21:49:38.072705 17752 layer_factory.hpp:74] Creating layer inception_3b/3x3
I0509 21:49:38.072718 17752 net.cpp:76] Creating Layer inception_3b/3x3
I0509 21:49:38.072724 17752 net.cpp:372] inception_3b/3x3 <- inception_3b/3x3_reduce
I0509 21:49:38.072733 17752 net.cpp:334] inception_3b/3x3 -> inception_3b/3x3
I0509 21:49:38.072742 17752 net.cpp:105] Setting up inception_3b/3x3
I0509 21:49:38.075147 17752 net.cpp:112] Top shape: 32 192 28 28 (4816896)
I0509 21:49:38.075168 17752 layer_factory.hpp:74] Creating layer inception_3b/relu_3x3
I0509 21:49:38.075186 17752 net.cpp:76] Creating Layer inception_3b/relu_3x3
I0509 21:49:38.075194 17752 net.cpp:372] inception_3b/relu_3x3 <- inception_3b/3x3
I0509 21:49:38.075202 17752 net.cpp:323] inception_3b/relu_3x3 -> inception_3b/3x3 (in-place)
I0509 21:49:38.075212 17752 net.cpp:105] Setting up inception_3b/relu_3x3
I0509 21:49:38.075217 17752 net.cpp:112] Top shape: 32 192 28 28 (4816896)
I0509 21:49:38.075222 17752 layer_factory.hpp:74] Creating layer inception_3b/5x5_reduce
I0509 21:49:38.075233 17752 net.cpp:76] Creating Layer inception_3b/5x5_reduce
I0509 21:49:38.075239 17752 net.cpp:372] inception_3b/5x5_reduce <- inception_3a/output_inception_3a/output_0_split_2
I0509 21:49:38.075248 17752 net.cpp:334] inception_3b/5x5_reduce -> inception_3b/5x5_reduce
I0509 21:49:38.075294 17752 net.cpp:105] Setting up inception_3b/5x5_reduce
I0509 21:49:38.075381 17752 net.cpp:112] Top shape: 32 32 28 28 (802816)
I0509 21:49:38.075392 17752 layer_factory.hpp:74] Creating layer inception_3b/relu_5x5_reduce
I0509 21:49:38.075399 17752 net.cpp:76] Creating Layer inception_3b/relu_5x5_reduce
I0509 21:49:38.075405 17752 net.cpp:372] inception_3b/relu_5x5_reduce <- inception_3b/5x5_reduce
I0509 21:49:38.075414 17752 net.cpp:323] inception_3b/relu_5x5_reduce -> inception_3b/5x5_reduce (in-place)
I0509 21:49:38.075423 17752 net.cpp:105] Setting up inception_3b/relu_5x5_reduce
I0509 21:49:38.075428 17752 net.cpp:112] Top shape: 32 32 28 28 (802816)
I0509 21:49:38.075434 17752 layer_factory.hpp:74] Creating layer inception_3b/5x5
I0509 21:49:38.075443 17752 net.cpp:76] Creating Layer inception_3b/5x5
I0509 21:49:38.075448 17752 net.cpp:372] inception_3b/5x5 <- inception_3b/5x5_reduce
I0509 21:49:38.075459 17752 net.cpp:334] inception_3b/5x5 -> inception_3b/5x5
I0509 21:49:38.075466 17752 net.cpp:105] Setting up inception_3b/5x5
I0509 21:49:38.076134 17752 net.cpp:112] Top shape: 32 96 28 28 (2408448)
I0509 21:49:38.076149 17752 layer_factory.hpp:74] Creating layer inception_3b/relu_5x5
I0509 21:49:38.076159 17752 net.cpp:76] Creating Layer inception_3b/relu_5x5
I0509 21:49:38.076164 17752 net.cpp:372] inception_3b/relu_5x5 <- inception_3b/5x5
I0509 21:49:38.076171 17752 net.cpp:323] inception_3b/relu_5x5 -> inception_3b/5x5 (in-place)
I0509 21:49:38.076179 17752 net.cpp:105] Setting up inception_3b/relu_5x5
I0509 21:49:38.076184 17752 net.cpp:112] Top shape: 32 96 28 28 (2408448)
I0509 21:49:38.076190 17752 layer_factory.hpp:74] Creating layer inception_3b/pool
I0509 21:49:38.076200 17752 net.cpp:76] Creating Layer inception_3b/pool
I0509 21:49:38.076206 17752 net.cpp:372] inception_3b/pool <- inception_3a/output_inception_3a/output_0_split_3
I0509 21:49:38.076215 17752 net.cpp:334] inception_3b/pool -> inception_3b/pool
I0509 21:49:38.076222 17752 net.cpp:105] Setting up inception_3b/pool
I0509 21:49:38.076231 17752 net.cpp:112] Top shape: 32 256 28 28 (6422528)
I0509 21:49:38.076236 17752 layer_factory.hpp:74] Creating layer inception_3b/pool_proj
I0509 21:49:38.076246 17752 net.cpp:76] Creating Layer inception_3b/pool_proj
I0509 21:49:38.076252 17752 net.cpp:372] inception_3b/pool_proj <- inception_3b/pool
I0509 21:49:38.076261 17752 net.cpp:334] inception_3b/pool_proj -> inception_3b/pool_proj
I0509 21:49:38.076280 17752 net.cpp:105] Setting up inception_3b/pool_proj
I0509 21:49:38.076431 17752 net.cpp:112] Top shape: 32 64 28 28 (1605632)
I0509 21:49:38.076442 17752 layer_factory.hpp:74] Creating layer inception_3b/relu_pool_proj
I0509 21:49:38.076449 17752 net.cpp:76] Creating Layer inception_3b/relu_pool_proj
I0509 21:49:38.076455 17752 net.cpp:372] inception_3b/relu_pool_proj <- inception_3b/pool_proj
I0509 21:49:38.076464 17752 net.cpp:323] inception_3b/relu_pool_proj -> inception_3b/pool_proj (in-place)
I0509 21:49:38.076472 17752 net.cpp:105] Setting up inception_3b/relu_pool_proj
I0509 21:49:38.076478 17752 net.cpp:112] Top shape: 32 64 28 28 (1605632)
I0509 21:49:38.076483 17752 layer_factory.hpp:74] Creating layer inception_3b/output
I0509 21:49:38.076491 17752 net.cpp:76] Creating Layer inception_3b/output
I0509 21:49:38.076498 17752 net.cpp:372] inception_3b/output <- inception_3b/1x1
I0509 21:49:38.076503 17752 net.cpp:372] inception_3b/output <- inception_3b/3x3
I0509 21:49:38.076509 17752 net.cpp:372] inception_3b/output <- inception_3b/5x5
I0509 21:49:38.076515 17752 net.cpp:372] inception_3b/output <- inception_3b/pool_proj
I0509 21:49:38.076524 17752 net.cpp:334] inception_3b/output -> inception_3b/output
I0509 21:49:38.076532 17752 net.cpp:105] Setting up inception_3b/output
I0509 21:49:38.076542 17752 net.cpp:112] Top shape: 32 480 28 28 (12042240)
I0509 21:49:38.076549 17752 layer_factory.hpp:74] Creating layer pool3/3x3_s2
I0509 21:49:38.076556 17752 net.cpp:76] Creating Layer pool3/3x3_s2
I0509 21:49:38.076561 17752 net.cpp:372] pool3/3x3_s2 <- inception_3b/output
I0509 21:49:38.076586 17752 net.cpp:334] pool3/3x3_s2 -> pool3/3x3_s2
I0509 21:49:38.076596 17752 net.cpp:105] Setting up pool3/3x3_s2
I0509 21:49:38.076602 17752 net.cpp:112] Top shape: 32 480 14 14 (3010560)
I0509 21:49:38.076608 17752 layer_factory.hpp:74] Creating layer pool3/3x3_s2_pool3/3x3_s2_0_split
I0509 21:49:38.076618 17752 net.cpp:76] Creating Layer pool3/3x3_s2_pool3/3x3_s2_0_split
I0509 21:49:38.076624 17752 net.cpp:372] pool3/3x3_s2_pool3/3x3_s2_0_split <- pool3/3x3_s2
I0509 21:49:38.076632 17752 net.cpp:334] pool3/3x3_s2_pool3/3x3_s2_0_split -> pool3/3x3_s2_pool3/3x3_s2_0_split_0
I0509 21:49:38.076642 17752 net.cpp:334] pool3/3x3_s2_pool3/3x3_s2_0_split -> pool3/3x3_s2_pool3/3x3_s2_0_split_1
I0509 21:49:38.076650 17752 net.cpp:334] pool3/3x3_s2_pool3/3x3_s2_0_split -> pool3/3x3_s2_pool3/3x3_s2_0_split_2
I0509 21:49:38.076659 17752 net.cpp:334] pool3/3x3_s2_pool3/3x3_s2_0_split -> pool3/3x3_s2_pool3/3x3_s2_0_split_3
I0509 21:49:38.076669 17752 net.cpp:105] Setting up pool3/3x3_s2_pool3/3x3_s2_0_split
I0509 21:49:38.076683 17752 net.cpp:112] Top shape: 32 480 14 14 (3010560)
I0509 21:49:38.076689 17752 net.cpp:112] Top shape: 32 480 14 14 (3010560)
I0509 21:49:38.076694 17752 net.cpp:112] Top shape: 32 480 14 14 (3010560)
I0509 21:49:38.076699 17752 net.cpp:112] Top shape: 32 480 14 14 (3010560)
I0509 21:49:38.076705 17752 layer_factory.hpp:74] Creating layer inception_4a/1x1
I0509 21:49:38.076716 17752 net.cpp:76] Creating Layer inception_4a/1x1
I0509 21:49:38.076724 17752 net.cpp:372] inception_4a/1x1 <- pool3/3x3_s2_pool3/3x3_s2_0_split_0
I0509 21:49:38.076735 17752 net.cpp:334] inception_4a/1x1 -> inception_4a/1x1
I0509 21:49:38.076745 17752 net.cpp:105] Setting up inception_4a/1x1
I0509 21:49:38.077579 17752 net.cpp:112] Top shape: 32 192 14 14 (1204224)
I0509 21:49:38.077597 17752 layer_factory.hpp:74] Creating layer inception_4a/relu_1x1
I0509 21:49:38.077606 17752 net.cpp:76] Creating Layer inception_4a/relu_1x1
I0509 21:49:38.077635 17752 net.cpp:372] inception_4a/relu_1x1 <- inception_4a/1x1
I0509 21:49:38.077643 17752 net.cpp:323] inception_4a/relu_1x1 -> inception_4a/1x1 (in-place)
I0509 21:49:38.077652 17752 net.cpp:105] Setting up inception_4a/relu_1x1
I0509 21:49:38.077658 17752 net.cpp:112] Top shape: 32 192 14 14 (1204224)
I0509 21:49:38.077663 17752 layer_factory.hpp:74] Creating layer inception_4a/3x3_reduce
I0509 21:49:38.077677 17752 net.cpp:76] Creating Layer inception_4a/3x3_reduce
I0509 21:49:38.077684 17752 net.cpp:372] inception_4a/3x3_reduce <- pool3/3x3_s2_pool3/3x3_s2_0_split_1
I0509 21:49:38.077692 17752 net.cpp:334] inception_4a/3x3_reduce -> inception_4a/3x3_reduce
I0509 21:49:38.077704 17752 net.cpp:105] Setting up inception_4a/3x3_reduce
I0509 21:49:38.078097 17752 net.cpp:112] Top shape: 32 96 14 14 (602112)
I0509 21:49:38.078119 17752 layer_factory.hpp:74] Creating layer inception_4a/relu_3x3_reduce
I0509 21:49:38.078129 17752 net.cpp:76] Creating Layer inception_4a/relu_3x3_reduce
I0509 21:49:38.078135 17752 net.cpp:372] inception_4a/relu_3x3_reduce <- inception_4a/3x3_reduce
I0509 21:49:38.078143 17752 net.cpp:323] inception_4a/relu_3x3_reduce -> inception_4a/3x3_reduce (in-place)
I0509 21:49:38.078151 17752 net.cpp:105] Setting up inception_4a/relu_3x3_reduce
I0509 21:49:38.078156 17752 net.cpp:112] Top shape: 32 96 14 14 (602112)
I0509 21:49:38.078171 17752 layer_factory.hpp:74] Creating layer inception_4a/3x3
I0509 21:49:38.078181 17752 net.cpp:76] Creating Layer inception_4a/3x3
I0509 21:49:38.078186 17752 net.cpp:372] inception_4a/3x3 <- inception_4a/3x3_reduce
I0509 21:49:38.078194 17752 net.cpp:334] inception_4a/3x3 -> inception_4a/3x3
I0509 21:49:38.078203 17752 net.cpp:105] Setting up inception_4a/3x3
I0509 21:49:38.079785 17752 net.cpp:112] Top shape: 32 208 14 14 (1304576)
I0509 21:49:38.079804 17752 layer_factory.hpp:74] Creating layer inception_4a/relu_3x3
I0509 21:49:38.079816 17752 net.cpp:76] Creating Layer inception_4a/relu_3x3
I0509 21:49:38.079823 17752 net.cpp:372] inception_4a/relu_3x3 <- inception_4a/3x3
I0509 21:49:38.079852 17752 net.cpp:323] inception_4a/relu_3x3 -> inception_4a/3x3 (in-place)
I0509 21:49:38.079862 17752 net.cpp:105] Setting up inception_4a/relu_3x3
I0509 21:49:38.079869 17752 net.cpp:112] Top shape: 32 208 14 14 (1304576)
I0509 21:49:38.079874 17752 layer_factory.hpp:74] Creating layer inception_4a/5x5_reduce
I0509 21:49:38.079885 17752 net.cpp:76] Creating Layer inception_4a/5x5_reduce
I0509 21:49:38.079892 17752 net.cpp:372] inception_4a/5x5_reduce <- pool3/3x3_s2_pool3/3x3_s2_0_split_2
I0509 21:49:38.079901 17752 net.cpp:334] inception_4a/5x5_reduce -> inception_4a/5x5_reduce
I0509 21:49:38.079910 17752 net.cpp:105] Setting up inception_4a/5x5_reduce
I0509 21:49:38.079988 17752 net.cpp:112] Top shape: 32 16 14 14 (100352)
I0509 21:49:38.079999 17752 layer_factory.hpp:74] Creating layer inception_4a/relu_5x5_reduce
I0509 21:49:38.080008 17752 net.cpp:76] Creating Layer inception_4a/relu_5x5_reduce
I0509 21:49:38.080013 17752 net.cpp:372] inception_4a/relu_5x5_reduce <- inception_4a/5x5_reduce
I0509 21:49:38.080020 17752 net.cpp:323] inception_4a/relu_5x5_reduce -> inception_4a/5x5_reduce (in-place)
I0509 21:49:38.080027 17752 net.cpp:105] Setting up inception_4a/relu_5x5_reduce
I0509 21:49:38.080034 17752 net.cpp:112] Top shape: 32 16 14 14 (100352)
I0509 21:49:38.080039 17752 layer_factory.hpp:74] Creating layer inception_4a/5x5
I0509 21:49:38.080049 17752 net.cpp:76] Creating Layer inception_4a/5x5
I0509 21:49:38.080054 17752 net.cpp:372] inception_4a/5x5 <- inception_4a/5x5_reduce
I0509 21:49:38.080065 17752 net.cpp:334] inception_4a/5x5 -> inception_4a/5x5
I0509 21:49:38.080073 17752 net.cpp:105] Setting up inception_4a/5x5
I0509 21:49:38.080256 17752 net.cpp:112] Top shape: 32 48 14 14 (301056)
I0509 21:49:38.080268 17752 layer_factory.hpp:74] Creating layer inception_4a/relu_5x5
I0509 21:49:38.080289 17752 net.cpp:76] Creating Layer inception_4a/relu_5x5
I0509 21:49:38.080296 17752 net.cpp:372] inception_4a/relu_5x5 <- inception_4a/5x5
I0509 21:49:38.080302 17752 net.cpp:323] inception_4a/relu_5x5 -> inception_4a/5x5 (in-place)
I0509 21:49:38.080310 17752 net.cpp:105] Setting up inception_4a/relu_5x5
I0509 21:49:38.080315 17752 net.cpp:112] Top shape: 32 48 14 14 (301056)
I0509 21:49:38.080322 17752 layer_factory.hpp:74] Creating layer inception_4a/pool
I0509 21:49:38.080332 17752 net.cpp:76] Creating Layer inception_4a/pool
I0509 21:49:38.080338 17752 net.cpp:372] inception_4a/pool <- pool3/3x3_s2_pool3/3x3_s2_0_split_3
I0509 21:49:38.080346 17752 net.cpp:334] inception_4a/pool -> inception_4a/pool
I0509 21:49:38.080354 17752 net.cpp:105] Setting up inception_4a/pool
I0509 21:49:38.080361 17752 net.cpp:112] Top shape: 32 480 14 14 (3010560)
I0509 21:49:38.080366 17752 layer_factory.hpp:74] Creating layer inception_4a/pool_proj
I0509 21:49:38.080379 17752 net.cpp:76] Creating Layer inception_4a/pool_proj
I0509 21:49:38.080384 17752 net.cpp:372] inception_4a/pool_proj <- inception_4a/pool
I0509 21:49:38.080391 17752 net.cpp:334] inception_4a/pool_proj -> inception_4a/pool_proj
I0509 21:49:38.080400 17752 net.cpp:105] Setting up inception_4a/pool_proj
I0509 21:49:38.080672 17752 net.cpp:112] Top shape: 32 64 14 14 (401408)
I0509 21:49:38.080687 17752 layer_factory.hpp:74] Creating layer inception_4a/relu_pool_proj
I0509 21:49:38.080696 17752 net.cpp:76] Creating Layer inception_4a/relu_pool_proj
I0509 21:49:38.080703 17752 net.cpp:372] inception_4a/relu_pool_proj <- inception_4a/pool_proj
I0509 21:49:38.080710 17752 net.cpp:323] inception_4a/relu_pool_proj -> inception_4a/pool_proj (in-place)
I0509 21:49:38.080718 17752 net.cpp:105] Setting up inception_4a/relu_pool_proj
I0509 21:49:38.080724 17752 net.cpp:112] Top shape: 32 64 14 14 (401408)
I0509 21:49:38.080729 17752 layer_factory.hpp:74] Creating layer inception_4a/output
I0509 21:49:38.080736 17752 net.cpp:76] Creating Layer inception_4a/output
I0509 21:49:38.080741 17752 net.cpp:372] inception_4a/output <- inception_4a/1x1
I0509 21:49:38.080749 17752 net.cpp:372] inception_4a/output <- inception_4a/3x3
I0509 21:49:38.080754 17752 net.cpp:372] inception_4a/output <- inception_4a/5x5
I0509 21:49:38.080775 17752 net.cpp:372] inception_4a/output <- inception_4a/pool_proj
I0509 21:49:38.080782 17752 net.cpp:334] inception_4a/output -> inception_4a/output
I0509 21:49:38.080791 17752 net.cpp:105] Setting up inception_4a/output
I0509 21:49:38.080801 17752 net.cpp:112] Top shape: 32 512 14 14 (3211264)
I0509 21:49:38.080811 17752 layer_factory.hpp:74] Creating layer inception_4a/output_inception_4a/output_0_split
I0509 21:49:38.080831 17752 net.cpp:76] Creating Layer inception_4a/output_inception_4a/output_0_split
I0509 21:49:38.080842 17752 net.cpp:372] inception_4a/output_inception_4a/output_0_split <- inception_4a/output
I0509 21:49:38.080854 17752 net.cpp:334] inception_4a/output_inception_4a/output_0_split -> inception_4a/output_inception_4a/output_0_split_0
I0509 21:49:38.080870 17752 net.cpp:334] inception_4a/output_inception_4a/output_0_split -> inception_4a/output_inception_4a/output_0_split_1
I0509 21:49:38.080888 17752 net.cpp:334] inception_4a/output_inception_4a/output_0_split -> inception_4a/output_inception_4a/output_0_split_2
I0509 21:49:38.080907 17752 net.cpp:334] inception_4a/output_inception_4a/output_0_split -> inception_4a/output_inception_4a/output_0_split_3
I0509 21:49:38.080924 17752 net.cpp:334] inception_4a/output_inception_4a/output_0_split -> inception_4a/output_inception_4a/output_0_split_4
I0509 21:49:38.080940 17752 net.cpp:105] Setting up inception_4a/output_inception_4a/output_0_split
I0509 21:49:38.080951 17752 net.cpp:112] Top shape: 32 512 14 14 (3211264)
I0509 21:49:38.081231 17752 net.cpp:112] Top shape: 32 512 14 14 (3211264)
I0509 21:49:38.081243 17752 net.cpp:112] Top shape: 32 512 14 14 (3211264)
I0509 21:49:38.081248 17752 net.cpp:112] Top shape: 32 512 14 14 (3211264)
I0509 21:49:38.081254 17752 net.cpp:112] Top shape: 32 512 14 14 (3211264)
I0509 21:49:38.081259 17752 layer_factory.hpp:74] Creating layer loss1/ave_pool
I0509 21:49:38.081269 17752 net.cpp:76] Creating Layer loss1/ave_pool
I0509 21:49:38.081275 17752 net.cpp:372] loss1/ave_pool <- inception_4a/output_inception_4a/output_0_split_0
I0509 21:49:38.081285 17752 net.cpp:334] loss1/ave_pool -> loss1/ave_pool
I0509 21:49:38.081295 17752 net.cpp:105] Setting up loss1/ave_pool
I0509 21:49:38.081301 17752 net.cpp:112] Top shape: 32 512 4 4 (262144)
I0509 21:49:38.081307 17752 layer_factory.hpp:74] Creating layer loss1/conv
I0509 21:49:38.081322 17752 net.cpp:76] Creating Layer loss1/conv
I0509 21:49:38.081328 17752 net.cpp:372] loss1/conv <- loss1/ave_pool
I0509 21:49:38.081339 17752 net.cpp:334] loss1/conv -> loss1/conv
I0509 21:49:38.081349 17752 net.cpp:105] Setting up loss1/conv
I0509 21:49:38.081972 17752 net.cpp:112] Top shape: 32 128 4 4 (65536)
I0509 21:49:38.081989 17752 layer_factory.hpp:74] Creating layer loss1/relu_conv
I0509 21:49:38.081997 17752 net.cpp:76] Creating Layer loss1/relu_conv
I0509 21:49:38.082003 17752 net.cpp:372] loss1/relu_conv <- loss1/conv
I0509 21:49:38.082013 17752 net.cpp:323] loss1/relu_conv -> loss1/conv (in-place)
I0509 21:49:38.082021 17752 net.cpp:105] Setting up loss1/relu_conv
I0509 21:49:38.082027 17752 net.cpp:112] Top shape: 32 128 4 4 (65536)
I0509 21:49:38.082041 17752 layer_factory.hpp:74] Creating layer loss1/fc
I0509 21:49:38.082056 17752 net.cpp:76] Creating Layer loss1/fc
I0509 21:49:38.082062 17752 net.cpp:372] loss1/fc <- loss1/conv
I0509 21:49:38.082074 17752 net.cpp:334] loss1/fc -> loss1/fc
I0509 21:49:38.082088 17752 net.cpp:105] Setting up loss1/fc
I0509 21:49:38.099647 17752 net.cpp:112] Top shape: 32 1024 1 1 (32768)
I0509 21:49:38.099686 17752 layer_factory.hpp:74] Creating layer loss1/relu_fc
I0509 21:49:38.099700 17752 net.cpp:76] Creating Layer loss1/relu_fc
I0509 21:49:38.099709 17752 net.cpp:372] loss1/relu_fc <- loss1/fc
I0509 21:49:38.099720 17752 net.cpp:323] loss1/relu_fc -> loss1/fc (in-place)
I0509 21:49:38.099731 17752 net.cpp:105] Setting up loss1/relu_fc
I0509 21:49:38.099738 17752 net.cpp:112] Top shape: 32 1024 1 1 (32768)
I0509 21:49:38.099743 17752 layer_factory.hpp:74] Creating layer loss1/drop_fc
I0509 21:49:38.099807 17752 net.cpp:76] Creating Layer loss1/drop_fc
I0509 21:49:38.099815 17752 net.cpp:372] loss1/drop_fc <- loss1/fc
I0509 21:49:38.099823 17752 net.cpp:323] loss1/drop_fc -> loss1/fc (in-place)
I0509 21:49:38.099834 17752 net.cpp:105] Setting up loss1/drop_fc
I0509 21:49:38.099845 17752 net.cpp:112] Top shape: 32 1024 1 1 (32768)
I0509 21:49:38.099853 17752 layer_factory.hpp:74] Creating layer loss1/classifier
I0509 21:49:38.099863 17752 net.cpp:76] Creating Layer loss1/classifier
I0509 21:49:38.099867 17752 net.cpp:372] loss1/classifier <- loss1/fc
I0509 21:49:38.099879 17752 net.cpp:334] loss1/classifier -> loss1/classifier
I0509 21:49:38.099889 17752 net.cpp:105] Setting up loss1/classifier
I0509 21:49:38.099922 17752 net.cpp:112] Top shape: 32 2 1 1 (64)
I0509 21:49:38.099936 17752 layer_factory.hpp:74] Creating layer loss1/classifier_loss1/classifier_0_split
I0509 21:49:38.099943 17752 net.cpp:76] Creating Layer loss1/classifier_loss1/classifier_0_split
I0509 21:49:38.099949 17752 net.cpp:372] loss1/classifier_loss1/classifier_0_split <- loss1/classifier
I0509 21:49:38.099957 17752 net.cpp:334] loss1/classifier_loss1/classifier_0_split -> loss1/classifier_loss1/classifier_0_split_0
I0509 21:49:38.099967 17752 net.cpp:334] loss1/classifier_loss1/classifier_0_split -> loss1/classifier_loss1/classifier_0_split_1
I0509 21:49:38.099975 17752 net.cpp:105] Setting up loss1/classifier_loss1/classifier_0_split
I0509 21:49:38.099982 17752 net.cpp:112] Top shape: 32 2 1 1 (64)
I0509 21:49:38.099987 17752 net.cpp:112] Top shape: 32 2 1 1 (64)
I0509 21:49:38.099992 17752 layer_factory.hpp:74] Creating layer loss1/loss
I0509 21:49:38.100005 17752 net.cpp:76] Creating Layer loss1/loss
I0509 21:49:38.100013 17752 net.cpp:372] loss1/loss <- loss1/classifier_loss1/classifier_0_split_0
I0509 21:49:38.100019 17752 net.cpp:372] loss1/loss <- label_data_1_split_0
I0509 21:49:38.100028 17752 net.cpp:334] loss1/loss -> loss1/loss1
I0509 21:49:38.100041 17752 net.cpp:105] Setting up loss1/loss
I0509 21:49:38.100052 17752 layer_factory.hpp:74] Creating layer loss1/loss
I0509 21:49:38.100071 17752 net.cpp:112] Top shape: 1 1 1 1 (1)
I0509 21:49:38.100078 17752 net.cpp:118]     with loss weight 0.3
I0509 21:49:38.100111 17752 layer_factory.hpp:74] Creating layer loss1/top-1
I0509 21:49:38.100123 17752 net.cpp:76] Creating Layer loss1/top-1
I0509 21:49:38.100129 17752 net.cpp:372] loss1/top-1 <- loss1/classifier_loss1/classifier_0_split_1
I0509 21:49:38.100137 17752 net.cpp:372] loss1/top-1 <- label_data_1_split_1
I0509 21:49:38.100148 17752 net.cpp:334] loss1/top-1 -> loss1/top-1
I0509 21:49:38.100167 17752 net.cpp:105] Setting up loss1/top-1
I0509 21:49:38.100177 17752 net.cpp:112] Top shape: 1 1 1 1 (1)
I0509 21:49:38.100183 17752 layer_factory.hpp:74] Creating layer inception_4b/1x1
I0509 21:49:38.100193 17752 net.cpp:76] Creating Layer inception_4b/1x1
I0509 21:49:38.100198 17752 net.cpp:372] inception_4b/1x1 <- inception_4a/output_inception_4a/output_0_split_1
I0509 21:49:38.100211 17752 net.cpp:334] inception_4b/1x1 -> inception_4b/1x1
I0509 21:49:38.100221 17752 net.cpp:105] Setting up inception_4b/1x1
I0509 21:49:38.100971 17752 net.cpp:112] Top shape: 32 160 14 14 (1003520)
I0509 21:49:38.100989 17752 layer_factory.hpp:74] Creating layer inception_4b/relu_1x1
I0509 21:49:38.100998 17752 net.cpp:76] Creating Layer inception_4b/relu_1x1
I0509 21:49:38.101004 17752 net.cpp:372] inception_4b/relu_1x1 <- inception_4b/1x1
I0509 21:49:38.101011 17752 net.cpp:323] inception_4b/relu_1x1 -> inception_4b/1x1 (in-place)
I0509 21:49:38.101019 17752 net.cpp:105] Setting up inception_4b/relu_1x1
I0509 21:49:38.101024 17752 net.cpp:112] Top shape: 32 160 14 14 (1003520)
I0509 21:49:38.101030 17752 layer_factory.hpp:74] Creating layer inception_4b/3x3_reduce
I0509 21:49:38.101042 17752 net.cpp:76] Creating Layer inception_4b/3x3_reduce
I0509 21:49:38.101047 17752 net.cpp:372] inception_4b/3x3_reduce <- inception_4a/output_inception_4a/output_0_split_2
I0509 21:49:38.101057 17752 net.cpp:334] inception_4b/3x3_reduce -> inception_4b/3x3_reduce
I0509 21:49:38.101079 17752 net.cpp:105] Setting up inception_4b/3x3_reduce
I0509 21:49:38.101583 17752 net.cpp:112] Top shape: 32 112 14 14 (702464)
I0509 21:49:38.101596 17752 layer_factory.hpp:74] Creating layer inception_4b/relu_3x3_reduce
I0509 21:49:38.101604 17752 net.cpp:76] Creating Layer inception_4b/relu_3x3_reduce
I0509 21:49:38.101610 17752 net.cpp:372] inception_4b/relu_3x3_reduce <- inception_4b/3x3_reduce
I0509 21:49:38.101620 17752 net.cpp:323] inception_4b/relu_3x3_reduce -> inception_4b/3x3_reduce (in-place)
I0509 21:49:38.101629 17752 net.cpp:105] Setting up inception_4b/relu_3x3_reduce
I0509 21:49:38.101634 17752 net.cpp:112] Top shape: 32 112 14 14 (702464)
I0509 21:49:38.101639 17752 layer_factory.hpp:74] Creating layer inception_4b/3x3
I0509 21:49:38.101649 17752 net.cpp:76] Creating Layer inception_4b/3x3
I0509 21:49:38.101654 17752 net.cpp:372] inception_4b/3x3 <- inception_4b/3x3_reduce
I0509 21:49:38.101663 17752 net.cpp:334] inception_4b/3x3 -> inception_4b/3x3
I0509 21:49:38.101672 17752 net.cpp:105] Setting up inception_4b/3x3
I0509 21:49:38.103577 17752 net.cpp:112] Top shape: 32 224 14 14 (1404928)
I0509 21:49:38.103596 17752 layer_factory.hpp:74] Creating layer inception_4b/relu_3x3
I0509 21:49:38.103605 17752 net.cpp:76] Creating Layer inception_4b/relu_3x3
I0509 21:49:38.103612 17752 net.cpp:372] inception_4b/relu_3x3 <- inception_4b/3x3
I0509 21:49:38.103621 17752 net.cpp:323] inception_4b/relu_3x3 -> inception_4b/3x3 (in-place)
I0509 21:49:38.103633 17752 net.cpp:105] Setting up inception_4b/relu_3x3
I0509 21:49:38.103639 17752 net.cpp:112] Top shape: 32 224 14 14 (1404928)
I0509 21:49:38.103644 17752 layer_factory.hpp:74] Creating layer inception_4b/5x5_reduce
I0509 21:49:38.103652 17752 net.cpp:76] Creating Layer inception_4b/5x5_reduce
I0509 21:49:38.103658 17752 net.cpp:372] inception_4b/5x5_reduce <- inception_4a/output_inception_4a/output_0_split_3
I0509 21:49:38.103668 17752 net.cpp:334] inception_4b/5x5_reduce -> inception_4b/5x5_reduce
I0509 21:49:38.103678 17752 net.cpp:105] Setting up inception_4b/5x5_reduce
I0509 21:49:38.103792 17752 net.cpp:112] Top shape: 32 24 14 14 (150528)
I0509 21:49:38.103803 17752 layer_factory.hpp:74] Creating layer inception_4b/relu_5x5_reduce
I0509 21:49:38.103813 17752 net.cpp:76] Creating Layer inception_4b/relu_5x5_reduce
I0509 21:49:38.103819 17752 net.cpp:372] inception_4b/relu_5x5_reduce <- inception_4b/5x5_reduce
I0509 21:49:38.103826 17752 net.cpp:323] inception_4b/relu_5x5_reduce -> inception_4b/5x5_reduce (in-place)
I0509 21:49:38.103834 17752 net.cpp:105] Setting up inception_4b/relu_5x5_reduce
I0509 21:49:38.103839 17752 net.cpp:112] Top shape: 32 24 14 14 (150528)
I0509 21:49:38.103845 17752 layer_factory.hpp:74] Creating layer inception_4b/5x5
I0509 21:49:38.103855 17752 net.cpp:76] Creating Layer inception_4b/5x5
I0509 21:49:38.103860 17752 net.cpp:372] inception_4b/5x5 <- inception_4b/5x5_reduce
I0509 21:49:38.103869 17752 net.cpp:334] inception_4b/5x5 -> inception_4b/5x5
I0509 21:49:38.103880 17752 net.cpp:105] Setting up inception_4b/5x5
I0509 21:49:38.104213 17752 net.cpp:112] Top shape: 32 64 14 14 (401408)
I0509 21:49:38.104226 17752 layer_factory.hpp:74] Creating layer inception_4b/relu_5x5
I0509 21:49:38.104234 17752 net.cpp:76] Creating Layer inception_4b/relu_5x5
I0509 21:49:38.104240 17752 net.cpp:372] inception_4b/relu_5x5 <- inception_4b/5x5
I0509 21:49:38.104248 17752 net.cpp:323] inception_4b/relu_5x5 -> inception_4b/5x5 (in-place)
I0509 21:49:38.104254 17752 net.cpp:105] Setting up inception_4b/relu_5x5
I0509 21:49:38.104259 17752 net.cpp:112] Top shape: 32 64 14 14 (401408)
I0509 21:49:38.104265 17752 layer_factory.hpp:74] Creating layer inception_4b/pool
I0509 21:49:38.104292 17752 net.cpp:76] Creating Layer inception_4b/pool
I0509 21:49:38.104300 17752 net.cpp:372] inception_4b/pool <- inception_4a/output_inception_4a/output_0_split_4
I0509 21:49:38.104308 17752 net.cpp:334] inception_4b/pool -> inception_4b/pool
I0509 21:49:38.104317 17752 net.cpp:105] Setting up inception_4b/pool
I0509 21:49:38.104346 17752 net.cpp:112] Top shape: 32 512 14 14 (3211264)
I0509 21:49:38.104352 17752 layer_factory.hpp:74] Creating layer inception_4b/pool_proj
I0509 21:49:38.104363 17752 net.cpp:76] Creating Layer inception_4b/pool_proj
I0509 21:49:38.104369 17752 net.cpp:372] inception_4b/pool_proj <- inception_4b/pool
I0509 21:49:38.104378 17752 net.cpp:334] inception_4b/pool_proj -> inception_4b/pool_proj
I0509 21:49:38.104387 17752 net.cpp:105] Setting up inception_4b/pool_proj
I0509 21:49:38.104672 17752 net.cpp:112] Top shape: 32 64 14 14 (401408)
I0509 21:49:38.104688 17752 layer_factory.hpp:74] Creating layer inception_4b/relu_pool_proj
I0509 21:49:38.104698 17752 net.cpp:76] Creating Layer inception_4b/relu_pool_proj
I0509 21:49:38.104704 17752 net.cpp:372] inception_4b/relu_pool_proj <- inception_4b/pool_proj
I0509 21:49:38.104712 17752 net.cpp:323] inception_4b/relu_pool_proj -> inception_4b/pool_proj (in-place)
I0509 21:49:38.104719 17752 net.cpp:105] Setting up inception_4b/relu_pool_proj
I0509 21:49:38.104725 17752 net.cpp:112] Top shape: 32 64 14 14 (401408)
I0509 21:49:38.104730 17752 layer_factory.hpp:74] Creating layer inception_4b/output
I0509 21:49:38.104737 17752 net.cpp:76] Creating Layer inception_4b/output
I0509 21:49:38.104743 17752 net.cpp:372] inception_4b/output <- inception_4b/1x1
I0509 21:49:38.104750 17752 net.cpp:372] inception_4b/output <- inception_4b/3x3
I0509 21:49:38.104756 17752 net.cpp:372] inception_4b/output <- inception_4b/5x5
I0509 21:49:38.104763 17752 net.cpp:372] inception_4b/output <- inception_4b/pool_proj
I0509 21:49:38.104769 17752 net.cpp:334] inception_4b/output -> inception_4b/output
I0509 21:49:38.104778 17752 net.cpp:105] Setting up inception_4b/output
I0509 21:49:38.104784 17752 net.cpp:112] Top shape: 32 512 14 14 (3211264)
I0509 21:49:38.104790 17752 layer_factory.hpp:74] Creating layer inception_4b/output_inception_4b/output_0_split
I0509 21:49:38.104820 17752 net.cpp:76] Creating Layer inception_4b/output_inception_4b/output_0_split
I0509 21:49:38.104828 17752 net.cpp:372] inception_4b/output_inception_4b/output_0_split <- inception_4b/output
I0509 21:49:38.104836 17752 net.cpp:334] inception_4b/output_inception_4b/output_0_split -> inception_4b/output_inception_4b/output_0_split_0
I0509 21:49:38.104846 17752 net.cpp:334] inception_4b/output_inception_4b/output_0_split -> inception_4b/output_inception_4b/output_0_split_1
I0509 21:49:38.104856 17752 net.cpp:334] inception_4b/output_inception_4b/output_0_split -> inception_4b/output_inception_4b/output_0_split_2
I0509 21:49:38.104867 17752 net.cpp:334] inception_4b/output_inception_4b/output_0_split -> inception_4b/output_inception_4b/output_0_split_3
I0509 21:49:38.104876 17752 net.cpp:105] Setting up inception_4b/output_inception_4b/output_0_split
I0509 21:49:38.104882 17752 net.cpp:112] Top shape: 32 512 14 14 (3211264)
I0509 21:49:38.104888 17752 net.cpp:112] Top shape: 32 512 14 14 (3211264)
I0509 21:49:38.104892 17752 net.cpp:112] Top shape: 32 512 14 14 (3211264)
I0509 21:49:38.104897 17752 net.cpp:112] Top shape: 32 512 14 14 (3211264)
I0509 21:49:38.104902 17752 layer_factory.hpp:74] Creating layer inception_4c/1x1
I0509 21:49:38.104912 17752 net.cpp:76] Creating Layer inception_4c/1x1
I0509 21:49:38.104917 17752 net.cpp:372] inception_4c/1x1 <- inception_4b/output_inception_4b/output_0_split_0
I0509 21:49:38.104928 17752 net.cpp:334] inception_4c/1x1 -> inception_4c/1x1
I0509 21:49:38.104939 17752 net.cpp:105] Setting up inception_4c/1x1
I0509 21:49:38.105502 17752 net.cpp:112] Top shape: 32 128 14 14 (802816)
I0509 21:49:38.105516 17752 layer_factory.hpp:74] Creating layer inception_4c/relu_1x1
I0509 21:49:38.105523 17752 net.cpp:76] Creating Layer inception_4c/relu_1x1
I0509 21:49:38.105530 17752 net.cpp:372] inception_4c/relu_1x1 <- inception_4c/1x1
I0509 21:49:38.105536 17752 net.cpp:323] inception_4c/relu_1x1 -> inception_4c/1x1 (in-place)
I0509 21:49:38.105545 17752 net.cpp:105] Setting up inception_4c/relu_1x1
I0509 21:49:38.105550 17752 net.cpp:112] Top shape: 32 128 14 14 (802816)
I0509 21:49:38.105567 17752 layer_factory.hpp:74] Creating layer inception_4c/3x3_reduce
I0509 21:49:38.105579 17752 net.cpp:76] Creating Layer inception_4c/3x3_reduce
I0509 21:49:38.105587 17752 net.cpp:372] inception_4c/3x3_reduce <- inception_4b/output_inception_4b/output_0_split_1
I0509 21:49:38.105595 17752 net.cpp:334] inception_4c/3x3_reduce -> inception_4c/3x3_reduce
I0509 21:49:38.105604 17752 net.cpp:105] Setting up inception_4c/3x3_reduce
I0509 21:49:38.106164 17752 net.cpp:112] Top shape: 32 128 14 14 (802816)
I0509 21:49:38.106178 17752 layer_factory.hpp:74] Creating layer inception_4c/relu_3x3_reduce
I0509 21:49:38.106186 17752 net.cpp:76] Creating Layer inception_4c/relu_3x3_reduce
I0509 21:49:38.106192 17752 net.cpp:372] inception_4c/relu_3x3_reduce <- inception_4c/3x3_reduce
I0509 21:49:38.106204 17752 net.cpp:323] inception_4c/relu_3x3_reduce -> inception_4c/3x3_reduce (in-place)
I0509 21:49:38.106212 17752 net.cpp:105] Setting up inception_4c/relu_3x3_reduce
I0509 21:49:38.106219 17752 net.cpp:112] Top shape: 32 128 14 14 (802816)
I0509 21:49:38.106223 17752 layer_factory.hpp:74] Creating layer inception_4c/3x3
I0509 21:49:38.106232 17752 net.cpp:76] Creating Layer inception_4c/3x3
I0509 21:49:38.106237 17752 net.cpp:372] inception_4c/3x3 <- inception_4c/3x3_reduce
I0509 21:49:38.106247 17752 net.cpp:334] inception_4c/3x3 -> inception_4c/3x3
I0509 21:49:38.106256 17752 net.cpp:105] Setting up inception_4c/3x3
I0509 21:49:38.108744 17752 net.cpp:112] Top shape: 32 256 14 14 (1605632)
I0509 21:49:38.108775 17752 layer_factory.hpp:74] Creating layer inception_4c/relu_3x3
I0509 21:49:38.108785 17752 net.cpp:76] Creating Layer inception_4c/relu_3x3
I0509 21:49:38.110313 17752 net.cpp:372] inception_4c/relu_3x3 <- inception_4c/3x3
I0509 21:49:38.110329 17752 net.cpp:323] inception_4c/relu_3x3 -> inception_4c/3x3 (in-place)
I0509 21:49:38.110340 17752 net.cpp:105] Setting up inception_4c/relu_3x3
I0509 21:49:38.110347 17752 net.cpp:112] Top shape: 32 256 14 14 (1605632)
I0509 21:49:38.110352 17752 layer_factory.hpp:74] Creating layer inception_4c/5x5_reduce
I0509 21:49:38.110366 17752 net.cpp:76] Creating Layer inception_4c/5x5_reduce
I0509 21:49:38.110373 17752 net.cpp:372] inception_4c/5x5_reduce <- inception_4b/output_inception_4b/output_0_split_2
I0509 21:49:38.110383 17752 net.cpp:334] inception_4c/5x5_reduce -> inception_4c/5x5_reduce
I0509 21:49:38.110394 17752 net.cpp:105] Setting up inception_4c/5x5_reduce
I0509 21:49:38.110515 17752 net.cpp:112] Top shape: 32 24 14 14 (150528)
I0509 21:49:38.110528 17752 layer_factory.hpp:74] Creating layer inception_4c/relu_5x5_reduce
I0509 21:49:38.110538 17752 net.cpp:76] Creating Layer inception_4c/relu_5x5_reduce
I0509 21:49:38.110543 17752 net.cpp:372] inception_4c/relu_5x5_reduce <- inception_4c/5x5_reduce
I0509 21:49:38.110550 17752 net.cpp:323] inception_4c/relu_5x5_reduce -> inception_4c/5x5_reduce (in-place)
I0509 21:49:38.110558 17752 net.cpp:105] Setting up inception_4c/relu_5x5_reduce
I0509 21:49:38.110564 17752 net.cpp:112] Top shape: 32 24 14 14 (150528)
I0509 21:49:38.110569 17752 layer_factory.hpp:74] Creating layer inception_4c/5x5
I0509 21:49:38.110579 17752 net.cpp:76] Creating Layer inception_4c/5x5
I0509 21:49:38.110585 17752 net.cpp:372] inception_4c/5x5 <- inception_4c/5x5_reduce
I0509 21:49:38.110594 17752 net.cpp:334] inception_4c/5x5 -> inception_4c/5x5
I0509 21:49:38.110604 17752 net.cpp:105] Setting up inception_4c/5x5
I0509 21:49:38.110939 17752 net.cpp:112] Top shape: 32 64 14 14 (401408)
I0509 21:49:38.110951 17752 layer_factory.hpp:74] Creating layer inception_4c/relu_5x5
I0509 21:49:38.110960 17752 net.cpp:76] Creating Layer inception_4c/relu_5x5
I0509 21:49:38.110965 17752 net.cpp:372] inception_4c/relu_5x5 <- inception_4c/5x5
I0509 21:49:38.110975 17752 net.cpp:323] inception_4c/relu_5x5 -> inception_4c/5x5 (in-place)
I0509 21:49:38.110982 17752 net.cpp:105] Setting up inception_4c/relu_5x5
I0509 21:49:38.110988 17752 net.cpp:112] Top shape: 32 64 14 14 (401408)
I0509 21:49:38.110993 17752 layer_factory.hpp:74] Creating layer inception_4c/pool
I0509 21:49:38.111026 17752 net.cpp:76] Creating Layer inception_4c/pool
I0509 21:49:38.111032 17752 net.cpp:372] inception_4c/pool <- inception_4b/output_inception_4b/output_0_split_3
I0509 21:49:38.111044 17752 net.cpp:334] inception_4c/pool -> inception_4c/pool
I0509 21:49:38.111053 17752 net.cpp:105] Setting up inception_4c/pool
I0509 21:49:38.111062 17752 net.cpp:112] Top shape: 32 512 14 14 (3211264)
I0509 21:49:38.111068 17752 layer_factory.hpp:74] Creating layer inception_4c/pool_proj
I0509 21:49:38.111076 17752 net.cpp:76] Creating Layer inception_4c/pool_proj
I0509 21:49:38.111083 17752 net.cpp:372] inception_4c/pool_proj <- inception_4c/pool
I0509 21:49:38.111093 17752 net.cpp:334] inception_4c/pool_proj -> inception_4c/pool_proj
I0509 21:49:38.111102 17752 net.cpp:105] Setting up inception_4c/pool_proj
I0509 21:49:38.111409 17752 net.cpp:112] Top shape: 32 64 14 14 (401408)
I0509 21:49:38.111423 17752 layer_factory.hpp:74] Creating layer inception_4c/relu_pool_proj
I0509 21:49:38.111433 17752 net.cpp:76] Creating Layer inception_4c/relu_pool_proj
I0509 21:49:38.111438 17752 net.cpp:372] inception_4c/relu_pool_proj <- inception_4c/pool_proj
I0509 21:49:38.111445 17752 net.cpp:323] inception_4c/relu_pool_proj -> inception_4c/pool_proj (in-place)
I0509 21:49:38.111454 17752 net.cpp:105] Setting up inception_4c/relu_pool_proj
I0509 21:49:38.111459 17752 net.cpp:112] Top shape: 32 64 14 14 (401408)
I0509 21:49:38.111466 17752 layer_factory.hpp:74] Creating layer inception_4c/output
I0509 21:49:38.111474 17752 net.cpp:76] Creating Layer inception_4c/output
I0509 21:49:38.111484 17752 net.cpp:372] inception_4c/output <- inception_4c/1x1
I0509 21:49:38.111490 17752 net.cpp:372] inception_4c/output <- inception_4c/3x3
I0509 21:49:38.111496 17752 net.cpp:372] inception_4c/output <- inception_4c/5x5
I0509 21:49:38.111502 17752 net.cpp:372] inception_4c/output <- inception_4c/pool_proj
I0509 21:49:38.111512 17752 net.cpp:334] inception_4c/output -> inception_4c/output
I0509 21:49:38.111521 17752 net.cpp:105] Setting up inception_4c/output
I0509 21:49:38.111528 17752 net.cpp:112] Top shape: 32 512 14 14 (3211264)
I0509 21:49:38.111533 17752 layer_factory.hpp:74] Creating layer inception_4c/output_inception_4c/output_0_split
I0509 21:49:38.111541 17752 net.cpp:76] Creating Layer inception_4c/output_inception_4c/output_0_split
I0509 21:49:38.111547 17752 net.cpp:372] inception_4c/output_inception_4c/output_0_split <- inception_4c/output
I0509 21:49:38.111554 17752 net.cpp:334] inception_4c/output_inception_4c/output_0_split -> inception_4c/output_inception_4c/output_0_split_0
I0509 21:49:38.111565 17752 net.cpp:334] inception_4c/output_inception_4c/output_0_split -> inception_4c/output_inception_4c/output_0_split_1
I0509 21:49:38.111575 17752 net.cpp:334] inception_4c/output_inception_4c/output_0_split -> inception_4c/output_inception_4c/output_0_split_2
I0509 21:49:38.111584 17752 net.cpp:334] inception_4c/output_inception_4c/output_0_split -> inception_4c/output_inception_4c/output_0_split_3
I0509 21:49:38.111593 17752 net.cpp:105] Setting up inception_4c/output_inception_4c/output_0_split
I0509 21:49:38.111599 17752 net.cpp:112] Top shape: 32 512 14 14 (3211264)
I0509 21:49:38.111604 17752 net.cpp:112] Top shape: 32 512 14 14 (3211264)
I0509 21:49:38.111609 17752 net.cpp:112] Top shape: 32 512 14 14 (3211264)
I0509 21:49:38.111614 17752 net.cpp:112] Top shape: 32 512 14 14 (3211264)
I0509 21:49:38.111619 17752 layer_factory.hpp:74] Creating layer inception_4d/1x1
I0509 21:49:38.111627 17752 net.cpp:76] Creating Layer inception_4d/1x1
I0509 21:49:38.111634 17752 net.cpp:372] inception_4d/1x1 <- inception_4c/output_inception_4c/output_0_split_0
I0509 21:49:38.111644 17752 net.cpp:334] inception_4d/1x1 -> inception_4d/1x1
I0509 21:49:38.111654 17752 net.cpp:105] Setting up inception_4d/1x1
I0509 21:49:38.112136 17752 net.cpp:112] Top shape: 32 112 14 14 (702464)
I0509 21:49:38.112150 17752 layer_factory.hpp:74] Creating layer inception_4d/relu_1x1
I0509 21:49:38.112159 17752 net.cpp:76] Creating Layer inception_4d/relu_1x1
I0509 21:49:38.112182 17752 net.cpp:372] inception_4d/relu_1x1 <- inception_4d/1x1
I0509 21:49:38.112193 17752 net.cpp:323] inception_4d/relu_1x1 -> inception_4d/1x1 (in-place)
I0509 21:49:38.112201 17752 net.cpp:105] Setting up inception_4d/relu_1x1
I0509 21:49:38.112207 17752 net.cpp:112] Top shape: 32 112 14 14 (702464)
I0509 21:49:38.112212 17752 layer_factory.hpp:74] Creating layer inception_4d/3x3_reduce
I0509 21:49:38.112223 17752 net.cpp:76] Creating Layer inception_4d/3x3_reduce
I0509 21:49:38.112229 17752 net.cpp:372] inception_4d/3x3_reduce <- inception_4c/output_inception_4c/output_0_split_1
I0509 21:49:38.112241 17752 net.cpp:334] inception_4d/3x3_reduce -> inception_4d/3x3_reduce
I0509 21:49:38.112249 17752 net.cpp:105] Setting up inception_4d/3x3_reduce
I0509 21:49:38.112884 17752 net.cpp:112] Top shape: 32 144 14 14 (903168)
I0509 21:49:38.112898 17752 layer_factory.hpp:74] Creating layer inception_4d/relu_3x3_reduce
I0509 21:49:38.112908 17752 net.cpp:76] Creating Layer inception_4d/relu_3x3_reduce
I0509 21:49:38.112915 17752 net.cpp:372] inception_4d/relu_3x3_reduce <- inception_4d/3x3_reduce
I0509 21:49:38.112922 17752 net.cpp:323] inception_4d/relu_3x3_reduce -> inception_4d/3x3_reduce (in-place)
I0509 21:49:38.112931 17752 net.cpp:105] Setting up inception_4d/relu_3x3_reduce
I0509 21:49:38.112936 17752 net.cpp:112] Top shape: 32 144 14 14 (903168)
I0509 21:49:38.112941 17752 layer_factory.hpp:74] Creating layer inception_4d/3x3
I0509 21:49:38.112951 17752 net.cpp:76] Creating Layer inception_4d/3x3
I0509 21:49:38.113661 17752 net.cpp:372] inception_4d/3x3 <- inception_4d/3x3_reduce
I0509 21:49:38.113672 17752 net.cpp:334] inception_4d/3x3 -> inception_4d/3x3
I0509 21:49:38.113682 17752 net.cpp:105] Setting up inception_4d/3x3
I0509 21:49:38.116782 17752 net.cpp:112] Top shape: 32 288 14 14 (1806336)
I0509 21:49:38.116803 17752 layer_factory.hpp:74] Creating layer inception_4d/relu_3x3
I0509 21:49:38.116816 17752 net.cpp:76] Creating Layer inception_4d/relu_3x3
I0509 21:49:38.116822 17752 net.cpp:372] inception_4d/relu_3x3 <- inception_4d/3x3
I0509 21:49:38.116829 17752 net.cpp:323] inception_4d/relu_3x3 -> inception_4d/3x3 (in-place)
I0509 21:49:38.116837 17752 net.cpp:105] Setting up inception_4d/relu_3x3
I0509 21:49:38.116843 17752 net.cpp:112] Top shape: 32 288 14 14 (1806336)
I0509 21:49:38.116848 17752 layer_factory.hpp:74] Creating layer inception_4d/5x5_reduce
I0509 21:49:38.116858 17752 net.cpp:76] Creating Layer inception_4d/5x5_reduce
I0509 21:49:38.116864 17752 net.cpp:372] inception_4d/5x5_reduce <- inception_4c/output_inception_4c/output_0_split_2
I0509 21:49:38.116873 17752 net.cpp:334] inception_4d/5x5_reduce -> inception_4d/5x5_reduce
I0509 21:49:38.116881 17752 net.cpp:105] Setting up inception_4d/5x5_reduce
I0509 21:49:38.117029 17752 net.cpp:112] Top shape: 32 32 14 14 (200704)
I0509 21:49:38.117039 17752 layer_factory.hpp:74] Creating layer inception_4d/relu_5x5_reduce
I0509 21:49:38.117048 17752 net.cpp:76] Creating Layer inception_4d/relu_5x5_reduce
I0509 21:49:38.117053 17752 net.cpp:372] inception_4d/relu_5x5_reduce <- inception_4d/5x5_reduce
I0509 21:49:38.117063 17752 net.cpp:323] inception_4d/relu_5x5_reduce -> inception_4d/5x5_reduce (in-place)
I0509 21:49:38.117070 17752 net.cpp:105] Setting up inception_4d/relu_5x5_reduce
I0509 21:49:38.117075 17752 net.cpp:112] Top shape: 32 32 14 14 (200704)
I0509 21:49:38.117080 17752 layer_factory.hpp:74] Creating layer inception_4d/5x5
I0509 21:49:38.117089 17752 net.cpp:76] Creating Layer inception_4d/5x5
I0509 21:49:38.117094 17752 net.cpp:372] inception_4d/5x5 <- inception_4d/5x5_reduce
I0509 21:49:38.117105 17752 net.cpp:334] inception_4d/5x5 -> inception_4d/5x5
I0509 21:49:38.117113 17752 net.cpp:105] Setting up inception_4d/5x5
I0509 21:49:38.117560 17752 net.cpp:112] Top shape: 32 64 14 14 (401408)
I0509 21:49:38.117579 17752 layer_factory.hpp:74] Creating layer inception_4d/relu_5x5
I0509 21:49:38.117588 17752 net.cpp:76] Creating Layer inception_4d/relu_5x5
I0509 21:49:38.117594 17752 net.cpp:372] inception_4d/relu_5x5 <- inception_4d/5x5
I0509 21:49:38.117619 17752 net.cpp:323] inception_4d/relu_5x5 -> inception_4d/5x5 (in-place)
I0509 21:49:38.117629 17752 net.cpp:105] Setting up inception_4d/relu_5x5
I0509 21:49:38.117633 17752 net.cpp:112] Top shape: 32 64 14 14 (401408)
I0509 21:49:38.117640 17752 layer_factory.hpp:74] Creating layer inception_4d/pool
I0509 21:49:38.117647 17752 net.cpp:76] Creating Layer inception_4d/pool
I0509 21:49:38.117652 17752 net.cpp:372] inception_4d/pool <- inception_4c/output_inception_4c/output_0_split_3
I0509 21:49:38.117663 17752 net.cpp:334] inception_4d/pool -> inception_4d/pool
I0509 21:49:38.117672 17752 net.cpp:105] Setting up inception_4d/pool
I0509 21:49:38.117681 17752 net.cpp:112] Top shape: 32 512 14 14 (3211264)
I0509 21:49:38.117686 17752 layer_factory.hpp:74] Creating layer inception_4d/pool_proj
I0509 21:49:38.117694 17752 net.cpp:76] Creating Layer inception_4d/pool_proj
I0509 21:49:38.117701 17752 net.cpp:372] inception_4d/pool_proj <- inception_4d/pool
I0509 21:49:38.117710 17752 net.cpp:334] inception_4d/pool_proj -> inception_4d/pool_proj
I0509 21:49:38.117719 17752 net.cpp:105] Setting up inception_4d/pool_proj
I0509 21:49:38.118006 17752 net.cpp:112] Top shape: 32 64 14 14 (401408)
I0509 21:49:38.118019 17752 layer_factory.hpp:74] Creating layer inception_4d/relu_pool_proj
I0509 21:49:38.118026 17752 net.cpp:76] Creating Layer inception_4d/relu_pool_proj
I0509 21:49:38.118032 17752 net.cpp:372] inception_4d/relu_pool_proj <- inception_4d/pool_proj
I0509 21:49:38.118039 17752 net.cpp:323] inception_4d/relu_pool_proj -> inception_4d/pool_proj (in-place)
I0509 21:49:38.118047 17752 net.cpp:105] Setting up inception_4d/relu_pool_proj
I0509 21:49:38.118052 17752 net.cpp:112] Top shape: 32 64 14 14 (401408)
I0509 21:49:38.118058 17752 layer_factory.hpp:74] Creating layer inception_4d/output
I0509 21:49:38.118068 17752 net.cpp:76] Creating Layer inception_4d/output
I0509 21:49:38.118073 17752 net.cpp:372] inception_4d/output <- inception_4d/1x1
I0509 21:49:38.118080 17752 net.cpp:372] inception_4d/output <- inception_4d/3x3
I0509 21:49:38.118087 17752 net.cpp:372] inception_4d/output <- inception_4d/5x5
I0509 21:49:38.118093 17752 net.cpp:372] inception_4d/output <- inception_4d/pool_proj
I0509 21:49:38.118099 17752 net.cpp:334] inception_4d/output -> inception_4d/output
I0509 21:49:38.118108 17752 net.cpp:105] Setting up inception_4d/output
I0509 21:49:38.118113 17752 net.cpp:112] Top shape: 32 528 14 14 (3311616)
I0509 21:49:38.118119 17752 layer_factory.hpp:74] Creating layer inception_4d/output_inception_4d/output_0_split
I0509 21:49:38.118126 17752 net.cpp:76] Creating Layer inception_4d/output_inception_4d/output_0_split
I0509 21:49:38.118132 17752 net.cpp:372] inception_4d/output_inception_4d/output_0_split <- inception_4d/output
I0509 21:49:38.118142 17752 net.cpp:334] inception_4d/output_inception_4d/output_0_split -> inception_4d/output_inception_4d/output_0_split_0
I0509 21:49:38.118152 17752 net.cpp:334] inception_4d/output_inception_4d/output_0_split -> inception_4d/output_inception_4d/output_0_split_1
I0509 21:49:38.118161 17752 net.cpp:334] inception_4d/output_inception_4d/output_0_split -> inception_4d/output_inception_4d/output_0_split_2
I0509 21:49:38.118170 17752 net.cpp:334] inception_4d/output_inception_4d/output_0_split -> inception_4d/output_inception_4d/output_0_split_3
I0509 21:49:38.118178 17752 net.cpp:334] inception_4d/output_inception_4d/output_0_split -> inception_4d/output_inception_4d/output_0_split_4
I0509 21:49:38.118187 17752 net.cpp:105] Setting up inception_4d/output_inception_4d/output_0_split
I0509 21:49:38.118194 17752 net.cpp:112] Top shape: 32 528 14 14 (3311616)
I0509 21:49:38.118199 17752 net.cpp:112] Top shape: 32 528 14 14 (3311616)
I0509 21:49:38.118204 17752 net.cpp:112] Top shape: 32 528 14 14 (3311616)
I0509 21:49:38.118209 17752 net.cpp:112] Top shape: 32 528 14 14 (3311616)
I0509 21:49:38.118213 17752 net.cpp:112] Top shape: 32 528 14 14 (3311616)
I0509 21:49:38.118218 17752 layer_factory.hpp:74] Creating layer loss2/ave_pool
I0509 21:49:38.118237 17752 net.cpp:76] Creating Layer loss2/ave_pool
I0509 21:49:38.118243 17752 net.cpp:372] loss2/ave_pool <- inception_4d/output_inception_4d/output_0_split_0
I0509 21:49:38.118252 17752 net.cpp:334] loss2/ave_pool -> loss2/ave_pool
I0509 21:49:38.118260 17752 net.cpp:105] Setting up loss2/ave_pool
I0509 21:49:38.118301 17752 net.cpp:112] Top shape: 32 528 4 4 (270336)
I0509 21:49:38.118309 17752 layer_factory.hpp:74] Creating layer loss2/conv
I0509 21:49:38.118322 17752 net.cpp:76] Creating Layer loss2/conv
I0509 21:49:38.118329 17752 net.cpp:372] loss2/conv <- loss2/ave_pool
I0509 21:49:38.118337 17752 net.cpp:334] loss2/conv -> loss2/conv
I0509 21:49:38.118346 17752 net.cpp:105] Setting up loss2/conv
I0509 21:49:38.118919 17752 net.cpp:112] Top shape: 32 128 4 4 (65536)
I0509 21:49:38.118933 17752 layer_factory.hpp:74] Creating layer loss2/relu_conv
I0509 21:49:38.118942 17752 net.cpp:76] Creating Layer loss2/relu_conv
I0509 21:49:38.118947 17752 net.cpp:372] loss2/relu_conv <- loss2/conv
I0509 21:49:38.118954 17752 net.cpp:323] loss2/relu_conv -> loss2/conv (in-place)
I0509 21:49:38.118963 17752 net.cpp:105] Setting up loss2/relu_conv
I0509 21:49:38.118968 17752 net.cpp:112] Top shape: 32 128 4 4 (65536)
I0509 21:49:38.118973 17752 layer_factory.hpp:74] Creating layer loss2/fc
I0509 21:49:38.118984 17752 net.cpp:76] Creating Layer loss2/fc
I0509 21:49:38.118990 17752 net.cpp:372] loss2/fc <- loss2/conv
I0509 21:49:38.118998 17752 net.cpp:334] loss2/fc -> loss2/fc
I0509 21:49:38.119006 17752 net.cpp:105] Setting up loss2/fc
I0509 21:49:38.135936 17752 net.cpp:112] Top shape: 32 1024 1 1 (32768)
I0509 21:49:38.135972 17752 layer_factory.hpp:74] Creating layer loss2/relu_fc
I0509 21:49:38.135983 17752 net.cpp:76] Creating Layer loss2/relu_fc
I0509 21:49:38.135992 17752 net.cpp:372] loss2/relu_fc <- loss2/fc
I0509 21:49:38.136000 17752 net.cpp:323] loss2/relu_fc -> loss2/fc (in-place)
I0509 21:49:38.136011 17752 net.cpp:105] Setting up loss2/relu_fc
I0509 21:49:38.136018 17752 net.cpp:112] Top shape: 32 1024 1 1 (32768)
I0509 21:49:38.136023 17752 layer_factory.hpp:74] Creating layer loss2/drop_fc
I0509 21:49:38.136031 17752 net.cpp:76] Creating Layer loss2/drop_fc
I0509 21:49:38.136036 17752 net.cpp:372] loss2/drop_fc <- loss2/fc
I0509 21:49:38.136046 17752 net.cpp:323] loss2/drop_fc -> loss2/fc (in-place)
I0509 21:49:38.136054 17752 net.cpp:105] Setting up loss2/drop_fc
I0509 21:49:38.136061 17752 net.cpp:112] Top shape: 32 1024 1 1 (32768)
I0509 21:49:38.136067 17752 layer_factory.hpp:74] Creating layer loss2/classifier
I0509 21:49:38.136076 17752 net.cpp:76] Creating Layer loss2/classifier
I0509 21:49:38.136082 17752 net.cpp:372] loss2/classifier <- loss2/fc
I0509 21:49:38.136092 17752 net.cpp:334] loss2/classifier -> loss2/classifier
I0509 21:49:38.136103 17752 net.cpp:105] Setting up loss2/classifier
I0509 21:49:38.136135 17752 net.cpp:112] Top shape: 32 2 1 1 (64)
I0509 21:49:38.136145 17752 layer_factory.hpp:74] Creating layer loss2/classifier_loss2/classifier_0_split
I0509 21:49:38.136153 17752 net.cpp:76] Creating Layer loss2/classifier_loss2/classifier_0_split
I0509 21:49:38.136164 17752 net.cpp:372] loss2/classifier_loss2/classifier_0_split <- loss2/classifier
I0509 21:49:38.136175 17752 net.cpp:334] loss2/classifier_loss2/classifier_0_split -> loss2/classifier_loss2/classifier_0_split_0
I0509 21:49:38.136185 17752 net.cpp:334] loss2/classifier_loss2/classifier_0_split -> loss2/classifier_loss2/classifier_0_split_1
I0509 21:49:38.136194 17752 net.cpp:105] Setting up loss2/classifier_loss2/classifier_0_split
I0509 21:49:38.136201 17752 net.cpp:112] Top shape: 32 2 1 1 (64)
I0509 21:49:38.136206 17752 net.cpp:112] Top shape: 32 2 1 1 (64)
I0509 21:49:38.136212 17752 layer_factory.hpp:74] Creating layer loss2/loss
I0509 21:49:38.136220 17752 net.cpp:76] Creating Layer loss2/loss
I0509 21:49:38.136226 17752 net.cpp:372] loss2/loss <- loss2/classifier_loss2/classifier_0_split_0
I0509 21:49:38.136235 17752 net.cpp:372] loss2/loss <- label_data_1_split_2
I0509 21:49:38.136243 17752 net.cpp:334] loss2/loss -> loss2/loss1
I0509 21:49:38.136301 17752 net.cpp:105] Setting up loss2/loss
I0509 21:49:38.136312 17752 layer_factory.hpp:74] Creating layer loss2/loss
I0509 21:49:38.136327 17752 net.cpp:112] Top shape: 1 1 1 1 (1)
I0509 21:49:38.136333 17752 net.cpp:118]     with loss weight 0.3
I0509 21:49:38.136351 17752 layer_factory.hpp:74] Creating layer loss2/top-1
I0509 21:49:38.136364 17752 net.cpp:76] Creating Layer loss2/top-1
I0509 21:49:38.136371 17752 net.cpp:372] loss2/top-1 <- loss2/classifier_loss2/classifier_0_split_1
I0509 21:49:38.136379 17752 net.cpp:372] loss2/top-1 <- label_data_1_split_3
I0509 21:49:38.136387 17752 net.cpp:334] loss2/top-1 -> loss2/top-1
I0509 21:49:38.136396 17752 net.cpp:105] Setting up loss2/top-1
I0509 21:49:38.136402 17752 net.cpp:112] Top shape: 1 1 1 1 (1)
I0509 21:49:38.136409 17752 layer_factory.hpp:74] Creating layer inception_4e/1x1
I0509 21:49:38.136418 17752 net.cpp:76] Creating Layer inception_4e/1x1
I0509 21:49:38.136425 17752 net.cpp:372] inception_4e/1x1 <- inception_4d/output_inception_4d/output_0_split_1
I0509 21:49:38.136435 17752 net.cpp:334] inception_4e/1x1 -> inception_4e/1x1
I0509 21:49:38.136445 17752 net.cpp:105] Setting up inception_4e/1x1
I0509 21:49:38.137599 17752 net.cpp:112] Top shape: 32 256 14 14 (1605632)
I0509 21:49:38.137615 17752 layer_factory.hpp:74] Creating layer inception_4e/relu_1x1
I0509 21:49:38.137624 17752 net.cpp:76] Creating Layer inception_4e/relu_1x1
I0509 21:49:38.137630 17752 net.cpp:372] inception_4e/relu_1x1 <- inception_4e/1x1
I0509 21:49:38.137637 17752 net.cpp:323] inception_4e/relu_1x1 -> inception_4e/1x1 (in-place)
I0509 21:49:38.137645 17752 net.cpp:105] Setting up inception_4e/relu_1x1
I0509 21:49:38.137651 17752 net.cpp:112] Top shape: 32 256 14 14 (1605632)
I0509 21:49:38.137656 17752 layer_factory.hpp:74] Creating layer inception_4e/3x3_reduce
I0509 21:49:38.137667 17752 net.cpp:76] Creating Layer inception_4e/3x3_reduce
I0509 21:49:38.137675 17752 net.cpp:372] inception_4e/3x3_reduce <- inception_4d/output_inception_4d/output_0_split_2
I0509 21:49:38.137682 17752 net.cpp:334] inception_4e/3x3_reduce -> inception_4e/3x3_reduce
I0509 21:49:38.137692 17752 net.cpp:105] Setting up inception_4e/3x3_reduce
I0509 21:49:38.138413 17752 net.cpp:112] Top shape: 32 160 14 14 (1003520)
I0509 21:49:38.138432 17752 layer_factory.hpp:74] Creating layer inception_4e/relu_3x3_reduce
I0509 21:49:38.138442 17752 net.cpp:76] Creating Layer inception_4e/relu_3x3_reduce
I0509 21:49:38.138447 17752 net.cpp:372] inception_4e/relu_3x3_reduce <- inception_4e/3x3_reduce
I0509 21:49:38.138454 17752 net.cpp:323] inception_4e/relu_3x3_reduce -> inception_4e/3x3_reduce (in-place)
I0509 21:49:38.138463 17752 net.cpp:105] Setting up inception_4e/relu_3x3_reduce
I0509 21:49:38.138470 17752 net.cpp:112] Top shape: 32 160 14 14 (1003520)
I0509 21:49:38.138476 17752 layer_factory.hpp:74] Creating layer inception_4e/3x3
I0509 21:49:38.138504 17752 net.cpp:76] Creating Layer inception_4e/3x3
I0509 21:49:38.138511 17752 net.cpp:372] inception_4e/3x3 <- inception_4e/3x3_reduce
I0509 21:49:38.138520 17752 net.cpp:334] inception_4e/3x3 -> inception_4e/3x3
I0509 21:49:38.138530 17752 net.cpp:105] Setting up inception_4e/3x3
I0509 21:49:38.142382 17752 net.cpp:112] Top shape: 32 320 14 14 (2007040)
I0509 21:49:38.142405 17752 layer_factory.hpp:74] Creating layer inception_4e/relu_3x3
I0509 21:49:38.142415 17752 net.cpp:76] Creating Layer inception_4e/relu_3x3
I0509 21:49:38.142421 17752 net.cpp:372] inception_4e/relu_3x3 <- inception_4e/3x3
I0509 21:49:38.142428 17752 net.cpp:323] inception_4e/relu_3x3 -> inception_4e/3x3 (in-place)
I0509 21:49:38.142437 17752 net.cpp:105] Setting up inception_4e/relu_3x3
I0509 21:49:38.142443 17752 net.cpp:112] Top shape: 32 320 14 14 (2007040)
I0509 21:49:38.142448 17752 layer_factory.hpp:74] Creating layer inception_4e/5x5_reduce
I0509 21:49:38.142460 17752 net.cpp:76] Creating Layer inception_4e/5x5_reduce
I0509 21:49:38.142467 17752 net.cpp:372] inception_4e/5x5_reduce <- inception_4d/output_inception_4d/output_0_split_3
I0509 21:49:38.142499 17752 net.cpp:334] inception_4e/5x5_reduce -> inception_4e/5x5_reduce
I0509 21:49:38.142509 17752 net.cpp:105] Setting up inception_4e/5x5_reduce
I0509 21:49:38.142660 17752 net.cpp:112] Top shape: 32 32 14 14 (200704)
I0509 21:49:38.142674 17752 layer_factory.hpp:74] Creating layer inception_4e/relu_5x5_reduce
I0509 21:49:38.142684 17752 net.cpp:76] Creating Layer inception_4e/relu_5x5_reduce
I0509 21:49:38.142690 17752 net.cpp:372] inception_4e/relu_5x5_reduce <- inception_4e/5x5_reduce
I0509 21:49:38.142698 17752 net.cpp:323] inception_4e/relu_5x5_reduce -> inception_4e/5x5_reduce (in-place)
I0509 21:49:38.142705 17752 net.cpp:105] Setting up inception_4e/relu_5x5_reduce
I0509 21:49:38.142710 17752 net.cpp:112] Top shape: 32 32 14 14 (200704)
I0509 21:49:38.142716 17752 layer_factory.hpp:74] Creating layer inception_4e/5x5
I0509 21:49:38.142724 17752 net.cpp:76] Creating Layer inception_4e/5x5
I0509 21:49:38.142729 17752 net.cpp:372] inception_4e/5x5 <- inception_4e/5x5_reduce
I0509 21:49:38.142740 17752 net.cpp:334] inception_4e/5x5 -> inception_4e/5x5
I0509 21:49:38.142748 17752 net.cpp:105] Setting up inception_4e/5x5
I0509 21:49:38.143615 17752 net.cpp:112] Top shape: 32 128 14 14 (802816)
I0509 21:49:38.143628 17752 layer_factory.hpp:74] Creating layer inception_4e/relu_5x5
I0509 21:49:38.143636 17752 net.cpp:76] Creating Layer inception_4e/relu_5x5
I0509 21:49:38.143642 17752 net.cpp:372] inception_4e/relu_5x5 <- inception_4e/5x5
I0509 21:49:38.143649 17752 net.cpp:323] inception_4e/relu_5x5 -> inception_4e/5x5 (in-place)
I0509 21:49:38.143656 17752 net.cpp:105] Setting up inception_4e/relu_5x5
I0509 21:49:38.143662 17752 net.cpp:112] Top shape: 32 128 14 14 (802816)
I0509 21:49:38.143667 17752 layer_factory.hpp:74] Creating layer inception_4e/pool
I0509 21:49:38.143678 17752 net.cpp:76] Creating Layer inception_4e/pool
I0509 21:49:38.143688 17752 net.cpp:372] inception_4e/pool <- inception_4d/output_inception_4d/output_0_split_4
I0509 21:49:38.143697 17752 net.cpp:334] inception_4e/pool -> inception_4e/pool
I0509 21:49:38.143705 17752 net.cpp:105] Setting up inception_4e/pool
I0509 21:49:38.143713 17752 net.cpp:112] Top shape: 32 528 14 14 (3311616)
I0509 21:49:38.143720 17752 layer_factory.hpp:74] Creating layer inception_4e/pool_proj
I0509 21:49:38.143733 17752 net.cpp:76] Creating Layer inception_4e/pool_proj
I0509 21:49:38.143738 17752 net.cpp:372] inception_4e/pool_proj <- inception_4e/pool
I0509 21:49:38.143746 17752 net.cpp:334] inception_4e/pool_proj -> inception_4e/pool_proj
I0509 21:49:38.143756 17752 net.cpp:105] Setting up inception_4e/pool_proj
I0509 21:49:38.144335 17752 net.cpp:112] Top shape: 32 128 14 14 (802816)
I0509 21:49:38.144350 17752 layer_factory.hpp:74] Creating layer inception_4e/relu_pool_proj
I0509 21:49:38.144357 17752 net.cpp:76] Creating Layer inception_4e/relu_pool_proj
I0509 21:49:38.144364 17752 net.cpp:372] inception_4e/relu_pool_proj <- inception_4e/pool_proj
I0509 21:49:38.144371 17752 net.cpp:323] inception_4e/relu_pool_proj -> inception_4e/pool_proj (in-place)
I0509 21:49:38.144378 17752 net.cpp:105] Setting up inception_4e/relu_pool_proj
I0509 21:49:38.144384 17752 net.cpp:112] Top shape: 32 128 14 14 (802816)
I0509 21:49:38.144389 17752 layer_factory.hpp:74] Creating layer inception_4e/output
I0509 21:49:38.144397 17752 net.cpp:76] Creating Layer inception_4e/output
I0509 21:49:38.144402 17752 net.cpp:372] inception_4e/output <- inception_4e/1x1
I0509 21:49:38.144409 17752 net.cpp:372] inception_4e/output <- inception_4e/3x3
I0509 21:49:38.144415 17752 net.cpp:372] inception_4e/output <- inception_4e/5x5
I0509 21:49:38.144423 17752 net.cpp:372] inception_4e/output <- inception_4e/pool_proj
I0509 21:49:38.144429 17752 net.cpp:334] inception_4e/output -> inception_4e/output
I0509 21:49:38.144438 17752 net.cpp:105] Setting up inception_4e/output
I0509 21:49:38.144443 17752 net.cpp:112] Top shape: 32 832 14 14 (5218304)
I0509 21:49:38.144449 17752 layer_factory.hpp:74] Creating layer pool4/3x3_s2
I0509 21:49:38.144459 17752 net.cpp:76] Creating Layer pool4/3x3_s2
I0509 21:49:38.144477 17752 net.cpp:372] pool4/3x3_s2 <- inception_4e/output
I0509 21:49:38.144486 17752 net.cpp:334] pool4/3x3_s2 -> pool4/3x3_s2
I0509 21:49:38.144495 17752 net.cpp:105] Setting up pool4/3x3_s2
I0509 21:49:38.144502 17752 net.cpp:112] Top shape: 32 832 7 7 (1304576)
I0509 21:49:38.144507 17752 layer_factory.hpp:74] Creating layer pool4/3x3_s2_pool4/3x3_s2_0_split
I0509 21:49:38.144517 17752 net.cpp:76] Creating Layer pool4/3x3_s2_pool4/3x3_s2_0_split
I0509 21:49:38.144523 17752 net.cpp:372] pool4/3x3_s2_pool4/3x3_s2_0_split <- pool4/3x3_s2
I0509 21:49:38.144531 17752 net.cpp:334] pool4/3x3_s2_pool4/3x3_s2_0_split -> pool4/3x3_s2_pool4/3x3_s2_0_split_0
I0509 21:49:38.144539 17752 net.cpp:334] pool4/3x3_s2_pool4/3x3_s2_0_split -> pool4/3x3_s2_pool4/3x3_s2_0_split_1
I0509 21:49:38.144547 17752 net.cpp:334] pool4/3x3_s2_pool4/3x3_s2_0_split -> pool4/3x3_s2_pool4/3x3_s2_0_split_2
I0509 21:49:38.144556 17752 net.cpp:334] pool4/3x3_s2_pool4/3x3_s2_0_split -> pool4/3x3_s2_pool4/3x3_s2_0_split_3
I0509 21:49:38.144564 17752 net.cpp:105] Setting up pool4/3x3_s2_pool4/3x3_s2_0_split
I0509 21:49:38.144570 17752 net.cpp:112] Top shape: 32 832 7 7 (1304576)
I0509 21:49:38.144575 17752 net.cpp:112] Top shape: 32 832 7 7 (1304576)
I0509 21:49:38.144580 17752 net.cpp:112] Top shape: 32 832 7 7 (1304576)
I0509 21:49:38.144585 17752 net.cpp:112] Top shape: 32 832 7 7 (1304576)
I0509 21:49:38.144590 17752 layer_factory.hpp:74] Creating layer inception_5a/1x1
I0509 21:49:38.144601 17752 net.cpp:76] Creating Layer inception_5a/1x1
I0509 21:49:38.144608 17752 net.cpp:372] inception_5a/1x1 <- pool4/3x3_s2_pool4/3x3_s2_0_split_0
I0509 21:49:38.144618 17752 net.cpp:334] inception_5a/1x1 -> inception_5a/1x1
I0509 21:49:38.144629 17752 net.cpp:105] Setting up inception_5a/1x1
I0509 21:49:38.146409 17752 net.cpp:112] Top shape: 32 256 7 7 (401408)
I0509 21:49:38.146425 17752 layer_factory.hpp:74] Creating layer inception_5a/relu_1x1
I0509 21:49:38.146435 17752 net.cpp:76] Creating Layer inception_5a/relu_1x1
I0509 21:49:38.146457 17752 net.cpp:372] inception_5a/relu_1x1 <- inception_5a/1x1
I0509 21:49:38.146466 17752 net.cpp:323] inception_5a/relu_1x1 -> inception_5a/1x1 (in-place)
I0509 21:49:38.146474 17752 net.cpp:105] Setting up inception_5a/relu_1x1
I0509 21:49:38.146481 17752 net.cpp:112] Top shape: 32 256 7 7 (401408)
I0509 21:49:38.146486 17752 layer_factory.hpp:74] Creating layer inception_5a/3x3_reduce
I0509 21:49:38.146497 17752 net.cpp:76] Creating Layer inception_5a/3x3_reduce
I0509 21:49:38.146503 17752 net.cpp:372] inception_5a/3x3_reduce <- pool4/3x3_s2_pool4/3x3_s2_0_split_1
I0509 21:49:38.146512 17752 net.cpp:334] inception_5a/3x3_reduce -> inception_5a/3x3_reduce
I0509 21:49:38.146520 17752 net.cpp:105] Setting up inception_5a/3x3_reduce
I0509 21:49:38.147641 17752 net.cpp:112] Top shape: 32 160 7 7 (250880)
I0509 21:49:38.147655 17752 layer_factory.hpp:74] Creating layer inception_5a/relu_3x3_reduce
I0509 21:49:38.147663 17752 net.cpp:76] Creating Layer inception_5a/relu_3x3_reduce
I0509 21:49:38.147670 17752 net.cpp:372] inception_5a/relu_3x3_reduce <- inception_5a/3x3_reduce
I0509 21:49:38.147680 17752 net.cpp:323] inception_5a/relu_3x3_reduce -> inception_5a/3x3_reduce (in-place)
I0509 21:49:38.147687 17752 net.cpp:105] Setting up inception_5a/relu_3x3_reduce
I0509 21:49:38.147693 17752 net.cpp:112] Top shape: 32 160 7 7 (250880)
I0509 21:49:38.147698 17752 layer_factory.hpp:74] Creating layer inception_5a/3x3
I0509 21:49:38.147707 17752 net.cpp:76] Creating Layer inception_5a/3x3
I0509 21:49:38.147712 17752 net.cpp:372] inception_5a/3x3 <- inception_5a/3x3_reduce
I0509 21:49:38.147722 17752 net.cpp:334] inception_5a/3x3 -> inception_5a/3x3
I0509 21:49:38.147732 17752 net.cpp:105] Setting up inception_5a/3x3
I0509 21:49:38.151574 17752 net.cpp:112] Top shape: 32 320 7 7 (501760)
I0509 21:49:38.151592 17752 layer_factory.hpp:74] Creating layer inception_5a/relu_3x3
I0509 21:49:38.151602 17752 net.cpp:76] Creating Layer inception_5a/relu_3x3
I0509 21:49:38.151607 17752 net.cpp:372] inception_5a/relu_3x3 <- inception_5a/3x3
I0509 21:49:38.151633 17752 net.cpp:323] inception_5a/relu_3x3 -> inception_5a/3x3 (in-place)
I0509 21:49:38.151643 17752 net.cpp:105] Setting up inception_5a/relu_3x3
I0509 21:49:38.151648 17752 net.cpp:112] Top shape: 32 320 7 7 (501760)
I0509 21:49:38.151654 17752 layer_factory.hpp:74] Creating layer inception_5a/5x5_reduce
I0509 21:49:38.151666 17752 net.cpp:76] Creating Layer inception_5a/5x5_reduce
I0509 21:49:38.151674 17752 net.cpp:372] inception_5a/5x5_reduce <- pool4/3x3_s2_pool4/3x3_s2_0_split_2
I0509 21:49:38.151682 17752 net.cpp:334] inception_5a/5x5_reduce -> inception_5a/5x5_reduce
I0509 21:49:38.151691 17752 net.cpp:105] Setting up inception_5a/5x5_reduce
I0509 21:49:38.151924 17752 net.cpp:112] Top shape: 32 32 7 7 (50176)
I0509 21:49:38.151937 17752 layer_factory.hpp:74] Creating layer inception_5a/relu_5x5_reduce
I0509 21:49:38.151944 17752 net.cpp:76] Creating Layer inception_5a/relu_5x5_reduce
I0509 21:49:38.151950 17752 net.cpp:372] inception_5a/relu_5x5_reduce <- inception_5a/5x5_reduce
I0509 21:49:38.151957 17752 net.cpp:323] inception_5a/relu_5x5_reduce -> inception_5a/5x5_reduce (in-place)
I0509 21:49:38.151965 17752 net.cpp:105] Setting up inception_5a/relu_5x5_reduce
I0509 21:49:38.151970 17752 net.cpp:112] Top shape: 32 32 7 7 (50176)
I0509 21:49:38.151975 17752 layer_factory.hpp:74] Creating layer inception_5a/5x5
I0509 21:49:38.151986 17752 net.cpp:76] Creating Layer inception_5a/5x5
I0509 21:49:38.151993 17752 net.cpp:372] inception_5a/5x5 <- inception_5a/5x5_reduce
I0509 21:49:38.152001 17752 net.cpp:334] inception_5a/5x5 -> inception_5a/5x5
I0509 21:49:38.152011 17752 net.cpp:105] Setting up inception_5a/5x5
I0509 21:49:38.152884 17752 net.cpp:112] Top shape: 32 128 7 7 (200704)
I0509 21:49:38.152897 17752 layer_factory.hpp:74] Creating layer inception_5a/relu_5x5
I0509 21:49:38.152905 17752 net.cpp:76] Creating Layer inception_5a/relu_5x5
I0509 21:49:38.154569 17752 net.cpp:372] inception_5a/relu_5x5 <- inception_5a/5x5
I0509 21:49:38.154583 17752 net.cpp:323] inception_5a/relu_5x5 -> inception_5a/5x5 (in-place)
I0509 21:49:38.154593 17752 net.cpp:105] Setting up inception_5a/relu_5x5
I0509 21:49:38.154599 17752 net.cpp:112] Top shape: 32 128 7 7 (200704)
I0509 21:49:38.154604 17752 layer_factory.hpp:74] Creating layer inception_5a/pool
I0509 21:49:38.154613 17752 net.cpp:76] Creating Layer inception_5a/pool
I0509 21:49:38.154619 17752 net.cpp:372] inception_5a/pool <- pool4/3x3_s2_pool4/3x3_s2_0_split_3
I0509 21:49:38.154628 17752 net.cpp:334] inception_5a/pool -> inception_5a/pool
I0509 21:49:38.154657 17752 net.cpp:105] Setting up inception_5a/pool
I0509 21:49:38.154669 17752 net.cpp:112] Top shape: 32 832 7 7 (1304576)
I0509 21:49:38.154675 17752 layer_factory.hpp:74] Creating layer inception_5a/pool_proj
I0509 21:49:38.154683 17752 net.cpp:76] Creating Layer inception_5a/pool_proj
I0509 21:49:38.154690 17752 net.cpp:372] inception_5a/pool_proj <- inception_5a/pool
I0509 21:49:38.154698 17752 net.cpp:334] inception_5a/pool_proj -> inception_5a/pool_proj
I0509 21:49:38.154707 17752 net.cpp:105] Setting up inception_5a/pool_proj
I0509 21:49:38.155653 17752 net.cpp:112] Top shape: 32 128 7 7 (200704)
I0509 21:49:38.155668 17752 layer_factory.hpp:74] Creating layer inception_5a/relu_pool_proj
I0509 21:49:38.155676 17752 net.cpp:76] Creating Layer inception_5a/relu_pool_proj
I0509 21:49:38.155683 17752 net.cpp:372] inception_5a/relu_pool_proj <- inception_5a/pool_proj
I0509 21:49:38.155691 17752 net.cpp:323] inception_5a/relu_pool_proj -> inception_5a/pool_proj (in-place)
I0509 21:49:38.155700 17752 net.cpp:105] Setting up inception_5a/relu_pool_proj
I0509 21:49:38.155705 17752 net.cpp:112] Top shape: 32 128 7 7 (200704)
I0509 21:49:38.155711 17752 layer_factory.hpp:74] Creating layer inception_5a/output
I0509 21:49:38.155719 17752 net.cpp:76] Creating Layer inception_5a/output
I0509 21:49:38.155725 17752 net.cpp:372] inception_5a/output <- inception_5a/1x1
I0509 21:49:38.155731 17752 net.cpp:372] inception_5a/output <- inception_5a/3x3
I0509 21:49:38.155737 17752 net.cpp:372] inception_5a/output <- inception_5a/5x5
I0509 21:49:38.155761 17752 net.cpp:372] inception_5a/output <- inception_5a/pool_proj
I0509 21:49:38.155768 17752 net.cpp:334] inception_5a/output -> inception_5a/output
I0509 21:49:38.155777 17752 net.cpp:105] Setting up inception_5a/output
I0509 21:49:38.155783 17752 net.cpp:112] Top shape: 32 832 7 7 (1304576)
I0509 21:49:38.155789 17752 layer_factory.hpp:74] Creating layer inception_5a/output_inception_5a/output_0_split
I0509 21:49:38.155797 17752 net.cpp:76] Creating Layer inception_5a/output_inception_5a/output_0_split
I0509 21:49:38.155802 17752 net.cpp:372] inception_5a/output_inception_5a/output_0_split <- inception_5a/output
I0509 21:49:38.155813 17752 net.cpp:334] inception_5a/output_inception_5a/output_0_split -> inception_5a/output_inception_5a/output_0_split_0
I0509 21:49:38.155822 17752 net.cpp:334] inception_5a/output_inception_5a/output_0_split -> inception_5a/output_inception_5a/output_0_split_1
I0509 21:49:38.155832 17752 net.cpp:334] inception_5a/output_inception_5a/output_0_split -> inception_5a/output_inception_5a/output_0_split_2
I0509 21:49:38.155841 17752 net.cpp:334] inception_5a/output_inception_5a/output_0_split -> inception_5a/output_inception_5a/output_0_split_3
I0509 21:49:38.155849 17752 net.cpp:105] Setting up inception_5a/output_inception_5a/output_0_split
I0509 21:49:38.155855 17752 net.cpp:112] Top shape: 32 832 7 7 (1304576)
I0509 21:49:38.155861 17752 net.cpp:112] Top shape: 32 832 7 7 (1304576)
I0509 21:49:38.155866 17752 net.cpp:112] Top shape: 32 832 7 7 (1304576)
I0509 21:49:38.155870 17752 net.cpp:112] Top shape: 32 832 7 7 (1304576)
I0509 21:49:38.155876 17752 layer_factory.hpp:74] Creating layer inception_5b/1x1
I0509 21:49:38.155886 17752 net.cpp:76] Creating Layer inception_5b/1x1
I0509 21:49:38.155892 17752 net.cpp:372] inception_5b/1x1 <- inception_5a/output_inception_5a/output_0_split_0
I0509 21:49:38.155900 17752 net.cpp:334] inception_5b/1x1 -> inception_5b/1x1
I0509 21:49:38.155910 17752 net.cpp:105] Setting up inception_5b/1x1
I0509 21:49:38.158578 17752 net.cpp:112] Top shape: 32 384 7 7 (602112)
I0509 21:49:38.158598 17752 layer_factory.hpp:74] Creating layer inception_5b/relu_1x1
I0509 21:49:38.158607 17752 net.cpp:76] Creating Layer inception_5b/relu_1x1
I0509 21:49:38.158614 17752 net.cpp:372] inception_5b/relu_1x1 <- inception_5b/1x1
I0509 21:49:38.158622 17752 net.cpp:323] inception_5b/relu_1x1 -> inception_5b/1x1 (in-place)
I0509 21:49:38.158629 17752 net.cpp:105] Setting up inception_5b/relu_1x1
I0509 21:49:38.158634 17752 net.cpp:112] Top shape: 32 384 7 7 (602112)
I0509 21:49:38.158640 17752 layer_factory.hpp:74] Creating layer inception_5b/3x3_reduce
I0509 21:49:38.158651 17752 net.cpp:76] Creating Layer inception_5b/3x3_reduce
I0509 21:49:38.158658 17752 net.cpp:372] inception_5b/3x3_reduce <- inception_5a/output_inception_5a/output_0_split_1
I0509 21:49:38.158666 17752 net.cpp:334] inception_5b/3x3_reduce -> inception_5b/3x3_reduce
I0509 21:49:38.158677 17752 net.cpp:105] Setting up inception_5b/3x3_reduce
I0509 21:49:38.160017 17752 net.cpp:112] Top shape: 32 192 7 7 (301056)
I0509 21:49:38.160032 17752 layer_factory.hpp:74] Creating layer inception_5b/relu_3x3_reduce
I0509 21:49:38.160039 17752 net.cpp:76] Creating Layer inception_5b/relu_3x3_reduce
I0509 21:49:38.160047 17752 net.cpp:372] inception_5b/relu_3x3_reduce <- inception_5b/3x3_reduce
I0509 21:49:38.160055 17752 net.cpp:323] inception_5b/relu_3x3_reduce -> inception_5b/3x3_reduce (in-place)
I0509 21:49:38.160064 17752 net.cpp:105] Setting up inception_5b/relu_3x3_reduce
I0509 21:49:38.160069 17752 net.cpp:112] Top shape: 32 192 7 7 (301056)
I0509 21:49:38.160075 17752 layer_factory.hpp:74] Creating layer inception_5b/3x3
I0509 21:49:38.160084 17752 net.cpp:76] Creating Layer inception_5b/3x3
I0509 21:49:38.160089 17752 net.cpp:372] inception_5b/3x3 <- inception_5b/3x3_reduce
I0509 21:49:38.160099 17752 net.cpp:334] inception_5b/3x3 -> inception_5b/3x3
I0509 21:49:38.160107 17752 net.cpp:105] Setting up inception_5b/3x3
I0509 21:49:38.165594 17752 net.cpp:112] Top shape: 32 384 7 7 (602112)
I0509 21:49:38.165635 17752 layer_factory.hpp:74] Creating layer inception_5b/relu_3x3
I0509 21:49:38.165645 17752 net.cpp:76] Creating Layer inception_5b/relu_3x3
I0509 21:49:38.165652 17752 net.cpp:372] inception_5b/relu_3x3 <- inception_5b/3x3
I0509 21:49:38.165662 17752 net.cpp:323] inception_5b/relu_3x3 -> inception_5b/3x3 (in-place)
I0509 21:49:38.165669 17752 net.cpp:105] Setting up inception_5b/relu_3x3
I0509 21:49:38.165675 17752 net.cpp:112] Top shape: 32 384 7 7 (602112)
I0509 21:49:38.165680 17752 layer_factory.hpp:74] Creating layer inception_5b/5x5_reduce
I0509 21:49:38.165689 17752 net.cpp:76] Creating Layer inception_5b/5x5_reduce
I0509 21:49:38.165695 17752 net.cpp:372] inception_5b/5x5_reduce <- inception_5a/output_inception_5a/output_0_split_2
I0509 21:49:38.165706 17752 net.cpp:334] inception_5b/5x5_reduce -> inception_5b/5x5_reduce
I0509 21:49:38.165716 17752 net.cpp:105] Setting up inception_5b/5x5_reduce
I0509 21:49:38.166059 17752 net.cpp:112] Top shape: 32 48 7 7 (75264)
I0509 21:49:38.166072 17752 layer_factory.hpp:74] Creating layer inception_5b/relu_5x5_reduce
I0509 21:49:38.166080 17752 net.cpp:76] Creating Layer inception_5b/relu_5x5_reduce
I0509 21:49:38.166090 17752 net.cpp:372] inception_5b/relu_5x5_reduce <- inception_5b/5x5_reduce
I0509 21:49:38.166096 17752 net.cpp:323] inception_5b/relu_5x5_reduce -> inception_5b/5x5_reduce (in-place)
I0509 21:49:38.166105 17752 net.cpp:105] Setting up inception_5b/relu_5x5_reduce
I0509 21:49:38.166110 17752 net.cpp:112] Top shape: 32 48 7 7 (75264)
I0509 21:49:38.166118 17752 layer_factory.hpp:74] Creating layer inception_5b/5x5
I0509 21:49:38.166127 17752 net.cpp:76] Creating Layer inception_5b/5x5
I0509 21:49:38.166132 17752 net.cpp:372] inception_5b/5x5 <- inception_5b/5x5_reduce
I0509 21:49:38.166143 17752 net.cpp:334] inception_5b/5x5 -> inception_5b/5x5
I0509 21:49:38.166152 17752 net.cpp:105] Setting up inception_5b/5x5
I0509 21:49:38.167451 17752 net.cpp:112] Top shape: 32 128 7 7 (200704)
I0509 21:49:38.167467 17752 layer_factory.hpp:74] Creating layer inception_5b/relu_5x5
I0509 21:49:38.167475 17752 net.cpp:76] Creating Layer inception_5b/relu_5x5
I0509 21:49:38.167482 17752 net.cpp:372] inception_5b/relu_5x5 <- inception_5b/5x5
I0509 21:49:38.167490 17752 net.cpp:323] inception_5b/relu_5x5 -> inception_5b/5x5 (in-place)
I0509 21:49:38.167497 17752 net.cpp:105] Setting up inception_5b/relu_5x5
I0509 21:49:38.167502 17752 net.cpp:112] Top shape: 32 128 7 7 (200704)
I0509 21:49:38.167507 17752 layer_factory.hpp:74] Creating layer inception_5b/pool
I0509 21:49:38.167515 17752 net.cpp:76] Creating Layer inception_5b/pool
I0509 21:49:38.167521 17752 net.cpp:372] inception_5b/pool <- inception_5a/output_inception_5a/output_0_split_3
I0509 21:49:38.167531 17752 net.cpp:334] inception_5b/pool -> inception_5b/pool
I0509 21:49:38.167541 17752 net.cpp:105] Setting up inception_5b/pool
I0509 21:49:38.167549 17752 net.cpp:112] Top shape: 32 832 7 7 (1304576)
I0509 21:49:38.167556 17752 layer_factory.hpp:74] Creating layer inception_5b/pool_proj
I0509 21:49:38.167564 17752 net.cpp:76] Creating Layer inception_5b/pool_proj
I0509 21:49:38.167570 17752 net.cpp:372] inception_5b/pool_proj <- inception_5b/pool
I0509 21:49:38.167582 17752 net.cpp:334] inception_5b/pool_proj -> inception_5b/pool_proj
I0509 21:49:38.167592 17752 net.cpp:105] Setting up inception_5b/pool_proj
I0509 21:49:38.168491 17752 net.cpp:112] Top shape: 32 128 7 7 (200704)
I0509 21:49:38.168506 17752 layer_factory.hpp:74] Creating layer inception_5b/relu_pool_proj
I0509 21:49:38.168516 17752 net.cpp:76] Creating Layer inception_5b/relu_pool_proj
I0509 21:49:38.168524 17752 net.cpp:372] inception_5b/relu_pool_proj <- inception_5b/pool_proj
I0509 21:49:38.168531 17752 net.cpp:323] inception_5b/relu_pool_proj -> inception_5b/pool_proj (in-place)
I0509 21:49:38.168540 17752 net.cpp:105] Setting up inception_5b/relu_pool_proj
I0509 21:49:38.168545 17752 net.cpp:112] Top shape: 32 128 7 7 (200704)
I0509 21:49:38.168550 17752 layer_factory.hpp:74] Creating layer inception_5b/output
I0509 21:49:38.168573 17752 net.cpp:76] Creating Layer inception_5b/output
I0509 21:49:38.168581 17752 net.cpp:372] inception_5b/output <- inception_5b/1x1
I0509 21:49:38.168587 17752 net.cpp:372] inception_5b/output <- inception_5b/3x3
I0509 21:49:38.168593 17752 net.cpp:372] inception_5b/output <- inception_5b/5x5
I0509 21:49:38.168601 17752 net.cpp:372] inception_5b/output <- inception_5b/pool_proj
I0509 21:49:38.168607 17752 net.cpp:334] inception_5b/output -> inception_5b/output
I0509 21:49:38.168617 17752 net.cpp:105] Setting up inception_5b/output
I0509 21:49:38.168622 17752 net.cpp:112] Top shape: 32 1024 7 7 (1605632)
I0509 21:49:38.168628 17752 layer_factory.hpp:74] Creating layer pool5/7x7_s1
I0509 21:49:38.168635 17752 net.cpp:76] Creating Layer pool5/7x7_s1
I0509 21:49:38.168642 17752 net.cpp:372] pool5/7x7_s1 <- inception_5b/output
I0509 21:49:38.168649 17752 net.cpp:334] pool5/7x7_s1 -> pool5/7x7_s1
I0509 21:49:38.168658 17752 net.cpp:105] Setting up pool5/7x7_s1
I0509 21:49:38.168664 17752 net.cpp:112] Top shape: 32 1024 1 1 (32768)
I0509 21:49:38.168669 17752 layer_factory.hpp:74] Creating layer pool5/drop_7x7_s1
I0509 21:49:38.168683 17752 net.cpp:76] Creating Layer pool5/drop_7x7_s1
I0509 21:49:38.168689 17752 net.cpp:372] pool5/drop_7x7_s1 <- pool5/7x7_s1
I0509 21:49:38.168695 17752 net.cpp:323] pool5/drop_7x7_s1 -> pool5/7x7_s1 (in-place)
I0509 21:49:38.168704 17752 net.cpp:105] Setting up pool5/drop_7x7_s1
I0509 21:49:38.168710 17752 net.cpp:112] Top shape: 32 1024 1 1 (32768)
I0509 21:49:38.168716 17752 layer_factory.hpp:74] Creating layer loss3/classifier
I0509 21:49:38.168727 17752 net.cpp:76] Creating Layer loss3/classifier
I0509 21:49:38.168733 17752 net.cpp:372] loss3/classifier <- pool5/7x7_s1
I0509 21:49:38.168742 17752 net.cpp:334] loss3/classifier -> loss3/classifier
I0509 21:49:38.168752 17752 net.cpp:105] Setting up loss3/classifier
I0509 21:49:38.168784 17752 net.cpp:112] Top shape: 32 2 1 1 (64)
I0509 21:49:38.168794 17752 layer_factory.hpp:74] Creating layer loss3/classifier_loss3/classifier_0_split
I0509 21:49:38.168804 17752 net.cpp:76] Creating Layer loss3/classifier_loss3/classifier_0_split
I0509 21:49:38.168812 17752 net.cpp:372] loss3/classifier_loss3/classifier_0_split <- loss3/classifier
I0509 21:49:38.168818 17752 net.cpp:334] loss3/classifier_loss3/classifier_0_split -> loss3/classifier_loss3/classifier_0_split_0
I0509 21:49:38.168828 17752 net.cpp:334] loss3/classifier_loss3/classifier_0_split -> loss3/classifier_loss3/classifier_0_split_1
I0509 21:49:38.168836 17752 net.cpp:105] Setting up loss3/classifier_loss3/classifier_0_split
I0509 21:49:38.168843 17752 net.cpp:112] Top shape: 32 2 1 1 (64)
I0509 21:49:38.168866 17752 net.cpp:112] Top shape: 32 2 1 1 (64)
I0509 21:49:38.168872 17752 layer_factory.hpp:74] Creating layer loss3/loss3
I0509 21:49:38.168884 17752 net.cpp:76] Creating Layer loss3/loss3
I0509 21:49:38.168894 17752 net.cpp:372] loss3/loss3 <- loss3/classifier_loss3/classifier_0_split_0
I0509 21:49:38.168900 17752 net.cpp:372] loss3/loss3 <- label_data_1_split_4
I0509 21:49:38.168908 17752 net.cpp:334] loss3/loss3 -> loss3/loss3
I0509 21:49:38.168917 17752 net.cpp:105] Setting up loss3/loss3
I0509 21:49:38.168926 17752 layer_factory.hpp:74] Creating layer loss3/loss3
I0509 21:49:38.168941 17752 net.cpp:112] Top shape: 1 1 1 1 (1)
I0509 21:49:38.168948 17752 net.cpp:118]     with loss weight 1
I0509 21:49:38.168965 17752 layer_factory.hpp:74] Creating layer loss3/top-1
I0509 21:49:38.168973 17752 net.cpp:76] Creating Layer loss3/top-1
I0509 21:49:38.168979 17752 net.cpp:372] loss3/top-1 <- loss3/classifier_loss3/classifier_0_split_1
I0509 21:49:38.168987 17752 net.cpp:372] loss3/top-1 <- label_data_1_split_5
I0509 21:49:38.168997 17752 net.cpp:334] loss3/top-1 -> loss3/top-1
I0509 21:49:38.169005 17752 net.cpp:105] Setting up loss3/top-1
I0509 21:49:38.169011 17752 net.cpp:112] Top shape: 1 1 1 1 (1)
I0509 21:49:38.169018 17752 net.cpp:165] loss3/top-1 does not need backward computation.
I0509 21:49:38.169023 17752 net.cpp:163] loss3/loss3 needs backward computation.
I0509 21:49:38.169035 17752 net.cpp:163] loss3/classifier_loss3/classifier_0_split needs backward computation.
I0509 21:49:38.169041 17752 net.cpp:163] loss3/classifier needs backward computation.
I0509 21:49:38.169047 17752 net.cpp:163] pool5/drop_7x7_s1 needs backward computation.
…
