…
I0509 23:09:34.668771 23234 net.cpp:253] The NetState phase (0) differed from the phase (1) specified by a rule in layer loss3/top-1
I0509 23:09:34.670094 23234 net.cpp:42] Initializing net from parameters: 
name: "GoogleNet"
state {
  phase: TRAIN
}
layer {
  name: "data"
  type: "Data"
  top: "data"
  top: "label"
  include {
    phase: TRAIN
  }
  transform_param {
    mirror: true
    crop_size: 224
    mean_value: 104
    mean_value: 117
    mean_value: 123
  }
  data_param {
    source: "train_lmdb"
    batch_size: 32
    backend: LMDB
  }
}
layer {
  name: "conv1/7x7_s2"
  type: "Convolution"
  bottom: "data"
  top: "conv1/7x7_s2"
  param {
    lr_mult: 1
    decay_mult: 1
  }
  param {
    lr_mult: 2
    decay_mult: 0
  }
  convolution_param {
    num_output: 64
    pad: 3
    kernel_size: 7
    stride: 2
    weight_filler {
      type: "xavier"
      std: 0.1
    }
    bias_filler {
      type: "constant"
      value: 0.2
    }
  }
}
layer {
  name: "conv1/relu_7x7"
  type: "ReLU"
  bottom: "conv1/7x7_s2"
  top: "conv1/7x7_s2"
}
layer {
  name: "pool1/3x3_s2"
  type: "Pooling"
  bottom: "conv1/7x7_s2"
  top: "pool1/3x3_s2"
  pooling_param {
    pool: MAX
    kernel_size: 3
    stride: 2
  }
}
layer {
  name: "pool1/norm1"
  type: "LRN"
  bottom: "pool1/3x3_s2"
  top: "pool1/norm1"
  lrn_param {
    local_size: 5
    alpha: 0.0001
    beta: 0.75
  }
}
layer {
  name: "conv2/3x3_reduce"
  type: "Convolution"
  bottom: "pool1/norm1"
  top: "conv2/3x3_reduce"
  param {
    lr_mult: 1
    decay_mult: 1
  }
  param {
    lr_mult: 2
    decay_mult: 0
  }
  convolution_param {
    num_output: 64
    kernel_size: 1
    weight_filler {
      type: "xavier"
      std: 0.1
    }
    bias_filler {
      type: "constant"
      value: 0.2
    }
  }
}
layer {
  name: "conv2/relu_3x3_reduce"
  type: "ReLU"
  bottom: "conv2/3x3_reduce"
  top: "conv2/3x3_reduce"
}
layer {
  name: "conv2/3x3"
  type: "Convolution"
  bottom: "conv2/3x3_reduce"
  top: "conv2/3x3"
  param {
    lr_mult: 1
    decay_mult: 1
  }
  param {
    lr_mult: 2
    decay_mult: 0
  }
  convolution_param {
    num_output: 192
    pad: 1
    kernel_size: 3
    weight_filler {
      type: "xavier"
      std: 0.03
    }
    bias_filler {
      type: "constant"
      value: 0.2
    }
  }
}
layer {
  name: "conv2/relu_3x3"
  type: "ReLU"
  bottom: "conv2/3x3"
  top: "conv2/3x3"
}
layer {
  name: "conv2/norm2"
  type: "LRN"
  bottom: "conv2/3x3"
  top: "conv2/norm2"
  lrn_param {
    local_size: 5
    alpha: 0.0001
    beta: 0.75
  }
}
layer {
  name: "pool2/3x3_s2"
  type: "Pooling"
  bottom: "conv2/norm2"
  top: "pool2/3x3_s2"
  pooling_param {
    pool: MAX
    kernel_size: 3
    stride: 2
  }
}
layer {
  name: "inception_3a/1x1"
  type: "Convolution"
  bottom: "pool2/3x3_s2"
  top: "inception_3a/1x1"
  param {
    lr_mult: 1
    decay_mult: 1
  }
  param {
    lr_mult: 2
    decay_mult: 0
  }
  convolution_param {
    num_output: 64
    kernel_size: 1
    weight_filler {
      type: "xavier"
      std: 0.03
    }
    bias_filler {
      type: "constant"
      value: 0.2
    }
  }
}
layer {
  name: "inception_3a/relu_1x1"
  type: "ReLU"
  bottom: "inception_3a/1x1"
  top: "inception_3a/1x1"
}
layer {
  name: "inception_3a/3x3_reduce"
  type: "Convolution"
  bottom: "pool2/3x3_s2"
  top: "inception_3a/3x3_reduce"
  param {
    lr_mult: 1
    decay_mult: 1
  }
  param {
    lr_mult: 2
    decay_mult: 0
  }
  convolution_param {
    num_output: 96
    kernel_size: 1
    weight_filler {
      type: "xavier"
      std: 0.09
    }
    bias_filler {
      type: "constant"
      value: 0.2
    }
  }
}
layer {
  name: "inception_3a/relu_3x3_reduce"
  type: "ReLU"
  bottom: "inception_3a/3x3_reduce"
  top: "inception_3a/3x3_reduce"
}
layer {
  name: "inception_3a/3x3"
  type: "Convolution"
  bottom: "inception_3a/3x3_reduce"
  top: "inception_3a/3x3"
  param {
    lr_mult: 1
    decay_mult: 1
  }
  param {
    lr_mult: 2
    decay_mult: 0
  }
  convolution_param {
    num_output: 128
    pad: 1
    kernel_size: 3
    weight_filler {
      type: "xavier"
      std: 0.03
    }
    bias_filler {
      type: "constant"
      value: 0.2
    }
  }
}
layer {
  name: "inception_3a/relu_3x3"
  type: "ReLU"
  bottom: "inception_3a/3x3"
  top: "inception_3a/3x3"
}
layer {
  name: "inception_3a/5x5_reduce"
  type: "Convolution"
  bottom: "pool2/3x3_s2"
  top: "inception_3a/5x5_reduce"
  param {
    lr_mult: 1
    decay_mult: 1
  }
  param {
    lr_mult: 2
    decay_mult: 0
  }
  convolution_param {
    num_output: 16
    kernel_size: 1
    weight_filler {
      type: "xavier"
      std: 0.2
    }
    bias_filler {
      type: "constant"
      value: 0.2
    }
  }
}
layer {
  name: "inception_3a/relu_5x5_reduce"
  type: "ReLU"
  bottom: "inception_3a/5x5_reduce"
  top: "inception_3a/5x5_reduce"
}
layer {
  name: "inception_3a/5x5"
  type: "Convolution"
  bottom: "inception_3a/5x5_reduce"
  top: "inception_3a/5x5"
  param {
    lr_mult: 1
    decay_mult: 1
  }
  param {
    lr_mult: 2
    decay_mult: 0
  }
  convolution_param {
    num_output: 32
    pad: 2
    kernel_size: 5
    weight_filler {
      type: "xavier"
      std: 0.03
    }
    bias_filler {
      type: "constant"
      value: 0.2
    }
  }
}
layer {
  name: "inception_3a/relu_5x5"
  type: "ReLU"
  bottom: "inception_3a/5x5"
  top: "inception_3a/5x5"
}
layer {
  name: "inception_3a/pool"
  type: "Pooling"
  bottom: "pool2/3x3_s2"
  top: "inception_3a/pool"
  pooling_param {
    pool: MAX
    kernel_size: 3
    stride: 1
    pad: 1
  }
}
layer {
  name: "inception_3a/pool_proj"
  type: "Convolution"
  bottom: "inception_3a/pool"
  top: "inception_3a/pool_proj"
  param {
    lr_mult: 1
    decay_mult: 1
  }
  param {
    lr_mult: 2
    decay_mult: 0
  }
  convolution_param {
    num_output: 32
    kernel_size: 1
    weight_filler {
      type: "xavier"
      std: 0.1
    }
    bias_filler {
      type: "constant"
      value: 0.2
    }
  }
}
layer {
  name: "inception_3a/relu_pool_proj"
  type: "ReLU"
  bottom: "inception_3a/pool_proj"
  top: "inception_3a/pool_proj"
}
layer {
  name: "inception_3a/output"
  type: "Concat"
  bottom: "inception_3a/1x1"
  bottom: "inception_3a/3x3"
  bottom: "inception_3a/5x5"
  bottom: "inception_3a/pool_proj"
  top: "inception_3a/output"
}
layer {
  name: "inception_3b/1x1"
  type: "Convolution"
  bottom: "inception_3a/output"
  top: "inception_3b/1x1"
  param {
    lr_mult: 1
    decay_mult: 1
  }
  param {
    lr_mult: 2
    decay_mult: 0
  }
  convolution_param {
    num_output: 128
    kernel_size: 1
    weight_filler {
      type: "xavier"
      std: 0.03
    }
    bias_filler {
      type: "constant"
      value: 0.2
    }
  }
}
layer {
  name: "inception_3b/relu_1x1"
  type: "ReLU"
  bottom: "inception_3b/1x1"
  top: "inception_3b/1x1"
}
layer {
  name: "inception_3b/3x3_reduce"
  type: "Convolution"
  bottom: "inception_3a/output"
  top: "inception_3b/3x3_reduce"
  param {
    lr_mult: 1
    decay_mult: 1
  }
  param {
    lr_mult: 2
    decay_mult: 0
  }
  convolution_param {
    num_output: 128
    kernel_size: 1
    weight_filler {
      type: "xavier"
      std: 0.09
    }
    bias_filler {
      type: "constant"
      value: 0.2
    }
  }
}
layer {
  name: "inception_3b/relu_3x3_reduce"
  type: "ReLU"
  bottom: "inception_3b/3x3_reduce"
  top: "inception_3b/3x3_reduce"
}
layer {
  name: "inception_3b/3x3"
  type: "Convolution"
  bottom: "inception_3b/3x3_reduce"
  top: "inception_3b/3x3"
  param {
    lr_mult: 1
    decay_mult: 1
  }
  param {
    lr_mult: 2
    decay_mult: 0
  }
  convolution_param {
    num_output: 192
    pad: 1
    kernel_size: 3
    weight_filler {
      type: "xavier"
      std: 0.03
    }
    bias_filler {
      type: "constant"
      value: 0.2
    }
  }
}
layer {
  name: "inception_3b/relu_3x3"
  type: "ReLU"
  bottom: "inception_3b/3x3"
  top: "inception_3b/3x3"
}
layer {
  name: "inception_3b/5x5_reduce"
  type: "Convolution"
  bottom: "inception_3a/output"
  top: "inception_3b/5x5_reduce"
  param {
    lr_mult: 1
    decay_mult: 1
  }
  param {
    lr_mult: 2
    decay_mult: 0
  }
  convolution_param {
    num_output: 32
    kernel_size: 1
    weight_filler {
      type: "xavier"
      std: 0.2
    }
    bias_filler {
      type: "constant"
      value: 0.2
    }
  }
}
layer {
  name: "inception_3b/relu_5x5_reduce"
  type: "ReLU"
  bottom: "inception_3b/5x5_reduce"
  top: "inception_3b/5x5_reduce"
}
layer {
  name: "inception_3b/5x5"
  type: "Convolution"
  bottom: "inception_3b/5x5_reduce"
  top: "inception_3b/5x5"
  param {
    lr_mult: 1
    decay_mult: 1
  }
  param {
    lr_mult: 2
    decay_mult: 0
  }
  convolution_param {
    num_output: 96
    pad: 2
    kernel_size: 5
    weight_filler {
      type: "xavier"
      std: 0.03
    }
    bias_filler {
      type: "constant"
      value: 0.2
    }
  }
}
layer {
  name: "inception_3b/relu_5x5"
  type: "ReLU"
  bottom: "inception_3b/5x5"
  top: "inception_3b/5x5"
}
layer {
  name: "inception_3b/pool"
  type: "Pooling"
  bottom: "inception_3a/output"
  top: "inception_3b/pool"
  pooling_param {
    pool: MAX
    kernel_size: 3
    stride: 1
    pad: 1
  }
}
layer {
  name: "inception_3b/pool_proj"
  type: "Convolution"
  bottom: "inception_3b/pool"
  top: "inception_3b/pool_proj"
  param {
    lr_mult: 1
    decay_mult: 1
  }
  param {
    lr_mult: 2
    decay_mult: 0
  }
  convolution_param {
    num_output: 64
    kernel_size: 1
    weight_filler {
      type: "xavier"
      std: 0.1
    }
    bias_filler {
      type: "constant"
      value: 0.2
    }
  }
}
layer {
  name: "inception_3b/relu_pool_proj"
  type: "ReLU"
  bottom: "inception_3b/pool_proj"
  top: "inception_3b/pool_proj"
}
layer {
  name: "inception_3b/output"
  type: "Concat"
  bottom: "inception_3b/1x1"
  bottom: "inception_3b/3x3"
  bottom: "inception_3b/5x5"
  bottom: "inception_3b/pool_proj"
  top: "inception_3b/output"
}
layer {
  name: "pool3/3x3_s2"
  type: "Pooling"
  bottom: "inception_3b/output"
  top: "pool3/3x3_s2"
  pooling_param {
    pool: MAX
    kernel_size: 3
    stride: 2
  }
}
layer {
  name: "inception_4a/1x1"
  type: "Convolution"
  bottom: "pool3/3x3_s2"
  top: "inception_4a/1x1"
  param {
    lr_mult: 1
    decay_mult: 1
  }
  param {
    lr_mult: 2
    decay_mult: 0
  }
  convolution_param {
    num_output: 192
    kernel_size: 1
    weight_filler {
      type: "xavier"
      std: 0.03
    }
    bias_filler {
      type: "constant"
      value: 0.2
    }
  }
}
layer {
  name: "inception_4a/relu_1x1"
  type: "ReLU"
  bottom: "inception_4a/1x1"
  top: "inception_4a/1x1"
}
layer {
  name: "inception_4a/3x3_reduce"
  type: "Convolution"
  bottom: "pool3/3x3_s2"
  top: "inception_4a/3x3_reduce"
  param {
    lr_mult: 1
    decay_mult: 1
  }
  param {
    lr_mult: 2
    decay_mult: 0
  }
  convolution_param {
    num_output: 96
    kernel_size: 1
    weight_filler {
      type: "xavier"
      std: 0.09
    }
    bias_filler {
      type: "constant"
      value: 0.2
    }
  }
}
layer {
  name: "inception_4a/relu_3x3_reduce"
  type: "ReLU"
  bottom: "inception_4a/3x3_reduce"
  top: "inception_4a/3x3_reduce"
}
layer {
  name: "inception_4a/3x3"
  type: "Convolution"
  bottom: "inception_4a/3x3_reduce"
  top: "inception_4a/3x3"
  param {
    lr_mult: 1
    decay_mult: 1
  }
  param {
    lr_mult: 2
    decay_mult: 0
  }
  convolution_param {
    num_output: 208
    pad: 1
    kernel_size: 3
    weight_filler {
      type: "xavier"
      std: 0.03
    }
    bias_filler {
      type: "constant"
      value: 0.2
    }
  }
}
layer {
  name: "inception_4a/relu_3x3"
  type: "ReLU"
  bottom: "inception_4a/3x3"
  top: "inception_4a/3x3"
}
layer {
  name: "inception_4a/5x5_reduce"
  type: "Convolution"
  bottom: "pool3/3x3_s2"
  top: "inception_4a/5x5_reduce"
  param {
    lr_mult: 1
    decay_mult: 1
  }
  param {
    lr_mult: 2
    decay_mult: 0
  }
  convolution_param {
    num_output: 16
    kernel_size: 1
    weight_filler {
      type: "xavier"
      std: 0.2
    }
    bias_filler {
      type: "constant"
      value: 0.2
    }
  }
}
layer {
  name: "inception_4a/relu_5x5_reduce"
  type: "ReLU"
  bottom: "inception_4a/5x5_reduce"
  top: "inception_4a/5x5_reduce"
}
layer {
  name: "inception_4a/5x5"
  type: "Convolution"
  bottom: "inception_4a/5x5_reduce"
  top: "inception_4a/5x5"
  param {
    lr_mult: 1
    decay_mult: 1
  }
  param {
    lr_mult: 2
    decay_mult: 0
  }
  convolution_param {
    num_output: 48
    pad: 2
    kernel_size: 5
    weight_filler {
      type: "xavier"
      std: 0.03
    }
    bias_filler {
      type: "constant"
      value: 0.2
    }
  }
}
layer {
  name: "inception_4a/relu_5x5"
  type: "ReLU"
  bottom: "inception_4a/5x5"
  top: "inception_4a/5x5"
}
layer {
  name: "inception_4a/pool"
  type: "Pooling"
  bottom: "pool3/3x3_s2"
  top: "inception_4a/pool"
  pooling_param {
    pool: MAX
    kernel_size: 3
    stride: 1
    pad: 1
  }
}
layer {
  name: "inception_4a/pool_proj"
  type: "Convolution"
  bottom: "inception_4a/pool"
  top: "inception_4a/pool_proj"
  param {
    lr_mult: 1
    decay_mult: 1
  }
  param {
    lr_mult: 2
    decay_mult: 0
  }
  convolution_param {
    num_output: 64
    kernel_size: 1
    weight_filler {
      type: "xavier"
      std: 0.1
    }
    bias_filler {
      type: "constant"
      value: 0.2
    }
  }
}
layer {
  name: "inception_4a/relu_pool_proj"
  type: "ReLU"
  bottom: "inception_4a/pool_proj"
  top: "inception_4a/pool_proj"
}
layer {
  name: "inception_4a/output"
  type: "Concat"
  bottom: "inception_4a/1x1"
  bottom: "inception_4a/3x3"
  bottom: "inception_4a/5x5"
  bottom: "inception_4a/pool_proj"
  top: "inception_4a/output"
}
layer {
  name: "loss1/ave_pool"
  type: "Pooling"
  bottom: "inception_4a/output"
  top: "loss1/ave_pool"
  pooling_param {
    pool: AVE
    kernel_size: 5
    stride: 3
  }
}
layer {
  name: "loss1/conv"
  type: "Convolution"
  bottom: "loss1/ave_pool"
  top: "loss1/conv"
  param {
    lr_mult: 1
    decay_mult: 1
  }
  param {
    lr_mult: 2
    decay_mult: 0
  }
  convolution_param {
    num_output: 128
    kernel_size: 1
    weight_filler {
      type: "xavier"
      std: 0.08
    }
    bias_filler {
      type: "constant"
      value: 0.2
    }
  }
}
layer {
  name: "loss1/relu_conv"
  type: "ReLU"
  bottom: "loss1/conv"
  top: "loss1/conv"
}
layer {
  name: "loss1/fc"
  type: "InnerProduct"
  bottom: "loss1/conv"
  top: "loss1/fc"
  param {
    lr_mult: 1
    decay_mult: 1
  }
  param {
    lr_mult: 2
    decay_mult: 0
  }
  inner_product_param {
    num_output: 1024
    weight_filler {
      type: "xavier"
      std: 0.02
    }
    bias_filler {
      type: "constant"
      value: 0.2
    }
  }
}
layer {
  name: "loss1/relu_fc"
  type: "ReLU"
  bottom: "loss1/fc"
  top: "loss1/fc"
}
layer {
  name: "loss1/drop_fc"
  type: "Dropout"
  bottom: "loss1/fc"
  top: "loss1/fc"
  dropout_param {
    dropout_ratio: 0.7
  }
}
layer {
  name: "loss1/classifier"
  type: "InnerProduct"
  bottom: "loss1/fc"
  top: "loss1/classifier"
  param {
    lr_mult: 1
    decay_mult: 1
  }
  param {
    lr_mult: 2
    decay_mult: 0
  }
  inner_product_param {
    num_output: 2
    weight_filler {
      type: "xavier"
      std: 0.0009765625
    }
    bias_filler {
      type: "constant"
      value: 0
    }
  }
}
layer {
  name: "loss1/loss"
  type: "SoftmaxWithLoss"
  bottom: "loss1/classifier"
  bottom: "label"
  top: "loss1/loss1"
  loss_weight: 0.3
}
layer {
  name: "inception_4b/1x1"
  type: "Convolution"
  bottom: "inception_4a/output"
  top: "inception_4b/1x1"
  param {
    lr_mult: 1
    decay_mult: 1
  }
  param {
    lr_mult: 2
    decay_mult: 0
  }
  convolution_param {
    num_output: 160
    kernel_size: 1
    weight_filler {
      type: "xavier"
      std: 0.03
    }
    bias_filler {
      type: "constant"
      value: 0.2
    }
  }
}
layer {
  name: "inception_4b/relu_1x1"
  type: "ReLU"
  bottom: "inception_4b/1x1"
  top: "inception_4b/1x1"
}
layer {
  name: "inception_4b/3x3_reduce"
  type: "Convolution"
  bottom: "inception_4a/output"
  top: "inception_4b/3x3_reduce"
  param {
    lr_mult: 1
    decay_mult: 1
  }
  param {
    lr_mult: 2
    decay_mult: 0
  }
  convolution_param {
    num_output: 112
    kernel_size: 1
    weight_filler {
      type: "xavier"
      std: 0.09
    }
    bias_filler {
      type: "constant"
      value: 0.2
    }
  }
}
layer {
  name: "inception_4b/relu_3x3_reduce"
  type: "ReLU"
  bottom: "inception_4b/3x3_reduce"
  top: "inception_4b/3x3_reduce"
}
layer {
  name: "inception_4b/3x3"
  type: "Convolution"
  bottom: "inception_4b/3x3_reduce"
  top: "inception_4b/3x3"
  param {
    lr_mult: 1
    decay_mult: 1
  }
  param {
    lr_mult: 2
    decay_mult: 0
  }
  convolution_param {
    num_output: 224
    pad: 1
    kernel_size: 3
    weight_filler {
      type: "xavier"
      std: 0.03
    }
    bias_filler {
      type: "constant"
      value: 0.2
    }
  }
}
layer {
  name: "inception_4b/relu_3x3"
  type: "ReLU"
  bottom: "inception_4b/3x3"
  top: "inception_4b/3x3"
}
layer {
  name: "inception_4b/5x5_reduce"
  type: "Convolution"
  bottom: "inception_4a/output"
  top: "inception_4b/5x5_reduce"
  param {
    lr_mult: 1
    decay_mult: 1
  }
  param {
    lr_mult: 2
    decay_mult: 0
  }
  convolution_param {
    num_output: 24
    kernel_size: 1
    weight_filler {
      type: "xavier"
      std: 0.2
    }
    bias_filler {
      type: "constant"
      value: 0.2
    }
  }
}
layer {
  name: "inception_4b/relu_5x5_reduce"
  type: "ReLU"
  bottom: "inception_4b/5x5_reduce"
  top: "inception_4b/5x5_reduce"
}
layer {
  name: "inception_4b/5x5"
  type: "Convolution"
  bottom: "inception_4b/5x5_reduce"
  top: "inception_4b/5x5"
  param {
    lr_mult: 1
    decay_mult: 1
  }
  param {
    lr_mult: 2
    decay_mult: 0
  }
  convolution_param {
    num_output: 64
    pad: 2
    kernel_size: 5
    weight_filler {
      type: "xavier"
      std: 0.03
    }
    bias_filler {
      type: "constant"
      value: 0.2
    }
  }
}
layer {
  name: "inception_4b/relu_5x5"
  type: "ReLU"
  bottom: "inception_4b/5x5"
  top: "inception_4b/5x5"
}
layer {
  name: "inception_4b/pool"
  type: "Pooling"
  bottom: "inception_4a/output"
  top: "inception_4b/pool"
  pooling_param {
    pool: MAX
    kernel_size: 3
    stride: 1
    pad: 1
  }
}
layer {
  name: "inception_4b/pool_proj"
  type: "Convolution"
  bottom: "inception_4b/pool"
  top: "inception_4b/pool_proj"
  param {
    lr_mult: 1
    decay_mult: 1
  }
  param {
    lr_mult: 2
    decay_mult: 0
  }
  convolution_param {
    num_output: 64
    kernel_size: 1
    weight_filler {
      type: "xavier"
      std: 0.1
    }
    bias_filler {
      type: "constant"
      value: 0.2
    }
  }
}
layer {
  name: "inception_4b/relu_pool_proj"
  type: "ReLU"
  bottom: "inception_4b/pool_proj"
  top: "inception_4b/pool_proj"
}
layer {
  name: "inception_4b/output"
  type: "Concat"
  bottom: "inception_4b/1x1"
  bottom: "inception_4b/3x3"
  bottom: "inception_4b/5x5"
  bottom: "inception_4b/pool_proj"
  top: "inception_4b/output"
}
layer {
  name: "inception_4c/1x1"
  type: "Convolution"
  bottom: "inception_4b/output"
  top: "inception_4c/1x1"
  param {
    lr_mult: 1
    decay_mult: 1
  }
  param {
    lr_mult: 2
    decay_mult: 0
  }
  convolution_param {
    num_output: 128
    kernel_size: 1
    weight_filler {
      type: "xavier"
      std: 0.03
    }
    bias_filler {
      type: "constant"
      value: 0.2
    }
  }
}
layer {
  name: "inception_4c/relu_1x1"
  type: "ReLU"
  bottom: "inception_4c/1x1"
  top: "inception_4c/1x1"
}
layer {
  name: "inception_4c/3x3_reduce"
  type: "Convolution"
  bottom: "inception_4b/output"
  top: "inception_4c/3x3_reduce"
  param {
    lr_mult: 1
    decay_mult: 1
  }
  param {
    lr_mult: 2
    decay_mult: 0
  }
  convolution_param {
    num_output: 128
    kernel_size: 1
    weight_filler {
      type: "xavier"
      std: 0.09
    }
    bias_filler {
      type: "constant"
      value: 0.2
    }
  }
}
layer {
  name: "inception_4c/relu_3x3_reduce"
  type: "ReLU"
  bottom: "inception_4c/3x3_reduce"
  top: "inception_4c/3x3_reduce"
}
layer {
  name: "inception_4c/3x3"
  type: "Convolution"
  bottom: "inception_4c/3x3_reduce"
  top: "inception_4c/3x3"
  param {
    lr_mult: 1
    decay_mult: 1
  }
  param {
    lr_mult: 2
    decay_mult: 0
  }
  convolution_param {
    num_output: 256
    pad: 1
    kernel_size: 3
    weight_filler {
      type: "xavier"
      std: 0.03
    }
    bias_filler {
      type: "constant"
      value: 0.2
    }
  }
}
layer {
  name: "inception_4c/relu_3x3"
  type: "ReLU"
  bottom: "inception_4c/3x3"
  top: "inception_4c/3x3"
}
layer {
  name: "inception_4c/5x5_reduce"
  type: "Convolution"
  bottom: "inception_4b/output"
  top: "inception_4c/5x5_reduce"
  param {
    lr_mult: 1
    decay_mult: 1
  }
  param {
    lr_mult: 2
    decay_mult: 0
  }
  convolution_param {
    num_output: 24
    kernel_size: 1
    weight_filler {
      type: "xavier"
      std: 0.2
    }
    bias_filler {
      type: "constant"
      value: 0.2
    }
  }
}
layer {
  name: "inception_4c/relu_5x5_reduce"
  type: "ReLU"
  bottom: "inception_4c/5x5_reduce"
  top: "inception_4c/5x5_reduce"
}
layer {
  name: "inception_4c/5x5"
  type: "Convolution"
  bottom: "inception_4c/5x5_reduce"
  top: "inception_4c/5x5"
  param {
    lr_mult: 1
    decay_mult: 1
  }
  param {
    lr_mult: 2
    decay_mult: 0
  }
  convolution_param {
    num_output: 64
    pad: 2
    kernel_size: 5
    weight_filler {
      type: "xavier"
      std: 0.03
    }
    bias_filler {
      type: "constant"
      value: 0.2
    }
  }
}
layer {
  name: "inception_4c/relu_5x5"
  type: "ReLU"
  bottom: "inception_4c/5x5"
  top: "inception_4c/5x5"
}
layer {
  name: "inception_4c/pool"
  type: "Pooling"
  bottom: "inception_4b/output"
  top: "inception_4c/pool"
  pooling_param {
    pool: MAX
    kernel_size: 3
    stride: 1
    pad: 1
  }
}
layer {
  name: "inception_4c/pool_proj"
  type: "Convolution"
  bottom: "inception_4c/pool"
  top: "inception_4c/pool_proj"
  param {
    lr_mult: 1
    decay_mult: 1
  }
  param {
    lr_mult: 2
    decay_mult: 0
  }
  convolution_param {
    num_output: 64
    kernel_size: 1
    weight_filler {
      type: "xavier"
      std: 0.1
    }
    bias_filler {
      type: "constant"
      value: 0.2
    }
  }
}
layer {
  name: "inception_4c/relu_pool_proj"
  type: "ReLU"
  bottom: "inception_4c/pool_proj"
  top: "inception_4c/pool_proj"
}
layer {
  name: "inception_4c/output"
  type: "Concat"
  bottom: "inception_4c/1x1"
  bottom: "inception_4c/3x3"
  bottom: "inception_4c/5x5"
  bottom: "inception_4c/pool_proj"
  top: "inception_4c/output"
}
layer {
  name: "inception_4d/1x1"
  type: "Convolution"
  bottom: "inception_4c/output"
  top: "inception_4d/1x1"
  param {
    lr_mult: 1
    decay_mult: 1
  }
  param {
    lr_mult: 2
    decay_mult: 0
  }
  convolution_param {
    num_output: 112
    kernel_size: 1
    weight_filler {
      type: "xavier"
      std: 0.03
    }
    bias_filler {
      type: "constant"
      value: 0.2
    }
  }
}
layer {
  name: "inception_4d/relu_1x1"
  type: "ReLU"
  bottom: "inception_4d/1x1"
  top: "inception_4d/1x1"
}
layer {
  name: "inception_4d/3x3_reduce"
  type: "Convolution"
  bottom: "inception_4c/output"
  top: "inception_4d/3x3_reduce"
  param {
    lr_mult: 1
    decay_mult: 1
  }
  param {
    lr_mult: 2
    decay_mult: 0
  }
  convolution_param {
    num_output: 144
    kernel_size: 1
    weight_filler {
      type: "xavier"
      std: 0.09
    }
    bias_filler {
      type: "constant"
      value: 0.2
    }
  }
}
layer {
  name: "inception_4d/relu_3x3_reduce"
  type: "ReLU"
  bottom: "inception_4d/3x3_reduce"
  top: "inception_4d/3x3_reduce"
}
layer {
  name: "inception_4d/3x3"
  type: "Convolution"
  bottom: "inception_4d/3x3_reduce"
  top: "inception_4d/3x3"
  param {
    lr_mult: 1
    decay_mult: 1
  }
  param {
    lr_mult: 2
    decay_mult: 0
  }
  convolution_param {
    num_output: 288
    pad: 1
    kernel_size: 3
    weight_filler {
      type: "xavier"
      std: 0.03
    }
    bias_filler {
      type: "constant"
      value: 0.2
    }
  }
}
layer {
  name: "inception_4d/relu_3x3"
  type: "ReLU"
  bottom: "inception_4d/3x3"
  top: "inception_4d/3x3"
}
layer {
  name: "inception_4d/5x5_reduce"
  type: "Convolution"
  bottom: "inception_4c/output"
  top: "inception_4d/5x5_reduce"
  param {
    lr_mult: 1
    decay_mult: 1
  }
  param {
    lr_mult: 2
    decay_mult: 0
  }
  convolution_param {
    num_output: 32
    kernel_size: 1
    weight_filler {
      type: "xavier"
      std: 0.2
    }
    bias_filler {
      type: "constant"
      value: 0.2
    }
  }
}
layer {
  name: "inception_4d/relu_5x5_reduce"
  type: "ReLU"
  bottom: "inception_4d/5x5_reduce"
  top: "inception_4d/5x5_reduce"
}
layer {
  name: "inception_4d/5x5"
  type: "Convolution"
  bottom: "inception_4d/5x5_reduce"
  top: "inception_4d/5x5"
  param {
    lr_mult: 1
    decay_mult: 1
  }
  param {
    lr_mult: 2
    decay_mult: 0
  }
  convolution_param {
    num_output: 64
    pad: 2
    kernel_size: 5
    weight_filler {
      type: "xavier"
      std: 0.03
    }
    bias_filler {
      type: "constant"
      value: 0.2
    }
  }
}
layer {
  name: "inception_4d/relu_5x5"
  type: "ReLU"
  bottom: "inception_4d/5x5"
  top: "inception_4d/5x5"
}
layer {
  name: "inception_4d/pool"
  type: "Pooling"
  bottom: "inception_4c/output"
  top: "inception_4d/pool"
  pooling_param {
    pool: MAX
    kernel_size: 3
    stride: 1
    pad: 1
  }
}
layer {
  name: "inception_4d/pool_proj"
  type: "Convolution"
  bottom: "inception_4d/pool"
  top: "inception_4d/pool_proj"
  param {
    lr_mult: 1
    decay_mult: 1
  }
  param {
    lr_mult: 2
    decay_mult: 0
  }
  convolution_param {
    num_output: 64
    kernel_size: 1
    weight_filler {
      type: "xavier"
      std: 0.1
    }
    bias_filler {
      type: "constant"
      value: 0.2
    }
  }
}
layer {
  name: "inception_4d/relu_pool_proj"
  type: "ReLU"
  bottom: "inception_4d/pool_proj"
  top: "inception_4d/pool_proj"
}
layer {
  name: "inception_4d/output"
  type: "Concat"
  bottom: "inception_4d/1x1"
  bottom: "inception_4d/3x3"
  bottom: "inception_4d/5x5"
  bottom: "inception_4d/pool_proj"
  top: "inception_4d/output"
}
layer {
  name: "loss2/ave_pool"
  type: "Pooling"
  bottom: "inception_4d/output"
  top: "loss2/ave_pool"
  pooling_param {
    pool: AVE
    kernel_size: 5
    stride: 3
  }
}
layer {
  name: "loss2/conv"
  type: "Convolution"
  bottom: "loss2/ave_pool"
  top: "loss2/conv"
  param {
    lr_mult: 1
    decay_mult: 1
  }
  param {
    lr_mult: 2
    decay_mult: 0
  }
  convolution_param {
    num_output: 128
    kernel_size: 1
    weight_filler {
      type: "xavier"
      std: 0.08
    }
    bias_filler {
      type: "constant"
      value: 0.2
    }
  }
}
layer {
  name: "loss2/relu_conv"
  type: "ReLU"
  bottom: "loss2/conv"
  top: "loss2/conv"
}
layer {
  name: "loss2/fc"
  type: "InnerProduct"
  bottom: "loss2/conv"
  top: "loss2/fc"
  param {
    lr_mult: 1
    decay_mult: 1
  }
  param {
    lr_mult: 2
    decay_mult: 0
  }
  inner_product_param {
    num_output: 1024
    weight_filler {
      type: "xavier"
      std: 0.02
    }
    bias_filler {
      type: "constant"
      value: 0.2
    }
  }
}
layer {
  name: "loss2/relu_fc"
  type: "ReLU"
  bottom: "loss2/fc"
  top: "loss2/fc"
}
layer {
  name: "loss2/drop_fc"
  type: "Dropout"
  bottom: "loss2/fc"
  top: "loss2/fc"
  dropout_param {
    dropout_ratio: 0.7
  }
}
layer {
  name: "loss2/classifier"
  type: "InnerProduct"
  bottom: "loss2/fc"
  top: "loss2/classifier"
  param {
    lr_mult: 1
    decay_mult: 1
  }
  param {
    lr_mult: 2
    decay_mult: 0
  }
  inner_product_param {
    num_output: 2
    weight_filler {
      type: "xavier"
      std: 0.0009765625
    }
    bias_filler {
      type: "constant"
      value: 0
    }
  }
}
layer {
  name: "loss2/loss"
  type: "SoftmaxWithLoss"
  bottom: "loss2/classifier"
  bottom: "label"
  top: "loss2/loss1"
  loss_weight: 0.3
}
layer {
  name: "inception_4e/1x1"
  type: "Convolution"
  bottom: "inception_4d/output"
  top: "inception_4e/1x1"
  param {
    lr_mult: 1
    decay_mult: 1
  }
  param {
    lr_mult: 2
    decay_mult: 0
  }
  convolution_param {
    num_output: 256
    kernel_size: 1
    weight_filler {
      type: "xavier"
      std: 0.03
    }
    bias_filler {
      type: "constant"
      value: 0.2
    }
  }
}
layer {
  name: "inception_4e/relu_1x1"
  type: "ReLU"
  bottom: "inception_4e/1x1"
  top: "inception_4e/1x1"
}
layer {
  name: "inception_4e/3x3_reduce"
  type: "Convolution"
  bottom: "inception_4d/output"
  top: "inception_4e/3x3_reduce"
  param {
    lr_mult: 1
    decay_mult: 1
  }
  param {
    lr_mult: 2
    decay_mult: 0
  }
  convolution_param {
    num_output: 160
    kernel_size: 1
    weight_filler {
      type: "xavier"
      std: 0.09
    }
    bias_filler {
      type: "constant"
      value: 0.2
    }
  }
}
layer {
  name: "inception_4e/relu_3x3_reduce"
  type: "ReLU"
  bottom: "inception_4e/3x3_reduce"
  top: "inception_4e/3x3_reduce"
}
layer {
  name: "inception_4e/3x3"
  type: "Convolution"
  bottom: "inception_4e/3x3_reduce"
  top: "inception_4e/3x3"
  param {
    lr_mult: 1
    decay_mult: 1
  }
  param {
    lr_mult: 2
    decay_mult: 0
  }
  convolution_param {
    num_output: 320
    pad: 1
    kernel_size: 3
    weight_filler {
      type: "xavier"
      std: 0.03
    }
    bias_filler {
      type: "constant"
      value: 0.2
    }
  }
}
layer {
  name: "inception_4e/relu_3x3"
  type: "ReLU"
  bottom: "inception_4e/3x3"
  top: "inception_4e/3x3"
}
layer {
  name: "inception_4e/5x5_reduce"
  type: "Convolution"
  bottom: "inception_4d/output"
  top: "inception_4e/5x5_reduce"
  param {
    lr_mult: 1
    decay_mult: 1
  }
  param {
    lr_mult: 2
    decay_mult: 0
  }
  convolution_param {
    num_output: 32
    kernel_size: 1
    weight_filler {
      type: "xavier"
      std: 0.2
    }
    bias_filler {
      type: "constant"
      value: 0.2
    }
  }
}
layer {
  name: "inception_4e/relu_5x5_reduce"
  type: "ReLU"
  bottom: "
I0509 23:09:34.675104 23234 layer_factory.hpp:74] Creating layer data
I0509 23:09:34.675140 23234 net.cpp:76] Creating Layer data
I0509 23:09:34.675153 23234 net.cpp:334] data -> data
I0509 23:09:34.675186 23234 net.cpp:334] data -> label
I0509 23:09:34.675209 23234 net.cpp:105] Setting up data
I0509 23:09:34.675354 23234 db.cpp:34] Opened lmdb train_lmdb
I0509 23:09:34.675639 23234 data_layer.cpp:67] output data size: 32,3,224,224
I0509 23:09:34.682296 23234 net.cpp:112] Top shape: 32 3 224 224 (4816896)
I0509 23:09:34.682324 23234 net.cpp:112] Top shape: 32 1 1 1 (32)
I0509 23:09:34.682335 23234 layer_factory.hpp:74] Creating layer label_data_1_split
I0509 23:09:34.682353 23234 net.cpp:76] Creating Layer label_data_1_split
I0509 23:09:34.682365 23234 net.cpp:372] label_data_1_split <- label
I0509 23:09:34.682384 23234 net.cpp:334] label_data_1_split -> label_data_1_split_0
I0509 23:09:34.682399 23234 net.cpp:334] label_data_1_split -> label_data_1_split_1
I0509 23:09:34.682409 23234 net.cpp:334] label_data_1_split -> label_data_1_split_2
I0509 23:09:34.682417 23234 net.cpp:105] Setting up label_data_1_split
I0509 23:09:34.682426 23234 net.cpp:112] Top shape: 32 1 1 1 (32)
I0509 23:09:34.682432 23234 net.cpp:112] Top shape: 32 1 1 1 (32)
I0509 23:09:34.682438 23234 net.cpp:112] Top shape: 32 1 1 1 (32)
I0509 23:09:34.682443 23234 layer_factory.hpp:74] Creating layer conv1/7x7_s2
I0509 23:09:34.682461 23234 net.cpp:76] Creating Layer conv1/7x7_s2
I0509 23:09:34.682466 23234 net.cpp:372] conv1/7x7_s2 <- data
I0509 23:09:34.682476 23234 net.cpp:334] conv1/7x7_s2 -> conv1/7x7_s2
I0509 23:09:34.682487 23234 net.cpp:105] Setting up conv1/7x7_s2
I0509 23:09:34.682612 23234 net.cpp:112] Top shape: 32 64 112 112 (25690112)
I0509 23:09:34.682667 23234 layer_factory.hpp:74] Creating layer conv1/relu_7x7
I0509 23:09:34.682678 23234 net.cpp:76] Creating Layer conv1/relu_7x7
I0509 23:09:34.682683 23234 net.cpp:372] conv1/relu_7x7 <- conv1/7x7_s2
I0509 23:09:34.682693 23234 net.cpp:323] conv1/relu_7x7 -> conv1/7x7_s2 (in-place)
I0509 23:09:34.682700 23234 net.cpp:105] Setting up conv1/relu_7x7
I0509 23:09:34.682708 23234 net.cpp:112] Top shape: 32 64 112 112 (25690112)
I0509 23:09:34.682715 23234 layer_factory.hpp:74] Creating layer pool1/3x3_s2
I0509 23:09:34.682725 23234 net.cpp:76] Creating Layer pool1/3x3_s2
I0509 23:09:34.682731 23234 net.cpp:372] pool1/3x3_s2 <- conv1/7x7_s2
I0509 23:09:34.682739 23234 net.cpp:334] pool1/3x3_s2 -> pool1/3x3_s2
I0509 23:09:34.682749 23234 net.cpp:105] Setting up pool1/3x3_s2
I0509 23:09:34.682765 23234 net.cpp:112] Top shape: 32 64 56 56 (6422528)
I0509 23:09:34.682773 23234 layer_factory.hpp:74] Creating layer pool1/norm1
I0509 23:09:34.682785 23234 net.cpp:76] Creating Layer pool1/norm1
I0509 23:09:34.682790 23234 net.cpp:372] pool1/norm1 <- pool1/3x3_s2
I0509 23:09:34.682797 23234 net.cpp:334] pool1/norm1 -> pool1/norm1
I0509 23:09:34.682807 23234 net.cpp:105] Setting up pool1/norm1
I0509 23:09:34.682814 23234 net.cpp:112] Top shape: 32 64 56 56 (6422528)
I0509 23:09:34.682819 23234 layer_factory.hpp:74] Creating layer conv2/3x3_reduce
I0509 23:09:34.682829 23234 net.cpp:76] Creating Layer conv2/3x3_reduce
I0509 23:09:34.682834 23234 net.cpp:372] conv2/3x3_reduce <- pool1/norm1
I0509 23:09:34.682843 23234 net.cpp:334] conv2/3x3_reduce -> conv2/3x3_reduce
I0509 23:09:34.682852 23234 net.cpp:105] Setting up conv2/3x3_reduce
I0509 23:09:34.682896 23234 net.cpp:112] Top shape: 32 64 56 56 (6422528)
I0509 23:09:34.682909 23234 layer_factory.hpp:74] Creating layer conv2/relu_3x3_reduce
I0509 23:09:34.682916 23234 net.cpp:76] Creating Layer conv2/relu_3x3_reduce
I0509 23:09:34.682921 23234 net.cpp:372] conv2/relu_3x3_reduce <- conv2/3x3_reduce
I0509 23:09:34.682929 23234 net.cpp:323] conv2/relu_3x3_reduce -> conv2/3x3_reduce (in-place)
I0509 23:09:34.682935 23234 net.cpp:105] Setting up conv2/relu_3x3_reduce
I0509 23:09:34.682941 23234 net.cpp:112] Top shape: 32 64 56 56 (6422528)
I0509 23:09:34.682946 23234 layer_factory.hpp:74] Creating layer conv2/3x3
I0509 23:09:34.682956 23234 net.cpp:76] Creating Layer conv2/3x3
I0509 23:09:34.682962 23234 net.cpp:372] conv2/3x3 <- conv2/3x3_reduce
I0509 23:09:34.682971 23234 net.cpp:334] conv2/3x3 -> conv2/3x3
I0509 23:09:34.682979 23234 net.cpp:105] Setting up conv2/3x3
I0509 23:09:34.683934 23234 net.cpp:112] Top shape: 32 192 56 56 (19267584)
I0509 23:09:34.683961 23234 layer_factory.hpp:74] Creating layer conv2/relu_3x3
I0509 23:09:34.683972 23234 net.cpp:76] Creating Layer conv2/relu_3x3
I0509 23:09:34.683979 23234 net.cpp:372] conv2/relu_3x3 <- conv2/3x3
I0509 23:09:34.683986 23234 net.cpp:323] conv2/relu_3x3 -> conv2/3x3 (in-place)
I0509 23:09:34.683995 23234 net.cpp:105] Setting up conv2/relu_3x3
I0509 23:09:34.684000 23234 net.cpp:112] Top shape: 32 192 56 56 (19267584)
I0509 23:09:34.684006 23234 layer_factory.hpp:74] Creating layer conv2/norm2
I0509 23:09:34.684016 23234 net.cpp:76] Creating Layer conv2/norm2
I0509 23:09:34.684023 23234 net.cpp:372] conv2/norm2 <- conv2/3x3
I0509 23:09:34.684031 23234 net.cpp:334] conv2/norm2 -> conv2/norm2
I0509 23:09:34.684038 23234 net.cpp:105] Setting up conv2/norm2
I0509 23:09:34.684046 23234 net.cpp:112] Top shape: 32 192 56 56 (19267584)
I0509 23:09:34.684051 23234 layer_factory.hpp:74] Creating layer pool2/3x3_s2
I0509 23:09:34.684061 23234 net.cpp:76] Creating Layer pool2/3x3_s2
I0509 23:09:34.684067 23234 net.cpp:372] pool2/3x3_s2 <- conv2/norm2
I0509 23:09:34.684073 23234 net.cpp:334] pool2/3x3_s2 -> pool2/3x3_s2
I0509 23:09:34.684082 23234 net.cpp:105] Setting up pool2/3x3_s2
I0509 23:09:34.684088 23234 net.cpp:112] Top shape: 32 192 28 28 (4816896)
I0509 23:09:34.684094 23234 layer_factory.hpp:74] Creating layer pool2/3x3_s2_pool2/3x3_s2_0_split
I0509 23:09:34.684101 23234 net.cpp:76] Creating Layer pool2/3x3_s2_pool2/3x3_s2_0_split
I0509 23:09:34.684125 23234 net.cpp:372] pool2/3x3_s2_pool2/3x3_s2_0_split <- pool2/3x3_s2
I0509 23:09:34.684137 23234 net.cpp:334] pool2/3x3_s2_pool2/3x3_s2_0_split -> pool2/3x3_s2_pool2/3x3_s2_0_split_0
I0509 23:09:34.684147 23234 net.cpp:334] pool2/3x3_s2_pool2/3x3_s2_0_split -> pool2/3x3_s2_pool2/3x3_s2_0_split_1
I0509 23:09:34.684156 23234 net.cpp:334] pool2/3x3_s2_pool2/3x3_s2_0_split -> pool2/3x3_s2_pool2/3x3_s2_0_split_2
I0509 23:09:34.684165 23234 net.cpp:334] pool2/3x3_s2_pool2/3x3_s2_0_split -> pool2/3x3_s2_pool2/3x3_s2_0_split_3
I0509 23:09:34.684172 23234 net.cpp:105] Setting up pool2/3x3_s2_pool2/3x3_s2_0_split
I0509 23:09:34.684180 23234 net.cpp:112] Top shape: 32 192 28 28 (4816896)
I0509 23:09:34.684185 23234 net.cpp:112] Top shape: 32 192 28 28 (4816896)
I0509 23:09:34.684190 23234 net.cpp:112] Top shape: 32 192 28 28 (4816896)
I0509 23:09:34.684195 23234 net.cpp:112] Top shape: 32 192 28 28 (4816896)
I0509 23:09:34.684203 23234 layer_factory.hpp:74] Creating layer inception_3a/1x1
I0509 23:09:34.684214 23234 net.cpp:76] Creating Layer inception_3a/1x1
I0509 23:09:34.684221 23234 net.cpp:372] inception_3a/1x1 <- pool2/3x3_s2_pool2/3x3_s2_0_split_0
I0509 23:09:34.684229 23234 net.cpp:334] inception_3a/1x1 -> inception_3a/1x1
I0509 23:09:34.684240 23234 net.cpp:105] Setting up inception_3a/1x1
I0509 23:09:34.684379 23234 net.cpp:112] Top shape: 32 64 28 28 (1605632)
I0509 23:09:34.684393 23234 layer_factory.hpp:74] Creating layer inception_3a/relu_1x1
I0509 23:09:34.684404 23234 net.cpp:76] Creating Layer inception_3a/relu_1x1
I0509 23:09:34.684411 23234 net.cpp:372] inception_3a/relu_1x1 <- inception_3a/1x1
I0509 23:09:34.684417 23234 net.cpp:323] inception_3a/relu_1x1 -> inception_3a/1x1 (in-place)
I0509 23:09:34.684425 23234 net.cpp:105] Setting up inception_3a/relu_1x1
I0509 23:09:34.684432 23234 net.cpp:112] Top shape: 32 64 28 28 (1605632)
I0509 23:09:34.684437 23234 layer_factory.hpp:74] Creating layer inception_3a/3x3_reduce
I0509 23:09:34.684448 23234 net.cpp:76] Creating Layer inception_3a/3x3_reduce
I0509 23:09:34.684453 23234 net.cpp:372] inception_3a/3x3_reduce <- pool2/3x3_s2_pool2/3x3_s2_0_split_1
I0509 23:09:34.684463 23234 net.cpp:334] inception_3a/3x3_reduce -> inception_3a/3x3_reduce
I0509 23:09:34.684471 23234 net.cpp:105] Setting up inception_3a/3x3_reduce
I0509 23:09:34.684718 23234 net.cpp:112] Top shape: 32 96 28 28 (2408448)
I0509 23:09:34.684736 23234 layer_factory.hpp:74] Creating layer inception_3a/relu_3x3_reduce
I0509 23:09:34.684787 23234 net.cpp:76] Creating Layer inception_3a/relu_3x3_reduce
I0509 23:09:34.684806 23234 net.cpp:372] inception_3a/relu_3x3_reduce <- inception_3a/3x3_reduce
I0509 23:09:34.684818 23234 net.cpp:323] inception_3a/relu_3x3_reduce -> inception_3a/3x3_reduce (in-place)
I0509 23:09:34.684826 23234 net.cpp:105] Setting up inception_3a/relu_3x3_reduce
I0509 23:09:34.684833 23234 net.cpp:112] Top shape: 32 96 28 28 (2408448)
I0509 23:09:34.684839 23234 layer_factory.hpp:74] Creating layer inception_3a/3x3
I0509 23:09:34.684859 23234 net.cpp:76] Creating Layer inception_3a/3x3
I0509 23:09:34.684866 23234 net.cpp:372] inception_3a/3x3 <- inception_3a/3x3_reduce
I0509 23:09:34.684875 23234 net.cpp:334] inception_3a/3x3 -> inception_3a/3x3
I0509 23:09:34.684885 23234 net.cpp:105] Setting up inception_3a/3x3
I0509 23:09:34.686542 23234 net.cpp:112] Top shape: 32 128 28 28 (3211264)
I0509 23:09:34.686564 23234 layer_factory.hpp:74] Creating layer inception_3a/relu_3x3
I0509 23:09:34.686576 23234 net.cpp:76] Creating Layer inception_3a/relu_3x3
I0509 23:09:34.686583 23234 net.cpp:372] inception_3a/relu_3x3 <- inception_3a/3x3
I0509 23:09:34.686591 23234 net.cpp:323] inception_3a/relu_3x3 -> inception_3a/3x3 (in-place)
I0509 23:09:34.686599 23234 net.cpp:105] Setting up inception_3a/relu_3x3
I0509 23:09:34.686605 23234 net.cpp:112] Top shape: 32 128 28 28 (3211264)
I0509 23:09:34.686610 23234 layer_factory.hpp:74] Creating layer inception_3a/5x5_reduce
I0509 23:09:34.686619 23234 net.cpp:76] Creating Layer inception_3a/5x5_reduce
I0509 23:09:34.686657 23234 net.cpp:372] inception_3a/5x5_reduce <- pool2/3x3_s2_pool2/3x3_s2_0_split_2
I0509 23:09:34.686676 23234 net.cpp:334] inception_3a/5x5_reduce -> inception_3a/5x5_reduce
I0509 23:09:34.686694 23234 net.cpp:105] Setting up inception_3a/5x5_reduce
I0509 23:09:34.686761 23234 net.cpp:112] Top shape: 32 16 28 28 (401408)
I0509 23:09:34.686789 23234 layer_factory.hpp:74] Creating layer inception_3a/relu_5x5_reduce
I0509 23:09:34.686805 23234 net.cpp:76] Creating Layer inception_3a/relu_5x5_reduce
I0509 23:09:34.686816 23234 net.cpp:372] inception_3a/relu_5x5_reduce <- inception_3a/5x5_reduce
I0509 23:09:34.686833 23234 net.cpp:323] inception_3a/relu_5x5_reduce -> inception_3a/5x5_reduce (in-place)
I0509 23:09:34.686849 23234 net.cpp:105] Setting up inception_3a/relu_5x5_reduce
I0509 23:09:34.686861 23234 net.cpp:112] Top shape: 32 16 28 28 (401408)
I0509 23:09:34.686871 23234 layer_factory.hpp:74] Creating layer inception_3a/5x5
I0509 23:09:34.686888 23234 net.cpp:76] Creating Layer inception_3a/5x5
I0509 23:09:34.686900 23234 net.cpp:372] inception_3a/5x5 <- inception_3a/5x5_reduce
I0509 23:09:34.686920 23234 net.cpp:334] inception_3a/5x5 -> inception_3a/5x5
I0509 23:09:34.686938 23234 net.cpp:105] Setting up inception_3a/5x5
I0509 23:09:34.687141 23234 net.cpp:112] Top shape: 32 32 28 28 (802816)
I0509 23:09:34.687162 23234 layer_factory.hpp:74] Creating layer inception_3a/relu_5x5
I0509 23:09:34.687175 23234 net.cpp:76] Creating Layer inception_3a/relu_5x5
I0509 23:09:34.687180 23234 net.cpp:372] inception_3a/relu_5x5 <- inception_3a/5x5
I0509 23:09:34.687188 23234 net.cpp:323] inception_3a/relu_5x5 -> inception_3a/5x5 (in-place)
I0509 23:09:34.687197 23234 net.cpp:105] Setting up inception_3a/relu_5x5
I0509 23:09:34.687203 23234 net.cpp:112] Top shape: 32 32 28 28 (802816)
I0509 23:09:34.687208 23234 layer_factory.hpp:74] Creating layer inception_3a/pool
I0509 23:09:34.687216 23234 net.cpp:76] Creating Layer inception_3a/pool
I0509 23:09:34.687224 23234 net.cpp:372] inception_3a/pool <- pool2/3x3_s2_pool2/3x3_s2_0_split_3
I0509 23:09:34.687233 23234 net.cpp:334] inception_3a/pool -> inception_3a/pool
I0509 23:09:34.687242 23234 net.cpp:105] Setting up inception_3a/pool
I0509 23:09:34.687249 23234 net.cpp:112] Top shape: 32 192 28 28 (4816896)
I0509 23:09:34.687255 23234 layer_factory.hpp:74] Creating layer inception_3a/pool_proj
I0509 23:09:34.687264 23234 net.cpp:76] Creating Layer inception_3a/pool_proj
I0509 23:09:34.687269 23234 net.cpp:372] inception_3a/pool_proj <- inception_3a/pool
I0509 23:09:34.687295 23234 net.cpp:334] inception_3a/pool_proj -> inception_3a/pool_proj
I0509 23:09:34.687307 23234 net.cpp:105] Setting up inception_3a/pool_proj
I0509 23:09:34.687415 23234 net.cpp:112] Top shape: 32 32 28 28 (802816)
I0509 23:09:34.687448 23234 layer_factory.hpp:74] Creating layer inception_3a/relu_pool_proj
I0509 23:09:34.687463 23234 net.cpp:76] Creating Layer inception_3a/relu_pool_proj
I0509 23:09:34.687475 23234 net.cpp:372] inception_3a/relu_pool_proj <- inception_3a/pool_proj
I0509 23:09:34.687489 23234 net.cpp:323] inception_3a/relu_pool_proj -> inception_3a/pool_proj (in-place)
I0509 23:09:34.687505 23234 net.cpp:105] Setting up inception_3a/relu_pool_proj
I0509 23:09:34.687515 23234 net.cpp:112] Top shape: 32 32 28 28 (802816)
I0509 23:09:34.687526 23234 layer_factory.hpp:74] Creating layer inception_3a/output
I0509 23:09:34.687546 23234 net.cpp:76] Creating Layer inception_3a/output
I0509 23:09:34.687558 23234 net.cpp:372] inception_3a/output <- inception_3a/1x1
I0509 23:09:34.687572 23234 net.cpp:372] inception_3a/output <- inception_3a/3x3
I0509 23:09:34.687583 23234 net.cpp:372] inception_3a/output <- inception_3a/5x5
I0509 23:09:34.687594 23234 net.cpp:372] inception_3a/output <- inception_3a/pool_proj
I0509 23:09:34.687608 23234 net.cpp:334] inception_3a/output -> inception_3a/output
I0509 23:09:34.687623 23234 net.cpp:105] Setting up inception_3a/output
I0509 23:09:34.687638 23234 net.cpp:112] Top shape: 32 256 28 28 (6422528)
I0509 23:09:34.687649 23234 layer_factory.hpp:74] Creating layer inception_3a/output_inception_3a/output_0_split
I0509 23:09:34.687686 23234 net.cpp:76] Creating Layer inception_3a/output_inception_3a/output_0_split
I0509 23:09:34.687700 23234 net.cpp:372] inception_3a/output_inception_3a/output_0_split <- inception_3a/output
I0509 23:09:34.687716 23234 net.cpp:334] inception_3a/output_inception_3a/output_0_split -> inception_3a/output_inception_3a/output_0_split_0
I0509 23:09:34.687732 23234 net.cpp:334] inception_3a/output_inception_3a/output_0_split -> inception_3a/output_inception_3a/output_0_split_1
I0509 23:09:34.687752 23234 net.cpp:334] inception_3a/output_inception_3a/output_0_split -> inception_3a/output_inception_3a/output_0_split_2
I0509 23:09:34.687769 23234 net.cpp:334] inception_3a/output_inception_3a/output_0_split -> inception_3a/output_inception_3a/output_0_split_3
I0509 23:09:34.687788 23234 net.cpp:105] Setting up inception_3a/output_inception_3a/output_0_split
I0509 23:09:34.687801 23234 net.cpp:112] Top shape: 32 256 28 28 (6422528)
I0509 23:09:34.687811 23234 net.cpp:112] Top shape: 32 256 28 28 (6422528)
I0509 23:09:34.687820 23234 net.cpp:112] Top shape: 32 256 28 28 (6422528)
I0509 23:09:34.687829 23234 net.cpp:112] Top shape: 32 256 28 28 (6422528)
I0509 23:09:34.687840 23234 layer_factory.hpp:74] Creating layer inception_3b/1x1
I0509 23:09:34.687857 23234 net.cpp:76] Creating Layer inception_3b/1x1
I0509 23:09:34.687868 23234 net.cpp:372] inception_3b/1x1 <- inception_3a/output_inception_3a/output_0_split_0
I0509 23:09:34.687902 23234 net.cpp:334] inception_3b/1x1 -> inception_3b/1x1
I0509 23:09:34.687922 23234 net.cpp:105] Setting up inception_3b/1x1
I0509 23:09:34.688416 23234 net.cpp:112] Top shape: 32 128 28 28 (3211264)
I0509 23:09:34.688436 23234 layer_factory.hpp:74] Creating layer inception_3b/relu_1x1
I0509 23:09:34.688444 23234 net.cpp:76] Creating Layer inception_3b/relu_1x1
I0509 23:09:34.688451 23234 net.cpp:372] inception_3b/relu_1x1 <- inception_3b/1x1
I0509 23:09:34.688457 23234 net.cpp:323] inception_3b/relu_1x1 -> inception_3b/1x1 (in-place)
I0509 23:09:34.688469 23234 net.cpp:105] Setting up inception_3b/relu_1x1
I0509 23:09:34.688475 23234 net.cpp:112] Top shape: 32 128 28 28 (3211264)
I0509 23:09:34.688482 23234 layer_factory.hpp:74] Creating layer inception_3b/3x3_reduce
I0509 23:09:34.688490 23234 net.cpp:76] Creating Layer inception_3b/3x3_reduce
I0509 23:09:34.688496 23234 net.cpp:372] inception_3b/3x3_reduce <- inception_3a/output_inception_3a/output_0_split_1
I0509 23:09:34.688504 23234 net.cpp:334] inception_3b/3x3_reduce -> inception_3b/3x3_reduce
I0509 23:09:34.688519 23234 net.cpp:105] Setting up inception_3b/3x3_reduce
I0509 23:09:34.689105 23234 net.cpp:112] Top shape: 32 128 28 28 (3211264)
I0509 23:09:34.689136 23234 layer_factory.hpp:74] Creating layer inception_3b/relu_3x3_reduce
I0509 23:09:34.689155 23234 net.cpp:76] Creating Layer inception_3b/relu_3x3_reduce
I0509 23:09:34.689168 23234 net.cpp:372] inception_3b/relu_3x3_reduce <- inception_3b/3x3_reduce
I0509 23:09:34.689183 23234 net.cpp:323] inception_3b/relu_3x3_reduce -> inception_3b/3x3_reduce (in-place)
I0509 23:09:34.689198 23234 net.cpp:105] Setting up inception_3b/relu_3x3_reduce
I0509 23:09:34.689210 23234 net.cpp:112] Top shape: 32 128 28 28 (3211264)
I0509 23:09:34.689220 23234 layer_factory.hpp:74] Creating layer inception_3b/3x3
I0509 23:09:34.689246 23234 net.cpp:76] Creating Layer inception_3b/3x3
I0509 23:09:34.689260 23234 net.cpp:372] inception_3b/3x3 <- inception_3b/3x3_reduce
I0509 23:09:34.689291 23234 net.cpp:334] inception_3b/3x3 -> inception_3b/3x3
I0509 23:09:34.689311 23234 net.cpp:105] Setting up inception_3b/3x3
I0509 23:09:34.691514 23234 net.cpp:112] Top shape: 32 192 28 28 (4816896)
I0509 23:09:34.691536 23234 layer_factory.hpp:74] Creating layer inception_3b/relu_3x3
I0509 23:09:34.691546 23234 net.cpp:76] Creating Layer inception_3b/relu_3x3
I0509 23:09:34.691552 23234 net.cpp:372] inception_3b/relu_3x3 <- inception_3b/3x3
I0509 23:09:34.691560 23234 net.cpp:323] inception_3b/relu_3x3 -> inception_3b/3x3 (in-place)
I0509 23:09:34.691597 23234 net.cpp:105] Setting up inception_3b/relu_3x3
I0509 23:09:34.691604 23234 net.cpp:112] Top shape: 32 192 28 28 (4816896)
I0509 23:09:34.691611 23234 layer_factory.hpp:74] Creating layer inception_3b/5x5_reduce
I0509 23:09:34.691619 23234 net.cpp:76] Creating Layer inception_3b/5x5_reduce
I0509 23:09:34.691627 23234 net.cpp:372] inception_3b/5x5_reduce <- inception_3a/output_inception_3a/output_0_split_2
I0509 23:09:34.691634 23234 net.cpp:334] inception_3b/5x5_reduce -> inception_3b/5x5_reduce
I0509 23:09:34.691643 23234 net.cpp:105] Setting up inception_3b/5x5_reduce
I0509 23:09:34.691733 23234 net.cpp:112] Top shape: 32 32 28 28 (802816)
I0509 23:09:34.691746 23234 layer_factory.hpp:74] Creating layer inception_3b/relu_5x5_reduce
I0509 23:09:34.691756 23234 net.cpp:76] Creating Layer inception_3b/relu_5x5_reduce
I0509 23:09:34.691763 23234 net.cpp:372] inception_3b/relu_5x5_reduce <- inception_3b/5x5_reduce
I0509 23:09:34.691771 23234 net.cpp:323] inception_3b/relu_5x5_reduce -> inception_3b/5x5_reduce (in-place)
I0509 23:09:34.691778 23234 net.cpp:105] Setting up inception_3b/relu_5x5_reduce
I0509 23:09:34.691784 23234 net.cpp:112] Top shape: 32 32 28 28 (802816)
I0509 23:09:34.691789 23234 layer_factory.hpp:74] Creating layer inception_3b/5x5
I0509 23:09:34.691799 23234 net.cpp:76] Creating Layer inception_3b/5x5
I0509 23:09:34.691805 23234 net.cpp:372] inception_3b/5x5 <- inception_3b/5x5_reduce
I0509 23:09:34.691814 23234 net.cpp:334] inception_3b/5x5 -> inception_3b/5x5
I0509 23:09:34.691826 23234 net.cpp:105] Setting up inception_3b/5x5
I0509 23:09:34.692502 23234 net.cpp:112] Top shape: 32 96 28 28 (2408448)
I0509 23:09:34.692518 23234 layer_factory.hpp:74] Creating layer inception_3b/relu_5x5
I0509 23:09:34.692528 23234 net.cpp:76] Creating Layer inception_3b/relu_5x5
I0509 23:09:34.692535 23234 net.cpp:372] inception_3b/relu_5x5 <- inception_3b/5x5
I0509 23:09:34.692543 23234 net.cpp:323] inception_3b/relu_5x5 -> inception_3b/5x5 (in-place)
I0509 23:09:34.692551 23234 net.cpp:105] Setting up inception_3b/relu_5x5
I0509 23:09:34.692556 23234 net.cpp:112] Top shape: 32 96 28 28 (2408448)
I0509 23:09:34.692562 23234 layer_factory.hpp:74] Creating layer inception_3b/pool
I0509 23:09:34.692572 23234 net.cpp:76] Creating Layer inception_3b/pool
I0509 23:09:34.692579 23234 net.cpp:372] inception_3b/pool <- inception_3a/output_inception_3a/output_0_split_3
I0509 23:09:34.692587 23234 net.cpp:334] inception_3b/pool -> inception_3b/pool
I0509 23:09:34.692595 23234 net.cpp:105] Setting up inception_3b/pool
I0509 23:09:34.692603 23234 net.cpp:112] Top shape: 32 256 28 28 (6422528)
I0509 23:09:34.692608 23234 layer_factory.hpp:74] Creating layer inception_3b/pool_proj
I0509 23:09:34.692617 23234 net.cpp:76] Creating Layer inception_3b/pool_proj
I0509 23:09:34.692623 23234 net.cpp:372] inception_3b/pool_proj <- inception_3b/pool
I0509 23:09:34.692634 23234 net.cpp:334] inception_3b/pool_proj -> inception_3b/pool_proj
I0509 23:09:34.692643 23234 net.cpp:105] Setting up inception_3b/pool_proj
I0509 23:09:34.692802 23234 net.cpp:112] Top shape: 32 64 28 28 (1605632)
I0509 23:09:34.692816 23234 layer_factory.hpp:74] Creating layer inception_3b/relu_pool_proj
I0509 23:09:34.692823 23234 net.cpp:76] Creating Layer inception_3b/relu_pool_proj
I0509 23:09:34.692829 23234 net.cpp:372] inception_3b/relu_pool_proj <- inception_3b/pool_proj
I0509 23:09:34.692839 23234 net.cpp:323] inception_3b/relu_pool_proj -> inception_3b/pool_proj (in-place)
I0509 23:09:34.692847 23234 net.cpp:105] Setting up inception_3b/relu_pool_proj
I0509 23:09:34.692852 23234 net.cpp:112] Top shape: 32 64 28 28 (1605632)
I0509 23:09:34.692858 23234 layer_factory.hpp:74] Creating layer inception_3b/output
I0509 23:09:34.692867 23234 net.cpp:76] Creating Layer inception_3b/output
I0509 23:09:34.692873 23234 net.cpp:372] inception_3b/output <- inception_3b/1x1
I0509 23:09:34.692879 23234 net.cpp:372] inception_3b/output <- inception_3b/3x3
I0509 23:09:34.692885 23234 net.cpp:372] inception_3b/output <- inception_3b/5x5
I0509 23:09:34.692905 23234 net.cpp:372] inception_3b/output <- inception_3b/pool_proj
I0509 23:09:34.692914 23234 net.cpp:334] inception_3b/output -> inception_3b/output
I0509 23:09:34.692922 23234 net.cpp:105] Setting up inception_3b/output
I0509 23:09:34.692929 23234 net.cpp:112] Top shape: 32 480 28 28 (12042240)
I0509 23:09:34.692935 23234 layer_factory.hpp:74] Creating layer pool3/3x3_s2
I0509 23:09:34.692944 23234 net.cpp:76] Creating Layer pool3/3x3_s2
I0509 23:09:34.692950 23234 net.cpp:372] pool3/3x3_s2 <- inception_3b/output
I0509 23:09:34.692960 23234 net.cpp:334] pool3/3x3_s2 -> pool3/3x3_s2
I0509 23:09:34.692967 23234 net.cpp:105] Setting up pool3/3x3_s2
I0509 23:09:34.692975 23234 net.cpp:112] Top shape: 32 480 14 14 (3010560)
I0509 23:09:34.692981 23234 layer_factory.hpp:74] Creating layer pool3/3x3_s2_pool3/3x3_s2_0_split
I0509 23:09:34.692988 23234 net.cpp:76] Creating Layer pool3/3x3_s2_pool3/3x3_s2_0_split
I0509 23:09:34.692993 23234 net.cpp:372] pool3/3x3_s2_pool3/3x3_s2_0_split <- pool3/3x3_s2
I0509 23:09:34.693002 23234 net.cpp:334] pool3/3x3_s2_pool3/3x3_s2_0_split -> pool3/3x3_s2_pool3/3x3_s2_0_split_0
I0509 23:09:34.693011 23234 net.cpp:334] pool3/3x3_s2_pool3/3x3_s2_0_split -> pool3/3x3_s2_pool3/3x3_s2_0_split_1
I0509 23:09:34.693020 23234 net.cpp:334] pool3/3x3_s2_pool3/3x3_s2_0_split -> pool3/3x3_s2_pool3/3x3_s2_0_split_2
I0509 23:09:34.693029 23234 net.cpp:334] pool3/3x3_s2_pool3/3x3_s2_0_split -> pool3/3x3_s2_pool3/3x3_s2_0_split_3
I0509 23:09:34.693037 23234 net.cpp:105] Setting up pool3/3x3_s2_pool3/3x3_s2_0_split
I0509 23:09:34.693043 23234 net.cpp:112] Top shape: 32 480 14 14 (3010560)
I0509 23:09:34.693048 23234 net.cpp:112] Top shape: 32 480 14 14 (3010560)
I0509 23:09:34.693058 23234 net.cpp:112] Top shape: 32 480 14 14 (3010560)
I0509 23:09:34.693063 23234 net.cpp:112] Top shape: 32 480 14 14 (3010560)
I0509 23:09:34.693068 23234 layer_factory.hpp:74] Creating layer inception_4a/1x1
I0509 23:09:34.693079 23234 net.cpp:76] Creating Layer inception_4a/1x1
I0509 23:09:34.693086 23234 net.cpp:372] inception_4a/1x1 <- pool3/3x3_s2_pool3/3x3_s2_0_split_0
I0509 23:09:34.693094 23234 net.cpp:334] inception_4a/1x1 -> inception_4a/1x1
I0509 23:09:34.693104 23234 net.cpp:105] Setting up inception_4a/1x1
I0509 23:09:34.693915 23234 net.cpp:112] Top shape: 32 192 14 14 (1204224)
I0509 23:09:34.693930 23234 layer_factory.hpp:74] Creating layer inception_4a/relu_1x1
I0509 23:09:34.693941 23234 net.cpp:76] Creating Layer inception_4a/relu_1x1
I0509 23:09:34.693948 23234 net.cpp:372] inception_4a/relu_1x1 <- inception_4a/1x1
I0509 23:09:34.693955 23234 net.cpp:323] inception_4a/relu_1x1 -> inception_4a/1x1 (in-place)
I0509 23:09:34.693964 23234 net.cpp:105] Setting up inception_4a/relu_1x1
I0509 23:09:34.693969 23234 net.cpp:112] Top shape: 32 192 14 14 (1204224)
I0509 23:09:34.693974 23234 layer_factory.hpp:74] Creating layer inception_4a/3x3_reduce
I0509 23:09:34.693984 23234 net.cpp:76] Creating Layer inception_4a/3x3_reduce
I0509 23:09:34.693990 23234 net.cpp:372] inception_4a/3x3_reduce <- pool3/3x3_s2_pool3/3x3_s2_0_split_1
I0509 23:09:34.694000 23234 net.cpp:334] inception_4a/3x3_reduce -> inception_4a/3x3_reduce
I0509 23:09:34.694008 23234 net.cpp:105] Setting up inception_4a/3x3_reduce
I0509 23:09:34.694432 23234 net.cpp:112] Top shape: 32 96 14 14 (602112)
I0509 23:09:34.694457 23234 layer_factory.hpp:74] Creating layer inception_4a/relu_3x3_reduce
I0509 23:09:34.694465 23234 net.cpp:76] Creating Layer inception_4a/relu_3x3_reduce
I0509 23:09:34.694471 23234 net.cpp:372] inception_4a/relu_3x3_reduce <- inception_4a/3x3_reduce
I0509 23:09:34.694479 23234 net.cpp:323] inception_4a/relu_3x3_reduce -> inception_4a/3x3_reduce (in-place)
I0509 23:09:34.694488 23234 net.cpp:105] Setting up inception_4a/relu_3x3_reduce
I0509 23:09:34.694494 23234 net.cpp:112] Top shape: 32 96 14 14 (602112)
I0509 23:09:34.694499 23234 layer_factory.hpp:74] Creating layer inception_4a/3x3
I0509 23:09:34.694509 23234 net.cpp:76] Creating Layer inception_4a/3x3
I0509 23:09:34.694515 23234 net.cpp:372] inception_4a/3x3 <- inception_4a/3x3_reduce
I0509 23:09:34.694537 23234 net.cpp:334] inception_4a/3x3 -> inception_4a/3x3
I0509 23:09:34.694548 23234 net.cpp:105] Setting up inception_4a/3x3
I0509 23:09:34.696071 23234 net.cpp:112] Top shape: 32 208 14 14 (1304576)
I0509 23:09:34.696086 23234 layer_factory.hpp:74] Creating layer inception_4a/relu_3x3
I0509 23:09:34.696096 23234 net.cpp:76] Creating Layer inception_4a/relu_3x3
I0509 23:09:34.696102 23234 net.cpp:372] inception_4a/relu_3x3 <- inception_4a/3x3
I0509 23:09:34.696110 23234 net.cpp:323] inception_4a/relu_3x3 -> inception_4a/3x3 (in-place)
I0509 23:09:34.696118 23234 net.cpp:105] Setting up inception_4a/relu_3x3
I0509 23:09:34.696123 23234 net.cpp:112] Top shape: 32 208 14 14 (1304576)
I0509 23:09:34.696130 23234 layer_factory.hpp:74] Creating layer inception_4a/5x5_reduce
I0509 23:09:34.696137 23234 net.cpp:76] Creating Layer inception_4a/5x5_reduce
I0509 23:09:34.696143 23234 net.cpp:372] inception_4a/5x5_reduce <- pool3/3x3_s2_pool3/3x3_s2_0_split_2
I0509 23:09:34.696153 23234 net.cpp:334] inception_4a/5x5_reduce -> inception_4a/5x5_reduce
I0509 23:09:34.696162 23234 net.cpp:105] Setting up inception_4a/5x5_reduce
I0509 23:09:34.696243 23234 net.cpp:112] Top shape: 32 16 14 14 (100352)
I0509 23:09:34.696252 23234 layer_factory.hpp:74] Creating layer inception_4a/relu_5x5_reduce
I0509 23:09:34.696260 23234 net.cpp:76] Creating Layer inception_4a/relu_5x5_reduce
I0509 23:09:34.696266 23234 net.cpp:372] inception_4a/relu_5x5_reduce <- inception_4a/5x5_reduce
I0509 23:09:34.696288 23234 net.cpp:323] inception_4a/relu_5x5_reduce -> inception_4a/5x5_reduce (in-place)
I0509 23:09:34.696297 23234 net.cpp:105] Setting up inception_4a/relu_5x5_reduce
I0509 23:09:34.696303 23234 net.cpp:112] Top shape: 32 16 14 14 (100352)
I0509 23:09:34.696310 23234 layer_factory.hpp:74] Creating layer inception_4a/5x5
I0509 23:09:34.696319 23234 net.cpp:76] Creating Layer inception_4a/5x5
I0509 23:09:34.696326 23234 net.cpp:372] inception_4a/5x5 <- inception_4a/5x5_reduce
I0509 23:09:34.696333 23234 net.cpp:334] inception_4a/5x5 -> inception_4a/5x5
I0509 23:09:34.696342 23234 net.cpp:105] Setting up inception_4a/5x5
I0509 23:09:34.696517 23234 net.cpp:112] Top shape: 32 48 14 14 (301056)
I0509 23:09:34.696529 23234 layer_factory.hpp:74] Creating layer inception_4a/relu_5x5
I0509 23:09:34.696539 23234 net.cpp:76] Creating Layer inception_4a/relu_5x5
I0509 23:09:34.696545 23234 net.cpp:372] inception_4a/relu_5x5 <- inception_4a/5x5
I0509 23:09:34.696558 23234 net.cpp:323] inception_4a/relu_5x5 -> inception_4a/5x5 (in-place)
I0509 23:09:34.696569 23234 net.cpp:105] Setting up inception_4a/relu_5x5
I0509 23:09:34.696575 23234 net.cpp:112] Top shape: 32 48 14 14 (301056)
I0509 23:09:34.696580 23234 layer_factory.hpp:74] Creating layer inception_4a/pool
I0509 23:09:34.696590 23234 net.cpp:76] Creating Layer inception_4a/pool
I0509 23:09:34.696596 23234 net.cpp:372] inception_4a/pool <- pool3/3x3_s2_pool3/3x3_s2_0_split_3
I0509 23:09:34.696604 23234 net.cpp:334] inception_4a/pool -> inception_4a/pool
I0509 23:09:34.696612 23234 net.cpp:105] Setting up inception_4a/pool
I0509 23:09:34.696619 23234 net.cpp:112] Top shape: 32 480 14 14 (3010560)
I0509 23:09:34.696625 23234 layer_factory.hpp:74] Creating layer inception_4a/pool_proj
I0509 23:09:34.696634 23234 net.cpp:76] Creating Layer inception_4a/pool_proj
I0509 23:09:34.696640 23234 net.cpp:372] inception_4a/pool_proj <- inception_4a/pool
I0509 23:09:34.696650 23234 net.cpp:334] inception_4a/pool_proj -> inception_4a/pool_proj
I0509 23:09:34.696660 23234 net.cpp:105] Setting up inception_4a/pool_proj
I0509 23:09:34.696929 23234 net.cpp:112] Top shape: 32 64 14 14 (401408)
I0509 23:09:34.696941 23234 layer_factory.hpp:74] Creating layer inception_4a/relu_pool_proj
I0509 23:09:34.696949 23234 net.cpp:76] Creating Layer inception_4a/relu_pool_proj
I0509 23:09:34.696955 23234 net.cpp:372] inception_4a/relu_pool_proj <- inception_4a/pool_proj
I0509 23:09:34.696962 23234 net.cpp:323] inception_4a/relu_pool_proj -> inception_4a/pool_proj (in-place)
I0509 23:09:34.696985 23234 net.cpp:105] Setting up inception_4a/relu_pool_proj
I0509 23:09:34.696992 23234 net.cpp:112] Top shape: 32 64 14 14 (401408)
I0509 23:09:34.696998 23234 layer_factory.hpp:74] Creating layer inception_4a/output
I0509 23:09:34.697010 23234 net.cpp:76] Creating Layer inception_4a/output
I0509 23:09:34.697017 23234 net.cpp:372] inception_4a/output <- inception_4a/1x1
I0509 23:09:34.697024 23234 net.cpp:372] inception_4a/output <- inception_4a/3x3
I0509 23:09:34.697031 23234 net.cpp:372] inception_4a/output <- inception_4a/5x5
I0509 23:09:34.697036 23234 net.cpp:372] inception_4a/output <- inception_4a/pool_proj
I0509 23:09:34.697043 23234 net.cpp:334] inception_4a/output -> inception_4a/output
I0509 23:09:34.697052 23234 net.cpp:105] Setting up inception_4a/output
I0509 23:09:34.697058 23234 net.cpp:112] Top shape: 32 512 14 14 (3211264)
I0509 23:09:34.697064 23234 layer_factory.hpp:74] Creating layer inception_4a/output_inception_4a/output_0_split
I0509 23:09:34.697074 23234 net.cpp:76] Creating Layer inception_4a/output_inception_4a/output_0_split
I0509 23:09:34.697080 23234 net.cpp:372] inception_4a/output_inception_4a/output_0_split <- inception_4a/output
I0509 23:09:34.697088 23234 net.cpp:334] inception_4a/output_inception_4a/output_0_split -> inception_4a/output_inception_4a/output_0_split_0
I0509 23:09:34.697098 23234 net.cpp:334] inception_4a/output_inception_4a/output_0_split -> inception_4a/output_inception_4a/output_0_split_1
I0509 23:09:34.697106 23234 net.cpp:334] inception_4a/output_inception_4a/output_0_split -> inception_4a/output_inception_4a/output_0_split_2
I0509 23:09:34.697115 23234 net.cpp:334] inception_4a/output_inception_4a/output_0_split -> inception_4a/output_inception_4a/output_0_split_3
I0509 23:09:34.697144 23234 net.cpp:334] inception_4a/output_inception_4a/output_0_split -> inception_4a/output_inception_4a/output_0_split_4
I0509 23:09:34.697154 23234 net.cpp:105] Setting up inception_4a/output_inception_4a/output_0_split
I0509 23:09:34.697161 23234 net.cpp:112] Top shape: 32 512 14 14 (3211264)
I0509 23:09:34.697167 23234 net.cpp:112] Top shape: 32 512 14 14 (3211264)
I0509 23:09:34.697172 23234 net.cpp:112] Top shape: 32 512 14 14 (3211264)
I0509 23:09:34.697176 23234 net.cpp:112] Top shape: 32 512 14 14 (3211264)
I0509 23:09:34.697181 23234 net.cpp:112] Top shape: 32 512 14 14 (3211264)
I0509 23:09:34.697187 23234 layer_factory.hpp:74] Creating layer loss1/ave_pool
I0509 23:09:34.697198 23234 net.cpp:76] Creating Layer loss1/ave_pool
I0509 23:09:34.697204 23234 net.cpp:372] loss1/ave_pool <- inception_4a/output_inception_4a/output_0_split_0
I0509 23:09:34.697211 23234 net.cpp:334] loss1/ave_pool -> loss1/ave_pool
I0509 23:09:34.697219 23234 net.cpp:105] Setting up loss1/ave_pool
I0509 23:09:34.697226 23234 net.cpp:112] Top shape: 32 512 4 4 (262144)
I0509 23:09:34.697232 23234 layer_factory.hpp:74] Creating layer loss1/conv
I0509 23:09:34.697242 23234 net.cpp:76] Creating Layer loss1/conv
I0509 23:09:34.697247 23234 net.cpp:372] loss1/conv <- loss1/ave_pool
I0509 23:09:34.697255 23234 net.cpp:334] loss1/conv -> loss1/conv
I0509 23:09:34.697278 23234 net.cpp:105] Setting up loss1/conv
I0509 23:09:34.697851 23234 net.cpp:112] Top shape: 32 128 4 4 (65536)
I0509 23:09:34.697867 23234 layer_factory.hpp:74] Creating layer loss1/relu_conv
I0509 23:09:34.697875 23234 net.cpp:76] Creating Layer loss1/relu_conv
I0509 23:09:34.697881 23234 net.cpp:372] loss1/relu_conv <- loss1/conv
I0509 23:09:34.697890 23234 net.cpp:323] loss1/relu_conv -> loss1/conv (in-place)
I0509 23:09:34.697898 23234 net.cpp:105] Setting up loss1/relu_conv
I0509 23:09:34.697904 23234 net.cpp:112] Top shape: 32 128 4 4 (65536)
I0509 23:09:34.697909 23234 layer_factory.hpp:74] Creating layer loss1/fc
I0509 23:09:34.697921 23234 net.cpp:76] Creating Layer loss1/fc
I0509 23:09:34.697927 23234 net.cpp:372] loss1/fc <- loss1/conv
I0509 23:09:34.697935 23234 net.cpp:334] loss1/fc -> loss1/fc
I0509 23:09:34.697947 23234 net.cpp:105] Setting up loss1/fc
I0509 23:09:34.716866 23234 net.cpp:112] Top shape: 32 1024 1 1 (32768)
I0509 23:09:34.716943 23234 layer_factory.hpp:74] Creating layer loss1/relu_fc
I0509 23:09:34.716958 23234 net.cpp:76] Creating Layer loss1/relu_fc
I0509 23:09:34.716965 23234 net.cpp:372] loss1/relu_fc <- loss1/fc
I0509 23:09:34.716979 23234 net.cpp:323] loss1/relu_fc -> loss1/fc (in-place)
I0509 23:09:34.716990 23234 net.cpp:105] Setting up loss1/relu_fc
I0509 23:09:34.716996 23234 net.cpp:112] Top shape: 32 1024 1 1 (32768)
I0509 23:09:34.717002 23234 layer_factory.hpp:74] Creating layer loss1/drop_fc
I0509 23:09:34.717022 23234 net.cpp:76] Creating Layer loss1/drop_fc
I0509 23:09:34.717028 23234 net.cpp:372] loss1/drop_fc <- loss1/fc
I0509 23:09:34.717042 23234 net.cpp:323] loss1/drop_fc -> loss1/fc (in-place)
I0509 23:09:34.717054 23234 net.cpp:105] Setting up loss1/drop_fc
I0509 23:09:34.717064 23234 net.cpp:112] Top shape: 32 1024 1 1 (32768)
I0509 23:09:34.717072 23234 layer_factory.hpp:74] Creating layer loss1/classifier
I0509 23:09:34.717082 23234 net.cpp:76] Creating Layer loss1/classifier
I0509 23:09:34.717087 23234 net.cpp:372] loss1/classifier <- loss1/fc
I0509 23:09:34.717098 23234 net.cpp:334] loss1/classifier -> loss1/classifier
I0509 23:09:34.717108 23234 net.cpp:105] Setting up loss1/classifier
I0509 23:09:34.717141 23234 net.cpp:112] Top shape: 32 2 1 1 (64)
I0509 23:09:34.717152 23234 layer_factory.hpp:74] Creating layer loss1/loss
I0509 23:09:34.717164 23234 net.cpp:76] Creating Layer loss1/loss
I0509 23:09:34.717170 23234 net.cpp:372] loss1/loss <- loss1/classifier
I0509 23:09:34.717176 23234 net.cpp:372] loss1/loss <- label_data_1_split_0
I0509 23:09:34.717186 23234 net.cpp:334] loss1/loss -> loss1/loss1
I0509 23:09:34.717198 23234 net.cpp:105] Setting up loss1/loss
I0509 23:09:34.717213 23234 layer_factory.hpp:74] Creating layer loss1/loss
I0509 23:09:34.717234 23234 net.cpp:112] Top shape: 1 1 1 1 (1)
I0509 23:09:34.717241 23234 net.cpp:118]     with loss weight 0.3
I0509 23:09:34.717290 23234 layer_factory.hpp:74] Creating layer inception_4b/1x1
I0509 23:09:34.717303 23234 net.cpp:76] Creating Layer inception_4b/1x1
I0509 23:09:34.717309 23234 net.cpp:372] inception_4b/1x1 <- inception_4a/output_inception_4a/output_0_split_1
I0509 23:09:34.717321 23234 net.cpp:334] inception_4b/1x1 -> inception_4b/1x1
I0509 23:09:34.717332 23234 net.cpp:105] Setting up inception_4b/1x1
I0509 23:09:34.718036 23234 net.cpp:112] Top shape: 32 160 14 14 (1003520)
I0509 23:09:34.718051 23234 layer_factory.hpp:74] Creating layer inception_4b/relu_1x1
I0509 23:09:34.718060 23234 net.cpp:76] Creating Layer inception_4b/relu_1x1
I0509 23:09:34.718066 23234 net.cpp:372] inception_4b/relu_1x1 <- inception_4b/1x1
I0509 23:09:34.718075 23234 net.cpp:323] inception_4b/relu_1x1 -> inception_4b/1x1 (in-place)
I0509 23:09:34.718083 23234 net.cpp:105] Setting up inception_4b/relu_1x1
I0509 23:09:34.718089 23234 net.cpp:112] Top shape: 32 160 14 14 (1003520)
I0509 23:09:34.718096 23234 layer_factory.hpp:74] Creating layer inception_4b/3x3_reduce
I0509 23:09:34.718104 23234 net.cpp:76] Creating Layer inception_4b/3x3_reduce
I0509 23:09:34.718111 23234 net.cpp:372] inception_4b/3x3_reduce <- inception_4a/output_inception_4a/output_0_split_2
I0509 23:09:34.718121 23234 net.cpp:334] inception_4b/3x3_reduce -> inception_4b/3x3_reduce
I0509 23:09:34.718129 23234 net.cpp:105] Setting up inception_4b/3x3_reduce
I0509 23:09:34.718664 23234 net.cpp:112] Top shape: 32 112 14 14 (702464)
I0509 23:09:34.718683 23234 layer_factory.hpp:74] Creating layer inception_4b/relu_3x3_reduce
I0509 23:09:34.718693 23234 net.cpp:76] Creating Layer inception_4b/relu_3x3_reduce
I0509 23:09:34.718699 23234 net.cpp:372] inception_4b/relu_3x3_reduce <- inception_4b/3x3_reduce
I0509 23:09:34.718708 23234 net.cpp:323] inception_4b/relu_3x3_reduce -> inception_4b/3x3_reduce (in-place)
I0509 23:09:34.718715 23234 net.cpp:105] Setting up inception_4b/relu_3x3_reduce
I0509 23:09:34.718721 23234 net.cpp:112] Top shape: 32 112 14 14 (702464)
I0509 23:09:34.718726 23234 layer_factory.hpp:74] Creating layer inception_4b/3x3
I0509 23:09:34.718737 23234 net.cpp:76] Creating Layer inception_4b/3x3
I0509 23:09:34.718756 23234 net.cpp:372] inception_4b/3x3 <- inception_4b/3x3_reduce
I0509 23:09:34.718765 23234 net.cpp:334] inception_4b/3x3 -> inception_4b/3x3
I0509 23:09:34.718775 23234 net.cpp:105] Setting up inception_4b/3x3
I0509 23:09:34.720667 23234 net.cpp:112] Top shape: 32 224 14 14 (1404928)
I0509 23:09:34.720684 23234 layer_factory.hpp:74] Creating layer inception_4b/relu_3x3
I0509 23:09:34.720695 23234 net.cpp:76] Creating Layer inception_4b/relu_3x3
I0509 23:09:34.720701 23234 net.cpp:372] inception_4b/relu_3x3 <- inception_4b/3x3
I0509 23:09:34.720708 23234 net.cpp:323] inception_4b/relu_3x3 -> inception_4b/3x3 (in-place)
I0509 23:09:34.720716 23234 net.cpp:105] Setting up inception_4b/relu_3x3
I0509 23:09:34.720722 23234 net.cpp:112] Top shape: 32 224 14 14 (1404928)
I0509 23:09:34.720727 23234 layer_factory.hpp:74] Creating layer inception_4b/5x5_reduce
I0509 23:09:34.720736 23234 net.cpp:76] Creating Layer inception_4b/5x5_reduce
I0509 23:09:34.720743 23234 net.cpp:372] inception_4b/5x5_reduce <- inception_4a/output_inception_4a/output_0_split_3
I0509 23:09:34.720752 23234 net.cpp:334] inception_4b/5x5_reduce -> inception_4b/5x5_reduce
I0509 23:09:34.720760 23234 net.cpp:105] Setting up inception_4b/5x5_reduce
I0509 23:09:34.720873 23234 net.cpp:112] Top shape: 32 24 14 14 (150528)
I0509 23:09:34.720883 23234 layer_factory.hpp:74] Creating layer inception_4b/relu_5x5_reduce
I0509 23:09:34.720891 23234 net.cpp:76] Creating Layer inception_4b/relu_5x5_reduce
I0509 23:09:34.720897 23234 net.cpp:372] inception_4b/relu_5x5_reduce <- inception_4b/5x5_reduce
I0509 23:09:34.720903 23234 net.cpp:323] inception_4b/relu_5x5_reduce -> inception_4b/5x5_reduce (in-place)
I0509 23:09:34.720911 23234 net.cpp:105] Setting up inception_4b/relu_5x5_reduce
I0509 23:09:34.720916 23234 net.cpp:112] Top shape: 32 24 14 14 (150528)
I0509 23:09:34.720921 23234 layer_factory.hpp:74] Creating layer inception_4b/5x5
I0509 23:09:34.720932 23234 net.cpp:76] Creating Layer inception_4b/5x5
I0509 23:09:34.720937 23234 net.cpp:372] inception_4b/5x5 <- inception_4b/5x5_reduce
I0509 23:09:34.720945 23234 net.cpp:334] inception_4b/5x5 -> inception_4b/5x5
I0509 23:09:34.720953 23234 net.cpp:105] Setting up inception_4b/5x5
I0509 23:09:34.721297 23234 net.cpp:112] Top shape: 32 64 14 14 (401408)
I0509 23:09:34.721310 23234 layer_factory.hpp:74] Creating layer inception_4b/relu_5x5
I0509 23:09:34.721318 23234 net.cpp:76] Creating Layer inception_4b/relu_5x5
I0509 23:09:34.721324 23234 net.cpp:372] inception_4b/relu_5x5 <- inception_4b/5x5
I0509 23:09:34.721334 23234 net.cpp:323] inception_4b/relu_5x5 -> inception_4b/5x5 (in-place)
I0509 23:09:34.721343 23234 net.cpp:105] Setting up inception_4b/relu_5x5
I0509 23:09:34.721349 23234 net.cpp:112] Top shape: 32 64 14 14 (401408)
I0509 23:09:34.721354 23234 layer_factory.hpp:74] Creating layer inception_4b/pool
I0509 23:09:34.721361 23234 net.cpp:76] Creating Layer inception_4b/pool
I0509 23:09:34.721367 23234 net.cpp:372] inception_4b/pool <- inception_4a/output_inception_4a/output_0_split_4
I0509 23:09:34.721385 23234 net.cpp:334] inception_4b/pool -> inception_4b/pool
I0509 23:09:34.721411 23234 net.cpp:105] Setting up inception_4b/pool
I0509 23:09:34.721426 23234 net.cpp:112] Top shape: 32 512 14 14 (3211264)
I0509 23:09:34.721433 23234 layer_factory.hpp:74] Creating layer inception_4b/pool_proj
I0509 23:09:34.721446 23234 net.cpp:76] Creating Layer inception_4b/pool_proj
I0509 23:09:34.721452 23234 net.cpp:372] inception_4b/pool_proj <- inception_4b/pool
I0509 23:09:34.721463 23234 net.cpp:334] inception_4b/pool_proj -> inception_4b/pool_proj
I0509 23:09:34.721472 23234 net.cpp:105] Setting up inception_4b/pool_proj
I0509 23:09:34.721766 23234 net.cpp:112] Top shape: 32 64 14 14 (401408)
I0509 23:09:34.721779 23234 layer_factory.hpp:74] Creating layer inception_4b/relu_pool_proj
I0509 23:09:34.721791 23234 net.cpp:76] Creating Layer inception_4b/relu_pool_proj
I0509 23:09:34.721797 23234 net.cpp:372] inception_4b/relu_pool_proj <- inception_4b/pool_proj
I0509 23:09:34.721820 23234 net.cpp:323] inception_4b/relu_pool_proj -> inception_4b/pool_proj (in-place)
I0509 23:09:34.721829 23234 net.cpp:105] Setting up inception_4b/relu_pool_proj
I0509 23:09:34.721835 23234 net.cpp:112] Top shape: 32 64 14 14 (401408)
I0509 23:09:34.721842 23234 layer_factory.hpp:74] Creating layer inception_4b/output
I0509 23:09:34.721849 23234 net.cpp:76] Creating Layer inception_4b/output
I0509 23:09:34.721854 23234 net.cpp:372] inception_4b/output <- inception_4b/1x1
I0509 23:09:34.721861 23234 net.cpp:372] inception_4b/output <- inception_4b/3x3
I0509 23:09:34.721868 23234 net.cpp:372] inception_4b/output <- inception_4b/5x5
I0509 23:09:34.721873 23234 net.cpp:372] inception_4b/output <- inception_4b/pool_proj
I0509 23:09:34.721882 23234 net.cpp:334] inception_4b/output -> inception_4b/output
I0509 23:09:34.721891 23234 net.cpp:105] Setting up inception_4b/output
I0509 23:09:34.721899 23234 net.cpp:112] Top shape: 32 512 14 14 (3211264)
I0509 23:09:34.721904 23234 layer_factory.hpp:74] Creating layer inception_4b/output_inception_4b/output_0_split
I0509 23:09:34.721911 23234 net.cpp:76] Creating Layer inception_4b/output_inception_4b/output_0_split
I0509 23:09:34.721917 23234 net.cpp:372] inception_4b/output_inception_4b/output_0_split <- inception_4b/output
I0509 23:09:34.721925 23234 net.cpp:334] inception_4b/output_inception_4b/output_0_split -> inception_4b/output_inception_4b/output_0_split_0
I0509 23:09:34.721935 23234 net.cpp:334] inception_4b/output_inception_4b/output_0_split -> inception_4b/output_inception_4b/output_0_split_1
I0509 23:09:34.721943 23234 net.cpp:334] inception_4b/output_inception_4b/output_0_split -> inception_4b/output_inception_4b/output_0_split_2
I0509 23:09:34.721956 23234 net.cpp:334] inception_4b/output_inception_4b/output_0_split -> inception_4b/output_inception_4b/output_0_split_3
I0509 23:09:34.721983 23234 net.cpp:105] Setting up inception_4b/output_inception_4b/output_0_split
I0509 23:09:34.721992 23234 net.cpp:112] Top shape: 32 512 14 14 (3211264)
I0509 23:09:34.721998 23234 net.cpp:112] Top shape: 32 512 14 14 (3211264)
I0509 23:09:34.722003 23234 net.cpp:112] Top shape: 32 512 14 14 (3211264)
I0509 23:09:34.722008 23234 net.cpp:112] Top shape: 32 512 14 14 (3211264)
I0509 23:09:34.722013 23234 layer_factory.hpp:74] Creating layer inception_4c/1x1
I0509 23:09:34.722023 23234 net.cpp:76] Creating Layer inception_4c/1x1
I0509 23:09:34.722028 23234 net.cpp:372] inception_4c/1x1 <- inception_4b/output_inception_4b/output_0_split_0
I0509 23:09:34.722039 23234 net.cpp:334] inception_4c/1x1 -> inception_4c/1x1
I0509 23:09:34.722048 23234 net.cpp:105] Setting up inception_4c/1x1
I0509 23:09:34.722611 23234 net.cpp:112] Top shape: 32 128 14 14 (802816)
I0509 23:09:34.722631 23234 layer_factory.hpp:74] Creating layer inception_4c/relu_1x1
I0509 23:09:34.722640 23234 net.cpp:76] Creating Layer inception_4c/relu_1x1
I0509 23:09:34.722646 23234 net.cpp:372] inception_4c/relu_1x1 <- inception_4c/1x1
I0509 23:09:34.722656 23234 net.cpp:323] inception_4c/relu_1x1 -> inception_4c/1x1 (in-place)
I0509 23:09:34.722663 23234 net.cpp:105] Setting up inception_4c/relu_1x1
I0509 23:09:34.722668 23234 net.cpp:112] Top shape: 32 128 14 14 (802816)
I0509 23:09:34.722674 23234 layer_factory.hpp:74] Creating layer inception_4c/3x3_reduce
I0509 23:09:34.722682 23234 net.cpp:76] Creating Layer inception_4c/3x3_reduce
I0509 23:09:34.722688 23234 net.cpp:372] inception_4c/3x3_reduce <- inception_4b/output_inception_4b/output_0_split_1
I0509 23:09:34.722697 23234 net.cpp:334] inception_4c/3x3_reduce -> inception_4c/3x3_reduce
I0509 23:09:34.722707 23234 net.cpp:105] Setting up inception_4c/3x3_reduce
I0509 23:09:34.723263 23234 net.cpp:112] Top shape: 32 128 14 14 (802816)
I0509 23:09:34.723289 23234 layer_factory.hpp:74] Creating layer inception_4c/relu_3x3_reduce
I0509 23:09:34.723296 23234 net.cpp:76] Creating Layer inception_4c/relu_3x3_reduce
I0509 23:09:34.723302 23234 net.cpp:372] inception_4c/relu_3x3_reduce <- inception_4c/3x3_reduce
I0509 23:09:34.723310 23234 net.cpp:323] inception_4c/relu_3x3_reduce -> inception_4c/3x3_reduce (in-place)
I0509 23:09:34.723331 23234 net.cpp:105] Setting up inception_4c/relu_3x3_reduce
I0509 23:09:34.723338 23234 net.cpp:112] Top shape: 32 128 14 14 (802816)
I0509 23:09:34.723343 23234 layer_factory.hpp:74] Creating layer inception_4c/3x3
I0509 23:09:34.723354 23234 net.cpp:76] Creating Layer inception_4c/3x3
I0509 23:09:34.723361 23234 net.cpp:372] inception_4c/3x3 <- inception_4c/3x3_reduce
I0509 23:09:34.723369 23234 net.cpp:334] inception_4c/3x3 -> inception_4c/3x3
I0509 23:09:34.723377 23234 net.cpp:105] Setting up inception_4c/3x3
I0509 23:09:34.725852 23234 net.cpp:112] Top shape: 32 256 14 14 (1605632)
I0509 23:09:34.725890 23234 layer_factory.hpp:74] Creating layer inception_4c/relu_3x3
I0509 23:09:34.725900 23234 net.cpp:76] Creating Layer inception_4c/relu_3x3
I0509 23:09:34.725908 23234 net.cpp:372] inception_4c/relu_3x3 <- inception_4c/3x3
I0509 23:09:34.725915 23234 net.cpp:323] inception_4c/relu_3x3 -> inception_4c/3x3 (in-place)
I0509 23:09:34.725924 23234 net.cpp:105] Setting up inception_4c/relu_3x3
I0509 23:09:34.725930 23234 net.cpp:112] Top shape: 32 256 14 14 (1605632)
I0509 23:09:34.725936 23234 layer_factory.hpp:74] Creating layer inception_4c/5x5_reduce
I0509 23:09:34.725947 23234 net.cpp:76] Creating Layer inception_4c/5x5_reduce
I0509 23:09:34.725953 23234 net.cpp:372] inception_4c/5x5_reduce <- inception_4b/output_inception_4b/output_0_split_2
I0509 23:09:34.725962 23234 net.cpp:334] inception_4c/5x5_reduce -> inception_4c/5x5_reduce
I0509 23:09:34.725971 23234 net.cpp:105] Setting up inception_4c/5x5_reduce
I0509 23:09:34.726088 23234 net.cpp:112] Top shape: 32 24 14 14 (150528)
I0509 23:09:34.726099 23234 layer_factory.hpp:74] Creating layer inception_4c/relu_5x5_reduce
I0509 23:09:34.726950 23234 net.cpp:76] Creating Layer inception_4c/relu_5x5_reduce
I0509 23:09:34.726960 23234 net.cpp:372] inception_4c/relu_5x5_reduce <- inception_4c/5x5_reduce
I0509 23:09:34.726969 23234 net.cpp:323] inception_4c/relu_5x5_reduce -> inception_4c/5x5_reduce (in-place)
I0509 23:09:34.726979 23234 net.cpp:105] Setting up inception_4c/relu_5x5_reduce
I0509 23:09:34.726984 23234 net.cpp:112] Top shape: 32 24 14 14 (150528)
I0509 23:09:34.726990 23234 layer_factory.hpp:74] Creating layer inception_4c/5x5
I0509 23:09:34.727004 23234 net.cpp:76] Creating Layer inception_4c/5x5
I0509 23:09:34.727010 23234 net.cpp:372] inception_4c/5x5 <- inception_4c/5x5_reduce
I0509 23:09:34.727020 23234 net.cpp:334] inception_4c/5x5 -> inception_4c/5x5
I0509 23:09:34.727030 23234 net.cpp:105] Setting up inception_4c/5x5
I0509 23:09:34.727373 23234 net.cpp:112] Top shape: 32 64 14 14 (401408)
I0509 23:09:34.727390 23234 layer_factory.hpp:74] Creating layer inception_4c/relu_5x5
I0509 23:09:34.727397 23234 net.cpp:76] Creating Layer inception_4c/relu_5x5
I0509 23:09:34.727404 23234 net.cpp:372] inception_4c/relu_5x5 <- inception_4c/5x5
I0509 23:09:34.727411 23234 net.cpp:323] inception_4c/relu_5x5 -> inception_4c/5x5 (in-place)
I0509 23:09:34.727419 23234 net.cpp:105] Setting up inception_4c/relu_5x5
I0509 23:09:34.727424 23234 net.cpp:112] Top shape: 32 64 14 14 (401408)
I0509 23:09:34.727430 23234 layer_factory.hpp:74] Creating layer inception_4c/pool
I0509 23:09:34.727438 23234 net.cpp:76] Creating Layer inception_4c/pool
I0509 23:09:34.727444 23234 net.cpp:372] inception_4c/pool <- inception_4b/output_inception_4b/output_0_split_3
I0509 23:09:34.727454 23234 net.cpp:334] inception_4c/pool -> inception_4c/pool
I0509 23:09:34.727463 23234 net.cpp:105] Setting up inception_4c/pool
I0509 23:09:34.727471 23234 net.cpp:112] Top shape: 32 512 14 14 (3211264)
I0509 23:09:34.727478 23234 layer_factory.hpp:74] Creating layer inception_4c/pool_proj
I0509 23:09:34.727485 23234 net.cpp:76] Creating Layer inception_4c/pool_proj
I0509 23:09:34.727491 23234 net.cpp:372] inception_4c/pool_proj <- inception_4c/pool
I0509 23:09:34.727501 23234 net.cpp:334] inception_4c/pool_proj -> inception_4c/pool_proj
I0509 23:09:34.727510 23234 net.cpp:105] Setting up inception_4c/pool_proj
I0509 23:09:34.727834 23234 net.cpp:112] Top shape: 32 64 14 14 (401408)
I0509 23:09:34.727848 23234 layer_factory.hpp:74] Creating layer inception_4c/relu_pool_proj
I0509 23:09:34.727855 23234 net.cpp:76] Creating Layer inception_4c/relu_pool_proj
I0509 23:09:34.727862 23234 net.cpp:372] inception_4c/relu_pool_proj <- inception_4c/pool_proj
I0509 23:09:34.727869 23234 net.cpp:323] inception_4c/relu_pool_proj -> inception_4c/pool_proj (in-place)
I0509 23:09:34.727877 23234 net.cpp:105] Setting up inception_4c/relu_pool_proj
I0509 23:09:34.727882 23234 net.cpp:112] Top shape: 32 64 14 14 (401408)
I0509 23:09:34.727888 23234 layer_factory.hpp:74] Creating layer inception_4c/output
I0509 23:09:34.727898 23234 net.cpp:76] Creating Layer inception_4c/output
I0509 23:09:34.727905 23234 net.cpp:372] inception_4c/output <- inception_4c/1x1
I0509 23:09:34.727911 23234 net.cpp:372] inception_4c/output <- inception_4c/3x3
I0509 23:09:34.727917 23234 net.cpp:372] inception_4c/output <- inception_4c/5x5
I0509 23:09:34.727923 23234 net.cpp:372] inception_4c/output <- inception_4c/pool_proj
I0509 23:09:34.727931 23234 net.cpp:334] inception_4c/output -> inception_4c/output
I0509 23:09:34.727938 23234 net.cpp:105] Setting up inception_4c/output
I0509 23:09:34.727946 23234 net.cpp:112] Top shape: 32 512 14 14 (3211264)
I0509 23:09:34.727952 23234 layer_factory.hpp:74] Creating layer inception_4c/output_inception_4c/output_0_split
I0509 23:09:34.727962 23234 net.cpp:76] Creating Layer inception_4c/output_inception_4c/output_0_split
I0509 23:09:34.727967 23234 net.cpp:372] inception_4c/output_inception_4c/output_0_split <- inception_4c/output
I0509 23:09:34.727975 23234 net.cpp:334] inception_4c/output_inception_4c/output_0_split -> inception_4c/output_inception_4c/output_0_split_0
I0509 23:09:34.727990 23234 net.cpp:334] inception_4c/output_inception_4c/output_0_split -> inception_4c/output_inception_4c/output_0_split_1
I0509 23:09:34.728000 23234 net.cpp:334] inception_4c/output_inception_4c/output_0_split -> inception_4c/output_inception_4c/output_0_split_2
I0509 23:09:34.728010 23234 net.cpp:334] inception_4c/output_inception_4c/output_0_split -> inception_4c/output_inception_4c/output_0_split_3
I0509 23:09:34.728018 23234 net.cpp:105] Setting up inception_4c/output_inception_4c/output_0_split
I0509 23:09:34.728024 23234 net.cpp:112] Top shape: 32 512 14 14 (3211264)
I0509 23:09:34.728030 23234 net.cpp:112] Top shape: 32 512 14 14 (3211264)
I0509 23:09:34.728035 23234 net.cpp:112] Top shape: 32 512 14 14 (3211264)
I0509 23:09:34.728040 23234 net.cpp:112] Top shape: 32 512 14 14 (3211264)
I0509 23:09:34.728045 23234 layer_factory.hpp:74] Creating layer inception_4d/1x1
I0509 23:09:34.728056 23234 net.cpp:76] Creating Layer inception_4d/1x1
I0509 23:09:34.728062 23234 net.cpp:372] inception_4d/1x1 <- inception_4c/output_inception_4c/output_0_split_0
I0509 23:09:34.728070 23234 net.cpp:334] inception_4d/1x1 -> inception_4d/1x1
I0509 23:09:34.728078 23234 net.cpp:105] Setting up inception_4d/1x1
I0509 23:09:34.728588 23234 net.cpp:112] Top shape: 32 112 14 14 (702464)
I0509 23:09:34.728605 23234 layer_factory.hpp:74] Creating layer inception_4d/relu_1x1
I0509 23:09:34.728613 23234 net.cpp:76] Creating Layer inception_4d/relu_1x1
I0509 23:09:34.728622 23234 net.cpp:372] inception_4d/relu_1x1 <- inception_4d/1x1
I0509 23:09:34.728629 23234 net.cpp:323] inception_4d/relu_1x1 -> inception_4d/1x1 (in-place)
I0509 23:09:34.728637 23234 net.cpp:105] Setting up inception_4d/relu_1x1
I0509 23:09:34.728643 23234 net.cpp:112] Top shape: 32 112 14 14 (702464)
I0509 23:09:34.728648 23234 layer_factory.hpp:74] Creating layer inception_4d/3x3_reduce
I0509 23:09:34.728657 23234 net.cpp:76] Creating Layer inception_4d/3x3_reduce
I0509 23:09:34.728662 23234 net.cpp:372] inception_4d/3x3_reduce <- inception_4c/output_inception_4c/output_0_split_1
I0509 23:09:34.728672 23234 net.cpp:334] inception_4d/3x3_reduce -> inception_4d/3x3_reduce
I0509 23:09:34.728682 23234 net.cpp:105] Setting up inception_4d/3x3_reduce
I0509 23:09:34.729329 23234 net.cpp:112] Top shape: 32 144 14 14 (903168)
I0509 23:09:34.729357 23234 layer_factory.hpp:74] Creating layer inception_4d/relu_3x3_reduce
I0509 23:09:34.729365 23234 net.cpp:76] Creating Layer inception_4d/relu_3x3_reduce
I0509 23:09:34.729372 23234 net.cpp:372] inception_4d/relu_3x3_reduce <- inception_4d/3x3_reduce
I0509 23:09:34.729378 23234 net.cpp:323] inception_4d/relu_3x3_reduce -> inception_4d/3x3_reduce (in-place)
I0509 23:09:34.729387 23234 net.cpp:105] Setting up inception_4d/relu_3x3_reduce
I0509 23:09:34.729393 23234 net.cpp:112] Top shape: 32 144 14 14 (903168)
I0509 23:09:34.729398 23234 layer_factory.hpp:74] Creating layer inception_4d/3x3
I0509 23:09:34.729409 23234 net.cpp:76] Creating Layer inception_4d/3x3
I0509 23:09:34.729416 23234 net.cpp:372] inception_4d/3x3 <- inception_4d/3x3_reduce
I0509 23:09:34.729426 23234 net.cpp:334] inception_4d/3x3 -> inception_4d/3x3
I0509 23:09:34.729434 23234 net.cpp:105] Setting up inception_4d/3x3
I0509 23:09:34.732692 23234 net.cpp:112] Top shape: 32 288 14 14 (1806336)
I0509 23:09:34.732715 23234 layer_factory.hpp:74] Creating layer inception_4d/relu_3x3
I0509 23:09:34.732724 23234 net.cpp:76] Creating Layer inception_4d/relu_3x3
I0509 23:09:34.732731 23234 net.cpp:372] inception_4d/relu_3x3 <- inception_4d/3x3
I0509 23:09:34.732739 23234 net.cpp:323] inception_4d/relu_3x3 -> inception_4d/3x3 (in-place)
I0509 23:09:34.732748 23234 net.cpp:105] Setting up inception_4d/relu_3x3
I0509 23:09:34.732753 23234 net.cpp:112] Top shape: 32 288 14 14 (1806336)
I0509 23:09:34.732759 23234 layer_factory.hpp:74] Creating layer inception_4d/5x5_reduce
I0509 23:09:34.732770 23234 net.cpp:76] Creating Layer inception_4d/5x5_reduce
I0509 23:09:34.732776 23234 net.cpp:372] inception_4d/5x5_reduce <- inception_4c/output_inception_4c/output_0_split_2
I0509 23:09:34.732785 23234 net.cpp:334] inception_4d/5x5_reduce -> inception_4d/5x5_reduce
I0509 23:09:34.732797 23234 net.cpp:105] Setting up inception_4d/5x5_reduce
I0509 23:09:34.732955 23234 net.cpp:112] Top shape: 32 32 14 14 (200704)
I0509 23:09:34.732967 23234 layer_factory.hpp:74] Creating layer inception_4d/relu_5x5_reduce
I0509 23:09:34.732976 23234 net.cpp:76] Creating Layer inception_4d/relu_5x5_reduce
I0509 23:09:34.732982 23234 net.cpp:372] inception_4d/relu_5x5_reduce <- inception_4d/5x5_reduce
I0509 23:09:34.732991 23234 net.cpp:323] inception_4d/relu_5x5_reduce -> inception_4d/5x5_reduce (in-place)
I0509 23:09:34.733000 23234 net.cpp:105] Setting up inception_4d/relu_5x5_reduce
I0509 23:09:34.733006 23234 net.cpp:112] Top shape: 32 32 14 14 (200704)
I0509 23:09:34.733011 23234 layer_factory.hpp:74] Creating layer inception_4d/5x5
I0509 23:09:34.733021 23234 net.cpp:76] Creating Layer inception_4d/5x5
I0509 23:09:34.733026 23234 net.cpp:372] inception_4d/5x5 <- inception_4d/5x5_reduce
I0509 23:09:34.733036 23234 net.cpp:334] inception_4d/5x5 -> inception_4d/5x5
I0509 23:09:34.733045 23234 net.cpp:105] Setting up inception_4d/5x5
I0509 23:09:34.733499 23234 net.cpp:112] Top shape: 32 64 14 14 (401408)
I0509 23:09:34.733512 23234 layer_factory.hpp:74] Creating layer inception_4d/relu_5x5
I0509 23:09:34.733523 23234 net.cpp:76] Creating Layer inception_4d/relu_5x5
I0509 23:09:34.733530 23234 net.cpp:372] inception_4d/relu_5x5 <- inception_4d/5x5
I0509 23:09:34.733537 23234 net.cpp:323] inception_4d/relu_5x5 -> inception_4d/5x5 (in-place)
I0509 23:09:34.733546 23234 net.cpp:105] Setting up inception_4d/relu_5x5
I0509 23:09:34.733551 23234 net.cpp:112] Top shape: 32 64 14 14 (401408)
I0509 23:09:34.733556 23234 layer_factory.hpp:74] Creating layer inception_4d/pool
I0509 23:09:34.733566 23234 net.cpp:76] Creating Layer inception_4d/pool
I0509 23:09:34.733572 23234 net.cpp:372] inception_4d/pool <- inception_4c/output_inception_4c/output_0_split_3
I0509 23:09:34.733580 23234 net.cpp:334] inception_4d/pool -> inception_4d/pool
I0509 23:09:34.733588 23234 net.cpp:105] Setting up inception_4d/pool
I0509 23:09:34.733597 23234 net.cpp:112] Top shape: 32 512 14 14 (3211264)
I0509 23:09:34.733603 23234 layer_factory.hpp:74] Creating layer inception_4d/pool_proj
I0509 23:09:34.733630 23234 net.cpp:76] Creating Layer inception_4d/pool_proj
I0509 23:09:34.733638 23234 net.cpp:372] inception_4d/pool_proj <- inception_4d/pool
I0509 23:09:34.733649 23234 net.cpp:334] inception_4d/pool_proj -> inception_4d/pool_proj
I0509 23:09:34.733659 23234 net.cpp:105] Setting up inception_4d/pool_proj
I0509 23:09:34.733939 23234 net.cpp:112] Top shape: 32 64 14 14 (401408)
I0509 23:09:34.733952 23234 layer_factory.hpp:74] Creating layer inception_4d/relu_pool_proj
I0509 23:09:34.733960 23234 net.cpp:76] Creating Layer inception_4d/relu_pool_proj
I0509 23:09:34.733966 23234 net.cpp:372] inception_4d/relu_pool_proj <- inception_4d/pool_proj
I0509 23:09:34.733973 23234 net.cpp:323] inception_4d/relu_pool_proj -> inception_4d/pool_proj (in-place)
I0509 23:09:34.733981 23234 net.cpp:105] Setting up inception_4d/relu_pool_proj
I0509 23:09:34.733986 23234 net.cpp:112] Top shape: 32 64 14 14 (401408)
I0509 23:09:34.733993 23234 layer_factory.hpp:74] Creating layer inception_4d/output
I0509 23:09:34.734005 23234 net.cpp:76] Creating Layer inception_4d/output
I0509 23:09:34.734012 23234 net.cpp:372] inception_4d/output <- inception_4d/1x1
I0509 23:09:34.734019 23234 net.cpp:372] inception_4d/output <- inception_4d/3x3
I0509 23:09:34.734025 23234 net.cpp:372] inception_4d/output <- inception_4d/5x5
I0509 23:09:34.734031 23234 net.cpp:372] inception_4d/output <- inception_4d/pool_proj
I0509 23:09:34.734038 23234 net.cpp:334] inception_4d/output -> inception_4d/output
I0509 23:09:34.734047 23234 net.cpp:105] Setting up inception_4d/output
I0509 23:09:34.734053 23234 net.cpp:112] Top shape: 32 528 14 14 (3311616)
I0509 23:09:34.734060 23234 layer_factory.hpp:74] Creating layer inception_4d/output_inception_4d/output_0_split
I0509 23:09:34.734091 23234 net.cpp:76] Creating Layer inception_4d/output_inception_4d/output_0_split
I0509 23:09:34.734099 23234 net.cpp:372] inception_4d/output_inception_4d/output_0_split <- inception_4d/output
I0509 23:09:34.734107 23234 net.cpp:334] inception_4d/output_inception_4d/output_0_split -> inception_4d/output_inception_4d/output_0_split_0
I0509 23:09:34.734117 23234 net.cpp:334] inception_4d/output_inception_4d/output_0_split -> inception_4d/output_inception_4d/output_0_split_1
I0509 23:09:34.734127 23234 net.cpp:334] inception_4d/output_inception_4d/output_0_split -> inception_4d/output_inception_4d/output_0_split_2
I0509 23:09:34.734135 23234 net.cpp:334] inception_4d/output_inception_4d/output_0_split -> inception_4d/output_inception_4d/output_0_split_3
I0509 23:09:34.734144 23234 net.cpp:334] inception_4d/output_inception_4d/output_0_split -> inception_4d/output_inception_4d/output_0_split_4
I0509 23:09:34.734153 23234 net.cpp:105] Setting up inception_4d/output_inception_4d/output_0_split
I0509 23:09:34.734159 23234 net.cpp:112] Top shape: 32 528 14 14 (3311616)
I0509 23:09:34.734165 23234 net.cpp:112] Top shape: 32 528 14 14 (3311616)
I0509 23:09:34.734170 23234 net.cpp:112] Top shape: 32 528 14 14 (3311616)
I0509 23:09:34.734175 23234 net.cpp:112] Top shape: 32 528 14 14 (3311616)
I0509 23:09:34.734179 23234 net.cpp:112] Top shape: 32 528 14 14 (3311616)
I0509 23:09:34.734185 23234 layer_factory.hpp:74] Creating layer loss2/ave_pool
I0509 23:09:34.734195 23234 net.cpp:76] Creating Layer loss2/ave_pool
I0509 23:09:34.734201 23234 net.cpp:372] loss2/ave_pool <- inception_4d/output_inception_4d/output_0_split_0
I0509 23:09:34.734210 23234 net.cpp:334] loss2/ave_pool -> loss2/ave_pool
I0509 23:09:34.734217 23234 net.cpp:105] Setting up loss2/ave_pool
I0509 23:09:34.734223 23234 net.cpp:112] Top shape: 32 528 4 4 (270336)
I0509 23:09:34.734230 23234 layer_factory.hpp:74] Creating layer loss2/conv
I0509 23:09:34.734239 23234 net.cpp:76] Creating Layer loss2/conv
I0509 23:09:34.734246 23234 net.cpp:372] loss2/conv <- loss2/ave_pool
I0509 23:09:34.734253 23234 net.cpp:334] loss2/conv -> loss2/conv
I0509 23:09:34.734261 23234 net.cpp:105] Setting up loss2/conv
I0509 23:09:34.734858 23234 net.cpp:112] Top shape: 32 128 4 4 (65536)
I0509 23:09:34.734874 23234 layer_factory.hpp:74] Creating layer loss2/relu_conv
I0509 23:09:34.734894 23234 net.cpp:76] Creating Layer loss2/relu_conv
I0509 23:09:34.734901 23234 net.cpp:372] loss2/relu_conv <- loss2/conv
I0509 23:09:34.734911 23234 net.cpp:323] loss2/relu_conv -> loss2/conv (in-place)
I0509 23:09:34.734920 23234 net.cpp:105] Setting up loss2/relu_conv
I0509 23:09:34.734925 23234 net.cpp:112] Top shape: 32 128 4 4 (65536)
I0509 23:09:34.734931 23234 layer_factory.hpp:74] Creating layer loss2/fc
I0509 23:09:34.734941 23234 net.cpp:76] Creating Layer loss2/fc
I0509 23:09:34.734946 23234 net.cpp:372] loss2/fc <- loss2/conv
I0509 23:09:34.734952 23234 net.cpp:334] loss2/fc -> loss2/fc
I0509 23:09:34.734961 23234 net.cpp:105] Setting up loss2/fc
I0509 23:09:34.752454 23234 net.cpp:112] Top shape: 32 1024 1 1 (32768)
I0509 23:09:34.752498 23234 layer_factory.hpp:74] Creating layer loss2/relu_fc
I0509 23:09:34.752512 23234 net.cpp:76] Creating Layer loss2/relu_fc
I0509 23:09:34.752521 23234 net.cpp:372] loss2/relu_fc <- loss2/fc
I0509 23:09:34.752534 23234 net.cpp:323] loss2/relu_fc -> loss2/fc (in-place)
I0509 23:09:34.752545 23234 net.cpp:105] Setting up loss2/relu_fc
I0509 23:09:34.752552 23234 net.cpp:112] Top shape: 32 1024 1 1 (32768)
I0509 23:09:34.752557 23234 layer_factory.hpp:74] Creating layer loss2/drop_fc
I0509 23:09:34.752567 23234 net.cpp:76] Creating Layer loss2/drop_fc
I0509 23:09:34.752571 23234 net.cpp:372] loss2/drop_fc <- loss2/fc
I0509 23:09:34.752578 23234 net.cpp:323] loss2/drop_fc -> loss2/fc (in-place)
I0509 23:09:34.752586 23234 net.cpp:105] Setting up loss2/drop_fc
I0509 23:09:34.752593 23234 net.cpp:112] Top shape: 32 1024 1 1 (32768)
I0509 23:09:34.752599 23234 layer_factory.hpp:74] Creating layer loss2/classifier
I0509 23:09:34.752609 23234 net.cpp:76] Creating Layer loss2/classifier
I0509 23:09:34.752614 23234 net.cpp:372] loss2/classifier <- loss2/fc
I0509 23:09:34.752625 23234 net.cpp:334] loss2/classifier -> loss2/classifier
I0509 23:09:34.752635 23234 net.cpp:105] Setting up loss2/classifier
I0509 23:09:34.752674 23234 net.cpp:112] Top shape: 32 2 1 1 (64)
I0509 23:09:34.752686 23234 layer_factory.hpp:74] Creating layer loss2/loss
I0509 23:09:34.752696 23234 net.cpp:76] Creating Layer loss2/loss
I0509 23:09:34.752701 23234 net.cpp:372] loss2/loss <- loss2/classifier
I0509 23:09:34.752708 23234 net.cpp:372] loss2/loss <- label_data_1_split_1
I0509 23:09:34.752717 23234 net.cpp:334] loss2/loss -> loss2/loss1
I0509 23:09:34.752725 23234 net.cpp:105] Setting up loss2/loss
I0509 23:09:34.752734 23234 layer_factory.hpp:74] Creating layer loss2/loss
I0509 23:09:34.752749 23234 net.cpp:112] Top shape: 1 1 1 1 (1)
I0509 23:09:34.752755 23234 net.cpp:118]     with loss weight 0.3
I0509 23:09:34.752774 23234 layer_factory.hpp:74] Creating layer inception_4e/1x1
I0509 23:09:34.752787 23234 net.cpp:76] Creating Layer inception_4e/1x1
I0509 23:09:34.752794 23234 net.cpp:372] inception_4e/1x1 <- inception_4d/output_inception_4d/output_0_split_1
I0509 23:09:34.752804 23234 net.cpp:334] inception_4e/1x1 -> inception_4e/1x1
I0509 23:09:34.752812 23234 net.cpp:105] Setting up inception_4e/1x1
I0509 23:09:34.753978 23234 net.cpp:112] Top shape: 32 256 14 14 (1605632)
I0509 23:09:34.753994 23234 layer_factory.hpp:74] Creating layer inception_4e/relu_1x1
I0509 23:09:34.754003 23234 net.cpp:76] Creating Layer inception_4e/relu_1x1
I0509 23:09:34.754009 23234 net.cpp:372] inception_4e/relu_1x1 <- inception_4e/1x1
I0509 23:09:34.754016 23234 net.cpp:323] inception_4e/relu_1x1 -> inception_4e/1x1 (in-place)
I0509 23:09:34.754024 23234 net.cpp:105] Setting up inception_4e/relu_1x1
I0509 23:09:34.754030 23234 net.cpp:112] Top shape: 32 256 14 14 (1605632)
I0509 23:09:34.754036 23234 layer_factory.hpp:74] Creating layer inception_4e/3x3_reduce
I0509 23:09:34.754045 23234 net.cpp:76] Creating Layer inception_4e/3x3_reduce
I0509 23:09:34.754050 23234 net.cpp:372] inception_4e/3x3_reduce <- inception_4d/output_inception_4d/output_0_split_2
I0509 23:09:34.754061 23234 net.cpp:334] inception_4e/3x3_reduce -> inception_4e/3x3_reduce
I0509 23:09:34.754108 23234 net.cpp:105] Setting up inception_4e/3x3_reduce
I0509 23:09:34.754832 23234 net.cpp:112] Top shape: 32 160 14 14 (1003520)
I0509 23:09:34.754847 23234 layer_factory.hpp:74] Creating layer inception_4e/relu_3x3_reduce
I0509 23:09:34.754854 23234 net.cpp:76] Creating Layer inception_4e/relu_3x3_reduce
I0509 23:09:34.754861 23234 net.cpp:372] inception_4e/relu_3x3_reduce <- inception_4e/3x3_reduce
I0509 23:09:34.754870 23234 net.cpp:323] inception_4e/relu_3x3_reduce -> inception_4e/3x3_reduce (in-place)
I0509 23:09:34.754879 23234 net.cpp:105] Setting up inception_4e/relu_3x3_reduce
I0509 23:09:34.754884 23234 net.cpp:112] Top shape: 32 160 14 14 (1003520)
I0509 23:09:34.754890 23234 layer_factory.hpp:74] Creating layer inception_4e/3x3
I0509 23:09:34.754899 23234 net.cpp:76] Creating Layer inception_4e/3x3
I0509 23:09:34.754904 23234 net.cpp:372] inception_4e/3x3 <- inception_4e/3x3_reduce
I0509 23:09:34.754914 23234 net.cpp:334] inception_4e/3x3 -> inception_4e/3x3
I0509 23:09:34.754925 23234 net.cpp:105] Setting up inception_4e/3x3
I0509 23:09:34.758846 23234 net.cpp:112] Top shape: 32 320 14 14 (2007040)
I0509 23:09:34.758872 23234 layer_factory.hpp:74] Creating layer inception_4e/relu_3x3
I0509 23:09:34.758882 23234 net.cpp:76] Creating Layer inception_4e/relu_3x3
I0509 23:09:34.758890 23234 net.cpp:372] inception_4e/relu_3x3 <- inception_4e/3x3
I0509 23:09:34.758901 23234 net.cpp:323] inception_4e/relu_3x3 -> inception_4e/3x3 (in-place)
I0509 23:09:34.758910 23234 net.cpp:105] Setting up inception_4e/relu_3x3
I0509 23:09:34.758916 23234 net.cpp:112] Top shape: 32 320 14 14 (2007040)
I0509 23:09:34.758921 23234 layer_factory.hpp:74] Creating layer inception_4e/5x5_reduce
I0509 23:09:34.758931 23234 net.cpp:76] Creating Layer inception_4e/5x5_reduce
I0509 23:09:34.758936 23234 net.cpp:372] inception_4e/5x5_reduce <- inception_4d/output_inception_4d/output_0_split_3
I0509 23:09:34.758947 23234 net.cpp:334] inception_4e/5x5_reduce -> inception_4e/5x5_reduce
I0509 23:09:34.758956 23234 net.cpp:105] Setting up inception_4e/5x5_reduce
I0509 23:09:34.759109 23234 net.cpp:112] Top shape: 32 32 14 14 (200704)
I0509 23:09:34.759122 23234 layer_factory.hpp:74] Creating layer inception_4e/relu_5x5_reduce
I0509 23:09:34.759130 23234 net.cpp:76] Creating Layer inception_4e/relu_5x5_reduce
I0509 23:09:34.759135 23234 net.cpp:372] inception_4e/relu_5x5_reduce <- inception_4e/5x5_reduce
I0509 23:09:34.759142 23234 net.cpp:323] inception_4e/relu_5x5_reduce -> inception_4e/5x5_reduce (in-place)
I0509 23:09:34.759150 23234 net.cpp:105] Setting up inception_4e/relu_5x5_reduce
I0509 23:09:34.759155 23234 net.cpp:112] Top shape: 32 32 14 14 (200704)
I0509 23:09:34.759168 23234 layer_factory.hpp:74] Creating layer inception_4e/5x5
I0509 23:09:34.759197 23234 net.cpp:76] Creating Layer inception_4e/5x5
I0509 23:09:34.759204 23234 net.cpp:372] inception_4e/5x5 <- inception_4e/5x5_reduce
I0509 23:09:34.759215 23234 net.cpp:334] inception_4e/5x5 -> inception_4e/5x5
I0509 23:09:34.759224 23234 net.cpp:105] Setting up inception_4e/5x5
I0509 23:09:34.760094 23234 net.cpp:112] Top shape: 32 128 14 14 (802816)
I0509 23:09:34.760113 23234 layer_factory.hpp:74] Creating layer inception_4e/relu_5x5
I0509 23:09:34.760121 23234 net.cpp:76] Creating Layer inception_4e/relu_5x5
I0509 23:09:34.760128 23234 net.cpp:372] inception_4e/relu_5x5 <- inception_4e/5x5
I0509 23:09:34.760135 23234 net.cpp:323] inception_4e/relu_5x5 -> inception_4e/5x5 (in-place)
I0509 23:09:34.760143 23234 net.cpp:105] Setting up inception_4e/relu_5x5
I0509 23:09:34.760149 23234 net.cpp:112] Top shape: 32 128 14 14 (802816)
I0509 23:09:34.760154 23234 layer_factory.hpp:74] Creating layer inception_4e/pool
I0509 23:09:34.760162 23234 net.cpp:76] Creating Layer inception_4e/pool
I0509 23:09:34.760169 23234 net.cpp:372] inception_4e/pool <- inception_4d/output_inception_4d/output_0_split_4
I0509 23:09:34.760179 23234 net.cpp:334] inception_4e/pool -> inception_4e/pool
I0509 23:09:34.760187 23234 net.cpp:105] Setting up inception_4e/pool
I0509 23:09:34.760196 23234 net.cpp:112] Top shape: 32 528 14 14 (3311616)
I0509 23:09:34.760234 23234 layer_factory.hpp:74] Creating layer inception_4e/pool_proj
I0509 23:09:34.760248 23234 net.cpp:76] Creating Layer inception_4e/pool_proj
I0509 23:09:34.760256 23234 net.cpp:372] inception_4e/pool_proj <- inception_4e/pool
I0509 23:09:34.760263 23234 net.cpp:334] inception_4e/pool_proj -> inception_4e/pool_proj
I0509 23:09:34.760284 23234 net.cpp:105] Setting up inception_4e/pool_proj
I0509 23:09:34.760859 23234 net.cpp:112] Top shape: 32 128 14 14 (802816)
I0509 23:09:34.760874 23234 layer_factory.hpp:74] Creating layer inception_4e/relu_pool_proj
I0509 23:09:34.760882 23234 net.cpp:76] Creating Layer inception_4e/relu_pool_proj
I0509 23:09:34.760890 23234 net.cpp:372] inception_4e/relu_pool_proj <- inception_4e/pool_proj
I0509 23:09:34.760898 23234 net.cpp:323] inception_4e/relu_pool_proj -> inception_4e/pool_proj (in-place)
I0509 23:09:34.760906 23234 net.cpp:105] Setting up inception_4e/relu_pool_proj
I0509 23:09:34.760912 23234 net.cpp:112] Top shape: 32 128 14 14 (802816)
I0509 23:09:34.760918 23234 layer_factory.hpp:74] Creating layer inception_4e/output
I0509 23:09:34.760926 23234 net.cpp:76] Creating Layer inception_4e/output
I0509 23:09:34.760932 23234 net.cpp:372] inception_4e/output <- inception_4e/1x1
I0509 23:09:34.760938 23234 net.cpp:372] inception_4e/output <- inception_4e/3x3
I0509 23:09:34.760944 23234 net.cpp:372] inception_4e/output <- inception_4e/5x5
I0509 23:09:34.760951 23234 net.cpp:372] inception_4e/output <- inception_4e/pool_proj
I0509 23:09:34.760958 23234 net.cpp:334] inception_4e/output -> inception_4e/output
I0509 23:09:34.760967 23234 net.cpp:105] Setting up inception_4e/output
I0509 23:09:34.760972 23234 net.cpp:112] Top shape: 32 832 14 14 (5218304)
I0509 23:09:34.760978 23234 layer_factory.hpp:74] Creating layer pool4/3x3_s2
I0509 23:09:34.760987 23234 net.cpp:76] Creating Layer pool4/3x3_s2
I0509 23:09:34.760994 23234 net.cpp:372] pool4/3x3_s2 <- inception_4e/output
I0509 23:09:34.761003 23234 net.cpp:334] pool4/3x3_s2 -> pool4/3x3_s2
I0509 23:09:34.761011 23234 net.cpp:105] Setting up pool4/3x3_s2
I0509 23:09:34.761018 23234 net.cpp:112] Top shape: 32 832 7 7 (1304576)
I0509 23:09:34.761023 23234 layer_factory.hpp:74] Creating layer pool4/3x3_s2_pool4/3x3_s2_0_split
I0509 23:09:34.761031 23234 net.cpp:76] Creating Layer pool4/3x3_s2_pool4/3x3_s2_0_split
I0509 23:09:34.761037 23234 net.cpp:372] pool4/3x3_s2_pool4/3x3_s2_0_split <- pool4/3x3_s2
I0509 23:09:34.761046 23234 net.cpp:334] pool4/3x3_s2_pool4/3x3_s2_0_split -> pool4/3x3_s2_pool4/3x3_s2_0_split_0
I0509 23:09:34.761055 23234 net.cpp:334] pool4/3x3_s2_pool4/3x3_s2_0_split -> pool4/3x3_s2_pool4/3x3_s2_0_split_1
I0509 23:09:34.761065 23234 net.cpp:334] pool4/3x3_s2_pool4/3x3_s2_0_split -> pool4/3x3_s2_pool4/3x3_s2_0_split_2
I0509 23:09:34.761073 23234 net.cpp:334] pool4/3x3_s2_pool4/3x3_s2_0_split -> pool4/3x3_s2_pool4/3x3_s2_0_split_3
I0509 23:09:34.761080 23234 net.cpp:105] Setting up pool4/3x3_s2_pool4/3x3_s2_0_split
I0509 23:09:34.761087 23234 net.cpp:112] Top shape: 32 832 7 7 (1304576)
I0509 23:09:34.761092 23234 net.cpp:112] Top shape: 32 832 7 7 (1304576)
I0509 23:09:34.761097 23234 net.cpp:112] Top shape: 32 832 7 7 (1304576)
I0509 23:09:34.761102 23234 net.cpp:112] Top shape: 32 832 7 7 (1304576)
I0509 23:09:34.761108 23234 layer_factory.hpp:74] Creating layer inception_5a/1x1
I0509 23:09:34.761119 23234 net.cpp:76] Creating Layer inception_5a/1x1
I0509 23:09:34.761126 23234 net.cpp:372] inception_5a/1x1 <- pool4/3x3_s2_pool4/3x3_s2_0_split_0
I0509 23:09:34.761134 23234 net.cpp:334] inception_5a/1x1 -> inception_5a/1x1
I0509 23:09:34.761144 23234 net.cpp:105] Setting up inception_5a/1x1
I0509 23:09:34.762938 23234 net.cpp:112] Top shape: 32 256 7 7 (401408)
I0509 23:09:34.762955 23234 layer_factory.hpp:74] Creating layer inception_5a/relu_1x1
I0509 23:09:34.762964 23234 net.cpp:76] Creating Layer inception_5a/relu_1x1
I0509 23:09:34.762991 23234 net.cpp:372] inception_5a/relu_1x1 <- inception_5a/1x1
I0509 23:09:34.763005 23234 net.cpp:323] inception_5a/relu_1x1 -> inception_5a/1x1 (in-place)
I0509 23:09:34.763027 23234 net.cpp:105] Setting up inception_5a/relu_1x1
I0509 23:09:34.763034 23234 net.cpp:112] Top shape: 32 256 7 7 (401408)
I0509 23:09:34.763041 23234 layer_factory.hpp:74] Creating layer inception_5a/3x3_reduce
I0509 23:09:34.763049 23234 net.cpp:76] Creating Layer inception_5a/3x3_reduce
I0509 23:09:34.763056 23234 net.cpp:372] inception_5a/3x3_reduce <- pool4/3x3_s2_pool4/3x3_s2_0_split_1
I0509 23:09:34.763067 23234 net.cpp:334] inception_5a/3x3_reduce -> inception_5a/3x3_reduce
I0509 23:09:34.763075 23234 net.cpp:105] Setting up inception_5a/3x3_reduce
I0509 23:09:34.764201 23234 net.cpp:112] Top shape: 32 160 7 7 (250880)
I0509 23:09:34.764217 23234 layer_factory.hpp:74] Creating layer inception_5a/relu_3x3_reduce
I0509 23:09:34.764225 23234 net.cpp:76] Creating Layer inception_5a/relu_3x3_reduce
I0509 23:09:34.764231 23234 net.cpp:372] inception_5a/relu_3x3_reduce <- inception_5a/3x3_reduce
I0509 23:09:34.764238 23234 net.cpp:323] inception_5a/relu_3x3_reduce -> inception_5a/3x3_reduce (in-place)
I0509 23:09:34.764246 23234 net.cpp:105] Setting up inception_5a/relu_3x3_reduce
I0509 23:09:34.764252 23234 net.cpp:112] Top shape: 32 160 7 7 (250880)
I0509 23:09:34.764257 23234 layer_factory.hpp:74] Creating layer inception_5a/3x3
I0509 23:09:34.764268 23234 net.cpp:76] Creating Layer inception_5a/3x3
I0509 23:09:34.764286 23234 net.cpp:372] inception_5a/3x3 <- inception_5a/3x3_reduce
I0509 23:09:34.764295 23234 net.cpp:334] inception_5a/3x3 -> inception_5a/3x3
I0509 23:09:34.764305 23234 net.cpp:105] Setting up inception_5a/3x3
I0509 23:09:34.768187 23234 net.cpp:112] Top shape: 32 320 7 7 (501760)
I0509 23:09:34.768224 23234 layer_factory.hpp:74] Creating layer inception_5a/relu_3x3
I0509 23:09:34.768236 23234 net.cpp:76] Creating Layer inception_5a/relu_3x3
I0509 23:09:34.768245 23234 net.cpp:372] inception_5a/relu_3x3 <- inception_5a/3x3
I0509 23:09:34.768254 23234 net.cpp:323] inception_5a/relu_3x3 -> inception_5a/3x3 (in-place)
I0509 23:09:34.768265 23234 net.cpp:105] Setting up inception_5a/relu_3x3
I0509 23:09:34.768282 23234 net.cpp:112] Top shape: 32 320 7 7 (501760)
I0509 23:09:34.768290 23234 layer_factory.hpp:74] Creating layer inception_5a/5x5_reduce
I0509 23:09:34.768301 23234 net.cpp:76] Creating Layer inception_5a/5x5_reduce
I0509 23:09:34.768307 23234 net.cpp:372] inception_5a/5x5_reduce <- pool4/3x3_s2_pool4/3x3_s2_0_split_2
I0509 23:09:34.768319 23234 net.cpp:334] inception_5a/5x5_reduce -> inception_5a/5x5_reduce
I0509 23:09:34.768331 23234 net.cpp:105] Setting up inception_5a/5x5_reduce
I0509 23:09:34.768564 23234 net.cpp:112] Top shape: 32 32 7 7 (50176)
I0509 23:09:34.768576 23234 layer_factory.hpp:74] Creating layer inception_5a/relu_5x5_reduce
I0509 23:09:34.768590 23234 net.cpp:76] Creating Layer inception_5a/relu_5x5_reduce
I0509 23:09:34.768596 23234 net.cpp:372] inception_5a/relu_5x5_reduce <- inception_5a/5x5_reduce
I0509 23:09:34.768604 23234 net.cpp:323] inception_5a/relu_5x5_reduce -> inception_5a/5x5_reduce (in-place)
I0509 23:09:34.768612 23234 net.cpp:105] Setting up inception_5a/relu_5x5_reduce
I0509 23:09:34.768617 23234 net.cpp:112] Top shape: 32 32 7 7 (50176)
I0509 23:09:34.768623 23234 layer_factory.hpp:74] Creating layer inception_5a/5x5
I0509 23:09:34.768631 23234 net.cpp:76] Creating Layer inception_5a/5x5
I0509 23:09:34.768637 23234 net.cpp:372] inception_5a/5x5 <- inception_5a/5x5_reduce
I0509 23:09:34.768648 23234 net.cpp:334] inception_5a/5x5 -> inception_5a/5x5
I0509 23:09:34.768657 23234 net.cpp:105] Setting up inception_5a/5x5
I0509 23:09:34.769551 23234 net.cpp:112] Top shape: 32 128 7 7 (200704)
I0509 23:09:34.769567 23234 layer_factory.hpp:74] Creating layer inception_5a/relu_5x5
I0509 23:09:34.769574 23234 net.cpp:76] Creating Layer inception_5a/relu_5x5
I0509 23:09:34.770344 23234 net.cpp:372] inception_5a/relu_5x5 <- inception_5a/5x5
I0509 23:09:34.770355 23234 net.cpp:323] inception_5a/relu_5x5 -> inception_5a/5x5 (in-place)
I0509 23:09:34.770364 23234 net.cpp:105] Setting up inception_5a/relu_5x5
I0509 23:09:34.770401 23234 net.cpp:112] Top shape: 32 128 7 7 (200704)
I0509 23:09:34.770407 23234 layer_factory.hpp:74] Creating layer inception_5a/pool
I0509 23:09:34.770419 23234 net.cpp:76] Creating Layer inception_5a/pool
I0509 23:09:34.770426 23234 net.cpp:372] inception_5a/pool <- pool4/3x3_s2_pool4/3x3_s2_0_split_3
I0509 23:09:34.770434 23234 net.cpp:334] inception_5a/pool -> inception_5a/pool
I0509 23:09:34.770444 23234 net.cpp:105] Setting up inception_5a/pool
I0509 23:09:34.770452 23234 net.cpp:112] Top shape: 32 832 7 7 (1304576)
I0509 23:09:34.770458 23234 layer_factory.hpp:74] Creating layer inception_5a/pool_proj
I0509 23:09:34.770469 23234 net.cpp:76] Creating Layer inception_5a/pool_proj
I0509 23:09:34.770475 23234 net.cpp:372] inception_5a/pool_proj <- inception_5a/pool
I0509 23:09:34.770483 23234 net.cpp:334] inception_5a/pool_proj -> inception_5a/pool_proj
I0509 23:09:34.770493 23234 net.cpp:105] Setting up inception_5a/pool_proj
I0509 23:09:34.771397 23234 net.cpp:112] Top shape: 32 128 7 7 (200704)
I0509 23:09:34.771415 23234 layer_factory.hpp:74] Creating layer inception_5a/relu_pool_proj
I0509 23:09:34.771423 23234 net.cpp:76] Creating Layer inception_5a/relu_pool_proj
I0509 23:09:34.771430 23234 net.cpp:372] inception_5a/relu_pool_proj <- inception_5a/pool_proj
I0509 23:09:34.771440 23234 net.cpp:323] inception_5a/relu_pool_proj -> inception_5a/pool_proj (in-place)
I0509 23:09:34.771448 23234 net.cpp:105] Setting up inception_5a/relu_pool_proj
I0509 23:09:34.771453 23234 net.cpp:112] Top shape: 32 128 7 7 (200704)
I0509 23:09:34.771459 23234 layer_factory.hpp:74] Creating layer inception_5a/output
I0509 23:09:34.771467 23234 net.cpp:76] Creating Layer inception_5a/output
I0509 23:09:34.771473 23234 net.cpp:372] inception_5a/output <- inception_5a/1x1
I0509 23:09:34.771481 23234 net.cpp:372] inception_5a/output <- inception_5a/3x3
I0509 23:09:34.771486 23234 net.cpp:372] inception_5a/output <- inception_5a/5x5
I0509 23:09:34.771492 23234 net.cpp:372] inception_5a/output <- inception_5a/pool_proj
I0509 23:09:34.771499 23234 net.cpp:334] inception_5a/output -> inception_5a/output
I0509 23:09:34.771507 23234 net.cpp:105] Setting up inception_5a/output
I0509 23:09:34.771514 23234 net.cpp:112] Top shape: 32 832 7 7 (1304576)
I0509 23:09:34.771520 23234 layer_factory.hpp:74] Creating layer inception_5a/output_inception_5a/output_0_split
I0509 23:09:34.771528 23234 net.cpp:76] Creating Layer inception_5a/output_inception_5a/output_0_split
I0509 23:09:34.771534 23234 net.cpp:372] inception_5a/output_inception_5a/output_0_split <- inception_5a/output
I0509 23:09:34.771544 23234 net.cpp:334] inception_5a/output_inception_5a/output_0_split -> inception_5a/output_inception_5a/output_0_split_0
I0509 23:09:34.771554 23234 net.cpp:334] inception_5a/output_inception_5a/output_0_split -> inception_5a/output_inception_5a/output_0_split_1
I0509 23:09:34.771564 23234 net.cpp:334] inception_5a/output_inception_5a/output_0_split -> inception_5a/output_inception_5a/output_0_split_2
I0509 23:09:34.771574 23234 net.cpp:334] inception_5a/output_inception_5a/output_0_split -> inception_5a/output_inception_5a/output_0_split_3
I0509 23:09:34.771581 23234 net.cpp:105] Setting up inception_5a/output_inception_5a/output_0_split
I0509 23:09:34.771589 23234 net.cpp:112] Top shape: 32 832 7 7 (1304576)
I0509 23:09:34.771595 23234 net.cpp:112] Top shape: 32 832 7 7 (1304576)
I0509 23:09:34.771600 23234 net.cpp:112] Top shape: 32 832 7 7 (1304576)
I0509 23:09:34.771607 23234 net.cpp:112] Top shape: 32 832 7 7 (1304576)
I0509 23:09:34.771613 23234 layer_factory.hpp:74] Creating layer inception_5b/1x1
I0509 23:09:34.771625 23234 net.cpp:76] Creating Layer inception_5b/1x1
I0509 23:09:34.771631 23234 net.cpp:372] inception_5b/1x1 <- inception_5a/output_inception_5a/output_0_split_0
I0509 23:09:34.771639 23234 net.cpp:334] inception_5b/1x1 -> inception_5b/1x1
I0509 23:09:34.771648 23234 net.cpp:105] Setting up inception_5b/1x1
I0509 23:09:34.774344 23234 net.cpp:112] Top shape: 32 384 7 7 (602112)
I0509 23:09:34.774365 23234 layer_factory.hpp:74] Creating layer inception_5b/relu_1x1
I0509 23:09:34.774399 23234 net.cpp:76] Creating Layer inception_5b/relu_1x1
I0509 23:09:34.774406 23234 net.cpp:372] inception_5b/relu_1x1 <- inception_5b/1x1
I0509 23:09:34.774415 23234 net.cpp:323] inception_5b/relu_1x1 -> inception_5b/1x1 (in-place)
I0509 23:09:34.774422 23234 net.cpp:105] Setting up inception_5b/relu_1x1
I0509 23:09:34.774428 23234 net.cpp:112] Top shape: 32 384 7 7 (602112)
I0509 23:09:34.774435 23234 layer_factory.hpp:74] Creating layer inception_5b/3x3_reduce
I0509 23:09:34.774446 23234 net.cpp:76] Creating Layer inception_5b/3x3_reduce
I0509 23:09:34.774452 23234 net.cpp:372] inception_5b/3x3_reduce <- inception_5a/output_inception_5a/output_0_split_1
I0509 23:09:34.774461 23234 net.cpp:334] inception_5b/3x3_reduce -> inception_5b/3x3_reduce
I0509 23:09:34.774471 23234 net.cpp:105] Setting up inception_5b/3x3_reduce
I0509 23:09:34.775826 23234 net.cpp:112] Top shape: 32 192 7 7 (301056)
I0509 23:09:34.775841 23234 layer_factory.hpp:74] Creating layer inception_5b/relu_3x3_reduce
I0509 23:09:34.775849 23234 net.cpp:76] Creating Layer inception_5b/relu_3x3_reduce
I0509 23:09:34.775856 23234 net.cpp:372] inception_5b/relu_3x3_reduce <- inception_5b/3x3_reduce
I0509 23:09:34.775866 23234 net.cpp:323] inception_5b/relu_3x3_reduce -> inception_5b/3x3_reduce (in-place)
I0509 23:09:34.775874 23234 net.cpp:105] Setting up inception_5b/relu_3x3_reduce
I0509 23:09:34.775879 23234 net.cpp:112] Top shape: 32 192 7 7 (301056)
I0509 23:09:34.775885 23234 layer_factory.hpp:74] Creating layer inception_5b/3x3
I0509 23:09:34.775893 23234 net.cpp:76] Creating Layer inception_5b/3x3
I0509 23:09:34.775899 23234 net.cpp:372] inception_5b/3x3 <- inception_5b/3x3_reduce
I0509 23:09:34.775910 23234 net.cpp:334] inception_5b/3x3 -> inception_5b/3x3
I0509 23:09:34.775938 23234 net.cpp:105] Setting up inception_5b/3x3
I0509 23:09:34.781461 23234 net.cpp:112] Top shape: 32 384 7 7 (602112)
I0509 23:09:34.781484 23234 layer_factory.hpp:74] Creating layer inception_5b/relu_3x3
I0509 23:09:34.781493 23234 net.cpp:76] Creating Layer inception_5b/relu_3x3
I0509 23:09:34.781502 23234 net.cpp:372] inception_5b/relu_3x3 <- inception_5b/3x3
I0509 23:09:34.781509 23234 net.cpp:323] inception_5b/relu_3x3 -> inception_5b/3x3 (in-place)
I0509 23:09:34.781517 23234 net.cpp:105] Setting up inception_5b/relu_3x3
I0509 23:09:34.781523 23234 net.cpp:112] Top shape: 32 384 7 7 (602112)
I0509 23:09:34.781530 23234 layer_factory.hpp:74] Creating layer inception_5b/5x5_reduce
I0509 23:09:34.781543 23234 net.cpp:76] Creating Layer inception_5b/5x5_reduce
I0509 23:09:34.781549 23234 net.cpp:372] inception_5b/5x5_reduce <- inception_5a/output_inception_5a/output_0_split_2
I0509 23:09:34.781558 23234 net.cpp:334] inception_5b/5x5_reduce -> inception_5b/5x5_reduce
I0509 23:09:34.781568 23234 net.cpp:105] Setting up inception_5b/5x5_reduce
I0509 23:09:34.781913 23234 net.cpp:112] Top shape: 32 48 7 7 (75264)
I0509 23:09:34.781929 23234 layer_factory.hpp:74] Creating layer inception_5b/relu_5x5_reduce
I0509 23:09:34.781936 23234 net.cpp:76] Creating Layer inception_5b/relu_5x5_reduce
I0509 23:09:34.781942 23234 net.cpp:372] inception_5b/relu_5x5_reduce <- inception_5b/5x5_reduce
I0509 23:09:34.781955 23234 net.cpp:323] inception_5b/relu_5x5_reduce -> inception_5b/5x5_reduce (in-place)
I0509 23:09:34.781963 23234 net.cpp:105] Setting up inception_5b/relu_5x5_reduce
I0509 23:09:34.781970 23234 net.cpp:112] Top shape: 32 48 7 7 (75264)
I0509 23:09:34.781975 23234 layer_factory.hpp:74] Creating layer inception_5b/5x5
I0509 23:09:34.781983 23234 net.cpp:76] Creating Layer inception_5b/5x5
I0509 23:09:34.781990 23234 net.cpp:372] inception_5b/5x5 <- inception_5b/5x5_reduce
I0509 23:09:34.781997 23234 net.cpp:334] inception_5b/5x5 -> inception_5b/5x5
I0509 23:09:34.782006 23234 net.cpp:105] Setting up inception_5b/5x5
I0509 23:09:34.783349 23234 net.cpp:112] Top shape: 32 128 7 7 (200704)
I0509 23:09:34.783367 23234 layer_factory.hpp:74] Creating layer inception_5b/relu_5x5
I0509 23:09:34.783376 23234 net.cpp:76] Creating Layer inception_5b/relu_5x5
I0509 23:09:34.783412 23234 net.cpp:372] inception_5b/relu_5x5 <- inception_5b/5x5
I0509 23:09:34.783421 23234 net.cpp:323] inception_5b/relu_5x5 -> inception_5b/5x5 (in-place)
I0509 23:09:34.783429 23234 net.cpp:105] Setting up inception_5b/relu_5x5
I0509 23:09:34.783435 23234 net.cpp:112] Top shape: 32 128 7 7 (200704)
I0509 23:09:34.783440 23234 layer_factory.hpp:74] Creating layer inception_5b/pool
I0509 23:09:34.783449 23234 net.cpp:76] Creating Layer inception_5b/pool
I0509 23:09:34.783455 23234 net.cpp:372] inception_5b/pool <- inception_5a/output_inception_5a/output_0_split_3
I0509 23:09:34.783463 23234 net.cpp:334] inception_5b/pool -> inception_5b/pool
I0509 23:09:34.783471 23234 net.cpp:105] Setting up inception_5b/pool
I0509 23:09:34.783480 23234 net.cpp:112] Top shape: 32 832 7 7 (1304576)
I0509 23:09:34.783485 23234 layer_factory.hpp:74] Creating layer inception_5b/pool_proj
I0509 23:09:34.783496 23234 net.cpp:76] Creating Layer inception_5b/pool_proj
I0509 23:09:34.783504 23234 net.cpp:372] inception_5b/pool_proj <- inception_5b/pool
I0509 23:09:34.783512 23234 net.cpp:334] inception_5b/pool_proj -> inception_5b/pool_proj
I0509 23:09:34.783522 23234 net.cpp:105] Setting up inception_5b/pool_proj
I0509 23:09:34.784438 23234 net.cpp:112] Top shape: 32 128 7 7 (200704)
I0509 23:09:34.784453 23234 layer_factory.hpp:74] Creating layer inception_5b/relu_pool_proj
I0509 23:09:34.784461 23234 net.cpp:76] Creating Layer inception_5b/relu_pool_proj
I0509 23:09:34.784468 23234 net.cpp:372] inception_5b/relu_pool_proj <- inception_5b/pool_proj
I0509 23:09:34.784478 23234 net.cpp:323] inception_5b/relu_pool_proj -> inception_5b/pool_proj (in-place)
I0509 23:09:34.784487 23234 net.cpp:105] Setting up inception_5b/relu_pool_proj
I0509 23:09:34.784493 23234 net.cpp:112] Top shape: 32 128 7 7 (200704)
I0509 23:09:34.784499 23234 layer_factory.hpp:74] Creating layer inception_5b/output
I0509 23:09:34.784507 23234 net.cpp:76] Creating Layer inception_5b/output
I0509 23:09:34.784512 23234 net.cpp:372] inception_5b/output <- inception_5b/1x1
I0509 23:09:34.784519 23234 net.cpp:372] inception_5b/output <- inception_5b/3x3
I0509 23:09:34.784525 23234 net.cpp:372] inception_5b/output <- inception_5b/5x5
I0509 23:09:34.784531 23234 net.cpp:372] inception_5b/output <- inception_5b/pool_proj
I0509 23:09:34.784540 23234 net.cpp:334] inception_5b/output -> inception_5b/output
I0509 23:09:34.784549 23234 net.cpp:105] Setting up inception_5b/output
I0509 23:09:34.784556 23234 net.cpp:112] Top shape: 32 1024 7 7 (1605632)
I0509 23:09:34.784562 23234 layer_factory.hpp:74] Creating layer pool5/7x7_s1
I0509 23:09:34.784570 23234 net.cpp:76] Creating Layer pool5/7x7_s1
I0509 23:09:34.784575 23234 net.cpp:372] pool5/7x7_s1 <- inception_5b/output
I0509 23:09:34.784584 23234 net.cpp:334] pool5/7x7_s1 -> pool5/7x7_s1
I0509 23:09:34.784592 23234 net.cpp:105] Setting up pool5/7x7_s1
I0509 23:09:34.784598 23234 net.cpp:112] Top shape: 32 1024 1 1 (32768)
I0509 23:09:34.784603 23234 layer_factory.hpp:74] Creating layer pool5/drop_7x7_s1
I0509 23:09:34.784612 23234 net.cpp:76] Creating Layer pool5/drop_7x7_s1
I0509 23:09:34.784618 23234 net.cpp:372] pool5/drop_7x7_s1 <- pool5/7x7_s1
I0509 23:09:34.784627 23234 net.cpp:323] pool5/drop_7x7_s1 -> pool5/7x7_s1 (in-place)
I0509 23:09:34.784636 23234 net.cpp:105] Setting up pool5/drop_7x7_s1
I0509 23:09:34.784642 23234 net.cpp:112] Top shape: 32 1024 1 1 (32768)
I0509 23:09:34.784648 23234 layer_factory.hpp:74] Creating layer loss3/classifier
I0509 23:09:34.784657 23234 net.cpp:76] Creating Layer loss3/classifier
I0509 23:09:34.784662 23234 net.cpp:372] loss3/classifier <- pool5/7x7_s1
I0509 23:09:34.784672 23234 net.cpp:334] loss3/classifier -> loss3/classifier
I0509 23:09:34.784684 23234 net.cpp:105] Setting up loss3/classifier
I0509 23:09:34.784716 23234 net.cpp:112] Top shape: 32 2 1 1 (64)
I0509 23:09:34.784728 23234 layer_factory.hpp:74] Creating layer loss3/loss3
I0509 23:09:34.784735 23234 net.cpp:76] Creating Layer loss3/loss3
I0509 23:09:34.784741 23234 net.cpp:372] loss3/loss3 <- loss3/classifier
I0509 23:09:34.784761 23234 net.cpp:372] loss3/loss3 <- label_data_1_split_2
I0509 23:09:34.784790 23234 net.cpp:334] loss3/loss3 -> loss3/loss3
I0509 23:09:34.784806 23234 net.cpp:105] Setting up loss3/loss3
I0509 23:09:34.784816 23234 layer_factory.hpp:74] Creating layer loss3/loss3
I0509 23:09:34.784832 23234 net.cpp:112] Top shape: 1 1 1 1 (1)
I0509 23:09:34.784837 23234 net.cpp:118]     with loss weight 1
I0509 23:09:34.784855 23234 net.cpp:163] loss3/loss3 needs backward computation.
I0509 23:09:34.784862 23234 net.cpp:163] loss3/classifier needs backward computation.
I0509 23:09:34.784867 23234 net.cpp:163] pool5/drop_7x7_s1 needs backward computation.
I0509 23:09:34.784871 23234 net.cpp:163] pool5/7x7_s1 needs backward computation.
…
I0509 23:09:34.792881 23234 solver.cpp:154] Creating test net (#0) specified by net file: ../../train_val.prototxt
I0509 23:09:34.793113 23234 net.cpp:253] The NetState phase (1) differed from the phase (0) specified by a rule in layer data
I0509 23:09:34.794510 23234 net.cpp:42] Initializing net from parameters: 
name: "GoogleNet"
state {
  phase: TEST
}
layer {
  name: "data"
  type: "Data"
  top: "data"
  top: "label"
  include {
    phase: TEST
  }
  transform_param {
    mirror: false
    crop_size: 224
    mean_value: 104
    mean_value: 117
    mean_value: 123
  }
  data_param {
    source: "val_lmdb"
    batch_size: 32
    backend: LMDB
  }
}
layer {
  name: "conv1/7x7_s2"
  type: "Convolution"
  bottom: "data"
  top: "conv1/7x7_s2"
  param {
    lr_mult: 1
    decay_mult: 1
  }
  param {
    lr_mult: 2
    decay_mult: 0
  }
  convolution_param {
    num_output: 64
    pad: 3
    kernel_size: 7
    stride: 2
    weight_filler {
      type: "xavier"
      std: 0.1
    }
    bias_filler {
      type: "constant"
      value: 0.2
    }
  }
}
layer {
  name: "conv1/relu_7x7"
  type: "ReLU"
  bottom: "conv1/7x7_s2"
  top: "conv1/7x7_s2"
}
layer {
  name: "pool1/3x3_s2"
  type: "Pooling"
  bottom: "conv1/7x7_s2"
  top: "pool1/3x3_s2"
  pooling_param {
    pool: MAX
    kernel_size: 3
    stride: 2
  }
}
layer {
  name: "pool1/norm1"
  type: "LRN"
  bottom: "pool1/3x3_s2"
  top: "pool1/norm1"
  lrn_param {
    local_size: 5
    alpha: 0.0001
    beta: 0.75
  }
}
layer {
  name: "conv2/3x3_reduce"
  type: "Convolution"
  bottom: "pool1/norm1"
  top: "conv2/3x3_reduce"
  param {
    lr_mult: 1
    decay_mult: 1
  }
  param {
    lr_mult: 2
    decay_mult: 0
  }
  convolution_param {
    num_output: 64
    kernel_size: 1
    weight_filler {
      type: "xavier"
      std: 0.1
    }
    bias_filler {
      type: "constant"
      value: 0.2
    }
  }
}
layer {
  name: "conv2/relu_3x3_reduce"
  type: "ReLU"
  bottom: "conv2/3x3_reduce"
  top: "conv2/3x3_reduce"
}
layer {
  name: "conv2/3x3"
  type: "Convolution"
  bottom: "conv2/3x3_reduce"
  top: "conv2/3x3"
  param {
    lr_mult: 1
    decay_mult: 1
  }
  param {
    lr_mult: 2
    decay_mult: 0
  }
  convolution_param {
    num_output: 192
    pad: 1
    kernel_size: 3
    weight_filler {
      type: "xavier"
      std: 0.03
    }
    bias_filler {
      type: "constant"
      value: 0.2
    }
  }
}
layer {
  name: "conv2/relu_3x3"
  type: "ReLU"
  bottom: "conv2/3x3"
  top: "conv2/3x3"
}
layer {
  name: "conv2/norm2"
  type: "LRN"
  bottom: "conv2/3x3"
  top: "conv2/norm2"
  lrn_param {
    local_size: 5
    alpha: 0.0001
    beta: 0.75
  }
}
layer {
  name: "pool2/3x3_s2"
  type: "Pooling"
  bottom: "conv2/norm2"
  top: "pool2/3x3_s2"
  pooling_param {
    pool: MAX
    kernel_size: 3
    stride: 2
  }
}
layer {
  name: "inception_3a/1x1"
  type: "Convolution"
  bottom: "pool2/3x3_s2"
  top: "inception_3a/1x1"
  param {
    lr_mult: 1
    decay_mult: 1
  }
  param {
    lr_mult: 2
    decay_mult: 0
  }
  convolution_param {
    num_output: 64
    kernel_size: 1
    weight_filler {
      type: "xavier"
      std: 0.03
    }
    bias_filler {
      type: "constant"
      value: 0.2
    }
  }
}
layer {
  name: "inception_3a/relu_1x1"
  type: "ReLU"
  bottom: "inception_3a/1x1"
  top: "inception_3a/1x1"
}
layer {
  name: "inception_3a/3x3_reduce"
  type: "Convolution"
  bottom: "pool2/3x3_s2"
  top: "inception_3a/3x3_reduce"
  param {
    lr_mult: 1
    decay_mult: 1
  }
  param {
    lr_mult: 2
    decay_mult: 0
  }
  convolution_param {
    num_output: 96
    kernel_size: 1
    weight_filler {
      type: "xavier"
      std: 0.09
    }
    bias_filler {
      type: "constant"
      value: 0.2
    }
  }
}
layer {
  name: "inception_3a/relu_3x3_reduce"
  type: "ReLU"
  bottom: "inception_3a/3x3_reduce"
  top: "inception_3a/3x3_reduce"
}
layer {
  name: "inception_3a/3x3"
  type: "Convolution"
  bottom: "inception_3a/3x3_reduce"
  top: "inception_3a/3x3"
  param {
    lr_mult: 1
    decay_mult: 1
  }
  param {
    lr_mult: 2
    decay_mult: 0
  }
  convolution_param {
    num_output: 128
    pad: 1
    kernel_size: 3
    weight_filler {
      type: "xavier"
      std: 0.03
    }
    bias_filler {
      type: "constant"
      value: 0.2
    }
  }
}
layer {
  name: "inception_3a/relu_3x3"
  type: "ReLU"
  bottom: "inception_3a/3x3"
  top: "inception_3a/3x3"
}
layer {
  name: "inception_3a/5x5_reduce"
  type: "Convolution"
  bottom: "pool2/3x3_s2"
  top: "inception_3a/5x5_reduce"
  param {
    lr_mult: 1
    decay_mult: 1
  }
  param {
    lr_mult: 2
    decay_mult: 0
  }
  convolution_param {
    num_output: 16
    kernel_size: 1
    weight_filler {
      type: "xavier"
      std: 0.2
    }
    bias_filler {
      type: "constant"
      value: 0.2
    }
  }
}
layer {
  name: "inception_3a/relu_5x5_reduce"
  type: "ReLU"
  bottom: "inception_3a/5x5_reduce"
  top: "inception_3a/5x5_reduce"
}
layer {
  name: "inception_3a/5x5"
  type: "Convolution"
  bottom: "inception_3a/5x5_reduce"
  top: "inception_3a/5x5"
  param {
    lr_mult: 1
    decay_mult: 1
  }
  param {
    lr_mult: 2
    decay_mult: 0
  }
  convolution_param {
    num_output: 32
    pad: 2
    kernel_size: 5
    weight_filler {
      type: "xavier"
      std: 0.03
    }
    bias_filler {
      type: "constant"
      value: 0.2
    }
  }
}
layer {
  name: "inception_3a/relu_5x5"
  type: "ReLU"
  bottom: "inception_3a/5x5"
  top: "inception_3a/5x5"
}
layer {
  name: "inception_3a/pool"
  type: "Pooling"
  bottom: "pool2/3x3_s2"
  top: "inception_3a/pool"
  pooling_param {
    pool: MAX
    kernel_size: 3
    stride: 1
    pad: 1
  }
}
layer {
  name: "inception_3a/pool_proj"
  type: "Convolution"
  bottom: "inception_3a/pool"
  top: "inception_3a/pool_proj"
  param {
    lr_mult: 1
    decay_mult: 1
  }
  param {
    lr_mult: 2
    decay_mult: 0
  }
  convolution_param {
    num_output: 32
    kernel_size: 1
    weight_filler {
      type: "xavier"
      std: 0.1
    }
    bias_filler {
      type: "constant"
      value: 0.2
    }
  }
}
layer {
  name: "inception_3a/relu_pool_proj"
  type: "ReLU"
  bottom: "inception_3a/pool_proj"
  top: "inception_3a/pool_proj"
}
layer {
  name: "inception_3a/output"
  type: "Concat"
  bottom: "inception_3a/1x1"
  bottom: "inception_3a/3x3"
  bottom: "inception_3a/5x5"
  bottom: "inception_3a/pool_proj"
  top: "inception_3a/output"
}
layer {
  name: "inception_3b/1x1"
  type: "Convolution"
  bottom: "inception_3a/output"
  top: "inception_3b/1x1"
  param {
    lr_mult: 1
    decay_mult: 1
  }
  param {
    lr_mult: 2
    decay_mult: 0
  }
  convolution_param {
    num_output: 128
    kernel_size: 1
    weight_filler {
      type: "xavier"
      std: 0.03
    }
    bias_filler {
      type: "constant"
      value: 0.2
    }
  }
}
layer {
  name: "inception_3b/relu_1x1"
  type: "ReLU"
  bottom: "inception_3b/1x1"
  top: "inception_3b/1x1"
}
layer {
  name: "inception_3b/3x3_reduce"
  type: "Convolution"
  bottom: "inception_3a/output"
  top: "inception_3b/3x3_reduce"
  param {
    lr_mult: 1
    decay_mult: 1
  }
  param {
    lr_mult: 2
    decay_mult: 0
  }
  convolution_param {
    num_output: 128
    kernel_size: 1
    weight_filler {
      type: "xavier"
      std: 0.09
    }
    bias_filler {
      type: "constant"
      value: 0.2
    }
  }
}
layer {
  name: "inception_3b/relu_3x3_reduce"
  type: "ReLU"
  bottom: "inception_3b/3x3_reduce"
  top: "inception_3b/3x3_reduce"
}
layer {
  name: "inception_3b/3x3"
  type: "Convolution"
  bottom: "inception_3b/3x3_reduce"
  top: "inception_3b/3x3"
  param {
    lr_mult: 1
    decay_mult: 1
  }
  param {
    lr_mult: 2
    decay_mult: 0
  }
  convolution_param {
    num_output: 192
    pad: 1
    kernel_size: 3
    weight_filler {
      type: "xavier"
      std: 0.03
    }
    bias_filler {
      type: "constant"
      value: 0.2
    }
  }
}
layer {
  name: "inception_3b/relu_3x3"
  type: "ReLU"
  bottom: "inception_3b/3x3"
  top: "inception_3b/3x3"
}
layer {
  name: "inception_3b/5x5_reduce"
  type: "Convolution"
  bottom: "inception_3a/output"
  top: "inception_3b/5x5_reduce"
  param {
    lr_mult: 1
    decay_mult: 1
  }
  param {
    lr_mult: 2
    decay_mult: 0
  }
  convolution_param {
    num_output: 32
    kernel_size: 1
    weight_filler {
      type: "xavier"
      std: 0.2
    }
    bias_filler {
      type: "constant"
      value: 0.2
    }
  }
}
layer {
  name: "inception_3b/relu_5x5_reduce"
  type: "ReLU"
  bottom: "inception_3b/5x5_reduce"
  top: "inception_3b/5x5_reduce"
}
layer {
  name: "inception_3b/5x5"
  type: "Convolution"
  bottom: "inception_3b/5x5_reduce"
  top: "inception_3b/5x5"
  param {
    lr_mult: 1
    decay_mult: 1
  }
  param {
    lr_mult: 2
    decay_mult: 0
  }
  convolution_param {
    num_output: 96
    pad: 2
    kernel_size: 5
    weight_filler {
      type: "xavier"
      std: 0.03
    }
    bias_filler {
      type: "constant"
      value: 0.2
    }
  }
}
layer {
  name: "inception_3b/relu_5x5"
  type: "ReLU"
  bottom: "inception_3b/5x5"
  top: "inception_3b/5x5"
}
layer {
  name: "inception_3b/pool"
  type: "Pooling"
  bottom: "inception_3a/output"
  top: "inception_3b/pool"
  pooling_param {
    pool: MAX
    kernel_size: 3
    stride: 1
    pad: 1
  }
}
layer {
  name: "inception_3b/pool_proj"
  type: "Convolution"
  bottom: "inception_3b/pool"
  top: "inception_3b/pool_proj"
  param {
    lr_mult: 1
    decay_mult: 1
  }
  param {
    lr_mult: 2
    decay_mult: 0
  }
  convolution_param {
    num_output: 64
    kernel_size: 1
    weight_filler {
      type: "xavier"
      std: 0.1
    }
    bias_filler {
      type: "constant"
      value: 0.2
    }
  }
}
layer {
  name: "inception_3b/relu_pool_proj"
  type: "ReLU"
  bottom: "inception_3b/pool_proj"
  top: "inception_3b/pool_proj"
}
layer {
  name: "inception_3b/output"
  type: "Concat"
  bottom: "inception_3b/1x1"
  bottom: "inception_3b/3x3"
  bottom: "inception_3b/5x5"
  bottom: "inception_3b/pool_proj"
  top: "inception_3b/output"
}
layer {
  name: "pool3/3x3_s2"
  type: "Pooling"
  bottom: "inception_3b/output"
  top: "pool3/3x3_s2"
  pooling_param {
    pool: MAX
    kernel_size: 3
    stride: 2
  }
}
layer {
  name: "inception_4a/1x1"
  type: "Convolution"
  bottom: "pool3/3x3_s2"
  top: "inception_4a/1x1"
  param {
    lr_mult: 1
    decay_mult: 1
  }
  param {
    lr_mult: 2
    decay_mult: 0
  }
  convolution_param {
    num_output: 192
    kernel_size: 1
    weight_filler {
      type: "xavier"
      std: 0.03
    }
    bias_filler {
      type: "constant"
      value: 0.2
    }
  }
}
layer {
  name: "inception_4a/relu_1x1"
  type: "ReLU"
  bottom: "inception_4a/1x1"
  top: "inception_4a/1x1"
}
layer {
  name: "inception_4a/3x3_reduce"
  type: "Convolution"
  bottom: "pool3/3x3_s2"
  top: "inception_4a/3x3_reduce"
  param {
    lr_mult: 1
    decay_mult: 1
  }
  param {
    lr_mult: 2
    decay_mult: 0
  }
  convolution_param {
    num_output: 96
    kernel_size: 1
    weight_filler {
      type: "xavier"
      std: 0.09
    }
    bias_filler {
      type: "constant"
      value: 0.2
    }
  }
}
layer {
  name: "inception_4a/relu_3x3_reduce"
  type: "ReLU"
  bottom: "inception_4a/3x3_reduce"
  top: "inception_4a/3x3_reduce"
}
layer {
  name: "inception_4a/3x3"
  type: "Convolution"
  bottom: "inception_4a/3x3_reduce"
  top: "inception_4a/3x3"
  param {
    lr_mult: 1
    decay_mult: 1
  }
  param {
    lr_mult: 2
    decay_mult: 0
  }
  convolution_param {
    num_output: 208
    pad: 1
    kernel_size: 3
    weight_filler {
      type: "xavier"
      std: 0.03
    }
    bias_filler {
      type: "constant"
      value: 0.2
    }
  }
}
layer {
  name: "inception_4a/relu_3x3"
  type: "ReLU"
  bottom: "inception_4a/3x3"
  top: "inception_4a/3x3"
}
layer {
  name: "inception_4a/5x5_reduce"
  type: "Convolution"
  bottom: "pool3/3x3_s2"
  top: "inception_4a/5x5_reduce"
  param {
    lr_mult: 1
    decay_mult: 1
  }
  param {
    lr_mult: 2
    decay_mult: 0
  }
  convolution_param {
    num_output: 16
    kernel_size: 1
    weight_filler {
      type: "xavier"
      std: 0.2
    }
    bias_filler {
      type: "constant"
      value: 0.2
    }
  }
}
layer {
  name: "inception_4a/relu_5x5_reduce"
  type: "ReLU"
  bottom: "inception_4a/5x5_reduce"
  top: "inception_4a/5x5_reduce"
}
layer {
  name: "inception_4a/5x5"
  type: "Convolution"
  bottom: "inception_4a/5x5_reduce"
  top: "inception_4a/5x5"
  param {
    lr_mult: 1
    decay_mult: 1
  }
  param {
    lr_mult: 2
    decay_mult: 0
  }
  convolution_param {
    num_output: 48
    pad: 2
    kernel_size: 5
    weight_filler {
      type: "xavier"
      std: 0.03
    }
    bias_filler {
      type: "constant"
      value: 0.2
    }
  }
}
layer {
  name: "inception_4a/relu_5x5"
  type: "ReLU"
  bottom: "inception_4a/5x5"
  top: "inception_4a/5x5"
}
layer {
  name: "inception_4a/pool"
  type: "Pooling"
  bottom: "pool3/3x3_s2"
  top: "inception_4a/pool"
  pooling_param {
    pool: MAX
    kernel_size: 3
    stride: 1
    pad: 1
  }
}
layer {
  name: "inception_4a/pool_proj"
  type: "Convolution"
  bottom: "inception_4a/pool"
  top: "inception_4a/pool_proj"
  param {
    lr_mult: 1
    decay_mult: 1
  }
  param {
    lr_mult: 2
    decay_mult: 0
  }
  convolution_param {
    num_output: 64
    kernel_size: 1
    weight_filler {
      type: "xavier"
      std: 0.1
    }
    bias_filler {
      type: "constant"
      value: 0.2
    }
  }
}
layer {
  name: "inception_4a/relu_pool_proj"
  type: "ReLU"
  bottom: "inception_4a/pool_proj"
  top: "inception_4a/pool_proj"
}
layer {
  name: "inception_4a/output"
  type: "Concat"
  bottom: "inception_4a/1x1"
  bottom: "inception_4a/3x3"
  bottom: "inception_4a/5x5"
  bottom: "inception_4a/pool_proj"
  top: "inception_4a/output"
}
layer {
  name: "loss1/ave_pool"
  type: "Pooling"
  bottom: "inception_4a/output"
  top: "loss1/ave_pool"
  pooling_param {
    pool: AVE
    kernel_size: 5
    stride: 3
  }
}
layer {
  name: "loss1/conv"
  type: "Convolution"
  bottom: "loss1/ave_pool"
  top: "loss1/conv"
  param {
    lr_mult: 1
    decay_mult: 1
  }
  param {
    lr_mult: 2
    decay_mult: 0
  }
  convolution_param {
    num_output: 128
    kernel_size: 1
    weight_filler {
      type: "xavier"
      std: 0.08
    }
    bias_filler {
      type: "constant"
      value: 0.2
    }
  }
}
layer {
  name: "loss1/relu_conv"
  type: "ReLU"
  bottom: "loss1/conv"
  top: "loss1/conv"
}
layer {
  name: "loss1/fc"
  type: "InnerProduct"
  bottom: "loss1/conv"
  top: "loss1/fc"
  param {
    lr_mult: 1
    decay_mult: 1
  }
  param {
    lr_mult: 2
    decay_mult: 0
  }
  inner_product_param {
    num_output: 1024
    weight_filler {
      type: "xavier"
      std: 0.02
    }
    bias_filler {
      type: "constant"
      value: 0.2
    }
  }
}
layer {
  name: "loss1/relu_fc"
  type: "ReLU"
  bottom: "loss1/fc"
  top: "loss1/fc"
}
layer {
  name: "loss1/drop_fc"
  type: "Dropout"
  bottom: "loss1/fc"
  top: "loss1/fc"
  dropout_param {
    dropout_ratio: 0.7
  }
}
layer {
  name: "loss1/classifier"
  type: "InnerProduct"
  bottom: "loss1/fc"
  top: "loss1/classifier"
  param {
    lr_mult: 1
    decay_mult: 1
  }
  param {
    lr_mult: 2
    decay_mult: 0
  }
  inner_product_param {
    num_output: 2
    weight_filler {
      type: "xavier"
      std: 0.0009765625
    }
    bias_filler {
      type: "constant"
      value: 0
    }
  }
}
layer {
  name: "loss1/loss"
  type: "SoftmaxWithLoss"
  bottom: "loss1/classifier"
  bottom: "label"
  top: "loss1/loss1"
  loss_weight: 0.3
}
layer {
  name: "loss1/top-1"
  type: "Accuracy"
  bottom: "loss1/classifier"
  bottom: "label"
  top: "loss1/top-1"
  include {
    phase: TEST
  }
}
layer {
  name: "inception_4b/1x1"
  type: "Convolution"
  bottom: "inception_4a/output"
  top: "inception_4b/1x1"
  param {
    lr_mult: 1
    decay_mult: 1
  }
  param {
    lr_mult: 2
    decay_mult: 0
  }
  convolution_param {
    num_output: 160
    kernel_size: 1
    weight_filler {
      type: "xavier"
      std: 0.03
    }
    bias_filler {
      type: "constant"
      value: 0.2
    }
  }
}
layer {
  name: "inception_4b/relu_1x1"
  type: "ReLU"
  bottom: "inception_4b/1x1"
  top: "inception_4b/1x1"
}
layer {
  name: "inception_4b/3x3_reduce"
  type: "Convolution"
  bottom: "inception_4a/output"
  top: "inception_4b/3x3_reduce"
  param {
    lr_mult: 1
    decay_mult: 1
  }
  param {
    lr_mult: 2
    decay_mult: 0
  }
  convolution_param {
    num_output: 112
    kernel_size: 1
    weight_filler {
      type: "xavier"
      std: 0.09
    }
    bias_filler {
      type: "constant"
      value: 0.2
    }
  }
}
layer {
  name: "inception_4b/relu_3x3_reduce"
  type: "ReLU"
  bottom: "inception_4b/3x3_reduce"
  top: "inception_4b/3x3_reduce"
}
layer {
  name: "inception_4b/3x3"
  type: "Convolution"
  bottom: "inception_4b/3x3_reduce"
  top: "inception_4b/3x3"
  param {
    lr_mult: 1
    decay_mult: 1
  }
  param {
    lr_mult: 2
    decay_mult: 0
  }
  convolution_param {
    num_output: 224
    pad: 1
    kernel_size: 3
    weight_filler {
      type: "xavier"
      std: 0.03
    }
    bias_filler {
      type: "constant"
      value: 0.2
    }
  }
}
layer {
  name: "inception_4b/relu_3x3"
  type: "ReLU"
  bottom: "inception_4b/3x3"
  top: "inception_4b/3x3"
}
layer {
  name: "inception_4b/5x5_reduce"
  type: "Convolution"
  bottom: "inception_4a/output"
  top: "inception_4b/5x5_reduce"
  param {
    lr_mult: 1
    decay_mult: 1
  }
  param {
    lr_mult: 2
    decay_mult: 0
  }
  convolution_param {
    num_output: 24
    kernel_size: 1
    weight_filler {
      type: "xavier"
      std: 0.2
    }
    bias_filler {
      type: "constant"
      value: 0.2
    }
  }
}
layer {
  name: "inception_4b/relu_5x5_reduce"
  type: "ReLU"
  bottom: "inception_4b/5x5_reduce"
  top: "inception_4b/5x5_reduce"
}
layer {
  name: "inception_4b/5x5"
  type: "Convolution"
  bottom: "inception_4b/5x5_reduce"
  top: "inception_4b/5x5"
  param {
    lr_mult: 1
    decay_mult: 1
  }
  param {
    lr_mult: 2
    decay_mult: 0
  }
  convolution_param {
    num_output: 64
    pad: 2
    kernel_size: 5
    weight_filler {
      type: "xavier"
      std: 0.03
    }
    bias_filler {
      type: "constant"
      value: 0.2
    }
  }
}
layer {
  name: "inception_4b/relu_5x5"
  type: "ReLU"
  bottom: "inception_4b/5x5"
  top: "inception_4b/5x5"
}
layer {
  name: "inception_4b/pool"
  type: "Pooling"
  bottom: "inception_4a/output"
  top: "inception_4b/pool"
  pooling_param {
    pool: MAX
    kernel_size: 3
    stride: 1
    pad: 1
  }
}
layer {
  name: "inception_4b/pool_proj"
  type: "Convolution"
  bottom: "inception_4b/pool"
  top: "inception_4b/pool_proj"
  param {
    lr_mult: 1
    decay_mult: 1
  }
  param {
    lr_mult: 2
    decay_mult: 0
  }
  convolution_param {
    num_output: 64
    kernel_size: 1
    weight_filler {
      type: "xavier"
      std: 0.1
    }
    bias_filler {
      type: "constant"
      value: 0.2
    }
  }
}
layer {
  name: "inception_4b/relu_pool_proj"
  type: "ReLU"
  bottom: "inception_4b/pool_proj"
  top: "inception_4b/pool_proj"
}
layer {
  name: "inception_4b/output"
  type: "Concat"
  bottom: "inception_4b/1x1"
  bottom: "inception_4b/3x3"
  bottom: "inception_4b/5x5"
  bottom: "inception_4b/pool_proj"
  top: "inception_4b/output"
}
layer {
  name: "inception_4c/1x1"
  type: "Convolution"
  bottom: "inception_4b/output"
  top: "inception_4c/1x1"
  param {
    lr_mult: 1
    decay_mult: 1
  }
  param {
    lr_mult: 2
    decay_mult: 0
  }
  convolution_param {
    num_output: 128
    kernel_size: 1
    weight_filler {
      type: "xavier"
      std: 0.03
    }
    bias_filler {
      type: "constant"
      value: 0.2
    }
  }
}
layer {
  name: "inception_4c/relu_1x1"
  type: "ReLU"
  bottom: "inception_4c/1x1"
  top: "inception_4c/1x1"
}
layer {
  name: "inception_4c/3x3_reduce"
  type: "Convolution"
  bottom: "inception_4b/output"
  top: "inception_4c/3x3_reduce"
  param {
    lr_mult: 1
    decay_mult: 1
  }
  param {
    lr_mult: 2
    decay_mult: 0
  }
  convolution_param {
    num_output: 128
    kernel_size: 1
    weight_filler {
      type: "xavier"
      std: 0.09
    }
    bias_filler {
      type: "constant"
      value: 0.2
    }
  }
}
layer {
  name: "inception_4c/relu_3x3_reduce"
  type: "ReLU"
  bottom: "inception_4c/3x3_reduce"
  top: "inception_4c/3x3_reduce"
}
layer {
  name: "inception_4c/3x3"
  type: "Convolution"
  bottom: "inception_4c/3x3_reduce"
  top: "inception_4c/3x3"
  param {
    lr_mult: 1
    decay_mult: 1
  }
  param {
    lr_mult: 2
    decay_mult: 0
  }
  convolution_param {
    num_output: 256
    pad: 1
    kernel_size: 3
    weight_filler {
      type: "xavier"
      std: 0.03
    }
    bias_filler {
      type: "constant"
      value: 0.2
    }
  }
}
layer {
  name: "inception_4c/relu_3x3"
  type: "ReLU"
  bottom: "inception_4c/3x3"
  top: "inception_4c/3x3"
}
layer {
  name: "inception_4c/5x5_reduce"
  type: "Convolution"
  bottom: "inception_4b/output"
  top: "inception_4c/5x5_reduce"
  param {
    lr_mult: 1
    decay_mult: 1
  }
  param {
    lr_mult: 2
    decay_mult: 0
  }
  convolution_param {
    num_output: 24
    kernel_size: 1
    weight_filler {
      type: "xavier"
      std: 0.2
    }
    bias_filler {
      type: "constant"
      value: 0.2
    }
  }
}
layer {
  name: "inception_4c/relu_5x5_reduce"
  type: "ReLU"
  bottom: "inception_4c/5x5_reduce"
  top: "inception_4c/5x5_reduce"
}
layer {
  name: "inception_4c/5x5"
  type: "Convolution"
  bottom: "inception_4c/5x5_reduce"
  top: "inception_4c/5x5"
  param {
    lr_mult: 1
    decay_mult: 1
  }
  param {
    lr_mult: 2
    decay_mult: 0
  }
  convolution_param {
    num_output: 64
    pad: 2
    kernel_size: 5
    weight_filler {
      type: "xavier"
      std: 0.03
    }
    bias_filler {
      type: "constant"
      value: 0.2
    }
  }
}
layer {
  name: "inception_4c/relu_5x5"
  type: "ReLU"
  bottom: "inception_4c/5x5"
  top: "inception_4c/5x5"
}
layer {
  name: "inception_4c/pool"
  type: "Pooling"
  bottom: "inception_4b/output"
  top: "inception_4c/pool"
  pooling_param {
    pool: MAX
    kernel_size: 3
    stride: 1
    pad: 1
  }
}
layer {
  name: "inception_4c/pool_proj"
  type: "Convolution"
  bottom: "inception_4c/pool"
  top: "inception_4c/pool_proj"
  param {
    lr_mult: 1
    decay_mult: 1
  }
  param {
    lr_mult: 2
    decay_mult: 0
  }
  convolution_param {
    num_output: 64
    kernel_size: 1
    weight_filler {
      type: "xavier"
      std: 0.1
    }
    bias_filler {
      type: "constant"
      value: 0.2
    }
  }
}
layer {
  name: "inception_4c/relu_pool_proj"
  type: "ReLU"
  bottom: "inception_4c/pool_proj"
  top: "inception_4c/pool_proj"
}
layer {
  name: "inception_4c/output"
  type: "Concat"
  bottom: "inception_4c/1x1"
  bottom: "inception_4c/3x3"
  bottom: "inception_4c/5x5"
  bottom: "inception_4c/pool_proj"
  top: "inception_4c/output"
}
layer {
  name: "inception_4d/1x1"
  type: "Convolution"
  bottom: "inception_4c/output"
  top: "inception_4d/1x1"
  param {
    lr_mult: 1
    decay_mult: 1
  }
  param {
    lr_mult: 2
    decay_mult: 0
  }
  convolution_param {
    num_output: 112
    kernel_size: 1
    weight_filler {
      type: "xavier"
      std: 0.03
    }
    bias_filler {
      type: "constant"
      value: 0.2
    }
  }
}
layer {
  name: "inception_4d/relu_1x1"
  type: "ReLU"
  bottom: "inception_4d/1x1"
  top: "inception_4d/1x1"
}
layer {
  name: "inception_4d/3x3_reduce"
  type: "Convolution"
  bottom: "inception_4c/output"
  top: "inception_4d/3x3_reduce"
  param {
    lr_mult: 1
    decay_mult: 1
  }
  param {
    lr_mult: 2
    decay_mult: 0
  }
  convolution_param {
    num_output: 144
    kernel_size: 1
    weight_filler {
      type: "xavier"
      std: 0.09
    }
    bias_filler {
      type: "constant"
      value: 0.2
    }
  }
}
layer {
  name: "inception_4d/relu_3x3_reduce"
  type: "ReLU"
  bottom: "inception_4d/3x3_reduce"
  top: "inception_4d/3x3_reduce"
}
layer {
  name: "inception_4d/3x3"
  type: "Convolution"
  bottom: "inception_4d/3x3_reduce"
  top: "inception_4d/3x3"
  param {
    lr_mult: 1
    decay_mult: 1
  }
  param {
    lr_mult: 2
    decay_mult: 0
  }
  convolution_param {
    num_output: 288
    pad: 1
    kernel_size: 3
    weight_filler {
      type: "xavier"
      std: 0.03
    }
    bias_filler {
      type: "constant"
      value: 0.2
    }
  }
}
layer {
  name: "inception_4d/relu_3x3"
  type: "ReLU"
  bottom: "inception_4d/3x3"
  top: "inception_4d/3x3"
}
layer {
  name: "inception_4d/5x5_reduce"
  type: "Convolution"
  bottom: "inception_4c/output"
  top: "inception_4d/5x5_reduce"
  param {
    lr_mult: 1
    decay_mult: 1
  }
  param {
    lr_mult: 2
    decay_mult: 0
  }
  convolution_param {
    num_output: 32
    kernel_size: 1
    weight_filler {
      type: "xavier"
      std: 0.2
    }
    bias_filler {
      type: "constant"
      value: 0.2
    }
  }
}
layer {
  name: "inception_4d/relu_5x5_reduce"
  type: "ReLU"
  bottom: "inception_4d/5x5_reduce"
  top: "inception_4d/5x5_reduce"
}
layer {
  name: "inception_4d/5x5"
  type: "Convolution"
  bottom: "inception_4d/5x5_reduce"
  top: "inception_4d/5x5"
  param {
    lr_mult: 1
    decay_mult: 1
  }
  param {
    lr_mult: 2
    decay_mult: 0
  }
  convolution_param {
    num_output: 64
    pad: 2
    kernel_size: 5
    weight_filler {
      type: "xavier"
      std: 0.03
    }
    bias_filler {
      type: "constant"
      value: 0.2
    }
  }
}
layer {
  name: "inception_4d/relu_5x5"
  type: "ReLU"
  bottom: "inception_4d/5x5"
  top: "inception_4d/5x5"
}
layer {
  name: "inception_4d/pool"
  type: "Pooling"
  bottom: "inception_4c/output"
  top: "inception_4d/pool"
  pooling_param {
    pool: MAX
    kernel_size: 3
    stride: 1
    pad: 1
  }
}
layer {
  name: "inception_4d/pool_proj"
  type: "Convolution"
  bottom: "inception_4d/pool"
  top: "inception_4d/pool_proj"
  param {
    lr_mult: 1
    decay_mult: 1
  }
  param {
    lr_mult: 2
    decay_mult: 0
  }
  convolution_param {
    num_output: 64
    kernel_size: 1
    weight_filler {
      type: "xavier"
      std: 0.1
    }
    bias_filler {
      type: "constant"
      value: 0.2
    }
  }
}
layer {
  name: "inception_4d/relu_pool_proj"
  type: "ReLU"
  bottom: "inception_4d/pool_proj"
  top: "inception_4d/pool_proj"
}
layer {
  name: "inception_4d/output"
  type: "Concat"
  bottom: "inception_4d/1x1"
  bottom: "inception_4d/3x3"
  bottom: "inception_4d/5x5"
  bottom: "inception_4d/pool_proj"
  top: "inception_4d/output"
}
layer {
  name: "loss2/ave_pool"
  type: "Pooling"
  bottom: "inception_4d/output"
  top: "loss2/ave_pool"
  pooling_param {
    pool: AVE
    kernel_size: 5
    stride: 3
  }
}
layer {
  name: "loss2/conv"
  type: "Convolution"
  bottom: "loss2/ave_pool"
  top: "loss2/conv"
  param {
    lr_mult: 1
    decay_mult: 1
  }
  param {
    lr_mult: 2
    decay_mult: 0
  }
  convolution_param {
    num_output: 128
    kernel_size: 1
    weight_filler {
      type: "xavier"
      std: 0.08
    }
    bias_filler {
      type: "constant"
      value: 0.2
    }
  }
}
layer {
  name: "loss2/relu_conv"
  type: "ReLU"
  bottom: "loss2/conv"
  top: "loss2/conv"
}
layer {
  name: "loss2/fc"
  type: "InnerProduct"
…
I0509 23:09:34.846374 23234 net.cpp:112] Top shape: 32 128 14 14 (802816)
I0509 23:09:34.846390 23234 layer_factory.hpp:74] Creating layer inception_4c/relu_1x1
I0509 23:09:34.846397 23234 net.cpp:76] Creating Layer inception_4c/relu_1x1
I0509 23:09:34.846403 23234 net.cpp:372] inception_4c/relu_1x1 <- inception_4c/1x1
I0509 23:09:34.846412 23234 net.cpp:323] inception_4c/relu_1x1 -> inception_4c/1x1 (in-place)
I0509 23:09:34.846421 23234 net.cpp:105] Setting up inception_4c/relu_1x1
I0509 23:09:34.846426 23234 net.cpp:112] Top shape: 32 128 14 14 (802816)
I0509 23:09:34.846446 23234 layer_factory.hpp:74] Creating layer inception_4c/3x3_reduce
I0509 23:09:34.846454 23234 net.cpp:76] Creating Layer inception_4c/3x3_reduce
I0509 23:09:34.846460 23234 net.cpp:372] inception_4c/3x3_reduce <- inception_4b/output_inception_4b/output_0_split_1
I0509 23:09:34.846469 23234 net.cpp:334] inception_4c/3x3_reduce -> inception_4c/3x3_reduce
I0509 23:09:34.846478 23234 net.cpp:105] Setting up inception_4c/3x3_reduce
I0509 23:09:34.847033 23234 net.cpp:112] Top shape: 32 128 14 14 (802816)
I0509 23:09:34.847046 23234 layer_factory.hpp:74] Creating layer inception_4c/relu_3x3_reduce
I0509 23:09:34.847055 23234 net.cpp:76] Creating Layer inception_4c/relu_3x3_reduce
I0509 23:09:34.847061 23234 net.cpp:372] inception_4c/relu_3x3_reduce <- inception_4c/3x3_reduce
I0509 23:09:34.847069 23234 net.cpp:323] inception_4c/relu_3x3_reduce -> inception_4c/3x3_reduce (in-place)
I0509 23:09:34.847076 23234 net.cpp:105] Setting up inception_4c/relu_3x3_reduce
I0509 23:09:34.847081 23234 net.cpp:112] Top shape: 32 128 14 14 (802816)
I0509 23:09:34.847087 23234 layer_factory.hpp:74] Creating layer inception_4c/3x3
I0509 23:09:34.847096 23234 net.cpp:76] Creating Layer inception_4c/3x3
I0509 23:09:34.847102 23234 net.cpp:372] inception_4c/3x3 <- inception_4c/3x3_reduce
I0509 23:09:34.847111 23234 net.cpp:334] inception_4c/3x3 -> inception_4c/3x3
I0509 23:09:34.847120 23234 net.cpp:105] Setting up inception_4c/3x3
I0509 23:09:34.849908 23234 net.cpp:112] Top shape: 32 256 14 14 (1605632)
I0509 23:09:34.849963 23234 layer_factory.hpp:74] Creating layer inception_4c/relu_3x3
I0509 23:09:34.849983 23234 net.cpp:76] Creating Layer inception_4c/relu_3x3
I0509 23:09:34.850846 23234 net.cpp:372] inception_4c/relu_3x3 <- inception_4c/3x3
I0509 23:09:34.850864 23234 net.cpp:323] inception_4c/relu_3x3 -> inception_4c/3x3 (in-place)
I0509 23:09:34.850875 23234 net.cpp:105] Setting up inception_4c/relu_3x3
I0509 23:09:34.850883 23234 net.cpp:112] Top shape: 32 256 14 14 (1605632)
I0509 23:09:34.850888 23234 layer_factory.hpp:74] Creating layer inception_4c/5x5_reduce
I0509 23:09:34.850903 23234 net.cpp:76] Creating Layer inception_4c/5x5_reduce
I0509 23:09:34.850911 23234 net.cpp:372] inception_4c/5x5_reduce <- inception_4b/output_inception_4b/output_0_split_2
I0509 23:09:34.850921 23234 net.cpp:334] inception_4c/5x5_reduce -> inception_4c/5x5_reduce
I0509 23:09:34.850931 23234 net.cpp:105] Setting up inception_4c/5x5_reduce
I0509 23:09:34.851048 23234 net.cpp:112] Top shape: 32 24 14 14 (150528)
I0509 23:09:34.851061 23234 layer_factory.hpp:74] Creating layer inception_4c/relu_5x5_reduce
I0509 23:09:34.851069 23234 net.cpp:76] Creating Layer inception_4c/relu_5x5_reduce
I0509 23:09:34.851076 23234 net.cpp:372] inception_4c/relu_5x5_reduce <- inception_4c/5x5_reduce
I0509 23:09:34.851083 23234 net.cpp:323] inception_4c/relu_5x5_reduce -> inception_4c/5x5_reduce (in-place)
I0509 23:09:34.851091 23234 net.cpp:105] Setting up inception_4c/relu_5x5_reduce
I0509 23:09:34.851096 23234 net.cpp:112] Top shape: 32 24 14 14 (150528)
I0509 23:09:34.851102 23234 layer_factory.hpp:74] Creating layer inception_4c/5x5
I0509 23:09:34.851112 23234 net.cpp:76] Creating Layer inception_4c/5x5
I0509 23:09:34.851119 23234 net.cpp:372] inception_4c/5x5 <- inception_4c/5x5_reduce
I0509 23:09:34.851128 23234 net.cpp:334] inception_4c/5x5 -> inception_4c/5x5
I0509 23:09:34.851137 23234 net.cpp:105] Setting up inception_4c/5x5
I0509 23:09:34.851483 23234 net.cpp:112] Top shape: 32 64 14 14 (401408)
I0509 23:09:34.851505 23234 layer_factory.hpp:74] Creating layer inception_4c/relu_5x5
I0509 23:09:34.851513 23234 net.cpp:76] Creating Layer inception_4c/relu_5x5
I0509 23:09:34.851519 23234 net.cpp:372] inception_4c/relu_5x5 <- inception_4c/5x5
I0509 23:09:34.851526 23234 net.cpp:323] inception_4c/relu_5x5 -> inception_4c/5x5 (in-place)
I0509 23:09:34.851534 23234 net.cpp:105] Setting up inception_4c/relu_5x5
I0509 23:09:34.851539 23234 net.cpp:112] Top shape: 32 64 14 14 (401408)
I0509 23:09:34.851546 23234 layer_factory.hpp:74] Creating layer inception_4c/pool
I0509 23:09:34.851580 23234 net.cpp:76] Creating Layer inception_4c/pool
I0509 23:09:34.851588 23234 net.cpp:372] inception_4c/pool <- inception_4b/output_inception_4b/output_0_split_3
I0509 23:09:34.851598 23234 net.cpp:334] inception_4c/pool -> inception_4c/pool
I0509 23:09:34.851608 23234 net.cpp:105] Setting up inception_4c/pool
I0509 23:09:34.851616 23234 net.cpp:112] Top shape: 32 512 14 14 (3211264)
I0509 23:09:34.851626 23234 layer_factory.hpp:74] Creating layer inception_4c/pool_proj
I0509 23:09:34.851636 23234 net.cpp:76] Creating Layer inception_4c/pool_proj
I0509 23:09:34.851641 23234 net.cpp:372] inception_4c/pool_proj <- inception_4c/pool
I0509 23:09:34.851652 23234 net.cpp:334] inception_4c/pool_proj -> inception_4c/pool_proj
I0509 23:09:34.851661 23234 net.cpp:105] Setting up inception_4c/pool_proj
I0509 23:09:34.851950 23234 net.cpp:112] Top shape: 32 64 14 14 (401408)
I0509 23:09:34.851964 23234 layer_factory.hpp:74] Creating layer inception_4c/relu_pool_proj
I0509 23:09:34.851972 23234 net.cpp:76] Creating Layer inception_4c/relu_pool_proj
I0509 23:09:34.851979 23234 net.cpp:372] inception_4c/relu_pool_proj <- inception_4c/pool_proj
I0509 23:09:34.851985 23234 net.cpp:323] inception_4c/relu_pool_proj -> inception_4c/pool_proj (in-place)
I0509 23:09:34.851994 23234 net.cpp:105] Setting up inception_4c/relu_pool_proj
I0509 23:09:34.851999 23234 net.cpp:112] Top shape: 32 64 14 14 (401408)
I0509 23:09:34.852005 23234 layer_factory.hpp:74] Creating layer inception_4c/output
I0509 23:09:34.852015 23234 net.cpp:76] Creating Layer inception_4c/output
I0509 23:09:34.852020 23234 net.cpp:372] inception_4c/output <- inception_4c/1x1
I0509 23:09:34.852027 23234 net.cpp:372] inception_4c/output <- inception_4c/3x3
I0509 23:09:34.852033 23234 net.cpp:372] inception_4c/output <- inception_4c/5x5
I0509 23:09:34.852040 23234 net.cpp:372] inception_4c/output <- inception_4c/pool_proj
I0509 23:09:34.852047 23234 net.cpp:334] inception_4c/output -> inception_4c/output
I0509 23:09:34.852056 23234 net.cpp:105] Setting up inception_4c/output
I0509 23:09:34.852061 23234 net.cpp:112] Top shape: 32 512 14 14 (3211264)
I0509 23:09:34.852067 23234 layer_factory.hpp:74] Creating layer inception_4c/output_inception_4c/output_0_split
I0509 23:09:34.852076 23234 net.cpp:76] Creating Layer inception_4c/output_inception_4c/output_0_split
I0509 23:09:34.852082 23234 net.cpp:372] inception_4c/output_inception_4c/output_0_split <- inception_4c/output
I0509 23:09:34.852088 23234 net.cpp:334] inception_4c/output_inception_4c/output_0_split -> inception_4c/output_inception_4c/output_0_split_0
I0509 23:09:34.852100 23234 net.cpp:334] inception_4c/output_inception_4c/output_0_split -> inception_4c/output_inception_4c/output_0_split_1
I0509 23:09:34.852110 23234 net.cpp:334] inception_4c/output_inception_4c/output_0_split -> inception_4c/output_inception_4c/output_0_split_2
I0509 23:09:34.852119 23234 net.cpp:334] inception_4c/output_inception_4c/output_0_split -> inception_4c/output_inception_4c/output_0_split_3
I0509 23:09:34.852128 23234 net.cpp:105] Setting up inception_4c/output_inception_4c/output_0_split
I0509 23:09:34.852134 23234 net.cpp:112] Top shape: 32 512 14 14 (3211264)
I0509 23:09:34.852139 23234 net.cpp:112] Top shape: 32 512 14 14 (3211264)
I0509 23:09:34.852144 23234 net.cpp:112] Top shape: 32 512 14 14 (3211264)
I0509 23:09:34.852149 23234 net.cpp:112] Top shape: 32 512 14 14 (3211264)
I0509 23:09:34.852154 23234 layer_factory.hpp:74] Creating layer inception_4d/1x1
I0509 23:09:34.852164 23234 net.cpp:76] Creating Layer inception_4d/1x1
I0509 23:09:34.852170 23234 net.cpp:372] inception_4d/1x1 <- inception_4c/output_inception_4c/output_0_split_0
I0509 23:09:34.852179 23234 net.cpp:334] inception_4d/1x1 -> inception_4d/1x1
I0509 23:09:34.852186 23234 net.cpp:105] Setting up inception_4d/1x1
I0509 23:09:34.852691 23234 net.cpp:112] Top shape: 32 112 14 14 (702464)
I0509 23:09:34.852705 23234 layer_factory.hpp:74] Creating layer inception_4d/relu_1x1
I0509 23:09:34.852713 23234 net.cpp:76] Creating Layer inception_4d/relu_1x1
I0509 23:09:34.852735 23234 net.cpp:372] inception_4d/relu_1x1 <- inception_4d/1x1
I0509 23:09:34.852743 23234 net.cpp:323] inception_4d/relu_1x1 -> inception_4d/1x1 (in-place)
I0509 23:09:34.852751 23234 net.cpp:105] Setting up inception_4d/relu_1x1
I0509 23:09:34.852757 23234 net.cpp:112] Top shape: 32 112 14 14 (702464)
I0509 23:09:34.852762 23234 layer_factory.hpp:74] Creating layer inception_4d/3x3_reduce
I0509 23:09:34.852771 23234 net.cpp:76] Creating Layer inception_4d/3x3_reduce
I0509 23:09:34.852777 23234 net.cpp:372] inception_4d/3x3_reduce <- inception_4c/output_inception_4c/output_0_split_1
I0509 23:09:34.852788 23234 net.cpp:334] inception_4d/3x3_reduce -> inception_4d/3x3_reduce
I0509 23:09:34.852797 23234 net.cpp:105] Setting up inception_4d/3x3_reduce
I0509 23:09:34.853432 23234 net.cpp:112] Top shape: 32 144 14 14 (903168)
I0509 23:09:34.853446 23234 layer_factory.hpp:74] Creating layer inception_4d/relu_3x3_reduce
I0509 23:09:34.853454 23234 net.cpp:76] Creating Layer inception_4d/relu_3x3_reduce
I0509 23:09:34.853461 23234 net.cpp:372] inception_4d/relu_3x3_reduce <- inception_4d/3x3_reduce
I0509 23:09:34.853467 23234 net.cpp:323] inception_4d/relu_3x3_reduce -> inception_4d/3x3_reduce (in-place)
I0509 23:09:34.853476 23234 net.cpp:105] Setting up inception_4d/relu_3x3_reduce
I0509 23:09:34.853482 23234 net.cpp:112] Top shape: 32 144 14 14 (903168)
I0509 23:09:34.853487 23234 layer_factory.hpp:74] Creating layer inception_4d/3x3
I0509 23:09:34.853497 23234 net.cpp:76] Creating Layer inception_4d/3x3
I0509 23:09:34.854179 23234 net.cpp:372] inception_4d/3x3 <- inception_4d/3x3_reduce
I0509 23:09:34.854199 23234 net.cpp:334] inception_4d/3x3 -> inception_4d/3x3
I0509 23:09:34.854212 23234 net.cpp:105] Setting up inception_4d/3x3
I0509 23:09:34.857327 23234 net.cpp:112] Top shape: 32 288 14 14 (1806336)
I0509 23:09:34.857349 23234 layer_factory.hpp:74] Creating layer inception_4d/relu_3x3
I0509 23:09:34.857359 23234 net.cpp:76] Creating Layer inception_4d/relu_3x3
I0509 23:09:34.857367 23234 net.cpp:372] inception_4d/relu_3x3 <- inception_4d/3x3
I0509 23:09:34.857374 23234 net.cpp:323] inception_4d/relu_3x3 -> inception_4d/3x3 (in-place)
I0509 23:09:34.857383 23234 net.cpp:105] Setting up inception_4d/relu_3x3
I0509 23:09:34.857388 23234 net.cpp:112] Top shape: 32 288 14 14 (1806336)
I0509 23:09:34.857394 23234 layer_factory.hpp:74] Creating layer inception_4d/5x5_reduce
I0509 23:09:34.857406 23234 net.cpp:76] Creating Layer inception_4d/5x5_reduce
I0509 23:09:34.857414 23234 net.cpp:372] inception_4d/5x5_reduce <- inception_4c/output_inception_4c/output_0_split_2
I0509 23:09:34.857422 23234 net.cpp:334] inception_4d/5x5_reduce -> inception_4d/5x5_reduce
I0509 23:09:34.857434 23234 net.cpp:105] Setting up inception_4d/5x5_reduce
I0509 23:09:34.857581 23234 net.cpp:112] Top shape: 32 32 14 14 (200704)
I0509 23:09:34.857594 23234 layer_factory.hpp:74] Creating layer inception_4d/relu_5x5_reduce
I0509 23:09:34.857602 23234 net.cpp:76] Creating Layer inception_4d/relu_5x5_reduce
I0509 23:09:34.857609 23234 net.cpp:372] inception_4d/relu_5x5_reduce <- inception_4d/5x5_reduce
I0509 23:09:34.857617 23234 net.cpp:323] inception_4d/relu_5x5_reduce -> inception_4d/5x5_reduce (in-place)
I0509 23:09:34.857626 23234 net.cpp:105] Setting up inception_4d/relu_5x5_reduce
I0509 23:09:34.857631 23234 net.cpp:112] Top shape: 32 32 14 14 (200704)
I0509 23:09:34.857637 23234 layer_factory.hpp:74] Creating layer inception_4d/5x5
I0509 23:09:34.857646 23234 net.cpp:76] Creating Layer inception_4d/5x5
I0509 23:09:34.857651 23234 net.cpp:372] inception_4d/5x5 <- inception_4d/5x5_reduce
I0509 23:09:34.857661 23234 net.cpp:334] inception_4d/5x5 -> inception_4d/5x5
I0509 23:09:34.857671 23234 net.cpp:105] Setting up inception_4d/5x5
I0509 23:09:34.858114 23234 net.cpp:112] Top shape: 32 64 14 14 (401408)
I0509 23:09:34.858126 23234 layer_factory.hpp:74] Creating layer inception_4d/relu_5x5
I0509 23:09:34.858136 23234 net.cpp:76] Creating Layer inception_4d/relu_5x5
I0509 23:09:34.858144 23234 net.cpp:372] inception_4d/relu_5x5 <- inception_4d/5x5
I0509 23:09:34.858171 23234 net.cpp:323] inception_4d/relu_5x5 -> inception_4d/5x5 (in-place)
I0509 23:09:34.858180 23234 net.cpp:105] Setting up inception_4d/relu_5x5
I0509 23:09:34.858186 23234 net.cpp:112] Top shape: 32 64 14 14 (401408)
I0509 23:09:34.858191 23234 layer_factory.hpp:74] Creating layer inception_4d/pool
I0509 23:09:34.858201 23234 net.cpp:76] Creating Layer inception_4d/pool
I0509 23:09:34.858208 23234 net.cpp:372] inception_4d/pool <- inception_4c/output_inception_4c/output_0_split_3
I0509 23:09:34.858217 23234 net.cpp:334] inception_4d/pool -> inception_4d/pool
I0509 23:09:34.858224 23234 net.cpp:105] Setting up inception_4d/pool
I0509 23:09:34.858232 23234 net.cpp:112] Top shape: 32 512 14 14 (3211264)
I0509 23:09:34.858238 23234 layer_factory.hpp:74] Creating layer inception_4d/pool_proj
I0509 23:09:34.858247 23234 net.cpp:76] Creating Layer inception_4d/pool_proj
I0509 23:09:34.858253 23234 net.cpp:372] inception_4d/pool_proj <- inception_4d/pool
I0509 23:09:34.858263 23234 net.cpp:334] inception_4d/pool_proj -> inception_4d/pool_proj
I0509 23:09:34.858286 23234 net.cpp:105] Setting up inception_4d/pool_proj
I0509 23:09:34.858575 23234 net.cpp:112] Top shape: 32 64 14 14 (401408)
I0509 23:09:34.858588 23234 layer_factory.hpp:74] Creating layer inception_4d/relu_pool_proj
I0509 23:09:34.858597 23234 net.cpp:76] Creating Layer inception_4d/relu_pool_proj
I0509 23:09:34.858603 23234 net.cpp:372] inception_4d/relu_pool_proj <- inception_4d/pool_proj
I0509 23:09:34.858609 23234 net.cpp:323] inception_4d/relu_pool_proj -> inception_4d/pool_proj (in-place)
I0509 23:09:34.858618 23234 net.cpp:105] Setting up inception_4d/relu_pool_proj
I0509 23:09:34.858623 23234 net.cpp:112] Top shape: 32 64 14 14 (401408)
I0509 23:09:34.858628 23234 layer_factory.hpp:74] Creating layer inception_4d/output
I0509 23:09:34.858641 23234 net.cpp:76] Creating Layer inception_4d/output
I0509 23:09:34.858647 23234 net.cpp:372] inception_4d/output <- inception_4d/1x1
I0509 23:09:34.858654 23234 net.cpp:372] inception_4d/output <- inception_4d/3x3
I0509 23:09:34.858660 23234 net.cpp:372] inception_4d/output <- inception_4d/5x5
I0509 23:09:34.858666 23234 net.cpp:372] inception_4d/output <- inception_4d/pool_proj
I0509 23:09:34.858674 23234 net.cpp:334] inception_4d/output -> inception_4d/output
I0509 23:09:34.858681 23234 net.cpp:105] Setting up inception_4d/output
I0509 23:09:34.858688 23234 net.cpp:112] Top shape: 32 528 14 14 (3311616)
I0509 23:09:34.858693 23234 layer_factory.hpp:74] Creating layer inception_4d/output_inception_4d/output_0_split
I0509 23:09:34.858703 23234 net.cpp:76] Creating Layer inception_4d/output_inception_4d/output_0_split
I0509 23:09:34.858710 23234 net.cpp:372] inception_4d/output_inception_4d/output_0_split <- inception_4d/output
I0509 23:09:34.858717 23234 net.cpp:334] inception_4d/output_inception_4d/output_0_split -> inception_4d/output_inception_4d/output_0_split_0
I0509 23:09:34.858726 23234 net.cpp:334] inception_4d/output_inception_4d/output_0_split -> inception_4d/output_inception_4d/output_0_split_1
I0509 23:09:34.858736 23234 net.cpp:334] inception_4d/output_inception_4d/output_0_split -> inception_4d/output_inception_4d/output_0_split_2
I0509 23:09:34.858744 23234 net.cpp:334] inception_4d/output_inception_4d/output_0_split -> inception_4d/output_inception_4d/output_0_split_3
I0509 23:09:34.858753 23234 net.cpp:334] inception_4d/output_inception_4d/output_0_split -> inception_4d/output_inception_4d/output_0_split_4
I0509 23:09:34.858762 23234 net.cpp:105] Setting up inception_4d/output_inception_4d/output_0_split
I0509 23:09:34.858769 23234 net.cpp:112] Top shape: 32 528 14 14 (3311616)
I0509 23:09:34.858774 23234 net.cpp:112] Top shape: 32 528 14 14 (3311616)
I0509 23:09:34.858779 23234 net.cpp:112] Top shape: 32 528 14 14 (3311616)
I0509 23:09:34.858783 23234 net.cpp:112] Top shape: 32 528 14 14 (3311616)
I0509 23:09:34.858788 23234 net.cpp:112] Top shape: 32 528 14 14 (3311616)
I0509 23:09:34.858793 23234 layer_factory.hpp:74] Creating layer loss2/ave_pool
I0509 23:09:34.858816 23234 net.cpp:76] Creating Layer loss2/ave_pool
I0509 23:09:34.858824 23234 net.cpp:372] loss2/ave_pool <- inception_4d/output_inception_4d/output_0_split_0
I0509 23:09:34.858832 23234 net.cpp:334] loss2/ave_pool -> loss2/ave_pool
I0509 23:09:34.858840 23234 net.cpp:105] Setting up loss2/ave_pool
I0509 23:09:34.858866 23234 net.cpp:112] Top shape: 32 528 4 4 (270336)
I0509 23:09:34.858875 23234 layer_factory.hpp:74] Creating layer loss2/conv
I0509 23:09:34.858886 23234 net.cpp:76] Creating Layer loss2/conv
I0509 23:09:34.858892 23234 net.cpp:372] loss2/conv <- loss2/ave_pool
I0509 23:09:34.858901 23234 net.cpp:334] loss2/conv -> loss2/conv
I0509 23:09:34.858909 23234 net.cpp:105] Setting up loss2/conv
I0509 23:09:34.859488 23234 net.cpp:112] Top shape: 32 128 4 4 (65536)
I0509 23:09:34.859501 23234 layer_factory.hpp:74] Creating layer loss2/relu_conv
I0509 23:09:34.859509 23234 net.cpp:76] Creating Layer loss2/relu_conv
I0509 23:09:34.859515 23234 net.cpp:372] loss2/relu_conv <- loss2/conv
I0509 23:09:34.859524 23234 net.cpp:323] loss2/relu_conv -> loss2/conv (in-place)
I0509 23:09:34.859532 23234 net.cpp:105] Setting up loss2/relu_conv
I0509 23:09:34.859539 23234 net.cpp:112] Top shape: 32 128 4 4 (65536)
I0509 23:09:34.859544 23234 layer_factory.hpp:74] Creating layer loss2/fc
I0509 23:09:34.859552 23234 net.cpp:76] Creating Layer loss2/fc
I0509 23:09:34.859558 23234 net.cpp:372] loss2/fc <- loss2/conv
I0509 23:09:34.859565 23234 net.cpp:334] loss2/fc -> loss2/fc
I0509 23:09:34.859575 23234 net.cpp:105] Setting up loss2/fc
I0509 23:09:34.876899 23234 net.cpp:112] Top shape: 32 1024 1 1 (32768)
I0509 23:09:34.876945 23234 layer_factory.hpp:74] Creating layer loss2/relu_fc
I0509 23:09:34.876958 23234 net.cpp:76] Creating Layer loss2/relu_fc
I0509 23:09:34.876966 23234 net.cpp:372] loss2/relu_fc <- loss2/fc
I0509 23:09:34.876978 23234 net.cpp:323] loss2/relu_fc -> loss2/fc (in-place)
I0509 23:09:34.876989 23234 net.cpp:105] Setting up loss2/relu_fc
I0509 23:09:34.876996 23234 net.cpp:112] Top shape: 32 1024 1 1 (32768)
I0509 23:09:34.877002 23234 layer_factory.hpp:74] Creating layer loss2/drop_fc
I0509 23:09:34.877010 23234 net.cpp:76] Creating Layer loss2/drop_fc
I0509 23:09:34.877017 23234 net.cpp:372] loss2/drop_fc <- loss2/fc
I0509 23:09:34.877022 23234 net.cpp:323] loss2/drop_fc -> loss2/fc (in-place)
I0509 23:09:34.877030 23234 net.cpp:105] Setting up loss2/drop_fc
I0509 23:09:34.877038 23234 net.cpp:112] Top shape: 32 1024 1 1 (32768)
I0509 23:09:34.877043 23234 layer_factory.hpp:74] Creating layer loss2/classifier
I0509 23:09:34.877053 23234 net.cpp:76] Creating Layer loss2/classifier
I0509 23:09:34.877058 23234 net.cpp:372] loss2/classifier <- loss2/fc
I0509 23:09:34.877068 23234 net.cpp:334] loss2/classifier -> loss2/classifier
I0509 23:09:34.877079 23234 net.cpp:105] Setting up loss2/classifier
I0509 23:09:34.877116 23234 net.cpp:112] Top shape: 32 2 1 1 (64)
I0509 23:09:34.877127 23234 layer_factory.hpp:74] Creating layer loss2/classifier_loss2/classifier_0_split
I0509 23:09:34.877140 23234 net.cpp:76] Creating Layer loss2/classifier_loss2/classifier_0_split
I0509 23:09:34.877146 23234 net.cpp:372] loss2/classifier_loss2/classifier_0_split <- loss2/classifier
I0509 23:09:34.877153 23234 net.cpp:334] loss2/classifier_loss2/classifier_0_split -> loss2/classifier_loss2/classifier_0_split_0
I0509 23:09:34.877163 23234 net.cpp:334] loss2/classifier_loss2/classifier_0_split -> loss2/classifier_loss2/classifier_0_split_1
I0509 23:09:34.877171 23234 net.cpp:105] Setting up loss2/classifier_loss2/classifier_0_split
I0509 23:09:34.877178 23234 net.cpp:112] Top shape: 32 2 1 1 (64)
I0509 23:09:34.877183 23234 net.cpp:112] Top shape: 32 2 1 1 (64)
I0509 23:09:34.877189 23234 layer_factory.hpp:74] Creating layer loss2/loss
I0509 23:09:34.877197 23234 net.cpp:76] Creating Layer loss2/loss
I0509 23:09:34.877203 23234 net.cpp:372] loss2/loss <- loss2/classifier_loss2/classifier_0_split_0
I0509 23:09:34.877210 23234 net.cpp:372] loss2/loss <- label_data_1_split_2
I0509 23:09:34.877221 23234 net.cpp:334] loss2/loss -> loss2/loss1
I0509 23:09:34.877280 23234 net.cpp:105] Setting up loss2/loss
I0509 23:09:34.877291 23234 layer_factory.hpp:74] Creating layer loss2/loss
I0509 23:09:34.877307 23234 net.cpp:112] Top shape: 1 1 1 1 (1)
I0509 23:09:34.877315 23234 net.cpp:118]     with loss weight 0.3
I0509 23:09:34.877332 23234 layer_factory.hpp:74] Creating layer loss2/top-1
I0509 23:09:34.877341 23234 net.cpp:76] Creating Layer loss2/top-1
I0509 23:09:34.877347 23234 net.cpp:372] loss2/top-1 <- loss2/classifier_loss2/classifier_0_split_1
I0509 23:09:34.877354 23234 net.cpp:372] loss2/top-1 <- label_data_1_split_3
I0509 23:09:34.877364 23234 net.cpp:334] loss2/top-1 -> loss2/top-1
I0509 23:09:34.877373 23234 net.cpp:105] Setting up loss2/top-1
I0509 23:09:34.877379 23234 net.cpp:112] Top shape: 1 1 1 1 (1)
I0509 23:09:34.877385 23234 layer_factory.hpp:74] Creating layer inception_4e/1x1
I0509 23:09:34.877395 23234 net.cpp:76] Creating Layer inception_4e/1x1
I0509 23:09:34.877403 23234 net.cpp:372] inception_4e/1x1 <- inception_4d/output_inception_4d/output_0_split_1
I0509 23:09:34.877411 23234 net.cpp:334] inception_4e/1x1 -> inception_4e/1x1
I0509 23:09:34.877420 23234 net.cpp:105] Setting up inception_4e/1x1
I0509 23:09:34.878563 23234 net.cpp:112] Top shape: 32 256 14 14 (1605632)
I0509 23:09:34.878579 23234 layer_factory.hpp:74] Creating layer inception_4e/relu_1x1
I0509 23:09:34.878588 23234 net.cpp:76] Creating Layer inception_4e/relu_1x1
I0509 23:09:34.878594 23234 net.cpp:372] inception_4e/relu_1x1 <- inception_4e/1x1
I0509 23:09:34.878607 23234 net.cpp:323] inception_4e/relu_1x1 -> inception_4e/1x1 (in-place)
I0509 23:09:34.878615 23234 net.cpp:105] Setting up inception_4e/relu_1x1
I0509 23:09:34.878621 23234 net.cpp:112] Top shape: 32 256 14 14 (1605632)
I0509 23:09:34.878628 23234 layer_factory.hpp:74] Creating layer inception_4e/3x3_reduce
I0509 23:09:34.878635 23234 net.cpp:76] Creating Layer inception_4e/3x3_reduce
I0509 23:09:34.878641 23234 net.cpp:372] inception_4e/3x3_reduce <- inception_4d/output_inception_4d/output_0_split_2
I0509 23:09:34.878650 23234 net.cpp:334] inception_4e/3x3_reduce -> inception_4e/3x3_reduce
I0509 23:09:34.878659 23234 net.cpp:105] Setting up inception_4e/3x3_reduce
I0509 23:09:34.879376 23234 net.cpp:112] Top shape: 32 160 14 14 (1003520)
I0509 23:09:34.879390 23234 layer_factory.hpp:74] Creating layer inception_4e/relu_3x3_reduce
I0509 23:09:34.879400 23234 net.cpp:76] Creating Layer inception_4e/relu_3x3_reduce
I0509 23:09:34.879407 23234 net.cpp:372] inception_4e/relu_3x3_reduce <- inception_4e/3x3_reduce
I0509 23:09:34.879415 23234 net.cpp:323] inception_4e/relu_3x3_reduce -> inception_4e/3x3_reduce (in-place)
I0509 23:09:34.879423 23234 net.cpp:105] Setting up inception_4e/relu_3x3_reduce
I0509 23:09:34.879429 23234 net.cpp:112] Top shape: 32 160 14 14 (1003520)
I0509 23:09:34.879436 23234 layer_factory.hpp:74] Creating layer inception_4e/3x3
I0509 23:09:34.879467 23234 net.cpp:76] Creating Layer inception_4e/3x3
I0509 23:09:34.879473 23234 net.cpp:372] inception_4e/3x3 <- inception_4e/3x3_reduce
I0509 23:09:34.879482 23234 net.cpp:334] inception_4e/3x3 -> inception_4e/3x3
I0509 23:09:34.879492 23234 net.cpp:105] Setting up inception_4e/3x3
I0509 23:09:34.883354 23234 net.cpp:112] Top shape: 32 320 14 14 (2007040)
I0509 23:09:34.883378 23234 layer_factory.hpp:74] Creating layer inception_4e/relu_3x3
I0509 23:09:34.883386 23234 net.cpp:76] Creating Layer inception_4e/relu_3x3
I0509 23:09:34.883394 23234 net.cpp:372] inception_4e/relu_3x3 <- inception_4e/3x3
I0509 23:09:34.883404 23234 net.cpp:323] inception_4e/relu_3x3 -> inception_4e/3x3 (in-place)
I0509 23:09:34.883412 23234 net.cpp:105] Setting up inception_4e/relu_3x3
I0509 23:09:34.883417 23234 net.cpp:112] Top shape: 32 320 14 14 (2007040)
I0509 23:09:34.883424 23234 layer_factory.hpp:74] Creating layer inception_4e/5x5_reduce
I0509 23:09:34.883432 23234 net.cpp:76] Creating Layer inception_4e/5x5_reduce
I0509 23:09:34.883438 23234 net.cpp:372] inception_4e/5x5_reduce <- inception_4d/output_inception_4d/output_0_split_3
I0509 23:09:34.883473 23234 net.cpp:334] inception_4e/5x5_reduce -> inception_4e/5x5_reduce
I0509 23:09:34.883486 23234 net.cpp:105] Setting up inception_4e/5x5_reduce
I0509 23:09:34.883638 23234 net.cpp:112] Top shape: 32 32 14 14 (200704)
I0509 23:09:34.883651 23234 layer_factory.hpp:74] Creating layer inception_4e/relu_5x5_reduce
I0509 23:09:34.883661 23234 net.cpp:76] Creating Layer inception_4e/relu_5x5_reduce
I0509 23:09:34.883666 23234 net.cpp:372] inception_4e/relu_5x5_reduce <- inception_4e/5x5_reduce
I0509 23:09:34.883673 23234 net.cpp:323] inception_4e/relu_5x5_reduce -> inception_4e/5x5_reduce (in-place)
I0509 23:09:34.883682 23234 net.cpp:105] Setting up inception_4e/relu_5x5_reduce
I0509 23:09:34.883687 23234 net.cpp:112] Top shape: 32 32 14 14 (200704)
I0509 23:09:34.883692 23234 layer_factory.hpp:74] Creating layer inception_4e/5x5
I0509 23:09:34.883703 23234 net.cpp:76] Creating Layer inception_4e/5x5
I0509 23:09:34.883709 23234 net.cpp:372] inception_4e/5x5 <- inception_4e/5x5_reduce
I0509 23:09:34.883718 23234 net.cpp:334] inception_4e/5x5 -> inception_4e/5x5
I0509 23:09:34.883726 23234 net.cpp:105] Setting up inception_4e/5x5
I0509 23:09:34.884600 23234 net.cpp:112] Top shape: 32 128 14 14 (802816)
I0509 23:09:34.884615 23234 layer_factory.hpp:74] Creating layer inception_4e/relu_5x5
I0509 23:09:34.884624 23234 net.cpp:76] Creating Layer inception_4e/relu_5x5
I0509 23:09:34.884630 23234 net.cpp:372] inception_4e/relu_5x5 <- inception_4e/5x5
I0509 23:09:34.884640 23234 net.cpp:323] inception_4e/relu_5x5 -> inception_4e/5x5 (in-place)
I0509 23:09:34.884649 23234 net.cpp:105] Setting up inception_4e/relu_5x5
I0509 23:09:34.884654 23234 net.cpp:112] Top shape: 32 128 14 14 (802816)
I0509 23:09:34.884660 23234 layer_factory.hpp:74] Creating layer inception_4e/pool
I0509 23:09:34.884667 23234 net.cpp:76] Creating Layer inception_4e/pool
I0509 23:09:34.884673 23234 net.cpp:372] inception_4e/pool <- inception_4d/output_inception_4d/output_0_split_4
I0509 23:09:34.884681 23234 net.cpp:334] inception_4e/pool -> inception_4e/pool
I0509 23:09:34.884690 23234 net.cpp:105] Setting up inception_4e/pool
I0509 23:09:34.884698 23234 net.cpp:112] Top shape: 32 528 14 14 (3311616)
I0509 23:09:34.884704 23234 layer_factory.hpp:74] Creating layer inception_4e/pool_proj
I0509 23:09:34.884716 23234 net.cpp:76] Creating Layer inception_4e/pool_proj
I0509 23:09:34.884722 23234 net.cpp:372] inception_4e/pool_proj <- inception_4e/pool
I0509 23:09:34.884732 23234 net.cpp:334] inception_4e/pool_proj -> inception_4e/pool_proj
I0509 23:09:34.884742 23234 net.cpp:105] Setting up inception_4e/pool_proj
I0509 23:09:34.885332 23234 net.cpp:112] Top shape: 32 128 14 14 (802816)
I0509 23:09:34.885347 23234 layer_factory.hpp:74] Creating layer inception_4e/relu_pool_proj
I0509 23:09:34.885359 23234 net.cpp:76] Creating Layer inception_4e/relu_pool_proj
I0509 23:09:34.885365 23234 net.cpp:372] inception_4e/relu_pool_proj <- inception_4e/pool_proj
I0509 23:09:34.885372 23234 net.cpp:323] inception_4e/relu_pool_proj -> inception_4e/pool_proj (in-place)
I0509 23:09:34.885380 23234 net.cpp:105] Setting up inception_4e/relu_pool_proj
I0509 23:09:34.885386 23234 net.cpp:112] Top shape: 32 128 14 14 (802816)
I0509 23:09:34.885391 23234 layer_factory.hpp:74] Creating layer inception_4e/output
I0509 23:09:34.885401 23234 net.cpp:76] Creating Layer inception_4e/output
I0509 23:09:34.885407 23234 net.cpp:372] inception_4e/output <- inception_4e/1x1
I0509 23:09:34.885413 23234 net.cpp:372] inception_4e/output <- inception_4e/3x3
I0509 23:09:34.885421 23234 net.cpp:372] inception_4e/output <- inception_4e/5x5
I0509 23:09:34.885426 23234 net.cpp:372] inception_4e/output <- inception_4e/pool_proj
I0509 23:09:34.885433 23234 net.cpp:334] inception_4e/output -> inception_4e/output
I0509 23:09:34.885442 23234 net.cpp:105] Setting up inception_4e/output
I0509 23:09:34.885449 23234 net.cpp:112] Top shape: 32 832 14 14 (5218304)
I0509 23:09:34.885454 23234 layer_factory.hpp:74] Creating layer pool4/3x3_s2
I0509 23:09:34.885462 23234 net.cpp:76] Creating Layer pool4/3x3_s2
I0509 23:09:34.885484 23234 net.cpp:372] pool4/3x3_s2 <- inception_4e/output
I0509 23:09:34.885493 23234 net.cpp:334] pool4/3x3_s2 -> pool4/3x3_s2
I0509 23:09:34.885503 23234 net.cpp:105] Setting up pool4/3x3_s2
I0509 23:09:34.885509 23234 net.cpp:112] Top shape: 32 832 7 7 (1304576)
I0509 23:09:34.885515 23234 layer_factory.hpp:74] Creating layer pool4/3x3_s2_pool4/3x3_s2_0_split
I0509 23:09:34.885525 23234 net.cpp:76] Creating Layer pool4/3x3_s2_pool4/3x3_s2_0_split
I0509 23:09:34.885531 23234 net.cpp:372] pool4/3x3_s2_pool4/3x3_s2_0_split <- pool4/3x3_s2
I0509 23:09:34.885540 23234 net.cpp:334] pool4/3x3_s2_pool4/3x3_s2_0_split -> pool4/3x3_s2_pool4/3x3_s2_0_split_0
I0509 23:09:34.885548 23234 net.cpp:334] pool4/3x3_s2_pool4/3x3_s2_0_split -> pool4/3x3_s2_pool4/3x3_s2_0_split_1
I0509 23:09:34.885558 23234 net.cpp:334] pool4/3x3_s2_pool4/3x3_s2_0_split -> pool4/3x3_s2_pool4/3x3_s2_0_split_2
I0509 23:09:34.885568 23234 net.cpp:334] pool4/3x3_s2_pool4/3x3_s2_0_split -> pool4/3x3_s2_pool4/3x3_s2_0_split_3
I0509 23:09:34.885576 23234 net.cpp:105] Setting up pool4/3x3_s2_pool4/3x3_s2_0_split
I0509 23:09:34.885583 23234 net.cpp:112] Top shape: 32 832 7 7 (1304576)
I0509 23:09:34.885588 23234 net.cpp:112] Top shape: 32 832 7 7 (1304576)
I0509 23:09:34.885593 23234 net.cpp:112] Top shape: 32 832 7 7 (1304576)
I0509 23:09:34.885598 23234 net.cpp:112] Top shape: 32 832 7 7 (1304576)
I0509 23:09:34.885603 23234 layer_factory.hpp:74] Creating layer inception_5a/1x1
I0509 23:09:34.885612 23234 net.cpp:76] Creating Layer inception_5a/1x1
I0509 23:09:34.885618 23234 net.cpp:372] inception_5a/1x1 <- pool4/3x3_s2_pool4/3x3_s2_0_split_0
I0509 23:09:34.885632 23234 net.cpp:334] inception_5a/1x1 -> inception_5a/1x1
I0509 23:09:34.885643 23234 net.cpp:105] Setting up inception_5a/1x1
I0509 23:09:34.887423 23234 net.cpp:112] Top shape: 32 256 7 7 (401408)
I0509 23:09:34.887439 23234 layer_factory.hpp:74] Creating layer inception_5a/relu_1x1
I0509 23:09:34.887446 23234 net.cpp:76] Creating Layer inception_5a/relu_1x1
I0509 23:09:34.887475 23234 net.cpp:372] inception_5a/relu_1x1 <- inception_5a/1x1
I0509 23:09:34.887483 23234 net.cpp:323] inception_5a/relu_1x1 -> inception_5a/1x1 (in-place)
I0509 23:09:34.887491 23234 net.cpp:105] Setting up inception_5a/relu_1x1
I0509 23:09:34.887496 23234 net.cpp:112] Top shape: 32 256 7 7 (401408)
I0509 23:09:34.887502 23234 layer_factory.hpp:74] Creating layer inception_5a/3x3_reduce
I0509 23:09:34.887513 23234 net.cpp:76] Creating Layer inception_5a/3x3_reduce
I0509 23:09:34.887521 23234 net.cpp:372] inception_5a/3x3_reduce <- pool4/3x3_s2_pool4/3x3_s2_0_split_1
I0509 23:09:34.887531 23234 net.cpp:334] inception_5a/3x3_reduce -> inception_5a/3x3_reduce
I0509 23:09:34.887539 23234 net.cpp:105] Setting up inception_5a/3x3_reduce
I0509 23:09:34.888676 23234 net.cpp:112] Top shape: 32 160 7 7 (250880)
I0509 23:09:34.888694 23234 layer_factory.hpp:74] Creating layer inception_5a/relu_3x3_reduce
I0509 23:09:34.888702 23234 net.cpp:76] Creating Layer inception_5a/relu_3x3_reduce
I0509 23:09:34.888710 23234 net.cpp:372] inception_5a/relu_3x3_reduce <- inception_5a/3x3_reduce
I0509 23:09:34.888720 23234 net.cpp:323] inception_5a/relu_3x3_reduce -> inception_5a/3x3_reduce (in-place)
I0509 23:09:34.888727 23234 net.cpp:105] Setting up inception_5a/relu_3x3_reduce
I0509 23:09:34.888733 23234 net.cpp:112] Top shape: 32 160 7 7 (250880)
I0509 23:09:34.888738 23234 layer_factory.hpp:74] Creating layer inception_5a/3x3
I0509 23:09:34.888747 23234 net.cpp:76] Creating Layer inception_5a/3x3
I0509 23:09:34.888753 23234 net.cpp:372] inception_5a/3x3 <- inception_5a/3x3_reduce
I0509 23:09:34.888762 23234 net.cpp:334] inception_5a/3x3 -> inception_5a/3x3
I0509 23:09:34.888772 23234 net.cpp:105] Setting up inception_5a/3x3
I0509 23:09:34.892602 23234 net.cpp:112] Top shape: 32 320 7 7 (501760)
I0509 23:09:34.892623 23234 layer_factory.hpp:74] Creating layer inception_5a/relu_3x3
I0509 23:09:34.892633 23234 net.cpp:76] Creating Layer inception_5a/relu_3x3
I0509 23:09:34.892639 23234 net.cpp:372] inception_5a/relu_3x3 <- inception_5a/3x3
I0509 23:09:34.892675 23234 net.cpp:323] inception_5a/relu_3x3 -> inception_5a/3x3 (in-place)
I0509 23:09:34.892685 23234 net.cpp:105] Setting up inception_5a/relu_3x3
I0509 23:09:34.892691 23234 net.cpp:112] Top shape: 32 320 7 7 (501760)
I0509 23:09:34.892698 23234 layer_factory.hpp:74] Creating layer inception_5a/5x5_reduce
I0509 23:09:34.892705 23234 net.cpp:76] Creating Layer inception_5a/5x5_reduce
I0509 23:09:34.892712 23234 net.cpp:372] inception_5a/5x5_reduce <- pool4/3x3_s2_pool4/3x3_s2_0_split_2
I0509 23:09:34.892721 23234 net.cpp:334] inception_5a/5x5_reduce -> inception_5a/5x5_reduce
I0509 23:09:34.892730 23234 net.cpp:105] Setting up inception_5a/5x5_reduce
I0509 23:09:34.892966 23234 net.cpp:112] Top shape: 32 32 7 7 (50176)
I0509 23:09:34.892979 23234 layer_factory.hpp:74] Creating layer inception_5a/relu_5x5_reduce
I0509 23:09:34.892990 23234 net.cpp:76] Creating Layer inception_5a/relu_5x5_reduce
I0509 23:09:34.892997 23234 net.cpp:372] inception_5a/relu_5x5_reduce <- inception_5a/5x5_reduce
I0509 23:09:34.893007 23234 net.cpp:323] inception_5a/relu_5x5_reduce -> inception_5a/5x5_reduce (in-place)
I0509 23:09:34.893015 23234 net.cpp:105] Setting up inception_5a/relu_5x5_reduce
I0509 23:09:34.893020 23234 net.cpp:112] Top shape: 32 32 7 7 (50176)
I0509 23:09:34.893026 23234 layer_factory.hpp:74] Creating layer inception_5a/5x5
I0509 23:09:34.893034 23234 net.cpp:76] Creating Layer inception_5a/5x5
I0509 23:09:34.893040 23234 net.cpp:372] inception_5a/5x5 <- inception_5a/5x5_reduce
I0509 23:09:34.893050 23234 net.cpp:334] inception_5a/5x5 -> inception_5a/5x5
I0509 23:09:34.893059 23234 net.cpp:105] Setting up inception_5a/5x5
I0509 23:09:34.893955 23234 net.cpp:112] Top shape: 32 128 7 7 (200704)
I0509 23:09:34.893978 23234 layer_factory.hpp:74] Creating layer inception_5a/relu_5x5
I0509 23:09:34.893988 23234 net.cpp:76] Creating Layer inception_5a/relu_5x5
I0509 23:09:34.894196 23234 net.cpp:372] inception_5a/relu_5x5 <- inception_5a/5x5
I0509 23:09:34.894207 23234 net.cpp:323] inception_5a/relu_5x5 -> inception_5a/5x5 (in-place)
I0509 23:09:34.894215 23234 net.cpp:105] Setting up inception_5a/relu_5x5
I0509 23:09:34.894222 23234 net.cpp:112] Top shape: 32 128 7 7 (200704)
I0509 23:09:34.894227 23234 layer_factory.hpp:74] Creating layer inception_5a/pool
I0509 23:09:34.894235 23234 net.cpp:76] Creating Layer inception_5a/pool
I0509 23:09:34.894242 23234 net.cpp:372] inception_5a/pool <- pool4/3x3_s2_pool4/3x3_s2_0_split_3
I0509 23:09:34.894253 23234 net.cpp:334] inception_5a/pool -> inception_5a/pool
I0509 23:09:34.894281 23234 net.cpp:105] Setting up inception_5a/pool
I0509 23:09:34.894294 23234 net.cpp:112] Top shape: 32 832 7 7 (1304576)
I0509 23:09:34.894300 23234 layer_factory.hpp:74] Creating layer inception_5a/pool_proj
I0509 23:09:34.894310 23234 net.cpp:76] Creating Layer inception_5a/pool_proj
I0509 23:09:34.894317 23234 net.cpp:372] inception_5a/pool_proj <- inception_5a/pool
I0509 23:09:34.894327 23234 net.cpp:334] inception_5a/pool_proj -> inception_5a/pool_proj
I0509 23:09:34.894348 23234 net.cpp:105] Setting up inception_5a/pool_proj
I0509 23:09:34.895257 23234 net.cpp:112] Top shape: 32 128 7 7 (200704)
I0509 23:09:34.895272 23234 layer_factory.hpp:74] Creating layer inception_5a/relu_pool_proj
I0509 23:09:34.895280 23234 net.cpp:76] Creating Layer inception_5a/relu_pool_proj
I0509 23:09:34.895287 23234 net.cpp:372] inception_5a/relu_pool_proj <- inception_5a/pool_proj
I0509 23:09:34.895300 23234 net.cpp:323] inception_5a/relu_pool_proj -> inception_5a/pool_proj (in-place)
I0509 23:09:34.895308 23234 net.cpp:105] Setting up inception_5a/relu_pool_proj
I0509 23:09:34.895314 23234 net.cpp:112] Top shape: 32 128 7 7 (200704)
I0509 23:09:34.895320 23234 layer_factory.hpp:74] Creating layer inception_5a/output
I0509 23:09:34.895328 23234 net.cpp:76] Creating Layer inception_5a/output
I0509 23:09:34.895334 23234 net.cpp:372] inception_5a/output <- inception_5a/1x1
I0509 23:09:34.895340 23234 net.cpp:372] inception_5a/output <- inception_5a/3x3
I0509 23:09:34.895371 23234 net.cpp:372] inception_5a/output <- inception_5a/5x5
I0509 23:09:34.895378 23234 net.cpp:372] inception_5a/output <- inception_5a/pool_proj
I0509 23:09:34.895388 23234 net.cpp:334] inception_5a/output -> inception_5a/output
I0509 23:09:34.895397 23234 net.cpp:105] Setting up inception_5a/output
I0509 23:09:34.895405 23234 net.cpp:112] Top shape: 32 832 7 7 (1304576)
I0509 23:09:34.895411 23234 layer_factory.hpp:74] Creating layer inception_5a/output_inception_5a/output_0_split
I0509 23:09:34.895418 23234 net.cpp:76] Creating Layer inception_5a/output_inception_5a/output_0_split
I0509 23:09:34.895424 23234 net.cpp:372] inception_5a/output_inception_5a/output_0_split <- inception_5a/output
I0509 23:09:34.895432 23234 net.cpp:334] inception_5a/output_inception_5a/output_0_split -> inception_5a/output_inception_5a/output_0_split_0
I0509 23:09:34.895442 23234 net.cpp:334] inception_5a/output_inception_5a/output_0_split -> inception_5a/output_inception_5a/output_0_split_1
I0509 23:09:34.895452 23234 net.cpp:334] inception_5a/output_inception_5a/output_0_split -> inception_5a/output_inception_5a/output_0_split_2
I0509 23:09:34.895464 23234 net.cpp:334] inception_5a/output_inception_5a/output_0_split -> inception_5a/output_inception_5a/output_0_split_3
I0509 23:09:34.895473 23234 net.cpp:105] Setting up inception_5a/output_inception_5a/output_0_split
I0509 23:09:34.895480 23234 net.cpp:112] Top shape: 32 832 7 7 (1304576)
I0509 23:09:34.895485 23234 net.cpp:112] Top shape: 32 832 7 7 (1304576)
I0509 23:09:34.895490 23234 net.cpp:112] Top shape: 32 832 7 7 (1304576)
I0509 23:09:34.895496 23234 net.cpp:112] Top shape: 32 832 7 7 (1304576)
I0509 23:09:34.895506 23234 layer_factory.hpp:74] Creating layer inception_5b/1x1
I0509 23:09:34.895526 23234 net.cpp:76] Creating Layer inception_5b/1x1
I0509 23:09:34.895537 23234 net.cpp:372] inception_5b/1x1 <- inception_5a/output_inception_5a/output_0_split_0
I0509 23:09:34.895550 23234 net.cpp:334] inception_5b/1x1 -> inception_5b/1x1
I0509 23:09:34.895560 23234 net.cpp:105] Setting up inception_5b/1x1
I0509 23:09:34.898212 23234 net.cpp:112] Top shape: 32 384 7 7 (602112)
I0509 23:09:34.898228 23234 layer_factory.hpp:74] Creating layer inception_5b/relu_1x1
I0509 23:09:34.898236 23234 net.cpp:76] Creating Layer inception_5b/relu_1x1
I0509 23:09:34.898243 23234 net.cpp:372] inception_5b/relu_1x1 <- inception_5b/1x1
I0509 23:09:34.898252 23234 net.cpp:323] inception_5b/relu_1x1 -> inception_5b/1x1 (in-place)
I0509 23:09:34.898260 23234 net.cpp:105] Setting up inception_5b/relu_1x1
I0509 23:09:34.898267 23234 net.cpp:112] Top shape: 32 384 7 7 (602112)
I0509 23:09:34.898284 23234 layer_factory.hpp:74] Creating layer inception_5b/3x3_reduce
I0509 23:09:34.898294 23234 net.cpp:76] Creating Layer inception_5b/3x3_reduce
I0509 23:09:34.898300 23234 net.cpp:372] inception_5b/3x3_reduce <- inception_5a/output_inception_5a/output_0_split_1
I0509 23:09:34.898311 23234 net.cpp:334] inception_5b/3x3_reduce -> inception_5b/3x3_reduce
I0509 23:09:34.898321 23234 net.cpp:105] Setting up inception_5b/3x3_reduce
I0509 23:09:34.899662 23234 net.cpp:112] Top shape: 32 192 7 7 (301056)
I0509 23:09:34.899679 23234 layer_factory.hpp:74] Creating layer inception_5b/relu_3x3_reduce
I0509 23:09:34.899688 23234 net.cpp:76] Creating Layer inception_5b/relu_3x3_reduce
I0509 23:09:34.899694 23234 net.cpp:372] inception_5b/relu_3x3_reduce <- inception_5b/3x3_reduce
I0509 23:09:34.899703 23234 net.cpp:323] inception_5b/relu_3x3_reduce -> inception_5b/3x3_reduce (in-place)
I0509 23:09:34.899710 23234 net.cpp:105] Setting up inception_5b/relu_3x3_reduce
I0509 23:09:34.899715 23234 net.cpp:112] Top shape: 32 192 7 7 (301056)
I0509 23:09:34.899721 23234 layer_factory.hpp:74] Creating layer inception_5b/3x3
I0509 23:09:34.899730 23234 net.cpp:76] Creating Layer inception_5b/3x3
I0509 23:09:34.899735 23234 net.cpp:372] inception_5b/3x3 <- inception_5b/3x3_reduce
I0509 23:09:34.899746 23234 net.cpp:334] inception_5b/3x3 -> inception_5b/3x3
I0509 23:09:34.899755 23234 net.cpp:105] Setting up inception_5b/3x3
I0509 23:09:34.905319 23234 net.cpp:112] Top shape: 32 384 7 7 (602112)
I0509 23:09:34.905354 23234 layer_factory.hpp:74] Creating layer inception_5b/relu_3x3
I0509 23:09:34.905367 23234 net.cpp:76] Creating Layer inception_5b/relu_3x3
I0509 23:09:34.905376 23234 net.cpp:372] inception_5b/relu_3x3 <- inception_5b/3x3
I0509 23:09:34.905387 23234 net.cpp:323] inception_5b/relu_3x3 -> inception_5b/3x3 (in-place)
I0509 23:09:34.905398 23234 net.cpp:105] Setting up inception_5b/relu_3x3
I0509 23:09:34.905405 23234 net.cpp:112] Top shape: 32 384 7 7 (602112)
I0509 23:09:34.905411 23234 layer_factory.hpp:74] Creating layer inception_5b/5x5_reduce
I0509 23:09:34.905421 23234 net.cpp:76] Creating Layer inception_5b/5x5_reduce
I0509 23:09:34.905427 23234 net.cpp:372] inception_5b/5x5_reduce <- inception_5a/output_inception_5a/output_0_split_2
I0509 23:09:34.905437 23234 net.cpp:334] inception_5b/5x5_reduce -> inception_5b/5x5_reduce
I0509 23:09:34.905447 23234 net.cpp:105] Setting up inception_5b/5x5_reduce
I0509 23:09:34.905812 23234 net.cpp:112] Top shape: 32 48 7 7 (75264)
I0509 23:09:34.905827 23234 layer_factory.hpp:74] Creating layer inception_5b/relu_5x5_reduce
I0509 23:09:34.905836 23234 net.cpp:76] Creating Layer inception_5b/relu_5x5_reduce
I0509 23:09:34.905843 23234 net.cpp:372] inception_5b/relu_5x5_reduce <- inception_5b/5x5_reduce
I0509 23:09:34.905851 23234 net.cpp:323] inception_5b/relu_5x5_reduce -> inception_5b/5x5_reduce (in-place)
I0509 23:09:34.905859 23234 net.cpp:105] Setting up inception_5b/relu_5x5_reduce
I0509 23:09:34.905864 23234 net.cpp:112] Top shape: 32 48 7 7 (75264)
I0509 23:09:34.905870 23234 layer_factory.hpp:74] Creating layer inception_5b/5x5
I0509 23:09:34.905880 23234 net.cpp:76] Creating Layer inception_5b/5x5
I0509 23:09:34.905886 23234 net.cpp:372] inception_5b/5x5 <- inception_5b/5x5_reduce
I0509 23:09:34.905894 23234 net.cpp:334] inception_5b/5x5 -> inception_5b/5x5
I0509 23:09:34.905903 23234 net.cpp:105] Setting up inception_5b/5x5
I0509 23:09:34.907187 23234 net.cpp:112] Top shape: 32 128 7 7 (200704)
I0509 23:09:34.907203 23234 layer_factory.hpp:74] Creating layer inception_5b/relu_5x5
I0509 23:09:34.907212 23234 net.cpp:76] Creating Layer inception_5b/relu_5x5
I0509 23:09:34.907218 23234 net.cpp:372] inception_5b/relu_5x5 <- inception_5b/5x5
I0509 23:09:34.907225 23234 net.cpp:323] inception_5b/relu_5x5 -> inception_5b/5x5 (in-place)
I0509 23:09:34.907233 23234 net.cpp:105] Setting up inception_5b/relu_5x5
I0509 23:09:34.907239 23234 net.cpp:112] Top shape: 32 128 7 7 (200704)
I0509 23:09:34.907245 23234 layer_factory.hpp:74] Creating layer inception_5b/pool
I0509 23:09:34.907255 23234 net.cpp:76] Creating Layer inception_5b/pool
I0509 23:09:34.907263 23234 net.cpp:372] inception_5b/pool <- inception_5a/output_inception_5a/output_0_split_3
I0509 23:09:34.907281 23234 net.cpp:334] inception_5b/pool -> inception_5b/pool
I0509 23:09:34.907291 23234 net.cpp:105] Setting up inception_5b/pool
I0509 23:09:34.907300 23234 net.cpp:112] Top shape: 32 832 7 7 (1304576)
I0509 23:09:34.907306 23234 layer_factory.hpp:74] Creating layer inception_5b/pool_proj
I0509 23:09:34.907316 23234 net.cpp:76] Creating Layer inception_5b/pool_proj
I0509 23:09:34.907325 23234 net.cpp:372] inception_5b/pool_proj <- inception_5b/pool
I0509 23:09:34.907336 23234 net.cpp:334] inception_5b/pool_proj -> inception_5b/pool_proj
I0509 23:09:34.907346 23234 net.cpp:105] Setting up inception_5b/pool_proj
I0509 23:09:34.908238 23234 net.cpp:112] Top shape: 32 128 7 7 (200704)
I0509 23:09:34.908256 23234 layer_factory.hpp:74] Creating layer inception_5b/relu_pool_proj
I0509 23:09:34.908263 23234 net.cpp:76] Creating Layer inception_5b/relu_pool_proj
I0509 23:09:34.908284 23234 net.cpp:372] inception_5b/relu_pool_proj <- inception_5b/pool_proj
I0509 23:09:34.908294 23234 net.cpp:323] inception_5b/relu_pool_proj -> inception_5b/pool_proj (in-place)
I0509 23:09:34.908303 23234 net.cpp:105] Setting up inception_5b/relu_pool_proj
I0509 23:09:34.908309 23234 net.cpp:112] Top shape: 32 128 7 7 (200704)
I0509 23:09:34.908315 23234 layer_factory.hpp:74] Creating layer inception_5b/output
I0509 23:09:34.908360 23234 net.cpp:76] Creating Layer inception_5b/output
I0509 23:09:34.908367 23234 net.cpp:372] inception_5b/output <- inception_5b/1x1
I0509 23:09:34.908378 23234 net.cpp:372] inception_5b/output <- inception_5b/3x3
I0509 23:09:34.908385 23234 net.cpp:372] inception_5b/output <- inception_5b/5x5
I0509 23:09:34.908391 23234 net.cpp:372] inception_5b/output <- inception_5b/pool_proj
I0509 23:09:34.908399 23234 net.cpp:334] inception_5b/output -> inception_5b/output
I0509 23:09:34.908408 23234 net.cpp:105] Setting up inception_5b/output
I0509 23:09:34.908416 23234 net.cpp:112] Top shape: 32 1024 7 7 (1605632)
I0509 23:09:34.908421 23234 layer_factory.hpp:74] Creating layer pool5/7x7_s1
I0509 23:09:34.908429 23234 net.cpp:76] Creating Layer pool5/7x7_s1
I0509 23:09:34.908438 23234 net.cpp:372] pool5/7x7_s1 <- inception_5b/output
I0509 23:09:34.908447 23234 net.cpp:334] pool5/7x7_s1 -> pool5/7x7_s1
I0509 23:09:34.908455 23234 net.cpp:105] Setting up pool5/7x7_s1
I0509 23:09:34.908462 23234 net.cpp:112] Top shape: 32 1024 1 1 (32768)
I0509 23:09:34.908468 23234 layer_factory.hpp:74] Creating layer pool5/drop_7x7_s1
I0509 23:09:34.908476 23234 net.cpp:76] Creating Layer pool5/drop_7x7_s1
I0509 23:09:34.908483 23234 net.cpp:372] pool5/drop_7x7_s1 <- pool5/7x7_s1
I0509 23:09:34.908489 23234 net.cpp:323] pool5/drop_7x7_s1 -> pool5/7x7_s1 (in-place)
I0509 23:09:34.908498 23234 net.cpp:105] Setting up pool5/drop_7x7_s1
I0509 23:09:34.908504 23234 net.cpp:112] Top shape: 32 1024 1 1 (32768)
I0509 23:09:34.908510 23234 layer_factory.hpp:74] Creating layer loss3/classifier
I0509 23:09:34.908522 23234 net.cpp:76] Creating Layer loss3/classifier
I0509 23:09:34.908529 23234 net.cpp:372] loss3/classifier <- pool5/7x7_s1
I0509 23:09:34.908537 23234 net.cpp:334] loss3/classifier -> loss3/classifier
I0509 23:09:34.908547 23234 net.cpp:105] Setting up loss3/classifier
I0509 23:09:34.908581 23234 net.cpp:112] Top shape: 32 2 1 1 (64)
I0509 23:09:34.908591 23234 layer_factory.hpp:74] Creating layer loss3/classifier_loss3/classifier_0_split
I0509 23:09:34.908599 23234 net.cpp:76] Creating Layer loss3/classifier_loss3/classifier_0_split
I0509 23:09:34.908606 23234 net.cpp:372] loss3/classifier_loss3/classifier_0_split <- loss3/classifier
I0509 23:09:34.908612 23234 net.cpp:334] loss3/classifier_loss3/classifier_0_split -> loss3/classifier_loss3/classifier_0_split_0
I0509 23:09:34.908622 23234 net.cpp:334] loss3/classifier_loss3/classifier_0_split -> loss3/classifier_loss3/classifier_0_split_1
I0509 23:09:34.908630 23234 net.cpp:105] Setting up loss3/classifier_loss3/classifier_0_split
I0509 23:09:34.908637 23234 net.cpp:112] Top shape: 32 2 1 1 (64)
I0509 23:09:34.908668 23234 net.cpp:112] Top shape: 32 2 1 1 (64)
I0509 23:09:34.908675 23234 layer_factory.hpp:74] Creating layer loss3/loss3
I0509 23:09:34.908687 23234 net.cpp:76] Creating Layer loss3/loss3
I0509 23:09:34.908694 23234 net.cpp:372] loss3/loss3 <- loss3/classifier_loss3/classifier_0_split_0
I0509 23:09:34.908701 23234 net.cpp:372] loss3/loss3 <- label_data_1_split_4
I0509 23:09:34.908710 23234 net.cpp:334] loss3/loss3 -> loss3/loss3
I0509 23:09:34.908717 23234 net.cpp:105] Setting up loss3/loss3
I0509 23:09:34.908725 23234 layer_factory.hpp:74] Creating layer loss3/loss3
I0509 23:09:34.908743 23234 net.cpp:112] Top shape: 1 1 1 1 (1)
I0509 23:09:34.908749 23234 net.cpp:118]     with loss weight 1
I0509 23:09:34.908766 23234 layer_factory.hpp:74] Creating layer loss3/top-1
I0509 23:09:34.908776 23234 net.cpp:76] Creating Layer loss3/top-1
I0509 23:09:34.908782 23234 net.cpp:372] loss3/top-1 <- loss3/classifier_loss3/classifier_0_split_1
I0509 23:09:34.908789 23234 net.cpp:372] loss3/top-1 <- label_data_1_split_5
I0509 23:09:34.908798 23234 net.cpp:334] loss3/top-1 -> loss3/top-1
I0509 23:09:34.908807 23234 net.cpp:105] Setting up loss3/top-1
I0509 23:09:34.908813 23234 net.cpp:112] Top shape: 1 1 1 1 (1)
I0509 23:09:34.908818 23234 net.cpp:165] loss3/top-1 does not need backward computation.
I0509 23:09:34.908823 23234 net.cpp:163] loss3/loss3 needs backward computation.
I0509 23:09:34.908838 23234 net.cpp:163] loss3/classifier_loss3/classifier_0_split needs backward computation.
I0509 23:09:34.908844 23234 net.cpp:163] loss3/classifier needs backward computation.
I0509 23:09:34.908850 23234 net.cpp:163] pool5/drop_7x7_s1 needs backward computation.
…
