…
I0511 03:57:22.369052 24731 net.cpp:253] The NetState phase (0) differed from the phase (1) specified by a rule in layer loss3/top-1
I0511 03:57:22.370414 24731 net.cpp:42] Initializing net from parameters: 
name: "GoogleNet"
state {
  phase: TRAIN
}
layer {
  name: "data"
  type: "Data"
  top: "data"
  top: "label"
  include {
    phase: TRAIN
  }
  transform_param {
    mirror: true
    crop_size: 224
    mean_value: 104
    mean_value: 117
    mean_value: 123
  }
  data_param {
    source: "train_lmdb"
    batch_size: 32
    backend: LMDB
  }
}
layer {
  name: "conv1/7x7_s2"
  type: "Convolution"
  bottom: "data"
  top: "conv1/7x7_s2"
  param {
    lr_mult: 1
    decay_mult: 1
  }
  param {
    lr_mult: 2
    decay_mult: 0
  }
  convolution_param {
    num_output: 64
    pad: 3
    kernel_size: 7
    stride: 2
    weight_filler {
      type: "xavier"
      std: 0.1
    }
    bias_filler {
      type: "constant"
      value: 0.2
    }
  }
}
layer {
  name: "conv1/relu_7x7"
  type: "ReLU"
  bottom: "conv1/7x7_s2"
  top: "conv1/7x7_s2"
}
layer {
  name: "pool1/3x3_s2"
  type: "Pooling"
  bottom: "conv1/7x7_s2"
  top: "pool1/3x3_s2"
  pooling_param {
    pool: MAX
    kernel_size: 3
    stride: 2
  }
}
layer {
  name: "pool1/norm1"
  type: "LRN"
  bottom: "pool1/3x3_s2"
  top: "pool1/norm1"
  lrn_param {
    local_size: 5
    alpha: 0.0001
    beta: 0.75
  }
}
layer {
  name: "conv2/3x3_reduce"
  type: "Convolution"
  bottom: "pool1/norm1"
  top: "conv2/3x3_reduce"
  param {
    lr_mult: 1
    decay_mult: 1
  }
  param {
    lr_mult: 2
    decay_mult: 0
  }
  convolution_param {
    num_output: 64
    kernel_size: 1
    weight_filler {
      type: "xavier"
      std: 0.1
    }
    bias_filler {
      type: "constant"
      value: 0.2
    }
  }
}
layer {
  name: "conv2/relu_3x3_reduce"
  type: "ReLU"
  bottom: "conv2/3x3_reduce"
  top: "conv2/3x3_reduce"
}
layer {
  name: "conv2/3x3"
  type: "Convolution"
  bottom: "conv2/3x3_reduce"
  top: "conv2/3x3"
  param {
    lr_mult: 1
    decay_mult: 1
  }
  param {
    lr_mult: 2
    decay_mult: 0
  }
  convolution_param {
    num_output: 192
    pad: 1
    kernel_size: 3
    weight_filler {
      type: "xavier"
      std: 0.03
    }
    bias_filler {
      type: "constant"
      value: 0.2
    }
  }
}
layer {
  name: "conv2/relu_3x3"
  type: "ReLU"
  bottom: "conv2/3x3"
  top: "conv2/3x3"
}
layer {
  name: "conv2/norm2"
  type: "LRN"
  bottom: "conv2/3x3"
  top: "conv2/norm2"
  lrn_param {
    local_size: 5
    alpha: 0.0001
    beta: 0.75
  }
}
layer {
  name: "pool2/3x3_s2"
  type: "Pooling"
  bottom: "conv2/norm2"
  top: "pool2/3x3_s2"
  pooling_param {
    pool: MAX
    kernel_size: 3
    stride: 2
  }
}
layer {
  name: "inception_3a/1x1"
  type: "Convolution"
  bottom: "pool2/3x3_s2"
  top: "inception_3a/1x1"
  param {
    lr_mult: 1
    decay_mult: 1
  }
  param {
    lr_mult: 2
    decay_mult: 0
  }
  convolution_param {
    num_output: 64
    kernel_size: 1
    weight_filler {
      type: "xavier"
      std: 0.03
    }
    bias_filler {
      type: "constant"
      value: 0.2
    }
  }
}
layer {
  name: "inception_3a/relu_1x1"
  type: "ReLU"
  bottom: "inception_3a/1x1"
  top: "inception_3a/1x1"
}
layer {
  name: "inception_3a/3x3_reduce"
  type: "Convolution"
  bottom: "pool2/3x3_s2"
  top: "inception_3a/3x3_reduce"
  param {
    lr_mult: 1
    decay_mult: 1
  }
  param {
    lr_mult: 2
    decay_mult: 0
  }
  convolution_param {
    num_output: 96
    kernel_size: 1
    weight_filler {
      type: "xavier"
      std: 0.09
    }
    bias_filler {
      type: "constant"
      value: 0.2
    }
  }
}
layer {
  name: "inception_3a/relu_3x3_reduce"
  type: "ReLU"
  bottom: "inception_3a/3x3_reduce"
  top: "inception_3a/3x3_reduce"
}
layer {
  name: "inception_3a/3x3"
  type: "Convolution"
  bottom: "inception_3a/3x3_reduce"
  top: "inception_3a/3x3"
  param {
    lr_mult: 1
    decay_mult: 1
  }
  param {
    lr_mult: 2
    decay_mult: 0
  }
  convolution_param {
    num_output: 128
    pad: 1
    kernel_size: 3
    weight_filler {
      type: "xavier"
      std: 0.03
    }
    bias_filler {
      type: "constant"
      value: 0.2
    }
  }
}
layer {
  name: "inception_3a/relu_3x3"
  type: "ReLU"
  bottom: "inception_3a/3x3"
  top: "inception_3a/3x3"
}
layer {
  name: "inception_3a/5x5_reduce"
  type: "Convolution"
  bottom: "pool2/3x3_s2"
  top: "inception_3a/5x5_reduce"
  param {
    lr_mult: 1
    decay_mult: 1
  }
  param {
    lr_mult: 2
    decay_mult: 0
  }
  convolution_param {
    num_output: 16
    kernel_size: 1
    weight_filler {
      type: "xavier"
      std: 0.2
    }
    bias_filler {
      type: "constant"
      value: 0.2
    }
  }
}
layer {
  name: "inception_3a/relu_5x5_reduce"
  type: "ReLU"
  bottom: "inception_3a/5x5_reduce"
  top: "inception_3a/5x5_reduce"
}
layer {
  name: "inception_3a/5x5"
  type: "Convolution"
  bottom: "inception_3a/5x5_reduce"
  top: "inception_3a/5x5"
  param {
    lr_mult: 1
    decay_mult: 1
  }
  param {
    lr_mult: 2
    decay_mult: 0
  }
  convolution_param {
    num_output: 32
    pad: 2
    kernel_size: 5
    weight_filler {
      type: "xavier"
      std: 0.03
    }
    bias_filler {
      type: "constant"
      value: 0.2
    }
  }
}
layer {
  name: "inception_3a/relu_5x5"
  type: "ReLU"
  bottom: "inception_3a/5x5"
  top: "inception_3a/5x5"
}
layer {
  name: "inception_3a/pool"
  type: "Pooling"
  bottom: "pool2/3x3_s2"
  top: "inception_3a/pool"
  pooling_param {
    pool: MAX
    kernel_size: 3
    stride: 1
    pad: 1
  }
}
layer {
  name: "inception_3a/pool_proj"
  type: "Convolution"
  bottom: "inception_3a/pool"
  top: "inception_3a/pool_proj"
  param {
    lr_mult: 1
    decay_mult: 1
  }
  param {
    lr_mult: 2
    decay_mult: 0
  }
  convolution_param {
    num_output: 32
    kernel_size: 1
    weight_filler {
      type: "xavier"
      std: 0.1
    }
    bias_filler {
      type: "constant"
      value: 0.2
    }
  }
}
layer {
  name: "inception_3a/relu_pool_proj"
  type: "ReLU"
  bottom: "inception_3a/pool_proj"
  top: "inception_3a/pool_proj"
}
layer {
  name: "inception_3a/output"
  type: "Concat"
  bottom: "inception_3a/1x1"
  bottom: "inception_3a/3x3"
  bottom: "inception_3a/5x5"
  bottom: "inception_3a/pool_proj"
  top: "inception_3a/output"
}
layer {
  name: "inception_3b/1x1"
  type: "Convolution"
  bottom: "inception_3a/output"
  top: "inception_3b/1x1"
  param {
    lr_mult: 1
    decay_mult: 1
  }
  param {
    lr_mult: 2
    decay_mult: 0
  }
  convolution_param {
    num_output: 128
    kernel_size: 1
    weight_filler {
      type: "xavier"
      std: 0.03
    }
    bias_filler {
      type: "constant"
      value: 0.2
    }
  }
}
layer {
  name: "inception_3b/relu_1x1"
  type: "ReLU"
  bottom: "inception_3b/1x1"
  top: "inception_3b/1x1"
}
layer {
  name: "inception_3b/3x3_reduce"
  type: "Convolution"
  bottom: "inception_3a/output"
  top: "inception_3b/3x3_reduce"
  param {
    lr_mult: 1
    decay_mult: 1
  }
  param {
    lr_mult: 2
    decay_mult: 0
  }
  convolution_param {
    num_output: 128
    kernel_size: 1
    weight_filler {
      type: "xavier"
      std: 0.09
    }
    bias_filler {
      type: "constant"
      value: 0.2
    }
  }
}
layer {
  name: "inception_3b/relu_3x3_reduce"
  type: "ReLU"
  bottom: "inception_3b/3x3_reduce"
  top: "inception_3b/3x3_reduce"
}
layer {
  name: "inception_3b/3x3"
  type: "Convolution"
  bottom: "inception_3b/3x3_reduce"
  top: "inception_3b/3x3"
  param {
    lr_mult: 1
    decay_mult: 1
  }
  param {
    lr_mult: 2
    decay_mult: 0
  }
  convolution_param {
    num_output: 192
    pad: 1
    kernel_size: 3
    weight_filler {
      type: "xavier"
      std: 0.03
    }
    bias_filler {
      type: "constant"
      value: 0.2
    }
  }
}
layer {
  name: "inception_3b/relu_3x3"
  type: "ReLU"
  bottom: "inception_3b/3x3"
  top: "inception_3b/3x3"
}
layer {
  name: "inception_3b/5x5_reduce"
  type: "Convolution"
  bottom: "inception_3a/output"
  top: "inception_3b/5x5_reduce"
  param {
    lr_mult: 1
    decay_mult: 1
  }
  param {
    lr_mult: 2
    decay_mult: 0
  }
  convolution_param {
    num_output: 32
    kernel_size: 1
    weight_filler {
      type: "xavier"
      std: 0.2
    }
    bias_filler {
      type: "constant"
      value: 0.2
    }
  }
}
layer {
  name: "inception_3b/relu_5x5_reduce"
  type: "ReLU"
  bottom: "inception_3b/5x5_reduce"
  top: "inception_3b/5x5_reduce"
}
layer {
  name: "inception_3b/5x5"
  type: "Convolution"
  bottom: "inception_3b/5x5_reduce"
  top: "inception_3b/5x5"
  param {
    lr_mult: 1
    decay_mult: 1
  }
  param {
    lr_mult: 2
    decay_mult: 0
  }
  convolution_param {
    num_output: 96
    pad: 2
    kernel_size: 5
    weight_filler {
      type: "xavier"
      std: 0.03
    }
    bias_filler {
      type: "constant"
      value: 0.2
    }
  }
}
layer {
  name: "inception_3b/relu_5x5"
  type: "ReLU"
  bottom: "inception_3b/5x5"
  top: "inception_3b/5x5"
}
layer {
  name: "inception_3b/pool"
  type: "Pooling"
  bottom: "inception_3a/output"
  top: "inception_3b/pool"
  pooling_param {
    pool: MAX
    kernel_size: 3
    stride: 1
    pad: 1
  }
}
layer {
  name: "inception_3b/pool_proj"
  type: "Convolution"
  bottom: "inception_3b/pool"
  top: "inception_3b/pool_proj"
  param {
    lr_mult: 1
    decay_mult: 1
  }
  param {
    lr_mult: 2
    decay_mult: 0
  }
  convolution_param {
    num_output: 64
    kernel_size: 1
    weight_filler {
      type: "xavier"
      std: 0.1
    }
    bias_filler {
      type: "constant"
      value: 0.2
    }
  }
}
layer {
  name: "inception_3b/relu_pool_proj"
  type: "ReLU"
  bottom: "inception_3b/pool_proj"
  top: "inception_3b/pool_proj"
}
layer {
  name: "inception_3b/output"
  type: "Concat"
  bottom: "inception_3b/1x1"
  bottom: "inception_3b/3x3"
  bottom: "inception_3b/5x5"
  bottom: "inception_3b/pool_proj"
  top: "inception_3b/output"
}
layer {
  name: "pool3/3x3_s2"
  type: "Pooling"
  bottom: "inception_3b/output"
  top: "pool3/3x3_s2"
  pooling_param {
    pool: MAX
    kernel_size: 3
    stride: 2
  }
}
layer {
  name: "inception_4a/1x1"
  type: "Convolution"
  bottom: "pool3/3x3_s2"
  top: "inception_4a/1x1"
  param {
    lr_mult: 1
    decay_mult: 1
  }
  param {
    lr_mult: 2
    decay_mult: 0
  }
  convolution_param {
    num_output: 192
    kernel_size: 1
    weight_filler {
      type: "xavier"
      std: 0.03
    }
    bias_filler {
      type: "constant"
      value: 0.2
    }
  }
}
layer {
  name: "inception_4a/relu_1x1"
  type: "ReLU"
  bottom: "inception_4a/1x1"
  top: "inception_4a/1x1"
}
layer {
  name: "inception_4a/3x3_reduce"
  type: "Convolution"
  bottom: "pool3/3x3_s2"
  top: "inception_4a/3x3_reduce"
  param {
    lr_mult: 1
    decay_mult: 1
  }
  param {
    lr_mult: 2
    decay_mult: 0
  }
  convolution_param {
    num_output: 96
    kernel_size: 1
    weight_filler {
      type: "xavier"
      std: 0.09
    }
    bias_filler {
      type: "constant"
      value: 0.2
    }
  }
}
layer {
  name: "inception_4a/relu_3x3_reduce"
  type: "ReLU"
  bottom: "inception_4a/3x3_reduce"
  top: "inception_4a/3x3_reduce"
}
layer {
  name: "inception_4a/3x3"
  type: "Convolution"
  bottom: "inception_4a/3x3_reduce"
  top: "inception_4a/3x3"
  param {
    lr_mult: 1
    decay_mult: 1
  }
  param {
    lr_mult: 2
    decay_mult: 0
  }
  convolution_param {
    num_output: 208
    pad: 1
    kernel_size: 3
    weight_filler {
      type: "xavier"
      std: 0.03
    }
    bias_filler {
      type: "constant"
      value: 0.2
    }
  }
}
layer {
  name: "inception_4a/relu_3x3"
  type: "ReLU"
  bottom: "inception_4a/3x3"
  top: "inception_4a/3x3"
}
layer {
  name: "inception_4a/5x5_reduce"
  type: "Convolution"
  bottom: "pool3/3x3_s2"
  top: "inception_4a/5x5_reduce"
  param {
    lr_mult: 1
    decay_mult: 1
  }
  param {
    lr_mult: 2
    decay_mult: 0
  }
  convolution_param {
    num_output: 16
    kernel_size: 1
    weight_filler {
      type: "xavier"
      std: 0.2
    }
    bias_filler {
      type: "constant"
      value: 0.2
    }
  }
}
layer {
  name: "inception_4a/relu_5x5_reduce"
  type: "ReLU"
  bottom: "inception_4a/5x5_reduce"
  top: "inception_4a/5x5_reduce"
}
layer {
  name: "inception_4a/5x5"
  type: "Convolution"
  bottom: "inception_4a/5x5_reduce"
  top: "inception_4a/5x5"
  param {
    lr_mult: 1
    decay_mult: 1
  }
  param {
    lr_mult: 2
    decay_mult: 0
  }
  convolution_param {
    num_output: 48
    pad: 2
    kernel_size: 5
    weight_filler {
      type: "xavier"
      std: 0.03
    }
    bias_filler {
      type: "constant"
      value: 0.2
    }
  }
}
layer {
  name: "inception_4a/relu_5x5"
  type: "ReLU"
  bottom: "inception_4a/5x5"
  top: "inception_4a/5x5"
}
layer {
  name: "inception_4a/pool"
  type: "Pooling"
  bottom: "pool3/3x3_s2"
  top: "inception_4a/pool"
  pooling_param {
    pool: MAX
    kernel_size: 3
    stride: 1
    pad: 1
  }
}
layer {
  name: "inception_4a/pool_proj"
  type: "Convolution"
  bottom: "inception_4a/pool"
  top: "inception_4a/pool_proj"
  param {
    lr_mult: 1
    decay_mult: 1
  }
  param {
    lr_mult: 2
    decay_mult: 0
  }
  convolution_param {
    num_output: 64
    kernel_size: 1
    weight_filler {
      type: "xavier"
      std: 0.1
    }
    bias_filler {
      type: "constant"
      value: 0.2
    }
  }
}
layer {
  name: "inception_4a/relu_pool_proj"
  type: "ReLU"
  bottom: "inception_4a/pool_proj"
  top: "inception_4a/pool_proj"
}
layer {
  name: "inception_4a/output"
  type: "Concat"
  bottom: "inception_4a/1x1"
  bottom: "inception_4a/3x3"
  bottom: "inception_4a/5x5"
  bottom: "inception_4a/pool_proj"
  top: "inception_4a/output"
}
layer {
  name: "loss1/ave_pool"
  type: "Pooling"
  bottom: "inception_4a/output"
  top: "loss1/ave_pool"
  pooling_param {
    pool: AVE
    kernel_size: 5
    stride: 3
  }
}
layer {
  name: "loss1/conv"
  type: "Convolution"
  bottom: "loss1/ave_pool"
  top: "loss1/conv"
  param {
    lr_mult: 1
    decay_mult: 1
  }
  param {
    lr_mult: 2
    decay_mult: 0
  }
  convolution_param {
    num_output: 128
    kernel_size: 1
    weight_filler {
      type: "xavier"
      std: 0.08
    }
    bias_filler {
      type: "constant"
      value: 0.2
    }
  }
}
layer {
  name: "loss1/relu_conv"
  type: "ReLU"
  bottom: "loss1/conv"
  top: "loss1/conv"
}
layer {
  name: "loss1/fc"
  type: "InnerProduct"
  bottom: "loss1/conv"
  top: "loss1/fc"
  param {
    lr_mult: 1
    decay_mult: 1
  }
  param {
    lr_mult: 2
    decay_mult: 0
  }
  inner_product_param {
    num_output: 1024
    weight_filler {
      type: "xavier"
      std: 0.02
    }
    bias_filler {
      type: "constant"
      value: 0.2
    }
  }
}
layer {
  name: "loss1/relu_fc"
  type: "ReLU"
  bottom: "loss1/fc"
  top: "loss1/fc"
}
layer {
  name: "loss1/drop_fc"
  type: "Dropout"
  bottom: "loss1/fc"
  top: "loss1/fc"
  dropout_param {
    dropout_ratio: 0.7
  }
}
layer {
  name: "loss1/classifier"
  type: "InnerProduct"
  bottom: "loss1/fc"
  top: "loss1/classifier"
  param {
    lr_mult: 1
    decay_mult: 1
  }
  param {
    lr_mult: 2
    decay_mult: 0
  }
  inner_product_param {
    num_output: 2
    weight_filler {
      type: "xavier"
      std: 0.0009765625
    }
    bias_filler {
      type: "constant"
      value: 0
    }
  }
}
layer {
  name: "loss1/loss"
  type: "SoftmaxWithLoss"
  bottom: "loss1/classifier"
  bottom: "label"
  top: "loss1/loss1"
  loss_weight: 0.3
}
layer {
  name: "inception_4b/1x1"
  type: "Convolution"
  bottom: "inception_4a/output"
  top: "inception_4b/1x1"
  param {
    lr_mult: 1
    decay_mult: 1
  }
  param {
    lr_mult: 2
    decay_mult: 0
  }
  convolution_param {
    num_output: 160
    kernel_size: 1
    weight_filler {
      type: "xavier"
      std: 0.03
    }
    bias_filler {
      type: "constant"
      value: 0.2
    }
  }
}
layer {
  name: "inception_4b/relu_1x1"
  type: "ReLU"
  bottom: "inception_4b/1x1"
  top: "inception_4b/1x1"
}
layer {
  name: "inception_4b/3x3_reduce"
  type: "Convolution"
  bottom: "inception_4a/output"
  top: "inception_4b/3x3_reduce"
  param {
    lr_mult: 1
    decay_mult: 1
  }
  param {
    lr_mult: 2
    decay_mult: 0
  }
  convolution_param {
    num_output: 112
    kernel_size: 1
    weight_filler {
      type: "xavier"
      std: 0.09
    }
    bias_filler {
      type: "constant"
      value: 0.2
    }
  }
}
layer {
  name: "inception_4b/relu_3x3_reduce"
  type: "ReLU"
  bottom: "inception_4b/3x3_reduce"
  top: "inception_4b/3x3_reduce"
}
layer {
  name: "inception_4b/3x3"
  type: "Convolution"
  bottom: "inception_4b/3x3_reduce"
  top: "inception_4b/3x3"
  param {
    lr_mult: 1
    decay_mult: 1
  }
  param {
    lr_mult: 2
    decay_mult: 0
  }
  convolution_param {
    num_output: 224
    pad: 1
    kernel_size: 3
    weight_filler {
      type: "xavier"
      std: 0.03
    }
    bias_filler {
      type: "constant"
      value: 0.2
    }
  }
}
layer {
  name: "inception_4b/relu_3x3"
  type: "ReLU"
  bottom: "inception_4b/3x3"
  top: "inception_4b/3x3"
}
layer {
  name: "inception_4b/5x5_reduce"
  type: "Convolution"
  bottom: "inception_4a/output"
  top: "inception_4b/5x5_reduce"
  param {
    lr_mult: 1
    decay_mult: 1
  }
  param {
    lr_mult: 2
    decay_mult: 0
  }
  convolution_param {
    num_output: 24
    kernel_size: 1
    weight_filler {
      type: "xavier"
      std: 0.2
    }
    bias_filler {
      type: "constant"
      value: 0.2
    }
  }
}
layer {
  name: "inception_4b/relu_5x5_reduce"
  type: "ReLU"
  bottom: "inception_4b/5x5_reduce"
  top: "inception_4b/5x5_reduce"
}
layer {
  name: "inception_4b/5x5"
  type: "Convolution"
  bottom: "inception_4b/5x5_reduce"
  top: "inception_4b/5x5"
  param {
    lr_mult: 1
    decay_mult: 1
  }
  param {
    lr_mult: 2
    decay_mult: 0
  }
  convolution_param {
    num_output: 64
    pad: 2
    kernel_size: 5
    weight_filler {
      type: "xavier"
      std: 0.03
    }
    bias_filler {
      type: "constant"
      value: 0.2
    }
  }
}
layer {
  name: "inception_4b/relu_5x5"
  type: "ReLU"
  bottom: "inception_4b/5x5"
  top: "inception_4b/5x5"
}
layer {
  name: "inception_4b/pool"
  type: "Pooling"
  bottom: "inception_4a/output"
  top: "inception_4b/pool"
  pooling_param {
    pool: MAX
    kernel_size: 3
    stride: 1
    pad: 1
  }
}
layer {
  name: "inception_4b/pool_proj"
  type: "Convolution"
  bottom: "inception_4b/pool"
  top: "inception_4b/pool_proj"
  param {
    lr_mult: 1
    decay_mult: 1
  }
  param {
    lr_mult: 2
    decay_mult: 0
  }
  convolution_param {
    num_output: 64
    kernel_size: 1
    weight_filler {
      type: "xavier"
      std: 0.1
    }
    bias_filler {
      type: "constant"
      value: 0.2
    }
  }
}
layer {
  name: "inception_4b/relu_pool_proj"
  type: "ReLU"
  bottom: "inception_4b/pool_proj"
  top: "inception_4b/pool_proj"
}
layer {
  name: "inception_4b/output"
  type: "Concat"
  bottom: "inception_4b/1x1"
  bottom: "inception_4b/3x3"
  bottom: "inception_4b/5x5"
  bottom: "inception_4b/pool_proj"
  top: "inception_4b/output"
}
layer {
  name: "inception_4c/1x1"
  type: "Convolution"
  bottom: "inception_4b/output"
  top: "inception_4c/1x1"
  param {
    lr_mult: 1
    decay_mult: 1
  }
  param {
    lr_mult: 2
    decay_mult: 0
  }
  convolution_param {
    num_output: 128
    kernel_size: 1
    weight_filler {
      type: "xavier"
      std: 0.03
    }
    bias_filler {
      type: "constant"
      value: 0.2
    }
  }
}
layer {
  name: "inception_4c/relu_1x1"
  type: "ReLU"
  bottom: "inception_4c/1x1"
  top: "inception_4c/1x1"
}
layer {
  name: "inception_4c/3x3_reduce"
  type: "Convolution"
  bottom: "inception_4b/output"
  top: "inception_4c/3x3_reduce"
  param {
    lr_mult: 1
    decay_mult: 1
  }
  param {
    lr_mult: 2
    decay_mult: 0
  }
  convolution_param {
    num_output: 128
    kernel_size: 1
    weight_filler {
      type: "xavier"
      std: 0.09
    }
    bias_filler {
      type: "constant"
      value: 0.2
    }
  }
}
layer {
  name: "inception_4c/relu_3x3_reduce"
  type: "ReLU"
  bottom: "inception_4c/3x3_reduce"
  top: "inception_4c/3x3_reduce"
}
layer {
  name: "inception_4c/3x3"
  type: "Convolution"
  bottom: "inception_4c/3x3_reduce"
  top: "inception_4c/3x3"
  param {
    lr_mult: 1
    decay_mult: 1
  }
  param {
    lr_mult: 2
    decay_mult: 0
  }
  convolution_param {
    num_output: 256
    pad: 1
    kernel_size: 3
    weight_filler {
      type: "xavier"
      std: 0.03
    }
    bias_filler {
      type: "constant"
      value: 0.2
    }
  }
}
layer {
  name: "inception_4c/relu_3x3"
  type: "ReLU"
  bottom: "inception_4c/3x3"
  top: "inception_4c/3x3"
}
layer {
  name: "inception_4c/5x5_reduce"
  type: "Convolution"
  bottom: "inception_4b/output"
  top: "inception_4c/5x5_reduce"
  param {
    lr_mult: 1
    decay_mult: 1
  }
  param {
    lr_mult: 2
    decay_mult: 0
  }
  convolution_param {
    num_output: 24
    kernel_size: 1
    weight_filler {
      type: "xavier"
      std: 0.2
    }
    bias_filler {
      type: "constant"
      value: 0.2
    }
  }
}
layer {
  name: "inception_4c/relu_5x5_reduce"
  type: "ReLU"
  bottom: "inception_4c/5x5_reduce"
  top: "inception_4c/5x5_reduce"
}
layer {
  name: "inception_4c/5x5"
  type: "Convolution"
  bottom: "inception_4c/5x5_reduce"
  top: "inception_4c/5x5"
  param {
    lr_mult: 1
    decay_mult: 1
  }
  param {
    lr_mult: 2
    decay_mult: 0
  }
  convolution_param {
    num_output: 64
    pad: 2
    kernel_size: 5
    weight_filler {
      type: "xavier"
      std: 0.03
    }
    bias_filler {
      type: "constant"
      value: 0.2
    }
  }
}
layer {
  name: "inception_4c/relu_5x5"
  type: "ReLU"
  bottom: "inception_4c/5x5"
  top: "inception_4c/5x5"
}
layer {
  name: "inception_4c/pool"
  type: "Pooling"
  bottom: "inception_4b/output"
  top: "inception_4c/pool"
  pooling_param {
    pool: MAX
    kernel_size: 3
    stride: 1
    pad: 1
  }
}
layer {
  name: "inception_4c/pool_proj"
  type: "Convolution"
  bottom: "inception_4c/pool"
  top: "inception_4c/pool_proj"
  param {
    lr_mult: 1
    decay_mult: 1
  }
  param {
    lr_mult: 2
    decay_mult: 0
  }
  convolution_param {
    num_output: 64
    kernel_size: 1
    weight_filler {
      type: "xavier"
      std: 0.1
    }
    bias_filler {
      type: "constant"
      value: 0.2
    }
  }
}
layer {
  name: "inception_4c/relu_pool_proj"
  type: "ReLU"
  bottom: "inception_4c/pool_proj"
  top: "inception_4c/pool_proj"
}
layer {
  name: "inception_4c/output"
  type: "Concat"
  bottom: "inception_4c/1x1"
  bottom: "inception_4c/3x3"
  bottom: "inception_4c/5x5"
  bottom: "inception_4c/pool_proj"
  top: "inception_4c/output"
}
layer {
  name: "inception_4d/1x1"
  type: "Convolution"
  bottom: "inception_4c/output"
  top: "inception_4d/1x1"
  param {
    lr_mult: 1
    decay_mult: 1
  }
  param {
    lr_mult: 2
    decay_mult: 0
  }
  convolution_param {
    num_output: 112
    kernel_size: 1
    weight_filler {
      type: "xavier"
      std: 0.03
    }
    bias_filler {
      type: "constant"
      value: 0.2
    }
  }
}
layer {
  name: "inception_4d/relu_1x1"
  type: "ReLU"
  bottom: "inception_4d/1x1"
  top: "inception_4d/1x1"
}
layer {
  name: "inception_4d/3x3_reduce"
  type: "Convolution"
  bottom: "inception_4c/output"
  top: "inception_4d/3x3_reduce"
  param {
    lr_mult: 1
    decay_mult: 1
  }
  param {
    lr_mult: 2
    decay_mult: 0
  }
  convolution_param {
    num_output: 144
    kernel_size: 1
    weight_filler {
      type: "xavier"
      std: 0.09
    }
    bias_filler {
      type: "constant"
      value: 0.2
    }
  }
}
layer {
  name: "inception_4d/relu_3x3_reduce"
  type: "ReLU"
  bottom: "inception_4d/3x3_reduce"
  top: "inception_4d/3x3_reduce"
}
layer {
  name: "inception_4d/3x3"
  type: "Convolution"
  bottom: "inception_4d/3x3_reduce"
  top: "inception_4d/3x3"
  param {
    lr_mult: 1
    decay_mult: 1
  }
  param {
    lr_mult: 2
    decay_mult: 0
  }
  convolution_param {
    num_output: 288
    pad: 1
    kernel_size: 3
    weight_filler {
      type: "xavier"
      std: 0.03
    }
    bias_filler {
      type: "constant"
      value: 0.2
    }
  }
}
layer {
  name: "inception_4d/relu_3x3"
  type: "ReLU"
  bottom: "inception_4d/3x3"
  top: "inception_4d/3x3"
}
layer {
  name: "inception_4d/5x5_reduce"
  type: "Convolution"
  bottom: "inception_4c/output"
  top: "inception_4d/5x5_reduce"
  param {
    lr_mult: 1
    decay_mult: 1
  }
  param {
    lr_mult: 2
    decay_mult: 0
  }
  convolution_param {
    num_output: 32
    kernel_size: 1
    weight_filler {
      type: "xavier"
      std: 0.2
    }
    bias_filler {
      type: "constant"
      value: 0.2
    }
  }
}
layer {
  name: "inception_4d/relu_5x5_reduce"
  type: "ReLU"
  bottom: "inception_4d/5x5_reduce"
  top: "inception_4d/5x5_reduce"
}
layer {
  name: "inception_4d/5x5"
  type: "Convolution"
  bottom: "inception_4d/5x5_reduce"
  top: "inception_4d/5x5"
  param {
    lr_mult: 1
    decay_mult: 1
  }
  param {
    lr_mult: 2
    decay_mult: 0
  }
  convolution_param {
    num_output: 64
    pad: 2
    kernel_size: 5
    weight_filler {
      type: "xavier"
      std: 0.03
    }
    bias_filler {
      type: "constant"
      value: 0.2
    }
  }
}
layer {
  name: "inception_4d/relu_5x5"
  type: "ReLU"
  bottom: "inception_4d/5x5"
  top: "inception_4d/5x5"
}
layer {
  name: "inception_4d/pool"
  type: "Pooling"
  bottom: "inception_4c/output"
  top: "inception_4d/pool"
  pooling_param {
    pool: MAX
    kernel_size: 3
    stride: 1
    pad: 1
  }
}
layer {
  name: "inception_4d/pool_proj"
  type: "Convolution"
  bottom: "inception_4d/pool"
  top: "inception_4d/pool_proj"
  param {
    lr_mult: 1
    decay_mult: 1
  }
  param {
    lr_mult: 2
    decay_mult: 0
  }
  convolution_param {
    num_output: 64
    kernel_size: 1
    weight_filler {
      type: "xavier"
      std: 0.1
    }
    bias_filler {
      type: "constant"
      value: 0.2
    }
  }
}
layer {
  name: "inception_4d/relu_pool_proj"
  type: "ReLU"
  bottom: "inception_4d/pool_proj"
  top: "inception_4d/pool_proj"
}
layer {
  name: "inception_4d/output"
  type: "Concat"
  bottom: "inception_4d/1x1"
  bottom: "inception_4d/3x3"
  bottom: "inception_4d/5x5"
  bottom: "inception_4d/pool_proj"
  top: "inception_4d/output"
}
layer {
  name: "loss2/ave_pool"
  type: "Pooling"
  bottom: "inception_4d/output"
  top: "loss2/ave_pool"
  pooling_param {
    pool: AVE
    kernel_size: 5
    stride: 3
  }
}
layer {
  name: "loss2/conv"
  type: "Convolution"
  bottom: "loss2/ave_pool"
  top: "loss2/conv"
  param {
    lr_mult: 1
    decay_mult: 1
  }
  param {
    lr_mult: 2
    decay_mult: 0
  }
  convolution_param {
    num_output: 128
    kernel_size: 1
    weight_filler {
      type: "xavier"
      std: 0.08
    }
    bias_filler {
      type: "constant"
      value: 0.2
    }
  }
}
layer {
  name: "loss2/relu_conv"
  type: "ReLU"
  bottom: "loss2/conv"
  top: "loss2/conv"
}
layer {
  name: "loss2/fc"
  type: "InnerProduct"
  bottom: "loss2/conv"
  top: "loss2/fc"
  param {
    lr_mult: 1
    decay_mult: 1
  }
  param {
    lr_mult: 2
    decay_mult: 0
  }
  inner_product_param {
    num_output: 1024
    weight_filler {
      type: "xavier"
      std: 0.02
    }
    bias_filler {
      type: "constant"
      value: 0.2
    }
  }
}
layer {
  name: "loss2/relu_fc"
  type: "ReLU"
  bottom: "loss2/fc"
  top: "loss2/fc"
}
layer {
  name: "loss2/drop_fc"
  type: "Dropout"
  bottom: "loss2/fc"
  top: "loss2/fc"
  dropout_param {
    dropout_ratio: 0.7
  }
}
layer {
  name: "loss2/classifier"
  type: "InnerProduct"
  bottom: "loss2/fc"
  top: "loss2/classifier"
  param {
    lr_mult: 1
    decay_mult: 1
  }
  param {
    lr_mult: 2
    decay_mult: 0
  }
  inner_product_param {
    num_output: 2
    weight_filler {
      type: "xavier"
      std: 0.0009765625
    }
    bias_filler {
      type: "constant"
      value: 0
    }
  }
}
layer {
  name: "loss2/loss"
  type: "SoftmaxWithLoss"
  bottom: "loss2/classifier"
  bottom: "label"
  top: "loss2/loss1"
  loss_weight: 0.3
}
layer {
  name: "inception_4e/1x1"
  type: "Convolution"
  bottom: "inception_4d/output"
  top: "inception_4e/1x1"
  param {
    lr_mult: 1
    decay_mult: 1
  }
  param {
    lr_mult: 2
    decay_mult: 0
  }
  convolution_param {
    num_output: 256
    kernel_size: 1
    weight_filler {
      type: "xavier"
      std: 0.03
    }
    bias_filler {
      type: "constant"
      value: 0.2
    }
  }
}
layer {
  name: "inception_4e/relu_1x1"
  type: "ReLU"
  bottom: "inception_4e/1x1"
  top: "inception_4e/1x1"
}
layer {
  name: "inception_4e/3x3_reduce"
  type: "Convolution"
  bottom: "inception_4d/output"
  top: "inception_4e/3x3_reduce"
  param {
    lr_mult: 1
    decay_mult: 1
  }
  param {
    lr_mult: 2
    decay_mult: 0
  }
  convolution_param {
    num_output: 160
    kernel_size: 1
    weight_filler {
      type: "xavier"
      std: 0.09
    }
    bias_filler {
      type: "constant"
      value: 0.2
    }
  }
}
layer {
  name: "inception_4e/relu_3x3_reduce"
  type: "ReLU"
  bottom: "inception_4e/3x3_reduce"
  top: "inception_4e/3x3_reduce"
}
layer {
  name: "inception_4e/3x3"
  type: "Convolution"
  bottom: "inception_4e/3x3_reduce"
  top: "inception_4e/3x3"
  param {
    lr_mult: 1
    decay_mult: 1
  }
  param {
    lr_mult: 2
    decay_mult: 0
  }
  convolution_param {
    num_output: 320
    pad: 1
    kernel_size: 3
    weight_filler {
      type: "xavier"
      std: 0.03
    }
    bias_filler {
      type: "constant"
      value: 0.2
    }
  }
}
layer {
  name: "inception_4e/relu_3x3"
  type: "ReLU"
  bottom: "inception_4e/3x3"
  top: "inception_4e/3x3"
}
layer {
  name: "inception_4e/5x5_reduce"
  type: "Convolution"
  bottom: "inception_4d/output"
  top: "inception_4e/5x5_reduce"
  param {
    lr_mult: 1
    decay_mult: 1
  }
  param {
    lr_mult: 2
    decay_mult: 0
  }
  convolution_param {
    num_output: 32
    kernel_size: 1
    weight_filler {
      type: "xavier"
      std: 0.2
    }
    bias_filler {
      type: "constant"
      value: 0.2
    }
  }
}
layer {
  name: "inception_4e/relu_5x5_reduce"
  type: "ReLU"
  bottom: "
I0511 03:57:22.375056 24731 layer_factory.hpp:74] Creating layer data
I0511 03:57:22.375083 24731 net.cpp:76] Creating Layer data
I0511 03:57:22.375095 24731 net.cpp:334] data -> data
I0511 03:57:22.375124 24731 net.cpp:334] data -> label
I0511 03:57:22.375149 24731 net.cpp:105] Setting up data
I0511 03:57:22.375254 24731 db.cpp:34] Opened lmdb train_lmdb
I0511 03:57:22.375550 24731 data_layer.cpp:67] output data size: 32,3,224,224
I0511 03:57:22.382585 24731 net.cpp:112] Top shape: 32 3 224 224 (4816896)
I0511 03:57:22.382603 24731 net.cpp:112] Top shape: 32 1 1 1 (32)
I0511 03:57:22.382613 24731 layer_factory.hpp:74] Creating layer label_data_1_split
I0511 03:57:22.382627 24731 net.cpp:76] Creating Layer label_data_1_split
I0511 03:57:22.382635 24731 net.cpp:372] label_data_1_split <- label
I0511 03:57:22.382652 24731 net.cpp:334] label_data_1_split -> label_data_1_split_0
I0511 03:57:22.382663 24731 net.cpp:334] label_data_1_split -> label_data_1_split_1
I0511 03:57:22.382673 24731 net.cpp:334] label_data_1_split -> label_data_1_split_2
I0511 03:57:22.382681 24731 net.cpp:105] Setting up label_data_1_split
I0511 03:57:22.382690 24731 net.cpp:112] Top shape: 32 1 1 1 (32)
I0511 03:57:22.382695 24731 net.cpp:112] Top shape: 32 1 1 1 (32)
I0511 03:57:22.382700 24731 net.cpp:112] Top shape: 32 1 1 1 (32)
I0511 03:57:22.382706 24731 layer_factory.hpp:74] Creating layer conv1/7x7_s2
I0511 03:57:22.382720 24731 net.cpp:76] Creating Layer conv1/7x7_s2
I0511 03:57:22.382726 24731 net.cpp:372] conv1/7x7_s2 <- data
I0511 03:57:22.382735 24731 net.cpp:334] conv1/7x7_s2 -> conv1/7x7_s2
I0511 03:57:22.382745 24731 net.cpp:105] Setting up conv1/7x7_s2
I0511 03:57:22.382863 24731 net.cpp:112] Top shape: 32 64 112 112 (25690112)
I0511 03:57:22.382920 24731 layer_factory.hpp:74] Creating layer conv1/relu_7x7
I0511 03:57:22.382938 24731 net.cpp:76] Creating Layer conv1/relu_7x7
I0511 03:57:22.382954 24731 net.cpp:372] conv1/relu_7x7 <- conv1/7x7_s2
I0511 03:57:22.382967 24731 net.cpp:323] conv1/relu_7x7 -> conv1/7x7_s2 (in-place)
I0511 03:57:22.382975 24731 net.cpp:105] Setting up conv1/relu_7x7
I0511 03:57:22.382985 24731 net.cpp:112] Top shape: 32 64 112 112 (25690112)
I0511 03:57:22.382992 24731 layer_factory.hpp:74] Creating layer pool1/3x3_s2
I0511 03:57:22.383002 24731 net.cpp:76] Creating Layer pool1/3x3_s2
I0511 03:57:22.383008 24731 net.cpp:372] pool1/3x3_s2 <- conv1/7x7_s2
I0511 03:57:22.383014 24731 net.cpp:334] pool1/3x3_s2 -> pool1/3x3_s2
I0511 03:57:22.383029 24731 net.cpp:105] Setting up pool1/3x3_s2
I0511 03:57:22.383051 24731 net.cpp:112] Top shape: 32 64 56 56 (6422528)
I0511 03:57:22.383059 24731 layer_factory.hpp:74] Creating layer pool1/norm1
I0511 03:57:22.383070 24731 net.cpp:76] Creating Layer pool1/norm1
I0511 03:57:22.383076 24731 net.cpp:372] pool1/norm1 <- pool1/3x3_s2
I0511 03:57:22.383085 24731 net.cpp:334] pool1/norm1 -> pool1/norm1
I0511 03:57:22.383095 24731 net.cpp:105] Setting up pool1/norm1
I0511 03:57:22.383101 24731 net.cpp:112] Top shape: 32 64 56 56 (6422528)
I0511 03:57:22.383106 24731 layer_factory.hpp:74] Creating layer conv2/3x3_reduce
I0511 03:57:22.383116 24731 net.cpp:76] Creating Layer conv2/3x3_reduce
I0511 03:57:22.383121 24731 net.cpp:372] conv2/3x3_reduce <- pool1/norm1
I0511 03:57:22.383128 24731 net.cpp:334] conv2/3x3_reduce -> conv2/3x3_reduce
I0511 03:57:22.383138 24731 net.cpp:105] Setting up conv2/3x3_reduce
I0511 03:57:22.383204 24731 net.cpp:112] Top shape: 32 64 56 56 (6422528)
I0511 03:57:22.383230 24731 layer_factory.hpp:74] Creating layer conv2/relu_3x3_reduce
I0511 03:57:22.383242 24731 net.cpp:76] Creating Layer conv2/relu_3x3_reduce
I0511 03:57:22.383249 24731 net.cpp:372] conv2/relu_3x3_reduce <- conv2/3x3_reduce
I0511 03:57:22.383256 24731 net.cpp:323] conv2/relu_3x3_reduce -> conv2/3x3_reduce (in-place)
I0511 03:57:22.383263 24731 net.cpp:105] Setting up conv2/relu_3x3_reduce
I0511 03:57:22.383285 24731 net.cpp:112] Top shape: 32 64 56 56 (6422528)
I0511 03:57:22.383292 24731 layer_factory.hpp:74] Creating layer conv2/3x3
I0511 03:57:22.383302 24731 net.cpp:76] Creating Layer conv2/3x3
I0511 03:57:22.383308 24731 net.cpp:372] conv2/3x3 <- conv2/3x3_reduce
I0511 03:57:22.383316 24731 net.cpp:334] conv2/3x3 -> conv2/3x3
I0511 03:57:22.383326 24731 net.cpp:105] Setting up conv2/3x3
I0511 03:57:22.384210 24731 net.cpp:112] Top shape: 32 192 56 56 (19267584)
I0511 03:57:22.384227 24731 layer_factory.hpp:74] Creating layer conv2/relu_3x3
I0511 03:57:22.384235 24731 net.cpp:76] Creating Layer conv2/relu_3x3
I0511 03:57:22.384241 24731 net.cpp:372] conv2/relu_3x3 <- conv2/3x3
I0511 03:57:22.384248 24731 net.cpp:323] conv2/relu_3x3 -> conv2/3x3 (in-place)
I0511 03:57:22.384255 24731 net.cpp:105] Setting up conv2/relu_3x3
I0511 03:57:22.384261 24731 net.cpp:112] Top shape: 32 192 56 56 (19267584)
I0511 03:57:22.384266 24731 layer_factory.hpp:74] Creating layer conv2/norm2
I0511 03:57:22.384330 24731 net.cpp:76] Creating Layer conv2/norm2
I0511 03:57:22.384352 24731 net.cpp:372] conv2/norm2 <- conv2/3x3
I0511 03:57:22.384366 24731 net.cpp:334] conv2/norm2 -> conv2/norm2
I0511 03:57:22.384377 24731 net.cpp:105] Setting up conv2/norm2
I0511 03:57:22.384383 24731 net.cpp:112] Top shape: 32 192 56 56 (19267584)
I0511 03:57:22.384389 24731 layer_factory.hpp:74] Creating layer pool2/3x3_s2
I0511 03:57:22.384402 24731 net.cpp:76] Creating Layer pool2/3x3_s2
I0511 03:57:22.384407 24731 net.cpp:372] pool2/3x3_s2 <- conv2/norm2
I0511 03:57:22.384418 24731 net.cpp:334] pool2/3x3_s2 -> pool2/3x3_s2
I0511 03:57:22.384428 24731 net.cpp:105] Setting up pool2/3x3_s2
I0511 03:57:22.384435 24731 net.cpp:112] Top shape: 32 192 28 28 (4816896)
I0511 03:57:22.384441 24731 layer_factory.hpp:74] Creating layer pool2/3x3_s2_pool2/3x3_s2_0_split
I0511 03:57:22.384449 24731 net.cpp:76] Creating Layer pool2/3x3_s2_pool2/3x3_s2_0_split
I0511 03:57:22.384479 24731 net.cpp:372] pool2/3x3_s2_pool2/3x3_s2_0_split <- pool2/3x3_s2
I0511 03:57:22.384500 24731 net.cpp:334] pool2/3x3_s2_pool2/3x3_s2_0_split -> pool2/3x3_s2_pool2/3x3_s2_0_split_0
I0511 03:57:22.384521 24731 net.cpp:334] pool2/3x3_s2_pool2/3x3_s2_0_split -> pool2/3x3_s2_pool2/3x3_s2_0_split_1
I0511 03:57:22.384539 24731 net.cpp:334] pool2/3x3_s2_pool2/3x3_s2_0_split -> pool2/3x3_s2_pool2/3x3_s2_0_split_2
I0511 03:57:22.384557 24731 net.cpp:334] pool2/3x3_s2_pool2/3x3_s2_0_split -> pool2/3x3_s2_pool2/3x3_s2_0_split_3
I0511 03:57:22.384569 24731 net.cpp:105] Setting up pool2/3x3_s2_pool2/3x3_s2_0_split
I0511 03:57:22.384577 24731 net.cpp:112] Top shape: 32 192 28 28 (4816896)
I0511 03:57:22.384582 24731 net.cpp:112] Top shape: 32 192 28 28 (4816896)
I0511 03:57:22.384590 24731 net.cpp:112] Top shape: 32 192 28 28 (4816896)
I0511 03:57:22.384599 24731 net.cpp:112] Top shape: 32 192 28 28 (4816896)
I0511 03:57:22.384609 24731 layer_factory.hpp:74] Creating layer inception_3a/1x1
I0511 03:57:22.384631 24731 net.cpp:76] Creating Layer inception_3a/1x1
I0511 03:57:22.384644 24731 net.cpp:372] inception_3a/1x1 <- pool2/3x3_s2_pool2/3x3_s2_0_split_0
I0511 03:57:22.384660 24731 net.cpp:334] inception_3a/1x1 -> inception_3a/1x1
I0511 03:57:22.384675 24731 net.cpp:105] Setting up inception_3a/1x1
I0511 03:57:22.384795 24731 net.cpp:112] Top shape: 32 64 28 28 (1605632)
I0511 03:57:22.384809 24731 layer_factory.hpp:74] Creating layer inception_3a/relu_1x1
I0511 03:57:22.384819 24731 net.cpp:76] Creating Layer inception_3a/relu_1x1
I0511 03:57:22.384829 24731 net.cpp:372] inception_3a/relu_1x1 <- inception_3a/1x1
I0511 03:57:22.384843 24731 net.cpp:323] inception_3a/relu_1x1 -> inception_3a/1x1 (in-place)
I0511 03:57:22.384862 24731 net.cpp:105] Setting up inception_3a/relu_1x1
I0511 03:57:22.384876 24731 net.cpp:112] Top shape: 32 64 28 28 (1605632)
I0511 03:57:22.384883 24731 layer_factory.hpp:74] Creating layer inception_3a/3x3_reduce
I0511 03:57:22.384927 24731 net.cpp:76] Creating Layer inception_3a/3x3_reduce
I0511 03:57:22.384943 24731 net.cpp:372] inception_3a/3x3_reduce <- pool2/3x3_s2_pool2/3x3_s2_0_split_1
I0511 03:57:22.384953 24731 net.cpp:334] inception_3a/3x3_reduce -> inception_3a/3x3_reduce
I0511 03:57:22.384969 24731 net.cpp:105] Setting up inception_3a/3x3_reduce
I0511 03:57:22.385397 24731 net.cpp:112] Top shape: 32 96 28 28 (2408448)
I0511 03:57:22.385422 24731 layer_factory.hpp:74] Creating layer inception_3a/relu_3x3_reduce
I0511 03:57:22.385447 24731 net.cpp:76] Creating Layer inception_3a/relu_3x3_reduce
I0511 03:57:22.385462 24731 net.cpp:372] inception_3a/relu_3x3_reduce <- inception_3a/3x3_reduce
I0511 03:57:22.385475 24731 net.cpp:323] inception_3a/relu_3x3_reduce -> inception_3a/3x3_reduce (in-place)
I0511 03:57:22.385485 24731 net.cpp:105] Setting up inception_3a/relu_3x3_reduce
I0511 03:57:22.385490 24731 net.cpp:112] Top shape: 32 96 28 28 (2408448)
I0511 03:57:22.385496 24731 layer_factory.hpp:74] Creating layer inception_3a/3x3
I0511 03:57:22.385532 24731 net.cpp:76] Creating Layer inception_3a/3x3
I0511 03:57:22.385543 24731 net.cpp:372] inception_3a/3x3 <- inception_3a/3x3_reduce
I0511 03:57:22.385552 24731 net.cpp:334] inception_3a/3x3 -> inception_3a/3x3
I0511 03:57:22.385562 24731 net.cpp:105] Setting up inception_3a/3x3
I0511 03:57:22.386845 24731 net.cpp:112] Top shape: 32 128 28 28 (3211264)
I0511 03:57:22.386870 24731 layer_factory.hpp:74] Creating layer inception_3a/relu_3x3
I0511 03:57:22.386884 24731 net.cpp:76] Creating Layer inception_3a/relu_3x3
I0511 03:57:22.386891 24731 net.cpp:372] inception_3a/relu_3x3 <- inception_3a/3x3
I0511 03:57:22.386899 24731 net.cpp:323] inception_3a/relu_3x3 -> inception_3a/3x3 (in-place)
I0511 03:57:22.386908 24731 net.cpp:105] Setting up inception_3a/relu_3x3
I0511 03:57:22.386914 24731 net.cpp:112] Top shape: 32 128 28 28 (3211264)
I0511 03:57:22.386919 24731 layer_factory.hpp:74] Creating layer inception_3a/5x5_reduce
I0511 03:57:22.386934 24731 net.cpp:76] Creating Layer inception_3a/5x5_reduce
I0511 03:57:22.386962 24731 net.cpp:372] inception_3a/5x5_reduce <- pool2/3x3_s2_pool2/3x3_s2_0_split_2
I0511 03:57:22.386978 24731 net.cpp:334] inception_3a/5x5_reduce -> inception_3a/5x5_reduce
I0511 03:57:22.386996 24731 net.cpp:105] Setting up inception_3a/5x5_reduce
I0511 03:57:22.387110 24731 net.cpp:112] Top shape: 32 16 28 28 (401408)
I0511 03:57:22.387127 24731 layer_factory.hpp:74] Creating layer inception_3a/relu_5x5_reduce
I0511 03:57:22.387136 24731 net.cpp:76] Creating Layer inception_3a/relu_5x5_reduce
I0511 03:57:22.387142 24731 net.cpp:372] inception_3a/relu_5x5_reduce <- inception_3a/5x5_reduce
I0511 03:57:22.387150 24731 net.cpp:323] inception_3a/relu_5x5_reduce -> inception_3a/5x5_reduce (in-place)
I0511 03:57:22.387157 24731 net.cpp:105] Setting up inception_3a/relu_5x5_reduce
I0511 03:57:22.387163 24731 net.cpp:112] Top shape: 32 16 28 28 (401408)
I0511 03:57:22.387168 24731 layer_factory.hpp:74] Creating layer inception_3a/5x5
I0511 03:57:22.387181 24731 net.cpp:76] Creating Layer inception_3a/5x5
I0511 03:57:22.387187 24731 net.cpp:372] inception_3a/5x5 <- inception_3a/5x5_reduce
I0511 03:57:22.387197 24731 net.cpp:334] inception_3a/5x5 -> inception_3a/5x5
I0511 03:57:22.387207 24731 net.cpp:105] Setting up inception_3a/5x5
I0511 03:57:22.387365 24731 net.cpp:112] Top shape: 32 32 28 28 (802816)
I0511 03:57:22.387380 24731 layer_factory.hpp:74] Creating layer inception_3a/relu_5x5
I0511 03:57:22.387394 24731 net.cpp:76] Creating Layer inception_3a/relu_5x5
I0511 03:57:22.387401 24731 net.cpp:372] inception_3a/relu_5x5 <- inception_3a/5x5
I0511 03:57:22.387408 24731 net.cpp:323] inception_3a/relu_5x5 -> inception_3a/5x5 (in-place)
I0511 03:57:22.387416 24731 net.cpp:105] Setting up inception_3a/relu_5x5
I0511 03:57:22.387421 24731 net.cpp:112] Top shape: 32 32 28 28 (802816)
I0511 03:57:22.387428 24731 layer_factory.hpp:74] Creating layer inception_3a/pool
I0511 03:57:22.387437 24731 net.cpp:76] Creating Layer inception_3a/pool
I0511 03:57:22.387444 24731 net.cpp:372] inception_3a/pool <- pool2/3x3_s2_pool2/3x3_s2_0_split_3
I0511 03:57:22.387454 24731 net.cpp:334] inception_3a/pool -> inception_3a/pool
I0511 03:57:22.387462 24731 net.cpp:105] Setting up inception_3a/pool
I0511 03:57:22.387470 24731 net.cpp:112] Top shape: 32 192 28 28 (4816896)
I0511 03:57:22.387475 24731 layer_factory.hpp:74] Creating layer inception_3a/pool_proj
I0511 03:57:22.387483 24731 net.cpp:76] Creating Layer inception_3a/pool_proj
I0511 03:57:22.387490 24731 net.cpp:372] inception_3a/pool_proj <- inception_3a/pool
I0511 03:57:22.387502 24731 net.cpp:334] inception_3a/pool_proj -> inception_3a/pool_proj
I0511 03:57:22.387512 24731 net.cpp:105] Setting up inception_3a/pool_proj
I0511 03:57:22.388044 24731 net.cpp:112] Top shape: 32 32 28 28 (802816)
I0511 03:57:22.388068 24731 layer_factory.hpp:74] Creating layer inception_3a/relu_pool_proj
I0511 03:57:22.388083 24731 net.cpp:76] Creating Layer inception_3a/relu_pool_proj
I0511 03:57:22.388094 24731 net.cpp:372] inception_3a/relu_pool_proj <- inception_3a/pool_proj
I0511 03:57:22.388108 24731 net.cpp:323] inception_3a/relu_pool_proj -> inception_3a/pool_proj (in-place)
I0511 03:57:22.388119 24731 net.cpp:105] Setting up inception_3a/relu_pool_proj
I0511 03:57:22.388125 24731 net.cpp:112] Top shape: 32 32 28 28 (802816)
I0511 03:57:22.388131 24731 layer_factory.hpp:74] Creating layer inception_3a/output
I0511 03:57:22.388142 24731 net.cpp:76] Creating Layer inception_3a/output
I0511 03:57:22.388147 24731 net.cpp:372] inception_3a/output <- inception_3a/1x1
I0511 03:57:22.388154 24731 net.cpp:372] inception_3a/output <- inception_3a/3x3
I0511 03:57:22.388160 24731 net.cpp:372] inception_3a/output <- inception_3a/5x5
I0511 03:57:22.388166 24731 net.cpp:372] inception_3a/output <- inception_3a/pool_proj
I0511 03:57:22.388173 24731 net.cpp:334] inception_3a/output -> inception_3a/output
I0511 03:57:22.388181 24731 net.cpp:105] Setting up inception_3a/output
I0511 03:57:22.388190 24731 net.cpp:112] Top shape: 32 256 28 28 (6422528)
I0511 03:57:22.388195 24731 layer_factory.hpp:74] Creating layer inception_3a/output_inception_3a/output_0_split
I0511 03:57:22.388226 24731 net.cpp:76] Creating Layer inception_3a/output_inception_3a/output_0_split
I0511 03:57:22.388233 24731 net.cpp:372] inception_3a/output_inception_3a/output_0_split <- inception_3a/output
I0511 03:57:22.388242 24731 net.cpp:334] inception_3a/output_inception_3a/output_0_split -> inception_3a/output_inception_3a/output_0_split_0
I0511 03:57:22.388252 24731 net.cpp:334] inception_3a/output_inception_3a/output_0_split -> inception_3a/output_inception_3a/output_0_split_1
I0511 03:57:22.388260 24731 net.cpp:334] inception_3a/output_inception_3a/output_0_split -> inception_3a/output_inception_3a/output_0_split_2
I0511 03:57:22.388288 24731 net.cpp:334] inception_3a/output_inception_3a/output_0_split -> inception_3a/output_inception_3a/output_0_split_3
I0511 03:57:22.388299 24731 net.cpp:105] Setting up inception_3a/output_inception_3a/output_0_split
I0511 03:57:22.388306 24731 net.cpp:112] Top shape: 32 256 28 28 (6422528)
I0511 03:57:22.388311 24731 net.cpp:112] Top shape: 32 256 28 28 (6422528)
I0511 03:57:22.388316 24731 net.cpp:112] Top shape: 32 256 28 28 (6422528)
I0511 03:57:22.388320 24731 net.cpp:112] Top shape: 32 256 28 28 (6422528)
I0511 03:57:22.388326 24731 layer_factory.hpp:74] Creating layer inception_3b/1x1
I0511 03:57:22.388335 24731 net.cpp:76] Creating Layer inception_3b/1x1
I0511 03:57:22.388340 24731 net.cpp:372] inception_3b/1x1 <- inception_3a/output_inception_3a/output_0_split_0
I0511 03:57:22.388351 24731 net.cpp:334] inception_3b/1x1 -> inception_3b/1x1
I0511 03:57:22.388361 24731 net.cpp:105] Setting up inception_3b/1x1
I0511 03:57:22.388702 24731 net.cpp:112] Top shape: 32 128 28 28 (3211264)
I0511 03:57:22.388718 24731 layer_factory.hpp:74] Creating layer inception_3b/relu_1x1
I0511 03:57:22.388726 24731 net.cpp:76] Creating Layer inception_3b/relu_1x1
I0511 03:57:22.388732 24731 net.cpp:372] inception_3b/relu_1x1 <- inception_3b/1x1
I0511 03:57:22.388742 24731 net.cpp:323] inception_3b/relu_1x1 -> inception_3b/1x1 (in-place)
I0511 03:57:22.388751 24731 net.cpp:105] Setting up inception_3b/relu_1x1
I0511 03:57:22.388756 24731 net.cpp:112] Top shape: 32 128 28 28 (3211264)
I0511 03:57:22.388762 24731 layer_factory.hpp:74] Creating layer inception_3b/3x3_reduce
I0511 03:57:22.388770 24731 net.cpp:76] Creating Layer inception_3b/3x3_reduce
I0511 03:57:22.388777 24731 net.cpp:372] inception_3b/3x3_reduce <- inception_3a/output_inception_3a/output_0_split_1
I0511 03:57:22.388784 24731 net.cpp:334] inception_3b/3x3_reduce -> inception_3b/3x3_reduce
I0511 03:57:22.388793 24731 net.cpp:105] Setting up inception_3b/3x3_reduce
I0511 03:57:22.389284 24731 net.cpp:112] Top shape: 32 128 28 28 (3211264)
I0511 03:57:22.389302 24731 layer_factory.hpp:74] Creating layer inception_3b/relu_3x3_reduce
I0511 03:57:22.389315 24731 net.cpp:76] Creating Layer inception_3b/relu_3x3_reduce
I0511 03:57:22.389322 24731 net.cpp:372] inception_3b/relu_3x3_reduce <- inception_3b/3x3_reduce
I0511 03:57:22.389330 24731 net.cpp:323] inception_3b/relu_3x3_reduce -> inception_3b/3x3_reduce (in-place)
I0511 03:57:22.389339 24731 net.cpp:105] Setting up inception_3b/relu_3x3_reduce
I0511 03:57:22.389345 24731 net.cpp:112] Top shape: 32 128 28 28 (3211264)
I0511 03:57:22.389350 24731 layer_factory.hpp:74] Creating layer inception_3b/3x3
I0511 03:57:22.389364 24731 net.cpp:76] Creating Layer inception_3b/3x3
I0511 03:57:22.389370 24731 net.cpp:372] inception_3b/3x3 <- inception_3b/3x3_reduce
I0511 03:57:22.389384 24731 net.cpp:334] inception_3b/3x3 -> inception_3b/3x3
I0511 03:57:22.389394 24731 net.cpp:105] Setting up inception_3b/3x3
I0511 03:57:22.391510 24731 net.cpp:112] Top shape: 32 192 28 28 (4816896)
I0511 03:57:22.391530 24731 layer_factory.hpp:74] Creating layer inception_3b/relu_3x3
I0511 03:57:22.391540 24731 net.cpp:76] Creating Layer inception_3b/relu_3x3
I0511 03:57:22.391546 24731 net.cpp:372] inception_3b/relu_3x3 <- inception_3b/3x3
I0511 03:57:22.391556 24731 net.cpp:323] inception_3b/relu_3x3 -> inception_3b/3x3 (in-place)
I0511 03:57:22.391583 24731 net.cpp:105] Setting up inception_3b/relu_3x3
I0511 03:57:22.391590 24731 net.cpp:112] Top shape: 32 192 28 28 (4816896)
I0511 03:57:22.391597 24731 layer_factory.hpp:74] Creating layer inception_3b/5x5_reduce
I0511 03:57:22.391604 24731 net.cpp:76] Creating Layer inception_3b/5x5_reduce
I0511 03:57:22.391610 24731 net.cpp:372] inception_3b/5x5_reduce <- inception_3a/output_inception_3a/output_0_split_2
I0511 03:57:22.391618 24731 net.cpp:334] inception_3b/5x5_reduce -> inception_3b/5x5_reduce
I0511 03:57:22.391628 24731 net.cpp:105] Setting up inception_3b/5x5_reduce
I0511 03:57:22.391718 24731 net.cpp:112] Top shape: 32 32 28 28 (802816)
I0511 03:57:22.391728 24731 layer_factory.hpp:74] Creating layer inception_3b/relu_5x5_reduce
I0511 03:57:22.391738 24731 net.cpp:76] Creating Layer inception_3b/relu_5x5_reduce
I0511 03:57:22.391744 24731 net.cpp:372] inception_3b/relu_5x5_reduce <- inception_3b/5x5_reduce
I0511 03:57:22.391752 24731 net.cpp:323] inception_3b/relu_5x5_reduce -> inception_3b/5x5_reduce (in-place)
I0511 03:57:22.391759 24731 net.cpp:105] Setting up inception_3b/relu_5x5_reduce
I0511 03:57:22.391764 24731 net.cpp:112] Top shape: 32 32 28 28 (802816)
I0511 03:57:22.391770 24731 layer_factory.hpp:74] Creating layer inception_3b/5x5
I0511 03:57:22.391785 24731 net.cpp:76] Creating Layer inception_3b/5x5
I0511 03:57:22.391791 24731 net.cpp:372] inception_3b/5x5 <- inception_3b/5x5_reduce
I0511 03:57:22.391800 24731 net.cpp:334] inception_3b/5x5 -> inception_3b/5x5
I0511 03:57:22.391811 24731 net.cpp:105] Setting up inception_3b/5x5
I0511 03:57:22.392519 24731 net.cpp:112] Top shape: 32 96 28 28 (2408448)
I0511 03:57:22.392535 24731 layer_factory.hpp:74] Creating layer inception_3b/relu_5x5
I0511 03:57:22.392546 24731 net.cpp:76] Creating Layer inception_3b/relu_5x5
I0511 03:57:22.392552 24731 net.cpp:372] inception_3b/relu_5x5 <- inception_3b/5x5
I0511 03:57:22.392560 24731 net.cpp:323] inception_3b/relu_5x5 -> inception_3b/5x5 (in-place)
I0511 03:57:22.392568 24731 net.cpp:105] Setting up inception_3b/relu_5x5
I0511 03:57:22.392573 24731 net.cpp:112] Top shape: 32 96 28 28 (2408448)
I0511 03:57:22.392578 24731 layer_factory.hpp:74] Creating layer inception_3b/pool
I0511 03:57:22.392588 24731 net.cpp:76] Creating Layer inception_3b/pool
I0511 03:57:22.392595 24731 net.cpp:372] inception_3b/pool <- inception_3a/output_inception_3a/output_0_split_3
I0511 03:57:22.392608 24731 net.cpp:334] inception_3b/pool -> inception_3b/pool
I0511 03:57:22.392626 24731 net.cpp:105] Setting up inception_3b/pool
I0511 03:57:22.392640 24731 net.cpp:112] Top shape: 32 256 28 28 (6422528)
I0511 03:57:22.392652 24731 layer_factory.hpp:74] Creating layer inception_3b/pool_proj
I0511 03:57:22.392662 24731 net.cpp:76] Creating Layer inception_3b/pool_proj
I0511 03:57:22.392668 24731 net.cpp:372] inception_3b/pool_proj <- inception_3b/pool
I0511 03:57:22.392678 24731 net.cpp:334] inception_3b/pool_proj -> inception_3b/pool_proj
I0511 03:57:22.392688 24731 net.cpp:105] Setting up inception_3b/pool_proj
I0511 03:57:22.392871 24731 net.cpp:112] Top shape: 32 64 28 28 (1605632)
I0511 03:57:22.392889 24731 layer_factory.hpp:74] Creating layer inception_3b/relu_pool_proj
I0511 03:57:22.392899 24731 net.cpp:76] Creating Layer inception_3b/relu_pool_proj
I0511 03:57:22.392904 24731 net.cpp:372] inception_3b/relu_pool_proj <- inception_3b/pool_proj
I0511 03:57:22.392915 24731 net.cpp:323] inception_3b/relu_pool_proj -> inception_3b/pool_proj (in-place)
I0511 03:57:22.392922 24731 net.cpp:105] Setting up inception_3b/relu_pool_proj
I0511 03:57:22.392928 24731 net.cpp:112] Top shape: 32 64 28 28 (1605632)
I0511 03:57:22.392935 24731 layer_factory.hpp:74] Creating layer inception_3b/output
I0511 03:57:22.392941 24731 net.cpp:76] Creating Layer inception_3b/output
I0511 03:57:22.392947 24731 net.cpp:372] inception_3b/output <- inception_3b/1x1
I0511 03:57:22.392953 24731 net.cpp:372] inception_3b/output <- inception_3b/3x3
I0511 03:57:22.392961 24731 net.cpp:372] inception_3b/output <- inception_3b/5x5
I0511 03:57:22.392981 24731 net.cpp:372] inception_3b/output <- inception_3b/pool_proj
I0511 03:57:22.392988 24731 net.cpp:334] inception_3b/output -> inception_3b/output
I0511 03:57:22.393003 24731 net.cpp:105] Setting up inception_3b/output
I0511 03:57:22.393015 24731 net.cpp:112] Top shape: 32 480 28 28 (12042240)
I0511 03:57:22.393024 24731 layer_factory.hpp:74] Creating layer pool3/3x3_s2
I0511 03:57:22.393035 24731 net.cpp:76] Creating Layer pool3/3x3_s2
I0511 03:57:22.393043 24731 net.cpp:372] pool3/3x3_s2 <- inception_3b/output
I0511 03:57:22.393050 24731 net.cpp:334] pool3/3x3_s2 -> pool3/3x3_s2
I0511 03:57:22.393059 24731 net.cpp:105] Setting up pool3/3x3_s2
I0511 03:57:22.393067 24731 net.cpp:112] Top shape: 32 480 14 14 (3010560)
I0511 03:57:22.393077 24731 layer_factory.hpp:74] Creating layer pool3/3x3_s2_pool3/3x3_s2_0_split
I0511 03:57:22.393092 24731 net.cpp:76] Creating Layer pool3/3x3_s2_pool3/3x3_s2_0_split
I0511 03:57:22.393102 24731 net.cpp:372] pool3/3x3_s2_pool3/3x3_s2_0_split <- pool3/3x3_s2
I0511 03:57:22.393118 24731 net.cpp:334] pool3/3x3_s2_pool3/3x3_s2_0_split -> pool3/3x3_s2_pool3/3x3_s2_0_split_0
I0511 03:57:22.393128 24731 net.cpp:334] pool3/3x3_s2_pool3/3x3_s2_0_split -> pool3/3x3_s2_pool3/3x3_s2_0_split_1
I0511 03:57:22.393137 24731 net.cpp:334] pool3/3x3_s2_pool3/3x3_s2_0_split -> pool3/3x3_s2_pool3/3x3_s2_0_split_2
I0511 03:57:22.393146 24731 net.cpp:334] pool3/3x3_s2_pool3/3x3_s2_0_split -> pool3/3x3_s2_pool3/3x3_s2_0_split_3
I0511 03:57:22.393154 24731 net.cpp:105] Setting up pool3/3x3_s2_pool3/3x3_s2_0_split
I0511 03:57:22.393160 24731 net.cpp:112] Top shape: 32 480 14 14 (3010560)
I0511 03:57:22.393167 24731 net.cpp:112] Top shape: 32 480 14 14 (3010560)
I0511 03:57:22.393172 24731 net.cpp:112] Top shape: 32 480 14 14 (3010560)
I0511 03:57:22.393177 24731 net.cpp:112] Top shape: 32 480 14 14 (3010560)
I0511 03:57:22.393182 24731 layer_factory.hpp:74] Creating layer inception_4a/1x1
I0511 03:57:22.393193 24731 net.cpp:76] Creating Layer inception_4a/1x1
I0511 03:57:22.393198 24731 net.cpp:372] inception_4a/1x1 <- pool3/3x3_s2_pool3/3x3_s2_0_split_0
I0511 03:57:22.393206 24731 net.cpp:334] inception_4a/1x1 -> inception_4a/1x1
I0511 03:57:22.393218 24731 net.cpp:105] Setting up inception_4a/1x1
I0511 03:57:22.394073 24731 net.cpp:112] Top shape: 32 192 14 14 (1204224)
I0511 03:57:22.394090 24731 layer_factory.hpp:74] Creating layer inception_4a/relu_1x1
I0511 03:57:22.394101 24731 net.cpp:76] Creating Layer inception_4a/relu_1x1
I0511 03:57:22.394129 24731 net.cpp:372] inception_4a/relu_1x1 <- inception_4a/1x1
I0511 03:57:22.394140 24731 net.cpp:323] inception_4a/relu_1x1 -> inception_4a/1x1 (in-place)
I0511 03:57:22.394147 24731 net.cpp:105] Setting up inception_4a/relu_1x1
I0511 03:57:22.394153 24731 net.cpp:112] Top shape: 32 192 14 14 (1204224)
I0511 03:57:22.394158 24731 layer_factory.hpp:74] Creating layer inception_4a/3x3_reduce
I0511 03:57:22.394170 24731 net.cpp:76] Creating Layer inception_4a/3x3_reduce
I0511 03:57:22.394176 24731 net.cpp:372] inception_4a/3x3_reduce <- pool3/3x3_s2_pool3/3x3_s2_0_split_1
I0511 03:57:22.394183 24731 net.cpp:334] inception_4a/3x3_reduce -> inception_4a/3x3_reduce
I0511 03:57:22.394192 24731 net.cpp:105] Setting up inception_4a/3x3_reduce
I0511 03:57:22.394636 24731 net.cpp:112] Top shape: 32 96 14 14 (602112)
I0511 03:57:22.394659 24731 layer_factory.hpp:74] Creating layer inception_4a/relu_3x3_reduce
I0511 03:57:22.394668 24731 net.cpp:76] Creating Layer inception_4a/relu_3x3_reduce
I0511 03:57:22.394675 24731 net.cpp:372] inception_4a/relu_3x3_reduce <- inception_4a/3x3_reduce
I0511 03:57:22.394681 24731 net.cpp:323] inception_4a/relu_3x3_reduce -> inception_4a/3x3_reduce (in-place)
I0511 03:57:22.394690 24731 net.cpp:105] Setting up inception_4a/relu_3x3_reduce
I0511 03:57:22.394695 24731 net.cpp:112] Top shape: 32 96 14 14 (602112)
I0511 03:57:22.394701 24731 layer_factory.hpp:74] Creating layer inception_4a/3x3
I0511 03:57:22.394711 24731 net.cpp:76] Creating Layer inception_4a/3x3
I0511 03:57:22.394717 24731 net.cpp:372] inception_4a/3x3 <- inception_4a/3x3_reduce
I0511 03:57:22.394742 24731 net.cpp:334] inception_4a/3x3 -> inception_4a/3x3
I0511 03:57:22.394752 24731 net.cpp:105] Setting up inception_4a/3x3
I0511 03:57:22.396359 24731 net.cpp:112] Top shape: 32 208 14 14 (1304576)
I0511 03:57:22.396389 24731 layer_factory.hpp:74] Creating layer inception_4a/relu_3x3
I0511 03:57:22.396404 24731 net.cpp:76] Creating Layer inception_4a/relu_3x3
I0511 03:57:22.396414 24731 net.cpp:372] inception_4a/relu_3x3 <- inception_4a/3x3
I0511 03:57:22.396425 24731 net.cpp:323] inception_4a/relu_3x3 -> inception_4a/3x3 (in-place)
I0511 03:57:22.396433 24731 net.cpp:105] Setting up inception_4a/relu_3x3
I0511 03:57:22.396440 24731 net.cpp:112] Top shape: 32 208 14 14 (1304576)
I0511 03:57:22.396445 24731 layer_factory.hpp:74] Creating layer inception_4a/5x5_reduce
I0511 03:57:22.396453 24731 net.cpp:76] Creating Layer inception_4a/5x5_reduce
I0511 03:57:22.396468 24731 net.cpp:372] inception_4a/5x5_reduce <- pool3/3x3_s2_pool3/3x3_s2_0_split_2
I0511 03:57:22.396481 24731 net.cpp:334] inception_4a/5x5_reduce -> inception_4a/5x5_reduce
I0511 03:57:22.396492 24731 net.cpp:105] Setting up inception_4a/5x5_reduce
I0511 03:57:22.396569 24731 net.cpp:112] Top shape: 32 16 14 14 (100352)
I0511 03:57:22.396580 24731 layer_factory.hpp:74] Creating layer inception_4a/relu_5x5_reduce
I0511 03:57:22.396589 24731 net.cpp:76] Creating Layer inception_4a/relu_5x5_reduce
I0511 03:57:22.396594 24731 net.cpp:372] inception_4a/relu_5x5_reduce <- inception_4a/5x5_reduce
I0511 03:57:22.396600 24731 net.cpp:323] inception_4a/relu_5x5_reduce -> inception_4a/5x5_reduce (in-place)
I0511 03:57:22.396607 24731 net.cpp:105] Setting up inception_4a/relu_5x5_reduce
I0511 03:57:22.396613 24731 net.cpp:112] Top shape: 32 16 14 14 (100352)
I0511 03:57:22.396620 24731 layer_factory.hpp:74] Creating layer inception_4a/5x5
I0511 03:57:22.396630 24731 net.cpp:76] Creating Layer inception_4a/5x5
I0511 03:57:22.396634 24731 net.cpp:372] inception_4a/5x5 <- inception_4a/5x5_reduce
I0511 03:57:22.396642 24731 net.cpp:334] inception_4a/5x5 -> inception_4a/5x5
I0511 03:57:22.396651 24731 net.cpp:105] Setting up inception_4a/5x5
I0511 03:57:22.396867 24731 net.cpp:112] Top shape: 32 48 14 14 (301056)
I0511 03:57:22.396891 24731 layer_factory.hpp:74] Creating layer inception_4a/relu_5x5
I0511 03:57:22.396908 24731 net.cpp:76] Creating Layer inception_4a/relu_5x5
I0511 03:57:22.397660 24731 net.cpp:372] inception_4a/relu_5x5 <- inception_4a/5x5
I0511 03:57:22.397672 24731 net.cpp:323] inception_4a/relu_5x5 -> inception_4a/5x5 (in-place)
I0511 03:57:22.397681 24731 net.cpp:105] Setting up inception_4a/relu_5x5
I0511 03:57:22.397687 24731 net.cpp:112] Top shape: 32 48 14 14 (301056)
I0511 03:57:22.397693 24731 layer_factory.hpp:74] Creating layer inception_4a/pool
I0511 03:57:22.397706 24731 net.cpp:76] Creating Layer inception_4a/pool
I0511 03:57:22.397711 24731 net.cpp:372] inception_4a/pool <- pool3/3x3_s2_pool3/3x3_s2_0_split_3
I0511 03:57:22.397719 24731 net.cpp:334] inception_4a/pool -> inception_4a/pool
I0511 03:57:22.397727 24731 net.cpp:105] Setting up inception_4a/pool
I0511 03:57:22.397735 24731 net.cpp:112] Top shape: 32 480 14 14 (3010560)
I0511 03:57:22.397742 24731 layer_factory.hpp:74] Creating layer inception_4a/pool_proj
I0511 03:57:22.397749 24731 net.cpp:76] Creating Layer inception_4a/pool_proj
I0511 03:57:22.397755 24731 net.cpp:372] inception_4a/pool_proj <- inception_4a/pool
I0511 03:57:22.397766 24731 net.cpp:334] inception_4a/pool_proj -> inception_4a/pool_proj
I0511 03:57:22.397775 24731 net.cpp:105] Setting up inception_4a/pool_proj
I0511 03:57:22.398062 24731 net.cpp:112] Top shape: 32 64 14 14 (401408)
I0511 03:57:22.398077 24731 layer_factory.hpp:74] Creating layer inception_4a/relu_pool_proj
I0511 03:57:22.398089 24731 net.cpp:76] Creating Layer inception_4a/relu_pool_proj
I0511 03:57:22.398097 24731 net.cpp:372] inception_4a/relu_pool_proj <- inception_4a/pool_proj
I0511 03:57:22.398172 24731 net.cpp:323] inception_4a/relu_pool_proj -> inception_4a/pool_proj (in-place)
I0511 03:57:22.398218 24731 net.cpp:105] Setting up inception_4a/relu_pool_proj
I0511 03:57:22.398231 24731 net.cpp:112] Top shape: 32 64 14 14 (401408)
I0511 03:57:22.398241 24731 layer_factory.hpp:74] Creating layer inception_4a/output
I0511 03:57:22.398252 24731 net.cpp:76] Creating Layer inception_4a/output
I0511 03:57:22.398258 24731 net.cpp:372] inception_4a/output <- inception_4a/1x1
I0511 03:57:22.398265 24731 net.cpp:372] inception_4a/output <- inception_4a/3x3
I0511 03:57:22.398272 24731 net.cpp:372] inception_4a/output <- inception_4a/5x5
I0511 03:57:22.398278 24731 net.cpp:372] inception_4a/output <- inception_4a/pool_proj
I0511 03:57:22.398285 24731 net.cpp:334] inception_4a/output -> inception_4a/output
I0511 03:57:22.398293 24731 net.cpp:105] Setting up inception_4a/output
I0511 03:57:22.398300 24731 net.cpp:112] Top shape: 32 512 14 14 (3211264)
I0511 03:57:22.398319 24731 layer_factory.hpp:74] Creating layer inception_4a/output_inception_4a/output_0_split
I0511 03:57:22.398331 24731 net.cpp:76] Creating Layer inception_4a/output_inception_4a/output_0_split
I0511 03:57:22.398337 24731 net.cpp:372] inception_4a/output_inception_4a/output_0_split <- inception_4a/output
I0511 03:57:22.398345 24731 net.cpp:334] inception_4a/output_inception_4a/output_0_split -> inception_4a/output_inception_4a/output_0_split_0
I0511 03:57:22.398355 24731 net.cpp:334] inception_4a/output_inception_4a/output_0_split -> inception_4a/output_inception_4a/output_0_split_1
I0511 03:57:22.398365 24731 net.cpp:334] inception_4a/output_inception_4a/output_0_split -> inception_4a/output_inception_4a/output_0_split_2
I0511 03:57:22.398372 24731 net.cpp:334] inception_4a/output_inception_4a/output_0_split -> inception_4a/output_inception_4a/output_0_split_3
I0511 03:57:22.398381 24731 net.cpp:334] inception_4a/output_inception_4a/output_0_split -> inception_4a/output_inception_4a/output_0_split_4
I0511 03:57:22.398389 24731 net.cpp:105] Setting up inception_4a/output_inception_4a/output_0_split
I0511 03:57:22.398396 24731 net.cpp:112] Top shape: 32 512 14 14 (3211264)
I0511 03:57:22.398562 24731 net.cpp:112] Top shape: 32 512 14 14 (3211264)
I0511 03:57:22.398577 24731 net.cpp:112] Top shape: 32 512 14 14 (3211264)
I0511 03:57:22.398586 24731 net.cpp:112] Top shape: 32 512 14 14 (3211264)
I0511 03:57:22.398596 24731 net.cpp:112] Top shape: 32 512 14 14 (3211264)
I0511 03:57:22.398605 24731 layer_factory.hpp:74] Creating layer loss1/ave_pool
I0511 03:57:22.398629 24731 net.cpp:76] Creating Layer loss1/ave_pool
I0511 03:57:22.398643 24731 net.cpp:372] loss1/ave_pool <- inception_4a/output_inception_4a/output_0_split_0
I0511 03:57:22.398658 24731 net.cpp:334] loss1/ave_pool -> loss1/ave_pool
I0511 03:57:22.398674 24731 net.cpp:105] Setting up loss1/ave_pool
I0511 03:57:22.398686 24731 net.cpp:112] Top shape: 32 512 4 4 (262144)
I0511 03:57:22.398697 24731 layer_factory.hpp:74] Creating layer loss1/conv
I0511 03:57:22.398716 24731 net.cpp:76] Creating Layer loss1/conv
I0511 03:57:22.398727 24731 net.cpp:372] loss1/conv <- loss1/ave_pool
I0511 03:57:22.398742 24731 net.cpp:334] loss1/conv -> loss1/conv
I0511 03:57:22.398759 24731 net.cpp:105] Setting up loss1/conv
I0511 03:57:22.399422 24731 net.cpp:112] Top shape: 32 128 4 4 (65536)
I0511 03:57:22.399441 24731 layer_factory.hpp:74] Creating layer loss1/relu_conv
I0511 03:57:22.399451 24731 net.cpp:76] Creating Layer loss1/relu_conv
I0511 03:57:22.399456 24731 net.cpp:372] loss1/relu_conv <- loss1/conv
I0511 03:57:22.399466 24731 net.cpp:323] loss1/relu_conv -> loss1/conv (in-place)
I0511 03:57:22.399474 24731 net.cpp:105] Setting up loss1/relu_conv
I0511 03:57:22.399480 24731 net.cpp:112] Top shape: 32 128 4 4 (65536)
I0511 03:57:22.399485 24731 layer_factory.hpp:74] Creating layer loss1/fc
I0511 03:57:22.399498 24731 net.cpp:76] Creating Layer loss1/fc
I0511 03:57:22.399504 24731 net.cpp:372] loss1/fc <- loss1/conv
I0511 03:57:22.399514 24731 net.cpp:334] loss1/fc -> loss1/fc
I0511 03:57:22.399528 24731 net.cpp:105] Setting up loss1/fc
I0511 03:57:22.417179 24731 net.cpp:112] Top shape: 32 1024 1 1 (32768)
I0511 03:57:22.417343 24731 layer_factory.hpp:74] Creating layer loss1/relu_fc
I0511 03:57:22.417361 24731 net.cpp:76] Creating Layer loss1/relu_fc
I0511 03:57:22.417368 24731 net.cpp:372] loss1/relu_fc <- loss1/fc
I0511 03:57:22.417382 24731 net.cpp:323] loss1/relu_fc -> loss1/fc (in-place)
I0511 03:57:22.417392 24731 net.cpp:105] Setting up loss1/relu_fc
I0511 03:57:22.417399 24731 net.cpp:112] Top shape: 32 1024 1 1 (32768)
I0511 03:57:22.417405 24731 layer_factory.hpp:74] Creating layer loss1/drop_fc
I0511 03:57:22.417428 24731 net.cpp:76] Creating Layer loss1/drop_fc
I0511 03:57:22.417435 24731 net.cpp:372] loss1/drop_fc <- loss1/fc
I0511 03:57:22.417443 24731 net.cpp:323] loss1/drop_fc -> loss1/fc (in-place)
I0511 03:57:22.417454 24731 net.cpp:105] Setting up loss1/drop_fc
I0511 03:57:22.417464 24731 net.cpp:112] Top shape: 32 1024 1 1 (32768)
I0511 03:57:22.417470 24731 layer_factory.hpp:74] Creating layer loss1/classifier
I0511 03:57:22.417480 24731 net.cpp:76] Creating Layer loss1/classifier
I0511 03:57:22.417486 24731 net.cpp:372] loss1/classifier <- loss1/fc
I0511 03:57:22.417496 24731 net.cpp:334] loss1/classifier -> loss1/classifier
I0511 03:57:22.417506 24731 net.cpp:105] Setting up loss1/classifier
I0511 03:57:22.417539 24731 net.cpp:112] Top shape: 32 2 1 1 (64)
I0511 03:57:22.417551 24731 layer_factory.hpp:74] Creating layer loss1/loss
I0511 03:57:22.417562 24731 net.cpp:76] Creating Layer loss1/loss
I0511 03:57:22.417568 24731 net.cpp:372] loss1/loss <- loss1/classifier
I0511 03:57:22.417574 24731 net.cpp:372] loss1/loss <- label_data_1_split_0
I0511 03:57:22.417585 24731 net.cpp:334] loss1/loss -> loss1/loss1
I0511 03:57:22.417596 24731 net.cpp:105] Setting up loss1/loss
I0511 03:57:22.417608 24731 layer_factory.hpp:74] Creating layer loss1/loss
I0511 03:57:22.417629 24731 net.cpp:112] Top shape: 1 1 1 1 (1)
I0511 03:57:22.417634 24731 net.cpp:118]     with loss weight 0.3
I0511 03:57:22.417668 24731 layer_factory.hpp:74] Creating layer inception_4b/1x1
I0511 03:57:22.417682 24731 net.cpp:76] Creating Layer inception_4b/1x1
I0511 03:57:22.417690 24731 net.cpp:372] inception_4b/1x1 <- inception_4a/output_inception_4a/output_0_split_1
I0511 03:57:22.417704 24731 net.cpp:334] inception_4b/1x1 -> inception_4b/1x1
I0511 03:57:22.417714 24731 net.cpp:105] Setting up inception_4b/1x1
I0511 03:57:22.418439 24731 net.cpp:112] Top shape: 32 160 14 14 (1003520)
I0511 03:57:22.418453 24731 layer_factory.hpp:74] Creating layer inception_4b/relu_1x1
I0511 03:57:22.418462 24731 net.cpp:76] Creating Layer inception_4b/relu_1x1
I0511 03:57:22.418468 24731 net.cpp:372] inception_4b/relu_1x1 <- inception_4b/1x1
I0511 03:57:22.418478 24731 net.cpp:323] inception_4b/relu_1x1 -> inception_4b/1x1 (in-place)
I0511 03:57:22.418488 24731 net.cpp:105] Setting up inception_4b/relu_1x1
I0511 03:57:22.418493 24731 net.cpp:112] Top shape: 32 160 14 14 (1003520)
I0511 03:57:22.418498 24731 layer_factory.hpp:74] Creating layer inception_4b/3x3_reduce
I0511 03:57:22.418506 24731 net.cpp:76] Creating Layer inception_4b/3x3_reduce
I0511 03:57:22.418512 24731 net.cpp:372] inception_4b/3x3_reduce <- inception_4a/output_inception_4a/output_0_split_2
I0511 03:57:22.418522 24731 net.cpp:334] inception_4b/3x3_reduce -> inception_4b/3x3_reduce
I0511 03:57:22.418531 24731 net.cpp:105] Setting up inception_4b/3x3_reduce
I0511 03:57:22.419044 24731 net.cpp:112] Top shape: 32 112 14 14 (702464)
I0511 03:57:22.419057 24731 layer_factory.hpp:74] Creating layer inception_4b/relu_3x3_reduce
I0511 03:57:22.419067 24731 net.cpp:76] Creating Layer inception_4b/relu_3x3_reduce
I0511 03:57:22.419075 24731 net.cpp:372] inception_4b/relu_3x3_reduce <- inception_4b/3x3_reduce
I0511 03:57:22.419081 24731 net.cpp:323] inception_4b/relu_3x3_reduce -> inception_4b/3x3_reduce (in-place)
I0511 03:57:22.419090 24731 net.cpp:105] Setting up inception_4b/relu_3x3_reduce
I0511 03:57:22.419095 24731 net.cpp:112] Top shape: 32 112 14 14 (702464)
I0511 03:57:22.419100 24731 layer_factory.hpp:74] Creating layer inception_4b/3x3
I0511 03:57:22.419111 24731 net.cpp:76] Creating Layer inception_4b/3x3
I0511 03:57:22.419131 24731 net.cpp:372] inception_4b/3x3 <- inception_4b/3x3_reduce
I0511 03:57:22.419141 24731 net.cpp:334] inception_4b/3x3 -> inception_4b/3x3
I0511 03:57:22.419149 24731 net.cpp:105] Setting up inception_4b/3x3
I0511 03:57:22.421051 24731 net.cpp:112] Top shape: 32 224 14 14 (1404928)
I0511 03:57:22.421066 24731 layer_factory.hpp:74] Creating layer inception_4b/relu_3x3
I0511 03:57:22.421077 24731 net.cpp:76] Creating Layer inception_4b/relu_3x3
I0511 03:57:22.421083 24731 net.cpp:372] inception_4b/relu_3x3 <- inception_4b/3x3
I0511 03:57:22.421090 24731 net.cpp:323] inception_4b/relu_3x3 -> inception_4b/3x3 (in-place)
I0511 03:57:22.421098 24731 net.cpp:105] Setting up inception_4b/relu_3x3
I0511 03:57:22.421104 24731 net.cpp:112] Top shape: 32 224 14 14 (1404928)
I0511 03:57:22.421109 24731 layer_factory.hpp:74] Creating layer inception_4b/5x5_reduce
I0511 03:57:22.421119 24731 net.cpp:76] Creating Layer inception_4b/5x5_reduce
I0511 03:57:22.421125 24731 net.cpp:372] inception_4b/5x5_reduce <- inception_4a/output_inception_4a/output_0_split_3
I0511 03:57:22.421133 24731 net.cpp:334] inception_4b/5x5_reduce -> inception_4b/5x5_reduce
I0511 03:57:22.421142 24731 net.cpp:105] Setting up inception_4b/5x5_reduce
I0511 03:57:22.421262 24731 net.cpp:112] Top shape: 32 24 14 14 (150528)
I0511 03:57:22.421288 24731 layer_factory.hpp:74] Creating layer inception_4b/relu_5x5_reduce
I0511 03:57:22.421298 24731 net.cpp:76] Creating Layer inception_4b/relu_5x5_reduce
I0511 03:57:22.421303 24731 net.cpp:372] inception_4b/relu_5x5_reduce <- inception_4b/5x5_reduce
I0511 03:57:22.421314 24731 net.cpp:323] inception_4b/relu_5x5_reduce -> inception_4b/5x5_reduce (in-place)
I0511 03:57:22.421321 24731 net.cpp:105] Setting up inception_4b/relu_5x5_reduce
I0511 03:57:22.421327 24731 net.cpp:112] Top shape: 32 24 14 14 (150528)
I0511 03:57:22.421332 24731 layer_factory.hpp:74] Creating layer inception_4b/5x5
I0511 03:57:22.421341 24731 net.cpp:76] Creating Layer inception_4b/5x5
I0511 03:57:22.421347 24731 net.cpp:372] inception_4b/5x5 <- inception_4b/5x5_reduce
I0511 03:57:22.421355 24731 net.cpp:334] inception_4b/5x5 -> inception_4b/5x5
I0511 03:57:22.421362 24731 net.cpp:105] Setting up inception_4b/5x5
I0511 03:57:22.421689 24731 net.cpp:112] Top shape: 32 64 14 14 (401408)
I0511 03:57:22.421701 24731 layer_factory.hpp:74] Creating layer inception_4b/relu_5x5
I0511 03:57:22.421710 24731 net.cpp:76] Creating Layer inception_4b/relu_5x5
I0511 03:57:22.421715 24731 net.cpp:372] inception_4b/relu_5x5 <- inception_4b/5x5
I0511 03:57:22.421725 24731 net.cpp:323] inception_4b/relu_5x5 -> inception_4b/5x5 (in-place)
I0511 03:57:22.421732 24731 net.cpp:105] Setting up inception_4b/relu_5x5
I0511 03:57:22.421819 24731 net.cpp:112] Top shape: 32 64 14 14 (401408)
I0511 03:57:22.421828 24731 layer_factory.hpp:74] Creating layer inception_4b/pool
I0511 03:57:22.421836 24731 net.cpp:76] Creating Layer inception_4b/pool
I0511 03:57:22.421843 24731 net.cpp:372] inception_4b/pool <- inception_4a/output_inception_4a/output_0_split_4
I0511 03:57:22.421854 24731 net.cpp:334] inception_4b/pool -> inception_4b/pool
I0511 03:57:22.421871 24731 net.cpp:105] Setting up inception_4b/pool
I0511 03:57:22.421880 24731 net.cpp:112] Top shape: 32 512 14 14 (3211264)
I0511 03:57:22.421890 24731 layer_factory.hpp:74] Creating layer inception_4b/pool_proj
I0511 03:57:22.421900 24731 net.cpp:76] Creating Layer inception_4b/pool_proj
I0511 03:57:22.421906 24731 net.cpp:372] inception_4b/pool_proj <- inception_4b/pool
I0511 03:57:22.421916 24731 net.cpp:334] inception_4b/pool_proj -> inception_4b/pool_proj
I0511 03:57:22.421926 24731 net.cpp:105] Setting up inception_4b/pool_proj
I0511 03:57:22.422209 24731 net.cpp:112] Top shape: 32 64 14 14 (401408)
I0511 03:57:22.422222 24731 layer_factory.hpp:74] Creating layer inception_4b/relu_pool_proj
I0511 03:57:22.422232 24731 net.cpp:76] Creating Layer inception_4b/relu_pool_proj
I0511 03:57:22.422240 24731 net.cpp:372] inception_4b/relu_pool_proj <- inception_4b/pool_proj
I0511 03:57:22.422263 24731 net.cpp:323] inception_4b/relu_pool_proj -> inception_4b/pool_proj (in-place)
I0511 03:57:22.422283 24731 net.cpp:105] Setting up inception_4b/relu_pool_proj
I0511 03:57:22.422291 24731 net.cpp:112] Top shape: 32 64 14 14 (401408)
I0511 03:57:22.422296 24731 layer_factory.hpp:74] Creating layer inception_4b/output
I0511 03:57:22.422303 24731 net.cpp:76] Creating Layer inception_4b/output
I0511 03:57:22.422312 24731 net.cpp:372] inception_4b/output <- inception_4b/1x1
I0511 03:57:22.422318 24731 net.cpp:372] inception_4b/output <- inception_4b/3x3
I0511 03:57:22.422324 24731 net.cpp:372] inception_4b/output <- inception_4b/5x5
I0511 03:57:22.422330 24731 net.cpp:372] inception_4b/output <- inception_4b/pool_proj
I0511 03:57:22.422338 24731 net.cpp:334] inception_4b/output -> inception_4b/output
I0511 03:57:22.422346 24731 net.cpp:105] Setting up inception_4b/output
I0511 03:57:22.422353 24731 net.cpp:112] Top shape: 32 512 14 14 (3211264)
I0511 03:57:22.422358 24731 layer_factory.hpp:74] Creating layer inception_4b/output_inception_4b/output_0_split
I0511 03:57:22.422366 24731 net.cpp:76] Creating Layer inception_4b/output_inception_4b/output_0_split
I0511 03:57:22.422371 24731 net.cpp:372] inception_4b/output_inception_4b/output_0_split <- inception_4b/output
I0511 03:57:22.422379 24731 net.cpp:334] inception_4b/output_inception_4b/output_0_split -> inception_4b/output_inception_4b/output_0_split_0
I0511 03:57:22.422389 24731 net.cpp:334] inception_4b/output_inception_4b/output_0_split -> inception_4b/output_inception_4b/output_0_split_1
I0511 03:57:22.422396 24731 net.cpp:334] inception_4b/output_inception_4b/output_0_split -> inception_4b/output_inception_4b/output_0_split_2
I0511 03:57:22.422410 24731 net.cpp:334] inception_4b/output_inception_4b/output_0_split -> inception_4b/output_inception_4b/output_0_split_3
I0511 03:57:22.422417 24731 net.cpp:105] Setting up inception_4b/output_inception_4b/output_0_split
I0511 03:57:22.422425 24731 net.cpp:112] Top shape: 32 512 14 14 (3211264)
I0511 03:57:22.422430 24731 net.cpp:112] Top shape: 32 512 14 14 (3211264)
I0511 03:57:22.422435 24731 net.cpp:112] Top shape: 32 512 14 14 (3211264)
I0511 03:57:22.422440 24731 net.cpp:112] Top shape: 32 512 14 14 (3211264)
I0511 03:57:22.422446 24731 layer_factory.hpp:74] Creating layer inception_4c/1x1
I0511 03:57:22.422456 24731 net.cpp:76] Creating Layer inception_4c/1x1
I0511 03:57:22.422461 24731 net.cpp:372] inception_4c/1x1 <- inception_4b/output_inception_4b/output_0_split_0
I0511 03:57:22.422616 24731 net.cpp:334] inception_4c/1x1 -> inception_4c/1x1
I0511 03:57:22.422626 24731 net.cpp:105] Setting up inception_4c/1x1
I0511 03:57:22.423182 24731 net.cpp:112] Top shape: 32 128 14 14 (802816)
I0511 03:57:22.423195 24731 layer_factory.hpp:74] Creating layer inception_4c/relu_1x1
I0511 03:57:22.423205 24731 net.cpp:76] Creating Layer inception_4c/relu_1x1
I0511 03:57:22.423213 24731 net.cpp:372] inception_4c/relu_1x1 <- inception_4c/1x1
I0511 03:57:22.423223 24731 net.cpp:323] inception_4c/relu_1x1 -> inception_4c/1x1 (in-place)
I0511 03:57:22.423231 24731 net.cpp:105] Setting up inception_4c/relu_1x1
I0511 03:57:22.423238 24731 net.cpp:112] Top shape: 32 128 14 14 (802816)
I0511 03:57:22.423243 24731 layer_factory.hpp:74] Creating layer inception_4c/3x3_reduce
I0511 03:57:22.423250 24731 net.cpp:76] Creating Layer inception_4c/3x3_reduce
I0511 03:57:22.423256 24731 net.cpp:372] inception_4c/3x3_reduce <- inception_4b/output_inception_4b/output_0_split_1
I0511 03:57:22.423266 24731 net.cpp:334] inception_4c/3x3_reduce -> inception_4c/3x3_reduce
I0511 03:57:22.423288 24731 net.cpp:105] Setting up inception_4c/3x3_reduce
I0511 03:57:22.423845 24731 net.cpp:112] Top shape: 32 128 14 14 (802816)
I0511 03:57:22.423857 24731 layer_factory.hpp:74] Creating layer inception_4c/relu_3x3_reduce
I0511 03:57:22.423866 24731 net.cpp:76] Creating Layer inception_4c/relu_3x3_reduce
I0511 03:57:22.423871 24731 net.cpp:372] inception_4c/relu_3x3_reduce <- inception_4c/3x3_reduce
I0511 03:57:22.423878 24731 net.cpp:323] inception_4c/relu_3x3_reduce -> inception_4c/3x3_reduce (in-place)
I0511 03:57:22.423903 24731 net.cpp:105] Setting up inception_4c/relu_3x3_reduce
I0511 03:57:22.423910 24731 net.cpp:112] Top shape: 32 128 14 14 (802816)
I0511 03:57:22.423915 24731 layer_factory.hpp:74] Creating layer inception_4c/3x3
I0511 03:57:22.423928 24731 net.cpp:76] Creating Layer inception_4c/3x3
I0511 03:57:22.423933 24731 net.cpp:372] inception_4c/3x3 <- inception_4c/3x3_reduce
I0511 03:57:22.423941 24731 net.cpp:334] inception_4c/3x3 -> inception_4c/3x3
I0511 03:57:22.423949 24731 net.cpp:105] Setting up inception_4c/3x3
I0511 03:57:22.426429 24731 net.cpp:112] Top shape: 32 256 14 14 (1605632)
I0511 03:57:22.426458 24731 layer_factory.hpp:74] Creating layer inception_4c/relu_3x3
I0511 03:57:22.426467 24731 net.cpp:76] Creating Layer inception_4c/relu_3x3
I0511 03:57:22.426473 24731 net.cpp:372] inception_4c/relu_3x3 <- inception_4c/3x3
I0511 03:57:22.426481 24731 net.cpp:323] inception_4c/relu_3x3 -> inception_4c/3x3 (in-place)
I0511 03:57:22.426489 24731 net.cpp:105] Setting up inception_4c/relu_3x3
I0511 03:57:22.426494 24731 net.cpp:112] Top shape: 32 256 14 14 (1605632)
I0511 03:57:22.426501 24731 layer_factory.hpp:74] Creating layer inception_4c/5x5_reduce
I0511 03:57:22.426511 24731 net.cpp:76] Creating Layer inception_4c/5x5_reduce
I0511 03:57:22.426517 24731 net.cpp:372] inception_4c/5x5_reduce <- inception_4b/output_inception_4b/output_0_split_2
I0511 03:57:22.426525 24731 net.cpp:334] inception_4c/5x5_reduce -> inception_4c/5x5_reduce
I0511 03:57:22.426534 24731 net.cpp:105] Setting up inception_4c/5x5_reduce
I0511 03:57:22.426651 24731 net.cpp:112] Top shape: 32 24 14 14 (150528)
I0511 03:57:22.426661 24731 layer_factory.hpp:74] Creating layer inception_4c/relu_5x5_reduce
I0511 03:57:22.426668 24731 net.cpp:76] Creating Layer inception_4c/relu_5x5_reduce
I0511 03:57:22.426673 24731 net.cpp:372] inception_4c/relu_5x5_reduce <- inception_4c/5x5_reduce
I0511 03:57:22.426683 24731 net.cpp:323] inception_4c/relu_5x5_reduce -> inception_4c/5x5_reduce (in-place)
I0511 03:57:22.426690 24731 net.cpp:105] Setting up inception_4c/relu_5x5_reduce
I0511 03:57:22.426697 24731 net.cpp:112] Top shape: 32 24 14 14 (150528)
I0511 03:57:22.426702 24731 layer_factory.hpp:74] Creating layer inception_4c/5x5
I0511 03:57:22.426709 24731 net.cpp:76] Creating Layer inception_4c/5x5
I0511 03:57:22.426714 24731 net.cpp:372] inception_4c/5x5 <- inception_4c/5x5_reduce
I0511 03:57:22.426724 24731 net.cpp:334] inception_4c/5x5 -> inception_4c/5x5
I0511 03:57:22.426733 24731 net.cpp:105] Setting up inception_4c/5x5
I0511 03:57:22.427067 24731 net.cpp:112] Top shape: 32 64 14 14 (401408)
I0511 03:57:22.427081 24731 layer_factory.hpp:74] Creating layer inception_4c/relu_5x5
I0511 03:57:22.427090 24731 net.cpp:76] Creating Layer inception_4c/relu_5x5
I0511 03:57:22.427095 24731 net.cpp:372] inception_4c/relu_5x5 <- inception_4c/5x5
I0511 03:57:22.427103 24731 net.cpp:323] inception_4c/relu_5x5 -> inception_4c/5x5 (in-place)
I0511 03:57:22.427110 24731 net.cpp:105] Setting up inception_4c/relu_5x5
I0511 03:57:22.427115 24731 net.cpp:112] Top shape: 32 64 14 14 (401408)
I0511 03:57:22.427120 24731 layer_factory.hpp:74] Creating layer inception_4c/pool
I0511 03:57:22.427129 24731 net.cpp:76] Creating Layer inception_4c/pool
I0511 03:57:22.427134 24731 net.cpp:372] inception_4c/pool <- inception_4b/output_inception_4b/output_0_split_3
I0511 03:57:22.427146 24731 net.cpp:334] inception_4c/pool -> inception_4c/pool
I0511 03:57:22.427155 24731 net.cpp:105] Setting up inception_4c/pool
I0511 03:57:22.427163 24731 net.cpp:112] Top shape: 32 512 14 14 (3211264)
I0511 03:57:22.427168 24731 layer_factory.hpp:74] Creating layer inception_4c/pool_proj
I0511 03:57:22.427177 24731 net.cpp:76] Creating Layer inception_4c/pool_proj
I0511 03:57:22.427182 24731 net.cpp:372] inception_4c/pool_proj <- inception_4c/pool
I0511 03:57:22.427192 24731 net.cpp:334] inception_4c/pool_proj -> inception_4c/pool_proj
I0511 03:57:22.427201 24731 net.cpp:105] Setting up inception_4c/pool_proj
I0511 03:57:22.427515 24731 net.cpp:112] Top shape: 32 64 14 14 (401408)
I0511 03:57:22.427530 24731 layer_factory.hpp:74] Creating layer inception_4c/relu_pool_proj
I0511 03:57:22.427537 24731 net.cpp:76] Creating Layer inception_4c/relu_pool_proj
I0511 03:57:22.427543 24731 net.cpp:372] inception_4c/relu_pool_proj <- inception_4c/pool_proj
I0511 03:57:22.427551 24731 net.cpp:323] inception_4c/relu_pool_proj -> inception_4c/pool_proj (in-place)
I0511 03:57:22.427561 24731 net.cpp:105] Setting up inception_4c/relu_pool_proj
I0511 03:57:22.427567 24731 net.cpp:112] Top shape: 32 64 14 14 (401408)
I0511 03:57:22.427572 24731 layer_factory.hpp:74] Creating layer inception_4c/output
I0511 03:57:22.427578 24731 net.cpp:76] Creating Layer inception_4c/output
I0511 03:57:22.427584 24731 net.cpp:372] inception_4c/output <- inception_4c/1x1
I0511 03:57:22.427590 24731 net.cpp:372] inception_4c/output <- inception_4c/3x3
I0511 03:57:22.427597 24731 net.cpp:372] inception_4c/output <- inception_4c/5x5
I0511 03:57:22.427603 24731 net.cpp:372] inception_4c/output <- inception_4c/pool_proj
I0511 03:57:22.427609 24731 net.cpp:334] inception_4c/output -> inception_4c/output
I0511 03:57:22.427618 24731 net.cpp:105] Setting up inception_4c/output
I0511 03:57:22.427623 24731 net.cpp:112] Top shape: 32 512 14 14 (3211264)
I0511 03:57:22.427628 24731 layer_factory.hpp:74] Creating layer inception_4c/output_inception_4c/output_0_split
I0511 03:57:22.427652 24731 net.cpp:76] Creating Layer inception_4c/output_inception_4c/output_0_split
I0511 03:57:22.427659 24731 net.cpp:372] inception_4c/output_inception_4c/output_0_split <- inception_4c/output
I0511 03:57:22.427670 24731 net.cpp:334] inception_4c/output_inception_4c/output_0_split -> inception_4c/output_inception_4c/output_0_split_0
I0511 03:57:22.427680 24731 net.cpp:334] inception_4c/output_inception_4c/output_0_split -> inception_4c/output_inception_4c/output_0_split_1
I0511 03:57:22.427690 24731 net.cpp:334] inception_4c/output_inception_4c/output_0_split -> inception_4c/output_inception_4c/output_0_split_2
I0511 03:57:22.427697 24731 net.cpp:334] inception_4c/output_inception_4c/output_0_split -> inception_4c/output_inception_4c/output_0_split_3
I0511 03:57:22.427706 24731 net.cpp:105] Setting up inception_4c/output_inception_4c/output_0_split
I0511 03:57:22.427711 24731 net.cpp:112] Top shape: 32 512 14 14 (3211264)
I0511 03:57:22.427726 24731 net.cpp:112] Top shape: 32 512 14 14 (3211264)
I0511 03:57:22.427731 24731 net.cpp:112] Top shape: 32 512 14 14 (3211264)
I0511 03:57:22.427736 24731 net.cpp:112] Top shape: 32 512 14 14 (3211264)
I0511 03:57:22.427741 24731 layer_factory.hpp:74] Creating layer inception_4d/1x1
I0511 03:57:22.427750 24731 net.cpp:76] Creating Layer inception_4d/1x1
I0511 03:57:22.427757 24731 net.cpp:372] inception_4d/1x1 <- inception_4c/output_inception_4c/output_0_split_0
I0511 03:57:22.427764 24731 net.cpp:334] inception_4d/1x1 -> inception_4d/1x1
I0511 03:57:22.427773 24731 net.cpp:105] Setting up inception_4d/1x1
I0511 03:57:22.428264 24731 net.cpp:112] Top shape: 32 112 14 14 (702464)
I0511 03:57:22.428292 24731 layer_factory.hpp:74] Creating layer inception_4d/relu_1x1
I0511 03:57:22.428303 24731 net.cpp:76] Creating Layer inception_4d/relu_1x1
I0511 03:57:22.428308 24731 net.cpp:372] inception_4d/relu_1x1 <- inception_4d/1x1
I0511 03:57:22.428315 24731 net.cpp:323] inception_4d/relu_1x1 -> inception_4d/1x1 (in-place)
I0511 03:57:22.428323 24731 net.cpp:105] Setting up inception_4d/relu_1x1
I0511 03:57:22.428328 24731 net.cpp:112] Top shape: 32 112 14 14 (702464)
I0511 03:57:22.428334 24731 layer_factory.hpp:74] Creating layer inception_4d/3x3_reduce
I0511 03:57:22.428342 24731 net.cpp:76] Creating Layer inception_4d/3x3_reduce
I0511 03:57:22.428347 24731 net.cpp:372] inception_4d/3x3_reduce <- inception_4c/output_inception_4c/output_0_split_1
I0511 03:57:22.428357 24731 net.cpp:334] inception_4d/3x3_reduce -> inception_4d/3x3_reduce
I0511 03:57:22.428366 24731 net.cpp:105] Setting up inception_4d/3x3_reduce
I0511 03:57:22.428992 24731 net.cpp:112] Top shape: 32 144 14 14 (903168)
I0511 03:57:22.429019 24731 layer_factory.hpp:74] Creating layer inception_4d/relu_3x3_reduce
I0511 03:57:22.429028 24731 net.cpp:76] Creating Layer inception_4d/relu_3x3_reduce
I0511 03:57:22.429034 24731 net.cpp:372] inception_4d/relu_3x3_reduce <- inception_4d/3x3_reduce
I0511 03:57:22.429041 24731 net.cpp:323] inception_4d/relu_3x3_reduce -> inception_4d/3x3_reduce (in-place)
I0511 03:57:22.429049 24731 net.cpp:105] Setting up inception_4d/relu_3x3_reduce
I0511 03:57:22.429054 24731 net.cpp:112] Top shape: 32 144 14 14 (903168)
I0511 03:57:22.429060 24731 layer_factory.hpp:74] Creating layer inception_4d/3x3
I0511 03:57:22.429071 24731 net.cpp:76] Creating Layer inception_4d/3x3
I0511 03:57:22.429077 24731 net.cpp:372] inception_4d/3x3 <- inception_4d/3x3_reduce
I0511 03:57:22.429087 24731 net.cpp:334] inception_4d/3x3 -> inception_4d/3x3
I0511 03:57:22.429095 24731 net.cpp:105] Setting up inception_4d/3x3
I0511 03:57:22.432246 24731 net.cpp:112] Top shape: 32 288 14 14 (1806336)
I0511 03:57:22.432265 24731 layer_factory.hpp:74] Creating layer inception_4d/relu_3x3
I0511 03:57:22.432286 24731 net.cpp:76] Creating Layer inception_4d/relu_3x3
I0511 03:57:22.432292 24731 net.cpp:372] inception_4d/relu_3x3 <- inception_4d/3x3
I0511 03:57:22.432299 24731 net.cpp:323] inception_4d/relu_3x3 -> inception_4d/3x3 (in-place)
I0511 03:57:22.432308 24731 net.cpp:105] Setting up inception_4d/relu_3x3
I0511 03:57:22.433007 24731 net.cpp:112] Top shape: 32 288 14 14 (1806336)
I0511 03:57:22.433015 24731 layer_factory.hpp:74] Creating layer inception_4d/5x5_reduce
I0511 03:57:22.433027 24731 net.cpp:76] Creating Layer inception_4d/5x5_reduce
I0511 03:57:22.433034 24731 net.cpp:372] inception_4d/5x5_reduce <- inception_4c/output_inception_4c/output_0_split_2
I0511 03:57:22.433045 24731 net.cpp:334] inception_4d/5x5_reduce -> inception_4d/5x5_reduce
I0511 03:57:22.433055 24731 net.cpp:105] Setting up inception_4d/5x5_reduce
I0511 03:57:22.433200 24731 net.cpp:112] Top shape: 32 32 14 14 (200704)
I0511 03:57:22.433212 24731 layer_factory.hpp:74] Creating layer inception_4d/relu_5x5_reduce
I0511 03:57:22.433219 24731 net.cpp:76] Creating Layer inception_4d/relu_5x5_reduce
I0511 03:57:22.433225 24731 net.cpp:372] inception_4d/relu_5x5_reduce <- inception_4d/5x5_reduce
I0511 03:57:22.433234 24731 net.cpp:323] inception_4d/relu_5x5_reduce -> inception_4d/5x5_reduce (in-place)
I0511 03:57:22.433243 24731 net.cpp:105] Setting up inception_4d/relu_5x5_reduce
I0511 03:57:22.433248 24731 net.cpp:112] Top shape: 32 32 14 14 (200704)
I0511 03:57:22.433254 24731 layer_factory.hpp:74] Creating layer inception_4d/5x5
I0511 03:57:22.433260 24731 net.cpp:76] Creating Layer inception_4d/5x5
I0511 03:57:22.433266 24731 net.cpp:372] inception_4d/5x5 <- inception_4d/5x5_reduce
I0511 03:57:22.433290 24731 net.cpp:334] inception_4d/5x5 -> inception_4d/5x5
I0511 03:57:22.433300 24731 net.cpp:105] Setting up inception_4d/5x5
I0511 03:57:22.433749 24731 net.cpp:112] Top shape: 32 64 14 14 (401408)
I0511 03:57:22.433763 24731 layer_factory.hpp:74] Creating layer inception_4d/relu_5x5
I0511 03:57:22.433771 24731 net.cpp:76] Creating Layer inception_4d/relu_5x5
I0511 03:57:22.433778 24731 net.cpp:372] inception_4d/relu_5x5 <- inception_4d/5x5
I0511 03:57:22.433784 24731 net.cpp:323] inception_4d/relu_5x5 -> inception_4d/5x5 (in-place)
I0511 03:57:22.433792 24731 net.cpp:105] Setting up inception_4d/relu_5x5
I0511 03:57:22.433797 24731 net.cpp:112] Top shape: 32 64 14 14 (401408)
I0511 03:57:22.433804 24731 layer_factory.hpp:74] Creating layer inception_4d/pool
I0511 03:57:22.433814 24731 net.cpp:76] Creating Layer inception_4d/pool
I0511 03:57:22.433820 24731 net.cpp:372] inception_4d/pool <- inception_4c/output_inception_4c/output_0_split_3
I0511 03:57:22.433827 24731 net.cpp:334] inception_4d/pool -> inception_4d/pool
I0511 03:57:22.433835 24731 net.cpp:105] Setting up inception_4d/pool
I0511 03:57:22.433842 24731 net.cpp:112] Top shape: 32 512 14 14 (3211264)
I0511 03:57:22.433848 24731 layer_factory.hpp:74] Creating layer inception_4d/pool_proj
I0511 03:57:22.433876 24731 net.cpp:76] Creating Layer inception_4d/pool_proj
I0511 03:57:22.433881 24731 net.cpp:372] inception_4d/pool_proj <- inception_4d/pool
I0511 03:57:22.433892 24731 net.cpp:334] inception_4d/pool_proj -> inception_4d/pool_proj
I0511 03:57:22.433902 24731 net.cpp:105] Setting up inception_4d/pool_proj
I0511 03:57:22.434188 24731 net.cpp:112] Top shape: 32 64 14 14 (401408)
I0511 03:57:22.434201 24731 layer_factory.hpp:74] Creating layer inception_4d/relu_pool_proj
I0511 03:57:22.434208 24731 net.cpp:76] Creating Layer inception_4d/relu_pool_proj
I0511 03:57:22.434214 24731 net.cpp:372] inception_4d/relu_pool_proj <- inception_4d/pool_proj
I0511 03:57:22.434223 24731 net.cpp:323] inception_4d/relu_pool_proj -> inception_4d/pool_proj (in-place)
I0511 03:57:22.434232 24731 net.cpp:105] Setting up inception_4d/relu_pool_proj
I0511 03:57:22.434240 24731 net.cpp:112] Top shape: 32 64 14 14 (401408)
I0511 03:57:22.434247 24731 layer_factory.hpp:74] Creating layer inception_4d/output
I0511 03:57:22.434253 24731 net.cpp:76] Creating Layer inception_4d/output
I0511 03:57:22.434259 24731 net.cpp:372] inception_4d/output <- inception_4d/1x1
I0511 03:57:22.434265 24731 net.cpp:372] inception_4d/output <- inception_4d/3x3
I0511 03:57:22.434285 24731 net.cpp:372] inception_4d/output <- inception_4d/5x5
I0511 03:57:22.434293 24731 net.cpp:372] inception_4d/output <- inception_4d/pool_proj
I0511 03:57:22.434300 24731 net.cpp:334] inception_4d/output -> inception_4d/output
I0511 03:57:22.434309 24731 net.cpp:105] Setting up inception_4d/output
I0511 03:57:22.434314 24731 net.cpp:112] Top shape: 32 528 14 14 (3311616)
I0511 03:57:22.434320 24731 layer_factory.hpp:74] Creating layer inception_4d/output_inception_4d/output_0_split
I0511 03:57:22.434330 24731 net.cpp:76] Creating Layer inception_4d/output_inception_4d/output_0_split
I0511 03:57:22.434336 24731 net.cpp:372] inception_4d/output_inception_4d/output_0_split <- inception_4d/output
I0511 03:57:22.434345 24731 net.cpp:334] inception_4d/output_inception_4d/output_0_split -> inception_4d/output_inception_4d/output_0_split_0
I0511 03:57:22.434353 24731 net.cpp:334] inception_4d/output_inception_4d/output_0_split -> inception_4d/output_inception_4d/output_0_split_1
I0511 03:57:22.434362 24731 net.cpp:334] inception_4d/output_inception_4d/output_0_split -> inception_4d/output_inception_4d/output_0_split_2
I0511 03:57:22.434371 24731 net.cpp:334] inception_4d/output_inception_4d/output_0_split -> inception_4d/output_inception_4d/output_0_split_3
I0511 03:57:22.434379 24731 net.cpp:334] inception_4d/output_inception_4d/output_0_split -> inception_4d/output_inception_4d/output_0_split_4
I0511 03:57:22.434387 24731 net.cpp:105] Setting up inception_4d/output_inception_4d/output_0_split
I0511 03:57:22.434394 24731 net.cpp:112] Top shape: 32 528 14 14 (3311616)
I0511 03:57:22.434399 24731 net.cpp:112] Top shape: 32 528 14 14 (3311616)
I0511 03:57:22.434404 24731 net.cpp:112] Top shape: 32 528 14 14 (3311616)
I0511 03:57:22.434409 24731 net.cpp:112] Top shape: 32 528 14 14 (3311616)
I0511 03:57:22.434414 24731 net.cpp:112] Top shape: 32 528 14 14 (3311616)
I0511 03:57:22.434419 24731 layer_factory.hpp:74] Creating layer loss2/ave_pool
I0511 03:57:22.434430 24731 net.cpp:76] Creating Layer loss2/ave_pool
I0511 03:57:22.434437 24731 net.cpp:372] loss2/ave_pool <- inception_4d/output_inception_4d/output_0_split_0
I0511 03:57:22.434444 24731 net.cpp:334] loss2/ave_pool -> loss2/ave_pool
I0511 03:57:22.434453 24731 net.cpp:105] Setting up loss2/ave_pool
I0511 03:57:22.434458 24731 net.cpp:112] Top shape: 32 528 4 4 (270336)
I0511 03:57:22.434464 24731 layer_factory.hpp:74] Creating layer loss2/conv
I0511 03:57:22.434476 24731 net.cpp:76] Creating Layer loss2/conv
I0511 03:57:22.434483 24731 net.cpp:372] loss2/conv <- loss2/ave_pool
I0511 03:57:22.434490 24731 net.cpp:334] loss2/conv -> loss2/conv
I0511 03:57:22.434499 24731 net.cpp:105] Setting up loss2/conv
I0511 03:57:22.435070 24731 net.cpp:112] Top shape: 32 128 4 4 (65536)
I0511 03:57:22.435083 24731 layer_factory.hpp:74] Creating layer loss2/relu_conv
I0511 03:57:22.435108 24731 net.cpp:76] Creating Layer loss2/relu_conv
I0511 03:57:22.435116 24731 net.cpp:372] loss2/relu_conv <- loss2/conv
I0511 03:57:22.435124 24731 net.cpp:323] loss2/relu_conv -> loss2/conv (in-place)
I0511 03:57:22.435133 24731 net.cpp:105] Setting up loss2/relu_conv
I0511 03:57:22.435138 24731 net.cpp:112] Top shape: 32 128 4 4 (65536)
I0511 03:57:22.435144 24731 layer_factory.hpp:74] Creating layer loss2/fc
I0511 03:57:22.435153 24731 net.cpp:76] Creating Layer loss2/fc
I0511 03:57:22.435158 24731 net.cpp:372] loss2/fc <- loss2/conv
I0511 03:57:22.435168 24731 net.cpp:334] loss2/fc -> loss2/fc
I0511 03:57:22.435178 24731 net.cpp:105] Setting up loss2/fc
I0511 03:57:22.452551 24731 net.cpp:112] Top shape: 32 1024 1 1 (32768)
I0511 03:57:22.452591 24731 layer_factory.hpp:74] Creating layer loss2/relu_fc
I0511 03:57:22.452605 24731 net.cpp:76] Creating Layer loss2/relu_fc
I0511 03:57:22.452613 24731 net.cpp:372] loss2/relu_fc <- loss2/fc
I0511 03:57:22.452625 24731 net.cpp:323] loss2/relu_fc -> loss2/fc (in-place)
I0511 03:57:22.452636 24731 net.cpp:105] Setting up loss2/relu_fc
I0511 03:57:22.452641 24731 net.cpp:112] Top shape: 32 1024 1 1 (32768)
I0511 03:57:22.452646 24731 layer_factory.hpp:74] Creating layer loss2/drop_fc
I0511 03:57:22.452656 24731 net.cpp:76] Creating Layer loss2/drop_fc
I0511 03:57:22.452661 24731 net.cpp:372] loss2/drop_fc <- loss2/fc
I0511 03:57:22.452667 24731 net.cpp:323] loss2/drop_fc -> loss2/fc (in-place)
I0511 03:57:22.452675 24731 net.cpp:105] Setting up loss2/drop_fc
I0511 03:57:22.452682 24731 net.cpp:112] Top shape: 32 1024 1 1 (32768)
I0511 03:57:22.452687 24731 layer_factory.hpp:74] Creating layer loss2/classifier
I0511 03:57:22.452697 24731 net.cpp:76] Creating Layer loss2/classifier
I0511 03:57:22.452702 24731 net.cpp:372] loss2/classifier <- loss2/fc
I0511 03:57:22.452713 24731 net.cpp:334] loss2/classifier -> loss2/classifier
I0511 03:57:22.452723 24731 net.cpp:105] Setting up loss2/classifier
I0511 03:57:22.452756 24731 net.cpp:112] Top shape: 32 2 1 1 (64)
I0511 03:57:22.452771 24731 layer_factory.hpp:74] Creating layer loss2/loss
I0511 03:57:22.452780 24731 net.cpp:76] Creating Layer loss2/loss
I0511 03:57:22.452786 24731 net.cpp:372] loss2/loss <- loss2/classifier
I0511 03:57:22.452793 24731 net.cpp:372] loss2/loss <- label_data_1_split_1
I0511 03:57:22.452801 24731 net.cpp:334] loss2/loss -> loss2/loss1
I0511 03:57:22.452810 24731 net.cpp:105] Setting up loss2/loss
I0511 03:57:22.452817 24731 layer_factory.hpp:74] Creating layer loss2/loss
I0511 03:57:22.452832 24731 net.cpp:112] Top shape: 1 1 1 1 (1)
I0511 03:57:22.452838 24731 net.cpp:118]     with loss weight 0.3
I0511 03:57:22.452857 24731 layer_factory.hpp:74] Creating layer inception_4e/1x1
I0511 03:57:22.452869 24731 net.cpp:76] Creating Layer inception_4e/1x1
I0511 03:57:22.452877 24731 net.cpp:372] inception_4e/1x1 <- inception_4d/output_inception_4d/output_0_split_1
I0511 03:57:22.452885 24731 net.cpp:334] inception_4e/1x1 -> inception_4e/1x1
I0511 03:57:22.452894 24731 net.cpp:105] Setting up inception_4e/1x1
I0511 03:57:22.454051 24731 net.cpp:112] Top shape: 32 256 14 14 (1605632)
I0511 03:57:22.454067 24731 layer_factory.hpp:74] Creating layer inception_4e/relu_1x1
I0511 03:57:22.454076 24731 net.cpp:76] Creating Layer inception_4e/relu_1x1
I0511 03:57:22.454082 24731 net.cpp:372] inception_4e/relu_1x1 <- inception_4e/1x1
I0511 03:57:22.454088 24731 net.cpp:323] inception_4e/relu_1x1 -> inception_4e/1x1 (in-place)
I0511 03:57:22.454097 24731 net.cpp:105] Setting up inception_4e/relu_1x1
I0511 03:57:22.454102 24731 net.cpp:112] Top shape: 32 256 14 14 (1605632)
I0511 03:57:22.454107 24731 layer_factory.hpp:74] Creating layer inception_4e/3x3_reduce
I0511 03:57:22.454115 24731 net.cpp:76] Creating Layer inception_4e/3x3_reduce
I0511 03:57:22.454121 24731 net.cpp:372] inception_4e/3x3_reduce <- inception_4d/output_inception_4d/output_0_split_2
I0511 03:57:22.454133 24731 net.cpp:334] inception_4e/3x3_reduce -> inception_4e/3x3_reduce
I0511 03:57:22.454172 24731 net.cpp:105] Setting up inception_4e/3x3_reduce
I0511 03:57:22.454916 24731 net.cpp:112] Top shape: 32 160 14 14 (1003520)
I0511 03:57:22.454932 24731 layer_factory.hpp:74] Creating layer inception_4e/relu_3x3_reduce
I0511 03:57:22.454941 24731 net.cpp:76] Creating Layer inception_4e/relu_3x3_reduce
I0511 03:57:22.454952 24731 net.cpp:372] inception_4e/relu_3x3_reduce <- inception_4e/3x3_reduce
I0511 03:57:22.454959 24731 net.cpp:323] inception_4e/relu_3x3_reduce -> inception_4e/3x3_reduce (in-place)
I0511 03:57:22.454967 24731 net.cpp:105] Setting up inception_4e/relu_3x3_reduce
I0511 03:57:22.454973 24731 net.cpp:112] Top shape: 32 160 14 14 (1003520)
I0511 03:57:22.454978 24731 layer_factory.hpp:74] Creating layer inception_4e/3x3
I0511 03:57:22.454987 24731 net.cpp:76] Creating Layer inception_4e/3x3
I0511 03:57:22.454993 24731 net.cpp:372] inception_4e/3x3 <- inception_4e/3x3_reduce
I0511 03:57:22.455003 24731 net.cpp:334] inception_4e/3x3 -> inception_4e/3x3
I0511 03:57:22.455013 24731 net.cpp:105] Setting up inception_4e/3x3
I0511 03:57:22.458870 24731 net.cpp:112] Top shape: 32 320 14 14 (2007040)
I0511 03:57:22.458889 24731 layer_factory.hpp:74] Creating layer inception_4e/relu_3x3
I0511 03:57:22.458899 24731 net.cpp:76] Creating Layer inception_4e/relu_3x3
I0511 03:57:22.458904 24731 net.cpp:372] inception_4e/relu_3x3 <- inception_4e/3x3
I0511 03:57:22.458914 24731 net.cpp:323] inception_4e/relu_3x3 -> inception_4e/3x3 (in-place)
I0511 03:57:22.458922 24731 net.cpp:105] Setting up inception_4e/relu_3x3
I0511 03:57:22.458928 24731 net.cpp:112] Top shape: 32 320 14 14 (2007040)
I0511 03:57:22.458933 24731 layer_factory.hpp:74] Creating layer inception_4e/5x5_reduce
I0511 03:57:22.458942 24731 net.cpp:76] Creating Layer inception_4e/5x5_reduce
I0511 03:57:22.458948 24731 net.cpp:372] inception_4e/5x5_reduce <- inception_4d/output_inception_4d/output_0_split_3
I0511 03:57:22.458958 24731 net.cpp:334] inception_4e/5x5_reduce -> inception_4e/5x5_reduce
I0511 03:57:22.458967 24731 net.cpp:105] Setting up inception_4e/5x5_reduce
I0511 03:57:22.459117 24731 net.cpp:112] Top shape: 32 32 14 14 (200704)
I0511 03:57:22.459128 24731 layer_factory.hpp:74] Creating layer inception_4e/relu_5x5_reduce
I0511 03:57:22.459136 24731 net.cpp:76] Creating Layer inception_4e/relu_5x5_reduce
I0511 03:57:22.459141 24731 net.cpp:372] inception_4e/relu_5x5_reduce <- inception_4e/5x5_reduce
I0511 03:57:22.459148 24731 net.cpp:323] inception_4e/relu_5x5_reduce -> inception_4e/5x5_reduce (in-place)
I0511 03:57:22.459156 24731 net.cpp:105] Setting up inception_4e/relu_5x5_reduce
I0511 03:57:22.459161 24731 net.cpp:112] Top shape: 32 32 14 14 (200704)
I0511 03:57:22.459167 24731 layer_factory.hpp:74] Creating layer inception_4e/5x5
I0511 03:57:22.459194 24731 net.cpp:76] Creating Layer inception_4e/5x5
I0511 03:57:22.459202 24731 net.cpp:372] inception_4e/5x5 <- inception_4e/5x5_reduce
I0511 03:57:22.459213 24731 net.cpp:334] inception_4e/5x5 -> inception_4e/5x5
I0511 03:57:22.459223 24731 net.cpp:105] Setting up inception_4e/5x5
I0511 03:57:22.460090 24731 net.cpp:112] Top shape: 32 128 14 14 (802816)
I0511 03:57:22.460105 24731 layer_factory.hpp:74] Creating layer inception_4e/relu_5x5
I0511 03:57:22.460114 24731 net.cpp:76] Creating Layer inception_4e/relu_5x5
I0511 03:57:22.460119 24731 net.cpp:372] inception_4e/relu_5x5 <- inception_4e/5x5
I0511 03:57:22.460126 24731 net.cpp:323] inception_4e/relu_5x5 -> inception_4e/5x5 (in-place)
I0511 03:57:22.460134 24731 net.cpp:105] Setting up inception_4e/relu_5x5
I0511 03:57:22.460139 24731 net.cpp:112] Top shape: 32 128 14 14 (802816)
I0511 03:57:22.460144 24731 layer_factory.hpp:74] Creating layer inception_4e/pool
I0511 03:57:22.460155 24731 net.cpp:76] Creating Layer inception_4e/pool
I0511 03:57:22.460161 24731 net.cpp:372] inception_4e/pool <- inception_4d/output_inception_4d/output_0_split_4
I0511 03:57:22.460170 24731 net.cpp:334] inception_4e/pool -> inception_4e/pool
I0511 03:57:22.460178 24731 net.cpp:105] Setting up inception_4e/pool
I0511 03:57:22.460186 24731 net.cpp:112] Top shape: 32 528 14 14 (3311616)
I0511 03:57:22.460208 24731 layer_factory.hpp:74] Creating layer inception_4e/pool_proj
I0511 03:57:22.460221 24731 net.cpp:76] Creating Layer inception_4e/pool_proj
I0511 03:57:22.460227 24731 net.cpp:372] inception_4e/pool_proj <- inception_4e/pool
I0511 03:57:22.460234 24731 net.cpp:334] inception_4e/pool_proj -> inception_4e/pool_proj
I0511 03:57:22.460244 24731 net.cpp:105] Setting up inception_4e/pool_proj
I0511 03:57:22.460830 24731 net.cpp:112] Top shape: 32 128 14 14 (802816)
I0511 03:57:22.460844 24731 layer_factory.hpp:74] Creating layer inception_4e/relu_pool_proj
I0511 03:57:22.460852 24731 net.cpp:76] Creating Layer inception_4e/relu_pool_proj
I0511 03:57:22.460858 24731 net.cpp:372] inception_4e/relu_pool_proj <- inception_4e/pool_proj
I0511 03:57:22.460867 24731 net.cpp:323] inception_4e/relu_pool_proj -> inception_4e/pool_proj (in-place)
I0511 03:57:22.460876 24731 net.cpp:105] Setting up inception_4e/relu_pool_proj
I0511 03:57:22.460881 24731 net.cpp:112] Top shape: 32 128 14 14 (802816)
I0511 03:57:22.460887 24731 layer_factory.hpp:74] Creating layer inception_4e/output
I0511 03:57:22.460896 24731 net.cpp:76] Creating Layer inception_4e/output
I0511 03:57:22.460901 24731 net.cpp:372] inception_4e/output <- inception_4e/1x1
I0511 03:57:22.460907 24731 net.cpp:372] inception_4e/output <- inception_4e/3x3
I0511 03:57:22.460913 24731 net.cpp:372] inception_4e/output <- inception_4e/5x5
I0511 03:57:22.460919 24731 net.cpp:372] inception_4e/output <- inception_4e/pool_proj
I0511 03:57:22.460927 24731 net.cpp:334] inception_4e/output -> inception_4e/output
I0511 03:57:22.460934 24731 net.cpp:105] Setting up inception_4e/output
I0511 03:57:22.460940 24731 net.cpp:112] Top shape: 32 832 14 14 (5218304)
I0511 03:57:22.460947 24731 layer_factory.hpp:74] Creating layer pool4/3x3_s2
I0511 03:57:22.460957 24731 net.cpp:76] Creating Layer pool4/3x3_s2
I0511 03:57:22.460963 24731 net.cpp:372] pool4/3x3_s2 <- inception_4e/output
I0511 03:57:22.460970 24731 net.cpp:334] pool4/3x3_s2 -> pool4/3x3_s2
I0511 03:57:22.460980 24731 net.cpp:105] Setting up pool4/3x3_s2
I0511 03:57:22.460988 24731 net.cpp:112] Top shape: 32 832 7 7 (1304576)
I0511 03:57:22.460994 24731 layer_factory.hpp:74] Creating layer pool4/3x3_s2_pool4/3x3_s2_0_split
I0511 03:57:22.461000 24731 net.cpp:76] Creating Layer pool4/3x3_s2_pool4/3x3_s2_0_split
I0511 03:57:22.461009 24731 net.cpp:372] pool4/3x3_s2_pool4/3x3_s2_0_split <- pool4/3x3_s2
I0511 03:57:22.461016 24731 net.cpp:334] pool4/3x3_s2_pool4/3x3_s2_0_split -> pool4/3x3_s2_pool4/3x3_s2_0_split_0
I0511 03:57:22.461025 24731 net.cpp:334] pool4/3x3_s2_pool4/3x3_s2_0_split -> pool4/3x3_s2_pool4/3x3_s2_0_split_1
I0511 03:57:22.461033 24731 net.cpp:334] pool4/3x3_s2_pool4/3x3_s2_0_split -> pool4/3x3_s2_pool4/3x3_s2_0_split_2
I0511 03:57:22.461062 24731 net.cpp:334] pool4/3x3_s2_pool4/3x3_s2_0_split -> pool4/3x3_s2_pool4/3x3_s2_0_split_3
I0511 03:57:22.461071 24731 net.cpp:105] Setting up pool4/3x3_s2_pool4/3x3_s2_0_split
I0511 03:57:22.461079 24731 net.cpp:112] Top shape: 32 832 7 7 (1304576)
I0511 03:57:22.461084 24731 net.cpp:112] Top shape: 32 832 7 7 (1304576)
I0511 03:57:22.461089 24731 net.cpp:112] Top shape: 32 832 7 7 (1304576)
I0511 03:57:22.461093 24731 net.cpp:112] Top shape: 32 832 7 7 (1304576)
I0511 03:57:22.461099 24731 layer_factory.hpp:74] Creating layer inception_5a/1x1
I0511 03:57:22.461110 24731 net.cpp:76] Creating Layer inception_5a/1x1
I0511 03:57:22.461117 24731 net.cpp:372] inception_5a/1x1 <- pool4/3x3_s2_pool4/3x3_s2_0_split_0
I0511 03:57:22.461129 24731 net.cpp:334] inception_5a/1x1 -> inception_5a/1x1
I0511 03:57:22.461138 24731 net.cpp:105] Setting up inception_5a/1x1
I0511 03:57:22.462924 24731 net.cpp:112] Top shape: 32 256 7 7 (401408)
I0511 03:57:22.462939 24731 layer_factory.hpp:74] Creating layer inception_5a/relu_1x1
I0511 03:57:22.462949 24731 net.cpp:76] Creating Layer inception_5a/relu_1x1
I0511 03:57:22.462955 24731 net.cpp:372] inception_5a/relu_1x1 <- inception_5a/1x1
I0511 03:57:22.462962 24731 net.cpp:323] inception_5a/relu_1x1 -> inception_5a/1x1 (in-place)
I0511 03:57:22.462985 24731 net.cpp:105] Setting up inception_5a/relu_1x1
I0511 03:57:22.462991 24731 net.cpp:112] Top shape: 32 256 7 7 (401408)
I0511 03:57:22.462997 24731 layer_factory.hpp:74] Creating layer inception_5a/3x3_reduce
I0511 03:57:22.463007 24731 net.cpp:76] Creating Layer inception_5a/3x3_reduce
I0511 03:57:22.463014 24731 net.cpp:372] inception_5a/3x3_reduce <- pool4/3x3_s2_pool4/3x3_s2_0_split_1
I0511 03:57:22.463022 24731 net.cpp:334] inception_5a/3x3_reduce -> inception_5a/3x3_reduce
I0511 03:57:22.463032 24731 net.cpp:105] Setting up inception_5a/3x3_reduce
I0511 03:57:22.464159 24731 net.cpp:112] Top shape: 32 160 7 7 (250880)
I0511 03:57:22.464172 24731 layer_factory.hpp:74] Creating layer inception_5a/relu_3x3_reduce
I0511 03:57:22.464180 24731 net.cpp:76] Creating Layer inception_5a/relu_3x3_reduce
I0511 03:57:22.464186 24731 net.cpp:372] inception_5a/relu_3x3_reduce <- inception_5a/3x3_reduce
I0511 03:57:22.464193 24731 net.cpp:323] inception_5a/relu_3x3_reduce -> inception_5a/3x3_reduce (in-place)
I0511 03:57:22.464201 24731 net.cpp:105] Setting up inception_5a/relu_3x3_reduce
I0511 03:57:22.464207 24731 net.cpp:112] Top shape: 32 160 7 7 (250880)
I0511 03:57:22.464212 24731 layer_factory.hpp:74] Creating layer inception_5a/3x3
I0511 03:57:22.464223 24731 net.cpp:76] Creating Layer inception_5a/3x3
I0511 03:57:22.464228 24731 net.cpp:372] inception_5a/3x3 <- inception_5a/3x3_reduce
I0511 03:57:22.464236 24731 net.cpp:334] inception_5a/3x3 -> inception_5a/3x3
I0511 03:57:22.464246 24731 net.cpp:105] Setting up inception_5a/3x3
I0511 03:57:22.468092 24731 net.cpp:112] Top shape: 32 320 7 7 (501760)
I0511 03:57:22.468111 24731 layer_factory.hpp:74] Creating layer inception_5a/relu_3x3
I0511 03:57:22.468121 24731 net.cpp:76] Creating Layer inception_5a/relu_3x3
I0511 03:57:22.468127 24731 net.cpp:372] inception_5a/relu_3x3 <- inception_5a/3x3
I0511 03:57:22.468133 24731 net.cpp:323] inception_5a/relu_3x3 -> inception_5a/3x3 (in-place)
I0511 03:57:22.468142 24731 net.cpp:105] Setting up inception_5a/relu_3x3
I0511 03:57:22.468147 24731 net.cpp:112] Top shape: 32 320 7 7 (501760)
I0511 03:57:22.468152 24731 layer_factory.hpp:74] Creating layer inception_5a/5x5_reduce
I0511 03:57:22.468161 24731 net.cpp:76] Creating Layer inception_5a/5x5_reduce
I0511 03:57:22.468168 24731 net.cpp:372] inception_5a/5x5_reduce <- pool4/3x3_s2_pool4/3x3_s2_0_split_2
I0511 03:57:22.468178 24731 net.cpp:334] inception_5a/5x5_reduce -> inception_5a/5x5_reduce
I0511 03:57:22.468188 24731 net.cpp:105] Setting up inception_5a/5x5_reduce
I0511 03:57:22.468433 24731 net.cpp:112] Top shape: 32 32 7 7 (50176)
I0511 03:57:22.468446 24731 layer_factory.hpp:74] Creating layer inception_5a/relu_5x5_reduce
I0511 03:57:22.469159 24731 net.cpp:76] Creating Layer inception_5a/relu_5x5_reduce
I0511 03:57:22.469167 24731 net.cpp:372] inception_5a/relu_5x5_reduce <- inception_5a/5x5_reduce
I0511 03:57:22.469176 24731 net.cpp:323] inception_5a/relu_5x5_reduce -> inception_5a/5x5_reduce (in-place)
I0511 03:57:22.469183 24731 net.cpp:105] Setting up inception_5a/relu_5x5_reduce
I0511 03:57:22.469189 24731 net.cpp:112] Top shape: 32 32 7 7 (50176)
I0511 03:57:22.469194 24731 layer_factory.hpp:74] Creating layer inception_5a/5x5
I0511 03:57:22.469205 24731 net.cpp:76] Creating Layer inception_5a/5x5
I0511 03:57:22.469211 24731 net.cpp:372] inception_5a/5x5 <- inception_5a/5x5_reduce
I0511 03:57:22.469219 24731 net.cpp:334] inception_5a/5x5 -> inception_5a/5x5
I0511 03:57:22.469228 24731 net.cpp:105] Setting up inception_5a/5x5
I0511 03:57:22.470098 24731 net.cpp:112] Top shape: 32 128 7 7 (200704)
I0511 03:57:22.470114 24731 layer_factory.hpp:74] Creating layer inception_5a/relu_5x5
I0511 03:57:22.470123 24731 net.cpp:76] Creating Layer inception_5a/relu_5x5
I0511 03:57:22.470129 24731 net.cpp:372] inception_5a/relu_5x5 <- inception_5a/5x5
I0511 03:57:22.470136 24731 net.cpp:323] inception_5a/relu_5x5 -> inception_5a/5x5 (in-place)
I0511 03:57:22.470144 24731 net.cpp:105] Setting up inception_5a/relu_5x5
I0511 03:57:22.470168 24731 net.cpp:112] Top shape: 32 128 7 7 (200704)
I0511 03:57:22.470175 24731 layer_factory.hpp:74] Creating layer inception_5a/pool
I0511 03:57:22.470185 24731 net.cpp:76] Creating Layer inception_5a/pool
I0511 03:57:22.470196 24731 net.cpp:372] inception_5a/pool <- pool4/3x3_s2_pool4/3x3_s2_0_split_3
I0511 03:57:22.470206 24731 net.cpp:334] inception_5a/pool -> inception_5a/pool
I0511 03:57:22.470214 24731 net.cpp:105] Setting up inception_5a/pool
I0511 03:57:22.470221 24731 net.cpp:112] Top shape: 32 832 7 7 (1304576)
I0511 03:57:22.470227 24731 layer_factory.hpp:74] Creating layer inception_5a/pool_proj
I0511 03:57:22.470237 24731 net.cpp:76] Creating Layer inception_5a/pool_proj
I0511 03:57:22.470244 24731 net.cpp:372] inception_5a/pool_proj <- inception_5a/pool
I0511 03:57:22.470252 24731 net.cpp:334] inception_5a/pool_proj -> inception_5a/pool_proj
I0511 03:57:22.470262 24731 net.cpp:105] Setting up inception_5a/pool_proj
I0511 03:57:22.471168 24731 net.cpp:112] Top shape: 32 128 7 7 (200704)
I0511 03:57:22.471181 24731 layer_factory.hpp:74] Creating layer inception_5a/relu_pool_proj
I0511 03:57:22.471189 24731 net.cpp:76] Creating Layer inception_5a/relu_pool_proj
I0511 03:57:22.471195 24731 net.cpp:372] inception_5a/relu_pool_proj <- inception_5a/pool_proj
I0511 03:57:22.471205 24731 net.cpp:323] inception_5a/relu_pool_proj -> inception_5a/pool_proj (in-place)
I0511 03:57:22.471213 24731 net.cpp:105] Setting up inception_5a/relu_pool_proj
I0511 03:57:22.471220 24731 net.cpp:112] Top shape: 32 128 7 7 (200704)
I0511 03:57:22.471225 24731 layer_factory.hpp:74] Creating layer inception_5a/output
I0511 03:57:22.471232 24731 net.cpp:76] Creating Layer inception_5a/output
I0511 03:57:22.471251 24731 net.cpp:372] inception_5a/output <- inception_5a/1x1
I0511 03:57:22.471259 24731 net.cpp:372] inception_5a/output <- inception_5a/3x3
I0511 03:57:22.471266 24731 net.cpp:372] inception_5a/output <- inception_5a/5x5
I0511 03:57:22.471272 24731 net.cpp:372] inception_5a/output <- inception_5a/pool_proj
I0511 03:57:22.471279 24731 net.cpp:334] inception_5a/output -> inception_5a/output
I0511 03:57:22.471287 24731 net.cpp:105] Setting up inception_5a/output
I0511 03:57:22.471294 24731 net.cpp:112] Top shape: 32 832 7 7 (1304576)
I0511 03:57:22.471299 24731 layer_factory.hpp:74] Creating layer inception_5a/output_inception_5a/output_0_split
I0511 03:57:22.471307 24731 net.cpp:76] Creating Layer inception_5a/output_inception_5a/output_0_split
I0511 03:57:22.471312 24731 net.cpp:372] inception_5a/output_inception_5a/output_0_split <- inception_5a/output
I0511 03:57:22.471323 24731 net.cpp:334] inception_5a/output_inception_5a/output_0_split -> inception_5a/output_inception_5a/output_0_split_0
I0511 03:57:22.471333 24731 net.cpp:334] inception_5a/output_inception_5a/output_0_split -> inception_5a/output_inception_5a/output_0_split_1
I0511 03:57:22.471341 24731 net.cpp:334] inception_5a/output_inception_5a/output_0_split -> inception_5a/output_inception_5a/output_0_split_2
I0511 03:57:22.471351 24731 net.cpp:334] inception_5a/output_inception_5a/output_0_split -> inception_5a/output_inception_5a/output_0_split_3
I0511 03:57:22.471359 24731 net.cpp:105] Setting up inception_5a/output_inception_5a/output_0_split
I0511 03:57:22.471365 24731 net.cpp:112] Top shape: 32 832 7 7 (1304576)
I0511 03:57:22.471371 24731 net.cpp:112] Top shape: 32 832 7 7 (1304576)
I0511 03:57:22.471375 24731 net.cpp:112] Top shape: 32 832 7 7 (1304576)
I0511 03:57:22.471380 24731 net.cpp:112] Top shape: 32 832 7 7 (1304576)
I0511 03:57:22.471385 24731 layer_factory.hpp:74] Creating layer inception_5b/1x1
I0511 03:57:22.471395 24731 net.cpp:76] Creating Layer inception_5b/1x1
I0511 03:57:22.471401 24731 net.cpp:372] inception_5b/1x1 <- inception_5a/output_inception_5a/output_0_split_0
I0511 03:57:22.471410 24731 net.cpp:334] inception_5b/1x1 -> inception_5b/1x1
I0511 03:57:22.471418 24731 net.cpp:105] Setting up inception_5b/1x1
I0511 03:57:22.474092 24731 net.cpp:112] Top shape: 32 384 7 7 (602112)
I0511 03:57:22.474109 24731 layer_factory.hpp:74] Creating layer inception_5b/relu_1x1
I0511 03:57:22.474133 24731 net.cpp:76] Creating Layer inception_5b/relu_1x1
I0511 03:57:22.474141 24731 net.cpp:372] inception_5b/relu_1x1 <- inception_5b/1x1
I0511 03:57:22.474148 24731 net.cpp:323] inception_5b/relu_1x1 -> inception_5b/1x1 (in-place)
I0511 03:57:22.474156 24731 net.cpp:105] Setting up inception_5b/relu_1x1
I0511 03:57:22.474161 24731 net.cpp:112] Top shape: 32 384 7 7 (602112)
I0511 03:57:22.474167 24731 layer_factory.hpp:74] Creating layer inception_5b/3x3_reduce
I0511 03:57:22.474179 24731 net.cpp:76] Creating Layer inception_5b/3x3_reduce
I0511 03:57:22.474186 24731 net.cpp:372] inception_5b/3x3_reduce <- inception_5a/output_inception_5a/output_0_split_1
I0511 03:57:22.474195 24731 net.cpp:334] inception_5b/3x3_reduce -> inception_5b/3x3_reduce
I0511 03:57:22.474206 24731 net.cpp:105] Setting up inception_5b/3x3_reduce
I0511 03:57:22.475566 24731 net.cpp:112] Top shape: 32 192 7 7 (301056)
I0511 03:57:22.475581 24731 layer_factory.hpp:74] Creating layer inception_5b/relu_3x3_reduce
I0511 03:57:22.475590 24731 net.cpp:76] Creating Layer inception_5b/relu_3x3_reduce
I0511 03:57:22.475596 24731 net.cpp:372] inception_5b/relu_3x3_reduce <- inception_5b/3x3_reduce
I0511 03:57:22.475606 24731 net.cpp:323] inception_5b/relu_3x3_reduce -> inception_5b/3x3_reduce (in-place)
I0511 03:57:22.475615 24731 net.cpp:105] Setting up inception_5b/relu_3x3_reduce
I0511 03:57:22.475620 24731 net.cpp:112] Top shape: 32 192 7 7 (301056)
I0511 03:57:22.475626 24731 layer_factory.hpp:74] Creating layer inception_5b/3x3
I0511 03:57:22.475635 24731 net.cpp:76] Creating Layer inception_5b/3x3
I0511 03:57:22.475639 24731 net.cpp:372] inception_5b/3x3 <- inception_5b/3x3_reduce
I0511 03:57:22.475649 24731 net.cpp:334] inception_5b/3x3 -> inception_5b/3x3
I0511 03:57:22.475678 24731 net.cpp:105] Setting up inception_5b/3x3
I0511 03:57:22.481199 24731 net.cpp:112] Top shape: 32 384 7 7 (602112)
I0511 03:57:22.481227 24731 layer_factory.hpp:74] Creating layer inception_5b/relu_3x3
I0511 03:57:22.481238 24731 net.cpp:76] Creating Layer inception_5b/relu_3x3
I0511 03:57:22.481245 24731 net.cpp:372] inception_5b/relu_3x3 <- inception_5b/3x3
I0511 03:57:22.481256 24731 net.cpp:323] inception_5b/relu_3x3 -> inception_5b/3x3 (in-place)
I0511 03:57:22.481266 24731 net.cpp:105] Setting up inception_5b/relu_3x3
I0511 03:57:22.481287 24731 net.cpp:112] Top shape: 32 384 7 7 (602112)
I0511 03:57:22.481292 24731 layer_factory.hpp:74] Creating layer inception_5b/5x5_reduce
I0511 03:57:22.481302 24731 net.cpp:76] Creating Layer inception_5b/5x5_reduce
I0511 03:57:22.481308 24731 net.cpp:372] inception_5b/5x5_reduce <- inception_5a/output_inception_5a/output_0_split_2
I0511 03:57:22.481317 24731 net.cpp:334] inception_5b/5x5_reduce -> inception_5b/5x5_reduce
I0511 03:57:22.481328 24731 net.cpp:105] Setting up inception_5b/5x5_reduce
I0511 03:57:22.481670 24731 net.cpp:112] Top shape: 32 48 7 7 (75264)
I0511 03:57:22.481683 24731 layer_factory.hpp:74] Creating layer inception_5b/relu_5x5_reduce
I0511 03:57:22.481690 24731 net.cpp:76] Creating Layer inception_5b/relu_5x5_reduce
I0511 03:57:22.481696 24731 net.cpp:372] inception_5b/relu_5x5_reduce <- inception_5b/5x5_reduce
I0511 03:57:22.481706 24731 net.cpp:323] inception_5b/relu_5x5_reduce -> inception_5b/5x5_reduce (in-place)
I0511 03:57:22.481714 24731 net.cpp:105] Setting up inception_5b/relu_5x5_reduce
I0511 03:57:22.481720 24731 net.cpp:112] Top shape: 32 48 7 7 (75264)
I0511 03:57:22.481725 24731 layer_factory.hpp:74] Creating layer inception_5b/5x5
I0511 03:57:22.481739 24731 net.cpp:76] Creating Layer inception_5b/5x5
I0511 03:57:22.481745 24731 net.cpp:372] inception_5b/5x5 <- inception_5b/5x5_reduce
I0511 03:57:22.481753 24731 net.cpp:334] inception_5b/5x5 -> inception_5b/5x5
I0511 03:57:22.481761 24731 net.cpp:105] Setting up inception_5b/5x5
I0511 03:57:22.483055 24731 net.cpp:112] Top shape: 32 128 7 7 (200704)
I0511 03:57:22.483069 24731 layer_factory.hpp:74] Creating layer inception_5b/relu_5x5
I0511 03:57:22.483079 24731 net.cpp:76] Creating Layer inception_5b/relu_5x5
I0511 03:57:22.483113 24731 net.cpp:372] inception_5b/relu_5x5 <- inception_5b/5x5
I0511 03:57:22.483121 24731 net.cpp:323] inception_5b/relu_5x5 -> inception_5b/5x5 (in-place)
I0511 03:57:22.483129 24731 net.cpp:105] Setting up inception_5b/relu_5x5
I0511 03:57:22.483134 24731 net.cpp:112] Top shape: 32 128 7 7 (200704)
I0511 03:57:22.483140 24731 layer_factory.hpp:74] Creating layer inception_5b/pool
I0511 03:57:22.483149 24731 net.cpp:76] Creating Layer inception_5b/pool
I0511 03:57:22.483155 24731 net.cpp:372] inception_5b/pool <- inception_5a/output_inception_5a/output_0_split_3
I0511 03:57:22.483162 24731 net.cpp:334] inception_5b/pool -> inception_5b/pool
I0511 03:57:22.483171 24731 net.cpp:105] Setting up inception_5b/pool
I0511 03:57:22.483180 24731 net.cpp:112] Top shape: 32 832 7 7 (1304576)
I0511 03:57:22.483185 24731 layer_factory.hpp:74] Creating layer inception_5b/pool_proj
I0511 03:57:22.483196 24731 net.cpp:76] Creating Layer inception_5b/pool_proj
I0511 03:57:22.483202 24731 net.cpp:372] inception_5b/pool_proj <- inception_5b/pool
I0511 03:57:22.483212 24731 net.cpp:334] inception_5b/pool_proj -> inception_5b/pool_proj
I0511 03:57:22.483222 24731 net.cpp:105] Setting up inception_5b/pool_proj
I0511 03:57:22.484129 24731 net.cpp:112] Top shape: 32 128 7 7 (200704)
I0511 03:57:22.484143 24731 layer_factory.hpp:74] Creating layer inception_5b/relu_pool_proj
I0511 03:57:22.484153 24731 net.cpp:76] Creating Layer inception_5b/relu_pool_proj
I0511 03:57:22.484159 24731 net.cpp:372] inception_5b/relu_pool_proj <- inception_5b/pool_proj
I0511 03:57:22.484168 24731 net.cpp:323] inception_5b/relu_pool_proj -> inception_5b/pool_proj (in-place)
I0511 03:57:22.484175 24731 net.cpp:105] Setting up inception_5b/relu_pool_proj
I0511 03:57:22.484180 24731 net.cpp:112] Top shape: 32 128 7 7 (200704)
I0511 03:57:22.484186 24731 layer_factory.hpp:74] Creating layer inception_5b/output
I0511 03:57:22.484194 24731 net.cpp:76] Creating Layer inception_5b/output
I0511 03:57:22.484200 24731 net.cpp:372] inception_5b/output <- inception_5b/1x1
I0511 03:57:22.484206 24731 net.cpp:372] inception_5b/output <- inception_5b/3x3
I0511 03:57:22.484212 24731 net.cpp:372] inception_5b/output <- inception_5b/5x5
I0511 03:57:22.484218 24731 net.cpp:372] inception_5b/output <- inception_5b/pool_proj
I0511 03:57:22.484227 24731 net.cpp:334] inception_5b/output -> inception_5b/output
I0511 03:57:22.484236 24731 net.cpp:105] Setting up inception_5b/output
I0511 03:57:22.484242 24731 net.cpp:112] Top shape: 32 1024 7 7 (1605632)
I0511 03:57:22.484247 24731 layer_factory.hpp:74] Creating layer pool5/7x7_s1
I0511 03:57:22.484256 24731 net.cpp:76] Creating Layer pool5/7x7_s1
I0511 03:57:22.484261 24731 net.cpp:372] pool5/7x7_s1 <- inception_5b/output
I0511 03:57:22.484268 24731 net.cpp:334] pool5/7x7_s1 -> pool5/7x7_s1
I0511 03:57:22.484289 24731 net.cpp:105] Setting up pool5/7x7_s1
I0511 03:57:22.484297 24731 net.cpp:112] Top shape: 32 1024 1 1 (32768)
I0511 03:57:22.484302 24731 layer_factory.hpp:74] Creating layer pool5/drop_7x7_s1
I0511 03:57:22.484313 24731 net.cpp:76] Creating Layer pool5/drop_7x7_s1
I0511 03:57:22.484318 24731 net.cpp:372] pool5/drop_7x7_s1 <- pool5/7x7_s1
I0511 03:57:22.484325 24731 net.cpp:323] pool5/drop_7x7_s1 -> pool5/7x7_s1 (in-place)
I0511 03:57:22.484333 24731 net.cpp:105] Setting up pool5/drop_7x7_s1
I0511 03:57:22.484339 24731 net.cpp:112] Top shape: 32 1024 1 1 (32768)
I0511 03:57:22.484345 24731 layer_factory.hpp:74] Creating layer loss3/classifier
I0511 03:57:22.484354 24731 net.cpp:76] Creating Layer loss3/classifier
I0511 03:57:22.484359 24731 net.cpp:372] loss3/classifier <- pool5/7x7_s1
I0511 03:57:22.484369 24731 net.cpp:334] loss3/classifier -> loss3/classifier
I0511 03:57:22.484379 24731 net.cpp:105] Setting up loss3/classifier
I0511 03:57:22.484410 24731 net.cpp:112] Top shape: 32 2 1 1 (64)
I0511 03:57:22.484419 24731 layer_factory.hpp:74] Creating layer loss3/loss3
I0511 03:57:22.484431 24731 net.cpp:76] Creating Layer loss3/loss3
I0511 03:57:22.484436 24731 net.cpp:372] loss3/loss3 <- loss3/classifier
I0511 03:57:22.484462 24731 net.cpp:372] loss3/loss3 <- label_data_1_split_2
I0511 03:57:22.484470 24731 net.cpp:334] loss3/loss3 -> loss3/loss3
I0511 03:57:22.484479 24731 net.cpp:105] Setting up loss3/loss3
I0511 03:57:22.484488 24731 layer_factory.hpp:74] Creating layer loss3/loss3
I0511 03:57:22.484503 24731 net.cpp:112] Top shape: 1 1 1 1 (1)
I0511 03:57:22.484508 24731 net.cpp:118]     with loss weight 1
I0511 03:57:22.484526 24731 net.cpp:163] loss3/loss3 needs backward computation.
I0511 03:57:22.484531 24731 net.cpp:163] loss3/classifier needs backward computation.
I0511 03:57:22.484555 24731 net.cpp:163] pool5/drop_7x7_s1 needs backward computation.
I0511 03:57:22.484562 24731 net.cpp:163] pool5/7x7_s1 needs backward computation.
…
I0511 03:57:22.492522 24731 solver.cpp:154] Creating test net (#0) specified by net file: ../../train_val.prototxt
I0511 03:57:22.492744 24731 net.cpp:253] The NetState phase (1) differed from the phase (0) specified by a rule in layer data
I0511 03:57:22.494124 24731 net.cpp:42] Initializing net from parameters: 
name: "GoogleNet"
state {
  phase: TEST
}
layer {
  name: "data"
  type: "Data"
  top: "data"
  top: "label"
  include {
    phase: TEST
  }
  transform_param {
    mirror: false
    crop_size: 224
    mean_value: 104
    mean_value: 117
    mean_value: 123
  }
  data_param {
    source: "val_lmdb"
    batch_size: 32
    backend: LMDB
  }
}
layer {
  name: "conv1/7x7_s2"
  type: "Convolution"
  bottom: "data"
  top: "conv1/7x7_s2"
  param {
    lr_mult: 1
    decay_mult: 1
  }
  param {
    lr_mult: 2
    decay_mult: 0
  }
  convolution_param {
    num_output: 64
    pad: 3
    kernel_size: 7
    stride: 2
    weight_filler {
      type: "xavier"
      std: 0.1
    }
    bias_filler {
      type: "constant"
      value: 0.2
    }
  }
}
layer {
  name: "conv1/relu_7x7"
  type: "ReLU"
  bottom: "conv1/7x7_s2"
  top: "conv1/7x7_s2"
}
layer {
  name: "pool1/3x3_s2"
  type: "Pooling"
  bottom: "conv1/7x7_s2"
  top: "pool1/3x3_s2"
  pooling_param {
    pool: MAX
    kernel_size: 3
    stride: 2
  }
}
layer {
  name: "pool1/norm1"
  type: "LRN"
  bottom: "pool1/3x3_s2"
  top: "pool1/norm1"
  lrn_param {
    local_size: 5
    alpha: 0.0001
    beta: 0.75
  }
}
layer {
  name: "conv2/3x3_reduce"
  type: "Convolution"
  bottom: "pool1/norm1"
  top: "conv2/3x3_reduce"
  param {
    lr_mult: 1
    decay_mult: 1
  }
  param {
    lr_mult: 2
    decay_mult: 0
  }
  convolution_param {
    num_output: 64
    kernel_size: 1
    weight_filler {
      type: "xavier"
      std: 0.1
    }
    bias_filler {
      type: "constant"
      value: 0.2
    }
  }
}
layer {
  name: "conv2/relu_3x3_reduce"
  type: "ReLU"
  bottom: "conv2/3x3_reduce"
  top: "conv2/3x3_reduce"
}
layer {
  name: "conv2/3x3"
  type: "Convolution"
  bottom: "conv2/3x3_reduce"
  top: "conv2/3x3"
  param {
    lr_mult: 1
    decay_mult: 1
  }
  param {
    lr_mult: 2
    decay_mult: 0
  }
  convolution_param {
    num_output: 192
    pad: 1
    kernel_size: 3
    weight_filler {
      type: "xavier"
      std: 0.03
    }
    bias_filler {
      type: "constant"
      value: 0.2
    }
  }
}
layer {
  name: "conv2/relu_3x3"
  type: "ReLU"
  bottom: "conv2/3x3"
  top: "conv2/3x3"
}
layer {
  name: "conv2/norm2"
  type: "LRN"
  bottom: "conv2/3x3"
  top: "conv2/norm2"
  lrn_param {
    local_size: 5
    alpha: 0.0001
    beta: 0.75
  }
}
layer {
  name: "pool2/3x3_s2"
  type: "Pooling"
  bottom: "conv2/norm2"
  top: "pool2/3x3_s2"
  pooling_param {
    pool: MAX
    kernel_size: 3
    stride: 2
  }
}
layer {
  name: "inception_3a/1x1"
  type: "Convolution"
  bottom: "pool2/3x3_s2"
  top: "inception_3a/1x1"
  param {
    lr_mult: 1
    decay_mult: 1
  }
  param {
    lr_mult: 2
    decay_mult: 0
  }
  convolution_param {
    num_output: 64
    kernel_size: 1
    weight_filler {
      type: "xavier"
      std: 0.03
    }
    bias_filler {
      type: "constant"
      value: 0.2
    }
  }
}
layer {
  name: "inception_3a/relu_1x1"
  type: "ReLU"
  bottom: "inception_3a/1x1"
  top: "inception_3a/1x1"
}
layer {
  name: "inception_3a/3x3_reduce"
  type: "Convolution"
  bottom: "pool2/3x3_s2"
  top: "inception_3a/3x3_reduce"
  param {
    lr_mult: 1
    decay_mult: 1
  }
  param {
    lr_mult: 2
    decay_mult: 0
  }
  convolution_param {
    num_output: 96
    kernel_size: 1
    weight_filler {
      type: "xavier"
      std: 0.09
    }
    bias_filler {
      type: "constant"
      value: 0.2
    }
  }
}
layer {
  name: "inception_3a/relu_3x3_reduce"
  type: "ReLU"
  bottom: "inception_3a/3x3_reduce"
  top: "inception_3a/3x3_reduce"
}
layer {
  name: "inception_3a/3x3"
  type: "Convolution"
  bottom: "inception_3a/3x3_reduce"
  top: "inception_3a/3x3"
  param {
    lr_mult: 1
    decay_mult: 1
  }
  param {
    lr_mult: 2
    decay_mult: 0
  }
  convolution_param {
    num_output: 128
    pad: 1
    kernel_size: 3
    weight_filler {
      type: "xavier"
      std: 0.03
    }
    bias_filler {
      type: "constant"
      value: 0.2
    }
  }
}
layer {
  name: "inception_3a/relu_3x3"
  type: "ReLU"
  bottom: "inception_3a/3x3"
  top: "inception_3a/3x3"
}
layer {
  name: "inception_3a/5x5_reduce"
  type: "Convolution"
  bottom: "pool2/3x3_s2"
  top: "inception_3a/5x5_reduce"
  param {
    lr_mult: 1
    decay_mult: 1
  }
  param {
    lr_mult: 2
    decay_mult: 0
  }
  convolution_param {
    num_output: 16
    kernel_size: 1
    weight_filler {
      type: "xavier"
      std: 0.2
    }
    bias_filler {
      type: "constant"
      value: 0.2
    }
  }
}
layer {
  name: "inception_3a/relu_5x5_reduce"
  type: "ReLU"
  bottom: "inception_3a/5x5_reduce"
  top: "inception_3a/5x5_reduce"
}
layer {
  name: "inception_3a/5x5"
  type: "Convolution"
  bottom: "inception_3a/5x5_reduce"
  top: "inception_3a/5x5"
  param {
    lr_mult: 1
    decay_mult: 1
  }
  param {
    lr_mult: 2
    decay_mult: 0
  }
  convolution_param {
    num_output: 32
    pad: 2
    kernel_size: 5
    weight_filler {
      type: "xavier"
      std: 0.03
    }
    bias_filler {
      type: "constant"
      value: 0.2
    }
  }
}
layer {
  name: "inception_3a/relu_5x5"
  type: "ReLU"
  bottom: "inception_3a/5x5"
  top: "inception_3a/5x5"
}
layer {
  name: "inception_3a/pool"
  type: "Pooling"
  bottom: "pool2/3x3_s2"
  top: "inception_3a/pool"
  pooling_param {
    pool: MAX
    kernel_size: 3
    stride: 1
    pad: 1
  }
}
layer {
  name: "inception_3a/pool_proj"
  type: "Convolution"
  bottom: "inception_3a/pool"
  top: "inception_3a/pool_proj"
  param {
    lr_mult: 1
    decay_mult: 1
  }
  param {
    lr_mult: 2
    decay_mult: 0
  }
  convolution_param {
    num_output: 32
    kernel_size: 1
    weight_filler {
      type: "xavier"
      std: 0.1
    }
    bias_filler {
      type: "constant"
      value: 0.2
    }
  }
}
layer {
  name: "inception_3a/relu_pool_proj"
  type: "ReLU"
  bottom: "inception_3a/pool_proj"
  top: "inception_3a/pool_proj"
}
layer {
  name: "inception_3a/output"
  type: "Concat"
  bottom: "inception_3a/1x1"
  bottom: "inception_3a/3x3"
  bottom: "inception_3a/5x5"
  bottom: "inception_3a/pool_proj"
  top: "inception_3a/output"
}
layer {
  name: "inception_3b/1x1"
  type: "Convolution"
  bottom: "inception_3a/output"
  top: "inception_3b/1x1"
  param {
    lr_mult: 1
    decay_mult: 1
  }
  param {
    lr_mult: 2
    decay_mult: 0
  }
  convolution_param {
    num_output: 128
    kernel_size: 1
    weight_filler {
      type: "xavier"
      std: 0.03
    }
    bias_filler {
      type: "constant"
      value: 0.2
    }
  }
}
layer {
  name: "inception_3b/relu_1x1"
  type: "ReLU"
  bottom: "inception_3b/1x1"
  top: "inception_3b/1x1"
}
layer {
  name: "inception_3b/3x3_reduce"
  type: "Convolution"
  bottom: "inception_3a/output"
  top: "inception_3b/3x3_reduce"
  param {
    lr_mult: 1
    decay_mult: 1
  }
  param {
    lr_mult: 2
    decay_mult: 0
  }
  convolution_param {
    num_output: 128
    kernel_size: 1
    weight_filler {
      type: "xavier"
      std: 0.09
    }
    bias_filler {
      type: "constant"
      value: 0.2
    }
  }
}
layer {
  name: "inception_3b/relu_3x3_reduce"
  type: "ReLU"
  bottom: "inception_3b/3x3_reduce"
  top: "inception_3b/3x3_reduce"
}
layer {
  name: "inception_3b/3x3"
  type: "Convolution"
  bottom: "inception_3b/3x3_reduce"
  top: "inception_3b/3x3"
  param {
    lr_mult: 1
    decay_mult: 1
  }
  param {
    lr_mult: 2
    decay_mult: 0
  }
  convolution_param {
    num_output: 192
    pad: 1
    kernel_size: 3
    weight_filler {
      type: "xavier"
      std: 0.03
    }
    bias_filler {
      type: "constant"
      value: 0.2
    }
  }
}
layer {
  name: "inception_3b/relu_3x3"
  type: "ReLU"
  bottom: "inception_3b/3x3"
  top: "inception_3b/3x3"
}
layer {
  name: "inception_3b/5x5_reduce"
  type: "Convolution"
  bottom: "inception_3a/output"
  top: "inception_3b/5x5_reduce"
  param {
    lr_mult: 1
    decay_mult: 1
  }
  param {
    lr_mult: 2
    decay_mult: 0
  }
  convolution_param {
    num_output: 32
    kernel_size: 1
    weight_filler {
      type: "xavier"
      std: 0.2
    }
    bias_filler {
      type: "constant"
      value: 0.2
    }
  }
}
layer {
  name: "inception_3b/relu_5x5_reduce"
  type: "ReLU"
  bottom: "inception_3b/5x5_reduce"
  top: "inception_3b/5x5_reduce"
}
layer {
  name: "inception_3b/5x5"
  type: "Convolution"
  bottom: "inception_3b/5x5_reduce"
  top: "inception_3b/5x5"
  param {
    lr_mult: 1
    decay_mult: 1
  }
  param {
    lr_mult: 2
    decay_mult: 0
  }
  convolution_param {
    num_output: 96
    pad: 2
    kernel_size: 5
    weight_filler {
      type: "xavier"
      std: 0.03
    }
    bias_filler {
      type: "constant"
      value: 0.2
    }
  }
}
layer {
  name: "inception_3b/relu_5x5"
  type: "ReLU"
  bottom: "inception_3b/5x5"
  top: "inception_3b/5x5"
}
layer {
  name: "inception_3b/pool"
  type: "Pooling"
  bottom: "inception_3a/output"
  top: "inception_3b/pool"
  pooling_param {
    pool: MAX
    kernel_size: 3
    stride: 1
    pad: 1
  }
}
layer {
  name: "inception_3b/pool_proj"
  type: "Convolution"
  bottom: "inception_3b/pool"
  top: "inception_3b/pool_proj"
  param {
    lr_mult: 1
    decay_mult: 1
  }
  param {
    lr_mult: 2
    decay_mult: 0
  }
  convolution_param {
    num_output: 64
    kernel_size: 1
    weight_filler {
      type: "xavier"
      std: 0.1
    }
    bias_filler {
      type: "constant"
      value: 0.2
    }
  }
}
layer {
  name: "inception_3b/relu_pool_proj"
  type: "ReLU"
  bottom: "inception_3b/pool_proj"
  top: "inception_3b/pool_proj"
}
layer {
  name: "inception_3b/output"
  type: "Concat"
  bottom: "inception_3b/1x1"
  bottom: "inception_3b/3x3"
  bottom: "inception_3b/5x5"
  bottom: "inception_3b/pool_proj"
  top: "inception_3b/output"
}
layer {
  name: "pool3/3x3_s2"
  type: "Pooling"
  bottom: "inception_3b/output"
  top: "pool3/3x3_s2"
  pooling_param {
    pool: MAX
    kernel_size: 3
    stride: 2
  }
}
layer {
  name: "inception_4a/1x1"
  type: "Convolution"
  bottom: "pool3/3x3_s2"
  top: "inception_4a/1x1"
  param {
    lr_mult: 1
    decay_mult: 1
  }
  param {
    lr_mult: 2
    decay_mult: 0
  }
  convolution_param {
    num_output: 192
    kernel_size: 1
    weight_filler {
      type: "xavier"
      std: 0.03
    }
    bias_filler {
      type: "constant"
      value: 0.2
    }
  }
}
layer {
  name: "inception_4a/relu_1x1"
  type: "ReLU"
  bottom: "inception_4a/1x1"
  top: "inception_4a/1x1"
}
layer {
  name: "inception_4a/3x3_reduce"
  type: "Convolution"
  bottom: "pool3/3x3_s2"
  top: "inception_4a/3x3_reduce"
  param {
    lr_mult: 1
    decay_mult: 1
  }
  param {
    lr_mult: 2
    decay_mult: 0
  }
  convolution_param {
    num_output: 96
    kernel_size: 1
    weight_filler {
      type: "xavier"
      std: 0.09
    }
    bias_filler {
      type: "constant"
      value: 0.2
    }
  }
}
layer {
  name: "inception_4a/relu_3x3_reduce"
  type: "ReLU"
  bottom: "inception_4a/3x3_reduce"
  top: "inception_4a/3x3_reduce"
}
layer {
  name: "inception_4a/3x3"
  type: "Convolution"
  bottom: "inception_4a/3x3_reduce"
  top: "inception_4a/3x3"
  param {
    lr_mult: 1
    decay_mult: 1
  }
  param {
    lr_mult: 2
    decay_mult: 0
  }
  convolution_param {
    num_output: 208
    pad: 1
    kernel_size: 3
    weight_filler {
      type: "xavier"
      std: 0.03
    }
    bias_filler {
      type: "constant"
      value: 0.2
    }
  }
}
layer {
  name: "inception_4a/relu_3x3"
  type: "ReLU"
  bottom: "inception_4a/3x3"
  top: "inception_4a/3x3"
}
layer {
  name: "inception_4a/5x5_reduce"
  type: "Convolution"
  bottom: "pool3/3x3_s2"
  top: "inception_4a/5x5_reduce"
  param {
    lr_mult: 1
    decay_mult: 1
  }
  param {
    lr_mult: 2
    decay_mult: 0
  }
  convolution_param {
    num_output: 16
    kernel_size: 1
    weight_filler {
      type: "xavier"
      std: 0.2
    }
    bias_filler {
      type: "constant"
      value: 0.2
    }
  }
}
layer {
  name: "inception_4a/relu_5x5_reduce"
  type: "ReLU"
  bottom: "inception_4a/5x5_reduce"
  top: "inception_4a/5x5_reduce"
}
layer {
  name: "inception_4a/5x5"
  type: "Convolution"
  bottom: "inception_4a/5x5_reduce"
  top: "inception_4a/5x5"
  param {
    lr_mult: 1
    decay_mult: 1
  }
  param {
    lr_mult: 2
    decay_mult: 0
  }
  convolution_param {
    num_output: 48
    pad: 2
    kernel_size: 5
    weight_filler {
      type: "xavier"
      std: 0.03
    }
    bias_filler {
      type: "constant"
      value: 0.2
    }
  }
}
layer {
  name: "inception_4a/relu_5x5"
  type: "ReLU"
  bottom: "inception_4a/5x5"
  top: "inception_4a/5x5"
}
layer {
  name: "inception_4a/pool"
  type: "Pooling"
  bottom: "pool3/3x3_s2"
  top: "inception_4a/pool"
  pooling_param {
    pool: MAX
    kernel_size: 3
    stride: 1
    pad: 1
  }
}
layer {
  name: "inception_4a/pool_proj"
  type: "Convolution"
  bottom: "inception_4a/pool"
  top: "inception_4a/pool_proj"
  param {
    lr_mult: 1
    decay_mult: 1
  }
  param {
    lr_mult: 2
    decay_mult: 0
  }
  convolution_param {
    num_output: 64
    kernel_size: 1
    weight_filler {
      type: "xavier"
      std: 0.1
    }
    bias_filler {
      type: "constant"
      value: 0.2
    }
  }
}
layer {
  name: "inception_4a/relu_pool_proj"
  type: "ReLU"
  bottom: "inception_4a/pool_proj"
  top: "inception_4a/pool_proj"
}
layer {
  name: "inception_4a/output"
  type: "Concat"
  bottom: "inception_4a/1x1"
  bottom: "inception_4a/3x3"
  bottom: "inception_4a/5x5"
  bottom: "inception_4a/pool_proj"
  top: "inception_4a/output"
}
layer {
  name: "loss1/ave_pool"
  type: "Pooling"
  bottom: "inception_4a/output"
  top: "loss1/ave_pool"
  pooling_param {
    pool: AVE
    kernel_size: 5
    stride: 3
  }
}
layer {
  name: "loss1/conv"
  type: "Convolution"
  bottom: "loss1/ave_pool"
  top: "loss1/conv"
  param {
    lr_mult: 1
    decay_mult: 1
  }
  param {
    lr_mult: 2
    decay_mult: 0
  }
  convolution_param {
    num_output: 128
    kernel_size: 1
    weight_filler {
      type: "xavier"
      std: 0.08
    }
    bias_filler {
      type: "constant"
      value: 0.2
    }
  }
}
layer {
  name: "loss1/relu_conv"
  type: "ReLU"
  bottom: "loss1/conv"
  top: "loss1/conv"
}
layer {
  name: "loss1/fc"
  type: "InnerProduct"
  bottom: "loss1/conv"
  top: "loss1/fc"
  param {
    lr_mult: 1
    decay_mult: 1
  }
  param {
    lr_mult: 2
    decay_mult: 0
  }
  inner_product_param {
    num_output: 1024
    weight_filler {
      type: "xavier"
      std: 0.02
    }
    bias_filler {
      type: "constant"
      value: 0.2
    }
  }
}
layer {
  name: "loss1/relu_fc"
  type: "ReLU"
  bottom: "loss1/fc"
  top: "loss1/fc"
}
layer {
  name: "loss1/drop_fc"
  type: "Dropout"
  bottom: "loss1/fc"
  top: "loss1/fc"
  dropout_param {
    dropout_ratio: 0.7
  }
}
layer {
  name: "loss1/classifier"
  type: "InnerProduct"
  bottom: "loss1/fc"
  top: "loss1/classifier"
  param {
    lr_mult: 1
    decay_mult: 1
  }
  param {
    lr_mult: 2
    decay_mult: 0
  }
  inner_product_param {
    num_output: 2
    weight_filler {
      type: "xavier"
      std: 0.0009765625
    }
    bias_filler {
      type: "constant"
      value: 0
    }
  }
}
layer {
  name: "loss1/loss"
  type: "SoftmaxWithLoss"
  bottom: "loss1/classifier"
  bottom: "label"
  top: "loss1/loss1"
  loss_weight: 0.3
}
layer {
  name: "loss1/top-1"
  type: "Accuracy"
  bottom: "loss1/classifier"
  bottom: "label"
  top: "loss1/top-1"
  include {
    phase: TEST
  }
}
layer {
  name: "inception_4b/1x1"
  type: "Convolution"
  bottom: "inception_4a/output"
  top: "inception_4b/1x1"
  param {
    lr_mult: 1
    decay_mult: 1
  }
  param {
    lr_mult: 2
    decay_mult: 0
  }
  convolution_param {
    num_output: 160
    kernel_size: 1
    weight_filler {
      type: "xavier"
      std: 0.03
    }
    bias_filler {
      type: "constant"
      value: 0.2
    }
  }
}
layer {
  name: "inception_4b/relu_1x1"
  type: "ReLU"
  bottom: "inception_4b/1x1"
  top: "inception_4b/1x1"
}
layer {
  name: "inception_4b/3x3_reduce"
  type: "Convolution"
  bottom: "inception_4a/output"
  top: "inception_4b/3x3_reduce"
  param {
    lr_mult: 1
    decay_mult: 1
  }
  param {
    lr_mult: 2
    decay_mult: 0
  }
  convolution_param {
    num_output: 112
    kernel_size: 1
    weight_filler {
      type: "xavier"
      std: 0.09
    }
    bias_filler {
      type: "constant"
      value: 0.2
    }
  }
}
layer {
  name: "inception_4b/relu_3x3_reduce"
  type: "ReLU"
  bottom: "inception_4b/3x3_reduce"
  top: "inception_4b/3x3_reduce"
}
layer {
  name: "inception_4b/3x3"
  type: "Convolution"
  bottom: "inception_4b/3x3_reduce"
  top: "inception_4b/3x3"
  param {
    lr_mult: 1
    decay_mult: 1
  }
  param {
    lr_mult: 2
    decay_mult: 0
  }
  convolution_param {
    num_output: 224
    pad: 1
    kernel_size: 3
    weight_filler {
      type: "xavier"
      std: 0.03
    }
    bias_filler {
      type: "constant"
      value: 0.2
    }
  }
}
layer {
  name: "inception_4b/relu_3x3"
  type: "ReLU"
  bottom: "inception_4b/3x3"
  top: "inception_4b/3x3"
}
layer {
  name: "inception_4b/5x5_reduce"
  type: "Convolution"
  bottom: "inception_4a/output"
  top: "inception_4b/5x5_reduce"
  param {
    lr_mult: 1
    decay_mult: 1
  }
  param {
    lr_mult: 2
    decay_mult: 0
  }
  convolution_param {
    num_output: 24
    kernel_size: 1
    weight_filler {
      type: "xavier"
      std: 0.2
    }
    bias_filler {
      type: "constant"
      value: 0.2
    }
  }
}
layer {
  name: "inception_4b/relu_5x5_reduce"
  type: "ReLU"
  bottom: "inception_4b/5x5_reduce"
  top: "inception_4b/5x5_reduce"
}
layer {
  name: "inception_4b/5x5"
  type: "Convolution"
  bottom: "inception_4b/5x5_reduce"
  top: "inception_4b/5x5"
  param {
    lr_mult: 1
    decay_mult: 1
  }
  param {
    lr_mult: 2
    decay_mult: 0
  }
  convolution_param {
    num_output: 64
    pad: 2
    kernel_size: 5
    weight_filler {
      type: "xavier"
      std: 0.03
    }
    bias_filler {
      type: "constant"
      value: 0.2
    }
  }
}
layer {
  name: "inception_4b/relu_5x5"
  type: "ReLU"
  bottom: "inception_4b/5x5"
  top: "inception_4b/5x5"
}
layer {
  name: "inception_4b/pool"
  type: "Pooling"
  bottom: "inception_4a/output"
  top: "inception_4b/pool"
  pooling_param {
    pool: MAX
    kernel_size: 3
    stride: 1
    pad: 1
  }
}
layer {
  name: "inception_4b/pool_proj"
  type: "Convolution"
  bottom: "inception_4b/pool"
  top: "inception_4b/pool_proj"
  param {
    lr_mult: 1
    decay_mult: 1
  }
  param {
    lr_mult: 2
    decay_mult: 0
  }
  convolution_param {
    num_output: 64
    kernel_size: 1
    weight_filler {
      type: "xavier"
      std: 0.1
    }
    bias_filler {
      type: "constant"
      value: 0.2
    }
  }
}
layer {
  name: "inception_4b/relu_pool_proj"
  type: "ReLU"
  bottom: "inception_4b/pool_proj"
  top: "inception_4b/pool_proj"
}
layer {
  name: "inception_4b/output"
  type: "Concat"
  bottom: "inception_4b/1x1"
  bottom: "inception_4b/3x3"
  bottom: "inception_4b/5x5"
  bottom: "inception_4b/pool_proj"
  top: "inception_4b/output"
}
layer {
  name: "inception_4c/1x1"
  type: "Convolution"
  bottom: "inception_4b/output"
  top: "inception_4c/1x1"
  param {
    lr_mult: 1
    decay_mult: 1
  }
  param {
    lr_mult: 2
    decay_mult: 0
  }
  convolution_param {
    num_output: 128
    kernel_size: 1
    weight_filler {
      type: "xavier"
      std: 0.03
    }
    bias_filler {
      type: "constant"
      value: 0.2
    }
  }
}
layer {
  name: "inception_4c/relu_1x1"
  type: "ReLU"
  bottom: "inception_4c/1x1"
  top: "inception_4c/1x1"
}
layer {
  name: "inception_4c/3x3_reduce"
  type: "Convolution"
  bottom: "inception_4b/output"
  top: "inception_4c/3x3_reduce"
  param {
    lr_mult: 1
    decay_mult: 1
  }
  param {
    lr_mult: 2
    decay_mult: 0
  }
  convolution_param {
    num_output: 128
    kernel_size: 1
    weight_filler {
      type: "xavier"
      std: 0.09
    }
    bias_filler {
      type: "constant"
      value: 0.2
    }
  }
}
layer {
  name: "inception_4c/relu_3x3_reduce"
  type: "ReLU"
  bottom: "inception_4c/3x3_reduce"
  top: "inception_4c/3x3_reduce"
}
layer {
  name: "inception_4c/3x3"
  type: "Convolution"
  bottom: "inception_4c/3x3_reduce"
  top: "inception_4c/3x3"
  param {
    lr_mult: 1
    decay_mult: 1
  }
  param {
    lr_mult: 2
    decay_mult: 0
  }
  convolution_param {
    num_output: 256
    pad: 1
    kernel_size: 3
    weight_filler {
      type: "xavier"
      std: 0.03
    }
    bias_filler {
      type: "constant"
      value: 0.2
    }
  }
}
layer {
  name: "inception_4c/relu_3x3"
  type: "ReLU"
  bottom: "inception_4c/3x3"
  top: "inception_4c/3x3"
}
layer {
  name: "inception_4c/5x5_reduce"
  type: "Convolution"
  bottom: "inception_4b/output"
  top: "inception_4c/5x5_reduce"
  param {
    lr_mult: 1
    decay_mult: 1
  }
  param {
    lr_mult: 2
    decay_mult: 0
  }
  convolution_param {
    num_output: 24
    kernel_size: 1
    weight_filler {
      type: "xavier"
      std: 0.2
    }
    bias_filler {
      type: "constant"
      value: 0.2
    }
  }
}
layer {
  name: "inception_4c/relu_5x5_reduce"
  type: "ReLU"
  bottom: "inception_4c/5x5_reduce"
  top: "inception_4c/5x5_reduce"
}
layer {
  name: "inception_4c/5x5"
  type: "Convolution"
  bottom: "inception_4c/5x5_reduce"
  top: "inception_4c/5x5"
  param {
    lr_mult: 1
    decay_mult: 1
  }
  param {
    lr_mult: 2
    decay_mult: 0
  }
  convolution_param {
    num_output: 64
    pad: 2
    kernel_size: 5
    weight_filler {
      type: "xavier"
      std: 0.03
    }
    bias_filler {
      type: "constant"
      value: 0.2
    }
  }
}
layer {
  name: "inception_4c/relu_5x5"
  type: "ReLU"
  bottom: "inception_4c/5x5"
  top: "inception_4c/5x5"
}
layer {
  name: "inception_4c/pool"
  type: "Pooling"
  bottom: "inception_4b/output"
  top: "inception_4c/pool"
  pooling_param {
    pool: MAX
    kernel_size: 3
    stride: 1
    pad: 1
  }
}
layer {
  name: "inception_4c/pool_proj"
  type: "Convolution"
  bottom: "inception_4c/pool"
  top: "inception_4c/pool_proj"
  param {
    lr_mult: 1
    decay_mult: 1
  }
  param {
    lr_mult: 2
    decay_mult: 0
  }
  convolution_param {
    num_output: 64
    kernel_size: 1
    weight_filler {
      type: "xavier"
      std: 0.1
    }
    bias_filler {
      type: "constant"
      value: 0.2
    }
  }
}
layer {
  name: "inception_4c/relu_pool_proj"
  type: "ReLU"
  bottom: "inception_4c/pool_proj"
  top: "inception_4c/pool_proj"
}
layer {
  name: "inception_4c/output"
  type: "Concat"
  bottom: "inception_4c/1x1"
  bottom: "inception_4c/3x3"
  bottom: "inception_4c/5x5"
  bottom: "inception_4c/pool_proj"
  top: "inception_4c/output"
}
layer {
  name: "inception_4d/1x1"
  type: "Convolution"
  bottom: "inception_4c/output"
  top: "inception_4d/1x1"
  param {
    lr_mult: 1
    decay_mult: 1
  }
  param {
    lr_mult: 2
    decay_mult: 0
  }
  convolution_param {
    num_output: 112
    kernel_size: 1
    weight_filler {
      type: "xavier"
      std: 0.03
    }
    bias_filler {
      type: "constant"
      value: 0.2
    }
  }
}
layer {
  name: "inception_4d/relu_1x1"
  type: "ReLU"
  bottom: "inception_4d/1x1"
  top: "inception_4d/1x1"
}
layer {
  name: "inception_4d/3x3_reduce"
  type: "Convolution"
  bottom: "inception_4c/output"
  top: "inception_4d/3x3_reduce"
  param {
    lr_mult: 1
    decay_mult: 1
  }
  param {
    lr_mult: 2
    decay_mult: 0
  }
  convolution_param {
    num_output: 144
    kernel_size: 1
    weight_filler {
      type: "xavier"
      std: 0.09
    }
    bias_filler {
      type: "constant"
      value: 0.2
    }
  }
}
layer {
  name: "inception_4d/relu_3x3_reduce"
  type: "ReLU"
  bottom: "inception_4d/3x3_reduce"
  top: "inception_4d/3x3_reduce"
}
layer {
  name: "inception_4d/3x3"
  type: "Convolution"
  bottom: "inception_4d/3x3_reduce"
  top: "inception_4d/3x3"
  param {
    lr_mult: 1
    decay_mult: 1
  }
  param {
    lr_mult: 2
    decay_mult: 0
  }
  convolution_param {
    num_output: 288
    pad: 1
    kernel_size: 3
    weight_filler {
      type: "xavier"
      std: 0.03
    }
    bias_filler {
      type: "constant"
      value: 0.2
    }
  }
}
layer {
  name: "inception_4d/relu_3x3"
  type: "ReLU"
  bottom: "inception_4d/3x3"
  top: "inception_4d/3x3"
}
layer {
  name: "inception_4d/5x5_reduce"
  type: "Convolution"
  bottom: "inception_4c/output"
  top: "inception_4d/5x5_reduce"
  param {
    lr_mult: 1
    decay_mult: 1
  }
  param {
    lr_mult: 2
    decay_mult: 0
  }
  convolution_param {
    num_output: 32
    kernel_size: 1
    weight_filler {
      type: "xavier"
      std: 0.2
    }
    bias_filler {
      type: "constant"
      value: 0.2
    }
  }
}
layer {
  name: "inception_4d/relu_5x5_reduce"
  type: "ReLU"
  bottom: "inception_4d/5x5_reduce"
  top: "inception_4d/5x5_reduce"
}
layer {
  name: "inception_4d/5x5"
  type: "Convolution"
  bottom: "inception_4d/5x5_reduce"
  top: "inception_4d/5x5"
  param {
    lr_mult: 1
    decay_mult: 1
  }
  param {
    lr_mult: 2
    decay_mult: 0
  }
  convolution_param {
    num_output: 64
    pad: 2
    kernel_size: 5
    weight_filler {
      type: "xavier"
      std: 0.03
    }
    bias_filler {
      type: "constant"
      value: 0.2
    }
  }
}
layer {
  name: "inception_4d/relu_5x5"
  type: "ReLU"
  bottom: "inception_4d/5x5"
  top: "inception_4d/5x5"
}
layer {
  name: "inception_4d/pool"
  type: "Pooling"
  bottom: "inception_4c/output"
  top: "inception_4d/pool"
  pooling_param {
    pool: MAX
    kernel_size: 3
    stride: 1
    pad: 1
  }
}
layer {
  name: "inception_4d/pool_proj"
  type: "Convolution"
  bottom: "inception_4d/pool"
  top: "inception_4d/pool_proj"
  param {
    lr_mult: 1
    decay_mult: 1
  }
  param {
    lr_mult: 2
    decay_mult: 0
  }
  convolution_param {
    num_output: 64
    kernel_size: 1
    weight_filler {
      type: "xavier"
      std: 0.1
    }
    bias_filler {
      type: "constant"
      value: 0.2
    }
  }
}
layer {
  name: "inception_4d/relu_pool_proj"
  type: "ReLU"
  bottom: "inception_4d/pool_proj"
  top: "inception_4d/pool_proj"
}
layer {
  name: "inception_4d/output"
  type: "Concat"
  bottom: "inception_4d/1x1"
  bottom: "inception_4d/3x3"
  bottom: "inception_4d/5x5"
  bottom: "inception_4d/pool_proj"
  top: "inception_4d/output"
}
layer {
  name: "loss2/ave_pool"
  type: "Pooling"
  bottom: "inception_4d/output"
  top: "loss2/ave_pool"
  pooling_param {
    pool: AVE
    kernel_size: 5
    stride: 3
  }
}
layer {
  name: "loss2/conv"
  type: "Convolution"
  bottom: "loss2/ave_pool"
  top: "loss2/conv"
  param {
    lr_mult: 1
    decay_mult: 1
  }
  param {
    lr_mult: 2
    decay_mult: 0
  }
  convolution_param {
    num_output: 128
    kernel_size: 1
    weight_filler {
      type: "xavier"
      std: 0.08
    }
    bias_filler {
      type: "constant"
      value: 0.2
    }
  }
}
layer {
  name: "loss2/relu_conv"
  type: "ReLU"
  bottom: "loss2/conv"
  top: "loss2/conv"
}
layer {
  name: "loss2/fc"
  type: "InnerProduct"
…
I0511 03:57:22.545253 24731 net.cpp:112] Top shape: 32 128 14 14 (802816)
I0511 03:57:22.545269 24731 layer_factory.hpp:74] Creating layer inception_4c/relu_1x1
I0511 03:57:22.545289 24731 net.cpp:76] Creating Layer inception_4c/relu_1x1
I0511 03:57:22.545295 24731 net.cpp:372] inception_4c/relu_1x1 <- inception_4c/1x1
I0511 03:57:22.545305 24731 net.cpp:323] inception_4c/relu_1x1 -> inception_4c/1x1 (in-place)
I0511 03:57:22.545313 24731 net.cpp:105] Setting up inception_4c/relu_1x1
I0511 03:57:22.545320 24731 net.cpp:112] Top shape: 32 128 14 14 (802816)
I0511 03:57:22.545337 24731 layer_factory.hpp:74] Creating layer inception_4c/3x3_reduce
I0511 03:57:22.545348 24731 net.cpp:76] Creating Layer inception_4c/3x3_reduce
I0511 03:57:22.545356 24731 net.cpp:372] inception_4c/3x3_reduce <- inception_4b/output_inception_4b/output_0_split_1
I0511 03:57:22.545367 24731 net.cpp:334] inception_4c/3x3_reduce -> inception_4c/3x3_reduce
I0511 03:57:22.545377 24731 net.cpp:105] Setting up inception_4c/3x3_reduce
I0511 03:57:22.545933 24731 net.cpp:112] Top shape: 32 128 14 14 (802816)
I0511 03:57:22.545945 24731 layer_factory.hpp:74] Creating layer inception_4c/relu_3x3_reduce
I0511 03:57:22.545954 24731 net.cpp:76] Creating Layer inception_4c/relu_3x3_reduce
I0511 03:57:22.545960 24731 net.cpp:372] inception_4c/relu_3x3_reduce <- inception_4c/3x3_reduce
I0511 03:57:22.545967 24731 net.cpp:323] inception_4c/relu_3x3_reduce -> inception_4c/3x3_reduce (in-place)
I0511 03:57:22.545974 24731 net.cpp:105] Setting up inception_4c/relu_3x3_reduce
I0511 03:57:22.545979 24731 net.cpp:112] Top shape: 32 128 14 14 (802816)
I0511 03:57:22.545985 24731 layer_factory.hpp:74] Creating layer inception_4c/3x3
I0511 03:57:22.545995 24731 net.cpp:76] Creating Layer inception_4c/3x3
I0511 03:57:22.546001 24731 net.cpp:372] inception_4c/3x3 <- inception_4c/3x3_reduce
I0511 03:57:22.546010 24731 net.cpp:334] inception_4c/3x3 -> inception_4c/3x3
I0511 03:57:22.546017 24731 net.cpp:105] Setting up inception_4c/3x3
I0511 03:57:22.548488 24731 net.cpp:112] Top shape: 32 256 14 14 (1605632)
I0511 03:57:22.548521 24731 layer_factory.hpp:74] Creating layer inception_4c/relu_3x3
I0511 03:57:22.548530 24731 net.cpp:76] Creating Layer inception_4c/relu_3x3
I0511 03:57:22.548537 24731 net.cpp:372] inception_4c/relu_3x3 <- inception_4c/3x3
I0511 03:57:22.548544 24731 net.cpp:323] inception_4c/relu_3x3 -> inception_4c/3x3 (in-place)
I0511 03:57:22.548552 24731 net.cpp:105] Setting up inception_4c/relu_3x3
I0511 03:57:22.548558 24731 net.cpp:112] Top shape: 32 256 14 14 (1605632)
I0511 03:57:22.548563 24731 layer_factory.hpp:74] Creating layer inception_4c/5x5_reduce
I0511 03:57:22.548574 24731 net.cpp:76] Creating Layer inception_4c/5x5_reduce
I0511 03:57:22.548581 24731 net.cpp:372] inception_4c/5x5_reduce <- inception_4b/output_inception_4b/output_0_split_2
I0511 03:57:22.548589 24731 net.cpp:334] inception_4c/5x5_reduce -> inception_4c/5x5_reduce
I0511 03:57:22.548599 24731 net.cpp:105] Setting up inception_4c/5x5_reduce
I0511 03:57:22.548712 24731 net.cpp:112] Top shape: 32 24 14 14 (150528)
I0511 03:57:22.548722 24731 layer_factory.hpp:74] Creating layer inception_4c/relu_5x5_reduce
I0511 03:57:22.548730 24731 net.cpp:76] Creating Layer inception_4c/relu_5x5_reduce
I0511 03:57:22.548735 24731 net.cpp:372] inception_4c/relu_5x5_reduce <- inception_4c/5x5_reduce
I0511 03:57:22.548746 24731 net.cpp:323] inception_4c/relu_5x5_reduce -> inception_4c/5x5_reduce (in-place)
I0511 03:57:22.548753 24731 net.cpp:105] Setting up inception_4c/relu_5x5_reduce
I0511 03:57:22.548759 24731 net.cpp:112] Top shape: 32 24 14 14 (150528)
I0511 03:57:22.548764 24731 layer_factory.hpp:74] Creating layer inception_4c/5x5
I0511 03:57:22.548773 24731 net.cpp:76] Creating Layer inception_4c/5x5
I0511 03:57:22.548779 24731 net.cpp:372] inception_4c/5x5 <- inception_4c/5x5_reduce
I0511 03:57:22.548791 24731 net.cpp:334] inception_4c/5x5 -> inception_4c/5x5
I0511 03:57:22.548800 24731 net.cpp:105] Setting up inception_4c/5x5
I0511 03:57:22.549149 24731 net.cpp:112] Top shape: 32 64 14 14 (401408)
I0511 03:57:22.549162 24731 layer_factory.hpp:74] Creating layer inception_4c/relu_5x5
I0511 03:57:22.549170 24731 net.cpp:76] Creating Layer inception_4c/relu_5x5
I0511 03:57:22.549176 24731 net.cpp:372] inception_4c/relu_5x5 <- inception_4c/5x5
I0511 03:57:22.549183 24731 net.cpp:323] inception_4c/relu_5x5 -> inception_4c/5x5 (in-place)
I0511 03:57:22.549190 24731 net.cpp:105] Setting up inception_4c/relu_5x5
I0511 03:57:22.549196 24731 net.cpp:112] Top shape: 32 64 14 14 (401408)
I0511 03:57:22.549201 24731 layer_factory.hpp:74] Creating layer inception_4c/pool
I0511 03:57:22.549226 24731 net.cpp:76] Creating Layer inception_4c/pool
I0511 03:57:22.549232 24731 net.cpp:372] inception_4c/pool <- inception_4b/output_inception_4b/output_0_split_3
I0511 03:57:22.549243 24731 net.cpp:334] inception_4c/pool -> inception_4c/pool
I0511 03:57:22.549252 24731 net.cpp:105] Setting up inception_4c/pool
I0511 03:57:22.549259 24731 net.cpp:112] Top shape: 32 512 14 14 (3211264)
I0511 03:57:22.549265 24731 layer_factory.hpp:74] Creating layer inception_4c/pool_proj
I0511 03:57:22.549286 24731 net.cpp:76] Creating Layer inception_4c/pool_proj
I0511 03:57:22.549293 24731 net.cpp:372] inception_4c/pool_proj <- inception_4c/pool
I0511 03:57:22.549304 24731 net.cpp:334] inception_4c/pool_proj -> inception_4c/pool_proj
I0511 03:57:22.549314 24731 net.cpp:105] Setting up inception_4c/pool_proj
I0511 03:57:22.549598 24731 net.cpp:112] Top shape: 32 64 14 14 (401408)
I0511 03:57:22.549612 24731 layer_factory.hpp:74] Creating layer inception_4c/relu_pool_proj
I0511 03:57:22.549619 24731 net.cpp:76] Creating Layer inception_4c/relu_pool_proj
I0511 03:57:22.549625 24731 net.cpp:372] inception_4c/relu_pool_proj <- inception_4c/pool_proj
I0511 03:57:22.549633 24731 net.cpp:323] inception_4c/relu_pool_proj -> inception_4c/pool_proj (in-place)
I0511 03:57:22.549643 24731 net.cpp:105] Setting up inception_4c/relu_pool_proj
I0511 03:57:22.549649 24731 net.cpp:112] Top shape: 32 64 14 14 (401408)
I0511 03:57:22.549654 24731 layer_factory.hpp:74] Creating layer inception_4c/output
I0511 03:57:22.549661 24731 net.cpp:76] Creating Layer inception_4c/output
I0511 03:57:22.549667 24731 net.cpp:372] inception_4c/output <- inception_4c/1x1
I0511 03:57:22.549674 24731 net.cpp:372] inception_4c/output <- inception_4c/3x3
I0511 03:57:22.549679 24731 net.cpp:372] inception_4c/output <- inception_4c/5x5
I0511 03:57:22.549685 24731 net.cpp:372] inception_4c/output <- inception_4c/pool_proj
I0511 03:57:22.549692 24731 net.cpp:334] inception_4c/output -> inception_4c/output
I0511 03:57:22.549700 24731 net.cpp:105] Setting up inception_4c/output
I0511 03:57:22.549724 24731 net.cpp:112] Top shape: 32 512 14 14 (3211264)
I0511 03:57:22.549731 24731 layer_factory.hpp:74] Creating layer inception_4c/output_inception_4c/output_0_split
I0511 03:57:22.549738 24731 net.cpp:76] Creating Layer inception_4c/output_inception_4c/output_0_split
I0511 03:57:22.549744 24731 net.cpp:372] inception_4c/output_inception_4c/output_0_split <- inception_4c/output
I0511 03:57:22.549756 24731 net.cpp:334] inception_4c/output_inception_4c/output_0_split -> inception_4c/output_inception_4c/output_0_split_0
I0511 03:57:22.549765 24731 net.cpp:334] inception_4c/output_inception_4c/output_0_split -> inception_4c/output_inception_4c/output_0_split_1
I0511 03:57:22.549774 24731 net.cpp:334] inception_4c/output_inception_4c/output_0_split -> inception_4c/output_inception_4c/output_0_split_2
I0511 03:57:22.549783 24731 net.cpp:334] inception_4c/output_inception_4c/output_0_split -> inception_4c/output_inception_4c/output_0_split_3
I0511 03:57:22.549790 24731 net.cpp:105] Setting up inception_4c/output_inception_4c/output_0_split
I0511 03:57:22.549798 24731 net.cpp:112] Top shape: 32 512 14 14 (3211264)
I0511 03:57:22.549803 24731 net.cpp:112] Top shape: 32 512 14 14 (3211264)
I0511 03:57:22.549808 24731 net.cpp:112] Top shape: 32 512 14 14 (3211264)
I0511 03:57:22.549813 24731 net.cpp:112] Top shape: 32 512 14 14 (3211264)
I0511 03:57:22.549818 24731 layer_factory.hpp:74] Creating layer inception_4d/1x1
I0511 03:57:22.549828 24731 net.cpp:76] Creating Layer inception_4d/1x1
I0511 03:57:22.549834 24731 net.cpp:372] inception_4d/1x1 <- inception_4c/output_inception_4c/output_0_split_0
I0511 03:57:22.549841 24731 net.cpp:334] inception_4d/1x1 -> inception_4d/1x1
I0511 03:57:22.549849 24731 net.cpp:105] Setting up inception_4d/1x1
I0511 03:57:22.550349 24731 net.cpp:112] Top shape: 32 112 14 14 (702464)
I0511 03:57:22.550362 24731 layer_factory.hpp:74] Creating layer inception_4d/relu_1x1
I0511 03:57:22.550372 24731 net.cpp:76] Creating Layer inception_4d/relu_1x1
I0511 03:57:22.550390 24731 net.cpp:372] inception_4d/relu_1x1 <- inception_4d/1x1
I0511 03:57:22.550400 24731 net.cpp:323] inception_4d/relu_1x1 -> inception_4d/1x1 (in-place)
I0511 03:57:22.550407 24731 net.cpp:105] Setting up inception_4d/relu_1x1
I0511 03:57:22.550412 24731 net.cpp:112] Top shape: 32 112 14 14 (702464)
I0511 03:57:22.550417 24731 layer_factory.hpp:74] Creating layer inception_4d/3x3_reduce
I0511 03:57:22.550426 24731 net.cpp:76] Creating Layer inception_4d/3x3_reduce
I0511 03:57:22.550431 24731 net.cpp:372] inception_4d/3x3_reduce <- inception_4c/output_inception_4c/output_0_split_1
I0511 03:57:22.550442 24731 net.cpp:334] inception_4d/3x3_reduce -> inception_4d/3x3_reduce
I0511 03:57:22.550451 24731 net.cpp:105] Setting up inception_4d/3x3_reduce
I0511 03:57:22.551072 24731 net.cpp:112] Top shape: 32 144 14 14 (903168)
I0511 03:57:22.551085 24731 layer_factory.hpp:74] Creating layer inception_4d/relu_3x3_reduce
I0511 03:57:22.551093 24731 net.cpp:76] Creating Layer inception_4d/relu_3x3_reduce
I0511 03:57:22.551100 24731 net.cpp:372] inception_4d/relu_3x3_reduce <- inception_4d/3x3_reduce
I0511 03:57:22.551106 24731 net.cpp:323] inception_4d/relu_3x3_reduce -> inception_4d/3x3_reduce (in-place)
I0511 03:57:22.551113 24731 net.cpp:105] Setting up inception_4d/relu_3x3_reduce
I0511 03:57:22.551118 24731 net.cpp:112] Top shape: 32 144 14 14 (903168)
I0511 03:57:22.551125 24731 layer_factory.hpp:74] Creating layer inception_4d/3x3
I0511 03:57:22.551134 24731 net.cpp:76] Creating Layer inception_4d/3x3
I0511 03:57:22.551141 24731 net.cpp:372] inception_4d/3x3 <- inception_4d/3x3_reduce
I0511 03:57:22.551151 24731 net.cpp:334] inception_4d/3x3 -> inception_4d/3x3
I0511 03:57:22.551158 24731 net.cpp:105] Setting up inception_4d/3x3
I0511 03:57:22.555207 24731 net.cpp:112] Top shape: 32 288 14 14 (1806336)
I0511 03:57:22.555233 24731 layer_factory.hpp:74] Creating layer inception_4d/relu_3x3
I0511 03:57:22.555243 24731 net.cpp:76] Creating Layer inception_4d/relu_3x3
I0511 03:57:22.555251 24731 net.cpp:372] inception_4d/relu_3x3 <- inception_4d/3x3
I0511 03:57:22.555259 24731 net.cpp:323] inception_4d/relu_3x3 -> inception_4d/3x3 (in-place)
I0511 03:57:22.555269 24731 net.cpp:105] Setting up inception_4d/relu_3x3
I0511 03:57:22.555290 24731 net.cpp:112] Top shape: 32 288 14 14 (1806336)
I0511 03:57:22.555296 24731 layer_factory.hpp:74] Creating layer inception_4d/5x5_reduce
I0511 03:57:22.555310 24731 net.cpp:76] Creating Layer inception_4d/5x5_reduce
I0511 03:57:22.555316 24731 net.cpp:372] inception_4d/5x5_reduce <- inception_4c/output_inception_4c/output_0_split_2
I0511 03:57:22.555327 24731 net.cpp:334] inception_4d/5x5_reduce -> inception_4d/5x5_reduce
I0511 03:57:22.555337 24731 net.cpp:105] Setting up inception_4d/5x5_reduce
I0511 03:57:22.555515 24731 net.cpp:112] Top shape: 32 32 14 14 (200704)
I0511 03:57:22.555531 24731 layer_factory.hpp:74] Creating layer inception_4d/relu_5x5_reduce
I0511 03:57:22.555539 24731 net.cpp:76] Creating Layer inception_4d/relu_5x5_reduce
I0511 03:57:22.555546 24731 net.cpp:372] inception_4d/relu_5x5_reduce <- inception_4d/5x5_reduce
I0511 03:57:22.555557 24731 net.cpp:323] inception_4d/relu_5x5_reduce -> inception_4d/5x5_reduce (in-place)
I0511 03:57:22.555565 24731 net.cpp:105] Setting up inception_4d/relu_5x5_reduce
I0511 03:57:22.555570 24731 net.cpp:112] Top shape: 32 32 14 14 (200704)
I0511 03:57:22.555577 24731 layer_factory.hpp:74] Creating layer inception_4d/5x5
I0511 03:57:22.555584 24731 net.cpp:76] Creating Layer inception_4d/5x5
I0511 03:57:22.555590 24731 net.cpp:372] inception_4d/5x5 <- inception_4d/5x5_reduce
I0511 03:57:22.555600 24731 net.cpp:334] inception_4d/5x5 -> inception_4d/5x5
I0511 03:57:22.555615 24731 net.cpp:105] Setting up inception_4d/5x5
I0511 03:57:22.556077 24731 net.cpp:112] Top shape: 32 64 14 14 (401408)
I0511 03:57:22.556094 24731 layer_factory.hpp:74] Creating layer inception_4d/relu_5x5
I0511 03:57:22.556109 24731 net.cpp:76] Creating Layer inception_4d/relu_5x5
I0511 03:57:22.556118 24731 net.cpp:372] inception_4d/relu_5x5 <- inception_4d/5x5
I0511 03:57:22.556155 24731 net.cpp:323] inception_4d/relu_5x5 -> inception_4d/5x5 (in-place)
I0511 03:57:22.556174 24731 net.cpp:105] Setting up inception_4d/relu_5x5
I0511 03:57:22.556185 24731 net.cpp:112] Top shape: 32 64 14 14 (401408)
I0511 03:57:22.556195 24731 layer_factory.hpp:74] Creating layer inception_4d/pool
I0511 03:57:22.556215 24731 net.cpp:76] Creating Layer inception_4d/pool
I0511 03:57:22.556223 24731 net.cpp:372] inception_4d/pool <- inception_4c/output_inception_4c/output_0_split_3
I0511 03:57:22.556232 24731 net.cpp:334] inception_4d/pool -> inception_4d/pool
I0511 03:57:22.556241 24731 net.cpp:105] Setting up inception_4d/pool
I0511 03:57:22.556252 24731 net.cpp:112] Top shape: 32 512 14 14 (3211264)
I0511 03:57:22.556264 24731 layer_factory.hpp:74] Creating layer inception_4d/pool_proj
I0511 03:57:22.556303 24731 net.cpp:76] Creating Layer inception_4d/pool_proj
I0511 03:57:22.556318 24731 net.cpp:372] inception_4d/pool_proj <- inception_4d/pool
I0511 03:57:22.556329 24731 net.cpp:334] inception_4d/pool_proj -> inception_4d/pool_proj
I0511 03:57:22.556339 24731 net.cpp:105] Setting up inception_4d/pool_proj
I0511 03:57:22.556635 24731 net.cpp:112] Top shape: 32 64 14 14 (401408)
I0511 03:57:22.556658 24731 layer_factory.hpp:74] Creating layer inception_4d/relu_pool_proj
I0511 03:57:22.556668 24731 net.cpp:76] Creating Layer inception_4d/relu_pool_proj
I0511 03:57:22.556674 24731 net.cpp:372] inception_4d/relu_pool_proj <- inception_4d/pool_proj
I0511 03:57:22.556689 24731 net.cpp:323] inception_4d/relu_pool_proj -> inception_4d/pool_proj (in-place)
I0511 03:57:22.556705 24731 net.cpp:105] Setting up inception_4d/relu_pool_proj
I0511 03:57:22.556722 24731 net.cpp:112] Top shape: 32 64 14 14 (401408)
I0511 03:57:22.556730 24731 layer_factory.hpp:74] Creating layer inception_4d/output
I0511 03:57:22.556740 24731 net.cpp:76] Creating Layer inception_4d/output
I0511 03:57:22.556746 24731 net.cpp:372] inception_4d/output <- inception_4d/1x1
I0511 03:57:22.556754 24731 net.cpp:372] inception_4d/output <- inception_4d/3x3
I0511 03:57:22.556761 24731 net.cpp:372] inception_4d/output <- inception_4d/5x5
I0511 03:57:22.556766 24731 net.cpp:372] inception_4d/output <- inception_4d/pool_proj
I0511 03:57:22.556774 24731 net.cpp:334] inception_4d/output -> inception_4d/output
I0511 03:57:22.556782 24731 net.cpp:105] Setting up inception_4d/output
I0511 03:57:22.556789 24731 net.cpp:112] Top shape: 32 528 14 14 (3311616)
I0511 03:57:22.556794 24731 layer_factory.hpp:74] Creating layer inception_4d/output_inception_4d/output_0_split
I0511 03:57:22.556805 24731 net.cpp:76] Creating Layer inception_4d/output_inception_4d/output_0_split
I0511 03:57:22.556815 24731 net.cpp:372] inception_4d/output_inception_4d/output_0_split <- inception_4d/output
I0511 03:57:22.556830 24731 net.cpp:334] inception_4d/output_inception_4d/output_0_split -> inception_4d/output_inception_4d/output_0_split_0
I0511 03:57:22.556841 24731 net.cpp:334] inception_4d/output_inception_4d/output_0_split -> inception_4d/output_inception_4d/output_0_split_1
I0511 03:57:22.556854 24731 net.cpp:334] inception_4d/output_inception_4d/output_0_split -> inception_4d/output_inception_4d/output_0_split_2
I0511 03:57:22.556872 24731 net.cpp:334] inception_4d/output_inception_4d/output_0_split -> inception_4d/output_inception_4d/output_0_split_3
I0511 03:57:22.556892 24731 net.cpp:334] inception_4d/output_inception_4d/output_0_split -> inception_4d/output_inception_4d/output_0_split_4
I0511 03:57:22.556910 24731 net.cpp:105] Setting up inception_4d/output_inception_4d/output_0_split
I0511 03:57:22.556922 24731 net.cpp:112] Top shape: 32 528 14 14 (3311616)
I0511 03:57:22.556927 24731 net.cpp:112] Top shape: 32 528 14 14 (3311616)
I0511 03:57:22.556932 24731 net.cpp:112] Top shape: 32 528 14 14 (3311616)
I0511 03:57:22.556937 24731 net.cpp:112] Top shape: 32 528 14 14 (3311616)
I0511 03:57:22.556942 24731 net.cpp:112] Top shape: 32 528 14 14 (3311616)
I0511 03:57:22.556948 24731 layer_factory.hpp:74] Creating layer loss2/ave_pool
I0511 03:57:22.556973 24731 net.cpp:76] Creating Layer loss2/ave_pool
I0511 03:57:22.556980 24731 net.cpp:372] loss2/ave_pool <- inception_4d/output_inception_4d/output_0_split_0
I0511 03:57:22.556990 24731 net.cpp:334] loss2/ave_pool -> loss2/ave_pool
I0511 03:57:22.556998 24731 net.cpp:105] Setting up loss2/ave_pool
I0511 03:57:22.557029 24731 net.cpp:112] Top shape: 32 528 4 4 (270336)
I0511 03:57:22.557035 24731 layer_factory.hpp:74] Creating layer loss2/conv
I0511 03:57:22.557045 24731 net.cpp:76] Creating Layer loss2/conv
I0511 03:57:22.557051 24731 net.cpp:372] loss2/conv <- loss2/ave_pool
I0511 03:57:22.557060 24731 net.cpp:334] loss2/conv -> loss2/conv
I0511 03:57:22.557068 24731 net.cpp:105] Setting up loss2/conv
I0511 03:57:22.557698 24731 net.cpp:112] Top shape: 32 128 4 4 (65536)
I0511 03:57:22.557715 24731 layer_factory.hpp:74] Creating layer loss2/relu_conv
I0511 03:57:22.557723 24731 net.cpp:76] Creating Layer loss2/relu_conv
I0511 03:57:22.557730 24731 net.cpp:372] loss2/relu_conv <- loss2/conv
I0511 03:57:22.557739 24731 net.cpp:323] loss2/relu_conv -> loss2/conv (in-place)
I0511 03:57:22.557747 24731 net.cpp:105] Setting up loss2/relu_conv
I0511 03:57:22.557754 24731 net.cpp:112] Top shape: 32 128 4 4 (65536)
I0511 03:57:22.557759 24731 layer_factory.hpp:74] Creating layer loss2/fc
I0511 03:57:22.557770 24731 net.cpp:76] Creating Layer loss2/fc
I0511 03:57:22.557776 24731 net.cpp:372] loss2/fc <- loss2/conv
I0511 03:57:22.557786 24731 net.cpp:334] loss2/fc -> loss2/fc
I0511 03:57:22.557796 24731 net.cpp:105] Setting up loss2/fc
I0511 03:57:22.575364 24731 net.cpp:112] Top shape: 32 1024 1 1 (32768)
I0511 03:57:22.575407 24731 layer_factory.hpp:74] Creating layer loss2/relu_fc
I0511 03:57:22.575422 24731 net.cpp:76] Creating Layer loss2/relu_fc
I0511 03:57:22.575430 24731 net.cpp:372] loss2/relu_fc <- loss2/fc
I0511 03:57:22.575443 24731 net.cpp:323] loss2/relu_fc -> loss2/fc (in-place)
I0511 03:57:22.575453 24731 net.cpp:105] Setting up loss2/relu_fc
I0511 03:57:22.575459 24731 net.cpp:112] Top shape: 32 1024 1 1 (32768)
I0511 03:57:22.575464 24731 layer_factory.hpp:74] Creating layer loss2/drop_fc
I0511 03:57:22.575474 24731 net.cpp:76] Creating Layer loss2/drop_fc
I0511 03:57:22.575479 24731 net.cpp:372] loss2/drop_fc <- loss2/fc
I0511 03:57:22.575485 24731 net.cpp:323] loss2/drop_fc -> loss2/fc (in-place)
I0511 03:57:22.575494 24731 net.cpp:105] Setting up loss2/drop_fc
I0511 03:57:22.575500 24731 net.cpp:112] Top shape: 32 1024 1 1 (32768)
I0511 03:57:22.575505 24731 layer_factory.hpp:74] Creating layer loss2/classifier
I0511 03:57:22.575515 24731 net.cpp:76] Creating Layer loss2/classifier
I0511 03:57:22.575520 24731 net.cpp:372] loss2/classifier <- loss2/fc
I0511 03:57:22.575531 24731 net.cpp:334] loss2/classifier -> loss2/classifier
I0511 03:57:22.575541 24731 net.cpp:105] Setting up loss2/classifier
I0511 03:57:22.575572 24731 net.cpp:112] Top shape: 32 2 1 1 (64)
I0511 03:57:22.575585 24731 layer_factory.hpp:74] Creating layer loss2/classifier_loss2/classifier_0_split
I0511 03:57:22.575593 24731 net.cpp:76] Creating Layer loss2/classifier_loss2/classifier_0_split
I0511 03:57:22.575599 24731 net.cpp:372] loss2/classifier_loss2/classifier_0_split <- loss2/classifier
I0511 03:57:22.575606 24731 net.cpp:334] loss2/classifier_loss2/classifier_0_split -> loss2/classifier_loss2/classifier_0_split_0
I0511 03:57:22.575616 24731 net.cpp:334] loss2/classifier_loss2/classifier_0_split -> loss2/classifier_loss2/classifier_0_split_1
I0511 03:57:22.575624 24731 net.cpp:105] Setting up loss2/classifier_loss2/classifier_0_split
I0511 03:57:22.575635 24731 net.cpp:112] Top shape: 32 2 1 1 (64)
I0511 03:57:22.575641 24731 net.cpp:112] Top shape: 32 2 1 1 (64)
I0511 03:57:22.575647 24731 layer_factory.hpp:74] Creating layer loss2/loss
I0511 03:57:22.575659 24731 net.cpp:76] Creating Layer loss2/loss
I0511 03:57:22.575664 24731 net.cpp:372] loss2/loss <- loss2/classifier_loss2/classifier_0_split_0
I0511 03:57:22.575671 24731 net.cpp:372] loss2/loss <- label_data_1_split_2
I0511 03:57:22.575680 24731 net.cpp:334] loss2/loss -> loss2/loss1
I0511 03:57:22.575723 24731 net.cpp:105] Setting up loss2/loss
I0511 03:57:22.575733 24731 layer_factory.hpp:74] Creating layer loss2/loss
I0511 03:57:22.575748 24731 net.cpp:112] Top shape: 1 1 1 1 (1)
I0511 03:57:22.575754 24731 net.cpp:118]     with loss weight 0.3
I0511 03:57:22.575773 24731 layer_factory.hpp:74] Creating layer loss2/top-1
I0511 03:57:22.575780 24731 net.cpp:76] Creating Layer loss2/top-1
I0511 03:57:22.575786 24731 net.cpp:372] loss2/top-1 <- loss2/classifier_loss2/classifier_0_split_1
I0511 03:57:22.575793 24731 net.cpp:372] loss2/top-1 <- label_data_1_split_3
I0511 03:57:22.575803 24731 net.cpp:334] loss2/top-1 -> loss2/top-1
I0511 03:57:22.575812 24731 net.cpp:105] Setting up loss2/top-1
I0511 03:57:22.575819 24731 net.cpp:112] Top shape: 1 1 1 1 (1)
I0511 03:57:22.575824 24731 layer_factory.hpp:74] Creating layer inception_4e/1x1
I0511 03:57:22.575834 24731 net.cpp:76] Creating Layer inception_4e/1x1
I0511 03:57:22.575841 24731 net.cpp:372] inception_4e/1x1 <- inception_4d/output_inception_4d/output_0_split_1
I0511 03:57:22.575850 24731 net.cpp:334] inception_4e/1x1 -> inception_4e/1x1
I0511 03:57:22.575860 24731 net.cpp:105] Setting up inception_4e/1x1
I0511 03:57:22.577025 24731 net.cpp:112] Top shape: 32 256 14 14 (1605632)
I0511 03:57:22.577042 24731 layer_factory.hpp:74] Creating layer inception_4e/relu_1x1
I0511 03:57:22.577050 24731 net.cpp:76] Creating Layer inception_4e/relu_1x1
I0511 03:57:22.577057 24731 net.cpp:372] inception_4e/relu_1x1 <- inception_4e/1x1
I0511 03:57:22.577069 24731 net.cpp:323] inception_4e/relu_1x1 -> inception_4e/1x1 (in-place)
I0511 03:57:22.577078 24731 net.cpp:105] Setting up inception_4e/relu_1x1
I0511 03:57:22.577083 24731 net.cpp:112] Top shape: 32 256 14 14 (1605632)
I0511 03:57:22.577090 24731 layer_factory.hpp:74] Creating layer inception_4e/3x3_reduce
I0511 03:57:22.577098 24731 net.cpp:76] Creating Layer inception_4e/3x3_reduce
I0511 03:57:22.577103 24731 net.cpp:372] inception_4e/3x3_reduce <- inception_4d/output_inception_4d/output_0_split_2
I0511 03:57:22.577114 24731 net.cpp:334] inception_4e/3x3_reduce -> inception_4e/3x3_reduce
I0511 03:57:22.577124 24731 net.cpp:105] Setting up inception_4e/3x3_reduce
I0511 03:57:22.577869 24731 net.cpp:112] Top shape: 32 160 14 14 (1003520)
I0511 03:57:22.577883 24731 layer_factory.hpp:74] Creating layer inception_4e/relu_3x3_reduce
I0511 03:57:22.577891 24731 net.cpp:76] Creating Layer inception_4e/relu_3x3_reduce
I0511 03:57:22.577898 24731 net.cpp:372] inception_4e/relu_3x3_reduce <- inception_4e/3x3_reduce
I0511 03:57:22.577905 24731 net.cpp:323] inception_4e/relu_3x3_reduce -> inception_4e/3x3_reduce (in-place)
I0511 03:57:22.577913 24731 net.cpp:105] Setting up inception_4e/relu_3x3_reduce
I0511 03:57:22.577919 24731 net.cpp:112] Top shape: 32 160 14 14 (1003520)
I0511 03:57:22.577924 24731 layer_factory.hpp:74] Creating layer inception_4e/3x3
I0511 03:57:22.577955 24731 net.cpp:76] Creating Layer inception_4e/3x3
I0511 03:57:22.577961 24731 net.cpp:372] inception_4e/3x3 <- inception_4e/3x3_reduce
I0511 03:57:22.577970 24731 net.cpp:334] inception_4e/3x3 -> inception_4e/3x3
I0511 03:57:22.577978 24731 net.cpp:105] Setting up inception_4e/3x3
I0511 03:57:22.581815 24731 net.cpp:112] Top shape: 32 320 14 14 (2007040)
I0511 03:57:22.581833 24731 layer_factory.hpp:74] Creating layer inception_4e/relu_3x3
I0511 03:57:22.581843 24731 net.cpp:76] Creating Layer inception_4e/relu_3x3
I0511 03:57:22.581851 24731 net.cpp:372] inception_4e/relu_3x3 <- inception_4e/3x3
I0511 03:57:22.581859 24731 net.cpp:323] inception_4e/relu_3x3 -> inception_4e/3x3 (in-place)
I0511 03:57:22.581867 24731 net.cpp:105] Setting up inception_4e/relu_3x3
I0511 03:57:22.581873 24731 net.cpp:112] Top shape: 32 320 14 14 (2007040)
I0511 03:57:22.581878 24731 layer_factory.hpp:74] Creating layer inception_4e/5x5_reduce
I0511 03:57:22.581887 24731 net.cpp:76] Creating Layer inception_4e/5x5_reduce
I0511 03:57:22.581892 24731 net.cpp:372] inception_4e/5x5_reduce <- inception_4d/output_inception_4d/output_0_split_3
I0511 03:57:22.581923 24731 net.cpp:334] inception_4e/5x5_reduce -> inception_4e/5x5_reduce
I0511 03:57:22.581936 24731 net.cpp:105] Setting up inception_4e/5x5_reduce
I0511 03:57:22.582087 24731 net.cpp:112] Top shape: 32 32 14 14 (200704)
I0511 03:57:22.582098 24731 layer_factory.hpp:74] Creating layer inception_4e/relu_5x5_reduce
I0511 03:57:22.582108 24731 net.cpp:76] Creating Layer inception_4e/relu_5x5_reduce
I0511 03:57:22.582114 24731 net.cpp:372] inception_4e/relu_5x5_reduce <- inception_4e/5x5_reduce
I0511 03:57:22.582121 24731 net.cpp:323] inception_4e/relu_5x5_reduce -> inception_4e/5x5_reduce (in-place)
I0511 03:57:22.582129 24731 net.cpp:105] Setting up inception_4e/relu_5x5_reduce
I0511 03:57:22.582134 24731 net.cpp:112] Top shape: 32 32 14 14 (200704)
I0511 03:57:22.582140 24731 layer_factory.hpp:74] Creating layer inception_4e/5x5
I0511 03:57:22.582150 24731 net.cpp:76] Creating Layer inception_4e/5x5
I0511 03:57:22.582156 24731 net.cpp:372] inception_4e/5x5 <- inception_4e/5x5_reduce
I0511 03:57:22.582165 24731 net.cpp:334] inception_4e/5x5 -> inception_4e/5x5
I0511 03:57:22.582172 24731 net.cpp:105] Setting up inception_4e/5x5
I0511 03:57:22.583041 24731 net.cpp:112] Top shape: 32 128 14 14 (802816)
I0511 03:57:22.583055 24731 layer_factory.hpp:74] Creating layer inception_4e/relu_5x5
I0511 03:57:22.583065 24731 net.cpp:76] Creating Layer inception_4e/relu_5x5
I0511 03:57:22.583072 24731 net.cpp:372] inception_4e/relu_5x5 <- inception_4e/5x5
I0511 03:57:22.583080 24731 net.cpp:323] inception_4e/relu_5x5 -> inception_4e/5x5 (in-place)
I0511 03:57:22.583087 24731 net.cpp:105] Setting up inception_4e/relu_5x5
I0511 03:57:22.583092 24731 net.cpp:112] Top shape: 32 128 14 14 (802816)
I0511 03:57:22.583098 24731 layer_factory.hpp:74] Creating layer inception_4e/pool
I0511 03:57:22.583106 24731 net.cpp:76] Creating Layer inception_4e/pool
I0511 03:57:22.583112 24731 net.cpp:372] inception_4e/pool <- inception_4d/output_inception_4d/output_0_split_4
I0511 03:57:22.583119 24731 net.cpp:334] inception_4e/pool -> inception_4e/pool
I0511 03:57:22.583128 24731 net.cpp:105] Setting up inception_4e/pool
I0511 03:57:22.583137 24731 net.cpp:112] Top shape: 32 528 14 14 (3311616)
I0511 03:57:22.583142 24731 layer_factory.hpp:74] Creating layer inception_4e/pool_proj
I0511 03:57:22.583153 24731 net.cpp:76] Creating Layer inception_4e/pool_proj
I0511 03:57:22.583159 24731 net.cpp:372] inception_4e/pool_proj <- inception_4e/pool
I0511 03:57:22.583169 24731 net.cpp:334] inception_4e/pool_proj -> inception_4e/pool_proj
I0511 03:57:22.583178 24731 net.cpp:105] Setting up inception_4e/pool_proj
I0511 03:57:22.583757 24731 net.cpp:112] Top shape: 32 128 14 14 (802816)
I0511 03:57:22.583770 24731 layer_factory.hpp:74] Creating layer inception_4e/relu_pool_proj
I0511 03:57:22.583781 24731 net.cpp:76] Creating Layer inception_4e/relu_pool_proj
I0511 03:57:22.583787 24731 net.cpp:372] inception_4e/relu_pool_proj <- inception_4e/pool_proj
I0511 03:57:22.583796 24731 net.cpp:323] inception_4e/relu_pool_proj -> inception_4e/pool_proj (in-place)
I0511 03:57:22.583802 24731 net.cpp:105] Setting up inception_4e/relu_pool_proj
I0511 03:57:22.583808 24731 net.cpp:112] Top shape: 32 128 14 14 (802816)
I0511 03:57:22.583814 24731 layer_factory.hpp:74] Creating layer inception_4e/output
I0511 03:57:22.583823 24731 net.cpp:76] Creating Layer inception_4e/output
I0511 03:57:22.583829 24731 net.cpp:372] inception_4e/output <- inception_4e/1x1
I0511 03:57:22.583837 24731 net.cpp:372] inception_4e/output <- inception_4e/3x3
I0511 03:57:22.583842 24731 net.cpp:372] inception_4e/output <- inception_4e/5x5
I0511 03:57:22.583848 24731 net.cpp:372] inception_4e/output <- inception_4e/pool_proj
I0511 03:57:22.583856 24731 net.cpp:334] inception_4e/output -> inception_4e/output
I0511 03:57:22.583864 24731 net.cpp:105] Setting up inception_4e/output
I0511 03:57:22.583870 24731 net.cpp:112] Top shape: 32 832 14 14 (5218304)
I0511 03:57:22.583876 24731 layer_factory.hpp:74] Creating layer pool4/3x3_s2
I0511 03:57:22.583884 24731 net.cpp:76] Creating Layer pool4/3x3_s2
I0511 03:57:22.583925 24731 net.cpp:372] pool4/3x3_s2 <- inception_4e/output
I0511 03:57:22.583936 24731 net.cpp:334] pool4/3x3_s2 -> pool4/3x3_s2
I0511 03:57:22.583946 24731 net.cpp:105] Setting up pool4/3x3_s2
I0511 03:57:22.583952 24731 net.cpp:112] Top shape: 32 832 7 7 (1304576)
I0511 03:57:22.583958 24731 layer_factory.hpp:74] Creating layer pool4/3x3_s2_pool4/3x3_s2_0_split
I0511 03:57:22.583968 24731 net.cpp:76] Creating Layer pool4/3x3_s2_pool4/3x3_s2_0_split
I0511 03:57:22.583974 24731 net.cpp:372] pool4/3x3_s2_pool4/3x3_s2_0_split <- pool4/3x3_s2
I0511 03:57:22.583981 24731 net.cpp:334] pool4/3x3_s2_pool4/3x3_s2_0_split -> pool4/3x3_s2_pool4/3x3_s2_0_split_0
I0511 03:57:22.583992 24731 net.cpp:334] pool4/3x3_s2_pool4/3x3_s2_0_split -> pool4/3x3_s2_pool4/3x3_s2_0_split_1
I0511 03:57:22.584002 24731 net.cpp:334] pool4/3x3_s2_pool4/3x3_s2_0_split -> pool4/3x3_s2_pool4/3x3_s2_0_split_2
I0511 03:57:22.584010 24731 net.cpp:334] pool4/3x3_s2_pool4/3x3_s2_0_split -> pool4/3x3_s2_pool4/3x3_s2_0_split_3
I0511 03:57:22.584017 24731 net.cpp:105] Setting up pool4/3x3_s2_pool4/3x3_s2_0_split
I0511 03:57:22.584024 24731 net.cpp:112] Top shape: 32 832 7 7 (1304576)
I0511 03:57:22.584029 24731 net.cpp:112] Top shape: 32 832 7 7 (1304576)
I0511 03:57:22.584034 24731 net.cpp:112] Top shape: 32 832 7 7 (1304576)
I0511 03:57:22.584044 24731 net.cpp:112] Top shape: 32 832 7 7 (1304576)
I0511 03:57:22.584050 24731 layer_factory.hpp:74] Creating layer inception_5a/1x1
I0511 03:57:22.584059 24731 net.cpp:76] Creating Layer inception_5a/1x1
I0511 03:57:22.584064 24731 net.cpp:372] inception_5a/1x1 <- pool4/3x3_s2_pool4/3x3_s2_0_split_0
I0511 03:57:22.584074 24731 net.cpp:334] inception_5a/1x1 -> inception_5a/1x1
I0511 03:57:22.584084 24731 net.cpp:105] Setting up inception_5a/1x1
I0511 03:57:22.585870 24731 net.cpp:112] Top shape: 32 256 7 7 (401408)
I0511 03:57:22.585885 24731 layer_factory.hpp:74] Creating layer inception_5a/relu_1x1
I0511 03:57:22.585892 24731 net.cpp:76] Creating Layer inception_5a/relu_1x1
I0511 03:57:22.585898 24731 net.cpp:372] inception_5a/relu_1x1 <- inception_5a/1x1
I0511 03:57:22.585906 24731 net.cpp:323] inception_5a/relu_1x1 -> inception_5a/1x1 (in-place)
I0511 03:57:22.585913 24731 net.cpp:105] Setting up inception_5a/relu_1x1
I0511 03:57:22.585918 24731 net.cpp:112] Top shape: 32 256 7 7 (401408)
I0511 03:57:22.585924 24731 layer_factory.hpp:74] Creating layer inception_5a/3x3_reduce
I0511 03:57:22.585934 24731 net.cpp:76] Creating Layer inception_5a/3x3_reduce
I0511 03:57:22.585940 24731 net.cpp:372] inception_5a/3x3_reduce <- pool4/3x3_s2_pool4/3x3_s2_0_split_1
I0511 03:57:22.585950 24731 net.cpp:334] inception_5a/3x3_reduce -> inception_5a/3x3_reduce
I0511 03:57:22.585960 24731 net.cpp:105] Setting up inception_5a/3x3_reduce
I0511 03:57:22.587080 24731 net.cpp:112] Top shape: 32 160 7 7 (250880)
I0511 03:57:22.587095 24731 layer_factory.hpp:74] Creating layer inception_5a/relu_3x3_reduce
I0511 03:57:22.587102 24731 net.cpp:76] Creating Layer inception_5a/relu_3x3_reduce
I0511 03:57:22.587110 24731 net.cpp:372] inception_5a/relu_3x3_reduce <- inception_5a/3x3_reduce
I0511 03:57:22.587118 24731 net.cpp:323] inception_5a/relu_3x3_reduce -> inception_5a/3x3_reduce (in-place)
I0511 03:57:22.587126 24731 net.cpp:105] Setting up inception_5a/relu_3x3_reduce
I0511 03:57:22.587132 24731 net.cpp:112] Top shape: 32 160 7 7 (250880)
I0511 03:57:22.587137 24731 layer_factory.hpp:74] Creating layer inception_5a/3x3
I0511 03:57:22.587146 24731 net.cpp:76] Creating Layer inception_5a/3x3
I0511 03:57:22.587152 24731 net.cpp:372] inception_5a/3x3 <- inception_5a/3x3_reduce
I0511 03:57:22.587160 24731 net.cpp:334] inception_5a/3x3 -> inception_5a/3x3
I0511 03:57:22.587169 24731 net.cpp:105] Setting up inception_5a/3x3
I0511 03:57:22.591008 24731 net.cpp:112] Top shape: 32 320 7 7 (501760)
I0511 03:57:22.591027 24731 layer_factory.hpp:74] Creating layer inception_5a/relu_3x3
I0511 03:57:22.591035 24731 net.cpp:76] Creating Layer inception_5a/relu_3x3
I0511 03:57:22.591892 24731 net.cpp:372] inception_5a/relu_3x3 <- inception_5a/3x3
I0511 03:57:22.591928 24731 net.cpp:323] inception_5a/relu_3x3 -> inception_5a/3x3 (in-place)
I0511 03:57:22.591938 24731 net.cpp:105] Setting up inception_5a/relu_3x3
I0511 03:57:22.591943 24731 net.cpp:112] Top shape: 32 320 7 7 (501760)
I0511 03:57:22.591949 24731 layer_factory.hpp:74] Creating layer inception_5a/5x5_reduce
I0511 03:57:22.591958 24731 net.cpp:76] Creating Layer inception_5a/5x5_reduce
I0511 03:57:22.591965 24731 net.cpp:372] inception_5a/5x5_reduce <- pool4/3x3_s2_pool4/3x3_s2_0_split_2
I0511 03:57:22.591975 24731 net.cpp:334] inception_5a/5x5_reduce -> inception_5a/5x5_reduce
I0511 03:57:22.591985 24731 net.cpp:105] Setting up inception_5a/5x5_reduce
I0511 03:57:22.592216 24731 net.cpp:112] Top shape: 32 32 7 7 (50176)
I0511 03:57:22.592227 24731 layer_factory.hpp:74] Creating layer inception_5a/relu_5x5_reduce
I0511 03:57:22.592236 24731 net.cpp:76] Creating Layer inception_5a/relu_5x5_reduce
I0511 03:57:22.592242 24731 net.cpp:372] inception_5a/relu_5x5_reduce <- inception_5a/5x5_reduce
I0511 03:57:22.592250 24731 net.cpp:323] inception_5a/relu_5x5_reduce -> inception_5a/5x5_reduce (in-place)
I0511 03:57:22.592258 24731 net.cpp:105] Setting up inception_5a/relu_5x5_reduce
I0511 03:57:22.592264 24731 net.cpp:112] Top shape: 32 32 7 7 (50176)
I0511 03:57:22.592281 24731 layer_factory.hpp:74] Creating layer inception_5a/5x5
I0511 03:57:22.592298 24731 net.cpp:76] Creating Layer inception_5a/5x5
I0511 03:57:22.592309 24731 net.cpp:372] inception_5a/5x5 <- inception_5a/5x5_reduce
I0511 03:57:22.592324 24731 net.cpp:334] inception_5a/5x5 -> inception_5a/5x5
I0511 03:57:22.592335 24731 net.cpp:105] Setting up inception_5a/5x5
I0511 03:57:22.593191 24731 net.cpp:112] Top shape: 32 128 7 7 (200704)
I0511 03:57:22.593210 24731 layer_factory.hpp:74] Creating layer inception_5a/relu_5x5
I0511 03:57:22.593219 24731 net.cpp:76] Creating Layer inception_5a/relu_5x5
I0511 03:57:22.593225 24731 net.cpp:372] inception_5a/relu_5x5 <- inception_5a/5x5
I0511 03:57:22.593231 24731 net.cpp:323] inception_5a/relu_5x5 -> inception_5a/5x5 (in-place)
I0511 03:57:22.593240 24731 net.cpp:105] Setting up inception_5a/relu_5x5
I0511 03:57:22.593245 24731 net.cpp:112] Top shape: 32 128 7 7 (200704)
I0511 03:57:22.593250 24731 layer_factory.hpp:74] Creating layer inception_5a/pool
I0511 03:57:22.593258 24731 net.cpp:76] Creating Layer inception_5a/pool
I0511 03:57:22.593264 24731 net.cpp:372] inception_5a/pool <- pool4/3x3_s2_pool4/3x3_s2_0_split_3
I0511 03:57:22.593286 24731 net.cpp:334] inception_5a/pool -> inception_5a/pool
I0511 03:57:22.593317 24731 net.cpp:105] Setting up inception_5a/pool
I0511 03:57:22.593328 24731 net.cpp:112] Top shape: 32 832 7 7 (1304576)
I0511 03:57:22.593334 24731 layer_factory.hpp:74] Creating layer inception_5a/pool_proj
I0511 03:57:22.593344 24731 net.cpp:76] Creating Layer inception_5a/pool_proj
I0511 03:57:22.593350 24731 net.cpp:372] inception_5a/pool_proj <- inception_5a/pool
I0511 03:57:22.593360 24731 net.cpp:334] inception_5a/pool_proj -> inception_5a/pool_proj
I0511 03:57:22.593369 24731 net.cpp:105] Setting up inception_5a/pool_proj
I0511 03:57:22.594259 24731 net.cpp:112] Top shape: 32 128 7 7 (200704)
I0511 03:57:22.594283 24731 layer_factory.hpp:74] Creating layer inception_5a/relu_pool_proj
I0511 03:57:22.594292 24731 net.cpp:76] Creating Layer inception_5a/relu_pool_proj
I0511 03:57:22.594300 24731 net.cpp:372] inception_5a/relu_pool_proj <- inception_5a/pool_proj
I0511 03:57:22.594310 24731 net.cpp:323] inception_5a/relu_pool_proj -> inception_5a/pool_proj (in-place)
I0511 03:57:22.594317 24731 net.cpp:105] Setting up inception_5a/relu_pool_proj
I0511 03:57:22.594323 24731 net.cpp:112] Top shape: 32 128 7 7 (200704)
I0511 03:57:22.594328 24731 layer_factory.hpp:74] Creating layer inception_5a/output
I0511 03:57:22.594336 24731 net.cpp:76] Creating Layer inception_5a/output
I0511 03:57:22.594341 24731 net.cpp:372] inception_5a/output <- inception_5a/1x1
I0511 03:57:22.594348 24731 net.cpp:372] inception_5a/output <- inception_5a/3x3
I0511 03:57:22.594354 24731 net.cpp:372] inception_5a/output <- inception_5a/5x5
I0511 03:57:22.594374 24731 net.cpp:372] inception_5a/output <- inception_5a/pool_proj
I0511 03:57:22.594386 24731 net.cpp:334] inception_5a/output -> inception_5a/output
I0511 03:57:22.594395 24731 net.cpp:105] Setting up inception_5a/output
I0511 03:57:22.594401 24731 net.cpp:112] Top shape: 32 832 7 7 (1304576)
I0511 03:57:22.594408 24731 layer_factory.hpp:74] Creating layer inception_5a/output_inception_5a/output_0_split
I0511 03:57:22.594415 24731 net.cpp:76] Creating Layer inception_5a/output_inception_5a/output_0_split
I0511 03:57:22.594421 24731 net.cpp:372] inception_5a/output_inception_5a/output_0_split <- inception_5a/output
I0511 03:57:22.594429 24731 net.cpp:334] inception_5a/output_inception_5a/output_0_split -> inception_5a/output_inception_5a/output_0_split_0
I0511 03:57:22.594437 24731 net.cpp:334] inception_5a/output_inception_5a/output_0_split -> inception_5a/output_inception_5a/output_0_split_1
I0511 03:57:22.594446 24731 net.cpp:334] inception_5a/output_inception_5a/output_0_split -> inception_5a/output_inception_5a/output_0_split_2
I0511 03:57:22.594455 24731 net.cpp:334] inception_5a/output_inception_5a/output_0_split -> inception_5a/output_inception_5a/output_0_split_3
I0511 03:57:22.594463 24731 net.cpp:105] Setting up inception_5a/output_inception_5a/output_0_split
I0511 03:57:22.594470 24731 net.cpp:112] Top shape: 32 832 7 7 (1304576)
I0511 03:57:22.594475 24731 net.cpp:112] Top shape: 32 832 7 7 (1304576)
I0511 03:57:22.594480 24731 net.cpp:112] Top shape: 32 832 7 7 (1304576)
I0511 03:57:22.594485 24731 net.cpp:112] Top shape: 32 832 7 7 (1304576)
I0511 03:57:22.594491 24731 layer_factory.hpp:74] Creating layer inception_5b/1x1
I0511 03:57:22.594501 24731 net.cpp:76] Creating Layer inception_5b/1x1
I0511 03:57:22.594507 24731 net.cpp:372] inception_5b/1x1 <- inception_5a/output_inception_5a/output_0_split_0
I0511 03:57:22.594517 24731 net.cpp:334] inception_5b/1x1 -> inception_5b/1x1
I0511 03:57:22.594528 24731 net.cpp:105] Setting up inception_5b/1x1
I0511 03:57:22.597187 24731 net.cpp:112] Top shape: 32 384 7 7 (602112)
I0511 03:57:22.597203 24731 layer_factory.hpp:74] Creating layer inception_5b/relu_1x1
I0511 03:57:22.597213 24731 net.cpp:76] Creating Layer inception_5b/relu_1x1
I0511 03:57:22.597218 24731 net.cpp:372] inception_5b/relu_1x1 <- inception_5b/1x1
I0511 03:57:22.597228 24731 net.cpp:323] inception_5b/relu_1x1 -> inception_5b/1x1 (in-place)
I0511 03:57:22.597236 24731 net.cpp:105] Setting up inception_5b/relu_1x1
I0511 03:57:22.597241 24731 net.cpp:112] Top shape: 32 384 7 7 (602112)
I0511 03:57:22.597247 24731 layer_factory.hpp:74] Creating layer inception_5b/3x3_reduce
I0511 03:57:22.597255 24731 net.cpp:76] Creating Layer inception_5b/3x3_reduce
I0511 03:57:22.597261 24731 net.cpp:372] inception_5b/3x3_reduce <- inception_5a/output_inception_5a/output_0_split_1
I0511 03:57:22.597282 24731 net.cpp:334] inception_5b/3x3_reduce -> inception_5b/3x3_reduce
I0511 03:57:22.597295 24731 net.cpp:105] Setting up inception_5b/3x3_reduce
I0511 03:57:22.598630 24731 net.cpp:112] Top shape: 32 192 7 7 (301056)
I0511 03:57:22.598647 24731 layer_factory.hpp:74] Creating layer inception_5b/relu_3x3_reduce
I0511 03:57:22.598655 24731 net.cpp:76] Creating Layer inception_5b/relu_3x3_reduce
I0511 03:57:22.598661 24731 net.cpp:372] inception_5b/relu_3x3_reduce <- inception_5b/3x3_reduce
I0511 03:57:22.598669 24731 net.cpp:323] inception_5b/relu_3x3_reduce -> inception_5b/3x3_reduce (in-place)
I0511 03:57:22.598676 24731 net.cpp:105] Setting up inception_5b/relu_3x3_reduce
I0511 03:57:22.598682 24731 net.cpp:112] Top shape: 32 192 7 7 (301056)
I0511 03:57:22.598687 24731 layer_factory.hpp:74] Creating layer inception_5b/3x3
I0511 03:57:22.598695 24731 net.cpp:76] Creating Layer inception_5b/3x3
I0511 03:57:22.598701 24731 net.cpp:372] inception_5b/3x3 <- inception_5b/3x3_reduce
I0511 03:57:22.598711 24731 net.cpp:334] inception_5b/3x3 -> inception_5b/3x3
I0511 03:57:22.598721 24731 net.cpp:105] Setting up inception_5b/3x3
I0511 03:57:22.604704 24731 net.cpp:112] Top shape: 32 384 7 7 (602112)
I0511 03:57:22.604725 24731 layer_factory.hpp:74] Creating layer inception_5b/relu_3x3
I0511 03:57:22.604735 24731 net.cpp:76] Creating Layer inception_5b/relu_3x3
I0511 03:57:22.604742 24731 net.cpp:372] inception_5b/relu_3x3 <- inception_5b/3x3
I0511 03:57:22.604753 24731 net.cpp:323] inception_5b/relu_3x3 -> inception_5b/3x3 (in-place)
I0511 03:57:22.604761 24731 net.cpp:105] Setting up inception_5b/relu_3x3
I0511 03:57:22.604766 24731 net.cpp:112] Top shape: 32 384 7 7 (602112)
I0511 03:57:22.604771 24731 layer_factory.hpp:74] Creating layer inception_5b/5x5_reduce
I0511 03:57:22.604780 24731 net.cpp:76] Creating Layer inception_5b/5x5_reduce
I0511 03:57:22.604786 24731 net.cpp:372] inception_5b/5x5_reduce <- inception_5a/output_inception_5a/output_0_split_2
I0511 03:57:22.604796 24731 net.cpp:334] inception_5b/5x5_reduce -> inception_5b/5x5_reduce
I0511 03:57:22.604806 24731 net.cpp:105] Setting up inception_5b/5x5_reduce
I0511 03:57:22.605154 24731 net.cpp:112] Top shape: 32 48 7 7 (75264)
I0511 03:57:22.605166 24731 layer_factory.hpp:74] Creating layer inception_5b/relu_5x5_reduce
I0511 03:57:22.605177 24731 net.cpp:76] Creating Layer inception_5b/relu_5x5_reduce
I0511 03:57:22.605183 24731 net.cpp:372] inception_5b/relu_5x5_reduce <- inception_5b/5x5_reduce
I0511 03:57:22.605191 24731 net.cpp:323] inception_5b/relu_5x5_reduce -> inception_5b/5x5_reduce (in-place)
I0511 03:57:22.605200 24731 net.cpp:105] Setting up inception_5b/relu_5x5_reduce
I0511 03:57:22.605204 24731 net.cpp:112] Top shape: 32 48 7 7 (75264)
I0511 03:57:22.605209 24731 layer_factory.hpp:74] Creating layer inception_5b/5x5
I0511 03:57:22.605219 24731 net.cpp:76] Creating Layer inception_5b/5x5
I0511 03:57:22.605226 24731 net.cpp:372] inception_5b/5x5 <- inception_5b/5x5_reduce
I0511 03:57:22.605233 24731 net.cpp:334] inception_5b/5x5 -> inception_5b/5x5
I0511 03:57:22.605242 24731 net.cpp:105] Setting up inception_5b/5x5
I0511 03:57:22.606556 24731 net.cpp:112] Top shape: 32 128 7 7 (200704)
I0511 03:57:22.606571 24731 layer_factory.hpp:74] Creating layer inception_5b/relu_5x5
I0511 03:57:22.606580 24731 net.cpp:76] Creating Layer inception_5b/relu_5x5
I0511 03:57:22.606585 24731 net.cpp:372] inception_5b/relu_5x5 <- inception_5b/5x5
I0511 03:57:22.606592 24731 net.cpp:323] inception_5b/relu_5x5 -> inception_5b/5x5 (in-place)
I0511 03:57:22.606600 24731 net.cpp:105] Setting up inception_5b/relu_5x5
I0511 03:57:22.606606 24731 net.cpp:112] Top shape: 32 128 7 7 (200704)
I0511 03:57:22.606611 24731 layer_factory.hpp:74] Creating layer inception_5b/pool
I0511 03:57:22.606621 24731 net.cpp:76] Creating Layer inception_5b/pool
I0511 03:57:22.606627 24731 net.cpp:372] inception_5b/pool <- inception_5a/output_inception_5a/output_0_split_3
I0511 03:57:22.606636 24731 net.cpp:334] inception_5b/pool -> inception_5b/pool
I0511 03:57:22.606643 24731 net.cpp:105] Setting up inception_5b/pool
I0511 03:57:22.606652 24731 net.cpp:112] Top shape: 32 832 7 7 (1304576)
I0511 03:57:22.606657 24731 layer_factory.hpp:74] Creating layer inception_5b/pool_proj
I0511 03:57:22.606667 24731 net.cpp:76] Creating Layer inception_5b/pool_proj
I0511 03:57:22.606674 24731 net.cpp:372] inception_5b/pool_proj <- inception_5b/pool
I0511 03:57:22.606681 24731 net.cpp:334] inception_5b/pool_proj -> inception_5b/pool_proj
I0511 03:57:22.606690 24731 net.cpp:105] Setting up inception_5b/pool_proj
I0511 03:57:22.607594 24731 net.cpp:112] Top shape: 32 128 7 7 (200704)
I0511 03:57:22.607607 24731 layer_factory.hpp:74] Creating layer inception_5b/relu_pool_proj
I0511 03:57:22.607615 24731 net.cpp:76] Creating Layer inception_5b/relu_pool_proj
I0511 03:57:22.607621 24731 net.cpp:372] inception_5b/relu_pool_proj <- inception_5b/pool_proj
I0511 03:57:22.607630 24731 net.cpp:323] inception_5b/relu_pool_proj -> inception_5b/pool_proj (in-place)
I0511 03:57:22.607636 24731 net.cpp:105] Setting up inception_5b/relu_pool_proj
I0511 03:57:22.607642 24731 net.cpp:112] Top shape: 32 128 7 7 (200704)
I0511 03:57:22.607647 24731 layer_factory.hpp:74] Creating layer inception_5b/output
I0511 03:57:22.607681 24731 net.cpp:76] Creating Layer inception_5b/output
I0511 03:57:22.607689 24731 net.cpp:372] inception_5b/output <- inception_5b/1x1
I0511 03:57:22.607697 24731 net.cpp:372] inception_5b/output <- inception_5b/3x3
I0511 03:57:22.607702 24731 net.cpp:372] inception_5b/output <- inception_5b/5x5
I0511 03:57:22.607708 24731 net.cpp:372] inception_5b/output <- inception_5b/pool_proj
I0511 03:57:22.607717 24731 net.cpp:334] inception_5b/output -> inception_5b/output
I0511 03:57:22.607724 24731 net.cpp:105] Setting up inception_5b/output
I0511 03:57:22.607731 24731 net.cpp:112] Top shape: 32 1024 7 7 (1605632)
I0511 03:57:22.607736 24731 layer_factory.hpp:74] Creating layer pool5/7x7_s1
I0511 03:57:22.607745 24731 net.cpp:76] Creating Layer pool5/7x7_s1
I0511 03:57:22.607751 24731 net.cpp:372] pool5/7x7_s1 <- inception_5b/output
I0511 03:57:22.607759 24731 net.cpp:334] pool5/7x7_s1 -> pool5/7x7_s1
I0511 03:57:22.607767 24731 net.cpp:105] Setting up pool5/7x7_s1
I0511 03:57:22.607774 24731 net.cpp:112] Top shape: 32 1024 1 1 (32768)
I0511 03:57:22.607779 24731 layer_factory.hpp:74] Creating layer pool5/drop_7x7_s1
I0511 03:57:22.607789 24731 net.cpp:76] Creating Layer pool5/drop_7x7_s1
I0511 03:57:22.607794 24731 net.cpp:372] pool5/drop_7x7_s1 <- pool5/7x7_s1
I0511 03:57:22.607800 24731 net.cpp:323] pool5/drop_7x7_s1 -> pool5/7x7_s1 (in-place)
I0511 03:57:22.607807 24731 net.cpp:105] Setting up pool5/drop_7x7_s1
I0511 03:57:22.607815 24731 net.cpp:112] Top shape: 32 1024 1 1 (32768)
I0511 03:57:22.607820 24731 layer_factory.hpp:74] Creating layer loss3/classifier
I0511 03:57:22.607831 24731 net.cpp:76] Creating Layer loss3/classifier
I0511 03:57:22.607837 24731 net.cpp:372] loss3/classifier <- pool5/7x7_s1
I0511 03:57:22.607847 24731 net.cpp:334] loss3/classifier -> loss3/classifier
I0511 03:57:22.607856 24731 net.cpp:105] Setting up loss3/classifier
I0511 03:57:22.607887 24731 net.cpp:112] Top shape: 32 2 1 1 (64)
I0511 03:57:22.607898 24731 layer_factory.hpp:74] Creating layer loss3/classifier_loss3/classifier_0_split
I0511 03:57:22.607905 24731 net.cpp:76] Creating Layer loss3/classifier_loss3/classifier_0_split
I0511 03:57:22.607911 24731 net.cpp:372] loss3/classifier_loss3/classifier_0_split <- loss3/classifier
I0511 03:57:22.607918 24731 net.cpp:334] loss3/classifier_loss3/classifier_0_split -> loss3/classifier_loss3/classifier_0_split_0
I0511 03:57:22.607928 24731 net.cpp:334] loss3/classifier_loss3/classifier_0_split -> loss3/classifier_loss3/classifier_0_split_1
I0511 03:57:22.607935 24731 net.cpp:105] Setting up loss3/classifier_loss3/classifier_0_split
I0511 03:57:22.607941 24731 net.cpp:112] Top shape: 32 2 1 1 (64)
I0511 03:57:22.607966 24731 net.cpp:112] Top shape: 32 2 1 1 (64)
I0511 03:57:22.607972 24731 layer_factory.hpp:74] Creating layer loss3/loss3
I0511 03:57:22.607983 24731 net.cpp:76] Creating Layer loss3/loss3
I0511 03:57:22.607990 24731 net.cpp:372] loss3/loss3 <- loss3/classifier_loss3/classifier_0_split_0
I0511 03:57:22.607997 24731 net.cpp:372] loss3/loss3 <- label_data_1_split_4
I0511 03:57:22.608005 24731 net.cpp:334] loss3/loss3 -> loss3/loss3
I0511 03:57:22.608012 24731 net.cpp:105] Setting up loss3/loss3
I0511 03:57:22.608021 24731 layer_factory.hpp:74] Creating layer loss3/loss3
I0511 03:57:22.608036 24731 net.cpp:112] Top shape: 1 1 1 1 (1)
I0511 03:57:22.608042 24731 net.cpp:118]     with loss weight 1
I0511 03:57:22.608058 24731 layer_factory.hpp:74] Creating layer loss3/top-1
I0511 03:57:22.608068 24731 net.cpp:76] Creating Layer loss3/top-1
I0511 03:57:22.608074 24731 net.cpp:372] loss3/top-1 <- loss3/classifier_loss3/classifier_0_split_1
I0511 03:57:22.608081 24731 net.cpp:372] loss3/top-1 <- label_data_1_split_5
I0511 03:57:22.608088 24731 net.cpp:334] loss3/top-1 -> loss3/top-1
I0511 03:57:22.608098 24731 net.cpp:105] Setting up loss3/top-1
I0511 03:57:22.608103 24731 net.cpp:112] Top shape: 1 1 1 1 (1)
I0511 03:57:22.608108 24731 net.cpp:165] loss3/top-1 does not need backward computation.
I0511 03:57:22.608114 24731 net.cpp:163] loss3/loss3 needs backward computation.
I0511 03:57:22.608129 24731 net.cpp:163] loss3/classifier_loss3/classifier_0_split needs backward computation.
I0511 03:57:22.608134 24731 net.cpp:163] loss3/classifier needs backward computation.
I0511 03:57:22.608139 24731 net.cpp:163] pool5/drop_7x7_s1 needs backward computation.
…
