…
I0511 04:49:45.565645 30017 net.cpp:253] The NetState phase (0) differed from the phase (1) specified by a rule in layer loss3/top-1
I0511 04:49:45.567116 30017 net.cpp:42] Initializing net from parameters: 
name: "GoogleNet"
state {
  phase: TRAIN
}
layer {
  name: "data"
  type: "Data"
  top: "data"
  top: "label"
  include {
    phase: TRAIN
  }
  transform_param {
    mirror: true
    crop_size: 224
    mean_value: 104
    mean_value: 117
    mean_value: 123
  }
  data_param {
    source: "train_lmdb"
    batch_size: 32
    backend: LMDB
  }
}
layer {
  name: "conv1/7x7_s2"
  type: "Convolution"
  bottom: "data"
  top: "conv1/7x7_s2"
  param {
    lr_mult: 1
    decay_mult: 1
  }
  param {
    lr_mult: 2
    decay_mult: 0
  }
  convolution_param {
    num_output: 64
    pad: 3
    kernel_size: 7
    stride: 2
    weight_filler {
      type: "xavier"
      std: 0.1
    }
    bias_filler {
      type: "constant"
      value: 0.2
    }
  }
}
layer {
  name: "conv1/relu_7x7"
  type: "ReLU"
  bottom: "conv1/7x7_s2"
  top: "conv1/7x7_s2"
}
layer {
  name: "pool1/3x3_s2"
  type: "Pooling"
  bottom: "conv1/7x7_s2"
  top: "pool1/3x3_s2"
  pooling_param {
    pool: MAX
    kernel_size: 3
    stride: 2
  }
}
layer {
  name: "pool1/norm1"
  type: "LRN"
  bottom: "pool1/3x3_s2"
  top: "pool1/norm1"
  lrn_param {
    local_size: 5
    alpha: 0.0001
    beta: 0.75
  }
}
layer {
  name: "conv2/3x3_reduce"
  type: "Convolution"
  bottom: "pool1/norm1"
  top: "conv2/3x3_reduce"
  param {
    lr_mult: 1
    decay_mult: 1
  }
  param {
    lr_mult: 2
    decay_mult: 0
  }
  convolution_param {
    num_output: 64
    kernel_size: 1
    weight_filler {
      type: "xavier"
      std: 0.1
    }
    bias_filler {
      type: "constant"
      value: 0.2
    }
  }
}
layer {
  name: "conv2/relu_3x3_reduce"
  type: "ReLU"
  bottom: "conv2/3x3_reduce"
  top: "conv2/3x3_reduce"
}
layer {
  name: "conv2/3x3"
  type: "Convolution"
  bottom: "conv2/3x3_reduce"
  top: "conv2/3x3"
  param {
    lr_mult: 1
    decay_mult: 1
  }
  param {
    lr_mult: 2
    decay_mult: 0
  }
  convolution_param {
    num_output: 192
    pad: 1
    kernel_size: 3
    weight_filler {
      type: "xavier"
      std: 0.03
    }
    bias_filler {
      type: "constant"
      value: 0.2
    }
  }
}
layer {
  name: "conv2/relu_3x3"
  type: "ReLU"
  bottom: "conv2/3x3"
  top: "conv2/3x3"
}
layer {
  name: "conv2/norm2"
  type: "LRN"
  bottom: "conv2/3x3"
  top: "conv2/norm2"
  lrn_param {
    local_size: 5
    alpha: 0.0001
    beta: 0.75
  }
}
layer {
  name: "pool2/3x3_s2"
  type: "Pooling"
  bottom: "conv2/norm2"
  top: "pool2/3x3_s2"
  pooling_param {
    pool: MAX
    kernel_size: 3
    stride: 2
  }
}
layer {
  name: "inception_3a/1x1"
  type: "Convolution"
  bottom: "pool2/3x3_s2"
  top: "inception_3a/1x1"
  param {
    lr_mult: 1
    decay_mult: 1
  }
  param {
    lr_mult: 2
    decay_mult: 0
  }
  convolution_param {
    num_output: 64
    kernel_size: 1
    weight_filler {
      type: "xavier"
      std: 0.03
    }
    bias_filler {
      type: "constant"
      value: 0.2
    }
  }
}
layer {
  name: "inception_3a/relu_1x1"
  type: "ReLU"
  bottom: "inception_3a/1x1"
  top: "inception_3a/1x1"
}
layer {
  name: "inception_3a/3x3_reduce"
  type: "Convolution"
  bottom: "pool2/3x3_s2"
  top: "inception_3a/3x3_reduce"
  param {
    lr_mult: 1
    decay_mult: 1
  }
  param {
    lr_mult: 2
    decay_mult: 0
  }
  convolution_param {
    num_output: 96
    kernel_size: 1
    weight_filler {
      type: "xavier"
      std: 0.09
    }
    bias_filler {
      type: "constant"
      value: 0.2
    }
  }
}
layer {
  name: "inception_3a/relu_3x3_reduce"
  type: "ReLU"
  bottom: "inception_3a/3x3_reduce"
  top: "inception_3a/3x3_reduce"
}
layer {
  name: "inception_3a/3x3"
  type: "Convolution"
  bottom: "inception_3a/3x3_reduce"
  top: "inception_3a/3x3"
  param {
    lr_mult: 1
    decay_mult: 1
  }
  param {
    lr_mult: 2
    decay_mult: 0
  }
  convolution_param {
    num_output: 128
    pad: 1
    kernel_size: 3
    weight_filler {
      type: "xavier"
      std: 0.03
    }
    bias_filler {
      type: "constant"
      value: 0.2
    }
  }
}
layer {
  name: "inception_3a/relu_3x3"
  type: "ReLU"
  bottom: "inception_3a/3x3"
  top: "inception_3a/3x3"
}
layer {
  name: "inception_3a/5x5_reduce"
  type: "Convolution"
  bottom: "pool2/3x3_s2"
  top: "inception_3a/5x5_reduce"
  param {
    lr_mult: 1
    decay_mult: 1
  }
  param {
    lr_mult: 2
    decay_mult: 0
  }
  convolution_param {
    num_output: 16
    kernel_size: 1
    weight_filler {
      type: "xavier"
      std: 0.2
    }
    bias_filler {
      type: "constant"
      value: 0.2
    }
  }
}
layer {
  name: "inception_3a/relu_5x5_reduce"
  type: "ReLU"
  bottom: "inception_3a/5x5_reduce"
  top: "inception_3a/5x5_reduce"
}
layer {
  name: "inception_3a/5x5"
  type: "Convolution"
  bottom: "inception_3a/5x5_reduce"
  top: "inception_3a/5x5"
  param {
    lr_mult: 1
    decay_mult: 1
  }
  param {
    lr_mult: 2
    decay_mult: 0
  }
  convolution_param {
    num_output: 32
    pad: 2
    kernel_size: 5
    weight_filler {
      type: "xavier"
      std: 0.03
    }
    bias_filler {
      type: "constant"
      value: 0.2
    }
  }
}
layer {
  name: "inception_3a/relu_5x5"
  type: "ReLU"
  bottom: "inception_3a/5x5"
  top: "inception_3a/5x5"
}
layer {
  name: "inception_3a/pool"
  type: "Pooling"
  bottom: "pool2/3x3_s2"
  top: "inception_3a/pool"
  pooling_param {
    pool: MAX
    kernel_size: 3
    stride: 1
    pad: 1
  }
}
layer {
  name: "inception_3a/pool_proj"
  type: "Convolution"
  bottom: "inception_3a/pool"
  top: "inception_3a/pool_proj"
  param {
    lr_mult: 1
    decay_mult: 1
  }
  param {
    lr_mult: 2
    decay_mult: 0
  }
  convolution_param {
    num_output: 32
    kernel_size: 1
    weight_filler {
      type: "xavier"
      std: 0.1
    }
    bias_filler {
      type: "constant"
      value: 0.2
    }
  }
}
layer {
  name: "inception_3a/relu_pool_proj"
  type: "ReLU"
  bottom: "inception_3a/pool_proj"
  top: "inception_3a/pool_proj"
}
layer {
  name: "inception_3a/output"
  type: "Concat"
  bottom: "inception_3a/1x1"
  bottom: "inception_3a/3x3"
  bottom: "inception_3a/5x5"
  bottom: "inception_3a/pool_proj"
  top: "inception_3a/output"
}
layer {
  name: "inception_3b/1x1"
  type: "Convolution"
  bottom: "inception_3a/output"
  top: "inception_3b/1x1"
  param {
    lr_mult: 1
    decay_mult: 1
  }
  param {
    lr_mult: 2
    decay_mult: 0
  }
  convolution_param {
    num_output: 128
    kernel_size: 1
    weight_filler {
      type: "xavier"
      std: 0.03
    }
    bias_filler {
      type: "constant"
      value: 0.2
    }
  }
}
layer {
  name: "inception_3b/relu_1x1"
  type: "ReLU"
  bottom: "inception_3b/1x1"
  top: "inception_3b/1x1"
}
layer {
  name: "inception_3b/3x3_reduce"
  type: "Convolution"
  bottom: "inception_3a/output"
  top: "inception_3b/3x3_reduce"
  param {
    lr_mult: 1
    decay_mult: 1
  }
  param {
    lr_mult: 2
    decay_mult: 0
  }
  convolution_param {
    num_output: 128
    kernel_size: 1
    weight_filler {
      type: "xavier"
      std: 0.09
    }
    bias_filler {
      type: "constant"
      value: 0.2
    }
  }
}
layer {
  name: "inception_3b/relu_3x3_reduce"
  type: "ReLU"
  bottom: "inception_3b/3x3_reduce"
  top: "inception_3b/3x3_reduce"
}
layer {
  name: "inception_3b/3x3"
  type: "Convolution"
  bottom: "inception_3b/3x3_reduce"
  top: "inception_3b/3x3"
  param {
    lr_mult: 1
    decay_mult: 1
  }
  param {
    lr_mult: 2
    decay_mult: 0
  }
  convolution_param {
    num_output: 192
    pad: 1
    kernel_size: 3
    weight_filler {
      type: "xavier"
      std: 0.03
    }
    bias_filler {
      type: "constant"
      value: 0.2
    }
  }
}
layer {
  name: "inception_3b/relu_3x3"
  type: "ReLU"
  bottom: "inception_3b/3x3"
  top: "inception_3b/3x3"
}
layer {
  name: "inception_3b/5x5_reduce"
  type: "Convolution"
  bottom: "inception_3a/output"
  top: "inception_3b/5x5_reduce"
  param {
    lr_mult: 1
    decay_mult: 1
  }
  param {
    lr_mult: 2
    decay_mult: 0
  }
  convolution_param {
    num_output: 32
    kernel_size: 1
    weight_filler {
      type: "xavier"
      std: 0.2
    }
    bias_filler {
      type: "constant"
      value: 0.2
    }
  }
}
layer {
  name: "inception_3b/relu_5x5_reduce"
  type: "ReLU"
  bottom: "inception_3b/5x5_reduce"
  top: "inception_3b/5x5_reduce"
}
layer {
  name: "inception_3b/5x5"
  type: "Convolution"
  bottom: "inception_3b/5x5_reduce"
  top: "inception_3b/5x5"
  param {
    lr_mult: 1
    decay_mult: 1
  }
  param {
    lr_mult: 2
    decay_mult: 0
  }
  convolution_param {
    num_output: 96
    pad: 2
    kernel_size: 5
    weight_filler {
      type: "xavier"
      std: 0.03
    }
    bias_filler {
      type: "constant"
      value: 0.2
    }
  }
}
layer {
  name: "inception_3b/relu_5x5"
  type: "ReLU"
  bottom: "inception_3b/5x5"
  top: "inception_3b/5x5"
}
layer {
  name: "inception_3b/pool"
  type: "Pooling"
  bottom: "inception_3a/output"
  top: "inception_3b/pool"
  pooling_param {
    pool: MAX
    kernel_size: 3
    stride: 1
    pad: 1
  }
}
layer {
  name: "inception_3b/pool_proj"
  type: "Convolution"
  bottom: "inception_3b/pool"
  top: "inception_3b/pool_proj"
  param {
    lr_mult: 1
    decay_mult: 1
  }
  param {
    lr_mult: 2
    decay_mult: 0
  }
  convolution_param {
    num_output: 64
    kernel_size: 1
    weight_filler {
      type: "xavier"
      std: 0.1
    }
    bias_filler {
      type: "constant"
      value: 0.2
    }
  }
}
layer {
  name: "inception_3b/relu_pool_proj"
  type: "ReLU"
  bottom: "inception_3b/pool_proj"
  top: "inception_3b/pool_proj"
}
layer {
  name: "inception_3b/output"
  type: "Concat"
  bottom: "inception_3b/1x1"
  bottom: "inception_3b/3x3"
  bottom: "inception_3b/5x5"
  bottom: "inception_3b/pool_proj"
  top: "inception_3b/output"
}
layer {
  name: "pool3/3x3_s2"
  type: "Pooling"
  bottom: "inception_3b/output"
  top: "pool3/3x3_s2"
  pooling_param {
    pool: MAX
    kernel_size: 3
    stride: 2
  }
}
layer {
  name: "inception_4a/1x1"
  type: "Convolution"
  bottom: "pool3/3x3_s2"
  top: "inception_4a/1x1"
  param {
    lr_mult: 1
    decay_mult: 1
  }
  param {
    lr_mult: 2
    decay_mult: 0
  }
  convolution_param {
    num_output: 192
    kernel_size: 1
    weight_filler {
      type: "xavier"
      std: 0.03
    }
    bias_filler {
      type: "constant"
      value: 0.2
    }
  }
}
layer {
  name: "inception_4a/relu_1x1"
  type: "ReLU"
  bottom: "inception_4a/1x1"
  top: "inception_4a/1x1"
}
layer {
  name: "inception_4a/3x3_reduce"
  type: "Convolution"
  bottom: "pool3/3x3_s2"
  top: "inception_4a/3x3_reduce"
  param {
    lr_mult: 1
    decay_mult: 1
  }
  param {
    lr_mult: 2
    decay_mult: 0
  }
  convolution_param {
    num_output: 96
    kernel_size: 1
    weight_filler {
      type: "xavier"
      std: 0.09
    }
    bias_filler {
      type: "constant"
      value: 0.2
    }
  }
}
layer {
  name: "inception_4a/relu_3x3_reduce"
  type: "ReLU"
  bottom: "inception_4a/3x3_reduce"
  top: "inception_4a/3x3_reduce"
}
layer {
  name: "inception_4a/3x3"
  type: "Convolution"
  bottom: "inception_4a/3x3_reduce"
  top: "inception_4a/3x3"
  param {
    lr_mult: 1
    decay_mult: 1
  }
  param {
    lr_mult: 2
    decay_mult: 0
  }
  convolution_param {
    num_output: 208
    pad: 1
    kernel_size: 3
    weight_filler {
      type: "xavier"
      std: 0.03
    }
    bias_filler {
      type: "constant"
      value: 0.2
    }
  }
}
layer {
  name: "inception_4a/relu_3x3"
  type: "ReLU"
  bottom: "inception_4a/3x3"
  top: "inception_4a/3x3"
}
layer {
  name: "inception_4a/5x5_reduce"
  type: "Convolution"
  bottom: "pool3/3x3_s2"
  top: "inception_4a/5x5_reduce"
  param {
    lr_mult: 1
    decay_mult: 1
  }
  param {
    lr_mult: 2
    decay_mult: 0
  }
  convolution_param {
    num_output: 16
    kernel_size: 1
    weight_filler {
      type: "xavier"
      std: 0.2
    }
    bias_filler {
      type: "constant"
      value: 0.2
    }
  }
}
layer {
  name: "inception_4a/relu_5x5_reduce"
  type: "ReLU"
  bottom: "inception_4a/5x5_reduce"
  top: "inception_4a/5x5_reduce"
}
layer {
  name: "inception_4a/5x5"
  type: "Convolution"
  bottom: "inception_4a/5x5_reduce"
  top: "inception_4a/5x5"
  param {
    lr_mult: 1
    decay_mult: 1
  }
  param {
    lr_mult: 2
    decay_mult: 0
  }
  convolution_param {
    num_output: 48
    pad: 2
    kernel_size: 5
    weight_filler {
      type: "xavier"
      std: 0.03
    }
    bias_filler {
      type: "constant"
      value: 0.2
    }
  }
}
layer {
  name: "inception_4a/relu_5x5"
  type: "ReLU"
  bottom: "inception_4a/5x5"
  top: "inception_4a/5x5"
}
layer {
  name: "inception_4a/pool"
  type: "Pooling"
  bottom: "pool3/3x3_s2"
  top: "inception_4a/pool"
  pooling_param {
    pool: MAX
    kernel_size: 3
    stride: 1
    pad: 1
  }
}
layer {
  name: "inception_4a/pool_proj"
  type: "Convolution"
  bottom: "inception_4a/pool"
  top: "inception_4a/pool_proj"
  param {
    lr_mult: 1
    decay_mult: 1
  }
  param {
    lr_mult: 2
    decay_mult: 0
  }
  convolution_param {
    num_output: 64
    kernel_size: 1
    weight_filler {
      type: "xavier"
      std: 0.1
    }
    bias_filler {
      type: "constant"
      value: 0.2
    }
  }
}
layer {
  name: "inception_4a/relu_pool_proj"
  type: "ReLU"
  bottom: "inception_4a/pool_proj"
  top: "inception_4a/pool_proj"
}
layer {
  name: "inception_4a/output"
  type: "Concat"
  bottom: "inception_4a/1x1"
  bottom: "inception_4a/3x3"
  bottom: "inception_4a/5x5"
  bottom: "inception_4a/pool_proj"
  top: "inception_4a/output"
}
layer {
  name: "loss1/ave_pool"
  type: "Pooling"
  bottom: "inception_4a/output"
  top: "loss1/ave_pool"
  pooling_param {
    pool: AVE
    kernel_size: 5
    stride: 3
  }
}
layer {
  name: "loss1/conv"
  type: "Convolution"
  bottom: "loss1/ave_pool"
  top: "loss1/conv"
  param {
    lr_mult: 1
    decay_mult: 1
  }
  param {
    lr_mult: 2
    decay_mult: 0
  }
  convolution_param {
    num_output: 128
    kernel_size: 1
    weight_filler {
      type: "xavier"
      std: 0.08
    }
    bias_filler {
      type: "constant"
      value: 0.2
    }
  }
}
layer {
  name: "loss1/relu_conv"
  type: "ReLU"
  bottom: "loss1/conv"
  top: "loss1/conv"
}
layer {
  name: "loss1/fc"
  type: "InnerProduct"
  bottom: "loss1/conv"
  top: "loss1/fc"
  param {
    lr_mult: 1
    decay_mult: 1
  }
  param {
    lr_mult: 2
    decay_mult: 0
  }
  inner_product_param {
    num_output: 1024
    weight_filler {
      type: "xavier"
      std: 0.02
    }
    bias_filler {
      type: "constant"
      value: 0.2
    }
  }
}
layer {
  name: "loss1/relu_fc"
  type: "ReLU"
  bottom: "loss1/fc"
  top: "loss1/fc"
}
layer {
  name: "loss1/drop_fc"
  type: "Dropout"
  bottom: "loss1/fc"
  top: "loss1/fc"
  dropout_param {
    dropout_ratio: 0.7
  }
}
layer {
  name: "loss1/classifier"
  type: "InnerProduct"
  bottom: "loss1/fc"
  top: "loss1/classifier"
  param {
    lr_mult: 1
    decay_mult: 1
  }
  param {
    lr_mult: 2
    decay_mult: 0
  }
  inner_product_param {
    num_output: 2
    weight_filler {
      type: "xavier"
      std: 0.0009765625
    }
    bias_filler {
      type: "constant"
      value: 0
    }
  }
}
layer {
  name: "loss1/loss"
  type: "SoftmaxWithLoss"
  bottom: "loss1/classifier"
  bottom: "label"
  top: "loss1/loss1"
  loss_weight: 0.3
}
layer {
  name: "inception_4b/1x1"
  type: "Convolution"
  bottom: "inception_4a/output"
  top: "inception_4b/1x1"
  param {
    lr_mult: 1
    decay_mult: 1
  }
  param {
    lr_mult: 2
    decay_mult: 0
  }
  convolution_param {
    num_output: 160
    kernel_size: 1
    weight_filler {
      type: "xavier"
      std: 0.03
    }
    bias_filler {
      type: "constant"
      value: 0.2
    }
  }
}
layer {
  name: "inception_4b/relu_1x1"
  type: "ReLU"
  bottom: "inception_4b/1x1"
  top: "inception_4b/1x1"
}
layer {
  name: "inception_4b/3x3_reduce"
  type: "Convolution"
  bottom: "inception_4a/output"
  top: "inception_4b/3x3_reduce"
  param {
    lr_mult: 1
    decay_mult: 1
  }
  param {
    lr_mult: 2
    decay_mult: 0
  }
  convolution_param {
    num_output: 112
    kernel_size: 1
    weight_filler {
      type: "xavier"
      std: 0.09
    }
    bias_filler {
      type: "constant"
      value: 0.2
    }
  }
}
layer {
  name: "inception_4b/relu_3x3_reduce"
  type: "ReLU"
  bottom: "inception_4b/3x3_reduce"
  top: "inception_4b/3x3_reduce"
}
layer {
  name: "inception_4b/3x3"
  type: "Convolution"
  bottom: "inception_4b/3x3_reduce"
  top: "inception_4b/3x3"
  param {
    lr_mult: 1
    decay_mult: 1
  }
  param {
    lr_mult: 2
    decay_mult: 0
  }
  convolution_param {
    num_output: 224
    pad: 1
    kernel_size: 3
    weight_filler {
      type: "xavier"
      std: 0.03
    }
    bias_filler {
      type: "constant"
      value: 0.2
    }
  }
}
layer {
  name: "inception_4b/relu_3x3"
  type: "ReLU"
  bottom: "inception_4b/3x3"
  top: "inception_4b/3x3"
}
layer {
  name: "inception_4b/5x5_reduce"
  type: "Convolution"
  bottom: "inception_4a/output"
  top: "inception_4b/5x5_reduce"
  param {
    lr_mult: 1
    decay_mult: 1
  }
  param {
    lr_mult: 2
    decay_mult: 0
  }
  convolution_param {
    num_output: 24
    kernel_size: 1
    weight_filler {
      type: "xavier"
      std: 0.2
    }
    bias_filler {
      type: "constant"
      value: 0.2
    }
  }
}
layer {
  name: "inception_4b/relu_5x5_reduce"
  type: "ReLU"
  bottom: "inception_4b/5x5_reduce"
  top: "inception_4b/5x5_reduce"
}
layer {
  name: "inception_4b/5x5"
  type: "Convolution"
  bottom: "inception_4b/5x5_reduce"
  top: "inception_4b/5x5"
  param {
    lr_mult: 1
    decay_mult: 1
  }
  param {
    lr_mult: 2
    decay_mult: 0
  }
  convolution_param {
    num_output: 64
    pad: 2
    kernel_size: 5
    weight_filler {
      type: "xavier"
      std: 0.03
    }
    bias_filler {
      type: "constant"
      value: 0.2
    }
  }
}
layer {
  name: "inception_4b/relu_5x5"
  type: "ReLU"
  bottom: "inception_4b/5x5"
  top: "inception_4b/5x5"
}
layer {
  name: "inception_4b/pool"
  type: "Pooling"
  bottom: "inception_4a/output"
  top: "inception_4b/pool"
  pooling_param {
    pool: MAX
    kernel_size: 3
    stride: 1
    pad: 1
  }
}
layer {
  name: "inception_4b/pool_proj"
  type: "Convolution"
  bottom: "inception_4b/pool"
  top: "inception_4b/pool_proj"
  param {
    lr_mult: 1
    decay_mult: 1
  }
  param {
    lr_mult: 2
    decay_mult: 0
  }
  convolution_param {
    num_output: 64
    kernel_size: 1
    weight_filler {
      type: "xavier"
      std: 0.1
    }
    bias_filler {
      type: "constant"
      value: 0.2
    }
  }
}
layer {
  name: "inception_4b/relu_pool_proj"
  type: "ReLU"
  bottom: "inception_4b/pool_proj"
  top: "inception_4b/pool_proj"
}
layer {
  name: "inception_4b/output"
  type: "Concat"
  bottom: "inception_4b/1x1"
  bottom: "inception_4b/3x3"
  bottom: "inception_4b/5x5"
  bottom: "inception_4b/pool_proj"
  top: "inception_4b/output"
}
layer {
  name: "inception_4c/1x1"
  type: "Convolution"
  bottom: "inception_4b/output"
  top: "inception_4c/1x1"
  param {
    lr_mult: 1
    decay_mult: 1
  }
  param {
    lr_mult: 2
    decay_mult: 0
  }
  convolution_param {
    num_output: 128
    kernel_size: 1
    weight_filler {
      type: "xavier"
      std: 0.03
    }
    bias_filler {
      type: "constant"
      value: 0.2
    }
  }
}
layer {
  name: "inception_4c/relu_1x1"
  type: "ReLU"
  bottom: "inception_4c/1x1"
  top: "inception_4c/1x1"
}
layer {
  name: "inception_4c/3x3_reduce"
  type: "Convolution"
  bottom: "inception_4b/output"
  top: "inception_4c/3x3_reduce"
  param {
    lr_mult: 1
    decay_mult: 1
  }
  param {
    lr_mult: 2
    decay_mult: 0
  }
  convolution_param {
    num_output: 128
    kernel_size: 1
    weight_filler {
      type: "xavier"
      std: 0.09
    }
    bias_filler {
      type: "constant"
      value: 0.2
    }
  }
}
layer {
  name: "inception_4c/relu_3x3_reduce"
  type: "ReLU"
  bottom: "inception_4c/3x3_reduce"
  top: "inception_4c/3x3_reduce"
}
layer {
  name: "inception_4c/3x3"
  type: "Convolution"
  bottom: "inception_4c/3x3_reduce"
  top: "inception_4c/3x3"
  param {
    lr_mult: 1
    decay_mult: 1
  }
  param {
    lr_mult: 2
    decay_mult: 0
  }
  convolution_param {
    num_output: 256
    pad: 1
    kernel_size: 3
    weight_filler {
      type: "xavier"
      std: 0.03
    }
    bias_filler {
      type: "constant"
      value: 0.2
    }
  }
}
layer {
  name: "inception_4c/relu_3x3"
  type: "ReLU"
  bottom: "inception_4c/3x3"
  top: "inception_4c/3x3"
}
layer {
  name: "inception_4c/5x5_reduce"
  type: "Convolution"
  bottom: "inception_4b/output"
  top: "inception_4c/5x5_reduce"
  param {
    lr_mult: 1
    decay_mult: 1
  }
  param {
    lr_mult: 2
    decay_mult: 0
  }
  convolution_param {
    num_output: 24
    kernel_size: 1
    weight_filler {
      type: "xavier"
      std: 0.2
    }
    bias_filler {
      type: "constant"
      value: 0.2
    }
  }
}
layer {
  name: "inception_4c/relu_5x5_reduce"
  type: "ReLU"
  bottom: "inception_4c/5x5_reduce"
  top: "inception_4c/5x5_reduce"
}
layer {
  name: "inception_4c/5x5"
  type: "Convolution"
  bottom: "inception_4c/5x5_reduce"
  top: "inception_4c/5x5"
  param {
    lr_mult: 1
    decay_mult: 1
  }
  param {
    lr_mult: 2
    decay_mult: 0
  }
  convolution_param {
    num_output: 64
    pad: 2
    kernel_size: 5
    weight_filler {
      type: "xavier"
      std: 0.03
    }
    bias_filler {
      type: "constant"
      value: 0.2
    }
  }
}
layer {
  name: "inception_4c/relu_5x5"
  type: "ReLU"
  bottom: "inception_4c/5x5"
  top: "inception_4c/5x5"
}
layer {
  name: "inception_4c/pool"
  type: "Pooling"
  bottom: "inception_4b/output"
  top: "inception_4c/pool"
  pooling_param {
    pool: MAX
    kernel_size: 3
    stride: 1
    pad: 1
  }
}
layer {
  name: "inception_4c/pool_proj"
  type: "Convolution"
  bottom: "inception_4c/pool"
  top: "inception_4c/pool_proj"
  param {
    lr_mult: 1
    decay_mult: 1
  }
  param {
    lr_mult: 2
    decay_mult: 0
  }
  convolution_param {
    num_output: 64
    kernel_size: 1
    weight_filler {
      type: "xavier"
      std: 0.1
    }
    bias_filler {
      type: "constant"
      value: 0.2
    }
  }
}
layer {
  name: "inception_4c/relu_pool_proj"
  type: "ReLU"
  bottom: "inception_4c/pool_proj"
  top: "inception_4c/pool_proj"
}
layer {
  name: "inception_4c/output"
  type: "Concat"
  bottom: "inception_4c/1x1"
  bottom: "inception_4c/3x3"
  bottom: "inception_4c/5x5"
  bottom: "inception_4c/pool_proj"
  top: "inception_4c/output"
}
layer {
  name: "inception_4d/1x1"
  type: "Convolution"
  bottom: "inception_4c/output"
  top: "inception_4d/1x1"
  param {
    lr_mult: 1
    decay_mult: 1
  }
  param {
    lr_mult: 2
    decay_mult: 0
  }
  convolution_param {
    num_output: 112
    kernel_size: 1
    weight_filler {
      type: "xavier"
      std: 0.03
    }
    bias_filler {
      type: "constant"
      value: 0.2
    }
  }
}
layer {
  name: "inception_4d/relu_1x1"
  type: "ReLU"
  bottom: "inception_4d/1x1"
  top: "inception_4d/1x1"
}
layer {
  name: "inception_4d/3x3_reduce"
  type: "Convolution"
  bottom: "inception_4c/output"
  top: "inception_4d/3x3_reduce"
  param {
    lr_mult: 1
    decay_mult: 1
  }
  param {
    lr_mult: 2
    decay_mult: 0
  }
  convolution_param {
    num_output: 144
    kernel_size: 1
    weight_filler {
      type: "xavier"
      std: 0.09
    }
    bias_filler {
      type: "constant"
      value: 0.2
    }
  }
}
layer {
  name: "inception_4d/relu_3x3_reduce"
  type: "ReLU"
  bottom: "inception_4d/3x3_reduce"
  top: "inception_4d/3x3_reduce"
}
layer {
  name: "inception_4d/3x3"
  type: "Convolution"
  bottom: "inception_4d/3x3_reduce"
  top: "inception_4d/3x3"
  param {
    lr_mult: 1
    decay_mult: 1
  }
  param {
    lr_mult: 2
    decay_mult: 0
  }
  convolution_param {
    num_output: 288
    pad: 1
    kernel_size: 3
    weight_filler {
      type: "xavier"
      std: 0.03
    }
    bias_filler {
      type: "constant"
      value: 0.2
    }
  }
}
layer {
  name: "inception_4d/relu_3x3"
  type: "ReLU"
  bottom: "inception_4d/3x3"
  top: "inception_4d/3x3"
}
layer {
  name: "inception_4d/5x5_reduce"
  type: "Convolution"
  bottom: "inception_4c/output"
  top: "inception_4d/5x5_reduce"
  param {
    lr_mult: 1
    decay_mult: 1
  }
  param {
    lr_mult: 2
    decay_mult: 0
  }
  convolution_param {
    num_output: 32
    kernel_size: 1
    weight_filler {
      type: "xavier"
      std: 0.2
    }
    bias_filler {
      type: "constant"
      value: 0.2
    }
  }
}
layer {
  name: "inception_4d/relu_5x5_reduce"
  type: "ReLU"
  bottom: "inception_4d/5x5_reduce"
  top: "inception_4d/5x5_reduce"
}
layer {
  name: "inception_4d/5x5"
  type: "Convolution"
  bottom: "inception_4d/5x5_reduce"
  top: "inception_4d/5x5"
  param {
    lr_mult: 1
    decay_mult: 1
  }
  param {
    lr_mult: 2
    decay_mult: 0
  }
  convolution_param {
    num_output: 64
    pad: 2
    kernel_size: 5
    weight_filler {
      type: "xavier"
      std: 0.03
    }
    bias_filler {
      type: "constant"
      value: 0.2
    }
  }
}
layer {
  name: "inception_4d/relu_5x5"
  type: "ReLU"
  bottom: "inception_4d/5x5"
  top: "inception_4d/5x5"
}
layer {
  name: "inception_4d/pool"
  type: "Pooling"
  bottom: "inception_4c/output"
  top: "inception_4d/pool"
  pooling_param {
    pool: MAX
    kernel_size: 3
    stride: 1
    pad: 1
  }
}
layer {
  name: "inception_4d/pool_proj"
  type: "Convolution"
  bottom: "inception_4d/pool"
  top: "inception_4d/pool_proj"
  param {
    lr_mult: 1
    decay_mult: 1
  }
  param {
    lr_mult: 2
    decay_mult: 0
  }
  convolution_param {
    num_output: 64
    kernel_size: 1
    weight_filler {
      type: "xavier"
      std: 0.1
    }
    bias_filler {
      type: "constant"
      value: 0.2
    }
  }
}
layer {
  name: "inception_4d/relu_pool_proj"
  type: "ReLU"
  bottom: "inception_4d/pool_proj"
  top: "inception_4d/pool_proj"
}
layer {
  name: "inception_4d/output"
  type: "Concat"
  bottom: "inception_4d/1x1"
  bottom: "inception_4d/3x3"
  bottom: "inception_4d/5x5"
  bottom: "inception_4d/pool_proj"
  top: "inception_4d/output"
}
layer {
  name: "loss2/ave_pool"
  type: "Pooling"
  bottom: "inception_4d/output"
  top: "loss2/ave_pool"
  pooling_param {
    pool: AVE
    kernel_size: 5
    stride: 3
  }
}
layer {
  name: "loss2/conv"
  type: "Convolution"
  bottom: "loss2/ave_pool"
  top: "loss2/conv"
  param {
    lr_mult: 1
    decay_mult: 1
  }
  param {
    lr_mult: 2
    decay_mult: 0
  }
  convolution_param {
    num_output: 128
    kernel_size: 1
    weight_filler {
      type: "xavier"
      std: 0.08
    }
    bias_filler {
      type: "constant"
      value: 0.2
    }
  }
}
layer {
  name: "loss2/relu_conv"
  type: "ReLU"
  bottom: "loss2/conv"
  top: "loss2/conv"
}
layer {
  name: "loss2/fc"
  type: "InnerProduct"
  bottom: "loss2/conv"
  top: "loss2/fc"
  param {
    lr_mult: 1
    decay_mult: 1
  }
  param {
    lr_mult: 2
    decay_mult: 0
  }
  inner_product_param {
    num_output: 1024
    weight_filler {
      type: "xavier"
      std: 0.02
    }
    bias_filler {
      type: "constant"
      value: 0.2
    }
  }
}
layer {
  name: "loss2/relu_fc"
  type: "ReLU"
  bottom: "loss2/fc"
  top: "loss2/fc"
}
layer {
  name: "loss2/drop_fc"
  type: "Dropout"
  bottom: "loss2/fc"
  top: "loss2/fc"
  dropout_param {
    dropout_ratio: 0.7
  }
}
layer {
  name: "loss2/classifier"
  type: "InnerProduct"
  bottom: "loss2/fc"
  top: "loss2/classifier"
  param {
    lr_mult: 1
    decay_mult: 1
  }
  param {
    lr_mult: 2
    decay_mult: 0
  }
  inner_product_param {
    num_output: 2
    weight_filler {
      type: "xavier"
      std: 0.0009765625
    }
    bias_filler {
      type: "constant"
      value: 0
    }
  }
}
layer {
  name: "loss2/loss"
  type: "SoftmaxWithLoss"
  bottom: "loss2/classifier"
  bottom: "label"
  top: "loss2/loss1"
  loss_weight: 0.3
}
layer {
  name: "inception_4e/1x1"
  type: "Convolution"
  bottom: "inception_4d/output"
  top: "inception_4e/1x1"
  param {
    lr_mult: 1
    decay_mult: 1
  }
  param {
    lr_mult: 2
    decay_mult: 0
  }
  convolution_param {
    num_output: 256
    kernel_size: 1
    weight_filler {
      type: "xavier"
      std: 0.03
    }
    bias_filler {
      type: "constant"
      value: 0.2
    }
  }
}
layer {
  name: "inception_4e/relu_1x1"
  type: "ReLU"
  bottom: "inception_4e/1x1"
  top: "inception_4e/1x1"
}
layer {
  name: "inception_4e/3x3_reduce"
  type: "Convolution"
  bottom: "inception_4d/output"
  top: "inception_4e/3x3_reduce"
  param {
    lr_mult: 1
    decay_mult: 1
  }
  param {
    lr_mult: 2
    decay_mult: 0
  }
  convolution_param {
    num_output: 160
    kernel_size: 1
    weight_filler {
      type: "xavier"
      std: 0.09
    }
    bias_filler {
      type: "constant"
      value: 0.2
    }
  }
}
layer {
  name: "inception_4e/relu_3x3_reduce"
  type: "ReLU"
  bottom: "inception_4e/3x3_reduce"
  top: "inception_4e/3x3_reduce"
}
layer {
  name: "inception_4e/3x3"
  type: "Convolution"
  bottom: "inception_4e/3x3_reduce"
  top: "inception_4e/3x3"
  param {
    lr_mult: 1
    decay_mult: 1
  }
  param {
    lr_mult: 2
    decay_mult: 0
  }
  convolution_param {
    num_output: 320
    pad: 1
    kernel_size: 3
    weight_filler {
      type: "xavier"
      std: 0.03
    }
    bias_filler {
      type: "constant"
      value: 0.2
    }
  }
}
layer {
  name: "inception_4e/relu_3x3"
  type: "ReLU"
  bottom: "inception_4e/3x3"
  top: "inception_4e/3x3"
}
layer {
  name: "inception_4e/5x5_reduce"
  type: "Convolution"
  bottom: "inception_4d/output"
  top: "inception_4e/5x5_reduce"
  param {
    lr_mult: 1
    decay_mult: 1
  }
  param {
    lr_mult: 2
    decay_mult: 0
  }
  convolution_param {
    num_output: 32
    kernel_size: 1
    weight_filler {
      type: "xavier"
      std: 0.2
    }
    bias_filler {
      type: "constant"
      value: 0.2
    }
  }
}
layer {
  name: "inception_4e/relu_5x5_reduce"
  type: "ReLU"
  bottom: "
I0511 04:49:45.572242 30017 layer_factory.hpp:74] Creating layer data
I0511 04:49:45.572309 30017 net.cpp:76] Creating Layer data
I0511 04:49:45.572336 30017 net.cpp:334] data -> data
I0511 04:49:45.572384 30017 net.cpp:334] data -> label
I0511 04:49:45.572420 30017 net.cpp:105] Setting up data
I0511 04:49:45.572584 30017 db.cpp:34] Opened lmdb train_lmdb
I0511 04:49:45.572877 30017 data_layer.cpp:67] output data size: 32,3,224,224
I0511 04:49:45.579922 30017 net.cpp:112] Top shape: 32 3 224 224 (4816896)
I0511 04:49:45.579947 30017 net.cpp:112] Top shape: 32 1 1 1 (32)
I0511 04:49:45.579965 30017 layer_factory.hpp:74] Creating layer label_data_1_split
I0511 04:49:45.579991 30017 net.cpp:76] Creating Layer label_data_1_split
I0511 04:49:45.580011 30017 net.cpp:372] label_data_1_split <- label
I0511 04:49:45.580031 30017 net.cpp:334] label_data_1_split -> label_data_1_split_0
I0511 04:49:45.580046 30017 net.cpp:334] label_data_1_split -> label_data_1_split_1
I0511 04:49:45.580056 30017 net.cpp:334] label_data_1_split -> label_data_1_split_2
I0511 04:49:45.580065 30017 net.cpp:105] Setting up label_data_1_split
I0511 04:49:45.580075 30017 net.cpp:112] Top shape: 32 1 1 1 (32)
I0511 04:49:45.580080 30017 net.cpp:112] Top shape: 32 1 1 1 (32)
I0511 04:49:45.580085 30017 net.cpp:112] Top shape: 32 1 1 1 (32)
I0511 04:49:45.580091 30017 layer_factory.hpp:74] Creating layer conv1/7x7_s2
I0511 04:49:45.580107 30017 net.cpp:76] Creating Layer conv1/7x7_s2
I0511 04:49:45.580113 30017 net.cpp:372] conv1/7x7_s2 <- data
I0511 04:49:45.580122 30017 net.cpp:334] conv1/7x7_s2 -> conv1/7x7_s2
I0511 04:49:45.580134 30017 net.cpp:105] Setting up conv1/7x7_s2
I0511 04:49:45.580255 30017 net.cpp:112] Top shape: 32 64 112 112 (25690112)
I0511 04:49:45.580339 30017 layer_factory.hpp:74] Creating layer conv1/relu_7x7
I0511 04:49:45.580358 30017 net.cpp:76] Creating Layer conv1/relu_7x7
I0511 04:49:45.580365 30017 net.cpp:372] conv1/relu_7x7 <- conv1/7x7_s2
I0511 04:49:45.580374 30017 net.cpp:323] conv1/relu_7x7 -> conv1/7x7_s2 (in-place)
I0511 04:49:45.580382 30017 net.cpp:105] Setting up conv1/relu_7x7
I0511 04:49:45.580391 30017 net.cpp:112] Top shape: 32 64 112 112 (25690112)
I0511 04:49:45.580397 30017 layer_factory.hpp:74] Creating layer pool1/3x3_s2
I0511 04:49:45.580409 30017 net.cpp:76] Creating Layer pool1/3x3_s2
I0511 04:49:45.580415 30017 net.cpp:372] pool1/3x3_s2 <- conv1/7x7_s2
I0511 04:49:45.580425 30017 net.cpp:334] pool1/3x3_s2 -> pool1/3x3_s2
I0511 04:49:45.580435 30017 net.cpp:105] Setting up pool1/3x3_s2
I0511 04:49:45.580449 30017 net.cpp:112] Top shape: 32 64 56 56 (6422528)
I0511 04:49:45.580456 30017 layer_factory.hpp:74] Creating layer pool1/norm1
I0511 04:49:45.580466 30017 net.cpp:76] Creating Layer pool1/norm1
I0511 04:49:45.580472 30017 net.cpp:372] pool1/norm1 <- pool1/3x3_s2
I0511 04:49:45.580481 30017 net.cpp:334] pool1/norm1 -> pool1/norm1
I0511 04:49:45.580489 30017 net.cpp:105] Setting up pool1/norm1
I0511 04:49:45.580500 30017 net.cpp:112] Top shape: 32 64 56 56 (6422528)
I0511 04:49:45.580512 30017 layer_factory.hpp:74] Creating layer conv2/3x3_reduce
I0511 04:49:45.580528 30017 net.cpp:76] Creating Layer conv2/3x3_reduce
I0511 04:49:45.580541 30017 net.cpp:372] conv2/3x3_reduce <- pool1/norm1
I0511 04:49:45.580554 30017 net.cpp:334] conv2/3x3_reduce -> conv2/3x3_reduce
I0511 04:49:45.580564 30017 net.cpp:105] Setting up conv2/3x3_reduce
I0511 04:49:45.580610 30017 net.cpp:112] Top shape: 32 64 56 56 (6422528)
I0511 04:49:45.580624 30017 layer_factory.hpp:74] Creating layer conv2/relu_3x3_reduce
I0511 04:49:45.580643 30017 net.cpp:76] Creating Layer conv2/relu_3x3_reduce
I0511 04:49:45.580656 30017 net.cpp:372] conv2/relu_3x3_reduce <- conv2/3x3_reduce
I0511 04:49:45.580669 30017 net.cpp:323] conv2/relu_3x3_reduce -> conv2/3x3_reduce (in-place)
I0511 04:49:45.580684 30017 net.cpp:105] Setting up conv2/relu_3x3_reduce
I0511 04:49:45.580693 30017 net.cpp:112] Top shape: 32 64 56 56 (6422528)
I0511 04:49:45.580704 30017 layer_factory.hpp:74] Creating layer conv2/3x3
I0511 04:49:45.580724 30017 net.cpp:76] Creating Layer conv2/3x3
I0511 04:49:45.580734 30017 net.cpp:372] conv2/3x3 <- conv2/3x3_reduce
I0511 04:49:45.580751 30017 net.cpp:334] conv2/3x3 -> conv2/3x3
I0511 04:49:45.580765 30017 net.cpp:105] Setting up conv2/3x3
I0511 04:49:45.581924 30017 net.cpp:112] Top shape: 32 192 56 56 (19267584)
I0511 04:49:45.581954 30017 layer_factory.hpp:74] Creating layer conv2/relu_3x3
I0511 04:49:45.581964 30017 net.cpp:76] Creating Layer conv2/relu_3x3
I0511 04:49:45.581970 30017 net.cpp:372] conv2/relu_3x3 <- conv2/3x3
I0511 04:49:45.581979 30017 net.cpp:323] conv2/relu_3x3 -> conv2/3x3 (in-place)
I0511 04:49:45.581986 30017 net.cpp:105] Setting up conv2/relu_3x3
I0511 04:49:45.581992 30017 net.cpp:112] Top shape: 32 192 56 56 (19267584)
I0511 04:49:45.581998 30017 layer_factory.hpp:74] Creating layer conv2/norm2
I0511 04:49:45.582011 30017 net.cpp:76] Creating Layer conv2/norm2
I0511 04:49:45.582017 30017 net.cpp:372] conv2/norm2 <- conv2/3x3
I0511 04:49:45.582026 30017 net.cpp:334] conv2/norm2 -> conv2/norm2
I0511 04:49:45.582041 30017 net.cpp:105] Setting up conv2/norm2
I0511 04:49:45.582052 30017 net.cpp:112] Top shape: 32 192 56 56 (19267584)
I0511 04:49:45.582059 30017 layer_factory.hpp:74] Creating layer pool2/3x3_s2
I0511 04:49:45.582067 30017 net.cpp:76] Creating Layer pool2/3x3_s2
I0511 04:49:45.582077 30017 net.cpp:372] pool2/3x3_s2 <- conv2/norm2
I0511 04:49:45.582083 30017 net.cpp:334] pool2/3x3_s2 -> pool2/3x3_s2
I0511 04:49:45.582093 30017 net.cpp:105] Setting up pool2/3x3_s2
I0511 04:49:45.582099 30017 net.cpp:112] Top shape: 32 192 28 28 (4816896)
I0511 04:49:45.582105 30017 layer_factory.hpp:74] Creating layer pool2/3x3_s2_pool2/3x3_s2_0_split
I0511 04:49:45.582113 30017 net.cpp:76] Creating Layer pool2/3x3_s2_pool2/3x3_s2_0_split
I0511 04:49:45.582137 30017 net.cpp:372] pool2/3x3_s2_pool2/3x3_s2_0_split <- pool2/3x3_s2
I0511 04:49:45.582146 30017 net.cpp:334] pool2/3x3_s2_pool2/3x3_s2_0_split -> pool2/3x3_s2_pool2/3x3_s2_0_split_0
I0511 04:49:45.582160 30017 net.cpp:334] pool2/3x3_s2_pool2/3x3_s2_0_split -> pool2/3x3_s2_pool2/3x3_s2_0_split_1
I0511 04:49:45.582170 30017 net.cpp:334] pool2/3x3_s2_pool2/3x3_s2_0_split -> pool2/3x3_s2_pool2/3x3_s2_0_split_2
I0511 04:49:45.582180 30017 net.cpp:334] pool2/3x3_s2_pool2/3x3_s2_0_split -> pool2/3x3_s2_pool2/3x3_s2_0_split_3
I0511 04:49:45.582187 30017 net.cpp:105] Setting up pool2/3x3_s2_pool2/3x3_s2_0_split
I0511 04:49:45.582197 30017 net.cpp:112] Top shape: 32 192 28 28 (4816896)
I0511 04:49:45.582203 30017 net.cpp:112] Top shape: 32 192 28 28 (4816896)
I0511 04:49:45.582208 30017 net.cpp:112] Top shape: 32 192 28 28 (4816896)
I0511 04:49:45.582213 30017 net.cpp:112] Top shape: 32 192 28 28 (4816896)
I0511 04:49:45.582218 30017 layer_factory.hpp:74] Creating layer inception_3a/1x1
I0511 04:49:45.582231 30017 net.cpp:76] Creating Layer inception_3a/1x1
I0511 04:49:45.582237 30017 net.cpp:372] inception_3a/1x1 <- pool2/3x3_s2_pool2/3x3_s2_0_split_0
I0511 04:49:45.582244 30017 net.cpp:334] inception_3a/1x1 -> inception_3a/1x1
I0511 04:49:45.582254 30017 net.cpp:105] Setting up inception_3a/1x1
I0511 04:49:45.582389 30017 net.cpp:112] Top shape: 32 64 28 28 (1605632)
I0511 04:49:45.582402 30017 layer_factory.hpp:74] Creating layer inception_3a/relu_1x1
I0511 04:49:45.582413 30017 net.cpp:76] Creating Layer inception_3a/relu_1x1
I0511 04:49:45.582419 30017 net.cpp:372] inception_3a/relu_1x1 <- inception_3a/1x1
I0511 04:49:45.582427 30017 net.cpp:323] inception_3a/relu_1x1 -> inception_3a/1x1 (in-place)
I0511 04:49:45.582434 30017 net.cpp:105] Setting up inception_3a/relu_1x1
I0511 04:49:45.582440 30017 net.cpp:112] Top shape: 32 64 28 28 (1605632)
I0511 04:49:45.582445 30017 layer_factory.hpp:74] Creating layer inception_3a/3x3_reduce
I0511 04:49:45.582456 30017 net.cpp:76] Creating Layer inception_3a/3x3_reduce
I0511 04:49:45.582463 30017 net.cpp:372] inception_3a/3x3_reduce <- pool2/3x3_s2_pool2/3x3_s2_0_split_1
I0511 04:49:45.582470 30017 net.cpp:334] inception_3a/3x3_reduce -> inception_3a/3x3_reduce
I0511 04:49:45.582481 30017 net.cpp:105] Setting up inception_3a/3x3_reduce
I0511 04:49:45.582787 30017 net.cpp:112] Top shape: 32 96 28 28 (2408448)
I0511 04:49:45.582810 30017 layer_factory.hpp:74] Creating layer inception_3a/relu_3x3_reduce
I0511 04:49:45.582825 30017 net.cpp:76] Creating Layer inception_3a/relu_3x3_reduce
I0511 04:49:45.582833 30017 net.cpp:372] inception_3a/relu_3x3_reduce <- inception_3a/3x3_reduce
I0511 04:49:45.582841 30017 net.cpp:323] inception_3a/relu_3x3_reduce -> inception_3a/3x3_reduce (in-place)
I0511 04:49:45.582850 30017 net.cpp:105] Setting up inception_3a/relu_3x3_reduce
I0511 04:49:45.582855 30017 net.cpp:112] Top shape: 32 96 28 28 (2408448)
I0511 04:49:45.582861 30017 layer_factory.hpp:74] Creating layer inception_3a/3x3
I0511 04:49:45.582872 30017 net.cpp:76] Creating Layer inception_3a/3x3
I0511 04:49:45.582878 30017 net.cpp:372] inception_3a/3x3 <- inception_3a/3x3_reduce
I0511 04:49:45.582887 30017 net.cpp:334] inception_3a/3x3 -> inception_3a/3x3
I0511 04:49:45.582896 30017 net.cpp:105] Setting up inception_3a/3x3
I0511 04:49:45.583936 30017 net.cpp:112] Top shape: 32 128 28 28 (3211264)
I0511 04:49:45.583956 30017 layer_factory.hpp:74] Creating layer inception_3a/relu_3x3
I0511 04:49:45.583964 30017 net.cpp:76] Creating Layer inception_3a/relu_3x3
I0511 04:49:45.583971 30017 net.cpp:372] inception_3a/relu_3x3 <- inception_3a/3x3
I0511 04:49:45.583981 30017 net.cpp:323] inception_3a/relu_3x3 -> inception_3a/3x3 (in-place)
I0511 04:49:45.583988 30017 net.cpp:105] Setting up inception_3a/relu_3x3
I0511 04:49:45.583994 30017 net.cpp:112] Top shape: 32 128 28 28 (3211264)
I0511 04:49:45.583999 30017 layer_factory.hpp:74] Creating layer inception_3a/5x5_reduce
I0511 04:49:45.584008 30017 net.cpp:76] Creating Layer inception_3a/5x5_reduce
I0511 04:49:45.584030 30017 net.cpp:372] inception_3a/5x5_reduce <- pool2/3x3_s2_pool2/3x3_s2_0_split_2
I0511 04:49:45.584043 30017 net.cpp:334] inception_3a/5x5_reduce -> inception_3a/5x5_reduce
I0511 04:49:45.584054 30017 net.cpp:105] Setting up inception_3a/5x5_reduce
I0511 04:49:45.584100 30017 net.cpp:112] Top shape: 32 16 28 28 (401408)
I0511 04:49:45.584110 30017 layer_factory.hpp:74] Creating layer inception_3a/relu_5x5_reduce
I0511 04:49:45.584118 30017 net.cpp:76] Creating Layer inception_3a/relu_5x5_reduce
I0511 04:49:45.584123 30017 net.cpp:372] inception_3a/relu_5x5_reduce <- inception_3a/5x5_reduce
I0511 04:49:45.584131 30017 net.cpp:323] inception_3a/relu_5x5_reduce -> inception_3a/5x5_reduce (in-place)
I0511 04:49:45.584137 30017 net.cpp:105] Setting up inception_3a/relu_5x5_reduce
I0511 04:49:45.584143 30017 net.cpp:112] Top shape: 32 16 28 28 (401408)
I0511 04:49:45.584148 30017 layer_factory.hpp:74] Creating layer inception_3a/5x5
I0511 04:49:45.584159 30017 net.cpp:76] Creating Layer inception_3a/5x5
I0511 04:49:45.584166 30017 net.cpp:372] inception_3a/5x5 <- inception_3a/5x5_reduce
I0511 04:49:45.584172 30017 net.cpp:334] inception_3a/5x5 -> inception_3a/5x5
I0511 04:49:45.584184 30017 net.cpp:105] Setting up inception_3a/5x5
I0511 04:49:45.584336 30017 net.cpp:112] Top shape: 32 32 28 28 (802816)
I0511 04:49:45.584353 30017 layer_factory.hpp:74] Creating layer inception_3a/relu_5x5
I0511 04:49:45.584362 30017 net.cpp:76] Creating Layer inception_3a/relu_5x5
I0511 04:49:45.584368 30017 net.cpp:372] inception_3a/relu_5x5 <- inception_3a/5x5
I0511 04:49:45.584378 30017 net.cpp:323] inception_3a/relu_5x5 -> inception_3a/5x5 (in-place)
I0511 04:49:45.584388 30017 net.cpp:105] Setting up inception_3a/relu_5x5
I0511 04:49:45.584393 30017 net.cpp:112] Top shape: 32 32 28 28 (802816)
I0511 04:49:45.584398 30017 layer_factory.hpp:74] Creating layer inception_3a/pool
I0511 04:49:45.584406 30017 net.cpp:76] Creating Layer inception_3a/pool
I0511 04:49:45.584413 30017 net.cpp:372] inception_3a/pool <- pool2/3x3_s2_pool2/3x3_s2_0_split_3
I0511 04:49:45.584425 30017 net.cpp:334] inception_3a/pool -> inception_3a/pool
I0511 04:49:45.584434 30017 net.cpp:105] Setting up inception_3a/pool
I0511 04:49:45.584441 30017 net.cpp:112] Top shape: 32 192 28 28 (4816896)
I0511 04:49:45.584447 30017 layer_factory.hpp:74] Creating layer inception_3a/pool_proj
I0511 04:49:45.584456 30017 net.cpp:76] Creating Layer inception_3a/pool_proj
I0511 04:49:45.584462 30017 net.cpp:372] inception_3a/pool_proj <- inception_3a/pool
I0511 04:49:45.584472 30017 net.cpp:334] inception_3a/pool_proj -> inception_3a/pool_proj
I0511 04:49:45.584482 30017 net.cpp:105] Setting up inception_3a/pool_proj
I0511 04:49:45.584609 30017 net.cpp:112] Top shape: 32 32 28 28 (802816)
I0511 04:49:45.584630 30017 layer_factory.hpp:74] Creating layer inception_3a/relu_pool_proj
I0511 04:49:45.584637 30017 net.cpp:76] Creating Layer inception_3a/relu_pool_proj
I0511 04:49:45.584643 30017 net.cpp:372] inception_3a/relu_pool_proj <- inception_3a/pool_proj
I0511 04:49:45.584650 30017 net.cpp:323] inception_3a/relu_pool_proj -> inception_3a/pool_proj (in-place)
I0511 04:49:45.584658 30017 net.cpp:105] Setting up inception_3a/relu_pool_proj
I0511 04:49:45.584664 30017 net.cpp:112] Top shape: 32 32 28 28 (802816)
I0511 04:49:45.584669 30017 layer_factory.hpp:74] Creating layer inception_3a/output
I0511 04:49:45.584682 30017 net.cpp:76] Creating Layer inception_3a/output
I0511 04:49:45.584688 30017 net.cpp:372] inception_3a/output <- inception_3a/1x1
I0511 04:49:45.584695 30017 net.cpp:372] inception_3a/output <- inception_3a/3x3
I0511 04:49:45.584702 30017 net.cpp:372] inception_3a/output <- inception_3a/5x5
I0511 04:49:45.584707 30017 net.cpp:372] inception_3a/output <- inception_3a/pool_proj
I0511 04:49:45.584714 30017 net.cpp:334] inception_3a/output -> inception_3a/output
I0511 04:49:45.584722 30017 net.cpp:105] Setting up inception_3a/output
I0511 04:49:45.584731 30017 net.cpp:112] Top shape: 32 256 28 28 (6422528)
I0511 04:49:45.584738 30017 layer_factory.hpp:74] Creating layer inception_3a/output_inception_3a/output_0_split
I0511 04:49:45.584758 30017 net.cpp:76] Creating Layer inception_3a/output_inception_3a/output_0_split
I0511 04:49:45.584765 30017 net.cpp:372] inception_3a/output_inception_3a/output_0_split <- inception_3a/output
I0511 04:49:45.584779 30017 net.cpp:334] inception_3a/output_inception_3a/output_0_split -> inception_3a/output_inception_3a/output_0_split_0
I0511 04:49:45.584789 30017 net.cpp:334] inception_3a/output_inception_3a/output_0_split -> inception_3a/output_inception_3a/output_0_split_1
I0511 04:49:45.584799 30017 net.cpp:334] inception_3a/output_inception_3a/output_0_split -> inception_3a/output_inception_3a/output_0_split_2
I0511 04:49:45.584808 30017 net.cpp:334] inception_3a/output_inception_3a/output_0_split -> inception_3a/output_inception_3a/output_0_split_3
I0511 04:49:45.584816 30017 net.cpp:105] Setting up inception_3a/output_inception_3a/output_0_split
I0511 04:49:45.584823 30017 net.cpp:112] Top shape: 32 256 28 28 (6422528)
I0511 04:49:45.584828 30017 net.cpp:112] Top shape: 32 256 28 28 (6422528)
I0511 04:49:45.584833 30017 net.cpp:112] Top shape: 32 256 28 28 (6422528)
I0511 04:49:45.584838 30017 net.cpp:112] Top shape: 32 256 28 28 (6422528)
I0511 04:49:45.584843 30017 layer_factory.hpp:74] Creating layer inception_3b/1x1
I0511 04:49:45.584853 30017 net.cpp:76] Creating Layer inception_3b/1x1
I0511 04:49:45.584859 30017 net.cpp:372] inception_3b/1x1 <- inception_3a/output_inception_3a/output_0_split_0
I0511 04:49:45.584867 30017 net.cpp:334] inception_3b/1x1 -> inception_3b/1x1
I0511 04:49:45.584878 30017 net.cpp:105] Setting up inception_3b/1x1
I0511 04:49:45.585427 30017 net.cpp:112] Top shape: 32 128 28 28 (3211264)
I0511 04:49:45.585444 30017 layer_factory.hpp:74] Creating layer inception_3b/relu_1x1
I0511 04:49:45.585455 30017 net.cpp:76] Creating Layer inception_3b/relu_1x1
I0511 04:49:45.585461 30017 net.cpp:372] inception_3b/relu_1x1 <- inception_3b/1x1
I0511 04:49:45.585469 30017 net.cpp:323] inception_3b/relu_1x1 -> inception_3b/1x1 (in-place)
I0511 04:49:45.585477 30017 net.cpp:105] Setting up inception_3b/relu_1x1
I0511 04:49:45.585484 30017 net.cpp:112] Top shape: 32 128 28 28 (3211264)
I0511 04:49:45.585489 30017 layer_factory.hpp:74] Creating layer inception_3b/3x3_reduce
I0511 04:49:45.585500 30017 net.cpp:76] Creating Layer inception_3b/3x3_reduce
I0511 04:49:45.585505 30017 net.cpp:372] inception_3b/3x3_reduce <- inception_3a/output_inception_3a/output_0_split_1
I0511 04:49:45.585513 30017 net.cpp:334] inception_3b/3x3_reduce -> inception_3b/3x3_reduce
I0511 04:49:45.585522 30017 net.cpp:105] Setting up inception_3b/3x3_reduce
I0511 04:49:45.585814 30017 net.cpp:112] Top shape: 32 128 28 28 (3211264)
I0511 04:49:45.585827 30017 layer_factory.hpp:74] Creating layer inception_3b/relu_3x3_reduce
I0511 04:49:45.585837 30017 net.cpp:76] Creating Layer inception_3b/relu_3x3_reduce
I0511 04:49:45.585844 30017 net.cpp:372] inception_3b/relu_3x3_reduce <- inception_3b/3x3_reduce
I0511 04:49:45.585850 30017 net.cpp:323] inception_3b/relu_3x3_reduce -> inception_3b/3x3_reduce (in-place)
I0511 04:49:45.585858 30017 net.cpp:105] Setting up inception_3b/relu_3x3_reduce
I0511 04:49:45.585865 30017 net.cpp:112] Top shape: 32 128 28 28 (3211264)
I0511 04:49:45.585870 30017 layer_factory.hpp:74] Creating layer inception_3b/3x3
I0511 04:49:45.585882 30017 net.cpp:76] Creating Layer inception_3b/3x3
I0511 04:49:45.585888 30017 net.cpp:372] inception_3b/3x3 <- inception_3b/3x3_reduce
I0511 04:49:45.585897 30017 net.cpp:334] inception_3b/3x3 -> inception_3b/3x3
I0511 04:49:45.585906 30017 net.cpp:105] Setting up inception_3b/3x3
I0511 04:49:45.588740 30017 net.cpp:112] Top shape: 32 192 28 28 (4816896)
I0511 04:49:45.588768 30017 layer_factory.hpp:74] Creating layer inception_3b/relu_3x3
I0511 04:49:45.588780 30017 net.cpp:76] Creating Layer inception_3b/relu_3x3
I0511 04:49:45.588789 30017 net.cpp:372] inception_3b/relu_3x3 <- inception_3b/3x3
I0511 04:49:45.588798 30017 net.cpp:323] inception_3b/relu_3x3 -> inception_3b/3x3 (in-place)
I0511 04:49:45.588832 30017 net.cpp:105] Setting up inception_3b/relu_3x3
I0511 04:49:45.588840 30017 net.cpp:112] Top shape: 32 192 28 28 (4816896)
I0511 04:49:45.588845 30017 layer_factory.hpp:74] Creating layer inception_3b/5x5_reduce
I0511 04:49:45.588856 30017 net.cpp:76] Creating Layer inception_3b/5x5_reduce
I0511 04:49:45.588862 30017 net.cpp:372] inception_3b/5x5_reduce <- inception_3a/output_inception_3a/output_0_split_2
I0511 04:49:45.588871 30017 net.cpp:334] inception_3b/5x5_reduce -> inception_3b/5x5_reduce
I0511 04:49:45.588884 30017 net.cpp:105] Setting up inception_3b/5x5_reduce
I0511 04:49:45.588965 30017 net.cpp:112] Top shape: 32 32 28 28 (802816)
I0511 04:49:45.588976 30017 layer_factory.hpp:74] Creating layer inception_3b/relu_5x5_reduce
I0511 04:49:45.588984 30017 net.cpp:76] Creating Layer inception_3b/relu_5x5_reduce
I0511 04:49:45.588989 30017 net.cpp:372] inception_3b/relu_5x5_reduce <- inception_3b/5x5_reduce
I0511 04:49:45.588999 30017 net.cpp:323] inception_3b/relu_5x5_reduce -> inception_3b/5x5_reduce (in-place)
I0511 04:49:45.589007 30017 net.cpp:105] Setting up inception_3b/relu_5x5_reduce
I0511 04:49:45.589012 30017 net.cpp:112] Top shape: 32 32 28 28 (802816)
I0511 04:49:45.589018 30017 layer_factory.hpp:74] Creating layer inception_3b/5x5
I0511 04:49:45.589026 30017 net.cpp:76] Creating Layer inception_3b/5x5
I0511 04:49:45.589031 30017 net.cpp:372] inception_3b/5x5 <- inception_3b/5x5_reduce
I0511 04:49:45.589041 30017 net.cpp:334] inception_3b/5x5 -> inception_3b/5x5
I0511 04:49:45.589054 30017 net.cpp:105] Setting up inception_3b/5x5
I0511 04:49:45.589746 30017 net.cpp:112] Top shape: 32 96 28 28 (2408448)
I0511 04:49:45.589762 30017 layer_factory.hpp:74] Creating layer inception_3b/relu_5x5
I0511 04:49:45.589772 30017 net.cpp:76] Creating Layer inception_3b/relu_5x5
I0511 04:49:45.589779 30017 net.cpp:372] inception_3b/relu_5x5 <- inception_3b/5x5
I0511 04:49:45.589787 30017 net.cpp:323] inception_3b/relu_5x5 -> inception_3b/5x5 (in-place)
I0511 04:49:45.589795 30017 net.cpp:105] Setting up inception_3b/relu_5x5
I0511 04:49:45.589800 30017 net.cpp:112] Top shape: 32 96 28 28 (2408448)
I0511 04:49:45.589807 30017 layer_factory.hpp:74] Creating layer inception_3b/pool
I0511 04:49:45.589818 30017 net.cpp:76] Creating Layer inception_3b/pool
I0511 04:49:45.589830 30017 net.cpp:372] inception_3b/pool <- inception_3a/output_inception_3a/output_0_split_3
I0511 04:49:45.589849 30017 net.cpp:334] inception_3b/pool -> inception_3b/pool
I0511 04:49:45.589867 30017 net.cpp:105] Setting up inception_3b/pool
I0511 04:49:45.589882 30017 net.cpp:112] Top shape: 32 256 28 28 (6422528)
I0511 04:49:45.589890 30017 layer_factory.hpp:74] Creating layer inception_3b/pool_proj
I0511 04:49:45.589900 30017 net.cpp:76] Creating Layer inception_3b/pool_proj
I0511 04:49:45.589905 30017 net.cpp:372] inception_3b/pool_proj <- inception_3b/pool
I0511 04:49:45.589917 30017 net.cpp:334] inception_3b/pool_proj -> inception_3b/pool_proj
I0511 04:49:45.589927 30017 net.cpp:105] Setting up inception_3b/pool_proj
I0511 04:49:45.590129 30017 net.cpp:112] Top shape: 32 64 28 28 (1605632)
I0511 04:49:45.590147 30017 layer_factory.hpp:74] Creating layer inception_3b/relu_pool_proj
I0511 04:49:45.590154 30017 net.cpp:76] Creating Layer inception_3b/relu_pool_proj
I0511 04:49:45.590160 30017 net.cpp:372] inception_3b/relu_pool_proj <- inception_3b/pool_proj
I0511 04:49:45.590168 30017 net.cpp:323] inception_3b/relu_pool_proj -> inception_3b/pool_proj (in-place)
I0511 04:49:45.590186 30017 net.cpp:105] Setting up inception_3b/relu_pool_proj
I0511 04:49:45.590194 30017 net.cpp:112] Top shape: 32 64 28 28 (1605632)
I0511 04:49:45.590199 30017 layer_factory.hpp:74] Creating layer inception_3b/output
I0511 04:49:45.590209 30017 net.cpp:76] Creating Layer inception_3b/output
I0511 04:49:45.590214 30017 net.cpp:372] inception_3b/output <- inception_3b/1x1
I0511 04:49:45.590221 30017 net.cpp:372] inception_3b/output <- inception_3b/3x3
I0511 04:49:45.590227 30017 net.cpp:372] inception_3b/output <- inception_3b/5x5
I0511 04:49:45.590250 30017 net.cpp:372] inception_3b/output <- inception_3b/pool_proj
I0511 04:49:45.590257 30017 net.cpp:334] inception_3b/output -> inception_3b/output
I0511 04:49:45.590266 30017 net.cpp:105] Setting up inception_3b/output
I0511 04:49:45.590289 30017 net.cpp:112] Top shape: 32 480 28 28 (12042240)
I0511 04:49:45.590297 30017 layer_factory.hpp:74] Creating layer pool3/3x3_s2
I0511 04:49:45.590306 30017 net.cpp:76] Creating Layer pool3/3x3_s2
I0511 04:49:45.590312 30017 net.cpp:372] pool3/3x3_s2 <- inception_3b/output
I0511 04:49:45.590322 30017 net.cpp:334] pool3/3x3_s2 -> pool3/3x3_s2
I0511 04:49:45.590332 30017 net.cpp:105] Setting up pool3/3x3_s2
I0511 04:49:45.590338 30017 net.cpp:112] Top shape: 32 480 14 14 (3010560)
I0511 04:49:45.590344 30017 layer_factory.hpp:74] Creating layer pool3/3x3_s2_pool3/3x3_s2_0_split
I0511 04:49:45.590353 30017 net.cpp:76] Creating Layer pool3/3x3_s2_pool3/3x3_s2_0_split
I0511 04:49:45.590358 30017 net.cpp:372] pool3/3x3_s2_pool3/3x3_s2_0_split <- pool3/3x3_s2
I0511 04:49:45.590368 30017 net.cpp:334] pool3/3x3_s2_pool3/3x3_s2_0_split -> pool3/3x3_s2_pool3/3x3_s2_0_split_0
I0511 04:49:45.590378 30017 net.cpp:334] pool3/3x3_s2_pool3/3x3_s2_0_split -> pool3/3x3_s2_pool3/3x3_s2_0_split_1
I0511 04:49:45.590385 30017 net.cpp:334] pool3/3x3_s2_pool3/3x3_s2_0_split -> pool3/3x3_s2_pool3/3x3_s2_0_split_2
I0511 04:49:45.590394 30017 net.cpp:334] pool3/3x3_s2_pool3/3x3_s2_0_split -> pool3/3x3_s2_pool3/3x3_s2_0_split_3
I0511 04:49:45.590401 30017 net.cpp:105] Setting up pool3/3x3_s2_pool3/3x3_s2_0_split
I0511 04:49:45.590409 30017 net.cpp:112] Top shape: 32 480 14 14 (3010560)
I0511 04:49:45.590414 30017 net.cpp:112] Top shape: 32 480 14 14 (3010560)
I0511 04:49:45.590419 30017 net.cpp:112] Top shape: 32 480 14 14 (3010560)
I0511 04:49:45.590423 30017 net.cpp:112] Top shape: 32 480 14 14 (3010560)
I0511 04:49:45.590428 30017 layer_factory.hpp:74] Creating layer inception_4a/1x1
I0511 04:49:45.590440 30017 net.cpp:76] Creating Layer inception_4a/1x1
I0511 04:49:45.590451 30017 net.cpp:372] inception_4a/1x1 <- pool3/3x3_s2_pool3/3x3_s2_0_split_0
I0511 04:49:45.590468 30017 net.cpp:334] inception_4a/1x1 -> inception_4a/1x1
I0511 04:49:45.590479 30017 net.cpp:105] Setting up inception_4a/1x1
I0511 04:49:45.591356 30017 net.cpp:112] Top shape: 32 192 14 14 (1204224)
I0511 04:49:45.591373 30017 layer_factory.hpp:74] Creating layer inception_4a/relu_1x1
I0511 04:49:45.591382 30017 net.cpp:76] Creating Layer inception_4a/relu_1x1
I0511 04:49:45.591409 30017 net.cpp:372] inception_4a/relu_1x1 <- inception_4a/1x1
I0511 04:49:45.591421 30017 net.cpp:323] inception_4a/relu_1x1 -> inception_4a/1x1 (in-place)
I0511 04:49:45.591436 30017 net.cpp:105] Setting up inception_4a/relu_1x1
I0511 04:49:45.591447 30017 net.cpp:112] Top shape: 32 192 14 14 (1204224)
I0511 04:49:45.591454 30017 layer_factory.hpp:74] Creating layer inception_4a/3x3_reduce
I0511 04:49:45.591464 30017 net.cpp:76] Creating Layer inception_4a/3x3_reduce
I0511 04:49:45.591470 30017 net.cpp:372] inception_4a/3x3_reduce <- pool3/3x3_s2_pool3/3x3_s2_0_split_1
I0511 04:49:45.591482 30017 net.cpp:334] inception_4a/3x3_reduce -> inception_4a/3x3_reduce
I0511 04:49:45.591501 30017 net.cpp:105] Setting up inception_4a/3x3_reduce
I0511 04:49:45.591966 30017 net.cpp:112] Top shape: 32 96 14 14 (602112)
I0511 04:49:45.592001 30017 layer_factory.hpp:74] Creating layer inception_4a/relu_3x3_reduce
I0511 04:49:45.592020 30017 net.cpp:76] Creating Layer inception_4a/relu_3x3_reduce
I0511 04:49:45.592037 30017 net.cpp:372] inception_4a/relu_3x3_reduce <- inception_4a/3x3_reduce
I0511 04:49:45.592051 30017 net.cpp:323] inception_4a/relu_3x3_reduce -> inception_4a/3x3_reduce (in-place)
I0511 04:49:45.592061 30017 net.cpp:105] Setting up inception_4a/relu_3x3_reduce
I0511 04:49:45.592066 30017 net.cpp:112] Top shape: 32 96 14 14 (602112)
I0511 04:49:45.592072 30017 layer_factory.hpp:74] Creating layer inception_4a/3x3
I0511 04:49:45.592082 30017 net.cpp:76] Creating Layer inception_4a/3x3
I0511 04:49:45.592092 30017 net.cpp:372] inception_4a/3x3 <- inception_4a/3x3_reduce
I0511 04:49:45.592128 30017 net.cpp:334] inception_4a/3x3 -> inception_4a/3x3
I0511 04:49:45.592139 30017 net.cpp:105] Setting up inception_4a/3x3
I0511 04:49:45.593900 30017 net.cpp:112] Top shape: 32 208 14 14 (1304576)
I0511 04:49:45.593927 30017 layer_factory.hpp:74] Creating layer inception_4a/relu_3x3
I0511 04:49:45.593938 30017 net.cpp:76] Creating Layer inception_4a/relu_3x3
I0511 04:49:45.593946 30017 net.cpp:372] inception_4a/relu_3x3 <- inception_4a/3x3
I0511 04:49:45.593965 30017 net.cpp:323] inception_4a/relu_3x3 -> inception_4a/3x3 (in-place)
I0511 04:49:45.593981 30017 net.cpp:105] Setting up inception_4a/relu_3x3
I0511 04:49:45.593993 30017 net.cpp:112] Top shape: 32 208 14 14 (1304576)
I0511 04:49:45.594004 30017 layer_factory.hpp:74] Creating layer inception_4a/5x5_reduce
I0511 04:49:45.594022 30017 net.cpp:76] Creating Layer inception_4a/5x5_reduce
I0511 04:49:45.594035 30017 net.cpp:372] inception_4a/5x5_reduce <- pool3/3x3_s2_pool3/3x3_s2_0_split_2
I0511 04:49:45.594063 30017 net.cpp:334] inception_4a/5x5_reduce -> inception_4a/5x5_reduce
I0511 04:49:45.594085 30017 net.cpp:105] Setting up inception_4a/5x5_reduce
I0511 04:49:45.594208 30017 net.cpp:112] Top shape: 32 16 14 14 (100352)
I0511 04:49:45.594224 30017 layer_factory.hpp:74] Creating layer inception_4a/relu_5x5_reduce
I0511 04:49:45.594235 30017 net.cpp:76] Creating Layer inception_4a/relu_5x5_reduce
I0511 04:49:45.594243 30017 net.cpp:372] inception_4a/relu_5x5_reduce <- inception_4a/5x5_reduce
I0511 04:49:45.594250 30017 net.cpp:323] inception_4a/relu_5x5_reduce -> inception_4a/5x5_reduce (in-place)
I0511 04:49:45.594259 30017 net.cpp:105] Setting up inception_4a/relu_5x5_reduce
I0511 04:49:45.594264 30017 net.cpp:112] Top shape: 32 16 14 14 (100352)
I0511 04:49:45.594282 30017 layer_factory.hpp:74] Creating layer inception_4a/5x5
I0511 04:49:45.594295 30017 net.cpp:76] Creating Layer inception_4a/5x5
I0511 04:49:45.594302 30017 net.cpp:372] inception_4a/5x5 <- inception_4a/5x5_reduce
I0511 04:49:45.594310 30017 net.cpp:334] inception_4a/5x5 -> inception_4a/5x5
I0511 04:49:45.594321 30017 net.cpp:105] Setting up inception_4a/5x5
I0511 04:49:45.594493 30017 net.cpp:112] Top shape: 32 48 14 14 (301056)
I0511 04:49:45.594512 30017 layer_factory.hpp:74] Creating layer inception_4a/relu_5x5
I0511 04:49:45.594530 30017 net.cpp:76] Creating Layer inception_4a/relu_5x5
I0511 04:49:45.595345 30017 net.cpp:372] inception_4a/relu_5x5 <- inception_4a/5x5
I0511 04:49:45.595360 30017 net.cpp:323] inception_4a/relu_5x5 -> inception_4a/5x5 (in-place)
I0511 04:49:45.595376 30017 net.cpp:105] Setting up inception_4a/relu_5x5
I0511 04:49:45.595383 30017 net.cpp:112] Top shape: 32 48 14 14 (301056)
I0511 04:49:45.595389 30017 layer_factory.hpp:74] Creating layer inception_4a/pool
I0511 04:49:45.595398 30017 net.cpp:76] Creating Layer inception_4a/pool
I0511 04:49:45.595412 30017 net.cpp:372] inception_4a/pool <- pool3/3x3_s2_pool3/3x3_s2_0_split_3
I0511 04:49:45.595419 30017 net.cpp:334] inception_4a/pool -> inception_4a/pool
I0511 04:49:45.595428 30017 net.cpp:105] Setting up inception_4a/pool
I0511 04:49:45.595438 30017 net.cpp:112] Top shape: 32 480 14 14 (3010560)
I0511 04:49:45.595443 30017 layer_factory.hpp:74] Creating layer inception_4a/pool_proj
I0511 04:49:45.595453 30017 net.cpp:76] Creating Layer inception_4a/pool_proj
I0511 04:49:45.595458 30017 net.cpp:372] inception_4a/pool_proj <- inception_4a/pool
I0511 04:49:45.595469 30017 net.cpp:334] inception_4a/pool_proj -> inception_4a/pool_proj
I0511 04:49:45.595479 30017 net.cpp:105] Setting up inception_4a/pool_proj
I0511 04:49:45.595772 30017 net.cpp:112] Top shape: 32 64 14 14 (401408)
I0511 04:49:45.595787 30017 layer_factory.hpp:74] Creating layer inception_4a/relu_pool_proj
I0511 04:49:45.595794 30017 net.cpp:76] Creating Layer inception_4a/relu_pool_proj
I0511 04:49:45.595800 30017 net.cpp:372] inception_4a/relu_pool_proj <- inception_4a/pool_proj
I0511 04:49:45.595808 30017 net.cpp:323] inception_4a/relu_pool_proj -> inception_4a/pool_proj (in-place)
I0511 04:49:45.595844 30017 net.cpp:105] Setting up inception_4a/relu_pool_proj
I0511 04:49:45.595851 30017 net.cpp:112] Top shape: 32 64 14 14 (401408)
I0511 04:49:45.595857 30017 layer_factory.hpp:74] Creating layer inception_4a/output
I0511 04:49:45.595870 30017 net.cpp:76] Creating Layer inception_4a/output
I0511 04:49:45.595878 30017 net.cpp:372] inception_4a/output <- inception_4a/1x1
I0511 04:49:45.595885 30017 net.cpp:372] inception_4a/output <- inception_4a/3x3
I0511 04:49:45.595891 30017 net.cpp:372] inception_4a/output <- inception_4a/5x5
I0511 04:49:45.595897 30017 net.cpp:372] inception_4a/output <- inception_4a/pool_proj
I0511 04:49:45.595906 30017 net.cpp:334] inception_4a/output -> inception_4a/output
I0511 04:49:45.595913 30017 net.cpp:105] Setting up inception_4a/output
I0511 04:49:45.595919 30017 net.cpp:112] Top shape: 32 512 14 14 (3211264)
I0511 04:49:45.595926 30017 layer_factory.hpp:74] Creating layer inception_4a/output_inception_4a/output_0_split
I0511 04:49:45.595933 30017 net.cpp:76] Creating Layer inception_4a/output_inception_4a/output_0_split
I0511 04:49:45.595939 30017 net.cpp:372] inception_4a/output_inception_4a/output_0_split <- inception_4a/output
I0511 04:49:45.595949 30017 net.cpp:334] inception_4a/output_inception_4a/output_0_split -> inception_4a/output_inception_4a/output_0_split_0
I0511 04:49:45.595959 30017 net.cpp:334] inception_4a/output_inception_4a/output_0_split -> inception_4a/output_inception_4a/output_0_split_1
I0511 04:49:45.595970 30017 net.cpp:334] inception_4a/output_inception_4a/output_0_split -> inception_4a/output_inception_4a/output_0_split_2
I0511 04:49:45.595979 30017 net.cpp:334] inception_4a/output_inception_4a/output_0_split -> inception_4a/output_inception_4a/output_0_split_3
I0511 04:49:45.595991 30017 net.cpp:334] inception_4a/output_inception_4a/output_0_split -> inception_4a/output_inception_4a/output_0_split_4
I0511 04:49:45.596000 30017 net.cpp:105] Setting up inception_4a/output_inception_4a/output_0_split
I0511 04:49:45.596007 30017 net.cpp:112] Top shape: 32 512 14 14 (3211264)
I0511 04:49:45.596012 30017 net.cpp:112] Top shape: 32 512 14 14 (3211264)
I0511 04:49:45.596017 30017 net.cpp:112] Top shape: 32 512 14 14 (3211264)
I0511 04:49:45.596022 30017 net.cpp:112] Top shape: 32 512 14 14 (3211264)
I0511 04:49:45.596027 30017 net.cpp:112] Top shape: 32 512 14 14 (3211264)
I0511 04:49:45.596035 30017 layer_factory.hpp:74] Creating layer loss1/ave_pool
I0511 04:49:45.596052 30017 net.cpp:76] Creating Layer loss1/ave_pool
I0511 04:49:45.596065 30017 net.cpp:372] loss1/ave_pool <- inception_4a/output_inception_4a/output_0_split_0
I0511 04:49:45.596078 30017 net.cpp:334] loss1/ave_pool -> loss1/ave_pool
I0511 04:49:45.596092 30017 net.cpp:105] Setting up loss1/ave_pool
I0511 04:49:45.596115 30017 net.cpp:112] Top shape: 32 512 4 4 (262144)
I0511 04:49:45.596127 30017 layer_factory.hpp:74] Creating layer loss1/conv
I0511 04:49:45.596148 30017 net.cpp:76] Creating Layer loss1/conv
I0511 04:49:45.596160 30017 net.cpp:372] loss1/conv <- loss1/ave_pool
I0511 04:49:45.596174 30017 net.cpp:334] loss1/conv -> loss1/conv
I0511 04:49:45.596191 30017 net.cpp:105] Setting up loss1/conv
I0511 04:49:45.597487 30017 net.cpp:112] Top shape: 32 128 4 4 (65536)
I0511 04:49:45.597509 30017 layer_factory.hpp:74] Creating layer loss1/relu_conv
I0511 04:49:45.597519 30017 net.cpp:76] Creating Layer loss1/relu_conv
I0511 04:49:45.597525 30017 net.cpp:372] loss1/relu_conv <- loss1/conv
I0511 04:49:45.597535 30017 net.cpp:323] loss1/relu_conv -> loss1/conv (in-place)
I0511 04:49:45.597544 30017 net.cpp:105] Setting up loss1/relu_conv
I0511 04:49:45.597550 30017 net.cpp:112] Top shape: 32 128 4 4 (65536)
I0511 04:49:45.597556 30017 layer_factory.hpp:74] Creating layer loss1/fc
I0511 04:49:45.597576 30017 net.cpp:76] Creating Layer loss1/fc
I0511 04:49:45.597584 30017 net.cpp:372] loss1/fc <- loss1/conv
I0511 04:49:45.597592 30017 net.cpp:334] loss1/fc -> loss1/fc
I0511 04:49:45.597606 30017 net.cpp:105] Setting up loss1/fc
I0511 04:49:45.615006 30017 net.cpp:112] Top shape: 32 1024 1 1 (32768)
I0511 04:49:45.615087 30017 layer_factory.hpp:74] Creating layer loss1/relu_fc
I0511 04:49:45.615102 30017 net.cpp:76] Creating Layer loss1/relu_fc
I0511 04:49:45.615109 30017 net.cpp:372] loss1/relu_fc <- loss1/fc
I0511 04:49:45.615119 30017 net.cpp:323] loss1/relu_fc -> loss1/fc (in-place)
I0511 04:49:45.615130 30017 net.cpp:105] Setting up loss1/relu_fc
I0511 04:49:45.615136 30017 net.cpp:112] Top shape: 32 1024 1 1 (32768)
I0511 04:49:45.615145 30017 layer_factory.hpp:74] Creating layer loss1/drop_fc
I0511 04:49:45.615167 30017 net.cpp:76] Creating Layer loss1/drop_fc
I0511 04:49:45.615175 30017 net.cpp:372] loss1/drop_fc <- loss1/fc
I0511 04:49:45.615185 30017 net.cpp:323] loss1/drop_fc -> loss1/fc (in-place)
I0511 04:49:45.615196 30017 net.cpp:105] Setting up loss1/drop_fc
I0511 04:49:45.615206 30017 net.cpp:112] Top shape: 32 1024 1 1 (32768)
I0511 04:49:45.615213 30017 layer_factory.hpp:74] Creating layer loss1/classifier
I0511 04:49:45.615223 30017 net.cpp:76] Creating Layer loss1/classifier
I0511 04:49:45.615229 30017 net.cpp:372] loss1/classifier <- loss1/fc
I0511 04:49:45.615239 30017 net.cpp:334] loss1/classifier -> loss1/classifier
I0511 04:49:45.615249 30017 net.cpp:105] Setting up loss1/classifier
I0511 04:49:45.615355 30017 net.cpp:112] Top shape: 32 2 1 1 (64)
I0511 04:49:45.615386 30017 layer_factory.hpp:74] Creating layer loss1/loss
I0511 04:49:45.615406 30017 net.cpp:76] Creating Layer loss1/loss
I0511 04:49:45.615418 30017 net.cpp:372] loss1/loss <- loss1/classifier
I0511 04:49:45.615430 30017 net.cpp:372] loss1/loss <- label_data_1_split_0
I0511 04:49:45.615448 30017 net.cpp:334] loss1/loss -> loss1/loss1
I0511 04:49:45.615469 30017 net.cpp:105] Setting up loss1/loss
I0511 04:49:45.615486 30017 layer_factory.hpp:74] Creating layer loss1/loss
I0511 04:49:45.615514 30017 net.cpp:112] Top shape: 1 1 1 1 (1)
I0511 04:49:45.615528 30017 net.cpp:118]     with loss weight 0.3
I0511 04:49:45.615573 30017 layer_factory.hpp:74] Creating layer inception_4b/1x1
I0511 04:49:45.615592 30017 net.cpp:76] Creating Layer inception_4b/1x1
I0511 04:49:45.615602 30017 net.cpp:372] inception_4b/1x1 <- inception_4a/output_inception_4a/output_0_split_1
I0511 04:49:45.615622 30017 net.cpp:334] inception_4b/1x1 -> inception_4b/1x1
I0511 04:49:45.615639 30017 net.cpp:105] Setting up inception_4b/1x1
I0511 04:49:45.616385 30017 net.cpp:112] Top shape: 32 160 14 14 (1003520)
I0511 04:49:45.616402 30017 layer_factory.hpp:74] Creating layer inception_4b/relu_1x1
I0511 04:49:45.616410 30017 net.cpp:76] Creating Layer inception_4b/relu_1x1
I0511 04:49:45.616417 30017 net.cpp:372] inception_4b/relu_1x1 <- inception_4b/1x1
I0511 04:49:45.616425 30017 net.cpp:323] inception_4b/relu_1x1 -> inception_4b/1x1 (in-place)
I0511 04:49:45.616432 30017 net.cpp:105] Setting up inception_4b/relu_1x1
I0511 04:49:45.616438 30017 net.cpp:112] Top shape: 32 160 14 14 (1003520)
I0511 04:49:45.616443 30017 layer_factory.hpp:74] Creating layer inception_4b/3x3_reduce
I0511 04:49:45.616456 30017 net.cpp:76] Creating Layer inception_4b/3x3_reduce
I0511 04:49:45.616461 30017 net.cpp:372] inception_4b/3x3_reduce <- inception_4a/output_inception_4a/output_0_split_2
I0511 04:49:45.616472 30017 net.cpp:334] inception_4b/3x3_reduce -> inception_4b/3x3_reduce
I0511 04:49:45.616482 30017 net.cpp:105] Setting up inception_4b/3x3_reduce
I0511 04:49:45.616972 30017 net.cpp:112] Top shape: 32 112 14 14 (702464)
I0511 04:49:45.616986 30017 layer_factory.hpp:74] Creating layer inception_4b/relu_3x3_reduce
I0511 04:49:45.616997 30017 net.cpp:76] Creating Layer inception_4b/relu_3x3_reduce
I0511 04:49:45.617004 30017 net.cpp:372] inception_4b/relu_3x3_reduce <- inception_4b/3x3_reduce
I0511 04:49:45.617012 30017 net.cpp:323] inception_4b/relu_3x3_reduce -> inception_4b/3x3_reduce (in-place)
I0511 04:49:45.617020 30017 net.cpp:105] Setting up inception_4b/relu_3x3_reduce
I0511 04:49:45.617025 30017 net.cpp:112] Top shape: 32 112 14 14 (702464)
I0511 04:49:45.617032 30017 layer_factory.hpp:74] Creating layer inception_4b/3x3
I0511 04:49:45.617041 30017 net.cpp:76] Creating Layer inception_4b/3x3
I0511 04:49:45.617065 30017 net.cpp:372] inception_4b/3x3 <- inception_4b/3x3_reduce
I0511 04:49:45.617075 30017 net.cpp:334] inception_4b/3x3 -> inception_4b/3x3
I0511 04:49:45.617085 30017 net.cpp:105] Setting up inception_4b/3x3
I0511 04:49:45.618980 30017 net.cpp:112] Top shape: 32 224 14 14 (1404928)
I0511 04:49:45.618998 30017 layer_factory.hpp:74] Creating layer inception_4b/relu_3x3
I0511 04:49:45.619005 30017 net.cpp:76] Creating Layer inception_4b/relu_3x3
I0511 04:49:45.619012 30017 net.cpp:372] inception_4b/relu_3x3 <- inception_4b/3x3
I0511 04:49:45.619022 30017 net.cpp:323] inception_4b/relu_3x3 -> inception_4b/3x3 (in-place)
I0511 04:49:45.619031 30017 net.cpp:105] Setting up inception_4b/relu_3x3
I0511 04:49:45.619036 30017 net.cpp:112] Top shape: 32 224 14 14 (1404928)
I0511 04:49:45.619042 30017 layer_factory.hpp:74] Creating layer inception_4b/5x5_reduce
I0511 04:49:45.619051 30017 net.cpp:76] Creating Layer inception_4b/5x5_reduce
I0511 04:49:45.619057 30017 net.cpp:372] inception_4b/5x5_reduce <- inception_4a/output_inception_4a/output_0_split_3
I0511 04:49:45.619067 30017 net.cpp:334] inception_4b/5x5_reduce -> inception_4b/5x5_reduce
I0511 04:49:45.619076 30017 net.cpp:105] Setting up inception_4b/5x5_reduce
I0511 04:49:45.619191 30017 net.cpp:112] Top shape: 32 24 14 14 (150528)
I0511 04:49:45.619201 30017 layer_factory.hpp:74] Creating layer inception_4b/relu_5x5_reduce
I0511 04:49:45.619211 30017 net.cpp:76] Creating Layer inception_4b/relu_5x5_reduce
I0511 04:49:45.619217 30017 net.cpp:372] inception_4b/relu_5x5_reduce <- inception_4b/5x5_reduce
I0511 04:49:45.619225 30017 net.cpp:323] inception_4b/relu_5x5_reduce -> inception_4b/5x5_reduce (in-place)
I0511 04:49:45.619233 30017 net.cpp:105] Setting up inception_4b/relu_5x5_reduce
I0511 04:49:45.619238 30017 net.cpp:112] Top shape: 32 24 14 14 (150528)
I0511 04:49:45.619245 30017 layer_factory.hpp:74] Creating layer inception_4b/5x5
I0511 04:49:45.619254 30017 net.cpp:76] Creating Layer inception_4b/5x5
I0511 04:49:45.619261 30017 net.cpp:372] inception_4b/5x5 <- inception_4b/5x5_reduce
I0511 04:49:45.619267 30017 net.cpp:334] inception_4b/5x5 -> inception_4b/5x5
I0511 04:49:45.619293 30017 net.cpp:105] Setting up inception_4b/5x5
I0511 04:49:45.619622 30017 net.cpp:112] Top shape: 32 64 14 14 (401408)
I0511 04:49:45.619634 30017 layer_factory.hpp:74] Creating layer inception_4b/relu_5x5
I0511 04:49:45.619642 30017 net.cpp:76] Creating Layer inception_4b/relu_5x5
I0511 04:49:45.619648 30017 net.cpp:372] inception_4b/relu_5x5 <- inception_4b/5x5
I0511 04:49:45.619657 30017 net.cpp:323] inception_4b/relu_5x5 -> inception_4b/5x5 (in-place)
I0511 04:49:45.619665 30017 net.cpp:105] Setting up inception_4b/relu_5x5
I0511 04:49:45.619671 30017 net.cpp:112] Top shape: 32 64 14 14 (401408)
I0511 04:49:45.619676 30017 layer_factory.hpp:74] Creating layer inception_4b/pool
I0511 04:49:45.619685 30017 net.cpp:76] Creating Layer inception_4b/pool
I0511 04:49:45.619691 30017 net.cpp:372] inception_4b/pool <- inception_4a/output_inception_4a/output_0_split_4
I0511 04:49:45.619699 30017 net.cpp:334] inception_4b/pool -> inception_4b/pool
I0511 04:49:45.619717 30017 net.cpp:105] Setting up inception_4b/pool
I0511 04:49:45.619730 30017 net.cpp:112] Top shape: 32 512 14 14 (3211264)
I0511 04:49:45.619738 30017 layer_factory.hpp:74] Creating layer inception_4b/pool_proj
I0511 04:49:45.619750 30017 net.cpp:76] Creating Layer inception_4b/pool_proj
I0511 04:49:45.619756 30017 net.cpp:372] inception_4b/pool_proj <- inception_4b/pool
I0511 04:49:45.619766 30017 net.cpp:334] inception_4b/pool_proj -> inception_4b/pool_proj
I0511 04:49:45.619776 30017 net.cpp:105] Setting up inception_4b/pool_proj
I0511 04:49:45.620069 30017 net.cpp:112] Top shape: 32 64 14 14 (401408)
I0511 04:49:45.620082 30017 layer_factory.hpp:74] Creating layer inception_4b/relu_pool_proj
I0511 04:49:45.620116 30017 net.cpp:76] Creating Layer inception_4b/relu_pool_proj
I0511 04:49:45.620129 30017 net.cpp:372] inception_4b/relu_pool_proj <- inception_4b/pool_proj
I0511 04:49:45.620168 30017 net.cpp:323] inception_4b/relu_pool_proj -> inception_4b/pool_proj (in-place)
I0511 04:49:45.620179 30017 net.cpp:105] Setting up inception_4b/relu_pool_proj
I0511 04:49:45.620185 30017 net.cpp:112] Top shape: 32 64 14 14 (401408)
I0511 04:49:45.620192 30017 layer_factory.hpp:74] Creating layer inception_4b/output
I0511 04:49:45.620199 30017 net.cpp:76] Creating Layer inception_4b/output
I0511 04:49:45.620205 30017 net.cpp:372] inception_4b/output <- inception_4b/1x1
I0511 04:49:45.620211 30017 net.cpp:372] inception_4b/output <- inception_4b/3x3
I0511 04:49:45.620218 30017 net.cpp:372] inception_4b/output <- inception_4b/5x5
I0511 04:49:45.620223 30017 net.cpp:372] inception_4b/output <- inception_4b/pool_proj
I0511 04:49:45.620232 30017 net.cpp:334] inception_4b/output -> inception_4b/output
I0511 04:49:45.620240 30017 net.cpp:105] Setting up inception_4b/output
I0511 04:49:45.620247 30017 net.cpp:112] Top shape: 32 512 14 14 (3211264)
I0511 04:49:45.620254 30017 layer_factory.hpp:74] Creating layer inception_4b/output_inception_4b/output_0_split
I0511 04:49:45.620260 30017 net.cpp:76] Creating Layer inception_4b/output_inception_4b/output_0_split
I0511 04:49:45.620266 30017 net.cpp:372] inception_4b/output_inception_4b/output_0_split <- inception_4b/output
I0511 04:49:45.620287 30017 net.cpp:334] inception_4b/output_inception_4b/output_0_split -> inception_4b/output_inception_4b/output_0_split_0
I0511 04:49:45.620297 30017 net.cpp:334] inception_4b/output_inception_4b/output_0_split -> inception_4b/output_inception_4b/output_0_split_1
I0511 04:49:45.620306 30017 net.cpp:334] inception_4b/output_inception_4b/output_0_split -> inception_4b/output_inception_4b/output_0_split_2
I0511 04:49:45.620316 30017 net.cpp:334] inception_4b/output_inception_4b/output_0_split -> inception_4b/output_inception_4b/output_0_split_3
I0511 04:49:45.620323 30017 net.cpp:105] Setting up inception_4b/output_inception_4b/output_0_split
I0511 04:49:45.620332 30017 net.cpp:112] Top shape: 32 512 14 14 (3211264)
I0511 04:49:45.620337 30017 net.cpp:112] Top shape: 32 512 14 14 (3211264)
I0511 04:49:45.620342 30017 net.cpp:112] Top shape: 32 512 14 14 (3211264)
I0511 04:49:45.620345 30017 net.cpp:112] Top shape: 32 512 14 14 (3211264)
I0511 04:49:45.620352 30017 layer_factory.hpp:74] Creating layer inception_4c/1x1
I0511 04:49:45.620362 30017 net.cpp:76] Creating Layer inception_4c/1x1
I0511 04:49:45.620368 30017 net.cpp:372] inception_4c/1x1 <- inception_4b/output_inception_4b/output_0_split_0
I0511 04:49:45.620378 30017 net.cpp:334] inception_4c/1x1 -> inception_4c/1x1
I0511 04:49:45.620388 30017 net.cpp:105] Setting up inception_4c/1x1
I0511 04:49:45.620944 30017 net.cpp:112] Top shape: 32 128 14 14 (802816)
I0511 04:49:45.620959 30017 layer_factory.hpp:74] Creating layer inception_4c/relu_1x1
I0511 04:49:45.620967 30017 net.cpp:76] Creating Layer inception_4c/relu_1x1
I0511 04:49:45.620973 30017 net.cpp:372] inception_4c/relu_1x1 <- inception_4c/1x1
I0511 04:49:45.620980 30017 net.cpp:323] inception_4c/relu_1x1 -> inception_4c/1x1 (in-place)
I0511 04:49:45.620987 30017 net.cpp:105] Setting up inception_4c/relu_1x1
I0511 04:49:45.620992 30017 net.cpp:112] Top shape: 32 128 14 14 (802816)
I0511 04:49:45.620998 30017 layer_factory.hpp:74] Creating layer inception_4c/3x3_reduce
I0511 04:49:45.621008 30017 net.cpp:76] Creating Layer inception_4c/3x3_reduce
I0511 04:49:45.621014 30017 net.cpp:372] inception_4c/3x3_reduce <- inception_4b/output_inception_4b/output_0_split_1
I0511 04:49:45.621022 30017 net.cpp:334] inception_4c/3x3_reduce -> inception_4c/3x3_reduce
I0511 04:49:45.621031 30017 net.cpp:105] Setting up inception_4c/3x3_reduce
I0511 04:49:45.621594 30017 net.cpp:112] Top shape: 32 128 14 14 (802816)
I0511 04:49:45.621609 30017 layer_factory.hpp:74] Creating layer inception_4c/relu_3x3_reduce
I0511 04:49:45.622354 30017 net.cpp:76] Creating Layer inception_4c/relu_3x3_reduce
I0511 04:49:45.622364 30017 net.cpp:372] inception_4c/relu_3x3_reduce <- inception_4c/3x3_reduce
I0511 04:49:45.622372 30017 net.cpp:323] inception_4c/relu_3x3_reduce -> inception_4c/3x3_reduce (in-place)
I0511 04:49:45.622397 30017 net.cpp:105] Setting up inception_4c/relu_3x3_reduce
I0511 04:49:45.622403 30017 net.cpp:112] Top shape: 32 128 14 14 (802816)
I0511 04:49:45.622409 30017 layer_factory.hpp:74] Creating layer inception_4c/3x3
I0511 04:49:45.622418 30017 net.cpp:76] Creating Layer inception_4c/3x3
I0511 04:49:45.622424 30017 net.cpp:372] inception_4c/3x3 <- inception_4c/3x3_reduce
I0511 04:49:45.622436 30017 net.cpp:334] inception_4c/3x3 -> inception_4c/3x3
I0511 04:49:45.622445 30017 net.cpp:105] Setting up inception_4c/3x3
I0511 04:49:45.624910 30017 net.cpp:112] Top shape: 32 256 14 14 (1605632)
I0511 04:49:45.624948 30017 layer_factory.hpp:74] Creating layer inception_4c/relu_3x3
I0511 04:49:45.624958 30017 net.cpp:76] Creating Layer inception_4c/relu_3x3
I0511 04:49:45.624964 30017 net.cpp:372] inception_4c/relu_3x3 <- inception_4c/3x3
I0511 04:49:45.624972 30017 net.cpp:323] inception_4c/relu_3x3 -> inception_4c/3x3 (in-place)
I0511 04:49:45.624981 30017 net.cpp:105] Setting up inception_4c/relu_3x3
I0511 04:49:45.624991 30017 net.cpp:112] Top shape: 32 256 14 14 (1605632)
I0511 04:49:45.624997 30017 layer_factory.hpp:74] Creating layer inception_4c/5x5_reduce
I0511 04:49:45.625006 30017 net.cpp:76] Creating Layer inception_4c/5x5_reduce
I0511 04:49:45.625012 30017 net.cpp:372] inception_4c/5x5_reduce <- inception_4b/output_inception_4b/output_0_split_2
I0511 04:49:45.625023 30017 net.cpp:334] inception_4c/5x5_reduce -> inception_4c/5x5_reduce
I0511 04:49:45.625033 30017 net.cpp:105] Setting up inception_4c/5x5_reduce
I0511 04:49:45.625145 30017 net.cpp:112] Top shape: 32 24 14 14 (150528)
I0511 04:49:45.625156 30017 layer_factory.hpp:74] Creating layer inception_4c/relu_5x5_reduce
I0511 04:49:45.625164 30017 net.cpp:76] Creating Layer inception_4c/relu_5x5_reduce
I0511 04:49:45.625170 30017 net.cpp:372] inception_4c/relu_5x5_reduce <- inception_4c/5x5_reduce
I0511 04:49:45.625177 30017 net.cpp:323] inception_4c/relu_5x5_reduce -> inception_4c/5x5_reduce (in-place)
I0511 04:49:45.625185 30017 net.cpp:105] Setting up inception_4c/relu_5x5_reduce
I0511 04:49:45.625190 30017 net.cpp:112] Top shape: 32 24 14 14 (150528)
I0511 04:49:45.625196 30017 layer_factory.hpp:74] Creating layer inception_4c/5x5
I0511 04:49:45.625206 30017 net.cpp:76] Creating Layer inception_4c/5x5
I0511 04:49:45.625212 30017 net.cpp:372] inception_4c/5x5 <- inception_4c/5x5_reduce
I0511 04:49:45.625221 30017 net.cpp:334] inception_4c/5x5 -> inception_4c/5x5
I0511 04:49:45.625231 30017 net.cpp:105] Setting up inception_4c/5x5
I0511 04:49:45.625582 30017 net.cpp:112] Top shape: 32 64 14 14 (401408)
I0511 04:49:45.625596 30017 layer_factory.hpp:74] Creating layer inception_4c/relu_5x5
I0511 04:49:45.625604 30017 net.cpp:76] Creating Layer inception_4c/relu_5x5
I0511 04:49:45.625610 30017 net.cpp:372] inception_4c/relu_5x5 <- inception_4c/5x5
I0511 04:49:45.625617 30017 net.cpp:323] inception_4c/relu_5x5 -> inception_4c/5x5 (in-place)
I0511 04:49:45.625625 30017 net.cpp:105] Setting up inception_4c/relu_5x5
I0511 04:49:45.625630 30017 net.cpp:112] Top shape: 32 64 14 14 (401408)
I0511 04:49:45.625636 30017 layer_factory.hpp:74] Creating layer inception_4c/pool
I0511 04:49:45.625644 30017 net.cpp:76] Creating Layer inception_4c/pool
I0511 04:49:45.625649 30017 net.cpp:372] inception_4c/pool <- inception_4b/output_inception_4b/output_0_split_3
I0511 04:49:45.625658 30017 net.cpp:334] inception_4c/pool -> inception_4c/pool
I0511 04:49:45.625665 30017 net.cpp:105] Setting up inception_4c/pool
I0511 04:49:45.625674 30017 net.cpp:112] Top shape: 32 512 14 14 (3211264)
I0511 04:49:45.625679 30017 layer_factory.hpp:74] Creating layer inception_4c/pool_proj
I0511 04:49:45.625690 30017 net.cpp:76] Creating Layer inception_4c/pool_proj
I0511 04:49:45.625697 30017 net.cpp:372] inception_4c/pool_proj <- inception_4c/pool
I0511 04:49:45.625707 30017 net.cpp:334] inception_4c/pool_proj -> inception_4c/pool_proj
I0511 04:49:45.625716 30017 net.cpp:105] Setting up inception_4c/pool_proj
I0511 04:49:45.626019 30017 net.cpp:112] Top shape: 32 64 14 14 (401408)
I0511 04:49:45.626032 30017 layer_factory.hpp:74] Creating layer inception_4c/relu_pool_proj
I0511 04:49:45.626047 30017 net.cpp:76] Creating Layer inception_4c/relu_pool_proj
I0511 04:49:45.626054 30017 net.cpp:372] inception_4c/relu_pool_proj <- inception_4c/pool_proj
I0511 04:49:45.626061 30017 net.cpp:323] inception_4c/relu_pool_proj -> inception_4c/pool_proj (in-place)
I0511 04:49:45.626070 30017 net.cpp:105] Setting up inception_4c/relu_pool_proj
I0511 04:49:45.626075 30017 net.cpp:112] Top shape: 32 64 14 14 (401408)
I0511 04:49:45.626080 30017 layer_factory.hpp:74] Creating layer inception_4c/output
I0511 04:49:45.626090 30017 net.cpp:76] Creating Layer inception_4c/output
I0511 04:49:45.626096 30017 net.cpp:372] inception_4c/output <- inception_4c/1x1
I0511 04:49:45.626101 30017 net.cpp:372] inception_4c/output <- inception_4c/3x3
I0511 04:49:45.626107 30017 net.cpp:372] inception_4c/output <- inception_4c/5x5
I0511 04:49:45.626113 30017 net.cpp:372] inception_4c/output <- inception_4c/pool_proj
I0511 04:49:45.626121 30017 net.cpp:334] inception_4c/output -> inception_4c/output
I0511 04:49:45.626128 30017 net.cpp:105] Setting up inception_4c/output
I0511 04:49:45.626134 30017 net.cpp:112] Top shape: 32 512 14 14 (3211264)
I0511 04:49:45.626140 30017 layer_factory.hpp:74] Creating layer inception_4c/output_inception_4c/output_0_split
I0511 04:49:45.626147 30017 net.cpp:76] Creating Layer inception_4c/output_inception_4c/output_0_split
I0511 04:49:45.626153 30017 net.cpp:372] inception_4c/output_inception_4c/output_0_split <- inception_4c/output
I0511 04:49:45.626160 30017 net.cpp:334] inception_4c/output_inception_4c/output_0_split -> inception_4c/output_inception_4c/output_0_split_0
I0511 04:49:45.626169 30017 net.cpp:334] inception_4c/output_inception_4c/output_0_split -> inception_4c/output_inception_4c/output_0_split_1
I0511 04:49:45.626180 30017 net.cpp:334] inception_4c/output_inception_4c/output_0_split -> inception_4c/output_inception_4c/output_0_split_2
I0511 04:49:45.626190 30017 net.cpp:334] inception_4c/output_inception_4c/output_0_split -> inception_4c/output_inception_4c/output_0_split_3
I0511 04:49:45.626199 30017 net.cpp:105] Setting up inception_4c/output_inception_4c/output_0_split
I0511 04:49:45.626205 30017 net.cpp:112] Top shape: 32 512 14 14 (3211264)
I0511 04:49:45.626210 30017 net.cpp:112] Top shape: 32 512 14 14 (3211264)
I0511 04:49:45.626215 30017 net.cpp:112] Top shape: 32 512 14 14 (3211264)
I0511 04:49:45.626220 30017 net.cpp:112] Top shape: 32 512 14 14 (3211264)
I0511 04:49:45.626225 30017 layer_factory.hpp:74] Creating layer inception_4d/1x1
I0511 04:49:45.626235 30017 net.cpp:76] Creating Layer inception_4d/1x1
I0511 04:49:45.626241 30017 net.cpp:372] inception_4d/1x1 <- inception_4c/output_inception_4c/output_0_split_0
I0511 04:49:45.626250 30017 net.cpp:334] inception_4d/1x1 -> inception_4d/1x1
I0511 04:49:45.626258 30017 net.cpp:105] Setting up inception_4d/1x1
I0511 04:49:45.626756 30017 net.cpp:112] Top shape: 32 112 14 14 (702464)
I0511 04:49:45.626770 30017 layer_factory.hpp:74] Creating layer inception_4d/relu_1x1
I0511 04:49:45.626777 30017 net.cpp:76] Creating Layer inception_4d/relu_1x1
I0511 04:49:45.626802 30017 net.cpp:372] inception_4d/relu_1x1 <- inception_4d/1x1
I0511 04:49:45.626813 30017 net.cpp:323] inception_4d/relu_1x1 -> inception_4d/1x1 (in-place)
I0511 04:49:45.626822 30017 net.cpp:105] Setting up inception_4d/relu_1x1
I0511 04:49:45.626827 30017 net.cpp:112] Top shape: 32 112 14 14 (702464)
I0511 04:49:45.626833 30017 layer_factory.hpp:74] Creating layer inception_4d/3x3_reduce
I0511 04:49:45.626842 30017 net.cpp:76] Creating Layer inception_4d/3x3_reduce
I0511 04:49:45.626847 30017 net.cpp:372] inception_4d/3x3_reduce <- inception_4c/output_inception_4c/output_0_split_1
I0511 04:49:45.626857 30017 net.cpp:334] inception_4d/3x3_reduce -> inception_4d/3x3_reduce
I0511 04:49:45.626866 30017 net.cpp:105] Setting up inception_4d/3x3_reduce
I0511 04:49:45.627501 30017 net.cpp:112] Top shape: 32 144 14 14 (903168)
I0511 04:49:45.627528 30017 layer_factory.hpp:74] Creating layer inception_4d/relu_3x3_reduce
I0511 04:49:45.627537 30017 net.cpp:76] Creating Layer inception_4d/relu_3x3_reduce
I0511 04:49:45.627543 30017 net.cpp:372] inception_4d/relu_3x3_reduce <- inception_4d/3x3_reduce
I0511 04:49:45.627550 30017 net.cpp:323] inception_4d/relu_3x3_reduce -> inception_4d/3x3_reduce (in-place)
I0511 04:49:45.627558 30017 net.cpp:105] Setting up inception_4d/relu_3x3_reduce
I0511 04:49:45.627564 30017 net.cpp:112] Top shape: 32 144 14 14 (903168)
I0511 04:49:45.627569 30017 layer_factory.hpp:74] Creating layer inception_4d/3x3
I0511 04:49:45.627580 30017 net.cpp:76] Creating Layer inception_4d/3x3
I0511 04:49:45.627586 30017 net.cpp:372] inception_4d/3x3 <- inception_4d/3x3_reduce
I0511 04:49:45.627599 30017 net.cpp:334] inception_4d/3x3 -> inception_4d/3x3
I0511 04:49:45.627607 30017 net.cpp:105] Setting up inception_4d/3x3
I0511 04:49:45.630713 30017 net.cpp:112] Top shape: 32 288 14 14 (1806336)
I0511 04:49:45.630733 30017 layer_factory.hpp:74] Creating layer inception_4d/relu_3x3
I0511 04:49:45.630746 30017 net.cpp:76] Creating Layer inception_4d/relu_3x3
I0511 04:49:45.630753 30017 net.cpp:372] inception_4d/relu_3x3 <- inception_4d/3x3
I0511 04:49:45.630760 30017 net.cpp:323] inception_4d/relu_3x3 -> inception_4d/3x3 (in-place)
I0511 04:49:45.630769 30017 net.cpp:105] Setting up inception_4d/relu_3x3
I0511 04:49:45.630774 30017 net.cpp:112] Top shape: 32 288 14 14 (1806336)
I0511 04:49:45.630779 30017 layer_factory.hpp:74] Creating layer inception_4d/5x5_reduce
I0511 04:49:45.630790 30017 net.cpp:76] Creating Layer inception_4d/5x5_reduce
I0511 04:49:45.630797 30017 net.cpp:372] inception_4d/5x5_reduce <- inception_4c/output_inception_4c/output_0_split_2
I0511 04:49:45.630805 30017 net.cpp:334] inception_4d/5x5_reduce -> inception_4d/5x5_reduce
I0511 04:49:45.630815 30017 net.cpp:105] Setting up inception_4d/5x5_reduce
I0511 04:49:45.630972 30017 net.cpp:112] Top shape: 32 32 14 14 (200704)
I0511 04:49:45.630983 30017 layer_factory.hpp:74] Creating layer inception_4d/relu_5x5_reduce
I0511 04:49:45.630991 30017 net.cpp:76] Creating Layer inception_4d/relu_5x5_reduce
I0511 04:49:45.630997 30017 net.cpp:372] inception_4d/relu_5x5_reduce <- inception_4d/5x5_reduce
I0511 04:49:45.631006 30017 net.cpp:323] inception_4d/relu_5x5_reduce -> inception_4d/5x5_reduce (in-place)
I0511 04:49:45.631014 30017 net.cpp:105] Setting up inception_4d/relu_5x5_reduce
I0511 04:49:45.631021 30017 net.cpp:112] Top shape: 32 32 14 14 (200704)
I0511 04:49:45.631026 30017 layer_factory.hpp:74] Creating layer inception_4d/5x5
I0511 04:49:45.631034 30017 net.cpp:76] Creating Layer inception_4d/5x5
I0511 04:49:45.631039 30017 net.cpp:372] inception_4d/5x5 <- inception_4d/5x5_reduce
I0511 04:49:45.631052 30017 net.cpp:334] inception_4d/5x5 -> inception_4d/5x5
I0511 04:49:45.631062 30017 net.cpp:105] Setting up inception_4d/5x5
I0511 04:49:45.631510 30017 net.cpp:112] Top shape: 32 64 14 14 (401408)
I0511 04:49:45.631523 30017 layer_factory.hpp:74] Creating layer inception_4d/relu_5x5
I0511 04:49:45.631533 30017 net.cpp:76] Creating Layer inception_4d/relu_5x5
I0511 04:49:45.632283 30017 net.cpp:372] inception_4d/relu_5x5 <- inception_4d/5x5
I0511 04:49:45.632294 30017 net.cpp:323] inception_4d/relu_5x5 -> inception_4d/5x5 (in-place)
I0511 04:49:45.632303 30017 net.cpp:105] Setting up inception_4d/relu_5x5
I0511 04:49:45.632308 30017 net.cpp:112] Top shape: 32 64 14 14 (401408)
I0511 04:49:45.632314 30017 layer_factory.hpp:74] Creating layer inception_4d/pool
I0511 04:49:45.632325 30017 net.cpp:76] Creating Layer inception_4d/pool
I0511 04:49:45.632334 30017 net.cpp:372] inception_4d/pool <- inception_4c/output_inception_4c/output_0_split_3
I0511 04:49:45.632344 30017 net.cpp:334] inception_4d/pool -> inception_4d/pool
I0511 04:49:45.632354 30017 net.cpp:105] Setting up inception_4d/pool
I0511 04:49:45.632362 30017 net.cpp:112] Top shape: 32 512 14 14 (3211264)
I0511 04:49:45.632369 30017 layer_factory.hpp:74] Creating layer inception_4d/pool_proj
I0511 04:49:45.632398 30017 net.cpp:76] Creating Layer inception_4d/pool_proj
I0511 04:49:45.632405 30017 net.cpp:372] inception_4d/pool_proj <- inception_4d/pool
I0511 04:49:45.632416 30017 net.cpp:334] inception_4d/pool_proj -> inception_4d/pool_proj
I0511 04:49:45.632426 30017 net.cpp:105] Setting up inception_4d/pool_proj
I0511 04:49:45.632707 30017 net.cpp:112] Top shape: 32 64 14 14 (401408)
I0511 04:49:45.632720 30017 layer_factory.hpp:74] Creating layer inception_4d/relu_pool_proj
I0511 04:49:45.632729 30017 net.cpp:76] Creating Layer inception_4d/relu_pool_proj
I0511 04:49:45.632735 30017 net.cpp:372] inception_4d/relu_pool_proj <- inception_4d/pool_proj
I0511 04:49:45.632741 30017 net.cpp:323] inception_4d/relu_pool_proj -> inception_4d/pool_proj (in-place)
I0511 04:49:45.632750 30017 net.cpp:105] Setting up inception_4d/relu_pool_proj
I0511 04:49:45.632755 30017 net.cpp:112] Top shape: 32 64 14 14 (401408)
I0511 04:49:45.632761 30017 layer_factory.hpp:74] Creating layer inception_4d/output
I0511 04:49:45.632771 30017 net.cpp:76] Creating Layer inception_4d/output
I0511 04:49:45.632777 30017 net.cpp:372] inception_4d/output <- inception_4d/1x1
I0511 04:49:45.632784 30017 net.cpp:372] inception_4d/output <- inception_4d/3x3
I0511 04:49:45.632791 30017 net.cpp:372] inception_4d/output <- inception_4d/5x5
I0511 04:49:45.632797 30017 net.cpp:372] inception_4d/output <- inception_4d/pool_proj
I0511 04:49:45.632803 30017 net.cpp:334] inception_4d/output -> inception_4d/output
I0511 04:49:45.632812 30017 net.cpp:105] Setting up inception_4d/output
I0511 04:49:45.632818 30017 net.cpp:112] Top shape: 32 528 14 14 (3311616)
I0511 04:49:45.632823 30017 layer_factory.hpp:74] Creating layer inception_4d/output_inception_4d/output_0_split
I0511 04:49:45.632833 30017 net.cpp:76] Creating Layer inception_4d/output_inception_4d/output_0_split
I0511 04:49:45.632838 30017 net.cpp:372] inception_4d/output_inception_4d/output_0_split <- inception_4d/output
I0511 04:49:45.632848 30017 net.cpp:334] inception_4d/output_inception_4d/output_0_split -> inception_4d/output_inception_4d/output_0_split_0
I0511 04:49:45.632858 30017 net.cpp:334] inception_4d/output_inception_4d/output_0_split -> inception_4d/output_inception_4d/output_0_split_1
I0511 04:49:45.632866 30017 net.cpp:334] inception_4d/output_inception_4d/output_0_split -> inception_4d/output_inception_4d/output_0_split_2
I0511 04:49:45.632875 30017 net.cpp:334] inception_4d/output_inception_4d/output_0_split -> inception_4d/output_inception_4d/output_0_split_3
I0511 04:49:45.632884 30017 net.cpp:334] inception_4d/output_inception_4d/output_0_split -> inception_4d/output_inception_4d/output_0_split_4
I0511 04:49:45.632892 30017 net.cpp:105] Setting up inception_4d/output_inception_4d/output_0_split
I0511 04:49:45.632899 30017 net.cpp:112] Top shape: 32 528 14 14 (3311616)
I0511 04:49:45.632905 30017 net.cpp:112] Top shape: 32 528 14 14 (3311616)
I0511 04:49:45.632910 30017 net.cpp:112] Top shape: 32 528 14 14 (3311616)
I0511 04:49:45.632915 30017 net.cpp:112] Top shape: 32 528 14 14 (3311616)
I0511 04:49:45.633029 30017 net.cpp:112] Top shape: 32 528 14 14 (3311616)
I0511 04:49:45.633043 30017 layer_factory.hpp:74] Creating layer loss2/ave_pool
I0511 04:49:45.633060 30017 net.cpp:76] Creating Layer loss2/ave_pool
I0511 04:49:45.633071 30017 net.cpp:372] loss2/ave_pool <- inception_4d/output_inception_4d/output_0_split_0
I0511 04:49:45.633085 30017 net.cpp:334] loss2/ave_pool -> loss2/ave_pool
I0511 04:49:45.633100 30017 net.cpp:105] Setting up loss2/ave_pool
I0511 04:49:45.633111 30017 net.cpp:112] Top shape: 32 528 4 4 (270336)
I0511 04:49:45.633121 30017 layer_factory.hpp:74] Creating layer loss2/conv
I0511 04:49:45.633138 30017 net.cpp:76] Creating Layer loss2/conv
I0511 04:49:45.633149 30017 net.cpp:372] loss2/conv <- loss2/ave_pool
I0511 04:49:45.633163 30017 net.cpp:334] loss2/conv -> loss2/conv
I0511 04:49:45.633178 30017 net.cpp:105] Setting up loss2/conv
I0511 04:49:45.634027 30017 net.cpp:112] Top shape: 32 128 4 4 (65536)
I0511 04:49:45.634050 30017 layer_factory.hpp:74] Creating layer loss2/relu_conv
I0511 04:49:45.634090 30017 net.cpp:76] Creating Layer loss2/relu_conv
I0511 04:49:45.634101 30017 net.cpp:372] loss2/relu_conv <- loss2/conv
I0511 04:49:45.634119 30017 net.cpp:323] loss2/relu_conv -> loss2/conv (in-place)
I0511 04:49:45.634134 30017 net.cpp:105] Setting up loss2/relu_conv
I0511 04:49:45.634145 30017 net.cpp:112] Top shape: 32 128 4 4 (65536)
I0511 04:49:45.634156 30017 layer_factory.hpp:74] Creating layer loss2/fc
I0511 04:49:45.634174 30017 net.cpp:76] Creating Layer loss2/fc
I0511 04:49:45.634182 30017 net.cpp:372] loss2/fc <- loss2/conv
I0511 04:49:45.634191 30017 net.cpp:334] loss2/fc -> loss2/fc
I0511 04:49:45.634201 30017 net.cpp:105] Setting up loss2/fc
I0511 04:49:45.651633 30017 net.cpp:112] Top shape: 32 1024 1 1 (32768)
I0511 04:49:45.651676 30017 layer_factory.hpp:74] Creating layer loss2/relu_fc
I0511 04:49:45.651690 30017 net.cpp:76] Creating Layer loss2/relu_fc
I0511 04:49:45.651702 30017 net.cpp:372] loss2/relu_fc <- loss2/fc
I0511 04:49:45.651712 30017 net.cpp:323] loss2/relu_fc -> loss2/fc (in-place)
I0511 04:49:45.651723 30017 net.cpp:105] Setting up loss2/relu_fc
I0511 04:49:45.651729 30017 net.cpp:112] Top shape: 32 1024 1 1 (32768)
I0511 04:49:45.651736 30017 layer_factory.hpp:74] Creating layer loss2/drop_fc
I0511 04:49:45.651747 30017 net.cpp:76] Creating Layer loss2/drop_fc
I0511 04:49:45.651752 30017 net.cpp:372] loss2/drop_fc <- loss2/fc
I0511 04:49:45.651759 30017 net.cpp:323] loss2/drop_fc -> loss2/fc (in-place)
I0511 04:49:45.651768 30017 net.cpp:105] Setting up loss2/drop_fc
I0511 04:49:45.651774 30017 net.cpp:112] Top shape: 32 1024 1 1 (32768)
I0511 04:49:45.651780 30017 layer_factory.hpp:74] Creating layer loss2/classifier
I0511 04:49:45.651789 30017 net.cpp:76] Creating Layer loss2/classifier
I0511 04:49:45.651795 30017 net.cpp:372] loss2/classifier <- loss2/fc
I0511 04:49:45.651840 30017 net.cpp:334] loss2/classifier -> loss2/classifier
I0511 04:49:45.651895 30017 net.cpp:105] Setting up loss2/classifier
I0511 04:49:45.651932 30017 net.cpp:112] Top shape: 32 2 1 1 (64)
I0511 04:49:45.651942 30017 layer_factory.hpp:74] Creating layer loss2/loss
I0511 04:49:45.651954 30017 net.cpp:76] Creating Layer loss2/loss
I0511 04:49:45.651960 30017 net.cpp:372] loss2/loss <- loss2/classifier
I0511 04:49:45.651968 30017 net.cpp:372] loss2/loss <- label_data_1_split_1
I0511 04:49:45.651976 30017 net.cpp:334] loss2/loss -> loss2/loss1
I0511 04:49:45.651985 30017 net.cpp:105] Setting up loss2/loss
I0511 04:49:45.651993 30017 layer_factory.hpp:74] Creating layer loss2/loss
I0511 04:49:45.652009 30017 net.cpp:112] Top shape: 1 1 1 1 (1)
I0511 04:49:45.652015 30017 net.cpp:118]     with loss weight 0.3
I0511 04:49:45.652034 30017 layer_factory.hpp:74] Creating layer inception_4e/1x1
I0511 04:49:45.652043 30017 net.cpp:76] Creating Layer inception_4e/1x1
I0511 04:49:45.652050 30017 net.cpp:372] inception_4e/1x1 <- inception_4d/output_inception_4d/output_0_split_1
I0511 04:49:45.652060 30017 net.cpp:334] inception_4e/1x1 -> inception_4e/1x1
I0511 04:49:45.652070 30017 net.cpp:105] Setting up inception_4e/1x1
I0511 04:49:45.653228 30017 net.cpp:112] Top shape: 32 256 14 14 (1605632)
I0511 04:49:45.653244 30017 layer_factory.hpp:74] Creating layer inception_4e/relu_1x1
I0511 04:49:45.653254 30017 net.cpp:76] Creating Layer inception_4e/relu_1x1
I0511 04:49:45.653261 30017 net.cpp:372] inception_4e/relu_1x1 <- inception_4e/1x1
I0511 04:49:45.653269 30017 net.cpp:323] inception_4e/relu_1x1 -> inception_4e/1x1 (in-place)
I0511 04:49:45.653290 30017 net.cpp:105] Setting up inception_4e/relu_1x1
I0511 04:49:45.653295 30017 net.cpp:112] Top shape: 32 256 14 14 (1605632)
I0511 04:49:45.653301 30017 layer_factory.hpp:74] Creating layer inception_4e/3x3_reduce
I0511 04:49:45.653311 30017 net.cpp:76] Creating Layer inception_4e/3x3_reduce
I0511 04:49:45.653316 30017 net.cpp:372] inception_4e/3x3_reduce <- inception_4d/output_inception_4d/output_0_split_2
I0511 04:49:45.653329 30017 net.cpp:334] inception_4e/3x3_reduce -> inception_4e/3x3_reduce
I0511 04:49:45.653374 30017 net.cpp:105] Setting up inception_4e/3x3_reduce
I0511 04:49:45.654086 30017 net.cpp:112] Top shape: 32 160 14 14 (1003520)
I0511 04:49:45.654100 30017 layer_factory.hpp:74] Creating layer inception_4e/relu_3x3_reduce
I0511 04:49:45.654109 30017 net.cpp:76] Creating Layer inception_4e/relu_3x3_reduce
I0511 04:49:45.654115 30017 net.cpp:372] inception_4e/relu_3x3_reduce <- inception_4e/3x3_reduce
I0511 04:49:45.654125 30017 net.cpp:323] inception_4e/relu_3x3_reduce -> inception_4e/3x3_reduce (in-place)
I0511 04:49:45.654134 30017 net.cpp:105] Setting up inception_4e/relu_3x3_reduce
I0511 04:49:45.654139 30017 net.cpp:112] Top shape: 32 160 14 14 (1003520)
I0511 04:49:45.654145 30017 layer_factory.hpp:74] Creating layer inception_4e/3x3
I0511 04:49:45.654153 30017 net.cpp:76] Creating Layer inception_4e/3x3
I0511 04:49:45.654160 30017 net.cpp:372] inception_4e/3x3 <- inception_4e/3x3_reduce
I0511 04:49:45.654166 30017 net.cpp:334] inception_4e/3x3 -> inception_4e/3x3
I0511 04:49:45.654175 30017 net.cpp:105] Setting up inception_4e/3x3
I0511 04:49:45.658049 30017 net.cpp:112] Top shape: 32 320 14 14 (2007040)
I0511 04:49:45.658077 30017 layer_factory.hpp:74] Creating layer inception_4e/relu_3x3
I0511 04:49:45.658087 30017 net.cpp:76] Creating Layer inception_4e/relu_3x3
I0511 04:49:45.658094 30017 net.cpp:372] inception_4e/relu_3x3 <- inception_4e/3x3
I0511 04:49:45.658102 30017 net.cpp:323] inception_4e/relu_3x3 -> inception_4e/3x3 (in-place)
I0511 04:49:45.658112 30017 net.cpp:105] Setting up inception_4e/relu_3x3
I0511 04:49:45.658118 30017 net.cpp:112] Top shape: 32 320 14 14 (2007040)
I0511 04:49:45.658123 30017 layer_factory.hpp:74] Creating layer inception_4e/5x5_reduce
I0511 04:49:45.658133 30017 net.cpp:76] Creating Layer inception_4e/5x5_reduce
I0511 04:49:45.658139 30017 net.cpp:372] inception_4e/5x5_reduce <- inception_4d/output_inception_4d/output_0_split_3
I0511 04:49:45.658150 30017 net.cpp:334] inception_4e/5x5_reduce -> inception_4e/5x5_reduce
I0511 04:49:45.658160 30017 net.cpp:105] Setting up inception_4e/5x5_reduce
I0511 04:49:45.658325 30017 net.cpp:112] Top shape: 32 32 14 14 (200704)
I0511 04:49:45.658339 30017 layer_factory.hpp:74] Creating layer inception_4e/relu_5x5_reduce
I0511 04:49:45.658349 30017 net.cpp:76] Creating Layer inception_4e/relu_5x5_reduce
I0511 04:49:45.658355 30017 net.cpp:372] inception_4e/relu_5x5_reduce <- inception_4e/5x5_reduce
I0511 04:49:45.658362 30017 net.cpp:323] inception_4e/relu_5x5_reduce -> inception_4e/5x5_reduce (in-place)
I0511 04:49:45.658370 30017 net.cpp:105] Setting up inception_4e/relu_5x5_reduce
I0511 04:49:45.658380 30017 net.cpp:112] Top shape: 32 32 14 14 (200704)
I0511 04:49:45.658385 30017 layer_factory.hpp:74] Creating layer inception_4e/5x5
I0511 04:49:45.658416 30017 net.cpp:76] Creating Layer inception_4e/5x5
I0511 04:49:45.658422 30017 net.cpp:372] inception_4e/5x5 <- inception_4e/5x5_reduce
I0511 04:49:45.658432 30017 net.cpp:334] inception_4e/5x5 -> inception_4e/5x5
I0511 04:49:45.658440 30017 net.cpp:105] Setting up inception_4e/5x5
I0511 04:49:45.659309 30017 net.cpp:112] Top shape: 32 128 14 14 (802816)
I0511 04:49:45.659327 30017 layer_factory.hpp:74] Creating layer inception_4e/relu_5x5
I0511 04:49:45.659337 30017 net.cpp:76] Creating Layer inception_4e/relu_5x5
I0511 04:49:45.659343 30017 net.cpp:372] inception_4e/relu_5x5 <- inception_4e/5x5
I0511 04:49:45.659349 30017 net.cpp:323] inception_4e/relu_5x5 -> inception_4e/5x5 (in-place)
I0511 04:49:45.659356 30017 net.cpp:105] Setting up inception_4e/relu_5x5
I0511 04:49:45.659363 30017 net.cpp:112] Top shape: 32 128 14 14 (802816)
I0511 04:49:45.659368 30017 layer_factory.hpp:74] Creating layer inception_4e/pool
I0511 04:49:45.659376 30017 net.cpp:76] Creating Layer inception_4e/pool
I0511 04:49:45.659382 30017 net.cpp:372] inception_4e/pool <- inception_4d/output_inception_4d/output_0_split_4
I0511 04:49:45.659392 30017 net.cpp:334] inception_4e/pool -> inception_4e/pool
I0511 04:49:45.659402 30017 net.cpp:105] Setting up inception_4e/pool
I0511 04:49:45.659410 30017 net.cpp:112] Top shape: 32 528 14 14 (3311616)
I0511 04:49:45.659446 30017 layer_factory.hpp:74] Creating layer inception_4e/pool_proj
I0511 04:49:45.659456 30017 net.cpp:76] Creating Layer inception_4e/pool_proj
I0511 04:49:45.659462 30017 net.cpp:372] inception_4e/pool_proj <- inception_4e/pool
I0511 04:49:45.659472 30017 net.cpp:334] inception_4e/pool_proj -> inception_4e/pool_proj
I0511 04:49:45.659482 30017 net.cpp:105] Setting up inception_4e/pool_proj
I0511 04:49:45.660058 30017 net.cpp:112] Top shape: 32 128 14 14 (802816)
I0511 04:49:45.660071 30017 layer_factory.hpp:74] Creating layer inception_4e/relu_pool_proj
I0511 04:49:45.660079 30017 net.cpp:76] Creating Layer inception_4e/relu_pool_proj
I0511 04:49:45.660086 30017 net.cpp:372] inception_4e/relu_pool_proj <- inception_4e/pool_proj
I0511 04:49:45.660099 30017 net.cpp:323] inception_4e/relu_pool_proj -> inception_4e/pool_proj (in-place)
I0511 04:49:45.660106 30017 net.cpp:105] Setting up inception_4e/relu_pool_proj
I0511 04:49:45.660112 30017 net.cpp:112] Top shape: 32 128 14 14 (802816)
I0511 04:49:45.660118 30017 layer_factory.hpp:74] Creating layer inception_4e/output
I0511 04:49:45.660125 30017 net.cpp:76] Creating Layer inception_4e/output
I0511 04:49:45.660131 30017 net.cpp:372] inception_4e/output <- inception_4e/1x1
I0511 04:49:45.660138 30017 net.cpp:372] inception_4e/output <- inception_4e/3x3
I0511 04:49:45.660145 30017 net.cpp:372] inception_4e/output <- inception_4e/5x5
I0511 04:49:45.660151 30017 net.cpp:372] inception_4e/output <- inception_4e/pool_proj
I0511 04:49:45.660158 30017 net.cpp:334] inception_4e/output -> inception_4e/output
I0511 04:49:45.660166 30017 net.cpp:105] Setting up inception_4e/output
I0511 04:49:45.660173 30017 net.cpp:112] Top shape: 32 832 14 14 (5218304)
I0511 04:49:45.660178 30017 layer_factory.hpp:74] Creating layer pool4/3x3_s2
I0511 04:49:45.660187 30017 net.cpp:76] Creating Layer pool4/3x3_s2
I0511 04:49:45.660192 30017 net.cpp:372] pool4/3x3_s2 <- inception_4e/output
I0511 04:49:45.660202 30017 net.cpp:334] pool4/3x3_s2 -> pool4/3x3_s2
I0511 04:49:45.660212 30017 net.cpp:105] Setting up pool4/3x3_s2
I0511 04:49:45.660218 30017 net.cpp:112] Top shape: 32 832 7 7 (1304576)
I0511 04:49:45.660223 30017 layer_factory.hpp:74] Creating layer pool4/3x3_s2_pool4/3x3_s2_0_split
I0511 04:49:45.660231 30017 net.cpp:76] Creating Layer pool4/3x3_s2_pool4/3x3_s2_0_split
I0511 04:49:45.660238 30017 net.cpp:372] pool4/3x3_s2_pool4/3x3_s2_0_split <- pool4/3x3_s2
I0511 04:49:45.660246 30017 net.cpp:334] pool4/3x3_s2_pool4/3x3_s2_0_split -> pool4/3x3_s2_pool4/3x3_s2_0_split_0
I0511 04:49:45.660255 30017 net.cpp:334] pool4/3x3_s2_pool4/3x3_s2_0_split -> pool4/3x3_s2_pool4/3x3_s2_0_split_1
I0511 04:49:45.660264 30017 net.cpp:334] pool4/3x3_s2_pool4/3x3_s2_0_split -> pool4/3x3_s2_pool4/3x3_s2_0_split_2
I0511 04:49:45.660286 30017 net.cpp:334] pool4/3x3_s2_pool4/3x3_s2_0_split -> pool4/3x3_s2_pool4/3x3_s2_0_split_3
I0511 04:49:45.660295 30017 net.cpp:105] Setting up pool4/3x3_s2_pool4/3x3_s2_0_split
I0511 04:49:45.660303 30017 net.cpp:112] Top shape: 32 832 7 7 (1304576)
I0511 04:49:45.660308 30017 net.cpp:112] Top shape: 32 832 7 7 (1304576)
I0511 04:49:45.660313 30017 net.cpp:112] Top shape: 32 832 7 7 (1304576)
I0511 04:49:45.660318 30017 net.cpp:112] Top shape: 32 832 7 7 (1304576)
I0511 04:49:45.660323 30017 layer_factory.hpp:74] Creating layer inception_5a/1x1
I0511 04:49:45.660334 30017 net.cpp:76] Creating Layer inception_5a/1x1
I0511 04:49:45.660341 30017 net.cpp:372] inception_5a/1x1 <- pool4/3x3_s2_pool4/3x3_s2_0_split_0
I0511 04:49:45.660349 30017 net.cpp:334] inception_5a/1x1 -> inception_5a/1x1
I0511 04:49:45.660358 30017 net.cpp:105] Setting up inception_5a/1x1
I0511 04:49:45.662138 30017 net.cpp:112] Top shape: 32 256 7 7 (401408)
I0511 04:49:45.662154 30017 layer_factory.hpp:74] Creating layer inception_5a/relu_1x1
I0511 04:49:45.662163 30017 net.cpp:76] Creating Layer inception_5a/relu_1x1
I0511 04:49:45.662192 30017 net.cpp:372] inception_5a/relu_1x1 <- inception_5a/1x1
I0511 04:49:45.662204 30017 net.cpp:323] inception_5a/relu_1x1 -> inception_5a/1x1 (in-place)
I0511 04:49:45.662226 30017 net.cpp:105] Setting up inception_5a/relu_1x1
I0511 04:49:45.662233 30017 net.cpp:112] Top shape: 32 256 7 7 (401408)
I0511 04:49:45.662240 30017 layer_factory.hpp:74] Creating layer inception_5a/3x3_reduce
I0511 04:49:45.662248 30017 net.cpp:76] Creating Layer inception_5a/3x3_reduce
I0511 04:49:45.662255 30017 net.cpp:372] inception_5a/3x3_reduce <- pool4/3x3_s2_pool4/3x3_s2_0_split_1
I0511 04:49:45.662266 30017 net.cpp:334] inception_5a/3x3_reduce -> inception_5a/3x3_reduce
I0511 04:49:45.662289 30017 net.cpp:105] Setting up inception_5a/3x3_reduce
I0511 04:49:45.663419 30017 net.cpp:112] Top shape: 32 160 7 7 (250880)
I0511 04:49:45.663434 30017 layer_factory.hpp:74] Creating layer inception_5a/relu_3x3_reduce
I0511 04:49:45.663444 30017 net.cpp:76] Creating Layer inception_5a/relu_3x3_reduce
I0511 04:49:45.663451 30017 net.cpp:372] inception_5a/relu_3x3_reduce <- inception_5a/3x3_reduce
I0511 04:49:45.663460 30017 net.cpp:323] inception_5a/relu_3x3_reduce -> inception_5a/3x3_reduce (in-place)
I0511 04:49:45.663467 30017 net.cpp:105] Setting up inception_5a/relu_3x3_reduce
I0511 04:49:45.663473 30017 net.cpp:112] Top shape: 32 160 7 7 (250880)
I0511 04:49:45.663478 30017 layer_factory.hpp:74] Creating layer inception_5a/3x3
I0511 04:49:45.663488 30017 net.cpp:76] Creating Layer inception_5a/3x3
I0511 04:49:45.663494 30017 net.cpp:372] inception_5a/3x3 <- inception_5a/3x3_reduce
I0511 04:49:45.663502 30017 net.cpp:334] inception_5a/3x3 -> inception_5a/3x3
I0511 04:49:45.663511 30017 net.cpp:105] Setting up inception_5a/3x3
I0511 04:49:45.667362 30017 net.cpp:112] Top shape: 32 320 7 7 (501760)
I0511 04:49:45.667382 30017 layer_factory.hpp:74] Creating layer inception_5a/relu_3x3
I0511 04:49:45.667393 30017 net.cpp:76] Creating Layer inception_5a/relu_3x3
I0511 04:49:45.667402 30017 net.cpp:372] inception_5a/relu_3x3 <- inception_5a/3x3
I0511 04:49:45.667409 30017 net.cpp:323] inception_5a/relu_3x3 -> inception_5a/3x3 (in-place)
I0511 04:49:45.667418 30017 net.cpp:105] Setting up inception_5a/relu_3x3
I0511 04:49:45.667423 30017 net.cpp:112] Top shape: 32 320 7 7 (501760)
I0511 04:49:45.667429 30017 layer_factory.hpp:74] Creating layer inception_5a/5x5_reduce
I0511 04:49:45.667438 30017 net.cpp:76] Creating Layer inception_5a/5x5_reduce
I0511 04:49:45.667444 30017 net.cpp:372] inception_5a/5x5_reduce <- pool4/3x3_s2_pool4/3x3_s2_0_split_2
I0511 04:49:45.667455 30017 net.cpp:334] inception_5a/5x5_reduce -> inception_5a/5x5_reduce
I0511 04:49:45.667465 30017 net.cpp:105] Setting up inception_5a/5x5_reduce
I0511 04:49:45.667696 30017 net.cpp:112] Top shape: 32 32 7 7 (50176)
I0511 04:49:45.667711 30017 layer_factory.hpp:74] Creating layer inception_5a/relu_5x5_reduce
I0511 04:49:45.667719 30017 net.cpp:76] Creating Layer inception_5a/relu_5x5_reduce
I0511 04:49:45.667726 30017 net.cpp:372] inception_5a/relu_5x5_reduce <- inception_5a/5x5_reduce
I0511 04:49:45.667732 30017 net.cpp:323] inception_5a/relu_5x5_reduce -> inception_5a/5x5_reduce (in-place)
I0511 04:49:45.667739 30017 net.cpp:105] Setting up inception_5a/relu_5x5_reduce
I0511 04:49:45.667745 30017 net.cpp:112] Top shape: 32 32 7 7 (50176)
I0511 04:49:45.667752 30017 layer_factory.hpp:74] Creating layer inception_5a/5x5
I0511 04:49:45.667759 30017 net.cpp:76] Creating Layer inception_5a/5x5
I0511 04:49:45.667764 30017 net.cpp:372] inception_5a/5x5 <- inception_5a/5x5_reduce
I0511 04:49:45.667774 30017 net.cpp:334] inception_5a/5x5 -> inception_5a/5x5
I0511 04:49:45.667783 30017 net.cpp:105] Setting up inception_5a/5x5
I0511 04:49:45.668666 30017 net.cpp:112] Top shape: 32 128 7 7 (200704)
I0511 04:49:45.668681 30017 layer_factory.hpp:74] Creating layer inception_5a/relu_5x5
I0511 04:49:45.668689 30017 net.cpp:76] Creating Layer inception_5a/relu_5x5
I0511 04:49:45.669525 30017 net.cpp:372] inception_5a/relu_5x5 <- inception_5a/5x5
I0511 04:49:45.669543 30017 net.cpp:323] inception_5a/relu_5x5 -> inception_5a/5x5 (in-place)
I0511 04:49:45.669556 30017 net.cpp:105] Setting up inception_5a/relu_5x5
I0511 04:49:45.669595 30017 net.cpp:112] Top shape: 32 128 7 7 (200704)
I0511 04:49:45.669606 30017 layer_factory.hpp:74] Creating layer inception_5a/pool
I0511 04:49:45.669625 30017 net.cpp:76] Creating Layer inception_5a/pool
I0511 04:49:45.669636 30017 net.cpp:372] inception_5a/pool <- pool4/3x3_s2_pool4/3x3_s2_0_split_3
I0511 04:49:45.669649 30017 net.cpp:334] inception_5a/pool -> inception_5a/pool
I0511 04:49:45.669664 30017 net.cpp:105] Setting up inception_5a/pool
I0511 04:49:45.669678 30017 net.cpp:112] Top shape: 32 832 7 7 (1304576)
I0511 04:49:45.669687 30017 layer_factory.hpp:74] Creating layer inception_5a/pool_proj
I0511 04:49:45.669705 30017 net.cpp:76] Creating Layer inception_5a/pool_proj
I0511 04:49:45.669715 30017 net.cpp:372] inception_5a/pool_proj <- inception_5a/pool
I0511 04:49:45.669729 30017 net.cpp:334] inception_5a/pool_proj -> inception_5a/pool_proj
I0511 04:49:45.669745 30017 net.cpp:105] Setting up inception_5a/pool_proj
I0511 04:49:45.670933 30017 net.cpp:112] Top shape: 32 128 7 7 (200704)
I0511 04:49:45.670950 30017 layer_factory.hpp:74] Creating layer inception_5a/relu_pool_proj
I0511 04:49:45.670959 30017 net.cpp:76] Creating Layer inception_5a/relu_pool_proj
I0511 04:49:45.670966 30017 net.cpp:372] inception_5a/relu_pool_proj <- inception_5a/pool_proj
I0511 04:49:45.670974 30017 net.cpp:323] inception_5a/relu_pool_proj -> inception_5a/pool_proj (in-place)
I0511 04:49:45.670984 30017 net.cpp:105] Setting up inception_5a/relu_pool_proj
I0511 04:49:45.670990 30017 net.cpp:112] Top shape: 32 128 7 7 (200704)
I0511 04:49:45.670995 30017 layer_factory.hpp:74] Creating layer inception_5a/output
I0511 04:49:45.671005 30017 net.cpp:76] Creating Layer inception_5a/output
I0511 04:49:45.671010 30017 net.cpp:372] inception_5a/output <- inception_5a/1x1
I0511 04:49:45.671016 30017 net.cpp:372] inception_5a/output <- inception_5a/3x3
I0511 04:49:45.671023 30017 net.cpp:372] inception_5a/output <- inception_5a/5x5
I0511 04:49:45.671030 30017 net.cpp:372] inception_5a/output <- inception_5a/pool_proj
I0511 04:49:45.671036 30017 net.cpp:334] inception_5a/output -> inception_5a/output
I0511 04:49:45.671044 30017 net.cpp:105] Setting up inception_5a/output
I0511 04:49:45.671051 30017 net.cpp:112] Top shape: 32 832 7 7 (1304576)
I0511 04:49:45.671056 30017 layer_factory.hpp:74] Creating layer inception_5a/output_inception_5a/output_0_split
I0511 04:49:45.671064 30017 net.cpp:76] Creating Layer inception_5a/output_inception_5a/output_0_split
I0511 04:49:45.671071 30017 net.cpp:372] inception_5a/output_inception_5a/output_0_split <- inception_5a/output
I0511 04:49:45.671080 30017 net.cpp:334] inception_5a/output_inception_5a/output_0_split -> inception_5a/output_inception_5a/output_0_split_0
I0511 04:49:45.671090 30017 net.cpp:334] inception_5a/output_inception_5a/output_0_split -> inception_5a/output_inception_5a/output_0_split_1
I0511 04:49:45.671099 30017 net.cpp:334] inception_5a/output_inception_5a/output_0_split -> inception_5a/output_inception_5a/output_0_split_2
I0511 04:49:45.671108 30017 net.cpp:334] inception_5a/output_inception_5a/output_0_split -> inception_5a/output_inception_5a/output_0_split_3
I0511 04:49:45.671118 30017 net.cpp:105] Setting up inception_5a/output_inception_5a/output_0_split
I0511 04:49:45.671124 30017 net.cpp:112] Top shape: 32 832 7 7 (1304576)
I0511 04:49:45.671129 30017 net.cpp:112] Top shape: 32 832 7 7 (1304576)
I0511 04:49:45.671134 30017 net.cpp:112] Top shape: 32 832 7 7 (1304576)
I0511 04:49:45.671139 30017 net.cpp:112] Top shape: 32 832 7 7 (1304576)
I0511 04:49:45.671144 30017 layer_factory.hpp:74] Creating layer inception_5b/1x1
I0511 04:49:45.671155 30017 net.cpp:76] Creating Layer inception_5b/1x1
I0511 04:49:45.671161 30017 net.cpp:372] inception_5b/1x1 <- inception_5a/output_inception_5a/output_0_split_0
I0511 04:49:45.671169 30017 net.cpp:334] inception_5b/1x1 -> inception_5b/1x1
I0511 04:49:45.671178 30017 net.cpp:105] Setting up inception_5b/1x1
I0511 04:49:45.673848 30017 net.cpp:112] Top shape: 32 384 7 7 (602112)
I0511 04:49:45.673874 30017 layer_factory.hpp:74] Creating layer inception_5b/relu_1x1
I0511 04:49:45.673905 30017 net.cpp:76] Creating Layer inception_5b/relu_1x1
I0511 04:49:45.673914 30017 net.cpp:372] inception_5b/relu_1x1 <- inception_5b/1x1
I0511 04:49:45.673921 30017 net.cpp:323] inception_5b/relu_1x1 -> inception_5b/1x1 (in-place)
I0511 04:49:45.673930 30017 net.cpp:105] Setting up inception_5b/relu_1x1
I0511 04:49:45.673936 30017 net.cpp:112] Top shape: 32 384 7 7 (602112)
I0511 04:49:45.673943 30017 layer_factory.hpp:74] Creating layer inception_5b/3x3_reduce
I0511 04:49:45.673951 30017 net.cpp:76] Creating Layer inception_5b/3x3_reduce
I0511 04:49:45.673957 30017 net.cpp:372] inception_5b/3x3_reduce <- inception_5a/output_inception_5a/output_0_split_1
I0511 04:49:45.673969 30017 net.cpp:334] inception_5b/3x3_reduce -> inception_5b/3x3_reduce
I0511 04:49:45.673979 30017 net.cpp:105] Setting up inception_5b/3x3_reduce
I0511 04:49:45.675336 30017 net.cpp:112] Top shape: 32 192 7 7 (301056)
I0511 04:49:45.675351 30017 layer_factory.hpp:74] Creating layer inception_5b/relu_3x3_reduce
I0511 04:49:45.675359 30017 net.cpp:76] Creating Layer inception_5b/relu_3x3_reduce
I0511 04:49:45.675366 30017 net.cpp:372] inception_5b/relu_3x3_reduce <- inception_5b/3x3_reduce
I0511 04:49:45.675375 30017 net.cpp:323] inception_5b/relu_3x3_reduce -> inception_5b/3x3_reduce (in-place)
I0511 04:49:45.675384 30017 net.cpp:105] Setting up inception_5b/relu_3x3_reduce
I0511 04:49:45.675390 30017 net.cpp:112] Top shape: 32 192 7 7 (301056)
I0511 04:49:45.675395 30017 layer_factory.hpp:74] Creating layer inception_5b/3x3
I0511 04:49:45.675406 30017 net.cpp:76] Creating Layer inception_5b/3x3
I0511 04:49:45.675412 30017 net.cpp:372] inception_5b/3x3 <- inception_5b/3x3_reduce
I0511 04:49:45.675422 30017 net.cpp:334] inception_5b/3x3 -> inception_5b/3x3
I0511 04:49:45.675453 30017 net.cpp:105] Setting up inception_5b/3x3
I0511 04:49:45.680966 30017 net.cpp:112] Top shape: 32 384 7 7 (602112)
I0511 04:49:45.680990 30017 layer_factory.hpp:74] Creating layer inception_5b/relu_3x3
I0511 04:49:45.681000 30017 net.cpp:76] Creating Layer inception_5b/relu_3x3
I0511 04:49:45.681007 30017 net.cpp:372] inception_5b/relu_3x3 <- inception_5b/3x3
I0511 04:49:45.681015 30017 net.cpp:323] inception_5b/relu_3x3 -> inception_5b/3x3 (in-place)
I0511 04:49:45.681025 30017 net.cpp:105] Setting up inception_5b/relu_3x3
I0511 04:49:45.681030 30017 net.cpp:112] Top shape: 32 384 7 7 (602112)
I0511 04:49:45.681035 30017 layer_factory.hpp:74] Creating layer inception_5b/5x5_reduce
I0511 04:49:45.681048 30017 net.cpp:76] Creating Layer inception_5b/5x5_reduce
I0511 04:49:45.681054 30017 net.cpp:372] inception_5b/5x5_reduce <- inception_5a/output_inception_5a/output_0_split_2
I0511 04:49:45.681063 30017 net.cpp:334] inception_5b/5x5_reduce -> inception_5b/5x5_reduce
I0511 04:49:45.681077 30017 net.cpp:105] Setting up inception_5b/5x5_reduce
I0511 04:49:45.681435 30017 net.cpp:112] Top shape: 32 48 7 7 (75264)
I0511 04:49:45.681448 30017 layer_factory.hpp:74] Creating layer inception_5b/relu_5x5_reduce
I0511 04:49:45.681457 30017 net.cpp:76] Creating Layer inception_5b/relu_5x5_reduce
I0511 04:49:45.681463 30017 net.cpp:372] inception_5b/relu_5x5_reduce <- inception_5b/5x5_reduce
I0511 04:49:45.681471 30017 net.cpp:323] inception_5b/relu_5x5_reduce -> inception_5b/5x5_reduce (in-place)
I0511 04:49:45.681479 30017 net.cpp:105] Setting up inception_5b/relu_5x5_reduce
I0511 04:49:45.681484 30017 net.cpp:112] Top shape: 32 48 7 7 (75264)
I0511 04:49:45.681490 30017 layer_factory.hpp:74] Creating layer inception_5b/5x5
I0511 04:49:45.681500 30017 net.cpp:76] Creating Layer inception_5b/5x5
I0511 04:49:45.681506 30017 net.cpp:372] inception_5b/5x5 <- inception_5b/5x5_reduce
I0511 04:49:45.681514 30017 net.cpp:334] inception_5b/5x5 -> inception_5b/5x5
I0511 04:49:45.681524 30017 net.cpp:105] Setting up inception_5b/5x5
I0511 04:49:45.682822 30017 net.cpp:112] Top shape: 32 128 7 7 (200704)
I0511 04:49:45.682837 30017 layer_factory.hpp:74] Creating layer inception_5b/relu_5x5
I0511 04:49:45.682845 30017 net.cpp:76] Creating Layer inception_5b/relu_5x5
I0511 04:49:45.682878 30017 net.cpp:372] inception_5b/relu_5x5 <- inception_5b/5x5
I0511 04:49:45.682888 30017 net.cpp:323] inception_5b/relu_5x5 -> inception_5b/5x5 (in-place)
I0511 04:49:45.682898 30017 net.cpp:105] Setting up inception_5b/relu_5x5
I0511 04:49:45.682903 30017 net.cpp:112] Top shape: 32 128 7 7 (200704)
I0511 04:49:45.682909 30017 layer_factory.hpp:74] Creating layer inception_5b/pool
I0511 04:49:45.682917 30017 net.cpp:76] Creating Layer inception_5b/pool
I0511 04:49:45.682924 30017 net.cpp:372] inception_5b/pool <- inception_5a/output_inception_5a/output_0_split_3
I0511 04:49:45.682930 30017 net.cpp:334] inception_5b/pool -> inception_5b/pool
I0511 04:49:45.682940 30017 net.cpp:105] Setting up inception_5b/pool
I0511 04:49:45.682948 30017 net.cpp:112] Top shape: 32 832 7 7 (1304576)
I0511 04:49:45.682955 30017 layer_factory.hpp:74] Creating layer inception_5b/pool_proj
I0511 04:49:45.682965 30017 net.cpp:76] Creating Layer inception_5b/pool_proj
I0511 04:49:45.682972 30017 net.cpp:372] inception_5b/pool_proj <- inception_5b/pool
I0511 04:49:45.682982 30017 net.cpp:334] inception_5b/pool_proj -> inception_5b/pool_proj
I0511 04:49:45.682991 30017 net.cpp:105] Setting up inception_5b/pool_proj
I0511 04:49:45.683907 30017 net.cpp:112] Top shape: 32 128 7 7 (200704)
I0511 04:49:45.683922 30017 layer_factory.hpp:74] Creating layer inception_5b/relu_pool_proj
I0511 04:49:45.683929 30017 net.cpp:76] Creating Layer inception_5b/relu_pool_proj
I0511 04:49:45.683935 30017 net.cpp:372] inception_5b/relu_pool_proj <- inception_5b/pool_proj
I0511 04:49:45.683945 30017 net.cpp:323] inception_5b/relu_pool_proj -> inception_5b/pool_proj (in-place)
I0511 04:49:45.683954 30017 net.cpp:105] Setting up inception_5b/relu_pool_proj
I0511 04:49:45.683960 30017 net.cpp:112] Top shape: 32 128 7 7 (200704)
I0511 04:49:45.683966 30017 layer_factory.hpp:74] Creating layer inception_5b/output
I0511 04:49:45.683974 30017 net.cpp:76] Creating Layer inception_5b/output
I0511 04:49:45.683980 30017 net.cpp:372] inception_5b/output <- inception_5b/1x1
I0511 04:49:45.683986 30017 net.cpp:372] inception_5b/output <- inception_5b/3x3
I0511 04:49:45.683993 30017 net.cpp:372] inception_5b/output <- inception_5b/5x5
I0511 04:49:45.684000 30017 net.cpp:372] inception_5b/output <- inception_5b/pool_proj
I0511 04:49:45.684006 30017 net.cpp:334] inception_5b/output -> inception_5b/output
I0511 04:49:45.684015 30017 net.cpp:105] Setting up inception_5b/output
I0511 04:49:45.684021 30017 net.cpp:112] Top shape: 32 1024 7 7 (1605632)
I0511 04:49:45.684027 30017 layer_factory.hpp:74] Creating layer pool5/7x7_s1
I0511 04:49:45.684036 30017 net.cpp:76] Creating Layer pool5/7x7_s1
I0511 04:49:45.684043 30017 net.cpp:372] pool5/7x7_s1 <- inception_5b/output
I0511 04:49:45.684051 30017 net.cpp:334] pool5/7x7_s1 -> pool5/7x7_s1
I0511 04:49:45.684061 30017 net.cpp:105] Setting up pool5/7x7_s1
I0511 04:49:45.684067 30017 net.cpp:112] Top shape: 32 1024 1 1 (32768)
I0511 04:49:45.684072 30017 layer_factory.hpp:74] Creating layer pool5/drop_7x7_s1
I0511 04:49:45.684080 30017 net.cpp:76] Creating Layer pool5/drop_7x7_s1
I0511 04:49:45.684087 30017 net.cpp:372] pool5/drop_7x7_s1 <- pool5/7x7_s1
I0511 04:49:45.684095 30017 net.cpp:323] pool5/drop_7x7_s1 -> pool5/7x7_s1 (in-place)
I0511 04:49:45.684103 30017 net.cpp:105] Setting up pool5/drop_7x7_s1
I0511 04:49:45.684110 30017 net.cpp:112] Top shape: 32 1024 1 1 (32768)
I0511 04:49:45.684116 30017 layer_factory.hpp:74] Creating layer loss3/classifier
I0511 04:49:45.684125 30017 net.cpp:76] Creating Layer loss3/classifier
I0511 04:49:45.684130 30017 net.cpp:372] loss3/classifier <- pool5/7x7_s1
I0511 04:49:45.684140 30017 net.cpp:334] loss3/classifier -> loss3/classifier
I0511 04:49:45.684150 30017 net.cpp:105] Setting up loss3/classifier
I0511 04:49:45.684181 30017 net.cpp:112] Top shape: 32 2 1 1 (64)
I0511 04:49:45.684192 30017 layer_factory.hpp:74] Creating layer loss3/loss3
I0511 04:49:45.684201 30017 net.cpp:76] Creating Layer loss3/loss3
I0511 04:49:45.684207 30017 net.cpp:372] loss3/loss3 <- loss3/classifier
I0511 04:49:45.684243 30017 net.cpp:372] loss3/loss3 <- label_data_1_split_2
I0511 04:49:45.684257 30017 net.cpp:334] loss3/loss3 -> loss3/loss3
I0511 04:49:45.684267 30017 net.cpp:105] Setting up loss3/loss3
I0511 04:49:45.684274 30017 layer_factory.hpp:74] Creating layer loss3/loss3
I0511 04:49:45.684289 30017 net.cpp:112] Top shape: 1 1 1 1 (1)
I0511 04:49:45.684296 30017 net.cpp:118]     with loss weight 1
I0511 04:49:45.684314 30017 net.cpp:163] loss3/loss3 needs backward computation.
I0511 04:49:45.684320 30017 net.cpp:163] loss3/classifier needs backward computation.
I0511 04:49:45.684345 30017 net.cpp:163] pool5/drop_7x7_s1 needs backward computation.
I0511 04:49:45.684351 30017 net.cpp:163] pool5/7x7_s1 needs backward computation.
…
I0511 04:49:45.692390 30017 solver.cpp:154] Creating test net (#0) specified by net file: ../../train_val.prototxt
I0511 04:49:45.692632 30017 net.cpp:253] The NetState phase (1) differed from the phase (0) specified by a rule in layer data
I0511 04:49:45.694030 30017 net.cpp:42] Initializing net from parameters: 
name: "GoogleNet"
state {
  phase: TEST
}
layer {
  name: "data"
  type: "Data"
  top: "data"
  top: "label"
  include {
    phase: TEST
  }
  transform_param {
    mirror: false
    crop_size: 224
    mean_value: 104
    mean_value: 117
    mean_value: 123
  }
  data_param {
    source: "val_lmdb"
    batch_size: 32
    backend: LMDB
  }
}
layer {
  name: "conv1/7x7_s2"
  type: "Convolution"
  bottom: "data"
  top: "conv1/7x7_s2"
  param {
    lr_mult: 1
    decay_mult: 1
  }
  param {
    lr_mult: 2
    decay_mult: 0
  }
  convolution_param {
    num_output: 64
    pad: 3
    kernel_size: 7
    stride: 2
    weight_filler {
      type: "xavier"
      std: 0.1
    }
    bias_filler {
      type: "constant"
      value: 0.2
    }
  }
}
layer {
  name: "conv1/relu_7x7"
  type: "ReLU"
  bottom: "conv1/7x7_s2"
  top: "conv1/7x7_s2"
}
layer {
  name: "pool1/3x3_s2"
  type: "Pooling"
  bottom: "conv1/7x7_s2"
  top: "pool1/3x3_s2"
  pooling_param {
    pool: MAX
    kernel_size: 3
    stride: 2
  }
}
layer {
  name: "pool1/norm1"
  type: "LRN"
  bottom: "pool1/3x3_s2"
  top: "pool1/norm1"
  lrn_param {
    local_size: 5
    alpha: 0.0001
    beta: 0.75
  }
}
layer {
  name: "conv2/3x3_reduce"
  type: "Convolution"
  bottom: "pool1/norm1"
  top: "conv2/3x3_reduce"
  param {
    lr_mult: 1
    decay_mult: 1
  }
  param {
    lr_mult: 2
    decay_mult: 0
  }
  convolution_param {
    num_output: 64
    kernel_size: 1
    weight_filler {
      type: "xavier"
      std: 0.1
    }
    bias_filler {
      type: "constant"
      value: 0.2
    }
  }
}
layer {
  name: "conv2/relu_3x3_reduce"
  type: "ReLU"
  bottom: "conv2/3x3_reduce"
  top: "conv2/3x3_reduce"
}
layer {
  name: "conv2/3x3"
  type: "Convolution"
  bottom: "conv2/3x3_reduce"
  top: "conv2/3x3"
  param {
    lr_mult: 1
    decay_mult: 1
  }
  param {
    lr_mult: 2
    decay_mult: 0
  }
  convolution_param {
    num_output: 192
    pad: 1
    kernel_size: 3
    weight_filler {
      type: "xavier"
      std: 0.03
    }
    bias_filler {
      type: "constant"
      value: 0.2
    }
  }
}
layer {
  name: "conv2/relu_3x3"
  type: "ReLU"
  bottom: "conv2/3x3"
  top: "conv2/3x3"
}
layer {
  name: "conv2/norm2"
  type: "LRN"
  bottom: "conv2/3x3"
  top: "conv2/norm2"
  lrn_param {
    local_size: 5
    alpha: 0.0001
    beta: 0.75
  }
}
layer {
  name: "pool2/3x3_s2"
  type: "Pooling"
  bottom: "conv2/norm2"
  top: "pool2/3x3_s2"
  pooling_param {
    pool: MAX
    kernel_size: 3
    stride: 2
  }
}
layer {
  name: "inception_3a/1x1"
  type: "Convolution"
  bottom: "pool2/3x3_s2"
  top: "inception_3a/1x1"
  param {
    lr_mult: 1
    decay_mult: 1
  }
  param {
    lr_mult: 2
    decay_mult: 0
  }
  convolution_param {
    num_output: 64
    kernel_size: 1
    weight_filler {
      type: "xavier"
      std: 0.03
    }
    bias_filler {
      type: "constant"
      value: 0.2
    }
  }
}
layer {
  name: "inception_3a/relu_1x1"
  type: "ReLU"
  bottom: "inception_3a/1x1"
  top: "inception_3a/1x1"
}
layer {
  name: "inception_3a/3x3_reduce"
  type: "Convolution"
  bottom: "pool2/3x3_s2"
  top: "inception_3a/3x3_reduce"
  param {
    lr_mult: 1
    decay_mult: 1
  }
  param {
    lr_mult: 2
    decay_mult: 0
  }
  convolution_param {
    num_output: 96
    kernel_size: 1
    weight_filler {
      type: "xavier"
      std: 0.09
    }
    bias_filler {
      type: "constant"
      value: 0.2
    }
  }
}
layer {
  name: "inception_3a/relu_3x3_reduce"
  type: "ReLU"
  bottom: "inception_3a/3x3_reduce"
  top: "inception_3a/3x3_reduce"
}
layer {
  name: "inception_3a/3x3"
  type: "Convolution"
  bottom: "inception_3a/3x3_reduce"
  top: "inception_3a/3x3"
  param {
    lr_mult: 1
    decay_mult: 1
  }
  param {
    lr_mult: 2
    decay_mult: 0
  }
  convolution_param {
    num_output: 128
    pad: 1
    kernel_size: 3
    weight_filler {
      type: "xavier"
      std: 0.03
    }
    bias_filler {
      type: "constant"
      value: 0.2
    }
  }
}
layer {
  name: "inception_3a/relu_3x3"
  type: "ReLU"
  bottom: "inception_3a/3x3"
  top: "inception_3a/3x3"
}
layer {
  name: "inception_3a/5x5_reduce"
  type: "Convolution"
  bottom: "pool2/3x3_s2"
  top: "inception_3a/5x5_reduce"
  param {
    lr_mult: 1
    decay_mult: 1
  }
  param {
    lr_mult: 2
    decay_mult: 0
  }
  convolution_param {
    num_output: 16
    kernel_size: 1
    weight_filler {
      type: "xavier"
      std: 0.2
    }
    bias_filler {
      type: "constant"
      value: 0.2
    }
  }
}
layer {
  name: "inception_3a/relu_5x5_reduce"
  type: "ReLU"
  bottom: "inception_3a/5x5_reduce"
  top: "inception_3a/5x5_reduce"
}
layer {
  name: "inception_3a/5x5"
  type: "Convolution"
  bottom: "inception_3a/5x5_reduce"
  top: "inception_3a/5x5"
  param {
    lr_mult: 1
    decay_mult: 1
  }
  param {
    lr_mult: 2
    decay_mult: 0
  }
  convolution_param {
    num_output: 32
    pad: 2
    kernel_size: 5
    weight_filler {
      type: "xavier"
      std: 0.03
    }
    bias_filler {
      type: "constant"
      value: 0.2
    }
  }
}
layer {
  name: "inception_3a/relu_5x5"
  type: "ReLU"
  bottom: "inception_3a/5x5"
  top: "inception_3a/5x5"
}
layer {
  name: "inception_3a/pool"
  type: "Pooling"
  bottom: "pool2/3x3_s2"
  top: "inception_3a/pool"
  pooling_param {
    pool: MAX
    kernel_size: 3
    stride: 1
    pad: 1
  }
}
layer {
  name: "inception_3a/pool_proj"
  type: "Convolution"
  bottom: "inception_3a/pool"
  top: "inception_3a/pool_proj"
  param {
    lr_mult: 1
    decay_mult: 1
  }
  param {
    lr_mult: 2
    decay_mult: 0
  }
  convolution_param {
    num_output: 32
    kernel_size: 1
    weight_filler {
      type: "xavier"
      std: 0.1
    }
    bias_filler {
      type: "constant"
      value: 0.2
    }
  }
}
layer {
  name: "inception_3a/relu_pool_proj"
  type: "ReLU"
  bottom: "inception_3a/pool_proj"
  top: "inception_3a/pool_proj"
}
layer {
  name: "inception_3a/output"
  type: "Concat"
  bottom: "inception_3a/1x1"
  bottom: "inception_3a/3x3"
  bottom: "inception_3a/5x5"
  bottom: "inception_3a/pool_proj"
  top: "inception_3a/output"
}
layer {
  name: "inception_3b/1x1"
  type: "Convolution"
  bottom: "inception_3a/output"
  top: "inception_3b/1x1"
  param {
    lr_mult: 1
    decay_mult: 1
  }
  param {
    lr_mult: 2
    decay_mult: 0
  }
  convolution_param {
    num_output: 128
    kernel_size: 1
    weight_filler {
      type: "xavier"
      std: 0.03
    }
    bias_filler {
      type: "constant"
      value: 0.2
    }
  }
}
layer {
  name: "inception_3b/relu_1x1"
  type: "ReLU"
  bottom: "inception_3b/1x1"
  top: "inception_3b/1x1"
}
layer {
  name: "inception_3b/3x3_reduce"
  type: "Convolution"
  bottom: "inception_3a/output"
  top: "inception_3b/3x3_reduce"
  param {
    lr_mult: 1
    decay_mult: 1
  }
  param {
    lr_mult: 2
    decay_mult: 0
  }
  convolution_param {
    num_output: 128
    kernel_size: 1
    weight_filler {
      type: "xavier"
      std: 0.09
    }
    bias_filler {
      type: "constant"
      value: 0.2
    }
  }
}
layer {
  name: "inception_3b/relu_3x3_reduce"
  type: "ReLU"
  bottom: "inception_3b/3x3_reduce"
  top: "inception_3b/3x3_reduce"
}
layer {
  name: "inception_3b/3x3"
  type: "Convolution"
  bottom: "inception_3b/3x3_reduce"
  top: "inception_3b/3x3"
  param {
    lr_mult: 1
    decay_mult: 1
  }
  param {
    lr_mult: 2
    decay_mult: 0
  }
  convolution_param {
    num_output: 192
    pad: 1
    kernel_size: 3
    weight_filler {
      type: "xavier"
      std: 0.03
    }
    bias_filler {
      type: "constant"
      value: 0.2
    }
  }
}
layer {
  name: "inception_3b/relu_3x3"
  type: "ReLU"
  bottom: "inception_3b/3x3"
  top: "inception_3b/3x3"
}
layer {
  name: "inception_3b/5x5_reduce"
  type: "Convolution"
  bottom: "inception_3a/output"
  top: "inception_3b/5x5_reduce"
  param {
    lr_mult: 1
    decay_mult: 1
  }
  param {
    lr_mult: 2
    decay_mult: 0
  }
  convolution_param {
    num_output: 32
    kernel_size: 1
    weight_filler {
      type: "xavier"
      std: 0.2
    }
    bias_filler {
      type: "constant"
      value: 0.2
    }
  }
}
layer {
  name: "inception_3b/relu_5x5_reduce"
  type: "ReLU"
  bottom: "inception_3b/5x5_reduce"
  top: "inception_3b/5x5_reduce"
}
layer {
  name: "inception_3b/5x5"
  type: "Convolution"
  bottom: "inception_3b/5x5_reduce"
  top: "inception_3b/5x5"
  param {
    lr_mult: 1
    decay_mult: 1
  }
  param {
    lr_mult: 2
    decay_mult: 0
  }
  convolution_param {
    num_output: 96
    pad: 2
    kernel_size: 5
    weight_filler {
      type: "xavier"
      std: 0.03
    }
    bias_filler {
      type: "constant"
      value: 0.2
    }
  }
}
layer {
  name: "inception_3b/relu_5x5"
  type: "ReLU"
  bottom: "inception_3b/5x5"
  top: "inception_3b/5x5"
}
layer {
  name: "inception_3b/pool"
  type: "Pooling"
  bottom: "inception_3a/output"
  top: "inception_3b/pool"
  pooling_param {
    pool: MAX
    kernel_size: 3
    stride: 1
    pad: 1
  }
}
layer {
  name: "inception_3b/pool_proj"
  type: "Convolution"
  bottom: "inception_3b/pool"
  top: "inception_3b/pool_proj"
  param {
    lr_mult: 1
    decay_mult: 1
  }
  param {
    lr_mult: 2
    decay_mult: 0
  }
  convolution_param {
    num_output: 64
    kernel_size: 1
    weight_filler {
      type: "xavier"
      std: 0.1
    }
    bias_filler {
      type: "constant"
      value: 0.2
    }
  }
}
layer {
  name: "inception_3b/relu_pool_proj"
  type: "ReLU"
  bottom: "inception_3b/pool_proj"
  top: "inception_3b/pool_proj"
}
layer {
  name: "inception_3b/output"
  type: "Concat"
  bottom: "inception_3b/1x1"
  bottom: "inception_3b/3x3"
  bottom: "inception_3b/5x5"
  bottom: "inception_3b/pool_proj"
  top: "inception_3b/output"
}
layer {
  name: "pool3/3x3_s2"
  type: "Pooling"
  bottom: "inception_3b/output"
  top: "pool3/3x3_s2"
  pooling_param {
    pool: MAX
    kernel_size: 3
    stride: 2
  }
}
layer {
  name: "inception_4a/1x1"
  type: "Convolution"
  bottom: "pool3/3x3_s2"
  top: "inception_4a/1x1"
  param {
    lr_mult: 1
    decay_mult: 1
  }
  param {
    lr_mult: 2
    decay_mult: 0
  }
  convolution_param {
    num_output: 192
    kernel_size: 1
    weight_filler {
      type: "xavier"
      std: 0.03
    }
    bias_filler {
      type: "constant"
      value: 0.2
    }
  }
}
layer {
  name: "inception_4a/relu_1x1"
  type: "ReLU"
  bottom: "inception_4a/1x1"
  top: "inception_4a/1x1"
}
layer {
  name: "inception_4a/3x3_reduce"
  type: "Convolution"
  bottom: "pool3/3x3_s2"
  top: "inception_4a/3x3_reduce"
  param {
    lr_mult: 1
    decay_mult: 1
  }
  param {
    lr_mult: 2
    decay_mult: 0
  }
  convolution_param {
    num_output: 96
    kernel_size: 1
    weight_filler {
      type: "xavier"
      std: 0.09
    }
    bias_filler {
      type: "constant"
      value: 0.2
    }
  }
}
layer {
  name: "inception_4a/relu_3x3_reduce"
  type: "ReLU"
  bottom: "inception_4a/3x3_reduce"
  top: "inception_4a/3x3_reduce"
}
layer {
  name: "inception_4a/3x3"
  type: "Convolution"
  bottom: "inception_4a/3x3_reduce"
  top: "inception_4a/3x3"
  param {
    lr_mult: 1
    decay_mult: 1
  }
  param {
    lr_mult: 2
    decay_mult: 0
  }
  convolution_param {
    num_output: 208
    pad: 1
    kernel_size: 3
    weight_filler {
      type: "xavier"
      std: 0.03
    }
    bias_filler {
      type: "constant"
      value: 0.2
    }
  }
}
layer {
  name: "inception_4a/relu_3x3"
  type: "ReLU"
  bottom: "inception_4a/3x3"
  top: "inception_4a/3x3"
}
layer {
  name: "inception_4a/5x5_reduce"
  type: "Convolution"
  bottom: "pool3/3x3_s2"
  top: "inception_4a/5x5_reduce"
  param {
    lr_mult: 1
    decay_mult: 1
  }
  param {
    lr_mult: 2
    decay_mult: 0
  }
  convolution_param {
    num_output: 16
    kernel_size: 1
    weight_filler {
      type: "xavier"
      std: 0.2
    }
    bias_filler {
      type: "constant"
      value: 0.2
    }
  }
}
layer {
  name: "inception_4a/relu_5x5_reduce"
  type: "ReLU"
  bottom: "inception_4a/5x5_reduce"
  top: "inception_4a/5x5_reduce"
}
layer {
  name: "inception_4a/5x5"
  type: "Convolution"
  bottom: "inception_4a/5x5_reduce"
  top: "inception_4a/5x5"
  param {
    lr_mult: 1
    decay_mult: 1
  }
  param {
    lr_mult: 2
    decay_mult: 0
  }
  convolution_param {
    num_output: 48
    pad: 2
    kernel_size: 5
    weight_filler {
      type: "xavier"
      std: 0.03
    }
    bias_filler {
      type: "constant"
      value: 0.2
    }
  }
}
layer {
  name: "inception_4a/relu_5x5"
  type: "ReLU"
  bottom: "inception_4a/5x5"
  top: "inception_4a/5x5"
}
layer {
  name: "inception_4a/pool"
  type: "Pooling"
  bottom: "pool3/3x3_s2"
  top: "inception_4a/pool"
  pooling_param {
    pool: MAX
    kernel_size: 3
    stride: 1
    pad: 1
  }
}
layer {
  name: "inception_4a/pool_proj"
  type: "Convolution"
  bottom: "inception_4a/pool"
  top: "inception_4a/pool_proj"
  param {
    lr_mult: 1
    decay_mult: 1
  }
  param {
    lr_mult: 2
    decay_mult: 0
  }
  convolution_param {
    num_output: 64
    kernel_size: 1
    weight_filler {
      type: "xavier"
      std: 0.1
    }
    bias_filler {
      type: "constant"
      value: 0.2
    }
  }
}
layer {
  name: "inception_4a/relu_pool_proj"
  type: "ReLU"
  bottom: "inception_4a/pool_proj"
  top: "inception_4a/pool_proj"
}
layer {
  name: "inception_4a/output"
  type: "Concat"
  bottom: "inception_4a/1x1"
  bottom: "inception_4a/3x3"
  bottom: "inception_4a/5x5"
  bottom: "inception_4a/pool_proj"
  top: "inception_4a/output"
}
layer {
  name: "loss1/ave_pool"
  type: "Pooling"
  bottom: "inception_4a/output"
  top: "loss1/ave_pool"
  pooling_param {
    pool: AVE
    kernel_size: 5
    stride: 3
  }
}
layer {
  name: "loss1/conv"
  type: "Convolution"
  bottom: "loss1/ave_pool"
  top: "loss1/conv"
  param {
    lr_mult: 1
    decay_mult: 1
  }
  param {
    lr_mult: 2
    decay_mult: 0
  }
  convolution_param {
    num_output: 128
    kernel_size: 1
    weight_filler {
      type: "xavier"
      std: 0.08
    }
    bias_filler {
      type: "constant"
      value: 0.2
    }
  }
}
layer {
  name: "loss1/relu_conv"
  type: "ReLU"
  bottom: "loss1/conv"
  top: "loss1/conv"
}
layer {
  name: "loss1/fc"
  type: "InnerProduct"
  bottom: "loss1/conv"
  top: "loss1/fc"
  param {
    lr_mult: 1
    decay_mult: 1
  }
  param {
    lr_mult: 2
    decay_mult: 0
  }
  inner_product_param {
    num_output: 1024
    weight_filler {
      type: "xavier"
      std: 0.02
    }
    bias_filler {
      type: "constant"
      value: 0.2
    }
  }
}
layer {
  name: "loss1/relu_fc"
  type: "ReLU"
  bottom: "loss1/fc"
  top: "loss1/fc"
}
layer {
  name: "loss1/drop_fc"
  type: "Dropout"
  bottom: "loss1/fc"
  top: "loss1/fc"
  dropout_param {
    dropout_ratio: 0.7
  }
}
layer {
  name: "loss1/classifier"
  type: "InnerProduct"
  bottom: "loss1/fc"
  top: "loss1/classifier"
  param {
    lr_mult: 1
    decay_mult: 1
  }
  param {
    lr_mult: 2
    decay_mult: 0
  }
  inner_product_param {
    num_output: 2
    weight_filler {
      type: "xavier"
      std: 0.0009765625
    }
    bias_filler {
      type: "constant"
      value: 0
    }
  }
}
layer {
  name: "loss1/loss"
  type: "SoftmaxWithLoss"
  bottom: "loss1/classifier"
  bottom: "label"
  top: "loss1/loss1"
  loss_weight: 0.3
}
layer {
  name: "loss1/top-1"
  type: "Accuracy"
  bottom: "loss1/classifier"
  bottom: "label"
  top: "loss1/top-1"
  include {
    phase: TEST
  }
}
layer {
  name: "inception_4b/1x1"
  type: "Convolution"
  bottom: "inception_4a/output"
  top: "inception_4b/1x1"
  param {
    lr_mult: 1
    decay_mult: 1
  }
  param {
    lr_mult: 2
    decay_mult: 0
  }
  convolution_param {
    num_output: 160
    kernel_size: 1
    weight_filler {
      type: "xavier"
      std: 0.03
    }
    bias_filler {
      type: "constant"
      value: 0.2
    }
  }
}
layer {
  name: "inception_4b/relu_1x1"
  type: "ReLU"
  bottom: "inception_4b/1x1"
  top: "inception_4b/1x1"
}
layer {
  name: "inception_4b/3x3_reduce"
  type: "Convolution"
  bottom: "inception_4a/output"
  top: "inception_4b/3x3_reduce"
  param {
    lr_mult: 1
    decay_mult: 1
  }
  param {
    lr_mult: 2
    decay_mult: 0
  }
  convolution_param {
    num_output: 112
    kernel_size: 1
    weight_filler {
      type: "xavier"
      std: 0.09
    }
    bias_filler {
      type: "constant"
      value: 0.2
    }
  }
}
layer {
  name: "inception_4b/relu_3x3_reduce"
  type: "ReLU"
  bottom: "inception_4b/3x3_reduce"
  top: "inception_4b/3x3_reduce"
}
layer {
  name: "inception_4b/3x3"
  type: "Convolution"
  bottom: "inception_4b/3x3_reduce"
  top: "inception_4b/3x3"
  param {
    lr_mult: 1
    decay_mult: 1
  }
  param {
    lr_mult: 2
    decay_mult: 0
  }
  convolution_param {
    num_output: 224
    pad: 1
    kernel_size: 3
    weight_filler {
      type: "xavier"
      std: 0.03
    }
    bias_filler {
      type: "constant"
      value: 0.2
    }
  }
}
layer {
  name: "inception_4b/relu_3x3"
  type: "ReLU"
  bottom: "inception_4b/3x3"
  top: "inception_4b/3x3"
}
layer {
  name: "inception_4b/5x5_reduce"
  type: "Convolution"
  bottom: "inception_4a/output"
  top: "inception_4b/5x5_reduce"
  param {
    lr_mult: 1
    decay_mult: 1
  }
  param {
    lr_mult: 2
    decay_mult: 0
  }
  convolution_param {
    num_output: 24
    kernel_size: 1
    weight_filler {
      type: "xavier"
      std: 0.2
    }
    bias_filler {
      type: "constant"
      value: 0.2
    }
  }
}
layer {
  name: "inception_4b/relu_5x5_reduce"
  type: "ReLU"
  bottom: "inception_4b/5x5_reduce"
  top: "inception_4b/5x5_reduce"
}
layer {
  name: "inception_4b/5x5"
  type: "Convolution"
  bottom: "inception_4b/5x5_reduce"
  top: "inception_4b/5x5"
  param {
    lr_mult: 1
    decay_mult: 1
  }
  param {
    lr_mult: 2
    decay_mult: 0
  }
  convolution_param {
    num_output: 64
    pad: 2
    kernel_size: 5
    weight_filler {
      type: "xavier"
      std: 0.03
    }
    bias_filler {
      type: "constant"
      value: 0.2
    }
  }
}
layer {
  name: "inception_4b/relu_5x5"
  type: "ReLU"
  bottom: "inception_4b/5x5"
  top: "inception_4b/5x5"
}
layer {
  name: "inception_4b/pool"
  type: "Pooling"
  bottom: "inception_4a/output"
  top: "inception_4b/pool"
  pooling_param {
    pool: MAX
    kernel_size: 3
    stride: 1
    pad: 1
  }
}
layer {
  name: "inception_4b/pool_proj"
  type: "Convolution"
  bottom: "inception_4b/pool"
  top: "inception_4b/pool_proj"
  param {
    lr_mult: 1
    decay_mult: 1
  }
  param {
    lr_mult: 2
    decay_mult: 0
  }
  convolution_param {
    num_output: 64
    kernel_size: 1
    weight_filler {
      type: "xavier"
      std: 0.1
    }
    bias_filler {
      type: "constant"
      value: 0.2
    }
  }
}
layer {
  name: "inception_4b/relu_pool_proj"
  type: "ReLU"
  bottom: "inception_4b/pool_proj"
  top: "inception_4b/pool_proj"
}
layer {
  name: "inception_4b/output"
  type: "Concat"
  bottom: "inception_4b/1x1"
  bottom: "inception_4b/3x3"
  bottom: "inception_4b/5x5"
  bottom: "inception_4b/pool_proj"
  top: "inception_4b/output"
}
layer {
  name: "inception_4c/1x1"
  type: "Convolution"
  bottom: "inception_4b/output"
  top: "inception_4c/1x1"
  param {
    lr_mult: 1
    decay_mult: 1
  }
  param {
    lr_mult: 2
    decay_mult: 0
  }
  convolution_param {
    num_output: 128
    kernel_size: 1
    weight_filler {
      type: "xavier"
      std: 0.03
    }
    bias_filler {
      type: "constant"
      value: 0.2
    }
  }
}
layer {
  name: "inception_4c/relu_1x1"
  type: "ReLU"
  bottom: "inception_4c/1x1"
  top: "inception_4c/1x1"
}
layer {
  name: "inception_4c/3x3_reduce"
  type: "Convolution"
  bottom: "inception_4b/output"
  top: "inception_4c/3x3_reduce"
  param {
    lr_mult: 1
    decay_mult: 1
  }
  param {
    lr_mult: 2
    decay_mult: 0
  }
  convolution_param {
    num_output: 128
    kernel_size: 1
    weight_filler {
      type: "xavier"
      std: 0.09
    }
    bias_filler {
      type: "constant"
      value: 0.2
    }
  }
}
layer {
  name: "inception_4c/relu_3x3_reduce"
  type: "ReLU"
  bottom: "inception_4c/3x3_reduce"
  top: "inception_4c/3x3_reduce"
}
layer {
  name: "inception_4c/3x3"
  type: "Convolution"
  bottom: "inception_4c/3x3_reduce"
  top: "inception_4c/3x3"
  param {
    lr_mult: 1
    decay_mult: 1
  }
  param {
    lr_mult: 2
    decay_mult: 0
  }
  convolution_param {
    num_output: 256
    pad: 1
    kernel_size: 3
    weight_filler {
      type: "xavier"
      std: 0.03
    }
    bias_filler {
      type: "constant"
      value: 0.2
    }
  }
}
layer {
  name: "inception_4c/relu_3x3"
  type: "ReLU"
  bottom: "inception_4c/3x3"
  top: "inception_4c/3x3"
}
layer {
  name: "inception_4c/5x5_reduce"
  type: "Convolution"
  bottom: "inception_4b/output"
  top: "inception_4c/5x5_reduce"
  param {
    lr_mult: 1
    decay_mult: 1
  }
  param {
    lr_mult: 2
    decay_mult: 0
  }
  convolution_param {
    num_output: 24
    kernel_size: 1
    weight_filler {
      type: "xavier"
      std: 0.2
    }
    bias_filler {
      type: "constant"
      value: 0.2
    }
  }
}
layer {
  name: "inception_4c/relu_5x5_reduce"
  type: "ReLU"
  bottom: "inception_4c/5x5_reduce"
  top: "inception_4c/5x5_reduce"
}
layer {
  name: "inception_4c/5x5"
  type: "Convolution"
  bottom: "inception_4c/5x5_reduce"
  top: "inception_4c/5x5"
  param {
    lr_mult: 1
    decay_mult: 1
  }
  param {
    lr_mult: 2
    decay_mult: 0
  }
  convolution_param {
    num_output: 64
    pad: 2
    kernel_size: 5
    weight_filler {
      type: "xavier"
      std: 0.03
    }
    bias_filler {
      type: "constant"
      value: 0.2
    }
  }
}
layer {
  name: "inception_4c/relu_5x5"
  type: "ReLU"
  bottom: "inception_4c/5x5"
  top: "inception_4c/5x5"
}
layer {
  name: "inception_4c/pool"
  type: "Pooling"
  bottom: "inception_4b/output"
  top: "inception_4c/pool"
  pooling_param {
    pool: MAX
    kernel_size: 3
    stride: 1
    pad: 1
  }
}
layer {
  name: "inception_4c/pool_proj"
  type: "Convolution"
  bottom: "inception_4c/pool"
  top: "inception_4c/pool_proj"
  param {
    lr_mult: 1
    decay_mult: 1
  }
  param {
    lr_mult: 2
    decay_mult: 0
  }
  convolution_param {
    num_output: 64
    kernel_size: 1
    weight_filler {
      type: "xavier"
      std: 0.1
    }
    bias_filler {
      type: "constant"
      value: 0.2
    }
  }
}
layer {
  name: "inception_4c/relu_pool_proj"
  type: "ReLU"
  bottom: "inception_4c/pool_proj"
  top: "inception_4c/pool_proj"
}
layer {
  name: "inception_4c/output"
  type: "Concat"
  bottom: "inception_4c/1x1"
  bottom: "inception_4c/3x3"
  bottom: "inception_4c/5x5"
  bottom: "inception_4c/pool_proj"
  top: "inception_4c/output"
}
layer {
  name: "inception_4d/1x1"
  type: "Convolution"
  bottom: "inception_4c/output"
  top: "inception_4d/1x1"
  param {
    lr_mult: 1
    decay_mult: 1
  }
  param {
    lr_mult: 2
    decay_mult: 0
  }
  convolution_param {
    num_output: 112
    kernel_size: 1
    weight_filler {
      type: "xavier"
      std: 0.03
    }
    bias_filler {
      type: "constant"
      value: 0.2
    }
  }
}
layer {
  name: "inception_4d/relu_1x1"
  type: "ReLU"
  bottom: "inception_4d/1x1"
  top: "inception_4d/1x1"
}
layer {
  name: "inception_4d/3x3_reduce"
  type: "Convolution"
  bottom: "inception_4c/output"
  top: "inception_4d/3x3_reduce"
  param {
    lr_mult: 1
    decay_mult: 1
  }
  param {
    lr_mult: 2
    decay_mult: 0
  }
  convolution_param {
    num_output: 144
    kernel_size: 1
    weight_filler {
      type: "xavier"
      std: 0.09
    }
    bias_filler {
      type: "constant"
      value: 0.2
    }
  }
}
layer {
  name: "inception_4d/relu_3x3_reduce"
  type: "ReLU"
  bottom: "inception_4d/3x3_reduce"
  top: "inception_4d/3x3_reduce"
}
layer {
  name: "inception_4d/3x3"
  type: "Convolution"
  bottom: "inception_4d/3x3_reduce"
  top: "inception_4d/3x3"
  param {
    lr_mult: 1
    decay_mult: 1
  }
  param {
    lr_mult: 2
    decay_mult: 0
  }
  convolution_param {
    num_output: 288
    pad: 1
    kernel_size: 3
    weight_filler {
      type: "xavier"
      std: 0.03
    }
    bias_filler {
      type: "constant"
      value: 0.2
    }
  }
}
layer {
  name: "inception_4d/relu_3x3"
  type: "ReLU"
  bottom: "inception_4d/3x3"
  top: "inception_4d/3x3"
}
layer {
  name: "inception_4d/5x5_reduce"
  type: "Convolution"
  bottom: "inception_4c/output"
  top: "inception_4d/5x5_reduce"
  param {
    lr_mult: 1
    decay_mult: 1
  }
  param {
    lr_mult: 2
    decay_mult: 0
  }
  convolution_param {
    num_output: 32
    kernel_size: 1
    weight_filler {
      type: "xavier"
      std: 0.2
    }
    bias_filler {
      type: "constant"
      value: 0.2
    }
  }
}
layer {
  name: "inception_4d/relu_5x5_reduce"
  type: "ReLU"
  bottom: "inception_4d/5x5_reduce"
  top: "inception_4d/5x5_reduce"
}
layer {
  name: "inception_4d/5x5"
  type: "Convolution"
  bottom: "inception_4d/5x5_reduce"
  top: "inception_4d/5x5"
  param {
    lr_mult: 1
    decay_mult: 1
  }
  param {
    lr_mult: 2
    decay_mult: 0
  }
  convolution_param {
    num_output: 64
    pad: 2
    kernel_size: 5
    weight_filler {
      type: "xavier"
      std: 0.03
    }
    bias_filler {
      type: "constant"
      value: 0.2
    }
  }
}
layer {
  name: "inception_4d/relu_5x5"
  type: "ReLU"
  bottom: "inception_4d/5x5"
  top: "inception_4d/5x5"
}
layer {
  name: "inception_4d/pool"
  type: "Pooling"
  bottom: "inception_4c/output"
  top: "inception_4d/pool"
  pooling_param {
    pool: MAX
    kernel_size: 3
    stride: 1
    pad: 1
  }
}
layer {
  name: "inception_4d/pool_proj"
  type: "Convolution"
  bottom: "inception_4d/pool"
  top: "inception_4d/pool_proj"
  param {
    lr_mult: 1
    decay_mult: 1
  }
  param {
    lr_mult: 2
    decay_mult: 0
  }
  convolution_param {
    num_output: 64
    kernel_size: 1
    weight_filler {
      type: "xavier"
      std: 0.1
    }
    bias_filler {
      type: "constant"
      value: 0.2
    }
  }
}
layer {
  name: "inception_4d/relu_pool_proj"
  type: "ReLU"
  bottom: "inception_4d/pool_proj"
  top: "inception_4d/pool_proj"
}
layer {
  name: "inception_4d/output"
  type: "Concat"
  bottom: "inception_4d/1x1"
  bottom: "inception_4d/3x3"
  bottom: "inception_4d/5x5"
  bottom: "inception_4d/pool_proj"
  top: "inception_4d/output"
}
layer {
  name: "loss2/ave_pool"
  type: "Pooling"
  bottom: "inception_4d/output"
  top: "loss2/ave_pool"
  pooling_param {
    pool: AVE
    kernel_size: 5
    stride: 3
  }
}
layer {
  name: "loss2/conv"
  type: "Convolution"
  bottom: "loss2/ave_pool"
  top: "loss2/conv"
  param {
    lr_mult: 1
    decay_mult: 1
  }
  param {
    lr_mult: 2
    decay_mult: 0
  }
  convolution_param {
    num_output: 128
    kernel_size: 1
    weight_filler {
      type: "xavier"
      std: 0.08
    }
    bias_filler {
      type: "constant"
      value: 0.2
    }
  }
}
layer {
  name: "loss2/relu_conv"
  type: "ReLU"
  bottom: "loss2/conv"
  top: "loss2/conv"
}
layer {
  name: "loss2/fc"
  type: "InnerProduct"
…
I0511 04:49:45.744823 30017 net.cpp:112] Top shape: 32 128 14 14 (802816)
I0511 04:49:45.744838 30017 layer_factory.hpp:74] Creating layer inception_4c/relu_1x1
I0511 04:49:45.744848 30017 net.cpp:76] Creating Layer inception_4c/relu_1x1
I0511 04:49:45.744853 30017 net.cpp:372] inception_4c/relu_1x1 <- inception_4c/1x1
I0511 04:49:45.744866 30017 net.cpp:323] inception_4c/relu_1x1 -> inception_4c/1x1 (in-place)
I0511 04:49:45.744874 30017 net.cpp:105] Setting up inception_4c/relu_1x1
I0511 04:49:45.744879 30017 net.cpp:112] Top shape: 32 128 14 14 (802816)
I0511 04:49:45.744901 30017 layer_factory.hpp:74] Creating layer inception_4c/3x3_reduce
I0511 04:49:45.744911 30017 net.cpp:76] Creating Layer inception_4c/3x3_reduce
I0511 04:49:45.744917 30017 net.cpp:372] inception_4c/3x3_reduce <- inception_4b/output_inception_4b/output_0_split_1
I0511 04:49:45.744926 30017 net.cpp:334] inception_4c/3x3_reduce -> inception_4c/3x3_reduce
I0511 04:49:45.744935 30017 net.cpp:105] Setting up inception_4c/3x3_reduce
I0511 04:49:45.745504 30017 net.cpp:112] Top shape: 32 128 14 14 (802816)
I0511 04:49:45.745522 30017 layer_factory.hpp:74] Creating layer inception_4c/relu_3x3_reduce
I0511 04:49:45.745530 30017 net.cpp:76] Creating Layer inception_4c/relu_3x3_reduce
I0511 04:49:45.745538 30017 net.cpp:372] inception_4c/relu_3x3_reduce <- inception_4c/3x3_reduce
I0511 04:49:45.745546 30017 net.cpp:323] inception_4c/relu_3x3_reduce -> inception_4c/3x3_reduce (in-place)
I0511 04:49:45.745554 30017 net.cpp:105] Setting up inception_4c/relu_3x3_reduce
I0511 04:49:45.745560 30017 net.cpp:112] Top shape: 32 128 14 14 (802816)
I0511 04:49:45.745565 30017 layer_factory.hpp:74] Creating layer inception_4c/3x3
I0511 04:49:45.745574 30017 net.cpp:76] Creating Layer inception_4c/3x3
I0511 04:49:45.745579 30017 net.cpp:372] inception_4c/3x3 <- inception_4c/3x3_reduce
I0511 04:49:45.745589 30017 net.cpp:334] inception_4c/3x3 -> inception_4c/3x3
I0511 04:49:45.745599 30017 net.cpp:105] Setting up inception_4c/3x3
I0511 04:49:45.748069 30017 net.cpp:112] Top shape: 32 256 14 14 (1605632)
I0511 04:49:45.748105 30017 layer_factory.hpp:74] Creating layer inception_4c/relu_3x3
I0511 04:49:45.748116 30017 net.cpp:76] Creating Layer inception_4c/relu_3x3
I0511 04:49:45.748121 30017 net.cpp:372] inception_4c/relu_3x3 <- inception_4c/3x3
I0511 04:49:45.748129 30017 net.cpp:323] inception_4c/relu_3x3 -> inception_4c/3x3 (in-place)
I0511 04:49:45.748138 30017 net.cpp:105] Setting up inception_4c/relu_3x3
I0511 04:49:45.748143 30017 net.cpp:112] Top shape: 32 256 14 14 (1605632)
I0511 04:49:45.748149 30017 layer_factory.hpp:74] Creating layer inception_4c/5x5_reduce
I0511 04:49:45.748160 30017 net.cpp:76] Creating Layer inception_4c/5x5_reduce
I0511 04:49:45.748167 30017 net.cpp:372] inception_4c/5x5_reduce <- inception_4b/output_inception_4b/output_0_split_2
I0511 04:49:45.748177 30017 net.cpp:334] inception_4c/5x5_reduce -> inception_4c/5x5_reduce
I0511 04:49:45.748185 30017 net.cpp:105] Setting up inception_4c/5x5_reduce
I0511 04:49:45.748316 30017 net.cpp:112] Top shape: 32 24 14 14 (150528)
I0511 04:49:45.748327 30017 layer_factory.hpp:74] Creating layer inception_4c/relu_5x5_reduce
I0511 04:49:45.748337 30017 net.cpp:76] Creating Layer inception_4c/relu_5x5_reduce
I0511 04:49:45.748342 30017 net.cpp:372] inception_4c/relu_5x5_reduce <- inception_4c/5x5_reduce
I0511 04:49:45.748349 30017 net.cpp:323] inception_4c/relu_5x5_reduce -> inception_4c/5x5_reduce (in-place)
I0511 04:49:45.748358 30017 net.cpp:105] Setting up inception_4c/relu_5x5_reduce
I0511 04:49:45.748363 30017 net.cpp:112] Top shape: 32 24 14 14 (150528)
I0511 04:49:45.748368 30017 layer_factory.hpp:74] Creating layer inception_4c/5x5
I0511 04:49:45.748379 30017 net.cpp:76] Creating Layer inception_4c/5x5
I0511 04:49:45.748385 30017 net.cpp:372] inception_4c/5x5 <- inception_4c/5x5_reduce
I0511 04:49:45.748395 30017 net.cpp:334] inception_4c/5x5 -> inception_4c/5x5
I0511 04:49:45.748406 30017 net.cpp:105] Setting up inception_4c/5x5
I0511 04:49:45.748764 30017 net.cpp:112] Top shape: 32 64 14 14 (401408)
I0511 04:49:45.748781 30017 layer_factory.hpp:74] Creating layer inception_4c/relu_5x5
I0511 04:49:45.748790 30017 net.cpp:76] Creating Layer inception_4c/relu_5x5
I0511 04:49:45.748796 30017 net.cpp:372] inception_4c/relu_5x5 <- inception_4c/5x5
I0511 04:49:45.748803 30017 net.cpp:323] inception_4c/relu_5x5 -> inception_4c/5x5 (in-place)
I0511 04:49:45.748811 30017 net.cpp:105] Setting up inception_4c/relu_5x5
I0511 04:49:45.748816 30017 net.cpp:112] Top shape: 32 64 14 14 (401408)
I0511 04:49:45.748821 30017 layer_factory.hpp:74] Creating layer inception_4c/pool
I0511 04:49:45.748854 30017 net.cpp:76] Creating Layer inception_4c/pool
I0511 04:49:45.748862 30017 net.cpp:372] inception_4c/pool <- inception_4b/output_inception_4b/output_0_split_3
I0511 04:49:45.748872 30017 net.cpp:334] inception_4c/pool -> inception_4c/pool
I0511 04:49:45.748881 30017 net.cpp:105] Setting up inception_4c/pool
I0511 04:49:45.748889 30017 net.cpp:112] Top shape: 32 512 14 14 (3211264)
I0511 04:49:45.748895 30017 layer_factory.hpp:74] Creating layer inception_4c/pool_proj
I0511 04:49:45.748905 30017 net.cpp:76] Creating Layer inception_4c/pool_proj
I0511 04:49:45.748910 30017 net.cpp:372] inception_4c/pool_proj <- inception_4c/pool
I0511 04:49:45.748921 30017 net.cpp:334] inception_4c/pool_proj -> inception_4c/pool_proj
I0511 04:49:45.748930 30017 net.cpp:105] Setting up inception_4c/pool_proj
I0511 04:49:45.749212 30017 net.cpp:112] Top shape: 32 64 14 14 (401408)
I0511 04:49:45.749225 30017 layer_factory.hpp:74] Creating layer inception_4c/relu_pool_proj
I0511 04:49:45.749234 30017 net.cpp:76] Creating Layer inception_4c/relu_pool_proj
I0511 04:49:45.749240 30017 net.cpp:372] inception_4c/relu_pool_proj <- inception_4c/pool_proj
I0511 04:49:45.749248 30017 net.cpp:323] inception_4c/relu_pool_proj -> inception_4c/pool_proj (in-place)
I0511 04:49:45.749255 30017 net.cpp:105] Setting up inception_4c/relu_pool_proj
I0511 04:49:45.749260 30017 net.cpp:112] Top shape: 32 64 14 14 (401408)
I0511 04:49:45.749266 30017 layer_factory.hpp:74] Creating layer inception_4c/output
I0511 04:49:45.749289 30017 net.cpp:76] Creating Layer inception_4c/output
I0511 04:49:45.749297 30017 net.cpp:372] inception_4c/output <- inception_4c/1x1
I0511 04:49:45.749305 30017 net.cpp:372] inception_4c/output <- inception_4c/3x3
I0511 04:49:45.749310 30017 net.cpp:372] inception_4c/output <- inception_4c/5x5
I0511 04:49:45.749316 30017 net.cpp:372] inception_4c/output <- inception_4c/pool_proj
I0511 04:49:45.749323 30017 net.cpp:334] inception_4c/output -> inception_4c/output
I0511 04:49:45.749331 30017 net.cpp:105] Setting up inception_4c/output
I0511 04:49:45.749338 30017 net.cpp:112] Top shape: 32 512 14 14 (3211264)
I0511 04:49:45.749344 30017 layer_factory.hpp:74] Creating layer inception_4c/output_inception_4c/output_0_split
I0511 04:49:45.749352 30017 net.cpp:76] Creating Layer inception_4c/output_inception_4c/output_0_split
I0511 04:49:45.749357 30017 net.cpp:372] inception_4c/output_inception_4c/output_0_split <- inception_4c/output
I0511 04:49:45.749366 30017 net.cpp:334] inception_4c/output_inception_4c/output_0_split -> inception_4c/output_inception_4c/output_0_split_0
I0511 04:49:45.749377 30017 net.cpp:334] inception_4c/output_inception_4c/output_0_split -> inception_4c/output_inception_4c/output_0_split_1
I0511 04:49:45.749387 30017 net.cpp:334] inception_4c/output_inception_4c/output_0_split -> inception_4c/output_inception_4c/output_0_split_2
I0511 04:49:45.749395 30017 net.cpp:334] inception_4c/output_inception_4c/output_0_split -> inception_4c/output_inception_4c/output_0_split_3
I0511 04:49:45.749403 30017 net.cpp:105] Setting up inception_4c/output_inception_4c/output_0_split
I0511 04:49:45.749410 30017 net.cpp:112] Top shape: 32 512 14 14 (3211264)
I0511 04:49:45.749435 30017 net.cpp:112] Top shape: 32 512 14 14 (3211264)
I0511 04:49:45.749441 30017 net.cpp:112] Top shape: 32 512 14 14 (3211264)
I0511 04:49:45.749447 30017 net.cpp:112] Top shape: 32 512 14 14 (3211264)
I0511 04:49:45.749452 30017 layer_factory.hpp:74] Creating layer inception_4d/1x1
I0511 04:49:45.749464 30017 net.cpp:76] Creating Layer inception_4d/1x1
I0511 04:49:45.749469 30017 net.cpp:372] inception_4d/1x1 <- inception_4c/output_inception_4c/output_0_split_0
I0511 04:49:45.749480 30017 net.cpp:334] inception_4d/1x1 -> inception_4d/1x1
I0511 04:49:45.749490 30017 net.cpp:105] Setting up inception_4d/1x1
I0511 04:49:45.750000 30017 net.cpp:112] Top shape: 32 112 14 14 (702464)
I0511 04:49:45.750020 30017 layer_factory.hpp:74] Creating layer inception_4d/relu_1x1
I0511 04:49:45.750032 30017 net.cpp:76] Creating Layer inception_4d/relu_1x1
I0511 04:49:45.750058 30017 net.cpp:372] inception_4d/relu_1x1 <- inception_4d/1x1
I0511 04:49:45.750075 30017 net.cpp:323] inception_4d/relu_1x1 -> inception_4d/1x1 (in-place)
I0511 04:49:45.750090 30017 net.cpp:105] Setting up inception_4d/relu_1x1
I0511 04:49:45.750102 30017 net.cpp:112] Top shape: 32 112 14 14 (702464)
I0511 04:49:45.750110 30017 layer_factory.hpp:74] Creating layer inception_4d/3x3_reduce
I0511 04:49:45.750125 30017 net.cpp:76] Creating Layer inception_4d/3x3_reduce
I0511 04:49:45.750136 30017 net.cpp:372] inception_4d/3x3_reduce <- inception_4c/output_inception_4c/output_0_split_1
I0511 04:49:45.750150 30017 net.cpp:334] inception_4d/3x3_reduce -> inception_4d/3x3_reduce
I0511 04:49:45.750160 30017 net.cpp:105] Setting up inception_4d/3x3_reduce
I0511 04:49:45.750798 30017 net.cpp:112] Top shape: 32 144 14 14 (903168)
I0511 04:49:45.750813 30017 layer_factory.hpp:74] Creating layer inception_4d/relu_3x3_reduce
I0511 04:49:45.750821 30017 net.cpp:76] Creating Layer inception_4d/relu_3x3_reduce
I0511 04:49:45.750828 30017 net.cpp:372] inception_4d/relu_3x3_reduce <- inception_4d/3x3_reduce
I0511 04:49:45.750834 30017 net.cpp:323] inception_4d/relu_3x3_reduce -> inception_4d/3x3_reduce (in-place)
I0511 04:49:45.750843 30017 net.cpp:105] Setting up inception_4d/relu_3x3_reduce
I0511 04:49:45.750847 30017 net.cpp:112] Top shape: 32 144 14 14 (903168)
I0511 04:49:45.750854 30017 layer_factory.hpp:74] Creating layer inception_4d/3x3
I0511 04:49:45.750864 30017 net.cpp:76] Creating Layer inception_4d/3x3
I0511 04:49:45.750870 30017 net.cpp:372] inception_4d/3x3 <- inception_4d/3x3_reduce
I0511 04:49:45.750877 30017 net.cpp:334] inception_4d/3x3 -> inception_4d/3x3
I0511 04:49:45.750888 30017 net.cpp:105] Setting up inception_4d/3x3
I0511 04:49:45.754449 30017 net.cpp:112] Top shape: 32 288 14 14 (1806336)
I0511 04:49:45.754473 30017 layer_factory.hpp:74] Creating layer inception_4d/relu_3x3
I0511 04:49:45.754484 30017 net.cpp:76] Creating Layer inception_4d/relu_3x3
I0511 04:49:45.754492 30017 net.cpp:372] inception_4d/relu_3x3 <- inception_4d/3x3
I0511 04:49:45.754499 30017 net.cpp:323] inception_4d/relu_3x3 -> inception_4d/3x3 (in-place)
I0511 04:49:45.754508 30017 net.cpp:105] Setting up inception_4d/relu_3x3
I0511 04:49:45.754513 30017 net.cpp:112] Top shape: 32 288 14 14 (1806336)
I0511 04:49:45.754519 30017 layer_factory.hpp:74] Creating layer inception_4d/5x5_reduce
I0511 04:49:45.754531 30017 net.cpp:76] Creating Layer inception_4d/5x5_reduce
I0511 04:49:45.754539 30017 net.cpp:372] inception_4d/5x5_reduce <- inception_4c/output_inception_4c/output_0_split_2
I0511 04:49:45.754546 30017 net.cpp:334] inception_4d/5x5_reduce -> inception_4d/5x5_reduce
I0511 04:49:45.754556 30017 net.cpp:105] Setting up inception_4d/5x5_reduce
I0511 04:49:45.754709 30017 net.cpp:112] Top shape: 32 32 14 14 (200704)
I0511 04:49:45.754719 30017 layer_factory.hpp:74] Creating layer inception_4d/relu_5x5_reduce
I0511 04:49:45.754727 30017 net.cpp:76] Creating Layer inception_4d/relu_5x5_reduce
I0511 04:49:45.754734 30017 net.cpp:372] inception_4d/relu_5x5_reduce <- inception_4d/5x5_reduce
I0511 04:49:45.755012 30017 net.cpp:323] inception_4d/relu_5x5_reduce -> inception_4d/5x5_reduce (in-place)
I0511 04:49:45.755023 30017 net.cpp:105] Setting up inception_4d/relu_5x5_reduce
I0511 04:49:45.755029 30017 net.cpp:112] Top shape: 32 32 14 14 (200704)
I0511 04:49:45.755035 30017 layer_factory.hpp:74] Creating layer inception_4d/5x5
I0511 04:49:45.755044 30017 net.cpp:76] Creating Layer inception_4d/5x5
I0511 04:49:45.755049 30017 net.cpp:372] inception_4d/5x5 <- inception_4d/5x5_reduce
I0511 04:49:45.755059 30017 net.cpp:334] inception_4d/5x5 -> inception_4d/5x5
I0511 04:49:45.755069 30017 net.cpp:105] Setting up inception_4d/5x5
I0511 04:49:45.755542 30017 net.cpp:112] Top shape: 32 64 14 14 (401408)
I0511 04:49:45.755558 30017 layer_factory.hpp:74] Creating layer inception_4d/relu_5x5
I0511 04:49:45.755568 30017 net.cpp:76] Creating Layer inception_4d/relu_5x5
I0511 04:49:45.755574 30017 net.cpp:372] inception_4d/relu_5x5 <- inception_4d/5x5
I0511 04:49:45.755604 30017 net.cpp:323] inception_4d/relu_5x5 -> inception_4d/5x5 (in-place)
I0511 04:49:45.755614 30017 net.cpp:105] Setting up inception_4d/relu_5x5
I0511 04:49:45.755620 30017 net.cpp:112] Top shape: 32 64 14 14 (401408)
I0511 04:49:45.755625 30017 layer_factory.hpp:74] Creating layer inception_4d/pool
I0511 04:49:45.755636 30017 net.cpp:76] Creating Layer inception_4d/pool
I0511 04:49:45.755642 30017 net.cpp:372] inception_4d/pool <- inception_4c/output_inception_4c/output_0_split_3
I0511 04:49:45.755650 30017 net.cpp:334] inception_4d/pool -> inception_4d/pool
I0511 04:49:45.755659 30017 net.cpp:105] Setting up inception_4d/pool
I0511 04:49:45.755667 30017 net.cpp:112] Top shape: 32 512 14 14 (3211264)
I0511 04:49:45.755673 30017 layer_factory.hpp:74] Creating layer inception_4d/pool_proj
I0511 04:49:45.755681 30017 net.cpp:76] Creating Layer inception_4d/pool_proj
I0511 04:49:45.755687 30017 net.cpp:372] inception_4d/pool_proj <- inception_4d/pool
I0511 04:49:45.755697 30017 net.cpp:334] inception_4d/pool_proj -> inception_4d/pool_proj
I0511 04:49:45.755707 30017 net.cpp:105] Setting up inception_4d/pool_proj
I0511 04:49:45.755993 30017 net.cpp:112] Top shape: 32 64 14 14 (401408)
I0511 04:49:45.756007 30017 layer_factory.hpp:74] Creating layer inception_4d/relu_pool_proj
I0511 04:49:45.756014 30017 net.cpp:76] Creating Layer inception_4d/relu_pool_proj
I0511 04:49:45.756021 30017 net.cpp:372] inception_4d/relu_pool_proj <- inception_4d/pool_proj
I0511 04:49:45.756028 30017 net.cpp:323] inception_4d/relu_pool_proj -> inception_4d/pool_proj (in-place)
I0511 04:49:45.756036 30017 net.cpp:105] Setting up inception_4d/relu_pool_proj
I0511 04:49:45.756042 30017 net.cpp:112] Top shape: 32 64 14 14 (401408)
I0511 04:49:45.756047 30017 layer_factory.hpp:74] Creating layer inception_4d/output
I0511 04:49:45.756057 30017 net.cpp:76] Creating Layer inception_4d/output
I0511 04:49:45.756063 30017 net.cpp:372] inception_4d/output <- inception_4d/1x1
I0511 04:49:45.756069 30017 net.cpp:372] inception_4d/output <- inception_4d/3x3
I0511 04:49:45.756077 30017 net.cpp:372] inception_4d/output <- inception_4d/5x5
I0511 04:49:45.756083 30017 net.cpp:372] inception_4d/output <- inception_4d/pool_proj
I0511 04:49:45.756089 30017 net.cpp:334] inception_4d/output -> inception_4d/output
I0511 04:49:45.756098 30017 net.cpp:105] Setting up inception_4d/output
I0511 04:49:45.756104 30017 net.cpp:112] Top shape: 32 528 14 14 (3311616)
I0511 04:49:45.756109 30017 layer_factory.hpp:74] Creating layer inception_4d/output_inception_4d/output_0_split
I0511 04:49:45.756119 30017 net.cpp:76] Creating Layer inception_4d/output_inception_4d/output_0_split
I0511 04:49:45.756126 30017 net.cpp:372] inception_4d/output_inception_4d/output_0_split <- inception_4d/output
I0511 04:49:45.756134 30017 net.cpp:334] inception_4d/output_inception_4d/output_0_split -> inception_4d/output_inception_4d/output_0_split_0
I0511 04:49:45.756144 30017 net.cpp:334] inception_4d/output_inception_4d/output_0_split -> inception_4d/output_inception_4d/output_0_split_1
I0511 04:49:45.756155 30017 net.cpp:334] inception_4d/output_inception_4d/output_0_split -> inception_4d/output_inception_4d/output_0_split_2
I0511 04:49:45.756165 30017 net.cpp:334] inception_4d/output_inception_4d/output_0_split -> inception_4d/output_inception_4d/output_0_split_3
I0511 04:49:45.756175 30017 net.cpp:334] inception_4d/output_inception_4d/output_0_split -> inception_4d/output_inception_4d/output_0_split_4
I0511 04:49:45.756182 30017 net.cpp:105] Setting up inception_4d/output_inception_4d/output_0_split
I0511 04:49:45.756189 30017 net.cpp:112] Top shape: 32 528 14 14 (3311616)
I0511 04:49:45.756194 30017 net.cpp:112] Top shape: 32 528 14 14 (3311616)
I0511 04:49:45.756199 30017 net.cpp:112] Top shape: 32 528 14 14 (3311616)
I0511 04:49:45.756204 30017 net.cpp:112] Top shape: 32 528 14 14 (3311616)
I0511 04:49:45.756209 30017 net.cpp:112] Top shape: 32 528 14 14 (3311616)
I0511 04:49:45.756214 30017 layer_factory.hpp:74] Creating layer loss2/ave_pool
I0511 04:49:45.756233 30017 net.cpp:76] Creating Layer loss2/ave_pool
I0511 04:49:45.756240 30017 net.cpp:372] loss2/ave_pool <- inception_4d/output_inception_4d/output_0_split_0
I0511 04:49:45.756249 30017 net.cpp:334] loss2/ave_pool -> loss2/ave_pool
I0511 04:49:45.756258 30017 net.cpp:105] Setting up loss2/ave_pool
I0511 04:49:45.756263 30017 net.cpp:112] Top shape: 32 528 4 4 (270336)
I0511 04:49:45.756281 30017 layer_factory.hpp:74] Creating layer loss2/conv
I0511 04:49:45.756294 30017 net.cpp:76] Creating Layer loss2/conv
I0511 04:49:45.756300 30017 net.cpp:372] loss2/conv <- loss2/ave_pool
I0511 04:49:45.756309 30017 net.cpp:334] loss2/conv -> loss2/conv
I0511 04:49:45.756317 30017 net.cpp:105] Setting up loss2/conv
I0511 04:49:45.756886 30017 net.cpp:112] Top shape: 32 128 4 4 (65536)
I0511 04:49:45.756899 30017 layer_factory.hpp:74] Creating layer loss2/relu_conv
I0511 04:49:45.756907 30017 net.cpp:76] Creating Layer loss2/relu_conv
I0511 04:49:45.756912 30017 net.cpp:372] loss2/relu_conv <- loss2/conv
I0511 04:49:45.756922 30017 net.cpp:323] loss2/relu_conv -> loss2/conv (in-place)
I0511 04:49:45.756929 30017 net.cpp:105] Setting up loss2/relu_conv
I0511 04:49:45.756937 30017 net.cpp:112] Top shape: 32 128 4 4 (65536)
I0511 04:49:45.756947 30017 layer_factory.hpp:74] Creating layer loss2/fc
I0511 04:49:45.756957 30017 net.cpp:76] Creating Layer loss2/fc
I0511 04:49:45.756961 30017 net.cpp:372] loss2/fc <- loss2/conv
I0511 04:49:45.756969 30017 net.cpp:334] loss2/fc -> loss2/fc
I0511 04:49:45.756978 30017 net.cpp:105] Setting up loss2/fc
I0511 04:49:45.774866 30017 net.cpp:112] Top shape: 32 1024 1 1 (32768)
I0511 04:49:45.774910 30017 layer_factory.hpp:74] Creating layer loss2/relu_fc
I0511 04:49:45.774924 30017 net.cpp:76] Creating Layer loss2/relu_fc
I0511 04:49:45.774934 30017 net.cpp:372] loss2/relu_fc <- loss2/fc
I0511 04:49:45.774946 30017 net.cpp:323] loss2/relu_fc -> loss2/fc (in-place)
I0511 04:49:45.774957 30017 net.cpp:105] Setting up loss2/relu_fc
I0511 04:49:45.774965 30017 net.cpp:112] Top shape: 32 1024 1 1 (32768)
I0511 04:49:45.774971 30017 layer_factory.hpp:74] Creating layer loss2/drop_fc
I0511 04:49:45.774979 30017 net.cpp:76] Creating Layer loss2/drop_fc
I0511 04:49:45.774986 30017 net.cpp:372] loss2/drop_fc <- loss2/fc
I0511 04:49:45.774991 30017 net.cpp:323] loss2/drop_fc -> loss2/fc (in-place)
I0511 04:49:45.774999 30017 net.cpp:105] Setting up loss2/drop_fc
I0511 04:49:45.775007 30017 net.cpp:112] Top shape: 32 1024 1 1 (32768)
I0511 04:49:45.775012 30017 layer_factory.hpp:74] Creating layer loss2/classifier
I0511 04:49:45.775022 30017 net.cpp:76] Creating Layer loss2/classifier
I0511 04:49:45.775027 30017 net.cpp:372] loss2/classifier <- loss2/fc
I0511 04:49:45.775038 30017 net.cpp:334] loss2/classifier -> loss2/classifier
I0511 04:49:45.775048 30017 net.cpp:105] Setting up loss2/classifier
I0511 04:49:45.775081 30017 net.cpp:112] Top shape: 32 2 1 1 (64)
I0511 04:49:45.775091 30017 layer_factory.hpp:74] Creating layer loss2/classifier_loss2/classifier_0_split
I0511 04:49:45.775106 30017 net.cpp:76] Creating Layer loss2/classifier_loss2/classifier_0_split
I0511 04:49:45.775112 30017 net.cpp:372] loss2/classifier_loss2/classifier_0_split <- loss2/classifier
I0511 04:49:45.775120 30017 net.cpp:334] loss2/classifier_loss2/classifier_0_split -> loss2/classifier_loss2/classifier_0_split_0
I0511 04:49:45.775130 30017 net.cpp:334] loss2/classifier_loss2/classifier_0_split -> loss2/classifier_loss2/classifier_0_split_1
I0511 04:49:45.775138 30017 net.cpp:105] Setting up loss2/classifier_loss2/classifier_0_split
I0511 04:49:45.775146 30017 net.cpp:112] Top shape: 32 2 1 1 (64)
I0511 04:49:45.775151 30017 net.cpp:112] Top shape: 32 2 1 1 (64)
I0511 04:49:45.775156 30017 layer_factory.hpp:74] Creating layer loss2/loss
I0511 04:49:45.775164 30017 net.cpp:76] Creating Layer loss2/loss
I0511 04:49:45.775171 30017 net.cpp:372] loss2/loss <- loss2/classifier_loss2/classifier_0_split_0
I0511 04:49:45.775177 30017 net.cpp:372] loss2/loss <- label_data_1_split_2
I0511 04:49:45.775187 30017 net.cpp:334] loss2/loss -> loss2/loss1
I0511 04:49:45.775229 30017 net.cpp:105] Setting up loss2/loss
I0511 04:49:45.775238 30017 layer_factory.hpp:74] Creating layer loss2/loss
I0511 04:49:45.775254 30017 net.cpp:112] Top shape: 1 1 1 1 (1)
I0511 04:49:45.775260 30017 net.cpp:118]     with loss weight 0.3
I0511 04:49:45.775315 30017 layer_factory.hpp:74] Creating layer loss2/top-1
I0511 04:49:45.775324 30017 net.cpp:76] Creating Layer loss2/top-1
I0511 04:49:45.775331 30017 net.cpp:372] loss2/top-1 <- loss2/classifier_loss2/classifier_0_split_1
I0511 04:49:45.775337 30017 net.cpp:372] loss2/top-1 <- label_data_1_split_3
I0511 04:49:45.775346 30017 net.cpp:334] loss2/top-1 -> loss2/top-1
I0511 04:49:45.775354 30017 net.cpp:105] Setting up loss2/top-1
I0511 04:49:45.775360 30017 net.cpp:112] Top shape: 1 1 1 1 (1)
I0511 04:49:45.775367 30017 layer_factory.hpp:74] Creating layer inception_4e/1x1
I0511 04:49:45.775379 30017 net.cpp:76] Creating Layer inception_4e/1x1
I0511 04:49:45.775387 30017 net.cpp:372] inception_4e/1x1 <- inception_4d/output_inception_4d/output_0_split_1
I0511 04:49:45.775395 30017 net.cpp:334] inception_4e/1x1 -> inception_4e/1x1
I0511 04:49:45.775405 30017 net.cpp:105] Setting up inception_4e/1x1
I0511 04:49:45.776551 30017 net.cpp:112] Top shape: 32 256 14 14 (1605632)
I0511 04:49:45.776566 30017 layer_factory.hpp:74] Creating layer inception_4e/relu_1x1
I0511 04:49:45.776573 30017 net.cpp:76] Creating Layer inception_4e/relu_1x1
I0511 04:49:45.776579 30017 net.cpp:372] inception_4e/relu_1x1 <- inception_4e/1x1
I0511 04:49:45.776589 30017 net.cpp:323] inception_4e/relu_1x1 -> inception_4e/1x1 (in-place)
I0511 04:49:45.776598 30017 net.cpp:105] Setting up inception_4e/relu_1x1
I0511 04:49:45.776603 30017 net.cpp:112] Top shape: 32 256 14 14 (1605632)
I0511 04:49:45.776609 30017 layer_factory.hpp:74] Creating layer inception_4e/3x3_reduce
I0511 04:49:45.776618 30017 net.cpp:76] Creating Layer inception_4e/3x3_reduce
I0511 04:49:45.776624 30017 net.cpp:372] inception_4e/3x3_reduce <- inception_4d/output_inception_4d/output_0_split_2
I0511 04:49:45.776633 30017 net.cpp:334] inception_4e/3x3_reduce -> inception_4e/3x3_reduce
I0511 04:49:45.776641 30017 net.cpp:105] Setting up inception_4e/3x3_reduce
I0511 04:49:45.777365 30017 net.cpp:112] Top shape: 32 160 14 14 (1003520)
I0511 04:49:45.777379 30017 layer_factory.hpp:74] Creating layer inception_4e/relu_3x3_reduce
I0511 04:49:45.777395 30017 net.cpp:76] Creating Layer inception_4e/relu_3x3_reduce
I0511 04:49:45.777401 30017 net.cpp:372] inception_4e/relu_3x3_reduce <- inception_4e/3x3_reduce
I0511 04:49:45.777408 30017 net.cpp:323] inception_4e/relu_3x3_reduce -> inception_4e/3x3_reduce (in-place)
I0511 04:49:45.777416 30017 net.cpp:105] Setting up inception_4e/relu_3x3_reduce
I0511 04:49:45.777421 30017 net.cpp:112] Top shape: 32 160 14 14 (1003520)
I0511 04:49:45.777427 30017 layer_factory.hpp:74] Creating layer inception_4e/3x3
I0511 04:49:45.777458 30017 net.cpp:76] Creating Layer inception_4e/3x3
I0511 04:49:45.777465 30017 net.cpp:372] inception_4e/3x3 <- inception_4e/3x3_reduce
I0511 04:49:45.777473 30017 net.cpp:334] inception_4e/3x3 -> inception_4e/3x3
I0511 04:49:45.777482 30017 net.cpp:105] Setting up inception_4e/3x3
I0511 04:49:45.781402 30017 net.cpp:112] Top shape: 32 320 14 14 (2007040)
I0511 04:49:45.781427 30017 layer_factory.hpp:74] Creating layer inception_4e/relu_3x3
I0511 04:49:45.781438 30017 net.cpp:76] Creating Layer inception_4e/relu_3x3
I0511 04:49:45.781445 30017 net.cpp:372] inception_4e/relu_3x3 <- inception_4e/3x3
I0511 04:49:45.781456 30017 net.cpp:323] inception_4e/relu_3x3 -> inception_4e/3x3 (in-place)
I0511 04:49:45.781466 30017 net.cpp:105] Setting up inception_4e/relu_3x3
I0511 04:49:45.781471 30017 net.cpp:112] Top shape: 32 320 14 14 (2007040)
I0511 04:49:45.781477 30017 layer_factory.hpp:74] Creating layer inception_4e/5x5_reduce
I0511 04:49:45.781486 30017 net.cpp:76] Creating Layer inception_4e/5x5_reduce
I0511 04:49:45.781493 30017 net.cpp:372] inception_4e/5x5_reduce <- inception_4d/output_inception_4d/output_0_split_3
I0511 04:49:45.781527 30017 net.cpp:334] inception_4e/5x5_reduce -> inception_4e/5x5_reduce
I0511 04:49:45.781539 30017 net.cpp:105] Setting up inception_4e/5x5_reduce
I0511 04:49:45.781687 30017 net.cpp:112] Top shape: 32 32 14 14 (200704)
I0511 04:49:45.781697 30017 layer_factory.hpp:74] Creating layer inception_4e/relu_5x5_reduce
I0511 04:49:45.781708 30017 net.cpp:76] Creating Layer inception_4e/relu_5x5_reduce
I0511 04:49:45.781714 30017 net.cpp:372] inception_4e/relu_5x5_reduce <- inception_4e/5x5_reduce
I0511 04:49:45.781723 30017 net.cpp:323] inception_4e/relu_5x5_reduce -> inception_4e/5x5_reduce (in-place)
I0511 04:49:45.781729 30017 net.cpp:105] Setting up inception_4e/relu_5x5_reduce
I0511 04:49:45.781735 30017 net.cpp:112] Top shape: 32 32 14 14 (200704)
I0511 04:49:45.781740 30017 layer_factory.hpp:74] Creating layer inception_4e/5x5
I0511 04:49:45.781751 30017 net.cpp:76] Creating Layer inception_4e/5x5
I0511 04:49:45.781756 30017 net.cpp:372] inception_4e/5x5 <- inception_4e/5x5_reduce
I0511 04:49:45.781764 30017 net.cpp:334] inception_4e/5x5 -> inception_4e/5x5
I0511 04:49:45.781774 30017 net.cpp:105] Setting up inception_4e/5x5
I0511 04:49:45.782642 30017 net.cpp:112] Top shape: 32 128 14 14 (802816)
I0511 04:49:45.782657 30017 layer_factory.hpp:74] Creating layer inception_4e/relu_5x5
I0511 04:49:45.782665 30017 net.cpp:76] Creating Layer inception_4e/relu_5x5
I0511 04:49:45.782671 30017 net.cpp:372] inception_4e/relu_5x5 <- inception_4e/5x5
I0511 04:49:45.782680 30017 net.cpp:323] inception_4e/relu_5x5 -> inception_4e/5x5 (in-place)
I0511 04:49:45.782690 30017 net.cpp:105] Setting up inception_4e/relu_5x5
I0511 04:49:45.782694 30017 net.cpp:112] Top shape: 32 128 14 14 (802816)
I0511 04:49:45.782699 30017 layer_factory.hpp:74] Creating layer inception_4e/pool
I0511 04:49:45.782708 30017 net.cpp:76] Creating Layer inception_4e/pool
I0511 04:49:45.782714 30017 net.cpp:372] inception_4e/pool <- inception_4d/output_inception_4d/output_0_split_4
I0511 04:49:45.782722 30017 net.cpp:334] inception_4e/pool -> inception_4e/pool
I0511 04:49:45.782732 30017 net.cpp:105] Setting up inception_4e/pool
I0511 04:49:45.782739 30017 net.cpp:112] Top shape: 32 528 14 14 (3311616)
I0511 04:49:45.782745 30017 layer_factory.hpp:74] Creating layer inception_4e/pool_proj
I0511 04:49:45.782758 30017 net.cpp:76] Creating Layer inception_4e/pool_proj
I0511 04:49:45.782765 30017 net.cpp:372] inception_4e/pool_proj <- inception_4e/pool
I0511 04:49:45.782775 30017 net.cpp:334] inception_4e/pool_proj -> inception_4e/pool_proj
I0511 04:49:45.782784 30017 net.cpp:105] Setting up inception_4e/pool_proj
I0511 04:49:45.783376 30017 net.cpp:112] Top shape: 32 128 14 14 (802816)
I0511 04:49:45.783391 30017 layer_factory.hpp:74] Creating layer inception_4e/relu_pool_proj
I0511 04:49:45.783401 30017 net.cpp:76] Creating Layer inception_4e/relu_pool_proj
I0511 04:49:45.783408 30017 net.cpp:372] inception_4e/relu_pool_proj <- inception_4e/pool_proj
I0511 04:49:45.783437 30017 net.cpp:323] inception_4e/relu_pool_proj -> inception_4e/pool_proj (in-place)
I0511 04:49:45.783447 30017 net.cpp:105] Setting up inception_4e/relu_pool_proj
I0511 04:49:45.783452 30017 net.cpp:112] Top shape: 32 128 14 14 (802816)
I0511 04:49:45.783457 30017 layer_factory.hpp:74] Creating layer inception_4e/output
I0511 04:49:45.783467 30017 net.cpp:76] Creating Layer inception_4e/output
I0511 04:49:45.783474 30017 net.cpp:372] inception_4e/output <- inception_4e/1x1
I0511 04:49:45.783481 30017 net.cpp:372] inception_4e/output <- inception_4e/3x3
I0511 04:49:45.783488 30017 net.cpp:372] inception_4e/output <- inception_4e/5x5
I0511 04:49:45.783494 30017 net.cpp:372] inception_4e/output <- inception_4e/pool_proj
I0511 04:49:45.783501 30017 net.cpp:334] inception_4e/output -> inception_4e/output
I0511 04:49:45.783509 30017 net.cpp:105] Setting up inception_4e/output
I0511 04:49:45.783516 30017 net.cpp:112] Top shape: 32 832 14 14 (5218304)
I0511 04:49:45.783521 30017 layer_factory.hpp:74] Creating layer pool4/3x3_s2
I0511 04:49:45.783529 30017 net.cpp:76] Creating Layer pool4/3x3_s2
I0511 04:49:45.783550 30017 net.cpp:372] pool4/3x3_s2 <- inception_4e/output
I0511 04:49:45.783558 30017 net.cpp:334] pool4/3x3_s2 -> pool4/3x3_s2
I0511 04:49:45.783567 30017 net.cpp:105] Setting up pool4/3x3_s2
I0511 04:49:45.784566 30017 net.cpp:112] Top shape: 32 832 7 7 (1304576)
I0511 04:49:45.784576 30017 layer_factory.hpp:74] Creating layer pool4/3x3_s2_pool4/3x3_s2_0_split
I0511 04:49:45.784590 30017 net.cpp:76] Creating Layer pool4/3x3_s2_pool4/3x3_s2_0_split
I0511 04:49:45.784597 30017 net.cpp:372] pool4/3x3_s2_pool4/3x3_s2_0_split <- pool4/3x3_s2
I0511 04:49:45.784606 30017 net.cpp:334] pool4/3x3_s2_pool4/3x3_s2_0_split -> pool4/3x3_s2_pool4/3x3_s2_0_split_0
I0511 04:49:45.784616 30017 net.cpp:334] pool4/3x3_s2_pool4/3x3_s2_0_split -> pool4/3x3_s2_pool4/3x3_s2_0_split_1
I0511 04:49:45.784626 30017 net.cpp:334] pool4/3x3_s2_pool4/3x3_s2_0_split -> pool4/3x3_s2_pool4/3x3_s2_0_split_2
I0511 04:49:45.784636 30017 net.cpp:334] pool4/3x3_s2_pool4/3x3_s2_0_split -> pool4/3x3_s2_pool4/3x3_s2_0_split_3
I0511 04:49:45.784644 30017 net.cpp:105] Setting up pool4/3x3_s2_pool4/3x3_s2_0_split
I0511 04:49:45.784651 30017 net.cpp:112] Top shape: 32 832 7 7 (1304576)
I0511 04:49:45.784657 30017 net.cpp:112] Top shape: 32 832 7 7 (1304576)
I0511 04:49:45.784662 30017 net.cpp:112] Top shape: 32 832 7 7 (1304576)
I0511 04:49:45.784667 30017 net.cpp:112] Top shape: 32 832 7 7 (1304576)
I0511 04:49:45.784672 30017 layer_factory.hpp:74] Creating layer inception_5a/1x1
I0511 04:49:45.784682 30017 net.cpp:76] Creating Layer inception_5a/1x1
I0511 04:49:45.784687 30017 net.cpp:372] inception_5a/1x1 <- pool4/3x3_s2_pool4/3x3_s2_0_split_0
I0511 04:49:45.784698 30017 net.cpp:334] inception_5a/1x1 -> inception_5a/1x1
I0511 04:49:45.784708 30017 net.cpp:105] Setting up inception_5a/1x1
I0511 04:49:45.786489 30017 net.cpp:112] Top shape: 32 256 7 7 (401408)
I0511 04:49:45.786509 30017 layer_factory.hpp:74] Creating layer inception_5a/relu_1x1
I0511 04:49:45.786517 30017 net.cpp:76] Creating Layer inception_5a/relu_1x1
I0511 04:49:45.786523 30017 net.cpp:372] inception_5a/relu_1x1 <- inception_5a/1x1
I0511 04:49:45.786530 30017 net.cpp:323] inception_5a/relu_1x1 -> inception_5a/1x1 (in-place)
I0511 04:49:45.786538 30017 net.cpp:105] Setting up inception_5a/relu_1x1
I0511 04:49:45.786545 30017 net.cpp:112] Top shape: 32 256 7 7 (401408)
I0511 04:49:45.786550 30017 layer_factory.hpp:74] Creating layer inception_5a/3x3_reduce
I0511 04:49:45.786561 30017 net.cpp:76] Creating Layer inception_5a/3x3_reduce
I0511 04:49:45.786566 30017 net.cpp:372] inception_5a/3x3_reduce <- pool4/3x3_s2_pool4/3x3_s2_0_split_1
I0511 04:49:45.786576 30017 net.cpp:334] inception_5a/3x3_reduce -> inception_5a/3x3_reduce
I0511 04:49:45.786586 30017 net.cpp:105] Setting up inception_5a/3x3_reduce
I0511 04:49:45.787715 30017 net.cpp:112] Top shape: 32 160 7 7 (250880)
I0511 04:49:45.787731 30017 layer_factory.hpp:74] Creating layer inception_5a/relu_3x3_reduce
I0511 04:49:45.787739 30017 net.cpp:76] Creating Layer inception_5a/relu_3x3_reduce
I0511 04:49:45.787745 30017 net.cpp:372] inception_5a/relu_3x3_reduce <- inception_5a/3x3_reduce
I0511 04:49:45.787756 30017 net.cpp:323] inception_5a/relu_3x3_reduce -> inception_5a/3x3_reduce (in-place)
I0511 04:49:45.787765 30017 net.cpp:105] Setting up inception_5a/relu_3x3_reduce
I0511 04:49:45.787770 30017 net.cpp:112] Top shape: 32 160 7 7 (250880)
I0511 04:49:45.787776 30017 layer_factory.hpp:74] Creating layer inception_5a/3x3
I0511 04:49:45.787785 30017 net.cpp:76] Creating Layer inception_5a/3x3
I0511 04:49:45.787791 30017 net.cpp:372] inception_5a/3x3 <- inception_5a/3x3_reduce
I0511 04:49:45.787801 30017 net.cpp:334] inception_5a/3x3 -> inception_5a/3x3
I0511 04:49:45.787809 30017 net.cpp:105] Setting up inception_5a/3x3
I0511 04:49:45.791725 30017 net.cpp:112] Top shape: 32 320 7 7 (501760)
I0511 04:49:45.791759 30017 layer_factory.hpp:74] Creating layer inception_5a/relu_3x3
I0511 04:49:45.791771 30017 net.cpp:76] Creating Layer inception_5a/relu_3x3
I0511 04:49:45.791780 30017 net.cpp:372] inception_5a/relu_3x3 <- inception_5a/3x3
I0511 04:49:45.791823 30017 net.cpp:323] inception_5a/relu_3x3 -> inception_5a/3x3 (in-place)
I0511 04:49:45.791834 30017 net.cpp:105] Setting up inception_5a/relu_3x3
I0511 04:49:45.791841 30017 net.cpp:112] Top shape: 32 320 7 7 (501760)
I0511 04:49:45.791846 30017 layer_factory.hpp:74] Creating layer inception_5a/5x5_reduce
I0511 04:49:45.791857 30017 net.cpp:76] Creating Layer inception_5a/5x5_reduce
I0511 04:49:45.791863 30017 net.cpp:372] inception_5a/5x5_reduce <- pool4/3x3_s2_pool4/3x3_s2_0_split_2
I0511 04:49:45.791872 30017 net.cpp:334] inception_5a/5x5_reduce -> inception_5a/5x5_reduce
I0511 04:49:45.791882 30017 net.cpp:105] Setting up inception_5a/5x5_reduce
I0511 04:49:45.792121 30017 net.cpp:112] Top shape: 32 32 7 7 (50176)
I0511 04:49:45.792134 30017 layer_factory.hpp:74] Creating layer inception_5a/relu_5x5_reduce
I0511 04:49:45.792145 30017 net.cpp:76] Creating Layer inception_5a/relu_5x5_reduce
I0511 04:49:45.792151 30017 net.cpp:372] inception_5a/relu_5x5_reduce <- inception_5a/5x5_reduce
I0511 04:49:45.792160 30017 net.cpp:323] inception_5a/relu_5x5_reduce -> inception_5a/5x5_reduce (in-place)
I0511 04:49:45.792168 30017 net.cpp:105] Setting up inception_5a/relu_5x5_reduce
I0511 04:49:45.792174 30017 net.cpp:112] Top shape: 32 32 7 7 (50176)
I0511 04:49:45.792181 30017 layer_factory.hpp:74] Creating layer inception_5a/5x5
I0511 04:49:45.792188 30017 net.cpp:76] Creating Layer inception_5a/5x5
I0511 04:49:45.792194 30017 net.cpp:372] inception_5a/5x5 <- inception_5a/5x5_reduce
I0511 04:49:45.792207 30017 net.cpp:334] inception_5a/5x5 -> inception_5a/5x5
I0511 04:49:45.792217 30017 net.cpp:105] Setting up inception_5a/5x5
I0511 04:49:45.793081 30017 net.cpp:112] Top shape: 32 128 7 7 (200704)
I0511 04:49:45.793094 30017 layer_factory.hpp:74] Creating layer inception_5a/relu_5x5
I0511 04:49:45.793105 30017 net.cpp:76] Creating Layer inception_5a/relu_5x5
I0511 04:49:45.793112 30017 net.cpp:372] inception_5a/relu_5x5 <- inception_5a/5x5
I0511 04:49:45.793118 30017 net.cpp:323] inception_5a/relu_5x5 -> inception_5a/5x5 (in-place)
I0511 04:49:45.793126 30017 net.cpp:105] Setting up inception_5a/relu_5x5
I0511 04:49:45.793131 30017 net.cpp:112] Top shape: 32 128 7 7 (200704)
I0511 04:49:45.793138 30017 layer_factory.hpp:74] Creating layer inception_5a/pool
I0511 04:49:45.793145 30017 net.cpp:76] Creating Layer inception_5a/pool
I0511 04:49:45.793151 30017 net.cpp:372] inception_5a/pool <- pool4/3x3_s2_pool4/3x3_s2_0_split_3
I0511 04:49:45.793159 30017 net.cpp:334] inception_5a/pool -> inception_5a/pool
I0511 04:49:45.793195 30017 net.cpp:105] Setting up inception_5a/pool
I0511 04:49:45.793207 30017 net.cpp:112] Top shape: 32 832 7 7 (1304576)
I0511 04:49:45.793213 30017 layer_factory.hpp:74] Creating layer inception_5a/pool_proj
I0511 04:49:45.793222 30017 net.cpp:76] Creating Layer inception_5a/pool_proj
I0511 04:49:45.793229 30017 net.cpp:372] inception_5a/pool_proj <- inception_5a/pool
I0511 04:49:45.793239 30017 net.cpp:334] inception_5a/pool_proj -> inception_5a/pool_proj
I0511 04:49:45.793248 30017 net.cpp:105] Setting up inception_5a/pool_proj
I0511 04:49:45.794147 30017 net.cpp:112] Top shape: 32 128 7 7 (200704)
I0511 04:49:45.794162 30017 layer_factory.hpp:74] Creating layer inception_5a/relu_pool_proj
I0511 04:49:45.794170 30017 net.cpp:76] Creating Layer inception_5a/relu_pool_proj
I0511 04:49:45.794176 30017 net.cpp:372] inception_5a/relu_pool_proj <- inception_5a/pool_proj
I0511 04:49:45.794186 30017 net.cpp:323] inception_5a/relu_pool_proj -> inception_5a/pool_proj (in-place)
I0511 04:49:45.794195 30017 net.cpp:105] Setting up inception_5a/relu_pool_proj
I0511 04:49:45.794200 30017 net.cpp:112] Top shape: 32 128 7 7 (200704)
I0511 04:49:45.794206 30017 layer_factory.hpp:74] Creating layer inception_5a/output
I0511 04:49:45.794214 30017 net.cpp:76] Creating Layer inception_5a/output
I0511 04:49:45.794220 30017 net.cpp:372] inception_5a/output <- inception_5a/1x1
I0511 04:49:45.794226 30017 net.cpp:372] inception_5a/output <- inception_5a/3x3
I0511 04:49:45.794234 30017 net.cpp:372] inception_5a/output <- inception_5a/5x5
I0511 04:49:45.794268 30017 net.cpp:372] inception_5a/output <- inception_5a/pool_proj
I0511 04:49:45.794277 30017 net.cpp:334] inception_5a/output -> inception_5a/output
I0511 04:49:45.794289 30017 net.cpp:105] Setting up inception_5a/output
I0511 04:49:45.794296 30017 net.cpp:112] Top shape: 32 832 7 7 (1304576)
I0511 04:49:45.794302 30017 layer_factory.hpp:74] Creating layer inception_5a/output_inception_5a/output_0_split
I0511 04:49:45.794311 30017 net.cpp:76] Creating Layer inception_5a/output_inception_5a/output_0_split
I0511 04:49:45.794344 30017 net.cpp:372] inception_5a/output_inception_5a/output_0_split <- inception_5a/output
I0511 04:49:45.794353 30017 net.cpp:334] inception_5a/output_inception_5a/output_0_split -> inception_5a/output_inception_5a/output_0_split_0
I0511 04:49:45.794363 30017 net.cpp:334] inception_5a/output_inception_5a/output_0_split -> inception_5a/output_inception_5a/output_0_split_1
I0511 04:49:45.794373 30017 net.cpp:334] inception_5a/output_inception_5a/output_0_split -> inception_5a/output_inception_5a/output_0_split_2
I0511 04:49:45.794383 30017 net.cpp:334] inception_5a/output_inception_5a/output_0_split -> inception_5a/output_inception_5a/output_0_split_3
I0511 04:49:45.794390 30017 net.cpp:105] Setting up inception_5a/output_inception_5a/output_0_split
I0511 04:49:45.794397 30017 net.cpp:112] Top shape: 32 832 7 7 (1304576)
I0511 04:49:45.794402 30017 net.cpp:112] Top shape: 32 832 7 7 (1304576)
I0511 04:49:45.794407 30017 net.cpp:112] Top shape: 32 832 7 7 (1304576)
I0511 04:49:45.794412 30017 net.cpp:112] Top shape: 32 832 7 7 (1304576)
I0511 04:49:45.794417 30017 layer_factory.hpp:74] Creating layer inception_5b/1x1
I0511 04:49:45.794435 30017 net.cpp:76] Creating Layer inception_5b/1x1
I0511 04:49:45.794441 30017 net.cpp:372] inception_5b/1x1 <- inception_5a/output_inception_5a/output_0_split_0
I0511 04:49:45.794451 30017 net.cpp:334] inception_5b/1x1 -> inception_5b/1x1
I0511 04:49:45.794461 30017 net.cpp:105] Setting up inception_5b/1x1
I0511 04:49:45.797314 30017 net.cpp:112] Top shape: 32 384 7 7 (602112)
I0511 04:49:45.797338 30017 layer_factory.hpp:74] Creating layer inception_5b/relu_1x1
I0511 04:49:45.797348 30017 net.cpp:76] Creating Layer inception_5b/relu_1x1
I0511 04:49:45.797355 30017 net.cpp:372] inception_5b/relu_1x1 <- inception_5b/1x1
I0511 04:49:45.797365 30017 net.cpp:323] inception_5b/relu_1x1 -> inception_5b/1x1 (in-place)
I0511 04:49:45.797375 30017 net.cpp:105] Setting up inception_5b/relu_1x1
I0511 04:49:45.797380 30017 net.cpp:112] Top shape: 32 384 7 7 (602112)
I0511 04:49:45.797386 30017 layer_factory.hpp:74] Creating layer inception_5b/3x3_reduce
I0511 04:49:45.797395 30017 net.cpp:76] Creating Layer inception_5b/3x3_reduce
I0511 04:49:45.797401 30017 net.cpp:372] inception_5b/3x3_reduce <- inception_5a/output_inception_5a/output_0_split_1
I0511 04:49:45.797410 30017 net.cpp:334] inception_5b/3x3_reduce -> inception_5b/3x3_reduce
I0511 04:49:45.797420 30017 net.cpp:105] Setting up inception_5b/3x3_reduce
I0511 04:49:45.798760 30017 net.cpp:112] Top shape: 32 192 7 7 (301056)
I0511 04:49:45.798777 30017 layer_factory.hpp:74] Creating layer inception_5b/relu_3x3_reduce
I0511 04:49:45.798786 30017 net.cpp:76] Creating Layer inception_5b/relu_3x3_reduce
I0511 04:49:45.798792 30017 net.cpp:372] inception_5b/relu_3x3_reduce <- inception_5b/3x3_reduce
I0511 04:49:45.798799 30017 net.cpp:323] inception_5b/relu_3x3_reduce -> inception_5b/3x3_reduce (in-place)
I0511 04:49:45.798809 30017 net.cpp:105] Setting up inception_5b/relu_3x3_reduce
I0511 04:49:45.798813 30017 net.cpp:112] Top shape: 32 192 7 7 (301056)
I0511 04:49:45.798820 30017 layer_factory.hpp:74] Creating layer inception_5b/3x3
I0511 04:49:45.798827 30017 net.cpp:76] Creating Layer inception_5b/3x3
I0511 04:49:45.798832 30017 net.cpp:372] inception_5b/3x3 <- inception_5b/3x3_reduce
I0511 04:49:45.798843 30017 net.cpp:334] inception_5b/3x3 -> inception_5b/3x3
I0511 04:49:45.798852 30017 net.cpp:105] Setting up inception_5b/3x3
I0511 04:49:45.804488 30017 net.cpp:112] Top shape: 32 384 7 7 (602112)
I0511 04:49:45.804520 30017 layer_factory.hpp:74] Creating layer inception_5b/relu_3x3
I0511 04:49:45.804533 30017 net.cpp:76] Creating Layer inception_5b/relu_3x3
I0511 04:49:45.805714 30017 net.cpp:372] inception_5b/relu_3x3 <- inception_5b/3x3
I0511 04:49:45.805729 30017 net.cpp:323] inception_5b/relu_3x3 -> inception_5b/3x3 (in-place)
I0511 04:49:45.805740 30017 net.cpp:105] Setting up inception_5b/relu_3x3
I0511 04:49:45.805747 30017 net.cpp:112] Top shape: 32 384 7 7 (602112)
I0511 04:49:45.805752 30017 layer_factory.hpp:74] Creating layer inception_5b/5x5_reduce
I0511 04:49:45.805763 30017 net.cpp:76] Creating Layer inception_5b/5x5_reduce
I0511 04:49:45.805769 30017 net.cpp:372] inception_5b/5x5_reduce <- inception_5a/output_inception_5a/output_0_split_2
I0511 04:49:45.805779 30017 net.cpp:334] inception_5b/5x5_reduce -> inception_5b/5x5_reduce
I0511 04:49:45.805790 30017 net.cpp:105] Setting up inception_5b/5x5_reduce
I0511 04:49:45.806138 30017 net.cpp:112] Top shape: 32 48 7 7 (75264)
I0511 04:49:45.806149 30017 layer_factory.hpp:74] Creating layer inception_5b/relu_5x5_reduce
I0511 04:49:45.806159 30017 net.cpp:76] Creating Layer inception_5b/relu_5x5_reduce
I0511 04:49:45.806164 30017 net.cpp:372] inception_5b/relu_5x5_reduce <- inception_5b/5x5_reduce
I0511 04:49:45.806174 30017 net.cpp:323] inception_5b/relu_5x5_reduce -> inception_5b/5x5_reduce (in-place)
I0511 04:49:45.806182 30017 net.cpp:105] Setting up inception_5b/relu_5x5_reduce
I0511 04:49:45.806188 30017 net.cpp:112] Top shape: 32 48 7 7 (75264)
I0511 04:49:45.806193 30017 layer_factory.hpp:74] Creating layer inception_5b/5x5
I0511 04:49:45.806202 30017 net.cpp:76] Creating Layer inception_5b/5x5
I0511 04:49:45.806207 30017 net.cpp:372] inception_5b/5x5 <- inception_5b/5x5_reduce
I0511 04:49:45.806217 30017 net.cpp:334] inception_5b/5x5 -> inception_5b/5x5
I0511 04:49:45.806226 30017 net.cpp:105] Setting up inception_5b/5x5
I0511 04:49:45.807525 30017 net.cpp:112] Top shape: 32 128 7 7 (200704)
I0511 04:49:45.807543 30017 layer_factory.hpp:74] Creating layer inception_5b/relu_5x5
I0511 04:49:45.807554 30017 net.cpp:76] Creating Layer inception_5b/relu_5x5
I0511 04:49:45.807559 30017 net.cpp:372] inception_5b/relu_5x5 <- inception_5b/5x5
I0511 04:49:45.807567 30017 net.cpp:323] inception_5b/relu_5x5 -> inception_5b/5x5 (in-place)
I0511 04:49:45.807574 30017 net.cpp:105] Setting up inception_5b/relu_5x5
I0511 04:49:45.807580 30017 net.cpp:112] Top shape: 32 128 7 7 (200704)
I0511 04:49:45.807585 30017 layer_factory.hpp:74] Creating layer inception_5b/pool
I0511 04:49:45.807596 30017 net.cpp:76] Creating Layer inception_5b/pool
I0511 04:49:45.807602 30017 net.cpp:372] inception_5b/pool <- inception_5a/output_inception_5a/output_0_split_3
I0511 04:49:45.807610 30017 net.cpp:334] inception_5b/pool -> inception_5b/pool
I0511 04:49:45.807620 30017 net.cpp:105] Setting up inception_5b/pool
I0511 04:49:45.807627 30017 net.cpp:112] Top shape: 32 832 7 7 (1304576)
I0511 04:49:45.807633 30017 layer_factory.hpp:74] Creating layer inception_5b/pool_proj
I0511 04:49:45.807642 30017 net.cpp:76] Creating Layer inception_5b/pool_proj
I0511 04:49:45.807647 30017 net.cpp:372] inception_5b/pool_proj <- inception_5b/pool
I0511 04:49:45.807660 30017 net.cpp:334] inception_5b/pool_proj -> inception_5b/pool_proj
I0511 04:49:45.807670 30017 net.cpp:105] Setting up inception_5b/pool_proj
I0511 04:49:45.808572 30017 net.cpp:112] Top shape: 32 128 7 7 (200704)
I0511 04:49:45.808585 30017 layer_factory.hpp:74] Creating layer inception_5b/relu_pool_proj
I0511 04:49:45.808593 30017 net.cpp:76] Creating Layer inception_5b/relu_pool_proj
I0511 04:49:45.808599 30017 net.cpp:372] inception_5b/relu_pool_proj <- inception_5b/pool_proj
I0511 04:49:45.808607 30017 net.cpp:323] inception_5b/relu_pool_proj -> inception_5b/pool_proj (in-place)
I0511 04:49:45.808614 30017 net.cpp:105] Setting up inception_5b/relu_pool_proj
I0511 04:49:45.808620 30017 net.cpp:112] Top shape: 32 128 7 7 (200704)
I0511 04:49:45.808625 30017 layer_factory.hpp:74] Creating layer inception_5b/output
I0511 04:49:45.808666 30017 net.cpp:76] Creating Layer inception_5b/output
I0511 04:49:45.808673 30017 net.cpp:372] inception_5b/output <- inception_5b/1x1
I0511 04:49:45.808681 30017 net.cpp:372] inception_5b/output <- inception_5b/3x3
I0511 04:49:45.808687 30017 net.cpp:372] inception_5b/output <- inception_5b/5x5
I0511 04:49:45.808693 30017 net.cpp:372] inception_5b/output <- inception_5b/pool_proj
I0511 04:49:45.808701 30017 net.cpp:334] inception_5b/output -> inception_5b/output
I0511 04:49:45.808709 30017 net.cpp:105] Setting up inception_5b/output
I0511 04:49:45.808717 30017 net.cpp:112] Top shape: 32 1024 7 7 (1605632)
I0511 04:49:45.808722 30017 layer_factory.hpp:74] Creating layer pool5/7x7_s1
I0511 04:49:45.808729 30017 net.cpp:76] Creating Layer pool5/7x7_s1
I0511 04:49:45.808735 30017 net.cpp:372] pool5/7x7_s1 <- inception_5b/output
I0511 04:49:45.808745 30017 net.cpp:334] pool5/7x7_s1 -> pool5/7x7_s1
I0511 04:49:45.808754 30017 net.cpp:105] Setting up pool5/7x7_s1
I0511 04:49:45.808760 30017 net.cpp:112] Top shape: 32 1024 1 1 (32768)
I0511 04:49:45.808766 30017 layer_factory.hpp:74] Creating layer pool5/drop_7x7_s1
I0511 04:49:45.808775 30017 net.cpp:76] Creating Layer pool5/drop_7x7_s1
I0511 04:49:45.808780 30017 net.cpp:372] pool5/drop_7x7_s1 <- pool5/7x7_s1
I0511 04:49:45.808787 30017 net.cpp:323] pool5/drop_7x7_s1 -> pool5/7x7_s1 (in-place)
I0511 04:49:45.808795 30017 net.cpp:105] Setting up pool5/drop_7x7_s1
I0511 04:49:45.808801 30017 net.cpp:112] Top shape: 32 1024 1 1 (32768)
I0511 04:49:45.808807 30017 layer_factory.hpp:74] Creating layer loss3/classifier
I0511 04:49:45.808820 30017 net.cpp:76] Creating Layer loss3/classifier
I0511 04:49:45.808825 30017 net.cpp:372] loss3/classifier <- pool5/7x7_s1
I0511 04:49:45.808835 30017 net.cpp:334] loss3/classifier -> loss3/classifier
I0511 04:49:45.808843 30017 net.cpp:105] Setting up loss3/classifier
I0511 04:49:45.808876 30017 net.cpp:112] Top shape: 32 2 1 1 (64)
I0511 04:49:45.808886 30017 layer_factory.hpp:74] Creating layer loss3/classifier_loss3/classifier_0_split
I0511 04:49:45.808893 30017 net.cpp:76] Creating Layer loss3/classifier_loss3/classifier_0_split
I0511 04:49:45.808899 30017 net.cpp:372] loss3/classifier_loss3/classifier_0_split <- loss3/classifier
I0511 04:49:45.808907 30017 net.cpp:334] loss3/classifier_loss3/classifier_0_split -> loss3/classifier_loss3/classifier_0_split_0
I0511 04:49:45.808915 30017 net.cpp:334] loss3/classifier_loss3/classifier_0_split -> loss3/classifier_loss3/classifier_0_split_1
I0511 04:49:45.808923 30017 net.cpp:105] Setting up loss3/classifier_loss3/classifier_0_split
I0511 04:49:45.808930 30017 net.cpp:112] Top shape: 32 2 1 1 (64)
I0511 04:49:45.808935 30017 net.cpp:112] Top shape: 32 2 1 1 (64)
I0511 04:49:45.808940 30017 layer_factory.hpp:74] Creating layer loss3/loss3
I0511 04:49:45.808950 30017 net.cpp:76] Creating Layer loss3/loss3
I0511 04:49:45.808956 30017 net.cpp:372] loss3/loss3 <- loss3/classifier_loss3/classifier_0_split_0
I0511 04:49:45.808964 30017 net.cpp:372] loss3/loss3 <- label_data_1_split_4
I0511 04:49:45.808970 30017 net.cpp:334] loss3/loss3 -> loss3/loss3
I0511 04:49:45.808979 30017 net.cpp:105] Setting up loss3/loss3
I0511 04:49:45.808986 30017 layer_factory.hpp:74] Creating layer loss3/loss3
I0511 04:49:45.809003 30017 net.cpp:112] Top shape: 1 1 1 1 (1)
I0511 04:49:45.809010 30017 net.cpp:118]     with loss weight 1
I0511 04:49:45.809027 30017 layer_factory.hpp:74] Creating layer loss3/top-1
I0511 04:49:45.809036 30017 net.cpp:76] Creating Layer loss3/top-1
I0511 04:49:45.809041 30017 net.cpp:372] loss3/top-1 <- loss3/classifier_loss3/classifier_0_split_1
I0511 04:49:45.809048 30017 net.cpp:372] loss3/top-1 <- label_data_1_split_5
I0511 04:49:45.809058 30017 net.cpp:334] loss3/top-1 -> loss3/top-1
I0511 04:49:45.809067 30017 net.cpp:105] Setting up loss3/top-1
I0511 04:49:45.809073 30017 net.cpp:112] Top shape: 1 1 1 1 (1)
I0511 04:49:45.809078 30017 net.cpp:165] loss3/top-1 does not need backward computation.
I0511 04:49:45.809083 30017 net.cpp:163] loss3/loss3 needs backward computation.
I0511 04:49:45.809098 30017 net.cpp:163] loss3/classifier_loss3/classifier_0_split needs backward computation.
I0511 04:49:45.809103 30017 net.cpp:163] loss3/classifier needs backward computation.
I0511 04:49:45.809109 30017 net.cpp:163] pool5/drop_7x7_s1 needs backward computation.
…
