…
I0509 23:48:16.787197 25723 caffe.cpp:134] Use GPU with device ID 0
I0509 23:48:17.186458 25723 net.cpp:253] The NetState phase (1) differed from the phase (0) specified by a rule in layer data
I0509 23:48:17.187974 25723 net.cpp:42] Initializing net from parameters: 
name: "GoogleNet"
state {
  phase: TEST
}
layer {
  name: "data"
  type: "Data"
  top: "data"
  top: "label"
  include {
    phase: TEST
  }
  transform_param {
    mirror: false
    crop_size: 224
    mean_value: 104
    mean_value: 117
    mean_value: 123
  }
  data_param {
    source: "val_lmdb"
    batch_size: 32
    backend: LMDB
  }
}
layer {
  name: "conv1/7x7_s2"
  type: "Convolution"
  bottom: "data"
  top: "conv1/7x7_s2"
  param {
    lr_mult: 1
    decay_mult: 1
  }
  param {
    lr_mult: 2
    decay_mult: 0
  }
  convolution_param {
    num_output: 64
    pad: 3
    kernel_size: 7
    stride: 2
    weight_filler {
      type: "xavier"
      std: 0.1
    }
    bias_filler {
      type: "constant"
      value: 0.2
    }
  }
}
layer {
  name: "conv1/relu_7x7"
  type: "ReLU"
  bottom: "conv1/7x7_s2"
  top: "conv1/7x7_s2"
}
layer {
  name: "pool1/3x3_s2"
  type: "Pooling"
  bottom: "conv1/7x7_s2"
  top: "pool1/3x3_s2"
  pooling_param {
    pool: MAX
    kernel_size: 3
    stride: 2
  }
}
layer {
  name: "pool1/norm1"
  type: "LRN"
  bottom: "pool1/3x3_s2"
  top: "pool1/norm1"
  lrn_param {
    local_size: 5
    alpha: 0.0001
    beta: 0.75
  }
}
layer {
  name: "conv2/3x3_reduce"
  type: "Convolution"
  bottom: "pool1/norm1"
  top: "conv2/3x3_reduce"
  param {
    lr_mult: 1
    decay_mult: 1
  }
  param {
    lr_mult: 2
    decay_mult: 0
  }
  convolution_param {
    num_output: 64
    kernel_size: 1
    weight_filler {
      type: "xavier"
      std: 0.1
    }
    bias_filler {
      type: "constant"
      value: 0.2
    }
  }
}
layer {
  name: "conv2/relu_3x3_reduce"
  type: "ReLU"
  bottom: "conv2/3x3_reduce"
  top: "conv2/3x3_reduce"
}
layer {
  name: "conv2/3x3"
  type: "Convolution"
  bottom: "conv2/3x3_reduce"
  top: "conv2/3x3"
  param {
    lr_mult: 1
    decay_mult: 1
  }
  param {
    lr_mult: 2
    decay_mult: 0
  }
  convolution_param {
    num_output: 192
    pad: 1
    kernel_size: 3
    weight_filler {
      type: "xavier"
      std: 0.03
    }
    bias_filler {
      type: "constant"
      value: 0.2
    }
  }
}
layer {
  name: "conv2/relu_3x3"
  type: "ReLU"
  bottom: "conv2/3x3"
  top: "conv2/3x3"
}
layer {
  name: "conv2/norm2"
  type: "LRN"
  bottom: "conv2/3x3"
  top: "conv2/norm2"
  lrn_param {
    local_size: 5
    alpha: 0.0001
    beta: 0.75
  }
}
layer {
  name: "pool2/3x3_s2"
  type: "Pooling"
  bottom: "conv2/norm2"
  top: "pool2/3x3_s2"
  pooling_param {
    pool: MAX
    kernel_size: 3
    stride: 2
  }
}
layer {
  name: "inception_3a/1x1"
  type: "Convolution"
  bottom: "pool2/3x3_s2"
  top: "inception_3a/1x1"
  param {
    lr_mult: 1
    decay_mult: 1
  }
  param {
    lr_mult: 2
    decay_mult: 0
  }
  convolution_param {
    num_output: 64
    kernel_size: 1
    weight_filler {
      type: "xavier"
      std: 0.03
    }
    bias_filler {
      type: "constant"
      value: 0.2
    }
  }
}
layer {
  name: "inception_3a/relu_1x1"
  type: "ReLU"
  bottom: "inception_3a/1x1"
  top: "inception_3a/1x1"
}
layer {
  name: "inception_3a/3x3_reduce"
  type: "Convolution"
  bottom: "pool2/3x3_s2"
  top: "inception_3a/3x3_reduce"
  param {
    lr_mult: 1
    decay_mult: 1
  }
  param {
    lr_mult: 2
    decay_mult: 0
  }
  convolution_param {
    num_output: 96
    kernel_size: 1
    weight_filler {
      type: "xavier"
      std: 0.09
    }
    bias_filler {
      type: "constant"
      value: 0.2
    }
  }
}
layer {
  name: "inception_3a/relu_3x3_reduce"
  type: "ReLU"
  bottom: "inception_3a/3x3_reduce"
  top: "inception_3a/3x3_reduce"
}
layer {
  name: "inception_3a/3x3"
  type: "Convolution"
  bottom: "inception_3a/3x3_reduce"
  top: "inception_3a/3x3"
  param {
    lr_mult: 1
    decay_mult: 1
  }
  param {
    lr_mult: 2
    decay_mult: 0
  }
  convolution_param {
    num_output: 128
    pad: 1
    kernel_size: 3
    weight_filler {
      type: "xavier"
      std: 0.03
    }
    bias_filler {
      type: "constant"
      value: 0.2
    }
  }
}
layer {
  name: "inception_3a/relu_3x3"
  type: "ReLU"
  bottom: "inception_3a/3x3"
  top: "inception_3a/3x3"
}
layer {
  name: "inception_3a/5x5_reduce"
  type: "Convolution"
  bottom: "pool2/3x3_s2"
  top: "inception_3a/5x5_reduce"
  param {
    lr_mult: 1
    decay_mult: 1
  }
  param {
    lr_mult: 2
    decay_mult: 0
  }
  convolution_param {
    num_output: 16
    kernel_size: 1
    weight_filler {
      type: "xavier"
      std: 0.2
    }
    bias_filler {
      type: "constant"
      value: 0.2
    }
  }
}
layer {
  name: "inception_3a/relu_5x5_reduce"
  type: "ReLU"
  bottom: "inception_3a/5x5_reduce"
  top: "inception_3a/5x5_reduce"
}
layer {
  name: "inception_3a/5x5"
  type: "Convolution"
  bottom: "inception_3a/5x5_reduce"
  top: "inception_3a/5x5"
  param {
    lr_mult: 1
    decay_mult: 1
  }
  param {
    lr_mult: 2
    decay_mult: 0
  }
  convolution_param {
    num_output: 32
    pad: 2
    kernel_size: 5
    weight_filler {
      type: "xavier"
      std: 0.03
    }
    bias_filler {
      type: "constant"
      value: 0.2
    }
  }
}
layer {
  name: "inception_3a/relu_5x5"
  type: "ReLU"
  bottom: "inception_3a/5x5"
  top: "inception_3a/5x5"
}
layer {
  name: "inception_3a/pool"
  type: "Pooling"
  bottom: "pool2/3x3_s2"
  top: "inception_3a/pool"
  pooling_param {
    pool: MAX
    kernel_size: 3
    stride: 1
    pad: 1
  }
}
layer {
  name: "inception_3a/pool_proj"
  type: "Convolution"
  bottom: "inception_3a/pool"
  top: "inception_3a/pool_proj"
  param {
    lr_mult: 1
    decay_mult: 1
  }
  param {
    lr_mult: 2
    decay_mult: 0
  }
  convolution_param {
    num_output: 32
    kernel_size: 1
    weight_filler {
      type: "xavier"
      std: 0.1
    }
    bias_filler {
      type: "constant"
      value: 0.2
    }
  }
}
layer {
  name: "inception_3a/relu_pool_proj"
  type: "ReLU"
  bottom: "inception_3a/pool_proj"
  top: "inception_3a/pool_proj"
}
layer {
  name: "inception_3a/output"
  type: "Concat"
  bottom: "inception_3a/1x1"
  bottom: "inception_3a/3x3"
  bottom: "inception_3a/5x5"
  bottom: "inception_3a/pool_proj"
  top: "inception_3a/output"
}
layer {
  name: "inception_3b/1x1"
  type: "Convolution"
  bottom: "inception_3a/output"
  top: "inception_3b/1x1"
  param {
    lr_mult: 1
    decay_mult: 1
  }
  param {
    lr_mult: 2
    decay_mult: 0
  }
  convolution_param {
    num_output: 128
    kernel_size: 1
    weight_filler {
      type: "xavier"
      std: 0.03
    }
    bias_filler {
      type: "constant"
      value: 0.2
    }
  }
}
layer {
  name: "inception_3b/relu_1x1"
  type: "ReLU"
  bottom: "inception_3b/1x1"
  top: "inception_3b/1x1"
}
layer {
  name: "inception_3b/3x3_reduce"
  type: "Convolution"
  bottom: "inception_3a/output"
  top: "inception_3b/3x3_reduce"
  param {
    lr_mult: 1
    decay_mult: 1
  }
  param {
    lr_mult: 2
    decay_mult: 0
  }
  convolution_param {
    num_output: 128
    kernel_size: 1
    weight_filler {
      type: "xavier"
      std: 0.09
    }
    bias_filler {
      type: "constant"
      value: 0.2
    }
  }
}
layer {
  name: "inception_3b/relu_3x3_reduce"
  type: "ReLU"
  bottom: "inception_3b/3x3_reduce"
  top: "inception_3b/3x3_reduce"
}
layer {
  name: "inception_3b/3x3"
  type: "Convolution"
  bottom: "inception_3b/3x3_reduce"
  top: "inception_3b/3x3"
  param {
    lr_mult: 1
    decay_mult: 1
  }
  param {
    lr_mult: 2
    decay_mult: 0
  }
  convolution_param {
    num_output: 192
    pad: 1
    kernel_size: 3
    weight_filler {
      type: "xavier"
      std: 0.03
    }
    bias_filler {
      type: "constant"
      value: 0.2
    }
  }
}
layer {
  name: "inception_3b/relu_3x3"
  type: "ReLU"
  bottom: "inception_3b/3x3"
  top: "inception_3b/3x3"
}
layer {
  name: "inception_3b/5x5_reduce"
  type: "Convolution"
  bottom: "inception_3a/output"
  top: "inception_3b/5x5_reduce"
  param {
    lr_mult: 1
    decay_mult: 1
  }
  param {
    lr_mult: 2
    decay_mult: 0
  }
  convolution_param {
    num_output: 32
    kernel_size: 1
    weight_filler {
      type: "xavier"
      std: 0.2
    }
    bias_filler {
      type: "constant"
      value: 0.2
    }
  }
}
layer {
  name: "inception_3b/relu_5x5_reduce"
  type: "ReLU"
  bottom: "inception_3b/5x5_reduce"
  top: "inception_3b/5x5_reduce"
}
layer {
  name: "inception_3b/5x5"
  type: "Convolution"
  bottom: "inception_3b/5x5_reduce"
  top: "inception_3b/5x5"
  param {
    lr_mult: 1
    decay_mult: 1
  }
  param {
    lr_mult: 2
    decay_mult: 0
  }
  convolution_param {
    num_output: 96
    pad: 2
    kernel_size: 5
    weight_filler {
      type: "xavier"
      std: 0.03
    }
    bias_filler {
      type: "constant"
      value: 0.2
    }
  }
}
layer {
  name: "inception_3b/relu_5x5"
  type: "ReLU"
  bottom: "inception_3b/5x5"
  top: "inception_3b/5x5"
}
layer {
  name: "inception_3b/pool"
  type: "Pooling"
  bottom: "inception_3a/output"
  top: "inception_3b/pool"
  pooling_param {
    pool: MAX
    kernel_size: 3
    stride: 1
    pad: 1
  }
}
layer {
  name: "inception_3b/pool_proj"
  type: "Convolution"
  bottom: "inception_3b/pool"
  top: "inception_3b/pool_proj"
  param {
    lr_mult: 1
    decay_mult: 1
  }
  param {
    lr_mult: 2
    decay_mult: 0
  }
  convolution_param {
    num_output: 64
    kernel_size: 1
    weight_filler {
      type: "xavier"
      std: 0.1
    }
    bias_filler {
      type: "constant"
      value: 0.2
    }
  }
}
layer {
  name: "inception_3b/relu_pool_proj"
  type: "ReLU"
  bottom: "inception_3b/pool_proj"
  top: "inception_3b/pool_proj"
}
layer {
  name: "inception_3b/output"
  type: "Concat"
  bottom: "inception_3b/1x1"
  bottom: "inception_3b/3x3"
  bottom: "inception_3b/5x5"
  bottom: "inception_3b/pool_proj"
  top: "inception_3b/output"
}
layer {
  name: "pool3/3x3_s2"
  type: "Pooling"
  bottom: "inception_3b/output"
  top: "pool3/3x3_s2"
  pooling_param {
    pool: MAX
    kernel_size: 3
    stride: 2
  }
}
layer {
  name: "inception_4a/1x1"
  type: "Convolution"
  bottom: "pool3/3x3_s2"
  top: "inception_4a/1x1"
  param {
    lr_mult: 1
    decay_mult: 1
  }
  param {
    lr_mult: 2
    decay_mult: 0
  }
  convolution_param {
    num_output: 192
    kernel_size: 1
    weight_filler {
      type: "xavier"
      std: 0.03
    }
    bias_filler {
      type: "constant"
      value: 0.2
    }
  }
}
layer {
  name: "inception_4a/relu_1x1"
  type: "ReLU"
  bottom: "inception_4a/1x1"
  top: "inception_4a/1x1"
}
layer {
  name: "inception_4a/3x3_reduce"
  type: "Convolution"
  bottom: "pool3/3x3_s2"
  top: "inception_4a/3x3_reduce"
  param {
    lr_mult: 1
    decay_mult: 1
  }
  param {
    lr_mult: 2
    decay_mult: 0
  }
  convolution_param {
    num_output: 96
    kernel_size: 1
    weight_filler {
      type: "xavier"
      std: 0.09
    }
    bias_filler {
      type: "constant"
      value: 0.2
    }
  }
}
layer {
  name: "inception_4a/relu_3x3_reduce"
  type: "ReLU"
  bottom: "inception_4a/3x3_reduce"
  top: "inception_4a/3x3_reduce"
}
layer {
  name: "inception_4a/3x3"
  type: "Convolution"
  bottom: "inception_4a/3x3_reduce"
  top: "inception_4a/3x3"
  param {
    lr_mult: 1
    decay_mult: 1
  }
  param {
    lr_mult: 2
    decay_mult: 0
  }
  convolution_param {
    num_output: 208
    pad: 1
    kernel_size: 3
    weight_filler {
      type: "xavier"
      std: 0.03
    }
    bias_filler {
      type: "constant"
      value: 0.2
    }
  }
}
layer {
  name: "inception_4a/relu_3x3"
  type: "ReLU"
  bottom: "inception_4a/3x3"
  top: "inception_4a/3x3"
}
layer {
  name: "inception_4a/5x5_reduce"
  type: "Convolution"
  bottom: "pool3/3x3_s2"
  top: "inception_4a/5x5_reduce"
  param {
    lr_mult: 1
    decay_mult: 1
  }
  param {
    lr_mult: 2
    decay_mult: 0
  }
  convolution_param {
    num_output: 16
    kernel_size: 1
    weight_filler {
      type: "xavier"
      std: 0.2
    }
    bias_filler {
      type: "constant"
      value: 0.2
    }
  }
}
layer {
  name: "inception_4a/relu_5x5_reduce"
  type: "ReLU"
  bottom: "inception_4a/5x5_reduce"
  top: "inception_4a/5x5_reduce"
}
layer {
  name: "inception_4a/5x5"
  type: "Convolution"
  bottom: "inception_4a/5x5_reduce"
  top: "inception_4a/5x5"
  param {
    lr_mult: 1
    decay_mult: 1
  }
  param {
    lr_mult: 2
    decay_mult: 0
  }
  convolution_param {
    num_output: 48
    pad: 2
    kernel_size: 5
    weight_filler {
      type: "xavier"
      std: 0.03
    }
    bias_filler {
      type: "constant"
      value: 0.2
    }
  }
}
layer {
  name: "inception_4a/relu_5x5"
  type: "ReLU"
  bottom: "inception_4a/5x5"
  top: "inception_4a/5x5"
}
layer {
  name: "inception_4a/pool"
  type: "Pooling"
  bottom: "pool3/3x3_s2"
  top: "inception_4a/pool"
  pooling_param {
    pool: MAX
    kernel_size: 3
    stride: 1
    pad: 1
  }
}
layer {
  name: "inception_4a/pool_proj"
  type: "Convolution"
  bottom: "inception_4a/pool"
  top: "inception_4a/pool_proj"
  param {
    lr_mult: 1
    decay_mult: 1
  }
  param {
    lr_mult: 2
    decay_mult: 0
  }
  convolution_param {
    num_output: 64
    kernel_size: 1
    weight_filler {
      type: "xavier"
      std: 0.1
    }
    bias_filler {
      type: "constant"
      value: 0.2
    }
  }
}
layer {
  name: "inception_4a/relu_pool_proj"
  type: "ReLU"
  bottom: "inception_4a/pool_proj"
  top: "inception_4a/pool_proj"
}
layer {
  name: "inception_4a/output"
  type: "Concat"
  bottom: "inception_4a/1x1"
  bottom: "inception_4a/3x3"
  bottom: "inception_4a/5x5"
  bottom: "inception_4a/pool_proj"
  top: "inception_4a/output"
}
layer {
  name: "loss1/ave_pool"
  type: "Pooling"
  bottom: "inception_4a/output"
  top: "loss1/ave_pool"
  pooling_param {
    pool: AVE
    kernel_size: 5
    stride: 3
  }
}
layer {
  name: "loss1/conv"
  type: "Convolution"
  bottom: "loss1/ave_pool"
  top: "loss1/conv"
  param {
    lr_mult: 1
    decay_mult: 1
  }
  param {
    lr_mult: 2
    decay_mult: 0
  }
  convolution_param {
    num_output: 128
    kernel_size: 1
    weight_filler {
      type: "xavier"
      std: 0.08
    }
    bias_filler {
      type: "constant"
      value: 0.2
    }
  }
}
layer {
  name: "loss1/relu_conv"
  type: "ReLU"
  bottom: "loss1/conv"
  top: "loss1/conv"
}
layer {
  name: "loss1/fc"
  type: "InnerProduct"
  bottom: "loss1/conv"
  top: "loss1/fc"
  param {
    lr_mult: 1
    decay_mult: 1
  }
  param {
    lr_mult: 2
    decay_mult: 0
  }
  inner_product_param {
    num_output: 1024
    weight_filler {
      type: "xavier"
      std: 0.02
    }
    bias_filler {
      type: "constant"
      value: 0.2
    }
  }
}
layer {
  name: "loss1/relu_fc"
  type: "ReLU"
  bottom: "loss1/fc"
  top: "loss1/fc"
}
layer {
  name: "loss1/drop_fc"
  type: "Dropout"
  bottom: "loss1/fc"
  top: "loss1/fc"
  dropout_param {
    dropout_ratio: 0.7
  }
}
layer {
  name: "loss1/classifier"
  type: "InnerProduct"
  bottom: "loss1/fc"
  top: "loss1/classifier"
  param {
    lr_mult: 1
    decay_mult: 1
  }
  param {
    lr_mult: 2
    decay_mult: 0
  }
  inner_product_param {
    num_output: 2
    weight_filler {
      type: "xavier"
      std: 0.0009765625
    }
    bias_filler {
      type: "constant"
      value: 0
    }
  }
}
layer {
  name: "loss1/loss"
  type: "SoftmaxWithLoss"
  bottom: "loss1/classifier"
  bottom: "label"
  top: "loss1/loss1"
  loss_weight: 0.3
}
layer {
  name: "loss1/top-1"
  type: "Accuracy"
  bottom: "loss1/classifier"
  bottom: "label"
  top: "loss1/top-1"
  include {
    phase: TEST
  }
}
layer {
  name: "inception_4b/1x1"
  type: "Convolution"
  bottom: "inception_4a/output"
  top: "inception_4b/1x1"
  param {
    lr_mult: 1
    decay_mult: 1
  }
  param {
    lr_mult: 2
    decay_mult: 0
  }
  convolution_param {
    num_output: 160
    kernel_size: 1
    weight_filler {
      type: "xavier"
      std: 0.03
    }
    bias_filler {
      type: "constant"
      value: 0.2
    }
  }
}
layer {
  name: "inception_4b/relu_1x1"
  type: "ReLU"
  bottom: "inception_4b/1x1"
  top: "inception_4b/1x1"
}
layer {
  name: "inception_4b/3x3_reduce"
  type: "Convolution"
  bottom: "inception_4a/output"
  top: "inception_4b/3x3_reduce"
  param {
    lr_mult: 1
    decay_mult: 1
  }
  param {
    lr_mult: 2
    decay_mult: 0
  }
  convolution_param {
    num_output: 112
    kernel_size: 1
    weight_filler {
      type: "xavier"
      std: 0.09
    }
    bias_filler {
      type: "constant"
      value: 0.2
    }
  }
}
layer {
  name: "inception_4b/relu_3x3_reduce"
  type: "ReLU"
  bottom: "inception_4b/3x3_reduce"
  top: "inception_4b/3x3_reduce"
}
layer {
  name: "inception_4b/3x3"
  type: "Convolution"
  bottom: "inception_4b/3x3_reduce"
  top: "inception_4b/3x3"
  param {
    lr_mult: 1
    decay_mult: 1
  }
  param {
    lr_mult: 2
    decay_mult: 0
  }
  convolution_param {
    num_output: 224
    pad: 1
    kernel_size: 3
    weight_filler {
      type: "xavier"
      std: 0.03
    }
    bias_filler {
      type: "constant"
      value: 0.2
    }
  }
}
layer {
  name: "inception_4b/relu_3x3"
  type: "ReLU"
  bottom: "inception_4b/3x3"
  top: "inception_4b/3x3"
}
layer {
  name: "inception_4b/5x5_reduce"
  type: "Convolution"
  bottom: "inception_4a/output"
  top: "inception_4b/5x5_reduce"
  param {
    lr_mult: 1
    decay_mult: 1
  }
  param {
    lr_mult: 2
    decay_mult: 0
  }
  convolution_param {
    num_output: 24
    kernel_size: 1
    weight_filler {
      type: "xavier"
      std: 0.2
    }
    bias_filler {
      type: "constant"
      value: 0.2
    }
  }
}
layer {
  name: "inception_4b/relu_5x5_reduce"
  type: "ReLU"
  bottom: "inception_4b/5x5_reduce"
  top: "inception_4b/5x5_reduce"
}
layer {
  name: "inception_4b/5x5"
  type: "Convolution"
  bottom: "inception_4b/5x5_reduce"
  top: "inception_4b/5x5"
  param {
    lr_mult: 1
    decay_mult: 1
  }
  param {
    lr_mult: 2
    decay_mult: 0
  }
  convolution_param {
    num_output: 64
    pad: 2
    kernel_size: 5
    weight_filler {
      type: "xavier"
      std: 0.03
    }
    bias_filler {
      type: "constant"
      value: 0.2
    }
  }
}
layer {
  name: "inception_4b/relu_5x5"
  type: "ReLU"
  bottom: "inception_4b/5x5"
  top: "inception_4b/5x5"
}
layer {
  name: "inception_4b/pool"
  type: "Pooling"
  bottom: "inception_4a/output"
  top: "inception_4b/pool"
  pooling_param {
    pool: MAX
    kernel_size: 3
    stride: 1
    pad: 1
  }
}
layer {
  name: "inception_4b/pool_proj"
  type: "Convolution"
  bottom: "inception_4b/pool"
  top: "inception_4b/pool_proj"
  param {
    lr_mult: 1
    decay_mult: 1
  }
  param {
    lr_mult: 2
    decay_mult: 0
  }
  convolution_param {
    num_output: 64
    kernel_size: 1
    weight_filler {
      type: "xavier"
      std: 0.1
    }
    bias_filler {
      type: "constant"
      value: 0.2
    }
  }
}
layer {
  name: "inception_4b/relu_pool_proj"
  type: "ReLU"
  bottom: "inception_4b/pool_proj"
  top: "inception_4b/pool_proj"
}
layer {
  name: "inception_4b/output"
  type: "Concat"
  bottom: "inception_4b/1x1"
  bottom: "inception_4b/3x3"
  bottom: "inception_4b/5x5"
  bottom: "inception_4b/pool_proj"
  top: "inception_4b/output"
}
layer {
  name: "inception_4c/1x1"
  type: "Convolution"
  bottom: "inception_4b/output"
  top: "inception_4c/1x1"
  param {
    lr_mult: 1
    decay_mult: 1
  }
  param {
    lr_mult: 2
    decay_mult: 0
  }
  convolution_param {
    num_output: 128
    kernel_size: 1
    weight_filler {
      type: "xavier"
      std: 0.03
    }
    bias_filler {
      type: "constant"
      value: 0.2
    }
  }
}
layer {
  name: "inception_4c/relu_1x1"
  type: "ReLU"
  bottom: "inception_4c/1x1"
  top: "inception_4c/1x1"
}
layer {
  name: "inception_4c/3x3_reduce"
  type: "Convolution"
  bottom: "inception_4b/output"
  top: "inception_4c/3x3_reduce"
  param {
    lr_mult: 1
    decay_mult: 1
  }
  param {
    lr_mult: 2
    decay_mult: 0
  }
  convolution_param {
    num_output: 128
    kernel_size: 1
    weight_filler {
      type: "xavier"
      std: 0.09
    }
    bias_filler {
      type: "constant"
      value: 0.2
    }
  }
}
layer {
  name: "inception_4c/relu_3x3_reduce"
  type: "ReLU"
  bottom: "inception_4c/3x3_reduce"
  top: "inception_4c/3x3_reduce"
}
layer {
  name: "inception_4c/3x3"
  type: "Convolution"
  bottom: "inception_4c/3x3_reduce"
  top: "inception_4c/3x3"
  param {
    lr_mult: 1
    decay_mult: 1
  }
  param {
    lr_mult: 2
    decay_mult: 0
  }
  convolution_param {
    num_output: 256
    pad: 1
    kernel_size: 3
    weight_filler {
      type: "xavier"
      std: 0.03
    }
    bias_filler {
      type: "constant"
      value: 0.2
    }
  }
}
layer {
  name: "inception_4c/relu_3x3"
  type: "ReLU"
  bottom: "inception_4c/3x3"
  top: "inception_4c/3x3"
}
layer {
  name: "inception_4c/5x5_reduce"
  type: "Convolution"
  bottom: "inception_4b/output"
  top: "inception_4c/5x5_reduce"
  param {
    lr_mult: 1
    decay_mult: 1
  }
  param {
    lr_mult: 2
    decay_mult: 0
  }
  convolution_param {
    num_output: 24
    kernel_size: 1
    weight_filler {
      type: "xavier"
      std: 0.2
    }
    bias_filler {
      type: "constant"
      value: 0.2
    }
  }
}
layer {
  name: "inception_4c/relu_5x5_reduce"
  type: "ReLU"
  bottom: "inception_4c/5x5_reduce"
  top: "inception_4c/5x5_reduce"
}
layer {
  name: "inception_4c/5x5"
  type: "Convolution"
  bottom: "inception_4c/5x5_reduce"
  top: "inception_4c/5x5"
  param {
    lr_mult: 1
    decay_mult: 1
  }
  param {
    lr_mult: 2
    decay_mult: 0
  }
  convolution_param {
    num_output: 64
    pad: 2
    kernel_size: 5
    weight_filler {
      type: "xavier"
      std: 0.03
    }
    bias_filler {
      type: "constant"
      value: 0.2
    }
  }
}
layer {
  name: "inception_4c/relu_5x5"
  type: "ReLU"
  bottom: "inception_4c/5x5"
  top: "inception_4c/5x5"
}
layer {
  name: "inception_4c/pool"
  type: "Pooling"
  bottom: "inception_4b/output"
  top: "inception_4c/pool"
  pooling_param {
    pool: MAX
    kernel_size: 3
    stride: 1
    pad: 1
  }
}
layer {
  name: "inception_4c/pool_proj"
  type: "Convolution"
  bottom: "inception_4c/pool"
  top: "inception_4c/pool_proj"
  param {
    lr_mult: 1
    decay_mult: 1
  }
  param {
    lr_mult: 2
    decay_mult: 0
  }
  convolution_param {
    num_output: 64
    kernel_size: 1
    weight_filler {
      type: "xavier"
      std: 0.1
    }
    bias_filler {
      type: "constant"
      value: 0.2
    }
  }
}
layer {
  name: "inception_4c/relu_pool_proj"
  type: "ReLU"
  bottom: "inception_4c/pool_proj"
  top: "inception_4c/pool_proj"
}
layer {
  name: "inception_4c/output"
  type: "Concat"
  bottom: "inception_4c/1x1"
  bottom: "inception_4c/3x3"
  bottom: "inception_4c/5x5"
  bottom: "inception_4c/pool_proj"
  top: "inception_4c/output"
}
layer {
  name: "inception_4d/1x1"
  type: "Convolution"
  bottom: "inception_4c/output"
  top: "inception_4d/1x1"
  param {
    lr_mult: 1
    decay_mult: 1
  }
  param {
    lr_mult: 2
    decay_mult: 0
  }
  convolution_param {
    num_output: 112
    kernel_size: 1
    weight_filler {
      type: "xavier"
      std: 0.03
    }
    bias_filler {
      type: "constant"
      value: 0.2
    }
  }
}
layer {
  name: "inception_4d/relu_1x1"
  type: "ReLU"
  bottom: "inception_4d/1x1"
  top: "inception_4d/1x1"
}
layer {
  name: "inception_4d/3x3_reduce"
  type: "Convolution"
  bottom: "inception_4c/output"
  top: "inception_4d/3x3_reduce"
  param {
    lr_mult: 1
    decay_mult: 1
  }
  param {
    lr_mult: 2
    decay_mult: 0
  }
  convolution_param {
    num_output: 144
    kernel_size: 1
    weight_filler {
      type: "xavier"
      std: 0.09
    }
    bias_filler {
      type: "constant"
      value: 0.2
    }
  }
}
layer {
  name: "inception_4d/relu_3x3_reduce"
  type: "ReLU"
  bottom: "inception_4d/3x3_reduce"
  top: "inception_4d/3x3_reduce"
}
layer {
  name: "inception_4d/3x3"
  type: "Convolution"
  bottom: "inception_4d/3x3_reduce"
  top: "inception_4d/3x3"
  param {
    lr_mult: 1
    decay_mult: 1
  }
  param {
    lr_mult: 2
    decay_mult: 0
  }
  convolution_param {
    num_output: 288
    pad: 1
    kernel_size: 3
    weight_filler {
      type: "xavier"
      std: 0.03
    }
    bias_filler {
      type: "constant"
      value: 0.2
    }
  }
}
layer {
  name: "inception_4d/relu_3x3"
  type: "ReLU"
  bottom: "inception_4d/3x3"
  top: "inception_4d/3x3"
}
layer {
  name: "inception_4d/5x5_reduce"
  type: "Convolution"
  bottom: "inception_4c/output"
  top: "inception_4d/5x5_reduce"
  param {
    lr_mult: 1
    decay_mult: 1
  }
  param {
    lr_mult: 2
    decay_mult: 0
  }
  convolution_param {
    num_output: 32
    kernel_size: 1
    weight_filler {
      type: "xavier"
      std: 0.2
    }
    bias_filler {
      type: "constant"
      value: 0.2
    }
  }
}
layer {
  name: "inception_4d/relu_5x5_reduce"
  type: "ReLU"
  bottom: "inception_4d/5x5_reduce"
  top: "inception_4d/5x5_reduce"
}
layer {
  name: "inception_4d/5x5"
  type: "Convolution"
  bottom: "inception_4d/5x5_reduce"
  top: "inception_4d/5x5"
  param {
    lr_mult: 1
    decay_mult: 1
  }
  param {
    lr_mult: 2
    decay_mult: 0
  }
  convolution_param {
    num_output: 64
    pad: 2
    kernel_size: 5
    weight_filler {
      type: "xavier"
      std: 0.03
    }
    bias_filler {
      type: "constant"
      value: 0.2
    }
  }
}
layer {
  name: "inception_4d/relu_5x5"
  type: "ReLU"
  bottom: "inception_4d/5x5"
  top: "inception_4d/5x5"
}
layer {
  name: "inception_4d/pool"
  type: "Pooling"
  bottom: "inception_4c/output"
  top: "inception_4d/pool"
  pooling_param {
    pool: MAX
    kernel_size: 3
    stride: 1
    pad: 1
  }
}
layer {
  name: "inception_4d/pool_proj"
  type: "Convolution"
  bottom: "inception_4d/pool"
  top: "inception_4d/pool_proj"
  param {
    lr_mult: 1
    decay_mult: 1
  }
  param {
    lr_mult: 2
    decay_mult: 0
  }
  convolution_param {
    num_output: 64
    kernel_size: 1
    weight_filler {
      type: "xavier"
      std: 0.1
    }
    bias_filler {
      type: "constant"
      value: 0.2
    }
  }
}
layer {
  name: "inception_4d/relu_pool_proj"
  type: "ReLU"
  bottom: "inception_4d/pool_proj"
  top: "inception_4d/pool_proj"
}
layer {
  name: "inception_4d/output"
  type: "Concat"
  bottom: "inception_4d/1x1"
  bottom: "inception_4d/3x3"
  bottom: "inception_4d/5x5"
  bottom: "inception_4d/pool_proj"
  top: "inception_4d/output"
}
layer {
  name: "loss2/ave_pool"
  type: "Pooling"
  bottom: "inception_4d/output"
  top: "loss2/ave_pool"
  pooling_param {
    pool: AVE
    kernel_size: 5
    stride: 3
  }
}
layer {
  name: "loss2/conv"
  type: "Convolution"
  bottom: "loss2/ave_pool"
  top: "loss2/conv"
  param {
    lr_mult: 1
    decay_mult: 1
  }
  param {
    lr_mult: 2
    decay_mult: 0
  }
  convolution_param {
    num_output: 128
    kernel_size: 1
    weight_filler {
      type: "xavier"
      std: 0.08
    }
    bias_filler {
      type: "constant"
      value: 0.2
    }
  }
}
layer {
  name: "loss2/relu_conv"
  type: "ReLU"
  bottom: "loss2/conv"
  top: "loss2/conv"
}
layer {
  name: "loss2/fc"
  type: "InnerProduct"
  bottom: "loss2/conv"
  top: "loss2/fc"
  param {
    lr_mult: 1
    decay_mult: 1
  }
  param {
    lr_mult: 2
    decay_mult: 0
  }
  inner_product_param {
    num_output: 1024
    weight_filler {
      type: "xavier"
      std: 0.02
    }
    bias_filler {
      type: "constant"
      value: 0.2
    }
  }
}
layer {
  name: "loss2/relu_fc"
  type: "ReLU"
  bottom: "loss2/fc"
  top: "loss2/fc"
}
layer {
  name: "loss2/drop_fc"
  type: "Dropout"
  bottom: "loss2/fc"
  top: "loss2/fc"
  dropout_param {
    dropout_ratio: 0.7
  }
}
layer {
  name: "loss2/classifier"
  type: "InnerProduct"
  bottom: "loss2/fc"
  top: "loss2/classifier"
  param {
    lr_mult: 1
    decay_mult: 1
  }
  param {
    lr_mult: 2
    decay_mult: 0
  }
  inner_product_param {
    num_output: 2
    weight_filler {
      type: "xavier"
      std: 0.0009765625
    }
    bias_filler {
      type: "constant"
      value: 0
    }
  }
}
layer {
  name: "loss2/loss"
  type: "SoftmaxWithLoss"
  bottom: "loss2/classifier"
  bottom: "label"
  top: "loss2/loss1"
  loss_weight: 0.3
}
layer {
  name: "loss2/top-1"
  type: "Accuracy"
  bottom: "loss2/classifier"
  bottom: "label"
  top: "loss2/top-1"
  include {
    phase: TEST
  }
}
layer {
  name: "inception_4e/1x1"
  type: "Convolution"
  bottom: "inception_4d/output"
  top: "inception_4e/1x1"
  param {
    lr_mult: 1
    decay_mult: 1
  }
  param {
    lr_mult: 2
    decay_mult: 0
  }
  convolution_param {
    num_output: 256
    kernel_size: 1
    weight_filler {
      type: "xavier"
      std: 0.03
    }
    bias_filler {
      type: "constant"
      value: 0.2
    }
  }
}
layer {
  name: "inception_4e/relu_1x1"
  type: "ReLU"
  bottom: "inception_4e/1x1"
  top: "inception_4e/1x1"
}
layer {
  name: "inception_4e/3x3_reduce"
  type: "Convolution"
  bottom: "inception_4d/output"
  top: "inception_4e/3x3_reduce"
  param {
    lr_mult: 1
    decay_mult: 1
  }
  param {
    lr_mult: 2
    decay_mult: 0
  }
  convolution_param {
    num_output: 160
    kernel_size: 1
    weight_filler {
      type: "xavier"
      std: 0.09
    }
    bias_filler {
      type: "constant"
      value: 0.2
    }
  }
}
layer {
  name: "inception_4e/relu_3x3_reduce"
  type: "ReLU"
  bottom: "inception_4e/3x3_reduce"
  top: "inception_4e/3x3_reduce"
}
layer {
  name: "inception_4e/3x3"
  type: "Convolution"
  bottom: "inception_4e/3x3_reduce"
  top: "inception_4e/3x3"
  param {
    lr_mult: 1
    decay_mult: 1
  }
  param {
    lr_mult: 2
    decay_mult: 0
  }
  convolution_param {
    num_output: 320
    pad: 1
    kernel_size: 3
    weight_filler {
      type: "xavier"
      std: 0.03
    }
    bias_filler {
      type: "constant"
      value: 0.2
    }
  }
}
layer {
  name: "inception_4e/relu_3x3"
  type: "ReLU"
  bottom: "inception_4e/3x3"
  top: "inception_4e/3x3"
}
layer {
  name: "inception_4e/5x5_reduce"
  type: "Convolution"
  bottom: "inception_4d/output"
  top: "inception_4e/5x5_reduce"
  param {
    lr_mult: 1
    decay_mult: 1
  }
  param {
   
I0509 23:48:17.192544 25723 layer_factory.hpp:74] Creating layer data
I0509 23:48:17.192580 25723 net.cpp:76] Creating Layer data
I0509 23:48:17.192592 25723 net.cpp:334] data -> data
I0509 23:48:17.192625 25723 net.cpp:334] data -> label
I0509 23:48:17.192644 25723 net.cpp:105] Setting up data
I0509 23:48:17.192756 25723 db.cpp:34] Opened lmdb val_lmdb
I0509 23:48:17.193068 25723 data_layer.cpp:67] output data size: 32,3,224,224
I0509 23:48:17.199754 25723 net.cpp:112] Top shape: 32 3 224 224 (4816896)
I0509 23:48:17.199787 25723 net.cpp:112] Top shape: 32 1 1 1 (32)
I0509 23:48:17.199800 25723 layer_factory.hpp:74] Creating layer label_data_1_split
I0509 23:48:17.199820 25723 net.cpp:76] Creating Layer label_data_1_split
I0509 23:48:17.199834 25723 net.cpp:372] label_data_1_split <- label
I0509 23:48:17.199867 25723 net.cpp:334] label_data_1_split -> label_data_1_split_0
I0509 23:48:17.199892 25723 net.cpp:334] label_data_1_split -> label_data_1_split_1
I0509 23:48:17.199903 25723 net.cpp:334] label_data_1_split -> label_data_1_split_2
I0509 23:48:17.199913 25723 net.cpp:334] label_data_1_split -> label_data_1_split_3
I0509 23:48:17.199923 25723 net.cpp:334] label_data_1_split -> label_data_1_split_4
I0509 23:48:17.199933 25723 net.cpp:334] label_data_1_split -> label_data_1_split_5
I0509 23:48:17.199946 25723 net.cpp:105] Setting up label_data_1_split
I0509 23:48:17.199962 25723 net.cpp:112] Top shape: 32 1 1 1 (32)
I0509 23:48:17.199970 25723 net.cpp:112] Top shape: 32 1 1 1 (32)
I0509 23:48:17.199975 25723 net.cpp:112] Top shape: 32 1 1 1 (32)
I0509 23:48:17.199980 25723 net.cpp:112] Top shape: 32 1 1 1 (32)
I0509 23:48:17.199985 25723 net.cpp:112] Top shape: 32 1 1 1 (32)
I0509 23:48:17.199990 25723 net.cpp:112] Top shape: 32 1 1 1 (32)
I0509 23:48:17.199995 25723 layer_factory.hpp:74] Creating layer conv1/7x7_s2
I0509 23:48:17.200013 25723 net.cpp:76] Creating Layer conv1/7x7_s2
I0509 23:48:17.200021 25723 net.cpp:372] conv1/7x7_s2 <- data
I0509 23:48:17.200029 25723 net.cpp:334] conv1/7x7_s2 -> conv1/7x7_s2
I0509 23:48:17.200043 25723 net.cpp:105] Setting up conv1/7x7_s2
I0509 23:48:17.200628 25723 net.cpp:112] Top shape: 32 64 112 112 (25690112)
I0509 23:48:17.200650 25723 layer_factory.hpp:74] Creating layer conv1/relu_7x7
I0509 23:48:17.200662 25723 net.cpp:76] Creating Layer conv1/relu_7x7
I0509 23:48:17.200669 25723 net.cpp:372] conv1/relu_7x7 <- conv1/7x7_s2
I0509 23:48:17.200676 25723 net.cpp:323] conv1/relu_7x7 -> conv1/7x7_s2 (in-place)
I0509 23:48:17.200685 25723 net.cpp:105] Setting up conv1/relu_7x7
I0509 23:48:17.200693 25723 net.cpp:112] Top shape: 32 64 112 112 (25690112)
I0509 23:48:17.200700 25723 layer_factory.hpp:74] Creating layer pool1/3x3_s2
I0509 23:48:17.200745 25723 net.cpp:76] Creating Layer pool1/3x3_s2
I0509 23:48:17.200752 25723 net.cpp:372] pool1/3x3_s2 <- conv1/7x7_s2
I0509 23:48:17.200762 25723 net.cpp:334] pool1/3x3_s2 -> pool1/3x3_s2
I0509 23:48:17.200772 25723 net.cpp:105] Setting up pool1/3x3_s2
I0509 23:48:17.200788 25723 net.cpp:112] Top shape: 32 64 56 56 (6422528)
I0509 23:48:17.200800 25723 layer_factory.hpp:74] Creating layer pool1/norm1
I0509 23:48:17.200819 25723 net.cpp:76] Creating Layer pool1/norm1
I0509 23:48:17.200825 25723 net.cpp:372] pool1/norm1 <- pool1/3x3_s2
I0509 23:48:17.200834 25723 net.cpp:334] pool1/norm1 -> pool1/norm1
I0509 23:48:17.200845 25723 net.cpp:105] Setting up pool1/norm1
I0509 23:48:17.200852 25723 net.cpp:112] Top shape: 32 64 56 56 (6422528)
I0509 23:48:17.200858 25723 layer_factory.hpp:74] Creating layer conv2/3x3_reduce
I0509 23:48:17.200867 25723 net.cpp:76] Creating Layer conv2/3x3_reduce
I0509 23:48:17.200873 25723 net.cpp:372] conv2/3x3_reduce <- pool1/norm1
I0509 23:48:17.200882 25723 net.cpp:334] conv2/3x3_reduce -> conv2/3x3_reduce
I0509 23:48:17.200891 25723 net.cpp:105] Setting up conv2/3x3_reduce
I0509 23:48:17.200937 25723 net.cpp:112] Top shape: 32 64 56 56 (6422528)
I0509 23:48:17.200948 25723 layer_factory.hpp:74] Creating layer conv2/relu_3x3_reduce
I0509 23:48:17.200956 25723 net.cpp:76] Creating Layer conv2/relu_3x3_reduce
I0509 23:48:17.200963 25723 net.cpp:372] conv2/relu_3x3_reduce <- conv2/3x3_reduce
I0509 23:48:17.200970 25723 net.cpp:323] conv2/relu_3x3_reduce -> conv2/3x3_reduce (in-place)
I0509 23:48:17.200978 25723 net.cpp:105] Setting up conv2/relu_3x3_reduce
I0509 23:48:17.200986 25723 net.cpp:112] Top shape: 32 64 56 56 (6422528)
I0509 23:48:17.200996 25723 layer_factory.hpp:74] Creating layer conv2/3x3
I0509 23:48:17.201015 25723 net.cpp:76] Creating Layer conv2/3x3
I0509 23:48:17.201028 25723 net.cpp:372] conv2/3x3 <- conv2/3x3_reduce
I0509 23:48:17.201043 25723 net.cpp:334] conv2/3x3 -> conv2/3x3
I0509 23:48:17.201053 25723 net.cpp:105] Setting up conv2/3x3
I0509 23:48:17.202029 25723 net.cpp:112] Top shape: 32 192 56 56 (19267584)
I0509 23:48:17.202056 25723 layer_factory.hpp:74] Creating layer conv2/relu_3x3
I0509 23:48:17.202067 25723 net.cpp:76] Creating Layer conv2/relu_3x3
I0509 23:48:17.202074 25723 net.cpp:372] conv2/relu_3x3 <- conv2/3x3
I0509 23:48:17.202085 25723 net.cpp:323] conv2/relu_3x3 -> conv2/3x3 (in-place)
I0509 23:48:17.202093 25723 net.cpp:105] Setting up conv2/relu_3x3
I0509 23:48:17.202100 25723 net.cpp:112] Top shape: 32 192 56 56 (19267584)
I0509 23:48:17.202105 25723 layer_factory.hpp:74] Creating layer conv2/norm2
I0509 23:48:17.202113 25723 net.cpp:76] Creating Layer conv2/norm2
I0509 23:48:17.202119 25723 net.cpp:372] conv2/norm2 <- conv2/3x3
I0509 23:48:17.202127 25723 net.cpp:334] conv2/norm2 -> conv2/norm2
I0509 23:48:17.202136 25723 net.cpp:105] Setting up conv2/norm2
I0509 23:48:17.202142 25723 net.cpp:112] Top shape: 32 192 56 56 (19267584)
I0509 23:48:17.202147 25723 layer_factory.hpp:74] Creating layer pool2/3x3_s2
I0509 23:48:17.202160 25723 net.cpp:76] Creating Layer pool2/3x3_s2
I0509 23:48:17.202167 25723 net.cpp:372] pool2/3x3_s2 <- conv2/norm2
I0509 23:48:17.202173 25723 net.cpp:334] pool2/3x3_s2 -> pool2/3x3_s2
I0509 23:48:17.202183 25723 net.cpp:105] Setting up pool2/3x3_s2
I0509 23:48:17.202189 25723 net.cpp:112] Top shape: 32 192 28 28 (4816896)
I0509 23:48:17.202195 25723 layer_factory.hpp:74] Creating layer pool2/3x3_s2_pool2/3x3_s2_0_split
I0509 23:48:17.202205 25723 net.cpp:76] Creating Layer pool2/3x3_s2_pool2/3x3_s2_0_split
I0509 23:48:17.202211 25723 net.cpp:372] pool2/3x3_s2_pool2/3x3_s2_0_split <- pool2/3x3_s2
I0509 23:48:17.202219 25723 net.cpp:334] pool2/3x3_s2_pool2/3x3_s2_0_split -> pool2/3x3_s2_pool2/3x3_s2_0_split_0
I0509 23:48:17.202229 25723 net.cpp:334] pool2/3x3_s2_pool2/3x3_s2_0_split -> pool2/3x3_s2_pool2/3x3_s2_0_split_1
I0509 23:48:17.202253 25723 net.cpp:334] pool2/3x3_s2_pool2/3x3_s2_0_split -> pool2/3x3_s2_pool2/3x3_s2_0_split_2
I0509 23:48:17.202286 25723 net.cpp:334] pool2/3x3_s2_pool2/3x3_s2_0_split -> pool2/3x3_s2_pool2/3x3_s2_0_split_3
I0509 23:48:17.202294 25723 net.cpp:105] Setting up pool2/3x3_s2_pool2/3x3_s2_0_split
I0509 23:48:17.202301 25723 net.cpp:112] Top shape: 32 192 28 28 (4816896)
I0509 23:48:17.202311 25723 net.cpp:112] Top shape: 32 192 28 28 (4816896)
I0509 23:48:17.202316 25723 net.cpp:112] Top shape: 32 192 28 28 (4816896)
I0509 23:48:17.202322 25723 net.cpp:112] Top shape: 32 192 28 28 (4816896)
I0509 23:48:17.202327 25723 layer_factory.hpp:74] Creating layer inception_3a/1x1
I0509 23:48:17.202337 25723 net.cpp:76] Creating Layer inception_3a/1x1
I0509 23:48:17.202343 25723 net.cpp:372] inception_3a/1x1 <- pool2/3x3_s2_pool2/3x3_s2_0_split_0
I0509 23:48:17.202354 25723 net.cpp:334] inception_3a/1x1 -> inception_3a/1x1
I0509 23:48:17.202363 25723 net.cpp:105] Setting up inception_3a/1x1
I0509 23:48:17.202478 25723 net.cpp:112] Top shape: 32 64 28 28 (1605632)
I0509 23:48:17.202491 25723 layer_factory.hpp:74] Creating layer inception_3a/relu_1x1
I0509 23:48:17.202498 25723 net.cpp:76] Creating Layer inception_3a/relu_1x1
I0509 23:48:17.202504 25723 net.cpp:372] inception_3a/relu_1x1 <- inception_3a/1x1
I0509 23:48:17.202512 25723 net.cpp:323] inception_3a/relu_1x1 -> inception_3a/1x1 (in-place)
I0509 23:48:17.202518 25723 net.cpp:105] Setting up inception_3a/relu_1x1
I0509 23:48:17.202524 25723 net.cpp:112] Top shape: 32 64 28 28 (1605632)
I0509 23:48:17.202529 25723 layer_factory.hpp:74] Creating layer inception_3a/3x3_reduce
I0509 23:48:17.202540 25723 net.cpp:76] Creating Layer inception_3a/3x3_reduce
I0509 23:48:17.202548 25723 net.cpp:372] inception_3a/3x3_reduce <- pool2/3x3_s2_pool2/3x3_s2_0_split_1
I0509 23:48:17.202558 25723 net.cpp:334] inception_3a/3x3_reduce -> inception_3a/3x3_reduce
I0509 23:48:17.202568 25723 net.cpp:105] Setting up inception_3a/3x3_reduce
I0509 23:48:17.202956 25723 net.cpp:112] Top shape: 32 96 28 28 (2408448)
I0509 23:48:17.202991 25723 layer_factory.hpp:74] Creating layer inception_3a/relu_3x3_reduce
I0509 23:48:17.203011 25723 net.cpp:76] Creating Layer inception_3a/relu_3x3_reduce
I0509 23:48:17.203023 25723 net.cpp:372] inception_3a/relu_3x3_reduce <- inception_3a/3x3_reduce
I0509 23:48:17.203037 25723 net.cpp:323] inception_3a/relu_3x3_reduce -> inception_3a/3x3_reduce (in-place)
I0509 23:48:17.203052 25723 net.cpp:105] Setting up inception_3a/relu_3x3_reduce
I0509 23:48:17.203063 25723 net.cpp:112] Top shape: 32 96 28 28 (2408448)
I0509 23:48:17.203073 25723 layer_factory.hpp:74] Creating layer inception_3a/3x3
I0509 23:48:17.203094 25723 net.cpp:76] Creating Layer inception_3a/3x3
I0509 23:48:17.203107 25723 net.cpp:372] inception_3a/3x3 <- inception_3a/3x3_reduce
I0509 23:48:17.203126 25723 net.cpp:334] inception_3a/3x3 -> inception_3a/3x3
I0509 23:48:17.203145 25723 net.cpp:105] Setting up inception_3a/3x3
I0509 23:48:17.204968 25723 net.cpp:112] Top shape: 32 128 28 28 (3211264)
I0509 23:48:17.204993 25723 layer_factory.hpp:74] Creating layer inception_3a/relu_3x3
I0509 23:48:17.205003 25723 net.cpp:76] Creating Layer inception_3a/relu_3x3
I0509 23:48:17.205009 25723 net.cpp:372] inception_3a/relu_3x3 <- inception_3a/3x3
I0509 23:48:17.205018 25723 net.cpp:323] inception_3a/relu_3x3 -> inception_3a/3x3 (in-place)
I0509 23:48:17.205025 25723 net.cpp:105] Setting up inception_3a/relu_3x3
I0509 23:48:17.205031 25723 net.cpp:112] Top shape: 32 128 28 28 (3211264)
I0509 23:48:17.205037 25723 layer_factory.hpp:74] Creating layer inception_3a/5x5_reduce
I0509 23:48:17.205049 25723 net.cpp:76] Creating Layer inception_3a/5x5_reduce
I0509 23:48:17.205055 25723 net.cpp:372] inception_3a/5x5_reduce <- pool2/3x3_s2_pool2/3x3_s2_0_split_2
I0509 23:48:17.205063 25723 net.cpp:334] inception_3a/5x5_reduce -> inception_3a/5x5_reduce
I0509 23:48:17.205072 25723 net.cpp:105] Setting up inception_3a/5x5_reduce
I0509 23:48:17.205116 25723 net.cpp:112] Top shape: 32 16 28 28 (401408)
I0509 23:48:17.205126 25723 layer_factory.hpp:74] Creating layer inception_3a/relu_5x5_reduce
I0509 23:48:17.205135 25723 net.cpp:76] Creating Layer inception_3a/relu_5x5_reduce
I0509 23:48:17.205168 25723 net.cpp:372] inception_3a/relu_5x5_reduce <- inception_3a/5x5_reduce
I0509 23:48:17.205176 25723 net.cpp:323] inception_3a/relu_5x5_reduce -> inception_3a/5x5_reduce (in-place)
I0509 23:48:17.205184 25723 net.cpp:105] Setting up inception_3a/relu_5x5_reduce
I0509 23:48:17.205190 25723 net.cpp:112] Top shape: 32 16 28 28 (401408)
I0509 23:48:17.205196 25723 layer_factory.hpp:74] Creating layer inception_3a/5x5
I0509 23:48:17.205204 25723 net.cpp:76] Creating Layer inception_3a/5x5
I0509 23:48:17.205210 25723 net.cpp:372] inception_3a/5x5 <- inception_3a/5x5_reduce
I0509 23:48:17.205221 25723 net.cpp:334] inception_3a/5x5 -> inception_3a/5x5
I0509 23:48:17.205248 25723 net.cpp:105] Setting up inception_3a/5x5
I0509 23:48:17.205449 25723 net.cpp:112] Top shape: 32 32 28 28 (802816)
I0509 23:48:17.205478 25723 layer_factory.hpp:74] Creating layer inception_3a/relu_5x5
I0509 23:48:17.205489 25723 net.cpp:76] Creating Layer inception_3a/relu_5x5
I0509 23:48:17.205497 25723 net.cpp:372] inception_3a/relu_5x5 <- inception_3a/5x5
I0509 23:48:17.205504 25723 net.cpp:323] inception_3a/relu_5x5 -> inception_3a/5x5 (in-place)
I0509 23:48:17.205513 25723 net.cpp:105] Setting up inception_3a/relu_5x5
I0509 23:48:17.205518 25723 net.cpp:112] Top shape: 32 32 28 28 (802816)
I0509 23:48:17.205523 25723 layer_factory.hpp:74] Creating layer inception_3a/pool
I0509 23:48:17.205536 25723 net.cpp:76] Creating Layer inception_3a/pool
I0509 23:48:17.205543 25723 net.cpp:372] inception_3a/pool <- pool2/3x3_s2_pool2/3x3_s2_0_split_3
I0509 23:48:17.205551 25723 net.cpp:334] inception_3a/pool -> inception_3a/pool
I0509 23:48:17.205560 25723 net.cpp:105] Setting up inception_3a/pool
I0509 23:48:17.205569 25723 net.cpp:112] Top shape: 32 192 28 28 (4816896)
I0509 23:48:17.205574 25723 layer_factory.hpp:74] Creating layer inception_3a/pool_proj
I0509 23:48:17.205586 25723 net.cpp:76] Creating Layer inception_3a/pool_proj
I0509 23:48:17.205592 25723 net.cpp:372] inception_3a/pool_proj <- inception_3a/pool
I0509 23:48:17.205606 25723 net.cpp:334] inception_3a/pool_proj -> inception_3a/pool_proj
I0509 23:48:17.205623 25723 net.cpp:105] Setting up inception_3a/pool_proj
I0509 23:48:17.205771 25723 net.cpp:112] Top shape: 32 32 28 28 (802816)
I0509 23:48:17.205791 25723 layer_factory.hpp:74] Creating layer inception_3a/relu_pool_proj
I0509 23:48:17.205802 25723 net.cpp:76] Creating Layer inception_3a/relu_pool_proj
I0509 23:48:17.205809 25723 net.cpp:372] inception_3a/relu_pool_proj <- inception_3a/pool_proj
I0509 23:48:17.205817 25723 net.cpp:323] inception_3a/relu_pool_proj -> inception_3a/pool_proj (in-place)
I0509 23:48:17.205826 25723 net.cpp:105] Setting up inception_3a/relu_pool_proj
I0509 23:48:17.205831 25723 net.cpp:112] Top shape: 32 32 28 28 (802816)
I0509 23:48:17.205837 25723 layer_factory.hpp:74] Creating layer inception_3a/output
I0509 23:48:17.205847 25723 net.cpp:76] Creating Layer inception_3a/output
I0509 23:48:17.205853 25723 net.cpp:372] inception_3a/output <- inception_3a/1x1
I0509 23:48:17.205860 25723 net.cpp:372] inception_3a/output <- inception_3a/3x3
I0509 23:48:17.205867 25723 net.cpp:372] inception_3a/output <- inception_3a/5x5
I0509 23:48:17.205873 25723 net.cpp:372] inception_3a/output <- inception_3a/pool_proj
I0509 23:48:17.205883 25723 net.cpp:334] inception_3a/output -> inception_3a/output
I0509 23:48:17.205891 25723 net.cpp:105] Setting up inception_3a/output
I0509 23:48:17.205899 25723 net.cpp:112] Top shape: 32 256 28 28 (6422528)
I0509 23:48:17.205905 25723 layer_factory.hpp:74] Creating layer inception_3a/output_inception_3a/output_0_split
I0509 23:48:17.205914 25723 net.cpp:76] Creating Layer inception_3a/output_inception_3a/output_0_split
I0509 23:48:17.205919 25723 net.cpp:372] inception_3a/output_inception_3a/output_0_split <- inception_3a/output
I0509 23:48:17.205926 25723 net.cpp:334] inception_3a/output_inception_3a/output_0_split -> inception_3a/output_inception_3a/output_0_split_0
I0509 23:48:17.205938 25723 net.cpp:334] inception_3a/output_inception_3a/output_0_split -> inception_3a/output_inception_3a/output_0_split_1
I0509 23:48:17.205960 25723 net.cpp:334] inception_3a/output_inception_3a/output_0_split -> inception_3a/output_inception_3a/output_0_split_2
I0509 23:48:17.205971 25723 net.cpp:334] inception_3a/output_inception_3a/output_0_split -> inception_3a/output_inception_3a/output_0_split_3
I0509 23:48:17.205981 25723 net.cpp:105] Setting up inception_3a/output_inception_3a/output_0_split
I0509 23:48:17.205987 25723 net.cpp:112] Top shape: 32 256 28 28 (6422528)
I0509 23:48:17.205993 25723 net.cpp:112] Top shape: 32 256 28 28 (6422528)
I0509 23:48:17.205998 25723 net.cpp:112] Top shape: 32 256 28 28 (6422528)
I0509 23:48:17.206003 25723 net.cpp:112] Top shape: 32 256 28 28 (6422528)
I0509 23:48:17.206008 25723 layer_factory.hpp:74] Creating layer inception_3b/1x1
I0509 23:48:17.206017 25723 net.cpp:76] Creating Layer inception_3b/1x1
I0509 23:48:17.206025 25723 net.cpp:372] inception_3b/1x1 <- inception_3a/output_inception_3a/output_0_split_0
I0509 23:48:17.206034 25723 net.cpp:334] inception_3b/1x1 -> inception_3b/1x1
I0509 23:48:17.206043 25723 net.cpp:105] Setting up inception_3b/1x1
I0509 23:48:17.206372 25723 net.cpp:112] Top shape: 32 128 28 28 (3211264)
I0509 23:48:17.206390 25723 layer_factory.hpp:74] Creating layer inception_3b/relu_1x1
I0509 23:48:17.206399 25723 net.cpp:76] Creating Layer inception_3b/relu_1x1
I0509 23:48:17.206405 25723 net.cpp:372] inception_3b/relu_1x1 <- inception_3b/1x1
I0509 23:48:17.206419 25723 net.cpp:323] inception_3b/relu_1x1 -> inception_3b/1x1 (in-place)
I0509 23:48:17.206429 25723 net.cpp:105] Setting up inception_3b/relu_1x1
I0509 23:48:17.206434 25723 net.cpp:112] Top shape: 32 128 28 28 (3211264)
I0509 23:48:17.206439 25723 layer_factory.hpp:74] Creating layer inception_3b/3x3_reduce
I0509 23:48:17.206449 25723 net.cpp:76] Creating Layer inception_3b/3x3_reduce
I0509 23:48:17.206454 25723 net.cpp:372] inception_3b/3x3_reduce <- inception_3a/output_inception_3a/output_0_split_1
I0509 23:48:17.206470 25723 net.cpp:334] inception_3b/3x3_reduce -> inception_3b/3x3_reduce
I0509 23:48:17.206485 25723 net.cpp:105] Setting up inception_3b/3x3_reduce
I0509 23:48:17.206799 25723 net.cpp:112] Top shape: 32 128 28 28 (3211264)
I0509 23:48:17.206814 25723 layer_factory.hpp:74] Creating layer inception_3b/relu_3x3_reduce
I0509 23:48:17.206821 25723 net.cpp:76] Creating Layer inception_3b/relu_3x3_reduce
I0509 23:48:17.206827 25723 net.cpp:372] inception_3b/relu_3x3_reduce <- inception_3b/3x3_reduce
I0509 23:48:17.206838 25723 net.cpp:323] inception_3b/relu_3x3_reduce -> inception_3b/3x3_reduce (in-place)
I0509 23:48:17.206846 25723 net.cpp:105] Setting up inception_3b/relu_3x3_reduce
I0509 23:48:17.206852 25723 net.cpp:112] Top shape: 32 128 28 28 (3211264)
I0509 23:48:17.206857 25723 layer_factory.hpp:74] Creating layer inception_3b/3x3
I0509 23:48:17.206872 25723 net.cpp:76] Creating Layer inception_3b/3x3
I0509 23:48:17.206879 25723 net.cpp:372] inception_3b/3x3 <- inception_3b/3x3_reduce
I0509 23:48:17.206887 25723 net.cpp:334] inception_3b/3x3 -> inception_3b/3x3
I0509 23:48:17.206897 25723 net.cpp:105] Setting up inception_3b/3x3
I0509 23:48:17.208816 25723 net.cpp:112] Top shape: 32 192 28 28 (4816896)
I0509 23:48:17.208833 25723 layer_factory.hpp:74] Creating layer inception_3b/relu_3x3
I0509 23:48:17.208845 25723 net.cpp:76] Creating Layer inception_3b/relu_3x3
I0509 23:48:17.208853 25723 net.cpp:372] inception_3b/relu_3x3 <- inception_3b/3x3
I0509 23:48:17.208860 25723 net.cpp:323] inception_3b/relu_3x3 -> inception_3b/3x3 (in-place)
I0509 23:48:17.208869 25723 net.cpp:105] Setting up inception_3b/relu_3x3
I0509 23:48:17.208875 25723 net.cpp:112] Top shape: 32 192 28 28 (4816896)
I0509 23:48:17.208881 25723 layer_factory.hpp:74] Creating layer inception_3b/5x5_reduce
I0509 23:48:17.208892 25723 net.cpp:76] Creating Layer inception_3b/5x5_reduce
I0509 23:48:17.208899 25723 net.cpp:372] inception_3b/5x5_reduce <- inception_3a/output_inception_3a/output_0_split_2
I0509 23:48:17.208907 25723 net.cpp:334] inception_3b/5x5_reduce -> inception_3b/5x5_reduce
I0509 23:48:17.208941 25723 net.cpp:105] Setting up inception_3b/5x5_reduce
I0509 23:48:17.209024 25723 net.cpp:112] Top shape: 32 32 28 28 (802816)
I0509 23:48:17.209035 25723 layer_factory.hpp:74] Creating layer inception_3b/relu_5x5_reduce
I0509 23:48:17.209043 25723 net.cpp:76] Creating Layer inception_3b/relu_5x5_reduce
I0509 23:48:17.209048 25723 net.cpp:372] inception_3b/relu_5x5_reduce <- inception_3b/5x5_reduce
I0509 23:48:17.209060 25723 net.cpp:323] inception_3b/relu_5x5_reduce -> inception_3b/5x5_reduce (in-place)
I0509 23:48:17.209069 25723 net.cpp:105] Setting up inception_3b/relu_5x5_reduce
I0509 23:48:17.209074 25723 net.cpp:112] Top shape: 32 32 28 28 (802816)
I0509 23:48:17.209080 25723 layer_factory.hpp:74] Creating layer inception_3b/5x5
I0509 23:48:17.209089 25723 net.cpp:76] Creating Layer inception_3b/5x5
I0509 23:48:17.209095 25723 net.cpp:372] inception_3b/5x5 <- inception_3b/5x5_reduce
I0509 23:48:17.209105 25723 net.cpp:334] inception_3b/5x5 -> inception_3b/5x5
I0509 23:48:17.209113 25723 net.cpp:105] Setting up inception_3b/5x5
I0509 23:48:17.209787 25723 net.cpp:112] Top shape: 32 96 28 28 (2408448)
I0509 23:48:17.209802 25723 layer_factory.hpp:74] Creating layer inception_3b/relu_5x5
I0509 23:48:17.209810 25723 net.cpp:76] Creating Layer inception_3b/relu_5x5
I0509 23:48:17.209816 25723 net.cpp:372] inception_3b/relu_5x5 <- inception_3b/5x5
I0509 23:48:17.209825 25723 net.cpp:323] inception_3b/relu_5x5 -> inception_3b/5x5 (in-place)
I0509 23:48:17.209832 25723 net.cpp:105] Setting up inception_3b/relu_5x5
I0509 23:48:17.209837 25723 net.cpp:112] Top shape: 32 96 28 28 (2408448)
I0509 23:48:17.209842 25723 layer_factory.hpp:74] Creating layer inception_3b/pool
I0509 23:48:17.209853 25723 net.cpp:76] Creating Layer inception_3b/pool
I0509 23:48:17.209859 25723 net.cpp:372] inception_3b/pool <- inception_3a/output_inception_3a/output_0_split_3
I0509 23:48:17.209868 25723 net.cpp:334] inception_3b/pool -> inception_3b/pool
I0509 23:48:17.209877 25723 net.cpp:105] Setting up inception_3b/pool
I0509 23:48:17.209884 25723 net.cpp:112] Top shape: 32 256 28 28 (6422528)
I0509 23:48:17.209890 25723 layer_factory.hpp:74] Creating layer inception_3b/pool_proj
I0509 23:48:17.209902 25723 net.cpp:76] Creating Layer inception_3b/pool_proj
I0509 23:48:17.209908 25723 net.cpp:372] inception_3b/pool_proj <- inception_3b/pool
I0509 23:48:17.209918 25723 net.cpp:334] inception_3b/pool_proj -> inception_3b/pool_proj
I0509 23:48:17.209926 25723 net.cpp:105] Setting up inception_3b/pool_proj
I0509 23:48:17.210074 25723 net.cpp:112] Top shape: 32 64 28 28 (1605632)
I0509 23:48:17.210085 25723 layer_factory.hpp:74] Creating layer inception_3b/relu_pool_proj
I0509 23:48:17.210094 25723 net.cpp:76] Creating Layer inception_3b/relu_pool_proj
I0509 23:48:17.210100 25723 net.cpp:372] inception_3b/relu_pool_proj <- inception_3b/pool_proj
I0509 23:48:17.210111 25723 net.cpp:323] inception_3b/relu_pool_proj -> inception_3b/pool_proj (in-place)
I0509 23:48:17.210119 25723 net.cpp:105] Setting up inception_3b/relu_pool_proj
I0509 23:48:17.210125 25723 net.cpp:112] Top shape: 32 64 28 28 (1605632)
I0509 23:48:17.210130 25723 layer_factory.hpp:74] Creating layer inception_3b/output
I0509 23:48:17.210139 25723 net.cpp:76] Creating Layer inception_3b/output
I0509 23:48:17.210144 25723 net.cpp:372] inception_3b/output <- inception_3b/1x1
I0509 23:48:17.210151 25723 net.cpp:372] inception_3b/output <- inception_3b/3x3
I0509 23:48:17.210157 25723 net.cpp:372] inception_3b/output <- inception_3b/5x5
I0509 23:48:17.210165 25723 net.cpp:372] inception_3b/output <- inception_3b/pool_proj
I0509 23:48:17.210173 25723 net.cpp:334] inception_3b/output -> inception_3b/output
I0509 23:48:17.210182 25723 net.cpp:105] Setting up inception_3b/output
I0509 23:48:17.210191 25723 net.cpp:112] Top shape: 32 480 28 28 (12042240)
I0509 23:48:17.210197 25723 layer_factory.hpp:74] Creating layer pool3/3x3_s2
I0509 23:48:17.210206 25723 net.cpp:76] Creating Layer pool3/3x3_s2
I0509 23:48:17.210240 25723 net.cpp:372] pool3/3x3_s2 <- inception_3b/output
I0509 23:48:17.210279 25723 net.cpp:334] pool3/3x3_s2 -> pool3/3x3_s2
I0509 23:48:17.210291 25723 net.cpp:105] Setting up pool3/3x3_s2
I0509 23:48:17.210299 25723 net.cpp:112] Top shape: 32 480 14 14 (3010560)
I0509 23:48:17.210305 25723 layer_factory.hpp:74] Creating layer pool3/3x3_s2_pool3/3x3_s2_0_split
I0509 23:48:17.210316 25723 net.cpp:76] Creating Layer pool3/3x3_s2_pool3/3x3_s2_0_split
I0509 23:48:17.210322 25723 net.cpp:372] pool3/3x3_s2_pool3/3x3_s2_0_split <- pool3/3x3_s2
I0509 23:48:17.210330 25723 net.cpp:334] pool3/3x3_s2_pool3/3x3_s2_0_split -> pool3/3x3_s2_pool3/3x3_s2_0_split_0
I0509 23:48:17.210338 25723 net.cpp:334] pool3/3x3_s2_pool3/3x3_s2_0_split -> pool3/3x3_s2_pool3/3x3_s2_0_split_1
I0509 23:48:17.210347 25723 net.cpp:334] pool3/3x3_s2_pool3/3x3_s2_0_split -> pool3/3x3_s2_pool3/3x3_s2_0_split_2
I0509 23:48:17.210356 25723 net.cpp:334] pool3/3x3_s2_pool3/3x3_s2_0_split -> pool3/3x3_s2_pool3/3x3_s2_0_split_3
I0509 23:48:17.210364 25723 net.cpp:105] Setting up pool3/3x3_s2_pool3/3x3_s2_0_split
I0509 23:48:17.210371 25723 net.cpp:112] Top shape: 32 480 14 14 (3010560)
I0509 23:48:17.210376 25723 net.cpp:112] Top shape: 32 480 14 14 (3010560)
I0509 23:48:17.210381 25723 net.cpp:112] Top shape: 32 480 14 14 (3010560)
I0509 23:48:17.210386 25723 net.cpp:112] Top shape: 32 480 14 14 (3010560)
I0509 23:48:17.210391 25723 layer_factory.hpp:74] Creating layer inception_4a/1x1
I0509 23:48:17.210402 25723 net.cpp:76] Creating Layer inception_4a/1x1
I0509 23:48:17.210408 25723 net.cpp:372] inception_4a/1x1 <- pool3/3x3_s2_pool3/3x3_s2_0_split_0
I0509 23:48:17.210418 25723 net.cpp:334] inception_4a/1x1 -> inception_4a/1x1
I0509 23:48:17.210427 25723 net.cpp:105] Setting up inception_4a/1x1
I0509 23:48:17.211233 25723 net.cpp:112] Top shape: 32 192 14 14 (1204224)
I0509 23:48:17.211249 25723 layer_factory.hpp:74] Creating layer inception_4a/relu_1x1
I0509 23:48:17.211258 25723 net.cpp:76] Creating Layer inception_4a/relu_1x1
I0509 23:48:17.211264 25723 net.cpp:372] inception_4a/relu_1x1 <- inception_4a/1x1
I0509 23:48:17.211283 25723 net.cpp:323] inception_4a/relu_1x1 -> inception_4a/1x1 (in-place)
I0509 23:48:17.211293 25723 net.cpp:105] Setting up inception_4a/relu_1x1
I0509 23:48:17.211298 25723 net.cpp:112] Top shape: 32 192 14 14 (1204224)
I0509 23:48:17.211304 25723 layer_factory.hpp:74] Creating layer inception_4a/3x3_reduce
I0509 23:48:17.211316 25723 net.cpp:76] Creating Layer inception_4a/3x3_reduce
I0509 23:48:17.211323 25723 net.cpp:372] inception_4a/3x3_reduce <- pool3/3x3_s2_pool3/3x3_s2_0_split_1
I0509 23:48:17.211331 25723 net.cpp:334] inception_4a/3x3_reduce -> inception_4a/3x3_reduce
I0509 23:48:17.211341 25723 net.cpp:105] Setting up inception_4a/3x3_reduce
I0509 23:48:17.211745 25723 net.cpp:112] Top shape: 32 96 14 14 (602112)
I0509 23:48:17.211766 25723 layer_factory.hpp:74] Creating layer inception_4a/relu_3x3_reduce
I0509 23:48:17.211776 25723 net.cpp:76] Creating Layer inception_4a/relu_3x3_reduce
I0509 23:48:17.211784 25723 net.cpp:372] inception_4a/relu_3x3_reduce <- inception_4a/3x3_reduce
I0509 23:48:17.211792 25723 net.cpp:323] inception_4a/relu_3x3_reduce -> inception_4a/3x3_reduce (in-place)
I0509 23:48:17.211801 25723 net.cpp:105] Setting up inception_4a/relu_3x3_reduce
I0509 23:48:17.211805 25723 net.cpp:112] Top shape: 32 96 14 14 (602112)
I0509 23:48:17.211812 25723 layer_factory.hpp:74] Creating layer inception_4a/3x3
I0509 23:48:17.211820 25723 net.cpp:76] Creating Layer inception_4a/3x3
I0509 23:48:17.211825 25723 net.cpp:372] inception_4a/3x3 <- inception_4a/3x3_reduce
I0509 23:48:17.211833 25723 net.cpp:334] inception_4a/3x3 -> inception_4a/3x3
I0509 23:48:17.211841 25723 net.cpp:105] Setting up inception_4a/3x3
I0509 23:48:17.214176 25723 net.cpp:112] Top shape: 32 208 14 14 (1304576)
I0509 23:48:17.214200 25723 layer_factory.hpp:74] Creating layer inception_4a/relu_3x3
I0509 23:48:17.214212 25723 net.cpp:76] Creating Layer inception_4a/relu_3x3
I0509 23:48:17.214221 25723 net.cpp:372] inception_4a/relu_3x3 <- inception_4a/3x3
I0509 23:48:17.214254 25723 net.cpp:323] inception_4a/relu_3x3 -> inception_4a/3x3 (in-place)
I0509 23:48:17.214264 25723 net.cpp:105] Setting up inception_4a/relu_3x3
I0509 23:48:17.214282 25723 net.cpp:112] Top shape: 32 208 14 14 (1304576)
I0509 23:48:17.214290 25723 layer_factory.hpp:74] Creating layer inception_4a/5x5_reduce
I0509 23:48:17.214313 25723 net.cpp:76] Creating Layer inception_4a/5x5_reduce
I0509 23:48:17.214323 25723 net.cpp:372] inception_4a/5x5_reduce <- pool3/3x3_s2_pool3/3x3_s2_0_split_2
I0509 23:48:17.214331 25723 net.cpp:334] inception_4a/5x5_reduce -> inception_4a/5x5_reduce
I0509 23:48:17.214342 25723 net.cpp:105] Setting up inception_4a/5x5_reduce
I0509 23:48:17.214421 25723 net.cpp:112] Top shape: 32 16 14 14 (100352)
I0509 23:48:17.214432 25723 layer_factory.hpp:74] Creating layer inception_4a/relu_5x5_reduce
I0509 23:48:17.214439 25723 net.cpp:76] Creating Layer inception_4a/relu_5x5_reduce
I0509 23:48:17.214445 25723 net.cpp:372] inception_4a/relu_5x5_reduce <- inception_4a/5x5_reduce
I0509 23:48:17.214452 25723 net.cpp:323] inception_4a/relu_5x5_reduce -> inception_4a/5x5_reduce (in-place)
I0509 23:48:17.214460 25723 net.cpp:105] Setting up inception_4a/relu_5x5_reduce
I0509 23:48:17.214465 25723 net.cpp:112] Top shape: 32 16 14 14 (100352)
I0509 23:48:17.214471 25723 layer_factory.hpp:74] Creating layer inception_4a/5x5
I0509 23:48:17.214483 25723 net.cpp:76] Creating Layer inception_4a/5x5
I0509 23:48:17.214488 25723 net.cpp:372] inception_4a/5x5 <- inception_4a/5x5_reduce
I0509 23:48:17.214498 25723 net.cpp:334] inception_4a/5x5 -> inception_4a/5x5
I0509 23:48:17.214507 25723 net.cpp:105] Setting up inception_4a/5x5
I0509 23:48:17.214709 25723 net.cpp:112] Top shape: 32 48 14 14 (301056)
I0509 23:48:17.214723 25723 layer_factory.hpp:74] Creating layer inception_4a/relu_5x5
I0509 23:48:17.214732 25723 net.cpp:76] Creating Layer inception_4a/relu_5x5
I0509 23:48:17.214738 25723 net.cpp:372] inception_4a/relu_5x5 <- inception_4a/5x5
I0509 23:48:17.214745 25723 net.cpp:323] inception_4a/relu_5x5 -> inception_4a/5x5 (in-place)
I0509 23:48:17.214758 25723 net.cpp:105] Setting up inception_4a/relu_5x5
I0509 23:48:17.214768 25723 net.cpp:112] Top shape: 32 48 14 14 (301056)
I0509 23:48:17.214778 25723 layer_factory.hpp:74] Creating layer inception_4a/pool
I0509 23:48:17.214792 25723 net.cpp:76] Creating Layer inception_4a/pool
I0509 23:48:17.214802 25723 net.cpp:372] inception_4a/pool <- pool3/3x3_s2_pool3/3x3_s2_0_split_3
I0509 23:48:17.214818 25723 net.cpp:334] inception_4a/pool -> inception_4a/pool
I0509 23:48:17.214836 25723 net.cpp:105] Setting up inception_4a/pool
I0509 23:48:17.214849 25723 net.cpp:112] Top shape: 32 480 14 14 (3010560)
I0509 23:48:17.214855 25723 layer_factory.hpp:74] Creating layer inception_4a/pool_proj
I0509 23:48:17.214867 25723 net.cpp:76] Creating Layer inception_4a/pool_proj
I0509 23:48:17.214874 25723 net.cpp:372] inception_4a/pool_proj <- inception_4a/pool
I0509 23:48:17.214884 25723 net.cpp:334] inception_4a/pool_proj -> inception_4a/pool_proj
I0509 23:48:17.214892 25723 net.cpp:105] Setting up inception_4a/pool_proj
I0509 23:48:17.215183 25723 net.cpp:112] Top shape: 32 64 14 14 (401408)
I0509 23:48:17.215198 25723 layer_factory.hpp:74] Creating layer inception_4a/relu_pool_proj
I0509 23:48:17.215209 25723 net.cpp:76] Creating Layer inception_4a/relu_pool_proj
I0509 23:48:17.215215 25723 net.cpp:372] inception_4a/relu_pool_proj <- inception_4a/pool_proj
I0509 23:48:17.215224 25723 net.cpp:323] inception_4a/relu_pool_proj -> inception_4a/pool_proj (in-place)
I0509 23:48:17.215235 25723 net.cpp:105] Setting up inception_4a/relu_pool_proj
I0509 23:48:17.215246 25723 net.cpp:112] Top shape: 32 64 14 14 (401408)
I0509 23:48:17.215258 25723 layer_factory.hpp:74] Creating layer inception_4a/output
I0509 23:48:17.215292 25723 net.cpp:76] Creating Layer inception_4a/output
I0509 23:48:17.215303 25723 net.cpp:372] inception_4a/output <- inception_4a/1x1
I0509 23:48:17.215311 25723 net.cpp:372] inception_4a/output <- inception_4a/3x3
I0509 23:48:17.215317 25723 net.cpp:372] inception_4a/output <- inception_4a/5x5
I0509 23:48:17.215339 25723 net.cpp:372] inception_4a/output <- inception_4a/pool_proj
I0509 23:48:17.215348 25723 net.cpp:334] inception_4a/output -> inception_4a/output
I0509 23:48:17.215358 25723 net.cpp:105] Setting up inception_4a/output
I0509 23:48:17.215364 25723 net.cpp:112] Top shape: 32 512 14 14 (3211264)
I0509 23:48:17.215370 25723 layer_factory.hpp:74] Creating layer inception_4a/output_inception_4a/output_0_split
I0509 23:48:17.215384 25723 net.cpp:76] Creating Layer inception_4a/output_inception_4a/output_0_split
I0509 23:48:17.215391 25723 net.cpp:372] inception_4a/output_inception_4a/output_0_split <- inception_4a/output
I0509 23:48:17.215400 25723 net.cpp:334] inception_4a/output_inception_4a/output_0_split -> inception_4a/output_inception_4a/output_0_split_0
I0509 23:48:17.215409 25723 net.cpp:334] inception_4a/output_inception_4a/output_0_split -> inception_4a/output_inception_4a/output_0_split_1
I0509 23:48:17.215420 25723 net.cpp:334] inception_4a/output_inception_4a/output_0_split -> inception_4a/output_inception_4a/output_0_split_2
I0509 23:48:17.215433 25723 net.cpp:334] inception_4a/output_inception_4a/output_0_split -> inception_4a/output_inception_4a/output_0_split_3
I0509 23:48:17.215442 25723 net.cpp:334] inception_4a/output_inception_4a/output_0_split -> inception_4a/output_inception_4a/output_0_split_4
I0509 23:48:17.215451 25723 net.cpp:105] Setting up inception_4a/output_inception_4a/output_0_split
I0509 23:48:17.215457 25723 net.cpp:112] Top shape: 32 512 14 14 (3211264)
I0509 23:48:17.215463 25723 net.cpp:112] Top shape: 32 512 14 14 (3211264)
I0509 23:48:17.215468 25723 net.cpp:112] Top shape: 32 512 14 14 (3211264)
I0509 23:48:17.215473 25723 net.cpp:112] Top shape: 32 512 14 14 (3211264)
I0509 23:48:17.215478 25723 net.cpp:112] Top shape: 32 512 14 14 (3211264)
I0509 23:48:17.215483 25723 layer_factory.hpp:74] Creating layer loss1/ave_pool
I0509 23:48:17.215490 25723 net.cpp:76] Creating Layer loss1/ave_pool
I0509 23:48:17.215497 25723 net.cpp:372] loss1/ave_pool <- inception_4a/output_inception_4a/output_0_split_0
I0509 23:48:17.215504 25723 net.cpp:334] loss1/ave_pool -> loss1/ave_pool
I0509 23:48:17.215512 25723 net.cpp:105] Setting up loss1/ave_pool
I0509 23:48:17.215538 25723 net.cpp:112] Top shape: 32 512 4 4 (262144)
I0509 23:48:17.215546 25723 layer_factory.hpp:74] Creating layer loss1/conv
I0509 23:48:17.215559 25723 net.cpp:76] Creating Layer loss1/conv
I0509 23:48:17.215565 25723 net.cpp:372] loss1/conv <- loss1/ave_pool
I0509 23:48:17.215575 25723 net.cpp:334] loss1/conv -> loss1/conv
I0509 23:48:17.215584 25723 net.cpp:105] Setting up loss1/conv
I0509 23:48:17.216214 25723 net.cpp:112] Top shape: 32 128 4 4 (65536)
I0509 23:48:17.216231 25723 layer_factory.hpp:74] Creating layer loss1/relu_conv
I0509 23:48:17.216239 25723 net.cpp:76] Creating Layer loss1/relu_conv
I0509 23:48:17.216245 25723 net.cpp:372] loss1/relu_conv <- loss1/conv
I0509 23:48:17.216256 25723 net.cpp:323] loss1/relu_conv -> loss1/conv (in-place)
I0509 23:48:17.216264 25723 net.cpp:105] Setting up loss1/relu_conv
I0509 23:48:17.216282 25723 net.cpp:112] Top shape: 32 128 4 4 (65536)
I0509 23:48:17.216289 25723 layer_factory.hpp:74] Creating layer loss1/fc
I0509 23:48:17.216303 25723 net.cpp:76] Creating Layer loss1/fc
I0509 23:48:17.216310 25723 net.cpp:372] loss1/fc <- loss1/conv
I0509 23:48:17.216325 25723 net.cpp:334] loss1/fc -> loss1/fc
I0509 23:48:17.216344 25723 net.cpp:105] Setting up loss1/fc
I0509 23:48:17.234657 25723 net.cpp:112] Top shape: 32 1024 1 1 (32768)
I0509 23:48:17.234700 25723 layer_factory.hpp:74] Creating layer loss1/relu_fc
I0509 23:48:17.234715 25723 net.cpp:76] Creating Layer loss1/relu_fc
I0509 23:48:17.234724 25723 net.cpp:372] loss1/relu_fc <- loss1/fc
I0509 23:48:17.234737 25723 net.cpp:323] loss1/relu_fc -> loss1/fc (in-place)
I0509 23:48:17.234748 25723 net.cpp:105] Setting up loss1/relu_fc
I0509 23:48:17.234755 25723 net.cpp:112] Top shape: 32 1024 1 1 (32768)
I0509 23:48:17.234760 25723 layer_factory.hpp:74] Creating layer loss1/drop_fc
I0509 23:48:17.234823 25723 net.cpp:76] Creating Layer loss1/drop_fc
I0509 23:48:17.234832 25723 net.cpp:372] loss1/drop_fc <- loss1/fc
I0509 23:48:17.234845 25723 net.cpp:323] loss1/drop_fc -> loss1/fc (in-place)
I0509 23:48:17.234858 25723 net.cpp:105] Setting up loss1/drop_fc
I0509 23:48:17.234869 25723 net.cpp:112] Top shape: 32 1024 1 1 (32768)
I0509 23:48:17.234875 25723 layer_factory.hpp:74] Creating layer loss1/classifier
I0509 23:48:17.234885 25723 net.cpp:76] Creating Layer loss1/classifier
I0509 23:48:17.234891 25723 net.cpp:372] loss1/classifier <- loss1/fc
I0509 23:48:17.234902 25723 net.cpp:334] loss1/classifier -> loss1/classifier
I0509 23:48:17.234913 25723 net.cpp:105] Setting up loss1/classifier
I0509 23:48:17.234951 25723 net.cpp:112] Top shape: 32 2 1 1 (64)
I0509 23:48:17.234966 25723 layer_factory.hpp:74] Creating layer loss1/classifier_loss1/classifier_0_split
I0509 23:48:17.234976 25723 net.cpp:76] Creating Layer loss1/classifier_loss1/classifier_0_split
I0509 23:48:17.234982 25723 net.cpp:372] loss1/classifier_loss1/classifier_0_split <- loss1/classifier
I0509 23:48:17.234989 25723 net.cpp:334] loss1/classifier_loss1/classifier_0_split -> loss1/classifier_loss1/classifier_0_split_0
I0509 23:48:17.234998 25723 net.cpp:334] loss1/classifier_loss1/classifier_0_split -> loss1/classifier_loss1/classifier_0_split_1
I0509 23:48:17.235008 25723 net.cpp:105] Setting up loss1/classifier_loss1/classifier_0_split
I0509 23:48:17.235013 25723 net.cpp:112] Top shape: 32 2 1 1 (64)
I0509 23:48:17.235019 25723 net.cpp:112] Top shape: 32 2 1 1 (64)
I0509 23:48:17.235024 25723 layer_factory.hpp:74] Creating layer loss1/loss
I0509 23:48:17.235038 25723 net.cpp:76] Creating Layer loss1/loss
I0509 23:48:17.235044 25723 net.cpp:372] loss1/loss <- loss1/classifier_loss1/classifier_0_split_0
I0509 23:48:17.235051 25723 net.cpp:372] loss1/loss <- label_data_1_split_0
I0509 23:48:17.235059 25723 net.cpp:334] loss1/loss -> loss1/loss1
I0509 23:48:17.235070 25723 net.cpp:105] Setting up loss1/loss
I0509 23:48:17.235081 25723 layer_factory.hpp:74] Creating layer loss1/loss
I0509 23:48:17.235100 25723 net.cpp:112] Top shape: 1 1 1 1 (1)
I0509 23:48:17.235105 25723 net.cpp:118]     with loss weight 0.3
I0509 23:48:17.235139 25723 layer_factory.hpp:74] Creating layer loss1/top-1
I0509 23:48:17.235152 25723 net.cpp:76] Creating Layer loss1/top-1
I0509 23:48:17.235157 25723 net.cpp:372] loss1/top-1 <- loss1/classifier_loss1/classifier_0_split_1
I0509 23:48:17.235164 25723 net.cpp:372] loss1/top-1 <- label_data_1_split_1
I0509 23:48:17.235175 25723 net.cpp:334] loss1/top-1 -> loss1/top-1
I0509 23:48:17.235193 25723 net.cpp:105] Setting up loss1/top-1
I0509 23:48:17.235203 25723 net.cpp:112] Top shape: 1 1 1 1 (1)
I0509 23:48:17.235208 25723 layer_factory.hpp:74] Creating layer inception_4b/1x1
I0509 23:48:17.235219 25723 net.cpp:76] Creating Layer inception_4b/1x1
I0509 23:48:17.235225 25723 net.cpp:372] inception_4b/1x1 <- inception_4a/output_inception_4a/output_0_split_1
I0509 23:48:17.235237 25723 net.cpp:334] inception_4b/1x1 -> inception_4b/1x1
I0509 23:48:17.235247 25723 net.cpp:105] Setting up inception_4b/1x1
I0509 23:48:17.235954 25723 net.cpp:112] Top shape: 32 160 14 14 (1003520)
I0509 23:48:17.235968 25723 layer_factory.hpp:74] Creating layer inception_4b/relu_1x1
I0509 23:48:17.235976 25723 net.cpp:76] Creating Layer inception_4b/relu_1x1
I0509 23:48:17.235982 25723 net.cpp:372] inception_4b/relu_1x1 <- inception_4b/1x1
I0509 23:48:17.235991 25723 net.cpp:323] inception_4b/relu_1x1 -> inception_4b/1x1 (in-place)
I0509 23:48:17.235998 25723 net.cpp:105] Setting up inception_4b/relu_1x1
I0509 23:48:17.236003 25723 net.cpp:112] Top shape: 32 160 14 14 (1003520)
I0509 23:48:17.236012 25723 layer_factory.hpp:74] Creating layer inception_4b/3x3_reduce
I0509 23:48:17.236023 25723 net.cpp:76] Creating Layer inception_4b/3x3_reduce
I0509 23:48:17.236029 25723 net.cpp:372] inception_4b/3x3_reduce <- inception_4a/output_inception_4a/output_0_split_2
I0509 23:48:17.236038 25723 net.cpp:334] inception_4b/3x3_reduce -> inception_4b/3x3_reduce
I0509 23:48:17.236062 25723 net.cpp:105] Setting up inception_4b/3x3_reduce
I0509 23:48:17.236578 25723 net.cpp:112] Top shape: 32 112 14 14 (702464)
I0509 23:48:17.236593 25723 layer_factory.hpp:74] Creating layer inception_4b/relu_3x3_reduce
I0509 23:48:17.236600 25723 net.cpp:76] Creating Layer inception_4b/relu_3x3_reduce
I0509 23:48:17.236606 25723 net.cpp:372] inception_4b/relu_3x3_reduce <- inception_4b/3x3_reduce
I0509 23:48:17.236616 25723 net.cpp:323] inception_4b/relu_3x3_reduce -> inception_4b/3x3_reduce (in-place)
I0509 23:48:17.236625 25723 net.cpp:105] Setting up inception_4b/relu_3x3_reduce
I0509 23:48:17.236631 25723 net.cpp:112] Top shape: 32 112 14 14 (702464)
I0509 23:48:17.236636 25723 layer_factory.hpp:74] Creating layer inception_4b/3x3
I0509 23:48:17.236645 25723 net.cpp:76] Creating Layer inception_4b/3x3
I0509 23:48:17.236650 25723 net.cpp:372] inception_4b/3x3 <- inception_4b/3x3_reduce
I0509 23:48:17.236660 25723 net.cpp:334] inception_4b/3x3 -> inception_4b/3x3
I0509 23:48:17.236670 25723 net.cpp:105] Setting up inception_4b/3x3
I0509 23:48:17.238605 25723 net.cpp:112] Top shape: 32 224 14 14 (1404928)
I0509 23:48:17.238623 25723 layer_factory.hpp:74] Creating layer inception_4b/relu_3x3
I0509 23:48:17.238632 25723 net.cpp:76] Creating Layer inception_4b/relu_3x3
I0509 23:48:17.238639 25723 net.cpp:372] inception_4b/relu_3x3 <- inception_4b/3x3
I0509 23:48:17.238656 25723 net.cpp:323] inception_4b/relu_3x3 -> inception_4b/3x3 (in-place)
I0509 23:48:17.238664 25723 net.cpp:105] Setting up inception_4b/relu_3x3
I0509 23:48:17.238670 25723 net.cpp:112] Top shape: 32 224 14 14 (1404928)
I0509 23:48:17.238677 25723 layer_factory.hpp:74] Creating layer inception_4b/5x5_reduce
I0509 23:48:17.238685 25723 net.cpp:76] Creating Layer inception_4b/5x5_reduce
I0509 23:48:17.238716 25723 net.cpp:372] inception_4b/5x5_reduce <- inception_4a/output_inception_4a/output_0_split_3
I0509 23:48:17.238729 25723 net.cpp:334] inception_4b/5x5_reduce -> inception_4b/5x5_reduce
I0509 23:48:17.238739 25723 net.cpp:105] Setting up inception_4b/5x5_reduce
I0509 23:48:17.238854 25723 net.cpp:112] Top shape: 32 24 14 14 (150528)
I0509 23:48:17.238865 25723 layer_factory.hpp:74] Creating layer inception_4b/relu_5x5_reduce
I0509 23:48:17.238875 25723 net.cpp:76] Creating Layer inception_4b/relu_5x5_reduce
I0509 23:48:17.238881 25723 net.cpp:372] inception_4b/relu_5x5_reduce <- inception_4b/5x5_reduce
I0509 23:48:17.238888 25723 net.cpp:323] inception_4b/relu_5x5_reduce -> inception_4b/5x5_reduce (in-place)
I0509 23:48:17.238896 25723 net.cpp:105] Setting up inception_4b/relu_5x5_reduce
I0509 23:48:17.238901 25723 net.cpp:112] Top shape: 32 24 14 14 (150528)
I0509 23:48:17.238906 25723 layer_factory.hpp:74] Creating layer inception_4b/5x5
I0509 23:48:17.238917 25723 net.cpp:76] Creating Layer inception_4b/5x5
I0509 23:48:17.238924 25723 net.cpp:372] inception_4b/5x5 <- inception_4b/5x5_reduce
I0509 23:48:17.238930 25723 net.cpp:334] inception_4b/5x5 -> inception_4b/5x5
I0509 23:48:17.238940 25723 net.cpp:105] Setting up inception_4b/5x5
I0509 23:48:17.239284 25723 net.cpp:112] Top shape: 32 64 14 14 (401408)
I0509 23:48:17.239300 25723 layer_factory.hpp:74] Creating layer inception_4b/relu_5x5
I0509 23:48:17.239307 25723 net.cpp:76] Creating Layer inception_4b/relu_5x5
I0509 23:48:17.239313 25723 net.cpp:372] inception_4b/relu_5x5 <- inception_4b/5x5
I0509 23:48:17.239320 25723 net.cpp:323] inception_4b/relu_5x5 -> inception_4b/5x5 (in-place)
I0509 23:48:17.239327 25723 net.cpp:105] Setting up inception_4b/relu_5x5
I0509 23:48:17.239333 25723 net.cpp:112] Top shape: 32 64 14 14 (401408)
I0509 23:48:17.239338 25723 layer_factory.hpp:74] Creating layer inception_4b/pool
I0509 23:48:17.239349 25723 net.cpp:76] Creating Layer inception_4b/pool
I0509 23:48:17.239356 25723 net.cpp:372] inception_4b/pool <- inception_4a/output_inception_4a/output_0_split_4
I0509 23:48:17.239364 25723 net.cpp:334] inception_4b/pool -> inception_4b/pool
I0509 23:48:17.239372 25723 net.cpp:105] Setting up inception_4b/pool
I0509 23:48:17.239400 25723 net.cpp:112] Top shape: 32 512 14 14 (3211264)
I0509 23:48:17.239408 25723 layer_factory.hpp:74] Creating layer inception_4b/pool_proj
I0509 23:48:17.239419 25723 net.cpp:76] Creating Layer inception_4b/pool_proj
I0509 23:48:17.239425 25723 net.cpp:372] inception_4b/pool_proj <- inception_4b/pool
I0509 23:48:17.239434 25723 net.cpp:334] inception_4b/pool_proj -> inception_4b/pool_proj
I0509 23:48:17.239444 25723 net.cpp:105] Setting up inception_4b/pool_proj
I0509 23:48:17.239728 25723 net.cpp:112] Top shape: 32 64 14 14 (401408)
I0509 23:48:17.239742 25723 layer_factory.hpp:74] Creating layer inception_4b/relu_pool_proj
I0509 23:48:17.239753 25723 net.cpp:76] Creating Layer inception_4b/relu_pool_proj
I0509 23:48:17.239759 25723 net.cpp:372] inception_4b/relu_pool_proj <- inception_4b/pool_proj
I0509 23:48:17.239766 25723 net.cpp:323] inception_4b/relu_pool_proj -> inception_4b/pool_proj (in-place)
I0509 23:48:17.239773 25723 net.cpp:105] Setting up inception_4b/relu_pool_proj
I0509 23:48:17.239779 25723 net.cpp:112] Top shape: 32 64 14 14 (401408)
I0509 23:48:17.239785 25723 layer_factory.hpp:74] Creating layer inception_4b/output
I0509 23:48:17.239794 25723 net.cpp:76] Creating Layer inception_4b/output
I0509 23:48:17.239799 25723 net.cpp:372] inception_4b/output <- inception_4b/1x1
I0509 23:48:17.239804 25723 net.cpp:372] inception_4b/output <- inception_4b/3x3
I0509 23:48:17.239811 25723 net.cpp:372] inception_4b/output <- inception_4b/5x5
I0509 23:48:17.239817 25723 net.cpp:372] inception_4b/output <- inception_4b/pool_proj
I0509 23:48:17.239825 25723 net.cpp:334] inception_4b/output -> inception_4b/output
I0509 23:48:17.239832 25723 net.cpp:105] Setting up inception_4b/output
I0509 23:48:17.239840 25723 net.cpp:112] Top shape: 32 512 14 14 (3211264)
I0509 23:48:17.239845 25723 layer_factory.hpp:74] Creating layer inception_4b/output_inception_4b/output_0_split
I0509 23:48:17.239855 25723 net.cpp:76] Creating Layer inception_4b/output_inception_4b/output_0_split
I0509 23:48:17.239861 25723 net.cpp:372] inception_4b/output_inception_4b/output_0_split <- inception_4b/output
I0509 23:48:17.240627 25723 net.cpp:334] inception_4b/output_inception_4b/output_0_split -> inception_4b/output_inception_4b/output_0_split_0
I0509 23:48:17.240645 25723 net.cpp:334] inception_4b/output_inception_4b/output_0_split -> inception_4b/output_inception_4b/output_0_split_1
I0509 23:48:17.240661 25723 net.cpp:334] inception_4b/output_inception_4b/output_0_split -> inception_4b/output_inception_4b/output_0_split_2
I0509 23:48:17.240677 25723 net.cpp:334] inception_4b/output_inception_4b/output_0_split -> inception_4b/output_inception_4b/output_0_split_3
I0509 23:48:17.240694 25723 net.cpp:105] Setting up inception_4b/output_inception_4b/output_0_split
I0509 23:48:17.240706 25723 net.cpp:112] Top shape: 32 512 14 14 (3211264)
I0509 23:48:17.240715 25723 net.cpp:112] Top shape: 32 512 14 14 (3211264)
I0509 23:48:17.240725 25723 net.cpp:112] Top shape: 32 512 14 14 (3211264)
I0509 23:48:17.240732 25723 net.cpp:112] Top shape: 32 512 14 14 (3211264)
I0509 23:48:17.240741 25723 layer_factory.hpp:74] Creating layer inception_4c/1x1
I0509 23:48:17.240756 25723 net.cpp:76] Creating Layer inception_4c/1x1
I0509 23:48:17.240764 25723 net.cpp:372] inception_4c/1x1 <- inception_4b/output_inception_4b/output_0_split_0
I0509 23:48:17.240782 25723 net.cpp:334] inception_4c/1x1 -> inception_4c/1x1
I0509 23:48:17.240798 25723 net.cpp:105] Setting up inception_4c/1x1
I0509 23:48:17.241621 25723 net.cpp:112] Top shape: 32 128 14 14 (802816)
I0509 23:48:17.241647 25723 layer_factory.hpp:74] Creating layer inception_4c/relu_1x1
I0509 23:48:17.241664 25723 net.cpp:76] Creating Layer inception_4c/relu_1x1
I0509 23:48:17.241672 25723 net.cpp:372] inception_4c/relu_1x1 <- inception_4c/1x1
I0509 23:48:17.241679 25723 net.cpp:323] inception_4c/relu_1x1 -> inception_4c/1x1 (in-place)
I0509 23:48:17.241688 25723 net.cpp:105] Setting up inception_4c/relu_1x1
I0509 23:48:17.241693 25723 net.cpp:112] Top shape: 32 128 14 14 (802816)
I0509 23:48:17.241714 25723 layer_factory.hpp:74] Creating layer inception_4c/3x3_reduce
I0509 23:48:17.241726 25723 net.cpp:76] Creating Layer inception_4c/3x3_reduce
I0509 23:48:17.241734 25723 net.cpp:372] inception_4c/3x3_reduce <- inception_4b/output_inception_4b/output_0_split_1
I0509 23:48:17.241742 25723 net.cpp:334] inception_4c/3x3_reduce -> inception_4c/3x3_reduce
I0509 23:48:17.241751 25723 net.cpp:105] Setting up inception_4c/3x3_reduce
I0509 23:48:17.242318 25723 net.cpp:112] Top shape: 32 128 14 14 (802816)
I0509 23:48:17.242332 25723 layer_factory.hpp:74] Creating layer inception_4c/relu_3x3_reduce
I0509 23:48:17.242341 25723 net.cpp:76] Creating Layer inception_4c/relu_3x3_reduce
I0509 23:48:17.242347 25723 net.cpp:372] inception_4c/relu_3x3_reduce <- inception_4c/3x3_reduce
I0509 23:48:17.242357 25723 net.cpp:323] inception_4c/relu_3x3_reduce -> inception_4c/3x3_reduce (in-place)
I0509 23:48:17.242364 25723 net.cpp:105] Setting up inception_4c/relu_3x3_reduce
I0509 23:48:17.242369 25723 net.cpp:112] Top shape: 32 128 14 14 (802816)
I0509 23:48:17.242375 25723 layer_factory.hpp:74] Creating layer inception_4c/3x3
I0509 23:48:17.242383 25723 net.cpp:76] Creating Layer inception_4c/3x3
I0509 23:48:17.242389 25723 net.cpp:372] inception_4c/3x3 <- inception_4c/3x3_reduce
I0509 23:48:17.242399 25723 net.cpp:334] inception_4c/3x3 -> inception_4c/3x3
I0509 23:48:17.242408 25723 net.cpp:105] Setting up inception_4c/3x3
I0509 23:48:17.244863 25723 net.cpp:112] Top shape: 32 256 14 14 (1605632)
I0509 23:48:17.244895 25723 layer_factory.hpp:74] Creating layer inception_4c/relu_3x3
I0509 23:48:17.244906 25723 net.cpp:76] Creating Layer inception_4c/relu_3x3
I0509 23:48:17.244912 25723 net.cpp:372] inception_4c/relu_3x3 <- inception_4c/3x3
I0509 23:48:17.244920 25723 net.cpp:323] inception_4c/relu_3x3 -> inception_4c/3x3 (in-place)
I0509 23:48:17.244928 25723 net.cpp:105] Setting up inception_4c/relu_3x3
I0509 23:48:17.244933 25723 net.cpp:112] Top shape: 32 256 14 14 (1605632)
I0509 23:48:17.244940 25723 layer_factory.hpp:74] Creating layer inception_4c/5x5_reduce
I0509 23:48:17.244951 25723 net.cpp:76] Creating Layer inception_4c/5x5_reduce
I0509 23:48:17.244956 25723 net.cpp:372] inception_4c/5x5_reduce <- inception_4b/output_inception_4b/output_0_split_2
I0509 23:48:17.244966 25723 net.cpp:334] inception_4c/5x5_reduce -> inception_4c/5x5_reduce
I0509 23:48:17.244973 25723 net.cpp:105] Setting up inception_4c/5x5_reduce
I0509 23:48:17.245098 25723 net.cpp:112] Top shape: 32 24 14 14 (150528)
I0509 23:48:17.245110 25723 layer_factory.hpp:74] Creating layer inception_4c/relu_5x5_reduce
I0509 23:48:17.245118 25723 net.cpp:76] Creating Layer inception_4c/relu_5x5_reduce
I0509 23:48:17.245123 25723 net.cpp:372] inception_4c/relu_5x5_reduce <- inception_4c/5x5_reduce
I0509 23:48:17.245131 25723 net.cpp:323] inception_4c/relu_5x5_reduce -> inception_4c/5x5_reduce (in-place)
I0509 23:48:17.245138 25723 net.cpp:105] Setting up inception_4c/relu_5x5_reduce
I0509 23:48:17.245143 25723 net.cpp:112] Top shape: 32 24 14 14 (150528)
I0509 23:48:17.245149 25723 layer_factory.hpp:74] Creating layer inception_4c/5x5
I0509 23:48:17.245160 25723 net.cpp:76] Creating Layer inception_4c/5x5
I0509 23:48:17.245167 25723 net.cpp:372] inception_4c/5x5 <- inception_4c/5x5_reduce
I0509 23:48:17.245174 25723 net.cpp:334] inception_4c/5x5 -> inception_4c/5x5
I0509 23:48:17.245182 25723 net.cpp:105] Setting up inception_4c/5x5
I0509 23:48:17.245533 25723 net.cpp:112] Top shape: 32 64 14 14 (401408)
I0509 23:48:17.245546 25723 layer_factory.hpp:74] Creating layer inception_4c/relu_5x5
I0509 23:48:17.245554 25723 net.cpp:76] Creating Layer inception_4c/relu_5x5
I0509 23:48:17.245560 25723 net.cpp:372] inception_4c/relu_5x5 <- inception_4c/5x5
I0509 23:48:17.245570 25723 net.cpp:323] inception_4c/relu_5x5 -> inception_4c/5x5 (in-place)
I0509 23:48:17.245579 25723 net.cpp:105] Setting up inception_4c/relu_5x5
I0509 23:48:17.245584 25723 net.cpp:112] Top shape: 32 64 14 14 (401408)
I0509 23:48:17.245589 25723 layer_factory.hpp:74] Creating layer inception_4c/pool
I0509 23:48:17.245615 25723 net.cpp:76] Creating Layer inception_4c/pool
I0509 23:48:17.245621 25723 net.cpp:372] inception_4c/pool <- inception_4b/output_inception_4b/output_0_split_3
I0509 23:48:17.245633 25723 net.cpp:334] inception_4c/pool -> inception_4c/pool
I0509 23:48:17.245642 25723 net.cpp:105] Setting up inception_4c/pool
I0509 23:48:17.245650 25723 net.cpp:112] Top shape: 32 512 14 14 (3211264)
I0509 23:48:17.245656 25723 layer_factory.hpp:74] Creating layer inception_4c/pool_proj
I0509 23:48:17.245664 25723 net.cpp:76] Creating Layer inception_4c/pool_proj
I0509 23:48:17.245671 25723 net.cpp:372] inception_4c/pool_proj <- inception_4c/pool
I0509 23:48:17.245682 25723 net.cpp:334] inception_4c/pool_proj -> inception_4c/pool_proj
I0509 23:48:17.245690 25723 net.cpp:105] Setting up inception_4c/pool_proj
I0509 23:48:17.245972 25723 net.cpp:112] Top shape: 32 64 14 14 (401408)
I0509 23:48:17.245986 25723 layer_factory.hpp:74] Creating layer inception_4c/relu_pool_proj
I0509 23:48:17.245995 25723 net.cpp:76] Creating Layer inception_4c/relu_pool_proj
I0509 23:48:17.246001 25723 net.cpp:372] inception_4c/relu_pool_proj <- inception_4c/pool_proj
I0509 23:48:17.246008 25723 net.cpp:323] inception_4c/relu_pool_proj -> inception_4c/pool_proj (in-place)
I0509 23:48:17.246016 25723 net.cpp:105] Setting up inception_4c/relu_pool_proj
I0509 23:48:17.246021 25723 net.cpp:112] Top shape: 32 64 14 14 (401408)
I0509 23:48:17.246026 25723 layer_factory.hpp:74] Creating layer inception_4c/output
I0509 23:48:17.246034 25723 net.cpp:76] Creating Layer inception_4c/output
I0509 23:48:17.246040 25723 net.cpp:372] inception_4c/output <- inception_4c/1x1
I0509 23:48:17.246047 25723 net.cpp:372] inception_4c/output <- inception_4c/3x3
I0509 23:48:17.246052 25723 net.cpp:372] inception_4c/output <- inception_4c/5x5
I0509 23:48:17.246058 25723 net.cpp:372] inception_4c/output <- inception_4c/pool_proj
I0509 23:48:17.246068 25723 net.cpp:334] inception_4c/output -> inception_4c/output
I0509 23:48:17.246076 25723 net.cpp:105] Setting up inception_4c/output
I0509 23:48:17.246829 25723 net.cpp:112] Top shape: 32 512 14 14 (3211264)
I0509 23:48:17.246839 25723 layer_factory.hpp:74] Creating layer inception_4c/output_inception_4c/output_0_split
I0509 23:48:17.246846 25723 net.cpp:76] Creating Layer inception_4c/output_inception_4c/output_0_split
I0509 23:48:17.246852 25723 net.cpp:372] inception_4c/output_inception_4c/output_0_split <- inception_4c/output
I0509 23:48:17.246861 25723 net.cpp:334] inception_4c/output_inception_4c/output_0_split -> inception_4c/output_inception_4c/output_0_split_0
I0509 23:48:17.246873 25723 net.cpp:334] inception_4c/output_inception_4c/output_0_split -> inception_4c/output_inception_4c/output_0_split_1
I0509 23:48:17.246883 25723 net.cpp:334] inception_4c/output_inception_4c/output_0_split -> inception_4c/output_inception_4c/output_0_split_2
I0509 23:48:17.246892 25723 net.cpp:334] inception_4c/output_inception_4c/output_0_split -> inception_4c/output_inception_4c/output_0_split_3
I0509 23:48:17.246901 25723 net.cpp:105] Setting up inception_4c/output_inception_4c/output_0_split
I0509 23:48:17.246907 25723 net.cpp:112] Top shape: 32 512 14 14 (3211264)
I0509 23:48:17.246912 25723 net.cpp:112] Top shape: 32 512 14 14 (3211264)
I0509 23:48:17.246918 25723 net.cpp:112] Top shape: 32 512 14 14 (3211264)
I0509 23:48:17.246923 25723 net.cpp:112] Top shape: 32 512 14 14 (3211264)
I0509 23:48:17.246928 25723 layer_factory.hpp:74] Creating layer inception_4d/1x1
I0509 23:48:17.246937 25723 net.cpp:76] Creating Layer inception_4d/1x1
I0509 23:48:17.246942 25723 net.cpp:372] inception_4d/1x1 <- inception_4c/output_inception_4c/output_0_split_0
I0509 23:48:17.246953 25723 net.cpp:334] inception_4d/1x1 -> inception_4d/1x1
I0509 23:48:17.246963 25723 net.cpp:105] Setting up inception_4d/1x1
I0509 23:48:17.247467 25723 net.cpp:112] Top shape: 32 112 14 14 (702464)
I0509 23:48:17.247483 25723 layer_factory.hpp:74] Creating layer inception_4d/relu_1x1
I0509 23:48:17.247490 25723 net.cpp:76] Creating Layer inception_4d/relu_1x1
I0509 23:48:17.247509 25723 net.cpp:372] inception_4d/relu_1x1 <- inception_4d/1x1
I0509 23:48:17.247517 25723 net.cpp:323] inception_4d/relu_1x1 -> inception_4d/1x1 (in-place)
I0509 23:48:17.247529 25723 net.cpp:105] Setting up inception_4d/relu_1x1
I0509 23:48:17.247534 25723 net.cpp:112] Top shape: 32 112 14 14 (702464)
I0509 23:48:17.247540 25723 layer_factory.hpp:74] Creating layer inception_4d/3x3_reduce
I0509 23:48:17.247551 25723 net.cpp:76] Creating Layer inception_4d/3x3_reduce
I0509 23:48:17.247558 25723 net.cpp:372] inception_4d/3x3_reduce <- inception_4c/output_inception_4c/output_0_split_1
I0509 23:48:17.247568 25723 net.cpp:334] inception_4d/3x3_reduce -> inception_4d/3x3_reduce
I0509 23:48:17.247577 25723 net.cpp:105] Setting up inception_4d/3x3_reduce
I0509 23:48:17.248194 25723 net.cpp:112] Top shape: 32 144 14 14 (903168)
I0509 23:48:17.248208 25723 layer_factory.hpp:74] Creating layer inception_4d/relu_3x3_reduce
I0509 23:48:17.248219 25723 net.cpp:76] Creating Layer inception_4d/relu_3x3_reduce
I0509 23:48:17.248225 25723 net.cpp:372] inception_4d/relu_3x3_reduce <- inception_4d/3x3_reduce
I0509 23:48:17.248232 25723 net.cpp:323] inception_4d/relu_3x3_reduce -> inception_4d/3x3_reduce (in-place)
I0509 23:48:17.248240 25723 net.cpp:105] Setting up inception_4d/relu_3x3_reduce
I0509 23:48:17.248245 25723 net.cpp:112] Top shape: 32 144 14 14 (903168)
I0509 23:48:17.248251 25723 layer_factory.hpp:74] Creating layer inception_4d/3x3
I0509 23:48:17.248261 25723 net.cpp:76] Creating Layer inception_4d/3x3
I0509 23:48:17.248267 25723 net.cpp:372] inception_4d/3x3 <- inception_4d/3x3_reduce
I0509 23:48:17.248288 25723 net.cpp:334] inception_4d/3x3 -> inception_4d/3x3
I0509 23:48:17.248297 25723 net.cpp:105] Setting up inception_4d/3x3
I0509 23:48:17.251399 25723 net.cpp:112] Top shape: 32 288 14 14 (1806336)
I0509 23:48:17.251420 25723 layer_factory.hpp:74] Creating layer inception_4d/relu_3x3
I0509 23:48:17.251431 25723 net.cpp:76] Creating Layer inception_4d/relu_3x3
I0509 23:48:17.251438 25723 net.cpp:372] inception_4d/relu_3x3 <- inception_4d/3x3
I0509 23:48:17.251446 25723 net.cpp:323] inception_4d/relu_3x3 -> inception_4d/3x3 (in-place)
I0509 23:48:17.251454 25723 net.cpp:105] Setting up inception_4d/relu_3x3
I0509 23:48:17.251459 25723 net.cpp:112] Top shape: 32 288 14 14 (1806336)
I0509 23:48:17.251464 25723 layer_factory.hpp:74] Creating layer inception_4d/5x5_reduce
I0509 23:48:17.251476 25723 net.cpp:76] Creating Layer inception_4d/5x5_reduce
I0509 23:48:17.251482 25723 net.cpp:372] inception_4d/5x5_reduce <- inception_4c/output_inception_4c/output_0_split_2
I0509 23:48:17.251490 25723 net.cpp:334] inception_4d/5x5_reduce -> inception_4d/5x5_reduce
I0509 23:48:17.251498 25723 net.cpp:105] Setting up inception_4d/5x5_reduce
I0509 23:48:17.251643 25723 net.cpp:112] Top shape: 32 32 14 14 (200704)
I0509 23:48:17.251657 25723 layer_factory.hpp:74] Creating layer inception_4d/relu_5x5_reduce
I0509 23:48:17.251665 25723 net.cpp:76] Creating Layer inception_4d/relu_5x5_reduce
I0509 23:48:17.251672 25723 net.cpp:372] inception_4d/relu_5x5_reduce <- inception_4d/5x5_reduce
I0509 23:48:17.251680 25723 net.cpp:323] inception_4d/relu_5x5_reduce -> inception_4d/5x5_reduce (in-place)
I0509 23:48:17.251688 25723 net.cpp:105] Setting up inception_4d/relu_5x5_reduce
I0509 23:48:17.251694 25723 net.cpp:112] Top shape: 32 32 14 14 (200704)
I0509 23:48:17.251699 25723 layer_factory.hpp:74] Creating layer inception_4d/5x5
I0509 23:48:17.251708 25723 net.cpp:76] Creating Layer inception_4d/5x5
I0509 23:48:17.251713 25723 net.cpp:372] inception_4d/5x5 <- inception_4d/5x5_reduce
I0509 23:48:17.251721 25723 net.cpp:334] inception_4d/5x5 -> inception_4d/5x5
I0509 23:48:17.251731 25723 net.cpp:105] Setting up inception_4d/5x5
I0509 23:48:17.252173 25723 net.cpp:112] Top shape: 32 64 14 14 (401408)
I0509 23:48:17.252188 25723 layer_factory.hpp:74] Creating layer inception_4d/relu_5x5
I0509 23:48:17.252197 25723 net.cpp:76] Creating Layer inception_4d/relu_5x5
I0509 23:48:17.252202 25723 net.cpp:372] inception_4d/relu_5x5 <- inception_4d/5x5
I0509 23:48:17.252228 25723 net.cpp:323] inception_4d/relu_5x5 -> inception_4d/5x5 (in-place)
I0509 23:48:17.252236 25723 net.cpp:105] Setting up inception_4d/relu_5x5
I0509 23:48:17.252243 25723 net.cpp:112] Top shape: 32 64 14 14 (401408)
I0509 23:48:17.252248 25723 layer_factory.hpp:74] Creating layer inception_4d/pool
I0509 23:48:17.252256 25723 net.cpp:76] Creating Layer inception_4d/pool
I0509 23:48:17.252262 25723 net.cpp:372] inception_4d/pool <- inception_4c/output_inception_4c/output_0_split_3
I0509 23:48:17.252287 25723 net.cpp:334] inception_4d/pool -> inception_4d/pool
I0509 23:48:17.252298 25723 net.cpp:105] Setting up inception_4d/pool
I0509 23:48:17.252306 25723 net.cpp:112] Top shape: 32 512 14 14 (3211264)
I0509 23:48:17.252312 25723 layer_factory.hpp:74] Creating layer inception_4d/pool_proj
I0509 23:48:17.252321 25723 net.cpp:76] Creating Layer inception_4d/pool_proj
I0509 23:48:17.252327 25723 net.cpp:372] inception_4d/pool_proj <- inception_4d/pool
I0509 23:48:17.252337 25723 net.cpp:334] inception_4d/pool_proj -> inception_4d/pool_proj
I0509 23:48:17.252347 25723 net.cpp:105] Setting up inception_4d/pool_proj
I0509 23:48:17.252629 25723 net.cpp:112] Top shape: 32 64 14 14 (401408)
I0509 23:48:17.252640 25723 layer_factory.hpp:74] Creating layer inception_4d/relu_pool_proj
I0509 23:48:17.252648 25723 net.cpp:76] Creating Layer inception_4d/relu_pool_proj
I0509 23:48:17.252655 25723 net.cpp:372] inception_4d/relu_pool_proj <- inception_4d/pool_proj
I0509 23:48:17.252662 25723 net.cpp:323] inception_4d/relu_pool_proj -> inception_4d/pool_proj (in-place)
I0509 23:48:17.252670 25723 net.cpp:105] Setting up inception_4d/relu_pool_proj
I0509 23:48:17.252676 25723 net.cpp:112] Top shape: 32 64 14 14 (401408)
I0509 23:48:17.252681 25723 layer_factory.hpp:74] Creating layer inception_4d/output
I0509 23:48:17.252692 25723 net.cpp:76] Creating Layer inception_4d/output
I0509 23:48:17.252698 25723 net.cpp:372] inception_4d/output <- inception_4d/1x1
I0509 23:48:17.252707 25723 net.cpp:372] inception_4d/output <- inception_4d/3x3
I0509 23:48:17.252714 25723 net.cpp:372] inception_4d/output <- inception_4d/5x5
I0509 23:48:17.252720 25723 net.cpp:372] inception_4d/output <- inception_4d/pool_proj
I0509 23:48:17.252727 25723 net.cpp:334] inception_4d/output -> inception_4d/output
I0509 23:48:17.252735 25723 net.cpp:105] Setting up inception_4d/output
I0509 23:48:17.252743 25723 net.cpp:112] Top shape: 32 528 14 14 (3311616)
I0509 23:48:17.252748 25723 layer_factory.hpp:74] Creating layer inception_4d/output_inception_4d/output_0_split
I0509 23:48:17.252755 25723 net.cpp:76] Creating Layer inception_4d/output_inception_4d/output_0_split
I0509 23:48:17.252761 25723 net.cpp:372] inception_4d/output_inception_4d/output_0_split <- inception_4d/output
I0509 23:48:17.252769 25723 net.cpp:334] inception_4d/output_inception_4d/output_0_split -> inception_4d/output_inception_4d/output_0_split_0
I0509 23:48:17.252784 25723 net.cpp:334] inception_4d/output_inception_4d/output_0_split -> inception_4d/output_inception_4d/output_0_split_1
I0509 23:48:17.252794 25723 net.cpp:334] inception_4d/output_inception_4d/output_0_split -> inception_4d/output_inception_4d/output_0_split_2
I0509 23:48:17.252802 25723 net.cpp:334] inception_4d/output_inception_4d/output_0_split -> inception_4d/output_inception_4d/output_0_split_3
I0509 23:48:17.252811 25723 net.cpp:334] inception_4d/output_inception_4d/output_0_split -> inception_4d/output_inception_4d/output_0_split_4
I0509 23:48:17.252820 25723 net.cpp:105] Setting up inception_4d/output_inception_4d/output_0_split
I0509 23:48:17.252826 25723 net.cpp:112] Top shape: 32 528 14 14 (3311616)
I0509 23:48:17.252831 25723 net.cpp:112] Top shape: 32 528 14 14 (3311616)
I0509 23:48:17.252836 25723 net.cpp:112] Top shape: 32 528 14 14 (3311616)
I0509 23:48:17.252841 25723 net.cpp:112] Top shape: 32 528 14 14 (3311616)
I0509 23:48:17.252846 25723 net.cpp:112] Top shape: 32 528 14 14 (3311616)
I0509 23:48:17.252852 25723 layer_factory.hpp:74] Creating layer loss2/ave_pool
I0509 23:48:17.252874 25723 net.cpp:76] Creating Layer loss2/ave_pool
I0509 23:48:17.252882 25723 net.cpp:372] loss2/ave_pool <- inception_4d/output_inception_4d/output_0_split_0
I0509 23:48:17.252890 25723 net.cpp:334] loss2/ave_pool -> loss2/ave_pool
I0509 23:48:17.252898 25723 net.cpp:105] Setting up loss2/ave_pool
I0509 23:48:17.252924 25723 net.cpp:112] Top shape: 32 528 4 4 (270336)
I0509 23:48:17.252933 25723 layer_factory.hpp:74] Creating layer loss2/conv
I0509 23:48:17.252946 25723 net.cpp:76] Creating Layer loss2/conv
I0509 23:48:17.252954 25723 net.cpp:372] loss2/conv <- loss2/ave_pool
I0509 23:48:17.252961 25723 net.cpp:334] loss2/conv -> loss2/conv
I0509 23:48:17.252970 25723 net.cpp:105] Setting up loss2/conv
I0509 23:48:17.253546 25723 net.cpp:112] Top shape: 32 128 4 4 (65536)
I0509 23:48:17.253561 25723 layer_factory.hpp:74] Creating layer loss2/relu_conv
I0509 23:48:17.253568 25723 net.cpp:76] Creating Layer loss2/relu_conv
I0509 23:48:17.253574 25723 net.cpp:372] loss2/relu_conv <- loss2/conv
I0509 23:48:17.253582 25723 net.cpp:323] loss2/relu_conv -> loss2/conv (in-place)
I0509 23:48:17.253588 25723 net.cpp:105] Setting up loss2/relu_conv
I0509 23:48:17.253594 25723 net.cpp:112] Top shape: 32 128 4 4 (65536)
I0509 23:48:17.253600 25723 layer_factory.hpp:74] Creating layer loss2/fc
I0509 23:48:17.253612 25723 net.cpp:76] Creating Layer loss2/fc
I0509 23:48:17.253618 25723 net.cpp:372] loss2/fc <- loss2/conv
I0509 23:48:17.253625 25723 net.cpp:334] loss2/fc -> loss2/fc
I0509 23:48:17.253634 25723 net.cpp:105] Setting up loss2/fc
I0509 23:48:17.270963 25723 net.cpp:112] Top shape: 32 1024 1 1 (32768)
I0509 23:48:17.271008 25723 layer_factory.hpp:74] Creating layer loss2/relu_fc
I0509 23:48:17.271021 25723 net.cpp:76] Creating Layer loss2/relu_fc
I0509 23:48:17.271030 25723 net.cpp:372] loss2/relu_fc <- loss2/fc
I0509 23:48:17.271039 25723 net.cpp:323] loss2/relu_fc -> loss2/fc (in-place)
I0509 23:48:17.271050 25723 net.cpp:105] Setting up loss2/relu_fc
I0509 23:48:17.271056 25723 net.cpp:112] Top shape: 32 1024 1 1 (32768)
I0509 23:48:17.271062 25723 layer_factory.hpp:74] Creating layer loss2/drop_fc
I0509 23:48:17.271071 25723 net.cpp:76] Creating Layer loss2/drop_fc
I0509 23:48:17.271077 25723 net.cpp:372] loss2/drop_fc <- loss2/fc
I0509 23:48:17.271086 25723 net.cpp:323] loss2/drop_fc -> loss2/fc (in-place)
I0509 23:48:17.271095 25723 net.cpp:105] Setting up loss2/drop_fc
I0509 23:48:17.271101 25723 net.cpp:112] Top shape: 32 1024 1 1 (32768)
I0509 23:48:17.271107 25723 layer_factory.hpp:74] Creating layer loss2/classifier
I0509 23:48:17.271117 25723 net.cpp:76] Creating Layer loss2/classifier
I0509 23:48:17.271122 25723 net.cpp:372] loss2/classifier <- loss2/fc
I0509 23:48:17.271134 25723 net.cpp:334] loss2/classifier -> loss2/classifier
I0509 23:48:17.271145 25723 net.cpp:105] Setting up loss2/classifier
I0509 23:48:17.271178 25723 net.cpp:112] Top shape: 32 2 1 1 (64)
I0509 23:48:17.271188 25723 layer_factory.hpp:74] Creating layer loss2/classifier_loss2/classifier_0_split
I0509 23:48:17.271196 25723 net.cpp:76] Creating Layer loss2/classifier_loss2/classifier_0_split
I0509 23:48:17.271203 25723 net.cpp:372] loss2/classifier_loss2/classifier_0_split <- loss2/classifier
I0509 23:48:17.271211 25723 net.cpp:334] loss2/classifier_loss2/classifier_0_split -> loss2/classifier_loss2/classifier_0_split_0
I0509 23:48:17.271221 25723 net.cpp:334] loss2/classifier_loss2/classifier_0_split -> loss2/classifier_loss2/classifier_0_split_1
I0509 23:48:17.271230 25723 net.cpp:105] Setting up loss2/classifier_loss2/classifier_0_split
I0509 23:48:17.271236 25723 net.cpp:112] Top shape: 32 2 1 1 (64)
I0509 23:48:17.271242 25723 net.cpp:112] Top shape: 32 2 1 1 (64)
I0509 23:48:17.271247 25723 layer_factory.hpp:74] Creating layer loss2/loss
I0509 23:48:17.271256 25723 net.cpp:76] Creating Layer loss2/loss
I0509 23:48:17.271262 25723 net.cpp:372] loss2/loss <- loss2/classifier_loss2/classifier_0_split_0
I0509 23:48:17.271283 25723 net.cpp:372] loss2/loss <- label_data_1_split_2
I0509 23:48:17.271297 25723 net.cpp:334] loss2/loss -> loss2/loss1
I0509 23:48:17.271342 25723 net.cpp:105] Setting up loss2/loss
I0509 23:48:17.271352 25723 layer_factory.hpp:74] Creating layer loss2/loss
I0509 23:48:17.271364 25723 net.cpp:112] Top shape: 1 1 1 1 (1)
I0509 23:48:17.271370 25723 net.cpp:118]     with loss weight 0.3
I0509 23:48:17.271389 25723 layer_factory.hpp:74] Creating layer loss2/top-1
I0509 23:48:17.271399 25723 net.cpp:76] Creating Layer loss2/top-1
I0509 23:48:17.271406 25723 net.cpp:372] loss2/top-1 <- loss2/classifier_loss2/classifier_0_split_1
I0509 23:48:17.271414 25723 net.cpp:372] loss2/top-1 <- label_data_1_split_3
I0509 23:48:17.271421 25723 net.cpp:334] loss2/top-1 -> loss2/top-1
I0509 23:48:17.271430 25723 net.cpp:105] Setting up loss2/top-1
I0509 23:48:17.271436 25723 net.cpp:112] Top shape: 1 1 1 1 (1)
I0509 23:48:17.271441 25723 layer_factory.hpp:74] Creating layer inception_4e/1x1
I0509 23:48:17.271452 25723 net.cpp:76] Creating Layer inception_4e/1x1
I0509 23:48:17.271459 25723 net.cpp:372] inception_4e/1x1 <- inception_4d/output_inception_4d/output_0_split_1
I0509 23:48:17.271468 25723 net.cpp:334] inception_4e/1x1 -> inception_4e/1x1
I0509 23:48:17.271478 25723 net.cpp:105] Setting up inception_4e/1x1
I0509 23:48:17.272642 25723 net.cpp:112] Top shape: 32 256 14 14 (1605632)
I0509 23:48:17.272657 25723 layer_factory.hpp:74] Creating layer inception_4e/relu_1x1
I0509 23:48:17.272665 25723 net.cpp:76] Creating Layer inception_4e/relu_1x1
I0509 23:48:17.272672 25723 net.cpp:372] inception_4e/relu_1x1 <- inception_4e/1x1
I0509 23:48:17.272681 25723 net.cpp:323] inception_4e/relu_1x1 -> inception_4e/1x1 (in-place)
I0509 23:48:17.272689 25723 net.cpp:105] Setting up inception_4e/relu_1x1
I0509 23:48:17.272696 25723 net.cpp:112] Top shape: 32 256 14 14 (1605632)
I0509 23:48:17.272701 25723 layer_factory.hpp:74] Creating layer inception_4e/3x3_reduce
I0509 23:48:17.272712 25723 net.cpp:76] Creating Layer inception_4e/3x3_reduce
I0509 23:48:17.272718 25723 net.cpp:372] inception_4e/3x3_reduce <- inception_4d/output_inception_4d/output_0_split_2
I0509 23:48:17.272729 25723 net.cpp:334] inception_4e/3x3_reduce -> inception_4e/3x3_reduce
I0509 23:48:17.272739 25723 net.cpp:105] Setting up inception_4e/3x3_reduce
I0509 23:48:17.273458 25723 net.cpp:112] Top shape: 32 160 14 14 (1003520)
I0509 23:48:17.273473 25723 layer_factory.hpp:74] Creating layer inception_4e/relu_3x3_reduce
I0509 23:48:17.273481 25723 net.cpp:76] Creating Layer inception_4e/relu_3x3_reduce
I0509 23:48:17.273488 25723 net.cpp:372] inception_4e/relu_3x3_reduce <- inception_4e/3x3_reduce
I0509 23:48:17.273495 25723 net.cpp:323] inception_4e/relu_3x3_reduce -> inception_4e/3x3_reduce (in-place)
I0509 23:48:17.273504 25723 net.cpp:105] Setting up inception_4e/relu_3x3_reduce
I0509 23:48:17.273509 25723 net.cpp:112] Top shape: 32 160 14 14 (1003520)
I0509 23:48:17.273514 25723 layer_factory.hpp:74] Creating layer inception_4e/3x3
I0509 23:48:17.273541 25723 net.cpp:76] Creating Layer inception_4e/3x3
I0509 23:48:17.273548 25723 net.cpp:372] inception_4e/3x3 <- inception_4e/3x3_reduce
I0509 23:48:17.273557 25723 net.cpp:334] inception_4e/3x3 -> inception_4e/3x3
I0509 23:48:17.273566 25723 net.cpp:105] Setting up inception_4e/3x3
I0509 23:48:17.277431 25723 net.cpp:112] Top shape: 32 320 14 14 (2007040)
I0509 23:48:17.277454 25723 layer_factory.hpp:74] Creating layer inception_4e/relu_3x3
I0509 23:48:17.277464 25723 net.cpp:76] Creating Layer inception_4e/relu_3x3
I0509 23:48:17.277472 25723 net.cpp:372] inception_4e/relu_3x3 <- inception_4e/3x3
I0509 23:48:17.277478 25723 net.cpp:323] inception_4e/relu_3x3 -> inception_4e/3x3 (in-place)
I0509 23:48:17.277487 25723 net.cpp:105] Setting up inception_4e/relu_3x3
I0509 23:48:17.277493 25723 net.cpp:112] Top shape: 32 320 14 14 (2007040)
I0509 23:48:17.277498 25723 layer_factory.hpp:74] Creating layer inception_4e/5x5_reduce
I0509 23:48:17.277509 25723 net.cpp:76] Creating Layer inception_4e/5x5_reduce
I0509 23:48:17.277515 25723 net.cpp:372] inception_4e/5x5_reduce <- inception_4d/output_inception_4d/output_0_split_3
I0509 23:48:17.277546 25723 net.cpp:334] inception_4e/5x5_reduce -> inception_4e/5x5_reduce
I0509 23:48:17.277559 25723 net.cpp:105] Setting up inception_4e/5x5_reduce
I0509 23:48:17.277704 25723 net.cpp:112] Top shape: 32 32 14 14 (200704)
I0509 23:48:17.277715 25723 layer_factory.hpp:74] Creating layer inception_4e/relu_5x5_reduce
I0509 23:48:17.277725 25723 net.cpp:76] Creating Layer inception_4e/relu_5x5_reduce
I0509 23:48:17.277732 25723 net.cpp:372] inception_4e/relu_5x5_reduce <- inception_4e/5x5_reduce
I0509 23:48:17.277740 25723 net.cpp:323] inception_4e/relu_5x5_reduce -> inception_4e/5x5_reduce (in-place)
I0509 23:48:17.277746 25723 net.cpp:105] Setting up inception_4e/relu_5x5_reduce
I0509 23:48:17.277752 25723 net.cpp:112] Top shape: 32 32 14 14 (200704)
I0509 23:48:17.277758 25723 layer_factory.hpp:74] Creating layer inception_4e/5x5
I0509 23:48:17.277766 25723 net.cpp:76] Creating Layer inception_4e/5x5
I0509 23:48:17.277772 25723 net.cpp:372] inception_4e/5x5 <- inception_4e/5x5_reduce
I0509 23:48:17.277782 25723 net.cpp:334] inception_4e/5x5 -> inception_4e/5x5
I0509 23:48:17.277791 25723 net.cpp:105] Setting up inception_4e/5x5
I0509 23:48:17.278667 25723 net.cpp:112] Top shape: 32 128 14 14 (802816)
I0509 23:48:17.278681 25723 layer_factory.hpp:74] Creating layer inception_4e/relu_5x5
I0509 23:48:17.278689 25723 net.cpp:76] Creating Layer inception_4e/relu_5x5
I0509 23:48:17.278695 25723 net.cpp:372] inception_4e/relu_5x5 <- inception_4e/5x5
I0509 23:48:17.278702 25723 net.cpp:323] inception_4e/relu_5x5 -> inception_4e/5x5 (in-place)
I0509 23:48:17.278710 25723 net.cpp:105] Setting up inception_4e/relu_5x5
I0509 23:48:17.278715 25723 net.cpp:112] Top shape: 32 128 14 14 (802816)
I0509 23:48:17.278722 25723 layer_factory.hpp:74] Creating layer inception_4e/pool
I0509 23:48:17.278733 25723 net.cpp:76] Creating Layer inception_4e/pool
I0509 23:48:17.278738 25723 net.cpp:372] inception_4e/pool <- inception_4d/output_inception_4d/output_0_split_4
I0509 23:48:17.278746 25723 net.cpp:334] inception_4e/pool -> inception_4e/pool
I0509 23:48:17.278755 25723 net.cpp:105] Setting up inception_4e/pool
I0509 23:48:17.278764 25723 net.cpp:112] Top shape: 32 528 14 14 (3311616)
I0509 23:48:17.278769 25723 layer_factory.hpp:74] Creating layer inception_4e/pool_proj
I0509 23:48:17.278782 25723 net.cpp:76] Creating Layer inception_4e/pool_proj
I0509 23:48:17.278789 25723 net.cpp:372] inception_4e/pool_proj <- inception_4e/pool
I0509 23:48:17.278797 25723 net.cpp:334] inception_4e/pool_proj -> inception_4e/pool_proj
I0509 23:48:17.278806 25723 net.cpp:105] Setting up inception_4e/pool_proj
I0509 23:48:17.279397 25723 net.cpp:112] Top shape: 32 128 14 14 (802816)
I0509 23:48:17.279412 25723 layer_factory.hpp:74] Creating layer inception_4e/relu_pool_proj
I0509 23:48:17.279422 25723 net.cpp:76] Creating Layer inception_4e/relu_pool_proj
I0509 23:48:17.279428 25723 net.cpp:372] inception_4e/relu_pool_proj <- inception_4e/pool_proj
I0509 23:48:17.279434 25723 net.cpp:323] inception_4e/relu_pool_proj -> inception_4e/pool_proj (in-place)
I0509 23:48:17.279443 25723 net.cpp:105] Setting up inception_4e/relu_pool_proj
I0509 23:48:17.279448 25723 net.cpp:112] Top shape: 32 128 14 14 (802816)
I0509 23:48:17.279454 25723 layer_factory.hpp:74] Creating layer inception_4e/output
I0509 23:48:17.279461 25723 net.cpp:76] Creating Layer inception_4e/output
I0509 23:48:17.279467 25723 net.cpp:372] inception_4e/output <- inception_4e/1x1
I0509 23:48:17.279474 25723 net.cpp:372] inception_4e/output <- inception_4e/3x3
I0509 23:48:17.279480 25723 net.cpp:372] inception_4e/output <- inception_4e/5x5
I0509 23:48:17.279486 25723 net.cpp:372] inception_4e/output <- inception_4e/pool_proj
I0509 23:48:17.279495 25723 net.cpp:334] inception_4e/output -> inception_4e/output
I0509 23:48:17.279502 25723 net.cpp:105] Setting up inception_4e/output
I0509 23:48:17.279510 25723 net.cpp:112] Top shape: 32 832 14 14 (5218304)
I0509 23:48:17.279515 25723 layer_factory.hpp:74] Creating layer pool4/3x3_s2
I0509 23:48:17.279525 25723 net.cpp:76] Creating Layer pool4/3x3_s2
I0509 23:48:17.279543 25723 net.cpp:372] pool4/3x3_s2 <- inception_4e/output
I0509 23:48:17.279553 25723 net.cpp:334] pool4/3x3_s2 -> pool4/3x3_s2
I0509 23:48:17.279561 25723 net.cpp:105] Setting up pool4/3x3_s2
I0509 23:48:17.279568 25723 net.cpp:112] Top shape: 32 832 7 7 (1304576)
I0509 23:48:17.279574 25723 layer_factory.hpp:74] Creating layer pool4/3x3_s2_pool4/3x3_s2_0_split
I0509 23:48:17.279584 25723 net.cpp:76] Creating Layer pool4/3x3_s2_pool4/3x3_s2_0_split
I0509 23:48:17.279590 25723 net.cpp:372] pool4/3x3_s2_pool4/3x3_s2_0_split <- pool4/3x3_s2
I0509 23:48:17.279598 25723 net.cpp:334] pool4/3x3_s2_pool4/3x3_s2_0_split -> pool4/3x3_s2_pool4/3x3_s2_0_split_0
I0509 23:48:17.279606 25723 net.cpp:334] pool4/3x3_s2_pool4/3x3_s2_0_split -> pool4/3x3_s2_pool4/3x3_s2_0_split_1
I0509 23:48:17.279615 25723 net.cpp:334] pool4/3x3_s2_pool4/3x3_s2_0_split -> pool4/3x3_s2_pool4/3x3_s2_0_split_2
I0509 23:48:17.279624 25723 net.cpp:334] pool4/3x3_s2_pool4/3x3_s2_0_split -> pool4/3x3_s2_pool4/3x3_s2_0_split_3
I0509 23:48:17.279633 25723 net.cpp:105] Setting up pool4/3x3_s2_pool4/3x3_s2_0_split
I0509 23:48:17.279639 25723 net.cpp:112] Top shape: 32 832 7 7 (1304576)
I0509 23:48:17.279644 25723 net.cpp:112] Top shape: 32 832 7 7 (1304576)
I0509 23:48:17.279649 25723 net.cpp:112] Top shape: 32 832 7 7 (1304576)
I0509 23:48:17.279654 25723 net.cpp:112] Top shape: 32 832 7 7 (1304576)
I0509 23:48:17.279660 25723 layer_factory.hpp:74] Creating layer inception_5a/1x1
I0509 23:48:17.279671 25723 net.cpp:76] Creating Layer inception_5a/1x1
I0509 23:48:17.279678 25723 net.cpp:372] inception_5a/1x1 <- pool4/3x3_s2_pool4/3x3_s2_0_split_0
I0509 23:48:17.279688 25723 net.cpp:334] inception_5a/1x1 -> inception_5a/1x1
I0509 23:48:17.279698 25723 net.cpp:105] Setting up inception_5a/1x1
I0509 23:48:17.281471 25723 net.cpp:112] Top shape: 32 256 7 7 (401408)
I0509 23:48:17.281486 25723 layer_factory.hpp:74] Creating layer inception_5a/relu_1x1
I0509 23:48:17.281497 25723 net.cpp:76] Creating Layer inception_5a/relu_1x1
I0509 23:48:17.281522 25723 net.cpp:372] inception_5a/relu_1x1 <- inception_5a/1x1
I0509 23:48:17.281532 25723 net.cpp:323] inception_5a/relu_1x1 -> inception_5a/1x1 (in-place)
I0509 23:48:17.281540 25723 net.cpp:105] Setting up inception_5a/relu_1x1
I0509 23:48:17.281545 25723 net.cpp:112] Top shape: 32 256 7 7 (401408)
I0509 23:48:17.281551 25723 layer_factory.hpp:74] Creating layer inception_5a/3x3_reduce
I0509 23:48:17.281563 25723 net.cpp:76] Creating Layer inception_5a/3x3_reduce
I0509 23:48:17.281569 25723 net.cpp:372] inception_5a/3x3_reduce <- pool4/3x3_s2_pool4/3x3_s2_0_split_1
I0509 23:48:17.281576 25723 net.cpp:334] inception_5a/3x3_reduce -> inception_5a/3x3_reduce
I0509 23:48:17.281585 25723 net.cpp:105] Setting up inception_5a/3x3_reduce
I0509 23:48:17.282714 25723 net.cpp:112] Top shape: 32 160 7 7 (250880)
I0509 23:48:17.282732 25723 layer_factory.hpp:74] Creating layer inception_5a/relu_3x3_reduce
I0509 23:48:17.282742 25723 net.cpp:76] Creating Layer inception_5a/relu_3x3_reduce
I0509 23:48:17.282748 25723 net.cpp:372] inception_5a/relu_3x3_reduce <- inception_5a/3x3_reduce
I0509 23:48:17.282757 25723 net.cpp:323] inception_5a/relu_3x3_reduce -> inception_5a/3x3_reduce (in-place)
I0509 23:48:17.282766 25723 net.cpp:105] Setting up inception_5a/relu_3x3_reduce
I0509 23:48:17.282773 25723 net.cpp:112] Top shape: 32 160 7 7 (250880)
I0509 23:48:17.282778 25723 layer_factory.hpp:74] Creating layer inception_5a/3x3
I0509 23:48:17.282786 25723 net.cpp:76] Creating Layer inception_5a/3x3
I0509 23:48:17.282793 25723 net.cpp:372] inception_5a/3x3 <- inception_5a/3x3_reduce
I0509 23:48:17.282802 25723 net.cpp:334] inception_5a/3x3 -> inception_5a/3x3
I0509 23:48:17.282811 25723 net.cpp:105] Setting up inception_5a/3x3
I0509 23:48:17.286681 25723 net.cpp:112] Top shape: 32 320 7 7 (501760)
I0509 23:48:17.286713 25723 layer_factory.hpp:74] Creating layer inception_5a/relu_3x3
I0509 23:48:17.286725 25723 net.cpp:76] Creating Layer inception_5a/relu_3x3
I0509 23:48:17.286733 25723 net.cpp:372] inception_5a/relu_3x3 <- inception_5a/3x3
I0509 23:48:17.286775 25723 net.cpp:323] inception_5a/relu_3x3 -> inception_5a/3x3 (in-place)
I0509 23:48:17.286787 25723 net.cpp:105] Setting up inception_5a/relu_3x3
I0509 23:48:17.286793 25723 net.cpp:112] Top shape: 32 320 7 7 (501760)
I0509 23:48:17.286798 25723 layer_factory.hpp:74] Creating layer inception_5a/5x5_reduce
I0509 23:48:17.286813 25723 net.cpp:76] Creating Layer inception_5a/5x5_reduce
I0509 23:48:17.286819 25723 net.cpp:372] inception_5a/5x5_reduce <- pool4/3x3_s2_pool4/3x3_s2_0_split_2
I0509 23:48:17.286829 25723 net.cpp:334] inception_5a/5x5_reduce -> inception_5a/5x5_reduce
I0509 23:48:17.286839 25723 net.cpp:105] Setting up inception_5a/5x5_reduce
I0509 23:48:17.287075 25723 net.cpp:112] Top shape: 32 32 7 7 (50176)
I0509 23:48:17.287087 25723 layer_factory.hpp:74] Creating layer inception_5a/relu_5x5_reduce
I0509 23:48:17.287096 25723 net.cpp:76] Creating Layer inception_5a/relu_5x5_reduce
I0509 23:48:17.287101 25723 net.cpp:372] inception_5a/relu_5x5_reduce <- inception_5a/5x5_reduce
I0509 23:48:17.287108 25723 net.cpp:323] inception_5a/relu_5x5_reduce -> inception_5a/5x5_reduce (in-place)
I0509 23:48:17.287117 25723 net.cpp:105] Setting up inception_5a/relu_5x5_reduce
I0509 23:48:17.287122 25723 net.cpp:112] Top shape: 32 32 7 7 (50176)
I0509 23:48:17.287127 25723 layer_factory.hpp:74] Creating layer inception_5a/5x5
I0509 23:48:17.287138 25723 net.cpp:76] Creating Layer inception_5a/5x5
I0509 23:48:17.287144 25723 net.cpp:372] inception_5a/5x5 <- inception_5a/5x5_reduce
I0509 23:48:17.287154 25723 net.cpp:334] inception_5a/5x5 -> inception_5a/5x5
I0509 23:48:17.287163 25723 net.cpp:105] Setting up inception_5a/5x5
I0509 23:48:17.288041 25723 net.cpp:112] Top shape: 32 128 7 7 (200704)
I0509 23:48:17.288056 25723 layer_factory.hpp:74] Creating layer inception_5a/relu_5x5
I0509 23:48:17.288064 25723 net.cpp:76] Creating Layer inception_5a/relu_5x5
I0509 23:48:17.288861 25723 net.cpp:372] inception_5a/relu_5x5 <- inception_5a/5x5
I0509 23:48:17.288882 25723 net.cpp:323] inception_5a/relu_5x5 -> inception_5a/5x5 (in-place)
I0509 23:48:17.288897 25723 net.cpp:105] Setting up inception_5a/relu_5x5
I0509 23:48:17.288907 25723 net.cpp:112] Top shape: 32 128 7 7 (200704)
I0509 23:48:17.288916 25723 layer_factory.hpp:74] Creating layer inception_5a/pool
I0509 23:48:17.288930 25723 net.cpp:76] Creating Layer inception_5a/pool
I0509 23:48:17.288940 25723 net.cpp:372] inception_5a/pool <- pool4/3x3_s2_pool4/3x3_s2_0_split_3
I0509 23:48:17.288954 25723 net.cpp:334] inception_5a/pool -> inception_5a/pool
I0509 23:48:17.288995 25723 net.cpp:105] Setting up inception_5a/pool
I0509 23:48:17.289016 25723 net.cpp:112] Top shape: 32 832 7 7 (1304576)
I0509 23:48:17.289026 25723 layer_factory.hpp:74] Creating layer inception_5a/pool_proj
I0509 23:48:17.289041 25723 net.cpp:76] Creating Layer inception_5a/pool_proj
I0509 23:48:17.289052 25723 net.cpp:372] inception_5a/pool_proj <- inception_5a/pool
I0509 23:48:17.289067 25723 net.cpp:334] inception_5a/pool_proj -> inception_5a/pool_proj
I0509 23:48:17.289082 25723 net.cpp:105] Setting up inception_5a/pool_proj
I0509 23:48:17.290292 25723 net.cpp:112] Top shape: 32 128 7 7 (200704)
I0509 23:48:17.290312 25723 layer_factory.hpp:74] Creating layer inception_5a/relu_pool_proj
I0509 23:48:17.290320 25723 net.cpp:76] Creating Layer inception_5a/relu_pool_proj
I0509 23:48:17.290328 25723 net.cpp:372] inception_5a/relu_pool_proj <- inception_5a/pool_proj
I0509 23:48:17.290338 25723 net.cpp:323] inception_5a/relu_pool_proj -> inception_5a/pool_proj (in-place)
I0509 23:48:17.290346 25723 net.cpp:105] Setting up inception_5a/relu_pool_proj
I0509 23:48:17.290351 25723 net.cpp:112] Top shape: 32 128 7 7 (200704)
I0509 23:48:17.290357 25723 layer_factory.hpp:74] Creating layer inception_5a/output
I0509 23:48:17.290365 25723 net.cpp:76] Creating Layer inception_5a/output
I0509 23:48:17.290371 25723 net.cpp:372] inception_5a/output <- inception_5a/1x1
I0509 23:48:17.290379 25723 net.cpp:372] inception_5a/output <- inception_5a/3x3
I0509 23:48:17.290385 25723 net.cpp:372] inception_5a/output <- inception_5a/5x5
I0509 23:48:17.290416 25723 net.cpp:372] inception_5a/output <- inception_5a/pool_proj
I0509 23:48:17.290426 25723 net.cpp:334] inception_5a/output -> inception_5a/output
I0509 23:48:17.290434 25723 net.cpp:105] Setting up inception_5a/output
I0509 23:48:17.290441 25723 net.cpp:112] Top shape: 32 832 7 7 (1304576)
I0509 23:48:17.290447 25723 layer_factory.hpp:74] Creating layer inception_5a/output_inception_5a/output_0_split
I0509 23:48:17.290455 25723 net.cpp:76] Creating Layer inception_5a/output_inception_5a/output_0_split
I0509 23:48:17.290462 25723 net.cpp:372] inception_5a/output_inception_5a/output_0_split <- inception_5a/output
I0509 23:48:17.290472 25723 net.cpp:334] inception_5a/output_inception_5a/output_0_split -> inception_5a/output_inception_5a/output_0_split_0
I0509 23:48:17.290482 25723 net.cpp:334] inception_5a/output_inception_5a/output_0_split -> inception_5a/output_inception_5a/output_0_split_1
I0509 23:48:17.290491 25723 net.cpp:334] inception_5a/output_inception_5a/output_0_split -> inception_5a/output_inception_5a/output_0_split_2
I0509 23:48:17.290501 25723 net.cpp:334] inception_5a/output_inception_5a/output_0_split -> inception_5a/output_inception_5a/output_0_split_3
I0509 23:48:17.290508 25723 net.cpp:105] Setting up inception_5a/output_inception_5a/output_0_split
I0509 23:48:17.290515 25723 net.cpp:112] Top shape: 32 832 7 7 (1304576)
I0509 23:48:17.290520 25723 net.cpp:112] Top shape: 32 832 7 7 (1304576)
I0509 23:48:17.290525 25723 net.cpp:112] Top shape: 32 832 7 7 (1304576)
I0509 23:48:17.290530 25723 net.cpp:112] Top shape: 32 832 7 7 (1304576)
I0509 23:48:17.290536 25723 layer_factory.hpp:74] Creating layer inception_5b/1x1
I0509 23:48:17.290549 25723 net.cpp:76] Creating Layer inception_5b/1x1
I0509 23:48:17.290555 25723 net.cpp:372] inception_5b/1x1 <- inception_5a/output_inception_5a/output_0_split_0
I0509 23:48:17.290563 25723 net.cpp:334] inception_5b/1x1 -> inception_5b/1x1
I0509 23:48:17.290572 25723 net.cpp:105] Setting up inception_5b/1x1
I0509 23:48:17.293264 25723 net.cpp:112] Top shape: 32 384 7 7 (602112)
I0509 23:48:17.293308 25723 layer_factory.hpp:74] Creating layer inception_5b/relu_1x1
I0509 23:48:17.293321 25723 net.cpp:76] Creating Layer inception_5b/relu_1x1
I0509 23:48:17.293329 25723 net.cpp:372] inception_5b/relu_1x1 <- inception_5b/1x1
I0509 23:48:17.293339 25723 net.cpp:323] inception_5b/relu_1x1 -> inception_5b/1x1 (in-place)
I0509 23:48:17.293349 25723 net.cpp:105] Setting up inception_5b/relu_1x1
I0509 23:48:17.293354 25723 net.cpp:112] Top shape: 32 384 7 7 (602112)
I0509 23:48:17.293359 25723 layer_factory.hpp:74] Creating layer inception_5b/3x3_reduce
I0509 23:48:17.293373 25723 net.cpp:76] Creating Layer inception_5b/3x3_reduce
I0509 23:48:17.293380 25723 net.cpp:372] inception_5b/3x3_reduce <- inception_5a/output_inception_5a/output_0_split_1
I0509 23:48:17.293390 25723 net.cpp:334] inception_5b/3x3_reduce -> inception_5b/3x3_reduce
I0509 23:48:17.293398 25723 net.cpp:105] Setting up inception_5b/3x3_reduce
I0509 23:48:17.294747 25723 net.cpp:112] Top shape: 32 192 7 7 (301056)
I0509 23:48:17.294767 25723 layer_factory.hpp:74] Creating layer inception_5b/relu_3x3_reduce
I0509 23:48:17.294777 25723 net.cpp:76] Creating Layer inception_5b/relu_3x3_reduce
I0509 23:48:17.294787 25723 net.cpp:372] inception_5b/relu_3x3_reduce <- inception_5b/3x3_reduce
I0509 23:48:17.294797 25723 net.cpp:323] inception_5b/relu_3x3_reduce -> inception_5b/3x3_reduce (in-place)
I0509 23:48:17.294806 25723 net.cpp:105] Setting up inception_5b/relu_3x3_reduce
I0509 23:48:17.294812 25723 net.cpp:112] Top shape: 32 192 7 7 (301056)
I0509 23:48:17.294818 25723 layer_factory.hpp:74] Creating layer inception_5b/3x3
I0509 23:48:17.294826 25723 net.cpp:76] Creating Layer inception_5b/3x3
I0509 23:48:17.294832 25723 net.cpp:372] inception_5b/3x3 <- inception_5b/3x3_reduce
I0509 23:48:17.294842 25723 net.cpp:334] inception_5b/3x3 -> inception_5b/3x3
I0509 23:48:17.294852 25723 net.cpp:105] Setting up inception_5b/3x3
I0509 23:48:17.300818 25723 net.cpp:112] Top shape: 32 384 7 7 (602112)
I0509 23:48:17.300889 25723 layer_factory.hpp:74] Creating layer inception_5b/relu_3x3
I0509 23:48:17.300904 25723 net.cpp:76] Creating Layer inception_5b/relu_3x3
I0509 23:48:17.300911 25723 net.cpp:372] inception_5b/relu_3x3 <- inception_5b/3x3
I0509 23:48:17.300923 25723 net.cpp:323] inception_5b/relu_3x3 -> inception_5b/3x3 (in-place)
I0509 23:48:17.300933 25723 net.cpp:105] Setting up inception_5b/relu_3x3
I0509 23:48:17.300940 25723 net.cpp:112] Top shape: 32 384 7 7 (602112)
I0509 23:48:17.300945 25723 layer_factory.hpp:74] Creating layer inception_5b/5x5_reduce
I0509 23:48:17.300956 25723 net.cpp:76] Creating Layer inception_5b/5x5_reduce
I0509 23:48:17.300962 25723 net.cpp:372] inception_5b/5x5_reduce <- inception_5a/output_inception_5a/output_0_split_2
I0509 23:48:17.300973 25723 net.cpp:334] inception_5b/5x5_reduce -> inception_5b/5x5_reduce
I0509 23:48:17.300983 25723 net.cpp:105] Setting up inception_5b/5x5_reduce
I0509 23:48:17.301342 25723 net.cpp:112] Top shape: 32 48 7 7 (75264)
I0509 23:48:17.301357 25723 layer_factory.hpp:74] Creating layer inception_5b/relu_5x5_reduce
I0509 23:48:17.301364 25723 net.cpp:76] Creating Layer inception_5b/relu_5x5_reduce
I0509 23:48:17.301373 25723 net.cpp:372] inception_5b/relu_5x5_reduce <- inception_5b/5x5_reduce
I0509 23:48:17.301380 25723 net.cpp:323] inception_5b/relu_5x5_reduce -> inception_5b/5x5_reduce (in-place)
I0509 23:48:17.301388 25723 net.cpp:105] Setting up inception_5b/relu_5x5_reduce
I0509 23:48:17.301393 25723 net.cpp:112] Top shape: 32 48 7 7 (75264)
I0509 23:48:17.301399 25723 layer_factory.hpp:74] Creating layer inception_5b/5x5
I0509 23:48:17.301409 25723 net.cpp:76] Creating Layer inception_5b/5x5
I0509 23:48:17.301414 25723 net.cpp:372] inception_5b/5x5 <- inception_5b/5x5_reduce
I0509 23:48:17.301429 25723 net.cpp:334] inception_5b/5x5 -> inception_5b/5x5
I0509 23:48:17.301440 25723 net.cpp:105] Setting up inception_5b/5x5
I0509 23:48:17.302722 25723 net.cpp:112] Top shape: 32 128 7 7 (200704)
I0509 23:48:17.302738 25723 layer_factory.hpp:74] Creating layer inception_5b/relu_5x5
I0509 23:48:17.302747 25723 net.cpp:76] Creating Layer inception_5b/relu_5x5
I0509 23:48:17.302753 25723 net.cpp:372] inception_5b/relu_5x5 <- inception_5b/5x5
I0509 23:48:17.302760 25723 net.cpp:323] inception_5b/relu_5x5 -> inception_5b/5x5 (in-place)
I0509 23:48:17.302768 25723 net.cpp:105] Setting up inception_5b/relu_5x5
I0509 23:48:17.302773 25723 net.cpp:112] Top shape: 32 128 7 7 (200704)
I0509 23:48:17.302779 25723 layer_factory.hpp:74] Creating layer inception_5b/pool
I0509 23:48:17.302788 25723 net.cpp:76] Creating Layer inception_5b/pool
I0509 23:48:17.302793 25723 net.cpp:372] inception_5b/pool <- inception_5a/output_inception_5a/output_0_split_3
I0509 23:48:17.302804 25723 net.cpp:334] inception_5b/pool -> inception_5b/pool
I0509 23:48:17.302814 25723 net.cpp:105] Setting up inception_5b/pool
I0509 23:48:17.302822 25723 net.cpp:112] Top shape: 32 832 7 7 (1304576)
I0509 23:48:17.302829 25723 layer_factory.hpp:74] Creating layer inception_5b/pool_proj
I0509 23:48:17.302837 25723 net.cpp:76] Creating Layer inception_5b/pool_proj
I0509 23:48:17.302844 25723 net.cpp:372] inception_5b/pool_proj <- inception_5b/pool
I0509 23:48:17.302853 25723 net.cpp:334] inception_5b/pool_proj -> inception_5b/pool_proj
I0509 23:48:17.302863 25723 net.cpp:105] Setting up inception_5b/pool_proj
I0509 23:48:17.303763 25723 net.cpp:112] Top shape: 32 128 7 7 (200704)
I0509 23:48:17.303777 25723 layer_factory.hpp:74] Creating layer inception_5b/relu_pool_proj
I0509 23:48:17.303787 25723 net.cpp:76] Creating Layer inception_5b/relu_pool_proj
I0509 23:48:17.303794 25723 net.cpp:372] inception_5b/relu_pool_proj <- inception_5b/pool_proj
I0509 23:48:17.303802 25723 net.cpp:323] inception_5b/relu_pool_proj -> inception_5b/pool_proj (in-place)
I0509 23:48:17.303810 25723 net.cpp:105] Setting up inception_5b/relu_pool_proj
I0509 23:48:17.303815 25723 net.cpp:112] Top shape: 32 128 7 7 (200704)
I0509 23:48:17.303822 25723 layer_factory.hpp:74] Creating layer inception_5b/output
I0509 23:48:17.303845 25723 net.cpp:76] Creating Layer inception_5b/output
I0509 23:48:17.303853 25723 net.cpp:372] inception_5b/output <- inception_5b/1x1
I0509 23:48:17.303860 25723 net.cpp:372] inception_5b/output <- inception_5b/3x3
I0509 23:48:17.303866 25723 net.cpp:372] inception_5b/output <- inception_5b/5x5
I0509 23:48:17.303874 25723 net.cpp:372] inception_5b/output <- inception_5b/pool_proj
I0509 23:48:17.303880 25723 net.cpp:334] inception_5b/output -> inception_5b/output
I0509 23:48:17.303889 25723 net.cpp:105] Setting up inception_5b/output
I0509 23:48:17.303895 25723 net.cpp:112] Top shape: 32 1024 7 7 (1605632)
I0509 23:48:17.303901 25723 layer_factory.hpp:74] Creating layer pool5/7x7_s1
I0509 23:48:17.303910 25723 net.cpp:76] Creating Layer pool5/7x7_s1
I0509 23:48:17.303915 25723 net.cpp:372] pool5/7x7_s1 <- inception_5b/output
I0509 23:48:17.303923 25723 net.cpp:334] pool5/7x7_s1 -> pool5/7x7_s1
I0509 23:48:17.303931 25723 net.cpp:105] Setting up pool5/7x7_s1
I0509 23:48:17.303938 25723 net.cpp:112] Top shape: 32 1024 1 1 (32768)
I0509 23:48:17.303943 25723 layer_factory.hpp:74] Creating layer pool5/drop_7x7_s1
I0509 23:48:17.303956 25723 net.cpp:76] Creating Layer pool5/drop_7x7_s1
I0509 23:48:17.303961 25723 net.cpp:372] pool5/drop_7x7_s1 <- pool5/7x7_s1
I0509 23:48:17.303969 25723 net.cpp:323] pool5/drop_7x7_s1 -> pool5/7x7_s1 (in-place)
I0509 23:48:17.303977 25723 net.cpp:105] Setting up pool5/drop_7x7_s1
I0509 23:48:17.303984 25723 net.cpp:112] Top shape: 32 1024 1 1 (32768)
I0509 23:48:17.303989 25723 layer_factory.hpp:74] Creating layer loss3/classifier
I0509 23:48:17.304002 25723 net.cpp:76] Creating Layer loss3/classifier
I0509 23:48:17.304008 25723 net.cpp:372] loss3/classifier <- pool5/7x7_s1
I0509 23:48:17.304015 25723 net.cpp:334] loss3/classifier -> loss3/classifier
I0509 23:48:17.304025 25723 net.cpp:105] Setting up loss3/classifier
I0509 23:48:17.304057 25723 net.cpp:112] Top shape: 32 2 1 1 (64)
I0509 23:48:17.304067 25723 layer_factory.hpp:74] Creating layer loss3/classifier_loss3/classifier_0_split
I0509 23:48:17.304077 25723 net.cpp:76] Creating Layer loss3/classifier_loss3/classifier_0_split
I0509 23:48:17.304085 25723 net.cpp:372] loss3/classifier_loss3/classifier_0_split <- loss3/classifier
I0509 23:48:17.304092 25723 net.cpp:334] loss3/classifier_loss3/classifier_0_split -> loss3/classifier_loss3/classifier_0_split_0
I0509 23:48:17.304101 25723 net.cpp:334] loss3/classifier_loss3/classifier_0_split -> loss3/classifier_loss3/classifier_0_split_1
I0509 23:48:17.304110 25723 net.cpp:105] Setting up loss3/classifier_loss3/classifier_0_split
I0509 23:48:17.304116 25723 net.cpp:112] Top shape: 32 2 1 1 (64)
I0509 23:48:17.304142 25723 net.cpp:112] Top shape: 32 2 1 1 (64)
I0509 23:48:17.304149 25723 layer_factory.hpp:74] Creating layer loss3/loss3
I0509 23:48:17.304160 25723 net.cpp:76] Creating Layer loss3/loss3
I0509 23:48:17.304167 25723 net.cpp:372] loss3/loss3 <- loss3/classifier_loss3/classifier_0_split_0
I0509 23:48:17.304175 25723 net.cpp:372] loss3/loss3 <- label_data_1_split_4
I0509 23:48:17.304183 25723 net.cpp:334] loss3/loss3 -> loss3/loss3
I0509 23:48:17.304191 25723 net.cpp:105] Setting up loss3/loss3
I0509 23:48:17.304198 25723 layer_factory.hpp:74] Creating layer loss3/loss3
I0509 23:48:17.304215 25723 net.cpp:112] Top shape: 1 1 1 1 (1)
I0509 23:48:17.304222 25723 net.cpp:118]     with loss weight 1
I0509 23:48:17.304250 25723 layer_factory.hpp:74] Creating layer loss3/top-1
I0509 23:48:17.304261 25723 net.cpp:76] Creating Layer loss3/top-1
I0509 23:48:17.304268 25723 net.cpp:372] loss3/top-1 <- loss3/classifier_loss3/classifier_0_split_1
I0509 23:48:17.304275 25723 net.cpp:372] loss3/top-1 <- label_data_1_split_5
I0509 23:48:17.304286 25723 net.cpp:334] loss3/top-1 -> loss3/top-1
I0509 23:48:17.304296 25723 net.cpp:105] Setting up loss3/top-1
I0509 23:48:17.304301 25723 net.cpp:112] Top shape: 1 1 1 1 (1)
I0509 23:48:17.304307 25723 net.cpp:165] loss3/top-1 does not need backward computation.
I0509 23:48:17.304312 25723 net.cpp:163] loss3/loss3 needs backward computation.
I0509 23:48:17.304327 25723 net.cpp:163] loss3/classifier_loss3/classifier_0_split needs backward computation.
I0509 23:48:17.304333 25723 net.cpp:163] loss3/classifier needs backward computation.
I0509 23:48:17.304338 25723 net.cpp:163] pool5/drop_7x7_s1 needs backward computation.
…
