…
I0509 22:30:05.281381 20634 net.cpp:253] The NetState phase (0) differed from the phase (1) specified by a rule in layer loss3/top-1
I0509 22:30:05.282762 20634 net.cpp:42] Initializing net from parameters: 
name: "GoogleNet"
state {
  phase: TRAIN
}
layer {
  name: "data"
  type: "Data"
  top: "data"
  top: "label"
  include {
    phase: TRAIN
  }
  transform_param {
    mirror: true
    crop_size: 224
    mean_value: 104
    mean_value: 117
    mean_value: 123
  }
  data_param {
    source: "train_lmdb"
    batch_size: 32
    backend: LMDB
  }
}
layer {
  name: "conv1/7x7_s2"
  type: "Convolution"
  bottom: "data"
  top: "conv1/7x7_s2"
  param {
    lr_mult: 1
    decay_mult: 1
  }
  param {
    lr_mult: 2
    decay_mult: 0
  }
  convolution_param {
    num_output: 64
    pad: 3
    kernel_size: 7
    stride: 2
    weight_filler {
      type: "xavier"
      std: 0.1
    }
    bias_filler {
      type: "constant"
      value: 0.2
    }
  }
}
layer {
  name: "conv1/relu_7x7"
  type: "ReLU"
  bottom: "conv1/7x7_s2"
  top: "conv1/7x7_s2"
}
layer {
  name: "pool1/3x3_s2"
  type: "Pooling"
  bottom: "conv1/7x7_s2"
  top: "pool1/3x3_s2"
  pooling_param {
    pool: MAX
    kernel_size: 3
    stride: 2
  }
}
layer {
  name: "pool1/norm1"
  type: "LRN"
  bottom: "pool1/3x3_s2"
  top: "pool1/norm1"
  lrn_param {
    local_size: 5
    alpha: 0.0001
    beta: 0.75
  }
}
layer {
  name: "conv2/3x3_reduce"
  type: "Convolution"
  bottom: "pool1/norm1"
  top: "conv2/3x3_reduce"
  param {
    lr_mult: 1
    decay_mult: 1
  }
  param {
    lr_mult: 2
    decay_mult: 0
  }
  convolution_param {
    num_output: 64
    kernel_size: 1
    weight_filler {
      type: "xavier"
      std: 0.1
    }
    bias_filler {
      type: "constant"
      value: 0.2
    }
  }
}
layer {
  name: "conv2/relu_3x3_reduce"
  type: "ReLU"
  bottom: "conv2/3x3_reduce"
  top: "conv2/3x3_reduce"
}
layer {
  name: "conv2/3x3"
  type: "Convolution"
  bottom: "conv2/3x3_reduce"
  top: "conv2/3x3"
  param {
    lr_mult: 1
    decay_mult: 1
  }
  param {
    lr_mult: 2
    decay_mult: 0
  }
  convolution_param {
    num_output: 192
    pad: 1
    kernel_size: 3
    weight_filler {
      type: "xavier"
      std: 0.03
    }
    bias_filler {
      type: "constant"
      value: 0.2
    }
  }
}
layer {
  name: "conv2/relu_3x3"
  type: "ReLU"
  bottom: "conv2/3x3"
  top: "conv2/3x3"
}
layer {
  name: "conv2/norm2"
  type: "LRN"
  bottom: "conv2/3x3"
  top: "conv2/norm2"
  lrn_param {
    local_size: 5
    alpha: 0.0001
    beta: 0.75
  }
}
layer {
  name: "pool2/3x3_s2"
  type: "Pooling"
  bottom: "conv2/norm2"
  top: "pool2/3x3_s2"
  pooling_param {
    pool: MAX
    kernel_size: 3
    stride: 2
  }
}
layer {
  name: "inception_3a/1x1"
  type: "Convolution"
  bottom: "pool2/3x3_s2"
  top: "inception_3a/1x1"
  param {
    lr_mult: 1
    decay_mult: 1
  }
  param {
    lr_mult: 2
    decay_mult: 0
  }
  convolution_param {
    num_output: 64
    kernel_size: 1
    weight_filler {
      type: "xavier"
      std: 0.03
    }
    bias_filler {
      type: "constant"
      value: 0.2
    }
  }
}
layer {
  name: "inception_3a/relu_1x1"
  type: "ReLU"
  bottom: "inception_3a/1x1"
  top: "inception_3a/1x1"
}
layer {
  name: "inception_3a/3x3_reduce"
  type: "Convolution"
  bottom: "pool2/3x3_s2"
  top: "inception_3a/3x3_reduce"
  param {
    lr_mult: 1
    decay_mult: 1
  }
  param {
    lr_mult: 2
    decay_mult: 0
  }
  convolution_param {
    num_output: 96
    kernel_size: 1
    weight_filler {
      type: "xavier"
      std: 0.09
    }
    bias_filler {
      type: "constant"
      value: 0.2
    }
  }
}
layer {
  name: "inception_3a/relu_3x3_reduce"
  type: "ReLU"
  bottom: "inception_3a/3x3_reduce"
  top: "inception_3a/3x3_reduce"
}
layer {
  name: "inception_3a/3x3"
  type: "Convolution"
  bottom: "inception_3a/3x3_reduce"
  top: "inception_3a/3x3"
  param {
    lr_mult: 1
    decay_mult: 1
  }
  param {
    lr_mult: 2
    decay_mult: 0
  }
  convolution_param {
    num_output: 128
    pad: 1
    kernel_size: 3
    weight_filler {
      type: "xavier"
      std: 0.03
    }
    bias_filler {
      type: "constant"
      value: 0.2
    }
  }
}
layer {
  name: "inception_3a/relu_3x3"
  type: "ReLU"
  bottom: "inception_3a/3x3"
  top: "inception_3a/3x3"
}
layer {
  name: "inception_3a/5x5_reduce"
  type: "Convolution"
  bottom: "pool2/3x3_s2"
  top: "inception_3a/5x5_reduce"
  param {
    lr_mult: 1
    decay_mult: 1
  }
  param {
    lr_mult: 2
    decay_mult: 0
  }
  convolution_param {
    num_output: 16
    kernel_size: 1
    weight_filler {
      type: "xavier"
      std: 0.2
    }
    bias_filler {
      type: "constant"
      value: 0.2
    }
  }
}
layer {
  name: "inception_3a/relu_5x5_reduce"
  type: "ReLU"
  bottom: "inception_3a/5x5_reduce"
  top: "inception_3a/5x5_reduce"
}
layer {
  name: "inception_3a/5x5"
  type: "Convolution"
  bottom: "inception_3a/5x5_reduce"
  top: "inception_3a/5x5"
  param {
    lr_mult: 1
    decay_mult: 1
  }
  param {
    lr_mult: 2
    decay_mult: 0
  }
  convolution_param {
    num_output: 32
    pad: 2
    kernel_size: 5
    weight_filler {
      type: "xavier"
      std: 0.03
    }
    bias_filler {
      type: "constant"
      value: 0.2
    }
  }
}
layer {
  name: "inception_3a/relu_5x5"
  type: "ReLU"
  bottom: "inception_3a/5x5"
  top: "inception_3a/5x5"
}
layer {
  name: "inception_3a/pool"
  type: "Pooling"
  bottom: "pool2/3x3_s2"
  top: "inception_3a/pool"
  pooling_param {
    pool: MAX
    kernel_size: 3
    stride: 1
    pad: 1
  }
}
layer {
  name: "inception_3a/pool_proj"
  type: "Convolution"
  bottom: "inception_3a/pool"
  top: "inception_3a/pool_proj"
  param {
    lr_mult: 1
    decay_mult: 1
  }
  param {
    lr_mult: 2
    decay_mult: 0
  }
  convolution_param {
    num_output: 32
    kernel_size: 1
    weight_filler {
      type: "xavier"
      std: 0.1
    }
    bias_filler {
      type: "constant"
      value: 0.2
    }
  }
}
layer {
  name: "inception_3a/relu_pool_proj"
  type: "ReLU"
  bottom: "inception_3a/pool_proj"
  top: "inception_3a/pool_proj"
}
layer {
  name: "inception_3a/output"
  type: "Concat"
  bottom: "inception_3a/1x1"
  bottom: "inception_3a/3x3"
  bottom: "inception_3a/5x5"
  bottom: "inception_3a/pool_proj"
  top: "inception_3a/output"
}
layer {
  name: "inception_3b/1x1"
  type: "Convolution"
  bottom: "inception_3a/output"
  top: "inception_3b/1x1"
  param {
    lr_mult: 1
    decay_mult: 1
  }
  param {
    lr_mult: 2
    decay_mult: 0
  }
  convolution_param {
    num_output: 128
    kernel_size: 1
    weight_filler {
      type: "xavier"
      std: 0.03
    }
    bias_filler {
      type: "constant"
      value: 0.2
    }
  }
}
layer {
  name: "inception_3b/relu_1x1"
  type: "ReLU"
  bottom: "inception_3b/1x1"
  top: "inception_3b/1x1"
}
layer {
  name: "inception_3b/3x3_reduce"
  type: "Convolution"
  bottom: "inception_3a/output"
  top: "inception_3b/3x3_reduce"
  param {
    lr_mult: 1
    decay_mult: 1
  }
  param {
    lr_mult: 2
    decay_mult: 0
  }
  convolution_param {
    num_output: 128
    kernel_size: 1
    weight_filler {
      type: "xavier"
      std: 0.09
    }
    bias_filler {
      type: "constant"
      value: 0.2
    }
  }
}
layer {
  name: "inception_3b/relu_3x3_reduce"
  type: "ReLU"
  bottom: "inception_3b/3x3_reduce"
  top: "inception_3b/3x3_reduce"
}
layer {
  name: "inception_3b/3x3"
  type: "Convolution"
  bottom: "inception_3b/3x3_reduce"
  top: "inception_3b/3x3"
  param {
    lr_mult: 1
    decay_mult: 1
  }
  param {
    lr_mult: 2
    decay_mult: 0
  }
  convolution_param {
    num_output: 192
    pad: 1
    kernel_size: 3
    weight_filler {
      type: "xavier"
      std: 0.03
    }
    bias_filler {
      type: "constant"
      value: 0.2
    }
  }
}
layer {
  name: "inception_3b/relu_3x3"
  type: "ReLU"
  bottom: "inception_3b/3x3"
  top: "inception_3b/3x3"
}
layer {
  name: "inception_3b/5x5_reduce"
  type: "Convolution"
  bottom: "inception_3a/output"
  top: "inception_3b/5x5_reduce"
  param {
    lr_mult: 1
    decay_mult: 1
  }
  param {
    lr_mult: 2
    decay_mult: 0
  }
  convolution_param {
    num_output: 32
    kernel_size: 1
    weight_filler {
      type: "xavier"
      std: 0.2
    }
    bias_filler {
      type: "constant"
      value: 0.2
    }
  }
}
layer {
  name: "inception_3b/relu_5x5_reduce"
  type: "ReLU"
  bottom: "inception_3b/5x5_reduce"
  top: "inception_3b/5x5_reduce"
}
layer {
  name: "inception_3b/5x5"
  type: "Convolution"
  bottom: "inception_3b/5x5_reduce"
  top: "inception_3b/5x5"
  param {
    lr_mult: 1
    decay_mult: 1
  }
  param {
    lr_mult: 2
    decay_mult: 0
  }
  convolution_param {
    num_output: 96
    pad: 2
    kernel_size: 5
    weight_filler {
      type: "xavier"
      std: 0.03
    }
    bias_filler {
      type: "constant"
      value: 0.2
    }
  }
}
layer {
  name: "inception_3b/relu_5x5"
  type: "ReLU"
  bottom: "inception_3b/5x5"
  top: "inception_3b/5x5"
}
layer {
  name: "inception_3b/pool"
  type: "Pooling"
  bottom: "inception_3a/output"
  top: "inception_3b/pool"
  pooling_param {
    pool: MAX
    kernel_size: 3
    stride: 1
    pad: 1
  }
}
layer {
  name: "inception_3b/pool_proj"
  type: "Convolution"
  bottom: "inception_3b/pool"
  top: "inception_3b/pool_proj"
  param {
    lr_mult: 1
    decay_mult: 1
  }
  param {
    lr_mult: 2
    decay_mult: 0
  }
  convolution_param {
    num_output: 64
    kernel_size: 1
    weight_filler {
      type: "xavier"
      std: 0.1
    }
    bias_filler {
      type: "constant"
      value: 0.2
    }
  }
}
layer {
  name: "inception_3b/relu_pool_proj"
  type: "ReLU"
  bottom: "inception_3b/pool_proj"
  top: "inception_3b/pool_proj"
}
layer {
  name: "inception_3b/output"
  type: "Concat"
  bottom: "inception_3b/1x1"
  bottom: "inception_3b/3x3"
  bottom: "inception_3b/5x5"
  bottom: "inception_3b/pool_proj"
  top: "inception_3b/output"
}
layer {
  name: "pool3/3x3_s2"
  type: "Pooling"
  bottom: "inception_3b/output"
  top: "pool3/3x3_s2"
  pooling_param {
    pool: MAX
    kernel_size: 3
    stride: 2
  }
}
layer {
  name: "inception_4a/1x1"
  type: "Convolution"
  bottom: "pool3/3x3_s2"
  top: "inception_4a/1x1"
  param {
    lr_mult: 1
    decay_mult: 1
  }
  param {
    lr_mult: 2
    decay_mult: 0
  }
  convolution_param {
    num_output: 192
    kernel_size: 1
    weight_filler {
      type: "xavier"
      std: 0.03
    }
    bias_filler {
      type: "constant"
      value: 0.2
    }
  }
}
layer {
  name: "inception_4a/relu_1x1"
  type: "ReLU"
  bottom: "inception_4a/1x1"
  top: "inception_4a/1x1"
}
layer {
  name: "inception_4a/3x3_reduce"
  type: "Convolution"
  bottom: "pool3/3x3_s2"
  top: "inception_4a/3x3_reduce"
  param {
    lr_mult: 1
    decay_mult: 1
  }
  param {
    lr_mult: 2
    decay_mult: 0
  }
  convolution_param {
    num_output: 96
    kernel_size: 1
    weight_filler {
      type: "xavier"
      std: 0.09
    }
    bias_filler {
      type: "constant"
      value: 0.2
    }
  }
}
layer {
  name: "inception_4a/relu_3x3_reduce"
  type: "ReLU"
  bottom: "inception_4a/3x3_reduce"
  top: "inception_4a/3x3_reduce"
}
layer {
  name: "inception_4a/3x3"
  type: "Convolution"
  bottom: "inception_4a/3x3_reduce"
  top: "inception_4a/3x3"
  param {
    lr_mult: 1
    decay_mult: 1
  }
  param {
    lr_mult: 2
    decay_mult: 0
  }
  convolution_param {
    num_output: 208
    pad: 1
    kernel_size: 3
    weight_filler {
      type: "xavier"
      std: 0.03
    }
    bias_filler {
      type: "constant"
      value: 0.2
    }
  }
}
layer {
  name: "inception_4a/relu_3x3"
  type: "ReLU"
  bottom: "inception_4a/3x3"
  top: "inception_4a/3x3"
}
layer {
  name: "inception_4a/5x5_reduce"
  type: "Convolution"
  bottom: "pool3/3x3_s2"
  top: "inception_4a/5x5_reduce"
  param {
    lr_mult: 1
    decay_mult: 1
  }
  param {
    lr_mult: 2
    decay_mult: 0
  }
  convolution_param {
    num_output: 16
    kernel_size: 1
    weight_filler {
      type: "xavier"
      std: 0.2
    }
    bias_filler {
      type: "constant"
      value: 0.2
    }
  }
}
layer {
  name: "inception_4a/relu_5x5_reduce"
  type: "ReLU"
  bottom: "inception_4a/5x5_reduce"
  top: "inception_4a/5x5_reduce"
}
layer {
  name: "inception_4a/5x5"
  type: "Convolution"
  bottom: "inception_4a/5x5_reduce"
  top: "inception_4a/5x5"
  param {
    lr_mult: 1
    decay_mult: 1
  }
  param {
    lr_mult: 2
    decay_mult: 0
  }
  convolution_param {
    num_output: 48
    pad: 2
    kernel_size: 5
    weight_filler {
      type: "xavier"
      std: 0.03
    }
    bias_filler {
      type: "constant"
      value: 0.2
    }
  }
}
layer {
  name: "inception_4a/relu_5x5"
  type: "ReLU"
  bottom: "inception_4a/5x5"
  top: "inception_4a/5x5"
}
layer {
  name: "inception_4a/pool"
  type: "Pooling"
  bottom: "pool3/3x3_s2"
  top: "inception_4a/pool"
  pooling_param {
    pool: MAX
    kernel_size: 3
    stride: 1
    pad: 1
  }
}
layer {
  name: "inception_4a/pool_proj"
  type: "Convolution"
  bottom: "inception_4a/pool"
  top: "inception_4a/pool_proj"
  param {
    lr_mult: 1
    decay_mult: 1
  }
  param {
    lr_mult: 2
    decay_mult: 0
  }
  convolution_param {
    num_output: 64
    kernel_size: 1
    weight_filler {
      type: "xavier"
      std: 0.1
    }
    bias_filler {
      type: "constant"
      value: 0.2
    }
  }
}
layer {
  name: "inception_4a/relu_pool_proj"
  type: "ReLU"
  bottom: "inception_4a/pool_proj"
  top: "inception_4a/pool_proj"
}
layer {
  name: "inception_4a/output"
  type: "Concat"
  bottom: "inception_4a/1x1"
  bottom: "inception_4a/3x3"
  bottom: "inception_4a/5x5"
  bottom: "inception_4a/pool_proj"
  top: "inception_4a/output"
}
layer {
  name: "loss1/ave_pool"
  type: "Pooling"
  bottom: "inception_4a/output"
  top: "loss1/ave_pool"
  pooling_param {
    pool: AVE
    kernel_size: 5
    stride: 3
  }
}
layer {
  name: "loss1/conv"
  type: "Convolution"
  bottom: "loss1/ave_pool"
  top: "loss1/conv"
  param {
    lr_mult: 1
    decay_mult: 1
  }
  param {
    lr_mult: 2
    decay_mult: 0
  }
  convolution_param {
    num_output: 128
    kernel_size: 1
    weight_filler {
      type: "xavier"
      std: 0.08
    }
    bias_filler {
      type: "constant"
      value: 0.2
    }
  }
}
layer {
  name: "loss1/relu_conv"
  type: "ReLU"
  bottom: "loss1/conv"
  top: "loss1/conv"
}
layer {
  name: "loss1/fc"
  type: "InnerProduct"
  bottom: "loss1/conv"
  top: "loss1/fc"
  param {
    lr_mult: 1
    decay_mult: 1
  }
  param {
    lr_mult: 2
    decay_mult: 0
  }
  inner_product_param {
    num_output: 1024
    weight_filler {
      type: "xavier"
      std: 0.02
    }
    bias_filler {
      type: "constant"
      value: 0.2
    }
  }
}
layer {
  name: "loss1/relu_fc"
  type: "ReLU"
  bottom: "loss1/fc"
  top: "loss1/fc"
}
layer {
  name: "loss1/drop_fc"
  type: "Dropout"
  bottom: "loss1/fc"
  top: "loss1/fc"
  dropout_param {
    dropout_ratio: 0.7
  }
}
layer {
  name: "loss1/classifier"
  type: "InnerProduct"
  bottom: "loss1/fc"
  top: "loss1/classifier"
  param {
    lr_mult: 1
    decay_mult: 1
  }
  param {
    lr_mult: 2
    decay_mult: 0
  }
  inner_product_param {
    num_output: 2
    weight_filler {
      type: "xavier"
      std: 0.0009765625
    }
    bias_filler {
      type: "constant"
      value: 0
    }
  }
}
layer {
  name: "loss1/loss"
  type: "SoftmaxWithLoss"
  bottom: "loss1/classifier"
  bottom: "label"
  top: "loss1/loss1"
  loss_weight: 0.3
}
layer {
  name: "inception_4b/1x1"
  type: "Convolution"
  bottom: "inception_4a/output"
  top: "inception_4b/1x1"
  param {
    lr_mult: 1
    decay_mult: 1
  }
  param {
    lr_mult: 2
    decay_mult: 0
  }
  convolution_param {
    num_output: 160
    kernel_size: 1
    weight_filler {
      type: "xavier"
      std: 0.03
    }
    bias_filler {
      type: "constant"
      value: 0.2
    }
  }
}
layer {
  name: "inception_4b/relu_1x1"
  type: "ReLU"
  bottom: "inception_4b/1x1"
  top: "inception_4b/1x1"
}
layer {
  name: "inception_4b/3x3_reduce"
  type: "Convolution"
  bottom: "inception_4a/output"
  top: "inception_4b/3x3_reduce"
  param {
    lr_mult: 1
    decay_mult: 1
  }
  param {
    lr_mult: 2
    decay_mult: 0
  }
  convolution_param {
    num_output: 112
    kernel_size: 1
    weight_filler {
      type: "xavier"
      std: 0.09
    }
    bias_filler {
      type: "constant"
      value: 0.2
    }
  }
}
layer {
  name: "inception_4b/relu_3x3_reduce"
  type: "ReLU"
  bottom: "inception_4b/3x3_reduce"
  top: "inception_4b/3x3_reduce"
}
layer {
  name: "inception_4b/3x3"
  type: "Convolution"
  bottom: "inception_4b/3x3_reduce"
  top: "inception_4b/3x3"
  param {
    lr_mult: 1
    decay_mult: 1
  }
  param {
    lr_mult: 2
    decay_mult: 0
  }
  convolution_param {
    num_output: 224
    pad: 1
    kernel_size: 3
    weight_filler {
      type: "xavier"
      std: 0.03
    }
    bias_filler {
      type: "constant"
      value: 0.2
    }
  }
}
layer {
  name: "inception_4b/relu_3x3"
  type: "ReLU"
  bottom: "inception_4b/3x3"
  top: "inception_4b/3x3"
}
layer {
  name: "inception_4b/5x5_reduce"
  type: "Convolution"
  bottom: "inception_4a/output"
  top: "inception_4b/5x5_reduce"
  param {
    lr_mult: 1
    decay_mult: 1
  }
  param {
    lr_mult: 2
    decay_mult: 0
  }
  convolution_param {
    num_output: 24
    kernel_size: 1
    weight_filler {
      type: "xavier"
      std: 0.2
    }
    bias_filler {
      type: "constant"
      value: 0.2
    }
  }
}
layer {
  name: "inception_4b/relu_5x5_reduce"
  type: "ReLU"
  bottom: "inception_4b/5x5_reduce"
  top: "inception_4b/5x5_reduce"
}
layer {
  name: "inception_4b/5x5"
  type: "Convolution"
  bottom: "inception_4b/5x5_reduce"
  top: "inception_4b/5x5"
  param {
    lr_mult: 1
    decay_mult: 1
  }
  param {
    lr_mult: 2
    decay_mult: 0
  }
  convolution_param {
    num_output: 64
    pad: 2
    kernel_size: 5
    weight_filler {
      type: "xavier"
      std: 0.03
    }
    bias_filler {
      type: "constant"
      value: 0.2
    }
  }
}
layer {
  name: "inception_4b/relu_5x5"
  type: "ReLU"
  bottom: "inception_4b/5x5"
  top: "inception_4b/5x5"
}
layer {
  name: "inception_4b/pool"
  type: "Pooling"
  bottom: "inception_4a/output"
  top: "inception_4b/pool"
  pooling_param {
    pool: MAX
    kernel_size: 3
    stride: 1
    pad: 1
  }
}
layer {
  name: "inception_4b/pool_proj"
  type: "Convolution"
  bottom: "inception_4b/pool"
  top: "inception_4b/pool_proj"
  param {
    lr_mult: 1
    decay_mult: 1
  }
  param {
    lr_mult: 2
    decay_mult: 0
  }
  convolution_param {
    num_output: 64
    kernel_size: 1
    weight_filler {
      type: "xavier"
      std: 0.1
    }
    bias_filler {
      type: "constant"
      value: 0.2
    }
  }
}
layer {
  name: "inception_4b/relu_pool_proj"
  type: "ReLU"
  bottom: "inception_4b/pool_proj"
  top: "inception_4b/pool_proj"
}
layer {
  name: "inception_4b/output"
  type: "Concat"
  bottom: "inception_4b/1x1"
  bottom: "inception_4b/3x3"
  bottom: "inception_4b/5x5"
  bottom: "inception_4b/pool_proj"
  top: "inception_4b/output"
}
layer {
  name: "inception_4c/1x1"
  type: "Convolution"
  bottom: "inception_4b/output"
  top: "inception_4c/1x1"
  param {
    lr_mult: 1
    decay_mult: 1
  }
  param {
    lr_mult: 2
    decay_mult: 0
  }
  convolution_param {
    num_output: 128
    kernel_size: 1
    weight_filler {
      type: "xavier"
      std: 0.03
    }
    bias_filler {
      type: "constant"
      value: 0.2
    }
  }
}
layer {
  name: "inception_4c/relu_1x1"
  type: "ReLU"
  bottom: "inception_4c/1x1"
  top: "inception_4c/1x1"
}
layer {
  name: "inception_4c/3x3_reduce"
  type: "Convolution"
  bottom: "inception_4b/output"
  top: "inception_4c/3x3_reduce"
  param {
    lr_mult: 1
    decay_mult: 1
  }
  param {
    lr_mult: 2
    decay_mult: 0
  }
  convolution_param {
    num_output: 128
    kernel_size: 1
    weight_filler {
      type: "xavier"
      std: 0.09
    }
    bias_filler {
      type: "constant"
      value: 0.2
    }
  }
}
layer {
  name: "inception_4c/relu_3x3_reduce"
  type: "ReLU"
  bottom: "inception_4c/3x3_reduce"
  top: "inception_4c/3x3_reduce"
}
layer {
  name: "inception_4c/3x3"
  type: "Convolution"
  bottom: "inception_4c/3x3_reduce"
  top: "inception_4c/3x3"
  param {
    lr_mult: 1
    decay_mult: 1
  }
  param {
    lr_mult: 2
    decay_mult: 0
  }
  convolution_param {
    num_output: 256
    pad: 1
    kernel_size: 3
    weight_filler {
      type: "xavier"
      std: 0.03
    }
    bias_filler {
      type: "constant"
      value: 0.2
    }
  }
}
layer {
  name: "inception_4c/relu_3x3"
  type: "ReLU"
  bottom: "inception_4c/3x3"
  top: "inception_4c/3x3"
}
layer {
  name: "inception_4c/5x5_reduce"
  type: "Convolution"
  bottom: "inception_4b/output"
  top: "inception_4c/5x5_reduce"
  param {
    lr_mult: 1
    decay_mult: 1
  }
  param {
    lr_mult: 2
    decay_mult: 0
  }
  convolution_param {
    num_output: 24
    kernel_size: 1
    weight_filler {
      type: "xavier"
      std: 0.2
    }
    bias_filler {
      type: "constant"
      value: 0.2
    }
  }
}
layer {
  name: "inception_4c/relu_5x5_reduce"
  type: "ReLU"
  bottom: "inception_4c/5x5_reduce"
  top: "inception_4c/5x5_reduce"
}
layer {
  name: "inception_4c/5x5"
  type: "Convolution"
  bottom: "inception_4c/5x5_reduce"
  top: "inception_4c/5x5"
  param {
    lr_mult: 1
    decay_mult: 1
  }
  param {
    lr_mult: 2
    decay_mult: 0
  }
  convolution_param {
    num_output: 64
    pad: 2
    kernel_size: 5
    weight_filler {
      type: "xavier"
      std: 0.03
    }
    bias_filler {
      type: "constant"
      value: 0.2
    }
  }
}
layer {
  name: "inception_4c/relu_5x5"
  type: "ReLU"
  bottom: "inception_4c/5x5"
  top: "inception_4c/5x5"
}
layer {
  name: "inception_4c/pool"
  type: "Pooling"
  bottom: "inception_4b/output"
  top: "inception_4c/pool"
  pooling_param {
    pool: MAX
    kernel_size: 3
    stride: 1
    pad: 1
  }
}
layer {
  name: "inception_4c/pool_proj"
  type: "Convolution"
  bottom: "inception_4c/pool"
  top: "inception_4c/pool_proj"
  param {
    lr_mult: 1
    decay_mult: 1
  }
  param {
    lr_mult: 2
    decay_mult: 0
  }
  convolution_param {
    num_output: 64
    kernel_size: 1
    weight_filler {
      type: "xavier"
      std: 0.1
    }
    bias_filler {
      type: "constant"
      value: 0.2
    }
  }
}
layer {
  name: "inception_4c/relu_pool_proj"
  type: "ReLU"
  bottom: "inception_4c/pool_proj"
  top: "inception_4c/pool_proj"
}
layer {
  name: "inception_4c/output"
  type: "Concat"
  bottom: "inception_4c/1x1"
  bottom: "inception_4c/3x3"
  bottom: "inception_4c/5x5"
  bottom: "inception_4c/pool_proj"
  top: "inception_4c/output"
}
layer {
  name: "inception_4d/1x1"
  type: "Convolution"
  bottom: "inception_4c/output"
  top: "inception_4d/1x1"
  param {
    lr_mult: 1
    decay_mult: 1
  }
  param {
    lr_mult: 2
    decay_mult: 0
  }
  convolution_param {
    num_output: 112
    kernel_size: 1
    weight_filler {
      type: "xavier"
      std: 0.03
    }
    bias_filler {
      type: "constant"
      value: 0.2
    }
  }
}
layer {
  name: "inception_4d/relu_1x1"
  type: "ReLU"
  bottom: "inception_4d/1x1"
  top: "inception_4d/1x1"
}
layer {
  name: "inception_4d/3x3_reduce"
  type: "Convolution"
  bottom: "inception_4c/output"
  top: "inception_4d/3x3_reduce"
  param {
    lr_mult: 1
    decay_mult: 1
  }
  param {
    lr_mult: 2
    decay_mult: 0
  }
  convolution_param {
    num_output: 144
    kernel_size: 1
    weight_filler {
      type: "xavier"
      std: 0.09
    }
    bias_filler {
      type: "constant"
      value: 0.2
    }
  }
}
layer {
  name: "inception_4d/relu_3x3_reduce"
  type: "ReLU"
  bottom: "inception_4d/3x3_reduce"
  top: "inception_4d/3x3_reduce"
}
layer {
  name: "inception_4d/3x3"
  type: "Convolution"
  bottom: "inception_4d/3x3_reduce"
  top: "inception_4d/3x3"
  param {
    lr_mult: 1
    decay_mult: 1
  }
  param {
    lr_mult: 2
    decay_mult: 0
  }
  convolution_param {
    num_output: 288
    pad: 1
    kernel_size: 3
    weight_filler {
      type: "xavier"
      std: 0.03
    }
    bias_filler {
      type: "constant"
      value: 0.2
    }
  }
}
layer {
  name: "inception_4d/relu_3x3"
  type: "ReLU"
  bottom: "inception_4d/3x3"
  top: "inception_4d/3x3"
}
layer {
  name: "inception_4d/5x5_reduce"
  type: "Convolution"
  bottom: "inception_4c/output"
  top: "inception_4d/5x5_reduce"
  param {
    lr_mult: 1
    decay_mult: 1
  }
  param {
    lr_mult: 2
    decay_mult: 0
  }
  convolution_param {
    num_output: 32
    kernel_size: 1
    weight_filler {
      type: "xavier"
      std: 0.2
    }
    bias_filler {
      type: "constant"
      value: 0.2
    }
  }
}
layer {
  name: "inception_4d/relu_5x5_reduce"
  type: "ReLU"
  bottom: "inception_4d/5x5_reduce"
  top: "inception_4d/5x5_reduce"
}
layer {
  name: "inception_4d/5x5"
  type: "Convolution"
  bottom: "inception_4d/5x5_reduce"
  top: "inception_4d/5x5"
  param {
    lr_mult: 1
    decay_mult: 1
  }
  param {
    lr_mult: 2
    decay_mult: 0
  }
  convolution_param {
    num_output: 64
    pad: 2
    kernel_size: 5
    weight_filler {
      type: "xavier"
      std: 0.03
    }
    bias_filler {
      type: "constant"
      value: 0.2
    }
  }
}
layer {
  name: "inception_4d/relu_5x5"
  type: "ReLU"
  bottom: "inception_4d/5x5"
  top: "inception_4d/5x5"
}
layer {
  name: "inception_4d/pool"
  type: "Pooling"
  bottom: "inception_4c/output"
  top: "inception_4d/pool"
  pooling_param {
    pool: MAX
    kernel_size: 3
    stride: 1
    pad: 1
  }
}
layer {
  name: "inception_4d/pool_proj"
  type: "Convolution"
  bottom: "inception_4d/pool"
  top: "inception_4d/pool_proj"
  param {
    lr_mult: 1
    decay_mult: 1
  }
  param {
    lr_mult: 2
    decay_mult: 0
  }
  convolution_param {
    num_output: 64
    kernel_size: 1
    weight_filler {
      type: "xavier"
      std: 0.1
    }
    bias_filler {
      type: "constant"
      value: 0.2
    }
  }
}
layer {
  name: "inception_4d/relu_pool_proj"
  type: "ReLU"
  bottom: "inception_4d/pool_proj"
  top: "inception_4d/pool_proj"
}
layer {
  name: "inception_4d/output"
  type: "Concat"
  bottom: "inception_4d/1x1"
  bottom: "inception_4d/3x3"
  bottom: "inception_4d/5x5"
  bottom: "inception_4d/pool_proj"
  top: "inception_4d/output"
}
layer {
  name: "loss2/ave_pool"
  type: "Pooling"
  bottom: "inception_4d/output"
  top: "loss2/ave_pool"
  pooling_param {
    pool: AVE
    kernel_size: 5
    stride: 3
  }
}
layer {
  name: "loss2/conv"
  type: "Convolution"
  bottom: "loss2/ave_pool"
  top: "loss2/conv"
  param {
    lr_mult: 1
    decay_mult: 1
  }
  param {
    lr_mult: 2
    decay_mult: 0
  }
  convolution_param {
    num_output: 128
    kernel_size: 1
    weight_filler {
      type: "xavier"
      std: 0.08
    }
    bias_filler {
      type: "constant"
      value: 0.2
    }
  }
}
layer {
  name: "loss2/relu_conv"
  type: "ReLU"
  bottom: "loss2/conv"
  top: "loss2/conv"
}
layer {
  name: "loss2/fc"
  type: "InnerProduct"
  bottom: "loss2/conv"
  top: "loss2/fc"
  param {
    lr_mult: 1
    decay_mult: 1
  }
  param {
    lr_mult: 2
    decay_mult: 0
  }
  inner_product_param {
    num_output: 1024
    weight_filler {
      type: "xavier"
      std: 0.02
    }
    bias_filler {
      type: "constant"
      value: 0.2
    }
  }
}
layer {
  name: "loss2/relu_fc"
  type: "ReLU"
  bottom: "loss2/fc"
  top: "loss2/fc"
}
layer {
  name: "loss2/drop_fc"
  type: "Dropout"
  bottom: "loss2/fc"
  top: "loss2/fc"
  dropout_param {
    dropout_ratio: 0.7
  }
}
layer {
  name: "loss2/classifier"
  type: "InnerProduct"
  bottom: "loss2/fc"
  top: "loss2/classifier"
  param {
    lr_mult: 1
    decay_mult: 1
  }
  param {
    lr_mult: 2
    decay_mult: 0
  }
  inner_product_param {
    num_output: 2
    weight_filler {
      type: "xavier"
      std: 0.0009765625
    }
    bias_filler {
      type: "constant"
      value: 0
    }
  }
}
layer {
  name: "loss2/loss"
  type: "SoftmaxWithLoss"
  bottom: "loss2/classifier"
  bottom: "label"
  top: "loss2/loss1"
  loss_weight: 0.3
}
layer {
  name: "inception_4e/1x1"
  type: "Convolution"
  bottom: "inception_4d/output"
  top: "inception_4e/1x1"
  param {
    lr_mult: 1
    decay_mult: 1
  }
  param {
    lr_mult: 2
    decay_mult: 0
  }
  convolution_param {
    num_output: 256
    kernel_size: 1
    weight_filler {
      type: "xavier"
      std: 0.03
    }
    bias_filler {
      type: "constant"
      value: 0.2
    }
  }
}
layer {
  name: "inception_4e/relu_1x1"
  type: "ReLU"
  bottom: "inception_4e/1x1"
  top: "inception_4e/1x1"
}
layer {
  name: "inception_4e/3x3_reduce"
  type: "Convolution"
  bottom: "inception_4d/output"
  top: "inception_4e/3x3_reduce"
  param {
    lr_mult: 1
    decay_mult: 1
  }
  param {
    lr_mult: 2
    decay_mult: 0
  }
  convolution_param {
    num_output: 160
    kernel_size: 1
    weight_filler {
      type: "xavier"
      std: 0.09
    }
    bias_filler {
      type: "constant"
      value: 0.2
    }
  }
}
layer {
  name: "inception_4e/relu_3x3_reduce"
  type: "ReLU"
  bottom: "inception_4e/3x3_reduce"
  top: "inception_4e/3x3_reduce"
}
layer {
  name: "inception_4e/3x3"
  type: "Convolution"
  bottom: "inception_4e/3x3_reduce"
  top: "inception_4e/3x3"
  param {
    lr_mult: 1
    decay_mult: 1
  }
  param {
    lr_mult: 2
    decay_mult: 0
  }
  convolution_param {
    num_output: 320
    pad: 1
    kernel_size: 3
    weight_filler {
      type: "xavier"
      std: 0.03
    }
    bias_filler {
      type: "constant"
      value: 0.2
    }
  }
}
layer {
  name: "inception_4e/relu_3x3"
  type: "ReLU"
  bottom: "inception_4e/3x3"
  top: "inception_4e/3x3"
}
layer {
  name: "inception_4e/5x5_reduce"
  type: "Convolution"
  bottom: "inception_4d/output"
  top: "inception_4e/5x5_reduce"
  param {
    lr_mult: 1
    decay_mult: 1
  }
  param {
    lr_mult: 2
    decay_mult: 0
  }
  convolution_param {
    num_output: 32
    kernel_size: 1
    weight_filler {
      type: "xavier"
      std: 0.2
    }
    bias_filler {
      type: "constant"
      value: 0.2
    }
  }
}
layer {
  name: "inception_4e/relu_5x5_reduce"
  type: "ReLU"
  bottom: "
I0509 22:30:05.288211 20634 layer_factory.hpp:74] Creating layer data
I0509 22:30:05.288245 20634 net.cpp:76] Creating Layer data
I0509 22:30:05.288257 20634 net.cpp:334] data -> data
I0509 22:30:05.288305 20634 net.cpp:334] data -> label
I0509 22:30:05.288327 20634 net.cpp:105] Setting up data
I0509 22:30:05.288450 20634 db.cpp:34] Opened lmdb train_lmdb
I0509 22:30:05.288741 20634 data_layer.cpp:67] output data size: 32,3,224,224
I0509 22:30:05.295856 20634 net.cpp:112] Top shape: 32 3 224 224 (4816896)
I0509 22:30:05.295884 20634 net.cpp:112] Top shape: 32 1 1 1 (32)
I0509 22:30:05.295894 20634 layer_factory.hpp:74] Creating layer label_data_1_split
I0509 22:30:05.295912 20634 net.cpp:76] Creating Layer label_data_1_split
I0509 22:30:05.295922 20634 net.cpp:372] label_data_1_split <- label
I0509 22:30:05.295939 20634 net.cpp:334] label_data_1_split -> label_data_1_split_0
I0509 22:30:05.295954 20634 net.cpp:334] label_data_1_split -> label_data_1_split_1
I0509 22:30:05.295964 20634 net.cpp:334] label_data_1_split -> label_data_1_split_2
I0509 22:30:05.295972 20634 net.cpp:105] Setting up label_data_1_split
I0509 22:30:05.295981 20634 net.cpp:112] Top shape: 32 1 1 1 (32)
I0509 22:30:05.295987 20634 net.cpp:112] Top shape: 32 1 1 1 (32)
I0509 22:30:05.295992 20634 net.cpp:112] Top shape: 32 1 1 1 (32)
I0509 22:30:05.295999 20634 layer_factory.hpp:74] Creating layer conv1/7x7_s2
I0509 22:30:05.296022 20634 net.cpp:76] Creating Layer conv1/7x7_s2
I0509 22:30:05.296033 20634 net.cpp:372] conv1/7x7_s2 <- data
I0509 22:30:05.296044 20634 net.cpp:334] conv1/7x7_s2 -> conv1/7x7_s2
I0509 22:30:05.296057 20634 net.cpp:105] Setting up conv1/7x7_s2
I0509 22:30:05.296186 20634 net.cpp:112] Top shape: 32 64 112 112 (25690112)
I0509 22:30:05.296241 20634 layer_factory.hpp:74] Creating layer conv1/relu_7x7
I0509 22:30:05.296252 20634 net.cpp:76] Creating Layer conv1/relu_7x7
I0509 22:30:05.296257 20634 net.cpp:372] conv1/relu_7x7 <- conv1/7x7_s2
I0509 22:30:05.296265 20634 net.cpp:323] conv1/relu_7x7 -> conv1/7x7_s2 (in-place)
I0509 22:30:05.296291 20634 net.cpp:105] Setting up conv1/relu_7x7
I0509 22:30:05.296301 20634 net.cpp:112] Top shape: 32 64 112 112 (25690112)
I0509 22:30:05.296308 20634 layer_factory.hpp:74] Creating layer pool1/3x3_s2
I0509 22:30:05.296318 20634 net.cpp:76] Creating Layer pool1/3x3_s2
I0509 22:30:05.296324 20634 net.cpp:372] pool1/3x3_s2 <- conv1/7x7_s2
I0509 22:30:05.296331 20634 net.cpp:334] pool1/3x3_s2 -> pool1/3x3_s2
I0509 22:30:05.296341 20634 net.cpp:105] Setting up pool1/3x3_s2
I0509 22:30:05.296355 20634 net.cpp:112] Top shape: 32 64 56 56 (6422528)
I0509 22:30:05.296362 20634 layer_factory.hpp:74] Creating layer pool1/norm1
I0509 22:30:05.296372 20634 net.cpp:76] Creating Layer pool1/norm1
I0509 22:30:05.296378 20634 net.cpp:372] pool1/norm1 <- pool1/3x3_s2
I0509 22:30:05.296386 20634 net.cpp:334] pool1/norm1 -> pool1/norm1
I0509 22:30:05.296396 20634 net.cpp:105] Setting up pool1/norm1
I0509 22:30:05.296403 20634 net.cpp:112] Top shape: 32 64 56 56 (6422528)
I0509 22:30:05.296408 20634 layer_factory.hpp:74] Creating layer conv2/3x3_reduce
I0509 22:30:05.296417 20634 net.cpp:76] Creating Layer conv2/3x3_reduce
I0509 22:30:05.296423 20634 net.cpp:372] conv2/3x3_reduce <- pool1/norm1
I0509 22:30:05.296432 20634 net.cpp:334] conv2/3x3_reduce -> conv2/3x3_reduce
I0509 22:30:05.296442 20634 net.cpp:105] Setting up conv2/3x3_reduce
I0509 22:30:05.296491 20634 net.cpp:112] Top shape: 32 64 56 56 (6422528)
I0509 22:30:05.296504 20634 layer_factory.hpp:74] Creating layer conv2/relu_3x3_reduce
I0509 22:30:05.296512 20634 net.cpp:76] Creating Layer conv2/relu_3x3_reduce
I0509 22:30:05.296517 20634 net.cpp:372] conv2/relu_3x3_reduce <- conv2/3x3_reduce
I0509 22:30:05.296525 20634 net.cpp:323] conv2/relu_3x3_reduce -> conv2/3x3_reduce (in-place)
I0509 22:30:05.296532 20634 net.cpp:105] Setting up conv2/relu_3x3_reduce
I0509 22:30:05.296537 20634 net.cpp:112] Top shape: 32 64 56 56 (6422528)
I0509 22:30:05.296543 20634 layer_factory.hpp:74] Creating layer conv2/3x3
I0509 22:30:05.296553 20634 net.cpp:76] Creating Layer conv2/3x3
I0509 22:30:05.296558 20634 net.cpp:372] conv2/3x3 <- conv2/3x3_reduce
I0509 22:30:05.296566 20634 net.cpp:334] conv2/3x3 -> conv2/3x3
I0509 22:30:05.296579 20634 net.cpp:105] Setting up conv2/3x3
I0509 22:30:05.297468 20634 net.cpp:112] Top shape: 32 192 56 56 (19267584)
I0509 22:30:05.297485 20634 layer_factory.hpp:74] Creating layer conv2/relu_3x3
I0509 22:30:05.297494 20634 net.cpp:76] Creating Layer conv2/relu_3x3
I0509 22:30:05.297500 20634 net.cpp:372] conv2/relu_3x3 <- conv2/3x3
I0509 22:30:05.297508 20634 net.cpp:323] conv2/relu_3x3 -> conv2/3x3 (in-place)
I0509 22:30:05.297514 20634 net.cpp:105] Setting up conv2/relu_3x3
I0509 22:30:05.297520 20634 net.cpp:112] Top shape: 32 192 56 56 (19267584)
I0509 22:30:05.297525 20634 layer_factory.hpp:74] Creating layer conv2/norm2
I0509 22:30:05.297538 20634 net.cpp:76] Creating Layer conv2/norm2
I0509 22:30:05.297545 20634 net.cpp:372] conv2/norm2 <- conv2/3x3
I0509 22:30:05.297552 20634 net.cpp:334] conv2/norm2 -> conv2/norm2
I0509 22:30:05.297560 20634 net.cpp:105] Setting up conv2/norm2
I0509 22:30:05.297566 20634 net.cpp:112] Top shape: 32 192 56 56 (19267584)
I0509 22:30:05.297572 20634 layer_factory.hpp:74] Creating layer pool2/3x3_s2
I0509 22:30:05.297581 20634 net.cpp:76] Creating Layer pool2/3x3_s2
I0509 22:30:05.297587 20634 net.cpp:372] pool2/3x3_s2 <- conv2/norm2
I0509 22:30:05.297595 20634 net.cpp:334] pool2/3x3_s2 -> pool2/3x3_s2
I0509 22:30:05.297602 20634 net.cpp:105] Setting up pool2/3x3_s2
I0509 22:30:05.297610 20634 net.cpp:112] Top shape: 32 192 28 28 (4816896)
I0509 22:30:05.297616 20634 layer_factory.hpp:74] Creating layer pool2/3x3_s2_pool2/3x3_s2_0_split
I0509 22:30:05.297622 20634 net.cpp:76] Creating Layer pool2/3x3_s2_pool2/3x3_s2_0_split
I0509 22:30:05.297647 20634 net.cpp:372] pool2/3x3_s2_pool2/3x3_s2_0_split <- pool2/3x3_s2
I0509 22:30:05.297659 20634 net.cpp:334] pool2/3x3_s2_pool2/3x3_s2_0_split -> pool2/3x3_s2_pool2/3x3_s2_0_split_0
I0509 22:30:05.297669 20634 net.cpp:334] pool2/3x3_s2_pool2/3x3_s2_0_split -> pool2/3x3_s2_pool2/3x3_s2_0_split_1
I0509 22:30:05.297678 20634 net.cpp:334] pool2/3x3_s2_pool2/3x3_s2_0_split -> pool2/3x3_s2_pool2/3x3_s2_0_split_2
I0509 22:30:05.297688 20634 net.cpp:334] pool2/3x3_s2_pool2/3x3_s2_0_split -> pool2/3x3_s2_pool2/3x3_s2_0_split_3
I0509 22:30:05.297694 20634 net.cpp:105] Setting up pool2/3x3_s2_pool2/3x3_s2_0_split
I0509 22:30:05.297701 20634 net.cpp:112] Top shape: 32 192 28 28 (4816896)
I0509 22:30:05.297706 20634 net.cpp:112] Top shape: 32 192 28 28 (4816896)
I0509 22:30:05.297711 20634 net.cpp:112] Top shape: 32 192 28 28 (4816896)
I0509 22:30:05.297716 20634 net.cpp:112] Top shape: 32 192 28 28 (4816896)
I0509 22:30:05.297722 20634 layer_factory.hpp:74] Creating layer inception_3a/1x1
I0509 22:30:05.297734 20634 net.cpp:76] Creating Layer inception_3a/1x1
I0509 22:30:05.297739 20634 net.cpp:372] inception_3a/1x1 <- pool2/3x3_s2_pool2/3x3_s2_0_split_0
I0509 22:30:05.297770 20634 net.cpp:334] inception_3a/1x1 -> inception_3a/1x1
I0509 22:30:05.297781 20634 net.cpp:105] Setting up inception_3a/1x1
I0509 22:30:05.297906 20634 net.cpp:112] Top shape: 32 64 28 28 (1605632)
I0509 22:30:05.297926 20634 layer_factory.hpp:74] Creating layer inception_3a/relu_1x1
I0509 22:30:05.297950 20634 net.cpp:76] Creating Layer inception_3a/relu_1x1
I0509 22:30:05.297961 20634 net.cpp:372] inception_3a/relu_1x1 <- inception_3a/1x1
I0509 22:30:05.297971 20634 net.cpp:323] inception_3a/relu_1x1 -> inception_3a/1x1 (in-place)
I0509 22:30:05.297978 20634 net.cpp:105] Setting up inception_3a/relu_1x1
I0509 22:30:05.297984 20634 net.cpp:112] Top shape: 32 64 28 28 (1605632)
I0509 22:30:05.297993 20634 layer_factory.hpp:74] Creating layer inception_3a/3x3_reduce
I0509 22:30:05.298005 20634 net.cpp:76] Creating Layer inception_3a/3x3_reduce
I0509 22:30:05.298012 20634 net.cpp:372] inception_3a/3x3_reduce <- pool2/3x3_s2_pool2/3x3_s2_0_split_1
I0509 22:30:05.298019 20634 net.cpp:334] inception_3a/3x3_reduce -> inception_3a/3x3_reduce
I0509 22:30:05.298028 20634 net.cpp:105] Setting up inception_3a/3x3_reduce
I0509 22:30:05.298607 20634 net.cpp:112] Top shape: 32 96 28 28 (2408448)
I0509 22:30:05.298631 20634 layer_factory.hpp:74] Creating layer inception_3a/relu_3x3_reduce
I0509 22:30:05.298646 20634 net.cpp:76] Creating Layer inception_3a/relu_3x3_reduce
I0509 22:30:05.298653 20634 net.cpp:372] inception_3a/relu_3x3_reduce <- inception_3a/3x3_reduce
I0509 22:30:05.298661 20634 net.cpp:323] inception_3a/relu_3x3_reduce -> inception_3a/3x3_reduce (in-place)
I0509 22:30:05.298671 20634 net.cpp:105] Setting up inception_3a/relu_3x3_reduce
I0509 22:30:05.298676 20634 net.cpp:112] Top shape: 32 96 28 28 (2408448)
I0509 22:30:05.298682 20634 layer_factory.hpp:74] Creating layer inception_3a/3x3
I0509 22:30:05.298693 20634 net.cpp:76] Creating Layer inception_3a/3x3
I0509 22:30:05.298702 20634 net.cpp:372] inception_3a/3x3 <- inception_3a/3x3_reduce
I0509 22:30:05.298712 20634 net.cpp:334] inception_3a/3x3 -> inception_3a/3x3
I0509 22:30:05.298720 20634 net.cpp:105] Setting up inception_3a/3x3
I0509 22:30:05.299926 20634 net.cpp:112] Top shape: 32 128 28 28 (3211264)
I0509 22:30:05.299960 20634 layer_factory.hpp:74] Creating layer inception_3a/relu_3x3
I0509 22:30:05.299979 20634 net.cpp:76] Creating Layer inception_3a/relu_3x3
I0509 22:30:05.299993 20634 net.cpp:372] inception_3a/relu_3x3 <- inception_3a/3x3
I0509 22:30:05.300011 20634 net.cpp:323] inception_3a/relu_3x3 -> inception_3a/3x3 (in-place)
I0509 22:30:05.300029 20634 net.cpp:105] Setting up inception_3a/relu_3x3
I0509 22:30:05.300040 20634 net.cpp:112] Top shape: 32 128 28 28 (3211264)
I0509 22:30:05.300045 20634 layer_factory.hpp:74] Creating layer inception_3a/5x5_reduce
I0509 22:30:05.300055 20634 net.cpp:76] Creating Layer inception_3a/5x5_reduce
I0509 22:30:05.300101 20634 net.cpp:372] inception_3a/5x5_reduce <- pool2/3x3_s2_pool2/3x3_s2_0_split_2
I0509 22:30:05.300125 20634 net.cpp:334] inception_3a/5x5_reduce -> inception_3a/5x5_reduce
I0509 22:30:05.300148 20634 net.cpp:105] Setting up inception_3a/5x5_reduce
I0509 22:30:05.300221 20634 net.cpp:112] Top shape: 32 16 28 28 (401408)
I0509 22:30:05.300241 20634 layer_factory.hpp:74] Creating layer inception_3a/relu_5x5_reduce
I0509 22:30:05.300251 20634 net.cpp:76] Creating Layer inception_3a/relu_5x5_reduce
I0509 22:30:05.300256 20634 net.cpp:372] inception_3a/relu_5x5_reduce <- inception_3a/5x5_reduce
I0509 22:30:05.300264 20634 net.cpp:323] inception_3a/relu_5x5_reduce -> inception_3a/5x5_reduce (in-place)
I0509 22:30:05.300290 20634 net.cpp:105] Setting up inception_3a/relu_5x5_reduce
I0509 22:30:05.300297 20634 net.cpp:112] Top shape: 32 16 28 28 (401408)
I0509 22:30:05.300303 20634 layer_factory.hpp:74] Creating layer inception_3a/5x5
I0509 22:30:05.300315 20634 net.cpp:76] Creating Layer inception_3a/5x5
I0509 22:30:05.300323 20634 net.cpp:372] inception_3a/5x5 <- inception_3a/5x5_reduce
I0509 22:30:05.300338 20634 net.cpp:334] inception_3a/5x5 -> inception_3a/5x5
I0509 22:30:05.300355 20634 net.cpp:105] Setting up inception_3a/5x5
I0509 22:30:05.300539 20634 net.cpp:112] Top shape: 32 32 28 28 (802816)
I0509 22:30:05.300559 20634 layer_factory.hpp:74] Creating layer inception_3a/relu_5x5
I0509 22:30:05.300571 20634 net.cpp:76] Creating Layer inception_3a/relu_5x5
I0509 22:30:05.300578 20634 net.cpp:372] inception_3a/relu_5x5 <- inception_3a/5x5
I0509 22:30:05.300586 20634 net.cpp:323] inception_3a/relu_5x5 -> inception_3a/5x5 (in-place)
I0509 22:30:05.300595 20634 net.cpp:105] Setting up inception_3a/relu_5x5
I0509 22:30:05.300601 20634 net.cpp:112] Top shape: 32 32 28 28 (802816)
I0509 22:30:05.300606 20634 layer_factory.hpp:74] Creating layer inception_3a/pool
I0509 22:30:05.300614 20634 net.cpp:76] Creating Layer inception_3a/pool
I0509 22:30:05.300621 20634 net.cpp:372] inception_3a/pool <- pool2/3x3_s2_pool2/3x3_s2_0_split_3
I0509 22:30:05.300631 20634 net.cpp:334] inception_3a/pool -> inception_3a/pool
I0509 22:30:05.300639 20634 net.cpp:105] Setting up inception_3a/pool
I0509 22:30:05.300647 20634 net.cpp:112] Top shape: 32 192 28 28 (4816896)
I0509 22:30:05.300652 20634 layer_factory.hpp:74] Creating layer inception_3a/pool_proj
I0509 22:30:05.300662 20634 net.cpp:76] Creating Layer inception_3a/pool_proj
I0509 22:30:05.300667 20634 net.cpp:372] inception_3a/pool_proj <- inception_3a/pool
I0509 22:30:05.300678 20634 net.cpp:334] inception_3a/pool_proj -> inception_3a/pool_proj
I0509 22:30:05.300688 20634 net.cpp:105] Setting up inception_3a/pool_proj
I0509 22:30:05.300829 20634 net.cpp:112] Top shape: 32 32 28 28 (802816)
I0509 22:30:05.300848 20634 layer_factory.hpp:74] Creating layer inception_3a/relu_pool_proj
I0509 22:30:05.300856 20634 net.cpp:76] Creating Layer inception_3a/relu_pool_proj
I0509 22:30:05.300863 20634 net.cpp:372] inception_3a/relu_pool_proj <- inception_3a/pool_proj
I0509 22:30:05.300869 20634 net.cpp:323] inception_3a/relu_pool_proj -> inception_3a/pool_proj (in-place)
I0509 22:30:05.300878 20634 net.cpp:105] Setting up inception_3a/relu_pool_proj
I0509 22:30:05.300884 20634 net.cpp:112] Top shape: 32 32 28 28 (802816)
I0509 22:30:05.300889 20634 layer_factory.hpp:74] Creating layer inception_3a/output
I0509 22:30:05.300899 20634 net.cpp:76] Creating Layer inception_3a/output
I0509 22:30:05.300904 20634 net.cpp:372] inception_3a/output <- inception_3a/1x1
I0509 22:30:05.300911 20634 net.cpp:372] inception_3a/output <- inception_3a/3x3
I0509 22:30:05.300917 20634 net.cpp:372] inception_3a/output <- inception_3a/5x5
I0509 22:30:05.300925 20634 net.cpp:372] inception_3a/output <- inception_3a/pool_proj
I0509 22:30:05.300931 20634 net.cpp:334] inception_3a/output -> inception_3a/output
I0509 22:30:05.300940 20634 net.cpp:105] Setting up inception_3a/output
I0509 22:30:05.300947 20634 net.cpp:112] Top shape: 32 256 28 28 (6422528)
I0509 22:30:05.300953 20634 layer_factory.hpp:74] Creating layer inception_3a/output_inception_3a/output_0_split
I0509 22:30:05.300978 20634 net.cpp:76] Creating Layer inception_3a/output_inception_3a/output_0_split
I0509 22:30:05.300986 20634 net.cpp:372] inception_3a/output_inception_3a/output_0_split <- inception_3a/output
I0509 22:30:05.300995 20634 net.cpp:334] inception_3a/output_inception_3a/output_0_split -> inception_3a/output_inception_3a/output_0_split_0
I0509 22:30:05.301005 20634 net.cpp:334] inception_3a/output_inception_3a/output_0_split -> inception_3a/output_inception_3a/output_0_split_1
I0509 22:30:05.301015 20634 net.cpp:334] inception_3a/output_inception_3a/output_0_split -> inception_3a/output_inception_3a/output_0_split_2
I0509 22:30:05.301024 20634 net.cpp:334] inception_3a/output_inception_3a/output_0_split -> inception_3a/output_inception_3a/output_0_split_3
I0509 22:30:05.301031 20634 net.cpp:105] Setting up inception_3a/output_inception_3a/output_0_split
I0509 22:30:05.301038 20634 net.cpp:112] Top shape: 32 256 28 28 (6422528)
I0509 22:30:05.301043 20634 net.cpp:112] Top shape: 32 256 28 28 (6422528)
I0509 22:30:05.301048 20634 net.cpp:112] Top shape: 32 256 28 28 (6422528)
I0509 22:30:05.301054 20634 net.cpp:112] Top shape: 32 256 28 28 (6422528)
I0509 22:30:05.301059 20634 layer_factory.hpp:74] Creating layer inception_3b/1x1
I0509 22:30:05.301069 20634 net.cpp:76] Creating Layer inception_3b/1x1
I0509 22:30:05.301075 20634 net.cpp:372] inception_3b/1x1 <- inception_3a/output_inception_3a/output_0_split_0
I0509 22:30:05.301085 20634 net.cpp:334] inception_3b/1x1 -> inception_3b/1x1
I0509 22:30:05.301095 20634 net.cpp:105] Setting up inception_3b/1x1
I0509 22:30:05.301496 20634 net.cpp:112] Top shape: 32 128 28 28 (3211264)
I0509 22:30:05.301512 20634 layer_factory.hpp:74] Creating layer inception_3b/relu_1x1
I0509 22:30:05.301522 20634 net.cpp:76] Creating Layer inception_3b/relu_1x1
I0509 22:30:05.301528 20634 net.cpp:372] inception_3b/relu_1x1 <- inception_3b/1x1
I0509 22:30:05.301537 20634 net.cpp:323] inception_3b/relu_1x1 -> inception_3b/1x1 (in-place)
I0509 22:30:05.301544 20634 net.cpp:105] Setting up inception_3b/relu_1x1
I0509 22:30:05.301549 20634 net.cpp:112] Top shape: 32 128 28 28 (3211264)
I0509 22:30:05.301555 20634 layer_factory.hpp:74] Creating layer inception_3b/3x3_reduce
I0509 22:30:05.301566 20634 net.cpp:76] Creating Layer inception_3b/3x3_reduce
I0509 22:30:05.301573 20634 net.cpp:372] inception_3b/3x3_reduce <- inception_3a/output_inception_3a/output_0_split_1
I0509 22:30:05.301581 20634 net.cpp:334] inception_3b/3x3_reduce -> inception_3b/3x3_reduce
I0509 22:30:05.301590 20634 net.cpp:105] Setting up inception_3b/3x3_reduce
I0509 22:30:05.302197 20634 net.cpp:112] Top shape: 32 128 28 28 (3211264)
I0509 22:30:05.302217 20634 layer_factory.hpp:74] Creating layer inception_3b/relu_3x3_reduce
I0509 22:30:05.302227 20634 net.cpp:76] Creating Layer inception_3b/relu_3x3_reduce
I0509 22:30:05.302233 20634 net.cpp:372] inception_3b/relu_3x3_reduce <- inception_3b/3x3_reduce
I0509 22:30:05.302242 20634 net.cpp:323] inception_3b/relu_3x3_reduce -> inception_3b/3x3_reduce (in-place)
I0509 22:30:05.302249 20634 net.cpp:105] Setting up inception_3b/relu_3x3_reduce
I0509 22:30:05.302255 20634 net.cpp:112] Top shape: 32 128 28 28 (3211264)
I0509 22:30:05.302260 20634 layer_factory.hpp:74] Creating layer inception_3b/3x3
I0509 22:30:05.302287 20634 net.cpp:76] Creating Layer inception_3b/3x3
I0509 22:30:05.302294 20634 net.cpp:372] inception_3b/3x3 <- inception_3b/3x3_reduce
I0509 22:30:05.302304 20634 net.cpp:334] inception_3b/3x3 -> inception_3b/3x3
I0509 22:30:05.302314 20634 net.cpp:105] Setting up inception_3b/3x3
I0509 22:30:05.304936 20634 net.cpp:112] Top shape: 32 192 28 28 (4816896)
I0509 22:30:05.304975 20634 layer_factory.hpp:74] Creating layer inception_3b/relu_3x3
I0509 22:30:05.304993 20634 net.cpp:76] Creating Layer inception_3b/relu_3x3
I0509 22:30:05.305006 20634 net.cpp:372] inception_3b/relu_3x3 <- inception_3b/3x3
I0509 22:30:05.305019 20634 net.cpp:323] inception_3b/relu_3x3 -> inception_3b/3x3 (in-place)
I0509 22:30:05.305073 20634 net.cpp:105] Setting up inception_3b/relu_3x3
I0509 22:30:05.305085 20634 net.cpp:112] Top shape: 32 192 28 28 (4816896)
I0509 22:30:05.305096 20634 layer_factory.hpp:74] Creating layer inception_3b/5x5_reduce
I0509 22:30:05.305117 20634 net.cpp:76] Creating Layer inception_3b/5x5_reduce
I0509 22:30:05.305129 20634 net.cpp:372] inception_3b/5x5_reduce <- inception_3a/output_inception_3a/output_0_split_2
I0509 22:30:05.305145 20634 net.cpp:334] inception_3b/5x5_reduce -> inception_3b/5x5_reduce
I0509 22:30:05.305162 20634 net.cpp:105] Setting up inception_3b/5x5_reduce
I0509 22:30:05.305305 20634 net.cpp:112] Top shape: 32 32 28 28 (802816)
I0509 22:30:05.305328 20634 layer_factory.hpp:74] Creating layer inception_3b/relu_5x5_reduce
I0509 22:30:05.305342 20634 net.cpp:76] Creating Layer inception_3b/relu_5x5_reduce
I0509 22:30:05.305353 20634 net.cpp:372] inception_3b/relu_5x5_reduce <- inception_3b/5x5_reduce
I0509 22:30:05.305371 20634 net.cpp:323] inception_3b/relu_5x5_reduce -> inception_3b/5x5_reduce (in-place)
I0509 22:30:05.305387 20634 net.cpp:105] Setting up inception_3b/relu_5x5_reduce
I0509 22:30:05.305397 20634 net.cpp:112] Top shape: 32 32 28 28 (802816)
I0509 22:30:05.305408 20634 layer_factory.hpp:74] Creating layer inception_3b/5x5
I0509 22:30:05.305423 20634 net.cpp:76] Creating Layer inception_3b/5x5
I0509 22:30:05.305433 20634 net.cpp:372] inception_3b/5x5 <- inception_3b/5x5_reduce
I0509 22:30:05.305452 20634 net.cpp:334] inception_3b/5x5 -> inception_3b/5x5
I0509 22:30:05.305474 20634 net.cpp:105] Setting up inception_3b/5x5
I0509 22:30:05.306305 20634 net.cpp:112] Top shape: 32 96 28 28 (2408448)
I0509 22:30:05.306334 20634 layer_factory.hpp:74] Creating layer inception_3b/relu_5x5
I0509 22:30:05.306346 20634 net.cpp:76] Creating Layer inception_3b/relu_5x5
I0509 22:30:05.306354 20634 net.cpp:372] inception_3b/relu_5x5 <- inception_3b/5x5
I0509 22:30:05.306360 20634 net.cpp:323] inception_3b/relu_5x5 -> inception_3b/5x5 (in-place)
I0509 22:30:05.306370 20634 net.cpp:105] Setting up inception_3b/relu_5x5
I0509 22:30:05.306375 20634 net.cpp:112] Top shape: 32 96 28 28 (2408448)
I0509 22:30:05.306380 20634 layer_factory.hpp:74] Creating layer inception_3b/pool
I0509 22:30:05.306388 20634 net.cpp:76] Creating Layer inception_3b/pool
I0509 22:30:05.306395 20634 net.cpp:372] inception_3b/pool <- inception_3a/output_inception_3a/output_0_split_3
I0509 22:30:05.306404 20634 net.cpp:334] inception_3b/pool -> inception_3b/pool
I0509 22:30:05.306414 20634 net.cpp:105] Setting up inception_3b/pool
I0509 22:30:05.306422 20634 net.cpp:112] Top shape: 32 256 28 28 (6422528)
I0509 22:30:05.306428 20634 layer_factory.hpp:74] Creating layer inception_3b/pool_proj
I0509 22:30:05.306437 20634 net.cpp:76] Creating Layer inception_3b/pool_proj
I0509 22:30:05.306443 20634 net.cpp:372] inception_3b/pool_proj <- inception_3b/pool
I0509 22:30:05.306453 20634 net.cpp:334] inception_3b/pool_proj -> inception_3b/pool_proj
I0509 22:30:05.306463 20634 net.cpp:105] Setting up inception_3b/pool_proj
I0509 22:30:05.306668 20634 net.cpp:112] Top shape: 32 64 28 28 (1605632)
I0509 22:30:05.306682 20634 layer_factory.hpp:74] Creating layer inception_3b/relu_pool_proj
I0509 22:30:05.306691 20634 net.cpp:76] Creating Layer inception_3b/relu_pool_proj
I0509 22:30:05.306697 20634 net.cpp:372] inception_3b/relu_pool_proj <- inception_3b/pool_proj
I0509 22:30:05.306706 20634 net.cpp:323] inception_3b/relu_pool_proj -> inception_3b/pool_proj (in-place)
I0509 22:30:05.306715 20634 net.cpp:105] Setting up inception_3b/relu_pool_proj
I0509 22:30:05.306720 20634 net.cpp:112] Top shape: 32 64 28 28 (1605632)
I0509 22:30:05.306725 20634 layer_factory.hpp:74] Creating layer inception_3b/output
I0509 22:30:05.306733 20634 net.cpp:76] Creating Layer inception_3b/output
I0509 22:30:05.306740 20634 net.cpp:372] inception_3b/output <- inception_3b/1x1
I0509 22:30:05.306746 20634 net.cpp:372] inception_3b/output <- inception_3b/3x3
I0509 22:30:05.306752 20634 net.cpp:372] inception_3b/output <- inception_3b/5x5
I0509 22:30:05.306777 20634 net.cpp:372] inception_3b/output <- inception_3b/pool_proj
I0509 22:30:05.306785 20634 net.cpp:334] inception_3b/output -> inception_3b/output
I0509 22:30:05.306794 20634 net.cpp:105] Setting up inception_3b/output
I0509 22:30:05.306800 20634 net.cpp:112] Top shape: 32 480 28 28 (12042240)
I0509 22:30:05.306807 20634 layer_factory.hpp:74] Creating layer pool3/3x3_s2
I0509 22:30:05.306814 20634 net.cpp:76] Creating Layer pool3/3x3_s2
I0509 22:30:05.306819 20634 net.cpp:372] pool3/3x3_s2 <- inception_3b/output
I0509 22:30:05.306829 20634 net.cpp:334] pool3/3x3_s2 -> pool3/3x3_s2
I0509 22:30:05.306838 20634 net.cpp:105] Setting up pool3/3x3_s2
I0509 22:30:05.306845 20634 net.cpp:112] Top shape: 32 480 14 14 (3010560)
I0509 22:30:05.306850 20634 layer_factory.hpp:74] Creating layer pool3/3x3_s2_pool3/3x3_s2_0_split
I0509 22:30:05.306859 20634 net.cpp:76] Creating Layer pool3/3x3_s2_pool3/3x3_s2_0_split
I0509 22:30:05.306864 20634 net.cpp:372] pool3/3x3_s2_pool3/3x3_s2_0_split <- pool3/3x3_s2
I0509 22:30:05.306874 20634 net.cpp:334] pool3/3x3_s2_pool3/3x3_s2_0_split -> pool3/3x3_s2_pool3/3x3_s2_0_split_0
I0509 22:30:05.306882 20634 net.cpp:334] pool3/3x3_s2_pool3/3x3_s2_0_split -> pool3/3x3_s2_pool3/3x3_s2_0_split_1
I0509 22:30:05.306891 20634 net.cpp:334] pool3/3x3_s2_pool3/3x3_s2_0_split -> pool3/3x3_s2_pool3/3x3_s2_0_split_2
I0509 22:30:05.306902 20634 net.cpp:334] pool3/3x3_s2_pool3/3x3_s2_0_split -> pool3/3x3_s2_pool3/3x3_s2_0_split_3
I0509 22:30:05.306915 20634 net.cpp:105] Setting up pool3/3x3_s2_pool3/3x3_s2_0_split
I0509 22:30:05.306928 20634 net.cpp:112] Top shape: 32 480 14 14 (3010560)
I0509 22:30:05.306937 20634 net.cpp:112] Top shape: 32 480 14 14 (3010560)
I0509 22:30:05.306946 20634 net.cpp:112] Top shape: 32 480 14 14 (3010560)
I0509 22:30:05.306954 20634 net.cpp:112] Top shape: 32 480 14 14 (3010560)
I0509 22:30:05.306963 20634 layer_factory.hpp:74] Creating layer inception_4a/1x1
I0509 22:30:05.306982 20634 net.cpp:76] Creating Layer inception_4a/1x1
I0509 22:30:05.306994 20634 net.cpp:372] inception_4a/1x1 <- pool3/3x3_s2_pool3/3x3_s2_0_split_0
I0509 22:30:05.307009 20634 net.cpp:334] inception_4a/1x1 -> inception_4a/1x1
I0509 22:30:05.307026 20634 net.cpp:105] Setting up inception_4a/1x1
I0509 22:30:05.308174 20634 net.cpp:112] Top shape: 32 192 14 14 (1204224)
I0509 22:30:05.308199 20634 layer_factory.hpp:74] Creating layer inception_4a/relu_1x1
I0509 22:30:05.308214 20634 net.cpp:76] Creating Layer inception_4a/relu_1x1
I0509 22:30:05.308226 20634 net.cpp:372] inception_4a/relu_1x1 <- inception_4a/1x1
I0509 22:30:05.308243 20634 net.cpp:323] inception_4a/relu_1x1 -> inception_4a/1x1 (in-place)
I0509 22:30:05.308259 20634 net.cpp:105] Setting up inception_4a/relu_1x1
I0509 22:30:05.308269 20634 net.cpp:112] Top shape: 32 192 14 14 (1204224)
I0509 22:30:05.308298 20634 layer_factory.hpp:74] Creating layer inception_4a/3x3_reduce
I0509 22:30:05.308315 20634 net.cpp:76] Creating Layer inception_4a/3x3_reduce
I0509 22:30:05.308329 20634 net.cpp:372] inception_4a/3x3_reduce <- pool3/3x3_s2_pool3/3x3_s2_0_split_1
I0509 22:30:05.308346 20634 net.cpp:334] inception_4a/3x3_reduce -> inception_4a/3x3_reduce
I0509 22:30:05.308364 20634 net.cpp:105] Setting up inception_4a/3x3_reduce
I0509 22:30:05.308783 20634 net.cpp:112] Top shape: 32 96 14 14 (602112)
I0509 22:30:05.308805 20634 layer_factory.hpp:74] Creating layer inception_4a/relu_3x3_reduce
I0509 22:30:05.308815 20634 net.cpp:76] Creating Layer inception_4a/relu_3x3_reduce
I0509 22:30:05.308821 20634 net.cpp:372] inception_4a/relu_3x3_reduce <- inception_4a/3x3_reduce
I0509 22:30:05.308830 20634 net.cpp:323] inception_4a/relu_3x3_reduce -> inception_4a/3x3_reduce (in-place)
I0509 22:30:05.308837 20634 net.cpp:105] Setting up inception_4a/relu_3x3_reduce
I0509 22:30:05.308842 20634 net.cpp:112] Top shape: 32 96 14 14 (602112)
I0509 22:30:05.308848 20634 layer_factory.hpp:74] Creating layer inception_4a/3x3
I0509 22:30:05.308856 20634 net.cpp:76] Creating Layer inception_4a/3x3
I0509 22:30:05.308862 20634 net.cpp:372] inception_4a/3x3 <- inception_4a/3x3_reduce
I0509 22:30:05.308892 20634 net.cpp:334] inception_4a/3x3 -> inception_4a/3x3
I0509 22:30:05.308902 20634 net.cpp:105] Setting up inception_4a/3x3
I0509 22:30:05.310447 20634 net.cpp:112] Top shape: 32 208 14 14 (1304576)
I0509 22:30:05.310464 20634 layer_factory.hpp:74] Creating layer inception_4a/relu_3x3
I0509 22:30:05.310474 20634 net.cpp:76] Creating Layer inception_4a/relu_3x3
I0509 22:30:05.310506 20634 net.cpp:372] inception_4a/relu_3x3 <- inception_4a/3x3
I0509 22:30:05.310516 20634 net.cpp:323] inception_4a/relu_3x3 -> inception_4a/3x3 (in-place)
I0509 22:30:05.310524 20634 net.cpp:105] Setting up inception_4a/relu_3x3
I0509 22:30:05.310530 20634 net.cpp:112] Top shape: 32 208 14 14 (1304576)
I0509 22:30:05.310536 20634 layer_factory.hpp:74] Creating layer inception_4a/5x5_reduce
I0509 22:30:05.310544 20634 net.cpp:76] Creating Layer inception_4a/5x5_reduce
I0509 22:30:05.310550 20634 net.cpp:372] inception_4a/5x5_reduce <- pool3/3x3_s2_pool3/3x3_s2_0_split_2
I0509 22:30:05.310561 20634 net.cpp:334] inception_4a/5x5_reduce -> inception_4a/5x5_reduce
I0509 22:30:05.310570 20634 net.cpp:105] Setting up inception_4a/5x5_reduce
I0509 22:30:05.310657 20634 net.cpp:112] Top shape: 32 16 14 14 (100352)
I0509 22:30:05.310668 20634 layer_factory.hpp:74] Creating layer inception_4a/relu_5x5_reduce
I0509 22:30:05.310680 20634 net.cpp:76] Creating Layer inception_4a/relu_5x5_reduce
I0509 22:30:05.310686 20634 net.cpp:372] inception_4a/relu_5x5_reduce <- inception_4a/5x5_reduce
I0509 22:30:05.310693 20634 net.cpp:323] inception_4a/relu_5x5_reduce -> inception_4a/5x5_reduce (in-place)
I0509 22:30:05.310701 20634 net.cpp:105] Setting up inception_4a/relu_5x5_reduce
I0509 22:30:05.310706 20634 net.cpp:112] Top shape: 32 16 14 14 (100352)
I0509 22:30:05.310713 20634 layer_factory.hpp:74] Creating layer inception_4a/5x5
I0509 22:30:05.310721 20634 net.cpp:76] Creating Layer inception_4a/5x5
I0509 22:30:05.310727 20634 net.cpp:372] inception_4a/5x5 <- inception_4a/5x5_reduce
I0509 22:30:05.310735 20634 net.cpp:334] inception_4a/5x5 -> inception_4a/5x5
I0509 22:30:05.310744 20634 net.cpp:105] Setting up inception_4a/5x5
I0509 22:30:05.310928 20634 net.cpp:112] Top shape: 32 48 14 14 (301056)
I0509 22:30:05.310941 20634 layer_factory.hpp:74] Creating layer inception_4a/relu_5x5
I0509 22:30:05.310951 20634 net.cpp:76] Creating Layer inception_4a/relu_5x5
I0509 22:30:05.310957 20634 net.cpp:372] inception_4a/relu_5x5 <- inception_4a/5x5
I0509 22:30:05.310966 20634 net.cpp:323] inception_4a/relu_5x5 -> inception_4a/5x5 (in-place)
I0509 22:30:05.310972 20634 net.cpp:105] Setting up inception_4a/relu_5x5
I0509 22:30:05.310978 20634 net.cpp:112] Top shape: 32 48 14 14 (301056)
I0509 22:30:05.310983 20634 layer_factory.hpp:74] Creating layer inception_4a/pool
I0509 22:30:05.310993 20634 net.cpp:76] Creating Layer inception_4a/pool
I0509 22:30:05.310999 20634 net.cpp:372] inception_4a/pool <- pool3/3x3_s2_pool3/3x3_s2_0_split_3
I0509 22:30:05.311007 20634 net.cpp:334] inception_4a/pool -> inception_4a/pool
I0509 22:30:05.311015 20634 net.cpp:105] Setting up inception_4a/pool
I0509 22:30:05.311023 20634 net.cpp:112] Top shape: 32 480 14 14 (3010560)
I0509 22:30:05.311029 20634 layer_factory.hpp:74] Creating layer inception_4a/pool_proj
I0509 22:30:05.311038 20634 net.cpp:76] Creating Layer inception_4a/pool_proj
I0509 22:30:05.311043 20634 net.cpp:372] inception_4a/pool_proj <- inception_4a/pool
I0509 22:30:05.311054 20634 net.cpp:334] inception_4a/pool_proj -> inception_4a/pool_proj
I0509 22:30:05.311064 20634 net.cpp:105] Setting up inception_4a/pool_proj
I0509 22:30:05.311343 20634 net.cpp:112] Top shape: 32 64 14 14 (401408)
I0509 22:30:05.311357 20634 layer_factory.hpp:74] Creating layer inception_4a/relu_pool_proj
I0509 22:30:05.311363 20634 net.cpp:76] Creating Layer inception_4a/relu_pool_proj
I0509 22:30:05.311369 20634 net.cpp:372] inception_4a/relu_pool_proj <- inception_4a/pool_proj
I0509 22:30:05.311377 20634 net.cpp:323] inception_4a/relu_pool_proj -> inception_4a/pool_proj (in-place)
I0509 22:30:05.311403 20634 net.cpp:105] Setting up inception_4a/relu_pool_proj
I0509 22:30:05.311409 20634 net.cpp:112] Top shape: 32 64 14 14 (401408)
I0509 22:30:05.311415 20634 layer_factory.hpp:74] Creating layer inception_4a/output
I0509 22:30:05.311427 20634 net.cpp:76] Creating Layer inception_4a/output
I0509 22:30:05.311434 20634 net.cpp:372] inception_4a/output <- inception_4a/1x1
I0509 22:30:05.312355 20634 net.cpp:372] inception_4a/output <- inception_4a/3x3
I0509 22:30:05.312364 20634 net.cpp:372] inception_4a/output <- inception_4a/5x5
I0509 22:30:05.312371 20634 net.cpp:372] inception_4a/output <- inception_4a/pool_proj
I0509 22:30:05.312379 20634 net.cpp:334] inception_4a/output -> inception_4a/output
I0509 22:30:05.312387 20634 net.cpp:105] Setting up inception_4a/output
I0509 22:30:05.312394 20634 net.cpp:112] Top shape: 32 512 14 14 (3211264)
I0509 22:30:05.312400 20634 layer_factory.hpp:74] Creating layer inception_4a/output_inception_4a/output_0_split
I0509 22:30:05.312409 20634 net.cpp:76] Creating Layer inception_4a/output_inception_4a/output_0_split
I0509 22:30:05.312415 20634 net.cpp:372] inception_4a/output_inception_4a/output_0_split <- inception_4a/output
I0509 22:30:05.312427 20634 net.cpp:334] inception_4a/output_inception_4a/output_0_split -> inception_4a/output_inception_4a/output_0_split_0
I0509 22:30:05.312435 20634 net.cpp:334] inception_4a/output_inception_4a/output_0_split -> inception_4a/output_inception_4a/output_0_split_1
I0509 22:30:05.312444 20634 net.cpp:334] inception_4a/output_inception_4a/output_0_split -> inception_4a/output_inception_4a/output_0_split_2
I0509 22:30:05.312454 20634 net.cpp:334] inception_4a/output_inception_4a/output_0_split -> inception_4a/output_inception_4a/output_0_split_3
I0509 22:30:05.312463 20634 net.cpp:334] inception_4a/output_inception_4a/output_0_split -> inception_4a/output_inception_4a/output_0_split_4
I0509 22:30:05.312470 20634 net.cpp:105] Setting up inception_4a/output_inception_4a/output_0_split
I0509 22:30:05.312477 20634 net.cpp:112] Top shape: 32 512 14 14 (3211264)
I0509 22:30:05.312482 20634 net.cpp:112] Top shape: 32 512 14 14 (3211264)
I0509 22:30:05.312487 20634 net.cpp:112] Top shape: 32 512 14 14 (3211264)
I0509 22:30:05.312492 20634 net.cpp:112] Top shape: 32 512 14 14 (3211264)
I0509 22:30:05.312496 20634 net.cpp:112] Top shape: 32 512 14 14 (3211264)
I0509 22:30:05.312502 20634 layer_factory.hpp:74] Creating layer loss1/ave_pool
I0509 22:30:05.312512 20634 net.cpp:76] Creating Layer loss1/ave_pool
I0509 22:30:05.312518 20634 net.cpp:372] loss1/ave_pool <- inception_4a/output_inception_4a/output_0_split_0
I0509 22:30:05.312526 20634 net.cpp:334] loss1/ave_pool -> loss1/ave_pool
I0509 22:30:05.312535 20634 net.cpp:105] Setting up loss1/ave_pool
I0509 22:30:05.312541 20634 net.cpp:112] Top shape: 32 512 4 4 (262144)
I0509 22:30:05.312546 20634 layer_factory.hpp:74] Creating layer loss1/conv
I0509 22:30:05.312557 20634 net.cpp:76] Creating Layer loss1/conv
I0509 22:30:05.312563 20634 net.cpp:372] loss1/conv <- loss1/ave_pool
I0509 22:30:05.312572 20634 net.cpp:334] loss1/conv -> loss1/conv
I0509 22:30:05.312579 20634 net.cpp:105] Setting up loss1/conv
I0509 22:30:05.313143 20634 net.cpp:112] Top shape: 32 128 4 4 (65536)
I0509 22:30:05.313158 20634 layer_factory.hpp:74] Creating layer loss1/relu_conv
I0509 22:30:05.313166 20634 net.cpp:76] Creating Layer loss1/relu_conv
I0509 22:30:05.313171 20634 net.cpp:372] loss1/relu_conv <- loss1/conv
I0509 22:30:05.313181 20634 net.cpp:323] loss1/relu_conv -> loss1/conv (in-place)
I0509 22:30:05.313189 20634 net.cpp:105] Setting up loss1/relu_conv
I0509 22:30:05.313194 20634 net.cpp:112] Top shape: 32 128 4 4 (65536)
I0509 22:30:05.313200 20634 layer_factory.hpp:74] Creating layer loss1/fc
I0509 22:30:05.313213 20634 net.cpp:76] Creating Layer loss1/fc
I0509 22:30:05.313218 20634 net.cpp:372] loss1/fc <- loss1/conv
I0509 22:30:05.313226 20634 net.cpp:334] loss1/fc -> loss1/fc
I0509 22:30:05.313240 20634 net.cpp:105] Setting up loss1/fc
I0509 22:30:05.330251 20634 net.cpp:112] Top shape: 32 1024 1 1 (32768)
I0509 22:30:05.330338 20634 layer_factory.hpp:74] Creating layer loss1/relu_fc
I0509 22:30:05.330353 20634 net.cpp:76] Creating Layer loss1/relu_fc
I0509 22:30:05.330360 20634 net.cpp:372] loss1/relu_fc <- loss1/fc
I0509 22:30:05.330369 20634 net.cpp:323] loss1/relu_fc -> loss1/fc (in-place)
I0509 22:30:05.330382 20634 net.cpp:105] Setting up loss1/relu_fc
I0509 22:30:05.330389 20634 net.cpp:112] Top shape: 32 1024 1 1 (32768)
I0509 22:30:05.330395 20634 layer_factory.hpp:74] Creating layer loss1/drop_fc
I0509 22:30:05.330415 20634 net.cpp:76] Creating Layer loss1/drop_fc
I0509 22:30:05.330421 20634 net.cpp:372] loss1/drop_fc <- loss1/fc
I0509 22:30:05.330431 20634 net.cpp:323] loss1/drop_fc -> loss1/fc (in-place)
I0509 22:30:05.330442 20634 net.cpp:105] Setting up loss1/drop_fc
I0509 22:30:05.330452 20634 net.cpp:112] Top shape: 32 1024 1 1 (32768)
I0509 22:30:05.330459 20634 layer_factory.hpp:74] Creating layer loss1/classifier
I0509 22:30:05.330471 20634 net.cpp:76] Creating Layer loss1/classifier
I0509 22:30:05.330477 20634 net.cpp:372] loss1/classifier <- loss1/fc
I0509 22:30:05.330487 20634 net.cpp:334] loss1/classifier -> loss1/classifier
I0509 22:30:05.330498 20634 net.cpp:105] Setting up loss1/classifier
I0509 22:30:05.330549 20634 net.cpp:112] Top shape: 32 2 1 1 (64)
I0509 22:30:05.330561 20634 layer_factory.hpp:74] Creating layer loss1/loss
I0509 22:30:05.330574 20634 net.cpp:76] Creating Layer loss1/loss
I0509 22:30:05.330580 20634 net.cpp:372] loss1/loss <- loss1/classifier
I0509 22:30:05.330587 20634 net.cpp:372] loss1/loss <- label_data_1_split_0
I0509 22:30:05.330597 20634 net.cpp:334] loss1/loss -> loss1/loss1
I0509 22:30:05.330610 20634 net.cpp:105] Setting up loss1/loss
I0509 22:30:05.330621 20634 layer_factory.hpp:74] Creating layer loss1/loss
I0509 22:30:05.330642 20634 net.cpp:112] Top shape: 1 1 1 1 (1)
I0509 22:30:05.330648 20634 net.cpp:118]     with loss weight 0.3
I0509 22:30:05.330684 20634 layer_factory.hpp:74] Creating layer inception_4b/1x1
I0509 22:30:05.330694 20634 net.cpp:76] Creating Layer inception_4b/1x1
I0509 22:30:05.330700 20634 net.cpp:372] inception_4b/1x1 <- inception_4a/output_inception_4a/output_0_split_1
I0509 22:30:05.330713 20634 net.cpp:334] inception_4b/1x1 -> inception_4b/1x1
I0509 22:30:05.330723 20634 net.cpp:105] Setting up inception_4b/1x1
I0509 22:30:05.331444 20634 net.cpp:112] Top shape: 32 160 14 14 (1003520)
I0509 22:30:05.331460 20634 layer_factory.hpp:74] Creating layer inception_4b/relu_1x1
I0509 22:30:05.331468 20634 net.cpp:76] Creating Layer inception_4b/relu_1x1
I0509 22:30:05.331475 20634 net.cpp:372] inception_4b/relu_1x1 <- inception_4b/1x1
I0509 22:30:05.331481 20634 net.cpp:323] inception_4b/relu_1x1 -> inception_4b/1x1 (in-place)
I0509 22:30:05.331490 20634 net.cpp:105] Setting up inception_4b/relu_1x1
I0509 22:30:05.331495 20634 net.cpp:112] Top shape: 32 160 14 14 (1003520)
I0509 22:30:05.331500 20634 layer_factory.hpp:74] Creating layer inception_4b/3x3_reduce
I0509 22:30:05.331511 20634 net.cpp:76] Creating Layer inception_4b/3x3_reduce
I0509 22:30:05.331519 20634 net.cpp:372] inception_4b/3x3_reduce <- inception_4a/output_inception_4a/output_0_split_2
I0509 22:30:05.331529 20634 net.cpp:334] inception_4b/3x3_reduce -> inception_4b/3x3_reduce
I0509 22:30:05.331539 20634 net.cpp:105] Setting up inception_4b/3x3_reduce
I0509 22:30:05.332036 20634 net.cpp:112] Top shape: 32 112 14 14 (702464)
I0509 22:30:05.332049 20634 layer_factory.hpp:74] Creating layer inception_4b/relu_3x3_reduce
I0509 22:30:05.332062 20634 net.cpp:76] Creating Layer inception_4b/relu_3x3_reduce
I0509 22:30:05.332068 20634 net.cpp:372] inception_4b/relu_3x3_reduce <- inception_4b/3x3_reduce
I0509 22:30:05.332075 20634 net.cpp:323] inception_4b/relu_3x3_reduce -> inception_4b/3x3_reduce (in-place)
I0509 22:30:05.332083 20634 net.cpp:105] Setting up inception_4b/relu_3x3_reduce
I0509 22:30:05.332088 20634 net.cpp:112] Top shape: 32 112 14 14 (702464)
I0509 22:30:05.332094 20634 layer_factory.hpp:74] Creating layer inception_4b/3x3
I0509 22:30:05.332103 20634 net.cpp:76] Creating Layer inception_4b/3x3
I0509 22:30:05.332123 20634 net.cpp:372] inception_4b/3x3 <- inception_4b/3x3_reduce
I0509 22:30:05.332134 20634 net.cpp:334] inception_4b/3x3 -> inception_4b/3x3
I0509 22:30:05.332141 20634 net.cpp:105] Setting up inception_4b/3x3
I0509 22:30:05.334041 20634 net.cpp:112] Top shape: 32 224 14 14 (1404928)
I0509 22:30:05.334058 20634 layer_factory.hpp:74] Creating layer inception_4b/relu_3x3
I0509 22:30:05.334066 20634 net.cpp:76] Creating Layer inception_4b/relu_3x3
I0509 22:30:05.334072 20634 net.cpp:372] inception_4b/relu_3x3 <- inception_4b/3x3
I0509 22:30:05.334081 20634 net.cpp:323] inception_4b/relu_3x3 -> inception_4b/3x3 (in-place)
I0509 22:30:05.334089 20634 net.cpp:105] Setting up inception_4b/relu_3x3
I0509 22:30:05.334095 20634 net.cpp:112] Top shape: 32 224 14 14 (1404928)
I0509 22:30:05.334100 20634 layer_factory.hpp:74] Creating layer inception_4b/5x5_reduce
I0509 22:30:05.334108 20634 net.cpp:76] Creating Layer inception_4b/5x5_reduce
I0509 22:30:05.334115 20634 net.cpp:372] inception_4b/5x5_reduce <- inception_4a/output_inception_4a/output_0_split_3
I0509 22:30:05.334125 20634 net.cpp:334] inception_4b/5x5_reduce -> inception_4b/5x5_reduce
I0509 22:30:05.334133 20634 net.cpp:105] Setting up inception_4b/5x5_reduce
I0509 22:30:05.334246 20634 net.cpp:112] Top shape: 32 24 14 14 (150528)
I0509 22:30:05.334256 20634 layer_factory.hpp:74] Creating layer inception_4b/relu_5x5_reduce
I0509 22:30:05.334264 20634 net.cpp:76] Creating Layer inception_4b/relu_5x5_reduce
I0509 22:30:05.334282 20634 net.cpp:372] inception_4b/relu_5x5_reduce <- inception_4b/5x5_reduce
I0509 22:30:05.334290 20634 net.cpp:323] inception_4b/relu_5x5_reduce -> inception_4b/5x5_reduce (in-place)
I0509 22:30:05.334298 20634 net.cpp:105] Setting up inception_4b/relu_5x5_reduce
I0509 22:30:05.334305 20634 net.cpp:112] Top shape: 32 24 14 14 (150528)
I0509 22:30:05.334309 20634 layer_factory.hpp:74] Creating layer inception_4b/5x5
I0509 22:30:05.334321 20634 net.cpp:76] Creating Layer inception_4b/5x5
I0509 22:30:05.334326 20634 net.cpp:372] inception_4b/5x5 <- inception_4b/5x5_reduce
I0509 22:30:05.334334 20634 net.cpp:334] inception_4b/5x5 -> inception_4b/5x5
I0509 22:30:05.334342 20634 net.cpp:105] Setting up inception_4b/5x5
I0509 22:30:05.334682 20634 net.cpp:112] Top shape: 32 64 14 14 (401408)
I0509 22:30:05.334697 20634 layer_factory.hpp:74] Creating layer inception_4b/relu_5x5
I0509 22:30:05.334704 20634 net.cpp:76] Creating Layer inception_4b/relu_5x5
I0509 22:30:05.334709 20634 net.cpp:372] inception_4b/relu_5x5 <- inception_4b/5x5
I0509 22:30:05.334719 20634 net.cpp:323] inception_4b/relu_5x5 -> inception_4b/5x5 (in-place)
I0509 22:30:05.334728 20634 net.cpp:105] Setting up inception_4b/relu_5x5
I0509 22:30:05.334733 20634 net.cpp:112] Top shape: 32 64 14 14 (401408)
I0509 22:30:05.334738 20634 layer_factory.hpp:74] Creating layer inception_4b/pool
I0509 22:30:05.334746 20634 net.cpp:76] Creating Layer inception_4b/pool
I0509 22:30:05.334755 20634 net.cpp:372] inception_4b/pool <- inception_4a/output_inception_4a/output_0_split_4
I0509 22:30:05.334764 20634 net.cpp:334] inception_4b/pool -> inception_4b/pool
I0509 22:30:05.334782 20634 net.cpp:105] Setting up inception_4b/pool
I0509 22:30:05.334792 20634 net.cpp:112] Top shape: 32 512 14 14 (3211264)
I0509 22:30:05.334799 20634 layer_factory.hpp:74] Creating layer inception_4b/pool_proj
I0509 22:30:05.334812 20634 net.cpp:76] Creating Layer inception_4b/pool_proj
I0509 22:30:05.334818 20634 net.cpp:372] inception_4b/pool_proj <- inception_4b/pool
I0509 22:30:05.334828 20634 net.cpp:334] inception_4b/pool_proj -> inception_4b/pool_proj
I0509 22:30:05.334837 20634 net.cpp:105] Setting up inception_4b/pool_proj
I0509 22:30:05.335119 20634 net.cpp:112] Top shape: 32 64 14 14 (401408)
I0509 22:30:05.335131 20634 layer_factory.hpp:74] Creating layer inception_4b/relu_pool_proj
I0509 22:30:05.335141 20634 net.cpp:76] Creating Layer inception_4b/relu_pool_proj
I0509 22:30:05.335147 20634 net.cpp:372] inception_4b/relu_pool_proj <- inception_4b/pool_proj
I0509 22:30:05.335172 20634 net.cpp:323] inception_4b/relu_pool_proj -> inception_4b/pool_proj (in-place)
I0509 22:30:05.335181 20634 net.cpp:105] Setting up inception_4b/relu_pool_proj
I0509 22:30:05.335187 20634 net.cpp:112] Top shape: 32 64 14 14 (401408)
I0509 22:30:05.335192 20634 layer_factory.hpp:74] Creating layer inception_4b/output
I0509 22:30:05.335201 20634 net.cpp:76] Creating Layer inception_4b/output
I0509 22:30:05.335206 20634 net.cpp:372] inception_4b/output <- inception_4b/1x1
I0509 22:30:05.335212 20634 net.cpp:372] inception_4b/output <- inception_4b/3x3
I0509 22:30:05.335218 20634 net.cpp:372] inception_4b/output <- inception_4b/5x5
I0509 22:30:05.335224 20634 net.cpp:372] inception_4b/output <- inception_4b/pool_proj
I0509 22:30:05.335235 20634 net.cpp:334] inception_4b/output -> inception_4b/output
I0509 22:30:05.335243 20634 net.cpp:105] Setting up inception_4b/output
I0509 22:30:05.335250 20634 net.cpp:112] Top shape: 32 512 14 14 (3211264)
I0509 22:30:05.335255 20634 layer_factory.hpp:74] Creating layer inception_4b/output_inception_4b/output_0_split
I0509 22:30:05.335299 20634 net.cpp:76] Creating Layer inception_4b/output_inception_4b/output_0_split
I0509 22:30:05.335306 20634 net.cpp:372] inception_4b/output_inception_4b/output_0_split <- inception_4b/output
I0509 22:30:05.335314 20634 net.cpp:334] inception_4b/output_inception_4b/output_0_split -> inception_4b/output_inception_4b/output_0_split_0
I0509 22:30:05.335324 20634 net.cpp:334] inception_4b/output_inception_4b/output_0_split -> inception_4b/output_inception_4b/output_0_split_1
I0509 22:30:05.335332 20634 net.cpp:334] inception_4b/output_inception_4b/output_0_split -> inception_4b/output_inception_4b/output_0_split_2
I0509 22:30:05.335341 20634 net.cpp:334] inception_4b/output_inception_4b/output_0_split -> inception_4b/output_inception_4b/output_0_split_3
I0509 22:30:05.335350 20634 net.cpp:105] Setting up inception_4b/output_inception_4b/output_0_split
I0509 22:30:05.335356 20634 net.cpp:112] Top shape: 32 512 14 14 (3211264)
I0509 22:30:05.335361 20634 net.cpp:112] Top shape: 32 512 14 14 (3211264)
I0509 22:30:05.335366 20634 net.cpp:112] Top shape: 32 512 14 14 (3211264)
I0509 22:30:05.335371 20634 net.cpp:112] Top shape: 32 512 14 14 (3211264)
I0509 22:30:05.335376 20634 layer_factory.hpp:74] Creating layer inception_4c/1x1
I0509 22:30:05.335387 20634 net.cpp:76] Creating Layer inception_4c/1x1
I0509 22:30:05.335393 20634 net.cpp:372] inception_4c/1x1 <- inception_4b/output_inception_4b/output_0_split_0
I0509 22:30:05.335403 20634 net.cpp:334] inception_4c/1x1 -> inception_4c/1x1
I0509 22:30:05.335412 20634 net.cpp:105] Setting up inception_4c/1x1
I0509 22:30:05.335978 20634 net.cpp:112] Top shape: 32 128 14 14 (802816)
I0509 22:30:05.335993 20634 layer_factory.hpp:74] Creating layer inception_4c/relu_1x1
I0509 22:30:05.336000 20634 net.cpp:76] Creating Layer inception_4c/relu_1x1
I0509 22:30:05.336005 20634 net.cpp:372] inception_4c/relu_1x1 <- inception_4c/1x1
I0509 22:30:05.336014 20634 net.cpp:323] inception_4c/relu_1x1 -> inception_4c/1x1 (in-place)
I0509 22:30:05.336022 20634 net.cpp:105] Setting up inception_4c/relu_1x1
I0509 22:30:05.336029 20634 net.cpp:112] Top shape: 32 128 14 14 (802816)
I0509 22:30:05.336033 20634 layer_factory.hpp:74] Creating layer inception_4c/3x3_reduce
I0509 22:30:05.336042 20634 net.cpp:76] Creating Layer inception_4c/3x3_reduce
I0509 22:30:05.336047 20634 net.cpp:372] inception_4c/3x3_reduce <- inception_4b/output_inception_4b/output_0_split_1
I0509 22:30:05.336055 20634 net.cpp:334] inception_4c/3x3_reduce -> inception_4c/3x3_reduce
I0509 22:30:05.336065 20634 net.cpp:105] Setting up inception_4c/3x3_reduce
I0509 22:30:05.336628 20634 net.cpp:112] Top shape: 32 128 14 14 (802816)
I0509 22:30:05.336644 20634 layer_factory.hpp:74] Creating layer inception_4c/relu_3x3_reduce
I0509 22:30:05.336652 20634 net.cpp:76] Creating Layer inception_4c/relu_3x3_reduce
I0509 22:30:05.336658 20634 net.cpp:372] inception_4c/relu_3x3_reduce <- inception_4c/3x3_reduce
I0509 22:30:05.336665 20634 net.cpp:323] inception_4c/relu_3x3_reduce -> inception_4c/3x3_reduce (in-place)
I0509 22:30:05.336688 20634 net.cpp:105] Setting up inception_4c/relu_3x3_reduce
I0509 22:30:05.336694 20634 net.cpp:112] Top shape: 32 128 14 14 (802816)
I0509 22:30:05.336699 20634 layer_factory.hpp:74] Creating layer inception_4c/3x3
I0509 22:30:05.336709 20634 net.cpp:76] Creating Layer inception_4c/3x3
I0509 22:30:05.336714 20634 net.cpp:372] inception_4c/3x3 <- inception_4c/3x3_reduce
I0509 22:30:05.336724 20634 net.cpp:334] inception_4c/3x3 -> inception_4c/3x3
I0509 22:30:05.336733 20634 net.cpp:105] Setting up inception_4c/3x3
I0509 22:30:05.339203 20634 net.cpp:112] Top shape: 32 256 14 14 (1605632)
I0509 22:30:05.339233 20634 layer_factory.hpp:74] Creating layer inception_4c/relu_3x3
I0509 22:30:05.339243 20634 net.cpp:76] Creating Layer inception_4c/relu_3x3
I0509 22:30:05.340116 20634 net.cpp:372] inception_4c/relu_3x3 <- inception_4c/3x3
I0509 22:30:05.340126 20634 net.cpp:323] inception_4c/relu_3x3 -> inception_4c/3x3 (in-place)
I0509 22:30:05.340136 20634 net.cpp:105] Setting up inception_4c/relu_3x3
I0509 22:30:05.340142 20634 net.cpp:112] Top shape: 32 256 14 14 (1605632)
I0509 22:30:05.340147 20634 layer_factory.hpp:74] Creating layer inception_4c/5x5_reduce
I0509 22:30:05.340155 20634 net.cpp:76] Creating Layer inception_4c/5x5_reduce
I0509 22:30:05.340162 20634 net.cpp:372] inception_4c/5x5_reduce <- inception_4b/output_inception_4b/output_0_split_2
I0509 22:30:05.340173 20634 net.cpp:334] inception_4c/5x5_reduce -> inception_4c/5x5_reduce
I0509 22:30:05.340183 20634 net.cpp:105] Setting up inception_4c/5x5_reduce
I0509 22:30:05.340312 20634 net.cpp:112] Top shape: 32 24 14 14 (150528)
I0509 22:30:05.340324 20634 layer_factory.hpp:74] Creating layer inception_4c/relu_5x5_reduce
I0509 22:30:05.340332 20634 net.cpp:76] Creating Layer inception_4c/relu_5x5_reduce
I0509 22:30:05.340338 20634 net.cpp:372] inception_4c/relu_5x5_reduce <- inception_4c/5x5_reduce
I0509 22:30:05.340345 20634 net.cpp:323] inception_4c/relu_5x5_reduce -> inception_4c/5x5_reduce (in-place)
I0509 22:30:05.340353 20634 net.cpp:105] Setting up inception_4c/relu_5x5_reduce
I0509 22:30:05.340358 20634 net.cpp:112] Top shape: 32 24 14 14 (150528)
I0509 22:30:05.340363 20634 layer_factory.hpp:74] Creating layer inception_4c/5x5
I0509 22:30:05.340373 20634 net.cpp:76] Creating Layer inception_4c/5x5
I0509 22:30:05.340379 20634 net.cpp:372] inception_4c/5x5 <- inception_4c/5x5_reduce
I0509 22:30:05.340389 20634 net.cpp:334] inception_4c/5x5 -> inception_4c/5x5
I0509 22:30:05.340399 20634 net.cpp:105] Setting up inception_4c/5x5
I0509 22:30:05.340735 20634 net.cpp:112] Top shape: 32 64 14 14 (401408)
I0509 22:30:05.340752 20634 layer_factory.hpp:74] Creating layer inception_4c/relu_5x5
I0509 22:30:05.340761 20634 net.cpp:76] Creating Layer inception_4c/relu_5x5
I0509 22:30:05.340767 20634 net.cpp:372] inception_4c/relu_5x5 <- inception_4c/5x5
I0509 22:30:05.340773 20634 net.cpp:323] inception_4c/relu_5x5 -> inception_4c/5x5 (in-place)
I0509 22:30:05.340781 20634 net.cpp:105] Setting up inception_4c/relu_5x5
I0509 22:30:05.340786 20634 net.cpp:112] Top shape: 32 64 14 14 (401408)
I0509 22:30:05.340792 20634 layer_factory.hpp:74] Creating layer inception_4c/pool
I0509 22:30:05.340801 20634 net.cpp:76] Creating Layer inception_4c/pool
I0509 22:30:05.340806 20634 net.cpp:372] inception_4c/pool <- inception_4b/output_inception_4b/output_0_split_3
I0509 22:30:05.340813 20634 net.cpp:334] inception_4c/pool -> inception_4c/pool
I0509 22:30:05.340824 20634 net.cpp:105] Setting up inception_4c/pool
I0509 22:30:05.340832 20634 net.cpp:112] Top shape: 32 512 14 14 (3211264)
I0509 22:30:05.340838 20634 layer_factory.hpp:74] Creating layer inception_4c/pool_proj
I0509 22:30:05.340847 20634 net.cpp:76] Creating Layer inception_4c/pool_proj
I0509 22:30:05.340852 20634 net.cpp:372] inception_4c/pool_proj <- inception_4c/pool
I0509 22:30:05.340862 20634 net.cpp:334] inception_4c/pool_proj -> inception_4c/pool_proj
I0509 22:30:05.340870 20634 net.cpp:105] Setting up inception_4c/pool_proj
I0509 22:30:05.341181 20634 net.cpp:112] Top shape: 32 64 14 14 (401408)
I0509 22:30:05.341193 20634 layer_factory.hpp:74] Creating layer inception_4c/relu_pool_proj
I0509 22:30:05.341203 20634 net.cpp:76] Creating Layer inception_4c/relu_pool_proj
I0509 22:30:05.341210 20634 net.cpp:372] inception_4c/relu_pool_proj <- inception_4c/pool_proj
I0509 22:30:05.341217 20634 net.cpp:323] inception_4c/relu_pool_proj -> inception_4c/pool_proj (in-place)
I0509 22:30:05.341225 20634 net.cpp:105] Setting up inception_4c/relu_pool_proj
I0509 22:30:05.341230 20634 net.cpp:112] Top shape: 32 64 14 14 (401408)
I0509 22:30:05.341236 20634 layer_factory.hpp:74] Creating layer inception_4c/output
I0509 22:30:05.341245 20634 net.cpp:76] Creating Layer inception_4c/output
I0509 22:30:05.341251 20634 net.cpp:372] inception_4c/output <- inception_4c/1x1
I0509 22:30:05.341258 20634 net.cpp:372] inception_4c/output <- inception_4c/3x3
I0509 22:30:05.341264 20634 net.cpp:372] inception_4c/output <- inception_4c/5x5
I0509 22:30:05.341281 20634 net.cpp:372] inception_4c/output <- inception_4c/pool_proj
I0509 22:30:05.341290 20634 net.cpp:334] inception_4c/output -> inception_4c/output
I0509 22:30:05.341298 20634 net.cpp:105] Setting up inception_4c/output
I0509 22:30:05.341305 20634 net.cpp:112] Top shape: 32 512 14 14 (3211264)
I0509 22:30:05.341310 20634 layer_factory.hpp:74] Creating layer inception_4c/output_inception_4c/output_0_split
I0509 22:30:05.341318 20634 net.cpp:76] Creating Layer inception_4c/output_inception_4c/output_0_split
I0509 22:30:05.341325 20634 net.cpp:372] inception_4c/output_inception_4c/output_0_split <- inception_4c/output
I0509 22:30:05.341331 20634 net.cpp:334] inception_4c/output_inception_4c/output_0_split -> inception_4c/output_inception_4c/output_0_split_0
I0509 22:30:05.341343 20634 net.cpp:334] inception_4c/output_inception_4c/output_0_split -> inception_4c/output_inception_4c/output_0_split_1
I0509 22:30:05.341353 20634 net.cpp:334] inception_4c/output_inception_4c/output_0_split -> inception_4c/output_inception_4c/output_0_split_2
I0509 22:30:05.341362 20634 net.cpp:334] inception_4c/output_inception_4c/output_0_split -> inception_4c/output_inception_4c/output_0_split_3
I0509 22:30:05.341370 20634 net.cpp:105] Setting up inception_4c/output_inception_4c/output_0_split
I0509 22:30:05.341377 20634 net.cpp:112] Top shape: 32 512 14 14 (3211264)
I0509 22:30:05.341382 20634 net.cpp:112] Top shape: 32 512 14 14 (3211264)
I0509 22:30:05.341387 20634 net.cpp:112] Top shape: 32 512 14 14 (3211264)
I0509 22:30:05.341392 20634 net.cpp:112] Top shape: 32 512 14 14 (3211264)
I0509 22:30:05.341397 20634 layer_factory.hpp:74] Creating layer inception_4d/1x1
I0509 22:30:05.341406 20634 net.cpp:76] Creating Layer inception_4d/1x1
I0509 22:30:05.341413 20634 net.cpp:372] inception_4d/1x1 <- inception_4c/output_inception_4c/output_0_split_0
I0509 22:30:05.341420 20634 net.cpp:334] inception_4d/1x1 -> inception_4d/1x1
I0509 22:30:05.341429 20634 net.cpp:105] Setting up inception_4d/1x1
I0509 22:30:05.341915 20634 net.cpp:112] Top shape: 32 112 14 14 (702464)
I0509 22:30:05.341928 20634 layer_factory.hpp:74] Creating layer inception_4d/relu_1x1
I0509 22:30:05.341935 20634 net.cpp:76] Creating Layer inception_4d/relu_1x1
I0509 22:30:05.341941 20634 net.cpp:372] inception_4d/relu_1x1 <- inception_4d/1x1
I0509 22:30:05.341950 20634 net.cpp:323] inception_4d/relu_1x1 -> inception_4d/1x1 (in-place)
I0509 22:30:05.341958 20634 net.cpp:105] Setting up inception_4d/relu_1x1
I0509 22:30:05.341964 20634 net.cpp:112] Top shape: 32 112 14 14 (702464)
I0509 22:30:05.341969 20634 layer_factory.hpp:74] Creating layer inception_4d/3x3_reduce
I0509 22:30:05.341977 20634 net.cpp:76] Creating Layer inception_4d/3x3_reduce
I0509 22:30:05.341984 20634 net.cpp:372] inception_4d/3x3_reduce <- inception_4c/output_inception_4c/output_0_split_1
I0509 22:30:05.341994 20634 net.cpp:334] inception_4d/3x3_reduce -> inception_4d/3x3_reduce
I0509 22:30:05.342002 20634 net.cpp:105] Setting up inception_4d/3x3_reduce
I0509 22:30:05.342643 20634 net.cpp:112] Top shape: 32 144 14 14 (903168)
I0509 22:30:05.342670 20634 layer_factory.hpp:74] Creating layer inception_4d/relu_3x3_reduce
I0509 22:30:05.342679 20634 net.cpp:76] Creating Layer inception_4d/relu_3x3_reduce
I0509 22:30:05.342685 20634 net.cpp:372] inception_4d/relu_3x3_reduce <- inception_4d/3x3_reduce
I0509 22:30:05.342692 20634 net.cpp:323] inception_4d/relu_3x3_reduce -> inception_4d/3x3_reduce (in-place)
I0509 22:30:05.342700 20634 net.cpp:105] Setting up inception_4d/relu_3x3_reduce
I0509 22:30:05.342705 20634 net.cpp:112] Top shape: 32 144 14 14 (903168)
I0509 22:30:05.342711 20634 layer_factory.hpp:74] Creating layer inception_4d/3x3
I0509 22:30:05.342722 20634 net.cpp:76] Creating Layer inception_4d/3x3
I0509 22:30:05.343413 20634 net.cpp:372] inception_4d/3x3 <- inception_4d/3x3_reduce
I0509 22:30:05.343425 20634 net.cpp:334] inception_4d/3x3 -> inception_4d/3x3
I0509 22:30:05.343435 20634 net.cpp:105] Setting up inception_4d/3x3
I0509 22:30:05.346562 20634 net.cpp:112] Top shape: 32 288 14 14 (1806336)
I0509 22:30:05.346585 20634 layer_factory.hpp:74] Creating layer inception_4d/relu_3x3
I0509 22:30:05.346595 20634 net.cpp:76] Creating Layer inception_4d/relu_3x3
I0509 22:30:05.346601 20634 net.cpp:372] inception_4d/relu_3x3 <- inception_4d/3x3
I0509 22:30:05.346608 20634 net.cpp:323] inception_4d/relu_3x3 -> inception_4d/3x3 (in-place)
I0509 22:30:05.346617 20634 net.cpp:105] Setting up inception_4d/relu_3x3
I0509 22:30:05.346623 20634 net.cpp:112] Top shape: 32 288 14 14 (1806336)
I0509 22:30:05.346628 20634 layer_factory.hpp:74] Creating layer inception_4d/5x5_reduce
I0509 22:30:05.346639 20634 net.cpp:76] Creating Layer inception_4d/5x5_reduce
I0509 22:30:05.346645 20634 net.cpp:372] inception_4d/5x5_reduce <- inception_4c/output_inception_4c/output_0_split_2
I0509 22:30:05.346654 20634 net.cpp:334] inception_4d/5x5_reduce -> inception_4d/5x5_reduce
I0509 22:30:05.346663 20634 net.cpp:105] Setting up inception_4d/5x5_reduce
I0509 22:30:05.346813 20634 net.cpp:112] Top shape: 32 32 14 14 (200704)
I0509 22:30:05.346823 20634 layer_factory.hpp:74] Creating layer inception_4d/relu_5x5_reduce
I0509 22:30:05.346832 20634 net.cpp:76] Creating Layer inception_4d/relu_5x5_reduce
I0509 22:30:05.346837 20634 net.cpp:372] inception_4d/relu_5x5_reduce <- inception_4d/5x5_reduce
I0509 22:30:05.346846 20634 net.cpp:323] inception_4d/relu_5x5_reduce -> inception_4d/5x5_reduce (in-place)
I0509 22:30:05.346854 20634 net.cpp:105] Setting up inception_4d/relu_5x5_reduce
I0509 22:30:05.346859 20634 net.cpp:112] Top shape: 32 32 14 14 (200704)
I0509 22:30:05.346865 20634 layer_factory.hpp:74] Creating layer inception_4d/5x5
I0509 22:30:05.346873 20634 net.cpp:76] Creating Layer inception_4d/5x5
I0509 22:30:05.346879 20634 net.cpp:372] inception_4d/5x5 <- inception_4d/5x5_reduce
I0509 22:30:05.346889 20634 net.cpp:334] inception_4d/5x5 -> inception_4d/5x5
I0509 22:30:05.346896 20634 net.cpp:105] Setting up inception_4d/5x5
I0509 22:30:05.347352 20634 net.cpp:112] Top shape: 32 64 14 14 (401408)
I0509 22:30:05.347367 20634 layer_factory.hpp:74] Creating layer inception_4d/relu_5x5
I0509 22:30:05.347376 20634 net.cpp:76] Creating Layer inception_4d/relu_5x5
I0509 22:30:05.347383 20634 net.cpp:372] inception_4d/relu_5x5 <- inception_4d/5x5
I0509 22:30:05.347389 20634 net.cpp:323] inception_4d/relu_5x5 -> inception_4d/5x5 (in-place)
I0509 22:30:05.347396 20634 net.cpp:105] Setting up inception_4d/relu_5x5
I0509 22:30:05.347403 20634 net.cpp:112] Top shape: 32 64 14 14 (401408)
I0509 22:30:05.347407 20634 layer_factory.hpp:74] Creating layer inception_4d/pool
I0509 22:30:05.347417 20634 net.cpp:76] Creating Layer inception_4d/pool
I0509 22:30:05.347424 20634 net.cpp:372] inception_4d/pool <- inception_4c/output_inception_4c/output_0_split_3
I0509 22:30:05.347431 20634 net.cpp:334] inception_4d/pool -> inception_4d/pool
I0509 22:30:05.347440 20634 net.cpp:105] Setting up inception_4d/pool
I0509 22:30:05.347447 20634 net.cpp:112] Top shape: 32 512 14 14 (3211264)
I0509 22:30:05.347453 20634 layer_factory.hpp:74] Creating layer inception_4d/pool_proj
I0509 22:30:05.347486 20634 net.cpp:76] Creating Layer inception_4d/pool_proj
I0509 22:30:05.347492 20634 net.cpp:372] inception_4d/pool_proj <- inception_4d/pool
I0509 22:30:05.347502 20634 net.cpp:334] inception_4d/pool_proj -> inception_4d/pool_proj
I0509 22:30:05.347512 20634 net.cpp:105] Setting up inception_4d/pool_proj
I0509 22:30:05.347836 20634 net.cpp:112] Top shape: 32 64 14 14 (401408)
I0509 22:30:05.347848 20634 layer_factory.hpp:74] Creating layer inception_4d/relu_pool_proj
I0509 22:30:05.347856 20634 net.cpp:76] Creating Layer inception_4d/relu_pool_proj
I0509 22:30:05.347862 20634 net.cpp:372] inception_4d/relu_pool_proj <- inception_4d/pool_proj
I0509 22:30:05.347869 20634 net.cpp:323] inception_4d/relu_pool_proj -> inception_4d/pool_proj (in-place)
I0509 22:30:05.347878 20634 net.cpp:105] Setting up inception_4d/relu_pool_proj
I0509 22:30:05.347887 20634 net.cpp:112] Top shape: 32 64 14 14 (401408)
I0509 22:30:05.347897 20634 layer_factory.hpp:74] Creating layer inception_4d/output
I0509 22:30:05.347914 20634 net.cpp:76] Creating Layer inception_4d/output
I0509 22:30:05.347925 20634 net.cpp:372] inception_4d/output <- inception_4d/1x1
I0509 22:30:05.347937 20634 net.cpp:372] inception_4d/output <- inception_4d/3x3
I0509 22:30:05.347947 20634 net.cpp:372] inception_4d/output <- inception_4d/5x5
I0509 22:30:05.347957 20634 net.cpp:372] inception_4d/output <- inception_4d/pool_proj
I0509 22:30:05.347970 20634 net.cpp:334] inception_4d/output -> inception_4d/output
I0509 22:30:05.347982 20634 net.cpp:105] Setting up inception_4d/output
I0509 22:30:05.347988 20634 net.cpp:112] Top shape: 32 528 14 14 (3311616)
I0509 22:30:05.347995 20634 layer_factory.hpp:74] Creating layer inception_4d/output_inception_4d/output_0_split
I0509 22:30:05.348002 20634 net.cpp:76] Creating Layer inception_4d/output_inception_4d/output_0_split
I0509 22:30:05.348008 20634 net.cpp:372] inception_4d/output_inception_4d/output_0_split <- inception_4d/output
I0509 22:30:05.348019 20634 net.cpp:334] inception_4d/output_inception_4d/output_0_split -> inception_4d/output_inception_4d/output_0_split_0
I0509 22:30:05.348029 20634 net.cpp:334] inception_4d/output_inception_4d/output_0_split -> inception_4d/output_inception_4d/output_0_split_1
I0509 22:30:05.348042 20634 net.cpp:334] inception_4d/output_inception_4d/output_0_split -> inception_4d/output_inception_4d/output_0_split_2
I0509 22:30:05.348050 20634 net.cpp:334] inception_4d/output_inception_4d/output_0_split -> inception_4d/output_inception_4d/output_0_split_3
I0509 22:30:05.348059 20634 net.cpp:334] inception_4d/output_inception_4d/output_0_split -> inception_4d/output_inception_4d/output_0_split_4
I0509 22:30:05.348068 20634 net.cpp:105] Setting up inception_4d/output_inception_4d/output_0_split
I0509 22:30:05.348075 20634 net.cpp:112] Top shape: 32 528 14 14 (3311616)
I0509 22:30:05.348080 20634 net.cpp:112] Top shape: 32 528 14 14 (3311616)
I0509 22:30:05.348085 20634 net.cpp:112] Top shape: 32 528 14 14 (3311616)
I0509 22:30:05.348090 20634 net.cpp:112] Top shape: 32 528 14 14 (3311616)
I0509 22:30:05.348095 20634 net.cpp:112] Top shape: 32 528 14 14 (3311616)
I0509 22:30:05.348100 20634 layer_factory.hpp:74] Creating layer loss2/ave_pool
I0509 22:30:05.348110 20634 net.cpp:76] Creating Layer loss2/ave_pool
I0509 22:30:05.348116 20634 net.cpp:372] loss2/ave_pool <- inception_4d/output_inception_4d/output_0_split_0
I0509 22:30:05.348124 20634 net.cpp:334] loss2/ave_pool -> loss2/ave_pool
I0509 22:30:05.348134 20634 net.cpp:105] Setting up loss2/ave_pool
I0509 22:30:05.348160 20634 net.cpp:112] Top shape: 32 528 4 4 (270336)
I0509 22:30:05.348167 20634 layer_factory.hpp:74] Creating layer loss2/conv
I0509 22:30:05.348178 20634 net.cpp:76] Creating Layer loss2/conv
I0509 22:30:05.348186 20634 net.cpp:372] loss2/conv <- loss2/ave_pool
I0509 22:30:05.348193 20634 net.cpp:334] loss2/conv -> loss2/conv
I0509 22:30:05.348201 20634 net.cpp:105] Setting up loss2/conv
I0509 22:30:05.348784 20634 net.cpp:112] Top shape: 32 128 4 4 (65536)
I0509 22:30:05.348799 20634 layer_factory.hpp:74] Creating layer loss2/relu_conv
I0509 22:30:05.348820 20634 net.cpp:76] Creating Layer loss2/relu_conv
I0509 22:30:05.348829 20634 net.cpp:372] loss2/relu_conv <- loss2/conv
I0509 22:30:05.348837 20634 net.cpp:323] loss2/relu_conv -> loss2/conv (in-place)
I0509 22:30:05.348845 20634 net.cpp:105] Setting up loss2/relu_conv
I0509 22:30:05.348851 20634 net.cpp:112] Top shape: 32 128 4 4 (65536)
I0509 22:30:05.348856 20634 layer_factory.hpp:74] Creating layer loss2/fc
I0509 22:30:05.348865 20634 net.cpp:76] Creating Layer loss2/fc
I0509 22:30:05.348871 20634 net.cpp:372] loss2/fc <- loss2/conv
I0509 22:30:05.348878 20634 net.cpp:334] loss2/fc -> loss2/fc
I0509 22:30:05.348887 20634 net.cpp:105] Setting up loss2/fc
I0509 22:30:05.366322 20634 net.cpp:112] Top shape: 32 1024 1 1 (32768)
I0509 22:30:05.366367 20634 layer_factory.hpp:74] Creating layer loss2/relu_fc
I0509 22:30:05.366380 20634 net.cpp:76] Creating Layer loss2/relu_fc
I0509 22:30:05.366389 20634 net.cpp:372] loss2/relu_fc <- loss2/fc
I0509 22:30:05.366399 20634 net.cpp:323] loss2/relu_fc -> loss2/fc (in-place)
I0509 22:30:05.366411 20634 net.cpp:105] Setting up loss2/relu_fc
I0509 22:30:05.366417 20634 net.cpp:112] Top shape: 32 1024 1 1 (32768)
I0509 22:30:05.366423 20634 layer_factory.hpp:74] Creating layer loss2/drop_fc
I0509 22:30:05.366432 20634 net.cpp:76] Creating Layer loss2/drop_fc
I0509 22:30:05.366438 20634 net.cpp:372] loss2/drop_fc <- loss2/fc
I0509 22:30:05.366444 20634 net.cpp:323] loss2/drop_fc -> loss2/fc (in-place)
I0509 22:30:05.366452 20634 net.cpp:105] Setting up loss2/drop_fc
I0509 22:30:05.366459 20634 net.cpp:112] Top shape: 32 1024 1 1 (32768)
I0509 22:30:05.366464 20634 layer_factory.hpp:74] Creating layer loss2/classifier
I0509 22:30:05.366474 20634 net.cpp:76] Creating Layer loss2/classifier
I0509 22:30:05.366479 20634 net.cpp:372] loss2/classifier <- loss2/fc
I0509 22:30:05.366490 20634 net.cpp:334] loss2/classifier -> loss2/classifier
I0509 22:30:05.366502 20634 net.cpp:105] Setting up loss2/classifier
I0509 22:30:05.366535 20634 net.cpp:112] Top shape: 32 2 1 1 (64)
I0509 22:30:05.366545 20634 layer_factory.hpp:74] Creating layer loss2/loss
I0509 22:30:05.366556 20634 net.cpp:76] Creating Layer loss2/loss
I0509 22:30:05.366562 20634 net.cpp:372] loss2/loss <- loss2/classifier
I0509 22:30:05.366569 20634 net.cpp:372] loss2/loss <- label_data_1_split_1
I0509 22:30:05.366577 20634 net.cpp:334] loss2/loss -> loss2/loss1
I0509 22:30:05.366586 20634 net.cpp:105] Setting up loss2/loss
I0509 22:30:05.366595 20634 layer_factory.hpp:74] Creating layer loss2/loss
I0509 22:30:05.366611 20634 net.cpp:112] Top shape: 1 1 1 1 (1)
I0509 22:30:05.366616 20634 net.cpp:118]     with loss weight 0.3
I0509 22:30:05.366634 20634 layer_factory.hpp:74] Creating layer inception_4e/1x1
I0509 22:30:05.366647 20634 net.cpp:76] Creating Layer inception_4e/1x1
I0509 22:30:05.366653 20634 net.cpp:372] inception_4e/1x1 <- inception_4d/output_inception_4d/output_0_split_1
I0509 22:30:05.366662 20634 net.cpp:334] inception_4e/1x1 -> inception_4e/1x1
I0509 22:30:05.366672 20634 net.cpp:105] Setting up inception_4e/1x1
I0509 22:30:05.367910 20634 net.cpp:112] Top shape: 32 256 14 14 (1605632)
I0509 22:30:05.367933 20634 layer_factory.hpp:74] Creating layer inception_4e/relu_1x1
I0509 22:30:05.367941 20634 net.cpp:76] Creating Layer inception_4e/relu_1x1
I0509 22:30:05.367947 20634 net.cpp:372] inception_4e/relu_1x1 <- inception_4e/1x1
I0509 22:30:05.367954 20634 net.cpp:323] inception_4e/relu_1x1 -> inception_4e/1x1 (in-place)
I0509 22:30:05.367962 20634 net.cpp:105] Setting up inception_4e/relu_1x1
I0509 22:30:05.367969 20634 net.cpp:112] Top shape: 32 256 14 14 (1605632)
I0509 22:30:05.367974 20634 layer_factory.hpp:74] Creating layer inception_4e/3x3_reduce
I0509 22:30:05.367982 20634 net.cpp:76] Creating Layer inception_4e/3x3_reduce
I0509 22:30:05.367990 20634 net.cpp:372] inception_4e/3x3_reduce <- inception_4d/output_inception_4d/output_0_split_2
I0509 22:30:05.368002 20634 net.cpp:334] inception_4e/3x3_reduce -> inception_4e/3x3_reduce
I0509 22:30:05.368044 20634 net.cpp:105] Setting up inception_4e/3x3_reduce
I0509 22:30:05.368775 20634 net.cpp:112] Top shape: 32 160 14 14 (1003520)
I0509 22:30:05.368790 20634 layer_factory.hpp:74] Creating layer inception_4e/relu_3x3_reduce
I0509 22:30:05.368798 20634 net.cpp:76] Creating Layer inception_4e/relu_3x3_reduce
I0509 22:30:05.368804 20634 net.cpp:372] inception_4e/relu_3x3_reduce <- inception_4e/3x3_reduce
I0509 22:30:05.368814 20634 net.cpp:323] inception_4e/relu_3x3_reduce -> inception_4e/3x3_reduce (in-place)
I0509 22:30:05.368823 20634 net.cpp:105] Setting up inception_4e/relu_3x3_reduce
I0509 22:30:05.368829 20634 net.cpp:112] Top shape: 32 160 14 14 (1003520)
I0509 22:30:05.368834 20634 layer_factory.hpp:74] Creating layer inception_4e/3x3
I0509 22:30:05.368842 20634 net.cpp:76] Creating Layer inception_4e/3x3
I0509 22:30:05.368849 20634 net.cpp:372] inception_4e/3x3 <- inception_4e/3x3_reduce
I0509 22:30:05.368857 20634 net.cpp:334] inception_4e/3x3 -> inception_4e/3x3
I0509 22:30:05.368867 20634 net.cpp:105] Setting up inception_4e/3x3
I0509 22:30:05.372855 20634 net.cpp:112] Top shape: 32 320 14 14 (2007040)
I0509 22:30:05.372890 20634 layer_factory.hpp:74] Creating layer inception_4e/relu_3x3
I0509 22:30:05.372901 20634 net.cpp:76] Creating Layer inception_4e/relu_3x3
I0509 22:30:05.372910 20634 net.cpp:372] inception_4e/relu_3x3 <- inception_4e/3x3
I0509 22:30:05.372920 20634 net.cpp:323] inception_4e/relu_3x3 -> inception_4e/3x3 (in-place)
I0509 22:30:05.372930 20634 net.cpp:105] Setting up inception_4e/relu_3x3
I0509 22:30:05.372934 20634 net.cpp:112] Top shape: 32 320 14 14 (2007040)
I0509 22:30:05.372941 20634 layer_factory.hpp:74] Creating layer inception_4e/5x5_reduce
I0509 22:30:05.372953 20634 net.cpp:76] Creating Layer inception_4e/5x5_reduce
I0509 22:30:05.372959 20634 net.cpp:372] inception_4e/5x5_reduce <- inception_4d/output_inception_4d/output_0_split_3
I0509 22:30:05.372970 20634 net.cpp:334] inception_4e/5x5_reduce -> inception_4e/5x5_reduce
I0509 22:30:05.372980 20634 net.cpp:105] Setting up inception_4e/5x5_reduce
I0509 22:30:05.373131 20634 net.cpp:112] Top shape: 32 32 14 14 (200704)
I0509 22:30:05.373144 20634 layer_factory.hpp:74] Creating layer inception_4e/relu_5x5_reduce
I0509 22:30:05.373152 20634 net.cpp:76] Creating Layer inception_4e/relu_5x5_reduce
I0509 22:30:05.373157 20634 net.cpp:372] inception_4e/relu_5x5_reduce <- inception_4e/5x5_reduce
I0509 22:30:05.373164 20634 net.cpp:323] inception_4e/relu_5x5_reduce -> inception_4e/5x5_reduce (in-place)
I0509 22:30:05.373172 20634 net.cpp:105] Setting up inception_4e/relu_5x5_reduce
I0509 22:30:05.373178 20634 net.cpp:112] Top shape: 32 32 14 14 (200704)
I0509 22:30:05.373183 20634 layer_factory.hpp:74] Creating layer inception_4e/5x5
I0509 22:30:05.373213 20634 net.cpp:76] Creating Layer inception_4e/5x5
I0509 22:30:05.373219 20634 net.cpp:372] inception_4e/5x5 <- inception_4e/5x5_reduce
I0509 22:30:05.373229 20634 net.cpp:334] inception_4e/5x5 -> inception_4e/5x5
I0509 22:30:05.373237 20634 net.cpp:105] Setting up inception_4e/5x5
I0509 22:30:05.374119 20634 net.cpp:112] Top shape: 32 128 14 14 (802816)
I0509 22:30:05.374133 20634 layer_factory.hpp:74] Creating layer inception_4e/relu_5x5
I0509 22:30:05.374141 20634 net.cpp:76] Creating Layer inception_4e/relu_5x5
I0509 22:30:05.374147 20634 net.cpp:372] inception_4e/relu_5x5 <- inception_4e/5x5
I0509 22:30:05.374155 20634 net.cpp:323] inception_4e/relu_5x5 -> inception_4e/5x5 (in-place)
I0509 22:30:05.374162 20634 net.cpp:105] Setting up inception_4e/relu_5x5
I0509 22:30:05.374167 20634 net.cpp:112] Top shape: 32 128 14 14 (802816)
I0509 22:30:05.374173 20634 layer_factory.hpp:74] Creating layer inception_4e/pool
I0509 22:30:05.374182 20634 net.cpp:76] Creating Layer inception_4e/pool
I0509 22:30:05.374188 20634 net.cpp:372] inception_4e/pool <- inception_4d/output_inception_4d/output_0_split_4
I0509 22:30:05.374198 20634 net.cpp:334] inception_4e/pool -> inception_4e/pool
I0509 22:30:05.374207 20634 net.cpp:105] Setting up inception_4e/pool
I0509 22:30:05.374215 20634 net.cpp:112] Top shape: 32 528 14 14 (3311616)
I0509 22:30:05.374253 20634 layer_factory.hpp:74] Creating layer inception_4e/pool_proj
I0509 22:30:05.374264 20634 net.cpp:76] Creating Layer inception_4e/pool_proj
I0509 22:30:05.374284 20634 net.cpp:372] inception_4e/pool_proj <- inception_4e/pool
I0509 22:30:05.374295 20634 net.cpp:334] inception_4e/pool_proj -> inception_4e/pool_proj
I0509 22:30:05.374306 20634 net.cpp:105] Setting up inception_4e/pool_proj
I0509 22:30:05.374886 20634 net.cpp:112] Top shape: 32 128 14 14 (802816)
I0509 22:30:05.374899 20634 layer_factory.hpp:74] Creating layer inception_4e/relu_pool_proj
I0509 22:30:05.374907 20634 net.cpp:76] Creating Layer inception_4e/relu_pool_proj
I0509 22:30:05.374913 20634 net.cpp:372] inception_4e/relu_pool_proj <- inception_4e/pool_proj
I0509 22:30:05.374923 20634 net.cpp:323] inception_4e/relu_pool_proj -> inception_4e/pool_proj (in-place)
I0509 22:30:05.374932 20634 net.cpp:105] Setting up inception_4e/relu_pool_proj
I0509 22:30:05.374936 20634 net.cpp:112] Top shape: 32 128 14 14 (802816)
I0509 22:30:05.374943 20634 layer_factory.hpp:74] Creating layer inception_4e/output
I0509 22:30:05.374950 20634 net.cpp:76] Creating Layer inception_4e/output
I0509 22:30:05.374955 20634 net.cpp:372] inception_4e/output <- inception_4e/1x1
I0509 22:30:05.374963 20634 net.cpp:372] inception_4e/output <- inception_4e/3x3
I0509 22:30:05.374969 20634 net.cpp:372] inception_4e/output <- inception_4e/5x5
I0509 22:30:05.374975 20634 net.cpp:372] inception_4e/output <- inception_4e/pool_proj
I0509 22:30:05.374982 20634 net.cpp:334] inception_4e/output -> inception_4e/output
I0509 22:30:05.374990 20634 net.cpp:105] Setting up inception_4e/output
I0509 22:30:05.374997 20634 net.cpp:112] Top shape: 32 832 14 14 (5218304)
I0509 22:30:05.375002 20634 layer_factory.hpp:74] Creating layer pool4/3x3_s2
I0509 22:30:05.375010 20634 net.cpp:76] Creating Layer pool4/3x3_s2
I0509 22:30:05.375042 20634 net.cpp:372] pool4/3x3_s2 <- inception_4e/output
I0509 22:30:05.375054 20634 net.cpp:334] pool4/3x3_s2 -> pool4/3x3_s2
I0509 22:30:05.375064 20634 net.cpp:105] Setting up pool4/3x3_s2
I0509 22:30:05.375072 20634 net.cpp:112] Top shape: 32 832 7 7 (1304576)
I0509 22:30:05.375077 20634 layer_factory.hpp:74] Creating layer pool4/3x3_s2_pool4/3x3_s2_0_split
I0509 22:30:05.375084 20634 net.cpp:76] Creating Layer pool4/3x3_s2_pool4/3x3_s2_0_split
I0509 22:30:05.375089 20634 net.cpp:372] pool4/3x3_s2_pool4/3x3_s2_0_split <- pool4/3x3_s2
I0509 22:30:05.375098 20634 net.cpp:334] pool4/3x3_s2_pool4/3x3_s2_0_split -> pool4/3x3_s2_pool4/3x3_s2_0_split_0
I0509 22:30:05.375108 20634 net.cpp:334] pool4/3x3_s2_pool4/3x3_s2_0_split -> pool4/3x3_s2_pool4/3x3_s2_0_split_1
I0509 22:30:05.375116 20634 net.cpp:334] pool4/3x3_s2_pool4/3x3_s2_0_split -> pool4/3x3_s2_pool4/3x3_s2_0_split_2
I0509 22:30:05.375125 20634 net.cpp:334] pool4/3x3_s2_pool4/3x3_s2_0_split -> pool4/3x3_s2_pool4/3x3_s2_0_split_3
I0509 22:30:05.375133 20634 net.cpp:105] Setting up pool4/3x3_s2_pool4/3x3_s2_0_split
I0509 22:30:05.375139 20634 net.cpp:112] Top shape: 32 832 7 7 (1304576)
I0509 22:30:05.375144 20634 net.cpp:112] Top shape: 32 832 7 7 (1304576)
I0509 22:30:05.375149 20634 net.cpp:112] Top shape: 32 832 7 7 (1304576)
I0509 22:30:05.375154 20634 net.cpp:112] Top shape: 32 832 7 7 (1304576)
I0509 22:30:05.375159 20634 layer_factory.hpp:74] Creating layer inception_5a/1x1
I0509 22:30:05.375170 20634 net.cpp:76] Creating Layer inception_5a/1x1
I0509 22:30:05.375176 20634 net.cpp:372] inception_5a/1x1 <- pool4/3x3_s2_pool4/3x3_s2_0_split_0
I0509 22:30:05.375185 20634 net.cpp:334] inception_5a/1x1 -> inception_5a/1x1
I0509 22:30:05.375192 20634 net.cpp:105] Setting up inception_5a/1x1
I0509 22:30:05.377004 20634 net.cpp:112] Top shape: 32 256 7 7 (401408)
I0509 22:30:05.377022 20634 layer_factory.hpp:74] Creating layer inception_5a/relu_1x1
I0509 22:30:05.377028 20634 net.cpp:76] Creating Layer inception_5a/relu_1x1
I0509 22:30:05.377034 20634 net.cpp:372] inception_5a/relu_1x1 <- inception_5a/1x1
I0509 22:30:05.377044 20634 net.cpp:323] inception_5a/relu_1x1 -> inception_5a/1x1 (in-place)
I0509 22:30:05.377070 20634 net.cpp:105] Setting up inception_5a/relu_1x1
I0509 22:30:05.377076 20634 net.cpp:112] Top shape: 32 256 7 7 (401408)
I0509 22:30:05.377082 20634 layer_factory.hpp:74] Creating layer inception_5a/3x3_reduce
I0509 22:30:05.377091 20634 net.cpp:76] Creating Layer inception_5a/3x3_reduce
I0509 22:30:05.377097 20634 net.cpp:372] inception_5a/3x3_reduce <- pool4/3x3_s2_pool4/3x3_s2_0_split_1
I0509 22:30:05.377107 20634 net.cpp:334] inception_5a/3x3_reduce -> inception_5a/3x3_reduce
I0509 22:30:05.377117 20634 net.cpp:105] Setting up inception_5a/3x3_reduce
I0509 22:30:05.378288 20634 net.cpp:112] Top shape: 32 160 7 7 (250880)
I0509 22:30:05.378304 20634 layer_factory.hpp:74] Creating layer inception_5a/relu_3x3_reduce
I0509 22:30:05.378315 20634 net.cpp:76] Creating Layer inception_5a/relu_3x3_reduce
I0509 22:30:05.378322 20634 net.cpp:372] inception_5a/relu_3x3_reduce <- inception_5a/3x3_reduce
I0509 22:30:05.378329 20634 net.cpp:323] inception_5a/relu_3x3_reduce -> inception_5a/3x3_reduce (in-place)
I0509 22:30:05.378339 20634 net.cpp:105] Setting up inception_5a/relu_3x3_reduce
I0509 22:30:05.378343 20634 net.cpp:112] Top shape: 32 160 7 7 (250880)
I0509 22:30:05.378350 20634 layer_factory.hpp:74] Creating layer inception_5a/3x3
I0509 22:30:05.378360 20634 net.cpp:76] Creating Layer inception_5a/3x3
I0509 22:30:05.378366 20634 net.cpp:372] inception_5a/3x3 <- inception_5a/3x3_reduce
I0509 22:30:05.378375 20634 net.cpp:334] inception_5a/3x3 -> inception_5a/3x3
I0509 22:30:05.378417 20634 net.cpp:105] Setting up inception_5a/3x3
I0509 22:30:05.382295 20634 net.cpp:112] Top shape: 32 320 7 7 (501760)
I0509 22:30:05.382320 20634 layer_factory.hpp:74] Creating layer inception_5a/relu_3x3
I0509 22:30:05.382333 20634 net.cpp:76] Creating Layer inception_5a/relu_3x3
I0509 22:30:05.383100 20634 net.cpp:372] inception_5a/relu_3x3 <- inception_5a/3x3
I0509 22:30:05.383111 20634 net.cpp:323] inception_5a/relu_3x3 -> inception_5a/3x3 (in-place)
I0509 22:30:05.383121 20634 net.cpp:105] Setting up inception_5a/relu_3x3
I0509 22:30:05.383126 20634 net.cpp:112] Top shape: 32 320 7 7 (501760)
I0509 22:30:05.383132 20634 layer_factory.hpp:74] Creating layer inception_5a/5x5_reduce
I0509 22:30:05.383142 20634 net.cpp:76] Creating Layer inception_5a/5x5_reduce
I0509 22:30:05.383148 20634 net.cpp:372] inception_5a/5x5_reduce <- pool4/3x3_s2_pool4/3x3_s2_0_split_2
I0509 22:30:05.383159 20634 net.cpp:334] inception_5a/5x5_reduce -> inception_5a/5x5_reduce
I0509 22:30:05.383169 20634 net.cpp:105] Setting up inception_5a/5x5_reduce
I0509 22:30:05.383414 20634 net.cpp:112] Top shape: 32 32 7 7 (50176)
I0509 22:30:05.383429 20634 layer_factory.hpp:74] Creating layer inception_5a/relu_5x5_reduce
I0509 22:30:05.383436 20634 net.cpp:76] Creating Layer inception_5a/relu_5x5_reduce
I0509 22:30:05.383442 20634 net.cpp:372] inception_5a/relu_5x5_reduce <- inception_5a/5x5_reduce
I0509 22:30:05.383450 20634 net.cpp:323] inception_5a/relu_5x5_reduce -> inception_5a/5x5_reduce (in-place)
I0509 22:30:05.383457 20634 net.cpp:105] Setting up inception_5a/relu_5x5_reduce
I0509 22:30:05.383462 20634 net.cpp:112] Top shape: 32 32 7 7 (50176)
I0509 22:30:05.383468 20634 layer_factory.hpp:74] Creating layer inception_5a/5x5
I0509 22:30:05.383476 20634 net.cpp:76] Creating Layer inception_5a/5x5
I0509 22:30:05.383481 20634 net.cpp:372] inception_5a/5x5 <- inception_5a/5x5_reduce
I0509 22:30:05.383491 20634 net.cpp:334] inception_5a/5x5 -> inception_5a/5x5
I0509 22:30:05.383501 20634 net.cpp:105] Setting up inception_5a/5x5
I0509 22:30:05.384379 20634 net.cpp:112] Top shape: 32 128 7 7 (200704)
I0509 22:30:05.384393 20634 layer_factory.hpp:74] Creating layer inception_5a/relu_5x5
I0509 22:30:05.384402 20634 net.cpp:76] Creating Layer inception_5a/relu_5x5
I0509 22:30:05.384407 20634 net.cpp:372] inception_5a/relu_5x5 <- inception_5a/5x5
I0509 22:30:05.384414 20634 net.cpp:323] inception_5a/relu_5x5 -> inception_5a/5x5 (in-place)
I0509 22:30:05.384421 20634 net.cpp:105] Setting up inception_5a/relu_5x5
I0509 22:30:05.384456 20634 net.cpp:112] Top shape: 32 128 7 7 (200704)
I0509 22:30:05.384464 20634 layer_factory.hpp:74] Creating layer inception_5a/pool
I0509 22:30:05.384475 20634 net.cpp:76] Creating Layer inception_5a/pool
I0509 22:30:05.384481 20634 net.cpp:372] inception_5a/pool <- pool4/3x3_s2_pool4/3x3_s2_0_split_3
I0509 22:30:05.384490 20634 net.cpp:334] inception_5a/pool -> inception_5a/pool
I0509 22:30:05.384500 20634 net.cpp:105] Setting up inception_5a/pool
I0509 22:30:05.384510 20634 net.cpp:112] Top shape: 32 832 7 7 (1304576)
I0509 22:30:05.384516 20634 layer_factory.hpp:74] Creating layer inception_5a/pool_proj
I0509 22:30:05.384526 20634 net.cpp:76] Creating Layer inception_5a/pool_proj
I0509 22:30:05.384533 20634 net.cpp:372] inception_5a/pool_proj <- inception_5a/pool
I0509 22:30:05.384541 20634 net.cpp:334] inception_5a/pool_proj -> inception_5a/pool_proj
I0509 22:30:05.384551 20634 net.cpp:105] Setting up inception_5a/pool_proj
I0509 22:30:05.385457 20634 net.cpp:112] Top shape: 32 128 7 7 (200704)
I0509 22:30:05.385470 20634 layer_factory.hpp:74] Creating layer inception_5a/relu_pool_proj
I0509 22:30:05.385478 20634 net.cpp:76] Creating Layer inception_5a/relu_pool_proj
I0509 22:30:05.385484 20634 net.cpp:372] inception_5a/relu_pool_proj <- inception_5a/pool_proj
I0509 22:30:05.385493 20634 net.cpp:323] inception_5a/relu_pool_proj -> inception_5a/pool_proj (in-place)
I0509 22:30:05.385503 20634 net.cpp:105] Setting up inception_5a/relu_pool_proj
I0509 22:30:05.385509 20634 net.cpp:112] Top shape: 32 128 7 7 (200704)
I0509 22:30:05.385514 20634 layer_factory.hpp:74] Creating layer inception_5a/output
I0509 22:30:05.385521 20634 net.cpp:76] Creating Layer inception_5a/output
I0509 22:30:05.385527 20634 net.cpp:372] inception_5a/output <- inception_5a/1x1
I0509 22:30:05.385534 20634 net.cpp:372] inception_5a/output <- inception_5a/3x3
I0509 22:30:05.385540 20634 net.cpp:372] inception_5a/output <- inception_5a/5x5
I0509 22:30:05.385546 20634 net.cpp:372] inception_5a/output <- inception_5a/pool_proj
I0509 22:30:05.385553 20634 net.cpp:334] inception_5a/output -> inception_5a/output
I0509 22:30:05.385561 20634 net.cpp:105] Setting up inception_5a/output
I0509 22:30:05.385568 20634 net.cpp:112] Top shape: 32 832 7 7 (1304576)
I0509 22:30:05.385573 20634 layer_factory.hpp:74] Creating layer inception_5a/output_inception_5a/output_0_split
I0509 22:30:05.385581 20634 net.cpp:76] Creating Layer inception_5a/output_inception_5a/output_0_split
I0509 22:30:05.385587 20634 net.cpp:372] inception_5a/output_inception_5a/output_0_split <- inception_5a/output
I0509 22:30:05.385597 20634 net.cpp:334] inception_5a/output_inception_5a/output_0_split -> inception_5a/output_inception_5a/output_0_split_0
I0509 22:30:05.385607 20634 net.cpp:334] inception_5a/output_inception_5a/output_0_split -> inception_5a/output_inception_5a/output_0_split_1
I0509 22:30:05.385615 20634 net.cpp:334] inception_5a/output_inception_5a/output_0_split -> inception_5a/output_inception_5a/output_0_split_2
I0509 22:30:05.385625 20634 net.cpp:334] inception_5a/output_inception_5a/output_0_split -> inception_5a/output_inception_5a/output_0_split_3
I0509 22:30:05.385632 20634 net.cpp:105] Setting up inception_5a/output_inception_5a/output_0_split
I0509 22:30:05.385639 20634 net.cpp:112] Top shape: 32 832 7 7 (1304576)
I0509 22:30:05.385645 20634 net.cpp:112] Top shape: 32 832 7 7 (1304576)
I0509 22:30:05.385649 20634 net.cpp:112] Top shape: 32 832 7 7 (1304576)
I0509 22:30:05.385654 20634 net.cpp:112] Top shape: 32 832 7 7 (1304576)
I0509 22:30:05.385660 20634 layer_factory.hpp:74] Creating layer inception_5b/1x1
I0509 22:30:05.385670 20634 net.cpp:76] Creating Layer inception_5b/1x1
I0509 22:30:05.385676 20634 net.cpp:372] inception_5b/1x1 <- inception_5a/output_inception_5a/output_0_split_0
I0509 22:30:05.385684 20634 net.cpp:334] inception_5b/1x1 -> inception_5b/1x1
I0509 22:30:05.385692 20634 net.cpp:105] Setting up inception_5b/1x1
I0509 22:30:05.388448 20634 net.cpp:112] Top shape: 32 384 7 7 (602112)
I0509 22:30:05.388470 20634 layer_factory.hpp:74] Creating layer inception_5b/relu_1x1
I0509 22:30:05.388500 20634 net.cpp:76] Creating Layer inception_5b/relu_1x1
I0509 22:30:05.388509 20634 net.cpp:372] inception_5b/relu_1x1 <- inception_5b/1x1
I0509 22:30:05.388516 20634 net.cpp:323] inception_5b/relu_1x1 -> inception_5b/1x1 (in-place)
I0509 22:30:05.388525 20634 net.cpp:105] Setting up inception_5b/relu_1x1
I0509 22:30:05.388530 20634 net.cpp:112] Top shape: 32 384 7 7 (602112)
I0509 22:30:05.388536 20634 layer_factory.hpp:74] Creating layer inception_5b/3x3_reduce
I0509 22:30:05.388547 20634 net.cpp:76] Creating Layer inception_5b/3x3_reduce
I0509 22:30:05.388555 20634 net.cpp:372] inception_5b/3x3_reduce <- inception_5a/output_inception_5a/output_0_split_1
I0509 22:30:05.388563 20634 net.cpp:334] inception_5b/3x3_reduce -> inception_5b/3x3_reduce
I0509 22:30:05.388572 20634 net.cpp:105] Setting up inception_5b/3x3_reduce
I0509 22:30:05.389924 20634 net.cpp:112] Top shape: 32 192 7 7 (301056)
I0509 22:30:05.389940 20634 layer_factory.hpp:74] Creating layer inception_5b/relu_3x3_reduce
I0509 22:30:05.389947 20634 net.cpp:76] Creating Layer inception_5b/relu_3x3_reduce
I0509 22:30:05.389953 20634 net.cpp:372] inception_5b/relu_3x3_reduce <- inception_5b/3x3_reduce
I0509 22:30:05.389966 20634 net.cpp:323] inception_5b/relu_3x3_reduce -> inception_5b/3x3_reduce (in-place)
I0509 22:30:05.389979 20634 net.cpp:105] Setting up inception_5b/relu_3x3_reduce
I0509 22:30:05.389986 20634 net.cpp:112] Top shape: 32 192 7 7 (301056)
I0509 22:30:05.389991 20634 layer_factory.hpp:74] Creating layer inception_5b/3x3
I0509 22:30:05.389999 20634 net.cpp:76] Creating Layer inception_5b/3x3
I0509 22:30:05.390005 20634 net.cpp:372] inception_5b/3x3 <- inception_5b/3x3_reduce
I0509 22:30:05.390015 20634 net.cpp:334] inception_5b/3x3 -> inception_5b/3x3
I0509 22:30:05.390043 20634 net.cpp:105] Setting up inception_5b/3x3
I0509 22:30:05.396184 20634 net.cpp:112] Top shape: 32 384 7 7 (602112)
I0509 22:30:05.396217 20634 layer_factory.hpp:74] Creating layer inception_5b/relu_3x3
I0509 22:30:05.396229 20634 net.cpp:76] Creating Layer inception_5b/relu_3x3
I0509 22:30:05.396237 20634 net.cpp:372] inception_5b/relu_3x3 <- inception_5b/3x3
I0509 22:30:05.396246 20634 net.cpp:323] inception_5b/relu_3x3 -> inception_5b/3x3 (in-place)
I0509 22:30:05.396256 20634 net.cpp:105] Setting up inception_5b/relu_3x3
I0509 22:30:05.396262 20634 net.cpp:112] Top shape: 32 384 7 7 (602112)
I0509 22:30:05.396267 20634 layer_factory.hpp:74] Creating layer inception_5b/5x5_reduce
I0509 22:30:05.396297 20634 net.cpp:76] Creating Layer inception_5b/5x5_reduce
I0509 22:30:05.396304 20634 net.cpp:372] inception_5b/5x5_reduce <- inception_5a/output_inception_5a/output_0_split_2
I0509 22:30:05.396313 20634 net.cpp:334] inception_5b/5x5_reduce -> inception_5b/5x5_reduce
I0509 22:30:05.396323 20634 net.cpp:105] Setting up inception_5b/5x5_reduce
I0509 22:30:05.396677 20634 net.cpp:112] Top shape: 32 48 7 7 (75264)
I0509 22:30:05.396692 20634 layer_factory.hpp:74] Creating layer inception_5b/relu_5x5_reduce
I0509 22:30:05.396699 20634 net.cpp:76] Creating Layer inception_5b/relu_5x5_reduce
I0509 22:30:05.396705 20634 net.cpp:372] inception_5b/relu_5x5_reduce <- inception_5b/5x5_reduce
I0509 22:30:05.396713 20634 net.cpp:323] inception_5b/relu_5x5_reduce -> inception_5b/5x5_reduce (in-place)
I0509 22:30:05.396720 20634 net.cpp:105] Setting up inception_5b/relu_5x5_reduce
I0509 22:30:05.396726 20634 net.cpp:112] Top shape: 32 48 7 7 (75264)
I0509 22:30:05.396733 20634 layer_factory.hpp:74] Creating layer inception_5b/5x5
I0509 22:30:05.396742 20634 net.cpp:76] Creating Layer inception_5b/5x5
I0509 22:30:05.396749 20634 net.cpp:372] inception_5b/5x5 <- inception_5b/5x5_reduce
I0509 22:30:05.396756 20634 net.cpp:334] inception_5b/5x5 -> inception_5b/5x5
I0509 22:30:05.396765 20634 net.cpp:105] Setting up inception_5b/5x5
I0509 22:30:05.398067 20634 net.cpp:112] Top shape: 32 128 7 7 (200704)
I0509 22:30:05.398082 20634 layer_factory.hpp:74] Creating layer inception_5b/relu_5x5
I0509 22:30:05.398090 20634 net.cpp:76] Creating Layer inception_5b/relu_5x5
I0509 22:30:05.398129 20634 net.cpp:372] inception_5b/relu_5x5 <- inception_5b/5x5
I0509 22:30:05.398140 20634 net.cpp:323] inception_5b/relu_5x5 -> inception_5b/5x5 (in-place)
I0509 22:30:05.398149 20634 net.cpp:105] Setting up inception_5b/relu_5x5
I0509 22:30:05.398155 20634 net.cpp:112] Top shape: 32 128 7 7 (200704)
I0509 22:30:05.398160 20634 layer_factory.hpp:74] Creating layer inception_5b/pool
I0509 22:30:05.398169 20634 net.cpp:76] Creating Layer inception_5b/pool
I0509 22:30:05.398175 20634 net.cpp:372] inception_5b/pool <- inception_5a/output_inception_5a/output_0_split_3
I0509 22:30:05.398183 20634 net.cpp:334] inception_5b/pool -> inception_5b/pool
I0509 22:30:05.398192 20634 net.cpp:105] Setting up inception_5b/pool
I0509 22:30:05.398201 20634 net.cpp:112] Top shape: 32 832 7 7 (1304576)
I0509 22:30:05.398207 20634 layer_factory.hpp:74] Creating layer inception_5b/pool_proj
I0509 22:30:05.398218 20634 net.cpp:76] Creating Layer inception_5b/pool_proj
I0509 22:30:05.398224 20634 net.cpp:372] inception_5b/pool_proj <- inception_5b/pool
I0509 22:30:05.398234 20634 net.cpp:334] inception_5b/pool_proj -> inception_5b/pool_proj
I0509 22:30:05.398243 20634 net.cpp:105] Setting up inception_5b/pool_proj
I0509 22:30:05.399150 20634 net.cpp:112] Top shape: 32 128 7 7 (200704)
I0509 22:30:05.399165 20634 layer_factory.hpp:74] Creating layer inception_5b/relu_pool_proj
I0509 22:30:05.399173 20634 net.cpp:76] Creating Layer inception_5b/relu_pool_proj
I0509 22:30:05.399179 20634 net.cpp:372] inception_5b/relu_pool_proj <- inception_5b/pool_proj
I0509 22:30:05.399189 20634 net.cpp:323] inception_5b/relu_pool_proj -> inception_5b/pool_proj (in-place)
I0509 22:30:05.399199 20634 net.cpp:105] Setting up inception_5b/relu_pool_proj
I0509 22:30:05.399204 20634 net.cpp:112] Top shape: 32 128 7 7 (200704)
I0509 22:30:05.399209 20634 layer_factory.hpp:74] Creating layer inception_5b/output
I0509 22:30:05.399217 20634 net.cpp:76] Creating Layer inception_5b/output
I0509 22:30:05.399224 20634 net.cpp:372] inception_5b/output <- inception_5b/1x1
I0509 22:30:05.399230 20634 net.cpp:372] inception_5b/output <- inception_5b/3x3
I0509 22:30:05.399236 20634 net.cpp:372] inception_5b/output <- inception_5b/5x5
I0509 22:30:05.399242 20634 net.cpp:372] inception_5b/output <- inception_5b/pool_proj
I0509 22:30:05.399251 20634 net.cpp:334] inception_5b/output -> inception_5b/output
I0509 22:30:05.399260 20634 net.cpp:105] Setting up inception_5b/output
I0509 22:30:05.399266 20634 net.cpp:112] Top shape: 32 1024 7 7 (1605632)
I0509 22:30:05.399284 20634 layer_factory.hpp:74] Creating layer pool5/7x7_s1
I0509 22:30:05.399293 20634 net.cpp:76] Creating Layer pool5/7x7_s1
I0509 22:30:05.399299 20634 net.cpp:372] pool5/7x7_s1 <- inception_5b/output
I0509 22:30:05.399307 20634 net.cpp:334] pool5/7x7_s1 -> pool5/7x7_s1
I0509 22:30:05.399317 20634 net.cpp:105] Setting up pool5/7x7_s1
I0509 22:30:05.399322 20634 net.cpp:112] Top shape: 32 1024 1 1 (32768)
I0509 22:30:05.399328 20634 layer_factory.hpp:74] Creating layer pool5/drop_7x7_s1
I0509 22:30:05.399335 20634 net.cpp:76] Creating Layer pool5/drop_7x7_s1
I0509 22:30:05.399341 20634 net.cpp:372] pool5/drop_7x7_s1 <- pool5/7x7_s1
I0509 22:30:05.399350 20634 net.cpp:323] pool5/drop_7x7_s1 -> pool5/7x7_s1 (in-place)
I0509 22:30:05.399359 20634 net.cpp:105] Setting up pool5/drop_7x7_s1
I0509 22:30:05.399366 20634 net.cpp:112] Top shape: 32 1024 1 1 (32768)
I0509 22:30:05.399371 20634 layer_factory.hpp:74] Creating layer loss3/classifier
I0509 22:30:05.399380 20634 net.cpp:76] Creating Layer loss3/classifier
I0509 22:30:05.399386 20634 net.cpp:372] loss3/classifier <- pool5/7x7_s1
I0509 22:30:05.399396 20634 net.cpp:334] loss3/classifier -> loss3/classifier
I0509 22:30:05.399406 20634 net.cpp:105] Setting up loss3/classifier
I0509 22:30:05.399446 20634 net.cpp:112] Top shape: 32 2 1 1 (64)
I0509 22:30:05.399456 20634 layer_factory.hpp:74] Creating layer loss3/loss3
I0509 22:30:05.399464 20634 net.cpp:76] Creating Layer loss3/loss3
I0509 22:30:05.399471 20634 net.cpp:372] loss3/loss3 <- loss3/classifier
I0509 22:30:05.399490 20634 net.cpp:372] loss3/loss3 <- label_data_1_split_2
I0509 22:30:05.399502 20634 net.cpp:334] loss3/loss3 -> loss3/loss3
I0509 22:30:05.399510 20634 net.cpp:105] Setting up loss3/loss3
I0509 22:30:05.399518 20634 layer_factory.hpp:74] Creating layer loss3/loss3
I0509 22:30:05.399534 20634 net.cpp:112] Top shape: 1 1 1 1 (1)
I0509 22:30:05.399540 20634 net.cpp:118]     with loss weight 1
I0509 22:30:05.399560 20634 net.cpp:163] loss3/loss3 needs backward computation.
I0509 22:30:05.399566 20634 net.cpp:163] loss3/classifier needs backward computation.
I0509 22:30:05.399595 20634 net.cpp:163] pool5/drop_7x7_s1 needs backward computation.
I0509 22:30:05.399602 20634 net.cpp:163] pool5/7x7_s1 needs backward computation.
…
I0509 22:30:05.408045 20634 solver.cpp:154] Creating test net (#0) specified by net file: ../../train_val.prototxt
I0509 22:30:05.408320 20634 net.cpp:253] The NetState phase (1) differed from the phase (0) specified by a rule in layer data
I0509 22:30:05.409710 20634 net.cpp:42] Initializing net from parameters: 
name: "GoogleNet"
state {
  phase: TEST
}
layer {
  name: "data"
  type: "Data"
  top: "data"
  top: "label"
  include {
    phase: TEST
  }
  transform_param {
    mirror: false
    crop_size: 224
    mean_value: 104
    mean_value: 117
    mean_value: 123
  }
  data_param {
    source: "val_lmdb"
    batch_size: 32
    backend: LMDB
  }
}
layer {
  name: "conv1/7x7_s2"
  type: "Convolution"
  bottom: "data"
  top: "conv1/7x7_s2"
  param {
    lr_mult: 1
    decay_mult: 1
  }
  param {
    lr_mult: 2
    decay_mult: 0
  }
  convolution_param {
    num_output: 64
    pad: 3
    kernel_size: 7
    stride: 2
    weight_filler {
      type: "xavier"
      std: 0.1
    }
    bias_filler {
      type: "constant"
      value: 0.2
    }
  }
}
layer {
  name: "conv1/relu_7x7"
  type: "ReLU"
  bottom: "conv1/7x7_s2"
  top: "conv1/7x7_s2"
}
layer {
  name: "pool1/3x3_s2"
  type: "Pooling"
  bottom: "conv1/7x7_s2"
  top: "pool1/3x3_s2"
  pooling_param {
    pool: MAX
    kernel_size: 3
    stride: 2
  }
}
layer {
  name: "pool1/norm1"
  type: "LRN"
  bottom: "pool1/3x3_s2"
  top: "pool1/norm1"
  lrn_param {
    local_size: 5
    alpha: 0.0001
    beta: 0.75
  }
}
layer {
  name: "conv2/3x3_reduce"
  type: "Convolution"
  bottom: "pool1/norm1"
  top: "conv2/3x3_reduce"
  param {
    lr_mult: 1
    decay_mult: 1
  }
  param {
    lr_mult: 2
    decay_mult: 0
  }
  convolution_param {
    num_output: 64
    kernel_size: 1
    weight_filler {
      type: "xavier"
      std: 0.1
    }
    bias_filler {
      type: "constant"
      value: 0.2
    }
  }
}
layer {
  name: "conv2/relu_3x3_reduce"
  type: "ReLU"
  bottom: "conv2/3x3_reduce"
  top: "conv2/3x3_reduce"
}
layer {
  name: "conv2/3x3"
  type: "Convolution"
  bottom: "conv2/3x3_reduce"
  top: "conv2/3x3"
  param {
    lr_mult: 1
    decay_mult: 1
  }
  param {
    lr_mult: 2
    decay_mult: 0
  }
  convolution_param {
    num_output: 192
    pad: 1
    kernel_size: 3
    weight_filler {
      type: "xavier"
      std: 0.03
    }
    bias_filler {
      type: "constant"
      value: 0.2
    }
  }
}
layer {
  name: "conv2/relu_3x3"
  type: "ReLU"
  bottom: "conv2/3x3"
  top: "conv2/3x3"
}
layer {
  name: "conv2/norm2"
  type: "LRN"
  bottom: "conv2/3x3"
  top: "conv2/norm2"
  lrn_param {
    local_size: 5
    alpha: 0.0001
    beta: 0.75
  }
}
layer {
  name: "pool2/3x3_s2"
  type: "Pooling"
  bottom: "conv2/norm2"
  top: "pool2/3x3_s2"
  pooling_param {
    pool: MAX
    kernel_size: 3
    stride: 2
  }
}
layer {
  name: "inception_3a/1x1"
  type: "Convolution"
  bottom: "pool2/3x3_s2"
  top: "inception_3a/1x1"
  param {
    lr_mult: 1
    decay_mult: 1
  }
  param {
    lr_mult: 2
    decay_mult: 0
  }
  convolution_param {
    num_output: 64
    kernel_size: 1
    weight_filler {
      type: "xavier"
      std: 0.03
    }
    bias_filler {
      type: "constant"
      value: 0.2
    }
  }
}
layer {
  name: "inception_3a/relu_1x1"
  type: "ReLU"
  bottom: "inception_3a/1x1"
  top: "inception_3a/1x1"
}
layer {
  name: "inception_3a/3x3_reduce"
  type: "Convolution"
  bottom: "pool2/3x3_s2"
  top: "inception_3a/3x3_reduce"
  param {
    lr_mult: 1
    decay_mult: 1
  }
  param {
    lr_mult: 2
    decay_mult: 0
  }
  convolution_param {
    num_output: 96
    kernel_size: 1
    weight_filler {
      type: "xavier"
      std: 0.09
    }
    bias_filler {
      type: "constant"
      value: 0.2
    }
  }
}
layer {
  name: "inception_3a/relu_3x3_reduce"
  type: "ReLU"
  bottom: "inception_3a/3x3_reduce"
  top: "inception_3a/3x3_reduce"
}
layer {
  name: "inception_3a/3x3"
  type: "Convolution"
  bottom: "inception_3a/3x3_reduce"
  top: "inception_3a/3x3"
  param {
    lr_mult: 1
    decay_mult: 1
  }
  param {
    lr_mult: 2
    decay_mult: 0
  }
  convolution_param {
    num_output: 128
    pad: 1
    kernel_size: 3
    weight_filler {
      type: "xavier"
      std: 0.03
    }
    bias_filler {
      type: "constant"
      value: 0.2
    }
  }
}
layer {
  name: "inception_3a/relu_3x3"
  type: "ReLU"
  bottom: "inception_3a/3x3"
  top: "inception_3a/3x3"
}
layer {
  name: "inception_3a/5x5_reduce"
  type: "Convolution"
  bottom: "pool2/3x3_s2"
  top: "inception_3a/5x5_reduce"
  param {
    lr_mult: 1
    decay_mult: 1
  }
  param {
    lr_mult: 2
    decay_mult: 0
  }
  convolution_param {
    num_output: 16
    kernel_size: 1
    weight_filler {
      type: "xavier"
      std: 0.2
    }
    bias_filler {
      type: "constant"
      value: 0.2
    }
  }
}
layer {
  name: "inception_3a/relu_5x5_reduce"
  type: "ReLU"
  bottom: "inception_3a/5x5_reduce"
  top: "inception_3a/5x5_reduce"
}
layer {
  name: "inception_3a/5x5"
  type: "Convolution"
  bottom: "inception_3a/5x5_reduce"
  top: "inception_3a/5x5"
  param {
    lr_mult: 1
    decay_mult: 1
  }
  param {
    lr_mult: 2
    decay_mult: 0
  }
  convolution_param {
    num_output: 32
    pad: 2
    kernel_size: 5
    weight_filler {
      type: "xavier"
      std: 0.03
    }
    bias_filler {
      type: "constant"
      value: 0.2
    }
  }
}
layer {
  name: "inception_3a/relu_5x5"
  type: "ReLU"
  bottom: "inception_3a/5x5"
  top: "inception_3a/5x5"
}
layer {
  name: "inception_3a/pool"
  type: "Pooling"
  bottom: "pool2/3x3_s2"
  top: "inception_3a/pool"
  pooling_param {
    pool: MAX
    kernel_size: 3
    stride: 1
    pad: 1
  }
}
layer {
  name: "inception_3a/pool_proj"
  type: "Convolution"
  bottom: "inception_3a/pool"
  top: "inception_3a/pool_proj"
  param {
    lr_mult: 1
    decay_mult: 1
  }
  param {
    lr_mult: 2
    decay_mult: 0
  }
  convolution_param {
    num_output: 32
    kernel_size: 1
    weight_filler {
      type: "xavier"
      std: 0.1
    }
    bias_filler {
      type: "constant"
      value: 0.2
    }
  }
}
layer {
  name: "inception_3a/relu_pool_proj"
  type: "ReLU"
  bottom: "inception_3a/pool_proj"
  top: "inception_3a/pool_proj"
}
layer {
  name: "inception_3a/output"
  type: "Concat"
  bottom: "inception_3a/1x1"
  bottom: "inception_3a/3x3"
  bottom: "inception_3a/5x5"
  bottom: "inception_3a/pool_proj"
  top: "inception_3a/output"
}
layer {
  name: "inception_3b/1x1"
  type: "Convolution"
  bottom: "inception_3a/output"
  top: "inception_3b/1x1"
  param {
    lr_mult: 1
    decay_mult: 1
  }
  param {
    lr_mult: 2
    decay_mult: 0
  }
  convolution_param {
    num_output: 128
    kernel_size: 1
    weight_filler {
      type: "xavier"
      std: 0.03
    }
    bias_filler {
      type: "constant"
      value: 0.2
    }
  }
}
layer {
  name: "inception_3b/relu_1x1"
  type: "ReLU"
  bottom: "inception_3b/1x1"
  top: "inception_3b/1x1"
}
layer {
  name: "inception_3b/3x3_reduce"
  type: "Convolution"
  bottom: "inception_3a/output"
  top: "inception_3b/3x3_reduce"
  param {
    lr_mult: 1
    decay_mult: 1
  }
  param {
    lr_mult: 2
    decay_mult: 0
  }
  convolution_param {
    num_output: 128
    kernel_size: 1
    weight_filler {
      type: "xavier"
      std: 0.09
    }
    bias_filler {
      type: "constant"
      value: 0.2
    }
  }
}
layer {
  name: "inception_3b/relu_3x3_reduce"
  type: "ReLU"
  bottom: "inception_3b/3x3_reduce"
  top: "inception_3b/3x3_reduce"
}
layer {
  name: "inception_3b/3x3"
  type: "Convolution"
  bottom: "inception_3b/3x3_reduce"
  top: "inception_3b/3x3"
  param {
    lr_mult: 1
    decay_mult: 1
  }
  param {
    lr_mult: 2
    decay_mult: 0
  }
  convolution_param {
    num_output: 192
    pad: 1
    kernel_size: 3
    weight_filler {
      type: "xavier"
      std: 0.03
    }
    bias_filler {
      type: "constant"
      value: 0.2
    }
  }
}
layer {
  name: "inception_3b/relu_3x3"
  type: "ReLU"
  bottom: "inception_3b/3x3"
  top: "inception_3b/3x3"
}
layer {
  name: "inception_3b/5x5_reduce"
  type: "Convolution"
  bottom: "inception_3a/output"
  top: "inception_3b/5x5_reduce"
  param {
    lr_mult: 1
    decay_mult: 1
  }
  param {
    lr_mult: 2
    decay_mult: 0
  }
  convolution_param {
    num_output: 32
    kernel_size: 1
    weight_filler {
      type: "xavier"
      std: 0.2
    }
    bias_filler {
      type: "constant"
      value: 0.2
    }
  }
}
layer {
  name: "inception_3b/relu_5x5_reduce"
  type: "ReLU"
  bottom: "inception_3b/5x5_reduce"
  top: "inception_3b/5x5_reduce"
}
layer {
  name: "inception_3b/5x5"
  type: "Convolution"
  bottom: "inception_3b/5x5_reduce"
  top: "inception_3b/5x5"
  param {
    lr_mult: 1
    decay_mult: 1
  }
  param {
    lr_mult: 2
    decay_mult: 0
  }
  convolution_param {
    num_output: 96
    pad: 2
    kernel_size: 5
    weight_filler {
      type: "xavier"
      std: 0.03
    }
    bias_filler {
      type: "constant"
      value: 0.2
    }
  }
}
layer {
  name: "inception_3b/relu_5x5"
  type: "ReLU"
  bottom: "inception_3b/5x5"
  top: "inception_3b/5x5"
}
layer {
  name: "inception_3b/pool"
  type: "Pooling"
  bottom: "inception_3a/output"
  top: "inception_3b/pool"
  pooling_param {
    pool: MAX
    kernel_size: 3
    stride: 1
    pad: 1
  }
}
layer {
  name: "inception_3b/pool_proj"
  type: "Convolution"
  bottom: "inception_3b/pool"
  top: "inception_3b/pool_proj"
  param {
    lr_mult: 1
    decay_mult: 1
  }
  param {
    lr_mult: 2
    decay_mult: 0
  }
  convolution_param {
    num_output: 64
    kernel_size: 1
    weight_filler {
      type: "xavier"
      std: 0.1
    }
    bias_filler {
      type: "constant"
      value: 0.2
    }
  }
}
layer {
  name: "inception_3b/relu_pool_proj"
  type: "ReLU"
  bottom: "inception_3b/pool_proj"
  top: "inception_3b/pool_proj"
}
layer {
  name: "inception_3b/output"
  type: "Concat"
  bottom: "inception_3b/1x1"
  bottom: "inception_3b/3x3"
  bottom: "inception_3b/5x5"
  bottom: "inception_3b/pool_proj"
  top: "inception_3b/output"
}
layer {
  name: "pool3/3x3_s2"
  type: "Pooling"
  bottom: "inception_3b/output"
  top: "pool3/3x3_s2"
  pooling_param {
    pool: MAX
    kernel_size: 3
    stride: 2
  }
}
layer {
  name: "inception_4a/1x1"
  type: "Convolution"
  bottom: "pool3/3x3_s2"
  top: "inception_4a/1x1"
  param {
    lr_mult: 1
    decay_mult: 1
  }
  param {
    lr_mult: 2
    decay_mult: 0
  }
  convolution_param {
    num_output: 192
    kernel_size: 1
    weight_filler {
      type: "xavier"
      std: 0.03
    }
    bias_filler {
      type: "constant"
      value: 0.2
    }
  }
}
layer {
  name: "inception_4a/relu_1x1"
  type: "ReLU"
  bottom: "inception_4a/1x1"
  top: "inception_4a/1x1"
}
layer {
  name: "inception_4a/3x3_reduce"
  type: "Convolution"
  bottom: "pool3/3x3_s2"
  top: "inception_4a/3x3_reduce"
  param {
    lr_mult: 1
    decay_mult: 1
  }
  param {
    lr_mult: 2
    decay_mult: 0
  }
  convolution_param {
    num_output: 96
    kernel_size: 1
    weight_filler {
      type: "xavier"
      std: 0.09
    }
    bias_filler {
      type: "constant"
      value: 0.2
    }
  }
}
layer {
  name: "inception_4a/relu_3x3_reduce"
  type: "ReLU"
  bottom: "inception_4a/3x3_reduce"
  top: "inception_4a/3x3_reduce"
}
layer {
  name: "inception_4a/3x3"
  type: "Convolution"
  bottom: "inception_4a/3x3_reduce"
  top: "inception_4a/3x3"
  param {
    lr_mult: 1
    decay_mult: 1
  }
  param {
    lr_mult: 2
    decay_mult: 0
  }
  convolution_param {
    num_output: 208
    pad: 1
    kernel_size: 3
    weight_filler {
      type: "xavier"
      std: 0.03
    }
    bias_filler {
      type: "constant"
      value: 0.2
    }
  }
}
layer {
  name: "inception_4a/relu_3x3"
  type: "ReLU"
  bottom: "inception_4a/3x3"
  top: "inception_4a/3x3"
}
layer {
  name: "inception_4a/5x5_reduce"
  type: "Convolution"
  bottom: "pool3/3x3_s2"
  top: "inception_4a/5x5_reduce"
  param {
    lr_mult: 1
    decay_mult: 1
  }
  param {
    lr_mult: 2
    decay_mult: 0
  }
  convolution_param {
    num_output: 16
    kernel_size: 1
    weight_filler {
      type: "xavier"
      std: 0.2
    }
    bias_filler {
      type: "constant"
      value: 0.2
    }
  }
}
layer {
  name: "inception_4a/relu_5x5_reduce"
  type: "ReLU"
  bottom: "inception_4a/5x5_reduce"
  top: "inception_4a/5x5_reduce"
}
layer {
  name: "inception_4a/5x5"
  type: "Convolution"
  bottom: "inception_4a/5x5_reduce"
  top: "inception_4a/5x5"
  param {
    lr_mult: 1
    decay_mult: 1
  }
  param {
    lr_mult: 2
    decay_mult: 0
  }
  convolution_param {
    num_output: 48
    pad: 2
    kernel_size: 5
    weight_filler {
      type: "xavier"
      std: 0.03
    }
    bias_filler {
      type: "constant"
      value: 0.2
    }
  }
}
layer {
  name: "inception_4a/relu_5x5"
  type: "ReLU"
  bottom: "inception_4a/5x5"
  top: "inception_4a/5x5"
}
layer {
  name: "inception_4a/pool"
  type: "Pooling"
  bottom: "pool3/3x3_s2"
  top: "inception_4a/pool"
  pooling_param {
    pool: MAX
    kernel_size: 3
    stride: 1
    pad: 1
  }
}
layer {
  name: "inception_4a/pool_proj"
  type: "Convolution"
  bottom: "inception_4a/pool"
  top: "inception_4a/pool_proj"
  param {
    lr_mult: 1
    decay_mult: 1
  }
  param {
    lr_mult: 2
    decay_mult: 0
  }
  convolution_param {
    num_output: 64
    kernel_size: 1
    weight_filler {
      type: "xavier"
      std: 0.1
    }
    bias_filler {
      type: "constant"
      value: 0.2
    }
  }
}
layer {
  name: "inception_4a/relu_pool_proj"
  type: "ReLU"
  bottom: "inception_4a/pool_proj"
  top: "inception_4a/pool_proj"
}
layer {
  name: "inception_4a/output"
  type: "Concat"
  bottom: "inception_4a/1x1"
  bottom: "inception_4a/3x3"
  bottom: "inception_4a/5x5"
  bottom: "inception_4a/pool_proj"
  top: "inception_4a/output"
}
layer {
  name: "loss1/ave_pool"
  type: "Pooling"
  bottom: "inception_4a/output"
  top: "loss1/ave_pool"
  pooling_param {
    pool: AVE
    kernel_size: 5
    stride: 3
  }
}
layer {
  name: "loss1/conv"
  type: "Convolution"
  bottom: "loss1/ave_pool"
  top: "loss1/conv"
  param {
    lr_mult: 1
    decay_mult: 1
  }
  param {
    lr_mult: 2
    decay_mult: 0
  }
  convolution_param {
    num_output: 128
    kernel_size: 1
    weight_filler {
      type: "xavier"
      std: 0.08
    }
    bias_filler {
      type: "constant"
      value: 0.2
    }
  }
}
layer {
  name: "loss1/relu_conv"
  type: "ReLU"
  bottom: "loss1/conv"
  top: "loss1/conv"
}
layer {
  name: "loss1/fc"
  type: "InnerProduct"
  bottom: "loss1/conv"
  top: "loss1/fc"
  param {
    lr_mult: 1
    decay_mult: 1
  }
  param {
    lr_mult: 2
    decay_mult: 0
  }
  inner_product_param {
    num_output: 1024
    weight_filler {
      type: "xavier"
      std: 0.02
    }
    bias_filler {
      type: "constant"
      value: 0.2
    }
  }
}
layer {
  name: "loss1/relu_fc"
  type: "ReLU"
  bottom: "loss1/fc"
  top: "loss1/fc"
}
layer {
  name: "loss1/drop_fc"
  type: "Dropout"
  bottom: "loss1/fc"
  top: "loss1/fc"
  dropout_param {
    dropout_ratio: 0.7
  }
}
layer {
  name: "loss1/classifier"
  type: "InnerProduct"
  bottom: "loss1/fc"
  top: "loss1/classifier"
  param {
    lr_mult: 1
    decay_mult: 1
  }
  param {
    lr_mult: 2
    decay_mult: 0
  }
  inner_product_param {
    num_output: 2
    weight_filler {
      type: "xavier"
      std: 0.0009765625
    }
    bias_filler {
      type: "constant"
      value: 0
    }
  }
}
layer {
  name: "loss1/loss"
  type: "SoftmaxWithLoss"
  bottom: "loss1/classifier"
  bottom: "label"
  top: "loss1/loss1"
  loss_weight: 0.3
}
layer {
  name: "loss1/top-1"
  type: "Accuracy"
  bottom: "loss1/classifier"
  bottom: "label"
  top: "loss1/top-1"
  include {
    phase: TEST
  }
}
layer {
  name: "inception_4b/1x1"
  type: "Convolution"
  bottom: "inception_4a/output"
  top: "inception_4b/1x1"
  param {
    lr_mult: 1
    decay_mult: 1
  }
  param {
    lr_mult: 2
    decay_mult: 0
  }
  convolution_param {
    num_output: 160
    kernel_size: 1
    weight_filler {
      type: "xavier"
      std: 0.03
    }
    bias_filler {
      type: "constant"
      value: 0.2
    }
  }
}
layer {
  name: "inception_4b/relu_1x1"
  type: "ReLU"
  bottom: "inception_4b/1x1"
  top: "inception_4b/1x1"
}
layer {
  name: "inception_4b/3x3_reduce"
  type: "Convolution"
  bottom: "inception_4a/output"
  top: "inception_4b/3x3_reduce"
  param {
    lr_mult: 1
    decay_mult: 1
  }
  param {
    lr_mult: 2
    decay_mult: 0
  }
  convolution_param {
    num_output: 112
    kernel_size: 1
    weight_filler {
      type: "xavier"
      std: 0.09
    }
    bias_filler {
      type: "constant"
      value: 0.2
    }
  }
}
layer {
  name: "inception_4b/relu_3x3_reduce"
  type: "ReLU"
  bottom: "inception_4b/3x3_reduce"
  top: "inception_4b/3x3_reduce"
}
layer {
  name: "inception_4b/3x3"
  type: "Convolution"
  bottom: "inception_4b/3x3_reduce"
  top: "inception_4b/3x3"
  param {
    lr_mult: 1
    decay_mult: 1
  }
  param {
    lr_mult: 2
    decay_mult: 0
  }
  convolution_param {
    num_output: 224
    pad: 1
    kernel_size: 3
    weight_filler {
      type: "xavier"
      std: 0.03
    }
    bias_filler {
      type: "constant"
      value: 0.2
    }
  }
}
layer {
  name: "inception_4b/relu_3x3"
  type: "ReLU"
  bottom: "inception_4b/3x3"
  top: "inception_4b/3x3"
}
layer {
  name: "inception_4b/5x5_reduce"
  type: "Convolution"
  bottom: "inception_4a/output"
  top: "inception_4b/5x5_reduce"
  param {
    lr_mult: 1
    decay_mult: 1
  }
  param {
    lr_mult: 2
    decay_mult: 0
  }
  convolution_param {
    num_output: 24
    kernel_size: 1
    weight_filler {
      type: "xavier"
      std: 0.2
    }
    bias_filler {
      type: "constant"
      value: 0.2
    }
  }
}
layer {
  name: "inception_4b/relu_5x5_reduce"
  type: "ReLU"
  bottom: "inception_4b/5x5_reduce"
  top: "inception_4b/5x5_reduce"
}
layer {
  name: "inception_4b/5x5"
  type: "Convolution"
  bottom: "inception_4b/5x5_reduce"
  top: "inception_4b/5x5"
  param {
    lr_mult: 1
    decay_mult: 1
  }
  param {
    lr_mult: 2
    decay_mult: 0
  }
  convolution_param {
    num_output: 64
    pad: 2
    kernel_size: 5
    weight_filler {
      type: "xavier"
      std: 0.03
    }
    bias_filler {
      type: "constant"
      value: 0.2
    }
  }
}
layer {
  name: "inception_4b/relu_5x5"
  type: "ReLU"
  bottom: "inception_4b/5x5"
  top: "inception_4b/5x5"
}
layer {
  name: "inception_4b/pool"
  type: "Pooling"
  bottom: "inception_4a/output"
  top: "inception_4b/pool"
  pooling_param {
    pool: MAX
    kernel_size: 3
    stride: 1
    pad: 1
  }
}
layer {
  name: "inception_4b/pool_proj"
  type: "Convolution"
  bottom: "inception_4b/pool"
  top: "inception_4b/pool_proj"
  param {
    lr_mult: 1
    decay_mult: 1
  }
  param {
    lr_mult: 2
    decay_mult: 0
  }
  convolution_param {
    num_output: 64
    kernel_size: 1
    weight_filler {
      type: "xavier"
      std: 0.1
    }
    bias_filler {
      type: "constant"
      value: 0.2
    }
  }
}
layer {
  name: "inception_4b/relu_pool_proj"
  type: "ReLU"
  bottom: "inception_4b/pool_proj"
  top: "inception_4b/pool_proj"
}
layer {
  name: "inception_4b/output"
  type: "Concat"
  bottom: "inception_4b/1x1"
  bottom: "inception_4b/3x3"
  bottom: "inception_4b/5x5"
  bottom: "inception_4b/pool_proj"
  top: "inception_4b/output"
}
layer {
  name: "inception_4c/1x1"
  type: "Convolution"
  bottom: "inception_4b/output"
  top: "inception_4c/1x1"
  param {
    lr_mult: 1
    decay_mult: 1
  }
  param {
    lr_mult: 2
    decay_mult: 0
  }
  convolution_param {
    num_output: 128
    kernel_size: 1
    weight_filler {
      type: "xavier"
      std: 0.03
    }
    bias_filler {
      type: "constant"
      value: 0.2
    }
  }
}
layer {
  name: "inception_4c/relu_1x1"
  type: "ReLU"
  bottom: "inception_4c/1x1"
  top: "inception_4c/1x1"
}
layer {
  name: "inception_4c/3x3_reduce"
  type: "Convolution"
  bottom: "inception_4b/output"
  top: "inception_4c/3x3_reduce"
  param {
    lr_mult: 1
    decay_mult: 1
  }
  param {
    lr_mult: 2
    decay_mult: 0
  }
  convolution_param {
    num_output: 128
    kernel_size: 1
    weight_filler {
      type: "xavier"
      std: 0.09
    }
    bias_filler {
      type: "constant"
      value: 0.2
    }
  }
}
layer {
  name: "inception_4c/relu_3x3_reduce"
  type: "ReLU"
  bottom: "inception_4c/3x3_reduce"
  top: "inception_4c/3x3_reduce"
}
layer {
  name: "inception_4c/3x3"
  type: "Convolution"
  bottom: "inception_4c/3x3_reduce"
  top: "inception_4c/3x3"
  param {
    lr_mult: 1
    decay_mult: 1
  }
  param {
    lr_mult: 2
    decay_mult: 0
  }
  convolution_param {
    num_output: 256
    pad: 1
    kernel_size: 3
    weight_filler {
      type: "xavier"
      std: 0.03
    }
    bias_filler {
      type: "constant"
      value: 0.2
    }
  }
}
layer {
  name: "inception_4c/relu_3x3"
  type: "ReLU"
  bottom: "inception_4c/3x3"
  top: "inception_4c/3x3"
}
layer {
  name: "inception_4c/5x5_reduce"
  type: "Convolution"
  bottom: "inception_4b/output"
  top: "inception_4c/5x5_reduce"
  param {
    lr_mult: 1
    decay_mult: 1
  }
  param {
    lr_mult: 2
    decay_mult: 0
  }
  convolution_param {
    num_output: 24
    kernel_size: 1
    weight_filler {
      type: "xavier"
      std: 0.2
    }
    bias_filler {
      type: "constant"
      value: 0.2
    }
  }
}
layer {
  name: "inception_4c/relu_5x5_reduce"
  type: "ReLU"
  bottom: "inception_4c/5x5_reduce"
  top: "inception_4c/5x5_reduce"
}
layer {
  name: "inception_4c/5x5"
  type: "Convolution"
  bottom: "inception_4c/5x5_reduce"
  top: "inception_4c/5x5"
  param {
    lr_mult: 1
    decay_mult: 1
  }
  param {
    lr_mult: 2
    decay_mult: 0
  }
  convolution_param {
    num_output: 64
    pad: 2
    kernel_size: 5
    weight_filler {
      type: "xavier"
      std: 0.03
    }
    bias_filler {
      type: "constant"
      value: 0.2
    }
  }
}
layer {
  name: "inception_4c/relu_5x5"
  type: "ReLU"
  bottom: "inception_4c/5x5"
  top: "inception_4c/5x5"
}
layer {
  name: "inception_4c/pool"
  type: "Pooling"
  bottom: "inception_4b/output"
  top: "inception_4c/pool"
  pooling_param {
    pool: MAX
    kernel_size: 3
    stride: 1
    pad: 1
  }
}
layer {
  name: "inception_4c/pool_proj"
  type: "Convolution"
  bottom: "inception_4c/pool"
  top: "inception_4c/pool_proj"
  param {
    lr_mult: 1
    decay_mult: 1
  }
  param {
    lr_mult: 2
    decay_mult: 0
  }
  convolution_param {
    num_output: 64
    kernel_size: 1
    weight_filler {
      type: "xavier"
      std: 0.1
    }
    bias_filler {
      type: "constant"
      value: 0.2
    }
  }
}
layer {
  name: "inception_4c/relu_pool_proj"
  type: "ReLU"
  bottom: "inception_4c/pool_proj"
  top: "inception_4c/pool_proj"
}
layer {
  name: "inception_4c/output"
  type: "Concat"
  bottom: "inception_4c/1x1"
  bottom: "inception_4c/3x3"
  bottom: "inception_4c/5x5"
  bottom: "inception_4c/pool_proj"
  top: "inception_4c/output"
}
layer {
  name: "inception_4d/1x1"
  type: "Convolution"
  bottom: "inception_4c/output"
  top: "inception_4d/1x1"
  param {
    lr_mult: 1
    decay_mult: 1
  }
  param {
    lr_mult: 2
    decay_mult: 0
  }
  convolution_param {
    num_output: 112
    kernel_size: 1
    weight_filler {
      type: "xavier"
      std: 0.03
    }
    bias_filler {
      type: "constant"
      value: 0.2
    }
  }
}
layer {
  name: "inception_4d/relu_1x1"
  type: "ReLU"
  bottom: "inception_4d/1x1"
  top: "inception_4d/1x1"
}
layer {
  name: "inception_4d/3x3_reduce"
  type: "Convolution"
  bottom: "inception_4c/output"
  top: "inception_4d/3x3_reduce"
  param {
    lr_mult: 1
    decay_mult: 1
  }
  param {
    lr_mult: 2
    decay_mult: 0
  }
  convolution_param {
    num_output: 144
    kernel_size: 1
    weight_filler {
      type: "xavier"
      std: 0.09
    }
    bias_filler {
      type: "constant"
      value: 0.2
    }
  }
}
layer {
  name: "inception_4d/relu_3x3_reduce"
  type: "ReLU"
  bottom: "inception_4d/3x3_reduce"
  top: "inception_4d/3x3_reduce"
}
layer {
  name: "inception_4d/3x3"
  type: "Convolution"
  bottom: "inception_4d/3x3_reduce"
  top: "inception_4d/3x3"
  param {
    lr_mult: 1
    decay_mult: 1
  }
  param {
    lr_mult: 2
    decay_mult: 0
  }
  convolution_param {
    num_output: 288
    pad: 1
    kernel_size: 3
    weight_filler {
      type: "xavier"
      std: 0.03
    }
    bias_filler {
      type: "constant"
      value: 0.2
    }
  }
}
layer {
  name: "inception_4d/relu_3x3"
  type: "ReLU"
  bottom: "inception_4d/3x3"
  top: "inception_4d/3x3"
}
layer {
  name: "inception_4d/5x5_reduce"
  type: "Convolution"
  bottom: "inception_4c/output"
  top: "inception_4d/5x5_reduce"
  param {
    lr_mult: 1
    decay_mult: 1
  }
  param {
    lr_mult: 2
    decay_mult: 0
  }
  convolution_param {
    num_output: 32
    kernel_size: 1
    weight_filler {
      type: "xavier"
      std: 0.2
    }
    bias_filler {
      type: "constant"
      value: 0.2
    }
  }
}
layer {
  name: "inception_4d/relu_5x5_reduce"
  type: "ReLU"
  bottom: "inception_4d/5x5_reduce"
  top: "inception_4d/5x5_reduce"
}
layer {
  name: "inception_4d/5x5"
  type: "Convolution"
  bottom: "inception_4d/5x5_reduce"
  top: "inception_4d/5x5"
  param {
    lr_mult: 1
    decay_mult: 1
  }
  param {
    lr_mult: 2
    decay_mult: 0
  }
  convolution_param {
    num_output: 64
    pad: 2
    kernel_size: 5
    weight_filler {
      type: "xavier"
      std: 0.03
    }
    bias_filler {
      type: "constant"
      value: 0.2
    }
  }
}
layer {
  name: "inception_4d/relu_5x5"
  type: "ReLU"
  bottom: "inception_4d/5x5"
  top: "inception_4d/5x5"
}
layer {
  name: "inception_4d/pool"
  type: "Pooling"
  bottom: "inception_4c/output"
  top: "inception_4d/pool"
  pooling_param {
    pool: MAX
    kernel_size: 3
    stride: 1
    pad: 1
  }
}
layer {
  name: "inception_4d/pool_proj"
  type: "Convolution"
  bottom: "inception_4d/pool"
  top: "inception_4d/pool_proj"
  param {
    lr_mult: 1
    decay_mult: 1
  }
  param {
    lr_mult: 2
    decay_mult: 0
  }
  convolution_param {
    num_output: 64
    kernel_size: 1
    weight_filler {
      type: "xavier"
      std: 0.1
    }
    bias_filler {
      type: "constant"
      value: 0.2
    }
  }
}
layer {
  name: "inception_4d/relu_pool_proj"
  type: "ReLU"
  bottom: "inception_4d/pool_proj"
  top: "inception_4d/pool_proj"
}
layer {
  name: "inception_4d/output"
  type: "Concat"
  bottom: "inception_4d/1x1"
  bottom: "inception_4d/3x3"
  bottom: "inception_4d/5x5"
  bottom: "inception_4d/pool_proj"
  top: "inception_4d/output"
}
layer {
  name: "loss2/ave_pool"
  type: "Pooling"
  bottom: "inception_4d/output"
  top: "loss2/ave_pool"
  pooling_param {
    pool: AVE
    kernel_size: 5
    stride: 3
  }
}
layer {
  name: "loss2/conv"
  type: "Convolution"
  bottom: "loss2/ave_pool"
  top: "loss2/conv"
  param {
    lr_mult: 1
    decay_mult: 1
  }
  param {
    lr_mult: 2
    decay_mult: 0
  }
  convolution_param {
    num_output: 128
    kernel_size: 1
    weight_filler {
      type: "xavier"
      std: 0.08
    }
    bias_filler {
      type: "constant"
      value: 0.2
    }
  }
}
layer {
  name: "loss2/relu_conv"
  type: "ReLU"
  bottom: "loss2/conv"
  top: "loss2/conv"
}
layer {
  name: "loss2/fc"
  type: "InnerProduct"
…
I0509 22:30:05.462152 20634 net.cpp:112] Top shape: 32 128 14 14 (802816)
I0509 22:30:05.462170 20634 layer_factory.hpp:74] Creating layer inception_4c/relu_1x1
I0509 22:30:05.462179 20634 net.cpp:76] Creating Layer inception_4c/relu_1x1
I0509 22:30:05.462185 20634 net.cpp:372] inception_4c/relu_1x1 <- inception_4c/1x1
I0509 22:30:05.462194 20634 net.cpp:323] inception_4c/relu_1x1 -> inception_4c/1x1 (in-place)
I0509 22:30:05.462203 20634 net.cpp:105] Setting up inception_4c/relu_1x1
I0509 22:30:05.462208 20634 net.cpp:112] Top shape: 32 128 14 14 (802816)
I0509 22:30:05.462230 20634 layer_factory.hpp:74] Creating layer inception_4c/3x3_reduce
I0509 22:30:05.462246 20634 net.cpp:76] Creating Layer inception_4c/3x3_reduce
I0509 22:30:05.462259 20634 net.cpp:372] inception_4c/3x3_reduce <- inception_4b/output_inception_4b/output_0_split_1
I0509 22:30:05.462291 20634 net.cpp:334] inception_4c/3x3_reduce -> inception_4c/3x3_reduce
I0509 22:30:05.462306 20634 net.cpp:105] Setting up inception_4c/3x3_reduce
I0509 22:30:05.462915 20634 net.cpp:112] Top shape: 32 128 14 14 (802816)
I0509 22:30:05.462931 20634 layer_factory.hpp:74] Creating layer inception_4c/relu_3x3_reduce
I0509 22:30:05.462939 20634 net.cpp:76] Creating Layer inception_4c/relu_3x3_reduce
I0509 22:30:05.462945 20634 net.cpp:372] inception_4c/relu_3x3_reduce <- inception_4c/3x3_reduce
I0509 22:30:05.462954 20634 net.cpp:323] inception_4c/relu_3x3_reduce -> inception_4c/3x3_reduce (in-place)
I0509 22:30:05.462966 20634 net.cpp:105] Setting up inception_4c/relu_3x3_reduce
I0509 22:30:05.462977 20634 net.cpp:112] Top shape: 32 128 14 14 (802816)
I0509 22:30:05.462983 20634 layer_factory.hpp:74] Creating layer inception_4c/3x3
I0509 22:30:05.462996 20634 net.cpp:76] Creating Layer inception_4c/3x3
I0509 22:30:05.463001 20634 net.cpp:372] inception_4c/3x3 <- inception_4c/3x3_reduce
I0509 22:30:05.463011 20634 net.cpp:334] inception_4c/3x3 -> inception_4c/3x3
I0509 22:30:05.463018 20634 net.cpp:105] Setting up inception_4c/3x3
I0509 22:30:05.465814 20634 net.cpp:112] Top shape: 32 256 14 14 (1605632)
I0509 22:30:05.465855 20634 layer_factory.hpp:74] Creating layer inception_4c/relu_3x3
I0509 22:30:05.465867 20634 net.cpp:76] Creating Layer inception_4c/relu_3x3
I0509 22:30:05.465874 20634 net.cpp:372] inception_4c/relu_3x3 <- inception_4c/3x3
I0509 22:30:05.465883 20634 net.cpp:323] inception_4c/relu_3x3 -> inception_4c/3x3 (in-place)
I0509 22:30:05.465894 20634 net.cpp:105] Setting up inception_4c/relu_3x3
I0509 22:30:05.465905 20634 net.cpp:112] Top shape: 32 256 14 14 (1605632)
I0509 22:30:05.465916 20634 layer_factory.hpp:74] Creating layer inception_4c/5x5_reduce
I0509 22:30:05.465935 20634 net.cpp:76] Creating Layer inception_4c/5x5_reduce
I0509 22:30:05.465944 20634 net.cpp:372] inception_4c/5x5_reduce <- inception_4b/output_inception_4b/output_0_split_2
I0509 22:30:05.465952 20634 net.cpp:334] inception_4c/5x5_reduce -> inception_4c/5x5_reduce
I0509 22:30:05.465972 20634 net.cpp:105] Setting up inception_4c/5x5_reduce
I0509 22:30:05.466135 20634 net.cpp:112] Top shape: 32 24 14 14 (150528)
I0509 22:30:05.466150 20634 layer_factory.hpp:74] Creating layer inception_4c/relu_5x5_reduce
I0509 22:30:05.466158 20634 net.cpp:76] Creating Layer inception_4c/relu_5x5_reduce
I0509 22:30:05.466164 20634 net.cpp:372] inception_4c/relu_5x5_reduce <- inception_4c/5x5_reduce
I0509 22:30:05.466172 20634 net.cpp:323] inception_4c/relu_5x5_reduce -> inception_4c/5x5_reduce (in-place)
I0509 22:30:05.466181 20634 net.cpp:105] Setting up inception_4c/relu_5x5_reduce
I0509 22:30:05.466186 20634 net.cpp:112] Top shape: 32 24 14 14 (150528)
I0509 22:30:05.466192 20634 layer_factory.hpp:74] Creating layer inception_4c/5x5
I0509 22:30:05.466203 20634 net.cpp:76] Creating Layer inception_4c/5x5
I0509 22:30:05.466209 20634 net.cpp:372] inception_4c/5x5 <- inception_4c/5x5_reduce
I0509 22:30:05.466218 20634 net.cpp:334] inception_4c/5x5 -> inception_4c/5x5
I0509 22:30:05.466228 20634 net.cpp:105] Setting up inception_4c/5x5
I0509 22:30:05.466632 20634 net.cpp:112] Top shape: 32 64 14 14 (401408)
I0509 22:30:05.466656 20634 layer_factory.hpp:74] Creating layer inception_4c/relu_5x5
I0509 22:30:05.466675 20634 net.cpp:76] Creating Layer inception_4c/relu_5x5
I0509 22:30:05.466688 20634 net.cpp:372] inception_4c/relu_5x5 <- inception_4c/5x5
I0509 22:30:05.466699 20634 net.cpp:323] inception_4c/relu_5x5 -> inception_4c/5x5 (in-place)
I0509 22:30:05.466708 20634 net.cpp:105] Setting up inception_4c/relu_5x5
I0509 22:30:05.466713 20634 net.cpp:112] Top shape: 32 64 14 14 (401408)
I0509 22:30:05.466719 20634 layer_factory.hpp:74] Creating layer inception_4c/pool
I0509 22:30:05.466753 20634 net.cpp:76] Creating Layer inception_4c/pool
I0509 22:30:05.466761 20634 net.cpp:372] inception_4c/pool <- inception_4b/output_inception_4b/output_0_split_3
I0509 22:30:05.466773 20634 net.cpp:334] inception_4c/pool -> inception_4c/pool
I0509 22:30:05.466783 20634 net.cpp:105] Setting up inception_4c/pool
I0509 22:30:05.466791 20634 net.cpp:112] Top shape: 32 512 14 14 (3211264)
I0509 22:30:05.466797 20634 layer_factory.hpp:74] Creating layer inception_4c/pool_proj
I0509 22:30:05.466806 20634 net.cpp:76] Creating Layer inception_4c/pool_proj
I0509 22:30:05.466814 20634 net.cpp:372] inception_4c/pool_proj <- inception_4c/pool
I0509 22:30:05.466830 20634 net.cpp:334] inception_4c/pool_proj -> inception_4c/pool_proj
I0509 22:30:05.466850 20634 net.cpp:105] Setting up inception_4c/pool_proj
I0509 22:30:05.467162 20634 net.cpp:112] Top shape: 32 64 14 14 (401408)
I0509 22:30:05.467176 20634 layer_factory.hpp:74] Creating layer inception_4c/relu_pool_proj
I0509 22:30:05.467185 20634 net.cpp:76] Creating Layer inception_4c/relu_pool_proj
I0509 22:30:05.467191 20634 net.cpp:372] inception_4c/relu_pool_proj <- inception_4c/pool_proj
I0509 22:30:05.467198 20634 net.cpp:323] inception_4c/relu_pool_proj -> inception_4c/pool_proj (in-place)
I0509 22:30:05.467206 20634 net.cpp:105] Setting up inception_4c/relu_pool_proj
I0509 22:30:05.467212 20634 net.cpp:112] Top shape: 32 64 14 14 (401408)
I0509 22:30:05.467217 20634 layer_factory.hpp:74] Creating layer inception_4c/output
I0509 22:30:05.467227 20634 net.cpp:76] Creating Layer inception_4c/output
I0509 22:30:05.467233 20634 net.cpp:372] inception_4c/output <- inception_4c/1x1
I0509 22:30:05.467241 20634 net.cpp:372] inception_4c/output <- inception_4c/3x3
I0509 22:30:05.467247 20634 net.cpp:372] inception_4c/output <- inception_4c/5x5
I0509 22:30:05.467253 20634 net.cpp:372] inception_4c/output <- inception_4c/pool_proj
I0509 22:30:05.467260 20634 net.cpp:334] inception_4c/output -> inception_4c/output
I0509 22:30:05.467284 20634 net.cpp:105] Setting up inception_4c/output
I0509 22:30:05.467293 20634 net.cpp:112] Top shape: 32 512 14 14 (3211264)
I0509 22:30:05.467299 20634 layer_factory.hpp:74] Creating layer inception_4c/output_inception_4c/output_0_split
I0509 22:30:05.467330 20634 net.cpp:76] Creating Layer inception_4c/output_inception_4c/output_0_split
I0509 22:30:05.467337 20634 net.cpp:372] inception_4c/output_inception_4c/output_0_split <- inception_4c/output
I0509 22:30:05.467345 20634 net.cpp:334] inception_4c/output_inception_4c/output_0_split -> inception_4c/output_inception_4c/output_0_split_0
I0509 22:30:05.467358 20634 net.cpp:334] inception_4c/output_inception_4c/output_0_split -> inception_4c/output_inception_4c/output_0_split_1
I0509 22:30:05.467367 20634 net.cpp:334] inception_4c/output_inception_4c/output_0_split -> inception_4c/output_inception_4c/output_0_split_2
I0509 22:30:05.467376 20634 net.cpp:334] inception_4c/output_inception_4c/output_0_split -> inception_4c/output_inception_4c/output_0_split_3
I0509 22:30:05.467385 20634 net.cpp:105] Setting up inception_4c/output_inception_4c/output_0_split
I0509 22:30:05.467391 20634 net.cpp:112] Top shape: 32 512 14 14 (3211264)
I0509 22:30:05.467396 20634 net.cpp:112] Top shape: 32 512 14 14 (3211264)
I0509 22:30:05.467401 20634 net.cpp:112] Top shape: 32 512 14 14 (3211264)
I0509 22:30:05.467406 20634 net.cpp:112] Top shape: 32 512 14 14 (3211264)
I0509 22:30:05.467411 20634 layer_factory.hpp:74] Creating layer inception_4d/1x1
I0509 22:30:05.467422 20634 net.cpp:76] Creating Layer inception_4d/1x1
I0509 22:30:05.467427 20634 net.cpp:372] inception_4d/1x1 <- inception_4c/output_inception_4c/output_0_split_0
I0509 22:30:05.467435 20634 net.cpp:334] inception_4d/1x1 -> inception_4d/1x1
I0509 22:30:05.467443 20634 net.cpp:105] Setting up inception_4d/1x1
I0509 22:30:05.467975 20634 net.cpp:112] Top shape: 32 112 14 14 (702464)
I0509 22:30:05.467999 20634 layer_factory.hpp:74] Creating layer inception_4d/relu_1x1
I0509 22:30:05.468014 20634 net.cpp:76] Creating Layer inception_4d/relu_1x1
I0509 22:30:05.468042 20634 net.cpp:372] inception_4d/relu_1x1 <- inception_4d/1x1
I0509 22:30:05.468052 20634 net.cpp:323] inception_4d/relu_1x1 -> inception_4d/1x1 (in-place)
I0509 22:30:05.468065 20634 net.cpp:105] Setting up inception_4d/relu_1x1
I0509 22:30:05.468080 20634 net.cpp:112] Top shape: 32 112 14 14 (702464)
I0509 22:30:05.468087 20634 layer_factory.hpp:74] Creating layer inception_4d/3x3_reduce
I0509 22:30:05.468097 20634 net.cpp:76] Creating Layer inception_4d/3x3_reduce
I0509 22:30:05.468107 20634 net.cpp:372] inception_4d/3x3_reduce <- inception_4c/output_inception_4c/output_0_split_1
I0509 22:30:05.468127 20634 net.cpp:334] inception_4d/3x3_reduce -> inception_4d/3x3_reduce
I0509 22:30:05.468148 20634 net.cpp:105] Setting up inception_4d/3x3_reduce
I0509 22:30:05.468860 20634 net.cpp:112] Top shape: 32 144 14 14 (903168)
I0509 22:30:05.468878 20634 layer_factory.hpp:74] Creating layer inception_4d/relu_3x3_reduce
I0509 22:30:05.468885 20634 net.cpp:76] Creating Layer inception_4d/relu_3x3_reduce
I0509 22:30:05.468891 20634 net.cpp:372] inception_4d/relu_3x3_reduce <- inception_4d/3x3_reduce
I0509 22:30:05.468899 20634 net.cpp:323] inception_4d/relu_3x3_reduce -> inception_4d/3x3_reduce (in-place)
I0509 22:30:05.468907 20634 net.cpp:105] Setting up inception_4d/relu_3x3_reduce
I0509 22:30:05.468914 20634 net.cpp:112] Top shape: 32 144 14 14 (903168)
I0509 22:30:05.468922 20634 layer_factory.hpp:74] Creating layer inception_4d/3x3
I0509 22:30:05.468941 20634 net.cpp:76] Creating Layer inception_4d/3x3
I0509 22:30:05.468950 20634 net.cpp:372] inception_4d/3x3 <- inception_4d/3x3_reduce
I0509 22:30:05.468966 20634 net.cpp:334] inception_4d/3x3 -> inception_4d/3x3
I0509 22:30:05.468986 20634 net.cpp:105] Setting up inception_4d/3x3
I0509 22:30:05.472568 20634 net.cpp:112] Top shape: 32 288 14 14 (1806336)
I0509 22:30:05.472592 20634 layer_factory.hpp:74] Creating layer inception_4d/relu_3x3
I0509 22:30:05.472602 20634 net.cpp:76] Creating Layer inception_4d/relu_3x3
I0509 22:30:05.473354 20634 net.cpp:372] inception_4d/relu_3x3 <- inception_4d/3x3
I0509 22:30:05.473371 20634 net.cpp:323] inception_4d/relu_3x3 -> inception_4d/3x3 (in-place)
I0509 22:30:05.473382 20634 net.cpp:105] Setting up inception_4d/relu_3x3
I0509 22:30:05.473388 20634 net.cpp:112] Top shape: 32 288 14 14 (1806336)
I0509 22:30:05.473394 20634 layer_factory.hpp:74] Creating layer inception_4d/5x5_reduce
I0509 22:30:05.473409 20634 net.cpp:76] Creating Layer inception_4d/5x5_reduce
I0509 22:30:05.473417 20634 net.cpp:372] inception_4d/5x5_reduce <- inception_4c/output_inception_4c/output_0_split_2
I0509 22:30:05.473426 20634 net.cpp:334] inception_4d/5x5_reduce -> inception_4d/5x5_reduce
I0509 22:30:05.473438 20634 net.cpp:105] Setting up inception_4d/5x5_reduce
I0509 22:30:05.473599 20634 net.cpp:112] Top shape: 32 32 14 14 (200704)
I0509 22:30:05.473613 20634 layer_factory.hpp:74] Creating layer inception_4d/relu_5x5_reduce
I0509 22:30:05.473621 20634 net.cpp:76] Creating Layer inception_4d/relu_5x5_reduce
I0509 22:30:05.473628 20634 net.cpp:372] inception_4d/relu_5x5_reduce <- inception_4d/5x5_reduce
I0509 22:30:05.473639 20634 net.cpp:323] inception_4d/relu_5x5_reduce -> inception_4d/5x5_reduce (in-place)
I0509 22:30:05.473646 20634 net.cpp:105] Setting up inception_4d/relu_5x5_reduce
I0509 22:30:05.473652 20634 net.cpp:112] Top shape: 32 32 14 14 (200704)
I0509 22:30:05.473657 20634 layer_factory.hpp:74] Creating layer inception_4d/5x5
I0509 22:30:05.473666 20634 net.cpp:76] Creating Layer inception_4d/5x5
I0509 22:30:05.473672 20634 net.cpp:372] inception_4d/5x5 <- inception_4d/5x5_reduce
I0509 22:30:05.473682 20634 net.cpp:334] inception_4d/5x5 -> inception_4d/5x5
I0509 22:30:05.473691 20634 net.cpp:105] Setting up inception_4d/5x5
I0509 22:30:05.474128 20634 net.cpp:112] Top shape: 32 64 14 14 (401408)
I0509 22:30:05.474141 20634 layer_factory.hpp:74] Creating layer inception_4d/relu_5x5
I0509 22:30:05.474153 20634 net.cpp:76] Creating Layer inception_4d/relu_5x5
I0509 22:30:05.474159 20634 net.cpp:372] inception_4d/relu_5x5 <- inception_4d/5x5
I0509 22:30:05.474194 20634 net.cpp:323] inception_4d/relu_5x5 -> inception_4d/5x5 (in-place)
I0509 22:30:05.474202 20634 net.cpp:105] Setting up inception_4d/relu_5x5
I0509 22:30:05.474208 20634 net.cpp:112] Top shape: 32 64 14 14 (401408)
I0509 22:30:05.474215 20634 layer_factory.hpp:74] Creating layer inception_4d/pool
I0509 22:30:05.474225 20634 net.cpp:76] Creating Layer inception_4d/pool
I0509 22:30:05.474231 20634 net.cpp:372] inception_4d/pool <- inception_4c/output_inception_4c/output_0_split_3
I0509 22:30:05.474238 20634 net.cpp:334] inception_4d/pool -> inception_4d/pool
I0509 22:30:05.474247 20634 net.cpp:105] Setting up inception_4d/pool
I0509 22:30:05.474256 20634 net.cpp:112] Top shape: 32 512 14 14 (3211264)
I0509 22:30:05.474261 20634 layer_factory.hpp:74] Creating layer inception_4d/pool_proj
I0509 22:30:05.474283 20634 net.cpp:76] Creating Layer inception_4d/pool_proj
I0509 22:30:05.474292 20634 net.cpp:372] inception_4d/pool_proj <- inception_4d/pool
I0509 22:30:05.474303 20634 net.cpp:334] inception_4d/pool_proj -> inception_4d/pool_proj
I0509 22:30:05.474313 20634 net.cpp:105] Setting up inception_4d/pool_proj
I0509 22:30:05.474603 20634 net.cpp:112] Top shape: 32 64 14 14 (401408)
I0509 22:30:05.474617 20634 layer_factory.hpp:74] Creating layer inception_4d/relu_pool_proj
I0509 22:30:05.474624 20634 net.cpp:76] Creating Layer inception_4d/relu_pool_proj
I0509 22:30:05.474630 20634 net.cpp:372] inception_4d/relu_pool_proj <- inception_4d/pool_proj
I0509 22:30:05.474637 20634 net.cpp:323] inception_4d/relu_pool_proj -> inception_4d/pool_proj (in-place)
I0509 22:30:05.474645 20634 net.cpp:105] Setting up inception_4d/relu_pool_proj
I0509 22:30:05.474650 20634 net.cpp:112] Top shape: 32 64 14 14 (401408)
I0509 22:30:05.474656 20634 layer_factory.hpp:74] Creating layer inception_4d/output
I0509 22:30:05.474666 20634 net.cpp:76] Creating Layer inception_4d/output
I0509 22:30:05.474673 20634 net.cpp:372] inception_4d/output <- inception_4d/1x1
I0509 22:30:05.474680 20634 net.cpp:372] inception_4d/output <- inception_4d/3x3
I0509 22:30:05.474688 20634 net.cpp:372] inception_4d/output <- inception_4d/5x5
I0509 22:30:05.474697 20634 net.cpp:372] inception_4d/output <- inception_4d/pool_proj
I0509 22:30:05.474705 20634 net.cpp:334] inception_4d/output -> inception_4d/output
I0509 22:30:05.474714 20634 net.cpp:105] Setting up inception_4d/output
I0509 22:30:05.474720 20634 net.cpp:112] Top shape: 32 528 14 14 (3311616)
I0509 22:30:05.474726 20634 layer_factory.hpp:74] Creating layer inception_4d/output_inception_4d/output_0_split
I0509 22:30:05.474736 20634 net.cpp:76] Creating Layer inception_4d/output_inception_4d/output_0_split
I0509 22:30:05.474742 20634 net.cpp:372] inception_4d/output_inception_4d/output_0_split <- inception_4d/output
I0509 22:30:05.474750 20634 net.cpp:334] inception_4d/output_inception_4d/output_0_split -> inception_4d/output_inception_4d/output_0_split_0
I0509 22:30:05.474759 20634 net.cpp:334] inception_4d/output_inception_4d/output_0_split -> inception_4d/output_inception_4d/output_0_split_1
I0509 22:30:05.474768 20634 net.cpp:334] inception_4d/output_inception_4d/output_0_split -> inception_4d/output_inception_4d/output_0_split_2
I0509 22:30:05.474777 20634 net.cpp:334] inception_4d/output_inception_4d/output_0_split -> inception_4d/output_inception_4d/output_0_split_3
I0509 22:30:05.474786 20634 net.cpp:334] inception_4d/output_inception_4d/output_0_split -> inception_4d/output_inception_4d/output_0_split_4
I0509 22:30:05.474794 20634 net.cpp:105] Setting up inception_4d/output_inception_4d/output_0_split
I0509 22:30:05.474802 20634 net.cpp:112] Top shape: 32 528 14 14 (3311616)
I0509 22:30:05.474807 20634 net.cpp:112] Top shape: 32 528 14 14 (3311616)
I0509 22:30:05.474812 20634 net.cpp:112] Top shape: 32 528 14 14 (3311616)
I0509 22:30:05.474817 20634 net.cpp:112] Top shape: 32 528 14 14 (3311616)
I0509 22:30:05.474822 20634 net.cpp:112] Top shape: 32 528 14 14 (3311616)
I0509 22:30:05.474827 20634 layer_factory.hpp:74] Creating layer loss2/ave_pool
I0509 22:30:05.474848 20634 net.cpp:76] Creating Layer loss2/ave_pool
I0509 22:30:05.474855 20634 net.cpp:372] loss2/ave_pool <- inception_4d/output_inception_4d/output_0_split_0
I0509 22:30:05.474864 20634 net.cpp:334] loss2/ave_pool -> loss2/ave_pool
I0509 22:30:05.474874 20634 net.cpp:105] Setting up loss2/ave_pool
I0509 22:30:05.474879 20634 net.cpp:112] Top shape: 32 528 4 4 (270336)
I0509 22:30:05.474885 20634 layer_factory.hpp:74] Creating layer loss2/conv
I0509 22:30:05.474896 20634 net.cpp:76] Creating Layer loss2/conv
I0509 22:30:05.474902 20634 net.cpp:372] loss2/conv <- loss2/ave_pool
I0509 22:30:05.474910 20634 net.cpp:334] loss2/conv -> loss2/conv
I0509 22:30:05.474920 20634 net.cpp:105] Setting up loss2/conv
I0509 22:30:05.475510 20634 net.cpp:112] Top shape: 32 128 4 4 (65536)
I0509 22:30:05.475524 20634 layer_factory.hpp:74] Creating layer loss2/relu_conv
I0509 22:30:05.475533 20634 net.cpp:76] Creating Layer loss2/relu_conv
I0509 22:30:05.475538 20634 net.cpp:372] loss2/relu_conv <- loss2/conv
I0509 22:30:05.475548 20634 net.cpp:323] loss2/relu_conv -> loss2/conv (in-place)
I0509 22:30:05.475555 20634 net.cpp:105] Setting up loss2/relu_conv
I0509 22:30:05.475561 20634 net.cpp:112] Top shape: 32 128 4 4 (65536)
I0509 22:30:05.475566 20634 layer_factory.hpp:74] Creating layer loss2/fc
I0509 22:30:05.475575 20634 net.cpp:76] Creating Layer loss2/fc
I0509 22:30:05.475582 20634 net.cpp:372] loss2/fc <- loss2/conv
I0509 22:30:05.475591 20634 net.cpp:334] loss2/fc -> loss2/fc
I0509 22:30:05.475603 20634 net.cpp:105] Setting up loss2/fc
I0509 22:30:05.493005 20634 net.cpp:112] Top shape: 32 1024 1 1 (32768)
I0509 22:30:05.493052 20634 layer_factory.hpp:74] Creating layer loss2/relu_fc
I0509 22:30:05.493065 20634 net.cpp:76] Creating Layer loss2/relu_fc
I0509 22:30:05.493074 20634 net.cpp:372] loss2/relu_fc <- loss2/fc
I0509 22:30:05.493087 20634 net.cpp:323] loss2/relu_fc -> loss2/fc (in-place)
I0509 22:30:05.493098 20634 net.cpp:105] Setting up loss2/relu_fc
I0509 22:30:05.493104 20634 net.cpp:112] Top shape: 32 1024 1 1 (32768)
I0509 22:30:05.493110 20634 layer_factory.hpp:74] Creating layer loss2/drop_fc
I0509 22:30:05.493119 20634 net.cpp:76] Creating Layer loss2/drop_fc
I0509 22:30:05.493124 20634 net.cpp:372] loss2/drop_fc <- loss2/fc
I0509 22:30:05.493131 20634 net.cpp:323] loss2/drop_fc -> loss2/fc (in-place)
I0509 22:30:05.493139 20634 net.cpp:105] Setting up loss2/drop_fc
I0509 22:30:05.493145 20634 net.cpp:112] Top shape: 32 1024 1 1 (32768)
I0509 22:30:05.493151 20634 layer_factory.hpp:74] Creating layer loss2/classifier
I0509 22:30:05.493161 20634 net.cpp:76] Creating Layer loss2/classifier
I0509 22:30:05.493166 20634 net.cpp:372] loss2/classifier <- loss2/fc
I0509 22:30:05.493181 20634 net.cpp:334] loss2/classifier -> loss2/classifier
I0509 22:30:05.493193 20634 net.cpp:105] Setting up loss2/classifier
I0509 22:30:05.493226 20634 net.cpp:112] Top shape: 32 2 1 1 (64)
I0509 22:30:05.493235 20634 layer_factory.hpp:74] Creating layer loss2/classifier_loss2/classifier_0_split
I0509 22:30:05.493245 20634 net.cpp:76] Creating Layer loss2/classifier_loss2/classifier_0_split
I0509 22:30:05.493252 20634 net.cpp:372] loss2/classifier_loss2/classifier_0_split <- loss2/classifier
I0509 22:30:05.493259 20634 net.cpp:334] loss2/classifier_loss2/classifier_0_split -> loss2/classifier_loss2/classifier_0_split_0
I0509 22:30:05.493268 20634 net.cpp:334] loss2/classifier_loss2/classifier_0_split -> loss2/classifier_loss2/classifier_0_split_1
I0509 22:30:05.493315 20634 net.cpp:105] Setting up loss2/classifier_loss2/classifier_0_split
I0509 22:30:05.493322 20634 net.cpp:112] Top shape: 32 2 1 1 (64)
I0509 22:30:05.493327 20634 net.cpp:112] Top shape: 32 2 1 1 (64)
I0509 22:30:05.493333 20634 layer_factory.hpp:74] Creating layer loss2/loss
I0509 22:30:05.493341 20634 net.cpp:76] Creating Layer loss2/loss
I0509 22:30:05.493346 20634 net.cpp:372] loss2/loss <- loss2/classifier_loss2/classifier_0_split_0
I0509 22:30:05.493355 20634 net.cpp:372] loss2/loss <- label_data_1_split_2
I0509 22:30:05.493366 20634 net.cpp:334] loss2/loss -> loss2/loss1
I0509 22:30:05.493409 20634 net.cpp:105] Setting up loss2/loss
I0509 22:30:05.493418 20634 layer_factory.hpp:74] Creating layer loss2/loss
I0509 22:30:05.493438 20634 net.cpp:112] Top shape: 1 1 1 1 (1)
I0509 22:30:05.493443 20634 net.cpp:118]     with loss weight 0.3
I0509 22:30:05.493461 20634 layer_factory.hpp:74] Creating layer loss2/top-1
I0509 22:30:05.493473 20634 net.cpp:76] Creating Layer loss2/top-1
I0509 22:30:05.493479 20634 net.cpp:372] loss2/top-1 <- loss2/classifier_loss2/classifier_0_split_1
I0509 22:30:05.493485 20634 net.cpp:372] loss2/top-1 <- label_data_1_split_3
I0509 22:30:05.493495 20634 net.cpp:334] loss2/top-1 -> loss2/top-1
I0509 22:30:05.493505 20634 net.cpp:105] Setting up loss2/top-1
I0509 22:30:05.493511 20634 net.cpp:112] Top shape: 1 1 1 1 (1)
I0509 22:30:05.493516 20634 layer_factory.hpp:74] Creating layer inception_4e/1x1
I0509 22:30:05.493526 20634 net.cpp:76] Creating Layer inception_4e/1x1
I0509 22:30:05.493533 20634 net.cpp:372] inception_4e/1x1 <- inception_4d/output_inception_4d/output_0_split_1
I0509 22:30:05.493542 20634 net.cpp:334] inception_4e/1x1 -> inception_4e/1x1
I0509 22:30:05.493551 20634 net.cpp:105] Setting up inception_4e/1x1
I0509 22:30:05.494706 20634 net.cpp:112] Top shape: 32 256 14 14 (1605632)
I0509 22:30:05.494721 20634 layer_factory.hpp:74] Creating layer inception_4e/relu_1x1
I0509 22:30:05.494730 20634 net.cpp:76] Creating Layer inception_4e/relu_1x1
I0509 22:30:05.494736 20634 net.cpp:372] inception_4e/relu_1x1 <- inception_4e/1x1
I0509 22:30:05.494745 20634 net.cpp:323] inception_4e/relu_1x1 -> inception_4e/1x1 (in-place)
I0509 22:30:05.494753 20634 net.cpp:105] Setting up inception_4e/relu_1x1
I0509 22:30:05.494760 20634 net.cpp:112] Top shape: 32 256 14 14 (1605632)
I0509 22:30:05.494765 20634 layer_factory.hpp:74] Creating layer inception_4e/3x3_reduce
I0509 22:30:05.494773 20634 net.cpp:76] Creating Layer inception_4e/3x3_reduce
I0509 22:30:05.494779 20634 net.cpp:372] inception_4e/3x3_reduce <- inception_4d/output_inception_4d/output_0_split_2
I0509 22:30:05.494787 20634 net.cpp:334] inception_4e/3x3_reduce -> inception_4e/3x3_reduce
I0509 22:30:05.494796 20634 net.cpp:105] Setting up inception_4e/3x3_reduce
I0509 22:30:05.495544 20634 net.cpp:112] Top shape: 32 160 14 14 (1003520)
I0509 22:30:05.495559 20634 layer_factory.hpp:74] Creating layer inception_4e/relu_3x3_reduce
I0509 22:30:05.495570 20634 net.cpp:76] Creating Layer inception_4e/relu_3x3_reduce
I0509 22:30:05.495579 20634 net.cpp:372] inception_4e/relu_3x3_reduce <- inception_4e/3x3_reduce
I0509 22:30:05.495585 20634 net.cpp:323] inception_4e/relu_3x3_reduce -> inception_4e/3x3_reduce (in-place)
I0509 22:30:05.495594 20634 net.cpp:105] Setting up inception_4e/relu_3x3_reduce
I0509 22:30:05.495599 20634 net.cpp:112] Top shape: 32 160 14 14 (1003520)
I0509 22:30:05.495604 20634 layer_factory.hpp:74] Creating layer inception_4e/3x3
I0509 22:30:05.495635 20634 net.cpp:76] Creating Layer inception_4e/3x3
I0509 22:30:05.495642 20634 net.cpp:372] inception_4e/3x3 <- inception_4e/3x3_reduce
I0509 22:30:05.495651 20634 net.cpp:334] inception_4e/3x3 -> inception_4e/3x3
I0509 22:30:05.495661 20634 net.cpp:105] Setting up inception_4e/3x3
I0509 22:30:05.499569 20634 net.cpp:112] Top shape: 32 320 14 14 (2007040)
I0509 22:30:05.499599 20634 layer_factory.hpp:74] Creating layer inception_4e/relu_3x3
I0509 22:30:05.499611 20634 net.cpp:76] Creating Layer inception_4e/relu_3x3
I0509 22:30:05.499619 20634 net.cpp:372] inception_4e/relu_3x3 <- inception_4e/3x3
I0509 22:30:05.499630 20634 net.cpp:323] inception_4e/relu_3x3 -> inception_4e/3x3 (in-place)
I0509 22:30:05.499640 20634 net.cpp:105] Setting up inception_4e/relu_3x3
I0509 22:30:05.499646 20634 net.cpp:112] Top shape: 32 320 14 14 (2007040)
I0509 22:30:05.499652 20634 layer_factory.hpp:74] Creating layer inception_4e/5x5_reduce
I0509 22:30:05.499661 20634 net.cpp:76] Creating Layer inception_4e/5x5_reduce
I0509 22:30:05.499668 20634 net.cpp:372] inception_4e/5x5_reduce <- inception_4d/output_inception_4d/output_0_split_3
I0509 22:30:05.499711 20634 net.cpp:334] inception_4e/5x5_reduce -> inception_4e/5x5_reduce
I0509 22:30:05.499722 20634 net.cpp:105] Setting up inception_4e/5x5_reduce
I0509 22:30:05.499876 20634 net.cpp:112] Top shape: 32 32 14 14 (200704)
I0509 22:30:05.499887 20634 layer_factory.hpp:74] Creating layer inception_4e/relu_5x5_reduce
I0509 22:30:05.499897 20634 net.cpp:76] Creating Layer inception_4e/relu_5x5_reduce
I0509 22:30:05.499904 20634 net.cpp:372] inception_4e/relu_5x5_reduce <- inception_4e/5x5_reduce
I0509 22:30:05.499912 20634 net.cpp:323] inception_4e/relu_5x5_reduce -> inception_4e/5x5_reduce (in-place)
I0509 22:30:05.499919 20634 net.cpp:105] Setting up inception_4e/relu_5x5_reduce
I0509 22:30:05.499924 20634 net.cpp:112] Top shape: 32 32 14 14 (200704)
I0509 22:30:05.499930 20634 layer_factory.hpp:74] Creating layer inception_4e/5x5
I0509 22:30:05.499940 20634 net.cpp:76] Creating Layer inception_4e/5x5
I0509 22:30:05.499946 20634 net.cpp:372] inception_4e/5x5 <- inception_4e/5x5_reduce
I0509 22:30:05.499954 20634 net.cpp:334] inception_4e/5x5 -> inception_4e/5x5
I0509 22:30:05.499963 20634 net.cpp:105] Setting up inception_4e/5x5
I0509 22:30:05.500843 20634 net.cpp:112] Top shape: 32 128 14 14 (802816)
I0509 22:30:05.500856 20634 layer_factory.hpp:74] Creating layer inception_4e/relu_5x5
I0509 22:30:05.500864 20634 net.cpp:76] Creating Layer inception_4e/relu_5x5
I0509 22:30:05.500870 20634 net.cpp:372] inception_4e/relu_5x5 <- inception_4e/5x5
I0509 22:30:05.500880 20634 net.cpp:323] inception_4e/relu_5x5 -> inception_4e/5x5 (in-place)
I0509 22:30:05.500888 20634 net.cpp:105] Setting up inception_4e/relu_5x5
I0509 22:30:05.500893 20634 net.cpp:112] Top shape: 32 128 14 14 (802816)
I0509 22:30:05.500900 20634 layer_factory.hpp:74] Creating layer inception_4e/pool
I0509 22:30:05.500907 20634 net.cpp:76] Creating Layer inception_4e/pool
I0509 22:30:05.500938 20634 net.cpp:372] inception_4e/pool <- inception_4d/output_inception_4d/output_0_split_4
I0509 22:30:05.500948 20634 net.cpp:334] inception_4e/pool -> inception_4e/pool
I0509 22:30:05.500957 20634 net.cpp:105] Setting up inception_4e/pool
I0509 22:30:05.500967 20634 net.cpp:112] Top shape: 32 528 14 14 (3311616)
I0509 22:30:05.500972 20634 layer_factory.hpp:74] Creating layer inception_4e/pool_proj
I0509 22:30:05.500983 20634 net.cpp:76] Creating Layer inception_4e/pool_proj
I0509 22:30:05.500990 20634 net.cpp:372] inception_4e/pool_proj <- inception_4e/pool
I0509 22:30:05.501000 20634 net.cpp:334] inception_4e/pool_proj -> inception_4e/pool_proj
I0509 22:30:05.501009 20634 net.cpp:105] Setting up inception_4e/pool_proj
I0509 22:30:05.501592 20634 net.cpp:112] Top shape: 32 128 14 14 (802816)
I0509 22:30:05.501605 20634 layer_factory.hpp:74] Creating layer inception_4e/relu_pool_proj
I0509 22:30:05.501616 20634 net.cpp:76] Creating Layer inception_4e/relu_pool_proj
I0509 22:30:05.501621 20634 net.cpp:372] inception_4e/relu_pool_proj <- inception_4e/pool_proj
I0509 22:30:05.501629 20634 net.cpp:323] inception_4e/relu_pool_proj -> inception_4e/pool_proj (in-place)
I0509 22:30:05.501636 20634 net.cpp:105] Setting up inception_4e/relu_pool_proj
I0509 22:30:05.501642 20634 net.cpp:112] Top shape: 32 128 14 14 (802816)
I0509 22:30:05.501648 20634 layer_factory.hpp:74] Creating layer inception_4e/output
I0509 22:30:05.501657 20634 net.cpp:76] Creating Layer inception_4e/output
I0509 22:30:05.501663 20634 net.cpp:372] inception_4e/output <- inception_4e/1x1
I0509 22:30:05.501670 20634 net.cpp:372] inception_4e/output <- inception_4e/3x3
I0509 22:30:05.501677 20634 net.cpp:372] inception_4e/output <- inception_4e/5x5
I0509 22:30:05.501683 20634 net.cpp:372] inception_4e/output <- inception_4e/pool_proj
I0509 22:30:05.501690 20634 net.cpp:334] inception_4e/output -> inception_4e/output
I0509 22:30:05.501699 20634 net.cpp:105] Setting up inception_4e/output
I0509 22:30:05.501705 20634 net.cpp:112] Top shape: 32 832 14 14 (5218304)
I0509 22:30:05.501711 20634 layer_factory.hpp:74] Creating layer pool4/3x3_s2
I0509 22:30:05.501718 20634 net.cpp:76] Creating Layer pool4/3x3_s2
I0509 22:30:05.501737 20634 net.cpp:372] pool4/3x3_s2 <- inception_4e/output
I0509 22:30:05.501747 20634 net.cpp:334] pool4/3x3_s2 -> pool4/3x3_s2
I0509 22:30:05.501756 20634 net.cpp:105] Setting up pool4/3x3_s2
I0509 22:30:05.502575 20634 net.cpp:112] Top shape: 32 832 7 7 (1304576)
I0509 22:30:05.502588 20634 layer_factory.hpp:74] Creating layer pool4/3x3_s2_pool4/3x3_s2_0_split
I0509 22:30:05.502606 20634 net.cpp:76] Creating Layer pool4/3x3_s2_pool4/3x3_s2_0_split
I0509 22:30:05.502616 20634 net.cpp:372] pool4/3x3_s2_pool4/3x3_s2_0_split <- pool4/3x3_s2
I0509 22:30:05.502629 20634 net.cpp:334] pool4/3x3_s2_pool4/3x3_s2_0_split -> pool4/3x3_s2_pool4/3x3_s2_0_split_0
I0509 22:30:05.502645 20634 net.cpp:334] pool4/3x3_s2_pool4/3x3_s2_0_split -> pool4/3x3_s2_pool4/3x3_s2_0_split_1
I0509 22:30:05.502663 20634 net.cpp:334] pool4/3x3_s2_pool4/3x3_s2_0_split -> pool4/3x3_s2_pool4/3x3_s2_0_split_2
I0509 22:30:05.502679 20634 net.cpp:334] pool4/3x3_s2_pool4/3x3_s2_0_split -> pool4/3x3_s2_pool4/3x3_s2_0_split_3
I0509 22:30:05.502691 20634 net.cpp:105] Setting up pool4/3x3_s2_pool4/3x3_s2_0_split
I0509 22:30:05.502702 20634 net.cpp:112] Top shape: 32 832 7 7 (1304576)
I0509 22:30:05.502712 20634 net.cpp:112] Top shape: 32 832 7 7 (1304576)
I0509 22:30:05.502719 20634 net.cpp:112] Top shape: 32 832 7 7 (1304576)
I0509 22:30:05.502727 20634 net.cpp:112] Top shape: 32 832 7 7 (1304576)
I0509 22:30:05.502737 20634 layer_factory.hpp:74] Creating layer inception_5a/1x1
I0509 22:30:05.502750 20634 net.cpp:76] Creating Layer inception_5a/1x1
I0509 22:30:05.502760 20634 net.cpp:372] inception_5a/1x1 <- pool4/3x3_s2_pool4/3x3_s2_0_split_0
I0509 22:30:05.502778 20634 net.cpp:334] inception_5a/1x1 -> inception_5a/1x1
I0509 22:30:05.502799 20634 net.cpp:105] Setting up inception_5a/1x1
I0509 22:30:05.504819 20634 net.cpp:112] Top shape: 32 256 7 7 (401408)
I0509 22:30:05.504840 20634 layer_factory.hpp:74] Creating layer inception_5a/relu_1x1
I0509 22:30:05.504849 20634 net.cpp:76] Creating Layer inception_5a/relu_1x1
I0509 22:30:05.504856 20634 net.cpp:372] inception_5a/relu_1x1 <- inception_5a/1x1
I0509 22:30:05.504863 20634 net.cpp:323] inception_5a/relu_1x1 -> inception_5a/1x1 (in-place)
I0509 22:30:05.504871 20634 net.cpp:105] Setting up inception_5a/relu_1x1
I0509 22:30:05.504878 20634 net.cpp:112] Top shape: 32 256 7 7 (401408)
I0509 22:30:05.504885 20634 layer_factory.hpp:74] Creating layer inception_5a/3x3_reduce
I0509 22:30:05.504899 20634 net.cpp:76] Creating Layer inception_5a/3x3_reduce
I0509 22:30:05.504906 20634 net.cpp:372] inception_5a/3x3_reduce <- pool4/3x3_s2_pool4/3x3_s2_0_split_1
I0509 22:30:05.504916 20634 net.cpp:334] inception_5a/3x3_reduce -> inception_5a/3x3_reduce
I0509 22:30:05.504926 20634 net.cpp:105] Setting up inception_5a/3x3_reduce
I0509 22:30:05.506050 20634 net.cpp:112] Top shape: 32 160 7 7 (250880)
I0509 22:30:05.506065 20634 layer_factory.hpp:74] Creating layer inception_5a/relu_3x3_reduce
I0509 22:30:05.506073 20634 net.cpp:76] Creating Layer inception_5a/relu_3x3_reduce
I0509 22:30:05.506083 20634 net.cpp:372] inception_5a/relu_3x3_reduce <- inception_5a/3x3_reduce
I0509 22:30:05.506093 20634 net.cpp:323] inception_5a/relu_3x3_reduce -> inception_5a/3x3_reduce (in-place)
I0509 22:30:05.506103 20634 net.cpp:105] Setting up inception_5a/relu_3x3_reduce
I0509 22:30:05.506108 20634 net.cpp:112] Top shape: 32 160 7 7 (250880)
I0509 22:30:05.506114 20634 layer_factory.hpp:74] Creating layer inception_5a/3x3
I0509 22:30:05.506121 20634 net.cpp:76] Creating Layer inception_5a/3x3
I0509 22:30:05.506127 20634 net.cpp:372] inception_5a/3x3 <- inception_5a/3x3_reduce
I0509 22:30:05.506137 20634 net.cpp:334] inception_5a/3x3 -> inception_5a/3x3
I0509 22:30:05.506146 20634 net.cpp:105] Setting up inception_5a/3x3
I0509 22:30:05.510012 20634 net.cpp:112] Top shape: 32 320 7 7 (501760)
I0509 22:30:05.510040 20634 layer_factory.hpp:74] Creating layer inception_5a/relu_3x3
I0509 22:30:05.510051 20634 net.cpp:76] Creating Layer inception_5a/relu_3x3
I0509 22:30:05.510057 20634 net.cpp:372] inception_5a/relu_3x3 <- inception_5a/3x3
I0509 22:30:05.510100 20634 net.cpp:323] inception_5a/relu_3x3 -> inception_5a/3x3 (in-place)
I0509 22:30:05.510110 20634 net.cpp:105] Setting up inception_5a/relu_3x3
I0509 22:30:05.510117 20634 net.cpp:112] Top shape: 32 320 7 7 (501760)
I0509 22:30:05.510123 20634 layer_factory.hpp:74] Creating layer inception_5a/5x5_reduce
I0509 22:30:05.510133 20634 net.cpp:76] Creating Layer inception_5a/5x5_reduce
I0509 22:30:05.510143 20634 net.cpp:372] inception_5a/5x5_reduce <- pool4/3x3_s2_pool4/3x3_s2_0_split_2
I0509 22:30:05.510151 20634 net.cpp:334] inception_5a/5x5_reduce -> inception_5a/5x5_reduce
I0509 22:30:05.510161 20634 net.cpp:105] Setting up inception_5a/5x5_reduce
I0509 22:30:05.510411 20634 net.cpp:112] Top shape: 32 32 7 7 (50176)
I0509 22:30:05.510424 20634 layer_factory.hpp:74] Creating layer inception_5a/relu_5x5_reduce
I0509 22:30:05.510432 20634 net.cpp:76] Creating Layer inception_5a/relu_5x5_reduce
I0509 22:30:05.510438 20634 net.cpp:372] inception_5a/relu_5x5_reduce <- inception_5a/5x5_reduce
I0509 22:30:05.510447 20634 net.cpp:323] inception_5a/relu_5x5_reduce -> inception_5a/5x5_reduce (in-place)
I0509 22:30:05.510457 20634 net.cpp:105] Setting up inception_5a/relu_5x5_reduce
I0509 22:30:05.510462 20634 net.cpp:112] Top shape: 32 32 7 7 (50176)
I0509 22:30:05.510468 20634 layer_factory.hpp:74] Creating layer inception_5a/5x5
I0509 22:30:05.510476 20634 net.cpp:76] Creating Layer inception_5a/5x5
I0509 22:30:05.510481 20634 net.cpp:372] inception_5a/5x5 <- inception_5a/5x5_reduce
I0509 22:30:05.510493 20634 net.cpp:334] inception_5a/5x5 -> inception_5a/5x5
I0509 22:30:05.510501 20634 net.cpp:105] Setting up inception_5a/5x5
I0509 22:30:05.511373 20634 net.cpp:112] Top shape: 32 128 7 7 (200704)
I0509 22:30:05.511389 20634 layer_factory.hpp:74] Creating layer inception_5a/relu_5x5
I0509 22:30:05.511397 20634 net.cpp:76] Creating Layer inception_5a/relu_5x5
I0509 22:30:05.511404 20634 net.cpp:372] inception_5a/relu_5x5 <- inception_5a/5x5
I0509 22:30:05.511410 20634 net.cpp:323] inception_5a/relu_5x5 -> inception_5a/5x5 (in-place)
I0509 22:30:05.511418 20634 net.cpp:105] Setting up inception_5a/relu_5x5
I0509 22:30:05.511423 20634 net.cpp:112] Top shape: 32 128 7 7 (200704)
I0509 22:30:05.511430 20634 layer_factory.hpp:74] Creating layer inception_5a/pool
I0509 22:30:05.511437 20634 net.cpp:76] Creating Layer inception_5a/pool
I0509 22:30:05.511443 20634 net.cpp:372] inception_5a/pool <- pool4/3x3_s2_pool4/3x3_s2_0_split_3
I0509 22:30:05.511453 20634 net.cpp:334] inception_5a/pool -> inception_5a/pool
I0509 22:30:05.511482 20634 net.cpp:105] Setting up inception_5a/pool
I0509 22:30:05.511494 20634 net.cpp:112] Top shape: 32 832 7 7 (1304576)
I0509 22:30:05.511502 20634 layer_factory.hpp:74] Creating layer inception_5a/pool_proj
I0509 22:30:05.511510 20634 net.cpp:76] Creating Layer inception_5a/pool_proj
I0509 22:30:05.511517 20634 net.cpp:372] inception_5a/pool_proj <- inception_5a/pool
I0509 22:30:05.511528 20634 net.cpp:334] inception_5a/pool_proj -> inception_5a/pool_proj
I0509 22:30:05.511536 20634 net.cpp:105] Setting up inception_5a/pool_proj
I0509 22:30:05.512435 20634 net.cpp:112] Top shape: 32 128 7 7 (200704)
I0509 22:30:05.512449 20634 layer_factory.hpp:74] Creating layer inception_5a/relu_pool_proj
I0509 22:30:05.512457 20634 net.cpp:76] Creating Layer inception_5a/relu_pool_proj
I0509 22:30:05.512464 20634 net.cpp:372] inception_5a/relu_pool_proj <- inception_5a/pool_proj
I0509 22:30:05.512473 20634 net.cpp:323] inception_5a/relu_pool_proj -> inception_5a/pool_proj (in-place)
I0509 22:30:05.512481 20634 net.cpp:105] Setting up inception_5a/relu_pool_proj
I0509 22:30:05.512487 20634 net.cpp:112] Top shape: 32 128 7 7 (200704)
I0509 22:30:05.512492 20634 layer_factory.hpp:74] Creating layer inception_5a/output
I0509 22:30:05.512501 20634 net.cpp:76] Creating Layer inception_5a/output
I0509 22:30:05.512506 20634 net.cpp:372] inception_5a/output <- inception_5a/1x1
I0509 22:30:05.512513 20634 net.cpp:372] inception_5a/output <- inception_5a/3x3
I0509 22:30:05.512533 20634 net.cpp:372] inception_5a/output <- inception_5a/5x5
I0509 22:30:05.512540 20634 net.cpp:372] inception_5a/output <- inception_5a/pool_proj
I0509 22:30:05.512550 20634 net.cpp:334] inception_5a/output -> inception_5a/output
I0509 22:30:05.512559 20634 net.cpp:105] Setting up inception_5a/output
I0509 22:30:05.512565 20634 net.cpp:112] Top shape: 32 832 7 7 (1304576)
I0509 22:30:05.512572 20634 layer_factory.hpp:74] Creating layer inception_5a/output_inception_5a/output_0_split
I0509 22:30:05.512580 20634 net.cpp:76] Creating Layer inception_5a/output_inception_5a/output_0_split
I0509 22:30:05.512614 20634 net.cpp:372] inception_5a/output_inception_5a/output_0_split <- inception_5a/output
I0509 22:30:05.512622 20634 net.cpp:334] inception_5a/output_inception_5a/output_0_split -> inception_5a/output_inception_5a/output_0_split_0
I0509 22:30:05.512632 20634 net.cpp:334] inception_5a/output_inception_5a/output_0_split -> inception_5a/output_inception_5a/output_0_split_1
I0509 22:30:05.512642 20634 net.cpp:334] inception_5a/output_inception_5a/output_0_split -> inception_5a/output_inception_5a/output_0_split_2
I0509 22:30:05.512651 20634 net.cpp:334] inception_5a/output_inception_5a/output_0_split -> inception_5a/output_inception_5a/output_0_split_3
I0509 22:30:05.512658 20634 net.cpp:105] Setting up inception_5a/output_inception_5a/output_0_split
I0509 22:30:05.512665 20634 net.cpp:112] Top shape: 32 832 7 7 (1304576)
I0509 22:30:05.512670 20634 net.cpp:112] Top shape: 32 832 7 7 (1304576)
I0509 22:30:05.512676 20634 net.cpp:112] Top shape: 32 832 7 7 (1304576)
I0509 22:30:05.512681 20634 net.cpp:112] Top shape: 32 832 7 7 (1304576)
I0509 22:30:05.512686 20634 layer_factory.hpp:74] Creating layer inception_5b/1x1
I0509 22:30:05.512697 20634 net.cpp:76] Creating Layer inception_5b/1x1
I0509 22:30:05.512703 20634 net.cpp:372] inception_5b/1x1 <- inception_5a/output_inception_5a/output_0_split_0
I0509 22:30:05.512713 20634 net.cpp:334] inception_5b/1x1 -> inception_5b/1x1
I0509 22:30:05.512722 20634 net.cpp:105] Setting up inception_5b/1x1
I0509 22:30:05.515393 20634 net.cpp:112] Top shape: 32 384 7 7 (602112)
I0509 22:30:05.515411 20634 layer_factory.hpp:74] Creating layer inception_5b/relu_1x1
I0509 22:30:05.515420 20634 net.cpp:76] Creating Layer inception_5b/relu_1x1
I0509 22:30:05.515426 20634 net.cpp:372] inception_5b/relu_1x1 <- inception_5b/1x1
I0509 22:30:05.515436 20634 net.cpp:323] inception_5b/relu_1x1 -> inception_5b/1x1 (in-place)
I0509 22:30:05.515445 20634 net.cpp:105] Setting up inception_5b/relu_1x1
I0509 22:30:05.515451 20634 net.cpp:112] Top shape: 32 384 7 7 (602112)
I0509 22:30:05.515456 20634 layer_factory.hpp:74] Creating layer inception_5b/3x3_reduce
I0509 22:30:05.515465 20634 net.cpp:76] Creating Layer inception_5b/3x3_reduce
I0509 22:30:05.515471 20634 net.cpp:372] inception_5b/3x3_reduce <- inception_5a/output_inception_5a/output_0_split_1
I0509 22:30:05.515485 20634 net.cpp:334] inception_5b/3x3_reduce -> inception_5b/3x3_reduce
I0509 22:30:05.515494 20634 net.cpp:105] Setting up inception_5b/3x3_reduce
I0509 22:30:05.516834 20634 net.cpp:112] Top shape: 32 192 7 7 (301056)
I0509 22:30:05.516850 20634 layer_factory.hpp:74] Creating layer inception_5b/relu_3x3_reduce
I0509 22:30:05.516860 20634 net.cpp:76] Creating Layer inception_5b/relu_3x3_reduce
I0509 22:30:05.516865 20634 net.cpp:372] inception_5b/relu_3x3_reduce <- inception_5b/3x3_reduce
I0509 22:30:05.516873 20634 net.cpp:323] inception_5b/relu_3x3_reduce -> inception_5b/3x3_reduce (in-place)
I0509 22:30:05.516880 20634 net.cpp:105] Setting up inception_5b/relu_3x3_reduce
I0509 22:30:05.516886 20634 net.cpp:112] Top shape: 32 192 7 7 (301056)
I0509 22:30:05.516892 20634 layer_factory.hpp:74] Creating layer inception_5b/3x3
I0509 22:30:05.516901 20634 net.cpp:76] Creating Layer inception_5b/3x3
I0509 22:30:05.516906 20634 net.cpp:372] inception_5b/3x3 <- inception_5b/3x3_reduce
I0509 22:30:05.516919 20634 net.cpp:334] inception_5b/3x3 -> inception_5b/3x3
I0509 22:30:05.516928 20634 net.cpp:105] Setting up inception_5b/3x3
I0509 22:30:05.522472 20634 net.cpp:112] Top shape: 32 384 7 7 (602112)
I0509 22:30:05.522502 20634 layer_factory.hpp:74] Creating layer inception_5b/relu_3x3
I0509 22:30:05.522513 20634 net.cpp:76] Creating Layer inception_5b/relu_3x3
I0509 22:30:05.523686 20634 net.cpp:372] inception_5b/relu_3x3 <- inception_5b/3x3
I0509 22:30:05.523701 20634 net.cpp:323] inception_5b/relu_3x3 -> inception_5b/3x3 (in-place)
I0509 22:30:05.523712 20634 net.cpp:105] Setting up inception_5b/relu_3x3
I0509 22:30:05.523718 20634 net.cpp:112] Top shape: 32 384 7 7 (602112)
I0509 22:30:05.523725 20634 layer_factory.hpp:74] Creating layer inception_5b/5x5_reduce
I0509 22:30:05.523735 20634 net.cpp:76] Creating Layer inception_5b/5x5_reduce
I0509 22:30:05.523741 20634 net.cpp:372] inception_5b/5x5_reduce <- inception_5a/output_inception_5a/output_0_split_2
I0509 22:30:05.523751 20634 net.cpp:334] inception_5b/5x5_reduce -> inception_5b/5x5_reduce
I0509 22:30:05.523761 20634 net.cpp:105] Setting up inception_5b/5x5_reduce
I0509 22:30:05.524117 20634 net.cpp:112] Top shape: 32 48 7 7 (75264)
I0509 22:30:05.524132 20634 layer_factory.hpp:74] Creating layer inception_5b/relu_5x5_reduce
I0509 22:30:05.524142 20634 net.cpp:76] Creating Layer inception_5b/relu_5x5_reduce
I0509 22:30:05.524147 20634 net.cpp:372] inception_5b/relu_5x5_reduce <- inception_5b/5x5_reduce
I0509 22:30:05.524154 20634 net.cpp:323] inception_5b/relu_5x5_reduce -> inception_5b/5x5_reduce (in-place)
I0509 22:30:05.524163 20634 net.cpp:105] Setting up inception_5b/relu_5x5_reduce
I0509 22:30:05.524168 20634 net.cpp:112] Top shape: 32 48 7 7 (75264)
I0509 22:30:05.524173 20634 layer_factory.hpp:74] Creating layer inception_5b/5x5
I0509 22:30:05.524183 20634 net.cpp:76] Creating Layer inception_5b/5x5
I0509 22:30:05.524189 20634 net.cpp:372] inception_5b/5x5 <- inception_5b/5x5_reduce
I0509 22:30:05.524197 20634 net.cpp:334] inception_5b/5x5 -> inception_5b/5x5
I0509 22:30:05.524205 20634 net.cpp:105] Setting up inception_5b/5x5
I0509 22:30:05.525506 20634 net.cpp:112] Top shape: 32 128 7 7 (200704)
I0509 22:30:05.525523 20634 layer_factory.hpp:74] Creating layer inception_5b/relu_5x5
I0509 22:30:05.525532 20634 net.cpp:76] Creating Layer inception_5b/relu_5x5
I0509 22:30:05.525538 20634 net.cpp:372] inception_5b/relu_5x5 <- inception_5b/5x5
I0509 22:30:05.525545 20634 net.cpp:323] inception_5b/relu_5x5 -> inception_5b/5x5 (in-place)
I0509 22:30:05.525552 20634 net.cpp:105] Setting up inception_5b/relu_5x5
I0509 22:30:05.525558 20634 net.cpp:112] Top shape: 32 128 7 7 (200704)
I0509 22:30:05.525563 20634 layer_factory.hpp:74] Creating layer inception_5b/pool
I0509 22:30:05.525578 20634 net.cpp:76] Creating Layer inception_5b/pool
I0509 22:30:05.525583 20634 net.cpp:372] inception_5b/pool <- inception_5a/output_inception_5a/output_0_split_3
I0509 22:30:05.525591 20634 net.cpp:334] inception_5b/pool -> inception_5b/pool
I0509 22:30:05.525600 20634 net.cpp:105] Setting up inception_5b/pool
I0509 22:30:05.525609 20634 net.cpp:112] Top shape: 32 832 7 7 (1304576)
I0509 22:30:05.525614 20634 layer_factory.hpp:74] Creating layer inception_5b/pool_proj
I0509 22:30:05.525624 20634 net.cpp:76] Creating Layer inception_5b/pool_proj
I0509 22:30:05.525629 20634 net.cpp:372] inception_5b/pool_proj <- inception_5b/pool
I0509 22:30:05.525640 20634 net.cpp:334] inception_5b/pool_proj -> inception_5b/pool_proj
I0509 22:30:05.525648 20634 net.cpp:105] Setting up inception_5b/pool_proj
I0509 22:30:05.526551 20634 net.cpp:112] Top shape: 32 128 7 7 (200704)
I0509 22:30:05.526566 20634 layer_factory.hpp:74] Creating layer inception_5b/relu_pool_proj
I0509 22:30:05.526574 20634 net.cpp:76] Creating Layer inception_5b/relu_pool_proj
I0509 22:30:05.526581 20634 net.cpp:372] inception_5b/relu_pool_proj <- inception_5b/pool_proj
I0509 22:30:05.526587 20634 net.cpp:323] inception_5b/relu_pool_proj -> inception_5b/pool_proj (in-place)
I0509 22:30:05.526595 20634 net.cpp:105] Setting up inception_5b/relu_pool_proj
I0509 22:30:05.526602 20634 net.cpp:112] Top shape: 32 128 7 7 (200704)
I0509 22:30:05.526607 20634 layer_factory.hpp:74] Creating layer inception_5b/output
I0509 22:30:05.526648 20634 net.cpp:76] Creating Layer inception_5b/output
I0509 22:30:05.526655 20634 net.cpp:372] inception_5b/output <- inception_5b/1x1
I0509 22:30:05.526662 20634 net.cpp:372] inception_5b/output <- inception_5b/3x3
I0509 22:30:05.526669 20634 net.cpp:372] inception_5b/output <- inception_5b/5x5
I0509 22:30:05.526675 20634 net.cpp:372] inception_5b/output <- inception_5b/pool_proj
I0509 22:30:05.526684 20634 net.cpp:334] inception_5b/output -> inception_5b/output
I0509 22:30:05.526691 20634 net.cpp:105] Setting up inception_5b/output
I0509 22:30:05.526698 20634 net.cpp:112] Top shape: 32 1024 7 7 (1605632)
I0509 22:30:05.526703 20634 layer_factory.hpp:74] Creating layer pool5/7x7_s1
I0509 22:30:05.526711 20634 net.cpp:76] Creating Layer pool5/7x7_s1
I0509 22:30:05.526720 20634 net.cpp:372] pool5/7x7_s1 <- inception_5b/output
I0509 22:30:05.526727 20634 net.cpp:334] pool5/7x7_s1 -> pool5/7x7_s1
I0509 22:30:05.526736 20634 net.cpp:105] Setting up pool5/7x7_s1
I0509 22:30:05.526742 20634 net.cpp:112] Top shape: 32 1024 1 1 (32768)
I0509 22:30:05.526747 20634 layer_factory.hpp:74] Creating layer pool5/drop_7x7_s1
I0509 22:30:05.526756 20634 net.cpp:76] Creating Layer pool5/drop_7x7_s1
I0509 22:30:05.526762 20634 net.cpp:372] pool5/drop_7x7_s1 <- pool5/7x7_s1
I0509 22:30:05.526768 20634 net.cpp:323] pool5/drop_7x7_s1 -> pool5/7x7_s1 (in-place)
I0509 22:30:05.526777 20634 net.cpp:105] Setting up pool5/drop_7x7_s1
I0509 22:30:05.526783 20634 net.cpp:112] Top shape: 32 1024 1 1 (32768)
I0509 22:30:05.526788 20634 layer_factory.hpp:74] Creating layer loss3/classifier
I0509 22:30:05.526799 20634 net.cpp:76] Creating Layer loss3/classifier
I0509 22:30:05.526805 20634 net.cpp:372] loss3/classifier <- pool5/7x7_s1
I0509 22:30:05.526813 20634 net.cpp:334] loss3/classifier -> loss3/classifier
I0509 22:30:05.526826 20634 net.cpp:105] Setting up loss3/classifier
I0509 22:30:05.526859 20634 net.cpp:112] Top shape: 32 2 1 1 (64)
I0509 22:30:05.526870 20634 layer_factory.hpp:74] Creating layer loss3/classifier_loss3/classifier_0_split
I0509 22:30:05.526878 20634 net.cpp:76] Creating Layer loss3/classifier_loss3/classifier_0_split
I0509 22:30:05.526883 20634 net.cpp:372] loss3/classifier_loss3/classifier_0_split <- loss3/classifier
I0509 22:30:05.526891 20634 net.cpp:334] loss3/classifier_loss3/classifier_0_split -> loss3/classifier_loss3/classifier_0_split_0
I0509 22:30:05.526901 20634 net.cpp:334] loss3/classifier_loss3/classifier_0_split -> loss3/classifier_loss3/classifier_0_split_1
I0509 22:30:05.526908 20634 net.cpp:105] Setting up loss3/classifier_loss3/classifier_0_split
I0509 22:30:05.526914 20634 net.cpp:112] Top shape: 32 2 1 1 (64)
I0509 22:30:05.526921 20634 net.cpp:112] Top shape: 32 2 1 1 (64)
I0509 22:30:05.526926 20634 layer_factory.hpp:74] Creating layer loss3/loss3
I0509 22:30:05.526936 20634 net.cpp:76] Creating Layer loss3/loss3
I0509 22:30:05.526942 20634 net.cpp:372] loss3/loss3 <- loss3/classifier_loss3/classifier_0_split_0
I0509 22:30:05.526948 20634 net.cpp:372] loss3/loss3 <- label_data_1_split_4
I0509 22:30:05.526957 20634 net.cpp:334] loss3/loss3 -> loss3/loss3
I0509 22:30:05.526964 20634 net.cpp:105] Setting up loss3/loss3
I0509 22:30:05.526973 20634 layer_factory.hpp:74] Creating layer loss3/loss3
I0509 22:30:05.526988 20634 net.cpp:112] Top shape: 1 1 1 1 (1)
I0509 22:30:05.526993 20634 net.cpp:118]     with loss weight 1
I0509 22:30:05.527011 20634 layer_factory.hpp:74] Creating layer loss3/top-1
I0509 22:30:05.527019 20634 net.cpp:76] Creating Layer loss3/top-1
I0509 22:30:05.527025 20634 net.cpp:372] loss3/top-1 <- loss3/classifier_loss3/classifier_0_split_1
I0509 22:30:05.527036 20634 net.cpp:372] loss3/top-1 <- label_data_1_split_5
I0509 22:30:05.527045 20634 net.cpp:334] loss3/top-1 -> loss3/top-1
I0509 22:30:05.527055 20634 net.cpp:105] Setting up loss3/top-1
I0509 22:30:05.527060 20634 net.cpp:112] Top shape: 1 1 1 1 (1)
I0509 22:30:05.527066 20634 net.cpp:165] loss3/top-1 does not need backward computation.
I0509 22:30:05.527071 20634 net.cpp:163] loss3/loss3 needs backward computation.
I0509 22:30:05.527086 20634 net.cpp:163] loss3/classifier_loss3/classifier_0_split needs backward computation.
I0509 22:30:05.527092 20634 net.cpp:163] loss3/classifier needs backward computation.
I0509 22:30:05.527097 20634 net.cpp:163] pool5/drop_7x7_s1 needs backward computation.
…
